…
                  Copyright 1984-2016 The MathWorks, Inc.
                   R2016b (9.1.0.441655) 64-bit (glnxa64)
                             September 7, 2016

 
To get started, type one of these: helpwin, helpdesk, or demo.
For product information, visit www.mathworks.com.
 
[H[2J
data_name =

cityscapes


step =

   500


gpu_id_array =

     0

WARNING: Logging before InitGoogleLogging() is written to STDERR
I0620 03:59:13.300537   848 net.cpp:49] Initializing net from parameters: 
input: "data"
input_dim: 1
input_dim: 3
input_dim: 473
input_dim: 473
state {
  phase: TEST
}
layer {
  name: "conv1_1_3x3_s2"
  type: "Convolution"
  bottom: "data"
  top: "conv1_1_3x3_s2"
  param {
    lr_mult: 1
    decay_mult: 1
  }
  convolution_param {
    num_output: 64
    bias_term: false
    pad: 1
    kernel_size: 3
    stride: 2
    weight_filler {
      type: "msra"
    }
  }
}
layer {
  name: "conv1_1_3x3_s2/bn"
  type: "BN"
  bottom: "conv1_1_3x3_s2"
  top: "conv1_1_3x3_s2"
  param {
    lr_mult: 1
    decay_mult: 0
  }
  param {
    lr_mult: 1
    decay_mult: 0
  }
  param {
    lr_mult: 0
    decay_mult: 0
  }
  param {
    lr_mult: 0
    decay_mult: 0
  }
  bn_param {
    slope_filler {
      type: "constant"
      value: 1
    }
    bias_filler {
      type: "constant"
      value: 0
    }
    momentum: 0.95
    frozen: true
  }
}
layer {
  name: "conv1_1_3x3_s2/relu"
  type: "ReLU"
  bottom: "conv1_1_3x3_s2"
  top: "conv1_1_3x3_s2"
}
layer {
  name: "conv1_2_3x3"
  type: "Convolution"
  bottom: "conv1_1_3x3_s2"
  top: "conv1_2_3x3"
  param {
    lr_mult: 1
    decay_mult: 1
  }
  convolution_param {
    num_output: 64
    bias_term: false
    pad: 1
    kernel_size: 3
    stride: 1
    weight_filler {
      type: "msra"
    }
  }
}
layer {
  name: "conv1_2_3x3/bn"
  type: "BN"
  bottom: "conv1_2_3x3"
  top: "conv1_2_3x3"
  param {
    lr_mult: 1
    decay_mult: 0
  }
  param {
    lr_mult: 1
    decay_mult: 0
  }
  param {
    lr_mult: 0
    decay_mult: 0
  }
  param {
    lr_mult: 0
    decay_mult: 0
  }
  bn_param {
    slope_filler {
      type: "constant"
      value: 1
    }
    bias_filler {
      type: "constant"
      value: 0
    }
    momentum: 0.95
    frozen: true
  }
}
layer {
  name: "conv1_2_3x3/relu"
  type: "ReLU"
  bottom: "conv1_2_3x3"
  top: "conv1_2_3x3"
}
layer {
  name: "conv1_3_3x3"
  type: "Convolution"
  bottom: "conv1_2_3x3"
  top: "conv1_3_3x3"
  param {
    lr_mult: 1
    decay_mult: 1
  }
  convolution_param {
    num_output: 128
    bias_term: false
    pad: 1
    kernel_size: 3
    stride: 1
    weight_filler {
      type: "msra"
    }
  }
}
layer {
  name: "conv1_3_3x3/bn"
  type: "BN"
  bottom: "conv1_3_3x3"
  top: "conv1_3_3x3"
  param {
    lr_mult: 1
    decay_mult: 0
  }
  param {
    lr_mult: 1
    decay_mult: 0
  }
  param {
    lr_mult: 0
    decay_mult: 0
  }
  param {
    lr_mult: 0
    decay_mult: 0
  }
  bn_param {
    slope_filler {
      type: "constant"
      value: 1
    }
    bias_filler {
      type: "constant"
      value: 0
    }
    momentum: 0.95
    frozen: true
  }
}
layer {
  name: "conv1_3_3x3/relu"
  type: "ReLU"
  bottom: "conv1_3_3x3"
  top: "conv1_3_3x3"
}
layer {
  name: "pool1_3x3_s2"
  type: "Pooling"
  bottom: "conv1_3_3x3"
  top: "pool1_3x3_s2"
  pooling_param {
    pool: MAX
    kernel_size: 3
    stride: 2
    pad: 1
  }
}
layer {
  name: "conv2_1_1x1_reduce"
  type: "Convolution"
  bottom: "pool1_3x3_s2"
  top: "conv2_1_1x1_reduce"
  param {
    lr_mult: 1
    decay_mult: 1
  }
  convolution_param {
    num_output: 64
    bias_term: false
    pad: 0
    kernel_size: 1
    stride: 1
    weight_filler {
      type: "msra"
    }
  }
}
layer {
  name: "conv2_1_1x1_reduce/bn"
  type: "BN"
  bottom: "conv2_1_1x1_reduce"
  top: "conv2_1_1x1_reduce"
  param {
    lr_mult: 1
    decay_mult: 0
  }
  param {
    lr_mult: 1
    decay_mult: 0
  }
  param {
    lr_mult: 0
    decay_mult: 0
  }
  param {
    lr_mult: 0
    decay_mult: 0
  }
  bn_param {
    slope_filler {
      type: "constant"
      value: 1
    }
    bias_filler {
      type: "constant"
      value: 0
    }
    momentum: 0.95
    frozen: true
  }
}
layer {
  name: "conv2_1_1x1_reduce/relu"
  type: "ReLU"
  bottom: "conv2_1_1x1_reduce"
  top: "conv2_1_1x1_reduce"
}
layer {
  name: "conv2_1_3x3"
  type: "Convolution"
  bottom: "conv2_1_1x1_reduce"
  top: "conv2_1_3x3"
  param {
    lr_mult: 1
    decay_mult: 1
  }
  convolution_param {
    num_output: 64
    bias_term: false
    pad: 1
    kernel_size: 3
    stride: 1
    weight_filler {
      type: "msra"
    }
  }
}
layer {
  name: "conv2_1_3x3/bn"
  type: "BN"
  bottom: "conv2_1_3x3"
  top: "conv2_1_3x3"
  param {
    lr_mult: 1
    decay_mult: 0
  }
  param {
    lr_mult: 1
    decay_mult: 0
  }
  param {
    lr_mult: 0
    decay_mult: 0
  }
  param {
    lr_mult: 0
    decay_mult: 0
  }
  bn_param {
    slope_filler {
      type: "constant"
      value: 1
    }
    bias_filler {
      type: "constant"
      value: 0
    }
    momentum: 0.95
    frozen: true
  }
}
layer {
  name: "conv2_1_3x3/relu"
  type: "ReLU"
  bottom: "conv2_1_3x3"
  top: "conv2_1_3x3"
}
layer {
  name: "conv2_1_1x1_increase"
  type: "Convolution"
  bottom: "conv2_1_3x3"
  top: "conv2_1_1x1_increase"
  param {
    lr_mult: 1
    decay_mult: 1
  }
  convolution_param {
    num_output: 256
    bias_term: false
    pad: 0
    kernel_size: 1
    stride: 1
    weight_filler {
      type: "msra"
    }
  }
}
layer {
  name: "conv2_1_1x1_increase/bn"
  type: "BN"
  bottom: "conv2_1_1x1_increase"
  top: "conv2_1_1x1_increase"
  param {
    lr_mult: 1
    decay_mult: 0
  }
  param {
    lr_mult: 1
    decay_mult: 0
  }
  param {
    lr_mult: 0
    decay_mult: 0
  }
  param {
    lr_mult: 0
    decay_mult: 0
  }
  bn_param {
    slope_filler {
      type: "constant"
      value: 1
    }
    bias_filler {
      type: "constant"
      value: 0
    }
    momentum: 0.95
    frozen: true
  }
}
layer {
  name: "conv2_1_1x1_proj"
  type: "Convolution"
  bottom: "pool1_3x3_s2"
  top: "conv2_1_1x1_proj"
  param {
    lr_mult: 1
    decay_mult: 1
  }
  convolution_param {
    num_output: 256
    bias_term: false
    pad: 0
    kernel_size: 1
    stride: 1
    weight_filler {
      type: "msra"
    }
  }
}
layer {
  name: "conv2_1_1x1_proj/bn"
  type: "BN"
  bottom: "conv2_1_1x1_proj"
  top: "conv2_1_1x1_proj"
  param {
    lr_mult: 1
    decay_mult: 0
  }
  param {
    lr_mult: 1
    decay_mult: 0
  }
  param {
    lr_mult: 0
    decay_mult: 0
  }
  param {
    lr_mult: 0
    decay_mult: 0
  }
  bn_param {
    slope_filler {
      type: "constant"
      value: 1
    }
    bias_filler {
      type: "constant"
      value: 0
    }
    momentum: 0.95
    frozen: true
  }
}
layer {
  name: "conv2_1"
  type: "Eltwise"
  bottom: "conv2_1_1x1_proj"
  bottom: "conv2_1_1x1_increase"
  top: "conv2_1"
  eltwise_param {
    operation: SUM
  }
}
layer {
  name: "conv2_1/relu"
  type: "ReLU"
  bottom: "conv2_1"
  top: "conv2_1"
}
layer {
  name: "conv2_2_1x1_reduce"
  type: "Convolution"
  bottom: "conv2_1"
  top: "conv2_2_1x1_reduce"
  param {
    lr_mult: 1
    decay_mult: 1
  }
  convolution_param {
    num_output: 64
    bias_term: false
    pad: 0
    kernel_size: 1
    stride: 1
    weight_filler {
      type: "msra"
    }
  }
}
layer {
  name: "conv2_2_1x1_reduce/bn"
  type: "BN"
  bottom: "conv2_2_1x1_reduce"
  top: "conv2_2_1x1_reduce"
  param {
    lr_mult: 1
    decay_mult: 0
  }
  param {
    lr_mult: 1
    decay_mult: 0
  }
  param {
    lr_mult: 0
    decay_mult: 0
  }
  param {
    lr_mult: 0
    decay_mult: 0
  }
  bn_param {
    slope_filler {
      type: "constant"
      value: 1
    }
    bias_filler {
      type: "constant"
      value: 0
    }
    momentum: 0.95
    frozen: true
  }
}
layer {
  name: "conv2_2_1x1_reduce/relu"
  type: "ReLU"
  bottom: "conv2_2_1x1_reduce"
  top: "conv2_2_1x1_reduce"
}
layer {
  name: "conv2_2_3x3"
  type: "Convolution"
  bottom: "conv2_2_1x1_reduce"
  top: "conv2_2_3x3"
  param {
    lr_mult: 1
    decay_mult: 1
  }
  convolution_param {
    num_output: 64
    bias_term: false
    pad: 1
    kernel_size: 3
    stride: 1
    weight_filler {
      type: "msra"
    }
  }
}
layer {
  name: "conv2_2_3x3/bn"
  type: "BN"
  bottom: "conv2_2_3x3"
  top: "conv2_2_3x3"
  param {
    lr_mult: 1
    decay_mult: 0
  }
  param {
    lr_mult: 1
    decay_mult: 0
  }
  param {
    lr_mult: 0
    decay_mult: 0
  }
  param {
    lr_mult: 0
    decay_mult: 0
  }
  bn_param {
    slope_filler {
      type: "constant"
      value: 1
    }
    bias_filler {
      type: "constant"
      value: 0
    }
    momentum: 0.95
    frozen: true
  }
}
layer {
  name: "conv2_2_3x3/relu"
  type: "ReLU"
  bottom: "conv2_2_3x3"
  top: "conv2_2_3x3"
}
layer {
  name: "conv2_2_1x1_increase"
  type: "Convolution"
  bottom: "conv2_2_3x3"
  top: "conv2_2_1x1_increase"
  param {
    lr_mult: 1
    decay_mult: 1
  }
  convolution_param {
    num_output: 256
    bias_term: false
    pad: 0
    kernel_size: 1
    stride: 1
    weight_filler {
      type: "msra"
    }
  }
}
layer {
  name: "conv2_2_1x1_increase/bn"
  type: "BN"
  bottom: "conv2_2_1x1_increase"
  top: "conv2_2_1x1_increase"
  param {
    lr_mult: 1
    decay_mult: 0
  }
  param {
    lr_mult: 1
    decay_mult: 0
  }
  param {
    lr_mult: 0
    decay_mult: 0
  }
  param {
    lr_mult: 0
    decay_mult: 0
  }
  bn_param {
    slope_filler {
      type: "constant"
      value: 1
    }
    bias_filler {
      type: "constant"
      value: 0
    }
    momentum: 0.95
    frozen: true
  }
}
layer {
  name: "conv2_2"
  type: "Eltwise"
  bottom: "conv2_1"
  bottom: "conv2_2_1x1_increase"
  top: "conv2_2"
  eltwise_param {
    operation: SUM
  }
}
layer {
  name: "conv2_2/relu"
  type: "ReLU"
  bottom: "conv2_2"
  top: "conv2_2"
}
layer {
  name: "conv2_3_1x1_reduce"
  type: "Convolution"
  bottom: "conv2_2"
  top: "conv2_3_1x1_reduce"
  param {
    lr_mult: 1
    decay_mult: 1
  }
  convolution_param {
    num_output: 64
    bias_term: false
    pad: 0
    kernel_size: 1
    stride: 1
    weight_filler {
      type: "msra"
    }
  }
}
layer {
  name: "conv2_3_1x1_reduce/bn"
  type: "BN"
  bottom: "conv2_3_1x1_reduce"
  top: "conv2_3_1x1_reduce"
  param {
    lr_mult: 1
    decay_mult: 0
  }
  param {
    lr_mult: 1
    decay_mult: 0
  }
  param {
    lr_mult: 0
    decay_mult: 0
  }
  param {
    lr_mult: 0
    decay_mult: 0
  }
  bn_param {
    slope_filler {
      type: "constant"
      value: 1
    }
    bias_filler {
      type: "constant"
      value: 0
    }
    momentum: 0.95
    frozen: true
  }
}
layer {
  name: "conv2_3_1x1_reduce/relu"
  type: "ReLU"
  bottom: "conv2_3_1x1_reduce"
  top: "conv2_3_1x1_reduce"
}
layer {
  name: "conv2_3_3x3"
  type: "Convolution"
  bottom: "conv2_3_1x1_reduce"
  top: "conv2_3_3x3"
  param {
    lr_mult: 1
    decay_mult: 1
  }
  convolution_param {
    num_output: 64
    bias_term: false
    pad: 1
    kernel_size: 3
    stride: 1
    weight_filler {
      type: "msra"
    }
  }
}
layer {
  name: "conv2_3_3x3/bn"
  type: "BN"
  bottom: "conv2_3_3x3"
  top: "conv2_3_3x3"
  param {
    lr_mult: 1
    decay_mult: 0
  }
  param {
    lr_mult: 1
    decay_mult: 0
  }
  param {
    lr_mult: 0
    decay_mult: 0
  }
  param {
    lr_mult: 0
    decay_mult: 0
  }
  bn_param {
    slope_filler {
      type: "constant"
      value: 1
    }
    bias_filler {
      type: "constant"
      value: 0
    }
    momentum: 0.95
    frozen: true
  }
}
layer {
  name: "conv2_3_3x3/relu"
  type: "ReLU"
  bottom: "conv2_3_3x3"
  top: "conv2_3_3x3"
}
layer {
  name: "conv2_3_1x1_increase"
  type: "Convolution"
  bottom: "conv2_3_3x3"
  top: "conv2_3_1x1_increase"
  param {
    lr_mult: 1
    decay_mult: 1
  }
  convolution_param {
    num_output: 256
    bias_term: false
    pad: 0
    kernel_size: 1
    stride: 1
    weight_filler {
      type: "msra"
    }
  }
}
layer {
  name: "conv2_3_1x1_increase/bn"
  type: "BN"
  bottom: "conv2_3_1x1_increase"
  top: "conv2_3_1x1_increase"
  param {
    lr_mult: 1
    decay_mult: 0
  }
  param {
    lr_mult: 1
    decay_mult: 0
  }
  param {
    lr_mult: 0
    decay_mult: 0
  }
  param {
    lr_mult: 0
    decay_mult: 0
  }
  bn_param {
    slope_filler {
      type: "constant"
      value: 1
    }
    bias_filler {
      type: "constant"
      value: 0
    }
    momentum: 0.95
    frozen: true
  }
}
layer {
  name: "conv2_3"
  type: "Eltwise"
  bottom: "conv2_2"
  bottom: "conv2_3_1x1_increase"
  top: "conv2_3"
  eltwise_param {
    operation: SUM
  }
}
layer {
  name: "conv2_3/relu"
  type: "ReLU"
  bottom: "conv2_3"
  top: "conv2_3"
}
layer {
  name: "conv3_1_1x1_reduce"
  type: "Convolution"
  bottom: "conv2_3"
  top: "conv3_1_1x1_reduce"
  param {
    lr_mult: 1
    decay_mult: 1
  }
  convolution_param {
    num_output: 128
    bias_term: false
    pad: 0
    kernel_size: 1
    stride: 1
    weight_filler {
      type: "msra"
    }
  }
}
layer {
  name: "conv3_1_1x1_reduce/bn"
  type: "BN"
  bottom: "conv3_1_1x1_reduce"
  top: "conv3_1_1x1_reduce"
  param {
    lr_mult: 1
    decay_mult: 0
  }
  param {
    lr_mult: 1
    decay_mult: 0
  }
  param {
    lr_mult: 0
    decay_mult: 0
  }
  param {
    lr_mult: 0
    decay_mult: 0
  }
  bn_param {
    slope_filler {
      type: "constant"
      value: 1
    }
    bias_filler {
      type: "constant"
      value: 0
    }
    momentum: 0.95
    frozen: true
  }
}
layer {
  name: "conv3_1_1x1_reduce/relu"
  type: "ReLU"
  bottom: "conv3_1_1x1_reduce"
  top: "conv3_1_1x1_reduce"
}
layer {
  name: "conv3_1_3x3"
  type: "Convolution"
  bottom: "conv3_1_1x1_reduce"
  top: "conv3_1_3x3"
  param {
    lr_mult: 1
    decay_mult: 1
  }
  convolution_param {
    num_output: 128
    bias_term: false
    pad: 1
    kernel_size: 3
    stride: 2
    weight_filler {
      type: "msra"
    }
  }
}
layer {
  name: "conv3_1_3x3/bn"
  type: "BN"
  bottom: "conv3_1_3x3"
  top: "conv3_1_3x3"
  param {
    lr_mult: 1
    decay_mult: 0
  }
  param {
    lr_mult: 1
    decay_mult: 0
  }
  param {
    lr_mult: 0
    decay_mult: 0
  }
  param {
    lr_mult: 0
    decay_mult: 0
  }
  bn_param {
    slope_filler {
      type: "constant"
      value: 1
    }
    bias_filler {
      type: "constant"
      value: 0
    }
    momentum: 0.95
    frozen: true
  }
}
layer {
  name: "conv3_1_3x3/relu"
  type: "ReLU"
  bottom: "conv3_1_3x3"
  top: "conv3_1_3x3"
}
layer {
  name: "conv3_1_1x1_increase"
  type: "Convolution"
  bottom: "conv3_1_3x3"
  top: "conv3_1_1x1_increase"
  param {
    lr_mult: 1
    decay_mult: 1
  }
  convolution_param {
    num_output: 512
    bias_term: false
    pad: 0
    kernel_size: 1
    stride: 1
    weight_filler {
      type: "msra"
    }
  }
}
layer {
  name: "conv3_1_1x1_increase/bn"
  type: "BN"
  bottom: "conv3_1_1x1_increase"
  top: "conv3_1_1x1_increase"
  param {
    lr_mult: 1
    decay_mult: 0
  }
  param {
    lr_mult: 1
    decay_mult: 0
  }
  param {
    lr_mult: 0
    decay_mult: 0
  }
  param {
    lr_mult: 0
    decay_mult: 0
  }
  bn_param {
    slope_filler {
      type: "constant"
      value: 1
    }
    bias_filler {
      type: "constant"
      value: 0
    }
    momentum: 0.95
    frozen: true
  }
}
layer {
  name: "conv3_1_1x1_proj"
  type: "Convolution"
  bottom: "conv2_3"
  top: "conv3_1_1x1_proj"
  param {
    lr_mult: 1
    decay_mult: 1
  }
  convolution_param {
    num_output: 512
    bias_term: false
    pad: 0
    kernel_size: 1
    stride: 2
    weight_filler {
      type: "msra"
    }
  }
}
layer {
  name: "conv3_1_1x1_proj/bn"
  type: "BN"
  bottom: "conv3_1_1x1_proj"
  top: "conv3_1_1x1_proj"
  param {
    lr_mult: 1
    decay_mult: 0
  }
  param {
    lr_mult: 1
    decay_mult: 0
  }
  param {
    lr_mult: 0
    decay_mult: 0
  }
  param {
    lr_mult: 0
    decay_mult: 0
  }
  bn_param {
    slope_filler {
      type: "constant"
      value: 1
    }
    bias_filler {
      type: "constant"
      value: 0
    }
    momentum: 0.95
    frozen: true
  }
}
layer {
  name: "conv3_1"
  type: "Eltwise"
  bottom: "conv3_1_1x1_proj"
  bottom: "conv3_1_1x1_increase"
  top: "conv3_1"
  eltwise_param {
    operation: SUM
  }
}
layer {
  name: "conv3_1/relu"
  type: "ReLU"
  bottom: "conv3_1"
  top: "conv3_1"
}
layer {
  name: "conv3_2_1x1_reduce"
  type: "Convolution"
  bottom: "conv3_1"
  top: "conv3_2_1x1_reduce"
  param {
    lr_mult: 1
    decay_mult: 1
  }
  convolution_param {
    num_output: 128
    bias_term: false
    pad: 0
    kernel_size: 1
    stride: 1
    weight_filler {
      type: "msra"
    }
  }
}
layer {
  name: "conv3_2_1x1_reduce/bn"
  type: "BN"
  bottom: "conv3_2_1x1_reduce"
  top: "conv3_2_1x1_reduce"
  param {
    lr_mult: 1
    decay_mult: 0
  }
  param {
    lr_mult: 1
    decay_mult: 0
  }
  param {
    lr_mult: 0
    decay_mult: 0
  }
  param {
    lr_mult: 0
    decay_mult: 0
  }
  bn_param {
    slope_filler {
      type: "constant"
      value: 1
    }
    bias_filler {
      type: "constant"
      value: 0
    }
    momentum: 0.95
    frozen: true
  }
}
layer {
  name: "conv3_2_1x1_reduce/relu"
  type: "ReLU"
  bottom: "conv3_2_1x1_reduce"
  top: "conv3_2_1x1_reduce"
}
layer {
  name: "conv3_2_3x3"
  type: "Convolution"
  bottom: "conv3_2_1x1_reduce"
  top: "conv3_2_3x3"
  param {
    lr_mult: 1
    decay_mult: 1
  }
  convolution_param {
    num_output: 128
    bias_term: false
    pad: 1
    kernel_size: 3
    stride: 1
    weight_filler {
      type: "msra"
    }
  }
}
layer {
  name: "conv3_2_3x3/bn"
  type: "BN"
  bottom: "conv3_2_3x3"
  top: "conv3_2_3x3"
  param {
    lr_mult: 1
    decay_mult: 0
  }
  param {
    lr_mult: 1
    decay_mult: 0
  }
  param {
    lr_mult: 0
    decay_mult: 0
  }
  param {
    lr_mult: 0
    decay_mult: 0
  }
  bn_param {
    slope_filler {
      type: "constant"
      value: 1
    }
    bias_filler {
      type: "constant"
      value: 0
    }
    momentum: 0.95
    frozen: true
  }
}
layer {
  name: "conv3_2_3x3/relu"
  type: "ReLU"
  bottom: "conv3_2_3x3"
  top: "conv3_2_3x3"
}
layer {
  name: "conv3_2_1x1_increase"
  type: "Convolution"
  bottom: "conv3_2_3x3"
  top: "conv3_2_1x1_increase"
  param {
    lr_mult: 1
    decay_mult: 1
  }
  convolution_param {
    num_output: 512
    bias_term: false
    pad: 0
    kernel_size: 1
    stride: 1
    weight_filler {
      type: "msra"
    }
  }
}
layer {
  name: "conv3_2_1x1_increase/bn"
  type: "BN"
  bottom: "conv3_2_1x1_increase"
  top: "conv3_2_1x1_increase"
  param {
    lr_mult: 1
    decay_mult: 0
  }
  param {
    lr_mult: 1
    decay_mult: 0
  }
  param {
    lr_mult: 0
    decay_mult: 0
  }
  param {
    lr_mult: 0
    decay_mult: 0
  }
  bn_param {
    slope_filler {
      type: "constant"
      value: 1
    }
    bias_filler {
      type: "constant"
      value: 0
    }
    momentum: 0.95
    frozen: true
  }
}
layer {
  name: "conv3_2"
  type: "Eltwise"
  bottom: "conv3_1"
  bottom: "conv3_2_1x1_increase"
  top: "conv3_2"
  eltwise_param {
    operation: SUM
  }
}
layer {
  name: "conv3_2/relu"
  type: "ReLU"
  bottom: "conv3_2"
  top: "conv3_2"
}
layer {
  name: "conv3_3_1x1_reduce"
  type: "Convolution"
  bottom: "conv3_2"
  top: "conv3_3_1x1_reduce"
  param {
    lr_mult: 1
    decay_mult: 1
  }
  convolution_param {
    num_output: 128
    bias_term: false
    pad: 0
    kernel_size: 1
    stride: 1
    weight_filler {
      type: "msra"
    }
  }
}
layer {
  name: "conv3_3_1x1_reduce/bn"
  type: "BN"
  bottom: "conv3_3_1x1_reduce"
  top: "conv3_3_1x1_reduce"
  param {
    lr_mult: 1
    decay_mult: 0
  }
  param {
    lr_mult: 1
    decay_mult: 0
  }
  param {
    lr_mult: 0
    decay_mult: 0
  }
  param {
    lr_mult: 0
    decay_mult: 0
  }
  bn_param {
    slope_filler {
      type: "constant"
      value: 1
    }
    bias_filler {
      type: "constant"
      value: 0
    }
    momentum: 0.95
    frozen: true
  }
}
layer {
  name: "conv3_3_1x1_reduce/relu"
  type: "ReLU"
  bottom: "conv3_3_1x1_reduce"
  top: "conv3_3_1x1_reduce"
}
layer {
  name: "conv3_3_3x3"
  type: "Convolution"
  bottom: "conv3_3_1x1_reduce"
  top: "conv3_3_3x3"
  param {
    lr_mult: 1
    decay_mult: 1
  }
  convolution_param {
    num_output: 128
    bias_term: false
    pad: 1
    kernel_size: 3
    stride: 1
    weight_filler {
      type: "msra"
    }
  }
}
layer {
  name: "conv3_3_3x3/bn"
  type: "BN"
  bottom: "conv3_3_3x3"
  top: "conv3_3_3x3"
  param {
    lr_mult: 1
    decay_mult: 0
  }
  param {
    lr_mult: 1
    decay_mult: 0
  }
  param {
    lr_mult: 0
    decay_mult: 0
  }
  param {
    lr_mult: 0
    decay_mult: 0
  }
  bn_param {
    slope_filler {
      type: "constant"
      value: 1
    }
    bias_filler {
      type: "constant"
      value: 0
    }
    momentum: 0.95
    frozen: true
  }
}
layer {
  name: "conv3_3_3x3/relu"
  type: "ReLU"
  bottom: "conv3_3_3x3"
  top: "conv3_3_3x3"
}
layer {
  name: "conv3_3_1x1_increase"
  type: "Convolution"
  bottom: "conv3_3_3x3"
  top: "conv3_3_1x1_increase"
  param {
    lr_mult: 1
    decay_mult: 1
  }
  convolution_param {
    num_output: 512
    bias_term: false
    pad: 0
    kernel_size: 1
    stride: 1
    weight_filler {
      type: "msra"
    }
  }
}
layer {
  name: "conv3_3_1x1_increase/bn"
  type: "BN"
  bottom: "conv3_3_1x1_increase"
  top: "conv3_3_1x1_increase"
  param {
    lr_mult: 1
    decay_mult: 0
  }
  param {
    lr_mult: 1
    decay_mult: 0
  }
  param {
    lr_mult: 0
    decay_mult: 0
  }
  param {
    lr_mult: 0
    decay_mult: 0
  }
  bn_param {
    slope_filler {
      type: "constant"
      value: 1
    }
    bias_filler {
      type: "constant"
      value: 0
    }
    momentum: 0.95
    frozen: true
  }
}
layer {
  name: "conv3_3"
  type: "Eltwise"
  bottom: "conv3_2"
  bottom: "conv3_3_1x1_increase"
  top: "conv3_3"
  eltwise_param {
    operation: SUM
  }
}
layer {
  name: "conv3_3/relu"
  type: "ReLU"
  bottom: "conv3_3"
  top: "conv3_3"
}
layer {
  name: "conv3_4_1x1_reduce"
  type: "Convolution"
  bottom: "conv3_3"
  top: "conv3_4_1x1_reduce"
  param {
    lr_mult: 1
    decay_mult: 1
  }
  convolution_param {
    num_output: 128
    bias_term: false
    pad: 0
    kernel_size: 1
    stride: 1
    weight_filler {
      type: "msra"
    }
  }
}
layer {
  name: "conv3_4_1x1_reduce/bn"
  type: "BN"
  bottom: "conv3_4_1x1_reduce"
  top: "conv3_4_1x1_reduce"
  param {
    lr_mult: 1
    decay_mult: 0
  }
  param {
    lr_mult: 1
    decay_mult: 0
  }
  param {
    lr_mult: 0
    decay_mult: 0
  }
  param {
    lr_mult: 0
    decay_mult: 0
  }
  bn_param {
    slope_filler {
      type: "constant"
      value: 1
    }
    bias_filler {
      type: "constant"
      value: 0
    }
    momentum: 0.95
    frozen: true
  }
}
layer {
  name: "conv3_4_1x1_reduce/relu"
  type: "ReLU"
  bottom: "conv3_4_1x1_reduce"
  top: "conv3_4_1x1_reduce"
}
layer {
  name: "conv3_4_3x3"
  type: "Convolution"
  bottom: "conv3_4_1x1_reduce"
  top: "conv3_4_3x3"
  param {
    lr_mult: 1
    decay_mult: 1
  }
  convolution_param {
    num_output: 128
    bias_term: false
    pad: 1
    kernel_size: 3
    stride: 1
    weight_filler {
      type: "msra"
    }
  }
}
layer {
  name: "conv3_4_3x3/bn"
  type: "BN"
  bottom: "conv3_4_3x3"
  top: "conv3_4_3x3"
  param {
    lr_mult: 1
    decay_mult: 0
  }
  param {
    lr_mult: 1
    decay_mult: 0
  }
  param {
    lr_mult: 0
    decay_mult: 0
  }
  param {
    lr_mult: 0
    decay_mult: 0
  }
  bn_param {
    slope_filler {
      type: "constant"
      value: 1
    }
    bias_filler {
      type: "constant"
      value: 0
    }
    momentum: 0.95
    frozen: true
  }
}
layer {
  name: "conv3_4_3x3/relu"
  type: "ReLU"
  bottom: "conv3_4_3x3"
  top: "conv3_4_3x3"
}
layer {
  name: "conv3_4_1x1_increase"
  type: "Convolution"
  bottom: "conv3_4_3x3"
  top: "conv3_4_1x1_increase"
  param {
    lr_mult: 1
    decay_mult: 1
  }
  convolution_param {
    num_output: 512
    bias_term: false
    pad: 0
    kernel_size: 1
    stride: 1
    weight_filler {
      type: "msra"
    }
  }
}
layer {
  name: "conv3_4_1x1_increase/bn"
  type: "BN"
  bottom: "conv3_4_1x1_increase"
  top: "conv3_4_1x1_increase"
  param {
    lr_mult: 1
    decay_mult: 0
  }
  param {
    lr_mult: 1
    decay_mult: 0
  }
  param {
    lr_mult: 0
    decay_mult: 0
  }
  param {
    lr_mult: 0
    decay_mult: 0
  }
  bn_param {
    slope_filler {
      type: "constant"
      value: 1
    }
    bias_filler {
      type: "constant"
      value: 0
    }
    momentum: 0.95
    frozen: true
  }
}
layer {
  name: "conv3_4"
  type: "Eltwise"
  bottom: "conv3_3"
  bottom: "conv3_4_1x1_increase"
  top: "conv3_4"
  eltwise_param {
    operation: SUM
  }
}
layer {
  name: "conv3_4/relu"
  type: "ReLU"
  bottom: "conv3_4"
  top: "conv3_4"
}
layer {
  name: "conv4_1_1x1_reduce"
  type: "Convolution"
  bottom: "conv3_4"
  top: "conv4_1_1x1_reduce"
  param {
    lr_mult: 1
    decay_mult: 1
  }
  convolution_param {
    num_output: 256
    bias_term: false
    pad: 0
    kernel_size: 1
    stride: 1
    weight_filler {
      type: "msra"
    }
  }
}
layer {
  name: "conv4_1_1x1_reduce/bn"
  type: "BN"
  bottom: "conv4_1_1x1_reduce"
  top: "conv4_1_1x1_reduce"
  param {
    lr_mult: 1
    decay_mult: 0
  }
  param {
    lr_mult: 1
    decay_mult: 0
  }
  param {
    lr_mult: 0
    decay_mult: 0
  }
  param {
    lr_mult: 0
    decay_mult: 0
  }
  bn_param {
    slope_filler {
      type: "constant"
      value: 1
    }
    bias_filler {
      type: "constant"
      value: 0
    }
    momentum: 0.95
    frozen: true
  }
}
layer {
  name: "conv4_1_1x1_reduce/relu"
  type: "ReLU"
  bottom: "conv4_1_1x1_reduce"
  top: "conv4_1_1x1_reduce"
}
layer {
  name: "conv4_1_3x3"
  type: "Convolution"
  bottom: "conv4_1_1x1_reduce"
  top: "conv4_1_3x3"
  param {
    lr_mult: 1
    decay_mult: 1
  }
  convolution_param {
    num_output: 256
    bias_term: false
    pad: 2
    kernel_size: 3
    stride: 1
    weight_filler {
      type: "msra"
    }
    dilation: 2
  }
}
layer {
  name: "conv4_1_3x3/bn"
  type: "BN"
  bottom: "conv4_1_3x3"
  top: "conv4_1_3x3"
  param {
    lr_mult: 1
    decay_mult: 0
  }
  param {
    lr_mult: 1
    decay_mult: 0
  }
  param {
    lr_mult: 0
    decay_mult: 0
  }
  param {
    lr_mult: 0
    decay_mult: 0
  }
  bn_param {
    slope_filler {
      type: "constant"
      value: 1
    }
    bias_filler {
      type: "constant"
      value: 0
    }
    momentum: 0.95
    frozen: true
  }
}
layer {
  name: "conv4_1_3x3/relu"
  type: "ReLU"
  bottom: "conv4_1_3x3"
  top: "conv4_1_3x3"
}
layer {
  name: "conv4_1_1x1_increase"
  type: "Convolution"
  bottom: "conv4_1_3x3"
  top: "conv4_1_1x1_increase"
  param {
    lr_mult: 1
    decay_mult: 1
  }
  convolution_param {
    num_output: 1024
    bias_term: false
    pad: 0
    kernel_size: 1
    stride: 1
    weight_filler {
      type: "msra"
    }
  }
}
layer {
  name: "conv4_1_1x1_increase/bn"
  type: "BN"
  bottom: "conv4_1_1x1_increase"
  top: "conv4_1_1x1_increase"
  param {
    lr_mult: 1
    decay_mult: 0
  }
  param {
    lr_mult: 1
    decay_mult: 0
  }
  param {
    lr_mult: 0
    decay_mult: 0
  }
  param {
    lr_mult: 0
    decay_mult: 0
  }
  bn_param {
    slope_filler {
      type: "constant"
      value: 1
    }
    bias_filler {
      type: "constant"
      value: 0
    }
    momentum: 0.95
    frozen: true
  }
}
layer {
  name: "conv4_1_1x1_proj"
  type: "Convolution"
  bottom: "conv3_4"
  top: "conv4_1_1x1_proj"
  param {
    lr_mult: 1
    decay_mult: 1
  }
  convolution_param {
    num_output: 1024
    bias_term: false
    pad: 0
    kernel_size: 1
    stride: 1
    weight_filler {
      type: "msra"
    }
  }
}
layer {
  name: "conv4_1_1x1_proj/bn"
  type: "BN"
  bottom: "conv4_1_1x1_proj"
  top: "conv4_1_1x1_proj"
  param {
    lr_mult: 1
    decay_mult: 0
  }
  param {
    lr_mult: 1
    decay_mult: 0
  }
  param {
    lr_mult: 0
    decay_mult: 0
  }
  param {
    lr_mult: 0
    decay_mult: 0
  }
  bn_param {
    slope_filler {
      type: "constant"
      value: 1
    }
    bias_filler {
      type: "constant"
      value: 0
    }
    momentum: 0.95
    frozen: true
  }
}
layer {
  name: "conv4_1"
  type: "Eltwise"
  bottom: "conv4_1_1x1_proj"
  bottom: "conv4_1_1x1_increase"
  top: "conv4_1"
  eltwise_param {
    operation: SUM
  }
}
layer {
  name: "conv4_1/relu"
  type: "ReLU"
  bottom: "conv4_1"
  top: "conv4_1"
}
layer {
  name: "conv4_2_1x1_reduce"
  type: "Convolution"
  bottom: "conv4_1"
  top: "conv4_2_1x1_reduce"
  param {
    lr_mult: 1
    decay_mult: 1
  }
  convolution_param {
    num_output: 256
    bias_term: false
    pad: 0
    kernel_size: 1
    stride: 1
    weight_filler {
      type: "msra"
    }
  }
}
layer {
  name: "conv4_2_1x1_reduce/bn"
  type: "BN"
  bottom: "conv4_2_1x1_reduce"
  top: "conv4_2_1x1_reduce"
  param {
    lr_mult: 1
    decay_mult: 0
  }
  param {
    lr_mult: 1
    decay_mult: 0
  }
  param {
    lr_mult: 0
    decay_mult: 0
  }
  param {
    lr_mult: 0
    decay_mult: 0
  }
  bn_param {
    slope_filler {
      type: "constant"
      value: 1
    }
    bias_filler {
      type: "constant"
      value: 0
    }
    momentum: 0.95
    frozen: true
  }
}
layer {
  name: "conv4_2_1x1_reduce/relu"
  type: "ReLU"
  bottom: "conv4_2_1x1_reduce"
  top: "conv4_2_1x1_reduce"
}
layer {
  name: "conv4_2_3x3"
  type: "Convolution"
  bottom: "conv4_2_1x1_reduce"
  top: "conv4_2_3x3"
  param {
    lr_mult: 1
    decay_mult: 1
  }
  convolution_param {
    num_output: 256
    bias_term: false
    pad: 2
    kernel_size: 3
    stride: 1
    weight_filler {
      type: "msra"
    }
    dilation: 2
  }
}
layer {
  name: "conv4_2_3x3/bn"
  type: "BN"
  bottom: "conv4_2_3x3"
  top: "conv4_2_3x3"
  param {
    lr_mult: 1
    decay_mult: 0
  }
  param {
    lr_mult: 1
    decay_mult: 0
  }
  param {
    lr_mult: 0
    decay_mult: 0
  }
  param {
    lr_mult: 0
    decay_mult: 0
  }
  bn_param {
    slope_filler {
      type: "constant"
      value: 1
    }
    bias_filler {
      type: "constant"
      value: 0
    }
    momentum: 0.95
    frozen: true
  }
}
layer {
  name: "conv4_2_3x3/relu"
  type: "ReLU"
  bottom: "conv4_2_3x3"
  top: "conv4_2_3x3"
}
layer {
  name: "conv4_2_1x1_increase"
  type: "Convolution"
  bottom: "conv4_2_3x3"
  top: "conv4_2_1x1_increase"
  param {
    lr_mult: 1
    decay_mult: 1
  }
  convolution_param {
    num_output: 1024
    bias_term: false
    pad: 0
    kernel_size: 1
    stride: 1
    weight_filler {
I0620 03:59:13.301602   848 net.cpp:413] Input 0 -> data
I0620 03:59:13.354984   848 layer_factory.hpp:77] Creating layer conv1_1_3x3_s2
I0620 03:59:13.356073   848 net.cpp:106] Creating Layer conv1_1_3x3_s2
I0620 03:59:13.356078   848 net.cpp:454] conv1_1_3x3_s2 <- data
I0620 03:59:13.356082   848 net.cpp:411] conv1_1_3x3_s2 -> conv1_1_3x3_s2
I0620 03:59:13.358126   848 net.cpp:150] Setting up conv1_1_3x3_s2
I0620 03:59:13.358136   848 net.cpp:157] Top shape: 1 64 237 237 (3594816)
I0620 03:59:13.358139   848 net.cpp:165] Memory required for data: 14379264
I0620 03:59:13.358150   848 layer_factory.hpp:77] Creating layer conv1_1_3x3_s2/bn
I0620 03:59:13.358157   848 net.cpp:106] Creating Layer conv1_1_3x3_s2/bn
I0620 03:59:13.358160   848 net.cpp:454] conv1_1_3x3_s2/bn <- conv1_1_3x3_s2
I0620 03:59:13.358163   848 net.cpp:397] conv1_1_3x3_s2/bn -> conv1_1_3x3_s2 (in-place)
I0620 03:59:13.358897   848 net.cpp:150] Setting up conv1_1_3x3_s2/bn
I0620 03:59:13.358906   848 net.cpp:157] Top shape: 1 64 237 237 (3594816)
I0620 03:59:13.358908   848 net.cpp:165] Memory required for data: 28758528
I0620 03:59:13.358921   848 layer_factory.hpp:77] Creating layer conv1_1_3x3_s2/relu
I0620 03:59:13.358928   848 net.cpp:106] Creating Layer conv1_1_3x3_s2/relu
I0620 03:59:13.358944   848 net.cpp:454] conv1_1_3x3_s2/relu <- conv1_1_3x3_s2
I0620 03:59:13.358948   848 net.cpp:397] conv1_1_3x3_s2/relu -> conv1_1_3x3_s2 (in-place)
I0620 03:59:13.358963   848 net.cpp:150] Setting up conv1_1_3x3_s2/relu
I0620 03:59:13.358968   848 net.cpp:157] Top shape: 1 64 237 237 (3594816)
I0620 03:59:13.358973   848 net.cpp:165] Memory required for data: 43137792
I0620 03:59:13.358975   848 layer_factory.hpp:77] Creating layer conv1_2_3x3
I0620 03:59:13.358983   848 net.cpp:106] Creating Layer conv1_2_3x3
I0620 03:59:13.358989   848 net.cpp:454] conv1_2_3x3 <- conv1_1_3x3_s2
I0620 03:59:13.358992   848 net.cpp:411] conv1_2_3x3 -> conv1_2_3x3
I0620 03:59:13.359860   848 net.cpp:150] Setting up conv1_2_3x3
I0620 03:59:13.359866   848 net.cpp:157] Top shape: 1 64 237 237 (3594816)
I0620 03:59:13.359869   848 net.cpp:165] Memory required for data: 57517056
I0620 03:59:13.359874   848 layer_factory.hpp:77] Creating layer conv1_2_3x3/bn
I0620 03:59:13.359881   848 net.cpp:106] Creating Layer conv1_2_3x3/bn
I0620 03:59:13.359885   848 net.cpp:454] conv1_2_3x3/bn <- conv1_2_3x3
I0620 03:59:13.359890   848 net.cpp:397] conv1_2_3x3/bn -> conv1_2_3x3 (in-place)
I0620 03:59:13.360024   848 net.cpp:150] Setting up conv1_2_3x3/bn
I0620 03:59:13.360029   848 net.cpp:157] Top shape: 1 64 237 237 (3594816)
I0620 03:59:13.360031   848 net.cpp:165] Memory required for data: 71896320
I0620 03:59:13.360041   848 layer_factory.hpp:77] Creating layer conv1_2_3x3/relu
I0620 03:59:13.360046   848 net.cpp:106] Creating Layer conv1_2_3x3/relu
I0620 03:59:13.360050   848 net.cpp:454] conv1_2_3x3/relu <- conv1_2_3x3
I0620 03:59:13.360054   848 net.cpp:397] conv1_2_3x3/relu -> conv1_2_3x3 (in-place)
I0620 03:59:13.360060   848 net.cpp:150] Setting up conv1_2_3x3/relu
I0620 03:59:13.360065   848 net.cpp:157] Top shape: 1 64 237 237 (3594816)
I0620 03:59:13.360069   848 net.cpp:165] Memory required for data: 86275584
I0620 03:59:13.360072   848 layer_factory.hpp:77] Creating layer conv1_3_3x3
I0620 03:59:13.360080   848 net.cpp:106] Creating Layer conv1_3_3x3
I0620 03:59:13.360085   848 net.cpp:454] conv1_3_3x3 <- conv1_2_3x3
I0620 03:59:13.360088   848 net.cpp:411] conv1_3_3x3 -> conv1_3_3x3
I0620 03:59:13.362597   848 net.cpp:150] Setting up conv1_3_3x3
I0620 03:59:13.362613   848 net.cpp:157] Top shape: 1 128 237 237 (7189632)
I0620 03:59:13.362617   848 net.cpp:165] Memory required for data: 115034112
I0620 03:59:13.362622   848 layer_factory.hpp:77] Creating layer conv1_3_3x3/bn
I0620 03:59:13.362629   848 net.cpp:106] Creating Layer conv1_3_3x3/bn
I0620 03:59:13.362634   848 net.cpp:454] conv1_3_3x3/bn <- conv1_3_3x3
I0620 03:59:13.362640   848 net.cpp:397] conv1_3_3x3/bn -> conv1_3_3x3 (in-place)
I0620 03:59:13.362794   848 net.cpp:150] Setting up conv1_3_3x3/bn
I0620 03:59:13.362799   848 net.cpp:157] Top shape: 1 128 237 237 (7189632)
I0620 03:59:13.362802   848 net.cpp:165] Memory required for data: 143792640
I0620 03:59:13.362805   848 layer_factory.hpp:77] Creating layer conv1_3_3x3/relu
I0620 03:59:13.362809   848 net.cpp:106] Creating Layer conv1_3_3x3/relu
I0620 03:59:13.362812   848 net.cpp:454] conv1_3_3x3/relu <- conv1_3_3x3
I0620 03:59:13.362814   848 net.cpp:397] conv1_3_3x3/relu -> conv1_3_3x3 (in-place)
I0620 03:59:13.362818   848 net.cpp:150] Setting up conv1_3_3x3/relu
I0620 03:59:13.362819   848 net.cpp:157] Top shape: 1 128 237 237 (7189632)
I0620 03:59:13.362821   848 net.cpp:165] Memory required for data: 172551168
I0620 03:59:13.362823   848 layer_factory.hpp:77] Creating layer pool1_3x3_s2
I0620 03:59:13.362825   848 net.cpp:106] Creating Layer pool1_3x3_s2
I0620 03:59:13.362828   848 net.cpp:454] pool1_3x3_s2 <- conv1_3_3x3
I0620 03:59:13.362830   848 net.cpp:411] pool1_3x3_s2 -> pool1_3x3_s2
I0620 03:59:13.362854   848 net.cpp:150] Setting up pool1_3x3_s2
I0620 03:59:13.362859   848 net.cpp:157] Top shape: 1 128 119 119 (1812608)
I0620 03:59:13.362860   848 net.cpp:165] Memory required for data: 179801600
I0620 03:59:13.362861   848 layer_factory.hpp:77] Creating layer pool1_3x3_s2_pool1_3x3_s2_0_split
I0620 03:59:13.362869   848 net.cpp:106] Creating Layer pool1_3x3_s2_pool1_3x3_s2_0_split
I0620 03:59:13.362870   848 net.cpp:454] pool1_3x3_s2_pool1_3x3_s2_0_split <- pool1_3x3_s2
I0620 03:59:13.362874   848 net.cpp:411] pool1_3x3_s2_pool1_3x3_s2_0_split -> pool1_3x3_s2_pool1_3x3_s2_0_split_0
I0620 03:59:13.362876   848 net.cpp:411] pool1_3x3_s2_pool1_3x3_s2_0_split -> pool1_3x3_s2_pool1_3x3_s2_0_split_1
I0620 03:59:13.362895   848 net.cpp:150] Setting up pool1_3x3_s2_pool1_3x3_s2_0_split
I0620 03:59:13.362900   848 net.cpp:157] Top shape: 1 128 119 119 (1812608)
I0620 03:59:13.362905   848 net.cpp:157] Top shape: 1 128 119 119 (1812608)
I0620 03:59:13.362906   848 net.cpp:165] Memory required for data: 194302464
I0620 03:59:13.362907   848 layer_factory.hpp:77] Creating layer conv2_1_1x1_reduce
I0620 03:59:13.362912   848 net.cpp:106] Creating Layer conv2_1_1x1_reduce
I0620 03:59:13.362915   848 net.cpp:454] conv2_1_1x1_reduce <- pool1_3x3_s2_pool1_3x3_s2_0_split_0
I0620 03:59:13.362917   848 net.cpp:411] conv2_1_1x1_reduce -> conv2_1_1x1_reduce
I0620 03:59:13.363759   848 net.cpp:150] Setting up conv2_1_1x1_reduce
I0620 03:59:13.363766   848 net.cpp:157] Top shape: 1 64 119 119 (906304)
I0620 03:59:13.363767   848 net.cpp:165] Memory required for data: 197927680
I0620 03:59:13.363772   848 layer_factory.hpp:77] Creating layer conv2_1_1x1_reduce/bn
I0620 03:59:13.363781   848 net.cpp:106] Creating Layer conv2_1_1x1_reduce/bn
I0620 03:59:13.363786   848 net.cpp:454] conv2_1_1x1_reduce/bn <- conv2_1_1x1_reduce
I0620 03:59:13.363791   848 net.cpp:397] conv2_1_1x1_reduce/bn -> conv2_1_1x1_reduce (in-place)
I0620 03:59:13.363912   848 net.cpp:150] Setting up conv2_1_1x1_reduce/bn
I0620 03:59:13.363917   848 net.cpp:157] Top shape: 1 64 119 119 (906304)
I0620 03:59:13.363919   848 net.cpp:165] Memory required for data: 201552896
I0620 03:59:13.363927   848 layer_factory.hpp:77] Creating layer conv2_1_1x1_reduce/relu
I0620 03:59:13.363934   848 net.cpp:106] Creating Layer conv2_1_1x1_reduce/relu
I0620 03:59:13.363939   848 net.cpp:454] conv2_1_1x1_reduce/relu <- conv2_1_1x1_reduce
I0620 03:59:13.363945   848 net.cpp:397] conv2_1_1x1_reduce/relu -> conv2_1_1x1_reduce (in-place)
I0620 03:59:13.363950   848 net.cpp:150] Setting up conv2_1_1x1_reduce/relu
I0620 03:59:13.363956   848 net.cpp:157] Top shape: 1 64 119 119 (906304)
I0620 03:59:13.363960   848 net.cpp:165] Memory required for data: 205178112
I0620 03:59:13.363962   848 layer_factory.hpp:77] Creating layer conv2_1_3x3
I0620 03:59:13.363970   848 net.cpp:106] Creating Layer conv2_1_3x3
I0620 03:59:13.363973   848 net.cpp:454] conv2_1_3x3 <- conv2_1_1x1_reduce
I0620 03:59:13.363976   848 net.cpp:411] conv2_1_3x3 -> conv2_1_3x3
I0620 03:59:13.364857   848 net.cpp:150] Setting up conv2_1_3x3
I0620 03:59:13.364862   848 net.cpp:157] Top shape: 1 64 119 119 (906304)
I0620 03:59:13.364864   848 net.cpp:165] Memory required for data: 208803328
I0620 03:59:13.364867   848 layer_factory.hpp:77] Creating layer conv2_1_3x3/bn
I0620 03:59:13.364871   848 net.cpp:106] Creating Layer conv2_1_3x3/bn
I0620 03:59:13.364874   848 net.cpp:454] conv2_1_3x3/bn <- conv2_1_3x3
I0620 03:59:13.364877   848 net.cpp:397] conv2_1_3x3/bn -> conv2_1_3x3 (in-place)
I0620 03:59:13.365002   848 net.cpp:150] Setting up conv2_1_3x3/bn
I0620 03:59:13.365006   848 net.cpp:157] Top shape: 1 64 119 119 (906304)
I0620 03:59:13.365008   848 net.cpp:165] Memory required for data: 212428544
I0620 03:59:13.365012   848 layer_factory.hpp:77] Creating layer conv2_1_3x3/relu
I0620 03:59:13.365017   848 net.cpp:106] Creating Layer conv2_1_3x3/relu
I0620 03:59:13.365020   848 net.cpp:454] conv2_1_3x3/relu <- conv2_1_3x3
I0620 03:59:13.365022   848 net.cpp:397] conv2_1_3x3/relu -> conv2_1_3x3 (in-place)
I0620 03:59:13.365025   848 net.cpp:150] Setting up conv2_1_3x3/relu
I0620 03:59:13.365030   848 net.cpp:157] Top shape: 1 64 119 119 (906304)
I0620 03:59:13.365031   848 net.cpp:165] Memory required for data: 216053760
I0620 03:59:13.365032   848 layer_factory.hpp:77] Creating layer conv2_1_1x1_increase
I0620 03:59:13.365036   848 net.cpp:106] Creating Layer conv2_1_1x1_increase
I0620 03:59:13.365037   848 net.cpp:454] conv2_1_1x1_increase <- conv2_1_3x3
I0620 03:59:13.365041   848 net.cpp:411] conv2_1_1x1_increase -> conv2_1_1x1_increase
I0620 03:59:13.365492   848 net.cpp:150] Setting up conv2_1_1x1_increase
I0620 03:59:13.365497   848 net.cpp:157] Top shape: 1 256 119 119 (3625216)
I0620 03:59:13.365499   848 net.cpp:165] Memory required for data: 230554624
I0620 03:59:13.365502   848 layer_factory.hpp:77] Creating layer conv2_1_1x1_increase/bn
I0620 03:59:13.365507   848 net.cpp:106] Creating Layer conv2_1_1x1_increase/bn
I0620 03:59:13.365509   848 net.cpp:454] conv2_1_1x1_increase/bn <- conv2_1_1x1_increase
I0620 03:59:13.365512   848 net.cpp:397] conv2_1_1x1_increase/bn -> conv2_1_1x1_increase (in-place)
I0620 03:59:13.365628   848 net.cpp:150] Setting up conv2_1_1x1_increase/bn
I0620 03:59:13.365633   848 net.cpp:157] Top shape: 1 256 119 119 (3625216)
I0620 03:59:13.365634   848 net.cpp:165] Memory required for data: 245055488
I0620 03:59:13.365638   848 layer_factory.hpp:77] Creating layer conv2_1_1x1_proj
I0620 03:59:13.365644   848 net.cpp:106] Creating Layer conv2_1_1x1_proj
I0620 03:59:13.365646   848 net.cpp:454] conv2_1_1x1_proj <- pool1_3x3_s2_pool1_3x3_s2_0_split_1
I0620 03:59:13.365650   848 net.cpp:411] conv2_1_1x1_proj -> conv2_1_1x1_proj
I0620 03:59:13.366466   848 net.cpp:150] Setting up conv2_1_1x1_proj
I0620 03:59:13.366472   848 net.cpp:157] Top shape: 1 256 119 119 (3625216)
I0620 03:59:13.366473   848 net.cpp:165] Memory required for data: 259556352
I0620 03:59:13.366477   848 layer_factory.hpp:77] Creating layer conv2_1_1x1_proj/bn
I0620 03:59:13.366482   848 net.cpp:106] Creating Layer conv2_1_1x1_proj/bn
I0620 03:59:13.366483   848 net.cpp:454] conv2_1_1x1_proj/bn <- conv2_1_1x1_proj
I0620 03:59:13.366487   848 net.cpp:397] conv2_1_1x1_proj/bn -> conv2_1_1x1_proj (in-place)
I0620 03:59:13.366607   848 net.cpp:150] Setting up conv2_1_1x1_proj/bn
I0620 03:59:13.366611   848 net.cpp:157] Top shape: 1 256 119 119 (3625216)
I0620 03:59:13.366613   848 net.cpp:165] Memory required for data: 274057216
I0620 03:59:13.366621   848 layer_factory.hpp:77] Creating layer conv2_1
I0620 03:59:13.367131   848 net.cpp:106] Creating Layer conv2_1
I0620 03:59:13.367135   848 net.cpp:454] conv2_1 <- conv2_1_1x1_proj
I0620 03:59:13.367137   848 net.cpp:454] conv2_1 <- conv2_1_1x1_increase
I0620 03:59:13.367141   848 net.cpp:411] conv2_1 -> conv2_1
I0620 03:59:13.368090   848 net.cpp:150] Setting up conv2_1
I0620 03:59:13.368095   848 net.cpp:157] Top shape: 1 256 119 119 (3625216)
I0620 03:59:13.368096   848 net.cpp:165] Memory required for data: 288558080
I0620 03:59:13.368098   848 layer_factory.hpp:77] Creating layer conv2_1/relu
I0620 03:59:13.368103   848 net.cpp:106] Creating Layer conv2_1/relu
I0620 03:59:13.368106   848 net.cpp:454] conv2_1/relu <- conv2_1
I0620 03:59:13.368108   848 net.cpp:397] conv2_1/relu -> conv2_1 (in-place)
I0620 03:59:13.368111   848 net.cpp:150] Setting up conv2_1/relu
I0620 03:59:13.368115   848 net.cpp:157] Top shape: 1 256 119 119 (3625216)
I0620 03:59:13.368118   848 net.cpp:165] Memory required for data: 303058944
I0620 03:59:13.368119   848 layer_factory.hpp:77] Creating layer conv2_1_conv2_1/relu_0_split
I0620 03:59:13.368122   848 net.cpp:106] Creating Layer conv2_1_conv2_1/relu_0_split
I0620 03:59:13.368124   848 net.cpp:454] conv2_1_conv2_1/relu_0_split <- conv2_1
I0620 03:59:13.368126   848 net.cpp:411] conv2_1_conv2_1/relu_0_split -> conv2_1_conv2_1/relu_0_split_0
I0620 03:59:13.368129   848 net.cpp:411] conv2_1_conv2_1/relu_0_split -> conv2_1_conv2_1/relu_0_split_1
I0620 03:59:13.368147   848 net.cpp:150] Setting up conv2_1_conv2_1/relu_0_split
I0620 03:59:13.368151   848 net.cpp:157] Top shape: 1 256 119 119 (3625216)
I0620 03:59:13.368154   848 net.cpp:157] Top shape: 1 256 119 119 (3625216)
I0620 03:59:13.368155   848 net.cpp:165] Memory required for data: 332060672
I0620 03:59:13.368156   848 layer_factory.hpp:77] Creating layer conv2_2_1x1_reduce
I0620 03:59:13.368161   848 net.cpp:106] Creating Layer conv2_2_1x1_reduce
I0620 03:59:13.368165   848 net.cpp:454] conv2_2_1x1_reduce <- conv2_1_conv2_1/relu_0_split_0
I0620 03:59:13.368167   848 net.cpp:411] conv2_2_1x1_reduce -> conv2_2_1x1_reduce
I0620 03:59:13.368609   848 net.cpp:150] Setting up conv2_2_1x1_reduce
I0620 03:59:13.368613   848 net.cpp:157] Top shape: 1 64 119 119 (906304)
I0620 03:59:13.368615   848 net.cpp:165] Memory required for data: 335685888
I0620 03:59:13.368618   848 layer_factory.hpp:77] Creating layer conv2_2_1x1_reduce/bn
I0620 03:59:13.368621   848 net.cpp:106] Creating Layer conv2_2_1x1_reduce/bn
I0620 03:59:13.368623   848 net.cpp:454] conv2_2_1x1_reduce/bn <- conv2_2_1x1_reduce
I0620 03:59:13.368626   848 net.cpp:397] conv2_2_1x1_reduce/bn -> conv2_2_1x1_reduce (in-place)
I0620 03:59:13.368751   848 net.cpp:150] Setting up conv2_2_1x1_reduce/bn
I0620 03:59:13.368754   848 net.cpp:157] Top shape: 1 64 119 119 (906304)
I0620 03:59:13.368757   848 net.cpp:165] Memory required for data: 339311104
I0620 03:59:13.368760   848 layer_factory.hpp:77] Creating layer conv2_2_1x1_reduce/relu
I0620 03:59:13.368764   848 net.cpp:106] Creating Layer conv2_2_1x1_reduce/relu
I0620 03:59:13.368765   848 net.cpp:454] conv2_2_1x1_reduce/relu <- conv2_2_1x1_reduce
I0620 03:59:13.368768   848 net.cpp:397] conv2_2_1x1_reduce/relu -> conv2_2_1x1_reduce (in-place)
I0620 03:59:13.368770   848 net.cpp:150] Setting up conv2_2_1x1_reduce/relu
I0620 03:59:13.368772   848 net.cpp:157] Top shape: 1 64 119 119 (906304)
I0620 03:59:13.368774   848 net.cpp:165] Memory required for data: 342936320
I0620 03:59:13.368777   848 layer_factory.hpp:77] Creating layer conv2_2_3x3
I0620 03:59:13.368780   848 net.cpp:106] Creating Layer conv2_2_3x3
I0620 03:59:13.368782   848 net.cpp:454] conv2_2_3x3 <- conv2_2_1x1_reduce
I0620 03:59:13.368785   848 net.cpp:411] conv2_2_3x3 -> conv2_2_3x3
I0620 03:59:13.369655   848 net.cpp:150] Setting up conv2_2_3x3
I0620 03:59:13.369659   848 net.cpp:157] Top shape: 1 64 119 119 (906304)
I0620 03:59:13.369662   848 net.cpp:165] Memory required for data: 346561536
I0620 03:59:13.369663   848 layer_factory.hpp:77] Creating layer conv2_2_3x3/bn
I0620 03:59:13.369668   848 net.cpp:106] Creating Layer conv2_2_3x3/bn
I0620 03:59:13.369671   848 net.cpp:454] conv2_2_3x3/bn <- conv2_2_3x3
I0620 03:59:13.369674   848 net.cpp:397] conv2_2_3x3/bn -> conv2_2_3x3 (in-place)
I0620 03:59:13.369820   848 net.cpp:150] Setting up conv2_2_3x3/bn
I0620 03:59:13.369825   848 net.cpp:157] Top shape: 1 64 119 119 (906304)
I0620 03:59:13.369827   848 net.cpp:165] Memory required for data: 350186752
I0620 03:59:13.369832   848 layer_factory.hpp:77] Creating layer conv2_2_3x3/relu
I0620 03:59:13.369835   848 net.cpp:106] Creating Layer conv2_2_3x3/relu
I0620 03:59:13.369837   848 net.cpp:454] conv2_2_3x3/relu <- conv2_2_3x3
I0620 03:59:13.369840   848 net.cpp:397] conv2_2_3x3/relu -> conv2_2_3x3 (in-place)
I0620 03:59:13.369843   848 net.cpp:150] Setting up conv2_2_3x3/relu
I0620 03:59:13.369848   848 net.cpp:157] Top shape: 1 64 119 119 (906304)
I0620 03:59:13.369848   848 net.cpp:165] Memory required for data: 353811968
I0620 03:59:13.369850   848 layer_factory.hpp:77] Creating layer conv2_2_1x1_increase
I0620 03:59:13.369855   848 net.cpp:106] Creating Layer conv2_2_1x1_increase
I0620 03:59:13.369858   848 net.cpp:454] conv2_2_1x1_increase <- conv2_2_3x3
I0620 03:59:13.369861   848 net.cpp:411] conv2_2_1x1_increase -> conv2_2_1x1_increase
I0620 03:59:13.370304   848 net.cpp:150] Setting up conv2_2_1x1_increase
I0620 03:59:13.370308   848 net.cpp:157] Top shape: 1 256 119 119 (3625216)
I0620 03:59:13.370311   848 net.cpp:165] Memory required for data: 368312832
I0620 03:59:13.370312   848 layer_factory.hpp:77] Creating layer conv2_2_1x1_increase/bn
I0620 03:59:13.370316   848 net.cpp:106] Creating Layer conv2_2_1x1_increase/bn
I0620 03:59:13.370319   848 net.cpp:454] conv2_2_1x1_increase/bn <- conv2_2_1x1_increase
I0620 03:59:13.370322   848 net.cpp:397] conv2_2_1x1_increase/bn -> conv2_2_1x1_increase (in-place)
I0620 03:59:13.370431   848 net.cpp:150] Setting up conv2_2_1x1_increase/bn
I0620 03:59:13.370435   848 net.cpp:157] Top shape: 1 256 119 119 (3625216)
I0620 03:59:13.370436   848 net.cpp:165] Memory required for data: 382813696
I0620 03:59:13.370440   848 layer_factory.hpp:77] Creating layer conv2_2
I0620 03:59:13.370447   848 net.cpp:106] Creating Layer conv2_2
I0620 03:59:13.370450   848 net.cpp:454] conv2_2 <- conv2_1_conv2_1/relu_0_split_1
I0620 03:59:13.370451   848 net.cpp:454] conv2_2 <- conv2_2_1x1_increase
I0620 03:59:13.370455   848 net.cpp:411] conv2_2 -> conv2_2
I0620 03:59:13.370466   848 net.cpp:150] Setting up conv2_2
I0620 03:59:13.370470   848 net.cpp:157] Top shape: 1 256 119 119 (3625216)
I0620 03:59:13.370471   848 net.cpp:165] Memory required for data: 397314560
I0620 03:59:13.370473   848 layer_factory.hpp:77] Creating layer conv2_2/relu
I0620 03:59:13.370476   848 net.cpp:106] Creating Layer conv2_2/relu
I0620 03:59:13.370478   848 net.cpp:454] conv2_2/relu <- conv2_2
I0620 03:59:13.370481   848 net.cpp:397] conv2_2/relu -> conv2_2 (in-place)
I0620 03:59:13.370482   848 net.cpp:150] Setting up conv2_2/relu
I0620 03:59:13.370484   848 net.cpp:157] Top shape: 1 256 119 119 (3625216)
I0620 03:59:13.370486   848 net.cpp:165] Memory required for data: 411815424
I0620 03:59:13.370487   848 layer_factory.hpp:77] Creating layer conv2_2_conv2_2/relu_0_split
I0620 03:59:13.370491   848 net.cpp:106] Creating Layer conv2_2_conv2_2/relu_0_split
I0620 03:59:13.370492   848 net.cpp:454] conv2_2_conv2_2/relu_0_split <- conv2_2
I0620 03:59:13.370496   848 net.cpp:411] conv2_2_conv2_2/relu_0_split -> conv2_2_conv2_2/relu_0_split_0
I0620 03:59:13.370498   848 net.cpp:411] conv2_2_conv2_2/relu_0_split -> conv2_2_conv2_2/relu_0_split_1
I0620 03:59:13.370515   848 net.cpp:150] Setting up conv2_2_conv2_2/relu_0_split
I0620 03:59:13.370519   848 net.cpp:157] Top shape: 1 256 119 119 (3625216)
I0620 03:59:13.370522   848 net.cpp:157] Top shape: 1 256 119 119 (3625216)
I0620 03:59:13.370522   848 net.cpp:165] Memory required for data: 440817152
I0620 03:59:13.370524   848 layer_factory.hpp:77] Creating layer conv2_3_1x1_reduce
I0620 03:59:13.370529   848 net.cpp:106] Creating Layer conv2_3_1x1_reduce
I0620 03:59:13.370532   848 net.cpp:454] conv2_3_1x1_reduce <- conv2_2_conv2_2/relu_0_split_0
I0620 03:59:13.370535   848 net.cpp:411] conv2_3_1x1_reduce -> conv2_3_1x1_reduce
I0620 03:59:13.370975   848 net.cpp:150] Setting up conv2_3_1x1_reduce
I0620 03:59:13.370980   848 net.cpp:157] Top shape: 1 64 119 119 (906304)
I0620 03:59:13.370981   848 net.cpp:165] Memory required for data: 444442368
I0620 03:59:13.370983   848 layer_factory.hpp:77] Creating layer conv2_3_1x1_reduce/bn
I0620 03:59:13.370988   848 net.cpp:106] Creating Layer conv2_3_1x1_reduce/bn
I0620 03:59:13.370991   848 net.cpp:454] conv2_3_1x1_reduce/bn <- conv2_3_1x1_reduce
I0620 03:59:13.370995   848 net.cpp:397] conv2_3_1x1_reduce/bn -> conv2_3_1x1_reduce (in-place)
I0620 03:59:13.371116   848 net.cpp:150] Setting up conv2_3_1x1_reduce/bn
I0620 03:59:13.371120   848 net.cpp:157] Top shape: 1 64 119 119 (906304)
I0620 03:59:13.371122   848 net.cpp:165] Memory required for data: 448067584
I0620 03:59:13.371126   848 layer_factory.hpp:77] Creating layer conv2_3_1x1_reduce/relu
I0620 03:59:13.371129   848 net.cpp:106] Creating Layer conv2_3_1x1_reduce/relu
I0620 03:59:13.371131   848 net.cpp:454] conv2_3_1x1_reduce/relu <- conv2_3_1x1_reduce
I0620 03:59:13.371134   848 net.cpp:397] conv2_3_1x1_reduce/relu -> conv2_3_1x1_reduce (in-place)
I0620 03:59:13.371136   848 net.cpp:150] Setting up conv2_3_1x1_reduce/relu
I0620 03:59:13.371139   848 net.cpp:157] Top shape: 1 64 119 119 (906304)
I0620 03:59:13.371140   848 net.cpp:165] Memory required for data: 451692800
I0620 03:59:13.371141   848 layer_factory.hpp:77] Creating layer conv2_3_3x3
I0620 03:59:13.371146   848 net.cpp:106] Creating Layer conv2_3_3x3
I0620 03:59:13.371148   848 net.cpp:454] conv2_3_3x3 <- conv2_3_1x1_reduce
I0620 03:59:13.371152   848 net.cpp:411] conv2_3_3x3 -> conv2_3_3x3
I0620 03:59:13.372021   848 net.cpp:150] Setting up conv2_3_3x3
I0620 03:59:13.372025   848 net.cpp:157] Top shape: 1 64 119 119 (906304)
I0620 03:59:13.372027   848 net.cpp:165] Memory required for data: 455318016
I0620 03:59:13.372030   848 layer_factory.hpp:77] Creating layer conv2_3_3x3/bn
I0620 03:59:13.372033   848 net.cpp:106] Creating Layer conv2_3_3x3/bn
I0620 03:59:13.372035   848 net.cpp:454] conv2_3_3x3/bn <- conv2_3_3x3
I0620 03:59:13.372040   848 net.cpp:397] conv2_3_3x3/bn -> conv2_3_3x3 (in-place)
I0620 03:59:13.372167   848 net.cpp:150] Setting up conv2_3_3x3/bn
I0620 03:59:13.372171   848 net.cpp:157] Top shape: 1 64 119 119 (906304)
I0620 03:59:13.372174   848 net.cpp:165] Memory required for data: 458943232
I0620 03:59:13.372176   848 layer_factory.hpp:77] Creating layer conv2_3_3x3/relu
I0620 03:59:13.372180   848 net.cpp:106] Creating Layer conv2_3_3x3/relu
I0620 03:59:13.372182   848 net.cpp:454] conv2_3_3x3/relu <- conv2_3_3x3
I0620 03:59:13.372184   848 net.cpp:397] conv2_3_3x3/relu -> conv2_3_3x3 (in-place)
I0620 03:59:13.372186   848 net.cpp:150] Setting up conv2_3_3x3/relu
I0620 03:59:13.372189   848 net.cpp:157] Top shape: 1 64 119 119 (906304)
I0620 03:59:13.372190   848 net.cpp:165] Memory required for data: 462568448
I0620 03:59:13.372192   848 layer_factory.hpp:77] Creating layer conv2_3_1x1_increase
I0620 03:59:13.372197   848 net.cpp:106] Creating Layer conv2_3_1x1_increase
I0620 03:59:13.372200   848 net.cpp:454] conv2_3_1x1_increase <- conv2_3_3x3
I0620 03:59:13.372203   848 net.cpp:411] conv2_3_1x1_increase -> conv2_3_1x1_increase
I0620 03:59:13.372648   848 net.cpp:150] Setting up conv2_3_1x1_increase
I0620 03:59:13.372653   848 net.cpp:157] Top shape: 1 256 119 119 (3625216)
I0620 03:59:13.372654   848 net.cpp:165] Memory required for data: 477069312
I0620 03:59:13.372656   848 layer_factory.hpp:77] Creating layer conv2_3_1x1_increase/bn
I0620 03:59:13.372659   848 net.cpp:106] Creating Layer conv2_3_1x1_increase/bn
I0620 03:59:13.372663   848 net.cpp:454] conv2_3_1x1_increase/bn <- conv2_3_1x1_increase
I0620 03:59:13.372666   848 net.cpp:397] conv2_3_1x1_increase/bn -> conv2_3_1x1_increase (in-place)
I0620 03:59:13.372783   848 net.cpp:150] Setting up conv2_3_1x1_increase/bn
I0620 03:59:13.372787   848 net.cpp:157] Top shape: 1 256 119 119 (3625216)
I0620 03:59:13.372788   848 net.cpp:165] Memory required for data: 491570176
I0620 03:59:13.372797   848 layer_factory.hpp:77] Creating layer conv2_3
I0620 03:59:13.372802   848 net.cpp:106] Creating Layer conv2_3
I0620 03:59:13.372803   848 net.cpp:454] conv2_3 <- conv2_2_conv2_2/relu_0_split_1
I0620 03:59:13.372807   848 net.cpp:454] conv2_3 <- conv2_3_1x1_increase
I0620 03:59:13.372808   848 net.cpp:411] conv2_3 -> conv2_3
I0620 03:59:13.372820   848 net.cpp:150] Setting up conv2_3
I0620 03:59:13.372824   848 net.cpp:157] Top shape: 1 256 119 119 (3625216)
I0620 03:59:13.372826   848 net.cpp:165] Memory required for data: 506071040
I0620 03:59:13.372828   848 layer_factory.hpp:77] Creating layer conv2_3/relu
I0620 03:59:13.372830   848 net.cpp:106] Creating Layer conv2_3/relu
I0620 03:59:13.372833   848 net.cpp:454] conv2_3/relu <- conv2_3
I0620 03:59:13.372835   848 net.cpp:397] conv2_3/relu -> conv2_3 (in-place)
I0620 03:59:13.372838   848 net.cpp:150] Setting up conv2_3/relu
I0620 03:59:13.372840   848 net.cpp:157] Top shape: 1 256 119 119 (3625216)
I0620 03:59:13.372843   848 net.cpp:165] Memory required for data: 520571904
I0620 03:59:13.372843   848 layer_factory.hpp:77] Creating layer conv2_3_conv2_3/relu_0_split
I0620 03:59:13.372846   848 net.cpp:106] Creating Layer conv2_3_conv2_3/relu_0_split
I0620 03:59:13.372848   848 net.cpp:454] conv2_3_conv2_3/relu_0_split <- conv2_3
I0620 03:59:13.372850   848 net.cpp:411] conv2_3_conv2_3/relu_0_split -> conv2_3_conv2_3/relu_0_split_0
I0620 03:59:13.372854   848 net.cpp:411] conv2_3_conv2_3/relu_0_split -> conv2_3_conv2_3/relu_0_split_1
I0620 03:59:13.372872   848 net.cpp:150] Setting up conv2_3_conv2_3/relu_0_split
I0620 03:59:13.372875   848 net.cpp:157] Top shape: 1 256 119 119 (3625216)
I0620 03:59:13.372877   848 net.cpp:157] Top shape: 1 256 119 119 (3625216)
I0620 03:59:13.372879   848 net.cpp:165] Memory required for data: 549573632
I0620 03:59:13.372881   848 layer_factory.hpp:77] Creating layer conv3_1_1x1_reduce
I0620 03:59:13.372887   848 net.cpp:106] Creating Layer conv3_1_1x1_reduce
I0620 03:59:13.372889   848 net.cpp:454] conv3_1_1x1_reduce <- conv2_3_conv2_3/relu_0_split_0
I0620 03:59:13.372892   848 net.cpp:411] conv3_1_1x1_reduce -> conv3_1_1x1_reduce
I0620 03:59:13.373683   848 net.cpp:150] Setting up conv3_1_1x1_reduce
I0620 03:59:13.373687   848 net.cpp:157] Top shape: 1 128 119 119 (1812608)
I0620 03:59:13.373687   848 net.cpp:165] Memory required for data: 556824064
I0620 03:59:13.373690   848 layer_factory.hpp:77] Creating layer conv3_1_1x1_reduce/bn
I0620 03:59:13.373693   848 net.cpp:106] Creating Layer conv3_1_1x1_reduce/bn
I0620 03:59:13.373695   848 net.cpp:454] conv3_1_1x1_reduce/bn <- conv3_1_1x1_reduce
I0620 03:59:13.373699   848 net.cpp:397] conv3_1_1x1_reduce/bn -> conv3_1_1x1_reduce (in-place)
I0620 03:59:13.373860   848 net.cpp:150] Setting up conv3_1_1x1_reduce/bn
I0620 03:59:13.373867   848 net.cpp:157] Top shape: 1 128 119 119 (1812608)
I0620 03:59:13.373869   848 net.cpp:165] Memory required for data: 564074496
I0620 03:59:13.373877   848 layer_factory.hpp:77] Creating layer conv3_1_1x1_reduce/relu
I0620 03:59:13.373881   848 net.cpp:106] Creating Layer conv3_1_1x1_reduce/relu
I0620 03:59:13.373884   848 net.cpp:454] conv3_1_1x1_reduce/relu <- conv3_1_1x1_reduce
I0620 03:59:13.373888   848 net.cpp:397] conv3_1_1x1_reduce/relu -> conv3_1_1x1_reduce (in-place)
I0620 03:59:13.373893   848 net.cpp:150] Setting up conv3_1_1x1_reduce/relu
I0620 03:59:13.373895   848 net.cpp:157] Top shape: 1 128 119 119 (1812608)
I0620 03:59:13.373898   848 net.cpp:165] Memory required for data: 571324928
I0620 03:59:13.373900   848 layer_factory.hpp:77] Creating layer conv3_1_3x3
I0620 03:59:13.373906   848 net.cpp:106] Creating Layer conv3_1_3x3
I0620 03:59:13.373909   848 net.cpp:454] conv3_1_3x3 <- conv3_1_1x1_reduce
I0620 03:59:13.373915   848 net.cpp:411] conv3_1_3x3 -> conv3_1_3x3
I0620 03:59:13.378538   848 net.cpp:150] Setting up conv3_1_3x3
I0620 03:59:13.378594   848 net.cpp:157] Top shape: 1 128 60 60 (460800)
I0620 03:59:13.378598   848 net.cpp:165] Memory required for data: 573168128
I0620 03:59:13.378613   848 layer_factory.hpp:77] Creating layer conv3_1_3x3/bn
I0620 03:59:13.378644   848 net.cpp:106] Creating Layer conv3_1_3x3/bn
I0620 03:59:13.378654   848 net.cpp:454] conv3_1_3x3/bn <- conv3_1_3x3
I0620 03:59:13.378664   848 net.cpp:397] conv3_1_3x3/bn -> conv3_1_3x3 (in-place)
I0620 03:59:13.378903   848 net.cpp:150] Setting up conv3_1_3x3/bn
I0620 03:59:13.378911   848 net.cpp:157] Top shape: 1 128 60 60 (460800)
I0620 03:59:13.378914   848 net.cpp:165] Memory required for data: 575011328
I0620 03:59:13.378923   848 layer_factory.hpp:77] Creating layer conv3_1_3x3/relu
I0620 03:59:13.378932   848 net.cpp:106] Creating Layer conv3_1_3x3/relu
I0620 03:59:13.378935   848 net.cpp:454] conv3_1_3x3/relu <- conv3_1_3x3
I0620 03:59:13.378938   848 net.cpp:397] conv3_1_3x3/relu -> conv3_1_3x3 (in-place)
I0620 03:59:13.378942   848 net.cpp:150] Setting up conv3_1_3x3/relu
I0620 03:59:13.378947   848 net.cpp:157] Top shape: 1 128 60 60 (460800)
I0620 03:59:13.378948   848 net.cpp:165] Memory required for data: 576854528
I0620 03:59:13.378952   848 layer_factory.hpp:77] Creating layer conv3_1_1x1_increase
I0620 03:59:13.378963   848 net.cpp:106] Creating Layer conv3_1_1x1_increase
I0620 03:59:13.378967   848 net.cpp:454] conv3_1_1x1_increase <- conv3_1_3x3
I0620 03:59:13.378975   848 net.cpp:411] conv3_1_1x1_increase -> conv3_1_1x1_increase
I0620 03:59:13.381244   848 net.cpp:150] Setting up conv3_1_1x1_increase
I0620 03:59:13.381276   848 net.cpp:157] Top shape: 1 512 60 60 (1843200)
I0620 03:59:13.381280   848 net.cpp:165] Memory required for data: 584227328
I0620 03:59:13.381291   848 layer_factory.hpp:77] Creating layer conv3_1_1x1_increase/bn
I0620 03:59:13.381310   848 net.cpp:106] Creating Layer conv3_1_1x1_increase/bn
I0620 03:59:13.381317   848 net.cpp:454] conv3_1_1x1_increase/bn <- conv3_1_1x1_increase
I0620 03:59:13.381326   848 net.cpp:397] conv3_1_1x1_increase/bn -> conv3_1_1x1_increase (in-place)
I0620 03:59:13.383127   848 net.cpp:150] Setting up conv3_1_1x1_increase/bn
I0620 03:59:13.383165   848 net.cpp:157] Top shape: 1 512 60 60 (1843200)
I0620 03:59:13.383169   848 net.cpp:165] Memory required for data: 591600128
I0620 03:59:13.383184   848 layer_factory.hpp:77] Creating layer conv3_1_1x1_proj
I0620 03:59:13.383213   848 net.cpp:106] Creating Layer conv3_1_1x1_proj
I0620 03:59:13.383219   848 net.cpp:454] conv3_1_1x1_proj <- conv2_3_conv2_3/relu_0_split_1
I0620 03:59:13.383229   848 net.cpp:411] conv3_1_1x1_proj -> conv3_1_1x1_proj
I0620 03:59:13.387634   848 net.cpp:150] Setting up conv3_1_1x1_proj
I0620 03:59:13.387675   848 net.cpp:157] Top shape: 1 512 60 60 (1843200)
I0620 03:59:13.387678   848 net.cpp:165] Memory required for data: 598972928
I0620 03:59:13.387691   848 layer_factory.hpp:77] Creating layer conv3_1_1x1_proj/bn
I0620 03:59:13.387713   848 net.cpp:106] Creating Layer conv3_1_1x1_proj/bn
I0620 03:59:13.387722   848 net.cpp:454] conv3_1_1x1_proj/bn <- conv3_1_1x1_proj
I0620 03:59:13.387732   848 net.cpp:397] conv3_1_1x1_proj/bn -> conv3_1_1x1_proj (in-place)
I0620 03:59:13.387966   848 net.cpp:150] Setting up conv3_1_1x1_proj/bn
I0620 03:59:13.387971   848 net.cpp:157] Top shape: 1 512 60 60 (1843200)
I0620 03:59:13.387974   848 net.cpp:165] Memory required for data: 606345728
I0620 03:59:13.387980   848 layer_factory.hpp:77] Creating layer conv3_1
I0620 03:59:13.387992   848 net.cpp:106] Creating Layer conv3_1
I0620 03:59:13.387995   848 net.cpp:454] conv3_1 <- conv3_1_1x1_proj
I0620 03:59:13.387998   848 net.cpp:454] conv3_1 <- conv3_1_1x1_increase
I0620 03:59:13.388002   848 net.cpp:411] conv3_1 -> conv3_1
I0620 03:59:13.388022   848 net.cpp:150] Setting up conv3_1
I0620 03:59:13.388025   848 net.cpp:157] Top shape: 1 512 60 60 (1843200)
I0620 03:59:13.388027   848 net.cpp:165] Memory required for data: 613718528
I0620 03:59:13.388031   848 layer_factory.hpp:77] Creating layer conv3_1/relu
I0620 03:59:13.388041   848 net.cpp:106] Creating Layer conv3_1/relu
I0620 03:59:13.388043   848 net.cpp:454] conv3_1/relu <- conv3_1
I0620 03:59:13.388046   848 net.cpp:397] conv3_1/relu -> conv3_1 (in-place)
I0620 03:59:13.388051   848 net.cpp:150] Setting up conv3_1/relu
I0620 03:59:13.388054   848 net.cpp:157] Top shape: 1 512 60 60 (1843200)
I0620 03:59:13.388057   848 net.cpp:165] Memory required for data: 621091328
I0620 03:59:13.388059   848 layer_factory.hpp:77] Creating layer conv3_1_conv3_1/relu_0_split
I0620 03:59:13.388067   848 net.cpp:106] Creating Layer conv3_1_conv3_1/relu_0_split
I0620 03:59:13.388068   848 net.cpp:454] conv3_1_conv3_1/relu_0_split <- conv3_1
I0620 03:59:13.388077   848 net.cpp:411] conv3_1_conv3_1/relu_0_split -> conv3_1_conv3_1/relu_0_split_0
I0620 03:59:13.388080   848 net.cpp:411] conv3_1_conv3_1/relu_0_split -> conv3_1_conv3_1/relu_0_split_1
I0620 03:59:13.388118   848 net.cpp:150] Setting up conv3_1_conv3_1/relu_0_split
I0620 03:59:13.388123   848 net.cpp:157] Top shape: 1 512 60 60 (1843200)
I0620 03:59:13.388128   848 net.cpp:157] Top shape: 1 512 60 60 (1843200)
I0620 03:59:13.388129   848 net.cpp:165] Memory required for data: 635836928
I0620 03:59:13.388133   848 layer_factory.hpp:77] Creating layer conv3_2_1x1_reduce
I0620 03:59:13.388145   848 net.cpp:106] Creating Layer conv3_2_1x1_reduce
I0620 03:59:13.388149   848 net.cpp:454] conv3_2_1x1_reduce <- conv3_1_conv3_1/relu_0_split_0
I0620 03:59:13.388154   848 net.cpp:411] conv3_2_1x1_reduce -> conv3_2_1x1_reduce
I0620 03:59:13.390097   848 net.cpp:150] Setting up conv3_2_1x1_reduce
I0620 03:59:13.390105   848 net.cpp:157] Top shape: 1 128 60 60 (460800)
I0620 03:59:13.390106   848 net.cpp:165] Memory required for data: 637680128
I0620 03:59:13.390110   848 layer_factory.hpp:77] Creating layer conv3_2_1x1_reduce/bn
I0620 03:59:13.390116   848 net.cpp:106] Creating Layer conv3_2_1x1_reduce/bn
I0620 03:59:13.390118   848 net.cpp:454] conv3_2_1x1_reduce/bn <- conv3_2_1x1_reduce
I0620 03:59:13.390122   848 net.cpp:397] conv3_2_1x1_reduce/bn -> conv3_2_1x1_reduce (in-place)
I0620 03:59:13.390240   848 net.cpp:150] Setting up conv3_2_1x1_reduce/bn
I0620 03:59:13.390244   848 net.cpp:157] Top shape: 1 128 60 60 (460800)
I0620 03:59:13.390245   848 net.cpp:165] Memory required for data: 639523328
I0620 03:59:13.390249   848 layer_factory.hpp:77] Creating layer conv3_2_1x1_reduce/relu
I0620 03:59:13.390254   848 net.cpp:106] Creating Layer conv3_2_1x1_reduce/relu
I0620 03:59:13.390254   848 net.cpp:454] conv3_2_1x1_reduce/relu <- conv3_2_1x1_reduce
I0620 03:59:13.390257   848 net.cpp:397] conv3_2_1x1_reduce/relu -> conv3_2_1x1_reduce (in-place)
I0620 03:59:13.390260   848 net.cpp:150] Setting up conv3_2_1x1_reduce/relu
I0620 03:59:13.390262   848 net.cpp:157] Top shape: 1 128 60 60 (460800)
I0620 03:59:13.390264   848 net.cpp:165] Memory required for data: 641366528
I0620 03:59:13.390265   848 layer_factory.hpp:77] Creating layer conv3_2_3x3
I0620 03:59:13.390270   848 net.cpp:106] Creating Layer conv3_2_3x3
I0620 03:59:13.390271   848 net.cpp:454] conv3_2_3x3 <- conv3_2_1x1_reduce
I0620 03:59:13.390275   848 net.cpp:411] conv3_2_3x3 -> conv3_2_3x3
I0620 03:59:13.393887   848 net.cpp:150] Setting up conv3_2_3x3
I0620 03:59:13.393895   848 net.cpp:157] Top shape: 1 128 60 60 (460800)
I0620 03:59:13.393898   848 net.cpp:165] Memory required for data: 643209728
I0620 03:59:13.393903   848 layer_factory.hpp:77] Creating layer conv3_2_3x3/bn
I0620 03:59:13.393908   848 net.cpp:106] Creating Layer conv3_2_3x3/bn
I0620 03:59:13.393910   848 net.cpp:454] conv3_2_3x3/bn <- conv3_2_3x3
I0620 03:59:13.393915   848 net.cpp:397] conv3_2_3x3/bn -> conv3_2_3x3 (in-place)
I0620 03:59:13.394031   848 net.cpp:150] Setting up conv3_2_3x3/bn
I0620 03:59:13.394034   848 net.cpp:157] Top shape: 1 128 60 60 (460800)
I0620 03:59:13.394037   848 net.cpp:165] Memory required for data: 645052928
I0620 03:59:13.394042   848 layer_factory.hpp:77] Creating layer conv3_2_3x3/relu
I0620 03:59:13.394052   848 net.cpp:106] Creating Layer conv3_2_3x3/relu
I0620 03:59:13.394053   848 net.cpp:454] conv3_2_3x3/relu <- conv3_2_3x3
I0620 03:59:13.394057   848 net.cpp:397] conv3_2_3x3/relu -> conv3_2_3x3 (in-place)
I0620 03:59:13.394060   848 net.cpp:150] Setting up conv3_2_3x3/relu
I0620 03:59:13.394063   848 net.cpp:157] Top shape: 1 128 60 60 (460800)
I0620 03:59:13.394064   848 net.cpp:165] Memory required for data: 646896128
I0620 03:59:13.394067   848 layer_factory.hpp:77] Creating layer conv3_2_1x1_increase
I0620 03:59:13.394073   848 net.cpp:106] Creating Layer conv3_2_1x1_increase
I0620 03:59:13.394075   848 net.cpp:454] conv3_2_1x1_increase <- conv3_2_3x3
I0620 03:59:13.394079   848 net.cpp:411] conv3_2_1x1_increase -> conv3_2_1x1_increase
I0620 03:59:13.396132   848 net.cpp:150] Setting up conv3_2_1x1_increase
I0620 03:59:13.396139   848 net.cpp:157] Top shape: 1 512 60 60 (1843200)
I0620 03:59:13.396142   848 net.cpp:165] Memory required for data: 654268928
I0620 03:59:13.396144   848 layer_factory.hpp:77] Creating layer conv3_2_1x1_increase/bn
I0620 03:59:13.396152   848 net.cpp:106] Creating Layer conv3_2_1x1_increase/bn
I0620 03:59:13.396154   848 net.cpp:454] conv3_2_1x1_increase/bn <- conv3_2_1x1_increase
I0620 03:59:13.396157   848 net.cpp:397] conv3_2_1x1_increase/bn -> conv3_2_1x1_increase (in-place)
I0620 03:59:13.396282   848 net.cpp:150] Setting up conv3_2_1x1_increase/bn
I0620 03:59:13.396286   848 net.cpp:157] Top shape: 1 512 60 60 (1843200)
I0620 03:59:13.396287   848 net.cpp:165] Memory required for data: 661641728
I0620 03:59:13.396291   848 layer_factory.hpp:77] Creating layer conv3_2
I0620 03:59:13.396297   848 net.cpp:106] Creating Layer conv3_2
I0620 03:59:13.396299   848 net.cpp:454] conv3_2 <- conv3_1_conv3_1/relu_0_split_1
I0620 03:59:13.396302   848 net.cpp:454] conv3_2 <- conv3_2_1x1_increase
I0620 03:59:13.396304   848 net.cpp:411] conv3_2 -> conv3_2
I0620 03:59:13.396318   848 net.cpp:150] Setting up conv3_2
I0620 03:59:13.396322   848 net.cpp:157] Top shape: 1 512 60 60 (1843200)
I0620 03:59:13.396323   848 net.cpp:165] Memory required for data: 669014528
I0620 03:59:13.396325   848 layer_factory.hpp:77] Creating layer conv3_2/relu
I0620 03:59:13.396328   848 net.cpp:106] Creating Layer conv3_2/relu
I0620 03:59:13.396329   848 net.cpp:454] conv3_2/relu <- conv3_2
I0620 03:59:13.396332   848 net.cpp:397] conv3_2/relu -> conv3_2 (in-place)
I0620 03:59:13.396335   848 net.cpp:150] Setting up conv3_2/relu
I0620 03:59:13.396337   848 net.cpp:157] Top shape: 1 512 60 60 (1843200)
I0620 03:59:13.396339   848 net.cpp:165] Memory required for data: 676387328
I0620 03:59:13.396340   848 layer_factory.hpp:77] Creating layer conv3_2_conv3_2/relu_0_split
I0620 03:59:13.396343   848 net.cpp:106] Creating Layer conv3_2_conv3_2/relu_0_split
I0620 03:59:13.396345   848 net.cpp:454] conv3_2_conv3_2/relu_0_split <- conv3_2
I0620 03:59:13.396347   848 net.cpp:411] conv3_2_conv3_2/relu_0_split -> conv3_2_conv3_2/relu_0_split_0
I0620 03:59:13.396349   848 net.cpp:411] conv3_2_conv3_2/relu_0_split -> conv3_2_conv3_2/relu_0_split_1
I0620 03:59:13.396368   848 net.cpp:150] Setting up conv3_2_conv3_2/relu_0_split
I0620 03:59:13.396370   848 net.cpp:157] Top shape: 1 512 60 60 (1843200)
I0620 03:59:13.396373   848 net.cpp:157] Top shape: 1 512 60 60 (1843200)
I0620 03:59:13.396374   848 net.cpp:165] Memory required for data: 691132928
I0620 03:59:13.396375   848 layer_factory.hpp:77] Creating layer conv3_3_1x1_reduce
I0620 03:59:13.396380   848 net.cpp:106] Creating Layer conv3_3_1x1_reduce
I0620 03:59:13.396383   848 net.cpp:454] conv3_3_1x1_reduce <- conv3_2_conv3_2/relu_0_split_0
I0620 03:59:13.396385   848 net.cpp:411] conv3_3_1x1_reduce -> conv3_3_1x1_reduce
I0620 03:59:13.397852   848 net.cpp:150] Setting up conv3_3_1x1_reduce
I0620 03:59:13.397856   848 net.cpp:157] Top shape: 1 128 60 60 (460800)
I0620 03:59:13.397857   848 net.cpp:165] Memory required for data: 692976128
I0620 03:59:13.397861   848 layer_factory.hpp:77] Creating layer conv3_3_1x1_reduce/bn
I0620 03:59:13.397863   848 net.cpp:106] Creating Layer conv3_3_1x1_reduce/bn
I0620 03:59:13.397864   848 net.cpp:454] conv3_3_1x1_reduce/bn <- conv3_3_1x1_reduce
I0620 03:59:13.397868   848 net.cpp:397] conv3_3_1x1_reduce/bn -> conv3_3_1x1_reduce (in-place)
I0620 03:59:13.397979   848 net.cpp:150] Setting up conv3_3_1x1_reduce/bn
I0620 03:59:13.397981   848 net.cpp:157] Top shape: 1 128 60 60 (460800)
I0620 03:59:13.397984   848 net.cpp:165] Memory required for data: 694819328
I0620 03:59:13.397987   848 layer_factory.hpp:77] Creating layer conv3_3_1x1_reduce/relu
I0620 03:59:13.397990   848 net.cpp:106] Creating Layer conv3_3_1x1_reduce/relu
I0620 03:59:13.397991   848 net.cpp:454] conv3_3_1x1_reduce/relu <- conv3_3_1x1_reduce
I0620 03:59:13.397994   848 net.cpp:397] conv3_3_1x1_reduce/relu -> conv3_3_1x1_reduce (in-place)
I0620 03:59:13.397997   848 net.cpp:150] Setting up conv3_3_1x1_reduce/relu
I0620 03:59:13.398000   848 net.cpp:157] Top shape: 1 128 60 60 (460800)
I0620 03:59:13.398001   848 net.cpp:165] Memory required for data: 696662528
I0620 03:59:13.398003   848 layer_factory.hpp:77] Creating layer conv3_3_3x3
I0620 03:59:13.398007   848 net.cpp:106] Creating Layer conv3_3_3x3
I0620 03:59:13.398008   848 net.cpp:454] conv3_3_3x3 <- conv3_3_1x1_reduce
I0620 03:59:13.398011   848 net.cpp:411] conv3_3_3x3 -> conv3_3_3x3
I0620 03:59:13.401790   848 net.cpp:150] Setting up conv3_3_3x3
I0620 03:59:13.401796   848 net.cpp:157] Top shape: 1 128 60 60 (460800)
I0620 03:59:13.401798   848 net.cpp:165] Memory required for data: 698505728
I0620 03:59:13.401801   848 layer_factory.hpp:77] Creating layer conv3_3_3x3/bn
I0620 03:59:13.401804   848 net.cpp:106] Creating Layer conv3_3_3x3/bn
I0620 03:59:13.401806   848 net.cpp:454] conv3_3_3x3/bn <- conv3_3_3x3
I0620 03:59:13.401809   848 net.cpp:397] conv3_3_3x3/bn -> conv3_3_3x3 (in-place)
I0620 03:59:13.401926   848 net.cpp:150] Setting up conv3_3_3x3/bn
I0620 03:59:13.401928   848 net.cpp:157] Top shape: 1 128 60 60 (460800)
I0620 03:59:13.401929   848 net.cpp:165] Memory required for data: 700348928
I0620 03:59:13.401933   848 layer_factory.hpp:77] Creating layer conv3_3_3x3/relu
I0620 03:59:13.401937   848 net.cpp:106] Creating Layer conv3_3_3x3/relu
I0620 03:59:13.401938   848 net.cpp:454] conv3_3_3x3/relu <- conv3_3_3x3
I0620 03:59:13.401940   848 net.cpp:397] conv3_3_3x3/relu -> conv3_3_3x3 (in-place)
I0620 03:59:13.401943   848 net.cpp:150] Setting up conv3_3_3x3/relu
I0620 03:59:13.401945   848 net.cpp:157] Top shape: 1 128 60 60 (460800)
I0620 03:59:13.401947   848 net.cpp:165] Memory required for data: 702192128
I0620 03:59:13.401948   848 layer_factory.hpp:77] Creating layer conv3_3_1x1_increase
I0620 03:59:13.401953   848 net.cpp:106] Creating Layer conv3_3_1x1_increase
I0620 03:59:13.401955   848 net.cpp:454] conv3_3_1x1_increase <- conv3_3_3x3
I0620 03:59:13.401958   848 net.cpp:411] conv3_3_1x1_increase -> conv3_3_1x1_increase
I0620 03:59:13.403427   848 net.cpp:150] Setting up conv3_3_1x1_increase
I0620 03:59:13.403430   848 net.cpp:157] Top shape: 1 512 60 60 (1843200)
I0620 03:59:13.403431   848 net.cpp:165] Memory required for data: 709564928
I0620 03:59:13.403434   848 layer_factory.hpp:77] Creating layer conv3_3_1x1_increase/bn
I0620 03:59:13.403437   848 net.cpp:106] Creating Layer conv3_3_1x1_increase/bn
I0620 03:59:13.403439   848 net.cpp:454] conv3_3_1x1_increase/bn <- conv3_3_1x1_increase
I0620 03:59:13.403442   848 net.cpp:397] conv3_3_1x1_increase/bn -> conv3_3_1x1_increase (in-place)
I0620 03:59:13.403556   848 net.cpp:150] Setting up conv3_3_1x1_increase/bn
I0620 03:59:13.403559   848 net.cpp:157] Top shape: 1 512 60 60 (1843200)
I0620 03:59:13.403561   848 net.cpp:165] Memory required for data: 716937728
I0620 03:59:13.403565   848 layer_factory.hpp:77] Creating layer conv3_3
I0620 03:59:13.403569   848 net.cpp:106] Creating Layer conv3_3
I0620 03:59:13.403570   848 net.cpp:454] conv3_3 <- conv3_2_conv3_2/relu_0_split_1
I0620 03:59:13.403573   848 net.cpp:454] conv3_3 <- conv3_3_1x1_increase
I0620 03:59:13.403575   848 net.cpp:411] conv3_3 -> conv3_3
I0620 03:59:13.403586   848 net.cpp:150] Setting up conv3_3
I0620 03:59:13.403589   848 net.cpp:157] Top shape: 1 512 60 60 (1843200)
I0620 03:59:13.403590   848 net.cpp:165] Memory required for data: 724310528
I0620 03:59:13.403591   848 layer_factory.hpp:77] Creating layer conv3_3/relu
I0620 03:59:13.403594   848 net.cpp:106] Creating Layer conv3_3/relu
I0620 03:59:13.403596   848 net.cpp:454] conv3_3/relu <- conv3_3
I0620 03:59:13.403599   848 net.cpp:397] conv3_3/relu -> conv3_3 (in-place)
I0620 03:59:13.403601   848 net.cpp:150] Setting up conv3_3/relu
I0620 03:59:13.403604   848 net.cpp:157] Top shape: 1 512 60 60 (1843200)
I0620 03:59:13.403605   848 net.cpp:165] Memory required for data: 731683328
I0620 03:59:13.403607   848 layer_factory.hpp:77] Creating layer conv3_3_conv3_3/relu_0_split
I0620 03:59:13.403609   848 net.cpp:106] Creating Layer conv3_3_conv3_3/relu_0_split
I0620 03:59:13.403611   848 net.cpp:454] conv3_3_conv3_3/relu_0_split <- conv3_3
I0620 03:59:13.403614   848 net.cpp:411] conv3_3_conv3_3/relu_0_split -> conv3_3_conv3_3/relu_0_split_0
I0620 03:59:13.403616   848 net.cpp:411] conv3_3_conv3_3/relu_0_split -> conv3_3_conv3_3/relu_0_split_1
I0620 03:59:13.403633   848 net.cpp:150] Setting up conv3_3_conv3_3/relu_0_split
I0620 03:59:13.403636   848 net.cpp:157] Top shape: 1 512 60 60 (1843200)
I0620 03:59:13.403638   848 net.cpp:157] Top shape: 1 512 60 60 (1843200)
I0620 03:59:13.403640   848 net.cpp:165] Memory required for data: 746428928
I0620 03:59:13.403641   848 layer_factory.hpp:77] Creating layer conv3_4_1x1_reduce
I0620 03:59:13.403645   848 net.cpp:106] Creating Layer conv3_4_1x1_reduce
I0620 03:59:13.403647   848 net.cpp:454] conv3_4_1x1_reduce <- conv3_3_conv3_3/relu_0_split_0
I0620 03:59:13.403651   848 net.cpp:411] conv3_4_1x1_reduce -> conv3_4_1x1_reduce
I0620 03:59:13.405115   848 net.cpp:150] Setting up conv3_4_1x1_reduce
I0620 03:59:13.405118   848 net.cpp:157] Top shape: 1 128 60 60 (460800)
I0620 03:59:13.405120   848 net.cpp:165] Memory required for data: 748272128
I0620 03:59:13.405122   848 layer_factory.hpp:77] Creating layer conv3_4_1x1_reduce/bn
I0620 03:59:13.405128   848 net.cpp:106] Creating Layer conv3_4_1x1_reduce/bn
I0620 03:59:13.405129   848 net.cpp:454] conv3_4_1x1_reduce/bn <- conv3_4_1x1_reduce
I0620 03:59:13.405133   848 net.cpp:397] conv3_4_1x1_reduce/bn -> conv3_4_1x1_reduce (in-place)
I0620 03:59:13.405239   848 net.cpp:150] Setting up conv3_4_1x1_reduce/bn
I0620 03:59:13.405242   848 net.cpp:157] Top shape: 1 128 60 60 (460800)
I0620 03:59:13.405244   848 net.cpp:165] Memory required for data: 750115328
I0620 03:59:13.405248   848 layer_factory.hpp:77] Creating layer conv3_4_1x1_reduce/relu
I0620 03:59:13.405251   848 net.cpp:106] Creating Layer conv3_4_1x1_reduce/relu
I0620 03:59:13.405253   848 net.cpp:454] conv3_4_1x1_reduce/relu <- conv3_4_1x1_reduce
I0620 03:59:13.405256   848 net.cpp:397] conv3_4_1x1_reduce/relu -> conv3_4_1x1_reduce (in-place)
I0620 03:59:13.405258   848 net.cpp:150] Setting up conv3_4_1x1_reduce/relu
I0620 03:59:13.405261   848 net.cpp:157] Top shape: 1 128 60 60 (460800)
I0620 03:59:13.405261   848 net.cpp:165] Memory required for data: 751958528
I0620 03:59:13.405263   848 layer_factory.hpp:77] Creating layer conv3_4_3x3
I0620 03:59:13.405268   848 net.cpp:106] Creating Layer conv3_4_3x3
I0620 03:59:13.405269   848 net.cpp:454] conv3_4_3x3 <- conv3_4_1x1_reduce
I0620 03:59:13.405272   848 net.cpp:411] conv3_4_3x3 -> conv3_4_3x3
I0620 03:59:13.408450   848 net.cpp:150] Setting up conv3_4_3x3
I0620 03:59:13.408454   848 net.cpp:157] Top shape: 1 128 60 60 (460800)
I0620 03:59:13.408455   848 net.cpp:165] Memory required for data: 753801728
I0620 03:59:13.408458   848 layer_factory.hpp:77] Creating layer conv3_4_3x3/bn
I0620 03:59:13.408462   848 net.cpp:106] Creating Layer conv3_4_3x3/bn
I0620 03:59:13.408463   848 net.cpp:454] conv3_4_3x3/bn <- conv3_4_3x3
I0620 03:59:13.408465   848 net.cpp:397] conv3_4_3x3/bn -> conv3_4_3x3 (in-place)
I0620 03:59:13.408572   848 net.cpp:150] Setting up conv3_4_3x3/bn
I0620 03:59:13.408576   848 net.cpp:157] Top shape: 1 128 60 60 (460800)
I0620 03:59:13.408577   848 net.cpp:165] Memory required for data: 755644928
I0620 03:59:13.408581   848 layer_factory.hpp:77] Creating layer conv3_4_3x3/relu
I0620 03:59:13.408583   848 net.cpp:106] Creating Layer conv3_4_3x3/relu
I0620 03:59:13.408586   848 net.cpp:454] conv3_4_3x3/relu <- conv3_4_3x3
I0620 03:59:13.408587   848 net.cpp:397] conv3_4_3x3/relu -> conv3_4_3x3 (in-place)
I0620 03:59:13.408591   848 net.cpp:150] Setting up conv3_4_3x3/relu
I0620 03:59:13.408592   848 net.cpp:157] Top shape: 1 128 60 60 (460800)
I0620 03:59:13.408593   848 net.cpp:165] Memory required for data: 757488128
I0620 03:59:13.408596   848 layer_factory.hpp:77] Creating layer conv3_4_1x1_increase
I0620 03:59:13.408599   848 net.cpp:106] Creating Layer conv3_4_1x1_increase
I0620 03:59:13.408601   848 net.cpp:454] conv3_4_1x1_increase <- conv3_4_3x3
I0620 03:59:13.408604   848 net.cpp:411] conv3_4_1x1_increase -> conv3_4_1x1_increase
I0620 03:59:13.410078   848 net.cpp:150] Setting up conv3_4_1x1_increase
I0620 03:59:13.410080   848 net.cpp:157] Top shape: 1 512 60 60 (1843200)
I0620 03:59:13.410082   848 net.cpp:165] Memory required for data: 764860928
I0620 03:59:13.410084   848 layer_factory.hpp:77] Creating layer conv3_4_1x1_increase/bn
I0620 03:59:13.410087   848 net.cpp:106] Creating Layer conv3_4_1x1_increase/bn
I0620 03:59:13.410089   848 net.cpp:454] conv3_4_1x1_increase/bn <- conv3_4_1x1_increase
I0620 03:59:13.410094   848 net.cpp:397] conv3_4_1x1_increase/bn -> conv3_4_1x1_increase (in-place)
I0620 03:59:13.410205   848 net.cpp:150] Setting up conv3_4_1x1_increase/bn
I0620 03:59:13.410208   848 net.cpp:157] Top shape: 1 512 60 60 (1843200)
I0620 03:59:13.410210   848 net.cpp:165] Memory required for data: 772233728
I0620 03:59:13.410224   848 layer_factory.hpp:77] Creating layer conv3_4
I0620 03:59:13.410228   848 net.cpp:106] Creating Layer conv3_4
I0620 03:59:13.410230   848 net.cpp:454] conv3_4 <- conv3_3_conv3_3/relu_0_split_1
I0620 03:59:13.410233   848 net.cpp:454] conv3_4 <- conv3_4_1x1_increase
I0620 03:59:13.410235   848 net.cpp:411] conv3_4 -> conv3_4
I0620 03:59:13.410248   848 net.cpp:150] Setting up conv3_4
I0620 03:59:13.410249   848 net.cpp:157] Top shape: 1 512 60 60 (1843200)
I0620 03:59:13.410251   848 net.cpp:165] Memory required for data: 779606528
I0620 03:59:13.410253   848 layer_factory.hpp:77] Creating layer conv3_4/relu
I0620 03:59:13.410255   848 net.cpp:106] Creating Layer conv3_4/relu
I0620 03:59:13.410256   848 net.cpp:454] conv3_4/relu <- conv3_4
I0620 03:59:13.410259   848 net.cpp:397] conv3_4/relu -> conv3_4 (in-place)
I0620 03:59:13.410261   848 net.cpp:150] Setting up conv3_4/relu
I0620 03:59:13.410264   848 net.cpp:157] Top shape: 1 512 60 60 (1843200)
I0620 03:59:13.410265   848 net.cpp:165] Memory required for data: 786979328
I0620 03:59:13.410266   848 layer_factory.hpp:77] Creating layer conv3_4_conv3_4/relu_0_split
I0620 03:59:13.410269   848 net.cpp:106] Creating Layer conv3_4_conv3_4/relu_0_split
I0620 03:59:13.410270   848 net.cpp:454] conv3_4_conv3_4/relu_0_split <- conv3_4
I0620 03:59:13.410274   848 net.cpp:411] conv3_4_conv3_4/relu_0_split -> conv3_4_conv3_4/relu_0_split_0
I0620 03:59:13.410276   848 net.cpp:411] conv3_4_conv3_4/relu_0_split -> conv3_4_conv3_4/relu_0_split_1
I0620 03:59:13.410293   848 net.cpp:150] Setting up conv3_4_conv3_4/relu_0_split
I0620 03:59:13.410296   848 net.cpp:157] Top shape: 1 512 60 60 (1843200)
I0620 03:59:13.410298   848 net.cpp:157] Top shape: 1 512 60 60 (1843200)
I0620 03:59:13.410300   848 net.cpp:165] Memory required for data: 801724928
I0620 03:59:13.410301   848 layer_factory.hpp:77] Creating layer conv4_1_1x1_reduce
I0620 03:59:13.410306   848 net.cpp:106] Creating Layer conv4_1_1x1_reduce
I0620 03:59:13.410308   848 net.cpp:454] conv4_1_1x1_reduce <- conv3_4_conv3_4/relu_0_split_0
I0620 03:59:13.410311   848 net.cpp:411] conv4_1_1x1_reduce -> conv4_1_1x1_reduce
I0620 03:59:13.413126   848 net.cpp:150] Setting up conv4_1_1x1_reduce
I0620 03:59:13.413130   848 net.cpp:157] Top shape: 1 256 60 60 (921600)
I0620 03:59:13.413130   848 net.cpp:165] Memory required for data: 805411328
I0620 03:59:13.413133   848 layer_factory.hpp:77] Creating layer conv4_1_1x1_reduce/bn
I0620 03:59:13.413137   848 net.cpp:106] Creating Layer conv4_1_1x1_reduce/bn
I0620 03:59:13.413138   848 net.cpp:454] conv4_1_1x1_reduce/bn <- conv4_1_1x1_reduce
I0620 03:59:13.413141   848 net.cpp:397] conv4_1_1x1_reduce/bn -> conv4_1_1x1_reduce (in-place)
I0620 03:59:13.413250   848 net.cpp:150] Setting up conv4_1_1x1_reduce/bn
I0620 03:59:13.413254   848 net.cpp:157] Top shape: 1 256 60 60 (921600)
I0620 03:59:13.413255   848 net.cpp:165] Memory required for data: 809097728
I0620 03:59:13.413259   848 layer_factory.hpp:77] Creating layer conv4_1_1x1_reduce/relu
I0620 03:59:13.413261   848 net.cpp:106] Creating Layer conv4_1_1x1_reduce/relu
I0620 03:59:13.413264   848 net.cpp:454] conv4_1_1x1_reduce/relu <- conv4_1_1x1_reduce
I0620 03:59:13.413265   848 net.cpp:397] conv4_1_1x1_reduce/relu -> conv4_1_1x1_reduce (in-place)
I0620 03:59:13.413269   848 net.cpp:150] Setting up conv4_1_1x1_reduce/relu
I0620 03:59:13.413270   848 net.cpp:157] Top shape: 1 256 60 60 (921600)
I0620 03:59:13.413271   848 net.cpp:165] Memory required for data: 812784128
I0620 03:59:13.413274   848 layer_factory.hpp:77] Creating layer conv4_1_3x3
I0620 03:59:13.413276   848 net.cpp:106] Creating Layer conv4_1_3x3
I0620 03:59:13.413278   848 net.cpp:454] conv4_1_3x3 <- conv4_1_1x1_reduce
I0620 03:59:13.413282   848 net.cpp:411] conv4_1_3x3 -> conv4_1_3x3
I0620 03:59:13.429441   848 net.cpp:150] Setting up conv4_1_3x3
I0620 03:59:13.429620   848 net.cpp:157] Top shape: 1 256 60 60 (921600)
I0620 03:59:13.429639   848 net.cpp:165] Memory required for data: 816470528
I0620 03:59:13.429663   848 layer_factory.hpp:77] Creating layer conv4_1_3x3/bn
I0620 03:59:13.429692   848 net.cpp:106] Creating Layer conv4_1_3x3/bn
I0620 03:59:13.429708   848 net.cpp:454] conv4_1_3x3/bn <- conv4_1_3x3
I0620 03:59:13.429735   848 net.cpp:397] conv4_1_3x3/bn -> conv4_1_3x3 (in-place)
I0620 03:59:13.430019   848 net.cpp:150] Setting up conv4_1_3x3/bn
I0620 03:59:13.430035   848 net.cpp:157] Top shape: 1 256 60 60 (921600)
I0620 03:59:13.430044   848 net.cpp:165] Memory required for data: 820156928
I0620 03:59:13.430052   848 layer_factory.hpp:77] Creating layer conv4_1_3x3/relu
I0620 03:59:13.430061   848 net.cpp:106] Creating Layer conv4_1_3x3/relu
I0620 03:59:13.430065   848 net.cpp:454] conv4_1_3x3/relu <- conv4_1_3x3
I0620 03:59:13.430069   848 net.cpp:397] conv4_1_3x3/relu -> conv4_1_3x3 (in-place)
I0620 03:59:13.430074   848 net.cpp:150] Setting up conv4_1_3x3/relu
I0620 03:59:13.430078   848 net.cpp:157] Top shape: 1 256 60 60 (921600)
I0620 03:59:13.430080   848 net.cpp:165] Memory required for data: 823843328
I0620 03:59:13.430083   848 layer_factory.hpp:77] Creating layer conv4_1_1x1_increase
I0620 03:59:13.430095   848 net.cpp:106] Creating Layer conv4_1_1x1_increase
I0620 03:59:13.430097   848 net.cpp:454] conv4_1_1x1_increase <- conv4_1_3x3
I0620 03:59:13.430101   848 net.cpp:411] conv4_1_1x1_increase -> conv4_1_1x1_increase
I0620 03:59:13.438029   848 net.cpp:150] Setting up conv4_1_1x1_increase
I0620 03:59:13.438056   848 net.cpp:157] Top shape: 1 1024 60 60 (3686400)
I0620 03:59:13.438058   848 net.cpp:165] Memory required for data: 838588928
I0620 03:59:13.438063   848 layer_factory.hpp:77] Creating layer conv4_1_1x1_increase/bn
I0620 03:59:13.438072   848 net.cpp:106] Creating Layer conv4_1_1x1_increase/bn
I0620 03:59:13.438076   848 net.cpp:454] conv4_1_1x1_increase/bn <- conv4_1_1x1_increase
I0620 03:59:13.438081   848 net.cpp:397] conv4_1_1x1_increase/bn -> conv4_1_1x1_increase (in-place)
I0620 03:59:13.438217   848 net.cpp:150] Setting up conv4_1_1x1_increase/bn
I0620 03:59:13.438220   848 net.cpp:157] Top shape: 1 1024 60 60 (3686400)
I0620 03:59:13.438221   848 net.cpp:165] Memory required for data: 853334528
I0620 03:59:13.438226   848 layer_factory.hpp:77] Creating layer conv4_1_1x1_proj
I0620 03:59:13.438232   848 net.cpp:106] Creating Layer conv4_1_1x1_proj
I0620 03:59:13.438235   848 net.cpp:454] conv4_1_1x1_proj <- conv3_4_conv3_4/relu_0_split_1
I0620 03:59:13.438237   848 net.cpp:411] conv4_1_1x1_proj -> conv4_1_1x1_proj
I0620 03:59:13.449880   848 net.cpp:150] Setting up conv4_1_1x1_proj
I0620 03:59:13.449888   848 net.cpp:157] Top shape: 1 1024 60 60 (3686400)
I0620 03:59:13.449890   848 net.cpp:165] Memory required for data: 868080128
I0620 03:59:13.449894   848 layer_factory.hpp:77] Creating layer conv4_1_1x1_proj/bn
I0620 03:59:13.449899   848 net.cpp:106] Creating Layer conv4_1_1x1_proj/bn
I0620 03:59:13.449903   848 net.cpp:454] conv4_1_1x1_proj/bn <- conv4_1_1x1_proj
I0620 03:59:13.449905   848 net.cpp:397] conv4_1_1x1_proj/bn -> conv4_1_1x1_proj (in-place)
I0620 03:59:13.450027   848 net.cpp:150] Setting up conv4_1_1x1_proj/bn
I0620 03:59:13.450031   848 net.cpp:157] Top shape: 1 1024 60 60 (3686400)
I0620 03:59:13.450032   848 net.cpp:165] Memory required for data: 882825728
I0620 03:59:13.450037   848 layer_factory.hpp:77] Creating layer conv4_1
I0620 03:59:13.450042   848 net.cpp:106] Creating Layer conv4_1
I0620 03:59:13.450042   848 net.cpp:454] conv4_1 <- conv4_1_1x1_proj
I0620 03:59:13.450044   848 net.cpp:454] conv4_1 <- conv4_1_1x1_increase
I0620 03:59:13.450047   848 net.cpp:411] conv4_1 -> conv4_1
I0620 03:59:13.450062   848 net.cpp:150] Setting up conv4_1
I0620 03:59:13.450063   848 net.cpp:157] Top shape: 1 1024 60 60 (3686400)
I0620 03:59:13.450065   848 net.cpp:165] Memory required for data: 897571328
I0620 03:59:13.450067   848 layer_factory.hpp:77] Creating layer conv4_1/relu
I0620 03:59:13.450070   848 net.cpp:106] Creating Layer conv4_1/relu
I0620 03:59:13.450073   848 net.cpp:454] conv4_1/relu <- conv4_1
I0620 03:59:13.450075   848 net.cpp:397] conv4_1/relu -> conv4_1 (in-place)
I0620 03:59:13.450078   848 net.cpp:150] Setting up conv4_1/relu
I0620 03:59:13.450081   848 net.cpp:157] Top shape: 1 1024 60 60 (3686400)
I0620 03:59:13.450083   848 net.cpp:165] Memory required for data: 912316928
I0620 03:59:13.450084   848 layer_factory.hpp:77] Creating layer conv4_1_conv4_1/relu_0_split
I0620 03:59:13.450088   848 net.cpp:106] Creating Layer conv4_1_conv4_1/relu_0_split
I0620 03:59:13.450088   848 net.cpp:454] conv4_1_conv4_1/relu_0_split <- conv4_1
I0620 03:59:13.450091   848 net.cpp:411] conv4_1_conv4_1/relu_0_split -> conv4_1_conv4_1/relu_0_split_0
I0620 03:59:13.450095   848 net.cpp:411] conv4_1_conv4_1/relu_0_split -> conv4_1_conv4_1/relu_0_split_1
I0620 03:59:13.450112   848 net.cpp:150] Setting up conv4_1_conv4_1/relu_0_split
I0620 03:59:13.450115   848 net.cpp:157] Top shape: 1 1024 60 60 (3686400)
I0620 03:59:13.450117   848 net.cpp:157] Top shape: 1 1024 60 60 (3686400)
I0620 03:59:13.450119   848 net.cpp:165] Memory required for data: 941808128
I0620 03:59:13.450120   848 layer_factory.hpp:77] Creating layer conv4_2_1x1_reduce
I0620 03:59:13.450125   848 net.cpp:106] Creating Layer conv4_2_1x1_reduce
I0620 03:59:13.450127   848 net.cpp:454] conv4_2_1x1_reduce <- conv4_1_conv4_1/relu_0_split_0
I0620 03:59:13.450130   848 net.cpp:411] conv4_2_1x1_reduce -> conv4_2_1x1_reduce
I0620 03:59:13.456298   848 net.cpp:150] Setting up conv4_2_1x1_reduce
I0620 03:59:13.456308   848 net.cpp:157] Top shape: 1 256 60 60 (921600)
I0620 03:59:13.456310   848 net.cpp:165] Memory required for data: 945494528
I0620 03:59:13.456313   848 layer_factory.hpp:77] Creating layer conv4_2_1x1_reduce/bn
I0620 03:59:13.456318   848 net.cpp:106] Creating Layer conv4_2_1x1_reduce/bn
I0620 03:59:13.456321   848 net.cpp:454] conv4_2_1x1_reduce/bn <- conv4_2_1x1_reduce
I0620 03:59:13.456323   848 net.cpp:397] conv4_2_1x1_reduce/bn -> conv4_2_1x1_reduce (in-place)
I0620 03:59:13.456440   848 net.cpp:150] Setting up conv4_2_1x1_reduce/bn
I0620 03:59:13.456444   848 net.cpp:157] Top shape: 1 256 60 60 (921600)
I0620 03:59:13.456446   848 net.cpp:165] Memory required for data: 949180928
I0620 03:59:13.456450   848 layer_factory.hpp:77] Creating layer conv4_2_1x1_reduce/relu
I0620 03:59:13.456454   848 net.cpp:106] Creating Layer conv4_2_1x1_reduce/relu
I0620 03:59:13.456455   848 net.cpp:454] conv4_2_1x1_reduce/relu <- conv4_2_1x1_reduce
I0620 03:59:13.456459   848 net.cpp:397] conv4_2_1x1_reduce/relu -> conv4_2_1x1_reduce (in-place)
I0620 03:59:13.456461   848 net.cpp:150] Setting up conv4_2_1x1_reduce/relu
I0620 03:59:13.456463   848 net.cpp:157] Top shape: 1 256 60 60 (921600)
I0620 03:59:13.456465   848 net.cpp:165] Memory required for data: 952867328
I0620 03:59:13.456466   848 layer_factory.hpp:77] Creating layer conv4_2_3x3
I0620 03:59:13.456472   848 net.cpp:106] Creating Layer conv4_2_3x3
I0620 03:59:13.456475   848 net.cpp:454] conv4_2_3x3 <- conv4_2_1x1_reduce
I0620 03:59:13.456476   848 net.cpp:411] conv4_2_3x3 -> conv4_2_3x3
I0620 03:59:13.469573   848 net.cpp:150] Setting up conv4_2_3x3
I0620 03:59:13.469599   848 net.cpp:157] Top shape: 1 256 60 60 (921600)
I0620 03:59:13.469600   848 net.cpp:165] Memory required for data: 956553728
I0620 03:59:13.469609   848 layer_factory.hpp:77] Creating layer conv4_2_3x3/bn
I0620 03:59:13.469619   848 net.cpp:106] Creating Layer conv4_2_3x3/bn
I0620 03:59:13.469624   848 net.cpp:454] conv4_2_3x3/bn <- conv4_2_3x3
I0620 03:59:13.469630   848 net.cpp:397] conv4_2_3x3/bn -> conv4_2_3x3 (in-place)
I0620 03:59:13.469795   848 net.cpp:150] Setting up conv4_2_3x3/bn
I0620 03:59:13.469802   848 net.cpp:157] Top shape: 1 256 60 60 (921600)
I0620 03:59:13.469805   848 net.cpp:165] Memory required for data: 960240128
I0620 03:59:13.469810   848 layer_factory.hpp:77] Creating layer conv4_2_3x3/relu
I0620 03:59:13.469818   848 net.cpp:106] Creating Layer conv4_2_3x3/relu
I0620 03:59:13.469822   848 net.cpp:454] conv4_2_3x3/relu <- conv4_2_3x3
I0620 03:59:13.469830   848 net.cpp:397] conv4_2_3x3/relu -> conv4_2_3x3 (in-place)
I0620 03:59:13.469836   848 net.cpp:150] Setting up conv4_2_3x3/relu
I0620 03:59:13.469840   848 net.cpp:157] Top shape: 1 256 60 60 (921600)
I0620 03:59:13.469842   848 net.cpp:165] Memory required for data: 963926528
I0620 03:59:13.469844   848 layer_factory.hpp:77] Creating layer conv4_2_1x1_increase
I0620 03:59:13.469856   848 net.cpp:106] Creating Layer conv4_2_1x1_increase
I0620 03:59:13.469859   848 net.cpp:454] conv4_2_1x1_increase <- conv4_2_3x3
I0620 03:59:13.469864   848 net.cpp:411] conv4_2_1x1_increase -> conv4_2_1x1_increase
I0620 03:59:13.478803   848 net.cpp:150] Setting up conv4_2_1x1_increase
I0620 03:59:13.478940   848 net.cpp:157] Top shape: 1 1024 60 60 (3686400)
I0620 03:59:13.478953   848 net.cpp:165] Memory required for data: 978672128
I0620 03:59:13.478972   848 layer_factory.hpp:77] Creating layer conv4_2_1x1_increase/bn
I0620 03:59:13.479004   848 net.cpp:106] Creating Layer conv4_2_1x1_increase/bn
I0620 03:59:13.479022   848 net.cpp:454] conv4_2_1x1_increase/bn <- conv4_2_1x1_increase
I0620 03:59:13.479038   848 net.cpp:397] conv4_2_1x1_increase/bn -> conv4_2_1x1_increase (in-place)
I0620 03:59:13.479296   848 net.cpp:150] Setting up conv4_2_1x1_increase/bn
I0620 03:59:13.479311   848 net.cpp:157] Top shape: 1 1024 60 60 (3686400)
I0620 03:59:13.479321   848 net.cpp:165] Memory required for data: 993417728
I0620 03:59:13.479348   848 layer_factory.hpp:77] Creating layer conv4_2
I0620 03:59:13.479365   848 net.cpp:106] Creating Layer conv4_2
I0620 03:59:13.479375   848 net.cpp:454] conv4_2 <- conv4_1_conv4_1/relu_0_split_1
I0620 03:59:13.479387   848 net.cpp:454] conv4_2 <- conv4_2_1x1_increase
I0620 03:59:13.479398   848 net.cpp:411] conv4_2 -> conv4_2
I0620 03:59:13.479430   848 net.cpp:150] Setting up conv4_2
I0620 03:59:13.479442   848 net.cpp:157] Top shape: 1 1024 60 60 (3686400)
I0620 03:59:13.479450   848 net.cpp:165] Memory required for data: 1008163328
I0620 03:59:13.479460   848 layer_factory.hpp:77] Creating layer conv4_2/relu
I0620 03:59:13.479475   848 net.cpp:106] Creating Layer conv4_2/relu
I0620 03:59:13.479483   848 net.cpp:454] conv4_2/relu <- conv4_2
I0620 03:59:13.479495   848 net.cpp:397] conv4_2/relu -> conv4_2 (in-place)
I0620 03:59:13.479506   848 net.cpp:150] Setting up conv4_2/relu
I0620 03:59:13.479516   848 net.cpp:157] Top shape: 1 1024 60 60 (3686400)
I0620 03:59:13.479526   848 net.cpp:165] Memory required for data: 1022908928
I0620 03:59:13.479533   848 layer_factory.hpp:77] Creating layer conv4_2_conv4_2/relu_0_split
I0620 03:59:13.479545   848 net.cpp:106] Creating Layer conv4_2_conv4_2/relu_0_split
I0620 03:59:13.479554   848 net.cpp:454] conv4_2_conv4_2/relu_0_split <- conv4_2
I0620 03:59:13.479565   848 net.cpp:411] conv4_2_conv4_2/relu_0_split -> conv4_2_conv4_2/relu_0_split_0
I0620 03:59:13.479576   848 net.cpp:411] conv4_2_conv4_2/relu_0_split -> conv4_2_conv4_2/relu_0_split_1
I0620 03:59:13.479615   848 net.cpp:150] Setting up conv4_2_conv4_2/relu_0_split
I0620 03:59:13.479627   848 net.cpp:157] Top shape: 1 1024 60 60 (3686400)
I0620 03:59:13.479637   848 net.cpp:157] Top shape: 1 1024 60 60 (3686400)
I0620 03:59:13.479646   848 net.cpp:165] Memory required for data: 1052400128
I0620 03:59:13.479655   848 layer_factory.hpp:77] Creating layer conv4_3_1x1_reduce
I0620 03:59:13.479673   848 net.cpp:106] Creating Layer conv4_3_1x1_reduce
I0620 03:59:13.479683   848 net.cpp:454] conv4_3_1x1_reduce <- conv4_2_conv4_2/relu_0_split_0
I0620 03:59:13.479697   848 net.cpp:411] conv4_3_1x1_reduce -> conv4_3_1x1_reduce
I0620 03:59:13.487526   848 net.cpp:150] Setting up conv4_3_1x1_reduce
I0620 03:59:13.487556   848 net.cpp:157] Top shape: 1 256 60 60 (921600)
I0620 03:59:13.487558   848 net.cpp:165] Memory required for data: 1056086528
I0620 03:59:13.487567   848 layer_factory.hpp:77] Creating layer conv4_3_1x1_reduce/bn
I0620 03:59:13.487587   848 net.cpp:106] Creating Layer conv4_3_1x1_reduce/bn
I0620 03:59:13.487593   848 net.cpp:454] conv4_3_1x1_reduce/bn <- conv4_3_1x1_reduce
I0620 03:59:13.487601   848 net.cpp:397] conv4_3_1x1_reduce/bn -> conv4_3_1x1_reduce (in-place)
I0620 03:59:13.487747   848 net.cpp:150] Setting up conv4_3_1x1_reduce/bn
I0620 03:59:13.487753   848 net.cpp:157] Top shape: 1 256 60 60 (921600)
I0620 03:59:13.487757   848 net.cpp:165] Memory required for data: 1059772928
I0620 03:59:13.487763   848 layer_factory.hpp:77] Creating layer conv4_3_1x1_reduce/relu
I0620 03:59:13.487768   848 net.cpp:106] Creating Layer conv4_3_1x1_reduce/relu
I0620 03:59:13.487771   848 net.cpp:454] conv4_3_1x1_reduce/relu <- conv4_3_1x1_reduce
I0620 03:59:13.487776   848 net.cpp:397] conv4_3_1x1_reduce/relu -> conv4_3_1x1_reduce (in-place)
I0620 03:59:13.487781   848 net.cpp:150] Setting up conv4_3_1x1_reduce/relu
I0620 03:59:13.487784   848 net.cpp:157] Top shape: 1 256 60 60 (921600)
I0620 03:59:13.487788   848 net.cpp:165] Memory required for data: 1063459328
I0620 03:59:13.487792   848 layer_factory.hpp:77] Creating layer conv4_3_3x3
I0620 03:59:13.487798   848 net.cpp:106] Creating Layer conv4_3_3x3
I0620 03:59:13.487802   848 net.cpp:454] conv4_3_3x3 <- conv4_3_1x1_reduce
I0620 03:59:13.487807   848 net.cpp:411] conv4_3_3x3 -> conv4_3_3x3
I0620 03:59:13.502068   848 net.cpp:150] Setting up conv4_3_3x3
I0620 03:59:13.502089   848 net.cpp:157] Top shape: 1 256 60 60 (921600)
I0620 03:59:13.502091   848 net.cpp:165] Memory required for data: 1067145728
I0620 03:59:13.502097   848 layer_factory.hpp:77] Creating layer conv4_3_3x3/bn
I0620 03:59:13.502110   848 net.cpp:106] Creating Layer conv4_3_3x3/bn
I0620 03:59:13.502115   848 net.cpp:454] conv4_3_3x3/bn <- conv4_3_3x3
I0620 03:59:13.502122   848 net.cpp:397] conv4_3_3x3/bn -> conv4_3_3x3 (in-place)
I0620 03:59:13.502259   848 net.cpp:150] Setting up conv4_3_3x3/bn
I0620 03:59:13.502264   848 net.cpp:157] Top shape: 1 256 60 60 (921600)
I0620 03:59:13.502265   848 net.cpp:165] Memory required for data: 1070832128
I0620 03:59:13.502270   848 layer_factory.hpp:77] Creating layer conv4_3_3x3/relu
I0620 03:59:13.502274   848 net.cpp:106] Creating Layer conv4_3_3x3/relu
I0620 03:59:13.502276   848 net.cpp:454] conv4_3_3x3/relu <- conv4_3_3x3
I0620 03:59:13.502279   848 net.cpp:397] conv4_3_3x3/relu -> conv4_3_3x3 (in-place)
I0620 03:59:13.502282   848 net.cpp:150] Setting up conv4_3_3x3/relu
I0620 03:59:13.502285   848 net.cpp:157] Top shape: 1 256 60 60 (921600)
I0620 03:59:13.502286   848 net.cpp:165] Memory required for data: 1074518528
I0620 03:59:13.502287   848 layer_factory.hpp:77] Creating layer conv4_3_1x1_increase
I0620 03:59:13.502292   848 net.cpp:106] Creating Layer conv4_3_1x1_increase
I0620 03:59:13.502295   848 net.cpp:454] conv4_3_1x1_increase <- conv4_3_3x3
I0620 03:59:13.502298   848 net.cpp:411] conv4_3_1x1_increase -> conv4_3_1x1_increase
I0620 03:59:13.508594   848 net.cpp:150] Setting up conv4_3_1x1_increase
I0620 03:59:13.508610   848 net.cpp:157] Top shape: 1 1024 60 60 (3686400)
I0620 03:59:13.508612   848 net.cpp:165] Memory required for data: 1089264128
I0620 03:59:13.508617   848 layer_factory.hpp:77] Creating layer conv4_3_1x1_increase/bn
I0620 03:59:13.508625   848 net.cpp:106] Creating Layer conv4_3_1x1_increase/bn
I0620 03:59:13.508628   848 net.cpp:454] conv4_3_1x1_increase/bn <- conv4_3_1x1_increase
I0620 03:59:13.508633   848 net.cpp:397] conv4_3_1x1_increase/bn -> conv4_3_1x1_increase (in-place)
I0620 03:59:13.508782   848 net.cpp:150] Setting up conv4_3_1x1_increase/bn
I0620 03:59:13.508786   848 net.cpp:157] Top shape: 1 1024 60 60 (3686400)
I0620 03:59:13.508788   848 net.cpp:165] Memory required for data: 1104009728
I0620 03:59:13.508792   848 layer_factory.hpp:77] Creating layer conv4_3
I0620 03:59:13.508796   848 net.cpp:106] Creating Layer conv4_3
I0620 03:59:13.508798   848 net.cpp:454] conv4_3 <- conv4_2_conv4_2/relu_0_split_1
I0620 03:59:13.508801   848 net.cpp:454] conv4_3 <- conv4_3_1x1_increase
I0620 03:59:13.508805   848 net.cpp:411] conv4_3 -> conv4_3
I0620 03:59:13.508818   848 net.cpp:150] Setting up conv4_3
I0620 03:59:13.508822   848 net.cpp:157] Top shape: 1 1024 60 60 (3686400)
I0620 03:59:13.508823   848 net.cpp:165] Memory required for data: 1118755328
I0620 03:59:13.508826   848 layer_factory.hpp:77] Creating layer conv4_3/relu
I0620 03:59:13.508829   848 net.cpp:106] Creating Layer conv4_3/relu
I0620 03:59:13.508832   848 net.cpp:454] conv4_3/relu <- conv4_3
I0620 03:59:13.508837   848 net.cpp:397] conv4_3/relu -> conv4_3 (in-place)
I0620 03:59:13.508841   848 net.cpp:150] Setting up conv4_3/relu
I0620 03:59:13.508843   848 net.cpp:157] Top shape: 1 1024 60 60 (3686400)
I0620 03:59:13.508846   848 net.cpp:165] Memory required for data: 1133500928
I0620 03:59:13.508849   848 layer_factory.hpp:77] Creating layer conv4_3_conv4_3/relu_0_split
I0620 03:59:13.508853   848 net.cpp:106] Creating Layer conv4_3_conv4_3/relu_0_split
I0620 03:59:13.508857   848 net.cpp:454] conv4_3_conv4_3/relu_0_split <- conv4_3
I0620 03:59:13.508859   848 net.cpp:411] conv4_3_conv4_3/relu_0_split -> conv4_3_conv4_3/relu_0_split_0
I0620 03:59:13.508865   848 net.cpp:411] conv4_3_conv4_3/relu_0_split -> conv4_3_conv4_3/relu_0_split_1
I0620 03:59:13.508886   848 net.cpp:150] Setting up conv4_3_conv4_3/relu_0_split
I0620 03:59:13.508890   848 net.cpp:157] Top shape: 1 1024 60 60 (3686400)
I0620 03:59:13.508893   848 net.cpp:157] Top shape: 1 1024 60 60 (3686400)
I0620 03:59:13.508896   848 net.cpp:165] Memory required for data: 1162992128
I0620 03:59:13.508898   848 layer_factory.hpp:77] Creating layer conv4_4_1x1_reduce
I0620 03:59:13.508906   848 net.cpp:106] Creating Layer conv4_4_1x1_reduce
I0620 03:59:13.508909   848 net.cpp:454] conv4_4_1x1_reduce <- conv4_3_conv4_3/relu_0_split_0
I0620 03:59:13.508915   848 net.cpp:411] conv4_4_1x1_reduce -> conv4_4_1x1_reduce
I0620 03:59:13.514525   848 net.cpp:150] Setting up conv4_4_1x1_reduce
I0620 03:59:13.514535   848 net.cpp:157] Top shape: 1 256 60 60 (921600)
I0620 03:59:13.514538   848 net.cpp:165] Memory required for data: 1166678528
I0620 03:59:13.514542   848 layer_factory.hpp:77] Creating layer conv4_4_1x1_reduce/bn
I0620 03:59:13.514575   848 net.cpp:106] Creating Layer conv4_4_1x1_reduce/bn
I0620 03:59:13.514580   848 net.cpp:454] conv4_4_1x1_reduce/bn <- conv4_4_1x1_reduce
I0620 03:59:13.514587   848 net.cpp:397] conv4_4_1x1_reduce/bn -> conv4_4_1x1_reduce (in-place)
I0620 03:59:13.514755   848 net.cpp:150] Setting up conv4_4_1x1_reduce/bn
I0620 03:59:13.514761   848 net.cpp:157] Top shape: 1 256 60 60 (921600)
I0620 03:59:13.514765   848 net.cpp:165] Memory required for data: 1170364928
I0620 03:59:13.514771   848 layer_factory.hpp:77] Creating layer conv4_4_1x1_reduce/relu
I0620 03:59:13.514777   848 net.cpp:106] Creating Layer conv4_4_1x1_reduce/relu
I0620 03:59:13.514780   848 net.cpp:454] conv4_4_1x1_reduce/relu <- conv4_4_1x1_reduce
I0620 03:59:13.514785   848 net.cpp:397] conv4_4_1x1_reduce/relu -> conv4_4_1x1_reduce (in-place)
I0620 03:59:13.514788   848 net.cpp:150] Setting up conv4_4_1x1_reduce/relu
I0620 03:59:13.514792   848 net.cpp:157] Top shape: 1 256 60 60 (921600)
I0620 03:59:13.514796   848 net.cpp:165] Memory required for data: 1174051328
I0620 03:59:13.514798   848 layer_factory.hpp:77] Creating layer conv4_4_3x3
I0620 03:59:13.514807   848 net.cpp:106] Creating Layer conv4_4_3x3
I0620 03:59:13.514811   848 net.cpp:454] conv4_4_3x3 <- conv4_4_1x1_reduce
I0620 03:59:13.514817   848 net.cpp:411] conv4_4_3x3 -> conv4_4_3x3
I0620 03:59:13.528869   848 net.cpp:150] Setting up conv4_4_3x3
I0620 03:59:13.528930   848 net.cpp:157] Top shape: 1 256 60 60 (921600)
I0620 03:59:13.528942   848 net.cpp:165] Memory required for data: 1177737728
I0620 03:59:13.528956   848 layer_factory.hpp:77] Creating layer conv4_4_3x3/bn
I0620 03:59:13.528972   848 net.cpp:106] Creating Layer conv4_4_3x3/bn
I0620 03:59:13.528983   848 net.cpp:454] conv4_4_3x3/bn <- conv4_4_3x3
I0620 03:59:13.528998   848 net.cpp:397] conv4_4_3x3/bn -> conv4_4_3x3 (in-place)
I0620 03:59:13.529186   848 net.cpp:150] Setting up conv4_4_3x3/bn
I0620 03:59:13.529201   848 net.cpp:157] Top shape: 1 256 60 60 (921600)
I0620 03:59:13.529209   848 net.cpp:165] Memory required for data: 1181424128
I0620 03:59:13.529222   848 layer_factory.hpp:77] Creating layer conv4_4_3x3/relu
I0620 03:59:13.529234   848 net.cpp:106] Creating Layer conv4_4_3x3/relu
I0620 03:59:13.529243   848 net.cpp:454] conv4_4_3x3/relu <- conv4_4_3x3
I0620 03:59:13.529254   848 net.cpp:397] conv4_4_3x3/relu -> conv4_4_3x3 (in-place)
I0620 03:59:13.529266   848 net.cpp:150] Setting up conv4_4_3x3/relu
I0620 03:59:13.529278   848 net.cpp:157] Top shape: 1 256 60 60 (921600)
I0620 03:59:13.529285   848 net.cpp:165] Memory required for data: 1185110528
I0620 03:59:13.529294   848 layer_factory.hpp:77] Creating layer conv4_4_1x1_increase
I0620 03:59:13.529309   848 net.cpp:106] Creating Layer conv4_4_1x1_increase
I0620 03:59:13.529319   848 net.cpp:454] conv4_4_1x1_increase <- conv4_4_3x3
I0620 03:59:13.529330   848 net.cpp:411] conv4_4_1x1_increase -> conv4_4_1x1_increase
I0620 03:59:13.538499   848 net.cpp:150] Setting up conv4_4_1x1_increase
I0620 03:59:13.538655   848 net.cpp:157] Top shape: 1 1024 60 60 (3686400)
I0620 03:59:13.538672   848 net.cpp:165] Memory required for data: 1199856128
I0620 03:59:13.538697   848 layer_factory.hpp:77] Creating layer conv4_4_1x1_increase/bn
I0620 03:59:13.538729   848 net.cpp:106] Creating Layer conv4_4_1x1_increase/bn
I0620 03:59:13.538743   848 net.cpp:454] conv4_4_1x1_increase/bn <- conv4_4_1x1_increase
I0620 03:59:13.538763   848 net.cpp:397] conv4_4_1x1_increase/bn -> conv4_4_1x1_increase (in-place)
I0620 03:59:13.539065   848 net.cpp:150] Setting up conv4_4_1x1_increase/bn
I0620 03:59:13.539099   848 net.cpp:157] Top shape: 1 1024 60 60 (3686400)
I0620 03:59:13.539109   848 net.cpp:165] Memory required for data: 1214601728
I0620 03:59:13.539124   848 layer_factory.hpp:77] Creating layer conv4_4
I0620 03:59:13.539140   848 net.cpp:106] Creating Layer conv4_4
I0620 03:59:13.539149   848 net.cpp:454] conv4_4 <- conv4_3_conv4_3/relu_0_split_1
I0620 03:59:13.539160   848 net.cpp:454] conv4_4 <- conv4_4_1x1_increase
I0620 03:59:13.539175   848 net.cpp:411] conv4_4 -> conv4_4
I0620 03:59:13.539207   848 net.cpp:150] Setting up conv4_4
I0620 03:59:13.539221   848 net.cpp:157] Top shape: 1 1024 60 60 (3686400)
I0620 03:59:13.539228   848 net.cpp:165] Memory required for data: 1229347328
I0620 03:59:13.539237   848 layer_factory.hpp:77] Creating layer conv4_4/relu
I0620 03:59:13.539252   848 net.cpp:106] Creating Layer conv4_4/relu
I0620 03:59:13.539259   848 net.cpp:454] conv4_4/relu <- conv4_4
I0620 03:59:13.539269   848 net.cpp:397] conv4_4/relu -> conv4_4 (in-place)
I0620 03:59:13.539280   848 net.cpp:150] Setting up conv4_4/relu
I0620 03:59:13.539290   848 net.cpp:157] Top shape: 1 1024 60 60 (3686400)
I0620 03:59:13.539299   848 net.cpp:165] Memory required for data: 1244092928
I0620 03:59:13.539307   848 layer_factory.hpp:77] Creating layer conv4_4_conv4_4/relu_0_split
I0620 03:59:13.539320   848 net.cpp:106] Creating Layer conv4_4_conv4_4/relu_0_split
I0620 03:59:13.539330   848 net.cpp:454] conv4_4_conv4_4/relu_0_split <- conv4_4
I0620 03:59:13.539342   848 net.cpp:411] conv4_4_conv4_4/relu_0_split -> conv4_4_conv4_4/relu_0_split_0
I0620 03:59:13.539355   848 net.cpp:411] conv4_4_conv4_4/relu_0_split -> conv4_4_conv4_4/relu_0_split_1
I0620 03:59:13.539391   848 net.cpp:150] Setting up conv4_4_conv4_4/relu_0_split
I0620 03:59:13.539404   848 net.cpp:157] Top shape: 1 1024 60 60 (3686400)
I0620 03:59:13.539414   848 net.cpp:157] Top shape: 1 1024 60 60 (3686400)
I0620 03:59:13.539422   848 net.cpp:165] Memory required for data: 1273584128
I0620 03:59:13.539432   848 layer_factory.hpp:77] Creating layer conv4_5_1x1_reduce
I0620 03:59:13.539453   848 net.cpp:106] Creating Layer conv4_5_1x1_reduce
I0620 03:59:13.539463   848 net.cpp:454] conv4_5_1x1_reduce <- conv4_4_conv4_4/relu_0_split_0
I0620 03:59:13.539474   848 net.cpp:411] conv4_5_1x1_reduce -> conv4_5_1x1_reduce
I0620 03:59:13.546591   848 net.cpp:150] Setting up conv4_5_1x1_reduce
I0620 03:59:13.546664   848 net.cpp:157] Top shape: 1 256 60 60 (921600)
I0620 03:59:13.546675   848 net.cpp:165] Memory required for data: 1277270528
I0620 03:59:13.546689   848 layer_factory.hpp:77] Creating layer conv4_5_1x1_reduce/bn
I0620 03:59:13.546705   848 net.cpp:106] Creating Layer conv4_5_1x1_reduce/bn
I0620 03:59:13.546711   848 net.cpp:454] conv4_5_1x1_reduce/bn <- conv4_5_1x1_reduce
I0620 03:59:13.546722   848 net.cpp:397] conv4_5_1x1_reduce/bn -> conv4_5_1x1_reduce (in-place)
I0620 03:59:13.546931   848 net.cpp:150] Setting up conv4_5_1x1_reduce/bn
I0620 03:59:13.546939   848 net.cpp:157] Top shape: 1 256 60 60 (921600)
I0620 03:59:13.546943   848 net.cpp:165] Memory required for data: 1280956928
I0620 03:59:13.546950   848 layer_factory.hpp:77] Creating layer conv4_5_1x1_reduce/relu
I0620 03:59:13.546960   848 net.cpp:106] Creating Layer conv4_5_1x1_reduce/relu
I0620 03:59:13.546964   848 net.cpp:454] conv4_5_1x1_reduce/relu <- conv4_5_1x1_reduce
I0620 03:59:13.546968   848 net.cpp:397] conv4_5_1x1_reduce/relu -> conv4_5_1x1_reduce (in-place)
I0620 03:59:13.546973   848 net.cpp:150] Setting up conv4_5_1x1_reduce/relu
I0620 03:59:13.546979   848 net.cpp:157] Top shape: 1 256 60 60 (921600)
I0620 03:59:13.546983   848 net.cpp:165] Memory required for data: 1284643328
I0620 03:59:13.546985   848 layer_factory.hpp:77] Creating layer conv4_5_3x3
I0620 03:59:13.546993   848 net.cpp:106] Creating Layer conv4_5_3x3
I0620 03:59:13.546998   848 net.cpp:454] conv4_5_3x3 <- conv4_5_1x1_reduce
I0620 03:59:13.547005   848 net.cpp:411] conv4_5_3x3 -> conv4_5_3x3
I0620 03:59:13.559959   848 net.cpp:150] Setting up conv4_5_3x3
I0620 03:59:13.559972   848 net.cpp:157] Top shape: 1 256 60 60 (921600)
I0620 03:59:13.559973   848 net.cpp:165] Memory required for data: 1288329728
I0620 03:59:13.559976   848 layer_factory.hpp:77] Creating layer conv4_5_3x3/bn
I0620 03:59:13.559981   848 net.cpp:106] Creating Layer conv4_5_3x3/bn
I0620 03:59:13.559983   848 net.cpp:454] conv4_5_3x3/bn <- conv4_5_3x3
I0620 03:59:13.559988   848 net.cpp:397] conv4_5_3x3/bn -> conv4_5_3x3 (in-place)
I0620 03:59:13.560115   848 net.cpp:150] Setting up conv4_5_3x3/bn
I0620 03:59:13.560119   848 net.cpp:157] Top shape: 1 256 60 60 (921600)
I0620 03:59:13.560122   848 net.cpp:165] Memory required for data: 1292016128
I0620 03:59:13.560125   848 layer_factory.hpp:77] Creating layer conv4_5_3x3/relu
I0620 03:59:13.560128   848 net.cpp:106] Creating Layer conv4_5_3x3/relu
I0620 03:59:13.560130   848 net.cpp:454] conv4_5_3x3/relu <- conv4_5_3x3
I0620 03:59:13.560133   848 net.cpp:397] conv4_5_3x3/relu -> conv4_5_3x3 (in-place)
I0620 03:59:13.560137   848 net.cpp:150] Setting up conv4_5_3x3/relu
I0620 03:59:13.560138   848 net.cpp:157] Top shape: 1 256 60 60 (921600)
I0620 03:59:13.560140   848 net.cpp:165] Memory required for data: 1295702528
I0620 03:59:13.560142   848 layer_factory.hpp:77] Creating layer conv4_5_1x1_increase
I0620 03:59:13.560148   848 net.cpp:106] Creating Layer conv4_5_1x1_increase
I0620 03:59:13.560149   848 net.cpp:454] conv4_5_1x1_increase <- conv4_5_3x3
I0620 03:59:13.560153   848 net.cpp:411] conv4_5_1x1_increase -> conv4_5_1x1_increase
I0620 03:59:13.566390   848 net.cpp:150] Setting up conv4_5_1x1_increase
I0620 03:59:13.566403   848 net.cpp:157] Top shape: 1 1024 60 60 (3686400)
I0620 03:59:13.566406   848 net.cpp:165] Memory required for data: 1310448128
I0620 03:59:13.566409   848 layer_factory.hpp:77] Creating layer conv4_5_1x1_increase/bn
I0620 03:59:13.566417   848 net.cpp:106] Creating Layer conv4_5_1x1_increase/bn
I0620 03:59:13.566419   848 net.cpp:454] conv4_5_1x1_increase/bn <- conv4_5_1x1_increase
I0620 03:59:13.566423   848 net.cpp:397] conv4_5_1x1_increase/bn -> conv4_5_1x1_increase (in-place)
I0620 03:59:13.566568   848 net.cpp:150] Setting up conv4_5_1x1_increase/bn
I0620 03:59:13.566573   848 net.cpp:157] Top shape: 1 1024 60 60 (3686400)
I0620 03:59:13.566575   848 net.cpp:165] Memory required for data: 1325193728
I0620 03:59:13.566579   848 layer_factory.hpp:77] Creating layer conv4_5
I0620 03:59:13.566583   848 net.cpp:106] Creating Layer conv4_5
I0620 03:59:13.566586   848 net.cpp:454] conv4_5 <- conv4_4_conv4_4/relu_0_split_1
I0620 03:59:13.566587   848 net.cpp:454] conv4_5 <- conv4_5_1x1_increase
I0620 03:59:13.566591   848 net.cpp:411] conv4_5 -> conv4_5
I0620 03:59:13.566606   848 net.cpp:150] Setting up conv4_5
I0620 03:59:13.566608   848 net.cpp:157] Top shape: 1 1024 60 60 (3686400)
I0620 03:59:13.566609   848 net.cpp:165] Memory required for data: 1339939328
I0620 03:59:13.566612   848 layer_factory.hpp:77] Creating layer conv4_5/relu
I0620 03:59:13.566614   848 net.cpp:106] Creating Layer conv4_5/relu
I0620 03:59:13.566617   848 net.cpp:454] conv4_5/relu <- conv4_5
I0620 03:59:13.566620   848 net.cpp:397] conv4_5/relu -> conv4_5 (in-place)
I0620 03:59:13.566623   848 net.cpp:150] Setting up conv4_5/relu
I0620 03:59:13.566627   848 net.cpp:157] Top shape: 1 1024 60 60 (3686400)
I0620 03:59:13.566628   848 net.cpp:165] Memory required for data: 1354684928
I0620 03:59:13.566629   848 layer_factory.hpp:77] Creating layer conv4_5_conv4_5/relu_0_split
I0620 03:59:13.566632   848 net.cpp:106] Creating Layer conv4_5_conv4_5/relu_0_split
I0620 03:59:13.566635   848 net.cpp:454] conv4_5_conv4_5/relu_0_split <- conv4_5
I0620 03:59:13.566639   848 net.cpp:411] conv4_5_conv4_5/relu_0_split -> conv4_5_conv4_5/relu_0_split_0
I0620 03:59:13.566643   848 net.cpp:411] conv4_5_conv4_5/relu_0_split -> conv4_5_conv4_5/relu_0_split_1
I0620 03:59:13.566665   848 net.cpp:150] Setting up conv4_5_conv4_5/relu_0_split
I0620 03:59:13.566668   848 net.cpp:157] Top shape: 1 1024 60 60 (3686400)
I0620 03:59:13.566670   848 net.cpp:157] Top shape: 1 1024 60 60 (3686400)
I0620 03:59:13.566673   848 net.cpp:165] Memory required for data: 1384176128
I0620 03:59:13.566674   848 layer_factory.hpp:77] Creating layer conv4_6_1x1_reduce
I0620 03:59:13.566679   848 net.cpp:106] Creating Layer conv4_6_1x1_reduce
I0620 03:59:13.566681   848 net.cpp:454] conv4_6_1x1_reduce <- conv4_5_conv4_5/relu_0_split_0
I0620 03:59:13.566684   848 net.cpp:411] conv4_6_1x1_reduce -> conv4_6_1x1_reduce
I0620 03:59:13.572324   848 net.cpp:150] Setting up conv4_6_1x1_reduce
I0620 03:59:13.572335   848 net.cpp:157] Top shape: 1 256 60 60 (921600)
I0620 03:59:13.572336   848 net.cpp:165] Memory required for data: 1387862528
I0620 03:59:13.572341   848 layer_factory.hpp:77] Creating layer conv4_6_1x1_reduce/bn
I0620 03:59:13.572350   848 net.cpp:106] Creating Layer conv4_6_1x1_reduce/bn
I0620 03:59:13.572353   848 net.cpp:454] conv4_6_1x1_reduce/bn <- conv4_6_1x1_reduce
I0620 03:59:13.572358   848 net.cpp:397] conv4_6_1x1_reduce/bn -> conv4_6_1x1_reduce (in-place)
I0620 03:59:13.572487   848 net.cpp:150] Setting up conv4_6_1x1_reduce/bn
I0620 03:59:13.572491   848 net.cpp:157] Top shape: 1 256 60 60 (921600)
I0620 03:59:13.572494   848 net.cpp:165] Memory required for data: 1391548928
I0620 03:59:13.572497   848 layer_factory.hpp:77] Creating layer conv4_6_1x1_reduce/relu
I0620 03:59:13.572502   848 net.cpp:106] Creating Layer conv4_6_1x1_reduce/relu
I0620 03:59:13.572504   848 net.cpp:454] conv4_6_1x1_reduce/relu <- conv4_6_1x1_reduce
I0620 03:59:13.572506   848 net.cpp:397] conv4_6_1x1_reduce/relu -> conv4_6_1x1_reduce (in-place)
I0620 03:59:13.572510   848 net.cpp:150] Setting up conv4_6_1x1_reduce/relu
I0620 03:59:13.572511   848 net.cpp:157] Top shape: 1 256 60 60 (921600)
I0620 03:59:13.572512   848 net.cpp:165] Memory required for data: 1395235328
I0620 03:59:13.572515   848 layer_factory.hpp:77] Creating layer conv4_6_3x3
I0620 03:59:13.572520   848 net.cpp:106] Creating Layer conv4_6_3x3
I0620 03:59:13.572522   848 net.cpp:454] conv4_6_3x3 <- conv4_6_1x1_reduce
I0620 03:59:13.572526   848 net.cpp:411] conv4_6_3x3 -> conv4_6_3x3
I0620 03:59:13.588163   848 net.cpp:150] Setting up conv4_6_3x3
I0620 03:59:13.588328   848 net.cpp:157] Top shape: 1 256 60 60 (921600)
I0620 03:59:13.588348   848 net.cpp:165] Memory required for data: 1398921728
I0620 03:59:13.588373   848 layer_factory.hpp:77] Creating layer conv4_6_3x3/bn
I0620 03:59:13.588403   848 net.cpp:106] Creating Layer conv4_6_3x3/bn
I0620 03:59:13.588418   848 net.cpp:454] conv4_6_3x3/bn <- conv4_6_3x3
I0620 03:59:13.588443   848 net.cpp:397] conv4_6_3x3/bn -> conv4_6_3x3 (in-place)
I0620 03:59:13.588726   848 net.cpp:150] Setting up conv4_6_3x3/bn
I0620 03:59:13.588742   848 net.cpp:157] Top shape: 1 256 60 60 (921600)
I0620 03:59:13.588750   848 net.cpp:165] Memory required for data: 1402608128
I0620 03:59:13.588764   848 layer_factory.hpp:77] Creating layer conv4_6_3x3/relu
I0620 03:59:13.588780   848 net.cpp:106] Creating Layer conv4_6_3x3/relu
I0620 03:59:13.588790   848 net.cpp:454] conv4_6_3x3/relu <- conv4_6_3x3
I0620 03:59:13.588802   848 net.cpp:397] conv4_6_3x3/relu -> conv4_6_3x3 (in-place)
I0620 03:59:13.588814   848 net.cpp:150] Setting up conv4_6_3x3/relu
I0620 03:59:13.588825   848 net.cpp:157] Top shape: 1 256 60 60 (921600)
I0620 03:59:13.588834   848 net.cpp:165] Memory required for data: 1406294528
I0620 03:59:13.588842   848 layer_factory.hpp:77] Creating layer conv4_6_1x1_increase
I0620 03:59:13.588860   848 net.cpp:106] Creating Layer conv4_6_1x1_increase
I0620 03:59:13.588868   848 net.cpp:454] conv4_6_1x1_increase <- conv4_6_3x3
I0620 03:59:13.588881   848 net.cpp:411] conv4_6_1x1_increase -> conv4_6_1x1_increase
I0620 03:59:13.598191   848 net.cpp:150] Setting up conv4_6_1x1_increase
I0620 03:59:13.598209   848 net.cpp:157] Top shape: 1 1024 60 60 (3686400)
I0620 03:59:13.598212   848 net.cpp:165] Memory required for data: 1421040128
I0620 03:59:13.598217   848 layer_factory.hpp:77] Creating layer conv4_6_1x1_increase/bn
I0620 03:59:13.598224   848 net.cpp:106] Creating Layer conv4_6_1x1_increase/bn
I0620 03:59:13.598228   848 net.cpp:454] conv4_6_1x1_increase/bn <- conv4_6_1x1_increase
I0620 03:59:13.598235   848 net.cpp:397] conv4_6_1x1_increase/bn -> conv4_6_1x1_increase (in-place)
I0620 03:59:13.598393   848 net.cpp:150] Setting up conv4_6_1x1_increase/bn
I0620 03:59:13.598398   848 net.cpp:157] Top shape: 1 1024 60 60 (3686400)
I0620 03:59:13.598399   848 net.cpp:165] Memory required for data: 1435785728
I0620 03:59:13.598403   848 layer_factory.hpp:77] Creating layer conv4_6
I0620 03:59:13.598409   848 net.cpp:106] Creating Layer conv4_6
I0620 03:59:13.598412   848 net.cpp:454] conv4_6 <- conv4_5_conv4_5/relu_0_split_1
I0620 03:59:13.598414   848 net.cpp:454] conv4_6 <- conv4_6_1x1_increase
I0620 03:59:13.598419   848 net.cpp:411] conv4_6 -> conv4_6
I0620 03:59:13.598433   848 net.cpp:150] Setting up conv4_6
I0620 03:59:13.598438   848 net.cpp:157] Top shape: 1 1024 60 60 (3686400)
I0620 03:59:13.598438   848 net.cpp:165] Memory required for data: 1450531328
I0620 03:59:13.598440   848 layer_factory.hpp:77] Creating layer conv4_6/relu
I0620 03:59:13.598445   848 net.cpp:106] Creating Layer conv4_6/relu
I0620 03:59:13.598448   848 net.cpp:454] conv4_6/relu <- conv4_6
I0620 03:59:13.598449   848 net.cpp:397] conv4_6/relu -> conv4_6 (in-place)
I0620 03:59:13.598454   848 net.cpp:150] Setting up conv4_6/relu
I0620 03:59:13.598457   848 net.cpp:157] Top shape: 1 1024 60 60 (3686400)
I0620 03:59:13.598459   848 net.cpp:165] Memory required for data: 1465276928
I0620 03:59:13.598461   848 layer_factory.hpp:77] Creating layer conv4_6_conv4_6/relu_0_split
I0620 03:59:13.598466   848 net.cpp:106] Creating Layer conv4_6_conv4_6/relu_0_split
I0620 03:59:13.598469   848 net.cpp:454] conv4_6_conv4_6/relu_0_split <- conv4_6
I0620 03:59:13.598471   848 net.cpp:411] conv4_6_conv4_6/relu_0_split -> conv4_6_conv4_6/relu_0_split_0
I0620 03:59:13.598474   848 net.cpp:411] conv4_6_conv4_6/relu_0_split -> conv4_6_conv4_6/relu_0_split_1
I0620 03:59:13.598496   848 net.cpp:150] Setting up conv4_6_conv4_6/relu_0_split
I0620 03:59:13.598500   848 net.cpp:157] Top shape: 1 1024 60 60 (3686400)
I0620 03:59:13.598501   848 net.cpp:157] Top shape: 1 1024 60 60 (3686400)
I0620 03:59:13.598505   848 net.cpp:165] Memory required for data: 1494768128
I0620 03:59:13.598505   848 layer_factory.hpp:77] Creating layer conv4_7_1x1_reduce
I0620 03:59:13.598511   848 net.cpp:106] Creating Layer conv4_7_1x1_reduce
I0620 03:59:13.598515   848 net.cpp:454] conv4_7_1x1_reduce <- conv4_6_conv4_6/relu_0_split_0
I0620 03:59:13.598517   848 net.cpp:411] conv4_7_1x1_reduce -> conv4_7_1x1_reduce
I0620 03:59:13.604151   848 net.cpp:150] Setting up conv4_7_1x1_reduce
I0620 03:59:13.604157   848 net.cpp:157] Top shape: 1 256 60 60 (921600)
I0620 03:59:13.604158   848 net.cpp:165] Memory required for data: 1498454528
I0620 03:59:13.604161   848 layer_factory.hpp:77] Creating layer conv4_7_1x1_reduce/bn
I0620 03:59:13.604166   848 net.cpp:106] Creating Layer conv4_7_1x1_reduce/bn
I0620 03:59:13.604169   848 net.cpp:454] conv4_7_1x1_reduce/bn <- conv4_7_1x1_reduce
I0620 03:59:13.604172   848 net.cpp:397] conv4_7_1x1_reduce/bn -> conv4_7_1x1_reduce (in-place)
I0620 03:59:13.604295   848 net.cpp:150] Setting up conv4_7_1x1_reduce/bn
I0620 03:59:13.604298   848 net.cpp:157] Top shape: 1 256 60 60 (921600)
I0620 03:59:13.604300   848 net.cpp:165] Memory required for data: 1502140928
I0620 03:59:13.604303   848 layer_factory.hpp:77] Creating layer conv4_7_1x1_reduce/relu
I0620 03:59:13.604307   848 net.cpp:106] Creating Layer conv4_7_1x1_reduce/relu
I0620 03:59:13.604310   848 net.cpp:454] conv4_7_1x1_reduce/relu <- conv4_7_1x1_reduce
I0620 03:59:13.604312   848 net.cpp:397] conv4_7_1x1_reduce/relu -> conv4_7_1x1_reduce (in-place)
I0620 03:59:13.604316   848 net.cpp:150] Setting up conv4_7_1x1_reduce/relu
I0620 03:59:13.604320   848 net.cpp:157] Top shape: 1 256 60 60 (921600)
I0620 03:59:13.604321   848 net.cpp:165] Memory required for data: 1505827328
I0620 03:59:13.604323   848 layer_factory.hpp:77] Creating layer conv4_7_3x3
I0620 03:59:13.604327   848 net.cpp:106] Creating Layer conv4_7_3x3
I0620 03:59:13.604331   848 net.cpp:454] conv4_7_3x3 <- conv4_7_1x1_reduce
I0620 03:59:13.604334   848 net.cpp:411] conv4_7_3x3 -> conv4_7_3x3
I0620 03:59:13.617434   848 net.cpp:150] Setting up conv4_7_3x3
I0620 03:59:13.617449   848 net.cpp:157] Top shape: 1 256 60 60 (921600)
I0620 03:59:13.617450   848 net.cpp:165] Memory required for data: 1509513728
I0620 03:59:13.617455   848 layer_factory.hpp:77] Creating layer conv4_7_3x3/bn
I0620 03:59:13.617461   848 net.cpp:106] Creating Layer conv4_7_3x3/bn
I0620 03:59:13.617465   848 net.cpp:454] conv4_7_3x3/bn <- conv4_7_3x3
I0620 03:59:13.617468   848 net.cpp:397] conv4_7_3x3/bn -> conv4_7_3x3 (in-place)
I0620 03:59:13.617605   848 net.cpp:150] Setting up conv4_7_3x3/bn
I0620 03:59:13.617610   848 net.cpp:157] Top shape: 1 256 60 60 (921600)
I0620 03:59:13.617611   848 net.cpp:165] Memory required for data: 1513200128
I0620 03:59:13.617615   848 layer_factory.hpp:77] Creating layer conv4_7_3x3/relu
I0620 03:59:13.617620   848 net.cpp:106] Creating Layer conv4_7_3x3/relu
I0620 03:59:13.617624   848 net.cpp:454] conv4_7_3x3/relu <- conv4_7_3x3
I0620 03:59:13.617626   848 net.cpp:397] conv4_7_3x3/relu -> conv4_7_3x3 (in-place)
I0620 03:59:13.617631   848 net.cpp:150] Setting up conv4_7_3x3/relu
I0620 03:59:13.617635   848 net.cpp:157] Top shape: 1 256 60 60 (921600)
I0620 03:59:13.617636   848 net.cpp:165] Memory required for data: 1516886528
I0620 03:59:13.617637   848 layer_factory.hpp:77] Creating layer conv4_7_1x1_increase
I0620 03:59:13.617643   848 net.cpp:106] Creating Layer conv4_7_1x1_increase
I0620 03:59:13.617645   848 net.cpp:454] conv4_7_1x1_increase <- conv4_7_3x3
I0620 03:59:13.617648   848 net.cpp:411] conv4_7_1x1_increase -> conv4_7_1x1_increase
I0620 03:59:13.623875   848 net.cpp:150] Setting up conv4_7_1x1_increase
I0620 03:59:13.623886   848 net.cpp:157] Top shape: 1 1024 60 60 (3686400)
I0620 03:59:13.623888   848 net.cpp:165] Memory required for data: 1531632128
I0620 03:59:13.623891   848 layer_factory.hpp:77] Creating layer conv4_7_1x1_increase/bn
I0620 03:59:13.623898   848 net.cpp:106] Creating Layer conv4_7_1x1_increase/bn
I0620 03:59:13.623903   848 net.cpp:454] conv4_7_1x1_increase/bn <- conv4_7_1x1_increase
I0620 03:59:13.623906   848 net.cpp:397] conv4_7_1x1_increase/bn -> conv4_7_1x1_increase (in-place)
I0620 03:59:13.624042   848 net.cpp:150] Setting up conv4_7_1x1_increase/bn
I0620 03:59:13.624047   848 net.cpp:157] Top shape: 1 1024 60 60 (3686400)
I0620 03:59:13.624048   848 net.cpp:165] Memory required for data: 1546377728
I0620 03:59:13.624053   848 layer_factory.hpp:77] Creating layer conv4_7
I0620 03:59:13.624056   848 net.cpp:106] Creating Layer conv4_7
I0620 03:59:13.624058   848 net.cpp:454] conv4_7 <- conv4_6_conv4_6/relu_0_split_1
I0620 03:59:13.624061   848 net.cpp:454] conv4_7 <- conv4_7_1x1_increase
I0620 03:59:13.624064   848 net.cpp:411] conv4_7 -> conv4_7
I0620 03:59:13.624079   848 net.cpp:150] Setting up conv4_7
I0620 03:59:13.624083   848 net.cpp:157] Top shape: 1 1024 60 60 (3686400)
I0620 03:59:13.624084   848 net.cpp:165] Memory required for data: 1561123328
I0620 03:59:13.624086   848 layer_factory.hpp:77] Creating layer conv4_7/relu
I0620 03:59:13.624089   848 net.cpp:106] Creating Layer conv4_7/relu
I0620 03:59:13.624091   848 net.cpp:454] conv4_7/relu <- conv4_7
I0620 03:59:13.624094   848 net.cpp:397] conv4_7/relu -> conv4_7 (in-place)
I0620 03:59:13.624099   848 net.cpp:150] Setting up conv4_7/relu
I0620 03:59:13.624101   848 net.cpp:157] Top shape: 1 1024 60 60 (3686400)
I0620 03:59:13.624102   848 net.cpp:165] Memory required for data: 1575868928
I0620 03:59:13.624104   848 layer_factory.hpp:77] Creating layer conv4_7_conv4_7/relu_0_split
I0620 03:59:13.624109   848 net.cpp:106] Creating Layer conv4_7_conv4_7/relu_0_split
I0620 03:59:13.624112   848 net.cpp:454] conv4_7_conv4_7/relu_0_split <- conv4_7
I0620 03:59:13.624115   848 net.cpp:411] conv4_7_conv4_7/relu_0_split -> conv4_7_conv4_7/relu_0_split_0
I0620 03:59:13.624119   848 net.cpp:411] conv4_7_conv4_7/relu_0_split -> conv4_7_conv4_7/relu_0_split_1
I0620 03:59:13.624140   848 net.cpp:150] Setting up conv4_7_conv4_7/relu_0_split
I0620 03:59:13.624143   848 net.cpp:157] Top shape: 1 1024 60 60 (3686400)
I0620 03:59:13.624145   848 net.cpp:157] Top shape: 1 1024 60 60 (3686400)
I0620 03:59:13.624147   848 net.cpp:165] Memory required for data: 1605360128
I0620 03:59:13.624150   848 layer_factory.hpp:77] Creating layer conv4_8_1x1_reduce
I0620 03:59:13.624155   848 net.cpp:106] Creating Layer conv4_8_1x1_reduce
I0620 03:59:13.624156   848 net.cpp:454] conv4_8_1x1_reduce <- conv4_7_conv4_7/relu_0_split_0
I0620 03:59:13.624161   848 net.cpp:411] conv4_8_1x1_reduce -> conv4_8_1x1_reduce
I0620 03:59:13.629778   848 net.cpp:150] Setting up conv4_8_1x1_reduce
I0620 03:59:13.629797   848 net.cpp:157] Top shape: 1 256 60 60 (921600)
I0620 03:59:13.629799   848 net.cpp:165] Memory required for data: 1609046528
I0620 03:59:13.629804   848 layer_factory.hpp:77] Creating layer conv4_8_1x1_reduce/bn
I0620 03:59:13.629815   848 net.cpp:106] Creating Layer conv4_8_1x1_reduce/bn
I0620 03:59:13.629820   848 net.cpp:454] conv4_8_1x1_reduce/bn <- conv4_8_1x1_reduce
I0620 03:59:13.629824   848 net.cpp:397] conv4_8_1x1_reduce/bn -> conv4_8_1x1_reduce (in-place)
I0620 03:59:13.629954   848 net.cpp:150] Setting up conv4_8_1x1_reduce/bn
I0620 03:59:13.629958   848 net.cpp:157] Top shape: 1 256 60 60 (921600)
I0620 03:59:13.629961   848 net.cpp:165] Memory required for data: 1612732928
I0620 03:59:13.629964   848 layer_factory.hpp:77] Creating layer conv4_8_1x1_reduce/relu
I0620 03:59:13.629968   848 net.cpp:106] Creating Layer conv4_8_1x1_reduce/relu
I0620 03:59:13.629971   848 net.cpp:454] conv4_8_1x1_reduce/relu <- conv4_8_1x1_reduce
I0620 03:59:13.629972   848 net.cpp:397] conv4_8_1x1_reduce/relu -> conv4_8_1x1_reduce (in-place)
I0620 03:59:13.629977   848 net.cpp:150] Setting up conv4_8_1x1_reduce/relu
I0620 03:59:13.629981   848 net.cpp:157] Top shape: 1 256 60 60 (921600)
I0620 03:59:13.629982   848 net.cpp:165] Memory required for data: 1616419328
I0620 03:59:13.629984   848 layer_factory.hpp:77] Creating layer conv4_8_3x3
I0620 03:59:13.629988   848 net.cpp:106] Creating Layer conv4_8_3x3
I0620 03:59:13.629992   848 net.cpp:454] conv4_8_3x3 <- conv4_8_1x1_reduce
I0620 03:59:13.629997   848 net.cpp:411] conv4_8_3x3 -> conv4_8_3x3
I0620 03:59:13.646915   848 net.cpp:150] Setting up conv4_8_3x3
I0620 03:59:13.647065   848 net.cpp:157] Top shape: 1 256 60 60 (921600)
I0620 03:59:13.647083   848 net.cpp:165] Memory required for data: 1620105728
I0620 03:59:13.647104   848 layer_factory.hpp:77] Creating layer conv4_8_3x3/bn
I0620 03:59:13.647132   848 net.cpp:106] Creating Layer conv4_8_3x3/bn
I0620 03:59:13.647150   848 net.cpp:454] conv4_8_3x3/bn <- conv4_8_3x3
I0620 03:59:13.647168   848 net.cpp:397] conv4_8_3x3/bn -> conv4_8_3x3 (in-place)
I0620 03:59:13.647423   848 net.cpp:150] Setting up conv4_8_3x3/bn
I0620 03:59:13.647436   848 net.cpp:157] Top shape: 1 256 60 60 (921600)
I0620 03:59:13.647446   848 net.cpp:165] Memory required for data: 1623792128
I0620 03:59:13.647460   848 layer_factory.hpp:77] Creating layer conv4_8_3x3/relu
I0620 03:59:13.647476   848 net.cpp:106] Creating Layer conv4_8_3x3/relu
I0620 03:59:13.647486   848 net.cpp:454] conv4_8_3x3/relu <- conv4_8_3x3
I0620 03:59:13.647496   848 net.cpp:397] conv4_8_3x3/relu -> conv4_8_3x3 (in-place)
I0620 03:59:13.647508   848 net.cpp:150] Setting up conv4_8_3x3/relu
I0620 03:59:13.647518   848 net.cpp:157] Top shape: 1 256 60 60 (921600)
I0620 03:59:13.647526   848 net.cpp:165] Memory required for data: 1627478528
I0620 03:59:13.647536   848 layer_factory.hpp:77] Creating layer conv4_8_1x1_increase
I0620 03:59:13.647550   848 net.cpp:106] Creating Layer conv4_8_1x1_increase
I0620 03:59:13.647559   848 net.cpp:454] conv4_8_1x1_increase <- conv4_8_3x3
I0620 03:59:13.647570   848 net.cpp:411] conv4_8_1x1_increase -> conv4_8_1x1_increase
I0620 03:59:13.655316   848 net.cpp:150] Setting up conv4_8_1x1_increase
I0620 03:59:13.655354   848 net.cpp:157] Top shape: 1 1024 60 60 (3686400)
I0620 03:59:13.655356   848 net.cpp:165] Memory required for data: 1642224128
I0620 03:59:13.655364   848 layer_factory.hpp:77] Creating layer conv4_8_1x1_increase/bn
I0620 03:59:13.655377   848 net.cpp:106] Creating Layer conv4_8_1x1_increase/bn
I0620 03:59:13.655382   848 net.cpp:454] conv4_8_1x1_increase/bn <- conv4_8_1x1_increase
I0620 03:59:13.655390   848 net.cpp:397] conv4_8_1x1_increase/bn -> conv4_8_1x1_increase (in-place)
I0620 03:59:13.655546   848 net.cpp:150] Setting up conv4_8_1x1_increase/bn
I0620 03:59:13.655551   848 net.cpp:157] Top shape: 1 1024 60 60 (3686400)
I0620 03:59:13.655553   848 net.cpp:165] Memory required for data: 1656969728
I0620 03:59:13.655557   848 layer_factory.hpp:77] Creating layer conv4_8
I0620 03:59:13.655561   848 net.cpp:106] Creating Layer conv4_8
I0620 03:59:13.655563   848 net.cpp:454] conv4_8 <- conv4_7_conv4_7/relu_0_split_1
I0620 03:59:13.655566   848 net.cpp:454] conv4_8 <- conv4_8_1x1_increase
I0620 03:59:13.655570   848 net.cpp:411] conv4_8 -> conv4_8
I0620 03:59:13.655583   848 net.cpp:150] Setting up conv4_8
I0620 03:59:13.655586   848 net.cpp:157] Top shape: 1 1024 60 60 (3686400)
I0620 03:59:13.655587   848 net.cpp:165] Memory required for data: 1671715328
I0620 03:59:13.655589   848 layer_factory.hpp:77] Creating layer conv4_8/relu
I0620 03:59:13.655593   848 net.cpp:106] Creating Layer conv4_8/relu
I0620 03:59:13.655596   848 net.cpp:454] conv4_8/relu <- conv4_8
I0620 03:59:13.655601   848 net.cpp:397] conv4_8/relu -> conv4_8 (in-place)
I0620 03:59:13.655604   848 net.cpp:150] Setting up conv4_8/relu
I0620 03:59:13.655606   848 net.cpp:157] Top shape: 1 1024 60 60 (3686400)
I0620 03:59:13.655609   848 net.cpp:165] Memory required for data: 1686460928
I0620 03:59:13.655611   848 layer_factory.hpp:77] Creating layer conv4_8_conv4_8/relu_0_split
I0620 03:59:13.655614   848 net.cpp:106] Creating Layer conv4_8_conv4_8/relu_0_split
I0620 03:59:13.655616   848 net.cpp:454] conv4_8_conv4_8/relu_0_split <- conv4_8
I0620 03:59:13.655618   848 net.cpp:411] conv4_8_conv4_8/relu_0_split -> conv4_8_conv4_8/relu_0_split_0
I0620 03:59:13.655624   848 net.cpp:411] conv4_8_conv4_8/relu_0_split -> conv4_8_conv4_8/relu_0_split_1
I0620 03:59:13.655643   848 net.cpp:150] Setting up conv4_8_conv4_8/relu_0_split
I0620 03:59:13.655647   848 net.cpp:157] Top shape: 1 1024 60 60 (3686400)
I0620 03:59:13.655649   848 net.cpp:157] Top shape: 1 1024 60 60 (3686400)
I0620 03:59:13.655650   848 net.cpp:165] Memory required for data: 1715952128
I0620 03:59:13.655652   848 layer_factory.hpp:77] Creating layer conv4_9_1x1_reduce
I0620 03:59:13.655658   848 net.cpp:106] Creating Layer conv4_9_1x1_reduce
I0620 03:59:13.655659   848 net.cpp:454] conv4_9_1x1_reduce <- conv4_8_conv4_8/relu_0_split_0
I0620 03:59:13.655663   848 net.cpp:411] conv4_9_1x1_reduce -> conv4_9_1x1_reduce
I0620 03:59:13.661304   848 net.cpp:150] Setting up conv4_9_1x1_reduce
I0620 03:59:13.661312   848 net.cpp:157] Top shape: 1 256 60 60 (921600)
I0620 03:59:13.661314   848 net.cpp:165] Memory required for data: 1719638528
I0620 03:59:13.661317   848 layer_factory.hpp:77] Creating layer conv4_9_1x1_reduce/bn
I0620 03:59:13.661324   848 net.cpp:106] Creating Layer conv4_9_1x1_reduce/bn
I0620 03:59:13.661325   848 net.cpp:454] conv4_9_1x1_reduce/bn <- conv4_9_1x1_reduce
I0620 03:59:13.661327   848 net.cpp:397] conv4_9_1x1_reduce/bn -> conv4_9_1x1_reduce (in-place)
I0620 03:59:13.661448   848 net.cpp:150] Setting up conv4_9_1x1_reduce/bn
I0620 03:59:13.661453   848 net.cpp:157] Top shape: 1 256 60 60 (921600)
I0620 03:59:13.661454   848 net.cpp:165] Memory required for data: 1723324928
I0620 03:59:13.661476   848 layer_factory.hpp:77] Creating layer conv4_9_1x1_reduce/relu
I0620 03:59:13.661479   848 net.cpp:106] Creating Layer conv4_9_1x1_reduce/relu
I0620 03:59:13.661481   848 net.cpp:454] conv4_9_1x1_reduce/relu <- conv4_9_1x1_reduce
I0620 03:59:13.661484   848 net.cpp:397] conv4_9_1x1_reduce/relu -> conv4_9_1x1_reduce (in-place)
I0620 03:59:13.661486   848 net.cpp:150] Setting up conv4_9_1x1_reduce/relu
I0620 03:59:13.661489   848 net.cpp:157] Top shape: 1 256 60 60 (921600)
I0620 03:59:13.661490   848 net.cpp:165] Memory required for data: 1727011328
I0620 03:59:13.661492   848 layer_factory.hpp:77] Creating layer conv4_9_3x3
I0620 03:59:13.661497   848 net.cpp:106] Creating Layer conv4_9_3x3
I0620 03:59:13.661499   848 net.cpp:454] conv4_9_3x3 <- conv4_9_1x1_reduce
I0620 03:59:13.661502   848 net.cpp:411] conv4_9_3x3 -> conv4_9_3x3
I0620 03:59:13.674656   848 net.cpp:150] Setting up conv4_9_3x3
I0620 03:59:13.674669   848 net.cpp:157] Top shape: 1 256 60 60 (921600)
I0620 03:59:13.674671   848 net.cpp:165] Memory required for data: 1730697728
I0620 03:59:13.674675   848 layer_factory.hpp:77] Creating layer conv4_9_3x3/bn
I0620 03:59:13.674682   848 net.cpp:106] Creating Layer conv4_9_3x3/bn
I0620 03:59:13.674686   848 net.cpp:454] conv4_9_3x3/bn <- conv4_9_3x3
I0620 03:59:13.674690   848 net.cpp:397] conv4_9_3x3/bn -> conv4_9_3x3 (in-place)
I0620 03:59:13.674821   848 net.cpp:150] Setting up conv4_9_3x3/bn
I0620 03:59:13.674826   848 net.cpp:157] Top shape: 1 256 60 60 (921600)
I0620 03:59:13.674827   848 net.cpp:165] Memory required for data: 1734384128
I0620 03:59:13.674831   848 layer_factory.hpp:77] Creating layer conv4_9_3x3/relu
I0620 03:59:13.674835   848 net.cpp:106] Creating Layer conv4_9_3x3/relu
I0620 03:59:13.674836   848 net.cpp:454] conv4_9_3x3/relu <- conv4_9_3x3
I0620 03:59:13.674839   848 net.cpp:397] conv4_9_3x3/relu -> conv4_9_3x3 (in-place)
I0620 03:59:13.674842   848 net.cpp:150] Setting up conv4_9_3x3/relu
I0620 03:59:13.674844   848 net.cpp:157] Top shape: 1 256 60 60 (921600)
I0620 03:59:13.674846   848 net.cpp:165] Memory required for data: 1738070528
I0620 03:59:13.674847   848 layer_factory.hpp:77] Creating layer conv4_9_1x1_increase
I0620 03:59:13.674854   848 net.cpp:106] Creating Layer conv4_9_1x1_increase
I0620 03:59:13.674855   848 net.cpp:454] conv4_9_1x1_increase <- conv4_9_3x3
I0620 03:59:13.674859   848 net.cpp:411] conv4_9_1x1_increase -> conv4_9_1x1_increase
I0620 03:59:13.681236   848 net.cpp:150] Setting up conv4_9_1x1_increase
I0620 03:59:13.681270   848 net.cpp:157] Top shape: 1 1024 60 60 (3686400)
I0620 03:59:13.681272   848 net.cpp:165] Memory required for data: 1752816128
I0620 03:59:13.681283   848 layer_factory.hpp:77] Creating layer conv4_9_1x1_increase/bn
I0620 03:59:13.681303   848 net.cpp:106] Creating Layer conv4_9_1x1_increase/bn
I0620 03:59:13.681311   848 net.cpp:454] conv4_9_1x1_increase/bn <- conv4_9_1x1_increase
I0620 03:59:13.681318   848 net.cpp:397] conv4_9_1x1_increase/bn -> conv4_9_1x1_increase (in-place)
I0620 03:59:13.681509   848 net.cpp:150] Setting up conv4_9_1x1_increase/bn
I0620 03:59:13.681514   848 net.cpp:157] Top shape: 1 1024 60 60 (3686400)
I0620 03:59:13.681515   848 net.cpp:165] Memory required for data: 1767561728
I0620 03:59:13.681519   848 layer_factory.hpp:77] Creating layer conv4_9
I0620 03:59:13.681524   848 net.cpp:106] Creating Layer conv4_9
I0620 03:59:13.681525   848 net.cpp:454] conv4_9 <- conv4_8_conv4_8/relu_0_split_1
I0620 03:59:13.681527   848 net.cpp:454] conv4_9 <- conv4_9_1x1_increase
I0620 03:59:13.681530   848 net.cpp:411] conv4_9 -> conv4_9
I0620 03:59:13.681545   848 net.cpp:150] Setting up conv4_9
I0620 03:59:13.681547   848 net.cpp:157] Top shape: 1 1024 60 60 (3686400)
I0620 03:59:13.681550   848 net.cpp:165] Memory required for data: 1782307328
I0620 03:59:13.681552   848 layer_factory.hpp:77] Creating layer conv4_9/relu
I0620 03:59:13.681555   848 net.cpp:106] Creating Layer conv4_9/relu
I0620 03:59:13.681560   848 net.cpp:454] conv4_9/relu <- conv4_9
I0620 03:59:13.681561   848 net.cpp:397] conv4_9/relu -> conv4_9 (in-place)
I0620 03:59:13.681565   848 net.cpp:150] Setting up conv4_9/relu
I0620 03:59:13.681566   848 net.cpp:157] Top shape: 1 1024 60 60 (3686400)
I0620 03:59:13.681568   848 net.cpp:165] Memory required for data: 1797052928
I0620 03:59:13.681571   848 layer_factory.hpp:77] Creating layer conv4_9_conv4_9/relu_0_split
I0620 03:59:13.681576   848 net.cpp:106] Creating Layer conv4_9_conv4_9/relu_0_split
I0620 03:59:13.681576   848 net.cpp:454] conv4_9_conv4_9/relu_0_split <- conv4_9
I0620 03:59:13.681579   848 net.cpp:411] conv4_9_conv4_9/relu_0_split -> conv4_9_conv4_9/relu_0_split_0
I0620 03:59:13.681583   848 net.cpp:411] conv4_9_conv4_9/relu_0_split -> conv4_9_conv4_9/relu_0_split_1
I0620 03:59:13.681602   848 net.cpp:150] Setting up conv4_9_conv4_9/relu_0_split
I0620 03:59:13.681607   848 net.cpp:157] Top shape: 1 1024 60 60 (3686400)
I0620 03:59:13.681608   848 net.cpp:157] Top shape: 1 1024 60 60 (3686400)
I0620 03:59:13.681610   848 net.cpp:165] Memory required for data: 1826544128
I0620 03:59:13.681612   848 layer_factory.hpp:77] Creating layer conv4_10_1x1_reduce
I0620 03:59:13.681617   848 net.cpp:106] Creating Layer conv4_10_1x1_reduce
I0620 03:59:13.681620   848 net.cpp:454] conv4_10_1x1_reduce <- conv4_9_conv4_9/relu_0_split_0
I0620 03:59:13.681624   848 net.cpp:411] conv4_10_1x1_reduce -> conv4_10_1x1_reduce
I0620 03:59:13.687283   848 net.cpp:150] Setting up conv4_10_1x1_reduce
I0620 03:59:13.687290   848 net.cpp:157] Top shape: 1 256 60 60 (921600)
I0620 03:59:13.687292   848 net.cpp:165] Memory required for data: 1830230528
I0620 03:59:13.687297   848 layer_factory.hpp:77] Creating layer conv4_10_1x1_reduce/bn
I0620 03:59:13.687301   848 net.cpp:106] Creating Layer conv4_10_1x1_reduce/bn
I0620 03:59:13.687304   848 net.cpp:454] conv4_10_1x1_reduce/bn <- conv4_10_1x1_reduce
I0620 03:59:13.687309   848 net.cpp:397] conv4_10_1x1_reduce/bn -> conv4_10_1x1_reduce (in-place)
I0620 03:59:13.687440   848 net.cpp:150] Setting up conv4_10_1x1_reduce/bn
I0620 03:59:13.687444   848 net.cpp:157] Top shape: 1 256 60 60 (921600)
I0620 03:59:13.687446   848 net.cpp:165] Memory required for data: 1833916928
I0620 03:59:13.687450   848 layer_factory.hpp:77] Creating layer conv4_10_1x1_reduce/relu
I0620 03:59:13.687453   848 net.cpp:106] Creating Layer conv4_10_1x1_reduce/relu
I0620 03:59:13.687455   848 net.cpp:454] conv4_10_1x1_reduce/relu <- conv4_10_1x1_reduce
I0620 03:59:13.687458   848 net.cpp:397] conv4_10_1x1_reduce/relu -> conv4_10_1x1_reduce (in-place)
I0620 03:59:13.687461   848 net.cpp:150] Setting up conv4_10_1x1_reduce/relu
I0620 03:59:13.687463   848 net.cpp:157] Top shape: 1 256 60 60 (921600)
I0620 03:59:13.687465   848 net.cpp:165] Memory required for data: 1837603328
I0620 03:59:13.687466   848 layer_factory.hpp:77] Creating layer conv4_10_3x3
I0620 03:59:13.687471   848 net.cpp:106] Creating Layer conv4_10_3x3
I0620 03:59:13.687474   848 net.cpp:454] conv4_10_3x3 <- conv4_10_1x1_reduce
I0620 03:59:13.687476   848 net.cpp:411] conv4_10_3x3 -> conv4_10_3x3
I0620 03:59:13.705595   848 net.cpp:150] Setting up conv4_10_3x3
I0620 03:59:13.705620   848 net.cpp:157] Top shape: 1 256 60 60 (921600)
I0620 03:59:13.705621   848 net.cpp:165] Memory required for data: 1841289728
I0620 03:59:13.705628   848 layer_factory.hpp:77] Creating layer conv4_10_3x3/bn
I0620 03:59:13.705643   848 net.cpp:106] Creating Layer conv4_10_3x3/bn
I0620 03:59:13.705649   848 net.cpp:454] conv4_10_3x3/bn <- conv4_10_3x3
I0620 03:59:13.705653   848 net.cpp:397] conv4_10_3x3/bn -> conv4_10_3x3 (in-place)
I0620 03:59:13.705816   848 net.cpp:150] Setting up conv4_10_3x3/bn
I0620 03:59:13.705821   848 net.cpp:157] Top shape: 1 256 60 60 (921600)
I0620 03:59:13.705822   848 net.cpp:165] Memory required for data: 1844976128
I0620 03:59:13.705826   848 layer_factory.hpp:77] Creating layer conv4_10_3x3/relu
I0620 03:59:13.705829   848 net.cpp:106] Creating Layer conv4_10_3x3/relu
I0620 03:59:13.705832   848 net.cpp:454] conv4_10_3x3/relu <- conv4_10_3x3
I0620 03:59:13.705833   848 net.cpp:397] conv4_10_3x3/relu -> conv4_10_3x3 (in-place)
I0620 03:59:13.705837   848 net.cpp:150] Setting up conv4_10_3x3/relu
I0620 03:59:13.705839   848 net.cpp:157] Top shape: 1 256 60 60 (921600)
I0620 03:59:13.705842   848 net.cpp:165] Memory required for data: 1848662528
I0620 03:59:13.705842   848 layer_factory.hpp:77] Creating layer conv4_10_1x1_increase
I0620 03:59:13.705848   848 net.cpp:106] Creating Layer conv4_10_1x1_increase
I0620 03:59:13.705850   848 net.cpp:454] conv4_10_1x1_increase <- conv4_10_3x3
I0620 03:59:13.705857   848 net.cpp:411] conv4_10_1x1_increase -> conv4_10_1x1_increase
I0620 03:59:13.712168   848 net.cpp:150] Setting up conv4_10_1x1_increase
I0620 03:59:13.712177   848 net.cpp:157] Top shape: 1 1024 60 60 (3686400)
I0620 03:59:13.712178   848 net.cpp:165] Memory required for data: 1863408128
I0620 03:59:13.712182   848 layer_factory.hpp:77] Creating layer conv4_10_1x1_increase/bn
I0620 03:59:13.712186   848 net.cpp:106] Creating Layer conv4_10_1x1_increase/bn
I0620 03:59:13.712188   848 net.cpp:454] conv4_10_1x1_increase/bn <- conv4_10_1x1_increase
I0620 03:59:13.712191   848 net.cpp:397] conv4_10_1x1_increase/bn -> conv4_10_1x1_increase (in-place)
I0620 03:59:13.712328   848 net.cpp:150] Setting up conv4_10_1x1_increase/bn
I0620 03:59:13.712332   848 net.cpp:157] Top shape: 1 1024 60 60 (3686400)
I0620 03:59:13.712333   848 net.cpp:165] Memory required for data: 1878153728
I0620 03:59:13.712337   848 layer_factory.hpp:77] Creating layer conv4_10
I0620 03:59:13.712342   848 net.cpp:106] Creating Layer conv4_10
I0620 03:59:13.712343   848 net.cpp:454] conv4_10 <- conv4_9_conv4_9/relu_0_split_1
I0620 03:59:13.712347   848 net.cpp:454] conv4_10 <- conv4_10_1x1_increase
I0620 03:59:13.712348   848 net.cpp:411] conv4_10 -> conv4_10
I0620 03:59:13.712363   848 net.cpp:150] Setting up conv4_10
I0620 03:59:13.712366   848 net.cpp:157] Top shape: 1 1024 60 60 (3686400)
I0620 03:59:13.712368   848 net.cpp:165] Memory required for data: 1892899328
I0620 03:59:13.712369   848 layer_factory.hpp:77] Creating layer conv4_10/relu
I0620 03:59:13.712375   848 net.cpp:106] Creating Layer conv4_10/relu
I0620 03:59:13.712378   848 net.cpp:454] conv4_10/relu <- conv4_10
I0620 03:59:13.712380   848 net.cpp:397] conv4_10/relu -> conv4_10 (in-place)
I0620 03:59:13.712384   848 net.cpp:150] Setting up conv4_10/relu
I0620 03:59:13.712386   848 net.cpp:157] Top shape: 1 1024 60 60 (3686400)
I0620 03:59:13.712388   848 net.cpp:165] Memory required for data: 1907644928
I0620 03:59:13.712391   848 layer_factory.hpp:77] Creating layer conv4_10_conv4_10/relu_0_split
I0620 03:59:13.712394   848 net.cpp:106] Creating Layer conv4_10_conv4_10/relu_0_split
I0620 03:59:13.712396   848 net.cpp:454] conv4_10_conv4_10/relu_0_split <- conv4_10
I0620 03:59:13.712400   848 net.cpp:411] conv4_10_conv4_10/relu_0_split -> conv4_10_conv4_10/relu_0_split_0
I0620 03:59:13.712404   848 net.cpp:411] conv4_10_conv4_10/relu_0_split -> conv4_10_conv4_10/relu_0_split_1
I0620 03:59:13.712424   848 net.cpp:150] Setting up conv4_10_conv4_10/relu_0_split
I0620 03:59:13.712427   848 net.cpp:157] Top shape: 1 1024 60 60 (3686400)
I0620 03:59:13.712430   848 net.cpp:157] Top shape: 1 1024 60 60 (3686400)
I0620 03:59:13.712432   848 net.cpp:165] Memory required for data: 1937136128
I0620 03:59:13.712433   848 layer_factory.hpp:77] Creating layer conv4_11_1x1_reduce
I0620 03:59:13.712440   848 net.cpp:106] Creating Layer conv4_11_1x1_reduce
I0620 03:59:13.712442   848 net.cpp:454] conv4_11_1x1_reduce <- conv4_10_conv4_10/relu_0_split_0
I0620 03:59:13.712445   848 net.cpp:411] conv4_11_1x1_reduce -> conv4_11_1x1_reduce
I0620 03:59:13.718008   848 net.cpp:150] Setting up conv4_11_1x1_reduce
I0620 03:59:13.718014   848 net.cpp:157] Top shape: 1 256 60 60 (921600)
I0620 03:59:13.718015   848 net.cpp:165] Memory required for data: 1940822528
I0620 03:59:13.718017   848 layer_factory.hpp:77] Creating layer conv4_11_1x1_reduce/bn
I0620 03:59:13.718021   848 net.cpp:106] Creating Layer conv4_11_1x1_reduce/bn
I0620 03:59:13.718024   848 net.cpp:454] conv4_11_1x1_reduce/bn <- conv4_11_1x1_reduce
I0620 03:59:13.718027   848 net.cpp:397] conv4_11_1x1_reduce/bn -> conv4_11_1x1_reduce (in-place)
I0620 03:59:13.718152   848 net.cpp:150] Setting up conv4_11_1x1_reduce/bn
I0620 03:59:13.718156   848 net.cpp:157] Top shape: 1 256 60 60 (921600)
I0620 03:59:13.718158   848 net.cpp:165] Memory required for data: 1944508928
I0620 03:59:13.718163   848 layer_factory.hpp:77] Creating layer conv4_11_1x1_reduce/relu
I0620 03:59:13.718168   848 net.cpp:106] Creating Layer conv4_11_1x1_reduce/relu
I0620 03:59:13.718169   848 net.cpp:454] conv4_11_1x1_reduce/relu <- conv4_11_1x1_reduce
I0620 03:59:13.718171   848 net.cpp:397] conv4_11_1x1_reduce/relu -> conv4_11_1x1_reduce (in-place)
I0620 03:59:13.718175   848 net.cpp:150] Setting up conv4_11_1x1_reduce/relu
I0620 03:59:13.718178   848 net.cpp:157] Top shape: 1 256 60 60 (921600)
I0620 03:59:13.718179   848 net.cpp:165] Memory required for data: 1948195328
I0620 03:59:13.718180   848 layer_factory.hpp:77] Creating layer conv4_11_3x3
I0620 03:59:13.718184   848 net.cpp:106] Creating Layer conv4_11_3x3
I0620 03:59:13.718186   848 net.cpp:454] conv4_11_3x3 <- conv4_11_1x1_reduce
I0620 03:59:13.718189   848 net.cpp:411] conv4_11_3x3 -> conv4_11_3x3
I0620 03:59:13.731407   848 net.cpp:150] Setting up conv4_11_3x3
I0620 03:59:13.731425   848 net.cpp:157] Top shape: 1 256 60 60 (921600)
I0620 03:59:13.731426   848 net.cpp:165] Memory required for data: 1951881728
I0620 03:59:13.731432   848 layer_factory.hpp:77] Creating layer conv4_11_3x3/bn
I0620 03:59:13.731441   848 net.cpp:106] Creating Layer conv4_11_3x3/bn
I0620 03:59:13.731446   848 net.cpp:454] conv4_11_3x3/bn <- conv4_11_3x3
I0620 03:59:13.731451   848 net.cpp:397] conv4_11_3x3/bn -> conv4_11_3x3 (in-place)
I0620 03:59:13.731587   848 net.cpp:150] Setting up conv4_11_3x3/bn
I0620 03:59:13.731591   848 net.cpp:157] Top shape: 1 256 60 60 (921600)
I0620 03:59:13.731593   848 net.cpp:165] Memory required for data: 1955568128
I0620 03:59:13.731597   848 layer_factory.hpp:77] Creating layer conv4_11_3x3/relu
I0620 03:59:13.731601   848 net.cpp:106] Creating Layer conv4_11_3x3/relu
I0620 03:59:13.731603   848 net.cpp:454] conv4_11_3x3/relu <- conv4_11_3x3
I0620 03:59:13.731606   848 net.cpp:397] conv4_11_3x3/relu -> conv4_11_3x3 (in-place)
I0620 03:59:13.731608   848 net.cpp:150] Setting up conv4_11_3x3/relu
I0620 03:59:13.731611   848 net.cpp:157] Top shape: 1 256 60 60 (921600)
I0620 03:59:13.731612   848 net.cpp:165] Memory required for data: 1959254528
I0620 03:59:13.731613   848 layer_factory.hpp:77] Creating layer conv4_11_1x1_increase
I0620 03:59:13.731621   848 net.cpp:106] Creating Layer conv4_11_1x1_increase
I0620 03:59:13.731622   848 net.cpp:454] conv4_11_1x1_increase <- conv4_11_3x3
I0620 03:59:13.731626   848 net.cpp:411] conv4_11_1x1_increase -> conv4_11_1x1_increase
I0620 03:59:13.737916   848 net.cpp:150] Setting up conv4_11_1x1_increase
I0620 03:59:13.737938   848 net.cpp:157] Top shape: 1 1024 60 60 (3686400)
I0620 03:59:13.737941   848 net.cpp:165] Memory required for data: 1974000128
…
I0620 03:59:14.036603   848 net.cpp:454] conv4_21 <- conv4_20_conv4_20/relu_0_split_1
I0620 03:59:14.036605   848 net.cpp:454] conv4_21 <- conv4_21_1x1_increase
I0620 03:59:14.036608   848 net.cpp:411] conv4_21 -> conv4_21
I0620 03:59:14.036624   848 net.cpp:150] Setting up conv4_21
I0620 03:59:14.036628   848 net.cpp:157] Top shape: 1 1024 60 60 (3686400)
I0620 03:59:14.036629   848 net.cpp:165] Memory required for data: 3109411328
I0620 03:59:14.036631   848 layer_factory.hpp:77] Creating layer conv4_21/relu
I0620 03:59:14.036635   848 net.cpp:106] Creating Layer conv4_21/relu
I0620 03:59:14.036638   848 net.cpp:454] conv4_21/relu <- conv4_21
I0620 03:59:14.036640   848 net.cpp:397] conv4_21/relu -> conv4_21 (in-place)
I0620 03:59:14.036643   848 net.cpp:150] Setting up conv4_21/relu
I0620 03:59:14.036646   848 net.cpp:157] Top shape: 1 1024 60 60 (3686400)
I0620 03:59:14.036648   848 net.cpp:165] Memory required for data: 3124156928
I0620 03:59:14.036650   848 layer_factory.hpp:77] Creating layer conv4_21_conv4_21/relu_0_split
I0620 03:59:14.036654   848 net.cpp:106] Creating Layer conv4_21_conv4_21/relu_0_split
I0620 03:59:14.036655   848 net.cpp:454] conv4_21_conv4_21/relu_0_split <- conv4_21
I0620 03:59:14.036659   848 net.cpp:411] conv4_21_conv4_21/relu_0_split -> conv4_21_conv4_21/relu_0_split_0
I0620 03:59:14.036662   848 net.cpp:411] conv4_21_conv4_21/relu_0_split -> conv4_21_conv4_21/relu_0_split_1
I0620 03:59:14.036684   848 net.cpp:150] Setting up conv4_21_conv4_21/relu_0_split
I0620 03:59:14.036689   848 net.cpp:157] Top shape: 1 1024 60 60 (3686400)
I0620 03:59:14.036690   848 net.cpp:157] Top shape: 1 1024 60 60 (3686400)
I0620 03:59:14.036691   848 net.cpp:165] Memory required for data: 3153648128
I0620 03:59:14.036694   848 layer_factory.hpp:77] Creating layer conv4_22_1x1_reduce
I0620 03:59:14.036700   848 net.cpp:106] Creating Layer conv4_22_1x1_reduce
I0620 03:59:14.036703   848 net.cpp:454] conv4_22_1x1_reduce <- conv4_21_conv4_21/relu_0_split_0
I0620 03:59:14.036706   848 net.cpp:411] conv4_22_1x1_reduce -> conv4_22_1x1_reduce
I0620 03:59:14.042778   848 net.cpp:150] Setting up conv4_22_1x1_reduce
I0620 03:59:14.042788   848 net.cpp:157] Top shape: 1 256 60 60 (921600)
I0620 03:59:14.042789   848 net.cpp:165] Memory required for data: 3157334528
I0620 03:59:14.042793   848 layer_factory.hpp:77] Creating layer conv4_22_1x1_reduce/bn
I0620 03:59:14.042798   848 net.cpp:106] Creating Layer conv4_22_1x1_reduce/bn
I0620 03:59:14.042803   848 net.cpp:454] conv4_22_1x1_reduce/bn <- conv4_22_1x1_reduce
I0620 03:59:14.042809   848 net.cpp:397] conv4_22_1x1_reduce/bn -> conv4_22_1x1_reduce (in-place)
I0620 03:59:14.042990   848 net.cpp:150] Setting up conv4_22_1x1_reduce/bn
I0620 03:59:14.042995   848 net.cpp:157] Top shape: 1 256 60 60 (921600)
I0620 03:59:14.042996   848 net.cpp:165] Memory required for data: 3161020928
I0620 03:59:14.043001   848 layer_factory.hpp:77] Creating layer conv4_22_1x1_reduce/relu
I0620 03:59:14.043005   848 net.cpp:106] Creating Layer conv4_22_1x1_reduce/relu
I0620 03:59:14.043007   848 net.cpp:454] conv4_22_1x1_reduce/relu <- conv4_22_1x1_reduce
I0620 03:59:14.043009   848 net.cpp:397] conv4_22_1x1_reduce/relu -> conv4_22_1x1_reduce (in-place)
I0620 03:59:14.043012   848 net.cpp:150] Setting up conv4_22_1x1_reduce/relu
I0620 03:59:14.043015   848 net.cpp:157] Top shape: 1 256 60 60 (921600)
I0620 03:59:14.043016   848 net.cpp:165] Memory required for data: 3164707328
I0620 03:59:14.043017   848 layer_factory.hpp:77] Creating layer conv4_22_3x3
I0620 03:59:14.043021   848 net.cpp:106] Creating Layer conv4_22_3x3
I0620 03:59:14.043023   848 net.cpp:454] conv4_22_3x3 <- conv4_22_1x1_reduce
I0620 03:59:14.043026   848 net.cpp:411] conv4_22_3x3 -> conv4_22_3x3
I0620 03:59:14.057078   848 net.cpp:150] Setting up conv4_22_3x3
I0620 03:59:14.057090   848 net.cpp:157] Top shape: 1 256 60 60 (921600)
I0620 03:59:14.057091   848 net.cpp:165] Memory required for data: 3168393728
I0620 03:59:14.057096   848 layer_factory.hpp:77] Creating layer conv4_22_3x3/bn
I0620 03:59:14.057102   848 net.cpp:106] Creating Layer conv4_22_3x3/bn
I0620 03:59:14.057106   848 net.cpp:454] conv4_22_3x3/bn <- conv4_22_3x3
I0620 03:59:14.057108   848 net.cpp:397] conv4_22_3x3/bn -> conv4_22_3x3 (in-place)
I0620 03:59:14.057291   848 net.cpp:150] Setting up conv4_22_3x3/bn
I0620 03:59:14.057296   848 net.cpp:157] Top shape: 1 256 60 60 (921600)
I0620 03:59:14.057297   848 net.cpp:165] Memory required for data: 3172080128
I0620 03:59:14.057301   848 layer_factory.hpp:77] Creating layer conv4_22_3x3/relu
I0620 03:59:14.057304   848 net.cpp:106] Creating Layer conv4_22_3x3/relu
I0620 03:59:14.057307   848 net.cpp:454] conv4_22_3x3/relu <- conv4_22_3x3
I0620 03:59:14.057308   848 net.cpp:397] conv4_22_3x3/relu -> conv4_22_3x3 (in-place)
I0620 03:59:14.057312   848 net.cpp:150] Setting up conv4_22_3x3/relu
I0620 03:59:14.057314   848 net.cpp:157] Top shape: 1 256 60 60 (921600)
I0620 03:59:14.057315   848 net.cpp:165] Memory required for data: 3175766528
I0620 03:59:14.057317   848 layer_factory.hpp:77] Creating layer conv4_22_1x1_increase
I0620 03:59:14.057322   848 net.cpp:106] Creating Layer conv4_22_1x1_increase
I0620 03:59:14.057324   848 net.cpp:454] conv4_22_1x1_increase <- conv4_22_3x3
I0620 03:59:14.057328   848 net.cpp:411] conv4_22_1x1_increase -> conv4_22_1x1_increase
I0620 03:59:14.064355   848 net.cpp:150] Setting up conv4_22_1x1_increase
I0620 03:59:14.064378   848 net.cpp:157] Top shape: 1 1024 60 60 (3686400)
I0620 03:59:14.064381   848 net.cpp:165] Memory required for data: 3190512128
I0620 03:59:14.064386   848 layer_factory.hpp:77] Creating layer conv4_22_1x1_increase/bn
I0620 03:59:14.064396   848 net.cpp:106] Creating Layer conv4_22_1x1_increase/bn
I0620 03:59:14.064401   848 net.cpp:454] conv4_22_1x1_increase/bn <- conv4_22_1x1_increase
I0620 03:59:14.064405   848 net.cpp:397] conv4_22_1x1_increase/bn -> conv4_22_1x1_increase (in-place)
I0620 03:59:14.064611   848 net.cpp:150] Setting up conv4_22_1x1_increase/bn
I0620 03:59:14.064618   848 net.cpp:157] Top shape: 1 1024 60 60 (3686400)
I0620 03:59:14.064620   848 net.cpp:165] Memory required for data: 3205257728
I0620 03:59:14.064625   848 layer_factory.hpp:77] Creating layer conv4_22
I0620 03:59:14.064630   848 net.cpp:106] Creating Layer conv4_22
I0620 03:59:14.064633   848 net.cpp:454] conv4_22 <- conv4_21_conv4_21/relu_0_split_1
I0620 03:59:14.064638   848 net.cpp:454] conv4_22 <- conv4_22_1x1_increase
I0620 03:59:14.064641   848 net.cpp:411] conv4_22 -> conv4_22
I0620 03:59:14.064661   848 net.cpp:150] Setting up conv4_22
I0620 03:59:14.064667   848 net.cpp:157] Top shape: 1 1024 60 60 (3686400)
I0620 03:59:14.064671   848 net.cpp:165] Memory required for data: 3220003328
I0620 03:59:14.064672   848 layer_factory.hpp:77] Creating layer conv4_22/relu
I0620 03:59:14.064677   848 net.cpp:106] Creating Layer conv4_22/relu
I0620 03:59:14.064678   848 net.cpp:454] conv4_22/relu <- conv4_22
I0620 03:59:14.064680   848 net.cpp:397] conv4_22/relu -> conv4_22 (in-place)
I0620 03:59:14.064683   848 net.cpp:150] Setting up conv4_22/relu
I0620 03:59:14.064687   848 net.cpp:157] Top shape: 1 1024 60 60 (3686400)
I0620 03:59:14.064687   848 net.cpp:165] Memory required for data: 3234748928
I0620 03:59:14.064689   848 layer_factory.hpp:77] Creating layer conv4_22_conv4_22/relu_0_split
I0620 03:59:14.064693   848 net.cpp:106] Creating Layer conv4_22_conv4_22/relu_0_split
I0620 03:59:14.064697   848 net.cpp:454] conv4_22_conv4_22/relu_0_split <- conv4_22
I0620 03:59:14.064702   848 net.cpp:411] conv4_22_conv4_22/relu_0_split -> conv4_22_conv4_22/relu_0_split_0
I0620 03:59:14.064705   848 net.cpp:411] conv4_22_conv4_22/relu_0_split -> conv4_22_conv4_22/relu_0_split_1
I0620 03:59:14.064733   848 net.cpp:150] Setting up conv4_22_conv4_22/relu_0_split
I0620 03:59:14.064738   848 net.cpp:157] Top shape: 1 1024 60 60 (3686400)
I0620 03:59:14.064739   848 net.cpp:157] Top shape: 1 1024 60 60 (3686400)
I0620 03:59:14.064741   848 net.cpp:165] Memory required for data: 3264240128
I0620 03:59:14.064743   848 layer_factory.hpp:77] Creating layer conv4_23_1x1_reduce
I0620 03:59:14.064749   848 net.cpp:106] Creating Layer conv4_23_1x1_reduce
I0620 03:59:14.064751   848 net.cpp:454] conv4_23_1x1_reduce <- conv4_22_conv4_22/relu_0_split_0
I0620 03:59:14.064754   848 net.cpp:411] conv4_23_1x1_reduce -> conv4_23_1x1_reduce
I0620 03:59:14.072253   848 net.cpp:150] Setting up conv4_23_1x1_reduce
I0620 03:59:14.072263   848 net.cpp:157] Top shape: 1 256 60 60 (921600)
I0620 03:59:14.072280   848 net.cpp:165] Memory required for data: 3267926528
I0620 03:59:14.072285   848 layer_factory.hpp:77] Creating layer conv4_23_1x1_reduce/bn
I0620 03:59:14.072291   848 net.cpp:106] Creating Layer conv4_23_1x1_reduce/bn
I0620 03:59:14.072294   848 net.cpp:454] conv4_23_1x1_reduce/bn <- conv4_23_1x1_reduce
I0620 03:59:14.072302   848 net.cpp:397] conv4_23_1x1_reduce/bn -> conv4_23_1x1_reduce (in-place)
I0620 03:59:14.072521   848 net.cpp:150] Setting up conv4_23_1x1_reduce/bn
I0620 03:59:14.072526   848 net.cpp:157] Top shape: 1 256 60 60 (921600)
I0620 03:59:14.072543   848 net.cpp:165] Memory required for data: 3271612928
I0620 03:59:14.072549   848 layer_factory.hpp:77] Creating layer conv4_23_1x1_reduce/relu
I0620 03:59:14.072556   848 net.cpp:106] Creating Layer conv4_23_1x1_reduce/relu
I0620 03:59:14.072559   848 net.cpp:454] conv4_23_1x1_reduce/relu <- conv4_23_1x1_reduce
I0620 03:59:14.072563   848 net.cpp:397] conv4_23_1x1_reduce/relu -> conv4_23_1x1_reduce (in-place)
I0620 03:59:14.072567   848 net.cpp:150] Setting up conv4_23_1x1_reduce/relu
I0620 03:59:14.072572   848 net.cpp:157] Top shape: 1 256 60 60 (921600)
I0620 03:59:14.072574   848 net.cpp:165] Memory required for data: 3275299328
I0620 03:59:14.072578   848 layer_factory.hpp:77] Creating layer conv4_23_3x3
I0620 03:59:14.072584   848 net.cpp:106] Creating Layer conv4_23_3x3
I0620 03:59:14.072589   848 net.cpp:454] conv4_23_3x3 <- conv4_23_1x1_reduce
I0620 03:59:14.072597   848 net.cpp:411] conv4_23_3x3 -> conv4_23_3x3
I0620 03:59:14.089507   848 net.cpp:150] Setting up conv4_23_3x3
I0620 03:59:14.089702   848 net.cpp:157] Top shape: 1 256 60 60 (921600)
I0620 03:59:14.089720   848 net.cpp:165] Memory required for data: 3278985728
I0620 03:59:14.089743   848 layer_factory.hpp:77] Creating layer conv4_23_3x3/bn
I0620 03:59:14.089792   848 net.cpp:106] Creating Layer conv4_23_3x3/bn
I0620 03:59:14.089810   848 net.cpp:454] conv4_23_3x3/bn <- conv4_23_3x3
I0620 03:59:14.089828   848 net.cpp:397] conv4_23_3x3/bn -> conv4_23_3x3 (in-place)
I0620 03:59:14.090139   848 net.cpp:150] Setting up conv4_23_3x3/bn
I0620 03:59:14.090155   848 net.cpp:157] Top shape: 1 256 60 60 (921600)
I0620 03:59:14.090165   848 net.cpp:165] Memory required for data: 3282672128
I0620 03:59:14.090178   848 layer_factory.hpp:77] Creating layer conv4_23_3x3/relu
I0620 03:59:14.090196   848 net.cpp:106] Creating Layer conv4_23_3x3/relu
I0620 03:59:14.090206   848 net.cpp:454] conv4_23_3x3/relu <- conv4_23_3x3
I0620 03:59:14.090240   848 net.cpp:397] conv4_23_3x3/relu -> conv4_23_3x3 (in-place)
I0620 03:59:14.090255   848 net.cpp:150] Setting up conv4_23_3x3/relu
I0620 03:59:14.090265   848 net.cpp:157] Top shape: 1 256 60 60 (921600)
I0620 03:59:14.090273   848 net.cpp:165] Memory required for data: 3286358528
I0620 03:59:14.090282   848 layer_factory.hpp:77] Creating layer conv4_23_1x1_increase
I0620 03:59:14.090304   848 net.cpp:106] Creating Layer conv4_23_1x1_increase
I0620 03:59:14.090315   848 net.cpp:454] conv4_23_1x1_increase <- conv4_23_3x3
I0620 03:59:14.090327   848 net.cpp:411] conv4_23_1x1_increase -> conv4_23_1x1_increase
I0620 03:59:14.098448   848 net.cpp:150] Setting up conv4_23_1x1_increase
I0620 03:59:14.098475   848 net.cpp:157] Top shape: 1 1024 60 60 (3686400)
I0620 03:59:14.098481   848 net.cpp:165] Memory required for data: 3301104128
I0620 03:59:14.098489   848 layer_factory.hpp:77] Creating layer conv4_23_1x1_increase/bn
I0620 03:59:14.098497   848 net.cpp:106] Creating Layer conv4_23_1x1_increase/bn
I0620 03:59:14.098501   848 net.cpp:454] conv4_23_1x1_increase/bn <- conv4_23_1x1_increase
I0620 03:59:14.098505   848 net.cpp:397] conv4_23_1x1_increase/bn -> conv4_23_1x1_increase (in-place)
I0620 03:59:14.098704   848 net.cpp:150] Setting up conv4_23_1x1_increase/bn
I0620 03:59:14.098711   848 net.cpp:157] Top shape: 1 1024 60 60 (3686400)
I0620 03:59:14.098711   848 net.cpp:165] Memory required for data: 3315849728
I0620 03:59:14.098716   848 layer_factory.hpp:77] Creating layer conv4_23
I0620 03:59:14.098719   848 net.cpp:106] Creating Layer conv4_23
I0620 03:59:14.098722   848 net.cpp:454] conv4_23 <- conv4_22_conv4_22/relu_0_split_1
I0620 03:59:14.098724   848 net.cpp:454] conv4_23 <- conv4_23_1x1_increase
I0620 03:59:14.098728   848 net.cpp:411] conv4_23 -> conv4_23
I0620 03:59:14.098762   848 net.cpp:150] Setting up conv4_23
I0620 03:59:14.098765   848 net.cpp:157] Top shape: 1 1024 60 60 (3686400)
I0620 03:59:14.098767   848 net.cpp:165] Memory required for data: 3330595328
I0620 03:59:14.098769   848 layer_factory.hpp:77] Creating layer conv4_23/relu
I0620 03:59:14.098773   848 net.cpp:106] Creating Layer conv4_23/relu
I0620 03:59:14.098775   848 net.cpp:454] conv4_23/relu <- conv4_23
I0620 03:59:14.098778   848 net.cpp:397] conv4_23/relu -> conv4_23 (in-place)
I0620 03:59:14.098780   848 net.cpp:150] Setting up conv4_23/relu
I0620 03:59:14.098783   848 net.cpp:157] Top shape: 1 1024 60 60 (3686400)
I0620 03:59:14.098784   848 net.cpp:165] Memory required for data: 3345340928
I0620 03:59:14.098785   848 layer_factory.hpp:77] Creating layer conv4_23_conv4_23/relu_0_split
I0620 03:59:14.098788   848 net.cpp:106] Creating Layer conv4_23_conv4_23/relu_0_split
I0620 03:59:14.098790   848 net.cpp:454] conv4_23_conv4_23/relu_0_split <- conv4_23
I0620 03:59:14.098793   848 net.cpp:411] conv4_23_conv4_23/relu_0_split -> conv4_23_conv4_23/relu_0_split_0
I0620 03:59:14.098796   848 net.cpp:411] conv4_23_conv4_23/relu_0_split -> conv4_23_conv4_23/relu_0_split_1
I0620 03:59:14.098819   848 net.cpp:150] Setting up conv4_23_conv4_23/relu_0_split
I0620 03:59:14.098824   848 net.cpp:157] Top shape: 1 1024 60 60 (3686400)
I0620 03:59:14.098825   848 net.cpp:157] Top shape: 1 1024 60 60 (3686400)
I0620 03:59:14.098826   848 net.cpp:165] Memory required for data: 3374832128
I0620 03:59:14.098829   848 layer_factory.hpp:77] Creating layer conv5_1_1x1_reduce
I0620 03:59:14.098835   848 net.cpp:106] Creating Layer conv5_1_1x1_reduce
I0620 03:59:14.098839   848 net.cpp:454] conv5_1_1x1_reduce <- conv4_23_conv4_23/relu_0_split_0
I0620 03:59:14.098842   848 net.cpp:411] conv5_1_1x1_reduce -> conv5_1_1x1_reduce
I0620 03:59:14.111400   848 net.cpp:150] Setting up conv5_1_1x1_reduce
I0620 03:59:14.111412   848 net.cpp:157] Top shape: 1 512 60 60 (1843200)
I0620 03:59:14.111413   848 net.cpp:165] Memory required for data: 3382204928
I0620 03:59:14.111418   848 layer_factory.hpp:77] Creating layer conv5_1_1x1_reduce/bn
I0620 03:59:14.111423   848 net.cpp:106] Creating Layer conv5_1_1x1_reduce/bn
I0620 03:59:14.111425   848 net.cpp:454] conv5_1_1x1_reduce/bn <- conv5_1_1x1_reduce
I0620 03:59:14.111428   848 net.cpp:397] conv5_1_1x1_reduce/bn -> conv5_1_1x1_reduce (in-place)
I0620 03:59:14.111601   848 net.cpp:150] Setting up conv5_1_1x1_reduce/bn
I0620 03:59:14.111606   848 net.cpp:157] Top shape: 1 512 60 60 (1843200)
I0620 03:59:14.111608   848 net.cpp:165] Memory required for data: 3389577728
I0620 03:59:14.111613   848 layer_factory.hpp:77] Creating layer conv5_1_1x1_reduce/relu
I0620 03:59:14.111615   848 net.cpp:106] Creating Layer conv5_1_1x1_reduce/relu
I0620 03:59:14.111618   848 net.cpp:454] conv5_1_1x1_reduce/relu <- conv5_1_1x1_reduce
I0620 03:59:14.111623   848 net.cpp:397] conv5_1_1x1_reduce/relu -> conv5_1_1x1_reduce (in-place)
I0620 03:59:14.111629   848 net.cpp:150] Setting up conv5_1_1x1_reduce/relu
I0620 03:59:14.111634   848 net.cpp:157] Top shape: 1 512 60 60 (1843200)
I0620 03:59:14.111636   848 net.cpp:165] Memory required for data: 3396950528
I0620 03:59:14.111641   848 layer_factory.hpp:77] Creating layer conv5_1_3x3
I0620 03:59:14.111654   848 net.cpp:106] Creating Layer conv5_1_3x3
I0620 03:59:14.111659   848 net.cpp:454] conv5_1_3x3 <- conv5_1_1x1_reduce
I0620 03:59:14.111662   848 net.cpp:411] conv5_1_3x3 -> conv5_1_3x3
I0620 03:59:14.173910   848 net.cpp:150] Setting up conv5_1_3x3
I0620 03:59:14.173929   848 net.cpp:157] Top shape: 1 512 60 60 (1843200)
I0620 03:59:14.173933   848 net.cpp:165] Memory required for data: 3404323328
I0620 03:59:14.173938   848 layer_factory.hpp:77] Creating layer conv5_1_3x3/bn
I0620 03:59:14.173948   848 net.cpp:106] Creating Layer conv5_1_3x3/bn
I0620 03:59:14.173952   848 net.cpp:454] conv5_1_3x3/bn <- conv5_1_3x3
I0620 03:59:14.173956   848 net.cpp:397] conv5_1_3x3/bn -> conv5_1_3x3 (in-place)
I0620 03:59:14.174162   848 net.cpp:150] Setting up conv5_1_3x3/bn
I0620 03:59:14.174168   848 net.cpp:157] Top shape: 1 512 60 60 (1843200)
I0620 03:59:14.174170   848 net.cpp:165] Memory required for data: 3411696128
I0620 03:59:14.174175   848 layer_factory.hpp:77] Creating layer conv5_1_3x3/relu
I0620 03:59:14.174180   848 net.cpp:106] Creating Layer conv5_1_3x3/relu
I0620 03:59:14.174182   848 net.cpp:454] conv5_1_3x3/relu <- conv5_1_3x3
I0620 03:59:14.174185   848 net.cpp:397] conv5_1_3x3/relu -> conv5_1_3x3 (in-place)
I0620 03:59:14.174188   848 net.cpp:150] Setting up conv5_1_3x3/relu
I0620 03:59:14.174191   848 net.cpp:157] Top shape: 1 512 60 60 (1843200)
I0620 03:59:14.174192   848 net.cpp:165] Memory required for data: 3419068928
I0620 03:59:14.174195   848 layer_factory.hpp:77] Creating layer conv5_1_1x1_increase
I0620 03:59:14.174201   848 net.cpp:106] Creating Layer conv5_1_1x1_increase
I0620 03:59:14.174203   848 net.cpp:454] conv5_1_1x1_increase <- conv5_1_3x3
I0620 03:59:14.174206   848 net.cpp:411] conv5_1_1x1_increase -> conv5_1_1x1_increase
I0620 03:59:14.203879   848 net.cpp:150] Setting up conv5_1_1x1_increase
I0620 03:59:14.204025   848 net.cpp:157] Top shape: 1 2048 60 60 (7372800)
I0620 03:59:14.204041   848 net.cpp:165] Memory required for data: 3448560128
I0620 03:59:14.204061   848 layer_factory.hpp:77] Creating layer conv5_1_1x1_increase/bn
I0620 03:59:14.204095   848 net.cpp:106] Creating Layer conv5_1_1x1_increase/bn
I0620 03:59:14.204115   848 net.cpp:454] conv5_1_1x1_increase/bn <- conv5_1_1x1_increase
I0620 03:59:14.204131   848 net.cpp:397] conv5_1_1x1_increase/bn -> conv5_1_1x1_increase (in-place)
I0620 03:59:14.204429   848 net.cpp:150] Setting up conv5_1_1x1_increase/bn
I0620 03:59:14.204444   848 net.cpp:157] Top shape: 1 2048 60 60 (7372800)
I0620 03:59:14.204454   848 net.cpp:165] Memory required for data: 3478051328
I0620 03:59:14.204468   848 layer_factory.hpp:77] Creating layer conv5_1_1x1_proj
I0620 03:59:14.204486   848 net.cpp:106] Creating Layer conv5_1_1x1_proj
I0620 03:59:14.204499   848 net.cpp:454] conv5_1_1x1_proj <- conv4_23_conv4_23/relu_0_split_1
I0620 03:59:14.204511   848 net.cpp:411] conv5_1_1x1_proj -> conv5_1_1x1_proj
I0620 03:59:14.263622   848 net.cpp:150] Setting up conv5_1_1x1_proj
I0620 03:59:14.263793   848 net.cpp:157] Top shape: 1 2048 60 60 (7372800)
I0620 03:59:14.263811   848 net.cpp:165] Memory required for data: 3507542528
I0620 03:59:14.263834   848 layer_factory.hpp:77] Creating layer conv5_1_1x1_proj/bn
I0620 03:59:14.263864   848 net.cpp:106] Creating Layer conv5_1_1x1_proj/bn
I0620 03:59:14.263883   848 net.cpp:454] conv5_1_1x1_proj/bn <- conv5_1_1x1_proj
I0620 03:59:14.263900   848 net.cpp:397] conv5_1_1x1_proj/bn -> conv5_1_1x1_proj (in-place)
I0620 03:59:14.264235   848 net.cpp:150] Setting up conv5_1_1x1_proj/bn
I0620 03:59:14.264250   848 net.cpp:157] Top shape: 1 2048 60 60 (7372800)
I0620 03:59:14.264258   848 net.cpp:165] Memory required for data: 3537033728
I0620 03:59:14.264271   848 layer_factory.hpp:77] Creating layer conv5_1
I0620 03:59:14.264287   848 net.cpp:106] Creating Layer conv5_1
I0620 03:59:14.264297   848 net.cpp:454] conv5_1 <- conv5_1_1x1_proj
I0620 03:59:14.264307   848 net.cpp:454] conv5_1 <- conv5_1_1x1_increase
I0620 03:59:14.264320   848 net.cpp:411] conv5_1 -> conv5_1
I0620 03:59:14.264358   848 net.cpp:150] Setting up conv5_1
I0620 03:59:14.264371   848 net.cpp:157] Top shape: 1 2048 60 60 (7372800)
I0620 03:59:14.264379   848 net.cpp:165] Memory required for data: 3566524928
I0620 03:59:14.264389   848 layer_factory.hpp:77] Creating layer conv5_1/relu
I0620 03:59:14.264403   848 net.cpp:106] Creating Layer conv5_1/relu
I0620 03:59:14.264413   848 net.cpp:454] conv5_1/relu <- conv5_1
I0620 03:59:14.264422   848 net.cpp:397] conv5_1/relu -> conv5_1 (in-place)
I0620 03:59:14.264434   848 net.cpp:150] Setting up conv5_1/relu
I0620 03:59:14.264444   848 net.cpp:157] Top shape: 1 2048 60 60 (7372800)
I0620 03:59:14.264452   848 net.cpp:165] Memory required for data: 3596016128
I0620 03:59:14.264461   848 layer_factory.hpp:77] Creating layer conv5_1_conv5_1/relu_0_split
I0620 03:59:14.264474   848 net.cpp:106] Creating Layer conv5_1_conv5_1/relu_0_split
I0620 03:59:14.264483   848 net.cpp:454] conv5_1_conv5_1/relu_0_split <- conv5_1
I0620 03:59:14.264495   848 net.cpp:411] conv5_1_conv5_1/relu_0_split -> conv5_1_conv5_1/relu_0_split_0
I0620 03:59:14.264508   848 net.cpp:411] conv5_1_conv5_1/relu_0_split -> conv5_1_conv5_1/relu_0_split_1
I0620 03:59:14.264549   848 net.cpp:150] Setting up conv5_1_conv5_1/relu_0_split
I0620 03:59:14.264565   848 net.cpp:157] Top shape: 1 2048 60 60 (7372800)
I0620 03:59:14.264575   848 net.cpp:157] Top shape: 1 2048 60 60 (7372800)
I0620 03:59:14.264582   848 net.cpp:165] Memory required for data: 3654998528
I0620 03:59:14.264590   848 layer_factory.hpp:77] Creating layer conv5_2_1x1_reduce
I0620 03:59:14.264608   848 net.cpp:106] Creating Layer conv5_2_1x1_reduce
I0620 03:59:14.264618   848 net.cpp:454] conv5_2_1x1_reduce <- conv5_1_conv5_1/relu_0_split_0
I0620 03:59:14.264629   848 net.cpp:411] conv5_2_1x1_reduce -> conv5_2_1x1_reduce
I0620 03:59:14.292409   848 net.cpp:150] Setting up conv5_2_1x1_reduce
I0620 03:59:14.292428   848 net.cpp:157] Top shape: 1 512 60 60 (1843200)
I0620 03:59:14.292431   848 net.cpp:165] Memory required for data: 3662371328
I0620 03:59:14.292438   848 layer_factory.hpp:77] Creating layer conv5_2_1x1_reduce/bn
I0620 03:59:14.292450   848 net.cpp:106] Creating Layer conv5_2_1x1_reduce/bn
I0620 03:59:14.292454   848 net.cpp:454] conv5_2_1x1_reduce/bn <- conv5_2_1x1_reduce
I0620 03:59:14.292457   848 net.cpp:397] conv5_2_1x1_reduce/bn -> conv5_2_1x1_reduce (in-place)
I0620 03:59:14.292659   848 net.cpp:150] Setting up conv5_2_1x1_reduce/bn
I0620 03:59:14.292665   848 net.cpp:157] Top shape: 1 512 60 60 (1843200)
I0620 03:59:14.292666   848 net.cpp:165] Memory required for data: 3669744128
I0620 03:59:14.292670   848 layer_factory.hpp:77] Creating layer conv5_2_1x1_reduce/relu
I0620 03:59:14.292675   848 net.cpp:106] Creating Layer conv5_2_1x1_reduce/relu
I0620 03:59:14.292677   848 net.cpp:454] conv5_2_1x1_reduce/relu <- conv5_2_1x1_reduce
I0620 03:59:14.292680   848 net.cpp:397] conv5_2_1x1_reduce/relu -> conv5_2_1x1_reduce (in-place)
I0620 03:59:14.292685   848 net.cpp:150] Setting up conv5_2_1x1_reduce/relu
I0620 03:59:14.292688   848 net.cpp:157] Top shape: 1 512 60 60 (1843200)
I0620 03:59:14.292690   848 net.cpp:165] Memory required for data: 3677116928
I0620 03:59:14.292692   848 layer_factory.hpp:77] Creating layer conv5_2_3x3
I0620 03:59:14.292699   848 net.cpp:106] Creating Layer conv5_2_3x3
I0620 03:59:14.292701   848 net.cpp:454] conv5_2_3x3 <- conv5_2_1x1_reduce
I0620 03:59:14.292706   848 net.cpp:411] conv5_2_3x3 -> conv5_2_3x3
I0620 03:59:14.354823   848 net.cpp:150] Setting up conv5_2_3x3
I0620 03:59:14.354899   848 net.cpp:157] Top shape: 1 512 60 60 (1843200)
I0620 03:59:14.354919   848 net.cpp:165] Memory required for data: 3684489728
I0620 03:59:14.354933   848 layer_factory.hpp:77] Creating layer conv5_2_3x3/bn
I0620 03:59:14.354962   848 net.cpp:106] Creating Layer conv5_2_3x3/bn
I0620 03:59:14.354976   848 net.cpp:454] conv5_2_3x3/bn <- conv5_2_3x3
I0620 03:59:14.354990   848 net.cpp:397] conv5_2_3x3/bn -> conv5_2_3x3 (in-place)
I0620 03:59:14.355248   848 net.cpp:150] Setting up conv5_2_3x3/bn
I0620 03:59:14.355254   848 net.cpp:157] Top shape: 1 512 60 60 (1843200)
I0620 03:59:14.355271   848 net.cpp:165] Memory required for data: 3691862528
I0620 03:59:14.355278   848 layer_factory.hpp:77] Creating layer conv5_2_3x3/relu
I0620 03:59:14.355283   848 net.cpp:106] Creating Layer conv5_2_3x3/relu
I0620 03:59:14.355286   848 net.cpp:454] conv5_2_3x3/relu <- conv5_2_3x3
I0620 03:59:14.355289   848 net.cpp:397] conv5_2_3x3/relu -> conv5_2_3x3 (in-place)
I0620 03:59:14.355296   848 net.cpp:150] Setting up conv5_2_3x3/relu
I0620 03:59:14.355300   848 net.cpp:157] Top shape: 1 512 60 60 (1843200)
I0620 03:59:14.355304   848 net.cpp:165] Memory required for data: 3699235328
I0620 03:59:14.355306   848 layer_factory.hpp:77] Creating layer conv5_2_1x1_increase
I0620 03:59:14.355314   848 net.cpp:106] Creating Layer conv5_2_1x1_increase
I0620 03:59:14.355319   848 net.cpp:454] conv5_2_1x1_increase <- conv5_2_3x3
I0620 03:59:14.355322   848 net.cpp:411] conv5_2_1x1_increase -> conv5_2_1x1_increase
I0620 03:59:14.382483   848 net.cpp:150] Setting up conv5_2_1x1_increase
I0620 03:59:14.382536   848 net.cpp:157] Top shape: 1 2048 60 60 (7372800)
I0620 03:59:14.382540   848 net.cpp:165] Memory required for data: 3728726528
I0620 03:59:14.382553   848 layer_factory.hpp:77] Creating layer conv5_2_1x1_increase/bn
I0620 03:59:14.382594   848 net.cpp:106] Creating Layer conv5_2_1x1_increase/bn
I0620 03:59:14.382608   848 net.cpp:454] conv5_2_1x1_increase/bn <- conv5_2_1x1_increase
I0620 03:59:14.382621   848 net.cpp:397] conv5_2_1x1_increase/bn -> conv5_2_1x1_increase (in-place)
I0620 03:59:14.382871   848 net.cpp:150] Setting up conv5_2_1x1_increase/bn
I0620 03:59:14.382880   848 net.cpp:157] Top shape: 1 2048 60 60 (7372800)
I0620 03:59:14.382884   848 net.cpp:165] Memory required for data: 3758217728
I0620 03:59:14.382994   848 layer_factory.hpp:77] Creating layer conv5_2
I0620 03:59:14.383007   848 net.cpp:106] Creating Layer conv5_2
I0620 03:59:14.383010   848 net.cpp:454] conv5_2 <- conv5_1_conv5_1/relu_0_split_1
I0620 03:59:14.383015   848 net.cpp:454] conv5_2 <- conv5_2_1x1_increase
I0620 03:59:14.383020   848 net.cpp:411] conv5_2 -> conv5_2
I0620 03:59:14.383050   848 net.cpp:150] Setting up conv5_2
I0620 03:59:14.383055   848 net.cpp:157] Top shape: 1 2048 60 60 (7372800)
I0620 03:59:14.383059   848 net.cpp:165] Memory required for data: 3787708928
I0620 03:59:14.383061   848 layer_factory.hpp:77] Creating layer conv5_2/relu
I0620 03:59:14.383069   848 net.cpp:106] Creating Layer conv5_2/relu
I0620 03:59:14.383072   848 net.cpp:454] conv5_2/relu <- conv5_2
I0620 03:59:14.383076   848 net.cpp:397] conv5_2/relu -> conv5_2 (in-place)
I0620 03:59:14.383082   848 net.cpp:150] Setting up conv5_2/relu
I0620 03:59:14.383086   848 net.cpp:157] Top shape: 1 2048 60 60 (7372800)
I0620 03:59:14.383088   848 net.cpp:165] Memory required for data: 3817200128
I0620 03:59:14.383091   848 layer_factory.hpp:77] Creating layer conv5_2_conv5_2/relu_0_split
I0620 03:59:14.383098   848 net.cpp:106] Creating Layer conv5_2_conv5_2/relu_0_split
I0620 03:59:14.383101   848 net.cpp:454] conv5_2_conv5_2/relu_0_split <- conv5_2
I0620 03:59:14.383106   848 net.cpp:411] conv5_2_conv5_2/relu_0_split -> conv5_2_conv5_2/relu_0_split_0
I0620 03:59:14.383112   848 net.cpp:411] conv5_2_conv5_2/relu_0_split -> conv5_2_conv5_2/relu_0_split_1
I0620 03:59:14.383150   848 net.cpp:150] Setting up conv5_2_conv5_2/relu_0_split
I0620 03:59:14.383155   848 net.cpp:157] Top shape: 1 2048 60 60 (7372800)
I0620 03:59:14.383158   848 net.cpp:157] Top shape: 1 2048 60 60 (7372800)
I0620 03:59:14.383162   848 net.cpp:165] Memory required for data: 3876182528
I0620 03:59:14.383164   848 layer_factory.hpp:77] Creating layer conv5_3_1x1_reduce
I0620 03:59:14.383179   848 net.cpp:106] Creating Layer conv5_3_1x1_reduce
I0620 03:59:14.383184   848 net.cpp:454] conv5_3_1x1_reduce <- conv5_2_conv5_2/relu_0_split_0
I0620 03:59:14.383190   848 net.cpp:411] conv5_3_1x1_reduce -> conv5_3_1x1_reduce
I0620 03:59:14.408260   848 net.cpp:150] Setting up conv5_3_1x1_reduce
I0620 03:59:14.408278   848 net.cpp:157] Top shape: 1 512 60 60 (1843200)
I0620 03:59:14.408282   848 net.cpp:165] Memory required for data: 3883555328
I0620 03:59:14.408287   848 layer_factory.hpp:77] Creating layer conv5_3_1x1_reduce/bn
I0620 03:59:14.408295   848 net.cpp:106] Creating Layer conv5_3_1x1_reduce/bn
I0620 03:59:14.408300   848 net.cpp:454] conv5_3_1x1_reduce/bn <- conv5_3_1x1_reduce
I0620 03:59:14.408321   848 net.cpp:397] conv5_3_1x1_reduce/bn -> conv5_3_1x1_reduce (in-place)
I0620 03:59:14.408551   848 net.cpp:150] Setting up conv5_3_1x1_reduce/bn
I0620 03:59:14.408557   848 net.cpp:157] Top shape: 1 512 60 60 (1843200)
I0620 03:59:14.408574   848 net.cpp:165] Memory required for data: 3890928128
I0620 03:59:14.408579   848 layer_factory.hpp:77] Creating layer conv5_3_1x1_reduce/relu
I0620 03:59:14.408584   848 net.cpp:106] Creating Layer conv5_3_1x1_reduce/relu
I0620 03:59:14.408589   848 net.cpp:454] conv5_3_1x1_reduce/relu <- conv5_3_1x1_reduce
I0620 03:59:14.408592   848 net.cpp:397] conv5_3_1x1_reduce/relu -> conv5_3_1x1_reduce (in-place)
I0620 03:59:14.408598   848 net.cpp:150] Setting up conv5_3_1x1_reduce/relu
I0620 03:59:14.408601   848 net.cpp:157] Top shape: 1 512 60 60 (1843200)
I0620 03:59:14.408603   848 net.cpp:165] Memory required for data: 3898300928
I0620 03:59:14.408607   848 layer_factory.hpp:77] Creating layer conv5_3_3x3
I0620 03:59:14.408613   848 net.cpp:106] Creating Layer conv5_3_3x3
I0620 03:59:14.408617   848 net.cpp:454] conv5_3_3x3 <- conv5_3_1x1_reduce
I0620 03:59:14.408622   848 net.cpp:411] conv5_3_3x3 -> conv5_3_3x3
I0620 03:59:14.466218   848 net.cpp:150] Setting up conv5_3_3x3
I0620 03:59:14.466251   848 net.cpp:157] Top shape: 1 512 60 60 (1843200)
I0620 03:59:14.466255   848 net.cpp:165] Memory required for data: 3905673728
I0620 03:59:14.466262   848 layer_factory.hpp:77] Creating layer conv5_3_3x3/bn
I0620 03:59:14.466279   848 net.cpp:106] Creating Layer conv5_3_3x3/bn
I0620 03:59:14.466285   848 net.cpp:454] conv5_3_3x3/bn <- conv5_3_3x3
I0620 03:59:14.466294   848 net.cpp:397] conv5_3_3x3/bn -> conv5_3_3x3 (in-place)
I0620 03:59:14.466538   848 net.cpp:150] Setting up conv5_3_3x3/bn
I0620 03:59:14.466560   848 net.cpp:157] Top shape: 1 512 60 60 (1843200)
I0620 03:59:14.466569   848 net.cpp:165] Memory required for data: 3913046528
I0620 03:59:14.466581   848 layer_factory.hpp:77] Creating layer conv5_3_3x3/relu
I0620 03:59:14.466593   848 net.cpp:106] Creating Layer conv5_3_3x3/relu
I0620 03:59:14.466600   848 net.cpp:454] conv5_3_3x3/relu <- conv5_3_3x3
I0620 03:59:14.466614   848 net.cpp:397] conv5_3_3x3/relu -> conv5_3_3x3 (in-place)
I0620 03:59:14.466625   848 net.cpp:150] Setting up conv5_3_3x3/relu
I0620 03:59:14.466634   848 net.cpp:157] Top shape: 1 512 60 60 (1843200)
I0620 03:59:14.466642   848 net.cpp:165] Memory required for data: 3920419328
I0620 03:59:14.466650   848 layer_factory.hpp:77] Creating layer conv5_3_1x1_increase
I0620 03:59:14.466662   848 net.cpp:106] Creating Layer conv5_3_1x1_increase
I0620 03:59:14.466670   848 net.cpp:454] conv5_3_1x1_increase <- conv5_3_3x3
I0620 03:59:14.466687   848 net.cpp:411] conv5_3_1x1_increase -> conv5_3_1x1_increase
I0620 03:59:14.496126   848 net.cpp:150] Setting up conv5_3_1x1_increase
I0620 03:59:14.496145   848 net.cpp:157] Top shape: 1 2048 60 60 (7372800)
I0620 03:59:14.496146   848 net.cpp:165] Memory required for data: 3949910528
I0620 03:59:14.496152   848 layer_factory.hpp:77] Creating layer conv5_3_1x1_increase/bn
I0620 03:59:14.496165   848 net.cpp:106] Creating Layer conv5_3_1x1_increase/bn
I0620 03:59:14.496170   848 net.cpp:454] conv5_3_1x1_increase/bn <- conv5_3_1x1_increase
I0620 03:59:14.496178   848 net.cpp:397] conv5_3_1x1_increase/bn -> conv5_3_1x1_increase (in-place)
I0620 03:59:14.496383   848 net.cpp:150] Setting up conv5_3_1x1_increase/bn
I0620 03:59:14.496388   848 net.cpp:157] Top shape: 1 2048 60 60 (7372800)
I0620 03:59:14.496390   848 net.cpp:165] Memory required for data: 3979401728
I0620 03:59:14.496394   848 layer_factory.hpp:77] Creating layer conv5_3
I0620 03:59:14.496400   848 net.cpp:106] Creating Layer conv5_3
I0620 03:59:14.496402   848 net.cpp:454] conv5_3 <- conv5_2_conv5_2/relu_0_split_1
I0620 03:59:14.496405   848 net.cpp:454] conv5_3 <- conv5_3_1x1_increase
I0620 03:59:14.496409   848 net.cpp:411] conv5_3 -> conv5_3
I0620 03:59:14.496428   848 net.cpp:150] Setting up conv5_3
I0620 03:59:14.496430   848 net.cpp:157] Top shape: 1 2048 60 60 (7372800)
I0620 03:59:14.496433   848 net.cpp:165] Memory required for data: 4008892928
I0620 03:59:14.496433   848 layer_factory.hpp:77] Creating layer conv5_3/relu
I0620 03:59:14.496436   848 net.cpp:106] Creating Layer conv5_3/relu
I0620 03:59:14.496438   848 net.cpp:454] conv5_3/relu <- conv5_3
I0620 03:59:14.496440   848 net.cpp:397] conv5_3/relu -> conv5_3 (in-place)
I0620 03:59:14.496443   848 net.cpp:150] Setting up conv5_3/relu
I0620 03:59:14.496445   848 net.cpp:157] Top shape: 1 2048 60 60 (7372800)
I0620 03:59:14.496448   848 net.cpp:165] Memory required for data: 4038384128
I0620 03:59:14.496449   848 layer_factory.hpp:77] Creating layer conv5_3_conv5_3/relu_0_split
I0620 03:59:14.496454   848 net.cpp:106] Creating Layer conv5_3_conv5_3/relu_0_split
I0620 03:59:14.496455   848 net.cpp:454] conv5_3_conv5_3/relu_0_split <- conv5_3
I0620 03:59:14.496459   848 net.cpp:411] conv5_3_conv5_3/relu_0_split -> conv5_3_conv5_3/relu_0_split_0
I0620 03:59:14.496460   848 net.cpp:411] conv5_3_conv5_3/relu_0_split -> conv5_3_conv5_3/relu_0_split_1
I0620 03:59:14.496464   848 net.cpp:411] conv5_3_conv5_3/relu_0_split -> conv5_3_conv5_3/relu_0_split_2
I0620 03:59:14.496469   848 net.cpp:411] conv5_3_conv5_3/relu_0_split -> conv5_3_conv5_3/relu_0_split_3
I0620 03:59:14.496472   848 net.cpp:411] conv5_3_conv5_3/relu_0_split -> conv5_3_conv5_3/relu_0_split_4
I0620 03:59:14.496526   848 net.cpp:150] Setting up conv5_3_conv5_3/relu_0_split
I0620 03:59:14.496531   848 net.cpp:157] Top shape: 1 2048 60 60 (7372800)
I0620 03:59:14.496534   848 net.cpp:157] Top shape: 1 2048 60 60 (7372800)
I0620 03:59:14.496537   848 net.cpp:157] Top shape: 1 2048 60 60 (7372800)
I0620 03:59:14.496541   848 net.cpp:157] Top shape: 1 2048 60 60 (7372800)
I0620 03:59:14.496543   848 net.cpp:157] Top shape: 1 2048 60 60 (7372800)
I0620 03:59:14.496546   848 net.cpp:165] Memory required for data: 4185840128
I0620 03:59:14.496548   848 layer_factory.hpp:77] Creating layer conv5_3_pool1
I0620 03:59:14.496552   848 net.cpp:106] Creating Layer conv5_3_pool1
I0620 03:59:14.496554   848 net.cpp:454] conv5_3_pool1 <- conv5_3_conv5_3/relu_0_split_0
I0620 03:59:14.496558   848 net.cpp:411] conv5_3_pool1 -> conv5_3_pool1
I0620 03:59:14.496574   848 net.cpp:150] Setting up conv5_3_pool1
I0620 03:59:14.496577   848 net.cpp:157] Top shape: 1 2048 1 1 (2048)
I0620 03:59:14.496579   848 net.cpp:165] Memory required for data: 4185848320
I0620 03:59:14.496582   848 layer_factory.hpp:77] Creating layer conv5_3_pool1_conv
I0620 03:59:14.496589   848 net.cpp:106] Creating Layer conv5_3_pool1_conv
I0620 03:59:14.496592   848 net.cpp:454] conv5_3_pool1_conv <- conv5_3_pool1
I0620 03:59:14.496594   848 net.cpp:411] conv5_3_pool1_conv -> conv5_3_pool1_conv
I0620 03:59:14.519832   848 net.cpp:150] Setting up conv5_3_pool1_conv
I0620 03:59:14.519852   848 net.cpp:157] Top shape: 1 512 1 1 (512)
I0620 03:59:14.519855   848 net.cpp:165] Memory required for data: 4185850368
I0620 03:59:14.519860   848 layer_factory.hpp:77] Creating layer conv5_3_pool1_conv/bn
I0620 03:59:14.519867   848 net.cpp:106] Creating Layer conv5_3_pool1_conv/bn
I0620 03:59:14.519871   848 net.cpp:454] conv5_3_pool1_conv/bn <- conv5_3_pool1_conv
I0620 03:59:14.519876   848 net.cpp:397] conv5_3_pool1_conv/bn -> conv5_3_pool1_conv (in-place)
I0620 03:59:14.520100   848 net.cpp:150] Setting up conv5_3_pool1_conv/bn
I0620 03:59:14.520107   848 net.cpp:157] Top shape: 1 512 1 1 (512)
I0620 03:59:14.520108   848 net.cpp:165] Memory required for data: 4185852416
I0620 03:59:14.520113   848 layer_factory.hpp:77] Creating layer conv5_3_pool1_conv/relu
I0620 03:59:14.520122   848 net.cpp:106] Creating Layer conv5_3_pool1_conv/relu
I0620 03:59:14.520123   848 net.cpp:454] conv5_3_pool1_conv/relu <- conv5_3_pool1_conv
I0620 03:59:14.520126   848 net.cpp:397] conv5_3_pool1_conv/relu -> conv5_3_pool1_conv (in-place)
I0620 03:59:14.520129   848 net.cpp:150] Setting up conv5_3_pool1_conv/relu
I0620 03:59:14.520133   848 net.cpp:157] Top shape: 1 512 1 1 (512)
I0620 03:59:14.520133   848 net.cpp:165] Memory required for data: 4185854464
I0620 03:59:14.520136   848 layer_factory.hpp:77] Creating layer conv5_3_pool1_interp
I0620 03:59:14.520151   848 net.cpp:106] Creating Layer conv5_3_pool1_interp
I0620 03:59:14.520153   848 net.cpp:454] conv5_3_pool1_interp <- conv5_3_pool1_conv
I0620 03:59:14.520157   848 net.cpp:411] conv5_3_pool1_interp -> conv5_3_pool1_interp
I0620 03:59:14.520175   848 net.cpp:150] Setting up conv5_3_pool1_interp
I0620 03:59:14.520179   848 net.cpp:157] Top shape: 1 512 60 60 (1843200)
I0620 03:59:14.520180   848 net.cpp:165] Memory required for data: 4193227264
I0620 03:59:14.520182   848 layer_factory.hpp:77] Creating layer conv5_3_pool2
I0620 03:59:14.520186   848 net.cpp:106] Creating Layer conv5_3_pool2
I0620 03:59:14.520190   848 net.cpp:454] conv5_3_pool2 <- conv5_3_conv5_3/relu_0_split_1
I0620 03:59:14.520193   848 net.cpp:411] conv5_3_pool2 -> conv5_3_pool2
I0620 03:59:14.520208   848 net.cpp:150] Setting up conv5_3_pool2
I0620 03:59:14.520211   848 net.cpp:157] Top shape: 1 2048 2 2 (8192)
I0620 03:59:14.520213   848 net.cpp:165] Memory required for data: 4193260032
I0620 03:59:14.520215   848 layer_factory.hpp:77] Creating layer conv5_3_pool2_conv
I0620 03:59:14.520227   848 net.cpp:106] Creating Layer conv5_3_pool2_conv
I0620 03:59:14.520229   848 net.cpp:454] conv5_3_pool2_conv <- conv5_3_pool2
I0620 03:59:14.520232   848 net.cpp:411] conv5_3_pool2_conv -> conv5_3_pool2_conv
I0620 03:59:14.548732   848 net.cpp:150] Setting up conv5_3_pool2_conv
I0620 03:59:14.548750   848 net.cpp:157] Top shape: 1 512 2 2 (2048)
I0620 03:59:14.548753   848 net.cpp:165] Memory required for data: 4193268224
I0620 03:59:14.548758   848 layer_factory.hpp:77] Creating layer conv5_3_pool2_conv/bn
I0620 03:59:14.548766   848 net.cpp:106] Creating Layer conv5_3_pool2_conv/bn
I0620 03:59:14.548770   848 net.cpp:454] conv5_3_pool2_conv/bn <- conv5_3_pool2_conv
I0620 03:59:14.548774   848 net.cpp:397] conv5_3_pool2_conv/bn -> conv5_3_pool2_conv (in-place)
I0620 03:59:14.548961   848 net.cpp:150] Setting up conv5_3_pool2_conv/bn
I0620 03:59:14.548969   848 net.cpp:157] Top shape: 1 512 2 2 (2048)
I0620 03:59:14.548970   848 net.cpp:165] Memory required for data: 4193276416
I0620 03:59:14.548974   848 layer_factory.hpp:77] Creating layer conv5_3_pool2_conv/relu
I0620 03:59:14.548979   848 net.cpp:106] Creating Layer conv5_3_pool2_conv/relu
I0620 03:59:14.548980   848 net.cpp:454] conv5_3_pool2_conv/relu <- conv5_3_pool2_conv
I0620 03:59:14.548984   848 net.cpp:397] conv5_3_pool2_conv/relu -> conv5_3_pool2_conv (in-place)
I0620 03:59:14.548986   848 net.cpp:150] Setting up conv5_3_pool2_conv/relu
I0620 03:59:14.548988   848 net.cpp:157] Top shape: 1 512 2 2 (2048)
I0620 03:59:14.548990   848 net.cpp:165] Memory required for data: 4193284608
I0620 03:59:14.548991   848 layer_factory.hpp:77] Creating layer conv5_3_pool2_interp
I0620 03:59:14.548995   848 net.cpp:106] Creating Layer conv5_3_pool2_interp
I0620 03:59:14.548997   848 net.cpp:454] conv5_3_pool2_interp <- conv5_3_pool2_conv
I0620 03:59:14.549001   848 net.cpp:411] conv5_3_pool2_interp -> conv5_3_pool2_interp
I0620 03:59:14.549023   848 net.cpp:150] Setting up conv5_3_pool2_interp
I0620 03:59:14.549029   848 net.cpp:157] Top shape: 1 512 60 60 (1843200)
I0620 03:59:14.549031   848 net.cpp:165] Memory required for data: 4200657408
I0620 03:59:14.549034   848 layer_factory.hpp:77] Creating layer conv5_3_pool3
I0620 03:59:14.549037   848 net.cpp:106] Creating Layer conv5_3_pool3
I0620 03:59:14.549039   848 net.cpp:454] conv5_3_pool3 <- conv5_3_conv5_3/relu_0_split_2
I0620 03:59:14.549044   848 net.cpp:411] conv5_3_pool3 -> conv5_3_pool3
I0620 03:59:14.549059   848 net.cpp:150] Setting up conv5_3_pool3
I0620 03:59:14.549062   848 net.cpp:157] Top shape: 1 2048 3 3 (18432)
I0620 03:59:14.549064   848 net.cpp:165] Memory required for data: 4200731136
I0620 03:59:14.549067   848 layer_factory.hpp:77] Creating layer conv5_3_pool3_conv
I0620 03:59:14.549072   848 net.cpp:106] Creating Layer conv5_3_pool3_conv
I0620 03:59:14.549074   848 net.cpp:454] conv5_3_pool3_conv <- conv5_3_pool3
I0620 03:59:14.549082   848 net.cpp:411] conv5_3_pool3_conv -> conv5_3_pool3_conv
I0620 03:59:14.572520   848 net.cpp:150] Setting up conv5_3_pool3_conv
I0620 03:59:14.572540   848 net.cpp:157] Top shape: 1 512 3 3 (4608)
I0620 03:59:14.572543   848 net.cpp:165] Memory required for data: 4200749568
I0620 03:59:14.572548   848 layer_factory.hpp:77] Creating layer conv5_3_pool3_conv/bn
I0620 03:59:14.572556   848 net.cpp:106] Creating Layer conv5_3_pool3_conv/bn
I0620 03:59:14.572559   848 net.cpp:454] conv5_3_pool3_conv/bn <- conv5_3_pool3_conv
I0620 03:59:14.572566   848 net.cpp:397] conv5_3_pool3_conv/bn -> conv5_3_pool3_conv (in-place)
I0620 03:59:14.572759   848 net.cpp:150] Setting up conv5_3_pool3_conv/bn
I0620 03:59:14.572764   848 net.cpp:157] Top shape: 1 512 3 3 (4608)
I0620 03:59:14.572767   848 net.cpp:165] Memory required for data: 4200768000
I0620 03:59:14.572770   848 layer_factory.hpp:77] Creating layer conv5_3_pool3_conv/relu
I0620 03:59:14.572773   848 net.cpp:106] Creating Layer conv5_3_pool3_conv/relu
I0620 03:59:14.572775   848 net.cpp:454] conv5_3_pool3_conv/relu <- conv5_3_pool3_conv
I0620 03:59:14.572779   848 net.cpp:397] conv5_3_pool3_conv/relu -> conv5_3_pool3_conv (in-place)
I0620 03:59:14.572782   848 net.cpp:150] Setting up conv5_3_pool3_conv/relu
I0620 03:59:14.572784   848 net.cpp:157] Top shape: 1 512 3 3 (4608)
I0620 03:59:14.572787   848 net.cpp:165] Memory required for data: 4200786432
I0620 03:59:14.572788   848 layer_factory.hpp:77] Creating layer conv5_3_pool3_interp
I0620 03:59:14.572791   848 net.cpp:106] Creating Layer conv5_3_pool3_interp
I0620 03:59:14.572793   848 net.cpp:454] conv5_3_pool3_interp <- conv5_3_pool3_conv
I0620 03:59:14.572795   848 net.cpp:411] conv5_3_pool3_interp -> conv5_3_pool3_interp
I0620 03:59:14.572814   848 net.cpp:150] Setting up conv5_3_pool3_interp
I0620 03:59:14.572820   848 net.cpp:157] Top shape: 1 512 60 60 (1843200)
I0620 03:59:14.572824   848 net.cpp:165] Memory required for data: 4208159232
I0620 03:59:14.572825   848 layer_factory.hpp:77] Creating layer conv5_3_pool6
I0620 03:59:14.572830   848 net.cpp:106] Creating Layer conv5_3_pool6
I0620 03:59:14.572832   848 net.cpp:454] conv5_3_pool6 <- conv5_3_conv5_3/relu_0_split_3
I0620 03:59:14.572836   848 net.cpp:411] conv5_3_pool6 -> conv5_3_pool6
I0620 03:59:14.572852   848 net.cpp:150] Setting up conv5_3_pool6
I0620 03:59:14.572854   848 net.cpp:157] Top shape: 1 2048 6 6 (73728)
I0620 03:59:14.572856   848 net.cpp:165] Memory required for data: 4208454144
I0620 03:59:14.572857   848 layer_factory.hpp:77] Creating layer conv5_3_pool6_conv
I0620 03:59:14.572865   848 net.cpp:106] Creating Layer conv5_3_pool6_conv
I0620 03:59:14.572867   848 net.cpp:454] conv5_3_pool6_conv <- conv5_3_pool6
I0620 03:59:14.572871   848 net.cpp:411] conv5_3_pool6_conv -> conv5_3_pool6_conv
I0620 03:59:14.599982   848 net.cpp:150] Setting up conv5_3_pool6_conv
I0620 03:59:14.600000   848 net.cpp:157] Top shape: 1 512 6 6 (18432)
I0620 03:59:14.600003   848 net.cpp:165] Memory required for data: 4208527872
I0620 03:59:14.600008   848 layer_factory.hpp:77] Creating layer conv5_3_pool6_conv/bn
I0620 03:59:14.600028   848 net.cpp:106] Creating Layer conv5_3_pool6_conv/bn
I0620 03:59:14.600034   848 net.cpp:454] conv5_3_pool6_conv/bn <- conv5_3_pool6_conv
I0620 03:59:14.600041   848 net.cpp:397] conv5_3_pool6_conv/bn -> conv5_3_pool6_conv (in-place)
I0620 03:59:14.600245   848 net.cpp:150] Setting up conv5_3_pool6_conv/bn
I0620 03:59:14.600250   848 net.cpp:157] Top shape: 1 512 6 6 (18432)
I0620 03:59:14.600251   848 net.cpp:165] Memory required for data: 4208601600
I0620 03:59:14.600256   848 layer_factory.hpp:77] Creating layer conv5_3_pool6_conv/relu
I0620 03:59:14.600261   848 net.cpp:106] Creating Layer conv5_3_pool6_conv/relu
I0620 03:59:14.600265   848 net.cpp:454] conv5_3_pool6_conv/relu <- conv5_3_pool6_conv
I0620 03:59:14.600266   848 net.cpp:397] conv5_3_pool6_conv/relu -> conv5_3_pool6_conv (in-place)
I0620 03:59:14.600271   848 net.cpp:150] Setting up conv5_3_pool6_conv/relu
I0620 03:59:14.600275   848 net.cpp:157] Top shape: 1 512 6 6 (18432)
I0620 03:59:14.600276   848 net.cpp:165] Memory required for data: 4208675328
I0620 03:59:14.600278   848 layer_factory.hpp:77] Creating layer conv5_3_pool6_interp
I0620 03:59:14.600282   848 net.cpp:106] Creating Layer conv5_3_pool6_interp
I0620 03:59:14.600286   848 net.cpp:454] conv5_3_pool6_interp <- conv5_3_pool6_conv
I0620 03:59:14.600291   848 net.cpp:411] conv5_3_pool6_interp -> conv5_3_pool6_interp
I0620 03:59:14.600313   848 net.cpp:150] Setting up conv5_3_pool6_interp
I0620 03:59:14.600317   848 net.cpp:157] Top shape: 1 512 60 60 (1843200)
I0620 03:59:14.600319   848 net.cpp:165] Memory required for data: 4216048128
I0620 03:59:14.600322   848 layer_factory.hpp:77] Creating layer conv5_3_concat
I0620 03:59:14.600327   848 net.cpp:106] Creating Layer conv5_3_concat
I0620 03:59:14.600330   848 net.cpp:454] conv5_3_concat <- conv5_3_conv5_3/relu_0_split_4
I0620 03:59:14.600332   848 net.cpp:454] conv5_3_concat <- conv5_3_pool6_interp
I0620 03:59:14.600334   848 net.cpp:454] conv5_3_concat <- conv5_3_pool3_interp
I0620 03:59:14.600337   848 net.cpp:454] conv5_3_concat <- conv5_3_pool2_interp
I0620 03:59:14.600339   848 net.cpp:454] conv5_3_concat <- conv5_3_pool1_interp
I0620 03:59:14.600342   848 net.cpp:411] conv5_3_concat -> conv5_3_concat
I0620 03:59:14.600363   848 net.cpp:150] Setting up conv5_3_concat
I0620 03:59:14.600369   848 net.cpp:157] Top shape: 1 4096 60 60 (14745600)
I0620 03:59:14.600373   848 net.cpp:165] Memory required for data: 4275030528
I0620 03:59:14.600374   848 layer_factory.hpp:77] Creating layer conv5_4
I0620 03:59:14.600380   848 net.cpp:106] Creating Layer conv5_4
I0620 03:59:14.600383   848 net.cpp:454] conv5_4 <- conv5_3_concat
I0620 03:59:14.600385   848 net.cpp:411] conv5_4 -> conv5_4
I0620 03:59:15.055197   848 net.cpp:150] Setting up conv5_4
I0620 03:59:15.055228   848 net.cpp:157] Top shape: 1 512 60 60 (1843200)
I0620 03:59:15.055233   848 net.cpp:165] Memory required for data: 4282403328
I0620 03:59:15.055238   848 layer_factory.hpp:77] Creating layer conv5_4/bn
I0620 03:59:15.055253   848 net.cpp:106] Creating Layer conv5_4/bn
I0620 03:59:15.055258   848 net.cpp:454] conv5_4/bn <- conv5_4
I0620 03:59:15.055263   848 net.cpp:397] conv5_4/bn -> conv5_4 (in-place)
I0620 03:59:15.055477   848 net.cpp:150] Setting up conv5_4/bn
I0620 03:59:15.055482   848 net.cpp:157] Top shape: 1 512 60 60 (1843200)
I0620 03:59:15.055497   848 net.cpp:165] Memory required for data: 4289776128
I0620 03:59:15.055503   848 layer_factory.hpp:77] Creating layer conv5_4/relu
I0620 03:59:15.055508   848 net.cpp:106] Creating Layer conv5_4/relu
I0620 03:59:15.055512   848 net.cpp:454] conv5_4/relu <- conv5_4
I0620 03:59:15.055516   848 net.cpp:397] conv5_4/relu -> conv5_4 (in-place)
I0620 03:59:15.055521   848 net.cpp:150] Setting up conv5_4/relu
I0620 03:59:15.055523   848 net.cpp:157] Top shape: 1 512 60 60 (1843200)
I0620 03:59:15.055526   848 net.cpp:165] Memory required for data: 4297148928
I0620 03:59:15.055529   848 layer_factory.hpp:77] Creating layer conv5_4/dropout
I0620 03:59:15.055938   848 net.cpp:106] Creating Layer conv5_4/dropout
I0620 03:59:15.055943   848 net.cpp:454] conv5_4/dropout <- conv5_4
I0620 03:59:15.055961   848 net.cpp:397] conv5_4/dropout -> conv5_4 (in-place)
I0620 03:59:15.055981   848 net.cpp:150] Setting up conv5_4/dropout
I0620 03:59:15.055985   848 net.cpp:157] Top shape: 1 512 60 60 (1843200)
I0620 03:59:15.055986   848 net.cpp:165] Memory required for data: 4304521728
I0620 03:59:15.055989   848 layer_factory.hpp:77] Creating layer conv6
I0620 03:59:15.055994   848 net.cpp:106] Creating Layer conv6
I0620 03:59:15.055996   848 net.cpp:454] conv6 <- conv5_4
I0620 03:59:15.055999   848 net.cpp:411] conv6 -> conv6
I0620 03:59:15.056408   848 net.cpp:150] Setting up conv6
I0620 03:59:15.056412   848 net.cpp:157] Top shape: 1 19 60 60 (68400)
I0620 03:59:15.056429   848 net.cpp:165] Memory required for data: 4304795328
I0620 03:59:15.056432   848 layer_factory.hpp:77] Creating layer conv6_interp
I0620 03:59:15.056435   848 net.cpp:106] Creating Layer conv6_interp
I0620 03:59:15.056437   848 net.cpp:454] conv6_interp <- conv6
I0620 03:59:15.056440   848 net.cpp:411] conv6_interp -> conv6_interp
I0620 03:59:15.056455   848 net.cpp:150] Setting up conv6_interp
I0620 03:59:15.056458   848 net.cpp:157] Top shape: 1 19 473 473 (4250851)
I0620 03:59:15.056460   848 net.cpp:165] Memory required for data: 4321798732
I0620 03:59:15.056462   848 net.cpp:228] conv6_interp does not need backward computation.
I0620 03:59:15.056463   848 net.cpp:228] conv6 does not need backward computation.
I0620 03:59:15.056465   848 net.cpp:228] conv5_4/dropout does not need backward computation.
I0620 03:59:15.056466   848 net.cpp:228] conv5_4/relu does not need backward computation.
…
