…
state {
  phase: TRAIN
}
layer {
  name: "data"
  type: "ImageSegData"
  top: "data"
  top: "label"
  include {
    phase: TRAIN
  }
  transform_param {
    mirror: true
    crop_size: 400
    mean_value: 104.008
    mean_value: 116.669
    mean_value: 122.675
    scale_factors: 0.5
    scale_factors: 0.75
    scale_factors: 1
    scale_factors: 1.25
    scale_factors: 1.5
  }
  image_data_param {
    source: "exper/voc12/list/train_aug.txt"
    batch_size: 1
    shuffle: true
    root_folder: "exper/voc12/data"
    label_type: PIXEL
  }
}
layer {
  name: "conv1_1_3x3_s2"
  type: "Convolution"
  bottom: "data"
  top: "conv1_1_3x3_s2"
  param {
    lr_mult: 1
    decay_mult: 1
  }
  convolution_param {
    num_output: 64
    bias_term: false
    pad: 1
    kernel_size: 3
    stride: 2
    weight_filler {
      type: "msra"
    }
  }
}
layer {
  name: "conv1_1_3x3_s2/bn"
  type: "BN"
  bottom: "conv1_1_3x3_s2"
  top: "conv1_1_3x3_s2"
  param {
    lr_mult: 1
    decay_mult: 0
  }
  param {
    lr_mult: 1
    decay_mult: 0
  }
  param {
    lr_mult: 0
    decay_mult: 0
  }
  param {
    lr_mult: 0
    decay_mult: 0
  }
  bn_param {
    slope_filler {
      type: "constant"
      value: 1
    }
    bias_filler {
      type: "constant"
      value: 0
    }
    momentum: 0.95
    frozen: true
  }
}
layer {
  name: "conv1_1_3x3_s2/relu"
  type: "ReLU"
  bottom: "conv1_1_3x3_s2"
  top: "conv1_1_3x3_s2"
}
layer {
  name: "conv1_2_3x3"
  type: "Convolution"
  bottom: "conv1_1_3x3_s2"
  top: "conv1_2_3x3"
  param {
    lr_mult: 1
    decay_mult: 1
  }
  convolution_param {
    num_output: 64
    bias_term: false
    pad: 1
    kernel_size: 3
    stride: 1
    weight_filler {
      type: "msra"
    }
  }
}
layer {
  name: "conv1_2_3x3/bn"
  type: "BN"
  bottom: "conv1_2_3x3"
  top: "conv1_2_3x3"
  param {
    lr_mult: 1
    decay_mult: 0
  }
  param {
    lr_mult: 1
    decay_mult: 0
  }
  param {
    lr_mult: 0
    decay_mult: 0
  }
  param {
    lr_mult: 0
    decay_mult: 0
  }
  bn_param {
    slope_filler {
      type: "constant"
      value: 1
    }
    bias_filler {
      type: "constant"
      value: 0
    }
    momentum: 0.95
    frozen: true
  }
}
layer {
  name: "conv1_2_3x3/relu"
  type: "ReLU"
  bottom: "conv1_2_3x3"
  top: "conv1_2_3x3"
}
layer {
  name: "conv1_3_3x3"
  type: "Convolution"
  bottom: "conv1_2_3x3"
  top: "conv1_3_3x3"
  param {
    lr_mult: 1
    decay_mult: 1
  }
  convolution_param {
    num_output: 128
    bias_term: false
    pad: 1
    kernel_size: 3
    stride: 1
    weight_filler {
      type: "msra"
    }
  }
}
layer {
  name: "conv1_3_3x3/bn"
  type: "BN"
  bottom: "conv1_3_3x3"
  top: "conv1_3_3x3"
  param {
    lr_mult: 1
    decay_mult: 0
  }
  param {
    lr_mult: 1
    decay_mult: 0
  }
  param {
    lr_mult: 0
    decay_mult: 0
  }
  param {
    lr_mult: 0
    decay_mult: 0
  }
  bn_param {
    slope_filler {
      type: "constant"
      value: 1
    }
    bias_filler {
      type: "constant"
      value: 0
    }
    momentum: 0.95
    frozen: true
  }
}
layer {
  name: "conv1_3_3x3/relu"
  type: "ReLU"
  bottom: "conv1_3_3x3"
  top: "conv1_3_3x3"
}
layer {
  name: "pool1_3x3_s2"
  type: "Pooling"
  bottom: "conv1_3_3x3"
  top: "pool1_3x3_s2"
  pooling_param {
    pool: MAX
    kernel_size: 3
    stride: 2
    pad: 1
  }
}
layer {
  name: "conv2_1_1x1_reduce"
  type: "Convolution"
  bottom: "pool1_3x3_s2"
  top: "conv2_1_1x1_reduce"
  param {
    lr_mult: 1
    decay_mult: 1
  }
  convolution_param {
    num_output: 64
    bias_term: false
    pad: 0
    kernel_size: 1
    stride: 1
    weight_filler {
      type: "msra"
    }
  }
}
layer {
  name: "conv2_1_1x1_reduce/bn"
  type: "BN"
  bottom: "conv2_1_1x1_reduce"
  top: "conv2_1_1x1_reduce"
  param {
    lr_mult: 1
    decay_mult: 0
  }
  param {
    lr_mult: 1
    decay_mult: 0
  }
  param {
    lr_mult: 0
    decay_mult: 0
  }
  param {
    lr_mult: 0
    decay_mult: 0
  }
  bn_param {
    slope_filler {
      type: "constant"
      value: 1
    }
    bias_filler {
      type: "constant"
      value: 0
    }
    momentum: 0.95
    frozen: true
  }
}
layer {
  name: "conv2_1_1x1_reduce/relu"
  type: "ReLU"
  bottom: "conv2_1_1x1_reduce"
  top: "conv2_1_1x1_reduce"
}
layer {
  name: "conv2_1_3x3"
  type: "Convolution"
  bottom: "conv2_1_1x1_reduce"
  top: "conv2_1_3x3"
  param {
    lr_mult: 1
    decay_mult: 1
  }
  convolution_param {
    num_output: 64
    bias_term: false
    pad: 1
    kernel_size: 3
    stride: 1
    weight_filler {
      type: "msra"
    }
  }
}
layer {
  name: "conv2_1_3x3/bn"
  type: "BN"
  bottom: "conv2_1_3x3"
  top: "conv2_1_3x3"
  param {
    lr_mult: 1
    decay_mult: 0
  }
  param {
    lr_mult: 1
    decay_mult: 0
  }
  param {
    lr_mult: 0
    decay_mult: 0
  }
  param {
    lr_mult: 0
    decay_mult: 0
  }
  bn_param {
    slope_filler {
      type: "constant"
      value: 1
    }
    bias_filler {
      type: "constant"
      value: 0
    }
    momentum: 0.95
    frozen: true
  }
}
layer {
  name: "conv2_1_3x3/relu"
  type: "ReLU"
  bottom: "conv2_1_3x3"
  top: "conv2_1_3x3"
}
layer {
  name: "conv2_1_1x1_increase"
  type: "Convolution"
  bottom: "conv2_1_3x3"
  top: "conv2_1_1x1_increase"
  param {
    lr_mult: 1
    decay_mult: 1
  }
  convolution_param {
    num_output: 256
    bias_term: false
    pad: 0
    kernel_size: 1
    stride: 1
    weight_filler {
      type: "msra"
    }
  }
}
layer {
  name: "conv2_1_1x1_increase/bn"
  type: "BN"
  bottom: "conv2_1_1x1_increase"
  top: "conv2_1_1x1_increase"
  param {
    lr_mult: 1
    decay_mult: 0
  }
  param {
    lr_mult: 1
    decay_mult: 0
  }
  param {
    lr_mult: 0
    decay_mult: 0
  }
  param {
    lr_mult: 0
    decay_mult: 0
  }
  bn_param {
    slope_filler {
      type: "constant"
      value: 1
    }
    bias_filler {
      type: "constant"
      value: 0
    }
    momentum: 0.95
    frozen: true
  }
}
layer {
  name: "conv2_1_1x1_proj"
  type: "Convolution"
  bottom: "pool1_3x3_s2"
  top: "conv2_1_1x1_proj"
  param {
    lr_mult: 1
    decay_mult: 1
  }
  convolution_param {
    num_output: 256
    bias_term: false
    pad: 0
    kernel_size: 1
    stride: 1
    weight_filler {
      type: "msra"
    }
  }
}
layer {
  name: "conv2_1_1x1_proj/bn"
  type: "BN"
  bottom: "conv2_1_1x1_proj"
  top: "conv2_1_1x1_proj"
  param {
    lr_mult: 1
    decay_mult: 0
  }
  param {
    lr_mult: 1
    decay_mult: 0
  }
  param {
    lr_mult: 0
    decay_mult: 0
  }
  param {
    lr_mult: 0
    decay_mult: 0
  }
  bn_param {
    slope_filler {
      type: "constant"
      value: 1
    }
    bias_filler {
      type: "constant"
      value: 0
    }
    momentum: 0.95
    frozen: true
  }
}
layer {
  name: "conv2_1"
  type: "Eltwise"
  bottom: "conv2_1_1x1_proj"
  bottom: "conv2_1_1x1_increase"
  top: "conv2_1"
  eltwise_param {
    operation: SUM
  }
}
layer {
  name: "conv2_1/relu"
  type: "ReLU"
  bottom: "conv2_1"
  top: "conv2_1"
}
layer {
  name: "conv2_2_1x1_reduce"
  type: "Convolution"
  bottom: "conv2_1"
  top: "conv2_2_1x1_reduce"
  param {
    lr_mult: 1
    decay_mult: 1
  }
  convolution_param {
    num_output: 64
    bias_term: false
    pad: 0
    kernel_size: 1
    stride: 1
    weight_filler {
      type: "msra"
    }
  }
}
layer {
  name: "conv2_2_1x1_reduce/bn"
  type: "BN"
  bottom: "conv2_2_1x1_reduce"
  top: "conv2_2_1x1_reduce"
  param {
    lr_mult: 1
    decay_mult: 0
  }
  param {
    lr_mult: 1
    decay_mult: 0
  }
  param {
    lr_mult: 0
    decay_mult: 0
  }
  param {
    lr_mult: 0
    decay_mult: 0
  }
  bn_param {
    slope_filler {
      type: "constant"
      value: 1
    }
    bias_filler {
      type: "constant"
      value: 0
    }
    momentum: 0.95
    frozen: true
  }
}
layer {
  name: "conv2_2_1x1_reduce/relu"
  type: "ReLU"
  bottom: "conv2_2_1x1_reduce"
  top: "conv2_2_1x1_reduce"
}
layer {
  name: "conv2_2_3x3"
  type: "Convolution"
  bottom: "conv2_2_1x1_reduce"
  top: "conv2_2_3x3"
  param {
    lr_mult: 1
    decay_mult: 1
  }
  convolution_param {
    num_output: 64
    bias_term: false
    pad: 1
    kernel_size: 3
    stride: 1
    weight_filler {
      type: "msra"
    }
  }
}
layer {
  name: "conv2_2_3x3/bn"
  type: "BN"
  bottom: "conv2_2_3x3"
  top: "conv2_2_3x3"
  param {
    lr_mult: 1
    decay_mult: 0
  }
  param {
    lr_mult: 1
    decay_mult: 0
  }
  param {
    lr_mult: 0
    decay_mult: 0
  }
  param {
    lr_mult: 0
    decay_mult: 0
  }
  bn_param {
    slope_filler {
      type: "constant"
      value: 1
    }
    bias_filler {
      type: "constant"
      value: 0
    }
    momentum: 0.95
    frozen: true
  }
}
layer {
  name: "conv2_2_3x3/relu"
  type: "ReLU"
  bottom: "conv2_2_3x3"
  top: "conv2_2_3x3"
}
layer {
  name: "conv2_2_1x1_increase"
  type: "Convolution"
  bottom: "conv2_2_3x3"
  top: "conv2_2_1x1_increase"
  param {
    lr_mult: 1
    decay_mult: 1
  }
  convolution_param {
    num_output: 256
    bias_term: false
    pad: 0
    kernel_size: 1
    stride: 1
    weight_filler {
      type: "msra"
    }
  }
}
layer {
  name: "conv2_2_1x1_increase/bn"
  type: "BN"
  bottom: "conv2_2_1x1_increase"
  top: "conv2_2_1x1_increase"
  param {
    lr_mult: 1
    decay_mult: 0
  }
  param {
    lr_mult: 1
    decay_mult: 0
  }
  param {
    lr_mult: 0
    decay_mult: 0
  }
  param {
    lr_mult: 0
    decay_mult: 0
  }
  bn_param {
    slope_filler {
      type: "constant"
      value: 1
    }
    bias_filler {
      type: "constant"
      value: 0
    }
    momentum: 0.95
    frozen: true
  }
}
layer {
  name: "conv2_2"
  type: "Eltwise"
  bottom: "conv2_1"
  bottom: "conv2_2_1x1_increase"
  top: "conv2_2"
  eltwise_param {
    operation: SUM
  }
}
layer {
  name: "conv2_2/relu"
  type: "ReLU"
  bottom: "conv2_2"
  top: "conv2_2"
}
layer {
  name: "conv2_3_1x1_reduce"
  type: "Convolution"
  bottom: "conv2_2"
  top: "conv2_3_1x1_reduce"
  param {
    lr_mult: 1
    decay_mult: 1
  }
  convolution_param {
    num_output: 64
    bias_term: false
    pad: 0
    kernel_size: 1
    stride: 1
    weight_filler {
      type: "msra"
    }
  }
}
layer {
  name: "conv2_3_1x1_reduce/bn"
  type: "BN"
  bottom: "conv2_3_1x1_reduce"
  top: "conv2_3_1x1_reduce"
  param {
    lr_mult: 1
    decay_mult: 0
  }
  param {
    lr_mult: 1
    decay_mult: 0
  }
  param {
    lr_mult: 0
    decay_mult: 0
  }
  param {
    lr_mult: 0
    decay_mult: 0
  }
  bn_param {
    slope_filler {
      type: "constant"
      value: 1
    }
    bias_filler {
      type: "constant"
      value: 0
    }
    momentum: 0.95
    frozen: true
  }
}
layer {
  name: "conv2_3_1x1_reduce/relu"
  type: "ReLU"
  bottom: "conv2_3_1x1_reduce"
  top: "conv2_3_1x1_reduce"
}
layer {
  name: "conv2_3_3x3"
  type: "Convolution"
  bottom: "conv2_3_1x1_reduce"
  top: "conv2_3_3x3"
  param {
    lr_mult: 1
    decay_mult: 1
  }
  convolution_param {
    num_output: 64
    bias_term: false
    pad: 1
    kernel_size: 3
    stride: 1
    weight_filler {
      type: "msra"
    }
  }
}
layer {
  name: "conv2_3_3x3/bn"
  type: "BN"
  bottom: "conv2_3_3x3"
  top: "conv2_3_3x3"
  param {
    lr_mult: 1
    decay_mult: 0
  }
  param {
    lr_mult: 1
    decay_mult: 0
  }
  param {
    lr_mult: 0
    decay_mult: 0
  }
  param {
    lr_mult: 0
    decay_mult: 0
  }
  bn_param {
    slope_filler {
      type: "constant"
      value: 1
    }
    bias_filler {
      type: "constant"
      value: 0
    }
    momentum: 0.95
    frozen: true
  }
}
layer {
  name: "conv2_3_3x3/relu"
  type: "ReLU"
  bottom: "conv2_3_3x3"
  top: "conv2_3_3x3"
}
layer {
  name: "conv2_3_1x1_increase"
  type: "Convolution"
  bottom: "conv2_3_3x3"
  top: "conv2_3_1x1_increase"
  param {
    lr_mult: 1
    decay_mult: 1
  }
  convolution_param {
    num_output: 256
    bias_term: false
    pad: 0
    kernel_size: 1
    stride: 1
    weight_filler {
      type: "msra"
    }
  }
}
layer {
  name: "conv2_3_1x1_increase/bn"
  type: "BN"
  bottom: "conv2_3_1x1_increase"
  top: "conv2_3_1x1_increase"
  param {
    lr_mult: 1
    decay_mult: 0
  }
  param {
    lr_mult: 1
    decay_mult: 0
  }
  param {
    lr_mult: 0
    decay_mult: 0
  }
  param {
    lr_mult: 0
    decay_mult: 0
  }
  bn_param {
    slope_filler {
      type: "constant"
      value: 1
    }
    bias_filler {
      type: "constant"
      value: 0
    }
    momentum: 0.95
    frozen: true
  }
}
layer {
  name: "conv2_3"
  type: "Eltwise"
  bottom: "conv2_2"
  bottom: "conv2_3_1x1_increase"
  top: "conv2_3"
  eltwise_param {
    operation: SUM
  }
}
layer {
  name: "conv2_3/relu"
  type: "ReLU"
  bottom: "conv2_3"
  top: "conv2_3"
}
layer {
  name: "conv3_1_1x1_reduce"
  type: "Convolution"
  bottom: "conv2_3"
  top: "conv3_1_1x1_reduce"
  param {
    lr_mult: 1
    decay_mult: 1
  }
  convolution_param {
    num_output: 128
    bias_term: false
    pad: 0
    kernel_size: 1
    stride: 1
    weight_filler {
      type: "msra"
    }
  }
}
layer {
  name: "conv3_1_1x1_reduce/bn"
  type: "BN"
  bottom: "conv3_1_1x1_reduce"
  top: "conv3_1_1x1_reduce"
  param {
    lr_mult: 1
    decay_mult: 0
  }
  param {
    lr_mult: 1
    decay_mult: 0
  }
  param {
    lr_mult: 0
    decay_mult: 0
  }
  param {
    lr_mult: 0
    decay_mult: 0
  }
  bn_param {
    slope_filler {
      type: "constant"
      value: 1
    }
    bias_filler {
      type: "constant"
      value: 0
    }
    momentum: 0.95
    frozen: true
  }
}
layer {
  name: "conv3_1_1x1_reduce/relu"
  type: "ReLU"
  bottom: "conv3_1_1x1_reduce"
  top: "conv3_1_1x1_reduce"
}
layer {
  name: "conv3_1_3x3"
  type: "Convolution"
  bottom: "conv3_1_1x1_reduce"
  top: "conv3_1_3x3"
  param {
    lr_mult: 1
    decay_mult: 1
  }
  convolution_param {
    num_output: 128
    bias_term: false
    pad: 1
    kernel_size: 3
    stride: 2
    weight_filler {
      type: "msra"
    }
  }
}
layer {
  name: "conv3_1_3x3/bn"
  type: "BN"
  bottom: "conv3_1_3x3"
  top: "conv3_1_3x3"
  param {
    lr_mult: 1
    decay_mult: 0
  }
  param {
    lr_mult: 1
    decay_mult: 0
  }
  param {
    lr_mult: 0
    decay_mult: 0
  }
  param {
    lr_mult: 0
    decay_mult: 0
  }
  bn_param {
    slope_filler {
      type: "constant"
      value: 1
    }
    bias_filler {
      type: "constant"
      value: 0
    }
    momentum: 0.95
    frozen: true
  }
}
layer {
  name: "conv3_1_3x3/relu"
  type: "ReLU"
  bottom: "conv3_1_3x3"
  top: "conv3_1_3x3"
}
layer {
  name: "conv3_1_1x1_increase"
  type: "Convolution"
  bottom: "conv3_1_3x3"
  top: "conv3_1_1x1_increase"
  param {
    lr_mult: 1
    decay_mult: 1
  }
  convolution_param {
    num_output: 512
    bias_term: false
    pad: 0
    kernel_size: 1
    stride: 1
    weight_filler {
      type: "msra"
    }
  }
}
layer {
  name: "conv3_1_1x1_increase/bn"
  type: "BN"
  bottom: "conv3_1_1x1_increase"
  top: "conv3_1_1x1_increase"
  param {
    lr_mult: 1
    decay_mult: 0
  }
  param {
    lr_mult: 1
    decay_mult: 0
  }
  param {
    lr_mult: 0
    decay_mult: 0
  }
  param {
    lr_mult: 0
    decay_mult: 0
  }
  bn_param {
    slope_filler {
      type: "constant"
      value: 1
    }
    bias_filler {
      type: "constant"
      value: 0
    }
    momentum: 0.95
    frozen: true
  }
}
layer {
  name: "conv3_1_1x1_proj"
  type: "Convolution"
  bottom: "conv2_3"
  top: "conv3_1_1x1_proj"
  param {
    lr_mult: 1
    decay_mult: 1
  }
  convolution_param {
    num_output: 512
    bias_term: false
    pad: 0
    kernel_size: 1
    stride: 2
    weight_filler {
      type: "msra"
    }
  }
}
layer {
  name: "conv3_1_1x1_proj/bn"
  type: "BN"
  bottom: "conv3_1_1x1_proj"
  top: "conv3_1_1x1_proj"
  param {
    lr_mult: 1
    decay_mult: 0
  }
  param {
    lr_mult: 1
    decay_mult: 0
  }
  param {
    lr_mult: 0
    decay_mult: 0
  }
  param {
    lr_mult: 0
    decay_mult: 0
  }
  bn_param {
    slope_filler {
      type: "constant"
      value: 1
    }
    bias_filler {
      type: "constant"
      value: 0
    }
    momentum: 0.95
    frozen: true
  }
}
layer {
  name: "conv3_1"
  type: "Eltwise"
  bottom: "conv3_1_1x1_proj"
  bottom: "conv3_1_1x1_increase"
  top: "conv3_1"
  eltwise_param {
    operation: SUM
  }
}
layer {
  name: "conv3_1/relu"
  type: "ReLU"
  bottom: "conv3_1"
  top: "conv3_1"
}
layer {
  name: "conv3_2_1x1_reduce"
  type: "Convolution"
  bottom: "conv3_1"
  top: "conv3_2_1x1_reduce"
  param {
    lr_mult: 1
    decay_mult: 1
  }
  convolution_param {
    num_output: 128
    bias_term: false
    pad: 0
    kernel_size: 1
    stride: 1
    weight_filler {
      type: "msra"
    }
  }
}
layer {
  name: "conv3_2_1x1_reduce/bn"
  type: "BN"
  bottom: "conv3_2_1x1_reduce"
  top: "conv3_2_1x1_reduce"
  param {
    lr_mult: 1
    decay_mult: 0
  }
  param {
    lr_mult: 1
    decay_mult: 0
  }
  param {
    lr_mult: 0
    decay_mult: 0
  }
  param {
    lr_mult: 0
    decay_mult: 0
  }
  bn_param {
    slope_filler {
      type: "constant"
      value: 1
    }
    bias_filler {
      type: "constant"
      value: 0
    }
    momentum: 0.95
    frozen: true
  }
}
layer {
  name: "conv3_2_1x1_reduce/relu"
  type: "ReLU"
  bottom: "conv3_2_1x1_reduce"
  top: "conv3_2_1x1_reduce"
}
layer {
  name: "conv3_2_3x3"
  type: "Convolution"
  bottom: "conv3_2_1x1_reduce"
  top: "conv3_2_3x3"
  param {
    lr_mult: 1
    decay_mult: 1
  }
  convolution_param {
    num_output: 128
    bias_term: false
    pad: 1
    kernel_size: 3
    stride: 1
    weight_filler {
      type: "msra"
    }
  }
}
layer {
  name: "conv3_2_3x3/bn"
  type: "BN"
  bottom: "conv3_2_3x3"
  top: "conv3_2_3x3"
  param {
    lr_mult: 1
    decay_mult: 0
  }
  param {
    lr_mult: 1
    decay_mult: 0
  }
  param {
    lr_mult: 0
    decay_mult: 0
  }
  param {
    lr_mult: 0
    decay_mult: 0
  }
  bn_param {
    slope_filler {
      type: "constant"
      value: 1
    }
    bias_filler {
      type: "constant"
      value: 0
    }
    momentum: 0.95
    frozen: true
  }
}
layer {
  name: "conv3_2_3x3/relu"
  type: "ReLU"
  bottom: "conv3_2_3x3"
  top: "conv3_2_3x3"
}
layer {
  name: "conv3_2_1x1_increase"
  type: "Convolution"
  bottom: "conv3_2_3x3"
  top: "conv3_2_1x1_increase"
  param {
    lr_mult: 1
    decay_mult: 1
  }
  convolution_param {
    num_output: 512
    bias_term: false
    pad: 0
    kernel_size: 1
    stride: 1
    weight_filler {
      type: "msra"
    }
  }
}
layer {
  name: "conv3_2_1x1_increase/bn"
  type: "BN"
  bottom: "conv3_2_1x1_increase"
  top: "conv3_2_1x1_increase"
  param {
    lr_mult: 1
    decay_mult: 0
  }
  param {
    lr_mult: 1
    decay_mult: 0
  }
  param {
    lr_mult: 0
    decay_mult: 0
  }
  param {
    lr_mult: 0
    decay_mult: 0
  }
  bn_param {
    slope_filler {
      type: "constant"
      value: 1
    }
    bias_filler {
      type: "constant"
      value: 0
    }
    momentum: 0.95
    frozen: true
  }
}
layer {
  name: "conv3_2"
  type: "Eltwise"
  bottom: "conv3_1"
  bottom: "conv3_2_1x1_increase"
  top: "conv3_2"
  eltwise_param {
    operation: SUM
  }
}
layer {
  name: "conv3_2/relu"
  type: "ReLU"
  bottom: "conv3_2"
  top: "conv3_2"
}
layer {
  name: "conv3_3_1x1_reduce"
  type: "Convolution"
  bottom: "conv3_2"
  top: "conv3_3_1x1_reduce"
  param {
    lr_mult: 1
    decay_mult: 1
  }
  convolution_param {
    num_output: 128
    bias_term: false
    pad: 0
    kernel_size: 1
    stride: 1
    weight_filler {
      type: "msra"
    }
  }
}
layer {
  name: "conv3_3_1x1_reduce/bn"
  type: "BN"
  bottom: "conv3_3_1x1_reduce"
  top: "conv3_3_1x1_reduce"
  param {
    lr_mult: 1
    decay_mult: 0
  }
  param {
    lr_mult: 1
    decay_mult: 0
  }
  param {
    lr_mult: 0
    decay_mult: 0
  }
  param {
    lr_mult: 0
    decay_mult: 0
  }
  bn_param {
    slope_filler {
      type: "constant"
      value: 1
    }
    bias_filler {
      type: "constant"
      value: 0
    }
    momentum: 0.95
    frozen: true
  }
}
layer {
  name: "conv3_3_1x1_reduce/relu"
  type: "ReLU"
  bottom: "conv3_3_1x1_reduce"
  top: "conv3_3_1x1_reduce"
}
layer {
  name: "conv3_3_3x3"
  type: "Convolution"
  bottom: "conv3_3_1x1_reduce"
  top: "conv3_3_3x3"
  param {
    lr_mult: 1
    decay_mult: 1
  }
  convolution_param {
    num_output: 128
    bias_term: false
    pad: 1
    kernel_size: 3
    stride: 1
    weight_filler {
      type: "msra"
    }
  }
}
layer {
  name: "conv3_3_3x3/bn"
  type: "BN"
  bottom: "conv3_3_3x3"
  top: "conv3_3_3x3"
  param {
    lr_mult: 1
    decay_mult: 0
  }
  param {
    lr_mult: 1
    decay_mult: 0
  }
  param {
    lr_mult: 0
    decay_mult: 0
  }
  param {
    lr_mult: 0
    decay_mult: 0
  }
  bn_param {
    slope_filler {
      type: "constant"
      value: 1
    }
    bias_filler {
      type: "constant"
      value: 0
    }
    momentum: 0.95
    frozen: true
  }
}
layer {
  name: "conv3_3_3x3/relu"
  type: "ReLU"
  bottom: "conv3_3_3x3"
  top: "conv3_3_3x3"
}
layer {
  name: "conv3_3_1x1_increase"
  type: "Convolution"
  bottom: "conv3_3_3x3"
  top: "conv3_3_1x1_increase"
  param {
    lr_mult: 1
    decay_mult: 1
  }
  convolution_param {
    num_output: 512
    bias_term: false
    pad: 0
    kernel_size: 1
    stride: 1
    weight_filler {
      type: "msra"
    }
  }
}
layer {
  name: "conv3_3_1x1_increase/bn"
  type: "BN"
  bottom: "conv3_3_1x1_increase"
  top: "conv3_3_1x1_increase"
  param {
    lr_mult: 1
    decay_mult: 0
  }
  param {
    lr_mult: 1
    decay_mult: 0
  }
  param {
    lr_mult: 0
    decay_mult: 0
  }
  param {
    lr_mult: 0
    decay_mult: 0
  }
  bn_param {
    slope_filler {
      type: "constant"
      value: 1
    }
    bias_filler {
      type: "constant"
      value: 0
    }
    momentum: 0.95
    frozen: true
  }
}
layer {
  name: "conv3_3"
  type: "Eltwise"
  bottom: "conv3_2"
  bottom: "conv3_3_1x1_increase"
  top: "conv3_3"
  eltwise_param {
    operation: SUM
  }
}
layer {
  name: "conv3_3/relu"
  type: "ReLU"
  bottom: "conv3_3"
  top: "conv3_3"
}
layer {
  name: "conv3_4_1x1_reduce"
  type: "Convolution"
  bottom: "conv3_3"
  top: "conv3_4_1x1_reduce"
  param {
    lr_mult: 1
    decay_mult: 1
  }
  convolution_param {
    num_output: 128
    bias_term: false
    pad: 0
    kernel_size: 1
    stride: 1
    weight_filler {
      type: "msra"
    }
  }
}
layer {
  name: "conv3_4_1x1_reduce/bn"
  type: "BN"
  bottom: "conv3_4_1x1_reduce"
  top: "conv3_4_1x1_reduce"
  param {
    lr_mult: 1
    decay_mult: 0
  }
  param {
    lr_mult: 1
    decay_mult: 0
  }
  param {
    lr_mult: 0
    decay_mult: 0
  }
  param {
    lr_mult: 0
    decay_mult: 0
  }
  bn_param {
    slope_filler {
      type: "constant"
      value: 1
    }
    bias_filler {
      type: "constant"
      value: 0
    }
    momentum: 0.95
    frozen: true
  }
}
layer {
  name: "conv3_4_1x1_reduce/relu"
  type: "ReLU"
  bottom: "conv3_4_1x1_reduce"
  top: "conv3_4_1x1_reduce"
}
layer {
  name: "conv3_4_3x3"
  type: "Convolution"
  bottom: "conv3_4_1x1_reduce"
  top: "conv3_4_3x3"
  param {
    lr_mult: 1
    decay_mult: 1
  }
  convolution_param {
    num_output: 128
    bias_term: false
    pad: 1
    kernel_size: 3
    stride: 1
    weight_filler {
      type: "msra"
    }
  }
}
layer {
  name: "conv3_4_3x3/bn"
  type: "BN"
  bottom: "conv3_4_3x3"
  top: "conv3_4_3x3"
  param {
    lr_mult: 1
    decay_mult: 0
  }
  param {
    lr_mult: 1
    decay_mult: 0
  }
  param {
    lr_mult: 0
    decay_mult: 0
  }
  param {
    lr_mult: 0
    decay_mult: 0
  }
  bn_param {
    slope_filler {
      type: "constant"
      value: 1
    }
    bias_filler {
      type: "constant"
      value: 0
    }
    momentum: 0.95
    frozen: true
  }
}
layer {
  name: "conv3_4_3x3/relu"
  type: "ReLU"
  bottom: "conv3_4_3x3"
  top: "conv3_4_3x3"
}
layer {
  name: "conv3_4_1x1_increase"
  type: "Convolution"
  bottom: "conv3_4_3x3"
  top: "conv3_4_1x1_increase"
  param {
    lr_mult: 1
    decay_mult: 1
  }
  convolution_param {
    num_output: 512
    bias_term: false
    pad: 0
    kernel_size: 1
    stride: 1
    weight_filler {
      type: "msra"
    }
  }
}
layer {
  name: "conv3_4_1x1_increase/bn"
  type: "BN"
  bottom: "conv3_4_1x1_increase"
  top: "conv3_4_1x1_increase"
  param {
    lr_mult: 1
    decay_mult: 0
  }
  param {
    lr_mult: 1
    decay_mult: 0
  }
  param {
    lr_mult: 0
    decay_mult: 0
  }
  param {
    lr_mult: 0
    decay_mult: 0
  }
  bn_param {
    slope_filler {
      type: "constant"
      value: 1
    }
    bias_filler {
      type: "constant"
      value: 0
    }
    momentum: 0.95
    frozen: true
  }
}
layer {
  name: "conv3_4"
  type: "Eltwise"
  bottom: "conv3_3"
  bottom: "conv3_4_1x1_increase"
  top: "conv3_4"
  eltwise_param {
    operation: SUM
  }
}
layer {
  name: "conv3_4/relu"
  type: "ReLU"
  bottom: "conv3_4"
  top: "conv3_4"
}
layer {
  name: "conv4_1_1x1_reduce"
  type: "Convolution"
  bottom: "conv3_4"
  top: "conv4_1_1x1_reduce"
  param {
    lr_mult: 1
    decay_mult: 1
  }
  convolution_param {
    num_output: 256
    bias_term: false
    pad: 0
    kernel_size: 1
    stride: 1
    weight_filler {
      type: "msra"
    }
  }
}
layer {
  name: "conv4_1_1x1_reduce/bn"
  type: "BN"
  bottom: "conv4_1_1x1_reduce"
  top: "conv4_1_1x1_reduce"
  param {
    lr_mult: 1
    decay_mult: 0
  }
  param {
    lr_mult: 1
    decay_mult: 0
  }
  param {
    lr_mult: 0
    decay_mult: 0
  }
  param {
    lr_mult: 0
    decay_mult: 0
  }
  bn_param {
    slope_filler {
      type: "constant"
      value: 1
    }
    bias_filler {
      type: "constant"
      value: 0
    }
    momentum: 0.95
    frozen: true
  }
}
layer {
  name: "conv4_1_1x1_reduce/relu"
  type: "ReLU"
  bottom: "conv4_1_1x1_reduce"
  top: "conv4_1_1x1_reduce"
}
layer {
  name: "conv4_1_3x3"
  type: "Convolution"
  bottom: "conv4_1_1x1_reduce"
  top: "conv4_1_3x3"
  param {
    lr_mult: 1
    decay_mult: 1
  }
  convolution_param {
    num_output: 256
    bias_term: false
    pad: 2
    kernel_size: 3
    stride: 1
    weight_filler {
      type: "msra"
    }
    dilation: 2
  }
}
layer {
  name: "conv4_1_3x3/bn"
  type: "BN"
  bottom: "conv4_1_3x3"
  top: "conv4_1_3x3"
  param {
    lr_mult: 1
    decay_mult: 0
  }
  param {
    lr_mult: 1
    decay_mult: 0
  }
  param {
    lr_mult: 0
    decay_mult: 0
  }
  param {
    lr_mult: 0
    decay_mult: 0
  }
  bn_param {
    slope_filler {
      type: "constant"
      value: 1
    }
    bias_filler {
      type: "constant"
      value: 0
    }
    momentum: 0.95
    frozen: true
  }
}
layer {
  name: "conv4_1_3x3/relu"
  type: "ReLU"
  bottom: "conv4_1_3x3"
  top: "conv4_1_3x3"
}
layer {
  name: "conv4_1_1x1_increase"
  type: "Convolution"
  bottom: "conv4_1_3x3"
  top: "conv4_1_1x1_increase"
  param {
    lr_mult: 1
    decay_mult: 1
  }
  convolution_param {
    num_output: 1024
    bias_term: false
    pad: 0
    kernel_size: 1
    stride: 1
    weight_filler {
      type: "msra"
    }
  }
}
layer {
  name: "conv4_1_1x1_increase/bn"
  type: "BN"
  bottom: "conv4_1_1x1_increase"
  top: "conv4_1_1x1_increase"
  param {
    lr_mult: 1
    decay_mult: 0
  }
  param {
    lr_mult: 1
    decay_mult: 0
  }
  param {
    lr_mult: 0
    decay_mult: 0
  }
  param {
    lr_mult: 0
    decay_mult: 0
  }
  bn_param {
    slope_filler {
      type: "constant"
      value: 1
    }
    bias_filler {
      type: "constant"
      value: 0
    }
    momentum: 0.95
    frozen: true
  }
}
layer {
  name: "conv4_1_1x1_proj"
  type: "Convolution"
  bottom: "conv3_4"
  top: "conv4_1_1x1_proj"
  param {
    lr_mult: 1
    decay_mult: 1
  }
  convolution_param {
    num_output: 1024
    bias_term: false
    pad: 0
    kernel_size: 1
    stride: 1
    weight_filler {
      type: "msra"
    }
  }
}
layer {
  name: "conv4_1_1x1_proj/bn"
  type: "BN"
  bottom: "conv4_1_1x1_proj"
  top: "conv4_1_1x1_proj"
  param {
    lr_mult: 1
    decay_mult: 0
  }
  param {
    lr_mult: 1
    decay_mult: 0
  }
  param {
    lr_mult: 0
    decay_mult: 0
  }
  param {
    lr_mult: 0
    decay_mult: 0
  }
  bn_param {
    slope_filler {
      type: "constant"
      value: 1
    }
    bias_filler {
      type: "constant"
      value: 0
    }
    momentum: 0.95
    frozen: true
  }
}
layer {
  name: "conv4_1"
  type: "Eltwise"
  bottom: "conv4_1_1x1_proj"
  bottom: "conv4_1_1x1_increase"
  top: "conv4_1"
  eltwise_param {
    operation: SUM
  }
}
layer {
  name: "conv4_1/relu"
  type: "ReLU"
  bottom: "conv4_1"
  top: "conv4_1"
}
layer {
  name: "conv4_2_1x1_reduce"
  type: "Convolution"
  bottom: "conv4_1"
  top: "conv4_2_1x1_reduce"
  param {
    lr_mult: 1
    decay_mult: 1
  }
  convolution_param {
    num_output: 256
    bias_term: false
    pad: 0
    kernel_size: 1
    stride: 1
    weight_filler {
      type: "msra"
    }
  }
}
layer {
  name: "conv4_2_1x1_reduce/bn"
  type: "BN"
  bottom: "conv4_2_1x1_reduce"
  top: "conv4_2_1x1_reduce"
  param {
    lr_mult: 1
    decay_mult: 0
  }
  param {
    lr_mult: 1
    decay_mult: 0
  }
  param {
    lr_mult: 0
    decay_mult: 0
  }
  param {
    lr_mult: 0
    decay_mult: 0
  }
  bn_param {
    slope_filler {
      type: "constant"
      value: 1
    }
    bias_filler {
      type: "constant"
      value: 0
    }
    momentum: 0.95
    frozen: true
  }
}
layer {
  name: "conv4_2_1x1_reduce/relu"
  type: "ReLU"
  bottom: "conv4_2_1x1_reduce"
  top: "conv4_2_1x1_reduce"
}
layer {
  name: "conv4_2_3x3"
  type: "Convolution"
  bottom: "conv4_2_1x1_reduce"
  top: "conv4_2_3x3"
  param {
    lr_mult: 1
    decay_mult: 1
  }
  convolution_param {
    num_output: 256
    bias_term: false
    pad: 2
    kernel_size: 3
    stride: 1
    weight_filler {
      type: "msra"
    }
    dilation: 2
  }
}
layer {
  name: "conv4_2_3x3/bn"
  type: "BN"
  bottom: "conv4_2_3x3"
  top: "conv4_2_3x3"
  param {
    lr_mult: 1
    decay_mult: 0
  }
  param {
    lr_mult: 1
    decay_mult: 0
  }
  param {
    lr_mult: 0
    decay_mult: 0
  }
  param {
    lr_mult: 0
    decay_mult: 0
  }
  bn_param {
    slope_filler {
      type: "constant"
      value: 1
    }
    bias_fille
I0620 04:22:24.425719  2846 layer_factory.hpp:77] Creating layer data
I0620 04:22:24.425757  2846 net.cpp:106] Creating Layer data
I0620 04:22:24.425765  2846 net.cpp:411] data -> data
I0620 04:22:24.425786  2846 net.cpp:411] data -> label
I0620 04:22:24.425796  2846 net.cpp:411] data -> (automatic)
I0620 04:22:24.426161  2846 image_seg_data_layer.cpp:46] Opening file exper/voc12/list/train_aug.txt
I0620 04:22:24.433970  2846 image_seg_data_layer.cpp:63] Shuffling data
I0620 04:22:24.437736  2846 image_seg_data_layer.cpp:68] A total of 10582 images.
I0620 04:22:24.456799  2846 image_seg_data_layer.cpp:137] output data size: 1,3,400,400
I0620 04:22:24.456825  2846 image_seg_data_layer.cpp:141] output label size: 1,1,400,400
I0620 04:22:24.456830  2846 image_seg_data_layer.cpp:145] output data_dim size: 1,1,1,2
I0620 04:22:24.468672  2846 net.cpp:150] Setting up data
I0620 04:22:24.468696  2846 net.cpp:157] Top shape: 1 3 400 400 (480000)
I0620 04:22:24.468700  2846 net.cpp:157] Top shape: 1 1 400 400 (160000)
I0620 04:22:24.468704  2846 net.cpp:157] Top shape: 1 1 1 2 (2)
I0620 04:22:24.468708  2846 net.cpp:165] Memory required for data: 2560008
I0620 04:22:24.468715  2846 layer_factory.hpp:77] Creating layer conv1_1_3x3_s2
I0620 04:22:24.468740  2846 net.cpp:106] Creating Layer conv1_1_3x3_s2
I0620 04:22:24.468746  2846 net.cpp:454] conv1_1_3x3_s2 <- data
I0620 04:22:24.468758  2846 net.cpp:411] conv1_1_3x3_s2 -> conv1_1_3x3_s2
I0620 04:22:24.469518  2846 net.cpp:150] Setting up conv1_1_3x3_s2
I0620 04:22:24.469528  2846 net.cpp:157] Top shape: 1 64 200 200 (2560000)
I0620 04:22:24.469532  2846 net.cpp:165] Memory required for data: 12800008
I0620 04:22:24.469540  2846 layer_factory.hpp:77] Creating layer conv1_1_3x3_s2/bn
I0620 04:22:24.469547  2846 net.cpp:106] Creating Layer conv1_1_3x3_s2/bn
I0620 04:22:24.469550  2846 net.cpp:454] conv1_1_3x3_s2/bn <- conv1_1_3x3_s2
I0620 04:22:24.469554  2846 net.cpp:397] conv1_1_3x3_s2/bn -> conv1_1_3x3_s2 (in-place)
I0620 04:22:24.471232  2846 net.cpp:150] Setting up conv1_1_3x3_s2/bn
I0620 04:22:24.471245  2846 net.cpp:157] Top shape: 1 64 200 200 (2560000)
I0620 04:22:24.471247  2846 net.cpp:165] Memory required for data: 23040008
I0620 04:22:24.471276  2846 layer_factory.hpp:77] Creating layer conv1_1_3x3_s2/relu
I0620 04:22:24.471294  2846 net.cpp:106] Creating Layer conv1_1_3x3_s2/relu
I0620 04:22:24.471297  2846 net.cpp:454] conv1_1_3x3_s2/relu <- conv1_1_3x3_s2
I0620 04:22:24.471302  2846 net.cpp:397] conv1_1_3x3_s2/relu -> conv1_1_3x3_s2 (in-place)
I0620 04:22:24.471320  2846 net.cpp:150] Setting up conv1_1_3x3_s2/relu
I0620 04:22:24.471324  2846 net.cpp:157] Top shape: 1 64 200 200 (2560000)
I0620 04:22:24.471328  2846 net.cpp:165] Memory required for data: 33280008
I0620 04:22:24.471330  2846 layer_factory.hpp:77] Creating layer conv1_2_3x3
I0620 04:22:24.471338  2846 net.cpp:106] Creating Layer conv1_2_3x3
I0620 04:22:24.471343  2846 net.cpp:454] conv1_2_3x3 <- conv1_1_3x3_s2
I0620 04:22:24.471345  2846 net.cpp:411] conv1_2_3x3 -> conv1_2_3x3
I0620 04:22:24.472214  2846 net.cpp:150] Setting up conv1_2_3x3
I0620 04:22:24.472219  2846 net.cpp:157] Top shape: 1 64 200 200 (2560000)
I0620 04:22:24.472223  2846 net.cpp:165] Memory required for data: 43520008
I0620 04:22:24.472226  2846 layer_factory.hpp:77] Creating layer conv1_2_3x3/bn
I0620 04:22:24.472231  2846 net.cpp:106] Creating Layer conv1_2_3x3/bn
I0620 04:22:24.472234  2846 net.cpp:454] conv1_2_3x3/bn <- conv1_2_3x3
I0620 04:22:24.472239  2846 net.cpp:397] conv1_2_3x3/bn -> conv1_2_3x3 (in-place)
I0620 04:22:24.472369  2846 net.cpp:150] Setting up conv1_2_3x3/bn
I0620 04:22:24.472373  2846 net.cpp:157] Top shape: 1 64 200 200 (2560000)
I0620 04:22:24.472376  2846 net.cpp:165] Memory required for data: 53760008
I0620 04:22:24.472383  2846 layer_factory.hpp:77] Creating layer conv1_2_3x3/relu
I0620 04:22:24.472388  2846 net.cpp:106] Creating Layer conv1_2_3x3/relu
I0620 04:22:24.472390  2846 net.cpp:454] conv1_2_3x3/relu <- conv1_2_3x3
I0620 04:22:24.472393  2846 net.cpp:397] conv1_2_3x3/relu -> conv1_2_3x3 (in-place)
I0620 04:22:24.472398  2846 net.cpp:150] Setting up conv1_2_3x3/relu
I0620 04:22:24.472401  2846 net.cpp:157] Top shape: 1 64 200 200 (2560000)
I0620 04:22:24.472404  2846 net.cpp:165] Memory required for data: 64000008
I0620 04:22:24.472406  2846 layer_factory.hpp:77] Creating layer conv1_3_3x3
I0620 04:22:24.472411  2846 net.cpp:106] Creating Layer conv1_3_3x3
I0620 04:22:24.472414  2846 net.cpp:454] conv1_3_3x3 <- conv1_2_3x3
I0620 04:22:24.472419  2846 net.cpp:411] conv1_3_3x3 -> conv1_3_3x3
I0620 04:22:24.474078  2846 net.cpp:150] Setting up conv1_3_3x3
I0620 04:22:24.474086  2846 net.cpp:157] Top shape: 1 128 200 200 (5120000)
I0620 04:22:24.474088  2846 net.cpp:165] Memory required for data: 84480008
I0620 04:22:24.474092  2846 layer_factory.hpp:77] Creating layer conv1_3_3x3/bn
I0620 04:22:24.474098  2846 net.cpp:106] Creating Layer conv1_3_3x3/bn
I0620 04:22:24.474102  2846 net.cpp:454] conv1_3_3x3/bn <- conv1_3_3x3
I0620 04:22:24.474105  2846 net.cpp:397] conv1_3_3x3/bn -> conv1_3_3x3 (in-place)
I0620 04:22:24.474251  2846 net.cpp:150] Setting up conv1_3_3x3/bn
I0620 04:22:24.474256  2846 net.cpp:157] Top shape: 1 128 200 200 (5120000)
I0620 04:22:24.474258  2846 net.cpp:165] Memory required for data: 104960008
I0620 04:22:24.474263  2846 layer_factory.hpp:77] Creating layer conv1_3_3x3/relu
I0620 04:22:24.474268  2846 net.cpp:106] Creating Layer conv1_3_3x3/relu
I0620 04:22:24.474272  2846 net.cpp:454] conv1_3_3x3/relu <- conv1_3_3x3
I0620 04:22:24.474274  2846 net.cpp:397] conv1_3_3x3/relu -> conv1_3_3x3 (in-place)
I0620 04:22:24.474278  2846 net.cpp:150] Setting up conv1_3_3x3/relu
I0620 04:22:24.474282  2846 net.cpp:157] Top shape: 1 128 200 200 (5120000)
I0620 04:22:24.474284  2846 net.cpp:165] Memory required for data: 125440008
I0620 04:22:24.474287  2846 layer_factory.hpp:77] Creating layer pool1_3x3_s2
I0620 04:22:24.474292  2846 net.cpp:106] Creating Layer pool1_3x3_s2
I0620 04:22:24.474293  2846 net.cpp:454] pool1_3x3_s2 <- conv1_3_3x3
I0620 04:22:24.474298  2846 net.cpp:411] pool1_3x3_s2 -> pool1_3x3_s2
I0620 04:22:24.474323  2846 net.cpp:150] Setting up pool1_3x3_s2
I0620 04:22:24.474326  2846 net.cpp:157] Top shape: 1 128 101 101 (1305728)
I0620 04:22:24.474339  2846 net.cpp:165] Memory required for data: 130662920
I0620 04:22:24.474341  2846 layer_factory.hpp:77] Creating layer pool1_3x3_s2_pool1_3x3_s2_0_split
I0620 04:22:24.474345  2846 net.cpp:106] Creating Layer pool1_3x3_s2_pool1_3x3_s2_0_split
I0620 04:22:24.474349  2846 net.cpp:454] pool1_3x3_s2_pool1_3x3_s2_0_split <- pool1_3x3_s2
I0620 04:22:24.474352  2846 net.cpp:411] pool1_3x3_s2_pool1_3x3_s2_0_split -> pool1_3x3_s2_pool1_3x3_s2_0_split_0
I0620 04:22:24.474356  2846 net.cpp:411] pool1_3x3_s2_pool1_3x3_s2_0_split -> pool1_3x3_s2_pool1_3x3_s2_0_split_1
I0620 04:22:24.474375  2846 net.cpp:150] Setting up pool1_3x3_s2_pool1_3x3_s2_0_split
I0620 04:22:24.474380  2846 net.cpp:157] Top shape: 1 128 101 101 (1305728)
I0620 04:22:24.474382  2846 net.cpp:157] Top shape: 1 128 101 101 (1305728)
I0620 04:22:24.474385  2846 net.cpp:165] Memory required for data: 141108744
I0620 04:22:24.474388  2846 layer_factory.hpp:77] Creating layer conv2_1_1x1_reduce
I0620 04:22:24.474393  2846 net.cpp:106] Creating Layer conv2_1_1x1_reduce
I0620 04:22:24.474396  2846 net.cpp:454] conv2_1_1x1_reduce <- pool1_3x3_s2_pool1_3x3_s2_0_split_0
I0620 04:22:24.474400  2846 net.cpp:411] conv2_1_1x1_reduce -> conv2_1_1x1_reduce
I0620 04:22:24.475406  2846 net.cpp:150] Setting up conv2_1_1x1_reduce
I0620 04:22:24.475435  2846 net.cpp:157] Top shape: 1 64 101 101 (652864)
I0620 04:22:24.475440  2846 net.cpp:165] Memory required for data: 143720200
I0620 04:22:24.475450  2846 layer_factory.hpp:77] Creating layer conv2_1_1x1_reduce/bn
I0620 04:22:24.475466  2846 net.cpp:106] Creating Layer conv2_1_1x1_reduce/bn
I0620 04:22:24.475469  2846 net.cpp:454] conv2_1_1x1_reduce/bn <- conv2_1_1x1_reduce
I0620 04:22:24.475474  2846 net.cpp:397] conv2_1_1x1_reduce/bn -> conv2_1_1x1_reduce (in-place)
I0620 04:22:24.475605  2846 net.cpp:150] Setting up conv2_1_1x1_reduce/bn
I0620 04:22:24.475610  2846 net.cpp:157] Top shape: 1 64 101 101 (652864)
I0620 04:22:24.475613  2846 net.cpp:165] Memory required for data: 146331656
I0620 04:22:24.475625  2846 layer_factory.hpp:77] Creating layer conv2_1_1x1_reduce/relu
I0620 04:22:24.475631  2846 net.cpp:106] Creating Layer conv2_1_1x1_reduce/relu
I0620 04:22:24.475634  2846 net.cpp:454] conv2_1_1x1_reduce/relu <- conv2_1_1x1_reduce
I0620 04:22:24.475639  2846 net.cpp:397] conv2_1_1x1_reduce/relu -> conv2_1_1x1_reduce (in-place)
I0620 04:22:24.475643  2846 net.cpp:150] Setting up conv2_1_1x1_reduce/relu
I0620 04:22:24.475647  2846 net.cpp:157] Top shape: 1 64 101 101 (652864)
I0620 04:22:24.475649  2846 net.cpp:165] Memory required for data: 148943112
I0620 04:22:24.475652  2846 layer_factory.hpp:77] Creating layer conv2_1_3x3
I0620 04:22:24.475659  2846 net.cpp:106] Creating Layer conv2_1_3x3
I0620 04:22:24.475662  2846 net.cpp:454] conv2_1_3x3 <- conv2_1_1x1_reduce
I0620 04:22:24.475666  2846 net.cpp:411] conv2_1_3x3 -> conv2_1_3x3
I0620 04:22:24.476570  2846 net.cpp:150] Setting up conv2_1_3x3
I0620 04:22:24.476578  2846 net.cpp:157] Top shape: 1 64 101 101 (652864)
I0620 04:22:24.476582  2846 net.cpp:165] Memory required for data: 151554568
I0620 04:22:24.476586  2846 layer_factory.hpp:77] Creating layer conv2_1_3x3/bn
I0620 04:22:24.476598  2846 net.cpp:106] Creating Layer conv2_1_3x3/bn
I0620 04:22:24.476600  2846 net.cpp:454] conv2_1_3x3/bn <- conv2_1_3x3
I0620 04:22:24.476605  2846 net.cpp:397] conv2_1_3x3/bn -> conv2_1_3x3 (in-place)
I0620 04:22:24.476735  2846 net.cpp:150] Setting up conv2_1_3x3/bn
I0620 04:22:24.476742  2846 net.cpp:157] Top shape: 1 64 101 101 (652864)
I0620 04:22:24.476744  2846 net.cpp:165] Memory required for data: 154166024
I0620 04:22:24.476750  2846 layer_factory.hpp:77] Creating layer conv2_1_3x3/relu
I0620 04:22:24.476758  2846 net.cpp:106] Creating Layer conv2_1_3x3/relu
I0620 04:22:24.476760  2846 net.cpp:454] conv2_1_3x3/relu <- conv2_1_3x3
I0620 04:22:24.476764  2846 net.cpp:397] conv2_1_3x3/relu -> conv2_1_3x3 (in-place)
I0620 04:22:24.476768  2846 net.cpp:150] Setting up conv2_1_3x3/relu
I0620 04:22:24.476771  2846 net.cpp:157] Top shape: 1 64 101 101 (652864)
I0620 04:22:24.476797  2846 net.cpp:165] Memory required for data: 156777480
I0620 04:22:24.476800  2846 layer_factory.hpp:77] Creating layer conv2_1_1x1_increase
I0620 04:22:24.476806  2846 net.cpp:106] Creating Layer conv2_1_1x1_increase
I0620 04:22:24.476809  2846 net.cpp:454] conv2_1_1x1_increase <- conv2_1_3x3
I0620 04:22:24.476815  2846 net.cpp:411] conv2_1_1x1_increase -> conv2_1_1x1_increase
I0620 04:22:24.477285  2846 net.cpp:150] Setting up conv2_1_1x1_increase
I0620 04:22:24.477290  2846 net.cpp:157] Top shape: 1 256 101 101 (2611456)
I0620 04:22:24.477293  2846 net.cpp:165] Memory required for data: 167223304
I0620 04:22:24.477298  2846 layer_factory.hpp:77] Creating layer conv2_1_1x1_increase/bn
I0620 04:22:24.477303  2846 net.cpp:106] Creating Layer conv2_1_1x1_increase/bn
I0620 04:22:24.477306  2846 net.cpp:454] conv2_1_1x1_increase/bn <- conv2_1_1x1_increase
I0620 04:22:24.477310  2846 net.cpp:397] conv2_1_1x1_increase/bn -> conv2_1_1x1_increase (in-place)
I0620 04:22:24.477427  2846 net.cpp:150] Setting up conv2_1_1x1_increase/bn
I0620 04:22:24.477430  2846 net.cpp:157] Top shape: 1 256 101 101 (2611456)
I0620 04:22:24.477433  2846 net.cpp:165] Memory required for data: 177669128
I0620 04:22:24.477438  2846 layer_factory.hpp:77] Creating layer conv2_1_1x1_proj
I0620 04:22:24.477444  2846 net.cpp:106] Creating Layer conv2_1_1x1_proj
I0620 04:22:24.477447  2846 net.cpp:454] conv2_1_1x1_proj <- pool1_3x3_s2_pool1_3x3_s2_0_split_1
I0620 04:22:24.477453  2846 net.cpp:411] conv2_1_1x1_proj -> conv2_1_1x1_proj
I0620 04:22:24.478274  2846 net.cpp:150] Setting up conv2_1_1x1_proj
I0620 04:22:24.478281  2846 net.cpp:157] Top shape: 1 256 101 101 (2611456)
I0620 04:22:24.478283  2846 net.cpp:165] Memory required for data: 188114952
I0620 04:22:24.478287  2846 layer_factory.hpp:77] Creating layer conv2_1_1x1_proj/bn
I0620 04:22:24.478292  2846 net.cpp:106] Creating Layer conv2_1_1x1_proj/bn
I0620 04:22:24.478296  2846 net.cpp:454] conv2_1_1x1_proj/bn <- conv2_1_1x1_proj
I0620 04:22:24.478298  2846 net.cpp:397] conv2_1_1x1_proj/bn -> conv2_1_1x1_proj (in-place)
I0620 04:22:24.478415  2846 net.cpp:150] Setting up conv2_1_1x1_proj/bn
I0620 04:22:24.478420  2846 net.cpp:157] Top shape: 1 256 101 101 (2611456)
I0620 04:22:24.478423  2846 net.cpp:165] Memory required for data: 198560776
I0620 04:22:24.478433  2846 layer_factory.hpp:77] Creating layer conv2_1
I0620 04:22:24.478451  2846 net.cpp:106] Creating Layer conv2_1
I0620 04:22:24.478453  2846 net.cpp:454] conv2_1 <- conv2_1_1x1_proj
I0620 04:22:24.478457  2846 net.cpp:454] conv2_1 <- conv2_1_1x1_increase
I0620 04:22:24.478461  2846 net.cpp:411] conv2_1 -> conv2_1
I0620 04:22:24.478482  2846 net.cpp:150] Setting up conv2_1
I0620 04:22:24.478485  2846 net.cpp:157] Top shape: 1 256 101 101 (2611456)
I0620 04:22:24.478488  2846 net.cpp:165] Memory required for data: 209006600
I0620 04:22:24.478492  2846 layer_factory.hpp:77] Creating layer conv2_1/relu
I0620 04:22:24.478495  2846 net.cpp:106] Creating Layer conv2_1/relu
I0620 04:22:24.478498  2846 net.cpp:454] conv2_1/relu <- conv2_1
I0620 04:22:24.478502  2846 net.cpp:397] conv2_1/relu -> conv2_1 (in-place)
I0620 04:22:24.478505  2846 net.cpp:150] Setting up conv2_1/relu
I0620 04:22:24.478508  2846 net.cpp:157] Top shape: 1 256 101 101 (2611456)
I0620 04:22:24.478512  2846 net.cpp:165] Memory required for data: 219452424
I0620 04:22:24.478514  2846 layer_factory.hpp:77] Creating layer conv2_1_conv2_1/relu_0_split
I0620 04:22:24.478518  2846 net.cpp:106] Creating Layer conv2_1_conv2_1/relu_0_split
I0620 04:22:24.478521  2846 net.cpp:454] conv2_1_conv2_1/relu_0_split <- conv2_1
I0620 04:22:24.478524  2846 net.cpp:411] conv2_1_conv2_1/relu_0_split -> conv2_1_conv2_1/relu_0_split_0
I0620 04:22:24.478528  2846 net.cpp:411] conv2_1_conv2_1/relu_0_split -> conv2_1_conv2_1/relu_0_split_1
I0620 04:22:24.478546  2846 net.cpp:150] Setting up conv2_1_conv2_1/relu_0_split
I0620 04:22:24.478550  2846 net.cpp:157] Top shape: 1 256 101 101 (2611456)
I0620 04:22:24.478554  2846 net.cpp:157] Top shape: 1 256 101 101 (2611456)
I0620 04:22:24.478564  2846 net.cpp:165] Memory required for data: 240344072
I0620 04:22:24.478566  2846 layer_factory.hpp:77] Creating layer conv2_2_1x1_reduce
I0620 04:22:24.478572  2846 net.cpp:106] Creating Layer conv2_2_1x1_reduce
I0620 04:22:24.478575  2846 net.cpp:454] conv2_2_1x1_reduce <- conv2_1_conv2_1/relu_0_split_0
I0620 04:22:24.478579  2846 net.cpp:411] conv2_2_1x1_reduce -> conv2_2_1x1_reduce
I0620 04:22:24.479919  2846 net.cpp:150] Setting up conv2_2_1x1_reduce
I0620 04:22:24.479931  2846 net.cpp:157] Top shape: 1 64 101 101 (652864)
I0620 04:22:24.479934  2846 net.cpp:165] Memory required for data: 242955528
I0620 04:22:24.479938  2846 layer_factory.hpp:77] Creating layer conv2_2_1x1_reduce/bn
I0620 04:22:24.479944  2846 net.cpp:106] Creating Layer conv2_2_1x1_reduce/bn
I0620 04:22:24.479948  2846 net.cpp:454] conv2_2_1x1_reduce/bn <- conv2_2_1x1_reduce
I0620 04:22:24.479951  2846 net.cpp:397] conv2_2_1x1_reduce/bn -> conv2_2_1x1_reduce (in-place)
I0620 04:22:24.480080  2846 net.cpp:150] Setting up conv2_2_1x1_reduce/bn
I0620 04:22:24.480085  2846 net.cpp:157] Top shape: 1 64 101 101 (652864)
I0620 04:22:24.480088  2846 net.cpp:165] Memory required for data: 245566984
I0620 04:22:24.480093  2846 layer_factory.hpp:77] Creating layer conv2_2_1x1_reduce/relu
I0620 04:22:24.480098  2846 net.cpp:106] Creating Layer conv2_2_1x1_reduce/relu
I0620 04:22:24.480100  2846 net.cpp:454] conv2_2_1x1_reduce/relu <- conv2_2_1x1_reduce
I0620 04:22:24.480104  2846 net.cpp:397] conv2_2_1x1_reduce/relu -> conv2_2_1x1_reduce (in-place)
I0620 04:22:24.480108  2846 net.cpp:150] Setting up conv2_2_1x1_reduce/relu
I0620 04:22:24.480111  2846 net.cpp:157] Top shape: 1 64 101 101 (652864)
I0620 04:22:24.480114  2846 net.cpp:165] Memory required for data: 248178440
I0620 04:22:24.480116  2846 layer_factory.hpp:77] Creating layer conv2_2_3x3
I0620 04:22:24.480123  2846 net.cpp:106] Creating Layer conv2_2_3x3
I0620 04:22:24.480126  2846 net.cpp:454] conv2_2_3x3 <- conv2_2_1x1_reduce
I0620 04:22:24.480131  2846 net.cpp:411] conv2_2_3x3 -> conv2_2_3x3
I0620 04:22:24.481004  2846 net.cpp:150] Setting up conv2_2_3x3
I0620 04:22:24.481009  2846 net.cpp:157] Top shape: 1 64 101 101 (652864)
I0620 04:22:24.481011  2846 net.cpp:165] Memory required for data: 250789896
I0620 04:22:24.481015  2846 layer_factory.hpp:77] Creating layer conv2_2_3x3/bn
I0620 04:22:24.481020  2846 net.cpp:106] Creating Layer conv2_2_3x3/bn
I0620 04:22:24.481022  2846 net.cpp:454] conv2_2_3x3/bn <- conv2_2_3x3
I0620 04:22:24.481026  2846 net.cpp:397] conv2_2_3x3/bn -> conv2_2_3x3 (in-place)
I0620 04:22:24.481148  2846 net.cpp:150] Setting up conv2_2_3x3/bn
I0620 04:22:24.481153  2846 net.cpp:157] Top shape: 1 64 101 101 (652864)
I0620 04:22:24.481155  2846 net.cpp:165] Memory required for data: 253401352
I0620 04:22:24.481160  2846 layer_factory.hpp:77] Creating layer conv2_2_3x3/relu
I0620 04:22:24.481164  2846 net.cpp:106] Creating Layer conv2_2_3x3/relu
I0620 04:22:24.481168  2846 net.cpp:454] conv2_2_3x3/relu <- conv2_2_3x3
I0620 04:22:24.481171  2846 net.cpp:397] conv2_2_3x3/relu -> conv2_2_3x3 (in-place)
I0620 04:22:24.481175  2846 net.cpp:150] Setting up conv2_2_3x3/relu
I0620 04:22:24.481178  2846 net.cpp:157] Top shape: 1 64 101 101 (652864)
I0620 04:22:24.481181  2846 net.cpp:165] Memory required for data: 256012808
I0620 04:22:24.481184  2846 layer_factory.hpp:77] Creating layer conv2_2_1x1_increase
I0620 04:22:24.481189  2846 net.cpp:106] Creating Layer conv2_2_1x1_increase
I0620 04:22:24.481192  2846 net.cpp:454] conv2_2_1x1_increase <- conv2_2_3x3
I0620 04:22:24.481196  2846 net.cpp:411] conv2_2_1x1_increase -> conv2_2_1x1_increase
I0620 04:22:24.481647  2846 net.cpp:150] Setting up conv2_2_1x1_increase
I0620 04:22:24.481653  2846 net.cpp:157] Top shape: 1 256 101 101 (2611456)
I0620 04:22:24.481655  2846 net.cpp:165] Memory required for data: 266458632
I0620 04:22:24.481659  2846 layer_factory.hpp:77] Creating layer conv2_2_1x1_increase/bn
I0620 04:22:24.481667  2846 net.cpp:106] Creating Layer conv2_2_1x1_increase/bn
I0620 04:22:24.481678  2846 net.cpp:454] conv2_2_1x1_increase/bn <- conv2_2_1x1_increase
I0620 04:22:24.481683  2846 net.cpp:397] conv2_2_1x1_increase/bn -> conv2_2_1x1_increase (in-place)
I0620 04:22:24.481808  2846 net.cpp:150] Setting up conv2_2_1x1_increase/bn
I0620 04:22:24.481813  2846 net.cpp:157] Top shape: 1 256 101 101 (2611456)
I0620 04:22:24.481817  2846 net.cpp:165] Memory required for data: 276904456
I0620 04:22:24.481822  2846 layer_factory.hpp:77] Creating layer conv2_2
I0620 04:22:24.481827  2846 net.cpp:106] Creating Layer conv2_2
I0620 04:22:24.481829  2846 net.cpp:454] conv2_2 <- conv2_1_conv2_1/relu_0_split_1
I0620 04:22:24.481832  2846 net.cpp:454] conv2_2 <- conv2_2_1x1_increase
I0620 04:22:24.481837  2846 net.cpp:411] conv2_2 -> conv2_2
I0620 04:22:24.481850  2846 net.cpp:150] Setting up conv2_2
I0620 04:22:24.481854  2846 net.cpp:157] Top shape: 1 256 101 101 (2611456)
I0620 04:22:24.481856  2846 net.cpp:165] Memory required for data: 287350280
I0620 04:22:24.481859  2846 layer_factory.hpp:77] Creating layer conv2_2/relu
I0620 04:22:24.481863  2846 net.cpp:106] Creating Layer conv2_2/relu
I0620 04:22:24.481865  2846 net.cpp:454] conv2_2/relu <- conv2_2
I0620 04:22:24.481868  2846 net.cpp:397] conv2_2/relu -> conv2_2 (in-place)
I0620 04:22:24.481873  2846 net.cpp:150] Setting up conv2_2/relu
I0620 04:22:24.481875  2846 net.cpp:157] Top shape: 1 256 101 101 (2611456)
I0620 04:22:24.481878  2846 net.cpp:165] Memory required for data: 297796104
I0620 04:22:24.481881  2846 layer_factory.hpp:77] Creating layer conv2_2_conv2_2/relu_0_split
I0620 04:22:24.481886  2846 net.cpp:106] Creating Layer conv2_2_conv2_2/relu_0_split
I0620 04:22:24.481889  2846 net.cpp:454] conv2_2_conv2_2/relu_0_split <- conv2_2
I0620 04:22:24.481896  2846 net.cpp:411] conv2_2_conv2_2/relu_0_split -> conv2_2_conv2_2/relu_0_split_0
I0620 04:22:24.481900  2846 net.cpp:411] conv2_2_conv2_2/relu_0_split -> conv2_2_conv2_2/relu_0_split_1
I0620 04:22:24.481920  2846 net.cpp:150] Setting up conv2_2_conv2_2/relu_0_split
I0620 04:22:24.481925  2846 net.cpp:157] Top shape: 1 256 101 101 (2611456)
I0620 04:22:24.481927  2846 net.cpp:157] Top shape: 1 256 101 101 (2611456)
I0620 04:22:24.481930  2846 net.cpp:165] Memory required for data: 318687752
I0620 04:22:24.481932  2846 layer_factory.hpp:77] Creating layer conv2_3_1x1_reduce
I0620 04:22:24.481938  2846 net.cpp:106] Creating Layer conv2_3_1x1_reduce
I0620 04:22:24.481941  2846 net.cpp:454] conv2_3_1x1_reduce <- conv2_2_conv2_2/relu_0_split_0
I0620 04:22:24.481945  2846 net.cpp:411] conv2_3_1x1_reduce -> conv2_3_1x1_reduce
I0620 04:22:24.482393  2846 net.cpp:150] Setting up conv2_3_1x1_reduce
I0620 04:22:24.482398  2846 net.cpp:157] Top shape: 1 64 101 101 (652864)
I0620 04:22:24.482400  2846 net.cpp:165] Memory required for data: 321299208
I0620 04:22:24.482404  2846 layer_factory.hpp:77] Creating layer conv2_3_1x1_reduce/bn
I0620 04:22:24.482410  2846 net.cpp:106] Creating Layer conv2_3_1x1_reduce/bn
I0620 04:22:24.482412  2846 net.cpp:454] conv2_3_1x1_reduce/bn <- conv2_3_1x1_reduce
I0620 04:22:24.482416  2846 net.cpp:397] conv2_3_1x1_reduce/bn -> conv2_3_1x1_reduce (in-place)
I0620 04:22:24.482543  2846 net.cpp:150] Setting up conv2_3_1x1_reduce/bn
I0620 04:22:24.482547  2846 net.cpp:157] Top shape: 1 64 101 101 (652864)
I0620 04:22:24.482550  2846 net.cpp:165] Memory required for data: 323910664
I0620 04:22:24.482555  2846 layer_factory.hpp:77] Creating layer conv2_3_1x1_reduce/relu
I0620 04:22:24.482560  2846 net.cpp:106] Creating Layer conv2_3_1x1_reduce/relu
I0620 04:22:24.482563  2846 net.cpp:454] conv2_3_1x1_reduce/relu <- conv2_3_1x1_reduce
I0620 04:22:24.482568  2846 net.cpp:397] conv2_3_1x1_reduce/relu -> conv2_3_1x1_reduce (in-place)
I0620 04:22:24.482571  2846 net.cpp:150] Setting up conv2_3_1x1_reduce/relu
I0620 04:22:24.482575  2846 net.cpp:157] Top shape: 1 64 101 101 (652864)
I0620 04:22:24.482578  2846 net.cpp:165] Memory required for data: 326522120
I0620 04:22:24.482580  2846 layer_factory.hpp:77] Creating layer conv2_3_3x3
I0620 04:22:24.482587  2846 net.cpp:106] Creating Layer conv2_3_3x3
I0620 04:22:24.482597  2846 net.cpp:454] conv2_3_3x3 <- conv2_3_1x1_reduce
I0620 04:22:24.482601  2846 net.cpp:411] conv2_3_3x3 -> conv2_3_3x3
I0620 04:22:24.483546  2846 net.cpp:150] Setting up conv2_3_3x3
I0620 04:22:24.483563  2846 net.cpp:157] Top shape: 1 64 101 101 (652864)
I0620 04:22:24.483573  2846 net.cpp:165] Memory required for data: 329133576
I0620 04:22:24.483578  2846 layer_factory.hpp:77] Creating layer conv2_3_3x3/bn
I0620 04:22:24.483588  2846 net.cpp:106] Creating Layer conv2_3_3x3/bn
I0620 04:22:24.483592  2846 net.cpp:454] conv2_3_3x3/bn <- conv2_3_3x3
I0620 04:22:24.483600  2846 net.cpp:397] conv2_3_3x3/bn -> conv2_3_3x3 (in-place)
I0620 04:22:24.483775  2846 net.cpp:150] Setting up conv2_3_3x3/bn
I0620 04:22:24.483783  2846 net.cpp:157] Top shape: 1 64 101 101 (652864)
I0620 04:22:24.483786  2846 net.cpp:165] Memory required for data: 331745032
I0620 04:22:24.483793  2846 layer_factory.hpp:77] Creating layer conv2_3_3x3/relu
I0620 04:22:24.483800  2846 net.cpp:106] Creating Layer conv2_3_3x3/relu
I0620 04:22:24.483804  2846 net.cpp:454] conv2_3_3x3/relu <- conv2_3_3x3
I0620 04:22:24.483809  2846 net.cpp:397] conv2_3_3x3/relu -> conv2_3_3x3 (in-place)
I0620 04:22:24.483815  2846 net.cpp:150] Setting up conv2_3_3x3/relu
I0620 04:22:24.483820  2846 net.cpp:157] Top shape: 1 64 101 101 (652864)
I0620 04:22:24.483824  2846 net.cpp:165] Memory required for data: 334356488
I0620 04:22:24.483827  2846 layer_factory.hpp:77] Creating layer conv2_3_1x1_increase
I0620 04:22:24.483836  2846 net.cpp:106] Creating Layer conv2_3_1x1_increase
I0620 04:22:24.483840  2846 net.cpp:454] conv2_3_1x1_increase <- conv2_3_3x3
I0620 04:22:24.483847  2846 net.cpp:411] conv2_3_1x1_increase -> conv2_3_1x1_increase
I0620 04:22:24.484334  2846 net.cpp:150] Setting up conv2_3_1x1_increase
I0620 04:22:24.484340  2846 net.cpp:157] Top shape: 1 256 101 101 (2611456)
I0620 04:22:24.484344  2846 net.cpp:165] Memory required for data: 344802312
I0620 04:22:24.484347  2846 layer_factory.hpp:77] Creating layer conv2_3_1x1_increase/bn
I0620 04:22:24.484351  2846 net.cpp:106] Creating Layer conv2_3_1x1_increase/bn
I0620 04:22:24.484354  2846 net.cpp:454] conv2_3_1x1_increase/bn <- conv2_3_1x1_increase
I0620 04:22:24.484359  2846 net.cpp:397] conv2_3_1x1_increase/bn -> conv2_3_1x1_increase (in-place)
I0620 04:22:24.484478  2846 net.cpp:150] Setting up conv2_3_1x1_increase/bn
I0620 04:22:24.484483  2846 net.cpp:157] Top shape: 1 256 101 101 (2611456)
I0620 04:22:24.484485  2846 net.cpp:165] Memory required for data: 355248136
I0620 04:22:24.484499  2846 layer_factory.hpp:77] Creating layer conv2_3
I0620 04:22:24.484506  2846 net.cpp:106] Creating Layer conv2_3
I0620 04:22:24.484509  2846 net.cpp:454] conv2_3 <- conv2_2_conv2_2/relu_0_split_1
I0620 04:22:24.484513  2846 net.cpp:454] conv2_3 <- conv2_3_1x1_increase
I0620 04:22:24.484516  2846 net.cpp:411] conv2_3 -> conv2_3
I0620 04:22:24.484541  2846 net.cpp:150] Setting up conv2_3
I0620 04:22:24.484547  2846 net.cpp:157] Top shape: 1 256 101 101 (2611456)
I0620 04:22:24.484550  2846 net.cpp:165] Memory required for data: 365693960
I0620 04:22:24.484553  2846 layer_factory.hpp:77] Creating layer conv2_3/relu
I0620 04:22:24.484557  2846 net.cpp:106] Creating Layer conv2_3/relu
I0620 04:22:24.484560  2846 net.cpp:454] conv2_3/relu <- conv2_3
I0620 04:22:24.484563  2846 net.cpp:397] conv2_3/relu -> conv2_3 (in-place)
I0620 04:22:24.484567  2846 net.cpp:150] Setting up conv2_3/relu
I0620 04:22:24.484570  2846 net.cpp:157] Top shape: 1 256 101 101 (2611456)
I0620 04:22:24.484572  2846 net.cpp:165] Memory required for data: 376139784
I0620 04:22:24.484575  2846 layer_factory.hpp:77] Creating layer conv2_3_conv2_3/relu_0_split
I0620 04:22:24.484580  2846 net.cpp:106] Creating Layer conv2_3_conv2_3/relu_0_split
I0620 04:22:24.484582  2846 net.cpp:454] conv2_3_conv2_3/relu_0_split <- conv2_3
I0620 04:22:24.484587  2846 net.cpp:411] conv2_3_conv2_3/relu_0_split -> conv2_3_conv2_3/relu_0_split_0
I0620 04:22:24.484591  2846 net.cpp:411] conv2_3_conv2_3/relu_0_split -> conv2_3_conv2_3/relu_0_split_1
I0620 04:22:24.484622  2846 net.cpp:150] Setting up conv2_3_conv2_3/relu_0_split
I0620 04:22:24.484627  2846 net.cpp:157] Top shape: 1 256 101 101 (2611456)
I0620 04:22:24.484632  2846 net.cpp:157] Top shape: 1 256 101 101 (2611456)
I0620 04:22:24.484633  2846 net.cpp:165] Memory required for data: 397031432
I0620 04:22:24.484637  2846 layer_factory.hpp:77] Creating layer conv3_1_1x1_reduce
I0620 04:22:24.484642  2846 net.cpp:106] Creating Layer conv3_1_1x1_reduce
I0620 04:22:24.484645  2846 net.cpp:454] conv3_1_1x1_reduce <- conv2_3_conv2_3/relu_0_split_0
I0620 04:22:24.484649  2846 net.cpp:411] conv3_1_1x1_reduce -> conv3_1_1x1_reduce
I0620 04:22:24.486253  2846 net.cpp:150] Setting up conv3_1_1x1_reduce
I0620 04:22:24.486264  2846 net.cpp:157] Top shape: 1 128 101 101 (1305728)
I0620 04:22:24.486268  2846 net.cpp:165] Memory required for data: 402254344
I0620 04:22:24.486271  2846 layer_factory.hpp:77] Creating layer conv3_1_1x1_reduce/bn
I0620 04:22:24.505890  2846 net.cpp:106] Creating Layer conv3_1_1x1_reduce/bn
I0620 04:22:24.505941  2846 net.cpp:454] conv3_1_1x1_reduce/bn <- conv3_1_1x1_reduce
I0620 04:22:24.505961  2846 net.cpp:397] conv3_1_1x1_reduce/bn -> conv3_1_1x1_reduce (in-place)
I0620 04:22:24.506392  2846 net.cpp:150] Setting up conv3_1_1x1_reduce/bn
I0620 04:22:24.506417  2846 net.cpp:157] Top shape: 1 128 101 101 (1305728)
I0620 04:22:24.506427  2846 net.cpp:165] Memory required for data: 407477256
I0620 04:22:24.506441  2846 layer_factory.hpp:77] Creating layer conv3_1_1x1_reduce/relu
I0620 04:22:24.506454  2846 net.cpp:106] Creating Layer conv3_1_1x1_reduce/relu
I0620 04:22:24.506459  2846 net.cpp:454] conv3_1_1x1_reduce/relu <- conv3_1_1x1_reduce
I0620 04:22:24.506465  2846 net.cpp:397] conv3_1_1x1_reduce/relu -> conv3_1_1x1_reduce (in-place)
I0620 04:22:24.506475  2846 net.cpp:150] Setting up conv3_1_1x1_reduce/relu
I0620 04:22:24.506482  2846 net.cpp:157] Top shape: 1 128 101 101 (1305728)
I0620 04:22:24.506486  2846 net.cpp:165] Memory required for data: 412700168
I0620 04:22:24.506491  2846 layer_factory.hpp:77] Creating layer conv3_1_3x3
I0620 04:22:24.506506  2846 net.cpp:106] Creating Layer conv3_1_3x3
I0620 04:22:24.506510  2846 net.cpp:454] conv3_1_3x3 <- conv3_1_1x1_reduce
I0620 04:22:24.506518  2846 net.cpp:411] conv3_1_3x3 -> conv3_1_3x3
I0620 04:22:24.512512  2846 net.cpp:150] Setting up conv3_1_3x3
I0620 04:22:24.512539  2846 net.cpp:157] Top shape: 1 128 51 51 (332928)
I0620 04:22:24.512542  2846 net.cpp:165] Memory required for data: 414031880
I0620 04:22:24.512549  2846 layer_factory.hpp:77] Creating layer conv3_1_3x3/bn
I0620 04:22:24.512563  2846 net.cpp:106] Creating Layer conv3_1_3x3/bn
I0620 04:22:24.512570  2846 net.cpp:454] conv3_1_3x3/bn <- conv3_1_3x3
I0620 04:22:24.512588  2846 net.cpp:397] conv3_1_3x3/bn -> conv3_1_3x3 (in-place)
I0620 04:22:24.512740  2846 net.cpp:150] Setting up conv3_1_3x3/bn
I0620 04:22:24.512748  2846 net.cpp:157] Top shape: 1 128 51 51 (332928)
I0620 04:22:24.512751  2846 net.cpp:165] Memory required for data: 415363592
I0620 04:22:24.512759  2846 layer_factory.hpp:77] Creating layer conv3_1_3x3/relu
I0620 04:22:24.512769  2846 net.cpp:106] Creating Layer conv3_1_3x3/relu
I0620 04:22:24.512773  2846 net.cpp:454] conv3_1_3x3/relu <- conv3_1_3x3
I0620 04:22:24.512778  2846 net.cpp:397] conv3_1_3x3/relu -> conv3_1_3x3 (in-place)
I0620 04:22:24.512786  2846 net.cpp:150] Setting up conv3_1_3x3/relu
I0620 04:22:24.512791  2846 net.cpp:157] Top shape: 1 128 51 51 (332928)
I0620 04:22:24.512795  2846 net.cpp:165] Memory required for data: 416695304
I0620 04:22:24.512799  2846 layer_factory.hpp:77] Creating layer conv3_1_1x1_increase
I0620 04:22:24.512807  2846 net.cpp:106] Creating Layer conv3_1_1x1_increase
I0620 04:22:24.512811  2846 net.cpp:454] conv3_1_1x1_increase <- conv3_1_3x3
I0620 04:22:24.512818  2846 net.cpp:411] conv3_1_1x1_increase -> conv3_1_1x1_increase
I0620 04:22:24.514827  2846 net.cpp:150] Setting up conv3_1_1x1_increase
I0620 04:22:24.514835  2846 net.cpp:157] Top shape: 1 512 51 51 (1331712)
I0620 04:22:24.514839  2846 net.cpp:165] Memory required for data: 422022152
I0620 04:22:24.514858  2846 layer_factory.hpp:77] Creating layer conv3_1_1x1_increase/bn
I0620 04:22:24.514868  2846 net.cpp:106] Creating Layer conv3_1_1x1_increase/bn
I0620 04:22:24.514871  2846 net.cpp:454] conv3_1_1x1_increase/bn <- conv3_1_1x1_increase
I0620 04:22:24.514878  2846 net.cpp:397] conv3_1_1x1_increase/bn -> conv3_1_1x1_increase (in-place)
I0620 04:22:24.515913  2846 net.cpp:150] Setting up conv3_1_1x1_increase/bn
I0620 04:22:24.515924  2846 net.cpp:157] Top shape: 1 512 51 51 (1331712)
I0620 04:22:24.515928  2846 net.cpp:165] Memory required for data: 427349000
I0620 04:22:24.515938  2846 layer_factory.hpp:77] Creating layer conv3_1_1x1_proj
I0620 04:22:24.515946  2846 net.cpp:106] Creating Layer conv3_1_1x1_proj
I0620 04:22:24.515951  2846 net.cpp:454] conv3_1_1x1_proj <- conv2_3_conv2_3/relu_0_split_1
I0620 04:22:24.515959  2846 net.cpp:411] conv3_1_1x1_proj -> conv3_1_1x1_proj
I0620 04:22:24.519767  2846 net.cpp:150] Setting up conv3_1_1x1_proj
I0620 04:22:24.519803  2846 net.cpp:157] Top shape: 1 512 51 51 (1331712)
I0620 04:22:24.519807  2846 net.cpp:165] Memory required for data: 432675848
I0620 04:22:24.519816  2846 layer_factory.hpp:77] Creating layer conv3_1_1x1_proj/bn
I0620 04:22:24.519832  2846 net.cpp:106] Creating Layer conv3_1_1x1_proj/bn
I0620 04:22:24.519839  2846 net.cpp:454] conv3_1_1x1_proj/bn <- conv3_1_1x1_proj
I0620 04:22:24.519847  2846 net.cpp:397] conv3_1_1x1_proj/bn -> conv3_1_1x1_proj (in-place)
I0620 04:22:24.520048  2846 net.cpp:150] Setting up conv3_1_1x1_proj/bn
I0620 04:22:24.520056  2846 net.cpp:157] Top shape: 1 512 51 51 (1331712)
I0620 04:22:24.520059  2846 net.cpp:165] Memory required for data: 438002696
I0620 04:22:24.520069  2846 layer_factory.hpp:77] Creating layer conv3_1
I0620 04:22:24.520077  2846 net.cpp:106] Creating Layer conv3_1
I0620 04:22:24.520082  2846 net.cpp:454] conv3_1 <- conv3_1_1x1_proj
I0620 04:22:24.520087  2846 net.cpp:454] conv3_1 <- conv3_1_1x1_increase
I0620 04:22:24.520092  2846 net.cpp:411] conv3_1 -> conv3_1
I0620 04:22:24.520117  2846 net.cpp:150] Setting up conv3_1
I0620 04:22:24.520123  2846 net.cpp:157] Top shape: 1 512 51 51 (1331712)
I0620 04:22:24.520128  2846 net.cpp:165] Memory required for data: 443329544
I0620 04:22:24.520131  2846 layer_factory.hpp:77] Creating layer conv3_1/relu
I0620 04:22:24.520139  2846 net.cpp:106] Creating Layer conv3_1/relu
I0620 04:22:24.520143  2846 net.cpp:454] conv3_1/relu <- conv3_1
I0620 04:22:24.520148  2846 net.cpp:397] conv3_1/relu -> conv3_1 (in-place)
I0620 04:22:24.520154  2846 net.cpp:150] Setting up conv3_1/relu
I0620 04:22:24.520160  2846 net.cpp:157] Top shape: 1 512 51 51 (1331712)
I0620 04:22:24.520164  2846 net.cpp:165] Memory required for data: 448656392
I0620 04:22:24.520167  2846 layer_factory.hpp:77] Creating layer conv3_1_conv3_1/relu_0_split
I0620 04:22:24.520174  2846 net.cpp:106] Creating Layer conv3_1_conv3_1/relu_0_split
I0620 04:22:24.520179  2846 net.cpp:454] conv3_1_conv3_1/relu_0_split <- conv3_1
I0620 04:22:24.520184  2846 net.cpp:411] conv3_1_conv3_1/relu_0_split -> conv3_1_conv3_1/relu_0_split_0
I0620 04:22:24.520190  2846 net.cpp:411] conv3_1_conv3_1/relu_0_split -> conv3_1_conv3_1/relu_0_split_1
I0620 04:22:24.520217  2846 net.cpp:150] Setting up conv3_1_conv3_1/relu_0_split
I0620 04:22:24.520223  2846 net.cpp:157] Top shape: 1 512 51 51 (1331712)
I0620 04:22:24.520228  2846 net.cpp:157] Top shape: 1 512 51 51 (1331712)
I0620 04:22:24.520232  2846 net.cpp:165] Memory required for data: 459310088
I0620 04:22:24.520236  2846 layer_factory.hpp:77] Creating layer conv3_2_1x1_reduce
I0620 04:22:24.520246  2846 net.cpp:106] Creating Layer conv3_2_1x1_reduce
I0620 04:22:24.520251  2846 net.cpp:454] conv3_2_1x1_reduce <- conv3_1_conv3_1/relu_0_split_0
I0620 04:22:24.520256  2846 net.cpp:411] conv3_2_1x1_reduce -> conv3_2_1x1_reduce
I0620 04:22:24.522173  2846 net.cpp:150] Setting up conv3_2_1x1_reduce
I0620 04:22:24.522181  2846 net.cpp:157] Top shape: 1 128 51 51 (332928)
I0620 04:22:24.522184  2846 net.cpp:165] Memory required for data: 460641800
I0620 04:22:24.522219  2846 layer_factory.hpp:77] Creating layer conv3_2_1x1_reduce/bn
I0620 04:22:24.522228  2846 net.cpp:106] Creating Layer conv3_2_1x1_reduce/bn
I0620 04:22:24.522230  2846 net.cpp:454] conv3_2_1x1_reduce/bn <- conv3_2_1x1_reduce
I0620 04:22:24.522234  2846 net.cpp:397] conv3_2_1x1_reduce/bn -> conv3_2_1x1_reduce (in-place)
I0620 04:22:24.522367  2846 net.cpp:150] Setting up conv3_2_1x1_reduce/bn
I0620 04:22:24.522372  2846 net.cpp:157] Top shape: 1 128 51 51 (332928)
I0620 04:22:24.522373  2846 net.cpp:165] Memory required for data: 461973512
I0620 04:22:24.522378  2846 layer_factory.hpp:77] Creating layer conv3_2_1x1_reduce/relu
I0620 04:22:24.522383  2846 net.cpp:106] Creating Layer conv3_2_1x1_reduce/relu
I0620 04:22:24.522387  2846 net.cpp:454] conv3_2_1x1_reduce/relu <- conv3_2_1x1_reduce
I0620 04:22:24.522389  2846 net.cpp:397] conv3_2_1x1_reduce/relu -> conv3_2_1x1_reduce (in-place)
I0620 04:22:24.522393  2846 net.cpp:150] Setting up conv3_2_1x1_reduce/relu
I0620 04:22:24.522397  2846 net.cpp:157] Top shape: 1 128 51 51 (332928)
I0620 04:22:24.522399  2846 net.cpp:165] Memory required for data: 463305224
I0620 04:22:24.522402  2846 layer_factory.hpp:77] Creating layer conv3_2_3x3
I0620 04:22:24.522408  2846 net.cpp:106] Creating Layer conv3_2_3x3
I0620 04:22:24.522410  2846 net.cpp:454] conv3_2_3x3 <- conv3_2_1x1_reduce
I0620 04:22:24.522415  2846 net.cpp:411] conv3_2_3x3 -> conv3_2_3x3
I0620 04:22:24.525723  2846 net.cpp:150] Setting up conv3_2_3x3
I0620 04:22:24.525735  2846 net.cpp:157] Top shape: 1 128 51 51 (332928)
I0620 04:22:24.525738  2846 net.cpp:165] Memory required for data: 464636936
I0620 04:22:24.525743  2846 layer_factory.hpp:77] Creating layer conv3_2_3x3/bn
I0620 04:22:24.525776  2846 net.cpp:106] Creating Layer conv3_2_3x3/bn
I0620 04:22:24.525780  2846 net.cpp:454] conv3_2_3x3/bn <- conv3_2_3x3
I0620 04:22:24.525784  2846 net.cpp:397] conv3_2_3x3/bn -> conv3_2_3x3 (in-place)
I0620 04:22:24.525904  2846 net.cpp:150] Setting up conv3_2_3x3/bn
I0620 04:22:24.525909  2846 net.cpp:157] Top shape: 1 128 51 51 (332928)
I0620 04:22:24.525913  2846 net.cpp:165] Memory required for data: 465968648
I0620 04:22:24.525918  2846 layer_factory.hpp:77] Creating layer conv3_2_3x3/relu
I0620 04:22:24.525920  2846 net.cpp:106] Creating Layer conv3_2_3x3/relu
I0620 04:22:24.525923  2846 net.cpp:454] conv3_2_3x3/relu <- conv3_2_3x3
I0620 04:22:24.525925  2846 net.cpp:397] conv3_2_3x3/relu -> conv3_2_3x3 (in-place)
I0620 04:22:24.525929  2846 net.cpp:150] Setting up conv3_2_3x3/relu
I0620 04:22:24.525931  2846 net.cpp:157] Top shape: 1 128 51 51 (332928)
I0620 04:22:24.525933  2846 net.cpp:165] Memory required for data: 467300360
I0620 04:22:24.525936  2846 layer_factory.hpp:77] Creating layer conv3_2_1x1_increase
I0620 04:22:24.525941  2846 net.cpp:106] Creating Layer conv3_2_1x1_increase
I0620 04:22:24.525943  2846 net.cpp:454] conv3_2_1x1_increase <- conv3_2_3x3
I0620 04:22:24.525950  2846 net.cpp:411] conv3_2_1x1_increase -> conv3_2_1x1_increase
I0620 04:22:24.528117  2846 net.cpp:150] Setting up conv3_2_1x1_increase
I0620 04:22:24.528131  2846 net.cpp:157] Top shape: 1 512 51 51 (1331712)
I0620 04:22:24.528134  2846 net.cpp:165] Memory required for data: 472627208
I0620 04:22:24.528138  2846 layer_factory.hpp:77] Creating layer conv3_2_1x1_increase/bn
I0620 04:22:24.528146  2846 net.cpp:106] Creating Layer conv3_2_1x1_increase/bn
I0620 04:22:24.528148  2846 net.cpp:454] conv3_2_1x1_increase/bn <- conv3_2_1x1_increase
I0620 04:22:24.528152  2846 net.cpp:397] conv3_2_1x1_increase/bn -> conv3_2_1x1_increase (in-place)
I0620 04:22:24.528282  2846 net.cpp:150] Setting up conv3_2_1x1_increase/bn
I0620 04:22:24.528286  2846 net.cpp:157] Top shape: 1 512 51 51 (1331712)
I0620 04:22:24.528290  2846 net.cpp:165] Memory required for data: 477954056
I0620 04:22:24.528295  2846 layer_factory.hpp:77] Creating layer conv3_2
I0620 04:22:24.528301  2846 net.cpp:106] Creating Layer conv3_2
I0620 04:22:24.528303  2846 net.cpp:454] conv3_2 <- conv3_1_conv3_1/relu_0_split_1
I0620 04:22:24.528318  2846 net.cpp:454] conv3_2 <- conv3_2_1x1_increase
I0620 04:22:24.528322  2846 net.cpp:411] conv3_2 -> conv3_2
I0620 04:22:24.528337  2846 net.cpp:150] Setting up conv3_2
I0620 04:22:24.528342  2846 net.cpp:157] Top shape: 1 512 51 51 (1331712)
I0620 04:22:24.528343  2846 net.cpp:165] Memory required for data: 483280904
I0620 04:22:24.528347  2846 layer_factory.hpp:77] Creating layer conv3_2/relu
I0620 04:22:24.528352  2846 net.cpp:106] Creating Layer conv3_2/relu
I0620 04:22:24.534525  2846 net.cpp:454] conv3_2/relu <- conv3_2
I0620 04:22:24.534533  2846 net.cpp:397] conv3_2/relu -> conv3_2 (in-place)
I0620 04:22:24.534539  2846 net.cpp:150] Setting up conv3_2/relu
I0620 04:22:24.534544  2846 net.cpp:157] Top shape: 1 512 51 51 (1331712)
I0620 04:22:24.534548  2846 net.cpp:165] Memory required for data: 488607752
I0620 04:22:24.534553  2846 layer_factory.hpp:77] Creating layer conv3_2_conv3_2/relu_0_split
I0620 04:22:24.534557  2846 net.cpp:106] Creating Layer conv3_2_conv3_2/relu_0_split
I0620 04:22:24.534561  2846 net.cpp:454] conv3_2_conv3_2/relu_0_split <- conv3_2
I0620 04:22:24.534569  2846 net.cpp:411] conv3_2_conv3_2/relu_0_split -> conv3_2_conv3_2/relu_0_split_0
I0620 04:22:24.534574  2846 net.cpp:411] conv3_2_conv3_2/relu_0_split -> conv3_2_conv3_2/relu_0_split_1
I0620 04:22:24.534605  2846 net.cpp:150] Setting up conv3_2_conv3_2/relu_0_split
I0620 04:22:24.534611  2846 net.cpp:157] Top shape: 1 512 51 51 (1331712)
I0620 04:22:24.534616  2846 net.cpp:157] Top shape: 1 512 51 51 (1331712)
I0620 04:22:24.534620  2846 net.cpp:165] Memory required for data: 499261448
I0620 04:22:24.534623  2846 layer_factory.hpp:77] Creating layer conv3_3_1x1_reduce
I0620 04:22:24.534631  2846 net.cpp:106] Creating Layer conv3_3_1x1_reduce
I0620 04:22:24.534636  2846 net.cpp:454] conv3_3_1x1_reduce <- conv3_2_conv3_2/relu_0_split_0
I0620 04:22:24.534641  2846 net.cpp:411] conv3_3_1x1_reduce -> conv3_3_1x1_reduce
I0620 04:22:24.536532  2846 net.cpp:150] Setting up conv3_3_1x1_reduce
I0620 04:22:24.536548  2846 net.cpp:157] Top shape: 1 128 51 51 (332928)
I0620 04:22:24.536552  2846 net.cpp:165] Memory required for data: 500593160
I0620 04:22:24.536559  2846 layer_factory.hpp:77] Creating layer conv3_3_1x1_reduce/bn
I0620 04:22:24.536569  2846 net.cpp:106] Creating Layer conv3_3_1x1_reduce/bn
I0620 04:22:24.536574  2846 net.cpp:454] conv3_3_1x1_reduce/bn <- conv3_3_1x1_reduce
I0620 04:22:24.536581  2846 net.cpp:397] conv3_3_1x1_reduce/bn -> conv3_3_1x1_reduce (in-place)
I0620 04:22:24.536751  2846 net.cpp:150] Setting up conv3_3_1x1_reduce/bn
I0620 04:22:24.536761  2846 net.cpp:157] Top shape: 1 128 51 51 (332928)
I0620 04:22:24.536765  2846 net.cpp:165] Memory required for data: 501924872
I0620 04:22:24.536774  2846 layer_factory.hpp:77] Creating layer conv3_3_1x1_reduce/relu
I0620 04:22:24.536782  2846 net.cpp:106] Creating Layer conv3_3_1x1_reduce/relu
I0620 04:22:24.536785  2846 net.cpp:454] conv3_3_1x1_reduce/relu <- conv3_3_1x1_reduce
I0620 04:22:24.536788  2846 net.cpp:397] conv3_3_1x1_reduce/relu -> conv3_3_1x1_reduce (in-place)
I0620 04:22:24.536793  2846 net.cpp:150] Setting up conv3_3_1x1_reduce/relu
I0620 04:22:24.536798  2846 net.cpp:157] Top shape: 1 128 51 51 (332928)
I0620 04:22:24.536800  2846 net.cpp:165] Memory required for data: 503256584
I0620 04:22:24.536803  2846 layer_factory.hpp:77] Creating layer conv3_3_3x3
I0620 04:22:24.536815  2846 net.cpp:106] Creating Layer conv3_3_3x3
I0620 04:22:24.536818  2846 net.cpp:454] conv3_3_3x3 <- conv3_3_1x1_reduce
I0620 04:22:24.536823  2846 net.cpp:411] conv3_3_3x3 -> conv3_3_3x3
I0620 04:22:24.541141  2846 net.cpp:150] Setting up conv3_3_3x3
I0620 04:22:24.541172  2846 net.cpp:157] Top shape: 1 128 51 51 (332928)
I0620 04:22:24.541177  2846 net.cpp:165] Memory required for data: 504588296
I0620 04:22:24.541188  2846 layer_factory.hpp:77] Creating layer conv3_3_3x3/bn
I0620 04:22:24.541203  2846 net.cpp:106] Creating Layer conv3_3_3x3/bn
I0620 04:22:24.541210  2846 net.cpp:454] conv3_3_3x3/bn <- conv3_3_3x3
I0620 04:22:24.541219  2846 net.cpp:397] conv3_3_3x3/bn -> conv3_3_3x3 (in-place)
I0620 04:22:24.541420  2846 net.cpp:150] Setting up conv3_3_3x3/bn
I0620 04:22:24.541431  2846 net.cpp:157] Top shape: 1 128 51 51 (332928)
I0620 04:22:24.541437  2846 net.cpp:165] Memory required for data: 505920008
I0620 04:22:24.541448  2846 layer_factory.hpp:77] Creating layer conv3_3_3x3/relu
I0620 04:22:24.541457  2846 net.cpp:106] Creating Layer conv3_3_3x3/relu
I0620 04:22:24.541463  2846 net.cpp:454] conv3_3_3x3/relu <- conv3_3_3x3
I0620 04:22:24.541471  2846 net.cpp:397] conv3_3_3x3/relu -> conv3_3_3x3 (in-place)
I0620 04:22:24.541479  2846 net.cpp:150] Setting up conv3_3_3x3/relu
I0620 04:22:24.541487  2846 net.cpp:157] Top shape: 1 128 51 51 (332928)
I0620 04:22:24.541493  2846 net.cpp:165] Memory required for data: 507251720
I0620 04:22:24.541499  2846 layer_factory.hpp:77] Creating layer conv3_3_1x1_increase
I0620 04:22:24.541512  2846 net.cpp:106] Creating Layer conv3_3_1x1_increase
I0620 04:22:24.541517  2846 net.cpp:454] conv3_3_1x1_increase <- conv3_3_3x3
I0620 04:22:24.541528  2846 net.cpp:411] conv3_3_1x1_increase -> conv3_3_1x1_increase
I0620 04:22:24.543632  2846 net.cpp:150] Setting up conv3_3_1x1_increase
I0620 04:22:24.543697  2846 net.cpp:157] Top shape: 1 512 51 51 (1331712)
I0620 04:22:24.543705  2846 net.cpp:165] Memory required for data: 512578568
I0620 04:22:24.543720  2846 layer_factory.hpp:77] Creating layer conv3_3_1x1_increase/bn
I0620 04:22:24.543742  2846 net.cpp:106] Creating Layer conv3_3_1x1_increase/bn
I0620 04:22:24.543753  2846 net.cpp:454] conv3_3_1x1_increase/bn <- conv3_3_1x1_increase
I0620 04:22:24.543766  2846 net.cpp:397] conv3_3_1x1_increase/bn -> conv3_3_1x1_increase (in-place)
I0620 04:22:24.544018  2846 net.cpp:150] Setting up conv3_3_1x1_increase/bn
I0620 04:22:24.544030  2846 net.cpp:157] Top shape: 1 512 51 51 (1331712)
I0620 04:22:24.544037  2846 net.cpp:165] Memory required for data: 517905416
I0620 04:22:24.544049  2846 layer_factory.hpp:77] Creating layer conv3_3
I0620 04:22:24.544065  2846 net.cpp:106] Creating Layer conv3_3
I0620 04:22:24.544073  2846 net.cpp:454] conv3_3 <- conv3_2_conv3_2/relu_0_split_1
I0620 04:22:24.544081  2846 net.cpp:454] conv3_3 <- conv3_3_1x1_increase
I0620 04:22:24.544093  2846 net.cpp:411] conv3_3 -> conv3_3
I0620 04:22:24.544121  2846 net.cpp:150] Setting up conv3_3
I0620 04:22:24.544131  2846 net.cpp:157] Top shape: 1 512 51 51 (1331712)
I0620 04:22:24.544137  2846 net.cpp:165] Memory required for data: 523232264
I0620 04:22:24.544143  2846 layer_factory.hpp:77] Creating layer conv3_3/relu
I0620 04:22:24.544157  2846 net.cpp:106] Creating Layer conv3_3/relu
I0620 04:22:24.544162  2846 net.cpp:454] conv3_3/relu <- conv3_3
I0620 04:22:24.544170  2846 net.cpp:397] conv3_3/relu -> conv3_3 (in-place)
I0620 04:22:24.544180  2846 net.cpp:150] Setting up conv3_3/relu
I0620 04:22:24.544188  2846 net.cpp:157] Top shape: 1 512 51 51 (1331712)
I0620 04:22:24.544195  2846 net.cpp:165] Memory required for data: 528559112
I0620 04:22:24.544201  2846 layer_factory.hpp:77] Creating layer conv3_3_conv3_3/relu_0_split
I0620 04:22:24.544214  2846 net.cpp:106] Creating Layer conv3_3_conv3_3/relu_0_split
I0620 04:22:24.544220  2846 net.cpp:454] conv3_3_conv3_3/relu_0_split <- conv3_3
I0620 04:22:24.544229  2846 net.cpp:411] conv3_3_conv3_3/relu_0_split -> conv3_3_conv3_3/relu_0_split_0
I0620 04:22:24.544239  2846 net.cpp:411] conv3_3_conv3_3/relu_0_split -> conv3_3_conv3_3/relu_0_split_1
I0620 04:22:24.544275  2846 net.cpp:150] Setting up conv3_3_conv3_3/relu_0_split
I0620 04:22:24.544284  2846 net.cpp:157] Top shape: 1 512 51 51 (1331712)
I0620 04:22:24.544291  2846 net.cpp:157] Top shape: 1 512 51 51 (1331712)
I0620 04:22:24.544297  2846 net.cpp:165] Memory required for data: 539212808
I0620 04:22:24.544304  2846 layer_factory.hpp:77] Creating layer conv3_4_1x1_reduce
I0620 04:22:24.544322  2846 net.cpp:106] Creating Layer conv3_4_1x1_reduce
I0620 04:22:24.544329  2846 net.cpp:454] conv3_4_1x1_reduce <- conv3_3_conv3_3/relu_0_split_0
I0620 04:22:24.544338  2846 net.cpp:411] conv3_4_1x1_reduce -> conv3_4_1x1_reduce
I0620 04:22:24.546722  2846 net.cpp:150] Setting up conv3_4_1x1_reduce
I0620 04:22:24.546783  2846 net.cpp:157] Top shape: 1 128 51 51 (332928)
I0620 04:22:24.546792  2846 net.cpp:165] Memory required for data: 540544520
I0620 04:22:24.546807  2846 layer_factory.hpp:77] Creating layer conv3_4_1x1_reduce/bn
I0620 04:22:24.546830  2846 net.cpp:106] Creating Layer conv3_4_1x1_reduce/bn
I0620 04:22:24.546841  2846 net.cpp:454] conv3_4_1x1_reduce/bn <- conv3_4_1x1_reduce
I0620 04:22:24.546856  2846 net.cpp:397] conv3_4_1x1_reduce/bn -> conv3_4_1x1_reduce (in-place)
I0620 04:22:24.547104  2846 net.cpp:150] Setting up conv3_4_1x1_reduce/bn
I0620 04:22:24.547117  2846 net.cpp:157] Top shape: 1 128 51 51 (332928)
I0620 04:22:24.547123  2846 net.cpp:165] Memory required for data: 541876232
I0620 04:22:24.547134  2846 layer_factory.hpp:77] Creating layer conv3_4_1x1_reduce/relu
I0620 04:22:24.547147  2846 net.cpp:106] Creating Layer conv3_4_1x1_reduce/relu
I0620 04:22:24.547154  2846 net.cpp:454] conv3_4_1x1_reduce/relu <- conv3_4_1x1_reduce
I0620 04:22:24.547163  2846 net.cpp:397] conv3_4_1x1_reduce/relu -> conv3_4_1x1_reduce (in-place)
I0620 04:22:24.547173  2846 net.cpp:150] Setting up conv3_4_1x1_reduce/relu
I0620 04:22:24.547181  2846 net.cpp:157] Top shape: 1 128 51 51 (332928)
I0620 04:22:24.547188  2846 net.cpp:165] Memory required for data: 543207944
I0620 04:22:24.547194  2846 layer_factory.hpp:77] Creating layer conv3_4_3x3
I0620 04:22:24.547209  2846 net.cpp:106] Creating Layer conv3_4_3x3
I0620 04:22:24.547215  2846 net.cpp:454] conv3_4_3x3 <- conv3_4_1x1_reduce
I0620 04:22:24.547226  2846 net.cpp:411] conv3_4_3x3 -> conv3_4_3x3
I0620 04:22:24.552187  2846 net.cpp:150] Setting up conv3_4_3x3
I0620 04:22:24.552273  2846 net.cpp:157] Top shape: 1 128 51 51 (332928)
I0620 04:22:24.552283  2846 net.cpp:165] Memory required for data: 544539656
I0620 04:22:24.552302  2846 layer_factory.hpp:77] Creating layer conv3_4_3x3/bn
I0620 04:22:24.552331  2846 net.cpp:106] Creating Layer conv3_4_3x3/bn
I0620 04:22:24.552343  2846 net.cpp:454] conv3_4_3x3/bn <- conv3_4_3x3
I0620 04:22:24.552359  2846 net.cpp:397] conv3_4_3x3/bn -> conv3_4_3x3 (in-place)
I0620 04:22:24.552605  2846 net.cpp:150] Setting up conv3_4_3x3/bn
I0620 04:22:24.552618  2846 net.cpp:157] Top shape: 1 128 51 51 (332928)
I0620 04:22:24.552625  2846 net.cpp:165] Memory required for data: 545871368
I0620 04:22:24.552636  2846 layer_factory.hpp:77] Creating layer conv3_4_3x3/relu
I0620 04:22:24.552647  2846 net.cpp:106] Creating Layer conv3_4_3x3/relu
I0620 04:22:24.552654  2846 net.cpp:454] conv3_4_3x3/relu <- conv3_4_3x3
I0620 04:22:24.552664  2846 net.cpp:397] conv3_4_3x3/relu -> conv3_4_3x3 (in-place)
I0620 04:22:24.552675  2846 net.cpp:150] Setting up conv3_4_3x3/relu
I0620 04:22:24.552683  2846 net.cpp:157] Top shape: 1 128 51 51 (332928)
I0620 04:22:24.552688  2846 net.cpp:165] Memory required for data: 547203080
I0620 04:22:24.552695  2846 layer_factory.hpp:77] Creating layer conv3_4_1x1_increase
I0620 04:22:24.552714  2846 net.cpp:106] Creating Layer conv3_4_1x1_increase
I0620 04:22:24.552721  2846 net.cpp:454] conv3_4_1x1_increase <- conv3_4_3x3
I0620 04:22:24.552732  2846 net.cpp:411] conv3_4_1x1_increase -> conv3_4_1x1_increase
I0620 04:22:24.554864  2846 net.cpp:150] Setting up conv3_4_1x1_increase
I0620 04:22:24.554880  2846 net.cpp:157] Top shape: 1 512 51 51 (1331712)
I0620 04:22:24.554883  2846 net.cpp:165] Memory required for data: 552529928
I0620 04:22:24.554888  2846 layer_factory.hpp:77] Creating layer conv3_4_1x1_increase/bn
I0620 04:22:24.554895  2846 net.cpp:106] Creating Layer conv3_4_1x1_increase/bn
I0620 04:22:24.554899  2846 net.cpp:454] conv3_4_1x1_increase/bn <- conv3_4_1x1_increase
I0620 04:22:24.554904  2846 net.cpp:397] conv3_4_1x1_increase/bn -> conv3_4_1x1_increase (in-place)
I0620 04:22:24.555042  2846 net.cpp:150] Setting up conv3_4_1x1_increase/bn
I0620 04:22:24.555045  2846 net.cpp:157] Top shape: 1 512 51 51 (1331712)
I0620 04:22:24.555048  2846 net.cpp:165] Memory required for data: 557856776
I0620 04:22:24.555068  2846 layer_factory.hpp:77] Creating layer conv3_4
I0620 04:22:24.555106  2846 net.cpp:106] Creating Layer conv3_4
I0620 04:22:24.555111  2846 net.cpp:454] conv3_4 <- conv3_3_conv3_3/relu_0_split_1
I0620 04:22:24.555115  2846 net.cpp:454] conv3_4 <- conv3_4_1x1_increase
I0620 04:22:24.555119  2846 net.cpp:411] conv3_4 -> conv3_4
I0620 04:22:24.555135  2846 net.cpp:150] Setting up conv3_4
I0620 04:22:24.555138  2846 net.cpp:157] Top shape: 1 512 51 51 (1331712)
I0620 04:22:24.555140  2846 net.cpp:165] Memory required for data: 563183624
I0620 04:22:24.555143  2846 layer_factory.hpp:77] Creating layer conv3_4/relu
I0620 04:22:24.555148  2846 net.cpp:106] Creating Layer conv3_4/relu
I0620 04:22:24.555151  2846 net.cpp:454] conv3_4/relu <- conv3_4
I0620 04:22:24.555155  2846 net.cpp:397] conv3_4/relu -> conv3_4 (in-place)
I0620 04:22:24.555160  2846 net.cpp:150] Setting up conv3_4/relu
I0620 04:22:24.555162  2846 net.cpp:157] Top shape: 1 512 51 51 (1331712)
I0620 04:22:24.555164  2846 net.cpp:165] Memory required for data: 568510472
I0620 04:22:24.555167  2846 layer_factory.hpp:77] Creating layer conv3_4_conv3_4/relu_0_split
I0620 04:22:24.555171  2846 net.cpp:106] Creating Layer conv3_4_conv3_4/relu_0_split
I0620 04:22:24.555174  2846 net.cpp:454] conv3_4_conv3_4/relu_0_split <- conv3_4
I0620 04:22:24.555177  2846 net.cpp:411] conv3_4_conv3_4/relu_0_split -> conv3_4_conv3_4/relu_0_split_0
I0620 04:22:24.555187  2846 net.cpp:411] conv3_4_conv3_4/relu_0_split -> conv3_4_conv3_4/relu_0_split_1
I0620 04:22:24.555207  2846 net.cpp:150] Setting up conv3_4_conv3_4/relu_0_split
I0620 04:22:24.555212  2846 net.cpp:157] Top shape: 1 512 51 51 (1331712)
I0620 04:22:24.555214  2846 net.cpp:157] Top shape: 1 512 51 51 (1331712)
I0620 04:22:24.555217  2846 net.cpp:165] Memory required for data: 579164168
I0620 04:22:24.555220  2846 layer_factory.hpp:77] Creating layer conv4_1_1x1_reduce
I0620 04:22:24.555230  2846 net.cpp:106] Creating Layer conv4_1_1x1_reduce
I0620 04:22:24.555233  2846 net.cpp:454] conv4_1_1x1_reduce <- conv3_4_conv3_4/relu_0_split_0
I0620 04:22:24.555238  2846 net.cpp:411] conv4_1_1x1_reduce -> conv4_1_1x1_reduce
I0620 04:22:24.558130  2846 net.cpp:150] Setting up conv4_1_1x1_reduce
I0620 04:22:24.558137  2846 net.cpp:157] Top shape: 1 256 51 51 (665856)
I0620 04:22:24.558140  2846 net.cpp:165] Memory required for data: 581827592
I0620 04:22:24.558143  2846 layer_factory.hpp:77] Creating layer conv4_1_1x1_reduce/bn
I0620 04:22:24.558147  2846 net.cpp:106] Creating Layer conv4_1_1x1_reduce/bn
I0620 04:22:24.558149  2846 net.cpp:454] conv4_1_1x1_reduce/bn <- conv4_1_1x1_reduce
I0620 04:22:24.558153  2846 net.cpp:397] conv4_1_1x1_reduce/bn -> conv4_1_1x1_reduce (in-place)
I0620 04:22:24.558275  2846 net.cpp:150] Setting up conv4_1_1x1_reduce/bn
I0620 04:22:24.558279  2846 net.cpp:157] Top shape: 1 256 51 51 (665856)
I0620 04:22:24.558281  2846 net.cpp:165] Memory required for data: 584491016
I0620 04:22:24.558286  2846 layer_factory.hpp:77] Creating layer conv4_1_1x1_reduce/relu
I0620 04:22:24.558290  2846 net.cpp:106] Creating Layer conv4_1_1x1_reduce/relu
I0620 04:22:24.558292  2846 net.cpp:454] conv4_1_1x1_reduce/relu <- conv4_1_1x1_reduce
I0620 04:22:24.558296  2846 net.cpp:397] conv4_1_1x1_reduce/relu -> conv4_1_1x1_reduce (in-place)
I0620 04:22:24.558300  2846 net.cpp:150] Setting up conv4_1_1x1_reduce/relu
I0620 04:22:24.558302  2846 net.cpp:157] Top shape: 1 256 51 51 (665856)
I0620 04:22:24.558305  2846 net.cpp:165] Memory required for data: 587154440
I0620 04:22:24.558306  2846 layer_factory.hpp:77] Creating layer conv4_1_3x3
I0620 04:22:24.558310  2846 net.cpp:106] Creating Layer conv4_1_3x3
I0620 04:22:24.558313  2846 net.cpp:454] conv4_1_3x3 <- conv4_1_1x1_reduce
I0620 04:22:24.558316  2846 net.cpp:411] conv4_1_3x3 -> conv4_1_3x3
I0620 04:22:24.571825  2846 net.cpp:150] Setting up conv4_1_3x3
I0620 04:22:24.571856  2846 net.cpp:157] Top shape: 1 256 51 51 (665856)
I0620 04:22:24.571859  2846 net.cpp:165] Memory required for data: 589817864
I0620 04:22:24.571866  2846 layer_factory.hpp:77] Creating layer conv4_1_3x3/bn
I0620 04:22:24.571890  2846 net.cpp:106] Creating Layer conv4_1_3x3/bn
I0620 04:22:24.571894  2846 net.cpp:454] conv4_1_3x3/bn <- conv4_1_3x3
I0620 04:22:24.571900  2846 net.cpp:397] conv4_1_3x3/bn -> conv4_1_3x3 (in-place)
I0620 04:22:24.572037  2846 net.cpp:150] Setting up conv4_1_3x3/bn
I0620 04:22:24.572041  2846 net.cpp:157] Top shape: 1 256 51 51 (665856)
I0620 04:22:24.572044  2846 net.cpp:165] Memory required for data: 592481288
I0620 04:22:24.572048  2846 layer_factory.hpp:77] Creating layer conv4_1_3x3/relu
I0620 04:22:24.572052  2846 net.cpp:106] Creating Layer conv4_1_3x3/relu
I0620 04:22:24.572054  2846 net.cpp:454] conv4_1_3x3/relu <- conv4_1_3x3
I0620 04:22:24.572058  2846 net.cpp:397] conv4_1_3x3/relu -> conv4_1_3x3 (in-place)
I0620 04:22:24.572062  2846 net.cpp:150] Setting up conv4_1_3x3/relu
I0620 04:22:24.572065  2846 net.cpp:157] Top shape: 1 256 51 51 (665856)
I0620 04:22:24.572067  2846 net.cpp:165] Memory required for data: 595144712
I0620 04:22:24.572070  2846 layer_factory.hpp:77] Creating layer conv4_1_1x1_increase
I0620 04:22:24.572077  2846 net.cpp:106] Creating Layer conv4_1_1x1_increase
I0620 04:22:24.572079  2846 net.cpp:454] conv4_1_1x1_increase <- conv4_1_3x3
I0620 04:22:24.572083  2846 net.cpp:411] conv4_1_1x1_increase -> conv4_1_1x1_increase
I0620 04:22:24.578271  2846 net.cpp:150] Setting up conv4_1_1x1_increase
I0620 04:22:24.578281  2846 net.cpp:157] Top shape: 1 1024 51 51 (2663424)
I0620 04:22:24.578284  2846 net.cpp:165] Memory required for data: 605798408
I0620 04:22:24.578289  2846 layer_factory.hpp:77] Creating layer conv4_1_1x1_increase/bn
I0620 04:22:24.578294  2846 net.cpp:106] Creating Layer conv4_1_1x1_increase/bn
I0620 04:22:24.578299  2846 net.cpp:454] conv4_1_1x1_increase/bn <- conv4_1_1x1_increase
I0620 04:22:24.578302  2846 net.cpp:397] conv4_1_1x1_increase/bn -> conv4_1_1x1_increase (in-place)
I0620 04:22:24.578433  2846 net.cpp:150] Setting up conv4_1_1x1_increase/bn
I0620 04:22:24.578438  2846 net.cpp:157] Top shape: 1 1024 51 51 (2663424)
I0620 04:22:24.578440  2846 net.cpp:165] Memory required for data: 616452104
I0620 04:22:24.578445  2846 layer_factory.hpp:77] Creating layer conv4_1_1x1_proj
I0620 04:22:24.578452  2846 net.cpp:106] Creating Layer conv4_1_1x1_proj
I0620 04:22:24.578456  2846 net.cpp:454] conv4_1_1x1_proj <- conv3_4_conv3_4/relu_0_split_1
I0620 04:22:24.578461  2846 net.cpp:411] conv4_1_1x1_proj -> conv4_1_1x1_proj
I0620 04:22:24.592336  2846 net.cpp:150] Setting up conv4_1_1x1_proj
I0620 04:22:24.592418  2846 net.cpp:157] Top shape: 1 1024 51 51 (2663424)
I0620 04:22:24.592424  2846 net.cpp:165] Memory required for data: 627105800
I0620 04:22:24.592439  2846 layer_factory.hpp:77] Creating layer conv4_1_1x1_proj/bn
I0620 04:22:24.592461  2846 net.cpp:106] Creating Layer conv4_1_1x1_proj/bn
I0620 04:22:24.592471  2846 net.cpp:454] conv4_1_1x1_proj/bn <- conv4_1_1x1_proj
I0620 04:22:24.592483  2846 net.cpp:397] conv4_1_1x1_proj/bn -> conv4_1_1x1_proj (in-place)
I0620 04:22:24.592725  2846 net.cpp:150] Setting up conv4_1_1x1_proj/bn
I0620 04:22:24.592736  2846 net.cpp:157] Top shape: 1 1024 51 51 (2663424)
I0620 04:22:24.592739  2846 net.cpp:165] Memory required for data: 637759496
I0620 04:22:24.592749  2846 layer_factory.hpp:77] Creating layer conv4_1
I0620 04:22:24.592759  2846 net.cpp:106] Creating Layer conv4_1
I0620 04:22:24.592764  2846 net.cpp:454] conv4_1 <- conv4_1_1x1_proj
I0620 04:22:24.592769  2846 net.cpp:454] conv4_1 <- conv4_1_1x1_increase
I0620 04:22:24.592775  2846 net.cpp:411] conv4_1 -> conv4_1
I0620 04:22:24.592799  2846 net.cpp:150] Setting up conv4_1
I0620 04:22:24.592806  2846 net.cpp:157] Top shape: 1 1024 51 51 (2663424)
I0620 04:22:24.592811  2846 net.cpp:165] Memory required for data: 648413192
I0620 04:22:24.592815  2846 layer_factory.hpp:77] Creating layer conv4_1/relu
I0620 04:22:24.592825  2846 net.cpp:106] Creating Layer conv4_1/relu
I0620 04:22:24.592829  2846 net.cpp:454] conv4_1/relu <- conv4_1
I0620 04:22:24.592835  2846 net.cpp:397] conv4_1/relu -> conv4_1 (in-place)
I0620 04:22:24.592844  2846 net.cpp:150] Setting up conv4_1/relu
I0620 04:22:24.592895  2846 net.cpp:157] Top shape: 1 1024 51 51 (2663424)
I0620 04:22:24.592900  2846 net.cpp:165] Memory required for data: 659066888
I0620 04:22:24.592905  2846 layer_factory.hpp:77] Creating layer conv4_1_conv4_1/relu_0_split
I0620 04:22:24.592911  2846 net.cpp:106] Creating Layer conv4_1_conv4_1/relu_0_split
I0620 04:22:24.592916  2846 net.cpp:454] conv4_1_conv4_1/relu_0_split <- conv4_1
I0620 04:22:24.592921  2846 net.cpp:411] conv4_1_conv4_1/relu_0_split -> conv4_1_conv4_1/relu_0_split_0
I0620 04:22:24.592927  2846 net.cpp:411] conv4_1_conv4_1/relu_0_split -> conv4_1_conv4_1/relu_0_split_1
I0620 04:22:24.592959  2846 net.cpp:150] Setting up conv4_1_conv4_1/relu_0_split
I0620 04:22:24.592967  2846 net.cpp:157] Top shape: 1 1024 51 51 (2663424)
I0620 04:22:24.592972  2846 net.cpp:157] Top shape: 1 1024 51 51 (2663424)
I0620 04:22:24.592975  2846 net.cpp:165] Memory required for data: 680374280
I0620 04:22:24.592980  2846 layer_factory.hpp:77] Creating layer conv4_2_1x1_reduce
I0620 04:22:24.592993  2846 net.cpp:106] Creating Layer conv4_2_1x1_reduce
I0620 04:22:24.592998  2846 net.cpp:454] conv4_2_1x1_reduce <- conv4_1_conv4_1/relu_0_split_0
I0620 04:22:24.593005  2846 net.cpp:411] conv4_2_1x1_reduce -> conv4_2_1x1_reduce
I0620 04:22:24.601173  2846 net.cpp:150] Setting up conv4_2_1x1_reduce
I0620 04:22:24.601197  2846 net.cpp:157] Top shape: 1 256 51 51 (665856)
I0620 04:22:24.601199  2846 net.cpp:165] Memory required for data: 683037704
I0620 04:22:24.601207  2846 layer_factory.hpp:77] Creating layer conv4_2_1x1_reduce/bn
I0620 04:22:24.601217  2846 net.cpp:106] Creating Layer conv4_2_1x1_reduce/bn
I0620 04:22:24.601222  2846 net.cpp:454] conv4_2_1x1_reduce/bn <- conv4_2_1x1_reduce
I0620 04:22:24.601227  2846 net.cpp:397] conv4_2_1x1_reduce/bn -> conv4_2_1x1_reduce (in-place)
I0620 04:22:24.601372  2846 net.cpp:150] Setting up conv4_2_1x1_reduce/bn
I0620 04:22:24.601377  2846 net.cpp:157] Top shape: 1 256 51 51 (665856)
I0620 04:22:24.601379  2846 net.cpp:165] Memory required for data: 685701128
I0620 04:22:24.601384  2846 layer_factory.hpp:77] Creating layer conv4_2_1x1_reduce/relu
I0620 04:22:24.601389  2846 net.cpp:106] Creating Layer conv4_2_1x1_reduce/relu
I0620 04:22:24.601392  2846 net.cpp:454] conv4_2_1x1_reduce/relu <- conv4_2_1x1_reduce
I0620 04:22:24.601395  2846 net.cpp:397] conv4_2_1x1_reduce/relu -> conv4_2_1x1_reduce (in-place)
I0620 04:22:24.601400  2846 net.cpp:150] Setting up conv4_2_1x1_reduce/relu
I0620 04:22:24.601403  2846 net.cpp:157] Top shape: 1 256 51 51 (665856)
I0620 04:22:24.601405  2846 net.cpp:165] Memory required for data: 688364552
I0620 04:22:24.601408  2846 layer_factory.hpp:77] Creating layer conv4_2_3x3
I0620 04:22:24.601418  2846 net.cpp:106] Creating Layer conv4_2_3x3
I0620 04:22:24.601421  2846 net.cpp:454] conv4_2_3x3 <- conv4_2_1x1_reduce
I0620 04:22:24.601428  2846 net.cpp:411] conv4_2_3x3 -> conv4_2_3x3
I0620 04:22:24.614655  2846 net.cpp:150] Setting up conv4_2_3x3
I0620 04:22:24.614675  2846 net.cpp:157] Top shape: 1 256 51 51 (665856)
I0620 04:22:24.614678  2846 net.cpp:165] Memory required for data: 691027976
I0620 04:22:24.614686  2846 layer_factory.hpp:77] Creating layer conv4_2_3x3/bn
I0620 04:22:24.614701  2846 net.cpp:106] Creating Layer conv4_2_3x3/bn
I0620 04:22:24.614708  2846 net.cpp:454] conv4_2_3x3/bn <- conv4_2_3x3
I0620 04:22:24.614717  2846 net.cpp:397] conv4_2_3x3/bn -> conv4_2_3x3 (in-place)
I0620 04:22:24.614858  2846 net.cpp:150] Setting up conv4_2_3x3/bn
I0620 04:22:24.614863  2846 net.cpp:157] Top shape: 1 256 51 51 (665856)
I0620 04:22:24.614866  2846 net.cpp:165] Memory required for data: 693691400
I0620 04:22:24.614872  2846 layer_factory.hpp:77] Creating layer conv4_2_3x3/relu
I0620 04:22:24.614876  2846 net.cpp:106] Creating Layer conv4_2_3x3/relu
I0620 04:22:24.614879  2846 net.cpp:454] conv4_2_3x3/relu <- conv4_2_3x3
I0620 04:22:24.614882  2846 net.cpp:397] conv4_2_3x3/relu -> conv4_2_3x3 (in-place)
I0620 04:22:24.614887  2846 net.cpp:150] Setting up conv4_2_3x3/relu
I0620 04:22:24.614890  2846 net.cpp:157] Top shape: 1 256 51 51 (665856)
I0620 04:22:24.614910  2846 net.cpp:165] Memory required for data: 696354824
I0620 04:22:24.614914  2846 layer_factory.hpp:77] Creating layer conv4_2_1x1_increase
I0620 04:22:24.614920  2846 net.cpp:106] Creating Layer conv4_2_1x1_increase
I0620 04:22:24.614923  2846 net.cpp:454] conv4_2_1x1_increase <- conv4_2_3x3
I0620 04:22:24.614928  2846 net.cpp:411] conv4_2_1x1_increase -> conv4_2_1x1_increase
I0620 04:22:24.621098  2846 net.cpp:150] Setting up conv4_2_1x1_increase
I0620 04:22:24.621110  2846 net.cpp:157] Top shape: 1 1024 51 51 (2663424)
I0620 04:22:24.621114  2846 net.cpp:165] Memory required for data: 707008520
I0620 04:22:24.621117  2846 layer_factory.hpp:77] Creating layer conv4_2_1x1_increase/bn
I0620 04:22:24.621126  2846 net.cpp:106] Creating Layer conv4_2_1x1_increase/bn
I0620 04:22:24.621130  2846 net.cpp:454] conv4_2_1x1_increase/bn <- conv4_2_1x1_increase
I0620 04:22:24.621134  2846 net.cpp:397] conv4_2_1x1_increase/bn -> conv4_2_1x1_increase (in-place)
I0620 04:22:24.621271  2846 net.cpp:150] Setting up conv4_2_1x1_increase/bn
I0620 04:22:24.621276  2846 net.cpp:157] Top shape: 1 1024 51 51 (2663424)
I0620 04:22:24.621279  2846 net.cpp:165] Memory required for data: 717662216
I0620 04:22:24.621284  2846 layer_factory.hpp:77] Creating layer conv4_2
I0620 04:22:24.621289  2846 net.cpp:106] Creating Layer conv4_2
I0620 04:22:24.621292  2846 net.cpp:454] conv4_2 <- conv4_1_conv4_1/relu_0_split_1
I0620 04:22:24.621295  2846 net.cpp:454] conv4_2 <- conv4_2_1x1_increase
I0620 04:22:24.621299  2846 net.cpp:411] conv4_2 -> conv4_2
I0620 04:22:24.621314  2846 net.cpp:150] Setting up conv4_2
I0620 04:22:24.621316  2846 net.cpp:157] Top shape: 1 1024 51 51 (2663424)
I0620 04:22:24.621320  2846 net.cpp:165] Memory required for data: 728315912
I0620 04:22:24.621322  2846 layer_factory.hpp:77] Creating layer conv4_2/relu
I0620 04:22:24.621327  2846 net.cpp:106] Creating Layer conv4_2/relu
I0620 04:22:24.621330  2846 net.cpp:454] conv4_2/relu <- conv4_2
I0620 04:22:24.621333  2846 net.cpp:397] conv4_2/relu -> conv4_2 (in-place)
I0620 04:22:24.621337  2846 net.cpp:150] Setting up conv4_2/relu
I0620 04:22:24.621340  2846 net.cpp:157] Top shape: 1 1024 51 51 (2663424)
I0620 04:22:24.621343  2846 net.cpp:165] Memory required for data: 738969608
I0620 04:22:24.621345  2846 layer_factory.hpp:77] Creating layer conv4_2_conv4_2/relu_0_split
I0620 04:22:24.621351  2846 net.cpp:106] Creating Layer conv4_2_conv4_2/relu_0_split
I0620 04:22:24.621353  2846 net.cpp:454] conv4_2_conv4_2/relu_0_split <- conv4_2
I0620 04:22:24.621356  2846 net.cpp:411] conv4_2_conv4_2/relu_0_split -> conv4_2_conv4_2/relu_0_split_0
I0620 04:22:24.621366  2846 net.cpp:411] conv4_2_conv4_2/relu_0_split -> conv4_2_conv4_2/relu_0_split_1
I0620 04:22:24.621387  2846 net.cpp:150] Setting up conv4_2_conv4_2/relu_0_split
I0620 04:22:24.621392  2846 net.cpp:157] Top shape: 1 1024 51 51 (2663424)
I0620 04:22:24.621395  2846 net.cpp:157] Top shape: 1 1024 51 51 (2663424)
I0620 04:22:24.621398  2846 net.cpp:165] Memory required for data: 760277000
I0620 04:22:24.621400  2846 layer_factory.hpp:77] Creating layer conv4_3_1x1_reduce
I0620 04:22:24.621410  2846 net.cpp:106] Creating Layer conv4_3_1x1_reduce
I0620 04:22:24.621413  2846 net.cpp:454] conv4_3_1x1_reduce <- conv4_2_conv4_2/relu_0_split_0
I0620 04:22:24.621417  2846 net.cpp:411] conv4_3_1x1_reduce -> conv4_3_1x1_reduce
I0620 04:22:24.627030  2846 net.cpp:150] Setting up conv4_3_1x1_reduce
I0620 04:22:24.627056  2846 net.cpp:157] Top shape: 1 256 51 51 (665856)
I0620 04:22:24.627061  2846 net.cpp:165] Memory required for data: 762940424
I0620 04:22:24.627074  2846 layer_factory.hpp:77] Creating layer conv4_3_1x1_reduce/bn
I0620 04:22:24.627091  2846 net.cpp:106] Creating Layer conv4_3_1x1_reduce/bn
I0620 04:22:24.627096  2846 net.cpp:454] conv4_3_1x1_reduce/bn <- conv4_3_1x1_reduce
I0620 04:22:24.627104  2846 net.cpp:397] conv4_3_1x1_reduce/bn -> conv4_3_1x1_reduce (in-place)
I0620 04:22:24.627243  2846 net.cpp:150] Setting up conv4_3_1x1_reduce/bn
I0620 04:22:24.627246  2846 net.cpp:157] Top shape: 1 256 51 51 (665856)
I0620 04:22:24.627274  2846 net.cpp:165] Memory required for data: 765603848
I0620 04:22:24.627280  2846 layer_factory.hpp:77] Creating layer conv4_3_1x1_reduce/relu
I0620 04:22:24.627286  2846 net.cpp:106] Creating Layer conv4_3_1x1_reduce/relu
I0620 04:22:24.627290  2846 net.cpp:454] conv4_3_1x1_reduce/relu <- conv4_3_1x1_reduce
I0620 04:22:24.627292  2846 net.cpp:397] conv4_3_1x1_reduce/relu -> conv4_3_1x1_reduce (in-place)
I0620 04:22:24.627297  2846 net.cpp:150] Setting up conv4_3_1x1_reduce/relu
I0620 04:22:24.627301  2846 net.cpp:157] Top shape: 1 256 51 51 (665856)
I0620 04:22:24.627303  2846 net.cpp:165] Memory required for data: 768267272
I0620 04:22:24.627306  2846 layer_factory.hpp:77] Creating layer conv4_3_3x3
I0620 04:22:24.627313  2846 net.cpp:106] Creating Layer conv4_3_3x3
I0620 04:22:24.627316  2846 net.cpp:454] conv4_3_3x3 <- conv4_3_1x1_reduce
I0620 04:22:24.627321  2846 net.cpp:411] conv4_3_3x3 -> conv4_3_3x3
I0620 04:22:24.644860  2846 net.cpp:150] Setting up conv4_3_3x3
I0620 04:22:24.644901  2846 net.cpp:157] Top shape: 1 256 51 51 (665856)
I0620 04:22:24.644903  2846 net.cpp:165] Memory required for data: 770930696
I0620 04:22:24.644919  2846 layer_factory.hpp:77] Creating layer conv4_3_3x3/bn
I0620 04:22:24.644935  2846 net.cpp:106] Creating Layer conv4_3_3x3/bn
I0620 04:22:24.644942  2846 net.cpp:454] conv4_3_3x3/bn <- conv4_3_3x3
I0620 04:22:24.644948  2846 net.cpp:397] conv4_3_3x3/bn -> conv4_3_3x3 (in-place)
I0620 04:22:24.645090  2846 net.cpp:150] Setting up conv4_3_3x3/bn
I0620 04:22:24.645095  2846 net.cpp:157] Top shape: 1 256 51 51 (665856)
I0620 04:22:24.645098  2846 net.cpp:165] Memory required for data: 773594120
I0620 04:22:24.645104  2846 layer_factory.hpp:77] Creating layer conv4_3_3x3/relu
I0620 04:22:24.645109  2846 net.cpp:106] Creating Layer conv4_3_3x3/relu
I0620 04:22:24.645112  2846 net.cpp:454] conv4_3_3x3/relu <- conv4_3_3x3
I0620 04:22:24.645117  2846 net.cpp:397] conv4_3_3x3/relu -> conv4_3_3x3 (in-place)
I0620 04:22:24.645122  2846 net.cpp:150] Setting up conv4_3_3x3/relu
I0620 04:22:24.645124  2846 net.cpp:157] Top shape: 1 256 51 51 (665856)
I0620 04:22:24.645128  2846 net.cpp:165] Memory required for data: 776257544
I0620 04:22:24.645130  2846 layer_factory.hpp:77] Creating layer conv4_3_1x1_increase
I0620 04:22:24.645138  2846 net.cpp:106] Creating Layer conv4_3_1x1_increase
I0620 04:22:24.645140  2846 net.cpp:454] conv4_3_1x1_increase <- conv4_3_3x3
I0620 04:22:24.645144  2846 net.cpp:411] conv4_3_1x1_increase -> conv4_3_1x1_increase
I0620 04:22:24.651444  2846 net.cpp:150] Setting up conv4_3_1x1_increase
I0620 04:22:24.651454  2846 net.cpp:157] Top shape: 1 1024 51 51 (2663424)
I0620 04:22:24.651456  2846 net.cpp:165] Memory required for data: 786911240
I0620 04:22:24.651460  2846 layer_factory.hpp:77] Creating layer conv4_3_1x1_increase/bn
I0620 04:22:24.651465  2846 net.cpp:106] Creating Layer conv4_3_1x1_increase/bn
I0620 04:22:24.651468  2846 net.cpp:454] conv4_3_1x1_increase/bn <- conv4_3_1x1_increase
I0620 04:22:24.651471  2846 net.cpp:397] conv4_3_1x1_increase/bn -> conv4_3_1x1_increase (in-place)
I0620 04:22:24.651603  2846 net.cpp:150] Setting up conv4_3_1x1_increase/bn
I0620 04:22:24.651607  2846 net.cpp:157] Top shape: 1 1024 51 51 (2663424)
I0620 04:22:24.651610  2846 net.cpp:165] Memory required for data: 797564936
I0620 04:22:24.651614  2846 layer_factory.hpp:77] Creating layer conv4_3
I0620 04:22:24.651619  2846 net.cpp:106] Creating Layer conv4_3
I0620 04:22:24.651623  2846 net.cpp:454] conv4_3 <- conv4_2_conv4_2/relu_0_split_1
I0620 04:22:24.651624  2846 net.cpp:454] conv4_3 <- conv4_3_1x1_increase
I0620 04:22:24.651628  2846 net.cpp:411] conv4_3 -> conv4_3
I0620 04:22:24.651643  2846 net.cpp:150] Setting up conv4_3
I0620 04:22:24.651648  2846 net.cpp:157] Top shape: 1 1024 51 51 (2663424)
I0620 04:22:24.651649  2846 net.cpp:165] Memory required for data: 808218632
I0620 04:22:24.651651  2846 layer_factory.hpp:77] Creating layer conv4_3/relu
I0620 04:22:24.651655  2846 net.cpp:106] Creating Layer conv4_3/relu
I0620 04:22:24.651679  2846 net.cpp:454] conv4_3/relu <- conv4_3
I0620 04:22:24.651681  2846 net.cpp:397] conv4_3/relu -> conv4_3 (in-place)
I0620 04:22:24.651685  2846 net.cpp:150] Setting up conv4_3/relu
I0620 04:22:24.651690  2846 net.cpp:157] Top shape: 1 1024 51 51 (2663424)
I0620 04:22:24.651691  2846 net.cpp:165] Memory required for data: 818872328
I0620 04:22:24.651693  2846 layer_factory.hpp:77] Creating layer conv4_3_conv4_3/relu_0_split
I0620 04:22:24.651697  2846 net.cpp:106] Creating Layer conv4_3_conv4_3/relu_0_split
I0620 04:22:24.651700  2846 net.cpp:454] conv4_3_conv4_3/relu_0_split <- conv4_3
I0620 04:22:24.651705  2846 net.cpp:411] conv4_3_conv4_3/relu_0_split -> conv4_3_conv4_3/relu_0_split_0
I0620 04:22:24.651707  2846 net.cpp:411] conv4_3_conv4_3/relu_0_split -> conv4_3_conv4_3/relu_0_split_1
I0620 04:22:24.651727  2846 net.cpp:150] Setting up conv4_3_conv4_3/relu_0_split
I0620 04:22:24.651731  2846 net.cpp:157] Top shape: 1 1024 51 51 (2663424)
I0620 04:22:24.651734  2846 net.cpp:157] Top shape: 1 1024 51 51 (2663424)
I0620 04:22:24.651737  2846 net.cpp:165] Memory required for data: 840179720
I0620 04:22:24.651739  2846 layer_factory.hpp:77] Creating layer conv4_4_1x1_reduce
I0620 04:22:24.651757  2846 net.cpp:106] Creating Layer conv4_4_1x1_reduce
I0620 04:22:24.651759  2846 net.cpp:454] conv4_4_1x1_reduce <- conv4_3_conv4_3/relu_0_split_0
I0620 04:22:24.651763  2846 net.cpp:411] conv4_4_1x1_reduce -> conv4_4_1x1_reduce
I0620 04:22:24.657346  2846 net.cpp:150] Setting up conv4_4_1x1_reduce
I0620 04:22:24.657356  2846 net.cpp:157] Top shape: 1 256 51 51 (665856)
I0620 04:22:24.657358  2846 net.cpp:165] Memory required for data: 842843144
I0620 04:22:24.657362  2846 layer_factory.hpp:77] Creating layer conv4_4_1x1_reduce/bn
I0620 04:22:24.657369  2846 net.cpp:106] Creating Layer conv4_4_1x1_reduce/bn
I0620 04:22:24.657371  2846 net.cpp:454] conv4_4_1x1_reduce/bn <- conv4_4_1x1_reduce
I0620 04:22:24.657377  2846 net.cpp:397] conv4_4_1x1_reduce/bn -> conv4_4_1x1_reduce (in-place)
I0620 04:22:24.657501  2846 net.cpp:150] Setting up conv4_4_1x1_reduce/bn
I0620 04:22:24.657506  2846 net.cpp:157] Top shape: 1 256 51 51 (665856)
I0620 04:22:24.657508  2846 net.cpp:165] Memory required for data: 845506568
I0620 04:22:24.657513  2846 layer_factory.hpp:77] Creating layer conv4_4_1x1_reduce/relu
I0620 04:22:24.657519  2846 net.cpp:106] Creating Layer conv4_4_1x1_reduce/relu
I0620 04:22:24.657523  2846 net.cpp:454] conv4_4_1x1_reduce/relu <- conv4_4_1x1_reduce
I0620 04:22:24.657531  2846 net.cpp:397] conv4_4_1x1_reduce/relu -> conv4_4_1x1_reduce (in-place)
I0620 04:22:24.657546  2846 net.cpp:150] Setting up conv4_4_1x1_reduce/relu
I0620 04:22:24.657552  2846 net.cpp:157] Top shape: 1 256 51 51 (665856)
I0620 04:22:24.657557  2846 net.cpp:165] Memory required for data: 848169992
I0620 04:22:24.657560  2846 layer_factory.hpp:77] Creating layer conv4_4_3x3
I0620 04:22:24.657575  2846 net.cpp:106] Creating Layer conv4_4_3x3
I0620 04:22:24.657579  2846 net.cpp:454] conv4_4_3x3 <- conv4_4_1x1_reduce
I0620 04:22:24.657587  2846 net.cpp:411] conv4_4_3x3 -> conv4_4_3x3
I0620 04:22:24.670630  2846 net.cpp:150] Setting up conv4_4_3x3
I0620 04:22:24.670652  2846 net.cpp:157] Top shape: 1 256 51 51 (665856)
I0620 04:22:24.670656  2846 net.cpp:165] Memory required for data: 850833416
I0620 04:22:24.670665  2846 layer_factory.hpp:77] Creating layer conv4_4_3x3/bn
I0620 04:22:24.670680  2846 net.cpp:106] Creating Layer conv4_4_3x3/bn
I0620 04:22:24.670686  2846 net.cpp:454] conv4_4_3x3/bn <- conv4_4_3x3
I0620 04:22:24.670691  2846 net.cpp:397] conv4_4_3x3/bn -> conv4_4_3x3 (in-place)
I0620 04:22:24.670842  2846 net.cpp:150] Setting up conv4_4_3x3/bn
I0620 04:22:24.670848  2846 net.cpp:157] Top shape: 1 256 51 51 (665856)
I0620 04:22:24.670851  2846 net.cpp:165] Memory required for data: 853496840
I0620 04:22:24.670856  2846 layer_factory.hpp:77] Creating layer conv4_4_3x3/relu
I0620 04:22:24.670862  2846 net.cpp:106] Creating Layer conv4_4_3x3/relu
I0620 04:22:24.670866  2846 net.cpp:454] conv4_4_3x3/relu <- conv4_4_3x3
I0620 04:22:24.670883  2846 net.cpp:397] conv4_4_3x3/relu -> conv4_4_3x3 (in-place)
I0620 04:22:24.670887  2846 net.cpp:150] Setting up conv4_4_3x3/relu
I0620 04:22:24.670891  2846 net.cpp:157] Top shape: 1 256 51 51 (665856)
I0620 04:22:24.670892  2846 net.cpp:165] Memory required for data: 856160264
I0620 04:22:24.670894  2846 layer_factory.hpp:77] Creating layer conv4_4_1x1_increase
I0620 04:22:24.670902  2846 net.cpp:106] Creating Layer conv4_4_1x1_increase
I0620 04:22:24.670903  2846 net.cpp:454] conv4_4_1x1_increase <- conv4_4_3x3
I0620 04:22:24.670907  2846 net.cpp:411] conv4_4_1x1_increase -> conv4_4_1x1_increase
I0620 04:22:24.678861  2846 net.cpp:150] Setting up conv4_4_1x1_increase
I0620 04:22:24.678943  2846 net.cpp:157] Top shape: 1 1024 51 51 (2663424)
I0620 04:22:24.678953  2846 net.cpp:165] Memory required for data: 866813960
I0620 04:22:24.678973  2846 layer_factory.hpp:77] Creating layer conv4_4_1x1_increase/bn
I0620 04:22:24.679006  2846 net.cpp:106] Creating Layer conv4_4_1x1_increase/bn
I0620 04:22:24.679018  2846 net.cpp:454] conv4_4_1x1_increase/bn <- conv4_4_1x1_increase
I0620 04:22:24.679030  2846 net.cpp:397] conv4_4_1x1_increase/bn -> conv4_4_1x1_increase (in-place)
I0620 04:22:24.679291  2846 net.cpp:150] Setting up conv4_4_1x1_increase/bn
I0620 04:22:24.679301  2846 net.cpp:157] Top shape: 1 1024 51 51 (2663424)
I0620 04:22:24.679306  2846 net.cpp:165] Memory required for data: 877467656
I0620 04:22:24.679316  2846 layer_factory.hpp:77] Creating layer conv4_4
I0620 04:22:24.679327  2846 net.cpp:106] Creating Layer conv4_4
I0620 04:22:24.679332  2846 net.cpp:454] conv4_4 <- conv4_3_conv4_3/relu_0_split_1
I0620 04:22:24.679337  2846 net.cpp:454] conv4_4 <- conv4_4_1x1_increase
I0620 04:22:24.679343  2846 net.cpp:411] conv4_4 -> conv4_4
I0620 04:22:24.679368  2846 net.cpp:150] Setting up conv4_4
I0620 04:22:24.679374  2846 net.cpp:157] Top shape: 1 1024 51 51 (2663424)
I0620 04:22:24.679378  2846 net.cpp:165] Memory required for data: 888121352
I0620 04:22:24.679383  2846 layer_factory.hpp:77] Creating layer conv4_4/relu
I0620 04:22:24.679391  2846 net.cpp:106] Creating Layer conv4_4/relu
I0620 04:22:24.679395  2846 net.cpp:454] conv4_4/relu <- conv4_4
I0620 04:22:24.679402  2846 net.cpp:397] conv4_4/relu -> conv4_4 (in-place)
I0620 04:22:24.679410  2846 net.cpp:150] Setting up conv4_4/relu
I0620 04:22:24.679415  2846 net.cpp:157] Top shape: 1 1024 51 51 (2663424)
I0620 04:22:24.679419  2846 net.cpp:165] Memory required for data: 898775048
I0620 04:22:24.679424  2846 layer_factory.hpp:77] Creating layer conv4_4_conv4_4/relu_0_split
I0620 04:22:24.679432  2846 net.cpp:106] Creating Layer conv4_4_conv4_4/relu_0_split
I0620 04:22:24.679436  2846 net.cpp:454] conv4_4_conv4_4/relu_0_split <- conv4_4
I0620 04:22:24.679441  2846 net.cpp:411] conv4_4_conv4_4/relu_0_split -> conv4_4_conv4_4/relu_0_split_0
I0620 04:22:24.679448  2846 net.cpp:411] conv4_4_conv4_4/relu_0_split -> conv4_4_conv4_4/relu_0_split_1
I0620 04:22:24.679479  2846 net.cpp:150] Setting up conv4_4_conv4_4/relu_0_split
I0620 04:22:24.679486  2846 net.cpp:157] Top shape: 1 1024 51 51 (2663424)
I0620 04:22:24.679491  2846 net.cpp:157] Top shape: 1 1024 51 51 (2663424)
I0620 04:22:24.679494  2846 net.cpp:165] Memory required for data: 920082440
I0620 04:22:24.679498  2846 layer_factory.hpp:77] Creating layer conv4_5_1x1_reduce
I0620 04:22:24.679512  2846 net.cpp:106] Creating Layer conv4_5_1x1_reduce
I0620 04:22:24.679517  2846 net.cpp:454] conv4_5_1x1_reduce <- conv4_4_conv4_4/relu_0_split_0
I0620 04:22:24.679524  2846 net.cpp:411] conv4_5_1x1_reduce -> conv4_5_1x1_reduce
I0620 04:22:24.688076  2846 net.cpp:150] Setting up conv4_5_1x1_reduce
I0620 04:22:24.688132  2846 net.cpp:157] Top shape: 1 256 51 51 (665856)
I0620 04:22:24.688138  2846 net.cpp:165] Memory required for data: 922745864
I0620 04:22:24.688148  2846 layer_factory.hpp:77] Creating layer conv4_5_1x1_reduce/bn
I0620 04:22:24.688171  2846 net.cpp:106] Creating Layer conv4_5_1x1_reduce/bn
I0620 04:22:24.688179  2846 net.cpp:454] conv4_5_1x1_reduce/bn <- conv4_5_1x1_reduce
I0620 04:22:24.688244  2846 net.cpp:397] conv4_5_1x1_reduce/bn -> conv4_5_1x1_reduce (in-place)
I0620 04:22:24.688500  2846 net.cpp:150] Setting up conv4_5_1x1_reduce/bn
I0620 04:22:24.688508  2846 net.cpp:157] Top shape: 1 256 51 51 (665856)
I0620 04:22:24.688510  2846 net.cpp:165] Memory required for data: 925409288
I0620 04:22:24.688519  2846 layer_factory.hpp:77] Creating layer conv4_5_1x1_reduce/relu
I0620 04:22:24.688529  2846 net.cpp:106] Creating Layer conv4_5_1x1_reduce/relu
I0620 04:22:24.688531  2846 net.cpp:454] conv4_5_1x1_reduce/relu <- conv4_5_1x1_reduce
I0620 04:22:24.688536  2846 net.cpp:397] conv4_5_1x1_reduce/relu -> conv4_5_1x1_reduce (in-place)
I0620 04:22:24.688541  2846 net.cpp:150] Setting up conv4_5_1x1_reduce/relu
I0620 04:22:24.688544  2846 net.cpp:157] Top shape: 1 256 51 51 (665856)
I0620 04:22:24.688547  2846 net.cpp:165] Memory required for data: 928072712
I0620 04:22:24.688549  2846 layer_factory.hpp:77] Creating layer conv4_5_3x3
I0620 04:22:24.688557  2846 net.cpp:106] Creating Layer conv4_5_3x3
I0620 04:22:24.688560  2846 net.cpp:454] conv4_5_3x3 <- conv4_5_1x1_reduce
I0620 04:22:24.688565  2846 net.cpp:411] conv4_5_3x3 -> conv4_5_3x3
I0620 04:22:24.701638  2846 net.cpp:150] Setting up conv4_5_3x3
I0620 04:22:24.701653  2846 net.cpp:157] Top shape: 1 256 51 51 (665856)
I0620 04:22:24.701655  2846 net.cpp:165] Memory required for data: 930736136
I0620 04:22:24.701663  2846 layer_factory.hpp:77] Creating layer conv4_5_3x3/bn
I0620 04:22:24.701670  2846 net.cpp:106] Creating Layer conv4_5_3x3/bn
I0620 04:22:24.701674  2846 net.cpp:454] conv4_5_3x3/bn <- conv4_5_3x3
I0620 04:22:24.701679  2846 net.cpp:397] conv4_5_3x3/bn -> conv4_5_3x3 (in-place)
I0620 04:22:24.701817  2846 net.cpp:150] Setting up conv4_5_3x3/bn
I0620 04:22:24.701822  2846 net.cpp:157] Top shape: 1 256 51 51 (665856)
I0620 04:22:24.701825  2846 net.cpp:165] Memory required for data: 933399560
I0620 04:22:24.701830  2846 layer_factory.hpp:77] Creating layer conv4_5_3x3/relu
I0620 04:22:24.701835  2846 net.cpp:106] Creating Layer conv4_5_3x3/relu
I0620 04:22:24.701838  2846 net.cpp:454] conv4_5_3x3/relu <- conv4_5_3x3
I0620 04:22:24.701841  2846 net.cpp:397] conv4_5_3x3/relu -> conv4_5_3x3 (in-place)
I0620 04:22:24.701846  2846 net.cpp:150] Setting up conv4_5_3x3/relu
I0620 04:22:24.701849  2846 net.cpp:157] Top shape: 1 256 51 51 (665856)
I0620 04:22:24.701853  2846 net.cpp:165] Memory required for data: 936062984
I0620 04:22:24.701854  2846 layer_factory.hpp:77] Creating layer conv4_5_1x1_increase
I0620 04:22:24.701861  2846 net.cpp:106] Creating Layer conv4_5_1x1_increase
I0620 04:22:24.701864  2846 net.cpp:454] conv4_5_1x1_increase <- conv4_5_3x3
I0620 04:22:24.701869  2846 net.cpp:411] conv4_5_1x1_increase -> conv4_5_1x1_increase
I0620 04:22:24.708040  2846 net.cpp:150] Setting up conv4_5_1x1_increase
I0620 04:22:24.708051  2846 net.cpp:157] Top shape: 1 1024 51 51 (2663424)
I0620 04:22:24.708053  2846 net.cpp:165] Memory required for data: 946716680
I0620 04:22:24.708057  2846 layer_factory.hpp:77] Creating layer conv4_5_1x1_increase/bn
I0620 04:22:24.708063  2846 net.cpp:106] Creating Layer conv4_5_1x1_increase/bn
I0620 04:22:24.708066  2846 net.cpp:454] conv4_5_1x1_increase/bn <- conv4_5_1x1_increase
I0620 04:22:24.708070  2846 net.cpp:397] conv4_5_1x1_increase/bn -> conv4_5_1x1_increase (in-place)
I0620 04:22:24.708214  2846 net.cpp:150] Setting up conv4_5_1x1_increase/bn
I0620 04:22:24.708219  2846 net.cpp:157] Top shape: 1 1024 51 51 (2663424)
I0620 04:22:24.708220  2846 net.cpp:165] Memory required for data: 957370376
I0620 04:22:24.708225  2846 layer_factory.hpp:77] Creating layer conv4_5
I0620 04:22:24.708230  2846 net.cpp:106] Creating Layer conv4_5
I0620 04:22:24.708232  2846 net.cpp:454] conv4_5 <- conv4_4_conv4_4/relu_0_split_1
I0620 04:22:24.708236  2846 net.cpp:454] conv4_5 <- conv4_5_1x1_increase
I0620 04:22:24.708240  2846 net.cpp:411] conv4_5 -> conv4_5
I0620 04:22:24.708256  2846 net.cpp:150] Setting up conv4_5
I0620 04:22:24.708259  2846 net.cpp:157] Top shape: 1 1024 51 51 (2663424)
I0620 04:22:24.708262  2846 net.cpp:165] Memory required for data: 968024072
I0620 04:22:24.708281  2846 layer_factory.hpp:77] Creating layer conv4_5/relu
I0620 04:22:24.708286  2846 net.cpp:106] Creating Layer conv4_5/relu
I0620 04:22:24.708288  2846 net.cpp:454] conv4_5/relu <- conv4_5
I0620 04:22:24.708290  2846 net.cpp:397] conv4_5/relu -> conv4_5 (in-place)
I0620 04:22:24.708294  2846 net.cpp:150] Setting up conv4_5/relu
I0620 04:22:24.708297  2846 net.cpp:157] Top shape: 1 1024 51 51 (2663424)
I0620 04:22:24.708298  2846 net.cpp:165] Memory required for data: 978677768
I0620 04:22:24.708302  2846 layer_factory.hpp:77] Creating layer conv4_5_conv4_5/relu_0_split
I0620 04:22:24.708304  2846 net.cpp:106] Creating Layer conv4_5_conv4_5/relu_0_split
I0620 04:22:24.708307  2846 net.cpp:454] conv4_5_conv4_5/relu_0_split <- conv4_5
I0620 04:22:24.708309  2846 net.cpp:411] conv4_5_conv4_5/relu_0_split -> conv4_5_conv4_5/relu_0_split_0
I0620 04:22:24.708313  2846 net.cpp:411] conv4_5_conv4_5/relu_0_split -> conv4_5_conv4_5/relu_0_split_1
I0620 04:22:24.708333  2846 net.cpp:150] Setting up conv4_5_conv4_5/relu_0_split
I0620 04:22:24.708338  2846 net.cpp:157] Top shape: 1 1024 51 51 (2663424)
I0620 04:22:24.708339  2846 net.cpp:157] Top shape: 1 1024 51 51 (2663424)
I0620 04:22:24.708341  2846 net.cpp:165] Memory required for data: 999985160
I0620 04:22:24.708343  2846 layer_factory.hpp:77] Creating layer conv4_6_1x1_reduce
I0620 04:22:24.708353  2846 net.cpp:106] Creating Layer conv4_6_1x1_reduce
I0620 04:22:24.708355  2846 net.cpp:454] conv4_6_1x1_reduce <- conv4_5_conv4_5/relu_0_split_0
I0620 04:22:24.708359  2846 net.cpp:411] conv4_6_1x1_reduce -> conv4_6_1x1_reduce
I0620 04:22:24.713891  2846 net.cpp:150] Setting up conv4_6_1x1_reduce
I0620 04:22:24.713897  2846 net.cpp:157] Top shape: 1 256 51 51 (665856)
I0620 04:22:24.713901  2846 net.cpp:165] Memory required for data: 1002648584
I0620 04:22:24.713903  2846 layer_factory.hpp:77] Creating layer conv4_6_1x1_reduce/bn
I0620 04:22:24.713907  2846 net.cpp:106] Creating Layer conv4_6_1x1_reduce/bn
I0620 04:22:24.713909  2846 net.cpp:454] conv4_6_1x1_reduce/bn <- conv4_6_1x1_reduce
I0620 04:22:24.713914  2846 net.cpp:397] conv4_6_1x1_reduce/bn -> conv4_6_1x1_reduce (in-place)
I0620 04:22:24.714056  2846 net.cpp:150] Setting up conv4_6_1x1_reduce/bn
I0620 04:22:24.714061  2846 net.cpp:157] Top shape: 1 256 51 51 (665856)
I0620 04:22:24.714062  2846 net.cpp:165] Memory required for data: 1005312008
I0620 04:22:24.714067  2846 layer_factory.hpp:77] Creating layer conv4_6_1x1_reduce/relu
I0620 04:22:24.714073  2846 net.cpp:106] Creating Layer conv4_6_1x1_reduce/relu
I0620 04:22:24.714076  2846 net.cpp:454] conv4_6_1x1_reduce/relu <- conv4_6_1x1_reduce
I0620 04:22:24.714079  2846 net.cpp:397] conv4_6_1x1_reduce/relu -> conv4_6_1x1_reduce (in-place)
I0620 04:22:24.714084  2846 net.cpp:150] Setting up conv4_6_1x1_reduce/relu
I0620 04:22:24.714087  2846 net.cpp:157] Top shape: 1 256 51 51 (665856)
I0620 04:22:24.714089  2846 net.cpp:165] Memory required for data: 1007975432
I0620 04:22:24.714092  2846 layer_factory.hpp:77] Creating layer conv4_6_3x3
I0620 04:22:24.714099  2846 net.cpp:106] Creating Layer conv4_6_3x3
I0620 04:22:24.714102  2846 net.cpp:454] conv4_6_3x3 <- conv4_6_1x1_reduce
I0620 04:22:24.714104  2846 net.cpp:411] conv4_6_3x3 -> conv4_6_3x3
I0620 04:22:24.731441  2846 net.cpp:150] Setting up conv4_6_3x3
I0620 04:22:24.731526  2846 net.cpp:157] Top shape: 1 256 51 51 (665856)
I0620 04:22:24.731539  2846 net.cpp:165] Memory required for data: 1010638856
I0620 04:22:24.731556  2846 layer_factory.hpp:77] Creating layer conv4_6_3x3/bn
I0620 04:22:24.731595  2846 net.cpp:106] Creating Layer conv4_6_3x3/bn
I0620 04:22:24.731606  2846 net.cpp:454] conv4_6_3x3/bn <- conv4_6_3x3
I0620 04:22:24.731619  2846 net.cpp:397] conv4_6_3x3/bn -> conv4_6_3x3 (in-place)
I0620 04:22:24.731843  2846 net.cpp:150] Setting up conv4_6_3x3/bn
I0620 04:22:24.731849  2846 net.cpp:157] Top shape: 1 256 51 51 (665856)
I0620 04:22:24.731853  2846 net.cpp:165] Memory required for data: 1013302280
I0620 04:22:24.731863  2846 layer_factory.hpp:77] Creating layer conv4_6_3x3/relu
I0620 04:22:24.731930  2846 net.cpp:106] Creating Layer conv4_6_3x3/relu
I0620 04:22:24.731935  2846 net.cpp:454] conv4_6_3x3/relu <- conv4_6_3x3
I0620 04:22:24.731942  2846 net.cpp:397] conv4_6_3x3/relu -> conv4_6_3x3 (in-place)
I0620 04:22:24.731950  2846 net.cpp:150] Setting up conv4_6_3x3/relu
I0620 04:22:24.731956  2846 net.cpp:157] Top shape: 1 256 51 51 (665856)
I0620 04:22:24.731961  2846 net.cpp:165] Memory required for data: 1015965704
I0620 04:22:24.731964  2846 layer_factory.hpp:77] Creating layer conv4_6_1x1_increase
I0620 04:22:24.731981  2846 net.cpp:106] Creating Layer conv4_6_1x1_increase
I0620 04:22:24.731986  2846 net.cpp:454] conv4_6_1x1_increase <- conv4_6_3x3
I0620 04:22:24.731992  2846 net.cpp:411] conv4_6_1x1_increase -> conv4_6_1x1_increase
I0620 04:22:24.738636  2846 net.cpp:150] Setting up conv4_6_1x1_increase
I0620 04:22:24.738651  2846 net.cpp:157] Top shape: 1 1024 51 51 (2663424)
I0620 04:22:24.738653  2846 net.cpp:165] Memory required for data: 1026619400
I0620 04:22:24.738662  2846 layer_factory.hpp:77] Creating layer conv4_6_1x1_increase/bn
I0620 04:22:24.738672  2846 net.cpp:106] Creating Layer conv4_6_1x1_increase/bn
I0620 04:22:24.738677  2846 net.cpp:454] conv4_6_1x1_increase/bn <- conv4_6_1x1_increase
I0620 04:22:24.738682  2846 net.cpp:397] conv4_6_1x1_increase/bn -> conv4_6_1x1_increase (in-place)
I0620 04:22:24.738834  2846 net.cpp:150] Setting up conv4_6_1x1_increase/bn
I0620 04:22:24.738839  2846 net.cpp:157] Top shape: 1 1024 51 51 (2663424)
I0620 04:22:24.738842  2846 net.cpp:165] Memory required for data: 1037273096
I0620 04:22:24.738847  2846 layer_factory.hpp:77] Creating layer conv4_6
I0620 04:22:24.738852  2846 net.cpp:106] Creating Layer conv4_6
I0620 04:22:24.738855  2846 net.cpp:454] conv4_6 <- conv4_5_conv4_5/relu_0_split_1
I0620 04:22:24.738859  2846 net.cpp:454] conv4_6 <- conv4_6_1x1_increase
I0620 04:22:24.738862  2846 net.cpp:411] conv4_6 -> conv4_6
I0620 04:22:24.738878  2846 net.cpp:150] Setting up conv4_6
I0620 04:22:24.738883  2846 net.cpp:157] Top shape: 1 1024 51 51 (2663424)
I0620 04:22:24.738884  2846 net.cpp:165] Memory required for data: 1047926792
I0620 04:22:24.738886  2846 layer_factory.hpp:77] Creating layer conv4_6/relu
I0620 04:22:24.738891  2846 net.cpp:106] Creating Layer conv4_6/relu
I0620 04:22:24.738894  2846 net.cpp:454] conv4_6/relu <- conv4_6
I0620 04:22:24.738898  2846 net.cpp:397] conv4_6/relu -> conv4_6 (in-place)
I0620 04:22:24.738903  2846 net.cpp:150] Setting up conv4_6/relu
I0620 04:22:24.738905  2846 net.cpp:157] Top shape: 1 1024 51 51 (2663424)
I0620 04:22:24.738909  2846 net.cpp:165] Memory required for data: 1058580488
I0620 04:22:24.738910  2846 layer_factory.hpp:77] Creating layer conv4_6_conv4_6/relu_0_split
I0620 04:22:24.738914  2846 net.cpp:106] Creating Layer conv4_6_conv4_6/relu_0_split
I0620 04:22:24.738917  2846 net.cpp:454] conv4_6_conv4_6/relu_0_split <- conv4_6
I0620 04:22:24.738921  2846 net.cpp:411] conv4_6_conv4_6/relu_0_split -> conv4_6_conv4_6/relu_0_split_0
I0620 04:22:24.738926  2846 net.cpp:411] conv4_6_conv4_6/relu_0_split -> conv4_6_conv4_6/relu_0_split_1
I0620 04:22:24.738946  2846 net.cpp:150] Setting up conv4_6_conv4_6/relu_0_split
I0620 04:22:24.738950  2846 net.cpp:157] Top shape: 1 1024 51 51 (2663424)
I0620 04:22:24.738955  2846 net.cpp:157] Top shape: 1 1024 51 51 (2663424)
I0620 04:22:24.738956  2846 net.cpp:165] Memory required for data: 1079887880
I0620 04:22:24.738960  2846 layer_factory.hpp:77] Creating layer conv4_7_1x1_reduce
I0620 04:22:24.738967  2846 net.cpp:106] Creating Layer conv4_7_1x1_reduce
I0620 04:22:24.738970  2846 net.cpp:454] conv4_7_1x1_reduce <- conv4_6_conv4_6/relu_0_split_0
I0620 04:22:24.738976  2846 net.cpp:411] conv4_7_1x1_reduce -> conv4_7_1x1_reduce
I0620 04:22:24.744495  2846 net.cpp:150] Setting up conv4_7_1x1_reduce
I0620 04:22:24.744501  2846 net.cpp:157] Top shape: 1 256 51 51 (665856)
I0620 04:22:24.744505  2846 net.cpp:165] Memory required for data: 1082551304
I0620 04:22:24.744508  2846 layer_factory.hpp:77] Creating layer conv4_7_1x1_reduce/bn
I0620 04:22:24.744527  2846 net.cpp:106] Creating Layer conv4_7_1x1_reduce/bn
I0620 04:22:24.744530  2846 net.cpp:454] conv4_7_1x1_reduce/bn <- conv4_7_1x1_reduce
I0620 04:22:24.744535  2846 net.cpp:397] conv4_7_1x1_reduce/bn -> conv4_7_1x1_reduce (in-place)
I0620 04:22:24.744663  2846 net.cpp:150] Setting up conv4_7_1x1_reduce/bn
I0620 04:22:24.744668  2846 net.cpp:157] Top shape: 1 256 51 51 (665856)
I0620 04:22:24.744670  2846 net.cpp:165] Memory required for data: 1085214728
I0620 04:22:24.744675  2846 layer_factory.hpp:77] Creating layer conv4_7_1x1_reduce/relu
I0620 04:22:24.744679  2846 net.cpp:106] Creating Layer conv4_7_1x1_reduce/relu
I0620 04:22:24.744683  2846 net.cpp:454] conv4_7_1x1_reduce/relu <- conv4_7_1x1_reduce
I0620 04:22:24.744685  2846 net.cpp:397] conv4_7_1x1_reduce/relu -> conv4_7_1x1_reduce (in-place)
I0620 04:22:24.744689  2846 net.cpp:150] Setting up conv4_7_1x1_reduce/relu
I0620 04:22:24.744693  2846 net.cpp:157] Top shape: 1 256 51 51 (665856)
I0620 04:22:24.744695  2846 net.cpp:165] Memory required for data: 1087878152
I0620 04:22:24.744699  2846 layer_factory.hpp:77] Creating layer conv4_7_3x3
I0620 04:22:24.744704  2846 net.cpp:106] Creating Layer conv4_7_3x3
I0620 04:22:24.744706  2846 net.cpp:454] conv4_7_3x3 <- conv4_7_1x1_reduce
I0620 04:22:24.744711  2846 net.cpp:411] conv4_7_3x3 -> conv4_7_3x3
I0620 04:22:24.757860  2846 net.cpp:150] Setting up conv4_7_3x3
I0620 04:22:24.757876  2846 net.cpp:157] Top shape: 1 256 51 51 (665856)
I0620 04:22:24.757879  2846 net.cpp:165] Memory required for data: 1090541576
I0620 04:22:24.757885  2846 layer_factory.hpp:77] Creating layer conv4_7_3x3/bn
I0620 04:22:24.757892  2846 net.cpp:106] Creating Layer conv4_7_3x3/bn
I0620 04:22:24.757895  2846 net.cpp:454] conv4_7_3x3/bn <- conv4_7_3x3
I0620 04:22:24.757899  2846 net.cpp:397] conv4_7_3x3/bn -> conv4_7_3x3 (in-place)
I0620 04:22:24.758040  2846 net.cpp:150] Setting up conv4_7_3x3/bn
I0620 04:22:24.758045  2846 net.cpp:157] Top shape: 1 256 51 51 (665856)
I0620 04:22:24.758049  2846 net.cpp:165] Memory required for data: 1093205000
I0620 04:22:24.758054  2846 layer_factory.hpp:77] Creating layer conv4_7_3x3/relu
I0620 04:22:24.758059  2846 net.cpp:106] Creating Layer conv4_7_3x3/relu
I0620 04:22:24.758061  2846 net.cpp:454] conv4_7_3x3/relu <- conv4_7_3x3
I0620 04:22:24.758064  2846 net.cpp:397] conv4_7_3x3/relu -> conv4_7_3x3 (in-place)
I0620 04:22:24.758069  2846 net.cpp:150] Setting up conv4_7_3x3/relu
I0620 04:22:24.758072  2846 net.cpp:157] Top shape: 1 256 51 51 (665856)
I0620 04:22:24.758075  2846 net.cpp:165] Memory required for data: 1095868424
I0620 04:22:24.758077  2846 layer_factory.hpp:77] Creating layer conv4_7_1x1_increase
I0620 04:22:24.758085  2846 net.cpp:106] Creating Layer conv4_7_1x1_increase
I0620 04:22:24.758087  2846 net.cpp:454] conv4_7_1x1_increase <- conv4_7_3x3
I0620 04:22:24.758091  2846 net.cpp:411] conv4_7_1x1_increase -> conv4_7_1x1_increase
I0620 04:22:24.764802  2846 net.cpp:150] Setting up conv4_7_1x1_increase
I0620 04:22:24.764830  2846 net.cpp:157] Top shape: 1 1024 51 51 (2663424)
I0620 04:22:24.764835  2846 net.cpp:165] Memory required for data: 1106522120
I0620 04:22:24.764844  2846 layer_factory.hpp:77] Creating layer conv4_7_1x1_increase/bn
I0620 04:22:24.764859  2846 net.cpp:106] Creating Layer conv4_7_1x1_increase/bn
I0620 04:22:24.764866  2846 net.cpp:454] conv4_7_1x1_increase/bn <- conv4_7_1x1_increase
I0620 04:22:24.764875  2846 net.cpp:397] conv4_7_1x1_increase/bn -> conv4_7_1x1_increase (in-place)
I0620 04:22:24.765071  2846 net.cpp:150] Setting up conv4_7_1x1_increase/bn
I0620 04:22:24.765079  2846 net.cpp:157] Top shape: 1 1024 51 51 (2663424)
I0620 04:22:24.765084  2846 net.cpp:165] Memory required for data: 1117175816
I0620 04:22:24.765091  2846 layer_factory.hpp:77] Creating layer conv4_7
I0620 04:22:24.765099  2846 net.cpp:106] Creating Layer conv4_7
I0620 04:22:24.765102  2846 net.cpp:454] conv4_7 <- conv4_6_conv4_6/relu_0_split_1
I0620 04:22:24.765107  2846 net.cpp:454] conv4_7 <- conv4_7_1x1_increase
I0620 04:22:24.765131  2846 net.cpp:411] conv4_7 -> conv4_7
I0620 04:22:24.765153  2846 net.cpp:150] Setting up conv4_7
I0620 04:22:24.765159  2846 net.cpp:157] Top shape: 1 1024 51 51 (2663424)
I0620 04:22:24.765163  2846 net.cpp:165] Memory required for data: 1127829512
I0620 04:22:24.765167  2846 layer_factory.hpp:77] Creating layer conv4_7/relu
I0620 04:22:24.765175  2846 net.cpp:106] Creating Layer conv4_7/relu
I0620 04:22:24.765179  2846 net.cpp:454] conv4_7/relu <- conv4_7
I0620 04:22:24.765184  2846 net.cpp:397] conv4_7/relu -> conv4_7 (in-place)
I0620 04:22:24.765190  2846 net.cpp:150] Setting up conv4_7/relu
I0620 04:22:24.765197  2846 net.cpp:157] Top shape: 1 1024 51 51 (2663424)
I0620 04:22:24.765200  2846 net.cpp:165] Memory required for data: 1138483208
I0620 04:22:24.765204  2846 layer_factory.hpp:77] Creating layer conv4_7_conv4_7/relu_0_split
I0620 04:22:24.765210  2846 net.cpp:106] Creating Layer conv4_7_conv4_7/relu_0_split
I0620 04:22:24.765214  2846 net.cpp:454] conv4_7_conv4_7/relu_0_split <- conv4_7
I0620 04:22:24.765220  2846 net.cpp:411] conv4_7_conv4_7/relu_0_split -> conv4_7_conv4_7/relu_0_split_0
I0620 04:22:24.765226  2846 net.cpp:411] conv4_7_conv4_7/relu_0_split -> conv4_7_conv4_7/relu_0_split_1
I0620 04:22:24.765256  2846 net.cpp:150] Setting up conv4_7_conv4_7/relu_0_split
I0620 04:22:24.765262  2846 net.cpp:157] Top shape: 1 1024 51 51 (2663424)
I0620 04:22:24.765267  2846 net.cpp:157] Top shape: 1 1024 51 51 (2663424)
I0620 04:22:24.765271  2846 net.cpp:165] Memory required for data: 1159790600
I0620 04:22:24.765275  2846 layer_factory.hpp:77] Creating layer conv4_8_1x1_reduce
I0620 04:22:24.765286  2846 net.cpp:106] Creating Layer conv4_8_1x1_reduce
I0620 04:22:24.765290  2846 net.cpp:454] conv4_8_1x1_reduce <- conv4_7_conv4_7/relu_0_split_0
I0620 04:22:24.765297  2846 net.cpp:411] conv4_8_1x1_reduce -> conv4_8_1x1_reduce
I0620 04:22:24.771343  2846 net.cpp:150] Setting up conv4_8_1x1_reduce
I0620 04:22:24.771400  2846 net.cpp:157] Top shape: 1 256 51 51 (665856)
I0620 04:22:24.771405  2846 net.cpp:165] Memory required for data: 1162454024
I0620 04:22:24.771420  2846 layer_factory.hpp:77] Creating layer conv4_8_1x1_reduce/bn
I0620 04:22:24.771441  2846 net.cpp:106] Creating Layer conv4_8_1x1_reduce/bn
I0620 04:22:24.771448  2846 net.cpp:454] conv4_8_1x1_reduce/bn <- conv4_8_1x1_reduce
I0620 04:22:24.771463  2846 net.cpp:397] conv4_8_1x1_reduce/bn -> conv4_8_1x1_reduce (in-place)
I0620 04:22:24.771658  2846 net.cpp:150] Setting up conv4_8_1x1_reduce/bn
I0620 04:22:24.771664  2846 net.cpp:157] Top shape: 1 256 51 51 (665856)
I0620 04:22:24.771667  2846 net.cpp:165] Memory required for data: 1165117448
I0620 04:22:24.771673  2846 layer_factory.hpp:77] Creating layer conv4_8_1x1_reduce/relu
I0620 04:22:24.771680  2846 net.cpp:106] Creating Layer conv4_8_1x1_reduce/relu
I0620 04:22:24.771683  2846 net.cpp:454] conv4_8_1x1_reduce/relu <- conv4_8_1x1_reduce
I0620 04:22:24.771687  2846 net.cpp:397] conv4_8_1x1_reduce/relu -> conv4_8_1x1_reduce (in-place)
I0620 04:22:24.771692  2846 net.cpp:150] Setting up conv4_8_1x1_reduce/relu
I0620 04:22:24.771697  2846 net.cpp:157] Top shape: 1 256 51 51 (665856)
I0620 04:22:24.771699  2846 net.cpp:165] Memory required for data: 1167780872
I0620 04:22:24.771703  2846 layer_factory.hpp:77] Creating layer conv4_8_3x3
I0620 04:22:24.771710  2846 net.cpp:106] Creating Layer conv4_8_3x3
I0620 04:22:24.771713  2846 net.cpp:454] conv4_8_3x3 <- conv4_8_1x1_reduce
I0620 04:22:24.771733  2846 net.cpp:411] conv4_8_3x3 -> conv4_8_3x3
I0620 04:22:24.786979  2846 net.cpp:150] Setting up conv4_8_3x3
I0620 04:22:24.787000  2846 net.cpp:157] Top shape: 1 256 51 51 (665856)
I0620 04:22:24.787003  2846 net.cpp:165] Memory required for data: 1170444296
I0620 04:22:24.787011  2846 layer_factory.hpp:77] Creating layer conv4_8_3x3/bn
I0620 04:22:24.787020  2846 net.cpp:106] Creating Layer conv4_8_3x3/bn
I0620 04:22:24.787025  2846 net.cpp:454] conv4_8_3x3/bn <- conv4_8_3x3
I0620 04:22:24.787030  2846 net.cpp:397] conv4_8_3x3/bn -> conv4_8_3x3 (in-place)
I0620 04:22:24.787175  2846 net.cpp:150] Setting up conv4_8_3x3/bn
I0620 04:22:24.787197  2846 net.cpp:157] Top shape: 1 256 51 51 (665856)
I0620 04:22:24.787201  2846 net.cpp:165] Memory required for data: 1173107720
I0620 04:22:24.787209  2846 layer_factory.hpp:77] Creating layer conv4_8_3x3/relu
I0620 04:22:24.787214  2846 net.cpp:106] Creating Layer conv4_8_3x3/relu
I0620 04:22:24.787217  2846 net.cpp:454] conv4_8_3x3/relu <- conv4_8_3x3
I0620 04:22:24.787222  2846 net.cpp:397] conv4_8_3x3/relu -> conv4_8_3x3 (in-place)
I0620 04:22:24.787227  2846 net.cpp:150] Setting up conv4_8_3x3/relu
I0620 04:22:24.787231  2846 net.cpp:157] Top shape: 1 256 51 51 (665856)
I0620 04:22:24.787233  2846 net.cpp:165] Memory required for data: 1175771144
I0620 04:22:24.787236  2846 layer_factory.hpp:77] Creating layer conv4_8_1x1_increase
I0620 04:22:24.787243  2846 net.cpp:106] Creating Layer conv4_8_1x1_increase
I0620 04:22:24.787245  2846 net.cpp:454] conv4_8_1x1_increase <- conv4_8_3x3
I0620 04:22:24.787250  2846 net.cpp:411] conv4_8_1x1_increase -> conv4_8_1x1_increase
I0620 04:22:24.793515  2846 net.cpp:150] Setting up conv4_8_1x1_increase
I0620 04:22:24.793525  2846 net.cpp:157] Top shape: 1 1024 51 51 (2663424)
I0620 04:22:24.793529  2846 net.cpp:165] Memory required for data: 1186424840
I0620 04:22:24.793534  2846 layer_factory.hpp:77] Creating layer conv4_8_1x1_increase/bn
I0620 04:22:24.793540  2846 net.cpp:106] Creating Layer conv4_8_1x1_increase/bn
I0620 04:22:24.793543  2846 net.cpp:454] conv4_8_1x1_increase/bn <- conv4_8_1x1_increase
I0620 04:22:24.793547  2846 net.cpp:397] conv4_8_1x1_increase/bn -> conv4_8_1x1_increase (in-place)
I0620 04:22:24.793689  2846 net.cpp:150] Setting up conv4_8_1x1_increase/bn
I0620 04:22:24.793694  2846 net.cpp:157] Top shape: 1 1024 51 51 (2663424)
I0620 04:22:24.793696  2846 net.cpp:165] Memory required for data: 1197078536
I0620 04:22:24.793701  2846 layer_factory.hpp:77] Creating layer conv4_8
I0620 04:22:24.793709  2846 net.cpp:106] Creating Layer conv4_8
I0620 04:22:24.793711  2846 net.cpp:454] conv4_8 <- conv4_7_conv4_7/relu_0_split_1
I0620 04:22:24.793716  2846 net.cpp:454] conv4_8 <- conv4_8_1x1_increase
I0620 04:22:24.793721  2846 net.cpp:411] conv4_8 -> conv4_8
I0620 04:22:24.793737  2846 net.cpp:150] Setting up conv4_8
I0620 04:22:24.793741  2846 net.cpp:157] Top shape: 1 1024 51 51 (2663424)
I0620 04:22:24.793745  2846 net.cpp:165] Memory required for data: 1207732232
I0620 04:22:24.793747  2846 layer_factory.hpp:77] Creating layer conv4_8/relu
I0620 04:22:24.793757  2846 net.cpp:106] Creating Layer conv4_8/relu
I0620 04:22:24.793761  2846 net.cpp:454] conv4_8/relu <- conv4_8
I0620 04:22:24.793764  2846 net.cpp:397] conv4_8/relu -> conv4_8 (in-place)
I0620 04:22:24.793769  2846 net.cpp:150] Setting up conv4_8/relu
I0620 04:22:24.793772  2846 net.cpp:157] Top shape: 1 1024 51 51 (2663424)
I0620 04:22:24.793776  2846 net.cpp:165] Memory required for data: 1218385928
I0620 04:22:24.793777  2846 layer_factory.hpp:77] Creating layer conv4_8_conv4_8/relu_0_split
I0620 04:22:24.793782  2846 net.cpp:106] Creating Layer conv4_8_conv4_8/relu_0_split
I0620 04:22:24.793784  2846 net.cpp:454] conv4_8_conv4_8/relu_0_split <- conv4_8
I0620 04:22:24.793788  2846 net.cpp:411] conv4_8_conv4_8/relu_0_split -> conv4_8_conv4_8/relu_0_split_0
I0620 04:22:24.793793  2846 net.cpp:411] conv4_8_conv4_8/relu_0_split -> conv4_8_conv4_8/relu_0_split_1
I0620 04:22:24.793815  2846 net.cpp:150] Setting up conv4_8_conv4_8/relu_0_split
I0620 04:22:24.793819  2846 net.cpp:157] Top shape: 1 1024 51 51 (2663424)
I0620 04:22:24.793823  2846 net.cpp:157] Top shape: 1 1024 51 51 (2663424)
I0620 04:22:24.793825  2846 net.cpp:165] Memory required for data: 1239693320
I0620 04:22:24.793828  2846 layer_factory.hpp:77] Creating layer conv4_9_1x1_reduce
I0620 04:22:24.793835  2846 net.cpp:106] Creating Layer conv4_9_1x1_reduce
I0620 04:22:24.793838  2846 net.cpp:454] conv4_9_1x1_reduce <- conv4_8_conv4_8/relu_0_split_0
I0620 04:22:24.793843  2846 net.cpp:411] conv4_9_1x1_reduce -> conv4_9_1x1_reduce
I0620 04:22:24.799463  2846 net.cpp:150] Setting up conv4_9_1x1_reduce
I0620 04:22:24.799486  2846 net.cpp:157] Top shape: 1 256 51 51 (665856)
I0620 04:22:24.799489  2846 net.cpp:165] Memory required for data: 1242356744
I0620 04:22:24.799494  2846 layer_factory.hpp:77] Creating layer conv4_9_1x1_reduce/bn
I0620 04:22:24.799499  2846 net.cpp:106] Creating Layer conv4_9_1x1_reduce/bn
I0620 04:22:24.799502  2846 net.cpp:454] conv4_9_1x1_reduce/bn <- conv4_9_1x1_reduce
I0620 04:22:24.799509  2846 net.cpp:397] conv4_9_1x1_reduce/bn -> conv4_9_1x1_reduce (in-place)
I0620 04:22:24.799648  2846 net.cpp:150] Setting up conv4_9_1x1_reduce/bn
I0620 04:22:24.799651  2846 net.cpp:157] Top shape: 1 256 51 51 (665856)
I0620 04:22:24.799654  2846 net.cpp:165] Memory required for data: 1245020168
I0620 04:22:24.799685  2846 layer_factory.hpp:77] Creating layer conv4_9_1x1_reduce/relu
I0620 04:22:24.799690  2846 net.cpp:106] Creating Layer conv4_9_1x1_reduce/relu
I0620 04:22:24.799692  2846 net.cpp:454] conv4_9_1x1_reduce/relu <- conv4_9_1x1_reduce
I0620 04:22:24.799696  2846 net.cpp:397] conv4_9_1x1_reduce/relu -> conv4_9_1x1_reduce (in-place)
I0620 04:22:24.799700  2846 net.cpp:150] Setting up conv4_9_1x1_reduce/relu
I0620 04:22:24.799703  2846 net.cpp:157] Top shape: 1 256 51 51 (665856)
I0620 04:22:24.799706  2846 net.cpp:165] Memory required for data: 1247683592
I0620 04:22:24.799708  2846 layer_factory.hpp:77] Creating layer conv4_9_3x3
I0620 04:22:24.799716  2846 net.cpp:106] Creating Layer conv4_9_3x3
I0620 04:22:24.799720  2846 net.cpp:454] conv4_9_3x3 <- conv4_9_1x1_reduce
I0620 04:22:24.799723  2846 net.cpp:411] conv4_9_3x3 -> conv4_9_3x3
I0620 04:22:24.814563  2846 net.cpp:150] Setting up conv4_9_3x3
I0620 04:22:24.814642  2846 net.cpp:157] Top shape: 1 256 51 51 (665856)
I0620 04:22:24.814649  2846 net.cpp:165] Memory required for data: 1250347016
I0620 04:22:24.814667  2846 layer_factory.hpp:77] Creating layer conv4_9_3x3/bn
I0620 04:22:24.814697  2846 net.cpp:106] Creating Layer conv4_9_3x3/bn
I0620 04:22:24.814708  2846 net.cpp:454] conv4_9_3x3/bn <- conv4_9_3x3
I0620 04:22:24.814720  2846 net.cpp:397] conv4_9_3x3/bn -> conv4_9_3x3 (in-place)
I0620 04:22:24.814967  2846 net.cpp:150] Setting up conv4_9_3x3/bn
I0620 04:22:24.814973  2846 net.cpp:157] Top shape: 1 256 51 51 (665856)
I0620 04:22:24.814983  2846 net.cpp:165] Memory required for data: 1253010440
I0620 04:22:24.814992  2846 layer_factory.hpp:77] Creating layer conv4_9_3x3/relu
I0620 04:22:24.815006  2846 net.cpp:106] Creating Layer conv4_9_3x3/relu
I0620 04:22:24.815011  2846 net.cpp:454] conv4_9_3x3/relu <- conv4_9_3x3
I0620 04:22:24.815016  2846 net.cpp:397] conv4_9_3x3/relu -> conv4_9_3x3 (in-place)
I0620 04:22:24.815022  2846 net.cpp:150] Setting up conv4_9_3x3/relu
I0620 04:22:24.815028  2846 net.cpp:157] Top shape: 1 256 51 51 (665856)
I0620 04:22:24.815032  2846 net.cpp:165] Memory required for data: 1255673864
I0620 04:22:24.815037  2846 layer_factory.hpp:77] Creating layer conv4_9_1x1_increase
I0620 04:22:24.815052  2846 net.cpp:106] Creating Layer conv4_9_1x1_increase
I0620 04:22:24.815055  2846 net.cpp:454] conv4_9_1x1_increase <- conv4_9_3x3
I0620 04:22:24.815062  2846 net.cpp:411] conv4_9_1x1_increase -> conv4_9_1x1_increase
I0620 04:22:24.824733  2846 net.cpp:150] Setting up conv4_9_1x1_increase
I0620 04:22:24.824774  2846 net.cpp:157] Top shape: 1 1024 51 51 (2663424)
I0620 04:22:24.824777  2846 net.cpp:165] Memory required for data: 1266327560
I0620 04:22:24.824790  2846 layer_factory.hpp:77] Creating layer conv4_9_1x1_increase/bn
I0620 04:22:24.824807  2846 net.cpp:106] Creating Layer conv4_9_1x1_increase/bn
I0620 04:22:24.824815  2846 net.cpp:454] conv4_9_1x1_increase/bn <- conv4_9_1x1_increase
I0620 04:22:24.824821  2846 net.cpp:397] conv4_9_1x1_increase/bn -> conv4_9_1x1_increase (in-place)
I0620 04:22:24.824983  2846 net.cpp:150] Setting up conv4_9_1x1_increase/bn
I0620 04:22:24.824990  2846 net.cpp:157] Top shape: 1 1024 51 51 (2663424)
I0620 04:22:24.824991  2846 net.cpp:165] Memory required for data: 1276981256
I0620 04:22:24.824996  2846 layer_factory.hpp:77] Creating layer conv4_9
I0620 04:22:24.825021  2846 net.cpp:106] Creating Layer conv4_9
I0620 04:22:24.825023  2846 net.cpp:454] conv4_9 <- conv4_8_conv4_8/relu_0_split_1
I0620 04:22:24.825026  2846 net.cpp:454] conv4_9 <- conv4_9_1x1_increase
I0620 04:22:24.825031  2846 net.cpp:411] conv4_9 -> conv4_9
I0620 04:22:24.825047  2846 net.cpp:150] Setting up conv4_9
I0620 04:22:24.825050  2846 net.cpp:157] Top shape: 1 1024 51 51 (2663424)
I0620 04:22:24.825053  2846 net.cpp:165] Memory required for data: 1287634952
I0620 04:22:24.825055  2846 layer_factory.hpp:77] Creating layer conv4_9/relu
I0620 04:22:24.825062  2846 net.cpp:106] Creating Layer conv4_9/relu
I0620 04:22:24.825065  2846 net.cpp:454] conv4_9/relu <- conv4_9
I0620 04:22:24.825068  2846 net.cpp:397] conv4_9/relu -> conv4_9 (in-place)
I0620 04:22:24.825073  2846 net.cpp:150] Setting up conv4_9/relu
I0620 04:22:24.825076  2846 net.cpp:157] Top shape: 1 1024 51 51 (2663424)
I0620 04:22:24.825079  2846 net.cpp:165] Memory required for data: 1298288648
I0620 04:22:24.825081  2846 layer_factory.hpp:77] Creating layer conv4_9_conv4_9/relu_0_split
I0620 04:22:24.825088  2846 net.cpp:106] Creating Layer conv4_9_conv4_9/relu_0_split
I0620 04:22:24.825089  2846 net.cpp:454] conv4_9_conv4_9/relu_0_split <- conv4_9
I0620 04:22:24.825093  2846 net.cpp:411] conv4_9_conv4_9/relu_0_split -> conv4_9_conv4_9/relu_0_split_0
I0620 04:22:24.825098  2846 net.cpp:411] conv4_9_conv4_9/relu_0_split -> conv4_9_conv4_9/relu_0_split_1
I0620 04:22:24.825120  2846 net.cpp:150] Setting up conv4_9_conv4_9/relu_0_split
I0620 04:22:24.825124  2846 net.cpp:157] Top shape: 1 1024 51 51 (2663424)
I0620 04:22:24.825127  2846 net.cpp:157] Top shape: 1 1024 51 51 (2663424)
I0620 04:22:24.825130  2846 net.cpp:165] Memory required for data: 1319596040
I0620 04:22:24.825134  2846 layer_factory.hpp:77] Creating layer conv4_10_1x1_reduce
I0620 04:22:24.825145  2846 net.cpp:106] Creating Layer conv4_10_1x1_reduce
I0620 04:22:24.825147  2846 net.cpp:454] conv4_10_1x1_reduce <- conv4_9_conv4_9/relu_0_split_0
I0620 04:22:24.825152  2846 net.cpp:411] conv4_10_1x1_reduce -> conv4_10_1x1_reduce
I0620 04:22:24.830796  2846 net.cpp:150] Setting up conv4_10_1x1_reduce
I0620 04:22:24.830801  2846 net.cpp:157] Top shape: 1 256 51 51 (665856)
I0620 04:22:24.830803  2846 net.cpp:165] Memory required for data: 1322259464
I0620 04:22:24.830806  2846 layer_factory.hpp:77] Creating layer conv4_10_1x1_reduce/bn
I0620 04:22:24.830811  2846 net.cpp:106] Creating Layer conv4_10_1x1_reduce/bn
I0620 04:22:24.830813  2846 net.cpp:454] conv4_10_1x1_reduce/bn <- conv4_10_1x1_reduce
I0620 04:22:24.830817  2846 net.cpp:397] conv4_10_1x1_reduce/bn -> conv4_10_1x1_reduce (in-place)
I0620 04:22:24.830947  2846 net.cpp:150] Setting up conv4_10_1x1_reduce/bn
I0620 04:22:24.830952  2846 net.cpp:157] Top shape: 1 256 51 51 (665856)
I0620 04:22:24.830955  2846 net.cpp:165] Memory required for data: 1324922888
I0620 04:22:24.830960  2846 layer_factory.hpp:77] Creating layer conv4_10_1x1_reduce/relu
I0620 04:22:24.830963  2846 net.cpp:106] Creating Layer conv4_10_1x1_reduce/relu
I0620 04:22:24.830965  2846 net.cpp:454] conv4_10_1x1_reduce/relu <- conv4_10_1x1_reduce
I0620 04:22:24.830968  2846 net.cpp:397] conv4_10_1x1_reduce/relu -> conv4_10_1x1_reduce (in-place)
I0620 04:22:24.830971  2846 net.cpp:150] Setting up conv4_10_1x1_reduce/relu
I0620 04:22:24.830973  2846 net.cpp:157] Top shape: 1 256 51 51 (665856)
I0620 04:22:24.830976  2846 net.cpp:165] Memory required for data: 1327586312
I0620 04:22:24.830977  2846 layer_factory.hpp:77] Creating layer conv4_10_3x3
I0620 04:22:24.830983  2846 net.cpp:106] Creating Layer conv4_10_3x3
I0620 04:22:24.830986  2846 net.cpp:454] conv4_10_3x3 <- conv4_10_1x1_reduce
I0620 04:22:24.830989  2846 net.cpp:411] conv4_10_3x3 -> conv4_10_3x3
I0620 04:22:24.844072  2846 net.cpp:150] Setting up conv4_10_3x3
I0620 04:22:24.844086  2846 net.cpp:157] Top shape: 1 256 51 51 (665856)
I0620 04:22:24.844089  2846 net.cpp:165] Memory required for data: 1330249736
I0620 04:22:24.844094  2846 layer_factory.hpp:77] Creating layer conv4_10_3x3/bn
I0620 04:22:24.844115  2846 net.cpp:106] Creating Layer conv4_10_3x3/bn
I0620 04:22:24.844120  2846 net.cpp:454] conv4_10_3x3/bn <- conv4_10_3x3
I0620 04:22:24.844125  2846 net.cpp:397] conv4_10_3x3/bn -> conv4_10_3x3 (in-place)
I0620 04:22:24.844267  2846 net.cpp:150] Setting up conv4_10_3x3/bn
I0620 04:22:24.844271  2846 net.cpp:157] Top shape: 1 256 51 51 (665856)
I0620 04:22:24.844274  2846 net.cpp:165] Memory required for data: 1332913160
I0620 04:22:24.844279  2846 layer_factory.hpp:77] Creating layer conv4_10_3x3/relu
I0620 04:22:24.844282  2846 net.cpp:106] Creating Layer conv4_10_3x3/relu
I0620 04:22:24.844285  2846 net.cpp:454] conv4_10_3x3/relu <- conv4_10_3x3
I0620 04:22:24.844287  2846 net.cpp:397] conv4_10_3x3/relu -> conv4_10_3x3 (in-place)
I0620 04:22:24.844290  2846 net.cpp:150] Setting up conv4_10_3x3/relu
I0620 04:22:24.844293  2846 net.cpp:157] Top shape: 1 256 51 51 (665856)
I0620 04:22:24.844295  2846 net.cpp:165] Memory required for data: 1335576584
I0620 04:22:24.844296  2846 layer_factory.hpp:77] Creating layer conv4_10_1x1_increase
I0620 04:22:24.844302  2846 net.cpp:106] Creating Layer conv4_10_1x1_increase
I0620 04:22:24.844305  2846 net.cpp:454] conv4_10_1x1_increase <- conv4_10_3x3
I0620 04:22:24.844310  2846 net.cpp:411] conv4_10_1x1_increase -> conv4_10_1x1_increase
I0620 04:22:24.850539  2846 net.cpp:150] Setting up conv4_10_1x1_increase
I0620 04:22:24.850548  2846 net.cpp:157] Top shape: 1 1024 51 51 (2663424)
I0620 04:22:24.850550  2846 net.cpp:165] Memory required for data: 1346230280
I0620 04:22:24.850554  2846 layer_factory.hpp:77] Creating layer conv4_10_1x1_increase/bn
I0620 04:22:24.850559  2846 net.cpp:106] Creating Layer conv4_10_1x1_increase/bn
I0620 04:22:24.850563  2846 net.cpp:454] conv4_10_1x1_increase/bn <- conv4_10_1x1_increase
I0620 04:22:24.850565  2846 net.cpp:397] conv4_10_1x1_increase/bn -> conv4_10_1x1_increase (in-place)
I0620 04:22:24.850733  2846 net.cpp:150] Setting up conv4_10_1x1_increase/bn
I0620 04:22:24.850738  2846 net.cpp:157] Top shape: 1 1024 51 51 (2663424)
I0620 04:22:24.850739  2846 net.cpp:165] Memory required for data: 1356883976
I0620 04:22:24.850744  2846 layer_factory.hpp:77] Creating layer conv4_10
I0620 04:22:24.850749  2846 net.cpp:106] Creating Layer conv4_10
I0620 04:22:24.850751  2846 net.cpp:454] conv4_10 <- conv4_9_conv4_9/relu_0_split_1
I0620 04:22:24.850754  2846 net.cpp:454] conv4_10 <- conv4_10_1x1_increase
I0620 04:22:24.850757  2846 net.cpp:411] conv4_10 -> conv4_10
I0620 04:22:24.850771  2846 net.cpp:150] Setting up conv4_10
I0620 04:22:24.850775  2846 net.cpp:157] Top shape: 1 1024 51 51 (2663424)
I0620 04:22:24.850778  2846 net.cpp:165] Memory required for data: 1367537672
I0620 04:22:24.850780  2846 layer_factory.hpp:77] Creating layer conv4_10/relu
I0620 04:22:24.850786  2846 net.cpp:106] Creating Layer conv4_10/relu
I0620 04:22:24.850790  2846 net.cpp:454] conv4_10/relu <- conv4_10
I0620 04:22:24.850792  2846 net.cpp:397] conv4_10/relu -> conv4_10 (in-place)
I0620 04:22:24.850796  2846 net.cpp:150] Setting up conv4_10/relu
I0620 04:22:24.850800  2846 net.cpp:157] Top shape: 1 1024 51 51 (2663424)
I0620 04:22:24.850802  2846 net.cpp:165] Memory required for data: 1378191368
I0620 04:22:24.850824  2846 layer_factory.hpp:77] Creating layer conv4_10_conv4_10/relu_0_split
I0620 04:22:24.850828  2846 net.cpp:106] Creating Layer conv4_10_conv4_10/relu_0_split
I0620 04:22:24.850831  2846 net.cpp:454] conv4_10_conv4_10/relu_0_split <- conv4_10
I0620 04:22:24.850833  2846 net.cpp:411] conv4_10_conv4_10/relu_0_split -> conv4_10_conv4_10/relu_0_split_0
I0620 04:22:24.850836  2846 net.cpp:411] conv4_10_conv4_10/relu_0_split -> conv4_10_conv4_10/relu_0_split_1
I0620 04:22:24.850858  2846 net.cpp:150] Setting up conv4_10_conv4_10/relu_0_split
I0620 04:22:24.850862  2846 net.cpp:157] Top shape: 1 1024 51 51 (2663424)
I0620 04:22:24.850865  2846 net.cpp:157] Top shape: 1 1024 51 51 (2663424)
I0620 04:22:24.850867  2846 net.cpp:165] Memory required for data: 1399498760
I0620 04:22:24.850870  2846 layer_factory.hpp:77] Creating layer conv4_11_1x1_reduce
I0620 04:22:24.850884  2846 net.cpp:106] Creating Layer conv4_11_1x1_reduce
I0620 04:22:24.850888  2846 net.cpp:454] conv4_11_1x1_reduce <- conv4_10_conv4_10/relu_0_split_0
I0620 04:22:24.850893  2846 net.cpp:411] conv4_11_1x1_reduce -> conv4_11_1x1_reduce
I0620 04:22:24.856853  2846 net.cpp:150] Setting up conv4_11_1x1_reduce
I0620 04:22:24.856878  2846 net.cpp:157] Top shape: 1 256 51 51 (665856)
I0620 04:22:24.856881  2846 net.cpp:165] Memory required for data: 1402162184
I0620 04:22:24.856890  2846 layer_factory.hpp:77] Creating layer conv4_11_1x1_reduce/bn
I0620 04:22:24.856901  2846 net.cpp:106] Creating Layer conv4_11_1x1_reduce/bn
I0620 04:22:24.856909  2846 net.cpp:454] conv4_11_1x1_reduce/bn <- conv4_11_1x1_reduce
I0620 04:22:24.856915  2846 net.cpp:397] conv4_11_1x1_reduce/bn -> conv4_11_1x1_reduce (in-place)
I0620 04:22:24.857110  2846 net.cpp:150] Setting up conv4_11_1x1_reduce/bn
I0620 04:22:24.857116  2846 net.cpp:157] Top shape: 1 256 51 51 (665856)
I0620 04:22:24.857120  2846 net.cpp:165] Memory required for data: 1404825608
I0620 04:22:24.857128  2846 layer_factory.hpp:77] Creating layer conv4_11_1x1_reduce/relu
I0620 04:22:24.857136  2846 net.cpp:106] Creating Layer conv4_11_1x1_reduce/relu
I0620 04:22:24.857139  2846 net.cpp:454] conv4_11_1x1_reduce/relu <- conv4_11_1x1_reduce
I0620 04:22:24.857144  2846 net.cpp:397] conv4_11_1x1_reduce/relu -> conv4_11_1x1_reduce (in-place)
I0620 04:22:24.857151  2846 net.cpp:150] Setting up conv4_11_1x1_reduce/relu
I0620 04:22:24.857156  2846 net.cpp:157] Top shape: 1 256 51 51 (665856)
I0620 04:22:24.857159  2846 net.cpp:165] Memory required for data: 1407489032
I0620 04:22:24.857163  2846 layer_factory.hpp:77] Creating layer conv4_11_3x3
I0620 04:22:24.857174  2846 net.cpp:106] Creating Layer conv4_11_3x3
I0620 04:22:24.857178  2846 net.cpp:454] conv4_11_3x3 <- conv4_11_1x1_reduce
I0620 04:22:24.857184  2846 net.cpp:411] conv4_11_3x3 -> conv4_11_3x3
I0620 04:22:24.874433  2846 net.cpp:150] Setting up conv4_11_3x3
I0620 04:22:24.874455  2846 net.cpp:157] Top shape: 1 256 51 51 (665856)
I0620 04:22:24.874459  2846 net.cpp:165] Memory required for data: 1410152456
I0620 04:22:24.874464  2846 layer_factory.hpp:77] Creating layer conv4_11_3x3/bn
I0620 04:22:24.874472  2846 net.cpp:106] Creating Layer conv4_11_3x3/bn
I0620 04:22:24.874478  2846 net.cpp:454] conv4_11_3x3/bn <- conv4_11_3x3
I0620 04:22:24.874485  2846 net.cpp:397] conv4_11_3x3/bn -> conv4_11_3x3 (in-place)
I0620 04:22:24.874630  2846 net.cpp:150] Setting up conv4_11_3x3/bn
I0620 04:22:24.874634  2846 net.cpp:157] Top shape: 1 256 51 51 (665856)
I0620 04:22:24.874637  2846 net.cpp:165] Memory required for data: 1412815880
I0620 04:22:24.874642  2846 layer_factory.hpp:77] Creating layer conv4_11_3x3/relu
I0620 04:22:24.874646  2846 net.cpp:106] Creating Layer conv4_11_3x3/relu
I0620 04:22:24.874649  2846 net.cpp:454] conv4_11_3x3/relu <- conv4_11_3x3
I0620 04:22:24.874650  2846 net.cpp:397] conv4_11_3x3/relu -> conv4_11_3x3 (in-place)
I0620 04:22:24.874655  2846 net.cpp:150] Setting up conv4_11_3x3/relu
I0620 04:22:24.874657  2846 net.cpp:157] Top shape: 1 256 51 51 (665856)
I0620 04:22:24.874660  2846 net.cpp:165] Memory required for data: 1415479304
…
I0620 04:22:25.152304  2846 net.cpp:397] conv4_21_1x1_reduce/bn -> conv4_21_1x1_reduce (in-place)
I0620 04:22:25.152444  2846 net.cpp:150] Setting up conv4_21_1x1_reduce/bn
I0620 04:22:25.152448  2846 net.cpp:157] Top shape: 1 256 51 51 (665856)
I0620 04:22:25.152451  2846 net.cpp:165] Memory required for data: 2203852808
I0620 04:22:25.152457  2846 layer_factory.hpp:77] Creating layer conv4_21_1x1_reduce/relu
I0620 04:22:25.152462  2846 net.cpp:106] Creating Layer conv4_21_1x1_reduce/relu
I0620 04:22:25.152464  2846 net.cpp:454] conv4_21_1x1_reduce/relu <- conv4_21_1x1_reduce
I0620 04:22:25.152467  2846 net.cpp:397] conv4_21_1x1_reduce/relu -> conv4_21_1x1_reduce (in-place)
I0620 04:22:25.152472  2846 net.cpp:150] Setting up conv4_21_1x1_reduce/relu
I0620 04:22:25.152474  2846 net.cpp:157] Top shape: 1 256 51 51 (665856)
I0620 04:22:25.152477  2846 net.cpp:165] Memory required for data: 2206516232
I0620 04:22:25.152479  2846 layer_factory.hpp:77] Creating layer conv4_21_3x3
I0620 04:22:25.152488  2846 net.cpp:106] Creating Layer conv4_21_3x3
I0620 04:22:25.152492  2846 net.cpp:454] conv4_21_3x3 <- conv4_21_1x1_reduce
I0620 04:22:25.152496  2846 net.cpp:411] conv4_21_3x3 -> conv4_21_3x3
I0620 04:22:25.165657  2846 net.cpp:150] Setting up conv4_21_3x3
I0620 04:22:25.165674  2846 net.cpp:157] Top shape: 1 256 51 51 (665856)
I0620 04:22:25.165691  2846 net.cpp:165] Memory required for data: 2209179656
I0620 04:22:25.165696  2846 layer_factory.hpp:77] Creating layer conv4_21_3x3/bn
I0620 04:22:25.165706  2846 net.cpp:106] Creating Layer conv4_21_3x3/bn
I0620 04:22:25.165711  2846 net.cpp:454] conv4_21_3x3/bn <- conv4_21_3x3
I0620 04:22:25.165716  2846 net.cpp:397] conv4_21_3x3/bn -> conv4_21_3x3 (in-place)
I0620 04:22:25.165890  2846 net.cpp:150] Setting up conv4_21_3x3/bn
I0620 04:22:25.165896  2846 net.cpp:157] Top shape: 1 256 51 51 (665856)
I0620 04:22:25.165899  2846 net.cpp:165] Memory required for data: 2211843080
I0620 04:22:25.165904  2846 layer_factory.hpp:77] Creating layer conv4_21_3x3/relu
I0620 04:22:25.165907  2846 net.cpp:106] Creating Layer conv4_21_3x3/relu
I0620 04:22:25.165910  2846 net.cpp:454] conv4_21_3x3/relu <- conv4_21_3x3
I0620 04:22:25.165912  2846 net.cpp:397] conv4_21_3x3/relu -> conv4_21_3x3 (in-place)
I0620 04:22:25.165916  2846 net.cpp:150] Setting up conv4_21_3x3/relu
I0620 04:22:25.165918  2846 net.cpp:157] Top shape: 1 256 51 51 (665856)
I0620 04:22:25.165920  2846 net.cpp:165] Memory required for data: 2214506504
I0620 04:22:25.165925  2846 layer_factory.hpp:77] Creating layer conv4_21_1x1_increase
I0620 04:22:25.165931  2846 net.cpp:106] Creating Layer conv4_21_1x1_increase
I0620 04:22:25.165933  2846 net.cpp:454] conv4_21_1x1_increase <- conv4_21_3x3
I0620 04:22:25.165937  2846 net.cpp:411] conv4_21_1x1_increase -> conv4_21_1x1_increase
I0620 04:22:25.172888  2846 net.cpp:150] Setting up conv4_21_1x1_increase
I0620 04:22:25.172912  2846 net.cpp:157] Top shape: 1 1024 51 51 (2663424)
I0620 04:22:25.172916  2846 net.cpp:165] Memory required for data: 2225160200
I0620 04:22:25.172925  2846 layer_factory.hpp:77] Creating layer conv4_21_1x1_increase/bn
I0620 04:22:25.172938  2846 net.cpp:106] Creating Layer conv4_21_1x1_increase/bn
I0620 04:22:25.172945  2846 net.cpp:454] conv4_21_1x1_increase/bn <- conv4_21_1x1_increase
I0620 04:22:25.172952  2846 net.cpp:397] conv4_21_1x1_increase/bn -> conv4_21_1x1_increase (in-place)
I0620 04:22:25.173171  2846 net.cpp:150] Setting up conv4_21_1x1_increase/bn
I0620 04:22:25.173178  2846 net.cpp:157] Top shape: 1 1024 51 51 (2663424)
I0620 04:22:25.173183  2846 net.cpp:165] Memory required for data: 2235813896
I0620 04:22:25.173192  2846 layer_factory.hpp:77] Creating layer conv4_21
I0620 04:22:25.173198  2846 net.cpp:106] Creating Layer conv4_21
I0620 04:22:25.173203  2846 net.cpp:454] conv4_21 <- conv4_20_conv4_20/relu_0_split_1
I0620 04:22:25.173208  2846 net.cpp:454] conv4_21 <- conv4_21_1x1_increase
I0620 04:22:25.173214  2846 net.cpp:411] conv4_21 -> conv4_21
I0620 04:22:25.173235  2846 net.cpp:150] Setting up conv4_21
I0620 04:22:25.173241  2846 net.cpp:157] Top shape: 1 1024 51 51 (2663424)
I0620 04:22:25.173245  2846 net.cpp:165] Memory required for data: 2246467592
I0620 04:22:25.173249  2846 layer_factory.hpp:77] Creating layer conv4_21/relu
I0620 04:22:25.173255  2846 net.cpp:106] Creating Layer conv4_21/relu
I0620 04:22:25.173259  2846 net.cpp:454] conv4_21/relu <- conv4_21
I0620 04:22:25.173262  2846 net.cpp:397] conv4_21/relu -> conv4_21 (in-place)
I0620 04:22:25.173267  2846 net.cpp:150] Setting up conv4_21/relu
I0620 04:22:25.173270  2846 net.cpp:157] Top shape: 1 1024 51 51 (2663424)
I0620 04:22:25.173274  2846 net.cpp:165] Memory required for data: 2257121288
I0620 04:22:25.173276  2846 layer_factory.hpp:77] Creating layer conv4_21_conv4_21/relu_0_split
I0620 04:22:25.173281  2846 net.cpp:106] Creating Layer conv4_21_conv4_21/relu_0_split
I0620 04:22:25.173285  2846 net.cpp:454] conv4_21_conv4_21/relu_0_split <- conv4_21
I0620 04:22:25.173288  2846 net.cpp:411] conv4_21_conv4_21/relu_0_split -> conv4_21_conv4_21/relu_0_split_0
I0620 04:22:25.173293  2846 net.cpp:411] conv4_21_conv4_21/relu_0_split -> conv4_21_conv4_21/relu_0_split_1
I0620 04:22:25.173318  2846 net.cpp:150] Setting up conv4_21_conv4_21/relu_0_split
I0620 04:22:25.173322  2846 net.cpp:157] Top shape: 1 1024 51 51 (2663424)
I0620 04:22:25.173326  2846 net.cpp:157] Top shape: 1 1024 51 51 (2663424)
I0620 04:22:25.173348  2846 net.cpp:165] Memory required for data: 2278428680
I0620 04:22:25.173352  2846 layer_factory.hpp:77] Creating layer conv4_22_1x1_reduce
I0620 04:22:25.173359  2846 net.cpp:106] Creating Layer conv4_22_1x1_reduce
I0620 04:22:25.173362  2846 net.cpp:454] conv4_22_1x1_reduce <- conv4_21_conv4_21/relu_0_split_0
I0620 04:22:25.173367  2846 net.cpp:411] conv4_22_1x1_reduce -> conv4_22_1x1_reduce
I0620 04:22:25.181959  2846 net.cpp:150] Setting up conv4_22_1x1_reduce
I0620 04:22:25.182039  2846 net.cpp:157] Top shape: 1 256 51 51 (665856)
I0620 04:22:25.182046  2846 net.cpp:165] Memory required for data: 2281092104
I0620 04:22:25.182065  2846 layer_factory.hpp:77] Creating layer conv4_22_1x1_reduce/bn
I0620 04:22:25.182088  2846 net.cpp:106] Creating Layer conv4_22_1x1_reduce/bn
I0620 04:22:25.182101  2846 net.cpp:454] conv4_22_1x1_reduce/bn <- conv4_22_1x1_reduce
I0620 04:22:25.182116  2846 net.cpp:397] conv4_22_1x1_reduce/bn -> conv4_22_1x1_reduce (in-place)
I0620 04:22:25.182397  2846 net.cpp:150] Setting up conv4_22_1x1_reduce/bn
I0620 04:22:25.182405  2846 net.cpp:157] Top shape: 1 256 51 51 (665856)
I0620 04:22:25.182416  2846 net.cpp:165] Memory required for data: 2283755528
I0620 04:22:25.182425  2846 layer_factory.hpp:77] Creating layer conv4_22_1x1_reduce/relu
I0620 04:22:25.182440  2846 net.cpp:106] Creating Layer conv4_22_1x1_reduce/relu
I0620 04:22:25.182446  2846 net.cpp:454] conv4_22_1x1_reduce/relu <- conv4_22_1x1_reduce
I0620 04:22:25.182451  2846 net.cpp:397] conv4_22_1x1_reduce/relu -> conv4_22_1x1_reduce (in-place)
I0620 04:22:25.182459  2846 net.cpp:150] Setting up conv4_22_1x1_reduce/relu
I0620 04:22:25.182464  2846 net.cpp:157] Top shape: 1 256 51 51 (665856)
I0620 04:22:25.182468  2846 net.cpp:165] Memory required for data: 2286418952
I0620 04:22:25.182473  2846 layer_factory.hpp:77] Creating layer conv4_22_3x3
I0620 04:22:25.182489  2846 net.cpp:106] Creating Layer conv4_22_3x3
I0620 04:22:25.182493  2846 net.cpp:454] conv4_22_3x3 <- conv4_22_1x1_reduce
I0620 04:22:25.182504  2846 net.cpp:411] conv4_22_3x3 -> conv4_22_3x3
I0620 04:22:25.197360  2846 net.cpp:150] Setting up conv4_22_3x3
I0620 04:22:25.197382  2846 net.cpp:157] Top shape: 1 256 51 51 (665856)
I0620 04:22:25.197386  2846 net.cpp:165] Memory required for data: 2289082376
I0620 04:22:25.197397  2846 layer_factory.hpp:77] Creating layer conv4_22_3x3/bn
I0620 04:22:25.197409  2846 net.cpp:106] Creating Layer conv4_22_3x3/bn
I0620 04:22:25.197417  2846 net.cpp:454] conv4_22_3x3/bn <- conv4_22_3x3
I0620 04:22:25.197424  2846 net.cpp:397] conv4_22_3x3/bn -> conv4_22_3x3 (in-place)
I0620 04:22:25.197607  2846 net.cpp:150] Setting up conv4_22_3x3/bn
I0620 04:22:25.197613  2846 net.cpp:157] Top shape: 1 256 51 51 (665856)
I0620 04:22:25.197614  2846 net.cpp:165] Memory required for data: 2291745800
I0620 04:22:25.197620  2846 layer_factory.hpp:77] Creating layer conv4_22_3x3/relu
I0620 04:22:25.197625  2846 net.cpp:106] Creating Layer conv4_22_3x3/relu
I0620 04:22:25.197628  2846 net.cpp:454] conv4_22_3x3/relu <- conv4_22_3x3
I0620 04:22:25.197631  2846 net.cpp:397] conv4_22_3x3/relu -> conv4_22_3x3 (in-place)
I0620 04:22:25.197636  2846 net.cpp:150] Setting up conv4_22_3x3/relu
I0620 04:22:25.197639  2846 net.cpp:157] Top shape: 1 256 51 51 (665856)
I0620 04:22:25.197643  2846 net.cpp:165] Memory required for data: 2294409224
I0620 04:22:25.197644  2846 layer_factory.hpp:77] Creating layer conv4_22_1x1_increase
I0620 04:22:25.197652  2846 net.cpp:106] Creating Layer conv4_22_1x1_increase
I0620 04:22:25.197654  2846 net.cpp:454] conv4_22_1x1_increase <- conv4_22_3x3
I0620 04:22:25.197659  2846 net.cpp:411] conv4_22_1x1_increase -> conv4_22_1x1_increase
I0620 04:22:25.203991  2846 net.cpp:150] Setting up conv4_22_1x1_increase
I0620 04:22:25.204005  2846 net.cpp:157] Top shape: 1 1024 51 51 (2663424)
I0620 04:22:25.204006  2846 net.cpp:165] Memory required for data: 2305062920
I0620 04:22:25.204012  2846 layer_factory.hpp:77] Creating layer conv4_22_1x1_increase/bn
I0620 04:22:25.204020  2846 net.cpp:106] Creating Layer conv4_22_1x1_increase/bn
I0620 04:22:25.204042  2846 net.cpp:454] conv4_22_1x1_increase/bn <- conv4_22_1x1_increase
I0620 04:22:25.204047  2846 net.cpp:397] conv4_22_1x1_increase/bn -> conv4_22_1x1_increase (in-place)
I0620 04:22:25.204210  2846 net.cpp:150] Setting up conv4_22_1x1_increase/bn
I0620 04:22:25.204216  2846 net.cpp:157] Top shape: 1 1024 51 51 (2663424)
I0620 04:22:25.204218  2846 net.cpp:165] Memory required for data: 2315716616
I0620 04:22:25.204224  2846 layer_factory.hpp:77] Creating layer conv4_22
I0620 04:22:25.204231  2846 net.cpp:106] Creating Layer conv4_22
I0620 04:22:25.204236  2846 net.cpp:454] conv4_22 <- conv4_21_conv4_21/relu_0_split_1
I0620 04:22:25.204238  2846 net.cpp:454] conv4_22 <- conv4_22_1x1_increase
I0620 04:22:25.204242  2846 net.cpp:411] conv4_22 -> conv4_22
I0620 04:22:25.204259  2846 net.cpp:150] Setting up conv4_22
I0620 04:22:25.204264  2846 net.cpp:157] Top shape: 1 1024 51 51 (2663424)
I0620 04:22:25.204267  2846 net.cpp:165] Memory required for data: 2326370312
I0620 04:22:25.204270  2846 layer_factory.hpp:77] Creating layer conv4_22/relu
I0620 04:22:25.204277  2846 net.cpp:106] Creating Layer conv4_22/relu
I0620 04:22:25.204279  2846 net.cpp:454] conv4_22/relu <- conv4_22
I0620 04:22:25.204282  2846 net.cpp:397] conv4_22/relu -> conv4_22 (in-place)
I0620 04:22:25.204286  2846 net.cpp:150] Setting up conv4_22/relu
I0620 04:22:25.204289  2846 net.cpp:157] Top shape: 1 1024 51 51 (2663424)
I0620 04:22:25.204293  2846 net.cpp:165] Memory required for data: 2337024008
I0620 04:22:25.204295  2846 layer_factory.hpp:77] Creating layer conv4_22_conv4_22/relu_0_split
I0620 04:22:25.204303  2846 net.cpp:106] Creating Layer conv4_22_conv4_22/relu_0_split
I0620 04:22:25.204305  2846 net.cpp:454] conv4_22_conv4_22/relu_0_split <- conv4_22
I0620 04:22:25.204309  2846 net.cpp:411] conv4_22_conv4_22/relu_0_split -> conv4_22_conv4_22/relu_0_split_0
I0620 04:22:25.204313  2846 net.cpp:411] conv4_22_conv4_22/relu_0_split -> conv4_22_conv4_22/relu_0_split_1
I0620 04:22:25.204340  2846 net.cpp:150] Setting up conv4_22_conv4_22/relu_0_split
I0620 04:22:25.204345  2846 net.cpp:157] Top shape: 1 1024 51 51 (2663424)
I0620 04:22:25.204349  2846 net.cpp:157] Top shape: 1 1024 51 51 (2663424)
I0620 04:22:25.204350  2846 net.cpp:165] Memory required for data: 2358331400
I0620 04:22:25.204352  2846 layer_factory.hpp:77] Creating layer conv4_23_1x1_reduce
I0620 04:22:25.204360  2846 net.cpp:106] Creating Layer conv4_23_1x1_reduce
I0620 04:22:25.204362  2846 net.cpp:454] conv4_23_1x1_reduce <- conv4_22_conv4_22/relu_0_split_0
I0620 04:22:25.204367  2846 net.cpp:411] conv4_23_1x1_reduce -> conv4_23_1x1_reduce
I0620 04:22:25.210017  2846 net.cpp:150] Setting up conv4_23_1x1_reduce
I0620 04:22:25.210029  2846 net.cpp:157] Top shape: 1 256 51 51 (665856)
I0620 04:22:25.210032  2846 net.cpp:165] Memory required for data: 2360994824
I0620 04:22:25.210037  2846 layer_factory.hpp:77] Creating layer conv4_23_1x1_reduce/bn
I0620 04:22:25.210043  2846 net.cpp:106] Creating Layer conv4_23_1x1_reduce/bn
I0620 04:22:25.210047  2846 net.cpp:454] conv4_23_1x1_reduce/bn <- conv4_23_1x1_reduce
I0620 04:22:25.210050  2846 net.cpp:397] conv4_23_1x1_reduce/bn -> conv4_23_1x1_reduce (in-place)
I0620 04:22:25.210206  2846 net.cpp:150] Setting up conv4_23_1x1_reduce/bn
I0620 04:22:25.210209  2846 net.cpp:157] Top shape: 1 256 51 51 (665856)
I0620 04:22:25.210212  2846 net.cpp:165] Memory required for data: 2363658248
I0620 04:22:25.210216  2846 layer_factory.hpp:77] Creating layer conv4_23_1x1_reduce/relu
I0620 04:22:25.210222  2846 net.cpp:106] Creating Layer conv4_23_1x1_reduce/relu
I0620 04:22:25.210223  2846 net.cpp:454] conv4_23_1x1_reduce/relu <- conv4_23_1x1_reduce
I0620 04:22:25.210225  2846 net.cpp:397] conv4_23_1x1_reduce/relu -> conv4_23_1x1_reduce (in-place)
I0620 04:22:25.210229  2846 net.cpp:150] Setting up conv4_23_1x1_reduce/relu
I0620 04:22:25.210232  2846 net.cpp:157] Top shape: 1 256 51 51 (665856)
I0620 04:22:25.210237  2846 net.cpp:165] Memory required for data: 2366321672
I0620 04:22:25.210238  2846 layer_factory.hpp:77] Creating layer conv4_23_3x3
I0620 04:22:25.210258  2846 net.cpp:106] Creating Layer conv4_23_3x3
I0620 04:22:25.210260  2846 net.cpp:454] conv4_23_3x3 <- conv4_23_1x1_reduce
I0620 04:22:25.210264  2846 net.cpp:411] conv4_23_3x3 -> conv4_23_3x3
I0620 04:22:25.226672  2846 net.cpp:150] Setting up conv4_23_3x3
I0620 04:22:25.226764  2846 net.cpp:157] Top shape: 1 256 51 51 (665856)
I0620 04:22:25.226770  2846 net.cpp:165] Memory required for data: 2368985096
I0620 04:22:25.226790  2846 layer_factory.hpp:77] Creating layer conv4_23_3x3/bn
I0620 04:22:25.226821  2846 net.cpp:106] Creating Layer conv4_23_3x3/bn
I0620 04:22:25.226833  2846 net.cpp:454] conv4_23_3x3/bn <- conv4_23_3x3
I0620 04:22:25.226848  2846 net.cpp:397] conv4_23_3x3/bn -> conv4_23_3x3 (in-place)
I0620 04:22:25.227129  2846 net.cpp:150] Setting up conv4_23_3x3/bn
I0620 04:22:25.227141  2846 net.cpp:157] Top shape: 1 256 51 51 (665856)
I0620 04:22:25.227146  2846 net.cpp:165] Memory required for data: 2371648520
I0620 04:22:25.227155  2846 layer_factory.hpp:77] Creating layer conv4_23_3x3/relu
I0620 04:22:25.227167  2846 net.cpp:106] Creating Layer conv4_23_3x3/relu
I0620 04:22:25.227174  2846 net.cpp:454] conv4_23_3x3/relu <- conv4_23_3x3
I0620 04:22:25.227179  2846 net.cpp:397] conv4_23_3x3/relu -> conv4_23_3x3 (in-place)
I0620 04:22:25.227187  2846 net.cpp:150] Setting up conv4_23_3x3/relu
I0620 04:22:25.227192  2846 net.cpp:157] Top shape: 1 256 51 51 (665856)
I0620 04:22:25.227196  2846 net.cpp:165] Memory required for data: 2374311944
I0620 04:22:25.227201  2846 layer_factory.hpp:77] Creating layer conv4_23_1x1_increase
I0620 04:22:25.227217  2846 net.cpp:106] Creating Layer conv4_23_1x1_increase
I0620 04:22:25.227221  2846 net.cpp:454] conv4_23_1x1_increase <- conv4_23_3x3
I0620 04:22:25.227229  2846 net.cpp:411] conv4_23_1x1_increase -> conv4_23_1x1_increase
I0620 04:22:25.235399  2846 net.cpp:150] Setting up conv4_23_1x1_increase
I0620 04:22:25.235422  2846 net.cpp:157] Top shape: 1 1024 51 51 (2663424)
I0620 04:22:25.235425  2846 net.cpp:165] Memory required for data: 2384965640
I0620 04:22:25.235432  2846 layer_factory.hpp:77] Creating layer conv4_23_1x1_increase/bn
I0620 04:22:25.235442  2846 net.cpp:106] Creating Layer conv4_23_1x1_increase/bn
I0620 04:22:25.235448  2846 net.cpp:454] conv4_23_1x1_increase/bn <- conv4_23_1x1_increase
I0620 04:22:25.235453  2846 net.cpp:397] conv4_23_1x1_increase/bn -> conv4_23_1x1_increase (in-place)
I0620 04:22:25.235618  2846 net.cpp:150] Setting up conv4_23_1x1_increase/bn
I0620 04:22:25.235622  2846 net.cpp:157] Top shape: 1 1024 51 51 (2663424)
I0620 04:22:25.235625  2846 net.cpp:165] Memory required for data: 2395619336
I0620 04:22:25.235631  2846 layer_factory.hpp:77] Creating layer conv4_23
I0620 04:22:25.235636  2846 net.cpp:106] Creating Layer conv4_23
I0620 04:22:25.235640  2846 net.cpp:454] conv4_23 <- conv4_22_conv4_22/relu_0_split_1
I0620 04:22:25.235643  2846 net.cpp:454] conv4_23 <- conv4_23_1x1_increase
I0620 04:22:25.235646  2846 net.cpp:411] conv4_23 -> conv4_23
I0620 04:22:25.235664  2846 net.cpp:150] Setting up conv4_23
I0620 04:22:25.235668  2846 net.cpp:157] Top shape: 1 1024 51 51 (2663424)
I0620 04:22:25.235671  2846 net.cpp:165] Memory required for data: 2406273032
I0620 04:22:25.235673  2846 layer_factory.hpp:77] Creating layer conv4_23/relu
I0620 04:22:25.235678  2846 net.cpp:106] Creating Layer conv4_23/relu
I0620 04:22:25.235682  2846 net.cpp:454] conv4_23/relu <- conv4_23
I0620 04:22:25.235685  2846 net.cpp:397] conv4_23/relu -> conv4_23 (in-place)
I0620 04:22:25.235689  2846 net.cpp:150] Setting up conv4_23/relu
I0620 04:22:25.235692  2846 net.cpp:157] Top shape: 1 1024 51 51 (2663424)
I0620 04:22:25.235695  2846 net.cpp:165] Memory required for data: 2416926728
I0620 04:22:25.235698  2846 layer_factory.hpp:77] Creating layer conv4_23_conv4_23/relu_0_split
I0620 04:22:25.235702  2846 net.cpp:106] Creating Layer conv4_23_conv4_23/relu_0_split
I0620 04:22:25.235704  2846 net.cpp:454] conv4_23_conv4_23/relu_0_split <- conv4_23
I0620 04:22:25.235708  2846 net.cpp:411] conv4_23_conv4_23/relu_0_split -> conv4_23_conv4_23/relu_0_split_0
I0620 04:22:25.235726  2846 net.cpp:411] conv4_23_conv4_23/relu_0_split -> conv4_23_conv4_23/relu_0_split_1
I0620 04:22:25.235751  2846 net.cpp:150] Setting up conv4_23_conv4_23/relu_0_split
I0620 04:22:25.235755  2846 net.cpp:157] Top shape: 1 1024 51 51 (2663424)
I0620 04:22:25.235759  2846 net.cpp:157] Top shape: 1 1024 51 51 (2663424)
I0620 04:22:25.235761  2846 net.cpp:165] Memory required for data: 2438234120
I0620 04:22:25.235764  2846 layer_factory.hpp:77] Creating layer conv5_1_1x1_reduce
I0620 04:22:25.235777  2846 net.cpp:106] Creating Layer conv5_1_1x1_reduce
I0620 04:22:25.235780  2846 net.cpp:454] conv5_1_1x1_reduce <- conv4_23_conv4_23/relu_0_split_0
I0620 04:22:25.235787  2846 net.cpp:411] conv5_1_1x1_reduce -> conv5_1_1x1_reduce
I0620 04:22:25.247542  2846 net.cpp:150] Setting up conv5_1_1x1_reduce
I0620 04:22:25.247556  2846 net.cpp:157] Top shape: 1 512 51 51 (1331712)
I0620 04:22:25.247560  2846 net.cpp:165] Memory required for data: 2443560968
I0620 04:22:25.247565  2846 layer_factory.hpp:77] Creating layer conv5_1_1x1_reduce/bn
I0620 04:22:25.247571  2846 net.cpp:106] Creating Layer conv5_1_1x1_reduce/bn
I0620 04:22:25.247576  2846 net.cpp:454] conv5_1_1x1_reduce/bn <- conv5_1_1x1_reduce
I0620 04:22:25.247581  2846 net.cpp:397] conv5_1_1x1_reduce/bn -> conv5_1_1x1_reduce (in-place)
I0620 04:22:25.247742  2846 net.cpp:150] Setting up conv5_1_1x1_reduce/bn
I0620 04:22:25.247747  2846 net.cpp:157] Top shape: 1 512 51 51 (1331712)
I0620 04:22:25.247750  2846 net.cpp:165] Memory required for data: 2448887816
I0620 04:22:25.247756  2846 layer_factory.hpp:77] Creating layer conv5_1_1x1_reduce/relu
I0620 04:22:25.247761  2846 net.cpp:106] Creating Layer conv5_1_1x1_reduce/relu
I0620 04:22:25.247763  2846 net.cpp:454] conv5_1_1x1_reduce/relu <- conv5_1_1x1_reduce
I0620 04:22:25.247766  2846 net.cpp:397] conv5_1_1x1_reduce/relu -> conv5_1_1x1_reduce (in-place)
I0620 04:22:25.247771  2846 net.cpp:150] Setting up conv5_1_1x1_reduce/relu
I0620 04:22:25.247774  2846 net.cpp:157] Top shape: 1 512 51 51 (1331712)
I0620 04:22:25.247776  2846 net.cpp:165] Memory required for data: 2454214664
I0620 04:22:25.247779  2846 layer_factory.hpp:77] Creating layer conv5_1_3x3
I0620 04:22:25.247788  2846 net.cpp:106] Creating Layer conv5_1_3x3
I0620 04:22:25.247792  2846 net.cpp:454] conv5_1_3x3 <- conv5_1_1x1_reduce
I0620 04:22:25.247795  2846 net.cpp:411] conv5_1_3x3 -> conv5_1_3x3
I0620 04:22:25.304175  2846 net.cpp:150] Setting up conv5_1_3x3
I0620 04:22:25.304198  2846 net.cpp:157] Top shape: 1 512 51 51 (1331712)
I0620 04:22:25.304200  2846 net.cpp:165] Memory required for data: 2459541512
I0620 04:22:25.304206  2846 layer_factory.hpp:77] Creating layer conv5_1_3x3/bn
I0620 04:22:25.304214  2846 net.cpp:106] Creating Layer conv5_1_3x3/bn
I0620 04:22:25.304217  2846 net.cpp:454] conv5_1_3x3/bn <- conv5_1_3x3
I0620 04:22:25.304224  2846 net.cpp:397] conv5_1_3x3/bn -> conv5_1_3x3 (in-place)
I0620 04:22:25.304397  2846 net.cpp:150] Setting up conv5_1_3x3/bn
I0620 04:22:25.304402  2846 net.cpp:157] Top shape: 1 512 51 51 (1331712)
I0620 04:22:25.304405  2846 net.cpp:165] Memory required for data: 2464868360
I0620 04:22:25.304410  2846 layer_factory.hpp:77] Creating layer conv5_1_3x3/relu
I0620 04:22:25.304416  2846 net.cpp:106] Creating Layer conv5_1_3x3/relu
I0620 04:22:25.304419  2846 net.cpp:454] conv5_1_3x3/relu <- conv5_1_3x3
I0620 04:22:25.304422  2846 net.cpp:397] conv5_1_3x3/relu -> conv5_1_3x3 (in-place)
I0620 04:22:25.304427  2846 net.cpp:150] Setting up conv5_1_3x3/relu
I0620 04:22:25.304430  2846 net.cpp:157] Top shape: 1 512 51 51 (1331712)
I0620 04:22:25.304433  2846 net.cpp:165] Memory required for data: 2470195208
I0620 04:22:25.304435  2846 layer_factory.hpp:77] Creating layer conv5_1_1x1_increase
I0620 04:22:25.304442  2846 net.cpp:106] Creating Layer conv5_1_1x1_increase
I0620 04:22:25.304445  2846 net.cpp:454] conv5_1_1x1_increase <- conv5_1_3x3
I0620 04:22:25.304450  2846 net.cpp:411] conv5_1_1x1_increase -> conv5_1_1x1_increase
I0620 04:22:25.332228  2846 net.cpp:150] Setting up conv5_1_1x1_increase
I0620 04:22:25.332250  2846 net.cpp:157] Top shape: 1 2048 51 51 (5326848)
I0620 04:22:25.332254  2846 net.cpp:165] Memory required for data: 2491502600
I0620 04:22:25.332262  2846 layer_factory.hpp:77] Creating layer conv5_1_1x1_increase/bn
I0620 04:22:25.332274  2846 net.cpp:106] Creating Layer conv5_1_1x1_increase/bn
I0620 04:22:25.332279  2846 net.cpp:454] conv5_1_1x1_increase/bn <- conv5_1_1x1_increase
I0620 04:22:25.332286  2846 net.cpp:397] conv5_1_1x1_increase/bn -> conv5_1_1x1_increase (in-place)
I0620 04:22:25.332475  2846 net.cpp:150] Setting up conv5_1_1x1_increase/bn
I0620 04:22:25.332480  2846 net.cpp:157] Top shape: 1 2048 51 51 (5326848)
I0620 04:22:25.332484  2846 net.cpp:165] Memory required for data: 2512809992
I0620 04:22:25.332489  2846 layer_factory.hpp:77] Creating layer conv5_1_1x1_proj
I0620 04:22:25.332496  2846 net.cpp:106] Creating Layer conv5_1_1x1_proj
I0620 04:22:25.332500  2846 net.cpp:454] conv5_1_1x1_proj <- conv4_23_conv4_23/relu_0_split_1
I0620 04:22:25.332505  2846 net.cpp:411] conv5_1_1x1_proj -> conv5_1_1x1_proj
I0620 04:22:25.383078  2846 net.cpp:150] Setting up conv5_1_1x1_proj
I0620 04:22:25.383101  2846 net.cpp:157] Top shape: 1 2048 51 51 (5326848)
I0620 04:22:25.383105  2846 net.cpp:165] Memory required for data: 2534117384
I0620 04:22:25.383114  2846 layer_factory.hpp:77] Creating layer conv5_1_1x1_proj/bn
I0620 04:22:25.383127  2846 net.cpp:106] Creating Layer conv5_1_1x1_proj/bn
I0620 04:22:25.383134  2846 net.cpp:454] conv5_1_1x1_proj/bn <- conv5_1_1x1_proj
I0620 04:22:25.383141  2846 net.cpp:397] conv5_1_1x1_proj/bn -> conv5_1_1x1_proj (in-place)
I0620 04:22:25.383330  2846 net.cpp:150] Setting up conv5_1_1x1_proj/bn
I0620 04:22:25.383335  2846 net.cpp:157] Top shape: 1 2048 51 51 (5326848)
I0620 04:22:25.383338  2846 net.cpp:165] Memory required for data: 2555424776
I0620 04:22:25.383343  2846 layer_factory.hpp:77] Creating layer conv5_1
I0620 04:22:25.383348  2846 net.cpp:106] Creating Layer conv5_1
I0620 04:22:25.383352  2846 net.cpp:454] conv5_1 <- conv5_1_1x1_proj
I0620 04:22:25.383354  2846 net.cpp:454] conv5_1 <- conv5_1_1x1_increase
I0620 04:22:25.383358  2846 net.cpp:411] conv5_1 -> conv5_1
I0620 04:22:25.383376  2846 net.cpp:150] Setting up conv5_1
I0620 04:22:25.383380  2846 net.cpp:157] Top shape: 1 2048 51 51 (5326848)
I0620 04:22:25.383383  2846 net.cpp:165] Memory required for data: 2576732168
I0620 04:22:25.383388  2846 layer_factory.hpp:77] Creating layer conv5_1/relu
I0620 04:22:25.383393  2846 net.cpp:106] Creating Layer conv5_1/relu
I0620 04:22:25.383394  2846 net.cpp:454] conv5_1/relu <- conv5_1
I0620 04:22:25.383399  2846 net.cpp:397] conv5_1/relu -> conv5_1 (in-place)
I0620 04:22:25.383404  2846 net.cpp:150] Setting up conv5_1/relu
I0620 04:22:25.383407  2846 net.cpp:157] Top shape: 1 2048 51 51 (5326848)
I0620 04:22:25.383409  2846 net.cpp:165] Memory required for data: 2598039560
I0620 04:22:25.383414  2846 layer_factory.hpp:77] Creating layer conv5_1_conv5_1/relu_0_split
I0620 04:22:25.383419  2846 net.cpp:106] Creating Layer conv5_1_conv5_1/relu_0_split
I0620 04:22:25.383421  2846 net.cpp:454] conv5_1_conv5_1/relu_0_split <- conv5_1
I0620 04:22:25.383425  2846 net.cpp:411] conv5_1_conv5_1/relu_0_split -> conv5_1_conv5_1/relu_0_split_0
I0620 04:22:25.383430  2846 net.cpp:411] conv5_1_conv5_1/relu_0_split -> conv5_1_conv5_1/relu_0_split_1
I0620 04:22:25.383455  2846 net.cpp:150] Setting up conv5_1_conv5_1/relu_0_split
I0620 04:22:25.383458  2846 net.cpp:157] Top shape: 1 2048 51 51 (5326848)
I0620 04:22:25.383461  2846 net.cpp:157] Top shape: 1 2048 51 51 (5326848)
I0620 04:22:25.383463  2846 net.cpp:165] Memory required for data: 2640654344
I0620 04:22:25.383466  2846 layer_factory.hpp:77] Creating layer conv5_2_1x1_reduce
I0620 04:22:25.383473  2846 net.cpp:106] Creating Layer conv5_2_1x1_reduce
I0620 04:22:25.383476  2846 net.cpp:454] conv5_2_1x1_reduce <- conv5_1_conv5_1/relu_0_split_0
I0620 04:22:25.383481  2846 net.cpp:411] conv5_2_1x1_reduce -> conv5_2_1x1_reduce
I0620 04:22:25.410883  2846 net.cpp:150] Setting up conv5_2_1x1_reduce
I0620 04:22:25.410970  2846 net.cpp:157] Top shape: 1 512 51 51 (1331712)
I0620 04:22:25.410977  2846 net.cpp:165] Memory required for data: 2645981192
I0620 04:22:25.410993  2846 layer_factory.hpp:77] Creating layer conv5_2_1x1_reduce/bn
I0620 04:22:25.411022  2846 net.cpp:106] Creating Layer conv5_2_1x1_reduce/bn
I0620 04:22:25.411033  2846 net.cpp:454] conv5_2_1x1_reduce/bn <- conv5_2_1x1_reduce
I0620 04:22:25.411046  2846 net.cpp:397] conv5_2_1x1_reduce/bn -> conv5_2_1x1_reduce (in-place)
I0620 04:22:25.411370  2846 net.cpp:150] Setting up conv5_2_1x1_reduce/bn
I0620 04:22:25.411381  2846 net.cpp:157] Top shape: 1 512 51 51 (1331712)
I0620 04:22:25.411386  2846 net.cpp:165] Memory required for data: 2651308040
I0620 04:22:25.411399  2846 layer_factory.hpp:77] Creating layer conv5_2_1x1_reduce/relu
I0620 04:22:25.411414  2846 net.cpp:106] Creating Layer conv5_2_1x1_reduce/relu
I0620 04:22:25.411419  2846 net.cpp:454] conv5_2_1x1_reduce/relu <- conv5_2_1x1_reduce
I0620 04:22:25.411424  2846 net.cpp:397] conv5_2_1x1_reduce/relu -> conv5_2_1x1_reduce (in-place)
I0620 04:22:25.411432  2846 net.cpp:150] Setting up conv5_2_1x1_reduce/relu
I0620 04:22:25.411437  2846 net.cpp:157] Top shape: 1 512 51 51 (1331712)
I0620 04:22:25.411442  2846 net.cpp:165] Memory required for data: 2656634888
I0620 04:22:25.411445  2846 layer_factory.hpp:77] Creating layer conv5_2_3x3
I0620 04:22:25.411458  2846 net.cpp:106] Creating Layer conv5_2_3x3
I0620 04:22:25.411461  2846 net.cpp:454] conv5_2_3x3 <- conv5_2_1x1_reduce
I0620 04:22:25.411468  2846 net.cpp:411] conv5_2_3x3 -> conv5_2_3x3
I0620 04:22:25.468238  2846 net.cpp:150] Setting up conv5_2_3x3
I0620 04:22:25.468269  2846 net.cpp:157] Top shape: 1 512 51 51 (1331712)
I0620 04:22:25.468272  2846 net.cpp:165] Memory required for data: 2661961736
I0620 04:22:25.468283  2846 layer_factory.hpp:77] Creating layer conv5_2_3x3/bn
I0620 04:22:25.468294  2846 net.cpp:106] Creating Layer conv5_2_3x3/bn
I0620 04:22:25.468303  2846 net.cpp:454] conv5_2_3x3/bn <- conv5_2_3x3
I0620 04:22:25.468310  2846 net.cpp:397] conv5_2_3x3/bn -> conv5_2_3x3 (in-place)
I0620 04:22:25.468502  2846 net.cpp:150] Setting up conv5_2_3x3/bn
I0620 04:22:25.468508  2846 net.cpp:157] Top shape: 1 512 51 51 (1331712)
I0620 04:22:25.468513  2846 net.cpp:165] Memory required for data: 2667288584
I0620 04:22:25.468518  2846 layer_factory.hpp:77] Creating layer conv5_2_3x3/relu
I0620 04:22:25.468526  2846 net.cpp:106] Creating Layer conv5_2_3x3/relu
I0620 04:22:25.468529  2846 net.cpp:454] conv5_2_3x3/relu <- conv5_2_3x3
I0620 04:22:25.468533  2846 net.cpp:397] conv5_2_3x3/relu -> conv5_2_3x3 (in-place)
I0620 04:22:25.468538  2846 net.cpp:150] Setting up conv5_2_3x3/relu
I0620 04:22:25.468540  2846 net.cpp:157] Top shape: 1 512 51 51 (1331712)
I0620 04:22:25.468544  2846 net.cpp:165] Memory required for data: 2672615432
I0620 04:22:25.468546  2846 layer_factory.hpp:77] Creating layer conv5_2_1x1_increase
I0620 04:22:25.468554  2846 net.cpp:106] Creating Layer conv5_2_1x1_increase
I0620 04:22:25.468555  2846 net.cpp:454] conv5_2_1x1_increase <- conv5_2_3x3
I0620 04:22:25.468560  2846 net.cpp:411] conv5_2_1x1_increase -> conv5_2_1x1_increase
I0620 04:22:25.492302  2846 net.cpp:150] Setting up conv5_2_1x1_increase
I0620 04:22:25.492327  2846 net.cpp:157] Top shape: 1 2048 51 51 (5326848)
I0620 04:22:25.492334  2846 net.cpp:165] Memory required for data: 2693922824
I0620 04:22:25.492343  2846 layer_factory.hpp:77] Creating layer conv5_2_1x1_increase/bn
I0620 04:22:25.492355  2846 net.cpp:106] Creating Layer conv5_2_1x1_increase/bn
I0620 04:22:25.492362  2846 net.cpp:454] conv5_2_1x1_increase/bn <- conv5_2_1x1_increase
I0620 04:22:25.492367  2846 net.cpp:397] conv5_2_1x1_increase/bn -> conv5_2_1x1_increase (in-place)
I0620 04:22:25.492600  2846 net.cpp:150] Setting up conv5_2_1x1_increase/bn
I0620 04:22:25.492609  2846 net.cpp:157] Top shape: 1 2048 51 51 (5326848)
I0620 04:22:25.492611  2846 net.cpp:165] Memory required for data: 2715230216
I0620 04:22:25.492669  2846 layer_factory.hpp:77] Creating layer conv5_2
I0620 04:22:25.492700  2846 net.cpp:106] Creating Layer conv5_2
I0620 04:22:25.492704  2846 net.cpp:454] conv5_2 <- conv5_1_conv5_1/relu_0_split_1
I0620 04:22:25.492707  2846 net.cpp:454] conv5_2 <- conv5_2_1x1_increase
I0620 04:22:25.492712  2846 net.cpp:411] conv5_2 -> conv5_2
I0620 04:22:25.492738  2846 net.cpp:150] Setting up conv5_2
I0620 04:22:25.492745  2846 net.cpp:157] Top shape: 1 2048 51 51 (5326848)
I0620 04:22:25.492748  2846 net.cpp:165] Memory required for data: 2736537608
I0620 04:22:25.492753  2846 layer_factory.hpp:77] Creating layer conv5_2/relu
I0620 04:22:25.492763  2846 net.cpp:106] Creating Layer conv5_2/relu
I0620 04:22:25.492768  2846 net.cpp:454] conv5_2/relu <- conv5_2
I0620 04:22:25.492774  2846 net.cpp:397] conv5_2/relu -> conv5_2 (in-place)
I0620 04:22:25.492781  2846 net.cpp:150] Setting up conv5_2/relu
I0620 04:22:25.492786  2846 net.cpp:157] Top shape: 1 2048 51 51 (5326848)
I0620 04:22:25.492790  2846 net.cpp:165] Memory required for data: 2757845000
I0620 04:22:25.492794  2846 layer_factory.hpp:77] Creating layer conv5_2_conv5_2/relu_0_split
I0620 04:22:25.492804  2846 net.cpp:106] Creating Layer conv5_2_conv5_2/relu_0_split
I0620 04:22:25.492807  2846 net.cpp:454] conv5_2_conv5_2/relu_0_split <- conv5_2
I0620 04:22:25.492815  2846 net.cpp:411] conv5_2_conv5_2/relu_0_split -> conv5_2_conv5_2/relu_0_split_0
I0620 04:22:25.492821  2846 net.cpp:411] conv5_2_conv5_2/relu_0_split -> conv5_2_conv5_2/relu_0_split_1
I0620 04:22:25.492862  2846 net.cpp:150] Setting up conv5_2_conv5_2/relu_0_split
I0620 04:22:25.492867  2846 net.cpp:157] Top shape: 1 2048 51 51 (5326848)
I0620 04:22:25.492871  2846 net.cpp:157] Top shape: 1 2048 51 51 (5326848)
I0620 04:22:25.492873  2846 net.cpp:165] Memory required for data: 2800459784
I0620 04:22:25.492877  2846 layer_factory.hpp:77] Creating layer conv5_3_1x1_reduce
I0620 04:22:25.492888  2846 net.cpp:106] Creating Layer conv5_3_1x1_reduce
I0620 04:22:25.492892  2846 net.cpp:454] conv5_3_1x1_reduce <- conv5_2_conv5_2/relu_0_split_0
I0620 04:22:25.492897  2846 net.cpp:411] conv5_3_1x1_reduce -> conv5_3_1x1_reduce
I0620 04:22:25.521198  2846 net.cpp:150] Setting up conv5_3_1x1_reduce
I0620 04:22:25.521229  2846 net.cpp:157] Top shape: 1 512 51 51 (1331712)
I0620 04:22:25.521234  2846 net.cpp:165] Memory required for data: 2805786632
I0620 04:22:25.521240  2846 layer_factory.hpp:77] Creating layer conv5_3_1x1_reduce/bn
I0620 04:22:25.521253  2846 net.cpp:106] Creating Layer conv5_3_1x1_reduce/bn
I0620 04:22:25.521258  2846 net.cpp:454] conv5_3_1x1_reduce/bn <- conv5_3_1x1_reduce
I0620 04:22:25.521265  2846 net.cpp:397] conv5_3_1x1_reduce/bn -> conv5_3_1x1_reduce (in-place)
I0620 04:22:25.521448  2846 net.cpp:150] Setting up conv5_3_1x1_reduce/bn
I0620 04:22:25.521453  2846 net.cpp:157] Top shape: 1 512 51 51 (1331712)
I0620 04:22:25.521458  2846 net.cpp:165] Memory required for data: 2811113480
I0620 04:22:25.521466  2846 layer_factory.hpp:77] Creating layer conv5_3_1x1_reduce/relu
I0620 04:22:25.521471  2846 net.cpp:106] Creating Layer conv5_3_1x1_reduce/relu
I0620 04:22:25.521474  2846 net.cpp:454] conv5_3_1x1_reduce/relu <- conv5_3_1x1_reduce
I0620 04:22:25.521479  2846 net.cpp:397] conv5_3_1x1_reduce/relu -> conv5_3_1x1_reduce (in-place)
I0620 04:22:25.521484  2846 net.cpp:150] Setting up conv5_3_1x1_reduce/relu
I0620 04:22:25.521487  2846 net.cpp:157] Top shape: 1 512 51 51 (1331712)
I0620 04:22:25.521491  2846 net.cpp:165] Memory required for data: 2816440328
I0620 04:22:25.521492  2846 layer_factory.hpp:77] Creating layer conv5_3_3x3
I0620 04:22:25.521499  2846 net.cpp:106] Creating Layer conv5_3_3x3
I0620 04:22:25.521502  2846 net.cpp:454] conv5_3_3x3 <- conv5_3_1x1_reduce
I0620 04:22:25.521505  2846 net.cpp:411] conv5_3_3x3 -> conv5_3_3x3
I0620 04:22:25.578392  2846 net.cpp:150] Setting up conv5_3_3x3
I0620 04:22:25.578413  2846 net.cpp:157] Top shape: 1 512 51 51 (1331712)
I0620 04:22:25.578416  2846 net.cpp:165] Memory required for data: 2821767176
I0620 04:22:25.578423  2846 layer_factory.hpp:77] Creating layer conv5_3_3x3/bn
I0620 04:22:25.578447  2846 net.cpp:106] Creating Layer conv5_3_3x3/bn
I0620 04:22:25.578454  2846 net.cpp:454] conv5_3_3x3/bn <- conv5_3_3x3
I0620 04:22:25.578457  2846 net.cpp:397] conv5_3_3x3/bn -> conv5_3_3x3 (in-place)
I0620 04:22:25.578632  2846 net.cpp:150] Setting up conv5_3_3x3/bn
I0620 04:22:25.578637  2846 net.cpp:157] Top shape: 1 512 51 51 (1331712)
I0620 04:22:25.578639  2846 net.cpp:165] Memory required for data: 2827094024
I0620 04:22:25.578645  2846 layer_factory.hpp:77] Creating layer conv5_3_3x3/relu
I0620 04:22:25.578650  2846 net.cpp:106] Creating Layer conv5_3_3x3/relu
I0620 04:22:25.578654  2846 net.cpp:454] conv5_3_3x3/relu <- conv5_3_3x3
I0620 04:22:25.578656  2846 net.cpp:397] conv5_3_3x3/relu -> conv5_3_3x3 (in-place)
I0620 04:22:25.578660  2846 net.cpp:150] Setting up conv5_3_3x3/relu
I0620 04:22:25.578665  2846 net.cpp:157] Top shape: 1 512 51 51 (1331712)
I0620 04:22:25.578666  2846 net.cpp:165] Memory required for data: 2832420872
I0620 04:22:25.578670  2846 layer_factory.hpp:77] Creating layer conv5_3_1x1_increase
I0620 04:22:25.578676  2846 net.cpp:106] Creating Layer conv5_3_1x1_increase
I0620 04:22:25.578680  2846 net.cpp:454] conv5_3_1x1_increase <- conv5_3_3x3
I0620 04:22:25.578685  2846 net.cpp:411] conv5_3_1x1_increase -> conv5_3_1x1_increase
I0620 04:22:25.605072  2846 net.cpp:150] Setting up conv5_3_1x1_increase
I0620 04:22:25.605151  2846 net.cpp:157] Top shape: 1 2048 51 51 (5326848)
I0620 04:22:25.605157  2846 net.cpp:165] Memory required for data: 2853728264
I0620 04:22:25.605176  2846 layer_factory.hpp:77] Creating layer conv5_3_1x1_increase/bn
I0620 04:22:25.605199  2846 net.cpp:106] Creating Layer conv5_3_1x1_increase/bn
I0620 04:22:25.605209  2846 net.cpp:454] conv5_3_1x1_increase/bn <- conv5_3_1x1_increase
I0620 04:22:25.605222  2846 net.cpp:397] conv5_3_1x1_increase/bn -> conv5_3_1x1_increase (in-place)
I0620 04:22:25.605536  2846 net.cpp:150] Setting up conv5_3_1x1_increase/bn
I0620 04:22:25.605543  2846 net.cpp:157] Top shape: 1 2048 51 51 (5326848)
I0620 04:22:25.605552  2846 net.cpp:165] Memory required for data: 2875035656
I0620 04:22:25.605563  2846 layer_factory.hpp:77] Creating layer conv5_3
I0620 04:22:25.605576  2846 net.cpp:106] Creating Layer conv5_3
I0620 04:22:25.605582  2846 net.cpp:454] conv5_3 <- conv5_2_conv5_2/relu_0_split_1
I0620 04:22:25.605588  2846 net.cpp:454] conv5_3 <- conv5_3_1x1_increase
I0620 04:22:25.605594  2846 net.cpp:411] conv5_3 -> conv5_3
I0620 04:22:25.605623  2846 net.cpp:150] Setting up conv5_3
I0620 04:22:25.605630  2846 net.cpp:157] Top shape: 1 2048 51 51 (5326848)
I0620 04:22:25.605634  2846 net.cpp:165] Memory required for data: 2896343048
I0620 04:22:25.605638  2846 layer_factory.hpp:77] Creating layer conv5_3/relu
I0620 04:22:25.605649  2846 net.cpp:106] Creating Layer conv5_3/relu
I0620 04:22:25.605654  2846 net.cpp:454] conv5_3/relu <- conv5_3
I0620 04:22:25.605659  2846 net.cpp:397] conv5_3/relu -> conv5_3 (in-place)
I0620 04:22:25.605666  2846 net.cpp:150] Setting up conv5_3/relu
I0620 04:22:25.605672  2846 net.cpp:157] Top shape: 1 2048 51 51 (5326848)
I0620 04:22:25.605676  2846 net.cpp:165] Memory required for data: 2917650440
I0620 04:22:25.605681  2846 layer_factory.hpp:77] Creating layer conv5_3_conv5_3/relu_0_split
I0620 04:22:25.605692  2846 net.cpp:106] Creating Layer conv5_3_conv5_3/relu_0_split
I0620 04:22:25.605696  2846 net.cpp:454] conv5_3_conv5_3/relu_0_split <- conv5_3
I0620 04:22:25.605702  2846 net.cpp:411] conv5_3_conv5_3/relu_0_split -> conv5_3_conv5_3/relu_0_split_0
I0620 04:22:25.605711  2846 net.cpp:411] conv5_3_conv5_3/relu_0_split -> conv5_3_conv5_3/relu_0_split_1
I0620 04:22:25.605718  2846 net.cpp:411] conv5_3_conv5_3/relu_0_split -> conv5_3_conv5_3/relu_0_split_2
I0620 04:22:25.605726  2846 net.cpp:411] conv5_3_conv5_3/relu_0_split -> conv5_3_conv5_3/relu_0_split_3
I0620 04:22:25.605731  2846 net.cpp:411] conv5_3_conv5_3/relu_0_split -> conv5_3_conv5_3/relu_0_split_4
I0620 04:22:25.605825  2846 net.cpp:150] Setting up conv5_3_conv5_3/relu_0_split
I0620 04:22:25.605832  2846 net.cpp:157] Top shape: 1 2048 51 51 (5326848)
I0620 04:22:25.605893  2846 net.cpp:157] Top shape: 1 2048 51 51 (5326848)
I0620 04:22:25.605898  2846 net.cpp:157] Top shape: 1 2048 51 51 (5326848)
I0620 04:22:25.605903  2846 net.cpp:157] Top shape: 1 2048 51 51 (5326848)
I0620 04:22:25.605908  2846 net.cpp:157] Top shape: 1 2048 51 51 (5326848)
I0620 04:22:25.605911  2846 net.cpp:165] Memory required for data: 3024187400
I0620 04:22:25.605916  2846 layer_factory.hpp:77] Creating layer conv5_3_pool1
I0620 04:22:25.605926  2846 net.cpp:106] Creating Layer conv5_3_pool1
I0620 04:22:25.605931  2846 net.cpp:454] conv5_3_pool1 <- conv5_3_conv5_3/relu_0_split_0
I0620 04:22:25.605937  2846 net.cpp:411] conv5_3_pool1 -> conv5_3_pool1
I0620 04:22:25.605962  2846 net.cpp:150] Setting up conv5_3_pool1
I0620 04:22:25.605968  2846 net.cpp:157] Top shape: 1 2048 1 1 (2048)
I0620 04:22:25.605971  2846 net.cpp:165] Memory required for data: 3024195592
I0620 04:22:25.605976  2846 layer_factory.hpp:77] Creating layer conv5_3_pool1_conv
I0620 04:22:25.605991  2846 net.cpp:106] Creating Layer conv5_3_pool1_conv
I0620 04:22:25.605995  2846 net.cpp:454] conv5_3_pool1_conv <- conv5_3_pool1
I0620 04:22:25.606005  2846 net.cpp:411] conv5_3_pool1_conv -> conv5_3_pool1_conv
I0620 04:22:25.629799  2846 net.cpp:150] Setting up conv5_3_pool1_conv
I0620 04:22:25.629820  2846 net.cpp:157] Top shape: 1 512 1 1 (512)
I0620 04:22:25.629822  2846 net.cpp:165] Memory required for data: 3024197640
I0620 04:22:25.629828  2846 layer_factory.hpp:77] Creating layer conv5_3_pool1_conv/bn
I0620 04:22:25.629837  2846 net.cpp:106] Creating Layer conv5_3_pool1_conv/bn
I0620 04:22:25.629842  2846 net.cpp:454] conv5_3_pool1_conv/bn <- conv5_3_pool1_conv
I0620 04:22:25.629849  2846 net.cpp:397] conv5_3_pool1_conv/bn -> conv5_3_pool1_conv (in-place)
I0620 04:22:25.630029  2846 net.cpp:150] Setting up conv5_3_pool1_conv/bn
I0620 04:22:25.630035  2846 net.cpp:157] Top shape: 1 512 1 1 (512)
I0620 04:22:25.630038  2846 net.cpp:165] Memory required for data: 3024199688
I0620 04:22:25.630043  2846 layer_factory.hpp:77] Creating layer conv5_3_pool1_conv/relu
I0620 04:22:25.630050  2846 net.cpp:106] Creating Layer conv5_3_pool1_conv/relu
I0620 04:22:25.630053  2846 net.cpp:454] conv5_3_pool1_conv/relu <- conv5_3_pool1_conv
I0620 04:22:25.630059  2846 net.cpp:397] conv5_3_pool1_conv/relu -> conv5_3_pool1_conv (in-place)
I0620 04:22:25.630062  2846 net.cpp:150] Setting up conv5_3_pool1_conv/relu
I0620 04:22:25.630066  2846 net.cpp:157] Top shape: 1 512 1 1 (512)
I0620 04:22:25.630069  2846 net.cpp:165] Memory required for data: 3024201736
I0620 04:22:25.630071  2846 layer_factory.hpp:77] Creating layer conv5_3_pool1_interp
I0620 04:22:25.630075  2846 net.cpp:106] Creating Layer conv5_3_pool1_interp
I0620 04:22:25.630079  2846 net.cpp:454] conv5_3_pool1_interp <- conv5_3_pool1_conv
I0620 04:22:25.630082  2846 net.cpp:411] conv5_3_pool1_interp -> conv5_3_pool1_interp
I0620 04:22:25.630102  2846 net.cpp:150] Setting up conv5_3_pool1_interp
I0620 04:22:25.630106  2846 net.cpp:157] Top shape: 1 512 60 60 (1843200)
I0620 04:22:25.630108  2846 net.cpp:165] Memory required for data: 3031574536
I0620 04:22:25.630111  2846 layer_factory.hpp:77] Creating layer conv5_3_pool2
I0620 04:22:25.630116  2846 net.cpp:106] Creating Layer conv5_3_pool2
I0620 04:22:25.630120  2846 net.cpp:454] conv5_3_pool2 <- conv5_3_conv5_3/relu_0_split_1
I0620 04:22:25.630123  2846 net.cpp:411] conv5_3_pool2 -> conv5_3_pool2
I0620 04:22:25.630141  2846 net.cpp:150] Setting up conv5_3_pool2
I0620 04:22:25.630144  2846 net.cpp:157] Top shape: 1 2048 2 2 (8192)
I0620 04:22:25.630147  2846 net.cpp:165] Memory required for data: 3031607304
I0620 04:22:25.630149  2846 layer_factory.hpp:77] Creating layer conv5_3_pool2_conv
I0620 04:22:25.630157  2846 net.cpp:106] Creating Layer conv5_3_pool2_conv
I0620 04:22:25.630161  2846 net.cpp:454] conv5_3_pool2_conv <- conv5_3_pool2
I0620 04:22:25.630165  2846 net.cpp:411] conv5_3_pool2_conv -> conv5_3_pool2_conv
I0620 04:22:25.658092  2846 net.cpp:150] Setting up conv5_3_pool2_conv
I0620 04:22:25.658133  2846 net.cpp:157] Top shape: 1 512 2 2 (2048)
I0620 04:22:25.658136  2846 net.cpp:165] Memory required for data: 3031615496
I0620 04:22:25.658141  2846 layer_factory.hpp:77] Creating layer conv5_3_pool2_conv/bn
I0620 04:22:25.658155  2846 net.cpp:106] Creating Layer conv5_3_pool2_conv/bn
I0620 04:22:25.658162  2846 net.cpp:454] conv5_3_pool2_conv/bn <- conv5_3_pool2_conv
I0620 04:22:25.658169  2846 net.cpp:397] conv5_3_pool2_conv/bn -> conv5_3_pool2_conv (in-place)
I0620 04:22:25.658360  2846 net.cpp:150] Setting up conv5_3_pool2_conv/bn
I0620 04:22:25.658365  2846 net.cpp:157] Top shape: 1 512 2 2 (2048)
I0620 04:22:25.658367  2846 net.cpp:165] Memory required for data: 3031623688
I0620 04:22:25.658372  2846 layer_factory.hpp:77] Creating layer conv5_3_pool2_conv/relu
I0620 04:22:25.658378  2846 net.cpp:106] Creating Layer conv5_3_pool2_conv/relu
I0620 04:22:25.658380  2846 net.cpp:454] conv5_3_pool2_conv/relu <- conv5_3_pool2_conv
I0620 04:22:25.658385  2846 net.cpp:397] conv5_3_pool2_conv/relu -> conv5_3_pool2_conv (in-place)
I0620 04:22:25.658388  2846 net.cpp:150] Setting up conv5_3_pool2_conv/relu
I0620 04:22:25.658392  2846 net.cpp:157] Top shape: 1 512 2 2 (2048)
I0620 04:22:25.658394  2846 net.cpp:165] Memory required for data: 3031631880
I0620 04:22:25.658397  2846 layer_factory.hpp:77] Creating layer conv5_3_pool2_interp
I0620 04:22:25.658401  2846 net.cpp:106] Creating Layer conv5_3_pool2_interp
I0620 04:22:25.658404  2846 net.cpp:454] conv5_3_pool2_interp <- conv5_3_pool2_conv
I0620 04:22:25.658408  2846 net.cpp:411] conv5_3_pool2_interp -> conv5_3_pool2_interp
I0620 04:22:25.658427  2846 net.cpp:150] Setting up conv5_3_pool2_interp
I0620 04:22:25.658430  2846 net.cpp:157] Top shape: 1 512 60 60 (1843200)
I0620 04:22:25.658433  2846 net.cpp:165] Memory required for data: 3039004680
I0620 04:22:25.658435  2846 layer_factory.hpp:77] Creating layer conv5_3_pool3
I0620 04:22:25.658440  2846 net.cpp:106] Creating Layer conv5_3_pool3
I0620 04:22:25.658443  2846 net.cpp:454] conv5_3_pool3 <- conv5_3_conv5_3/relu_0_split_2
I0620 04:22:25.658447  2846 net.cpp:411] conv5_3_pool3 -> conv5_3_pool3
I0620 04:22:25.658466  2846 net.cpp:150] Setting up conv5_3_pool3
I0620 04:22:25.658470  2846 net.cpp:157] Top shape: 1 2048 3 3 (18432)
I0620 04:22:25.658473  2846 net.cpp:165] Memory required for data: 3039078408
I0620 04:22:25.658475  2846 layer_factory.hpp:77] Creating layer conv5_3_pool3_conv
I0620 04:22:25.658485  2846 net.cpp:106] Creating Layer conv5_3_pool3_conv
I0620 04:22:25.658488  2846 net.cpp:454] conv5_3_pool3_conv <- conv5_3_pool3
I0620 04:22:25.658493  2846 net.cpp:411] conv5_3_pool3_conv -> conv5_3_pool3_conv
I0620 04:22:25.682081  2846 net.cpp:150] Setting up conv5_3_pool3_conv
I0620 04:22:25.682104  2846 net.cpp:157] Top shape: 1 512 3 3 (4608)
I0620 04:22:25.682108  2846 net.cpp:165] Memory required for data: 3039096840
I0620 04:22:25.682116  2846 layer_factory.hpp:77] Creating layer conv5_3_pool3_conv/bn
I0620 04:22:25.682128  2846 net.cpp:106] Creating Layer conv5_3_pool3_conv/bn
I0620 04:22:25.682134  2846 net.cpp:454] conv5_3_pool3_conv/bn <- conv5_3_pool3_conv
I0620 04:22:25.682140  2846 net.cpp:397] conv5_3_pool3_conv/bn -> conv5_3_pool3_conv (in-place)
I0620 04:22:25.682312  2846 net.cpp:150] Setting up conv5_3_pool3_conv/bn
I0620 04:22:25.682317  2846 net.cpp:157] Top shape: 1 512 3 3 (4608)
I0620 04:22:25.682319  2846 net.cpp:165] Memory required for data: 3039115272
I0620 04:22:25.682325  2846 layer_factory.hpp:77] Creating layer conv5_3_pool3_conv/relu
I0620 04:22:25.682330  2846 net.cpp:106] Creating Layer conv5_3_pool3_conv/relu
I0620 04:22:25.682333  2846 net.cpp:454] conv5_3_pool3_conv/relu <- conv5_3_pool3_conv
I0620 04:22:25.682337  2846 net.cpp:397] conv5_3_pool3_conv/relu -> conv5_3_pool3_conv (in-place)
I0620 04:22:25.682341  2846 net.cpp:150] Setting up conv5_3_pool3_conv/relu
I0620 04:22:25.682345  2846 net.cpp:157] Top shape: 1 512 3 3 (4608)
I0620 04:22:25.682348  2846 net.cpp:165] Memory required for data: 3039133704
I0620 04:22:25.682350  2846 layer_factory.hpp:77] Creating layer conv5_3_pool3_interp
I0620 04:22:25.682374  2846 net.cpp:106] Creating Layer conv5_3_pool3_interp
I0620 04:22:25.682377  2846 net.cpp:454] conv5_3_pool3_interp <- conv5_3_pool3_conv
I0620 04:22:25.682381  2846 net.cpp:411] conv5_3_pool3_interp -> conv5_3_pool3_interp
I0620 04:22:25.682400  2846 net.cpp:150] Setting up conv5_3_pool3_interp
I0620 04:22:25.682404  2846 net.cpp:157] Top shape: 1 512 60 60 (1843200)
I0620 04:22:25.682406  2846 net.cpp:165] Memory required for data: 3046506504
I0620 04:22:25.682410  2846 layer_factory.hpp:77] Creating layer conv5_3_pool6
I0620 04:22:25.682415  2846 net.cpp:106] Creating Layer conv5_3_pool6
I0620 04:22:25.682417  2846 net.cpp:454] conv5_3_pool6 <- conv5_3_conv5_3/relu_0_split_3
I0620 04:22:25.682421  2846 net.cpp:411] conv5_3_pool6 -> conv5_3_pool6
I0620 04:22:25.682440  2846 net.cpp:150] Setting up conv5_3_pool6
I0620 04:22:25.682443  2846 net.cpp:157] Top shape: 1 2048 6 6 (73728)
I0620 04:22:25.682446  2846 net.cpp:165] Memory required for data: 3046801416
I0620 04:22:25.682449  2846 layer_factory.hpp:77] Creating layer conv5_3_pool6_conv
I0620 04:22:25.682456  2846 net.cpp:106] Creating Layer conv5_3_pool6_conv
I0620 04:22:25.682459  2846 net.cpp:454] conv5_3_pool6_conv <- conv5_3_pool6
I0620 04:22:25.682463  2846 net.cpp:411] conv5_3_pool6_conv -> conv5_3_pool6_conv
I0620 04:22:25.710506  2846 net.cpp:150] Setting up conv5_3_pool6_conv
I0620 04:22:25.710526  2846 net.cpp:157] Top shape: 1 512 6 6 (18432)
I0620 04:22:25.710530  2846 net.cpp:165] Memory required for data: 3046875144
I0620 04:22:25.710536  2846 layer_factory.hpp:77] Creating layer conv5_3_pool6_conv/bn
I0620 04:22:25.710543  2846 net.cpp:106] Creating Layer conv5_3_pool6_conv/bn
I0620 04:22:25.710547  2846 net.cpp:454] conv5_3_pool6_conv/bn <- conv5_3_pool6_conv
I0620 04:22:25.710554  2846 net.cpp:397] conv5_3_pool6_conv/bn -> conv5_3_pool6_conv (in-place)
I0620 04:22:25.710731  2846 net.cpp:150] Setting up conv5_3_pool6_conv/bn
I0620 04:22:25.710736  2846 net.cpp:157] Top shape: 1 512 6 6 (18432)
I0620 04:22:25.710738  2846 net.cpp:165] Memory required for data: 3046948872
I0620 04:22:25.710744  2846 layer_factory.hpp:77] Creating layer conv5_3_pool6_conv/relu
I0620 04:22:25.710750  2846 net.cpp:106] Creating Layer conv5_3_pool6_conv/relu
I0620 04:22:25.710752  2846 net.cpp:454] conv5_3_pool6_conv/relu <- conv5_3_pool6_conv
I0620 04:22:25.710757  2846 net.cpp:397] conv5_3_pool6_conv/relu -> conv5_3_pool6_conv (in-place)
I0620 04:22:25.710760  2846 net.cpp:150] Setting up conv5_3_pool6_conv/relu
I0620 04:22:25.710763  2846 net.cpp:157] Top shape: 1 512 6 6 (18432)
I0620 04:22:25.710765  2846 net.cpp:165] Memory required for data: 3047022600
I0620 04:22:25.710768  2846 layer_factory.hpp:77] Creating layer conv5_3_pool6_interp
I0620 04:22:25.710773  2846 net.cpp:106] Creating Layer conv5_3_pool6_interp
I0620 04:22:25.710775  2846 net.cpp:454] conv5_3_pool6_interp <- conv5_3_pool6_conv
I0620 04:22:25.710779  2846 net.cpp:411] conv5_3_pool6_interp -> conv5_3_pool6_interp
I0620 04:22:25.710798  2846 net.cpp:150] Setting up conv5_3_pool6_interp
I0620 04:22:25.710801  2846 net.cpp:157] Top shape: 1 512 60 60 (1843200)
I0620 04:22:25.710803  2846 net.cpp:165] Memory required for data: 3054395400
I0620 04:22:25.710805  2846 layer_factory.hpp:77] Creating layer conv5_3_concat
I0620 04:22:25.710809  2846 net.cpp:106] Creating Layer conv5_3_concat
I0620 04:22:25.710811  2846 net.cpp:454] conv5_3_concat <- conv5_3_conv5_3/relu_0_split_4
I0620 04:22:25.710814  2846 net.cpp:454] conv5_3_concat <- conv5_3_pool6_interp
…
