…
I0621 15:52:28.893651 11078 solver.cpp:81] Creating training net from train_net file: exper/voc12/config/pspnet_resnet101/train_train_aug.prototxt
I0621 15:52:28.901682 11078 net.cpp:49] Initializing net from parameters: 
name: "pspnet_resnet101"
state {
  phase: TRAIN
}
layer {
  name: "data"
  type: "ImageSegData"
  top: "data"
  top: "label"
  include {
    phase: TRAIN
  }
  transform_param {
    mirror: true
    crop_size: 473
    mean_value: 104.008
    mean_value: 116.669
    mean_value: 122.675
  }
  image_data_param {
    source: "exper/voc12/list/train_aug.txt"
    batch_size: 2
    shuffle: true
    root_folder: "exper/voc12/data"
    label_type: PIXEL
  }
}
layer {
  name: "conv1_1_3x3_s2"
  type: "Convolution"
  bottom: "data"
  top: "conv1_1_3x3_s2"
  param {
    lr_mult: 1
    decay_mult: 1
  }
  convolution_param {
    num_output: 64
    bias_term: false
    pad: 1
    kernel_size: 3
    stride: 2
    weight_filler {
      type: "msra"
    }
  }
}
layer {
  name: "conv1_1_3x3_s2/bn"
  type: "BN"
  bottom: "conv1_1_3x3_s2"
  top: "conv1_1_3x3_s2"
  param {
    lr_mult: 1
    decay_mult: 0
  }
  param {
    lr_mult: 1
    decay_mult: 0
  }
  param {
    lr_mult: 0
    decay_mult: 0
  }
  param {
    lr_mult: 0
    decay_mult: 0
  }
  bn_param {
    slope_filler {
      type: "constant"
      value: 1
    }
    bias_filler {
      type: "constant"
      value: 0
    }
    momentum: 0.95
    frozen: true
  }
}
layer {
  name: "conv1_1_3x3_s2/relu"
  type: "ReLU"
  bottom: "conv1_1_3x3_s2"
  top: "conv1_1_3x3_s2"
}
layer {
  name: "conv1_2_3x3"
  type: "Convolution"
  bottom: "conv1_1_3x3_s2"
  top: "conv1_2_3x3"
  param {
    lr_mult: 1
    decay_mult: 1
  }
  convolution_param {
    num_output: 64
    bias_term: false
    pad: 1
    kernel_size: 3
    stride: 1
    weight_filler {
      type: "msra"
    }
  }
}
layer {
  name: "conv1_2_3x3/bn"
  type: "BN"
  bottom: "conv1_2_3x3"
  top: "conv1_2_3x3"
  param {
    lr_mult: 1
    decay_mult: 0
  }
  param {
    lr_mult: 1
    decay_mult: 0
  }
  param {
    lr_mult: 0
    decay_mult: 0
  }
  param {
    lr_mult: 0
    decay_mult: 0
  }
  bn_param {
    slope_filler {
      type: "constant"
      value: 1
    }
    bias_filler {
      type: "constant"
      value: 0
    }
    momentum: 0.95
    frozen: true
  }
}
layer {
  name: "conv1_2_3x3/relu"
  type: "ReLU"
  bottom: "conv1_2_3x3"
  top: "conv1_2_3x3"
}
layer {
  name: "conv1_3_3x3"
  type: "Convolution"
  bottom: "conv1_2_3x3"
  top: "conv1_3_3x3"
  param {
    lr_mult: 1
    decay_mult: 1
  }
  convolution_param {
    num_output: 128
    bias_term: false
    pad: 1
    kernel_size: 3
    stride: 1
    weight_filler {
      type: "msra"
    }
  }
}
layer {
  name: "conv1_3_3x3/bn"
  type: "BN"
  bottom: "conv1_3_3x3"
  top: "conv1_3_3x3"
  param {
    lr_mult: 1
    decay_mult: 0
  }
  param {
    lr_mult: 1
    decay_mult: 0
  }
  param {
    lr_mult: 0
    decay_mult: 0
  }
  param {
    lr_mult: 0
    decay_mult: 0
  }
  bn_param {
    slope_filler {
      type: "constant"
      value: 1
    }
    bias_filler {
      type: "constant"
      value: 0
    }
    momentum: 0.95
    frozen: true
  }
}
layer {
  name: "conv1_3_3x3/relu"
  type: "ReLU"
  bottom: "conv1_3_3x3"
  top: "conv1_3_3x3"
}
layer {
  name: "pool1_3x3_s2"
  type: "Pooling"
  bottom: "conv1_3_3x3"
  top: "pool1_3x3_s2"
  pooling_param {
    pool: MAX
    kernel_size: 3
    stride: 2
    pad: 1
  }
}
layer {
  name: "conv2_1_1x1_reduce"
  type: "Convolution"
  bottom: "pool1_3x3_s2"
  top: "conv2_1_1x1_reduce"
  param {
    lr_mult: 1
    decay_mult: 1
  }
  convolution_param {
    num_output: 64
    bias_term: false
    pad: 0
    kernel_size: 1
    stride: 1
    weight_filler {
      type: "msra"
    }
  }
}
layer {
  name: "conv2_1_1x1_reduce/bn"
  type: "BN"
  bottom: "conv2_1_1x1_reduce"
  top: "conv2_1_1x1_reduce"
  param {
    lr_mult: 1
    decay_mult: 0
  }
  param {
    lr_mult: 1
    decay_mult: 0
  }
  param {
    lr_mult: 0
    decay_mult: 0
  }
  param {
    lr_mult: 0
    decay_mult: 0
  }
  bn_param {
    slope_filler {
      type: "constant"
      value: 1
    }
    bias_filler {
      type: "constant"
      value: 0
    }
    momentum: 0.95
    frozen: true
  }
}
layer {
  name: "conv2_1_1x1_reduce/relu"
  type: "ReLU"
  bottom: "conv2_1_1x1_reduce"
  top: "conv2_1_1x1_reduce"
}
layer {
  name: "conv2_1_3x3"
  type: "Convolution"
  bottom: "conv2_1_1x1_reduce"
  top: "conv2_1_3x3"
  param {
    lr_mult: 1
    decay_mult: 1
  }
  convolution_param {
    num_output: 64
    bias_term: false
    pad: 1
    kernel_size: 3
    stride: 1
    weight_filler {
      type: "msra"
    }
  }
}
layer {
  name: "conv2_1_3x3/bn"
  type: "BN"
  bottom: "conv2_1_3x3"
  top: "conv2_1_3x3"
  param {
    lr_mult: 1
    decay_mult: 0
  }
  param {
    lr_mult: 1
    decay_mult: 0
  }
  param {
    lr_mult: 0
    decay_mult: 0
  }
  param {
    lr_mult: 0
    decay_mult: 0
  }
  bn_param {
    slope_filler {
      type: "constant"
      value: 1
    }
    bias_filler {
      type: "constant"
      value: 0
    }
    momentum: 0.95
    frozen: true
  }
}
layer {
  name: "conv2_1_3x3/relu"
  type: "ReLU"
  bottom: "conv2_1_3x3"
  top: "conv2_1_3x3"
}
layer {
  name: "conv2_1_1x1_increase"
  type: "Convolution"
  bottom: "conv2_1_3x3"
  top: "conv2_1_1x1_increase"
  param {
    lr_mult: 1
    decay_mult: 1
  }
  convolution_param {
    num_output: 256
    bias_term: false
    pad: 0
    kernel_size: 1
    stride: 1
    weight_filler {
      type: "msra"
    }
  }
}
layer {
  name: "conv2_1_1x1_increase/bn"
  type: "BN"
  bottom: "conv2_1_1x1_increase"
  top: "conv2_1_1x1_increase"
  param {
    lr_mult: 1
    decay_mult: 0
  }
  param {
    lr_mult: 1
    decay_mult: 0
  }
  param {
    lr_mult: 0
    decay_mult: 0
  }
  param {
    lr_mult: 0
    decay_mult: 0
  }
  bn_param {
    slope_filler {
      type: "constant"
      value: 1
    }
    bias_filler {
      type: "constant"
      value: 0
    }
    momentum: 0.95
    frozen: true
  }
}
layer {
  name: "conv2_1_1x1_proj"
  type: "Convolution"
  bottom: "pool1_3x3_s2"
  top: "conv2_1_1x1_proj"
  param {
    lr_mult: 1
    decay_mult: 1
  }
  convolution_param {
    num_output: 256
    bias_term: false
    pad: 0
    kernel_size: 1
    stride: 1
    weight_filler {
      type: "msra"
    }
  }
}
layer {
  name: "conv2_1_1x1_proj/bn"
  type: "BN"
  bottom: "conv2_1_1x1_proj"
  top: "conv2_1_1x1_proj"
  param {
    lr_mult: 1
    decay_mult: 0
  }
  param {
    lr_mult: 1
    decay_mult: 0
  }
  param {
    lr_mult: 0
    decay_mult: 0
  }
  param {
    lr_mult: 0
    decay_mult: 0
  }
  bn_param {
    slope_filler {
      type: "constant"
      value: 1
    }
    bias_filler {
      type: "constant"
      value: 0
    }
    momentum: 0.95
    frozen: true
  }
}
layer {
  name: "conv2_1"
  type: "Eltwise"
  bottom: "conv2_1_1x1_proj"
  bottom: "conv2_1_1x1_increase"
  top: "conv2_1"
  eltwise_param {
    operation: SUM
  }
}
layer {
  name: "conv2_1/relu"
  type: "ReLU"
  bottom: "conv2_1"
  top: "conv2_1"
}
layer {
  name: "conv2_2_1x1_reduce"
  type: "Convolution"
  bottom: "conv2_1"
  top: "conv2_2_1x1_reduce"
  param {
    lr_mult: 1
    decay_mult: 1
  }
  convolution_param {
    num_output: 64
    bias_term: false
    pad: 0
    kernel_size: 1
    stride: 1
    weight_filler {
      type: "msra"
    }
  }
}
layer {
  name: "conv2_2_1x1_reduce/bn"
  type: "BN"
  bottom: "conv2_2_1x1_reduce"
  top: "conv2_2_1x1_reduce"
  param {
    lr_mult: 1
    decay_mult: 0
  }
  param {
    lr_mult: 1
    decay_mult: 0
  }
  param {
    lr_mult: 0
    decay_mult: 0
  }
  param {
    lr_mult: 0
    decay_mult: 0
  }
  bn_param {
    slope_filler {
      type: "constant"
      value: 1
    }
    bias_filler {
      type: "constant"
      value: 0
    }
    momentum: 0.95
    frozen: true
  }
}
layer {
  name: "conv2_2_1x1_reduce/relu"
  type: "ReLU"
  bottom: "conv2_2_1x1_reduce"
  top: "conv2_2_1x1_reduce"
}
layer {
  name: "conv2_2_3x3"
  type: "Convolution"
  bottom: "conv2_2_1x1_reduce"
  top: "conv2_2_3x3"
  param {
    lr_mult: 1
    decay_mult: 1
  }
  convolution_param {
    num_output: 64
    bias_term: false
    pad: 1
    kernel_size: 3
    stride: 1
    weight_filler {
      type: "msra"
    }
  }
}
layer {
  name: "conv2_2_3x3/bn"
  type: "BN"
  bottom: "conv2_2_3x3"
  top: "conv2_2_3x3"
  param {
    lr_mult: 1
    decay_mult: 0
  }
  param {
    lr_mult: 1
    decay_mult: 0
  }
  param {
    lr_mult: 0
    decay_mult: 0
  }
  param {
    lr_mult: 0
    decay_mult: 0
  }
  bn_param {
    slope_filler {
      type: "constant"
      value: 1
    }
    bias_filler {
      type: "constant"
      value: 0
    }
    momentum: 0.95
    frozen: true
  }
}
layer {
  name: "conv2_2_3x3/relu"
  type: "ReLU"
  bottom: "conv2_2_3x3"
  top: "conv2_2_3x3"
}
layer {
  name: "conv2_2_1x1_increase"
  type: "Convolution"
  bottom: "conv2_2_3x3"
  top: "conv2_2_1x1_increase"
  param {
    lr_mult: 1
    decay_mult: 1
  }
  convolution_param {
    num_output: 256
    bias_term: false
    pad: 0
    kernel_size: 1
    stride: 1
    weight_filler {
      type: "msra"
    }
  }
}
layer {
  name: "conv2_2_1x1_increase/bn"
  type: "BN"
  bottom: "conv2_2_1x1_increase"
  top: "conv2_2_1x1_increase"
  param {
    lr_mult: 1
    decay_mult: 0
  }
  param {
    lr_mult: 1
    decay_mult: 0
  }
  param {
    lr_mult: 0
    decay_mult: 0
  }
  param {
    lr_mult: 0
    decay_mult: 0
  }
  bn_param {
    slope_filler {
      type: "constant"
      value: 1
    }
    bias_filler {
      type: "constant"
      value: 0
    }
    momentum: 0.95
    frozen: true
  }
}
layer {
  name: "conv2_2"
  type: "Eltwise"
  bottom: "conv2_1"
  bottom: "conv2_2_1x1_increase"
  top: "conv2_2"
  eltwise_param {
    operation: SUM
  }
}
layer {
  name: "conv2_2/relu"
  type: "ReLU"
  bottom: "conv2_2"
  top: "conv2_2"
}
layer {
  name: "conv2_3_1x1_reduce"
  type: "Convolution"
  bottom: "conv2_2"
  top: "conv2_3_1x1_reduce"
  param {
    lr_mult: 1
    decay_mult: 1
  }
  convolution_param {
    num_output: 64
    bias_term: false
    pad: 0
    kernel_size: 1
    stride: 1
    weight_filler {
      type: "msra"
    }
  }
}
layer {
  name: "conv2_3_1x1_reduce/bn"
  type: "BN"
  bottom: "conv2_3_1x1_reduce"
  top: "conv2_3_1x1_reduce"
  param {
    lr_mult: 1
    decay_mult: 0
  }
  param {
    lr_mult: 1
    decay_mult: 0
  }
  param {
    lr_mult: 0
    decay_mult: 0
  }
  param {
    lr_mult: 0
    decay_mult: 0
  }
  bn_param {
    slope_filler {
      type: "constant"
      value: 1
    }
    bias_filler {
      type: "constant"
      value: 0
    }
    momentum: 0.95
    frozen: true
  }
}
layer {
  name: "conv2_3_1x1_reduce/relu"
  type: "ReLU"
  bottom: "conv2_3_1x1_reduce"
  top: "conv2_3_1x1_reduce"
}
layer {
  name: "conv2_3_3x3"
  type: "Convolution"
  bottom: "conv2_3_1x1_reduce"
  top: "conv2_3_3x3"
  param {
    lr_mult: 1
    decay_mult: 1
  }
  convolution_param {
    num_output: 64
    bias_term: false
    pad: 1
    kernel_size: 3
    stride: 1
    weight_filler {
      type: "msra"
    }
  }
}
layer {
  name: "conv2_3_3x3/bn"
  type: "BN"
  bottom: "conv2_3_3x3"
  top: "conv2_3_3x3"
  param {
    lr_mult: 1
    decay_mult: 0
  }
  param {
    lr_mult: 1
    decay_mult: 0
  }
  param {
    lr_mult: 0
    decay_mult: 0
  }
  param {
    lr_mult: 0
    decay_mult: 0
  }
  bn_param {
    slope_filler {
      type: "constant"
      value: 1
    }
    bias_filler {
      type: "constant"
      value: 0
    }
    momentum: 0.95
    frozen: true
  }
}
layer {
  name: "conv2_3_3x3/relu"
  type: "ReLU"
  bottom: "conv2_3_3x3"
  top: "conv2_3_3x3"
}
layer {
  name: "conv2_3_1x1_increase"
  type: "Convolution"
  bottom: "conv2_3_3x3"
  top: "conv2_3_1x1_increase"
  param {
    lr_mult: 1
    decay_mult: 1
  }
  convolution_param {
    num_output: 256
    bias_term: false
    pad: 0
    kernel_size: 1
    stride: 1
    weight_filler {
      type: "msra"
    }
  }
}
layer {
  name: "conv2_3_1x1_increase/bn"
  type: "BN"
  bottom: "conv2_3_1x1_increase"
  top: "conv2_3_1x1_increase"
  param {
    lr_mult: 1
    decay_mult: 0
  }
  param {
    lr_mult: 1
    decay_mult: 0
  }
  param {
    lr_mult: 0
    decay_mult: 0
  }
  param {
    lr_mult: 0
    decay_mult: 0
  }
  bn_param {
    slope_filler {
      type: "constant"
      value: 1
    }
    bias_filler {
      type: "constant"
      value: 0
    }
    momentum: 0.95
    frozen: true
  }
}
layer {
  name: "conv2_3"
  type: "Eltwise"
  bottom: "conv2_2"
  bottom: "conv2_3_1x1_increase"
  top: "conv2_3"
  eltwise_param {
    operation: SUM
  }
}
layer {
  name: "conv2_3/relu"
  type: "ReLU"
  bottom: "conv2_3"
  top: "conv2_3"
}
layer {
  name: "conv3_1_1x1_reduce"
  type: "Convolution"
  bottom: "conv2_3"
  top: "conv3_1_1x1_reduce"
  param {
    lr_mult: 1
    decay_mult: 1
  }
  convolution_param {
    num_output: 128
    bias_term: false
    pad: 0
    kernel_size: 1
    stride: 1
    weight_filler {
      type: "msra"
    }
  }
}
layer {
  name: "conv3_1_1x1_reduce/bn"
  type: "BN"
  bottom: "conv3_1_1x1_reduce"
  top: "conv3_1_1x1_reduce"
  param {
    lr_mult: 1
    decay_mult: 0
  }
  param {
    lr_mult: 1
    decay_mult: 0
  }
  param {
    lr_mult: 0
    decay_mult: 0
  }
  param {
    lr_mult: 0
    decay_mult: 0
  }
  bn_param {
    slope_filler {
      type: "constant"
      value: 1
    }
    bias_filler {
      type: "constant"
      value: 0
    }
    momentum: 0.95
    frozen: true
  }
}
layer {
  name: "conv3_1_1x1_reduce/relu"
  type: "ReLU"
  bottom: "conv3_1_1x1_reduce"
  top: "conv3_1_1x1_reduce"
}
layer {
  name: "conv3_1_3x3"
  type: "Convolution"
  bottom: "conv3_1_1x1_reduce"
  top: "conv3_1_3x3"
  param {
    lr_mult: 1
    decay_mult: 1
  }
  convolution_param {
    num_output: 128
    bias_term: false
    pad: 1
    kernel_size: 3
    stride: 2
    weight_filler {
      type: "msra"
    }
  }
}
layer {
  name: "conv3_1_3x3/bn"
  type: "BN"
  bottom: "conv3_1_3x3"
  top: "conv3_1_3x3"
  param {
    lr_mult: 1
    decay_mult: 0
  }
  param {
    lr_mult: 1
    decay_mult: 0
  }
  param {
    lr_mult: 0
    decay_mult: 0
  }
  param {
    lr_mult: 0
    decay_mult: 0
  }
  bn_param {
    slope_filler {
      type: "constant"
      value: 1
    }
    bias_filler {
      type: "constant"
      value: 0
    }
    momentum: 0.95
    frozen: true
  }
}
layer {
  name: "conv3_1_3x3/relu"
  type: "ReLU"
  bottom: "conv3_1_3x3"
  top: "conv3_1_3x3"
}
layer {
  name: "conv3_1_1x1_increase"
  type: "Convolution"
  bottom: "conv3_1_3x3"
  top: "conv3_1_1x1_increase"
  param {
    lr_mult: 1
    decay_mult: 1
  }
  convolution_param {
    num_output: 512
    bias_term: false
    pad: 0
    kernel_size: 1
    stride: 1
    weight_filler {
      type: "msra"
    }
  }
}
layer {
  name: "conv3_1_1x1_increase/bn"
  type: "BN"
  bottom: "conv3_1_1x1_increase"
  top: "conv3_1_1x1_increase"
  param {
    lr_mult: 1
    decay_mult: 0
  }
  param {
    lr_mult: 1
    decay_mult: 0
  }
  param {
    lr_mult: 0
    decay_mult: 0
  }
  param {
    lr_mult: 0
    decay_mult: 0
  }
  bn_param {
    slope_filler {
      type: "constant"
      value: 1
    }
    bias_filler {
      type: "constant"
      value: 0
    }
    momentum: 0.95
    frozen: true
  }
}
layer {
  name: "conv3_1_1x1_proj"
  type: "Convolution"
  bottom: "conv2_3"
  top: "conv3_1_1x1_proj"
  param {
    lr_mult: 1
    decay_mult: 1
  }
  convolution_param {
    num_output: 512
    bias_term: false
    pad: 0
    kernel_size: 1
    stride: 2
    weight_filler {
      type: "msra"
    }
  }
}
layer {
  name: "conv3_1_1x1_proj/bn"
  type: "BN"
  bottom: "conv3_1_1x1_proj"
  top: "conv3_1_1x1_proj"
  param {
    lr_mult: 1
    decay_mult: 0
  }
  param {
    lr_mult: 1
    decay_mult: 0
  }
  param {
    lr_mult: 0
    decay_mult: 0
  }
  param {
    lr_mult: 0
    decay_mult: 0
  }
  bn_param {
    slope_filler {
      type: "constant"
      value: 1
    }
    bias_filler {
      type: "constant"
      value: 0
    }
    momentum: 0.95
    frozen: true
  }
}
layer {
  name: "conv3_1"
  type: "Eltwise"
  bottom: "conv3_1_1x1_proj"
  bottom: "conv3_1_1x1_increase"
  top: "conv3_1"
  eltwise_param {
    operation: SUM
  }
}
layer {
  name: "conv3_1/relu"
  type: "ReLU"
  bottom: "conv3_1"
  top: "conv3_1"
}
layer {
  name: "conv3_2_1x1_reduce"
  type: "Convolution"
  bottom: "conv3_1"
  top: "conv3_2_1x1_reduce"
  param {
    lr_mult: 1
    decay_mult: 1
  }
  convolution_param {
    num_output: 128
    bias_term: false
    pad: 0
    kernel_size: 1
    stride: 1
    weight_filler {
      type: "msra"
    }
  }
}
layer {
  name: "conv3_2_1x1_reduce/bn"
  type: "BN"
  bottom: "conv3_2_1x1_reduce"
  top: "conv3_2_1x1_reduce"
  param {
    lr_mult: 1
    decay_mult: 0
  }
  param {
    lr_mult: 1
    decay_mult: 0
  }
  param {
    lr_mult: 0
    decay_mult: 0
  }
  param {
    lr_mult: 0
    decay_mult: 0
  }
  bn_param {
    slope_filler {
      type: "constant"
      value: 1
    }
    bias_filler {
      type: "constant"
      value: 0
    }
    momentum: 0.95
    frozen: true
  }
}
layer {
  name: "conv3_2_1x1_reduce/relu"
  type: "ReLU"
  bottom: "conv3_2_1x1_reduce"
  top: "conv3_2_1x1_reduce"
}
layer {
  name: "conv3_2_3x3"
  type: "Convolution"
  bottom: "conv3_2_1x1_reduce"
  top: "conv3_2_3x3"
  param {
    lr_mult: 1
    decay_mult: 1
  }
  convolution_param {
    num_output: 128
    bias_term: false
    pad: 1
    kernel_size: 3
    stride: 1
    weight_filler {
      type: "msra"
    }
  }
}
layer {
  name: "conv3_2_3x3/bn"
  type: "BN"
  bottom: "conv3_2_3x3"
  top: "conv3_2_3x3"
  param {
    lr_mult: 1
    decay_mult: 0
  }
  param {
    lr_mult: 1
    decay_mult: 0
  }
  param {
    lr_mult: 0
    decay_mult: 0
  }
  param {
    lr_mult: 0
    decay_mult: 0
  }
  bn_param {
    slope_filler {
      type: "constant"
      value: 1
    }
    bias_filler {
      type: "constant"
      value: 0
    }
    momentum: 0.95
    frozen: true
  }
}
layer {
  name: "conv3_2_3x3/relu"
  type: "ReLU"
  bottom: "conv3_2_3x3"
  top: "conv3_2_3x3"
}
layer {
  name: "conv3_2_1x1_increase"
  type: "Convolution"
  bottom: "conv3_2_3x3"
  top: "conv3_2_1x1_increase"
  param {
    lr_mult: 1
    decay_mult: 1
  }
  convolution_param {
    num_output: 512
    bias_term: false
    pad: 0
    kernel_size: 1
    stride: 1
    weight_filler {
      type: "msra"
    }
  }
}
layer {
  name: "conv3_2_1x1_increase/bn"
  type: "BN"
  bottom: "conv3_2_1x1_increase"
  top: "conv3_2_1x1_increase"
  param {
    lr_mult: 1
    decay_mult: 0
  }
  param {
    lr_mult: 1
    decay_mult: 0
  }
  param {
    lr_mult: 0
    decay_mult: 0
  }
  param {
    lr_mult: 0
    decay_mult: 0
  }
  bn_param {
    slope_filler {
      type: "constant"
      value: 1
    }
    bias_filler {
      type: "constant"
      value: 0
    }
    momentum: 0.95
    frozen: true
  }
}
layer {
  name: "conv3_2"
  type: "Eltwise"
  bottom: "conv3_1"
  bottom: "conv3_2_1x1_increase"
  top: "conv3_2"
  eltwise_param {
    operation: SUM
  }
}
layer {
  name: "conv3_2/relu"
  type: "ReLU"
  bottom: "conv3_2"
  top: "conv3_2"
}
layer {
  name: "conv3_3_1x1_reduce"
  type: "Convolution"
  bottom: "conv3_2"
  top: "conv3_3_1x1_reduce"
  param {
    lr_mult: 1
    decay_mult: 1
  }
  convolution_param {
    num_output: 128
    bias_term: false
    pad: 0
    kernel_size: 1
    stride: 1
    weight_filler {
      type: "msra"
    }
  }
}
layer {
  name: "conv3_3_1x1_reduce/bn"
  type: "BN"
  bottom: "conv3_3_1x1_reduce"
  top: "conv3_3_1x1_reduce"
  param {
    lr_mult: 1
    decay_mult: 0
  }
  param {
    lr_mult: 1
    decay_mult: 0
  }
  param {
    lr_mult: 0
    decay_mult: 0
  }
  param {
    lr_mult: 0
    decay_mult: 0
  }
  bn_param {
    slope_filler {
      type: "constant"
      value: 1
    }
    bias_filler {
      type: "constant"
      value: 0
    }
    momentum: 0.95
    frozen: true
  }
}
layer {
  name: "conv3_3_1x1_reduce/relu"
  type: "ReLU"
  bottom: "conv3_3_1x1_reduce"
  top: "conv3_3_1x1_reduce"
}
layer {
  name: "conv3_3_3x3"
  type: "Convolution"
  bottom: "conv3_3_1x1_reduce"
  top: "conv3_3_3x3"
  param {
    lr_mult: 1
    decay_mult: 1
  }
  convolution_param {
    num_output: 128
    bias_term: false
    pad: 1
    kernel_size: 3
    stride: 1
    weight_filler {
      type: "msra"
    }
  }
}
layer {
  name: "conv3_3_3x3/bn"
  type: "BN"
  bottom: "conv3_3_3x3"
  top: "conv3_3_3x3"
  param {
    lr_mult: 1
    decay_mult: 0
  }
  param {
    lr_mult: 1
    decay_mult: 0
  }
  param {
    lr_mult: 0
    decay_mult: 0
  }
  param {
    lr_mult: 0
    decay_mult: 0
  }
  bn_param {
    slope_filler {
      type: "constant"
      value: 1
    }
    bias_filler {
      type: "constant"
      value: 0
    }
    momentum: 0.95
    frozen: true
  }
}
layer {
  name: "conv3_3_3x3/relu"
  type: "ReLU"
  bottom: "conv3_3_3x3"
  top: "conv3_3_3x3"
}
layer {
  name: "conv3_3_1x1_increase"
  type: "Convolution"
  bottom: "conv3_3_3x3"
  top: "conv3_3_1x1_increase"
  param {
    lr_mult: 1
    decay_mult: 1
  }
  convolution_param {
    num_output: 512
    bias_term: false
    pad: 0
    kernel_size: 1
    stride: 1
    weight_filler {
      type: "msra"
    }
  }
}
layer {
  name: "conv3_3_1x1_increase/bn"
  type: "BN"
  bottom: "conv3_3_1x1_increase"
  top: "conv3_3_1x1_increase"
  param {
    lr_mult: 1
    decay_mult: 0
  }
  param {
    lr_mult: 1
    decay_mult: 0
  }
  param {
    lr_mult: 0
    decay_mult: 0
  }
  param {
    lr_mult: 0
    decay_mult: 0
  }
  bn_param {
    slope_filler {
      type: "constant"
      value: 1
    }
    bias_filler {
      type: "constant"
      value: 0
    }
    momentum: 0.95
    frozen: true
  }
}
layer {
  name: "conv3_3"
  type: "Eltwise"
  bottom: "conv3_2"
  bottom: "conv3_3_1x1_increase"
  top: "conv3_3"
  eltwise_param {
    operation: SUM
  }
}
layer {
  name: "conv3_3/relu"
  type: "ReLU"
  bottom: "conv3_3"
  top: "conv3_3"
}
layer {
  name: "conv3_4_1x1_reduce"
  type: "Convolution"
  bottom: "conv3_3"
  top: "conv3_4_1x1_reduce"
  param {
    lr_mult: 1
    decay_mult: 1
  }
  convolution_param {
    num_output: 128
    bias_term: false
    pad: 0
    kernel_size: 1
    stride: 1
    weight_filler {
      type: "msra"
    }
  }
}
layer {
  name: "conv3_4_1x1_reduce/bn"
  type: "BN"
  bottom: "conv3_4_1x1_reduce"
  top: "conv3_4_1x1_reduce"
  param {
    lr_mult: 1
    decay_mult: 0
  }
  param {
    lr_mult: 1
    decay_mult: 0
  }
  param {
    lr_mult: 0
    decay_mult: 0
  }
  param {
    lr_mult: 0
    decay_mult: 0
  }
  bn_param {
    slope_filler {
      type: "constant"
      value: 1
    }
    bias_filler {
      type: "constant"
      value: 0
    }
    momentum: 0.95
    frozen: true
  }
}
layer {
  name: "conv3_4_1x1_reduce/relu"
  type: "ReLU"
  bottom: "conv3_4_1x1_reduce"
  top: "conv3_4_1x1_reduce"
}
layer {
  name: "conv3_4_3x3"
  type: "Convolution"
  bottom: "conv3_4_1x1_reduce"
  top: "conv3_4_3x3"
  param {
    lr_mult: 1
    decay_mult: 1
  }
  convolution_param {
    num_output: 128
    bias_term: false
    pad: 1
    kernel_size: 3
    stride: 1
    weight_filler {
      type: "msra"
    }
  }
}
layer {
  name: "conv3_4_3x3/bn"
  type: "BN"
  bottom: "conv3_4_3x3"
  top: "conv3_4_3x3"
  param {
    lr_mult: 1
    decay_mult: 0
  }
  param {
    lr_mult: 1
    decay_mult: 0
  }
  param {
    lr_mult: 0
    decay_mult: 0
  }
  param {
    lr_mult: 0
    decay_mult: 0
  }
  bn_param {
    slope_filler {
      type: "constant"
      value: 1
    }
    bias_filler {
      type: "constant"
      value: 0
    }
    momentum: 0.95
    frozen: true
  }
}
layer {
  name: "conv3_4_3x3/relu"
  type: "ReLU"
  bottom: "conv3_4_3x3"
  top: "conv3_4_3x3"
}
layer {
  name: "conv3_4_1x1_increase"
  type: "Convolution"
  bottom: "conv3_4_3x3"
  top: "conv3_4_1x1_increase"
  param {
    lr_mult: 1
    decay_mult: 1
  }
  convolution_param {
    num_output: 512
    bias_term: false
    pad: 0
    kernel_size: 1
    stride: 1
    weight_filler {
      type: "msra"
    }
  }
}
layer {
  name: "conv3_4_1x1_increase/bn"
  type: "BN"
  bottom: "conv3_4_1x1_increase"
  top: "conv3_4_1x1_increase"
  param {
    lr_mult: 1
    decay_mult: 0
  }
  param {
    lr_mult: 1
    decay_mult: 0
  }
  param {
    lr_mult: 0
    decay_mult: 0
  }
  param {
    lr_mult: 0
    decay_mult: 0
  }
  bn_param {
    slope_filler {
      type: "constant"
      value: 1
    }
    bias_filler {
      type: "constant"
      value: 0
    }
    momentum: 0.95
    frozen: true
  }
}
layer {
  name: "conv3_4"
  type: "Eltwise"
  bottom: "conv3_3"
  bottom: "conv3_4_1x1_increase"
  top: "conv3_4"
  eltwise_param {
    operation: SUM
  }
}
layer {
  name: "conv3_4/relu"
  type: "ReLU"
  bottom: "conv3_4"
  top: "conv3_4"
}
layer {
  name: "conv4_1_1x1_reduce"
  type: "Convolution"
  bottom: "conv3_4"
  top: "conv4_1_1x1_reduce"
  param {
    lr_mult: 1
    decay_mult: 1
  }
  convolution_param {
    num_output: 256
    bias_term: false
    pad: 0
    kernel_size: 1
    stride: 1
    weight_filler {
      type: "msra"
    }
  }
}
layer {
  name: "conv4_1_1x1_reduce/bn"
  type: "BN"
  bottom: "conv4_1_1x1_reduce"
  top: "conv4_1_1x1_reduce"
  param {
    lr_mult: 1
    decay_mult: 0
  }
  param {
    lr_mult: 1
    decay_mult: 0
  }
  param {
    lr_mult: 0
    decay_mult: 0
  }
  param {
    lr_mult: 0
    decay_mult: 0
  }
  bn_param {
    slope_filler {
      type: "constant"
      value: 1
    }
    bias_filler {
      type: "constant"
      value: 0
    }
    momentum: 0.95
    frozen: true
  }
}
layer {
  name: "conv4_1_1x1_reduce/relu"
  type: "ReLU"
  bottom: "conv4_1_1x1_reduce"
  top: "conv4_1_1x1_reduce"
}
layer {
  name: "conv4_1_3x3"
  type: "Convolution"
  bottom: "conv4_1_1x1_reduce"
  top: "conv4_1_3x3"
  param {
    lr_mult: 1
    decay_mult: 1
  }
  convolution_param {
    num_output: 256
    bias_term: false
    pad: 2
    kernel_size: 3
    stride: 1
    weight_filler {
      type: "msra"
    }
    dilation: 2
  }
}
layer {
  name: "conv4_1_3x3/bn"
  type: "BN"
  bottom: "conv4_1_3x3"
  top: "conv4_1_3x3"
  param {
    lr_mult: 1
    decay_mult: 0
  }
  param {
    lr_mult: 1
    decay_mult: 0
  }
  param {
    lr_mult: 0
    decay_mult: 0
  }
  param {
    lr_mult: 0
    decay_mult: 0
  }
  bn_param {
    slope_filler {
      type: "constant"
      value: 1
    }
    bias_filler {
      type: "constant"
      value: 0
    }
    momentum: 0.95
    frozen: true
  }
}
layer {
  name: "conv4_1_3x3/relu"
  type: "ReLU"
  bottom: "conv4_1_3x3"
  top: "conv4_1_3x3"
}
layer {
  name: "conv4_1_1x1_increase"
  type: "Convolution"
  bottom: "conv4_1_3x3"
  top: "conv4_1_1x1_increase"
  param {
    lr_mult: 1
    decay_mult: 1
  }
  convolution_param {
    num_output: 1024
    bias_term: false
    pad: 0
    kernel_size: 1
    stride: 1
    weight_filler {
      type: "msra"
    }
  }
}
layer {
  name: "conv4_1_1x1_increase/bn"
  type: "BN"
  bottom: "conv4_1_1x1_increase"
  top: "conv4_1_1x1_increase"
  param {
    lr_mult: 1
    decay_mult: 0
  }
  param {
    lr_mult: 1
    decay_mult: 0
  }
  param {
    lr_mult: 0
    decay_mult: 0
  }
  param {
    lr_mult: 0
    decay_mult: 0
  }
  bn_param {
    slope_filler {
      type: "constant"
      value: 1
    }
    bias_filler {
      type: "constant"
      value: 0
    }
    momentum: 0.95
    frozen: true
  }
}
layer {
  name: "conv4_1_1x1_proj"
  type: "Convolution"
  bottom: "conv3_4"
  top: "conv4_1_1x1_proj"
  param {
    lr_mult: 1
    decay_mult: 1
  }
  convolution_param {
    num_output: 1024
    bias_term: false
    pad: 0
    kernel_size: 1
    stride: 1
    weight_filler {
      type: "msra"
    }
  }
}
layer {
  name: "conv4_1_1x1_proj/bn"
  type: "BN"
  bottom: "conv4_1_1x1_proj"
  top: "conv4_1_1x1_proj"
  param {
    lr_mult: 1
    decay_mult: 0
  }
  param {
    lr_mult: 1
    decay_mult: 0
  }
  param {
    lr_mult: 0
    decay_mult: 0
  }
  param {
    lr_mult: 0
    decay_mult: 0
  }
  bn_param {
    slope_filler {
      type: "constant"
      value: 1
    }
    bias_filler {
      type: "constant"
      value: 0
    }
    momentum: 0.95
    frozen: true
  }
}
layer {
  name: "conv4_1"
  type: "Eltwise"
  bottom: "conv4_1_1x1_proj"
  bottom: "conv4_1_1x1_increase"
  top: "conv4_1"
  eltwise_param {
    operation: SUM
  }
}
layer {
  name: "conv4_1/relu"
  type: "ReLU"
  bottom: "conv4_1"
  top: "conv4_1"
}
layer {
  name: "conv4_2_1x1_reduce"
  type: "Convolution"
  bottom: "conv4_1"
  top: "conv4_2_1x1_reduce"
  param {
    lr_mult: 1
    decay_mult: 1
  }
  convolution_param {
    num_output: 256
    bias_term: false
    pad: 0
    kernel_size: 1
    stride: 1
    weight_filler {
      type: "msra"
    }
  }
}
layer {
  name: "conv4_2_1x1_reduce/bn"
  type: "BN"
  bottom: "conv4_2_1x1_reduce"
  top: "conv4_2_1x1_reduce"
  param {
    lr_mult: 1
    decay_mult: 0
  }
  param {
    lr_mult: 1
    decay_mult: 0
  }
  param {
    lr_mult: 0
    decay_mult: 0
  }
  param {
    lr_mult: 0
    decay_mult: 0
  }
  bn_param {
    slope_filler {
      type: "constant"
      value: 1
    }
    bias_filler {
      type: "constant"
      value: 0
    }
    momentum: 0.95
    frozen: true
  }
}
layer {
  name: "conv4_2_1x1_reduce/relu"
  type: "ReLU"
  bottom: "conv4_2_1x1_reduce"
  top: "conv4_2_1x1_reduce"
}
layer {
  name: "conv4_2_3x3"
  type: "Convolution"
  bottom: "conv4_2_1x1_reduce"
  top: "conv4_2_3x3"
  param {
    lr_mult: 1
    decay_mult: 1
  }
  convolution_param {
    num_output: 256
    bias_term: false
    pad: 2
    kernel_size: 3
    stride: 1
    weight_filler {
      type: "msra"
    }
    dilation: 2
  }
}
layer {
  name: "conv4_2_3x3/bn"
  type: "BN"
  bottom: "conv4_2_3x3"
  top: "conv4_2_3x3"
  param {
    lr_mult: 1
    decay_mult: 0
  }
  param {
    lr_mult: 1
    decay_mult: 0
  }
  param {
    lr_mult: 0
    decay_mult: 0
  }
  param {
    lr_mult: 0
    decay_mult: 0
  }
  bn_param {
    slope_filler {
      type: "constant"
      value: 1
    }
    bias_filler {
      type: "constant"
      value: 0
    }
    momentum: 0.95
    frozen: true
  }
}
layer {
  name: "conv4_2_
I0621 15:52:28.905493 11078 layer_factory.hpp:77] Creating layer data
I0621 15:52:28.906133 11078 net.cpp:106] Creating Layer data
I0621 15:52:28.906141 11078 net.cpp:411] data -> data
I0621 15:52:28.906162 11078 net.cpp:411] data -> label
I0621 15:52:28.906169 11078 net.cpp:411] data -> (automatic)
I0621 15:52:28.906976 11078 image_seg_data_layer.cpp:46] Opening file exper/voc12/list/train_aug.txt
I0621 15:52:28.913954 11078 image_seg_data_layer.cpp:63] Shuffling data
I0621 15:52:28.915313 11078 image_seg_data_layer.cpp:68] A total of 10582 images.
I0621 15:52:28.963397 11078 image_seg_data_layer.cpp:137] output data size: 2,3,473,473
I0621 15:52:28.963420 11078 image_seg_data_layer.cpp:141] output label size: 2,1,473,473
I0621 15:52:28.963423 11078 image_seg_data_layer.cpp:145] output data_dim size: 2,1,1,2
I0621 15:52:29.001730 11078 net.cpp:150] Setting up data
I0621 15:52:29.001754 11078 net.cpp:157] Top shape: 2 3 473 473 (1342374)
I0621 15:52:29.001760 11078 net.cpp:157] Top shape: 2 1 473 473 (447458)
I0621 15:52:29.001765 11078 net.cpp:157] Top shape: 2 1 1 2 (4)
I0621 15:52:29.001770 11078 net.cpp:165] Memory required for data: 7159344
I0621 15:52:29.001778 11078 layer_factory.hpp:77] Creating layer conv1_1_3x3_s2
I0621 15:52:29.001814 11078 net.cpp:106] Creating Layer conv1_1_3x3_s2
I0621 15:52:29.001821 11078 net.cpp:454] conv1_1_3x3_s2 <- data
I0621 15:52:29.001832 11078 net.cpp:411] conv1_1_3x3_s2 -> conv1_1_3x3_s2
I0621 15:52:29.006124 11078 net.cpp:150] Setting up conv1_1_3x3_s2
I0621 15:52:29.006152 11078 net.cpp:157] Top shape: 2 64 237 237 (7189632)
I0621 15:52:29.006156 11078 net.cpp:165] Memory required for data: 35917872
I0621 15:52:29.006170 11078 layer_factory.hpp:77] Creating layer conv1_1_3x3_s2/bn
I0621 15:52:29.006181 11078 net.cpp:106] Creating Layer conv1_1_3x3_s2/bn
I0621 15:52:29.006183 11078 net.cpp:454] conv1_1_3x3_s2/bn <- conv1_1_3x3_s2
I0621 15:52:29.006189 11078 net.cpp:397] conv1_1_3x3_s2/bn -> conv1_1_3x3_s2 (in-place)
I0621 15:52:29.007005 11078 net.cpp:150] Setting up conv1_1_3x3_s2/bn
I0621 15:52:29.007014 11078 net.cpp:157] Top shape: 2 64 237 237 (7189632)
I0621 15:52:29.007017 11078 net.cpp:165] Memory required for data: 64676400
I0621 15:52:29.007047 11078 layer_factory.hpp:77] Creating layer conv1_1_3x3_s2/relu
I0621 15:52:29.007053 11078 net.cpp:106] Creating Layer conv1_1_3x3_s2/relu
I0621 15:52:29.007056 11078 net.cpp:454] conv1_1_3x3_s2/relu <- conv1_1_3x3_s2
I0621 15:52:29.007061 11078 net.cpp:397] conv1_1_3x3_s2/relu -> conv1_1_3x3_s2 (in-place)
I0621 15:52:29.007455 11078 net.cpp:150] Setting up conv1_1_3x3_s2/relu
I0621 15:52:29.007460 11078 net.cpp:157] Top shape: 2 64 237 237 (7189632)
I0621 15:52:29.007463 11078 net.cpp:165] Memory required for data: 93434928
I0621 15:52:29.007467 11078 layer_factory.hpp:77] Creating layer conv1_2_3x3
I0621 15:52:29.007475 11078 net.cpp:106] Creating Layer conv1_2_3x3
I0621 15:52:29.007478 11078 net.cpp:454] conv1_2_3x3 <- conv1_1_3x3_s2
I0621 15:52:29.007484 11078 net.cpp:411] conv1_2_3x3 -> conv1_2_3x3
I0621 15:52:29.008426 11078 net.cpp:150] Setting up conv1_2_3x3
I0621 15:52:29.008436 11078 net.cpp:157] Top shape: 2 64 237 237 (7189632)
I0621 15:52:29.008441 11078 net.cpp:165] Memory required for data: 122193456
I0621 15:52:29.008457 11078 layer_factory.hpp:77] Creating layer conv1_2_3x3/bn
I0621 15:52:29.008469 11078 net.cpp:106] Creating Layer conv1_2_3x3/bn
I0621 15:52:29.008473 11078 net.cpp:454] conv1_2_3x3/bn <- conv1_2_3x3
I0621 15:52:29.008488 11078 net.cpp:397] conv1_2_3x3/bn -> conv1_2_3x3 (in-place)
I0621 15:52:29.008646 11078 net.cpp:150] Setting up conv1_2_3x3/bn
I0621 15:52:29.008658 11078 net.cpp:157] Top shape: 2 64 237 237 (7189632)
I0621 15:52:29.008664 11078 net.cpp:165] Memory required for data: 150951984
I0621 15:52:29.008675 11078 layer_factory.hpp:77] Creating layer conv1_2_3x3/relu
I0621 15:52:29.008682 11078 net.cpp:106] Creating Layer conv1_2_3x3/relu
I0621 15:52:29.008685 11078 net.cpp:454] conv1_2_3x3/relu <- conv1_2_3x3
I0621 15:52:29.008690 11078 net.cpp:397] conv1_2_3x3/relu -> conv1_2_3x3 (in-place)
I0621 15:52:29.008697 11078 net.cpp:150] Setting up conv1_2_3x3/relu
I0621 15:52:29.008702 11078 net.cpp:157] Top shape: 2 64 237 237 (7189632)
I0621 15:52:29.008704 11078 net.cpp:165] Memory required for data: 179710512
I0621 15:52:29.008708 11078 layer_factory.hpp:77] Creating layer conv1_3_3x3
I0621 15:52:29.008718 11078 net.cpp:106] Creating Layer conv1_3_3x3
I0621 15:52:29.008720 11078 net.cpp:454] conv1_3_3x3 <- conv1_2_3x3
I0621 15:52:29.008725 11078 net.cpp:411] conv1_3_3x3 -> conv1_3_3x3
I0621 15:52:29.010504 11078 net.cpp:150] Setting up conv1_3_3x3
I0621 15:52:29.010519 11078 net.cpp:157] Top shape: 2 128 237 237 (14379264)
I0621 15:52:29.010522 11078 net.cpp:165] Memory required for data: 237227568
I0621 15:52:29.010532 11078 layer_factory.hpp:77] Creating layer conv1_3_3x3/bn
I0621 15:52:29.010545 11078 net.cpp:106] Creating Layer conv1_3_3x3/bn
I0621 15:52:29.010548 11078 net.cpp:454] conv1_3_3x3/bn <- conv1_3_3x3
I0621 15:52:29.010553 11078 net.cpp:397] conv1_3_3x3/bn -> conv1_3_3x3 (in-place)
I0621 15:52:29.010723 11078 net.cpp:150] Setting up conv1_3_3x3/bn
I0621 15:52:29.010727 11078 net.cpp:157] Top shape: 2 128 237 237 (14379264)
I0621 15:52:29.010730 11078 net.cpp:165] Memory required for data: 294744624
I0621 15:52:29.010736 11078 layer_factory.hpp:77] Creating layer conv1_3_3x3/relu
I0621 15:52:29.010741 11078 net.cpp:106] Creating Layer conv1_3_3x3/relu
I0621 15:52:29.010743 11078 net.cpp:454] conv1_3_3x3/relu <- conv1_3_3x3
I0621 15:52:29.010747 11078 net.cpp:397] conv1_3_3x3/relu -> conv1_3_3x3 (in-place)
I0621 15:52:29.010751 11078 net.cpp:150] Setting up conv1_3_3x3/relu
I0621 15:52:29.010754 11078 net.cpp:157] Top shape: 2 128 237 237 (14379264)
I0621 15:52:29.010756 11078 net.cpp:165] Memory required for data: 352261680
I0621 15:52:29.010759 11078 layer_factory.hpp:77] Creating layer pool1_3x3_s2
I0621 15:52:29.010764 11078 net.cpp:106] Creating Layer pool1_3x3_s2
I0621 15:52:29.010767 11078 net.cpp:454] pool1_3x3_s2 <- conv1_3_3x3
I0621 15:52:29.010772 11078 net.cpp:411] pool1_3x3_s2 -> pool1_3x3_s2
I0621 15:52:29.010819 11078 net.cpp:150] Setting up pool1_3x3_s2
I0621 15:52:29.010823 11078 net.cpp:157] Top shape: 2 128 119 119 (3625216)
I0621 15:52:29.010841 11078 net.cpp:165] Memory required for data: 366762544
I0621 15:52:29.010844 11078 layer_factory.hpp:77] Creating layer pool1_3x3_s2_pool1_3x3_s2_0_split
I0621 15:52:29.011044 11078 net.cpp:106] Creating Layer pool1_3x3_s2_pool1_3x3_s2_0_split
I0621 15:52:29.011049 11078 net.cpp:454] pool1_3x3_s2_pool1_3x3_s2_0_split <- pool1_3x3_s2
I0621 15:52:29.011052 11078 net.cpp:411] pool1_3x3_s2_pool1_3x3_s2_0_split -> pool1_3x3_s2_pool1_3x3_s2_0_split_0
I0621 15:52:29.011057 11078 net.cpp:411] pool1_3x3_s2_pool1_3x3_s2_0_split -> pool1_3x3_s2_pool1_3x3_s2_0_split_1
I0621 15:52:29.011083 11078 net.cpp:150] Setting up pool1_3x3_s2_pool1_3x3_s2_0_split
I0621 15:52:29.011088 11078 net.cpp:157] Top shape: 2 128 119 119 (3625216)
I0621 15:52:29.011092 11078 net.cpp:157] Top shape: 2 128 119 119 (3625216)
I0621 15:52:29.011095 11078 net.cpp:165] Memory required for data: 395764272
I0621 15:52:29.011097 11078 layer_factory.hpp:77] Creating layer conv2_1_1x1_reduce
I0621 15:52:29.011103 11078 net.cpp:106] Creating Layer conv2_1_1x1_reduce
I0621 15:52:29.011106 11078 net.cpp:454] conv2_1_1x1_reduce <- pool1_3x3_s2_pool1_3x3_s2_0_split_0
I0621 15:52:29.011111 11078 net.cpp:411] conv2_1_1x1_reduce -> conv2_1_1x1_reduce
I0621 15:52:29.012459 11078 net.cpp:150] Setting up conv2_1_1x1_reduce
I0621 15:52:29.012477 11078 net.cpp:157] Top shape: 2 64 119 119 (1812608)
I0621 15:52:29.012480 11078 net.cpp:165] Memory required for data: 403014704
I0621 15:52:29.012490 11078 layer_factory.hpp:77] Creating layer conv2_1_1x1_reduce/bn
I0621 15:52:29.012502 11078 net.cpp:106] Creating Layer conv2_1_1x1_reduce/bn
I0621 15:52:29.012507 11078 net.cpp:454] conv2_1_1x1_reduce/bn <- conv2_1_1x1_reduce
I0621 15:52:29.012516 11078 net.cpp:397] conv2_1_1x1_reduce/bn -> conv2_1_1x1_reduce (in-place)
I0621 15:52:29.012665 11078 net.cpp:150] Setting up conv2_1_1x1_reduce/bn
I0621 15:52:29.012670 11078 net.cpp:157] Top shape: 2 64 119 119 (1812608)
I0621 15:52:29.012673 11078 net.cpp:165] Memory required for data: 410265136
I0621 15:52:29.012689 11078 layer_factory.hpp:77] Creating layer conv2_1_1x1_reduce/relu
I0621 15:52:29.012701 11078 net.cpp:106] Creating Layer conv2_1_1x1_reduce/relu
I0621 15:52:29.012703 11078 net.cpp:454] conv2_1_1x1_reduce/relu <- conv2_1_1x1_reduce
I0621 15:52:29.012707 11078 net.cpp:397] conv2_1_1x1_reduce/relu -> conv2_1_1x1_reduce (in-place)
I0621 15:52:29.012717 11078 net.cpp:150] Setting up conv2_1_1x1_reduce/relu
I0621 15:52:29.012719 11078 net.cpp:157] Top shape: 2 64 119 119 (1812608)
I0621 15:52:29.012722 11078 net.cpp:165] Memory required for data: 417515568
I0621 15:52:29.012725 11078 layer_factory.hpp:77] Creating layer conv2_1_3x3
I0621 15:52:29.012735 11078 net.cpp:106] Creating Layer conv2_1_3x3
I0621 15:52:29.012738 11078 net.cpp:454] conv2_1_3x3 <- conv2_1_1x1_reduce
I0621 15:52:29.012744 11078 net.cpp:411] conv2_1_3x3 -> conv2_1_3x3
I0621 15:52:29.013782 11078 net.cpp:150] Setting up conv2_1_3x3
I0621 15:52:29.013792 11078 net.cpp:157] Top shape: 2 64 119 119 (1812608)
I0621 15:52:29.013795 11078 net.cpp:165] Memory required for data: 424766000
I0621 15:52:29.013804 11078 layer_factory.hpp:77] Creating layer conv2_1_3x3/bn
I0621 15:52:29.013823 11078 net.cpp:106] Creating Layer conv2_1_3x3/bn
I0621 15:52:29.013828 11078 net.cpp:454] conv2_1_3x3/bn <- conv2_1_3x3
I0621 15:52:29.013834 11078 net.cpp:397] conv2_1_3x3/bn -> conv2_1_3x3 (in-place)
I0621 15:52:29.013999 11078 net.cpp:150] Setting up conv2_1_3x3/bn
I0621 15:52:29.014005 11078 net.cpp:157] Top shape: 2 64 119 119 (1812608)
I0621 15:52:29.014010 11078 net.cpp:165] Memory required for data: 432016432
I0621 15:52:29.014019 11078 layer_factory.hpp:77] Creating layer conv2_1_3x3/relu
I0621 15:52:29.014024 11078 net.cpp:106] Creating Layer conv2_1_3x3/relu
I0621 15:52:29.014029 11078 net.cpp:454] conv2_1_3x3/relu <- conv2_1_3x3
I0621 15:52:29.014034 11078 net.cpp:397] conv2_1_3x3/relu -> conv2_1_3x3 (in-place)
I0621 15:52:29.014039 11078 net.cpp:150] Setting up conv2_1_3x3/relu
I0621 15:52:29.014042 11078 net.cpp:157] Top shape: 2 64 119 119 (1812608)
I0621 15:52:29.014076 11078 net.cpp:165] Memory required for data: 439266864
I0621 15:52:29.014081 11078 layer_factory.hpp:77] Creating layer conv2_1_1x1_increase
I0621 15:52:29.014088 11078 net.cpp:106] Creating Layer conv2_1_1x1_increase
I0621 15:52:29.014092 11078 net.cpp:454] conv2_1_1x1_increase <- conv2_1_3x3
I0621 15:52:29.014098 11078 net.cpp:411] conv2_1_1x1_increase -> conv2_1_1x1_increase
I0621 15:52:29.014578 11078 net.cpp:150] Setting up conv2_1_1x1_increase
I0621 15:52:29.014585 11078 net.cpp:157] Top shape: 2 256 119 119 (7250432)
I0621 15:52:29.014588 11078 net.cpp:165] Memory required for data: 468268592
I0621 15:52:29.014595 11078 layer_factory.hpp:77] Creating layer conv2_1_1x1_increase/bn
I0621 15:52:29.014602 11078 net.cpp:106] Creating Layer conv2_1_1x1_increase/bn
I0621 15:52:29.014606 11078 net.cpp:454] conv2_1_1x1_increase/bn <- conv2_1_1x1_increase
I0621 15:52:29.014612 11078 net.cpp:397] conv2_1_1x1_increase/bn -> conv2_1_1x1_increase (in-place)
I0621 15:52:29.014741 11078 net.cpp:150] Setting up conv2_1_1x1_increase/bn
I0621 15:52:29.014746 11078 net.cpp:157] Top shape: 2 256 119 119 (7250432)
I0621 15:52:29.014750 11078 net.cpp:165] Memory required for data: 497270320
I0621 15:52:29.014760 11078 layer_factory.hpp:77] Creating layer conv2_1_1x1_proj
I0621 15:52:29.014770 11078 net.cpp:106] Creating Layer conv2_1_1x1_proj
I0621 15:52:29.014773 11078 net.cpp:454] conv2_1_1x1_proj <- pool1_3x3_s2_pool1_3x3_s2_0_split_1
I0621 15:52:29.014783 11078 net.cpp:411] conv2_1_1x1_proj -> conv2_1_1x1_proj
I0621 15:52:29.015588 11078 net.cpp:150] Setting up conv2_1_1x1_proj
I0621 15:52:29.015595 11078 net.cpp:157] Top shape: 2 256 119 119 (7250432)
I0621 15:52:29.015599 11078 net.cpp:165] Memory required for data: 526272048
I0621 15:52:29.015604 11078 layer_factory.hpp:77] Creating layer conv2_1_1x1_proj/bn
I0621 15:52:29.015610 11078 net.cpp:106] Creating Layer conv2_1_1x1_proj/bn
I0621 15:52:29.015614 11078 net.cpp:454] conv2_1_1x1_proj/bn <- conv2_1_1x1_proj
I0621 15:52:29.015619 11078 net.cpp:397] conv2_1_1x1_proj/bn -> conv2_1_1x1_proj (in-place)
I0621 15:52:29.015743 11078 net.cpp:150] Setting up conv2_1_1x1_proj/bn
I0621 15:52:29.015748 11078 net.cpp:157] Top shape: 2 256 119 119 (7250432)
I0621 15:52:29.015753 11078 net.cpp:165] Memory required for data: 555273776
I0621 15:52:29.015766 11078 layer_factory.hpp:77] Creating layer conv2_1
I0621 15:52:29.016456 11078 net.cpp:106] Creating Layer conv2_1
I0621 15:52:29.016464 11078 net.cpp:454] conv2_1 <- conv2_1_1x1_proj
I0621 15:52:29.016470 11078 net.cpp:454] conv2_1 <- conv2_1_1x1_increase
I0621 15:52:29.016475 11078 net.cpp:411] conv2_1 -> conv2_1
I0621 15:52:29.017391 11078 net.cpp:150] Setting up conv2_1
I0621 15:52:29.017400 11078 net.cpp:157] Top shape: 2 256 119 119 (7250432)
I0621 15:52:29.017405 11078 net.cpp:165] Memory required for data: 584275504
I0621 15:52:29.017408 11078 layer_factory.hpp:77] Creating layer conv2_1/relu
I0621 15:52:29.017415 11078 net.cpp:106] Creating Layer conv2_1/relu
I0621 15:52:29.017418 11078 net.cpp:454] conv2_1/relu <- conv2_1
I0621 15:52:29.017423 11078 net.cpp:397] conv2_1/relu -> conv2_1 (in-place)
I0621 15:52:29.017429 11078 net.cpp:150] Setting up conv2_1/relu
I0621 15:52:29.017433 11078 net.cpp:157] Top shape: 2 256 119 119 (7250432)
I0621 15:52:29.017436 11078 net.cpp:165] Memory required for data: 613277232
I0621 15:52:29.017441 11078 layer_factory.hpp:77] Creating layer conv2_1_conv2_1/relu_0_split
I0621 15:52:29.017448 11078 net.cpp:106] Creating Layer conv2_1_conv2_1/relu_0_split
I0621 15:52:29.017452 11078 net.cpp:454] conv2_1_conv2_1/relu_0_split <- conv2_1
I0621 15:52:29.017457 11078 net.cpp:411] conv2_1_conv2_1/relu_0_split -> conv2_1_conv2_1/relu_0_split_0
I0621 15:52:29.017462 11078 net.cpp:411] conv2_1_conv2_1/relu_0_split -> conv2_1_conv2_1/relu_0_split_1
I0621 15:52:29.017482 11078 net.cpp:150] Setting up conv2_1_conv2_1/relu_0_split
I0621 15:52:29.017488 11078 net.cpp:157] Top shape: 2 256 119 119 (7250432)
I0621 15:52:29.017493 11078 net.cpp:157] Top shape: 2 256 119 119 (7250432)
I0621 15:52:29.017505 11078 net.cpp:165] Memory required for data: 671280688
I0621 15:52:29.017509 11078 layer_factory.hpp:77] Creating layer conv2_2_1x1_reduce
I0621 15:52:29.017516 11078 net.cpp:106] Creating Layer conv2_2_1x1_reduce
I0621 15:52:29.017520 11078 net.cpp:454] conv2_2_1x1_reduce <- conv2_1_conv2_1/relu_0_split_0
I0621 15:52:29.017525 11078 net.cpp:411] conv2_2_1x1_reduce -> conv2_2_1x1_reduce
I0621 15:52:29.018024 11078 net.cpp:150] Setting up conv2_2_1x1_reduce
I0621 15:52:29.018036 11078 net.cpp:157] Top shape: 2 64 119 119 (1812608)
I0621 15:52:29.018045 11078 net.cpp:165] Memory required for data: 678531120
I0621 15:52:29.018050 11078 layer_factory.hpp:77] Creating layer conv2_2_1x1_reduce/bn
I0621 15:52:29.018059 11078 net.cpp:106] Creating Layer conv2_2_1x1_reduce/bn
I0621 15:52:29.018064 11078 net.cpp:454] conv2_2_1x1_reduce/bn <- conv2_2_1x1_reduce
I0621 15:52:29.018069 11078 net.cpp:397] conv2_2_1x1_reduce/bn -> conv2_2_1x1_reduce (in-place)
I0621 15:52:29.018193 11078 net.cpp:150] Setting up conv2_2_1x1_reduce/bn
I0621 15:52:29.018198 11078 net.cpp:157] Top shape: 2 64 119 119 (1812608)
I0621 15:52:29.018201 11078 net.cpp:165] Memory required for data: 685781552
I0621 15:52:29.018208 11078 layer_factory.hpp:77] Creating layer conv2_2_1x1_reduce/relu
I0621 15:52:29.018213 11078 net.cpp:106] Creating Layer conv2_2_1x1_reduce/relu
I0621 15:52:29.018216 11078 net.cpp:454] conv2_2_1x1_reduce/relu <- conv2_2_1x1_reduce
I0621 15:52:29.018221 11078 net.cpp:397] conv2_2_1x1_reduce/relu -> conv2_2_1x1_reduce (in-place)
I0621 15:52:29.018226 11078 net.cpp:150] Setting up conv2_2_1x1_reduce/relu
I0621 15:52:29.018230 11078 net.cpp:157] Top shape: 2 64 119 119 (1812608)
I0621 15:52:29.018234 11078 net.cpp:165] Memory required for data: 693031984
I0621 15:52:29.018239 11078 layer_factory.hpp:77] Creating layer conv2_2_3x3
I0621 15:52:29.018246 11078 net.cpp:106] Creating Layer conv2_2_3x3
I0621 15:52:29.018250 11078 net.cpp:454] conv2_2_3x3 <- conv2_2_1x1_reduce
I0621 15:52:29.018255 11078 net.cpp:411] conv2_2_3x3 -> conv2_2_3x3
I0621 15:52:29.019148 11078 net.cpp:150] Setting up conv2_2_3x3
I0621 15:52:29.019155 11078 net.cpp:157] Top shape: 2 64 119 119 (1812608)
I0621 15:52:29.019158 11078 net.cpp:165] Memory required for data: 700282416
I0621 15:52:29.019165 11078 layer_factory.hpp:77] Creating layer conv2_2_3x3/bn
I0621 15:52:29.019171 11078 net.cpp:106] Creating Layer conv2_2_3x3/bn
I0621 15:52:29.019176 11078 net.cpp:454] conv2_2_3x3/bn <- conv2_2_3x3
I0621 15:52:29.019181 11078 net.cpp:397] conv2_2_3x3/bn -> conv2_2_3x3 (in-place)
I0621 15:52:29.019314 11078 net.cpp:150] Setting up conv2_2_3x3/bn
I0621 15:52:29.019320 11078 net.cpp:157] Top shape: 2 64 119 119 (1812608)
I0621 15:52:29.019322 11078 net.cpp:165] Memory required for data: 707532848
I0621 15:52:29.019330 11078 layer_factory.hpp:77] Creating layer conv2_2_3x3/relu
I0621 15:52:29.019335 11078 net.cpp:106] Creating Layer conv2_2_3x3/relu
I0621 15:52:29.019338 11078 net.cpp:454] conv2_2_3x3/relu <- conv2_2_3x3
I0621 15:52:29.019342 11078 net.cpp:397] conv2_2_3x3/relu -> conv2_2_3x3 (in-place)
I0621 15:52:29.019348 11078 net.cpp:150] Setting up conv2_2_3x3/relu
I0621 15:52:29.019353 11078 net.cpp:157] Top shape: 2 64 119 119 (1812608)
I0621 15:52:29.019356 11078 net.cpp:165] Memory required for data: 714783280
I0621 15:52:29.019359 11078 layer_factory.hpp:77] Creating layer conv2_2_1x1_increase
I0621 15:52:29.019366 11078 net.cpp:106] Creating Layer conv2_2_1x1_increase
I0621 15:52:29.019368 11078 net.cpp:454] conv2_2_1x1_increase <- conv2_2_3x3
I0621 15:52:29.019374 11078 net.cpp:411] conv2_2_1x1_increase -> conv2_2_1x1_increase
I0621 15:52:29.019826 11078 net.cpp:150] Setting up conv2_2_1x1_increase
I0621 15:52:29.019832 11078 net.cpp:157] Top shape: 2 256 119 119 (7250432)
I0621 15:52:29.019836 11078 net.cpp:165] Memory required for data: 743785008
I0621 15:52:29.019840 11078 layer_factory.hpp:77] Creating layer conv2_2_1x1_increase/bn
I0621 15:52:29.019850 11078 net.cpp:106] Creating Layer conv2_2_1x1_increase/bn
I0621 15:52:29.019858 11078 net.cpp:454] conv2_2_1x1_increase/bn <- conv2_2_1x1_increase
I0621 15:52:29.019865 11078 net.cpp:397] conv2_2_1x1_increase/bn -> conv2_2_1x1_increase (in-place)
I0621 15:52:29.019990 11078 net.cpp:150] Setting up conv2_2_1x1_increase/bn
I0621 15:52:29.019996 11078 net.cpp:157] Top shape: 2 256 119 119 (7250432)
I0621 15:52:29.019999 11078 net.cpp:165] Memory required for data: 772786736
I0621 15:52:29.020006 11078 layer_factory.hpp:77] Creating layer conv2_2
I0621 15:52:29.020011 11078 net.cpp:106] Creating Layer conv2_2
I0621 15:52:29.020015 11078 net.cpp:454] conv2_2 <- conv2_1_conv2_1/relu_0_split_1
I0621 15:52:29.020020 11078 net.cpp:454] conv2_2 <- conv2_2_1x1_increase
I0621 15:52:29.020023 11078 net.cpp:411] conv2_2 -> conv2_2
I0621 15:52:29.020040 11078 net.cpp:150] Setting up conv2_2
I0621 15:52:29.020045 11078 net.cpp:157] Top shape: 2 256 119 119 (7250432)
I0621 15:52:29.020047 11078 net.cpp:165] Memory required for data: 801788464
I0621 15:52:29.020052 11078 layer_factory.hpp:77] Creating layer conv2_2/relu
I0621 15:52:29.020059 11078 net.cpp:106] Creating Layer conv2_2/relu
I0621 15:52:29.020062 11078 net.cpp:454] conv2_2/relu <- conv2_2
I0621 15:52:29.020067 11078 net.cpp:397] conv2_2/relu -> conv2_2 (in-place)
I0621 15:52:29.020071 11078 net.cpp:150] Setting up conv2_2/relu
I0621 15:52:29.020076 11078 net.cpp:157] Top shape: 2 256 119 119 (7250432)
I0621 15:52:29.020079 11078 net.cpp:165] Memory required for data: 830790192
I0621 15:52:29.020082 11078 layer_factory.hpp:77] Creating layer conv2_2_conv2_2/relu_0_split
I0621 15:52:29.020087 11078 net.cpp:106] Creating Layer conv2_2_conv2_2/relu_0_split
I0621 15:52:29.020090 11078 net.cpp:454] conv2_2_conv2_2/relu_0_split <- conv2_2
I0621 15:52:29.020095 11078 net.cpp:411] conv2_2_conv2_2/relu_0_split -> conv2_2_conv2_2/relu_0_split_0
I0621 15:52:29.020100 11078 net.cpp:411] conv2_2_conv2_2/relu_0_split -> conv2_2_conv2_2/relu_0_split_1
I0621 15:52:29.020122 11078 net.cpp:150] Setting up conv2_2_conv2_2/relu_0_split
I0621 15:52:29.020126 11078 net.cpp:157] Top shape: 2 256 119 119 (7250432)
I0621 15:52:29.020130 11078 net.cpp:157] Top shape: 2 256 119 119 (7250432)
I0621 15:52:29.020133 11078 net.cpp:165] Memory required for data: 888793648
I0621 15:52:29.020136 11078 layer_factory.hpp:77] Creating layer conv2_3_1x1_reduce
I0621 15:52:29.020143 11078 net.cpp:106] Creating Layer conv2_3_1x1_reduce
I0621 15:52:29.020148 11078 net.cpp:454] conv2_3_1x1_reduce <- conv2_2_conv2_2/relu_0_split_0
I0621 15:52:29.020153 11078 net.cpp:411] conv2_3_1x1_reduce -> conv2_3_1x1_reduce
I0621 15:52:29.020603 11078 net.cpp:150] Setting up conv2_3_1x1_reduce
I0621 15:52:29.020609 11078 net.cpp:157] Top shape: 2 64 119 119 (1812608)
I0621 15:52:29.020612 11078 net.cpp:165] Memory required for data: 896044080
I0621 15:52:29.020617 11078 layer_factory.hpp:77] Creating layer conv2_3_1x1_reduce/bn
I0621 15:52:29.020623 11078 net.cpp:106] Creating Layer conv2_3_1x1_reduce/bn
I0621 15:52:29.020627 11078 net.cpp:454] conv2_3_1x1_reduce/bn <- conv2_3_1x1_reduce
I0621 15:52:29.020632 11078 net.cpp:397] conv2_3_1x1_reduce/bn -> conv2_3_1x1_reduce (in-place)
I0621 15:52:29.020787 11078 net.cpp:150] Setting up conv2_3_1x1_reduce/bn
I0621 15:52:29.020798 11078 net.cpp:157] Top shape: 2 64 119 119 (1812608)
I0621 15:52:29.020802 11078 net.cpp:165] Memory required for data: 903294512
I0621 15:52:29.020812 11078 layer_factory.hpp:77] Creating layer conv2_3_1x1_reduce/relu
I0621 15:52:29.020817 11078 net.cpp:106] Creating Layer conv2_3_1x1_reduce/relu
I0621 15:52:29.020822 11078 net.cpp:454] conv2_3_1x1_reduce/relu <- conv2_3_1x1_reduce
I0621 15:52:29.020826 11078 net.cpp:397] conv2_3_1x1_reduce/relu -> conv2_3_1x1_reduce (in-place)
I0621 15:52:29.020831 11078 net.cpp:150] Setting up conv2_3_1x1_reduce/relu
I0621 15:52:29.020841 11078 net.cpp:157] Top shape: 2 64 119 119 (1812608)
I0621 15:52:29.020844 11078 net.cpp:165] Memory required for data: 910544944
I0621 15:52:29.020848 11078 layer_factory.hpp:77] Creating layer conv2_3_3x3
I0621 15:52:29.020855 11078 net.cpp:106] Creating Layer conv2_3_3x3
I0621 15:52:29.020864 11078 net.cpp:454] conv2_3_3x3 <- conv2_3_1x1_reduce
I0621 15:52:29.020869 11078 net.cpp:411] conv2_3_3x3 -> conv2_3_3x3
I0621 15:52:29.021848 11078 net.cpp:150] Setting up conv2_3_3x3
I0621 15:52:29.021857 11078 net.cpp:157] Top shape: 2 64 119 119 (1812608)
I0621 15:52:29.021860 11078 net.cpp:165] Memory required for data: 917795376
I0621 15:52:29.021867 11078 layer_factory.hpp:77] Creating layer conv2_3_3x3/bn
I0621 15:52:29.021872 11078 net.cpp:106] Creating Layer conv2_3_3x3/bn
I0621 15:52:29.021877 11078 net.cpp:454] conv2_3_3x3/bn <- conv2_3_3x3
I0621 15:52:29.021883 11078 net.cpp:397] conv2_3_3x3/bn -> conv2_3_3x3 (in-place)
I0621 15:52:29.022025 11078 net.cpp:150] Setting up conv2_3_3x3/bn
I0621 15:52:29.022032 11078 net.cpp:157] Top shape: 2 64 119 119 (1812608)
I0621 15:52:29.022034 11078 net.cpp:165] Memory required for data: 925045808
I0621 15:52:29.022042 11078 layer_factory.hpp:77] Creating layer conv2_3_3x3/relu
I0621 15:52:29.022047 11078 net.cpp:106] Creating Layer conv2_3_3x3/relu
I0621 15:52:29.022050 11078 net.cpp:454] conv2_3_3x3/relu <- conv2_3_3x3
I0621 15:52:29.022054 11078 net.cpp:397] conv2_3_3x3/relu -> conv2_3_3x3 (in-place)
I0621 15:52:29.022059 11078 net.cpp:150] Setting up conv2_3_3x3/relu
I0621 15:52:29.022063 11078 net.cpp:157] Top shape: 2 64 119 119 (1812608)
I0621 15:52:29.022066 11078 net.cpp:165] Memory required for data: 932296240
I0621 15:52:29.022070 11078 layer_factory.hpp:77] Creating layer conv2_3_1x1_increase
I0621 15:52:29.022166 11078 net.cpp:106] Creating Layer conv2_3_1x1_increase
I0621 15:52:29.022171 11078 net.cpp:454] conv2_3_1x1_increase <- conv2_3_3x3
I0621 15:52:29.022177 11078 net.cpp:411] conv2_3_1x1_increase -> conv2_3_1x1_increase
I0621 15:52:29.022657 11078 net.cpp:150] Setting up conv2_3_1x1_increase
I0621 15:52:29.022665 11078 net.cpp:157] Top shape: 2 256 119 119 (7250432)
I0621 15:52:29.022667 11078 net.cpp:165] Memory required for data: 961297968
I0621 15:52:29.022673 11078 layer_factory.hpp:77] Creating layer conv2_3_1x1_increase/bn
I0621 15:52:29.022680 11078 net.cpp:106] Creating Layer conv2_3_1x1_increase/bn
I0621 15:52:29.022683 11078 net.cpp:454] conv2_3_1x1_increase/bn <- conv2_3_1x1_increase
I0621 15:52:29.022689 11078 net.cpp:397] conv2_3_1x1_increase/bn -> conv2_3_1x1_increase (in-place)
I0621 15:52:29.022822 11078 net.cpp:150] Setting up conv2_3_1x1_increase/bn
I0621 15:52:29.022828 11078 net.cpp:157] Top shape: 2 256 119 119 (7250432)
I0621 15:52:29.022831 11078 net.cpp:165] Memory required for data: 990299696
I0621 15:52:29.022852 11078 layer_factory.hpp:77] Creating layer conv2_3
I0621 15:52:29.022862 11078 net.cpp:106] Creating Layer conv2_3
I0621 15:52:29.022867 11078 net.cpp:454] conv2_3 <- conv2_2_conv2_2/relu_0_split_1
I0621 15:52:29.022872 11078 net.cpp:454] conv2_3 <- conv2_3_1x1_increase
I0621 15:52:29.022877 11078 net.cpp:411] conv2_3 -> conv2_3
I0621 15:52:29.022897 11078 net.cpp:150] Setting up conv2_3
I0621 15:52:29.022902 11078 net.cpp:157] Top shape: 2 256 119 119 (7250432)
I0621 15:52:29.022905 11078 net.cpp:165] Memory required for data: 1019301424
I0621 15:52:29.022909 11078 layer_factory.hpp:77] Creating layer conv2_3/relu
I0621 15:52:29.022915 11078 net.cpp:106] Creating Layer conv2_3/relu
I0621 15:52:29.022918 11078 net.cpp:454] conv2_3/relu <- conv2_3
I0621 15:52:29.022922 11078 net.cpp:397] conv2_3/relu -> conv2_3 (in-place)
I0621 15:52:29.022927 11078 net.cpp:150] Setting up conv2_3/relu
I0621 15:52:29.022931 11078 net.cpp:157] Top shape: 2 256 119 119 (7250432)
I0621 15:52:29.022935 11078 net.cpp:165] Memory required for data: 1048303152
I0621 15:52:29.022939 11078 layer_factory.hpp:77] Creating layer conv2_3_conv2_3/relu_0_split
I0621 15:52:29.022944 11078 net.cpp:106] Creating Layer conv2_3_conv2_3/relu_0_split
I0621 15:52:29.022948 11078 net.cpp:454] conv2_3_conv2_3/relu_0_split <- conv2_3
I0621 15:52:29.022955 11078 net.cpp:411] conv2_3_conv2_3/relu_0_split -> conv2_3_conv2_3/relu_0_split_0
I0621 15:52:29.022960 11078 net.cpp:411] conv2_3_conv2_3/relu_0_split -> conv2_3_conv2_3/relu_0_split_1
I0621 15:52:29.023013 11078 net.cpp:150] Setting up conv2_3_conv2_3/relu_0_split
I0621 15:52:29.023020 11078 net.cpp:157] Top shape: 2 256 119 119 (7250432)
I0621 15:52:29.023023 11078 net.cpp:157] Top shape: 2 256 119 119 (7250432)
I0621 15:52:29.023026 11078 net.cpp:165] Memory required for data: 1106306608
I0621 15:52:29.023030 11078 layer_factory.hpp:77] Creating layer conv3_1_1x1_reduce
I0621 15:52:29.023042 11078 net.cpp:106] Creating Layer conv3_1_1x1_reduce
I0621 15:52:29.023046 11078 net.cpp:454] conv3_1_1x1_reduce <- conv2_3_conv2_3/relu_0_split_0
I0621 15:52:29.023051 11078 net.cpp:411] conv3_1_1x1_reduce -> conv3_1_1x1_reduce
I0621 15:52:29.023906 11078 net.cpp:150] Setting up conv3_1_1x1_reduce
I0621 15:52:29.023922 11078 net.cpp:157] Top shape: 2 128 119 119 (3625216)
I0621 15:52:29.023926 11078 net.cpp:165] Memory required for data: 1120807472
I0621 15:52:29.023933 11078 layer_factory.hpp:77] Creating layer conv3_1_1x1_reduce/bn
I0621 15:52:29.023946 11078 net.cpp:106] Creating Layer conv3_1_1x1_reduce/bn
I0621 15:52:29.023952 11078 net.cpp:454] conv3_1_1x1_reduce/bn <- conv3_1_1x1_reduce
I0621 15:52:29.023959 11078 net.cpp:397] conv3_1_1x1_reduce/bn -> conv3_1_1x1_reduce (in-place)
I0621 15:52:29.024127 11078 net.cpp:150] Setting up conv3_1_1x1_reduce/bn
I0621 15:52:29.024134 11078 net.cpp:157] Top shape: 2 128 119 119 (3625216)
I0621 15:52:29.024137 11078 net.cpp:165] Memory required for data: 1135308336
I0621 15:52:29.024145 11078 layer_factory.hpp:77] Creating layer conv3_1_1x1_reduce/relu
I0621 15:52:29.024152 11078 net.cpp:106] Creating Layer conv3_1_1x1_reduce/relu
I0621 15:52:29.024157 11078 net.cpp:454] conv3_1_1x1_reduce/relu <- conv3_1_1x1_reduce
I0621 15:52:29.024160 11078 net.cpp:397] conv3_1_1x1_reduce/relu -> conv3_1_1x1_reduce (in-place)
I0621 15:52:29.024166 11078 net.cpp:150] Setting up conv3_1_1x1_reduce/relu
I0621 15:52:29.024170 11078 net.cpp:157] Top shape: 2 128 119 119 (3625216)
I0621 15:52:29.024173 11078 net.cpp:165] Memory required for data: 1149809200
I0621 15:52:29.024178 11078 layer_factory.hpp:77] Creating layer conv3_1_3x3
I0621 15:52:29.024188 11078 net.cpp:106] Creating Layer conv3_1_3x3
I0621 15:52:29.024190 11078 net.cpp:454] conv3_1_3x3 <- conv3_1_1x1_reduce
I0621 15:52:29.024196 11078 net.cpp:411] conv3_1_3x3 -> conv3_1_3x3
I0621 15:52:29.030539 11078 net.cpp:150] Setting up conv3_1_3x3
I0621 15:52:29.030586 11078 net.cpp:157] Top shape: 2 128 60 60 (921600)
I0621 15:52:29.030591 11078 net.cpp:165] Memory required for data: 1153495600
I0621 15:52:29.030602 11078 layer_factory.hpp:77] Creating layer conv3_1_3x3/bn
I0621 15:52:29.030622 11078 net.cpp:106] Creating Layer conv3_1_3x3/bn
I0621 15:52:29.030628 11078 net.cpp:454] conv3_1_3x3/bn <- conv3_1_3x3
I0621 15:52:29.030638 11078 net.cpp:397] conv3_1_3x3/bn -> conv3_1_3x3 (in-place)
I0621 15:52:29.031283 11078 net.cpp:150] Setting up conv3_1_3x3/bn
I0621 15:52:29.031291 11078 net.cpp:157] Top shape: 2 128 60 60 (921600)
I0621 15:52:29.031293 11078 net.cpp:165] Memory required for data: 1157182000
I0621 15:52:29.031301 11078 layer_factory.hpp:77] Creating layer conv3_1_3x3/relu
I0621 15:52:29.031306 11078 net.cpp:106] Creating Layer conv3_1_3x3/relu
I0621 15:52:29.031308 11078 net.cpp:454] conv3_1_3x3/relu <- conv3_1_3x3
I0621 15:52:29.031313 11078 net.cpp:397] conv3_1_3x3/relu -> conv3_1_3x3 (in-place)
I0621 15:52:29.031319 11078 net.cpp:150] Setting up conv3_1_3x3/relu
I0621 15:52:29.031323 11078 net.cpp:157] Top shape: 2 128 60 60 (921600)
I0621 15:52:29.031327 11078 net.cpp:165] Memory required for data: 1160868400
I0621 15:52:29.031329 11078 layer_factory.hpp:77] Creating layer conv3_1_1x1_increase
I0621 15:52:29.031337 11078 net.cpp:106] Creating Layer conv3_1_1x1_increase
I0621 15:52:29.031340 11078 net.cpp:454] conv3_1_1x1_increase <- conv3_1_3x3
I0621 15:52:29.031345 11078 net.cpp:411] conv3_1_1x1_increase -> conv3_1_1x1_increase
I0621 15:52:29.032881 11078 net.cpp:150] Setting up conv3_1_1x1_increase
I0621 15:52:29.032887 11078 net.cpp:157] Top shape: 2 512 60 60 (3686400)
I0621 15:52:29.032902 11078 net.cpp:165] Memory required for data: 1175614000
I0621 15:52:29.032907 11078 layer_factory.hpp:77] Creating layer conv3_1_1x1_increase/bn
I0621 15:52:29.032912 11078 net.cpp:106] Creating Layer conv3_1_1x1_increase/bn
I0621 15:52:29.032917 11078 net.cpp:454] conv3_1_1x1_increase/bn <- conv3_1_1x1_increase
I0621 15:52:29.032920 11078 net.cpp:397] conv3_1_1x1_increase/bn -> conv3_1_1x1_increase (in-place)
I0621 15:52:29.033736 11078 net.cpp:150] Setting up conv3_1_1x1_increase/bn
I0621 15:52:29.033746 11078 net.cpp:157] Top shape: 2 512 60 60 (3686400)
I0621 15:52:29.033749 11078 net.cpp:165] Memory required for data: 1190359600
I0621 15:52:29.044736 11078 layer_factory.hpp:77] Creating layer conv3_1_1x1_proj
I0621 15:52:29.044811 11078 net.cpp:106] Creating Layer conv3_1_1x1_proj
I0621 15:52:29.044824 11078 net.cpp:454] conv3_1_1x1_proj <- conv2_3_conv2_3/relu_0_split_1
I0621 15:52:29.044838 11078 net.cpp:411] conv3_1_1x1_proj -> conv3_1_1x1_proj
I0621 15:52:29.049504 11078 net.cpp:150] Setting up conv3_1_1x1_proj
I0621 15:52:29.049561 11078 net.cpp:157] Top shape: 2 512 60 60 (3686400)
I0621 15:52:29.049566 11078 net.cpp:165] Memory required for data: 1205105200
I0621 15:52:29.049579 11078 layer_factory.hpp:77] Creating layer conv3_1_1x1_proj/bn
I0621 15:52:29.049602 11078 net.cpp:106] Creating Layer conv3_1_1x1_proj/bn
I0621 15:52:29.049612 11078 net.cpp:454] conv3_1_1x1_proj/bn <- conv3_1_1x1_proj
I0621 15:52:29.049625 11078 net.cpp:397] conv3_1_1x1_proj/bn -> conv3_1_1x1_proj (in-place)
I0621 15:52:29.049924 11078 net.cpp:150] Setting up conv3_1_1x1_proj/bn
I0621 15:52:29.049937 11078 net.cpp:157] Top shape: 2 512 60 60 (3686400)
I0621 15:52:29.049942 11078 net.cpp:165] Memory required for data: 1219850800
I0621 15:52:29.049952 11078 layer_factory.hpp:77] Creating layer conv3_1
I0621 15:52:29.049963 11078 net.cpp:106] Creating Layer conv3_1
I0621 15:52:29.049968 11078 net.cpp:454] conv3_1 <- conv3_1_1x1_proj
I0621 15:52:29.049973 11078 net.cpp:454] conv3_1 <- conv3_1_1x1_increase
I0621 15:52:29.049980 11078 net.cpp:411] conv3_1 -> conv3_1
I0621 15:52:29.050022 11078 net.cpp:150] Setting up conv3_1
I0621 15:52:29.050030 11078 net.cpp:157] Top shape: 2 512 60 60 (3686400)
I0621 15:52:29.050034 11078 net.cpp:165] Memory required for data: 1234596400
I0621 15:52:29.050037 11078 layer_factory.hpp:77] Creating layer conv3_1/relu
I0621 15:52:29.050050 11078 net.cpp:106] Creating Layer conv3_1/relu
I0621 15:52:29.050055 11078 net.cpp:454] conv3_1/relu <- conv3_1
I0621 15:52:29.050063 11078 net.cpp:397] conv3_1/relu -> conv3_1 (in-place)
I0621 15:52:29.050072 11078 net.cpp:150] Setting up conv3_1/relu
I0621 15:52:29.050077 11078 net.cpp:157] Top shape: 2 512 60 60 (3686400)
I0621 15:52:29.050081 11078 net.cpp:165] Memory required for data: 1249342000
I0621 15:52:29.050086 11078 layer_factory.hpp:77] Creating layer conv3_1_conv3_1/relu_0_split
I0621 15:52:29.050094 11078 net.cpp:106] Creating Layer conv3_1_conv3_1/relu_0_split
I0621 15:52:29.050099 11078 net.cpp:454] conv3_1_conv3_1/relu_0_split <- conv3_1
I0621 15:52:29.050107 11078 net.cpp:411] conv3_1_conv3_1/relu_0_split -> conv3_1_conv3_1/relu_0_split_0
I0621 15:52:29.050113 11078 net.cpp:411] conv3_1_conv3_1/relu_0_split -> conv3_1_conv3_1/relu_0_split_1
I0621 15:52:29.050143 11078 net.cpp:150] Setting up conv3_1_conv3_1/relu_0_split
I0621 15:52:29.050149 11078 net.cpp:157] Top shape: 2 512 60 60 (3686400)
I0621 15:52:29.050155 11078 net.cpp:157] Top shape: 2 512 60 60 (3686400)
I0621 15:52:29.050159 11078 net.cpp:165] Memory required for data: 1278833200
I0621 15:52:29.050163 11078 layer_factory.hpp:77] Creating layer conv3_2_1x1_reduce
I0621 15:52:29.050175 11078 net.cpp:106] Creating Layer conv3_2_1x1_reduce
I0621 15:52:29.050180 11078 net.cpp:454] conv3_2_1x1_reduce <- conv3_1_conv3_1/relu_0_split_0
I0621 15:52:29.050189 11078 net.cpp:411] conv3_2_1x1_reduce -> conv3_2_1x1_reduce
I0621 15:52:29.052920 11078 net.cpp:150] Setting up conv3_2_1x1_reduce
I0621 15:52:29.053025 11078 net.cpp:157] Top shape: 2 128 60 60 (921600)
I0621 15:52:29.053118 11078 net.cpp:165] Memory required for data: 1282519600
I0621 15:52:29.053138 11078 layer_factory.hpp:77] Creating layer conv3_2_1x1_reduce/bn
I0621 15:52:29.053169 11078 net.cpp:106] Creating Layer conv3_2_1x1_reduce/bn
I0621 15:52:29.053179 11078 net.cpp:454] conv3_2_1x1_reduce/bn <- conv3_2_1x1_reduce
I0621 15:52:29.053194 11078 net.cpp:397] conv3_2_1x1_reduce/bn -> conv3_2_1x1_reduce (in-place)
I0621 15:52:29.053472 11078 net.cpp:150] Setting up conv3_2_1x1_reduce/bn
I0621 15:52:29.053480 11078 net.cpp:157] Top shape: 2 128 60 60 (921600)
I0621 15:52:29.053484 11078 net.cpp:165] Memory required for data: 1286206000
I0621 15:52:29.053494 11078 layer_factory.hpp:77] Creating layer conv3_2_1x1_reduce/relu
I0621 15:52:29.053508 11078 net.cpp:106] Creating Layer conv3_2_1x1_reduce/relu
I0621 15:52:29.053511 11078 net.cpp:454] conv3_2_1x1_reduce/relu <- conv3_2_1x1_reduce
I0621 15:52:29.053519 11078 net.cpp:397] conv3_2_1x1_reduce/relu -> conv3_2_1x1_reduce (in-place)
I0621 15:52:29.053529 11078 net.cpp:150] Setting up conv3_2_1x1_reduce/relu
I0621 15:52:29.053534 11078 net.cpp:157] Top shape: 2 128 60 60 (921600)
I0621 15:52:29.053537 11078 net.cpp:165] Memory required for data: 1289892400
I0621 15:52:29.053541 11078 layer_factory.hpp:77] Creating layer conv3_2_3x3
I0621 15:52:29.053557 11078 net.cpp:106] Creating Layer conv3_2_3x3
I0621 15:52:29.053562 11078 net.cpp:454] conv3_2_3x3 <- conv3_2_1x1_reduce
I0621 15:52:29.053570 11078 net.cpp:411] conv3_2_3x3 -> conv3_2_3x3
I0621 15:52:29.057359 11078 net.cpp:150] Setting up conv3_2_3x3
I0621 15:52:29.057375 11078 net.cpp:157] Top shape: 2 128 60 60 (921600)
I0621 15:52:29.057379 11078 net.cpp:165] Memory required for data: 1293578800
I0621 15:52:29.057386 11078 layer_factory.hpp:77] Creating layer conv3_2_3x3/bn
I0621 15:52:29.057402 11078 net.cpp:106] Creating Layer conv3_2_3x3/bn
I0621 15:52:29.057407 11078 net.cpp:454] conv3_2_3x3/bn <- conv3_2_3x3
I0621 15:52:29.057413 11078 net.cpp:397] conv3_2_3x3/bn -> conv3_2_3x3 (in-place)
I0621 15:52:29.057548 11078 net.cpp:150] Setting up conv3_2_3x3/bn
I0621 15:52:29.057554 11078 net.cpp:157] Top shape: 2 128 60 60 (921600)
I0621 15:52:29.057557 11078 net.cpp:165] Memory required for data: 1297265200
I0621 15:52:29.057564 11078 layer_factory.hpp:77] Creating layer conv3_2_3x3/relu
I0621 15:52:29.057570 11078 net.cpp:106] Creating Layer conv3_2_3x3/relu
I0621 15:52:29.057574 11078 net.cpp:454] conv3_2_3x3/relu <- conv3_2_3x3
I0621 15:52:29.057579 11078 net.cpp:397] conv3_2_3x3/relu -> conv3_2_3x3 (in-place)
I0621 15:52:29.057585 11078 net.cpp:150] Setting up conv3_2_3x3/relu
I0621 15:52:29.057588 11078 net.cpp:157] Top shape: 2 128 60 60 (921600)
I0621 15:52:29.057591 11078 net.cpp:165] Memory required for data: 1300951600
I0621 15:52:29.057595 11078 layer_factory.hpp:77] Creating layer conv3_2_1x1_increase
I0621 15:52:29.057602 11078 net.cpp:106] Creating Layer conv3_2_1x1_increase
I0621 15:52:29.057605 11078 net.cpp:454] conv3_2_1x1_increase <- conv3_2_3x3
I0621 15:52:29.057616 11078 net.cpp:411] conv3_2_1x1_increase -> conv3_2_1x1_increase
I0621 15:52:29.061604 11078 net.cpp:150] Setting up conv3_2_1x1_increase
I0621 15:52:29.061615 11078 net.cpp:157] Top shape: 2 512 60 60 (3686400)
I0621 15:52:29.061619 11078 net.cpp:165] Memory required for data: 1315697200
I0621 15:52:29.061625 11078 layer_factory.hpp:77] Creating layer conv3_2_1x1_increase/bn
I0621 15:52:29.061631 11078 net.cpp:106] Creating Layer conv3_2_1x1_increase/bn
I0621 15:52:29.061635 11078 net.cpp:454] conv3_2_1x1_increase/bn <- conv3_2_1x1_increase
I0621 15:52:29.061642 11078 net.cpp:397] conv3_2_1x1_increase/bn -> conv3_2_1x1_increase (in-place)
I0621 15:52:29.062376 11078 net.cpp:150] Setting up conv3_2_1x1_increase/bn
I0621 15:52:29.062383 11078 net.cpp:157] Top shape: 2 512 60 60 (3686400)
I0621 15:52:29.062386 11078 net.cpp:165] Memory required for data: 1330442800
I0621 15:52:29.062393 11078 layer_factory.hpp:77] Creating layer conv3_2
I0621 15:52:29.062400 11078 net.cpp:106] Creating Layer conv3_2
I0621 15:52:29.062404 11078 net.cpp:454] conv3_2 <- conv3_1_conv3_1/relu_0_split_1
I0621 15:52:29.062428 11078 net.cpp:454] conv3_2 <- conv3_2_1x1_increase
I0621 15:52:29.062433 11078 net.cpp:411] conv3_2 -> conv3_2
I0621 15:52:29.062453 11078 net.cpp:150] Setting up conv3_2
I0621 15:52:29.062458 11078 net.cpp:157] Top shape: 2 512 60 60 (3686400)
I0621 15:52:29.062460 11078 net.cpp:165] Memory required for data: 1345188400
I0621 15:52:29.062464 11078 layer_factory.hpp:77] Creating layer conv3_2/relu
I0621 15:52:29.062471 11078 net.cpp:106] Creating Layer conv3_2/relu
I0621 15:52:29.062474 11078 net.cpp:454] conv3_2/relu <- conv3_2
I0621 15:52:29.062480 11078 net.cpp:397] conv3_2/relu -> conv3_2 (in-place)
I0621 15:52:29.062485 11078 net.cpp:150] Setting up conv3_2/relu
I0621 15:52:29.062490 11078 net.cpp:157] Top shape: 2 512 60 60 (3686400)
I0621 15:52:29.062494 11078 net.cpp:165] Memory required for data: 1359934000
I0621 15:52:29.062497 11078 layer_factory.hpp:77] Creating layer conv3_2_conv3_2/relu_0_split
I0621 15:52:29.062502 11078 net.cpp:106] Creating Layer conv3_2_conv3_2/relu_0_split
I0621 15:52:29.062505 11078 net.cpp:454] conv3_2_conv3_2/relu_0_split <- conv3_2
I0621 15:52:29.062510 11078 net.cpp:411] conv3_2_conv3_2/relu_0_split -> conv3_2_conv3_2/relu_0_split_0
I0621 15:52:29.062515 11078 net.cpp:411] conv3_2_conv3_2/relu_0_split -> conv3_2_conv3_2/relu_0_split_1
I0621 15:52:29.062537 11078 net.cpp:150] Setting up conv3_2_conv3_2/relu_0_split
I0621 15:52:29.062542 11078 net.cpp:157] Top shape: 2 512 60 60 (3686400)
I0621 15:52:29.062546 11078 net.cpp:157] Top shape: 2 512 60 60 (3686400)
I0621 15:52:29.062549 11078 net.cpp:165] Memory required for data: 1389425200
I0621 15:52:29.062552 11078 layer_factory.hpp:77] Creating layer conv3_3_1x1_reduce
I0621 15:52:29.062561 11078 net.cpp:106] Creating Layer conv3_3_1x1_reduce
I0621 15:52:29.062563 11078 net.cpp:454] conv3_3_1x1_reduce <- conv3_2_conv3_2/relu_0_split_0
I0621 15:52:29.062571 11078 net.cpp:411] conv3_3_1x1_reduce -> conv3_3_1x1_reduce
I0621 15:52:29.064095 11078 net.cpp:150] Setting up conv3_3_1x1_reduce
I0621 15:52:29.064100 11078 net.cpp:157] Top shape: 2 128 60 60 (921600)
I0621 15:52:29.064105 11078 net.cpp:165] Memory required for data: 1393111600
I0621 15:52:29.064110 11078 layer_factory.hpp:77] Creating layer conv3_3_1x1_reduce/bn
I0621 15:52:29.064116 11078 net.cpp:106] Creating Layer conv3_3_1x1_reduce/bn
I0621 15:52:29.064121 11078 net.cpp:454] conv3_3_1x1_reduce/bn <- conv3_3_1x1_reduce
I0621 15:52:29.064126 11078 net.cpp:397] conv3_3_1x1_reduce/bn -> conv3_3_1x1_reduce (in-place)
I0621 15:52:29.064249 11078 net.cpp:150] Setting up conv3_3_1x1_reduce/bn
I0621 15:52:29.064254 11078 net.cpp:157] Top shape: 2 128 60 60 (921600)
I0621 15:52:29.064257 11078 net.cpp:165] Memory required for data: 1396798000
I0621 15:52:29.064265 11078 layer_factory.hpp:77] Creating layer conv3_3_1x1_reduce/relu
I0621 15:52:29.064270 11078 net.cpp:106] Creating Layer conv3_3_1x1_reduce/relu
I0621 15:52:29.064272 11078 net.cpp:454] conv3_3_1x1_reduce/relu <- conv3_3_1x1_reduce
I0621 15:52:29.064276 11078 net.cpp:397] conv3_3_1x1_reduce/relu -> conv3_3_1x1_reduce (in-place)
I0621 15:52:29.064281 11078 net.cpp:150] Setting up conv3_3_1x1_reduce/relu
I0621 15:52:29.064286 11078 net.cpp:157] Top shape: 2 128 60 60 (921600)
I0621 15:52:29.064290 11078 net.cpp:165] Memory required for data: 1400484400
I0621 15:52:29.064292 11078 layer_factory.hpp:77] Creating layer conv3_3_3x3
I0621 15:52:29.064299 11078 net.cpp:106] Creating Layer conv3_3_3x3
I0621 15:52:29.064302 11078 net.cpp:454] conv3_3_3x3 <- conv3_3_1x1_reduce
I0621 15:52:29.064307 11078 net.cpp:411] conv3_3_3x3 -> conv3_3_3x3
I0621 15:52:29.068388 11078 net.cpp:150] Setting up conv3_3_3x3
I0621 15:52:29.068424 11078 net.cpp:157] Top shape: 2 128 60 60 (921600)
I0621 15:52:29.068429 11078 net.cpp:165] Memory required for data: 1404170800
I0621 15:52:29.068441 11078 layer_factory.hpp:77] Creating layer conv3_3_3x3/bn
I0621 15:52:29.068459 11078 net.cpp:106] Creating Layer conv3_3_3x3/bn
I0621 15:52:29.068469 11078 net.cpp:454] conv3_3_3x3/bn <- conv3_3_3x3
I0621 15:52:29.068526 11078 net.cpp:397] conv3_3_3x3/bn -> conv3_3_3x3 (in-place)
I0621 15:52:29.068735 11078 net.cpp:150] Setting up conv3_3_3x3/bn
I0621 15:52:29.068743 11078 net.cpp:157] Top shape: 2 128 60 60 (921600)
I0621 15:52:29.075368 11078 net.cpp:165] Memory required for data: 1407857200
I0621 15:52:29.075395 11078 layer_factory.hpp:77] Creating layer conv3_3_3x3/relu
I0621 15:52:29.075408 11078 net.cpp:106] Creating Layer conv3_3_3x3/relu
I0621 15:52:29.075418 11078 net.cpp:454] conv3_3_3x3/relu <- conv3_3_3x3
I0621 15:52:29.075435 11078 net.cpp:397] conv3_3_3x3/relu -> conv3_3_3x3 (in-place)
I0621 15:52:29.075455 11078 net.cpp:150] Setting up conv3_3_3x3/relu
I0621 15:52:29.075464 11078 net.cpp:157] Top shape: 2 128 60 60 (921600)
I0621 15:52:29.075467 11078 net.cpp:165] Memory required for data: 1411543600
I0621 15:52:29.075471 11078 layer_factory.hpp:77] Creating layer conv3_3_1x1_increase
I0621 15:52:29.075489 11078 net.cpp:106] Creating Layer conv3_3_1x1_increase
I0621 15:52:29.075494 11078 net.cpp:454] conv3_3_1x1_increase <- conv3_3_3x3
I0621 15:52:29.075500 11078 net.cpp:411] conv3_3_1x1_increase -> conv3_3_1x1_increase
I0621 15:52:29.077800 11078 net.cpp:150] Setting up conv3_3_1x1_increase
I0621 15:52:29.077847 11078 net.cpp:157] Top shape: 2 512 60 60 (3686400)
I0621 15:52:29.077853 11078 net.cpp:165] Memory required for data: 1426289200
I0621 15:52:29.077867 11078 layer_factory.hpp:77] Creating layer conv3_3_1x1_increase/bn
I0621 15:52:29.077885 11078 net.cpp:106] Creating Layer conv3_3_1x1_increase/bn
I0621 15:52:29.077894 11078 net.cpp:454] conv3_3_1x1_increase/bn <- conv3_3_1x1_increase
I0621 15:52:29.077903 11078 net.cpp:397] conv3_3_1x1_increase/bn -> conv3_3_1x1_increase (in-place)
I0621 15:52:29.078069 11078 net.cpp:150] Setting up conv3_3_1x1_increase/bn
I0621 15:52:29.078076 11078 net.cpp:157] Top shape: 2 512 60 60 (3686400)
I0621 15:52:29.078079 11078 net.cpp:165] Memory required for data: 1441034800
I0621 15:52:29.078088 11078 layer_factory.hpp:77] Creating layer conv3_3
I0621 15:52:29.078094 11078 net.cpp:106] Creating Layer conv3_3
I0621 15:52:29.078099 11078 net.cpp:454] conv3_3 <- conv3_2_conv3_2/relu_0_split_1
I0621 15:52:29.078104 11078 net.cpp:454] conv3_3 <- conv3_3_1x1_increase
I0621 15:52:29.078107 11078 net.cpp:411] conv3_3 -> conv3_3
I0621 15:52:29.078130 11078 net.cpp:150] Setting up conv3_3
I0621 15:52:29.078135 11078 net.cpp:157] Top shape: 2 512 60 60 (3686400)
I0621 15:52:29.078137 11078 net.cpp:165] Memory required for data: 1455780400
I0621 15:52:29.078140 11078 layer_factory.hpp:77] Creating layer conv3_3/relu
I0621 15:52:29.078147 11078 net.cpp:106] Creating Layer conv3_3/relu
I0621 15:52:29.078150 11078 net.cpp:454] conv3_3/relu <- conv3_3
I0621 15:52:29.078155 11078 net.cpp:397] conv3_3/relu -> conv3_3 (in-place)
I0621 15:52:29.078161 11078 net.cpp:150] Setting up conv3_3/relu
I0621 15:52:29.078164 11078 net.cpp:157] Top shape: 2 512 60 60 (3686400)
I0621 15:52:29.078167 11078 net.cpp:165] Memory required for data: 1470526000
I0621 15:52:29.078171 11078 layer_factory.hpp:77] Creating layer conv3_3_conv3_3/relu_0_split
I0621 15:52:29.078176 11078 net.cpp:106] Creating Layer conv3_3_conv3_3/relu_0_split
I0621 15:52:29.078179 11078 net.cpp:454] conv3_3_conv3_3/relu_0_split <- conv3_3
I0621 15:52:29.078186 11078 net.cpp:411] conv3_3_conv3_3/relu_0_split -> conv3_3_conv3_3/relu_0_split_0
I0621 15:52:29.078191 11078 net.cpp:411] conv3_3_conv3_3/relu_0_split -> conv3_3_conv3_3/relu_0_split_1
I0621 15:52:29.078217 11078 net.cpp:150] Setting up conv3_3_conv3_3/relu_0_split
I0621 15:52:29.078223 11078 net.cpp:157] Top shape: 2 512 60 60 (3686400)
I0621 15:52:29.078227 11078 net.cpp:157] Top shape: 2 512 60 60 (3686400)
I0621 15:52:29.078230 11078 net.cpp:165] Memory required for data: 1500017200
I0621 15:52:29.078233 11078 layer_factory.hpp:77] Creating layer conv3_4_1x1_reduce
I0621 15:52:29.078243 11078 net.cpp:106] Creating Layer conv3_4_1x1_reduce
I0621 15:52:29.078248 11078 net.cpp:454] conv3_4_1x1_reduce <- conv3_3_conv3_3/relu_0_split_0
I0621 15:52:29.078253 11078 net.cpp:411] conv3_4_1x1_reduce -> conv3_4_1x1_reduce
I0621 15:52:29.079818 11078 net.cpp:150] Setting up conv3_4_1x1_reduce
I0621 15:52:29.079824 11078 net.cpp:157] Top shape: 2 128 60 60 (921600)
I0621 15:52:29.079828 11078 net.cpp:165] Memory required for data: 1503703600
I0621 15:52:29.079833 11078 layer_factory.hpp:77] Creating layer conv3_4_1x1_reduce/bn
I0621 15:52:29.079839 11078 net.cpp:106] Creating Layer conv3_4_1x1_reduce/bn
I0621 15:52:29.079843 11078 net.cpp:454] conv3_4_1x1_reduce/bn <- conv3_4_1x1_reduce
I0621 15:52:29.079849 11078 net.cpp:397] conv3_4_1x1_reduce/bn -> conv3_4_1x1_reduce (in-place)
I0621 15:52:29.079978 11078 net.cpp:150] Setting up conv3_4_1x1_reduce/bn
I0621 15:52:29.079983 11078 net.cpp:157] Top shape: 2 128 60 60 (921600)
I0621 15:52:29.079988 11078 net.cpp:165] Memory required for data: 1507390000
I0621 15:52:29.079994 11078 layer_factory.hpp:77] Creating layer conv3_4_1x1_reduce/relu
I0621 15:52:29.079999 11078 net.cpp:106] Creating Layer conv3_4_1x1_reduce/relu
I0621 15:52:29.080003 11078 net.cpp:454] conv3_4_1x1_reduce/relu <- conv3_4_1x1_reduce
I0621 15:52:29.080008 11078 net.cpp:397] conv3_4_1x1_reduce/relu -> conv3_4_1x1_reduce (in-place)
I0621 15:52:29.080013 11078 net.cpp:150] Setting up conv3_4_1x1_reduce/relu
I0621 15:52:29.080016 11078 net.cpp:157] Top shape: 2 128 60 60 (921600)
I0621 15:52:29.080019 11078 net.cpp:165] Memory required for data: 1511076400
I0621 15:52:29.080024 11078 layer_factory.hpp:77] Creating layer conv3_4_3x3
I0621 15:52:29.080030 11078 net.cpp:106] Creating Layer conv3_4_3x3
I0621 15:52:29.080034 11078 net.cpp:454] conv3_4_3x3 <- conv3_4_1x1_reduce
I0621 15:52:29.080039 11078 net.cpp:411] conv3_4_3x3 -> conv3_4_3x3
I0621 15:52:29.084025 11078 net.cpp:150] Setting up conv3_4_3x3
I0621 15:52:29.084033 11078 net.cpp:157] Top shape: 2 128 60 60 (921600)
I0621 15:52:29.084036 11078 net.cpp:165] Memory required for data: 1514762800
I0621 15:52:29.084041 11078 layer_factory.hpp:77] Creating layer conv3_4_3x3/bn
I0621 15:52:29.084048 11078 net.cpp:106] Creating Layer conv3_4_3x3/bn
I0621 15:52:29.084053 11078 net.cpp:454] conv3_4_3x3/bn <- conv3_4_3x3
I0621 15:52:29.084058 11078 net.cpp:397] conv3_4_3x3/bn -> conv3_4_3x3 (in-place)
I0621 15:52:29.084198 11078 net.cpp:150] Setting up conv3_4_3x3/bn
I0621 15:52:29.084206 11078 net.cpp:157] Top shape: 2 128 60 60 (921600)
I0621 15:52:29.084209 11078 net.cpp:165] Memory required for data: 1518449200
I0621 15:52:29.084216 11078 layer_factory.hpp:77] Creating layer conv3_4_3x3/relu
I0621 15:52:29.084221 11078 net.cpp:106] Creating Layer conv3_4_3x3/relu
I0621 15:52:29.084224 11078 net.cpp:454] conv3_4_3x3/relu <- conv3_4_3x3
I0621 15:52:29.084229 11078 net.cpp:397] conv3_4_3x3/relu -> conv3_4_3x3 (in-place)
I0621 15:52:29.084234 11078 net.cpp:150] Setting up conv3_4_3x3/relu
I0621 15:52:29.084239 11078 net.cpp:157] Top shape: 2 128 60 60 (921600)
I0621 15:52:29.084241 11078 net.cpp:165] Memory required for data: 1522135600
I0621 15:52:29.084245 11078 layer_factory.hpp:77] Creating layer conv3_4_1x1_increase
I0621 15:52:29.084251 11078 net.cpp:106] Creating Layer conv3_4_1x1_increase
I0621 15:52:29.084254 11078 net.cpp:454] conv3_4_1x1_increase <- conv3_4_3x3
I0621 15:52:29.084261 11078 net.cpp:411] conv3_4_1x1_increase -> conv3_4_1x1_increase
I0621 15:52:29.085820 11078 net.cpp:150] Setting up conv3_4_1x1_increase
I0621 15:52:29.085829 11078 net.cpp:157] Top shape: 2 512 60 60 (3686400)
I0621 15:52:29.085834 11078 net.cpp:165] Memory required for data: 1536881200
I0621 15:52:29.085839 11078 layer_factory.hpp:77] Creating layer conv3_4_1x1_increase/bn
I0621 15:52:29.085845 11078 net.cpp:106] Creating Layer conv3_4_1x1_increase/bn
I0621 15:52:29.085850 11078 net.cpp:454] conv3_4_1x1_increase/bn <- conv3_4_1x1_increase
I0621 15:52:29.085856 11078 net.cpp:397] conv3_4_1x1_increase/bn -> conv3_4_1x1_increase (in-place)
I0621 15:52:29.085988 11078 net.cpp:150] Setting up conv3_4_1x1_increase/bn
I0621 15:52:29.085994 11078 net.cpp:157] Top shape: 2 512 60 60 (3686400)
I0621 15:52:29.085996 11078 net.cpp:165] Memory required for data: 1551626800
I0621 15:52:29.086022 11078 layer_factory.hpp:77] Creating layer conv3_4
I0621 15:52:29.086028 11078 net.cpp:106] Creating Layer conv3_4
I0621 15:52:29.086031 11078 net.cpp:454] conv3_4 <- conv3_3_conv3_3/relu_0_split_1
I0621 15:52:29.086036 11078 net.cpp:454] conv3_4 <- conv3_4_1x1_increase
I0621 15:52:29.086041 11078 net.cpp:411] conv3_4 -> conv3_4
I0621 15:52:29.086058 11078 net.cpp:150] Setting up conv3_4
I0621 15:52:29.086063 11078 net.cpp:157] Top shape: 2 512 60 60 (3686400)
I0621 15:52:29.086066 11078 net.cpp:165] Memory required for data: 1566372400
I0621 15:52:29.086069 11078 layer_factory.hpp:77] Creating layer conv3_4/relu
I0621 15:52:29.086074 11078 net.cpp:106] Creating Layer conv3_4/relu
I0621 15:52:29.086077 11078 net.cpp:454] conv3_4/relu <- conv3_4
I0621 15:52:29.086083 11078 net.cpp:397] conv3_4/relu -> conv3_4 (in-place)
I0621 15:52:29.086088 11078 net.cpp:150] Setting up conv3_4/relu
I0621 15:52:29.086092 11078 net.cpp:157] Top shape: 2 512 60 60 (3686400)
I0621 15:52:29.086096 11078 net.cpp:165] Memory required for data: 1581118000
I0621 15:52:29.086098 11078 layer_factory.hpp:77] Creating layer conv3_4_conv3_4/relu_0_split
I0621 15:52:29.086103 11078 net.cpp:106] Creating Layer conv3_4_conv3_4/relu_0_split
I0621 15:52:29.086107 11078 net.cpp:454] conv3_4_conv3_4/relu_0_split <- conv3_4
I0621 15:52:29.086112 11078 net.cpp:411] conv3_4_conv3_4/relu_0_split -> conv3_4_conv3_4/relu_0_split_0
I0621 15:52:29.086115 11078 net.cpp:411] conv3_4_conv3_4/relu_0_split -> conv3_4_conv3_4/relu_0_split_1
I0621 15:52:29.086140 11078 net.cpp:150] Setting up conv3_4_conv3_4/relu_0_split
I0621 15:52:29.086146 11078 net.cpp:157] Top shape: 2 512 60 60 (3686400)
I0621 15:52:29.086150 11078 net.cpp:157] Top shape: 2 512 60 60 (3686400)
I0621 15:52:29.086153 11078 net.cpp:165] Memory required for data: 1610609200
I0621 15:52:29.086156 11078 layer_factory.hpp:77] Creating layer conv4_1_1x1_reduce
I0621 15:52:29.086163 11078 net.cpp:106] Creating Layer conv4_1_1x1_reduce
I0621 15:52:29.086168 11078 net.cpp:454] conv4_1_1x1_reduce <- conv3_4_conv3_4/relu_0_split_0
I0621 15:52:29.086174 11078 net.cpp:411] conv4_1_1x1_reduce -> conv4_1_1x1_reduce
I0621 15:52:29.089638 11078 net.cpp:150] Setting up conv4_1_1x1_reduce
I0621 15:52:29.089705 11078 net.cpp:157] Top shape: 2 256 60 60 (1843200)
I0621 15:52:29.089711 11078 net.cpp:165] Memory required for data: 1617982000
I0621 15:52:29.089725 11078 layer_factory.hpp:77] Creating layer conv4_1_1x1_reduce/bn
I0621 15:52:29.089747 11078 net.cpp:106] Creating Layer conv4_1_1x1_reduce/bn
I0621 15:52:29.089757 11078 net.cpp:454] conv4_1_1x1_reduce/bn <- conv4_1_1x1_reduce
I0621 15:52:29.089768 11078 net.cpp:397] conv4_1_1x1_reduce/bn -> conv4_1_1x1_reduce (in-place)
I0621 15:52:29.089982 11078 net.cpp:150] Setting up conv4_1_1x1_reduce/bn
I0621 15:52:29.089992 11078 net.cpp:157] Top shape: 2 256 60 60 (1843200)
I0621 15:52:29.089999 11078 net.cpp:165] Memory required for data: 1625354800
I0621 15:52:29.090006 11078 layer_factory.hpp:77] Creating layer conv4_1_1x1_reduce/relu
I0621 15:52:29.090016 11078 net.cpp:106] Creating Layer conv4_1_1x1_reduce/relu
I0621 15:52:29.090020 11078 net.cpp:454] conv4_1_1x1_reduce/relu <- conv4_1_1x1_reduce
I0621 15:52:29.090030 11078 net.cpp:397] conv4_1_1x1_reduce/relu -> conv4_1_1x1_reduce (in-place)
I0621 15:52:29.090037 11078 net.cpp:150] Setting up conv4_1_1x1_reduce/relu
I0621 15:52:29.090042 11078 net.cpp:157] Top shape: 2 256 60 60 (1843200)
I0621 15:52:29.090045 11078 net.cpp:165] Memory required for data: 1632727600
I0621 15:52:29.090049 11078 layer_factory.hpp:77] Creating layer conv4_1_3x3
I0621 15:52:29.090064 11078 net.cpp:106] Creating Layer conv4_1_3x3
I0621 15:52:29.090067 11078 net.cpp:454] conv4_1_3x3 <- conv4_1_1x1_reduce
I0621 15:52:29.090073 11078 net.cpp:411] conv4_1_3x3 -> conv4_1_3x3
I0621 15:52:29.106747 11078 net.cpp:150] Setting up conv4_1_3x3
I0621 15:52:29.106813 11078 net.cpp:157] Top shape: 2 256 60 60 (1843200)
I0621 15:52:29.106818 11078 net.cpp:165] Memory required for data: 1640100400
I0621 15:52:29.106886 11078 layer_factory.hpp:77] Creating layer conv4_1_3x3/bn
I0621 15:52:29.106916 11078 net.cpp:106] Creating Layer conv4_1_3x3/bn
I0621 15:52:29.106927 11078 net.cpp:454] conv4_1_3x3/bn <- conv4_1_3x3
I0621 15:52:29.106941 11078 net.cpp:397] conv4_1_3x3/bn -> conv4_1_3x3 (in-place)
I0621 15:52:29.107183 11078 net.cpp:150] Setting up conv4_1_3x3/bn
I0621 15:52:29.107192 11078 net.cpp:157] Top shape: 2 256 60 60 (1843200)
I0621 15:52:29.107197 11078 net.cpp:165] Memory required for data: 1647473200
I0621 15:52:29.107205 11078 layer_factory.hpp:77] Creating layer conv4_1_3x3/relu
I0621 15:52:29.107218 11078 net.cpp:106] Creating Layer conv4_1_3x3/relu
I0621 15:52:29.107221 11078 net.cpp:454] conv4_1_3x3/relu <- conv4_1_3x3
I0621 15:52:29.107226 11078 net.cpp:397] conv4_1_3x3/relu -> conv4_1_3x3 (in-place)
I0621 15:52:29.107235 11078 net.cpp:150] Setting up conv4_1_3x3/relu
I0621 15:52:29.107241 11078 net.cpp:157] Top shape: 2 256 60 60 (1843200)
I0621 15:52:29.107244 11078 net.cpp:165] Memory required for data: 1654846000
I0621 15:52:29.107249 11078 layer_factory.hpp:77] Creating layer conv4_1_1x1_increase
I0621 15:52:29.107265 11078 net.cpp:106] Creating Layer conv4_1_1x1_increase
I0621 15:52:29.107270 11078 net.cpp:454] conv4_1_1x1_increase <- conv4_1_3x3
I0621 15:52:29.107278 11078 net.cpp:411] conv4_1_1x1_increase -> conv4_1_1x1_increase
I0621 15:52:29.118383 11078 net.cpp:150] Setting up conv4_1_1x1_increase
I0621 15:52:29.118446 11078 net.cpp:157] Top shape: 2 1024 60 60 (7372800)
I0621 15:52:29.118451 11078 net.cpp:165] Memory required for data: 1684337200
I0621 15:52:29.118466 11078 layer_factory.hpp:77] Creating layer conv4_1_1x1_increase/bn
I0621 15:52:29.118494 11078 net.cpp:106] Creating Layer conv4_1_1x1_increase/bn
I0621 15:52:29.118504 11078 net.cpp:454] conv4_1_1x1_increase/bn <- conv4_1_1x1_increase
I0621 15:52:29.118515 11078 net.cpp:397] conv4_1_1x1_increase/bn -> conv4_1_1x1_increase (in-place)
I0621 15:52:29.118769 11078 net.cpp:150] Setting up conv4_1_1x1_increase/bn
I0621 15:52:29.118780 11078 net.cpp:157] Top shape: 2 1024 60 60 (7372800)
I0621 15:52:29.118784 11078 net.cpp:165] Memory required for data: 1713828400
I0621 15:52:29.118794 11078 layer_factory.hpp:77] Creating layer conv4_1_1x1_proj
I0621 15:52:29.118808 11078 net.cpp:106] Creating Layer conv4_1_1x1_proj
I0621 15:52:29.118813 11078 net.cpp:454] conv4_1_1x1_proj <- conv3_4_conv3_4/relu_0_split_1
I0621 15:52:29.118824 11078 net.cpp:411] conv4_1_1x1_proj -> conv4_1_1x1_proj
I0621 15:52:29.134776 11078 net.cpp:150] Setting up conv4_1_1x1_proj
I0621 15:52:29.134800 11078 net.cpp:157] Top shape: 2 1024 60 60 (7372800)
I0621 15:52:29.134804 11078 net.cpp:165] Memory required for data: 1743319600
I0621 15:52:29.134812 11078 layer_factory.hpp:77] Creating layer conv4_1_1x1_proj/bn
I0621 15:52:29.134822 11078 net.cpp:106] Creating Layer conv4_1_1x1_proj/bn
I0621 15:52:29.134830 11078 net.cpp:454] conv4_1_1x1_proj/bn <- conv4_1_1x1_proj
I0621 15:52:29.134838 11078 net.cpp:397] conv4_1_1x1_proj/bn -> conv4_1_1x1_proj (in-place)
I0621 15:52:29.135059 11078 net.cpp:150] Setting up conv4_1_1x1_proj/bn
I0621 15:52:29.135066 11078 net.cpp:157] Top shape: 2 1024 60 60 (7372800)
I0621 15:52:29.135071 11078 net.cpp:165] Memory required for data: 1772810800
I0621 15:52:29.135078 11078 layer_factory.hpp:77] Creating layer conv4_1
I0621 15:52:29.135087 11078 net.cpp:106] Creating Layer conv4_1
I0621 15:52:29.135090 11078 net.cpp:454] conv4_1 <- conv4_1_1x1_proj
I0621 15:52:29.135094 11078 net.cpp:454] conv4_1 <- conv4_1_1x1_increase
I0621 15:52:29.135100 11078 net.cpp:411] conv4_1 -> conv4_1
I0621 15:52:29.135125 11078 net.cpp:150] Setting up conv4_1
I0621 15:52:29.135131 11078 net.cpp:157] Top shape: 2 1024 60 60 (7372800)
I0621 15:52:29.135135 11078 net.cpp:165] Memory required for data: 1802302000
I0621 15:52:29.135140 11078 layer_factory.hpp:77] Creating layer conv4_1/relu
I0621 15:52:29.135148 11078 net.cpp:106] Creating Layer conv4_1/relu
I0621 15:52:29.135151 11078 net.cpp:454] conv4_1/relu <- conv4_1
I0621 15:52:29.135157 11078 net.cpp:397] conv4_1/relu -> conv4_1 (in-place)
I0621 15:52:29.135174 11078 net.cpp:150] Setting up conv4_1/relu
I0621 15:52:29.135179 11078 net.cpp:157] Top shape: 2 1024 60 60 (7372800)
I0621 15:52:29.135184 11078 net.cpp:165] Memory required for data: 1831793200
I0621 15:52:29.135187 11078 layer_factory.hpp:77] Creating layer conv4_1_conv4_1/relu_0_split
I0621 15:52:29.135193 11078 net.cpp:106] Creating Layer conv4_1_conv4_1/relu_0_split
I0621 15:52:29.135197 11078 net.cpp:454] conv4_1_conv4_1/relu_0_split <- conv4_1
I0621 15:52:29.135203 11078 net.cpp:411] conv4_1_conv4_1/relu_0_split -> conv4_1_conv4_1/relu_0_split_0
I0621 15:52:29.135210 11078 net.cpp:411] conv4_1_conv4_1/relu_0_split -> conv4_1_conv4_1/relu_0_split_1
I0621 15:52:29.135241 11078 net.cpp:150] Setting up conv4_1_conv4_1/relu_0_split
I0621 15:52:29.135247 11078 net.cpp:157] Top shape: 2 1024 60 60 (7372800)
I0621 15:52:29.135252 11078 net.cpp:157] Top shape: 2 1024 60 60 (7372800)
I0621 15:52:29.135257 11078 net.cpp:165] Memory required for data: 1890775600
I0621 15:52:29.135260 11078 layer_factory.hpp:77] Creating layer conv4_2_1x1_reduce
I0621 15:52:29.135270 11078 net.cpp:106] Creating Layer conv4_2_1x1_reduce
I0621 15:52:29.135274 11078 net.cpp:454] conv4_2_1x1_reduce <- conv4_1_conv4_1/relu_0_split_0
I0621 15:52:29.135282 11078 net.cpp:411] conv4_2_1x1_reduce -> conv4_2_1x1_reduce
I0621 15:52:29.142858 11078 net.cpp:150] Setting up conv4_2_1x1_reduce
I0621 15:52:29.142897 11078 net.cpp:157] Top shape: 2 256 60 60 (1843200)
I0621 15:52:29.142904 11078 net.cpp:165] Memory required for data: 1898148400
I0621 15:52:29.142916 11078 layer_factory.hpp:77] Creating layer conv4_2_1x1_reduce/bn
I0621 15:52:29.142937 11078 net.cpp:106] Creating Layer conv4_2_1x1_reduce/bn
I0621 15:52:29.142945 11078 net.cpp:454] conv4_2_1x1_reduce/bn <- conv4_2_1x1_reduce
I0621 15:52:29.142956 11078 net.cpp:397] conv4_2_1x1_reduce/bn -> conv4_2_1x1_reduce (in-place)
I0621 15:52:29.143196 11078 net.cpp:150] Setting up conv4_2_1x1_reduce/bn
I0621 15:52:29.143205 11078 net.cpp:157] Top shape: 2 256 60 60 (1843200)
I0621 15:52:29.143209 11078 net.cpp:165] Memory required for data: 1905521200
I0621 15:52:29.143218 11078 layer_factory.hpp:77] Creating layer conv4_2_1x1_reduce/relu
I0621 15:52:29.143225 11078 net.cpp:106] Creating Layer conv4_2_1x1_reduce/relu
I0621 15:52:29.143229 11078 net.cpp:454] conv4_2_1x1_reduce/relu <- conv4_2_1x1_reduce
I0621 15:52:29.143234 11078 net.cpp:397] conv4_2_1x1_reduce/relu -> conv4_2_1x1_reduce (in-place)
I0621 15:52:29.143242 11078 net.cpp:150] Setting up conv4_2_1x1_reduce/relu
I0621 15:52:29.143247 11078 net.cpp:157] Top shape: 2 256 60 60 (1843200)
I0621 15:52:29.143251 11078 net.cpp:165] Memory required for data: 1912894000
I0621 15:52:29.143256 11078 layer_factory.hpp:77] Creating layer conv4_2_3x3
I0621 15:52:29.143266 11078 net.cpp:106] Creating Layer conv4_2_3x3
I0621 15:52:29.143271 11078 net.cpp:454] conv4_2_3x3 <- conv4_2_1x1_reduce
I0621 15:52:29.143277 11078 net.cpp:411] conv4_2_3x3 -> conv4_2_3x3
I0621 15:52:29.157589 11078 net.cpp:150] Setting up conv4_2_3x3
I0621 15:52:29.157615 11078 net.cpp:157] Top shape: 2 256 60 60 (1843200)
I0621 15:52:29.157618 11078 net.cpp:165] Memory required for data: 1920266800
I0621 15:52:29.157624 11078 layer_factory.hpp:77] Creating layer conv4_2_3x3/bn
I0621 15:52:29.157635 11078 net.cpp:106] Creating Layer conv4_2_3x3/bn
I0621 15:52:29.157644 11078 net.cpp:454] conv4_2_3x3/bn <- conv4_2_3x3
I0621 15:52:29.157654 11078 net.cpp:397] conv4_2_3x3/bn -> conv4_2_3x3 (in-place)
I0621 15:52:29.157810 11078 net.cpp:150] Setting up conv4_2_3x3/bn
I0621 15:52:29.157816 11078 net.cpp:157] Top shape: 2 256 60 60 (1843200)
I0621 15:52:29.157820 11078 net.cpp:165] Memory required for data: 1927639600
I0621 15:52:29.157829 11078 layer_factory.hpp:77] Creating layer conv4_2_3x3/relu
I0621 15:52:29.157836 11078 net.cpp:106] Creating Layer conv4_2_3x3/relu
I0621 15:52:29.157840 11078 net.cpp:454] conv4_2_3x3/relu <- conv4_2_3x3
I0621 15:52:29.157845 11078 net.cpp:397] conv4_2_3x3/relu -> conv4_2_3x3 (in-place)
I0621 15:52:29.157850 11078 net.cpp:150] Setting up conv4_2_3x3/relu
I0621 15:52:29.157872 11078 net.cpp:157] Top shape: 2 256 60 60 (1843200)
I0621 15:52:29.157876 11078 net.cpp:165] Memory required for data: 1935012400
I0621 15:52:29.157879 11078 layer_factory.hpp:77] Creating layer conv4_2_1x1_increase
I0621 15:52:29.157887 11078 net.cpp:106] Creating Layer conv4_2_1x1_increase
I0621 15:52:29.157891 11078 net.cpp:454] conv4_2_1x1_increase <- conv4_2_3x3
I0621 15:52:29.157898 11078 net.cpp:411] conv4_2_1x1_increase -> conv4_2_1x1_increase
I0621 15:52:29.165665 11078 net.cpp:150] Setting up conv4_2_1x1_increase
I0621 15:52:29.165732 11078 net.cpp:157] Top shape: 2 1024 60 60 (7372800)
I0621 15:52:29.165740 11078 net.cpp:165] Memory required for data: 1964503600
I0621 15:52:29.165753 11078 layer_factory.hpp:77] Creating layer conv4_2_1x1_increase/bn
I0621 15:52:29.165781 11078 net.cpp:106] Creating Layer conv4_2_1x1_increase/bn
I0621 15:52:29.165789 11078 net.cpp:454] conv4_2_1x1_increase/bn <- conv4_2_1x1_increase
I0621 15:52:29.165803 11078 net.cpp:397] conv4_2_1x1_increase/bn -> conv4_2_1x1_increase (in-place)
I0621 15:52:29.166065 11078 net.cpp:150] Setting up conv4_2_1x1_increase/bn
I0621 15:52:29.166074 11078 net.cpp:157] Top shape: 2 1024 60 60 (7372800)
I0621 15:52:29.166077 11078 net.cpp:165] Memory required for data: 1993994800
I0621 15:52:29.166087 11078 layer_factory.hpp:77] Creating layer conv4_2
I0621 15:52:29.166097 11078 net.cpp:106] Creating Layer conv4_2
I0621 15:52:29.166102 11078 net.cpp:454] conv4_2 <- conv4_1_conv4_1/relu_0_split_1
I0621 15:52:29.166107 11078 net.cpp:454] conv4_2 <- conv4_2_1x1_increase
I0621 15:52:29.166113 11078 net.cpp:411] conv4_2 -> conv4_2
I0621 15:52:29.166143 11078 net.cpp:150] Setting up conv4_2
I0621 15:52:29.166149 11078 net.cpp:157] Top shape: 2 1024 60 60 (7372800)
I0621 15:52:29.166152 11078 net.cpp:165] Memory required for data: 2023486000
I0621 15:52:29.166157 11078 layer_factory.hpp:77] Creating layer conv4_2/relu
I0621 15:52:29.166167 11078 net.cpp:106] Creating Layer conv4_2/relu
I0621 15:52:29.166170 11078 net.cpp:454] conv4_2/relu <- conv4_2
I0621 15:52:29.166177 11078 net.cpp:397] conv4_2/relu -> conv4_2 (in-place)
I0621 15:52:29.166183 11078 net.cpp:150] Setting up conv4_2/relu
I0621 15:52:29.166188 11078 net.cpp:157] Top shape: 2 1024 60 60 (7372800)
I0621 15:52:29.166193 11078 net.cpp:165] Memory required for data: 2052977200
I0621 15:52:29.166196 11078 layer_factory.hpp:77] Creating layer conv4_2_conv4_2/relu_0_split
I0621 15:52:29.166203 11078 net.cpp:106] Creating Layer conv4_2_conv4_2/relu_0_split
I0621 15:52:29.166206 11078 net.cpp:454] conv4_2_conv4_2/relu_0_split <- conv4_2
I0621 15:52:29.166213 11078 net.cpp:411] conv4_2_conv4_2/relu_0_split -> conv4_2_conv4_2/relu_0_split_0
I0621 15:52:29.166229 11078 net.cpp:411] conv4_2_conv4_2/relu_0_split -> conv4_2_conv4_2/relu_0_split_1
I0621 15:52:29.166260 11078 net.cpp:150] Setting up conv4_2_conv4_2/relu_0_split
I0621 15:52:29.166265 11078 net.cpp:157] Top shape: 2 1024 60 60 (7372800)
I0621 15:52:29.166270 11078 net.cpp:157] Top shape: 2 1024 60 60 (7372800)
I0621 15:52:29.166275 11078 net.cpp:165] Memory required for data: 2111959600
I0621 15:52:29.166278 11078 layer_factory.hpp:77] Creating layer conv4_3_1x1_reduce
I0621 15:52:29.166293 11078 net.cpp:106] Creating Layer conv4_3_1x1_reduce
I0621 15:52:29.166298 11078 net.cpp:454] conv4_3_1x1_reduce <- conv4_2_conv4_2/relu_0_split_0
I0621 15:52:29.166306 11078 net.cpp:411] conv4_3_1x1_reduce -> conv4_3_1x1_reduce
I0621 15:52:29.174803 11078 net.cpp:150] Setting up conv4_3_1x1_reduce
I0621 15:52:29.174876 11078 net.cpp:157] Top shape: 2 256 60 60 (1843200)
I0621 15:52:29.174883 11078 net.cpp:165] Memory required for data: 2119332400
I0621 15:52:29.174901 11078 layer_factory.hpp:77] Creating layer conv4_3_1x1_reduce/bn
I0621 15:52:29.174928 11078 net.cpp:106] Creating Layer conv4_3_1x1_reduce/bn
I0621 15:52:29.174939 11078 net.cpp:454] conv4_3_1x1_reduce/bn <- conv4_3_1x1_reduce
I0621 15:52:29.174955 11078 net.cpp:397] conv4_3_1x1_reduce/bn -> conv4_3_1x1_reduce (in-place)
I0621 15:52:29.175282 11078 net.cpp:150] Setting up conv4_3_1x1_reduce/bn
I0621 15:52:29.175292 11078 net.cpp:157] Top shape: 2 256 60 60 (1843200)
I0621 15:52:29.175297 11078 net.cpp:165] Memory required for data: 2126705200
I0621 15:52:29.175307 11078 layer_factory.hpp:77] Creating layer conv4_3_1x1_reduce/relu
I0621 15:52:29.175319 11078 net.cpp:106] Creating Layer conv4_3_1x1_reduce/relu
I0621 15:52:29.175324 11078 net.cpp:454] conv4_3_1x1_reduce/relu <- conv4_3_1x1_reduce
I0621 15:52:29.175333 11078 net.cpp:397] conv4_3_1x1_reduce/relu -> conv4_3_1x1_reduce (in-place)
I0621 15:52:29.175341 11078 net.cpp:150] Setting up conv4_3_1x1_reduce/relu
I0621 15:52:29.175348 11078 net.cpp:157] Top shape: 2 256 60 60 (1843200)
I0621 15:52:29.175351 11078 net.cpp:165] Memory required for data: 2134078000
I0621 15:52:29.175355 11078 layer_factory.hpp:77] Creating layer conv4_3_3x3
I0621 15:52:29.175369 11078 net.cpp:106] Creating Layer conv4_3_3x3
I0621 15:52:29.175374 11078 net.cpp:454] conv4_3_3x3 <- conv4_3_1x1_reduce
I0621 15:52:29.175380 11078 net.cpp:411] conv4_3_3x3 -> conv4_3_3x3
I0621 15:52:29.190346 11078 net.cpp:150] Setting up conv4_3_3x3
I0621 15:52:29.190368 11078 net.cpp:157] Top shape: 2 256 60 60 (1843200)
I0621 15:52:29.190371 11078 net.cpp:165] Memory required for data: 2141450800
I0621 15:52:29.190378 11078 layer_factory.hpp:77] Creating layer conv4_3_3x3/bn
I0621 15:52:29.190394 11078 net.cpp:106] Creating Layer conv4_3_3x3/bn
I0621 15:52:29.190402 11078 net.cpp:454] conv4_3_3x3/bn <- conv4_3_3x3
I0621 15:52:29.190407 11078 net.cpp:397] conv4_3_3x3/bn -> conv4_3_3x3 (in-place)
I0621 15:52:29.190556 11078 net.cpp:150] Setting up conv4_3_3x3/bn
I0621 15:52:29.190560 11078 net.cpp:157] Top shape: 2 256 60 60 (1843200)
I0621 15:52:29.190562 11078 net.cpp:165] Memory required for data: 2148823600
I0621 15:52:29.190567 11078 layer_factory.hpp:77] Creating layer conv4_3_3x3/relu
I0621 15:52:29.190572 11078 net.cpp:106] Creating Layer conv4_3_3x3/relu
I0621 15:52:29.190573 11078 net.cpp:454] conv4_3_3x3/relu <- conv4_3_3x3
I0621 15:52:29.190577 11078 net.cpp:397] conv4_3_3x3/relu -> conv4_3_3x3 (in-place)
I0621 15:52:29.190580 11078 net.cpp:150] Setting up conv4_3_3x3/relu
I0621 15:52:29.190582 11078 net.cpp:157] Top shape: 2 256 60 60 (1843200)
I0621 15:52:29.190584 11078 net.cpp:165] Memory required for data: 2156196400
I0621 15:52:29.190587 11078 layer_factory.hpp:77] Creating layer conv4_3_1x1_increase
I0621 15:52:29.190593 11078 net.cpp:106] Creating Layer conv4_3_1x1_increase
I0621 15:52:29.190595 11078 net.cpp:454] conv4_3_1x1_increase <- conv4_3_3x3
I0621 15:52:29.190599 11078 net.cpp:411] conv4_3_1x1_increase -> conv4_3_1x1_increase
I0621 15:52:29.196857 11078 net.cpp:150] Setting up conv4_3_1x1_increase
I0621 15:52:29.196868 11078 net.cpp:157] Top shape: 2 1024 60 60 (7372800)
I0621 15:52:29.196871 11078 net.cpp:165] Memory required for data: 2185687600
I0621 15:52:29.196874 11078 layer_factory.hpp:77] Creating layer conv4_3_1x1_increase/bn
I0621 15:52:29.196882 11078 net.cpp:106] Creating Layer conv4_3_1x1_increase/bn
I0621 15:52:29.196884 11078 net.cpp:454] conv4_3_1x1_increase/bn <- conv4_3_1x1_increase
I0621 15:52:29.196890 11078 net.cpp:397] conv4_3_1x1_increase/bn -> conv4_3_1x1_increase (in-place)
I0621 15:52:29.197037 11078 net.cpp:150] Setting up conv4_3_1x1_increase/bn
I0621 15:52:29.197041 11078 net.cpp:157] Top shape: 2 1024 60 60 (7372800)
I0621 15:52:29.197043 11078 net.cpp:165] Memory required for data: 2215178800
I0621 15:52:29.197048 11078 layer_factory.hpp:77] Creating layer conv4_3
I0621 15:52:29.197052 11078 net.cpp:106] Creating Layer conv4_3
I0621 15:52:29.197055 11078 net.cpp:454] conv4_3 <- conv4_2_conv4_2/relu_0_split_1
I0621 15:52:29.197058 11078 net.cpp:454] conv4_3 <- conv4_3_1x1_increase
I0621 15:52:29.197062 11078 net.cpp:411] conv4_3 -> conv4_3
I0621 15:52:29.197077 11078 net.cpp:150] Setting up conv4_3
I0621 15:52:29.197082 11078 net.cpp:157] Top shape: 2 1024 60 60 (7372800)
I0621 15:52:29.197083 11078 net.cpp:165] Memory required for data: 2244670000
I0621 15:52:29.197085 11078 layer_factory.hpp:77] Creating layer conv4_3/relu
I0621 15:52:29.197103 11078 net.cpp:106] Creating Layer conv4_3/relu
I0621 15:52:29.197108 11078 net.cpp:454] conv4_3/relu <- conv4_3
I0621 15:52:29.197109 11078 net.cpp:397] conv4_3/relu -> conv4_3 (in-place)
I0621 15:52:29.197113 11078 net.cpp:150] Setting up conv4_3/relu
I0621 15:52:29.197119 11078 net.cpp:157] Top shape: 2 1024 60 60 (7372800)
I0621 15:52:29.197124 11078 net.cpp:165] Memory required for data: 2274161200
I0621 15:52:29.197127 11078 layer_factory.hpp:77] Creating layer conv4_3_conv4_3/relu_0_split
I0621 15:52:29.197134 11078 net.cpp:106] Creating Layer conv4_3_conv4_3/relu_0_split
I0621 15:52:29.197136 11078 net.cpp:454] conv4_3_conv4_3/relu_0_split <- conv4_3
I0621 15:52:29.197141 11078 net.cpp:411] conv4_3_conv4_3/relu_0_split -> conv4_3_conv4_3/relu_0_split_0
I0621 15:52:29.197149 11078 net.cpp:411] conv4_3_conv4_3/relu_0_split -> conv4_3_conv4_3/relu_0_split_1
I0621 15:52:29.197173 11078 net.cpp:150] Setting up conv4_3_conv4_3/relu_0_split
I0621 15:52:29.197178 11078 net.cpp:157] Top shape: 2 1024 60 60 (7372800)
I0621 15:52:29.197183 11078 net.cpp:157] Top shape: 2 1024 60 60 (7372800)
I0621 15:52:29.197186 11078 net.cpp:165] Memory required for data: 2333143600
I0621 15:52:29.197190 11078 layer_factory.hpp:77] Creating layer conv4_4_1x1_reduce
I0621 15:52:29.197206 11078 net.cpp:106] Creating Layer conv4_4_1x1_reduce
I0621 15:52:29.197211 11078 net.cpp:454] conv4_4_1x1_reduce <- conv4_3_conv4_3/relu_0_split_0
I0621 15:52:29.197216 11078 net.cpp:411] conv4_4_1x1_reduce -> conv4_4_1x1_reduce
I0621 15:52:29.202739 11078 net.cpp:150] Setting up conv4_4_1x1_reduce
I0621 15:52:29.202747 11078 net.cpp:157] Top shape: 2 256 60 60 (1843200)
I0621 15:52:29.202751 11078 net.cpp:165] Memory required for data: 2340516400
I0621 15:52:29.202756 11078 layer_factory.hpp:77] Creating layer conv4_4_1x1_reduce/bn
I0621 15:52:29.202762 11078 net.cpp:106] Creating Layer conv4_4_1x1_reduce/bn
I0621 15:52:29.202766 11078 net.cpp:454] conv4_4_1x1_reduce/bn <- conv4_4_1x1_reduce
I0621 15:52:29.202771 11078 net.cpp:397] conv4_4_1x1_reduce/bn -> conv4_4_1x1_reduce (in-place)
I0621 15:52:29.202898 11078 net.cpp:150] Setting up conv4_4_1x1_reduce/bn
I0621 15:52:29.202904 11078 net.cpp:157] Top shape: 2 256 60 60 (1843200)
I0621 15:52:29.202908 11078 net.cpp:165] Memory required for data: 2347889200
I0621 15:52:29.202915 11078 layer_factory.hpp:77] Creating layer conv4_4_1x1_reduce/relu
I0621 15:52:29.202920 11078 net.cpp:106] Creating Layer conv4_4_1x1_reduce/relu
I0621 15:52:29.202924 11078 net.cpp:454] conv4_4_1x1_reduce/relu <- conv4_4_1x1_reduce
I0621 15:52:29.202929 11078 net.cpp:397] conv4_4_1x1_reduce/relu -> conv4_4_1x1_reduce (in-place)
I0621 15:52:29.202934 11078 net.cpp:150] Setting up conv4_4_1x1_reduce/relu
I0621 15:52:29.202939 11078 net.cpp:157] Top shape: 2 256 60 60 (1843200)
I0621 15:52:29.202941 11078 net.cpp:165] Memory required for data: 2355262000
I0621 15:52:29.202945 11078 layer_factory.hpp:77] Creating layer conv4_4_3x3
I0621 15:52:29.202955 11078 net.cpp:106] Creating Layer conv4_4_3x3
I0621 15:52:29.202958 11078 net.cpp:454] conv4_4_3x3 <- conv4_4_1x1_reduce
I0621 15:52:29.202965 11078 net.cpp:411] conv4_4_3x3 -> conv4_4_3x3
I0621 15:52:29.217900 11078 net.cpp:150] Setting up conv4_4_3x3
I0621 15:52:29.217964 11078 net.cpp:157] Top shape: 2 256 60 60 (1843200)
I0621 15:52:29.217969 11078 net.cpp:165] Memory required for data: 2362634800
I0621 15:52:29.217984 11078 layer_factory.hpp:77] Creating layer conv4_4_3x3/bn
I0621 15:52:29.218024 11078 net.cpp:106] Creating Layer conv4_4_3x3/bn
I0621 15:52:29.218035 11078 net.cpp:454] conv4_4_3x3/bn <- conv4_4_3x3
I0621 15:52:29.218046 11078 net.cpp:397] conv4_4_3x3/bn -> conv4_4_3x3 (in-place)
I0621 15:52:29.218305 11078 net.cpp:150] Setting up conv4_4_3x3/bn
I0621 15:52:29.218317 11078 net.cpp:157] Top shape: 2 256 60 60 (1843200)
I0621 15:52:29.218320 11078 net.cpp:165] Memory required for data: 2370007600
I0621 15:52:29.218330 11078 layer_factory.hpp:77] Creating layer conv4_4_3x3/relu
I0621 15:52:29.218384 11078 net.cpp:106] Creating Layer conv4_4_3x3/relu
I0621 15:52:29.218389 11078 net.cpp:454] conv4_4_3x3/relu <- conv4_4_3x3
I0621 15:52:29.218395 11078 net.cpp:397] conv4_4_3x3/relu -> conv4_4_3x3 (in-place)
I0621 15:52:29.218405 11078 net.cpp:150] Setting up conv4_4_3x3/relu
I0621 15:52:29.218410 11078 net.cpp:157] Top shape: 2 256 60 60 (1843200)
I0621 15:52:29.218415 11078 net.cpp:165] Memory required for data: 2377380400
I0621 15:52:29.218420 11078 layer_factory.hpp:77] Creating layer conv4_4_1x1_increase
I0621 15:52:29.218431 11078 net.cpp:106] Creating Layer conv4_4_1x1_increase
I0621 15:52:29.218436 11078 net.cpp:454] conv4_4_1x1_increase <- conv4_4_3x3
I0621 15:52:29.218443 11078 net.cpp:411] conv4_4_1x1_increase -> conv4_4_1x1_increase
I0621 15:52:29.227963 11078 net.cpp:150] Setting up conv4_4_1x1_increase
I0621 15:52:29.227990 11078 net.cpp:157] Top shape: 2 1024 60 60 (7372800)
I0621 15:52:29.227994 11078 net.cpp:165] Memory required for data: 2406871600
I0621 15:52:29.228003 11078 layer_factory.hpp:77] Creating layer conv4_4_1x1_increase/bn
I0621 15:52:29.228013 11078 net.cpp:106] Creating Layer conv4_4_1x1_increase/bn
I0621 15:52:29.228019 11078 net.cpp:454] conv4_4_1x1_increase/bn <- conv4_4_1x1_increase
I0621 15:52:29.228026 11078 net.cpp:397] conv4_4_1x1_increase/bn -> conv4_4_1x1_increase (in-place)
I0621 15:52:29.228220 11078 net.cpp:150] Setting up conv4_4_1x1_increase/bn
I0621 15:52:29.228227 11078 net.cpp:157] Top shape: 2 1024 60 60 (7372800)
I0621 15:52:29.228230 11078 net.cpp:165] Memory required for data: 2436362800
I0621 15:52:29.228238 11078 layer_factory.hpp:77] Creating layer conv4_4
I0621 15:52:29.228245 11078 net.cpp:106] Creating Layer conv4_4
I0621 15:52:29.228248 11078 net.cpp:454] conv4_4 <- conv4_3_conv4_3/relu_0_split_1
I0621 15:52:29.228252 11078 net.cpp:454] conv4_4 <- conv4_4_1x1_increase
I0621 15:52:29.228257 11078 net.cpp:411] conv4_4 -> conv4_4
I0621 15:52:29.228278 11078 net.cpp:150] Setting up conv4_4
I0621 15:52:29.228283 11078 net.cpp:157] Top shape: 2 1024 60 60 (7372800)
I0621 15:52:29.228286 11078 net.cpp:165] Memory required for data: 2465854000
I0621 15:52:29.228289 11078 layer_factory.hpp:77] Creating layer conv4_4/relu
I0621 15:52:29.228296 11078 net.cpp:106] Creating Layer conv4_4/relu
I0621 15:52:29.228299 11078 net.cpp:454] conv4_4/relu <- conv4_4
I0621 15:52:29.228304 11078 net.cpp:397] conv4_4/relu -> conv4_4 (in-place)
I0621 15:52:29.228312 11078 net.cpp:150] Setting up conv4_4/relu
I0621 15:52:29.228317 11078 net.cpp:157] Top shape: 2 1024 60 60 (7372800)
I0621 15:52:29.228319 11078 net.cpp:165] Memory required for data: 2495345200
I0621 15:52:29.228323 11078 layer_factory.hpp:77] Creating layer conv4_4_conv4_4/relu_0_split
I0621 15:52:29.228329 11078 net.cpp:106] Creating Layer conv4_4_conv4_4/relu_0_split
I0621 15:52:29.228332 11078 net.cpp:454] conv4_4_conv4_4/relu_0_split <- conv4_4
I0621 15:52:29.228338 11078 net.cpp:411] conv4_4_conv4_4/relu_0_split -> conv4_4_conv4_4/relu_0_split_0
I0621 15:52:29.228343 11078 net.cpp:411] conv4_4_conv4_4/relu_0_split -> conv4_4_conv4_4/relu_0_split_1
I0621 15:52:29.228365 11078 net.cpp:150] Setting up conv4_4_conv4_4/relu_0_split
I0621 15:52:29.228370 11078 net.cpp:157] Top shape: 2 1024 60 60 (7372800)
I0621 15:52:29.228374 11078 net.cpp:157] Top shape: 2 1024 60 60 (7372800)
I0621 15:52:29.228377 11078 net.cpp:165] Memory required for data: 2554327600
I0621 15:52:29.228381 11078 layer_factory.hpp:77] Creating layer conv4_5_1x1_reduce
I0621 15:52:29.228389 11078 net.cpp:106] Creating Layer conv4_5_1x1_reduce
I0621 15:52:29.228392 11078 net.cpp:454] conv4_5_1x1_reduce <- conv4_4_conv4_4/relu_0_split_0
I0621 15:52:29.228399 11078 net.cpp:411] conv4_5_1x1_reduce -> conv4_5_1x1_reduce
I0621 15:52:29.234086 11078 net.cpp:150] Setting up conv4_5_1x1_reduce
I0621 15:52:29.234093 11078 net.cpp:157] Top shape: 2 256 60 60 (1843200)
I0621 15:52:29.234097 11078 net.cpp:165] Memory required for data: 2561700400
I0621 15:52:29.234102 11078 layer_factory.hpp:77] Creating layer conv4_5_1x1_reduce/bn
I0621 15:52:29.234108 11078 net.cpp:106] Creating Layer conv4_5_1x1_reduce/bn
I0621 15:52:29.234130 11078 net.cpp:454] conv4_5_1x1_reduce/bn <- conv4_5_1x1_reduce
I0621 15:52:29.234136 11078 net.cpp:397] conv4_5_1x1_reduce/bn -> conv4_5_1x1_reduce (in-place)
I0621 15:52:29.234287 11078 net.cpp:150] Setting up conv4_5_1x1_reduce/bn
I0621 15:52:29.234292 11078 net.cpp:157] Top shape: 2 256 60 60 (1843200)
I0621 15:52:29.234297 11078 net.cpp:165] Memory required for data: 2569073200
I0621 15:52:29.234304 11078 layer_factory.hpp:77] Creating layer conv4_5_1x1_reduce/relu
I0621 15:52:29.234309 11078 net.cpp:106] Creating Layer conv4_5_1x1_reduce/relu
I0621 15:52:29.234313 11078 net.cpp:454] conv4_5_1x1_reduce/relu <- conv4_5_1x1_reduce
I0621 15:52:29.234318 11078 net.cpp:397] conv4_5_1x1_reduce/relu -> conv4_5_1x1_reduce (in-place)
I0621 15:52:29.234323 11078 net.cpp:150] Setting up conv4_5_1x1_reduce/relu
I0621 15:52:29.234328 11078 net.cpp:157] Top shape: 2 256 60 60 (1843200)
I0621 15:52:29.234330 11078 net.cpp:165] Memory required for data: 2576446000
I0621 15:52:29.234335 11078 layer_factory.hpp:77] Creating layer conv4_5_3x3
I0621 15:52:29.234344 11078 net.cpp:106] Creating Layer conv4_5_3x3
I0621 15:52:29.234346 11078 net.cpp:454] conv4_5_3x3 <- conv4_5_1x1_reduce
I0621 15:52:29.234351 11078 net.cpp:411] conv4_5_3x3 -> conv4_5_3x3
I0621 15:52:29.247431 11078 net.cpp:150] Setting up conv4_5_3x3
I0621 15:52:29.247449 11078 net.cpp:157] Top shape: 2 256 60 60 (1843200)
I0621 15:52:29.247453 11078 net.cpp:165] Memory required for data: 2583818800
I0621 15:52:29.247460 11078 layer_factory.hpp:77] Creating layer conv4_5_3x3/bn
I0621 15:52:29.247470 11078 net.cpp:106] Creating Layer conv4_5_3x3/bn
I0621 15:52:29.247475 11078 net.cpp:454] conv4_5_3x3/bn <- conv4_5_3x3
I0621 15:52:29.247481 11078 net.cpp:397] conv4_5_3x3/bn -> conv4_5_3x3 (in-place)
I0621 15:52:29.247628 11078 net.cpp:150] Setting up conv4_5_3x3/bn
I0621 15:52:29.247634 11078 net.cpp:157] Top shape: 2 256 60 60 (1843200)
I0621 15:52:29.247637 11078 net.cpp:165] Memory required for data: 2591191600
I0621 15:52:29.247644 11078 layer_factory.hpp:77] Creating layer conv4_5_3x3/relu
I0621 15:52:29.247650 11078 net.cpp:106] Creating Layer conv4_5_3x3/relu
I0621 15:52:29.247653 11078 net.cpp:454] conv4_5_3x3/relu <- conv4_5_3x3
I0621 15:52:29.247658 11078 net.cpp:397] conv4_5_3x3/relu -> conv4_5_3x3 (in-place)
I0621 15:52:29.247663 11078 net.cpp:150] Setting up conv4_5_3x3/relu
I0621 15:52:29.247668 11078 net.cpp:157] Top shape: 2 256 60 60 (1843200)
I0621 15:52:29.247671 11078 net.cpp:165] Memory required for data: 2598564400
I0621 15:52:29.247674 11078 layer_factory.hpp:77] Creating layer conv4_5_1x1_increase
I0621 15:52:29.247684 11078 net.cpp:106] Creating Layer conv4_5_1x1_increase
I0621 15:52:29.247686 11078 net.cpp:454] conv4_5_1x1_increase <- conv4_5_3x3
I0621 15:52:29.247694 11078 net.cpp:411] conv4_5_1x1_increase -> conv4_5_1x1_increase
I0621 15:52:29.254068 11078 net.cpp:150] Setting up conv4_5_1x1_increase
I0621 15:52:29.254084 11078 net.cpp:157] Top shape: 2 1024 60 60 (7372800)
I0621 15:52:29.254087 11078 net.cpp:165] Memory required for data: 2628055600
I0621 15:52:29.254094 11078 layer_factory.hpp:77] Creating layer conv4_5_1x1_increase/bn
I0621 15:52:29.254106 11078 net.cpp:106] Creating Layer conv4_5_1x1_increase/bn
I0621 15:52:29.254112 11078 net.cpp:454] conv4_5_1x1_increase/bn <- conv4_5_1x1_increase
I0621 15:52:29.254117 11078 net.cpp:397] conv4_5_1x1_increase/bn -> conv4_5_1x1_increase (in-place)
I0621 15:52:29.254297 11078 net.cpp:150] Setting up conv4_5_1x1_increase/bn
I0621 15:52:29.254303 11078 net.cpp:157] Top shape: 2 1024 60 60 (7372800)
I0621 15:52:29.254310 11078 net.cpp:165] Memory required for data: 2657546800
I0621 15:52:29.254320 11078 layer_factory.hpp:77] Creating layer conv4_5
I0621 15:52:29.254334 11078 net.cpp:106] Creating Layer conv4_5
I0621 15:52:29.254338 11078 net.cpp:454] conv4_5 <- conv4_4_conv4_4/relu_0_split_1
I0621 15:52:29.254343 11078 net.cpp:454] conv4_5 <- conv4_5_1x1_increase
I0621 15:52:29.254348 11078 net.cpp:411] conv4_5 -> conv4_5
I0621 15:52:29.254415 11078 net.cpp:150] Setting up conv4_5
I0621 15:52:29.254418 11078 net.cpp:157] Top shape: 2 1024 60 60 (7372800)
I0621 15:52:29.254421 11078 net.cpp:165] Memory required for data: 2687038000
I0621 15:52:29.254425 11078 layer_factory.hpp:77] Creating layer conv4_5/relu
I0621 15:52:29.254432 11078 net.cpp:106] Creating Layer conv4_5/relu
I0621 15:52:29.254434 11078 net.cpp:454] conv4_5/relu <- conv4_5
I0621 15:52:29.254438 11078 net.cpp:397] conv4_5/relu -> conv4_5 (in-place)
I0621 15:52:29.254443 11078 net.cpp:150] Setting up conv4_5/relu
I0621 15:52:29.254446 11078 net.cpp:157] Top shape: 2 1024 60 60 (7372800)
I0621 15:52:29.254449 11078 net.cpp:165] Memory required for data: 2716529200
I0621 15:52:29.254452 11078 layer_factory.hpp:77] Creating layer conv4_5_conv4_5/relu_0_split
I0621 15:52:29.254458 11078 net.cpp:106] Creating Layer conv4_5_conv4_5/relu_0_split
I0621 15:52:29.254461 11078 net.cpp:454] conv4_5_conv4_5/relu_0_split <- conv4_5
I0621 15:52:29.254464 11078 net.cpp:411] conv4_5_conv4_5/relu_0_split -> conv4_5_conv4_5/relu_0_split_0
I0621 15:52:29.254468 11078 net.cpp:411] conv4_5_conv4_5/relu_0_split -> conv4_5_conv4_5/relu_0_split_1
I0621 15:52:29.254495 11078 net.cpp:150] Setting up conv4_5_conv4_5/relu_0_split
I0621 15:52:29.254499 11078 net.cpp:157] Top shape: 2 1024 60 60 (7372800)
I0621 15:52:29.254503 11078 net.cpp:157] Top shape: 2 1024 60 60 (7372800)
I0621 15:52:29.254504 11078 net.cpp:165] Memory required for data: 2775511600
I0621 15:52:29.254508 11078 layer_factory.hpp:77] Creating layer conv4_6_1x1_reduce
I0621 15:52:29.254525 11078 net.cpp:106] Creating Layer conv4_6_1x1_reduce
I0621 15:52:29.254528 11078 net.cpp:454] conv4_6_1x1_reduce <- conv4_5_conv4_5/relu_0_split_0
I0621 15:52:29.254534 11078 net.cpp:411] conv4_6_1x1_reduce -> conv4_6_1x1_reduce
I0621 15:52:29.260303 11078 net.cpp:150] Setting up conv4_6_1x1_reduce
I0621 15:52:29.260323 11078 net.cpp:157] Top shape: 2 256 60 60 (1843200)
I0621 15:52:29.260326 11078 net.cpp:165] Memory required for data: 2782884400
I0621 15:52:29.260336 11078 layer_factory.hpp:77] Creating layer conv4_6_1x1_reduce/bn
I0621 15:52:29.260351 11078 net.cpp:106] Creating Layer conv4_6_1x1_reduce/bn
I0621 15:52:29.260360 11078 net.cpp:454] conv4_6_1x1_reduce/bn <- conv4_6_1x1_reduce
I0621 15:52:29.260370 11078 net.cpp:397] conv4_6_1x1_reduce/bn -> conv4_6_1x1_reduce (in-place)
I0621 15:52:29.260552 11078 net.cpp:150] Setting up conv4_6_1x1_reduce/bn
I0621 15:52:29.260558 11078 net.cpp:157] Top shape: 2 256 60 60 (1843200)
I0621 15:52:29.260560 11078 net.cpp:165] Memory required for data: 2790257200
I0621 15:52:29.260566 11078 layer_factory.hpp:77] Creating layer conv4_6_1x1_reduce/relu
I0621 15:52:29.260571 11078 net.cpp:106] Creating Layer conv4_6_1x1_reduce/relu
I0621 15:52:29.260574 11078 net.cpp:454] conv4_6_1x1_reduce/relu <- conv4_6_1x1_reduce
I0621 15:52:29.260577 11078 net.cpp:397] conv4_6_1x1_reduce/relu -> conv4_6_1x1_reduce (in-place)
I0621 15:52:29.260582 11078 net.cpp:150] Setting up conv4_6_1x1_reduce/relu
I0621 15:52:29.260586 11078 net.cpp:157] Top shape: 2 256 60 60 (1843200)
I0621 15:52:29.260592 11078 net.cpp:165] Memory required for data: 2797630000
I0621 15:52:29.260596 11078 layer_factory.hpp:77] Creating layer conv4_6_3x3
I0621 15:52:29.260606 11078 net.cpp:106] Creating Layer conv4_6_3x3
I0621 15:52:29.260608 11078 net.cpp:454] conv4_6_3x3 <- conv4_6_1x1_reduce
I0621 15:52:29.260612 11078 net.cpp:411] conv4_6_3x3 -> conv4_6_3x3
I0621 15:52:29.278496 11078 net.cpp:150] Setting up conv4_6_3x3
I0621 15:52:29.278524 11078 net.cpp:157] Top shape: 2 256 60 60 (1843200)
I0621 15:52:29.278528 11078 net.cpp:165] Memory required for data: 2805002800
I0621 15:52:29.278537 11078 layer_factory.hpp:77] Creating layer conv4_6_3x3/bn
I0621 15:52:29.278553 11078 net.cpp:106] Creating Layer conv4_6_3x3/bn
I0621 15:52:29.278563 11078 net.cpp:454] conv4_6_3x3/bn <- conv4_6_3x3
I0621 15:52:29.278569 11078 net.cpp:397] conv4_6_3x3/bn -> conv4_6_3x3 (in-place)
I0621 15:52:29.278738 11078 net.cpp:150] Setting up conv4_6_3x3/bn
I0621 15:52:29.278743 11078 net.cpp:157] Top shape: 2 256 60 60 (1843200)
I0621 15:52:29.278762 11078 net.cpp:165] Memory required for data: 2812375600
I0621 15:52:29.278769 11078 layer_factory.hpp:77] Creating layer conv4_6_3x3/relu
I0621 15:52:29.278774 11078 net.cpp:106] Creating Layer conv4_6_3x3/relu
I0621 15:52:29.278776 11078 net.cpp:454] conv4_6_3x3/relu <- conv4_6_3x3
I0621 15:52:29.278779 11078 net.cpp:397] conv4_6_3x3/relu -> conv4_6_3x3 (in-place)
I0621 15:52:29.278784 11078 net.cpp:150] Setting up conv4_6_3x3/relu
I0621 15:52:29.278787 11078 net.cpp:157] Top shape: 2 256 60 60 (1843200)
I0621 15:52:29.278790 11078 net.cpp:165] Memory required for data: 2819748400
I0621 15:52:29.278794 11078 layer_factory.hpp:77] Creating layer conv4_6_1x1_increase
I0621 15:52:29.278800 11078 net.cpp:106] Creating Layer conv4_6_1x1_increase
I0621 15:52:29.278802 11078 net.cpp:454] conv4_6_1x1_increase <- conv4_6_3x3
I0621 15:52:29.278807 11078 net.cpp:411] conv4_6_1x1_increase -> conv4_6_1x1_increase
I0621 15:52:29.285181 11078 net.cpp:150] Setting up conv4_6_1x1_increase
I0621 15:52:29.285195 11078 net.cpp:157] Top shape: 2 1024 60 60 (7372800)
I0621 15:52:29.285198 11078 net.cpp:165] Memory required for data: 2849239600
I0621 15:52:29.285204 11078 layer_factory.hpp:77] Creating layer conv4_6_1x1_increase/bn
I0621 15:52:29.285213 11078 net.cpp:106] Creating Layer conv4_6_1x1_increase/bn
I0621 15:52:29.285218 11078 net.cpp:454] conv4_6_1x1_increase/bn <- conv4_6_1x1_increase
I0621 15:52:29.285221 11078 net.cpp:397] conv4_6_1x1_increase/bn -> conv4_6_1x1_increase (in-place)
I0621 15:52:29.285369 11078 net.cpp:150] Setting up conv4_6_1x1_increase/bn
I0621 15:52:29.285373 11078 net.cpp:157] Top shape: 2 1024 60 60 (7372800)
I0621 15:52:29.285377 11078 net.cpp:165] Memory required for data: 2878730800
I0621 15:52:29.285382 11078 layer_factory.hpp:77] Creating layer conv4_6
I0621 15:52:29.285387 11078 net.cpp:106] Creating Layer conv4_6
I0621 15:52:29.285390 11078 net.cpp:454] conv4_6 <- conv4_5_conv4_5/relu_0_split_1
I0621 15:52:29.285393 11078 net.cpp:454] conv4_6 <- conv4_6_1x1_increase
I0621 15:52:29.285398 11078 net.cpp:411] conv4_6 -> conv4_6
I0621 15:52:29.285418 11078 net.cpp:150] Setting up conv4_6
I0621 15:52:29.285423 11078 net.cpp:157] Top shape: 2 1024 60 60 (7372800)
I0621 15:52:29.285425 11078 net.cpp:165] Memory required for data: 2908222000
I0621 15:52:29.285428 11078 layer_factory.hpp:77] Creating layer conv4_6/relu
I0621 15:52:29.285432 11078 net.cpp:106] Creating Layer conv4_6/relu
I0621 15:52:29.285434 11078 net.cpp:454] conv4_6/relu <- conv4_6
I0621 15:52:29.285439 11078 net.cpp:397] conv4_6/relu -> conv4_6 (in-place)
I0621 15:52:29.285442 11078 net.cpp:150] Setting up conv4_6/relu
I0621 15:52:29.285446 11078 net.cpp:157] Top shape: 2 1024 60 60 (7372800)
I0621 15:52:29.285449 11078 net.cpp:165] Memory required for data: 2937713200
I0621 15:52:29.285451 11078 layer_factory.hpp:77] Creating layer conv4_6_conv4_6/relu_0_split
I0621 15:52:29.285455 11078 net.cpp:106] Creating Layer conv4_6_conv4_6/relu_0_split
I0621 15:52:29.285459 11078 net.cpp:454] conv4_6_conv4_6/relu_0_split <- conv4_6
I0621 15:52:29.285461 11078 net.cpp:411] conv4_6_conv4_6/relu_0_split -> conv4_6_conv4_6/relu_0_split_0
I0621 15:52:29.285465 11078 net.cpp:411] conv4_6_conv4_6/relu_0_split -> conv4_6_conv4_6/relu_0_split_1
I0621 15:52:29.285488 11078 net.cpp:150] Setting up conv4_6_conv4_6/relu_0_split
I0621 15:52:29.285492 11078 net.cpp:157] Top shape: 2 1024 60 60 (7372800)
I0621 15:52:29.285495 11078 net.cpp:157] Top shape: 2 1024 60 60 (7372800)
I0621 15:52:29.285498 11078 net.cpp:165] Memory required for data: 2996695600
I0621 15:52:29.285501 11078 layer_factory.hpp:77] Creating layer conv4_7_1x1_reduce
I0621 15:52:29.285506 11078 net.cpp:106] Creating Layer conv4_7_1x1_reduce
I0621 15:52:29.285509 11078 net.cpp:454] conv4_7_1x1_reduce <- conv4_6_conv4_6/relu_0_split_0
I0621 15:52:29.285514 11078 net.cpp:411] conv4_7_1x1_reduce -> conv4_7_1x1_reduce
I0621 15:52:29.291071 11078 net.cpp:150] Setting up conv4_7_1x1_reduce
I0621 15:52:29.291080 11078 net.cpp:157] Top shape: 2 256 60 60 (1843200)
I0621 15:52:29.291097 11078 net.cpp:165] Memory required for data: 3004068400
I0621 15:52:29.291101 11078 layer_factory.hpp:77] Creating layer conv4_7_1x1_reduce/bn
I0621 15:52:29.291107 11078 net.cpp:106] Creating Layer conv4_7_1x1_reduce/bn
I0621 15:52:29.291111 11078 net.cpp:454] conv4_7_1x1_reduce/bn <- conv4_7_1x1_reduce
I0621 15:52:29.291116 11078 net.cpp:397] conv4_7_1x1_reduce/bn -> conv4_7_1x1_reduce (in-place)
I0621 15:52:29.291257 11078 net.cpp:150] Setting up conv4_7_1x1_reduce/bn
I0621 15:52:29.291261 11078 net.cpp:157] Top shape: 2 256 60 60 (1843200)
I0621 15:52:29.291263 11078 net.cpp:165] Memory required for data: 3011441200
I0621 15:52:29.291268 11078 layer_factory.hpp:77] Creating layer conv4_7_1x1_reduce/relu
I0621 15:52:29.291272 11078 net.cpp:106] Creating Layer conv4_7_1x1_reduce/relu
I0621 15:52:29.291275 11078 net.cpp:454] conv4_7_1x1_reduce/relu <- conv4_7_1x1_reduce
I0621 15:52:29.291277 11078 net.cpp:397] conv4_7_1x1_reduce/relu -> conv4_7_1x1_reduce (in-place)
I0621 15:52:29.291281 11078 net.cpp:150] Setting up conv4_7_1x1_reduce/relu
I0621 15:52:29.291285 11078 net.cpp:157] Top shape: 2 256 60 60 (1843200)
I0621 15:52:29.291286 11078 net.cpp:165] Memory required for data: 3018814000
I0621 15:52:29.291290 11078 layer_factory.hpp:77] Creating layer conv4_7_3x3
I0621 15:52:29.291296 11078 net.cpp:106] Creating Layer conv4_7_3x3
I0621 15:52:29.291298 11078 net.cpp:454] conv4_7_3x3 <- conv4_7_1x1_reduce
I0621 15:52:29.291302 11078 net.cpp:411] conv4_7_3x3 -> conv4_7_3x3
I0621 15:52:29.304497 11078 net.cpp:150] Setting up conv4_7_3x3
I0621 15:52:29.304517 11078 net.cpp:157] Top shape: 2 256 60 60 (1843200)
I0621 15:52:29.304518 11078 net.cpp:165] Memory required for data: 3026186800
I0621 15:52:29.304524 11078 layer_factory.hpp:77] Creating layer conv4_7_3x3/bn
I0621 15:52:29.304533 11078 net.cpp:106] Creating Layer conv4_7_3x3/bn
I0621 15:52:29.304538 11078 net.cpp:454] conv4_7_3x3/bn <- conv4_7_3x3
I0621 15:52:29.304546 11078 net.cpp:397] conv4_7_3x3/bn -> conv4_7_3x3 (in-place)
I0621 15:52:29.304740 11078 net.cpp:150] Setting up conv4_7_3x3/bn
I0621 15:52:29.304749 11078 net.cpp:157] Top shape: 2 256 60 60 (1843200)
I0621 15:52:29.304767 11078 net.cpp:165] Memory required for data: 3033559600
I0621 15:52:29.304776 11078 layer_factory.hpp:77] Creating layer conv4_7_3x3/relu
I0621 15:52:29.304786 11078 net.cpp:106] Creating Layer conv4_7_3x3/relu
I0621 15:52:29.304791 11078 net.cpp:454] conv4_7_3x3/relu <- conv4_7_3x3
I0621 15:52:29.304802 11078 net.cpp:397] conv4_7_3x3/relu -> conv4_7_3x3 (in-place)
I0621 15:52:29.304818 11078 net.cpp:150] Setting up conv4_7_3x3/relu
I0621 15:52:29.304826 11078 net.cpp:157] Top shape: 2 256 60 60 (1843200)
I0621 15:52:29.304831 11078 net.cpp:165] Memory required for data: 3040932400
I0621 15:52:29.304838 11078 layer_factory.hpp:77] Creating layer conv4_7_1x1_increase
I0621 15:52:29.304859 11078 net.cpp:106] Creating Layer conv4_7_1x1_increase
I0621 15:52:29.304864 11078 net.cpp:454] conv4_7_1x1_increase <- conv4_7_3x3
I0621 15:52:29.304872 11078 net.cpp:411] conv4_7_1x1_increase -> conv4_7_1x1_increase
I0621 15:52:29.311301 11078 net.cpp:150] Setting up conv4_7_1x1_increase
I0621 15:52:29.311329 11078 net.cpp:157] Top shape: 2 1024 60 60 (7372800)
I0621 15:52:29.311332 11078 net.cpp:165] Memory required for data: 3070423600
I0621 15:52:29.311342 11078 layer_factory.hpp:77] Creating layer conv4_7_1x1_increase/bn
I0621 15:52:29.311357 11078 net.cpp:106] Creating Layer conv4_7_1x1_increase/bn
I0621 15:52:29.311363 11078 net.cpp:454] conv4_7_1x1_increase/bn <- conv4_7_1x1_increase
I0621 15:52:29.311369 11078 net.cpp:397] conv4_7_1x1_increase/bn -> conv4_7_1x1_increase (in-place)
I0621 15:52:29.311549 11078 net.cpp:150] Setting up conv4_7_1x1_increase/bn
I0621 15:52:29.311554 11078 net.cpp:157] Top shape: 2 1024 60 60 (7372800)
I0621 15:52:29.311558 11078 net.cpp:165] Memory required for data: 3099914800
I0621 15:52:29.311563 11078 layer_factory.hpp:77] Creating layer conv4_7
I0621 15:52:29.311568 11078 net.cpp:106] Creating Layer conv4_7
I0621 15:52:29.311592 11078 net.cpp:454] conv4_7 <- conv4_6_conv4_6/relu_0_split_1
I0621 15:52:29.311596 11078 net.cpp:454] conv4_7 <- conv4_7_1x1_increase
I0621 15:52:29.311599 11078 net.cpp:411] conv4_7 -> conv4_7
I0621 15:52:29.311621 11078 net.cpp:150] Setting up conv4_7
I0621 15:52:29.311625 11078 net.cpp:157] Top shape: 2 1024 60 60 (7372800)
I0621 15:52:29.311627 11078 net.cpp:165] Memory required for data: 3129406000
I0621 15:52:29.311630 11078 layer_factory.hpp:77] Creating layer conv4_7/relu
I0621 15:52:29.311635 11078 net.cpp:106] Creating Layer conv4_7/relu
I0621 15:52:29.311637 11078 net.cpp:454] conv4_7/relu <- conv4_7
I0621 15:52:29.311641 11078 net.cpp:397] conv4_7/relu -> conv4_7 (in-place)
I0621 15:52:29.311647 11078 net.cpp:150] Setting up conv4_7/relu
I0621 15:52:29.311650 11078 net.cpp:157] Top shape: 2 1024 60 60 (7372800)
I0621 15:52:29.311652 11078 net.cpp:165] Memory required for data: 3158897200
I0621 15:52:29.311655 11078 layer_factory.hpp:77] Creating layer conv4_7_conv4_7/relu_0_split
I0621 15:52:29.311660 11078 net.cpp:106] Creating Layer conv4_7_conv4_7/relu_0_split
I0621 15:52:29.311662 11078 net.cpp:454] conv4_7_conv4_7/relu_0_split <- conv4_7
I0621 15:52:29.311666 11078 net.cpp:411] conv4_7_conv4_7/relu_0_split -> conv4_7_conv4_7/relu_0_split_0
I0621 15:52:29.311669 11078 net.cpp:411] conv4_7_conv4_7/relu_0_split -> conv4_7_conv4_7/relu_0_split_1
I0621 15:52:29.311692 11078 net.cpp:150] Setting up conv4_7_conv4_7/relu_0_split
I0621 15:52:29.311697 11078 net.cpp:157] Top shape: 2 1024 60 60 (7372800)
I0621 15:52:29.311700 11078 net.cpp:157] Top shape: 2 1024 60 60 (7372800)
I0621 15:52:29.311702 11078 net.cpp:165] Memory required for data: 3217879600
I0621 15:52:29.311705 11078 layer_factory.hpp:77] Creating layer conv4_8_1x1_reduce
I0621 15:52:29.311712 11078 net.cpp:106] Creating Layer conv4_8_1x1_reduce
I0621 15:52:29.311714 11078 net.cpp:454] conv4_8_1x1_reduce <- conv4_7_conv4_7/relu_0_split_0
I0621 15:52:29.311719 11078 net.cpp:411] conv4_8_1x1_reduce -> conv4_8_1x1_reduce
I0621 15:52:29.319913 11078 net.cpp:150] Setting up conv4_8_1x1_reduce
I0621 15:52:29.319968 11078 net.cpp:157] Top shape: 2 256 60 60 (1843200)
I0621 15:52:29.319974 11078 net.cpp:165] Memory required for data: 3225252400
I0621 15:52:29.319986 11078 layer_factory.hpp:77] Creating layer conv4_8_1x1_reduce/bn
I0621 15:52:29.320008 11078 net.cpp:106] Creating Layer conv4_8_1x1_reduce/bn
I0621 15:52:29.320017 11078 net.cpp:454] conv4_8_1x1_reduce/bn <- conv4_8_1x1_reduce
I0621 15:52:29.320040 11078 net.cpp:397] conv4_8_1x1_reduce/bn -> conv4_8_1x1_reduce (in-place)
I0621 15:52:29.320312 11078 net.cpp:150] Setting up conv4_8_1x1_reduce/bn
I0621 15:52:29.320323 11078 net.cpp:157] Top shape: 2 256 60 60 (1843200)
I0621 15:52:29.320327 11078 net.cpp:165] Memory required for data: 3232625200
I0621 15:52:29.320338 11078 layer_factory.hpp:77] Creating layer conv4_8_1x1_reduce/relu
I0621 15:52:29.320350 11078 net.cpp:106] Creating Layer conv4_8_1x1_reduce/relu
I0621 15:52:29.320355 11078 net.cpp:454] conv4_8_1x1_reduce/relu <- conv4_8_1x1_reduce
I0621 15:52:29.320363 11078 net.cpp:397] conv4_8_1x1_reduce/relu -> conv4_8_1x1_reduce (in-place)
I0621 15:52:29.320370 11078 net.cpp:150] Setting up conv4_8_1x1_reduce/relu
I0621 15:52:29.320376 11078 net.cpp:157] Top shape: 2 256 60 60 (1843200)
I0621 15:52:29.320379 11078 net.cpp:165] Memory required for data: 3239998000
I0621 15:52:29.320384 11078 layer_factory.hpp:77] Creating layer conv4_8_3x3
I0621 15:52:29.320399 11078 net.cpp:106] Creating Layer conv4_8_3x3
I0621 15:52:29.320402 11078 net.cpp:454] conv4_8_3x3 <- conv4_8_1x1_reduce
I0621 15:52:29.320410 11078 net.cpp:411] conv4_8_3x3 -> conv4_8_3x3
I0621 15:52:29.336606 11078 net.cpp:150] Setting up conv4_8_3x3
I0621 15:52:29.336629 11078 net.cpp:157] Top shape: 2 256 60 60 (1843200)
I0621 15:52:29.336632 11078 net.cpp:165] Memory required for data: 3247370800
I0621 15:52:29.336642 11078 layer_factory.hpp:77] Creating layer conv4_8_3x3/bn
I0621 15:52:29.336655 11078 net.cpp:106] Creating Layer conv4_8_3x3/bn
I0621 15:52:29.336683 11078 net.cpp:454] conv4_8_3x3/bn <- conv4_8_3x3
I0621 15:52:29.336688 11078 net.cpp:397] conv4_8_3x3/bn -> conv4_8_3x3 (in-place)
I0621 15:52:29.336853 11078 net.cpp:150] Setting up conv4_8_3x3/bn
I0621 15:52:29.336859 11078 net.cpp:157] Top shape: 2 256 60 60 (1843200)
I0621 15:52:29.336863 11078 net.cpp:165] Memory required for data: 3254743600
I0621 15:52:29.336868 11078 layer_factory.hpp:77] Creating layer conv4_8_3x3/relu
I0621 15:52:29.336874 11078 net.cpp:106] Creating Layer conv4_8_3x3/relu
I0621 15:52:29.336876 11078 net.cpp:454] conv4_8_3x3/relu <- conv4_8_3x3
I0621 15:52:29.336879 11078 net.cpp:397] conv4_8_3x3/relu -> conv4_8_3x3 (in-place)
I0621 15:52:29.336884 11078 net.cpp:150] Setting up conv4_8_3x3/relu
I0621 15:52:29.336887 11078 net.cpp:157] Top shape: 2 256 60 60 (1843200)
I0621 15:52:29.336889 11078 net.cpp:165] Memory required for data: 3262116400
I0621 15:52:29.336892 11078 layer_factory.hpp:77] Creating layer conv4_8_1x1_increase
I0621 15:52:29.336899 11078 net.cpp:106] Creating Layer conv4_8_1x1_increase
I0621 15:52:29.336902 11078 net.cpp:454] conv4_8_1x1_increase <- conv4_8_3x3
I0621 15:52:29.336907 11078 net.cpp:411] conv4_8_1x1_increase -> conv4_8_1x1_increase
I0621 15:52:29.343207 11078 net.cpp:150] Setting up conv4_8_1x1_increase
I0621 15:52:29.343225 11078 net.cpp:157] Top shape: 2 1024 60 60 (7372800)
I0621 15:52:29.343227 11078 net.cpp:165] Memory required for data: 3291607600
I0621 15:52:29.343232 11078 layer_factory.hpp:77] Creating layer conv4_8_1x1_increase/bn
I0621 15:52:29.343240 11078 net.cpp:106] Creating Layer conv4_8_1x1_increase/bn
I0621 15:52:29.343243 11078 net.cpp:454] conv4_8_1x1_increase/bn <- conv4_8_1x1_increase
I0621 15:52:29.343247 11078 net.cpp:397] conv4_8_1x1_increase/bn -> conv4_8_1x1_increase (in-place)
I0621 15:52:29.343403 11078 net.cpp:150] Setting up conv4_8_1x1_increase/bn
I0621 15:52:29.343408 11078 net.cpp:157] Top shape: 2 1024 60 60 (7372800)
I0621 15:52:29.343410 11078 net.cpp:165] Memory required for data: 3321098800
I0621 15:52:29.343415 11078 layer_factory.hpp:77] Creating layer conv4_8
I0621 15:52:29.343420 11078 net.cpp:106] Creating Layer conv4_8
I0621 15:52:29.343422 11078 net.cpp:454] conv4_8 <- conv4_7_conv4_7/relu_0_split_1
I0621 15:52:29.343425 11078 net.cpp:454] conv4_8 <- conv4_8_1x1_increase
I0621 15:52:29.343428 11078 net.cpp:411] conv4_8 -> conv4_8
I0621 15:52:29.343444 11078 net.cpp:150] Setting up conv4_8
I0621 15:52:29.343448 11078 net.cpp:157] Top shape: 2 1024 60 60 (7372800)
I0621 15:52:29.343451 11078 net.cpp:165] Memory required for data: 3350590000
I0621 15:52:29.343452 11078 layer_factory.hpp:77] Creating layer conv4_8/relu
I0621 15:52:29.343456 11078 net.cpp:106] Creating Layer conv4_8/relu
I0621 15:52:29.343459 11078 net.cpp:454] conv4_8/relu <- conv4_8
I0621 15:52:29.343462 11078 net.cpp:397] conv4_8/relu -> conv4_8 (in-place)
I0621 15:52:29.343466 11078 net.cpp:150] Setting up conv4_8/relu
I0621 15:52:29.343468 11078 net.cpp:157] Top shape: 2 1024 60 60 (7372800)
I0621 15:52:29.343471 11078 net.cpp:165] Memory required for data: 3380081200
I0621 15:52:29.343472 11078 layer_factory.hpp:77] Creating layer conv4_8_conv4_8/relu_0_split
I0621 15:52:29.343475 11078 net.cpp:106] Creating Layer conv4_8_conv4_8/relu_0_split
I0621 15:52:29.343477 11078 net.cpp:454] conv4_8_conv4_8/relu_0_split <- conv4_8
I0621 15:52:29.343480 11078 net.cpp:411] conv4_8_conv4_8/relu_0_split -> conv4_8_conv4_8/relu_0_split_0
I0621 15:52:29.343484 11078 net.cpp:411] conv4_8_conv4_8/relu_0_split -> conv4_8_conv4_8/relu_0_split_1
I0621 15:52:29.343511 11078 net.cpp:150] Setting up conv4_8_conv4_8/relu_0_split
I0621 15:52:29.343515 11078 net.cpp:157] Top shape: 2 1024 60 60 (7372800)
I0621 15:52:29.343518 11078 net.cpp:157] Top shape: 2 1024 60 60 (7372800)
I0621 15:52:29.343520 11078 net.cpp:165] Memory required for data: 3439063600
I0621 15:52:29.343523 11078 layer_factory.hpp:77] Creating layer conv4_9_1x1_reduce
I0621 15:52:29.343528 11078 net.cpp:106] Creating Layer conv4_9_1x1_reduce
I0621 15:52:29.343530 11078 net.cpp:454] conv4_9_1x1_reduce <- conv4_8_conv4_8/relu_0_split_0
I0621 15:52:29.343544 11078 net.cpp:411] conv4_9_1x1_reduce -> conv4_9_1x1_reduce
I0621 15:52:29.349107 11078 net.cpp:150] Setting up conv4_9_1x1_reduce
I0621 15:52:29.349112 11078 net.cpp:157] Top shape: 2 256 60 60 (1843200)
I0621 15:52:29.349114 11078 net.cpp:165] Memory required for data: 3446436400
I0621 15:52:29.349118 11078 layer_factory.hpp:77] Creating layer conv4_9_1x1_reduce/bn
I0621 15:52:29.349122 11078 net.cpp:106] Creating Layer conv4_9_1x1_reduce/bn
I0621 15:52:29.349124 11078 net.cpp:454] conv4_9_1x1_reduce/bn <- conv4_9_1x1_reduce
I0621 15:52:29.349134 11078 net.cpp:397] conv4_9_1x1_reduce/bn -> conv4_9_1x1_reduce (in-place)
I0621 15:52:29.349272 11078 net.cpp:150] Setting up conv4_9_1x1_reduce/bn
I0621 15:52:29.349277 11078 net.cpp:157] Top shape: 2 256 60 60 (1843200)
I0621 15:52:29.349279 11078 net.cpp:165] Memory required for data: 3453809200
I0621 15:52:29.349305 11078 layer_factory.hpp:77] Creating layer conv4_9_1x1_reduce/relu
I0621 15:52:29.349310 11078 net.cpp:106] Creating Layer conv4_9_1x1_reduce/relu
I0621 15:52:29.349313 11078 net.cpp:454] conv4_9_1x1_reduce/relu <- conv4_9_1x1_reduce
I0621 15:52:29.349315 11078 net.cpp:397] conv4_9_1x1_reduce/relu -> conv4_9_1x1_reduce (in-place)
I0621 15:52:29.349320 11078 net.cpp:150] Setting up conv4_9_1x1_reduce/relu
I0621 15:52:29.349323 11078 net.cpp:157] Top shape: 2 256 60 60 (1843200)
I0621 15:52:29.349325 11078 net.cpp:165] Memory required for data: 3461182000
I0621 15:52:29.349328 11078 layer_factory.hpp:77] Creating layer conv4_9_3x3
I0621 15:52:29.349334 11078 net.cpp:106] Creating Layer conv4_9_3x3
I0621 15:52:29.349337 11078 net.cpp:454] conv4_9_3x3 <- conv4_9_1x1_reduce
I0621 15:52:29.349341 11078 net.cpp:411] conv4_9_3x3 -> conv4_9_3x3
I0621 15:52:29.365891 11078 net.cpp:150] Setting up conv4_9_3x3
I0621 15:52:29.365988 11078 net.cpp:157] Top shape: 2 256 60 60 (1843200)
I0621 15:52:29.365994 11078 net.cpp:165] Memory required for data: 3468554800
I0621 15:52:29.366015 11078 layer_factory.hpp:77] Creating layer conv4_9_3x3/bn
I0621 15:52:29.366047 11078 net.cpp:106] Creating Layer conv4_9_3x3/bn
I0621 15:52:29.366060 11078 net.cpp:454] conv4_9_3x3/bn <- conv4_9_3x3
I0621 15:52:29.366075 11078 net.cpp:397] conv4_9_3x3/bn -> conv4_9_3x3 (in-place)
I0621 15:52:29.366374 11078 net.cpp:150] Setting up conv4_9_3x3/bn
I0621 15:52:29.366384 11078 net.cpp:157] Top shape: 2 256 60 60 (1843200)
I0621 15:52:29.366394 11078 net.cpp:165] Memory required for data: 3475927600
I0621 15:52:29.366402 11078 layer_factory.hpp:77] Creating layer conv4_9_3x3/relu
I0621 15:52:29.366416 11078 net.cpp:106] Creating Layer conv4_9_3x3/relu
I0621 15:52:29.366421 11078 net.cpp:454] conv4_9_3x3/relu <- conv4_9_3x3
I0621 15:52:29.366426 11078 net.cpp:397] conv4_9_3x3/relu -> conv4_9_3x3 (in-place)
I0621 15:52:29.366433 11078 net.cpp:150] Setting up conv4_9_3x3/relu
I0621 15:52:29.366439 11078 net.cpp:157] Top shape: 2 256 60 60 (1843200)
I0621 15:52:29.366443 11078 net.cpp:165] Memory required for data: 3483300400
I0621 15:52:29.366447 11078 layer_factory.hpp:77] Creating layer conv4_9_1x1_increase
I0621 15:52:29.366458 11078 net.cpp:106] Creating Layer conv4_9_1x1_increase
I0621 15:52:29.366464 11078 net.cpp:454] conv4_9_1x1_increase <- conv4_9_3x3
I0621 15:52:29.366472 11078 net.cpp:411] conv4_9_1x1_increase -> conv4_9_1x1_increase
I0621 15:52:29.374577 11078 net.cpp:150] Setting up conv4_9_1x1_increase
I0621 15:52:29.374604 11078 net.cpp:157] Top shape: 2 1024 60 60 (7372800)
I0621 15:52:29.374608 11078 net.cpp:165] Memory required for data: 3512791600
I0621 15:52:29.374619 11078 layer_factory.hpp:77] Creating layer conv4_9_1x1_increase/bn
I0621 15:52:29.374630 11078 net.cpp:106] Creating Layer conv4_9_1x1_increase/bn
I0621 15:52:29.374635 11078 net.cpp:454] conv4_9_1x1_increase/bn <- conv4_9_1x1_increase
I0621 15:52:29.374646 11078 net.cpp:397] conv4_9_1x1_increase/bn -> conv4_9_1x1_increase (in-place)
I0621 15:52:29.374812 11078 net.cpp:150] Setting up conv4_9_1x1_increase/bn
I0621 15:52:29.374817 11078 net.cpp:157] Top shape: 2 1024 60 60 (7372800)
I0621 15:52:29.374838 11078 net.cpp:165] Memory required for data: 3542282800
I0621 15:52:29.374843 11078 layer_factory.hpp:77] Creating layer conv4_9
I0621 15:52:29.374850 11078 net.cpp:106] Creating Layer conv4_9
I0621 15:52:29.374853 11078 net.cpp:454] conv4_9 <- conv4_8_conv4_8/relu_0_split_1
I0621 15:52:29.374855 11078 net.cpp:454] conv4_9 <- conv4_9_1x1_increase
I0621 15:52:29.374858 11078 net.cpp:411] conv4_9 -> conv4_9
I0621 15:52:29.374882 11078 net.cpp:150] Setting up conv4_9
I0621 15:52:29.374886 11078 net.cpp:157] Top shape: 2 1024 60 60 (7372800)
I0621 15:52:29.374888 11078 net.cpp:165] Memory required for data: 3571774000
I0621 15:52:29.374891 11078 layer_factory.hpp:77] Creating layer conv4_9/relu
I0621 15:52:29.374897 11078 net.cpp:106] Creating Layer conv4_9/relu
I0621 15:52:29.374898 11078 net.cpp:454] conv4_9/relu <- conv4_9
I0621 15:52:29.374902 11078 net.cpp:397] conv4_9/relu -> conv4_9 (in-place)
I0621 15:52:29.374907 11078 net.cpp:150] Setting up conv4_9/relu
I0621 15:52:29.374908 11078 net.cpp:157] Top shape: 2 1024 60 60 (7372800)
I0621 15:52:29.374910 11078 net.cpp:165] Memory required for data: 3601265200
I0621 15:52:29.374912 11078 layer_factory.hpp:77] Creating layer conv4_9_conv4_9/relu_0_split
I0621 15:52:29.374917 11078 net.cpp:106] Creating Layer conv4_9_conv4_9/relu_0_split
I0621 15:52:29.374918 11078 net.cpp:454] conv4_9_conv4_9/relu_0_split <- conv4_9
I0621 15:52:29.374922 11078 net.cpp:411] conv4_9_conv4_9/relu_0_split -> conv4_9_conv4_9/relu_0_split_0
I0621 15:52:29.374925 11078 net.cpp:411] conv4_9_conv4_9/relu_0_split -> conv4_9_conv4_9/relu_0_split_1
I0621 15:52:29.374946 11078 net.cpp:150] Setting up conv4_9_conv4_9/relu_0_split
I0621 15:52:29.374951 11078 net.cpp:157] Top shape: 2 1024 60 60 (7372800)
I0621 15:52:29.374954 11078 net.cpp:157] Top shape: 2 1024 60 60 (7372800)
I0621 15:52:29.374958 11078 net.cpp:165] Memory required for data: 3660247600
I0621 15:52:29.374960 11078 layer_factory.hpp:77] Creating layer conv4_10_1x1_reduce
I0621 15:52:29.374965 11078 net.cpp:106] Creating Layer conv4_10_1x1_reduce
I0621 15:52:29.374969 11078 net.cpp:454] conv4_10_1x1_reduce <- conv4_9_conv4_9/relu_0_split_0
I0621 15:52:29.374974 11078 net.cpp:411] conv4_10_1x1_reduce -> conv4_10_1x1_reduce
I0621 15:52:29.380594 11078 net.cpp:150] Setting up conv4_10_1x1_reduce
I0621 15:52:29.380600 11078 net.cpp:157] Top shape: 2 256 60 60 (1843200)
I0621 15:52:29.380602 11078 net.cpp:165] Memory required for data: 3667620400
I0621 15:52:29.380606 11078 layer_factory.hpp:77] Creating layer conv4_10_1x1_reduce/bn
I0621 15:52:29.380612 11078 net.cpp:106] Creating Layer conv4_10_1x1_reduce/bn
I0621 15:52:29.380615 11078 net.cpp:454] conv4_10_1x1_reduce/bn <- conv4_10_1x1_reduce
I0621 15:52:29.380620 11078 net.cpp:397] conv4_10_1x1_reduce/bn -> conv4_10_1x1_reduce (in-place)
I0621 15:52:29.380755 11078 net.cpp:150] Setting up conv4_10_1x1_reduce/bn
I0621 15:52:29.380760 11078 net.cpp:157] Top shape: 2 256 60 60 (1843200)
I0621 15:52:29.380762 11078 net.cpp:165] Memory required for data: 3674993200
I0621 15:52:29.380769 11078 layer_factory.hpp:77] Creating layer conv4_10_1x1_reduce/relu
I0621 15:52:29.380772 11078 net.cpp:106] Creating Layer conv4_10_1x1_reduce/relu
I0621 15:52:29.380775 11078 net.cpp:454] conv4_10_1x1_reduce/relu <- conv4_10_1x1_reduce
I0621 15:52:29.380779 11078 net.cpp:397] conv4_10_1x1_reduce/relu -> conv4_10_1x1_reduce (in-place)
I0621 15:52:29.380782 11078 net.cpp:150] Setting up conv4_10_1x1_reduce/relu
I0621 15:52:29.380785 11078 net.cpp:157] Top shape: 2 256 60 60 (1843200)
I0621 15:52:29.380787 11078 net.cpp:165] Memory required for data: 3682366000
I0621 15:52:29.380790 11078 layer_factory.hpp:77] Creating layer conv4_10_3x3
I0621 15:52:29.380796 11078 net.cpp:106] Creating Layer conv4_10_3x3
I0621 15:52:29.380800 11078 net.cpp:454] conv4_10_3x3 <- conv4_10_1x1_reduce
I0621 15:52:29.380803 11078 net.cpp:411] conv4_10_3x3 -> conv4_10_3x3
I0621 15:52:29.394057 11078 net.cpp:150] Setting up conv4_10_3x3
I0621 15:52:29.394086 11078 net.cpp:157] Top shape: 2 256 60 60 (1843200)
I0621 15:52:29.394107 11078 net.cpp:165] Memory required for data: 3689738800
I0621 15:52:29.394114 11078 layer_factory.hpp:77] Creating layer conv4_10_3x3/bn
I0621 15:52:29.394124 11078 net.cpp:106] Creating Layer conv4_10_3x3/bn
I0621 15:52:29.394127 11078 net.cpp:454] conv4_10_3x3/bn <- conv4_10_3x3
I0621 15:52:29.394132 11078 net.cpp:397] conv4_10_3x3/bn -> conv4_10_3x3 (in-place)
I0621 15:52:29.394294 11078 net.cpp:150] Setting up conv4_10_3x3/bn
I0621 15:52:29.394299 11078 net.cpp:157] Top shape: 2 256 60 60 (1843200)
I0621 15:52:29.394300 11078 net.cpp:165] Memory required for data: 3697111600
I0621 15:52:29.394305 11078 layer_factory.hpp:77] Creating layer conv4_10_3x3/relu
I0621 15:52:29.394309 11078 net.cpp:106] Creating Layer conv4_10_3x3/relu
I0621 15:52:29.394312 11078 net.cpp:454] conv4_10_3x3/relu <- conv4_10_3x3
I0621 15:52:29.394315 11078 net.cpp:397] conv4_10_3x3/relu -> conv4_10_3x3 (in-place)
I0621 15:52:29.394318 11078 net.cpp:150] Setting up conv4_10_3x3/relu
I0621 15:52:29.394321 11078 net.cpp:157] Top shape: 2 256 60 60 (1843200)
I0621 15:52:29.394323 11078 net.cpp:165] Memory required for data: 3704484400
I0621 15:52:29.394325 11078 layer_factory.hpp:77] Creating layer conv4_10_1x1_increase
I0621 15:52:29.394330 11078 net.cpp:106] Creating Layer conv4_10_1x1_increase
I0621 15:52:29.394333 11078 net.cpp:454] conv4_10_1x1_increase <- conv4_10_3x3
I0621 15:52:29.394337 11078 net.cpp:411] conv4_10_1x1_increase -> conv4_10_1x1_increase
I0621 15:52:29.400666 11078 net.cpp:150] Setting up conv4_10_1x1_increase
I0621 15:52:29.400691 11078 net.cpp:157] Top shape: 2 1024 60 60 (7372800)
I0621 15:52:29.400692 11078 net.cpp:165] Memory required for data: 3733975600
I0621 15:52:29.400698 11078 layer_factory.hpp:77] Creating layer conv4_10_1x1_increase/bn
I0621 15:52:29.400707 11078 net.cpp:106] Creating Layer conv4_10_1x1_increase/bn
I0621 15:52:29.400710 11078 net.cpp:454] conv4_10_1x1_increase/bn <- conv4_10_1x1_increase
I0621 15:52:29.400717 11078 net.cpp:397] conv4_10_1x1_increase/bn -> conv4_10_1x1_increase (in-place)
I0621 15:52:29.400902 11078 net.cpp:150] Setting up conv4_10_1x1_increase/bn
I0621 15:52:29.400907 11078 net.cpp:157] Top shape: 2 1024 60 60 (7372800)
I0621 15:52:29.400909 11078 net.cpp:165] Memory required for data: 3763466800
I0621 15:52:29.400914 11078 layer_factory.hpp:77] Creating layer conv4_10
I0621 15:52:29.400920 11078 net.cpp:106] Creating Layer conv4_10
I0621 15:52:29.400924 11078 net.cpp:454] conv4_10 <- conv4_9_conv4_9/relu_0_split_1
I0621 15:52:29.400928 11078 net.cpp:454] conv4_10 <- conv4_10_1x1_increase
I0621 15:52:29.400931 11078 net.cpp:411] conv4_10 -> conv4_10
I0621 15:52:29.400959 11078 net.cpp:150] Setting up conv4_10
I0621 15:52:29.400964 11078 net.cpp:157] Top shape: 2 1024 60 60 (7372800)
I0621 15:52:29.400965 11078 net.cpp:165] Memory required for data: 3792958000
I0621 15:52:29.400969 11078 layer_factory.hpp:77] Creating layer conv4_10/relu
I0621 15:52:29.400974 11078 net.cpp:106] Creating Layer conv4_10/relu
I0621 15:52:29.400977 11078 net.cpp:454] conv4_10/relu <- conv4_10
I0621 15:52:29.400980 11078 net.cpp:397] conv4_10/relu -> conv4_10 (in-place)
I0621 15:52:29.400985 11078 net.cpp:150] Setting up conv4_10/relu
I0621 15:52:29.400988 11078 net.cpp:157] Top shape: 2 1024 60 60 (7372800)
I0621 15:52:29.400990 11078 net.cpp:165] Memory required for data: 3822449200
I0621 15:52:29.400993 11078 layer_factory.hpp:77] Creating layer conv4_10_conv4_10/relu_0_split
I0621 15:52:29.400997 11078 net.cpp:106] Creating Layer conv4_10_conv4_10/relu_0_split
I0621 15:52:29.401000 11078 net.cpp:454] conv4_10_conv4_10/relu_0_split <- conv4_10
I0621 15:52:29.401005 11078 net.cpp:411] conv4_10_conv4_10/relu_0_split -> conv4_10_conv4_10/relu_0_split_0
I0621 15:52:29.401008 11078 net.cpp:411] conv4_10_conv4_10/relu_0_split -> conv4_10_conv4_10/relu_0_split_1
I0621 15:52:29.401031 11078 net.cpp:150] Setting up conv4_10_conv4_10/relu_0_split
I0621 15:52:29.401036 11078 net.cpp:157] Top shape: 2 1024 60 60 (7372800)
I0621 15:52:29.401039 11078 net.cpp:157] Top shape: 2 1024 60 60 (7372800)
I0621 15:52:29.401059 11078 net.cpp:165] Memory required for data: 3881431600
I0621 15:52:29.401062 11078 layer_factory.hpp:77] Creating layer conv4_11_1x1_reduce
I0621 15:52:29.401069 11078 net.cpp:106] Creating Layer conv4_11_1x1_reduce
I0621 15:52:29.401072 11078 net.cpp:454] conv4_11_1x1_reduce <- conv4_10_conv4_10/relu_0_split_0
I0621 15:52:29.401077 11078 net.cpp:411] conv4_11_1x1_reduce -> conv4_11_1x1_reduce
I0621 15:52:29.407990 11078 net.cpp:150] Setting up conv4_11_1x1_reduce
I0621 15:52:29.408066 11078 net.cpp:157] Top shape: 2 256 60 60 (1843200)
I0621 15:52:29.408073 11078 net.cpp:165] Memory required for data: 3888804400
I0621 15:52:29.408089 11078 layer_factory.hpp:77] Creating layer conv4_11_1x1_reduce/bn
I0621 15:52:29.408121 11078 net.cpp:106] Creating Layer conv4_11_1x1_reduce/bn
I0621 15:52:29.408133 11078 net.cpp:454] conv4_11_1x1_reduce/bn <- conv4_11_1x1_reduce
I0621 15:52:29.408144 11078 net.cpp:397] conv4_11_1x1_reduce/bn -> conv4_11_1x1_reduce (in-place)
I0621 15:52:29.408423 11078 net.cpp:150] Setting up conv4_11_1x1_reduce/bn
I0621 15:52:29.408433 11078 net.cpp:157] Top shape: 2 256 60 60 (1843200)
I0621 15:52:29.408437 11078 net.cpp:165] Memory required for data: 3896177200
I0621 15:52:29.408447 11078 layer_factory.hpp:77] Creating layer conv4_11_1x1_reduce/relu
I0621 15:52:29.408457 11078 net.cpp:106] Creating Layer conv4_11_1x1_reduce/relu
I0621 15:52:29.408462 11078 net.cpp:454] conv4_11_1x1_reduce/relu <- conv4_11_1x1_reduce
I0621 15:52:29.408468 11078 net.cpp:397] conv4_11_1x1_reduce/relu -> conv4_11_1x1_reduce (in-place)
I0621 15:52:29.408474 11078 net.cpp:150] Setting up conv4_11_1x1_reduce/relu
I0621 15:52:29.408479 11078 net.cpp:157] Top shape: 2 256 60 60 (1843200)
I0621 15:52:29.408483 11078 net.cpp:165] Memory required for data: 3903550000
I0621 15:52:29.408488 11078 layer_factory.hpp:77] Creating layer conv4_11_3x3
I0621 15:52:29.408516 11078 net.cpp:106] Creating Layer conv4_11_3x3
I0621 15:52:29.408521 11078 net.cpp:454] conv4_11_3x3 <- conv4_11_1x1_reduce
I0621 15:52:29.408530 11078 net.cpp:411] conv4_11_3x3 -> conv4_11_3x3
I0621 15:52:29.425899 11078 net.cpp:150] Setting up conv4_11_3x3
I0621 15:52:29.425921 11078 net.cpp:157] Top shape: 2 256 60 60 (1843200)
I0621 15:52:29.425925 11078 net.cpp:165] Memory required for data: 3910922800
I0621 15:52:29.425932 11078 layer_factory.hpp:77] Creating layer conv4_11_3x3/bn
I0621 15:52:29.425951 11078 net.cpp:106] Creating Layer conv4_11_3x3/bn
I0621 15:52:29.425957 11078 net.cpp:454] conv4_11_3x3/bn <- conv4_11_3x3
I0621 15:52:29.425963 11078 net.cpp:397] conv4_11_3x3/bn -> conv4_11_3x3 (in-place)
I0621 15:52:29.426123 11078 net.cpp:150] Setting up conv4_11_3x3/bn
I0621 15:52:29.426128 11078 net.cpp:157] Top shape: 2 256 60 60 (1843200)
I0621 15:52:29.426131 11078 net.cpp:165] Memory required for data: 3918295600
I0621 15:52:29.426136 11078 layer_factory.hpp:77] Creating layer conv4_11_3x3/relu
…
I0621 15:52:29.727650 11078 net.cpp:454] conv4_21 <- conv4_21_1x1_increase
I0621 15:52:29.727653 11078 net.cpp:411] conv4_21 -> conv4_21
I0621 15:52:29.727674 11078 net.cpp:150] Setting up conv4_21
I0621 15:52:29.727677 11078 net.cpp:157] Top shape: 2 1024 60 60 (7372800)
I0621 15:52:29.727680 11078 net.cpp:165] Memory required for data: 6225982000
I0621 15:52:29.727684 11078 layer_factory.hpp:77] Creating layer conv4_21/relu
I0621 15:52:29.727689 11078 net.cpp:106] Creating Layer conv4_21/relu
I0621 15:52:29.727692 11078 net.cpp:454] conv4_21/relu <- conv4_21
I0621 15:52:29.727695 11078 net.cpp:397] conv4_21/relu -> conv4_21 (in-place)
I0621 15:52:29.727699 11078 net.cpp:150] Setting up conv4_21/relu
I0621 15:52:29.727704 11078 net.cpp:157] Top shape: 2 1024 60 60 (7372800)
I0621 15:52:29.727705 11078 net.cpp:165] Memory required for data: 6255473200
I0621 15:52:29.727708 11078 layer_factory.hpp:77] Creating layer conv4_21_conv4_21/relu_0_split
I0621 15:52:29.727712 11078 net.cpp:106] Creating Layer conv4_21_conv4_21/relu_0_split
I0621 15:52:29.727715 11078 net.cpp:454] conv4_21_conv4_21/relu_0_split <- conv4_21
I0621 15:52:29.727720 11078 net.cpp:411] conv4_21_conv4_21/relu_0_split -> conv4_21_conv4_21/relu_0_split_0
I0621 15:52:29.727723 11078 net.cpp:411] conv4_21_conv4_21/relu_0_split -> conv4_21_conv4_21/relu_0_split_1
I0621 15:52:29.727764 11078 net.cpp:150] Setting up conv4_21_conv4_21/relu_0_split
I0621 15:52:29.727771 11078 net.cpp:157] Top shape: 2 1024 60 60 (7372800)
I0621 15:52:29.727773 11078 net.cpp:157] Top shape: 2 1024 60 60 (7372800)
I0621 15:52:29.727777 11078 net.cpp:165] Memory required for data: 6314455600
I0621 15:52:29.727779 11078 layer_factory.hpp:77] Creating layer conv4_22_1x1_reduce
I0621 15:52:29.727784 11078 net.cpp:106] Creating Layer conv4_22_1x1_reduce
I0621 15:52:29.727787 11078 net.cpp:454] conv4_22_1x1_reduce <- conv4_21_conv4_21/relu_0_split_0
I0621 15:52:29.727792 11078 net.cpp:411] conv4_22_1x1_reduce -> conv4_22_1x1_reduce
I0621 15:52:29.733400 11078 net.cpp:150] Setting up conv4_22_1x1_reduce
I0621 15:52:29.733407 11078 net.cpp:157] Top shape: 2 256 60 60 (1843200)
I0621 15:52:29.733409 11078 net.cpp:165] Memory required for data: 6321828400
I0621 15:52:29.733413 11078 layer_factory.hpp:77] Creating layer conv4_22_1x1_reduce/bn
I0621 15:52:29.733420 11078 net.cpp:106] Creating Layer conv4_22_1x1_reduce/bn
I0621 15:52:29.733423 11078 net.cpp:454] conv4_22_1x1_reduce/bn <- conv4_22_1x1_reduce
I0621 15:52:29.733428 11078 net.cpp:397] conv4_22_1x1_reduce/bn -> conv4_22_1x1_reduce (in-place)
I0621 15:52:29.733585 11078 net.cpp:150] Setting up conv4_22_1x1_reduce/bn
I0621 15:52:29.733590 11078 net.cpp:157] Top shape: 2 256 60 60 (1843200)
I0621 15:52:29.733593 11078 net.cpp:165] Memory required for data: 6329201200
I0621 15:52:29.733599 11078 layer_factory.hpp:77] Creating layer conv4_22_1x1_reduce/relu
I0621 15:52:29.733606 11078 net.cpp:106] Creating Layer conv4_22_1x1_reduce/relu
I0621 15:52:29.733609 11078 net.cpp:454] conv4_22_1x1_reduce/relu <- conv4_22_1x1_reduce
I0621 15:52:29.733613 11078 net.cpp:397] conv4_22_1x1_reduce/relu -> conv4_22_1x1_reduce (in-place)
I0621 15:52:29.733616 11078 net.cpp:150] Setting up conv4_22_1x1_reduce/relu
I0621 15:52:29.733620 11078 net.cpp:157] Top shape: 2 256 60 60 (1843200)
I0621 15:52:29.733623 11078 net.cpp:165] Memory required for data: 6336574000
I0621 15:52:29.733625 11078 layer_factory.hpp:77] Creating layer conv4_22_3x3
I0621 15:52:29.733634 11078 net.cpp:106] Creating Layer conv4_22_3x3
I0621 15:52:29.733636 11078 net.cpp:454] conv4_22_3x3 <- conv4_22_1x1_reduce
I0621 15:52:29.733641 11078 net.cpp:411] conv4_22_3x3 -> conv4_22_3x3
I0621 15:52:29.746934 11078 net.cpp:150] Setting up conv4_22_3x3
I0621 15:52:29.746963 11078 net.cpp:157] Top shape: 2 256 60 60 (1843200)
I0621 15:52:29.746964 11078 net.cpp:165] Memory required for data: 6343946800
I0621 15:52:29.746970 11078 layer_factory.hpp:77] Creating layer conv4_22_3x3/bn
I0621 15:52:29.746980 11078 net.cpp:106] Creating Layer conv4_22_3x3/bn
I0621 15:52:29.746987 11078 net.cpp:454] conv4_22_3x3/bn <- conv4_22_3x3
I0621 15:52:29.746992 11078 net.cpp:397] conv4_22_3x3/bn -> conv4_22_3x3 (in-place)
I0621 15:52:29.747170 11078 net.cpp:150] Setting up conv4_22_3x3/bn
I0621 15:52:29.747176 11078 net.cpp:157] Top shape: 2 256 60 60 (1843200)
I0621 15:52:29.747179 11078 net.cpp:165] Memory required for data: 6351319600
I0621 15:52:29.747185 11078 layer_factory.hpp:77] Creating layer conv4_22_3x3/relu
I0621 15:52:29.747193 11078 net.cpp:106] Creating Layer conv4_22_3x3/relu
I0621 15:52:29.747197 11078 net.cpp:454] conv4_22_3x3/relu <- conv4_22_3x3
I0621 15:52:29.747200 11078 net.cpp:397] conv4_22_3x3/relu -> conv4_22_3x3 (in-place)
I0621 15:52:29.747205 11078 net.cpp:150] Setting up conv4_22_3x3/relu
I0621 15:52:29.747207 11078 net.cpp:157] Top shape: 2 256 60 60 (1843200)
I0621 15:52:29.747210 11078 net.cpp:165] Memory required for data: 6358692400
I0621 15:52:29.747211 11078 layer_factory.hpp:77] Creating layer conv4_22_1x1_increase
I0621 15:52:29.747220 11078 net.cpp:106] Creating Layer conv4_22_1x1_increase
I0621 15:52:29.747221 11078 net.cpp:454] conv4_22_1x1_increase <- conv4_22_3x3
I0621 15:52:29.747225 11078 net.cpp:411] conv4_22_1x1_increase -> conv4_22_1x1_increase
I0621 15:52:29.756404 11078 net.cpp:150] Setting up conv4_22_1x1_increase
I0621 15:52:29.756474 11078 net.cpp:157] Top shape: 2 1024 60 60 (7372800)
I0621 15:52:29.756527 11078 net.cpp:165] Memory required for data: 6388183600
I0621 15:52:29.756546 11078 layer_factory.hpp:77] Creating layer conv4_22_1x1_increase/bn
I0621 15:52:29.756570 11078 net.cpp:106] Creating Layer conv4_22_1x1_increase/bn
I0621 15:52:29.756582 11078 net.cpp:454] conv4_22_1x1_increase/bn <- conv4_22_1x1_increase
I0621 15:52:29.756593 11078 net.cpp:397] conv4_22_1x1_increase/bn -> conv4_22_1x1_increase (in-place)
I0621 15:52:29.756897 11078 net.cpp:150] Setting up conv4_22_1x1_increase/bn
I0621 15:52:29.756906 11078 net.cpp:157] Top shape: 2 1024 60 60 (7372800)
I0621 15:52:29.756911 11078 net.cpp:165] Memory required for data: 6417674800
I0621 15:52:29.756920 11078 layer_factory.hpp:77] Creating layer conv4_22
I0621 15:52:29.756932 11078 net.cpp:106] Creating Layer conv4_22
I0621 15:52:29.756956 11078 net.cpp:454] conv4_22 <- conv4_21_conv4_21/relu_0_split_1
I0621 15:52:29.756961 11078 net.cpp:454] conv4_22 <- conv4_22_1x1_increase
I0621 15:52:29.756968 11078 net.cpp:411] conv4_22 -> conv4_22
I0621 15:52:29.757005 11078 net.cpp:150] Setting up conv4_22
I0621 15:52:29.757012 11078 net.cpp:157] Top shape: 2 1024 60 60 (7372800)
I0621 15:52:29.757016 11078 net.cpp:165] Memory required for data: 6447166000
I0621 15:52:29.757020 11078 layer_factory.hpp:77] Creating layer conv4_22/relu
I0621 15:52:29.757032 11078 net.cpp:106] Creating Layer conv4_22/relu
I0621 15:52:29.757037 11078 net.cpp:454] conv4_22/relu <- conv4_22
I0621 15:52:29.757042 11078 net.cpp:397] conv4_22/relu -> conv4_22 (in-place)
I0621 15:52:29.757048 11078 net.cpp:150] Setting up conv4_22/relu
I0621 15:52:29.757053 11078 net.cpp:157] Top shape: 2 1024 60 60 (7372800)
I0621 15:52:29.757057 11078 net.cpp:165] Memory required for data: 6476657200
I0621 15:52:29.757061 11078 layer_factory.hpp:77] Creating layer conv4_22_conv4_22/relu_0_split
I0621 15:52:29.757068 11078 net.cpp:106] Creating Layer conv4_22_conv4_22/relu_0_split
I0621 15:52:29.757072 11078 net.cpp:454] conv4_22_conv4_22/relu_0_split <- conv4_22
I0621 15:52:29.757079 11078 net.cpp:411] conv4_22_conv4_22/relu_0_split -> conv4_22_conv4_22/relu_0_split_0
I0621 15:52:29.757086 11078 net.cpp:411] conv4_22_conv4_22/relu_0_split -> conv4_22_conv4_22/relu_0_split_1
I0621 15:52:29.757120 11078 net.cpp:150] Setting up conv4_22_conv4_22/relu_0_split
I0621 15:52:29.757127 11078 net.cpp:157] Top shape: 2 1024 60 60 (7372800)
I0621 15:52:29.757131 11078 net.cpp:157] Top shape: 2 1024 60 60 (7372800)
I0621 15:52:29.757135 11078 net.cpp:165] Memory required for data: 6535639600
I0621 15:52:29.757139 11078 layer_factory.hpp:77] Creating layer conv4_23_1x1_reduce
I0621 15:52:29.757151 11078 net.cpp:106] Creating Layer conv4_23_1x1_reduce
I0621 15:52:29.757156 11078 net.cpp:454] conv4_23_1x1_reduce <- conv4_22_conv4_22/relu_0_split_0
I0621 15:52:29.757163 11078 net.cpp:411] conv4_23_1x1_reduce -> conv4_23_1x1_reduce
I0621 15:52:29.764925 11078 net.cpp:150] Setting up conv4_23_1x1_reduce
I0621 15:52:29.764968 11078 net.cpp:157] Top shape: 2 256 60 60 (1843200)
I0621 15:52:29.764971 11078 net.cpp:165] Memory required for data: 6543012400
I0621 15:52:29.764987 11078 layer_factory.hpp:77] Creating layer conv4_23_1x1_reduce/bn
I0621 15:52:29.765007 11078 net.cpp:106] Creating Layer conv4_23_1x1_reduce/bn
I0621 15:52:29.765013 11078 net.cpp:454] conv4_23_1x1_reduce/bn <- conv4_23_1x1_reduce
I0621 15:52:29.765019 11078 net.cpp:397] conv4_23_1x1_reduce/bn -> conv4_23_1x1_reduce (in-place)
I0621 15:52:29.765199 11078 net.cpp:150] Setting up conv4_23_1x1_reduce/bn
I0621 15:52:29.765204 11078 net.cpp:157] Top shape: 2 256 60 60 (1843200)
I0621 15:52:29.765208 11078 net.cpp:165] Memory required for data: 6550385200
I0621 15:52:29.765213 11078 layer_factory.hpp:77] Creating layer conv4_23_1x1_reduce/relu
I0621 15:52:29.765218 11078 net.cpp:106] Creating Layer conv4_23_1x1_reduce/relu
I0621 15:52:29.765221 11078 net.cpp:454] conv4_23_1x1_reduce/relu <- conv4_23_1x1_reduce
I0621 15:52:29.765224 11078 net.cpp:397] conv4_23_1x1_reduce/relu -> conv4_23_1x1_reduce (in-place)
I0621 15:52:29.765254 11078 net.cpp:150] Setting up conv4_23_1x1_reduce/relu
I0621 15:52:29.765257 11078 net.cpp:157] Top shape: 2 256 60 60 (1843200)
I0621 15:52:29.765260 11078 net.cpp:165] Memory required for data: 6557758000
I0621 15:52:29.765264 11078 layer_factory.hpp:77] Creating layer conv4_23_3x3
I0621 15:52:29.765274 11078 net.cpp:106] Creating Layer conv4_23_3x3
I0621 15:52:29.765276 11078 net.cpp:454] conv4_23_3x3 <- conv4_23_1x1_reduce
I0621 15:52:29.765280 11078 net.cpp:411] conv4_23_3x3 -> conv4_23_3x3
I0621 15:52:29.778517 11078 net.cpp:150] Setting up conv4_23_3x3
I0621 15:52:29.778537 11078 net.cpp:157] Top shape: 2 256 60 60 (1843200)
I0621 15:52:29.778540 11078 net.cpp:165] Memory required for data: 6565130800
I0621 15:52:29.778548 11078 layer_factory.hpp:77] Creating layer conv4_23_3x3/bn
I0621 15:52:29.778558 11078 net.cpp:106] Creating Layer conv4_23_3x3/bn
I0621 15:52:29.778561 11078 net.cpp:454] conv4_23_3x3/bn <- conv4_23_3x3
I0621 15:52:29.778566 11078 net.cpp:397] conv4_23_3x3/bn -> conv4_23_3x3 (in-place)
I0621 15:52:29.778738 11078 net.cpp:150] Setting up conv4_23_3x3/bn
I0621 15:52:29.778743 11078 net.cpp:157] Top shape: 2 256 60 60 (1843200)
I0621 15:52:29.778745 11078 net.cpp:165] Memory required for data: 6572503600
I0621 15:52:29.778751 11078 layer_factory.hpp:77] Creating layer conv4_23_3x3/relu
I0621 15:52:29.778758 11078 net.cpp:106] Creating Layer conv4_23_3x3/relu
I0621 15:52:29.778760 11078 net.cpp:454] conv4_23_3x3/relu <- conv4_23_3x3
I0621 15:52:29.778764 11078 net.cpp:397] conv4_23_3x3/relu -> conv4_23_3x3 (in-place)
I0621 15:52:29.778769 11078 net.cpp:150] Setting up conv4_23_3x3/relu
I0621 15:52:29.778771 11078 net.cpp:157] Top shape: 2 256 60 60 (1843200)
I0621 15:52:29.778774 11078 net.cpp:165] Memory required for data: 6579876400
I0621 15:52:29.778776 11078 layer_factory.hpp:77] Creating layer conv4_23_1x1_increase
I0621 15:52:29.778782 11078 net.cpp:106] Creating Layer conv4_23_1x1_increase
I0621 15:52:29.778784 11078 net.cpp:454] conv4_23_1x1_increase <- conv4_23_3x3
I0621 15:52:29.778789 11078 net.cpp:411] conv4_23_1x1_increase -> conv4_23_1x1_increase
I0621 15:52:29.785162 11078 net.cpp:150] Setting up conv4_23_1x1_increase
I0621 15:52:29.785176 11078 net.cpp:157] Top shape: 2 1024 60 60 (7372800)
I0621 15:52:29.785179 11078 net.cpp:165] Memory required for data: 6609367600
I0621 15:52:29.785184 11078 layer_factory.hpp:77] Creating layer conv4_23_1x1_increase/bn
I0621 15:52:29.785192 11078 net.cpp:106] Creating Layer conv4_23_1x1_increase/bn
I0621 15:52:29.785195 11078 net.cpp:454] conv4_23_1x1_increase/bn <- conv4_23_1x1_increase
I0621 15:52:29.785199 11078 net.cpp:397] conv4_23_1x1_increase/bn -> conv4_23_1x1_increase (in-place)
I0621 15:52:29.785390 11078 net.cpp:150] Setting up conv4_23_1x1_increase/bn
I0621 15:52:29.785395 11078 net.cpp:157] Top shape: 2 1024 60 60 (7372800)
I0621 15:52:29.785398 11078 net.cpp:165] Memory required for data: 6638858800
I0621 15:52:29.785403 11078 layer_factory.hpp:77] Creating layer conv4_23
I0621 15:52:29.785406 11078 net.cpp:106] Creating Layer conv4_23
I0621 15:52:29.785408 11078 net.cpp:454] conv4_23 <- conv4_22_conv4_22/relu_0_split_1
I0621 15:52:29.785411 11078 net.cpp:454] conv4_23 <- conv4_23_1x1_increase
I0621 15:52:29.785414 11078 net.cpp:411] conv4_23 -> conv4_23
I0621 15:52:29.785434 11078 net.cpp:150] Setting up conv4_23
I0621 15:52:29.785437 11078 net.cpp:157] Top shape: 2 1024 60 60 (7372800)
I0621 15:52:29.785439 11078 net.cpp:165] Memory required for data: 6668350000
I0621 15:52:29.785441 11078 layer_factory.hpp:77] Creating layer conv4_23/relu
I0621 15:52:29.785445 11078 net.cpp:106] Creating Layer conv4_23/relu
I0621 15:52:29.785449 11078 net.cpp:454] conv4_23/relu <- conv4_23
I0621 15:52:29.785450 11078 net.cpp:397] conv4_23/relu -> conv4_23 (in-place)
I0621 15:52:29.785454 11078 net.cpp:150] Setting up conv4_23/relu
I0621 15:52:29.785457 11078 net.cpp:157] Top shape: 2 1024 60 60 (7372800)
I0621 15:52:29.785459 11078 net.cpp:165] Memory required for data: 6697841200
I0621 15:52:29.785461 11078 layer_factory.hpp:77] Creating layer conv4_23_conv4_23/relu_0_split
I0621 15:52:29.785481 11078 net.cpp:106] Creating Layer conv4_23_conv4_23/relu_0_split
I0621 15:52:29.785485 11078 net.cpp:454] conv4_23_conv4_23/relu_0_split <- conv4_23
I0621 15:52:29.785488 11078 net.cpp:411] conv4_23_conv4_23/relu_0_split -> conv4_23_conv4_23/relu_0_split_0
I0621 15:52:29.785493 11078 net.cpp:411] conv4_23_conv4_23/relu_0_split -> conv4_23_conv4_23/relu_0_split_1
I0621 15:52:29.785519 11078 net.cpp:150] Setting up conv4_23_conv4_23/relu_0_split
I0621 15:52:29.785523 11078 net.cpp:157] Top shape: 2 1024 60 60 (7372800)
I0621 15:52:29.785526 11078 net.cpp:157] Top shape: 2 1024 60 60 (7372800)
I0621 15:52:29.785529 11078 net.cpp:165] Memory required for data: 6756823600
I0621 15:52:29.785531 11078 layer_factory.hpp:77] Creating layer conv5_1_1x1_reduce
I0621 15:52:29.785542 11078 net.cpp:106] Creating Layer conv5_1_1x1_reduce
I0621 15:52:29.785544 11078 net.cpp:454] conv5_1_1x1_reduce <- conv4_23_conv4_23/relu_0_split_0
I0621 15:52:29.785548 11078 net.cpp:411] conv5_1_1x1_reduce -> conv5_1_1x1_reduce
I0621 15:52:29.798077 11078 net.cpp:150] Setting up conv5_1_1x1_reduce
I0621 15:52:29.798112 11078 net.cpp:157] Top shape: 2 512 60 60 (3686400)
I0621 15:52:29.798117 11078 net.cpp:165] Memory required for data: 6771569200
I0621 15:52:29.798126 11078 layer_factory.hpp:77] Creating layer conv5_1_1x1_reduce/bn
I0621 15:52:29.798146 11078 net.cpp:106] Creating Layer conv5_1_1x1_reduce/bn
I0621 15:52:29.798156 11078 net.cpp:454] conv5_1_1x1_reduce/bn <- conv5_1_1x1_reduce
I0621 15:52:29.798163 11078 net.cpp:397] conv5_1_1x1_reduce/bn -> conv5_1_1x1_reduce (in-place)
I0621 15:52:29.798395 11078 net.cpp:150] Setting up conv5_1_1x1_reduce/bn
I0621 15:52:29.798403 11078 net.cpp:157] Top shape: 2 512 60 60 (3686400)
I0621 15:52:29.798408 11078 net.cpp:165] Memory required for data: 6786314800
I0621 15:52:29.798418 11078 layer_factory.hpp:77] Creating layer conv5_1_1x1_reduce/relu
I0621 15:52:29.798425 11078 net.cpp:106] Creating Layer conv5_1_1x1_reduce/relu
I0621 15:52:29.798429 11078 net.cpp:454] conv5_1_1x1_reduce/relu <- conv5_1_1x1_reduce
I0621 15:52:29.798434 11078 net.cpp:397] conv5_1_1x1_reduce/relu -> conv5_1_1x1_reduce (in-place)
I0621 15:52:29.798441 11078 net.cpp:150] Setting up conv5_1_1x1_reduce/relu
I0621 15:52:29.798446 11078 net.cpp:157] Top shape: 2 512 60 60 (3686400)
I0621 15:52:29.798450 11078 net.cpp:165] Memory required for data: 6801060400
I0621 15:52:29.798454 11078 layer_factory.hpp:77] Creating layer conv5_1_3x3
I0621 15:52:29.798463 11078 net.cpp:106] Creating Layer conv5_1_3x3
I0621 15:52:29.798467 11078 net.cpp:454] conv5_1_3x3 <- conv5_1_1x1_reduce
I0621 15:52:29.798475 11078 net.cpp:411] conv5_1_3x3 -> conv5_1_3x3
I0621 15:52:29.862169 11078 net.cpp:150] Setting up conv5_1_3x3
I0621 15:52:29.862197 11078 net.cpp:157] Top shape: 2 512 60 60 (3686400)
I0621 15:52:29.862200 11078 net.cpp:165] Memory required for data: 6815806000
I0621 15:52:29.862207 11078 layer_factory.hpp:77] Creating layer conv5_1_3x3/bn
I0621 15:52:29.862218 11078 net.cpp:106] Creating Layer conv5_1_3x3/bn
I0621 15:52:29.862224 11078 net.cpp:454] conv5_1_3x3/bn <- conv5_1_3x3
I0621 15:52:29.862236 11078 net.cpp:397] conv5_1_3x3/bn -> conv5_1_3x3 (in-place)
I0621 15:52:29.862443 11078 net.cpp:150] Setting up conv5_1_3x3/bn
I0621 15:52:29.862448 11078 net.cpp:157] Top shape: 2 512 60 60 (3686400)
I0621 15:52:29.862452 11078 net.cpp:165] Memory required for data: 6830551600
I0621 15:52:29.862457 11078 layer_factory.hpp:77] Creating layer conv5_1_3x3/relu
I0621 15:52:29.862462 11078 net.cpp:106] Creating Layer conv5_1_3x3/relu
I0621 15:52:29.862465 11078 net.cpp:454] conv5_1_3x3/relu <- conv5_1_3x3
I0621 15:52:29.862468 11078 net.cpp:397] conv5_1_3x3/relu -> conv5_1_3x3 (in-place)
I0621 15:52:29.862473 11078 net.cpp:150] Setting up conv5_1_3x3/relu
I0621 15:52:29.862476 11078 net.cpp:157] Top shape: 2 512 60 60 (3686400)
I0621 15:52:29.862479 11078 net.cpp:165] Memory required for data: 6845297200
I0621 15:52:29.862483 11078 layer_factory.hpp:77] Creating layer conv5_1_1x1_increase
I0621 15:52:29.862506 11078 net.cpp:106] Creating Layer conv5_1_1x1_increase
I0621 15:52:29.862509 11078 net.cpp:454] conv5_1_1x1_increase <- conv5_1_3x3
I0621 15:52:29.862514 11078 net.cpp:411] conv5_1_1x1_increase -> conv5_1_1x1_increase
I0621 15:52:29.885674 11078 net.cpp:150] Setting up conv5_1_1x1_increase
I0621 15:52:29.885700 11078 net.cpp:157] Top shape: 2 2048 60 60 (14745600)
I0621 15:52:29.885704 11078 net.cpp:165] Memory required for data: 6904279600
I0621 15:52:29.885722 11078 layer_factory.hpp:77] Creating layer conv5_1_1x1_increase/bn
I0621 15:52:29.885742 11078 net.cpp:106] Creating Layer conv5_1_1x1_increase/bn
I0621 15:52:29.885754 11078 net.cpp:454] conv5_1_1x1_increase/bn <- conv5_1_1x1_increase
I0621 15:52:29.885766 11078 net.cpp:397] conv5_1_1x1_increase/bn -> conv5_1_1x1_increase (in-place)
I0621 15:52:29.886013 11078 net.cpp:150] Setting up conv5_1_1x1_increase/bn
I0621 15:52:29.886021 11078 net.cpp:157] Top shape: 2 2048 60 60 (14745600)
I0621 15:52:29.886024 11078 net.cpp:165] Memory required for data: 6963262000
I0621 15:52:29.886031 11078 layer_factory.hpp:77] Creating layer conv5_1_1x1_proj
I0621 15:52:29.886042 11078 net.cpp:106] Creating Layer conv5_1_1x1_proj
I0621 15:52:29.886051 11078 net.cpp:454] conv5_1_1x1_proj <- conv4_23_conv4_23/relu_0_split_1
I0621 15:52:29.886056 11078 net.cpp:411] conv5_1_1x1_proj -> conv5_1_1x1_proj
I0621 15:52:29.937307 11078 net.cpp:150] Setting up conv5_1_1x1_proj
I0621 15:52:29.937331 11078 net.cpp:157] Top shape: 2 2048 60 60 (14745600)
I0621 15:52:29.937335 11078 net.cpp:165] Memory required for data: 7022244400
I0621 15:52:29.937341 11078 layer_factory.hpp:77] Creating layer conv5_1_1x1_proj/bn
I0621 15:52:29.937353 11078 net.cpp:106] Creating Layer conv5_1_1x1_proj/bn
I0621 15:52:29.937366 11078 net.cpp:454] conv5_1_1x1_proj/bn <- conv5_1_1x1_proj
I0621 15:52:29.937372 11078 net.cpp:397] conv5_1_1x1_proj/bn -> conv5_1_1x1_proj (in-place)
I0621 15:52:29.937569 11078 net.cpp:150] Setting up conv5_1_1x1_proj/bn
I0621 15:52:29.937575 11078 net.cpp:157] Top shape: 2 2048 60 60 (14745600)
I0621 15:52:29.937577 11078 net.cpp:165] Memory required for data: 7081226800
I0621 15:52:29.937582 11078 layer_factory.hpp:77] Creating layer conv5_1
I0621 15:52:29.937587 11078 net.cpp:106] Creating Layer conv5_1
I0621 15:52:29.937588 11078 net.cpp:454] conv5_1 <- conv5_1_1x1_proj
I0621 15:52:29.937592 11078 net.cpp:454] conv5_1 <- conv5_1_1x1_increase
I0621 15:52:29.937594 11078 net.cpp:411] conv5_1 -> conv5_1
I0621 15:52:29.937615 11078 net.cpp:150] Setting up conv5_1
I0621 15:52:29.937619 11078 net.cpp:157] Top shape: 2 2048 60 60 (14745600)
I0621 15:52:29.937621 11078 net.cpp:165] Memory required for data: 7140209200
I0621 15:52:29.937623 11078 layer_factory.hpp:77] Creating layer conv5_1/relu
I0621 15:52:29.937629 11078 net.cpp:106] Creating Layer conv5_1/relu
I0621 15:52:29.937633 11078 net.cpp:454] conv5_1/relu <- conv5_1
I0621 15:52:29.937635 11078 net.cpp:397] conv5_1/relu -> conv5_1 (in-place)
I0621 15:52:29.937638 11078 net.cpp:150] Setting up conv5_1/relu
I0621 15:52:29.937641 11078 net.cpp:157] Top shape: 2 2048 60 60 (14745600)
I0621 15:52:29.937644 11078 net.cpp:165] Memory required for data: 7199191600
I0621 15:52:29.937646 11078 layer_factory.hpp:77] Creating layer conv5_1_conv5_1/relu_0_split
I0621 15:52:29.937652 11078 net.cpp:106] Creating Layer conv5_1_conv5_1/relu_0_split
I0621 15:52:29.937656 11078 net.cpp:454] conv5_1_conv5_1/relu_0_split <- conv5_1
I0621 15:52:29.937660 11078 net.cpp:411] conv5_1_conv5_1/relu_0_split -> conv5_1_conv5_1/relu_0_split_0
I0621 15:52:29.937664 11078 net.cpp:411] conv5_1_conv5_1/relu_0_split -> conv5_1_conv5_1/relu_0_split_1
I0621 15:52:29.937690 11078 net.cpp:150] Setting up conv5_1_conv5_1/relu_0_split
I0621 15:52:29.937695 11078 net.cpp:157] Top shape: 2 2048 60 60 (14745600)
I0621 15:52:29.937698 11078 net.cpp:157] Top shape: 2 2048 60 60 (14745600)
I0621 15:52:29.937700 11078 net.cpp:165] Memory required for data: 7317156400
I0621 15:52:29.937703 11078 layer_factory.hpp:77] Creating layer conv5_2_1x1_reduce
I0621 15:52:29.937731 11078 net.cpp:106] Creating Layer conv5_2_1x1_reduce
I0621 15:52:29.937734 11078 net.cpp:454] conv5_2_1x1_reduce <- conv5_1_conv5_1/relu_0_split_0
I0621 15:52:29.937739 11078 net.cpp:411] conv5_2_1x1_reduce -> conv5_2_1x1_reduce
I0621 15:52:29.966328 11078 net.cpp:150] Setting up conv5_2_1x1_reduce
I0621 15:52:29.966361 11078 net.cpp:157] Top shape: 2 512 60 60 (3686400)
I0621 15:52:29.966364 11078 net.cpp:165] Memory required for data: 7331902000
I0621 15:52:29.966378 11078 layer_factory.hpp:77] Creating layer conv5_2_1x1_reduce/bn
I0621 15:52:29.966389 11078 net.cpp:106] Creating Layer conv5_2_1x1_reduce/bn
I0621 15:52:29.966394 11078 net.cpp:454] conv5_2_1x1_reduce/bn <- conv5_2_1x1_reduce
I0621 15:52:29.966399 11078 net.cpp:397] conv5_2_1x1_reduce/bn -> conv5_2_1x1_reduce (in-place)
I0621 15:52:29.966593 11078 net.cpp:150] Setting up conv5_2_1x1_reduce/bn
I0621 15:52:29.966598 11078 net.cpp:157] Top shape: 2 512 60 60 (3686400)
I0621 15:52:29.966600 11078 net.cpp:165] Memory required for data: 7346647600
I0621 15:52:29.966605 11078 layer_factory.hpp:77] Creating layer conv5_2_1x1_reduce/relu
I0621 15:52:29.966612 11078 net.cpp:106] Creating Layer conv5_2_1x1_reduce/relu
I0621 15:52:29.966615 11078 net.cpp:454] conv5_2_1x1_reduce/relu <- conv5_2_1x1_reduce
I0621 15:52:29.966617 11078 net.cpp:397] conv5_2_1x1_reduce/relu -> conv5_2_1x1_reduce (in-place)
I0621 15:52:29.966622 11078 net.cpp:150] Setting up conv5_2_1x1_reduce/relu
I0621 15:52:29.966624 11078 net.cpp:157] Top shape: 2 512 60 60 (3686400)
I0621 15:52:29.966627 11078 net.cpp:165] Memory required for data: 7361393200
I0621 15:52:29.966630 11078 layer_factory.hpp:77] Creating layer conv5_2_3x3
I0621 15:52:29.966635 11078 net.cpp:106] Creating Layer conv5_2_3x3
I0621 15:52:29.966639 11078 net.cpp:454] conv5_2_3x3 <- conv5_2_1x1_reduce
I0621 15:52:29.966644 11078 net.cpp:411] conv5_2_3x3 -> conv5_2_3x3
I0621 15:52:30.023360 11078 net.cpp:150] Setting up conv5_2_3x3
I0621 15:52:30.023386 11078 net.cpp:157] Top shape: 2 512 60 60 (3686400)
I0621 15:52:30.023389 11078 net.cpp:165] Memory required for data: 7376138800
I0621 15:52:30.023397 11078 layer_factory.hpp:77] Creating layer conv5_2_3x3/bn
I0621 15:52:30.023414 11078 net.cpp:106] Creating Layer conv5_2_3x3/bn
I0621 15:52:30.023422 11078 net.cpp:454] conv5_2_3x3/bn <- conv5_2_3x3
I0621 15:52:30.023437 11078 net.cpp:397] conv5_2_3x3/bn -> conv5_2_3x3 (in-place)
I0621 15:52:30.023627 11078 net.cpp:150] Setting up conv5_2_3x3/bn
I0621 15:52:30.023632 11078 net.cpp:157] Top shape: 2 512 60 60 (3686400)
I0621 15:52:30.023633 11078 net.cpp:165] Memory required for data: 7390884400
I0621 15:52:30.023639 11078 layer_factory.hpp:77] Creating layer conv5_2_3x3/relu
I0621 15:52:30.023644 11078 net.cpp:106] Creating Layer conv5_2_3x3/relu
I0621 15:52:30.023648 11078 net.cpp:454] conv5_2_3x3/relu <- conv5_2_3x3
I0621 15:52:30.023651 11078 net.cpp:397] conv5_2_3x3/relu -> conv5_2_3x3 (in-place)
I0621 15:52:30.023656 11078 net.cpp:150] Setting up conv5_2_3x3/relu
I0621 15:52:30.023659 11078 net.cpp:157] Top shape: 2 512 60 60 (3686400)
I0621 15:52:30.023663 11078 net.cpp:165] Memory required for data: 7405630000
I0621 15:52:30.023665 11078 layer_factory.hpp:77] Creating layer conv5_2_1x1_increase
I0621 15:52:30.023674 11078 net.cpp:106] Creating Layer conv5_2_1x1_increase
I0621 15:52:30.023677 11078 net.cpp:454] conv5_2_1x1_increase <- conv5_2_3x3
I0621 15:52:30.023684 11078 net.cpp:411] conv5_2_1x1_increase -> conv5_2_1x1_increase
I0621 15:52:30.049399 11078 net.cpp:150] Setting up conv5_2_1x1_increase
I0621 15:52:30.049489 11078 net.cpp:157] Top shape: 2 2048 60 60 (14745600)
I0621 15:52:30.049496 11078 net.cpp:165] Memory required for data: 7464612400
I0621 15:52:30.049512 11078 layer_factory.hpp:77] Creating layer conv5_2_1x1_increase/bn
I0621 15:52:30.049540 11078 net.cpp:106] Creating Layer conv5_2_1x1_increase/bn
I0621 15:52:30.049553 11078 net.cpp:454] conv5_2_1x1_increase/bn <- conv5_2_1x1_increase
I0621 15:52:30.049567 11078 net.cpp:397] conv5_2_1x1_increase/bn -> conv5_2_1x1_increase (in-place)
I0621 15:52:30.049952 11078 net.cpp:150] Setting up conv5_2_1x1_increase/bn
I0621 15:52:30.049962 11078 net.cpp:157] Top shape: 2 2048 60 60 (14745600)
I0621 15:52:30.049968 11078 net.cpp:165] Memory required for data: 7523594800
I0621 15:52:30.050128 11078 layer_factory.hpp:77] Creating layer conv5_2
I0621 15:52:30.050143 11078 net.cpp:106] Creating Layer conv5_2
I0621 15:52:30.050149 11078 net.cpp:454] conv5_2 <- conv5_1_conv5_1/relu_0_split_1
I0621 15:52:30.050155 11078 net.cpp:454] conv5_2 <- conv5_2_1x1_increase
I0621 15:52:30.050163 11078 net.cpp:411] conv5_2 -> conv5_2
I0621 15:52:30.050209 11078 net.cpp:150] Setting up conv5_2
I0621 15:52:30.050215 11078 net.cpp:157] Top shape: 2 2048 60 60 (14745600)
I0621 15:52:30.050220 11078 net.cpp:165] Memory required for data: 7582577200
I0621 15:52:30.050223 11078 layer_factory.hpp:77] Creating layer conv5_2/relu
I0621 15:52:30.050235 11078 net.cpp:106] Creating Layer conv5_2/relu
I0621 15:52:30.050240 11078 net.cpp:454] conv5_2/relu <- conv5_2
I0621 15:52:30.050245 11078 net.cpp:397] conv5_2/relu -> conv5_2 (in-place)
I0621 15:52:30.050252 11078 net.cpp:150] Setting up conv5_2/relu
I0621 15:52:30.050257 11078 net.cpp:157] Top shape: 2 2048 60 60 (14745600)
I0621 15:52:30.050261 11078 net.cpp:165] Memory required for data: 7641559600
I0621 15:52:30.050264 11078 layer_factory.hpp:77] Creating layer conv5_2_conv5_2/relu_0_split
I0621 15:52:30.050276 11078 net.cpp:106] Creating Layer conv5_2_conv5_2/relu_0_split
I0621 15:52:30.050282 11078 net.cpp:454] conv5_2_conv5_2/relu_0_split <- conv5_2
I0621 15:52:30.050287 11078 net.cpp:411] conv5_2_conv5_2/relu_0_split -> conv5_2_conv5_2/relu_0_split_0
I0621 15:52:30.050294 11078 net.cpp:411] conv5_2_conv5_2/relu_0_split -> conv5_2_conv5_2/relu_0_split_1
I0621 15:52:30.050343 11078 net.cpp:150] Setting up conv5_2_conv5_2/relu_0_split
I0621 15:52:30.050349 11078 net.cpp:157] Top shape: 2 2048 60 60 (14745600)
I0621 15:52:30.050354 11078 net.cpp:157] Top shape: 2 2048 60 60 (14745600)
I0621 15:52:30.050359 11078 net.cpp:165] Memory required for data: 7759524400
I0621 15:52:30.050362 11078 layer_factory.hpp:77] Creating layer conv5_3_1x1_reduce
I0621 15:52:30.050374 11078 net.cpp:106] Creating Layer conv5_3_1x1_reduce
I0621 15:52:30.050379 11078 net.cpp:454] conv5_3_1x1_reduce <- conv5_2_conv5_2/relu_0_split_0
I0621 15:52:30.050385 11078 net.cpp:411] conv5_3_1x1_reduce -> conv5_3_1x1_reduce
I0621 15:52:30.077308 11078 net.cpp:150] Setting up conv5_3_1x1_reduce
I0621 15:52:30.077329 11078 net.cpp:157] Top shape: 2 512 60 60 (3686400)
I0621 15:52:30.077333 11078 net.cpp:165] Memory required for data: 7774270000
I0621 15:52:30.077340 11078 layer_factory.hpp:77] Creating layer conv5_3_1x1_reduce/bn
I0621 15:52:30.077348 11078 net.cpp:106] Creating Layer conv5_3_1x1_reduce/bn
I0621 15:52:30.077353 11078 net.cpp:454] conv5_3_1x1_reduce/bn <- conv5_3_1x1_reduce
I0621 15:52:30.077359 11078 net.cpp:397] conv5_3_1x1_reduce/bn -> conv5_3_1x1_reduce (in-place)
I0621 15:52:30.077546 11078 net.cpp:150] Setting up conv5_3_1x1_reduce/bn
I0621 15:52:30.077553 11078 net.cpp:157] Top shape: 2 512 60 60 (3686400)
I0621 15:52:30.077554 11078 net.cpp:165] Memory required for data: 7789015600
I0621 15:52:30.077561 11078 layer_factory.hpp:77] Creating layer conv5_3_1x1_reduce/relu
I0621 15:52:30.077569 11078 net.cpp:106] Creating Layer conv5_3_1x1_reduce/relu
I0621 15:52:30.077571 11078 net.cpp:454] conv5_3_1x1_reduce/relu <- conv5_3_1x1_reduce
I0621 15:52:30.077574 11078 net.cpp:397] conv5_3_1x1_reduce/relu -> conv5_3_1x1_reduce (in-place)
I0621 15:52:30.077582 11078 net.cpp:150] Setting up conv5_3_1x1_reduce/relu
I0621 15:52:30.077585 11078 net.cpp:157] Top shape: 2 512 60 60 (3686400)
I0621 15:52:30.077587 11078 net.cpp:165] Memory required for data: 7803761200
I0621 15:52:30.077589 11078 layer_factory.hpp:77] Creating layer conv5_3_3x3
I0621 15:52:30.077596 11078 net.cpp:106] Creating Layer conv5_3_3x3
I0621 15:52:30.077600 11078 net.cpp:454] conv5_3_3x3 <- conv5_3_1x1_reduce
I0621 15:52:30.077603 11078 net.cpp:411] conv5_3_3x3 -> conv5_3_3x3
I0621 15:52:30.134243 11078 net.cpp:150] Setting up conv5_3_3x3
I0621 15:52:30.134294 11078 net.cpp:157] Top shape: 2 512 60 60 (3686400)
I0621 15:52:30.134296 11078 net.cpp:165] Memory required for data: 7818506800
I0621 15:52:30.134312 11078 layer_factory.hpp:77] Creating layer conv5_3_3x3/bn
I0621 15:52:30.134340 11078 net.cpp:106] Creating Layer conv5_3_3x3/bn
I0621 15:52:30.134346 11078 net.cpp:454] conv5_3_3x3/bn <- conv5_3_3x3
I0621 15:52:30.134351 11078 net.cpp:397] conv5_3_3x3/bn -> conv5_3_3x3 (in-place)
I0621 15:52:30.134539 11078 net.cpp:150] Setting up conv5_3_3x3/bn
I0621 15:52:30.134544 11078 net.cpp:157] Top shape: 2 512 60 60 (3686400)
I0621 15:52:30.134546 11078 net.cpp:165] Memory required for data: 7833252400
I0621 15:52:30.134552 11078 layer_factory.hpp:77] Creating layer conv5_3_3x3/relu
I0621 15:52:30.134555 11078 net.cpp:106] Creating Layer conv5_3_3x3/relu
I0621 15:52:30.134557 11078 net.cpp:454] conv5_3_3x3/relu <- conv5_3_3x3
I0621 15:52:30.134560 11078 net.cpp:397] conv5_3_3x3/relu -> conv5_3_3x3 (in-place)
I0621 15:52:30.134564 11078 net.cpp:150] Setting up conv5_3_3x3/relu
I0621 15:52:30.134567 11078 net.cpp:157] Top shape: 2 512 60 60 (3686400)
I0621 15:52:30.134568 11078 net.cpp:165] Memory required for data: 7847998000
I0621 15:52:30.134572 11078 layer_factory.hpp:77] Creating layer conv5_3_1x1_increase
I0621 15:52:30.134579 11078 net.cpp:106] Creating Layer conv5_3_1x1_increase
I0621 15:52:30.134582 11078 net.cpp:454] conv5_3_1x1_increase <- conv5_3_3x3
I0621 15:52:30.134587 11078 net.cpp:411] conv5_3_1x1_increase -> conv5_3_1x1_increase
I0621 15:52:30.162185 11078 net.cpp:150] Setting up conv5_3_1x1_increase
I0621 15:52:30.162209 11078 net.cpp:157] Top shape: 2 2048 60 60 (14745600)
I0621 15:52:30.162211 11078 net.cpp:165] Memory required for data: 7906980400
I0621 15:52:30.162217 11078 layer_factory.hpp:77] Creating layer conv5_3_1x1_increase/bn
I0621 15:52:30.162227 11078 net.cpp:106] Creating Layer conv5_3_1x1_increase/bn
I0621 15:52:30.162231 11078 net.cpp:454] conv5_3_1x1_increase/bn <- conv5_3_1x1_increase
I0621 15:52:30.162238 11078 net.cpp:397] conv5_3_1x1_increase/bn -> conv5_3_1x1_increase (in-place)
I0621 15:52:30.162451 11078 net.cpp:150] Setting up conv5_3_1x1_increase/bn
I0621 15:52:30.162456 11078 net.cpp:157] Top shape: 2 2048 60 60 (14745600)
I0621 15:52:30.162457 11078 net.cpp:165] Memory required for data: 7965962800
I0621 15:52:30.162462 11078 layer_factory.hpp:77] Creating layer conv5_3
I0621 15:52:30.162467 11078 net.cpp:106] Creating Layer conv5_3
I0621 15:52:30.162469 11078 net.cpp:454] conv5_3 <- conv5_2_conv5_2/relu_0_split_1
I0621 15:52:30.162472 11078 net.cpp:454] conv5_3 <- conv5_3_1x1_increase
I0621 15:52:30.162475 11078 net.cpp:411] conv5_3 -> conv5_3
I0621 15:52:30.162498 11078 net.cpp:150] Setting up conv5_3
I0621 15:52:30.162503 11078 net.cpp:157] Top shape: 2 2048 60 60 (14745600)
I0621 15:52:30.162508 11078 net.cpp:165] Memory required for data: 8024945200
I0621 15:52:30.162510 11078 layer_factory.hpp:77] Creating layer conv5_3/relu
I0621 15:52:30.162519 11078 net.cpp:106] Creating Layer conv5_3/relu
I0621 15:52:30.162523 11078 net.cpp:454] conv5_3/relu <- conv5_3
I0621 15:52:30.162526 11078 net.cpp:397] conv5_3/relu -> conv5_3 (in-place)
I0621 15:52:30.162530 11078 net.cpp:150] Setting up conv5_3/relu
I0621 15:52:30.162534 11078 net.cpp:157] Top shape: 2 2048 60 60 (14745600)
I0621 15:52:30.162536 11078 net.cpp:165] Memory required for data: 8083927600
I0621 15:52:30.162539 11078 layer_factory.hpp:77] Creating layer conv5_3_conv5_3/relu_0_split
I0621 15:52:30.162544 11078 net.cpp:106] Creating Layer conv5_3_conv5_3/relu_0_split
I0621 15:52:30.162546 11078 net.cpp:454] conv5_3_conv5_3/relu_0_split <- conv5_3
I0621 15:52:30.162550 11078 net.cpp:411] conv5_3_conv5_3/relu_0_split -> conv5_3_conv5_3/relu_0_split_0
I0621 15:52:30.162554 11078 net.cpp:411] conv5_3_conv5_3/relu_0_split -> conv5_3_conv5_3/relu_0_split_1
I0621 15:52:30.162559 11078 net.cpp:411] conv5_3_conv5_3/relu_0_split -> conv5_3_conv5_3/relu_0_split_2
I0621 15:52:30.162565 11078 net.cpp:411] conv5_3_conv5_3/relu_0_split -> conv5_3_conv5_3/relu_0_split_3
I0621 15:52:30.162585 11078 net.cpp:411] conv5_3_conv5_3/relu_0_split -> conv5_3_conv5_3/relu_0_split_4
I0621 15:52:30.162638 11078 net.cpp:150] Setting up conv5_3_conv5_3/relu_0_split
I0621 15:52:30.162643 11078 net.cpp:157] Top shape: 2 2048 60 60 (14745600)
I0621 15:52:30.162647 11078 net.cpp:157] Top shape: 2 2048 60 60 (14745600)
I0621 15:52:30.162649 11078 net.cpp:157] Top shape: 2 2048 60 60 (14745600)
I0621 15:52:30.162652 11078 net.cpp:157] Top shape: 2 2048 60 60 (14745600)
I0621 15:52:30.162655 11078 net.cpp:157] Top shape: 2 2048 60 60 (14745600)
I0621 15:52:30.162658 11078 net.cpp:165] Memory required for data: 8378839600
I0621 15:52:30.162660 11078 layer_factory.hpp:77] Creating layer conv5_3_pool1
I0621 15:52:30.162667 11078 net.cpp:106] Creating Layer conv5_3_pool1
I0621 15:52:30.162669 11078 net.cpp:454] conv5_3_pool1 <- conv5_3_conv5_3/relu_0_split_0
I0621 15:52:30.162673 11078 net.cpp:411] conv5_3_pool1 -> conv5_3_pool1
I0621 15:52:30.162690 11078 net.cpp:150] Setting up conv5_3_pool1
I0621 15:52:30.162694 11078 net.cpp:157] Top shape: 2 2048 1 1 (4096)
I0621 15:52:30.162698 11078 net.cpp:165] Memory required for data: 8378855984
I0621 15:52:30.162700 11078 layer_factory.hpp:77] Creating layer conv5_3_pool1_conv
I0621 15:52:30.162706 11078 net.cpp:106] Creating Layer conv5_3_pool1_conv
I0621 15:52:30.162709 11078 net.cpp:454] conv5_3_pool1_conv <- conv5_3_pool1
I0621 15:52:30.162714 11078 net.cpp:411] conv5_3_pool1_conv -> conv5_3_pool1_conv
I0621 15:52:30.185969 11078 net.cpp:150] Setting up conv5_3_pool1_conv
I0621 15:52:30.185997 11078 net.cpp:157] Top shape: 2 512 1 1 (1024)
I0621 15:52:30.186000 11078 net.cpp:165] Memory required for data: 8378860080
I0621 15:52:30.186007 11078 layer_factory.hpp:77] Creating layer conv5_3_pool1_conv/bn
I0621 15:52:30.186017 11078 net.cpp:106] Creating Layer conv5_3_pool1_conv/bn
I0621 15:52:30.186023 11078 net.cpp:454] conv5_3_pool1_conv/bn <- conv5_3_pool1_conv
I0621 15:52:30.186028 11078 net.cpp:397] conv5_3_pool1_conv/bn -> conv5_3_pool1_conv (in-place)
I0621 15:52:30.186199 11078 net.cpp:150] Setting up conv5_3_pool1_conv/bn
I0621 15:52:30.186204 11078 net.cpp:157] Top shape: 2 512 1 1 (1024)
I0621 15:52:30.186208 11078 net.cpp:165] Memory required for data: 8378864176
I0621 15:52:30.186213 11078 layer_factory.hpp:77] Creating layer conv5_3_pool1_conv/relu
I0621 15:52:30.186218 11078 net.cpp:106] Creating Layer conv5_3_pool1_conv/relu
I0621 15:52:30.186220 11078 net.cpp:454] conv5_3_pool1_conv/relu <- conv5_3_pool1_conv
I0621 15:52:30.186223 11078 net.cpp:397] conv5_3_pool1_conv/relu -> conv5_3_pool1_conv (in-place)
I0621 15:52:30.186228 11078 net.cpp:150] Setting up conv5_3_pool1_conv/relu
I0621 15:52:30.186231 11078 net.cpp:157] Top shape: 2 512 1 1 (1024)
I0621 15:52:30.186233 11078 net.cpp:165] Memory required for data: 8378868272
I0621 15:52:30.186236 11078 layer_factory.hpp:77] Creating layer conv5_3_pool1_interp
I0621 15:52:30.186241 11078 net.cpp:106] Creating Layer conv5_3_pool1_interp
I0621 15:52:30.186244 11078 net.cpp:454] conv5_3_pool1_interp <- conv5_3_pool1_conv
I0621 15:52:30.186247 11078 net.cpp:411] conv5_3_pool1_interp -> conv5_3_pool1_interp
I0621 15:52:30.186272 11078 net.cpp:150] Setting up conv5_3_pool1_interp
I0621 15:52:30.186276 11078 net.cpp:157] Top shape: 2 512 60 60 (3686400)
I0621 15:52:30.186278 11078 net.cpp:165] Memory required for data: 8393613872
I0621 15:52:30.186281 11078 layer_factory.hpp:77] Creating layer conv5_3_pool2
I0621 15:52:30.186285 11078 net.cpp:106] Creating Layer conv5_3_pool2
I0621 15:52:30.186288 11078 net.cpp:454] conv5_3_pool2 <- conv5_3_conv5_3/relu_0_split_1
I0621 15:52:30.186293 11078 net.cpp:411] conv5_3_pool2 -> conv5_3_pool2
I0621 15:52:30.186311 11078 net.cpp:150] Setting up conv5_3_pool2
I0621 15:52:30.186316 11078 net.cpp:157] Top shape: 2 2048 2 2 (16384)
I0621 15:52:30.186318 11078 net.cpp:165] Memory required for data: 8393679408
I0621 15:52:30.186321 11078 layer_factory.hpp:77] Creating layer conv5_3_pool2_conv
I0621 15:52:30.186342 11078 net.cpp:106] Creating Layer conv5_3_pool2_conv
I0621 15:52:30.186345 11078 net.cpp:454] conv5_3_pool2_conv <- conv5_3_pool2
I0621 15:52:30.186349 11078 net.cpp:411] conv5_3_pool2_conv -> conv5_3_pool2_conv
I0621 15:52:30.214239 11078 net.cpp:150] Setting up conv5_3_pool2_conv
I0621 15:52:30.214263 11078 net.cpp:157] Top shape: 2 512 2 2 (4096)
I0621 15:52:30.214267 11078 net.cpp:165] Memory required for data: 8393695792
I0621 15:52:30.214275 11078 layer_factory.hpp:77] Creating layer conv5_3_pool2_conv/bn
I0621 15:52:30.214285 11078 net.cpp:106] Creating Layer conv5_3_pool2_conv/bn
I0621 15:52:30.214293 11078 net.cpp:454] conv5_3_pool2_conv/bn <- conv5_3_pool2_conv
I0621 15:52:30.214298 11078 net.cpp:397] conv5_3_pool2_conv/bn -> conv5_3_pool2_conv (in-place)
I0621 15:52:30.214481 11078 net.cpp:150] Setting up conv5_3_pool2_conv/bn
I0621 15:52:30.214488 11078 net.cpp:157] Top shape: 2 512 2 2 (4096)
I0621 15:52:30.214489 11078 net.cpp:165] Memory required for data: 8393712176
I0621 15:52:30.214494 11078 layer_factory.hpp:77] Creating layer conv5_3_pool2_conv/relu
I0621 15:52:30.214499 11078 net.cpp:106] Creating Layer conv5_3_pool2_conv/relu
I0621 15:52:30.214501 11078 net.cpp:454] conv5_3_pool2_conv/relu <- conv5_3_pool2_conv
I0621 15:52:30.214504 11078 net.cpp:397] conv5_3_pool2_conv/relu -> conv5_3_pool2_conv (in-place)
I0621 15:52:30.214509 11078 net.cpp:150] Setting up conv5_3_pool2_conv/relu
I0621 15:52:30.214511 11078 net.cpp:157] Top shape: 2 512 2 2 (4096)
I0621 15:52:30.214514 11078 net.cpp:165] Memory required for data: 8393728560
I0621 15:52:30.214515 11078 layer_factory.hpp:77] Creating layer conv5_3_pool2_interp
I0621 15:52:30.214520 11078 net.cpp:106] Creating Layer conv5_3_pool2_interp
I0621 15:52:30.214522 11078 net.cpp:454] conv5_3_pool2_interp <- conv5_3_pool2_conv
I0621 15:52:30.214526 11078 net.cpp:411] conv5_3_pool2_interp -> conv5_3_pool2_interp
I0621 15:52:30.214546 11078 net.cpp:150] Setting up conv5_3_pool2_interp
I0621 15:52:30.214550 11078 net.cpp:157] Top shape: 2 512 60 60 (3686400)
I0621 15:52:30.214553 11078 net.cpp:165] Memory required for data: 8408474160
I0621 15:52:30.214556 11078 layer_factory.hpp:77] Creating layer conv5_3_pool3
I0621 15:52:30.214561 11078 net.cpp:106] Creating Layer conv5_3_pool3
I0621 15:52:30.214565 11078 net.cpp:454] conv5_3_pool3 <- conv5_3_conv5_3/relu_0_split_2
I0621 15:52:30.214571 11078 net.cpp:411] conv5_3_pool3 -> conv5_3_pool3
I0621 15:52:30.214588 11078 net.cpp:150] Setting up conv5_3_pool3
I0621 15:52:30.214592 11078 net.cpp:157] Top shape: 2 2048 3 3 (36864)
I0621 15:52:30.214594 11078 net.cpp:165] Memory required for data: 8408621616
I0621 15:52:30.214597 11078 layer_factory.hpp:77] Creating layer conv5_3_pool3_conv
I0621 15:52:30.214608 11078 net.cpp:106] Creating Layer conv5_3_pool3_conv
I0621 15:52:30.214610 11078 net.cpp:454] conv5_3_pool3_conv <- conv5_3_pool3
I0621 15:52:30.214614 11078 net.cpp:411] conv5_3_pool3_conv -> conv5_3_pool3_conv
I0621 15:52:30.238039 11078 net.cpp:150] Setting up conv5_3_pool3_conv
I0621 15:52:30.238098 11078 net.cpp:157] Top shape: 2 512 3 3 (9216)
I0621 15:52:30.238103 11078 net.cpp:165] Memory required for data: 8408658480
I0621 15:52:30.238118 11078 layer_factory.hpp:77] Creating layer conv5_3_pool3_conv/bn
I0621 15:52:30.238144 11078 net.cpp:106] Creating Layer conv5_3_pool3_conv/bn
I0621 15:52:30.238157 11078 net.cpp:454] conv5_3_pool3_conv/bn <- conv5_3_pool3_conv
I0621 15:52:30.238165 11078 net.cpp:397] conv5_3_pool3_conv/bn -> conv5_3_pool3_conv (in-place)
I0621 15:52:30.238425 11078 net.cpp:150] Setting up conv5_3_pool3_conv/bn
I0621 15:52:30.238432 11078 net.cpp:157] Top shape: 2 512 3 3 (9216)
I0621 15:52:30.238435 11078 net.cpp:165] Memory required for data: 8408695344
I0621 15:52:30.238440 11078 layer_factory.hpp:77] Creating layer conv5_3_pool3_conv/relu
I0621 15:52:30.238447 11078 net.cpp:106] Creating Layer conv5_3_pool3_conv/relu
I0621 15:52:30.238451 11078 net.cpp:454] conv5_3_pool3_conv/relu <- conv5_3_pool3_conv
I0621 15:52:30.238453 11078 net.cpp:397] conv5_3_pool3_conv/relu -> conv5_3_pool3_conv (in-place)
I0621 15:52:30.238494 11078 net.cpp:150] Setting up conv5_3_pool3_conv/relu
I0621 15:52:30.238497 11078 net.cpp:157] Top shape: 2 512 3 3 (9216)
I0621 15:52:30.238499 11078 net.cpp:165] Memory required for data: 8408732208
I0621 15:52:30.238502 11078 layer_factory.hpp:77] Creating layer conv5_3_pool3_interp
I0621 15:52:30.238507 11078 net.cpp:106] Creating Layer conv5_3_pool3_interp
I0621 15:52:30.238509 11078 net.cpp:454] conv5_3_pool3_interp <- conv5_3_pool3_conv
I0621 15:52:30.238514 11078 net.cpp:411] conv5_3_pool3_interp -> conv5_3_pool3_interp
I0621 15:52:30.238562 11078 net.cpp:150] Setting up conv5_3_pool3_interp
I0621 15:52:30.238566 11078 net.cpp:157] Top shape: 2 512 60 60 (3686400)
I0621 15:52:30.238569 11078 net.cpp:165] Memory required for data: 8423477808
I0621 15:52:30.238572 11078 layer_factory.hpp:77] Creating layer conv5_3_pool6
I0621 15:52:30.238579 11078 net.cpp:106] Creating Layer conv5_3_pool6
I0621 15:52:30.238581 11078 net.cpp:454] conv5_3_pool6 <- conv5_3_conv5_3/relu_0_split_3
I0621 15:52:30.238584 11078 net.cpp:411] conv5_3_pool6 -> conv5_3_pool6
I0621 15:52:30.238608 11078 net.cpp:150] Setting up conv5_3_pool6
I0621 15:52:30.238613 11078 net.cpp:157] Top shape: 2 2048 6 6 (147456)
I0621 15:52:30.238615 11078 net.cpp:165] Memory required for data: 8424067632
I0621 15:52:30.238618 11078 layer_factory.hpp:77] Creating layer conv5_3_pool6_conv
I0621 15:52:30.238632 11078 net.cpp:106] Creating Layer conv5_3_pool6_conv
I0621 15:52:30.238636 11078 net.cpp:454] conv5_3_pool6_conv <- conv5_3_pool6
I0621 15:52:30.238641 11078 net.cpp:411] conv5_3_pool6_conv -> conv5_3_pool6_conv
I0621 15:52:30.267577 11078 net.cpp:150] Setting up conv5_3_pool6_conv
I0621 15:52:30.267607 11078 net.cpp:157] Top shape: 2 512 6 6 (36864)
I0621 15:52:30.267611 11078 net.cpp:165] Memory required for data: 8424215088
I0621 15:52:30.267621 11078 layer_factory.hpp:77] Creating layer conv5_3_pool6_conv/bn
I0621 15:52:30.267633 11078 net.cpp:106] Creating Layer conv5_3_pool6_conv/bn
I0621 15:52:30.267639 11078 net.cpp:454] conv5_3_pool6_conv/bn <- conv5_3_pool6_conv
I0621 15:52:30.267645 11078 net.cpp:397] conv5_3_pool6_conv/bn -> conv5_3_pool6_conv (in-place)
I0621 15:52:30.267839 11078 net.cpp:150] Setting up conv5_3_pool6_conv/bn
I0621 15:52:30.267844 11078 net.cpp:157] Top shape: 2 512 6 6 (36864)
I0621 15:52:30.267848 11078 net.cpp:165] Memory required for data: 8424362544
I0621 15:52:30.267851 11078 layer_factory.hpp:77] Creating layer conv5_3_pool6_conv/relu
I0621 15:52:30.267856 11078 net.cpp:106] Creating Layer conv5_3_pool6_conv/relu
I0621 15:52:30.267858 11078 net.cpp:454] conv5_3_pool6_conv/relu <- conv5_3_pool6_conv
I0621 15:52:30.267863 11078 net.cpp:397] conv5_3_pool6_conv/relu -> conv5_3_pool6_conv (in-place)
I0621 15:52:30.267866 11078 net.cpp:150] Setting up conv5_3_pool6_conv/relu
I0621 15:52:30.267869 11078 net.cpp:157] Top shape: 2 512 6 6 (36864)
I0621 15:52:30.267871 11078 net.cpp:165] Memory required for data: 8424510000
I0621 15:52:30.267874 11078 layer_factory.hpp:77] Creating layer conv5_3_pool6_interp
I0621 15:52:30.267881 11078 net.cpp:106] Creating Layer conv5_3_pool6_interp
I0621 15:52:30.267884 11078 net.cpp:454] conv5_3_pool6_interp <- conv5_3_pool6_conv
I0621 15:52:30.267889 11078 net.cpp:411] conv5_3_pool6_interp -> conv5_3_pool6_interp
I0621 15:52:30.267910 11078 net.cpp:150] Setting up conv5_3_pool6_interp
I0621 15:52:30.267913 11078 net.cpp:157] Top shape: 2 512 60 60 (3686400)
I0621 15:52:30.267916 11078 net.cpp:165] Memory required for data: 8439255600
I0621 15:52:30.267918 11078 layer_factory.hpp:77] Creating layer conv5_3_concat
I0621 15:52:30.267925 11078 net.cpp:106] Creating Layer conv5_3_concat
I0621 15:52:30.267927 11078 net.cpp:454] conv5_3_concat <- conv5_3_conv5_3/relu_0_split_4
I0621 15:52:30.267930 11078 net.cpp:454] conv5_3_concat <- conv5_3_pool6_interp
I0621 15:52:30.267935 11078 net.cpp:454] conv5_3_concat <- conv5_3_pool3_interp
I0621 15:52:30.267937 11078 net.cpp:454] conv5_3_concat <- conv5_3_pool2_interp
I0621 15:52:30.267940 11078 net.cpp:454] conv5_3_concat <- conv5_3_pool1_interp
I0621 15:52:30.267961 11078 net.cpp:411] conv5_3_concat -> conv5_3_concat
I0621 15:52:30.267979 11078 net.cpp:150] Setting up conv5_3_concat
I0621 15:52:30.267984 11078 net.cpp:157] Top shape: 2 4096 60 60 (29491200)
I0621 15:52:30.267987 11078 net.cpp:165] Memory required for data: 8557220400
I0621 15:52:30.267989 11078 layer_factory.hpp:77] Creating layer conv5_4
I0621 15:52:30.267998 11078 net.cpp:106] Creating Layer conv5_4
I0621 15:52:30.268002 11078 net.cpp:454] conv5_4 <- conv5_3_concat
I0621 15:52:30.268007 11078 net.cpp:411] conv5_4 -> conv5_4
I0621 15:52:30.698766 11078 net.cpp:150] Setting up conv5_4
I0621 15:52:30.698786 11078 net.cpp:157] Top shape: 2 512 60 60 (3686400)
I0621 15:52:30.698804 11078 net.cpp:165] Memory required for data: 8571966000
I0621 15:52:30.698813 11078 layer_factory.hpp:77] Creating layer conv5_4/bn
I0621 15:52:30.698825 11078 net.cpp:106] Creating Layer conv5_4/bn
I0621 15:52:30.698832 11078 net.cpp:454] conv5_4/bn <- conv5_4
I0621 15:52:30.698837 11078 net.cpp:397] conv5_4/bn -> conv5_4 (in-place)
I0621 15:52:30.699048 11078 net.cpp:150] Setting up conv5_4/bn
I0621 15:52:30.699055 11078 net.cpp:157] Top shape: 2 512 60 60 (3686400)
I0621 15:52:30.699074 11078 net.cpp:165] Memory required for data: 8586711600
I0621 15:52:30.699080 11078 layer_factory.hpp:77] Creating layer conv5_4/relu
I0621 15:52:30.699086 11078 net.cpp:106] Creating Layer conv5_4/relu
I0621 15:52:30.699090 11078 net.cpp:454] conv5_4/relu <- conv5_4
I0621 15:52:30.699095 11078 net.cpp:397] conv5_4/relu -> conv5_4 (in-place)
I0621 15:52:30.699101 11078 net.cpp:150] Setting up conv5_4/relu
I0621 15:52:30.699105 11078 net.cpp:157] Top shape: 2 512 60 60 (3686400)
I0621 15:52:30.699108 11078 net.cpp:165] Memory required for data: 8601457200
I0621 15:52:30.699112 11078 layer_factory.hpp:77] Creating layer conv5_4/dropout
I0621 15:52:30.699117 11078 net.cpp:106] Creating Layer conv5_4/dropout
I0621 15:52:30.699121 11078 net.cpp:454] conv5_4/dropout <- conv5_4
I0621 15:52:30.699126 11078 net.cpp:397] conv5_4/dropout -> conv5_4 (in-place)
I0621 15:52:30.699151 11078 net.cpp:150] Setting up conv5_4/dropout
I0621 15:52:30.699156 11078 net.cpp:157] Top shape: 2 512 60 60 (3686400)
I0621 15:52:30.699157 11078 net.cpp:165] Memory required for data: 8616202800
I0621 15:52:30.699160 11078 layer_factory.hpp:77] Creating layer conv6
I0621 15:52:30.699167 11078 net.cpp:106] Creating Layer conv6
I0621 15:52:30.699168 11078 net.cpp:454] conv6 <- conv5_4
I0621 15:52:30.699172 11078 net.cpp:411] conv6 -> conv6
I0621 15:52:30.699609 11078 net.cpp:150] Setting up conv6
I0621 15:52:30.699615 11078 net.cpp:157] Top shape: 2 21 60 60 (151200)
I0621 15:52:30.699616 11078 net.cpp:165] Memory required for data: 8616807600
I0621 15:52:30.699620 11078 layer_factory.hpp:77] Creating layer conv6_interp
I0621 15:52:30.699625 11078 net.cpp:106] Creating Layer conv6_interp
I0621 15:52:30.699626 11078 net.cpp:454] conv6_interp <- conv6
I0621 15:52:30.699630 11078 net.cpp:411] conv6_interp -> conv6_interp
I0621 15:52:30.699647 11078 net.cpp:150] Setting up conv6_interp
I0621 15:52:30.699651 11078 net.cpp:157] Top shape: 2 21 473 473 (9396618)
I0621 15:52:30.699653 11078 net.cpp:165] Memory required for data: 8654394072
I0621 15:52:30.699656 11078 net.cpp:228] conv6_interp does not need backward computation.
I0621 15:52:30.699658 11078 net.cpp:228] conv6 does not need backward computation.
I0621 15:52:30.699661 11078 net.cpp:228] conv5_4/dropout does not need backward computation.
I0621 15:52:30.699661 11078 net.cpp:228] conv5_4/relu does not need backward computation.
…
