…
state {
  phase: TRAIN
}
layer {
  name: "data"
  type: "ImageSegData"
  top: "data"
  top: "label"
  include {
    phase: TRAIN
  }
  transform_param {
    mirror: true
    crop_size: 321
    mean_value: 104.008
    mean_value: 116.669
    mean_value: 122.675
    scale_factors: 0.5
    scale_factors: 0.75
    scale_factors: 1
    scale_factors: 1.25
    scale_factors: 1.5
  }
  image_data_param {
    source: "exper/voc12/list/train_aug.txt"
    batch_size: 1
    shuffle: true
    root_folder: "exper/voc12/data"
    label_type: PIXEL
  }
}
layer {
  name: "conv1_1_3x3_s2"
  type: "Convolution"
  bottom: "data"
  top: "conv1_1_3x3_s2"
  param {
    lr_mult: 1
    decay_mult: 1
  }
  convolution_param {
    num_output: 64
    bias_term: false
    pad: 1
    kernel_size: 3
    stride: 2
    weight_filler {
      type: "msra"
    }
  }
}
layer {
  name: "conv1_1_3x3_s2/bn"
  type: "BN"
  bottom: "conv1_1_3x3_s2"
  top: "conv1_1_3x3_s2"
  param {
    lr_mult: 1
    decay_mult: 0
  }
  param {
    lr_mult: 1
    decay_mult: 0
  }
  param {
    lr_mult: 0
    decay_mult: 0
  }
  param {
    lr_mult: 0
    decay_mult: 0
  }
  bn_param {
    slope_filler {
      type: "constant"
      value: 1
    }
    bias_filler {
      type: "constant"
      value: 0
    }
    momentum: 0.95
    frozen: true
  }
}
layer {
  name: "conv1_1_3x3_s2/relu"
  type: "ReLU"
  bottom: "conv1_1_3x3_s2"
  top: "conv1_1_3x3_s2"
}
layer {
  name: "conv1_2_3x3"
  type: "Convolution"
  bottom: "conv1_1_3x3_s2"
  top: "conv1_2_3x3"
  param {
    lr_mult: 1
    decay_mult: 1
  }
  convolution_param {
    num_output: 64
    bias_term: false
    pad: 1
    kernel_size: 3
    stride: 1
    weight_filler {
      type: "msra"
    }
  }
}
layer {
  name: "conv1_2_3x3/bn"
  type: "BN"
  bottom: "conv1_2_3x3"
  top: "conv1_2_3x3"
  param {
    lr_mult: 1
    decay_mult: 0
  }
  param {
    lr_mult: 1
    decay_mult: 0
  }
  param {
    lr_mult: 0
    decay_mult: 0
  }
  param {
    lr_mult: 0
    decay_mult: 0
  }
  bn_param {
    slope_filler {
      type: "constant"
      value: 1
    }
    bias_filler {
      type: "constant"
      value: 0
    }
    momentum: 0.95
    frozen: true
  }
}
layer {
  name: "conv1_2_3x3/relu"
  type: "ReLU"
  bottom: "conv1_2_3x3"
  top: "conv1_2_3x3"
}
layer {
  name: "conv1_3_3x3"
  type: "Convolution"
  bottom: "conv1_2_3x3"
  top: "conv1_3_3x3"
  param {
    lr_mult: 1
    decay_mult: 1
  }
  convolution_param {
    num_output: 128
    bias_term: false
    pad: 1
    kernel_size: 3
    stride: 1
    weight_filler {
      type: "msra"
    }
  }
}
layer {
  name: "conv1_3_3x3/bn"
  type: "BN"
  bottom: "conv1_3_3x3"
  top: "conv1_3_3x3"
  param {
    lr_mult: 1
    decay_mult: 0
  }
  param {
    lr_mult: 1
    decay_mult: 0
  }
  param {
    lr_mult: 0
    decay_mult: 0
  }
  param {
    lr_mult: 0
    decay_mult: 0
  }
  bn_param {
    slope_filler {
      type: "constant"
      value: 1
    }
    bias_filler {
      type: "constant"
      value: 0
    }
    momentum: 0.95
    frozen: true
  }
}
layer {
  name: "conv1_3_3x3/relu"
  type: "ReLU"
  bottom: "conv1_3_3x3"
  top: "conv1_3_3x3"
}
layer {
  name: "pool1_3x3_s2"
  type: "Pooling"
  bottom: "conv1_3_3x3"
  top: "pool1_3x3_s2"
  pooling_param {
    pool: MAX
    kernel_size: 3
    stride: 2
    pad: 1
  }
}
layer {
  name: "conv2_1_1x1_reduce"
  type: "Convolution"
  bottom: "pool1_3x3_s2"
  top: "conv2_1_1x1_reduce"
  param {
    lr_mult: 1
    decay_mult: 1
  }
  convolution_param {
    num_output: 64
    bias_term: false
    pad: 0
    kernel_size: 1
    stride: 1
    weight_filler {
      type: "msra"
    }
  }
}
layer {
  name: "conv2_1_1x1_reduce/bn"
  type: "BN"
  bottom: "conv2_1_1x1_reduce"
  top: "conv2_1_1x1_reduce"
  param {
    lr_mult: 1
    decay_mult: 0
  }
  param {
    lr_mult: 1
    decay_mult: 0
  }
  param {
    lr_mult: 0
    decay_mult: 0
  }
  param {
    lr_mult: 0
    decay_mult: 0
  }
  bn_param {
    slope_filler {
      type: "constant"
      value: 1
    }
    bias_filler {
      type: "constant"
      value: 0
    }
    momentum: 0.95
    frozen: true
  }
}
layer {
  name: "conv2_1_1x1_reduce/relu"
  type: "ReLU"
  bottom: "conv2_1_1x1_reduce"
  top: "conv2_1_1x1_reduce"
}
layer {
  name: "conv2_1_3x3"
  type: "Convolution"
  bottom: "conv2_1_1x1_reduce"
  top: "conv2_1_3x3"
  param {
    lr_mult: 1
    decay_mult: 1
  }
  convolution_param {
    num_output: 64
    bias_term: false
    pad: 1
    kernel_size: 3
    stride: 1
    weight_filler {
      type: "msra"
    }
  }
}
layer {
  name: "conv2_1_3x3/bn"
  type: "BN"
  bottom: "conv2_1_3x3"
  top: "conv2_1_3x3"
  param {
    lr_mult: 1
    decay_mult: 0
  }
  param {
    lr_mult: 1
    decay_mult: 0
  }
  param {
    lr_mult: 0
    decay_mult: 0
  }
  param {
    lr_mult: 0
    decay_mult: 0
  }
  bn_param {
    slope_filler {
      type: "constant"
      value: 1
    }
    bias_filler {
      type: "constant"
      value: 0
    }
    momentum: 0.95
    frozen: true
  }
}
layer {
  name: "conv2_1_3x3/relu"
  type: "ReLU"
  bottom: "conv2_1_3x3"
  top: "conv2_1_3x3"
}
layer {
  name: "conv2_1_1x1_increase"
  type: "Convolution"
  bottom: "conv2_1_3x3"
  top: "conv2_1_1x1_increase"
  param {
    lr_mult: 1
    decay_mult: 1
  }
  convolution_param {
    num_output: 256
    bias_term: false
    pad: 0
    kernel_size: 1
    stride: 1
    weight_filler {
      type: "msra"
    }
  }
}
layer {
  name: "conv2_1_1x1_increase/bn"
  type: "BN"
  bottom: "conv2_1_1x1_increase"
  top: "conv2_1_1x1_increase"
  param {
    lr_mult: 1
    decay_mult: 0
  }
  param {
    lr_mult: 1
    decay_mult: 0
  }
  param {
    lr_mult: 0
    decay_mult: 0
  }
  param {
    lr_mult: 0
    decay_mult: 0
  }
  bn_param {
    slope_filler {
      type: "constant"
      value: 1
    }
    bias_filler {
      type: "constant"
      value: 0
    }
    momentum: 0.95
    frozen: true
  }
}
layer {
  name: "conv2_1_1x1_proj"
  type: "Convolution"
  bottom: "pool1_3x3_s2"
  top: "conv2_1_1x1_proj"
  param {
    lr_mult: 1
    decay_mult: 1
  }
  convolution_param {
    num_output: 256
    bias_term: false
    pad: 0
    kernel_size: 1
    stride: 1
    weight_filler {
      type: "msra"
    }
  }
}
layer {
  name: "conv2_1_1x1_proj/bn"
  type: "BN"
  bottom: "conv2_1_1x1_proj"
  top: "conv2_1_1x1_proj"
  param {
    lr_mult: 1
    decay_mult: 0
  }
  param {
    lr_mult: 1
    decay_mult: 0
  }
  param {
    lr_mult: 0
    decay_mult: 0
  }
  param {
    lr_mult: 0
    decay_mult: 0
  }
  bn_param {
    slope_filler {
      type: "constant"
      value: 1
    }
    bias_filler {
      type: "constant"
      value: 0
    }
    momentum: 0.95
    frozen: true
  }
}
layer {
  name: "conv2_1"
  type: "Eltwise"
  bottom: "conv2_1_1x1_proj"
  bottom: "conv2_1_1x1_increase"
  top: "conv2_1"
  eltwise_param {
    operation: SUM
  }
}
layer {
  name: "conv2_1/relu"
  type: "ReLU"
  bottom: "conv2_1"
  top: "conv2_1"
}
layer {
  name: "conv2_2_1x1_reduce"
  type: "Convolution"
  bottom: "conv2_1"
  top: "conv2_2_1x1_reduce"
  param {
    lr_mult: 1
    decay_mult: 1
  }
  convolution_param {
    num_output: 64
    bias_term: false
    pad: 0
    kernel_size: 1
    stride: 1
    weight_filler {
      type: "msra"
    }
  }
}
layer {
  name: "conv2_2_1x1_reduce/bn"
  type: "BN"
  bottom: "conv2_2_1x1_reduce"
  top: "conv2_2_1x1_reduce"
  param {
    lr_mult: 1
    decay_mult: 0
  }
  param {
    lr_mult: 1
    decay_mult: 0
  }
  param {
    lr_mult: 0
    decay_mult: 0
  }
  param {
    lr_mult: 0
    decay_mult: 0
  }
  bn_param {
    slope_filler {
      type: "constant"
      value: 1
    }
    bias_filler {
      type: "constant"
      value: 0
    }
    momentum: 0.95
    frozen: true
  }
}
layer {
  name: "conv2_2_1x1_reduce/relu"
  type: "ReLU"
  bottom: "conv2_2_1x1_reduce"
  top: "conv2_2_1x1_reduce"
}
layer {
  name: "conv2_2_3x3"
  type: "Convolution"
  bottom: "conv2_2_1x1_reduce"
  top: "conv2_2_3x3"
  param {
    lr_mult: 1
    decay_mult: 1
  }
  convolution_param {
    num_output: 64
    bias_term: false
    pad: 1
    kernel_size: 3
    stride: 1
    weight_filler {
      type: "msra"
    }
  }
}
layer {
  name: "conv2_2_3x3/bn"
  type: "BN"
  bottom: "conv2_2_3x3"
  top: "conv2_2_3x3"
  param {
    lr_mult: 1
    decay_mult: 0
  }
  param {
    lr_mult: 1
    decay_mult: 0
  }
  param {
    lr_mult: 0
    decay_mult: 0
  }
  param {
    lr_mult: 0
    decay_mult: 0
  }
  bn_param {
    slope_filler {
      type: "constant"
      value: 1
    }
    bias_filler {
      type: "constant"
      value: 0
    }
    momentum: 0.95
    frozen: true
  }
}
layer {
  name: "conv2_2_3x3/relu"
  type: "ReLU"
  bottom: "conv2_2_3x3"
  top: "conv2_2_3x3"
}
layer {
  name: "conv2_2_1x1_increase"
  type: "Convolution"
  bottom: "conv2_2_3x3"
  top: "conv2_2_1x1_increase"
  param {
    lr_mult: 1
    decay_mult: 1
  }
  convolution_param {
    num_output: 256
    bias_term: false
    pad: 0
    kernel_size: 1
    stride: 1
    weight_filler {
      type: "msra"
    }
  }
}
layer {
  name: "conv2_2_1x1_increase/bn"
  type: "BN"
  bottom: "conv2_2_1x1_increase"
  top: "conv2_2_1x1_increase"
  param {
    lr_mult: 1
    decay_mult: 0
  }
  param {
    lr_mult: 1
    decay_mult: 0
  }
  param {
    lr_mult: 0
    decay_mult: 0
  }
  param {
    lr_mult: 0
    decay_mult: 0
  }
  bn_param {
    slope_filler {
      type: "constant"
      value: 1
    }
    bias_filler {
      type: "constant"
      value: 0
    }
    momentum: 0.95
    frozen: true
  }
}
layer {
  name: "conv2_2"
  type: "Eltwise"
  bottom: "conv2_1"
  bottom: "conv2_2_1x1_increase"
  top: "conv2_2"
  eltwise_param {
    operation: SUM
  }
}
layer {
  name: "conv2_2/relu"
  type: "ReLU"
  bottom: "conv2_2"
  top: "conv2_2"
}
layer {
  name: "conv2_3_1x1_reduce"
  type: "Convolution"
  bottom: "conv2_2"
  top: "conv2_3_1x1_reduce"
  param {
    lr_mult: 1
    decay_mult: 1
  }
  convolution_param {
    num_output: 64
    bias_term: false
    pad: 0
    kernel_size: 1
    stride: 1
    weight_filler {
      type: "msra"
    }
  }
}
layer {
  name: "conv2_3_1x1_reduce/bn"
  type: "BN"
  bottom: "conv2_3_1x1_reduce"
  top: "conv2_3_1x1_reduce"
  param {
    lr_mult: 1
    decay_mult: 0
  }
  param {
    lr_mult: 1
    decay_mult: 0
  }
  param {
    lr_mult: 0
    decay_mult: 0
  }
  param {
    lr_mult: 0
    decay_mult: 0
  }
  bn_param {
    slope_filler {
      type: "constant"
      value: 1
    }
    bias_filler {
      type: "constant"
      value: 0
    }
    momentum: 0.95
    frozen: true
  }
}
layer {
  name: "conv2_3_1x1_reduce/relu"
  type: "ReLU"
  bottom: "conv2_3_1x1_reduce"
  top: "conv2_3_1x1_reduce"
}
layer {
  name: "conv2_3_3x3"
  type: "Convolution"
  bottom: "conv2_3_1x1_reduce"
  top: "conv2_3_3x3"
  param {
    lr_mult: 1
    decay_mult: 1
  }
  convolution_param {
    num_output: 64
    bias_term: false
    pad: 1
    kernel_size: 3
    stride: 1
    weight_filler {
      type: "msra"
    }
  }
}
layer {
  name: "conv2_3_3x3/bn"
  type: "BN"
  bottom: "conv2_3_3x3"
  top: "conv2_3_3x3"
  param {
    lr_mult: 1
    decay_mult: 0
  }
  param {
    lr_mult: 1
    decay_mult: 0
  }
  param {
    lr_mult: 0
    decay_mult: 0
  }
  param {
    lr_mult: 0
    decay_mult: 0
  }
  bn_param {
    slope_filler {
      type: "constant"
      value: 1
    }
    bias_filler {
      type: "constant"
      value: 0
    }
    momentum: 0.95
    frozen: true
  }
}
layer {
  name: "conv2_3_3x3/relu"
  type: "ReLU"
  bottom: "conv2_3_3x3"
  top: "conv2_3_3x3"
}
layer {
  name: "conv2_3_1x1_increase"
  type: "Convolution"
  bottom: "conv2_3_3x3"
  top: "conv2_3_1x1_increase"
  param {
    lr_mult: 1
    decay_mult: 1
  }
  convolution_param {
    num_output: 256
    bias_term: false
    pad: 0
    kernel_size: 1
    stride: 1
    weight_filler {
      type: "msra"
    }
  }
}
layer {
  name: "conv2_3_1x1_increase/bn"
  type: "BN"
  bottom: "conv2_3_1x1_increase"
  top: "conv2_3_1x1_increase"
  param {
    lr_mult: 1
    decay_mult: 0
  }
  param {
    lr_mult: 1
    decay_mult: 0
  }
  param {
    lr_mult: 0
    decay_mult: 0
  }
  param {
    lr_mult: 0
    decay_mult: 0
  }
  bn_param {
    slope_filler {
      type: "constant"
      value: 1
    }
    bias_filler {
      type: "constant"
      value: 0
    }
    momentum: 0.95
    frozen: true
  }
}
layer {
  name: "conv2_3"
  type: "Eltwise"
  bottom: "conv2_2"
  bottom: "conv2_3_1x1_increase"
  top: "conv2_3"
  eltwise_param {
    operation: SUM
  }
}
layer {
  name: "conv2_3/relu"
  type: "ReLU"
  bottom: "conv2_3"
  top: "conv2_3"
}
layer {
  name: "conv3_1_1x1_reduce"
  type: "Convolution"
  bottom: "conv2_3"
  top: "conv3_1_1x1_reduce"
  param {
    lr_mult: 1
    decay_mult: 1
  }
  convolution_param {
    num_output: 128
    bias_term: false
    pad: 0
    kernel_size: 1
    stride: 1
    weight_filler {
      type: "msra"
    }
  }
}
layer {
  name: "conv3_1_1x1_reduce/bn"
  type: "BN"
  bottom: "conv3_1_1x1_reduce"
  top: "conv3_1_1x1_reduce"
  param {
    lr_mult: 1
    decay_mult: 0
  }
  param {
    lr_mult: 1
    decay_mult: 0
  }
  param {
    lr_mult: 0
    decay_mult: 0
  }
  param {
    lr_mult: 0
    decay_mult: 0
  }
  bn_param {
    slope_filler {
      type: "constant"
      value: 1
    }
    bias_filler {
      type: "constant"
      value: 0
    }
    momentum: 0.95
    frozen: true
  }
}
layer {
  name: "conv3_1_1x1_reduce/relu"
  type: "ReLU"
  bottom: "conv3_1_1x1_reduce"
  top: "conv3_1_1x1_reduce"
}
layer {
  name: "conv3_1_3x3"
  type: "Convolution"
  bottom: "conv3_1_1x1_reduce"
  top: "conv3_1_3x3"
  param {
    lr_mult: 1
    decay_mult: 1
  }
  convolution_param {
    num_output: 128
    bias_term: false
    pad: 1
    kernel_size: 3
    stride: 2
    weight_filler {
      type: "msra"
    }
  }
}
layer {
  name: "conv3_1_3x3/bn"
  type: "BN"
  bottom: "conv3_1_3x3"
  top: "conv3_1_3x3"
  param {
    lr_mult: 1
    decay_mult: 0
  }
  param {
    lr_mult: 1
    decay_mult: 0
  }
  param {
    lr_mult: 0
    decay_mult: 0
  }
  param {
    lr_mult: 0
    decay_mult: 0
  }
  bn_param {
    slope_filler {
      type: "constant"
      value: 1
    }
    bias_filler {
      type: "constant"
      value: 0
    }
    momentum: 0.95
    frozen: true
  }
}
layer {
  name: "conv3_1_3x3/relu"
  type: "ReLU"
  bottom: "conv3_1_3x3"
  top: "conv3_1_3x3"
}
layer {
  name: "conv3_1_1x1_increase"
  type: "Convolution"
  bottom: "conv3_1_3x3"
  top: "conv3_1_1x1_increase"
  param {
    lr_mult: 1
    decay_mult: 1
  }
  convolution_param {
    num_output: 512
    bias_term: false
    pad: 0
    kernel_size: 1
    stride: 1
    weight_filler {
      type: "msra"
    }
  }
}
layer {
  name: "conv3_1_1x1_increase/bn"
  type: "BN"
  bottom: "conv3_1_1x1_increase"
  top: "conv3_1_1x1_increase"
  param {
    lr_mult: 1
    decay_mult: 0
  }
  param {
    lr_mult: 1
    decay_mult: 0
  }
  param {
    lr_mult: 0
    decay_mult: 0
  }
  param {
    lr_mult: 0
    decay_mult: 0
  }
  bn_param {
    slope_filler {
      type: "constant"
      value: 1
    }
    bias_filler {
      type: "constant"
      value: 0
    }
    momentum: 0.95
    frozen: true
  }
}
layer {
  name: "conv3_1_1x1_proj"
  type: "Convolution"
  bottom: "conv2_3"
  top: "conv3_1_1x1_proj"
  param {
    lr_mult: 1
    decay_mult: 1
  }
  convolution_param {
    num_output: 512
    bias_term: false
    pad: 0
    kernel_size: 1
    stride: 2
    weight_filler {
      type: "msra"
    }
  }
}
layer {
  name: "conv3_1_1x1_proj/bn"
  type: "BN"
  bottom: "conv3_1_1x1_proj"
  top: "conv3_1_1x1_proj"
  param {
    lr_mult: 1
    decay_mult: 0
  }
  param {
    lr_mult: 1
    decay_mult: 0
  }
  param {
    lr_mult: 0
    decay_mult: 0
  }
  param {
    lr_mult: 0
    decay_mult: 0
  }
  bn_param {
    slope_filler {
      type: "constant"
      value: 1
    }
    bias_filler {
      type: "constant"
      value: 0
    }
    momentum: 0.95
    frozen: true
  }
}
layer {
  name: "conv3_1"
  type: "Eltwise"
  bottom: "conv3_1_1x1_proj"
  bottom: "conv3_1_1x1_increase"
  top: "conv3_1"
  eltwise_param {
    operation: SUM
  }
}
layer {
  name: "conv3_1/relu"
  type: "ReLU"
  bottom: "conv3_1"
  top: "conv3_1"
}
layer {
  name: "conv3_2_1x1_reduce"
  type: "Convolution"
  bottom: "conv3_1"
  top: "conv3_2_1x1_reduce"
  param {
    lr_mult: 1
    decay_mult: 1
  }
  convolution_param {
    num_output: 128
    bias_term: false
    pad: 0
    kernel_size: 1
    stride: 1
    weight_filler {
      type: "msra"
    }
  }
}
layer {
  name: "conv3_2_1x1_reduce/bn"
  type: "BN"
  bottom: "conv3_2_1x1_reduce"
  top: "conv3_2_1x1_reduce"
  param {
    lr_mult: 1
    decay_mult: 0
  }
  param {
    lr_mult: 1
    decay_mult: 0
  }
  param {
    lr_mult: 0
    decay_mult: 0
  }
  param {
    lr_mult: 0
    decay_mult: 0
  }
  bn_param {
    slope_filler {
      type: "constant"
      value: 1
    }
    bias_filler {
      type: "constant"
      value: 0
    }
    momentum: 0.95
    frozen: true
  }
}
layer {
  name: "conv3_2_1x1_reduce/relu"
  type: "ReLU"
  bottom: "conv3_2_1x1_reduce"
  top: "conv3_2_1x1_reduce"
}
layer {
  name: "conv3_2_3x3"
  type: "Convolution"
  bottom: "conv3_2_1x1_reduce"
  top: "conv3_2_3x3"
  param {
    lr_mult: 1
    decay_mult: 1
  }
  convolution_param {
    num_output: 128
    bias_term: false
    pad: 1
    kernel_size: 3
    stride: 1
    weight_filler {
      type: "msra"
    }
  }
}
layer {
  name: "conv3_2_3x3/bn"
  type: "BN"
  bottom: "conv3_2_3x3"
  top: "conv3_2_3x3"
  param {
    lr_mult: 1
    decay_mult: 0
  }
  param {
    lr_mult: 1
    decay_mult: 0
  }
  param {
    lr_mult: 0
    decay_mult: 0
  }
  param {
    lr_mult: 0
    decay_mult: 0
  }
  bn_param {
    slope_filler {
      type: "constant"
      value: 1
    }
    bias_filler {
      type: "constant"
      value: 0
    }
    momentum: 0.95
    frozen: true
  }
}
layer {
  name: "conv3_2_3x3/relu"
  type: "ReLU"
  bottom: "conv3_2_3x3"
  top: "conv3_2_3x3"
}
layer {
  name: "conv3_2_1x1_increase"
  type: "Convolution"
  bottom: "conv3_2_3x3"
  top: "conv3_2_1x1_increase"
  param {
    lr_mult: 1
    decay_mult: 1
  }
  convolution_param {
    num_output: 512
    bias_term: false
    pad: 0
    kernel_size: 1
    stride: 1
    weight_filler {
      type: "msra"
    }
  }
}
layer {
  name: "conv3_2_1x1_increase/bn"
  type: "BN"
  bottom: "conv3_2_1x1_increase"
  top: "conv3_2_1x1_increase"
  param {
    lr_mult: 1
    decay_mult: 0
  }
  param {
    lr_mult: 1
    decay_mult: 0
  }
  param {
    lr_mult: 0
    decay_mult: 0
  }
  param {
    lr_mult: 0
    decay_mult: 0
  }
  bn_param {
    slope_filler {
      type: "constant"
      value: 1
    }
    bias_filler {
      type: "constant"
      value: 0
    }
    momentum: 0.95
    frozen: true
  }
}
layer {
  name: "conv3_2"
  type: "Eltwise"
  bottom: "conv3_1"
  bottom: "conv3_2_1x1_increase"
  top: "conv3_2"
  eltwise_param {
    operation: SUM
  }
}
layer {
  name: "conv3_2/relu"
  type: "ReLU"
  bottom: "conv3_2"
  top: "conv3_2"
}
layer {
  name: "conv3_3_1x1_reduce"
  type: "Convolution"
  bottom: "conv3_2"
  top: "conv3_3_1x1_reduce"
  param {
    lr_mult: 1
    decay_mult: 1
  }
  convolution_param {
    num_output: 128
    bias_term: false
    pad: 0
    kernel_size: 1
    stride: 1
    weight_filler {
      type: "msra"
    }
  }
}
layer {
  name: "conv3_3_1x1_reduce/bn"
  type: "BN"
  bottom: "conv3_3_1x1_reduce"
  top: "conv3_3_1x1_reduce"
  param {
    lr_mult: 1
    decay_mult: 0
  }
  param {
    lr_mult: 1
    decay_mult: 0
  }
  param {
    lr_mult: 0
    decay_mult: 0
  }
  param {
    lr_mult: 0
    decay_mult: 0
  }
  bn_param {
    slope_filler {
      type: "constant"
      value: 1
    }
    bias_filler {
      type: "constant"
      value: 0
    }
    momentum: 0.95
    frozen: true
  }
}
layer {
  name: "conv3_3_1x1_reduce/relu"
  type: "ReLU"
  bottom: "conv3_3_1x1_reduce"
  top: "conv3_3_1x1_reduce"
}
layer {
  name: "conv3_3_3x3"
  type: "Convolution"
  bottom: "conv3_3_1x1_reduce"
  top: "conv3_3_3x3"
  param {
    lr_mult: 1
    decay_mult: 1
  }
  convolution_param {
    num_output: 128
    bias_term: false
    pad: 1
    kernel_size: 3
    stride: 1
    weight_filler {
      type: "msra"
    }
  }
}
layer {
  name: "conv3_3_3x3/bn"
  type: "BN"
  bottom: "conv3_3_3x3"
  top: "conv3_3_3x3"
  param {
    lr_mult: 1
    decay_mult: 0
  }
  param {
    lr_mult: 1
    decay_mult: 0
  }
  param {
    lr_mult: 0
    decay_mult: 0
  }
  param {
    lr_mult: 0
    decay_mult: 0
  }
  bn_param {
    slope_filler {
      type: "constant"
      value: 1
    }
    bias_filler {
      type: "constant"
      value: 0
    }
    momentum: 0.95
    frozen: true
  }
}
layer {
  name: "conv3_3_3x3/relu"
  type: "ReLU"
  bottom: "conv3_3_3x3"
  top: "conv3_3_3x3"
}
layer {
  name: "conv3_3_1x1_increase"
  type: "Convolution"
  bottom: "conv3_3_3x3"
  top: "conv3_3_1x1_increase"
  param {
    lr_mult: 1
    decay_mult: 1
  }
  convolution_param {
    num_output: 512
    bias_term: false
    pad: 0
    kernel_size: 1
    stride: 1
    weight_filler {
      type: "msra"
    }
  }
}
layer {
  name: "conv3_3_1x1_increase/bn"
  type: "BN"
  bottom: "conv3_3_1x1_increase"
  top: "conv3_3_1x1_increase"
  param {
    lr_mult: 1
    decay_mult: 0
  }
  param {
    lr_mult: 1
    decay_mult: 0
  }
  param {
    lr_mult: 0
    decay_mult: 0
  }
  param {
    lr_mult: 0
    decay_mult: 0
  }
  bn_param {
    slope_filler {
      type: "constant"
      value: 1
    }
    bias_filler {
      type: "constant"
      value: 0
    }
    momentum: 0.95
    frozen: true
  }
}
layer {
  name: "conv3_3"
  type: "Eltwise"
  bottom: "conv3_2"
  bottom: "conv3_3_1x1_increase"
  top: "conv3_3"
  eltwise_param {
    operation: SUM
  }
}
layer {
  name: "conv3_3/relu"
  type: "ReLU"
  bottom: "conv3_3"
  top: "conv3_3"
}
layer {
  name: "conv3_4_1x1_reduce"
  type: "Convolution"
  bottom: "conv3_3"
  top: "conv3_4_1x1_reduce"
  param {
    lr_mult: 1
    decay_mult: 1
  }
  convolution_param {
    num_output: 128
    bias_term: false
    pad: 0
    kernel_size: 1
    stride: 1
    weight_filler {
      type: "msra"
    }
  }
}
layer {
  name: "conv3_4_1x1_reduce/bn"
  type: "BN"
  bottom: "conv3_4_1x1_reduce"
  top: "conv3_4_1x1_reduce"
  param {
    lr_mult: 1
    decay_mult: 0
  }
  param {
    lr_mult: 1
    decay_mult: 0
  }
  param {
    lr_mult: 0
    decay_mult: 0
  }
  param {
    lr_mult: 0
    decay_mult: 0
  }
  bn_param {
    slope_filler {
      type: "constant"
      value: 1
    }
    bias_filler {
      type: "constant"
      value: 0
    }
    momentum: 0.95
    frozen: true
  }
}
layer {
  name: "conv3_4_1x1_reduce/relu"
  type: "ReLU"
  bottom: "conv3_4_1x1_reduce"
  top: "conv3_4_1x1_reduce"
}
layer {
  name: "conv3_4_3x3"
  type: "Convolution"
  bottom: "conv3_4_1x1_reduce"
  top: "conv3_4_3x3"
  param {
    lr_mult: 1
    decay_mult: 1
  }
  convolution_param {
    num_output: 128
    bias_term: false
    pad: 1
    kernel_size: 3
    stride: 1
    weight_filler {
      type: "msra"
    }
  }
}
layer {
  name: "conv3_4_3x3/bn"
  type: "BN"
  bottom: "conv3_4_3x3"
  top: "conv3_4_3x3"
  param {
    lr_mult: 1
    decay_mult: 0
  }
  param {
    lr_mult: 1
    decay_mult: 0
  }
  param {
    lr_mult: 0
    decay_mult: 0
  }
  param {
    lr_mult: 0
    decay_mult: 0
  }
  bn_param {
    slope_filler {
      type: "constant"
      value: 1
    }
    bias_filler {
      type: "constant"
      value: 0
    }
    momentum: 0.95
    frozen: true
  }
}
layer {
  name: "conv3_4_3x3/relu"
  type: "ReLU"
  bottom: "conv3_4_3x3"
  top: "conv3_4_3x3"
}
layer {
  name: "conv3_4_1x1_increase"
  type: "Convolution"
  bottom: "conv3_4_3x3"
  top: "conv3_4_1x1_increase"
  param {
    lr_mult: 1
    decay_mult: 1
  }
  convolution_param {
    num_output: 512
    bias_term: false
    pad: 0
    kernel_size: 1
    stride: 1
    weight_filler {
      type: "msra"
    }
  }
}
layer {
  name: "conv3_4_1x1_increase/bn"
  type: "BN"
  bottom: "conv3_4_1x1_increase"
  top: "conv3_4_1x1_increase"
  param {
    lr_mult: 1
    decay_mult: 0
  }
  param {
    lr_mult: 1
    decay_mult: 0
  }
  param {
    lr_mult: 0
    decay_mult: 0
  }
  param {
    lr_mult: 0
    decay_mult: 0
  }
  bn_param {
    slope_filler {
      type: "constant"
      value: 1
    }
    bias_filler {
      type: "constant"
      value: 0
    }
    momentum: 0.95
    frozen: true
  }
}
layer {
  name: "conv3_4"
  type: "Eltwise"
  bottom: "conv3_3"
  bottom: "conv3_4_1x1_increase"
  top: "conv3_4"
  eltwise_param {
    operation: SUM
  }
}
layer {
  name: "conv3_4/relu"
  type: "ReLU"
  bottom: "conv3_4"
  top: "conv3_4"
}
layer {
  name: "conv4_1_1x1_reduce"
  type: "Convolution"
  bottom: "conv3_4"
  top: "conv4_1_1x1_reduce"
  param {
    lr_mult: 1
    decay_mult: 1
  }
  convolution_param {
    num_output: 256
    bias_term: false
    pad: 0
    kernel_size: 1
    stride: 1
    weight_filler {
      type: "msra"
    }
  }
}
layer {
  name: "conv4_1_1x1_reduce/bn"
  type: "BN"
  bottom: "conv4_1_1x1_reduce"
  top: "conv4_1_1x1_reduce"
  param {
    lr_mult: 1
    decay_mult: 0
  }
  param {
    lr_mult: 1
    decay_mult: 0
  }
  param {
    lr_mult: 0
    decay_mult: 0
  }
  param {
    lr_mult: 0
    decay_mult: 0
  }
  bn_param {
    slope_filler {
      type: "constant"
      value: 1
    }
    bias_filler {
      type: "constant"
      value: 0
    }
    momentum: 0.95
    frozen: true
  }
}
layer {
  name: "conv4_1_1x1_reduce/relu"
  type: "ReLU"
  bottom: "conv4_1_1x1_reduce"
  top: "conv4_1_1x1_reduce"
}
layer {
  name: "conv4_1_3x3"
  type: "Convolution"
  bottom: "conv4_1_1x1_reduce"
  top: "conv4_1_3x3"
  param {
    lr_mult: 1
    decay_mult: 1
  }
  convolution_param {
    num_output: 256
    bias_term: false
    pad: 2
    kernel_size: 3
    stride: 1
    weight_filler {
      type: "msra"
    }
    dilation: 2
  }
}
layer {
  name: "conv4_1_3x3/bn"
  type: "BN"
  bottom: "conv4_1_3x3"
  top: "conv4_1_3x3"
  param {
    lr_mult: 1
    decay_mult: 0
  }
  param {
    lr_mult: 1
    decay_mult: 0
  }
  param {
    lr_mult: 0
    decay_mult: 0
  }
  param {
    lr_mult: 0
    decay_mult: 0
  }
  bn_param {
    slope_filler {
      type: "constant"
      value: 1
    }
    bias_filler {
      type: "constant"
      value: 0
    }
    momentum: 0.95
    frozen: true
  }
}
layer {
  name: "conv4_1_3x3/relu"
  type: "ReLU"
  bottom: "conv4_1_3x3"
  top: "conv4_1_3x3"
}
layer {
  name: "conv4_1_1x1_increase"
  type: "Convolution"
  bottom: "conv4_1_3x3"
  top: "conv4_1_1x1_increase"
  param {
    lr_mult: 1
    decay_mult: 1
  }
  convolution_param {
    num_output: 1024
    bias_term: false
    pad: 0
    kernel_size: 1
    stride: 1
    weight_filler {
      type: "msra"
    }
  }
}
layer {
  name: "conv4_1_1x1_increase/bn"
  type: "BN"
  bottom: "conv4_1_1x1_increase"
  top: "conv4_1_1x1_increase"
  param {
    lr_mult: 1
    decay_mult: 0
  }
  param {
    lr_mult: 1
    decay_mult: 0
  }
  param {
    lr_mult: 0
    decay_mult: 0
  }
  param {
    lr_mult: 0
    decay_mult: 0
  }
  bn_param {
    slope_filler {
      type: "constant"
      value: 1
    }
    bias_filler {
      type: "constant"
      value: 0
    }
    momentum: 0.95
    frozen: true
  }
}
layer {
  name: "conv4_1_1x1_proj"
  type: "Convolution"
  bottom: "conv3_4"
  top: "conv4_1_1x1_proj"
  param {
    lr_mult: 1
    decay_mult: 1
  }
  convolution_param {
    num_output: 1024
    bias_term: false
    pad: 0
    kernel_size: 1
    stride: 1
    weight_filler {
      type: "msra"
    }
  }
}
layer {
  name: "conv4_1_1x1_proj/bn"
  type: "BN"
  bottom: "conv4_1_1x1_proj"
  top: "conv4_1_1x1_proj"
  param {
    lr_mult: 1
    decay_mult: 0
  }
  param {
    lr_mult: 1
    decay_mult: 0
  }
  param {
    lr_mult: 0
    decay_mult: 0
  }
  param {
    lr_mult: 0
    decay_mult: 0
  }
  bn_param {
    slope_filler {
      type: "constant"
      value: 1
    }
    bias_filler {
      type: "constant"
      value: 0
    }
    momentum: 0.95
    frozen: true
  }
}
layer {
  name: "conv4_1"
  type: "Eltwise"
  bottom: "conv4_1_1x1_proj"
  bottom: "conv4_1_1x1_increase"
  top: "conv4_1"
  eltwise_param {
    operation: SUM
  }
}
layer {
  name: "conv4_1/relu"
  type: "ReLU"
  bottom: "conv4_1"
  top: "conv4_1"
}
layer {
  name: "conv4_2_1x1_reduce"
  type: "Convolution"
  bottom: "conv4_1"
  top: "conv4_2_1x1_reduce"
  param {
    lr_mult: 1
    decay_mult: 1
  }
  convolution_param {
    num_output: 256
    bias_term: false
    pad: 0
    kernel_size: 1
    stride: 1
    weight_filler {
      type: "msra"
    }
  }
}
layer {
  name: "conv4_2_1x1_reduce/bn"
  type: "BN"
  bottom: "conv4_2_1x1_reduce"
  top: "conv4_2_1x1_reduce"
  param {
    lr_mult: 1
    decay_mult: 0
  }
  param {
    lr_mult: 1
    decay_mult: 0
  }
  param {
    lr_mult: 0
    decay_mult: 0
  }
  param {
    lr_mult: 0
    decay_mult: 0
  }
  bn_param {
    slope_filler {
      type: "constant"
      value: 1
    }
    bias_filler {
      type: "constant"
      value: 0
    }
    momentum: 0.95
    frozen: true
  }
}
layer {
  name: "conv4_2_1x1_reduce/relu"
  type: "ReLU"
  bottom: "conv4_2_1x1_reduce"
  top: "conv4_2_1x1_reduce"
}
layer {
  name: "conv4_2_3x3"
  type: "Convolution"
  bottom: "conv4_2_1x1_reduce"
  top: "conv4_2_3x3"
  param {
    lr_mult: 1
    decay_mult: 1
  }
  convolution_param {
    num_output: 256
    bias_term: false
    pad: 2
    kernel_size: 3
    stride: 1
    weight_filler {
      type: "msra"
    }
    dilation: 2
  }
}
layer {
  name: "conv4_2_3x3/bn"
  type: "BN"
  bottom: "conv4_2_3x3"
  top: "conv4_2_3x3"
  param {
    lr_mult: 1
    decay_mult: 0
  }
  param {
    lr_mult: 1
    decay_mult: 0
  }
  param {
    lr_mult: 0
    decay_mult: 0
  }
  param {
    lr_mult: 0
    decay_mult: 0
  }
  bn_param {
    slope_filler {
      type: "constant"
      value: 1
    }
    bias_fille
I0620 04:21:33.122814  2802 layer_factory.hpp:77] Creating layer data
I0620 04:21:33.123361  2802 net.cpp:106] Creating Layer data
I0620 04:21:33.123369  2802 net.cpp:411] data -> data
I0620 04:21:33.123402  2802 net.cpp:411] data -> label
I0620 04:21:33.123425  2802 net.cpp:411] data -> (automatic)
I0620 04:21:33.124361  2802 image_seg_data_layer.cpp:46] Opening file exper/voc12/list/train_aug.txt
I0620 04:21:33.133399  2802 image_seg_data_layer.cpp:63] Shuffling data
I0620 04:21:33.137053  2802 image_seg_data_layer.cpp:68] A total of 10582 images.
I0620 04:21:33.168457  2802 image_seg_data_layer.cpp:137] output data size: 1,3,321,321
I0620 04:21:33.168478  2802 image_seg_data_layer.cpp:141] output label size: 1,1,321,321
I0620 04:21:33.168481  2802 image_seg_data_layer.cpp:145] output data_dim size: 1,1,1,2
I0620 04:21:33.176597  2802 net.cpp:150] Setting up data
I0620 04:21:33.176628  2802 net.cpp:157] Top shape: 1 3 321 321 (309123)
I0620 04:21:33.176635  2802 net.cpp:157] Top shape: 1 1 321 321 (103041)
I0620 04:21:33.176640  2802 net.cpp:157] Top shape: 1 1 1 2 (2)
I0620 04:21:33.176642  2802 net.cpp:165] Memory required for data: 1648664
I0620 04:21:33.176656  2802 layer_factory.hpp:77] Creating layer conv1_1_3x3_s2
I0620 04:21:33.176682  2802 net.cpp:106] Creating Layer conv1_1_3x3_s2
I0620 04:21:33.176687  2802 net.cpp:454] conv1_1_3x3_s2 <- data
I0620 04:21:33.176702  2802 net.cpp:411] conv1_1_3x3_s2 -> conv1_1_3x3_s2
I0620 04:21:33.178755  2802 net.cpp:150] Setting up conv1_1_3x3_s2
I0620 04:21:33.178771  2802 net.cpp:157] Top shape: 1 64 161 161 (1658944)
I0620 04:21:33.178776  2802 net.cpp:165] Memory required for data: 8284440
I0620 04:21:33.178786  2802 layer_factory.hpp:77] Creating layer conv1_1_3x3_s2/bn
I0620 04:21:33.178795  2802 net.cpp:106] Creating Layer conv1_1_3x3_s2/bn
I0620 04:21:33.178799  2802 net.cpp:454] conv1_1_3x3_s2/bn <- conv1_1_3x3_s2
I0620 04:21:33.178804  2802 net.cpp:397] conv1_1_3x3_s2/bn -> conv1_1_3x3_s2 (in-place)
I0620 04:21:33.179514  2802 net.cpp:150] Setting up conv1_1_3x3_s2/bn
I0620 04:21:33.179527  2802 net.cpp:157] Top shape: 1 64 161 161 (1658944)
I0620 04:21:33.179530  2802 net.cpp:165] Memory required for data: 14920216
I0620 04:21:33.179576  2802 layer_factory.hpp:77] Creating layer conv1_1_3x3_s2/relu
I0620 04:21:33.179584  2802 net.cpp:106] Creating Layer conv1_1_3x3_s2/relu
I0620 04:21:33.179587  2802 net.cpp:454] conv1_1_3x3_s2/relu <- conv1_1_3x3_s2
I0620 04:21:33.179591  2802 net.cpp:397] conv1_1_3x3_s2/relu -> conv1_1_3x3_s2 (in-place)
I0620 04:21:33.180025  2802 net.cpp:150] Setting up conv1_1_3x3_s2/relu
I0620 04:21:33.180032  2802 net.cpp:157] Top shape: 1 64 161 161 (1658944)
I0620 04:21:33.180034  2802 net.cpp:165] Memory required for data: 21555992
I0620 04:21:33.180037  2802 layer_factory.hpp:77] Creating layer conv1_2_3x3
I0620 04:21:33.180050  2802 net.cpp:106] Creating Layer conv1_2_3x3
I0620 04:21:33.180054  2802 net.cpp:454] conv1_2_3x3 <- conv1_1_3x3_s2
I0620 04:21:33.180060  2802 net.cpp:411] conv1_2_3x3 -> conv1_2_3x3
I0620 04:21:33.181095  2802 net.cpp:150] Setting up conv1_2_3x3
I0620 04:21:33.181110  2802 net.cpp:157] Top shape: 1 64 161 161 (1658944)
I0620 04:21:33.181113  2802 net.cpp:165] Memory required for data: 28191768
I0620 04:21:33.181123  2802 layer_factory.hpp:77] Creating layer conv1_2_3x3/bn
I0620 04:21:33.181134  2802 net.cpp:106] Creating Layer conv1_2_3x3/bn
I0620 04:21:33.181138  2802 net.cpp:454] conv1_2_3x3/bn <- conv1_2_3x3
I0620 04:21:33.181143  2802 net.cpp:397] conv1_2_3x3/bn -> conv1_2_3x3 (in-place)
I0620 04:21:33.181284  2802 net.cpp:150] Setting up conv1_2_3x3/bn
I0620 04:21:33.181289  2802 net.cpp:157] Top shape: 1 64 161 161 (1658944)
I0620 04:21:33.181293  2802 net.cpp:165] Memory required for data: 34827544
I0620 04:21:33.181300  2802 layer_factory.hpp:77] Creating layer conv1_2_3x3/relu
I0620 04:21:33.181306  2802 net.cpp:106] Creating Layer conv1_2_3x3/relu
I0620 04:21:33.181309  2802 net.cpp:454] conv1_2_3x3/relu <- conv1_2_3x3
I0620 04:21:33.181313  2802 net.cpp:397] conv1_2_3x3/relu -> conv1_2_3x3 (in-place)
I0620 04:21:33.181318  2802 net.cpp:150] Setting up conv1_2_3x3/relu
I0620 04:21:33.181320  2802 net.cpp:157] Top shape: 1 64 161 161 (1658944)
I0620 04:21:33.181324  2802 net.cpp:165] Memory required for data: 41463320
I0620 04:21:33.181326  2802 layer_factory.hpp:77] Creating layer conv1_3_3x3
I0620 04:21:33.181331  2802 net.cpp:106] Creating Layer conv1_3_3x3
I0620 04:21:33.181334  2802 net.cpp:454] conv1_3_3x3 <- conv1_2_3x3
I0620 04:21:33.181339  2802 net.cpp:411] conv1_3_3x3 -> conv1_3_3x3
I0620 04:21:33.183073  2802 net.cpp:150] Setting up conv1_3_3x3
I0620 04:21:33.183090  2802 net.cpp:157] Top shape: 1 128 161 161 (3317888)
I0620 04:21:33.183094  2802 net.cpp:165] Memory required for data: 54734872
I0620 04:21:33.183100  2802 layer_factory.hpp:77] Creating layer conv1_3_3x3/bn
I0620 04:21:33.183115  2802 net.cpp:106] Creating Layer conv1_3_3x3/bn
I0620 04:21:33.183118  2802 net.cpp:454] conv1_3_3x3/bn <- conv1_3_3x3
I0620 04:21:33.183125  2802 net.cpp:397] conv1_3_3x3/bn -> conv1_3_3x3 (in-place)
I0620 04:21:33.183271  2802 net.cpp:150] Setting up conv1_3_3x3/bn
I0620 04:21:33.183276  2802 net.cpp:157] Top shape: 1 128 161 161 (3317888)
I0620 04:21:33.183279  2802 net.cpp:165] Memory required for data: 68006424
I0620 04:21:33.183284  2802 layer_factory.hpp:77] Creating layer conv1_3_3x3/relu
I0620 04:21:33.183290  2802 net.cpp:106] Creating Layer conv1_3_3x3/relu
I0620 04:21:33.183292  2802 net.cpp:454] conv1_3_3x3/relu <- conv1_3_3x3
I0620 04:21:33.183295  2802 net.cpp:397] conv1_3_3x3/relu -> conv1_3_3x3 (in-place)
I0620 04:21:33.183300  2802 net.cpp:150] Setting up conv1_3_3x3/relu
I0620 04:21:33.183303  2802 net.cpp:157] Top shape: 1 128 161 161 (3317888)
I0620 04:21:33.183305  2802 net.cpp:165] Memory required for data: 81277976
I0620 04:21:33.183308  2802 layer_factory.hpp:77] Creating layer pool1_3x3_s2
I0620 04:21:33.183313  2802 net.cpp:106] Creating Layer pool1_3x3_s2
I0620 04:21:33.183316  2802 net.cpp:454] pool1_3x3_s2 <- conv1_3_3x3
I0620 04:21:33.183320  2802 net.cpp:411] pool1_3x3_s2 -> pool1_3x3_s2
I0620 04:21:33.183357  2802 net.cpp:150] Setting up pool1_3x3_s2
I0620 04:21:33.183360  2802 net.cpp:157] Top shape: 1 128 81 81 (839808)
I0620 04:21:33.183388  2802 net.cpp:165] Memory required for data: 84637208
I0620 04:21:33.183392  2802 layer_factory.hpp:77] Creating layer pool1_3x3_s2_pool1_3x3_s2_0_split
I0620 04:21:33.183640  2802 net.cpp:106] Creating Layer pool1_3x3_s2_pool1_3x3_s2_0_split
I0620 04:21:33.183643  2802 net.cpp:454] pool1_3x3_s2_pool1_3x3_s2_0_split <- pool1_3x3_s2
I0620 04:21:33.183648  2802 net.cpp:411] pool1_3x3_s2_pool1_3x3_s2_0_split -> pool1_3x3_s2_pool1_3x3_s2_0_split_0
I0620 04:21:33.183653  2802 net.cpp:411] pool1_3x3_s2_pool1_3x3_s2_0_split -> pool1_3x3_s2_pool1_3x3_s2_0_split_1
I0620 04:21:33.183681  2802 net.cpp:150] Setting up pool1_3x3_s2_pool1_3x3_s2_0_split
I0620 04:21:33.183684  2802 net.cpp:157] Top shape: 1 128 81 81 (839808)
I0620 04:21:33.183688  2802 net.cpp:157] Top shape: 1 128 81 81 (839808)
I0620 04:21:33.183691  2802 net.cpp:165] Memory required for data: 91355672
I0620 04:21:33.183694  2802 layer_factory.hpp:77] Creating layer conv2_1_1x1_reduce
I0620 04:21:33.183701  2802 net.cpp:106] Creating Layer conv2_1_1x1_reduce
I0620 04:21:33.183704  2802 net.cpp:454] conv2_1_1x1_reduce <- pool1_3x3_s2_pool1_3x3_s2_0_split_0
I0620 04:21:33.183707  2802 net.cpp:411] conv2_1_1x1_reduce -> conv2_1_1x1_reduce
I0620 04:21:33.185034  2802 net.cpp:150] Setting up conv2_1_1x1_reduce
I0620 04:21:33.185068  2802 net.cpp:157] Top shape: 1 64 81 81 (419904)
I0620 04:21:33.185073  2802 net.cpp:165] Memory required for data: 93035288
I0620 04:21:33.185081  2802 layer_factory.hpp:77] Creating layer conv2_1_1x1_reduce/bn
I0620 04:21:33.185093  2802 net.cpp:106] Creating Layer conv2_1_1x1_reduce/bn
I0620 04:21:33.185098  2802 net.cpp:454] conv2_1_1x1_reduce/bn <- conv2_1_1x1_reduce
I0620 04:21:33.185103  2802 net.cpp:397] conv2_1_1x1_reduce/bn -> conv2_1_1x1_reduce (in-place)
I0620 04:21:33.185279  2802 net.cpp:150] Setting up conv2_1_1x1_reduce/bn
I0620 04:21:33.185290  2802 net.cpp:157] Top shape: 1 64 81 81 (419904)
I0620 04:21:33.185297  2802 net.cpp:165] Memory required for data: 94714904
I0620 04:21:33.185317  2802 layer_factory.hpp:77] Creating layer conv2_1_1x1_reduce/relu
I0620 04:21:33.185328  2802 net.cpp:106] Creating Layer conv2_1_1x1_reduce/relu
I0620 04:21:33.185331  2802 net.cpp:454] conv2_1_1x1_reduce/relu <- conv2_1_1x1_reduce
I0620 04:21:33.185351  2802 net.cpp:397] conv2_1_1x1_reduce/relu -> conv2_1_1x1_reduce (in-place)
I0620 04:21:33.185360  2802 net.cpp:150] Setting up conv2_1_1x1_reduce/relu
I0620 04:21:33.185366  2802 net.cpp:157] Top shape: 1 64 81 81 (419904)
I0620 04:21:33.185369  2802 net.cpp:165] Memory required for data: 96394520
I0620 04:21:33.185374  2802 layer_factory.hpp:77] Creating layer conv2_1_3x3
I0620 04:21:33.185385  2802 net.cpp:106] Creating Layer conv2_1_3x3
I0620 04:21:33.185389  2802 net.cpp:454] conv2_1_3x3 <- conv2_1_1x1_reduce
I0620 04:21:33.185396  2802 net.cpp:411] conv2_1_3x3 -> conv2_1_3x3
I0620 04:21:33.186776  2802 net.cpp:150] Setting up conv2_1_3x3
I0620 04:21:33.186796  2802 net.cpp:157] Top shape: 1 64 81 81 (419904)
I0620 04:21:33.186800  2802 net.cpp:165] Memory required for data: 98074136
I0620 04:21:33.186808  2802 layer_factory.hpp:77] Creating layer conv2_1_3x3/bn
I0620 04:21:33.186825  2802 net.cpp:106] Creating Layer conv2_1_3x3/bn
I0620 04:21:33.186830  2802 net.cpp:454] conv2_1_3x3/bn <- conv2_1_3x3
I0620 04:21:33.186836  2802 net.cpp:397] conv2_1_3x3/bn -> conv2_1_3x3 (in-place)
I0620 04:21:33.187014  2802 net.cpp:150] Setting up conv2_1_3x3/bn
I0620 04:21:33.187022  2802 net.cpp:157] Top shape: 1 64 81 81 (419904)
I0620 04:21:33.187027  2802 net.cpp:165] Memory required for data: 99753752
I0620 04:21:33.187036  2802 layer_factory.hpp:77] Creating layer conv2_1_3x3/relu
I0620 04:21:33.187047  2802 net.cpp:106] Creating Layer conv2_1_3x3/relu
I0620 04:21:33.187050  2802 net.cpp:454] conv2_1_3x3/relu <- conv2_1_3x3
I0620 04:21:33.187055  2802 net.cpp:397] conv2_1_3x3/relu -> conv2_1_3x3 (in-place)
I0620 04:21:33.187062  2802 net.cpp:150] Setting up conv2_1_3x3/relu
I0620 04:21:33.187067  2802 net.cpp:157] Top shape: 1 64 81 81 (419904)
I0620 04:21:33.187124  2802 net.cpp:165] Memory required for data: 101433368
I0620 04:21:33.187130  2802 layer_factory.hpp:77] Creating layer conv2_1_1x1_increase
I0620 04:21:33.187142  2802 net.cpp:106] Creating Layer conv2_1_1x1_increase
I0620 04:21:33.187146  2802 net.cpp:454] conv2_1_1x1_increase <- conv2_1_3x3
I0620 04:21:33.187155  2802 net.cpp:411] conv2_1_1x1_increase -> conv2_1_1x1_increase
I0620 04:21:33.187814  2802 net.cpp:150] Setting up conv2_1_1x1_increase
I0620 04:21:33.187822  2802 net.cpp:157] Top shape: 1 256 81 81 (1679616)
I0620 04:21:33.187826  2802 net.cpp:165] Memory required for data: 108151832
I0620 04:21:33.187834  2802 layer_factory.hpp:77] Creating layer conv2_1_1x1_increase/bn
I0620 04:21:33.187842  2802 net.cpp:106] Creating Layer conv2_1_1x1_increase/bn
I0620 04:21:33.187846  2802 net.cpp:454] conv2_1_1x1_increase/bn <- conv2_1_1x1_increase
I0620 04:21:33.187851  2802 net.cpp:397] conv2_1_1x1_increase/bn -> conv2_1_1x1_increase (in-place)
I0620 04:21:33.188000  2802 net.cpp:150] Setting up conv2_1_1x1_increase/bn
I0620 04:21:33.188006  2802 net.cpp:157] Top shape: 1 256 81 81 (1679616)
I0620 04:21:33.188011  2802 net.cpp:165] Memory required for data: 114870296
I0620 04:21:33.188020  2802 layer_factory.hpp:77] Creating layer conv2_1_1x1_proj
I0620 04:21:33.188030  2802 net.cpp:106] Creating Layer conv2_1_1x1_proj
I0620 04:21:33.188035  2802 net.cpp:454] conv2_1_1x1_proj <- pool1_3x3_s2_pool1_3x3_s2_0_split_1
I0620 04:21:33.188042  2802 net.cpp:411] conv2_1_1x1_proj -> conv2_1_1x1_proj
I0620 04:21:33.189193  2802 net.cpp:150] Setting up conv2_1_1x1_proj
I0620 04:21:33.189203  2802 net.cpp:157] Top shape: 1 256 81 81 (1679616)
I0620 04:21:33.189206  2802 net.cpp:165] Memory required for data: 121588760
I0620 04:21:33.189231  2802 layer_factory.hpp:77] Creating layer conv2_1_1x1_proj/bn
I0620 04:21:33.189246  2802 net.cpp:106] Creating Layer conv2_1_1x1_proj/bn
I0620 04:21:33.189254  2802 net.cpp:454] conv2_1_1x1_proj/bn <- conv2_1_1x1_proj
I0620 04:21:33.189265  2802 net.cpp:397] conv2_1_1x1_proj/bn -> conv2_1_1x1_proj (in-place)
I0620 04:21:33.189438  2802 net.cpp:150] Setting up conv2_1_1x1_proj/bn
I0620 04:21:33.189448  2802 net.cpp:157] Top shape: 1 256 81 81 (1679616)
I0620 04:21:33.189455  2802 net.cpp:165] Memory required for data: 128307224
I0620 04:21:33.189559  2802 layer_factory.hpp:77] Creating layer conv2_1
I0620 04:21:33.190372  2802 net.cpp:106] Creating Layer conv2_1
I0620 04:21:33.190387  2802 net.cpp:454] conv2_1 <- conv2_1_1x1_proj
I0620 04:21:33.190397  2802 net.cpp:454] conv2_1 <- conv2_1_1x1_increase
I0620 04:21:33.190407  2802 net.cpp:411] conv2_1 -> conv2_1
I0620 04:21:33.191416  2802 net.cpp:150] Setting up conv2_1
I0620 04:21:33.191437  2802 net.cpp:157] Top shape: 1 256 81 81 (1679616)
I0620 04:21:33.191443  2802 net.cpp:165] Memory required for data: 135025688
I0620 04:21:33.191452  2802 layer_factory.hpp:77] Creating layer conv2_1/relu
I0620 04:21:33.191467  2802 net.cpp:106] Creating Layer conv2_1/relu
I0620 04:21:33.191473  2802 net.cpp:454] conv2_1/relu <- conv2_1
I0620 04:21:33.191481  2802 net.cpp:397] conv2_1/relu -> conv2_1 (in-place)
I0620 04:21:33.191491  2802 net.cpp:150] Setting up conv2_1/relu
I0620 04:21:33.191499  2802 net.cpp:157] Top shape: 1 256 81 81 (1679616)
I0620 04:21:33.191506  2802 net.cpp:165] Memory required for data: 141744152
I0620 04:21:33.191512  2802 layer_factory.hpp:77] Creating layer conv2_1_conv2_1/relu_0_split
I0620 04:21:33.191525  2802 net.cpp:106] Creating Layer conv2_1_conv2_1/relu_0_split
I0620 04:21:33.191532  2802 net.cpp:454] conv2_1_conv2_1/relu_0_split <- conv2_1
I0620 04:21:33.191540  2802 net.cpp:411] conv2_1_conv2_1/relu_0_split -> conv2_1_conv2_1/relu_0_split_0
I0620 04:21:33.191550  2802 net.cpp:411] conv2_1_conv2_1/relu_0_split -> conv2_1_conv2_1/relu_0_split_1
I0620 04:21:33.191601  2802 net.cpp:150] Setting up conv2_1_conv2_1/relu_0_split
I0620 04:21:33.191612  2802 net.cpp:157] Top shape: 1 256 81 81 (1679616)
I0620 04:21:33.191618  2802 net.cpp:157] Top shape: 1 256 81 81 (1679616)
I0620 04:21:33.191624  2802 net.cpp:165] Memory required for data: 155181080
I0620 04:21:33.191684  2802 layer_factory.hpp:77] Creating layer conv2_2_1x1_reduce
I0620 04:21:33.191707  2802 net.cpp:106] Creating Layer conv2_2_1x1_reduce
I0620 04:21:33.191714  2802 net.cpp:454] conv2_2_1x1_reduce <- conv2_1_conv2_1/relu_0_split_0
I0620 04:21:33.191722  2802 net.cpp:411] conv2_2_1x1_reduce -> conv2_2_1x1_reduce
I0620 04:21:33.192454  2802 net.cpp:150] Setting up conv2_2_1x1_reduce
I0620 04:21:33.192469  2802 net.cpp:157] Top shape: 1 64 81 81 (419904)
I0620 04:21:33.192476  2802 net.cpp:165] Memory required for data: 156860696
I0620 04:21:33.192487  2802 layer_factory.hpp:77] Creating layer conv2_2_1x1_reduce/bn
I0620 04:21:33.192499  2802 net.cpp:106] Creating Layer conv2_2_1x1_reduce/bn
I0620 04:21:33.192507  2802 net.cpp:454] conv2_2_1x1_reduce/bn <- conv2_2_1x1_reduce
I0620 04:21:33.192517  2802 net.cpp:397] conv2_2_1x1_reduce/bn -> conv2_2_1x1_reduce (in-place)
I0620 04:21:33.192701  2802 net.cpp:150] Setting up conv2_2_1x1_reduce/bn
I0620 04:21:33.192711  2802 net.cpp:157] Top shape: 1 64 81 81 (419904)
I0620 04:21:33.192718  2802 net.cpp:165] Memory required for data: 158540312
I0620 04:21:33.192728  2802 layer_factory.hpp:77] Creating layer conv2_2_1x1_reduce/relu
I0620 04:21:33.192739  2802 net.cpp:106] Creating Layer conv2_2_1x1_reduce/relu
I0620 04:21:33.192744  2802 net.cpp:454] conv2_2_1x1_reduce/relu <- conv2_2_1x1_reduce
I0620 04:21:33.192751  2802 net.cpp:397] conv2_2_1x1_reduce/relu -> conv2_2_1x1_reduce (in-place)
I0620 04:21:33.192759  2802 net.cpp:150] Setting up conv2_2_1x1_reduce/relu
I0620 04:21:33.192766  2802 net.cpp:157] Top shape: 1 64 81 81 (419904)
I0620 04:21:33.192772  2802 net.cpp:165] Memory required for data: 160219928
I0620 04:21:33.192780  2802 layer_factory.hpp:77] Creating layer conv2_2_3x3
I0620 04:21:33.192790  2802 net.cpp:106] Creating Layer conv2_2_3x3
I0620 04:21:33.192796  2802 net.cpp:454] conv2_2_3x3 <- conv2_2_1x1_reduce
I0620 04:21:33.192804  2802 net.cpp:411] conv2_2_3x3 -> conv2_2_3x3
I0620 04:21:33.193991  2802 net.cpp:150] Setting up conv2_2_3x3
I0620 04:21:33.194000  2802 net.cpp:157] Top shape: 1 64 81 81 (419904)
I0620 04:21:33.194003  2802 net.cpp:165] Memory required for data: 161899544
I0620 04:21:33.194007  2802 layer_factory.hpp:77] Creating layer conv2_2_3x3/bn
I0620 04:21:33.194013  2802 net.cpp:106] Creating Layer conv2_2_3x3/bn
I0620 04:21:33.194016  2802 net.cpp:454] conv2_2_3x3/bn <- conv2_2_3x3
I0620 04:21:33.194020  2802 net.cpp:397] conv2_2_3x3/bn -> conv2_2_3x3 (in-place)
I0620 04:21:33.194140  2802 net.cpp:150] Setting up conv2_2_3x3/bn
I0620 04:21:33.194144  2802 net.cpp:157] Top shape: 1 64 81 81 (419904)
I0620 04:21:33.194147  2802 net.cpp:165] Memory required for data: 163579160
I0620 04:21:33.194152  2802 layer_factory.hpp:77] Creating layer conv2_2_3x3/relu
I0620 04:21:33.194156  2802 net.cpp:106] Creating Layer conv2_2_3x3/relu
I0620 04:21:33.194159  2802 net.cpp:454] conv2_2_3x3/relu <- conv2_2_3x3
I0620 04:21:33.194161  2802 net.cpp:397] conv2_2_3x3/relu -> conv2_2_3x3 (in-place)
I0620 04:21:33.194164  2802 net.cpp:150] Setting up conv2_2_3x3/relu
I0620 04:21:33.194167  2802 net.cpp:157] Top shape: 1 64 81 81 (419904)
I0620 04:21:33.194169  2802 net.cpp:165] Memory required for data: 165258776
I0620 04:21:33.194170  2802 layer_factory.hpp:77] Creating layer conv2_2_1x1_increase
I0620 04:21:33.194175  2802 net.cpp:106] Creating Layer conv2_2_1x1_increase
I0620 04:21:33.194177  2802 net.cpp:454] conv2_2_1x1_increase <- conv2_2_3x3
I0620 04:21:33.194180  2802 net.cpp:411] conv2_2_1x1_increase -> conv2_2_1x1_increase
I0620 04:21:33.194681  2802 net.cpp:150] Setting up conv2_2_1x1_increase
I0620 04:21:33.194689  2802 net.cpp:157] Top shape: 1 256 81 81 (1679616)
I0620 04:21:33.194691  2802 net.cpp:165] Memory required for data: 171977240
I0620 04:21:33.194695  2802 layer_factory.hpp:77] Creating layer conv2_2_1x1_increase/bn
I0620 04:21:33.194705  2802 net.cpp:106] Creating Layer conv2_2_1x1_increase/bn
I0620 04:21:33.194707  2802 net.cpp:454] conv2_2_1x1_increase/bn <- conv2_2_1x1_increase
I0620 04:21:33.194721  2802 net.cpp:397] conv2_2_1x1_increase/bn -> conv2_2_1x1_increase (in-place)
I0620 04:21:33.194828  2802 net.cpp:150] Setting up conv2_2_1x1_increase/bn
I0620 04:21:33.194833  2802 net.cpp:157] Top shape: 1 256 81 81 (1679616)
I0620 04:21:33.194835  2802 net.cpp:165] Memory required for data: 178695704
I0620 04:21:33.194840  2802 layer_factory.hpp:77] Creating layer conv2_2
I0620 04:21:33.194845  2802 net.cpp:106] Creating Layer conv2_2
I0620 04:21:33.194849  2802 net.cpp:454] conv2_2 <- conv2_1_conv2_1/relu_0_split_1
I0620 04:21:33.194851  2802 net.cpp:454] conv2_2 <- conv2_2_1x1_increase
I0620 04:21:33.194854  2802 net.cpp:411] conv2_2 -> conv2_2
I0620 04:21:33.194870  2802 net.cpp:150] Setting up conv2_2
I0620 04:21:33.194875  2802 net.cpp:157] Top shape: 1 256 81 81 (1679616)
I0620 04:21:33.194878  2802 net.cpp:165] Memory required for data: 185414168
I0620 04:21:33.194881  2802 layer_factory.hpp:77] Creating layer conv2_2/relu
I0620 04:21:33.194885  2802 net.cpp:106] Creating Layer conv2_2/relu
I0620 04:21:33.194887  2802 net.cpp:454] conv2_2/relu <- conv2_2
I0620 04:21:33.194890  2802 net.cpp:397] conv2_2/relu -> conv2_2 (in-place)
I0620 04:21:33.194895  2802 net.cpp:150] Setting up conv2_2/relu
I0620 04:21:33.194898  2802 net.cpp:157] Top shape: 1 256 81 81 (1679616)
I0620 04:21:33.194900  2802 net.cpp:165] Memory required for data: 192132632
I0620 04:21:33.194903  2802 layer_factory.hpp:77] Creating layer conv2_2_conv2_2/relu_0_split
I0620 04:21:33.194907  2802 net.cpp:106] Creating Layer conv2_2_conv2_2/relu_0_split
I0620 04:21:33.194910  2802 net.cpp:454] conv2_2_conv2_2/relu_0_split <- conv2_2
I0620 04:21:33.194913  2802 net.cpp:411] conv2_2_conv2_2/relu_0_split -> conv2_2_conv2_2/relu_0_split_0
I0620 04:21:33.194917  2802 net.cpp:411] conv2_2_conv2_2/relu_0_split -> conv2_2_conv2_2/relu_0_split_1
I0620 04:21:33.194934  2802 net.cpp:150] Setting up conv2_2_conv2_2/relu_0_split
I0620 04:21:33.194938  2802 net.cpp:157] Top shape: 1 256 81 81 (1679616)
I0620 04:21:33.194942  2802 net.cpp:157] Top shape: 1 256 81 81 (1679616)
I0620 04:21:33.194944  2802 net.cpp:165] Memory required for data: 205569560
I0620 04:21:33.194947  2802 layer_factory.hpp:77] Creating layer conv2_3_1x1_reduce
I0620 04:21:33.194952  2802 net.cpp:106] Creating Layer conv2_3_1x1_reduce
I0620 04:21:33.194955  2802 net.cpp:454] conv2_3_1x1_reduce <- conv2_2_conv2_2/relu_0_split_0
I0620 04:21:33.194959  2802 net.cpp:411] conv2_3_1x1_reduce -> conv2_3_1x1_reduce
I0620 04:21:33.195425  2802 net.cpp:150] Setting up conv2_3_1x1_reduce
I0620 04:21:33.195431  2802 net.cpp:157] Top shape: 1 64 81 81 (419904)
I0620 04:21:33.195435  2802 net.cpp:165] Memory required for data: 207249176
I0620 04:21:33.195438  2802 layer_factory.hpp:77] Creating layer conv2_3_1x1_reduce/bn
I0620 04:21:33.195443  2802 net.cpp:106] Creating Layer conv2_3_1x1_reduce/bn
I0620 04:21:33.195446  2802 net.cpp:454] conv2_3_1x1_reduce/bn <- conv2_3_1x1_reduce
I0620 04:21:33.195451  2802 net.cpp:397] conv2_3_1x1_reduce/bn -> conv2_3_1x1_reduce (in-place)
I0620 04:21:33.195560  2802 net.cpp:150] Setting up conv2_3_1x1_reduce/bn
I0620 04:21:33.195566  2802 net.cpp:157] Top shape: 1 64 81 81 (419904)
I0620 04:21:33.195570  2802 net.cpp:165] Memory required for data: 208928792
I0620 04:21:33.195578  2802 layer_factory.hpp:77] Creating layer conv2_3_1x1_reduce/relu
I0620 04:21:33.195585  2802 net.cpp:106] Creating Layer conv2_3_1x1_reduce/relu
I0620 04:21:33.195588  2802 net.cpp:454] conv2_3_1x1_reduce/relu <- conv2_3_1x1_reduce
I0620 04:21:33.195593  2802 net.cpp:397] conv2_3_1x1_reduce/relu -> conv2_3_1x1_reduce (in-place)
I0620 04:21:33.195600  2802 net.cpp:150] Setting up conv2_3_1x1_reduce/relu
I0620 04:21:33.195605  2802 net.cpp:157] Top shape: 1 64 81 81 (419904)
I0620 04:21:33.195608  2802 net.cpp:165] Memory required for data: 210608408
I0620 04:21:33.195613  2802 layer_factory.hpp:77] Creating layer conv2_3_3x3
I0620 04:21:33.195621  2802 net.cpp:106] Creating Layer conv2_3_3x3
I0620 04:21:33.195626  2802 net.cpp:454] conv2_3_3x3 <- conv2_3_1x1_reduce
I0620 04:21:33.195642  2802 net.cpp:411] conv2_3_3x3 -> conv2_3_3x3
I0620 04:21:33.196729  2802 net.cpp:150] Setting up conv2_3_3x3
I0620 04:21:33.196740  2802 net.cpp:157] Top shape: 1 64 81 81 (419904)
I0620 04:21:33.196744  2802 net.cpp:165] Memory required for data: 212288024
I0620 04:21:33.196750  2802 layer_factory.hpp:77] Creating layer conv2_3_3x3/bn
I0620 04:21:33.196756  2802 net.cpp:106] Creating Layer conv2_3_3x3/bn
I0620 04:21:33.196761  2802 net.cpp:454] conv2_3_3x3/bn <- conv2_3_3x3
I0620 04:21:33.196768  2802 net.cpp:397] conv2_3_3x3/bn -> conv2_3_3x3 (in-place)
I0620 04:21:33.196895  2802 net.cpp:150] Setting up conv2_3_3x3/bn
I0620 04:21:33.196902  2802 net.cpp:157] Top shape: 1 64 81 81 (419904)
I0620 04:21:33.200284  2802 net.cpp:165] Memory required for data: 213967640
I0620 04:21:33.200312  2802 layer_factory.hpp:77] Creating layer conv2_3_3x3/relu
I0620 04:21:33.200327  2802 net.cpp:106] Creating Layer conv2_3_3x3/relu
I0620 04:21:33.200335  2802 net.cpp:454] conv2_3_3x3/relu <- conv2_3_3x3
I0620 04:21:33.200343  2802 net.cpp:397] conv2_3_3x3/relu -> conv2_3_3x3 (in-place)
I0620 04:21:33.200352  2802 net.cpp:150] Setting up conv2_3_3x3/relu
I0620 04:21:33.200361  2802 net.cpp:157] Top shape: 1 64 81 81 (419904)
I0620 04:21:33.200363  2802 net.cpp:165] Memory required for data: 215647256
I0620 04:21:33.200367  2802 layer_factory.hpp:77] Creating layer conv2_3_1x1_increase
I0620 04:21:33.200383  2802 net.cpp:106] Creating Layer conv2_3_1x1_increase
I0620 04:21:33.200387  2802 net.cpp:454] conv2_3_1x1_increase <- conv2_3_3x3
I0620 04:21:33.200394  2802 net.cpp:411] conv2_3_1x1_increase -> conv2_3_1x1_increase
I0620 04:21:33.201638  2802 net.cpp:150] Setting up conv2_3_1x1_increase
I0620 04:21:33.201649  2802 net.cpp:157] Top shape: 1 256 81 81 (1679616)
I0620 04:21:33.201653  2802 net.cpp:165] Memory required for data: 222365720
I0620 04:21:33.201658  2802 layer_factory.hpp:77] Creating layer conv2_3_1x1_increase/bn
I0620 04:21:33.201670  2802 net.cpp:106] Creating Layer conv2_3_1x1_increase/bn
I0620 04:21:33.201673  2802 net.cpp:454] conv2_3_1x1_increase/bn <- conv2_3_1x1_increase
I0620 04:21:33.201679  2802 net.cpp:397] conv2_3_1x1_increase/bn -> conv2_3_1x1_increase (in-place)
I0620 04:21:33.201818  2802 net.cpp:150] Setting up conv2_3_1x1_increase/bn
I0620 04:21:33.201824  2802 net.cpp:157] Top shape: 1 256 81 81 (1679616)
I0620 04:21:33.201828  2802 net.cpp:165] Memory required for data: 229084184
I0620 04:21:33.201846  2802 layer_factory.hpp:77] Creating layer conv2_3
I0620 04:21:33.201853  2802 net.cpp:106] Creating Layer conv2_3
I0620 04:21:33.201858  2802 net.cpp:454] conv2_3 <- conv2_2_conv2_2/relu_0_split_1
I0620 04:21:33.201864  2802 net.cpp:454] conv2_3 <- conv2_3_1x1_increase
I0620 04:21:33.201869  2802 net.cpp:411] conv2_3 -> conv2_3
I0620 04:21:33.201890  2802 net.cpp:150] Setting up conv2_3
I0620 04:21:33.201896  2802 net.cpp:157] Top shape: 1 256 81 81 (1679616)
I0620 04:21:33.201900  2802 net.cpp:165] Memory required for data: 235802648
I0620 04:21:33.201905  2802 layer_factory.hpp:77] Creating layer conv2_3/relu
I0620 04:21:33.201910  2802 net.cpp:106] Creating Layer conv2_3/relu
I0620 04:21:33.201915  2802 net.cpp:454] conv2_3/relu <- conv2_3
I0620 04:21:33.201920  2802 net.cpp:397] conv2_3/relu -> conv2_3 (in-place)
I0620 04:21:33.201925  2802 net.cpp:150] Setting up conv2_3/relu
I0620 04:21:33.201930  2802 net.cpp:157] Top shape: 1 256 81 81 (1679616)
I0620 04:21:33.201933  2802 net.cpp:165] Memory required for data: 242521112
I0620 04:21:33.201937  2802 layer_factory.hpp:77] Creating layer conv2_3_conv2_3/relu_0_split
I0620 04:21:33.201943  2802 net.cpp:106] Creating Layer conv2_3_conv2_3/relu_0_split
I0620 04:21:33.201947  2802 net.cpp:454] conv2_3_conv2_3/relu_0_split <- conv2_3
I0620 04:21:33.201952  2802 net.cpp:411] conv2_3_conv2_3/relu_0_split -> conv2_3_conv2_3/relu_0_split_0
I0620 04:21:33.201958  2802 net.cpp:411] conv2_3_conv2_3/relu_0_split -> conv2_3_conv2_3/relu_0_split_1
I0620 04:21:33.201985  2802 net.cpp:150] Setting up conv2_3_conv2_3/relu_0_split
I0620 04:21:33.202003  2802 net.cpp:157] Top shape: 1 256 81 81 (1679616)
I0620 04:21:33.202008  2802 net.cpp:157] Top shape: 1 256 81 81 (1679616)
I0620 04:21:33.202011  2802 net.cpp:165] Memory required for data: 255958040
I0620 04:21:33.202015  2802 layer_factory.hpp:77] Creating layer conv3_1_1x1_reduce
I0620 04:21:33.202023  2802 net.cpp:106] Creating Layer conv3_1_1x1_reduce
I0620 04:21:33.202028  2802 net.cpp:454] conv3_1_1x1_reduce <- conv2_3_conv2_3/relu_0_split_0
I0620 04:21:33.202033  2802 net.cpp:411] conv3_1_1x1_reduce -> conv3_1_1x1_reduce
I0620 04:21:33.203127  2802 net.cpp:150] Setting up conv3_1_1x1_reduce
I0620 04:21:33.203136  2802 net.cpp:157] Top shape: 1 128 81 81 (839808)
I0620 04:21:33.203140  2802 net.cpp:165] Memory required for data: 259317272
I0620 04:21:33.203145  2802 layer_factory.hpp:77] Creating layer conv3_1_1x1_reduce/bn
I0620 04:21:33.203155  2802 net.cpp:106] Creating Layer conv3_1_1x1_reduce/bn
I0620 04:21:33.203160  2802 net.cpp:454] conv3_1_1x1_reduce/bn <- conv3_1_1x1_reduce
I0620 04:21:33.203166  2802 net.cpp:397] conv3_1_1x1_reduce/bn -> conv3_1_1x1_reduce (in-place)
I0620 04:21:33.203322  2802 net.cpp:150] Setting up conv3_1_1x1_reduce/bn
I0620 04:21:33.203328  2802 net.cpp:157] Top shape: 1 128 81 81 (839808)
I0620 04:21:33.203332  2802 net.cpp:165] Memory required for data: 262676504
I0620 04:21:33.203341  2802 layer_factory.hpp:77] Creating layer conv3_1_1x1_reduce/relu
I0620 04:21:33.203346  2802 net.cpp:106] Creating Layer conv3_1_1x1_reduce/relu
I0620 04:21:33.203351  2802 net.cpp:454] conv3_1_1x1_reduce/relu <- conv3_1_1x1_reduce
I0620 04:21:33.203356  2802 net.cpp:397] conv3_1_1x1_reduce/relu -> conv3_1_1x1_reduce (in-place)
I0620 04:21:33.203361  2802 net.cpp:150] Setting up conv3_1_1x1_reduce/relu
I0620 04:21:33.203366  2802 net.cpp:157] Top shape: 1 128 81 81 (839808)
I0620 04:21:33.203369  2802 net.cpp:165] Memory required for data: 266035736
I0620 04:21:33.203373  2802 layer_factory.hpp:77] Creating layer conv3_1_3x3
I0620 04:21:33.203382  2802 net.cpp:106] Creating Layer conv3_1_3x3
I0620 04:21:33.203385  2802 net.cpp:454] conv3_1_3x3 <- conv3_1_1x1_reduce
I0620 04:21:33.203392  2802 net.cpp:411] conv3_1_3x3 -> conv3_1_3x3
I0620 04:21:33.208438  2802 net.cpp:150] Setting up conv3_1_3x3
I0620 04:21:33.208468  2802 net.cpp:157] Top shape: 1 128 41 41 (215168)
I0620 04:21:33.208474  2802 net.cpp:165] Memory required for data: 266896408
I0620 04:21:33.208482  2802 layer_factory.hpp:77] Creating layer conv3_1_3x3/bn
I0620 04:21:33.208495  2802 net.cpp:106] Creating Layer conv3_1_3x3/bn
I0620 04:21:33.208501  2802 net.cpp:454] conv3_1_3x3/bn <- conv3_1_3x3
I0620 04:21:33.208510  2802 net.cpp:397] conv3_1_3x3/bn -> conv3_1_3x3 (in-place)
I0620 04:21:33.208689  2802 net.cpp:150] Setting up conv3_1_3x3/bn
I0620 04:21:33.208695  2802 net.cpp:157] Top shape: 1 128 41 41 (215168)
I0620 04:21:33.208699  2802 net.cpp:165] Memory required for data: 267757080
I0620 04:21:33.208706  2802 layer_factory.hpp:77] Creating layer conv3_1_3x3/relu
I0620 04:21:33.208714  2802 net.cpp:106] Creating Layer conv3_1_3x3/relu
I0620 04:21:33.208716  2802 net.cpp:454] conv3_1_3x3/relu <- conv3_1_3x3
I0620 04:21:33.208721  2802 net.cpp:397] conv3_1_3x3/relu -> conv3_1_3x3 (in-place)
I0620 04:21:33.208729  2802 net.cpp:150] Setting up conv3_1_3x3/relu
I0620 04:21:33.208734  2802 net.cpp:157] Top shape: 1 128 41 41 (215168)
I0620 04:21:33.208736  2802 net.cpp:165] Memory required for data: 268617752
I0620 04:21:33.208739  2802 layer_factory.hpp:77] Creating layer conv3_1_1x1_increase
I0620 04:21:33.208747  2802 net.cpp:106] Creating Layer conv3_1_1x1_increase
I0620 04:21:33.208751  2802 net.cpp:454] conv3_1_1x1_increase <- conv3_1_3x3
I0620 04:21:33.208756  2802 net.cpp:411] conv3_1_1x1_increase -> conv3_1_1x1_increase
I0620 04:21:33.210675  2802 net.cpp:150] Setting up conv3_1_1x1_increase
I0620 04:21:33.210686  2802 net.cpp:157] Top shape: 1 512 41 41 (860672)
I0620 04:21:33.210690  2802 net.cpp:165] Memory required for data: 272060440
I0620 04:21:33.210695  2802 layer_factory.hpp:77] Creating layer conv3_1_1x1_increase/bn
I0620 04:21:33.210717  2802 net.cpp:106] Creating Layer conv3_1_1x1_increase/bn
I0620 04:21:33.210721  2802 net.cpp:454] conv3_1_1x1_increase/bn <- conv3_1_1x1_increase
I0620 04:21:33.210728  2802 net.cpp:397] conv3_1_1x1_increase/bn -> conv3_1_1x1_increase (in-place)
I0620 04:21:33.211731  2802 net.cpp:150] Setting up conv3_1_1x1_increase/bn
I0620 04:21:33.211742  2802 net.cpp:157] Top shape: 1 512 41 41 (860672)
I0620 04:21:33.211746  2802 net.cpp:165] Memory required for data: 275503128
I0620 04:21:33.211755  2802 layer_factory.hpp:77] Creating layer conv3_1_1x1_proj
I0620 04:21:33.211762  2802 net.cpp:106] Creating Layer conv3_1_1x1_proj
I0620 04:21:33.211766  2802 net.cpp:454] conv3_1_1x1_proj <- conv2_3_conv2_3/relu_0_split_1
I0620 04:21:33.211773  2802 net.cpp:411] conv3_1_1x1_proj -> conv3_1_1x1_proj
I0620 04:21:33.215567  2802 net.cpp:150] Setting up conv3_1_1x1_proj
I0620 04:21:33.215582  2802 net.cpp:157] Top shape: 1 512 41 41 (860672)
I0620 04:21:33.215586  2802 net.cpp:165] Memory required for data: 278945816
I0620 04:21:33.215592  2802 layer_factory.hpp:77] Creating layer conv3_1_1x1_proj/bn
I0620 04:21:33.215602  2802 net.cpp:106] Creating Layer conv3_1_1x1_proj/bn
I0620 04:21:33.215608  2802 net.cpp:454] conv3_1_1x1_proj/bn <- conv3_1_1x1_proj
I0620 04:21:33.215617  2802 net.cpp:397] conv3_1_1x1_proj/bn -> conv3_1_1x1_proj (in-place)
I0620 04:21:33.215804  2802 net.cpp:150] Setting up conv3_1_1x1_proj/bn
I0620 04:21:33.215813  2802 net.cpp:157] Top shape: 1 512 41 41 (860672)
I0620 04:21:33.215816  2802 net.cpp:165] Memory required for data: 282388504
I0620 04:21:33.215824  2802 layer_factory.hpp:77] Creating layer conv3_1
I0620 04:21:33.215831  2802 net.cpp:106] Creating Layer conv3_1
I0620 04:21:33.215834  2802 net.cpp:454] conv3_1 <- conv3_1_1x1_proj
I0620 04:21:33.215838  2802 net.cpp:454] conv3_1 <- conv3_1_1x1_increase
I0620 04:21:33.215844  2802 net.cpp:411] conv3_1 -> conv3_1
I0620 04:21:33.215872  2802 net.cpp:150] Setting up conv3_1
I0620 04:21:33.215878  2802 net.cpp:157] Top shape: 1 512 41 41 (860672)
I0620 04:21:33.215881  2802 net.cpp:165] Memory required for data: 285831192
I0620 04:21:33.215885  2802 layer_factory.hpp:77] Creating layer conv3_1/relu
I0620 04:21:33.215891  2802 net.cpp:106] Creating Layer conv3_1/relu
I0620 04:21:33.215895  2802 net.cpp:454] conv3_1/relu <- conv3_1
I0620 04:21:33.215900  2802 net.cpp:397] conv3_1/relu -> conv3_1 (in-place)
I0620 04:21:33.215906  2802 net.cpp:150] Setting up conv3_1/relu
I0620 04:21:33.215911  2802 net.cpp:157] Top shape: 1 512 41 41 (860672)
I0620 04:21:33.215915  2802 net.cpp:165] Memory required for data: 289273880
I0620 04:21:33.215919  2802 layer_factory.hpp:77] Creating layer conv3_1_conv3_1/relu_0_split
I0620 04:21:33.215925  2802 net.cpp:106] Creating Layer conv3_1_conv3_1/relu_0_split
I0620 04:21:33.215929  2802 net.cpp:454] conv3_1_conv3_1/relu_0_split <- conv3_1
I0620 04:21:33.215935  2802 net.cpp:411] conv3_1_conv3_1/relu_0_split -> conv3_1_conv3_1/relu_0_split_0
I0620 04:21:33.215941  2802 net.cpp:411] conv3_1_conv3_1/relu_0_split -> conv3_1_conv3_1/relu_0_split_1
I0620 04:21:33.215967  2802 net.cpp:150] Setting up conv3_1_conv3_1/relu_0_split
I0620 04:21:33.215973  2802 net.cpp:157] Top shape: 1 512 41 41 (860672)
I0620 04:21:33.215977  2802 net.cpp:157] Top shape: 1 512 41 41 (860672)
I0620 04:21:33.215981  2802 net.cpp:165] Memory required for data: 296159256
I0620 04:21:33.215986  2802 layer_factory.hpp:77] Creating layer conv3_2_1x1_reduce
I0620 04:21:33.215994  2802 net.cpp:106] Creating Layer conv3_2_1x1_reduce
I0620 04:21:33.215999  2802 net.cpp:454] conv3_2_1x1_reduce <- conv3_1_conv3_1/relu_0_split_0
I0620 04:21:33.216004  2802 net.cpp:411] conv3_2_1x1_reduce -> conv3_2_1x1_reduce
I0620 04:21:33.218296  2802 net.cpp:150] Setting up conv3_2_1x1_reduce
I0620 04:21:33.218304  2802 net.cpp:157] Top shape: 1 128 41 41 (215168)
I0620 04:21:33.218308  2802 net.cpp:165] Memory required for data: 297019928
I0620 04:21:33.218314  2802 layer_factory.hpp:77] Creating layer conv3_2_1x1_reduce/bn
I0620 04:21:33.218336  2802 net.cpp:106] Creating Layer conv3_2_1x1_reduce/bn
I0620 04:21:33.218341  2802 net.cpp:454] conv3_2_1x1_reduce/bn <- conv3_2_1x1_reduce
I0620 04:21:33.218346  2802 net.cpp:397] conv3_2_1x1_reduce/bn -> conv3_2_1x1_reduce (in-place)
I0620 04:21:33.218464  2802 net.cpp:150] Setting up conv3_2_1x1_reduce/bn
I0620 04:21:33.218471  2802 net.cpp:157] Top shape: 1 128 41 41 (215168)
I0620 04:21:33.218475  2802 net.cpp:165] Memory required for data: 297880600
I0620 04:21:33.218483  2802 layer_factory.hpp:77] Creating layer conv3_2_1x1_reduce/relu
I0620 04:21:33.218489  2802 net.cpp:106] Creating Layer conv3_2_1x1_reduce/relu
I0620 04:21:33.218493  2802 net.cpp:454] conv3_2_1x1_reduce/relu <- conv3_2_1x1_reduce
I0620 04:21:33.218498  2802 net.cpp:397] conv3_2_1x1_reduce/relu -> conv3_2_1x1_reduce (in-place)
I0620 04:21:33.233997  2802 net.cpp:150] Setting up conv3_2_1x1_reduce/relu
I0620 04:21:33.234045  2802 net.cpp:157] Top shape: 1 128 41 41 (215168)
I0620 04:21:33.234050  2802 net.cpp:165] Memory required for data: 298741272
I0620 04:21:33.234061  2802 layer_factory.hpp:77] Creating layer conv3_2_3x3
I0620 04:21:33.234096  2802 net.cpp:106] Creating Layer conv3_2_3x3
I0620 04:21:33.234103  2802 net.cpp:454] conv3_2_3x3 <- conv3_2_1x1_reduce
I0620 04:21:33.234115  2802 net.cpp:411] conv3_2_3x3 -> conv3_2_3x3
I0620 04:21:33.239158  2802 net.cpp:150] Setting up conv3_2_3x3
I0620 04:21:33.239222  2802 net.cpp:157] Top shape: 1 128 41 41 (215168)
I0620 04:21:33.239228  2802 net.cpp:165] Memory required for data: 299601944
I0620 04:21:33.239243  2802 layer_factory.hpp:77] Creating layer conv3_2_3x3/bn
I0620 04:21:33.239289  2802 net.cpp:106] Creating Layer conv3_2_3x3/bn
I0620 04:21:33.239298  2802 net.cpp:454] conv3_2_3x3/bn <- conv3_2_3x3
I0620 04:21:33.239310  2802 net.cpp:397] conv3_2_3x3/bn -> conv3_2_3x3 (in-place)
I0620 04:21:33.239538  2802 net.cpp:150] Setting up conv3_2_3x3/bn
I0620 04:21:33.239545  2802 net.cpp:157] Top shape: 1 128 41 41 (215168)
I0620 04:21:33.239552  2802 net.cpp:165] Memory required for data: 300462616
I0620 04:21:33.239562  2802 layer_factory.hpp:77] Creating layer conv3_2_3x3/relu
I0620 04:21:33.239574  2802 net.cpp:106] Creating Layer conv3_2_3x3/relu
I0620 04:21:33.239578  2802 net.cpp:454] conv3_2_3x3/relu <- conv3_2_3x3
I0620 04:21:33.239584  2802 net.cpp:397] conv3_2_3x3/relu -> conv3_2_3x3 (in-place)
I0620 04:21:33.239590  2802 net.cpp:150] Setting up conv3_2_3x3/relu
I0620 04:21:33.239596  2802 net.cpp:157] Top shape: 1 128 41 41 (215168)
I0620 04:21:33.239600  2802 net.cpp:165] Memory required for data: 301323288
I0620 04:21:33.239605  2802 layer_factory.hpp:77] Creating layer conv3_2_1x1_increase
I0620 04:21:33.239616  2802 net.cpp:106] Creating Layer conv3_2_1x1_increase
I0620 04:21:33.239621  2802 net.cpp:454] conv3_2_1x1_increase <- conv3_2_3x3
I0620 04:21:33.239627  2802 net.cpp:411] conv3_2_1x1_increase -> conv3_2_1x1_increase
I0620 04:21:33.241957  2802 net.cpp:150] Setting up conv3_2_1x1_increase
I0620 04:21:33.242002  2802 net.cpp:157] Top shape: 1 512 41 41 (860672)
I0620 04:21:33.242007  2802 net.cpp:165] Memory required for data: 304765976
I0620 04:21:33.242018  2802 layer_factory.hpp:77] Creating layer conv3_2_1x1_increase/bn
I0620 04:21:33.242040  2802 net.cpp:106] Creating Layer conv3_2_1x1_increase/bn
I0620 04:21:33.242048  2802 net.cpp:454] conv3_2_1x1_increase/bn <- conv3_2_1x1_increase
I0620 04:21:33.242056  2802 net.cpp:397] conv3_2_1x1_increase/bn -> conv3_2_1x1_increase (in-place)
I0620 04:21:33.242269  2802 net.cpp:150] Setting up conv3_2_1x1_increase/bn
I0620 04:21:33.242278  2802 net.cpp:157] Top shape: 1 512 41 41 (860672)
I0620 04:21:33.242283  2802 net.cpp:165] Memory required for data: 308208664
I0620 04:21:33.242293  2802 layer_factory.hpp:77] Creating layer conv3_2
I0620 04:21:33.242303  2802 net.cpp:106] Creating Layer conv3_2
I0620 04:21:33.242308  2802 net.cpp:454] conv3_2 <- conv3_1_conv3_1/relu_0_split_1
I0620 04:21:33.242314  2802 net.cpp:454] conv3_2 <- conv3_2_1x1_increase
I0620 04:21:33.242321  2802 net.cpp:411] conv3_2 -> conv3_2
I0620 04:21:33.242413  2802 net.cpp:150] Setting up conv3_2
I0620 04:21:33.242418  2802 net.cpp:157] Top shape: 1 512 41 41 (860672)
I0620 04:21:33.242421  2802 net.cpp:165] Memory required for data: 311651352
I0620 04:21:33.242424  2802 layer_factory.hpp:77] Creating layer conv3_2/relu
I0620 04:21:33.242429  2802 net.cpp:106] Creating Layer conv3_2/relu
I0620 04:21:33.242432  2802 net.cpp:454] conv3_2/relu <- conv3_2
I0620 04:21:33.242435  2802 net.cpp:397] conv3_2/relu -> conv3_2 (in-place)
I0620 04:21:33.242439  2802 net.cpp:150] Setting up conv3_2/relu
I0620 04:21:33.242442  2802 net.cpp:157] Top shape: 1 512 41 41 (860672)
I0620 04:21:33.242445  2802 net.cpp:165] Memory required for data: 315094040
I0620 04:21:33.242447  2802 layer_factory.hpp:77] Creating layer conv3_2_conv3_2/relu_0_split
I0620 04:21:33.242453  2802 net.cpp:106] Creating Layer conv3_2_conv3_2/relu_0_split
I0620 04:21:33.242456  2802 net.cpp:454] conv3_2_conv3_2/relu_0_split <- conv3_2
I0620 04:21:33.242460  2802 net.cpp:411] conv3_2_conv3_2/relu_0_split -> conv3_2_conv3_2/relu_0_split_0
I0620 04:21:33.242465  2802 net.cpp:411] conv3_2_conv3_2/relu_0_split -> conv3_2_conv3_2/relu_0_split_1
I0620 04:21:33.242485  2802 net.cpp:150] Setting up conv3_2_conv3_2/relu_0_split
I0620 04:21:33.242488  2802 net.cpp:157] Top shape: 1 512 41 41 (860672)
I0620 04:21:33.242492  2802 net.cpp:157] Top shape: 1 512 41 41 (860672)
I0620 04:21:33.242494  2802 net.cpp:165] Memory required for data: 321979416
I0620 04:21:33.242497  2802 layer_factory.hpp:77] Creating layer conv3_3_1x1_reduce
I0620 04:21:33.242503  2802 net.cpp:106] Creating Layer conv3_3_1x1_reduce
I0620 04:21:33.242506  2802 net.cpp:454] conv3_3_1x1_reduce <- conv3_2_conv3_2/relu_0_split_0
I0620 04:21:33.242511  2802 net.cpp:411] conv3_3_1x1_reduce -> conv3_3_1x1_reduce
I0620 04:21:33.244688  2802 net.cpp:150] Setting up conv3_3_1x1_reduce
I0620 04:21:33.244698  2802 net.cpp:157] Top shape: 1 128 41 41 (215168)
I0620 04:21:33.244700  2802 net.cpp:165] Memory required for data: 322840088
I0620 04:21:33.244705  2802 layer_factory.hpp:77] Creating layer conv3_3_1x1_reduce/bn
I0620 04:21:33.244711  2802 net.cpp:106] Creating Layer conv3_3_1x1_reduce/bn
I0620 04:21:33.244714  2802 net.cpp:454] conv3_3_1x1_reduce/bn <- conv3_3_1x1_reduce
I0620 04:21:33.244719  2802 net.cpp:397] conv3_3_1x1_reduce/bn -> conv3_3_1x1_reduce (in-place)
I0620 04:21:33.244830  2802 net.cpp:150] Setting up conv3_3_1x1_reduce/bn
I0620 04:21:33.244834  2802 net.cpp:157] Top shape: 1 128 41 41 (215168)
I0620 04:21:33.244837  2802 net.cpp:165] Memory required for data: 323700760
I0620 04:21:33.244843  2802 layer_factory.hpp:77] Creating layer conv3_3_1x1_reduce/relu
I0620 04:21:33.244846  2802 net.cpp:106] Creating Layer conv3_3_1x1_reduce/relu
I0620 04:21:33.244849  2802 net.cpp:454] conv3_3_1x1_reduce/relu <- conv3_3_1x1_reduce
I0620 04:21:33.244853  2802 net.cpp:397] conv3_3_1x1_reduce/relu -> conv3_3_1x1_reduce (in-place)
I0620 04:21:33.244856  2802 net.cpp:150] Setting up conv3_3_1x1_reduce/relu
I0620 04:21:33.244860  2802 net.cpp:157] Top shape: 1 128 41 41 (215168)
I0620 04:21:33.244863  2802 net.cpp:165] Memory required for data: 324561432
I0620 04:21:33.244865  2802 layer_factory.hpp:77] Creating layer conv3_3_3x3
I0620 04:21:33.244871  2802 net.cpp:106] Creating Layer conv3_3_3x3
I0620 04:21:33.244874  2802 net.cpp:454] conv3_3_3x3 <- conv3_3_1x1_reduce
I0620 04:21:33.244879  2802 net.cpp:411] conv3_3_3x3 -> conv3_3_3x3
I0620 04:21:33.248615  2802 net.cpp:150] Setting up conv3_3_3x3
I0620 04:21:33.248625  2802 net.cpp:157] Top shape: 1 128 41 41 (215168)
I0620 04:21:33.248628  2802 net.cpp:165] Memory required for data: 325422104
I0620 04:21:33.248632  2802 layer_factory.hpp:77] Creating layer conv3_3_3x3/bn
I0620 04:21:33.248637  2802 net.cpp:106] Creating Layer conv3_3_3x3/bn
I0620 04:21:33.248641  2802 net.cpp:454] conv3_3_3x3/bn <- conv3_3_3x3
I0620 04:21:33.248644  2802 net.cpp:397] conv3_3_3x3/bn -> conv3_3_3x3 (in-place)
I0620 04:21:33.248755  2802 net.cpp:150] Setting up conv3_3_3x3/bn
I0620 04:21:33.248759  2802 net.cpp:157] Top shape: 1 128 41 41 (215168)
I0620 04:21:33.248773  2802 net.cpp:165] Memory required for data: 326282776
I0620 04:21:33.248778  2802 layer_factory.hpp:77] Creating layer conv3_3_3x3/relu
I0620 04:21:33.248782  2802 net.cpp:106] Creating Layer conv3_3_3x3/relu
I0620 04:21:33.248785  2802 net.cpp:454] conv3_3_3x3/relu <- conv3_3_3x3
I0620 04:21:33.248790  2802 net.cpp:397] conv3_3_3x3/relu -> conv3_3_3x3 (in-place)
I0620 04:21:33.248793  2802 net.cpp:150] Setting up conv3_3_3x3/relu
I0620 04:21:33.248796  2802 net.cpp:157] Top shape: 1 128 41 41 (215168)
I0620 04:21:33.248798  2802 net.cpp:165] Memory required for data: 327143448
I0620 04:21:33.248801  2802 layer_factory.hpp:77] Creating layer conv3_3_1x1_increase
I0620 04:21:33.248806  2802 net.cpp:106] Creating Layer conv3_3_1x1_increase
I0620 04:21:33.248809  2802 net.cpp:454] conv3_3_1x1_increase <- conv3_3_3x3
I0620 04:21:33.248813  2802 net.cpp:411] conv3_3_1x1_increase -> conv3_3_1x1_increase
I0620 04:21:33.250283  2802 net.cpp:150] Setting up conv3_3_1x1_increase
I0620 04:21:33.250288  2802 net.cpp:157] Top shape: 1 512 41 41 (860672)
I0620 04:21:33.250290  2802 net.cpp:165] Memory required for data: 330586136
I0620 04:21:33.250294  2802 layer_factory.hpp:77] Creating layer conv3_3_1x1_increase/bn
I0620 04:21:33.250298  2802 net.cpp:106] Creating Layer conv3_3_1x1_increase/bn
I0620 04:21:33.250301  2802 net.cpp:454] conv3_3_1x1_increase/bn <- conv3_3_1x1_increase
I0620 04:21:33.250305  2802 net.cpp:397] conv3_3_1x1_increase/bn -> conv3_3_1x1_increase (in-place)
I0620 04:21:33.250419  2802 net.cpp:150] Setting up conv3_3_1x1_increase/bn
I0620 04:21:33.250423  2802 net.cpp:157] Top shape: 1 512 41 41 (860672)
I0620 04:21:33.250427  2802 net.cpp:165] Memory required for data: 334028824
I0620 04:21:33.250432  2802 layer_factory.hpp:77] Creating layer conv3_3
I0620 04:21:33.250435  2802 net.cpp:106] Creating Layer conv3_3
I0620 04:21:33.250438  2802 net.cpp:454] conv3_3 <- conv3_2_conv3_2/relu_0_split_1
I0620 04:21:33.250442  2802 net.cpp:454] conv3_3 <- conv3_3_1x1_increase
I0620 04:21:33.250445  2802 net.cpp:411] conv3_3 -> conv3_3
I0620 04:21:33.250459  2802 net.cpp:150] Setting up conv3_3
I0620 04:21:33.250463  2802 net.cpp:157] Top shape: 1 512 41 41 (860672)
I0620 04:21:33.250465  2802 net.cpp:165] Memory required for data: 337471512
I0620 04:21:33.250468  2802 layer_factory.hpp:77] Creating layer conv3_3/relu
I0620 04:21:33.250473  2802 net.cpp:106] Creating Layer conv3_3/relu
I0620 04:21:33.250476  2802 net.cpp:454] conv3_3/relu <- conv3_3
I0620 04:21:33.250480  2802 net.cpp:397] conv3_3/relu -> conv3_3 (in-place)
I0620 04:21:33.250484  2802 net.cpp:150] Setting up conv3_3/relu
I0620 04:21:33.250488  2802 net.cpp:157] Top shape: 1 512 41 41 (860672)
I0620 04:21:33.250489  2802 net.cpp:165] Memory required for data: 340914200
I0620 04:21:33.250493  2802 layer_factory.hpp:77] Creating layer conv3_3_conv3_3/relu_0_split
I0620 04:21:33.250496  2802 net.cpp:106] Creating Layer conv3_3_conv3_3/relu_0_split
I0620 04:21:33.250499  2802 net.cpp:454] conv3_3_conv3_3/relu_0_split <- conv3_3
I0620 04:21:33.250502  2802 net.cpp:411] conv3_3_conv3_3/relu_0_split -> conv3_3_conv3_3/relu_0_split_0
I0620 04:21:33.250506  2802 net.cpp:411] conv3_3_conv3_3/relu_0_split -> conv3_3_conv3_3/relu_0_split_1
I0620 04:21:33.250526  2802 net.cpp:150] Setting up conv3_3_conv3_3/relu_0_split
I0620 04:21:33.250530  2802 net.cpp:157] Top shape: 1 512 41 41 (860672)
I0620 04:21:33.250533  2802 net.cpp:157] Top shape: 1 512 41 41 (860672)
I0620 04:21:33.250535  2802 net.cpp:165] Memory required for data: 347799576
I0620 04:21:33.250538  2802 layer_factory.hpp:77] Creating layer conv3_4_1x1_reduce
I0620 04:21:33.250543  2802 net.cpp:106] Creating Layer conv3_4_1x1_reduce
I0620 04:21:33.250546  2802 net.cpp:454] conv3_4_1x1_reduce <- conv3_3_conv3_3/relu_0_split_0
I0620 04:21:33.250550  2802 net.cpp:411] conv3_4_1x1_reduce -> conv3_4_1x1_reduce
I0620 04:21:33.252009  2802 net.cpp:150] Setting up conv3_4_1x1_reduce
I0620 04:21:33.252014  2802 net.cpp:157] Top shape: 1 128 41 41 (215168)
I0620 04:21:33.252025  2802 net.cpp:165] Memory required for data: 348660248
I0620 04:21:33.252029  2802 layer_factory.hpp:77] Creating layer conv3_4_1x1_reduce/bn
I0620 04:21:33.252034  2802 net.cpp:106] Creating Layer conv3_4_1x1_reduce/bn
I0620 04:21:33.252038  2802 net.cpp:454] conv3_4_1x1_reduce/bn <- conv3_4_1x1_reduce
I0620 04:21:33.252040  2802 net.cpp:397] conv3_4_1x1_reduce/bn -> conv3_4_1x1_reduce (in-place)
I0620 04:21:33.252148  2802 net.cpp:150] Setting up conv3_4_1x1_reduce/bn
I0620 04:21:33.252153  2802 net.cpp:157] Top shape: 1 128 41 41 (215168)
I0620 04:21:33.252156  2802 net.cpp:165] Memory required for data: 349520920
I0620 04:21:33.252161  2802 layer_factory.hpp:77] Creating layer conv3_4_1x1_reduce/relu
I0620 04:21:33.252164  2802 net.cpp:106] Creating Layer conv3_4_1x1_reduce/relu
I0620 04:21:33.252167  2802 net.cpp:454] conv3_4_1x1_reduce/relu <- conv3_4_1x1_reduce
I0620 04:21:33.252171  2802 net.cpp:397] conv3_4_1x1_reduce/relu -> conv3_4_1x1_reduce (in-place)
I0620 04:21:33.252174  2802 net.cpp:150] Setting up conv3_4_1x1_reduce/relu
I0620 04:21:33.252177  2802 net.cpp:157] Top shape: 1 128 41 41 (215168)
I0620 04:21:33.252179  2802 net.cpp:165] Memory required for data: 350381592
I0620 04:21:33.252182  2802 layer_factory.hpp:77] Creating layer conv3_4_3x3
I0620 04:21:33.252187  2802 net.cpp:106] Creating Layer conv3_4_3x3
I0620 04:21:33.252190  2802 net.cpp:454] conv3_4_3x3 <- conv3_4_1x1_reduce
I0620 04:21:33.252193  2802 net.cpp:411] conv3_4_3x3 -> conv3_4_3x3
I0620 04:21:33.255342  2802 net.cpp:150] Setting up conv3_4_3x3
I0620 04:21:33.255347  2802 net.cpp:157] Top shape: 1 128 41 41 (215168)
I0620 04:21:33.255348  2802 net.cpp:165] Memory required for data: 351242264
I0620 04:21:33.255352  2802 layer_factory.hpp:77] Creating layer conv3_4_3x3/bn
I0620 04:21:33.255357  2802 net.cpp:106] Creating Layer conv3_4_3x3/bn
I0620 04:21:33.255359  2802 net.cpp:454] conv3_4_3x3/bn <- conv3_4_3x3
I0620 04:21:33.255363  2802 net.cpp:397] conv3_4_3x3/bn -> conv3_4_3x3 (in-place)
I0620 04:21:33.255471  2802 net.cpp:150] Setting up conv3_4_3x3/bn
I0620 04:21:33.255475  2802 net.cpp:157] Top shape: 1 128 41 41 (215168)
I0620 04:21:33.255478  2802 net.cpp:165] Memory required for data: 352102936
I0620 04:21:33.255483  2802 layer_factory.hpp:77] Creating layer conv3_4_3x3/relu
I0620 04:21:33.255486  2802 net.cpp:106] Creating Layer conv3_4_3x3/relu
I0620 04:21:33.255489  2802 net.cpp:454] conv3_4_3x3/relu <- conv3_4_3x3
I0620 04:21:33.255492  2802 net.cpp:397] conv3_4_3x3/relu -> conv3_4_3x3 (in-place)
I0620 04:21:33.255496  2802 net.cpp:150] Setting up conv3_4_3x3/relu
I0620 04:21:33.255499  2802 net.cpp:157] Top shape: 1 128 41 41 (215168)
I0620 04:21:33.255502  2802 net.cpp:165] Memory required for data: 352963608
I0620 04:21:33.255504  2802 layer_factory.hpp:77] Creating layer conv3_4_1x1_increase
I0620 04:21:33.255509  2802 net.cpp:106] Creating Layer conv3_4_1x1_increase
I0620 04:21:33.255511  2802 net.cpp:454] conv3_4_1x1_increase <- conv3_4_3x3
I0620 04:21:33.255515  2802 net.cpp:411] conv3_4_1x1_increase -> conv3_4_1x1_increase
I0620 04:21:33.256989  2802 net.cpp:150] Setting up conv3_4_1x1_increase
I0620 04:21:33.256994  2802 net.cpp:157] Top shape: 1 512 41 41 (860672)
I0620 04:21:33.256996  2802 net.cpp:165] Memory required for data: 356406296
I0620 04:21:33.257000  2802 layer_factory.hpp:77] Creating layer conv3_4_1x1_increase/bn
I0620 04:21:33.257004  2802 net.cpp:106] Creating Layer conv3_4_1x1_increase/bn
I0620 04:21:33.257007  2802 net.cpp:454] conv3_4_1x1_increase/bn <- conv3_4_1x1_increase
I0620 04:21:33.257010  2802 net.cpp:397] conv3_4_1x1_increase/bn -> conv3_4_1x1_increase (in-place)
I0620 04:21:33.257122  2802 net.cpp:150] Setting up conv3_4_1x1_increase/bn
I0620 04:21:33.257127  2802 net.cpp:157] Top shape: 1 512 41 41 (860672)
I0620 04:21:33.257129  2802 net.cpp:165] Memory required for data: 359848984
I0620 04:21:33.257148  2802 layer_factory.hpp:77] Creating layer conv3_4
I0620 04:21:33.257151  2802 net.cpp:106] Creating Layer conv3_4
I0620 04:21:33.257154  2802 net.cpp:454] conv3_4 <- conv3_3_conv3_3/relu_0_split_1
I0620 04:21:33.257164  2802 net.cpp:454] conv3_4 <- conv3_4_1x1_increase
I0620 04:21:33.257169  2802 net.cpp:411] conv3_4 -> conv3_4
I0620 04:21:33.257182  2802 net.cpp:150] Setting up conv3_4
I0620 04:21:33.257186  2802 net.cpp:157] Top shape: 1 512 41 41 (860672)
I0620 04:21:33.257189  2802 net.cpp:165] Memory required for data: 363291672
I0620 04:21:33.257191  2802 layer_factory.hpp:77] Creating layer conv3_4/relu
I0620 04:21:33.264000  2802 net.cpp:106] Creating Layer conv3_4/relu
I0620 04:21:33.264008  2802 net.cpp:454] conv3_4/relu <- conv3_4
I0620 04:21:33.264011  2802 net.cpp:397] conv3_4/relu -> conv3_4 (in-place)
I0620 04:21:33.264016  2802 net.cpp:150] Setting up conv3_4/relu
I0620 04:21:33.264020  2802 net.cpp:157] Top shape: 1 512 41 41 (860672)
I0620 04:21:33.264022  2802 net.cpp:165] Memory required for data: 366734360
I0620 04:21:33.264024  2802 layer_factory.hpp:77] Creating layer conv3_4_conv3_4/relu_0_split
I0620 04:21:33.264027  2802 net.cpp:106] Creating Layer conv3_4_conv3_4/relu_0_split
I0620 04:21:33.264030  2802 net.cpp:454] conv3_4_conv3_4/relu_0_split <- conv3_4
I0620 04:21:33.264034  2802 net.cpp:411] conv3_4_conv3_4/relu_0_split -> conv3_4_conv3_4/relu_0_split_0
I0620 04:21:33.264039  2802 net.cpp:411] conv3_4_conv3_4/relu_0_split -> conv3_4_conv3_4/relu_0_split_1
I0620 04:21:33.264070  2802 net.cpp:150] Setting up conv3_4_conv3_4/relu_0_split
I0620 04:21:33.264073  2802 net.cpp:157] Top shape: 1 512 41 41 (860672)
I0620 04:21:33.264077  2802 net.cpp:157] Top shape: 1 512 41 41 (860672)
I0620 04:21:33.264080  2802 net.cpp:165] Memory required for data: 373619736
I0620 04:21:33.264082  2802 layer_factory.hpp:77] Creating layer conv4_1_1x1_reduce
I0620 04:21:33.264091  2802 net.cpp:106] Creating Layer conv4_1_1x1_reduce
I0620 04:21:33.264093  2802 net.cpp:454] conv4_1_1x1_reduce <- conv3_4_conv3_4/relu_0_split_0
I0620 04:21:33.264097  2802 net.cpp:411] conv4_1_1x1_reduce -> conv4_1_1x1_reduce
I0620 04:21:33.267030  2802 net.cpp:150] Setting up conv4_1_1x1_reduce
I0620 04:21:33.267045  2802 net.cpp:157] Top shape: 1 256 41 41 (430336)
I0620 04:21:33.267047  2802 net.cpp:165] Memory required for data: 375341080
I0620 04:21:33.267055  2802 layer_factory.hpp:77] Creating layer conv4_1_1x1_reduce/bn
I0620 04:21:33.267060  2802 net.cpp:106] Creating Layer conv4_1_1x1_reduce/bn
I0620 04:21:33.267063  2802 net.cpp:454] conv4_1_1x1_reduce/bn <- conv4_1_1x1_reduce
I0620 04:21:33.267067  2802 net.cpp:397] conv4_1_1x1_reduce/bn -> conv4_1_1x1_reduce (in-place)
I0620 04:21:33.267195  2802 net.cpp:150] Setting up conv4_1_1x1_reduce/bn
I0620 04:21:33.267199  2802 net.cpp:157] Top shape: 1 256 41 41 (430336)
I0620 04:21:33.267201  2802 net.cpp:165] Memory required for data: 377062424
I0620 04:21:33.267206  2802 layer_factory.hpp:77] Creating layer conv4_1_1x1_reduce/relu
I0620 04:21:33.267211  2802 net.cpp:106] Creating Layer conv4_1_1x1_reduce/relu
I0620 04:21:33.267213  2802 net.cpp:454] conv4_1_1x1_reduce/relu <- conv4_1_1x1_reduce
I0620 04:21:33.267216  2802 net.cpp:397] conv4_1_1x1_reduce/relu -> conv4_1_1x1_reduce (in-place)
I0620 04:21:33.267220  2802 net.cpp:150] Setting up conv4_1_1x1_reduce/relu
I0620 04:21:33.267222  2802 net.cpp:157] Top shape: 1 256 41 41 (430336)
I0620 04:21:33.267225  2802 net.cpp:165] Memory required for data: 378783768
I0620 04:21:33.267226  2802 layer_factory.hpp:77] Creating layer conv4_1_3x3
I0620 04:21:33.267232  2802 net.cpp:106] Creating Layer conv4_1_3x3
I0620 04:21:33.267235  2802 net.cpp:454] conv4_1_3x3 <- conv4_1_1x1_reduce
I0620 04:21:33.267240  2802 net.cpp:411] conv4_1_3x3 -> conv4_1_3x3
I0620 04:21:33.283710  2802 net.cpp:150] Setting up conv4_1_3x3
I0620 04:21:33.283793  2802 net.cpp:157] Top shape: 1 256 41 41 (430336)
I0620 04:21:33.283802  2802 net.cpp:165] Memory required for data: 380505112
I0620 04:21:33.283819  2802 layer_factory.hpp:77] Creating layer conv4_1_3x3/bn
I0620 04:21:33.283846  2802 net.cpp:106] Creating Layer conv4_1_3x3/bn
I0620 04:21:33.283854  2802 net.cpp:454] conv4_1_3x3/bn <- conv4_1_3x3
I0620 04:21:33.283921  2802 net.cpp:397] conv4_1_3x3/bn -> conv4_1_3x3 (in-place)
I0620 04:21:33.284167  2802 net.cpp:150] Setting up conv4_1_3x3/bn
I0620 04:21:33.284174  2802 net.cpp:157] Top shape: 1 256 41 41 (430336)
I0620 04:21:33.284179  2802 net.cpp:165] Memory required for data: 382226456
I0620 04:21:33.284188  2802 layer_factory.hpp:77] Creating layer conv4_1_3x3/relu
I0620 04:21:33.284196  2802 net.cpp:106] Creating Layer conv4_1_3x3/relu
I0620 04:21:33.284200  2802 net.cpp:454] conv4_1_3x3/relu <- conv4_1_3x3
I0620 04:21:33.284207  2802 net.cpp:397] conv4_1_3x3/relu -> conv4_1_3x3 (in-place)
I0620 04:21:33.284214  2802 net.cpp:150] Setting up conv4_1_3x3/relu
I0620 04:21:33.284220  2802 net.cpp:157] Top shape: 1 256 41 41 (430336)
I0620 04:21:33.284224  2802 net.cpp:165] Memory required for data: 383947800
I0620 04:21:33.284229  2802 layer_factory.hpp:77] Creating layer conv4_1_1x1_increase
I0620 04:21:33.284242  2802 net.cpp:106] Creating Layer conv4_1_1x1_increase
I0620 04:21:33.284246  2802 net.cpp:454] conv4_1_1x1_increase <- conv4_1_3x3
I0620 04:21:33.284252  2802 net.cpp:411] conv4_1_1x1_increase -> conv4_1_1x1_increase
I0620 04:21:33.291923  2802 net.cpp:150] Setting up conv4_1_1x1_increase
I0620 04:21:33.291946  2802 net.cpp:157] Top shape: 1 1024 41 41 (1721344)
I0620 04:21:33.291949  2802 net.cpp:165] Memory required for data: 390833176
I0620 04:21:33.291955  2802 layer_factory.hpp:77] Creating layer conv4_1_1x1_increase/bn
I0620 04:21:33.291965  2802 net.cpp:106] Creating Layer conv4_1_1x1_increase/bn
I0620 04:21:33.291971  2802 net.cpp:454] conv4_1_1x1_increase/bn <- conv4_1_1x1_increase
I0620 04:21:33.291978  2802 net.cpp:397] conv4_1_1x1_increase/bn -> conv4_1_1x1_increase (in-place)
I0620 04:21:33.292141  2802 net.cpp:150] Setting up conv4_1_1x1_increase/bn
I0620 04:21:33.292146  2802 net.cpp:157] Top shape: 1 1024 41 41 (1721344)
I0620 04:21:33.292150  2802 net.cpp:165] Memory required for data: 397718552
I0620 04:21:33.292155  2802 layer_factory.hpp:77] Creating layer conv4_1_1x1_proj
I0620 04:21:33.292161  2802 net.cpp:106] Creating Layer conv4_1_1x1_proj
I0620 04:21:33.292165  2802 net.cpp:454] conv4_1_1x1_proj <- conv3_4_conv3_4/relu_0_split_1
I0620 04:21:33.292170  2802 net.cpp:411] conv4_1_1x1_proj -> conv4_1_1x1_proj
I0620 04:21:33.303839  2802 net.cpp:150] Setting up conv4_1_1x1_proj
I0620 04:21:33.303870  2802 net.cpp:157] Top shape: 1 1024 41 41 (1721344)
I0620 04:21:33.303886  2802 net.cpp:165] Memory required for data: 404603928
I0620 04:21:33.303896  2802 layer_factory.hpp:77] Creating layer conv4_1_1x1_proj/bn
I0620 04:21:33.303910  2802 net.cpp:106] Creating Layer conv4_1_1x1_proj/bn
I0620 04:21:33.303915  2802 net.cpp:454] conv4_1_1x1_proj/bn <- conv4_1_1x1_proj
I0620 04:21:33.303920  2802 net.cpp:397] conv4_1_1x1_proj/bn -> conv4_1_1x1_proj (in-place)
I0620 04:21:33.304059  2802 net.cpp:150] Setting up conv4_1_1x1_proj/bn
I0620 04:21:33.304064  2802 net.cpp:157] Top shape: 1 1024 41 41 (1721344)
I0620 04:21:33.304066  2802 net.cpp:165] Memory required for data: 411489304
I0620 04:21:33.304071  2802 layer_factory.hpp:77] Creating layer conv4_1
I0620 04:21:33.304076  2802 net.cpp:106] Creating Layer conv4_1
I0620 04:21:33.304080  2802 net.cpp:454] conv4_1 <- conv4_1_1x1_proj
I0620 04:21:33.304082  2802 net.cpp:454] conv4_1 <- conv4_1_1x1_increase
I0620 04:21:33.304086  2802 net.cpp:411] conv4_1 -> conv4_1
I0620 04:21:33.304102  2802 net.cpp:150] Setting up conv4_1
I0620 04:21:33.304106  2802 net.cpp:157] Top shape: 1 1024 41 41 (1721344)
I0620 04:21:33.304108  2802 net.cpp:165] Memory required for data: 418374680
I0620 04:21:33.304111  2802 layer_factory.hpp:77] Creating layer conv4_1/relu
I0620 04:21:33.304116  2802 net.cpp:106] Creating Layer conv4_1/relu
I0620 04:21:33.304118  2802 net.cpp:454] conv4_1/relu <- conv4_1
I0620 04:21:33.304122  2802 net.cpp:397] conv4_1/relu -> conv4_1 (in-place)
I0620 04:21:33.304126  2802 net.cpp:150] Setting up conv4_1/relu
I0620 04:21:33.304131  2802 net.cpp:157] Top shape: 1 1024 41 41 (1721344)
I0620 04:21:33.304132  2802 net.cpp:165] Memory required for data: 425260056
I0620 04:21:33.304152  2802 layer_factory.hpp:77] Creating layer conv4_1_conv4_1/relu_0_split
I0620 04:21:33.304157  2802 net.cpp:106] Creating Layer conv4_1_conv4_1/relu_0_split
I0620 04:21:33.304158  2802 net.cpp:454] conv4_1_conv4_1/relu_0_split <- conv4_1
I0620 04:21:33.304162  2802 net.cpp:411] conv4_1_conv4_1/relu_0_split -> conv4_1_conv4_1/relu_0_split_0
I0620 04:21:33.304167  2802 net.cpp:411] conv4_1_conv4_1/relu_0_split -> conv4_1_conv4_1/relu_0_split_1
I0620 04:21:33.304188  2802 net.cpp:150] Setting up conv4_1_conv4_1/relu_0_split
I0620 04:21:33.304193  2802 net.cpp:157] Top shape: 1 1024 41 41 (1721344)
I0620 04:21:33.304195  2802 net.cpp:157] Top shape: 1 1024 41 41 (1721344)
I0620 04:21:33.304198  2802 net.cpp:165] Memory required for data: 439030808
I0620 04:21:33.304200  2802 layer_factory.hpp:77] Creating layer conv4_2_1x1_reduce
I0620 04:21:33.304208  2802 net.cpp:106] Creating Layer conv4_2_1x1_reduce
I0620 04:21:33.304210  2802 net.cpp:454] conv4_2_1x1_reduce <- conv4_1_conv4_1/relu_0_split_0
I0620 04:21:33.304215  2802 net.cpp:411] conv4_2_1x1_reduce -> conv4_2_1x1_reduce
I0620 04:21:33.309834  2802 net.cpp:150] Setting up conv4_2_1x1_reduce
I0620 04:21:33.309839  2802 net.cpp:157] Top shape: 1 256 41 41 (430336)
I0620 04:21:33.309842  2802 net.cpp:165] Memory required for data: 440752152
I0620 04:21:33.309846  2802 layer_factory.hpp:77] Creating layer conv4_2_1x1_reduce/bn
I0620 04:21:33.309852  2802 net.cpp:106] Creating Layer conv4_2_1x1_reduce/bn
I0620 04:21:33.309855  2802 net.cpp:454] conv4_2_1x1_reduce/bn <- conv4_2_1x1_reduce
I0620 04:21:33.309859  2802 net.cpp:397] conv4_2_1x1_reduce/bn -> conv4_2_1x1_reduce (in-place)
I0620 04:21:33.309974  2802 net.cpp:150] Setting up conv4_2_1x1_reduce/bn
I0620 04:21:33.309979  2802 net.cpp:157] Top shape: 1 256 41 41 (430336)
I0620 04:21:33.309981  2802 net.cpp:165] Memory required for data: 442473496
I0620 04:21:33.309985  2802 layer_factory.hpp:77] Creating layer conv4_2_1x1_reduce/relu
I0620 04:21:33.309989  2802 net.cpp:106] Creating Layer conv4_2_1x1_reduce/relu
I0620 04:21:33.309991  2802 net.cpp:454] conv4_2_1x1_reduce/relu <- conv4_2_1x1_reduce
I0620 04:21:33.309994  2802 net.cpp:397] conv4_2_1x1_reduce/relu -> conv4_2_1x1_reduce (in-place)
I0620 04:21:33.309998  2802 net.cpp:150] Setting up conv4_2_1x1_reduce/relu
I0620 04:21:33.310000  2802 net.cpp:157] Top shape: 1 256 41 41 (430336)
I0620 04:21:33.310001  2802 net.cpp:165] Memory required for data: 444194840
I0620 04:21:33.310004  2802 layer_factory.hpp:77] Creating layer conv4_2_3x3
I0620 04:21:33.310010  2802 net.cpp:106] Creating Layer conv4_2_3x3
I0620 04:21:33.310014  2802 net.cpp:454] conv4_2_3x3 <- conv4_2_1x1_reduce
I0620 04:21:33.310019  2802 net.cpp:411] conv4_2_3x3 -> conv4_2_3x3
I0620 04:21:33.325920  2802 net.cpp:150] Setting up conv4_2_3x3
I0620 04:21:33.325989  2802 net.cpp:157] Top shape: 1 256 41 41 (430336)
I0620 04:21:33.325995  2802 net.cpp:165] Memory required for data: 445916184
I0620 04:21:33.326010  2802 layer_factory.hpp:77] Creating layer conv4_2_3x3/bn
I0620 04:21:33.326035  2802 net.cpp:106] Creating Layer conv4_2_3x3/bn
I0620 04:21:33.326046  2802 net.cpp:454] conv4_2_3x3/bn <- conv4_2_3x3
I0620 04:21:33.326058  2802 net.cpp:397] conv4_2_3x3/bn -> conv4_2_3x3 (in-place)
I0620 04:21:33.326303  2802 net.cpp:150] Setting up conv4_2_3x3/bn
I0620 04:21:33.326313  2802 net.cpp:157] Top shape: 1 256 41 41 (430336)
I0620 04:21:33.326316  2802 net.cpp:165] Memory required for data: 447637528
I0620 04:21:33.326324  2802 layer_factory.hpp:77] Creating layer conv4_2_3x3/relu
I0620 04:21:33.326337  2802 net.cpp:106] Creating Layer conv4_2_3x3/relu
I0620 04:21:33.326341  2802 net.cpp:454] conv4_2_3x3/relu <- conv4_2_3x3
I0620 04:21:33.326347  2802 net.cpp:397] conv4_2_3x3/relu -> conv4_2_3x3 (in-place)
I0620 04:21:33.326354  2802 net.cpp:150] Setting up conv4_2_3x3/relu
I0620 04:21:33.326359  2802 net.cpp:157] Top shape: 1 256 41 41 (430336)
I0620 04:21:33.326364  2802 net.cpp:165] Memory required for data: 449358872
I0620 04:21:33.326369  2802 layer_factory.hpp:77] Creating layer conv4_2_1x1_increase
I0620 04:21:33.326431  2802 net.cpp:106] Creating Layer conv4_2_1x1_increase
I0620 04:21:33.326436  2802 net.cpp:454] conv4_2_1x1_increase <- conv4_2_3x3
I0620 04:21:33.326442  2802 net.cpp:411] conv4_2_1x1_increase -> conv4_2_1x1_increase
I0620 04:21:33.334983  2802 net.cpp:150] Setting up conv4_2_1x1_increase
I0620 04:21:33.335012  2802 net.cpp:157] Top shape: 1 1024 41 41 (1721344)
I0620 04:21:33.335016  2802 net.cpp:165] Memory required for data: 456244248
I0620 04:21:33.335022  2802 layer_factory.hpp:77] Creating layer conv4_2_1x1_increase/bn
I0620 04:21:33.335036  2802 net.cpp:106] Creating Layer conv4_2_1x1_increase/bn
I0620 04:21:33.335041  2802 net.cpp:454] conv4_2_1x1_increase/bn <- conv4_2_1x1_increase
I0620 04:21:33.335047  2802 net.cpp:397] conv4_2_1x1_increase/bn -> conv4_2_1x1_increase (in-place)
I0620 04:21:33.335182  2802 net.cpp:150] Setting up conv4_2_1x1_increase/bn
I0620 04:21:33.335186  2802 net.cpp:157] Top shape: 1 1024 41 41 (1721344)
I0620 04:21:33.335189  2802 net.cpp:165] Memory required for data: 463129624
I0620 04:21:33.335194  2802 layer_factory.hpp:77] Creating layer conv4_2
I0620 04:21:33.335201  2802 net.cpp:106] Creating Layer conv4_2
I0620 04:21:33.335203  2802 net.cpp:454] conv4_2 <- conv4_1_conv4_1/relu_0_split_1
I0620 04:21:33.335206  2802 net.cpp:454] conv4_2 <- conv4_2_1x1_increase
I0620 04:21:33.335211  2802 net.cpp:411] conv4_2 -> conv4_2
I0620 04:21:33.335227  2802 net.cpp:150] Setting up conv4_2
I0620 04:21:33.335232  2802 net.cpp:157] Top shape: 1 1024 41 41 (1721344)
I0620 04:21:33.335233  2802 net.cpp:165] Memory required for data: 470015000
I0620 04:21:33.335235  2802 layer_factory.hpp:77] Creating layer conv4_2/relu
I0620 04:21:33.335240  2802 net.cpp:106] Creating Layer conv4_2/relu
I0620 04:21:33.335243  2802 net.cpp:454] conv4_2/relu <- conv4_2
I0620 04:21:33.335248  2802 net.cpp:397] conv4_2/relu -> conv4_2 (in-place)
I0620 04:21:33.335253  2802 net.cpp:150] Setting up conv4_2/relu
I0620 04:21:33.335255  2802 net.cpp:157] Top shape: 1 1024 41 41 (1721344)
I0620 04:21:33.335258  2802 net.cpp:165] Memory required for data: 476900376
I0620 04:21:33.335260  2802 layer_factory.hpp:77] Creating layer conv4_2_conv4_2/relu_0_split
I0620 04:21:33.335264  2802 net.cpp:106] Creating Layer conv4_2_conv4_2/relu_0_split
I0620 04:21:33.335266  2802 net.cpp:454] conv4_2_conv4_2/relu_0_split <- conv4_2
I0620 04:21:33.335269  2802 net.cpp:411] conv4_2_conv4_2/relu_0_split -> conv4_2_conv4_2/relu_0_split_0
I0620 04:21:33.335278  2802 net.cpp:411] conv4_2_conv4_2/relu_0_split -> conv4_2_conv4_2/relu_0_split_1
I0620 04:21:33.335299  2802 net.cpp:150] Setting up conv4_2_conv4_2/relu_0_split
I0620 04:21:33.335304  2802 net.cpp:157] Top shape: 1 1024 41 41 (1721344)
I0620 04:21:33.335309  2802 net.cpp:157] Top shape: 1 1024 41 41 (1721344)
I0620 04:21:33.335310  2802 net.cpp:165] Memory required for data: 490671128
I0620 04:21:33.335314  2802 layer_factory.hpp:77] Creating layer conv4_3_1x1_reduce
I0620 04:21:33.335320  2802 net.cpp:106] Creating Layer conv4_3_1x1_reduce
I0620 04:21:33.335324  2802 net.cpp:454] conv4_3_1x1_reduce <- conv4_2_conv4_2/relu_0_split_0
I0620 04:21:33.335327  2802 net.cpp:411] conv4_3_1x1_reduce -> conv4_3_1x1_reduce
I0620 04:21:33.340922  2802 net.cpp:150] Setting up conv4_3_1x1_reduce
I0620 04:21:33.340927  2802 net.cpp:157] Top shape: 1 256 41 41 (430336)
I0620 04:21:33.340930  2802 net.cpp:165] Memory required for data: 492392472
I0620 04:21:33.340934  2802 layer_factory.hpp:77] Creating layer conv4_3_1x1_reduce/bn
I0620 04:21:33.340945  2802 net.cpp:106] Creating Layer conv4_3_1x1_reduce/bn
I0620 04:21:33.340947  2802 net.cpp:454] conv4_3_1x1_reduce/bn <- conv4_3_1x1_reduce
I0620 04:21:33.340951  2802 net.cpp:397] conv4_3_1x1_reduce/bn -> conv4_3_1x1_reduce (in-place)
I0620 04:21:33.341070  2802 net.cpp:150] Setting up conv4_3_1x1_reduce/bn
I0620 04:21:33.341074  2802 net.cpp:157] Top shape: 1 256 41 41 (430336)
I0620 04:21:33.341078  2802 net.cpp:165] Memory required for data: 494113816
I0620 04:21:33.341083  2802 layer_factory.hpp:77] Creating layer conv4_3_1x1_reduce/relu
I0620 04:21:33.341101  2802 net.cpp:106] Creating Layer conv4_3_1x1_reduce/relu
I0620 04:21:33.341104  2802 net.cpp:454] conv4_3_1x1_reduce/relu <- conv4_3_1x1_reduce
I0620 04:21:33.341109  2802 net.cpp:397] conv4_3_1x1_reduce/relu -> conv4_3_1x1_reduce (in-place)
I0620 04:21:33.341111  2802 net.cpp:150] Setting up conv4_3_1x1_reduce/relu
I0620 04:21:33.341115  2802 net.cpp:157] Top shape: 1 256 41 41 (430336)
I0620 04:21:33.341117  2802 net.cpp:165] Memory required for data: 495835160
I0620 04:21:33.341121  2802 layer_factory.hpp:77] Creating layer conv4_3_3x3
I0620 04:21:33.341128  2802 net.cpp:106] Creating Layer conv4_3_3x3
I0620 04:21:33.341130  2802 net.cpp:454] conv4_3_3x3 <- conv4_3_1x1_reduce
I0620 04:21:33.341135  2802 net.cpp:411] conv4_3_3x3 -> conv4_3_3x3
I0620 04:21:33.354219  2802 net.cpp:150] Setting up conv4_3_3x3
I0620 04:21:33.354235  2802 net.cpp:157] Top shape: 1 256 41 41 (430336)
I0620 04:21:33.354238  2802 net.cpp:165] Memory required for data: 497556504
I0620 04:21:33.354244  2802 layer_factory.hpp:77] Creating layer conv4_3_3x3/bn
I0620 04:21:33.354254  2802 net.cpp:106] Creating Layer conv4_3_3x3/bn
I0620 04:21:33.354259  2802 net.cpp:454] conv4_3_3x3/bn <- conv4_3_3x3
I0620 04:21:33.354264  2802 net.cpp:397] conv4_3_3x3/bn -> conv4_3_3x3 (in-place)
I0620 04:21:33.354401  2802 net.cpp:150] Setting up conv4_3_3x3/bn
I0620 04:21:33.354405  2802 net.cpp:157] Top shape: 1 256 41 41 (430336)
I0620 04:21:33.354408  2802 net.cpp:165] Memory required for data: 499277848
I0620 04:21:33.354413  2802 layer_factory.hpp:77] Creating layer conv4_3_3x3/relu
I0620 04:21:33.354419  2802 net.cpp:106] Creating Layer conv4_3_3x3/relu
I0620 04:21:33.354423  2802 net.cpp:454] conv4_3_3x3/relu <- conv4_3_3x3
I0620 04:21:33.354427  2802 net.cpp:397] conv4_3_3x3/relu -> conv4_3_3x3 (in-place)
I0620 04:21:33.354431  2802 net.cpp:150] Setting up conv4_3_3x3/relu
I0620 04:21:33.354435  2802 net.cpp:157] Top shape: 1 256 41 41 (430336)
I0620 04:21:33.354439  2802 net.cpp:165] Memory required for data: 500999192
I0620 04:21:33.354440  2802 layer_factory.hpp:77] Creating layer conv4_3_1x1_increase
I0620 04:21:33.354449  2802 net.cpp:106] Creating Layer conv4_3_1x1_increase
I0620 04:21:33.354452  2802 net.cpp:454] conv4_3_1x1_increase <- conv4_3_3x3
I0620 04:21:33.354456  2802 net.cpp:411] conv4_3_1x1_increase -> conv4_3_1x1_increase
I0620 04:21:33.360798  2802 net.cpp:150] Setting up conv4_3_1x1_increase
I0620 04:21:33.360828  2802 net.cpp:157] Top shape: 1 1024 41 41 (1721344)
I0620 04:21:33.360834  2802 net.cpp:165] Memory required for data: 507884568
I0620 04:21:33.360849  2802 layer_factory.hpp:77] Creating layer conv4_3_1x1_increase/bn
I0620 04:21:33.360872  2802 net.cpp:106] Creating Layer conv4_3_1x1_increase/bn
I0620 04:21:33.360879  2802 net.cpp:454] conv4_3_1x1_increase/bn <- conv4_3_1x1_increase
I0620 04:21:33.360893  2802 net.cpp:397] conv4_3_1x1_increase/bn -> conv4_3_1x1_increase (in-place)
I0620 04:21:33.361124  2802 net.cpp:150] Setting up conv4_3_1x1_increase/bn
I0620 04:21:33.361131  2802 net.cpp:157] Top shape: 1 1024 41 41 (1721344)
I0620 04:21:33.361136  2802 net.cpp:165] Memory required for data: 514769944
I0620 04:21:33.361145  2802 layer_factory.hpp:77] Creating layer conv4_3
I0620 04:21:33.361152  2802 net.cpp:106] Creating Layer conv4_3
I0620 04:21:33.361157  2802 net.cpp:454] conv4_3 <- conv4_2_conv4_2/relu_0_split_1
I0620 04:21:33.361162  2802 net.cpp:454] conv4_3 <- conv4_3_1x1_increase
I0620 04:21:33.361168  2802 net.cpp:411] conv4_3 -> conv4_3
I0620 04:21:33.361191  2802 net.cpp:150] Setting up conv4_3
I0620 04:21:33.361196  2802 net.cpp:157] Top shape: 1 1024 41 41 (1721344)
I0620 04:21:33.361201  2802 net.cpp:165] Memory required for data: 521655320
I0620 04:21:33.361205  2802 layer_factory.hpp:77] Creating layer conv4_3/relu
I0620 04:21:33.361213  2802 net.cpp:106] Creating Layer conv4_3/relu
I0620 04:21:33.361217  2802 net.cpp:454] conv4_3/relu <- conv4_3
I0620 04:21:33.361222  2802 net.cpp:397] conv4_3/relu -> conv4_3 (in-place)
I0620 04:21:33.361249  2802 net.cpp:150] Setting up conv4_3/relu
I0620 04:21:33.361255  2802 net.cpp:157] Top shape: 1 1024 41 41 (1721344)
I0620 04:21:33.361259  2802 net.cpp:165] Memory required for data: 528540696
I0620 04:21:33.361263  2802 layer_factory.hpp:77] Creating layer conv4_3_conv4_3/relu_0_split
I0620 04:21:33.361271  2802 net.cpp:106] Creating Layer conv4_3_conv4_3/relu_0_split
I0620 04:21:33.361275  2802 net.cpp:454] conv4_3_conv4_3/relu_0_split <- conv4_3
I0620 04:21:33.361281  2802 net.cpp:411] conv4_3_conv4_3/relu_0_split -> conv4_3_conv4_3/relu_0_split_0
I0620 04:21:33.361287  2802 net.cpp:411] conv4_3_conv4_3/relu_0_split -> conv4_3_conv4_3/relu_0_split_1
I0620 04:21:33.361315  2802 net.cpp:150] Setting up conv4_3_conv4_3/relu_0_split
I0620 04:21:33.361321  2802 net.cpp:157] Top shape: 1 1024 41 41 (1721344)
I0620 04:21:33.361325  2802 net.cpp:157] Top shape: 1 1024 41 41 (1721344)
I0620 04:21:33.361330  2802 net.cpp:165] Memory required for data: 542311448
I0620 04:21:33.361335  2802 layer_factory.hpp:77] Creating layer conv4_4_1x1_reduce
I0620 04:21:33.361361  2802 net.cpp:106] Creating Layer conv4_4_1x1_reduce
I0620 04:21:33.361366  2802 net.cpp:454] conv4_4_1x1_reduce <- conv4_3_conv4_3/relu_0_split_0
I0620 04:21:33.361371  2802 net.cpp:411] conv4_4_1x1_reduce -> conv4_4_1x1_reduce
I0620 04:21:33.369622  2802 net.cpp:150] Setting up conv4_4_1x1_reduce
I0620 04:21:33.369715  2802 net.cpp:157] Top shape: 1 256 41 41 (430336)
I0620 04:21:33.369725  2802 net.cpp:165] Memory required for data: 544032792
I0620 04:21:33.369742  2802 layer_factory.hpp:77] Creating layer conv4_4_1x1_reduce/bn
I0620 04:21:33.369791  2802 net.cpp:106] Creating Layer conv4_4_1x1_reduce/bn
I0620 04:21:33.369802  2802 net.cpp:454] conv4_4_1x1_reduce/bn <- conv4_4_1x1_reduce
I0620 04:21:33.369827  2802 net.cpp:397] conv4_4_1x1_reduce/bn -> conv4_4_1x1_reduce (in-place)
I0620 04:21:33.370085  2802 net.cpp:150] Setting up conv4_4_1x1_reduce/bn
I0620 04:21:33.370091  2802 net.cpp:157] Top shape: 1 256 41 41 (430336)
I0620 04:21:33.370100  2802 net.cpp:165] Memory required for data: 545754136
I0620 04:21:33.370108  2802 layer_factory.hpp:77] Creating layer conv4_4_1x1_reduce/relu
I0620 04:21:33.370122  2802 net.cpp:106] Creating Layer conv4_4_1x1_reduce/relu
I0620 04:21:33.370126  2802 net.cpp:454] conv4_4_1x1_reduce/relu <- conv4_4_1x1_reduce
I0620 04:21:33.370134  2802 net.cpp:397] conv4_4_1x1_reduce/relu -> conv4_4_1x1_reduce (in-place)
I0620 04:21:33.370142  2802 net.cpp:150] Setting up conv4_4_1x1_reduce/relu
I0620 04:21:33.370147  2802 net.cpp:157] Top shape: 1 256 41 41 (430336)
I0620 04:21:33.370151  2802 net.cpp:165] Memory required for data: 547475480
I0620 04:21:33.370157  2802 layer_factory.hpp:77] Creating layer conv4_4_3x3
I0620 04:21:33.370170  2802 net.cpp:106] Creating Layer conv4_4_3x3
I0620 04:21:33.370175  2802 net.cpp:454] conv4_4_3x3 <- conv4_4_1x1_reduce
I0620 04:21:33.370182  2802 net.cpp:411] conv4_4_3x3 -> conv4_4_3x3
I0620 04:21:33.385607  2802 net.cpp:150] Setting up conv4_4_3x3
I0620 04:21:33.385633  2802 net.cpp:157] Top shape: 1 256 41 41 (430336)
I0620 04:21:33.385637  2802 net.cpp:165] Memory required for data: 549196824
I0620 04:21:33.385646  2802 layer_factory.hpp:77] Creating layer conv4_4_3x3/bn
I0620 04:21:33.385659  2802 net.cpp:106] Creating Layer conv4_4_3x3/bn
I0620 04:21:33.385664  2802 net.cpp:454] conv4_4_3x3/bn <- conv4_4_3x3
I0620 04:21:33.385673  2802 net.cpp:397] conv4_4_3x3/bn -> conv4_4_3x3 (in-place)
I0620 04:21:33.385823  2802 net.cpp:150] Setting up conv4_4_3x3/bn
I0620 04:21:33.385828  2802 net.cpp:157] Top shape: 1 256 41 41 (430336)
I0620 04:21:33.385830  2802 net.cpp:165] Memory required for data: 550918168
I0620 04:21:33.385834  2802 layer_factory.hpp:77] Creating layer conv4_4_3x3/relu
I0620 04:21:33.385839  2802 net.cpp:106] Creating Layer conv4_4_3x3/relu
I0620 04:21:33.385841  2802 net.cpp:454] conv4_4_3x3/relu <- conv4_4_3x3
I0620 04:21:33.385843  2802 net.cpp:397] conv4_4_3x3/relu -> conv4_4_3x3 (in-place)
I0620 04:21:33.385848  2802 net.cpp:150] Setting up conv4_4_3x3/relu
I0620 04:21:33.385867  2802 net.cpp:157] Top shape: 1 256 41 41 (430336)
I0620 04:21:33.385869  2802 net.cpp:165] Memory required for data: 552639512
I0620 04:21:33.385871  2802 layer_factory.hpp:77] Creating layer conv4_4_1x1_increase
I0620 04:21:33.385882  2802 net.cpp:106] Creating Layer conv4_4_1x1_increase
I0620 04:21:33.385885  2802 net.cpp:454] conv4_4_1x1_increase <- conv4_4_3x3
I0620 04:21:33.385888  2802 net.cpp:411] conv4_4_1x1_increase -> conv4_4_1x1_increase
I0620 04:21:33.392228  2802 net.cpp:150] Setting up conv4_4_1x1_increase
I0620 04:21:33.392246  2802 net.cpp:157] Top shape: 1 1024 41 41 (1721344)
I0620 04:21:33.392249  2802 net.cpp:165] Memory required for data: 559524888
I0620 04:21:33.392256  2802 layer_factory.hpp:77] Creating layer conv4_4_1x1_increase/bn
I0620 04:21:33.392264  2802 net.cpp:106] Creating Layer conv4_4_1x1_increase/bn
I0620 04:21:33.392271  2802 net.cpp:454] conv4_4_1x1_increase/bn <- conv4_4_1x1_increase
I0620 04:21:33.392277  2802 net.cpp:397] conv4_4_1x1_increase/bn -> conv4_4_1x1_increase (in-place)
I0620 04:21:33.392416  2802 net.cpp:150] Setting up conv4_4_1x1_increase/bn
I0620 04:21:33.392421  2802 net.cpp:157] Top shape: 1 1024 41 41 (1721344)
I0620 04:21:33.392422  2802 net.cpp:165] Memory required for data: 566410264
I0620 04:21:33.392428  2802 layer_factory.hpp:77] Creating layer conv4_4
I0620 04:21:33.392432  2802 net.cpp:106] Creating Layer conv4_4
I0620 04:21:33.392436  2802 net.cpp:454] conv4_4 <- conv4_3_conv4_3/relu_0_split_1
I0620 04:21:33.392439  2802 net.cpp:454] conv4_4 <- conv4_4_1x1_increase
I0620 04:21:33.392443  2802 net.cpp:411] conv4_4 -> conv4_4
I0620 04:21:33.392459  2802 net.cpp:150] Setting up conv4_4
I0620 04:21:33.392463  2802 net.cpp:157] Top shape: 1 1024 41 41 (1721344)
I0620 04:21:33.392467  2802 net.cpp:165] Memory required for data: 573295640
I0620 04:21:33.392469  2802 layer_factory.hpp:77] Creating layer conv4_4/relu
I0620 04:21:33.392477  2802 net.cpp:106] Creating Layer conv4_4/relu
I0620 04:21:33.392479  2802 net.cpp:454] conv4_4/relu <- conv4_4
I0620 04:21:33.392483  2802 net.cpp:397] conv4_4/relu -> conv4_4 (in-place)
I0620 04:21:33.392488  2802 net.cpp:150] Setting up conv4_4/relu
I0620 04:21:33.392491  2802 net.cpp:157] Top shape: 1 1024 41 41 (1721344)
I0620 04:21:33.392493  2802 net.cpp:165] Memory required for data: 580181016
I0620 04:21:33.392496  2802 layer_factory.hpp:77] Creating layer conv4_4_conv4_4/relu_0_split
I0620 04:21:33.392499  2802 net.cpp:106] Creating Layer conv4_4_conv4_4/relu_0_split
I0620 04:21:33.392503  2802 net.cpp:454] conv4_4_conv4_4/relu_0_split <- conv4_4
I0620 04:21:33.392506  2802 net.cpp:411] conv4_4_conv4_4/relu_0_split -> conv4_4_conv4_4/relu_0_split_0
I0620 04:21:33.392510  2802 net.cpp:411] conv4_4_conv4_4/relu_0_split -> conv4_4_conv4_4/relu_0_split_1
I0620 04:21:33.392530  2802 net.cpp:150] Setting up conv4_4_conv4_4/relu_0_split
I0620 04:21:33.392534  2802 net.cpp:157] Top shape: 1 1024 41 41 (1721344)
I0620 04:21:33.392539  2802 net.cpp:157] Top shape: 1 1024 41 41 (1721344)
I0620 04:21:33.392540  2802 net.cpp:165] Memory required for data: 593951768
I0620 04:21:33.392544  2802 layer_factory.hpp:77] Creating layer conv4_5_1x1_reduce
I0620 04:21:33.392550  2802 net.cpp:106] Creating Layer conv4_5_1x1_reduce
I0620 04:21:33.392554  2802 net.cpp:454] conv4_5_1x1_reduce <- conv4_4_conv4_4/relu_0_split_0
I0620 04:21:33.392557  2802 net.cpp:411] conv4_5_1x1_reduce -> conv4_5_1x1_reduce
I0620 04:21:33.398322  2802 net.cpp:150] Setting up conv4_5_1x1_reduce
I0620 04:21:33.398339  2802 net.cpp:157] Top shape: 1 256 41 41 (430336)
I0620 04:21:33.398341  2802 net.cpp:165] Memory required for data: 595673112
I0620 04:21:33.398346  2802 layer_factory.hpp:77] Creating layer conv4_5_1x1_reduce/bn
I0620 04:21:33.398351  2802 net.cpp:106] Creating Layer conv4_5_1x1_reduce/bn
I0620 04:21:33.398355  2802 net.cpp:454] conv4_5_1x1_reduce/bn <- conv4_5_1x1_reduce
I0620 04:21:33.398360  2802 net.cpp:397] conv4_5_1x1_reduce/bn -> conv4_5_1x1_reduce (in-place)
I0620 04:21:33.398494  2802 net.cpp:150] Setting up conv4_5_1x1_reduce/bn
I0620 04:21:33.398514  2802 net.cpp:157] Top shape: 1 256 41 41 (430336)
I0620 04:21:33.398516  2802 net.cpp:165] Memory required for data: 597394456
I0620 04:21:33.398521  2802 layer_factory.hpp:77] Creating layer conv4_5_1x1_reduce/relu
I0620 04:21:33.398527  2802 net.cpp:106] Creating Layer conv4_5_1x1_reduce/relu
I0620 04:21:33.398530  2802 net.cpp:454] conv4_5_1x1_reduce/relu <- conv4_5_1x1_reduce
I0620 04:21:33.398531  2802 net.cpp:397] conv4_5_1x1_reduce/relu -> conv4_5_1x1_reduce (in-place)
I0620 04:21:33.398535  2802 net.cpp:150] Setting up conv4_5_1x1_reduce/relu
I0620 04:21:33.398538  2802 net.cpp:157] Top shape: 1 256 41 41 (430336)
I0620 04:21:33.398540  2802 net.cpp:165] Memory required for data: 599115800
I0620 04:21:33.398543  2802 layer_factory.hpp:77] Creating layer conv4_5_3x3
I0620 04:21:33.398550  2802 net.cpp:106] Creating Layer conv4_5_3x3
I0620 04:21:33.398552  2802 net.cpp:454] conv4_5_3x3 <- conv4_5_1x1_reduce
I0620 04:21:33.398556  2802 net.cpp:411] conv4_5_3x3 -> conv4_5_3x3
I0620 04:21:33.411648  2802 net.cpp:150] Setting up conv4_5_3x3
I0620 04:21:33.411670  2802 net.cpp:157] Top shape: 1 256 41 41 (430336)
I0620 04:21:33.411674  2802 net.cpp:165] Memory required for data: 600837144
I0620 04:21:33.411680  2802 layer_factory.hpp:77] Creating layer conv4_5_3x3/bn
I0620 04:21:33.411689  2802 net.cpp:106] Creating Layer conv4_5_3x3/bn
I0620 04:21:33.411692  2802 net.cpp:454] conv4_5_3x3/bn <- conv4_5_3x3
I0620 04:21:33.411700  2802 net.cpp:397] conv4_5_3x3/bn -> conv4_5_3x3 (in-place)
I0620 04:21:33.411835  2802 net.cpp:150] Setting up conv4_5_3x3/bn
I0620 04:21:33.411839  2802 net.cpp:157] Top shape: 1 256 41 41 (430336)
I0620 04:21:33.411841  2802 net.cpp:165] Memory required for data: 602558488
I0620 04:21:33.411846  2802 layer_factory.hpp:77] Creating layer conv4_5_3x3/relu
I0620 04:21:33.411850  2802 net.cpp:106] Creating Layer conv4_5_3x3/relu
I0620 04:21:33.411852  2802 net.cpp:454] conv4_5_3x3/relu <- conv4_5_3x3
I0620 04:21:33.411856  2802 net.cpp:397] conv4_5_3x3/relu -> conv4_5_3x3 (in-place)
I0620 04:21:33.411859  2802 net.cpp:150] Setting up conv4_5_3x3/relu
I0620 04:21:33.411862  2802 net.cpp:157] Top shape: 1 256 41 41 (430336)
I0620 04:21:33.411864  2802 net.cpp:165] Memory required for data: 604279832
I0620 04:21:33.411867  2802 layer_factory.hpp:77] Creating layer conv4_5_1x1_increase
I0620 04:21:33.411873  2802 net.cpp:106] Creating Layer conv4_5_1x1_increase
I0620 04:21:33.411876  2802 net.cpp:454] conv4_5_1x1_increase <- conv4_5_3x3
I0620 04:21:33.411880  2802 net.cpp:411] conv4_5_1x1_increase -> conv4_5_1x1_increase
I0620 04:21:33.419688  2802 net.cpp:150] Setting up conv4_5_1x1_increase
I0620 04:21:33.419770  2802 net.cpp:157] Top shape: 1 1024 41 41 (1721344)
I0620 04:21:33.419785  2802 net.cpp:165] Memory required for data: 611165208
I0620 04:21:33.419806  2802 layer_factory.hpp:77] Creating layer conv4_5_1x1_increase/bn
I0620 04:21:33.419829  2802 net.cpp:106] Creating Layer conv4_5_1x1_increase/bn
I0620 04:21:33.419839  2802 net.cpp:454] conv4_5_1x1_increase/bn <- conv4_5_1x1_increase
I0620 04:21:33.419854  2802 net.cpp:397] conv4_5_1x1_increase/bn -> conv4_5_1x1_increase (in-place)
I0620 04:21:33.420120  2802 net.cpp:150] Setting up conv4_5_1x1_increase/bn
I0620 04:21:33.420128  2802 net.cpp:157] Top shape: 1 1024 41 41 (1721344)
I0620 04:21:33.420132  2802 net.cpp:165] Memory required for data: 618050584
I0620 04:21:33.420143  2802 layer_factory.hpp:77] Creating layer conv4_5
I0620 04:21:33.420157  2802 net.cpp:106] Creating Layer conv4_5
I0620 04:21:33.420162  2802 net.cpp:454] conv4_5 <- conv4_4_conv4_4/relu_0_split_1
I0620 04:21:33.420167  2802 net.cpp:454] conv4_5 <- conv4_5_1x1_increase
I0620 04:21:33.420176  2802 net.cpp:411] conv4_5 -> conv4_5
I0620 04:21:33.420199  2802 net.cpp:150] Setting up conv4_5
I0620 04:21:33.420207  2802 net.cpp:157] Top shape: 1 1024 41 41 (1721344)
I0620 04:21:33.420212  2802 net.cpp:165] Memory required for data: 624935960
I0620 04:21:33.420215  2802 layer_factory.hpp:77] Creating layer conv4_5/relu
I0620 04:21:33.420272  2802 net.cpp:106] Creating Layer conv4_5/relu
I0620 04:21:33.420276  2802 net.cpp:454] conv4_5/relu <- conv4_5
I0620 04:21:33.420281  2802 net.cpp:397] conv4_5/relu -> conv4_5 (in-place)
I0620 04:21:33.420289  2802 net.cpp:150] Setting up conv4_5/relu
I0620 04:21:33.420295  2802 net.cpp:157] Top shape: 1 1024 41 41 (1721344)
I0620 04:21:33.420298  2802 net.cpp:165] Memory required for data: 631821336
I0620 04:21:33.420302  2802 layer_factory.hpp:77] Creating layer conv4_5_conv4_5/relu_0_split
I0620 04:21:33.420310  2802 net.cpp:106] Creating Layer conv4_5_conv4_5/relu_0_split
I0620 04:21:33.420315  2802 net.cpp:454] conv4_5_conv4_5/relu_0_split <- conv4_5
I0620 04:21:33.420321  2802 net.cpp:411] conv4_5_conv4_5/relu_0_split -> conv4_5_conv4_5/relu_0_split_0
I0620 04:21:33.420328  2802 net.cpp:411] conv4_5_conv4_5/relu_0_split -> conv4_5_conv4_5/relu_0_split_1
I0620 04:21:33.420361  2802 net.cpp:150] Setting up conv4_5_conv4_5/relu_0_split
I0620 04:21:33.420367  2802 net.cpp:157] Top shape: 1 1024 41 41 (1721344)
I0620 04:21:33.420372  2802 net.cpp:157] Top shape: 1 1024 41 41 (1721344)
I0620 04:21:33.420377  2802 net.cpp:165] Memory required for data: 645592088
I0620 04:21:33.420380  2802 layer_factory.hpp:77] Creating layer conv4_6_1x1_reduce
I0620 04:21:33.420394  2802 net.cpp:106] Creating Layer conv4_6_1x1_reduce
I0620 04:21:33.420399  2802 net.cpp:454] conv4_6_1x1_reduce <- conv4_5_conv4_5/relu_0_split_0
I0620 04:21:33.420405  2802 net.cpp:411] conv4_6_1x1_reduce -> conv4_6_1x1_reduce
I0620 04:21:33.428724  2802 net.cpp:150] Setting up conv4_6_1x1_reduce
I0620 04:21:33.428804  2802 net.cpp:157] Top shape: 1 256 41 41 (430336)
I0620 04:21:33.428812  2802 net.cpp:165] Memory required for data: 647313432
I0620 04:21:33.428828  2802 layer_factory.hpp:77] Creating layer conv4_6_1x1_reduce/bn
I0620 04:21:33.428856  2802 net.cpp:106] Creating Layer conv4_6_1x1_reduce/bn
I0620 04:21:33.428869  2802 net.cpp:454] conv4_6_1x1_reduce/bn <- conv4_6_1x1_reduce
I0620 04:21:33.428889  2802 net.cpp:397] conv4_6_1x1_reduce/bn -> conv4_6_1x1_reduce (in-place)
I0620 04:21:33.429190  2802 net.cpp:150] Setting up conv4_6_1x1_reduce/bn
I0620 04:21:33.429198  2802 net.cpp:157] Top shape: 1 256 41 41 (430336)
I0620 04:21:33.429203  2802 net.cpp:165] Memory required for data: 649034776
I0620 04:21:33.429214  2802 layer_factory.hpp:77] Creating layer conv4_6_1x1_reduce/relu
I0620 04:21:33.429229  2802 net.cpp:106] Creating Layer conv4_6_1x1_reduce/relu
I0620 04:21:33.429234  2802 net.cpp:454] conv4_6_1x1_reduce/relu <- conv4_6_1x1_reduce
I0620 04:21:33.429239  2802 net.cpp:397] conv4_6_1x1_reduce/relu -> conv4_6_1x1_reduce (in-place)
I0620 04:21:33.429249  2802 net.cpp:150] Setting up conv4_6_1x1_reduce/relu
I0620 04:21:33.429253  2802 net.cpp:157] Top shape: 1 256 41 41 (430336)
I0620 04:21:33.429257  2802 net.cpp:165] Memory required for data: 650756120
I0620 04:21:33.429261  2802 layer_factory.hpp:77] Creating layer conv4_6_3x3
I0620 04:21:33.429273  2802 net.cpp:106] Creating Layer conv4_6_3x3
I0620 04:21:33.429278  2802 net.cpp:454] conv4_6_3x3 <- conv4_6_1x1_reduce
I0620 04:21:33.429286  2802 net.cpp:411] conv4_6_3x3 -> conv4_6_3x3
I0620 04:21:33.443138  2802 net.cpp:150] Setting up conv4_6_3x3
I0620 04:21:33.443157  2802 net.cpp:157] Top shape: 1 256 41 41 (430336)
I0620 04:21:33.443161  2802 net.cpp:165] Memory required for data: 652477464
I0620 04:21:33.443166  2802 layer_factory.hpp:77] Creating layer conv4_6_3x3/bn
I0620 04:21:33.443173  2802 net.cpp:106] Creating Layer conv4_6_3x3/bn
I0620 04:21:33.443177  2802 net.cpp:454] conv4_6_3x3/bn <- conv4_6_3x3
I0620 04:21:33.443182  2802 net.cpp:397] conv4_6_3x3/bn -> conv4_6_3x3 (in-place)
I0620 04:21:33.443321  2802 net.cpp:150] Setting up conv4_6_3x3/bn
I0620 04:21:33.443326  2802 net.cpp:157] Top shape: 1 256 41 41 (430336)
I0620 04:21:33.443328  2802 net.cpp:165] Memory required for data: 654198808
I0620 04:21:33.443333  2802 layer_factory.hpp:77] Creating layer conv4_6_3x3/relu
I0620 04:21:33.443337  2802 net.cpp:106] Creating Layer conv4_6_3x3/relu
I0620 04:21:33.443356  2802 net.cpp:454] conv4_6_3x3/relu <- conv4_6_3x3
I0620 04:21:33.443361  2802 net.cpp:397] conv4_6_3x3/relu -> conv4_6_3x3 (in-place)
I0620 04:21:33.443366  2802 net.cpp:150] Setting up conv4_6_3x3/relu
I0620 04:21:33.443368  2802 net.cpp:157] Top shape: 1 256 41 41 (430336)
I0620 04:21:33.443370  2802 net.cpp:165] Memory required for data: 655920152
I0620 04:21:33.443373  2802 layer_factory.hpp:77] Creating layer conv4_6_1x1_increase
I0620 04:21:33.443378  2802 net.cpp:106] Creating Layer conv4_6_1x1_increase
I0620 04:21:33.443382  2802 net.cpp:454] conv4_6_1x1_increase <- conv4_6_3x3
I0620 04:21:33.443384  2802 net.cpp:411] conv4_6_1x1_increase -> conv4_6_1x1_increase
I0620 04:21:33.449633  2802 net.cpp:150] Setting up conv4_6_1x1_increase
I0620 04:21:33.449645  2802 net.cpp:157] Top shape: 1 1024 41 41 (1721344)
I0620 04:21:33.449648  2802 net.cpp:165] Memory required for data: 662805528
I0620 04:21:33.449652  2802 layer_factory.hpp:77] Creating layer conv4_6_1x1_increase/bn
I0620 04:21:33.449658  2802 net.cpp:106] Creating Layer conv4_6_1x1_increase/bn
I0620 04:21:33.449661  2802 net.cpp:454] conv4_6_1x1_increase/bn <- conv4_6_1x1_increase
I0620 04:21:33.449666  2802 net.cpp:397] conv4_6_1x1_increase/bn -> conv4_6_1x1_increase (in-place)
I0620 04:21:33.449820  2802 net.cpp:150] Setting up conv4_6_1x1_increase/bn
I0620 04:21:33.449825  2802 net.cpp:157] Top shape: 1 1024 41 41 (1721344)
I0620 04:21:33.449826  2802 net.cpp:165] Memory required for data: 669690904
I0620 04:21:33.449831  2802 layer_factory.hpp:77] Creating layer conv4_6
I0620 04:21:33.449837  2802 net.cpp:106] Creating Layer conv4_6
I0620 04:21:33.449839  2802 net.cpp:454] conv4_6 <- conv4_5_conv4_5/relu_0_split_1
I0620 04:21:33.449843  2802 net.cpp:454] conv4_6 <- conv4_6_1x1_increase
I0620 04:21:33.449851  2802 net.cpp:411] conv4_6 -> conv4_6
I0620 04:21:33.449867  2802 net.cpp:150] Setting up conv4_6
I0620 04:21:33.449872  2802 net.cpp:157] Top shape: 1 1024 41 41 (1721344)
I0620 04:21:33.449875  2802 net.cpp:165] Memory required for data: 676576280
I0620 04:21:33.449878  2802 layer_factory.hpp:77] Creating layer conv4_6/relu
I0620 04:21:33.449883  2802 net.cpp:106] Creating Layer conv4_6/relu
I0620 04:21:33.449887  2802 net.cpp:454] conv4_6/relu <- conv4_6
I0620 04:21:33.449889  2802 net.cpp:397] conv4_6/relu -> conv4_6 (in-place)
I0620 04:21:33.449893  2802 net.cpp:150] Setting up conv4_6/relu
I0620 04:21:33.449897  2802 net.cpp:157] Top shape: 1 1024 41 41 (1721344)
I0620 04:21:33.449899  2802 net.cpp:165] Memory required for data: 683461656
I0620 04:21:33.449901  2802 layer_factory.hpp:77] Creating layer conv4_6_conv4_6/relu_0_split
I0620 04:21:33.449906  2802 net.cpp:106] Creating Layer conv4_6_conv4_6/relu_0_split
I0620 04:21:33.449908  2802 net.cpp:454] conv4_6_conv4_6/relu_0_split <- conv4_6
I0620 04:21:33.449913  2802 net.cpp:411] conv4_6_conv4_6/relu_0_split -> conv4_6_conv4_6/relu_0_split_0
I0620 04:21:33.449916  2802 net.cpp:411] conv4_6_conv4_6/relu_0_split -> conv4_6_conv4_6/relu_0_split_1
I0620 04:21:33.449941  2802 net.cpp:150] Setting up conv4_6_conv4_6/relu_0_split
I0620 04:21:33.449946  2802 net.cpp:157] Top shape: 1 1024 41 41 (1721344)
I0620 04:21:33.449949  2802 net.cpp:157] Top shape: 1 1024 41 41 (1721344)
I0620 04:21:33.449951  2802 net.cpp:165] Memory required for data: 697232408
I0620 04:21:33.449954  2802 layer_factory.hpp:77] Creating layer conv4_7_1x1_reduce
I0620 04:21:33.449961  2802 net.cpp:106] Creating Layer conv4_7_1x1_reduce
I0620 04:21:33.449965  2802 net.cpp:454] conv4_7_1x1_reduce <- conv4_6_conv4_6/relu_0_split_0
I0620 04:21:33.449967  2802 net.cpp:411] conv4_7_1x1_reduce -> conv4_7_1x1_reduce
I0620 04:21:33.455554  2802 net.cpp:150] Setting up conv4_7_1x1_reduce
I0620 04:21:33.455559  2802 net.cpp:157] Top shape: 1 256 41 41 (430336)
I0620 04:21:33.455562  2802 net.cpp:165] Memory required for data: 698953752
I0620 04:21:33.455566  2802 layer_factory.hpp:77] Creating layer conv4_7_1x1_reduce/bn
I0620 04:21:33.455571  2802 net.cpp:106] Creating Layer conv4_7_1x1_reduce/bn
I0620 04:21:33.455574  2802 net.cpp:454] conv4_7_1x1_reduce/bn <- conv4_7_1x1_reduce
I0620 04:21:33.455592  2802 net.cpp:397] conv4_7_1x1_reduce/bn -> conv4_7_1x1_reduce (in-place)
I0620 04:21:33.455719  2802 net.cpp:150] Setting up conv4_7_1x1_reduce/bn
I0620 04:21:33.455724  2802 net.cpp:157] Top shape: 1 256 41 41 (430336)
I0620 04:21:33.455726  2802 net.cpp:165] Memory required for data: 700675096
I0620 04:21:33.455731  2802 layer_factory.hpp:77] Creating layer conv4_7_1x1_reduce/relu
I0620 04:21:33.455736  2802 net.cpp:106] Creating Layer conv4_7_1x1_reduce/relu
I0620 04:21:33.455739  2802 net.cpp:454] conv4_7_1x1_reduce/relu <- conv4_7_1x1_reduce
I0620 04:21:33.455742  2802 net.cpp:397] conv4_7_1x1_reduce/relu -> conv4_7_1x1_reduce (in-place)
I0620 04:21:33.455746  2802 net.cpp:150] Setting up conv4_7_1x1_reduce/relu
I0620 04:21:33.455749  2802 net.cpp:157] Top shape: 1 256 41 41 (430336)
I0620 04:21:33.455752  2802 net.cpp:165] Memory required for data: 702396440
I0620 04:21:33.455754  2802 layer_factory.hpp:77] Creating layer conv4_7_3x3
I0620 04:21:33.455760  2802 net.cpp:106] Creating Layer conv4_7_3x3
I0620 04:21:33.455762  2802 net.cpp:454] conv4_7_3x3 <- conv4_7_1x1_reduce
I0620 04:21:33.455766  2802 net.cpp:411] conv4_7_3x3 -> conv4_7_3x3
I0620 04:21:33.472682  2802 net.cpp:150] Setting up conv4_7_3x3
I0620 04:21:33.472769  2802 net.cpp:157] Top shape: 1 256 41 41 (430336)
I0620 04:21:33.472777  2802 net.cpp:165] Memory required for data: 704117784
I0620 04:21:33.472797  2802 layer_factory.hpp:77] Creating layer conv4_7_3x3/bn
I0620 04:21:33.472823  2802 net.cpp:106] Creating Layer conv4_7_3x3/bn
I0620 04:21:33.472836  2802 net.cpp:454] conv4_7_3x3/bn <- conv4_7_3x3
I0620 04:21:33.472853  2802 net.cpp:397] conv4_7_3x3/bn -> conv4_7_3x3 (in-place)
I0620 04:21:33.473137  2802 net.cpp:150] Setting up conv4_7_3x3/bn
I0620 04:21:33.473145  2802 net.cpp:157] Top shape: 1 256 41 41 (430336)
I0620 04:21:33.473153  2802 net.cpp:165] Memory required for data: 705839128
I0620 04:21:33.473162  2802 layer_factory.hpp:77] Creating layer conv4_7_3x3/relu
I0620 04:21:33.473173  2802 net.cpp:106] Creating Layer conv4_7_3x3/relu
I0620 04:21:33.473177  2802 net.cpp:454] conv4_7_3x3/relu <- conv4_7_3x3
I0620 04:21:33.473184  2802 net.cpp:397] conv4_7_3x3/relu -> conv4_7_3x3 (in-place)
I0620 04:21:33.473193  2802 net.cpp:150] Setting up conv4_7_3x3/relu
I0620 04:21:33.473198  2802 net.cpp:157] Top shape: 1 256 41 41 (430336)
I0620 04:21:33.473202  2802 net.cpp:165] Memory required for data: 707560472
I0620 04:21:33.473206  2802 layer_factory.hpp:77] Creating layer conv4_7_1x1_increase
I0620 04:21:33.473220  2802 net.cpp:106] Creating Layer conv4_7_1x1_increase
I0620 04:21:33.473224  2802 net.cpp:454] conv4_7_1x1_increase <- conv4_7_3x3
I0620 04:21:33.473230  2802 net.cpp:411] conv4_7_1x1_increase -> conv4_7_1x1_increase
I0620 04:21:33.480396  2802 net.cpp:150] Setting up conv4_7_1x1_increase
I0620 04:21:33.480418  2802 net.cpp:157] Top shape: 1 1024 41 41 (1721344)
I0620 04:21:33.480422  2802 net.cpp:165] Memory required for data: 714445848
I0620 04:21:33.480428  2802 layer_factory.hpp:77] Creating layer conv4_7_1x1_increase/bn
I0620 04:21:33.480443  2802 net.cpp:106] Creating Layer conv4_7_1x1_increase/bn
I0620 04:21:33.480448  2802 net.cpp:454] conv4_7_1x1_increase/bn <- conv4_7_1x1_increase
I0620 04:21:33.480456  2802 net.cpp:397] conv4_7_1x1_increase/bn -> conv4_7_1x1_increase (in-place)
I0620 04:21:33.480608  2802 net.cpp:150] Setting up conv4_7_1x1_increase/bn
I0620 04:21:33.480613  2802 net.cpp:157] Top shape: 1 1024 41 41 (1721344)
I0620 04:21:33.480615  2802 net.cpp:165] Memory required for data: 721331224
I0620 04:21:33.480619  2802 layer_factory.hpp:77] Creating layer conv4_7
I0620 04:21:33.480624  2802 net.cpp:106] Creating Layer conv4_7
I0620 04:21:33.480626  2802 net.cpp:454] conv4_7 <- conv4_6_conv4_6/relu_0_split_1
I0620 04:21:33.480629  2802 net.cpp:454] conv4_7 <- conv4_7_1x1_increase
I0620 04:21:33.480633  2802 net.cpp:411] conv4_7 -> conv4_7
I0620 04:21:33.480648  2802 net.cpp:150] Setting up conv4_7
I0620 04:21:33.480653  2802 net.cpp:157] Top shape: 1 1024 41 41 (1721344)
I0620 04:21:33.480669  2802 net.cpp:165] Memory required for data: 728216600
I0620 04:21:33.480671  2802 layer_factory.hpp:77] Creating layer conv4_7/relu
I0620 04:21:33.480675  2802 net.cpp:106] Creating Layer conv4_7/relu
I0620 04:21:33.480679  2802 net.cpp:454] conv4_7/relu <- conv4_7
I0620 04:21:33.480681  2802 net.cpp:397] conv4_7/relu -> conv4_7 (in-place)
I0620 04:21:33.480685  2802 net.cpp:150] Setting up conv4_7/relu
I0620 04:21:33.480689  2802 net.cpp:157] Top shape: 1 1024 41 41 (1721344)
I0620 04:21:33.480691  2802 net.cpp:165] Memory required for data: 735101976
I0620 04:21:33.480693  2802 layer_factory.hpp:77] Creating layer conv4_7_conv4_7/relu_0_split
I0620 04:21:33.480698  2802 net.cpp:106] Creating Layer conv4_7_conv4_7/relu_0_split
I0620 04:21:33.480701  2802 net.cpp:454] conv4_7_conv4_7/relu_0_split <- conv4_7
I0620 04:21:33.480706  2802 net.cpp:411] conv4_7_conv4_7/relu_0_split -> conv4_7_conv4_7/relu_0_split_0
I0620 04:21:33.480710  2802 net.cpp:411] conv4_7_conv4_7/relu_0_split -> conv4_7_conv4_7/relu_0_split_1
I0620 04:21:33.480734  2802 net.cpp:150] Setting up conv4_7_conv4_7/relu_0_split
I0620 04:21:33.480738  2802 net.cpp:157] Top shape: 1 1024 41 41 (1721344)
I0620 04:21:33.480741  2802 net.cpp:157] Top shape: 1 1024 41 41 (1721344)
I0620 04:21:33.480743  2802 net.cpp:165] Memory required for data: 748872728
I0620 04:21:33.480746  2802 layer_factory.hpp:77] Creating layer conv4_8_1x1_reduce
I0620 04:21:33.480753  2802 net.cpp:106] Creating Layer conv4_8_1x1_reduce
I0620 04:21:33.480756  2802 net.cpp:454] conv4_8_1x1_reduce <- conv4_7_conv4_7/relu_0_split_0
I0620 04:21:33.480761  2802 net.cpp:411] conv4_8_1x1_reduce -> conv4_8_1x1_reduce
I0620 04:21:33.486356  2802 net.cpp:150] Setting up conv4_8_1x1_reduce
I0620 04:21:33.486361  2802 net.cpp:157] Top shape: 1 256 41 41 (430336)
I0620 04:21:33.486364  2802 net.cpp:165] Memory required for data: 750594072
I0620 04:21:33.486368  2802 layer_factory.hpp:77] Creating layer conv4_8_1x1_reduce/bn
I0620 04:21:33.486374  2802 net.cpp:106] Creating Layer conv4_8_1x1_reduce/bn
I0620 04:21:33.486377  2802 net.cpp:454] conv4_8_1x1_reduce/bn <- conv4_8_1x1_reduce
I0620 04:21:33.486380  2802 net.cpp:397] conv4_8_1x1_reduce/bn -> conv4_8_1x1_reduce (in-place)
I0620 04:21:33.486510  2802 net.cpp:150] Setting up conv4_8_1x1_reduce/bn
I0620 04:21:33.486515  2802 net.cpp:157] Top shape: 1 256 41 41 (430336)
I0620 04:21:33.486516  2802 net.cpp:165] Memory required for data: 752315416
I0620 04:21:33.486522  2802 layer_factory.hpp:77] Creating layer conv4_8_1x1_reduce/relu
I0620 04:21:33.486526  2802 net.cpp:106] Creating Layer conv4_8_1x1_reduce/relu
I0620 04:21:33.486528  2802 net.cpp:454] conv4_8_1x1_reduce/relu <- conv4_8_1x1_reduce
I0620 04:21:33.486532  2802 net.cpp:397] conv4_8_1x1_reduce/relu -> conv4_8_1x1_reduce (in-place)
I0620 04:21:33.486536  2802 net.cpp:150] Setting up conv4_8_1x1_reduce/relu
I0620 04:21:33.486539  2802 net.cpp:157] Top shape: 1 256 41 41 (430336)
I0620 04:21:33.486541  2802 net.cpp:165] Memory required for data: 754036760
I0620 04:21:33.486544  2802 layer_factory.hpp:77] Creating layer conv4_8_3x3
I0620 04:21:33.486549  2802 net.cpp:106] Creating Layer conv4_8_3x3
I0620 04:21:33.486552  2802 net.cpp:454] conv4_8_3x3 <- conv4_8_1x1_reduce
I0620 04:21:33.486557  2802 net.cpp:411] conv4_8_3x3 -> conv4_8_3x3
I0620 04:21:33.500988  2802 net.cpp:150] Setting up conv4_8_3x3
I0620 04:21:33.501011  2802 net.cpp:157] Top shape: 1 256 41 41 (430336)
I0620 04:21:33.501014  2802 net.cpp:165] Memory required for data: 755758104
I0620 04:21:33.501021  2802 layer_factory.hpp:77] Creating layer conv4_8_3x3/bn
I0620 04:21:33.501035  2802 net.cpp:106] Creating Layer conv4_8_3x3/bn
I0620 04:21:33.501041  2802 net.cpp:454] conv4_8_3x3/bn <- conv4_8_3x3
I0620 04:21:33.501047  2802 net.cpp:397] conv4_8_3x3/bn -> conv4_8_3x3 (in-place)
I0620 04:21:33.501209  2802 net.cpp:150] Setting up conv4_8_3x3/bn
I0620 04:21:33.501215  2802 net.cpp:157] Top shape: 1 256 41 41 (430336)
I0620 04:21:33.501219  2802 net.cpp:165] Memory required for data: 757479448
I0620 04:21:33.501513  2802 layer_factory.hpp:77] Creating layer conv4_8_3x3/relu
I0620 04:21:33.501519  2802 net.cpp:106] Creating Layer conv4_8_3x3/relu
I0620 04:21:33.501521  2802 net.cpp:454] conv4_8_3x3/relu <- conv4_8_3x3
I0620 04:21:33.501526  2802 net.cpp:397] conv4_8_3x3/relu -> conv4_8_3x3 (in-place)
I0620 04:21:33.501531  2802 net.cpp:150] Setting up conv4_8_3x3/relu
I0620 04:21:33.501535  2802 net.cpp:157] Top shape: 1 256 41 41 (430336)
I0620 04:21:33.501538  2802 net.cpp:165] Memory required for data: 759200792
I0620 04:21:33.501540  2802 layer_factory.hpp:77] Creating layer conv4_8_1x1_increase
I0620 04:21:33.501549  2802 net.cpp:106] Creating Layer conv4_8_1x1_increase
I0620 04:21:33.501550  2802 net.cpp:454] conv4_8_1x1_increase <- conv4_8_3x3
I0620 04:21:33.501554  2802 net.cpp:411] conv4_8_1x1_increase -> conv4_8_1x1_increase
I0620 04:21:33.508325  2802 net.cpp:150] Setting up conv4_8_1x1_increase
I0620 04:21:33.508358  2802 net.cpp:157] Top shape: 1 1024 41 41 (1721344)
I0620 04:21:33.508361  2802 net.cpp:165] Memory required for data: 766086168
I0620 04:21:33.508370  2802 layer_factory.hpp:77] Creating layer conv4_8_1x1_increase/bn
I0620 04:21:33.508381  2802 net.cpp:106] Creating Layer conv4_8_1x1_increase/bn
I0620 04:21:33.508388  2802 net.cpp:454] conv4_8_1x1_increase/bn <- conv4_8_1x1_increase
I0620 04:21:33.508394  2802 net.cpp:397] conv4_8_1x1_increase/bn -> conv4_8_1x1_increase (in-place)
I0620 04:21:33.508599  2802 net.cpp:150] Setting up conv4_8_1x1_increase/bn
I0620 04:21:33.508605  2802 net.cpp:157] Top shape: 1 1024 41 41 (1721344)
I0620 04:21:33.508610  2802 net.cpp:165] Memory required for data: 772971544
I0620 04:21:33.508618  2802 layer_factory.hpp:77] Creating layer conv4_8
I0620 04:21:33.508625  2802 net.cpp:106] Creating Layer conv4_8
I0620 04:21:33.508630  2802 net.cpp:454] conv4_8 <- conv4_7_conv4_7/relu_0_split_1
I0620 04:21:33.508635  2802 net.cpp:454] conv4_8 <- conv4_8_1x1_increase
I0620 04:21:33.508641  2802 net.cpp:411] conv4_8 -> conv4_8
I0620 04:21:33.508662  2802 net.cpp:150] Setting up conv4_8
I0620 04:21:33.508668  2802 net.cpp:157] Top shape: 1 1024 41 41 (1721344)
I0620 04:21:33.508672  2802 net.cpp:165] Memory required for data: 779856920
I0620 04:21:33.508677  2802 layer_factory.hpp:77] Creating layer conv4_8/relu
I0620 04:21:33.508682  2802 net.cpp:106] Creating Layer conv4_8/relu
I0620 04:21:33.508687  2802 net.cpp:454] conv4_8/relu <- conv4_8
I0620 04:21:33.508692  2802 net.cpp:397] conv4_8/relu -> conv4_8 (in-place)
I0620 04:21:33.508698  2802 net.cpp:150] Setting up conv4_8/relu
I0620 04:21:33.508703  2802 net.cpp:157] Top shape: 1 1024 41 41 (1721344)
I0620 04:21:33.508708  2802 net.cpp:165] Memory required for data: 786742296
I0620 04:21:33.508713  2802 layer_factory.hpp:77] Creating layer conv4_8_conv4_8/relu_0_split
I0620 04:21:33.508719  2802 net.cpp:106] Creating Layer conv4_8_conv4_8/relu_0_split
I0620 04:21:33.508723  2802 net.cpp:454] conv4_8_conv4_8/relu_0_split <- conv4_8
I0620 04:21:33.508729  2802 net.cpp:411] conv4_8_conv4_8/relu_0_split -> conv4_8_conv4_8/relu_0_split_0
I0620 04:21:33.508735  2802 net.cpp:411] conv4_8_conv4_8/relu_0_split -> conv4_8_conv4_8/relu_0_split_1
I0620 04:21:33.508766  2802 net.cpp:150] Setting up conv4_8_conv4_8/relu_0_split
I0620 04:21:33.508772  2802 net.cpp:157] Top shape: 1 1024 41 41 (1721344)
I0620 04:21:33.508777  2802 net.cpp:157] Top shape: 1 1024 41 41 (1721344)
I0620 04:21:33.508781  2802 net.cpp:165] Memory required for data: 800513048
I0620 04:21:33.508785  2802 layer_factory.hpp:77] Creating layer conv4_9_1x1_reduce
I0620 04:21:33.508795  2802 net.cpp:106] Creating Layer conv4_9_1x1_reduce
I0620 04:21:33.508800  2802 net.cpp:454] conv4_9_1x1_reduce <- conv4_8_conv4_8/relu_0_split_0
I0620 04:21:33.508805  2802 net.cpp:411] conv4_9_1x1_reduce -> conv4_9_1x1_reduce
I0620 04:21:33.516693  2802 net.cpp:150] Setting up conv4_9_1x1_reduce
I0620 04:21:33.516742  2802 net.cpp:157] Top shape: 1 256 41 41 (430336)
I0620 04:21:33.516746  2802 net.cpp:165] Memory required for data: 802234392
I0620 04:21:33.516822  2802 layer_factory.hpp:77] Creating layer conv4_9_1x1_reduce/bn
I0620 04:21:33.516856  2802 net.cpp:106] Creating Layer conv4_9_1x1_reduce/bn
I0620 04:21:33.516868  2802 net.cpp:454] conv4_9_1x1_reduce/bn <- conv4_9_1x1_reduce
I0620 04:21:33.516877  2802 net.cpp:397] conv4_9_1x1_reduce/bn -> conv4_9_1x1_reduce (in-place)
I0620 04:21:33.517107  2802 net.cpp:150] Setting up conv4_9_1x1_reduce/bn
I0620 04:21:33.517114  2802 net.cpp:157] Top shape: 1 256 41 41 (430336)
I0620 04:21:33.517118  2802 net.cpp:165] Memory required for data: 803955736
I0620 04:21:33.517190  2802 layer_factory.hpp:77] Creating layer conv4_9_1x1_reduce/relu
I0620 04:21:33.517201  2802 net.cpp:106] Creating Layer conv4_9_1x1_reduce/relu
I0620 04:21:33.517205  2802 net.cpp:454] conv4_9_1x1_reduce/relu <- conv4_9_1x1_reduce
I0620 04:21:33.517210  2802 net.cpp:397] conv4_9_1x1_reduce/relu -> conv4_9_1x1_reduce (in-place)
I0620 04:21:33.517217  2802 net.cpp:150] Setting up conv4_9_1x1_reduce/relu
I0620 04:21:33.517222  2802 net.cpp:157] Top shape: 1 256 41 41 (430336)
I0620 04:21:33.517226  2802 net.cpp:165] Memory required for data: 805677080
I0620 04:21:33.517230  2802 layer_factory.hpp:77] Creating layer conv4_9_3x3
I0620 04:21:33.517241  2802 net.cpp:106] Creating Layer conv4_9_3x3
I0620 04:21:33.517244  2802 net.cpp:454] conv4_9_3x3 <- conv4_9_1x1_reduce
I0620 04:21:33.517251  2802 net.cpp:411] conv4_9_3x3 -> conv4_9_3x3
I0620 04:21:33.532693  2802 net.cpp:150] Setting up conv4_9_3x3
I0620 04:21:33.532716  2802 net.cpp:157] Top shape: 1 256 41 41 (430336)
I0620 04:21:33.532718  2802 net.cpp:165] Memory required for data: 807398424
I0620 04:21:33.532724  2802 layer_factory.hpp:77] Creating layer conv4_9_3x3/bn
I0620 04:21:33.532733  2802 net.cpp:106] Creating Layer conv4_9_3x3/bn
I0620 04:21:33.532737  2802 net.cpp:454] conv4_9_3x3/bn <- conv4_9_3x3
I0620 04:21:33.532743  2802 net.cpp:397] conv4_9_3x3/bn -> conv4_9_3x3 (in-place)
I0620 04:21:33.532891  2802 net.cpp:150] Setting up conv4_9_3x3/bn
I0620 04:21:33.532896  2802 net.cpp:157] Top shape: 1 256 41 41 (430336)
I0620 04:21:33.532897  2802 net.cpp:165] Memory required for data: 809119768
I0620 04:21:33.532902  2802 layer_factory.hpp:77] Creating layer conv4_9_3x3/relu
I0620 04:21:33.532907  2802 net.cpp:106] Creating Layer conv4_9_3x3/relu
I0620 04:21:33.532908  2802 net.cpp:454] conv4_9_3x3/relu <- conv4_9_3x3
I0620 04:21:33.532912  2802 net.cpp:397] conv4_9_3x3/relu -> conv4_9_3x3 (in-place)
I0620 04:21:33.532915  2802 net.cpp:150] Setting up conv4_9_3x3/relu
I0620 04:21:33.532917  2802 net.cpp:157] Top shape: 1 256 41 41 (430336)
I0620 04:21:33.532919  2802 net.cpp:165] Memory required for data: 810841112
I0620 04:21:33.532922  2802 layer_factory.hpp:77] Creating layer conv4_9_1x1_increase
I0620 04:21:33.532928  2802 net.cpp:106] Creating Layer conv4_9_1x1_increase
I0620 04:21:33.532932  2802 net.cpp:454] conv4_9_1x1_increase <- conv4_9_3x3
I0620 04:21:33.532935  2802 net.cpp:411] conv4_9_1x1_increase -> conv4_9_1x1_increase
I0620 04:21:33.539229  2802 net.cpp:150] Setting up conv4_9_1x1_increase
I0620 04:21:33.539242  2802 net.cpp:157] Top shape: 1 1024 41 41 (1721344)
I0620 04:21:33.539244  2802 net.cpp:165] Memory required for data: 817726488
I0620 04:21:33.539249  2802 layer_factory.hpp:77] Creating layer conv4_9_1x1_increase/bn
I0620 04:21:33.539255  2802 net.cpp:106] Creating Layer conv4_9_1x1_increase/bn
I0620 04:21:33.539259  2802 net.cpp:454] conv4_9_1x1_increase/bn <- conv4_9_1x1_increase
I0620 04:21:33.539263  2802 net.cpp:397] conv4_9_1x1_increase/bn -> conv4_9_1x1_increase (in-place)
I0620 04:21:33.539412  2802 net.cpp:150] Setting up conv4_9_1x1_increase/bn
I0620 04:21:33.539415  2802 net.cpp:157] Top shape: 1 1024 41 41 (1721344)
I0620 04:21:33.539418  2802 net.cpp:165] Memory required for data: 824611864
I0620 04:21:33.539423  2802 layer_factory.hpp:77] Creating layer conv4_9
I0620 04:21:33.539429  2802 net.cpp:106] Creating Layer conv4_9
I0620 04:21:33.539433  2802 net.cpp:454] conv4_9 <- conv4_8_conv4_8/relu_0_split_1
I0620 04:21:33.539436  2802 net.cpp:454] conv4_9 <- conv4_9_1x1_increase
I0620 04:21:33.539458  2802 net.cpp:411] conv4_9 -> conv4_9
I0620 04:21:33.539477  2802 net.cpp:150] Setting up conv4_9
I0620 04:21:33.539481  2802 net.cpp:157] Top shape: 1 1024 41 41 (1721344)
I0620 04:21:33.539484  2802 net.cpp:165] Memory required for data: 831497240
I0620 04:21:33.539486  2802 layer_factory.hpp:77] Creating layer conv4_9/relu
I0620 04:21:33.539492  2802 net.cpp:106] Creating Layer conv4_9/relu
I0620 04:21:33.539495  2802 net.cpp:454] conv4_9/relu <- conv4_9
I0620 04:21:33.539500  2802 net.cpp:397] conv4_9/relu -> conv4_9 (in-place)
I0620 04:21:33.539505  2802 net.cpp:150] Setting up conv4_9/relu
I0620 04:21:33.539510  2802 net.cpp:157] Top shape: 1 1024 41 41 (1721344)
I0620 04:21:33.539511  2802 net.cpp:165] Memory required for data: 838382616
I0620 04:21:33.539513  2802 layer_factory.hpp:77] Creating layer conv4_9_conv4_9/relu_0_split
I0620 04:21:33.539518  2802 net.cpp:106] Creating Layer conv4_9_conv4_9/relu_0_split
I0620 04:21:33.539520  2802 net.cpp:454] conv4_9_conv4_9/relu_0_split <- conv4_9
I0620 04:21:33.539523  2802 net.cpp:411] conv4_9_conv4_9/relu_0_split -> conv4_9_conv4_9/relu_0_split_0
I0620 04:21:33.539526  2802 net.cpp:411] conv4_9_conv4_9/relu_0_split -> conv4_9_conv4_9/relu_0_split_1
I0620 04:21:33.539551  2802 net.cpp:150] Setting up conv4_9_conv4_9/relu_0_split
I0620 04:21:33.539556  2802 net.cpp:157] Top shape: 1 1024 41 41 (1721344)
I0620 04:21:33.539558  2802 net.cpp:157] Top shape: 1 1024 41 41 (1721344)
I0620 04:21:33.539561  2802 net.cpp:165] Memory required for data: 852153368
I0620 04:21:33.539564  2802 layer_factory.hpp:77] Creating layer conv4_10_1x1_reduce
I0620 04:21:33.539573  2802 net.cpp:106] Creating Layer conv4_10_1x1_reduce
I0620 04:21:33.539577  2802 net.cpp:454] conv4_10_1x1_reduce <- conv4_9_conv4_9/relu_0_split_0
I0620 04:21:33.539582  2802 net.cpp:411] conv4_10_1x1_reduce -> conv4_10_1x1_reduce
I0620 04:21:33.545207  2802 net.cpp:150] Setting up conv4_10_1x1_reduce
I0620 04:21:33.545219  2802 net.cpp:157] Top shape: 1 256 41 41 (430336)
I0620 04:21:33.545222  2802 net.cpp:165] Memory required for data: 853874712
I0620 04:21:33.545230  2802 layer_factory.hpp:77] Creating layer conv4_10_1x1_reduce/bn
I0620 04:21:33.545236  2802 net.cpp:106] Creating Layer conv4_10_1x1_reduce/bn
I0620 04:21:33.545240  2802 net.cpp:454] conv4_10_1x1_reduce/bn <- conv4_10_1x1_reduce
I0620 04:21:33.545246  2802 net.cpp:397] conv4_10_1x1_reduce/bn -> conv4_10_1x1_reduce (in-place)
I0620 04:21:33.545387  2802 net.cpp:150] Setting up conv4_10_1x1_reduce/bn
I0620 04:21:33.545392  2802 net.cpp:157] Top shape: 1 256 41 41 (430336)
I0620 04:21:33.545395  2802 net.cpp:165] Memory required for data: 855596056
I0620 04:21:33.545402  2802 layer_factory.hpp:77] Creating layer conv4_10_1x1_reduce/relu
I0620 04:21:33.545406  2802 net.cpp:106] Creating Layer conv4_10_1x1_reduce/relu
I0620 04:21:33.545410  2802 net.cpp:454] conv4_10_1x1_reduce/relu <- conv4_10_1x1_reduce
I0620 04:21:33.545414  2802 net.cpp:397] conv4_10_1x1_reduce/relu -> conv4_10_1x1_reduce (in-place)
I0620 04:21:33.545419  2802 net.cpp:150] Setting up conv4_10_1x1_reduce/relu
I0620 04:21:33.545423  2802 net.cpp:157] Top shape: 1 256 41 41 (430336)
I0620 04:21:33.545428  2802 net.cpp:165] Memory required for data: 857317400
I0620 04:21:33.545430  2802 layer_factory.hpp:77] Creating layer conv4_10_3x3
I0620 04:21:33.545436  2802 net.cpp:106] Creating Layer conv4_10_3x3
I0620 04:21:33.545439  2802 net.cpp:454] conv4_10_3x3 <- conv4_10_1x1_reduce
I0620 04:21:33.545444  2802 net.cpp:411] conv4_10_3x3 -> conv4_10_3x3
I0620 04:21:33.560691  2802 net.cpp:150] Setting up conv4_10_3x3
I0620 04:21:33.560775  2802 net.cpp:157] Top shape: 1 256 41 41 (430336)
I0620 04:21:33.560781  2802 net.cpp:165] Memory required for data: 859038744
I0620 04:21:33.560797  2802 layer_factory.hpp:77] Creating layer conv4_10_3x3/bn
I0620 04:21:33.560827  2802 net.cpp:106] Creating Layer conv4_10_3x3/bn
I0620 04:21:33.560842  2802 net.cpp:454] conv4_10_3x3/bn <- conv4_10_3x3
I0620 04:21:33.560853  2802 net.cpp:397] conv4_10_3x3/bn -> conv4_10_3x3 (in-place)
I0620 04:21:33.561172  2802 net.cpp:150] Setting up conv4_10_3x3/bn
I0620 04:21:33.561182  2802 net.cpp:157] Top shape: 1 256 41 41 (430336)
I0620 04:21:33.561187  2802 net.cpp:165] Memory required for data: 860760088
I0620 04:21:33.561195  2802 layer_factory.hpp:77] Creating layer conv4_10_3x3/relu
I0620 04:21:33.561206  2802 net.cpp:106] Creating Layer conv4_10_3x3/relu
I0620 04:21:33.561211  2802 net.cpp:454] conv4_10_3x3/relu <- conv4_10_3x3
I0620 04:21:33.561216  2802 net.cpp:397] conv4_10_3x3/relu -> conv4_10_3x3 (in-place)
I0620 04:21:33.561224  2802 net.cpp:150] Setting up conv4_10_3x3/relu
I0620 04:21:33.561229  2802 net.cpp:157] Top shape: 1 256 41 41 (430336)
I0620 04:21:33.561233  2802 net.cpp:165] Memory required for data: 862481432
I0620 04:21:33.561236  2802 layer_factory.hpp:77] Creating layer conv4_10_1x1_increase
I0620 04:21:33.561251  2802 net.cpp:106] Creating Layer conv4_10_1x1_increase
I0620 04:21:33.561255  2802 net.cpp:454] conv4_10_1x1_increase <- conv4_10_3x3
I0620 04:21:33.561264  2802 net.cpp:411] conv4_10_1x1_increase -> conv4_10_1x1_increase
I0620 04:21:33.570509  2802 net.cpp:150] Setting up conv4_10_1x1_increase
I0620 04:21:33.570543  2802 net.cpp:157] Top shape: 1 1024 41 41 (1721344)
I0620 04:21:33.570544  2802 net.cpp:165] Memory required for data: 869366808
I0620 04:21:33.570552  2802 layer_factory.hpp:77] Creating layer conv4_10_1x1_increase/bn
I0620 04:21:33.570565  2802 net.cpp:106] Creating Layer conv4_10_1x1_increase/bn
I0620 04:21:33.570574  2802 net.cpp:454] conv4_10_1x1_increase/bn <- conv4_10_1x1_increase
I0620 04:21:33.570580  2802 net.cpp:397] conv4_10_1x1_increase/bn -> conv4_10_1x1_increase (in-place)
I0620 04:21:33.570756  2802 net.cpp:150] Setting up conv4_10_1x1_increase/bn
I0620 04:21:33.570760  2802 net.cpp:157] Top shape: 1 1024 41 41 (1721344)
I0620 04:21:33.570762  2802 net.cpp:165] Memory required for data: 876252184
I0620 04:21:33.570766  2802 layer_factory.hpp:77] Creating layer conv4_10
I0620 04:21:33.570771  2802 net.cpp:106] Creating Layer conv4_10
I0620 04:21:33.570775  2802 net.cpp:454] conv4_10 <- conv4_9_conv4_9/relu_0_split_1
I0620 04:21:33.570777  2802 net.cpp:454] conv4_10 <- conv4_10_1x1_increase
I0620 04:21:33.570780  2802 net.cpp:411] conv4_10 -> conv4_10
I0620 04:21:33.570796  2802 net.cpp:150] Setting up conv4_10
I0620 04:21:33.570799  2802 net.cpp:157] Top shape: 1 1024 41 41 (1721344)
I0620 04:21:33.570801  2802 net.cpp:165] Memory required for data: 883137560
I0620 04:21:33.570803  2802 layer_factory.hpp:77] Creating layer conv4_10/relu
I0620 04:21:33.570806  2802 net.cpp:106] Creating Layer conv4_10/relu
I0620 04:21:33.570809  2802 net.cpp:454] conv4_10/relu <- conv4_10
I0620 04:21:33.570812  2802 net.cpp:397] conv4_10/relu -> conv4_10 (in-place)
I0620 04:21:33.570816  2802 net.cpp:150] Setting up conv4_10/relu
I0620 04:21:33.570818  2802 net.cpp:157] Top shape: 1 1024 41 41 (1721344)
I0620 04:21:33.570821  2802 net.cpp:165] Memory required for data: 890022936
I0620 04:21:33.570822  2802 layer_factory.hpp:77] Creating layer conv4_10_conv4_10/relu_0_split
I0620 04:21:33.570825  2802 net.cpp:106] Creating Layer conv4_10_conv4_10/relu_0_split
I0620 04:21:33.570827  2802 net.cpp:454] conv4_10_conv4_10/relu_0_split <- conv4_10
I0620 04:21:33.570830  2802 net.cpp:411] conv4_10_conv4_10/relu_0_split -> conv4_10_conv4_10/relu_0_split_0
I0620 04:21:33.570833  2802 net.cpp:411] conv4_10_conv4_10/relu_0_split -> conv4_10_conv4_10/relu_0_split_1
I0620 04:21:33.570854  2802 net.cpp:150] Setting up conv4_10_conv4_10/relu_0_split
I0620 04:21:33.570858  2802 net.cpp:157] Top shape: 1 1024 41 41 (1721344)
I0620 04:21:33.570860  2802 net.cpp:157] Top shape: 1 1024 41 41 (1721344)
I0620 04:21:33.570863  2802 net.cpp:165] Memory required for data: 903793688
I0620 04:21:33.570864  2802 layer_factory.hpp:77] Creating layer conv4_11_1x1_reduce
I0620 04:21:33.570869  2802 net.cpp:106] Creating Layer conv4_11_1x1_reduce
I0620 04:21:33.570873  2802 net.cpp:454] conv4_11_1x1_reduce <- conv4_10_conv4_10/relu_0_split_0
I0620 04:21:33.570891  2802 net.cpp:411] conv4_11_1x1_reduce -> conv4_11_1x1_reduce
I0620 04:21:33.576571  2802 net.cpp:150] Setting up conv4_11_1x1_reduce
I0620 04:21:33.576581  2802 net.cpp:157] Top shape: 1 256 41 41 (430336)
I0620 04:21:33.576586  2802 net.cpp:165] Memory required for data: 905515032
I0620 04:21:33.576591  2802 layer_factory.hpp:77] Creating layer conv4_11_1x1_reduce/bn
I0620 04:21:33.576598  2802 net.cpp:106] Creating Layer conv4_11_1x1_reduce/bn
I0620 04:21:33.576602  2802 net.cpp:454] conv4_11_1x1_reduce/bn <- conv4_11_1x1_reduce
I0620 04:21:33.576609  2802 net.cpp:397] conv4_11_1x1_reduce/bn -> conv4_11_1x1_reduce (in-place)
I0620 04:21:33.576745  2802 net.cpp:150] Setting up conv4_11_1x1_reduce/bn
I0620 04:21:33.576750  2802 net.cpp:157] Top shape: 1 256 41 41 (430336)
I0620 04:21:33.576753  2802 net.cpp:165] Memory required for data: 907236376
I0620 04:21:33.576758  2802 layer_factory.hpp:77] Creating layer conv4_11_1x1_reduce/relu
I0620 04:21:33.576763  2802 net.cpp:106] Creating Layer conv4_11_1x1_reduce/relu
I0620 04:21:33.576766  2802 net.cpp:454] conv4_11_1x1_reduce/relu <- conv4_11_1x1_reduce
I0620 04:21:33.576771  2802 net.cpp:397] conv4_11_1x1_reduce/relu -> conv4_11_1x1_reduce (in-place)
I0620 04:21:33.576776  2802 net.cpp:150] Setting up conv4_11_1x1_reduce/relu
I0620 04:21:33.576781  2802 net.cpp:157] Top shape: 1 256 41 41 (430336)
I0620 04:21:33.576784  2802 net.cpp:165] Memory required for data: 908957720
I0620 04:21:33.576788  2802 layer_factory.hpp:77] Creating layer conv4_11_3x3
I0620 04:21:33.576797  2802 net.cpp:106] Creating Layer conv4_11_3x3
I0620 04:21:33.576799  2802 net.cpp:454] conv4_11_3x3 <- conv4_11_1x1_reduce
I0620 04:21:33.576804  2802 net.cpp:411] conv4_11_3x3 -> conv4_11_3x3
I0620 04:21:33.589864  2802 net.cpp:150] Setting up conv4_11_3x3
I0620 04:21:33.589877  2802 net.cpp:157] Top shape: 1 256 41 41 (430336)
I0620 04:21:33.589880  2802 net.cpp:165] Memory required for data: 910679064
I0620 04:21:33.589887  2802 layer_factory.hpp:77] Creating layer conv4_11_3x3/bn
I0620 04:21:33.589898  2802 net.cpp:106] Creating Layer conv4_11_3x3/bn
I0620 04:21:33.589905  2802 net.cpp:454] conv4_11_3x3/bn <- conv4_11_3x3
I0620 04:21:33.589910  2802 net.cpp:397] conv4_11_3x3/bn -> conv4_11_3x3 (in-place)
I0620 04:21:33.590054  2802 net.cpp:150] Setting up conv4_11_3x3/bn
I0620 04:21:33.590059  2802 net.cpp:157] Top shape: 1 256 41 41 (430336)
I0620 04:21:33.590062  2802 net.cpp:165] Memory required for data: 912400408
I0620 04:21:33.590070  2802 layer_factory.hpp:77] Creating layer conv4_11_3x3/relu
I0620 04:21:33.590075  2802 net.cpp:106] Creating Layer conv4_11_3x3/relu
I0620 04:21:33.590077  2802 net.cpp:454] conv4_11_3x3/relu <- conv4_11_3x3
I0620 04:21:33.590082  2802 net.cpp:397] conv4_11_3x3/relu -> conv4_11_3x3 (in-place)
I0620 04:21:33.590087  2802 net.cpp:150] Setting up conv4_11_3x3/relu
I0620 04:21:33.590091  2802 net.cpp:157] Top shape: 1 256 41 41 (430336)
I0620 04:21:33.590095  2802 net.cpp:165] Memory required for data: 914121752
I0620 04:21:33.590097  2802 layer_factory.hpp:77] Creating layer conv4_11_1x1_increase
I0620 04:21:33.590106  2802 net.cpp:106] Creating Layer conv4_11_1x1_increase
…
I0620 04:21:33.873313  2802 net.cpp:454] conv4_21_1x1_reduce/bn <- conv4_21_1x1_reduce
I0620 04:21:33.873327  2802 net.cpp:397] conv4_21_1x1_reduce/bn -> conv4_21_1x1_reduce (in-place)
I0620 04:21:33.873669  2802 net.cpp:150] Setting up conv4_21_1x1_reduce/bn
I0620 04:21:33.873678  2802 net.cpp:157] Top shape: 1 256 41 41 (430336)
I0620 04:21:33.873688  2802 net.cpp:165] Memory required for data: 1423639576
I0620 04:21:33.873697  2802 layer_factory.hpp:77] Creating layer conv4_21_1x1_reduce/relu
I0620 04:21:33.873710  2802 net.cpp:106] Creating Layer conv4_21_1x1_reduce/relu
I0620 04:21:33.873714  2802 net.cpp:454] conv4_21_1x1_reduce/relu <- conv4_21_1x1_reduce
I0620 04:21:33.873723  2802 net.cpp:397] conv4_21_1x1_reduce/relu -> conv4_21_1x1_reduce (in-place)
I0620 04:21:33.873730  2802 net.cpp:150] Setting up conv4_21_1x1_reduce/relu
I0620 04:21:33.873735  2802 net.cpp:157] Top shape: 1 256 41 41 (430336)
I0620 04:21:33.873739  2802 net.cpp:165] Memory required for data: 1425360920
I0620 04:21:33.873744  2802 layer_factory.hpp:77] Creating layer conv4_21_3x3
I0620 04:21:33.873777  2802 net.cpp:106] Creating Layer conv4_21_3x3
I0620 04:21:33.873782  2802 net.cpp:454] conv4_21_3x3 <- conv4_21_1x1_reduce
I0620 04:21:33.873790  2802 net.cpp:411] conv4_21_3x3 -> conv4_21_3x3
I0620 04:21:33.895082  2802 net.cpp:150] Setting up conv4_21_3x3
I0620 04:21:33.895103  2802 net.cpp:157] Top shape: 1 256 41 41 (430336)
I0620 04:21:33.895107  2802 net.cpp:165] Memory required for data: 1427082264
I0620 04:21:33.895113  2802 layer_factory.hpp:77] Creating layer conv4_21_3x3/bn
I0620 04:21:33.895123  2802 net.cpp:106] Creating Layer conv4_21_3x3/bn
I0620 04:21:33.895149  2802 net.cpp:454] conv4_21_3x3/bn <- conv4_21_3x3
I0620 04:21:33.895154  2802 net.cpp:397] conv4_21_3x3/bn -> conv4_21_3x3 (in-place)
I0620 04:21:33.895328  2802 net.cpp:150] Setting up conv4_21_3x3/bn
I0620 04:21:33.895332  2802 net.cpp:157] Top shape: 1 256 41 41 (430336)
I0620 04:21:33.895334  2802 net.cpp:165] Memory required for data: 1428803608
I0620 04:21:33.895339  2802 layer_factory.hpp:77] Creating layer conv4_21_3x3/relu
I0620 04:21:33.895344  2802 net.cpp:106] Creating Layer conv4_21_3x3/relu
I0620 04:21:33.895345  2802 net.cpp:454] conv4_21_3x3/relu <- conv4_21_3x3
I0620 04:21:33.895349  2802 net.cpp:397] conv4_21_3x3/relu -> conv4_21_3x3 (in-place)
I0620 04:21:33.895351  2802 net.cpp:150] Setting up conv4_21_3x3/relu
I0620 04:21:33.895354  2802 net.cpp:157] Top shape: 1 256 41 41 (430336)
I0620 04:21:33.895356  2802 net.cpp:165] Memory required for data: 1430524952
I0620 04:21:33.895359  2802 layer_factory.hpp:77] Creating layer conv4_21_1x1_increase
I0620 04:21:33.895366  2802 net.cpp:106] Creating Layer conv4_21_1x1_increase
I0620 04:21:33.895368  2802 net.cpp:454] conv4_21_1x1_increase <- conv4_21_3x3
I0620 04:21:33.895372  2802 net.cpp:411] conv4_21_1x1_increase -> conv4_21_1x1_increase
I0620 04:21:33.901693  2802 net.cpp:150] Setting up conv4_21_1x1_increase
I0620 04:21:33.901710  2802 net.cpp:157] Top shape: 1 1024 41 41 (1721344)
I0620 04:21:33.901712  2802 net.cpp:165] Memory required for data: 1437410328
I0620 04:21:33.901716  2802 layer_factory.hpp:77] Creating layer conv4_21_1x1_increase/bn
I0620 04:21:33.901722  2802 net.cpp:106] Creating Layer conv4_21_1x1_increase/bn
I0620 04:21:33.901726  2802 net.cpp:454] conv4_21_1x1_increase/bn <- conv4_21_1x1_increase
I0620 04:21:33.901729  2802 net.cpp:397] conv4_21_1x1_increase/bn -> conv4_21_1x1_increase (in-place)
I0620 04:21:33.901890  2802 net.cpp:150] Setting up conv4_21_1x1_increase/bn
I0620 04:21:33.901895  2802 net.cpp:157] Top shape: 1 1024 41 41 (1721344)
I0620 04:21:33.901897  2802 net.cpp:165] Memory required for data: 1444295704
I0620 04:21:33.901901  2802 layer_factory.hpp:77] Creating layer conv4_21
I0620 04:21:33.901906  2802 net.cpp:106] Creating Layer conv4_21
I0620 04:21:33.901908  2802 net.cpp:454] conv4_21 <- conv4_20_conv4_20/relu_0_split_1
I0620 04:21:33.901911  2802 net.cpp:454] conv4_21 <- conv4_21_1x1_increase
I0620 04:21:33.901914  2802 net.cpp:411] conv4_21 -> conv4_21
I0620 04:21:33.901931  2802 net.cpp:150] Setting up conv4_21
I0620 04:21:33.901934  2802 net.cpp:157] Top shape: 1 1024 41 41 (1721344)
I0620 04:21:33.901937  2802 net.cpp:165] Memory required for data: 1451181080
I0620 04:21:33.901938  2802 layer_factory.hpp:77] Creating layer conv4_21/relu
I0620 04:21:33.901942  2802 net.cpp:106] Creating Layer conv4_21/relu
I0620 04:21:33.901944  2802 net.cpp:454] conv4_21/relu <- conv4_21
I0620 04:21:33.901947  2802 net.cpp:397] conv4_21/relu -> conv4_21 (in-place)
I0620 04:21:33.901952  2802 net.cpp:150] Setting up conv4_21/relu
I0620 04:21:33.901953  2802 net.cpp:157] Top shape: 1 1024 41 41 (1721344)
I0620 04:21:33.901955  2802 net.cpp:165] Memory required for data: 1458066456
I0620 04:21:33.901957  2802 layer_factory.hpp:77] Creating layer conv4_21_conv4_21/relu_0_split
I0620 04:21:33.901963  2802 net.cpp:106] Creating Layer conv4_21_conv4_21/relu_0_split
I0620 04:21:33.901965  2802 net.cpp:454] conv4_21_conv4_21/relu_0_split <- conv4_21
I0620 04:21:33.901968  2802 net.cpp:411] conv4_21_conv4_21/relu_0_split -> conv4_21_conv4_21/relu_0_split_0
I0620 04:21:33.901971  2802 net.cpp:411] conv4_21_conv4_21/relu_0_split -> conv4_21_conv4_21/relu_0_split_1
I0620 04:21:33.901994  2802 net.cpp:150] Setting up conv4_21_conv4_21/relu_0_split
I0620 04:21:33.901998  2802 net.cpp:157] Top shape: 1 1024 41 41 (1721344)
I0620 04:21:33.902001  2802 net.cpp:157] Top shape: 1 1024 41 41 (1721344)
I0620 04:21:33.902004  2802 net.cpp:165] Memory required for data: 1471837208
I0620 04:21:33.902005  2802 layer_factory.hpp:77] Creating layer conv4_22_1x1_reduce
I0620 04:21:33.902014  2802 net.cpp:106] Creating Layer conv4_22_1x1_reduce
I0620 04:21:33.902025  2802 net.cpp:454] conv4_22_1x1_reduce <- conv4_21_conv4_21/relu_0_split_0
I0620 04:21:33.902030  2802 net.cpp:411] conv4_22_1x1_reduce -> conv4_22_1x1_reduce
I0620 04:21:33.907641  2802 net.cpp:150] Setting up conv4_22_1x1_reduce
I0620 04:21:33.907655  2802 net.cpp:157] Top shape: 1 256 41 41 (430336)
I0620 04:21:33.907656  2802 net.cpp:165] Memory required for data: 1473558552
I0620 04:21:33.907661  2802 layer_factory.hpp:77] Creating layer conv4_22_1x1_reduce/bn
I0620 04:21:33.907667  2802 net.cpp:106] Creating Layer conv4_22_1x1_reduce/bn
I0620 04:21:33.907670  2802 net.cpp:454] conv4_22_1x1_reduce/bn <- conv4_22_1x1_reduce
I0620 04:21:33.907675  2802 net.cpp:397] conv4_22_1x1_reduce/bn -> conv4_22_1x1_reduce (in-place)
I0620 04:21:33.907824  2802 net.cpp:150] Setting up conv4_22_1x1_reduce/bn
I0620 04:21:33.907829  2802 net.cpp:157] Top shape: 1 256 41 41 (430336)
I0620 04:21:33.907831  2802 net.cpp:165] Memory required for data: 1475279896
I0620 04:21:33.907836  2802 layer_factory.hpp:77] Creating layer conv4_22_1x1_reduce/relu
I0620 04:21:33.907840  2802 net.cpp:106] Creating Layer conv4_22_1x1_reduce/relu
I0620 04:21:33.907842  2802 net.cpp:454] conv4_22_1x1_reduce/relu <- conv4_22_1x1_reduce
I0620 04:21:33.907845  2802 net.cpp:397] conv4_22_1x1_reduce/relu -> conv4_22_1x1_reduce (in-place)
I0620 04:21:33.907848  2802 net.cpp:150] Setting up conv4_22_1x1_reduce/relu
I0620 04:21:33.907851  2802 net.cpp:157] Top shape: 1 256 41 41 (430336)
I0620 04:21:33.907853  2802 net.cpp:165] Memory required for data: 1477001240
I0620 04:21:33.907855  2802 layer_factory.hpp:77] Creating layer conv4_22_3x3
I0620 04:21:33.907861  2802 net.cpp:106] Creating Layer conv4_22_3x3
I0620 04:21:33.907865  2802 net.cpp:454] conv4_22_3x3 <- conv4_22_1x1_reduce
I0620 04:21:33.907868  2802 net.cpp:411] conv4_22_3x3 -> conv4_22_3x3
I0620 04:21:33.924638  2802 net.cpp:150] Setting up conv4_22_3x3
I0620 04:21:33.924708  2802 net.cpp:157] Top shape: 1 256 41 41 (430336)
I0620 04:21:33.924715  2802 net.cpp:165] Memory required for data: 1478722584
I0620 04:21:33.924732  2802 layer_factory.hpp:77] Creating layer conv4_22_3x3/bn
I0620 04:21:33.924760  2802 net.cpp:106] Creating Layer conv4_22_3x3/bn
I0620 04:21:33.924774  2802 net.cpp:454] conv4_22_3x3/bn <- conv4_22_3x3
I0620 04:21:33.924787  2802 net.cpp:397] conv4_22_3x3/bn -> conv4_22_3x3 (in-place)
I0620 04:21:33.925050  2802 net.cpp:150] Setting up conv4_22_3x3/bn
I0620 04:21:33.925056  2802 net.cpp:157] Top shape: 1 256 41 41 (430336)
I0620 04:21:33.925060  2802 net.cpp:165] Memory required for data: 1480443928
I0620 04:21:33.925070  2802 layer_factory.hpp:77] Creating layer conv4_22_3x3/relu
I0620 04:21:33.925081  2802 net.cpp:106] Creating Layer conv4_22_3x3/relu
I0620 04:21:33.925086  2802 net.cpp:454] conv4_22_3x3/relu <- conv4_22_3x3
I0620 04:21:33.925091  2802 net.cpp:397] conv4_22_3x3/relu -> conv4_22_3x3 (in-place)
I0620 04:21:33.925099  2802 net.cpp:150] Setting up conv4_22_3x3/relu
I0620 04:21:33.925104  2802 net.cpp:157] Top shape: 1 256 41 41 (430336)
I0620 04:21:33.925108  2802 net.cpp:165] Memory required for data: 1482165272
I0620 04:21:33.925112  2802 layer_factory.hpp:77] Creating layer conv4_22_1x1_increase
I0620 04:21:33.925125  2802 net.cpp:106] Creating Layer conv4_22_1x1_increase
I0620 04:21:33.925129  2802 net.cpp:454] conv4_22_1x1_increase <- conv4_22_3x3
I0620 04:21:33.925137  2802 net.cpp:411] conv4_22_1x1_increase -> conv4_22_1x1_increase
I0620 04:21:33.932817  2802 net.cpp:150] Setting up conv4_22_1x1_increase
I0620 04:21:33.932857  2802 net.cpp:157] Top shape: 1 1024 41 41 (1721344)
I0620 04:21:33.932858  2802 net.cpp:165] Memory required for data: 1489050648
I0620 04:21:33.932865  2802 layer_factory.hpp:77] Creating layer conv4_22_1x1_increase/bn
I0620 04:21:33.932874  2802 net.cpp:106] Creating Layer conv4_22_1x1_increase/bn
I0620 04:21:33.932880  2802 net.cpp:454] conv4_22_1x1_increase/bn <- conv4_22_1x1_increase
I0620 04:21:33.932888  2802 net.cpp:397] conv4_22_1x1_increase/bn -> conv4_22_1x1_increase (in-place)
I0620 04:21:33.933082  2802 net.cpp:150] Setting up conv4_22_1x1_increase/bn
I0620 04:21:33.933087  2802 net.cpp:157] Top shape: 1 1024 41 41 (1721344)
I0620 04:21:33.933089  2802 net.cpp:165] Memory required for data: 1495936024
I0620 04:21:33.933094  2802 layer_factory.hpp:77] Creating layer conv4_22
I0620 04:21:33.933099  2802 net.cpp:106] Creating Layer conv4_22
I0620 04:21:33.933101  2802 net.cpp:454] conv4_22 <- conv4_21_conv4_21/relu_0_split_1
I0620 04:21:33.933104  2802 net.cpp:454] conv4_22 <- conv4_22_1x1_increase
I0620 04:21:33.933107  2802 net.cpp:411] conv4_22 -> conv4_22
I0620 04:21:33.933123  2802 net.cpp:150] Setting up conv4_22
I0620 04:21:33.933127  2802 net.cpp:157] Top shape: 1 1024 41 41 (1721344)
I0620 04:21:33.933130  2802 net.cpp:165] Memory required for data: 1502821400
I0620 04:21:33.933131  2802 layer_factory.hpp:77] Creating layer conv4_22/relu
I0620 04:21:33.933135  2802 net.cpp:106] Creating Layer conv4_22/relu
I0620 04:21:33.933137  2802 net.cpp:454] conv4_22/relu <- conv4_22
I0620 04:21:33.933140  2802 net.cpp:397] conv4_22/relu -> conv4_22 (in-place)
I0620 04:21:33.933145  2802 net.cpp:150] Setting up conv4_22/relu
I0620 04:21:33.933146  2802 net.cpp:157] Top shape: 1 1024 41 41 (1721344)
I0620 04:21:33.933148  2802 net.cpp:165] Memory required for data: 1509706776
I0620 04:21:33.933151  2802 layer_factory.hpp:77] Creating layer conv4_22_conv4_22/relu_0_split
I0620 04:21:33.933154  2802 net.cpp:106] Creating Layer conv4_22_conv4_22/relu_0_split
I0620 04:21:33.933156  2802 net.cpp:454] conv4_22_conv4_22/relu_0_split <- conv4_22
I0620 04:21:33.933159  2802 net.cpp:411] conv4_22_conv4_22/relu_0_split -> conv4_22_conv4_22/relu_0_split_0
I0620 04:21:33.933162  2802 net.cpp:411] conv4_22_conv4_22/relu_0_split -> conv4_22_conv4_22/relu_0_split_1
I0620 04:21:33.933189  2802 net.cpp:150] Setting up conv4_22_conv4_22/relu_0_split
I0620 04:21:33.933193  2802 net.cpp:157] Top shape: 1 1024 41 41 (1721344)
I0620 04:21:33.933197  2802 net.cpp:157] Top shape: 1 1024 41 41 (1721344)
I0620 04:21:33.933199  2802 net.cpp:165] Memory required for data: 1523477528
I0620 04:21:33.933202  2802 layer_factory.hpp:77] Creating layer conv4_23_1x1_reduce
I0620 04:21:33.933210  2802 net.cpp:106] Creating Layer conv4_23_1x1_reduce
I0620 04:21:33.933213  2802 net.cpp:454] conv4_23_1x1_reduce <- conv4_22_conv4_22/relu_0_split_0
I0620 04:21:33.933218  2802 net.cpp:411] conv4_23_1x1_reduce -> conv4_23_1x1_reduce
I0620 04:21:33.938995  2802 net.cpp:150] Setting up conv4_23_1x1_reduce
I0620 04:21:33.939016  2802 net.cpp:157] Top shape: 1 256 41 41 (430336)
I0620 04:21:33.939019  2802 net.cpp:165] Memory required for data: 1525198872
I0620 04:21:33.939028  2802 layer_factory.hpp:77] Creating layer conv4_23_1x1_reduce/bn
I0620 04:21:33.939036  2802 net.cpp:106] Creating Layer conv4_23_1x1_reduce/bn
I0620 04:21:33.939040  2802 net.cpp:454] conv4_23_1x1_reduce/bn <- conv4_23_1x1_reduce
I0620 04:21:33.939046  2802 net.cpp:397] conv4_23_1x1_reduce/bn -> conv4_23_1x1_reduce (in-place)
I0620 04:21:33.939215  2802 net.cpp:150] Setting up conv4_23_1x1_reduce/bn
I0620 04:21:33.939220  2802 net.cpp:157] Top shape: 1 256 41 41 (430336)
I0620 04:21:33.939223  2802 net.cpp:165] Memory required for data: 1526920216
I0620 04:21:33.939229  2802 layer_factory.hpp:77] Creating layer conv4_23_1x1_reduce/relu
I0620 04:21:33.939234  2802 net.cpp:106] Creating Layer conv4_23_1x1_reduce/relu
I0620 04:21:33.939236  2802 net.cpp:454] conv4_23_1x1_reduce/relu <- conv4_23_1x1_reduce
I0620 04:21:33.939240  2802 net.cpp:397] conv4_23_1x1_reduce/relu -> conv4_23_1x1_reduce (in-place)
I0620 04:21:33.939244  2802 net.cpp:150] Setting up conv4_23_1x1_reduce/relu
I0620 04:21:33.939247  2802 net.cpp:157] Top shape: 1 256 41 41 (430336)
I0620 04:21:33.939250  2802 net.cpp:165] Memory required for data: 1528641560
I0620 04:21:33.939252  2802 layer_factory.hpp:77] Creating layer conv4_23_3x3
I0620 04:21:33.939260  2802 net.cpp:106] Creating Layer conv4_23_3x3
I0620 04:21:33.939262  2802 net.cpp:454] conv4_23_3x3 <- conv4_23_1x1_reduce
I0620 04:21:33.939280  2802 net.cpp:411] conv4_23_3x3 -> conv4_23_3x3
I0620 04:21:33.953131  2802 net.cpp:150] Setting up conv4_23_3x3
I0620 04:21:33.953145  2802 net.cpp:157] Top shape: 1 256 41 41 (430336)
I0620 04:21:33.953148  2802 net.cpp:165] Memory required for data: 1530362904
I0620 04:21:33.953155  2802 layer_factory.hpp:77] Creating layer conv4_23_3x3/bn
I0620 04:21:33.953161  2802 net.cpp:106] Creating Layer conv4_23_3x3/bn
I0620 04:21:33.953166  2802 net.cpp:454] conv4_23_3x3/bn <- conv4_23_3x3
I0620 04:21:33.953171  2802 net.cpp:397] conv4_23_3x3/bn -> conv4_23_3x3 (in-place)
I0620 04:21:33.953326  2802 net.cpp:150] Setting up conv4_23_3x3/bn
I0620 04:21:33.953331  2802 net.cpp:157] Top shape: 1 256 41 41 (430336)
I0620 04:21:33.953335  2802 net.cpp:165] Memory required for data: 1532084248
I0620 04:21:33.953339  2802 layer_factory.hpp:77] Creating layer conv4_23_3x3/relu
I0620 04:21:33.953344  2802 net.cpp:106] Creating Layer conv4_23_3x3/relu
I0620 04:21:33.953346  2802 net.cpp:454] conv4_23_3x3/relu <- conv4_23_3x3
I0620 04:21:33.953351  2802 net.cpp:397] conv4_23_3x3/relu -> conv4_23_3x3 (in-place)
I0620 04:21:33.953354  2802 net.cpp:150] Setting up conv4_23_3x3/relu
I0620 04:21:33.953357  2802 net.cpp:157] Top shape: 1 256 41 41 (430336)
I0620 04:21:33.953361  2802 net.cpp:165] Memory required for data: 1533805592
I0620 04:21:33.953362  2802 layer_factory.hpp:77] Creating layer conv4_23_1x1_increase
I0620 04:21:33.953369  2802 net.cpp:106] Creating Layer conv4_23_1x1_increase
I0620 04:21:33.953372  2802 net.cpp:454] conv4_23_1x1_increase <- conv4_23_3x3
I0620 04:21:33.953377  2802 net.cpp:411] conv4_23_1x1_increase -> conv4_23_1x1_increase
I0620 04:21:33.960644  2802 net.cpp:150] Setting up conv4_23_1x1_increase
I0620 04:21:33.960716  2802 net.cpp:157] Top shape: 1 1024 41 41 (1721344)
I0620 04:21:33.960722  2802 net.cpp:165] Memory required for data: 1540690968
I0620 04:21:33.960737  2802 layer_factory.hpp:77] Creating layer conv4_23_1x1_increase/bn
I0620 04:21:33.960762  2802 net.cpp:106] Creating Layer conv4_23_1x1_increase/bn
I0620 04:21:33.960772  2802 net.cpp:454] conv4_23_1x1_increase/bn <- conv4_23_1x1_increase
I0620 04:21:33.960783  2802 net.cpp:397] conv4_23_1x1_increase/bn -> conv4_23_1x1_increase (in-place)
I0620 04:21:33.961062  2802 net.cpp:150] Setting up conv4_23_1x1_increase/bn
I0620 04:21:33.961074  2802 net.cpp:157] Top shape: 1 1024 41 41 (1721344)
I0620 04:21:33.961078  2802 net.cpp:165] Memory required for data: 1547576344
I0620 04:21:33.961089  2802 layer_factory.hpp:77] Creating layer conv4_23
I0620 04:21:33.961102  2802 net.cpp:106] Creating Layer conv4_23
I0620 04:21:33.961110  2802 net.cpp:454] conv4_23 <- conv4_22_conv4_22/relu_0_split_1
I0620 04:21:33.961115  2802 net.cpp:454] conv4_23 <- conv4_23_1x1_increase
I0620 04:21:33.961122  2802 net.cpp:411] conv4_23 -> conv4_23
I0620 04:21:33.961148  2802 net.cpp:150] Setting up conv4_23
I0620 04:21:33.961154  2802 net.cpp:157] Top shape: 1 1024 41 41 (1721344)
I0620 04:21:33.961158  2802 net.cpp:165] Memory required for data: 1554461720
I0620 04:21:33.961163  2802 layer_factory.hpp:77] Creating layer conv4_23/relu
I0620 04:21:33.961171  2802 net.cpp:106] Creating Layer conv4_23/relu
I0620 04:21:33.961177  2802 net.cpp:454] conv4_23/relu <- conv4_23
I0620 04:21:33.961182  2802 net.cpp:397] conv4_23/relu -> conv4_23 (in-place)
I0620 04:21:33.961190  2802 net.cpp:150] Setting up conv4_23/relu
I0620 04:21:33.961195  2802 net.cpp:157] Top shape: 1 1024 41 41 (1721344)
I0620 04:21:33.961199  2802 net.cpp:165] Memory required for data: 1561347096
I0620 04:21:33.961203  2802 layer_factory.hpp:77] Creating layer conv4_23_conv4_23/relu_0_split
I0620 04:21:33.961212  2802 net.cpp:106] Creating Layer conv4_23_conv4_23/relu_0_split
I0620 04:21:33.961216  2802 net.cpp:454] conv4_23_conv4_23/relu_0_split <- conv4_23
I0620 04:21:33.961222  2802 net.cpp:411] conv4_23_conv4_23/relu_0_split -> conv4_23_conv4_23/relu_0_split_0
I0620 04:21:33.961230  2802 net.cpp:411] conv4_23_conv4_23/relu_0_split -> conv4_23_conv4_23/relu_0_split_1
I0620 04:21:33.961266  2802 net.cpp:150] Setting up conv4_23_conv4_23/relu_0_split
I0620 04:21:33.961321  2802 net.cpp:157] Top shape: 1 1024 41 41 (1721344)
I0620 04:21:33.961328  2802 net.cpp:157] Top shape: 1 1024 41 41 (1721344)
I0620 04:21:33.961331  2802 net.cpp:165] Memory required for data: 1575117848
I0620 04:21:33.961335  2802 layer_factory.hpp:77] Creating layer conv5_1_1x1_reduce
I0620 04:21:33.961350  2802 net.cpp:106] Creating Layer conv5_1_1x1_reduce
I0620 04:21:33.961354  2802 net.cpp:454] conv5_1_1x1_reduce <- conv4_23_conv4_23/relu_0_split_0
I0620 04:21:33.961364  2802 net.cpp:411] conv5_1_1x1_reduce -> conv5_1_1x1_reduce
I0620 04:21:33.976990  2802 net.cpp:150] Setting up conv5_1_1x1_reduce
I0620 04:21:33.977020  2802 net.cpp:157] Top shape: 1 512 41 41 (860672)
I0620 04:21:33.977025  2802 net.cpp:165] Memory required for data: 1578560536
I0620 04:21:33.977038  2802 layer_factory.hpp:77] Creating layer conv5_1_1x1_reduce/bn
I0620 04:21:33.977051  2802 net.cpp:106] Creating Layer conv5_1_1x1_reduce/bn
I0620 04:21:33.977056  2802 net.cpp:454] conv5_1_1x1_reduce/bn <- conv5_1_1x1_reduce
I0620 04:21:33.977062  2802 net.cpp:397] conv5_1_1x1_reduce/bn -> conv5_1_1x1_reduce (in-place)
I0620 04:21:33.977257  2802 net.cpp:150] Setting up conv5_1_1x1_reduce/bn
I0620 04:21:33.977262  2802 net.cpp:157] Top shape: 1 512 41 41 (860672)
I0620 04:21:33.977263  2802 net.cpp:165] Memory required for data: 1582003224
I0620 04:21:33.977269  2802 layer_factory.hpp:77] Creating layer conv5_1_1x1_reduce/relu
I0620 04:21:33.977274  2802 net.cpp:106] Creating Layer conv5_1_1x1_reduce/relu
I0620 04:21:33.977277  2802 net.cpp:454] conv5_1_1x1_reduce/relu <- conv5_1_1x1_reduce
I0620 04:21:33.977280  2802 net.cpp:397] conv5_1_1x1_reduce/relu -> conv5_1_1x1_reduce (in-place)
I0620 04:21:33.977284  2802 net.cpp:150] Setting up conv5_1_1x1_reduce/relu
I0620 04:21:33.977288  2802 net.cpp:157] Top shape: 1 512 41 41 (860672)
I0620 04:21:33.977290  2802 net.cpp:165] Memory required for data: 1585445912
I0620 04:21:33.977293  2802 layer_factory.hpp:77] Creating layer conv5_1_3x3
I0620 04:21:33.977306  2802 net.cpp:106] Creating Layer conv5_1_3x3
I0620 04:21:33.977309  2802 net.cpp:454] conv5_1_3x3 <- conv5_1_1x1_reduce
I0620 04:21:33.977313  2802 net.cpp:411] conv5_1_3x3 -> conv5_1_3x3
I0620 04:21:34.033917  2802 net.cpp:150] Setting up conv5_1_3x3
I0620 04:21:34.033939  2802 net.cpp:157] Top shape: 1 512 41 41 (860672)
I0620 04:21:34.033943  2802 net.cpp:165] Memory required for data: 1588888600
I0620 04:21:34.033951  2802 layer_factory.hpp:77] Creating layer conv5_1_3x3/bn
I0620 04:21:34.033965  2802 net.cpp:106] Creating Layer conv5_1_3x3/bn
I0620 04:21:34.033970  2802 net.cpp:454] conv5_1_3x3/bn <- conv5_1_3x3
I0620 04:21:34.033975  2802 net.cpp:397] conv5_1_3x3/bn -> conv5_1_3x3 (in-place)
I0620 04:21:34.034164  2802 net.cpp:150] Setting up conv5_1_3x3/bn
I0620 04:21:34.034170  2802 net.cpp:157] Top shape: 1 512 41 41 (860672)
I0620 04:21:34.034173  2802 net.cpp:165] Memory required for data: 1592331288
I0620 04:21:34.034178  2802 layer_factory.hpp:77] Creating layer conv5_1_3x3/relu
I0620 04:21:34.034183  2802 net.cpp:106] Creating Layer conv5_1_3x3/relu
I0620 04:21:34.034186  2802 net.cpp:454] conv5_1_3x3/relu <- conv5_1_3x3
I0620 04:21:34.034189  2802 net.cpp:397] conv5_1_3x3/relu -> conv5_1_3x3 (in-place)
I0620 04:21:34.034194  2802 net.cpp:150] Setting up conv5_1_3x3/relu
I0620 04:21:34.034198  2802 net.cpp:157] Top shape: 1 512 41 41 (860672)
I0620 04:21:34.034200  2802 net.cpp:165] Memory required for data: 1595773976
I0620 04:21:34.034202  2802 layer_factory.hpp:77] Creating layer conv5_1_1x1_increase
I0620 04:21:34.034209  2802 net.cpp:106] Creating Layer conv5_1_1x1_increase
I0620 04:21:34.034211  2802 net.cpp:454] conv5_1_1x1_increase <- conv5_1_3x3
I0620 04:21:34.034216  2802 net.cpp:411] conv5_1_1x1_increase -> conv5_1_1x1_increase
I0620 04:21:34.061301  2802 net.cpp:150] Setting up conv5_1_1x1_increase
I0620 04:21:34.061328  2802 net.cpp:157] Top shape: 1 2048 41 41 (3442688)
I0620 04:21:34.061331  2802 net.cpp:165] Memory required for data: 1609544728
I0620 04:21:34.061357  2802 layer_factory.hpp:77] Creating layer conv5_1_1x1_increase/bn
I0620 04:21:34.061367  2802 net.cpp:106] Creating Layer conv5_1_1x1_increase/bn
I0620 04:21:34.061372  2802 net.cpp:454] conv5_1_1x1_increase/bn <- conv5_1_1x1_increase
I0620 04:21:34.061378  2802 net.cpp:397] conv5_1_1x1_increase/bn -> conv5_1_1x1_increase (in-place)
I0620 04:21:34.061570  2802 net.cpp:150] Setting up conv5_1_1x1_increase/bn
I0620 04:21:34.061575  2802 net.cpp:157] Top shape: 1 2048 41 41 (3442688)
I0620 04:21:34.061578  2802 net.cpp:165] Memory required for data: 1623315480
I0620 04:21:34.061583  2802 layer_factory.hpp:77] Creating layer conv5_1_1x1_proj
I0620 04:21:34.061590  2802 net.cpp:106] Creating Layer conv5_1_1x1_proj
I0620 04:21:34.061594  2802 net.cpp:454] conv5_1_1x1_proj <- conv4_23_conv4_23/relu_0_split_1
I0620 04:21:34.061599  2802 net.cpp:411] conv5_1_1x1_proj -> conv5_1_1x1_proj
I0620 04:21:34.112244  2802 net.cpp:150] Setting up conv5_1_1x1_proj
I0620 04:21:34.112267  2802 net.cpp:157] Top shape: 1 2048 41 41 (3442688)
I0620 04:21:34.112270  2802 net.cpp:165] Memory required for data: 1637086232
I0620 04:21:34.112279  2802 layer_factory.hpp:77] Creating layer conv5_1_1x1_proj/bn
I0620 04:21:34.112293  2802 net.cpp:106] Creating Layer conv5_1_1x1_proj/bn
I0620 04:21:34.112300  2802 net.cpp:454] conv5_1_1x1_proj/bn <- conv5_1_1x1_proj
I0620 04:21:34.112305  2802 net.cpp:397] conv5_1_1x1_proj/bn -> conv5_1_1x1_proj (in-place)
I0620 04:21:34.112490  2802 net.cpp:150] Setting up conv5_1_1x1_proj/bn
I0620 04:21:34.112495  2802 net.cpp:157] Top shape: 1 2048 41 41 (3442688)
I0620 04:21:34.112498  2802 net.cpp:165] Memory required for data: 1650856984
I0620 04:21:34.112504  2802 layer_factory.hpp:77] Creating layer conv5_1
I0620 04:21:34.112509  2802 net.cpp:106] Creating Layer conv5_1
I0620 04:21:34.112511  2802 net.cpp:454] conv5_1 <- conv5_1_1x1_proj
I0620 04:21:34.112516  2802 net.cpp:454] conv5_1 <- conv5_1_1x1_increase
I0620 04:21:34.112519  2802 net.cpp:411] conv5_1 -> conv5_1
I0620 04:21:34.112538  2802 net.cpp:150] Setting up conv5_1
I0620 04:21:34.112542  2802 net.cpp:157] Top shape: 1 2048 41 41 (3442688)
I0620 04:21:34.112545  2802 net.cpp:165] Memory required for data: 1664627736
I0620 04:21:34.112547  2802 layer_factory.hpp:77] Creating layer conv5_1/relu
I0620 04:21:34.112553  2802 net.cpp:106] Creating Layer conv5_1/relu
I0620 04:21:34.112556  2802 net.cpp:454] conv5_1/relu <- conv5_1
I0620 04:21:34.112560  2802 net.cpp:397] conv5_1/relu -> conv5_1 (in-place)
I0620 04:21:34.112563  2802 net.cpp:150] Setting up conv5_1/relu
I0620 04:21:34.112566  2802 net.cpp:157] Top shape: 1 2048 41 41 (3442688)
I0620 04:21:34.112570  2802 net.cpp:165] Memory required for data: 1678398488
I0620 04:21:34.112571  2802 layer_factory.hpp:77] Creating layer conv5_1_conv5_1/relu_0_split
I0620 04:21:34.112576  2802 net.cpp:106] Creating Layer conv5_1_conv5_1/relu_0_split
I0620 04:21:34.112578  2802 net.cpp:454] conv5_1_conv5_1/relu_0_split <- conv5_1
I0620 04:21:34.112582  2802 net.cpp:411] conv5_1_conv5_1/relu_0_split -> conv5_1_conv5_1/relu_0_split_0
I0620 04:21:34.112587  2802 net.cpp:411] conv5_1_conv5_1/relu_0_split -> conv5_1_conv5_1/relu_0_split_1
I0620 04:21:34.112612  2802 net.cpp:150] Setting up conv5_1_conv5_1/relu_0_split
I0620 04:21:34.112615  2802 net.cpp:157] Top shape: 1 2048 41 41 (3442688)
I0620 04:21:34.112618  2802 net.cpp:157] Top shape: 1 2048 41 41 (3442688)
I0620 04:21:34.112622  2802 net.cpp:165] Memory required for data: 1705939992
I0620 04:21:34.112624  2802 layer_factory.hpp:77] Creating layer conv5_2_1x1_reduce
I0620 04:21:34.112632  2802 net.cpp:106] Creating Layer conv5_2_1x1_reduce
I0620 04:21:34.112634  2802 net.cpp:454] conv5_2_1x1_reduce <- conv5_1_conv5_1/relu_0_split_0
I0620 04:21:34.112638  2802 net.cpp:411] conv5_2_1x1_reduce -> conv5_2_1x1_reduce
I0620 04:21:34.137127  2802 net.cpp:150] Setting up conv5_2_1x1_reduce
I0620 04:21:34.137219  2802 net.cpp:157] Top shape: 1 512 41 41 (860672)
I0620 04:21:34.137230  2802 net.cpp:165] Memory required for data: 1709382680
I0620 04:21:34.137316  2802 layer_factory.hpp:77] Creating layer conv5_2_1x1_reduce/bn
I0620 04:21:34.137349  2802 net.cpp:106] Creating Layer conv5_2_1x1_reduce/bn
I0620 04:21:34.137361  2802 net.cpp:454] conv5_2_1x1_reduce/bn <- conv5_2_1x1_reduce
I0620 04:21:34.137372  2802 net.cpp:397] conv5_2_1x1_reduce/bn -> conv5_2_1x1_reduce (in-place)
I0620 04:21:34.137691  2802 net.cpp:150] Setting up conv5_2_1x1_reduce/bn
I0620 04:21:34.137698  2802 net.cpp:157] Top shape: 1 512 41 41 (860672)
I0620 04:21:34.137704  2802 net.cpp:165] Memory required for data: 1712825368
I0620 04:21:34.137719  2802 layer_factory.hpp:77] Creating layer conv5_2_1x1_reduce/relu
I0620 04:21:34.137732  2802 net.cpp:106] Creating Layer conv5_2_1x1_reduce/relu
I0620 04:21:34.137735  2802 net.cpp:454] conv5_2_1x1_reduce/relu <- conv5_2_1x1_reduce
I0620 04:21:34.137740  2802 net.cpp:397] conv5_2_1x1_reduce/relu -> conv5_2_1x1_reduce (in-place)
I0620 04:21:34.137748  2802 net.cpp:150] Setting up conv5_2_1x1_reduce/relu
I0620 04:21:34.137781  2802 net.cpp:157] Top shape: 1 512 41 41 (860672)
I0620 04:21:34.137784  2802 net.cpp:165] Memory required for data: 1716268056
I0620 04:21:34.137789  2802 layer_factory.hpp:77] Creating layer conv5_2_3x3
I0620 04:21:34.137806  2802 net.cpp:106] Creating Layer conv5_2_3x3
I0620 04:21:34.137810  2802 net.cpp:454] conv5_2_3x3 <- conv5_2_1x1_reduce
I0620 04:21:34.137818  2802 net.cpp:411] conv5_2_3x3 -> conv5_2_3x3
I0620 04:21:34.203568  2802 net.cpp:150] Setting up conv5_2_3x3
I0620 04:21:34.203596  2802 net.cpp:157] Top shape: 1 512 41 41 (860672)
I0620 04:21:34.203601  2802 net.cpp:165] Memory required for data: 1719710744
I0620 04:21:34.203613  2802 layer_factory.hpp:77] Creating layer conv5_2_3x3/bn
I0620 04:21:34.203632  2802 net.cpp:106] Creating Layer conv5_2_3x3/bn
I0620 04:21:34.203639  2802 net.cpp:454] conv5_2_3x3/bn <- conv5_2_3x3
I0620 04:21:34.203644  2802 net.cpp:397] conv5_2_3x3/bn -> conv5_2_3x3 (in-place)
I0620 04:21:34.203833  2802 net.cpp:150] Setting up conv5_2_3x3/bn
I0620 04:21:34.203837  2802 net.cpp:157] Top shape: 1 512 41 41 (860672)
I0620 04:21:34.203840  2802 net.cpp:165] Memory required for data: 1723153432
I0620 04:21:34.203846  2802 layer_factory.hpp:77] Creating layer conv5_2_3x3/relu
I0620 04:21:34.203851  2802 net.cpp:106] Creating Layer conv5_2_3x3/relu
I0620 04:21:34.203855  2802 net.cpp:454] conv5_2_3x3/relu <- conv5_2_3x3
I0620 04:21:34.203857  2802 net.cpp:397] conv5_2_3x3/relu -> conv5_2_3x3 (in-place)
I0620 04:21:34.203861  2802 net.cpp:150] Setting up conv5_2_3x3/relu
I0620 04:21:34.203866  2802 net.cpp:157] Top shape: 1 512 41 41 (860672)
I0620 04:21:34.203867  2802 net.cpp:165] Memory required for data: 1726596120
I0620 04:21:34.203871  2802 layer_factory.hpp:77] Creating layer conv5_2_1x1_increase
I0620 04:21:34.203878  2802 net.cpp:106] Creating Layer conv5_2_1x1_increase
I0620 04:21:34.203881  2802 net.cpp:454] conv5_2_1x1_increase <- conv5_2_3x3
I0620 04:21:34.203888  2802 net.cpp:411] conv5_2_1x1_increase -> conv5_2_1x1_increase
I0620 04:21:34.230527  2802 net.cpp:150] Setting up conv5_2_1x1_increase
I0620 04:21:34.230600  2802 net.cpp:157] Top shape: 1 2048 41 41 (3442688)
I0620 04:21:34.230608  2802 net.cpp:165] Memory required for data: 1740366872
I0620 04:21:34.230626  2802 layer_factory.hpp:77] Creating layer conv5_2_1x1_increase/bn
I0620 04:21:34.230654  2802 net.cpp:106] Creating Layer conv5_2_1x1_increase/bn
I0620 04:21:34.230669  2802 net.cpp:454] conv5_2_1x1_increase/bn <- conv5_2_1x1_increase
I0620 04:21:34.230684  2802 net.cpp:397] conv5_2_1x1_increase/bn -> conv5_2_1x1_increase (in-place)
I0620 04:21:34.231027  2802 net.cpp:150] Setting up conv5_2_1x1_increase/bn
I0620 04:21:34.231037  2802 net.cpp:157] Top shape: 1 2048 41 41 (3442688)
I0620 04:21:34.231041  2802 net.cpp:165] Memory required for data: 1754137624
I0620 04:21:34.231178  2802 layer_factory.hpp:77] Creating layer conv5_2
I0620 04:21:34.231190  2802 net.cpp:106] Creating Layer conv5_2
I0620 04:21:34.231197  2802 net.cpp:454] conv5_2 <- conv5_1_conv5_1/relu_0_split_1
I0620 04:21:34.231204  2802 net.cpp:454] conv5_2 <- conv5_2_1x1_increase
I0620 04:21:34.231266  2802 net.cpp:411] conv5_2 -> conv5_2
I0620 04:21:34.231300  2802 net.cpp:150] Setting up conv5_2
I0620 04:21:34.231307  2802 net.cpp:157] Top shape: 1 2048 41 41 (3442688)
I0620 04:21:34.231312  2802 net.cpp:165] Memory required for data: 1767908376
I0620 04:21:34.231315  2802 layer_factory.hpp:77] Creating layer conv5_2/relu
I0620 04:21:34.231328  2802 net.cpp:106] Creating Layer conv5_2/relu
I0620 04:21:34.231331  2802 net.cpp:454] conv5_2/relu <- conv5_2
I0620 04:21:34.231336  2802 net.cpp:397] conv5_2/relu -> conv5_2 (in-place)
I0620 04:21:34.231343  2802 net.cpp:150] Setting up conv5_2/relu
I0620 04:21:34.231348  2802 net.cpp:157] Top shape: 1 2048 41 41 (3442688)
I0620 04:21:34.231353  2802 net.cpp:165] Memory required for data: 1781679128
I0620 04:21:34.231358  2802 layer_factory.hpp:77] Creating layer conv5_2_conv5_2/relu_0_split
I0620 04:21:34.231366  2802 net.cpp:106] Creating Layer conv5_2_conv5_2/relu_0_split
I0620 04:21:34.231371  2802 net.cpp:454] conv5_2_conv5_2/relu_0_split <- conv5_2
I0620 04:21:34.231377  2802 net.cpp:411] conv5_2_conv5_2/relu_0_split -> conv5_2_conv5_2/relu_0_split_0
I0620 04:21:34.231384  2802 net.cpp:411] conv5_2_conv5_2/relu_0_split -> conv5_2_conv5_2/relu_0_split_1
I0620 04:21:34.231417  2802 net.cpp:150] Setting up conv5_2_conv5_2/relu_0_split
I0620 04:21:34.231426  2802 net.cpp:157] Top shape: 1 2048 41 41 (3442688)
I0620 04:21:34.231431  2802 net.cpp:157] Top shape: 1 2048 41 41 (3442688)
I0620 04:21:34.231434  2802 net.cpp:165] Memory required for data: 1809220632
I0620 04:21:34.231439  2802 layer_factory.hpp:77] Creating layer conv5_3_1x1_reduce
I0620 04:21:34.231451  2802 net.cpp:106] Creating Layer conv5_3_1x1_reduce
I0620 04:21:34.231456  2802 net.cpp:454] conv5_3_1x1_reduce <- conv5_2_conv5_2/relu_0_split_0
I0620 04:21:34.231463  2802 net.cpp:411] conv5_3_1x1_reduce -> conv5_3_1x1_reduce
I0620 04:21:34.257040  2802 net.cpp:150] Setting up conv5_3_1x1_reduce
I0620 04:21:34.257062  2802 net.cpp:157] Top shape: 1 512 41 41 (860672)
I0620 04:21:34.257066  2802 net.cpp:165] Memory required for data: 1812663320
I0620 04:21:34.257072  2802 layer_factory.hpp:77] Creating layer conv5_3_1x1_reduce/bn
I0620 04:21:34.257081  2802 net.cpp:106] Creating Layer conv5_3_1x1_reduce/bn
I0620 04:21:34.257087  2802 net.cpp:454] conv5_3_1x1_reduce/bn <- conv5_3_1x1_reduce
I0620 04:21:34.257093  2802 net.cpp:397] conv5_3_1x1_reduce/bn -> conv5_3_1x1_reduce (in-place)
I0620 04:21:34.257292  2802 net.cpp:150] Setting up conv5_3_1x1_reduce/bn
I0620 04:21:34.257297  2802 net.cpp:157] Top shape: 1 512 41 41 (860672)
I0620 04:21:34.257299  2802 net.cpp:165] Memory required for data: 1816106008
I0620 04:21:34.257305  2802 layer_factory.hpp:77] Creating layer conv5_3_1x1_reduce/relu
I0620 04:21:34.257311  2802 net.cpp:106] Creating Layer conv5_3_1x1_reduce/relu
I0620 04:21:34.257314  2802 net.cpp:454] conv5_3_1x1_reduce/relu <- conv5_3_1x1_reduce
I0620 04:21:34.257318  2802 net.cpp:397] conv5_3_1x1_reduce/relu -> conv5_3_1x1_reduce (in-place)
I0620 04:21:34.257323  2802 net.cpp:150] Setting up conv5_3_1x1_reduce/relu
I0620 04:21:34.257325  2802 net.cpp:157] Top shape: 1 512 41 41 (860672)
I0620 04:21:34.257328  2802 net.cpp:165] Memory required for data: 1819548696
I0620 04:21:34.257330  2802 layer_factory.hpp:77] Creating layer conv5_3_3x3
I0620 04:21:34.257338  2802 net.cpp:106] Creating Layer conv5_3_3x3
I0620 04:21:34.257339  2802 net.cpp:454] conv5_3_3x3 <- conv5_3_1x1_reduce
I0620 04:21:34.257344  2802 net.cpp:411] conv5_3_3x3 -> conv5_3_3x3
I0620 04:21:34.317042  2802 net.cpp:150] Setting up conv5_3_3x3
I0620 04:21:34.317127  2802 net.cpp:157] Top shape: 1 512 41 41 (860672)
I0620 04:21:34.317152  2802 net.cpp:165] Memory required for data: 1822991384
I0620 04:21:34.317170  2802 layer_factory.hpp:77] Creating layer conv5_3_3x3/bn
I0620 04:21:34.317203  2802 net.cpp:106] Creating Layer conv5_3_3x3/bn
I0620 04:21:34.317217  2802 net.cpp:454] conv5_3_3x3/bn <- conv5_3_3x3
I0620 04:21:34.317232  2802 net.cpp:397] conv5_3_3x3/bn -> conv5_3_3x3 (in-place)
I0620 04:21:34.317601  2802 net.cpp:150] Setting up conv5_3_3x3/bn
I0620 04:21:34.317608  2802 net.cpp:157] Top shape: 1 512 41 41 (860672)
I0620 04:21:34.317612  2802 net.cpp:165] Memory required for data: 1826434072
I0620 04:21:34.317627  2802 layer_factory.hpp:77] Creating layer conv5_3_3x3/relu
I0620 04:21:34.317643  2802 net.cpp:106] Creating Layer conv5_3_3x3/relu
I0620 04:21:34.317667  2802 net.cpp:454] conv5_3_3x3/relu <- conv5_3_3x3
I0620 04:21:34.317675  2802 net.cpp:397] conv5_3_3x3/relu -> conv5_3_3x3 (in-place)
I0620 04:21:34.317688  2802 net.cpp:150] Setting up conv5_3_3x3/relu
I0620 04:21:34.317695  2802 net.cpp:157] Top shape: 1 512 41 41 (860672)
I0620 04:21:34.317701  2802 net.cpp:165] Memory required for data: 1829876760
I0620 04:21:34.317708  2802 layer_factory.hpp:77] Creating layer conv5_3_1x1_increase
I0620 04:21:34.317724  2802 net.cpp:106] Creating Layer conv5_3_1x1_increase
I0620 04:21:34.317733  2802 net.cpp:454] conv5_3_1x1_increase <- conv5_3_3x3
I0620 04:21:34.317745  2802 net.cpp:411] conv5_3_1x1_increase -> conv5_3_1x1_increase
I0620 04:21:34.343612  2802 net.cpp:150] Setting up conv5_3_1x1_increase
I0620 04:21:34.343632  2802 net.cpp:157] Top shape: 1 2048 41 41 (3442688)
I0620 04:21:34.343636  2802 net.cpp:165] Memory required for data: 1843647512
I0620 04:21:34.343641  2802 layer_factory.hpp:77] Creating layer conv5_3_1x1_increase/bn
I0620 04:21:34.343652  2802 net.cpp:106] Creating Layer conv5_3_1x1_increase/bn
I0620 04:21:34.343657  2802 net.cpp:454] conv5_3_1x1_increase/bn <- conv5_3_1x1_increase
I0620 04:21:34.343662  2802 net.cpp:397] conv5_3_1x1_increase/bn -> conv5_3_1x1_increase (in-place)
I0620 04:21:34.343849  2802 net.cpp:150] Setting up conv5_3_1x1_increase/bn
I0620 04:21:34.343854  2802 net.cpp:157] Top shape: 1 2048 41 41 (3442688)
I0620 04:21:34.343857  2802 net.cpp:165] Memory required for data: 1857418264
I0620 04:21:34.343861  2802 layer_factory.hpp:77] Creating layer conv5_3
I0620 04:21:34.343865  2802 net.cpp:106] Creating Layer conv5_3
I0620 04:21:34.343868  2802 net.cpp:454] conv5_3 <- conv5_2_conv5_2/relu_0_split_1
I0620 04:21:34.343871  2802 net.cpp:454] conv5_3 <- conv5_3_1x1_increase
I0620 04:21:34.343874  2802 net.cpp:411] conv5_3 -> conv5_3
I0620 04:21:34.343893  2802 net.cpp:150] Setting up conv5_3
I0620 04:21:34.343896  2802 net.cpp:157] Top shape: 1 2048 41 41 (3442688)
I0620 04:21:34.343899  2802 net.cpp:165] Memory required for data: 1871189016
I0620 04:21:34.343900  2802 layer_factory.hpp:77] Creating layer conv5_3/relu
I0620 04:21:34.343905  2802 net.cpp:106] Creating Layer conv5_3/relu
I0620 04:21:34.343907  2802 net.cpp:454] conv5_3/relu <- conv5_3
I0620 04:21:34.343910  2802 net.cpp:397] conv5_3/relu -> conv5_3 (in-place)
I0620 04:21:34.343914  2802 net.cpp:150] Setting up conv5_3/relu
I0620 04:21:34.343916  2802 net.cpp:157] Top shape: 1 2048 41 41 (3442688)
I0620 04:21:34.343919  2802 net.cpp:165] Memory required for data: 1884959768
I0620 04:21:34.343920  2802 layer_factory.hpp:77] Creating layer conv5_3_conv5_3/relu_0_split
I0620 04:21:34.343924  2802 net.cpp:106] Creating Layer conv5_3_conv5_3/relu_0_split
I0620 04:21:34.343926  2802 net.cpp:454] conv5_3_conv5_3/relu_0_split <- conv5_3
I0620 04:21:34.343930  2802 net.cpp:411] conv5_3_conv5_3/relu_0_split -> conv5_3_conv5_3/relu_0_split_0
I0620 04:21:34.343933  2802 net.cpp:411] conv5_3_conv5_3/relu_0_split -> conv5_3_conv5_3/relu_0_split_1
I0620 04:21:34.343937  2802 net.cpp:411] conv5_3_conv5_3/relu_0_split -> conv5_3_conv5_3/relu_0_split_2
I0620 04:21:34.343940  2802 net.cpp:411] conv5_3_conv5_3/relu_0_split -> conv5_3_conv5_3/relu_0_split_3
I0620 04:21:34.343945  2802 net.cpp:411] conv5_3_conv5_3/relu_0_split -> conv5_3_conv5_3/relu_0_split_4
I0620 04:21:34.343997  2802 net.cpp:150] Setting up conv5_3_conv5_3/relu_0_split
I0620 04:21:34.344002  2802 net.cpp:157] Top shape: 1 2048 41 41 (3442688)
I0620 04:21:34.344003  2802 net.cpp:157] Top shape: 1 2048 41 41 (3442688)
I0620 04:21:34.344007  2802 net.cpp:157] Top shape: 1 2048 41 41 (3442688)
I0620 04:21:34.344008  2802 net.cpp:157] Top shape: 1 2048 41 41 (3442688)
I0620 04:21:34.344024  2802 net.cpp:157] Top shape: 1 2048 41 41 (3442688)
I0620 04:21:34.344027  2802 net.cpp:165] Memory required for data: 1953813528
I0620 04:21:34.344028  2802 layer_factory.hpp:77] Creating layer conv5_3_pool1
I0620 04:21:34.344033  2802 net.cpp:106] Creating Layer conv5_3_pool1
I0620 04:21:34.344035  2802 net.cpp:454] conv5_3_pool1 <- conv5_3_conv5_3/relu_0_split_0
I0620 04:21:34.344040  2802 net.cpp:411] conv5_3_pool1 -> conv5_3_pool1
I0620 04:21:34.344056  2802 net.cpp:150] Setting up conv5_3_pool1
I0620 04:21:34.344061  2802 net.cpp:157] Top shape: 1 2048 1 1 (2048)
I0620 04:21:34.344064  2802 net.cpp:165] Memory required for data: 1953821720
I0620 04:21:34.344068  2802 layer_factory.hpp:77] Creating layer conv5_3_pool1_conv
I0620 04:21:34.344074  2802 net.cpp:106] Creating Layer conv5_3_pool1_conv
I0620 04:21:34.344076  2802 net.cpp:454] conv5_3_pool1_conv <- conv5_3_pool1
I0620 04:21:34.344080  2802 net.cpp:411] conv5_3_pool1_conv -> conv5_3_pool1_conv
I0620 04:21:34.371569  2802 net.cpp:150] Setting up conv5_3_pool1_conv
I0620 04:21:34.371594  2802 net.cpp:157] Top shape: 1 512 1 1 (512)
I0620 04:21:34.371598  2802 net.cpp:165] Memory required for data: 1953823768
I0620 04:21:34.371604  2802 layer_factory.hpp:77] Creating layer conv5_3_pool1_conv/bn
I0620 04:21:34.371613  2802 net.cpp:106] Creating Layer conv5_3_pool1_conv/bn
I0620 04:21:34.371620  2802 net.cpp:454] conv5_3_pool1_conv/bn <- conv5_3_pool1_conv
I0620 04:21:34.371628  2802 net.cpp:397] conv5_3_pool1_conv/bn -> conv5_3_pool1_conv (in-place)
I0620 04:21:34.371819  2802 net.cpp:150] Setting up conv5_3_pool1_conv/bn
I0620 04:21:34.371824  2802 net.cpp:157] Top shape: 1 512 1 1 (512)
I0620 04:21:34.371827  2802 net.cpp:165] Memory required for data: 1953825816
I0620 04:21:34.371832  2802 layer_factory.hpp:77] Creating layer conv5_3_pool1_conv/relu
I0620 04:21:34.371839  2802 net.cpp:106] Creating Layer conv5_3_pool1_conv/relu
I0620 04:21:34.371840  2802 net.cpp:454] conv5_3_pool1_conv/relu <- conv5_3_pool1_conv
I0620 04:21:34.371845  2802 net.cpp:397] conv5_3_pool1_conv/relu -> conv5_3_pool1_conv (in-place)
I0620 04:21:34.371850  2802 net.cpp:150] Setting up conv5_3_pool1_conv/relu
I0620 04:21:34.371853  2802 net.cpp:157] Top shape: 1 512 1 1 (512)
I0620 04:21:34.371855  2802 net.cpp:165] Memory required for data: 1953827864
I0620 04:21:34.371858  2802 layer_factory.hpp:77] Creating layer conv5_3_pool1_interp
I0620 04:21:34.371862  2802 net.cpp:106] Creating Layer conv5_3_pool1_interp
I0620 04:21:34.371865  2802 net.cpp:454] conv5_3_pool1_interp <- conv5_3_pool1_conv
I0620 04:21:34.371868  2802 net.cpp:411] conv5_3_pool1_interp -> conv5_3_pool1_interp
I0620 04:21:34.371889  2802 net.cpp:150] Setting up conv5_3_pool1_interp
I0620 04:21:34.371893  2802 net.cpp:157] Top shape: 1 512 60 60 (1843200)
I0620 04:21:34.371896  2802 net.cpp:165] Memory required for data: 1961200664
I0620 04:21:34.371898  2802 layer_factory.hpp:77] Creating layer conv5_3_pool2
I0620 04:21:34.371906  2802 net.cpp:106] Creating Layer conv5_3_pool2
I0620 04:21:34.371908  2802 net.cpp:454] conv5_3_pool2 <- conv5_3_conv5_3/relu_0_split_1
I0620 04:21:34.371913  2802 net.cpp:411] conv5_3_pool2 -> conv5_3_pool2
I0620 04:21:34.371930  2802 net.cpp:150] Setting up conv5_3_pool2
I0620 04:21:34.371934  2802 net.cpp:157] Top shape: 1 2048 2 2 (8192)
I0620 04:21:34.371937  2802 net.cpp:165] Memory required for data: 1961233432
I0620 04:21:34.371939  2802 layer_factory.hpp:77] Creating layer conv5_3_pool2_conv
I0620 04:21:34.371948  2802 net.cpp:106] Creating Layer conv5_3_pool2_conv
I0620 04:21:34.371950  2802 net.cpp:454] conv5_3_pool2_conv <- conv5_3_pool2
I0620 04:21:34.371955  2802 net.cpp:411] conv5_3_pool2_conv -> conv5_3_pool2_conv
I0620 04:21:34.395046  2802 net.cpp:150] Setting up conv5_3_pool2_conv
I0620 04:21:34.395067  2802 net.cpp:157] Top shape: 1 512 2 2 (2048)
I0620 04:21:34.395071  2802 net.cpp:165] Memory required for data: 1961241624
I0620 04:21:34.395078  2802 layer_factory.hpp:77] Creating layer conv5_3_pool2_conv/bn
I0620 04:21:34.395110  2802 net.cpp:106] Creating Layer conv5_3_pool2_conv/bn
I0620 04:21:34.395115  2802 net.cpp:454] conv5_3_pool2_conv/bn <- conv5_3_pool2_conv
I0620 04:21:34.395119  2802 net.cpp:397] conv5_3_pool2_conv/bn -> conv5_3_pool2_conv (in-place)
I0620 04:21:34.395290  2802 net.cpp:150] Setting up conv5_3_pool2_conv/bn
I0620 04:21:34.395295  2802 net.cpp:157] Top shape: 1 512 2 2 (2048)
I0620 04:21:34.395298  2802 net.cpp:165] Memory required for data: 1961249816
I0620 04:21:34.395303  2802 layer_factory.hpp:77] Creating layer conv5_3_pool2_conv/relu
I0620 04:21:34.395308  2802 net.cpp:106] Creating Layer conv5_3_pool2_conv/relu
I0620 04:21:34.395309  2802 net.cpp:454] conv5_3_pool2_conv/relu <- conv5_3_pool2_conv
I0620 04:21:34.395313  2802 net.cpp:397] conv5_3_pool2_conv/relu -> conv5_3_pool2_conv (in-place)
I0620 04:21:34.395315  2802 net.cpp:150] Setting up conv5_3_pool2_conv/relu
I0620 04:21:34.395318  2802 net.cpp:157] Top shape: 1 512 2 2 (2048)
I0620 04:21:34.395320  2802 net.cpp:165] Memory required for data: 1961258008
I0620 04:21:34.395324  2802 layer_factory.hpp:77] Creating layer conv5_3_pool2_interp
I0620 04:21:34.395334  2802 net.cpp:106] Creating Layer conv5_3_pool2_interp
I0620 04:21:34.395337  2802 net.cpp:454] conv5_3_pool2_interp <- conv5_3_pool2_conv
I0620 04:21:34.395342  2802 net.cpp:411] conv5_3_pool2_interp -> conv5_3_pool2_interp
I0620 04:21:34.395360  2802 net.cpp:150] Setting up conv5_3_pool2_interp
I0620 04:21:34.395364  2802 net.cpp:157] Top shape: 1 512 60 60 (1843200)
I0620 04:21:34.395366  2802 net.cpp:165] Memory required for data: 1968630808
I0620 04:21:34.395368  2802 layer_factory.hpp:77] Creating layer conv5_3_pool3
I0620 04:21:34.395372  2802 net.cpp:106] Creating Layer conv5_3_pool3
I0620 04:21:34.395375  2802 net.cpp:454] conv5_3_pool3 <- conv5_3_conv5_3/relu_0_split_2
I0620 04:21:34.395378  2802 net.cpp:411] conv5_3_pool3 -> conv5_3_pool3
I0620 04:21:34.395395  2802 net.cpp:150] Setting up conv5_3_pool3
I0620 04:21:34.395398  2802 net.cpp:157] Top shape: 1 2048 3 3 (18432)
I0620 04:21:34.395401  2802 net.cpp:165] Memory required for data: 1968704536
I0620 04:21:34.395403  2802 layer_factory.hpp:77] Creating layer conv5_3_pool3_conv
I0620 04:21:34.395411  2802 net.cpp:106] Creating Layer conv5_3_pool3_conv
I0620 04:21:34.395412  2802 net.cpp:454] conv5_3_pool3_conv <- conv5_3_pool3
I0620 04:21:34.395416  2802 net.cpp:411] conv5_3_pool3_conv -> conv5_3_pool3_conv
I0620 04:21:34.422921  2802 net.cpp:150] Setting up conv5_3_pool3_conv
I0620 04:21:34.422945  2802 net.cpp:157] Top shape: 1 512 3 3 (4608)
I0620 04:21:34.422946  2802 net.cpp:165] Memory required for data: 1968722968
I0620 04:21:34.422953  2802 layer_factory.hpp:77] Creating layer conv5_3_pool3_conv/bn
I0620 04:21:34.422963  2802 net.cpp:106] Creating Layer conv5_3_pool3_conv/bn
I0620 04:21:34.422968  2802 net.cpp:454] conv5_3_pool3_conv/bn <- conv5_3_pool3_conv
I0620 04:21:34.422974  2802 net.cpp:397] conv5_3_pool3_conv/bn -> conv5_3_pool3_conv (in-place)
I0620 04:21:34.423187  2802 net.cpp:150] Setting up conv5_3_pool3_conv/bn
I0620 04:21:34.423192  2802 net.cpp:157] Top shape: 1 512 3 3 (4608)
I0620 04:21:34.423193  2802 net.cpp:165] Memory required for data: 1968741400
I0620 04:21:34.423198  2802 layer_factory.hpp:77] Creating layer conv5_3_pool3_conv/relu
I0620 04:21:34.423202  2802 net.cpp:106] Creating Layer conv5_3_pool3_conv/relu
I0620 04:21:34.423204  2802 net.cpp:454] conv5_3_pool3_conv/relu <- conv5_3_pool3_conv
I0620 04:21:34.423208  2802 net.cpp:397] conv5_3_pool3_conv/relu -> conv5_3_pool3_conv (in-place)
I0620 04:21:34.423213  2802 net.cpp:150] Setting up conv5_3_pool3_conv/relu
I0620 04:21:34.423215  2802 net.cpp:157] Top shape: 1 512 3 3 (4608)
I0620 04:21:34.423216  2802 net.cpp:165] Memory required for data: 1968759832
I0620 04:21:34.423220  2802 layer_factory.hpp:77] Creating layer conv5_3_pool3_interp
I0620 04:21:34.423225  2802 net.cpp:106] Creating Layer conv5_3_pool3_interp
I0620 04:21:34.423228  2802 net.cpp:454] conv5_3_pool3_interp <- conv5_3_pool3_conv
I0620 04:21:34.423231  2802 net.cpp:411] conv5_3_pool3_interp -> conv5_3_pool3_interp
I0620 04:21:34.423269  2802 net.cpp:150] Setting up conv5_3_pool3_interp
I0620 04:21:34.423272  2802 net.cpp:157] Top shape: 1 512 60 60 (1843200)
I0620 04:21:34.423275  2802 net.cpp:165] Memory required for data: 1976132632
I0620 04:21:34.423277  2802 layer_factory.hpp:77] Creating layer conv5_3_pool6
I0620 04:21:34.423285  2802 net.cpp:106] Creating Layer conv5_3_pool6
I0620 04:21:34.423288  2802 net.cpp:454] conv5_3_pool6 <- conv5_3_conv5_3/relu_0_split_3
I0620 04:21:34.423292  2802 net.cpp:411] conv5_3_pool6 -> conv5_3_pool6
I0620 04:21:34.423313  2802 net.cpp:150] Setting up conv5_3_pool6
I0620 04:21:34.423317  2802 net.cpp:157] Top shape: 1 2048 5 5 (51200)
I0620 04:21:34.423321  2802 net.cpp:165] Memory required for data: 1976337432
I0620 04:21:34.423322  2802 layer_factory.hpp:77] Creating layer conv5_3_pool6_conv
I0620 04:21:34.423332  2802 net.cpp:106] Creating Layer conv5_3_pool6_conv
I0620 04:21:34.423336  2802 net.cpp:454] conv5_3_pool6_conv <- conv5_3_pool6
I0620 04:21:34.423339  2802 net.cpp:411] conv5_3_pool6_conv -> conv5_3_pool6_conv
I0620 04:21:34.449470  2802 net.cpp:150] Setting up conv5_3_pool6_conv
I0620 04:21:34.449556  2802 net.cpp:157] Top shape: 1 512 5 5 (12800)
I0620 04:21:34.449569  2802 net.cpp:165] Memory required for data: 1976388632
I0620 04:21:34.449589  2802 layer_factory.hpp:77] Creating layer conv5_3_pool6_conv/bn
I0620 04:21:34.449620  2802 net.cpp:106] Creating Layer conv5_3_pool6_conv/bn
I0620 04:21:34.449630  2802 net.cpp:454] conv5_3_pool6_conv/bn <- conv5_3_pool6_conv
I0620 04:21:34.449642  2802 net.cpp:397] conv5_3_pool6_conv/bn -> conv5_3_pool6_conv (in-place)
I0620 04:21:34.449981  2802 net.cpp:150] Setting up conv5_3_pool6_conv/bn
I0620 04:21:34.449995  2802 net.cpp:157] Top shape: 1 512 5 5 (12800)
I0620 04:21:34.449998  2802 net.cpp:165] Memory required for data: 1976439832
I0620 04:21:34.450008  2802 layer_factory.hpp:77] Creating layer conv5_3_pool6_conv/relu
I0620 04:21:34.450021  2802 net.cpp:106] Creating Layer conv5_3_pool6_conv/relu
I0620 04:21:34.450026  2802 net.cpp:454] conv5_3_pool6_conv/relu <- conv5_3_pool6_conv
I0620 04:21:34.450031  2802 net.cpp:397] conv5_3_pool6_conv/relu -> conv5_3_pool6_conv (in-place)
I0620 04:21:34.450039  2802 net.cpp:150] Setting up conv5_3_pool6_conv/relu
I0620 04:21:34.450044  2802 net.cpp:157] Top shape: 1 512 5 5 (12800)
I0620 04:21:34.450048  2802 net.cpp:165] Memory required for data: 1976491032
I0620 04:21:34.450053  2802 layer_factory.hpp:77] Creating layer conv5_3_pool6_interp
I0620 04:21:34.450062  2802 net.cpp:106] Creating Layer conv5_3_pool6_interp
I0620 04:21:34.450067  2802 net.cpp:454] conv5_3_pool6_interp <- conv5_3_pool6_conv
I0620 04:21:34.450073  2802 net.cpp:411] conv5_3_pool6_interp -> conv5_3_pool6_interp
I0620 04:21:34.450100  2802 net.cpp:150] Setting up conv5_3_pool6_interp
I0620 04:21:34.450106  2802 net.cpp:157] Top shape: 1 512 60 60 (1843200)
I0620 04:21:34.450110  2802 net.cpp:165] Memory required for data: 1983863832
I0620 04:21:34.450114  2802 layer_factory.hpp:77] Creating layer conv5_3_concat
I0620 04:21:34.450122  2802 net.cpp:106] Creating Layer conv5_3_concat
I0620 04:21:34.450129  2802 net.cpp:454] conv5_3_concat <- conv5_3_conv5_3/relu_0_split_4
I0620 04:21:34.450134  2802 net.cpp:454] conv5_3_concat <- conv5_3_pool6_interp
…
