…
state {
  phase: TRAIN
}
layer {
  name: "data"
  type: "ImageSegData"
  top: "data"
  top: "label"
  include {
    phase: TRAIN
  }
  transform_param {
    mirror: true
    crop_size: 473
    mean_value: 104.008
    mean_value: 116.669
    mean_value: 122.675
    scale_factors: 0.5
    scale_factors: 0.75
    scale_factors: 1
    scale_factors: 1.25
    scale_factors: 1.5
  }
  image_data_param {
    source: "exper/voc12/list/train_aug.txt"
    batch_size: 10
    shuffle: true
    root_folder: "exper/voc12/data"
    label_type: PIXEL
  }
}
layer {
  name: "conv1_1_3x3_s2"
  type: "Convolution"
  bottom: "data"
  top: "conv1_1_3x3_s2"
  param {
    lr_mult: 1
    decay_mult: 1
  }
  convolution_param {
    num_output: 64
    bias_term: false
    pad: 1
    kernel_size: 3
    stride: 2
    weight_filler {
      type: "msra"
    }
  }
}
layer {
  name: "conv1_1_3x3_s2/bn"
  type: "BN"
  bottom: "conv1_1_3x3_s2"
  top: "conv1_1_3x3_s2"
  param {
    lr_mult: 1
    decay_mult: 0
  }
  param {
    lr_mult: 1
    decay_mult: 0
  }
  param {
    lr_mult: 0
    decay_mult: 0
  }
  param {
    lr_mult: 0
    decay_mult: 0
  }
  bn_param {
    slope_filler {
      type: "constant"
      value: 1
    }
    bias_filler {
      type: "constant"
      value: 0
    }
    momentum: 0.95
    frozen: true
  }
}
layer {
  name: "conv1_1_3x3_s2/relu"
  type: "ReLU"
  bottom: "conv1_1_3x3_s2"
  top: "conv1_1_3x3_s2"
}
layer {
  name: "conv1_2_3x3"
  type: "Convolution"
  bottom: "conv1_1_3x3_s2"
  top: "conv1_2_3x3"
  param {
    lr_mult: 1
    decay_mult: 1
  }
  convolution_param {
    num_output: 64
    bias_term: false
    pad: 1
    kernel_size: 3
    stride: 1
    weight_filler {
      type: "msra"
    }
  }
}
layer {
  name: "conv1_2_3x3/bn"
  type: "BN"
  bottom: "conv1_2_3x3"
  top: "conv1_2_3x3"
  param {
    lr_mult: 1
    decay_mult: 0
  }
  param {
    lr_mult: 1
    decay_mult: 0
  }
  param {
    lr_mult: 0
    decay_mult: 0
  }
  param {
    lr_mult: 0
    decay_mult: 0
  }
  bn_param {
    slope_filler {
      type: "constant"
      value: 1
    }
    bias_filler {
      type: "constant"
      value: 0
    }
    momentum: 0.95
    frozen: true
  }
}
layer {
  name: "conv1_2_3x3/relu"
  type: "ReLU"
  bottom: "conv1_2_3x3"
  top: "conv1_2_3x3"
}
layer {
  name: "conv1_3_3x3"
  type: "Convolution"
  bottom: "conv1_2_3x3"
  top: "conv1_3_3x3"
  param {
    lr_mult: 1
    decay_mult: 1
  }
  convolution_param {
    num_output: 128
    bias_term: false
    pad: 1
    kernel_size: 3
    stride: 1
    weight_filler {
      type: "msra"
    }
  }
}
layer {
  name: "conv1_3_3x3/bn"
  type: "BN"
  bottom: "conv1_3_3x3"
  top: "conv1_3_3x3"
  param {
    lr_mult: 1
    decay_mult: 0
  }
  param {
    lr_mult: 1
    decay_mult: 0
  }
  param {
    lr_mult: 0
    decay_mult: 0
  }
  param {
    lr_mult: 0
    decay_mult: 0
  }
  bn_param {
    slope_filler {
      type: "constant"
      value: 1
    }
    bias_filler {
      type: "constant"
      value: 0
    }
    momentum: 0.95
    frozen: true
  }
}
layer {
  name: "conv1_3_3x3/relu"
  type: "ReLU"
  bottom: "conv1_3_3x3"
  top: "conv1_3_3x3"
}
layer {
  name: "pool1_3x3_s2"
  type: "Pooling"
  bottom: "conv1_3_3x3"
  top: "pool1_3x3_s2"
  pooling_param {
    pool: MAX
    kernel_size: 3
    stride: 2
    pad: 1
  }
}
layer {
  name: "conv2_1_1x1_reduce"
  type: "Convolution"
  bottom: "pool1_3x3_s2"
  top: "conv2_1_1x1_reduce"
  param {
    lr_mult: 1
    decay_mult: 1
  }
  convolution_param {
    num_output: 64
    bias_term: false
    pad: 0
    kernel_size: 1
    stride: 1
    weight_filler {
      type: "msra"
    }
  }
}
layer {
  name: "conv2_1_1x1_reduce/bn"
  type: "BN"
  bottom: "conv2_1_1x1_reduce"
  top: "conv2_1_1x1_reduce"
  param {
    lr_mult: 1
    decay_mult: 0
  }
  param {
    lr_mult: 1
    decay_mult: 0
  }
  param {
    lr_mult: 0
    decay_mult: 0
  }
  param {
    lr_mult: 0
    decay_mult: 0
  }
  bn_param {
    slope_filler {
      type: "constant"
      value: 1
    }
    bias_filler {
      type: "constant"
      value: 0
    }
    momentum: 0.95
    frozen: true
  }
}
layer {
  name: "conv2_1_1x1_reduce/relu"
  type: "ReLU"
  bottom: "conv2_1_1x1_reduce"
  top: "conv2_1_1x1_reduce"
}
layer {
  name: "conv2_1_3x3"
  type: "Convolution"
  bottom: "conv2_1_1x1_reduce"
  top: "conv2_1_3x3"
  param {
    lr_mult: 1
    decay_mult: 1
  }
  convolution_param {
    num_output: 64
    bias_term: false
    pad: 1
    kernel_size: 3
    stride: 1
    weight_filler {
      type: "msra"
    }
  }
}
layer {
  name: "conv2_1_3x3/bn"
  type: "BN"
  bottom: "conv2_1_3x3"
  top: "conv2_1_3x3"
  param {
    lr_mult: 1
    decay_mult: 0
  }
  param {
    lr_mult: 1
    decay_mult: 0
  }
  param {
    lr_mult: 0
    decay_mult: 0
  }
  param {
    lr_mult: 0
    decay_mult: 0
  }
  bn_param {
    slope_filler {
      type: "constant"
      value: 1
    }
    bias_filler {
      type: "constant"
      value: 0
    }
    momentum: 0.95
    frozen: true
  }
}
layer {
  name: "conv2_1_3x3/relu"
  type: "ReLU"
  bottom: "conv2_1_3x3"
  top: "conv2_1_3x3"
}
layer {
  name: "conv2_1_1x1_increase"
  type: "Convolution"
  bottom: "conv2_1_3x3"
  top: "conv2_1_1x1_increase"
  param {
    lr_mult: 1
    decay_mult: 1
  }
  convolution_param {
    num_output: 256
    bias_term: false
    pad: 0
    kernel_size: 1
    stride: 1
    weight_filler {
      type: "msra"
    }
  }
}
layer {
  name: "conv2_1_1x1_increase/bn"
  type: "BN"
  bottom: "conv2_1_1x1_increase"
  top: "conv2_1_1x1_increase"
  param {
    lr_mult: 1
    decay_mult: 0
  }
  param {
    lr_mult: 1
    decay_mult: 0
  }
  param {
    lr_mult: 0
    decay_mult: 0
  }
  param {
    lr_mult: 0
    decay_mult: 0
  }
  bn_param {
    slope_filler {
      type: "constant"
      value: 1
    }
    bias_filler {
      type: "constant"
      value: 0
    }
    momentum: 0.95
    frozen: true
  }
}
layer {
  name: "conv2_1_1x1_proj"
  type: "Convolution"
  bottom: "pool1_3x3_s2"
  top: "conv2_1_1x1_proj"
  param {
    lr_mult: 1
    decay_mult: 1
  }
  convolution_param {
    num_output: 256
    bias_term: false
    pad: 0
    kernel_size: 1
    stride: 1
    weight_filler {
      type: "msra"
    }
  }
}
layer {
  name: "conv2_1_1x1_proj/bn"
  type: "BN"
  bottom: "conv2_1_1x1_proj"
  top: "conv2_1_1x1_proj"
  param {
    lr_mult: 1
    decay_mult: 0
  }
  param {
    lr_mult: 1
    decay_mult: 0
  }
  param {
    lr_mult: 0
    decay_mult: 0
  }
  param {
    lr_mult: 0
    decay_mult: 0
  }
  bn_param {
    slope_filler {
      type: "constant"
      value: 1
    }
    bias_filler {
      type: "constant"
      value: 0
    }
    momentum: 0.95
    frozen: true
  }
}
layer {
  name: "conv2_1"
  type: "Eltwise"
  bottom: "conv2_1_1x1_proj"
  bottom: "conv2_1_1x1_increase"
  top: "conv2_1"
  eltwise_param {
    operation: SUM
  }
}
layer {
  name: "conv2_1/relu"
  type: "ReLU"
  bottom: "conv2_1"
  top: "conv2_1"
}
layer {
  name: "conv2_2_1x1_reduce"
  type: "Convolution"
  bottom: "conv2_1"
  top: "conv2_2_1x1_reduce"
  param {
    lr_mult: 1
    decay_mult: 1
  }
  convolution_param {
    num_output: 64
    bias_term: false
    pad: 0
    kernel_size: 1
    stride: 1
    weight_filler {
      type: "msra"
    }
  }
}
layer {
  name: "conv2_2_1x1_reduce/bn"
  type: "BN"
  bottom: "conv2_2_1x1_reduce"
  top: "conv2_2_1x1_reduce"
  param {
    lr_mult: 1
    decay_mult: 0
  }
  param {
    lr_mult: 1
    decay_mult: 0
  }
  param {
    lr_mult: 0
    decay_mult: 0
  }
  param {
    lr_mult: 0
    decay_mult: 0
  }
  bn_param {
    slope_filler {
      type: "constant"
      value: 1
    }
    bias_filler {
      type: "constant"
      value: 0
    }
    momentum: 0.95
    frozen: true
  }
}
layer {
  name: "conv2_2_1x1_reduce/relu"
  type: "ReLU"
  bottom: "conv2_2_1x1_reduce"
  top: "conv2_2_1x1_reduce"
}
layer {
  name: "conv2_2_3x3"
  type: "Convolution"
  bottom: "conv2_2_1x1_reduce"
  top: "conv2_2_3x3"
  param {
    lr_mult: 1
    decay_mult: 1
  }
  convolution_param {
    num_output: 64
    bias_term: false
    pad: 1
    kernel_size: 3
    stride: 1
    weight_filler {
      type: "msra"
    }
  }
}
layer {
  name: "conv2_2_3x3/bn"
  type: "BN"
  bottom: "conv2_2_3x3"
  top: "conv2_2_3x3"
  param {
    lr_mult: 1
    decay_mult: 0
  }
  param {
    lr_mult: 1
    decay_mult: 0
  }
  param {
    lr_mult: 0
    decay_mult: 0
  }
  param {
    lr_mult: 0
    decay_mult: 0
  }
  bn_param {
    slope_filler {
      type: "constant"
      value: 1
    }
    bias_filler {
      type: "constant"
      value: 0
    }
    momentum: 0.95
    frozen: true
  }
}
layer {
  name: "conv2_2_3x3/relu"
  type: "ReLU"
  bottom: "conv2_2_3x3"
  top: "conv2_2_3x3"
}
layer {
  name: "conv2_2_1x1_increase"
  type: "Convolution"
  bottom: "conv2_2_3x3"
  top: "conv2_2_1x1_increase"
  param {
    lr_mult: 1
    decay_mult: 1
  }
  convolution_param {
    num_output: 256
    bias_term: false
    pad: 0
    kernel_size: 1
    stride: 1
    weight_filler {
      type: "msra"
    }
  }
}
layer {
  name: "conv2_2_1x1_increase/bn"
  type: "BN"
  bottom: "conv2_2_1x1_increase"
  top: "conv2_2_1x1_increase"
  param {
    lr_mult: 1
    decay_mult: 0
  }
  param {
    lr_mult: 1
    decay_mult: 0
  }
  param {
    lr_mult: 0
    decay_mult: 0
  }
  param {
    lr_mult: 0
    decay_mult: 0
  }
  bn_param {
    slope_filler {
      type: "constant"
      value: 1
    }
    bias_filler {
      type: "constant"
      value: 0
    }
    momentum: 0.95
    frozen: true
  }
}
layer {
  name: "conv2_2"
  type: "Eltwise"
  bottom: "conv2_1"
  bottom: "conv2_2_1x1_increase"
  top: "conv2_2"
  eltwise_param {
    operation: SUM
  }
}
layer {
  name: "conv2_2/relu"
  type: "ReLU"
  bottom: "conv2_2"
  top: "conv2_2"
}
layer {
  name: "conv2_3_1x1_reduce"
  type: "Convolution"
  bottom: "conv2_2"
  top: "conv2_3_1x1_reduce"
  param {
    lr_mult: 1
    decay_mult: 1
  }
  convolution_param {
    num_output: 64
    bias_term: false
    pad: 0
    kernel_size: 1
    stride: 1
    weight_filler {
      type: "msra"
    }
  }
}
layer {
  name: "conv2_3_1x1_reduce/bn"
  type: "BN"
  bottom: "conv2_3_1x1_reduce"
  top: "conv2_3_1x1_reduce"
  param {
    lr_mult: 1
    decay_mult: 0
  }
  param {
    lr_mult: 1
    decay_mult: 0
  }
  param {
    lr_mult: 0
    decay_mult: 0
  }
  param {
    lr_mult: 0
    decay_mult: 0
  }
  bn_param {
    slope_filler {
      type: "constant"
      value: 1
    }
    bias_filler {
      type: "constant"
      value: 0
    }
    momentum: 0.95
    frozen: true
  }
}
layer {
  name: "conv2_3_1x1_reduce/relu"
  type: "ReLU"
  bottom: "conv2_3_1x1_reduce"
  top: "conv2_3_1x1_reduce"
}
layer {
  name: "conv2_3_3x3"
  type: "Convolution"
  bottom: "conv2_3_1x1_reduce"
  top: "conv2_3_3x3"
  param {
    lr_mult: 1
    decay_mult: 1
  }
  convolution_param {
    num_output: 64
    bias_term: false
    pad: 1
    kernel_size: 3
    stride: 1
    weight_filler {
      type: "msra"
    }
  }
}
layer {
  name: "conv2_3_3x3/bn"
  type: "BN"
  bottom: "conv2_3_3x3"
  top: "conv2_3_3x3"
  param {
    lr_mult: 1
    decay_mult: 0
  }
  param {
    lr_mult: 1
    decay_mult: 0
  }
  param {
    lr_mult: 0
    decay_mult: 0
  }
  param {
    lr_mult: 0
    decay_mult: 0
  }
  bn_param {
    slope_filler {
      type: "constant"
      value: 1
    }
    bias_filler {
      type: "constant"
      value: 0
    }
    momentum: 0.95
    frozen: true
  }
}
layer {
  name: "conv2_3_3x3/relu"
  type: "ReLU"
  bottom: "conv2_3_3x3"
  top: "conv2_3_3x3"
}
layer {
  name: "conv2_3_1x1_increase"
  type: "Convolution"
  bottom: "conv2_3_3x3"
  top: "conv2_3_1x1_increase"
  param {
    lr_mult: 1
    decay_mult: 1
  }
  convolution_param {
    num_output: 256
    bias_term: false
    pad: 0
    kernel_size: 1
    stride: 1
    weight_filler {
      type: "msra"
    }
  }
}
layer {
  name: "conv2_3_1x1_increase/bn"
  type: "BN"
  bottom: "conv2_3_1x1_increase"
  top: "conv2_3_1x1_increase"
  param {
    lr_mult: 1
    decay_mult: 0
  }
  param {
    lr_mult: 1
    decay_mult: 0
  }
  param {
    lr_mult: 0
    decay_mult: 0
  }
  param {
    lr_mult: 0
    decay_mult: 0
  }
  bn_param {
    slope_filler {
      type: "constant"
      value: 1
    }
    bias_filler {
      type: "constant"
      value: 0
    }
    momentum: 0.95
    frozen: true
  }
}
layer {
  name: "conv2_3"
  type: "Eltwise"
  bottom: "conv2_2"
  bottom: "conv2_3_1x1_increase"
  top: "conv2_3"
  eltwise_param {
    operation: SUM
  }
}
layer {
  name: "conv2_3/relu"
  type: "ReLU"
  bottom: "conv2_3"
  top: "conv2_3"
}
layer {
  name: "conv3_1_1x1_reduce"
  type: "Convolution"
  bottom: "conv2_3"
  top: "conv3_1_1x1_reduce"
  param {
    lr_mult: 1
    decay_mult: 1
  }
  convolution_param {
    num_output: 128
    bias_term: false
    pad: 0
    kernel_size: 1
    stride: 1
    weight_filler {
      type: "msra"
    }
  }
}
layer {
  name: "conv3_1_1x1_reduce/bn"
  type: "BN"
  bottom: "conv3_1_1x1_reduce"
  top: "conv3_1_1x1_reduce"
  param {
    lr_mult: 1
    decay_mult: 0
  }
  param {
    lr_mult: 1
    decay_mult: 0
  }
  param {
    lr_mult: 0
    decay_mult: 0
  }
  param {
    lr_mult: 0
    decay_mult: 0
  }
  bn_param {
    slope_filler {
      type: "constant"
      value: 1
    }
    bias_filler {
      type: "constant"
      value: 0
    }
    momentum: 0.95
    frozen: true
  }
}
layer {
  name: "conv3_1_1x1_reduce/relu"
  type: "ReLU"
  bottom: "conv3_1_1x1_reduce"
  top: "conv3_1_1x1_reduce"
}
layer {
  name: "conv3_1_3x3"
  type: "Convolution"
  bottom: "conv3_1_1x1_reduce"
  top: "conv3_1_3x3"
  param {
    lr_mult: 1
    decay_mult: 1
  }
  convolution_param {
    num_output: 128
    bias_term: false
    pad: 1
    kernel_size: 3
    stride: 2
    weight_filler {
      type: "msra"
    }
  }
}
layer {
  name: "conv3_1_3x3/bn"
  type: "BN"
  bottom: "conv3_1_3x3"
  top: "conv3_1_3x3"
  param {
    lr_mult: 1
    decay_mult: 0
  }
  param {
    lr_mult: 1
    decay_mult: 0
  }
  param {
    lr_mult: 0
    decay_mult: 0
  }
  param {
    lr_mult: 0
    decay_mult: 0
  }
  bn_param {
    slope_filler {
      type: "constant"
      value: 1
    }
    bias_filler {
      type: "constant"
      value: 0
    }
    momentum: 0.95
    frozen: true
  }
}
layer {
  name: "conv3_1_3x3/relu"
  type: "ReLU"
  bottom: "conv3_1_3x3"
  top: "conv3_1_3x3"
}
layer {
  name: "conv3_1_1x1_increase"
  type: "Convolution"
  bottom: "conv3_1_3x3"
  top: "conv3_1_1x1_increase"
  param {
    lr_mult: 1
    decay_mult: 1
  }
  convolution_param {
    num_output: 512
    bias_term: false
    pad: 0
    kernel_size: 1
    stride: 1
    weight_filler {
      type: "msra"
    }
  }
}
layer {
  name: "conv3_1_1x1_increase/bn"
  type: "BN"
  bottom: "conv3_1_1x1_increase"
  top: "conv3_1_1x1_increase"
  param {
    lr_mult: 1
    decay_mult: 0
  }
  param {
    lr_mult: 1
    decay_mult: 0
  }
  param {
    lr_mult: 0
    decay_mult: 0
  }
  param {
    lr_mult: 0
    decay_mult: 0
  }
  bn_param {
    slope_filler {
      type: "constant"
      value: 1
    }
    bias_filler {
      type: "constant"
      value: 0
    }
    momentum: 0.95
    frozen: true
  }
}
layer {
  name: "conv3_1_1x1_proj"
  type: "Convolution"
  bottom: "conv2_3"
  top: "conv3_1_1x1_proj"
  param {
    lr_mult: 1
    decay_mult: 1
  }
  convolution_param {
    num_output: 512
    bias_term: false
    pad: 0
    kernel_size: 1
    stride: 2
    weight_filler {
      type: "msra"
    }
  }
}
layer {
  name: "conv3_1_1x1_proj/bn"
  type: "BN"
  bottom: "conv3_1_1x1_proj"
  top: "conv3_1_1x1_proj"
  param {
    lr_mult: 1
    decay_mult: 0
  }
  param {
    lr_mult: 1
    decay_mult: 0
  }
  param {
    lr_mult: 0
    decay_mult: 0
  }
  param {
    lr_mult: 0
    decay_mult: 0
  }
  bn_param {
    slope_filler {
      type: "constant"
      value: 1
    }
    bias_filler {
      type: "constant"
      value: 0
    }
    momentum: 0.95
    frozen: true
  }
}
layer {
  name: "conv3_1"
  type: "Eltwise"
  bottom: "conv3_1_1x1_proj"
  bottom: "conv3_1_1x1_increase"
  top: "conv3_1"
  eltwise_param {
    operation: SUM
  }
}
layer {
  name: "conv3_1/relu"
  type: "ReLU"
  bottom: "conv3_1"
  top: "conv3_1"
}
layer {
  name: "conv3_2_1x1_reduce"
  type: "Convolution"
  bottom: "conv3_1"
  top: "conv3_2_1x1_reduce"
  param {
    lr_mult: 1
    decay_mult: 1
  }
  convolution_param {
    num_output: 128
    bias_term: false
    pad: 0
    kernel_size: 1
    stride: 1
    weight_filler {
      type: "msra"
    }
  }
}
layer {
  name: "conv3_2_1x1_reduce/bn"
  type: "BN"
  bottom: "conv3_2_1x1_reduce"
  top: "conv3_2_1x1_reduce"
  param {
    lr_mult: 1
    decay_mult: 0
  }
  param {
    lr_mult: 1
    decay_mult: 0
  }
  param {
    lr_mult: 0
    decay_mult: 0
  }
  param {
    lr_mult: 0
    decay_mult: 0
  }
  bn_param {
    slope_filler {
      type: "constant"
      value: 1
    }
    bias_filler {
      type: "constant"
      value: 0
    }
    momentum: 0.95
    frozen: true
  }
}
layer {
  name: "conv3_2_1x1_reduce/relu"
  type: "ReLU"
  bottom: "conv3_2_1x1_reduce"
  top: "conv3_2_1x1_reduce"
}
layer {
  name: "conv3_2_3x3"
  type: "Convolution"
  bottom: "conv3_2_1x1_reduce"
  top: "conv3_2_3x3"
  param {
    lr_mult: 1
    decay_mult: 1
  }
  convolution_param {
    num_output: 128
    bias_term: false
    pad: 1
    kernel_size: 3
    stride: 1
    weight_filler {
      type: "msra"
    }
  }
}
layer {
  name: "conv3_2_3x3/bn"
  type: "BN"
  bottom: "conv3_2_3x3"
  top: "conv3_2_3x3"
  param {
    lr_mult: 1
    decay_mult: 0
  }
  param {
    lr_mult: 1
    decay_mult: 0
  }
  param {
    lr_mult: 0
    decay_mult: 0
  }
  param {
    lr_mult: 0
    decay_mult: 0
  }
  bn_param {
    slope_filler {
      type: "constant"
      value: 1
    }
    bias_filler {
      type: "constant"
      value: 0
    }
    momentum: 0.95
    frozen: true
  }
}
layer {
  name: "conv3_2_3x3/relu"
  type: "ReLU"
  bottom: "conv3_2_3x3"
  top: "conv3_2_3x3"
}
layer {
  name: "conv3_2_1x1_increase"
  type: "Convolution"
  bottom: "conv3_2_3x3"
  top: "conv3_2_1x1_increase"
  param {
    lr_mult: 1
    decay_mult: 1
  }
  convolution_param {
    num_output: 512
    bias_term: false
    pad: 0
    kernel_size: 1
    stride: 1
    weight_filler {
      type: "msra"
    }
  }
}
layer {
  name: "conv3_2_1x1_increase/bn"
  type: "BN"
  bottom: "conv3_2_1x1_increase"
  top: "conv3_2_1x1_increase"
  param {
    lr_mult: 1
    decay_mult: 0
  }
  param {
    lr_mult: 1
    decay_mult: 0
  }
  param {
    lr_mult: 0
    decay_mult: 0
  }
  param {
    lr_mult: 0
    decay_mult: 0
  }
  bn_param {
    slope_filler {
      type: "constant"
      value: 1
    }
    bias_filler {
      type: "constant"
      value: 0
    }
    momentum: 0.95
    frozen: true
  }
}
layer {
  name: "conv3_2"
  type: "Eltwise"
  bottom: "conv3_1"
  bottom: "conv3_2_1x1_increase"
  top: "conv3_2"
  eltwise_param {
    operation: SUM
  }
}
layer {
  name: "conv3_2/relu"
  type: "ReLU"
  bottom: "conv3_2"
  top: "conv3_2"
}
layer {
  name: "conv3_3_1x1_reduce"
  type: "Convolution"
  bottom: "conv3_2"
  top: "conv3_3_1x1_reduce"
  param {
    lr_mult: 1
    decay_mult: 1
  }
  convolution_param {
    num_output: 128
    bias_term: false
    pad: 0
    kernel_size: 1
    stride: 1
    weight_filler {
      type: "msra"
    }
  }
}
layer {
  name: "conv3_3_1x1_reduce/bn"
  type: "BN"
  bottom: "conv3_3_1x1_reduce"
  top: "conv3_3_1x1_reduce"
  param {
    lr_mult: 1
    decay_mult: 0
  }
  param {
    lr_mult: 1
    decay_mult: 0
  }
  param {
    lr_mult: 0
    decay_mult: 0
  }
  param {
    lr_mult: 0
    decay_mult: 0
  }
  bn_param {
    slope_filler {
      type: "constant"
      value: 1
    }
    bias_filler {
      type: "constant"
      value: 0
    }
    momentum: 0.95
    frozen: true
  }
}
layer {
  name: "conv3_3_1x1_reduce/relu"
  type: "ReLU"
  bottom: "conv3_3_1x1_reduce"
  top: "conv3_3_1x1_reduce"
}
layer {
  name: "conv3_3_3x3"
  type: "Convolution"
  bottom: "conv3_3_1x1_reduce"
  top: "conv3_3_3x3"
  param {
    lr_mult: 1
    decay_mult: 1
  }
  convolution_param {
    num_output: 128
    bias_term: false
    pad: 1
    kernel_size: 3
    stride: 1
    weight_filler {
      type: "msra"
    }
  }
}
layer {
  name: "conv3_3_3x3/bn"
  type: "BN"
  bottom: "conv3_3_3x3"
  top: "conv3_3_3x3"
  param {
    lr_mult: 1
    decay_mult: 0
  }
  param {
    lr_mult: 1
    decay_mult: 0
  }
  param {
    lr_mult: 0
    decay_mult: 0
  }
  param {
    lr_mult: 0
    decay_mult: 0
  }
  bn_param {
    slope_filler {
      type: "constant"
      value: 1
    }
    bias_filler {
      type: "constant"
      value: 0
    }
    momentum: 0.95
    frozen: true
  }
}
layer {
  name: "conv3_3_3x3/relu"
  type: "ReLU"
  bottom: "conv3_3_3x3"
  top: "conv3_3_3x3"
}
layer {
  name: "conv3_3_1x1_increase"
  type: "Convolution"
  bottom: "conv3_3_3x3"
  top: "conv3_3_1x1_increase"
  param {
    lr_mult: 1
    decay_mult: 1
  }
  convolution_param {
    num_output: 512
    bias_term: false
    pad: 0
    kernel_size: 1
    stride: 1
    weight_filler {
      type: "msra"
    }
  }
}
layer {
  name: "conv3_3_1x1_increase/bn"
  type: "BN"
  bottom: "conv3_3_1x1_increase"
  top: "conv3_3_1x1_increase"
  param {
    lr_mult: 1
    decay_mult: 0
  }
  param {
    lr_mult: 1
    decay_mult: 0
  }
  param {
    lr_mult: 0
    decay_mult: 0
  }
  param {
    lr_mult: 0
    decay_mult: 0
  }
  bn_param {
    slope_filler {
      type: "constant"
      value: 1
    }
    bias_filler {
      type: "constant"
      value: 0
    }
    momentum: 0.95
    frozen: true
  }
}
layer {
  name: "conv3_3"
  type: "Eltwise"
  bottom: "conv3_2"
  bottom: "conv3_3_1x1_increase"
  top: "conv3_3"
  eltwise_param {
    operation: SUM
  }
}
layer {
  name: "conv3_3/relu"
  type: "ReLU"
  bottom: "conv3_3"
  top: "conv3_3"
}
layer {
  name: "conv3_4_1x1_reduce"
  type: "Convolution"
  bottom: "conv3_3"
  top: "conv3_4_1x1_reduce"
  param {
    lr_mult: 1
    decay_mult: 1
  }
  convolution_param {
    num_output: 128
    bias_term: false
    pad: 0
    kernel_size: 1
    stride: 1
    weight_filler {
      type: "msra"
    }
  }
}
layer {
  name: "conv3_4_1x1_reduce/bn"
  type: "BN"
  bottom: "conv3_4_1x1_reduce"
  top: "conv3_4_1x1_reduce"
  param {
    lr_mult: 1
    decay_mult: 0
  }
  param {
    lr_mult: 1
    decay_mult: 0
  }
  param {
    lr_mult: 0
    decay_mult: 0
  }
  param {
    lr_mult: 0
    decay_mult: 0
  }
  bn_param {
    slope_filler {
      type: "constant"
      value: 1
    }
    bias_filler {
      type: "constant"
      value: 0
    }
    momentum: 0.95
    frozen: true
  }
}
layer {
  name: "conv3_4_1x1_reduce/relu"
  type: "ReLU"
  bottom: "conv3_4_1x1_reduce"
  top: "conv3_4_1x1_reduce"
}
layer {
  name: "conv3_4_3x3"
  type: "Convolution"
  bottom: "conv3_4_1x1_reduce"
  top: "conv3_4_3x3"
  param {
    lr_mult: 1
    decay_mult: 1
  }
  convolution_param {
    num_output: 128
    bias_term: false
    pad: 1
    kernel_size: 3
    stride: 1
    weight_filler {
      type: "msra"
    }
  }
}
layer {
  name: "conv3_4_3x3/bn"
  type: "BN"
  bottom: "conv3_4_3x3"
  top: "conv3_4_3x3"
  param {
    lr_mult: 1
    decay_mult: 0
  }
  param {
    lr_mult: 1
    decay_mult: 0
  }
  param {
    lr_mult: 0
    decay_mult: 0
  }
  param {
    lr_mult: 0
    decay_mult: 0
  }
  bn_param {
    slope_filler {
      type: "constant"
      value: 1
    }
    bias_filler {
      type: "constant"
      value: 0
    }
    momentum: 0.95
    frozen: true
  }
}
layer {
  name: "conv3_4_3x3/relu"
  type: "ReLU"
  bottom: "conv3_4_3x3"
  top: "conv3_4_3x3"
}
layer {
  name: "conv3_4_1x1_increase"
  type: "Convolution"
  bottom: "conv3_4_3x3"
  top: "conv3_4_1x1_increase"
  param {
    lr_mult: 1
    decay_mult: 1
  }
  convolution_param {
    num_output: 512
    bias_term: false
    pad: 0
    kernel_size: 1
    stride: 1
    weight_filler {
      type: "msra"
    }
  }
}
layer {
  name: "conv3_4_1x1_increase/bn"
  type: "BN"
  bottom: "conv3_4_1x1_increase"
  top: "conv3_4_1x1_increase"
  param {
    lr_mult: 1
    decay_mult: 0
  }
  param {
    lr_mult: 1
    decay_mult: 0
  }
  param {
    lr_mult: 0
    decay_mult: 0
  }
  param {
    lr_mult: 0
    decay_mult: 0
  }
  bn_param {
    slope_filler {
      type: "constant"
      value: 1
    }
    bias_filler {
      type: "constant"
      value: 0
    }
    momentum: 0.95
    frozen: true
  }
}
layer {
  name: "conv3_4"
  type: "Eltwise"
  bottom: "conv3_3"
  bottom: "conv3_4_1x1_increase"
  top: "conv3_4"
  eltwise_param {
    operation: SUM
  }
}
layer {
  name: "conv3_4/relu"
  type: "ReLU"
  bottom: "conv3_4"
  top: "conv3_4"
}
layer {
  name: "conv4_1_1x1_reduce"
  type: "Convolution"
  bottom: "conv3_4"
  top: "conv4_1_1x1_reduce"
  param {
    lr_mult: 1
    decay_mult: 1
  }
  convolution_param {
    num_output: 256
    bias_term: false
    pad: 0
    kernel_size: 1
    stride: 1
    weight_filler {
      type: "msra"
    }
  }
}
layer {
  name: "conv4_1_1x1_reduce/bn"
  type: "BN"
  bottom: "conv4_1_1x1_reduce"
  top: "conv4_1_1x1_reduce"
  param {
    lr_mult: 1
    decay_mult: 0
  }
  param {
    lr_mult: 1
    decay_mult: 0
  }
  param {
    lr_mult: 0
    decay_mult: 0
  }
  param {
    lr_mult: 0
    decay_mult: 0
  }
  bn_param {
    slope_filler {
      type: "constant"
      value: 1
    }
    bias_filler {
      type: "constant"
      value: 0
    }
    momentum: 0.95
    frozen: true
  }
}
layer {
  name: "conv4_1_1x1_reduce/relu"
  type: "ReLU"
  bottom: "conv4_1_1x1_reduce"
  top: "conv4_1_1x1_reduce"
}
layer {
  name: "conv4_1_3x3"
  type: "Convolution"
  bottom: "conv4_1_1x1_reduce"
  top: "conv4_1_3x3"
  param {
    lr_mult: 1
    decay_mult: 1
  }
  convolution_param {
    num_output: 256
    bias_term: false
    pad: 2
    kernel_size: 3
    stride: 1
    weight_filler {
      type: "msra"
    }
    dilation: 2
  }
}
layer {
  name: "conv4_1_3x3/bn"
  type: "BN"
  bottom: "conv4_1_3x3"
  top: "conv4_1_3x3"
  param {
    lr_mult: 1
    decay_mult: 0
  }
  param {
    lr_mult: 1
    decay_mult: 0
  }
  param {
    lr_mult: 0
    decay_mult: 0
  }
  param {
    lr_mult: 0
    decay_mult: 0
  }
  bn_param {
    slope_filler {
      type: "constant"
      value: 1
    }
    bias_filler {
      type: "constant"
      value: 0
    }
    momentum: 0.95
    frozen: true
  }
}
layer {
  name: "conv4_1_3x3/relu"
  type: "ReLU"
  bottom: "conv4_1_3x3"
  top: "conv4_1_3x3"
}
layer {
  name: "conv4_1_1x1_increase"
  type: "Convolution"
  bottom: "conv4_1_3x3"
  top: "conv4_1_1x1_increase"
  param {
    lr_mult: 1
    decay_mult: 1
  }
  convolution_param {
    num_output: 1024
    bias_term: false
    pad: 0
    kernel_size: 1
    stride: 1
    weight_filler {
      type: "msra"
    }
  }
}
layer {
  name: "conv4_1_1x1_increase/bn"
  type: "BN"
  bottom: "conv4_1_1x1_increase"
  top: "conv4_1_1x1_increase"
  param {
    lr_mult: 1
    decay_mult: 0
  }
  param {
    lr_mult: 1
    decay_mult: 0
  }
  param {
    lr_mult: 0
    decay_mult: 0
  }
  param {
    lr_mult: 0
    decay_mult: 0
  }
  bn_param {
    slope_filler {
      type: "constant"
      value: 1
    }
    bias_filler {
      type: "constant"
      value: 0
    }
    momentum: 0.95
    frozen: true
  }
}
layer {
  name: "conv4_1_1x1_proj"
  type: "Convolution"
  bottom: "conv3_4"
  top: "conv4_1_1x1_proj"
  param {
    lr_mult: 1
    decay_mult: 1
  }
  convolution_param {
    num_output: 1024
    bias_term: false
    pad: 0
    kernel_size: 1
    stride: 1
    weight_filler {
      type: "msra"
    }
  }
}
layer {
  name: "conv4_1_1x1_proj/bn"
  type: "BN"
  bottom: "conv4_1_1x1_proj"
  top: "conv4_1_1x1_proj"
  param {
    lr_mult: 1
    decay_mult: 0
  }
  param {
    lr_mult: 1
    decay_mult: 0
  }
  param {
    lr_mult: 0
    decay_mult: 0
  }
  param {
    lr_mult: 0
    decay_mult: 0
  }
  bn_param {
    slope_filler {
      type: "constant"
      value: 1
    }
    bias_filler {
      type: "constant"
      value: 0
    }
    momentum: 0.95
    frozen: true
  }
}
layer {
  name: "conv4_1"
  type: "Eltwise"
  bottom: "conv4_1_1x1_proj"
  bottom: "conv4_1_1x1_increase"
  top: "conv4_1"
  eltwise_param {
    operation: SUM
  }
}
layer {
  name: "conv4_1/relu"
  type: "ReLU"
  bottom: "conv4_1"
  top: "conv4_1"
}
layer {
  name: "conv4_2_1x1_reduce"
  type: "Convolution"
  bottom: "conv4_1"
  top: "conv4_2_1x1_reduce"
  param {
    lr_mult: 1
    decay_mult: 1
  }
  convolution_param {
    num_output: 256
    bias_term: false
    pad: 0
    kernel_size: 1
    stride: 1
    weight_filler {
      type: "msra"
    }
  }
}
layer {
  name: "conv4_2_1x1_reduce/bn"
  type: "BN"
  bottom: "conv4_2_1x1_reduce"
  top: "conv4_2_1x1_reduce"
  param {
    lr_mult: 1
    decay_mult: 0
  }
  param {
    lr_mult: 1
    decay_mult: 0
  }
  param {
    lr_mult: 0
    decay_mult: 0
  }
  param {
    lr_mult: 0
    decay_mult: 0
  }
  bn_param {
    slope_filler {
      type: "constant"
      value: 1
    }
    bias_filler {
      type: "constant"
      value: 0
    }
    momentum: 0.95
    frozen: true
  }
}
layer {
  name: "conv4_2_1x1_reduce/relu"
  type: "ReLU"
  bottom: "conv4_2_1x1_reduce"
  top: "conv4_2_1x1_reduce"
}
layer {
  name: "conv4_2_3x3"
  type: "Convolution"
  bottom: "conv4_2_1x1_reduce"
  top: "conv4_2_3x3"
  param {
    lr_mult: 1
    decay_mult: 1
  }
  convolution_param {
    num_output: 256
    bias_term: false
    pad: 2
    kernel_size: 3
    stride: 1
    weight_filler {
      type: "msra"
    }
    dilation: 2
  }
}
layer {
  name: "conv4_2_3x3/bn"
  type: "BN"
  bottom: "conv4_2_3x3"
  top: "conv4_2_3x3"
  param {
    lr_mult: 1
    decay_mult: 0
  }
  param {
    lr_mult: 1
    decay_mult: 0
  }
  param {
    lr_mult: 0
    decay_mult: 0
  }
  param {
    lr_mult: 0
    decay_mult: 0
  }
  bn_param {
    slope_filler {
      type: "constant"
      value: 1
    }
    bias_fill
I0620 04:25:44.404588  3015 layer_factory.hpp:77] Creating layer data
I0620 04:25:44.404615  3015 net.cpp:106] Creating Layer data
I0620 04:25:44.404621  3015 net.cpp:411] data -> data
I0620 04:25:44.404639  3015 net.cpp:411] data -> label
I0620 04:25:44.404647  3015 net.cpp:411] data -> (automatic)
I0620 04:25:44.404973  3015 image_seg_data_layer.cpp:46] Opening file exper/voc12/list/train_aug.txt
I0620 04:25:44.412197  3015 image_seg_data_layer.cpp:63] Shuffling data
I0620 04:25:44.415235  3015 image_seg_data_layer.cpp:68] A total of 10582 images.
I0620 04:25:44.434435  3015 image_seg_data_layer.cpp:137] output data size: 10,3,473,473
I0620 04:25:44.434459  3015 image_seg_data_layer.cpp:141] output label size: 10,1,473,473
I0620 04:25:44.434466  3015 image_seg_data_layer.cpp:145] output data_dim size: 10,1,1,2
I0620 04:25:44.576055  3015 net.cpp:150] Setting up data
I0620 04:25:44.576088  3015 net.cpp:157] Top shape: 10 3 473 473 (6711870)
I0620 04:25:44.576095  3015 net.cpp:157] Top shape: 10 1 473 473 (2237290)
I0620 04:25:44.576099  3015 net.cpp:157] Top shape: 10 1 1 2 (20)
I0620 04:25:44.576103  3015 net.cpp:165] Memory required for data: 35796720
I0620 04:25:44.576113  3015 layer_factory.hpp:77] Creating layer conv1_1_3x3_s2
I0620 04:25:44.576140  3015 net.cpp:106] Creating Layer conv1_1_3x3_s2
I0620 04:25:44.576146  3015 net.cpp:454] conv1_1_3x3_s2 <- data
I0620 04:25:44.576159  3015 net.cpp:411] conv1_1_3x3_s2 -> conv1_1_3x3_s2
I0620 04:25:44.592620  3015 net.cpp:150] Setting up conv1_1_3x3_s2
I0620 04:25:44.592651  3015 net.cpp:157] Top shape: 10 64 237 237 (35948160)
I0620 04:25:44.592656  3015 net.cpp:165] Memory required for data: 179589360
I0620 04:25:44.592679  3015 layer_factory.hpp:77] Creating layer conv1_1_3x3_s2/bn
I0620 04:25:44.592694  3015 net.cpp:106] Creating Layer conv1_1_3x3_s2/bn
I0620 04:25:44.592699  3015 net.cpp:454] conv1_1_3x3_s2/bn <- conv1_1_3x3_s2
I0620 04:25:44.592706  3015 net.cpp:397] conv1_1_3x3_s2/bn -> conv1_1_3x3_s2 (in-place)
I0620 04:25:44.593595  3015 net.cpp:150] Setting up conv1_1_3x3_s2/bn
I0620 04:25:44.593607  3015 net.cpp:157] Top shape: 10 64 237 237 (35948160)
I0620 04:25:44.593636  3015 net.cpp:165] Memory required for data: 323382000
I0620 04:25:44.593647  3015 layer_factory.hpp:77] Creating layer conv1_1_3x3_s2/relu
I0620 04:25:44.593655  3015 net.cpp:106] Creating Layer conv1_1_3x3_s2/relu
I0620 04:25:44.593658  3015 net.cpp:454] conv1_1_3x3_s2/relu <- conv1_1_3x3_s2
I0620 04:25:44.593663  3015 net.cpp:397] conv1_1_3x3_s2/relu -> conv1_1_3x3_s2 (in-place)
I0620 04:25:44.593669  3015 net.cpp:150] Setting up conv1_1_3x3_s2/relu
I0620 04:25:44.593674  3015 net.cpp:157] Top shape: 10 64 237 237 (35948160)
I0620 04:25:44.593677  3015 net.cpp:165] Memory required for data: 467174640
I0620 04:25:44.593680  3015 layer_factory.hpp:77] Creating layer conv1_2_3x3
I0620 04:25:44.593689  3015 net.cpp:106] Creating Layer conv1_2_3x3
I0620 04:25:44.593693  3015 net.cpp:454] conv1_2_3x3 <- conv1_1_3x3_s2
I0620 04:25:44.593698  3015 net.cpp:411] conv1_2_3x3 -> conv1_2_3x3
I0620 04:25:44.594583  3015 net.cpp:150] Setting up conv1_2_3x3
I0620 04:25:44.594589  3015 net.cpp:157] Top shape: 10 64 237 237 (35948160)
I0620 04:25:44.594594  3015 net.cpp:165] Memory required for data: 610967280
I0620 04:25:44.594599  3015 layer_factory.hpp:77] Creating layer conv1_2_3x3/bn
I0620 04:25:44.594605  3015 net.cpp:106] Creating Layer conv1_2_3x3/bn
I0620 04:25:44.594609  3015 net.cpp:454] conv1_2_3x3/bn <- conv1_2_3x3
I0620 04:25:44.594614  3015 net.cpp:397] conv1_2_3x3/bn -> conv1_2_3x3 (in-place)
I0620 04:25:44.594761  3015 net.cpp:150] Setting up conv1_2_3x3/bn
I0620 04:25:44.594768  3015 net.cpp:157] Top shape: 10 64 237 237 (35948160)
I0620 04:25:44.594771  3015 net.cpp:165] Memory required for data: 754759920
I0620 04:25:44.594780  3015 layer_factory.hpp:77] Creating layer conv1_2_3x3/relu
I0620 04:25:44.594785  3015 net.cpp:106] Creating Layer conv1_2_3x3/relu
I0620 04:25:44.594789  3015 net.cpp:454] conv1_2_3x3/relu <- conv1_2_3x3
I0620 04:25:44.594794  3015 net.cpp:397] conv1_2_3x3/relu -> conv1_2_3x3 (in-place)
I0620 04:25:44.594799  3015 net.cpp:150] Setting up conv1_2_3x3/relu
I0620 04:25:44.594802  3015 net.cpp:157] Top shape: 10 64 237 237 (35948160)
I0620 04:25:44.594805  3015 net.cpp:165] Memory required for data: 898552560
I0620 04:25:44.594810  3015 layer_factory.hpp:77] Creating layer conv1_3_3x3
I0620 04:25:44.594817  3015 net.cpp:106] Creating Layer conv1_3_3x3
I0620 04:25:44.594820  3015 net.cpp:454] conv1_3_3x3 <- conv1_2_3x3
I0620 04:25:44.594825  3015 net.cpp:411] conv1_3_3x3 -> conv1_3_3x3
I0620 04:25:44.597543  3015 net.cpp:150] Setting up conv1_3_3x3
I0620 04:25:44.597590  3015 net.cpp:157] Top shape: 10 128 237 237 (71896320)
I0620 04:25:44.597596  3015 net.cpp:165] Memory required for data: 1186137840
I0620 04:25:44.597609  3015 layer_factory.hpp:77] Creating layer conv1_3_3x3/bn
I0620 04:25:44.597632  3015 net.cpp:106] Creating Layer conv1_3_3x3/bn
I0620 04:25:44.597640  3015 net.cpp:454] conv1_3_3x3/bn <- conv1_3_3x3
I0620 04:25:44.597648  3015 net.cpp:397] conv1_3_3x3/bn -> conv1_3_3x3 (in-place)
I0620 04:25:44.597908  3015 net.cpp:150] Setting up conv1_3_3x3/bn
I0620 04:25:44.597914  3015 net.cpp:157] Top shape: 10 128 237 237 (71896320)
I0620 04:25:44.597918  3015 net.cpp:165] Memory required for data: 1473723120
I0620 04:25:44.597926  3015 layer_factory.hpp:77] Creating layer conv1_3_3x3/relu
I0620 04:25:44.597937  3015 net.cpp:106] Creating Layer conv1_3_3x3/relu
I0620 04:25:44.597940  3015 net.cpp:454] conv1_3_3x3/relu <- conv1_3_3x3
I0620 04:25:44.597945  3015 net.cpp:397] conv1_3_3x3/relu -> conv1_3_3x3 (in-place)
I0620 04:25:44.597951  3015 net.cpp:150] Setting up conv1_3_3x3/relu
I0620 04:25:44.597956  3015 net.cpp:157] Top shape: 10 128 237 237 (71896320)
I0620 04:25:44.597959  3015 net.cpp:165] Memory required for data: 1761308400
I0620 04:25:44.597962  3015 layer_factory.hpp:77] Creating layer pool1_3x3_s2
I0620 04:25:44.597973  3015 net.cpp:106] Creating Layer pool1_3x3_s2
I0620 04:25:44.597977  3015 net.cpp:454] pool1_3x3_s2 <- conv1_3_3x3
I0620 04:25:44.597982  3015 net.cpp:411] pool1_3x3_s2 -> pool1_3x3_s2
I0620 04:25:44.598026  3015 net.cpp:150] Setting up pool1_3x3_s2
I0620 04:25:44.598064  3015 net.cpp:157] Top shape: 10 128 119 119 (18126080)
I0620 04:25:44.598068  3015 net.cpp:165] Memory required for data: 1833812720
I0620 04:25:44.598073  3015 layer_factory.hpp:77] Creating layer pool1_3x3_s2_pool1_3x3_s2_0_split
I0620 04:25:44.598093  3015 net.cpp:106] Creating Layer pool1_3x3_s2_pool1_3x3_s2_0_split
I0620 04:25:44.598096  3015 net.cpp:454] pool1_3x3_s2_pool1_3x3_s2_0_split <- pool1_3x3_s2
I0620 04:25:44.598101  3015 net.cpp:411] pool1_3x3_s2_pool1_3x3_s2_0_split -> pool1_3x3_s2_pool1_3x3_s2_0_split_0
I0620 04:25:44.598106  3015 net.cpp:411] pool1_3x3_s2_pool1_3x3_s2_0_split -> pool1_3x3_s2_pool1_3x3_s2_0_split_1
I0620 04:25:44.598129  3015 net.cpp:150] Setting up pool1_3x3_s2_pool1_3x3_s2_0_split
I0620 04:25:44.598135  3015 net.cpp:157] Top shape: 10 128 119 119 (18126080)
I0620 04:25:44.598140  3015 net.cpp:157] Top shape: 10 128 119 119 (18126080)
I0620 04:25:44.598142  3015 net.cpp:165] Memory required for data: 1978821360
I0620 04:25:44.598146  3015 layer_factory.hpp:77] Creating layer conv2_1_1x1_reduce
I0620 04:25:44.598160  3015 net.cpp:106] Creating Layer conv2_1_1x1_reduce
I0620 04:25:44.598163  3015 net.cpp:454] conv2_1_1x1_reduce <- pool1_3x3_s2_pool1_3x3_s2_0_split_0
I0620 04:25:44.598170  3015 net.cpp:411] conv2_1_1x1_reduce -> conv2_1_1x1_reduce
I0620 04:25:44.599668  3015 net.cpp:150] Setting up conv2_1_1x1_reduce
I0620 04:25:44.599683  3015 net.cpp:157] Top shape: 10 64 119 119 (9063040)
I0620 04:25:44.599686  3015 net.cpp:165] Memory required for data: 2015073520
I0620 04:25:44.599691  3015 layer_factory.hpp:77] Creating layer conv2_1_1x1_reduce/bn
I0620 04:25:44.599699  3015 net.cpp:106] Creating Layer conv2_1_1x1_reduce/bn
I0620 04:25:44.599704  3015 net.cpp:454] conv2_1_1x1_reduce/bn <- conv2_1_1x1_reduce
I0620 04:25:44.599709  3015 net.cpp:397] conv2_1_1x1_reduce/bn -> conv2_1_1x1_reduce (in-place)
I0620 04:25:44.599843  3015 net.cpp:150] Setting up conv2_1_1x1_reduce/bn
I0620 04:25:44.599849  3015 net.cpp:157] Top shape: 10 64 119 119 (9063040)
I0620 04:25:44.599853  3015 net.cpp:165] Memory required for data: 2051325680
I0620 04:25:44.599864  3015 layer_factory.hpp:77] Creating layer conv2_1_1x1_reduce/relu
I0620 04:25:44.599869  3015 net.cpp:106] Creating Layer conv2_1_1x1_reduce/relu
I0620 04:25:44.599871  3015 net.cpp:454] conv2_1_1x1_reduce/relu <- conv2_1_1x1_reduce
I0620 04:25:44.599876  3015 net.cpp:397] conv2_1_1x1_reduce/relu -> conv2_1_1x1_reduce (in-place)
I0620 04:25:44.599882  3015 net.cpp:150] Setting up conv2_1_1x1_reduce/relu
I0620 04:25:44.599886  3015 net.cpp:157] Top shape: 10 64 119 119 (9063040)
I0620 04:25:44.599889  3015 net.cpp:165] Memory required for data: 2087577840
I0620 04:25:44.599892  3015 layer_factory.hpp:77] Creating layer conv2_1_3x3
I0620 04:25:44.599898  3015 net.cpp:106] Creating Layer conv2_1_3x3
I0620 04:25:44.599901  3015 net.cpp:454] conv2_1_3x3 <- conv2_1_1x1_reduce
I0620 04:25:44.599906  3015 net.cpp:411] conv2_1_3x3 -> conv2_1_3x3
I0620 04:25:44.600785  3015 net.cpp:150] Setting up conv2_1_3x3
I0620 04:25:44.600791  3015 net.cpp:157] Top shape: 10 64 119 119 (9063040)
I0620 04:25:44.600795  3015 net.cpp:165] Memory required for data: 2123830000
I0620 04:25:44.600800  3015 layer_factory.hpp:77] Creating layer conv2_1_3x3/bn
I0620 04:25:44.600806  3015 net.cpp:106] Creating Layer conv2_1_3x3/bn
I0620 04:25:44.600810  3015 net.cpp:454] conv2_1_3x3/bn <- conv2_1_3x3
I0620 04:25:44.600814  3015 net.cpp:397] conv2_1_3x3/bn -> conv2_1_3x3 (in-place)
I0620 04:25:44.600945  3015 net.cpp:150] Setting up conv2_1_3x3/bn
I0620 04:25:44.600951  3015 net.cpp:157] Top shape: 10 64 119 119 (9063040)
I0620 04:25:44.600955  3015 net.cpp:165] Memory required for data: 2160082160
I0620 04:25:44.600960  3015 layer_factory.hpp:77] Creating layer conv2_1_3x3/relu
I0620 04:25:44.600965  3015 net.cpp:106] Creating Layer conv2_1_3x3/relu
I0620 04:25:44.600967  3015 net.cpp:454] conv2_1_3x3/relu <- conv2_1_3x3
I0620 04:25:44.600972  3015 net.cpp:397] conv2_1_3x3/relu -> conv2_1_3x3 (in-place)
I0620 04:25:44.600976  3015 net.cpp:150] Setting up conv2_1_3x3/relu
I0620 04:25:44.600989  3015 net.cpp:157] Top shape: 10 64 119 119 (9063040)
I0620 04:25:44.600992  3015 net.cpp:165] Memory required for data: 2196334320
I0620 04:25:44.600996  3015 layer_factory.hpp:77] Creating layer conv2_1_1x1_increase
I0620 04:25:44.601001  3015 net.cpp:106] Creating Layer conv2_1_1x1_increase
I0620 04:25:44.601004  3015 net.cpp:454] conv2_1_1x1_increase <- conv2_1_3x3
I0620 04:25:44.601009  3015 net.cpp:411] conv2_1_1x1_increase -> conv2_1_1x1_increase
I0620 04:25:44.601459  3015 net.cpp:150] Setting up conv2_1_1x1_increase
I0620 04:25:44.601464  3015 net.cpp:157] Top shape: 10 256 119 119 (36252160)
I0620 04:25:44.601469  3015 net.cpp:165] Memory required for data: 2341342960
I0620 04:25:44.601472  3015 layer_factory.hpp:77] Creating layer conv2_1_1x1_increase/bn
I0620 04:25:44.601477  3015 net.cpp:106] Creating Layer conv2_1_1x1_increase/bn
I0620 04:25:44.601480  3015 net.cpp:454] conv2_1_1x1_increase/bn <- conv2_1_1x1_increase
I0620 04:25:44.601485  3015 net.cpp:397] conv2_1_1x1_increase/bn -> conv2_1_1x1_increase (in-place)
I0620 04:25:44.601601  3015 net.cpp:150] Setting up conv2_1_1x1_increase/bn
I0620 04:25:44.601606  3015 net.cpp:157] Top shape: 10 256 119 119 (36252160)
I0620 04:25:44.601609  3015 net.cpp:165] Memory required for data: 2486351600
I0620 04:25:44.601615  3015 layer_factory.hpp:77] Creating layer conv2_1_1x1_proj
I0620 04:25:44.601621  3015 net.cpp:106] Creating Layer conv2_1_1x1_proj
I0620 04:25:44.601624  3015 net.cpp:454] conv2_1_1x1_proj <- pool1_3x3_s2_pool1_3x3_s2_0_split_1
I0620 04:25:44.601630  3015 net.cpp:411] conv2_1_1x1_proj -> conv2_1_1x1_proj
I0620 04:25:44.602484  3015 net.cpp:150] Setting up conv2_1_1x1_proj
I0620 04:25:44.602501  3015 net.cpp:157] Top shape: 10 256 119 119 (36252160)
I0620 04:25:44.602504  3015 net.cpp:165] Memory required for data: 2631360240
I0620 04:25:44.602514  3015 layer_factory.hpp:77] Creating layer conv2_1_1x1_proj/bn
I0620 04:25:44.602525  3015 net.cpp:106] Creating Layer conv2_1_1x1_proj/bn
I0620 04:25:44.602530  3015 net.cpp:454] conv2_1_1x1_proj/bn <- conv2_1_1x1_proj
I0620 04:25:44.602537  3015 net.cpp:397] conv2_1_1x1_proj/bn -> conv2_1_1x1_proj (in-place)
I0620 04:25:44.602681  3015 net.cpp:150] Setting up conv2_1_1x1_proj/bn
I0620 04:25:44.602689  3015 net.cpp:157] Top shape: 10 256 119 119 (36252160)
I0620 04:25:44.602691  3015 net.cpp:165] Memory required for data: 2776368880
I0620 04:25:44.602705  3015 layer_factory.hpp:77] Creating layer conv2_1
I0620 04:25:44.602721  3015 net.cpp:106] Creating Layer conv2_1
I0620 04:25:44.602725  3015 net.cpp:454] conv2_1 <- conv2_1_1x1_proj
I0620 04:25:44.602728  3015 net.cpp:454] conv2_1 <- conv2_1_1x1_increase
I0620 04:25:44.602732  3015 net.cpp:411] conv2_1 -> conv2_1
I0620 04:25:44.602771  3015 net.cpp:150] Setting up conv2_1
I0620 04:25:44.602777  3015 net.cpp:157] Top shape: 10 256 119 119 (36252160)
I0620 04:25:44.602780  3015 net.cpp:165] Memory required for data: 2921377520
I0620 04:25:44.602783  3015 layer_factory.hpp:77] Creating layer conv2_1/relu
I0620 04:25:44.602788  3015 net.cpp:106] Creating Layer conv2_1/relu
I0620 04:25:44.602792  3015 net.cpp:454] conv2_1/relu <- conv2_1
I0620 04:25:44.602797  3015 net.cpp:397] conv2_1/relu -> conv2_1 (in-place)
I0620 04:25:44.602802  3015 net.cpp:150] Setting up conv2_1/relu
I0620 04:25:44.602805  3015 net.cpp:157] Top shape: 10 256 119 119 (36252160)
I0620 04:25:44.602808  3015 net.cpp:165] Memory required for data: 3066386160
I0620 04:25:44.602813  3015 layer_factory.hpp:77] Creating layer conv2_1_conv2_1/relu_0_split
I0620 04:25:44.602818  3015 net.cpp:106] Creating Layer conv2_1_conv2_1/relu_0_split
I0620 04:25:44.602821  3015 net.cpp:454] conv2_1_conv2_1/relu_0_split <- conv2_1
I0620 04:25:44.602825  3015 net.cpp:411] conv2_1_conv2_1/relu_0_split -> conv2_1_conv2_1/relu_0_split_0
I0620 04:25:44.602831  3015 net.cpp:411] conv2_1_conv2_1/relu_0_split -> conv2_1_conv2_1/relu_0_split_1
I0620 04:25:44.602852  3015 net.cpp:150] Setting up conv2_1_conv2_1/relu_0_split
I0620 04:25:44.602857  3015 net.cpp:157] Top shape: 10 256 119 119 (36252160)
I0620 04:25:44.602890  3015 net.cpp:157] Top shape: 10 256 119 119 (36252160)
I0620 04:25:44.602893  3015 net.cpp:165] Memory required for data: 3356403440
I0620 04:25:44.602896  3015 layer_factory.hpp:77] Creating layer conv2_2_1x1_reduce
I0620 04:25:44.602903  3015 net.cpp:106] Creating Layer conv2_2_1x1_reduce
I0620 04:25:44.602906  3015 net.cpp:454] conv2_2_1x1_reduce <- conv2_1_conv2_1/relu_0_split_0
I0620 04:25:44.602911  3015 net.cpp:411] conv2_2_1x1_reduce -> conv2_2_1x1_reduce
I0620 04:25:44.603374  3015 net.cpp:150] Setting up conv2_2_1x1_reduce
I0620 04:25:44.603382  3015 net.cpp:157] Top shape: 10 64 119 119 (9063040)
I0620 04:25:44.603385  3015 net.cpp:165] Memory required for data: 3392655600
I0620 04:25:44.603391  3015 layer_factory.hpp:77] Creating layer conv2_2_1x1_reduce/bn
I0620 04:25:44.603399  3015 net.cpp:106] Creating Layer conv2_2_1x1_reduce/bn
I0620 04:25:44.603402  3015 net.cpp:454] conv2_2_1x1_reduce/bn <- conv2_2_1x1_reduce
I0620 04:25:44.603407  3015 net.cpp:397] conv2_2_1x1_reduce/bn -> conv2_2_1x1_reduce (in-place)
I0620 04:25:44.603582  3015 net.cpp:150] Setting up conv2_2_1x1_reduce/bn
I0620 04:25:44.603588  3015 net.cpp:157] Top shape: 10 64 119 119 (9063040)
I0620 04:25:44.603591  3015 net.cpp:165] Memory required for data: 3428907760
I0620 04:25:44.603598  3015 layer_factory.hpp:77] Creating layer conv2_2_1x1_reduce/relu
I0620 04:25:44.603605  3015 net.cpp:106] Creating Layer conv2_2_1x1_reduce/relu
I0620 04:25:44.603610  3015 net.cpp:454] conv2_2_1x1_reduce/relu <- conv2_2_1x1_reduce
I0620 04:25:44.603615  3015 net.cpp:397] conv2_2_1x1_reduce/relu -> conv2_2_1x1_reduce (in-place)
I0620 04:25:44.603619  3015 net.cpp:150] Setting up conv2_2_1x1_reduce/relu
I0620 04:25:44.603622  3015 net.cpp:157] Top shape: 10 64 119 119 (9063040)
I0620 04:25:44.603626  3015 net.cpp:165] Memory required for data: 3465159920
I0620 04:25:44.603628  3015 layer_factory.hpp:77] Creating layer conv2_2_3x3
I0620 04:25:44.603636  3015 net.cpp:106] Creating Layer conv2_2_3x3
I0620 04:25:44.603639  3015 net.cpp:454] conv2_2_3x3 <- conv2_2_1x1_reduce
I0620 04:25:44.603646  3015 net.cpp:411] conv2_2_3x3 -> conv2_2_3x3
I0620 04:25:44.604581  3015 net.cpp:150] Setting up conv2_2_3x3
I0620 04:25:44.604598  3015 net.cpp:157] Top shape: 10 64 119 119 (9063040)
I0620 04:25:44.604600  3015 net.cpp:165] Memory required for data: 3501412080
I0620 04:25:44.604605  3015 layer_factory.hpp:77] Creating layer conv2_2_3x3/bn
I0620 04:25:44.604619  3015 net.cpp:106] Creating Layer conv2_2_3x3/bn
I0620 04:25:44.604621  3015 net.cpp:454] conv2_2_3x3/bn <- conv2_2_3x3
I0620 04:25:44.604627  3015 net.cpp:397] conv2_2_3x3/bn -> conv2_2_3x3 (in-place)
I0620 04:25:44.604799  3015 net.cpp:150] Setting up conv2_2_3x3/bn
I0620 04:25:44.604804  3015 net.cpp:157] Top shape: 10 64 119 119 (9063040)
I0620 04:25:44.604809  3015 net.cpp:165] Memory required for data: 3537664240
I0620 04:25:44.604815  3015 layer_factory.hpp:77] Creating layer conv2_2_3x3/relu
I0620 04:25:44.604822  3015 net.cpp:106] Creating Layer conv2_2_3x3/relu
I0620 04:25:44.604826  3015 net.cpp:454] conv2_2_3x3/relu <- conv2_2_3x3
I0620 04:25:44.604840  3015 net.cpp:397] conv2_2_3x3/relu -> conv2_2_3x3 (in-place)
I0620 04:25:44.604846  3015 net.cpp:150] Setting up conv2_2_3x3/relu
I0620 04:25:44.604849  3015 net.cpp:157] Top shape: 10 64 119 119 (9063040)
I0620 04:25:44.604851  3015 net.cpp:165] Memory required for data: 3573916400
I0620 04:25:44.604856  3015 layer_factory.hpp:77] Creating layer conv2_2_1x1_increase
I0620 04:25:44.604863  3015 net.cpp:106] Creating Layer conv2_2_1x1_increase
I0620 04:25:44.604866  3015 net.cpp:454] conv2_2_1x1_increase <- conv2_2_3x3
I0620 04:25:44.604872  3015 net.cpp:411] conv2_2_1x1_increase -> conv2_2_1x1_increase
I0620 04:25:44.605360  3015 net.cpp:150] Setting up conv2_2_1x1_increase
I0620 04:25:44.605365  3015 net.cpp:157] Top shape: 10 256 119 119 (36252160)
I0620 04:25:44.605367  3015 net.cpp:165] Memory required for data: 3718925040
I0620 04:25:44.605371  3015 layer_factory.hpp:77] Creating layer conv2_2_1x1_increase/bn
I0620 04:25:44.605403  3015 net.cpp:106] Creating Layer conv2_2_1x1_increase/bn
I0620 04:25:44.605407  3015 net.cpp:454] conv2_2_1x1_increase/bn <- conv2_2_1x1_increase
I0620 04:25:44.605412  3015 net.cpp:397] conv2_2_1x1_increase/bn -> conv2_2_1x1_increase (in-place)
I0620 04:25:44.605649  3015 net.cpp:150] Setting up conv2_2_1x1_increase/bn
I0620 04:25:44.605657  3015 net.cpp:157] Top shape: 10 256 119 119 (36252160)
I0620 04:25:44.605659  3015 net.cpp:165] Memory required for data: 3863933680
I0620 04:25:44.605666  3015 layer_factory.hpp:77] Creating layer conv2_2
I0620 04:25:44.605676  3015 net.cpp:106] Creating Layer conv2_2
I0620 04:25:44.605679  3015 net.cpp:454] conv2_2 <- conv2_1_conv2_1/relu_0_split_1
I0620 04:25:44.605682  3015 net.cpp:454] conv2_2 <- conv2_2_1x1_increase
I0620 04:25:44.605686  3015 net.cpp:411] conv2_2 -> conv2_2
I0620 04:25:44.605713  3015 net.cpp:150] Setting up conv2_2
I0620 04:25:44.605718  3015 net.cpp:157] Top shape: 10 256 119 119 (36252160)
I0620 04:25:44.605720  3015 net.cpp:165] Memory required for data: 4008942320
I0620 04:25:44.605723  3015 layer_factory.hpp:77] Creating layer conv2_2/relu
I0620 04:25:44.605728  3015 net.cpp:106] Creating Layer conv2_2/relu
I0620 04:25:44.605731  3015 net.cpp:454] conv2_2/relu <- conv2_2
I0620 04:25:44.605736  3015 net.cpp:397] conv2_2/relu -> conv2_2 (in-place)
I0620 04:25:44.605739  3015 net.cpp:150] Setting up conv2_2/relu
I0620 04:25:44.605743  3015 net.cpp:157] Top shape: 10 256 119 119 (36252160)
I0620 04:25:44.605746  3015 net.cpp:165] Memory required for data: 4153950960
I0620 04:25:44.605748  3015 layer_factory.hpp:77] Creating layer conv2_2_conv2_2/relu_0_split
I0620 04:25:44.605782  3015 net.cpp:106] Creating Layer conv2_2_conv2_2/relu_0_split
I0620 04:25:44.605787  3015 net.cpp:454] conv2_2_conv2_2/relu_0_split <- conv2_2
I0620 04:25:44.605790  3015 net.cpp:411] conv2_2_conv2_2/relu_0_split -> conv2_2_conv2_2/relu_0_split_0
I0620 04:25:44.605795  3015 net.cpp:411] conv2_2_conv2_2/relu_0_split -> conv2_2_conv2_2/relu_0_split_1
I0620 04:25:44.605823  3015 net.cpp:150] Setting up conv2_2_conv2_2/relu_0_split
I0620 04:25:44.605828  3015 net.cpp:157] Top shape: 10 256 119 119 (36252160)
I0620 04:25:44.605830  3015 net.cpp:157] Top shape: 10 256 119 119 (36252160)
I0620 04:25:44.605834  3015 net.cpp:165] Memory required for data: 4443968240
I0620 04:25:44.605835  3015 layer_factory.hpp:77] Creating layer conv2_3_1x1_reduce
I0620 04:25:44.605845  3015 net.cpp:106] Creating Layer conv2_3_1x1_reduce
I0620 04:25:44.605849  3015 net.cpp:454] conv2_3_1x1_reduce <- conv2_2_conv2_2/relu_0_split_0
I0620 04:25:44.605854  3015 net.cpp:411] conv2_3_1x1_reduce -> conv2_3_1x1_reduce
I0620 04:25:44.606330  3015 net.cpp:150] Setting up conv2_3_1x1_reduce
I0620 04:25:44.606338  3015 net.cpp:157] Top shape: 10 64 119 119 (9063040)
I0620 04:25:44.606340  3015 net.cpp:165] Memory required for data: 4480220400
I0620 04:25:44.606346  3015 layer_factory.hpp:77] Creating layer conv2_3_1x1_reduce/bn
I0620 04:25:44.606353  3015 net.cpp:106] Creating Layer conv2_3_1x1_reduce/bn
I0620 04:25:44.606356  3015 net.cpp:454] conv2_3_1x1_reduce/bn <- conv2_3_1x1_reduce
I0620 04:25:44.606362  3015 net.cpp:397] conv2_3_1x1_reduce/bn -> conv2_3_1x1_reduce (in-place)
I0620 04:25:44.606513  3015 net.cpp:150] Setting up conv2_3_1x1_reduce/bn
I0620 04:25:44.606518  3015 net.cpp:157] Top shape: 10 64 119 119 (9063040)
I0620 04:25:44.606521  3015 net.cpp:165] Memory required for data: 4516472560
I0620 04:25:44.606528  3015 layer_factory.hpp:77] Creating layer conv2_3_1x1_reduce/relu
I0620 04:25:44.606534  3015 net.cpp:106] Creating Layer conv2_3_1x1_reduce/relu
I0620 04:25:44.606536  3015 net.cpp:454] conv2_3_1x1_reduce/relu <- conv2_3_1x1_reduce
I0620 04:25:44.606540  3015 net.cpp:397] conv2_3_1x1_reduce/relu -> conv2_3_1x1_reduce (in-place)
I0620 04:25:44.606544  3015 net.cpp:150] Setting up conv2_3_1x1_reduce/relu
I0620 04:25:44.606549  3015 net.cpp:157] Top shape: 10 64 119 119 (9063040)
I0620 04:25:44.606550  3015 net.cpp:165] Memory required for data: 4552724720
I0620 04:25:44.606577  3015 layer_factory.hpp:77] Creating layer conv2_3_3x3
I0620 04:25:44.606585  3015 net.cpp:106] Creating Layer conv2_3_3x3
I0620 04:25:44.606586  3015 net.cpp:454] conv2_3_3x3 <- conv2_3_1x1_reduce
I0620 04:25:44.606590  3015 net.cpp:411] conv2_3_3x3 -> conv2_3_3x3
I0620 04:25:44.607538  3015 net.cpp:150] Setting up conv2_3_3x3
I0620 04:25:44.607548  3015 net.cpp:157] Top shape: 10 64 119 119 (9063040)
I0620 04:25:44.607550  3015 net.cpp:165] Memory required for data: 4588976880
I0620 04:25:44.607555  3015 layer_factory.hpp:77] Creating layer conv2_3_3x3/bn
I0620 04:25:44.607563  3015 net.cpp:106] Creating Layer conv2_3_3x3/bn
I0620 04:25:44.607566  3015 net.cpp:454] conv2_3_3x3/bn <- conv2_3_3x3
I0620 04:25:44.607571  3015 net.cpp:397] conv2_3_3x3/bn -> conv2_3_3x3 (in-place)
I0620 04:25:44.607741  3015 net.cpp:150] Setting up conv2_3_3x3/bn
I0620 04:25:44.607746  3015 net.cpp:157] Top shape: 10 64 119 119 (9063040)
I0620 04:25:44.607749  3015 net.cpp:165] Memory required for data: 4625229040
I0620 04:25:44.607754  3015 layer_factory.hpp:77] Creating layer conv2_3_3x3/relu
I0620 04:25:44.607759  3015 net.cpp:106] Creating Layer conv2_3_3x3/relu
I0620 04:25:44.607762  3015 net.cpp:454] conv2_3_3x3/relu <- conv2_3_3x3
I0620 04:25:44.607767  3015 net.cpp:397] conv2_3_3x3/relu -> conv2_3_3x3 (in-place)
I0620 04:25:44.607771  3015 net.cpp:150] Setting up conv2_3_3x3/relu
I0620 04:25:44.607774  3015 net.cpp:157] Top shape: 10 64 119 119 (9063040)
I0620 04:25:44.607777  3015 net.cpp:165] Memory required for data: 4661481200
I0620 04:25:44.607779  3015 layer_factory.hpp:77] Creating layer conv2_3_1x1_increase
I0620 04:25:44.607785  3015 net.cpp:106] Creating Layer conv2_3_1x1_increase
I0620 04:25:44.607789  3015 net.cpp:454] conv2_3_1x1_increase <- conv2_3_3x3
I0620 04:25:44.607798  3015 net.cpp:411] conv2_3_1x1_increase -> conv2_3_1x1_increase
I0620 04:25:44.608263  3015 net.cpp:150] Setting up conv2_3_1x1_increase
I0620 04:25:44.608268  3015 net.cpp:157] Top shape: 10 256 119 119 (36252160)
I0620 04:25:44.608271  3015 net.cpp:165] Memory required for data: 4806489840
I0620 04:25:44.608274  3015 layer_factory.hpp:77] Creating layer conv2_3_1x1_increase/bn
I0620 04:25:44.608279  3015 net.cpp:106] Creating Layer conv2_3_1x1_increase/bn
I0620 04:25:44.608283  3015 net.cpp:454] conv2_3_1x1_increase/bn <- conv2_3_1x1_increase
I0620 04:25:44.608286  3015 net.cpp:397] conv2_3_1x1_increase/bn -> conv2_3_1x1_increase (in-place)
I0620 04:25:44.608422  3015 net.cpp:150] Setting up conv2_3_1x1_increase/bn
I0620 04:25:44.608428  3015 net.cpp:157] Top shape: 10 256 119 119 (36252160)
I0620 04:25:44.608430  3015 net.cpp:165] Memory required for data: 4951498480
I0620 04:25:44.608446  3015 layer_factory.hpp:77] Creating layer conv2_3
I0620 04:25:44.608453  3015 net.cpp:106] Creating Layer conv2_3
I0620 04:25:44.608456  3015 net.cpp:454] conv2_3 <- conv2_2_conv2_2/relu_0_split_1
I0620 04:25:44.608460  3015 net.cpp:454] conv2_3 <- conv2_3_1x1_increase
I0620 04:25:44.608464  3015 net.cpp:411] conv2_3 -> conv2_3
I0620 04:25:44.608481  3015 net.cpp:150] Setting up conv2_3
I0620 04:25:44.608486  3015 net.cpp:157] Top shape: 10 256 119 119 (36252160)
I0620 04:25:44.608489  3015 net.cpp:165] Memory required for data: 5096507120
I0620 04:25:44.608491  3015 layer_factory.hpp:77] Creating layer conv2_3/relu
I0620 04:25:44.608495  3015 net.cpp:106] Creating Layer conv2_3/relu
I0620 04:25:44.608497  3015 net.cpp:454] conv2_3/relu <- conv2_3
I0620 04:25:44.608501  3015 net.cpp:397] conv2_3/relu -> conv2_3 (in-place)
I0620 04:25:44.608505  3015 net.cpp:150] Setting up conv2_3/relu
I0620 04:25:44.608510  3015 net.cpp:157] Top shape: 10 256 119 119 (36252160)
I0620 04:25:44.608511  3015 net.cpp:165] Memory required for data: 5241515760
I0620 04:25:44.608515  3015 layer_factory.hpp:77] Creating layer conv2_3_conv2_3/relu_0_split
I0620 04:25:44.608518  3015 net.cpp:106] Creating Layer conv2_3_conv2_3/relu_0_split
I0620 04:25:44.608521  3015 net.cpp:454] conv2_3_conv2_3/relu_0_split <- conv2_3
I0620 04:25:44.608525  3015 net.cpp:411] conv2_3_conv2_3/relu_0_split -> conv2_3_conv2_3/relu_0_split_0
I0620 04:25:44.608541  3015 net.cpp:411] conv2_3_conv2_3/relu_0_split -> conv2_3_conv2_3/relu_0_split_1
I0620 04:25:44.608566  3015 net.cpp:150] Setting up conv2_3_conv2_3/relu_0_split
I0620 04:25:44.608569  3015 net.cpp:157] Top shape: 10 256 119 119 (36252160)
I0620 04:25:44.608572  3015 net.cpp:157] Top shape: 10 256 119 119 (36252160)
I0620 04:25:44.608575  3015 net.cpp:165] Memory required for data: 5531533040
I0620 04:25:44.608578  3015 layer_factory.hpp:77] Creating layer conv3_1_1x1_reduce
I0620 04:25:44.608587  3015 net.cpp:106] Creating Layer conv3_1_1x1_reduce
I0620 04:25:44.608589  3015 net.cpp:454] conv3_1_1x1_reduce <- conv2_3_conv2_3/relu_0_split_0
I0620 04:25:44.608593  3015 net.cpp:411] conv3_1_1x1_reduce -> conv3_1_1x1_reduce
I0620 04:25:44.609405  3015 net.cpp:150] Setting up conv3_1_1x1_reduce
I0620 04:25:44.609411  3015 net.cpp:157] Top shape: 10 128 119 119 (18126080)
I0620 04:25:44.609413  3015 net.cpp:165] Memory required for data: 5604037360
I0620 04:25:44.609416  3015 layer_factory.hpp:77] Creating layer conv3_1_1x1_reduce/bn
I0620 04:25:44.609421  3015 net.cpp:106] Creating Layer conv3_1_1x1_reduce/bn
I0620 04:25:44.609423  3015 net.cpp:454] conv3_1_1x1_reduce/bn <- conv3_1_1x1_reduce
I0620 04:25:44.609428  3015 net.cpp:397] conv3_1_1x1_reduce/bn -> conv3_1_1x1_reduce (in-place)
I0620 04:25:44.609560  3015 net.cpp:150] Setting up conv3_1_1x1_reduce/bn
I0620 04:25:44.609565  3015 net.cpp:157] Top shape: 10 128 119 119 (18126080)
I0620 04:25:44.609567  3015 net.cpp:165] Memory required for data: 5676541680
I0620 04:25:44.609573  3015 layer_factory.hpp:77] Creating layer conv3_1_1x1_reduce/relu
I0620 04:25:44.609577  3015 net.cpp:106] Creating Layer conv3_1_1x1_reduce/relu
I0620 04:25:44.609580  3015 net.cpp:454] conv3_1_1x1_reduce/relu <- conv3_1_1x1_reduce
I0620 04:25:44.609583  3015 net.cpp:397] conv3_1_1x1_reduce/relu -> conv3_1_1x1_reduce (in-place)
I0620 04:25:44.609587  3015 net.cpp:150] Setting up conv3_1_1x1_reduce/relu
I0620 04:25:44.609591  3015 net.cpp:157] Top shape: 10 128 119 119 (18126080)
I0620 04:25:44.609593  3015 net.cpp:165] Memory required for data: 5749046000
I0620 04:25:44.609596  3015 layer_factory.hpp:77] Creating layer conv3_1_3x3
I0620 04:25:44.609601  3015 net.cpp:106] Creating Layer conv3_1_3x3
I0620 04:25:44.609603  3015 net.cpp:454] conv3_1_3x3 <- conv3_1_1x1_reduce
I0620 04:25:44.609607  3015 net.cpp:411] conv3_1_3x3 -> conv3_1_3x3
I0620 04:25:44.612836  3015 net.cpp:150] Setting up conv3_1_3x3
I0620 04:25:44.612843  3015 net.cpp:157] Top shape: 10 128 60 60 (4608000)
I0620 04:25:44.612845  3015 net.cpp:165] Memory required for data: 5767478000
I0620 04:25:44.612849  3015 layer_factory.hpp:77] Creating layer conv3_1_3x3/bn
I0620 04:25:44.612854  3015 net.cpp:106] Creating Layer conv3_1_3x3/bn
I0620 04:25:44.612856  3015 net.cpp:454] conv3_1_3x3/bn <- conv3_1_3x3
I0620 04:25:44.612861  3015 net.cpp:397] conv3_1_3x3/bn -> conv3_1_3x3 (in-place)
I0620 04:25:44.612985  3015 net.cpp:150] Setting up conv3_1_3x3/bn
I0620 04:25:44.612990  3015 net.cpp:157] Top shape: 10 128 60 60 (4608000)
I0620 04:25:44.612993  3015 net.cpp:165] Memory required for data: 5785910000
I0620 04:25:44.612998  3015 layer_factory.hpp:77] Creating layer conv3_1_3x3/relu
I0620 04:25:44.613003  3015 net.cpp:106] Creating Layer conv3_1_3x3/relu
I0620 04:25:44.613005  3015 net.cpp:454] conv3_1_3x3/relu <- conv3_1_3x3
I0620 04:25:44.613009  3015 net.cpp:397] conv3_1_3x3/relu -> conv3_1_3x3 (in-place)
I0620 04:25:44.613013  3015 net.cpp:150] Setting up conv3_1_3x3/relu
I0620 04:25:44.613016  3015 net.cpp:157] Top shape: 10 128 60 60 (4608000)
I0620 04:25:44.613018  3015 net.cpp:165] Memory required for data: 5804342000
I0620 04:25:44.613021  3015 layer_factory.hpp:77] Creating layer conv3_1_1x1_increase
I0620 04:25:44.613025  3015 net.cpp:106] Creating Layer conv3_1_1x1_increase
I0620 04:25:44.613029  3015 net.cpp:454] conv3_1_1x1_increase <- conv3_1_3x3
I0620 04:25:44.613034  3015 net.cpp:411] conv3_1_1x1_increase -> conv3_1_1x1_increase
I0620 04:25:44.614604  3015 net.cpp:150] Setting up conv3_1_1x1_increase
I0620 04:25:44.614620  3015 net.cpp:157] Top shape: 10 512 60 60 (18432000)
I0620 04:25:44.614624  3015 net.cpp:165] Memory required for data: 5878070000
I0620 04:25:44.614629  3015 layer_factory.hpp:77] Creating layer conv3_1_1x1_increase/bn
I0620 04:25:44.614637  3015 net.cpp:106] Creating Layer conv3_1_1x1_increase/bn
I0620 04:25:44.614640  3015 net.cpp:454] conv3_1_1x1_increase/bn <- conv3_1_1x1_increase
I0620 04:25:44.614645  3015 net.cpp:397] conv3_1_1x1_increase/bn -> conv3_1_1x1_increase (in-place)
I0620 04:25:44.615998  3015 net.cpp:150] Setting up conv3_1_1x1_increase/bn
I0620 04:25:44.616036  3015 net.cpp:157] Top shape: 10 512 60 60 (18432000)
I0620 04:25:44.616040  3015 net.cpp:165] Memory required for data: 5951798000
I0620 04:25:44.616057  3015 layer_factory.hpp:77] Creating layer conv3_1_1x1_proj
I0620 04:25:44.616091  3015 net.cpp:106] Creating Layer conv3_1_1x1_proj
I0620 04:25:44.616102  3015 net.cpp:454] conv3_1_1x1_proj <- conv2_3_conv2_3/relu_0_split_1
I0620 04:25:44.616111  3015 net.cpp:411] conv3_1_1x1_proj -> conv3_1_1x1_proj
I0620 04:25:44.619076  3015 net.cpp:150] Setting up conv3_1_1x1_proj
I0620 04:25:44.619084  3015 net.cpp:157] Top shape: 10 512 60 60 (18432000)
I0620 04:25:44.619087  3015 net.cpp:165] Memory required for data: 6025526000
I0620 04:25:44.619092  3015 layer_factory.hpp:77] Creating layer conv3_1_1x1_proj/bn
I0620 04:25:44.619101  3015 net.cpp:106] Creating Layer conv3_1_1x1_proj/bn
I0620 04:25:44.619104  3015 net.cpp:454] conv3_1_1x1_proj/bn <- conv3_1_1x1_proj
I0620 04:25:44.619110  3015 net.cpp:397] conv3_1_1x1_proj/bn -> conv3_1_1x1_proj (in-place)
I0620 04:25:44.619262  3015 net.cpp:150] Setting up conv3_1_1x1_proj/bn
I0620 04:25:44.619269  3015 net.cpp:157] Top shape: 10 512 60 60 (18432000)
I0620 04:25:44.619272  3015 net.cpp:165] Memory required for data: 6099254000
I0620 04:25:44.619279  3015 layer_factory.hpp:77] Creating layer conv3_1
I0620 04:25:44.619287  3015 net.cpp:106] Creating Layer conv3_1
I0620 04:25:44.619292  3015 net.cpp:454] conv3_1 <- conv3_1_1x1_proj
I0620 04:25:44.619297  3015 net.cpp:454] conv3_1 <- conv3_1_1x1_increase
I0620 04:25:44.619300  3015 net.cpp:411] conv3_1 -> conv3_1
I0620 04:25:44.619321  3015 net.cpp:150] Setting up conv3_1
I0620 04:25:44.619326  3015 net.cpp:157] Top shape: 10 512 60 60 (18432000)
I0620 04:25:44.619329  3015 net.cpp:165] Memory required for data: 6172982000
I0620 04:25:44.619333  3015 layer_factory.hpp:77] Creating layer conv3_1/relu
I0620 04:25:44.619338  3015 net.cpp:106] Creating Layer conv3_1/relu
I0620 04:25:44.619341  3015 net.cpp:454] conv3_1/relu <- conv3_1
I0620 04:25:44.619345  3015 net.cpp:397] conv3_1/relu -> conv3_1 (in-place)
I0620 04:25:44.619350  3015 net.cpp:150] Setting up conv3_1/relu
I0620 04:25:44.619354  3015 net.cpp:157] Top shape: 10 512 60 60 (18432000)
I0620 04:25:44.619357  3015 net.cpp:165] Memory required for data: 6246710000
I0620 04:25:44.645843  3015 layer_factory.hpp:77] Creating layer conv3_1_conv3_1/relu_0_split
I0620 04:25:44.645910  3015 net.cpp:106] Creating Layer conv3_1_conv3_1/relu_0_split
I0620 04:25:44.645922  3015 net.cpp:454] conv3_1_conv3_1/relu_0_split <- conv3_1
I0620 04:25:44.645937  3015 net.cpp:411] conv3_1_conv3_1/relu_0_split -> conv3_1_conv3_1/relu_0_split_0
I0620 04:25:44.645956  3015 net.cpp:411] conv3_1_conv3_1/relu_0_split -> conv3_1_conv3_1/relu_0_split_1
I0620 04:25:44.646103  3015 net.cpp:150] Setting up conv3_1_conv3_1/relu_0_split
I0620 04:25:44.646111  3015 net.cpp:157] Top shape: 10 512 60 60 (18432000)
I0620 04:25:44.646114  3015 net.cpp:157] Top shape: 10 512 60 60 (18432000)
I0620 04:25:44.646117  3015 net.cpp:165] Memory required for data: 6394166000
I0620 04:25:44.646121  3015 layer_factory.hpp:77] Creating layer conv3_2_1x1_reduce
I0620 04:25:44.646128  3015 net.cpp:106] Creating Layer conv3_2_1x1_reduce
I0620 04:25:44.646131  3015 net.cpp:454] conv3_2_1x1_reduce <- conv3_1_conv3_1/relu_0_split_0
I0620 04:25:44.646136  3015 net.cpp:411] conv3_2_1x1_reduce -> conv3_2_1x1_reduce
I0620 04:25:44.647691  3015 net.cpp:150] Setting up conv3_2_1x1_reduce
I0620 04:25:44.647704  3015 net.cpp:157] Top shape: 10 128 60 60 (4608000)
I0620 04:25:44.647707  3015 net.cpp:165] Memory required for data: 6412598000
I0620 04:25:44.647713  3015 layer_factory.hpp:77] Creating layer conv3_2_1x1_reduce/bn
I0620 04:25:44.647722  3015 net.cpp:106] Creating Layer conv3_2_1x1_reduce/bn
I0620 04:25:44.647724  3015 net.cpp:454] conv3_2_1x1_reduce/bn <- conv3_2_1x1_reduce
I0620 04:25:44.647730  3015 net.cpp:397] conv3_2_1x1_reduce/bn -> conv3_2_1x1_reduce (in-place)
I0620 04:25:44.647866  3015 net.cpp:150] Setting up conv3_2_1x1_reduce/bn
I0620 04:25:44.647869  3015 net.cpp:157] Top shape: 10 128 60 60 (4608000)
I0620 04:25:44.647872  3015 net.cpp:165] Memory required for data: 6431030000
I0620 04:25:44.647878  3015 layer_factory.hpp:77] Creating layer conv3_2_1x1_reduce/relu
I0620 04:25:44.647883  3015 net.cpp:106] Creating Layer conv3_2_1x1_reduce/relu
I0620 04:25:44.647886  3015 net.cpp:454] conv3_2_1x1_reduce/relu <- conv3_2_1x1_reduce
I0620 04:25:44.647889  3015 net.cpp:397] conv3_2_1x1_reduce/relu -> conv3_2_1x1_reduce (in-place)
I0620 04:25:44.647893  3015 net.cpp:150] Setting up conv3_2_1x1_reduce/relu
I0620 04:25:44.647897  3015 net.cpp:157] Top shape: 10 128 60 60 (4608000)
I0620 04:25:44.647899  3015 net.cpp:165] Memory required for data: 6449462000
I0620 04:25:44.647902  3015 layer_factory.hpp:77] Creating layer conv3_2_3x3
I0620 04:25:44.647909  3015 net.cpp:106] Creating Layer conv3_2_3x3
I0620 04:25:44.647912  3015 net.cpp:454] conv3_2_3x3 <- conv3_2_1x1_reduce
I0620 04:25:44.647917  3015 net.cpp:411] conv3_2_3x3 -> conv3_2_3x3
I0620 04:25:44.651324  3015 net.cpp:150] Setting up conv3_2_3x3
I0620 04:25:44.651332  3015 net.cpp:157] Top shape: 10 128 60 60 (4608000)
I0620 04:25:44.651335  3015 net.cpp:165] Memory required for data: 6467894000
I0620 04:25:44.651337  3015 layer_factory.hpp:77] Creating layer conv3_2_3x3/bn
I0620 04:25:44.651347  3015 net.cpp:106] Creating Layer conv3_2_3x3/bn
I0620 04:25:44.651350  3015 net.cpp:454] conv3_2_3x3/bn <- conv3_2_3x3
I0620 04:25:44.651355  3015 net.cpp:397] conv3_2_3x3/bn -> conv3_2_3x3 (in-place)
I0620 04:25:44.651497  3015 net.cpp:150] Setting up conv3_2_3x3/bn
I0620 04:25:44.651504  3015 net.cpp:157] Top shape: 10 128 60 60 (4608000)
I0620 04:25:44.651505  3015 net.cpp:165] Memory required for data: 6486326000
I0620 04:25:44.651510  3015 layer_factory.hpp:77] Creating layer conv3_2_3x3/relu
I0620 04:25:44.651515  3015 net.cpp:106] Creating Layer conv3_2_3x3/relu
I0620 04:25:44.651516  3015 net.cpp:454] conv3_2_3x3/relu <- conv3_2_3x3
I0620 04:25:44.651518  3015 net.cpp:397] conv3_2_3x3/relu -> conv3_2_3x3 (in-place)
I0620 04:25:44.651522  3015 net.cpp:150] Setting up conv3_2_3x3/relu
I0620 04:25:44.651525  3015 net.cpp:157] Top shape: 10 128 60 60 (4608000)
I0620 04:25:44.651526  3015 net.cpp:165] Memory required for data: 6504758000
I0620 04:25:44.651528  3015 layer_factory.hpp:77] Creating layer conv3_2_1x1_increase
I0620 04:25:44.651533  3015 net.cpp:106] Creating Layer conv3_2_1x1_increase
I0620 04:25:44.651536  3015 net.cpp:454] conv3_2_1x1_increase <- conv3_2_3x3
I0620 04:25:44.651548  3015 net.cpp:411] conv3_2_1x1_increase -> conv3_2_1x1_increase
I0620 04:25:44.654000  3015 net.cpp:150] Setting up conv3_2_1x1_increase
I0620 04:25:44.654013  3015 net.cpp:157] Top shape: 10 512 60 60 (18432000)
I0620 04:25:44.654016  3015 net.cpp:165] Memory required for data: 6578486000
I0620 04:25:44.654021  3015 layer_factory.hpp:77] Creating layer conv3_2_1x1_increase/bn
I0620 04:25:44.654027  3015 net.cpp:106] Creating Layer conv3_2_1x1_increase/bn
I0620 04:25:44.654031  3015 net.cpp:454] conv3_2_1x1_increase/bn <- conv3_2_1x1_increase
I0620 04:25:44.654034  3015 net.cpp:397] conv3_2_1x1_increase/bn -> conv3_2_1x1_increase (in-place)
I0620 04:25:44.654192  3015 net.cpp:150] Setting up conv3_2_1x1_increase/bn
I0620 04:25:44.654198  3015 net.cpp:157] Top shape: 10 512 60 60 (18432000)
I0620 04:25:44.654201  3015 net.cpp:165] Memory required for data: 6652214000
I0620 04:25:44.654219  3015 layer_factory.hpp:77] Creating layer conv3_2
I0620 04:25:44.654225  3015 net.cpp:106] Creating Layer conv3_2
I0620 04:25:44.654229  3015 net.cpp:454] conv3_2 <- conv3_1_conv3_1/relu_0_split_1
I0620 04:25:44.654232  3015 net.cpp:454] conv3_2 <- conv3_2_1x1_increase
I0620 04:25:44.654237  3015 net.cpp:411] conv3_2 -> conv3_2
I0620 04:25:44.654254  3015 net.cpp:150] Setting up conv3_2
I0620 04:25:44.654258  3015 net.cpp:157] Top shape: 10 512 60 60 (18432000)
I0620 04:25:44.654261  3015 net.cpp:165] Memory required for data: 6725942000
I0620 04:25:44.654264  3015 layer_factory.hpp:77] Creating layer conv3_2/relu
I0620 04:25:44.654273  3015 net.cpp:106] Creating Layer conv3_2/relu
I0620 04:25:44.654278  3015 net.cpp:454] conv3_2/relu <- conv3_2
I0620 04:25:44.654284  3015 net.cpp:397] conv3_2/relu -> conv3_2 (in-place)
I0620 04:25:44.654292  3015 net.cpp:150] Setting up conv3_2/relu
I0620 04:25:44.654299  3015 net.cpp:157] Top shape: 10 512 60 60 (18432000)
I0620 04:25:44.654306  3015 net.cpp:165] Memory required for data: 6799670000
I0620 04:25:44.654311  3015 layer_factory.hpp:77] Creating layer conv3_2_conv3_2/relu_0_split
I0620 04:25:44.654322  3015 net.cpp:106] Creating Layer conv3_2_conv3_2/relu_0_split
I0620 04:25:44.654330  3015 net.cpp:454] conv3_2_conv3_2/relu_0_split <- conv3_2
I0620 04:25:44.654336  3015 net.cpp:411] conv3_2_conv3_2/relu_0_split -> conv3_2_conv3_2/relu_0_split_0
I0620 04:25:44.654342  3015 net.cpp:411] conv3_2_conv3_2/relu_0_split -> conv3_2_conv3_2/relu_0_split_1
I0620 04:25:44.654366  3015 net.cpp:150] Setting up conv3_2_conv3_2/relu_0_split
I0620 04:25:44.654369  3015 net.cpp:157] Top shape: 10 512 60 60 (18432000)
I0620 04:25:44.654373  3015 net.cpp:157] Top shape: 10 512 60 60 (18432000)
I0620 04:25:44.654376  3015 net.cpp:165] Memory required for data: 6947126000
I0620 04:25:44.654378  3015 layer_factory.hpp:77] Creating layer conv3_3_1x1_reduce
I0620 04:25:44.654384  3015 net.cpp:106] Creating Layer conv3_3_1x1_reduce
I0620 04:25:44.654387  3015 net.cpp:454] conv3_3_1x1_reduce <- conv3_2_conv3_2/relu_0_split_0
I0620 04:25:44.654392  3015 net.cpp:411] conv3_3_1x1_reduce -> conv3_3_1x1_reduce
I0620 04:25:44.656087  3015 net.cpp:150] Setting up conv3_3_1x1_reduce
I0620 04:25:44.656105  3015 net.cpp:157] Top shape: 10 128 60 60 (4608000)
I0620 04:25:44.656107  3015 net.cpp:165] Memory required for data: 6965558000
I0620 04:25:44.656112  3015 layer_factory.hpp:77] Creating layer conv3_3_1x1_reduce/bn
I0620 04:25:44.656121  3015 net.cpp:106] Creating Layer conv3_3_1x1_reduce/bn
I0620 04:25:44.656123  3015 net.cpp:454] conv3_3_1x1_reduce/bn <- conv3_3_1x1_reduce
I0620 04:25:44.656127  3015 net.cpp:397] conv3_3_1x1_reduce/bn -> conv3_3_1x1_reduce (in-place)
I0620 04:25:44.656301  3015 net.cpp:150] Setting up conv3_3_1x1_reduce/bn
I0620 04:25:44.656307  3015 net.cpp:157] Top shape: 10 128 60 60 (4608000)
I0620 04:25:44.656309  3015 net.cpp:165] Memory required for data: 6983990000
I0620 04:25:44.656313  3015 layer_factory.hpp:77] Creating layer conv3_3_1x1_reduce/relu
I0620 04:25:44.656318  3015 net.cpp:106] Creating Layer conv3_3_1x1_reduce/relu
I0620 04:25:44.656322  3015 net.cpp:454] conv3_3_1x1_reduce/relu <- conv3_3_1x1_reduce
I0620 04:25:44.656324  3015 net.cpp:397] conv3_3_1x1_reduce/relu -> conv3_3_1x1_reduce (in-place)
I0620 04:25:44.656327  3015 net.cpp:150] Setting up conv3_3_1x1_reduce/relu
I0620 04:25:44.656330  3015 net.cpp:157] Top shape: 10 128 60 60 (4608000)
I0620 04:25:44.656332  3015 net.cpp:165] Memory required for data: 7002422000
I0620 04:25:44.656335  3015 layer_factory.hpp:77] Creating layer conv3_3_3x3
I0620 04:25:44.656342  3015 net.cpp:106] Creating Layer conv3_3_3x3
I0620 04:25:44.656347  3015 net.cpp:454] conv3_3_3x3 <- conv3_3_1x1_reduce
I0620 04:25:44.656353  3015 net.cpp:411] conv3_3_3x3 -> conv3_3_3x3
I0620 04:25:44.660812  3015 net.cpp:150] Setting up conv3_3_3x3
I0620 04:25:44.660822  3015 net.cpp:157] Top shape: 10 128 60 60 (4608000)
I0620 04:25:44.660825  3015 net.cpp:165] Memory required for data: 7020854000
I0620 04:25:44.660830  3015 layer_factory.hpp:77] Creating layer conv3_3_3x3/bn
I0620 04:25:44.660846  3015 net.cpp:106] Creating Layer conv3_3_3x3/bn
I0620 04:25:44.660851  3015 net.cpp:454] conv3_3_3x3/bn <- conv3_3_3x3
I0620 04:25:44.660854  3015 net.cpp:397] conv3_3_3x3/bn -> conv3_3_3x3 (in-place)
I0620 04:25:44.661011  3015 net.cpp:150] Setting up conv3_3_3x3/bn
I0620 04:25:44.661016  3015 net.cpp:157] Top shape: 10 128 60 60 (4608000)
I0620 04:25:44.661020  3015 net.cpp:165] Memory required for data: 7039286000
I0620 04:25:44.661025  3015 layer_factory.hpp:77] Creating layer conv3_3_3x3/relu
I0620 04:25:44.661027  3015 net.cpp:106] Creating Layer conv3_3_3x3/relu
I0620 04:25:44.661031  3015 net.cpp:454] conv3_3_3x3/relu <- conv3_3_3x3
I0620 04:25:44.661032  3015 net.cpp:397] conv3_3_3x3/relu -> conv3_3_3x3 (in-place)
I0620 04:25:44.661036  3015 net.cpp:150] Setting up conv3_3_3x3/relu
I0620 04:25:44.661039  3015 net.cpp:157] Top shape: 10 128 60 60 (4608000)
I0620 04:25:44.661041  3015 net.cpp:165] Memory required for data: 7057718000
I0620 04:25:44.661043  3015 layer_factory.hpp:77] Creating layer conv3_3_1x1_increase
I0620 04:25:44.661052  3015 net.cpp:106] Creating Layer conv3_3_1x1_increase
I0620 04:25:44.661058  3015 net.cpp:454] conv3_3_1x1_increase <- conv3_3_3x3
I0620 04:25:44.664724  3015 net.cpp:411] conv3_3_1x1_increase -> conv3_3_1x1_increase
I0620 04:25:44.666510  3015 net.cpp:150] Setting up conv3_3_1x1_increase
I0620 04:25:44.666532  3015 net.cpp:157] Top shape: 10 512 60 60 (18432000)
I0620 04:25:44.666535  3015 net.cpp:165] Memory required for data: 7131446000
I0620 04:25:44.666544  3015 layer_factory.hpp:77] Creating layer conv3_3_1x1_increase/bn
I0620 04:25:44.666554  3015 net.cpp:106] Creating Layer conv3_3_1x1_increase/bn
I0620 04:25:44.666558  3015 net.cpp:454] conv3_3_1x1_increase/bn <- conv3_3_1x1_increase
I0620 04:25:44.666563  3015 net.cpp:397] conv3_3_1x1_increase/bn -> conv3_3_1x1_increase (in-place)
I0620 04:25:44.666713  3015 net.cpp:150] Setting up conv3_3_1x1_increase/bn
I0620 04:25:44.666718  3015 net.cpp:157] Top shape: 10 512 60 60 (18432000)
I0620 04:25:44.666720  3015 net.cpp:165] Memory required for data: 7205174000
I0620 04:25:44.666726  3015 layer_factory.hpp:77] Creating layer conv3_3
I0620 04:25:44.666733  3015 net.cpp:106] Creating Layer conv3_3
I0620 04:25:44.666735  3015 net.cpp:454] conv3_3 <- conv3_2_conv3_2/relu_0_split_1
I0620 04:25:44.666738  3015 net.cpp:454] conv3_3 <- conv3_3_1x1_increase
I0620 04:25:44.666743  3015 net.cpp:411] conv3_3 -> conv3_3
I0620 04:25:44.666759  3015 net.cpp:150] Setting up conv3_3
I0620 04:25:44.666764  3015 net.cpp:157] Top shape: 10 512 60 60 (18432000)
I0620 04:25:44.666766  3015 net.cpp:165] Memory required for data: 7278902000
I0620 04:25:44.666769  3015 layer_factory.hpp:77] Creating layer conv3_3/relu
I0620 04:25:44.666774  3015 net.cpp:106] Creating Layer conv3_3/relu
I0620 04:25:44.666776  3015 net.cpp:454] conv3_3/relu <- conv3_3
I0620 04:25:44.666779  3015 net.cpp:397] conv3_3/relu -> conv3_3 (in-place)
I0620 04:25:44.666784  3015 net.cpp:150] Setting up conv3_3/relu
I0620 04:25:44.666787  3015 net.cpp:157] Top shape: 10 512 60 60 (18432000)
I0620 04:25:44.666790  3015 net.cpp:165] Memory required for data: 7352630000
I0620 04:25:44.666792  3015 layer_factory.hpp:77] Creating layer conv3_3_conv3_3/relu_0_split
I0620 04:25:44.666797  3015 net.cpp:106] Creating Layer conv3_3_conv3_3/relu_0_split
I0620 04:25:44.666800  3015 net.cpp:454] conv3_3_conv3_3/relu_0_split <- conv3_3
I0620 04:25:44.666803  3015 net.cpp:411] conv3_3_conv3_3/relu_0_split -> conv3_3_conv3_3/relu_0_split_0
I0620 04:25:44.666806  3015 net.cpp:411] conv3_3_conv3_3/relu_0_split -> conv3_3_conv3_3/relu_0_split_1
I0620 04:25:44.666828  3015 net.cpp:150] Setting up conv3_3_conv3_3/relu_0_split
I0620 04:25:44.666832  3015 net.cpp:157] Top shape: 10 512 60 60 (18432000)
I0620 04:25:44.666836  3015 net.cpp:157] Top shape: 10 512 60 60 (18432000)
I0620 04:25:44.666837  3015 net.cpp:165] Memory required for data: 7500086000
I0620 04:25:44.666841  3015 layer_factory.hpp:77] Creating layer conv3_4_1x1_reduce
I0620 04:25:44.666872  3015 net.cpp:106] Creating Layer conv3_4_1x1_reduce
I0620 04:25:44.666877  3015 net.cpp:454] conv3_4_1x1_reduce <- conv3_3_conv3_3/relu_0_split_0
I0620 04:25:44.666880  3015 net.cpp:411] conv3_4_1x1_reduce -> conv3_4_1x1_reduce
I0620 04:25:44.668498  3015 net.cpp:150] Setting up conv3_4_1x1_reduce
I0620 04:25:44.668505  3015 net.cpp:157] Top shape: 10 128 60 60 (4608000)
I0620 04:25:44.668509  3015 net.cpp:165] Memory required for data: 7518518000
I0620 04:25:44.668512  3015 layer_factory.hpp:77] Creating layer conv3_4_1x1_reduce/bn
I0620 04:25:44.668519  3015 net.cpp:106] Creating Layer conv3_4_1x1_reduce/bn
I0620 04:25:44.668525  3015 net.cpp:454] conv3_4_1x1_reduce/bn <- conv3_4_1x1_reduce
I0620 04:25:44.668534  3015 net.cpp:397] conv3_4_1x1_reduce/bn -> conv3_4_1x1_reduce (in-place)
I0620 04:25:44.668684  3015 net.cpp:150] Setting up conv3_4_1x1_reduce/bn
I0620 04:25:44.668694  3015 net.cpp:157] Top shape: 10 128 60 60 (4608000)
I0620 04:25:44.668699  3015 net.cpp:165] Memory required for data: 7536950000
I0620 04:25:44.668705  3015 layer_factory.hpp:77] Creating layer conv3_4_1x1_reduce/relu
I0620 04:25:44.668710  3015 net.cpp:106] Creating Layer conv3_4_1x1_reduce/relu
I0620 04:25:44.668712  3015 net.cpp:454] conv3_4_1x1_reduce/relu <- conv3_4_1x1_reduce
I0620 04:25:44.668716  3015 net.cpp:397] conv3_4_1x1_reduce/relu -> conv3_4_1x1_reduce (in-place)
I0620 04:25:44.668720  3015 net.cpp:150] Setting up conv3_4_1x1_reduce/relu
I0620 04:25:44.668723  3015 net.cpp:157] Top shape: 10 128 60 60 (4608000)
I0620 04:25:44.668726  3015 net.cpp:165] Memory required for data: 7555382000
I0620 04:25:44.668728  3015 layer_factory.hpp:77] Creating layer conv3_4_3x3
I0620 04:25:44.668733  3015 net.cpp:106] Creating Layer conv3_4_3x3
I0620 04:25:44.668736  3015 net.cpp:454] conv3_4_3x3 <- conv3_4_1x1_reduce
I0620 04:25:44.668741  3015 net.cpp:411] conv3_4_3x3 -> conv3_4_3x3
I0620 04:25:44.672179  3015 net.cpp:150] Setting up conv3_4_3x3
I0620 04:25:44.672186  3015 net.cpp:157] Top shape: 10 128 60 60 (4608000)
I0620 04:25:44.672189  3015 net.cpp:165] Memory required for data: 7573814000
I0620 04:25:44.672193  3015 layer_factory.hpp:77] Creating layer conv3_4_3x3/bn
I0620 04:25:44.672199  3015 net.cpp:106] Creating Layer conv3_4_3x3/bn
I0620 04:25:44.672201  3015 net.cpp:454] conv3_4_3x3/bn <- conv3_4_3x3
I0620 04:25:44.672207  3015 net.cpp:397] conv3_4_3x3/bn -> conv3_4_3x3 (in-place)
I0620 04:25:44.672348  3015 net.cpp:150] Setting up conv3_4_3x3/bn
I0620 04:25:44.672354  3015 net.cpp:157] Top shape: 10 128 60 60 (4608000)
I0620 04:25:44.672358  3015 net.cpp:165] Memory required for data: 7592246000
I0620 04:25:44.672369  3015 layer_factory.hpp:77] Creating layer conv3_4_3x3/relu
I0620 04:25:44.672379  3015 net.cpp:106] Creating Layer conv3_4_3x3/relu
I0620 04:25:44.672384  3015 net.cpp:454] conv3_4_3x3/relu <- conv3_4_3x3
I0620 04:25:44.672390  3015 net.cpp:397] conv3_4_3x3/relu -> conv3_4_3x3 (in-place)
I0620 04:25:44.672399  3015 net.cpp:150] Setting up conv3_4_3x3/relu
I0620 04:25:44.672405  3015 net.cpp:157] Top shape: 10 128 60 60 (4608000)
I0620 04:25:44.672408  3015 net.cpp:165] Memory required for data: 7610678000
I0620 04:25:44.672411  3015 layer_factory.hpp:77] Creating layer conv3_4_1x1_increase
I0620 04:25:44.672417  3015 net.cpp:106] Creating Layer conv3_4_1x1_increase
I0620 04:25:44.672420  3015 net.cpp:454] conv3_4_1x1_increase <- conv3_4_3x3
I0620 04:25:44.672425  3015 net.cpp:411] conv3_4_1x1_increase -> conv3_4_1x1_increase
I0620 04:25:44.674052  3015 net.cpp:150] Setting up conv3_4_1x1_increase
I0620 04:25:44.674064  3015 net.cpp:157] Top shape: 10 512 60 60 (18432000)
I0620 04:25:44.674067  3015 net.cpp:165] Memory required for data: 7684406000
I0620 04:25:44.674072  3015 layer_factory.hpp:77] Creating layer conv3_4_1x1_increase/bn
I0620 04:25:44.674077  3015 net.cpp:106] Creating Layer conv3_4_1x1_increase/bn
I0620 04:25:44.674080  3015 net.cpp:454] conv3_4_1x1_increase/bn <- conv3_4_1x1_increase
I0620 04:25:44.674084  3015 net.cpp:397] conv3_4_1x1_increase/bn -> conv3_4_1x1_increase (in-place)
I0620 04:25:44.674264  3015 net.cpp:150] Setting up conv3_4_1x1_increase/bn
I0620 04:25:44.674270  3015 net.cpp:157] Top shape: 10 512 60 60 (18432000)
I0620 04:25:44.674273  3015 net.cpp:165] Memory required for data: 7758134000
I0620 04:25:44.674299  3015 layer_factory.hpp:77] Creating layer conv3_4
I0620 04:25:44.674314  3015 net.cpp:106] Creating Layer conv3_4
I0620 04:25:44.674320  3015 net.cpp:454] conv3_4 <- conv3_3_conv3_3/relu_0_split_1
I0620 04:25:44.674327  3015 net.cpp:454] conv3_4 <- conv3_4_1x1_increase
I0620 04:25:44.674335  3015 net.cpp:411] conv3_4 -> conv3_4
I0620 04:25:44.674366  3015 net.cpp:150] Setting up conv3_4
I0620 04:25:44.674371  3015 net.cpp:157] Top shape: 10 512 60 60 (18432000)
I0620 04:25:44.674373  3015 net.cpp:165] Memory required for data: 7831862000
I0620 04:25:44.674376  3015 layer_factory.hpp:77] Creating layer conv3_4/relu
I0620 04:25:44.674381  3015 net.cpp:106] Creating Layer conv3_4/relu
I0620 04:25:44.674384  3015 net.cpp:454] conv3_4/relu <- conv3_4
I0620 04:25:44.674387  3015 net.cpp:397] conv3_4/relu -> conv3_4 (in-place)
I0620 04:25:44.674391  3015 net.cpp:150] Setting up conv3_4/relu
I0620 04:25:44.674394  3015 net.cpp:157] Top shape: 10 512 60 60 (18432000)
I0620 04:25:44.674398  3015 net.cpp:165] Memory required for data: 7905590000
I0620 04:25:44.674401  3015 layer_factory.hpp:77] Creating layer conv3_4_conv3_4/relu_0_split
I0620 04:25:44.674405  3015 net.cpp:106] Creating Layer conv3_4_conv3_4/relu_0_split
I0620 04:25:44.674407  3015 net.cpp:454] conv3_4_conv3_4/relu_0_split <- conv3_4
I0620 04:25:44.674412  3015 net.cpp:411] conv3_4_conv3_4/relu_0_split -> conv3_4_conv3_4/relu_0_split_0
I0620 04:25:44.674417  3015 net.cpp:411] conv3_4_conv3_4/relu_0_split -> conv3_4_conv3_4/relu_0_split_1
I0620 04:25:44.674438  3015 net.cpp:150] Setting up conv3_4_conv3_4/relu_0_split
I0620 04:25:44.674443  3015 net.cpp:157] Top shape: 10 512 60 60 (18432000)
I0620 04:25:44.674445  3015 net.cpp:157] Top shape: 10 512 60 60 (18432000)
I0620 04:25:44.674448  3015 net.cpp:165] Memory required for data: 8053046000
I0620 04:25:44.674450  3015 layer_factory.hpp:77] Creating layer conv4_1_1x1_reduce
I0620 04:25:44.674463  3015 net.cpp:106] Creating Layer conv4_1_1x1_reduce
I0620 04:25:44.674469  3015 net.cpp:454] conv4_1_1x1_reduce <- conv3_4_conv3_4/relu_0_split_0
I0620 04:25:44.674479  3015 net.cpp:411] conv4_1_1x1_reduce -> conv4_1_1x1_reduce
I0620 04:25:44.677696  3015 net.cpp:150] Setting up conv4_1_1x1_reduce
I0620 04:25:44.677721  3015 net.cpp:157] Top shape: 10 256 60 60 (9216000)
I0620 04:25:44.677723  3015 net.cpp:165] Memory required for data: 8089910000
I0620 04:25:44.677731  3015 layer_factory.hpp:77] Creating layer conv4_1_1x1_reduce/bn
I0620 04:25:44.677741  3015 net.cpp:106] Creating Layer conv4_1_1x1_reduce/bn
I0620 04:25:44.677744  3015 net.cpp:454] conv4_1_1x1_reduce/bn <- conv4_1_1x1_reduce
I0620 04:25:44.677762  3015 net.cpp:397] conv4_1_1x1_reduce/bn -> conv4_1_1x1_reduce (in-place)
I0620 04:25:44.677983  3015 net.cpp:150] Setting up conv4_1_1x1_reduce/bn
I0620 04:25:44.677989  3015 net.cpp:157] Top shape: 10 256 60 60 (9216000)
I0620 04:25:44.677991  3015 net.cpp:165] Memory required for data: 8126774000
I0620 04:25:44.677999  3015 layer_factory.hpp:77] Creating layer conv4_1_1x1_reduce/relu
I0620 04:25:44.678005  3015 net.cpp:106] Creating Layer conv4_1_1x1_reduce/relu
I0620 04:25:44.678009  3015 net.cpp:454] conv4_1_1x1_reduce/relu <- conv4_1_1x1_reduce
I0620 04:25:44.678011  3015 net.cpp:397] conv4_1_1x1_reduce/relu -> conv4_1_1x1_reduce (in-place)
I0620 04:25:44.678015  3015 net.cpp:150] Setting up conv4_1_1x1_reduce/relu
I0620 04:25:44.678020  3015 net.cpp:157] Top shape: 10 256 60 60 (9216000)
I0620 04:25:44.678021  3015 net.cpp:165] Memory required for data: 8163638000
I0620 04:25:44.678025  3015 layer_factory.hpp:77] Creating layer conv4_1_3x3
I0620 04:25:44.678031  3015 net.cpp:106] Creating Layer conv4_1_3x3
I0620 04:25:44.678035  3015 net.cpp:454] conv4_1_3x3 <- conv4_1_1x1_reduce
I0620 04:25:44.678038  3015 net.cpp:411] conv4_1_3x3 -> conv4_1_3x3
I0620 04:25:44.693132  3015 net.cpp:150] Setting up conv4_1_3x3
I0620 04:25:44.693193  3015 net.cpp:157] Top shape: 10 256 60 60 (9216000)
I0620 04:25:44.693197  3015 net.cpp:165] Memory required for data: 8200502000
I0620 04:25:44.693209  3015 layer_factory.hpp:77] Creating layer conv4_1_3x3/bn
I0620 04:25:44.693228  3015 net.cpp:106] Creating Layer conv4_1_3x3/bn
I0620 04:25:44.693235  3015 net.cpp:454] conv4_1_3x3/bn <- conv4_1_3x3
I0620 04:25:44.693243  3015 net.cpp:397] conv4_1_3x3/bn -> conv4_1_3x3 (in-place)
I0620 04:25:44.693447  3015 net.cpp:150] Setting up conv4_1_3x3/bn
I0620 04:25:44.693455  3015 net.cpp:157] Top shape: 10 256 60 60 (9216000)
I0620 04:25:44.693459  3015 net.cpp:165] Memory required for data: 8237366000
I0620 04:25:44.693465  3015 layer_factory.hpp:77] Creating layer conv4_1_3x3/relu
I0620 04:25:44.693473  3015 net.cpp:106] Creating Layer conv4_1_3x3/relu
I0620 04:25:44.693476  3015 net.cpp:454] conv4_1_3x3/relu <- conv4_1_3x3
I0620 04:25:44.693481  3015 net.cpp:397] conv4_1_3x3/relu -> conv4_1_3x3 (in-place)
I0620 04:25:44.693487  3015 net.cpp:150] Setting up conv4_1_3x3/relu
I0620 04:25:44.693491  3015 net.cpp:157] Top shape: 10 256 60 60 (9216000)
I0620 04:25:44.693495  3015 net.cpp:165] Memory required for data: 8274230000
I0620 04:25:44.693497  3015 layer_factory.hpp:77] Creating layer conv4_1_1x1_increase
I0620 04:25:44.693506  3015 net.cpp:106] Creating Layer conv4_1_1x1_increase
I0620 04:25:44.693509  3015 net.cpp:454] conv4_1_1x1_increase <- conv4_1_3x3
I0620 04:25:44.693513  3015 net.cpp:411] conv4_1_1x1_increase -> conv4_1_1x1_increase
I0620 04:25:44.711113  3015 net.cpp:150] Setting up conv4_1_1x1_increase
I0620 04:25:44.711148  3015 net.cpp:157] Top shape: 10 1024 60 60 (36864000)
I0620 04:25:44.711151  3015 net.cpp:165] Memory required for data: 8421686000
I0620 04:25:44.711158  3015 layer_factory.hpp:77] Creating layer conv4_1_1x1_increase/bn
I0620 04:25:44.711168  3015 net.cpp:106] Creating Layer conv4_1_1x1_increase/bn
I0620 04:25:44.711172  3015 net.cpp:454] conv4_1_1x1_increase/bn <- conv4_1_1x1_increase
I0620 04:25:44.711177  3015 net.cpp:397] conv4_1_1x1_increase/bn -> conv4_1_1x1_increase (in-place)
I0620 04:25:44.711328  3015 net.cpp:150] Setting up conv4_1_1x1_increase/bn
I0620 04:25:44.711333  3015 net.cpp:157] Top shape: 10 1024 60 60 (36864000)
I0620 04:25:44.711335  3015 net.cpp:165] Memory required for data: 8569142000
I0620 04:25:44.711341  3015 layer_factory.hpp:77] Creating layer conv4_1_1x1_proj
I0620 04:25:44.711349  3015 net.cpp:106] Creating Layer conv4_1_1x1_proj
I0620 04:25:44.711352  3015 net.cpp:454] conv4_1_1x1_proj <- conv3_4_conv3_4/relu_0_split_1
I0620 04:25:44.711357  3015 net.cpp:411] conv4_1_1x1_proj -> conv4_1_1x1_proj
I0620 04:25:44.723191  3015 net.cpp:150] Setting up conv4_1_1x1_proj
I0620 04:25:44.723215  3015 net.cpp:157] Top shape: 10 1024 60 60 (36864000)
I0620 04:25:44.723222  3015 net.cpp:165] Memory required for data: 8716598000
I0620 04:25:44.723233  3015 layer_factory.hpp:77] Creating layer conv4_1_1x1_proj/bn
I0620 04:25:44.723251  3015 net.cpp:106] Creating Layer conv4_1_1x1_proj/bn
I0620 04:25:44.723258  3015 net.cpp:454] conv4_1_1x1_proj/bn <- conv4_1_1x1_proj
I0620 04:25:44.723271  3015 net.cpp:397] conv4_1_1x1_proj/bn -> conv4_1_1x1_proj (in-place)
I0620 04:25:44.723430  3015 net.cpp:150] Setting up conv4_1_1x1_proj/bn
I0620 04:25:44.723435  3015 net.cpp:157] Top shape: 10 1024 60 60 (36864000)
I0620 04:25:44.723438  3015 net.cpp:165] Memory required for data: 8864054000
I0620 04:25:44.723444  3015 layer_factory.hpp:77] Creating layer conv4_1
I0620 04:25:44.723449  3015 net.cpp:106] Creating Layer conv4_1
I0620 04:25:44.723453  3015 net.cpp:454] conv4_1 <- conv4_1_1x1_proj
I0620 04:25:44.723456  3015 net.cpp:454] conv4_1 <- conv4_1_1x1_increase
I0620 04:25:44.723459  3015 net.cpp:411] conv4_1 -> conv4_1
I0620 04:25:44.723479  3015 net.cpp:150] Setting up conv4_1
I0620 04:25:44.723482  3015 net.cpp:157] Top shape: 10 1024 60 60 (36864000)
I0620 04:25:44.723485  3015 net.cpp:165] Memory required for data: 9011510000
I0620 04:25:44.723500  3015 layer_factory.hpp:77] Creating layer conv4_1/relu
I0620 04:25:44.723506  3015 net.cpp:106] Creating Layer conv4_1/relu
I0620 04:25:44.723510  3015 net.cpp:454] conv4_1/relu <- conv4_1
I0620 04:25:44.723513  3015 net.cpp:397] conv4_1/relu -> conv4_1 (in-place)
I0620 04:25:44.723518  3015 net.cpp:150] Setting up conv4_1/relu
I0620 04:25:44.723522  3015 net.cpp:157] Top shape: 10 1024 60 60 (36864000)
I0620 04:25:44.723525  3015 net.cpp:165] Memory required for data: 9158966000
I0620 04:25:44.723527  3015 layer_factory.hpp:77] Creating layer conv4_1_conv4_1/relu_0_split
I0620 04:25:44.723531  3015 net.cpp:106] Creating Layer conv4_1_conv4_1/relu_0_split
I0620 04:25:44.723534  3015 net.cpp:454] conv4_1_conv4_1/relu_0_split <- conv4_1
I0620 04:25:44.723537  3015 net.cpp:411] conv4_1_conv4_1/relu_0_split -> conv4_1_conv4_1/relu_0_split_0
I0620 04:25:44.723541  3015 net.cpp:411] conv4_1_conv4_1/relu_0_split -> conv4_1_conv4_1/relu_0_split_1
I0620 04:25:44.723565  3015 net.cpp:150] Setting up conv4_1_conv4_1/relu_0_split
I0620 04:25:44.723569  3015 net.cpp:157] Top shape: 10 1024 60 60 (36864000)
I0620 04:25:44.723573  3015 net.cpp:157] Top shape: 10 1024 60 60 (36864000)
I0620 04:25:44.723575  3015 net.cpp:165] Memory required for data: 9453878000
I0620 04:25:44.723578  3015 layer_factory.hpp:77] Creating layer conv4_2_1x1_reduce
I0620 04:25:44.723587  3015 net.cpp:106] Creating Layer conv4_2_1x1_reduce
I0620 04:25:44.723588  3015 net.cpp:454] conv4_2_1x1_reduce <- conv4_1_conv4_1/relu_0_split_0
I0620 04:25:44.723593  3015 net.cpp:411] conv4_2_1x1_reduce -> conv4_2_1x1_reduce
I0620 04:25:44.729359  3015 net.cpp:150] Setting up conv4_2_1x1_reduce
I0620 04:25:44.729390  3015 net.cpp:157] Top shape: 10 256 60 60 (9216000)
I0620 04:25:44.729408  3015 net.cpp:165] Memory required for data: 9490742000
I0620 04:25:44.729414  3015 layer_factory.hpp:77] Creating layer conv4_2_1x1_reduce/bn
I0620 04:25:44.729429  3015 net.cpp:106] Creating Layer conv4_2_1x1_reduce/bn
I0620 04:25:44.729434  3015 net.cpp:454] conv4_2_1x1_reduce/bn <- conv4_2_1x1_reduce
I0620 04:25:44.729440  3015 net.cpp:397] conv4_2_1x1_reduce/bn -> conv4_2_1x1_reduce (in-place)
I0620 04:25:44.729599  3015 net.cpp:150] Setting up conv4_2_1x1_reduce/bn
I0620 04:25:44.729605  3015 net.cpp:157] Top shape: 10 256 60 60 (9216000)
I0620 04:25:44.729609  3015 net.cpp:165] Memory required for data: 9527606000
I0620 04:25:44.729614  3015 layer_factory.hpp:77] Creating layer conv4_2_1x1_reduce/relu
I0620 04:25:44.729619  3015 net.cpp:106] Creating Layer conv4_2_1x1_reduce/relu
I0620 04:25:44.729622  3015 net.cpp:454] conv4_2_1x1_reduce/relu <- conv4_2_1x1_reduce
I0620 04:25:44.729627  3015 net.cpp:397] conv4_2_1x1_reduce/relu -> conv4_2_1x1_reduce (in-place)
I0620 04:25:44.729631  3015 net.cpp:150] Setting up conv4_2_1x1_reduce/relu
I0620 04:25:44.729635  3015 net.cpp:157] Top shape: 10 256 60 60 (9216000)
I0620 04:25:44.729637  3015 net.cpp:165] Memory required for data: 9564470000
I0620 04:25:44.729640  3015 layer_factory.hpp:77] Creating layer conv4_2_3x3
I0620 04:25:44.729648  3015 net.cpp:106] Creating Layer conv4_2_3x3
I0620 04:25:44.729651  3015 net.cpp:454] conv4_2_3x3 <- conv4_2_1x1_reduce
I0620 04:25:44.729656  3015 net.cpp:411] conv4_2_3x3 -> conv4_2_3x3
I0620 04:25:44.743182  3015 net.cpp:150] Setting up conv4_2_3x3
I0620 04:25:44.743253  3015 net.cpp:157] Top shape: 10 256 60 60 (9216000)
I0620 04:25:44.743258  3015 net.cpp:165] Memory required for data: 9601334000
I0620 04:25:44.743273  3015 layer_factory.hpp:77] Creating layer conv4_2_3x3/bn
I0620 04:25:44.743297  3015 net.cpp:106] Creating Layer conv4_2_3x3/bn
I0620 04:25:44.743309  3015 net.cpp:454] conv4_2_3x3/bn <- conv4_2_3x3
I0620 04:25:44.743319  3015 net.cpp:397] conv4_2_3x3/bn -> conv4_2_3x3 (in-place)
I0620 04:25:44.743546  3015 net.cpp:150] Setting up conv4_2_3x3/bn
I0620 04:25:44.743553  3015 net.cpp:157] Top shape: 10 256 60 60 (9216000)
I0620 04:25:44.743561  3015 net.cpp:165] Memory required for data: 9638198000
I0620 04:25:44.743568  3015 layer_factory.hpp:77] Creating layer conv4_2_3x3/relu
I0620 04:25:44.743628  3015 net.cpp:106] Creating Layer conv4_2_3x3/relu
I0620 04:25:44.743630  3015 net.cpp:454] conv4_2_3x3/relu <- conv4_2_3x3
I0620 04:25:44.743634  3015 net.cpp:397] conv4_2_3x3/relu -> conv4_2_3x3 (in-place)
I0620 04:25:44.743640  3015 net.cpp:150] Setting up conv4_2_3x3/relu
I0620 04:25:44.743644  3015 net.cpp:157] Top shape: 10 256 60 60 (9216000)
I0620 04:25:44.743647  3015 net.cpp:165] Memory required for data: 9675062000
I0620 04:25:44.743650  3015 layer_factory.hpp:77] Creating layer conv4_2_1x1_increase
I0620 04:25:44.743660  3015 net.cpp:106] Creating Layer conv4_2_1x1_increase
I0620 04:25:44.743664  3015 net.cpp:454] conv4_2_1x1_increase <- conv4_2_3x3
I0620 04:25:44.743670  3015 net.cpp:411] conv4_2_1x1_increase -> conv4_2_1x1_increase
I0620 04:25:44.754209  3015 net.cpp:150] Setting up conv4_2_1x1_increase
I0620 04:25:44.754305  3015 net.cpp:157] Top shape: 10 1024 60 60 (36864000)
I0620 04:25:44.754317  3015 net.cpp:165] Memory required for data: 9822518000
I0620 04:25:44.754338  3015 layer_factory.hpp:77] Creating layer conv4_2_1x1_increase/bn
I0620 04:25:44.754374  3015 net.cpp:106] Creating Layer conv4_2_1x1_increase/bn
I0620 04:25:44.754392  3015 net.cpp:454] conv4_2_1x1_increase/bn <- conv4_2_1x1_increase
I0620 04:25:44.754407  3015 net.cpp:397] conv4_2_1x1_increase/bn -> conv4_2_1x1_increase (in-place)
I0620 04:25:44.754685  3015 net.cpp:150] Setting up conv4_2_1x1_increase/bn
I0620 04:25:44.754701  3015 net.cpp:157] Top shape: 10 1024 60 60 (36864000)
I0620 04:25:44.754711  3015 net.cpp:165] Memory required for data: 9969974000
I0620 04:25:44.754722  3015 layer_factory.hpp:77] Creating layer conv4_2
I0620 04:25:44.754739  3015 net.cpp:106] Creating Layer conv4_2
I0620 04:25:44.754746  3015 net.cpp:454] conv4_2 <- conv4_1_conv4_1/relu_0_split_1
I0620 04:25:44.754755  3015 net.cpp:454] conv4_2 <- conv4_2_1x1_increase
I0620 04:25:44.754765  3015 net.cpp:411] conv4_2 -> conv4_2
I0620 04:25:44.754807  3015 net.cpp:150] Setting up conv4_2
I0620 04:25:44.754817  3015 net.cpp:157] Top shape: 10 1024 60 60 (36864000)
I0620 04:25:44.754822  3015 net.cpp:165] Memory required for data: 10117430000
I0620 04:25:44.754828  3015 layer_factory.hpp:77] Creating layer conv4_2/relu
I0620 04:25:44.754842  3015 net.cpp:106] Creating Layer conv4_2/relu
I0620 04:25:44.754849  3015 net.cpp:454] conv4_2/relu <- conv4_2
I0620 04:25:44.754856  3015 net.cpp:397] conv4_2/relu -> conv4_2 (in-place)
I0620 04:25:44.754868  3015 net.cpp:150] Setting up conv4_2/relu
I0620 04:25:44.754874  3015 net.cpp:157] Top shape: 10 1024 60 60 (36864000)
I0620 04:25:44.754880  3015 net.cpp:165] Memory required for data: 10264886000
I0620 04:25:44.754886  3015 layer_factory.hpp:77] Creating layer conv4_2_conv4_2/relu_0_split
I0620 04:25:44.754899  3015 net.cpp:106] Creating Layer conv4_2_conv4_2/relu_0_split
I0620 04:25:44.754905  3015 net.cpp:454] conv4_2_conv4_2/relu_0_split <- conv4_2
I0620 04:25:44.754914  3015 net.cpp:411] conv4_2_conv4_2/relu_0_split -> conv4_2_conv4_2/relu_0_split_0
I0620 04:25:44.754940  3015 net.cpp:411] conv4_2_conv4_2/relu_0_split -> conv4_2_conv4_2/relu_0_split_1
I0620 04:25:44.754976  3015 net.cpp:150] Setting up conv4_2_conv4_2/relu_0_split
I0620 04:25:44.754987  3015 net.cpp:157] Top shape: 10 1024 60 60 (36864000)
I0620 04:25:44.754994  3015 net.cpp:157] Top shape: 10 1024 60 60 (36864000)
I0620 04:25:44.755000  3015 net.cpp:165] Memory required for data: 10559798000
I0620 04:25:44.755007  3015 layer_factory.hpp:77] Creating layer conv4_3_1x1_reduce
I0620 04:25:44.755040  3015 net.cpp:106] Creating Layer conv4_3_1x1_reduce
I0620 04:25:44.755049  3015 net.cpp:454] conv4_3_1x1_reduce <- conv4_2_conv4_2/relu_0_split_0
I0620 04:25:44.755059  3015 net.cpp:411] conv4_3_1x1_reduce -> conv4_3_1x1_reduce
I0620 04:25:44.761379  3015 net.cpp:150] Setting up conv4_3_1x1_reduce
I0620 04:25:44.761421  3015 net.cpp:157] Top shape: 10 256 60 60 (9216000)
I0620 04:25:44.761425  3015 net.cpp:165] Memory required for data: 10596662000
I0620 04:25:44.761437  3015 layer_factory.hpp:77] Creating layer conv4_3_1x1_reduce/bn
I0620 04:25:44.761528  3015 net.cpp:106] Creating Layer conv4_3_1x1_reduce/bn
I0620 04:25:44.761543  3015 net.cpp:454] conv4_3_1x1_reduce/bn <- conv4_3_1x1_reduce
I0620 04:25:44.761559  3015 net.cpp:397] conv4_3_1x1_reduce/bn -> conv4_3_1x1_reduce (in-place)
I0620 04:25:44.761749  3015 net.cpp:150] Setting up conv4_3_1x1_reduce/bn
I0620 04:25:44.761764  3015 net.cpp:157] Top shape: 10 256 60 60 (9216000)
I0620 04:25:44.761767  3015 net.cpp:165] Memory required for data: 10633526000
I0620 04:25:44.761776  3015 layer_factory.hpp:77] Creating layer conv4_3_1x1_reduce/relu
I0620 04:25:44.761785  3015 net.cpp:106] Creating Layer conv4_3_1x1_reduce/relu
I0620 04:25:44.761788  3015 net.cpp:454] conv4_3_1x1_reduce/relu <- conv4_3_1x1_reduce
I0620 04:25:44.761792  3015 net.cpp:397] conv4_3_1x1_reduce/relu -> conv4_3_1x1_reduce (in-place)
I0620 04:25:44.761798  3015 net.cpp:150] Setting up conv4_3_1x1_reduce/relu
I0620 04:25:44.761802  3015 net.cpp:157] Top shape: 10 256 60 60 (9216000)
I0620 04:25:44.761806  3015 net.cpp:165] Memory required for data: 10670390000
I0620 04:25:44.761808  3015 layer_factory.hpp:77] Creating layer conv4_3_3x3
I0620 04:25:44.761818  3015 net.cpp:106] Creating Layer conv4_3_3x3
I0620 04:25:44.761822  3015 net.cpp:454] conv4_3_3x3 <- conv4_3_1x1_reduce
I0620 04:25:44.761831  3015 net.cpp:411] conv4_3_3x3 -> conv4_3_3x3
I0620 04:25:44.775279  3015 net.cpp:150] Setting up conv4_3_3x3
I0620 04:25:44.775317  3015 net.cpp:157] Top shape: 10 256 60 60 (9216000)
I0620 04:25:44.775324  3015 net.cpp:165] Memory required for data: 10707254000
I0620 04:25:44.775342  3015 layer_factory.hpp:77] Creating layer conv4_3_3x3/bn
I0620 04:25:44.775357  3015 net.cpp:106] Creating Layer conv4_3_3x3/bn
I0620 04:25:44.775362  3015 net.cpp:454] conv4_3_3x3/bn <- conv4_3_3x3
I0620 04:25:44.775372  3015 net.cpp:397] conv4_3_3x3/bn -> conv4_3_3x3 (in-place)
I0620 04:25:44.775532  3015 net.cpp:150] Setting up conv4_3_3x3/bn
I0620 04:25:44.775537  3015 net.cpp:157] Top shape: 10 256 60 60 (9216000)
I0620 04:25:44.775540  3015 net.cpp:165] Memory required for data: 10744118000
I0620 04:25:44.775547  3015 layer_factory.hpp:77] Creating layer conv4_3_3x3/relu
I0620 04:25:44.775552  3015 net.cpp:106] Creating Layer conv4_3_3x3/relu
I0620 04:25:44.775554  3015 net.cpp:454] conv4_3_3x3/relu <- conv4_3_3x3
I0620 04:25:44.775558  3015 net.cpp:397] conv4_3_3x3/relu -> conv4_3_3x3 (in-place)
I0620 04:25:44.775563  3015 net.cpp:150] Setting up conv4_3_3x3/relu
I0620 04:25:44.775566  3015 net.cpp:157] Top shape: 10 256 60 60 (9216000)
I0620 04:25:44.775568  3015 net.cpp:165] Memory required for data: 10780982000
I0620 04:25:44.775571  3015 layer_factory.hpp:77] Creating layer conv4_3_1x1_increase
I0620 04:25:44.775578  3015 net.cpp:106] Creating Layer conv4_3_1x1_increase
I0620 04:25:44.775579  3015 net.cpp:454] conv4_3_1x1_increase <- conv4_3_3x3
I0620 04:25:44.775584  3015 net.cpp:411] conv4_3_1x1_increase -> conv4_3_1x1_increase
I0620 04:25:44.782001  3015 net.cpp:150] Setting up conv4_3_1x1_increase
I0620 04:25:44.782023  3015 net.cpp:157] Top shape: 10 1024 60 60 (36864000)
I0620 04:25:44.782027  3015 net.cpp:165] Memory required for data: 10928438000
I0620 04:25:44.782033  3015 layer_factory.hpp:77] Creating layer conv4_3_1x1_increase/bn
I0620 04:25:44.782042  3015 net.cpp:106] Creating Layer conv4_3_1x1_increase/bn
I0620 04:25:44.782048  3015 net.cpp:454] conv4_3_1x1_increase/bn <- conv4_3_1x1_increase
I0620 04:25:44.782054  3015 net.cpp:397] conv4_3_1x1_increase/bn -> conv4_3_1x1_increase (in-place)
I0620 04:25:44.782224  3015 net.cpp:150] Setting up conv4_3_1x1_increase/bn
I0620 04:25:44.782229  3015 net.cpp:157] Top shape: 10 1024 60 60 (36864000)
I0620 04:25:44.782232  3015 net.cpp:165] Memory required for data: 11075894000
I0620 04:25:44.782238  3015 layer_factory.hpp:77] Creating layer conv4_3
I0620 04:25:44.782243  3015 net.cpp:106] Creating Layer conv4_3
I0620 04:25:44.782246  3015 net.cpp:454] conv4_3 <- conv4_2_conv4_2/relu_0_split_1
I0620 04:25:44.782250  3015 net.cpp:454] conv4_3 <- conv4_3_1x1_increase
I0620 04:25:44.782272  3015 net.cpp:411] conv4_3 -> conv4_3
I0620 04:25:44.782296  3015 net.cpp:150] Setting up conv4_3
I0620 04:25:44.782302  3015 net.cpp:157] Top shape: 10 1024 60 60 (36864000)
I0620 04:25:44.782305  3015 net.cpp:165] Memory required for data: 11223350000
I0620 04:25:44.782307  3015 layer_factory.hpp:77] Creating layer conv4_3/relu
I0620 04:25:44.782311  3015 net.cpp:106] Creating Layer conv4_3/relu
I0620 04:25:44.782315  3015 net.cpp:454] conv4_3/relu <- conv4_3
I0620 04:25:44.782317  3015 net.cpp:397] conv4_3/relu -> conv4_3 (in-place)
I0620 04:25:44.782321  3015 net.cpp:150] Setting up conv4_3/relu
I0620 04:25:44.782325  3015 net.cpp:157] Top shape: 10 1024 60 60 (36864000)
I0620 04:25:44.782327  3015 net.cpp:165] Memory required for data: 11370806000
I0620 04:25:44.782330  3015 layer_factory.hpp:77] Creating layer conv4_3_conv4_3/relu_0_split
I0620 04:25:44.782335  3015 net.cpp:106] Creating Layer conv4_3_conv4_3/relu_0_split
I0620 04:25:44.782337  3015 net.cpp:454] conv4_3_conv4_3/relu_0_split <- conv4_3
I0620 04:25:44.782341  3015 net.cpp:411] conv4_3_conv4_3/relu_0_split -> conv4_3_conv4_3/relu_0_split_0
I0620 04:25:44.782346  3015 net.cpp:411] conv4_3_conv4_3/relu_0_split -> conv4_3_conv4_3/relu_0_split_1
I0620 04:25:44.782366  3015 net.cpp:150] Setting up conv4_3_conv4_3/relu_0_split
I0620 04:25:44.782371  3015 net.cpp:157] Top shape: 10 1024 60 60 (36864000)
I0620 04:25:44.782376  3015 net.cpp:157] Top shape: 10 1024 60 60 (36864000)
I0620 04:25:44.782377  3015 net.cpp:165] Memory required for data: 11665718000
I0620 04:25:44.782380  3015 layer_factory.hpp:77] Creating layer conv4_4_1x1_reduce
I0620 04:25:44.782397  3015 net.cpp:106] Creating Layer conv4_4_1x1_reduce
I0620 04:25:44.782400  3015 net.cpp:454] conv4_4_1x1_reduce <- conv4_3_conv4_3/relu_0_split_0
I0620 04:25:44.782404  3015 net.cpp:411] conv4_4_1x1_reduce -> conv4_4_1x1_reduce
I0620 04:25:44.788159  3015 net.cpp:150] Setting up conv4_4_1x1_reduce
I0620 04:25:44.788187  3015 net.cpp:157] Top shape: 10 256 60 60 (9216000)
I0620 04:25:44.788189  3015 net.cpp:165] Memory required for data: 11702582000
I0620 04:25:44.788200  3015 layer_factory.hpp:77] Creating layer conv4_4_1x1_reduce/bn
I0620 04:25:44.788213  3015 net.cpp:106] Creating Layer conv4_4_1x1_reduce/bn
I0620 04:25:44.788218  3015 net.cpp:454] conv4_4_1x1_reduce/bn <- conv4_4_1x1_reduce
I0620 04:25:44.788226  3015 net.cpp:397] conv4_4_1x1_reduce/bn -> conv4_4_1x1_reduce (in-place)
I0620 04:25:44.788391  3015 net.cpp:150] Setting up conv4_4_1x1_reduce/bn
I0620 04:25:44.788395  3015 net.cpp:157] Top shape: 10 256 60 60 (9216000)
I0620 04:25:44.788398  3015 net.cpp:165] Memory required for data: 11739446000
I0620 04:25:44.788403  3015 layer_factory.hpp:77] Creating layer conv4_4_1x1_reduce/relu
I0620 04:25:44.788408  3015 net.cpp:106] Creating Layer conv4_4_1x1_reduce/relu
I0620 04:25:44.788410  3015 net.cpp:454] conv4_4_1x1_reduce/relu <- conv4_4_1x1_reduce
I0620 04:25:44.788414  3015 net.cpp:397] conv4_4_1x1_reduce/relu -> conv4_4_1x1_reduce (in-place)
I0620 04:25:44.788419  3015 net.cpp:150] Setting up conv4_4_1x1_reduce/relu
I0620 04:25:44.788424  3015 net.cpp:157] Top shape: 10 256 60 60 (9216000)
I0620 04:25:44.788429  3015 net.cpp:165] Memory required for data: 11776310000
I0620 04:25:44.788432  3015 layer_factory.hpp:77] Creating layer conv4_4_3x3
I0620 04:25:44.788439  3015 net.cpp:106] Creating Layer conv4_4_3x3
I0620 04:25:44.788444  3015 net.cpp:454] conv4_4_3x3 <- conv4_4_1x1_reduce
I0620 04:25:44.788450  3015 net.cpp:411] conv4_4_3x3 -> conv4_4_3x3
I0620 04:25:44.807584  3015 net.cpp:150] Setting up conv4_4_3x3
I0620 04:25:44.807675  3015 net.cpp:157] Top shape: 10 256 60 60 (9216000)
I0620 04:25:44.807689  3015 net.cpp:165] Memory required for data: 11813174000
I0620 04:25:44.807713  3015 layer_factory.hpp:77] Creating layer conv4_4_3x3/bn
I0620 04:25:44.807785  3015 net.cpp:106] Creating Layer conv4_4_3x3/bn
I0620 04:25:44.807797  3015 net.cpp:454] conv4_4_3x3/bn <- conv4_4_3x3
I0620 04:25:44.807809  3015 net.cpp:397] conv4_4_3x3/bn -> conv4_4_3x3 (in-place)
I0620 04:25:44.808099  3015 net.cpp:150] Setting up conv4_4_3x3/bn
I0620 04:25:44.808106  3015 net.cpp:157] Top shape: 10 256 60 60 (9216000)
I0620 04:25:44.808110  3015 net.cpp:165] Memory required for data: 11850038000
I0620 04:25:44.808120  3015 layer_factory.hpp:77] Creating layer conv4_4_3x3/relu
I0620 04:25:44.808133  3015 net.cpp:106] Creating Layer conv4_4_3x3/relu
I0620 04:25:44.808138  3015 net.cpp:454] conv4_4_3x3/relu <- conv4_4_3x3
I0620 04:25:44.808143  3015 net.cpp:397] conv4_4_3x3/relu -> conv4_4_3x3 (in-place)
I0620 04:25:44.808151  3015 net.cpp:150] Setting up conv4_4_3x3/relu
I0620 04:25:44.808157  3015 net.cpp:157] Top shape: 10 256 60 60 (9216000)
I0620 04:25:44.808161  3015 net.cpp:165] Memory required for data: 11886902000
I0620 04:25:44.808166  3015 layer_factory.hpp:77] Creating layer conv4_4_1x1_increase
I0620 04:25:44.808177  3015 net.cpp:106] Creating Layer conv4_4_1x1_increase
I0620 04:25:44.808182  3015 net.cpp:454] conv4_4_1x1_increase <- conv4_4_3x3
I0620 04:25:44.808190  3015 net.cpp:411] conv4_4_1x1_increase -> conv4_4_1x1_increase
I0620 04:25:44.814872  3015 net.cpp:150] Setting up conv4_4_1x1_increase
I0620 04:25:44.814887  3015 net.cpp:157] Top shape: 10 1024 60 60 (36864000)
I0620 04:25:44.814890  3015 net.cpp:165] Memory required for data: 12034358000
I0620 04:25:44.814895  3015 layer_factory.hpp:77] Creating layer conv4_4_1x1_increase/bn
I0620 04:25:44.814904  3015 net.cpp:106] Creating Layer conv4_4_1x1_increase/bn
I0620 04:25:44.814908  3015 net.cpp:454] conv4_4_1x1_increase/bn <- conv4_4_1x1_increase
I0620 04:25:44.814910  3015 net.cpp:397] conv4_4_1x1_increase/bn -> conv4_4_1x1_increase (in-place)
I0620 04:25:44.815066  3015 net.cpp:150] Setting up conv4_4_1x1_increase/bn
I0620 04:25:44.815071  3015 net.cpp:157] Top shape: 10 1024 60 60 (36864000)
I0620 04:25:44.815074  3015 net.cpp:165] Memory required for data: 12181814000
I0620 04:25:44.815080  3015 layer_factory.hpp:77] Creating layer conv4_4
I0620 04:25:44.815084  3015 net.cpp:106] Creating Layer conv4_4
I0620 04:25:44.815086  3015 net.cpp:454] conv4_4 <- conv4_3_conv4_3/relu_0_split_1
I0620 04:25:44.815089  3015 net.cpp:454] conv4_4 <- conv4_4_1x1_increase
I0620 04:25:44.815093  3015 net.cpp:411] conv4_4 -> conv4_4
I0620 04:25:44.815114  3015 net.cpp:150] Setting up conv4_4
I0620 04:25:44.815119  3015 net.cpp:157] Top shape: 10 1024 60 60 (36864000)
I0620 04:25:44.815124  3015 net.cpp:165] Memory required for data: 12329270000
I0620 04:25:44.815125  3015 layer_factory.hpp:77] Creating layer conv4_4/relu
I0620 04:25:44.815130  3015 net.cpp:106] Creating Layer conv4_4/relu
I0620 04:25:44.815132  3015 net.cpp:454] conv4_4/relu <- conv4_4
I0620 04:25:44.815135  3015 net.cpp:397] conv4_4/relu -> conv4_4 (in-place)
I0620 04:25:44.815140  3015 net.cpp:150] Setting up conv4_4/relu
I0620 04:25:44.815141  3015 net.cpp:157] Top shape: 10 1024 60 60 (36864000)
I0620 04:25:44.815143  3015 net.cpp:165] Memory required for data: 12476726000
I0620 04:25:44.815147  3015 layer_factory.hpp:77] Creating layer conv4_4_conv4_4/relu_0_split
I0620 04:25:44.815153  3015 net.cpp:106] Creating Layer conv4_4_conv4_4/relu_0_split
I0620 04:25:44.815157  3015 net.cpp:454] conv4_4_conv4_4/relu_0_split <- conv4_4
I0620 04:25:44.815161  3015 net.cpp:411] conv4_4_conv4_4/relu_0_split -> conv4_4_conv4_4/relu_0_split_0
I0620 04:25:44.815167  3015 net.cpp:411] conv4_4_conv4_4/relu_0_split -> conv4_4_conv4_4/relu_0_split_1
I0620 04:25:44.815191  3015 net.cpp:150] Setting up conv4_4_conv4_4/relu_0_split
I0620 04:25:44.815196  3015 net.cpp:157] Top shape: 10 1024 60 60 (36864000)
I0620 04:25:44.815201  3015 net.cpp:157] Top shape: 10 1024 60 60 (36864000)
I0620 04:25:44.815203  3015 net.cpp:165] Memory required for data: 12771638000
I0620 04:25:44.815207  3015 layer_factory.hpp:77] Creating layer conv4_5_1x1_reduce
I0620 04:25:44.815214  3015 net.cpp:106] Creating Layer conv4_5_1x1_reduce
I0620 04:25:44.815218  3015 net.cpp:454] conv4_5_1x1_reduce <- conv4_4_conv4_4/relu_0_split_0
I0620 04:25:44.815224  3015 net.cpp:411] conv4_5_1x1_reduce -> conv4_5_1x1_reduce
I0620 04:25:44.821012  3015 net.cpp:150] Setting up conv4_5_1x1_reduce
I0620 04:25:44.821022  3015 net.cpp:157] Top shape: 10 256 60 60 (9216000)
I0620 04:25:44.821027  3015 net.cpp:165] Memory required for data: 12808502000
I0620 04:25:44.821032  3015 layer_factory.hpp:77] Creating layer conv4_5_1x1_reduce/bn
I0620 04:25:44.821038  3015 net.cpp:106] Creating Layer conv4_5_1x1_reduce/bn
I0620 04:25:44.821041  3015 net.cpp:454] conv4_5_1x1_reduce/bn <- conv4_5_1x1_reduce
I0620 04:25:44.821049  3015 net.cpp:397] conv4_5_1x1_reduce/bn -> conv4_5_1x1_reduce (in-place)
I0620 04:25:44.821190  3015 net.cpp:150] Setting up conv4_5_1x1_reduce/bn
I0620 04:25:44.821197  3015 net.cpp:157] Top shape: 10 256 60 60 (9216000)
I0620 04:25:44.821200  3015 net.cpp:165] Memory required for data: 12845366000
I0620 04:25:44.821208  3015 layer_factory.hpp:77] Creating layer conv4_5_1x1_reduce/relu
I0620 04:25:44.821213  3015 net.cpp:106] Creating Layer conv4_5_1x1_reduce/relu
I0620 04:25:44.821215  3015 net.cpp:454] conv4_5_1x1_reduce/relu <- conv4_5_1x1_reduce
I0620 04:25:44.821221  3015 net.cpp:397] conv4_5_1x1_reduce/relu -> conv4_5_1x1_reduce (in-place)
I0620 04:25:44.821226  3015 net.cpp:150] Setting up conv4_5_1x1_reduce/relu
I0620 04:25:44.821230  3015 net.cpp:157] Top shape: 10 256 60 60 (9216000)
I0620 04:25:44.821233  3015 net.cpp:165] Memory required for data: 12882230000
I0620 04:25:44.821238  3015 layer_factory.hpp:77] Creating layer conv4_5_3x3
I0620 04:25:44.821244  3015 net.cpp:106] Creating Layer conv4_5_3x3
I0620 04:25:44.821247  3015 net.cpp:454] conv4_5_3x3 <- conv4_5_1x1_reduce
I0620 04:25:44.821254  3015 net.cpp:411] conv4_5_3x3 -> conv4_5_3x3
I0620 04:25:44.834980  3015 net.cpp:150] Setting up conv4_5_3x3
I0620 04:25:44.834992  3015 net.cpp:157] Top shape: 10 256 60 60 (9216000)
I0620 04:25:44.834996  3015 net.cpp:165] Memory required for data: 12919094000
I0620 04:25:44.835003  3015 layer_factory.hpp:77] Creating layer conv4_5_3x3/bn
I0620 04:25:44.835016  3015 net.cpp:106] Creating Layer conv4_5_3x3/bn
I0620 04:25:44.835047  3015 net.cpp:454] conv4_5_3x3/bn <- conv4_5_3x3
I0620 04:25:44.835054  3015 net.cpp:397] conv4_5_3x3/bn -> conv4_5_3x3 (in-place)
I0620 04:25:44.835211  3015 net.cpp:150] Setting up conv4_5_3x3/bn
I0620 04:25:44.835216  3015 net.cpp:157] Top shape: 10 256 60 60 (9216000)
I0620 04:25:44.835220  3015 net.cpp:165] Memory required for data: 12955958000
I0620 04:25:44.835227  3015 layer_factory.hpp:77] Creating layer conv4_5_3x3/relu
I0620 04:25:44.835233  3015 net.cpp:106] Creating Layer conv4_5_3x3/relu
I0620 04:25:44.835237  3015 net.cpp:454] conv4_5_3x3/relu <- conv4_5_3x3
I0620 04:25:44.835242  3015 net.cpp:397] conv4_5_3x3/relu -> conv4_5_3x3 (in-place)
I0620 04:25:44.835247  3015 net.cpp:150] Setting up conv4_5_3x3/relu
I0620 04:25:44.835250  3015 net.cpp:157] Top shape: 10 256 60 60 (9216000)
I0620 04:25:44.835253  3015 net.cpp:165] Memory required for data: 12992822000
I0620 04:25:44.835256  3015 layer_factory.hpp:77] Creating layer conv4_5_1x1_increase
I0620 04:25:44.835265  3015 net.cpp:106] Creating Layer conv4_5_1x1_increase
I0620 04:25:44.835268  3015 net.cpp:454] conv4_5_1x1_increase <- conv4_5_3x3
I0620 04:25:44.835275  3015 net.cpp:411] conv4_5_1x1_increase -> conv4_5_1x1_increase
I0620 04:25:44.841723  3015 net.cpp:150] Setting up conv4_5_1x1_increase
I0620 04:25:44.841809  3015 net.cpp:157] Top shape: 10 1024 60 60 (36864000)
I0620 04:25:44.841816  3015 net.cpp:165] Memory required for data: 13140278000
I0620 04:25:44.841833  3015 layer_factory.hpp:77] Creating layer conv4_5_1x1_increase/bn
I0620 04:25:44.841856  3015 net.cpp:106] Creating Layer conv4_5_1x1_increase/bn
I0620 04:25:44.841866  3015 net.cpp:454] conv4_5_1x1_increase/bn <- conv4_5_1x1_increase
I0620 04:25:44.841873  3015 net.cpp:397] conv4_5_1x1_increase/bn -> conv4_5_1x1_increase (in-place)
I0620 04:25:44.842103  3015 net.cpp:150] Setting up conv4_5_1x1_increase/bn
I0620 04:25:44.842109  3015 net.cpp:157] Top shape: 10 1024 60 60 (36864000)
I0620 04:25:44.842113  3015 net.cpp:165] Memory required for data: 13287734000
I0620 04:25:44.842166  3015 layer_factory.hpp:77] Creating layer conv4_5
I0620 04:25:44.842178  3015 net.cpp:106] Creating Layer conv4_5
I0620 04:25:44.842182  3015 net.cpp:454] conv4_5 <- conv4_4_conv4_4/relu_0_split_1
I0620 04:25:44.842186  3015 net.cpp:454] conv4_5 <- conv4_5_1x1_increase
I0620 04:25:44.842191  3015 net.cpp:411] conv4_5 -> conv4_5
I0620 04:25:44.842223  3015 net.cpp:150] Setting up conv4_5
I0620 04:25:44.842229  3015 net.cpp:157] Top shape: 10 1024 60 60 (36864000)
I0620 04:25:44.842231  3015 net.cpp:165] Memory required for data: 13435190000
I0620 04:25:44.842234  3015 layer_factory.hpp:77] Creating layer conv4_5/relu
I0620 04:25:44.842242  3015 net.cpp:106] Creating Layer conv4_5/relu
I0620 04:25:44.842245  3015 net.cpp:454] conv4_5/relu <- conv4_5
I0620 04:25:44.842248  3015 net.cpp:397] conv4_5/relu -> conv4_5 (in-place)
I0620 04:25:44.842253  3015 net.cpp:150] Setting up conv4_5/relu
I0620 04:25:44.842257  3015 net.cpp:157] Top shape: 10 1024 60 60 (36864000)
I0620 04:25:44.842258  3015 net.cpp:165] Memory required for data: 13582646000
I0620 04:25:44.842262  3015 layer_factory.hpp:77] Creating layer conv4_5_conv4_5/relu_0_split
I0620 04:25:44.842268  3015 net.cpp:106] Creating Layer conv4_5_conv4_5/relu_0_split
I0620 04:25:44.842272  3015 net.cpp:454] conv4_5_conv4_5/relu_0_split <- conv4_5
I0620 04:25:44.842277  3015 net.cpp:411] conv4_5_conv4_5/relu_0_split -> conv4_5_conv4_5/relu_0_split_0
I0620 04:25:44.842280  3015 net.cpp:411] conv4_5_conv4_5/relu_0_split -> conv4_5_conv4_5/relu_0_split_1
I0620 04:25:44.842305  3015 net.cpp:150] Setting up conv4_5_conv4_5/relu_0_split
I0620 04:25:44.842309  3015 net.cpp:157] Top shape: 10 1024 60 60 (36864000)
I0620 04:25:44.842313  3015 net.cpp:157] Top shape: 10 1024 60 60 (36864000)
I0620 04:25:44.842315  3015 net.cpp:165] Memory required for data: 13877558000
I0620 04:25:44.842319  3015 layer_factory.hpp:77] Creating layer conv4_6_1x1_reduce
I0620 04:25:44.842342  3015 net.cpp:106] Creating Layer conv4_6_1x1_reduce
I0620 04:25:44.842346  3015 net.cpp:454] conv4_6_1x1_reduce <- conv4_5_conv4_5/relu_0_split_0
I0620 04:25:44.842350  3015 net.cpp:411] conv4_6_1x1_reduce -> conv4_6_1x1_reduce
I0620 04:25:44.848304  3015 net.cpp:150] Setting up conv4_6_1x1_reduce
I0620 04:25:44.848354  3015 net.cpp:157] Top shape: 10 256 60 60 (9216000)
I0620 04:25:44.848357  3015 net.cpp:165] Memory required for data: 13914422000
I0620 04:25:44.848368  3015 layer_factory.hpp:77] Creating layer conv4_6_1x1_reduce/bn
I0620 04:25:44.848387  3015 net.cpp:106] Creating Layer conv4_6_1x1_reduce/bn
I0620 04:25:44.848394  3015 net.cpp:454] conv4_6_1x1_reduce/bn <- conv4_6_1x1_reduce
I0620 04:25:44.848408  3015 net.cpp:397] conv4_6_1x1_reduce/bn -> conv4_6_1x1_reduce (in-place)
I0620 04:25:44.848623  3015 net.cpp:150] Setting up conv4_6_1x1_reduce/bn
I0620 04:25:44.848628  3015 net.cpp:157] Top shape: 10 256 60 60 (9216000)
I0620 04:25:44.848630  3015 net.cpp:165] Memory required for data: 13951286000
I0620 04:25:44.848636  3015 layer_factory.hpp:77] Creating layer conv4_6_1x1_reduce/relu
I0620 04:25:44.848642  3015 net.cpp:106] Creating Layer conv4_6_1x1_reduce/relu
I0620 04:25:44.848645  3015 net.cpp:454] conv4_6_1x1_reduce/relu <- conv4_6_1x1_reduce
I0620 04:25:44.848649  3015 net.cpp:397] conv4_6_1x1_reduce/relu -> conv4_6_1x1_reduce (in-place)
I0620 04:25:44.848654  3015 net.cpp:150] Setting up conv4_6_1x1_reduce/relu
I0620 04:25:44.848656  3015 net.cpp:157] Top shape: 10 256 60 60 (9216000)
I0620 04:25:44.848659  3015 net.cpp:165] Memory required for data: 13988150000
I0620 04:25:44.848661  3015 layer_factory.hpp:77] Creating layer conv4_6_3x3
I0620 04:25:44.848668  3015 net.cpp:106] Creating Layer conv4_6_3x3
I0620 04:25:44.848670  3015 net.cpp:454] conv4_6_3x3 <- conv4_6_1x1_reduce
I0620 04:25:44.848675  3015 net.cpp:411] conv4_6_3x3 -> conv4_6_3x3
I0620 04:25:44.867382  3015 net.cpp:150] Setting up conv4_6_3x3
I0620 04:25:44.867415  3015 net.cpp:157] Top shape: 10 256 60 60 (9216000)
I0620 04:25:44.867420  3015 net.cpp:165] Memory required for data: 14025014000
I0620 04:25:44.867434  3015 layer_factory.hpp:77] Creating layer conv4_6_3x3/bn
I0620 04:25:44.867492  3015 net.cpp:106] Creating Layer conv4_6_3x3/bn
I0620 04:25:44.867501  3015 net.cpp:454] conv4_6_3x3/bn <- conv4_6_3x3
I0620 04:25:44.867509  3015 net.cpp:397] conv4_6_3x3/bn -> conv4_6_3x3 (in-place)
I0620 04:25:44.867672  3015 net.cpp:150] Setting up conv4_6_3x3/bn
I0620 04:25:44.867677  3015 net.cpp:157] Top shape: 10 256 60 60 (9216000)
I0620 04:25:44.867681  3015 net.cpp:165] Memory required for data: 14061878000
I0620 04:25:44.867686  3015 layer_factory.hpp:77] Creating layer conv4_6_3x3/relu
I0620 04:25:44.867691  3015 net.cpp:106] Creating Layer conv4_6_3x3/relu
I0620 04:25:44.867693  3015 net.cpp:454] conv4_6_3x3/relu <- conv4_6_3x3
I0620 04:25:44.867697  3015 net.cpp:397] conv4_6_3x3/relu -> conv4_6_3x3 (in-place)
I0620 04:25:44.867702  3015 net.cpp:150] Setting up conv4_6_3x3/relu
I0620 04:25:44.867704  3015 net.cpp:157] Top shape: 10 256 60 60 (9216000)
I0620 04:25:44.867707  3015 net.cpp:165] Memory required for data: 14098742000
I0620 04:25:44.867710  3015 layer_factory.hpp:77] Creating layer conv4_6_1x1_increase
I0620 04:25:44.867720  3015 net.cpp:106] Creating Layer conv4_6_1x1_increase
I0620 04:25:44.867723  3015 net.cpp:454] conv4_6_1x1_increase <- conv4_6_3x3
I0620 04:25:44.867730  3015 net.cpp:411] conv4_6_1x1_increase -> conv4_6_1x1_increase
I0620 04:25:44.874207  3015 net.cpp:150] Setting up conv4_6_1x1_increase
I0620 04:25:44.874233  3015 net.cpp:157] Top shape: 10 1024 60 60 (36864000)
I0620 04:25:44.874241  3015 net.cpp:165] Memory required for data: 14246198000
I0620 04:25:44.874256  3015 layer_factory.hpp:77] Creating layer conv4_6_1x1_increase/bn
I0620 04:25:44.874279  3015 net.cpp:106] Creating Layer conv4_6_1x1_increase/bn
I0620 04:25:44.874286  3015 net.cpp:454] conv4_6_1x1_increase/bn <- conv4_6_1x1_increase
I0620 04:25:44.874294  3015 net.cpp:397] conv4_6_1x1_increase/bn -> conv4_6_1x1_increase (in-place)
I0620 04:25:44.874472  3015 net.cpp:150] Setting up conv4_6_1x1_increase/bn
I0620 04:25:44.874478  3015 net.cpp:157] Top shape: 10 1024 60 60 (36864000)
I0620 04:25:44.874482  3015 net.cpp:165] Memory required for data: 14393654000
I0620 04:25:44.874490  3015 layer_factory.hpp:77] Creating layer conv4_6
I0620 04:25:44.874495  3015 net.cpp:106] Creating Layer conv4_6
I0620 04:25:44.874498  3015 net.cpp:454] conv4_6 <- conv4_5_conv4_5/relu_0_split_1
I0620 04:25:44.874503  3015 net.cpp:454] conv4_6 <- conv4_6_1x1_increase
I0620 04:25:44.874507  3015 net.cpp:411] conv4_6 -> conv4_6
I0620 04:25:44.874533  3015 net.cpp:150] Setting up conv4_6
I0620 04:25:44.874538  3015 net.cpp:157] Top shape: 10 1024 60 60 (36864000)
I0620 04:25:44.874541  3015 net.cpp:165] Memory required for data: 14541110000
I0620 04:25:44.874546  3015 layer_factory.hpp:77] Creating layer conv4_6/relu
I0620 04:25:44.874554  3015 net.cpp:106] Creating Layer conv4_6/relu
I0620 04:25:44.874557  3015 net.cpp:454] conv4_6/relu <- conv4_6
I0620 04:25:44.874562  3015 net.cpp:397] conv4_6/relu -> conv4_6 (in-place)
I0620 04:25:44.874567  3015 net.cpp:150] Setting up conv4_6/relu
I0620 04:25:44.874572  3015 net.cpp:157] Top shape: 10 1024 60 60 (36864000)
I0620 04:25:44.874574  3015 net.cpp:165] Memory required for data: 14688566000
I0620 04:25:44.874577  3015 layer_factory.hpp:77] Creating layer conv4_6_conv4_6/relu_0_split
I0620 04:25:44.874583  3015 net.cpp:106] Creating Layer conv4_6_conv4_6/relu_0_split
I0620 04:25:44.874585  3015 net.cpp:454] conv4_6_conv4_6/relu_0_split <- conv4_6
I0620 04:25:44.874590  3015 net.cpp:411] conv4_6_conv4_6/relu_0_split -> conv4_6_conv4_6/relu_0_split_0
I0620 04:25:44.874595  3015 net.cpp:411] conv4_6_conv4_6/relu_0_split -> conv4_6_conv4_6/relu_0_split_1
I0620 04:25:44.874619  3015 net.cpp:150] Setting up conv4_6_conv4_6/relu_0_split
I0620 04:25:44.874624  3015 net.cpp:157] Top shape: 10 1024 60 60 (36864000)
I0620 04:25:44.874629  3015 net.cpp:157] Top shape: 10 1024 60 60 (36864000)
I0620 04:25:44.874631  3015 net.cpp:165] Memory required for data: 14983478000
I0620 04:25:44.874635  3015 layer_factory.hpp:77] Creating layer conv4_7_1x1_reduce
I0620 04:25:44.874657  3015 net.cpp:106] Creating Layer conv4_7_1x1_reduce
I0620 04:25:44.874661  3015 net.cpp:454] conv4_7_1x1_reduce <- conv4_6_conv4_6/relu_0_split_0
I0620 04:25:44.874666  3015 net.cpp:411] conv4_7_1x1_reduce -> conv4_7_1x1_reduce
I0620 04:25:44.880581  3015 net.cpp:150] Setting up conv4_7_1x1_reduce
I0620 04:25:44.880620  3015 net.cpp:157] Top shape: 10 256 60 60 (9216000)
I0620 04:25:44.880625  3015 net.cpp:165] Memory required for data: 15020342000
I0620 04:25:44.880638  3015 layer_factory.hpp:77] Creating layer conv4_7_1x1_reduce/bn
I0620 04:25:44.880656  3015 net.cpp:106] Creating Layer conv4_7_1x1_reduce/bn
I0620 04:25:44.880664  3015 net.cpp:454] conv4_7_1x1_reduce/bn <- conv4_7_1x1_reduce
I0620 04:25:44.880682  3015 net.cpp:397] conv4_7_1x1_reduce/bn -> conv4_7_1x1_reduce (in-place)
I0620 04:25:44.880890  3015 net.cpp:150] Setting up conv4_7_1x1_reduce/bn
I0620 04:25:44.880898  3015 net.cpp:157] Top shape: 10 256 60 60 (9216000)
I0620 04:25:44.880903  3015 net.cpp:165] Memory required for data: 15057206000
I0620 04:25:44.880910  3015 layer_factory.hpp:77] Creating layer conv4_7_1x1_reduce/relu
I0620 04:25:44.880921  3015 net.cpp:106] Creating Layer conv4_7_1x1_reduce/relu
I0620 04:25:44.880925  3015 net.cpp:454] conv4_7_1x1_reduce/relu <- conv4_7_1x1_reduce
I0620 04:25:44.880930  3015 net.cpp:397] conv4_7_1x1_reduce/relu -> conv4_7_1x1_reduce (in-place)
I0620 04:25:44.880936  3015 net.cpp:150] Setting up conv4_7_1x1_reduce/relu
I0620 04:25:44.880940  3015 net.cpp:157] Top shape: 10 256 60 60 (9216000)
I0620 04:25:44.880945  3015 net.cpp:165] Memory required for data: 15094070000
I0620 04:25:44.880949  3015 layer_factory.hpp:77] Creating layer conv4_7_3x3
I0620 04:25:44.880964  3015 net.cpp:106] Creating Layer conv4_7_3x3
I0620 04:25:44.880966  3015 net.cpp:454] conv4_7_3x3 <- conv4_7_1x1_reduce
I0620 04:25:44.880973  3015 net.cpp:411] conv4_7_3x3 -> conv4_7_3x3
I0620 04:25:44.894865  3015 net.cpp:150] Setting up conv4_7_3x3
I0620 04:25:44.894920  3015 net.cpp:157] Top shape: 10 256 60 60 (9216000)
I0620 04:25:44.894928  3015 net.cpp:165] Memory required for data: 15130934000
I0620 04:25:44.894946  3015 layer_factory.hpp:77] Creating layer conv4_7_3x3/bn
I0620 04:25:44.894979  3015 net.cpp:106] Creating Layer conv4_7_3x3/bn
I0620 04:25:44.894990  3015 net.cpp:454] conv4_7_3x3/bn <- conv4_7_3x3
I0620 04:25:44.895001  3015 net.cpp:397] conv4_7_3x3/bn -> conv4_7_3x3 (in-place)
I0620 04:25:44.895282  3015 net.cpp:150] Setting up conv4_7_3x3/bn
I0620 04:25:44.895298  3015 net.cpp:157] Top shape: 10 256 60 60 (9216000)
I0620 04:25:44.895303  3015 net.cpp:165] Memory required for data: 15167798000
I0620 04:25:44.895323  3015 layer_factory.hpp:77] Creating layer conv4_7_3x3/relu
I0620 04:25:44.895339  3015 net.cpp:106] Creating Layer conv4_7_3x3/relu
I0620 04:25:44.895344  3015 net.cpp:454] conv4_7_3x3/relu <- conv4_7_3x3
I0620 04:25:44.895351  3015 net.cpp:397] conv4_7_3x3/relu -> conv4_7_3x3 (in-place)
I0620 04:25:44.895362  3015 net.cpp:150] Setting up conv4_7_3x3/relu
I0620 04:25:44.895367  3015 net.cpp:157] Top shape: 10 256 60 60 (9216000)
I0620 04:25:44.895372  3015 net.cpp:165] Memory required for data: 15204662000
I0620 04:25:44.895377  3015 layer_factory.hpp:77] Creating layer conv4_7_1x1_increase
I0620 04:25:44.895392  3015 net.cpp:106] Creating Layer conv4_7_1x1_increase
I0620 04:25:44.895396  3015 net.cpp:454] conv4_7_1x1_increase <- conv4_7_3x3
I0620 04:25:44.895402  3015 net.cpp:411] conv4_7_1x1_increase -> conv4_7_1x1_increase
I0620 04:25:44.902462  3015 net.cpp:150] Setting up conv4_7_1x1_increase
I0620 04:25:44.902549  3015 net.cpp:157] Top shape: 10 1024 60 60 (36864000)
I0620 04:25:44.902556  3015 net.cpp:165] Memory required for data: 15352118000
I0620 04:25:44.902575  3015 layer_factory.hpp:77] Creating layer conv4_7_1x1_increase/bn
I0620 04:25:44.902611  3015 net.cpp:106] Creating Layer conv4_7_1x1_increase/bn
I0620 04:25:44.902621  3015 net.cpp:454] conv4_7_1x1_increase/bn <- conv4_7_1x1_increase
I0620 04:25:44.902637  3015 net.cpp:397] conv4_7_1x1_increase/bn -> conv4_7_1x1_increase (in-place)
I0620 04:25:44.903039  3015 net.cpp:150] Setting up conv4_7_1x1_increase/bn
I0620 04:25:44.903053  3015 net.cpp:157] Top shape: 10 1024 60 60 (36864000)
I0620 04:25:44.903057  3015 net.cpp:165] Memory required for data: 15499574000
I0620 04:25:44.903066  3015 layer_factory.hpp:77] Creating layer conv4_7
I0620 04:25:44.903081  3015 net.cpp:106] Creating Layer conv4_7
I0620 04:25:44.903089  3015 net.cpp:454] conv4_7 <- conv4_6_conv4_6/relu_0_split_1
I0620 04:25:44.903095  3015 net.cpp:454] conv4_7 <- conv4_7_1x1_increase
I0620 04:25:44.903102  3015 net.cpp:411] conv4_7 -> conv4_7
I0620 04:25:44.903146  3015 net.cpp:150] Setting up conv4_7
I0620 04:25:44.903154  3015 net.cpp:157] Top shape: 10 1024 60 60 (36864000)
I0620 04:25:44.903159  3015 net.cpp:165] Memory required for data: 15647030000
I0620 04:25:44.903163  3015 layer_factory.hpp:77] Creating layer conv4_7/relu
I0620 04:25:44.903175  3015 net.cpp:106] Creating Layer conv4_7/relu
I0620 04:25:44.903179  3015 net.cpp:454] conv4_7/relu <- conv4_7
I0620 04:25:44.903184  3015 net.cpp:397] conv4_7/relu -> conv4_7 (in-place)
I0620 04:25:44.903192  3015 net.cpp:150] Setting up conv4_7/relu
I0620 04:25:44.903198  3015 net.cpp:157] Top shape: 10 1024 60 60 (36864000)
I0620 04:25:44.903200  3015 net.cpp:165] Memory required for data: 15794486000
I0620 04:25:44.903206  3015 layer_factory.hpp:77] Creating layer conv4_7_conv4_7/relu_0_split
I0620 04:25:44.903216  3015 net.cpp:106] Creating Layer conv4_7_conv4_7/relu_0_split
I0620 04:25:44.903220  3015 net.cpp:454] conv4_7_conv4_7/relu_0_split <- conv4_7
I0620 04:25:44.903228  3015 net.cpp:411] conv4_7_conv4_7/relu_0_split -> conv4_7_conv4_7/relu_0_split_0
I0620 04:25:44.903234  3015 net.cpp:411] conv4_7_conv4_7/relu_0_split -> conv4_7_conv4_7/relu_0_split_1
I0620 04:25:44.903266  3015 net.cpp:150] Setting up conv4_7_conv4_7/relu_0_split
I0620 04:25:44.903271  3015 net.cpp:157] Top shape: 10 1024 60 60 (36864000)
I0620 04:25:44.903276  3015 net.cpp:157] Top shape: 10 1024 60 60 (36864000)
I0620 04:25:44.903280  3015 net.cpp:165] Memory required for data: 16089398000
I0620 04:25:44.903285  3015 layer_factory.hpp:77] Creating layer conv4_8_1x1_reduce
I0620 04:25:44.903304  3015 net.cpp:106] Creating Layer conv4_8_1x1_reduce
I0620 04:25:44.903309  3015 net.cpp:454] conv4_8_1x1_reduce <- conv4_7_conv4_7/relu_0_split_0
I0620 04:25:44.903314  3015 net.cpp:411] conv4_8_1x1_reduce -> conv4_8_1x1_reduce
I0620 04:25:44.911882  3015 net.cpp:150] Setting up conv4_8_1x1_reduce
I0620 04:25:44.911934  3015 net.cpp:157] Top shape: 10 256 60 60 (9216000)
I0620 04:25:44.911940  3015 net.cpp:165] Memory required for data: 16126262000
I0620 04:25:44.911954  3015 layer_factory.hpp:77] Creating layer conv4_8_1x1_reduce/bn
I0620 04:25:44.911975  3015 net.cpp:106] Creating Layer conv4_8_1x1_reduce/bn
I0620 04:25:44.911985  3015 net.cpp:454] conv4_8_1x1_reduce/bn <- conv4_8_1x1_reduce
I0620 04:25:44.912000  3015 net.cpp:397] conv4_8_1x1_reduce/bn -> conv4_8_1x1_reduce (in-place)
I0620 04:25:44.912253  3015 net.cpp:150] Setting up conv4_8_1x1_reduce/bn
I0620 04:25:44.912261  3015 net.cpp:157] Top shape: 10 256 60 60 (9216000)
I0620 04:25:44.912266  3015 net.cpp:165] Memory required for data: 16163126000
I0620 04:25:44.912274  3015 layer_factory.hpp:77] Creating layer conv4_8_1x1_reduce/relu
I0620 04:25:44.912286  3015 net.cpp:106] Creating Layer conv4_8_1x1_reduce/relu
I0620 04:25:44.912292  3015 net.cpp:454] conv4_8_1x1_reduce/relu <- conv4_8_1x1_reduce
I0620 04:25:44.912297  3015 net.cpp:397] conv4_8_1x1_reduce/relu -> conv4_8_1x1_reduce (in-place)
I0620 04:25:44.912304  3015 net.cpp:150] Setting up conv4_8_1x1_reduce/relu
I0620 04:25:44.912310  3015 net.cpp:157] Top shape: 10 256 60 60 (9216000)
I0620 04:25:44.912314  3015 net.cpp:165] Memory required for data: 16199990000
I0620 04:25:44.912319  3015 layer_factory.hpp:77] Creating layer conv4_8_3x3
I0620 04:25:44.912328  3015 net.cpp:106] Creating Layer conv4_8_3x3
I0620 04:25:44.912333  3015 net.cpp:454] conv4_8_3x3 <- conv4_8_1x1_reduce
I0620 04:25:44.912345  3015 net.cpp:411] conv4_8_3x3 -> conv4_8_3x3
I0620 04:25:44.928115  3015 net.cpp:150] Setting up conv4_8_3x3
I0620 04:25:44.928146  3015 net.cpp:157] Top shape: 10 256 60 60 (9216000)
I0620 04:25:44.928154  3015 net.cpp:165] Memory required for data: 16236854000
I0620 04:25:44.928165  3015 layer_factory.hpp:77] Creating layer conv4_8_3x3/bn
I0620 04:25:44.928181  3015 net.cpp:106] Creating Layer conv4_8_3x3/bn
I0620 04:25:44.928189  3015 net.cpp:454] conv4_8_3x3/bn <- conv4_8_3x3
I0620 04:25:44.928203  3015 net.cpp:397] conv4_8_3x3/bn -> conv4_8_3x3 (in-place)
I0620 04:25:44.928441  3015 net.cpp:150] Setting up conv4_8_3x3/bn
I0620 04:25:44.928452  3015 net.cpp:157] Top shape: 10 256 60 60 (9216000)
I0620 04:25:44.928457  3015 net.cpp:165] Memory required for data: 16273718000
I0620 04:25:44.928465  3015 layer_factory.hpp:77] Creating layer conv4_8_3x3/relu
I0620 04:25:44.928473  3015 net.cpp:106] Creating Layer conv4_8_3x3/relu
I0620 04:25:44.928478  3015 net.cpp:454] conv4_8_3x3/relu <- conv4_8_3x3
I0620 04:25:44.928486  3015 net.cpp:397] conv4_8_3x3/relu -> conv4_8_3x3 (in-place)
I0620 04:25:44.928495  3015 net.cpp:150] Setting up conv4_8_3x3/relu
I0620 04:25:44.928501  3015 net.cpp:157] Top shape: 10 256 60 60 (9216000)
I0620 04:25:44.928505  3015 net.cpp:165] Memory required for data: 16310582000
I0620 04:25:44.928509  3015 layer_factory.hpp:77] Creating layer conv4_8_1x1_increase
I0620 04:25:44.928519  3015 net.cpp:106] Creating Layer conv4_8_1x1_increase
I0620 04:25:44.928524  3015 net.cpp:454] conv4_8_1x1_increase <- conv4_8_3x3
I0620 04:25:44.928530  3015 net.cpp:411] conv4_8_1x1_increase -> conv4_8_1x1_increase
I0620 04:25:44.939123  3015 net.cpp:150] Setting up conv4_8_1x1_increase
I0620 04:25:44.939137  3015 net.cpp:157] Top shape: 10 1024 60 60 (36864000)
I0620 04:25:44.939141  3015 net.cpp:165] Memory required for data: 16458038000
I0620 04:25:44.939144  3015 layer_factory.hpp:77] Creating layer conv4_8_1x1_increase/bn
I0620 04:25:44.939151  3015 net.cpp:106] Creating Layer conv4_8_1x1_increase/bn
I0620 04:25:44.939154  3015 net.cpp:454] conv4_8_1x1_increase/bn <- conv4_8_1x1_increase
I0620 04:25:44.939158  3015 net.cpp:397] conv4_8_1x1_increase/bn -> conv4_8_1x1_increase (in-place)
I0620 04:25:44.939360  3015 net.cpp:150] Setting up conv4_8_1x1_increase/bn
I0620 04:25:44.939368  3015 net.cpp:157] Top shape: 10 1024 60 60 (36864000)
I0620 04:25:44.939373  3015 net.cpp:165] Memory required for data: 16605494000
I0620 04:25:44.939379  3015 layer_factory.hpp:77] Creating layer conv4_8
I0620 04:25:44.939386  3015 net.cpp:106] Creating Layer conv4_8
I0620 04:25:44.939389  3015 net.cpp:454] conv4_8 <- conv4_7_conv4_7/relu_0_split_1
I0620 04:25:44.939396  3015 net.cpp:454] conv4_8 <- conv4_8_1x1_increase
I0620 04:25:44.939404  3015 net.cpp:411] conv4_8 -> conv4_8
I0620 04:25:44.939440  3015 net.cpp:150] Setting up conv4_8
I0620 04:25:44.939447  3015 net.cpp:157] Top shape: 10 1024 60 60 (36864000)
I0620 04:25:44.939450  3015 net.cpp:165] Memory required for data: 16752950000
I0620 04:25:44.939455  3015 layer_factory.hpp:77] Creating layer conv4_8/relu
I0620 04:25:44.939460  3015 net.cpp:106] Creating Layer conv4_8/relu
I0620 04:25:44.939465  3015 net.cpp:454] conv4_8/relu <- conv4_8
I0620 04:25:44.939469  3015 net.cpp:397] conv4_8/relu -> conv4_8 (in-place)
I0620 04:25:44.939476  3015 net.cpp:150] Setting up conv4_8/relu
I0620 04:25:44.939481  3015 net.cpp:157] Top shape: 10 1024 60 60 (36864000)
I0620 04:25:44.939484  3015 net.cpp:165] Memory required for data: 16900406000
I0620 04:25:44.939488  3015 layer_factory.hpp:77] Creating layer conv4_8_conv4_8/relu_0_split
I0620 04:25:44.939494  3015 net.cpp:106] Creating Layer conv4_8_conv4_8/relu_0_split
I0620 04:25:44.939498  3015 net.cpp:454] conv4_8_conv4_8/relu_0_split <- conv4_8
I0620 04:25:44.939505  3015 net.cpp:411] conv4_8_conv4_8/relu_0_split -> conv4_8_conv4_8/relu_0_split_0
I0620 04:25:44.939512  3015 net.cpp:411] conv4_8_conv4_8/relu_0_split -> conv4_8_conv4_8/relu_0_split_1
I0620 04:25:44.939548  3015 net.cpp:150] Setting up conv4_8_conv4_8/relu_0_split
I0620 04:25:44.939571  3015 net.cpp:157] Top shape: 10 1024 60 60 (36864000)
I0620 04:25:44.939576  3015 net.cpp:157] Top shape: 10 1024 60 60 (36864000)
I0620 04:25:44.939580  3015 net.cpp:165] Memory required for data: 17195318000
I0620 04:25:44.939584  3015 layer_factory.hpp:77] Creating layer conv4_9_1x1_reduce
I0620 04:25:44.939594  3015 net.cpp:106] Creating Layer conv4_9_1x1_reduce
I0620 04:25:44.939597  3015 net.cpp:454] conv4_9_1x1_reduce <- conv4_8_conv4_8/relu_0_split_0
I0620 04:25:44.939604  3015 net.cpp:411] conv4_9_1x1_reduce -> conv4_9_1x1_reduce
I0620 04:25:44.952291  3015 net.cpp:150] Setting up conv4_9_1x1_reduce
I0620 04:25:44.952311  3015 net.cpp:157] Top shape: 10 256 60 60 (9216000)
I0620 04:25:44.952314  3015 net.cpp:165] Memory required for data: 17232182000
I0620 04:25:44.952322  3015 layer_factory.hpp:77] Creating layer conv4_9_1x1_reduce/bn
I0620 04:25:44.952333  3015 net.cpp:106] Creating Layer conv4_9_1x1_reduce/bn
I0620 04:25:44.952338  3015 net.cpp:454] conv4_9_1x1_reduce/bn <- conv4_9_1x1_reduce
I0620 04:25:44.952348  3015 net.cpp:397] conv4_9_1x1_reduce/bn -> conv4_9_1x1_reduce (in-place)
I0620 04:25:44.952517  3015 net.cpp:150] Setting up conv4_9_1x1_reduce/bn
I0620 04:25:44.952522  3015 net.cpp:157] Top shape: 10 256 60 60 (9216000)
I0620 04:25:44.952527  3015 net.cpp:165] Memory required for data: 17269046000
I0620 04:25:44.952570  3015 layer_factory.hpp:77] Creating layer conv4_9_1x1_reduce/relu
I0620 04:25:44.952577  3015 net.cpp:106] Creating Layer conv4_9_1x1_reduce/relu
I0620 04:25:44.952582  3015 net.cpp:454] conv4_9_1x1_reduce/relu <- conv4_9_1x1_reduce
I0620 04:25:44.952587  3015 net.cpp:397] conv4_9_1x1_reduce/relu -> conv4_9_1x1_reduce (in-place)
I0620 04:25:44.952594  3015 net.cpp:150] Setting up conv4_9_1x1_reduce/relu
I0620 04:25:44.952600  3015 net.cpp:157] Top shape: 10 256 60 60 (9216000)
I0620 04:25:44.952605  3015 net.cpp:165] Memory required for data: 17305910000
I0620 04:25:44.952610  3015 layer_factory.hpp:77] Creating layer conv4_9_3x3
I0620 04:25:44.952620  3015 net.cpp:106] Creating Layer conv4_9_3x3
I0620 04:25:44.952625  3015 net.cpp:454] conv4_9_3x3 <- conv4_9_1x1_reduce
I0620 04:25:44.952630  3015 net.cpp:411] conv4_9_3x3 -> conv4_9_3x3
I0620 04:25:44.968690  3015 net.cpp:150] Setting up conv4_9_3x3
I0620 04:25:44.968785  3015 net.cpp:157] Top shape: 10 256 60 60 (9216000)
I0620 04:25:44.968791  3015 net.cpp:165] Memory required for data: 17342774000
I0620 04:25:44.968811  3015 layer_factory.hpp:77] Creating layer conv4_9_3x3/bn
I0620 04:25:44.968845  3015 net.cpp:106] Creating Layer conv4_9_3x3/bn
I0620 04:25:44.968858  3015 net.cpp:454] conv4_9_3x3/bn <- conv4_9_3x3
I0620 04:25:44.968870  3015 net.cpp:397] conv4_9_3x3/bn -> conv4_9_3x3 (in-place)
I0620 04:25:44.969151  3015 net.cpp:150] Setting up conv4_9_3x3/bn
I0620 04:25:44.969161  3015 net.cpp:157] Top shape: 10 256 60 60 (9216000)
I0620 04:25:44.969164  3015 net.cpp:165] Memory required for data: 17379638000
I0620 04:25:44.969172  3015 layer_factory.hpp:77] Creating layer conv4_9_3x3/relu
I0620 04:25:44.969185  3015 net.cpp:106] Creating Layer conv4_9_3x3/relu
I0620 04:25:44.969190  3015 net.cpp:454] conv4_9_3x3/relu <- conv4_9_3x3
I0620 04:25:44.969195  3015 net.cpp:397] conv4_9_3x3/relu -> conv4_9_3x3 (in-place)
I0620 04:25:44.969202  3015 net.cpp:150] Setting up conv4_9_3x3/relu
I0620 04:25:44.969208  3015 net.cpp:157] Top shape: 10 256 60 60 (9216000)
I0620 04:25:44.969213  3015 net.cpp:165] Memory required for data: 17416502000
I0620 04:25:44.969218  3015 layer_factory.hpp:77] Creating layer conv4_9_1x1_increase
I0620 04:25:44.969233  3015 net.cpp:106] Creating Layer conv4_9_1x1_increase
I0620 04:25:44.969238  3015 net.cpp:454] conv4_9_1x1_increase <- conv4_9_3x3
I0620 04:25:44.969244  3015 net.cpp:411] conv4_9_1x1_increase -> conv4_9_1x1_increase
I0620 04:25:44.978577  3015 net.cpp:150] Setting up conv4_9_1x1_increase
I0620 04:25:44.978600  3015 net.cpp:157] Top shape: 10 1024 60 60 (36864000)
I0620 04:25:44.978605  3015 net.cpp:165] Memory required for data: 17563958000
I0620 04:25:44.978616  3015 layer_factory.hpp:77] Creating layer conv4_9_1x1_increase/bn
I0620 04:25:44.978657  3015 net.cpp:106] Creating Layer conv4_9_1x1_increase/bn
I0620 04:25:44.978665  3015 net.cpp:454] conv4_9_1x1_increase/bn <- conv4_9_1x1_increase
I0620 04:25:44.978677  3015 net.cpp:397] conv4_9_1x1_increase/bn -> conv4_9_1x1_increase (in-place)
I0620 04:25:44.978906  3015 net.cpp:150] Setting up conv4_9_1x1_increase/bn
I0620 04:25:44.978914  3015 net.cpp:157] Top shape: 10 1024 60 60 (36864000)
I0620 04:25:44.978919  3015 net.cpp:165] Memory required for data: 17711414000
I0620 04:25:44.978929  3015 layer_factory.hpp:77] Creating layer conv4_9
I0620 04:25:44.978941  3015 net.cpp:106] Creating Layer conv4_9
I0620 04:25:44.978947  3015 net.cpp:454] conv4_9 <- conv4_8_conv4_8/relu_0_split_1
I0620 04:25:44.978953  3015 net.cpp:454] conv4_9 <- conv4_9_1x1_increase
I0620 04:25:44.978960  3015 net.cpp:411] conv4_9 -> conv4_9
I0620 04:25:44.978989  3015 net.cpp:150] Setting up conv4_9
I0620 04:25:44.978994  3015 net.cpp:157] Top shape: 10 1024 60 60 (36864000)
I0620 04:25:44.978999  3015 net.cpp:165] Memory required for data: 17858870000
I0620 04:25:44.979003  3015 layer_factory.hpp:77] Creating layer conv4_9/relu
I0620 04:25:44.979014  3015 net.cpp:106] Creating Layer conv4_9/relu
I0620 04:25:44.979019  3015 net.cpp:454] conv4_9/relu <- conv4_9
I0620 04:25:44.979027  3015 net.cpp:397] conv4_9/relu -> conv4_9 (in-place)
I0620 04:25:44.979033  3015 net.cpp:150] Setting up conv4_9/relu
I0620 04:25:44.979039  3015 net.cpp:157] Top shape: 10 1024 60 60 (36864000)
I0620 04:25:44.979043  3015 net.cpp:165] Memory required for data: 18006326000
I0620 04:25:44.979048  3015 layer_factory.hpp:77] Creating layer conv4_9_conv4_9/relu_0_split
I0620 04:25:44.979055  3015 net.cpp:106] Creating Layer conv4_9_conv4_9/relu_0_split
I0620 04:25:44.979059  3015 net.cpp:454] conv4_9_conv4_9/relu_0_split <- conv4_9
I0620 04:25:44.979065  3015 net.cpp:411] conv4_9_conv4_9/relu_0_split -> conv4_9_conv4_9/relu_0_split_0
I0620 04:25:44.979073  3015 net.cpp:411] conv4_9_conv4_9/relu_0_split -> conv4_9_conv4_9/relu_0_split_1
I0620 04:25:44.979104  3015 net.cpp:150] Setting up conv4_9_conv4_9/relu_0_split
I0620 04:25:44.979109  3015 net.cpp:157] Top shape: 10 1024 60 60 (36864000)
I0620 04:25:44.979115  3015 net.cpp:157] Top shape: 10 1024 60 60 (36864000)
I0620 04:25:44.979120  3015 net.cpp:165] Memory required for data: 18301238000
I0620 04:25:44.979123  3015 layer_factory.hpp:77] Creating layer conv4_10_1x1_reduce
I0620 04:25:44.979137  3015 net.cpp:106] Creating Layer conv4_10_1x1_reduce
I0620 04:25:44.979141  3015 net.cpp:454] conv4_10_1x1_reduce <- conv4_9_conv4_9/relu_0_split_0
I0620 04:25:44.979151  3015 net.cpp:411] conv4_10_1x1_reduce -> conv4_10_1x1_reduce
I0620 04:25:44.985071  3015 net.cpp:150] Setting up conv4_10_1x1_reduce
I0620 04:25:44.985096  3015 net.cpp:157] Top shape: 10 256 60 60 (9216000)
I0620 04:25:44.985103  3015 net.cpp:165] Memory required for data: 18338102000
I0620 04:25:44.985113  3015 layer_factory.hpp:77] Creating layer conv4_10_1x1_reduce/bn
I0620 04:25:44.985128  3015 net.cpp:106] Creating Layer conv4_10_1x1_reduce/bn
I0620 04:25:44.985138  3015 net.cpp:454] conv4_10_1x1_reduce/bn <- conv4_10_1x1_reduce
I0620 04:25:44.985150  3015 net.cpp:397] conv4_10_1x1_reduce/bn -> conv4_10_1x1_reduce (in-place)
I0620 04:25:44.985340  3015 net.cpp:150] Setting up conv4_10_1x1_reduce/bn
I0620 04:25:44.985345  3015 net.cpp:157] Top shape: 10 256 60 60 (9216000)
I0620 04:25:44.985347  3015 net.cpp:165] Memory required for data: 18374966000
I0620 04:25:44.985353  3015 layer_factory.hpp:77] Creating layer conv4_10_1x1_reduce/relu
I0620 04:25:44.985361  3015 net.cpp:106] Creating Layer conv4_10_1x1_reduce/relu
I0620 04:25:44.985363  3015 net.cpp:454] conv4_10_1x1_reduce/relu <- conv4_10_1x1_reduce
I0620 04:25:44.985366  3015 net.cpp:397] conv4_10_1x1_reduce/relu -> conv4_10_1x1_reduce (in-place)
I0620 04:25:44.985370  3015 net.cpp:150] Setting up conv4_10_1x1_reduce/relu
I0620 04:25:44.985373  3015 net.cpp:157] Top shape: 10 256 60 60 (9216000)
I0620 04:25:44.985386  3015 net.cpp:165] Memory required for data: 18411830000
I0620 04:25:44.985388  3015 layer_factory.hpp:77] Creating layer conv4_10_3x3
I0620 04:25:44.985396  3015 net.cpp:106] Creating Layer conv4_10_3x3
I0620 04:25:44.985399  3015 net.cpp:454] conv4_10_3x3 <- conv4_10_1x1_reduce
I0620 04:25:44.985402  3015 net.cpp:411] conv4_10_3x3 -> conv4_10_3x3
I0620 04:25:44.999250  3015 net.cpp:150] Setting up conv4_10_3x3
I0620 04:25:44.999274  3015 net.cpp:157] Top shape: 10 256 60 60 (9216000)
I0620 04:25:44.999277  3015 net.cpp:165] Memory required for data: 18448694000
I0620 04:25:44.999289  3015 layer_factory.hpp:77] Creating layer conv4_10_3x3/bn
I0620 04:25:44.999310  3015 net.cpp:106] Creating Layer conv4_10_3x3/bn
I0620 04:25:44.999315  3015 net.cpp:454] conv4_10_3x3/bn <- conv4_10_3x3
I0620 04:25:44.999320  3015 net.cpp:397] conv4_10_3x3/bn -> conv4_10_3x3 (in-place)
I0620 04:25:44.999481  3015 net.cpp:150] Setting up conv4_10_3x3/bn
I0620 04:25:44.999486  3015 net.cpp:157] Top shape: 10 256 60 60 (9216000)
I0620 04:25:44.999490  3015 net.cpp:165] Memory required for data: 18485558000
I0620 04:25:44.999495  3015 layer_factory.hpp:77] Creating layer conv4_10_3x3/relu
I0620 04:25:44.999500  3015 net.cpp:106] Creating Layer conv4_10_3x3/relu
I0620 04:25:44.999502  3015 net.cpp:454] conv4_10_3x3/relu <- conv4_10_3x3
I0620 04:25:44.999506  3015 net.cpp:397] conv4_10_3x3/relu -> conv4_10_3x3 (in-place)
I0620 04:25:44.999511  3015 net.cpp:150] Setting up conv4_10_3x3/relu
I0620 04:25:44.999514  3015 net.cpp:157] Top shape: 10 256 60 60 (9216000)
I0620 04:25:44.999516  3015 net.cpp:165] Memory required for data: 18522422000
I0620 04:25:44.999519  3015 layer_factory.hpp:77] Creating layer conv4_10_1x1_increase
I0620 04:25:44.999527  3015 net.cpp:106] Creating Layer conv4_10_1x1_increase
I0620 04:25:44.999531  3015 net.cpp:454] conv4_10_1x1_increase <- conv4_10_3x3
I0620 04:25:44.999536  3015 net.cpp:411] conv4_10_1x1_increase -> conv4_10_1x1_increase
I0620 04:25:45.006474  3015 net.cpp:150] Setting up conv4_10_1x1_increase
I0620 04:25:45.006500  3015 net.cpp:157] Top shape: 10 1024 60 60 (36864000)
I0620 04:25:45.006506  3015 net.cpp:165] Memory required for data: 18669878000
I0620 04:25:45.006520  3015 layer_factory.hpp:77] Creating layer conv4_10_1x1_increase/bn
I0620 04:25:45.006546  3015 net.cpp:106] Creating Layer conv4_10_1x1_increase/bn
I0620 04:25:45.006553  3015 net.cpp:454] conv4_10_1x1_increase/bn <- conv4_10_1x1_increase
I0620 04:25:45.006561  3015 net.cpp:397] conv4_10_1x1_increase/bn -> conv4_10_1x1_increase (in-place)
I0620 04:25:45.006731  3015 net.cpp:150] Setting up conv4_10_1x1_increase/bn
I0620 04:25:45.006737  3015 net.cpp:157] Top shape: 10 1024 60 60 (36864000)
I0620 04:25:45.006742  3015 net.cpp:165] Memory required for data: 18817334000
I0620 04:25:45.006748  3015 layer_factory.hpp:77] Creating layer conv4_10
I0620 04:25:45.006757  3015 net.cpp:106] Creating Layer conv4_10
I0620 04:25:45.006762  3015 net.cpp:454] conv4_10 <- conv4_9_conv4_9/relu_0_split_1
I0620 04:25:45.006768  3015 net.cpp:454] conv4_10 <- conv4_10_1x1_increase
I0620 04:25:45.006774  3015 net.cpp:411] conv4_10 -> conv4_10
I0620 04:25:45.006803  3015 net.cpp:150] Setting up conv4_10
I0620 04:25:45.006808  3015 net.cpp:157] Top shape: 10 1024 60 60 (36864000)
I0620 04:25:45.006813  3015 net.cpp:165] Memory required for data: 18964790000
I0620 04:25:45.006817  3015 layer_factory.hpp:77] Creating layer conv4_10/relu
I0620 04:25:45.006824  3015 net.cpp:106] Creating Layer conv4_10/relu
I0620 04:25:45.006829  3015 net.cpp:454] conv4_10/relu <- conv4_10
I0620 04:25:45.006835  3015 net.cpp:397] conv4_10/relu -> conv4_10 (in-place)
I0620 04:25:45.006844  3015 net.cpp:150] Setting up conv4_10/relu
I0620 04:25:45.006850  3015 net.cpp:157] Top shape: 10 1024 60 60 (36864000)
I0620 04:25:45.006853  3015 net.cpp:165] Memory required for data: 19112246000
I0620 04:25:45.006857  3015 layer_factory.hpp:77] Creating layer conv4_10_conv4_10/relu_0_split
I0620 04:25:45.006865  3015 net.cpp:106] Creating Layer conv4_10_conv4_10/relu_0_split
I0620 04:25:45.006884  3015 net.cpp:454] conv4_10_conv4_10/relu_0_split <- conv4_10
I0620 04:25:45.006891  3015 net.cpp:411] conv4_10_conv4_10/relu_0_split -> conv4_10_conv4_10/relu_0_split_0
I0620 04:25:45.006897  3015 net.cpp:411] conv4_10_conv4_10/relu_0_split -> conv4_10_conv4_10/relu_0_split_1
I0620 04:25:45.006929  3015 net.cpp:150] Setting up conv4_10_conv4_10/relu_0_split
I0620 04:25:45.006935  3015 net.cpp:157] Top shape: 10 1024 60 60 (36864000)
I0620 04:25:45.006940  3015 net.cpp:157] Top shape: 10 1024 60 60 (36864000)
I0620 04:25:45.006944  3015 net.cpp:165] Memory required for data: 19407158000
I0620 04:25:45.006948  3015 layer_factory.hpp:77] Creating layer conv4_11_1x1_reduce
I0620 04:25:45.006959  3015 net.cpp:106] Creating Layer conv4_11_1x1_reduce
I0620 04:25:45.006965  3015 net.cpp:454] conv4_11_1x1_reduce <- conv4_10_conv4_10/relu_0_split_0
I0620 04:25:45.006973  3015 net.cpp:411] conv4_11_1x1_reduce -> conv4_11_1x1_reduce
I0620 04:25:45.013495  3015 net.cpp:150] Setting up conv4_11_1x1_reduce
I0620 04:25:45.013545  3015 net.cpp:157] Top shape: 10 256 60 60 (9216000)
I0620 04:25:45.013551  3015 net.cpp:165] Memory required for data: 19444022000
I0620 04:25:45.013566  3015 layer_factory.hpp:77] Creating layer conv4_11_1x1_reduce/bn
I0620 04:25:45.013587  3015 net.cpp:106] Creating Layer conv4_11_1x1_reduce/bn
I0620 04:25:45.013597  3015 net.cpp:454] conv4_11_1x1_reduce/bn <- conv4_11_1x1_reduce
I0620 04:25:45.013607  3015 net.cpp:397] conv4_11_1x1_reduce/bn -> conv4_11_1x1_reduce (in-place)
I0620 04:25:45.013878  3015 net.cpp:150] Setting up conv4_11_1x1_reduce/bn
I0620 04:25:45.013887  3015 net.cpp:157] Top shape: 10 256 60 60 (9216000)
I0620 04:25:45.013891  3015 net.cpp:165] Memory required for data: 19480886000
I0620 04:25:45.013901  3015 layer_factory.hpp:77] Creating layer conv4_11_1x1_reduce/relu
I0620 04:25:45.013912  3015 net.cpp:106] Creating Layer conv4_11_1x1_reduce/relu
I0620 04:25:45.013916  3015 net.cpp:454] conv4_11_1x1_reduce/relu <- conv4_11_1x1_reduce
I0620 04:25:45.013923  3015 net.cpp:397] conv4_11_1x1_reduce/relu -> conv4_11_1x1_reduce (in-place)
I0620 04:25:45.013931  3015 net.cpp:150] Setting up conv4_11_1x1_reduce/relu
I0620 04:25:45.013936  3015 net.cpp:157] Top shape: 10 256 60 60 (9216000)
I0620 04:25:45.013942  3015 net.cpp:165] Memory required for data: 19517750000
I0620 04:25:45.013945  3015 layer_factory.hpp:77] Creating layer conv4_11_3x3
I0620 04:25:45.013957  3015 net.cpp:106] Creating Layer conv4_11_3x3
I0620 04:25:45.013962  3015 net.cpp:454] conv4_11_3x3 <- conv4_11_1x1_reduce
I0620 04:25:45.013968  3015 net.cpp:411] conv4_11_3x3 -> conv4_11_3x3
I0620 04:25:45.032147  3015 net.cpp:150] Setting up conv4_11_3x3
I0620 04:25:45.032186  3015 net.cpp:157] Top shape: 10 256 60 60 (9216000)
I0620 04:25:45.032192  3015 net.cpp:165] Memory required for data: 19554614000
I0620 04:25:45.032208  3015 layer_factory.hpp:77] Creating layer conv4_11_3x3/bn
I0620 04:25:45.032232  3015 net.cpp:106] Creating Layer conv4_11_3x3/bn
I0620 04:25:45.032243  3015 net.cpp:454] conv4_11_3x3/bn <- conv4_11_3x3
I0620 04:25:45.032254  3015 net.cpp:397] conv4_11_3x3/bn -> conv4_11_3x3 (in-place)
…
I0620 04:25:45.345549  3015 net.cpp:157] Top shape: 10 1024 60 60 (36864000)
I0620 04:25:45.345551  3015 net.cpp:165] Memory required for data: 31129910000
I0620 04:25:45.345554  3015 layer_factory.hpp:77] Creating layer conv4_21/relu
I0620 04:25:45.345561  3015 net.cpp:106] Creating Layer conv4_21/relu
I0620 04:25:45.345576  3015 net.cpp:454] conv4_21/relu <- conv4_21
I0620 04:25:45.345579  3015 net.cpp:397] conv4_21/relu -> conv4_21 (in-place)
I0620 04:25:45.345584  3015 net.cpp:150] Setting up conv4_21/relu
I0620 04:25:45.345587  3015 net.cpp:157] Top shape: 10 1024 60 60 (36864000)
I0620 04:25:45.345590  3015 net.cpp:165] Memory required for data: 31277366000
I0620 04:25:45.345593  3015 layer_factory.hpp:77] Creating layer conv4_21_conv4_21/relu_0_split
I0620 04:25:45.345597  3015 net.cpp:106] Creating Layer conv4_21_conv4_21/relu_0_split
I0620 04:25:45.345600  3015 net.cpp:454] conv4_21_conv4_21/relu_0_split <- conv4_21
I0620 04:25:45.345604  3015 net.cpp:411] conv4_21_conv4_21/relu_0_split -> conv4_21_conv4_21/relu_0_split_0
I0620 04:25:45.345608  3015 net.cpp:411] conv4_21_conv4_21/relu_0_split -> conv4_21_conv4_21/relu_0_split_1
I0620 04:25:45.345633  3015 net.cpp:150] Setting up conv4_21_conv4_21/relu_0_split
I0620 04:25:45.345638  3015 net.cpp:157] Top shape: 10 1024 60 60 (36864000)
I0620 04:25:45.345641  3015 net.cpp:157] Top shape: 10 1024 60 60 (36864000)
I0620 04:25:45.345643  3015 net.cpp:165] Memory required for data: 31572278000
I0620 04:25:45.345646  3015 layer_factory.hpp:77] Creating layer conv4_22_1x1_reduce
I0620 04:25:45.345654  3015 net.cpp:106] Creating Layer conv4_22_1x1_reduce
I0620 04:25:45.345657  3015 net.cpp:454] conv4_22_1x1_reduce <- conv4_21_conv4_21/relu_0_split_0
I0620 04:25:45.345661  3015 net.cpp:411] conv4_22_1x1_reduce -> conv4_22_1x1_reduce
I0620 04:25:45.351658  3015 net.cpp:150] Setting up conv4_22_1x1_reduce
I0620 04:25:45.351717  3015 net.cpp:157] Top shape: 10 256 60 60 (9216000)
I0620 04:25:45.351724  3015 net.cpp:165] Memory required for data: 31609142000
I0620 04:25:45.351739  3015 layer_factory.hpp:77] Creating layer conv4_22_1x1_reduce/bn
I0620 04:25:45.351763  3015 net.cpp:106] Creating Layer conv4_22_1x1_reduce/bn
I0620 04:25:45.351775  3015 net.cpp:454] conv4_22_1x1_reduce/bn <- conv4_22_1x1_reduce
I0620 04:25:45.351788  3015 net.cpp:397] conv4_22_1x1_reduce/bn -> conv4_22_1x1_reduce (in-place)
I0620 04:25:45.352059  3015 net.cpp:150] Setting up conv4_22_1x1_reduce/bn
I0620 04:25:45.352066  3015 net.cpp:157] Top shape: 10 256 60 60 (9216000)
I0620 04:25:45.352071  3015 net.cpp:165] Memory required for data: 31646006000
I0620 04:25:45.352079  3015 layer_factory.hpp:77] Creating layer conv4_22_1x1_reduce/relu
I0620 04:25:45.352090  3015 net.cpp:106] Creating Layer conv4_22_1x1_reduce/relu
I0620 04:25:45.352095  3015 net.cpp:454] conv4_22_1x1_reduce/relu <- conv4_22_1x1_reduce
I0620 04:25:45.352100  3015 net.cpp:397] conv4_22_1x1_reduce/relu -> conv4_22_1x1_reduce (in-place)
I0620 04:25:45.352108  3015 net.cpp:150] Setting up conv4_22_1x1_reduce/relu
I0620 04:25:45.352113  3015 net.cpp:157] Top shape: 10 256 60 60 (9216000)
I0620 04:25:45.352116  3015 net.cpp:165] Memory required for data: 31682870000
I0620 04:25:45.352120  3015 layer_factory.hpp:77] Creating layer conv4_22_3x3
I0620 04:25:45.352133  3015 net.cpp:106] Creating Layer conv4_22_3x3
I0620 04:25:45.352138  3015 net.cpp:454] conv4_22_3x3 <- conv4_22_1x1_reduce
I0620 04:25:45.352144  3015 net.cpp:411] conv4_22_3x3 -> conv4_22_3x3
I0620 04:25:45.369580  3015 net.cpp:150] Setting up conv4_22_3x3
I0620 04:25:45.369603  3015 net.cpp:157] Top shape: 10 256 60 60 (9216000)
I0620 04:25:45.369606  3015 net.cpp:165] Memory required for data: 31719734000
I0620 04:25:45.369616  3015 layer_factory.hpp:77] Creating layer conv4_22_3x3/bn
I0620 04:25:45.369634  3015 net.cpp:106] Creating Layer conv4_22_3x3/bn
I0620 04:25:45.369643  3015 net.cpp:454] conv4_22_3x3/bn <- conv4_22_3x3
I0620 04:25:45.369652  3015 net.cpp:397] conv4_22_3x3/bn -> conv4_22_3x3 (in-place)
I0620 04:25:45.369833  3015 net.cpp:150] Setting up conv4_22_3x3/bn
I0620 04:25:45.369838  3015 net.cpp:157] Top shape: 10 256 60 60 (9216000)
I0620 04:25:45.369841  3015 net.cpp:165] Memory required for data: 31756598000
I0620 04:25:45.369848  3015 layer_factory.hpp:77] Creating layer conv4_22_3x3/relu
I0620 04:25:45.369853  3015 net.cpp:106] Creating Layer conv4_22_3x3/relu
I0620 04:25:45.369870  3015 net.cpp:454] conv4_22_3x3/relu <- conv4_22_3x3
I0620 04:25:45.369874  3015 net.cpp:397] conv4_22_3x3/relu -> conv4_22_3x3 (in-place)
I0620 04:25:45.369879  3015 net.cpp:150] Setting up conv4_22_3x3/relu
I0620 04:25:45.369882  3015 net.cpp:157] Top shape: 10 256 60 60 (9216000)
I0620 04:25:45.369885  3015 net.cpp:165] Memory required for data: 31793462000
I0620 04:25:45.369889  3015 layer_factory.hpp:77] Creating layer conv4_22_1x1_increase
I0620 04:25:45.369895  3015 net.cpp:106] Creating Layer conv4_22_1x1_increase
I0620 04:25:45.369899  3015 net.cpp:454] conv4_22_1x1_increase <- conv4_22_3x3
I0620 04:25:45.369902  3015 net.cpp:411] conv4_22_1x1_increase -> conv4_22_1x1_increase
I0620 04:25:45.376238  3015 net.cpp:150] Setting up conv4_22_1x1_increase
I0620 04:25:45.376252  3015 net.cpp:157] Top shape: 10 1024 60 60 (36864000)
I0620 04:25:45.376255  3015 net.cpp:165] Memory required for data: 31940918000
I0620 04:25:45.376260  3015 layer_factory.hpp:77] Creating layer conv4_22_1x1_increase/bn
I0620 04:25:45.376267  3015 net.cpp:106] Creating Layer conv4_22_1x1_increase/bn
I0620 04:25:45.376272  3015 net.cpp:454] conv4_22_1x1_increase/bn <- conv4_22_1x1_increase
I0620 04:25:45.376277  3015 net.cpp:397] conv4_22_1x1_increase/bn -> conv4_22_1x1_increase (in-place)
I0620 04:25:45.376453  3015 net.cpp:150] Setting up conv4_22_1x1_increase/bn
I0620 04:25:45.376459  3015 net.cpp:157] Top shape: 10 1024 60 60 (36864000)
I0620 04:25:45.376462  3015 net.cpp:165] Memory required for data: 32088374000
I0620 04:25:45.376467  3015 layer_factory.hpp:77] Creating layer conv4_22
I0620 04:25:45.376472  3015 net.cpp:106] Creating Layer conv4_22
I0620 04:25:45.376477  3015 net.cpp:454] conv4_22 <- conv4_21_conv4_21/relu_0_split_1
I0620 04:25:45.376479  3015 net.cpp:454] conv4_22 <- conv4_22_1x1_increase
I0620 04:25:45.376483  3015 net.cpp:411] conv4_22 -> conv4_22
I0620 04:25:45.376503  3015 net.cpp:150] Setting up conv4_22
I0620 04:25:45.376507  3015 net.cpp:157] Top shape: 10 1024 60 60 (36864000)
I0620 04:25:45.376510  3015 net.cpp:165] Memory required for data: 32235830000
I0620 04:25:45.376513  3015 layer_factory.hpp:77] Creating layer conv4_22/relu
I0620 04:25:45.376518  3015 net.cpp:106] Creating Layer conv4_22/relu
I0620 04:25:45.376520  3015 net.cpp:454] conv4_22/relu <- conv4_22
I0620 04:25:45.376524  3015 net.cpp:397] conv4_22/relu -> conv4_22 (in-place)
I0620 04:25:45.376528  3015 net.cpp:150] Setting up conv4_22/relu
I0620 04:25:45.376531  3015 net.cpp:157] Top shape: 10 1024 60 60 (36864000)
I0620 04:25:45.376534  3015 net.cpp:165] Memory required for data: 32383286000
I0620 04:25:45.376536  3015 layer_factory.hpp:77] Creating layer conv4_22_conv4_22/relu_0_split
I0620 04:25:45.376541  3015 net.cpp:106] Creating Layer conv4_22_conv4_22/relu_0_split
I0620 04:25:45.376544  3015 net.cpp:454] conv4_22_conv4_22/relu_0_split <- conv4_22
I0620 04:25:45.376549  3015 net.cpp:411] conv4_22_conv4_22/relu_0_split -> conv4_22_conv4_22/relu_0_split_0
I0620 04:25:45.376552  3015 net.cpp:411] conv4_22_conv4_22/relu_0_split -> conv4_22_conv4_22/relu_0_split_1
I0620 04:25:45.376579  3015 net.cpp:150] Setting up conv4_22_conv4_22/relu_0_split
I0620 04:25:45.376583  3015 net.cpp:157] Top shape: 10 1024 60 60 (36864000)
I0620 04:25:45.376586  3015 net.cpp:157] Top shape: 10 1024 60 60 (36864000)
I0620 04:25:45.376590  3015 net.cpp:165] Memory required for data: 32678198000
I0620 04:25:45.376592  3015 layer_factory.hpp:77] Creating layer conv4_23_1x1_reduce
I0620 04:25:45.376598  3015 net.cpp:106] Creating Layer conv4_23_1x1_reduce
I0620 04:25:45.376601  3015 net.cpp:454] conv4_23_1x1_reduce <- conv4_22_conv4_22/relu_0_split_0
I0620 04:25:45.376606  3015 net.cpp:411] conv4_23_1x1_reduce -> conv4_23_1x1_reduce
I0620 04:25:45.382191  3015 net.cpp:150] Setting up conv4_23_1x1_reduce
I0620 04:25:45.382196  3015 net.cpp:157] Top shape: 10 256 60 60 (9216000)
I0620 04:25:45.382200  3015 net.cpp:165] Memory required for data: 32715062000
I0620 04:25:45.382203  3015 layer_factory.hpp:77] Creating layer conv4_23_1x1_reduce/bn
I0620 04:25:45.382220  3015 net.cpp:106] Creating Layer conv4_23_1x1_reduce/bn
I0620 04:25:45.382222  3015 net.cpp:454] conv4_23_1x1_reduce/bn <- conv4_23_1x1_reduce
I0620 04:25:45.382226  3015 net.cpp:397] conv4_23_1x1_reduce/bn -> conv4_23_1x1_reduce (in-place)
I0620 04:25:45.382380  3015 net.cpp:150] Setting up conv4_23_1x1_reduce/bn
I0620 04:25:45.382385  3015 net.cpp:157] Top shape: 10 256 60 60 (9216000)
I0620 04:25:45.382387  3015 net.cpp:165] Memory required for data: 32751926000
I0620 04:25:45.382393  3015 layer_factory.hpp:77] Creating layer conv4_23_1x1_reduce/relu
I0620 04:25:45.382397  3015 net.cpp:106] Creating Layer conv4_23_1x1_reduce/relu
I0620 04:25:45.382400  3015 net.cpp:454] conv4_23_1x1_reduce/relu <- conv4_23_1x1_reduce
I0620 04:25:45.382405  3015 net.cpp:397] conv4_23_1x1_reduce/relu -> conv4_23_1x1_reduce (in-place)
I0620 04:25:45.382407  3015 net.cpp:150] Setting up conv4_23_1x1_reduce/relu
I0620 04:25:45.382411  3015 net.cpp:157] Top shape: 10 256 60 60 (9216000)
I0620 04:25:45.382413  3015 net.cpp:165] Memory required for data: 32788790000
I0620 04:25:45.382416  3015 layer_factory.hpp:77] Creating layer conv4_23_3x3
I0620 04:25:45.382421  3015 net.cpp:106] Creating Layer conv4_23_3x3
I0620 04:25:45.382424  3015 net.cpp:454] conv4_23_3x3 <- conv4_23_1x1_reduce
I0620 04:25:45.382428  3015 net.cpp:411] conv4_23_3x3 -> conv4_23_3x3
I0620 04:25:45.397481  3015 net.cpp:150] Setting up conv4_23_3x3
I0620 04:25:45.397567  3015 net.cpp:157] Top shape: 10 256 60 60 (9216000)
I0620 04:25:45.397573  3015 net.cpp:165] Memory required for data: 32825654000
I0620 04:25:45.397591  3015 layer_factory.hpp:77] Creating layer conv4_23_3x3/bn
I0620 04:25:45.397624  3015 net.cpp:106] Creating Layer conv4_23_3x3/bn
I0620 04:25:45.397636  3015 net.cpp:454] conv4_23_3x3/bn <- conv4_23_3x3
I0620 04:25:45.397650  3015 net.cpp:397] conv4_23_3x3/bn -> conv4_23_3x3 (in-place)
I0620 04:25:45.397964  3015 net.cpp:150] Setting up conv4_23_3x3/bn
I0620 04:25:45.397972  3015 net.cpp:157] Top shape: 10 256 60 60 (9216000)
I0620 04:25:45.397976  3015 net.cpp:165] Memory required for data: 32862518000
I0620 04:25:45.397986  3015 layer_factory.hpp:77] Creating layer conv4_23_3x3/relu
I0620 04:25:45.397996  3015 net.cpp:106] Creating Layer conv4_23_3x3/relu
I0620 04:25:45.398001  3015 net.cpp:454] conv4_23_3x3/relu <- conv4_23_3x3
I0620 04:25:45.398007  3015 net.cpp:397] conv4_23_3x3/relu -> conv4_23_3x3 (in-place)
I0620 04:25:45.398015  3015 net.cpp:150] Setting up conv4_23_3x3/relu
I0620 04:25:45.398020  3015 net.cpp:157] Top shape: 10 256 60 60 (9216000)
I0620 04:25:45.398023  3015 net.cpp:165] Memory required for data: 32899382000
I0620 04:25:45.398027  3015 layer_factory.hpp:77] Creating layer conv4_23_1x1_increase
I0620 04:25:45.398043  3015 net.cpp:106] Creating Layer conv4_23_1x1_increase
I0620 04:25:45.398047  3015 net.cpp:454] conv4_23_1x1_increase <- conv4_23_3x3
I0620 04:25:45.398056  3015 net.cpp:411] conv4_23_1x1_increase -> conv4_23_1x1_increase
I0620 04:25:45.407416  3015 net.cpp:150] Setting up conv4_23_1x1_increase
I0620 04:25:45.407449  3015 net.cpp:157] Top shape: 10 1024 60 60 (36864000)
I0620 04:25:45.407454  3015 net.cpp:165] Memory required for data: 33046838000
I0620 04:25:45.407466  3015 layer_factory.hpp:77] Creating layer conv4_23_1x1_increase/bn
I0620 04:25:45.407491  3015 net.cpp:106] Creating Layer conv4_23_1x1_increase/bn
I0620 04:25:45.407503  3015 net.cpp:454] conv4_23_1x1_increase/bn <- conv4_23_1x1_increase
I0620 04:25:45.407511  3015 net.cpp:397] conv4_23_1x1_increase/bn -> conv4_23_1x1_increase (in-place)
I0620 04:25:45.407721  3015 net.cpp:150] Setting up conv4_23_1x1_increase/bn
I0620 04:25:45.407727  3015 net.cpp:157] Top shape: 10 1024 60 60 (36864000)
I0620 04:25:45.407729  3015 net.cpp:165] Memory required for data: 33194294000
I0620 04:25:45.407735  3015 layer_factory.hpp:77] Creating layer conv4_23
I0620 04:25:45.407742  3015 net.cpp:106] Creating Layer conv4_23
I0620 04:25:45.407744  3015 net.cpp:454] conv4_23 <- conv4_22_conv4_22/relu_0_split_1
I0620 04:25:45.407748  3015 net.cpp:454] conv4_23 <- conv4_23_1x1_increase
I0620 04:25:45.407774  3015 net.cpp:411] conv4_23 -> conv4_23
I0620 04:25:45.407812  3015 net.cpp:150] Setting up conv4_23
I0620 04:25:45.407816  3015 net.cpp:157] Top shape: 10 1024 60 60 (36864000)
I0620 04:25:45.407819  3015 net.cpp:165] Memory required for data: 33341750000
I0620 04:25:45.407822  3015 layer_factory.hpp:77] Creating layer conv4_23/relu
I0620 04:25:45.407826  3015 net.cpp:106] Creating Layer conv4_23/relu
I0620 04:25:45.407829  3015 net.cpp:454] conv4_23/relu <- conv4_23
I0620 04:25:45.407835  3015 net.cpp:397] conv4_23/relu -> conv4_23 (in-place)
I0620 04:25:45.407840  3015 net.cpp:150] Setting up conv4_23/relu
I0620 04:25:45.407842  3015 net.cpp:157] Top shape: 10 1024 60 60 (36864000)
I0620 04:25:45.407845  3015 net.cpp:165] Memory required for data: 33489206000
I0620 04:25:45.407847  3015 layer_factory.hpp:77] Creating layer conv4_23_conv4_23/relu_0_split
I0620 04:25:45.407852  3015 net.cpp:106] Creating Layer conv4_23_conv4_23/relu_0_split
I0620 04:25:45.407855  3015 net.cpp:454] conv4_23_conv4_23/relu_0_split <- conv4_23
I0620 04:25:45.407858  3015 net.cpp:411] conv4_23_conv4_23/relu_0_split -> conv4_23_conv4_23/relu_0_split_0
I0620 04:25:45.407863  3015 net.cpp:411] conv4_23_conv4_23/relu_0_split -> conv4_23_conv4_23/relu_0_split_1
I0620 04:25:45.407889  3015 net.cpp:150] Setting up conv4_23_conv4_23/relu_0_split
I0620 04:25:45.407893  3015 net.cpp:157] Top shape: 10 1024 60 60 (36864000)
I0620 04:25:45.407897  3015 net.cpp:157] Top shape: 10 1024 60 60 (36864000)
I0620 04:25:45.407899  3015 net.cpp:165] Memory required for data: 33784118000
I0620 04:25:45.407902  3015 layer_factory.hpp:77] Creating layer conv5_1_1x1_reduce
I0620 04:25:45.407914  3015 net.cpp:106] Creating Layer conv5_1_1x1_reduce
I0620 04:25:45.407918  3015 net.cpp:454] conv5_1_1x1_reduce <- conv4_23_conv4_23/relu_0_split_0
I0620 04:25:45.407925  3015 net.cpp:411] conv5_1_1x1_reduce -> conv5_1_1x1_reduce
I0620 04:25:45.419806  3015 net.cpp:150] Setting up conv5_1_1x1_reduce
I0620 04:25:45.419824  3015 net.cpp:157] Top shape: 10 512 60 60 (18432000)
I0620 04:25:45.419826  3015 net.cpp:165] Memory required for data: 33857846000
I0620 04:25:45.419832  3015 layer_factory.hpp:77] Creating layer conv5_1_1x1_reduce/bn
I0620 04:25:45.419841  3015 net.cpp:106] Creating Layer conv5_1_1x1_reduce/bn
I0620 04:25:45.419845  3015 net.cpp:454] conv5_1_1x1_reduce/bn <- conv5_1_1x1_reduce
I0620 04:25:45.419850  3015 net.cpp:397] conv5_1_1x1_reduce/bn -> conv5_1_1x1_reduce (in-place)
I0620 04:25:45.420051  3015 net.cpp:150] Setting up conv5_1_1x1_reduce/bn
I0620 04:25:45.420056  3015 net.cpp:157] Top shape: 10 512 60 60 (18432000)
I0620 04:25:45.420059  3015 net.cpp:165] Memory required for data: 33931574000
I0620 04:25:45.420064  3015 layer_factory.hpp:77] Creating layer conv5_1_1x1_reduce/relu
I0620 04:25:45.420068  3015 net.cpp:106] Creating Layer conv5_1_1x1_reduce/relu
I0620 04:25:45.420070  3015 net.cpp:454] conv5_1_1x1_reduce/relu <- conv5_1_1x1_reduce
I0620 04:25:45.420073  3015 net.cpp:397] conv5_1_1x1_reduce/relu -> conv5_1_1x1_reduce (in-place)
I0620 04:25:45.420076  3015 net.cpp:150] Setting up conv5_1_1x1_reduce/relu
I0620 04:25:45.420079  3015 net.cpp:157] Top shape: 10 512 60 60 (18432000)
I0620 04:25:45.420081  3015 net.cpp:165] Memory required for data: 34005302000
I0620 04:25:45.420083  3015 layer_factory.hpp:77] Creating layer conv5_1_3x3
I0620 04:25:45.420090  3015 net.cpp:106] Creating Layer conv5_1_3x3
I0620 04:25:45.420094  3015 net.cpp:454] conv5_1_3x3 <- conv5_1_1x1_reduce
I0620 04:25:45.420099  3015 net.cpp:411] conv5_1_3x3 -> conv5_1_3x3
I0620 04:25:45.475884  3015 net.cpp:150] Setting up conv5_1_3x3
I0620 04:25:45.475903  3015 net.cpp:157] Top shape: 10 512 60 60 (18432000)
I0620 04:25:45.475905  3015 net.cpp:165] Memory required for data: 34079030000
I0620 04:25:45.475911  3015 layer_factory.hpp:77] Creating layer conv5_1_3x3/bn
I0620 04:25:45.475919  3015 net.cpp:106] Creating Layer conv5_1_3x3/bn
I0620 04:25:45.475924  3015 net.cpp:454] conv5_1_3x3/bn <- conv5_1_3x3
I0620 04:25:45.475944  3015 net.cpp:397] conv5_1_3x3/bn -> conv5_1_3x3 (in-place)
I0620 04:25:45.476116  3015 net.cpp:150] Setting up conv5_1_3x3/bn
I0620 04:25:45.476121  3015 net.cpp:157] Top shape: 10 512 60 60 (18432000)
I0620 04:25:45.476124  3015 net.cpp:165] Memory required for data: 34152758000
I0620 04:25:45.476128  3015 layer_factory.hpp:77] Creating layer conv5_1_3x3/relu
I0620 04:25:45.476132  3015 net.cpp:106] Creating Layer conv5_1_3x3/relu
I0620 04:25:45.476135  3015 net.cpp:454] conv5_1_3x3/relu <- conv5_1_3x3
I0620 04:25:45.476137  3015 net.cpp:397] conv5_1_3x3/relu -> conv5_1_3x3 (in-place)
I0620 04:25:45.476140  3015 net.cpp:150] Setting up conv5_1_3x3/relu
I0620 04:25:45.476143  3015 net.cpp:157] Top shape: 10 512 60 60 (18432000)
I0620 04:25:45.476145  3015 net.cpp:165] Memory required for data: 34226486000
I0620 04:25:45.476147  3015 layer_factory.hpp:77] Creating layer conv5_1_1x1_increase
I0620 04:25:45.476155  3015 net.cpp:106] Creating Layer conv5_1_1x1_increase
I0620 04:25:45.476157  3015 net.cpp:454] conv5_1_1x1_increase <- conv5_1_3x3
I0620 04:25:45.476161  3015 net.cpp:411] conv5_1_1x1_increase -> conv5_1_1x1_increase
I0620 04:25:45.503527  3015 net.cpp:150] Setting up conv5_1_1x1_increase
I0620 04:25:45.503605  3015 net.cpp:157] Top shape: 10 2048 60 60 (73728000)
I0620 04:25:45.503612  3015 net.cpp:165] Memory required for data: 34521398000
I0620 04:25:45.503629  3015 layer_factory.hpp:77] Creating layer conv5_1_1x1_increase/bn
I0620 04:25:45.503661  3015 net.cpp:106] Creating Layer conv5_1_1x1_increase/bn
I0620 04:25:45.503674  3015 net.cpp:454] conv5_1_1x1_increase/bn <- conv5_1_1x1_increase
I0620 04:25:45.503690  3015 net.cpp:397] conv5_1_1x1_increase/bn -> conv5_1_1x1_increase (in-place)
I0620 04:25:45.503994  3015 net.cpp:150] Setting up conv5_1_1x1_increase/bn
I0620 04:25:45.504004  3015 net.cpp:157] Top shape: 10 2048 60 60 (73728000)
I0620 04:25:45.504007  3015 net.cpp:165] Memory required for data: 34816310000
I0620 04:25:45.504019  3015 layer_factory.hpp:77] Creating layer conv5_1_1x1_proj
I0620 04:25:45.504034  3015 net.cpp:106] Creating Layer conv5_1_1x1_proj
I0620 04:25:45.504045  3015 net.cpp:454] conv5_1_1x1_proj <- conv4_23_conv4_23/relu_0_split_1
I0620 04:25:45.504052  3015 net.cpp:411] conv5_1_1x1_proj -> conv5_1_1x1_proj
I0620 04:25:45.556218  3015 net.cpp:150] Setting up conv5_1_1x1_proj
I0620 04:25:45.556251  3015 net.cpp:157] Top shape: 10 2048 60 60 (73728000)
I0620 04:25:45.556255  3015 net.cpp:165] Memory required for data: 35111222000
I0620 04:25:45.556262  3015 layer_factory.hpp:77] Creating layer conv5_1_1x1_proj/bn
I0620 04:25:45.556277  3015 net.cpp:106] Creating Layer conv5_1_1x1_proj/bn
I0620 04:25:45.556282  3015 net.cpp:454] conv5_1_1x1_proj/bn <- conv5_1_1x1_proj
I0620 04:25:45.556288  3015 net.cpp:397] conv5_1_1x1_proj/bn -> conv5_1_1x1_proj (in-place)
I0620 04:25:45.556471  3015 net.cpp:150] Setting up conv5_1_1x1_proj/bn
I0620 04:25:45.556476  3015 net.cpp:157] Top shape: 10 2048 60 60 (73728000)
I0620 04:25:45.556479  3015 net.cpp:165] Memory required for data: 35406134000
I0620 04:25:45.556485  3015 layer_factory.hpp:77] Creating layer conv5_1
I0620 04:25:45.556491  3015 net.cpp:106] Creating Layer conv5_1
I0620 04:25:45.556494  3015 net.cpp:454] conv5_1 <- conv5_1_1x1_proj
I0620 04:25:45.556500  3015 net.cpp:454] conv5_1 <- conv5_1_1x1_increase
I0620 04:25:45.556504  3015 net.cpp:411] conv5_1 -> conv5_1
I0620 04:25:45.556529  3015 net.cpp:150] Setting up conv5_1
I0620 04:25:45.556532  3015 net.cpp:157] Top shape: 10 2048 60 60 (73728000)
I0620 04:25:45.556535  3015 net.cpp:165] Memory required for data: 35701046000
I0620 04:25:45.556537  3015 layer_factory.hpp:77] Creating layer conv5_1/relu
I0620 04:25:45.556542  3015 net.cpp:106] Creating Layer conv5_1/relu
I0620 04:25:45.556545  3015 net.cpp:454] conv5_1/relu <- conv5_1
I0620 04:25:45.556550  3015 net.cpp:397] conv5_1/relu -> conv5_1 (in-place)
I0620 04:25:45.556555  3015 net.cpp:150] Setting up conv5_1/relu
I0620 04:25:45.556557  3015 net.cpp:157] Top shape: 10 2048 60 60 (73728000)
I0620 04:25:45.556560  3015 net.cpp:165] Memory required for data: 35995958000
I0620 04:25:45.556579  3015 layer_factory.hpp:77] Creating layer conv5_1_conv5_1/relu_0_split
I0620 04:25:45.556584  3015 net.cpp:106] Creating Layer conv5_1_conv5_1/relu_0_split
I0620 04:25:45.556587  3015 net.cpp:454] conv5_1_conv5_1/relu_0_split <- conv5_1
I0620 04:25:45.556591  3015 net.cpp:411] conv5_1_conv5_1/relu_0_split -> conv5_1_conv5_1/relu_0_split_0
I0620 04:25:45.556596  3015 net.cpp:411] conv5_1_conv5_1/relu_0_split -> conv5_1_conv5_1/relu_0_split_1
I0620 04:25:45.556622  3015 net.cpp:150] Setting up conv5_1_conv5_1/relu_0_split
I0620 04:25:45.556627  3015 net.cpp:157] Top shape: 10 2048 60 60 (73728000)
I0620 04:25:45.556630  3015 net.cpp:157] Top shape: 10 2048 60 60 (73728000)
I0620 04:25:45.556632  3015 net.cpp:165] Memory required for data: 36585782000
I0620 04:25:45.556637  3015 layer_factory.hpp:77] Creating layer conv5_2_1x1_reduce
I0620 04:25:45.556644  3015 net.cpp:106] Creating Layer conv5_2_1x1_reduce
I0620 04:25:45.556648  3015 net.cpp:454] conv5_2_1x1_reduce <- conv5_1_conv5_1/relu_0_split_0
I0620 04:25:45.556653  3015 net.cpp:411] conv5_2_1x1_reduce -> conv5_2_1x1_reduce
I0620 04:25:45.579813  3015 net.cpp:150] Setting up conv5_2_1x1_reduce
I0620 04:25:45.579843  3015 net.cpp:157] Top shape: 10 512 60 60 (18432000)
I0620 04:25:45.579846  3015 net.cpp:165] Memory required for data: 36659510000
I0620 04:25:45.579854  3015 layer_factory.hpp:77] Creating layer conv5_2_1x1_reduce/bn
I0620 04:25:45.579865  3015 net.cpp:106] Creating Layer conv5_2_1x1_reduce/bn
I0620 04:25:45.579874  3015 net.cpp:454] conv5_2_1x1_reduce/bn <- conv5_2_1x1_reduce
I0620 04:25:45.579879  3015 net.cpp:397] conv5_2_1x1_reduce/bn -> conv5_2_1x1_reduce (in-place)
I0620 04:25:45.580075  3015 net.cpp:150] Setting up conv5_2_1x1_reduce/bn
I0620 04:25:45.580080  3015 net.cpp:157] Top shape: 10 512 60 60 (18432000)
I0620 04:25:45.580081  3015 net.cpp:165] Memory required for data: 36733238000
I0620 04:25:45.580086  3015 layer_factory.hpp:77] Creating layer conv5_2_1x1_reduce/relu
I0620 04:25:45.580091  3015 net.cpp:106] Creating Layer conv5_2_1x1_reduce/relu
I0620 04:25:45.580093  3015 net.cpp:454] conv5_2_1x1_reduce/relu <- conv5_2_1x1_reduce
I0620 04:25:45.580096  3015 net.cpp:397] conv5_2_1x1_reduce/relu -> conv5_2_1x1_reduce (in-place)
I0620 04:25:45.580101  3015 net.cpp:150] Setting up conv5_2_1x1_reduce/relu
I0620 04:25:45.580103  3015 net.cpp:157] Top shape: 10 512 60 60 (18432000)
I0620 04:25:45.580106  3015 net.cpp:165] Memory required for data: 36806966000
I0620 04:25:45.580107  3015 layer_factory.hpp:77] Creating layer conv5_2_3x3
I0620 04:25:45.580116  3015 net.cpp:106] Creating Layer conv5_2_3x3
I0620 04:25:45.580119  3015 net.cpp:454] conv5_2_3x3 <- conv5_2_1x1_reduce
I0620 04:25:45.580122  3015 net.cpp:411] conv5_2_3x3 -> conv5_2_3x3
I0620 04:25:45.641285  3015 net.cpp:150] Setting up conv5_2_3x3
I0620 04:25:45.641311  3015 net.cpp:157] Top shape: 10 512 60 60 (18432000)
I0620 04:25:45.641314  3015 net.cpp:165] Memory required for data: 36880694000
I0620 04:25:45.641324  3015 layer_factory.hpp:77] Creating layer conv5_2_3x3/bn
I0620 04:25:45.641335  3015 net.cpp:106] Creating Layer conv5_2_3x3/bn
I0620 04:25:45.641341  3015 net.cpp:454] conv5_2_3x3/bn <- conv5_2_3x3
I0620 04:25:45.641350  3015 net.cpp:397] conv5_2_3x3/bn -> conv5_2_3x3 (in-place)
I0620 04:25:45.641549  3015 net.cpp:150] Setting up conv5_2_3x3/bn
I0620 04:25:45.641554  3015 net.cpp:157] Top shape: 10 512 60 60 (18432000)
I0620 04:25:45.641556  3015 net.cpp:165] Memory required for data: 36954422000
I0620 04:25:45.641562  3015 layer_factory.hpp:77] Creating layer conv5_2_3x3/relu
I0620 04:25:45.641568  3015 net.cpp:106] Creating Layer conv5_2_3x3/relu
I0620 04:25:45.641571  3015 net.cpp:454] conv5_2_3x3/relu <- conv5_2_3x3
I0620 04:25:45.641575  3015 net.cpp:397] conv5_2_3x3/relu -> conv5_2_3x3 (in-place)
I0620 04:25:45.641579  3015 net.cpp:150] Setting up conv5_2_3x3/relu
I0620 04:25:45.641582  3015 net.cpp:157] Top shape: 10 512 60 60 (18432000)
I0620 04:25:45.641585  3015 net.cpp:165] Memory required for data: 37028150000
I0620 04:25:45.641608  3015 layer_factory.hpp:77] Creating layer conv5_2_1x1_increase
I0620 04:25:45.641615  3015 net.cpp:106] Creating Layer conv5_2_1x1_increase
I0620 04:25:45.641618  3015 net.cpp:454] conv5_2_1x1_increase <- conv5_2_3x3
I0620 04:25:45.641623  3015 net.cpp:411] conv5_2_1x1_increase -> conv5_2_1x1_increase
I0620 04:25:45.664728  3015 net.cpp:150] Setting up conv5_2_1x1_increase
I0620 04:25:45.664748  3015 net.cpp:157] Top shape: 10 2048 60 60 (73728000)
I0620 04:25:45.664752  3015 net.cpp:165] Memory required for data: 37323062000
I0620 04:25:45.664759  3015 layer_factory.hpp:77] Creating layer conv5_2_1x1_increase/bn
I0620 04:25:45.664769  3015 net.cpp:106] Creating Layer conv5_2_1x1_increase/bn
I0620 04:25:45.664774  3015 net.cpp:454] conv5_2_1x1_increase/bn <- conv5_2_1x1_increase
I0620 04:25:45.664780  3015 net.cpp:397] conv5_2_1x1_increase/bn -> conv5_2_1x1_increase (in-place)
I0620 04:25:45.664958  3015 net.cpp:150] Setting up conv5_2_1x1_increase/bn
I0620 04:25:45.664963  3015 net.cpp:157] Top shape: 10 2048 60 60 (73728000)
I0620 04:25:45.664966  3015 net.cpp:165] Memory required for data: 37617974000
I0620 04:25:45.665017  3015 layer_factory.hpp:77] Creating layer conv5_2
I0620 04:25:45.665024  3015 net.cpp:106] Creating Layer conv5_2
I0620 04:25:45.665026  3015 net.cpp:454] conv5_2 <- conv5_1_conv5_1/relu_0_split_1
I0620 04:25:45.665030  3015 net.cpp:454] conv5_2 <- conv5_2_1x1_increase
I0620 04:25:45.665035  3015 net.cpp:411] conv5_2 -> conv5_2
I0620 04:25:45.665056  3015 net.cpp:150] Setting up conv5_2
I0620 04:25:45.665061  3015 net.cpp:157] Top shape: 10 2048 60 60 (73728000)
I0620 04:25:45.665063  3015 net.cpp:165] Memory required for data: 37912886000
I0620 04:25:45.665066  3015 layer_factory.hpp:77] Creating layer conv5_2/relu
I0620 04:25:45.665071  3015 net.cpp:106] Creating Layer conv5_2/relu
I0620 04:25:45.665074  3015 net.cpp:454] conv5_2/relu <- conv5_2
I0620 04:25:45.665078  3015 net.cpp:397] conv5_2/relu -> conv5_2 (in-place)
I0620 04:25:45.665083  3015 net.cpp:150] Setting up conv5_2/relu
I0620 04:25:45.665086  3015 net.cpp:157] Top shape: 10 2048 60 60 (73728000)
I0620 04:25:45.665089  3015 net.cpp:165] Memory required for data: 38207798000
I0620 04:25:45.665091  3015 layer_factory.hpp:77] Creating layer conv5_2_conv5_2/relu_0_split
I0620 04:25:45.665096  3015 net.cpp:106] Creating Layer conv5_2_conv5_2/relu_0_split
I0620 04:25:45.665098  3015 net.cpp:454] conv5_2_conv5_2/relu_0_split <- conv5_2
I0620 04:25:45.665103  3015 net.cpp:411] conv5_2_conv5_2/relu_0_split -> conv5_2_conv5_2/relu_0_split_0
I0620 04:25:45.665107  3015 net.cpp:411] conv5_2_conv5_2/relu_0_split -> conv5_2_conv5_2/relu_0_split_1
I0620 04:25:45.665132  3015 net.cpp:150] Setting up conv5_2_conv5_2/relu_0_split
I0620 04:25:45.665138  3015 net.cpp:157] Top shape: 10 2048 60 60 (73728000)
I0620 04:25:45.665139  3015 net.cpp:157] Top shape: 10 2048 60 60 (73728000)
I0620 04:25:45.665141  3015 net.cpp:165] Memory required for data: 38797622000
I0620 04:25:45.665143  3015 layer_factory.hpp:77] Creating layer conv5_3_1x1_reduce
I0620 04:25:45.665149  3015 net.cpp:106] Creating Layer conv5_3_1x1_reduce
I0620 04:25:45.665153  3015 net.cpp:454] conv5_3_1x1_reduce <- conv5_2_conv5_2/relu_0_split_0
I0620 04:25:45.665156  3015 net.cpp:411] conv5_3_1x1_reduce -> conv5_3_1x1_reduce
I0620 04:25:45.692051  3015 net.cpp:150] Setting up conv5_3_1x1_reduce
I0620 04:25:45.692087  3015 net.cpp:157] Top shape: 10 512 60 60 (18432000)
I0620 04:25:45.692090  3015 net.cpp:165] Memory required for data: 38871350000
I0620 04:25:45.692097  3015 layer_factory.hpp:77] Creating layer conv5_3_1x1_reduce/bn
I0620 04:25:45.692107  3015 net.cpp:106] Creating Layer conv5_3_1x1_reduce/bn
I0620 04:25:45.692113  3015 net.cpp:454] conv5_3_1x1_reduce/bn <- conv5_3_1x1_reduce
I0620 04:25:45.692119  3015 net.cpp:397] conv5_3_1x1_reduce/bn -> conv5_3_1x1_reduce (in-place)
I0620 04:25:45.692306  3015 net.cpp:150] Setting up conv5_3_1x1_reduce/bn
I0620 04:25:45.692312  3015 net.cpp:157] Top shape: 10 512 60 60 (18432000)
I0620 04:25:45.692332  3015 net.cpp:165] Memory required for data: 38945078000
I0620 04:25:45.692337  3015 layer_factory.hpp:77] Creating layer conv5_3_1x1_reduce/relu
I0620 04:25:45.692343  3015 net.cpp:106] Creating Layer conv5_3_1x1_reduce/relu
I0620 04:25:45.692347  3015 net.cpp:454] conv5_3_1x1_reduce/relu <- conv5_3_1x1_reduce
I0620 04:25:45.692350  3015 net.cpp:397] conv5_3_1x1_reduce/relu -> conv5_3_1x1_reduce (in-place)
I0620 04:25:45.692358  3015 net.cpp:150] Setting up conv5_3_1x1_reduce/relu
I0620 04:25:45.692360  3015 net.cpp:157] Top shape: 10 512 60 60 (18432000)
I0620 04:25:45.692363  3015 net.cpp:165] Memory required for data: 39018806000
I0620 04:25:45.692365  3015 layer_factory.hpp:77] Creating layer conv5_3_3x3
I0620 04:25:45.692373  3015 net.cpp:106] Creating Layer conv5_3_3x3
I0620 04:25:45.692375  3015 net.cpp:454] conv5_3_3x3 <- conv5_3_1x1_reduce
I0620 04:25:45.692380  3015 net.cpp:411] conv5_3_3x3 -> conv5_3_3x3
I0620 04:25:45.748580  3015 net.cpp:150] Setting up conv5_3_3x3
I0620 04:25:45.748601  3015 net.cpp:157] Top shape: 10 512 60 60 (18432000)
I0620 04:25:45.748603  3015 net.cpp:165] Memory required for data: 39092534000
I0620 04:25:45.748610  3015 layer_factory.hpp:77] Creating layer conv5_3_3x3/bn
I0620 04:25:45.748620  3015 net.cpp:106] Creating Layer conv5_3_3x3/bn
I0620 04:25:45.748623  3015 net.cpp:454] conv5_3_3x3/bn <- conv5_3_3x3
I0620 04:25:45.748627  3015 net.cpp:397] conv5_3_3x3/bn -> conv5_3_3x3 (in-place)
I0620 04:25:45.748808  3015 net.cpp:150] Setting up conv5_3_3x3/bn
I0620 04:25:45.748813  3015 net.cpp:157] Top shape: 10 512 60 60 (18432000)
I0620 04:25:45.748816  3015 net.cpp:165] Memory required for data: 39166262000
I0620 04:25:45.748821  3015 layer_factory.hpp:77] Creating layer conv5_3_3x3/relu
I0620 04:25:45.748824  3015 net.cpp:106] Creating Layer conv5_3_3x3/relu
I0620 04:25:45.748827  3015 net.cpp:454] conv5_3_3x3/relu <- conv5_3_3x3
I0620 04:25:45.748829  3015 net.cpp:397] conv5_3_3x3/relu -> conv5_3_3x3 (in-place)
I0620 04:25:45.748833  3015 net.cpp:150] Setting up conv5_3_3x3/relu
I0620 04:25:45.748836  3015 net.cpp:157] Top shape: 10 512 60 60 (18432000)
I0620 04:25:45.748838  3015 net.cpp:165] Memory required for data: 39239990000
I0620 04:25:45.748841  3015 layer_factory.hpp:77] Creating layer conv5_3_1x1_increase
I0620 04:25:45.748848  3015 net.cpp:106] Creating Layer conv5_3_1x1_increase
I0620 04:25:45.748852  3015 net.cpp:454] conv5_3_1x1_increase <- conv5_3_3x3
I0620 04:25:45.748857  3015 net.cpp:411] conv5_3_1x1_increase -> conv5_3_1x1_increase
I0620 04:25:45.775835  3015 net.cpp:150] Setting up conv5_3_1x1_increase
I0620 04:25:45.775909  3015 net.cpp:157] Top shape: 10 2048 60 60 (73728000)
I0620 04:25:45.775914  3015 net.cpp:165] Memory required for data: 39534902000
I0620 04:25:45.775930  3015 layer_factory.hpp:77] Creating layer conv5_3_1x1_increase/bn
I0620 04:25:45.775959  3015 net.cpp:106] Creating Layer conv5_3_1x1_increase/bn
I0620 04:25:45.775970  3015 net.cpp:454] conv5_3_1x1_increase/bn <- conv5_3_1x1_increase
I0620 04:25:45.775980  3015 net.cpp:397] conv5_3_1x1_increase/bn -> conv5_3_1x1_increase (in-place)
I0620 04:25:45.776283  3015 net.cpp:150] Setting up conv5_3_1x1_increase/bn
I0620 04:25:45.776293  3015 net.cpp:157] Top shape: 10 2048 60 60 (73728000)
I0620 04:25:45.776298  3015 net.cpp:165] Memory required for data: 39829814000
I0620 04:25:45.776309  3015 layer_factory.hpp:77] Creating layer conv5_3
I0620 04:25:45.776322  3015 net.cpp:106] Creating Layer conv5_3
I0620 04:25:45.776327  3015 net.cpp:454] conv5_3 <- conv5_2_conv5_2/relu_0_split_1
I0620 04:25:45.776335  3015 net.cpp:454] conv5_3 <- conv5_3_1x1_increase
I0620 04:25:45.776340  3015 net.cpp:411] conv5_3 -> conv5_3
I0620 04:25:45.776376  3015 net.cpp:150] Setting up conv5_3
I0620 04:25:45.776382  3015 net.cpp:157] Top shape: 10 2048 60 60 (73728000)
I0620 04:25:45.776386  3015 net.cpp:165] Memory required for data: 40124726000
I0620 04:25:45.776391  3015 layer_factory.hpp:77] Creating layer conv5_3/relu
I0620 04:25:45.776399  3015 net.cpp:106] Creating Layer conv5_3/relu
I0620 04:25:45.776444  3015 net.cpp:454] conv5_3/relu <- conv5_3
I0620 04:25:45.776450  3015 net.cpp:397] conv5_3/relu -> conv5_3 (in-place)
I0620 04:25:45.776458  3015 net.cpp:150] Setting up conv5_3/relu
I0620 04:25:45.776463  3015 net.cpp:157] Top shape: 10 2048 60 60 (73728000)
I0620 04:25:45.776466  3015 net.cpp:165] Memory required for data: 40419638000
I0620 04:25:45.776470  3015 layer_factory.hpp:77] Creating layer conv5_3_conv5_3/relu_0_split
I0620 04:25:45.776479  3015 net.cpp:106] Creating Layer conv5_3_conv5_3/relu_0_split
I0620 04:25:45.776484  3015 net.cpp:454] conv5_3_conv5_3/relu_0_split <- conv5_3
I0620 04:25:45.776489  3015 net.cpp:411] conv5_3_conv5_3/relu_0_split -> conv5_3_conv5_3/relu_0_split_0
I0620 04:25:45.776499  3015 net.cpp:411] conv5_3_conv5_3/relu_0_split -> conv5_3_conv5_3/relu_0_split_1
I0620 04:25:45.776505  3015 net.cpp:411] conv5_3_conv5_3/relu_0_split -> conv5_3_conv5_3/relu_0_split_2
I0620 04:25:45.776512  3015 net.cpp:411] conv5_3_conv5_3/relu_0_split -> conv5_3_conv5_3/relu_0_split_3
I0620 04:25:45.776517  3015 net.cpp:411] conv5_3_conv5_3/relu_0_split -> conv5_3_conv5_3/relu_0_split_4
I0620 04:25:45.776592  3015 net.cpp:150] Setting up conv5_3_conv5_3/relu_0_split
I0620 04:25:45.776600  3015 net.cpp:157] Top shape: 10 2048 60 60 (73728000)
I0620 04:25:45.776607  3015 net.cpp:157] Top shape: 10 2048 60 60 (73728000)
I0620 04:25:45.776612  3015 net.cpp:157] Top shape: 10 2048 60 60 (73728000)
I0620 04:25:45.776615  3015 net.cpp:157] Top shape: 10 2048 60 60 (73728000)
I0620 04:25:45.776620  3015 net.cpp:157] Top shape: 10 2048 60 60 (73728000)
I0620 04:25:45.776624  3015 net.cpp:165] Memory required for data: 41894198000
I0620 04:25:45.776628  3015 layer_factory.hpp:77] Creating layer conv5_3_pool1
I0620 04:25:45.776635  3015 net.cpp:106] Creating Layer conv5_3_pool1
I0620 04:25:45.776639  3015 net.cpp:454] conv5_3_pool1 <- conv5_3_conv5_3/relu_0_split_0
I0620 04:25:45.776645  3015 net.cpp:411] conv5_3_pool1 -> conv5_3_pool1
I0620 04:25:45.776669  3015 net.cpp:150] Setting up conv5_3_pool1
I0620 04:25:45.776675  3015 net.cpp:157] Top shape: 10 2048 1 1 (20480)
I0620 04:25:45.776679  3015 net.cpp:165] Memory required for data: 41894279920
I0620 04:25:45.776684  3015 layer_factory.hpp:77] Creating layer conv5_3_pool1_conv
I0620 04:25:45.776695  3015 net.cpp:106] Creating Layer conv5_3_pool1_conv
I0620 04:25:45.776700  3015 net.cpp:454] conv5_3_pool1_conv <- conv5_3_pool1
I0620 04:25:45.776706  3015 net.cpp:411] conv5_3_pool1_conv -> conv5_3_pool1_conv
I0620 04:25:45.799849  3015 net.cpp:150] Setting up conv5_3_pool1_conv
I0620 04:25:45.799871  3015 net.cpp:157] Top shape: 10 512 1 1 (5120)
I0620 04:25:45.799875  3015 net.cpp:165] Memory required for data: 41894300400
I0620 04:25:45.799881  3015 layer_factory.hpp:77] Creating layer conv5_3_pool1_conv/bn
I0620 04:25:45.799893  3015 net.cpp:106] Creating Layer conv5_3_pool1_conv/bn
I0620 04:25:45.799902  3015 net.cpp:454] conv5_3_pool1_conv/bn <- conv5_3_pool1_conv
I0620 04:25:45.799907  3015 net.cpp:397] conv5_3_pool1_conv/bn -> conv5_3_pool1_conv (in-place)
I0620 04:25:45.800078  3015 net.cpp:150] Setting up conv5_3_pool1_conv/bn
I0620 04:25:45.800083  3015 net.cpp:157] Top shape: 10 512 1 1 (5120)
I0620 04:25:45.800086  3015 net.cpp:165] Memory required for data: 41894320880
I0620 04:25:45.800091  3015 layer_factory.hpp:77] Creating layer conv5_3_pool1_conv/relu
I0620 04:25:45.800096  3015 net.cpp:106] Creating Layer conv5_3_pool1_conv/relu
I0620 04:25:45.800099  3015 net.cpp:454] conv5_3_pool1_conv/relu <- conv5_3_pool1_conv
I0620 04:25:45.800103  3015 net.cpp:397] conv5_3_pool1_conv/relu -> conv5_3_pool1_conv (in-place)
I0620 04:25:45.800107  3015 net.cpp:150] Setting up conv5_3_pool1_conv/relu
I0620 04:25:45.800112  3015 net.cpp:157] Top shape: 10 512 1 1 (5120)
I0620 04:25:45.800113  3015 net.cpp:165] Memory required for data: 41894341360
I0620 04:25:45.800117  3015 layer_factory.hpp:77] Creating layer conv5_3_pool1_interp
I0620 04:25:45.800127  3015 net.cpp:106] Creating Layer conv5_3_pool1_interp
I0620 04:25:45.800129  3015 net.cpp:454] conv5_3_pool1_interp <- conv5_3_pool1_conv
I0620 04:25:45.800149  3015 net.cpp:411] conv5_3_pool1_interp -> conv5_3_pool1_interp
I0620 04:25:45.800184  3015 net.cpp:150] Setting up conv5_3_pool1_interp
I0620 04:25:45.800187  3015 net.cpp:157] Top shape: 10 512 60 60 (18432000)
I0620 04:25:45.800190  3015 net.cpp:165] Memory required for data: 41968069360
I0620 04:25:45.800192  3015 layer_factory.hpp:77] Creating layer conv5_3_pool2
I0620 04:25:45.800199  3015 net.cpp:106] Creating Layer conv5_3_pool2
I0620 04:25:45.800201  3015 net.cpp:454] conv5_3_pool2 <- conv5_3_conv5_3/relu_0_split_1
I0620 04:25:45.800205  3015 net.cpp:411] conv5_3_pool2 -> conv5_3_pool2
I0620 04:25:45.800223  3015 net.cpp:150] Setting up conv5_3_pool2
I0620 04:25:45.800228  3015 net.cpp:157] Top shape: 10 2048 2 2 (81920)
I0620 04:25:45.800230  3015 net.cpp:165] Memory required for data: 41968397040
I0620 04:25:45.800232  3015 layer_factory.hpp:77] Creating layer conv5_3_pool2_conv
I0620 04:25:45.800238  3015 net.cpp:106] Creating Layer conv5_3_pool2_conv
I0620 04:25:45.800241  3015 net.cpp:454] conv5_3_pool2_conv <- conv5_3_pool2
I0620 04:25:45.800246  3015 net.cpp:411] conv5_3_pool2_conv -> conv5_3_pool2_conv
I0620 04:25:45.827349  3015 net.cpp:150] Setting up conv5_3_pool2_conv
I0620 04:25:45.827378  3015 net.cpp:157] Top shape: 10 512 2 2 (20480)
I0620 04:25:45.827381  3015 net.cpp:165] Memory required for data: 41968478960
I0620 04:25:45.827390  3015 layer_factory.hpp:77] Creating layer conv5_3_pool2_conv/bn
I0620 04:25:45.827411  3015 net.cpp:106] Creating Layer conv5_3_pool2_conv/bn
I0620 04:25:45.827421  3015 net.cpp:454] conv5_3_pool2_conv/bn <- conv5_3_pool2_conv
I0620 04:25:45.827430  3015 net.cpp:397] conv5_3_pool2_conv/bn -> conv5_3_pool2_conv (in-place)
I0620 04:25:45.827613  3015 net.cpp:150] Setting up conv5_3_pool2_conv/bn
I0620 04:25:45.827618  3015 net.cpp:157] Top shape: 10 512 2 2 (20480)
I0620 04:25:45.827621  3015 net.cpp:165] Memory required for data: 41968560880
I0620 04:25:45.827627  3015 layer_factory.hpp:77] Creating layer conv5_3_pool2_conv/relu
I0620 04:25:45.827632  3015 net.cpp:106] Creating Layer conv5_3_pool2_conv/relu
I0620 04:25:45.827636  3015 net.cpp:454] conv5_3_pool2_conv/relu <- conv5_3_pool2_conv
I0620 04:25:45.827638  3015 net.cpp:397] conv5_3_pool2_conv/relu -> conv5_3_pool2_conv (in-place)
I0620 04:25:45.827643  3015 net.cpp:150] Setting up conv5_3_pool2_conv/relu
I0620 04:25:45.827646  3015 net.cpp:157] Top shape: 10 512 2 2 (20480)
I0620 04:25:45.827649  3015 net.cpp:165] Memory required for data: 41968642800
I0620 04:25:45.827651  3015 layer_factory.hpp:77] Creating layer conv5_3_pool2_interp
I0620 04:25:45.827656  3015 net.cpp:106] Creating Layer conv5_3_pool2_interp
I0620 04:25:45.827658  3015 net.cpp:454] conv5_3_pool2_interp <- conv5_3_pool2_conv
I0620 04:25:45.827662  3015 net.cpp:411] conv5_3_pool2_interp -> conv5_3_pool2_interp
I0620 04:25:45.827693  3015 net.cpp:150] Setting up conv5_3_pool2_interp
I0620 04:25:45.827697  3015 net.cpp:157] Top shape: 10 512 60 60 (18432000)
I0620 04:25:45.827699  3015 net.cpp:165] Memory required for data: 42042370800
I0620 04:25:45.827702  3015 layer_factory.hpp:77] Creating layer conv5_3_pool3
I0620 04:25:45.827708  3015 net.cpp:106] Creating Layer conv5_3_pool3
I0620 04:25:45.827710  3015 net.cpp:454] conv5_3_pool3 <- conv5_3_conv5_3/relu_0_split_2
I0620 04:25:45.827714  3015 net.cpp:411] conv5_3_pool3 -> conv5_3_pool3
I0620 04:25:45.827731  3015 net.cpp:150] Setting up conv5_3_pool3
I0620 04:25:45.827735  3015 net.cpp:157] Top shape: 10 2048 3 3 (184320)
I0620 04:25:45.827739  3015 net.cpp:165] Memory required for data: 42043108080
I0620 04:25:45.827740  3015 layer_factory.hpp:77] Creating layer conv5_3_pool3_conv
I0620 04:25:45.827749  3015 net.cpp:106] Creating Layer conv5_3_pool3_conv
I0620 04:25:45.827751  3015 net.cpp:454] conv5_3_pool3_conv <- conv5_3_pool3
I0620 04:25:45.827755  3015 net.cpp:411] conv5_3_pool3_conv -> conv5_3_pool3_conv
I0620 04:25:45.852099  3015 net.cpp:150] Setting up conv5_3_pool3_conv
I0620 04:25:45.852187  3015 net.cpp:157] Top shape: 10 512 3 3 (46080)
I0620 04:25:45.852255  3015 net.cpp:165] Memory required for data: 42043292400
I0620 04:25:45.852273  3015 layer_factory.hpp:77] Creating layer conv5_3_pool3_conv/bn
I0620 04:25:45.852305  3015 net.cpp:106] Creating Layer conv5_3_pool3_conv/bn
I0620 04:25:45.852319  3015 net.cpp:454] conv5_3_pool3_conv/bn <- conv5_3_pool3_conv
I0620 04:25:45.852330  3015 net.cpp:397] conv5_3_pool3_conv/bn -> conv5_3_pool3_conv (in-place)
I0620 04:25:45.852643  3015 net.cpp:150] Setting up conv5_3_pool3_conv/bn
I0620 04:25:45.852650  3015 net.cpp:157] Top shape: 10 512 3 3 (46080)
I0620 04:25:45.852658  3015 net.cpp:165] Memory required for data: 42043476720
I0620 04:25:45.852669  3015 layer_factory.hpp:77] Creating layer conv5_3_pool3_conv/relu
I0620 04:25:45.852681  3015 net.cpp:106] Creating Layer conv5_3_pool3_conv/relu
I0620 04:25:45.852685  3015 net.cpp:454] conv5_3_pool3_conv/relu <- conv5_3_pool3_conv
I0620 04:25:45.852690  3015 net.cpp:397] conv5_3_pool3_conv/relu -> conv5_3_pool3_conv (in-place)
I0620 04:25:45.852697  3015 net.cpp:150] Setting up conv5_3_pool3_conv/relu
I0620 04:25:45.852702  3015 net.cpp:157] Top shape: 10 512 3 3 (46080)
I0620 04:25:45.852706  3015 net.cpp:165] Memory required for data: 42043661040
I0620 04:25:45.852711  3015 layer_factory.hpp:77] Creating layer conv5_3_pool3_interp
I0620 04:25:45.852721  3015 net.cpp:106] Creating Layer conv5_3_pool3_interp
I0620 04:25:45.852726  3015 net.cpp:454] conv5_3_pool3_interp <- conv5_3_pool3_conv
I0620 04:25:45.852732  3015 net.cpp:411] conv5_3_pool3_interp -> conv5_3_pool3_interp
I0620 04:25:45.852767  3015 net.cpp:150] Setting up conv5_3_pool3_interp
I0620 04:25:45.852774  3015 net.cpp:157] Top shape: 10 512 60 60 (18432000)
I0620 04:25:45.852778  3015 net.cpp:165] Memory required for data: 42117389040
I0620 04:25:45.852783  3015 layer_factory.hpp:77] Creating layer conv5_3_pool6
I0620 04:25:45.852792  3015 net.cpp:106] Creating Layer conv5_3_pool6
I0620 04:25:45.852797  3015 net.cpp:454] conv5_3_pool6 <- conv5_3_conv5_3/relu_0_split_3
I0620 04:25:45.852805  3015 net.cpp:411] conv5_3_pool6 -> conv5_3_pool6
I0620 04:25:45.852834  3015 net.cpp:150] Setting up conv5_3_pool6
I0620 04:25:45.852840  3015 net.cpp:157] Top shape: 10 2048 6 6 (737280)
I0620 04:25:45.852844  3015 net.cpp:165] Memory required for data: 42120338160
I0620 04:25:45.852849  3015 layer_factory.hpp:77] Creating layer conv5_3_pool6_conv
I0620 04:25:45.852861  3015 net.cpp:106] Creating Layer conv5_3_pool6_conv
I0620 04:25:45.852867  3015 net.cpp:454] conv5_3_pool6_conv <- conv5_3_pool6
I0620 04:25:45.852872  3015 net.cpp:411] conv5_3_pool6_conv -> conv5_3_pool6_conv
I0620 04:25:45.880162  3015 net.cpp:150] Setting up conv5_3_pool6_conv
I0620 04:25:45.880187  3015 net.cpp:157] Top shape: 10 512 6 6 (184320)
I0620 04:25:45.880190  3015 net.cpp:165] Memory required for data: 42121075440
I0620 04:25:45.880198  3015 layer_factory.hpp:77] Creating layer conv5_3_pool6_conv/bn
I0620 04:25:45.880209  3015 net.cpp:106] Creating Layer conv5_3_pool6_conv/bn
I0620 04:25:45.880215  3015 net.cpp:454] conv5_3_pool6_conv/bn <- conv5_3_pool6_conv
I0620 04:25:45.880223  3015 net.cpp:397] conv5_3_pool6_conv/bn -> conv5_3_pool6_conv (in-place)
I0620 04:25:45.880426  3015 net.cpp:150] Setting up conv5_3_pool6_conv/bn
I0620 04:25:45.880431  3015 net.cpp:157] Top shape: 10 512 6 6 (184320)
I0620 04:25:45.880434  3015 net.cpp:165] Memory required for data: 42121812720
I0620 04:25:45.880439  3015 layer_factory.hpp:77] Creating layer conv5_3_pool6_conv/relu
I0620 04:25:45.880444  3015 net.cpp:106] Creating Layer conv5_3_pool6_conv/relu
I0620 04:25:45.880445  3015 net.cpp:454] conv5_3_pool6_conv/relu <- conv5_3_pool6_conv
I0620 04:25:45.880448  3015 net.cpp:397] conv5_3_pool6_conv/relu -> conv5_3_pool6_conv (in-place)
I0620 04:25:45.880452  3015 net.cpp:150] Setting up conv5_3_pool6_conv/relu
I0620 04:25:45.880455  3015 net.cpp:157] Top shape: 10 512 6 6 (184320)
I0620 04:25:45.880457  3015 net.cpp:165] Memory required for data: 42122550000
I0620 04:25:45.880460  3015 layer_factory.hpp:77] Creating layer conv5_3_pool6_interp
I0620 04:25:45.880481  3015 net.cpp:106] Creating Layer conv5_3_pool6_interp
I0620 04:25:45.880482  3015 net.cpp:454] conv5_3_pool6_interp <- conv5_3_pool6_conv
I0620 04:25:45.880486  3015 net.cpp:411] conv5_3_pool6_interp -> conv5_3_pool6_interp
I0620 04:25:45.880507  3015 net.cpp:150] Setting up conv5_3_pool6_interp
I0620 04:25:45.880511  3015 net.cpp:157] Top shape: 10 512 60 60 (18432000)
I0620 04:25:45.880514  3015 net.cpp:165] Memory required for data: 42196278000
I0620 04:25:45.880518  3015 layer_factory.hpp:77] Creating layer conv5_3_concat
I0620 04:25:45.880522  3015 net.cpp:106] Creating Layer conv5_3_concat
I0620 04:25:45.880525  3015 net.cpp:454] conv5_3_concat <- conv5_3_conv5_3/relu_0_split_4
I0620 04:25:45.880529  3015 net.cpp:454] conv5_3_concat <- conv5_3_pool6_interp
I0620 04:25:45.880532  3015 net.cpp:454] conv5_3_concat <- conv5_3_pool3_interp
I0620 04:25:45.880535  3015 net.cpp:454] conv5_3_concat <- conv5_3_pool2_interp
I0620 04:25:45.880539  3015 net.cpp:454] conv5_3_concat <- conv5_3_pool1_interp
I0620 04:25:45.880544  3015 net.cpp:411] conv5_3_concat -> conv5_3_concat
I0620 04:25:45.880563  3015 net.cpp:150] Setting up conv5_3_concat
I0620 04:25:45.880568  3015 net.cpp:157] Top shape: 10 4096 60 60 (147456000)
I0620 04:25:45.880570  3015 net.cpp:165] Memory required for data: 42786102000
I0620 04:25:45.880573  3015 layer_factory.hpp:77] Creating layer conv5_4
I0620 04:25:45.880580  3015 net.cpp:106] Creating Layer conv5_4
I0620 04:25:45.880584  3015 net.cpp:454] conv5_4 <- conv5_3_concat
I0620 04:25:45.880589  3015 net.cpp:411] conv5_4 -> conv5_4
I0620 04:25:46.312881  3015 net.cpp:150] Setting up conv5_4
I0620 04:25:46.312901  3015 net.cpp:157] Top shape: 10 512 60 60 (18432000)
I0620 04:25:46.312903  3015 net.cpp:165] Memory required for data: 42859830000
I0620 04:25:46.312909  3015 layer_factory.hpp:77] Creating layer conv5_4/bn
I0620 04:25:46.312918  3015 net.cpp:106] Creating Layer conv5_4/bn
I0620 04:25:46.312922  3015 net.cpp:454] conv5_4/bn <- conv5_4
I0620 04:25:46.312942  3015 net.cpp:397] conv5_4/bn -> conv5_4 (in-place)
I0620 04:25:46.313146  3015 net.cpp:150] Setting up conv5_4/bn
I0620 04:25:46.313151  3015 net.cpp:157] Top shape: 10 512 60 60 (18432000)
I0620 04:25:46.313154  3015 net.cpp:165] Memory required for data: 42933558000
I0620 04:25:46.313159  3015 layer_factory.hpp:77] Creating layer conv5_4/relu
I0620 04:25:46.313163  3015 net.cpp:106] Creating Layer conv5_4/relu
I0620 04:25:46.313166  3015 net.cpp:454] conv5_4/relu <- conv5_4
I0620 04:25:46.313169  3015 net.cpp:397] conv5_4/relu -> conv5_4 (in-place)
I0620 04:25:46.313174  3015 net.cpp:150] Setting up conv5_4/relu
I0620 04:25:46.313175  3015 net.cpp:157] Top shape: 10 512 60 60 (18432000)
I0620 04:25:46.313177  3015 net.cpp:165] Memory required for data: 43007286000
I0620 04:25:46.313180  3015 layer_factory.hpp:77] Creating layer conv5_4/dropout
I0620 04:25:46.313189  3015 net.cpp:106] Creating Layer conv5_4/dropout
I0620 04:25:46.313192  3015 net.cpp:454] conv5_4/dropout <- conv5_4
I0620 04:25:46.313195  3015 net.cpp:397] conv5_4/dropout -> conv5_4 (in-place)
I0620 04:25:46.313218  3015 net.cpp:150] Setting up conv5_4/dropout
I0620 04:25:46.313223  3015 net.cpp:157] Top shape: 10 512 60 60 (18432000)
I0620 04:25:46.313225  3015 net.cpp:165] Memory required for data: 43081014000
I0620 04:25:46.313227  3015 layer_factory.hpp:77] Creating layer conv6
I0620 04:25:46.313233  3015 net.cpp:106] Creating Layer conv6
I0620 04:25:46.313235  3015 net.cpp:454] conv6 <- conv5_4
I0620 04:25:46.313240  3015 net.cpp:411] conv6 -> conv6
I0620 04:25:46.313658  3015 net.cpp:150] Setting up conv6
I0620 04:25:46.313663  3015 net.cpp:157] Top shape: 10 21 60 60 (756000)
I0620 04:25:46.313679  3015 net.cpp:165] Memory required for data: 43084038000
I0620 04:25:46.313683  3015 layer_factory.hpp:77] Creating layer conv6_interp
I0620 04:25:46.313688  3015 net.cpp:106] Creating Layer conv6_interp
I0620 04:25:46.313691  3015 net.cpp:454] conv6_interp <- conv6
I0620 04:25:46.313695  3015 net.cpp:411] conv6_interp -> conv6_interp
I0620 04:25:46.313726  3015 net.cpp:150] Setting up conv6_interp
I0620 04:25:46.313731  3015 net.cpp:157] Top shape: 10 21 473 473 (46983090)
I0620 04:25:46.313733  3015 net.cpp:165] Memory required for data: 43271970360
I0620 04:25:46.313736  3015 net.cpp:228] conv6_interp does not need backward computation.
I0620 04:25:46.313740  3015 net.cpp:228] conv6 does not need backward computation.
I0620 04:25:46.313741  3015 net.cpp:228] conv5_4/dropout does not need backward computation.
I0620 04:25:46.313745  3015 net.cpp:228] conv5_4/relu does not need backward computation.
…
