…
state {
  phase: TRAIN
}
layer {
  name: "data"
  type: "ImageSegData"
  top: "data"
  top: "label"
  include {
    phase: TRAIN
  }
  transform_param {
    mirror: true
    crop_size: 473
    mean_value: 104.008
    mean_value: 116.669
    mean_value: 122.675
    scale_factors: 0.5
    scale_factors: 0.75
    scale_factors: 1
    scale_factors: 1.25
    scale_factors: 1.5
  }
  image_data_param {
    source: "exper/voc12/list/train_aug.txt"
    batch_size: 3
    shuffle: true
    root_folder: "exper/voc12/data"
    label_type: PIXEL
  }
}
layer {
  name: "conv1_1_3x3_s2"
  type: "Convolution"
  bottom: "data"
  top: "conv1_1_3x3_s2"
  param {
    lr_mult: 1
    decay_mult: 1
  }
  convolution_param {
    num_output: 64
    bias_term: false
    pad: 1
    kernel_size: 3
    stride: 2
    weight_filler {
      type: "msra"
    }
  }
}
layer {
  name: "conv1_1_3x3_s2/bn"
  type: "BN"
  bottom: "conv1_1_3x3_s2"
  top: "conv1_1_3x3_s2"
  param {
    lr_mult: 1
    decay_mult: 0
  }
  param {
    lr_mult: 1
    decay_mult: 0
  }
  param {
    lr_mult: 0
    decay_mult: 0
  }
  param {
    lr_mult: 0
    decay_mult: 0
  }
  bn_param {
    slope_filler {
      type: "constant"
      value: 1
    }
    bias_filler {
      type: "constant"
      value: 0
    }
    momentum: 0.95
    frozen: true
  }
}
layer {
  name: "conv1_1_3x3_s2/relu"
  type: "ReLU"
  bottom: "conv1_1_3x3_s2"
  top: "conv1_1_3x3_s2"
}
layer {
  name: "conv1_2_3x3"
  type: "Convolution"
  bottom: "conv1_1_3x3_s2"
  top: "conv1_2_3x3"
  param {
    lr_mult: 1
    decay_mult: 1
  }
  convolution_param {
    num_output: 64
    bias_term: false
    pad: 1
    kernel_size: 3
    stride: 1
    weight_filler {
      type: "msra"
    }
  }
}
layer {
  name: "conv1_2_3x3/bn"
  type: "BN"
  bottom: "conv1_2_3x3"
  top: "conv1_2_3x3"
  param {
    lr_mult: 1
    decay_mult: 0
  }
  param {
    lr_mult: 1
    decay_mult: 0
  }
  param {
    lr_mult: 0
    decay_mult: 0
  }
  param {
    lr_mult: 0
    decay_mult: 0
  }
  bn_param {
    slope_filler {
      type: "constant"
      value: 1
    }
    bias_filler {
      type: "constant"
      value: 0
    }
    momentum: 0.95
    frozen: true
  }
}
layer {
  name: "conv1_2_3x3/relu"
  type: "ReLU"
  bottom: "conv1_2_3x3"
  top: "conv1_2_3x3"
}
layer {
  name: "conv1_3_3x3"
  type: "Convolution"
  bottom: "conv1_2_3x3"
  top: "conv1_3_3x3"
  param {
    lr_mult: 1
    decay_mult: 1
  }
  convolution_param {
    num_output: 128
    bias_term: false
    pad: 1
    kernel_size: 3
    stride: 1
    weight_filler {
      type: "msra"
    }
  }
}
layer {
  name: "conv1_3_3x3/bn"
  type: "BN"
  bottom: "conv1_3_3x3"
  top: "conv1_3_3x3"
  param {
    lr_mult: 1
    decay_mult: 0
  }
  param {
    lr_mult: 1
    decay_mult: 0
  }
  param {
    lr_mult: 0
    decay_mult: 0
  }
  param {
    lr_mult: 0
    decay_mult: 0
  }
  bn_param {
    slope_filler {
      type: "constant"
      value: 1
    }
    bias_filler {
      type: "constant"
      value: 0
    }
    momentum: 0.95
    frozen: true
  }
}
layer {
  name: "conv1_3_3x3/relu"
  type: "ReLU"
  bottom: "conv1_3_3x3"
  top: "conv1_3_3x3"
}
layer {
  name: "pool1_3x3_s2"
  type: "Pooling"
  bottom: "conv1_3_3x3"
  top: "pool1_3x3_s2"
  pooling_param {
    pool: MAX
    kernel_size: 3
    stride: 2
    pad: 1
  }
}
layer {
  name: "conv2_1_1x1_reduce"
  type: "Convolution"
  bottom: "pool1_3x3_s2"
  top: "conv2_1_1x1_reduce"
  param {
    lr_mult: 1
    decay_mult: 1
  }
  convolution_param {
    num_output: 64
    bias_term: false
    pad: 0
    kernel_size: 1
    stride: 1
    weight_filler {
      type: "msra"
    }
  }
}
layer {
  name: "conv2_1_1x1_reduce/bn"
  type: "BN"
  bottom: "conv2_1_1x1_reduce"
  top: "conv2_1_1x1_reduce"
  param {
    lr_mult: 1
    decay_mult: 0
  }
  param {
    lr_mult: 1
    decay_mult: 0
  }
  param {
    lr_mult: 0
    decay_mult: 0
  }
  param {
    lr_mult: 0
    decay_mult: 0
  }
  bn_param {
    slope_filler {
      type: "constant"
      value: 1
    }
    bias_filler {
      type: "constant"
      value: 0
    }
    momentum: 0.95
    frozen: true
  }
}
layer {
  name: "conv2_1_1x1_reduce/relu"
  type: "ReLU"
  bottom: "conv2_1_1x1_reduce"
  top: "conv2_1_1x1_reduce"
}
layer {
  name: "conv2_1_3x3"
  type: "Convolution"
  bottom: "conv2_1_1x1_reduce"
  top: "conv2_1_3x3"
  param {
    lr_mult: 1
    decay_mult: 1
  }
  convolution_param {
    num_output: 64
    bias_term: false
    pad: 1
    kernel_size: 3
    stride: 1
    weight_filler {
      type: "msra"
    }
  }
}
layer {
  name: "conv2_1_3x3/bn"
  type: "BN"
  bottom: "conv2_1_3x3"
  top: "conv2_1_3x3"
  param {
    lr_mult: 1
    decay_mult: 0
  }
  param {
    lr_mult: 1
    decay_mult: 0
  }
  param {
    lr_mult: 0
    decay_mult: 0
  }
  param {
    lr_mult: 0
    decay_mult: 0
  }
  bn_param {
    slope_filler {
      type: "constant"
      value: 1
    }
    bias_filler {
      type: "constant"
      value: 0
    }
    momentum: 0.95
    frozen: true
  }
}
layer {
  name: "conv2_1_3x3/relu"
  type: "ReLU"
  bottom: "conv2_1_3x3"
  top: "conv2_1_3x3"
}
layer {
  name: "conv2_1_1x1_increase"
  type: "Convolution"
  bottom: "conv2_1_3x3"
  top: "conv2_1_1x1_increase"
  param {
    lr_mult: 1
    decay_mult: 1
  }
  convolution_param {
    num_output: 256
    bias_term: false
    pad: 0
    kernel_size: 1
    stride: 1
    weight_filler {
      type: "msra"
    }
  }
}
layer {
  name: "conv2_1_1x1_increase/bn"
  type: "BN"
  bottom: "conv2_1_1x1_increase"
  top: "conv2_1_1x1_increase"
  param {
    lr_mult: 1
    decay_mult: 0
  }
  param {
    lr_mult: 1
    decay_mult: 0
  }
  param {
    lr_mult: 0
    decay_mult: 0
  }
  param {
    lr_mult: 0
    decay_mult: 0
  }
  bn_param {
    slope_filler {
      type: "constant"
      value: 1
    }
    bias_filler {
      type: "constant"
      value: 0
    }
    momentum: 0.95
    frozen: true
  }
}
layer {
  name: "conv2_1_1x1_proj"
  type: "Convolution"
  bottom: "pool1_3x3_s2"
  top: "conv2_1_1x1_proj"
  param {
    lr_mult: 1
    decay_mult: 1
  }
  convolution_param {
    num_output: 256
    bias_term: false
    pad: 0
    kernel_size: 1
    stride: 1
    weight_filler {
      type: "msra"
    }
  }
}
layer {
  name: "conv2_1_1x1_proj/bn"
  type: "BN"
  bottom: "conv2_1_1x1_proj"
  top: "conv2_1_1x1_proj"
  param {
    lr_mult: 1
    decay_mult: 0
  }
  param {
    lr_mult: 1
    decay_mult: 0
  }
  param {
    lr_mult: 0
    decay_mult: 0
  }
  param {
    lr_mult: 0
    decay_mult: 0
  }
  bn_param {
    slope_filler {
      type: "constant"
      value: 1
    }
    bias_filler {
      type: "constant"
      value: 0
    }
    momentum: 0.95
    frozen: true
  }
}
layer {
  name: "conv2_1"
  type: "Eltwise"
  bottom: "conv2_1_1x1_proj"
  bottom: "conv2_1_1x1_increase"
  top: "conv2_1"
  eltwise_param {
    operation: SUM
  }
}
layer {
  name: "conv2_1/relu"
  type: "ReLU"
  bottom: "conv2_1"
  top: "conv2_1"
}
layer {
  name: "conv2_2_1x1_reduce"
  type: "Convolution"
  bottom: "conv2_1"
  top: "conv2_2_1x1_reduce"
  param {
    lr_mult: 1
    decay_mult: 1
  }
  convolution_param {
    num_output: 64
    bias_term: false
    pad: 0
    kernel_size: 1
    stride: 1
    weight_filler {
      type: "msra"
    }
  }
}
layer {
  name: "conv2_2_1x1_reduce/bn"
  type: "BN"
  bottom: "conv2_2_1x1_reduce"
  top: "conv2_2_1x1_reduce"
  param {
    lr_mult: 1
    decay_mult: 0
  }
  param {
    lr_mult: 1
    decay_mult: 0
  }
  param {
    lr_mult: 0
    decay_mult: 0
  }
  param {
    lr_mult: 0
    decay_mult: 0
  }
  bn_param {
    slope_filler {
      type: "constant"
      value: 1
    }
    bias_filler {
      type: "constant"
      value: 0
    }
    momentum: 0.95
    frozen: true
  }
}
layer {
  name: "conv2_2_1x1_reduce/relu"
  type: "ReLU"
  bottom: "conv2_2_1x1_reduce"
  top: "conv2_2_1x1_reduce"
}
layer {
  name: "conv2_2_3x3"
  type: "Convolution"
  bottom: "conv2_2_1x1_reduce"
  top: "conv2_2_3x3"
  param {
    lr_mult: 1
    decay_mult: 1
  }
  convolution_param {
    num_output: 64
    bias_term: false
    pad: 1
    kernel_size: 3
    stride: 1
    weight_filler {
      type: "msra"
    }
  }
}
layer {
  name: "conv2_2_3x3/bn"
  type: "BN"
  bottom: "conv2_2_3x3"
  top: "conv2_2_3x3"
  param {
    lr_mult: 1
    decay_mult: 0
  }
  param {
    lr_mult: 1
    decay_mult: 0
  }
  param {
    lr_mult: 0
    decay_mult: 0
  }
  param {
    lr_mult: 0
    decay_mult: 0
  }
  bn_param {
    slope_filler {
      type: "constant"
      value: 1
    }
    bias_filler {
      type: "constant"
      value: 0
    }
    momentum: 0.95
    frozen: true
  }
}
layer {
  name: "conv2_2_3x3/relu"
  type: "ReLU"
  bottom: "conv2_2_3x3"
  top: "conv2_2_3x3"
}
layer {
  name: "conv2_2_1x1_increase"
  type: "Convolution"
  bottom: "conv2_2_3x3"
  top: "conv2_2_1x1_increase"
  param {
    lr_mult: 1
    decay_mult: 1
  }
  convolution_param {
    num_output: 256
    bias_term: false
    pad: 0
    kernel_size: 1
    stride: 1
    weight_filler {
      type: "msra"
    }
  }
}
layer {
  name: "conv2_2_1x1_increase/bn"
  type: "BN"
  bottom: "conv2_2_1x1_increase"
  top: "conv2_2_1x1_increase"
  param {
    lr_mult: 1
    decay_mult: 0
  }
  param {
    lr_mult: 1
    decay_mult: 0
  }
  param {
    lr_mult: 0
    decay_mult: 0
  }
  param {
    lr_mult: 0
    decay_mult: 0
  }
  bn_param {
    slope_filler {
      type: "constant"
      value: 1
    }
    bias_filler {
      type: "constant"
      value: 0
    }
    momentum: 0.95
    frozen: true
  }
}
layer {
  name: "conv2_2"
  type: "Eltwise"
  bottom: "conv2_1"
  bottom: "conv2_2_1x1_increase"
  top: "conv2_2"
  eltwise_param {
    operation: SUM
  }
}
layer {
  name: "conv2_2/relu"
  type: "ReLU"
  bottom: "conv2_2"
  top: "conv2_2"
}
layer {
  name: "conv2_3_1x1_reduce"
  type: "Convolution"
  bottom: "conv2_2"
  top: "conv2_3_1x1_reduce"
  param {
    lr_mult: 1
    decay_mult: 1
  }
  convolution_param {
    num_output: 64
    bias_term: false
    pad: 0
    kernel_size: 1
    stride: 1
    weight_filler {
      type: "msra"
    }
  }
}
layer {
  name: "conv2_3_1x1_reduce/bn"
  type: "BN"
  bottom: "conv2_3_1x1_reduce"
  top: "conv2_3_1x1_reduce"
  param {
    lr_mult: 1
    decay_mult: 0
  }
  param {
    lr_mult: 1
    decay_mult: 0
  }
  param {
    lr_mult: 0
    decay_mult: 0
  }
  param {
    lr_mult: 0
    decay_mult: 0
  }
  bn_param {
    slope_filler {
      type: "constant"
      value: 1
    }
    bias_filler {
      type: "constant"
      value: 0
    }
    momentum: 0.95
    frozen: true
  }
}
layer {
  name: "conv2_3_1x1_reduce/relu"
  type: "ReLU"
  bottom: "conv2_3_1x1_reduce"
  top: "conv2_3_1x1_reduce"
}
layer {
  name: "conv2_3_3x3"
  type: "Convolution"
  bottom: "conv2_3_1x1_reduce"
  top: "conv2_3_3x3"
  param {
    lr_mult: 1
    decay_mult: 1
  }
  convolution_param {
    num_output: 64
    bias_term: false
    pad: 1
    kernel_size: 3
    stride: 1
    weight_filler {
      type: "msra"
    }
  }
}
layer {
  name: "conv2_3_3x3/bn"
  type: "BN"
  bottom: "conv2_3_3x3"
  top: "conv2_3_3x3"
  param {
    lr_mult: 1
    decay_mult: 0
  }
  param {
    lr_mult: 1
    decay_mult: 0
  }
  param {
    lr_mult: 0
    decay_mult: 0
  }
  param {
    lr_mult: 0
    decay_mult: 0
  }
  bn_param {
    slope_filler {
      type: "constant"
      value: 1
    }
    bias_filler {
      type: "constant"
      value: 0
    }
    momentum: 0.95
    frozen: true
  }
}
layer {
  name: "conv2_3_3x3/relu"
  type: "ReLU"
  bottom: "conv2_3_3x3"
  top: "conv2_3_3x3"
}
layer {
  name: "conv2_3_1x1_increase"
  type: "Convolution"
  bottom: "conv2_3_3x3"
  top: "conv2_3_1x1_increase"
  param {
    lr_mult: 1
    decay_mult: 1
  }
  convolution_param {
    num_output: 256
    bias_term: false
    pad: 0
    kernel_size: 1
    stride: 1
    weight_filler {
      type: "msra"
    }
  }
}
layer {
  name: "conv2_3_1x1_increase/bn"
  type: "BN"
  bottom: "conv2_3_1x1_increase"
  top: "conv2_3_1x1_increase"
  param {
    lr_mult: 1
    decay_mult: 0
  }
  param {
    lr_mult: 1
    decay_mult: 0
  }
  param {
    lr_mult: 0
    decay_mult: 0
  }
  param {
    lr_mult: 0
    decay_mult: 0
  }
  bn_param {
    slope_filler {
      type: "constant"
      value: 1
    }
    bias_filler {
      type: "constant"
      value: 0
    }
    momentum: 0.95
    frozen: true
  }
}
layer {
  name: "conv2_3"
  type: "Eltwise"
  bottom: "conv2_2"
  bottom: "conv2_3_1x1_increase"
  top: "conv2_3"
  eltwise_param {
    operation: SUM
  }
}
layer {
  name: "conv2_3/relu"
  type: "ReLU"
  bottom: "conv2_3"
  top: "conv2_3"
}
layer {
  name: "conv3_1_1x1_reduce"
  type: "Convolution"
  bottom: "conv2_3"
  top: "conv3_1_1x1_reduce"
  param {
    lr_mult: 1
    decay_mult: 1
  }
  convolution_param {
    num_output: 128
    bias_term: false
    pad: 0
    kernel_size: 1
    stride: 1
    weight_filler {
      type: "msra"
    }
  }
}
layer {
  name: "conv3_1_1x1_reduce/bn"
  type: "BN"
  bottom: "conv3_1_1x1_reduce"
  top: "conv3_1_1x1_reduce"
  param {
    lr_mult: 1
    decay_mult: 0
  }
  param {
    lr_mult: 1
    decay_mult: 0
  }
  param {
    lr_mult: 0
    decay_mult: 0
  }
  param {
    lr_mult: 0
    decay_mult: 0
  }
  bn_param {
    slope_filler {
      type: "constant"
      value: 1
    }
    bias_filler {
      type: "constant"
      value: 0
    }
    momentum: 0.95
    frozen: true
  }
}
layer {
  name: "conv3_1_1x1_reduce/relu"
  type: "ReLU"
  bottom: "conv3_1_1x1_reduce"
  top: "conv3_1_1x1_reduce"
}
layer {
  name: "conv3_1_3x3"
  type: "Convolution"
  bottom: "conv3_1_1x1_reduce"
  top: "conv3_1_3x3"
  param {
    lr_mult: 1
    decay_mult: 1
  }
  convolution_param {
    num_output: 128
    bias_term: false
    pad: 1
    kernel_size: 3
    stride: 2
    weight_filler {
      type: "msra"
    }
  }
}
layer {
  name: "conv3_1_3x3/bn"
  type: "BN"
  bottom: "conv3_1_3x3"
  top: "conv3_1_3x3"
  param {
    lr_mult: 1
    decay_mult: 0
  }
  param {
    lr_mult: 1
    decay_mult: 0
  }
  param {
    lr_mult: 0
    decay_mult: 0
  }
  param {
    lr_mult: 0
    decay_mult: 0
  }
  bn_param {
    slope_filler {
      type: "constant"
      value: 1
    }
    bias_filler {
      type: "constant"
      value: 0
    }
    momentum: 0.95
    frozen: true
  }
}
layer {
  name: "conv3_1_3x3/relu"
  type: "ReLU"
  bottom: "conv3_1_3x3"
  top: "conv3_1_3x3"
}
layer {
  name: "conv3_1_1x1_increase"
  type: "Convolution"
  bottom: "conv3_1_3x3"
  top: "conv3_1_1x1_increase"
  param {
    lr_mult: 1
    decay_mult: 1
  }
  convolution_param {
    num_output: 512
    bias_term: false
    pad: 0
    kernel_size: 1
    stride: 1
    weight_filler {
      type: "msra"
    }
  }
}
layer {
  name: "conv3_1_1x1_increase/bn"
  type: "BN"
  bottom: "conv3_1_1x1_increase"
  top: "conv3_1_1x1_increase"
  param {
    lr_mult: 1
    decay_mult: 0
  }
  param {
    lr_mult: 1
    decay_mult: 0
  }
  param {
    lr_mult: 0
    decay_mult: 0
  }
  param {
    lr_mult: 0
    decay_mult: 0
  }
  bn_param {
    slope_filler {
      type: "constant"
      value: 1
    }
    bias_filler {
      type: "constant"
      value: 0
    }
    momentum: 0.95
    frozen: true
  }
}
layer {
  name: "conv3_1_1x1_proj"
  type: "Convolution"
  bottom: "conv2_3"
  top: "conv3_1_1x1_proj"
  param {
    lr_mult: 1
    decay_mult: 1
  }
  convolution_param {
    num_output: 512
    bias_term: false
    pad: 0
    kernel_size: 1
    stride: 2
    weight_filler {
      type: "msra"
    }
  }
}
layer {
  name: "conv3_1_1x1_proj/bn"
  type: "BN"
  bottom: "conv3_1_1x1_proj"
  top: "conv3_1_1x1_proj"
  param {
    lr_mult: 1
    decay_mult: 0
  }
  param {
    lr_mult: 1
    decay_mult: 0
  }
  param {
    lr_mult: 0
    decay_mult: 0
  }
  param {
    lr_mult: 0
    decay_mult: 0
  }
  bn_param {
    slope_filler {
      type: "constant"
      value: 1
    }
    bias_filler {
      type: "constant"
      value: 0
    }
    momentum: 0.95
    frozen: true
  }
}
layer {
  name: "conv3_1"
  type: "Eltwise"
  bottom: "conv3_1_1x1_proj"
  bottom: "conv3_1_1x1_increase"
  top: "conv3_1"
  eltwise_param {
    operation: SUM
  }
}
layer {
  name: "conv3_1/relu"
  type: "ReLU"
  bottom: "conv3_1"
  top: "conv3_1"
}
layer {
  name: "conv3_2_1x1_reduce"
  type: "Convolution"
  bottom: "conv3_1"
  top: "conv3_2_1x1_reduce"
  param {
    lr_mult: 1
    decay_mult: 1
  }
  convolution_param {
    num_output: 128
    bias_term: false
    pad: 0
    kernel_size: 1
    stride: 1
    weight_filler {
      type: "msra"
    }
  }
}
layer {
  name: "conv3_2_1x1_reduce/bn"
  type: "BN"
  bottom: "conv3_2_1x1_reduce"
  top: "conv3_2_1x1_reduce"
  param {
    lr_mult: 1
    decay_mult: 0
  }
  param {
    lr_mult: 1
    decay_mult: 0
  }
  param {
    lr_mult: 0
    decay_mult: 0
  }
  param {
    lr_mult: 0
    decay_mult: 0
  }
  bn_param {
    slope_filler {
      type: "constant"
      value: 1
    }
    bias_filler {
      type: "constant"
      value: 0
    }
    momentum: 0.95
    frozen: true
  }
}
layer {
  name: "conv3_2_1x1_reduce/relu"
  type: "ReLU"
  bottom: "conv3_2_1x1_reduce"
  top: "conv3_2_1x1_reduce"
}
layer {
  name: "conv3_2_3x3"
  type: "Convolution"
  bottom: "conv3_2_1x1_reduce"
  top: "conv3_2_3x3"
  param {
    lr_mult: 1
    decay_mult: 1
  }
  convolution_param {
    num_output: 128
    bias_term: false
    pad: 1
    kernel_size: 3
    stride: 1
    weight_filler {
      type: "msra"
    }
  }
}
layer {
  name: "conv3_2_3x3/bn"
  type: "BN"
  bottom: "conv3_2_3x3"
  top: "conv3_2_3x3"
  param {
    lr_mult: 1
    decay_mult: 0
  }
  param {
    lr_mult: 1
    decay_mult: 0
  }
  param {
    lr_mult: 0
    decay_mult: 0
  }
  param {
    lr_mult: 0
    decay_mult: 0
  }
  bn_param {
    slope_filler {
      type: "constant"
      value: 1
    }
    bias_filler {
      type: "constant"
      value: 0
    }
    momentum: 0.95
    frozen: true
  }
}
layer {
  name: "conv3_2_3x3/relu"
  type: "ReLU"
  bottom: "conv3_2_3x3"
  top: "conv3_2_3x3"
}
layer {
  name: "conv3_2_1x1_increase"
  type: "Convolution"
  bottom: "conv3_2_3x3"
  top: "conv3_2_1x1_increase"
  param {
    lr_mult: 1
    decay_mult: 1
  }
  convolution_param {
    num_output: 512
    bias_term: false
    pad: 0
    kernel_size: 1
    stride: 1
    weight_filler {
      type: "msra"
    }
  }
}
layer {
  name: "conv3_2_1x1_increase/bn"
  type: "BN"
  bottom: "conv3_2_1x1_increase"
  top: "conv3_2_1x1_increase"
  param {
    lr_mult: 1
    decay_mult: 0
  }
  param {
    lr_mult: 1
    decay_mult: 0
  }
  param {
    lr_mult: 0
    decay_mult: 0
  }
  param {
    lr_mult: 0
    decay_mult: 0
  }
  bn_param {
    slope_filler {
      type: "constant"
      value: 1
    }
    bias_filler {
      type: "constant"
      value: 0
    }
    momentum: 0.95
    frozen: true
  }
}
layer {
  name: "conv3_2"
  type: "Eltwise"
  bottom: "conv3_1"
  bottom: "conv3_2_1x1_increase"
  top: "conv3_2"
  eltwise_param {
    operation: SUM
  }
}
layer {
  name: "conv3_2/relu"
  type: "ReLU"
  bottom: "conv3_2"
  top: "conv3_2"
}
layer {
  name: "conv3_3_1x1_reduce"
  type: "Convolution"
  bottom: "conv3_2"
  top: "conv3_3_1x1_reduce"
  param {
    lr_mult: 1
    decay_mult: 1
  }
  convolution_param {
    num_output: 128
    bias_term: false
    pad: 0
    kernel_size: 1
    stride: 1
    weight_filler {
      type: "msra"
    }
  }
}
layer {
  name: "conv3_3_1x1_reduce/bn"
  type: "BN"
  bottom: "conv3_3_1x1_reduce"
  top: "conv3_3_1x1_reduce"
  param {
    lr_mult: 1
    decay_mult: 0
  }
  param {
    lr_mult: 1
    decay_mult: 0
  }
  param {
    lr_mult: 0
    decay_mult: 0
  }
  param {
    lr_mult: 0
    decay_mult: 0
  }
  bn_param {
    slope_filler {
      type: "constant"
      value: 1
    }
    bias_filler {
      type: "constant"
      value: 0
    }
    momentum: 0.95
    frozen: true
  }
}
layer {
  name: "conv3_3_1x1_reduce/relu"
  type: "ReLU"
  bottom: "conv3_3_1x1_reduce"
  top: "conv3_3_1x1_reduce"
}
layer {
  name: "conv3_3_3x3"
  type: "Convolution"
  bottom: "conv3_3_1x1_reduce"
  top: "conv3_3_3x3"
  param {
    lr_mult: 1
    decay_mult: 1
  }
  convolution_param {
    num_output: 128
    bias_term: false
    pad: 1
    kernel_size: 3
    stride: 1
    weight_filler {
      type: "msra"
    }
  }
}
layer {
  name: "conv3_3_3x3/bn"
  type: "BN"
  bottom: "conv3_3_3x3"
  top: "conv3_3_3x3"
  param {
    lr_mult: 1
    decay_mult: 0
  }
  param {
    lr_mult: 1
    decay_mult: 0
  }
  param {
    lr_mult: 0
    decay_mult: 0
  }
  param {
    lr_mult: 0
    decay_mult: 0
  }
  bn_param {
    slope_filler {
      type: "constant"
      value: 1
    }
    bias_filler {
      type: "constant"
      value: 0
    }
    momentum: 0.95
    frozen: true
  }
}
layer {
  name: "conv3_3_3x3/relu"
  type: "ReLU"
  bottom: "conv3_3_3x3"
  top: "conv3_3_3x3"
}
layer {
  name: "conv3_3_1x1_increase"
  type: "Convolution"
  bottom: "conv3_3_3x3"
  top: "conv3_3_1x1_increase"
  param {
    lr_mult: 1
    decay_mult: 1
  }
  convolution_param {
    num_output: 512
    bias_term: false
    pad: 0
    kernel_size: 1
    stride: 1
    weight_filler {
      type: "msra"
    }
  }
}
layer {
  name: "conv3_3_1x1_increase/bn"
  type: "BN"
  bottom: "conv3_3_1x1_increase"
  top: "conv3_3_1x1_increase"
  param {
    lr_mult: 1
    decay_mult: 0
  }
  param {
    lr_mult: 1
    decay_mult: 0
  }
  param {
    lr_mult: 0
    decay_mult: 0
  }
  param {
    lr_mult: 0
    decay_mult: 0
  }
  bn_param {
    slope_filler {
      type: "constant"
      value: 1
    }
    bias_filler {
      type: "constant"
      value: 0
    }
    momentum: 0.95
    frozen: true
  }
}
layer {
  name: "conv3_3"
  type: "Eltwise"
  bottom: "conv3_2"
  bottom: "conv3_3_1x1_increase"
  top: "conv3_3"
  eltwise_param {
    operation: SUM
  }
}
layer {
  name: "conv3_3/relu"
  type: "ReLU"
  bottom: "conv3_3"
  top: "conv3_3"
}
layer {
  name: "conv3_4_1x1_reduce"
  type: "Convolution"
  bottom: "conv3_3"
  top: "conv3_4_1x1_reduce"
  param {
    lr_mult: 1
    decay_mult: 1
  }
  convolution_param {
    num_output: 128
    bias_term: false
    pad: 0
    kernel_size: 1
    stride: 1
    weight_filler {
      type: "msra"
    }
  }
}
layer {
  name: "conv3_4_1x1_reduce/bn"
  type: "BN"
  bottom: "conv3_4_1x1_reduce"
  top: "conv3_4_1x1_reduce"
  param {
    lr_mult: 1
    decay_mult: 0
  }
  param {
    lr_mult: 1
    decay_mult: 0
  }
  param {
    lr_mult: 0
    decay_mult: 0
  }
  param {
    lr_mult: 0
    decay_mult: 0
  }
  bn_param {
    slope_filler {
      type: "constant"
      value: 1
    }
    bias_filler {
      type: "constant"
      value: 0
    }
    momentum: 0.95
    frozen: true
  }
}
layer {
  name: "conv3_4_1x1_reduce/relu"
  type: "ReLU"
  bottom: "conv3_4_1x1_reduce"
  top: "conv3_4_1x1_reduce"
}
layer {
  name: "conv3_4_3x3"
  type: "Convolution"
  bottom: "conv3_4_1x1_reduce"
  top: "conv3_4_3x3"
  param {
    lr_mult: 1
    decay_mult: 1
  }
  convolution_param {
    num_output: 128
    bias_term: false
    pad: 1
    kernel_size: 3
    stride: 1
    weight_filler {
      type: "msra"
    }
  }
}
layer {
  name: "conv3_4_3x3/bn"
  type: "BN"
  bottom: "conv3_4_3x3"
  top: "conv3_4_3x3"
  param {
    lr_mult: 1
    decay_mult: 0
  }
  param {
    lr_mult: 1
    decay_mult: 0
  }
  param {
    lr_mult: 0
    decay_mult: 0
  }
  param {
    lr_mult: 0
    decay_mult: 0
  }
  bn_param {
    slope_filler {
      type: "constant"
      value: 1
    }
    bias_filler {
      type: "constant"
      value: 0
    }
    momentum: 0.95
    frozen: true
  }
}
layer {
  name: "conv3_4_3x3/relu"
  type: "ReLU"
  bottom: "conv3_4_3x3"
  top: "conv3_4_3x3"
}
layer {
  name: "conv3_4_1x1_increase"
  type: "Convolution"
  bottom: "conv3_4_3x3"
  top: "conv3_4_1x1_increase"
  param {
    lr_mult: 1
    decay_mult: 1
  }
  convolution_param {
    num_output: 512
    bias_term: false
    pad: 0
    kernel_size: 1
    stride: 1
    weight_filler {
      type: "msra"
    }
  }
}
layer {
  name: "conv3_4_1x1_increase/bn"
  type: "BN"
  bottom: "conv3_4_1x1_increase"
  top: "conv3_4_1x1_increase"
  param {
    lr_mult: 1
    decay_mult: 0
  }
  param {
    lr_mult: 1
    decay_mult: 0
  }
  param {
    lr_mult: 0
    decay_mult: 0
  }
  param {
    lr_mult: 0
    decay_mult: 0
  }
  bn_param {
    slope_filler {
      type: "constant"
      value: 1
    }
    bias_filler {
      type: "constant"
      value: 0
    }
    momentum: 0.95
    frozen: true
  }
}
layer {
  name: "conv3_4"
  type: "Eltwise"
  bottom: "conv3_3"
  bottom: "conv3_4_1x1_increase"
  top: "conv3_4"
  eltwise_param {
    operation: SUM
  }
}
layer {
  name: "conv3_4/relu"
  type: "ReLU"
  bottom: "conv3_4"
  top: "conv3_4"
}
layer {
  name: "conv4_1_1x1_reduce"
  type: "Convolution"
  bottom: "conv3_4"
  top: "conv4_1_1x1_reduce"
  param {
    lr_mult: 1
    decay_mult: 1
  }
  convolution_param {
    num_output: 256
    bias_term: false
    pad: 0
    kernel_size: 1
    stride: 1
    weight_filler {
      type: "msra"
    }
  }
}
layer {
  name: "conv4_1_1x1_reduce/bn"
  type: "BN"
  bottom: "conv4_1_1x1_reduce"
  top: "conv4_1_1x1_reduce"
  param {
    lr_mult: 1
    decay_mult: 0
  }
  param {
    lr_mult: 1
    decay_mult: 0
  }
  param {
    lr_mult: 0
    decay_mult: 0
  }
  param {
    lr_mult: 0
    decay_mult: 0
  }
  bn_param {
    slope_filler {
      type: "constant"
      value: 1
    }
    bias_filler {
      type: "constant"
      value: 0
    }
    momentum: 0.95
    frozen: true
  }
}
layer {
  name: "conv4_1_1x1_reduce/relu"
  type: "ReLU"
  bottom: "conv4_1_1x1_reduce"
  top: "conv4_1_1x1_reduce"
}
layer {
  name: "conv4_1_3x3"
  type: "Convolution"
  bottom: "conv4_1_1x1_reduce"
  top: "conv4_1_3x3"
  param {
    lr_mult: 1
    decay_mult: 1
  }
  convolution_param {
    num_output: 256
    bias_term: false
    pad: 2
    kernel_size: 3
    stride: 1
    weight_filler {
      type: "msra"
    }
    dilation: 2
  }
}
layer {
  name: "conv4_1_3x3/bn"
  type: "BN"
  bottom: "conv4_1_3x3"
  top: "conv4_1_3x3"
  param {
    lr_mult: 1
    decay_mult: 0
  }
  param {
    lr_mult: 1
    decay_mult: 0
  }
  param {
    lr_mult: 0
    decay_mult: 0
  }
  param {
    lr_mult: 0
    decay_mult: 0
  }
  bn_param {
    slope_filler {
      type: "constant"
      value: 1
    }
    bias_filler {
      type: "constant"
      value: 0
    }
    momentum: 0.95
    frozen: true
  }
}
layer {
  name: "conv4_1_3x3/relu"
  type: "ReLU"
  bottom: "conv4_1_3x3"
  top: "conv4_1_3x3"
}
layer {
  name: "conv4_1_1x1_increase"
  type: "Convolution"
  bottom: "conv4_1_3x3"
  top: "conv4_1_1x1_increase"
  param {
    lr_mult: 1
    decay_mult: 1
  }
  convolution_param {
    num_output: 1024
    bias_term: false
    pad: 0
    kernel_size: 1
    stride: 1
    weight_filler {
      type: "msra"
    }
  }
}
layer {
  name: "conv4_1_1x1_increase/bn"
  type: "BN"
  bottom: "conv4_1_1x1_increase"
  top: "conv4_1_1x1_increase"
  param {
    lr_mult: 1
    decay_mult: 0
  }
  param {
    lr_mult: 1
    decay_mult: 0
  }
  param {
    lr_mult: 0
    decay_mult: 0
  }
  param {
    lr_mult: 0
    decay_mult: 0
  }
  bn_param {
    slope_filler {
      type: "constant"
      value: 1
    }
    bias_filler {
      type: "constant"
      value: 0
    }
    momentum: 0.95
    frozen: true
  }
}
layer {
  name: "conv4_1_1x1_proj"
  type: "Convolution"
  bottom: "conv3_4"
  top: "conv4_1_1x1_proj"
  param {
    lr_mult: 1
    decay_mult: 1
  }
  convolution_param {
    num_output: 1024
    bias_term: false
    pad: 0
    kernel_size: 1
    stride: 1
    weight_filler {
      type: "msra"
    }
  }
}
layer {
  name: "conv4_1_1x1_proj/bn"
  type: "BN"
  bottom: "conv4_1_1x1_proj"
  top: "conv4_1_1x1_proj"
  param {
    lr_mult: 1
    decay_mult: 0
  }
  param {
    lr_mult: 1
    decay_mult: 0
  }
  param {
    lr_mult: 0
    decay_mult: 0
  }
  param {
    lr_mult: 0
    decay_mult: 0
  }
  bn_param {
    slope_filler {
      type: "constant"
      value: 1
    }
    bias_filler {
      type: "constant"
      value: 0
    }
    momentum: 0.95
    frozen: true
  }
}
layer {
  name: "conv4_1"
  type: "Eltwise"
  bottom: "conv4_1_1x1_proj"
  bottom: "conv4_1_1x1_increase"
  top: "conv4_1"
  eltwise_param {
    operation: SUM
  }
}
layer {
  name: "conv4_1/relu"
  type: "ReLU"
  bottom: "conv4_1"
  top: "conv4_1"
}
layer {
  name: "conv4_2_1x1_reduce"
  type: "Convolution"
  bottom: "conv4_1"
  top: "conv4_2_1x1_reduce"
  param {
    lr_mult: 1
    decay_mult: 1
  }
  convolution_param {
    num_output: 256
    bias_term: false
    pad: 0
    kernel_size: 1
    stride: 1
    weight_filler {
      type: "msra"
    }
  }
}
layer {
  name: "conv4_2_1x1_reduce/bn"
  type: "BN"
  bottom: "conv4_2_1x1_reduce"
  top: "conv4_2_1x1_reduce"
  param {
    lr_mult: 1
    decay_mult: 0
  }
  param {
    lr_mult: 1
    decay_mult: 0
  }
  param {
    lr_mult: 0
    decay_mult: 0
  }
  param {
    lr_mult: 0
    decay_mult: 0
  }
  bn_param {
    slope_filler {
      type: "constant"
      value: 1
    }
    bias_filler {
      type: "constant"
      value: 0
    }
    momentum: 0.95
    frozen: true
  }
}
layer {
  name: "conv4_2_1x1_reduce/relu"
  type: "ReLU"
  bottom: "conv4_2_1x1_reduce"
  top: "conv4_2_1x1_reduce"
}
layer {
  name: "conv4_2_3x3"
  type: "Convolution"
  bottom: "conv4_2_1x1_reduce"
  top: "conv4_2_3x3"
  param {
    lr_mult: 1
    decay_mult: 1
  }
  convolution_param {
    num_output: 256
    bias_term: false
    pad: 2
    kernel_size: 3
    stride: 1
    weight_filler {
      type: "msra"
    }
    dilation: 2
  }
}
layer {
  name: "conv4_2_3x3/bn"
  type: "BN"
  bottom: "conv4_2_3x3"
  top: "conv4_2_3x3"
  param {
    lr_mult: 1
    decay_mult: 0
  }
  param {
    lr_mult: 1
    decay_mult: 0
  }
  param {
    lr_mult: 0
    decay_mult: 0
  }
  param {
    lr_mult: 0
    decay_mult: 0
  }
  bn_param {
    slope_filler {
      type: "constant"
      value: 1
    }
    bias_fille
I0620 04:27:57.009440  3117 layer_factory.hpp:77] Creating layer data
I0620 04:27:57.009469  3117 net.cpp:106] Creating Layer data
I0620 04:27:57.009475  3117 net.cpp:411] data -> data
I0620 04:27:57.009491  3117 net.cpp:411] data -> label
I0620 04:27:57.009500  3117 net.cpp:411] data -> (automatic)
I0620 04:27:57.009848  3117 image_seg_data_layer.cpp:46] Opening file exper/voc12/list/train_aug.txt
I0620 04:27:57.018460  3117 image_seg_data_layer.cpp:63] Shuffling data
I0620 04:27:57.022137  3117 image_seg_data_layer.cpp:68] A total of 10582 images.
I0620 04:27:57.040431  3117 image_seg_data_layer.cpp:137] output data size: 3,3,473,473
I0620 04:27:57.040454  3117 image_seg_data_layer.cpp:141] output label size: 3,1,473,473
I0620 04:27:57.040458  3117 image_seg_data_layer.cpp:145] output data_dim size: 3,1,1,2
I0620 04:27:57.087076  3117 net.cpp:150] Setting up data
I0620 04:27:57.087105  3117 net.cpp:157] Top shape: 3 3 473 473 (2013561)
I0620 04:27:57.087110  3117 net.cpp:157] Top shape: 3 1 473 473 (671187)
I0620 04:27:57.087115  3117 net.cpp:157] Top shape: 3 1 1 2 (6)
I0620 04:27:57.087117  3117 net.cpp:165] Memory required for data: 10739016
I0620 04:27:57.087128  3117 layer_factory.hpp:77] Creating layer conv1_1_3x3_s2
I0620 04:27:57.087167  3117 net.cpp:106] Creating Layer conv1_1_3x3_s2
I0620 04:27:57.087172  3117 net.cpp:454] conv1_1_3x3_s2 <- data
I0620 04:27:57.087182  3117 net.cpp:411] conv1_1_3x3_s2 -> conv1_1_3x3_s2
I0620 04:27:57.088145  3117 net.cpp:150] Setting up conv1_1_3x3_s2
I0620 04:27:57.088156  3117 net.cpp:157] Top shape: 3 64 237 237 (10784448)
I0620 04:27:57.088158  3117 net.cpp:165] Memory required for data: 53876808
I0620 04:27:57.088169  3117 layer_factory.hpp:77] Creating layer conv1_1_3x3_s2/bn
I0620 04:27:57.088178  3117 net.cpp:106] Creating Layer conv1_1_3x3_s2/bn
I0620 04:27:57.088181  3117 net.cpp:454] conv1_1_3x3_s2/bn <- conv1_1_3x3_s2
I0620 04:27:57.088189  3117 net.cpp:397] conv1_1_3x3_s2/bn -> conv1_1_3x3_s2 (in-place)
I0620 04:27:57.089028  3117 net.cpp:150] Setting up conv1_1_3x3_s2/bn
I0620 04:27:57.089038  3117 net.cpp:157] Top shape: 3 64 237 237 (10784448)
I0620 04:27:57.089041  3117 net.cpp:165] Memory required for data: 97014600
I0620 04:27:57.089068  3117 layer_factory.hpp:77] Creating layer conv1_1_3x3_s2/relu
I0620 04:27:57.089076  3117 net.cpp:106] Creating Layer conv1_1_3x3_s2/relu
I0620 04:27:57.089079  3117 net.cpp:454] conv1_1_3x3_s2/relu <- conv1_1_3x3_s2
I0620 04:27:57.089083  3117 net.cpp:397] conv1_1_3x3_s2/relu -> conv1_1_3x3_s2 (in-place)
I0620 04:27:57.089093  3117 net.cpp:150] Setting up conv1_1_3x3_s2/relu
I0620 04:27:57.089097  3117 net.cpp:157] Top shape: 3 64 237 237 (10784448)
I0620 04:27:57.089099  3117 net.cpp:165] Memory required for data: 140152392
I0620 04:27:57.089102  3117 layer_factory.hpp:77] Creating layer conv1_2_3x3
I0620 04:27:57.089112  3117 net.cpp:106] Creating Layer conv1_2_3x3
I0620 04:27:57.089117  3117 net.cpp:454] conv1_2_3x3 <- conv1_1_3x3_s2
I0620 04:27:57.089121  3117 net.cpp:411] conv1_2_3x3 -> conv1_2_3x3
I0620 04:27:57.093606  3117 net.cpp:150] Setting up conv1_2_3x3
I0620 04:27:57.093617  3117 net.cpp:157] Top shape: 3 64 237 237 (10784448)
I0620 04:27:57.093621  3117 net.cpp:165] Memory required for data: 183290184
I0620 04:27:57.093623  3117 layer_factory.hpp:77] Creating layer conv1_2_3x3/bn
I0620 04:27:57.093629  3117 net.cpp:106] Creating Layer conv1_2_3x3/bn
I0620 04:27:57.093632  3117 net.cpp:454] conv1_2_3x3/bn <- conv1_2_3x3
I0620 04:27:57.093636  3117 net.cpp:397] conv1_2_3x3/bn -> conv1_2_3x3 (in-place)
I0620 04:27:57.093789  3117 net.cpp:150] Setting up conv1_2_3x3/bn
I0620 04:27:57.093796  3117 net.cpp:157] Top shape: 3 64 237 237 (10784448)
I0620 04:27:57.093798  3117 net.cpp:165] Memory required for data: 226427976
I0620 04:27:57.093806  3117 layer_factory.hpp:77] Creating layer conv1_2_3x3/relu
I0620 04:27:57.093811  3117 net.cpp:106] Creating Layer conv1_2_3x3/relu
I0620 04:27:57.093813  3117 net.cpp:454] conv1_2_3x3/relu <- conv1_2_3x3
I0620 04:27:57.093817  3117 net.cpp:397] conv1_2_3x3/relu -> conv1_2_3x3 (in-place)
I0620 04:27:57.093822  3117 net.cpp:150] Setting up conv1_2_3x3/relu
I0620 04:27:57.093824  3117 net.cpp:157] Top shape: 3 64 237 237 (10784448)
I0620 04:27:57.093827  3117 net.cpp:165] Memory required for data: 269565768
I0620 04:27:57.093830  3117 layer_factory.hpp:77] Creating layer conv1_3_3x3
I0620 04:27:57.093837  3117 net.cpp:106] Creating Layer conv1_3_3x3
I0620 04:27:57.093839  3117 net.cpp:454] conv1_3_3x3 <- conv1_2_3x3
I0620 04:27:57.093843  3117 net.cpp:411] conv1_3_3x3 -> conv1_3_3x3
I0620 04:27:57.096148  3117 net.cpp:150] Setting up conv1_3_3x3
I0620 04:27:57.096158  3117 net.cpp:157] Top shape: 3 128 237 237 (21568896)
I0620 04:27:57.096159  3117 net.cpp:165] Memory required for data: 355841352
I0620 04:27:57.096163  3117 layer_factory.hpp:77] Creating layer conv1_3_3x3/bn
I0620 04:27:57.096169  3117 net.cpp:106] Creating Layer conv1_3_3x3/bn
I0620 04:27:57.096171  3117 net.cpp:454] conv1_3_3x3/bn <- conv1_3_3x3
I0620 04:27:57.096175  3117 net.cpp:397] conv1_3_3x3/bn -> conv1_3_3x3 (in-place)
I0620 04:27:57.096334  3117 net.cpp:150] Setting up conv1_3_3x3/bn
I0620 04:27:57.096338  3117 net.cpp:157] Top shape: 3 128 237 237 (21568896)
I0620 04:27:57.096341  3117 net.cpp:165] Memory required for data: 442116936
I0620 04:27:57.096345  3117 layer_factory.hpp:77] Creating layer conv1_3_3x3/relu
I0620 04:27:57.096349  3117 net.cpp:106] Creating Layer conv1_3_3x3/relu
I0620 04:27:57.096351  3117 net.cpp:454] conv1_3_3x3/relu <- conv1_3_3x3
I0620 04:27:57.096354  3117 net.cpp:397] conv1_3_3x3/relu -> conv1_3_3x3 (in-place)
I0620 04:27:57.096357  3117 net.cpp:150] Setting up conv1_3_3x3/relu
I0620 04:27:57.096360  3117 net.cpp:157] Top shape: 3 128 237 237 (21568896)
I0620 04:27:57.096362  3117 net.cpp:165] Memory required for data: 528392520
I0620 04:27:57.096364  3117 layer_factory.hpp:77] Creating layer pool1_3x3_s2
I0620 04:27:57.096370  3117 net.cpp:106] Creating Layer pool1_3x3_s2
I0620 04:27:57.096374  3117 net.cpp:454] pool1_3x3_s2 <- conv1_3_3x3
I0620 04:27:57.096376  3117 net.cpp:411] pool1_3x3_s2 -> pool1_3x3_s2
I0620 04:27:57.096405  3117 net.cpp:150] Setting up pool1_3x3_s2
I0620 04:27:57.096408  3117 net.cpp:157] Top shape: 3 128 119 119 (5437824)
I0620 04:27:57.096424  3117 net.cpp:165] Memory required for data: 550143816
I0620 04:27:57.096427  3117 layer_factory.hpp:77] Creating layer pool1_3x3_s2_pool1_3x3_s2_0_split
I0620 04:27:57.096436  3117 net.cpp:106] Creating Layer pool1_3x3_s2_pool1_3x3_s2_0_split
I0620 04:27:57.096438  3117 net.cpp:454] pool1_3x3_s2_pool1_3x3_s2_0_split <- pool1_3x3_s2
I0620 04:27:57.096442  3117 net.cpp:411] pool1_3x3_s2_pool1_3x3_s2_0_split -> pool1_3x3_s2_pool1_3x3_s2_0_split_0
I0620 04:27:57.096446  3117 net.cpp:411] pool1_3x3_s2_pool1_3x3_s2_0_split -> pool1_3x3_s2_pool1_3x3_s2_0_split_1
I0620 04:27:57.096467  3117 net.cpp:150] Setting up pool1_3x3_s2_pool1_3x3_s2_0_split
I0620 04:27:57.096470  3117 net.cpp:157] Top shape: 3 128 119 119 (5437824)
I0620 04:27:57.096473  3117 net.cpp:157] Top shape: 3 128 119 119 (5437824)
I0620 04:27:57.096477  3117 net.cpp:165] Memory required for data: 593646408
I0620 04:27:57.096479  3117 layer_factory.hpp:77] Creating layer conv2_1_1x1_reduce
I0620 04:27:57.096484  3117 net.cpp:106] Creating Layer conv2_1_1x1_reduce
I0620 04:27:57.096487  3117 net.cpp:454] conv2_1_1x1_reduce <- pool1_3x3_s2_pool1_3x3_s2_0_split_0
I0620 04:27:57.096491  3117 net.cpp:411] conv2_1_1x1_reduce -> conv2_1_1x1_reduce
I0620 04:27:57.097424  3117 net.cpp:150] Setting up conv2_1_1x1_reduce
I0620 04:27:57.097432  3117 net.cpp:157] Top shape: 3 64 119 119 (2718912)
I0620 04:27:57.097435  3117 net.cpp:165] Memory required for data: 604522056
I0620 04:27:57.097440  3117 layer_factory.hpp:77] Creating layer conv2_1_1x1_reduce/bn
I0620 04:27:57.097446  3117 net.cpp:106] Creating Layer conv2_1_1x1_reduce/bn
I0620 04:27:57.097450  3117 net.cpp:454] conv2_1_1x1_reduce/bn <- conv2_1_1x1_reduce
I0620 04:27:57.097455  3117 net.cpp:397] conv2_1_1x1_reduce/bn -> conv2_1_1x1_reduce (in-place)
I0620 04:27:57.097596  3117 net.cpp:150] Setting up conv2_1_1x1_reduce/bn
I0620 04:27:57.097602  3117 net.cpp:157] Top shape: 3 64 119 119 (2718912)
I0620 04:27:57.097606  3117 net.cpp:165] Memory required for data: 615397704
I0620 04:27:57.097616  3117 layer_factory.hpp:77] Creating layer conv2_1_1x1_reduce/relu
I0620 04:27:57.097623  3117 net.cpp:106] Creating Layer conv2_1_1x1_reduce/relu
I0620 04:27:57.097627  3117 net.cpp:454] conv2_1_1x1_reduce/relu <- conv2_1_1x1_reduce
I0620 04:27:57.097632  3117 net.cpp:397] conv2_1_1x1_reduce/relu -> conv2_1_1x1_reduce (in-place)
I0620 04:27:57.097637  3117 net.cpp:150] Setting up conv2_1_1x1_reduce/relu
I0620 04:27:57.097641  3117 net.cpp:157] Top shape: 3 64 119 119 (2718912)
I0620 04:27:57.097643  3117 net.cpp:165] Memory required for data: 626273352
I0620 04:27:57.097647  3117 layer_factory.hpp:77] Creating layer conv2_1_3x3
I0620 04:27:57.097656  3117 net.cpp:106] Creating Layer conv2_1_3x3
I0620 04:27:57.097658  3117 net.cpp:454] conv2_1_3x3 <- conv2_1_1x1_reduce
I0620 04:27:57.097663  3117 net.cpp:411] conv2_1_3x3 -> conv2_1_3x3
I0620 04:27:57.098618  3117 net.cpp:150] Setting up conv2_1_3x3
I0620 04:27:57.098624  3117 net.cpp:157] Top shape: 3 64 119 119 (2718912)
I0620 04:27:57.098628  3117 net.cpp:165] Memory required for data: 637149000
I0620 04:27:57.098631  3117 layer_factory.hpp:77] Creating layer conv2_1_3x3/bn
I0620 04:27:57.098641  3117 net.cpp:106] Creating Layer conv2_1_3x3/bn
I0620 04:27:57.098645  3117 net.cpp:454] conv2_1_3x3/bn <- conv2_1_3x3
I0620 04:27:57.098651  3117 net.cpp:397] conv2_1_3x3/bn -> conv2_1_3x3 (in-place)
I0620 04:27:57.098798  3117 net.cpp:150] Setting up conv2_1_3x3/bn
I0620 04:27:57.098803  3117 net.cpp:157] Top shape: 3 64 119 119 (2718912)
I0620 04:27:57.098806  3117 net.cpp:165] Memory required for data: 648024648
I0620 04:27:57.098812  3117 layer_factory.hpp:77] Creating layer conv2_1_3x3/relu
I0620 04:27:57.098819  3117 net.cpp:106] Creating Layer conv2_1_3x3/relu
I0620 04:27:57.098822  3117 net.cpp:454] conv2_1_3x3/relu <- conv2_1_3x3
I0620 04:27:57.098825  3117 net.cpp:397] conv2_1_3x3/relu -> conv2_1_3x3 (in-place)
I0620 04:27:57.098830  3117 net.cpp:150] Setting up conv2_1_3x3/relu
I0620 04:27:57.098856  3117 net.cpp:157] Top shape: 3 64 119 119 (2718912)
I0620 04:27:57.098860  3117 net.cpp:165] Memory required for data: 658900296
I0620 04:27:57.098862  3117 layer_factory.hpp:77] Creating layer conv2_1_1x1_increase
I0620 04:27:57.098868  3117 net.cpp:106] Creating Layer conv2_1_1x1_increase
I0620 04:27:57.098871  3117 net.cpp:454] conv2_1_1x1_increase <- conv2_1_3x3
I0620 04:27:57.098875  3117 net.cpp:411] conv2_1_1x1_increase -> conv2_1_1x1_increase
I0620 04:27:57.099352  3117 net.cpp:150] Setting up conv2_1_1x1_increase
I0620 04:27:57.099357  3117 net.cpp:157] Top shape: 3 256 119 119 (10875648)
I0620 04:27:57.099359  3117 net.cpp:165] Memory required for data: 702402888
I0620 04:27:57.099364  3117 layer_factory.hpp:77] Creating layer conv2_1_1x1_increase/bn
I0620 04:27:57.099370  3117 net.cpp:106] Creating Layer conv2_1_1x1_increase/bn
I0620 04:27:57.099372  3117 net.cpp:454] conv2_1_1x1_increase/bn <- conv2_1_1x1_increase
I0620 04:27:57.099377  3117 net.cpp:397] conv2_1_1x1_increase/bn -> conv2_1_1x1_increase (in-place)
I0620 04:27:57.099524  3117 net.cpp:150] Setting up conv2_1_1x1_increase/bn
I0620 04:27:57.099531  3117 net.cpp:157] Top shape: 3 256 119 119 (10875648)
I0620 04:27:57.099535  3117 net.cpp:165] Memory required for data: 745905480
I0620 04:27:57.099542  3117 layer_factory.hpp:77] Creating layer conv2_1_1x1_proj
I0620 04:27:57.099552  3117 net.cpp:106] Creating Layer conv2_1_1x1_proj
I0620 04:27:57.099555  3117 net.cpp:454] conv2_1_1x1_proj <- pool1_3x3_s2_pool1_3x3_s2_0_split_1
I0620 04:27:57.099561  3117 net.cpp:411] conv2_1_1x1_proj -> conv2_1_1x1_proj
I0620 04:27:57.100406  3117 net.cpp:150] Setting up conv2_1_1x1_proj
I0620 04:27:57.100414  3117 net.cpp:157] Top shape: 3 256 119 119 (10875648)
I0620 04:27:57.100415  3117 net.cpp:165] Memory required for data: 789408072
I0620 04:27:57.100419  3117 layer_factory.hpp:77] Creating layer conv2_1_1x1_proj/bn
I0620 04:27:57.100425  3117 net.cpp:106] Creating Layer conv2_1_1x1_proj/bn
I0620 04:27:57.100428  3117 net.cpp:454] conv2_1_1x1_proj/bn <- conv2_1_1x1_proj
I0620 04:27:57.100433  3117 net.cpp:397] conv2_1_1x1_proj/bn -> conv2_1_1x1_proj (in-place)
I0620 04:27:57.100597  3117 net.cpp:150] Setting up conv2_1_1x1_proj/bn
I0620 04:27:57.100603  3117 net.cpp:157] Top shape: 3 256 119 119 (10875648)
I0620 04:27:57.100607  3117 net.cpp:165] Memory required for data: 832910664
I0620 04:27:57.100617  3117 layer_factory.hpp:77] Creating layer conv2_1
I0620 04:27:57.100634  3117 net.cpp:106] Creating Layer conv2_1
I0620 04:27:57.100637  3117 net.cpp:454] conv2_1 <- conv2_1_1x1_proj
I0620 04:27:57.100641  3117 net.cpp:454] conv2_1 <- conv2_1_1x1_increase
I0620 04:27:57.100644  3117 net.cpp:411] conv2_1 -> conv2_1
I0620 04:27:57.100674  3117 net.cpp:150] Setting up conv2_1
I0620 04:27:57.100678  3117 net.cpp:157] Top shape: 3 256 119 119 (10875648)
I0620 04:27:57.100682  3117 net.cpp:165] Memory required for data: 876413256
I0620 04:27:57.100684  3117 layer_factory.hpp:77] Creating layer conv2_1/relu
I0620 04:27:57.100690  3117 net.cpp:106] Creating Layer conv2_1/relu
I0620 04:27:57.100693  3117 net.cpp:454] conv2_1/relu <- conv2_1
I0620 04:27:57.100697  3117 net.cpp:397] conv2_1/relu -> conv2_1 (in-place)
I0620 04:27:57.100702  3117 net.cpp:150] Setting up conv2_1/relu
I0620 04:27:57.100704  3117 net.cpp:157] Top shape: 3 256 119 119 (10875648)
I0620 04:27:57.100708  3117 net.cpp:165] Memory required for data: 919915848
I0620 04:27:57.100710  3117 layer_factory.hpp:77] Creating layer conv2_1_conv2_1/relu_0_split
I0620 04:27:57.100719  3117 net.cpp:106] Creating Layer conv2_1_conv2_1/relu_0_split
I0620 04:27:57.100723  3117 net.cpp:454] conv2_1_conv2_1/relu_0_split <- conv2_1
I0620 04:27:57.100726  3117 net.cpp:411] conv2_1_conv2_1/relu_0_split -> conv2_1_conv2_1/relu_0_split_0
I0620 04:27:57.100730  3117 net.cpp:411] conv2_1_conv2_1/relu_0_split -> conv2_1_conv2_1/relu_0_split_1
I0620 04:27:57.100750  3117 net.cpp:150] Setting up conv2_1_conv2_1/relu_0_split
I0620 04:27:57.100754  3117 net.cpp:157] Top shape: 3 256 119 119 (10875648)
I0620 04:27:57.100757  3117 net.cpp:157] Top shape: 3 256 119 119 (10875648)
I0620 04:27:57.100780  3117 net.cpp:165] Memory required for data: 1006921032
I0620 04:27:57.100785  3117 layer_factory.hpp:77] Creating layer conv2_2_1x1_reduce
I0620 04:27:57.100792  3117 net.cpp:106] Creating Layer conv2_2_1x1_reduce
I0620 04:27:57.100795  3117 net.cpp:454] conv2_2_1x1_reduce <- conv2_1_conv2_1/relu_0_split_0
I0620 04:27:57.100800  3117 net.cpp:411] conv2_2_1x1_reduce -> conv2_2_1x1_reduce
I0620 04:27:57.101271  3117 net.cpp:150] Setting up conv2_2_1x1_reduce
I0620 04:27:57.101276  3117 net.cpp:157] Top shape: 3 64 119 119 (2718912)
I0620 04:27:57.101279  3117 net.cpp:165] Memory required for data: 1017796680
I0620 04:27:57.101282  3117 layer_factory.hpp:77] Creating layer conv2_2_1x1_reduce/bn
I0620 04:27:57.101289  3117 net.cpp:106] Creating Layer conv2_2_1x1_reduce/bn
I0620 04:27:57.101292  3117 net.cpp:454] conv2_2_1x1_reduce/bn <- conv2_2_1x1_reduce
I0620 04:27:57.101295  3117 net.cpp:397] conv2_2_1x1_reduce/bn -> conv2_2_1x1_reduce (in-place)
I0620 04:27:57.101449  3117 net.cpp:150] Setting up conv2_2_1x1_reduce/bn
I0620 04:27:57.101454  3117 net.cpp:157] Top shape: 3 64 119 119 (2718912)
I0620 04:27:57.101459  3117 net.cpp:165] Memory required for data: 1028672328
I0620 04:27:57.101465  3117 layer_factory.hpp:77] Creating layer conv2_2_1x1_reduce/relu
I0620 04:27:57.101471  3117 net.cpp:106] Creating Layer conv2_2_1x1_reduce/relu
I0620 04:27:57.101476  3117 net.cpp:454] conv2_2_1x1_reduce/relu <- conv2_2_1x1_reduce
I0620 04:27:57.101481  3117 net.cpp:397] conv2_2_1x1_reduce/relu -> conv2_2_1x1_reduce (in-place)
I0620 04:27:57.101486  3117 net.cpp:150] Setting up conv2_2_1x1_reduce/relu
I0620 04:27:57.101490  3117 net.cpp:157] Top shape: 3 64 119 119 (2718912)
I0620 04:27:57.101492  3117 net.cpp:165] Memory required for data: 1039547976
I0620 04:27:57.101495  3117 layer_factory.hpp:77] Creating layer conv2_2_3x3
I0620 04:27:57.101500  3117 net.cpp:106] Creating Layer conv2_2_3x3
I0620 04:27:57.101503  3117 net.cpp:454] conv2_2_3x3 <- conv2_2_1x1_reduce
I0620 04:27:57.101507  3117 net.cpp:411] conv2_2_3x3 -> conv2_2_3x3
I0620 04:27:57.102424  3117 net.cpp:150] Setting up conv2_2_3x3
I0620 04:27:57.102430  3117 net.cpp:157] Top shape: 3 64 119 119 (2718912)
I0620 04:27:57.102433  3117 net.cpp:165] Memory required for data: 1050423624
I0620 04:27:57.102437  3117 layer_factory.hpp:77] Creating layer conv2_2_3x3/bn
I0620 04:27:57.102442  3117 net.cpp:106] Creating Layer conv2_2_3x3/bn
I0620 04:27:57.102444  3117 net.cpp:454] conv2_2_3x3/bn <- conv2_2_3x3
I0620 04:27:57.102448  3117 net.cpp:397] conv2_2_3x3/bn -> conv2_2_3x3 (in-place)
I0620 04:27:57.102582  3117 net.cpp:150] Setting up conv2_2_3x3/bn
I0620 04:27:57.102587  3117 net.cpp:157] Top shape: 3 64 119 119 (2718912)
I0620 04:27:57.102591  3117 net.cpp:165] Memory required for data: 1061299272
I0620 04:27:57.102596  3117 layer_factory.hpp:77] Creating layer conv2_2_3x3/relu
I0620 04:27:57.102599  3117 net.cpp:106] Creating Layer conv2_2_3x3/relu
I0620 04:27:57.102602  3117 net.cpp:454] conv2_2_3x3/relu <- conv2_2_3x3
I0620 04:27:57.102605  3117 net.cpp:397] conv2_2_3x3/relu -> conv2_2_3x3 (in-place)
I0620 04:27:57.102609  3117 net.cpp:150] Setting up conv2_2_3x3/relu
I0620 04:27:57.102612  3117 net.cpp:157] Top shape: 3 64 119 119 (2718912)
I0620 04:27:57.102614  3117 net.cpp:165] Memory required for data: 1072174920
I0620 04:27:57.102617  3117 layer_factory.hpp:77] Creating layer conv2_2_1x1_increase
I0620 04:27:57.102622  3117 net.cpp:106] Creating Layer conv2_2_1x1_increase
I0620 04:27:57.102624  3117 net.cpp:454] conv2_2_1x1_increase <- conv2_2_3x3
I0620 04:27:57.102628  3117 net.cpp:411] conv2_2_1x1_increase -> conv2_2_1x1_increase
I0620 04:27:57.103082  3117 net.cpp:150] Setting up conv2_2_1x1_increase
I0620 04:27:57.103088  3117 net.cpp:157] Top shape: 3 256 119 119 (10875648)
I0620 04:27:57.103091  3117 net.cpp:165] Memory required for data: 1115677512
I0620 04:27:57.103094  3117 layer_factory.hpp:77] Creating layer conv2_2_1x1_increase/bn
I0620 04:27:57.103106  3117 net.cpp:106] Creating Layer conv2_2_1x1_increase/bn
I0620 04:27:57.103117  3117 net.cpp:454] conv2_2_1x1_increase/bn <- conv2_2_1x1_increase
I0620 04:27:57.103121  3117 net.cpp:397] conv2_2_1x1_increase/bn -> conv2_2_1x1_increase (in-place)
I0620 04:27:57.103243  3117 net.cpp:150] Setting up conv2_2_1x1_increase/bn
I0620 04:27:57.103248  3117 net.cpp:157] Top shape: 3 256 119 119 (10875648)
I0620 04:27:57.103250  3117 net.cpp:165] Memory required for data: 1159180104
I0620 04:27:57.103255  3117 layer_factory.hpp:77] Creating layer conv2_2
I0620 04:27:57.103260  3117 net.cpp:106] Creating Layer conv2_2
I0620 04:27:57.103262  3117 net.cpp:454] conv2_2 <- conv2_1_conv2_1/relu_0_split_1
I0620 04:27:57.103266  3117 net.cpp:454] conv2_2 <- conv2_2_1x1_increase
I0620 04:27:57.103269  3117 net.cpp:411] conv2_2 -> conv2_2
I0620 04:27:57.103282  3117 net.cpp:150] Setting up conv2_2
I0620 04:27:57.103286  3117 net.cpp:157] Top shape: 3 256 119 119 (10875648)
I0620 04:27:57.103289  3117 net.cpp:165] Memory required for data: 1202682696
I0620 04:27:57.103291  3117 layer_factory.hpp:77] Creating layer conv2_2/relu
I0620 04:27:57.103296  3117 net.cpp:106] Creating Layer conv2_2/relu
I0620 04:27:57.103297  3117 net.cpp:454] conv2_2/relu <- conv2_2
I0620 04:27:57.103302  3117 net.cpp:397] conv2_2/relu -> conv2_2 (in-place)
I0620 04:27:57.103305  3117 net.cpp:150] Setting up conv2_2/relu
I0620 04:27:57.103308  3117 net.cpp:157] Top shape: 3 256 119 119 (10875648)
I0620 04:27:57.103312  3117 net.cpp:165] Memory required for data: 1246185288
I0620 04:27:57.103313  3117 layer_factory.hpp:77] Creating layer conv2_2_conv2_2/relu_0_split
I0620 04:27:57.103317  3117 net.cpp:106] Creating Layer conv2_2_conv2_2/relu_0_split
I0620 04:27:57.103319  3117 net.cpp:454] conv2_2_conv2_2/relu_0_split <- conv2_2
I0620 04:27:57.103323  3117 net.cpp:411] conv2_2_conv2_2/relu_0_split -> conv2_2_conv2_2/relu_0_split_0
I0620 04:27:57.103327  3117 net.cpp:411] conv2_2_conv2_2/relu_0_split -> conv2_2_conv2_2/relu_0_split_1
I0620 04:27:57.103348  3117 net.cpp:150] Setting up conv2_2_conv2_2/relu_0_split
I0620 04:27:57.103351  3117 net.cpp:157] Top shape: 3 256 119 119 (10875648)
I0620 04:27:57.103354  3117 net.cpp:157] Top shape: 3 256 119 119 (10875648)
I0620 04:27:57.103356  3117 net.cpp:165] Memory required for data: 1333190472
I0620 04:27:57.103359  3117 layer_factory.hpp:77] Creating layer conv2_3_1x1_reduce
I0620 04:27:57.103368  3117 net.cpp:106] Creating Layer conv2_3_1x1_reduce
I0620 04:27:57.103370  3117 net.cpp:454] conv2_3_1x1_reduce <- conv2_2_conv2_2/relu_0_split_0
I0620 04:27:57.103377  3117 net.cpp:411] conv2_3_1x1_reduce -> conv2_3_1x1_reduce
I0620 04:27:57.103827  3117 net.cpp:150] Setting up conv2_3_1x1_reduce
I0620 04:27:57.103832  3117 net.cpp:157] Top shape: 3 64 119 119 (2718912)
I0620 04:27:57.103834  3117 net.cpp:165] Memory required for data: 1344066120
I0620 04:27:57.103838  3117 layer_factory.hpp:77] Creating layer conv2_3_1x1_reduce/bn
I0620 04:27:57.103843  3117 net.cpp:106] Creating Layer conv2_3_1x1_reduce/bn
I0620 04:27:57.103847  3117 net.cpp:454] conv2_3_1x1_reduce/bn <- conv2_3_1x1_reduce
I0620 04:27:57.103852  3117 net.cpp:397] conv2_3_1x1_reduce/bn -> conv2_3_1x1_reduce (in-place)
I0620 04:27:57.103982  3117 net.cpp:150] Setting up conv2_3_1x1_reduce/bn
I0620 04:27:57.103986  3117 net.cpp:157] Top shape: 3 64 119 119 (2718912)
I0620 04:27:57.103988  3117 net.cpp:165] Memory required for data: 1354941768
I0620 04:27:57.103994  3117 layer_factory.hpp:77] Creating layer conv2_3_1x1_reduce/relu
I0620 04:27:57.103998  3117 net.cpp:106] Creating Layer conv2_3_1x1_reduce/relu
I0620 04:27:57.104001  3117 net.cpp:454] conv2_3_1x1_reduce/relu <- conv2_3_1x1_reduce
I0620 04:27:57.104003  3117 net.cpp:397] conv2_3_1x1_reduce/relu -> conv2_3_1x1_reduce (in-place)
I0620 04:27:57.104007  3117 net.cpp:150] Setting up conv2_3_1x1_reduce/relu
I0620 04:27:57.104010  3117 net.cpp:157] Top shape: 3 64 119 119 (2718912)
I0620 04:27:57.104013  3117 net.cpp:165] Memory required for data: 1365817416
I0620 04:27:57.104015  3117 layer_factory.hpp:77] Creating layer conv2_3_3x3
I0620 04:27:57.104027  3117 net.cpp:106] Creating Layer conv2_3_3x3
I0620 04:27:57.104029  3117 net.cpp:454] conv2_3_3x3 <- conv2_3_1x1_reduce
I0620 04:27:57.104043  3117 net.cpp:411] conv2_3_3x3 -> conv2_3_3x3
I0620 04:27:57.104948  3117 net.cpp:150] Setting up conv2_3_3x3
I0620 04:27:57.104954  3117 net.cpp:157] Top shape: 3 64 119 119 (2718912)
I0620 04:27:57.104956  3117 net.cpp:165] Memory required for data: 1376693064
I0620 04:27:57.104959  3117 layer_factory.hpp:77] Creating layer conv2_3_3x3/bn
I0620 04:27:57.104964  3117 net.cpp:106] Creating Layer conv2_3_3x3/bn
I0620 04:27:57.104967  3117 net.cpp:454] conv2_3_3x3/bn <- conv2_3_3x3
I0620 04:27:57.104971  3117 net.cpp:397] conv2_3_3x3/bn -> conv2_3_3x3 (in-place)
I0620 04:27:57.105113  3117 net.cpp:150] Setting up conv2_3_3x3/bn
I0620 04:27:57.105118  3117 net.cpp:157] Top shape: 3 64 119 119 (2718912)
I0620 04:27:57.105119  3117 net.cpp:165] Memory required for data: 1387568712
I0620 04:27:57.105124  3117 layer_factory.hpp:77] Creating layer conv2_3_3x3/relu
I0620 04:27:57.105129  3117 net.cpp:106] Creating Layer conv2_3_3x3/relu
I0620 04:27:57.105131  3117 net.cpp:454] conv2_3_3x3/relu <- conv2_3_3x3
I0620 04:27:57.105135  3117 net.cpp:397] conv2_3_3x3/relu -> conv2_3_3x3 (in-place)
I0620 04:27:57.105139  3117 net.cpp:150] Setting up conv2_3_3x3/relu
I0620 04:27:57.105142  3117 net.cpp:157] Top shape: 3 64 119 119 (2718912)
I0620 04:27:57.105144  3117 net.cpp:165] Memory required for data: 1398444360
I0620 04:27:57.105149  3117 layer_factory.hpp:77] Creating layer conv2_3_1x1_increase
I0620 04:27:57.105154  3117 net.cpp:106] Creating Layer conv2_3_1x1_increase
I0620 04:27:57.105156  3117 net.cpp:454] conv2_3_1x1_increase <- conv2_3_3x3
I0620 04:27:57.105162  3117 net.cpp:411] conv2_3_1x1_increase -> conv2_3_1x1_increase
I0620 04:27:57.105634  3117 net.cpp:150] Setting up conv2_3_1x1_increase
I0620 04:27:57.105640  3117 net.cpp:157] Top shape: 3 256 119 119 (10875648)
I0620 04:27:57.105643  3117 net.cpp:165] Memory required for data: 1441946952
I0620 04:27:57.105648  3117 layer_factory.hpp:77] Creating layer conv2_3_1x1_increase/bn
I0620 04:27:57.105653  3117 net.cpp:106] Creating Layer conv2_3_1x1_increase/bn
I0620 04:27:57.118666  3117 net.cpp:454] conv2_3_1x1_increase/bn <- conv2_3_1x1_increase
I0620 04:27:57.118717  3117 net.cpp:397] conv2_3_1x1_increase/bn -> conv2_3_1x1_increase (in-place)
I0620 04:27:57.120921  3117 net.cpp:150] Setting up conv2_3_1x1_increase/bn
I0620 04:27:57.120954  3117 net.cpp:157] Top shape: 3 256 119 119 (10875648)
I0620 04:27:57.120959  3117 net.cpp:165] Memory required for data: 1485449544
I0620 04:27:57.121001  3117 layer_factory.hpp:77] Creating layer conv2_3
I0620 04:27:57.121022  3117 net.cpp:106] Creating Layer conv2_3
I0620 04:27:57.121031  3117 net.cpp:454] conv2_3 <- conv2_2_conv2_2/relu_0_split_1
I0620 04:27:57.121044  3117 net.cpp:454] conv2_3 <- conv2_3_1x1_increase
I0620 04:27:57.121053  3117 net.cpp:411] conv2_3 -> conv2_3
I0620 04:27:57.121104  3117 net.cpp:150] Setting up conv2_3
I0620 04:27:57.121114  3117 net.cpp:157] Top shape: 3 256 119 119 (10875648)
I0620 04:27:57.121119  3117 net.cpp:165] Memory required for data: 1528952136
I0620 04:27:57.121126  3117 layer_factory.hpp:77] Creating layer conv2_3/relu
I0620 04:27:57.121136  3117 net.cpp:106] Creating Layer conv2_3/relu
I0620 04:27:57.121142  3117 net.cpp:454] conv2_3/relu <- conv2_3
I0620 04:27:57.121151  3117 net.cpp:397] conv2_3/relu -> conv2_3 (in-place)
I0620 04:27:57.121160  3117 net.cpp:150] Setting up conv2_3/relu
I0620 04:27:57.121167  3117 net.cpp:157] Top shape: 3 256 119 119 (10875648)
I0620 04:27:57.121173  3117 net.cpp:165] Memory required for data: 1572454728
I0620 04:27:57.121179  3117 layer_factory.hpp:77] Creating layer conv2_3_conv2_3/relu_0_split
I0620 04:27:57.121188  3117 net.cpp:106] Creating Layer conv2_3_conv2_3/relu_0_split
I0620 04:27:57.121194  3117 net.cpp:454] conv2_3_conv2_3/relu_0_split <- conv2_3
I0620 04:27:57.121201  3117 net.cpp:411] conv2_3_conv2_3/relu_0_split -> conv2_3_conv2_3/relu_0_split_0
I0620 04:27:57.121234  3117 net.cpp:411] conv2_3_conv2_3/relu_0_split -> conv2_3_conv2_3/relu_0_split_1
I0620 04:27:57.121269  3117 net.cpp:150] Setting up conv2_3_conv2_3/relu_0_split
I0620 04:27:57.121279  3117 net.cpp:157] Top shape: 3 256 119 119 (10875648)
I0620 04:27:57.121285  3117 net.cpp:157] Top shape: 3 256 119 119 (10875648)
I0620 04:27:57.121290  3117 net.cpp:165] Memory required for data: 1659459912
I0620 04:27:57.121296  3117 layer_factory.hpp:77] Creating layer conv3_1_1x1_reduce
I0620 04:27:57.121316  3117 net.cpp:106] Creating Layer conv3_1_1x1_reduce
I0620 04:27:57.121323  3117 net.cpp:454] conv3_1_1x1_reduce <- conv2_3_conv2_3/relu_0_split_0
I0620 04:27:57.121333  3117 net.cpp:411] conv3_1_1x1_reduce -> conv3_1_1x1_reduce
I0620 04:27:57.122716  3117 net.cpp:150] Setting up conv3_1_1x1_reduce
I0620 04:27:57.122742  3117 net.cpp:157] Top shape: 3 128 119 119 (5437824)
I0620 04:27:57.122750  3117 net.cpp:165] Memory required for data: 1681211208
I0620 04:27:57.122759  3117 layer_factory.hpp:77] Creating layer conv3_1_1x1_reduce/bn
I0620 04:27:57.122774  3117 net.cpp:106] Creating Layer conv3_1_1x1_reduce/bn
I0620 04:27:57.122783  3117 net.cpp:454] conv3_1_1x1_reduce/bn <- conv3_1_1x1_reduce
I0620 04:27:57.122794  3117 net.cpp:397] conv3_1_1x1_reduce/bn -> conv3_1_1x1_reduce (in-place)
I0620 04:27:57.123021  3117 net.cpp:150] Setting up conv3_1_1x1_reduce/bn
I0620 04:27:57.123031  3117 net.cpp:157] Top shape: 3 128 119 119 (5437824)
I0620 04:27:57.123039  3117 net.cpp:165] Memory required for data: 1702962504
I0620 04:27:57.123049  3117 layer_factory.hpp:77] Creating layer conv3_1_1x1_reduce/relu
I0620 04:27:57.123061  3117 net.cpp:106] Creating Layer conv3_1_1x1_reduce/relu
I0620 04:27:57.123067  3117 net.cpp:454] conv3_1_1x1_reduce/relu <- conv3_1_1x1_reduce
I0620 04:27:57.123075  3117 net.cpp:397] conv3_1_1x1_reduce/relu -> conv3_1_1x1_reduce (in-place)
I0620 04:27:57.123085  3117 net.cpp:150] Setting up conv3_1_1x1_reduce/relu
I0620 04:27:57.123091  3117 net.cpp:157] Top shape: 3 128 119 119 (5437824)
I0620 04:27:57.123097  3117 net.cpp:165] Memory required for data: 1724713800
I0620 04:27:57.123103  3117 layer_factory.hpp:77] Creating layer conv3_1_3x3
I0620 04:27:57.123117  3117 net.cpp:106] Creating Layer conv3_1_3x3
I0620 04:27:57.123124  3117 net.cpp:454] conv3_1_3x3 <- conv3_1_1x1_reduce
I0620 04:27:57.123132  3117 net.cpp:411] conv3_1_3x3 -> conv3_1_3x3
I0620 04:27:57.128041  3117 net.cpp:150] Setting up conv3_1_3x3
I0620 04:27:57.128123  3117 net.cpp:157] Top shape: 3 128 60 60 (1382400)
I0620 04:27:57.128131  3117 net.cpp:165] Memory required for data: 1730243400
I0620 04:27:57.128151  3117 layer_factory.hpp:77] Creating layer conv3_1_3x3/bn
I0620 04:27:57.128211  3117 net.cpp:106] Creating Layer conv3_1_3x3/bn
I0620 04:27:57.128224  3117 net.cpp:454] conv3_1_3x3/bn <- conv3_1_3x3
I0620 04:27:57.128240  3117 net.cpp:397] conv3_1_3x3/bn -> conv3_1_3x3 (in-place)
I0620 04:27:57.128459  3117 net.cpp:150] Setting up conv3_1_3x3/bn
I0620 04:27:57.128471  3117 net.cpp:157] Top shape: 3 128 60 60 (1382400)
I0620 04:27:57.128478  3117 net.cpp:165] Memory required for data: 1735773000
I0620 04:27:57.128487  3117 layer_factory.hpp:77] Creating layer conv3_1_3x3/relu
I0620 04:27:57.128497  3117 net.cpp:106] Creating Layer conv3_1_3x3/relu
I0620 04:27:57.128504  3117 net.cpp:454] conv3_1_3x3/relu <- conv3_1_3x3
I0620 04:27:57.128510  3117 net.cpp:397] conv3_1_3x3/relu -> conv3_1_3x3 (in-place)
I0620 04:27:57.128520  3117 net.cpp:150] Setting up conv3_1_3x3/relu
I0620 04:27:57.128526  3117 net.cpp:157] Top shape: 3 128 60 60 (1382400)
I0620 04:27:57.128532  3117 net.cpp:165] Memory required for data: 1741302600
I0620 04:27:57.128538  3117 layer_factory.hpp:77] Creating layer conv3_1_1x1_increase
I0620 04:27:57.128551  3117 net.cpp:106] Creating Layer conv3_1_1x1_increase
I0620 04:27:57.128557  3117 net.cpp:454] conv3_1_1x1_increase <- conv3_1_3x3
I0620 04:27:57.128566  3117 net.cpp:411] conv3_1_1x1_increase -> conv3_1_1x1_increase
I0620 04:27:57.131063  3117 net.cpp:150] Setting up conv3_1_1x1_increase
I0620 04:27:57.131237  3117 net.cpp:157] Top shape: 3 512 60 60 (5529600)
I0620 04:27:57.131249  3117 net.cpp:165] Memory required for data: 1763421000
I0620 04:27:57.131271  3117 layer_factory.hpp:77] Creating layer conv3_1_1x1_increase/bn
I0620 04:27:57.131309  3117 net.cpp:106] Creating Layer conv3_1_1x1_increase/bn
I0620 04:27:57.131320  3117 net.cpp:454] conv3_1_1x1_increase/bn <- conv3_1_1x1_increase
I0620 04:27:57.131340  3117 net.cpp:397] conv3_1_1x1_increase/bn -> conv3_1_1x1_increase (in-place)
I0620 04:27:57.133860  3117 net.cpp:150] Setting up conv3_1_1x1_increase/bn
I0620 04:27:57.133944  3117 net.cpp:157] Top shape: 3 512 60 60 (5529600)
I0620 04:27:57.133951  3117 net.cpp:165] Memory required for data: 1785539400
I0620 04:27:57.133976  3117 layer_factory.hpp:77] Creating layer conv3_1_1x1_proj
I0620 04:27:57.134018  3117 net.cpp:106] Creating Layer conv3_1_1x1_proj
I0620 04:27:57.134032  3117 net.cpp:454] conv3_1_1x1_proj <- conv2_3_conv2_3/relu_0_split_1
I0620 04:27:57.134048  3117 net.cpp:411] conv3_1_1x1_proj -> conv3_1_1x1_proj
I0620 04:27:57.137557  3117 net.cpp:150] Setting up conv3_1_1x1_proj
I0620 04:27:57.137572  3117 net.cpp:157] Top shape: 3 512 60 60 (5529600)
I0620 04:27:57.137574  3117 net.cpp:165] Memory required for data: 1807657800
I0620 04:27:57.137578  3117 layer_factory.hpp:77] Creating layer conv3_1_1x1_proj/bn
I0620 04:27:57.137586  3117 net.cpp:106] Creating Layer conv3_1_1x1_proj/bn
I0620 04:27:57.137590  3117 net.cpp:454] conv3_1_1x1_proj/bn <- conv3_1_1x1_proj
I0620 04:27:57.137595  3117 net.cpp:397] conv3_1_1x1_proj/bn -> conv3_1_1x1_proj (in-place)
I0620 04:27:57.137737  3117 net.cpp:150] Setting up conv3_1_1x1_proj/bn
I0620 04:27:57.137742  3117 net.cpp:157] Top shape: 3 512 60 60 (5529600)
I0620 04:27:57.137745  3117 net.cpp:165] Memory required for data: 1829776200
I0620 04:27:57.137769  3117 layer_factory.hpp:77] Creating layer conv3_1
I0620 04:27:57.137776  3117 net.cpp:106] Creating Layer conv3_1
I0620 04:27:57.137779  3117 net.cpp:454] conv3_1 <- conv3_1_1x1_proj
I0620 04:27:57.137784  3117 net.cpp:454] conv3_1 <- conv3_1_1x1_increase
I0620 04:27:57.137786  3117 net.cpp:411] conv3_1 -> conv3_1
I0620 04:27:57.137804  3117 net.cpp:150] Setting up conv3_1
I0620 04:27:57.137809  3117 net.cpp:157] Top shape: 3 512 60 60 (5529600)
I0620 04:27:57.137810  3117 net.cpp:165] Memory required for data: 1851894600
I0620 04:27:57.137814  3117 layer_factory.hpp:77] Creating layer conv3_1/relu
I0620 04:27:57.137820  3117 net.cpp:106] Creating Layer conv3_1/relu
I0620 04:27:57.137823  3117 net.cpp:454] conv3_1/relu <- conv3_1
I0620 04:27:57.137826  3117 net.cpp:397] conv3_1/relu -> conv3_1 (in-place)
I0620 04:27:57.137831  3117 net.cpp:150] Setting up conv3_1/relu
I0620 04:27:57.137835  3117 net.cpp:157] Top shape: 3 512 60 60 (5529600)
I0620 04:27:57.137836  3117 net.cpp:165] Memory required for data: 1874013000
I0620 04:27:57.137840  3117 layer_factory.hpp:77] Creating layer conv3_1_conv3_1/relu_0_split
I0620 04:27:57.137845  3117 net.cpp:106] Creating Layer conv3_1_conv3_1/relu_0_split
I0620 04:27:57.137847  3117 net.cpp:454] conv3_1_conv3_1/relu_0_split <- conv3_1
I0620 04:27:57.137851  3117 net.cpp:411] conv3_1_conv3_1/relu_0_split -> conv3_1_conv3_1/relu_0_split_0
I0620 04:27:57.137856  3117 net.cpp:411] conv3_1_conv3_1/relu_0_split -> conv3_1_conv3_1/relu_0_split_1
I0620 04:27:57.137876  3117 net.cpp:150] Setting up conv3_1_conv3_1/relu_0_split
I0620 04:27:57.137881  3117 net.cpp:157] Top shape: 3 512 60 60 (5529600)
I0620 04:27:57.137883  3117 net.cpp:157] Top shape: 3 512 60 60 (5529600)
I0620 04:27:57.137887  3117 net.cpp:165] Memory required for data: 1918249800
I0620 04:27:57.137888  3117 layer_factory.hpp:77] Creating layer conv3_2_1x1_reduce
I0620 04:27:57.137894  3117 net.cpp:106] Creating Layer conv3_2_1x1_reduce
I0620 04:27:57.137897  3117 net.cpp:454] conv3_2_1x1_reduce <- conv3_1_conv3_1/relu_0_split_0
I0620 04:27:57.137902  3117 net.cpp:411] conv3_2_1x1_reduce -> conv3_2_1x1_reduce
I0620 04:27:57.139390  3117 net.cpp:150] Setting up conv3_2_1x1_reduce
I0620 04:27:57.139395  3117 net.cpp:157] Top shape: 3 128 60 60 (1382400)
I0620 04:27:57.139412  3117 net.cpp:165] Memory required for data: 1923779400
I0620 04:27:57.139416  3117 layer_factory.hpp:77] Creating layer conv3_2_1x1_reduce/bn
I0620 04:27:57.139421  3117 net.cpp:106] Creating Layer conv3_2_1x1_reduce/bn
I0620 04:27:57.139423  3117 net.cpp:454] conv3_2_1x1_reduce/bn <- conv3_2_1x1_reduce
I0620 04:27:57.139427  3117 net.cpp:397] conv3_2_1x1_reduce/bn -> conv3_2_1x1_reduce (in-place)
I0620 04:27:57.139547  3117 net.cpp:150] Setting up conv3_2_1x1_reduce/bn
I0620 04:27:57.139552  3117 net.cpp:157] Top shape: 3 128 60 60 (1382400)
I0620 04:27:57.139554  3117 net.cpp:165] Memory required for data: 1929309000
I0620 04:27:57.139560  3117 layer_factory.hpp:77] Creating layer conv3_2_1x1_reduce/relu
I0620 04:27:57.139564  3117 net.cpp:106] Creating Layer conv3_2_1x1_reduce/relu
I0620 04:27:57.139566  3117 net.cpp:454] conv3_2_1x1_reduce/relu <- conv3_2_1x1_reduce
I0620 04:27:57.139569  3117 net.cpp:397] conv3_2_1x1_reduce/relu -> conv3_2_1x1_reduce (in-place)
I0620 04:27:57.139574  3117 net.cpp:150] Setting up conv3_2_1x1_reduce/relu
I0620 04:27:57.139576  3117 net.cpp:157] Top shape: 3 128 60 60 (1382400)
I0620 04:27:57.147902  3117 net.cpp:165] Memory required for data: 1934838600
I0620 04:27:57.147928  3117 layer_factory.hpp:77] Creating layer conv3_2_3x3
I0620 04:27:57.147963  3117 net.cpp:106] Creating Layer conv3_2_3x3
I0620 04:27:57.147969  3117 net.cpp:454] conv3_2_3x3 <- conv3_2_1x1_reduce
I0620 04:27:57.147979  3117 net.cpp:411] conv3_2_3x3 -> conv3_2_3x3
I0620 04:27:57.151695  3117 net.cpp:150] Setting up conv3_2_3x3
I0620 04:27:57.151736  3117 net.cpp:157] Top shape: 3 128 60 60 (1382400)
I0620 04:27:57.151739  3117 net.cpp:165] Memory required for data: 1940368200
I0620 04:27:57.151749  3117 layer_factory.hpp:77] Creating layer conv3_2_3x3/bn
I0620 04:27:57.151772  3117 net.cpp:106] Creating Layer conv3_2_3x3/bn
I0620 04:27:57.151777  3117 net.cpp:454] conv3_2_3x3/bn <- conv3_2_3x3
I0620 04:27:57.151783  3117 net.cpp:397] conv3_2_3x3/bn -> conv3_2_3x3 (in-place)
I0620 04:27:57.151934  3117 net.cpp:150] Setting up conv3_2_3x3/bn
I0620 04:27:57.151939  3117 net.cpp:157] Top shape: 3 128 60 60 (1382400)
I0620 04:27:57.151942  3117 net.cpp:165] Memory required for data: 1945897800
I0620 04:27:57.151949  3117 layer_factory.hpp:77] Creating layer conv3_2_3x3/relu
I0620 04:27:57.151955  3117 net.cpp:106] Creating Layer conv3_2_3x3/relu
I0620 04:27:57.151958  3117 net.cpp:454] conv3_2_3x3/relu <- conv3_2_3x3
I0620 04:27:57.151963  3117 net.cpp:397] conv3_2_3x3/relu -> conv3_2_3x3 (in-place)
I0620 04:27:57.151968  3117 net.cpp:150] Setting up conv3_2_3x3/relu
I0620 04:27:57.151973  3117 net.cpp:157] Top shape: 3 128 60 60 (1382400)
I0620 04:27:57.151975  3117 net.cpp:165] Memory required for data: 1951427400
I0620 04:27:57.151980  3117 layer_factory.hpp:77] Creating layer conv3_2_1x1_increase
I0620 04:27:57.151996  3117 net.cpp:106] Creating Layer conv3_2_1x1_increase
I0620 04:27:57.151999  3117 net.cpp:454] conv3_2_1x1_increase <- conv3_2_3x3
I0620 04:27:57.152004  3117 net.cpp:411] conv3_2_1x1_increase -> conv3_2_1x1_increase
I0620 04:27:57.154498  3117 net.cpp:150] Setting up conv3_2_1x1_increase
I0620 04:27:57.154508  3117 net.cpp:157] Top shape: 3 512 60 60 (5529600)
I0620 04:27:57.154511  3117 net.cpp:165] Memory required for data: 1973545800
I0620 04:27:57.154516  3117 layer_factory.hpp:77] Creating layer conv3_2_1x1_increase/bn
I0620 04:27:57.154522  3117 net.cpp:106] Creating Layer conv3_2_1x1_increase/bn
I0620 04:27:57.154527  3117 net.cpp:454] conv3_2_1x1_increase/bn <- conv3_2_1x1_increase
I0620 04:27:57.154533  3117 net.cpp:397] conv3_2_1x1_increase/bn -> conv3_2_1x1_increase (in-place)
I0620 04:27:57.154664  3117 net.cpp:150] Setting up conv3_2_1x1_increase/bn
I0620 04:27:57.154670  3117 net.cpp:157] Top shape: 3 512 60 60 (5529600)
I0620 04:27:57.154672  3117 net.cpp:165] Memory required for data: 1995664200
I0620 04:27:57.154678  3117 layer_factory.hpp:77] Creating layer conv3_2
I0620 04:27:57.154683  3117 net.cpp:106] Creating Layer conv3_2
I0620 04:27:57.154705  3117 net.cpp:454] conv3_2 <- conv3_1_conv3_1/relu_0_split_1
I0620 04:27:57.154708  3117 net.cpp:454] conv3_2 <- conv3_2_1x1_increase
I0620 04:27:57.154713  3117 net.cpp:411] conv3_2 -> conv3_2
I0620 04:27:57.154728  3117 net.cpp:150] Setting up conv3_2
I0620 04:27:57.154733  3117 net.cpp:157] Top shape: 3 512 60 60 (5529600)
I0620 04:27:57.154736  3117 net.cpp:165] Memory required for data: 2017782600
I0620 04:27:57.154739  3117 layer_factory.hpp:77] Creating layer conv3_2/relu
I0620 04:27:57.154745  3117 net.cpp:106] Creating Layer conv3_2/relu
I0620 04:27:57.154748  3117 net.cpp:454] conv3_2/relu <- conv3_2
I0620 04:27:57.154752  3117 net.cpp:397] conv3_2/relu -> conv3_2 (in-place)
I0620 04:27:57.154757  3117 net.cpp:150] Setting up conv3_2/relu
I0620 04:27:57.154760  3117 net.cpp:157] Top shape: 3 512 60 60 (5529600)
I0620 04:27:57.154763  3117 net.cpp:165] Memory required for data: 2039901000
I0620 04:27:57.154767  3117 layer_factory.hpp:77] Creating layer conv3_2_conv3_2/relu_0_split
I0620 04:27:57.154775  3117 net.cpp:106] Creating Layer conv3_2_conv3_2/relu_0_split
I0620 04:27:57.154778  3117 net.cpp:454] conv3_2_conv3_2/relu_0_split <- conv3_2
I0620 04:27:57.154783  3117 net.cpp:411] conv3_2_conv3_2/relu_0_split -> conv3_2_conv3_2/relu_0_split_0
I0620 04:27:57.154788  3117 net.cpp:411] conv3_2_conv3_2/relu_0_split -> conv3_2_conv3_2/relu_0_split_1
I0620 04:27:57.154809  3117 net.cpp:150] Setting up conv3_2_conv3_2/relu_0_split
I0620 04:27:57.154814  3117 net.cpp:157] Top shape: 3 512 60 60 (5529600)
I0620 04:27:57.154817  3117 net.cpp:157] Top shape: 3 512 60 60 (5529600)
I0620 04:27:57.154820  3117 net.cpp:165] Memory required for data: 2084137800
I0620 04:27:57.154824  3117 layer_factory.hpp:77] Creating layer conv3_3_1x1_reduce
I0620 04:27:57.154830  3117 net.cpp:106] Creating Layer conv3_3_1x1_reduce
I0620 04:27:57.154834  3117 net.cpp:454] conv3_3_1x1_reduce <- conv3_2_conv3_2/relu_0_split_0
I0620 04:27:57.154839  3117 net.cpp:411] conv3_3_1x1_reduce -> conv3_3_1x1_reduce
I0620 04:27:57.156301  3117 net.cpp:150] Setting up conv3_3_1x1_reduce
I0620 04:27:57.156306  3117 net.cpp:157] Top shape: 3 128 60 60 (1382400)
I0620 04:27:57.156309  3117 net.cpp:165] Memory required for data: 2089667400
I0620 04:27:57.156313  3117 layer_factory.hpp:77] Creating layer conv3_3_1x1_reduce/bn
I0620 04:27:57.156318  3117 net.cpp:106] Creating Layer conv3_3_1x1_reduce/bn
I0620 04:27:57.156322  3117 net.cpp:454] conv3_3_1x1_reduce/bn <- conv3_3_1x1_reduce
I0620 04:27:57.156325  3117 net.cpp:397] conv3_3_1x1_reduce/bn -> conv3_3_1x1_reduce (in-place)
I0620 04:27:57.156450  3117 net.cpp:150] Setting up conv3_3_1x1_reduce/bn
I0620 04:27:57.156455  3117 net.cpp:157] Top shape: 3 128 60 60 (1382400)
I0620 04:27:57.156457  3117 net.cpp:165] Memory required for data: 2095197000
I0620 04:27:57.156463  3117 layer_factory.hpp:77] Creating layer conv3_3_1x1_reduce/relu
I0620 04:27:57.156467  3117 net.cpp:106] Creating Layer conv3_3_1x1_reduce/relu
I0620 04:27:57.156471  3117 net.cpp:454] conv3_3_1x1_reduce/relu <- conv3_3_1x1_reduce
I0620 04:27:57.156476  3117 net.cpp:397] conv3_3_1x1_reduce/relu -> conv3_3_1x1_reduce (in-place)
I0620 04:27:57.156479  3117 net.cpp:150] Setting up conv3_3_1x1_reduce/relu
I0620 04:27:57.156483  3117 net.cpp:157] Top shape: 3 128 60 60 (1382400)
I0620 04:27:57.156486  3117 net.cpp:165] Memory required for data: 2100726600
I0620 04:27:57.156489  3117 layer_factory.hpp:77] Creating layer conv3_3_3x3
I0620 04:27:57.156497  3117 net.cpp:106] Creating Layer conv3_3_3x3
I0620 04:27:57.156499  3117 net.cpp:454] conv3_3_3x3 <- conv3_3_1x1_reduce
I0620 04:27:57.156507  3117 net.cpp:411] conv3_3_3x3 -> conv3_3_3x3
I0620 04:27:57.160895  3117 net.cpp:150] Setting up conv3_3_3x3
I0620 04:27:57.160905  3117 net.cpp:157] Top shape: 3 128 60 60 (1382400)
I0620 04:27:57.160908  3117 net.cpp:165] Memory required for data: 2106256200
I0620 04:27:57.160914  3117 layer_factory.hpp:77] Creating layer conv3_3_3x3/bn
I0620 04:27:57.160923  3117 net.cpp:106] Creating Layer conv3_3_3x3/bn
I0620 04:27:57.160936  3117 net.cpp:454] conv3_3_3x3/bn <- conv3_3_3x3
I0620 04:27:57.160943  3117 net.cpp:397] conv3_3_3x3/bn -> conv3_3_3x3 (in-place)
I0620 04:27:57.161074  3117 net.cpp:150] Setting up conv3_3_3x3/bn
I0620 04:27:57.161080  3117 net.cpp:157] Top shape: 3 128 60 60 (1382400)
I0620 04:27:57.161083  3117 net.cpp:165] Memory required for data: 2111785800
I0620 04:27:57.161092  3117 layer_factory.hpp:77] Creating layer conv3_3_3x3/relu
I0620 04:27:57.161097  3117 net.cpp:106] Creating Layer conv3_3_3x3/relu
I0620 04:27:57.161099  3117 net.cpp:454] conv3_3_3x3/relu <- conv3_3_3x3
I0620 04:27:57.161104  3117 net.cpp:397] conv3_3_3x3/relu -> conv3_3_3x3 (in-place)
I0620 04:27:57.161109  3117 net.cpp:150] Setting up conv3_3_3x3/relu
I0620 04:27:57.161113  3117 net.cpp:157] Top shape: 3 128 60 60 (1382400)
I0620 04:27:57.161116  3117 net.cpp:165] Memory required for data: 2117315400
I0620 04:27:57.161119  3117 layer_factory.hpp:77] Creating layer conv3_3_1x1_increase
I0620 04:27:57.161128  3117 net.cpp:106] Creating Layer conv3_3_1x1_increase
I0620 04:27:57.161131  3117 net.cpp:454] conv3_3_1x1_increase <- conv3_3_3x3
I0620 04:27:57.161137  3117 net.cpp:411] conv3_3_1x1_increase -> conv3_3_1x1_increase
I0620 04:27:57.162618  3117 net.cpp:150] Setting up conv3_3_1x1_increase
I0620 04:27:57.162626  3117 net.cpp:157] Top shape: 3 512 60 60 (5529600)
I0620 04:27:57.162628  3117 net.cpp:165] Memory required for data: 2139433800
I0620 04:27:57.162632  3117 layer_factory.hpp:77] Creating layer conv3_3_1x1_increase/bn
I0620 04:27:57.162638  3117 net.cpp:106] Creating Layer conv3_3_1x1_increase/bn
I0620 04:27:57.162642  3117 net.cpp:454] conv3_3_1x1_increase/bn <- conv3_3_1x1_increase
I0620 04:27:57.162647  3117 net.cpp:397] conv3_3_1x1_increase/bn -> conv3_3_1x1_increase (in-place)
I0620 04:27:57.162771  3117 net.cpp:150] Setting up conv3_3_1x1_increase/bn
I0620 04:27:57.162776  3117 net.cpp:157] Top shape: 3 512 60 60 (5529600)
I0620 04:27:57.162780  3117 net.cpp:165] Memory required for data: 2161552200
I0620 04:27:57.162786  3117 layer_factory.hpp:77] Creating layer conv3_3
I0620 04:27:57.162792  3117 net.cpp:106] Creating Layer conv3_3
I0620 04:27:57.162796  3117 net.cpp:454] conv3_3 <- conv3_2_conv3_2/relu_0_split_1
I0620 04:27:57.162801  3117 net.cpp:454] conv3_3 <- conv3_3_1x1_increase
I0620 04:27:57.162806  3117 net.cpp:411] conv3_3 -> conv3_3
I0620 04:27:57.162822  3117 net.cpp:150] Setting up conv3_3
I0620 04:27:57.162827  3117 net.cpp:157] Top shape: 3 512 60 60 (5529600)
I0620 04:27:57.162829  3117 net.cpp:165] Memory required for data: 2183670600
I0620 04:27:57.162833  3117 layer_factory.hpp:77] Creating layer conv3_3/relu
I0620 04:27:57.162838  3117 net.cpp:106] Creating Layer conv3_3/relu
I0620 04:27:57.162842  3117 net.cpp:454] conv3_3/relu <- conv3_3
I0620 04:27:57.162845  3117 net.cpp:397] conv3_3/relu -> conv3_3 (in-place)
I0620 04:27:57.162849  3117 net.cpp:150] Setting up conv3_3/relu
I0620 04:27:57.162854  3117 net.cpp:157] Top shape: 3 512 60 60 (5529600)
I0620 04:27:57.162856  3117 net.cpp:165] Memory required for data: 2205789000
I0620 04:27:57.162860  3117 layer_factory.hpp:77] Creating layer conv3_3_conv3_3/relu_0_split
I0620 04:27:57.162865  3117 net.cpp:106] Creating Layer conv3_3_conv3_3/relu_0_split
I0620 04:27:57.162868  3117 net.cpp:454] conv3_3_conv3_3/relu_0_split <- conv3_3
I0620 04:27:57.162873  3117 net.cpp:411] conv3_3_conv3_3/relu_0_split -> conv3_3_conv3_3/relu_0_split_0
I0620 04:27:57.162878  3117 net.cpp:411] conv3_3_conv3_3/relu_0_split -> conv3_3_conv3_3/relu_0_split_1
I0620 04:27:57.162899  3117 net.cpp:150] Setting up conv3_3_conv3_3/relu_0_split
I0620 04:27:57.162904  3117 net.cpp:157] Top shape: 3 512 60 60 (5529600)
I0620 04:27:57.162909  3117 net.cpp:157] Top shape: 3 512 60 60 (5529600)
I0620 04:27:57.162911  3117 net.cpp:165] Memory required for data: 2250025800
I0620 04:27:57.162915  3117 layer_factory.hpp:77] Creating layer conv3_4_1x1_reduce
I0620 04:27:57.162921  3117 net.cpp:106] Creating Layer conv3_4_1x1_reduce
I0620 04:27:57.162925  3117 net.cpp:454] conv3_4_1x1_reduce <- conv3_3_conv3_3/relu_0_split_0
I0620 04:27:57.162937  3117 net.cpp:411] conv3_4_1x1_reduce -> conv3_4_1x1_reduce
I0620 04:27:57.164433  3117 net.cpp:150] Setting up conv3_4_1x1_reduce
I0620 04:27:57.164441  3117 net.cpp:157] Top shape: 3 128 60 60 (1382400)
I0620 04:27:57.164444  3117 net.cpp:165] Memory required for data: 2255555400
I0620 04:27:57.164450  3117 layer_factory.hpp:77] Creating layer conv3_4_1x1_reduce/bn
I0620 04:27:57.164463  3117 net.cpp:106] Creating Layer conv3_4_1x1_reduce/bn
I0620 04:27:57.164465  3117 net.cpp:454] conv3_4_1x1_reduce/bn <- conv3_4_1x1_reduce
I0620 04:27:57.164471  3117 net.cpp:397] conv3_4_1x1_reduce/bn -> conv3_4_1x1_reduce (in-place)
I0620 04:27:57.164618  3117 net.cpp:150] Setting up conv3_4_1x1_reduce/bn
I0620 04:27:57.164624  3117 net.cpp:157] Top shape: 3 128 60 60 (1382400)
I0620 04:27:57.164628  3117 net.cpp:165] Memory required for data: 2261085000
I0620 04:27:57.164634  3117 layer_factory.hpp:77] Creating layer conv3_4_1x1_reduce/relu
I0620 04:27:57.164643  3117 net.cpp:106] Creating Layer conv3_4_1x1_reduce/relu
I0620 04:27:57.164645  3117 net.cpp:454] conv3_4_1x1_reduce/relu <- conv3_4_1x1_reduce
I0620 04:27:57.164649  3117 net.cpp:397] conv3_4_1x1_reduce/relu -> conv3_4_1x1_reduce (in-place)
I0620 04:27:57.164654  3117 net.cpp:150] Setting up conv3_4_1x1_reduce/relu
I0620 04:27:57.164659  3117 net.cpp:157] Top shape: 3 128 60 60 (1382400)
I0620 04:27:57.164661  3117 net.cpp:165] Memory required for data: 2266614600
I0620 04:27:57.164664  3117 layer_factory.hpp:77] Creating layer conv3_4_3x3
I0620 04:27:57.164670  3117 net.cpp:106] Creating Layer conv3_4_3x3
I0620 04:27:57.164674  3117 net.cpp:454] conv3_4_3x3 <- conv3_4_1x1_reduce
I0620 04:27:57.164680  3117 net.cpp:411] conv3_4_3x3 -> conv3_4_3x3
I0620 04:27:57.168143  3117 net.cpp:150] Setting up conv3_4_3x3
I0620 04:27:57.168174  3117 net.cpp:157] Top shape: 3 128 60 60 (1382400)
I0620 04:27:57.168179  3117 net.cpp:165] Memory required for data: 2272144200
I0620 04:27:57.168187  3117 layer_factory.hpp:77] Creating layer conv3_4_3x3/bn
I0620 04:27:57.168203  3117 net.cpp:106] Creating Layer conv3_4_3x3/bn
I0620 04:27:57.168208  3117 net.cpp:454] conv3_4_3x3/bn <- conv3_4_3x3
I0620 04:27:57.168216  3117 net.cpp:397] conv3_4_3x3/bn -> conv3_4_3x3 (in-place)
I0620 04:27:57.168370  3117 net.cpp:150] Setting up conv3_4_3x3/bn
I0620 04:27:57.168376  3117 net.cpp:157] Top shape: 3 128 60 60 (1382400)
I0620 04:27:57.168380  3117 net.cpp:165] Memory required for data: 2277673800
I0620 04:27:57.168385  3117 layer_factory.hpp:77] Creating layer conv3_4_3x3/relu
I0620 04:27:57.168391  3117 net.cpp:106] Creating Layer conv3_4_3x3/relu
I0620 04:27:57.168395  3117 net.cpp:454] conv3_4_3x3/relu <- conv3_4_3x3
I0620 04:27:57.168400  3117 net.cpp:397] conv3_4_3x3/relu -> conv3_4_3x3 (in-place)
I0620 04:27:57.168403  3117 net.cpp:150] Setting up conv3_4_3x3/relu
I0620 04:27:57.168408  3117 net.cpp:157] Top shape: 3 128 60 60 (1382400)
I0620 04:27:57.168411  3117 net.cpp:165] Memory required for data: 2283203400
I0620 04:27:57.168414  3117 layer_factory.hpp:77] Creating layer conv3_4_1x1_increase
I0620 04:27:57.168423  3117 net.cpp:106] Creating Layer conv3_4_1x1_increase
I0620 04:27:57.168427  3117 net.cpp:454] conv3_4_1x1_increase <- conv3_4_3x3
I0620 04:27:57.168434  3117 net.cpp:411] conv3_4_1x1_increase -> conv3_4_1x1_increase
I0620 04:27:57.169966  3117 net.cpp:150] Setting up conv3_4_1x1_increase
I0620 04:27:57.169973  3117 net.cpp:157] Top shape: 3 512 60 60 (5529600)
I0620 04:27:57.169976  3117 net.cpp:165] Memory required for data: 2305321800
I0620 04:27:57.169981  3117 layer_factory.hpp:77] Creating layer conv3_4_1x1_increase/bn
I0620 04:27:57.169987  3117 net.cpp:106] Creating Layer conv3_4_1x1_increase/bn
I0620 04:27:57.169991  3117 net.cpp:454] conv3_4_1x1_increase/bn <- conv3_4_1x1_increase
I0620 04:27:57.169996  3117 net.cpp:397] conv3_4_1x1_increase/bn -> conv3_4_1x1_increase (in-place)
I0620 04:27:57.170127  3117 net.cpp:150] Setting up conv3_4_1x1_increase/bn
I0620 04:27:57.170132  3117 net.cpp:157] Top shape: 3 512 60 60 (5529600)
I0620 04:27:57.170147  3117 net.cpp:165] Memory required for data: 2327440200
I0620 04:27:57.170168  3117 layer_factory.hpp:77] Creating layer conv3_4
I0620 04:27:57.170176  3117 net.cpp:106] Creating Layer conv3_4
I0620 04:27:57.170178  3117 net.cpp:454] conv3_4 <- conv3_3_conv3_3/relu_0_split_1
I0620 04:27:57.170183  3117 net.cpp:454] conv3_4 <- conv3_4_1x1_increase
I0620 04:27:57.170187  3117 net.cpp:411] conv3_4 -> conv3_4
I0620 04:27:57.170204  3117 net.cpp:150] Setting up conv3_4
I0620 04:27:57.170209  3117 net.cpp:157] Top shape: 3 512 60 60 (5529600)
I0620 04:27:57.170212  3117 net.cpp:165] Memory required for data: 2349558600
I0620 04:27:57.170215  3117 layer_factory.hpp:77] Creating layer conv3_4/relu
I0620 04:27:57.170222  3117 net.cpp:106] Creating Layer conv3_4/relu
I0620 04:27:57.170224  3117 net.cpp:454] conv3_4/relu <- conv3_4
I0620 04:27:57.170228  3117 net.cpp:397] conv3_4/relu -> conv3_4 (in-place)
I0620 04:27:57.170233  3117 net.cpp:150] Setting up conv3_4/relu
I0620 04:27:57.170238  3117 net.cpp:157] Top shape: 3 512 60 60 (5529600)
I0620 04:27:57.170240  3117 net.cpp:165] Memory required for data: 2371677000
I0620 04:27:57.185839  3117 layer_factory.hpp:77] Creating layer conv3_4_conv3_4/relu_0_split
I0620 04:27:57.185891  3117 net.cpp:106] Creating Layer conv3_4_conv3_4/relu_0_split
I0620 04:27:57.185902  3117 net.cpp:454] conv3_4_conv3_4/relu_0_split <- conv3_4
I0620 04:27:57.185928  3117 net.cpp:411] conv3_4_conv3_4/relu_0_split -> conv3_4_conv3_4/relu_0_split_0
I0620 04:27:57.185945  3117 net.cpp:411] conv3_4_conv3_4/relu_0_split -> conv3_4_conv3_4/relu_0_split_1
I0620 04:27:57.186112  3117 net.cpp:150] Setting up conv3_4_conv3_4/relu_0_split
I0620 04:27:57.186130  3117 net.cpp:157] Top shape: 3 512 60 60 (5529600)
I0620 04:27:57.186134  3117 net.cpp:157] Top shape: 3 512 60 60 (5529600)
I0620 04:27:57.186138  3117 net.cpp:165] Memory required for data: 2415913800
I0620 04:27:57.186143  3117 layer_factory.hpp:77] Creating layer conv4_1_1x1_reduce
I0620 04:27:57.186173  3117 net.cpp:106] Creating Layer conv4_1_1x1_reduce
I0620 04:27:57.186178  3117 net.cpp:454] conv4_1_1x1_reduce <- conv3_4_conv3_4/relu_0_split_0
I0620 04:27:57.186185  3117 net.cpp:411] conv4_1_1x1_reduce -> conv4_1_1x1_reduce
I0620 04:27:57.189539  3117 net.cpp:150] Setting up conv4_1_1x1_reduce
I0620 04:27:57.189566  3117 net.cpp:157] Top shape: 3 256 60 60 (2764800)
I0620 04:27:57.189574  3117 net.cpp:165] Memory required for data: 2426973000
I0620 04:27:57.189580  3117 layer_factory.hpp:77] Creating layer conv4_1_1x1_reduce/bn
I0620 04:27:57.189591  3117 net.cpp:106] Creating Layer conv4_1_1x1_reduce/bn
I0620 04:27:57.189596  3117 net.cpp:454] conv4_1_1x1_reduce/bn <- conv4_1_1x1_reduce
I0620 04:27:57.189602  3117 net.cpp:397] conv4_1_1x1_reduce/bn -> conv4_1_1x1_reduce (in-place)
I0620 04:27:57.189743  3117 net.cpp:150] Setting up conv4_1_1x1_reduce/bn
I0620 04:27:57.189749  3117 net.cpp:157] Top shape: 3 256 60 60 (2764800)
I0620 04:27:57.189766  3117 net.cpp:165] Memory required for data: 2438032200
I0620 04:27:57.189774  3117 layer_factory.hpp:77] Creating layer conv4_1_1x1_reduce/relu
I0620 04:27:57.189784  3117 net.cpp:106] Creating Layer conv4_1_1x1_reduce/relu
I0620 04:27:57.189786  3117 net.cpp:454] conv4_1_1x1_reduce/relu <- conv4_1_1x1_reduce
I0620 04:27:57.189790  3117 net.cpp:397] conv4_1_1x1_reduce/relu -> conv4_1_1x1_reduce (in-place)
I0620 04:27:57.189795  3117 net.cpp:150] Setting up conv4_1_1x1_reduce/relu
I0620 04:27:57.189802  3117 net.cpp:157] Top shape: 3 256 60 60 (2764800)
I0620 04:27:57.189810  3117 net.cpp:165] Memory required for data: 2449091400
I0620 04:27:57.189816  3117 layer_factory.hpp:77] Creating layer conv4_1_3x3
I0620 04:27:57.189826  3117 net.cpp:106] Creating Layer conv4_1_3x3
I0620 04:27:57.189829  3117 net.cpp:454] conv4_1_3x3 <- conv4_1_1x1_reduce
I0620 04:27:57.189837  3117 net.cpp:411] conv4_1_3x3 -> conv4_1_3x3
I0620 04:27:57.203712  3117 net.cpp:150] Setting up conv4_1_3x3
I0620 04:27:57.203754  3117 net.cpp:157] Top shape: 3 256 60 60 (2764800)
I0620 04:27:57.203758  3117 net.cpp:165] Memory required for data: 2460150600
I0620 04:27:57.203807  3117 layer_factory.hpp:77] Creating layer conv4_1_3x3/bn
I0620 04:27:57.203826  3117 net.cpp:106] Creating Layer conv4_1_3x3/bn
I0620 04:27:57.203840  3117 net.cpp:454] conv4_1_3x3/bn <- conv4_1_3x3
I0620 04:27:57.203852  3117 net.cpp:397] conv4_1_3x3/bn -> conv4_1_3x3 (in-place)
I0620 04:27:57.204068  3117 net.cpp:150] Setting up conv4_1_3x3/bn
I0620 04:27:57.204077  3117 net.cpp:157] Top shape: 3 256 60 60 (2764800)
I0620 04:27:57.204078  3117 net.cpp:165] Memory required for data: 2471209800
I0620 04:27:57.204085  3117 layer_factory.hpp:77] Creating layer conv4_1_3x3/relu
I0620 04:27:57.204095  3117 net.cpp:106] Creating Layer conv4_1_3x3/relu
I0620 04:27:57.204098  3117 net.cpp:454] conv4_1_3x3/relu <- conv4_1_3x3
I0620 04:27:57.204102  3117 net.cpp:397] conv4_1_3x3/relu -> conv4_1_3x3 (in-place)
I0620 04:27:57.204110  3117 net.cpp:150] Setting up conv4_1_3x3/relu
I0620 04:27:57.204113  3117 net.cpp:157] Top shape: 3 256 60 60 (2764800)
I0620 04:27:57.204115  3117 net.cpp:165] Memory required for data: 2482269000
I0620 04:27:57.204118  3117 layer_factory.hpp:77] Creating layer conv4_1_1x1_increase
I0620 04:27:57.204128  3117 net.cpp:106] Creating Layer conv4_1_1x1_increase
I0620 04:27:57.204130  3117 net.cpp:454] conv4_1_1x1_increase <- conv4_1_3x3
I0620 04:27:57.204134  3117 net.cpp:411] conv4_1_1x1_increase -> conv4_1_1x1_increase
I0620 04:27:57.211470  3117 net.cpp:150] Setting up conv4_1_1x1_increase
I0620 04:27:57.211549  3117 net.cpp:157] Top shape: 3 1024 60 60 (11059200)
I0620 04:27:57.211552  3117 net.cpp:165] Memory required for data: 2526505800
I0620 04:27:57.211575  3117 layer_factory.hpp:77] Creating layer conv4_1_1x1_increase/bn
I0620 04:27:57.211604  3117 net.cpp:106] Creating Layer conv4_1_1x1_increase/bn
I0620 04:27:57.211612  3117 net.cpp:454] conv4_1_1x1_increase/bn <- conv4_1_1x1_increase
I0620 04:27:57.211624  3117 net.cpp:397] conv4_1_1x1_increase/bn -> conv4_1_1x1_increase (in-place)
I0620 04:27:57.211923  3117 net.cpp:150] Setting up conv4_1_1x1_increase/bn
I0620 04:27:57.211932  3117 net.cpp:157] Top shape: 3 1024 60 60 (11059200)
I0620 04:27:57.211936  3117 net.cpp:165] Memory required for data: 2570742600
I0620 04:27:57.211943  3117 layer_factory.hpp:77] Creating layer conv4_1_1x1_proj
I0620 04:27:57.211958  3117 net.cpp:106] Creating Layer conv4_1_1x1_proj
I0620 04:27:57.211963  3117 net.cpp:454] conv4_1_1x1_proj <- conv3_4_conv3_4/relu_0_split_1
I0620 04:27:57.211971  3117 net.cpp:411] conv4_1_1x1_proj -> conv4_1_1x1_proj
I0620 04:27:57.224405  3117 net.cpp:150] Setting up conv4_1_1x1_proj
I0620 04:27:57.224431  3117 net.cpp:157] Top shape: 3 1024 60 60 (11059200)
I0620 04:27:57.224433  3117 net.cpp:165] Memory required for data: 2614979400
I0620 04:27:57.224443  3117 layer_factory.hpp:77] Creating layer conv4_1_1x1_proj/bn
I0620 04:27:57.224465  3117 net.cpp:106] Creating Layer conv4_1_1x1_proj/bn
I0620 04:27:57.224481  3117 net.cpp:454] conv4_1_1x1_proj/bn <- conv4_1_1x1_proj
I0620 04:27:57.224493  3117 net.cpp:397] conv4_1_1x1_proj/bn -> conv4_1_1x1_proj (in-place)
I0620 04:27:57.224719  3117 net.cpp:150] Setting up conv4_1_1x1_proj/bn
I0620 04:27:57.224725  3117 net.cpp:157] Top shape: 3 1024 60 60 (11059200)
I0620 04:27:57.224726  3117 net.cpp:165] Memory required for data: 2659216200
I0620 04:27:57.224731  3117 layer_factory.hpp:77] Creating layer conv4_1
I0620 04:27:57.224736  3117 net.cpp:106] Creating Layer conv4_1
I0620 04:27:57.224738  3117 net.cpp:454] conv4_1 <- conv4_1_1x1_proj
I0620 04:27:57.224741  3117 net.cpp:454] conv4_1 <- conv4_1_1x1_increase
I0620 04:27:57.224745  3117 net.cpp:411] conv4_1 -> conv4_1
I0620 04:27:57.224759  3117 net.cpp:150] Setting up conv4_1
I0620 04:27:57.224766  3117 net.cpp:157] Top shape: 3 1024 60 60 (11059200)
I0620 04:27:57.224768  3117 net.cpp:165] Memory required for data: 2703453000
I0620 04:27:57.224771  3117 layer_factory.hpp:77] Creating layer conv4_1/relu
I0620 04:27:57.224776  3117 net.cpp:106] Creating Layer conv4_1/relu
I0620 04:27:57.224778  3117 net.cpp:454] conv4_1/relu <- conv4_1
I0620 04:27:57.224804  3117 net.cpp:397] conv4_1/relu -> conv4_1 (in-place)
I0620 04:27:57.224812  3117 net.cpp:150] Setting up conv4_1/relu
I0620 04:27:57.224817  3117 net.cpp:157] Top shape: 3 1024 60 60 (11059200)
I0620 04:27:57.224820  3117 net.cpp:165] Memory required for data: 2747689800
I0620 04:27:57.224825  3117 layer_factory.hpp:77] Creating layer conv4_1_conv4_1/relu_0_split
I0620 04:27:57.224831  3117 net.cpp:106] Creating Layer conv4_1_conv4_1/relu_0_split
I0620 04:27:57.224835  3117 net.cpp:454] conv4_1_conv4_1/relu_0_split <- conv4_1
I0620 04:27:57.224841  3117 net.cpp:411] conv4_1_conv4_1/relu_0_split -> conv4_1_conv4_1/relu_0_split_0
I0620 04:27:57.224848  3117 net.cpp:411] conv4_1_conv4_1/relu_0_split -> conv4_1_conv4_1/relu_0_split_1
I0620 04:27:57.224879  3117 net.cpp:150] Setting up conv4_1_conv4_1/relu_0_split
I0620 04:27:57.224884  3117 net.cpp:157] Top shape: 3 1024 60 60 (11059200)
I0620 04:27:57.224889  3117 net.cpp:157] Top shape: 3 1024 60 60 (11059200)
I0620 04:27:57.224891  3117 net.cpp:165] Memory required for data: 2836163400
I0620 04:27:57.224896  3117 layer_factory.hpp:77] Creating layer conv4_2_1x1_reduce
I0620 04:27:57.224906  3117 net.cpp:106] Creating Layer conv4_2_1x1_reduce
I0620 04:27:57.224910  3117 net.cpp:454] conv4_2_1x1_reduce <- conv4_1_conv4_1/relu_0_split_0
I0620 04:27:57.224918  3117 net.cpp:411] conv4_2_1x1_reduce -> conv4_2_1x1_reduce
I0620 04:27:57.232506  3117 net.cpp:150] Setting up conv4_2_1x1_reduce
I0620 04:27:57.232571  3117 net.cpp:157] Top shape: 3 256 60 60 (2764800)
I0620 04:27:57.232578  3117 net.cpp:165] Memory required for data: 2847222600
I0620 04:27:57.232592  3117 layer_factory.hpp:77] Creating layer conv4_2_1x1_reduce/bn
I0620 04:27:57.232617  3117 net.cpp:106] Creating Layer conv4_2_1x1_reduce/bn
I0620 04:27:57.232625  3117 net.cpp:454] conv4_2_1x1_reduce/bn <- conv4_2_1x1_reduce
I0620 04:27:57.232635  3117 net.cpp:397] conv4_2_1x1_reduce/bn -> conv4_2_1x1_reduce (in-place)
I0620 04:27:57.232894  3117 net.cpp:150] Setting up conv4_2_1x1_reduce/bn
I0620 04:27:57.232906  3117 net.cpp:157] Top shape: 3 256 60 60 (2764800)
I0620 04:27:57.232910  3117 net.cpp:165] Memory required for data: 2858281800
I0620 04:27:57.232920  3117 layer_factory.hpp:77] Creating layer conv4_2_1x1_reduce/relu
I0620 04:27:57.232931  3117 net.cpp:106] Creating Layer conv4_2_1x1_reduce/relu
I0620 04:27:57.232935  3117 net.cpp:454] conv4_2_1x1_reduce/relu <- conv4_2_1x1_reduce
I0620 04:27:57.232941  3117 net.cpp:397] conv4_2_1x1_reduce/relu -> conv4_2_1x1_reduce (in-place)
I0620 04:27:57.232949  3117 net.cpp:150] Setting up conv4_2_1x1_reduce/relu
I0620 04:27:57.232954  3117 net.cpp:157] Top shape: 3 256 60 60 (2764800)
I0620 04:27:57.232959  3117 net.cpp:165] Memory required for data: 2869341000
I0620 04:27:57.232962  3117 layer_factory.hpp:77] Creating layer conv4_2_3x3
I0620 04:27:57.233000  3117 net.cpp:106] Creating Layer conv4_2_3x3
I0620 04:27:57.233005  3117 net.cpp:454] conv4_2_3x3 <- conv4_2_1x1_reduce
I0620 04:27:57.233012  3117 net.cpp:411] conv4_2_3x3 -> conv4_2_3x3
I0620 04:27:57.250124  3117 net.cpp:150] Setting up conv4_2_3x3
I0620 04:27:57.250169  3117 net.cpp:157] Top shape: 3 256 60 60 (2764800)
I0620 04:27:57.250178  3117 net.cpp:165] Memory required for data: 2880400200
I0620 04:27:57.250191  3117 layer_factory.hpp:77] Creating layer conv4_2_3x3/bn
I0620 04:27:57.250222  3117 net.cpp:106] Creating Layer conv4_2_3x3/bn
I0620 04:27:57.250236  3117 net.cpp:454] conv4_2_3x3/bn <- conv4_2_3x3
I0620 04:27:57.250247  3117 net.cpp:397] conv4_2_3x3/bn -> conv4_2_3x3 (in-place)
I0620 04:27:57.250450  3117 net.cpp:150] Setting up conv4_2_3x3/bn
I0620 04:27:57.250458  3117 net.cpp:157] Top shape: 3 256 60 60 (2764800)
I0620 04:27:57.250461  3117 net.cpp:165] Memory required for data: 2891459400
I0620 04:27:57.250471  3117 layer_factory.hpp:77] Creating layer conv4_2_3x3/relu
I0620 04:27:57.250479  3117 net.cpp:106] Creating Layer conv4_2_3x3/relu
I0620 04:27:57.250485  3117 net.cpp:454] conv4_2_3x3/relu <- conv4_2_3x3
I0620 04:27:57.250491  3117 net.cpp:397] conv4_2_3x3/relu -> conv4_2_3x3 (in-place)
I0620 04:27:57.250525  3117 net.cpp:150] Setting up conv4_2_3x3/relu
I0620 04:27:57.250531  3117 net.cpp:157] Top shape: 3 256 60 60 (2764800)
I0620 04:27:57.250535  3117 net.cpp:165] Memory required for data: 2902518600
I0620 04:27:57.250540  3117 layer_factory.hpp:77] Creating layer conv4_2_1x1_increase
I0620 04:27:57.250553  3117 net.cpp:106] Creating Layer conv4_2_1x1_increase
I0620 04:27:57.250558  3117 net.cpp:454] conv4_2_1x1_increase <- conv4_2_3x3
I0620 04:27:57.250566  3117 net.cpp:411] conv4_2_1x1_increase -> conv4_2_1x1_increase
I0620 04:27:57.257225  3117 net.cpp:150] Setting up conv4_2_1x1_increase
I0620 04:27:57.257247  3117 net.cpp:157] Top shape: 3 1024 60 60 (11059200)
I0620 04:27:57.257251  3117 net.cpp:165] Memory required for data: 2946755400
I0620 04:27:57.257259  3117 layer_factory.hpp:77] Creating layer conv4_2_1x1_increase/bn
I0620 04:27:57.257279  3117 net.cpp:106] Creating Layer conv4_2_1x1_increase/bn
I0620 04:27:57.257289  3117 net.cpp:454] conv4_2_1x1_increase/bn <- conv4_2_1x1_increase
I0620 04:27:57.257299  3117 net.cpp:397] conv4_2_1x1_increase/bn -> conv4_2_1x1_increase (in-place)
I0620 04:27:57.257484  3117 net.cpp:150] Setting up conv4_2_1x1_increase/bn
I0620 04:27:57.257490  3117 net.cpp:157] Top shape: 3 1024 60 60 (11059200)
I0620 04:27:57.257493  3117 net.cpp:165] Memory required for data: 2990992200
I0620 04:27:57.257499  3117 layer_factory.hpp:77] Creating layer conv4_2
I0620 04:27:57.257505  3117 net.cpp:106] Creating Layer conv4_2
I0620 04:27:57.257508  3117 net.cpp:454] conv4_2 <- conv4_1_conv4_1/relu_0_split_1
I0620 04:27:57.257511  3117 net.cpp:454] conv4_2 <- conv4_2_1x1_increase
I0620 04:27:57.257515  3117 net.cpp:411] conv4_2 -> conv4_2
I0620 04:27:57.257537  3117 net.cpp:150] Setting up conv4_2
I0620 04:27:57.257544  3117 net.cpp:157] Top shape: 3 1024 60 60 (11059200)
I0620 04:27:57.257546  3117 net.cpp:165] Memory required for data: 3035229000
I0620 04:27:57.257549  3117 layer_factory.hpp:77] Creating layer conv4_2/relu
I0620 04:27:57.257556  3117 net.cpp:106] Creating Layer conv4_2/relu
I0620 04:27:57.257558  3117 net.cpp:454] conv4_2/relu <- conv4_2
I0620 04:27:57.257561  3117 net.cpp:397] conv4_2/relu -> conv4_2 (in-place)
I0620 04:27:57.257565  3117 net.cpp:150] Setting up conv4_2/relu
I0620 04:27:57.257568  3117 net.cpp:157] Top shape: 3 1024 60 60 (11059200)
I0620 04:27:57.257570  3117 net.cpp:165] Memory required for data: 3079465800
I0620 04:27:57.257575  3117 layer_factory.hpp:77] Creating layer conv4_2_conv4_2/relu_0_split
I0620 04:27:57.257586  3117 net.cpp:106] Creating Layer conv4_2_conv4_2/relu_0_split
I0620 04:27:57.257589  3117 net.cpp:454] conv4_2_conv4_2/relu_0_split <- conv4_2
I0620 04:27:57.257596  3117 net.cpp:411] conv4_2_conv4_2/relu_0_split -> conv4_2_conv4_2/relu_0_split_0
I0620 04:27:57.257616  3117 net.cpp:411] conv4_2_conv4_2/relu_0_split -> conv4_2_conv4_2/relu_0_split_1
I0620 04:27:57.257652  3117 net.cpp:150] Setting up conv4_2_conv4_2/relu_0_split
I0620 04:27:57.257658  3117 net.cpp:157] Top shape: 3 1024 60 60 (11059200)
I0620 04:27:57.257663  3117 net.cpp:157] Top shape: 3 1024 60 60 (11059200)
I0620 04:27:57.257668  3117 net.cpp:165] Memory required for data: 3167939400
I0620 04:27:57.257671  3117 layer_factory.hpp:77] Creating layer conv4_3_1x1_reduce
I0620 04:27:57.257689  3117 net.cpp:106] Creating Layer conv4_3_1x1_reduce
I0620 04:27:57.257694  3117 net.cpp:454] conv4_3_1x1_reduce <- conv4_2_conv4_2/relu_0_split_0
I0620 04:27:57.257697  3117 net.cpp:411] conv4_3_1x1_reduce -> conv4_3_1x1_reduce
I0620 04:27:57.263532  3117 net.cpp:150] Setting up conv4_3_1x1_reduce
I0620 04:27:57.263558  3117 net.cpp:157] Top shape: 3 256 60 60 (2764800)
I0620 04:27:57.263562  3117 net.cpp:165] Memory required for data: 3178998600
I0620 04:27:57.263573  3117 layer_factory.hpp:77] Creating layer conv4_3_1x1_reduce/bn
I0620 04:27:57.263594  3117 net.cpp:106] Creating Layer conv4_3_1x1_reduce/bn
I0620 04:27:57.263602  3117 net.cpp:454] conv4_3_1x1_reduce/bn <- conv4_3_1x1_reduce
I0620 04:27:57.263636  3117 net.cpp:397] conv4_3_1x1_reduce/bn -> conv4_3_1x1_reduce (in-place)
I0620 04:27:57.263794  3117 net.cpp:150] Setting up conv4_3_1x1_reduce/bn
I0620 04:27:57.263799  3117 net.cpp:157] Top shape: 3 256 60 60 (2764800)
I0620 04:27:57.263803  3117 net.cpp:165] Memory required for data: 3190057800
I0620 04:27:57.263808  3117 layer_factory.hpp:77] Creating layer conv4_3_1x1_reduce/relu
I0620 04:27:57.263813  3117 net.cpp:106] Creating Layer conv4_3_1x1_reduce/relu
I0620 04:27:57.263816  3117 net.cpp:454] conv4_3_1x1_reduce/relu <- conv4_3_1x1_reduce
I0620 04:27:57.263819  3117 net.cpp:397] conv4_3_1x1_reduce/relu -> conv4_3_1x1_reduce (in-place)
I0620 04:27:57.263823  3117 net.cpp:150] Setting up conv4_3_1x1_reduce/relu
I0620 04:27:57.263828  3117 net.cpp:157] Top shape: 3 256 60 60 (2764800)
I0620 04:27:57.263829  3117 net.cpp:165] Memory required for data: 3201117000
I0620 04:27:57.263833  3117 layer_factory.hpp:77] Creating layer conv4_3_3x3
I0620 04:27:57.263839  3117 net.cpp:106] Creating Layer conv4_3_3x3
I0620 04:27:57.263840  3117 net.cpp:454] conv4_3_3x3 <- conv4_3_1x1_reduce
I0620 04:27:57.263845  3117 net.cpp:411] conv4_3_3x3 -> conv4_3_3x3
I0620 04:27:57.277736  3117 net.cpp:150] Setting up conv4_3_3x3
I0620 04:27:57.277771  3117 net.cpp:157] Top shape: 3 256 60 60 (2764800)
I0620 04:27:57.277775  3117 net.cpp:165] Memory required for data: 3212176200
I0620 04:27:57.277782  3117 layer_factory.hpp:77] Creating layer conv4_3_3x3/bn
I0620 04:27:57.277793  3117 net.cpp:106] Creating Layer conv4_3_3x3/bn
I0620 04:27:57.277799  3117 net.cpp:454] conv4_3_3x3/bn <- conv4_3_3x3
I0620 04:27:57.277807  3117 net.cpp:397] conv4_3_3x3/bn -> conv4_3_3x3 (in-place)
I0620 04:27:57.277956  3117 net.cpp:150] Setting up conv4_3_3x3/bn
I0620 04:27:57.277962  3117 net.cpp:157] Top shape: 3 256 60 60 (2764800)
I0620 04:27:57.277964  3117 net.cpp:165] Memory required for data: 3223235400
I0620 04:27:57.277969  3117 layer_factory.hpp:77] Creating layer conv4_3_3x3/relu
I0620 04:27:57.277973  3117 net.cpp:106] Creating Layer conv4_3_3x3/relu
I0620 04:27:57.277976  3117 net.cpp:454] conv4_3_3x3/relu <- conv4_3_3x3
I0620 04:27:57.277979  3117 net.cpp:397] conv4_3_3x3/relu -> conv4_3_3x3 (in-place)
I0620 04:27:57.277983  3117 net.cpp:150] Setting up conv4_3_3x3/relu
I0620 04:27:57.277987  3117 net.cpp:157] Top shape: 3 256 60 60 (2764800)
I0620 04:27:57.277989  3117 net.cpp:165] Memory required for data: 3234294600
I0620 04:27:57.277992  3117 layer_factory.hpp:77] Creating layer conv4_3_1x1_increase
I0620 04:27:57.277999  3117 net.cpp:106] Creating Layer conv4_3_1x1_increase
I0620 04:27:57.278004  3117 net.cpp:454] conv4_3_1x1_increase <- conv4_3_3x3
I0620 04:27:57.278010  3117 net.cpp:411] conv4_3_1x1_increase -> conv4_3_1x1_increase
I0620 04:27:57.285441  3117 net.cpp:150] Setting up conv4_3_1x1_increase
I0620 04:27:57.285508  3117 net.cpp:157] Top shape: 3 1024 60 60 (11059200)
I0620 04:27:57.285514  3117 net.cpp:165] Memory required for data: 3278531400
I0620 04:27:57.285531  3117 layer_factory.hpp:77] Creating layer conv4_3_1x1_increase/bn
I0620 04:27:57.285554  3117 net.cpp:106] Creating Layer conv4_3_1x1_increase/bn
I0620 04:27:57.285563  3117 net.cpp:454] conv4_3_1x1_increase/bn <- conv4_3_1x1_increase
I0620 04:27:57.285574  3117 net.cpp:397] conv4_3_1x1_increase/bn -> conv4_3_1x1_increase (in-place)
I0620 04:27:57.285831  3117 net.cpp:150] Setting up conv4_3_1x1_increase/bn
I0620 04:27:57.285840  3117 net.cpp:157] Top shape: 3 1024 60 60 (11059200)
I0620 04:27:57.285845  3117 net.cpp:165] Memory required for data: 3322768200
I0620 04:27:57.285853  3117 layer_factory.hpp:77] Creating layer conv4_3
I0620 04:27:57.285862  3117 net.cpp:106] Creating Layer conv4_3
I0620 04:27:57.285869  3117 net.cpp:454] conv4_3 <- conv4_2_conv4_2/relu_0_split_1
I0620 04:27:57.285876  3117 net.cpp:454] conv4_3 <- conv4_3_1x1_increase
I0620 04:27:57.285884  3117 net.cpp:411] conv4_3 -> conv4_3
I0620 04:27:57.285909  3117 net.cpp:150] Setting up conv4_3
I0620 04:27:57.285917  3117 net.cpp:157] Top shape: 3 1024 60 60 (11059200)
I0620 04:27:57.285961  3117 net.cpp:165] Memory required for data: 3367005000
I0620 04:27:57.285966  3117 layer_factory.hpp:77] Creating layer conv4_3/relu
I0620 04:27:57.285975  3117 net.cpp:106] Creating Layer conv4_3/relu
I0620 04:27:57.285981  3117 net.cpp:454] conv4_3/relu <- conv4_3
I0620 04:27:57.285987  3117 net.cpp:397] conv4_3/relu -> conv4_3 (in-place)
I0620 04:27:57.285995  3117 net.cpp:150] Setting up conv4_3/relu
I0620 04:27:57.286000  3117 net.cpp:157] Top shape: 3 1024 60 60 (11059200)
I0620 04:27:57.286005  3117 net.cpp:165] Memory required for data: 3411241800
I0620 04:27:57.286008  3117 layer_factory.hpp:77] Creating layer conv4_3_conv4_3/relu_0_split
I0620 04:27:57.286015  3117 net.cpp:106] Creating Layer conv4_3_conv4_3/relu_0_split
I0620 04:27:57.286020  3117 net.cpp:454] conv4_3_conv4_3/relu_0_split <- conv4_3
I0620 04:27:57.286027  3117 net.cpp:411] conv4_3_conv4_3/relu_0_split -> conv4_3_conv4_3/relu_0_split_0
I0620 04:27:57.286036  3117 net.cpp:411] conv4_3_conv4_3/relu_0_split -> conv4_3_conv4_3/relu_0_split_1
I0620 04:27:57.286068  3117 net.cpp:150] Setting up conv4_3_conv4_3/relu_0_split
I0620 04:27:57.286075  3117 net.cpp:157] Top shape: 3 1024 60 60 (11059200)
I0620 04:27:57.286080  3117 net.cpp:157] Top shape: 3 1024 60 60 (11059200)
I0620 04:27:57.286084  3117 net.cpp:165] Memory required for data: 3499715400
I0620 04:27:57.286088  3117 layer_factory.hpp:77] Creating layer conv4_4_1x1_reduce
I0620 04:27:57.286131  3117 net.cpp:106] Creating Layer conv4_4_1x1_reduce
I0620 04:27:57.286137  3117 net.cpp:454] conv4_4_1x1_reduce <- conv4_3_conv4_3/relu_0_split_0
I0620 04:27:57.286144  3117 net.cpp:411] conv4_4_1x1_reduce -> conv4_4_1x1_reduce
I0620 04:27:57.294631  3117 net.cpp:150] Setting up conv4_4_1x1_reduce
I0620 04:27:57.294698  3117 net.cpp:157] Top shape: 3 256 60 60 (2764800)
I0620 04:27:57.294703  3117 net.cpp:165] Memory required for data: 3510774600
I0620 04:27:57.294720  3117 layer_factory.hpp:77] Creating layer conv4_4_1x1_reduce/bn
I0620 04:27:57.294739  3117 net.cpp:106] Creating Layer conv4_4_1x1_reduce/bn
I0620 04:27:57.294749  3117 net.cpp:454] conv4_4_1x1_reduce/bn <- conv4_4_1x1_reduce
I0620 04:27:57.294762  3117 net.cpp:397] conv4_4_1x1_reduce/bn -> conv4_4_1x1_reduce (in-place)
I0620 04:27:57.295016  3117 net.cpp:150] Setting up conv4_4_1x1_reduce/bn
I0620 04:27:57.295023  3117 net.cpp:157] Top shape: 3 256 60 60 (2764800)
I0620 04:27:57.295028  3117 net.cpp:165] Memory required for data: 3521833800
I0620 04:27:57.295037  3117 layer_factory.hpp:77] Creating layer conv4_4_1x1_reduce/relu
I0620 04:27:57.295048  3117 net.cpp:106] Creating Layer conv4_4_1x1_reduce/relu
I0620 04:27:57.295053  3117 net.cpp:454] conv4_4_1x1_reduce/relu <- conv4_4_1x1_reduce
I0620 04:27:57.295059  3117 net.cpp:397] conv4_4_1x1_reduce/relu -> conv4_4_1x1_reduce (in-place)
I0620 04:27:57.295066  3117 net.cpp:150] Setting up conv4_4_1x1_reduce/relu
I0620 04:27:57.295071  3117 net.cpp:157] Top shape: 3 256 60 60 (2764800)
I0620 04:27:57.295075  3117 net.cpp:165] Memory required for data: 3532893000
I0620 04:27:57.295080  3117 layer_factory.hpp:77] Creating layer conv4_4_3x3
I0620 04:27:57.295091  3117 net.cpp:106] Creating Layer conv4_4_3x3
I0620 04:27:57.295096  3117 net.cpp:454] conv4_4_3x3 <- conv4_4_1x1_reduce
I0620 04:27:57.295102  3117 net.cpp:411] conv4_4_3x3 -> conv4_4_3x3
I0620 04:27:57.309617  3117 net.cpp:150] Setting up conv4_4_3x3
I0620 04:27:57.309639  3117 net.cpp:157] Top shape: 3 256 60 60 (2764800)
I0620 04:27:57.309643  3117 net.cpp:165] Memory required for data: 3543952200
I0620 04:27:57.309648  3117 layer_factory.hpp:77] Creating layer conv4_4_3x3/bn
I0620 04:27:57.309660  3117 net.cpp:106] Creating Layer conv4_4_3x3/bn
I0620 04:27:57.309669  3117 net.cpp:454] conv4_4_3x3/bn <- conv4_4_3x3
I0620 04:27:57.309679  3117 net.cpp:397] conv4_4_3x3/bn -> conv4_4_3x3 (in-place)
I0620 04:27:57.309847  3117 net.cpp:150] Setting up conv4_4_3x3/bn
I0620 04:27:57.309852  3117 net.cpp:157] Top shape: 3 256 60 60 (2764800)
I0620 04:27:57.309854  3117 net.cpp:165] Memory required for data: 3555011400
I0620 04:27:57.309875  3117 layer_factory.hpp:77] Creating layer conv4_4_3x3/relu
I0620 04:27:57.309880  3117 net.cpp:106] Creating Layer conv4_4_3x3/relu
I0620 04:27:57.309883  3117 net.cpp:454] conv4_4_3x3/relu <- conv4_4_3x3
I0620 04:27:57.309888  3117 net.cpp:397] conv4_4_3x3/relu -> conv4_4_3x3 (in-place)
I0620 04:27:57.309895  3117 net.cpp:150] Setting up conv4_4_3x3/relu
I0620 04:27:57.309900  3117 net.cpp:157] Top shape: 3 256 60 60 (2764800)
I0620 04:27:57.309903  3117 net.cpp:165] Memory required for data: 3566070600
I0620 04:27:57.309906  3117 layer_factory.hpp:77] Creating layer conv4_4_1x1_increase
I0620 04:27:57.309912  3117 net.cpp:106] Creating Layer conv4_4_1x1_increase
I0620 04:27:57.309914  3117 net.cpp:454] conv4_4_1x1_increase <- conv4_4_3x3
I0620 04:27:57.309919  3117 net.cpp:411] conv4_4_1x1_increase -> conv4_4_1x1_increase
I0620 04:27:57.316231  3117 net.cpp:150] Setting up conv4_4_1x1_increase
I0620 04:27:57.316239  3117 net.cpp:157] Top shape: 3 1024 60 60 (11059200)
I0620 04:27:57.316242  3117 net.cpp:165] Memory required for data: 3610307400
I0620 04:27:57.316246  3117 layer_factory.hpp:77] Creating layer conv4_4_1x1_increase/bn
I0620 04:27:57.316251  3117 net.cpp:106] Creating Layer conv4_4_1x1_increase/bn
I0620 04:27:57.316254  3117 net.cpp:454] conv4_4_1x1_increase/bn <- conv4_4_1x1_increase
I0620 04:27:57.316257  3117 net.cpp:397] conv4_4_1x1_increase/bn -> conv4_4_1x1_increase (in-place)
I0620 04:27:57.316406  3117 net.cpp:150] Setting up conv4_4_1x1_increase/bn
I0620 04:27:57.316411  3117 net.cpp:157] Top shape: 3 1024 60 60 (11059200)
I0620 04:27:57.316414  3117 net.cpp:165] Memory required for data: 3654544200
I0620 04:27:57.316419  3117 layer_factory.hpp:77] Creating layer conv4_4
I0620 04:27:57.316423  3117 net.cpp:106] Creating Layer conv4_4
I0620 04:27:57.316426  3117 net.cpp:454] conv4_4 <- conv4_3_conv4_3/relu_0_split_1
I0620 04:27:57.316428  3117 net.cpp:454] conv4_4 <- conv4_4_1x1_increase
I0620 04:27:57.316431  3117 net.cpp:411] conv4_4 -> conv4_4
I0620 04:27:57.316448  3117 net.cpp:150] Setting up conv4_4
I0620 04:27:57.316453  3117 net.cpp:157] Top shape: 3 1024 60 60 (11059200)
I0620 04:27:57.316457  3117 net.cpp:165] Memory required for data: 3698781000
I0620 04:27:57.316462  3117 layer_factory.hpp:77] Creating layer conv4_4/relu
I0620 04:27:57.316471  3117 net.cpp:106] Creating Layer conv4_4/relu
I0620 04:27:57.316475  3117 net.cpp:454] conv4_4/relu <- conv4_4
I0620 04:27:57.316480  3117 net.cpp:397] conv4_4/relu -> conv4_4 (in-place)
I0620 04:27:57.316484  3117 net.cpp:150] Setting up conv4_4/relu
I0620 04:27:57.316488  3117 net.cpp:157] Top shape: 3 1024 60 60 (11059200)
I0620 04:27:57.316489  3117 net.cpp:165] Memory required for data: 3743017800
I0620 04:27:57.316491  3117 layer_factory.hpp:77] Creating layer conv4_4_conv4_4/relu_0_split
I0620 04:27:57.316495  3117 net.cpp:106] Creating Layer conv4_4_conv4_4/relu_0_split
I0620 04:27:57.316498  3117 net.cpp:454] conv4_4_conv4_4/relu_0_split <- conv4_4
I0620 04:27:57.316500  3117 net.cpp:411] conv4_4_conv4_4/relu_0_split -> conv4_4_conv4_4/relu_0_split_0
I0620 04:27:57.316504  3117 net.cpp:411] conv4_4_conv4_4/relu_0_split -> conv4_4_conv4_4/relu_0_split_1
I0620 04:27:57.316534  3117 net.cpp:150] Setting up conv4_4_conv4_4/relu_0_split
I0620 04:27:57.316537  3117 net.cpp:157] Top shape: 3 1024 60 60 (11059200)
I0620 04:27:57.316540  3117 net.cpp:157] Top shape: 3 1024 60 60 (11059200)
I0620 04:27:57.316542  3117 net.cpp:165] Memory required for data: 3831491400
I0620 04:27:57.316545  3117 layer_factory.hpp:77] Creating layer conv4_5_1x1_reduce
I0620 04:27:57.316550  3117 net.cpp:106] Creating Layer conv4_5_1x1_reduce
I0620 04:27:57.316553  3117 net.cpp:454] conv4_5_1x1_reduce <- conv4_4_conv4_4/relu_0_split_0
I0620 04:27:57.316556  3117 net.cpp:411] conv4_5_1x1_reduce -> conv4_5_1x1_reduce
I0620 04:27:57.322093  3117 net.cpp:150] Setting up conv4_5_1x1_reduce
I0620 04:27:57.322099  3117 net.cpp:157] Top shape: 3 256 60 60 (2764800)
I0620 04:27:57.322101  3117 net.cpp:165] Memory required for data: 3842550600
I0620 04:27:57.322114  3117 layer_factory.hpp:77] Creating layer conv4_5_1x1_reduce/bn
I0620 04:27:57.322119  3117 net.cpp:106] Creating Layer conv4_5_1x1_reduce/bn
I0620 04:27:57.322123  3117 net.cpp:454] conv4_5_1x1_reduce/bn <- conv4_5_1x1_reduce
I0620 04:27:57.322126  3117 net.cpp:397] conv4_5_1x1_reduce/bn -> conv4_5_1x1_reduce (in-place)
I0620 04:27:57.322257  3117 net.cpp:150] Setting up conv4_5_1x1_reduce/bn
I0620 04:27:57.322262  3117 net.cpp:157] Top shape: 3 256 60 60 (2764800)
I0620 04:27:57.322263  3117 net.cpp:165] Memory required for data: 3853609800
I0620 04:27:57.322269  3117 layer_factory.hpp:77] Creating layer conv4_5_1x1_reduce/relu
I0620 04:27:57.322273  3117 net.cpp:106] Creating Layer conv4_5_1x1_reduce/relu
I0620 04:27:57.322276  3117 net.cpp:454] conv4_5_1x1_reduce/relu <- conv4_5_1x1_reduce
I0620 04:27:57.322280  3117 net.cpp:397] conv4_5_1x1_reduce/relu -> conv4_5_1x1_reduce (in-place)
I0620 04:27:57.322284  3117 net.cpp:150] Setting up conv4_5_1x1_reduce/relu
I0620 04:27:57.322288  3117 net.cpp:157] Top shape: 3 256 60 60 (2764800)
I0620 04:27:57.322289  3117 net.cpp:165] Memory required for data: 3864669000
I0620 04:27:57.322293  3117 layer_factory.hpp:77] Creating layer conv4_5_3x3
I0620 04:27:57.322298  3117 net.cpp:106] Creating Layer conv4_5_3x3
I0620 04:27:57.322300  3117 net.cpp:454] conv4_5_3x3 <- conv4_5_1x1_reduce
I0620 04:27:57.322304  3117 net.cpp:411] conv4_5_3x3 -> conv4_5_3x3
I0620 04:27:57.339387  3117 net.cpp:150] Setting up conv4_5_3x3
I0620 04:27:57.339478  3117 net.cpp:157] Top shape: 3 256 60 60 (2764800)
I0620 04:27:57.339491  3117 net.cpp:165] Memory required for data: 3875728200
I0620 04:27:57.339509  3117 layer_factory.hpp:77] Creating layer conv4_5_3x3/bn
I0620 04:27:57.339534  3117 net.cpp:106] Creating Layer conv4_5_3x3/bn
I0620 04:27:57.339547  3117 net.cpp:454] conv4_5_3x3/bn <- conv4_5_3x3
I0620 04:27:57.339558  3117 net.cpp:397] conv4_5_3x3/bn -> conv4_5_3x3 (in-place)
I0620 04:27:57.339830  3117 net.cpp:150] Setting up conv4_5_3x3/bn
I0620 04:27:57.339841  3117 net.cpp:157] Top shape: 3 256 60 60 (2764800)
I0620 04:27:57.339846  3117 net.cpp:165] Memory required for data: 3886787400
I0620 04:27:57.339856  3117 layer_factory.hpp:77] Creating layer conv4_5_3x3/relu
I0620 04:27:57.339870  3117 net.cpp:106] Creating Layer conv4_5_3x3/relu
I0620 04:27:57.339875  3117 net.cpp:454] conv4_5_3x3/relu <- conv4_5_3x3
I0620 04:27:57.339881  3117 net.cpp:397] conv4_5_3x3/relu -> conv4_5_3x3 (in-place)
I0620 04:27:57.339890  3117 net.cpp:150] Setting up conv4_5_3x3/relu
I0620 04:27:57.339896  3117 net.cpp:157] Top shape: 3 256 60 60 (2764800)
I0620 04:27:57.339900  3117 net.cpp:165] Memory required for data: 3897846600
I0620 04:27:57.339905  3117 layer_factory.hpp:77] Creating layer conv4_5_1x1_increase
I0620 04:27:57.339918  3117 net.cpp:106] Creating Layer conv4_5_1x1_increase
I0620 04:27:57.339925  3117 net.cpp:454] conv4_5_1x1_increase <- conv4_5_3x3
I0620 04:27:57.339933  3117 net.cpp:411] conv4_5_1x1_increase -> conv4_5_1x1_increase
I0620 04:27:57.346894  3117 net.cpp:150] Setting up conv4_5_1x1_increase
I0620 04:27:57.346913  3117 net.cpp:157] Top shape: 3 1024 60 60 (11059200)
I0620 04:27:57.346917  3117 net.cpp:165] Memory required for data: 3942083400
I0620 04:27:57.346925  3117 layer_factory.hpp:77] Creating layer conv4_5_1x1_increase/bn
I0620 04:27:57.346935  3117 net.cpp:106] Creating Layer conv4_5_1x1_increase/bn
I0620 04:27:57.346938  3117 net.cpp:454] conv4_5_1x1_increase/bn <- conv4_5_1x1_increase
I0620 04:27:57.346946  3117 net.cpp:397] conv4_5_1x1_increase/bn -> conv4_5_1x1_increase (in-place)
I0620 04:27:57.347102  3117 net.cpp:150] Setting up conv4_5_1x1_increase/bn
I0620 04:27:57.347107  3117 net.cpp:157] Top shape: 3 1024 60 60 (11059200)
I0620 04:27:57.347111  3117 net.cpp:165] Memory required for data: 3986320200
I0620 04:27:57.347118  3117 layer_factory.hpp:77] Creating layer conv4_5
I0620 04:27:57.347124  3117 net.cpp:106] Creating Layer conv4_5
I0620 04:27:57.347127  3117 net.cpp:454] conv4_5 <- conv4_4_conv4_4/relu_0_split_1
I0620 04:27:57.347131  3117 net.cpp:454] conv4_5 <- conv4_5_1x1_increase
I0620 04:27:57.347165  3117 net.cpp:411] conv4_5 -> conv4_5
I0620 04:27:57.347184  3117 net.cpp:150] Setting up conv4_5
I0620 04:27:57.347189  3117 net.cpp:157] Top shape: 3 1024 60 60 (11059200)
I0620 04:27:57.347193  3117 net.cpp:165] Memory required for data: 4030557000
I0620 04:27:57.347195  3117 layer_factory.hpp:77] Creating layer conv4_5/relu
I0620 04:27:57.347201  3117 net.cpp:106] Creating Layer conv4_5/relu
I0620 04:27:57.347205  3117 net.cpp:454] conv4_5/relu <- conv4_5
I0620 04:27:57.347209  3117 net.cpp:397] conv4_5/relu -> conv4_5 (in-place)
I0620 04:27:57.347214  3117 net.cpp:150] Setting up conv4_5/relu
I0620 04:27:57.347219  3117 net.cpp:157] Top shape: 3 1024 60 60 (11059200)
I0620 04:27:57.347223  3117 net.cpp:165] Memory required for data: 4074793800
I0620 04:27:57.347225  3117 layer_factory.hpp:77] Creating layer conv4_5_conv4_5/relu_0_split
I0620 04:27:57.347230  3117 net.cpp:106] Creating Layer conv4_5_conv4_5/relu_0_split
I0620 04:27:57.347232  3117 net.cpp:454] conv4_5_conv4_5/relu_0_split <- conv4_5
I0620 04:27:57.347237  3117 net.cpp:411] conv4_5_conv4_5/relu_0_split -> conv4_5_conv4_5/relu_0_split_0
I0620 04:27:57.347241  3117 net.cpp:411] conv4_5_conv4_5/relu_0_split -> conv4_5_conv4_5/relu_0_split_1
I0620 04:27:57.347263  3117 net.cpp:150] Setting up conv4_5_conv4_5/relu_0_split
I0620 04:27:57.347267  3117 net.cpp:157] Top shape: 3 1024 60 60 (11059200)
I0620 04:27:57.347270  3117 net.cpp:157] Top shape: 3 1024 60 60 (11059200)
I0620 04:27:57.347273  3117 net.cpp:165] Memory required for data: 4163267400
I0620 04:27:57.347276  3117 layer_factory.hpp:77] Creating layer conv4_6_1x1_reduce
I0620 04:27:57.347287  3117 net.cpp:106] Creating Layer conv4_6_1x1_reduce
I0620 04:27:57.347290  3117 net.cpp:454] conv4_6_1x1_reduce <- conv4_5_conv4_5/relu_0_split_0
I0620 04:27:57.347295  3117 net.cpp:411] conv4_6_1x1_reduce -> conv4_6_1x1_reduce
I0620 04:27:57.352886  3117 net.cpp:150] Setting up conv4_6_1x1_reduce
I0620 04:27:57.352895  3117 net.cpp:157] Top shape: 3 256 60 60 (2764800)
I0620 04:27:57.352897  3117 net.cpp:165] Memory required for data: 4174326600
I0620 04:27:57.352902  3117 layer_factory.hpp:77] Creating layer conv4_6_1x1_reduce/bn
I0620 04:27:57.352907  3117 net.cpp:106] Creating Layer conv4_6_1x1_reduce/bn
I0620 04:27:57.352910  3117 net.cpp:454] conv4_6_1x1_reduce/bn <- conv4_6_1x1_reduce
I0620 04:27:57.352921  3117 net.cpp:397] conv4_6_1x1_reduce/bn -> conv4_6_1x1_reduce (in-place)
I0620 04:27:57.353058  3117 net.cpp:150] Setting up conv4_6_1x1_reduce/bn
I0620 04:27:57.353062  3117 net.cpp:157] Top shape: 3 256 60 60 (2764800)
I0620 04:27:57.353065  3117 net.cpp:165] Memory required for data: 4185385800
I0620 04:27:57.353070  3117 layer_factory.hpp:77] Creating layer conv4_6_1x1_reduce/relu
I0620 04:27:57.353073  3117 net.cpp:106] Creating Layer conv4_6_1x1_reduce/relu
I0620 04:27:57.353075  3117 net.cpp:454] conv4_6_1x1_reduce/relu <- conv4_6_1x1_reduce
I0620 04:27:57.353078  3117 net.cpp:397] conv4_6_1x1_reduce/relu -> conv4_6_1x1_reduce (in-place)
I0620 04:27:57.353082  3117 net.cpp:150] Setting up conv4_6_1x1_reduce/relu
I0620 04:27:57.353085  3117 net.cpp:157] Top shape: 3 256 60 60 (2764800)
I0620 04:27:57.353086  3117 net.cpp:165] Memory required for data: 4196445000
I0620 04:27:57.353091  3117 layer_factory.hpp:77] Creating layer conv4_6_3x3
I0620 04:27:57.353099  3117 net.cpp:106] Creating Layer conv4_6_3x3
I0620 04:27:57.353102  3117 net.cpp:454] conv4_6_3x3 <- conv4_6_1x1_reduce
I0620 04:27:57.353107  3117 net.cpp:411] conv4_6_3x3 -> conv4_6_3x3
I0620 04:27:57.366194  3117 net.cpp:150] Setting up conv4_6_3x3
I0620 04:27:57.366209  3117 net.cpp:157] Top shape: 3 256 60 60 (2764800)
I0620 04:27:57.366211  3117 net.cpp:165] Memory required for data: 4207504200
I0620 04:27:57.366216  3117 layer_factory.hpp:77] Creating layer conv4_6_3x3/bn
I0620 04:27:57.366224  3117 net.cpp:106] Creating Layer conv4_6_3x3/bn
I0620 04:27:57.366226  3117 net.cpp:454] conv4_6_3x3/bn <- conv4_6_3x3
I0620 04:27:57.366230  3117 net.cpp:397] conv4_6_3x3/bn -> conv4_6_3x3 (in-place)
I0620 04:27:57.366400  3117 net.cpp:150] Setting up conv4_6_3x3/bn
I0620 04:27:57.366405  3117 net.cpp:157] Top shape: 3 256 60 60 (2764800)
I0620 04:27:57.366406  3117 net.cpp:165] Memory required for data: 4218563400
I0620 04:27:57.366411  3117 layer_factory.hpp:77] Creating layer conv4_6_3x3/relu
I0620 04:27:57.366416  3117 net.cpp:106] Creating Layer conv4_6_3x3/relu
I0620 04:27:57.366418  3117 net.cpp:454] conv4_6_3x3/relu <- conv4_6_3x3
I0620 04:27:57.366420  3117 net.cpp:397] conv4_6_3x3/relu -> conv4_6_3x3 (in-place)
I0620 04:27:57.366425  3117 net.cpp:150] Setting up conv4_6_3x3/relu
I0620 04:27:57.366427  3117 net.cpp:157] Top shape: 3 256 60 60 (2764800)
I0620 04:27:57.366428  3117 net.cpp:165] Memory required for data: 4229622600
I0620 04:27:57.366432  3117 layer_factory.hpp:77] Creating layer conv4_6_1x1_increase
I0620 04:27:57.366442  3117 net.cpp:106] Creating Layer conv4_6_1x1_increase
I0620 04:27:57.366446  3117 net.cpp:454] conv4_6_1x1_increase <- conv4_6_3x3
I0620 04:27:57.366452  3117 net.cpp:411] conv4_6_1x1_increase -> conv4_6_1x1_increase
I0620 04:27:57.372769  3117 net.cpp:150] Setting up conv4_6_1x1_increase
I0620 04:27:57.372789  3117 net.cpp:157] Top shape: 3 1024 60 60 (11059200)
I0620 04:27:57.372792  3117 net.cpp:165] Memory required for data: 4273859400
I0620 04:27:57.372797  3117 layer_factory.hpp:77] Creating layer conv4_6_1x1_increase/bn
I0620 04:27:57.372804  3117 net.cpp:106] Creating Layer conv4_6_1x1_increase/bn
I0620 04:27:57.372808  3117 net.cpp:454] conv4_6_1x1_increase/bn <- conv4_6_1x1_increase
I0620 04:27:57.372813  3117 net.cpp:397] conv4_6_1x1_increase/bn -> conv4_6_1x1_increase (in-place)
I0620 04:27:57.372982  3117 net.cpp:150] Setting up conv4_6_1x1_increase/bn
I0620 04:27:57.372987  3117 net.cpp:157] Top shape: 3 1024 60 60 (11059200)
I0620 04:27:57.372990  3117 net.cpp:165] Memory required for data: 4318096200
I0620 04:27:57.372998  3117 layer_factory.hpp:77] Creating layer conv4_6
I0620 04:27:57.373004  3117 net.cpp:106] Creating Layer conv4_6
I0620 04:27:57.373008  3117 net.cpp:454] conv4_6 <- conv4_5_conv4_5/relu_0_split_1
I0620 04:27:57.373013  3117 net.cpp:454] conv4_6 <- conv4_6_1x1_increase
I0620 04:27:57.373018  3117 net.cpp:411] conv4_6 -> conv4_6
I0620 04:27:57.373036  3117 net.cpp:150] Setting up conv4_6
I0620 04:27:57.373041  3117 net.cpp:157] Top shape: 3 1024 60 60 (11059200)
I0620 04:27:57.373045  3117 net.cpp:165] Memory required for data: 4362333000
I0620 04:27:57.373049  3117 layer_factory.hpp:77] Creating layer conv4_6/relu
I0620 04:27:57.373054  3117 net.cpp:106] Creating Layer conv4_6/relu
I0620 04:27:57.373059  3117 net.cpp:454] conv4_6/relu <- conv4_6
I0620 04:27:57.373062  3117 net.cpp:397] conv4_6/relu -> conv4_6 (in-place)
I0620 04:27:57.373067  3117 net.cpp:150] Setting up conv4_6/relu
I0620 04:27:57.373071  3117 net.cpp:157] Top shape: 3 1024 60 60 (11059200)
I0620 04:27:57.373075  3117 net.cpp:165] Memory required for data: 4406569800
I0620 04:27:57.373077  3117 layer_factory.hpp:77] Creating layer conv4_6_conv4_6/relu_0_split
I0620 04:27:57.373082  3117 net.cpp:106] Creating Layer conv4_6_conv4_6/relu_0_split
I0620 04:27:57.373086  3117 net.cpp:454] conv4_6_conv4_6/relu_0_split <- conv4_6
I0620 04:27:57.373093  3117 net.cpp:411] conv4_6_conv4_6/relu_0_split -> conv4_6_conv4_6/relu_0_split_0
I0620 04:27:57.373097  3117 net.cpp:411] conv4_6_conv4_6/relu_0_split -> conv4_6_conv4_6/relu_0_split_1
I0620 04:27:57.373121  3117 net.cpp:150] Setting up conv4_6_conv4_6/relu_0_split
I0620 04:27:57.373124  3117 net.cpp:157] Top shape: 3 1024 60 60 (11059200)
I0620 04:27:57.373127  3117 net.cpp:157] Top shape: 3 1024 60 60 (11059200)
I0620 04:27:57.373128  3117 net.cpp:165] Memory required for data: 4495043400
I0620 04:27:57.373131  3117 layer_factory.hpp:77] Creating layer conv4_7_1x1_reduce
I0620 04:27:57.373138  3117 net.cpp:106] Creating Layer conv4_7_1x1_reduce
I0620 04:27:57.373141  3117 net.cpp:454] conv4_7_1x1_reduce <- conv4_6_conv4_6/relu_0_split_0
I0620 04:27:57.373143  3117 net.cpp:411] conv4_7_1x1_reduce -> conv4_7_1x1_reduce
I0620 04:27:57.379672  3117 net.cpp:150] Setting up conv4_7_1x1_reduce
I0620 04:27:57.379734  3117 net.cpp:157] Top shape: 3 256 60 60 (2764800)
I0620 04:27:57.379740  3117 net.cpp:165] Memory required for data: 4506102600
I0620 04:27:57.379755  3117 layer_factory.hpp:77] Creating layer conv4_7_1x1_reduce/bn
I0620 04:27:57.379777  3117 net.cpp:106] Creating Layer conv4_7_1x1_reduce/bn
I0620 04:27:57.379786  3117 net.cpp:454] conv4_7_1x1_reduce/bn <- conv4_7_1x1_reduce
I0620 04:27:57.379806  3117 net.cpp:397] conv4_7_1x1_reduce/bn -> conv4_7_1x1_reduce (in-place)
I0620 04:27:57.380054  3117 net.cpp:150] Setting up conv4_7_1x1_reduce/bn
I0620 04:27:57.380062  3117 net.cpp:157] Top shape: 3 256 60 60 (2764800)
I0620 04:27:57.380067  3117 net.cpp:165] Memory required for data: 4517161800
I0620 04:27:57.380077  3117 layer_factory.hpp:77] Creating layer conv4_7_1x1_reduce/relu
I0620 04:27:57.380089  3117 net.cpp:106] Creating Layer conv4_7_1x1_reduce/relu
I0620 04:27:57.380095  3117 net.cpp:454] conv4_7_1x1_reduce/relu <- conv4_7_1x1_reduce
I0620 04:27:57.380100  3117 net.cpp:397] conv4_7_1x1_reduce/relu -> conv4_7_1x1_reduce (in-place)
I0620 04:27:57.380108  3117 net.cpp:150] Setting up conv4_7_1x1_reduce/relu
I0620 04:27:57.380113  3117 net.cpp:157] Top shape: 3 256 60 60 (2764800)
I0620 04:27:57.380117  3117 net.cpp:165] Memory required for data: 4528221000
I0620 04:27:57.380122  3117 layer_factory.hpp:77] Creating layer conv4_7_3x3
I0620 04:27:57.380133  3117 net.cpp:106] Creating Layer conv4_7_3x3
I0620 04:27:57.380138  3117 net.cpp:454] conv4_7_3x3 <- conv4_7_1x1_reduce
I0620 04:27:57.380146  3117 net.cpp:411] conv4_7_3x3 -> conv4_7_3x3
I0620 04:27:57.397313  3117 net.cpp:150] Setting up conv4_7_3x3
I0620 04:27:57.397351  3117 net.cpp:157] Top shape: 3 256 60 60 (2764800)
I0620 04:27:57.397353  3117 net.cpp:165] Memory required for data: 4539280200
I0620 04:27:57.397361  3117 layer_factory.hpp:77] Creating layer conv4_7_3x3/bn
I0620 04:27:57.397369  3117 net.cpp:106] Creating Layer conv4_7_3x3/bn
I0620 04:27:57.397377  3117 net.cpp:454] conv4_7_3x3/bn <- conv4_7_3x3
I0620 04:27:57.397380  3117 net.cpp:397] conv4_7_3x3/bn -> conv4_7_3x3 (in-place)
I0620 04:27:57.397533  3117 net.cpp:150] Setting up conv4_7_3x3/bn
I0620 04:27:57.397538  3117 net.cpp:157] Top shape: 3 256 60 60 (2764800)
I0620 04:27:57.397541  3117 net.cpp:165] Memory required for data: 4550339400
I0620 04:27:57.397547  3117 layer_factory.hpp:77] Creating layer conv4_7_3x3/relu
I0620 04:27:57.397552  3117 net.cpp:106] Creating Layer conv4_7_3x3/relu
I0620 04:27:57.397554  3117 net.cpp:454] conv4_7_3x3/relu <- conv4_7_3x3
I0620 04:27:57.397558  3117 net.cpp:397] conv4_7_3x3/relu -> conv4_7_3x3 (in-place)
I0620 04:27:57.397563  3117 net.cpp:150] Setting up conv4_7_3x3/relu
I0620 04:27:57.397567  3117 net.cpp:157] Top shape: 3 256 60 60 (2764800)
I0620 04:27:57.397572  3117 net.cpp:165] Memory required for data: 4561398600
I0620 04:27:57.397575  3117 layer_factory.hpp:77] Creating layer conv4_7_1x1_increase
I0620 04:27:57.397584  3117 net.cpp:106] Creating Layer conv4_7_1x1_increase
I0620 04:27:57.397588  3117 net.cpp:454] conv4_7_1x1_increase <- conv4_7_3x3
I0620 04:27:57.397593  3117 net.cpp:411] conv4_7_1x1_increase -> conv4_7_1x1_increase
I0620 04:27:57.403975  3117 net.cpp:150] Setting up conv4_7_1x1_increase
I0620 04:27:57.403990  3117 net.cpp:157] Top shape: 3 1024 60 60 (11059200)
I0620 04:27:57.403995  3117 net.cpp:165] Memory required for data: 4605635400
I0620 04:27:57.404000  3117 layer_factory.hpp:77] Creating layer conv4_7_1x1_increase/bn
I0620 04:27:57.404007  3117 net.cpp:106] Creating Layer conv4_7_1x1_increase/bn
I0620 04:27:57.404012  3117 net.cpp:454] conv4_7_1x1_increase/bn <- conv4_7_1x1_increase
I0620 04:27:57.404017  3117 net.cpp:397] conv4_7_1x1_increase/bn -> conv4_7_1x1_increase (in-place)
I0620 04:27:57.404175  3117 net.cpp:150] Setting up conv4_7_1x1_increase/bn
I0620 04:27:57.404181  3117 net.cpp:157] Top shape: 3 1024 60 60 (11059200)
I0620 04:27:57.404183  3117 net.cpp:165] Memory required for data: 4649872200
I0620 04:27:57.404217  3117 layer_factory.hpp:77] Creating layer conv4_7
I0620 04:27:57.404224  3117 net.cpp:106] Creating Layer conv4_7
I0620 04:27:57.404227  3117 net.cpp:454] conv4_7 <- conv4_6_conv4_6/relu_0_split_1
I0620 04:27:57.404232  3117 net.cpp:454] conv4_7 <- conv4_7_1x1_increase
I0620 04:27:57.404239  3117 net.cpp:411] conv4_7 -> conv4_7
I0620 04:27:57.404256  3117 net.cpp:150] Setting up conv4_7
I0620 04:27:57.404261  3117 net.cpp:157] Top shape: 3 1024 60 60 (11059200)
I0620 04:27:57.404263  3117 net.cpp:165] Memory required for data: 4694109000
I0620 04:27:57.404265  3117 layer_factory.hpp:77] Creating layer conv4_7/relu
I0620 04:27:57.404269  3117 net.cpp:106] Creating Layer conv4_7/relu
I0620 04:27:57.404271  3117 net.cpp:454] conv4_7/relu <- conv4_7
I0620 04:27:57.404274  3117 net.cpp:397] conv4_7/relu -> conv4_7 (in-place)
I0620 04:27:57.404278  3117 net.cpp:150] Setting up conv4_7/relu
I0620 04:27:57.404280  3117 net.cpp:157] Top shape: 3 1024 60 60 (11059200)
I0620 04:27:57.404283  3117 net.cpp:165] Memory required for data: 4738345800
I0620 04:27:57.404284  3117 layer_factory.hpp:77] Creating layer conv4_7_conv4_7/relu_0_split
I0620 04:27:57.404289  3117 net.cpp:106] Creating Layer conv4_7_conv4_7/relu_0_split
I0620 04:27:57.404290  3117 net.cpp:454] conv4_7_conv4_7/relu_0_split <- conv4_7
I0620 04:27:57.404294  3117 net.cpp:411] conv4_7_conv4_7/relu_0_split -> conv4_7_conv4_7/relu_0_split_0
I0620 04:27:57.404296  3117 net.cpp:411] conv4_7_conv4_7/relu_0_split -> conv4_7_conv4_7/relu_0_split_1
I0620 04:27:57.404320  3117 net.cpp:150] Setting up conv4_7_conv4_7/relu_0_split
I0620 04:27:57.404325  3117 net.cpp:157] Top shape: 3 1024 60 60 (11059200)
I0620 04:27:57.404327  3117 net.cpp:157] Top shape: 3 1024 60 60 (11059200)
I0620 04:27:57.404330  3117 net.cpp:165] Memory required for data: 4826819400
I0620 04:27:57.404333  3117 layer_factory.hpp:77] Creating layer conv4_8_1x1_reduce
I0620 04:27:57.404340  3117 net.cpp:106] Creating Layer conv4_8_1x1_reduce
I0620 04:27:57.404343  3117 net.cpp:454] conv4_8_1x1_reduce <- conv4_7_conv4_7/relu_0_split_0
I0620 04:27:57.404347  3117 net.cpp:411] conv4_8_1x1_reduce -> conv4_8_1x1_reduce
I0620 04:27:57.409953  3117 net.cpp:150] Setting up conv4_8_1x1_reduce
I0620 04:27:57.409961  3117 net.cpp:157] Top shape: 3 256 60 60 (2764800)
I0620 04:27:57.409965  3117 net.cpp:165] Memory required for data: 4837878600
I0620 04:27:57.409967  3117 layer_factory.hpp:77] Creating layer conv4_8_1x1_reduce/bn
I0620 04:27:57.409973  3117 net.cpp:106] Creating Layer conv4_8_1x1_reduce/bn
I0620 04:27:57.409976  3117 net.cpp:454] conv4_8_1x1_reduce/bn <- conv4_8_1x1_reduce
I0620 04:27:57.409982  3117 net.cpp:397] conv4_8_1x1_reduce/bn -> conv4_8_1x1_reduce (in-place)
I0620 04:27:57.410120  3117 net.cpp:150] Setting up conv4_8_1x1_reduce/bn
I0620 04:27:57.410125  3117 net.cpp:157] Top shape: 3 256 60 60 (2764800)
I0620 04:27:57.410126  3117 net.cpp:165] Memory required for data: 4848937800
I0620 04:27:57.410130  3117 layer_factory.hpp:77] Creating layer conv4_8_1x1_reduce/relu
I0620 04:27:57.410135  3117 net.cpp:106] Creating Layer conv4_8_1x1_reduce/relu
I0620 04:27:57.410137  3117 net.cpp:454] conv4_8_1x1_reduce/relu <- conv4_8_1x1_reduce
I0620 04:27:57.410140  3117 net.cpp:397] conv4_8_1x1_reduce/relu -> conv4_8_1x1_reduce (in-place)
I0620 04:27:57.410143  3117 net.cpp:150] Setting up conv4_8_1x1_reduce/relu
I0620 04:27:57.410146  3117 net.cpp:157] Top shape: 3 256 60 60 (2764800)
I0620 04:27:57.410147  3117 net.cpp:165] Memory required for data: 4859997000
I0620 04:27:57.410151  3117 layer_factory.hpp:77] Creating layer conv4_8_3x3
I0620 04:27:57.410156  3117 net.cpp:106] Creating Layer conv4_8_3x3
I0620 04:27:57.410158  3117 net.cpp:454] conv4_8_3x3 <- conv4_8_1x1_reduce
I0620 04:27:57.410163  3117 net.cpp:411] conv4_8_3x3 -> conv4_8_3x3
I0620 04:27:57.424901  3117 net.cpp:150] Setting up conv4_8_3x3
I0620 04:27:57.424970  3117 net.cpp:157] Top shape: 3 256 60 60 (2764800)
I0620 04:27:57.424978  3117 net.cpp:165] Memory required for data: 4871056200
I0620 04:27:57.424995  3117 layer_factory.hpp:77] Creating layer conv4_8_3x3/bn
I0620 04:27:57.425084  3117 net.cpp:106] Creating Layer conv4_8_3x3/bn
I0620 04:27:57.425096  3117 net.cpp:454] conv4_8_3x3/bn <- conv4_8_3x3
I0620 04:27:57.425135  3117 net.cpp:397] conv4_8_3x3/bn -> conv4_8_3x3 (in-place)
I0620 04:27:57.425415  3117 net.cpp:150] Setting up conv4_8_3x3/bn
I0620 04:27:57.425422  3117 net.cpp:157] Top shape: 3 256 60 60 (2764800)
I0620 04:27:57.425426  3117 net.cpp:165] Memory required for data: 4882115400
I0620 04:27:57.425436  3117 layer_factory.hpp:77] Creating layer conv4_8_3x3/relu
I0620 04:27:57.425447  3117 net.cpp:106] Creating Layer conv4_8_3x3/relu
I0620 04:27:57.425452  3117 net.cpp:454] conv4_8_3x3/relu <- conv4_8_3x3
I0620 04:27:57.425459  3117 net.cpp:397] conv4_8_3x3/relu -> conv4_8_3x3 (in-place)
I0620 04:27:57.425467  3117 net.cpp:150] Setting up conv4_8_3x3/relu
I0620 04:27:57.425472  3117 net.cpp:157] Top shape: 3 256 60 60 (2764800)
I0620 04:27:57.425477  3117 net.cpp:165] Memory required for data: 4893174600
I0620 04:27:57.425482  3117 layer_factory.hpp:77] Creating layer conv4_8_1x1_increase
I0620 04:27:57.425494  3117 net.cpp:106] Creating Layer conv4_8_1x1_increase
I0620 04:27:57.425499  3117 net.cpp:454] conv4_8_1x1_increase <- conv4_8_3x3
I0620 04:27:57.425505  3117 net.cpp:411] conv4_8_1x1_increase -> conv4_8_1x1_increase
I0620 04:27:57.434831  3117 net.cpp:150] Setting up conv4_8_1x1_increase
I0620 04:27:57.434860  3117 net.cpp:157] Top shape: 3 1024 60 60 (11059200)
I0620 04:27:57.434864  3117 net.cpp:165] Memory required for data: 4937411400
I0620 04:27:57.434875  3117 layer_factory.hpp:77] Creating layer conv4_8_1x1_increase/bn
I0620 04:27:57.434887  3117 net.cpp:106] Creating Layer conv4_8_1x1_increase/bn
I0620 04:27:57.434896  3117 net.cpp:454] conv4_8_1x1_increase/bn <- conv4_8_1x1_increase
I0620 04:27:57.434906  3117 net.cpp:397] conv4_8_1x1_increase/bn -> conv4_8_1x1_increase (in-place)
I0620 04:27:57.435086  3117 net.cpp:150] Setting up conv4_8_1x1_increase/bn
I0620 04:27:57.435091  3117 net.cpp:157] Top shape: 3 1024 60 60 (11059200)
I0620 04:27:57.435096  3117 net.cpp:165] Memory required for data: 4981648200
I0620 04:27:57.435102  3117 layer_factory.hpp:77] Creating layer conv4_8
I0620 04:27:57.435108  3117 net.cpp:106] Creating Layer conv4_8
I0620 04:27:57.435112  3117 net.cpp:454] conv4_8 <- conv4_7_conv4_7/relu_0_split_1
I0620 04:27:57.435117  3117 net.cpp:454] conv4_8 <- conv4_8_1x1_increase
I0620 04:27:57.435122  3117 net.cpp:411] conv4_8 -> conv4_8
I0620 04:27:57.435139  3117 net.cpp:150] Setting up conv4_8
I0620 04:27:57.435145  3117 net.cpp:157] Top shape: 3 1024 60 60 (11059200)
I0620 04:27:57.435148  3117 net.cpp:165] Memory required for data: 5025885000
I0620 04:27:57.435153  3117 layer_factory.hpp:77] Creating layer conv4_8/relu
I0620 04:27:57.435158  3117 net.cpp:106] Creating Layer conv4_8/relu
I0620 04:27:57.435160  3117 net.cpp:454] conv4_8/relu <- conv4_8
I0620 04:27:57.435163  3117 net.cpp:397] conv4_8/relu -> conv4_8 (in-place)
I0620 04:27:57.435169  3117 net.cpp:150] Setting up conv4_8/relu
I0620 04:27:57.435173  3117 net.cpp:157] Top shape: 3 1024 60 60 (11059200)
I0620 04:27:57.435175  3117 net.cpp:165] Memory required for data: 5070121800
I0620 04:27:57.435178  3117 layer_factory.hpp:77] Creating layer conv4_8_conv4_8/relu_0_split
I0620 04:27:57.435185  3117 net.cpp:106] Creating Layer conv4_8_conv4_8/relu_0_split
I0620 04:27:57.435189  3117 net.cpp:454] conv4_8_conv4_8/relu_0_split <- conv4_8
I0620 04:27:57.435194  3117 net.cpp:411] conv4_8_conv4_8/relu_0_split -> conv4_8_conv4_8/relu_0_split_0
I0620 04:27:57.435199  3117 net.cpp:411] conv4_8_conv4_8/relu_0_split -> conv4_8_conv4_8/relu_0_split_1
I0620 04:27:57.435226  3117 net.cpp:150] Setting up conv4_8_conv4_8/relu_0_split
I0620 04:27:57.435231  3117 net.cpp:157] Top shape: 3 1024 60 60 (11059200)
I0620 04:27:57.435236  3117 net.cpp:157] Top shape: 3 1024 60 60 (11059200)
I0620 04:27:57.435240  3117 net.cpp:165] Memory required for data: 5158595400
I0620 04:27:57.435242  3117 layer_factory.hpp:77] Creating layer conv4_9_1x1_reduce
I0620 04:27:57.435266  3117 net.cpp:106] Creating Layer conv4_9_1x1_reduce
I0620 04:27:57.435271  3117 net.cpp:454] conv4_9_1x1_reduce <- conv4_8_conv4_8/relu_0_split_0
I0620 04:27:57.435276  3117 net.cpp:411] conv4_9_1x1_reduce -> conv4_9_1x1_reduce
I0620 04:27:57.440981  3117 net.cpp:150] Setting up conv4_9_1x1_reduce
I0620 04:27:57.440989  3117 net.cpp:157] Top shape: 3 256 60 60 (2764800)
I0620 04:27:57.440994  3117 net.cpp:165] Memory required for data: 5169654600
I0620 04:27:57.440999  3117 layer_factory.hpp:77] Creating layer conv4_9_1x1_reduce/bn
I0620 04:27:57.441005  3117 net.cpp:106] Creating Layer conv4_9_1x1_reduce/bn
I0620 04:27:57.441009  3117 net.cpp:454] conv4_9_1x1_reduce/bn <- conv4_9_1x1_reduce
I0620 04:27:57.441013  3117 net.cpp:397] conv4_9_1x1_reduce/bn -> conv4_9_1x1_reduce (in-place)
I0620 04:27:57.441157  3117 net.cpp:150] Setting up conv4_9_1x1_reduce/bn
I0620 04:27:57.441164  3117 net.cpp:157] Top shape: 3 256 60 60 (2764800)
I0620 04:27:57.441166  3117 net.cpp:165] Memory required for data: 5180713800
I0620 04:27:57.441193  3117 layer_factory.hpp:77] Creating layer conv4_9_1x1_reduce/relu
I0620 04:27:57.441200  3117 net.cpp:106] Creating Layer conv4_9_1x1_reduce/relu
I0620 04:27:57.441202  3117 net.cpp:454] conv4_9_1x1_reduce/relu <- conv4_9_1x1_reduce
I0620 04:27:57.441206  3117 net.cpp:397] conv4_9_1x1_reduce/relu -> conv4_9_1x1_reduce (in-place)
I0620 04:27:57.441211  3117 net.cpp:150] Setting up conv4_9_1x1_reduce/relu
I0620 04:27:57.441215  3117 net.cpp:157] Top shape: 3 256 60 60 (2764800)
I0620 04:27:57.441218  3117 net.cpp:165] Memory required for data: 5191773000
I0620 04:27:57.441221  3117 layer_factory.hpp:77] Creating layer conv4_9_3x3
I0620 04:27:57.441228  3117 net.cpp:106] Creating Layer conv4_9_3x3
I0620 04:27:57.441232  3117 net.cpp:454] conv4_9_3x3 <- conv4_9_1x1_reduce
I0620 04:27:57.441236  3117 net.cpp:411] conv4_9_3x3 -> conv4_9_3x3
I0620 04:27:57.454393  3117 net.cpp:150] Setting up conv4_9_3x3
I0620 04:27:57.454409  3117 net.cpp:157] Top shape: 3 256 60 60 (2764800)
I0620 04:27:57.454413  3117 net.cpp:165] Memory required for data: 5202832200
I0620 04:27:57.454421  3117 layer_factory.hpp:77] Creating layer conv4_9_3x3/bn
I0620 04:27:57.454432  3117 net.cpp:106] Creating Layer conv4_9_3x3/bn
I0620 04:27:57.454437  3117 net.cpp:454] conv4_9_3x3/bn <- conv4_9_3x3
I0620 04:27:57.454444  3117 net.cpp:397] conv4_9_3x3/bn -> conv4_9_3x3 (in-place)
I0620 04:27:57.454596  3117 net.cpp:150] Setting up conv4_9_3x3/bn
I0620 04:27:57.454601  3117 net.cpp:157] Top shape: 3 256 60 60 (2764800)
I0620 04:27:57.454604  3117 net.cpp:165] Memory required for data: 5213891400
I0620 04:27:57.454610  3117 layer_factory.hpp:77] Creating layer conv4_9_3x3/relu
I0620 04:27:57.454615  3117 net.cpp:106] Creating Layer conv4_9_3x3/relu
I0620 04:27:57.454618  3117 net.cpp:454] conv4_9_3x3/relu <- conv4_9_3x3
I0620 04:27:57.454623  3117 net.cpp:397] conv4_9_3x3/relu -> conv4_9_3x3 (in-place)
I0620 04:27:57.454627  3117 net.cpp:150] Setting up conv4_9_3x3/relu
I0620 04:27:57.454632  3117 net.cpp:157] Top shape: 3 256 60 60 (2764800)
I0620 04:27:57.454634  3117 net.cpp:165] Memory required for data: 5224950600
I0620 04:27:57.454638  3117 layer_factory.hpp:77] Creating layer conv4_9_1x1_increase
I0620 04:27:57.454645  3117 net.cpp:106] Creating Layer conv4_9_1x1_increase
I0620 04:27:57.454648  3117 net.cpp:454] conv4_9_1x1_increase <- conv4_9_3x3
I0620 04:27:57.454653  3117 net.cpp:411] conv4_9_1x1_increase -> conv4_9_1x1_increase
I0620 04:27:57.460932  3117 net.cpp:150] Setting up conv4_9_1x1_increase
I0620 04:27:57.460952  3117 net.cpp:157] Top shape: 3 1024 60 60 (11059200)
I0620 04:27:57.460955  3117 net.cpp:165] Memory required for data: 5269187400
I0620 04:27:57.460963  3117 layer_factory.hpp:77] Creating layer conv4_9_1x1_increase/bn
I0620 04:27:57.460974  3117 net.cpp:106] Creating Layer conv4_9_1x1_increase/bn
I0620 04:27:57.460979  3117 net.cpp:454] conv4_9_1x1_increase/bn <- conv4_9_1x1_increase
I0620 04:27:57.460986  3117 net.cpp:397] conv4_9_1x1_increase/bn -> conv4_9_1x1_increase (in-place)
I0620 04:27:57.461165  3117 net.cpp:150] Setting up conv4_9_1x1_increase/bn
I0620 04:27:57.461171  3117 net.cpp:157] Top shape: 3 1024 60 60 (11059200)
I0620 04:27:57.461175  3117 net.cpp:165] Memory required for data: 5313424200
I0620 04:27:57.461184  3117 layer_factory.hpp:77] Creating layer conv4_9
I0620 04:27:57.461189  3117 net.cpp:106] Creating Layer conv4_9
I0620 04:27:57.461194  3117 net.cpp:454] conv4_9 <- conv4_8_conv4_8/relu_0_split_1
I0620 04:27:57.461197  3117 net.cpp:454] conv4_9 <- conv4_9_1x1_increase
I0620 04:27:57.461202  3117 net.cpp:411] conv4_9 -> conv4_9
I0620 04:27:57.461220  3117 net.cpp:150] Setting up conv4_9
I0620 04:27:57.461225  3117 net.cpp:157] Top shape: 3 1024 60 60 (11059200)
I0620 04:27:57.461227  3117 net.cpp:165] Memory required for data: 5357661000
I0620 04:27:57.461230  3117 layer_factory.hpp:77] Creating layer conv4_9/relu
I0620 04:27:57.461237  3117 net.cpp:106] Creating Layer conv4_9/relu
I0620 04:27:57.461241  3117 net.cpp:454] conv4_9/relu <- conv4_9
I0620 04:27:57.461246  3117 net.cpp:397] conv4_9/relu -> conv4_9 (in-place)
I0620 04:27:57.461252  3117 net.cpp:150] Setting up conv4_9/relu
I0620 04:27:57.461256  3117 net.cpp:157] Top shape: 3 1024 60 60 (11059200)
I0620 04:27:57.461261  3117 net.cpp:165] Memory required for data: 5401897800
I0620 04:27:57.461263  3117 layer_factory.hpp:77] Creating layer conv4_9_conv4_9/relu_0_split
I0620 04:27:57.461269  3117 net.cpp:106] Creating Layer conv4_9_conv4_9/relu_0_split
I0620 04:27:57.461272  3117 net.cpp:454] conv4_9_conv4_9/relu_0_split <- conv4_9
I0620 04:27:57.461277  3117 net.cpp:411] conv4_9_conv4_9/relu_0_split -> conv4_9_conv4_9/relu_0_split_0
I0620 04:27:57.461282  3117 net.cpp:411] conv4_9_conv4_9/relu_0_split -> conv4_9_conv4_9/relu_0_split_1
I0620 04:27:57.461305  3117 net.cpp:150] Setting up conv4_9_conv4_9/relu_0_split
I0620 04:27:57.461309  3117 net.cpp:157] Top shape: 3 1024 60 60 (11059200)
I0620 04:27:57.461313  3117 net.cpp:157] Top shape: 3 1024 60 60 (11059200)
I0620 04:27:57.461314  3117 net.cpp:165] Memory required for data: 5490371400
I0620 04:27:57.461316  3117 layer_factory.hpp:77] Creating layer conv4_10_1x1_reduce
I0620 04:27:57.461323  3117 net.cpp:106] Creating Layer conv4_10_1x1_reduce
I0620 04:27:57.461324  3117 net.cpp:454] conv4_10_1x1_reduce <- conv4_9_conv4_9/relu_0_split_0
I0620 04:27:57.461330  3117 net.cpp:411] conv4_10_1x1_reduce -> conv4_10_1x1_reduce
I0620 04:27:57.469342  3117 net.cpp:150] Setting up conv4_10_1x1_reduce
I0620 04:27:57.469419  3117 net.cpp:157] Top shape: 3 256 60 60 (2764800)
I0620 04:27:57.469424  3117 net.cpp:165] Memory required for data: 5501430600
I0620 04:27:57.469440  3117 layer_factory.hpp:77] Creating layer conv4_10_1x1_reduce/bn
I0620 04:27:57.469465  3117 net.cpp:106] Creating Layer conv4_10_1x1_reduce/bn
I0620 04:27:57.469477  3117 net.cpp:454] conv4_10_1x1_reduce/bn <- conv4_10_1x1_reduce
I0620 04:27:57.469491  3117 net.cpp:397] conv4_10_1x1_reduce/bn -> conv4_10_1x1_reduce (in-place)
I0620 04:27:57.469779  3117 net.cpp:150] Setting up conv4_10_1x1_reduce/bn
I0620 04:27:57.469786  3117 net.cpp:157] Top shape: 3 256 60 60 (2764800)
I0620 04:27:57.469790  3117 net.cpp:165] Memory required for data: 5512489800
I0620 04:27:57.469800  3117 layer_factory.hpp:77] Creating layer conv4_10_1x1_reduce/relu
I0620 04:27:57.469810  3117 net.cpp:106] Creating Layer conv4_10_1x1_reduce/relu
I0620 04:27:57.469815  3117 net.cpp:454] conv4_10_1x1_reduce/relu <- conv4_10_1x1_reduce
I0620 04:27:57.469820  3117 net.cpp:397] conv4_10_1x1_reduce/relu -> conv4_10_1x1_reduce (in-place)
I0620 04:27:57.469828  3117 net.cpp:150] Setting up conv4_10_1x1_reduce/relu
I0620 04:27:57.469833  3117 net.cpp:157] Top shape: 3 256 60 60 (2764800)
I0620 04:27:57.469837  3117 net.cpp:165] Memory required for data: 5523549000
I0620 04:27:57.469842  3117 layer_factory.hpp:77] Creating layer conv4_10_3x3
I0620 04:27:57.469858  3117 net.cpp:106] Creating Layer conv4_10_3x3
I0620 04:27:57.469862  3117 net.cpp:454] conv4_10_3x3 <- conv4_10_1x1_reduce
I0620 04:27:57.469868  3117 net.cpp:411] conv4_10_3x3 -> conv4_10_3x3
I0620 04:27:57.485507  3117 net.cpp:150] Setting up conv4_10_3x3
I0620 04:27:57.485539  3117 net.cpp:157] Top shape: 3 256 60 60 (2764800)
I0620 04:27:57.485543  3117 net.cpp:165] Memory required for data: 5534608200
I0620 04:27:57.485550  3117 layer_factory.hpp:77] Creating layer conv4_10_3x3/bn
I0620 04:27:57.485563  3117 net.cpp:106] Creating Layer conv4_10_3x3/bn
I0620 04:27:57.485569  3117 net.cpp:454] conv4_10_3x3/bn <- conv4_10_3x3
I0620 04:27:57.485574  3117 net.cpp:397] conv4_10_3x3/bn -> conv4_10_3x3 (in-place)
I0620 04:27:57.485733  3117 net.cpp:150] Setting up conv4_10_3x3/bn
I0620 04:27:57.485738  3117 net.cpp:157] Top shape: 3 256 60 60 (2764800)
I0620 04:27:57.485743  3117 net.cpp:165] Memory required for data: 5545667400
I0620 04:27:57.485749  3117 layer_factory.hpp:77] Creating layer conv4_10_3x3/relu
I0620 04:27:57.485760  3117 net.cpp:106] Creating Layer conv4_10_3x3/relu
I0620 04:27:57.485764  3117 net.cpp:454] conv4_10_3x3/relu <- conv4_10_3x3
I0620 04:27:57.485767  3117 net.cpp:397] conv4_10_3x3/relu -> conv4_10_3x3 (in-place)
I0620 04:27:57.485771  3117 net.cpp:150] Setting up conv4_10_3x3/relu
I0620 04:27:57.485775  3117 net.cpp:157] Top shape: 3 256 60 60 (2764800)
I0620 04:27:57.485777  3117 net.cpp:165] Memory required for data: 5556726600
I0620 04:27:57.485780  3117 layer_factory.hpp:77] Creating layer conv4_10_1x1_increase
I0620 04:27:57.485790  3117 net.cpp:106] Creating Layer conv4_10_1x1_increase
I0620 04:27:57.485792  3117 net.cpp:454] conv4_10_1x1_increase <- conv4_10_3x3
I0620 04:27:57.485800  3117 net.cpp:411] conv4_10_1x1_increase -> conv4_10_1x1_increase
I0620 04:27:57.493451  3117 net.cpp:150] Setting up conv4_10_1x1_increase
I0620 04:27:57.493474  3117 net.cpp:157] Top shape: 3 1024 60 60 (11059200)
I0620 04:27:57.493477  3117 net.cpp:165] Memory required for data: 5600963400
I0620 04:27:57.493485  3117 layer_factory.hpp:77] Creating layer conv4_10_1x1_increase/bn
I0620 04:27:57.493501  3117 net.cpp:106] Creating Layer conv4_10_1x1_increase/bn
I0620 04:27:57.493506  3117 net.cpp:454] conv4_10_1x1_increase/bn <- conv4_10_1x1_increase
I0620 04:27:57.493515  3117 net.cpp:397] conv4_10_1x1_increase/bn -> conv4_10_1x1_increase (in-place)
I0620 04:27:57.493713  3117 net.cpp:150] Setting up conv4_10_1x1_increase/bn
I0620 04:27:57.493721  3117 net.cpp:157] Top shape: 3 1024 60 60 (11059200)
I0620 04:27:57.493724  3117 net.cpp:165] Memory required for data: 5645200200
I0620 04:27:57.493731  3117 layer_factory.hpp:77] Creating layer conv4_10
I0620 04:27:57.493736  3117 net.cpp:106] Creating Layer conv4_10
I0620 04:27:57.493741  3117 net.cpp:454] conv4_10 <- conv4_9_conv4_9/relu_0_split_1
I0620 04:27:57.493746  3117 net.cpp:454] conv4_10 <- conv4_10_1x1_increase
I0620 04:27:57.493757  3117 net.cpp:411] conv4_10 -> conv4_10
I0620 04:27:57.493782  3117 net.cpp:150] Setting up conv4_10
I0620 04:27:57.493788  3117 net.cpp:157] Top shape: 3 1024 60 60 (11059200)
I0620 04:27:57.493791  3117 net.cpp:165] Memory required for data: 5689437000
I0620 04:27:57.493795  3117 layer_factory.hpp:77] Creating layer conv4_10/relu
I0620 04:27:57.493803  3117 net.cpp:106] Creating Layer conv4_10/relu
I0620 04:27:57.493806  3117 net.cpp:454] conv4_10/relu <- conv4_10
I0620 04:27:57.493813  3117 net.cpp:397] conv4_10/relu -> conv4_10 (in-place)
I0620 04:27:57.493819  3117 net.cpp:150] Setting up conv4_10/relu
I0620 04:27:57.493825  3117 net.cpp:157] Top shape: 3 1024 60 60 (11059200)
I0620 04:27:57.493829  3117 net.cpp:165] Memory required for data: 5733673800
I0620 04:27:57.493834  3117 layer_factory.hpp:77] Creating layer conv4_10_conv4_10/relu_0_split
I0620 04:27:57.493840  3117 net.cpp:106] Creating Layer conv4_10_conv4_10/relu_0_split
I0620 04:27:57.493845  3117 net.cpp:454] conv4_10_conv4_10/relu_0_split <- conv4_10
I0620 04:27:57.493849  3117 net.cpp:411] conv4_10_conv4_10/relu_0_split -> conv4_10_conv4_10/relu_0_split_0
I0620 04:27:57.493855  3117 net.cpp:411] conv4_10_conv4_10/relu_0_split -> conv4_10_conv4_10/relu_0_split_1
I0620 04:27:57.493890  3117 net.cpp:150] Setting up conv4_10_conv4_10/relu_0_split
I0620 04:27:57.493911  3117 net.cpp:157] Top shape: 3 1024 60 60 (11059200)
I0620 04:27:57.493917  3117 net.cpp:157] Top shape: 3 1024 60 60 (11059200)
I0620 04:27:57.493921  3117 net.cpp:165] Memory required for data: 5822147400
I0620 04:27:57.493924  3117 layer_factory.hpp:77] Creating layer conv4_11_1x1_reduce
I0620 04:27:57.493934  3117 net.cpp:106] Creating Layer conv4_11_1x1_reduce
I0620 04:27:57.493939  3117 net.cpp:454] conv4_11_1x1_reduce <- conv4_10_conv4_10/relu_0_split_0
I0620 04:27:57.493947  3117 net.cpp:411] conv4_11_1x1_reduce -> conv4_11_1x1_reduce
I0620 04:27:57.499605  3117 net.cpp:150] Setting up conv4_11_1x1_reduce
I0620 04:27:57.499614  3117 net.cpp:157] Top shape: 3 256 60 60 (2764800)
I0620 04:27:57.499617  3117 net.cpp:165] Memory required for data: 5833206600
I0620 04:27:57.499624  3117 layer_factory.hpp:77] Creating layer conv4_11_1x1_reduce/bn
I0620 04:27:57.499631  3117 net.cpp:106] Creating Layer conv4_11_1x1_reduce/bn
I0620 04:27:57.499636  3117 net.cpp:454] conv4_11_1x1_reduce/bn <- conv4_11_1x1_reduce
I0620 04:27:57.499644  3117 net.cpp:397] conv4_11_1x1_reduce/bn -> conv4_11_1x1_reduce (in-place)
I0620 04:27:57.499794  3117 net.cpp:150] Setting up conv4_11_1x1_reduce/bn
I0620 04:27:57.499799  3117 net.cpp:157] Top shape: 3 256 60 60 (2764800)
I0620 04:27:57.499802  3117 net.cpp:165] Memory required for data: 5844265800
I0620 04:27:57.499809  3117 layer_factory.hpp:77] Creating layer conv4_11_1x1_reduce/relu
I0620 04:27:57.499812  3117 net.cpp:106] Creating Layer conv4_11_1x1_reduce/relu
I0620 04:27:57.499815  3117 net.cpp:454] conv4_11_1x1_reduce/relu <- conv4_11_1x1_reduce
I0620 04:27:57.499820  3117 net.cpp:397] conv4_11_1x1_reduce/relu -> conv4_11_1x1_reduce (in-place)
I0620 04:27:57.499825  3117 net.cpp:150] Setting up conv4_11_1x1_reduce/relu
I0620 04:27:57.499830  3117 net.cpp:157] Top shape: 3 256 60 60 (2764800)
I0620 04:27:57.499832  3117 net.cpp:165] Memory required for data: 5855325000
I0620 04:27:57.499835  3117 layer_factory.hpp:77] Creating layer conv4_11_3x3
I0620 04:27:57.499841  3117 net.cpp:106] Creating Layer conv4_11_3x3
I0620 04:27:57.499845  3117 net.cpp:454] conv4_11_3x3 <- conv4_11_1x1_reduce
I0620 04:27:57.499850  3117 net.cpp:411] conv4_11_3x3 -> conv4_11_3x3
I0620 04:27:57.516695  3117 net.cpp:150] Setting up conv4_11_3x3
I0620 04:27:57.516772  3117 net.cpp:157] Top shape: 3 256 60 60 (2764800)
I0620 04:27:57.516779  3117 net.cpp:165] Memory required for data: 5866384200
I0620 04:27:57.516796  3117 layer_factory.hpp:77] Creating layer conv4_11_3x3/bn
I0620 04:27:57.516820  3117 net.cpp:106] Creating Layer conv4_11_3x3/bn
I0620 04:27:57.516834  3117 net.cpp:454] conv4_11_3x3/bn <- conv4_11_3x3
I0620 04:27:57.516845  3117 net.cpp:397] conv4_11_3x3/bn -> conv4_11_3x3 (in-place)
I0620 04:27:57.517112  3117 net.cpp:150] Setting up conv4_11_3x3/bn
I0620 04:27:57.517120  3117 net.cpp:157] Top shape: 3 256 60 60 (2764800)
I0620 04:27:57.517124  3117 net.cpp:165] Memory required for data: 5877443400
I0620 04:27:57.517133  3117 layer_factory.hpp:77] Creating layer conv4_11_3x3/relu
I0620 04:27:57.517144  3117 net.cpp:106] Creating Layer conv4_11_3x3/relu
…
I0620 04:27:57.807154  3117 net.cpp:411] conv4_21 -> conv4_21
I0620 04:27:57.807175  3117 net.cpp:150] Setting up conv4_21
I0620 04:27:57.807179  3117 net.cpp:157] Top shape: 3 1024 60 60 (11059200)
I0620 04:27:57.807183  3117 net.cpp:165] Memory required for data: 9338973000
I0620 04:27:57.807185  3117 layer_factory.hpp:77] Creating layer conv4_21/relu
I0620 04:27:57.807193  3117 net.cpp:106] Creating Layer conv4_21/relu
I0620 04:27:57.807196  3117 net.cpp:454] conv4_21/relu <- conv4_21
I0620 04:27:57.807200  3117 net.cpp:397] conv4_21/relu -> conv4_21 (in-place)
I0620 04:27:57.807206  3117 net.cpp:150] Setting up conv4_21/relu
I0620 04:27:57.807209  3117 net.cpp:157] Top shape: 3 1024 60 60 (11059200)
I0620 04:27:57.807212  3117 net.cpp:165] Memory required for data: 9383209800
I0620 04:27:57.807215  3117 layer_factory.hpp:77] Creating layer conv4_21_conv4_21/relu_0_split
I0620 04:27:57.807220  3117 net.cpp:106] Creating Layer conv4_21_conv4_21/relu_0_split
I0620 04:27:57.807224  3117 net.cpp:454] conv4_21_conv4_21/relu_0_split <- conv4_21
I0620 04:27:57.807267  3117 net.cpp:411] conv4_21_conv4_21/relu_0_split -> conv4_21_conv4_21/relu_0_split_0
I0620 04:27:57.807272  3117 net.cpp:411] conv4_21_conv4_21/relu_0_split -> conv4_21_conv4_21/relu_0_split_1
I0620 04:27:57.807299  3117 net.cpp:150] Setting up conv4_21_conv4_21/relu_0_split
I0620 04:27:57.807304  3117 net.cpp:157] Top shape: 3 1024 60 60 (11059200)
I0620 04:27:57.807307  3117 net.cpp:157] Top shape: 3 1024 60 60 (11059200)
I0620 04:27:57.807310  3117 net.cpp:165] Memory required for data: 9471683400
I0620 04:27:57.807313  3117 layer_factory.hpp:77] Creating layer conv4_22_1x1_reduce
I0620 04:27:57.807323  3117 net.cpp:106] Creating Layer conv4_22_1x1_reduce
I0620 04:27:57.807327  3117 net.cpp:454] conv4_22_1x1_reduce <- conv4_21_conv4_21/relu_0_split_0
I0620 04:27:57.807332  3117 net.cpp:411] conv4_22_1x1_reduce -> conv4_22_1x1_reduce
I0620 04:27:57.815773  3117 net.cpp:150] Setting up conv4_22_1x1_reduce
I0620 04:27:57.815834  3117 net.cpp:157] Top shape: 3 256 60 60 (2764800)
I0620 04:27:57.815840  3117 net.cpp:165] Memory required for data: 9482742600
I0620 04:27:57.815855  3117 layer_factory.hpp:77] Creating layer conv4_22_1x1_reduce/bn
I0620 04:27:57.815874  3117 net.cpp:106] Creating Layer conv4_22_1x1_reduce/bn
I0620 04:27:57.815883  3117 net.cpp:454] conv4_22_1x1_reduce/bn <- conv4_22_1x1_reduce
I0620 04:27:57.815896  3117 net.cpp:397] conv4_22_1x1_reduce/bn -> conv4_22_1x1_reduce (in-place)
I0620 04:27:57.816098  3117 net.cpp:150] Setting up conv4_22_1x1_reduce/bn
I0620 04:27:57.816107  3117 net.cpp:157] Top shape: 3 256 60 60 (2764800)
I0620 04:27:57.816109  3117 net.cpp:165] Memory required for data: 9493801800
I0620 04:27:57.816114  3117 layer_factory.hpp:77] Creating layer conv4_22_1x1_reduce/relu
I0620 04:27:57.816123  3117 net.cpp:106] Creating Layer conv4_22_1x1_reduce/relu
I0620 04:27:57.816125  3117 net.cpp:454] conv4_22_1x1_reduce/relu <- conv4_22_1x1_reduce
I0620 04:27:57.816131  3117 net.cpp:397] conv4_22_1x1_reduce/relu -> conv4_22_1x1_reduce (in-place)
I0620 04:27:57.816136  3117 net.cpp:150] Setting up conv4_22_1x1_reduce/relu
I0620 04:27:57.816139  3117 net.cpp:157] Top shape: 3 256 60 60 (2764800)
I0620 04:27:57.816143  3117 net.cpp:165] Memory required for data: 9504861000
I0620 04:27:57.816145  3117 layer_factory.hpp:77] Creating layer conv4_22_3x3
I0620 04:27:57.816155  3117 net.cpp:106] Creating Layer conv4_22_3x3
I0620 04:27:57.816159  3117 net.cpp:454] conv4_22_3x3 <- conv4_22_1x1_reduce
I0620 04:27:57.816161  3117 net.cpp:411] conv4_22_3x3 -> conv4_22_3x3
I0620 04:27:57.829386  3117 net.cpp:150] Setting up conv4_22_3x3
I0620 04:27:57.829401  3117 net.cpp:157] Top shape: 3 256 60 60 (2764800)
I0620 04:27:57.829404  3117 net.cpp:165] Memory required for data: 9515920200
I0620 04:27:57.829411  3117 layer_factory.hpp:77] Creating layer conv4_22_3x3/bn
I0620 04:27:57.829421  3117 net.cpp:106] Creating Layer conv4_22_3x3/bn
I0620 04:27:57.829426  3117 net.cpp:454] conv4_22_3x3/bn <- conv4_22_3x3
I0620 04:27:57.829430  3117 net.cpp:397] conv4_22_3x3/bn -> conv4_22_3x3 (in-place)
I0620 04:27:57.829604  3117 net.cpp:150] Setting up conv4_22_3x3/bn
I0620 04:27:57.829609  3117 net.cpp:157] Top shape: 3 256 60 60 (2764800)
I0620 04:27:57.829612  3117 net.cpp:165] Memory required for data: 9526979400
I0620 04:27:57.829617  3117 layer_factory.hpp:77] Creating layer conv4_22_3x3/relu
I0620 04:27:57.829622  3117 net.cpp:106] Creating Layer conv4_22_3x3/relu
I0620 04:27:57.829627  3117 net.cpp:454] conv4_22_3x3/relu <- conv4_22_3x3
I0620 04:27:57.829629  3117 net.cpp:397] conv4_22_3x3/relu -> conv4_22_3x3 (in-place)
I0620 04:27:57.829634  3117 net.cpp:150] Setting up conv4_22_3x3/relu
I0620 04:27:57.829638  3117 net.cpp:157] Top shape: 3 256 60 60 (2764800)
I0620 04:27:57.829640  3117 net.cpp:165] Memory required for data: 9538038600
I0620 04:27:57.829643  3117 layer_factory.hpp:77] Creating layer conv4_22_1x1_increase
I0620 04:27:57.829649  3117 net.cpp:106] Creating Layer conv4_22_1x1_increase
I0620 04:27:57.829653  3117 net.cpp:454] conv4_22_1x1_increase <- conv4_22_3x3
I0620 04:27:57.829674  3117 net.cpp:411] conv4_22_1x1_increase -> conv4_22_1x1_increase
I0620 04:27:57.836017  3117 net.cpp:150] Setting up conv4_22_1x1_increase
I0620 04:27:57.836030  3117 net.cpp:157] Top shape: 3 1024 60 60 (11059200)
I0620 04:27:57.836032  3117 net.cpp:165] Memory required for data: 9582275400
I0620 04:27:57.836036  3117 layer_factory.hpp:77] Creating layer conv4_22_1x1_increase/bn
I0620 04:27:57.836043  3117 net.cpp:106] Creating Layer conv4_22_1x1_increase/bn
I0620 04:27:57.836047  3117 net.cpp:454] conv4_22_1x1_increase/bn <- conv4_22_1x1_increase
I0620 04:27:57.836051  3117 net.cpp:397] conv4_22_1x1_increase/bn -> conv4_22_1x1_increase (in-place)
I0620 04:27:57.836222  3117 net.cpp:150] Setting up conv4_22_1x1_increase/bn
I0620 04:27:57.836227  3117 net.cpp:157] Top shape: 3 1024 60 60 (11059200)
I0620 04:27:57.836230  3117 net.cpp:165] Memory required for data: 9626512200
I0620 04:27:57.836235  3117 layer_factory.hpp:77] Creating layer conv4_22
I0620 04:27:57.836239  3117 net.cpp:106] Creating Layer conv4_22
I0620 04:27:57.836242  3117 net.cpp:454] conv4_22 <- conv4_21_conv4_21/relu_0_split_1
I0620 04:27:57.836244  3117 net.cpp:454] conv4_22 <- conv4_22_1x1_increase
I0620 04:27:57.836248  3117 net.cpp:411] conv4_22 -> conv4_22
I0620 04:27:57.836264  3117 net.cpp:150] Setting up conv4_22
I0620 04:27:57.836268  3117 net.cpp:157] Top shape: 3 1024 60 60 (11059200)
I0620 04:27:57.836271  3117 net.cpp:165] Memory required for data: 9670749000
I0620 04:27:57.836272  3117 layer_factory.hpp:77] Creating layer conv4_22/relu
I0620 04:27:57.836277  3117 net.cpp:106] Creating Layer conv4_22/relu
I0620 04:27:57.836278  3117 net.cpp:454] conv4_22/relu <- conv4_22
I0620 04:27:57.836282  3117 net.cpp:397] conv4_22/relu -> conv4_22 (in-place)
I0620 04:27:57.836285  3117 net.cpp:150] Setting up conv4_22/relu
I0620 04:27:57.836288  3117 net.cpp:157] Top shape: 3 1024 60 60 (11059200)
I0620 04:27:57.836290  3117 net.cpp:165] Memory required for data: 9714985800
I0620 04:27:57.836292  3117 layer_factory.hpp:77] Creating layer conv4_22_conv4_22/relu_0_split
I0620 04:27:57.836297  3117 net.cpp:106] Creating Layer conv4_22_conv4_22/relu_0_split
I0620 04:27:57.836299  3117 net.cpp:454] conv4_22_conv4_22/relu_0_split <- conv4_22
I0620 04:27:57.836302  3117 net.cpp:411] conv4_22_conv4_22/relu_0_split -> conv4_22_conv4_22/relu_0_split_0
I0620 04:27:57.836307  3117 net.cpp:411] conv4_22_conv4_22/relu_0_split -> conv4_22_conv4_22/relu_0_split_1
I0620 04:27:57.836333  3117 net.cpp:150] Setting up conv4_22_conv4_22/relu_0_split
I0620 04:27:57.836336  3117 net.cpp:157] Top shape: 3 1024 60 60 (11059200)
I0620 04:27:57.836338  3117 net.cpp:157] Top shape: 3 1024 60 60 (11059200)
I0620 04:27:57.836340  3117 net.cpp:165] Memory required for data: 9803459400
I0620 04:27:57.836343  3117 layer_factory.hpp:77] Creating layer conv4_23_1x1_reduce
I0620 04:27:57.836349  3117 net.cpp:106] Creating Layer conv4_23_1x1_reduce
I0620 04:27:57.836351  3117 net.cpp:454] conv4_23_1x1_reduce <- conv4_22_conv4_22/relu_0_split_0
I0620 04:27:57.836355  3117 net.cpp:411] conv4_23_1x1_reduce -> conv4_23_1x1_reduce
I0620 04:27:57.841928  3117 net.cpp:150] Setting up conv4_23_1x1_reduce
I0620 04:27:57.841936  3117 net.cpp:157] Top shape: 3 256 60 60 (2764800)
I0620 04:27:57.841938  3117 net.cpp:165] Memory required for data: 9814518600
I0620 04:27:57.841943  3117 layer_factory.hpp:77] Creating layer conv4_23_1x1_reduce/bn
I0620 04:27:57.841948  3117 net.cpp:106] Creating Layer conv4_23_1x1_reduce/bn
I0620 04:27:57.841950  3117 net.cpp:454] conv4_23_1x1_reduce/bn <- conv4_23_1x1_reduce
I0620 04:27:57.841955  3117 net.cpp:397] conv4_23_1x1_reduce/bn -> conv4_23_1x1_reduce (in-place)
I0620 04:27:57.842115  3117 net.cpp:150] Setting up conv4_23_1x1_reduce/bn
I0620 04:27:57.842121  3117 net.cpp:157] Top shape: 3 256 60 60 (2764800)
I0620 04:27:57.842123  3117 net.cpp:165] Memory required for data: 9825577800
I0620 04:27:57.842128  3117 layer_factory.hpp:77] Creating layer conv4_23_1x1_reduce/relu
I0620 04:27:57.842133  3117 net.cpp:106] Creating Layer conv4_23_1x1_reduce/relu
I0620 04:27:57.842166  3117 net.cpp:454] conv4_23_1x1_reduce/relu <- conv4_23_1x1_reduce
I0620 04:27:57.842171  3117 net.cpp:397] conv4_23_1x1_reduce/relu -> conv4_23_1x1_reduce (in-place)
I0620 04:27:57.842175  3117 net.cpp:150] Setting up conv4_23_1x1_reduce/relu
I0620 04:27:57.842177  3117 net.cpp:157] Top shape: 3 256 60 60 (2764800)
I0620 04:27:57.842180  3117 net.cpp:165] Memory required for data: 9836637000
I0620 04:27:57.842182  3117 layer_factory.hpp:77] Creating layer conv4_23_3x3
I0620 04:27:57.842188  3117 net.cpp:106] Creating Layer conv4_23_3x3
I0620 04:27:57.842190  3117 net.cpp:454] conv4_23_3x3 <- conv4_23_1x1_reduce
I0620 04:27:57.842193  3117 net.cpp:411] conv4_23_3x3 -> conv4_23_3x3
I0620 04:27:57.859796  3117 net.cpp:150] Setting up conv4_23_3x3
I0620 04:27:57.859818  3117 net.cpp:157] Top shape: 3 256 60 60 (2764800)
I0620 04:27:57.859822  3117 net.cpp:165] Memory required for data: 9847696200
I0620 04:27:57.859834  3117 layer_factory.hpp:77] Creating layer conv4_23_3x3/bn
I0620 04:27:57.859850  3117 net.cpp:106] Creating Layer conv4_23_3x3/bn
I0620 04:27:57.859859  3117 net.cpp:454] conv4_23_3x3/bn <- conv4_23_3x3
I0620 04:27:57.859866  3117 net.cpp:397] conv4_23_3x3/bn -> conv4_23_3x3 (in-place)
I0620 04:27:57.860070  3117 net.cpp:150] Setting up conv4_23_3x3/bn
I0620 04:27:57.860075  3117 net.cpp:157] Top shape: 3 256 60 60 (2764800)
I0620 04:27:57.860080  3117 net.cpp:165] Memory required for data: 9858755400
I0620 04:27:57.860085  3117 layer_factory.hpp:77] Creating layer conv4_23_3x3/relu
I0620 04:27:57.860090  3117 net.cpp:106] Creating Layer conv4_23_3x3/relu
I0620 04:27:57.860093  3117 net.cpp:454] conv4_23_3x3/relu <- conv4_23_3x3
I0620 04:27:57.860096  3117 net.cpp:397] conv4_23_3x3/relu -> conv4_23_3x3 (in-place)
I0620 04:27:57.860100  3117 net.cpp:150] Setting up conv4_23_3x3/relu
I0620 04:27:57.860105  3117 net.cpp:157] Top shape: 3 256 60 60 (2764800)
I0620 04:27:57.860106  3117 net.cpp:165] Memory required for data: 9869814600
I0620 04:27:57.860110  3117 layer_factory.hpp:77] Creating layer conv4_23_1x1_increase
I0620 04:27:57.860116  3117 net.cpp:106] Creating Layer conv4_23_1x1_increase
I0620 04:27:57.860119  3117 net.cpp:454] conv4_23_1x1_increase <- conv4_23_3x3
I0620 04:27:57.860123  3117 net.cpp:411] conv4_23_1x1_increase -> conv4_23_1x1_increase
I0620 04:27:57.866495  3117 net.cpp:150] Setting up conv4_23_1x1_increase
I0620 04:27:57.866506  3117 net.cpp:157] Top shape: 3 1024 60 60 (11059200)
I0620 04:27:57.866509  3117 net.cpp:165] Memory required for data: 9914051400
I0620 04:27:57.866514  3117 layer_factory.hpp:77] Creating layer conv4_23_1x1_increase/bn
I0620 04:27:57.866520  3117 net.cpp:106] Creating Layer conv4_23_1x1_increase/bn
I0620 04:27:57.866524  3117 net.cpp:454] conv4_23_1x1_increase/bn <- conv4_23_1x1_increase
I0620 04:27:57.866530  3117 net.cpp:397] conv4_23_1x1_increase/bn -> conv4_23_1x1_increase (in-place)
I0620 04:27:57.866701  3117 net.cpp:150] Setting up conv4_23_1x1_increase/bn
I0620 04:27:57.866708  3117 net.cpp:157] Top shape: 3 1024 60 60 (11059200)
I0620 04:27:57.866710  3117 net.cpp:165] Memory required for data: 9958288200
I0620 04:27:57.866715  3117 layer_factory.hpp:77] Creating layer conv4_23
I0620 04:27:57.866722  3117 net.cpp:106] Creating Layer conv4_23
I0620 04:27:57.866725  3117 net.cpp:454] conv4_23 <- conv4_22_conv4_22/relu_0_split_1
I0620 04:27:57.866729  3117 net.cpp:454] conv4_23 <- conv4_23_1x1_increase
I0620 04:27:57.866734  3117 net.cpp:411] conv4_23 -> conv4_23
I0620 04:27:57.866751  3117 net.cpp:150] Setting up conv4_23
I0620 04:27:57.866755  3117 net.cpp:157] Top shape: 3 1024 60 60 (11059200)
I0620 04:27:57.866757  3117 net.cpp:165] Memory required for data: 10002525000
I0620 04:27:57.866760  3117 layer_factory.hpp:77] Creating layer conv4_23/relu
I0620 04:27:57.866765  3117 net.cpp:106] Creating Layer conv4_23/relu
I0620 04:27:57.866767  3117 net.cpp:454] conv4_23/relu <- conv4_23
I0620 04:27:57.866770  3117 net.cpp:397] conv4_23/relu -> conv4_23 (in-place)
I0620 04:27:57.866775  3117 net.cpp:150] Setting up conv4_23/relu
I0620 04:27:57.866793  3117 net.cpp:157] Top shape: 3 1024 60 60 (11059200)
I0620 04:27:57.866796  3117 net.cpp:165] Memory required for data: 10046761800
I0620 04:27:57.866799  3117 layer_factory.hpp:77] Creating layer conv4_23_conv4_23/relu_0_split
I0620 04:27:57.866803  3117 net.cpp:106] Creating Layer conv4_23_conv4_23/relu_0_split
I0620 04:27:57.866806  3117 net.cpp:454] conv4_23_conv4_23/relu_0_split <- conv4_23
I0620 04:27:57.866811  3117 net.cpp:411] conv4_23_conv4_23/relu_0_split -> conv4_23_conv4_23/relu_0_split_0
I0620 04:27:57.866814  3117 net.cpp:411] conv4_23_conv4_23/relu_0_split -> conv4_23_conv4_23/relu_0_split_1
I0620 04:27:57.866840  3117 net.cpp:150] Setting up conv4_23_conv4_23/relu_0_split
I0620 04:27:57.866844  3117 net.cpp:157] Top shape: 3 1024 60 60 (11059200)
I0620 04:27:57.866847  3117 net.cpp:157] Top shape: 3 1024 60 60 (11059200)
I0620 04:27:57.866849  3117 net.cpp:165] Memory required for data: 10135235400
I0620 04:27:57.866852  3117 layer_factory.hpp:77] Creating layer conv5_1_1x1_reduce
I0620 04:27:57.866859  3117 net.cpp:106] Creating Layer conv5_1_1x1_reduce
I0620 04:27:57.866863  3117 net.cpp:454] conv5_1_1x1_reduce <- conv4_23_conv4_23/relu_0_split_0
I0620 04:27:57.866868  3117 net.cpp:411] conv5_1_1x1_reduce -> conv5_1_1x1_reduce
I0620 04:27:57.878556  3117 net.cpp:150] Setting up conv5_1_1x1_reduce
I0620 04:27:57.878572  3117 net.cpp:157] Top shape: 3 512 60 60 (5529600)
I0620 04:27:57.878576  3117 net.cpp:165] Memory required for data: 10157353800
I0620 04:27:57.878583  3117 layer_factory.hpp:77] Creating layer conv5_1_1x1_reduce/bn
I0620 04:27:57.878595  3117 net.cpp:106] Creating Layer conv5_1_1x1_reduce/bn
I0620 04:27:57.878599  3117 net.cpp:454] conv5_1_1x1_reduce/bn <- conv5_1_1x1_reduce
I0620 04:27:57.878604  3117 net.cpp:397] conv5_1_1x1_reduce/bn -> conv5_1_1x1_reduce (in-place)
I0620 04:27:57.878770  3117 net.cpp:150] Setting up conv5_1_1x1_reduce/bn
I0620 04:27:57.878774  3117 net.cpp:157] Top shape: 3 512 60 60 (5529600)
I0620 04:27:57.878777  3117 net.cpp:165] Memory required for data: 10179472200
I0620 04:27:57.878783  3117 layer_factory.hpp:77] Creating layer conv5_1_1x1_reduce/relu
I0620 04:27:57.878787  3117 net.cpp:106] Creating Layer conv5_1_1x1_reduce/relu
I0620 04:27:57.878790  3117 net.cpp:454] conv5_1_1x1_reduce/relu <- conv5_1_1x1_reduce
I0620 04:27:57.878793  3117 net.cpp:397] conv5_1_1x1_reduce/relu -> conv5_1_1x1_reduce (in-place)
I0620 04:27:57.878798  3117 net.cpp:150] Setting up conv5_1_1x1_reduce/relu
I0620 04:27:57.878801  3117 net.cpp:157] Top shape: 3 512 60 60 (5529600)
I0620 04:27:57.878803  3117 net.cpp:165] Memory required for data: 10201590600
I0620 04:27:57.878806  3117 layer_factory.hpp:77] Creating layer conv5_1_3x3
I0620 04:27:57.878813  3117 net.cpp:106] Creating Layer conv5_1_3x3
I0620 04:27:57.878815  3117 net.cpp:454] conv5_1_3x3 <- conv5_1_1x1_reduce
I0620 04:27:57.878820  3117 net.cpp:411] conv5_1_3x3 -> conv5_1_3x3
I0620 04:27:57.938019  3117 net.cpp:150] Setting up conv5_1_3x3
I0620 04:27:57.938117  3117 net.cpp:157] Top shape: 3 512 60 60 (5529600)
I0620 04:27:57.938124  3117 net.cpp:165] Memory required for data: 10223709000
I0620 04:27:57.938141  3117 layer_factory.hpp:77] Creating layer conv5_1_3x3/bn
I0620 04:27:57.938171  3117 net.cpp:106] Creating Layer conv5_1_3x3/bn
I0620 04:27:57.938185  3117 net.cpp:454] conv5_1_3x3/bn <- conv5_1_3x3
I0620 04:27:57.938199  3117 net.cpp:397] conv5_1_3x3/bn -> conv5_1_3x3 (in-place)
I0620 04:27:57.938526  3117 net.cpp:150] Setting up conv5_1_3x3/bn
I0620 04:27:57.938539  3117 net.cpp:157] Top shape: 3 512 60 60 (5529600)
I0620 04:27:57.938544  3117 net.cpp:165] Memory required for data: 10245827400
I0620 04:27:57.938552  3117 layer_factory.hpp:77] Creating layer conv5_1_3x3/relu
I0620 04:27:57.938565  3117 net.cpp:106] Creating Layer conv5_1_3x3/relu
I0620 04:27:57.938571  3117 net.cpp:454] conv5_1_3x3/relu <- conv5_1_3x3
I0620 04:27:57.938576  3117 net.cpp:397] conv5_1_3x3/relu -> conv5_1_3x3 (in-place)
I0620 04:27:57.938583  3117 net.cpp:150] Setting up conv5_1_3x3/relu
I0620 04:27:57.938642  3117 net.cpp:157] Top shape: 3 512 60 60 (5529600)
I0620 04:27:57.938647  3117 net.cpp:165] Memory required for data: 10267945800
I0620 04:27:57.938650  3117 layer_factory.hpp:77] Creating layer conv5_1_1x1_increase
I0620 04:27:57.938663  3117 net.cpp:106] Creating Layer conv5_1_1x1_increase
I0620 04:27:57.938668  3117 net.cpp:454] conv5_1_1x1_increase <- conv5_1_3x3
I0620 04:27:57.938675  3117 net.cpp:411] conv5_1_1x1_increase -> conv5_1_1x1_increase
I0620 04:27:57.964171  3117 net.cpp:150] Setting up conv5_1_1x1_increase
I0620 04:27:57.964197  3117 net.cpp:157] Top shape: 3 2048 60 60 (22118400)
I0620 04:27:57.964200  3117 net.cpp:165] Memory required for data: 10356419400
I0620 04:27:57.964210  3117 layer_factory.hpp:77] Creating layer conv5_1_1x1_increase/bn
I0620 04:27:57.964223  3117 net.cpp:106] Creating Layer conv5_1_1x1_increase/bn
I0620 04:27:57.964231  3117 net.cpp:454] conv5_1_1x1_increase/bn <- conv5_1_1x1_increase
I0620 04:27:57.964237  3117 net.cpp:397] conv5_1_1x1_increase/bn -> conv5_1_1x1_increase (in-place)
I0620 04:27:57.964426  3117 net.cpp:150] Setting up conv5_1_1x1_increase/bn
I0620 04:27:57.964432  3117 net.cpp:157] Top shape: 3 2048 60 60 (22118400)
I0620 04:27:57.964435  3117 net.cpp:165] Memory required for data: 10444893000
I0620 04:27:57.964440  3117 layer_factory.hpp:77] Creating layer conv5_1_1x1_proj
I0620 04:27:57.964449  3117 net.cpp:106] Creating Layer conv5_1_1x1_proj
I0620 04:27:57.964453  3117 net.cpp:454] conv5_1_1x1_proj <- conv4_23_conv4_23/relu_0_split_1
I0620 04:27:57.964457  3117 net.cpp:411] conv5_1_1x1_proj -> conv5_1_1x1_proj
I0620 04:27:58.015698  3117 net.cpp:150] Setting up conv5_1_1x1_proj
I0620 04:27:58.015786  3117 net.cpp:157] Top shape: 3 2048 60 60 (22118400)
I0620 04:27:58.015797  3117 net.cpp:165] Memory required for data: 10533366600
I0620 04:27:58.015815  3117 layer_factory.hpp:77] Creating layer conv5_1_1x1_proj/bn
I0620 04:27:58.015846  3117 net.cpp:106] Creating Layer conv5_1_1x1_proj/bn
I0620 04:27:58.015861  3117 net.cpp:454] conv5_1_1x1_proj/bn <- conv5_1_1x1_proj
I0620 04:27:58.015874  3117 net.cpp:397] conv5_1_1x1_proj/bn -> conv5_1_1x1_proj (in-place)
I0620 04:27:58.016178  3117 net.cpp:150] Setting up conv5_1_1x1_proj/bn
I0620 04:27:58.016186  3117 net.cpp:157] Top shape: 3 2048 60 60 (22118400)
I0620 04:27:58.016196  3117 net.cpp:165] Memory required for data: 10621840200
I0620 04:27:58.016204  3117 layer_factory.hpp:77] Creating layer conv5_1
I0620 04:27:58.016217  3117 net.cpp:106] Creating Layer conv5_1
I0620 04:27:58.016222  3117 net.cpp:454] conv5_1 <- conv5_1_1x1_proj
I0620 04:27:58.016227  3117 net.cpp:454] conv5_1 <- conv5_1_1x1_increase
I0620 04:27:58.016233  3117 net.cpp:411] conv5_1 -> conv5_1
I0620 04:27:58.016263  3117 net.cpp:150] Setting up conv5_1
I0620 04:27:58.016269  3117 net.cpp:157] Top shape: 3 2048 60 60 (22118400)
I0620 04:27:58.016273  3117 net.cpp:165] Memory required for data: 10710313800
I0620 04:27:58.016278  3117 layer_factory.hpp:77] Creating layer conv5_1/relu
I0620 04:27:58.016288  3117 net.cpp:106] Creating Layer conv5_1/relu
I0620 04:27:58.016291  3117 net.cpp:454] conv5_1/relu <- conv5_1
I0620 04:27:58.016301  3117 net.cpp:397] conv5_1/relu -> conv5_1 (in-place)
I0620 04:27:58.016307  3117 net.cpp:150] Setting up conv5_1/relu
I0620 04:27:58.016312  3117 net.cpp:157] Top shape: 3 2048 60 60 (22118400)
I0620 04:27:58.016316  3117 net.cpp:165] Memory required for data: 10798787400
I0620 04:27:58.016321  3117 layer_factory.hpp:77] Creating layer conv5_1_conv5_1/relu_0_split
I0620 04:27:58.016330  3117 net.cpp:106] Creating Layer conv5_1_conv5_1/relu_0_split
I0620 04:27:58.016333  3117 net.cpp:454] conv5_1_conv5_1/relu_0_split <- conv5_1
I0620 04:27:58.016340  3117 net.cpp:411] conv5_1_conv5_1/relu_0_split -> conv5_1_conv5_1/relu_0_split_0
I0620 04:27:58.016347  3117 net.cpp:411] conv5_1_conv5_1/relu_0_split -> conv5_1_conv5_1/relu_0_split_1
I0620 04:27:58.016383  3117 net.cpp:150] Setting up conv5_1_conv5_1/relu_0_split
I0620 04:27:58.016391  3117 net.cpp:157] Top shape: 3 2048 60 60 (22118400)
I0620 04:27:58.016451  3117 net.cpp:157] Top shape: 3 2048 60 60 (22118400)
I0620 04:27:58.016456  3117 net.cpp:165] Memory required for data: 10975734600
I0620 04:27:58.016460  3117 layer_factory.hpp:77] Creating layer conv5_2_1x1_reduce
I0620 04:27:58.016475  3117 net.cpp:106] Creating Layer conv5_2_1x1_reduce
I0620 04:27:58.016480  3117 net.cpp:454] conv5_2_1x1_reduce <- conv5_1_conv5_1/relu_0_split_0
I0620 04:27:58.016489  3117 net.cpp:411] conv5_2_1x1_reduce -> conv5_2_1x1_reduce
I0620 04:27:58.043872  3117 net.cpp:150] Setting up conv5_2_1x1_reduce
I0620 04:27:58.043893  3117 net.cpp:157] Top shape: 3 512 60 60 (5529600)
I0620 04:27:58.043896  3117 net.cpp:165] Memory required for data: 10997853000
I0620 04:27:58.043905  3117 layer_factory.hpp:77] Creating layer conv5_2_1x1_reduce/bn
I0620 04:27:58.043916  3117 net.cpp:106] Creating Layer conv5_2_1x1_reduce/bn
I0620 04:27:58.043921  3117 net.cpp:454] conv5_2_1x1_reduce/bn <- conv5_2_1x1_reduce
I0620 04:27:58.043927  3117 net.cpp:397] conv5_2_1x1_reduce/bn -> conv5_2_1x1_reduce (in-place)
I0620 04:27:58.044121  3117 net.cpp:150] Setting up conv5_2_1x1_reduce/bn
I0620 04:27:58.044126  3117 net.cpp:157] Top shape: 3 512 60 60 (5529600)
I0620 04:27:58.044128  3117 net.cpp:165] Memory required for data: 11019971400
I0620 04:27:58.044134  3117 layer_factory.hpp:77] Creating layer conv5_2_1x1_reduce/relu
I0620 04:27:58.044139  3117 net.cpp:106] Creating Layer conv5_2_1x1_reduce/relu
I0620 04:27:58.044142  3117 net.cpp:454] conv5_2_1x1_reduce/relu <- conv5_2_1x1_reduce
I0620 04:27:58.044145  3117 net.cpp:397] conv5_2_1x1_reduce/relu -> conv5_2_1x1_reduce (in-place)
I0620 04:27:58.044149  3117 net.cpp:150] Setting up conv5_2_1x1_reduce/relu
I0620 04:27:58.044153  3117 net.cpp:157] Top shape: 3 512 60 60 (5529600)
I0620 04:27:58.044155  3117 net.cpp:165] Memory required for data: 11042089800
I0620 04:27:58.044159  3117 layer_factory.hpp:77] Creating layer conv5_2_3x3
I0620 04:27:58.044169  3117 net.cpp:106] Creating Layer conv5_2_3x3
I0620 04:27:58.044173  3117 net.cpp:454] conv5_2_3x3 <- conv5_2_1x1_reduce
I0620 04:27:58.044176  3117 net.cpp:411] conv5_2_3x3 -> conv5_2_3x3
I0620 04:27:58.102291  3117 net.cpp:150] Setting up conv5_2_3x3
I0620 04:27:58.102372  3117 net.cpp:157] Top shape: 3 512 60 60 (5529600)
I0620 04:27:58.102380  3117 net.cpp:165] Memory required for data: 11064208200
I0620 04:27:58.102396  3117 layer_factory.hpp:77] Creating layer conv5_2_3x3/bn
I0620 04:27:58.102424  3117 net.cpp:106] Creating Layer conv5_2_3x3/bn
I0620 04:27:58.102437  3117 net.cpp:454] conv5_2_3x3/bn <- conv5_2_3x3
I0620 04:27:58.102452  3117 net.cpp:397] conv5_2_3x3/bn -> conv5_2_3x3 (in-place)
I0620 04:27:58.102761  3117 net.cpp:150] Setting up conv5_2_3x3/bn
I0620 04:27:58.102771  3117 net.cpp:157] Top shape: 3 512 60 60 (5529600)
I0620 04:27:58.102776  3117 net.cpp:165] Memory required for data: 11086326600
I0620 04:27:58.102784  3117 layer_factory.hpp:77] Creating layer conv5_2_3x3/relu
I0620 04:27:58.102797  3117 net.cpp:106] Creating Layer conv5_2_3x3/relu
I0620 04:27:58.102802  3117 net.cpp:454] conv5_2_3x3/relu <- conv5_2_3x3
I0620 04:27:58.102809  3117 net.cpp:397] conv5_2_3x3/relu -> conv5_2_3x3 (in-place)
I0620 04:27:58.102818  3117 net.cpp:150] Setting up conv5_2_3x3/relu
I0620 04:27:58.102823  3117 net.cpp:157] Top shape: 3 512 60 60 (5529600)
I0620 04:27:58.102828  3117 net.cpp:165] Memory required for data: 11108445000
I0620 04:27:58.102833  3117 layer_factory.hpp:77] Creating layer conv5_2_1x1_increase
I0620 04:27:58.102844  3117 net.cpp:106] Creating Layer conv5_2_1x1_increase
I0620 04:27:58.102849  3117 net.cpp:454] conv5_2_1x1_increase <- conv5_2_3x3
I0620 04:27:58.102856  3117 net.cpp:411] conv5_2_1x1_increase -> conv5_2_1x1_increase
I0620 04:27:58.129384  3117 net.cpp:150] Setting up conv5_2_1x1_increase
I0620 04:27:58.129415  3117 net.cpp:157] Top shape: 3 2048 60 60 (22118400)
I0620 04:27:58.129420  3117 net.cpp:165] Memory required for data: 11196918600
I0620 04:27:58.129433  3117 layer_factory.hpp:77] Creating layer conv5_2_1x1_increase/bn
I0620 04:27:58.129443  3117 net.cpp:106] Creating Layer conv5_2_1x1_increase/bn
I0620 04:27:58.129470  3117 net.cpp:454] conv5_2_1x1_increase/bn <- conv5_2_1x1_increase
I0620 04:27:58.129477  3117 net.cpp:397] conv5_2_1x1_increase/bn -> conv5_2_1x1_increase (in-place)
I0620 04:27:58.129664  3117 net.cpp:150] Setting up conv5_2_1x1_increase/bn
I0620 04:27:58.129668  3117 net.cpp:157] Top shape: 3 2048 60 60 (22118400)
I0620 04:27:58.129672  3117 net.cpp:165] Memory required for data: 11285392200
I0620 04:27:58.129729  3117 layer_factory.hpp:77] Creating layer conv5_2
I0620 04:27:58.129734  3117 net.cpp:106] Creating Layer conv5_2
I0620 04:27:58.129739  3117 net.cpp:454] conv5_2 <- conv5_1_conv5_1/relu_0_split_1
I0620 04:27:58.129742  3117 net.cpp:454] conv5_2 <- conv5_2_1x1_increase
I0620 04:27:58.129745  3117 net.cpp:411] conv5_2 -> conv5_2
I0620 04:27:58.129776  3117 net.cpp:150] Setting up conv5_2
I0620 04:27:58.129781  3117 net.cpp:157] Top shape: 3 2048 60 60 (22118400)
I0620 04:27:58.129782  3117 net.cpp:165] Memory required for data: 11373865800
I0620 04:27:58.129786  3117 layer_factory.hpp:77] Creating layer conv5_2/relu
I0620 04:27:58.129791  3117 net.cpp:106] Creating Layer conv5_2/relu
I0620 04:27:58.129794  3117 net.cpp:454] conv5_2/relu <- conv5_2
I0620 04:27:58.129798  3117 net.cpp:397] conv5_2/relu -> conv5_2 (in-place)
I0620 04:27:58.129802  3117 net.cpp:150] Setting up conv5_2/relu
I0620 04:27:58.129806  3117 net.cpp:157] Top shape: 3 2048 60 60 (22118400)
I0620 04:27:58.129808  3117 net.cpp:165] Memory required for data: 11462339400
I0620 04:27:58.129811  3117 layer_factory.hpp:77] Creating layer conv5_2_conv5_2/relu_0_split
I0620 04:27:58.129815  3117 net.cpp:106] Creating Layer conv5_2_conv5_2/relu_0_split
I0620 04:27:58.129817  3117 net.cpp:454] conv5_2_conv5_2/relu_0_split <- conv5_2
I0620 04:27:58.129822  3117 net.cpp:411] conv5_2_conv5_2/relu_0_split -> conv5_2_conv5_2/relu_0_split_0
I0620 04:27:58.129827  3117 net.cpp:411] conv5_2_conv5_2/relu_0_split -> conv5_2_conv5_2/relu_0_split_1
I0620 04:27:58.129853  3117 net.cpp:150] Setting up conv5_2_conv5_2/relu_0_split
I0620 04:27:58.129856  3117 net.cpp:157] Top shape: 3 2048 60 60 (22118400)
I0620 04:27:58.129863  3117 net.cpp:157] Top shape: 3 2048 60 60 (22118400)
I0620 04:27:58.129865  3117 net.cpp:165] Memory required for data: 11639286600
I0620 04:27:58.129868  3117 layer_factory.hpp:77] Creating layer conv5_3_1x1_reduce
I0620 04:27:58.129874  3117 net.cpp:106] Creating Layer conv5_3_1x1_reduce
I0620 04:27:58.129878  3117 net.cpp:454] conv5_3_1x1_reduce <- conv5_2_conv5_2/relu_0_split_0
I0620 04:27:58.129881  3117 net.cpp:411] conv5_3_1x1_reduce -> conv5_3_1x1_reduce
I0620 04:27:58.157080  3117 net.cpp:150] Setting up conv5_3_1x1_reduce
I0620 04:27:58.157104  3117 net.cpp:157] Top shape: 3 512 60 60 (5529600)
I0620 04:27:58.157107  3117 net.cpp:165] Memory required for data: 11661405000
I0620 04:27:58.157116  3117 layer_factory.hpp:77] Creating layer conv5_3_1x1_reduce/bn
I0620 04:27:58.157127  3117 net.cpp:106] Creating Layer conv5_3_1x1_reduce/bn
I0620 04:27:58.157135  3117 net.cpp:454] conv5_3_1x1_reduce/bn <- conv5_3_1x1_reduce
I0620 04:27:58.157142  3117 net.cpp:397] conv5_3_1x1_reduce/bn -> conv5_3_1x1_reduce (in-place)
I0620 04:27:58.157332  3117 net.cpp:150] Setting up conv5_3_1x1_reduce/bn
I0620 04:27:58.157338  3117 net.cpp:157] Top shape: 3 512 60 60 (5529600)
I0620 04:27:58.157344  3117 net.cpp:165] Memory required for data: 11683523400
I0620 04:27:58.157357  3117 layer_factory.hpp:77] Creating layer conv5_3_1x1_reduce/relu
I0620 04:27:58.157362  3117 net.cpp:106] Creating Layer conv5_3_1x1_reduce/relu
I0620 04:27:58.157366  3117 net.cpp:454] conv5_3_1x1_reduce/relu <- conv5_3_1x1_reduce
I0620 04:27:58.157369  3117 net.cpp:397] conv5_3_1x1_reduce/relu -> conv5_3_1x1_reduce (in-place)
I0620 04:27:58.157376  3117 net.cpp:150] Setting up conv5_3_1x1_reduce/relu
I0620 04:27:58.157378  3117 net.cpp:157] Top shape: 3 512 60 60 (5529600)
I0620 04:27:58.157382  3117 net.cpp:165] Memory required for data: 11705641800
I0620 04:27:58.157383  3117 layer_factory.hpp:77] Creating layer conv5_3_3x3
I0620 04:27:58.157407  3117 net.cpp:106] Creating Layer conv5_3_3x3
I0620 04:27:58.157411  3117 net.cpp:454] conv5_3_3x3 <- conv5_3_1x1_reduce
I0620 04:27:58.157415  3117 net.cpp:411] conv5_3_3x3 -> conv5_3_3x3
I0620 04:27:58.214521  3117 net.cpp:150] Setting up conv5_3_3x3
I0620 04:27:58.214548  3117 net.cpp:157] Top shape: 3 512 60 60 (5529600)
I0620 04:27:58.214553  3117 net.cpp:165] Memory required for data: 11727760200
I0620 04:27:58.214566  3117 layer_factory.hpp:77] Creating layer conv5_3_3x3/bn
I0620 04:27:58.214581  3117 net.cpp:106] Creating Layer conv5_3_3x3/bn
I0620 04:27:58.214586  3117 net.cpp:454] conv5_3_3x3/bn <- conv5_3_3x3
I0620 04:27:58.214593  3117 net.cpp:397] conv5_3_3x3/bn -> conv5_3_3x3 (in-place)
I0620 04:27:58.214776  3117 net.cpp:150] Setting up conv5_3_3x3/bn
I0620 04:27:58.214781  3117 net.cpp:157] Top shape: 3 512 60 60 (5529600)
I0620 04:27:58.214784  3117 net.cpp:165] Memory required for data: 11749878600
I0620 04:27:58.214789  3117 layer_factory.hpp:77] Creating layer conv5_3_3x3/relu
I0620 04:27:58.214794  3117 net.cpp:106] Creating Layer conv5_3_3x3/relu
I0620 04:27:58.214797  3117 net.cpp:454] conv5_3_3x3/relu <- conv5_3_3x3
I0620 04:27:58.214800  3117 net.cpp:397] conv5_3_3x3/relu -> conv5_3_3x3 (in-place)
I0620 04:27:58.214807  3117 net.cpp:150] Setting up conv5_3_3x3/relu
I0620 04:27:58.214810  3117 net.cpp:157] Top shape: 3 512 60 60 (5529600)
I0620 04:27:58.214812  3117 net.cpp:165] Memory required for data: 11771997000
I0620 04:27:58.214814  3117 layer_factory.hpp:77] Creating layer conv5_3_1x1_increase
I0620 04:27:58.214825  3117 net.cpp:106] Creating Layer conv5_3_1x1_increase
I0620 04:27:58.214828  3117 net.cpp:454] conv5_3_1x1_increase <- conv5_3_3x3
I0620 04:27:58.214834  3117 net.cpp:411] conv5_3_1x1_increase -> conv5_3_1x1_increase
I0620 04:27:58.241971  3117 net.cpp:150] Setting up conv5_3_1x1_increase
I0620 04:27:58.242048  3117 net.cpp:157] Top shape: 3 2048 60 60 (22118400)
I0620 04:27:58.242054  3117 net.cpp:165] Memory required for data: 11860470600
I0620 04:27:58.242070  3117 layer_factory.hpp:77] Creating layer conv5_3_1x1_increase/bn
I0620 04:27:58.242097  3117 net.cpp:106] Creating Layer conv5_3_1x1_increase/bn
I0620 04:27:58.242110  3117 net.cpp:454] conv5_3_1x1_increase/bn <- conv5_3_1x1_increase
I0620 04:27:58.242122  3117 net.cpp:397] conv5_3_1x1_increase/bn -> conv5_3_1x1_increase (in-place)
I0620 04:27:58.242409  3117 net.cpp:150] Setting up conv5_3_1x1_increase/bn
I0620 04:27:58.242419  3117 net.cpp:157] Top shape: 3 2048 60 60 (22118400)
I0620 04:27:58.242424  3117 net.cpp:165] Memory required for data: 11948944200
I0620 04:27:58.242432  3117 layer_factory.hpp:77] Creating layer conv5_3
I0620 04:27:58.242441  3117 net.cpp:106] Creating Layer conv5_3
I0620 04:27:58.242446  3117 net.cpp:454] conv5_3 <- conv5_2_conv5_2/relu_0_split_1
I0620 04:27:58.242451  3117 net.cpp:454] conv5_3 <- conv5_3_1x1_increase
I0620 04:27:58.242457  3117 net.cpp:411] conv5_3 -> conv5_3
I0620 04:27:58.242486  3117 net.cpp:150] Setting up conv5_3
I0620 04:27:58.242491  3117 net.cpp:157] Top shape: 3 2048 60 60 (22118400)
I0620 04:27:58.242496  3117 net.cpp:165] Memory required for data: 12037417800
I0620 04:27:58.242499  3117 layer_factory.hpp:77] Creating layer conv5_3/relu
I0620 04:27:58.242508  3117 net.cpp:106] Creating Layer conv5_3/relu
I0620 04:27:58.242512  3117 net.cpp:454] conv5_3/relu <- conv5_3
I0620 04:27:58.242517  3117 net.cpp:397] conv5_3/relu -> conv5_3 (in-place)
I0620 04:27:58.242525  3117 net.cpp:150] Setting up conv5_3/relu
I0620 04:27:58.242530  3117 net.cpp:157] Top shape: 3 2048 60 60 (22118400)
I0620 04:27:58.242534  3117 net.cpp:165] Memory required for data: 12125891400
I0620 04:27:58.242538  3117 layer_factory.hpp:77] Creating layer conv5_3_conv5_3/relu_0_split
I0620 04:27:58.242547  3117 net.cpp:106] Creating Layer conv5_3_conv5_3/relu_0_split
I0620 04:27:58.242552  3117 net.cpp:454] conv5_3_conv5_3/relu_0_split <- conv5_3
I0620 04:27:58.242558  3117 net.cpp:411] conv5_3_conv5_3/relu_0_split -> conv5_3_conv5_3/relu_0_split_0
I0620 04:27:58.242611  3117 net.cpp:411] conv5_3_conv5_3/relu_0_split -> conv5_3_conv5_3/relu_0_split_1
I0620 04:27:58.242617  3117 net.cpp:411] conv5_3_conv5_3/relu_0_split -> conv5_3_conv5_3/relu_0_split_2
I0620 04:27:58.242624  3117 net.cpp:411] conv5_3_conv5_3/relu_0_split -> conv5_3_conv5_3/relu_0_split_3
I0620 04:27:58.242629  3117 net.cpp:411] conv5_3_conv5_3/relu_0_split -> conv5_3_conv5_3/relu_0_split_4
I0620 04:27:58.242684  3117 net.cpp:150] Setting up conv5_3_conv5_3/relu_0_split
I0620 04:27:58.242691  3117 net.cpp:157] Top shape: 3 2048 60 60 (22118400)
I0620 04:27:58.242694  3117 net.cpp:157] Top shape: 3 2048 60 60 (22118400)
I0620 04:27:58.242697  3117 net.cpp:157] Top shape: 3 2048 60 60 (22118400)
I0620 04:27:58.242700  3117 net.cpp:157] Top shape: 3 2048 60 60 (22118400)
I0620 04:27:58.242703  3117 net.cpp:157] Top shape: 3 2048 60 60 (22118400)
I0620 04:27:58.242705  3117 net.cpp:165] Memory required for data: 12568259400
I0620 04:27:58.242708  3117 layer_factory.hpp:77] Creating layer conv5_3_pool1
I0620 04:27:58.242715  3117 net.cpp:106] Creating Layer conv5_3_pool1
I0620 04:27:58.242718  3117 net.cpp:454] conv5_3_pool1 <- conv5_3_conv5_3/relu_0_split_0
I0620 04:27:58.242722  3117 net.cpp:411] conv5_3_pool1 -> conv5_3_pool1
I0620 04:27:58.242740  3117 net.cpp:150] Setting up conv5_3_pool1
I0620 04:27:58.242744  3117 net.cpp:157] Top shape: 3 2048 1 1 (6144)
I0620 04:27:58.242748  3117 net.cpp:165] Memory required for data: 12568283976
I0620 04:27:58.242749  3117 layer_factory.hpp:77] Creating layer conv5_3_pool1_conv
I0620 04:27:58.242756  3117 net.cpp:106] Creating Layer conv5_3_pool1_conv
I0620 04:27:58.242759  3117 net.cpp:454] conv5_3_pool1_conv <- conv5_3_pool1
I0620 04:27:58.242764  3117 net.cpp:411] conv5_3_pool1_conv -> conv5_3_pool1_conv
I0620 04:27:58.265939  3117 net.cpp:150] Setting up conv5_3_pool1_conv
I0620 04:27:58.265964  3117 net.cpp:157] Top shape: 3 512 1 1 (1536)
I0620 04:27:58.265967  3117 net.cpp:165] Memory required for data: 12568290120
I0620 04:27:58.265974  3117 layer_factory.hpp:77] Creating layer conv5_3_pool1_conv/bn
I0620 04:27:58.265983  3117 net.cpp:106] Creating Layer conv5_3_pool1_conv/bn
I0620 04:27:58.265988  3117 net.cpp:454] conv5_3_pool1_conv/bn <- conv5_3_pool1_conv
I0620 04:27:58.265995  3117 net.cpp:397] conv5_3_pool1_conv/bn -> conv5_3_pool1_conv (in-place)
I0620 04:27:58.266175  3117 net.cpp:150] Setting up conv5_3_pool1_conv/bn
I0620 04:27:58.266180  3117 net.cpp:157] Top shape: 3 512 1 1 (1536)
I0620 04:27:58.266183  3117 net.cpp:165] Memory required for data: 12568296264
I0620 04:27:58.266188  3117 layer_factory.hpp:77] Creating layer conv5_3_pool1_conv/relu
I0620 04:27:58.266193  3117 net.cpp:106] Creating Layer conv5_3_pool1_conv/relu
I0620 04:27:58.266196  3117 net.cpp:454] conv5_3_pool1_conv/relu <- conv5_3_pool1_conv
I0620 04:27:58.266201  3117 net.cpp:397] conv5_3_pool1_conv/relu -> conv5_3_pool1_conv (in-place)
I0620 04:27:58.266204  3117 net.cpp:150] Setting up conv5_3_pool1_conv/relu
I0620 04:27:58.266208  3117 net.cpp:157] Top shape: 3 512 1 1 (1536)
I0620 04:27:58.266211  3117 net.cpp:165] Memory required for data: 12568302408
I0620 04:27:58.266213  3117 layer_factory.hpp:77] Creating layer conv5_3_pool1_interp
I0620 04:27:58.266223  3117 net.cpp:106] Creating Layer conv5_3_pool1_interp
I0620 04:27:58.266227  3117 net.cpp:454] conv5_3_pool1_interp <- conv5_3_pool1_conv
I0620 04:27:58.266230  3117 net.cpp:411] conv5_3_pool1_interp -> conv5_3_pool1_interp
I0620 04:27:58.266252  3117 net.cpp:150] Setting up conv5_3_pool1_interp
I0620 04:27:58.266255  3117 net.cpp:157] Top shape: 3 512 60 60 (5529600)
I0620 04:27:58.266258  3117 net.cpp:165] Memory required for data: 12590420808
I0620 04:27:58.266260  3117 layer_factory.hpp:77] Creating layer conv5_3_pool2
I0620 04:27:58.266266  3117 net.cpp:106] Creating Layer conv5_3_pool2
I0620 04:27:58.266270  3117 net.cpp:454] conv5_3_pool2 <- conv5_3_conv5_3/relu_0_split_1
I0620 04:27:58.266274  3117 net.cpp:411] conv5_3_pool2 -> conv5_3_pool2
I0620 04:27:58.266293  3117 net.cpp:150] Setting up conv5_3_pool2
I0620 04:27:58.266314  3117 net.cpp:157] Top shape: 3 2048 2 2 (24576)
I0620 04:27:58.266316  3117 net.cpp:165] Memory required for data: 12590519112
I0620 04:27:58.266319  3117 layer_factory.hpp:77] Creating layer conv5_3_pool2_conv
I0620 04:27:58.266325  3117 net.cpp:106] Creating Layer conv5_3_pool2_conv
I0620 04:27:58.266329  3117 net.cpp:454] conv5_3_pool2_conv <- conv5_3_pool2
I0620 04:27:58.266333  3117 net.cpp:411] conv5_3_pool2_conv -> conv5_3_pool2_conv
I0620 04:27:58.294088  3117 net.cpp:150] Setting up conv5_3_pool2_conv
I0620 04:27:58.294111  3117 net.cpp:157] Top shape: 3 512 2 2 (6144)
I0620 04:27:58.294116  3117 net.cpp:165] Memory required for data: 12590543688
I0620 04:27:58.294123  3117 layer_factory.hpp:77] Creating layer conv5_3_pool2_conv/bn
I0620 04:27:58.294136  3117 net.cpp:106] Creating Layer conv5_3_pool2_conv/bn
I0620 04:27:58.294142  3117 net.cpp:454] conv5_3_pool2_conv/bn <- conv5_3_pool2_conv
I0620 04:27:58.294147  3117 net.cpp:397] conv5_3_pool2_conv/bn -> conv5_3_pool2_conv (in-place)
I0620 04:27:58.294318  3117 net.cpp:150] Setting up conv5_3_pool2_conv/bn
I0620 04:27:58.294322  3117 net.cpp:157] Top shape: 3 512 2 2 (6144)
I0620 04:27:58.294325  3117 net.cpp:165] Memory required for data: 12590568264
I0620 04:27:58.294332  3117 layer_factory.hpp:77] Creating layer conv5_3_pool2_conv/relu
I0620 04:27:58.294339  3117 net.cpp:106] Creating Layer conv5_3_pool2_conv/relu
I0620 04:27:58.294342  3117 net.cpp:454] conv5_3_pool2_conv/relu <- conv5_3_pool2_conv
I0620 04:27:58.294347  3117 net.cpp:397] conv5_3_pool2_conv/relu -> conv5_3_pool2_conv (in-place)
I0620 04:27:58.294350  3117 net.cpp:150] Setting up conv5_3_pool2_conv/relu
I0620 04:27:58.294354  3117 net.cpp:157] Top shape: 3 512 2 2 (6144)
I0620 04:27:58.294356  3117 net.cpp:165] Memory required for data: 12590592840
I0620 04:27:58.294359  3117 layer_factory.hpp:77] Creating layer conv5_3_pool2_interp
I0620 04:27:58.294364  3117 net.cpp:106] Creating Layer conv5_3_pool2_interp
I0620 04:27:58.294366  3117 net.cpp:454] conv5_3_pool2_interp <- conv5_3_pool2_conv
I0620 04:27:58.294370  3117 net.cpp:411] conv5_3_pool2_interp -> conv5_3_pool2_interp
I0620 04:27:58.294389  3117 net.cpp:150] Setting up conv5_3_pool2_interp
I0620 04:27:58.294394  3117 net.cpp:157] Top shape: 3 512 60 60 (5529600)
I0620 04:27:58.294396  3117 net.cpp:165] Memory required for data: 12612711240
I0620 04:27:58.294399  3117 layer_factory.hpp:77] Creating layer conv5_3_pool3
I0620 04:27:58.294404  3117 net.cpp:106] Creating Layer conv5_3_pool3
I0620 04:27:58.294407  3117 net.cpp:454] conv5_3_pool3 <- conv5_3_conv5_3/relu_0_split_2
I0620 04:27:58.294411  3117 net.cpp:411] conv5_3_pool3 -> conv5_3_pool3
I0620 04:27:58.294428  3117 net.cpp:150] Setting up conv5_3_pool3
I0620 04:27:58.294432  3117 net.cpp:157] Top shape: 3 2048 3 3 (55296)
I0620 04:27:58.294435  3117 net.cpp:165] Memory required for data: 12612932424
I0620 04:27:58.294437  3117 layer_factory.hpp:77] Creating layer conv5_3_pool3_conv
I0620 04:27:58.294446  3117 net.cpp:106] Creating Layer conv5_3_pool3_conv
I0620 04:27:58.294450  3117 net.cpp:454] conv5_3_pool3_conv <- conv5_3_pool3
I0620 04:27:58.294453  3117 net.cpp:411] conv5_3_pool3_conv -> conv5_3_pool3_conv
I0620 04:27:58.317675  3117 net.cpp:150] Setting up conv5_3_pool3_conv
I0620 04:27:58.317703  3117 net.cpp:157] Top shape: 3 512 3 3 (13824)
I0620 04:27:58.317706  3117 net.cpp:165] Memory required for data: 12612987720
I0620 04:27:58.317713  3117 layer_factory.hpp:77] Creating layer conv5_3_pool3_conv/bn
I0620 04:27:58.317721  3117 net.cpp:106] Creating Layer conv5_3_pool3_conv/bn
I0620 04:27:58.317728  3117 net.cpp:454] conv5_3_pool3_conv/bn <- conv5_3_pool3_conv
I0620 04:27:58.317734  3117 net.cpp:397] conv5_3_pool3_conv/bn -> conv5_3_pool3_conv (in-place)
I0620 04:27:58.317940  3117 net.cpp:150] Setting up conv5_3_pool3_conv/bn
I0620 04:27:58.317945  3117 net.cpp:157] Top shape: 3 512 3 3 (13824)
I0620 04:27:58.317947  3117 net.cpp:165] Memory required for data: 12613043016
I0620 04:27:58.317952  3117 layer_factory.hpp:77] Creating layer conv5_3_pool3_conv/relu
I0620 04:27:58.317976  3117 net.cpp:106] Creating Layer conv5_3_pool3_conv/relu
I0620 04:27:58.317980  3117 net.cpp:454] conv5_3_pool3_conv/relu <- conv5_3_pool3_conv
I0620 04:27:58.317983  3117 net.cpp:397] conv5_3_pool3_conv/relu -> conv5_3_pool3_conv (in-place)
I0620 04:27:58.317987  3117 net.cpp:150] Setting up conv5_3_pool3_conv/relu
I0620 04:27:58.317991  3117 net.cpp:157] Top shape: 3 512 3 3 (13824)
I0620 04:27:58.317992  3117 net.cpp:165] Memory required for data: 12613098312
I0620 04:27:58.317996  3117 layer_factory.hpp:77] Creating layer conv5_3_pool3_interp
I0620 04:27:58.318001  3117 net.cpp:106] Creating Layer conv5_3_pool3_interp
I0620 04:27:58.318003  3117 net.cpp:454] conv5_3_pool3_interp <- conv5_3_pool3_conv
I0620 04:27:58.318007  3117 net.cpp:411] conv5_3_pool3_interp -> conv5_3_pool3_interp
I0620 04:27:58.318027  3117 net.cpp:150] Setting up conv5_3_pool3_interp
I0620 04:27:58.318030  3117 net.cpp:157] Top shape: 3 512 60 60 (5529600)
I0620 04:27:58.318033  3117 net.cpp:165] Memory required for data: 12635216712
I0620 04:27:58.318035  3117 layer_factory.hpp:77] Creating layer conv5_3_pool6
I0620 04:27:58.318040  3117 net.cpp:106] Creating Layer conv5_3_pool6
I0620 04:27:58.318043  3117 net.cpp:454] conv5_3_pool6 <- conv5_3_conv5_3/relu_0_split_3
I0620 04:27:58.318048  3117 net.cpp:411] conv5_3_pool6 -> conv5_3_pool6
I0620 04:27:58.318068  3117 net.cpp:150] Setting up conv5_3_pool6
I0620 04:27:58.318071  3117 net.cpp:157] Top shape: 3 2048 6 6 (221184)
I0620 04:27:58.318073  3117 net.cpp:165] Memory required for data: 12636101448
I0620 04:27:58.318076  3117 layer_factory.hpp:77] Creating layer conv5_3_pool6_conv
I0620 04:27:58.318084  3117 net.cpp:106] Creating Layer conv5_3_pool6_conv
I0620 04:27:58.318086  3117 net.cpp:454] conv5_3_pool6_conv <- conv5_3_pool6
I0620 04:27:58.318090  3117 net.cpp:411] conv5_3_pool6_conv -> conv5_3_pool6_conv
I0620 04:27:58.345587  3117 net.cpp:150] Setting up conv5_3_pool6_conv
I0620 04:27:58.345619  3117 net.cpp:157] Top shape: 3 512 6 6 (55296)
I0620 04:27:58.345623  3117 net.cpp:165] Memory required for data: 12636322632
I0620 04:27:58.345629  3117 layer_factory.hpp:77] Creating layer conv5_3_pool6_conv/bn
I0620 04:27:58.345638  3117 net.cpp:106] Creating Layer conv5_3_pool6_conv/bn
I0620 04:27:58.345644  3117 net.cpp:454] conv5_3_pool6_conv/bn <- conv5_3_pool6_conv
I0620 04:27:58.345650  3117 net.cpp:397] conv5_3_pool6_conv/bn -> conv5_3_pool6_conv (in-place)
I0620 04:27:58.345846  3117 net.cpp:150] Setting up conv5_3_pool6_conv/bn
I0620 04:27:58.345852  3117 net.cpp:157] Top shape: 3 512 6 6 (55296)
I0620 04:27:58.345854  3117 net.cpp:165] Memory required for data: 12636543816
I0620 04:27:58.345860  3117 layer_factory.hpp:77] Creating layer conv5_3_pool6_conv/relu
I0620 04:27:58.345867  3117 net.cpp:106] Creating Layer conv5_3_pool6_conv/relu
I0620 04:27:58.345871  3117 net.cpp:454] conv5_3_pool6_conv/relu <- conv5_3_pool6_conv
I0620 04:27:58.345875  3117 net.cpp:397] conv5_3_pool6_conv/relu -> conv5_3_pool6_conv (in-place)
I0620 04:27:58.345880  3117 net.cpp:150] Setting up conv5_3_pool6_conv/relu
I0620 04:27:58.345883  3117 net.cpp:157] Top shape: 3 512 6 6 (55296)
I0620 04:27:58.345885  3117 net.cpp:165] Memory required for data: 12636765000
I0620 04:27:58.345888  3117 layer_factory.hpp:77] Creating layer conv5_3_pool6_interp
I0620 04:27:58.345893  3117 net.cpp:106] Creating Layer conv5_3_pool6_interp
I0620 04:27:58.345896  3117 net.cpp:454] conv5_3_pool6_interp <- conv5_3_pool6_conv
I0620 04:27:58.345899  3117 net.cpp:411] conv5_3_pool6_interp -> conv5_3_pool6_interp
I0620 04:27:58.345918  3117 net.cpp:150] Setting up conv5_3_pool6_interp
I0620 04:27:58.345922  3117 net.cpp:157] Top shape: 3 512 60 60 (5529600)
I0620 04:27:58.345926  3117 net.cpp:165] Memory required for data: 12658883400
I0620 04:27:58.345928  3117 layer_factory.hpp:77] Creating layer conv5_3_concat
I0620 04:27:58.345932  3117 net.cpp:106] Creating Layer conv5_3_concat
I0620 04:27:58.345934  3117 net.cpp:454] conv5_3_concat <- conv5_3_conv5_3/relu_0_split_4
I0620 04:27:58.345954  3117 net.cpp:454] conv5_3_concat <- conv5_3_pool6_interp
I0620 04:27:58.345958  3117 net.cpp:454] conv5_3_concat <- conv5_3_pool3_interp
I0620 04:27:58.345962  3117 net.cpp:454] conv5_3_concat <- conv5_3_pool2_interp
I0620 04:27:58.345964  3117 net.cpp:454] conv5_3_concat <- conv5_3_pool1_interp
I0620 04:27:58.345969  3117 net.cpp:411] conv5_3_concat -> conv5_3_concat
I0620 04:27:58.345986  3117 net.cpp:150] Setting up conv5_3_concat
I0620 04:27:58.345990  3117 net.cpp:157] Top shape: 3 4096 60 60 (44236800)
I0620 04:27:58.345993  3117 net.cpp:165] Memory required for data: 12835830600
I0620 04:27:58.345996  3117 layer_factory.hpp:77] Creating layer conv5_4
I0620 04:27:58.346007  3117 net.cpp:106] Creating Layer conv5_4
I0620 04:27:58.346010  3117 net.cpp:454] conv5_4 <- conv5_3_concat
I0620 04:27:58.346014  3117 net.cpp:411] conv5_4 -> conv5_4
I0620 04:27:58.781656  3117 net.cpp:150] Setting up conv5_4
I0620 04:27:58.781683  3117 net.cpp:157] Top shape: 3 512 60 60 (5529600)
I0620 04:27:58.781687  3117 net.cpp:165] Memory required for data: 12857949000
I0620 04:27:58.781698  3117 layer_factory.hpp:77] Creating layer conv5_4/bn
I0620 04:27:58.781711  3117 net.cpp:106] Creating Layer conv5_4/bn
I0620 04:27:58.781718  3117 net.cpp:454] conv5_4/bn <- conv5_4
I0620 04:27:58.781725  3117 net.cpp:397] conv5_4/bn -> conv5_4 (in-place)
I0620 04:27:58.781947  3117 net.cpp:150] Setting up conv5_4/bn
I0620 04:27:58.781954  3117 net.cpp:157] Top shape: 3 512 60 60 (5529600)
I0620 04:27:58.781956  3117 net.cpp:165] Memory required for data: 12880067400
I0620 04:27:58.781961  3117 layer_factory.hpp:77] Creating layer conv5_4/relu
I0620 04:27:58.781965  3117 net.cpp:106] Creating Layer conv5_4/relu
I0620 04:27:58.781970  3117 net.cpp:454] conv5_4/relu <- conv5_4
I0620 04:27:58.781975  3117 net.cpp:397] conv5_4/relu -> conv5_4 (in-place)
I0620 04:27:58.781980  3117 net.cpp:150] Setting up conv5_4/relu
I0620 04:27:58.781982  3117 net.cpp:157] Top shape: 3 512 60 60 (5529600)
I0620 04:27:58.781985  3117 net.cpp:165] Memory required for data: 12902185800
I0620 04:27:58.781987  3117 layer_factory.hpp:77] Creating layer conv5_4/dropout
I0620 04:27:58.781992  3117 net.cpp:106] Creating Layer conv5_4/dropout
I0620 04:27:58.781994  3117 net.cpp:454] conv5_4/dropout <- conv5_4
I0620 04:27:58.781999  3117 net.cpp:397] conv5_4/dropout -> conv5_4 (in-place)
I0620 04:27:58.782021  3117 net.cpp:150] Setting up conv5_4/dropout
I0620 04:27:58.782027  3117 net.cpp:157] Top shape: 3 512 60 60 (5529600)
I0620 04:27:58.782030  3117 net.cpp:165] Memory required for data: 12924304200
I0620 04:27:58.782035  3117 layer_factory.hpp:77] Creating layer conv6
I0620 04:27:58.782043  3117 net.cpp:106] Creating Layer conv6
I0620 04:27:58.782045  3117 net.cpp:454] conv6 <- conv5_4
I0620 04:27:58.782050  3117 net.cpp:411] conv6 -> conv6
I0620 04:27:58.782498  3117 net.cpp:150] Setting up conv6
I0620 04:27:58.782503  3117 net.cpp:157] Top shape: 3 21 60 60 (226800)
I0620 04:27:58.782506  3117 net.cpp:165] Memory required for data: 12925211400
I0620 04:27:58.782511  3117 layer_factory.hpp:77] Creating layer conv6_interp
I0620 04:27:58.782516  3117 net.cpp:106] Creating Layer conv6_interp
I0620 04:27:58.782518  3117 net.cpp:454] conv6_interp <- conv6
I0620 04:27:58.782523  3117 net.cpp:411] conv6_interp -> conv6_interp
I0620 04:27:58.782542  3117 net.cpp:150] Setting up conv6_interp
I0620 04:27:58.782546  3117 net.cpp:157] Top shape: 3 21 473 473 (14094927)
I0620 04:27:58.782549  3117 net.cpp:165] Memory required for data: 12981591108
I0620 04:27:58.782552  3117 net.cpp:228] conv6_interp does not need backward computation.
I0620 04:27:58.782554  3117 net.cpp:228] conv6 does not need backward computation.
I0620 04:27:58.782557  3117 net.cpp:228] conv5_4/dropout does not need backward computation.
I0620 04:27:58.782560  3117 net.cpp:228] conv5_4/relu does not need backward computation.
…
