…
I0621 16:07:13.721094 18569 solver.cpp:81] Creating training net from train_net file: exper/voc12/config/pspnet_resnet101/train_train_aug.prototxt
I0621 16:07:13.727955 18569 net.cpp:49] Initializing net from parameters: 
name: "pspnet_resnet101"
state {
  phase: TRAIN
}
layer {
  name: "data"
  type: "ImageSegData"
  top: "data"
  top: "label"
  include {
    phase: TRAIN
  }
  transform_param {
    mirror: true
    crop_size: 473
    mean_value: 104.008
    mean_value: 116.669
    mean_value: 122.675
  }
  image_data_param {
    source: "exper/voc12/list/train_aug.txt"
    batch_size: 5
    shuffle: true
    root_folder: "exper/voc12/data"
    label_type: PIXEL
  }
}
layer {
  name: "conv1_1_3x3_s2"
  type: "Convolution"
  bottom: "data"
  top: "conv1_1_3x3_s2"
  param {
    lr_mult: 1
    decay_mult: 1
  }
  convolution_param {
    num_output: 64
    bias_term: false
    pad: 1
    kernel_size: 3
    stride: 2
    weight_filler {
      type: "msra"
    }
  }
}
layer {
  name: "conv1_1_3x3_s2/bn"
  type: "BN"
  bottom: "conv1_1_3x3_s2"
  top: "conv1_1_3x3_s2"
  param {
    lr_mult: 1
    decay_mult: 0
  }
  param {
    lr_mult: 1
    decay_mult: 0
  }
  param {
    lr_mult: 0
    decay_mult: 0
  }
  param {
    lr_mult: 0
    decay_mult: 0
  }
  bn_param {
    slope_filler {
      type: "constant"
      value: 1
    }
    bias_filler {
      type: "constant"
      value: 0
    }
    momentum: 0.95
    frozen: false
  }
}
layer {
  name: "conv1_1_3x3_s2/relu"
  type: "ReLU"
  bottom: "conv1_1_3x3_s2"
  top: "conv1_1_3x3_s2"
}
layer {
  name: "conv1_2_3x3"
  type: "Convolution"
  bottom: "conv1_1_3x3_s2"
  top: "conv1_2_3x3"
  param {
    lr_mult: 1
    decay_mult: 1
  }
  convolution_param {
    num_output: 64
    bias_term: false
    pad: 1
    kernel_size: 3
    stride: 1
    weight_filler {
      type: "msra"
    }
  }
}
layer {
  name: "conv1_2_3x3/bn"
  type: "BN"
  bottom: "conv1_2_3x3"
  top: "conv1_2_3x3"
  param {
    lr_mult: 1
    decay_mult: 0
  }
  param {
    lr_mult: 1
    decay_mult: 0
  }
  param {
    lr_mult: 0
    decay_mult: 0
  }
  param {
    lr_mult: 0
    decay_mult: 0
  }
  bn_param {
    slope_filler {
      type: "constant"
      value: 1
    }
    bias_filler {
      type: "constant"
      value: 0
    }
    momentum: 0.95
    frozen: true
  }
}
layer {
  name: "conv1_2_3x3/relu"
  type: "ReLU"
  bottom: "conv1_2_3x3"
  top: "conv1_2_3x3"
}
layer {
  name: "conv1_3_3x3"
  type: "Convolution"
  bottom: "conv1_2_3x3"
  top: "conv1_3_3x3"
  param {
    lr_mult: 1
    decay_mult: 1
  }
  convolution_param {
    num_output: 128
    bias_term: false
    pad: 1
    kernel_size: 3
    stride: 1
    weight_filler {
      type: "msra"
    }
  }
}
layer {
  name: "conv1_3_3x3/bn"
  type: "BN"
  bottom: "conv1_3_3x3"
  top: "conv1_3_3x3"
  param {
    lr_mult: 1
    decay_mult: 0
  }
  param {
    lr_mult: 1
    decay_mult: 0
  }
  param {
    lr_mult: 0
    decay_mult: 0
  }
  param {
    lr_mult: 0
    decay_mult: 0
  }
  bn_param {
    slope_filler {
      type: "constant"
      value: 1
    }
    bias_filler {
      type: "constant"
      value: 0
    }
    momentum: 0.95
    frozen: true
  }
}
layer {
  name: "conv1_3_3x3/relu"
  type: "ReLU"
  bottom: "conv1_3_3x3"
  top: "conv1_3_3x3"
}
layer {
  name: "pool1_3x3_s2"
  type: "Pooling"
  bottom: "conv1_3_3x3"
  top: "pool1_3x3_s2"
  pooling_param {
    pool: MAX
    kernel_size: 3
    stride: 2
    pad: 1
  }
}
layer {
  name: "conv2_1_1x1_reduce"
  type: "Convolution"
  bottom: "pool1_3x3_s2"
  top: "conv2_1_1x1_reduce"
  param {
    lr_mult: 1
    decay_mult: 1
  }
  convolution_param {
    num_output: 64
    bias_term: false
    pad: 0
    kernel_size: 1
    stride: 1
    weight_filler {
      type: "msra"
    }
  }
}
layer {
  name: "conv2_1_1x1_reduce/bn"
  type: "BN"
  bottom: "conv2_1_1x1_reduce"
  top: "conv2_1_1x1_reduce"
  param {
    lr_mult: 1
    decay_mult: 0
  }
  param {
    lr_mult: 1
    decay_mult: 0
  }
  param {
    lr_mult: 0
    decay_mult: 0
  }
  param {
    lr_mult: 0
    decay_mult: 0
  }
  bn_param {
    slope_filler {
      type: "constant"
      value: 1
    }
    bias_filler {
      type: "constant"
      value: 0
    }
    momentum: 0.95
    frozen: true
  }
}
layer {
  name: "conv2_1_1x1_reduce/relu"
  type: "ReLU"
  bottom: "conv2_1_1x1_reduce"
  top: "conv2_1_1x1_reduce"
}
layer {
  name: "conv2_1_3x3"
  type: "Convolution"
  bottom: "conv2_1_1x1_reduce"
  top: "conv2_1_3x3"
  param {
    lr_mult: 1
    decay_mult: 1
  }
  convolution_param {
    num_output: 64
    bias_term: false
    pad: 1
    kernel_size: 3
    stride: 1
    weight_filler {
      type: "msra"
    }
  }
}
layer {
  name: "conv2_1_3x3/bn"
  type: "BN"
  bottom: "conv2_1_3x3"
  top: "conv2_1_3x3"
  param {
    lr_mult: 1
    decay_mult: 0
  }
  param {
    lr_mult: 1
    decay_mult: 0
  }
  param {
    lr_mult: 0
    decay_mult: 0
  }
  param {
    lr_mult: 0
    decay_mult: 0
  }
  bn_param {
    slope_filler {
      type: "constant"
      value: 1
    }
    bias_filler {
      type: "constant"
      value: 0
    }
    momentum: 0.95
    frozen: true
  }
}
layer {
  name: "conv2_1_3x3/relu"
  type: "ReLU"
  bottom: "conv2_1_3x3"
  top: "conv2_1_3x3"
}
layer {
  name: "conv2_1_1x1_increase"
  type: "Convolution"
  bottom: "conv2_1_3x3"
  top: "conv2_1_1x1_increase"
  param {
    lr_mult: 1
    decay_mult: 1
  }
  convolution_param {
    num_output: 256
    bias_term: false
    pad: 0
    kernel_size: 1
    stride: 1
    weight_filler {
      type: "msra"
    }
  }
}
layer {
  name: "conv2_1_1x1_increase/bn"
  type: "BN"
  bottom: "conv2_1_1x1_increase"
  top: "conv2_1_1x1_increase"
  param {
    lr_mult: 1
    decay_mult: 0
  }
  param {
    lr_mult: 1
    decay_mult: 0
  }
  param {
    lr_mult: 0
    decay_mult: 0
  }
  param {
    lr_mult: 0
    decay_mult: 0
  }
  bn_param {
    slope_filler {
      type: "constant"
      value: 1
    }
    bias_filler {
      type: "constant"
      value: 0
    }
    momentum: 0.95
    frozen: true
  }
}
layer {
  name: "conv2_1_1x1_proj"
  type: "Convolution"
  bottom: "pool1_3x3_s2"
  top: "conv2_1_1x1_proj"
  param {
    lr_mult: 1
    decay_mult: 1
  }
  convolution_param {
    num_output: 256
    bias_term: false
    pad: 0
    kernel_size: 1
    stride: 1
    weight_filler {
      type: "msra"
    }
  }
}
layer {
  name: "conv2_1_1x1_proj/bn"
  type: "BN"
  bottom: "conv2_1_1x1_proj"
  top: "conv2_1_1x1_proj"
  param {
    lr_mult: 1
    decay_mult: 0
  }
  param {
    lr_mult: 1
    decay_mult: 0
  }
  param {
    lr_mult: 0
    decay_mult: 0
  }
  param {
    lr_mult: 0
    decay_mult: 0
  }
  bn_param {
    slope_filler {
      type: "constant"
      value: 1
    }
    bias_filler {
      type: "constant"
      value: 0
    }
    momentum: 0.95
    frozen: true
  }
}
layer {
  name: "conv2_1"
  type: "Eltwise"
  bottom: "conv2_1_1x1_proj"
  bottom: "conv2_1_1x1_increase"
  top: "conv2_1"
  eltwise_param {
    operation: SUM
  }
}
layer {
  name: "conv2_1/relu"
  type: "ReLU"
  bottom: "conv2_1"
  top: "conv2_1"
}
layer {
  name: "conv2_2_1x1_reduce"
  type: "Convolution"
  bottom: "conv2_1"
  top: "conv2_2_1x1_reduce"
  param {
    lr_mult: 1
    decay_mult: 1
  }
  convolution_param {
    num_output: 64
    bias_term: false
    pad: 0
    kernel_size: 1
    stride: 1
    weight_filler {
      type: "msra"
    }
  }
}
layer {
  name: "conv2_2_1x1_reduce/bn"
  type: "BN"
  bottom: "conv2_2_1x1_reduce"
  top: "conv2_2_1x1_reduce"
  param {
    lr_mult: 1
    decay_mult: 0
  }
  param {
    lr_mult: 1
    decay_mult: 0
  }
  param {
    lr_mult: 0
    decay_mult: 0
  }
  param {
    lr_mult: 0
    decay_mult: 0
  }
  bn_param {
    slope_filler {
      type: "constant"
      value: 1
    }
    bias_filler {
      type: "constant"
      value: 0
    }
    momentum: 0.95
    frozen: true
  }
}
layer {
  name: "conv2_2_1x1_reduce/relu"
  type: "ReLU"
  bottom: "conv2_2_1x1_reduce"
  top: "conv2_2_1x1_reduce"
}
layer {
  name: "conv2_2_3x3"
  type: "Convolution"
  bottom: "conv2_2_1x1_reduce"
  top: "conv2_2_3x3"
  param {
    lr_mult: 1
    decay_mult: 1
  }
  convolution_param {
    num_output: 64
    bias_term: false
    pad: 1
    kernel_size: 3
    stride: 1
    weight_filler {
      type: "msra"
    }
  }
}
layer {
  name: "conv2_2_3x3/bn"
  type: "BN"
  bottom: "conv2_2_3x3"
  top: "conv2_2_3x3"
  param {
    lr_mult: 1
    decay_mult: 0
  }
  param {
    lr_mult: 1
    decay_mult: 0
  }
  param {
    lr_mult: 0
    decay_mult: 0
  }
  param {
    lr_mult: 0
    decay_mult: 0
  }
  bn_param {
    slope_filler {
      type: "constant"
      value: 1
    }
    bias_filler {
      type: "constant"
      value: 0
    }
    momentum: 0.95
    frozen: true
  }
}
layer {
  name: "conv2_2_3x3/relu"
  type: "ReLU"
  bottom: "conv2_2_3x3"
  top: "conv2_2_3x3"
}
layer {
  name: "conv2_2_1x1_increase"
  type: "Convolution"
  bottom: "conv2_2_3x3"
  top: "conv2_2_1x1_increase"
  param {
    lr_mult: 1
    decay_mult: 1
  }
  convolution_param {
    num_output: 256
    bias_term: false
    pad: 0
    kernel_size: 1
    stride: 1
    weight_filler {
      type: "msra"
    }
  }
}
layer {
  name: "conv2_2_1x1_increase/bn"
  type: "BN"
  bottom: "conv2_2_1x1_increase"
  top: "conv2_2_1x1_increase"
  param {
    lr_mult: 1
    decay_mult: 0
  }
  param {
    lr_mult: 1
    decay_mult: 0
  }
  param {
    lr_mult: 0
    decay_mult: 0
  }
  param {
    lr_mult: 0
    decay_mult: 0
  }
  bn_param {
    slope_filler {
      type: "constant"
      value: 1
    }
    bias_filler {
      type: "constant"
      value: 0
    }
    momentum: 0.95
    frozen: true
  }
}
layer {
  name: "conv2_2"
  type: "Eltwise"
  bottom: "conv2_1"
  bottom: "conv2_2_1x1_increase"
  top: "conv2_2"
  eltwise_param {
    operation: SUM
  }
}
layer {
  name: "conv2_2/relu"
  type: "ReLU"
  bottom: "conv2_2"
  top: "conv2_2"
}
layer {
  name: "conv2_3_1x1_reduce"
  type: "Convolution"
  bottom: "conv2_2"
  top: "conv2_3_1x1_reduce"
  param {
    lr_mult: 1
    decay_mult: 1
  }
  convolution_param {
    num_output: 64
    bias_term: false
    pad: 0
    kernel_size: 1
    stride: 1
    weight_filler {
      type: "msra"
    }
  }
}
layer {
  name: "conv2_3_1x1_reduce/bn"
  type: "BN"
  bottom: "conv2_3_1x1_reduce"
  top: "conv2_3_1x1_reduce"
  param {
    lr_mult: 1
    decay_mult: 0
  }
  param {
    lr_mult: 1
    decay_mult: 0
  }
  param {
    lr_mult: 0
    decay_mult: 0
  }
  param {
    lr_mult: 0
    decay_mult: 0
  }
  bn_param {
    slope_filler {
      type: "constant"
      value: 1
    }
    bias_filler {
      type: "constant"
      value: 0
    }
    momentum: 0.95
    frozen: true
  }
}
layer {
  name: "conv2_3_1x1_reduce/relu"
  type: "ReLU"
  bottom: "conv2_3_1x1_reduce"
  top: "conv2_3_1x1_reduce"
}
layer {
  name: "conv2_3_3x3"
  type: "Convolution"
  bottom: "conv2_3_1x1_reduce"
  top: "conv2_3_3x3"
  param {
    lr_mult: 1
    decay_mult: 1
  }
  convolution_param {
    num_output: 64
    bias_term: false
    pad: 1
    kernel_size: 3
    stride: 1
    weight_filler {
      type: "msra"
    }
  }
}
layer {
  name: "conv2_3_3x3/bn"
  type: "BN"
  bottom: "conv2_3_3x3"
  top: "conv2_3_3x3"
  param {
    lr_mult: 1
    decay_mult: 0
  }
  param {
    lr_mult: 1
    decay_mult: 0
  }
  param {
    lr_mult: 0
    decay_mult: 0
  }
  param {
    lr_mult: 0
    decay_mult: 0
  }
  bn_param {
    slope_filler {
      type: "constant"
      value: 1
    }
    bias_filler {
      type: "constant"
      value: 0
    }
    momentum: 0.95
    frozen: true
  }
}
layer {
  name: "conv2_3_3x3/relu"
  type: "ReLU"
  bottom: "conv2_3_3x3"
  top: "conv2_3_3x3"
}
layer {
  name: "conv2_3_1x1_increase"
  type: "Convolution"
  bottom: "conv2_3_3x3"
  top: "conv2_3_1x1_increase"
  param {
    lr_mult: 1
    decay_mult: 1
  }
  convolution_param {
    num_output: 256
    bias_term: false
    pad: 0
    kernel_size: 1
    stride: 1
    weight_filler {
      type: "msra"
    }
  }
}
layer {
  name: "conv2_3_1x1_increase/bn"
  type: "BN"
  bottom: "conv2_3_1x1_increase"
  top: "conv2_3_1x1_increase"
  param {
    lr_mult: 1
    decay_mult: 0
  }
  param {
    lr_mult: 1
    decay_mult: 0
  }
  param {
    lr_mult: 0
    decay_mult: 0
  }
  param {
    lr_mult: 0
    decay_mult: 0
  }
  bn_param {
    slope_filler {
      type: "constant"
      value: 1
    }
    bias_filler {
      type: "constant"
      value: 0
    }
    momentum: 0.95
    frozen: true
  }
}
layer {
  name: "conv2_3"
  type: "Eltwise"
  bottom: "conv2_2"
  bottom: "conv2_3_1x1_increase"
  top: "conv2_3"
  eltwise_param {
    operation: SUM
  }
}
layer {
  name: "conv2_3/relu"
  type: "ReLU"
  bottom: "conv2_3"
  top: "conv2_3"
}
layer {
  name: "conv3_1_1x1_reduce"
  type: "Convolution"
  bottom: "conv2_3"
  top: "conv3_1_1x1_reduce"
  param {
    lr_mult: 1
    decay_mult: 1
  }
  convolution_param {
    num_output: 128
    bias_term: false
    pad: 0
    kernel_size: 1
    stride: 1
    weight_filler {
      type: "msra"
    }
  }
}
layer {
  name: "conv3_1_1x1_reduce/bn"
  type: "BN"
  bottom: "conv3_1_1x1_reduce"
  top: "conv3_1_1x1_reduce"
  param {
    lr_mult: 1
    decay_mult: 0
  }
  param {
    lr_mult: 1
    decay_mult: 0
  }
  param {
    lr_mult: 0
    decay_mult: 0
  }
  param {
    lr_mult: 0
    decay_mult: 0
  }
  bn_param {
    slope_filler {
      type: "constant"
      value: 1
    }
    bias_filler {
      type: "constant"
      value: 0
    }
    momentum: 0.95
    frozen: true
  }
}
layer {
  name: "conv3_1_1x1_reduce/relu"
  type: "ReLU"
  bottom: "conv3_1_1x1_reduce"
  top: "conv3_1_1x1_reduce"
}
layer {
  name: "conv3_1_3x3"
  type: "Convolution"
  bottom: "conv3_1_1x1_reduce"
  top: "conv3_1_3x3"
  param {
    lr_mult: 1
    decay_mult: 1
  }
  convolution_param {
    num_output: 128
    bias_term: false
    pad: 1
    kernel_size: 3
    stride: 2
    weight_filler {
      type: "msra"
    }
  }
}
layer {
  name: "conv3_1_3x3/bn"
  type: "BN"
  bottom: "conv3_1_3x3"
  top: "conv3_1_3x3"
  param {
    lr_mult: 1
    decay_mult: 0
  }
  param {
    lr_mult: 1
    decay_mult: 0
  }
  param {
    lr_mult: 0
    decay_mult: 0
  }
  param {
    lr_mult: 0
    decay_mult: 0
  }
  bn_param {
    slope_filler {
      type: "constant"
      value: 1
    }
    bias_filler {
      type: "constant"
      value: 0
    }
    momentum: 0.95
    frozen: true
  }
}
layer {
  name: "conv3_1_3x3/relu"
  type: "ReLU"
  bottom: "conv3_1_3x3"
  top: "conv3_1_3x3"
}
layer {
  name: "conv3_1_1x1_increase"
  type: "Convolution"
  bottom: "conv3_1_3x3"
  top: "conv3_1_1x1_increase"
  param {
    lr_mult: 1
    decay_mult: 1
  }
  convolution_param {
    num_output: 512
    bias_term: false
    pad: 0
    kernel_size: 1
    stride: 1
    weight_filler {
      type: "msra"
    }
  }
}
layer {
  name: "conv3_1_1x1_increase/bn"
  type: "BN"
  bottom: "conv3_1_1x1_increase"
  top: "conv3_1_1x1_increase"
  param {
    lr_mult: 1
    decay_mult: 0
  }
  param {
    lr_mult: 1
    decay_mult: 0
  }
  param {
    lr_mult: 0
    decay_mult: 0
  }
  param {
    lr_mult: 0
    decay_mult: 0
  }
  bn_param {
    slope_filler {
      type: "constant"
      value: 1
    }
    bias_filler {
      type: "constant"
      value: 0
    }
    momentum: 0.95
    frozen: true
  }
}
layer {
  name: "conv3_1_1x1_proj"
  type: "Convolution"
  bottom: "conv2_3"
  top: "conv3_1_1x1_proj"
  param {
    lr_mult: 1
    decay_mult: 1
  }
  convolution_param {
    num_output: 512
    bias_term: false
    pad: 0
    kernel_size: 1
    stride: 2
    weight_filler {
      type: "msra"
    }
  }
}
layer {
  name: "conv3_1_1x1_proj/bn"
  type: "BN"
  bottom: "conv3_1_1x1_proj"
  top: "conv3_1_1x1_proj"
  param {
    lr_mult: 1
    decay_mult: 0
  }
  param {
    lr_mult: 1
    decay_mult: 0
  }
  param {
    lr_mult: 0
    decay_mult: 0
  }
  param {
    lr_mult: 0
    decay_mult: 0
  }
  bn_param {
    slope_filler {
      type: "constant"
      value: 1
    }
    bias_filler {
      type: "constant"
      value: 0
    }
    momentum: 0.95
    frozen: true
  }
}
layer {
  name: "conv3_1"
  type: "Eltwise"
  bottom: "conv3_1_1x1_proj"
  bottom: "conv3_1_1x1_increase"
  top: "conv3_1"
  eltwise_param {
    operation: SUM
  }
}
layer {
  name: "conv3_1/relu"
  type: "ReLU"
  bottom: "conv3_1"
  top: "conv3_1"
}
layer {
  name: "conv3_2_1x1_reduce"
  type: "Convolution"
  bottom: "conv3_1"
  top: "conv3_2_1x1_reduce"
  param {
    lr_mult: 1
    decay_mult: 1
  }
  convolution_param {
    num_output: 128
    bias_term: false
    pad: 0
    kernel_size: 1
    stride: 1
    weight_filler {
      type: "msra"
    }
  }
}
layer {
  name: "conv3_2_1x1_reduce/bn"
  type: "BN"
  bottom: "conv3_2_1x1_reduce"
  top: "conv3_2_1x1_reduce"
  param {
    lr_mult: 1
    decay_mult: 0
  }
  param {
    lr_mult: 1
    decay_mult: 0
  }
  param {
    lr_mult: 0
    decay_mult: 0
  }
  param {
    lr_mult: 0
    decay_mult: 0
  }
  bn_param {
    slope_filler {
      type: "constant"
      value: 1
    }
    bias_filler {
      type: "constant"
      value: 0
    }
    momentum: 0.95
    frozen: true
  }
}
layer {
  name: "conv3_2_1x1_reduce/relu"
  type: "ReLU"
  bottom: "conv3_2_1x1_reduce"
  top: "conv3_2_1x1_reduce"
}
layer {
  name: "conv3_2_3x3"
  type: "Convolution"
  bottom: "conv3_2_1x1_reduce"
  top: "conv3_2_3x3"
  param {
    lr_mult: 1
    decay_mult: 1
  }
  convolution_param {
    num_output: 128
    bias_term: false
    pad: 1
    kernel_size: 3
    stride: 1
    weight_filler {
      type: "msra"
    }
  }
}
layer {
  name: "conv3_2_3x3/bn"
  type: "BN"
  bottom: "conv3_2_3x3"
  top: "conv3_2_3x3"
  param {
    lr_mult: 1
    decay_mult: 0
  }
  param {
    lr_mult: 1
    decay_mult: 0
  }
  param {
    lr_mult: 0
    decay_mult: 0
  }
  param {
    lr_mult: 0
    decay_mult: 0
  }
  bn_param {
    slope_filler {
      type: "constant"
      value: 1
    }
    bias_filler {
      type: "constant"
      value: 0
    }
    momentum: 0.95
    frozen: true
  }
}
layer {
  name: "conv3_2_3x3/relu"
  type: "ReLU"
  bottom: "conv3_2_3x3"
  top: "conv3_2_3x3"
}
layer {
  name: "conv3_2_1x1_increase"
  type: "Convolution"
  bottom: "conv3_2_3x3"
  top: "conv3_2_1x1_increase"
  param {
    lr_mult: 1
    decay_mult: 1
  }
  convolution_param {
    num_output: 512
    bias_term: false
    pad: 0
    kernel_size: 1
    stride: 1
    weight_filler {
      type: "msra"
    }
  }
}
layer {
  name: "conv3_2_1x1_increase/bn"
  type: "BN"
  bottom: "conv3_2_1x1_increase"
  top: "conv3_2_1x1_increase"
  param {
    lr_mult: 1
    decay_mult: 0
  }
  param {
    lr_mult: 1
    decay_mult: 0
  }
  param {
    lr_mult: 0
    decay_mult: 0
  }
  param {
    lr_mult: 0
    decay_mult: 0
  }
  bn_param {
    slope_filler {
      type: "constant"
      value: 1
    }
    bias_filler {
      type: "constant"
      value: 0
    }
    momentum: 0.95
    frozen: true
  }
}
layer {
  name: "conv3_2"
  type: "Eltwise"
  bottom: "conv3_1"
  bottom: "conv3_2_1x1_increase"
  top: "conv3_2"
  eltwise_param {
    operation: SUM
  }
}
layer {
  name: "conv3_2/relu"
  type: "ReLU"
  bottom: "conv3_2"
  top: "conv3_2"
}
layer {
  name: "conv3_3_1x1_reduce"
  type: "Convolution"
  bottom: "conv3_2"
  top: "conv3_3_1x1_reduce"
  param {
    lr_mult: 1
    decay_mult: 1
  }
  convolution_param {
    num_output: 128
    bias_term: false
    pad: 0
    kernel_size: 1
    stride: 1
    weight_filler {
      type: "msra"
    }
  }
}
layer {
  name: "conv3_3_1x1_reduce/bn"
  type: "BN"
  bottom: "conv3_3_1x1_reduce"
  top: "conv3_3_1x1_reduce"
  param {
    lr_mult: 1
    decay_mult: 0
  }
  param {
    lr_mult: 1
    decay_mult: 0
  }
  param {
    lr_mult: 0
    decay_mult: 0
  }
  param {
    lr_mult: 0
    decay_mult: 0
  }
  bn_param {
    slope_filler {
      type: "constant"
      value: 1
    }
    bias_filler {
      type: "constant"
      value: 0
    }
    momentum: 0.95
    frozen: true
  }
}
layer {
  name: "conv3_3_1x1_reduce/relu"
  type: "ReLU"
  bottom: "conv3_3_1x1_reduce"
  top: "conv3_3_1x1_reduce"
}
layer {
  name: "conv3_3_3x3"
  type: "Convolution"
  bottom: "conv3_3_1x1_reduce"
  top: "conv3_3_3x3"
  param {
    lr_mult: 1
    decay_mult: 1
  }
  convolution_param {
    num_output: 128
    bias_term: false
    pad: 1
    kernel_size: 3
    stride: 1
    weight_filler {
      type: "msra"
    }
  }
}
layer {
  name: "conv3_3_3x3/bn"
  type: "BN"
  bottom: "conv3_3_3x3"
  top: "conv3_3_3x3"
  param {
    lr_mult: 1
    decay_mult: 0
  }
  param {
    lr_mult: 1
    decay_mult: 0
  }
  param {
    lr_mult: 0
    decay_mult: 0
  }
  param {
    lr_mult: 0
    decay_mult: 0
  }
  bn_param {
    slope_filler {
      type: "constant"
      value: 1
    }
    bias_filler {
      type: "constant"
      value: 0
    }
    momentum: 0.95
    frozen: true
  }
}
layer {
  name: "conv3_3_3x3/relu"
  type: "ReLU"
  bottom: "conv3_3_3x3"
  top: "conv3_3_3x3"
}
layer {
  name: "conv3_3_1x1_increase"
  type: "Convolution"
  bottom: "conv3_3_3x3"
  top: "conv3_3_1x1_increase"
  param {
    lr_mult: 1
    decay_mult: 1
  }
  convolution_param {
    num_output: 512
    bias_term: false
    pad: 0
    kernel_size: 1
    stride: 1
    weight_filler {
      type: "msra"
    }
  }
}
layer {
  name: "conv3_3_1x1_increase/bn"
  type: "BN"
  bottom: "conv3_3_1x1_increase"
  top: "conv3_3_1x1_increase"
  param {
    lr_mult: 1
    decay_mult: 0
  }
  param {
    lr_mult: 1
    decay_mult: 0
  }
  param {
    lr_mult: 0
    decay_mult: 0
  }
  param {
    lr_mult: 0
    decay_mult: 0
  }
  bn_param {
    slope_filler {
      type: "constant"
      value: 1
    }
    bias_filler {
      type: "constant"
      value: 0
    }
    momentum: 0.95
    frozen: true
  }
}
layer {
  name: "conv3_3"
  type: "Eltwise"
  bottom: "conv3_2"
  bottom: "conv3_3_1x1_increase"
  top: "conv3_3"
  eltwise_param {
    operation: SUM
  }
}
layer {
  name: "conv3_3/relu"
  type: "ReLU"
  bottom: "conv3_3"
  top: "conv3_3"
}
layer {
  name: "conv3_4_1x1_reduce"
  type: "Convolution"
  bottom: "conv3_3"
  top: "conv3_4_1x1_reduce"
  param {
    lr_mult: 1
    decay_mult: 1
  }
  convolution_param {
    num_output: 128
    bias_term: false
    pad: 0
    kernel_size: 1
    stride: 1
    weight_filler {
      type: "msra"
    }
  }
}
layer {
  name: "conv3_4_1x1_reduce/bn"
  type: "BN"
  bottom: "conv3_4_1x1_reduce"
  top: "conv3_4_1x1_reduce"
  param {
    lr_mult: 1
    decay_mult: 0
  }
  param {
    lr_mult: 1
    decay_mult: 0
  }
  param {
    lr_mult: 0
    decay_mult: 0
  }
  param {
    lr_mult: 0
    decay_mult: 0
  }
  bn_param {
    slope_filler {
      type: "constant"
      value: 1
    }
    bias_filler {
      type: "constant"
      value: 0
    }
    momentum: 0.95
    frozen: true
  }
}
layer {
  name: "conv3_4_1x1_reduce/relu"
  type: "ReLU"
  bottom: "conv3_4_1x1_reduce"
  top: "conv3_4_1x1_reduce"
}
layer {
  name: "conv3_4_3x3"
  type: "Convolution"
  bottom: "conv3_4_1x1_reduce"
  top: "conv3_4_3x3"
  param {
    lr_mult: 1
    decay_mult: 1
  }
  convolution_param {
    num_output: 128
    bias_term: false
    pad: 1
    kernel_size: 3
    stride: 1
    weight_filler {
      type: "msra"
    }
  }
}
layer {
  name: "conv3_4_3x3/bn"
  type: "BN"
  bottom: "conv3_4_3x3"
  top: "conv3_4_3x3"
  param {
    lr_mult: 1
    decay_mult: 0
  }
  param {
    lr_mult: 1
    decay_mult: 0
  }
  param {
    lr_mult: 0
    decay_mult: 0
  }
  param {
    lr_mult: 0
    decay_mult: 0
  }
  bn_param {
    slope_filler {
      type: "constant"
      value: 1
    }
    bias_filler {
      type: "constant"
      value: 0
    }
    momentum: 0.95
    frozen: true
  }
}
layer {
  name: "conv3_4_3x3/relu"
  type: "ReLU"
  bottom: "conv3_4_3x3"
  top: "conv3_4_3x3"
}
layer {
  name: "conv3_4_1x1_increase"
  type: "Convolution"
  bottom: "conv3_4_3x3"
  top: "conv3_4_1x1_increase"
  param {
    lr_mult: 1
    decay_mult: 1
  }
  convolution_param {
    num_output: 512
    bias_term: false
    pad: 0
    kernel_size: 1
    stride: 1
    weight_filler {
      type: "msra"
    }
  }
}
layer {
  name: "conv3_4_1x1_increase/bn"
  type: "BN"
  bottom: "conv3_4_1x1_increase"
  top: "conv3_4_1x1_increase"
  param {
    lr_mult: 1
    decay_mult: 0
  }
  param {
    lr_mult: 1
    decay_mult: 0
  }
  param {
    lr_mult: 0
    decay_mult: 0
  }
  param {
    lr_mult: 0
    decay_mult: 0
  }
  bn_param {
    slope_filler {
      type: "constant"
      value: 1
    }
    bias_filler {
      type: "constant"
      value: 0
    }
    momentum: 0.95
    frozen: true
  }
}
layer {
  name: "conv3_4"
  type: "Eltwise"
  bottom: "conv3_3"
  bottom: "conv3_4_1x1_increase"
  top: "conv3_4"
  eltwise_param {
    operation: SUM
  }
}
layer {
  name: "conv3_4/relu"
  type: "ReLU"
  bottom: "conv3_4"
  top: "conv3_4"
}
layer {
  name: "conv4_1_1x1_reduce"
  type: "Convolution"
  bottom: "conv3_4"
  top: "conv4_1_1x1_reduce"
  param {
    lr_mult: 1
    decay_mult: 1
  }
  convolution_param {
    num_output: 256
    bias_term: false
    pad: 0
    kernel_size: 1
    stride: 1
    weight_filler {
      type: "msra"
    }
  }
}
layer {
  name: "conv4_1_1x1_reduce/bn"
  type: "BN"
  bottom: "conv4_1_1x1_reduce"
  top: "conv4_1_1x1_reduce"
  param {
    lr_mult: 1
    decay_mult: 0
  }
  param {
    lr_mult: 1
    decay_mult: 0
  }
  param {
    lr_mult: 0
    decay_mult: 0
  }
  param {
    lr_mult: 0
    decay_mult: 0
  }
  bn_param {
    slope_filler {
      type: "constant"
      value: 1
    }
    bias_filler {
      type: "constant"
      value: 0
    }
    momentum: 0.95
    frozen: true
  }
}
layer {
  name: "conv4_1_1x1_reduce/relu"
  type: "ReLU"
  bottom: "conv4_1_1x1_reduce"
  top: "conv4_1_1x1_reduce"
}
layer {
  name: "conv4_1_3x3"
  type: "Convolution"
  bottom: "conv4_1_1x1_reduce"
  top: "conv4_1_3x3"
  param {
    lr_mult: 1
    decay_mult: 1
  }
  convolution_param {
    num_output: 256
    bias_term: false
    pad: 2
    kernel_size: 3
    stride: 1
    weight_filler {
      type: "msra"
    }
    dilation: 2
  }
}
layer {
  name: "conv4_1_3x3/bn"
  type: "BN"
  bottom: "conv4_1_3x3"
  top: "conv4_1_3x3"
  param {
    lr_mult: 1
    decay_mult: 0
  }
  param {
    lr_mult: 1
    decay_mult: 0
  }
  param {
    lr_mult: 0
    decay_mult: 0
  }
  param {
    lr_mult: 0
    decay_mult: 0
  }
  bn_param {
    slope_filler {
      type: "constant"
      value: 1
    }
    bias_filler {
      type: "constant"
      value: 0
    }
    momentum: 0.95
    frozen: true
  }
}
layer {
  name: "conv4_1_3x3/relu"
  type: "ReLU"
  bottom: "conv4_1_3x3"
  top: "conv4_1_3x3"
}
layer {
  name: "conv4_1_1x1_increase"
  type: "Convolution"
  bottom: "conv4_1_3x3"
  top: "conv4_1_1x1_increase"
  param {
    lr_mult: 1
    decay_mult: 1
  }
  convolution_param {
    num_output: 1024
    bias_term: false
    pad: 0
    kernel_size: 1
    stride: 1
    weight_filler {
      type: "msra"
    }
  }
}
layer {
  name: "conv4_1_1x1_increase/bn"
  type: "BN"
  bottom: "conv4_1_1x1_increase"
  top: "conv4_1_1x1_increase"
  param {
    lr_mult: 1
    decay_mult: 0
  }
  param {
    lr_mult: 1
    decay_mult: 0
  }
  param {
    lr_mult: 0
    decay_mult: 0
  }
  param {
    lr_mult: 0
    decay_mult: 0
  }
  bn_param {
    slope_filler {
      type: "constant"
      value: 1
    }
    bias_filler {
      type: "constant"
      value: 0
    }
    momentum: 0.95
    frozen: true
  }
}
layer {
  name: "conv4_1_1x1_proj"
  type: "Convolution"
  bottom: "conv3_4"
  top: "conv4_1_1x1_proj"
  param {
    lr_mult: 1
    decay_mult: 1
  }
  convolution_param {
    num_output: 1024
    bias_term: false
    pad: 0
    kernel_size: 1
    stride: 1
    weight_filler {
      type: "msra"
    }
  }
}
layer {
  name: "conv4_1_1x1_proj/bn"
  type: "BN"
  bottom: "conv4_1_1x1_proj"
  top: "conv4_1_1x1_proj"
  param {
    lr_mult: 1
    decay_mult: 0
  }
  param {
    lr_mult: 1
    decay_mult: 0
  }
  param {
    lr_mult: 0
    decay_mult: 0
  }
  param {
    lr_mult: 0
    decay_mult: 0
  }
  bn_param {
    slope_filler {
      type: "constant"
      value: 1
    }
    bias_filler {
      type: "constant"
      value: 0
    }
    momentum: 0.95
    frozen: true
  }
}
layer {
  name: "conv4_1"
  type: "Eltwise"
  bottom: "conv4_1_1x1_proj"
  bottom: "conv4_1_1x1_increase"
  top: "conv4_1"
  eltwise_param {
    operation: SUM
  }
}
layer {
  name: "conv4_1/relu"
  type: "ReLU"
  bottom: "conv4_1"
  top: "conv4_1"
}
layer {
  name: "conv4_2_1x1_reduce"
  type: "Convolution"
  bottom: "conv4_1"
  top: "conv4_2_1x1_reduce"
  param {
    lr_mult: 1
    decay_mult: 1
  }
  convolution_param {
    num_output: 256
    bias_term: false
    pad: 0
    kernel_size: 1
    stride: 1
    weight_filler {
      type: "msra"
    }
  }
}
layer {
  name: "conv4_2_1x1_reduce/bn"
  type: "BN"
  bottom: "conv4_2_1x1_reduce"
  top: "conv4_2_1x1_reduce"
  param {
    lr_mult: 1
    decay_mult: 0
  }
  param {
    lr_mult: 1
    decay_mult: 0
  }
  param {
    lr_mult: 0
    decay_mult: 0
  }
  param {
    lr_mult: 0
    decay_mult: 0
  }
  bn_param {
    slope_filler {
      type: "constant"
      value: 1
    }
    bias_filler {
      type: "constant"
      value: 0
    }
    momentum: 0.95
    frozen: true
  }
}
layer {
  name: "conv4_2_1x1_reduce/relu"
  type: "ReLU"
  bottom: "conv4_2_1x1_reduce"
  top: "conv4_2_1x1_reduce"
}
layer {
  name: "conv4_2_3x3"
  type: "Convolution"
  bottom: "conv4_2_1x1_reduce"
  top: "conv4_2_3x3"
  param {
    lr_mult: 1
    decay_mult: 1
  }
  convolution_param {
    num_output: 256
    bias_term: false
    pad: 2
    kernel_size: 3
    stride: 1
    weight_filler {
      type: "msra"
    }
    dilation: 2
  }
}
layer {
  name: "conv4_2_3x3/bn"
  type: "BN"
  bottom: "conv4_2_3x3"
  top: "conv4_2_3x3"
  param {
    lr_mult: 1
    decay_mult: 0
  }
  param {
    lr_mult: 1
    decay_mult: 0
  }
  param {
    lr_mult: 0
    decay_mult: 0
  }
  param {
    lr_mult: 0
    decay_mult: 0
  }
  bn_param {
    slope_filler {
      type: "constant"
      value: 1
    }
    bias_filler {
      type: "constant"
      value: 0
    }
    momentum: 0.95
    frozen: true
  }
}
layer {
  name: "conv4_2
I0621 16:07:13.732341 18569 layer_factory.hpp:77] Creating layer data
I0621 16:07:13.732367 18569 net.cpp:106] Creating Layer data
I0621 16:07:13.732372 18569 net.cpp:411] data -> data
I0621 16:07:13.732388 18569 net.cpp:411] data -> label
I0621 16:07:13.732395 18569 net.cpp:411] data -> (automatic)
I0621 16:07:13.732713 18569 image_seg_data_layer.cpp:46] Opening file exper/voc12/list/train_aug.txt
I0621 16:07:13.739806 18569 image_seg_data_layer.cpp:63] Shuffling data
I0621 16:07:13.740811 18569 image_seg_data_layer.cpp:68] A total of 10582 images.
I0621 16:07:13.755983 18569 image_seg_data_layer.cpp:137] output data size: 5,3,473,473
I0621 16:07:13.756039 18569 image_seg_data_layer.cpp:141] output label size: 5,1,473,473
I0621 16:07:13.756043 18569 image_seg_data_layer.cpp:145] output data_dim size: 5,1,1,2
I0621 16:07:13.831365 18569 net.cpp:150] Setting up data
I0621 16:07:13.831390 18569 net.cpp:157] Top shape: 5 3 473 473 (3355935)
I0621 16:07:13.831394 18569 net.cpp:157] Top shape: 5 1 473 473 (1118645)
I0621 16:07:13.831398 18569 net.cpp:157] Top shape: 5 1 1 2 (10)
I0621 16:07:13.831400 18569 net.cpp:165] Memory required for data: 17898360
I0621 16:07:13.831408 18569 layer_factory.hpp:77] Creating layer conv1_1_3x3_s2
I0621 16:07:13.831444 18569 net.cpp:106] Creating Layer conv1_1_3x3_s2
I0621 16:07:13.831450 18569 net.cpp:454] conv1_1_3x3_s2 <- data
I0621 16:07:13.831462 18569 net.cpp:411] conv1_1_3x3_s2 -> conv1_1_3x3_s2
I0621 16:07:13.832283 18569 net.cpp:150] Setting up conv1_1_3x3_s2
I0621 16:07:13.832293 18569 net.cpp:157] Top shape: 5 64 237 237 (17974080)
I0621 16:07:13.832296 18569 net.cpp:165] Memory required for data: 89794680
I0621 16:07:13.832306 18569 layer_factory.hpp:77] Creating layer conv1_1_3x3_s2/bn
I0621 16:07:13.832315 18569 net.cpp:106] Creating Layer conv1_1_3x3_s2/bn
I0621 16:07:13.832321 18569 net.cpp:454] conv1_1_3x3_s2/bn <- conv1_1_3x3_s2
I0621 16:07:13.832336 18569 net.cpp:397] conv1_1_3x3_s2/bn -> conv1_1_3x3_s2 (in-place)
I0621 16:07:13.839380 18569 net.cpp:150] Setting up conv1_1_3x3_s2/bn
I0621 16:07:13.839397 18569 net.cpp:157] Top shape: 5 64 237 237 (17974080)
I0621 16:07:13.839402 18569 net.cpp:165] Memory required for data: 161691000
I0621 16:07:13.839437 18569 layer_factory.hpp:77] Creating layer conv1_1_3x3_s2/relu
I0621 16:07:13.839445 18569 net.cpp:106] Creating Layer conv1_1_3x3_s2/relu
I0621 16:07:13.839449 18569 net.cpp:454] conv1_1_3x3_s2/relu <- conv1_1_3x3_s2
I0621 16:07:13.839457 18569 net.cpp:397] conv1_1_3x3_s2/relu -> conv1_1_3x3_s2 (in-place)
I0621 16:07:13.839463 18569 net.cpp:150] Setting up conv1_1_3x3_s2/relu
I0621 16:07:13.839468 18569 net.cpp:157] Top shape: 5 64 237 237 (17974080)
I0621 16:07:13.839471 18569 net.cpp:165] Memory required for data: 233587320
I0621 16:07:13.839475 18569 layer_factory.hpp:77] Creating layer conv1_2_3x3
I0621 16:07:13.839483 18569 net.cpp:106] Creating Layer conv1_2_3x3
I0621 16:07:13.839488 18569 net.cpp:454] conv1_2_3x3 <- conv1_1_3x3_s2
I0621 16:07:13.839493 18569 net.cpp:411] conv1_2_3x3 -> conv1_2_3x3
I0621 16:07:13.840361 18569 net.cpp:150] Setting up conv1_2_3x3
I0621 16:07:13.840366 18569 net.cpp:157] Top shape: 5 64 237 237 (17974080)
I0621 16:07:13.840369 18569 net.cpp:165] Memory required for data: 305483640
I0621 16:07:13.840373 18569 layer_factory.hpp:77] Creating layer conv1_2_3x3/bn
I0621 16:07:13.840378 18569 net.cpp:106] Creating Layer conv1_2_3x3/bn
I0621 16:07:13.840379 18569 net.cpp:454] conv1_2_3x3/bn <- conv1_2_3x3
I0621 16:07:13.840382 18569 net.cpp:397] conv1_2_3x3/bn -> conv1_2_3x3 (in-place)
I0621 16:07:13.840519 18569 net.cpp:150] Setting up conv1_2_3x3/bn
I0621 16:07:13.840524 18569 net.cpp:157] Top shape: 5 64 237 237 (17974080)
I0621 16:07:13.840526 18569 net.cpp:165] Memory required for data: 377379960
I0621 16:07:13.840533 18569 layer_factory.hpp:77] Creating layer conv1_2_3x3/relu
I0621 16:07:13.840536 18569 net.cpp:106] Creating Layer conv1_2_3x3/relu
I0621 16:07:13.840538 18569 net.cpp:454] conv1_2_3x3/relu <- conv1_2_3x3
I0621 16:07:13.840541 18569 net.cpp:397] conv1_2_3x3/relu -> conv1_2_3x3 (in-place)
I0621 16:07:13.840544 18569 net.cpp:150] Setting up conv1_2_3x3/relu
I0621 16:07:13.840548 18569 net.cpp:157] Top shape: 5 64 237 237 (17974080)
I0621 16:07:13.840549 18569 net.cpp:165] Memory required for data: 449276280
I0621 16:07:13.840553 18569 layer_factory.hpp:77] Creating layer conv1_3_3x3
I0621 16:07:13.840559 18569 net.cpp:106] Creating Layer conv1_3_3x3
I0621 16:07:13.840562 18569 net.cpp:454] conv1_3_3x3 <- conv1_2_3x3
I0621 16:07:13.840567 18569 net.cpp:411] conv1_3_3x3 -> conv1_3_3x3
I0621 16:07:13.842761 18569 net.cpp:150] Setting up conv1_3_3x3
I0621 16:07:13.842775 18569 net.cpp:157] Top shape: 5 128 237 237 (35948160)
I0621 16:07:13.842780 18569 net.cpp:165] Memory required for data: 593068920
I0621 16:07:13.842788 18569 layer_factory.hpp:77] Creating layer conv1_3_3x3/bn
I0621 16:07:13.842803 18569 net.cpp:106] Creating Layer conv1_3_3x3/bn
I0621 16:07:13.842808 18569 net.cpp:454] conv1_3_3x3/bn <- conv1_3_3x3
I0621 16:07:13.842815 18569 net.cpp:397] conv1_3_3x3/bn -> conv1_3_3x3 (in-place)
I0621 16:07:13.843001 18569 net.cpp:150] Setting up conv1_3_3x3/bn
I0621 16:07:13.843008 18569 net.cpp:157] Top shape: 5 128 237 237 (35948160)
I0621 16:07:13.843013 18569 net.cpp:165] Memory required for data: 736861560
I0621 16:07:13.843020 18569 layer_factory.hpp:77] Creating layer conv1_3_3x3/relu
I0621 16:07:13.843026 18569 net.cpp:106] Creating Layer conv1_3_3x3/relu
I0621 16:07:13.843029 18569 net.cpp:454] conv1_3_3x3/relu <- conv1_3_3x3
I0621 16:07:13.843034 18569 net.cpp:397] conv1_3_3x3/relu -> conv1_3_3x3 (in-place)
I0621 16:07:13.843039 18569 net.cpp:150] Setting up conv1_3_3x3/relu
I0621 16:07:13.843044 18569 net.cpp:157] Top shape: 5 128 237 237 (35948160)
I0621 16:07:13.843047 18569 net.cpp:165] Memory required for data: 880654200
I0621 16:07:13.843050 18569 layer_factory.hpp:77] Creating layer pool1_3x3_s2
I0621 16:07:13.843058 18569 net.cpp:106] Creating Layer pool1_3x3_s2
I0621 16:07:13.843061 18569 net.cpp:454] pool1_3x3_s2 <- conv1_3_3x3
I0621 16:07:13.843065 18569 net.cpp:411] pool1_3x3_s2 -> pool1_3x3_s2
I0621 16:07:13.843104 18569 net.cpp:150] Setting up pool1_3x3_s2
I0621 16:07:13.843108 18569 net.cpp:157] Top shape: 5 128 119 119 (9063040)
I0621 16:07:13.843128 18569 net.cpp:165] Memory required for data: 916906360
I0621 16:07:13.843132 18569 layer_factory.hpp:77] Creating layer pool1_3x3_s2_pool1_3x3_s2_0_split
I0621 16:07:13.843145 18569 net.cpp:106] Creating Layer pool1_3x3_s2_pool1_3x3_s2_0_split
I0621 16:07:13.843148 18569 net.cpp:454] pool1_3x3_s2_pool1_3x3_s2_0_split <- pool1_3x3_s2
I0621 16:07:13.843152 18569 net.cpp:411] pool1_3x3_s2_pool1_3x3_s2_0_split -> pool1_3x3_s2_pool1_3x3_s2_0_split_0
I0621 16:07:13.843158 18569 net.cpp:411] pool1_3x3_s2_pool1_3x3_s2_0_split -> pool1_3x3_s2_pool1_3x3_s2_0_split_1
I0621 16:07:13.843183 18569 net.cpp:150] Setting up pool1_3x3_s2_pool1_3x3_s2_0_split
I0621 16:07:13.843189 18569 net.cpp:157] Top shape: 5 128 119 119 (9063040)
I0621 16:07:13.843194 18569 net.cpp:157] Top shape: 5 128 119 119 (9063040)
I0621 16:07:13.843197 18569 net.cpp:165] Memory required for data: 989410680
I0621 16:07:13.843200 18569 layer_factory.hpp:77] Creating layer conv2_1_1x1_reduce
I0621 16:07:13.843209 18569 net.cpp:106] Creating Layer conv2_1_1x1_reduce
I0621 16:07:13.843214 18569 net.cpp:454] conv2_1_1x1_reduce <- pool1_3x3_s2_pool1_3x3_s2_0_split_0
I0621 16:07:13.843219 18569 net.cpp:411] conv2_1_1x1_reduce -> conv2_1_1x1_reduce
I0621 16:07:13.844192 18569 net.cpp:150] Setting up conv2_1_1x1_reduce
I0621 16:07:13.844208 18569 net.cpp:157] Top shape: 5 64 119 119 (4531520)
I0621 16:07:13.844211 18569 net.cpp:165] Memory required for data: 1007536760
I0621 16:07:13.844218 18569 layer_factory.hpp:77] Creating layer conv2_1_1x1_reduce/bn
I0621 16:07:13.844230 18569 net.cpp:106] Creating Layer conv2_1_1x1_reduce/bn
I0621 16:07:13.844234 18569 net.cpp:454] conv2_1_1x1_reduce/bn <- conv2_1_1x1_reduce
I0621 16:07:13.844241 18569 net.cpp:397] conv2_1_1x1_reduce/bn -> conv2_1_1x1_reduce (in-place)
I0621 16:07:13.844401 18569 net.cpp:150] Setting up conv2_1_1x1_reduce/bn
I0621 16:07:13.844406 18569 net.cpp:157] Top shape: 5 64 119 119 (4531520)
I0621 16:07:13.844409 18569 net.cpp:165] Memory required for data: 1025662840
I0621 16:07:13.844420 18569 layer_factory.hpp:77] Creating layer conv2_1_1x1_reduce/relu
I0621 16:07:13.844429 18569 net.cpp:106] Creating Layer conv2_1_1x1_reduce/relu
I0621 16:07:13.844431 18569 net.cpp:454] conv2_1_1x1_reduce/relu <- conv2_1_1x1_reduce
I0621 16:07:13.844436 18569 net.cpp:397] conv2_1_1x1_reduce/relu -> conv2_1_1x1_reduce (in-place)
I0621 16:07:13.844441 18569 net.cpp:150] Setting up conv2_1_1x1_reduce/relu
I0621 16:07:13.844444 18569 net.cpp:157] Top shape: 5 64 119 119 (4531520)
I0621 16:07:13.844446 18569 net.cpp:165] Memory required for data: 1043788920
I0621 16:07:13.844450 18569 layer_factory.hpp:77] Creating layer conv2_1_3x3
I0621 16:07:13.844461 18569 net.cpp:106] Creating Layer conv2_1_3x3
I0621 16:07:13.844465 18569 net.cpp:454] conv2_1_3x3 <- conv2_1_1x1_reduce
I0621 16:07:13.844470 18569 net.cpp:411] conv2_1_3x3 -> conv2_1_3x3
I0621 16:07:13.845409 18569 net.cpp:150] Setting up conv2_1_3x3
I0621 16:07:13.845417 18569 net.cpp:157] Top shape: 5 64 119 119 (4531520)
I0621 16:07:13.845422 18569 net.cpp:165] Memory required for data: 1061915000
I0621 16:07:13.845427 18569 layer_factory.hpp:77] Creating layer conv2_1_3x3/bn
I0621 16:07:13.845437 18569 net.cpp:106] Creating Layer conv2_1_3x3/bn
I0621 16:07:13.845440 18569 net.cpp:454] conv2_1_3x3/bn <- conv2_1_3x3
I0621 16:07:13.845445 18569 net.cpp:397] conv2_1_3x3/bn -> conv2_1_3x3 (in-place)
I0621 16:07:13.845589 18569 net.cpp:150] Setting up conv2_1_3x3/bn
I0621 16:07:13.845594 18569 net.cpp:157] Top shape: 5 64 119 119 (4531520)
I0621 16:07:13.845598 18569 net.cpp:165] Memory required for data: 1080041080
I0621 16:07:13.845605 18569 layer_factory.hpp:77] Creating layer conv2_1_3x3/relu
I0621 16:07:13.845610 18569 net.cpp:106] Creating Layer conv2_1_3x3/relu
I0621 16:07:13.845613 18569 net.cpp:454] conv2_1_3x3/relu <- conv2_1_3x3
I0621 16:07:13.845618 18569 net.cpp:397] conv2_1_3x3/relu -> conv2_1_3x3 (in-place)
I0621 16:07:13.845623 18569 net.cpp:150] Setting up conv2_1_3x3/relu
I0621 16:07:13.845654 18569 net.cpp:157] Top shape: 5 64 119 119 (4531520)
I0621 16:07:13.845656 18569 net.cpp:165] Memory required for data: 1098167160
I0621 16:07:13.845660 18569 layer_factory.hpp:77] Creating layer conv2_1_1x1_increase
I0621 16:07:13.845666 18569 net.cpp:106] Creating Layer conv2_1_1x1_increase
I0621 16:07:13.845669 18569 net.cpp:454] conv2_1_1x1_increase <- conv2_1_3x3
I0621 16:07:13.845674 18569 net.cpp:411] conv2_1_1x1_increase -> conv2_1_1x1_increase
I0621 16:07:13.846137 18569 net.cpp:150] Setting up conv2_1_1x1_increase
I0621 16:07:13.846143 18569 net.cpp:157] Top shape: 5 256 119 119 (18126080)
I0621 16:07:13.846145 18569 net.cpp:165] Memory required for data: 1170671480
I0621 16:07:13.846151 18569 layer_factory.hpp:77] Creating layer conv2_1_1x1_increase/bn
I0621 16:07:13.846160 18569 net.cpp:106] Creating Layer conv2_1_1x1_increase/bn
I0621 16:07:13.846163 18569 net.cpp:454] conv2_1_1x1_increase/bn <- conv2_1_1x1_increase
I0621 16:07:13.846170 18569 net.cpp:397] conv2_1_1x1_increase/bn -> conv2_1_1x1_increase (in-place)
I0621 16:07:13.846302 18569 net.cpp:150] Setting up conv2_1_1x1_increase/bn
I0621 16:07:13.846307 18569 net.cpp:157] Top shape: 5 256 119 119 (18126080)
I0621 16:07:13.846310 18569 net.cpp:165] Memory required for data: 1243175800
I0621 16:07:13.846318 18569 layer_factory.hpp:77] Creating layer conv2_1_1x1_proj
I0621 16:07:13.846328 18569 net.cpp:106] Creating Layer conv2_1_1x1_proj
I0621 16:07:13.846333 18569 net.cpp:454] conv2_1_1x1_proj <- pool1_3x3_s2_pool1_3x3_s2_0_split_1
I0621 16:07:13.846338 18569 net.cpp:411] conv2_1_1x1_proj -> conv2_1_1x1_proj
I0621 16:07:13.847170 18569 net.cpp:150] Setting up conv2_1_1x1_proj
I0621 16:07:13.847178 18569 net.cpp:157] Top shape: 5 256 119 119 (18126080)
I0621 16:07:13.847182 18569 net.cpp:165] Memory required for data: 1315680120
I0621 16:07:13.847188 18569 layer_factory.hpp:77] Creating layer conv2_1_1x1_proj/bn
I0621 16:07:13.847198 18569 net.cpp:106] Creating Layer conv2_1_1x1_proj/bn
I0621 16:07:13.847200 18569 net.cpp:454] conv2_1_1x1_proj/bn <- conv2_1_1x1_proj
I0621 16:07:13.847206 18569 net.cpp:397] conv2_1_1x1_proj/bn -> conv2_1_1x1_proj (in-place)
I0621 16:07:13.847373 18569 net.cpp:150] Setting up conv2_1_1x1_proj/bn
I0621 16:07:13.847381 18569 net.cpp:157] Top shape: 5 256 119 119 (18126080)
I0621 16:07:13.847384 18569 net.cpp:165] Memory required for data: 1388184440
I0621 16:07:13.847404 18569 layer_factory.hpp:77] Creating layer conv2_1
I0621 16:07:13.847425 18569 net.cpp:106] Creating Layer conv2_1
I0621 16:07:13.847429 18569 net.cpp:454] conv2_1 <- conv2_1_1x1_proj
I0621 16:07:13.847434 18569 net.cpp:454] conv2_1 <- conv2_1_1x1_increase
I0621 16:07:13.847439 18569 net.cpp:411] conv2_1 -> conv2_1
I0621 16:07:13.847489 18569 net.cpp:150] Setting up conv2_1
I0621 16:07:13.847494 18569 net.cpp:157] Top shape: 5 256 119 119 (18126080)
I0621 16:07:13.847497 18569 net.cpp:165] Memory required for data: 1460688760
I0621 16:07:13.847501 18569 layer_factory.hpp:77] Creating layer conv2_1/relu
I0621 16:07:13.847506 18569 net.cpp:106] Creating Layer conv2_1/relu
I0621 16:07:13.847509 18569 net.cpp:454] conv2_1/relu <- conv2_1
I0621 16:07:13.847515 18569 net.cpp:397] conv2_1/relu -> conv2_1 (in-place)
I0621 16:07:13.847520 18569 net.cpp:150] Setting up conv2_1/relu
I0621 16:07:13.847524 18569 net.cpp:157] Top shape: 5 256 119 119 (18126080)
I0621 16:07:13.847527 18569 net.cpp:165] Memory required for data: 1533193080
I0621 16:07:13.847532 18569 layer_factory.hpp:77] Creating layer conv2_1_conv2_1/relu_0_split
I0621 16:07:13.847538 18569 net.cpp:106] Creating Layer conv2_1_conv2_1/relu_0_split
I0621 16:07:13.847542 18569 net.cpp:454] conv2_1_conv2_1/relu_0_split <- conv2_1
I0621 16:07:13.847545 18569 net.cpp:411] conv2_1_conv2_1/relu_0_split -> conv2_1_conv2_1/relu_0_split_0
I0621 16:07:13.847551 18569 net.cpp:411] conv2_1_conv2_1/relu_0_split -> conv2_1_conv2_1/relu_0_split_1
I0621 16:07:13.847574 18569 net.cpp:150] Setting up conv2_1_conv2_1/relu_0_split
I0621 16:07:13.847579 18569 net.cpp:157] Top shape: 5 256 119 119 (18126080)
I0621 16:07:13.847599 18569 net.cpp:157] Top shape: 5 256 119 119 (18126080)
I0621 16:07:13.847601 18569 net.cpp:165] Memory required for data: 1678201720
I0621 16:07:13.847605 18569 layer_factory.hpp:77] Creating layer conv2_2_1x1_reduce
I0621 16:07:13.847614 18569 net.cpp:106] Creating Layer conv2_2_1x1_reduce
I0621 16:07:13.847616 18569 net.cpp:454] conv2_2_1x1_reduce <- conv2_1_conv2_1/relu_0_split_0
I0621 16:07:13.847626 18569 net.cpp:411] conv2_2_1x1_reduce -> conv2_2_1x1_reduce
I0621 16:07:13.848105 18569 net.cpp:150] Setting up conv2_2_1x1_reduce
I0621 16:07:13.848120 18569 net.cpp:157] Top shape: 5 64 119 119 (4531520)
I0621 16:07:13.848124 18569 net.cpp:165] Memory required for data: 1696327800
I0621 16:07:13.848129 18569 layer_factory.hpp:77] Creating layer conv2_2_1x1_reduce/bn
I0621 16:07:13.848140 18569 net.cpp:106] Creating Layer conv2_2_1x1_reduce/bn
I0621 16:07:13.848145 18569 net.cpp:454] conv2_2_1x1_reduce/bn <- conv2_2_1x1_reduce
I0621 16:07:13.848150 18569 net.cpp:397] conv2_2_1x1_reduce/bn -> conv2_2_1x1_reduce (in-place)
I0621 16:07:13.848330 18569 net.cpp:150] Setting up conv2_2_1x1_reduce/bn
I0621 16:07:13.848337 18569 net.cpp:157] Top shape: 5 64 119 119 (4531520)
I0621 16:07:13.848342 18569 net.cpp:165] Memory required for data: 1714453880
I0621 16:07:13.848351 18569 layer_factory.hpp:77] Creating layer conv2_2_1x1_reduce/relu
I0621 16:07:13.848356 18569 net.cpp:106] Creating Layer conv2_2_1x1_reduce/relu
I0621 16:07:13.848366 18569 net.cpp:454] conv2_2_1x1_reduce/relu <- conv2_2_1x1_reduce
I0621 16:07:13.848369 18569 net.cpp:397] conv2_2_1x1_reduce/relu -> conv2_2_1x1_reduce (in-place)
I0621 16:07:13.848376 18569 net.cpp:150] Setting up conv2_2_1x1_reduce/relu
I0621 16:07:13.848387 18569 net.cpp:157] Top shape: 5 64 119 119 (4531520)
I0621 16:07:13.848390 18569 net.cpp:165] Memory required for data: 1732579960
I0621 16:07:13.848394 18569 layer_factory.hpp:77] Creating layer conv2_2_3x3
I0621 16:07:13.848402 18569 net.cpp:106] Creating Layer conv2_2_3x3
I0621 16:07:13.848405 18569 net.cpp:454] conv2_2_3x3 <- conv2_2_1x1_reduce
I0621 16:07:13.848410 18569 net.cpp:411] conv2_2_3x3 -> conv2_2_3x3
I0621 16:07:13.849336 18569 net.cpp:150] Setting up conv2_2_3x3
I0621 16:07:13.849342 18569 net.cpp:157] Top shape: 5 64 119 119 (4531520)
I0621 16:07:13.849346 18569 net.cpp:165] Memory required for data: 1750706040
I0621 16:07:13.849351 18569 layer_factory.hpp:77] Creating layer conv2_2_3x3/bn
I0621 16:07:13.849357 18569 net.cpp:106] Creating Layer conv2_2_3x3/bn
I0621 16:07:13.849361 18569 net.cpp:454] conv2_2_3x3/bn <- conv2_2_3x3
I0621 16:07:13.849366 18569 net.cpp:397] conv2_2_3x3/bn -> conv2_2_3x3 (in-place)
I0621 16:07:13.849545 18569 net.cpp:150] Setting up conv2_2_3x3/bn
I0621 16:07:13.849557 18569 net.cpp:157] Top shape: 5 64 119 119 (4531520)
I0621 16:07:13.849561 18569 net.cpp:165] Memory required for data: 1768832120
I0621 16:07:13.849570 18569 layer_factory.hpp:77] Creating layer conv2_2_3x3/relu
I0621 16:07:13.849578 18569 net.cpp:106] Creating Layer conv2_2_3x3/relu
I0621 16:07:13.849583 18569 net.cpp:454] conv2_2_3x3/relu <- conv2_2_3x3
I0621 16:07:13.849591 18569 net.cpp:397] conv2_2_3x3/relu -> conv2_2_3x3 (in-place)
I0621 16:07:13.849597 18569 net.cpp:150] Setting up conv2_2_3x3/relu
I0621 16:07:13.849602 18569 net.cpp:157] Top shape: 5 64 119 119 (4531520)
I0621 16:07:13.849606 18569 net.cpp:165] Memory required for data: 1786958200
I0621 16:07:13.849611 18569 layer_factory.hpp:77] Creating layer conv2_2_1x1_increase
I0621 16:07:13.849627 18569 net.cpp:106] Creating Layer conv2_2_1x1_increase
I0621 16:07:13.849633 18569 net.cpp:454] conv2_2_1x1_increase <- conv2_2_3x3
I0621 16:07:13.849642 18569 net.cpp:411] conv2_2_1x1_increase -> conv2_2_1x1_increase
I0621 16:07:13.850283 18569 net.cpp:150] Setting up conv2_2_1x1_increase
I0621 16:07:13.850298 18569 net.cpp:157] Top shape: 5 256 119 119 (18126080)
I0621 16:07:13.850306 18569 net.cpp:165] Memory required for data: 1859462520
I0621 16:07:13.850316 18569 layer_factory.hpp:77] Creating layer conv2_2_1x1_increase/bn
I0621 16:07:13.850335 18569 net.cpp:106] Creating Layer conv2_2_1x1_increase/bn
I0621 16:07:13.850373 18569 net.cpp:454] conv2_2_1x1_increase/bn <- conv2_2_1x1_increase
I0621 16:07:13.850381 18569 net.cpp:397] conv2_2_1x1_increase/bn -> conv2_2_1x1_increase (in-place)
I0621 16:07:13.850574 18569 net.cpp:150] Setting up conv2_2_1x1_increase/bn
I0621 16:07:13.850585 18569 net.cpp:157] Top shape: 5 256 119 119 (18126080)
I0621 16:07:13.850592 18569 net.cpp:165] Memory required for data: 1931966840
I0621 16:07:13.850603 18569 layer_factory.hpp:77] Creating layer conv2_2
I0621 16:07:13.850616 18569 net.cpp:106] Creating Layer conv2_2
I0621 16:07:13.850623 18569 net.cpp:454] conv2_2 <- conv2_1_conv2_1/relu_0_split_1
I0621 16:07:13.850631 18569 net.cpp:454] conv2_2 <- conv2_2_1x1_increase
I0621 16:07:13.850639 18569 net.cpp:411] conv2_2 -> conv2_2
I0621 16:07:13.850668 18569 net.cpp:150] Setting up conv2_2
I0621 16:07:13.850677 18569 net.cpp:157] Top shape: 5 256 119 119 (18126080)
I0621 16:07:13.850684 18569 net.cpp:165] Memory required for data: 2004471160
I0621 16:07:13.850690 18569 layer_factory.hpp:77] Creating layer conv2_2/relu
I0621 16:07:13.850702 18569 net.cpp:106] Creating Layer conv2_2/relu
I0621 16:07:13.850708 18569 net.cpp:454] conv2_2/relu <- conv2_2
I0621 16:07:13.850716 18569 net.cpp:397] conv2_2/relu -> conv2_2 (in-place)
I0621 16:07:13.850725 18569 net.cpp:150] Setting up conv2_2/relu
I0621 16:07:13.850733 18569 net.cpp:157] Top shape: 5 256 119 119 (18126080)
I0621 16:07:13.850739 18569 net.cpp:165] Memory required for data: 2076975480
I0621 16:07:13.850745 18569 layer_factory.hpp:77] Creating layer conv2_2_conv2_2/relu_0_split
I0621 16:07:13.850754 18569 net.cpp:106] Creating Layer conv2_2_conv2_2/relu_0_split
I0621 16:07:13.850760 18569 net.cpp:454] conv2_2_conv2_2/relu_0_split <- conv2_2
I0621 16:07:13.850853 18569 net.cpp:411] conv2_2_conv2_2/relu_0_split -> conv2_2_conv2_2/relu_0_split_0
I0621 16:07:13.850862 18569 net.cpp:411] conv2_2_conv2_2/relu_0_split -> conv2_2_conv2_2/relu_0_split_1
I0621 16:07:13.850900 18569 net.cpp:150] Setting up conv2_2_conv2_2/relu_0_split
I0621 16:07:13.850910 18569 net.cpp:157] Top shape: 5 256 119 119 (18126080)
I0621 16:07:13.850917 18569 net.cpp:157] Top shape: 5 256 119 119 (18126080)
I0621 16:07:13.850924 18569 net.cpp:165] Memory required for data: 2221984120
I0621 16:07:13.850929 18569 layer_factory.hpp:77] Creating layer conv2_3_1x1_reduce
I0621 16:07:13.850951 18569 net.cpp:106] Creating Layer conv2_3_1x1_reduce
I0621 16:07:13.850960 18569 net.cpp:454] conv2_3_1x1_reduce <- conv2_2_conv2_2/relu_0_split_0
I0621 16:07:13.850970 18569 net.cpp:411] conv2_3_1x1_reduce -> conv2_3_1x1_reduce
I0621 16:07:13.851605 18569 net.cpp:150] Setting up conv2_3_1x1_reduce
I0621 16:07:13.851619 18569 net.cpp:157] Top shape: 5 64 119 119 (4531520)
I0621 16:07:13.851625 18569 net.cpp:165] Memory required for data: 2240110200
I0621 16:07:13.851634 18569 layer_factory.hpp:77] Creating layer conv2_3_1x1_reduce/bn
I0621 16:07:13.851644 18569 net.cpp:106] Creating Layer conv2_3_1x1_reduce/bn
I0621 16:07:13.851651 18569 net.cpp:454] conv2_3_1x1_reduce/bn <- conv2_3_1x1_reduce
I0621 16:07:13.851661 18569 net.cpp:397] conv2_3_1x1_reduce/bn -> conv2_3_1x1_reduce (in-place)
I0621 16:07:13.851872 18569 net.cpp:150] Setting up conv2_3_1x1_reduce/bn
I0621 16:07:13.851886 18569 net.cpp:157] Top shape: 5 64 119 119 (4531520)
I0621 16:07:13.851891 18569 net.cpp:165] Memory required for data: 2258236280
I0621 16:07:13.851903 18569 layer_factory.hpp:77] Creating layer conv2_3_1x1_reduce/relu
I0621 16:07:13.851913 18569 net.cpp:106] Creating Layer conv2_3_1x1_reduce/relu
I0621 16:07:13.851920 18569 net.cpp:454] conv2_3_1x1_reduce/relu <- conv2_3_1x1_reduce
I0621 16:07:13.851928 18569 net.cpp:397] conv2_3_1x1_reduce/relu -> conv2_3_1x1_reduce (in-place)
I0621 16:07:13.851938 18569 net.cpp:150] Setting up conv2_3_1x1_reduce/relu
I0621 16:07:13.851945 18569 net.cpp:157] Top shape: 5 64 119 119 (4531520)
I0621 16:07:13.851951 18569 net.cpp:165] Memory required for data: 2276362360
I0621 16:07:13.851958 18569 layer_factory.hpp:77] Creating layer conv2_3_3x3
I0621 16:07:13.851994 18569 net.cpp:106] Creating Layer conv2_3_3x3
I0621 16:07:13.852001 18569 net.cpp:454] conv2_3_3x3 <- conv2_3_1x1_reduce
I0621 16:07:13.852010 18569 net.cpp:411] conv2_3_3x3 -> conv2_3_3x3
I0621 16:07:13.853322 18569 net.cpp:150] Setting up conv2_3_3x3
I0621 16:07:13.853351 18569 net.cpp:157] Top shape: 5 64 119 119 (4531520)
I0621 16:07:13.853359 18569 net.cpp:165] Memory required for data: 2294488440
I0621 16:07:13.853370 18569 layer_factory.hpp:77] Creating layer conv2_3_3x3/bn
I0621 16:07:13.853385 18569 net.cpp:106] Creating Layer conv2_3_3x3/bn
I0621 16:07:13.853394 18569 net.cpp:454] conv2_3_3x3/bn <- conv2_3_3x3
I0621 16:07:13.853404 18569 net.cpp:397] conv2_3_3x3/bn -> conv2_3_3x3 (in-place)
I0621 16:07:13.853651 18569 net.cpp:150] Setting up conv2_3_3x3/bn
I0621 16:07:13.853663 18569 net.cpp:157] Top shape: 5 64 119 119 (4531520)
I0621 16:07:13.853670 18569 net.cpp:165] Memory required for data: 2312614520
I0621 16:07:13.853682 18569 layer_factory.hpp:77] Creating layer conv2_3_3x3/relu
I0621 16:07:13.853695 18569 net.cpp:106] Creating Layer conv2_3_3x3/relu
I0621 16:07:13.853700 18569 net.cpp:454] conv2_3_3x3/relu <- conv2_3_3x3
I0621 16:07:13.853708 18569 net.cpp:397] conv2_3_3x3/relu -> conv2_3_3x3 (in-place)
I0621 16:07:13.853718 18569 net.cpp:150] Setting up conv2_3_3x3/relu
I0621 16:07:13.853724 18569 net.cpp:157] Top shape: 5 64 119 119 (4531520)
I0621 16:07:13.853730 18569 net.cpp:165] Memory required for data: 2330740600
I0621 16:07:13.853736 18569 layer_factory.hpp:77] Creating layer conv2_3_1x1_increase
I0621 16:07:13.853750 18569 net.cpp:106] Creating Layer conv2_3_1x1_increase
I0621 16:07:13.853756 18569 net.cpp:454] conv2_3_1x1_increase <- conv2_3_3x3
I0621 16:07:13.853766 18569 net.cpp:411] conv2_3_1x1_increase -> conv2_3_1x1_increase
I0621 16:07:13.854440 18569 net.cpp:150] Setting up conv2_3_1x1_increase
I0621 16:07:13.854460 18569 net.cpp:157] Top shape: 5 256 119 119 (18126080)
I0621 16:07:13.854468 18569 net.cpp:165] Memory required for data: 2403244920
I0621 16:07:13.854476 18569 layer_factory.hpp:77] Creating layer conv2_3_1x1_increase/bn
I0621 16:07:13.854490 18569 net.cpp:106] Creating Layer conv2_3_1x1_increase/bn
I0621 16:07:13.854498 18569 net.cpp:454] conv2_3_1x1_increase/bn <- conv2_3_1x1_increase
I0621 16:07:13.854506 18569 net.cpp:397] conv2_3_1x1_increase/bn -> conv2_3_1x1_increase (in-place)
I0621 16:07:13.854717 18569 net.cpp:150] Setting up conv2_3_1x1_increase/bn
I0621 16:07:13.854730 18569 net.cpp:157] Top shape: 5 256 119 119 (18126080)
I0621 16:07:13.854737 18569 net.cpp:165] Memory required for data: 2475749240
I0621 16:07:13.854775 18569 layer_factory.hpp:77] Creating layer conv2_3
I0621 16:07:13.854794 18569 net.cpp:106] Creating Layer conv2_3
I0621 16:07:13.854802 18569 net.cpp:454] conv2_3 <- conv2_2_conv2_2/relu_0_split_1
I0621 16:07:13.854810 18569 net.cpp:454] conv2_3 <- conv2_3_1x1_increase
I0621 16:07:13.854820 18569 net.cpp:411] conv2_3 -> conv2_3
I0621 16:07:13.854858 18569 net.cpp:150] Setting up conv2_3
I0621 16:07:13.854867 18569 net.cpp:157] Top shape: 5 256 119 119 (18126080)
I0621 16:07:13.854873 18569 net.cpp:165] Memory required for data: 2548253560
I0621 16:07:13.854881 18569 layer_factory.hpp:77] Creating layer conv2_3/relu
I0621 16:07:13.854893 18569 net.cpp:106] Creating Layer conv2_3/relu
I0621 16:07:13.854900 18569 net.cpp:454] conv2_3/relu <- conv2_3
I0621 16:07:13.854907 18569 net.cpp:397] conv2_3/relu -> conv2_3 (in-place)
I0621 16:07:13.854920 18569 net.cpp:150] Setting up conv2_3/relu
I0621 16:07:13.854928 18569 net.cpp:157] Top shape: 5 256 119 119 (18126080)
I0621 16:07:13.854934 18569 net.cpp:165] Memory required for data: 2620757880
I0621 16:07:13.854941 18569 layer_factory.hpp:77] Creating layer conv2_3_conv2_3/relu_0_split
I0621 16:07:13.854953 18569 net.cpp:106] Creating Layer conv2_3_conv2_3/relu_0_split
I0621 16:07:13.854957 18569 net.cpp:454] conv2_3_conv2_3/relu_0_split <- conv2_3
I0621 16:07:13.854966 18569 net.cpp:411] conv2_3_conv2_3/relu_0_split -> conv2_3_conv2_3/relu_0_split_0
I0621 16:07:13.855010 18569 net.cpp:411] conv2_3_conv2_3/relu_0_split -> conv2_3_conv2_3/relu_0_split_1
I0621 16:07:13.855048 18569 net.cpp:150] Setting up conv2_3_conv2_3/relu_0_split
I0621 16:07:13.855057 18569 net.cpp:157] Top shape: 5 256 119 119 (18126080)
I0621 16:07:13.855064 18569 net.cpp:157] Top shape: 5 256 119 119 (18126080)
I0621 16:07:13.855070 18569 net.cpp:165] Memory required for data: 2765766520
I0621 16:07:13.860992 18569 layer_factory.hpp:77] Creating layer conv3_1_1x1_reduce
I0621 16:07:13.861090 18569 net.cpp:106] Creating Layer conv3_1_1x1_reduce
I0621 16:07:13.861111 18569 net.cpp:454] conv3_1_1x1_reduce <- conv2_3_conv2_3/relu_0_split_0
I0621 16:07:13.861138 18569 net.cpp:411] conv3_1_1x1_reduce -> conv3_1_1x1_reduce
I0621 16:07:13.862498 18569 net.cpp:150] Setting up conv3_1_1x1_reduce
I0621 16:07:13.862529 18569 net.cpp:157] Top shape: 5 128 119 119 (9063040)
I0621 16:07:13.862535 18569 net.cpp:165] Memory required for data: 2802018680
I0621 16:07:13.862548 18569 layer_factory.hpp:77] Creating layer conv3_1_1x1_reduce/bn
I0621 16:07:13.862565 18569 net.cpp:106] Creating Layer conv3_1_1x1_reduce/bn
I0621 16:07:13.862571 18569 net.cpp:454] conv3_1_1x1_reduce/bn <- conv3_1_1x1_reduce
I0621 16:07:13.862581 18569 net.cpp:397] conv3_1_1x1_reduce/bn -> conv3_1_1x1_reduce (in-place)
I0621 16:07:13.862830 18569 net.cpp:150] Setting up conv3_1_1x1_reduce/bn
I0621 16:07:13.862843 18569 net.cpp:157] Top shape: 5 128 119 119 (9063040)
I0621 16:07:13.862850 18569 net.cpp:165] Memory required for data: 2838270840
I0621 16:07:13.862860 18569 layer_factory.hpp:77] Creating layer conv3_1_1x1_reduce/relu
I0621 16:07:13.862874 18569 net.cpp:106] Creating Layer conv3_1_1x1_reduce/relu
I0621 16:07:13.862880 18569 net.cpp:454] conv3_1_1x1_reduce/relu <- conv3_1_1x1_reduce
I0621 16:07:13.862888 18569 net.cpp:397] conv3_1_1x1_reduce/relu -> conv3_1_1x1_reduce (in-place)
I0621 16:07:13.862900 18569 net.cpp:150] Setting up conv3_1_1x1_reduce/relu
I0621 16:07:13.862906 18569 net.cpp:157] Top shape: 5 128 119 119 (9063040)
I0621 16:07:13.862911 18569 net.cpp:165] Memory required for data: 2874523000
I0621 16:07:13.862917 18569 layer_factory.hpp:77] Creating layer conv3_1_3x3
I0621 16:07:13.862933 18569 net.cpp:106] Creating Layer conv3_1_3x3
I0621 16:07:13.862939 18569 net.cpp:454] conv3_1_3x3 <- conv3_1_1x1_reduce
I0621 16:07:13.862949 18569 net.cpp:411] conv3_1_3x3 -> conv3_1_3x3
I0621 16:07:13.867609 18569 net.cpp:150] Setting up conv3_1_3x3
I0621 16:07:13.867640 18569 net.cpp:157] Top shape: 5 128 60 60 (2304000)
I0621 16:07:13.867645 18569 net.cpp:165] Memory required for data: 2883739000
I0621 16:07:13.867651 18569 layer_factory.hpp:77] Creating layer conv3_1_3x3/bn
I0621 16:07:13.867660 18569 net.cpp:106] Creating Layer conv3_1_3x3/bn
I0621 16:07:13.867666 18569 net.cpp:454] conv3_1_3x3/bn <- conv3_1_3x3
I0621 16:07:13.867684 18569 net.cpp:397] conv3_1_3x3/bn -> conv3_1_3x3 (in-place)
I0621 16:07:13.867825 18569 net.cpp:150] Setting up conv3_1_3x3/bn
I0621 16:07:13.867830 18569 net.cpp:157] Top shape: 5 128 60 60 (2304000)
I0621 16:07:13.867833 18569 net.cpp:165] Memory required for data: 2892955000
I0621 16:07:13.867838 18569 layer_factory.hpp:77] Creating layer conv3_1_3x3/relu
I0621 16:07:13.867844 18569 net.cpp:106] Creating Layer conv3_1_3x3/relu
I0621 16:07:13.867847 18569 net.cpp:454] conv3_1_3x3/relu <- conv3_1_3x3
I0621 16:07:13.867851 18569 net.cpp:397] conv3_1_3x3/relu -> conv3_1_3x3 (in-place)
I0621 16:07:13.867857 18569 net.cpp:150] Setting up conv3_1_3x3/relu
I0621 16:07:13.867861 18569 net.cpp:157] Top shape: 5 128 60 60 (2304000)
I0621 16:07:13.867863 18569 net.cpp:165] Memory required for data: 2902171000
I0621 16:07:13.867866 18569 layer_factory.hpp:77] Creating layer conv3_1_1x1_increase
I0621 16:07:13.867872 18569 net.cpp:106] Creating Layer conv3_1_1x1_increase
I0621 16:07:13.867874 18569 net.cpp:454] conv3_1_1x1_increase <- conv3_1_3x3
I0621 16:07:13.867879 18569 net.cpp:411] conv3_1_1x1_increase -> conv3_1_1x1_increase
I0621 16:07:13.869741 18569 net.cpp:150] Setting up conv3_1_1x1_increase
I0621 16:07:13.869791 18569 net.cpp:157] Top shape: 5 512 60 60 (9216000)
I0621 16:07:13.869796 18569 net.cpp:165] Memory required for data: 2939035000
I0621 16:07:13.869807 18569 layer_factory.hpp:77] Creating layer conv3_1_1x1_increase/bn
I0621 16:07:13.869818 18569 net.cpp:106] Creating Layer conv3_1_1x1_increase/bn
I0621 16:07:13.869823 18569 net.cpp:454] conv3_1_1x1_increase/bn <- conv3_1_1x1_increase
I0621 16:07:13.869828 18569 net.cpp:397] conv3_1_1x1_increase/bn -> conv3_1_1x1_increase (in-place)
I0621 16:07:13.871404 18569 net.cpp:150] Setting up conv3_1_1x1_increase/bn
I0621 16:07:13.871454 18569 net.cpp:157] Top shape: 5 512 60 60 (9216000)
I0621 16:07:13.871459 18569 net.cpp:165] Memory required for data: 2975899000
I0621 16:07:13.871472 18569 layer_factory.hpp:77] Creating layer conv3_1_1x1_proj
I0621 16:07:13.871491 18569 net.cpp:106] Creating Layer conv3_1_1x1_proj
I0621 16:07:13.871500 18569 net.cpp:454] conv3_1_1x1_proj <- conv2_3_conv2_3/relu_0_split_1
I0621 16:07:13.871510 18569 net.cpp:411] conv3_1_1x1_proj -> conv3_1_1x1_proj
I0621 16:07:13.875455 18569 net.cpp:150] Setting up conv3_1_1x1_proj
I0621 16:07:13.875473 18569 net.cpp:157] Top shape: 5 512 60 60 (9216000)
I0621 16:07:13.875478 18569 net.cpp:165] Memory required for data: 3012763000
I0621 16:07:13.875485 18569 layer_factory.hpp:77] Creating layer conv3_1_1x1_proj/bn
I0621 16:07:13.875502 18569 net.cpp:106] Creating Layer conv3_1_1x1_proj/bn
I0621 16:07:13.875509 18569 net.cpp:454] conv3_1_1x1_proj/bn <- conv3_1_1x1_proj
I0621 16:07:13.875519 18569 net.cpp:397] conv3_1_1x1_proj/bn -> conv3_1_1x1_proj (in-place)
I0621 16:07:13.875705 18569 net.cpp:150] Setting up conv3_1_1x1_proj/bn
I0621 16:07:13.875713 18569 net.cpp:157] Top shape: 5 512 60 60 (9216000)
I0621 16:07:13.875716 18569 net.cpp:165] Memory required for data: 3049627000
I0621 16:07:13.875725 18569 layer_factory.hpp:77] Creating layer conv3_1
I0621 16:07:13.875730 18569 net.cpp:106] Creating Layer conv3_1
I0621 16:07:13.875733 18569 net.cpp:454] conv3_1 <- conv3_1_1x1_proj
I0621 16:07:13.875738 18569 net.cpp:454] conv3_1 <- conv3_1_1x1_increase
I0621 16:07:13.875746 18569 net.cpp:411] conv3_1 -> conv3_1
I0621 16:07:13.875775 18569 net.cpp:150] Setting up conv3_1
I0621 16:07:13.875782 18569 net.cpp:157] Top shape: 5 512 60 60 (9216000)
I0621 16:07:13.875784 18569 net.cpp:165] Memory required for data: 3086491000
I0621 16:07:13.875789 18569 layer_factory.hpp:77] Creating layer conv3_1/relu
I0621 16:07:13.875795 18569 net.cpp:106] Creating Layer conv3_1/relu
I0621 16:07:13.875798 18569 net.cpp:454] conv3_1/relu <- conv3_1
I0621 16:07:13.875805 18569 net.cpp:397] conv3_1/relu -> conv3_1 (in-place)
I0621 16:07:13.875811 18569 net.cpp:150] Setting up conv3_1/relu
I0621 16:07:13.875815 18569 net.cpp:157] Top shape: 5 512 60 60 (9216000)
I0621 16:07:13.875818 18569 net.cpp:165] Memory required for data: 3123355000
I0621 16:07:13.875821 18569 layer_factory.hpp:77] Creating layer conv3_1_conv3_1/relu_0_split
I0621 16:07:13.875828 18569 net.cpp:106] Creating Layer conv3_1_conv3_1/relu_0_split
I0621 16:07:13.875830 18569 net.cpp:454] conv3_1_conv3_1/relu_0_split <- conv3_1
I0621 16:07:13.875835 18569 net.cpp:411] conv3_1_conv3_1/relu_0_split -> conv3_1_conv3_1/relu_0_split_0
I0621 16:07:13.875840 18569 net.cpp:411] conv3_1_conv3_1/relu_0_split -> conv3_1_conv3_1/relu_0_split_1
I0621 16:07:13.875869 18569 net.cpp:150] Setting up conv3_1_conv3_1/relu_0_split
I0621 16:07:13.875875 18569 net.cpp:157] Top shape: 5 512 60 60 (9216000)
I0621 16:07:13.875880 18569 net.cpp:157] Top shape: 5 512 60 60 (9216000)
I0621 16:07:13.875883 18569 net.cpp:165] Memory required for data: 3197083000
I0621 16:07:13.875886 18569 layer_factory.hpp:77] Creating layer conv3_2_1x1_reduce
I0621 16:07:13.875892 18569 net.cpp:106] Creating Layer conv3_2_1x1_reduce
I0621 16:07:13.875896 18569 net.cpp:454] conv3_2_1x1_reduce <- conv3_1_conv3_1/relu_0_split_0
I0621 16:07:13.875903 18569 net.cpp:411] conv3_2_1x1_reduce -> conv3_2_1x1_reduce
I0621 16:07:13.877915 18569 net.cpp:150] Setting up conv3_2_1x1_reduce
I0621 16:07:13.877923 18569 net.cpp:157] Top shape: 5 128 60 60 (2304000)
I0621 16:07:13.877940 18569 net.cpp:165] Memory required for data: 3206299000
I0621 16:07:13.877946 18569 layer_factory.hpp:77] Creating layer conv3_2_1x1_reduce/bn
I0621 16:07:13.877954 18569 net.cpp:106] Creating Layer conv3_2_1x1_reduce/bn
I0621 16:07:13.877957 18569 net.cpp:454] conv3_2_1x1_reduce/bn <- conv3_2_1x1_reduce
I0621 16:07:13.877962 18569 net.cpp:397] conv3_2_1x1_reduce/bn -> conv3_2_1x1_reduce (in-place)
I0621 16:07:13.878125 18569 net.cpp:150] Setting up conv3_2_1x1_reduce/bn
I0621 16:07:13.878131 18569 net.cpp:157] Top shape: 5 128 60 60 (2304000)
I0621 16:07:13.878135 18569 net.cpp:165] Memory required for data: 3215515000
I0621 16:07:13.878144 18569 layer_factory.hpp:77] Creating layer conv3_2_1x1_reduce/relu
I0621 16:07:13.878149 18569 net.cpp:106] Creating Layer conv3_2_1x1_reduce/relu
I0621 16:07:13.878151 18569 net.cpp:454] conv3_2_1x1_reduce/relu <- conv3_2_1x1_reduce
I0621 16:07:13.878155 18569 net.cpp:397] conv3_2_1x1_reduce/relu -> conv3_2_1x1_reduce (in-place)
I0621 16:07:13.878160 18569 net.cpp:150] Setting up conv3_2_1x1_reduce/relu
I0621 16:07:13.878165 18569 net.cpp:157] Top shape: 5 128 60 60 (2304000)
I0621 16:07:13.878168 18569 net.cpp:165] Memory required for data: 3224731000
I0621 16:07:13.878171 18569 layer_factory.hpp:77] Creating layer conv3_2_3x3
I0621 16:07:13.878180 18569 net.cpp:106] Creating Layer conv3_2_3x3
I0621 16:07:13.878183 18569 net.cpp:454] conv3_2_3x3 <- conv3_2_1x1_reduce
I0621 16:07:13.878190 18569 net.cpp:411] conv3_2_3x3 -> conv3_2_3x3
I0621 16:07:13.882357 18569 net.cpp:150] Setting up conv3_2_3x3
I0621 16:07:13.882428 18569 net.cpp:157] Top shape: 5 128 60 60 (2304000)
I0621 16:07:13.882437 18569 net.cpp:165] Memory required for data: 3233947000
I0621 16:07:13.882457 18569 layer_factory.hpp:77] Creating layer conv3_2_3x3/bn
I0621 16:07:13.882493 18569 net.cpp:106] Creating Layer conv3_2_3x3/bn
I0621 16:07:13.882499 18569 net.cpp:454] conv3_2_3x3/bn <- conv3_2_3x3
I0621 16:07:13.882508 18569 net.cpp:397] conv3_2_3x3/bn -> conv3_2_3x3 (in-place)
I0621 16:07:13.882722 18569 net.cpp:150] Setting up conv3_2_3x3/bn
I0621 16:07:13.882733 18569 net.cpp:157] Top shape: 5 128 60 60 (2304000)
I0621 16:07:13.882737 18569 net.cpp:165] Memory required for data: 3243163000
I0621 16:07:13.882746 18569 layer_factory.hpp:77] Creating layer conv3_2_3x3/relu
I0621 16:07:13.882755 18569 net.cpp:106] Creating Layer conv3_2_3x3/relu
I0621 16:07:13.882758 18569 net.cpp:454] conv3_2_3x3/relu <- conv3_2_3x3
I0621 16:07:13.882763 18569 net.cpp:397] conv3_2_3x3/relu -> conv3_2_3x3 (in-place)
I0621 16:07:13.882771 18569 net.cpp:150] Setting up conv3_2_3x3/relu
I0621 16:07:13.882776 18569 net.cpp:157] Top shape: 5 128 60 60 (2304000)
I0621 16:07:13.882778 18569 net.cpp:165] Memory required for data: 3252379000
I0621 16:07:13.882782 18569 layer_factory.hpp:77] Creating layer conv3_2_1x1_increase
I0621 16:07:13.882791 18569 net.cpp:106] Creating Layer conv3_2_1x1_increase
I0621 16:07:13.882796 18569 net.cpp:454] conv3_2_1x1_increase <- conv3_2_3x3
I0621 16:07:13.882812 18569 net.cpp:411] conv3_2_1x1_increase -> conv3_2_1x1_increase
I0621 16:07:13.885941 18569 net.cpp:150] Setting up conv3_2_1x1_increase
I0621 16:07:13.885957 18569 net.cpp:157] Top shape: 5 512 60 60 (9216000)
I0621 16:07:13.885960 18569 net.cpp:165] Memory required for data: 3289243000
I0621 16:07:13.885967 18569 layer_factory.hpp:77] Creating layer conv3_2_1x1_increase/bn
I0621 16:07:13.885975 18569 net.cpp:106] Creating Layer conv3_2_1x1_increase/bn
I0621 16:07:13.885979 18569 net.cpp:454] conv3_2_1x1_increase/bn <- conv3_2_1x1_increase
I0621 16:07:13.885985 18569 net.cpp:397] conv3_2_1x1_increase/bn -> conv3_2_1x1_increase (in-place)
I0621 16:07:13.886123 18569 net.cpp:150] Setting up conv3_2_1x1_increase/bn
I0621 16:07:13.886128 18569 net.cpp:157] Top shape: 5 512 60 60 (9216000)
I0621 16:07:13.886132 18569 net.cpp:165] Memory required for data: 3326107000
I0621 16:07:13.886137 18569 layer_factory.hpp:77] Creating layer conv3_2
I0621 16:07:13.886143 18569 net.cpp:106] Creating Layer conv3_2
I0621 16:07:13.886158 18569 net.cpp:454] conv3_2 <- conv3_1_conv3_1/relu_0_split_1
I0621 16:07:13.886162 18569 net.cpp:454] conv3_2 <- conv3_2_1x1_increase
I0621 16:07:13.886165 18569 net.cpp:411] conv3_2 -> conv3_2
I0621 16:07:13.886186 18569 net.cpp:150] Setting up conv3_2
I0621 16:07:13.886190 18569 net.cpp:157] Top shape: 5 512 60 60 (9216000)
I0621 16:07:13.886193 18569 net.cpp:165] Memory required for data: 3362971000
I0621 16:07:13.891084 18569 layer_factory.hpp:77] Creating layer conv3_2/relu
I0621 16:07:13.891109 18569 net.cpp:106] Creating Layer conv3_2/relu
I0621 16:07:13.891115 18569 net.cpp:454] conv3_2/relu <- conv3_2
I0621 16:07:13.891129 18569 net.cpp:397] conv3_2/relu -> conv3_2 (in-place)
I0621 16:07:13.891140 18569 net.cpp:150] Setting up conv3_2/relu
I0621 16:07:13.891150 18569 net.cpp:157] Top shape: 5 512 60 60 (9216000)
I0621 16:07:13.891154 18569 net.cpp:165] Memory required for data: 3399835000
I0621 16:07:13.891156 18569 layer_factory.hpp:77] Creating layer conv3_2_conv3_2/relu_0_split
I0621 16:07:13.891163 18569 net.cpp:106] Creating Layer conv3_2_conv3_2/relu_0_split
I0621 16:07:13.891165 18569 net.cpp:454] conv3_2_conv3_2/relu_0_split <- conv3_2
I0621 16:07:13.891170 18569 net.cpp:411] conv3_2_conv3_2/relu_0_split -> conv3_2_conv3_2/relu_0_split_0
I0621 16:07:13.891175 18569 net.cpp:411] conv3_2_conv3_2/relu_0_split -> conv3_2_conv3_2/relu_0_split_1
I0621 16:07:13.891253 18569 net.cpp:150] Setting up conv3_2_conv3_2/relu_0_split
I0621 16:07:13.891259 18569 net.cpp:157] Top shape: 5 512 60 60 (9216000)
I0621 16:07:13.891263 18569 net.cpp:157] Top shape: 5 512 60 60 (9216000)
I0621 16:07:13.891265 18569 net.cpp:165] Memory required for data: 3473563000
I0621 16:07:13.891268 18569 layer_factory.hpp:77] Creating layer conv3_3_1x1_reduce
I0621 16:07:13.891276 18569 net.cpp:106] Creating Layer conv3_3_1x1_reduce
I0621 16:07:13.891279 18569 net.cpp:454] conv3_3_1x1_reduce <- conv3_2_conv3_2/relu_0_split_0
I0621 16:07:13.891285 18569 net.cpp:411] conv3_3_1x1_reduce -> conv3_3_1x1_reduce
I0621 16:07:13.893008 18569 net.cpp:150] Setting up conv3_3_1x1_reduce
I0621 16:07:13.893018 18569 net.cpp:157] Top shape: 5 128 60 60 (2304000)
I0621 16:07:13.893021 18569 net.cpp:165] Memory required for data: 3482779000
I0621 16:07:13.893025 18569 layer_factory.hpp:77] Creating layer conv3_3_1x1_reduce/bn
I0621 16:07:13.893033 18569 net.cpp:106] Creating Layer conv3_3_1x1_reduce/bn
I0621 16:07:13.893036 18569 net.cpp:454] conv3_3_1x1_reduce/bn <- conv3_3_1x1_reduce
I0621 16:07:13.893040 18569 net.cpp:397] conv3_3_1x1_reduce/bn -> conv3_3_1x1_reduce (in-place)
I0621 16:07:13.893168 18569 net.cpp:150] Setting up conv3_3_1x1_reduce/bn
I0621 16:07:13.893173 18569 net.cpp:157] Top shape: 5 128 60 60 (2304000)
I0621 16:07:13.893177 18569 net.cpp:165] Memory required for data: 3491995000
I0621 16:07:13.893182 18569 layer_factory.hpp:77] Creating layer conv3_3_1x1_reduce/relu
I0621 16:07:13.893185 18569 net.cpp:106] Creating Layer conv3_3_1x1_reduce/relu
I0621 16:07:13.893188 18569 net.cpp:454] conv3_3_1x1_reduce/relu <- conv3_3_1x1_reduce
I0621 16:07:13.893191 18569 net.cpp:397] conv3_3_1x1_reduce/relu -> conv3_3_1x1_reduce (in-place)
I0621 16:07:13.893195 18569 net.cpp:150] Setting up conv3_3_1x1_reduce/relu
I0621 16:07:13.893198 18569 net.cpp:157] Top shape: 5 128 60 60 (2304000)
I0621 16:07:13.893201 18569 net.cpp:165] Memory required for data: 3501211000
I0621 16:07:13.893204 18569 layer_factory.hpp:77] Creating layer conv3_3_3x3
I0621 16:07:13.893213 18569 net.cpp:106] Creating Layer conv3_3_3x3
I0621 16:07:13.893214 18569 net.cpp:454] conv3_3_3x3 <- conv3_3_1x1_reduce
I0621 16:07:13.893219 18569 net.cpp:411] conv3_3_3x3 -> conv3_3_3x3
I0621 16:07:13.902818 18569 net.cpp:150] Setting up conv3_3_3x3
I0621 16:07:13.902861 18569 net.cpp:157] Top shape: 5 128 60 60 (2304000)
I0621 16:07:13.902865 18569 net.cpp:165] Memory required for data: 3510427000
I0621 16:07:13.902874 18569 layer_factory.hpp:77] Creating layer conv3_3_3x3/bn
I0621 16:07:13.902889 18569 net.cpp:106] Creating Layer conv3_3_3x3/bn
I0621 16:07:13.902921 18569 net.cpp:454] conv3_3_3x3/bn <- conv3_3_3x3
I0621 16:07:13.902926 18569 net.cpp:397] conv3_3_3x3/bn -> conv3_3_3x3 (in-place)
I0621 16:07:13.904367 18569 net.cpp:150] Setting up conv3_3_3x3/bn
I0621 16:07:13.904377 18569 net.cpp:157] Top shape: 5 128 60 60 (2304000)
I0621 16:07:13.904381 18569 net.cpp:165] Memory required for data: 3519643000
I0621 16:07:13.904387 18569 layer_factory.hpp:77] Creating layer conv3_3_3x3/relu
I0621 16:07:13.904393 18569 net.cpp:106] Creating Layer conv3_3_3x3/relu
I0621 16:07:13.904397 18569 net.cpp:454] conv3_3_3x3/relu <- conv3_3_3x3
I0621 16:07:13.904400 18569 net.cpp:397] conv3_3_3x3/relu -> conv3_3_3x3 (in-place)
I0621 16:07:13.904407 18569 net.cpp:150] Setting up conv3_3_3x3/relu
I0621 16:07:13.904409 18569 net.cpp:157] Top shape: 5 128 60 60 (2304000)
I0621 16:07:13.904412 18569 net.cpp:165] Memory required for data: 3528859000
I0621 16:07:13.904414 18569 layer_factory.hpp:77] Creating layer conv3_3_1x1_increase
I0621 16:07:13.904422 18569 net.cpp:106] Creating Layer conv3_3_1x1_increase
I0621 16:07:13.904424 18569 net.cpp:454] conv3_3_1x1_increase <- conv3_3_3x3
I0621 16:07:13.904428 18569 net.cpp:411] conv3_3_1x1_increase -> conv3_3_1x1_increase
I0621 16:07:13.905944 18569 net.cpp:150] Setting up conv3_3_1x1_increase
I0621 16:07:13.905949 18569 net.cpp:157] Top shape: 5 512 60 60 (9216000)
I0621 16:07:13.905952 18569 net.cpp:165] Memory required for data: 3565723000
I0621 16:07:13.905956 18569 layer_factory.hpp:77] Creating layer conv3_3_1x1_increase/bn
I0621 16:07:13.905961 18569 net.cpp:106] Creating Layer conv3_3_1x1_increase/bn
I0621 16:07:13.905963 18569 net.cpp:454] conv3_3_1x1_increase/bn <- conv3_3_1x1_increase
I0621 16:07:13.905967 18569 net.cpp:397] conv3_3_1x1_increase/bn -> conv3_3_1x1_increase (in-place)
I0621 16:07:13.906090 18569 net.cpp:150] Setting up conv3_3_1x1_increase/bn
I0621 16:07:13.906095 18569 net.cpp:157] Top shape: 5 512 60 60 (9216000)
I0621 16:07:13.906097 18569 net.cpp:165] Memory required for data: 3602587000
I0621 16:07:13.906102 18569 layer_factory.hpp:77] Creating layer conv3_3
I0621 16:07:13.906107 18569 net.cpp:106] Creating Layer conv3_3
I0621 16:07:13.906111 18569 net.cpp:454] conv3_3 <- conv3_2_conv3_2/relu_0_split_1
I0621 16:07:13.906113 18569 net.cpp:454] conv3_3 <- conv3_3_1x1_increase
I0621 16:07:13.906117 18569 net.cpp:411] conv3_3 -> conv3_3
I0621 16:07:13.906133 18569 net.cpp:150] Setting up conv3_3
I0621 16:07:13.906138 18569 net.cpp:157] Top shape: 5 512 60 60 (9216000)
I0621 16:07:13.906141 18569 net.cpp:165] Memory required for data: 3639451000
I0621 16:07:13.906143 18569 layer_factory.hpp:77] Creating layer conv3_3/relu
I0621 16:07:13.906147 18569 net.cpp:106] Creating Layer conv3_3/relu
I0621 16:07:13.906149 18569 net.cpp:454] conv3_3/relu <- conv3_3
I0621 16:07:13.906153 18569 net.cpp:397] conv3_3/relu -> conv3_3 (in-place)
I0621 16:07:13.906157 18569 net.cpp:150] Setting up conv3_3/relu
I0621 16:07:13.906160 18569 net.cpp:157] Top shape: 5 512 60 60 (9216000)
I0621 16:07:13.906162 18569 net.cpp:165] Memory required for data: 3676315000
I0621 16:07:13.906165 18569 layer_factory.hpp:77] Creating layer conv3_3_conv3_3/relu_0_split
I0621 16:07:13.906169 18569 net.cpp:106] Creating Layer conv3_3_conv3_3/relu_0_split
I0621 16:07:13.906172 18569 net.cpp:454] conv3_3_conv3_3/relu_0_split <- conv3_3
I0621 16:07:13.906175 18569 net.cpp:411] conv3_3_conv3_3/relu_0_split -> conv3_3_conv3_3/relu_0_split_0
I0621 16:07:13.906179 18569 net.cpp:411] conv3_3_conv3_3/relu_0_split -> conv3_3_conv3_3/relu_0_split_1
I0621 16:07:13.906200 18569 net.cpp:150] Setting up conv3_3_conv3_3/relu_0_split
I0621 16:07:13.906204 18569 net.cpp:157] Top shape: 5 512 60 60 (9216000)
I0621 16:07:13.906208 18569 net.cpp:157] Top shape: 5 512 60 60 (9216000)
I0621 16:07:13.906210 18569 net.cpp:165] Memory required for data: 3750043000
I0621 16:07:13.906213 18569 layer_factory.hpp:77] Creating layer conv3_4_1x1_reduce
I0621 16:07:13.906219 18569 net.cpp:106] Creating Layer conv3_4_1x1_reduce
I0621 16:07:13.906222 18569 net.cpp:454] conv3_4_1x1_reduce <- conv3_3_conv3_3/relu_0_split_0
I0621 16:07:13.906232 18569 net.cpp:411] conv3_4_1x1_reduce -> conv3_4_1x1_reduce
I0621 16:07:13.907739 18569 net.cpp:150] Setting up conv3_4_1x1_reduce
I0621 16:07:13.907752 18569 net.cpp:157] Top shape: 5 128 60 60 (2304000)
I0621 16:07:13.907753 18569 net.cpp:165] Memory required for data: 3759259000
I0621 16:07:13.907759 18569 layer_factory.hpp:77] Creating layer conv3_4_1x1_reduce/bn
I0621 16:07:13.907768 18569 net.cpp:106] Creating Layer conv3_4_1x1_reduce/bn
I0621 16:07:13.907773 18569 net.cpp:454] conv3_4_1x1_reduce/bn <- conv3_4_1x1_reduce
I0621 16:07:13.907781 18569 net.cpp:397] conv3_4_1x1_reduce/bn -> conv3_4_1x1_reduce (in-place)
I0621 16:07:13.907943 18569 net.cpp:150] Setting up conv3_4_1x1_reduce/bn
I0621 16:07:13.907949 18569 net.cpp:157] Top shape: 5 128 60 60 (2304000)
I0621 16:07:13.907951 18569 net.cpp:165] Memory required for data: 3768475000
I0621 16:07:13.907958 18569 layer_factory.hpp:77] Creating layer conv3_4_1x1_reduce/relu
I0621 16:07:13.907964 18569 net.cpp:106] Creating Layer conv3_4_1x1_reduce/relu
I0621 16:07:13.907968 18569 net.cpp:454] conv3_4_1x1_reduce/relu <- conv3_4_1x1_reduce
I0621 16:07:13.907973 18569 net.cpp:397] conv3_4_1x1_reduce/relu -> conv3_4_1x1_reduce (in-place)
I0621 16:07:13.907977 18569 net.cpp:150] Setting up conv3_4_1x1_reduce/relu
I0621 16:07:13.907980 18569 net.cpp:157] Top shape: 5 128 60 60 (2304000)
I0621 16:07:13.907984 18569 net.cpp:165] Memory required for data: 3777691000
I0621 16:07:13.907985 18569 layer_factory.hpp:77] Creating layer conv3_4_3x3
I0621 16:07:13.907992 18569 net.cpp:106] Creating Layer conv3_4_3x3
I0621 16:07:13.907994 18569 net.cpp:454] conv3_4_3x3 <- conv3_4_1x1_reduce
I0621 16:07:13.907999 18569 net.cpp:411] conv3_4_3x3 -> conv3_4_3x3
I0621 16:07:13.911275 18569 net.cpp:150] Setting up conv3_4_3x3
I0621 16:07:13.911285 18569 net.cpp:157] Top shape: 5 128 60 60 (2304000)
I0621 16:07:13.911288 18569 net.cpp:165] Memory required for data: 3786907000
I0621 16:07:13.911293 18569 layer_factory.hpp:77] Creating layer conv3_4_3x3/bn
I0621 16:07:13.911298 18569 net.cpp:106] Creating Layer conv3_4_3x3/bn
I0621 16:07:13.911303 18569 net.cpp:454] conv3_4_3x3/bn <- conv3_4_3x3
I0621 16:07:13.911306 18569 net.cpp:397] conv3_4_3x3/bn -> conv3_4_3x3 (in-place)
I0621 16:07:13.911429 18569 net.cpp:150] Setting up conv3_4_3x3/bn
I0621 16:07:13.911433 18569 net.cpp:157] Top shape: 5 128 60 60 (2304000)
I0621 16:07:13.911437 18569 net.cpp:165] Memory required for data: 3796123000
I0621 16:07:13.911442 18569 layer_factory.hpp:77] Creating layer conv3_4_3x3/relu
I0621 16:07:13.911445 18569 net.cpp:106] Creating Layer conv3_4_3x3/relu
I0621 16:07:13.911448 18569 net.cpp:454] conv3_4_3x3/relu <- conv3_4_3x3
I0621 16:07:13.911451 18569 net.cpp:397] conv3_4_3x3/relu -> conv3_4_3x3 (in-place)
I0621 16:07:13.911455 18569 net.cpp:150] Setting up conv3_4_3x3/relu
I0621 16:07:13.911458 18569 net.cpp:157] Top shape: 5 128 60 60 (2304000)
I0621 16:07:13.911460 18569 net.cpp:165] Memory required for data: 3805339000
I0621 16:07:13.911463 18569 layer_factory.hpp:77] Creating layer conv3_4_1x1_increase
I0621 16:07:13.911469 18569 net.cpp:106] Creating Layer conv3_4_1x1_increase
I0621 16:07:13.911471 18569 net.cpp:454] conv3_4_1x1_increase <- conv3_4_3x3
I0621 16:07:13.911475 18569 net.cpp:411] conv3_4_1x1_increase -> conv3_4_1x1_increase
I0621 16:07:13.913033 18569 net.cpp:150] Setting up conv3_4_1x1_increase
I0621 16:07:13.913049 18569 net.cpp:157] Top shape: 5 512 60 60 (9216000)
I0621 16:07:13.913056 18569 net.cpp:165] Memory required for data: 3842203000
I0621 16:07:13.913065 18569 layer_factory.hpp:77] Creating layer conv3_4_1x1_increase/bn
I0621 16:07:13.913072 18569 net.cpp:106] Creating Layer conv3_4_1x1_increase/bn
I0621 16:07:13.913077 18569 net.cpp:454] conv3_4_1x1_increase/bn <- conv3_4_1x1_increase
I0621 16:07:13.913084 18569 net.cpp:397] conv3_4_1x1_increase/bn -> conv3_4_1x1_increase (in-place)
I0621 16:07:13.913269 18569 net.cpp:150] Setting up conv3_4_1x1_increase/bn
I0621 16:07:13.913276 18569 net.cpp:157] Top shape: 5 512 60 60 (9216000)
I0621 16:07:13.913297 18569 net.cpp:165] Memory required for data: 3879067000
I0621 16:07:13.913333 18569 layer_factory.hpp:77] Creating layer conv3_4
I0621 16:07:13.913341 18569 net.cpp:106] Creating Layer conv3_4
I0621 16:07:13.913347 18569 net.cpp:454] conv3_4 <- conv3_3_conv3_3/relu_0_split_1
I0621 16:07:13.913352 18569 net.cpp:454] conv3_4 <- conv3_4_1x1_increase
I0621 16:07:13.913357 18569 net.cpp:411] conv3_4 -> conv3_4
I0621 16:07:13.913385 18569 net.cpp:150] Setting up conv3_4
I0621 16:07:13.913391 18569 net.cpp:157] Top shape: 5 512 60 60 (9216000)
I0621 16:07:13.913395 18569 net.cpp:165] Memory required for data: 3915931000
I0621 16:07:13.913399 18569 layer_factory.hpp:77] Creating layer conv3_4/relu
I0621 16:07:13.913406 18569 net.cpp:106] Creating Layer conv3_4/relu
I0621 16:07:13.913410 18569 net.cpp:454] conv3_4/relu <- conv3_4
I0621 16:07:13.913419 18569 net.cpp:397] conv3_4/relu -> conv3_4 (in-place)
I0621 16:07:13.913425 18569 net.cpp:150] Setting up conv3_4/relu
I0621 16:07:13.913430 18569 net.cpp:157] Top shape: 5 512 60 60 (9216000)
I0621 16:07:13.913434 18569 net.cpp:165] Memory required for data: 3952795000
I0621 16:07:13.913439 18569 layer_factory.hpp:77] Creating layer conv3_4_conv3_4/relu_0_split
I0621 16:07:13.913445 18569 net.cpp:106] Creating Layer conv3_4_conv3_4/relu_0_split
I0621 16:07:13.913450 18569 net.cpp:454] conv3_4_conv3_4/relu_0_split <- conv3_4
I0621 16:07:13.913455 18569 net.cpp:411] conv3_4_conv3_4/relu_0_split -> conv3_4_conv3_4/relu_0_split_0
I0621 16:07:13.913460 18569 net.cpp:411] conv3_4_conv3_4/relu_0_split -> conv3_4_conv3_4/relu_0_split_1
I0621 16:07:13.913494 18569 net.cpp:150] Setting up conv3_4_conv3_4/relu_0_split
I0621 16:07:13.913501 18569 net.cpp:157] Top shape: 5 512 60 60 (9216000)
I0621 16:07:13.913506 18569 net.cpp:157] Top shape: 5 512 60 60 (9216000)
I0621 16:07:13.913509 18569 net.cpp:165] Memory required for data: 4026523000
I0621 16:07:13.913513 18569 layer_factory.hpp:77] Creating layer conv4_1_1x1_reduce
I0621 16:07:13.913523 18569 net.cpp:106] Creating Layer conv4_1_1x1_reduce
I0621 16:07:13.913528 18569 net.cpp:454] conv4_1_1x1_reduce <- conv3_4_conv3_4/relu_0_split_0
I0621 16:07:13.913535 18569 net.cpp:411] conv4_1_1x1_reduce -> conv4_1_1x1_reduce
I0621 16:07:13.918128 18569 net.cpp:150] Setting up conv4_1_1x1_reduce
I0621 16:07:13.918220 18569 net.cpp:157] Top shape: 5 256 60 60 (4608000)
I0621 16:07:13.918227 18569 net.cpp:165] Memory required for data: 4044955000
I0621 16:07:13.918246 18569 layer_factory.hpp:77] Creating layer conv4_1_1x1_reduce/bn
I0621 16:07:13.918280 18569 net.cpp:106] Creating Layer conv4_1_1x1_reduce/bn
I0621 16:07:13.918290 18569 net.cpp:454] conv4_1_1x1_reduce/bn <- conv4_1_1x1_reduce
I0621 16:07:13.918308 18569 net.cpp:397] conv4_1_1x1_reduce/bn -> conv4_1_1x1_reduce (in-place)
I0621 16:07:13.918597 18569 net.cpp:150] Setting up conv4_1_1x1_reduce/bn
I0621 16:07:13.918606 18569 net.cpp:157] Top shape: 5 256 60 60 (4608000)
I0621 16:07:13.918611 18569 net.cpp:165] Memory required for data: 4063387000
I0621 16:07:13.918620 18569 layer_factory.hpp:77] Creating layer conv4_1_1x1_reduce/relu
I0621 16:07:13.918633 18569 net.cpp:106] Creating Layer conv4_1_1x1_reduce/relu
I0621 16:07:13.918638 18569 net.cpp:454] conv4_1_1x1_reduce/relu <- conv4_1_1x1_reduce
I0621 16:07:13.918648 18569 net.cpp:397] conv4_1_1x1_reduce/relu -> conv4_1_1x1_reduce (in-place)
I0621 16:07:13.918656 18569 net.cpp:150] Setting up conv4_1_1x1_reduce/relu
I0621 16:07:13.918663 18569 net.cpp:157] Top shape: 5 256 60 60 (4608000)
I0621 16:07:13.918666 18569 net.cpp:165] Memory required for data: 4081819000
I0621 16:07:13.918670 18569 layer_factory.hpp:77] Creating layer conv4_1_3x3
I0621 16:07:13.918689 18569 net.cpp:106] Creating Layer conv4_1_3x3
I0621 16:07:13.918694 18569 net.cpp:454] conv4_1_3x3 <- conv4_1_1x1_reduce
I0621 16:07:13.918702 18569 net.cpp:411] conv4_1_3x3 -> conv4_1_3x3
I0621 16:07:13.936558 18569 net.cpp:150] Setting up conv4_1_3x3
I0621 16:07:13.936583 18569 net.cpp:157] Top shape: 5 256 60 60 (4608000)
I0621 16:07:13.936600 18569 net.cpp:165] Memory required for data: 4100251000
I0621 16:07:13.936607 18569 layer_factory.hpp:77] Creating layer conv4_1_3x3/bn
I0621 16:07:13.936619 18569 net.cpp:106] Creating Layer conv4_1_3x3/bn
I0621 16:07:13.936622 18569 net.cpp:454] conv4_1_3x3/bn <- conv4_1_3x3
I0621 16:07:13.936627 18569 net.cpp:397] conv4_1_3x3/bn -> conv4_1_3x3 (in-place)
I0621 16:07:13.936774 18569 net.cpp:150] Setting up conv4_1_3x3/bn
I0621 16:07:13.936779 18569 net.cpp:157] Top shape: 5 256 60 60 (4608000)
I0621 16:07:13.936780 18569 net.cpp:165] Memory required for data: 4118683000
I0621 16:07:13.936786 18569 layer_factory.hpp:77] Creating layer conv4_1_3x3/relu
I0621 16:07:13.936791 18569 net.cpp:106] Creating Layer conv4_1_3x3/relu
I0621 16:07:13.936794 18569 net.cpp:454] conv4_1_3x3/relu <- conv4_1_3x3
I0621 16:07:13.936797 18569 net.cpp:397] conv4_1_3x3/relu -> conv4_1_3x3 (in-place)
I0621 16:07:13.936802 18569 net.cpp:150] Setting up conv4_1_3x3/relu
I0621 16:07:13.936805 18569 net.cpp:157] Top shape: 5 256 60 60 (4608000)
I0621 16:07:13.936807 18569 net.cpp:165] Memory required for data: 4137115000
I0621 16:07:13.936810 18569 layer_factory.hpp:77] Creating layer conv4_1_1x1_increase
I0621 16:07:13.936817 18569 net.cpp:106] Creating Layer conv4_1_1x1_increase
I0621 16:07:13.936820 18569 net.cpp:454] conv4_1_1x1_increase <- conv4_1_3x3
I0621 16:07:13.936825 18569 net.cpp:411] conv4_1_1x1_increase -> conv4_1_1x1_increase
I0621 16:07:13.943330 18569 net.cpp:150] Setting up conv4_1_1x1_increase
I0621 16:07:13.943367 18569 net.cpp:157] Top shape: 5 1024 60 60 (18432000)
I0621 16:07:13.943370 18569 net.cpp:165] Memory required for data: 4210843000
I0621 16:07:13.943377 18569 layer_factory.hpp:77] Creating layer conv4_1_1x1_increase/bn
I0621 16:07:13.943388 18569 net.cpp:106] Creating Layer conv4_1_1x1_increase/bn
I0621 16:07:13.943393 18569 net.cpp:454] conv4_1_1x1_increase/bn <- conv4_1_1x1_increase
I0621 16:07:13.943398 18569 net.cpp:397] conv4_1_1x1_increase/bn -> conv4_1_1x1_increase (in-place)
I0621 16:07:13.943547 18569 net.cpp:150] Setting up conv4_1_1x1_increase/bn
I0621 16:07:13.943552 18569 net.cpp:157] Top shape: 5 1024 60 60 (18432000)
I0621 16:07:13.943555 18569 net.cpp:165] Memory required for data: 4284571000
I0621 16:07:13.943560 18569 layer_factory.hpp:77] Creating layer conv4_1_1x1_proj
I0621 16:07:13.943567 18569 net.cpp:106] Creating Layer conv4_1_1x1_proj
I0621 16:07:13.943572 18569 net.cpp:454] conv4_1_1x1_proj <- conv3_4_conv3_4/relu_0_split_1
I0621 16:07:13.943575 18569 net.cpp:411] conv4_1_1x1_proj -> conv4_1_1x1_proj
I0621 16:07:13.955642 18569 net.cpp:150] Setting up conv4_1_1x1_proj
I0621 16:07:13.955678 18569 net.cpp:157] Top shape: 5 1024 60 60 (18432000)
I0621 16:07:13.955682 18569 net.cpp:165] Memory required for data: 4358299000
I0621 16:07:13.955690 18569 layer_factory.hpp:77] Creating layer conv4_1_1x1_proj/bn
I0621 16:07:13.955700 18569 net.cpp:106] Creating Layer conv4_1_1x1_proj/bn
I0621 16:07:13.955705 18569 net.cpp:454] conv4_1_1x1_proj/bn <- conv4_1_1x1_proj
I0621 16:07:13.955710 18569 net.cpp:397] conv4_1_1x1_proj/bn -> conv4_1_1x1_proj (in-place)
I0621 16:07:13.955855 18569 net.cpp:150] Setting up conv4_1_1x1_proj/bn
I0621 16:07:13.955860 18569 net.cpp:157] Top shape: 5 1024 60 60 (18432000)
I0621 16:07:13.955863 18569 net.cpp:165] Memory required for data: 4432027000
I0621 16:07:13.955868 18569 layer_factory.hpp:77] Creating layer conv4_1
I0621 16:07:13.955873 18569 net.cpp:106] Creating Layer conv4_1
I0621 16:07:13.955876 18569 net.cpp:454] conv4_1 <- conv4_1_1x1_proj
I0621 16:07:13.955879 18569 net.cpp:454] conv4_1 <- conv4_1_1x1_increase
I0621 16:07:13.955883 18569 net.cpp:411] conv4_1 -> conv4_1
I0621 16:07:13.955901 18569 net.cpp:150] Setting up conv4_1
I0621 16:07:13.955905 18569 net.cpp:157] Top shape: 5 1024 60 60 (18432000)
I0621 16:07:13.955909 18569 net.cpp:165] Memory required for data: 4505755000
I0621 16:07:13.955911 18569 layer_factory.hpp:77] Creating layer conv4_1/relu
I0621 16:07:13.955916 18569 net.cpp:106] Creating Layer conv4_1/relu
I0621 16:07:13.955919 18569 net.cpp:454] conv4_1/relu <- conv4_1
I0621 16:07:13.955940 18569 net.cpp:397] conv4_1/relu -> conv4_1 (in-place)
I0621 16:07:13.955945 18569 net.cpp:150] Setting up conv4_1/relu
I0621 16:07:13.955948 18569 net.cpp:157] Top shape: 5 1024 60 60 (18432000)
I0621 16:07:13.955951 18569 net.cpp:165] Memory required for data: 4579483000
I0621 16:07:13.955955 18569 layer_factory.hpp:77] Creating layer conv4_1_conv4_1/relu_0_split
I0621 16:07:13.955958 18569 net.cpp:106] Creating Layer conv4_1_conv4_1/relu_0_split
I0621 16:07:13.955961 18569 net.cpp:454] conv4_1_conv4_1/relu_0_split <- conv4_1
I0621 16:07:13.955965 18569 net.cpp:411] conv4_1_conv4_1/relu_0_split -> conv4_1_conv4_1/relu_0_split_0
I0621 16:07:13.955971 18569 net.cpp:411] conv4_1_conv4_1/relu_0_split -> conv4_1_conv4_1/relu_0_split_1
I0621 16:07:13.955993 18569 net.cpp:150] Setting up conv4_1_conv4_1/relu_0_split
I0621 16:07:13.955997 18569 net.cpp:157] Top shape: 5 1024 60 60 (18432000)
I0621 16:07:13.956001 18569 net.cpp:157] Top shape: 5 1024 60 60 (18432000)
I0621 16:07:13.956003 18569 net.cpp:165] Memory required for data: 4726939000
I0621 16:07:13.956007 18569 layer_factory.hpp:77] Creating layer conv4_2_1x1_reduce
I0621 16:07:13.956017 18569 net.cpp:106] Creating Layer conv4_2_1x1_reduce
I0621 16:07:13.956022 18569 net.cpp:454] conv4_2_1x1_reduce <- conv4_1_conv4_1/relu_0_split_0
I0621 16:07:13.956027 18569 net.cpp:411] conv4_2_1x1_reduce -> conv4_2_1x1_reduce
I0621 16:07:13.962318 18569 net.cpp:150] Setting up conv4_2_1x1_reduce
I0621 16:07:13.962328 18569 net.cpp:157] Top shape: 5 256 60 60 (4608000)
I0621 16:07:13.962332 18569 net.cpp:165] Memory required for data: 4745371000
I0621 16:07:13.962337 18569 layer_factory.hpp:77] Creating layer conv4_2_1x1_reduce/bn
I0621 16:07:13.962342 18569 net.cpp:106] Creating Layer conv4_2_1x1_reduce/bn
I0621 16:07:13.962347 18569 net.cpp:454] conv4_2_1x1_reduce/bn <- conv4_2_1x1_reduce
I0621 16:07:13.962350 18569 net.cpp:397] conv4_2_1x1_reduce/bn -> conv4_2_1x1_reduce (in-place)
I0621 16:07:13.962486 18569 net.cpp:150] Setting up conv4_2_1x1_reduce/bn
I0621 16:07:13.962491 18569 net.cpp:157] Top shape: 5 256 60 60 (4608000)
I0621 16:07:13.962493 18569 net.cpp:165] Memory required for data: 4763803000
I0621 16:07:13.962499 18569 layer_factory.hpp:77] Creating layer conv4_2_1x1_reduce/relu
I0621 16:07:13.962504 18569 net.cpp:106] Creating Layer conv4_2_1x1_reduce/relu
I0621 16:07:13.962507 18569 net.cpp:454] conv4_2_1x1_reduce/relu <- conv4_2_1x1_reduce
I0621 16:07:13.962510 18569 net.cpp:397] conv4_2_1x1_reduce/relu -> conv4_2_1x1_reduce (in-place)
I0621 16:07:13.962514 18569 net.cpp:150] Setting up conv4_2_1x1_reduce/relu
I0621 16:07:13.962518 18569 net.cpp:157] Top shape: 5 256 60 60 (4608000)
I0621 16:07:13.962520 18569 net.cpp:165] Memory required for data: 4782235000
I0621 16:07:13.962523 18569 layer_factory.hpp:77] Creating layer conv4_2_3x3
I0621 16:07:13.962530 18569 net.cpp:106] Creating Layer conv4_2_3x3
I0621 16:07:13.962532 18569 net.cpp:454] conv4_2_3x3 <- conv4_2_1x1_reduce
I0621 16:07:13.962538 18569 net.cpp:411] conv4_2_3x3 -> conv4_2_3x3
I0621 16:07:13.975998 18569 net.cpp:150] Setting up conv4_2_3x3
I0621 16:07:13.976032 18569 net.cpp:157] Top shape: 5 256 60 60 (4608000)
I0621 16:07:13.976034 18569 net.cpp:165] Memory required for data: 4800667000
I0621 16:07:13.976042 18569 layer_factory.hpp:77] Creating layer conv4_2_3x3/bn
I0621 16:07:13.976056 18569 net.cpp:106] Creating Layer conv4_2_3x3/bn
I0621 16:07:13.976069 18569 net.cpp:454] conv4_2_3x3/bn <- conv4_2_3x3
I0621 16:07:13.976076 18569 net.cpp:397] conv4_2_3x3/bn -> conv4_2_3x3 (in-place)
I0621 16:07:13.976225 18569 net.cpp:150] Setting up conv4_2_3x3/bn
I0621 16:07:13.976230 18569 net.cpp:157] Top shape: 5 256 60 60 (4608000)
I0621 16:07:13.976233 18569 net.cpp:165] Memory required for data: 4819099000
I0621 16:07:13.976238 18569 layer_factory.hpp:77] Creating layer conv4_2_3x3/relu
I0621 16:07:13.976243 18569 net.cpp:106] Creating Layer conv4_2_3x3/relu
I0621 16:07:13.976244 18569 net.cpp:454] conv4_2_3x3/relu <- conv4_2_3x3
I0621 16:07:13.976279 18569 net.cpp:397] conv4_2_3x3/relu -> conv4_2_3x3 (in-place)
I0621 16:07:13.976282 18569 net.cpp:150] Setting up conv4_2_3x3/relu
I0621 16:07:13.976285 18569 net.cpp:157] Top shape: 5 256 60 60 (4608000)
I0621 16:07:13.976287 18569 net.cpp:165] Memory required for data: 4837531000
I0621 16:07:13.976289 18569 layer_factory.hpp:77] Creating layer conv4_2_1x1_increase
I0621 16:07:13.976296 18569 net.cpp:106] Creating Layer conv4_2_1x1_increase
I0621 16:07:13.976299 18569 net.cpp:454] conv4_2_1x1_increase <- conv4_2_3x3
I0621 16:07:13.976305 18569 net.cpp:411] conv4_2_1x1_increase -> conv4_2_1x1_increase
I0621 16:07:13.983594 18569 net.cpp:150] Setting up conv4_2_1x1_increase
I0621 16:07:13.983661 18569 net.cpp:157] Top shape: 5 1024 60 60 (18432000)
I0621 16:07:13.983669 18569 net.cpp:165] Memory required for data: 4911259000
I0621 16:07:13.983682 18569 layer_factory.hpp:77] Creating layer conv4_2_1x1_increase/bn
I0621 16:07:13.983707 18569 net.cpp:106] Creating Layer conv4_2_1x1_increase/bn
I0621 16:07:13.983717 18569 net.cpp:454] conv4_2_1x1_increase/bn <- conv4_2_1x1_increase
I0621 16:07:13.983731 18569 net.cpp:397] conv4_2_1x1_increase/bn -> conv4_2_1x1_increase (in-place)
I0621 16:07:13.984024 18569 net.cpp:150] Setting up conv4_2_1x1_increase/bn
I0621 16:07:13.984033 18569 net.cpp:157] Top shape: 5 1024 60 60 (18432000)
I0621 16:07:13.984038 18569 net.cpp:165] Memory required for data: 4984987000
I0621 16:07:13.984047 18569 layer_factory.hpp:77] Creating layer conv4_2
I0621 16:07:13.984061 18569 net.cpp:106] Creating Layer conv4_2
I0621 16:07:13.984064 18569 net.cpp:454] conv4_2 <- conv4_1_conv4_1/relu_0_split_1
I0621 16:07:13.984071 18569 net.cpp:454] conv4_2 <- conv4_2_1x1_increase
I0621 16:07:13.984076 18569 net.cpp:411] conv4_2 -> conv4_2
I0621 16:07:13.984112 18569 net.cpp:150] Setting up conv4_2
I0621 16:07:13.984119 18569 net.cpp:157] Top shape: 5 1024 60 60 (18432000)
I0621 16:07:13.984122 18569 net.cpp:165] Memory required for data: 5058715000
I0621 16:07:13.984127 18569 layer_factory.hpp:77] Creating layer conv4_2/relu
I0621 16:07:13.984136 18569 net.cpp:106] Creating Layer conv4_2/relu
I0621 16:07:13.984140 18569 net.cpp:454] conv4_2/relu <- conv4_2
I0621 16:07:13.984148 18569 net.cpp:397] conv4_2/relu -> conv4_2 (in-place)
I0621 16:07:13.984154 18569 net.cpp:150] Setting up conv4_2/relu
I0621 16:07:13.984158 18569 net.cpp:157] Top shape: 5 1024 60 60 (18432000)
I0621 16:07:13.984163 18569 net.cpp:165] Memory required for data: 5132443000
I0621 16:07:13.984166 18569 layer_factory.hpp:77] Creating layer conv4_2_conv4_2/relu_0_split
I0621 16:07:13.984174 18569 net.cpp:106] Creating Layer conv4_2_conv4_2/relu_0_split
I0621 16:07:13.984177 18569 net.cpp:454] conv4_2_conv4_2/relu_0_split <- conv4_2
I0621 16:07:13.984184 18569 net.cpp:411] conv4_2_conv4_2/relu_0_split -> conv4_2_conv4_2/relu_0_split_0
I0621 16:07:13.984203 18569 net.cpp:411] conv4_2_conv4_2/relu_0_split -> conv4_2_conv4_2/relu_0_split_1
I0621 16:07:13.984235 18569 net.cpp:150] Setting up conv4_2_conv4_2/relu_0_split
I0621 16:07:13.984241 18569 net.cpp:157] Top shape: 5 1024 60 60 (18432000)
I0621 16:07:13.984246 18569 net.cpp:157] Top shape: 5 1024 60 60 (18432000)
I0621 16:07:13.984249 18569 net.cpp:165] Memory required for data: 5279899000
I0621 16:07:13.984253 18569 layer_factory.hpp:77] Creating layer conv4_3_1x1_reduce
I0621 16:07:13.984282 18569 net.cpp:106] Creating Layer conv4_3_1x1_reduce
I0621 16:07:13.984288 18569 net.cpp:454] conv4_3_1x1_reduce <- conv4_2_conv4_2/relu_0_split_0
I0621 16:07:13.984294 18569 net.cpp:411] conv4_3_1x1_reduce -> conv4_3_1x1_reduce
I0621 16:07:13.992272 18569 net.cpp:150] Setting up conv4_3_1x1_reduce
I0621 16:07:13.992355 18569 net.cpp:157] Top shape: 5 256 60 60 (4608000)
I0621 16:07:13.992363 18569 net.cpp:165] Memory required for data: 5298331000
I0621 16:07:13.992380 18569 layer_factory.hpp:77] Creating layer conv4_3_1x1_reduce/bn
I0621 16:07:13.992413 18569 net.cpp:106] Creating Layer conv4_3_1x1_reduce/bn
I0621 16:07:13.992425 18569 net.cpp:454] conv4_3_1x1_reduce/bn <- conv4_3_1x1_reduce
I0621 16:07:13.992492 18569 net.cpp:397] conv4_3_1x1_reduce/bn -> conv4_3_1x1_reduce (in-place)
I0621 16:07:13.992779 18569 net.cpp:150] Setting up conv4_3_1x1_reduce/bn
I0621 16:07:13.992786 18569 net.cpp:157] Top shape: 5 256 60 60 (4608000)
I0621 16:07:13.992790 18569 net.cpp:165] Memory required for data: 5316763000
I0621 16:07:13.992804 18569 layer_factory.hpp:77] Creating layer conv4_3_1x1_reduce/relu
I0621 16:07:13.992815 18569 net.cpp:106] Creating Layer conv4_3_1x1_reduce/relu
I0621 16:07:13.992820 18569 net.cpp:454] conv4_3_1x1_reduce/relu <- conv4_3_1x1_reduce
I0621 16:07:13.992825 18569 net.cpp:397] conv4_3_1x1_reduce/relu -> conv4_3_1x1_reduce (in-place)
I0621 16:07:13.992832 18569 net.cpp:150] Setting up conv4_3_1x1_reduce/relu
I0621 16:07:13.992837 18569 net.cpp:157] Top shape: 5 256 60 60 (4608000)
I0621 16:07:13.992841 18569 net.cpp:165] Memory required for data: 5335195000
I0621 16:07:13.992846 18569 layer_factory.hpp:77] Creating layer conv4_3_3x3
I0621 16:07:13.992857 18569 net.cpp:106] Creating Layer conv4_3_3x3
I0621 16:07:13.992861 18569 net.cpp:454] conv4_3_3x3 <- conv4_3_1x1_reduce
I0621 16:07:13.992868 18569 net.cpp:411] conv4_3_3x3 -> conv4_3_3x3
I0621 16:07:14.013883 18569 net.cpp:150] Setting up conv4_3_3x3
I0621 16:07:14.013912 18569 net.cpp:157] Top shape: 5 256 60 60 (4608000)
I0621 16:07:14.013916 18569 net.cpp:165] Memory required for data: 5353627000
I0621 16:07:14.013926 18569 layer_factory.hpp:77] Creating layer conv4_3_3x3/bn
I0621 16:07:14.013936 18569 net.cpp:106] Creating Layer conv4_3_3x3/bn
I0621 16:07:14.013941 18569 net.cpp:454] conv4_3_3x3/bn <- conv4_3_3x3
I0621 16:07:14.013950 18569 net.cpp:397] conv4_3_3x3/bn -> conv4_3_3x3 (in-place)
I0621 16:07:14.014103 18569 net.cpp:150] Setting up conv4_3_3x3/bn
I0621 16:07:14.014109 18569 net.cpp:157] Top shape: 5 256 60 60 (4608000)
I0621 16:07:14.014114 18569 net.cpp:165] Memory required for data: 5372059000
I0621 16:07:14.014122 18569 layer_factory.hpp:77] Creating layer conv4_3_3x3/relu
I0621 16:07:14.014129 18569 net.cpp:106] Creating Layer conv4_3_3x3/relu
I0621 16:07:14.014133 18569 net.cpp:454] conv4_3_3x3/relu <- conv4_3_3x3
I0621 16:07:14.014138 18569 net.cpp:397] conv4_3_3x3/relu -> conv4_3_3x3 (in-place)
I0621 16:07:14.014144 18569 net.cpp:150] Setting up conv4_3_3x3/relu
I0621 16:07:14.014148 18569 net.cpp:157] Top shape: 5 256 60 60 (4608000)
I0621 16:07:14.014152 18569 net.cpp:165] Memory required for data: 5390491000
I0621 16:07:14.014155 18569 layer_factory.hpp:77] Creating layer conv4_3_1x1_increase
I0621 16:07:14.014163 18569 net.cpp:106] Creating Layer conv4_3_1x1_increase
I0621 16:07:14.014165 18569 net.cpp:454] conv4_3_1x1_increase <- conv4_3_3x3
I0621 16:07:14.014173 18569 net.cpp:411] conv4_3_1x1_increase -> conv4_3_1x1_increase
I0621 16:07:14.025449 18569 net.cpp:150] Setting up conv4_3_1x1_increase
I0621 16:07:14.025467 18569 net.cpp:157] Top shape: 5 1024 60 60 (18432000)
I0621 16:07:14.025471 18569 net.cpp:165] Memory required for data: 5464219000
I0621 16:07:14.025480 18569 layer_factory.hpp:77] Creating layer conv4_3_1x1_increase/bn
I0621 16:07:14.025490 18569 net.cpp:106] Creating Layer conv4_3_1x1_increase/bn
I0621 16:07:14.025496 18569 net.cpp:454] conv4_3_1x1_increase/bn <- conv4_3_1x1_increase
I0621 16:07:14.025503 18569 net.cpp:397] conv4_3_1x1_increase/bn -> conv4_3_1x1_increase (in-place)
I0621 16:07:14.025668 18569 net.cpp:150] Setting up conv4_3_1x1_increase/bn
I0621 16:07:14.025674 18569 net.cpp:157] Top shape: 5 1024 60 60 (18432000)
I0621 16:07:14.025678 18569 net.cpp:165] Memory required for data: 5537947000
I0621 16:07:14.025686 18569 layer_factory.hpp:77] Creating layer conv4_3
I0621 16:07:14.025691 18569 net.cpp:106] Creating Layer conv4_3
I0621 16:07:14.025696 18569 net.cpp:454] conv4_3 <- conv4_2_conv4_2/relu_0_split_1
I0621 16:07:14.025701 18569 net.cpp:454] conv4_3 <- conv4_3_1x1_increase
I0621 16:07:14.025704 18569 net.cpp:411] conv4_3 -> conv4_3
I0621 16:07:14.025728 18569 net.cpp:150] Setting up conv4_3
I0621 16:07:14.025733 18569 net.cpp:157] Top shape: 5 1024 60 60 (18432000)
I0621 16:07:14.025753 18569 net.cpp:165] Memory required for data: 5611675000
I0621 16:07:14.025755 18569 layer_factory.hpp:77] Creating layer conv4_3/relu
I0621 16:07:14.025763 18569 net.cpp:106] Creating Layer conv4_3/relu
I0621 16:07:14.025765 18569 net.cpp:454] conv4_3/relu <- conv4_3
I0621 16:07:14.025770 18569 net.cpp:397] conv4_3/relu -> conv4_3 (in-place)
I0621 16:07:14.025775 18569 net.cpp:150] Setting up conv4_3/relu
I0621 16:07:14.025779 18569 net.cpp:157] Top shape: 5 1024 60 60 (18432000)
I0621 16:07:14.025782 18569 net.cpp:165] Memory required for data: 5685403000
I0621 16:07:14.025786 18569 layer_factory.hpp:77] Creating layer conv4_3_conv4_3/relu_0_split
I0621 16:07:14.025791 18569 net.cpp:106] Creating Layer conv4_3_conv4_3/relu_0_split
I0621 16:07:14.025794 18569 net.cpp:454] conv4_3_conv4_3/relu_0_split <- conv4_3
I0621 16:07:14.025800 18569 net.cpp:411] conv4_3_conv4_3/relu_0_split -> conv4_3_conv4_3/relu_0_split_0
I0621 16:07:14.025805 18569 net.cpp:411] conv4_3_conv4_3/relu_0_split -> conv4_3_conv4_3/relu_0_split_1
I0621 16:07:14.025831 18569 net.cpp:150] Setting up conv4_3_conv4_3/relu_0_split
I0621 16:07:14.025836 18569 net.cpp:157] Top shape: 5 1024 60 60 (18432000)
I0621 16:07:14.025840 18569 net.cpp:157] Top shape: 5 1024 60 60 (18432000)
I0621 16:07:14.025843 18569 net.cpp:165] Memory required for data: 5832859000
I0621 16:07:14.025847 18569 layer_factory.hpp:77] Creating layer conv4_4_1x1_reduce
I0621 16:07:14.025866 18569 net.cpp:106] Creating Layer conv4_4_1x1_reduce
I0621 16:07:14.025871 18569 net.cpp:454] conv4_4_1x1_reduce <- conv4_3_conv4_3/relu_0_split_0
I0621 16:07:14.025876 18569 net.cpp:411] conv4_4_1x1_reduce -> conv4_4_1x1_reduce
I0621 16:07:14.031694 18569 net.cpp:150] Setting up conv4_4_1x1_reduce
I0621 16:07:14.031744 18569 net.cpp:157] Top shape: 5 256 60 60 (4608000)
I0621 16:07:14.031750 18569 net.cpp:165] Memory required for data: 5851291000
I0621 16:07:14.031769 18569 layer_factory.hpp:77] Creating layer conv4_4_1x1_reduce/bn
I0621 16:07:14.031795 18569 net.cpp:106] Creating Layer conv4_4_1x1_reduce/bn
I0621 16:07:14.031802 18569 net.cpp:454] conv4_4_1x1_reduce/bn <- conv4_4_1x1_reduce
I0621 16:07:14.031811 18569 net.cpp:397] conv4_4_1x1_reduce/bn -> conv4_4_1x1_reduce (in-place)
I0621 16:07:14.032011 18569 net.cpp:150] Setting up conv4_4_1x1_reduce/bn
I0621 16:07:14.032017 18569 net.cpp:157] Top shape: 5 256 60 60 (4608000)
I0621 16:07:14.032021 18569 net.cpp:165] Memory required for data: 5869723000
I0621 16:07:14.032027 18569 layer_factory.hpp:77] Creating layer conv4_4_1x1_reduce/relu
I0621 16:07:14.032035 18569 net.cpp:106] Creating Layer conv4_4_1x1_reduce/relu
I0621 16:07:14.032038 18569 net.cpp:454] conv4_4_1x1_reduce/relu <- conv4_4_1x1_reduce
I0621 16:07:14.032044 18569 net.cpp:397] conv4_4_1x1_reduce/relu -> conv4_4_1x1_reduce (in-place)
I0621 16:07:14.032049 18569 net.cpp:150] Setting up conv4_4_1x1_reduce/relu
I0621 16:07:14.032054 18569 net.cpp:157] Top shape: 5 256 60 60 (4608000)
I0621 16:07:14.032058 18569 net.cpp:165] Memory required for data: 5888155000
I0621 16:07:14.032060 18569 layer_factory.hpp:77] Creating layer conv4_4_3x3
I0621 16:07:14.032068 18569 net.cpp:106] Creating Layer conv4_4_3x3
I0621 16:07:14.032071 18569 net.cpp:454] conv4_4_3x3 <- conv4_4_1x1_reduce
I0621 16:07:14.032076 18569 net.cpp:411] conv4_4_3x3 -> conv4_4_3x3
I0621 16:07:14.046056 18569 net.cpp:150] Setting up conv4_4_3x3
I0621 16:07:14.046105 18569 net.cpp:157] Top shape: 5 256 60 60 (4608000)
I0621 16:07:14.046110 18569 net.cpp:165] Memory required for data: 5906587000
I0621 16:07:14.046126 18569 layer_factory.hpp:77] Creating layer conv4_4_3x3/bn
I0621 16:07:14.046159 18569 net.cpp:106] Creating Layer conv4_4_3x3/bn
I0621 16:07:14.046167 18569 net.cpp:454] conv4_4_3x3/bn <- conv4_4_3x3
I0621 16:07:14.046185 18569 net.cpp:397] conv4_4_3x3/bn -> conv4_4_3x3 (in-place)
I0621 16:07:14.046388 18569 net.cpp:150] Setting up conv4_4_3x3/bn
I0621 16:07:14.046394 18569 net.cpp:157] Top shape: 5 256 60 60 (4608000)
I0621 16:07:14.046401 18569 net.cpp:165] Memory required for data: 5925019000
I0621 16:07:14.046453 18569 layer_factory.hpp:77] Creating layer conv4_4_3x3/relu
I0621 16:07:14.046464 18569 net.cpp:106] Creating Layer conv4_4_3x3/relu
I0621 16:07:14.046468 18569 net.cpp:454] conv4_4_3x3/relu <- conv4_4_3x3
I0621 16:07:14.046470 18569 net.cpp:397] conv4_4_3x3/relu -> conv4_4_3x3 (in-place)
I0621 16:07:14.046478 18569 net.cpp:150] Setting up conv4_4_3x3/relu
I0621 16:07:14.046480 18569 net.cpp:157] Top shape: 5 256 60 60 (4608000)
I0621 16:07:14.046483 18569 net.cpp:165] Memory required for data: 5943451000
I0621 16:07:14.046486 18569 layer_factory.hpp:77] Creating layer conv4_4_1x1_increase
I0621 16:07:14.046499 18569 net.cpp:106] Creating Layer conv4_4_1x1_increase
I0621 16:07:14.046501 18569 net.cpp:454] conv4_4_1x1_increase <- conv4_4_3x3
I0621 16:07:14.046507 18569 net.cpp:411] conv4_4_1x1_increase -> conv4_4_1x1_increase
I0621 16:07:14.054383 18569 net.cpp:150] Setting up conv4_4_1x1_increase
I0621 16:07:14.054486 18569 net.cpp:157] Top shape: 5 1024 60 60 (18432000)
I0621 16:07:14.054496 18569 net.cpp:165] Memory required for data: 6017179000
I0621 16:07:14.054514 18569 layer_factory.hpp:77] Creating layer conv4_4_1x1_increase/bn
I0621 16:07:14.054545 18569 net.cpp:106] Creating Layer conv4_4_1x1_increase/bn
I0621 16:07:14.054558 18569 net.cpp:454] conv4_4_1x1_increase/bn <- conv4_4_1x1_increase
I0621 16:07:14.054574 18569 net.cpp:397] conv4_4_1x1_increase/bn -> conv4_4_1x1_increase (in-place)
I0621 16:07:14.054857 18569 net.cpp:150] Setting up conv4_4_1x1_increase/bn
I0621 16:07:14.054867 18569 net.cpp:157] Top shape: 5 1024 60 60 (18432000)
I0621 16:07:14.054875 18569 net.cpp:165] Memory required for data: 6090907000
I0621 16:07:14.054886 18569 layer_factory.hpp:77] Creating layer conv4_4
I0621 16:07:14.054901 18569 net.cpp:106] Creating Layer conv4_4
I0621 16:07:14.054908 18569 net.cpp:454] conv4_4 <- conv4_3_conv4_3/relu_0_split_1
I0621 16:07:14.054913 18569 net.cpp:454] conv4_4 <- conv4_4_1x1_increase
I0621 16:07:14.054920 18569 net.cpp:411] conv4_4 -> conv4_4
I0621 16:07:14.054968 18569 net.cpp:150] Setting up conv4_4
I0621 16:07:14.054975 18569 net.cpp:157] Top shape: 5 1024 60 60 (18432000)
I0621 16:07:14.054978 18569 net.cpp:165] Memory required for data: 6164635000
I0621 16:07:14.054982 18569 layer_factory.hpp:77] Creating layer conv4_4/relu
I0621 16:07:14.054996 18569 net.cpp:106] Creating Layer conv4_4/relu
I0621 16:07:14.055001 18569 net.cpp:454] conv4_4/relu <- conv4_4
I0621 16:07:14.055007 18569 net.cpp:397] conv4_4/relu -> conv4_4 (in-place)
I0621 16:07:14.055016 18569 net.cpp:150] Setting up conv4_4/relu
I0621 16:07:14.055021 18569 net.cpp:157] Top shape: 5 1024 60 60 (18432000)
I0621 16:07:14.055023 18569 net.cpp:165] Memory required for data: 6238363000
I0621 16:07:14.055028 18569 layer_factory.hpp:77] Creating layer conv4_4_conv4_4/relu_0_split
I0621 16:07:14.055038 18569 net.cpp:106] Creating Layer conv4_4_conv4_4/relu_0_split
I0621 16:07:14.055042 18569 net.cpp:454] conv4_4_conv4_4/relu_0_split <- conv4_4
I0621 16:07:14.055047 18569 net.cpp:411] conv4_4_conv4_4/relu_0_split -> conv4_4_conv4_4/relu_0_split_0
I0621 16:07:14.055053 18569 net.cpp:411] conv4_4_conv4_4/relu_0_split -> conv4_4_conv4_4/relu_0_split_1
I0621 16:07:14.055091 18569 net.cpp:150] Setting up conv4_4_conv4_4/relu_0_split
I0621 16:07:14.055097 18569 net.cpp:157] Top shape: 5 1024 60 60 (18432000)
I0621 16:07:14.055102 18569 net.cpp:157] Top shape: 5 1024 60 60 (18432000)
I0621 16:07:14.055109 18569 net.cpp:165] Memory required for data: 6385819000
I0621 16:07:14.055114 18569 layer_factory.hpp:77] Creating layer conv4_5_1x1_reduce
I0621 16:07:14.055130 18569 net.cpp:106] Creating Layer conv4_5_1x1_reduce
I0621 16:07:14.055135 18569 net.cpp:454] conv4_5_1x1_reduce <- conv4_4_conv4_4/relu_0_split_0
I0621 16:07:14.055142 18569 net.cpp:411] conv4_5_1x1_reduce -> conv4_5_1x1_reduce
I0621 16:07:14.063897 18569 net.cpp:150] Setting up conv4_5_1x1_reduce
I0621 16:07:14.063976 18569 net.cpp:157] Top shape: 5 256 60 60 (4608000)
I0621 16:07:14.063982 18569 net.cpp:165] Memory required for data: 6404251000
I0621 16:07:14.064045 18569 layer_factory.hpp:77] Creating layer conv4_5_1x1_reduce/bn
I0621 16:07:14.064074 18569 net.cpp:106] Creating Layer conv4_5_1x1_reduce/bn
I0621 16:07:14.064086 18569 net.cpp:454] conv4_5_1x1_reduce/bn <- conv4_5_1x1_reduce
I0621 16:07:14.064103 18569 net.cpp:397] conv4_5_1x1_reduce/bn -> conv4_5_1x1_reduce (in-place)
I0621 16:07:14.064412 18569 net.cpp:150] Setting up conv4_5_1x1_reduce/bn
I0621 16:07:14.064424 18569 net.cpp:157] Top shape: 5 256 60 60 (4608000)
I0621 16:07:14.064427 18569 net.cpp:165] Memory required for data: 6422683000
I0621 16:07:14.064438 18569 layer_factory.hpp:77] Creating layer conv4_5_1x1_reduce/relu
I0621 16:07:14.064450 18569 net.cpp:106] Creating Layer conv4_5_1x1_reduce/relu
I0621 16:07:14.064455 18569 net.cpp:454] conv4_5_1x1_reduce/relu <- conv4_5_1x1_reduce
I0621 16:07:14.064463 18569 net.cpp:397] conv4_5_1x1_reduce/relu -> conv4_5_1x1_reduce (in-place)
I0621 16:07:14.064471 18569 net.cpp:150] Setting up conv4_5_1x1_reduce/relu
I0621 16:07:14.064476 18569 net.cpp:157] Top shape: 5 256 60 60 (4608000)
I0621 16:07:14.064481 18569 net.cpp:165] Memory required for data: 6441115000
I0621 16:07:14.064486 18569 layer_factory.hpp:77] Creating layer conv4_5_3x3
I0621 16:07:14.064502 18569 net.cpp:106] Creating Layer conv4_5_3x3
I0621 16:07:14.064507 18569 net.cpp:454] conv4_5_3x3 <- conv4_5_1x1_reduce
I0621 16:07:14.064512 18569 net.cpp:411] conv4_5_3x3 -> conv4_5_3x3
I0621 16:07:14.083828 18569 net.cpp:150] Setting up conv4_5_3x3
I0621 16:07:14.083847 18569 net.cpp:157] Top shape: 5 256 60 60 (4608000)
I0621 16:07:14.083851 18569 net.cpp:165] Memory required for data: 6459547000
I0621 16:07:14.083860 18569 layer_factory.hpp:77] Creating layer conv4_5_3x3/bn
I0621 16:07:14.083870 18569 net.cpp:106] Creating Layer conv4_5_3x3/bn
I0621 16:07:14.083876 18569 net.cpp:454] conv4_5_3x3/bn <- conv4_5_3x3
I0621 16:07:14.083884 18569 net.cpp:397] conv4_5_3x3/bn -> conv4_5_3x3 (in-place)
I0621 16:07:14.084051 18569 net.cpp:150] Setting up conv4_5_3x3/bn
I0621 16:07:14.084058 18569 net.cpp:157] Top shape: 5 256 60 60 (4608000)
I0621 16:07:14.084061 18569 net.cpp:165] Memory required for data: 6477979000
I0621 16:07:14.084069 18569 layer_factory.hpp:77] Creating layer conv4_5_3x3/relu
I0621 16:07:14.084074 18569 net.cpp:106] Creating Layer conv4_5_3x3/relu
I0621 16:07:14.084079 18569 net.cpp:454] conv4_5_3x3/relu <- conv4_5_3x3
I0621 16:07:14.084082 18569 net.cpp:397] conv4_5_3x3/relu -> conv4_5_3x3 (in-place)
I0621 16:07:14.084089 18569 net.cpp:150] Setting up conv4_5_3x3/relu
I0621 16:07:14.084094 18569 net.cpp:157] Top shape: 5 256 60 60 (4608000)
I0621 16:07:14.084096 18569 net.cpp:165] Memory required for data: 6496411000
I0621 16:07:14.084101 18569 layer_factory.hpp:77] Creating layer conv4_5_1x1_increase
I0621 16:07:14.084111 18569 net.cpp:106] Creating Layer conv4_5_1x1_increase
I0621 16:07:14.084115 18569 net.cpp:454] conv4_5_1x1_increase <- conv4_5_3x3
I0621 16:07:14.084120 18569 net.cpp:411] conv4_5_1x1_increase -> conv4_5_1x1_increase
I0621 16:07:14.090618 18569 net.cpp:150] Setting up conv4_5_1x1_increase
I0621 16:07:14.090667 18569 net.cpp:157] Top shape: 5 1024 60 60 (18432000)
I0621 16:07:14.090672 18569 net.cpp:165] Memory required for data: 6570139000
I0621 16:07:14.090684 18569 layer_factory.hpp:77] Creating layer conv4_5_1x1_increase/bn
I0621 16:07:14.090703 18569 net.cpp:106] Creating Layer conv4_5_1x1_increase/bn
I0621 16:07:14.090711 18569 net.cpp:454] conv4_5_1x1_increase/bn <- conv4_5_1x1_increase
I0621 16:07:14.090719 18569 net.cpp:397] conv4_5_1x1_increase/bn -> conv4_5_1x1_increase (in-place)
I0621 16:07:14.090908 18569 net.cpp:150] Setting up conv4_5_1x1_increase/bn
I0621 16:07:14.090914 18569 net.cpp:157] Top shape: 5 1024 60 60 (18432000)
I0621 16:07:14.090917 18569 net.cpp:165] Memory required for data: 6643867000
I0621 16:07:14.090924 18569 layer_factory.hpp:77] Creating layer conv4_5
I0621 16:07:14.090934 18569 net.cpp:106] Creating Layer conv4_5
I0621 16:07:14.090939 18569 net.cpp:454] conv4_5 <- conv4_4_conv4_4/relu_0_split_1
I0621 16:07:14.090942 18569 net.cpp:454] conv4_5 <- conv4_5_1x1_increase
I0621 16:07:14.090994 18569 net.cpp:411] conv4_5 -> conv4_5
I0621 16:07:14.091017 18569 net.cpp:150] Setting up conv4_5
I0621 16:07:14.091022 18569 net.cpp:157] Top shape: 5 1024 60 60 (18432000)
I0621 16:07:14.091027 18569 net.cpp:165] Memory required for data: 6717595000
I0621 16:07:14.091029 18569 layer_factory.hpp:77] Creating layer conv4_5/relu
I0621 16:07:14.091037 18569 net.cpp:106] Creating Layer conv4_5/relu
I0621 16:07:14.091039 18569 net.cpp:454] conv4_5/relu <- conv4_5
I0621 16:07:14.091045 18569 net.cpp:397] conv4_5/relu -> conv4_5 (in-place)
I0621 16:07:14.091050 18569 net.cpp:150] Setting up conv4_5/relu
I0621 16:07:14.091054 18569 net.cpp:157] Top shape: 5 1024 60 60 (18432000)
I0621 16:07:14.091058 18569 net.cpp:165] Memory required for data: 6791323000
I0621 16:07:14.091060 18569 layer_factory.hpp:77] Creating layer conv4_5_conv4_5/relu_0_split
I0621 16:07:14.091066 18569 net.cpp:106] Creating Layer conv4_5_conv4_5/relu_0_split
I0621 16:07:14.091069 18569 net.cpp:454] conv4_5_conv4_5/relu_0_split <- conv4_5
I0621 16:07:14.091073 18569 net.cpp:411] conv4_5_conv4_5/relu_0_split -> conv4_5_conv4_5/relu_0_split_0
I0621 16:07:14.091078 18569 net.cpp:411] conv4_5_conv4_5/relu_0_split -> conv4_5_conv4_5/relu_0_split_1
I0621 16:07:14.091104 18569 net.cpp:150] Setting up conv4_5_conv4_5/relu_0_split
I0621 16:07:14.091109 18569 net.cpp:157] Top shape: 5 1024 60 60 (18432000)
I0621 16:07:14.091112 18569 net.cpp:157] Top shape: 5 1024 60 60 (18432000)
I0621 16:07:14.091115 18569 net.cpp:165] Memory required for data: 6938779000
I0621 16:07:14.091119 18569 layer_factory.hpp:77] Creating layer conv4_6_1x1_reduce
I0621 16:07:14.091146 18569 net.cpp:106] Creating Layer conv4_6_1x1_reduce
I0621 16:07:14.091150 18569 net.cpp:454] conv4_6_1x1_reduce <- conv4_5_conv4_5/relu_0_split_0
I0621 16:07:14.091156 18569 net.cpp:411] conv4_6_1x1_reduce -> conv4_6_1x1_reduce
I0621 16:07:14.096910 18569 net.cpp:150] Setting up conv4_6_1x1_reduce
I0621 16:07:14.096920 18569 net.cpp:157] Top shape: 5 256 60 60 (4608000)
I0621 16:07:14.096922 18569 net.cpp:165] Memory required for data: 6957211000
I0621 16:07:14.096928 18569 layer_factory.hpp:77] Creating layer conv4_6_1x1_reduce/bn
I0621 16:07:14.096941 18569 net.cpp:106] Creating Layer conv4_6_1x1_reduce/bn
I0621 16:07:14.096946 18569 net.cpp:454] conv4_6_1x1_reduce/bn <- conv4_6_1x1_reduce
I0621 16:07:14.096951 18569 net.cpp:397] conv4_6_1x1_reduce/bn -> conv4_6_1x1_reduce (in-place)
I0621 16:07:14.097095 18569 net.cpp:150] Setting up conv4_6_1x1_reduce/bn
I0621 16:07:14.097100 18569 net.cpp:157] Top shape: 5 256 60 60 (4608000)
I0621 16:07:14.097105 18569 net.cpp:165] Memory required for data: 6975643000
I0621 16:07:14.097110 18569 layer_factory.hpp:77] Creating layer conv4_6_1x1_reduce/relu
I0621 16:07:14.097116 18569 net.cpp:106] Creating Layer conv4_6_1x1_reduce/relu
I0621 16:07:14.097120 18569 net.cpp:454] conv4_6_1x1_reduce/relu <- conv4_6_1x1_reduce
I0621 16:07:14.097124 18569 net.cpp:397] conv4_6_1x1_reduce/relu -> conv4_6_1x1_reduce (in-place)
I0621 16:07:14.097129 18569 net.cpp:150] Setting up conv4_6_1x1_reduce/relu
I0621 16:07:14.097134 18569 net.cpp:157] Top shape: 5 256 60 60 (4608000)
I0621 16:07:14.097136 18569 net.cpp:165] Memory required for data: 6994075000
I0621 16:07:14.097141 18569 layer_factory.hpp:77] Creating layer conv4_6_3x3
I0621 16:07:14.097148 18569 net.cpp:106] Creating Layer conv4_6_3x3
I0621 16:07:14.097151 18569 net.cpp:454] conv4_6_3x3 <- conv4_6_1x1_reduce
I0621 16:07:14.097157 18569 net.cpp:411] conv4_6_3x3 -> conv4_6_3x3
I0621 16:07:14.111141 18569 net.cpp:150] Setting up conv4_6_3x3
I0621 16:07:14.111179 18569 net.cpp:157] Top shape: 5 256 60 60 (4608000)
I0621 16:07:14.111183 18569 net.cpp:165] Memory required for data: 7012507000
I0621 16:07:14.111193 18569 layer_factory.hpp:77] Creating layer conv4_6_3x3/bn
I0621 16:07:14.111204 18569 net.cpp:106] Creating Layer conv4_6_3x3/bn
I0621 16:07:14.111212 18569 net.cpp:454] conv4_6_3x3/bn <- conv4_6_3x3
I0621 16:07:14.111222 18569 net.cpp:397] conv4_6_3x3/bn -> conv4_6_3x3 (in-place)
I0621 16:07:14.111444 18569 net.cpp:150] Setting up conv4_6_3x3/bn
I0621 16:07:14.111452 18569 net.cpp:157] Top shape: 5 256 60 60 (4608000)
I0621 16:07:14.111456 18569 net.cpp:165] Memory required for data: 7030939000
I0621 16:07:14.111464 18569 layer_factory.hpp:77] Creating layer conv4_6_3x3/relu
I0621 16:07:14.111471 18569 net.cpp:106] Creating Layer conv4_6_3x3/relu
I0621 16:07:14.111475 18569 net.cpp:454] conv4_6_3x3/relu <- conv4_6_3x3
I0621 16:07:14.111481 18569 net.cpp:397] conv4_6_3x3/relu -> conv4_6_3x3 (in-place)
I0621 16:07:14.111488 18569 net.cpp:150] Setting up conv4_6_3x3/relu
I0621 16:07:14.111495 18569 net.cpp:157] Top shape: 5 256 60 60 (4608000)
I0621 16:07:14.111498 18569 net.cpp:165] Memory required for data: 7049371000
I0621 16:07:14.111501 18569 layer_factory.hpp:77] Creating layer conv4_6_1x1_increase
I0621 16:07:14.111511 18569 net.cpp:106] Creating Layer conv4_6_1x1_increase
I0621 16:07:14.111515 18569 net.cpp:454] conv4_6_1x1_increase <- conv4_6_3x3
I0621 16:07:14.111523 18569 net.cpp:411] conv4_6_1x1_increase -> conv4_6_1x1_increase
I0621 16:07:14.121050 18569 net.cpp:150] Setting up conv4_6_1x1_increase
I0621 16:07:14.121146 18569 net.cpp:157] Top shape: 5 1024 60 60 (18432000)
I0621 16:07:14.121153 18569 net.cpp:165] Memory required for data: 7123099000
I0621 16:07:14.121176 18569 layer_factory.hpp:77] Creating layer conv4_6_1x1_increase/bn
I0621 16:07:14.121212 18569 net.cpp:106] Creating Layer conv4_6_1x1_increase/bn
I0621 16:07:14.121227 18569 net.cpp:454] conv4_6_1x1_increase/bn <- conv4_6_1x1_increase
I0621 16:07:14.121242 18569 net.cpp:397] conv4_6_1x1_increase/bn -> conv4_6_1x1_increase (in-place)
I0621 16:07:14.121546 18569 net.cpp:150] Setting up conv4_6_1x1_increase/bn
I0621 16:07:14.121556 18569 net.cpp:157] Top shape: 5 1024 60 60 (18432000)
I0621 16:07:14.121563 18569 net.cpp:165] Memory required for data: 7196827000
I0621 16:07:14.121574 18569 layer_factory.hpp:77] Creating layer conv4_6
I0621 16:07:14.121587 18569 net.cpp:106] Creating Layer conv4_6
I0621 16:07:14.121592 18569 net.cpp:454] conv4_6 <- conv4_5_conv4_5/relu_0_split_1
I0621 16:07:14.121598 18569 net.cpp:454] conv4_6 <- conv4_6_1x1_increase
I0621 16:07:14.121604 18569 net.cpp:411] conv4_6 -> conv4_6
I0621 16:07:14.121655 18569 net.cpp:150] Setting up conv4_6
I0621 16:07:14.121661 18569 net.cpp:157] Top shape: 5 1024 60 60 (18432000)
I0621 16:07:14.121665 18569 net.cpp:165] Memory required for data: 7270555000
I0621 16:07:14.121670 18569 layer_factory.hpp:77] Creating layer conv4_6/relu
I0621 16:07:14.121680 18569 net.cpp:106] Creating Layer conv4_6/relu
I0621 16:07:14.121686 18569 net.cpp:454] conv4_6/relu <- conv4_6
I0621 16:07:14.121691 18569 net.cpp:397] conv4_6/relu -> conv4_6 (in-place)
I0621 16:07:14.121698 18569 net.cpp:150] Setting up conv4_6/relu
I0621 16:07:14.121704 18569 net.cpp:157] Top shape: 5 1024 60 60 (18432000)
I0621 16:07:14.121707 18569 net.cpp:165] Memory required for data: 7344283000
I0621 16:07:14.121711 18569 layer_factory.hpp:77] Creating layer conv4_6_conv4_6/relu_0_split
I0621 16:07:14.121721 18569 net.cpp:106] Creating Layer conv4_6_conv4_6/relu_0_split
I0621 16:07:14.121724 18569 net.cpp:454] conv4_6_conv4_6/relu_0_split <- conv4_6
I0621 16:07:14.121731 18569 net.cpp:411] conv4_6_conv4_6/relu_0_split -> conv4_6_conv4_6/relu_0_split_0
I0621 16:07:14.121737 18569 net.cpp:411] conv4_6_conv4_6/relu_0_split -> conv4_6_conv4_6/relu_0_split_1
I0621 16:07:14.121770 18569 net.cpp:150] Setting up conv4_6_conv4_6/relu_0_split
I0621 16:07:14.121776 18569 net.cpp:157] Top shape: 5 1024 60 60 (18432000)
I0621 16:07:14.121783 18569 net.cpp:157] Top shape: 5 1024 60 60 (18432000)
I0621 16:07:14.121786 18569 net.cpp:165] Memory required for data: 7491739000
I0621 16:07:14.121790 18569 layer_factory.hpp:77] Creating layer conv4_7_1x1_reduce
I0621 16:07:14.121806 18569 net.cpp:106] Creating Layer conv4_7_1x1_reduce
I0621 16:07:14.121811 18569 net.cpp:454] conv4_7_1x1_reduce <- conv4_6_conv4_6/relu_0_split_0
I0621 16:07:14.121819 18569 net.cpp:411] conv4_7_1x1_reduce -> conv4_7_1x1_reduce
I0621 16:07:14.129633 18569 net.cpp:150] Setting up conv4_7_1x1_reduce
I0621 16:07:14.129673 18569 net.cpp:157] Top shape: 5 256 60 60 (4608000)
I0621 16:07:14.129674 18569 net.cpp:165] Memory required for data: 7510171000
I0621 16:07:14.129685 18569 layer_factory.hpp:77] Creating layer conv4_7_1x1_reduce/bn
I0621 16:07:14.129695 18569 net.cpp:106] Creating Layer conv4_7_1x1_reduce/bn
I0621 16:07:14.129703 18569 net.cpp:454] conv4_7_1x1_reduce/bn <- conv4_7_1x1_reduce
I0621 16:07:14.129710 18569 net.cpp:397] conv4_7_1x1_reduce/bn -> conv4_7_1x1_reduce (in-place)
I0621 16:07:14.129897 18569 net.cpp:150] Setting up conv4_7_1x1_reduce/bn
I0621 16:07:14.129904 18569 net.cpp:157] Top shape: 5 256 60 60 (4608000)
I0621 16:07:14.129906 18569 net.cpp:165] Memory required for data: 7528603000
I0621 16:07:14.129911 18569 layer_factory.hpp:77] Creating layer conv4_7_1x1_reduce/relu
I0621 16:07:14.129917 18569 net.cpp:106] Creating Layer conv4_7_1x1_reduce/relu
I0621 16:07:14.129920 18569 net.cpp:454] conv4_7_1x1_reduce/relu <- conv4_7_1x1_reduce
I0621 16:07:14.129925 18569 net.cpp:397] conv4_7_1x1_reduce/relu -> conv4_7_1x1_reduce (in-place)
I0621 16:07:14.129930 18569 net.cpp:150] Setting up conv4_7_1x1_reduce/relu
I0621 16:07:14.129932 18569 net.cpp:157] Top shape: 5 256 60 60 (4608000)
I0621 16:07:14.129935 18569 net.cpp:165] Memory required for data: 7547035000
I0621 16:07:14.129938 18569 layer_factory.hpp:77] Creating layer conv4_7_3x3
I0621 16:07:14.129945 18569 net.cpp:106] Creating Layer conv4_7_3x3
I0621 16:07:14.129947 18569 net.cpp:454] conv4_7_3x3 <- conv4_7_1x1_reduce
I0621 16:07:14.129951 18569 net.cpp:411] conv4_7_3x3 -> conv4_7_3x3
I0621 16:07:14.143810 18569 net.cpp:150] Setting up conv4_7_3x3
I0621 16:07:14.143837 18569 net.cpp:157] Top shape: 5 256 60 60 (4608000)
I0621 16:07:14.143841 18569 net.cpp:165] Memory required for data: 7565467000
I0621 16:07:14.143849 18569 layer_factory.hpp:77] Creating layer conv4_7_3x3/bn
I0621 16:07:14.143864 18569 net.cpp:106] Creating Layer conv4_7_3x3/bn
I0621 16:07:14.143868 18569 net.cpp:454] conv4_7_3x3/bn <- conv4_7_3x3
I0621 16:07:14.143873 18569 net.cpp:397] conv4_7_3x3/bn -> conv4_7_3x3 (in-place)
I0621 16:07:14.144031 18569 net.cpp:150] Setting up conv4_7_3x3/bn
I0621 16:07:14.144035 18569 net.cpp:157] Top shape: 5 256 60 60 (4608000)
I0621 16:07:14.144038 18569 net.cpp:165] Memory required for data: 7583899000
I0621 16:07:14.144044 18569 layer_factory.hpp:77] Creating layer conv4_7_3x3/relu
I0621 16:07:14.144048 18569 net.cpp:106] Creating Layer conv4_7_3x3/relu
I0621 16:07:14.144052 18569 net.cpp:454] conv4_7_3x3/relu <- conv4_7_3x3
I0621 16:07:14.144054 18569 net.cpp:397] conv4_7_3x3/relu -> conv4_7_3x3 (in-place)
I0621 16:07:14.144058 18569 net.cpp:150] Setting up conv4_7_3x3/relu
I0621 16:07:14.144062 18569 net.cpp:157] Top shape: 5 256 60 60 (4608000)
I0621 16:07:14.144064 18569 net.cpp:165] Memory required for data: 7602331000
I0621 16:07:14.144068 18569 layer_factory.hpp:77] Creating layer conv4_7_1x1_increase
I0621 16:07:14.144075 18569 net.cpp:106] Creating Layer conv4_7_1x1_increase
I0621 16:07:14.144078 18569 net.cpp:454] conv4_7_1x1_increase <- conv4_7_3x3
I0621 16:07:14.144084 18569 net.cpp:411] conv4_7_1x1_increase -> conv4_7_1x1_increase
I0621 16:07:14.150342 18569 net.cpp:150] Setting up conv4_7_1x1_increase
I0621 16:07:14.150354 18569 net.cpp:157] Top shape: 5 1024 60 60 (18432000)
I0621 16:07:14.150358 18569 net.cpp:165] Memory required for data: 7676059000
I0621 16:07:14.150364 18569 layer_factory.hpp:77] Creating layer conv4_7_1x1_increase/bn
I0621 16:07:14.150372 18569 net.cpp:106] Creating Layer conv4_7_1x1_increase/bn
I0621 16:07:14.150375 18569 net.cpp:454] conv4_7_1x1_increase/bn <- conv4_7_1x1_increase
I0621 16:07:14.150382 18569 net.cpp:397] conv4_7_1x1_increase/bn -> conv4_7_1x1_increase (in-place)
I0621 16:07:14.150532 18569 net.cpp:150] Setting up conv4_7_1x1_increase/bn
I0621 16:07:14.150538 18569 net.cpp:157] Top shape: 5 1024 60 60 (18432000)
I0621 16:07:14.150542 18569 net.cpp:165] Memory required for data: 7749787000
I0621 16:07:14.150563 18569 layer_factory.hpp:77] Creating layer conv4_7
I0621 16:07:14.150569 18569 net.cpp:106] Creating Layer conv4_7
I0621 16:07:14.150573 18569 net.cpp:454] conv4_7 <- conv4_6_conv4_6/relu_0_split_1
I0621 16:07:14.150576 18569 net.cpp:454] conv4_7 <- conv4_7_1x1_increase
I0621 16:07:14.150581 18569 net.cpp:411] conv4_7 -> conv4_7
I0621 16:07:14.150604 18569 net.cpp:150] Setting up conv4_7
I0621 16:07:14.150609 18569 net.cpp:157] Top shape: 5 1024 60 60 (18432000)
I0621 16:07:14.150612 18569 net.cpp:165] Memory required for data: 7823515000
I0621 16:07:14.150616 18569 layer_factory.hpp:77] Creating layer conv4_7/relu
I0621 16:07:14.150622 18569 net.cpp:106] Creating Layer conv4_7/relu
I0621 16:07:14.150625 18569 net.cpp:454] conv4_7/relu <- conv4_7
I0621 16:07:14.150629 18569 net.cpp:397] conv4_7/relu -> conv4_7 (in-place)
I0621 16:07:14.150635 18569 net.cpp:150] Setting up conv4_7/relu
I0621 16:07:14.150638 18569 net.cpp:157] Top shape: 5 1024 60 60 (18432000)
I0621 16:07:14.150641 18569 net.cpp:165] Memory required for data: 7897243000
I0621 16:07:14.150645 18569 layer_factory.hpp:77] Creating layer conv4_7_conv4_7/relu_0_split
I0621 16:07:14.150651 18569 net.cpp:106] Creating Layer conv4_7_conv4_7/relu_0_split
I0621 16:07:14.150655 18569 net.cpp:454] conv4_7_conv4_7/relu_0_split <- conv4_7
I0621 16:07:14.150660 18569 net.cpp:411] conv4_7_conv4_7/relu_0_split -> conv4_7_conv4_7/relu_0_split_0
I0621 16:07:14.150665 18569 net.cpp:411] conv4_7_conv4_7/relu_0_split -> conv4_7_conv4_7/relu_0_split_1
I0621 16:07:14.150689 18569 net.cpp:150] Setting up conv4_7_conv4_7/relu_0_split
I0621 16:07:14.150694 18569 net.cpp:157] Top shape: 5 1024 60 60 (18432000)
I0621 16:07:14.150699 18569 net.cpp:157] Top shape: 5 1024 60 60 (18432000)
I0621 16:07:14.150702 18569 net.cpp:165] Memory required for data: 8044699000
I0621 16:07:14.150705 18569 layer_factory.hpp:77] Creating layer conv4_8_1x1_reduce
I0621 16:07:14.150713 18569 net.cpp:106] Creating Layer conv4_8_1x1_reduce
I0621 16:07:14.150718 18569 net.cpp:454] conv4_8_1x1_reduce <- conv4_7_conv4_7/relu_0_split_0
I0621 16:07:14.150723 18569 net.cpp:411] conv4_8_1x1_reduce -> conv4_8_1x1_reduce
I0621 16:07:14.156267 18569 net.cpp:150] Setting up conv4_8_1x1_reduce
I0621 16:07:14.156277 18569 net.cpp:157] Top shape: 5 256 60 60 (4608000)
I0621 16:07:14.156280 18569 net.cpp:165] Memory required for data: 8063131000
I0621 16:07:14.156286 18569 layer_factory.hpp:77] Creating layer conv4_8_1x1_reduce/bn
I0621 16:07:14.156292 18569 net.cpp:106] Creating Layer conv4_8_1x1_reduce/bn
I0621 16:07:14.156296 18569 net.cpp:454] conv4_8_1x1_reduce/bn <- conv4_8_1x1_reduce
I0621 16:07:14.156302 18569 net.cpp:397] conv4_8_1x1_reduce/bn -> conv4_8_1x1_reduce (in-place)
I0621 16:07:14.156440 18569 net.cpp:150] Setting up conv4_8_1x1_reduce/bn
I0621 16:07:14.156445 18569 net.cpp:157] Top shape: 5 256 60 60 (4608000)
I0621 16:07:14.156448 18569 net.cpp:165] Memory required for data: 8081563000
I0621 16:07:14.156455 18569 layer_factory.hpp:77] Creating layer conv4_8_1x1_reduce/relu
I0621 16:07:14.156461 18569 net.cpp:106] Creating Layer conv4_8_1x1_reduce/relu
I0621 16:07:14.156463 18569 net.cpp:454] conv4_8_1x1_reduce/relu <- conv4_8_1x1_reduce
I0621 16:07:14.156468 18569 net.cpp:397] conv4_8_1x1_reduce/relu -> conv4_8_1x1_reduce (in-place)
I0621 16:07:14.156473 18569 net.cpp:150] Setting up conv4_8_1x1_reduce/relu
I0621 16:07:14.156477 18569 net.cpp:157] Top shape: 5 256 60 60 (4608000)
I0621 16:07:14.156481 18569 net.cpp:165] Memory required for data: 8099995000
I0621 16:07:14.156483 18569 layer_factory.hpp:77] Creating layer conv4_8_3x3
I0621 16:07:14.156489 18569 net.cpp:106] Creating Layer conv4_8_3x3
I0621 16:07:14.156492 18569 net.cpp:454] conv4_8_3x3 <- conv4_8_1x1_reduce
I0621 16:07:14.156497 18569 net.cpp:411] conv4_8_3x3 -> conv4_8_3x3
I0621 16:07:14.169543 18569 net.cpp:150] Setting up conv4_8_3x3
I0621 16:07:14.169569 18569 net.cpp:157] Top shape: 5 256 60 60 (4608000)
I0621 16:07:14.169571 18569 net.cpp:165] Memory required for data: 8118427000
I0621 16:07:14.169581 18569 layer_factory.hpp:77] Creating layer conv4_8_3x3/bn
I0621 16:07:14.169608 18569 net.cpp:106] Creating Layer conv4_8_3x3/bn
I0621 16:07:14.169615 18569 net.cpp:454] conv4_8_3x3/bn <- conv4_8_3x3
I0621 16:07:14.169620 18569 net.cpp:397] conv4_8_3x3/bn -> conv4_8_3x3 (in-place)
I0621 16:07:14.169776 18569 net.cpp:150] Setting up conv4_8_3x3/bn
I0621 16:07:14.169782 18569 net.cpp:157] Top shape: 5 256 60 60 (4608000)
I0621 16:07:14.169785 18569 net.cpp:165] Memory required for data: 8136859000
I0621 16:07:14.169792 18569 layer_factory.hpp:77] Creating layer conv4_8_3x3/relu
I0621 16:07:14.169798 18569 net.cpp:106] Creating Layer conv4_8_3x3/relu
I0621 16:07:14.169801 18569 net.cpp:454] conv4_8_3x3/relu <- conv4_8_3x3
I0621 16:07:14.169806 18569 net.cpp:397] conv4_8_3x3/relu -> conv4_8_3x3 (in-place)
I0621 16:07:14.169811 18569 net.cpp:150] Setting up conv4_8_3x3/relu
I0621 16:07:14.169814 18569 net.cpp:157] Top shape: 5 256 60 60 (4608000)
I0621 16:07:14.169817 18569 net.cpp:165] Memory required for data: 8155291000
I0621 16:07:14.169821 18569 layer_factory.hpp:77] Creating layer conv4_8_1x1_increase
I0621 16:07:14.169828 18569 net.cpp:106] Creating Layer conv4_8_1x1_increase
I0621 16:07:14.169831 18569 net.cpp:454] conv4_8_1x1_increase <- conv4_8_3x3
I0621 16:07:14.169837 18569 net.cpp:411] conv4_8_1x1_increase -> conv4_8_1x1_increase
I0621 16:07:14.176929 18569 net.cpp:150] Setting up conv4_8_1x1_increase
I0621 16:07:14.176981 18569 net.cpp:157] Top shape: 5 1024 60 60 (18432000)
I0621 16:07:14.176987 18569 net.cpp:165] Memory required for data: 8229019000
I0621 16:07:14.177001 18569 layer_factory.hpp:77] Creating layer conv4_8_1x1_increase/bn
I0621 16:07:14.177024 18569 net.cpp:106] Creating Layer conv4_8_1x1_increase/bn
I0621 16:07:14.177036 18569 net.cpp:454] conv4_8_1x1_increase/bn <- conv4_8_1x1_increase
I0621 16:07:14.177048 18569 net.cpp:397] conv4_8_1x1_increase/bn -> conv4_8_1x1_increase (in-place)
I0621 16:07:14.177304 18569 net.cpp:150] Setting up conv4_8_1x1_increase/bn
I0621 16:07:14.177312 18569 net.cpp:157] Top shape: 5 1024 60 60 (18432000)
I0621 16:07:14.177316 18569 net.cpp:165] Memory required for data: 8302747000
I0621 16:07:14.177325 18569 layer_factory.hpp:77] Creating layer conv4_8
I0621 16:07:14.177335 18569 net.cpp:106] Creating Layer conv4_8
I0621 16:07:14.177340 18569 net.cpp:454] conv4_8 <- conv4_7_conv4_7/relu_0_split_1
I0621 16:07:14.177345 18569 net.cpp:454] conv4_8 <- conv4_8_1x1_increase
I0621 16:07:14.177350 18569 net.cpp:411] conv4_8 -> conv4_8
I0621 16:07:14.177387 18569 net.cpp:150] Setting up conv4_8
I0621 16:07:14.177394 18569 net.cpp:157] Top shape: 5 1024 60 60 (18432000)
I0621 16:07:14.177398 18569 net.cpp:165] Memory required for data: 8376475000
I0621 16:07:14.177402 18569 layer_factory.hpp:77] Creating layer conv4_8/relu
I0621 16:07:14.177413 18569 net.cpp:106] Creating Layer conv4_8/relu
I0621 16:07:14.177417 18569 net.cpp:454] conv4_8/relu <- conv4_8
I0621 16:07:14.177423 18569 net.cpp:397] conv4_8/relu -> conv4_8 (in-place)
I0621 16:07:14.177429 18569 net.cpp:150] Setting up conv4_8/relu
I0621 16:07:14.177436 18569 net.cpp:157] Top shape: 5 1024 60 60 (18432000)
I0621 16:07:14.177440 18569 net.cpp:165] Memory required for data: 8450203000
I0621 16:07:14.177445 18569 layer_factory.hpp:77] Creating layer conv4_8_conv4_8/relu_0_split
I0621 16:07:14.177453 18569 net.cpp:106] Creating Layer conv4_8_conv4_8/relu_0_split
I0621 16:07:14.177458 18569 net.cpp:454] conv4_8_conv4_8/relu_0_split <- conv4_8
I0621 16:07:14.177464 18569 net.cpp:411] conv4_8_conv4_8/relu_0_split -> conv4_8_conv4_8/relu_0_split_0
I0621 16:07:14.177470 18569 net.cpp:411] conv4_8_conv4_8/relu_0_split -> conv4_8_conv4_8/relu_0_split_1
I0621 16:07:14.177502 18569 net.cpp:150] Setting up conv4_8_conv4_8/relu_0_split
I0621 16:07:14.177508 18569 net.cpp:157] Top shape: 5 1024 60 60 (18432000)
I0621 16:07:14.177513 18569 net.cpp:157] Top shape: 5 1024 60 60 (18432000)
I0621 16:07:14.177517 18569 net.cpp:165] Memory required for data: 8597659000
I0621 16:07:14.177521 18569 layer_factory.hpp:77] Creating layer conv4_9_1x1_reduce
I0621 16:07:14.177577 18569 net.cpp:106] Creating Layer conv4_9_1x1_reduce
I0621 16:07:14.177582 18569 net.cpp:454] conv4_9_1x1_reduce <- conv4_8_conv4_8/relu_0_split_0
I0621 16:07:14.177587 18569 net.cpp:411] conv4_9_1x1_reduce -> conv4_9_1x1_reduce
I0621 16:07:14.186247 18569 net.cpp:150] Setting up conv4_9_1x1_reduce
I0621 16:07:14.186314 18569 net.cpp:157] Top shape: 5 256 60 60 (4608000)
I0621 16:07:14.186319 18569 net.cpp:165] Memory required for data: 8616091000
I0621 16:07:14.186336 18569 layer_factory.hpp:77] Creating layer conv4_9_1x1_reduce/bn
I0621 16:07:14.186367 18569 net.cpp:106] Creating Layer conv4_9_1x1_reduce/bn
I0621 16:07:14.186379 18569 net.cpp:454] conv4_9_1x1_reduce/bn <- conv4_9_1x1_reduce
I0621 16:07:14.186419 18569 net.cpp:397] conv4_9_1x1_reduce/bn -> conv4_9_1x1_reduce (in-place)
I0621 16:07:14.186707 18569 net.cpp:150] Setting up conv4_9_1x1_reduce/bn
I0621 16:07:14.186714 18569 net.cpp:157] Top shape: 5 256 60 60 (4608000)
I0621 16:07:14.186719 18569 net.cpp:165] Memory required for data: 8634523000
I0621 16:07:14.186799 18569 layer_factory.hpp:77] Creating layer conv4_9_1x1_reduce/relu
I0621 16:07:14.186811 18569 net.cpp:106] Creating Layer conv4_9_1x1_reduce/relu
I0621 16:07:14.186816 18569 net.cpp:454] conv4_9_1x1_reduce/relu <- conv4_9_1x1_reduce
I0621 16:07:14.186822 18569 net.cpp:397] conv4_9_1x1_reduce/relu -> conv4_9_1x1_reduce (in-place)
I0621 16:07:14.186830 18569 net.cpp:150] Setting up conv4_9_1x1_reduce/relu
I0621 16:07:14.186836 18569 net.cpp:157] Top shape: 5 256 60 60 (4608000)
I0621 16:07:14.186839 18569 net.cpp:165] Memory required for data: 8652955000
I0621 16:07:14.186843 18569 layer_factory.hpp:77] Creating layer conv4_9_3x3
I0621 16:07:14.186858 18569 net.cpp:106] Creating Layer conv4_9_3x3
I0621 16:07:14.186862 18569 net.cpp:454] conv4_9_3x3 <- conv4_9_1x1_reduce
I0621 16:07:14.186870 18569 net.cpp:411] conv4_9_3x3 -> conv4_9_3x3
I0621 16:07:14.201395 18569 net.cpp:150] Setting up conv4_9_3x3
I0621 16:07:14.201414 18569 net.cpp:157] Top shape: 5 256 60 60 (4608000)
I0621 16:07:14.201416 18569 net.cpp:165] Memory required for data: 8671387000
I0621 16:07:14.201423 18569 layer_factory.hpp:77] Creating layer conv4_9_3x3/bn
I0621 16:07:14.201431 18569 net.cpp:106] Creating Layer conv4_9_3x3/bn
I0621 16:07:14.201436 18569 net.cpp:454] conv4_9_3x3/bn <- conv4_9_3x3
I0621 16:07:14.201443 18569 net.cpp:397] conv4_9_3x3/bn -> conv4_9_3x3 (in-place)
I0621 16:07:14.201599 18569 net.cpp:150] Setting up conv4_9_3x3/bn
I0621 16:07:14.201606 18569 net.cpp:157] Top shape: 5 256 60 60 (4608000)
I0621 16:07:14.201611 18569 net.cpp:165] Memory required for data: 8689819000
I0621 16:07:14.201617 18569 layer_factory.hpp:77] Creating layer conv4_9_3x3/relu
I0621 16:07:14.201623 18569 net.cpp:106] Creating Layer conv4_9_3x3/relu
I0621 16:07:14.201627 18569 net.cpp:454] conv4_9_3x3/relu <- conv4_9_3x3
I0621 16:07:14.201632 18569 net.cpp:397] conv4_9_3x3/relu -> conv4_9_3x3 (in-place)
I0621 16:07:14.201637 18569 net.cpp:150] Setting up conv4_9_3x3/relu
I0621 16:07:14.201642 18569 net.cpp:157] Top shape: 5 256 60 60 (4608000)
I0621 16:07:14.201644 18569 net.cpp:165] Memory required for data: 8708251000
I0621 16:07:14.201648 18569 layer_factory.hpp:77] Creating layer conv4_9_1x1_increase
I0621 16:07:14.201658 18569 net.cpp:106] Creating Layer conv4_9_1x1_increase
I0621 16:07:14.201661 18569 net.cpp:454] conv4_9_1x1_increase <- conv4_9_3x3
I0621 16:07:14.201668 18569 net.cpp:411] conv4_9_1x1_increase -> conv4_9_1x1_increase
I0621 16:07:14.207998 18569 net.cpp:150] Setting up conv4_9_1x1_increase
I0621 16:07:14.208014 18569 net.cpp:157] Top shape: 5 1024 60 60 (18432000)
I0621 16:07:14.208017 18569 net.cpp:165] Memory required for data: 8781979000
I0621 16:07:14.208025 18569 layer_factory.hpp:77] Creating layer conv4_9_1x1_increase/bn
I0621 16:07:14.208039 18569 net.cpp:106] Creating Layer conv4_9_1x1_increase/bn
I0621 16:07:14.208047 18569 net.cpp:454] conv4_9_1x1_increase/bn <- conv4_9_1x1_increase
I0621 16:07:14.208053 18569 net.cpp:397] conv4_9_1x1_increase/bn -> conv4_9_1x1_increase (in-place)
I0621 16:07:14.208261 18569 net.cpp:150] Setting up conv4_9_1x1_increase/bn
I0621 16:07:14.208267 18569 net.cpp:157] Top shape: 5 1024 60 60 (18432000)
I0621 16:07:14.208271 18569 net.cpp:165] Memory required for data: 8855707000
I0621 16:07:14.208278 18569 layer_factory.hpp:77] Creating layer conv4_9
I0621 16:07:14.208286 18569 net.cpp:106] Creating Layer conv4_9
I0621 16:07:14.208289 18569 net.cpp:454] conv4_9 <- conv4_8_conv4_8/relu_0_split_1
I0621 16:07:14.208293 18569 net.cpp:454] conv4_9 <- conv4_9_1x1_increase
I0621 16:07:14.208297 18569 net.cpp:411] conv4_9 -> conv4_9
I0621 16:07:14.208322 18569 net.cpp:150] Setting up conv4_9
I0621 16:07:14.208326 18569 net.cpp:157] Top shape: 5 1024 60 60 (18432000)
I0621 16:07:14.208329 18569 net.cpp:165] Memory required for data: 8929435000
I0621 16:07:14.208333 18569 layer_factory.hpp:77] Creating layer conv4_9/relu
I0621 16:07:14.208339 18569 net.cpp:106] Creating Layer conv4_9/relu
I0621 16:07:14.208343 18569 net.cpp:454] conv4_9/relu <- conv4_9
I0621 16:07:14.208346 18569 net.cpp:397] conv4_9/relu -> conv4_9 (in-place)
I0621 16:07:14.208351 18569 net.cpp:150] Setting up conv4_9/relu
I0621 16:07:14.208356 18569 net.cpp:157] Top shape: 5 1024 60 60 (18432000)
I0621 16:07:14.208359 18569 net.cpp:165] Memory required for data: 9003163000
I0621 16:07:14.208362 18569 layer_factory.hpp:77] Creating layer conv4_9_conv4_9/relu_0_split
I0621 16:07:14.208367 18569 net.cpp:106] Creating Layer conv4_9_conv4_9/relu_0_split
I0621 16:07:14.208370 18569 net.cpp:454] conv4_9_conv4_9/relu_0_split <- conv4_9
I0621 16:07:14.208376 18569 net.cpp:411] conv4_9_conv4_9/relu_0_split -> conv4_9_conv4_9/relu_0_split_0
I0621 16:07:14.208381 18569 net.cpp:411] conv4_9_conv4_9/relu_0_split -> conv4_9_conv4_9/relu_0_split_1
I0621 16:07:14.208406 18569 net.cpp:150] Setting up conv4_9_conv4_9/relu_0_split
I0621 16:07:14.208410 18569 net.cpp:157] Top shape: 5 1024 60 60 (18432000)
I0621 16:07:14.208413 18569 net.cpp:157] Top shape: 5 1024 60 60 (18432000)
I0621 16:07:14.208415 18569 net.cpp:165] Memory required for data: 9150619000
I0621 16:07:14.208417 18569 layer_factory.hpp:77] Creating layer conv4_10_1x1_reduce
I0621 16:07:14.208425 18569 net.cpp:106] Creating Layer conv4_10_1x1_reduce
I0621 16:07:14.208427 18569 net.cpp:454] conv4_10_1x1_reduce <- conv4_9_conv4_9/relu_0_split_0
I0621 16:07:14.208432 18569 net.cpp:411] conv4_10_1x1_reduce -> conv4_10_1x1_reduce
I0621 16:07:14.214046 18569 net.cpp:150] Setting up conv4_10_1x1_reduce
I0621 16:07:14.214052 18569 net.cpp:157] Top shape: 5 256 60 60 (4608000)
I0621 16:07:14.214054 18569 net.cpp:165] Memory required for data: 9169051000
I0621 16:07:14.214057 18569 layer_factory.hpp:77] Creating layer conv4_10_1x1_reduce/bn
I0621 16:07:14.214063 18569 net.cpp:106] Creating Layer conv4_10_1x1_reduce/bn
I0621 16:07:14.214066 18569 net.cpp:454] conv4_10_1x1_reduce/bn <- conv4_10_1x1_reduce
I0621 16:07:14.214069 18569 net.cpp:397] conv4_10_1x1_reduce/bn -> conv4_10_1x1_reduce (in-place)
I0621 16:07:14.214203 18569 net.cpp:150] Setting up conv4_10_1x1_reduce/bn
I0621 16:07:14.214208 18569 net.cpp:157] Top shape: 5 256 60 60 (4608000)
I0621 16:07:14.214210 18569 net.cpp:165] Memory required for data: 9187483000
I0621 16:07:14.214215 18569 layer_factory.hpp:77] Creating layer conv4_10_1x1_reduce/relu
I0621 16:07:14.214218 18569 net.cpp:106] Creating Layer conv4_10_1x1_reduce/relu
I0621 16:07:14.214221 18569 net.cpp:454] conv4_10_1x1_reduce/relu <- conv4_10_1x1_reduce
I0621 16:07:14.214223 18569 net.cpp:397] conv4_10_1x1_reduce/relu -> conv4_10_1x1_reduce (in-place)
I0621 16:07:14.214226 18569 net.cpp:150] Setting up conv4_10_1x1_reduce/relu
I0621 16:07:14.214228 18569 net.cpp:157] Top shape: 5 256 60 60 (4608000)
I0621 16:07:14.214231 18569 net.cpp:165] Memory required for data: 9205915000
I0621 16:07:14.214232 18569 layer_factory.hpp:77] Creating layer conv4_10_3x3
I0621 16:07:14.214239 18569 net.cpp:106] Creating Layer conv4_10_3x3
I0621 16:07:14.214242 18569 net.cpp:454] conv4_10_3x3 <- conv4_10_1x1_reduce
I0621 16:07:14.214247 18569 net.cpp:411] conv4_10_3x3 -> conv4_10_3x3
I0621 16:07:14.227502 18569 net.cpp:150] Setting up conv4_10_3x3
I0621 16:07:14.227532 18569 net.cpp:157] Top shape: 5 256 60 60 (4608000)
I0621 16:07:14.227535 18569 net.cpp:165] Memory required for data: 9224347000
I0621 16:07:14.227543 18569 layer_factory.hpp:77] Creating layer conv4_10_3x3/bn
I0621 16:07:14.227561 18569 net.cpp:106] Creating Layer conv4_10_3x3/bn
I0621 16:07:14.227567 18569 net.cpp:454] conv4_10_3x3/bn <- conv4_10_3x3
I0621 16:07:14.227573 18569 net.cpp:397] conv4_10_3x3/bn -> conv4_10_3x3 (in-place)
I0621 16:07:14.227744 18569 net.cpp:150] Setting up conv4_10_3x3/bn
I0621 16:07:14.227749 18569 net.cpp:157] Top shape: 5 256 60 60 (4608000)
I0621 16:07:14.227752 18569 net.cpp:165] Memory required for data: 9242779000
I0621 16:07:14.227756 18569 layer_factory.hpp:77] Creating layer conv4_10_3x3/relu
I0621 16:07:14.227761 18569 net.cpp:106] Creating Layer conv4_10_3x3/relu
I0621 16:07:14.227762 18569 net.cpp:454] conv4_10_3x3/relu <- conv4_10_3x3
I0621 16:07:14.227766 18569 net.cpp:397] conv4_10_3x3/relu -> conv4_10_3x3 (in-place)
I0621 16:07:14.227769 18569 net.cpp:150] Setting up conv4_10_3x3/relu
I0621 16:07:14.227771 18569 net.cpp:157] Top shape: 5 256 60 60 (4608000)
I0621 16:07:14.227773 18569 net.cpp:165] Memory required for data: 9261211000
I0621 16:07:14.227776 18569 layer_factory.hpp:77] Creating layer conv4_10_1x1_increase
I0621 16:07:14.227782 18569 net.cpp:106] Creating Layer conv4_10_1x1_increase
I0621 16:07:14.227784 18569 net.cpp:454] conv4_10_1x1_increase <- conv4_10_3x3
I0621 16:07:14.227789 18569 net.cpp:411] conv4_10_1x1_increase -> conv4_10_1x1_increase
I0621 16:07:14.234264 18569 net.cpp:150] Setting up conv4_10_1x1_increase
I0621 16:07:14.234288 18569 net.cpp:157] Top shape: 5 1024 60 60 (18432000)
I0621 16:07:14.234293 18569 net.cpp:165] Memory required for data: 9334939000
I0621 16:07:14.234302 18569 layer_factory.hpp:77] Creating layer conv4_10_1x1_increase/bn
I0621 16:07:14.234318 18569 net.cpp:106] Creating Layer conv4_10_1x1_increase/bn
I0621 16:07:14.234328 18569 net.cpp:454] conv4_10_1x1_increase/bn <- conv4_10_1x1_increase
I0621 16:07:14.234342 18569 net.cpp:397] conv4_10_1x1_increase/bn -> conv4_10_1x1_increase (in-place)
I0621 16:07:14.234560 18569 net.cpp:150] Setting up conv4_10_1x1_increase/bn
I0621 16:07:14.234567 18569 net.cpp:157] Top shape: 5 1024 60 60 (18432000)
I0621 16:07:14.234571 18569 net.cpp:165] Memory required for data: 9408667000
I0621 16:07:14.234580 18569 layer_factory.hpp:77] Creating layer conv4_10
I0621 16:07:14.234588 18569 net.cpp:106] Creating Layer conv4_10
I0621 16:07:14.234593 18569 net.cpp:454] conv4_10 <- conv4_9_conv4_9/relu_0_split_1
I0621 16:07:14.234599 18569 net.cpp:454] conv4_10 <- conv4_10_1x1_increase
I0621 16:07:14.234606 18569 net.cpp:411] conv4_10 -> conv4_10
I0621 16:07:14.234633 18569 net.cpp:150] Setting up conv4_10
I0621 16:07:14.234639 18569 net.cpp:157] Top shape: 5 1024 60 60 (18432000)
I0621 16:07:14.234643 18569 net.cpp:165] Memory required for data: 9482395000
I0621 16:07:14.234647 18569 layer_factory.hpp:77] Creating layer conv4_10/relu
I0621 16:07:14.234655 18569 net.cpp:106] Creating Layer conv4_10/relu
I0621 16:07:14.234659 18569 net.cpp:454] conv4_10/relu <- conv4_10
I0621 16:07:14.234664 18569 net.cpp:397] conv4_10/relu -> conv4_10 (in-place)
I0621 16:07:14.234670 18569 net.cpp:150] Setting up conv4_10/relu
I0621 16:07:14.234676 18569 net.cpp:157] Top shape: 5 1024 60 60 (18432000)
I0621 16:07:14.234679 18569 net.cpp:165] Memory required for data: 9556123000
I0621 16:07:14.234684 18569 layer_factory.hpp:77] Creating layer conv4_10_conv4_10/relu_0_split
I0621 16:07:14.234691 18569 net.cpp:106] Creating Layer conv4_10_conv4_10/relu_0_split
I0621 16:07:14.234695 18569 net.cpp:454] conv4_10_conv4_10/relu_0_split <- conv4_10
I0621 16:07:14.234700 18569 net.cpp:411] conv4_10_conv4_10/relu_0_split -> conv4_10_conv4_10/relu_0_split_0
I0621 16:07:14.234707 18569 net.cpp:411] conv4_10_conv4_10/relu_0_split -> conv4_10_conv4_10/relu_0_split_1
I0621 16:07:14.234740 18569 net.cpp:150] Setting up conv4_10_conv4_10/relu_0_split
I0621 16:07:14.234767 18569 net.cpp:157] Top shape: 5 1024 60 60 (18432000)
I0621 16:07:14.234773 18569 net.cpp:157] Top shape: 5 1024 60 60 (18432000)
I0621 16:07:14.234777 18569 net.cpp:165] Memory required for data: 9703579000
I0621 16:07:14.234781 18569 layer_factory.hpp:77] Creating layer conv4_11_1x1_reduce
I0621 16:07:14.234792 18569 net.cpp:106] Creating Layer conv4_11_1x1_reduce
I0621 16:07:14.234797 18569 net.cpp:454] conv4_11_1x1_reduce <- conv4_10_conv4_10/relu_0_split_0
I0621 16:07:14.234803 18569 net.cpp:411] conv4_11_1x1_reduce -> conv4_11_1x1_reduce
I0621 16:07:14.243227 18569 net.cpp:150] Setting up conv4_11_1x1_reduce
I0621 16:07:14.243301 18569 net.cpp:157] Top shape: 5 256 60 60 (4608000)
I0621 16:07:14.243314 18569 net.cpp:165] Memory required for data: 9722011000
I0621 16:07:14.243336 18569 layer_factory.hpp:77] Creating layer conv4_11_1x1_reduce/bn
I0621 16:07:14.243362 18569 net.cpp:106] Creating Layer conv4_11_1x1_reduce/bn
I0621 16:07:14.243372 18569 net.cpp:454] conv4_11_1x1_reduce/bn <- conv4_11_1x1_reduce
I0621 16:07:14.243388 18569 net.cpp:397] conv4_11_1x1_reduce/bn -> conv4_11_1x1_reduce (in-place)
I0621 16:07:14.243659 18569 net.cpp:150] Setting up conv4_11_1x1_reduce/bn
I0621 16:07:14.243666 18569 net.cpp:157] Top shape: 5 256 60 60 (4608000)
I0621 16:07:14.243671 18569 net.cpp:165] Memory required for data: 9740443000
I0621 16:07:14.243681 18569 layer_factory.hpp:77] Creating layer conv4_11_1x1_reduce/relu
I0621 16:07:14.243692 18569 net.cpp:106] Creating Layer conv4_11_1x1_reduce/relu
I0621 16:07:14.243697 18569 net.cpp:454] conv4_11_1x1_reduce/relu <- conv4_11_1x1_reduce
I0621 16:07:14.243702 18569 net.cpp:397] conv4_11_1x1_reduce/relu -> conv4_11_1x1_reduce (in-place)
I0621 16:07:14.243710 18569 net.cpp:150] Setting up conv4_11_1x1_reduce/relu
I0621 16:07:14.243716 18569 net.cpp:157] Top shape: 5 256 60 60 (4608000)
I0621 16:07:14.243718 18569 net.cpp:165] Memory required for data: 9758875000
I0621 16:07:14.243722 18569 layer_factory.hpp:77] Creating layer conv4_11_3x3
I0621 16:07:14.243737 18569 net.cpp:106] Creating Layer conv4_11_3x3
I0621 16:07:14.243742 18569 net.cpp:454] conv4_11_3x3 <- conv4_11_1x1_reduce
I0621 16:07:14.243752 18569 net.cpp:411] conv4_11_3x3 -> conv4_11_3x3
I0621 16:07:14.259802 18569 net.cpp:150] Setting up conv4_11_3x3
I0621 16:07:14.259831 18569 net.cpp:157] Top shape: 5 256 60 60 (4608000)
I0621 16:07:14.259835 18569 net.cpp:165] Memory required for data: 9777307000
I0621 16:07:14.259841 18569 layer_factory.hpp:77] Creating layer conv4_11_3x3/bn
I0621 16:07:14.259851 18569 net.cpp:106] Creating Layer conv4_11_3x3/bn
I0621 16:07:14.259857 18569 net.cpp:454] conv4_11_3x3/bn <- conv4_11_3x3
I0621 16:07:14.259865 18569 net.cpp:397] conv4_11_3x3/bn -> conv4_11_3x3 (in-place)
I0621 16:07:14.260074 18569 net.cpp:150] Setting up conv4_11_3x3/bn
I0621 16:07:14.260083 18569 net.cpp:157] Top shape: 5 256 60 60 (4608000)
…
I0621 16:07:14.556083 18569 net.cpp:411] conv4_21 -> conv4_21
I0621 16:07:14.556104 18569 net.cpp:150] Setting up conv4_21
I0621 16:07:14.556108 18569 net.cpp:157] Top shape: 5 1024 60 60 (18432000)
I0621 16:07:14.556110 18569 net.cpp:165] Memory required for data: 15564955000
I0621 16:07:14.556113 18569 layer_factory.hpp:77] Creating layer conv4_21/relu
I0621 16:07:14.556119 18569 net.cpp:106] Creating Layer conv4_21/relu
I0621 16:07:14.556121 18569 net.cpp:454] conv4_21/relu <- conv4_21
I0621 16:07:14.556124 18569 net.cpp:397] conv4_21/relu -> conv4_21 (in-place)
I0621 16:07:14.556128 18569 net.cpp:150] Setting up conv4_21/relu
I0621 16:07:14.556130 18569 net.cpp:157] Top shape: 5 1024 60 60 (18432000)
I0621 16:07:14.556133 18569 net.cpp:165] Memory required for data: 15638683000
I0621 16:07:14.556134 18569 layer_factory.hpp:77] Creating layer conv4_21_conv4_21/relu_0_split
I0621 16:07:14.556139 18569 net.cpp:106] Creating Layer conv4_21_conv4_21/relu_0_split
I0621 16:07:14.556162 18569 net.cpp:454] conv4_21_conv4_21/relu_0_split <- conv4_21
I0621 16:07:14.556167 18569 net.cpp:411] conv4_21_conv4_21/relu_0_split -> conv4_21_conv4_21/relu_0_split_0
I0621 16:07:14.556171 18569 net.cpp:411] conv4_21_conv4_21/relu_0_split -> conv4_21_conv4_21/relu_0_split_1
I0621 16:07:14.556197 18569 net.cpp:150] Setting up conv4_21_conv4_21/relu_0_split
I0621 16:07:14.556201 18569 net.cpp:157] Top shape: 5 1024 60 60 (18432000)
I0621 16:07:14.556205 18569 net.cpp:157] Top shape: 5 1024 60 60 (18432000)
I0621 16:07:14.556207 18569 net.cpp:165] Memory required for data: 15786139000
I0621 16:07:14.556210 18569 layer_factory.hpp:77] Creating layer conv4_22_1x1_reduce
I0621 16:07:14.556216 18569 net.cpp:106] Creating Layer conv4_22_1x1_reduce
I0621 16:07:14.556219 18569 net.cpp:454] conv4_22_1x1_reduce <- conv4_21_conv4_21/relu_0_split_0
I0621 16:07:14.556223 18569 net.cpp:411] conv4_22_1x1_reduce -> conv4_22_1x1_reduce
I0621 16:07:14.561919 18569 net.cpp:150] Setting up conv4_22_1x1_reduce
I0621 16:07:14.561929 18569 net.cpp:157] Top shape: 5 256 60 60 (4608000)
I0621 16:07:14.561933 18569 net.cpp:165] Memory required for data: 15804571000
I0621 16:07:14.561936 18569 layer_factory.hpp:77] Creating layer conv4_22_1x1_reduce/bn
I0621 16:07:14.561944 18569 net.cpp:106] Creating Layer conv4_22_1x1_reduce/bn
I0621 16:07:14.561949 18569 net.cpp:454] conv4_22_1x1_reduce/bn <- conv4_22_1x1_reduce
I0621 16:07:14.561952 18569 net.cpp:397] conv4_22_1x1_reduce/bn -> conv4_22_1x1_reduce (in-place)
I0621 16:07:14.562104 18569 net.cpp:150] Setting up conv4_22_1x1_reduce/bn
I0621 16:07:14.562108 18569 net.cpp:157] Top shape: 5 256 60 60 (4608000)
I0621 16:07:14.562111 18569 net.cpp:165] Memory required for data: 15823003000
I0621 16:07:14.562116 18569 layer_factory.hpp:77] Creating layer conv4_22_1x1_reduce/relu
I0621 16:07:14.562121 18569 net.cpp:106] Creating Layer conv4_22_1x1_reduce/relu
I0621 16:07:14.562124 18569 net.cpp:454] conv4_22_1x1_reduce/relu <- conv4_22_1x1_reduce
I0621 16:07:14.562127 18569 net.cpp:397] conv4_22_1x1_reduce/relu -> conv4_22_1x1_reduce (in-place)
I0621 16:07:14.562131 18569 net.cpp:150] Setting up conv4_22_1x1_reduce/relu
I0621 16:07:14.562134 18569 net.cpp:157] Top shape: 5 256 60 60 (4608000)
I0621 16:07:14.562137 18569 net.cpp:165] Memory required for data: 15841435000
I0621 16:07:14.562139 18569 layer_factory.hpp:77] Creating layer conv4_22_3x3
I0621 16:07:14.562146 18569 net.cpp:106] Creating Layer conv4_22_3x3
I0621 16:07:14.562149 18569 net.cpp:454] conv4_22_3x3 <- conv4_22_1x1_reduce
I0621 16:07:14.562153 18569 net.cpp:411] conv4_22_3x3 -> conv4_22_3x3
I0621 16:07:14.577307 18569 net.cpp:150] Setting up conv4_22_3x3
I0621 16:07:14.577389 18569 net.cpp:157] Top shape: 5 256 60 60 (4608000)
I0621 16:07:14.577395 18569 net.cpp:165] Memory required for data: 15859867000
I0621 16:07:14.577411 18569 layer_factory.hpp:77] Creating layer conv4_22_3x3/bn
I0621 16:07:14.577446 18569 net.cpp:106] Creating Layer conv4_22_3x3/bn
I0621 16:07:14.577458 18569 net.cpp:454] conv4_22_3x3/bn <- conv4_22_3x3
I0621 16:07:14.577473 18569 net.cpp:397] conv4_22_3x3/bn -> conv4_22_3x3 (in-place)
I0621 16:07:14.577757 18569 net.cpp:150] Setting up conv4_22_3x3/bn
I0621 16:07:14.577765 18569 net.cpp:157] Top shape: 5 256 60 60 (4608000)
I0621 16:07:14.577769 18569 net.cpp:165] Memory required for data: 15878299000
I0621 16:07:14.577778 18569 layer_factory.hpp:77] Creating layer conv4_22_3x3/relu
I0621 16:07:14.577790 18569 net.cpp:106] Creating Layer conv4_22_3x3/relu
I0621 16:07:14.577793 18569 net.cpp:454] conv4_22_3x3/relu <- conv4_22_3x3
I0621 16:07:14.577798 18569 net.cpp:397] conv4_22_3x3/relu -> conv4_22_3x3 (in-place)
I0621 16:07:14.577805 18569 net.cpp:150] Setting up conv4_22_3x3/relu
I0621 16:07:14.577811 18569 net.cpp:157] Top shape: 5 256 60 60 (4608000)
I0621 16:07:14.577814 18569 net.cpp:165] Memory required for data: 15896731000
I0621 16:07:14.577818 18569 layer_factory.hpp:77] Creating layer conv4_22_1x1_increase
I0621 16:07:14.577828 18569 net.cpp:106] Creating Layer conv4_22_1x1_increase
I0621 16:07:14.577874 18569 net.cpp:454] conv4_22_1x1_increase <- conv4_22_3x3
I0621 16:07:14.577883 18569 net.cpp:411] conv4_22_1x1_increase -> conv4_22_1x1_increase
I0621 16:07:14.586771 18569 net.cpp:150] Setting up conv4_22_1x1_increase
I0621 16:07:14.586796 18569 net.cpp:157] Top shape: 5 1024 60 60 (18432000)
I0621 16:07:14.586799 18569 net.cpp:165] Memory required for data: 15970459000
I0621 16:07:14.586807 18569 layer_factory.hpp:77] Creating layer conv4_22_1x1_increase/bn
I0621 16:07:14.586817 18569 net.cpp:106] Creating Layer conv4_22_1x1_increase/bn
I0621 16:07:14.586822 18569 net.cpp:454] conv4_22_1x1_increase/bn <- conv4_22_1x1_increase
I0621 16:07:14.586827 18569 net.cpp:397] conv4_22_1x1_increase/bn -> conv4_22_1x1_increase (in-place)
I0621 16:07:14.587011 18569 net.cpp:150] Setting up conv4_22_1x1_increase/bn
I0621 16:07:14.587016 18569 net.cpp:157] Top shape: 5 1024 60 60 (18432000)
I0621 16:07:14.587019 18569 net.cpp:165] Memory required for data: 16044187000
I0621 16:07:14.587024 18569 layer_factory.hpp:77] Creating layer conv4_22
I0621 16:07:14.587029 18569 net.cpp:106] Creating Layer conv4_22
I0621 16:07:14.587033 18569 net.cpp:454] conv4_22 <- conv4_21_conv4_21/relu_0_split_1
I0621 16:07:14.587034 18569 net.cpp:454] conv4_22 <- conv4_22_1x1_increase
I0621 16:07:14.587038 18569 net.cpp:411] conv4_22 -> conv4_22
I0621 16:07:14.587059 18569 net.cpp:150] Setting up conv4_22
I0621 16:07:14.587064 18569 net.cpp:157] Top shape: 5 1024 60 60 (18432000)
I0621 16:07:14.587065 18569 net.cpp:165] Memory required for data: 16117915000
I0621 16:07:14.587067 18569 layer_factory.hpp:77] Creating layer conv4_22/relu
I0621 16:07:14.587072 18569 net.cpp:106] Creating Layer conv4_22/relu
I0621 16:07:14.587074 18569 net.cpp:454] conv4_22/relu <- conv4_22
I0621 16:07:14.587077 18569 net.cpp:397] conv4_22/relu -> conv4_22 (in-place)
I0621 16:07:14.587081 18569 net.cpp:150] Setting up conv4_22/relu
I0621 16:07:14.587085 18569 net.cpp:157] Top shape: 5 1024 60 60 (18432000)
I0621 16:07:14.587086 18569 net.cpp:165] Memory required for data: 16191643000
I0621 16:07:14.587087 18569 layer_factory.hpp:77] Creating layer conv4_22_conv4_22/relu_0_split
I0621 16:07:14.587092 18569 net.cpp:106] Creating Layer conv4_22_conv4_22/relu_0_split
I0621 16:07:14.587095 18569 net.cpp:454] conv4_22_conv4_22/relu_0_split <- conv4_22
I0621 16:07:14.587098 18569 net.cpp:411] conv4_22_conv4_22/relu_0_split -> conv4_22_conv4_22/relu_0_split_0
I0621 16:07:14.587102 18569 net.cpp:411] conv4_22_conv4_22/relu_0_split -> conv4_22_conv4_22/relu_0_split_1
I0621 16:07:14.587127 18569 net.cpp:150] Setting up conv4_22_conv4_22/relu_0_split
I0621 16:07:14.587132 18569 net.cpp:157] Top shape: 5 1024 60 60 (18432000)
I0621 16:07:14.587136 18569 net.cpp:157] Top shape: 5 1024 60 60 (18432000)
I0621 16:07:14.587139 18569 net.cpp:165] Memory required for data: 16339099000
I0621 16:07:14.587142 18569 layer_factory.hpp:77] Creating layer conv4_23_1x1_reduce
I0621 16:07:14.587152 18569 net.cpp:106] Creating Layer conv4_23_1x1_reduce
I0621 16:07:14.587154 18569 net.cpp:454] conv4_23_1x1_reduce <- conv4_22_conv4_22/relu_0_split_0
I0621 16:07:14.587159 18569 net.cpp:411] conv4_23_1x1_reduce -> conv4_23_1x1_reduce
I0621 16:07:14.592818 18569 net.cpp:150] Setting up conv4_23_1x1_reduce
I0621 16:07:14.592825 18569 net.cpp:157] Top shape: 5 256 60 60 (4608000)
I0621 16:07:14.592828 18569 net.cpp:165] Memory required for data: 16357531000
I0621 16:07:14.592831 18569 layer_factory.hpp:77] Creating layer conv4_23_1x1_reduce/bn
I0621 16:07:14.592839 18569 net.cpp:106] Creating Layer conv4_23_1x1_reduce/bn
I0621 16:07:14.592841 18569 net.cpp:454] conv4_23_1x1_reduce/bn <- conv4_23_1x1_reduce
I0621 16:07:14.592845 18569 net.cpp:397] conv4_23_1x1_reduce/bn -> conv4_23_1x1_reduce (in-place)
I0621 16:07:14.593021 18569 net.cpp:150] Setting up conv4_23_1x1_reduce/bn
I0621 16:07:14.593026 18569 net.cpp:157] Top shape: 5 256 60 60 (4608000)
I0621 16:07:14.593029 18569 net.cpp:165] Memory required for data: 16375963000
I0621 16:07:14.593050 18569 layer_factory.hpp:77] Creating layer conv4_23_1x1_reduce/relu
I0621 16:07:14.593053 18569 net.cpp:106] Creating Layer conv4_23_1x1_reduce/relu
I0621 16:07:14.593056 18569 net.cpp:454] conv4_23_1x1_reduce/relu <- conv4_23_1x1_reduce
I0621 16:07:14.593060 18569 net.cpp:397] conv4_23_1x1_reduce/relu -> conv4_23_1x1_reduce (in-place)
I0621 16:07:14.593065 18569 net.cpp:150] Setting up conv4_23_1x1_reduce/relu
I0621 16:07:14.593067 18569 net.cpp:157] Top shape: 5 256 60 60 (4608000)
I0621 16:07:14.593070 18569 net.cpp:165] Memory required for data: 16394395000
I0621 16:07:14.593072 18569 layer_factory.hpp:77] Creating layer conv4_23_3x3
I0621 16:07:14.593078 18569 net.cpp:106] Creating Layer conv4_23_3x3
I0621 16:07:14.593081 18569 net.cpp:454] conv4_23_3x3 <- conv4_23_1x1_reduce
I0621 16:07:14.593086 18569 net.cpp:411] conv4_23_3x3 -> conv4_23_3x3
I0621 16:07:14.606781 18569 net.cpp:150] Setting up conv4_23_3x3
I0621 16:07:14.606824 18569 net.cpp:157] Top shape: 5 256 60 60 (4608000)
I0621 16:07:14.606832 18569 net.cpp:165] Memory required for data: 16412827000
I0621 16:07:14.606848 18569 layer_factory.hpp:77] Creating layer conv4_23_3x3/bn
I0621 16:07:14.606870 18569 net.cpp:106] Creating Layer conv4_23_3x3/bn
I0621 16:07:14.606878 18569 net.cpp:454] conv4_23_3x3/bn <- conv4_23_3x3
I0621 16:07:14.606884 18569 net.cpp:397] conv4_23_3x3/bn -> conv4_23_3x3 (in-place)
I0621 16:07:14.607128 18569 net.cpp:150] Setting up conv4_23_3x3/bn
I0621 16:07:14.607137 18569 net.cpp:157] Top shape: 5 256 60 60 (4608000)
I0621 16:07:14.607142 18569 net.cpp:165] Memory required for data: 16431259000
I0621 16:07:14.607151 18569 layer_factory.hpp:77] Creating layer conv4_23_3x3/relu
I0621 16:07:14.607157 18569 net.cpp:106] Creating Layer conv4_23_3x3/relu
I0621 16:07:14.607161 18569 net.cpp:454] conv4_23_3x3/relu <- conv4_23_3x3
I0621 16:07:14.607165 18569 net.cpp:397] conv4_23_3x3/relu -> conv4_23_3x3 (in-place)
I0621 16:07:14.607172 18569 net.cpp:150] Setting up conv4_23_3x3/relu
I0621 16:07:14.607175 18569 net.cpp:157] Top shape: 5 256 60 60 (4608000)
I0621 16:07:14.607178 18569 net.cpp:165] Memory required for data: 16449691000
I0621 16:07:14.607182 18569 layer_factory.hpp:77] Creating layer conv4_23_1x1_increase
I0621 16:07:14.607190 18569 net.cpp:106] Creating Layer conv4_23_1x1_increase
I0621 16:07:14.607195 18569 net.cpp:454] conv4_23_1x1_increase <- conv4_23_3x3
I0621 16:07:14.607203 18569 net.cpp:411] conv4_23_1x1_increase -> conv4_23_1x1_increase
I0621 16:07:14.614867 18569 net.cpp:150] Setting up conv4_23_1x1_increase
I0621 16:07:14.614889 18569 net.cpp:157] Top shape: 5 1024 60 60 (18432000)
I0621 16:07:14.614892 18569 net.cpp:165] Memory required for data: 16523419000
I0621 16:07:14.614899 18569 layer_factory.hpp:77] Creating layer conv4_23_1x1_increase/bn
I0621 16:07:14.614908 18569 net.cpp:106] Creating Layer conv4_23_1x1_increase/bn
I0621 16:07:14.614914 18569 net.cpp:454] conv4_23_1x1_increase/bn <- conv4_23_1x1_increase
I0621 16:07:14.614920 18569 net.cpp:397] conv4_23_1x1_increase/bn -> conv4_23_1x1_increase (in-place)
I0621 16:07:14.615141 18569 net.cpp:150] Setting up conv4_23_1x1_increase/bn
I0621 16:07:14.615149 18569 net.cpp:157] Top shape: 5 1024 60 60 (18432000)
I0621 16:07:14.615151 18569 net.cpp:165] Memory required for data: 16597147000
I0621 16:07:14.615156 18569 layer_factory.hpp:77] Creating layer conv4_23
I0621 16:07:14.615162 18569 net.cpp:106] Creating Layer conv4_23
I0621 16:07:14.615165 18569 net.cpp:454] conv4_23 <- conv4_22_conv4_22/relu_0_split_1
I0621 16:07:14.615169 18569 net.cpp:454] conv4_23 <- conv4_23_1x1_increase
I0621 16:07:14.615172 18569 net.cpp:411] conv4_23 -> conv4_23
I0621 16:07:14.615195 18569 net.cpp:150] Setting up conv4_23
I0621 16:07:14.615200 18569 net.cpp:157] Top shape: 5 1024 60 60 (18432000)
I0621 16:07:14.615201 18569 net.cpp:165] Memory required for data: 16670875000
I0621 16:07:14.615205 18569 layer_factory.hpp:77] Creating layer conv4_23/relu
I0621 16:07:14.615211 18569 net.cpp:106] Creating Layer conv4_23/relu
I0621 16:07:14.615213 18569 net.cpp:454] conv4_23/relu <- conv4_23
I0621 16:07:14.615234 18569 net.cpp:397] conv4_23/relu -> conv4_23 (in-place)
I0621 16:07:14.615241 18569 net.cpp:150] Setting up conv4_23/relu
I0621 16:07:14.615244 18569 net.cpp:157] Top shape: 5 1024 60 60 (18432000)
I0621 16:07:14.615247 18569 net.cpp:165] Memory required for data: 16744603000
I0621 16:07:14.615249 18569 layer_factory.hpp:77] Creating layer conv4_23_conv4_23/relu_0_split
I0621 16:07:14.615253 18569 net.cpp:106] Creating Layer conv4_23_conv4_23/relu_0_split
I0621 16:07:14.615257 18569 net.cpp:454] conv4_23_conv4_23/relu_0_split <- conv4_23
I0621 16:07:14.615260 18569 net.cpp:411] conv4_23_conv4_23/relu_0_split -> conv4_23_conv4_23/relu_0_split_0
I0621 16:07:14.615264 18569 net.cpp:411] conv4_23_conv4_23/relu_0_split -> conv4_23_conv4_23/relu_0_split_1
I0621 16:07:14.615291 18569 net.cpp:150] Setting up conv4_23_conv4_23/relu_0_split
I0621 16:07:14.615295 18569 net.cpp:157] Top shape: 5 1024 60 60 (18432000)
I0621 16:07:14.615298 18569 net.cpp:157] Top shape: 5 1024 60 60 (18432000)
I0621 16:07:14.615301 18569 net.cpp:165] Memory required for data: 16892059000
I0621 16:07:14.615303 18569 layer_factory.hpp:77] Creating layer conv5_1_1x1_reduce
I0621 16:07:14.615314 18569 net.cpp:106] Creating Layer conv5_1_1x1_reduce
I0621 16:07:14.615317 18569 net.cpp:454] conv5_1_1x1_reduce <- conv4_23_conv4_23/relu_0_split_0
I0621 16:07:14.615324 18569 net.cpp:411] conv5_1_1x1_reduce -> conv5_1_1x1_reduce
I0621 16:07:14.631335 18569 net.cpp:150] Setting up conv5_1_1x1_reduce
I0621 16:07:14.631361 18569 net.cpp:157] Top shape: 5 512 60 60 (9216000)
I0621 16:07:14.631366 18569 net.cpp:165] Memory required for data: 16928923000
I0621 16:07:14.631371 18569 layer_factory.hpp:77] Creating layer conv5_1_1x1_reduce/bn
I0621 16:07:14.631386 18569 net.cpp:106] Creating Layer conv5_1_1x1_reduce/bn
I0621 16:07:14.631392 18569 net.cpp:454] conv5_1_1x1_reduce/bn <- conv5_1_1x1_reduce
I0621 16:07:14.631397 18569 net.cpp:397] conv5_1_1x1_reduce/bn -> conv5_1_1x1_reduce (in-place)
I0621 16:07:14.631597 18569 net.cpp:150] Setting up conv5_1_1x1_reduce/bn
I0621 16:07:14.631602 18569 net.cpp:157] Top shape: 5 512 60 60 (9216000)
I0621 16:07:14.631604 18569 net.cpp:165] Memory required for data: 16965787000
I0621 16:07:14.631609 18569 layer_factory.hpp:77] Creating layer conv5_1_1x1_reduce/relu
I0621 16:07:14.631615 18569 net.cpp:106] Creating Layer conv5_1_1x1_reduce/relu
I0621 16:07:14.631618 18569 net.cpp:454] conv5_1_1x1_reduce/relu <- conv5_1_1x1_reduce
I0621 16:07:14.631621 18569 net.cpp:397] conv5_1_1x1_reduce/relu -> conv5_1_1x1_reduce (in-place)
I0621 16:07:14.631626 18569 net.cpp:150] Setting up conv5_1_1x1_reduce/relu
I0621 16:07:14.631629 18569 net.cpp:157] Top shape: 5 512 60 60 (9216000)
I0621 16:07:14.631633 18569 net.cpp:165] Memory required for data: 17002651000
I0621 16:07:14.631634 18569 layer_factory.hpp:77] Creating layer conv5_1_3x3
I0621 16:07:14.631641 18569 net.cpp:106] Creating Layer conv5_1_3x3
I0621 16:07:14.631644 18569 net.cpp:454] conv5_1_3x3 <- conv5_1_1x1_reduce
I0621 16:07:14.631649 18569 net.cpp:411] conv5_1_3x3 -> conv5_1_3x3
I0621 16:07:14.689750 18569 net.cpp:150] Setting up conv5_1_3x3
I0621 16:07:14.689817 18569 net.cpp:157] Top shape: 5 512 60 60 (9216000)
I0621 16:07:14.689822 18569 net.cpp:165] Memory required for data: 17039515000
I0621 16:07:14.689833 18569 layer_factory.hpp:77] Creating layer conv5_1_3x3/bn
I0621 16:07:14.689852 18569 net.cpp:106] Creating Layer conv5_1_3x3/bn
I0621 16:07:14.689862 18569 net.cpp:454] conv5_1_3x3/bn <- conv5_1_3x3
I0621 16:07:14.689872 18569 net.cpp:397] conv5_1_3x3/bn -> conv5_1_3x3 (in-place)
I0621 16:07:14.690124 18569 net.cpp:150] Setting up conv5_1_3x3/bn
I0621 16:07:14.690129 18569 net.cpp:157] Top shape: 5 512 60 60 (9216000)
I0621 16:07:14.690135 18569 net.cpp:165] Memory required for data: 17076379000
I0621 16:07:14.690141 18569 layer_factory.hpp:77] Creating layer conv5_1_3x3/relu
I0621 16:07:14.690152 18569 net.cpp:106] Creating Layer conv5_1_3x3/relu
I0621 16:07:14.690155 18569 net.cpp:454] conv5_1_3x3/relu <- conv5_1_3x3
I0621 16:07:14.690202 18569 net.cpp:397] conv5_1_3x3/relu -> conv5_1_3x3 (in-place)
I0621 16:07:14.690209 18569 net.cpp:150] Setting up conv5_1_3x3/relu
I0621 16:07:14.690214 18569 net.cpp:157] Top shape: 5 512 60 60 (9216000)
I0621 16:07:14.690217 18569 net.cpp:165] Memory required for data: 17113243000
I0621 16:07:14.690220 18569 layer_factory.hpp:77] Creating layer conv5_1_1x1_increase
I0621 16:07:14.690232 18569 net.cpp:106] Creating Layer conv5_1_1x1_increase
I0621 16:07:14.690234 18569 net.cpp:454] conv5_1_1x1_increase <- conv5_1_3x3
I0621 16:07:14.690240 18569 net.cpp:411] conv5_1_1x1_increase -> conv5_1_1x1_increase
I0621 16:07:14.716078 18569 net.cpp:150] Setting up conv5_1_1x1_increase
I0621 16:07:14.716109 18569 net.cpp:157] Top shape: 5 2048 60 60 (36864000)
I0621 16:07:14.716112 18569 net.cpp:165] Memory required for data: 17260699000
I0621 16:07:14.716120 18569 layer_factory.hpp:77] Creating layer conv5_1_1x1_increase/bn
I0621 16:07:14.716128 18569 net.cpp:106] Creating Layer conv5_1_1x1_increase/bn
I0621 16:07:14.716133 18569 net.cpp:454] conv5_1_1x1_increase/bn <- conv5_1_1x1_increase
I0621 16:07:14.716141 18569 net.cpp:397] conv5_1_1x1_increase/bn -> conv5_1_1x1_increase (in-place)
I0621 16:07:14.716326 18569 net.cpp:150] Setting up conv5_1_1x1_increase/bn
I0621 16:07:14.716333 18569 net.cpp:157] Top shape: 5 2048 60 60 (36864000)
I0621 16:07:14.716336 18569 net.cpp:165] Memory required for data: 17408155000
I0621 16:07:14.716343 18569 layer_factory.hpp:77] Creating layer conv5_1_1x1_proj
I0621 16:07:14.716353 18569 net.cpp:106] Creating Layer conv5_1_1x1_proj
I0621 16:07:14.716362 18569 net.cpp:454] conv5_1_1x1_proj <- conv4_23_conv4_23/relu_0_split_1
I0621 16:07:14.716367 18569 net.cpp:411] conv5_1_1x1_proj -> conv5_1_1x1_proj
I0621 16:07:14.762737 18569 net.cpp:150] Setting up conv5_1_1x1_proj
I0621 16:07:14.762764 18569 net.cpp:157] Top shape: 5 2048 60 60 (36864000)
I0621 16:07:14.762768 18569 net.cpp:165] Memory required for data: 17555611000
I0621 16:07:14.762780 18569 layer_factory.hpp:77] Creating layer conv5_1_1x1_proj/bn
I0621 16:07:14.762796 18569 net.cpp:106] Creating Layer conv5_1_1x1_proj/bn
I0621 16:07:14.762804 18569 net.cpp:454] conv5_1_1x1_proj/bn <- conv5_1_1x1_proj
I0621 16:07:14.762811 18569 net.cpp:397] conv5_1_1x1_proj/bn -> conv5_1_1x1_proj (in-place)
I0621 16:07:14.762990 18569 net.cpp:150] Setting up conv5_1_1x1_proj/bn
I0621 16:07:14.762995 18569 net.cpp:157] Top shape: 5 2048 60 60 (36864000)
I0621 16:07:14.762998 18569 net.cpp:165] Memory required for data: 17703067000
I0621 16:07:14.763005 18569 layer_factory.hpp:77] Creating layer conv5_1
I0621 16:07:14.763010 18569 net.cpp:106] Creating Layer conv5_1
I0621 16:07:14.763012 18569 net.cpp:454] conv5_1 <- conv5_1_1x1_proj
I0621 16:07:14.763016 18569 net.cpp:454] conv5_1 <- conv5_1_1x1_increase
I0621 16:07:14.763020 18569 net.cpp:411] conv5_1 -> conv5_1
I0621 16:07:14.763047 18569 net.cpp:150] Setting up conv5_1
I0621 16:07:14.763051 18569 net.cpp:157] Top shape: 5 2048 60 60 (36864000)
I0621 16:07:14.763056 18569 net.cpp:165] Memory required for data: 17850523000
I0621 16:07:14.763061 18569 layer_factory.hpp:77] Creating layer conv5_1/relu
I0621 16:07:14.763067 18569 net.cpp:106] Creating Layer conv5_1/relu
I0621 16:07:14.763069 18569 net.cpp:454] conv5_1/relu <- conv5_1
I0621 16:07:14.763074 18569 net.cpp:397] conv5_1/relu -> conv5_1 (in-place)
I0621 16:07:14.763078 18569 net.cpp:150] Setting up conv5_1/relu
I0621 16:07:14.763082 18569 net.cpp:157] Top shape: 5 2048 60 60 (36864000)
I0621 16:07:14.763084 18569 net.cpp:165] Memory required for data: 17997979000
I0621 16:07:14.763087 18569 layer_factory.hpp:77] Creating layer conv5_1_conv5_1/relu_0_split
I0621 16:07:14.763092 18569 net.cpp:106] Creating Layer conv5_1_conv5_1/relu_0_split
I0621 16:07:14.763094 18569 net.cpp:454] conv5_1_conv5_1/relu_0_split <- conv5_1
I0621 16:07:14.763098 18569 net.cpp:411] conv5_1_conv5_1/relu_0_split -> conv5_1_conv5_1/relu_0_split_0
I0621 16:07:14.763103 18569 net.cpp:411] conv5_1_conv5_1/relu_0_split -> conv5_1_conv5_1/relu_0_split_1
I0621 16:07:14.763145 18569 net.cpp:150] Setting up conv5_1_conv5_1/relu_0_split
I0621 16:07:14.763150 18569 net.cpp:157] Top shape: 5 2048 60 60 (36864000)
I0621 16:07:14.763154 18569 net.cpp:157] Top shape: 5 2048 60 60 (36864000)
I0621 16:07:14.763156 18569 net.cpp:165] Memory required for data: 18292891000
I0621 16:07:14.763159 18569 layer_factory.hpp:77] Creating layer conv5_2_1x1_reduce
I0621 16:07:14.763169 18569 net.cpp:106] Creating Layer conv5_2_1x1_reduce
I0621 16:07:14.763171 18569 net.cpp:454] conv5_2_1x1_reduce <- conv5_1_conv5_1/relu_0_split_0
I0621 16:07:14.763176 18569 net.cpp:411] conv5_2_1x1_reduce -> conv5_2_1x1_reduce
I0621 16:07:14.786254 18569 net.cpp:150] Setting up conv5_2_1x1_reduce
I0621 16:07:14.786308 18569 net.cpp:157] Top shape: 5 512 60 60 (9216000)
I0621 16:07:14.786311 18569 net.cpp:165] Memory required for data: 18329755000
I0621 16:07:14.786324 18569 layer_factory.hpp:77] Creating layer conv5_2_1x1_reduce/bn
I0621 16:07:14.786347 18569 net.cpp:106] Creating Layer conv5_2_1x1_reduce/bn
I0621 16:07:14.786355 18569 net.cpp:454] conv5_2_1x1_reduce/bn <- conv5_2_1x1_reduce
I0621 16:07:14.786365 18569 net.cpp:397] conv5_2_1x1_reduce/bn -> conv5_2_1x1_reduce (in-place)
I0621 16:07:14.786600 18569 net.cpp:150] Setting up conv5_2_1x1_reduce/bn
I0621 16:07:14.786605 18569 net.cpp:157] Top shape: 5 512 60 60 (9216000)
I0621 16:07:14.786607 18569 net.cpp:165] Memory required for data: 18366619000
I0621 16:07:14.786612 18569 layer_factory.hpp:77] Creating layer conv5_2_1x1_reduce/relu
I0621 16:07:14.786617 18569 net.cpp:106] Creating Layer conv5_2_1x1_reduce/relu
I0621 16:07:14.786619 18569 net.cpp:454] conv5_2_1x1_reduce/relu <- conv5_2_1x1_reduce
I0621 16:07:14.786623 18569 net.cpp:397] conv5_2_1x1_reduce/relu -> conv5_2_1x1_reduce (in-place)
I0621 16:07:14.786626 18569 net.cpp:150] Setting up conv5_2_1x1_reduce/relu
I0621 16:07:14.786629 18569 net.cpp:157] Top shape: 5 512 60 60 (9216000)
I0621 16:07:14.786630 18569 net.cpp:165] Memory required for data: 18403483000
I0621 16:07:14.786634 18569 layer_factory.hpp:77] Creating layer conv5_2_3x3
I0621 16:07:14.786640 18569 net.cpp:106] Creating Layer conv5_2_3x3
I0621 16:07:14.786643 18569 net.cpp:454] conv5_2_3x3 <- conv5_2_1x1_reduce
I0621 16:07:14.786648 18569 net.cpp:411] conv5_2_3x3 -> conv5_2_3x3
I0621 16:07:14.838294 18569 net.cpp:150] Setting up conv5_2_3x3
I0621 16:07:14.838331 18569 net.cpp:157] Top shape: 5 512 60 60 (9216000)
I0621 16:07:14.838336 18569 net.cpp:165] Memory required for data: 18440347000
I0621 16:07:14.838349 18569 layer_factory.hpp:77] Creating layer conv5_2_3x3/bn
I0621 16:07:14.838371 18569 net.cpp:106] Creating Layer conv5_2_3x3/bn
I0621 16:07:14.838378 18569 net.cpp:454] conv5_2_3x3/bn <- conv5_2_3x3
I0621 16:07:14.838388 18569 net.cpp:397] conv5_2_3x3/bn -> conv5_2_3x3 (in-place)
I0621 16:07:14.838618 18569 net.cpp:150] Setting up conv5_2_3x3/bn
I0621 16:07:14.838624 18569 net.cpp:157] Top shape: 5 512 60 60 (9216000)
I0621 16:07:14.838625 18569 net.cpp:165] Memory required for data: 18477211000
I0621 16:07:14.838631 18569 layer_factory.hpp:77] Creating layer conv5_2_3x3/relu
I0621 16:07:14.838637 18569 net.cpp:106] Creating Layer conv5_2_3x3/relu
I0621 16:07:14.838639 18569 net.cpp:454] conv5_2_3x3/relu <- conv5_2_3x3
I0621 16:07:14.838644 18569 net.cpp:397] conv5_2_3x3/relu -> conv5_2_3x3 (in-place)
I0621 16:07:14.838649 18569 net.cpp:150] Setting up conv5_2_3x3/relu
I0621 16:07:14.838654 18569 net.cpp:157] Top shape: 5 512 60 60 (9216000)
I0621 16:07:14.838656 18569 net.cpp:165] Memory required for data: 18514075000
I0621 16:07:14.838660 18569 layer_factory.hpp:77] Creating layer conv5_2_1x1_increase
I0621 16:07:14.838668 18569 net.cpp:106] Creating Layer conv5_2_1x1_increase
I0621 16:07:14.838671 18569 net.cpp:454] conv5_2_1x1_increase <- conv5_2_3x3
I0621 16:07:14.838675 18569 net.cpp:411] conv5_2_1x1_increase -> conv5_2_1x1_increase
I0621 16:07:14.863093 18569 net.cpp:150] Setting up conv5_2_1x1_increase
I0621 16:07:14.863178 18569 net.cpp:157] Top shape: 5 2048 60 60 (36864000)
I0621 16:07:14.863188 18569 net.cpp:165] Memory required for data: 18661531000
I0621 16:07:14.863256 18569 layer_factory.hpp:77] Creating layer conv5_2_1x1_increase/bn
I0621 16:07:14.863276 18569 net.cpp:106] Creating Layer conv5_2_1x1_increase/bn
I0621 16:07:14.863287 18569 net.cpp:454] conv5_2_1x1_increase/bn <- conv5_2_1x1_increase
I0621 16:07:14.863298 18569 net.cpp:397] conv5_2_1x1_increase/bn -> conv5_2_1x1_increase (in-place)
I0621 16:07:14.863559 18569 net.cpp:150] Setting up conv5_2_1x1_increase/bn
I0621 16:07:14.863565 18569 net.cpp:157] Top shape: 5 2048 60 60 (36864000)
I0621 16:07:14.863567 18569 net.cpp:165] Memory required for data: 18808987000
I0621 16:07:14.863677 18569 layer_factory.hpp:77] Creating layer conv5_2
I0621 16:07:14.863685 18569 net.cpp:106] Creating Layer conv5_2
I0621 16:07:14.863689 18569 net.cpp:454] conv5_2 <- conv5_1_conv5_1/relu_0_split_1
I0621 16:07:14.863693 18569 net.cpp:454] conv5_2 <- conv5_2_1x1_increase
I0621 16:07:14.863698 18569 net.cpp:411] conv5_2 -> conv5_2
I0621 16:07:14.863731 18569 net.cpp:150] Setting up conv5_2
I0621 16:07:14.863736 18569 net.cpp:157] Top shape: 5 2048 60 60 (36864000)
I0621 16:07:14.863739 18569 net.cpp:165] Memory required for data: 18956443000
I0621 16:07:14.863742 18569 layer_factory.hpp:77] Creating layer conv5_2/relu
I0621 16:07:14.863749 18569 net.cpp:106] Creating Layer conv5_2/relu
I0621 16:07:14.863752 18569 net.cpp:454] conv5_2/relu <- conv5_2
I0621 16:07:14.863759 18569 net.cpp:397] conv5_2/relu -> conv5_2 (in-place)
I0621 16:07:14.863765 18569 net.cpp:150] Setting up conv5_2/relu
I0621 16:07:14.863767 18569 net.cpp:157] Top shape: 5 2048 60 60 (36864000)
I0621 16:07:14.863770 18569 net.cpp:165] Memory required for data: 19103899000
I0621 16:07:14.863773 18569 layer_factory.hpp:77] Creating layer conv5_2_conv5_2/relu_0_split
I0621 16:07:14.863780 18569 net.cpp:106] Creating Layer conv5_2_conv5_2/relu_0_split
I0621 16:07:14.863783 18569 net.cpp:454] conv5_2_conv5_2/relu_0_split <- conv5_2
I0621 16:07:14.863787 18569 net.cpp:411] conv5_2_conv5_2/relu_0_split -> conv5_2_conv5_2/relu_0_split_0
I0621 16:07:14.863792 18569 net.cpp:411] conv5_2_conv5_2/relu_0_split -> conv5_2_conv5_2/relu_0_split_1
I0621 16:07:14.863821 18569 net.cpp:150] Setting up conv5_2_conv5_2/relu_0_split
I0621 16:07:14.863826 18569 net.cpp:157] Top shape: 5 2048 60 60 (36864000)
I0621 16:07:14.863828 18569 net.cpp:157] Top shape: 5 2048 60 60 (36864000)
I0621 16:07:14.863831 18569 net.cpp:165] Memory required for data: 19398811000
I0621 16:07:14.863834 18569 layer_factory.hpp:77] Creating layer conv5_3_1x1_reduce
I0621 16:07:14.863844 18569 net.cpp:106] Creating Layer conv5_3_1x1_reduce
I0621 16:07:14.863848 18569 net.cpp:454] conv5_3_1x1_reduce <- conv5_2_conv5_2/relu_0_split_0
I0621 16:07:14.863853 18569 net.cpp:411] conv5_3_1x1_reduce -> conv5_3_1x1_reduce
I0621 16:07:14.888262 18569 net.cpp:150] Setting up conv5_3_1x1_reduce
I0621 16:07:14.888286 18569 net.cpp:157] Top shape: 5 512 60 60 (9216000)
I0621 16:07:14.888289 18569 net.cpp:165] Memory required for data: 19435675000
I0621 16:07:14.888296 18569 layer_factory.hpp:77] Creating layer conv5_3_1x1_reduce/bn
I0621 16:07:14.888309 18569 net.cpp:106] Creating Layer conv5_3_1x1_reduce/bn
I0621 16:07:14.888317 18569 net.cpp:454] conv5_3_1x1_reduce/bn <- conv5_3_1x1_reduce
I0621 16:07:14.888324 18569 net.cpp:397] conv5_3_1x1_reduce/bn -> conv5_3_1x1_reduce (in-place)
I0621 16:07:14.888504 18569 net.cpp:150] Setting up conv5_3_1x1_reduce/bn
I0621 16:07:14.888507 18569 net.cpp:157] Top shape: 5 512 60 60 (9216000)
I0621 16:07:14.888510 18569 net.cpp:165] Memory required for data: 19472539000
I0621 16:07:14.888514 18569 layer_factory.hpp:77] Creating layer conv5_3_1x1_reduce/relu
I0621 16:07:14.888520 18569 net.cpp:106] Creating Layer conv5_3_1x1_reduce/relu
I0621 16:07:14.888521 18569 net.cpp:454] conv5_3_1x1_reduce/relu <- conv5_3_1x1_reduce
I0621 16:07:14.888525 18569 net.cpp:397] conv5_3_1x1_reduce/relu -> conv5_3_1x1_reduce (in-place)
I0621 16:07:14.888528 18569 net.cpp:150] Setting up conv5_3_1x1_reduce/relu
I0621 16:07:14.888532 18569 net.cpp:157] Top shape: 5 512 60 60 (9216000)
I0621 16:07:14.888550 18569 net.cpp:165] Memory required for data: 19509403000
I0621 16:07:14.888552 18569 layer_factory.hpp:77] Creating layer conv5_3_3x3
I0621 16:07:14.888558 18569 net.cpp:106] Creating Layer conv5_3_3x3
I0621 16:07:14.888561 18569 net.cpp:454] conv5_3_3x3 <- conv5_3_1x1_reduce
I0621 16:07:14.888564 18569 net.cpp:411] conv5_3_3x3 -> conv5_3_3x3
I0621 16:07:14.940500 18569 net.cpp:150] Setting up conv5_3_3x3
I0621 16:07:14.940522 18569 net.cpp:157] Top shape: 5 512 60 60 (9216000)
I0621 16:07:14.940526 18569 net.cpp:165] Memory required for data: 19546267000
I0621 16:07:14.940531 18569 layer_factory.hpp:77] Creating layer conv5_3_3x3/bn
I0621 16:07:14.940541 18569 net.cpp:106] Creating Layer conv5_3_3x3/bn
I0621 16:07:14.940547 18569 net.cpp:454] conv5_3_3x3/bn <- conv5_3_3x3
I0621 16:07:14.940553 18569 net.cpp:397] conv5_3_3x3/bn -> conv5_3_3x3 (in-place)
I0621 16:07:14.940747 18569 net.cpp:150] Setting up conv5_3_3x3/bn
I0621 16:07:14.940752 18569 net.cpp:157] Top shape: 5 512 60 60 (9216000)
I0621 16:07:14.940755 18569 net.cpp:165] Memory required for data: 19583131000
I0621 16:07:14.940760 18569 layer_factory.hpp:77] Creating layer conv5_3_3x3/relu
I0621 16:07:14.940765 18569 net.cpp:106] Creating Layer conv5_3_3x3/relu
I0621 16:07:14.940768 18569 net.cpp:454] conv5_3_3x3/relu <- conv5_3_3x3
I0621 16:07:14.940771 18569 net.cpp:397] conv5_3_3x3/relu -> conv5_3_3x3 (in-place)
I0621 16:07:14.940775 18569 net.cpp:150] Setting up conv5_3_3x3/relu
I0621 16:07:14.940779 18569 net.cpp:157] Top shape: 5 512 60 60 (9216000)
I0621 16:07:14.940781 18569 net.cpp:165] Memory required for data: 19619995000
I0621 16:07:14.940784 18569 layer_factory.hpp:77] Creating layer conv5_3_1x1_increase
I0621 16:07:14.940793 18569 net.cpp:106] Creating Layer conv5_3_1x1_increase
I0621 16:07:14.940796 18569 net.cpp:454] conv5_3_1x1_increase <- conv5_3_3x3
I0621 16:07:14.940800 18569 net.cpp:411] conv5_3_1x1_increase -> conv5_3_1x1_increase
I0621 16:07:14.963814 18569 net.cpp:150] Setting up conv5_3_1x1_increase
I0621 16:07:14.963838 18569 net.cpp:157] Top shape: 5 2048 60 60 (36864000)
I0621 16:07:14.963840 18569 net.cpp:165] Memory required for data: 19767451000
I0621 16:07:14.963846 18569 layer_factory.hpp:77] Creating layer conv5_3_1x1_increase/bn
I0621 16:07:14.963856 18569 net.cpp:106] Creating Layer conv5_3_1x1_increase/bn
I0621 16:07:14.963860 18569 net.cpp:454] conv5_3_1x1_increase/bn <- conv5_3_1x1_increase
I0621 16:07:14.963865 18569 net.cpp:397] conv5_3_1x1_increase/bn -> conv5_3_1x1_increase (in-place)
I0621 16:07:14.964057 18569 net.cpp:150] Setting up conv5_3_1x1_increase/bn
I0621 16:07:14.964062 18569 net.cpp:157] Top shape: 5 2048 60 60 (36864000)
I0621 16:07:14.964064 18569 net.cpp:165] Memory required for data: 19914907000
I0621 16:07:14.964069 18569 layer_factory.hpp:77] Creating layer conv5_3
I0621 16:07:14.964073 18569 net.cpp:106] Creating Layer conv5_3
I0621 16:07:14.964076 18569 net.cpp:454] conv5_3 <- conv5_2_conv5_2/relu_0_split_1
I0621 16:07:14.964078 18569 net.cpp:454] conv5_3 <- conv5_3_1x1_increase
I0621 16:07:14.964082 18569 net.cpp:411] conv5_3 -> conv5_3
I0621 16:07:14.964103 18569 net.cpp:150] Setting up conv5_3
I0621 16:07:14.964107 18569 net.cpp:157] Top shape: 5 2048 60 60 (36864000)
I0621 16:07:14.964108 18569 net.cpp:165] Memory required for data: 20062363000
I0621 16:07:14.964110 18569 layer_factory.hpp:77] Creating layer conv5_3/relu
I0621 16:07:14.964114 18569 net.cpp:106] Creating Layer conv5_3/relu
I0621 16:07:14.964117 18569 net.cpp:454] conv5_3/relu <- conv5_3
I0621 16:07:14.964120 18569 net.cpp:397] conv5_3/relu -> conv5_3 (in-place)
I0621 16:07:14.964124 18569 net.cpp:150] Setting up conv5_3/relu
I0621 16:07:14.964126 18569 net.cpp:157] Top shape: 5 2048 60 60 (36864000)
I0621 16:07:14.964128 18569 net.cpp:165] Memory required for data: 20209819000
I0621 16:07:14.964130 18569 layer_factory.hpp:77] Creating layer conv5_3_conv5_3/relu_0_split
I0621 16:07:14.964134 18569 net.cpp:106] Creating Layer conv5_3_conv5_3/relu_0_split
I0621 16:07:14.964136 18569 net.cpp:454] conv5_3_conv5_3/relu_0_split <- conv5_3
I0621 16:07:14.964159 18569 net.cpp:411] conv5_3_conv5_3/relu_0_split -> conv5_3_conv5_3/relu_0_split_0
I0621 16:07:14.964164 18569 net.cpp:411] conv5_3_conv5_3/relu_0_split -> conv5_3_conv5_3/relu_0_split_1
I0621 16:07:14.964170 18569 net.cpp:411] conv5_3_conv5_3/relu_0_split -> conv5_3_conv5_3/relu_0_split_2
I0621 16:07:14.964175 18569 net.cpp:411] conv5_3_conv5_3/relu_0_split -> conv5_3_conv5_3/relu_0_split_3
I0621 16:07:14.964179 18569 net.cpp:411] conv5_3_conv5_3/relu_0_split -> conv5_3_conv5_3/relu_0_split_4
I0621 16:07:14.964232 18569 net.cpp:150] Setting up conv5_3_conv5_3/relu_0_split
I0621 16:07:14.964236 18569 net.cpp:157] Top shape: 5 2048 60 60 (36864000)
I0621 16:07:14.964239 18569 net.cpp:157] Top shape: 5 2048 60 60 (36864000)
I0621 16:07:14.964241 18569 net.cpp:157] Top shape: 5 2048 60 60 (36864000)
I0621 16:07:14.964244 18569 net.cpp:157] Top shape: 5 2048 60 60 (36864000)
I0621 16:07:14.964246 18569 net.cpp:157] Top shape: 5 2048 60 60 (36864000)
I0621 16:07:14.964248 18569 net.cpp:165] Memory required for data: 20947099000
I0621 16:07:14.964251 18569 layer_factory.hpp:77] Creating layer conv5_3_pool1
I0621 16:07:14.964256 18569 net.cpp:106] Creating Layer conv5_3_pool1
I0621 16:07:14.964257 18569 net.cpp:454] conv5_3_pool1 <- conv5_3_conv5_3/relu_0_split_0
I0621 16:07:14.964260 18569 net.cpp:411] conv5_3_pool1 -> conv5_3_pool1
I0621 16:07:14.964277 18569 net.cpp:150] Setting up conv5_3_pool1
I0621 16:07:14.964282 18569 net.cpp:157] Top shape: 5 2048 1 1 (10240)
I0621 16:07:14.964283 18569 net.cpp:165] Memory required for data: 20947139960
I0621 16:07:14.964285 18569 layer_factory.hpp:77] Creating layer conv5_3_pool1_conv
I0621 16:07:14.964292 18569 net.cpp:106] Creating Layer conv5_3_pool1_conv
I0621 16:07:14.964294 18569 net.cpp:454] conv5_3_pool1_conv <- conv5_3_pool1
I0621 16:07:14.964298 18569 net.cpp:411] conv5_3_pool1_conv -> conv5_3_pool1_conv
I0621 16:07:14.987529 18569 net.cpp:150] Setting up conv5_3_pool1_conv
I0621 16:07:14.987560 18569 net.cpp:157] Top shape: 5 512 1 1 (2560)
I0621 16:07:14.987563 18569 net.cpp:165] Memory required for data: 20947150200
I0621 16:07:14.987576 18569 layer_factory.hpp:77] Creating layer conv5_3_pool1_conv/bn
I0621 16:07:14.987592 18569 net.cpp:106] Creating Layer conv5_3_pool1_conv/bn
I0621 16:07:14.987599 18569 net.cpp:454] conv5_3_pool1_conv/bn <- conv5_3_pool1_conv
I0621 16:07:14.987604 18569 net.cpp:397] conv5_3_pool1_conv/bn -> conv5_3_pool1_conv (in-place)
I0621 16:07:14.987778 18569 net.cpp:150] Setting up conv5_3_pool1_conv/bn
I0621 16:07:14.987783 18569 net.cpp:157] Top shape: 5 512 1 1 (2560)
I0621 16:07:14.987785 18569 net.cpp:165] Memory required for data: 20947160440
I0621 16:07:14.987792 18569 layer_factory.hpp:77] Creating layer conv5_3_pool1_conv/relu
I0621 16:07:14.987797 18569 net.cpp:106] Creating Layer conv5_3_pool1_conv/relu
I0621 16:07:14.987799 18569 net.cpp:454] conv5_3_pool1_conv/relu <- conv5_3_pool1_conv
I0621 16:07:14.987802 18569 net.cpp:397] conv5_3_pool1_conv/relu -> conv5_3_pool1_conv (in-place)
I0621 16:07:14.987807 18569 net.cpp:150] Setting up conv5_3_pool1_conv/relu
I0621 16:07:14.987810 18569 net.cpp:157] Top shape: 5 512 1 1 (2560)
I0621 16:07:14.987812 18569 net.cpp:165] Memory required for data: 20947170680
I0621 16:07:14.987815 18569 layer_factory.hpp:77] Creating layer conv5_3_pool1_interp
I0621 16:07:14.987828 18569 net.cpp:106] Creating Layer conv5_3_pool1_interp
I0621 16:07:14.987830 18569 net.cpp:454] conv5_3_pool1_interp <- conv5_3_pool1_conv
I0621 16:07:14.987834 18569 net.cpp:411] conv5_3_pool1_interp -> conv5_3_pool1_interp
I0621 16:07:14.987869 18569 net.cpp:150] Setting up conv5_3_pool1_interp
I0621 16:07:14.987874 18569 net.cpp:157] Top shape: 5 512 60 60 (9216000)
I0621 16:07:14.987876 18569 net.cpp:165] Memory required for data: 20984034680
I0621 16:07:14.987879 18569 layer_factory.hpp:77] Creating layer conv5_3_pool2
I0621 16:07:14.987884 18569 net.cpp:106] Creating Layer conv5_3_pool2
I0621 16:07:14.987886 18569 net.cpp:454] conv5_3_pool2 <- conv5_3_conv5_3/relu_0_split_1
I0621 16:07:14.987907 18569 net.cpp:411] conv5_3_pool2 -> conv5_3_pool2
I0621 16:07:14.987926 18569 net.cpp:150] Setting up conv5_3_pool2
I0621 16:07:14.987931 18569 net.cpp:157] Top shape: 5 2048 2 2 (40960)
I0621 16:07:14.987933 18569 net.cpp:165] Memory required for data: 20984198520
I0621 16:07:14.987936 18569 layer_factory.hpp:77] Creating layer conv5_3_pool2_conv
I0621 16:07:14.987943 18569 net.cpp:106] Creating Layer conv5_3_pool2_conv
I0621 16:07:14.987946 18569 net.cpp:454] conv5_3_pool2_conv <- conv5_3_pool2
I0621 16:07:14.987951 18569 net.cpp:411] conv5_3_pool2_conv -> conv5_3_pool2_conv
I0621 16:07:15.011108 18569 net.cpp:150] Setting up conv5_3_pool2_conv
I0621 16:07:15.011127 18569 net.cpp:157] Top shape: 5 512 2 2 (10240)
I0621 16:07:15.011132 18569 net.cpp:165] Memory required for data: 20984239480
I0621 16:07:15.011137 18569 layer_factory.hpp:77] Creating layer conv5_3_pool2_conv/bn
I0621 16:07:15.011148 18569 net.cpp:106] Creating Layer conv5_3_pool2_conv/bn
I0621 16:07:15.011153 18569 net.cpp:454] conv5_3_pool2_conv/bn <- conv5_3_pool2_conv
I0621 16:07:15.011160 18569 net.cpp:397] conv5_3_pool2_conv/bn -> conv5_3_pool2_conv (in-place)
I0621 16:07:15.011330 18569 net.cpp:150] Setting up conv5_3_pool2_conv/bn
I0621 16:07:15.011335 18569 net.cpp:157] Top shape: 5 512 2 2 (10240)
I0621 16:07:15.011338 18569 net.cpp:165] Memory required for data: 20984280440
I0621 16:07:15.011343 18569 layer_factory.hpp:77] Creating layer conv5_3_pool2_conv/relu
I0621 16:07:15.011349 18569 net.cpp:106] Creating Layer conv5_3_pool2_conv/relu
I0621 16:07:15.011353 18569 net.cpp:454] conv5_3_pool2_conv/relu <- conv5_3_pool2_conv
I0621 16:07:15.011355 18569 net.cpp:397] conv5_3_pool2_conv/relu -> conv5_3_pool2_conv (in-place)
I0621 16:07:15.011360 18569 net.cpp:150] Setting up conv5_3_pool2_conv/relu
I0621 16:07:15.011363 18569 net.cpp:157] Top shape: 5 512 2 2 (10240)
I0621 16:07:15.011366 18569 net.cpp:165] Memory required for data: 20984321400
I0621 16:07:15.011369 18569 layer_factory.hpp:77] Creating layer conv5_3_pool2_interp
I0621 16:07:15.011373 18569 net.cpp:106] Creating Layer conv5_3_pool2_interp
I0621 16:07:15.011376 18569 net.cpp:454] conv5_3_pool2_interp <- conv5_3_pool2_conv
I0621 16:07:15.011380 18569 net.cpp:411] conv5_3_pool2_interp -> conv5_3_pool2_interp
I0621 16:07:15.011404 18569 net.cpp:150] Setting up conv5_3_pool2_interp
I0621 16:07:15.011407 18569 net.cpp:157] Top shape: 5 512 60 60 (9216000)
I0621 16:07:15.011410 18569 net.cpp:165] Memory required for data: 21021185400
I0621 16:07:15.011412 18569 layer_factory.hpp:77] Creating layer conv5_3_pool3
I0621 16:07:15.011416 18569 net.cpp:106] Creating Layer conv5_3_pool3
I0621 16:07:15.011420 18569 net.cpp:454] conv5_3_pool3 <- conv5_3_conv5_3/relu_0_split_2
I0621 16:07:15.011425 18569 net.cpp:411] conv5_3_pool3 -> conv5_3_pool3
I0621 16:07:15.011440 18569 net.cpp:150] Setting up conv5_3_pool3
I0621 16:07:15.011445 18569 net.cpp:157] Top shape: 5 2048 3 3 (92160)
I0621 16:07:15.011447 18569 net.cpp:165] Memory required for data: 21021554040
I0621 16:07:15.011451 18569 layer_factory.hpp:77] Creating layer conv5_3_pool3_conv
I0621 16:07:15.011459 18569 net.cpp:106] Creating Layer conv5_3_pool3_conv
I0621 16:07:15.011462 18569 net.cpp:454] conv5_3_pool3_conv <- conv5_3_pool3
I0621 16:07:15.011466 18569 net.cpp:411] conv5_3_pool3_conv -> conv5_3_pool3_conv
I0621 16:07:15.034894 18569 net.cpp:150] Setting up conv5_3_pool3_conv
I0621 16:07:15.034957 18569 net.cpp:157] Top shape: 5 512 3 3 (23040)
I0621 16:07:15.034967 18569 net.cpp:165] Memory required for data: 21021646200
I0621 16:07:15.034979 18569 layer_factory.hpp:77] Creating layer conv5_3_pool3_conv/bn
I0621 16:07:15.034999 18569 net.cpp:106] Creating Layer conv5_3_pool3_conv/bn
I0621 16:07:15.035010 18569 net.cpp:454] conv5_3_pool3_conv/bn <- conv5_3_pool3_conv
I0621 16:07:15.035017 18569 net.cpp:397] conv5_3_pool3_conv/bn -> conv5_3_pool3_conv (in-place)
I0621 16:07:15.035313 18569 net.cpp:150] Setting up conv5_3_pool3_conv/bn
I0621 16:07:15.035323 18569 net.cpp:157] Top shape: 5 512 3 3 (23040)
I0621 16:07:15.035383 18569 net.cpp:165] Memory required for data: 21021738360
I0621 16:07:15.035394 18569 layer_factory.hpp:77] Creating layer conv5_3_pool3_conv/relu
I0621 16:07:15.035406 18569 net.cpp:106] Creating Layer conv5_3_pool3_conv/relu
I0621 16:07:15.035410 18569 net.cpp:454] conv5_3_pool3_conv/relu <- conv5_3_pool3_conv
I0621 16:07:15.035420 18569 net.cpp:397] conv5_3_pool3_conv/relu -> conv5_3_pool3_conv (in-place)
I0621 16:07:15.035432 18569 net.cpp:150] Setting up conv5_3_pool3_conv/relu
I0621 16:07:15.035437 18569 net.cpp:157] Top shape: 5 512 3 3 (23040)
I0621 16:07:15.035441 18569 net.cpp:165] Memory required for data: 21021830520
I0621 16:07:15.035446 18569 layer_factory.hpp:77] Creating layer conv5_3_pool3_interp
I0621 16:07:15.035455 18569 net.cpp:106] Creating Layer conv5_3_pool3_interp
I0621 16:07:15.035460 18569 net.cpp:454] conv5_3_pool3_interp <- conv5_3_pool3_conv
I0621 16:07:15.035467 18569 net.cpp:411] conv5_3_pool3_interp -> conv5_3_pool3_interp
I0621 16:07:15.035511 18569 net.cpp:150] Setting up conv5_3_pool3_interp
I0621 16:07:15.035517 18569 net.cpp:157] Top shape: 5 512 60 60 (9216000)
I0621 16:07:15.035521 18569 net.cpp:165] Memory required for data: 21058694520
I0621 16:07:15.035526 18569 layer_factory.hpp:77] Creating layer conv5_3_pool6
I0621 16:07:15.035534 18569 net.cpp:106] Creating Layer conv5_3_pool6
I0621 16:07:15.035539 18569 net.cpp:454] conv5_3_pool6 <- conv5_3_conv5_3/relu_0_split_3
I0621 16:07:15.035547 18569 net.cpp:411] conv5_3_pool6 -> conv5_3_pool6
I0621 16:07:15.035574 18569 net.cpp:150] Setting up conv5_3_pool6
I0621 16:07:15.035585 18569 net.cpp:157] Top shape: 5 2048 6 6 (368640)
I0621 16:07:15.035589 18569 net.cpp:165] Memory required for data: 21060169080
I0621 16:07:15.035593 18569 layer_factory.hpp:77] Creating layer conv5_3_pool6_conv
I0621 16:07:15.035610 18569 net.cpp:106] Creating Layer conv5_3_pool6_conv
I0621 16:07:15.035614 18569 net.cpp:454] conv5_3_pool6_conv <- conv5_3_pool6
I0621 16:07:15.035621 18569 net.cpp:411] conv5_3_pool6_conv -> conv5_3_pool6_conv
I0621 16:07:15.062393 18569 net.cpp:150] Setting up conv5_3_pool6_conv
I0621 16:07:15.062415 18569 net.cpp:157] Top shape: 5 512 6 6 (92160)
I0621 16:07:15.062418 18569 net.cpp:165] Memory required for data: 21060537720
I0621 16:07:15.062423 18569 layer_factory.hpp:77] Creating layer conv5_3_pool6_conv/bn
I0621 16:07:15.062432 18569 net.cpp:106] Creating Layer conv5_3_pool6_conv/bn
I0621 16:07:15.062435 18569 net.cpp:454] conv5_3_pool6_conv/bn <- conv5_3_pool6_conv
I0621 16:07:15.062441 18569 net.cpp:397] conv5_3_pool6_conv/bn -> conv5_3_pool6_conv (in-place)
I0621 16:07:15.062623 18569 net.cpp:150] Setting up conv5_3_pool6_conv/bn
I0621 16:07:15.062628 18569 net.cpp:157] Top shape: 5 512 6 6 (92160)
I0621 16:07:15.062630 18569 net.cpp:165] Memory required for data: 21060906360
I0621 16:07:15.062636 18569 layer_factory.hpp:77] Creating layer conv5_3_pool6_conv/relu
I0621 16:07:15.062641 18569 net.cpp:106] Creating Layer conv5_3_pool6_conv/relu
I0621 16:07:15.062644 18569 net.cpp:454] conv5_3_pool6_conv/relu <- conv5_3_pool6_conv
I0621 16:07:15.062647 18569 net.cpp:397] conv5_3_pool6_conv/relu -> conv5_3_pool6_conv (in-place)
I0621 16:07:15.062650 18569 net.cpp:150] Setting up conv5_3_pool6_conv/relu
I0621 16:07:15.062654 18569 net.cpp:157] Top shape: 5 512 6 6 (92160)
I0621 16:07:15.062655 18569 net.cpp:165] Memory required for data: 21061275000
I0621 16:07:15.062657 18569 layer_factory.hpp:77] Creating layer conv5_3_pool6_interp
I0621 16:07:15.062662 18569 net.cpp:106] Creating Layer conv5_3_pool6_interp
I0621 16:07:15.062664 18569 net.cpp:454] conv5_3_pool6_interp <- conv5_3_pool6_conv
I0621 16:07:15.062667 18569 net.cpp:411] conv5_3_pool6_interp -> conv5_3_pool6_interp
I0621 16:07:15.062691 18569 net.cpp:150] Setting up conv5_3_pool6_interp
I0621 16:07:15.062695 18569 net.cpp:157] Top shape: 5 512 60 60 (9216000)
I0621 16:07:15.062697 18569 net.cpp:165] Memory required for data: 21098139000
I0621 16:07:15.062700 18569 layer_factory.hpp:77] Creating layer conv5_3_concat
I0621 16:07:15.062703 18569 net.cpp:106] Creating Layer conv5_3_concat
I0621 16:07:15.062721 18569 net.cpp:454] conv5_3_concat <- conv5_3_conv5_3/relu_0_split_4
I0621 16:07:15.062726 18569 net.cpp:454] conv5_3_concat <- conv5_3_pool6_interp
I0621 16:07:15.062728 18569 net.cpp:454] conv5_3_concat <- conv5_3_pool3_interp
I0621 16:07:15.062731 18569 net.cpp:454] conv5_3_concat <- conv5_3_pool2_interp
I0621 16:07:15.062733 18569 net.cpp:454] conv5_3_concat <- conv5_3_pool1_interp
I0621 16:07:15.062739 18569 net.cpp:411] conv5_3_concat -> conv5_3_concat
I0621 16:07:15.062757 18569 net.cpp:150] Setting up conv5_3_concat
I0621 16:07:15.062762 18569 net.cpp:157] Top shape: 5 4096 60 60 (73728000)
I0621 16:07:15.062763 18569 net.cpp:165] Memory required for data: 21393051000
I0621 16:07:15.062767 18569 layer_factory.hpp:77] Creating layer conv5_4
I0621 16:07:15.062774 18569 net.cpp:106] Creating Layer conv5_4
I0621 16:07:15.062777 18569 net.cpp:454] conv5_4 <- conv5_3_concat
I0621 16:07:15.062783 18569 net.cpp:411] conv5_4 -> conv5_4
I0621 16:07:15.494968 18569 net.cpp:150] Setting up conv5_4
I0621 16:07:15.495002 18569 net.cpp:157] Top shape: 5 512 60 60 (9216000)
I0621 16:07:15.495007 18569 net.cpp:165] Memory required for data: 21429915000
I0621 16:07:15.495012 18569 layer_factory.hpp:77] Creating layer conv5_4/bn
I0621 16:07:15.495021 18569 net.cpp:106] Creating Layer conv5_4/bn
I0621 16:07:15.495025 18569 net.cpp:454] conv5_4/bn <- conv5_4
I0621 16:07:15.495030 18569 net.cpp:397] conv5_4/bn -> conv5_4 (in-place)
I0621 16:07:15.495213 18569 net.cpp:150] Setting up conv5_4/bn
I0621 16:07:15.495218 18569 net.cpp:157] Top shape: 5 512 60 60 (9216000)
I0621 16:07:15.495234 18569 net.cpp:165] Memory required for data: 21466779000
I0621 16:07:15.495239 18569 layer_factory.hpp:77] Creating layer conv5_4/relu
I0621 16:07:15.495244 18569 net.cpp:106] Creating Layer conv5_4/relu
I0621 16:07:15.495246 18569 net.cpp:454] conv5_4/relu <- conv5_4
I0621 16:07:15.495249 18569 net.cpp:397] conv5_4/relu -> conv5_4 (in-place)
I0621 16:07:15.495254 18569 net.cpp:150] Setting up conv5_4/relu
I0621 16:07:15.495256 18569 net.cpp:157] Top shape: 5 512 60 60 (9216000)
I0621 16:07:15.495259 18569 net.cpp:165] Memory required for data: 21503643000
I0621 16:07:15.495261 18569 layer_factory.hpp:77] Creating layer conv5_4/dropout
I0621 16:07:15.495270 18569 net.cpp:106] Creating Layer conv5_4/dropout
I0621 16:07:15.495273 18569 net.cpp:454] conv5_4/dropout <- conv5_4
I0621 16:07:15.495276 18569 net.cpp:397] conv5_4/dropout -> conv5_4 (in-place)
I0621 16:07:15.495302 18569 net.cpp:150] Setting up conv5_4/dropout
I0621 16:07:15.495306 18569 net.cpp:157] Top shape: 5 512 60 60 (9216000)
I0621 16:07:15.495308 18569 net.cpp:165] Memory required for data: 21540507000
I0621 16:07:15.495311 18569 layer_factory.hpp:77] Creating layer conv6
I0621 16:07:15.495316 18569 net.cpp:106] Creating Layer conv6
I0621 16:07:15.495319 18569 net.cpp:454] conv6 <- conv5_4
I0621 16:07:15.495322 18569 net.cpp:411] conv6 -> conv6
I0621 16:07:15.495744 18569 net.cpp:150] Setting up conv6
I0621 16:07:15.495749 18569 net.cpp:157] Top shape: 5 21 60 60 (378000)
I0621 16:07:15.495751 18569 net.cpp:165] Memory required for data: 21542019000
I0621 16:07:15.495754 18569 layer_factory.hpp:77] Creating layer conv6_interp
I0621 16:07:15.495759 18569 net.cpp:106] Creating Layer conv6_interp
I0621 16:07:15.495760 18569 net.cpp:454] conv6_interp <- conv6
I0621 16:07:15.495764 18569 net.cpp:411] conv6_interp -> conv6_interp
I0621 16:07:15.495781 18569 net.cpp:150] Setting up conv6_interp
I0621 16:07:15.495787 18569 net.cpp:157] Top shape: 5 21 473 473 (23491545)
I0621 16:07:15.495790 18569 net.cpp:165] Memory required for data: 21635985180
I0621 16:07:15.495792 18569 net.cpp:228] conv6_interp does not need backward computation.
I0621 16:07:15.495795 18569 net.cpp:228] conv6 does not need backward computation.
I0621 16:07:15.495797 18569 net.cpp:228] conv5_4/dropout does not need backward computation.
I0621 16:07:15.495800 18569 net.cpp:228] conv5_4/relu does not need backward computation.
…
