…
state {
  phase: TRAIN
}
layer {
  name: "data"
  type: "ImageSegData"
  top: "data"
  top: "label"
  include {
    phase: TRAIN
  }
  transform_param {
    mirror: true
    crop_size: 473
    mean_value: 104.008
    mean_value: 116.669
    mean_value: 122.675
    scale_factors: 0.5
    scale_factors: 0.75
    scale_factors: 1
    scale_factors: 1.25
    scale_factors: 1.5
  }
  image_data_param {
    source: "exper/voc12/list/train_aug.txt"
    batch_size: 5
    shuffle: true
    root_folder: "exper/voc12/data"
    label_type: PIXEL
  }
}
layer {
  name: "conv1_1_3x3_s2"
  type: "Convolution"
  bottom: "data"
  top: "conv1_1_3x3_s2"
  param {
    lr_mult: 1
    decay_mult: 1
  }
  convolution_param {
    num_output: 64
    bias_term: false
    pad: 1
    kernel_size: 3
    stride: 2
    weight_filler {
      type: "msra"
    }
  }
}
layer {
  name: "conv1_1_3x3_s2/bn"
  type: "BN"
  bottom: "conv1_1_3x3_s2"
  top: "conv1_1_3x3_s2"
  param {
    lr_mult: 1
    decay_mult: 0
  }
  param {
    lr_mult: 1
    decay_mult: 0
  }
  param {
    lr_mult: 0
    decay_mult: 0
  }
  param {
    lr_mult: 0
    decay_mult: 0
  }
  bn_param {
    slope_filler {
      type: "constant"
      value: 1
    }
    bias_filler {
      type: "constant"
      value: 0
    }
    momentum: 0.95
    frozen: true
  }
}
layer {
  name: "conv1_1_3x3_s2/relu"
  type: "ReLU"
  bottom: "conv1_1_3x3_s2"
  top: "conv1_1_3x3_s2"
}
layer {
  name: "conv1_2_3x3"
  type: "Convolution"
  bottom: "conv1_1_3x3_s2"
  top: "conv1_2_3x3"
  param {
    lr_mult: 1
    decay_mult: 1
  }
  convolution_param {
    num_output: 64
    bias_term: false
    pad: 1
    kernel_size: 3
    stride: 1
    weight_filler {
      type: "msra"
    }
  }
}
layer {
  name: "conv1_2_3x3/bn"
  type: "BN"
  bottom: "conv1_2_3x3"
  top: "conv1_2_3x3"
  param {
    lr_mult: 1
    decay_mult: 0
  }
  param {
    lr_mult: 1
    decay_mult: 0
  }
  param {
    lr_mult: 0
    decay_mult: 0
  }
  param {
    lr_mult: 0
    decay_mult: 0
  }
  bn_param {
    slope_filler {
      type: "constant"
      value: 1
    }
    bias_filler {
      type: "constant"
      value: 0
    }
    momentum: 0.95
    frozen: true
  }
}
layer {
  name: "conv1_2_3x3/relu"
  type: "ReLU"
  bottom: "conv1_2_3x3"
  top: "conv1_2_3x3"
}
layer {
  name: "conv1_3_3x3"
  type: "Convolution"
  bottom: "conv1_2_3x3"
  top: "conv1_3_3x3"
  param {
    lr_mult: 1
    decay_mult: 1
  }
  convolution_param {
    num_output: 128
    bias_term: false
    pad: 1
    kernel_size: 3
    stride: 1
    weight_filler {
      type: "msra"
    }
  }
}
layer {
  name: "conv1_3_3x3/bn"
  type: "BN"
  bottom: "conv1_3_3x3"
  top: "conv1_3_3x3"
  param {
    lr_mult: 1
    decay_mult: 0
  }
  param {
    lr_mult: 1
    decay_mult: 0
  }
  param {
    lr_mult: 0
    decay_mult: 0
  }
  param {
    lr_mult: 0
    decay_mult: 0
  }
  bn_param {
    slope_filler {
      type: "constant"
      value: 1
    }
    bias_filler {
      type: "constant"
      value: 0
    }
    momentum: 0.95
    frozen: true
  }
}
layer {
  name: "conv1_3_3x3/relu"
  type: "ReLU"
  bottom: "conv1_3_3x3"
  top: "conv1_3_3x3"
}
layer {
  name: "pool1_3x3_s2"
  type: "Pooling"
  bottom: "conv1_3_3x3"
  top: "pool1_3x3_s2"
  pooling_param {
    pool: MAX
    kernel_size: 3
    stride: 2
    pad: 1
  }
}
layer {
  name: "conv2_1_1x1_reduce"
  type: "Convolution"
  bottom: "pool1_3x3_s2"
  top: "conv2_1_1x1_reduce"
  param {
    lr_mult: 1
    decay_mult: 1
  }
  convolution_param {
    num_output: 64
    bias_term: false
    pad: 0
    kernel_size: 1
    stride: 1
    weight_filler {
      type: "msra"
    }
  }
}
layer {
  name: "conv2_1_1x1_reduce/bn"
  type: "BN"
  bottom: "conv2_1_1x1_reduce"
  top: "conv2_1_1x1_reduce"
  param {
    lr_mult: 1
    decay_mult: 0
  }
  param {
    lr_mult: 1
    decay_mult: 0
  }
  param {
    lr_mult: 0
    decay_mult: 0
  }
  param {
    lr_mult: 0
    decay_mult: 0
  }
  bn_param {
    slope_filler {
      type: "constant"
      value: 1
    }
    bias_filler {
      type: "constant"
      value: 0
    }
    momentum: 0.95
    frozen: true
  }
}
layer {
  name: "conv2_1_1x1_reduce/relu"
  type: "ReLU"
  bottom: "conv2_1_1x1_reduce"
  top: "conv2_1_1x1_reduce"
}
layer {
  name: "conv2_1_3x3"
  type: "Convolution"
  bottom: "conv2_1_1x1_reduce"
  top: "conv2_1_3x3"
  param {
    lr_mult: 1
    decay_mult: 1
  }
  convolution_param {
    num_output: 64
    bias_term: false
    pad: 1
    kernel_size: 3
    stride: 1
    weight_filler {
      type: "msra"
    }
  }
}
layer {
  name: "conv2_1_3x3/bn"
  type: "BN"
  bottom: "conv2_1_3x3"
  top: "conv2_1_3x3"
  param {
    lr_mult: 1
    decay_mult: 0
  }
  param {
    lr_mult: 1
    decay_mult: 0
  }
  param {
    lr_mult: 0
    decay_mult: 0
  }
  param {
    lr_mult: 0
    decay_mult: 0
  }
  bn_param {
    slope_filler {
      type: "constant"
      value: 1
    }
    bias_filler {
      type: "constant"
      value: 0
    }
    momentum: 0.95
    frozen: true
  }
}
layer {
  name: "conv2_1_3x3/relu"
  type: "ReLU"
  bottom: "conv2_1_3x3"
  top: "conv2_1_3x3"
}
layer {
  name: "conv2_1_1x1_increase"
  type: "Convolution"
  bottom: "conv2_1_3x3"
  top: "conv2_1_1x1_increase"
  param {
    lr_mult: 1
    decay_mult: 1
  }
  convolution_param {
    num_output: 256
    bias_term: false
    pad: 0
    kernel_size: 1
    stride: 1
    weight_filler {
      type: "msra"
    }
  }
}
layer {
  name: "conv2_1_1x1_increase/bn"
  type: "BN"
  bottom: "conv2_1_1x1_increase"
  top: "conv2_1_1x1_increase"
  param {
    lr_mult: 1
    decay_mult: 0
  }
  param {
    lr_mult: 1
    decay_mult: 0
  }
  param {
    lr_mult: 0
    decay_mult: 0
  }
  param {
    lr_mult: 0
    decay_mult: 0
  }
  bn_param {
    slope_filler {
      type: "constant"
      value: 1
    }
    bias_filler {
      type: "constant"
      value: 0
    }
    momentum: 0.95
    frozen: true
  }
}
layer {
  name: "conv2_1_1x1_proj"
  type: "Convolution"
  bottom: "pool1_3x3_s2"
  top: "conv2_1_1x1_proj"
  param {
    lr_mult: 1
    decay_mult: 1
  }
  convolution_param {
    num_output: 256
    bias_term: false
    pad: 0
    kernel_size: 1
    stride: 1
    weight_filler {
      type: "msra"
    }
  }
}
layer {
  name: "conv2_1_1x1_proj/bn"
  type: "BN"
  bottom: "conv2_1_1x1_proj"
  top: "conv2_1_1x1_proj"
  param {
    lr_mult: 1
    decay_mult: 0
  }
  param {
    lr_mult: 1
    decay_mult: 0
  }
  param {
    lr_mult: 0
    decay_mult: 0
  }
  param {
    lr_mult: 0
    decay_mult: 0
  }
  bn_param {
    slope_filler {
      type: "constant"
      value: 1
    }
    bias_filler {
      type: "constant"
      value: 0
    }
    momentum: 0.95
    frozen: true
  }
}
layer {
  name: "conv2_1"
  type: "Eltwise"
  bottom: "conv2_1_1x1_proj"
  bottom: "conv2_1_1x1_increase"
  top: "conv2_1"
  eltwise_param {
    operation: SUM
  }
}
layer {
  name: "conv2_1/relu"
  type: "ReLU"
  bottom: "conv2_1"
  top: "conv2_1"
}
layer {
  name: "conv2_2_1x1_reduce"
  type: "Convolution"
  bottom: "conv2_1"
  top: "conv2_2_1x1_reduce"
  param {
    lr_mult: 1
    decay_mult: 1
  }
  convolution_param {
    num_output: 64
    bias_term: false
    pad: 0
    kernel_size: 1
    stride: 1
    weight_filler {
      type: "msra"
    }
  }
}
layer {
  name: "conv2_2_1x1_reduce/bn"
  type: "BN"
  bottom: "conv2_2_1x1_reduce"
  top: "conv2_2_1x1_reduce"
  param {
    lr_mult: 1
    decay_mult: 0
  }
  param {
    lr_mult: 1
    decay_mult: 0
  }
  param {
    lr_mult: 0
    decay_mult: 0
  }
  param {
    lr_mult: 0
    decay_mult: 0
  }
  bn_param {
    slope_filler {
      type: "constant"
      value: 1
    }
    bias_filler {
      type: "constant"
      value: 0
    }
    momentum: 0.95
    frozen: true
  }
}
layer {
  name: "conv2_2_1x1_reduce/relu"
  type: "ReLU"
  bottom: "conv2_2_1x1_reduce"
  top: "conv2_2_1x1_reduce"
}
layer {
  name: "conv2_2_3x3"
  type: "Convolution"
  bottom: "conv2_2_1x1_reduce"
  top: "conv2_2_3x3"
  param {
    lr_mult: 1
    decay_mult: 1
  }
  convolution_param {
    num_output: 64
    bias_term: false
    pad: 1
    kernel_size: 3
    stride: 1
    weight_filler {
      type: "msra"
    }
  }
}
layer {
  name: "conv2_2_3x3/bn"
  type: "BN"
  bottom: "conv2_2_3x3"
  top: "conv2_2_3x3"
  param {
    lr_mult: 1
    decay_mult: 0
  }
  param {
    lr_mult: 1
    decay_mult: 0
  }
  param {
    lr_mult: 0
    decay_mult: 0
  }
  param {
    lr_mult: 0
    decay_mult: 0
  }
  bn_param {
    slope_filler {
      type: "constant"
      value: 1
    }
    bias_filler {
      type: "constant"
      value: 0
    }
    momentum: 0.95
    frozen: true
  }
}
layer {
  name: "conv2_2_3x3/relu"
  type: "ReLU"
  bottom: "conv2_2_3x3"
  top: "conv2_2_3x3"
}
layer {
  name: "conv2_2_1x1_increase"
  type: "Convolution"
  bottom: "conv2_2_3x3"
  top: "conv2_2_1x1_increase"
  param {
    lr_mult: 1
    decay_mult: 1
  }
  convolution_param {
    num_output: 256
    bias_term: false
    pad: 0
    kernel_size: 1
    stride: 1
    weight_filler {
      type: "msra"
    }
  }
}
layer {
  name: "conv2_2_1x1_increase/bn"
  type: "BN"
  bottom: "conv2_2_1x1_increase"
  top: "conv2_2_1x1_increase"
  param {
    lr_mult: 1
    decay_mult: 0
  }
  param {
    lr_mult: 1
    decay_mult: 0
  }
  param {
    lr_mult: 0
    decay_mult: 0
  }
  param {
    lr_mult: 0
    decay_mult: 0
  }
  bn_param {
    slope_filler {
      type: "constant"
      value: 1
    }
    bias_filler {
      type: "constant"
      value: 0
    }
    momentum: 0.95
    frozen: true
  }
}
layer {
  name: "conv2_2"
  type: "Eltwise"
  bottom: "conv2_1"
  bottom: "conv2_2_1x1_increase"
  top: "conv2_2"
  eltwise_param {
    operation: SUM
  }
}
layer {
  name: "conv2_2/relu"
  type: "ReLU"
  bottom: "conv2_2"
  top: "conv2_2"
}
layer {
  name: "conv2_3_1x1_reduce"
  type: "Convolution"
  bottom: "conv2_2"
  top: "conv2_3_1x1_reduce"
  param {
    lr_mult: 1
    decay_mult: 1
  }
  convolution_param {
    num_output: 64
    bias_term: false
    pad: 0
    kernel_size: 1
    stride: 1
    weight_filler {
      type: "msra"
    }
  }
}
layer {
  name: "conv2_3_1x1_reduce/bn"
  type: "BN"
  bottom: "conv2_3_1x1_reduce"
  top: "conv2_3_1x1_reduce"
  param {
    lr_mult: 1
    decay_mult: 0
  }
  param {
    lr_mult: 1
    decay_mult: 0
  }
  param {
    lr_mult: 0
    decay_mult: 0
  }
  param {
    lr_mult: 0
    decay_mult: 0
  }
  bn_param {
    slope_filler {
      type: "constant"
      value: 1
    }
    bias_filler {
      type: "constant"
      value: 0
    }
    momentum: 0.95
    frozen: true
  }
}
layer {
  name: "conv2_3_1x1_reduce/relu"
  type: "ReLU"
  bottom: "conv2_3_1x1_reduce"
  top: "conv2_3_1x1_reduce"
}
layer {
  name: "conv2_3_3x3"
  type: "Convolution"
  bottom: "conv2_3_1x1_reduce"
  top: "conv2_3_3x3"
  param {
    lr_mult: 1
    decay_mult: 1
  }
  convolution_param {
    num_output: 64
    bias_term: false
    pad: 1
    kernel_size: 3
    stride: 1
    weight_filler {
      type: "msra"
    }
  }
}
layer {
  name: "conv2_3_3x3/bn"
  type: "BN"
  bottom: "conv2_3_3x3"
  top: "conv2_3_3x3"
  param {
    lr_mult: 1
    decay_mult: 0
  }
  param {
    lr_mult: 1
    decay_mult: 0
  }
  param {
    lr_mult: 0
    decay_mult: 0
  }
  param {
    lr_mult: 0
    decay_mult: 0
  }
  bn_param {
    slope_filler {
      type: "constant"
      value: 1
    }
    bias_filler {
      type: "constant"
      value: 0
    }
    momentum: 0.95
    frozen: true
  }
}
layer {
  name: "conv2_3_3x3/relu"
  type: "ReLU"
  bottom: "conv2_3_3x3"
  top: "conv2_3_3x3"
}
layer {
  name: "conv2_3_1x1_increase"
  type: "Convolution"
  bottom: "conv2_3_3x3"
  top: "conv2_3_1x1_increase"
  param {
    lr_mult: 1
    decay_mult: 1
  }
  convolution_param {
    num_output: 256
    bias_term: false
    pad: 0
    kernel_size: 1
    stride: 1
    weight_filler {
      type: "msra"
    }
  }
}
layer {
  name: "conv2_3_1x1_increase/bn"
  type: "BN"
  bottom: "conv2_3_1x1_increase"
  top: "conv2_3_1x1_increase"
  param {
    lr_mult: 1
    decay_mult: 0
  }
  param {
    lr_mult: 1
    decay_mult: 0
  }
  param {
    lr_mult: 0
    decay_mult: 0
  }
  param {
    lr_mult: 0
    decay_mult: 0
  }
  bn_param {
    slope_filler {
      type: "constant"
      value: 1
    }
    bias_filler {
      type: "constant"
      value: 0
    }
    momentum: 0.95
    frozen: true
  }
}
layer {
  name: "conv2_3"
  type: "Eltwise"
  bottom: "conv2_2"
  bottom: "conv2_3_1x1_increase"
  top: "conv2_3"
  eltwise_param {
    operation: SUM
  }
}
layer {
  name: "conv2_3/relu"
  type: "ReLU"
  bottom: "conv2_3"
  top: "conv2_3"
}
layer {
  name: "conv3_1_1x1_reduce"
  type: "Convolution"
  bottom: "conv2_3"
  top: "conv3_1_1x1_reduce"
  param {
    lr_mult: 1
    decay_mult: 1
  }
  convolution_param {
    num_output: 128
    bias_term: false
    pad: 0
    kernel_size: 1
    stride: 1
    weight_filler {
      type: "msra"
    }
  }
}
layer {
  name: "conv3_1_1x1_reduce/bn"
  type: "BN"
  bottom: "conv3_1_1x1_reduce"
  top: "conv3_1_1x1_reduce"
  param {
    lr_mult: 1
    decay_mult: 0
  }
  param {
    lr_mult: 1
    decay_mult: 0
  }
  param {
    lr_mult: 0
    decay_mult: 0
  }
  param {
    lr_mult: 0
    decay_mult: 0
  }
  bn_param {
    slope_filler {
      type: "constant"
      value: 1
    }
    bias_filler {
      type: "constant"
      value: 0
    }
    momentum: 0.95
    frozen: true
  }
}
layer {
  name: "conv3_1_1x1_reduce/relu"
  type: "ReLU"
  bottom: "conv3_1_1x1_reduce"
  top: "conv3_1_1x1_reduce"
}
layer {
  name: "conv3_1_3x3"
  type: "Convolution"
  bottom: "conv3_1_1x1_reduce"
  top: "conv3_1_3x3"
  param {
    lr_mult: 1
    decay_mult: 1
  }
  convolution_param {
    num_output: 128
    bias_term: false
    pad: 1
    kernel_size: 3
    stride: 2
    weight_filler {
      type: "msra"
    }
  }
}
layer {
  name: "conv3_1_3x3/bn"
  type: "BN"
  bottom: "conv3_1_3x3"
  top: "conv3_1_3x3"
  param {
    lr_mult: 1
    decay_mult: 0
  }
  param {
    lr_mult: 1
    decay_mult: 0
  }
  param {
    lr_mult: 0
    decay_mult: 0
  }
  param {
    lr_mult: 0
    decay_mult: 0
  }
  bn_param {
    slope_filler {
      type: "constant"
      value: 1
    }
    bias_filler {
      type: "constant"
      value: 0
    }
    momentum: 0.95
    frozen: true
  }
}
layer {
  name: "conv3_1_3x3/relu"
  type: "ReLU"
  bottom: "conv3_1_3x3"
  top: "conv3_1_3x3"
}
layer {
  name: "conv3_1_1x1_increase"
  type: "Convolution"
  bottom: "conv3_1_3x3"
  top: "conv3_1_1x1_increase"
  param {
    lr_mult: 1
    decay_mult: 1
  }
  convolution_param {
    num_output: 512
    bias_term: false
    pad: 0
    kernel_size: 1
    stride: 1
    weight_filler {
      type: "msra"
    }
  }
}
layer {
  name: "conv3_1_1x1_increase/bn"
  type: "BN"
  bottom: "conv3_1_1x1_increase"
  top: "conv3_1_1x1_increase"
  param {
    lr_mult: 1
    decay_mult: 0
  }
  param {
    lr_mult: 1
    decay_mult: 0
  }
  param {
    lr_mult: 0
    decay_mult: 0
  }
  param {
    lr_mult: 0
    decay_mult: 0
  }
  bn_param {
    slope_filler {
      type: "constant"
      value: 1
    }
    bias_filler {
      type: "constant"
      value: 0
    }
    momentum: 0.95
    frozen: true
  }
}
layer {
  name: "conv3_1_1x1_proj"
  type: "Convolution"
  bottom: "conv2_3"
  top: "conv3_1_1x1_proj"
  param {
    lr_mult: 1
    decay_mult: 1
  }
  convolution_param {
    num_output: 512
    bias_term: false
    pad: 0
    kernel_size: 1
    stride: 2
    weight_filler {
      type: "msra"
    }
  }
}
layer {
  name: "conv3_1_1x1_proj/bn"
  type: "BN"
  bottom: "conv3_1_1x1_proj"
  top: "conv3_1_1x1_proj"
  param {
    lr_mult: 1
    decay_mult: 0
  }
  param {
    lr_mult: 1
    decay_mult: 0
  }
  param {
    lr_mult: 0
    decay_mult: 0
  }
  param {
    lr_mult: 0
    decay_mult: 0
  }
  bn_param {
    slope_filler {
      type: "constant"
      value: 1
    }
    bias_filler {
      type: "constant"
      value: 0
    }
    momentum: 0.95
    frozen: true
  }
}
layer {
  name: "conv3_1"
  type: "Eltwise"
  bottom: "conv3_1_1x1_proj"
  bottom: "conv3_1_1x1_increase"
  top: "conv3_1"
  eltwise_param {
    operation: SUM
  }
}
layer {
  name: "conv3_1/relu"
  type: "ReLU"
  bottom: "conv3_1"
  top: "conv3_1"
}
layer {
  name: "conv3_2_1x1_reduce"
  type: "Convolution"
  bottom: "conv3_1"
  top: "conv3_2_1x1_reduce"
  param {
    lr_mult: 1
    decay_mult: 1
  }
  convolution_param {
    num_output: 128
    bias_term: false
    pad: 0
    kernel_size: 1
    stride: 1
    weight_filler {
      type: "msra"
    }
  }
}
layer {
  name: "conv3_2_1x1_reduce/bn"
  type: "BN"
  bottom: "conv3_2_1x1_reduce"
  top: "conv3_2_1x1_reduce"
  param {
    lr_mult: 1
    decay_mult: 0
  }
  param {
    lr_mult: 1
    decay_mult: 0
  }
  param {
    lr_mult: 0
    decay_mult: 0
  }
  param {
    lr_mult: 0
    decay_mult: 0
  }
  bn_param {
    slope_filler {
      type: "constant"
      value: 1
    }
    bias_filler {
      type: "constant"
      value: 0
    }
    momentum: 0.95
    frozen: true
  }
}
layer {
  name: "conv3_2_1x1_reduce/relu"
  type: "ReLU"
  bottom: "conv3_2_1x1_reduce"
  top: "conv3_2_1x1_reduce"
}
layer {
  name: "conv3_2_3x3"
  type: "Convolution"
  bottom: "conv3_2_1x1_reduce"
  top: "conv3_2_3x3"
  param {
    lr_mult: 1
    decay_mult: 1
  }
  convolution_param {
    num_output: 128
    bias_term: false
    pad: 1
    kernel_size: 3
    stride: 1
    weight_filler {
      type: "msra"
    }
  }
}
layer {
  name: "conv3_2_3x3/bn"
  type: "BN"
  bottom: "conv3_2_3x3"
  top: "conv3_2_3x3"
  param {
    lr_mult: 1
    decay_mult: 0
  }
  param {
    lr_mult: 1
    decay_mult: 0
  }
  param {
    lr_mult: 0
    decay_mult: 0
  }
  param {
    lr_mult: 0
    decay_mult: 0
  }
  bn_param {
    slope_filler {
      type: "constant"
      value: 1
    }
    bias_filler {
      type: "constant"
      value: 0
    }
    momentum: 0.95
    frozen: true
  }
}
layer {
  name: "conv3_2_3x3/relu"
  type: "ReLU"
  bottom: "conv3_2_3x3"
  top: "conv3_2_3x3"
}
layer {
  name: "conv3_2_1x1_increase"
  type: "Convolution"
  bottom: "conv3_2_3x3"
  top: "conv3_2_1x1_increase"
  param {
    lr_mult: 1
    decay_mult: 1
  }
  convolution_param {
    num_output: 512
    bias_term: false
    pad: 0
    kernel_size: 1
    stride: 1
    weight_filler {
      type: "msra"
    }
  }
}
layer {
  name: "conv3_2_1x1_increase/bn"
  type: "BN"
  bottom: "conv3_2_1x1_increase"
  top: "conv3_2_1x1_increase"
  param {
    lr_mult: 1
    decay_mult: 0
  }
  param {
    lr_mult: 1
    decay_mult: 0
  }
  param {
    lr_mult: 0
    decay_mult: 0
  }
  param {
    lr_mult: 0
    decay_mult: 0
  }
  bn_param {
    slope_filler {
      type: "constant"
      value: 1
    }
    bias_filler {
      type: "constant"
      value: 0
    }
    momentum: 0.95
    frozen: true
  }
}
layer {
  name: "conv3_2"
  type: "Eltwise"
  bottom: "conv3_1"
  bottom: "conv3_2_1x1_increase"
  top: "conv3_2"
  eltwise_param {
    operation: SUM
  }
}
layer {
  name: "conv3_2/relu"
  type: "ReLU"
  bottom: "conv3_2"
  top: "conv3_2"
}
layer {
  name: "conv3_3_1x1_reduce"
  type: "Convolution"
  bottom: "conv3_2"
  top: "conv3_3_1x1_reduce"
  param {
    lr_mult: 1
    decay_mult: 1
  }
  convolution_param {
    num_output: 128
    bias_term: false
    pad: 0
    kernel_size: 1
    stride: 1
    weight_filler {
      type: "msra"
    }
  }
}
layer {
  name: "conv3_3_1x1_reduce/bn"
  type: "BN"
  bottom: "conv3_3_1x1_reduce"
  top: "conv3_3_1x1_reduce"
  param {
    lr_mult: 1
    decay_mult: 0
  }
  param {
    lr_mult: 1
    decay_mult: 0
  }
  param {
    lr_mult: 0
    decay_mult: 0
  }
  param {
    lr_mult: 0
    decay_mult: 0
  }
  bn_param {
    slope_filler {
      type: "constant"
      value: 1
    }
    bias_filler {
      type: "constant"
      value: 0
    }
    momentum: 0.95
    frozen: true
  }
}
layer {
  name: "conv3_3_1x1_reduce/relu"
  type: "ReLU"
  bottom: "conv3_3_1x1_reduce"
  top: "conv3_3_1x1_reduce"
}
layer {
  name: "conv3_3_3x3"
  type: "Convolution"
  bottom: "conv3_3_1x1_reduce"
  top: "conv3_3_3x3"
  param {
    lr_mult: 1
    decay_mult: 1
  }
  convolution_param {
    num_output: 128
    bias_term: false
    pad: 1
    kernel_size: 3
    stride: 1
    weight_filler {
      type: "msra"
    }
  }
}
layer {
  name: "conv3_3_3x3/bn"
  type: "BN"
  bottom: "conv3_3_3x3"
  top: "conv3_3_3x3"
  param {
    lr_mult: 1
    decay_mult: 0
  }
  param {
    lr_mult: 1
    decay_mult: 0
  }
  param {
    lr_mult: 0
    decay_mult: 0
  }
  param {
    lr_mult: 0
    decay_mult: 0
  }
  bn_param {
    slope_filler {
      type: "constant"
      value: 1
    }
    bias_filler {
      type: "constant"
      value: 0
    }
    momentum: 0.95
    frozen: true
  }
}
layer {
  name: "conv3_3_3x3/relu"
  type: "ReLU"
  bottom: "conv3_3_3x3"
  top: "conv3_3_3x3"
}
layer {
  name: "conv3_3_1x1_increase"
  type: "Convolution"
  bottom: "conv3_3_3x3"
  top: "conv3_3_1x1_increase"
  param {
    lr_mult: 1
    decay_mult: 1
  }
  convolution_param {
    num_output: 512
    bias_term: false
    pad: 0
    kernel_size: 1
    stride: 1
    weight_filler {
      type: "msra"
    }
  }
}
layer {
  name: "conv3_3_1x1_increase/bn"
  type: "BN"
  bottom: "conv3_3_1x1_increase"
  top: "conv3_3_1x1_increase"
  param {
    lr_mult: 1
    decay_mult: 0
  }
  param {
    lr_mult: 1
    decay_mult: 0
  }
  param {
    lr_mult: 0
    decay_mult: 0
  }
  param {
    lr_mult: 0
    decay_mult: 0
  }
  bn_param {
    slope_filler {
      type: "constant"
      value: 1
    }
    bias_filler {
      type: "constant"
      value: 0
    }
    momentum: 0.95
    frozen: true
  }
}
layer {
  name: "conv3_3"
  type: "Eltwise"
  bottom: "conv3_2"
  bottom: "conv3_3_1x1_increase"
  top: "conv3_3"
  eltwise_param {
    operation: SUM
  }
}
layer {
  name: "conv3_3/relu"
  type: "ReLU"
  bottom: "conv3_3"
  top: "conv3_3"
}
layer {
  name: "conv3_4_1x1_reduce"
  type: "Convolution"
  bottom: "conv3_3"
  top: "conv3_4_1x1_reduce"
  param {
    lr_mult: 1
    decay_mult: 1
  }
  convolution_param {
    num_output: 128
    bias_term: false
    pad: 0
    kernel_size: 1
    stride: 1
    weight_filler {
      type: "msra"
    }
  }
}
layer {
  name: "conv3_4_1x1_reduce/bn"
  type: "BN"
  bottom: "conv3_4_1x1_reduce"
  top: "conv3_4_1x1_reduce"
  param {
    lr_mult: 1
    decay_mult: 0
  }
  param {
    lr_mult: 1
    decay_mult: 0
  }
  param {
    lr_mult: 0
    decay_mult: 0
  }
  param {
    lr_mult: 0
    decay_mult: 0
  }
  bn_param {
    slope_filler {
      type: "constant"
      value: 1
    }
    bias_filler {
      type: "constant"
      value: 0
    }
    momentum: 0.95
    frozen: true
  }
}
layer {
  name: "conv3_4_1x1_reduce/relu"
  type: "ReLU"
  bottom: "conv3_4_1x1_reduce"
  top: "conv3_4_1x1_reduce"
}
layer {
  name: "conv3_4_3x3"
  type: "Convolution"
  bottom: "conv3_4_1x1_reduce"
  top: "conv3_4_3x3"
  param {
    lr_mult: 1
    decay_mult: 1
  }
  convolution_param {
    num_output: 128
    bias_term: false
    pad: 1
    kernel_size: 3
    stride: 1
    weight_filler {
      type: "msra"
    }
  }
}
layer {
  name: "conv3_4_3x3/bn"
  type: "BN"
  bottom: "conv3_4_3x3"
  top: "conv3_4_3x3"
  param {
    lr_mult: 1
    decay_mult: 0
  }
  param {
    lr_mult: 1
    decay_mult: 0
  }
  param {
    lr_mult: 0
    decay_mult: 0
  }
  param {
    lr_mult: 0
    decay_mult: 0
  }
  bn_param {
    slope_filler {
      type: "constant"
      value: 1
    }
    bias_filler {
      type: "constant"
      value: 0
    }
    momentum: 0.95
    frozen: true
  }
}
layer {
  name: "conv3_4_3x3/relu"
  type: "ReLU"
  bottom: "conv3_4_3x3"
  top: "conv3_4_3x3"
}
layer {
  name: "conv3_4_1x1_increase"
  type: "Convolution"
  bottom: "conv3_4_3x3"
  top: "conv3_4_1x1_increase"
  param {
    lr_mult: 1
    decay_mult: 1
  }
  convolution_param {
    num_output: 512
    bias_term: false
    pad: 0
    kernel_size: 1
    stride: 1
    weight_filler {
      type: "msra"
    }
  }
}
layer {
  name: "conv3_4_1x1_increase/bn"
  type: "BN"
  bottom: "conv3_4_1x1_increase"
  top: "conv3_4_1x1_increase"
  param {
    lr_mult: 1
    decay_mult: 0
  }
  param {
    lr_mult: 1
    decay_mult: 0
  }
  param {
    lr_mult: 0
    decay_mult: 0
  }
  param {
    lr_mult: 0
    decay_mult: 0
  }
  bn_param {
    slope_filler {
      type: "constant"
      value: 1
    }
    bias_filler {
      type: "constant"
      value: 0
    }
    momentum: 0.95
    frozen: true
  }
}
layer {
  name: "conv3_4"
  type: "Eltwise"
  bottom: "conv3_3"
  bottom: "conv3_4_1x1_increase"
  top: "conv3_4"
  eltwise_param {
    operation: SUM
  }
}
layer {
  name: "conv3_4/relu"
  type: "ReLU"
  bottom: "conv3_4"
  top: "conv3_4"
}
layer {
  name: "conv4_1_1x1_reduce"
  type: "Convolution"
  bottom: "conv3_4"
  top: "conv4_1_1x1_reduce"
  param {
    lr_mult: 1
    decay_mult: 1
  }
  convolution_param {
    num_output: 256
    bias_term: false
    pad: 0
    kernel_size: 1
    stride: 1
    weight_filler {
      type: "msra"
    }
  }
}
layer {
  name: "conv4_1_1x1_reduce/bn"
  type: "BN"
  bottom: "conv4_1_1x1_reduce"
  top: "conv4_1_1x1_reduce"
  param {
    lr_mult: 1
    decay_mult: 0
  }
  param {
    lr_mult: 1
    decay_mult: 0
  }
  param {
    lr_mult: 0
    decay_mult: 0
  }
  param {
    lr_mult: 0
    decay_mult: 0
  }
  bn_param {
    slope_filler {
      type: "constant"
      value: 1
    }
    bias_filler {
      type: "constant"
      value: 0
    }
    momentum: 0.95
    frozen: true
  }
}
layer {
  name: "conv4_1_1x1_reduce/relu"
  type: "ReLU"
  bottom: "conv4_1_1x1_reduce"
  top: "conv4_1_1x1_reduce"
}
layer {
  name: "conv4_1_3x3"
  type: "Convolution"
  bottom: "conv4_1_1x1_reduce"
  top: "conv4_1_3x3"
  param {
    lr_mult: 1
    decay_mult: 1
  }
  convolution_param {
    num_output: 256
    bias_term: false
    pad: 2
    kernel_size: 3
    stride: 1
    weight_filler {
      type: "msra"
    }
    dilation: 2
  }
}
layer {
  name: "conv4_1_3x3/bn"
  type: "BN"
  bottom: "conv4_1_3x3"
  top: "conv4_1_3x3"
  param {
    lr_mult: 1
    decay_mult: 0
  }
  param {
    lr_mult: 1
    decay_mult: 0
  }
  param {
    lr_mult: 0
    decay_mult: 0
  }
  param {
    lr_mult: 0
    decay_mult: 0
  }
  bn_param {
    slope_filler {
      type: "constant"
      value: 1
    }
    bias_filler {
      type: "constant"
      value: 0
    }
    momentum: 0.95
    frozen: true
  }
}
layer {
  name: "conv4_1_3x3/relu"
  type: "ReLU"
  bottom: "conv4_1_3x3"
  top: "conv4_1_3x3"
}
layer {
  name: "conv4_1_1x1_increase"
  type: "Convolution"
  bottom: "conv4_1_3x3"
  top: "conv4_1_1x1_increase"
  param {
    lr_mult: 1
    decay_mult: 1
  }
  convolution_param {
    num_output: 1024
    bias_term: false
    pad: 0
    kernel_size: 1
    stride: 1
    weight_filler {
      type: "msra"
    }
  }
}
layer {
  name: "conv4_1_1x1_increase/bn"
  type: "BN"
  bottom: "conv4_1_1x1_increase"
  top: "conv4_1_1x1_increase"
  param {
    lr_mult: 1
    decay_mult: 0
  }
  param {
    lr_mult: 1
    decay_mult: 0
  }
  param {
    lr_mult: 0
    decay_mult: 0
  }
  param {
    lr_mult: 0
    decay_mult: 0
  }
  bn_param {
    slope_filler {
      type: "constant"
      value: 1
    }
    bias_filler {
      type: "constant"
      value: 0
    }
    momentum: 0.95
    frozen: true
  }
}
layer {
  name: "conv4_1_1x1_proj"
  type: "Convolution"
  bottom: "conv3_4"
  top: "conv4_1_1x1_proj"
  param {
    lr_mult: 1
    decay_mult: 1
  }
  convolution_param {
    num_output: 1024
    bias_term: false
    pad: 0
    kernel_size: 1
    stride: 1
    weight_filler {
      type: "msra"
    }
  }
}
layer {
  name: "conv4_1_1x1_proj/bn"
  type: "BN"
  bottom: "conv4_1_1x1_proj"
  top: "conv4_1_1x1_proj"
  param {
    lr_mult: 1
    decay_mult: 0
  }
  param {
    lr_mult: 1
    decay_mult: 0
  }
  param {
    lr_mult: 0
    decay_mult: 0
  }
  param {
    lr_mult: 0
    decay_mult: 0
  }
  bn_param {
    slope_filler {
      type: "constant"
      value: 1
    }
    bias_filler {
      type: "constant"
      value: 0
    }
    momentum: 0.95
    frozen: true
  }
}
layer {
  name: "conv4_1"
  type: "Eltwise"
  bottom: "conv4_1_1x1_proj"
  bottom: "conv4_1_1x1_increase"
  top: "conv4_1"
  eltwise_param {
    operation: SUM
  }
}
layer {
  name: "conv4_1/relu"
  type: "ReLU"
  bottom: "conv4_1"
  top: "conv4_1"
}
layer {
  name: "conv4_2_1x1_reduce"
  type: "Convolution"
  bottom: "conv4_1"
  top: "conv4_2_1x1_reduce"
  param {
    lr_mult: 1
    decay_mult: 1
  }
  convolution_param {
    num_output: 256
    bias_term: false
    pad: 0
    kernel_size: 1
    stride: 1
    weight_filler {
      type: "msra"
    }
  }
}
layer {
  name: "conv4_2_1x1_reduce/bn"
  type: "BN"
  bottom: "conv4_2_1x1_reduce"
  top: "conv4_2_1x1_reduce"
  param {
    lr_mult: 1
    decay_mult: 0
  }
  param {
    lr_mult: 1
    decay_mult: 0
  }
  param {
    lr_mult: 0
    decay_mult: 0
  }
  param {
    lr_mult: 0
    decay_mult: 0
  }
  bn_param {
    slope_filler {
      type: "constant"
      value: 1
    }
    bias_filler {
      type: "constant"
      value: 0
    }
    momentum: 0.95
    frozen: true
  }
}
layer {
  name: "conv4_2_1x1_reduce/relu"
  type: "ReLU"
  bottom: "conv4_2_1x1_reduce"
  top: "conv4_2_1x1_reduce"
}
layer {
  name: "conv4_2_3x3"
  type: "Convolution"
  bottom: "conv4_2_1x1_reduce"
  top: "conv4_2_3x3"
  param {
    lr_mult: 1
    decay_mult: 1
  }
  convolution_param {
    num_output: 256
    bias_term: false
    pad: 2
    kernel_size: 3
    stride: 1
    weight_filler {
      type: "msra"
    }
    dilation: 2
  }
}
layer {
  name: "conv4_2_3x3/bn"
  type: "BN"
  bottom: "conv4_2_3x3"
  top: "conv4_2_3x3"
  param {
    lr_mult: 1
    decay_mult: 0
  }
  param {
    lr_mult: 1
    decay_mult: 0
  }
  param {
    lr_mult: 0
    decay_mult: 0
  }
  param {
    lr_mult: 0
    decay_mult: 0
  }
  bn_param {
    slope_filler {
      type: "constant"
      value: 1
    }
    bias_fille
I0620 04:27:44.810025  3091 layer_factory.hpp:77] Creating layer data
I0620 04:27:44.810067  3091 net.cpp:106] Creating Layer data
I0620 04:27:44.810076  3091 net.cpp:411] data -> data
I0620 04:27:44.810102  3091 net.cpp:411] data -> label
I0620 04:27:44.810115  3091 net.cpp:411] data -> (automatic)
I0620 04:27:44.810561  3091 image_seg_data_layer.cpp:46] Opening file exper/voc12/list/train_aug.txt
I0620 04:27:44.821892  3091 image_seg_data_layer.cpp:63] Shuffling data
I0620 04:27:44.823102  3091 image_seg_data_layer.cpp:68] A total of 10582 images.
I0620 04:27:44.839684  3091 image_seg_data_layer.cpp:137] output data size: 5,3,473,473
I0620 04:27:44.839720  3091 image_seg_data_layer.cpp:141] output label size: 5,1,473,473
I0620 04:27:44.839723  3091 image_seg_data_layer.cpp:145] output data_dim size: 5,1,1,2
I0620 04:27:44.919767  3091 net.cpp:150] Setting up data
I0620 04:27:44.919791  3091 net.cpp:157] Top shape: 5 3 473 473 (3355935)
I0620 04:27:44.919796  3091 net.cpp:157] Top shape: 5 1 473 473 (1118645)
I0620 04:27:44.919800  3091 net.cpp:157] Top shape: 5 1 1 2 (10)
I0620 04:27:44.919803  3091 net.cpp:165] Memory required for data: 17898360
I0620 04:27:44.919812  3091 layer_factory.hpp:77] Creating layer conv1_1_3x3_s2
I0620 04:27:44.919848  3091 net.cpp:106] Creating Layer conv1_1_3x3_s2
I0620 04:27:44.919852  3091 net.cpp:454] conv1_1_3x3_s2 <- data
I0620 04:27:44.919865  3091 net.cpp:411] conv1_1_3x3_s2 -> conv1_1_3x3_s2
I0620 04:27:44.920716  3091 net.cpp:150] Setting up conv1_1_3x3_s2
I0620 04:27:44.920725  3091 net.cpp:157] Top shape: 5 64 237 237 (17974080)
I0620 04:27:44.920728  3091 net.cpp:165] Memory required for data: 89794680
I0620 04:27:44.920737  3091 layer_factory.hpp:77] Creating layer conv1_1_3x3_s2/bn
I0620 04:27:44.920745  3091 net.cpp:106] Creating Layer conv1_1_3x3_s2/bn
I0620 04:27:44.920748  3091 net.cpp:454] conv1_1_3x3_s2/bn <- conv1_1_3x3_s2
I0620 04:27:44.920753  3091 net.cpp:397] conv1_1_3x3_s2/bn -> conv1_1_3x3_s2 (in-place)
I0620 04:27:44.927574  3091 net.cpp:150] Setting up conv1_1_3x3_s2/bn
I0620 04:27:44.927593  3091 net.cpp:157] Top shape: 5 64 237 237 (17974080)
I0620 04:27:44.927597  3091 net.cpp:165] Memory required for data: 161691000
I0620 04:27:44.927623  3091 layer_factory.hpp:77] Creating layer conv1_1_3x3_s2/relu
I0620 04:27:44.927634  3091 net.cpp:106] Creating Layer conv1_1_3x3_s2/relu
I0620 04:27:44.927639  3091 net.cpp:454] conv1_1_3x3_s2/relu <- conv1_1_3x3_s2
I0620 04:27:44.927644  3091 net.cpp:397] conv1_1_3x3_s2/relu -> conv1_1_3x3_s2 (in-place)
I0620 04:27:44.927652  3091 net.cpp:150] Setting up conv1_1_3x3_s2/relu
I0620 04:27:44.927656  3091 net.cpp:157] Top shape: 5 64 237 237 (17974080)
I0620 04:27:44.927659  3091 net.cpp:165] Memory required for data: 233587320
I0620 04:27:44.927661  3091 layer_factory.hpp:77] Creating layer conv1_2_3x3
I0620 04:27:44.927670  3091 net.cpp:106] Creating Layer conv1_2_3x3
I0620 04:27:44.927672  3091 net.cpp:454] conv1_2_3x3 <- conv1_1_3x3_s2
I0620 04:27:44.927677  3091 net.cpp:411] conv1_2_3x3 -> conv1_2_3x3
I0620 04:27:44.928557  3091 net.cpp:150] Setting up conv1_2_3x3
I0620 04:27:44.928562  3091 net.cpp:157] Top shape: 5 64 237 237 (17974080)
I0620 04:27:44.928565  3091 net.cpp:165] Memory required for data: 305483640
I0620 04:27:44.928570  3091 layer_factory.hpp:77] Creating layer conv1_2_3x3/bn
I0620 04:27:44.928575  3091 net.cpp:106] Creating Layer conv1_2_3x3/bn
I0620 04:27:44.928577  3091 net.cpp:454] conv1_2_3x3/bn <- conv1_2_3x3
I0620 04:27:44.928581  3091 net.cpp:397] conv1_2_3x3/bn -> conv1_2_3x3 (in-place)
I0620 04:27:44.928731  3091 net.cpp:150] Setting up conv1_2_3x3/bn
I0620 04:27:44.928736  3091 net.cpp:157] Top shape: 5 64 237 237 (17974080)
I0620 04:27:44.928738  3091 net.cpp:165] Memory required for data: 377379960
I0620 04:27:44.928746  3091 layer_factory.hpp:77] Creating layer conv1_2_3x3/relu
I0620 04:27:44.928751  3091 net.cpp:106] Creating Layer conv1_2_3x3/relu
I0620 04:27:44.928753  3091 net.cpp:454] conv1_2_3x3/relu <- conv1_2_3x3
I0620 04:27:44.928757  3091 net.cpp:397] conv1_2_3x3/relu -> conv1_2_3x3 (in-place)
I0620 04:27:44.928761  3091 net.cpp:150] Setting up conv1_2_3x3/relu
I0620 04:27:44.928766  3091 net.cpp:157] Top shape: 5 64 237 237 (17974080)
I0620 04:27:44.928767  3091 net.cpp:165] Memory required for data: 449276280
I0620 04:27:44.928771  3091 layer_factory.hpp:77] Creating layer conv1_3_3x3
I0620 04:27:44.928774  3091 net.cpp:106] Creating Layer conv1_3_3x3
I0620 04:27:44.928777  3091 net.cpp:454] conv1_3_3x3 <- conv1_2_3x3
I0620 04:27:44.928784  3091 net.cpp:411] conv1_3_3x3 -> conv1_3_3x3
I0620 04:27:44.931211  3091 net.cpp:150] Setting up conv1_3_3x3
I0620 04:27:44.931247  3091 net.cpp:157] Top shape: 5 128 237 237 (35948160)
I0620 04:27:44.931251  3091 net.cpp:165] Memory required for data: 593068920
I0620 04:27:44.931264  3091 layer_factory.hpp:77] Creating layer conv1_3_3x3/bn
I0620 04:27:44.931285  3091 net.cpp:106] Creating Layer conv1_3_3x3/bn
I0620 04:27:44.931290  3091 net.cpp:454] conv1_3_3x3/bn <- conv1_3_3x3
I0620 04:27:44.931298  3091 net.cpp:397] conv1_3_3x3/bn -> conv1_3_3x3 (in-place)
I0620 04:27:44.931511  3091 net.cpp:150] Setting up conv1_3_3x3/bn
I0620 04:27:44.931517  3091 net.cpp:157] Top shape: 5 128 237 237 (35948160)
I0620 04:27:44.931520  3091 net.cpp:165] Memory required for data: 736861560
I0620 04:27:44.931526  3091 layer_factory.hpp:77] Creating layer conv1_3_3x3/relu
I0620 04:27:44.931535  3091 net.cpp:106] Creating Layer conv1_3_3x3/relu
I0620 04:27:44.931538  3091 net.cpp:454] conv1_3_3x3/relu <- conv1_3_3x3
I0620 04:27:44.931541  3091 net.cpp:397] conv1_3_3x3/relu -> conv1_3_3x3 (in-place)
I0620 04:27:44.931545  3091 net.cpp:150] Setting up conv1_3_3x3/relu
I0620 04:27:44.931550  3091 net.cpp:157] Top shape: 5 128 237 237 (35948160)
I0620 04:27:44.931551  3091 net.cpp:165] Memory required for data: 880654200
I0620 04:27:44.931555  3091 layer_factory.hpp:77] Creating layer pool1_3x3_s2
I0620 04:27:44.931560  3091 net.cpp:106] Creating Layer pool1_3x3_s2
I0620 04:27:44.931562  3091 net.cpp:454] pool1_3x3_s2 <- conv1_3_3x3
I0620 04:27:44.931565  3091 net.cpp:411] pool1_3x3_s2 -> pool1_3x3_s2
I0620 04:27:44.931612  3091 net.cpp:150] Setting up pool1_3x3_s2
I0620 04:27:44.931617  3091 net.cpp:157] Top shape: 5 128 119 119 (9063040)
I0620 04:27:44.931654  3091 net.cpp:165] Memory required for data: 916906360
I0620 04:27:44.931658  3091 layer_factory.hpp:77] Creating layer pool1_3x3_s2_pool1_3x3_s2_0_split
I0620 04:27:44.931682  3091 net.cpp:106] Creating Layer pool1_3x3_s2_pool1_3x3_s2_0_split
I0620 04:27:44.931685  3091 net.cpp:454] pool1_3x3_s2_pool1_3x3_s2_0_split <- pool1_3x3_s2
I0620 04:27:44.931689  3091 net.cpp:411] pool1_3x3_s2_pool1_3x3_s2_0_split -> pool1_3x3_s2_pool1_3x3_s2_0_split_0
I0620 04:27:44.931694  3091 net.cpp:411] pool1_3x3_s2_pool1_3x3_s2_0_split -> pool1_3x3_s2_pool1_3x3_s2_0_split_1
I0620 04:27:44.931722  3091 net.cpp:150] Setting up pool1_3x3_s2_pool1_3x3_s2_0_split
I0620 04:27:44.931728  3091 net.cpp:157] Top shape: 5 128 119 119 (9063040)
I0620 04:27:44.931732  3091 net.cpp:157] Top shape: 5 128 119 119 (9063040)
I0620 04:27:44.931735  3091 net.cpp:165] Memory required for data: 989410680
I0620 04:27:44.931737  3091 layer_factory.hpp:77] Creating layer conv2_1_1x1_reduce
I0620 04:27:44.931749  3091 net.cpp:106] Creating Layer conv2_1_1x1_reduce
I0620 04:27:44.931751  3091 net.cpp:454] conv2_1_1x1_reduce <- pool1_3x3_s2_pool1_3x3_s2_0_split_0
I0620 04:27:44.931758  3091 net.cpp:411] conv2_1_1x1_reduce -> conv2_1_1x1_reduce
I0620 04:27:44.933464  3091 net.cpp:150] Setting up conv2_1_1x1_reduce
I0620 04:27:44.933493  3091 net.cpp:157] Top shape: 5 64 119 119 (4531520)
I0620 04:27:44.933497  3091 net.cpp:165] Memory required for data: 1007536760
I0620 04:27:44.933506  3091 layer_factory.hpp:77] Creating layer conv2_1_1x1_reduce/bn
I0620 04:27:44.933522  3091 net.cpp:106] Creating Layer conv2_1_1x1_reduce/bn
I0620 04:27:44.933526  3091 net.cpp:454] conv2_1_1x1_reduce/bn <- conv2_1_1x1_reduce
I0620 04:27:44.933531  3091 net.cpp:397] conv2_1_1x1_reduce/bn -> conv2_1_1x1_reduce (in-place)
I0620 04:27:44.933706  3091 net.cpp:150] Setting up conv2_1_1x1_reduce/bn
I0620 04:27:44.933710  3091 net.cpp:157] Top shape: 5 64 119 119 (4531520)
I0620 04:27:44.933713  3091 net.cpp:165] Memory required for data: 1025662840
I0620 04:27:44.933725  3091 layer_factory.hpp:77] Creating layer conv2_1_1x1_reduce/relu
I0620 04:27:44.933732  3091 net.cpp:106] Creating Layer conv2_1_1x1_reduce/relu
I0620 04:27:44.933733  3091 net.cpp:454] conv2_1_1x1_reduce/relu <- conv2_1_1x1_reduce
I0620 04:27:44.933739  3091 net.cpp:397] conv2_1_1x1_reduce/relu -> conv2_1_1x1_reduce (in-place)
I0620 04:27:44.933744  3091 net.cpp:150] Setting up conv2_1_1x1_reduce/relu
I0620 04:27:44.933748  3091 net.cpp:157] Top shape: 5 64 119 119 (4531520)
I0620 04:27:44.933770  3091 net.cpp:165] Memory required for data: 1043788920
I0620 04:27:44.933776  3091 layer_factory.hpp:77] Creating layer conv2_1_3x3
I0620 04:27:44.933786  3091 net.cpp:106] Creating Layer conv2_1_3x3
I0620 04:27:44.933789  3091 net.cpp:454] conv2_1_3x3 <- conv2_1_1x1_reduce
I0620 04:27:44.933797  3091 net.cpp:411] conv2_1_3x3 -> conv2_1_3x3
I0620 04:27:44.934736  3091 net.cpp:150] Setting up conv2_1_3x3
I0620 04:27:44.934742  3091 net.cpp:157] Top shape: 5 64 119 119 (4531520)
I0620 04:27:44.934744  3091 net.cpp:165] Memory required for data: 1061915000
I0620 04:27:44.934748  3091 layer_factory.hpp:77] Creating layer conv2_1_3x3/bn
I0620 04:27:44.934756  3091 net.cpp:106] Creating Layer conv2_1_3x3/bn
I0620 04:27:44.934758  3091 net.cpp:454] conv2_1_3x3/bn <- conv2_1_3x3
I0620 04:27:44.934762  3091 net.cpp:397] conv2_1_3x3/bn -> conv2_1_3x3 (in-place)
I0620 04:27:44.934897  3091 net.cpp:150] Setting up conv2_1_3x3/bn
I0620 04:27:44.934902  3091 net.cpp:157] Top shape: 5 64 119 119 (4531520)
I0620 04:27:44.934906  3091 net.cpp:165] Memory required for data: 1080041080
I0620 04:27:44.934911  3091 layer_factory.hpp:77] Creating layer conv2_1_3x3/relu
I0620 04:27:44.934914  3091 net.cpp:106] Creating Layer conv2_1_3x3/relu
I0620 04:27:44.934917  3091 net.cpp:454] conv2_1_3x3/relu <- conv2_1_3x3
I0620 04:27:44.934922  3091 net.cpp:397] conv2_1_3x3/relu -> conv2_1_3x3 (in-place)
I0620 04:27:44.934926  3091 net.cpp:150] Setting up conv2_1_3x3/relu
I0620 04:27:44.934947  3091 net.cpp:157] Top shape: 5 64 119 119 (4531520)
I0620 04:27:44.934949  3091 net.cpp:165] Memory required for data: 1098167160
I0620 04:27:44.934952  3091 layer_factory.hpp:77] Creating layer conv2_1_1x1_increase
I0620 04:27:44.934957  3091 net.cpp:106] Creating Layer conv2_1_1x1_increase
I0620 04:27:44.934959  3091 net.cpp:454] conv2_1_1x1_increase <- conv2_1_3x3
I0620 04:27:44.934964  3091 net.cpp:411] conv2_1_1x1_increase -> conv2_1_1x1_increase
I0620 04:27:44.935412  3091 net.cpp:150] Setting up conv2_1_1x1_increase
I0620 04:27:44.935417  3091 net.cpp:157] Top shape: 5 256 119 119 (18126080)
I0620 04:27:44.935420  3091 net.cpp:165] Memory required for data: 1170671480
I0620 04:27:44.935423  3091 layer_factory.hpp:77] Creating layer conv2_1_1x1_increase/bn
I0620 04:27:44.935427  3091 net.cpp:106] Creating Layer conv2_1_1x1_increase/bn
I0620 04:27:44.935431  3091 net.cpp:454] conv2_1_1x1_increase/bn <- conv2_1_1x1_increase
I0620 04:27:44.935434  3091 net.cpp:397] conv2_1_1x1_increase/bn -> conv2_1_1x1_increase (in-place)
I0620 04:27:44.935559  3091 net.cpp:150] Setting up conv2_1_1x1_increase/bn
I0620 04:27:44.935562  3091 net.cpp:157] Top shape: 5 256 119 119 (18126080)
I0620 04:27:44.935565  3091 net.cpp:165] Memory required for data: 1243175800
I0620 04:27:44.935570  3091 layer_factory.hpp:77] Creating layer conv2_1_1x1_proj
I0620 04:27:44.935575  3091 net.cpp:106] Creating Layer conv2_1_1x1_proj
I0620 04:27:44.935578  3091 net.cpp:454] conv2_1_1x1_proj <- pool1_3x3_s2_pool1_3x3_s2_0_split_1
I0620 04:27:44.935583  3091 net.cpp:411] conv2_1_1x1_proj -> conv2_1_1x1_proj
I0620 04:27:44.936372  3091 net.cpp:150] Setting up conv2_1_1x1_proj
I0620 04:27:44.936377  3091 net.cpp:157] Top shape: 5 256 119 119 (18126080)
I0620 04:27:44.936379  3091 net.cpp:165] Memory required for data: 1315680120
I0620 04:27:44.936383  3091 layer_factory.hpp:77] Creating layer conv2_1_1x1_proj/bn
I0620 04:27:44.936388  3091 net.cpp:106] Creating Layer conv2_1_1x1_proj/bn
I0620 04:27:44.936390  3091 net.cpp:454] conv2_1_1x1_proj/bn <- conv2_1_1x1_proj
I0620 04:27:44.936394  3091 net.cpp:397] conv2_1_1x1_proj/bn -> conv2_1_1x1_proj (in-place)
I0620 04:27:44.936518  3091 net.cpp:150] Setting up conv2_1_1x1_proj/bn
I0620 04:27:44.936523  3091 net.cpp:157] Top shape: 5 256 119 119 (18126080)
I0620 04:27:44.936525  3091 net.cpp:165] Memory required for data: 1388184440
I0620 04:27:44.936533  3091 layer_factory.hpp:77] Creating layer conv2_1
I0620 04:27:44.936542  3091 net.cpp:106] Creating Layer conv2_1
I0620 04:27:44.936545  3091 net.cpp:454] conv2_1 <- conv2_1_1x1_proj
I0620 04:27:44.936548  3091 net.cpp:454] conv2_1 <- conv2_1_1x1_increase
I0620 04:27:44.936553  3091 net.cpp:411] conv2_1 -> conv2_1
I0620 04:27:44.936575  3091 net.cpp:150] Setting up conv2_1
I0620 04:27:44.936579  3091 net.cpp:157] Top shape: 5 256 119 119 (18126080)
I0620 04:27:44.936583  3091 net.cpp:165] Memory required for data: 1460688760
I0620 04:27:44.936584  3091 layer_factory.hpp:77] Creating layer conv2_1/relu
I0620 04:27:44.936589  3091 net.cpp:106] Creating Layer conv2_1/relu
I0620 04:27:44.936591  3091 net.cpp:454] conv2_1/relu <- conv2_1
I0620 04:27:44.936595  3091 net.cpp:397] conv2_1/relu -> conv2_1 (in-place)
I0620 04:27:44.936599  3091 net.cpp:150] Setting up conv2_1/relu
I0620 04:27:44.936602  3091 net.cpp:157] Top shape: 5 256 119 119 (18126080)
I0620 04:27:44.936605  3091 net.cpp:165] Memory required for data: 1533193080
I0620 04:27:44.936607  3091 layer_factory.hpp:77] Creating layer conv2_1_conv2_1/relu_0_split
I0620 04:27:44.936612  3091 net.cpp:106] Creating Layer conv2_1_conv2_1/relu_0_split
I0620 04:27:44.936614  3091 net.cpp:454] conv2_1_conv2_1/relu_0_split <- conv2_1
I0620 04:27:44.936619  3091 net.cpp:411] conv2_1_conv2_1/relu_0_split -> conv2_1_conv2_1/relu_0_split_0
I0620 04:27:44.936624  3091 net.cpp:411] conv2_1_conv2_1/relu_0_split -> conv2_1_conv2_1/relu_0_split_1
I0620 04:27:44.936643  3091 net.cpp:150] Setting up conv2_1_conv2_1/relu_0_split
I0620 04:27:44.936647  3091 net.cpp:157] Top shape: 5 256 119 119 (18126080)
I0620 04:27:44.936656  3091 net.cpp:157] Top shape: 5 256 119 119 (18126080)
I0620 04:27:44.936658  3091 net.cpp:165] Memory required for data: 1678201720
I0620 04:27:44.936661  3091 layer_factory.hpp:77] Creating layer conv2_2_1x1_reduce
I0620 04:27:44.936666  3091 net.cpp:106] Creating Layer conv2_2_1x1_reduce
I0620 04:27:44.936669  3091 net.cpp:454] conv2_2_1x1_reduce <- conv2_1_conv2_1/relu_0_split_0
I0620 04:27:44.936674  3091 net.cpp:411] conv2_2_1x1_reduce -> conv2_2_1x1_reduce
I0620 04:27:44.937127  3091 net.cpp:150] Setting up conv2_2_1x1_reduce
I0620 04:27:44.937134  3091 net.cpp:157] Top shape: 5 64 119 119 (4531520)
I0620 04:27:44.937135  3091 net.cpp:165] Memory required for data: 1696327800
I0620 04:27:44.937139  3091 layer_factory.hpp:77] Creating layer conv2_2_1x1_reduce/bn
I0620 04:27:44.937144  3091 net.cpp:106] Creating Layer conv2_2_1x1_reduce/bn
I0620 04:27:44.937147  3091 net.cpp:454] conv2_2_1x1_reduce/bn <- conv2_2_1x1_reduce
I0620 04:27:44.937150  3091 net.cpp:397] conv2_2_1x1_reduce/bn -> conv2_2_1x1_reduce (in-place)
I0620 04:27:44.937288  3091 net.cpp:150] Setting up conv2_2_1x1_reduce/bn
I0620 04:27:44.937292  3091 net.cpp:157] Top shape: 5 64 119 119 (4531520)
I0620 04:27:44.937294  3091 net.cpp:165] Memory required for data: 1714453880
I0620 04:27:44.937300  3091 layer_factory.hpp:77] Creating layer conv2_2_1x1_reduce/relu
I0620 04:27:44.937305  3091 net.cpp:106] Creating Layer conv2_2_1x1_reduce/relu
I0620 04:27:44.937309  3091 net.cpp:454] conv2_2_1x1_reduce/relu <- conv2_2_1x1_reduce
I0620 04:27:44.937311  3091 net.cpp:397] conv2_2_1x1_reduce/relu -> conv2_2_1x1_reduce (in-place)
I0620 04:27:44.937315  3091 net.cpp:150] Setting up conv2_2_1x1_reduce/relu
I0620 04:27:44.937319  3091 net.cpp:157] Top shape: 5 64 119 119 (4531520)
I0620 04:27:44.937321  3091 net.cpp:165] Memory required for data: 1732579960
I0620 04:27:44.937325  3091 layer_factory.hpp:77] Creating layer conv2_2_3x3
I0620 04:27:44.937332  3091 net.cpp:106] Creating Layer conv2_2_3x3
I0620 04:27:44.937335  3091 net.cpp:454] conv2_2_3x3 <- conv2_2_1x1_reduce
I0620 04:27:44.937500  3091 net.cpp:411] conv2_2_3x3 -> conv2_2_3x3
I0620 04:27:44.938462  3091 net.cpp:150] Setting up conv2_2_3x3
I0620 04:27:44.938475  3091 net.cpp:157] Top shape: 5 64 119 119 (4531520)
I0620 04:27:44.938478  3091 net.cpp:165] Memory required for data: 1750706040
I0620 04:27:44.938484  3091 layer_factory.hpp:77] Creating layer conv2_2_3x3/bn
I0620 04:27:44.938493  3091 net.cpp:106] Creating Layer conv2_2_3x3/bn
I0620 04:27:44.938498  3091 net.cpp:454] conv2_2_3x3/bn <- conv2_2_3x3
I0620 04:27:44.938503  3091 net.cpp:397] conv2_2_3x3/bn -> conv2_2_3x3 (in-place)
I0620 04:27:44.938676  3091 net.cpp:150] Setting up conv2_2_3x3/bn
I0620 04:27:44.938681  3091 net.cpp:157] Top shape: 5 64 119 119 (4531520)
I0620 04:27:44.938684  3091 net.cpp:165] Memory required for data: 1768832120
I0620 04:27:44.938688  3091 layer_factory.hpp:77] Creating layer conv2_2_3x3/relu
I0620 04:27:44.938694  3091 net.cpp:106] Creating Layer conv2_2_3x3/relu
I0620 04:27:44.938696  3091 net.cpp:454] conv2_2_3x3/relu <- conv2_2_3x3
I0620 04:27:44.938700  3091 net.cpp:397] conv2_2_3x3/relu -> conv2_2_3x3 (in-place)
I0620 04:27:44.938704  3091 net.cpp:150] Setting up conv2_2_3x3/relu
I0620 04:27:44.938707  3091 net.cpp:157] Top shape: 5 64 119 119 (4531520)
I0620 04:27:44.938710  3091 net.cpp:165] Memory required for data: 1786958200
I0620 04:27:44.938712  3091 layer_factory.hpp:77] Creating layer conv2_2_1x1_increase
I0620 04:27:44.938719  3091 net.cpp:106] Creating Layer conv2_2_1x1_increase
I0620 04:27:44.938721  3091 net.cpp:454] conv2_2_1x1_increase <- conv2_2_3x3
I0620 04:27:44.938725  3091 net.cpp:411] conv2_2_1x1_increase -> conv2_2_1x1_increase
I0620 04:27:44.939196  3091 net.cpp:150] Setting up conv2_2_1x1_increase
I0620 04:27:44.939201  3091 net.cpp:157] Top shape: 5 256 119 119 (18126080)
I0620 04:27:44.939204  3091 net.cpp:165] Memory required for data: 1859462520
I0620 04:27:44.939208  3091 layer_factory.hpp:77] Creating layer conv2_2_1x1_increase/bn
I0620 04:27:44.939219  3091 net.cpp:106] Creating Layer conv2_2_1x1_increase/bn
I0620 04:27:44.939255  3091 net.cpp:454] conv2_2_1x1_increase/bn <- conv2_2_1x1_increase
I0620 04:27:44.939260  3091 net.cpp:397] conv2_2_1x1_increase/bn -> conv2_2_1x1_increase (in-place)
I0620 04:27:44.939405  3091 net.cpp:150] Setting up conv2_2_1x1_increase/bn
I0620 04:27:44.939410  3091 net.cpp:157] Top shape: 5 256 119 119 (18126080)
I0620 04:27:44.939414  3091 net.cpp:165] Memory required for data: 1931966840
I0620 04:27:44.939419  3091 layer_factory.hpp:77] Creating layer conv2_2
I0620 04:27:44.939424  3091 net.cpp:106] Creating Layer conv2_2
I0620 04:27:44.939429  3091 net.cpp:454] conv2_2 <- conv2_1_conv2_1/relu_0_split_1
I0620 04:27:44.939433  3091 net.cpp:454] conv2_2 <- conv2_2_1x1_increase
I0620 04:27:44.939437  3091 net.cpp:411] conv2_2 -> conv2_2
I0620 04:27:44.939455  3091 net.cpp:150] Setting up conv2_2
I0620 04:27:44.939458  3091 net.cpp:157] Top shape: 5 256 119 119 (18126080)
I0620 04:27:44.939461  3091 net.cpp:165] Memory required for data: 2004471160
I0620 04:27:44.939465  3091 layer_factory.hpp:77] Creating layer conv2_2/relu
I0620 04:27:44.939469  3091 net.cpp:106] Creating Layer conv2_2/relu
I0620 04:27:44.939472  3091 net.cpp:454] conv2_2/relu <- conv2_2
I0620 04:27:44.939476  3091 net.cpp:397] conv2_2/relu -> conv2_2 (in-place)
I0620 04:27:44.939481  3091 net.cpp:150] Setting up conv2_2/relu
I0620 04:27:44.939484  3091 net.cpp:157] Top shape: 5 256 119 119 (18126080)
I0620 04:27:44.939486  3091 net.cpp:165] Memory required for data: 2076975480
I0620 04:27:44.939489  3091 layer_factory.hpp:77] Creating layer conv2_2_conv2_2/relu_0_split
I0620 04:27:44.939496  3091 net.cpp:106] Creating Layer conv2_2_conv2_2/relu_0_split
I0620 04:27:44.939499  3091 net.cpp:454] conv2_2_conv2_2/relu_0_split <- conv2_2
I0620 04:27:44.939502  3091 net.cpp:411] conv2_2_conv2_2/relu_0_split -> conv2_2_conv2_2/relu_0_split_0
I0620 04:27:44.939505  3091 net.cpp:411] conv2_2_conv2_2/relu_0_split -> conv2_2_conv2_2/relu_0_split_1
I0620 04:27:44.939530  3091 net.cpp:150] Setting up conv2_2_conv2_2/relu_0_split
I0620 04:27:44.939534  3091 net.cpp:157] Top shape: 5 256 119 119 (18126080)
I0620 04:27:44.939538  3091 net.cpp:157] Top shape: 5 256 119 119 (18126080)
I0620 04:27:44.939539  3091 net.cpp:165] Memory required for data: 2221984120
I0620 04:27:44.939543  3091 layer_factory.hpp:77] Creating layer conv2_3_1x1_reduce
I0620 04:27:44.939549  3091 net.cpp:106] Creating Layer conv2_3_1x1_reduce
I0620 04:27:44.939553  3091 net.cpp:454] conv2_3_1x1_reduce <- conv2_2_conv2_2/relu_0_split_0
I0620 04:27:44.939558  3091 net.cpp:411] conv2_3_1x1_reduce -> conv2_3_1x1_reduce
I0620 04:27:44.940026  3091 net.cpp:150] Setting up conv2_3_1x1_reduce
I0620 04:27:44.940033  3091 net.cpp:157] Top shape: 5 64 119 119 (4531520)
I0620 04:27:44.940037  3091 net.cpp:165] Memory required for data: 2240110200
I0620 04:27:44.940042  3091 layer_factory.hpp:77] Creating layer conv2_3_1x1_reduce/bn
I0620 04:27:44.940048  3091 net.cpp:106] Creating Layer conv2_3_1x1_reduce/bn
I0620 04:27:44.940052  3091 net.cpp:454] conv2_3_1x1_reduce/bn <- conv2_3_1x1_reduce
I0620 04:27:44.940058  3091 net.cpp:397] conv2_3_1x1_reduce/bn -> conv2_3_1x1_reduce (in-place)
I0620 04:27:44.940217  3091 net.cpp:150] Setting up conv2_3_1x1_reduce/bn
I0620 04:27:44.940222  3091 net.cpp:157] Top shape: 5 64 119 119 (4531520)
I0620 04:27:44.940225  3091 net.cpp:165] Memory required for data: 2258236280
I0620 04:27:44.940230  3091 layer_factory.hpp:77] Creating layer conv2_3_1x1_reduce/relu
I0620 04:27:44.940234  3091 net.cpp:106] Creating Layer conv2_3_1x1_reduce/relu
I0620 04:27:44.940237  3091 net.cpp:454] conv2_3_1x1_reduce/relu <- conv2_3_1x1_reduce
I0620 04:27:44.940240  3091 net.cpp:397] conv2_3_1x1_reduce/relu -> conv2_3_1x1_reduce (in-place)
I0620 04:27:44.940244  3091 net.cpp:150] Setting up conv2_3_1x1_reduce/relu
I0620 04:27:44.940248  3091 net.cpp:157] Top shape: 5 64 119 119 (4531520)
I0620 04:27:44.940250  3091 net.cpp:165] Memory required for data: 2276362360
I0620 04:27:44.940253  3091 layer_factory.hpp:77] Creating layer conv2_3_3x3
I0620 04:27:44.940269  3091 net.cpp:106] Creating Layer conv2_3_3x3
I0620 04:27:44.940271  3091 net.cpp:454] conv2_3_3x3 <- conv2_3_1x1_reduce
I0620 04:27:44.940275  3091 net.cpp:411] conv2_3_3x3 -> conv2_3_3x3
I0620 04:27:44.941175  3091 net.cpp:150] Setting up conv2_3_3x3
I0620 04:27:44.941180  3091 net.cpp:157] Top shape: 5 64 119 119 (4531520)
I0620 04:27:44.941184  3091 net.cpp:165] Memory required for data: 2294488440
I0620 04:27:44.941189  3091 layer_factory.hpp:77] Creating layer conv2_3_3x3/bn
I0620 04:27:44.941195  3091 net.cpp:106] Creating Layer conv2_3_3x3/bn
I0620 04:27:44.941196  3091 net.cpp:454] conv2_3_3x3/bn <- conv2_3_3x3
I0620 04:27:44.941201  3091 net.cpp:397] conv2_3_3x3/bn -> conv2_3_3x3 (in-place)
I0620 04:27:44.941342  3091 net.cpp:150] Setting up conv2_3_3x3/bn
I0620 04:27:44.941347  3091 net.cpp:157] Top shape: 5 64 119 119 (4531520)
I0620 04:27:44.941350  3091 net.cpp:165] Memory required for data: 2312614520
I0620 04:27:44.941355  3091 layer_factory.hpp:77] Creating layer conv2_3_3x3/relu
I0620 04:27:44.941359  3091 net.cpp:106] Creating Layer conv2_3_3x3/relu
I0620 04:27:44.941361  3091 net.cpp:454] conv2_3_3x3/relu <- conv2_3_3x3
I0620 04:27:44.941365  3091 net.cpp:397] conv2_3_3x3/relu -> conv2_3_3x3 (in-place)
I0620 04:27:44.941370  3091 net.cpp:150] Setting up conv2_3_3x3/relu
I0620 04:27:44.941372  3091 net.cpp:157] Top shape: 5 64 119 119 (4531520)
I0620 04:27:44.941375  3091 net.cpp:165] Memory required for data: 2330740600
I0620 04:27:44.941378  3091 layer_factory.hpp:77] Creating layer conv2_3_1x1_increase
I0620 04:27:44.941382  3091 net.cpp:106] Creating Layer conv2_3_1x1_increase
I0620 04:27:44.941385  3091 net.cpp:454] conv2_3_1x1_increase <- conv2_3_3x3
I0620 04:27:44.941390  3091 net.cpp:411] conv2_3_1x1_increase -> conv2_3_1x1_increase
I0620 04:27:44.941857  3091 net.cpp:150] Setting up conv2_3_1x1_increase
I0620 04:27:44.941864  3091 net.cpp:157] Top shape: 5 256 119 119 (18126080)
I0620 04:27:44.941866  3091 net.cpp:165] Memory required for data: 2403244920
I0620 04:27:44.941870  3091 layer_factory.hpp:77] Creating layer conv2_3_1x1_increase/bn
I0620 04:27:44.941877  3091 net.cpp:106] Creating Layer conv2_3_1x1_increase/bn
I0620 04:27:44.941880  3091 net.cpp:454] conv2_3_1x1_increase/bn <- conv2_3_1x1_increase
I0620 04:27:44.941884  3091 net.cpp:397] conv2_3_1x1_increase/bn -> conv2_3_1x1_increase (in-place)
I0620 04:27:44.942008  3091 net.cpp:150] Setting up conv2_3_1x1_increase/bn
I0620 04:27:44.942014  3091 net.cpp:157] Top shape: 5 256 119 119 (18126080)
I0620 04:27:44.942016  3091 net.cpp:165] Memory required for data: 2475749240
I0620 04:27:44.942030  3091 layer_factory.hpp:77] Creating layer conv2_3
I0620 04:27:44.942035  3091 net.cpp:106] Creating Layer conv2_3
I0620 04:27:44.942039  3091 net.cpp:454] conv2_3 <- conv2_2_conv2_2/relu_0_split_1
I0620 04:27:44.942041  3091 net.cpp:454] conv2_3 <- conv2_3_1x1_increase
I0620 04:27:44.942045  3091 net.cpp:411] conv2_3 -> conv2_3
I0620 04:27:44.942061  3091 net.cpp:150] Setting up conv2_3
I0620 04:27:44.942065  3091 net.cpp:157] Top shape: 5 256 119 119 (18126080)
I0620 04:27:44.942067  3091 net.cpp:165] Memory required for data: 2548253560
I0620 04:27:44.942070  3091 layer_factory.hpp:77] Creating layer conv2_3/relu
I0620 04:27:44.942073  3091 net.cpp:106] Creating Layer conv2_3/relu
I0620 04:27:44.942076  3091 net.cpp:454] conv2_3/relu <- conv2_3
I0620 04:27:44.942080  3091 net.cpp:397] conv2_3/relu -> conv2_3 (in-place)
I0620 04:27:44.942085  3091 net.cpp:150] Setting up conv2_3/relu
I0620 04:27:44.942087  3091 net.cpp:157] Top shape: 5 256 119 119 (18126080)
I0620 04:27:44.942090  3091 net.cpp:165] Memory required for data: 2620757880
I0620 04:27:44.942092  3091 layer_factory.hpp:77] Creating layer conv2_3_conv2_3/relu_0_split
I0620 04:27:44.942096  3091 net.cpp:106] Creating Layer conv2_3_conv2_3/relu_0_split
I0620 04:27:44.942100  3091 net.cpp:454] conv2_3_conv2_3/relu_0_split <- conv2_3
I0620 04:27:44.942102  3091 net.cpp:411] conv2_3_conv2_3/relu_0_split -> conv2_3_conv2_3/relu_0_split_0
I0620 04:27:44.942111  3091 net.cpp:411] conv2_3_conv2_3/relu_0_split -> conv2_3_conv2_3/relu_0_split_1
I0620 04:27:44.942133  3091 net.cpp:150] Setting up conv2_3_conv2_3/relu_0_split
I0620 04:27:44.942137  3091 net.cpp:157] Top shape: 5 256 119 119 (18126080)
I0620 04:27:44.942140  3091 net.cpp:157] Top shape: 5 256 119 119 (18126080)
I0620 04:27:44.942143  3091 net.cpp:165] Memory required for data: 2765766520
I0620 04:27:44.946956  3091 layer_factory.hpp:77] Creating layer conv3_1_1x1_reduce
I0620 04:27:44.947005  3091 net.cpp:106] Creating Layer conv3_1_1x1_reduce
I0620 04:27:44.947013  3091 net.cpp:454] conv3_1_1x1_reduce <- conv2_3_conv2_3/relu_0_split_0
I0620 04:27:44.947023  3091 net.cpp:411] conv3_1_1x1_reduce -> conv3_1_1x1_reduce
I0620 04:27:44.948052  3091 net.cpp:150] Setting up conv3_1_1x1_reduce
I0620 04:27:44.948071  3091 net.cpp:157] Top shape: 5 128 119 119 (9063040)
I0620 04:27:44.948074  3091 net.cpp:165] Memory required for data: 2802018680
I0620 04:27:44.948083  3091 layer_factory.hpp:77] Creating layer conv3_1_1x1_reduce/bn
I0620 04:27:44.948094  3091 net.cpp:106] Creating Layer conv3_1_1x1_reduce/bn
I0620 04:27:44.948098  3091 net.cpp:454] conv3_1_1x1_reduce/bn <- conv3_1_1x1_reduce
I0620 04:27:44.948107  3091 net.cpp:397] conv3_1_1x1_reduce/bn -> conv3_1_1x1_reduce (in-place)
I0620 04:27:44.948274  3091 net.cpp:150] Setting up conv3_1_1x1_reduce/bn
I0620 04:27:44.948282  3091 net.cpp:157] Top shape: 5 128 119 119 (9063040)
I0620 04:27:44.948284  3091 net.cpp:165] Memory required for data: 2838270840
I0620 04:27:44.948292  3091 layer_factory.hpp:77] Creating layer conv3_1_1x1_reduce/relu
I0620 04:27:44.948298  3091 net.cpp:106] Creating Layer conv3_1_1x1_reduce/relu
I0620 04:27:44.948302  3091 net.cpp:454] conv3_1_1x1_reduce/relu <- conv3_1_1x1_reduce
I0620 04:27:44.948307  3091 net.cpp:397] conv3_1_1x1_reduce/relu -> conv3_1_1x1_reduce (in-place)
I0620 04:27:44.948313  3091 net.cpp:150] Setting up conv3_1_1x1_reduce/relu
I0620 04:27:44.948318  3091 net.cpp:157] Top shape: 5 128 119 119 (9063040)
I0620 04:27:44.948320  3091 net.cpp:165] Memory required for data: 2874523000
I0620 04:27:44.948323  3091 layer_factory.hpp:77] Creating layer conv3_1_3x3
I0620 04:27:44.948331  3091 net.cpp:106] Creating Layer conv3_1_3x3
I0620 04:27:44.948334  3091 net.cpp:454] conv3_1_3x3 <- conv3_1_1x1_reduce
I0620 04:27:44.948339  3091 net.cpp:411] conv3_1_3x3 -> conv3_1_3x3
I0620 04:27:44.951676  3091 net.cpp:150] Setting up conv3_1_3x3
I0620 04:27:44.951686  3091 net.cpp:157] Top shape: 5 128 60 60 (2304000)
I0620 04:27:44.951689  3091 net.cpp:165] Memory required for data: 2883739000
I0620 04:27:44.951694  3091 layer_factory.hpp:77] Creating layer conv3_1_3x3/bn
I0620 04:27:44.951701  3091 net.cpp:106] Creating Layer conv3_1_3x3/bn
I0620 04:27:44.951705  3091 net.cpp:454] conv3_1_3x3/bn <- conv3_1_3x3
I0620 04:27:44.951711  3091 net.cpp:397] conv3_1_3x3/bn -> conv3_1_3x3 (in-place)
I0620 04:27:44.951840  3091 net.cpp:150] Setting up conv3_1_3x3/bn
I0620 04:27:44.951845  3091 net.cpp:157] Top shape: 5 128 60 60 (2304000)
I0620 04:27:44.951848  3091 net.cpp:165] Memory required for data: 2892955000
I0620 04:27:44.951855  3091 layer_factory.hpp:77] Creating layer conv3_1_3x3/relu
I0620 04:27:44.951861  3091 net.cpp:106] Creating Layer conv3_1_3x3/relu
I0620 04:27:44.951864  3091 net.cpp:454] conv3_1_3x3/relu <- conv3_1_3x3
I0620 04:27:44.951869  3091 net.cpp:397] conv3_1_3x3/relu -> conv3_1_3x3 (in-place)
I0620 04:27:44.951874  3091 net.cpp:150] Setting up conv3_1_3x3/relu
I0620 04:27:44.951879  3091 net.cpp:157] Top shape: 5 128 60 60 (2304000)
I0620 04:27:44.951881  3091 net.cpp:165] Memory required for data: 2902171000
I0620 04:27:44.951884  3091 layer_factory.hpp:77] Creating layer conv3_1_1x1_increase
I0620 04:27:44.951890  3091 net.cpp:106] Creating Layer conv3_1_1x1_increase
I0620 04:27:44.951894  3091 net.cpp:454] conv3_1_1x1_increase <- conv3_1_3x3
I0620 04:27:44.951902  3091 net.cpp:411] conv3_1_1x1_increase -> conv3_1_1x1_increase
I0620 04:27:44.953394  3091 net.cpp:150] Setting up conv3_1_1x1_increase
I0620 04:27:44.953413  3091 net.cpp:157] Top shape: 5 512 60 60 (9216000)
I0620 04:27:44.953416  3091 net.cpp:165] Memory required for data: 2939035000
I0620 04:27:44.953421  3091 layer_factory.hpp:77] Creating layer conv3_1_1x1_increase/bn
I0620 04:27:44.953428  3091 net.cpp:106] Creating Layer conv3_1_1x1_increase/bn
I0620 04:27:44.953430  3091 net.cpp:454] conv3_1_1x1_increase/bn <- conv3_1_1x1_increase
I0620 04:27:44.953435  3091 net.cpp:397] conv3_1_1x1_increase/bn -> conv3_1_1x1_increase (in-place)
I0620 04:27:44.954258  3091 net.cpp:150] Setting up conv3_1_1x1_increase/bn
I0620 04:27:44.954269  3091 net.cpp:157] Top shape: 5 512 60 60 (9216000)
I0620 04:27:44.954273  3091 net.cpp:165] Memory required for data: 2975899000
I0620 04:27:44.954280  3091 layer_factory.hpp:77] Creating layer conv3_1_1x1_proj
I0620 04:27:44.954288  3091 net.cpp:106] Creating Layer conv3_1_1x1_proj
I0620 04:27:44.954293  3091 net.cpp:454] conv3_1_1x1_proj <- conv2_3_conv2_3/relu_0_split_1
I0620 04:27:44.954300  3091 net.cpp:411] conv3_1_1x1_proj -> conv3_1_1x1_proj
I0620 04:27:44.958335  3091 net.cpp:150] Setting up conv3_1_1x1_proj
I0620 04:27:44.958415  3091 net.cpp:157] Top shape: 5 512 60 60 (9216000)
I0620 04:27:44.958420  3091 net.cpp:165] Memory required for data: 3012763000
I0620 04:27:44.958439  3091 layer_factory.hpp:77] Creating layer conv3_1_1x1_proj/bn
I0620 04:27:44.958467  3091 net.cpp:106] Creating Layer conv3_1_1x1_proj/bn
I0620 04:27:44.958479  3091 net.cpp:454] conv3_1_1x1_proj/bn <- conv3_1_1x1_proj
I0620 04:27:44.958498  3091 net.cpp:397] conv3_1_1x1_proj/bn -> conv3_1_1x1_proj (in-place)
I0620 04:27:44.958806  3091 net.cpp:150] Setting up conv3_1_1x1_proj/bn
I0620 04:27:44.958814  3091 net.cpp:157] Top shape: 5 512 60 60 (9216000)
I0620 04:27:44.958817  3091 net.cpp:165] Memory required for data: 3049627000
I0620 04:27:44.958827  3091 layer_factory.hpp:77] Creating layer conv3_1
I0620 04:27:44.958845  3091 net.cpp:106] Creating Layer conv3_1
I0620 04:27:44.958850  3091 net.cpp:454] conv3_1 <- conv3_1_1x1_proj
I0620 04:27:44.958855  3091 net.cpp:454] conv3_1 <- conv3_1_1x1_increase
I0620 04:27:44.958861  3091 net.cpp:411] conv3_1 -> conv3_1
I0620 04:27:44.958909  3091 net.cpp:150] Setting up conv3_1
I0620 04:27:44.958916  3091 net.cpp:157] Top shape: 5 512 60 60 (9216000)
I0620 04:27:44.958920  3091 net.cpp:165] Memory required for data: 3086491000
I0620 04:27:44.958925  3091 layer_factory.hpp:77] Creating layer conv3_1/relu
I0620 04:27:44.958937  3091 net.cpp:106] Creating Layer conv3_1/relu
I0620 04:27:44.958942  3091 net.cpp:454] conv3_1/relu <- conv3_1
I0620 04:27:44.958948  3091 net.cpp:397] conv3_1/relu -> conv3_1 (in-place)
I0620 04:27:44.958956  3091 net.cpp:150] Setting up conv3_1/relu
I0620 04:27:44.958961  3091 net.cpp:157] Top shape: 5 512 60 60 (9216000)
I0620 04:27:44.958964  3091 net.cpp:165] Memory required for data: 3123355000
I0620 04:27:44.958968  3091 layer_factory.hpp:77] Creating layer conv3_1_conv3_1/relu_0_split
I0620 04:27:44.958977  3091 net.cpp:106] Creating Layer conv3_1_conv3_1/relu_0_split
I0620 04:27:44.958981  3091 net.cpp:454] conv3_1_conv3_1/relu_0_split <- conv3_1
I0620 04:27:44.958988  3091 net.cpp:411] conv3_1_conv3_1/relu_0_split -> conv3_1_conv3_1/relu_0_split_0
I0620 04:27:44.958994  3091 net.cpp:411] conv3_1_conv3_1/relu_0_split -> conv3_1_conv3_1/relu_0_split_1
I0620 04:27:44.959028  3091 net.cpp:150] Setting up conv3_1_conv3_1/relu_0_split
I0620 04:27:44.959033  3091 net.cpp:157] Top shape: 5 512 60 60 (9216000)
I0620 04:27:44.959039  3091 net.cpp:157] Top shape: 5 512 60 60 (9216000)
I0620 04:27:44.959043  3091 net.cpp:165] Memory required for data: 3197083000
I0620 04:27:44.959048  3091 layer_factory.hpp:77] Creating layer conv3_2_1x1_reduce
I0620 04:27:44.959061  3091 net.cpp:106] Creating Layer conv3_2_1x1_reduce
I0620 04:27:44.959067  3091 net.cpp:454] conv3_2_1x1_reduce <- conv3_1_conv3_1/relu_0_split_0
I0620 04:27:44.959074  3091 net.cpp:411] conv3_2_1x1_reduce -> conv3_2_1x1_reduce
I0620 04:27:44.961498  3091 net.cpp:150] Setting up conv3_2_1x1_reduce
I0620 04:27:44.961576  3091 net.cpp:157] Top shape: 5 128 60 60 (2304000)
I0620 04:27:44.961648  3091 net.cpp:165] Memory required for data: 3206299000
I0620 04:27:44.961664  3091 layer_factory.hpp:77] Creating layer conv3_2_1x1_reduce/bn
I0620 04:27:44.961693  3091 net.cpp:106] Creating Layer conv3_2_1x1_reduce/bn
I0620 04:27:44.961702  3091 net.cpp:454] conv3_2_1x1_reduce/bn <- conv3_2_1x1_reduce
I0620 04:27:44.961716  3091 net.cpp:397] conv3_2_1x1_reduce/bn -> conv3_2_1x1_reduce (in-place)
I0620 04:27:44.962014  3091 net.cpp:150] Setting up conv3_2_1x1_reduce/bn
I0620 04:27:44.962023  3091 net.cpp:157] Top shape: 5 128 60 60 (2304000)
I0620 04:27:44.962028  3091 net.cpp:165] Memory required for data: 3215515000
I0620 04:27:44.962038  3091 layer_factory.hpp:77] Creating layer conv3_2_1x1_reduce/relu
I0620 04:27:44.962049  3091 net.cpp:106] Creating Layer conv3_2_1x1_reduce/relu
I0620 04:27:44.962054  3091 net.cpp:454] conv3_2_1x1_reduce/relu <- conv3_2_1x1_reduce
I0620 04:27:44.962059  3091 net.cpp:397] conv3_2_1x1_reduce/relu -> conv3_2_1x1_reduce (in-place)
I0620 04:27:44.962069  3091 net.cpp:150] Setting up conv3_2_1x1_reduce/relu
I0620 04:27:44.962074  3091 net.cpp:157] Top shape: 5 128 60 60 (2304000)
I0620 04:27:44.962077  3091 net.cpp:165] Memory required for data: 3224731000
I0620 04:27:44.962081  3091 layer_factory.hpp:77] Creating layer conv3_2_3x3
I0620 04:27:44.962097  3091 net.cpp:106] Creating Layer conv3_2_3x3
I0620 04:27:44.962101  3091 net.cpp:454] conv3_2_3x3 <- conv3_2_1x1_reduce
I0620 04:27:44.962110  3091 net.cpp:411] conv3_2_3x3 -> conv3_2_3x3
I0620 04:27:44.967119  3091 net.cpp:150] Setting up conv3_2_3x3
I0620 04:27:44.967167  3091 net.cpp:157] Top shape: 5 128 60 60 (2304000)
I0620 04:27:44.967173  3091 net.cpp:165] Memory required for data: 3233947000
I0620 04:27:44.967187  3091 layer_factory.hpp:77] Creating layer conv3_2_3x3/bn
I0620 04:27:44.967229  3091 net.cpp:106] Creating Layer conv3_2_3x3/bn
I0620 04:27:44.967237  3091 net.cpp:454] conv3_2_3x3/bn <- conv3_2_3x3
I0620 04:27:44.967248  3091 net.cpp:397] conv3_2_3x3/bn -> conv3_2_3x3 (in-place)
I0620 04:27:44.967511  3091 net.cpp:150] Setting up conv3_2_3x3/bn
I0620 04:27:44.967521  3091 net.cpp:157] Top shape: 5 128 60 60 (2304000)
I0620 04:27:44.967525  3091 net.cpp:165] Memory required for data: 3243163000
I0620 04:27:44.967535  3091 layer_factory.hpp:77] Creating layer conv3_2_3x3/relu
I0620 04:27:44.967545  3091 net.cpp:106] Creating Layer conv3_2_3x3/relu
I0620 04:27:44.967550  3091 net.cpp:454] conv3_2_3x3/relu <- conv3_2_3x3
I0620 04:27:44.967555  3091 net.cpp:397] conv3_2_3x3/relu -> conv3_2_3x3 (in-place)
I0620 04:27:44.967562  3091 net.cpp:150] Setting up conv3_2_3x3/relu
I0620 04:27:44.967567  3091 net.cpp:157] Top shape: 5 128 60 60 (2304000)
I0620 04:27:44.967571  3091 net.cpp:165] Memory required for data: 3252379000
I0620 04:27:44.967576  3091 layer_factory.hpp:77] Creating layer conv3_2_1x1_increase
I0620 04:27:44.967586  3091 net.cpp:106] Creating Layer conv3_2_1x1_increase
I0620 04:27:44.967591  3091 net.cpp:454] conv3_2_1x1_increase <- conv3_2_3x3
I0620 04:27:44.967599  3091 net.cpp:411] conv3_2_1x1_increase -> conv3_2_1x1_increase
I0620 04:27:44.971815  3091 net.cpp:150] Setting up conv3_2_1x1_increase
I0620 04:27:44.971925  3091 net.cpp:157] Top shape: 5 512 60 60 (9216000)
I0620 04:27:44.971932  3091 net.cpp:165] Memory required for data: 3289243000
I0620 04:27:44.971952  3091 layer_factory.hpp:77] Creating layer conv3_2_1x1_increase/bn
I0620 04:27:44.971988  3091 net.cpp:106] Creating Layer conv3_2_1x1_increase/bn
I0620 04:27:44.972005  3091 net.cpp:454] conv3_2_1x1_increase/bn <- conv3_2_1x1_increase
I0620 04:27:44.972023  3091 net.cpp:397] conv3_2_1x1_increase/bn -> conv3_2_1x1_increase (in-place)
I0620 04:27:44.972364  3091 net.cpp:150] Setting up conv3_2_1x1_increase/bn
I0620 04:27:44.972373  3091 net.cpp:157] Top shape: 5 512 60 60 (9216000)
I0620 04:27:44.972378  3091 net.cpp:165] Memory required for data: 3326107000
I0620 04:27:44.972386  3091 layer_factory.hpp:77] Creating layer conv3_2
I0620 04:27:44.972401  3091 net.cpp:106] Creating Layer conv3_2
I0620 04:27:44.972476  3091 net.cpp:454] conv3_2 <- conv3_1_conv3_1/relu_0_split_1
I0620 04:27:44.972482  3091 net.cpp:454] conv3_2 <- conv3_2_1x1_increase
I0620 04:27:44.972488  3091 net.cpp:411] conv3_2 -> conv3_2
I0620 04:27:44.972528  3091 net.cpp:150] Setting up conv3_2
I0620 04:27:44.972534  3091 net.cpp:157] Top shape: 5 512 60 60 (9216000)
I0620 04:27:44.972538  3091 net.cpp:165] Memory required for data: 3362971000
I0620 04:27:44.978224  3091 layer_factory.hpp:77] Creating layer conv3_2/relu
I0620 04:27:44.978241  3091 net.cpp:106] Creating Layer conv3_2/relu
I0620 04:27:44.978245  3091 net.cpp:454] conv3_2/relu <- conv3_2
I0620 04:27:44.978248  3091 net.cpp:397] conv3_2/relu -> conv3_2 (in-place)
I0620 04:27:44.978257  3091 net.cpp:150] Setting up conv3_2/relu
I0620 04:27:44.978262  3091 net.cpp:157] Top shape: 5 512 60 60 (9216000)
I0620 04:27:44.978266  3091 net.cpp:165] Memory required for data: 3399835000
I0620 04:27:44.978268  3091 layer_factory.hpp:77] Creating layer conv3_2_conv3_2/relu_0_split
I0620 04:27:44.978272  3091 net.cpp:106] Creating Layer conv3_2_conv3_2/relu_0_split
I0620 04:27:44.978276  3091 net.cpp:454] conv3_2_conv3_2/relu_0_split <- conv3_2
I0620 04:27:44.978282  3091 net.cpp:411] conv3_2_conv3_2/relu_0_split -> conv3_2_conv3_2/relu_0_split_0
I0620 04:27:44.978286  3091 net.cpp:411] conv3_2_conv3_2/relu_0_split -> conv3_2_conv3_2/relu_0_split_1
I0620 04:27:44.978335  3091 net.cpp:150] Setting up conv3_2_conv3_2/relu_0_split
I0620 04:27:44.978340  3091 net.cpp:157] Top shape: 5 512 60 60 (9216000)
I0620 04:27:44.978343  3091 net.cpp:157] Top shape: 5 512 60 60 (9216000)
I0620 04:27:44.978346  3091 net.cpp:165] Memory required for data: 3473563000
I0620 04:27:44.978348  3091 layer_factory.hpp:77] Creating layer conv3_3_1x1_reduce
I0620 04:27:44.978356  3091 net.cpp:106] Creating Layer conv3_3_1x1_reduce
I0620 04:27:44.978359  3091 net.cpp:454] conv3_3_1x1_reduce <- conv3_2_conv3_2/relu_0_split_0
I0620 04:27:44.978363  3091 net.cpp:411] conv3_3_1x1_reduce -> conv3_3_1x1_reduce
I0620 04:27:44.979984  3091 net.cpp:150] Setting up conv3_3_1x1_reduce
I0620 04:27:44.979991  3091 net.cpp:157] Top shape: 5 128 60 60 (2304000)
I0620 04:27:44.979995  3091 net.cpp:165] Memory required for data: 3482779000
I0620 04:27:44.980000  3091 layer_factory.hpp:77] Creating layer conv3_3_1x1_reduce/bn
I0620 04:27:44.980005  3091 net.cpp:106] Creating Layer conv3_3_1x1_reduce/bn
I0620 04:27:44.980008  3091 net.cpp:454] conv3_3_1x1_reduce/bn <- conv3_3_1x1_reduce
I0620 04:27:44.980013  3091 net.cpp:397] conv3_3_1x1_reduce/bn -> conv3_3_1x1_reduce (in-place)
I0620 04:27:44.980144  3091 net.cpp:150] Setting up conv3_3_1x1_reduce/bn
I0620 04:27:44.980147  3091 net.cpp:157] Top shape: 5 128 60 60 (2304000)
I0620 04:27:44.980150  3091 net.cpp:165] Memory required for data: 3491995000
I0620 04:27:44.980156  3091 layer_factory.hpp:77] Creating layer conv3_3_1x1_reduce/relu
I0620 04:27:44.980160  3091 net.cpp:106] Creating Layer conv3_3_1x1_reduce/relu
I0620 04:27:44.980164  3091 net.cpp:454] conv3_3_1x1_reduce/relu <- conv3_3_1x1_reduce
I0620 04:27:44.980166  3091 net.cpp:397] conv3_3_1x1_reduce/relu -> conv3_3_1x1_reduce (in-place)
I0620 04:27:44.980170  3091 net.cpp:150] Setting up conv3_3_1x1_reduce/relu
I0620 04:27:44.980175  3091 net.cpp:157] Top shape: 5 128 60 60 (2304000)
I0620 04:27:44.980176  3091 net.cpp:165] Memory required for data: 3501211000
I0620 04:27:44.980180  3091 layer_factory.hpp:77] Creating layer conv3_3_3x3
I0620 04:27:44.980185  3091 net.cpp:106] Creating Layer conv3_3_3x3
I0620 04:27:44.980188  3091 net.cpp:454] conv3_3_3x3 <- conv3_3_1x1_reduce
I0620 04:27:44.980192  3091 net.cpp:411] conv3_3_3x3 -> conv3_3_3x3
I0620 04:27:44.985572  3091 net.cpp:150] Setting up conv3_3_3x3
I0620 04:27:44.985589  3091 net.cpp:157] Top shape: 5 128 60 60 (2304000)
I0620 04:27:44.985591  3091 net.cpp:165] Memory required for data: 3510427000
I0620 04:27:44.985595  3091 layer_factory.hpp:77] Creating layer conv3_3_3x3/bn
I0620 04:27:44.985602  3091 net.cpp:106] Creating Layer conv3_3_3x3/bn
I0620 04:27:44.985623  3091 net.cpp:454] conv3_3_3x3/bn <- conv3_3_3x3
I0620 04:27:44.985627  3091 net.cpp:397] conv3_3_3x3/bn -> conv3_3_3x3 (in-place)
I0620 04:27:44.987241  3091 net.cpp:150] Setting up conv3_3_3x3/bn
I0620 04:27:44.987251  3091 net.cpp:157] Top shape: 5 128 60 60 (2304000)
I0620 04:27:44.987254  3091 net.cpp:165] Memory required for data: 3519643000
I0620 04:27:44.987260  3091 layer_factory.hpp:77] Creating layer conv3_3_3x3/relu
I0620 04:27:44.987268  3091 net.cpp:106] Creating Layer conv3_3_3x3/relu
I0620 04:27:44.987272  3091 net.cpp:454] conv3_3_3x3/relu <- conv3_3_3x3
I0620 04:27:44.987275  3091 net.cpp:397] conv3_3_3x3/relu -> conv3_3_3x3 (in-place)
I0620 04:27:44.987280  3091 net.cpp:150] Setting up conv3_3_3x3/relu
I0620 04:27:44.987283  3091 net.cpp:157] Top shape: 5 128 60 60 (2304000)
I0620 04:27:44.987287  3091 net.cpp:165] Memory required for data: 3528859000
I0620 04:27:44.987289  3091 layer_factory.hpp:77] Creating layer conv3_3_1x1_increase
I0620 04:27:44.987303  3091 net.cpp:106] Creating Layer conv3_3_1x1_increase
I0620 04:27:44.987306  3091 net.cpp:454] conv3_3_1x1_increase <- conv3_3_3x3
I0620 04:27:44.987311  3091 net.cpp:411] conv3_3_1x1_increase -> conv3_3_1x1_increase
I0620 04:27:44.988798  3091 net.cpp:150] Setting up conv3_3_1x1_increase
I0620 04:27:44.988803  3091 net.cpp:157] Top shape: 5 512 60 60 (9216000)
I0620 04:27:44.988806  3091 net.cpp:165] Memory required for data: 3565723000
I0620 04:27:44.988809  3091 layer_factory.hpp:77] Creating layer conv3_3_1x1_increase/bn
I0620 04:27:44.988814  3091 net.cpp:106] Creating Layer conv3_3_1x1_increase/bn
I0620 04:27:44.988817  3091 net.cpp:454] conv3_3_1x1_increase/bn <- conv3_3_1x1_increase
I0620 04:27:44.988821  3091 net.cpp:397] conv3_3_1x1_increase/bn -> conv3_3_1x1_increase (in-place)
I0620 04:27:44.988947  3091 net.cpp:150] Setting up conv3_3_1x1_increase/bn
I0620 04:27:44.988952  3091 net.cpp:157] Top shape: 5 512 60 60 (9216000)
I0620 04:27:44.988955  3091 net.cpp:165] Memory required for data: 3602587000
I0620 04:27:44.988960  3091 layer_factory.hpp:77] Creating layer conv3_3
I0620 04:27:44.988966  3091 net.cpp:106] Creating Layer conv3_3
I0620 04:27:44.988970  3091 net.cpp:454] conv3_3 <- conv3_2_conv3_2/relu_0_split_1
I0620 04:27:44.988972  3091 net.cpp:454] conv3_3 <- conv3_3_1x1_increase
I0620 04:27:44.988977  3091 net.cpp:411] conv3_3 -> conv3_3
I0620 04:27:44.988992  3091 net.cpp:150] Setting up conv3_3
I0620 04:27:44.988997  3091 net.cpp:157] Top shape: 5 512 60 60 (9216000)
I0620 04:27:44.989001  3091 net.cpp:165] Memory required for data: 3639451000
I0620 04:27:44.989003  3091 layer_factory.hpp:77] Creating layer conv3_3/relu
I0620 04:27:44.989007  3091 net.cpp:106] Creating Layer conv3_3/relu
I0620 04:27:44.989011  3091 net.cpp:454] conv3_3/relu <- conv3_3
I0620 04:27:44.989013  3091 net.cpp:397] conv3_3/relu -> conv3_3 (in-place)
I0620 04:27:44.989017  3091 net.cpp:150] Setting up conv3_3/relu
I0620 04:27:44.989020  3091 net.cpp:157] Top shape: 5 512 60 60 (9216000)
I0620 04:27:44.989022  3091 net.cpp:165] Memory required for data: 3676315000
I0620 04:27:44.989025  3091 layer_factory.hpp:77] Creating layer conv3_3_conv3_3/relu_0_split
I0620 04:27:44.989029  3091 net.cpp:106] Creating Layer conv3_3_conv3_3/relu_0_split
I0620 04:27:44.989032  3091 net.cpp:454] conv3_3_conv3_3/relu_0_split <- conv3_3
I0620 04:27:44.989037  3091 net.cpp:411] conv3_3_conv3_3/relu_0_split -> conv3_3_conv3_3/relu_0_split_0
I0620 04:27:44.989040  3091 net.cpp:411] conv3_3_conv3_3/relu_0_split -> conv3_3_conv3_3/relu_0_split_1
I0620 04:27:44.989061  3091 net.cpp:150] Setting up conv3_3_conv3_3/relu_0_split
I0620 04:27:44.989065  3091 net.cpp:157] Top shape: 5 512 60 60 (9216000)
I0620 04:27:44.989068  3091 net.cpp:157] Top shape: 5 512 60 60 (9216000)
I0620 04:27:44.989070  3091 net.cpp:165] Memory required for data: 3750043000
I0620 04:27:44.989073  3091 layer_factory.hpp:77] Creating layer conv3_4_1x1_reduce
I0620 04:27:44.989078  3091 net.cpp:106] Creating Layer conv3_4_1x1_reduce
I0620 04:27:44.989081  3091 net.cpp:454] conv3_4_1x1_reduce <- conv3_3_conv3_3/relu_0_split_0
I0620 04:27:44.989094  3091 net.cpp:411] conv3_4_1x1_reduce -> conv3_4_1x1_reduce
I0620 04:27:44.990864  3091 net.cpp:150] Setting up conv3_4_1x1_reduce
I0620 04:27:44.990880  3091 net.cpp:157] Top shape: 5 128 60 60 (2304000)
I0620 04:27:44.990882  3091 net.cpp:165] Memory required for data: 3759259000
I0620 04:27:44.990888  3091 layer_factory.hpp:77] Creating layer conv3_4_1x1_reduce/bn
I0620 04:27:44.990898  3091 net.cpp:106] Creating Layer conv3_4_1x1_reduce/bn
I0620 04:27:44.990902  3091 net.cpp:454] conv3_4_1x1_reduce/bn <- conv3_4_1x1_reduce
I0620 04:27:44.990907  3091 net.cpp:397] conv3_4_1x1_reduce/bn -> conv3_4_1x1_reduce (in-place)
I0620 04:27:44.991046  3091 net.cpp:150] Setting up conv3_4_1x1_reduce/bn
I0620 04:27:44.991051  3091 net.cpp:157] Top shape: 5 128 60 60 (2304000)
I0620 04:27:44.991053  3091 net.cpp:165] Memory required for data: 3768475000
I0620 04:27:44.991060  3091 layer_factory.hpp:77] Creating layer conv3_4_1x1_reduce/relu
I0620 04:27:44.991065  3091 net.cpp:106] Creating Layer conv3_4_1x1_reduce/relu
I0620 04:27:44.991066  3091 net.cpp:454] conv3_4_1x1_reduce/relu <- conv3_4_1x1_reduce
I0620 04:27:44.991070  3091 net.cpp:397] conv3_4_1x1_reduce/relu -> conv3_4_1x1_reduce (in-place)
I0620 04:27:44.991075  3091 net.cpp:150] Setting up conv3_4_1x1_reduce/relu
I0620 04:27:44.991077  3091 net.cpp:157] Top shape: 5 128 60 60 (2304000)
I0620 04:27:44.991080  3091 net.cpp:165] Memory required for data: 3777691000
I0620 04:27:44.991082  3091 layer_factory.hpp:77] Creating layer conv3_4_3x3
I0620 04:27:44.991091  3091 net.cpp:106] Creating Layer conv3_4_3x3
I0620 04:27:44.991094  3091 net.cpp:454] conv3_4_3x3 <- conv3_4_1x1_reduce
I0620 04:27:44.991098  3091 net.cpp:411] conv3_4_3x3 -> conv3_4_3x3
I0620 04:27:44.994529  3091 net.cpp:150] Setting up conv3_4_3x3
I0620 04:27:44.994560  3091 net.cpp:157] Top shape: 5 128 60 60 (2304000)
I0620 04:27:44.994565  3091 net.cpp:165] Memory required for data: 3786907000
I0620 04:27:44.994573  3091 layer_factory.hpp:77] Creating layer conv3_4_3x3/bn
I0620 04:27:44.994588  3091 net.cpp:106] Creating Layer conv3_4_3x3/bn
I0620 04:27:44.994596  3091 net.cpp:454] conv3_4_3x3/bn <- conv3_4_3x3
I0620 04:27:44.994603  3091 net.cpp:397] conv3_4_3x3/bn -> conv3_4_3x3 (in-place)
I0620 04:27:44.994777  3091 net.cpp:150] Setting up conv3_4_3x3/bn
I0620 04:27:44.994784  3091 net.cpp:157] Top shape: 5 128 60 60 (2304000)
I0620 04:27:44.994787  3091 net.cpp:165] Memory required for data: 3796123000
I0620 04:27:44.994793  3091 layer_factory.hpp:77] Creating layer conv3_4_3x3/relu
I0620 04:27:44.994801  3091 net.cpp:106] Creating Layer conv3_4_3x3/relu
I0620 04:27:44.994806  3091 net.cpp:454] conv3_4_3x3/relu <- conv3_4_3x3
I0620 04:27:44.994808  3091 net.cpp:397] conv3_4_3x3/relu -> conv3_4_3x3 (in-place)
I0620 04:27:44.994814  3091 net.cpp:150] Setting up conv3_4_3x3/relu
I0620 04:27:44.994817  3091 net.cpp:157] Top shape: 5 128 60 60 (2304000)
I0620 04:27:44.994819  3091 net.cpp:165] Memory required for data: 3805339000
I0620 04:27:44.994822  3091 layer_factory.hpp:77] Creating layer conv3_4_1x1_increase
I0620 04:27:44.994833  3091 net.cpp:106] Creating Layer conv3_4_1x1_increase
I0620 04:27:44.994835  3091 net.cpp:454] conv3_4_1x1_increase <- conv3_4_3x3
I0620 04:27:44.994841  3091 net.cpp:411] conv3_4_1x1_increase -> conv3_4_1x1_increase
I0620 04:27:44.996402  3091 net.cpp:150] Setting up conv3_4_1x1_increase
I0620 04:27:44.996407  3091 net.cpp:157] Top shape: 5 512 60 60 (9216000)
I0620 04:27:44.996410  3091 net.cpp:165] Memory required for data: 3842203000
I0620 04:27:44.996414  3091 layer_factory.hpp:77] Creating layer conv3_4_1x1_increase/bn
I0620 04:27:44.996418  3091 net.cpp:106] Creating Layer conv3_4_1x1_increase/bn
I0620 04:27:44.996421  3091 net.cpp:454] conv3_4_1x1_increase/bn <- conv3_4_1x1_increase
I0620 04:27:44.996425  3091 net.cpp:397] conv3_4_1x1_increase/bn -> conv3_4_1x1_increase (in-place)
I0620 04:27:44.996551  3091 net.cpp:150] Setting up conv3_4_1x1_increase/bn
I0620 04:27:44.996556  3091 net.cpp:157] Top shape: 5 512 60 60 (9216000)
I0620 04:27:44.996570  3091 net.cpp:165] Memory required for data: 3879067000
I0620 04:27:44.996590  3091 layer_factory.hpp:77] Creating layer conv3_4
I0620 04:27:44.996598  3091 net.cpp:106] Creating Layer conv3_4
I0620 04:27:44.996600  3091 net.cpp:454] conv3_4 <- conv3_3_conv3_3/relu_0_split_1
I0620 04:27:44.996603  3091 net.cpp:454] conv3_4 <- conv3_4_1x1_increase
I0620 04:27:44.996608  3091 net.cpp:411] conv3_4 -> conv3_4
I0620 04:27:44.996623  3091 net.cpp:150] Setting up conv3_4
I0620 04:27:44.996628  3091 net.cpp:157] Top shape: 5 512 60 60 (9216000)
I0620 04:27:44.996630  3091 net.cpp:165] Memory required for data: 3915931000
I0620 04:27:44.996632  3091 layer_factory.hpp:77] Creating layer conv3_4/relu
I0620 04:27:44.996636  3091 net.cpp:106] Creating Layer conv3_4/relu
I0620 04:27:44.996639  3091 net.cpp:454] conv3_4/relu <- conv3_4
I0620 04:27:44.996644  3091 net.cpp:397] conv3_4/relu -> conv3_4 (in-place)
I0620 04:27:44.996647  3091 net.cpp:150] Setting up conv3_4/relu
I0620 04:27:44.996650  3091 net.cpp:157] Top shape: 5 512 60 60 (9216000)
I0620 04:27:44.996654  3091 net.cpp:165] Memory required for data: 3952795000
I0620 04:27:44.996656  3091 layer_factory.hpp:77] Creating layer conv3_4_conv3_4/relu_0_split
I0620 04:27:44.996661  3091 net.cpp:106] Creating Layer conv3_4_conv3_4/relu_0_split
I0620 04:27:44.996665  3091 net.cpp:454] conv3_4_conv3_4/relu_0_split <- conv3_4
I0620 04:27:44.996667  3091 net.cpp:411] conv3_4_conv3_4/relu_0_split -> conv3_4_conv3_4/relu_0_split_0
I0620 04:27:44.996671  3091 net.cpp:411] conv3_4_conv3_4/relu_0_split -> conv3_4_conv3_4/relu_0_split_1
I0620 04:27:44.996693  3091 net.cpp:150] Setting up conv3_4_conv3_4/relu_0_split
I0620 04:27:44.996697  3091 net.cpp:157] Top shape: 5 512 60 60 (9216000)
I0620 04:27:44.996701  3091 net.cpp:157] Top shape: 5 512 60 60 (9216000)
I0620 04:27:44.996703  3091 net.cpp:165] Memory required for data: 4026523000
I0620 04:27:44.996706  3091 layer_factory.hpp:77] Creating layer conv4_1_1x1_reduce
I0620 04:27:44.996711  3091 net.cpp:106] Creating Layer conv4_1_1x1_reduce
I0620 04:27:44.996714  3091 net.cpp:454] conv4_1_1x1_reduce <- conv3_4_conv3_4/relu_0_split_0
I0620 04:27:44.996718  3091 net.cpp:411] conv4_1_1x1_reduce -> conv4_1_1x1_reduce
I0620 04:27:44.999620  3091 net.cpp:150] Setting up conv4_1_1x1_reduce
I0620 04:27:44.999631  3091 net.cpp:157] Top shape: 5 256 60 60 (4608000)
I0620 04:27:44.999634  3091 net.cpp:165] Memory required for data: 4044955000
I0620 04:27:44.999639  3091 layer_factory.hpp:77] Creating layer conv4_1_1x1_reduce/bn
I0620 04:27:44.999647  3091 net.cpp:106] Creating Layer conv4_1_1x1_reduce/bn
I0620 04:27:44.999651  3091 net.cpp:454] conv4_1_1x1_reduce/bn <- conv4_1_1x1_reduce
I0620 04:27:44.999657  3091 net.cpp:397] conv4_1_1x1_reduce/bn -> conv4_1_1x1_reduce (in-place)
I0620 04:27:44.999797  3091 net.cpp:150] Setting up conv4_1_1x1_reduce/bn
I0620 04:27:44.999802  3091 net.cpp:157] Top shape: 5 256 60 60 (4608000)
I0620 04:27:44.999805  3091 net.cpp:165] Memory required for data: 4063387000
I0620 04:27:44.999811  3091 layer_factory.hpp:77] Creating layer conv4_1_1x1_reduce/relu
I0620 04:27:44.999817  3091 net.cpp:106] Creating Layer conv4_1_1x1_reduce/relu
I0620 04:27:44.999819  3091 net.cpp:454] conv4_1_1x1_reduce/relu <- conv4_1_1x1_reduce
I0620 04:27:44.999825  3091 net.cpp:397] conv4_1_1x1_reduce/relu -> conv4_1_1x1_reduce (in-place)
I0620 04:27:44.999830  3091 net.cpp:150] Setting up conv4_1_1x1_reduce/relu
I0620 04:27:44.999832  3091 net.cpp:157] Top shape: 5 256 60 60 (4608000)
I0620 04:27:44.999835  3091 net.cpp:165] Memory required for data: 4081819000
I0620 04:27:44.999838  3091 layer_factory.hpp:77] Creating layer conv4_1_3x3
I0620 04:27:44.999845  3091 net.cpp:106] Creating Layer conv4_1_3x3
I0620 04:27:44.999847  3091 net.cpp:454] conv4_1_3x3 <- conv4_1_1x1_reduce
I0620 04:27:44.999851  3091 net.cpp:411] conv4_1_3x3 -> conv4_1_3x3
I0620 04:27:45.015501  3091 net.cpp:150] Setting up conv4_1_3x3
I0620 04:27:45.015565  3091 net.cpp:157] Top shape: 5 256 60 60 (4608000)
I0620 04:27:45.015604  3091 net.cpp:165] Memory required for data: 4100251000
I0620 04:27:45.015620  3091 layer_factory.hpp:77] Creating layer conv4_1_3x3/bn
I0620 04:27:45.015647  3091 net.cpp:106] Creating Layer conv4_1_3x3/bn
I0620 04:27:45.015656  3091 net.cpp:454] conv4_1_3x3/bn <- conv4_1_3x3
I0620 04:27:45.015666  3091 net.cpp:397] conv4_1_3x3/bn -> conv4_1_3x3 (in-place)
I0620 04:27:45.015907  3091 net.cpp:150] Setting up conv4_1_3x3/bn
I0620 04:27:45.015913  3091 net.cpp:157] Top shape: 5 256 60 60 (4608000)
I0620 04:27:45.015918  3091 net.cpp:165] Memory required for data: 4118683000
I0620 04:27:45.015928  3091 layer_factory.hpp:77] Creating layer conv4_1_3x3/relu
I0620 04:27:45.015938  3091 net.cpp:106] Creating Layer conv4_1_3x3/relu
I0620 04:27:45.015943  3091 net.cpp:454] conv4_1_3x3/relu <- conv4_1_3x3
I0620 04:27:45.015949  3091 net.cpp:397] conv4_1_3x3/relu -> conv4_1_3x3 (in-place)
I0620 04:27:45.015956  3091 net.cpp:150] Setting up conv4_1_3x3/relu
I0620 04:27:45.015962  3091 net.cpp:157] Top shape: 5 256 60 60 (4608000)
I0620 04:27:45.015966  3091 net.cpp:165] Memory required for data: 4137115000
I0620 04:27:45.015970  3091 layer_factory.hpp:77] Creating layer conv4_1_1x1_increase
I0620 04:27:45.015983  3091 net.cpp:106] Creating Layer conv4_1_1x1_increase
I0620 04:27:45.015988  3091 net.cpp:454] conv4_1_1x1_increase <- conv4_1_3x3
I0620 04:27:45.015995  3091 net.cpp:411] conv4_1_1x1_increase -> conv4_1_1x1_increase
I0620 04:27:45.025884  3091 net.cpp:150] Setting up conv4_1_1x1_increase
I0620 04:27:45.025979  3091 net.cpp:157] Top shape: 5 1024 60 60 (18432000)
I0620 04:27:45.025985  3091 net.cpp:165] Memory required for data: 4210843000
I0620 04:27:45.026001  3091 layer_factory.hpp:77] Creating layer conv4_1_1x1_increase/bn
I0620 04:27:45.026031  3091 net.cpp:106] Creating Layer conv4_1_1x1_increase/bn
I0620 04:27:45.026042  3091 net.cpp:454] conv4_1_1x1_increase/bn <- conv4_1_1x1_increase
I0620 04:27:45.026057  3091 net.cpp:397] conv4_1_1x1_increase/bn -> conv4_1_1x1_increase (in-place)
I0620 04:27:45.026371  3091 net.cpp:150] Setting up conv4_1_1x1_increase/bn
I0620 04:27:45.026377  3091 net.cpp:157] Top shape: 5 1024 60 60 (18432000)
I0620 04:27:45.026382  3091 net.cpp:165] Memory required for data: 4284571000
I0620 04:27:45.026392  3091 layer_factory.hpp:77] Creating layer conv4_1_1x1_proj
I0620 04:27:45.026412  3091 net.cpp:106] Creating Layer conv4_1_1x1_proj
I0620 04:27:45.026418  3091 net.cpp:454] conv4_1_1x1_proj <- conv3_4_conv3_4/relu_0_split_1
I0620 04:27:45.026425  3091 net.cpp:411] conv4_1_1x1_proj -> conv4_1_1x1_proj
I0620 04:27:45.039887  3091 net.cpp:150] Setting up conv4_1_1x1_proj
I0620 04:27:45.039916  3091 net.cpp:157] Top shape: 5 1024 60 60 (18432000)
I0620 04:27:45.039919  3091 net.cpp:165] Memory required for data: 4358299000
I0620 04:27:45.039927  3091 layer_factory.hpp:77] Creating layer conv4_1_1x1_proj/bn
I0620 04:27:45.039938  3091 net.cpp:106] Creating Layer conv4_1_1x1_proj/bn
I0620 04:27:45.039943  3091 net.cpp:454] conv4_1_1x1_proj/bn <- conv4_1_1x1_proj
I0620 04:27:45.039948  3091 net.cpp:397] conv4_1_1x1_proj/bn -> conv4_1_1x1_proj (in-place)
I0620 04:27:45.040101  3091 net.cpp:150] Setting up conv4_1_1x1_proj/bn
I0620 04:27:45.040107  3091 net.cpp:157] Top shape: 5 1024 60 60 (18432000)
I0620 04:27:45.040108  3091 net.cpp:165] Memory required for data: 4432027000
I0620 04:27:45.040113  3091 layer_factory.hpp:77] Creating layer conv4_1
I0620 04:27:45.040117  3091 net.cpp:106] Creating Layer conv4_1
I0620 04:27:45.040119  3091 net.cpp:454] conv4_1 <- conv4_1_1x1_proj
I0620 04:27:45.040122  3091 net.cpp:454] conv4_1 <- conv4_1_1x1_increase
I0620 04:27:45.040127  3091 net.cpp:411] conv4_1 -> conv4_1
I0620 04:27:45.040151  3091 net.cpp:150] Setting up conv4_1
I0620 04:27:45.040158  3091 net.cpp:157] Top shape: 5 1024 60 60 (18432000)
I0620 04:27:45.040161  3091 net.cpp:165] Memory required for data: 4505755000
I0620 04:27:45.040165  3091 layer_factory.hpp:77] Creating layer conv4_1/relu
I0620 04:27:45.040176  3091 net.cpp:106] Creating Layer conv4_1/relu
I0620 04:27:45.040210  3091 net.cpp:454] conv4_1/relu <- conv4_1
I0620 04:27:45.040215  3091 net.cpp:397] conv4_1/relu -> conv4_1 (in-place)
I0620 04:27:45.040218  3091 net.cpp:150] Setting up conv4_1/relu
I0620 04:27:45.040222  3091 net.cpp:157] Top shape: 5 1024 60 60 (18432000)
I0620 04:27:45.040225  3091 net.cpp:165] Memory required for data: 4579483000
I0620 04:27:45.040227  3091 layer_factory.hpp:77] Creating layer conv4_1_conv4_1/relu_0_split
I0620 04:27:45.040233  3091 net.cpp:106] Creating Layer conv4_1_conv4_1/relu_0_split
I0620 04:27:45.040235  3091 net.cpp:454] conv4_1_conv4_1/relu_0_split <- conv4_1
I0620 04:27:45.040240  3091 net.cpp:411] conv4_1_conv4_1/relu_0_split -> conv4_1_conv4_1/relu_0_split_0
I0620 04:27:45.040243  3091 net.cpp:411] conv4_1_conv4_1/relu_0_split -> conv4_1_conv4_1/relu_0_split_1
I0620 04:27:45.040266  3091 net.cpp:150] Setting up conv4_1_conv4_1/relu_0_split
I0620 04:27:45.040271  3091 net.cpp:157] Top shape: 5 1024 60 60 (18432000)
I0620 04:27:45.040274  3091 net.cpp:157] Top shape: 5 1024 60 60 (18432000)
I0620 04:27:45.040277  3091 net.cpp:165] Memory required for data: 4726939000
I0620 04:27:45.040279  3091 layer_factory.hpp:77] Creating layer conv4_2_1x1_reduce
I0620 04:27:45.040287  3091 net.cpp:106] Creating Layer conv4_2_1x1_reduce
I0620 04:27:45.040289  3091 net.cpp:454] conv4_2_1x1_reduce <- conv4_1_conv4_1/relu_0_split_0
I0620 04:27:45.040295  3091 net.cpp:411] conv4_2_1x1_reduce -> conv4_2_1x1_reduce
I0620 04:27:45.049463  3091 net.cpp:150] Setting up conv4_2_1x1_reduce
I0620 04:27:45.049474  3091 net.cpp:157] Top shape: 5 256 60 60 (4608000)
I0620 04:27:45.049477  3091 net.cpp:165] Memory required for data: 4745371000
I0620 04:27:45.049482  3091 layer_factory.hpp:77] Creating layer conv4_2_1x1_reduce/bn
I0620 04:27:45.049490  3091 net.cpp:106] Creating Layer conv4_2_1x1_reduce/bn
I0620 04:27:45.049494  3091 net.cpp:454] conv4_2_1x1_reduce/bn <- conv4_2_1x1_reduce
I0620 04:27:45.049497  3091 net.cpp:397] conv4_2_1x1_reduce/bn -> conv4_2_1x1_reduce (in-place)
I0620 04:27:45.049635  3091 net.cpp:150] Setting up conv4_2_1x1_reduce/bn
I0620 04:27:45.049640  3091 net.cpp:157] Top shape: 5 256 60 60 (4608000)
I0620 04:27:45.049643  3091 net.cpp:165] Memory required for data: 4763803000
I0620 04:27:45.049649  3091 layer_factory.hpp:77] Creating layer conv4_2_1x1_reduce/relu
I0620 04:27:45.049656  3091 net.cpp:106] Creating Layer conv4_2_1x1_reduce/relu
I0620 04:27:45.049659  3091 net.cpp:454] conv4_2_1x1_reduce/relu <- conv4_2_1x1_reduce
I0620 04:27:45.049662  3091 net.cpp:397] conv4_2_1x1_reduce/relu -> conv4_2_1x1_reduce (in-place)
I0620 04:27:45.049667  3091 net.cpp:150] Setting up conv4_2_1x1_reduce/relu
I0620 04:27:45.049670  3091 net.cpp:157] Top shape: 5 256 60 60 (4608000)
I0620 04:27:45.049674  3091 net.cpp:165] Memory required for data: 4782235000
I0620 04:27:45.049676  3091 layer_factory.hpp:77] Creating layer conv4_2_3x3
I0620 04:27:45.049682  3091 net.cpp:106] Creating Layer conv4_2_3x3
I0620 04:27:45.049685  3091 net.cpp:454] conv4_2_3x3 <- conv4_2_1x1_reduce
I0620 04:27:45.049690  3091 net.cpp:411] conv4_2_3x3 -> conv4_2_3x3
I0620 04:27:45.063266  3091 net.cpp:150] Setting up conv4_2_3x3
I0620 04:27:45.063297  3091 net.cpp:157] Top shape: 5 256 60 60 (4608000)
I0620 04:27:45.063300  3091 net.cpp:165] Memory required for data: 4800667000
I0620 04:27:45.063308  3091 layer_factory.hpp:77] Creating layer conv4_2_3x3/bn
I0620 04:27:45.063320  3091 net.cpp:106] Creating Layer conv4_2_3x3/bn
I0620 04:27:45.063329  3091 net.cpp:454] conv4_2_3x3/bn <- conv4_2_3x3
I0620 04:27:45.063336  3091 net.cpp:397] conv4_2_3x3/bn -> conv4_2_3x3 (in-place)
I0620 04:27:45.063491  3091 net.cpp:150] Setting up conv4_2_3x3/bn
I0620 04:27:45.063498  3091 net.cpp:157] Top shape: 5 256 60 60 (4608000)
I0620 04:27:45.063499  3091 net.cpp:165] Memory required for data: 4819099000
I0620 04:27:45.063505  3091 layer_factory.hpp:77] Creating layer conv4_2_3x3/relu
I0620 04:27:45.063513  3091 net.cpp:106] Creating Layer conv4_2_3x3/relu
I0620 04:27:45.063515  3091 net.cpp:454] conv4_2_3x3/relu <- conv4_2_3x3
I0620 04:27:45.063544  3091 net.cpp:397] conv4_2_3x3/relu -> conv4_2_3x3 (in-place)
I0620 04:27:45.063550  3091 net.cpp:150] Setting up conv4_2_3x3/relu
I0620 04:27:45.063554  3091 net.cpp:157] Top shape: 5 256 60 60 (4608000)
I0620 04:27:45.063556  3091 net.cpp:165] Memory required for data: 4837531000
I0620 04:27:45.063558  3091 layer_factory.hpp:77] Creating layer conv4_2_1x1_increase
I0620 04:27:45.063568  3091 net.cpp:106] Creating Layer conv4_2_1x1_increase
I0620 04:27:45.063571  3091 net.cpp:454] conv4_2_1x1_increase <- conv4_2_3x3
I0620 04:27:45.063577  3091 net.cpp:411] conv4_2_1x1_increase -> conv4_2_1x1_increase
I0620 04:27:45.072140  3091 net.cpp:150] Setting up conv4_2_1x1_increase
I0620 04:27:45.072235  3091 net.cpp:157] Top shape: 5 1024 60 60 (18432000)
I0620 04:27:45.072242  3091 net.cpp:165] Memory required for data: 4911259000
I0620 04:27:45.072263  3091 layer_factory.hpp:77] Creating layer conv4_2_1x1_increase/bn
I0620 04:27:45.072300  3091 net.cpp:106] Creating Layer conv4_2_1x1_increase/bn
I0620 04:27:45.072314  3091 net.cpp:454] conv4_2_1x1_increase/bn <- conv4_2_1x1_increase
I0620 04:27:45.072326  3091 net.cpp:397] conv4_2_1x1_increase/bn -> conv4_2_1x1_increase (in-place)
I0620 04:27:45.072638  3091 net.cpp:150] Setting up conv4_2_1x1_increase/bn
I0620 04:27:45.072650  3091 net.cpp:157] Top shape: 5 1024 60 60 (18432000)
I0620 04:27:45.072654  3091 net.cpp:165] Memory required for data: 4984987000
I0620 04:27:45.072664  3091 layer_factory.hpp:77] Creating layer conv4_2
I0620 04:27:45.072676  3091 net.cpp:106] Creating Layer conv4_2
I0620 04:27:45.072681  3091 net.cpp:454] conv4_2 <- conv4_1_conv4_1/relu_0_split_1
I0620 04:27:45.072688  3091 net.cpp:454] conv4_2 <- conv4_2_1x1_increase
I0620 04:27:45.072695  3091 net.cpp:411] conv4_2 -> conv4_2
I0620 04:27:45.072736  3091 net.cpp:150] Setting up conv4_2
I0620 04:27:45.072741  3091 net.cpp:157] Top shape: 5 1024 60 60 (18432000)
I0620 04:27:45.072746  3091 net.cpp:165] Memory required for data: 5058715000
I0620 04:27:45.072751  3091 layer_factory.hpp:77] Creating layer conv4_2/relu
I0620 04:27:45.072765  3091 net.cpp:106] Creating Layer conv4_2/relu
I0620 04:27:45.072769  3091 net.cpp:454] conv4_2/relu <- conv4_2
I0620 04:27:45.072774  3091 net.cpp:397] conv4_2/relu -> conv4_2 (in-place)
I0620 04:27:45.072782  3091 net.cpp:150] Setting up conv4_2/relu
I0620 04:27:45.072788  3091 net.cpp:157] Top shape: 5 1024 60 60 (18432000)
I0620 04:27:45.072791  3091 net.cpp:165] Memory required for data: 5132443000
I0620 04:27:45.072796  3091 layer_factory.hpp:77] Creating layer conv4_2_conv4_2/relu_0_split
I0620 04:27:45.072808  3091 net.cpp:106] Creating Layer conv4_2_conv4_2/relu_0_split
I0620 04:27:45.072811  3091 net.cpp:454] conv4_2_conv4_2/relu_0_split <- conv4_2
I0620 04:27:45.072819  3091 net.cpp:411] conv4_2_conv4_2/relu_0_split -> conv4_2_conv4_2/relu_0_split_0
I0620 04:27:45.072844  3091 net.cpp:411] conv4_2_conv4_2/relu_0_split -> conv4_2_conv4_2/relu_0_split_1
I0620 04:27:45.072877  3091 net.cpp:150] Setting up conv4_2_conv4_2/relu_0_split
I0620 04:27:45.072885  3091 net.cpp:157] Top shape: 5 1024 60 60 (18432000)
I0620 04:27:45.072890  3091 net.cpp:157] Top shape: 5 1024 60 60 (18432000)
I0620 04:27:45.072895  3091 net.cpp:165] Memory required for data: 5279899000
I0620 04:27:45.072898  3091 layer_factory.hpp:77] Creating layer conv4_3_1x1_reduce
I0620 04:27:45.072916  3091 net.cpp:106] Creating Layer conv4_3_1x1_reduce
I0620 04:27:45.072921  3091 net.cpp:454] conv4_3_1x1_reduce <- conv4_2_conv4_2/relu_0_split_0
I0620 04:27:45.072926  3091 net.cpp:411] conv4_3_1x1_reduce -> conv4_3_1x1_reduce
I0620 04:27:45.081620  3091 net.cpp:150] Setting up conv4_3_1x1_reduce
I0620 04:27:45.081704  3091 net.cpp:157] Top shape: 5 256 60 60 (4608000)
I0620 04:27:45.081712  3091 net.cpp:165] Memory required for data: 5298331000
I0620 04:27:45.081727  3091 layer_factory.hpp:77] Creating layer conv4_3_1x1_reduce/bn
I0620 04:27:45.081774  3091 net.cpp:106] Creating Layer conv4_3_1x1_reduce/bn
I0620 04:27:45.081786  3091 net.cpp:454] conv4_3_1x1_reduce/bn <- conv4_3_1x1_reduce
I0620 04:27:45.081885  3091 net.cpp:397] conv4_3_1x1_reduce/bn -> conv4_3_1x1_reduce (in-place)
I0620 04:27:45.082180  3091 net.cpp:150] Setting up conv4_3_1x1_reduce/bn
I0620 04:27:45.082187  3091 net.cpp:157] Top shape: 5 256 60 60 (4608000)
I0620 04:27:45.082192  3091 net.cpp:165] Memory required for data: 5316763000
I0620 04:27:45.082201  3091 layer_factory.hpp:77] Creating layer conv4_3_1x1_reduce/relu
I0620 04:27:45.082221  3091 net.cpp:106] Creating Layer conv4_3_1x1_reduce/relu
I0620 04:27:45.082226  3091 net.cpp:454] conv4_3_1x1_reduce/relu <- conv4_3_1x1_reduce
I0620 04:27:45.082231  3091 net.cpp:397] conv4_3_1x1_reduce/relu -> conv4_3_1x1_reduce (in-place)
I0620 04:27:45.082238  3091 net.cpp:150] Setting up conv4_3_1x1_reduce/relu
I0620 04:27:45.082244  3091 net.cpp:157] Top shape: 5 256 60 60 (4608000)
I0620 04:27:45.082248  3091 net.cpp:165] Memory required for data: 5335195000
I0620 04:27:45.082252  3091 layer_factory.hpp:77] Creating layer conv4_3_3x3
I0620 04:27:45.082267  3091 net.cpp:106] Creating Layer conv4_3_3x3
I0620 04:27:45.082271  3091 net.cpp:454] conv4_3_3x3 <- conv4_3_1x1_reduce
I0620 04:27:45.082280  3091 net.cpp:411] conv4_3_3x3 -> conv4_3_3x3
I0620 04:27:45.096706  3091 net.cpp:150] Setting up conv4_3_3x3
I0620 04:27:45.096729  3091 net.cpp:157] Top shape: 5 256 60 60 (4608000)
I0620 04:27:45.096731  3091 net.cpp:165] Memory required for data: 5353627000
I0620 04:27:45.096738  3091 layer_factory.hpp:77] Creating layer conv4_3_3x3/bn
I0620 04:27:45.096750  3091 net.cpp:106] Creating Layer conv4_3_3x3/bn
I0620 04:27:45.096753  3091 net.cpp:454] conv4_3_3x3/bn <- conv4_3_3x3
I0620 04:27:45.096757  3091 net.cpp:397] conv4_3_3x3/bn -> conv4_3_3x3 (in-place)
I0620 04:27:45.096900  3091 net.cpp:150] Setting up conv4_3_3x3/bn
I0620 04:27:45.096904  3091 net.cpp:157] Top shape: 5 256 60 60 (4608000)
I0620 04:27:45.096907  3091 net.cpp:165] Memory required for data: 5372059000
I0620 04:27:45.096912  3091 layer_factory.hpp:77] Creating layer conv4_3_3x3/relu
I0620 04:27:45.096916  3091 net.cpp:106] Creating Layer conv4_3_3x3/relu
I0620 04:27:45.096918  3091 net.cpp:454] conv4_3_3x3/relu <- conv4_3_3x3
I0620 04:27:45.096921  3091 net.cpp:397] conv4_3_3x3/relu -> conv4_3_3x3 (in-place)
I0620 04:27:45.096925  3091 net.cpp:150] Setting up conv4_3_3x3/relu
I0620 04:27:45.096928  3091 net.cpp:157] Top shape: 5 256 60 60 (4608000)
I0620 04:27:45.096930  3091 net.cpp:165] Memory required for data: 5390491000
I0620 04:27:45.096933  3091 layer_factory.hpp:77] Creating layer conv4_3_1x1_increase
I0620 04:27:45.096941  3091 net.cpp:106] Creating Layer conv4_3_1x1_increase
I0620 04:27:45.096945  3091 net.cpp:454] conv4_3_1x1_increase <- conv4_3_3x3
I0620 04:27:45.096949  3091 net.cpp:411] conv4_3_1x1_increase -> conv4_3_1x1_increase
I0620 04:27:45.105640  3091 net.cpp:150] Setting up conv4_3_1x1_increase
I0620 04:27:45.105657  3091 net.cpp:157] Top shape: 5 1024 60 60 (18432000)
I0620 04:27:45.105660  3091 net.cpp:165] Memory required for data: 5464219000
I0620 04:27:45.105665  3091 layer_factory.hpp:77] Creating layer conv4_3_1x1_increase/bn
I0620 04:27:45.105672  3091 net.cpp:106] Creating Layer conv4_3_1x1_increase/bn
I0620 04:27:45.105676  3091 net.cpp:454] conv4_3_1x1_increase/bn <- conv4_3_1x1_increase
I0620 04:27:45.105681  3091 net.cpp:397] conv4_3_1x1_increase/bn -> conv4_3_1x1_increase (in-place)
I0620 04:27:45.105841  3091 net.cpp:150] Setting up conv4_3_1x1_increase/bn
I0620 04:27:45.105846  3091 net.cpp:157] Top shape: 5 1024 60 60 (18432000)
I0620 04:27:45.105849  3091 net.cpp:165] Memory required for data: 5537947000
I0620 04:27:45.105854  3091 layer_factory.hpp:77] Creating layer conv4_3
I0620 04:27:45.105861  3091 net.cpp:106] Creating Layer conv4_3
I0620 04:27:45.105865  3091 net.cpp:454] conv4_3 <- conv4_2_conv4_2/relu_0_split_1
I0620 04:27:45.105867  3091 net.cpp:454] conv4_3 <- conv4_3_1x1_increase
I0620 04:27:45.105871  3091 net.cpp:411] conv4_3 -> conv4_3
I0620 04:27:45.105893  3091 net.cpp:150] Setting up conv4_3
I0620 04:27:45.105897  3091 net.cpp:157] Top shape: 5 1024 60 60 (18432000)
I0620 04:27:45.105912  3091 net.cpp:165] Memory required for data: 5611675000
I0620 04:27:45.105914  3091 layer_factory.hpp:77] Creating layer conv4_3/relu
I0620 04:27:45.105921  3091 net.cpp:106] Creating Layer conv4_3/relu
I0620 04:27:45.105924  3091 net.cpp:454] conv4_3/relu <- conv4_3
I0620 04:27:45.105928  3091 net.cpp:397] conv4_3/relu -> conv4_3 (in-place)
I0620 04:27:45.105933  3091 net.cpp:150] Setting up conv4_3/relu
I0620 04:27:45.105937  3091 net.cpp:157] Top shape: 5 1024 60 60 (18432000)
I0620 04:27:45.105938  3091 net.cpp:165] Memory required for data: 5685403000
I0620 04:27:45.105942  3091 layer_factory.hpp:77] Creating layer conv4_3_conv4_3/relu_0_split
I0620 04:27:45.105945  3091 net.cpp:106] Creating Layer conv4_3_conv4_3/relu_0_split
I0620 04:27:45.105948  3091 net.cpp:454] conv4_3_conv4_3/relu_0_split <- conv4_3
I0620 04:27:45.105952  3091 net.cpp:411] conv4_3_conv4_3/relu_0_split -> conv4_3_conv4_3/relu_0_split_0
I0620 04:27:45.105957  3091 net.cpp:411] conv4_3_conv4_3/relu_0_split -> conv4_3_conv4_3/relu_0_split_1
I0620 04:27:45.105978  3091 net.cpp:150] Setting up conv4_3_conv4_3/relu_0_split
I0620 04:27:45.105983  3091 net.cpp:157] Top shape: 5 1024 60 60 (18432000)
I0620 04:27:45.105985  3091 net.cpp:157] Top shape: 5 1024 60 60 (18432000)
I0620 04:27:45.105988  3091 net.cpp:165] Memory required for data: 5832859000
I0620 04:27:45.105990  3091 layer_factory.hpp:77] Creating layer conv4_4_1x1_reduce
I0620 04:27:45.106010  3091 net.cpp:106] Creating Layer conv4_4_1x1_reduce
I0620 04:27:45.106014  3091 net.cpp:454] conv4_4_1x1_reduce <- conv4_3_conv4_3/relu_0_split_0
I0620 04:27:45.106017  3091 net.cpp:411] conv4_4_1x1_reduce -> conv4_4_1x1_reduce
I0620 04:27:45.111805  3091 net.cpp:150] Setting up conv4_4_1x1_reduce
I0620 04:27:45.111838  3091 net.cpp:157] Top shape: 5 256 60 60 (4608000)
I0620 04:27:45.111841  3091 net.cpp:165] Memory required for data: 5851291000
I0620 04:27:45.111850  3091 layer_factory.hpp:77] Creating layer conv4_4_1x1_reduce/bn
I0620 04:27:45.111873  3091 net.cpp:106] Creating Layer conv4_4_1x1_reduce/bn
I0620 04:27:45.111886  3091 net.cpp:454] conv4_4_1x1_reduce/bn <- conv4_4_1x1_reduce
I0620 04:27:45.111915  3091 net.cpp:397] conv4_4_1x1_reduce/bn -> conv4_4_1x1_reduce (in-place)
I0620 04:27:45.112128  3091 net.cpp:150] Setting up conv4_4_1x1_reduce/bn
I0620 04:27:45.112133  3091 net.cpp:157] Top shape: 5 256 60 60 (4608000)
I0620 04:27:45.112135  3091 net.cpp:165] Memory required for data: 5869723000
I0620 04:27:45.112141  3091 layer_factory.hpp:77] Creating layer conv4_4_1x1_reduce/relu
I0620 04:27:45.112148  3091 net.cpp:106] Creating Layer conv4_4_1x1_reduce/relu
I0620 04:27:45.112149  3091 net.cpp:454] conv4_4_1x1_reduce/relu <- conv4_4_1x1_reduce
I0620 04:27:45.112154  3091 net.cpp:397] conv4_4_1x1_reduce/relu -> conv4_4_1x1_reduce (in-place)
I0620 04:27:45.112157  3091 net.cpp:150] Setting up conv4_4_1x1_reduce/relu
I0620 04:27:45.112160  3091 net.cpp:157] Top shape: 5 256 60 60 (4608000)
I0620 04:27:45.112164  3091 net.cpp:165] Memory required for data: 5888155000
I0620 04:27:45.112171  3091 layer_factory.hpp:77] Creating layer conv4_4_3x3
I0620 04:27:45.112179  3091 net.cpp:106] Creating Layer conv4_4_3x3
I0620 04:27:45.112181  3091 net.cpp:454] conv4_4_3x3 <- conv4_4_1x1_reduce
I0620 04:27:45.112186  3091 net.cpp:411] conv4_4_3x3 -> conv4_4_3x3
I0620 04:27:45.127730  3091 net.cpp:150] Setting up conv4_4_3x3
I0620 04:27:45.127794  3091 net.cpp:157] Top shape: 5 256 60 60 (4608000)
I0620 04:27:45.127799  3091 net.cpp:165] Memory required for data: 5906587000
I0620 04:27:45.127810  3091 layer_factory.hpp:77] Creating layer conv4_4_3x3/bn
I0620 04:27:45.127835  3091 net.cpp:106] Creating Layer conv4_4_3x3/bn
I0620 04:27:45.127843  3091 net.cpp:454] conv4_4_3x3/bn <- conv4_4_3x3
I0620 04:27:45.127856  3091 net.cpp:397] conv4_4_3x3/bn -> conv4_4_3x3 (in-place)
I0620 04:27:45.128090  3091 net.cpp:150] Setting up conv4_4_3x3/bn
I0620 04:27:45.128099  3091 net.cpp:157] Top shape: 5 256 60 60 (4608000)
I0620 04:27:45.128103  3091 net.cpp:165] Memory required for data: 5925019000
I0620 04:27:45.128146  3091 layer_factory.hpp:77] Creating layer conv4_4_3x3/relu
I0620 04:27:45.128159  3091 net.cpp:106] Creating Layer conv4_4_3x3/relu
I0620 04:27:45.128162  3091 net.cpp:454] conv4_4_3x3/relu <- conv4_4_3x3
I0620 04:27:45.128167  3091 net.cpp:397] conv4_4_3x3/relu -> conv4_4_3x3 (in-place)
I0620 04:27:45.128175  3091 net.cpp:150] Setting up conv4_4_3x3/relu
I0620 04:27:45.128180  3091 net.cpp:157] Top shape: 5 256 60 60 (4608000)
I0620 04:27:45.128185  3091 net.cpp:165] Memory required for data: 5943451000
I0620 04:27:45.128188  3091 layer_factory.hpp:77] Creating layer conv4_4_1x1_increase
I0620 04:27:45.128218  3091 net.cpp:106] Creating Layer conv4_4_1x1_increase
I0620 04:27:45.128223  3091 net.cpp:454] conv4_4_1x1_increase <- conv4_4_3x3
I0620 04:27:45.128232  3091 net.cpp:411] conv4_4_1x1_increase -> conv4_4_1x1_increase
I0620 04:27:45.138634  3091 net.cpp:150] Setting up conv4_4_1x1_increase
I0620 04:27:45.138725  3091 net.cpp:157] Top shape: 5 1024 60 60 (18432000)
I0620 04:27:45.138733  3091 net.cpp:165] Memory required for data: 6017179000
I0620 04:27:45.138752  3091 layer_factory.hpp:77] Creating layer conv4_4_1x1_increase/bn
I0620 04:27:45.138785  3091 net.cpp:106] Creating Layer conv4_4_1x1_increase/bn
I0620 04:27:45.138798  3091 net.cpp:454] conv4_4_1x1_increase/bn <- conv4_4_1x1_increase
I0620 04:27:45.138811  3091 net.cpp:397] conv4_4_1x1_increase/bn -> conv4_4_1x1_increase (in-place)
I0620 04:27:45.139087  3091 net.cpp:150] Setting up conv4_4_1x1_increase/bn
I0620 04:27:45.139096  3091 net.cpp:157] Top shape: 5 1024 60 60 (18432000)
I0620 04:27:45.139099  3091 net.cpp:165] Memory required for data: 6090907000
I0620 04:27:45.139106  3091 layer_factory.hpp:77] Creating layer conv4_4
I0620 04:27:45.139114  3091 net.cpp:106] Creating Layer conv4_4
I0620 04:27:45.139118  3091 net.cpp:454] conv4_4 <- conv4_3_conv4_3/relu_0_split_1
I0620 04:27:45.139123  3091 net.cpp:454] conv4_4 <- conv4_4_1x1_increase
I0620 04:27:45.139128  3091 net.cpp:411] conv4_4 -> conv4_4
I0620 04:27:45.139161  3091 net.cpp:150] Setting up conv4_4
I0620 04:27:45.139165  3091 net.cpp:157] Top shape: 5 1024 60 60 (18432000)
I0620 04:27:45.139168  3091 net.cpp:165] Memory required for data: 6164635000
I0620 04:27:45.139170  3091 layer_factory.hpp:77] Creating layer conv4_4/relu
I0620 04:27:45.139179  3091 net.cpp:106] Creating Layer conv4_4/relu
I0620 04:27:45.139183  3091 net.cpp:454] conv4_4/relu <- conv4_4
I0620 04:27:45.139186  3091 net.cpp:397] conv4_4/relu -> conv4_4 (in-place)
I0620 04:27:45.139191  3091 net.cpp:150] Setting up conv4_4/relu
I0620 04:27:45.139194  3091 net.cpp:157] Top shape: 5 1024 60 60 (18432000)
I0620 04:27:45.139197  3091 net.cpp:165] Memory required for data: 6238363000
I0620 04:27:45.139200  3091 layer_factory.hpp:77] Creating layer conv4_4_conv4_4/relu_0_split
I0620 04:27:45.139207  3091 net.cpp:106] Creating Layer conv4_4_conv4_4/relu_0_split
I0620 04:27:45.139210  3091 net.cpp:454] conv4_4_conv4_4/relu_0_split <- conv4_4
I0620 04:27:45.139214  3091 net.cpp:411] conv4_4_conv4_4/relu_0_split -> conv4_4_conv4_4/relu_0_split_0
I0620 04:27:45.139217  3091 net.cpp:411] conv4_4_conv4_4/relu_0_split -> conv4_4_conv4_4/relu_0_split_1
I0620 04:27:45.139241  3091 net.cpp:150] Setting up conv4_4_conv4_4/relu_0_split
I0620 04:27:45.139245  3091 net.cpp:157] Top shape: 5 1024 60 60 (18432000)
I0620 04:27:45.139248  3091 net.cpp:157] Top shape: 5 1024 60 60 (18432000)
I0620 04:27:45.139251  3091 net.cpp:165] Memory required for data: 6385819000
I0620 04:27:45.139255  3091 layer_factory.hpp:77] Creating layer conv4_5_1x1_reduce
I0620 04:27:45.139264  3091 net.cpp:106] Creating Layer conv4_5_1x1_reduce
I0620 04:27:45.139267  3091 net.cpp:454] conv4_5_1x1_reduce <- conv4_4_conv4_4/relu_0_split_0
I0620 04:27:45.139272  3091 net.cpp:411] conv4_5_1x1_reduce -> conv4_5_1x1_reduce
I0620 04:27:45.145442  3091 net.cpp:150] Setting up conv4_5_1x1_reduce
I0620 04:27:45.145484  3091 net.cpp:157] Top shape: 5 256 60 60 (4608000)
I0620 04:27:45.145488  3091 net.cpp:165] Memory required for data: 6404251000
I0620 04:27:45.145550  3091 layer_factory.hpp:77] Creating layer conv4_5_1x1_reduce/bn
I0620 04:27:45.145563  3091 net.cpp:106] Creating Layer conv4_5_1x1_reduce/bn
I0620 04:27:45.145568  3091 net.cpp:454] conv4_5_1x1_reduce/bn <- conv4_5_1x1_reduce
I0620 04:27:45.145577  3091 net.cpp:397] conv4_5_1x1_reduce/bn -> conv4_5_1x1_reduce (in-place)
I0620 04:27:45.145747  3091 net.cpp:150] Setting up conv4_5_1x1_reduce/bn
I0620 04:27:45.145766  3091 net.cpp:157] Top shape: 5 256 60 60 (4608000)
I0620 04:27:45.145767  3091 net.cpp:165] Memory required for data: 6422683000
I0620 04:27:45.145772  3091 layer_factory.hpp:77] Creating layer conv4_5_1x1_reduce/relu
I0620 04:27:45.145781  3091 net.cpp:106] Creating Layer conv4_5_1x1_reduce/relu
I0620 04:27:45.145784  3091 net.cpp:454] conv4_5_1x1_reduce/relu <- conv4_5_1x1_reduce
I0620 04:27:45.145788  3091 net.cpp:397] conv4_5_1x1_reduce/relu -> conv4_5_1x1_reduce (in-place)
I0620 04:27:45.145793  3091 net.cpp:150] Setting up conv4_5_1x1_reduce/relu
I0620 04:27:45.145797  3091 net.cpp:157] Top shape: 5 256 60 60 (4608000)
I0620 04:27:45.145799  3091 net.cpp:165] Memory required for data: 6441115000
I0620 04:27:45.145802  3091 layer_factory.hpp:77] Creating layer conv4_5_3x3
I0620 04:27:45.145809  3091 net.cpp:106] Creating Layer conv4_5_3x3
I0620 04:27:45.145812  3091 net.cpp:454] conv4_5_3x3 <- conv4_5_1x1_reduce
I0620 04:27:45.145817  3091 net.cpp:411] conv4_5_3x3 -> conv4_5_3x3
I0620 04:27:45.159850  3091 net.cpp:150] Setting up conv4_5_3x3
I0620 04:27:45.159886  3091 net.cpp:157] Top shape: 5 256 60 60 (4608000)
I0620 04:27:45.159888  3091 net.cpp:165] Memory required for data: 6459547000
I0620 04:27:45.159894  3091 layer_factory.hpp:77] Creating layer conv4_5_3x3/bn
I0620 04:27:45.159904  3091 net.cpp:106] Creating Layer conv4_5_3x3/bn
I0620 04:27:45.159912  3091 net.cpp:454] conv4_5_3x3/bn <- conv4_5_3x3
I0620 04:27:45.159919  3091 net.cpp:397] conv4_5_3x3/bn -> conv4_5_3x3 (in-place)
I0620 04:27:45.160064  3091 net.cpp:150] Setting up conv4_5_3x3/bn
I0620 04:27:45.160069  3091 net.cpp:157] Top shape: 5 256 60 60 (4608000)
I0620 04:27:45.160071  3091 net.cpp:165] Memory required for data: 6477979000
I0620 04:27:45.160076  3091 layer_factory.hpp:77] Creating layer conv4_5_3x3/relu
I0620 04:27:45.160081  3091 net.cpp:106] Creating Layer conv4_5_3x3/relu
I0620 04:27:45.160084  3091 net.cpp:454] conv4_5_3x3/relu <- conv4_5_3x3
I0620 04:27:45.160085  3091 net.cpp:397] conv4_5_3x3/relu -> conv4_5_3x3 (in-place)
I0620 04:27:45.160089  3091 net.cpp:150] Setting up conv4_5_3x3/relu
I0620 04:27:45.160092  3091 net.cpp:157] Top shape: 5 256 60 60 (4608000)
I0620 04:27:45.160094  3091 net.cpp:165] Memory required for data: 6496411000
I0620 04:27:45.160097  3091 layer_factory.hpp:77] Creating layer conv4_5_1x1_increase
I0620 04:27:45.160104  3091 net.cpp:106] Creating Layer conv4_5_1x1_increase
I0620 04:27:45.160107  3091 net.cpp:454] conv4_5_1x1_increase <- conv4_5_3x3
I0620 04:27:45.160111  3091 net.cpp:411] conv4_5_1x1_increase -> conv4_5_1x1_increase
I0620 04:27:45.169827  3091 net.cpp:150] Setting up conv4_5_1x1_increase
I0620 04:27:45.169845  3091 net.cpp:157] Top shape: 5 1024 60 60 (18432000)
I0620 04:27:45.169848  3091 net.cpp:165] Memory required for data: 6570139000
I0620 04:27:45.169854  3091 layer_factory.hpp:77] Creating layer conv4_5_1x1_increase/bn
I0620 04:27:45.169863  3091 net.cpp:106] Creating Layer conv4_5_1x1_increase/bn
I0620 04:27:45.169867  3091 net.cpp:454] conv4_5_1x1_increase/bn <- conv4_5_1x1_increase
I0620 04:27:45.169872  3091 net.cpp:397] conv4_5_1x1_increase/bn -> conv4_5_1x1_increase (in-place)
I0620 04:27:45.170025  3091 net.cpp:150] Setting up conv4_5_1x1_increase/bn
I0620 04:27:45.170030  3091 net.cpp:157] Top shape: 5 1024 60 60 (18432000)
I0620 04:27:45.170032  3091 net.cpp:165] Memory required for data: 6643867000
I0620 04:27:45.170037  3091 layer_factory.hpp:77] Creating layer conv4_5
I0620 04:27:45.170042  3091 net.cpp:106] Creating Layer conv4_5
I0620 04:27:45.170044  3091 net.cpp:454] conv4_5 <- conv4_4_conv4_4/relu_0_split_1
I0620 04:27:45.170047  3091 net.cpp:454] conv4_5 <- conv4_5_1x1_increase
I0620 04:27:45.170063  3091 net.cpp:411] conv4_5 -> conv4_5
I0620 04:27:45.170083  3091 net.cpp:150] Setting up conv4_5
I0620 04:27:45.170086  3091 net.cpp:157] Top shape: 5 1024 60 60 (18432000)
I0620 04:27:45.170089  3091 net.cpp:165] Memory required for data: 6717595000
I0620 04:27:45.170091  3091 layer_factory.hpp:77] Creating layer conv4_5/relu
I0620 04:27:45.170094  3091 net.cpp:106] Creating Layer conv4_5/relu
I0620 04:27:45.170097  3091 net.cpp:454] conv4_5/relu <- conv4_5
I0620 04:27:45.170100  3091 net.cpp:397] conv4_5/relu -> conv4_5 (in-place)
I0620 04:27:45.170104  3091 net.cpp:150] Setting up conv4_5/relu
I0620 04:27:45.170106  3091 net.cpp:157] Top shape: 5 1024 60 60 (18432000)
I0620 04:27:45.170109  3091 net.cpp:165] Memory required for data: 6791323000
I0620 04:27:45.170110  3091 layer_factory.hpp:77] Creating layer conv4_5_conv4_5/relu_0_split
I0620 04:27:45.170114  3091 net.cpp:106] Creating Layer conv4_5_conv4_5/relu_0_split
I0620 04:27:45.170115  3091 net.cpp:454] conv4_5_conv4_5/relu_0_split <- conv4_5
I0620 04:27:45.170119  3091 net.cpp:411] conv4_5_conv4_5/relu_0_split -> conv4_5_conv4_5/relu_0_split_0
I0620 04:27:45.170122  3091 net.cpp:411] conv4_5_conv4_5/relu_0_split -> conv4_5_conv4_5/relu_0_split_1
I0620 04:27:45.170148  3091 net.cpp:150] Setting up conv4_5_conv4_5/relu_0_split
I0620 04:27:45.170152  3091 net.cpp:157] Top shape: 5 1024 60 60 (18432000)
I0620 04:27:45.170155  3091 net.cpp:157] Top shape: 5 1024 60 60 (18432000)
I0620 04:27:45.170156  3091 net.cpp:165] Memory required for data: 6938779000
I0620 04:27:45.170158  3091 layer_factory.hpp:77] Creating layer conv4_6_1x1_reduce
I0620 04:27:45.170166  3091 net.cpp:106] Creating Layer conv4_6_1x1_reduce
I0620 04:27:45.170167  3091 net.cpp:454] conv4_6_1x1_reduce <- conv4_5_conv4_5/relu_0_split_0
I0620 04:27:45.170171  3091 net.cpp:411] conv4_6_1x1_reduce -> conv4_6_1x1_reduce
I0620 04:27:45.176229  3091 net.cpp:150] Setting up conv4_6_1x1_reduce
I0620 04:27:45.176272  3091 net.cpp:157] Top shape: 5 256 60 60 (4608000)
I0620 04:27:45.176275  3091 net.cpp:165] Memory required for data: 6957211000
I0620 04:27:45.176285  3091 layer_factory.hpp:77] Creating layer conv4_6_1x1_reduce/bn
I0620 04:27:45.176303  3091 net.cpp:106] Creating Layer conv4_6_1x1_reduce/bn
I0620 04:27:45.176311  3091 net.cpp:454] conv4_6_1x1_reduce/bn <- conv4_6_1x1_reduce
I0620 04:27:45.176340  3091 net.cpp:397] conv4_6_1x1_reduce/bn -> conv4_6_1x1_reduce (in-place)
I0620 04:27:45.176545  3091 net.cpp:150] Setting up conv4_6_1x1_reduce/bn
I0620 04:27:45.176551  3091 net.cpp:157] Top shape: 5 256 60 60 (4608000)
I0620 04:27:45.176553  3091 net.cpp:165] Memory required for data: 6975643000
I0620 04:27:45.176559  3091 layer_factory.hpp:77] Creating layer conv4_6_1x1_reduce/relu
I0620 04:27:45.176565  3091 net.cpp:106] Creating Layer conv4_6_1x1_reduce/relu
I0620 04:27:45.176568  3091 net.cpp:454] conv4_6_1x1_reduce/relu <- conv4_6_1x1_reduce
I0620 04:27:45.176571  3091 net.cpp:397] conv4_6_1x1_reduce/relu -> conv4_6_1x1_reduce (in-place)
I0620 04:27:45.176575  3091 net.cpp:150] Setting up conv4_6_1x1_reduce/relu
I0620 04:27:45.176578  3091 net.cpp:157] Top shape: 5 256 60 60 (4608000)
I0620 04:27:45.176584  3091 net.cpp:165] Memory required for data: 6994075000
I0620 04:27:45.176587  3091 layer_factory.hpp:77] Creating layer conv4_6_3x3
I0620 04:27:45.176595  3091 net.cpp:106] Creating Layer conv4_6_3x3
I0620 04:27:45.176597  3091 net.cpp:454] conv4_6_3x3 <- conv4_6_1x1_reduce
I0620 04:27:45.176601  3091 net.cpp:411] conv4_6_3x3 -> conv4_6_3x3
I0620 04:27:45.194926  3091 net.cpp:150] Setting up conv4_6_3x3
I0620 04:27:45.194972  3091 net.cpp:157] Top shape: 5 256 60 60 (4608000)
I0620 04:27:45.194977  3091 net.cpp:165] Memory required for data: 7012507000
I0620 04:27:45.194993  3091 layer_factory.hpp:77] Creating layer conv4_6_3x3/bn
I0620 04:27:45.195016  3091 net.cpp:106] Creating Layer conv4_6_3x3/bn
I0620 04:27:45.195025  3091 net.cpp:454] conv4_6_3x3/bn <- conv4_6_3x3
I0620 04:27:45.195032  3091 net.cpp:397] conv4_6_3x3/bn -> conv4_6_3x3 (in-place)
I0620 04:27:45.195240  3091 net.cpp:150] Setting up conv4_6_3x3/bn
I0620 04:27:45.195245  3091 net.cpp:157] Top shape: 5 256 60 60 (4608000)
I0620 04:27:45.195248  3091 net.cpp:165] Memory required for data: 7030939000
I0620 04:27:45.195253  3091 layer_factory.hpp:77] Creating layer conv4_6_3x3/relu
I0620 04:27:45.195262  3091 net.cpp:106] Creating Layer conv4_6_3x3/relu
I0620 04:27:45.195266  3091 net.cpp:454] conv4_6_3x3/relu <- conv4_6_3x3
I0620 04:27:45.195269  3091 net.cpp:397] conv4_6_3x3/relu -> conv4_6_3x3 (in-place)
I0620 04:27:45.195273  3091 net.cpp:150] Setting up conv4_6_3x3/relu
I0620 04:27:45.195277  3091 net.cpp:157] Top shape: 5 256 60 60 (4608000)
I0620 04:27:45.195279  3091 net.cpp:165] Memory required for data: 7049371000
I0620 04:27:45.195282  3091 layer_factory.hpp:77] Creating layer conv4_6_1x1_increase
I0620 04:27:45.195294  3091 net.cpp:106] Creating Layer conv4_6_1x1_increase
I0620 04:27:45.195297  3091 net.cpp:454] conv4_6_1x1_increase <- conv4_6_3x3
I0620 04:27:45.195302  3091 net.cpp:411] conv4_6_1x1_increase -> conv4_6_1x1_increase
I0620 04:27:45.202244  3091 net.cpp:150] Setting up conv4_6_1x1_increase
I0620 04:27:45.202296  3091 net.cpp:157] Top shape: 5 1024 60 60 (18432000)
I0620 04:27:45.202299  3091 net.cpp:165] Memory required for data: 7123099000
I0620 04:27:45.202308  3091 layer_factory.hpp:77] Creating layer conv4_6_1x1_increase/bn
I0620 04:27:45.202325  3091 net.cpp:106] Creating Layer conv4_6_1x1_increase/bn
I0620 04:27:45.202332  3091 net.cpp:454] conv4_6_1x1_increase/bn <- conv4_6_1x1_increase
I0620 04:27:45.202338  3091 net.cpp:397] conv4_6_1x1_increase/bn -> conv4_6_1x1_increase (in-place)
I0620 04:27:45.202559  3091 net.cpp:150] Setting up conv4_6_1x1_increase/bn
I0620 04:27:45.202566  3091 net.cpp:157] Top shape: 5 1024 60 60 (18432000)
I0620 04:27:45.202569  3091 net.cpp:165] Memory required for data: 7196827000
I0620 04:27:45.202577  3091 layer_factory.hpp:77] Creating layer conv4_6
I0620 04:27:45.202585  3091 net.cpp:106] Creating Layer conv4_6
I0620 04:27:45.202589  3091 net.cpp:454] conv4_6 <- conv4_5_conv4_5/relu_0_split_1
I0620 04:27:45.202592  3091 net.cpp:454] conv4_6 <- conv4_6_1x1_increase
I0620 04:27:45.202597  3091 net.cpp:411] conv4_6 -> conv4_6
I0620 04:27:45.202630  3091 net.cpp:150] Setting up conv4_6
I0620 04:27:45.202633  3091 net.cpp:157] Top shape: 5 1024 60 60 (18432000)
I0620 04:27:45.202637  3091 net.cpp:165] Memory required for data: 7270555000
I0620 04:27:45.202641  3091 layer_factory.hpp:77] Creating layer conv4_6/relu
I0620 04:27:45.202649  3091 net.cpp:106] Creating Layer conv4_6/relu
I0620 04:27:45.202652  3091 net.cpp:454] conv4_6/relu <- conv4_6
I0620 04:27:45.202656  3091 net.cpp:397] conv4_6/relu -> conv4_6 (in-place)
I0620 04:27:45.202661  3091 net.cpp:150] Setting up conv4_6/relu
I0620 04:27:45.202664  3091 net.cpp:157] Top shape: 5 1024 60 60 (18432000)
I0620 04:27:45.202667  3091 net.cpp:165] Memory required for data: 7344283000
I0620 04:27:45.202671  3091 layer_factory.hpp:77] Creating layer conv4_6_conv4_6/relu_0_split
I0620 04:27:45.202675  3091 net.cpp:106] Creating Layer conv4_6_conv4_6/relu_0_split
I0620 04:27:45.202678  3091 net.cpp:454] conv4_6_conv4_6/relu_0_split <- conv4_6
I0620 04:27:45.202682  3091 net.cpp:411] conv4_6_conv4_6/relu_0_split -> conv4_6_conv4_6/relu_0_split_0
I0620 04:27:45.202687  3091 net.cpp:411] conv4_6_conv4_6/relu_0_split -> conv4_6_conv4_6/relu_0_split_1
I0620 04:27:45.202711  3091 net.cpp:150] Setting up conv4_6_conv4_6/relu_0_split
I0620 04:27:45.202715  3091 net.cpp:157] Top shape: 5 1024 60 60 (18432000)
I0620 04:27:45.202718  3091 net.cpp:157] Top shape: 5 1024 60 60 (18432000)
I0620 04:27:45.202721  3091 net.cpp:165] Memory required for data: 7491739000
I0620 04:27:45.202724  3091 layer_factory.hpp:77] Creating layer conv4_7_1x1_reduce
I0620 04:27:45.202733  3091 net.cpp:106] Creating Layer conv4_7_1x1_reduce
I0620 04:27:45.202738  3091 net.cpp:454] conv4_7_1x1_reduce <- conv4_6_conv4_6/relu_0_split_0
I0620 04:27:45.202741  3091 net.cpp:411] conv4_7_1x1_reduce -> conv4_7_1x1_reduce
I0620 04:27:45.208614  3091 net.cpp:150] Setting up conv4_7_1x1_reduce
I0620 04:27:45.208629  3091 net.cpp:157] Top shape: 5 256 60 60 (4608000)
I0620 04:27:45.208632  3091 net.cpp:165] Memory required for data: 7510171000
I0620 04:27:45.208636  3091 layer_factory.hpp:77] Creating layer conv4_7_1x1_reduce/bn
I0620 04:27:45.208643  3091 net.cpp:106] Creating Layer conv4_7_1x1_reduce/bn
I0620 04:27:45.208648  3091 net.cpp:454] conv4_7_1x1_reduce/bn <- conv4_7_1x1_reduce
I0620 04:27:45.208655  3091 net.cpp:397] conv4_7_1x1_reduce/bn -> conv4_7_1x1_reduce (in-place)
I0620 04:27:45.208813  3091 net.cpp:150] Setting up conv4_7_1x1_reduce/bn
I0620 04:27:45.208818  3091 net.cpp:157] Top shape: 5 256 60 60 (4608000)
I0620 04:27:45.208822  3091 net.cpp:165] Memory required for data: 7528603000
I0620 04:27:45.208827  3091 layer_factory.hpp:77] Creating layer conv4_7_1x1_reduce/relu
I0620 04:27:45.208832  3091 net.cpp:106] Creating Layer conv4_7_1x1_reduce/relu
I0620 04:27:45.208835  3091 net.cpp:454] conv4_7_1x1_reduce/relu <- conv4_7_1x1_reduce
I0620 04:27:45.208838  3091 net.cpp:397] conv4_7_1x1_reduce/relu -> conv4_7_1x1_reduce (in-place)
I0620 04:27:45.208842  3091 net.cpp:150] Setting up conv4_7_1x1_reduce/relu
I0620 04:27:45.208847  3091 net.cpp:157] Top shape: 5 256 60 60 (4608000)
I0620 04:27:45.208848  3091 net.cpp:165] Memory required for data: 7547035000
I0620 04:27:45.208851  3091 layer_factory.hpp:77] Creating layer conv4_7_3x3
I0620 04:27:45.208858  3091 net.cpp:106] Creating Layer conv4_7_3x3
I0620 04:27:45.208861  3091 net.cpp:454] conv4_7_3x3 <- conv4_7_1x1_reduce
I0620 04:27:45.208865  3091 net.cpp:411] conv4_7_3x3 -> conv4_7_3x3
I0620 04:27:45.222589  3091 net.cpp:150] Setting up conv4_7_3x3
I0620 04:27:45.222618  3091 net.cpp:157] Top shape: 5 256 60 60 (4608000)
I0620 04:27:45.222622  3091 net.cpp:165] Memory required for data: 7565467000
I0620 04:27:45.222630  3091 layer_factory.hpp:77] Creating layer conv4_7_3x3/bn
I0620 04:27:45.222641  3091 net.cpp:106] Creating Layer conv4_7_3x3/bn
I0620 04:27:45.222647  3091 net.cpp:454] conv4_7_3x3/bn <- conv4_7_3x3
I0620 04:27:45.222651  3091 net.cpp:397] conv4_7_3x3/bn -> conv4_7_3x3 (in-place)
I0620 04:27:45.222818  3091 net.cpp:150] Setting up conv4_7_3x3/bn
I0620 04:27:45.222823  3091 net.cpp:157] Top shape: 5 256 60 60 (4608000)
I0620 04:27:45.222826  3091 net.cpp:165] Memory required for data: 7583899000
I0620 04:27:45.222834  3091 layer_factory.hpp:77] Creating layer conv4_7_3x3/relu
I0620 04:27:45.222844  3091 net.cpp:106] Creating Layer conv4_7_3x3/relu
I0620 04:27:45.222847  3091 net.cpp:454] conv4_7_3x3/relu <- conv4_7_3x3
I0620 04:27:45.222851  3091 net.cpp:397] conv4_7_3x3/relu -> conv4_7_3x3 (in-place)
I0620 04:27:45.222856  3091 net.cpp:150] Setting up conv4_7_3x3/relu
I0620 04:27:45.222858  3091 net.cpp:157] Top shape: 5 256 60 60 (4608000)
I0620 04:27:45.222862  3091 net.cpp:165] Memory required for data: 7602331000
I0620 04:27:45.222864  3091 layer_factory.hpp:77] Creating layer conv4_7_1x1_increase
I0620 04:27:45.222875  3091 net.cpp:106] Creating Layer conv4_7_1x1_increase
I0620 04:27:45.222878  3091 net.cpp:454] conv4_7_1x1_increase <- conv4_7_3x3
I0620 04:27:45.222882  3091 net.cpp:411] conv4_7_1x1_increase -> conv4_7_1x1_increase
I0620 04:27:45.231302  3091 net.cpp:150] Setting up conv4_7_1x1_increase
I0620 04:27:45.231374  3091 net.cpp:157] Top shape: 5 1024 60 60 (18432000)
I0620 04:27:45.231379  3091 net.cpp:165] Memory required for data: 7676059000
I0620 04:27:45.231397  3091 layer_factory.hpp:77] Creating layer conv4_7_1x1_increase/bn
I0620 04:27:45.231428  3091 net.cpp:106] Creating Layer conv4_7_1x1_increase/bn
I0620 04:27:45.231439  3091 net.cpp:454] conv4_7_1x1_increase/bn <- conv4_7_1x1_increase
I0620 04:27:45.231451  3091 net.cpp:397] conv4_7_1x1_increase/bn -> conv4_7_1x1_increase (in-place)
I0620 04:27:45.231734  3091 net.cpp:150] Setting up conv4_7_1x1_increase/bn
I0620 04:27:45.231741  3091 net.cpp:157] Top shape: 5 1024 60 60 (18432000)
I0620 04:27:45.231745  3091 net.cpp:165] Memory required for data: 7749787000
I0620 04:27:45.231804  3091 layer_factory.hpp:77] Creating layer conv4_7
I0620 04:27:45.231817  3091 net.cpp:106] Creating Layer conv4_7
I0620 04:27:45.231820  3091 net.cpp:454] conv4_7 <- conv4_6_conv4_6/relu_0_split_1
I0620 04:27:45.231825  3091 net.cpp:454] conv4_7 <- conv4_7_1x1_increase
I0620 04:27:45.231832  3091 net.cpp:411] conv4_7 -> conv4_7
I0620 04:27:45.231868  3091 net.cpp:150] Setting up conv4_7
I0620 04:27:45.231874  3091 net.cpp:157] Top shape: 5 1024 60 60 (18432000)
I0620 04:27:45.231878  3091 net.cpp:165] Memory required for data: 7823515000
I0620 04:27:45.231883  3091 layer_factory.hpp:77] Creating layer conv4_7/relu
I0620 04:27:45.231897  3091 net.cpp:106] Creating Layer conv4_7/relu
I0620 04:27:45.231902  3091 net.cpp:454] conv4_7/relu <- conv4_7
I0620 04:27:45.231906  3091 net.cpp:397] conv4_7/relu -> conv4_7 (in-place)
I0620 04:27:45.231914  3091 net.cpp:150] Setting up conv4_7/relu
I0620 04:27:45.231920  3091 net.cpp:157] Top shape: 5 1024 60 60 (18432000)
I0620 04:27:45.231925  3091 net.cpp:165] Memory required for data: 7897243000
I0620 04:27:45.231930  3091 layer_factory.hpp:77] Creating layer conv4_7_conv4_7/relu_0_split
I0620 04:27:45.231937  3091 net.cpp:106] Creating Layer conv4_7_conv4_7/relu_0_split
I0620 04:27:45.231941  3091 net.cpp:454] conv4_7_conv4_7/relu_0_split <- conv4_7
I0620 04:27:45.231948  3091 net.cpp:411] conv4_7_conv4_7/relu_0_split -> conv4_7_conv4_7/relu_0_split_0
I0620 04:27:45.231955  3091 net.cpp:411] conv4_7_conv4_7/relu_0_split -> conv4_7_conv4_7/relu_0_split_1
I0620 04:27:45.231986  3091 net.cpp:150] Setting up conv4_7_conv4_7/relu_0_split
I0620 04:27:45.231993  3091 net.cpp:157] Top shape: 5 1024 60 60 (18432000)
I0620 04:27:45.231998  3091 net.cpp:157] Top shape: 5 1024 60 60 (18432000)
I0620 04:27:45.232002  3091 net.cpp:165] Memory required for data: 8044699000
I0620 04:27:45.232007  3091 layer_factory.hpp:77] Creating layer conv4_8_1x1_reduce
I0620 04:27:45.232023  3091 net.cpp:106] Creating Layer conv4_8_1x1_reduce
I0620 04:27:45.232028  3091 net.cpp:454] conv4_8_1x1_reduce <- conv4_7_conv4_7/relu_0_split_0
I0620 04:27:45.232033  3091 net.cpp:411] conv4_8_1x1_reduce -> conv4_8_1x1_reduce
I0620 04:27:45.240547  3091 net.cpp:150] Setting up conv4_8_1x1_reduce
I0620 04:27:45.240571  3091 net.cpp:157] Top shape: 5 256 60 60 (4608000)
I0620 04:27:45.240576  3091 net.cpp:165] Memory required for data: 8063131000
I0620 04:27:45.240584  3091 layer_factory.hpp:77] Creating layer conv4_8_1x1_reduce/bn
I0620 04:27:45.240598  3091 net.cpp:106] Creating Layer conv4_8_1x1_reduce/bn
I0620 04:27:45.240604  3091 net.cpp:454] conv4_8_1x1_reduce/bn <- conv4_8_1x1_reduce
I0620 04:27:45.240617  3091 net.cpp:397] conv4_8_1x1_reduce/bn -> conv4_8_1x1_reduce (in-place)
I0620 04:27:45.240800  3091 net.cpp:150] Setting up conv4_8_1x1_reduce/bn
I0620 04:27:45.240805  3091 net.cpp:157] Top shape: 5 256 60 60 (4608000)
I0620 04:27:45.240808  3091 net.cpp:165] Memory required for data: 8081563000
I0620 04:27:45.240813  3091 layer_factory.hpp:77] Creating layer conv4_8_1x1_reduce/relu
I0620 04:27:45.240819  3091 net.cpp:106] Creating Layer conv4_8_1x1_reduce/relu
I0620 04:27:45.240823  3091 net.cpp:454] conv4_8_1x1_reduce/relu <- conv4_8_1x1_reduce
I0620 04:27:45.240825  3091 net.cpp:397] conv4_8_1x1_reduce/relu -> conv4_8_1x1_reduce (in-place)
I0620 04:27:45.240830  3091 net.cpp:150] Setting up conv4_8_1x1_reduce/relu
I0620 04:27:45.240833  3091 net.cpp:157] Top shape: 5 256 60 60 (4608000)
I0620 04:27:45.240836  3091 net.cpp:165] Memory required for data: 8099995000
I0620 04:27:45.240839  3091 layer_factory.hpp:77] Creating layer conv4_8_3x3
I0620 04:27:45.240845  3091 net.cpp:106] Creating Layer conv4_8_3x3
I0620 04:27:45.240849  3091 net.cpp:454] conv4_8_3x3 <- conv4_8_1x1_reduce
I0620 04:27:45.240854  3091 net.cpp:411] conv4_8_3x3 -> conv4_8_3x3
I0620 04:27:45.254017  3091 net.cpp:150] Setting up conv4_8_3x3
I0620 04:27:45.254039  3091 net.cpp:157] Top shape: 5 256 60 60 (4608000)
I0620 04:27:45.254042  3091 net.cpp:165] Memory required for data: 8118427000
I0620 04:27:45.254050  3091 layer_factory.hpp:77] Creating layer conv4_8_3x3/bn
I0620 04:27:45.254077  3091 net.cpp:106] Creating Layer conv4_8_3x3/bn
I0620 04:27:45.254081  3091 net.cpp:454] conv4_8_3x3/bn <- conv4_8_3x3
I0620 04:27:45.254086  3091 net.cpp:397] conv4_8_3x3/bn -> conv4_8_3x3 (in-place)
I0620 04:27:45.254242  3091 net.cpp:150] Setting up conv4_8_3x3/bn
I0620 04:27:45.254247  3091 net.cpp:157] Top shape: 5 256 60 60 (4608000)
I0620 04:27:45.254251  3091 net.cpp:165] Memory required for data: 8136859000
I0620 04:27:45.254256  3091 layer_factory.hpp:77] Creating layer conv4_8_3x3/relu
I0620 04:27:45.254261  3091 net.cpp:106] Creating Layer conv4_8_3x3/relu
I0620 04:27:45.254263  3091 net.cpp:454] conv4_8_3x3/relu <- conv4_8_3x3
I0620 04:27:45.254268  3091 net.cpp:397] conv4_8_3x3/relu -> conv4_8_3x3 (in-place)
I0620 04:27:45.254272  3091 net.cpp:150] Setting up conv4_8_3x3/relu
I0620 04:27:45.254276  3091 net.cpp:157] Top shape: 5 256 60 60 (4608000)
I0620 04:27:45.254278  3091 net.cpp:165] Memory required for data: 8155291000
I0620 04:27:45.254281  3091 layer_factory.hpp:77] Creating layer conv4_8_1x1_increase
I0620 04:27:45.254292  3091 net.cpp:106] Creating Layer conv4_8_1x1_increase
I0620 04:27:45.254294  3091 net.cpp:454] conv4_8_1x1_increase <- conv4_8_3x3
I0620 04:27:45.254298  3091 net.cpp:411] conv4_8_1x1_increase -> conv4_8_1x1_increase
I0620 04:27:45.260629  3091 net.cpp:150] Setting up conv4_8_1x1_increase
I0620 04:27:45.260644  3091 net.cpp:157] Top shape: 5 1024 60 60 (18432000)
I0620 04:27:45.260646  3091 net.cpp:165] Memory required for data: 8229019000
I0620 04:27:45.260651  3091 layer_factory.hpp:77] Creating layer conv4_8_1x1_increase/bn
I0620 04:27:45.260658  3091 net.cpp:106] Creating Layer conv4_8_1x1_increase/bn
I0620 04:27:45.260661  3091 net.cpp:454] conv4_8_1x1_increase/bn <- conv4_8_1x1_increase
I0620 04:27:45.260665  3091 net.cpp:397] conv4_8_1x1_increase/bn -> conv4_8_1x1_increase (in-place)
I0620 04:27:45.260823  3091 net.cpp:150] Setting up conv4_8_1x1_increase/bn
I0620 04:27:45.260828  3091 net.cpp:157] Top shape: 5 1024 60 60 (18432000)
I0620 04:27:45.260830  3091 net.cpp:165] Memory required for data: 8302747000
I0620 04:27:45.260835  3091 layer_factory.hpp:77] Creating layer conv4_8
I0620 04:27:45.260840  3091 net.cpp:106] Creating Layer conv4_8
I0620 04:27:45.260843  3091 net.cpp:454] conv4_8 <- conv4_7_conv4_7/relu_0_split_1
I0620 04:27:45.260846  3091 net.cpp:454] conv4_8 <- conv4_8_1x1_increase
I0620 04:27:45.260849  3091 net.cpp:411] conv4_8 -> conv4_8
I0620 04:27:45.260874  3091 net.cpp:150] Setting up conv4_8
I0620 04:27:45.260879  3091 net.cpp:157] Top shape: 5 1024 60 60 (18432000)
I0620 04:27:45.260882  3091 net.cpp:165] Memory required for data: 8376475000
I0620 04:27:45.260886  3091 layer_factory.hpp:77] Creating layer conv4_8/relu
I0620 04:27:45.260892  3091 net.cpp:106] Creating Layer conv4_8/relu
I0620 04:27:45.260896  3091 net.cpp:454] conv4_8/relu <- conv4_8
I0620 04:27:45.260901  3091 net.cpp:397] conv4_8/relu -> conv4_8 (in-place)
I0620 04:27:45.260906  3091 net.cpp:150] Setting up conv4_8/relu
I0620 04:27:45.260910  3091 net.cpp:157] Top shape: 5 1024 60 60 (18432000)
I0620 04:27:45.260915  3091 net.cpp:165] Memory required for data: 8450203000
I0620 04:27:45.260917  3091 layer_factory.hpp:77] Creating layer conv4_8_conv4_8/relu_0_split
I0620 04:27:45.260921  3091 net.cpp:106] Creating Layer conv4_8_conv4_8/relu_0_split
I0620 04:27:45.260923  3091 net.cpp:454] conv4_8_conv4_8/relu_0_split <- conv4_8
I0620 04:27:45.260928  3091 net.cpp:411] conv4_8_conv4_8/relu_0_split -> conv4_8_conv4_8/relu_0_split_0
I0620 04:27:45.260931  3091 net.cpp:411] conv4_8_conv4_8/relu_0_split -> conv4_8_conv4_8/relu_0_split_1
I0620 04:27:45.260956  3091 net.cpp:150] Setting up conv4_8_conv4_8/relu_0_split
I0620 04:27:45.260959  3091 net.cpp:157] Top shape: 5 1024 60 60 (18432000)
I0620 04:27:45.260962  3091 net.cpp:157] Top shape: 5 1024 60 60 (18432000)
I0620 04:27:45.260965  3091 net.cpp:165] Memory required for data: 8597659000
I0620 04:27:45.260968  3091 layer_factory.hpp:77] Creating layer conv4_9_1x1_reduce
I0620 04:27:45.260998  3091 net.cpp:106] Creating Layer conv4_9_1x1_reduce
I0620 04:27:45.261001  3091 net.cpp:454] conv4_9_1x1_reduce <- conv4_8_conv4_8/relu_0_split_0
I0620 04:27:45.261006  3091 net.cpp:411] conv4_9_1x1_reduce -> conv4_9_1x1_reduce
I0620 04:27:45.266680  3091 net.cpp:150] Setting up conv4_9_1x1_reduce
I0620 04:27:45.266692  3091 net.cpp:157] Top shape: 5 256 60 60 (4608000)
I0620 04:27:45.266696  3091 net.cpp:165] Memory required for data: 8616091000
I0620 04:27:45.266703  3091 layer_factory.hpp:77] Creating layer conv4_9_1x1_reduce/bn
I0620 04:27:45.266710  3091 net.cpp:106] Creating Layer conv4_9_1x1_reduce/bn
I0620 04:27:45.266716  3091 net.cpp:454] conv4_9_1x1_reduce/bn <- conv4_9_1x1_reduce
I0620 04:27:45.266723  3091 net.cpp:397] conv4_9_1x1_reduce/bn -> conv4_9_1x1_reduce (in-place)
I0620 04:27:45.266875  3091 net.cpp:150] Setting up conv4_9_1x1_reduce/bn
I0620 04:27:45.266880  3091 net.cpp:157] Top shape: 5 256 60 60 (4608000)
I0620 04:27:45.266883  3091 net.cpp:165] Memory required for data: 8634523000
I0620 04:27:45.266917  3091 layer_factory.hpp:77] Creating layer conv4_9_1x1_reduce/relu
I0620 04:27:45.266923  3091 net.cpp:106] Creating Layer conv4_9_1x1_reduce/relu
I0620 04:27:45.266927  3091 net.cpp:454] conv4_9_1x1_reduce/relu <- conv4_9_1x1_reduce
I0620 04:27:45.266932  3091 net.cpp:397] conv4_9_1x1_reduce/relu -> conv4_9_1x1_reduce (in-place)
I0620 04:27:45.266937  3091 net.cpp:150] Setting up conv4_9_1x1_reduce/relu
I0620 04:27:45.266942  3091 net.cpp:157] Top shape: 5 256 60 60 (4608000)
I0620 04:27:45.266944  3091 net.cpp:165] Memory required for data: 8652955000
I0620 04:27:45.266947  3091 layer_factory.hpp:77] Creating layer conv4_9_3x3
I0620 04:27:45.266955  3091 net.cpp:106] Creating Layer conv4_9_3x3
I0620 04:27:45.266958  3091 net.cpp:454] conv4_9_3x3 <- conv4_9_1x1_reduce
I0620 04:27:45.266964  3091 net.cpp:411] conv4_9_3x3 -> conv4_9_3x3
I0620 04:27:45.282884  3091 net.cpp:150] Setting up conv4_9_3x3
I0620 04:27:45.282912  3091 net.cpp:157] Top shape: 5 256 60 60 (4608000)
I0620 04:27:45.282917  3091 net.cpp:165] Memory required for data: 8671387000
I0620 04:27:45.282925  3091 layer_factory.hpp:77] Creating layer conv4_9_3x3/bn
I0620 04:27:45.282939  3091 net.cpp:106] Creating Layer conv4_9_3x3/bn
I0620 04:27:45.282946  3091 net.cpp:454] conv4_9_3x3/bn <- conv4_9_3x3
I0620 04:27:45.282954  3091 net.cpp:397] conv4_9_3x3/bn -> conv4_9_3x3 (in-place)
I0620 04:27:45.283182  3091 net.cpp:150] Setting up conv4_9_3x3/bn
I0620 04:27:45.283190  3091 net.cpp:157] Top shape: 5 256 60 60 (4608000)
I0620 04:27:45.283193  3091 net.cpp:165] Memory required for data: 8689819000
I0620 04:27:45.283201  3091 layer_factory.hpp:77] Creating layer conv4_9_3x3/relu
I0620 04:27:45.283210  3091 net.cpp:106] Creating Layer conv4_9_3x3/relu
I0620 04:27:45.283213  3091 net.cpp:454] conv4_9_3x3/relu <- conv4_9_3x3
I0620 04:27:45.283218  3091 net.cpp:397] conv4_9_3x3/relu -> conv4_9_3x3 (in-place)
I0620 04:27:45.283224  3091 net.cpp:150] Setting up conv4_9_3x3/relu
I0620 04:27:45.283229  3091 net.cpp:157] Top shape: 5 256 60 60 (4608000)
I0620 04:27:45.283233  3091 net.cpp:165] Memory required for data: 8708251000
I0620 04:27:45.283237  3091 layer_factory.hpp:77] Creating layer conv4_9_1x1_increase
I0620 04:27:45.283246  3091 net.cpp:106] Creating Layer conv4_9_1x1_increase
I0620 04:27:45.283252  3091 net.cpp:454] conv4_9_1x1_increase <- conv4_9_3x3
I0620 04:27:45.283260  3091 net.cpp:411] conv4_9_1x1_increase -> conv4_9_1x1_increase
I0620 04:27:45.291710  3091 net.cpp:150] Setting up conv4_9_1x1_increase
I0620 04:27:45.291726  3091 net.cpp:157] Top shape: 5 1024 60 60 (18432000)
I0620 04:27:45.291730  3091 net.cpp:165] Memory required for data: 8781979000
I0620 04:27:45.291738  3091 layer_factory.hpp:77] Creating layer conv4_9_1x1_increase/bn
I0620 04:27:45.291748  3091 net.cpp:106] Creating Layer conv4_9_1x1_increase/bn
I0620 04:27:45.291755  3091 net.cpp:454] conv4_9_1x1_increase/bn <- conv4_9_1x1_increase
I0620 04:27:45.291764  3091 net.cpp:397] conv4_9_1x1_increase/bn -> conv4_9_1x1_increase (in-place)
I0620 04:27:45.292009  3091 net.cpp:150] Setting up conv4_9_1x1_increase/bn
I0620 04:27:45.292018  3091 net.cpp:157] Top shape: 5 1024 60 60 (18432000)
I0620 04:27:45.292021  3091 net.cpp:165] Memory required for data: 8855707000
I0620 04:27:45.292028  3091 layer_factory.hpp:77] Creating layer conv4_9
I0620 04:27:45.292034  3091 net.cpp:106] Creating Layer conv4_9
I0620 04:27:45.292038  3091 net.cpp:454] conv4_9 <- conv4_8_conv4_8/relu_0_split_1
I0620 04:27:45.292043  3091 net.cpp:454] conv4_9 <- conv4_9_1x1_increase
I0620 04:27:45.292050  3091 net.cpp:411] conv4_9 -> conv4_9
I0620 04:27:45.292081  3091 net.cpp:150] Setting up conv4_9
I0620 04:27:45.292088  3091 net.cpp:157] Top shape: 5 1024 60 60 (18432000)
I0620 04:27:45.292090  3091 net.cpp:165] Memory required for data: 8929435000
I0620 04:27:45.292093  3091 layer_factory.hpp:77] Creating layer conv4_9/relu
I0620 04:27:45.292100  3091 net.cpp:106] Creating Layer conv4_9/relu
I0620 04:27:45.292104  3091 net.cpp:454] conv4_9/relu <- conv4_9
I0620 04:27:45.292107  3091 net.cpp:397] conv4_9/relu -> conv4_9 (in-place)
I0620 04:27:45.292114  3091 net.cpp:150] Setting up conv4_9/relu
I0620 04:27:45.292119  3091 net.cpp:157] Top shape: 5 1024 60 60 (18432000)
I0620 04:27:45.292122  3091 net.cpp:165] Memory required for data: 9003163000
I0620 04:27:45.292126  3091 layer_factory.hpp:77] Creating layer conv4_9_conv4_9/relu_0_split
I0620 04:27:45.292134  3091 net.cpp:106] Creating Layer conv4_9_conv4_9/relu_0_split
I0620 04:27:45.292137  3091 net.cpp:454] conv4_9_conv4_9/relu_0_split <- conv4_9
I0620 04:27:45.292142  3091 net.cpp:411] conv4_9_conv4_9/relu_0_split -> conv4_9_conv4_9/relu_0_split_0
I0620 04:27:45.292148  3091 net.cpp:411] conv4_9_conv4_9/relu_0_split -> conv4_9_conv4_9/relu_0_split_1
I0620 04:27:45.292181  3091 net.cpp:150] Setting up conv4_9_conv4_9/relu_0_split
I0620 04:27:45.292186  3091 net.cpp:157] Top shape: 5 1024 60 60 (18432000)
I0620 04:27:45.292191  3091 net.cpp:157] Top shape: 5 1024 60 60 (18432000)
I0620 04:27:45.292196  3091 net.cpp:165] Memory required for data: 9150619000
I0620 04:27:45.292201  3091 layer_factory.hpp:77] Creating layer conv4_10_1x1_reduce
I0620 04:27:45.292217  3091 net.cpp:106] Creating Layer conv4_10_1x1_reduce
I0620 04:27:45.292222  3091 net.cpp:454] conv4_10_1x1_reduce <- conv4_9_conv4_9/relu_0_split_0
I0620 04:27:45.292229  3091 net.cpp:411] conv4_10_1x1_reduce -> conv4_10_1x1_reduce
I0620 04:27:45.299670  3091 net.cpp:150] Setting up conv4_10_1x1_reduce
I0620 04:27:45.299679  3091 net.cpp:157] Top shape: 5 256 60 60 (4608000)
I0620 04:27:45.299682  3091 net.cpp:165] Memory required for data: 9169051000
I0620 04:27:45.299686  3091 layer_factory.hpp:77] Creating layer conv4_10_1x1_reduce/bn
I0620 04:27:45.299693  3091 net.cpp:106] Creating Layer conv4_10_1x1_reduce/bn
I0620 04:27:45.299696  3091 net.cpp:454] conv4_10_1x1_reduce/bn <- conv4_10_1x1_reduce
I0620 04:27:45.299701  3091 net.cpp:397] conv4_10_1x1_reduce/bn -> conv4_10_1x1_reduce (in-place)
I0620 04:27:45.299901  3091 net.cpp:150] Setting up conv4_10_1x1_reduce/bn
I0620 04:27:45.299908  3091 net.cpp:157] Top shape: 5 256 60 60 (4608000)
I0620 04:27:45.299911  3091 net.cpp:165] Memory required for data: 9187483000
I0620 04:27:45.299919  3091 layer_factory.hpp:77] Creating layer conv4_10_1x1_reduce/relu
I0620 04:27:45.299924  3091 net.cpp:106] Creating Layer conv4_10_1x1_reduce/relu
I0620 04:27:45.299928  3091 net.cpp:454] conv4_10_1x1_reduce/relu <- conv4_10_1x1_reduce
I0620 04:27:45.299933  3091 net.cpp:397] conv4_10_1x1_reduce/relu -> conv4_10_1x1_reduce (in-place)
I0620 04:27:45.299939  3091 net.cpp:150] Setting up conv4_10_1x1_reduce/relu
I0620 04:27:45.299944  3091 net.cpp:157] Top shape: 5 256 60 60 (4608000)
I0620 04:27:45.299948  3091 net.cpp:165] Memory required for data: 9205915000
I0620 04:27:45.299952  3091 layer_factory.hpp:77] Creating layer conv4_10_3x3
I0620 04:27:45.299963  3091 net.cpp:106] Creating Layer conv4_10_3x3
I0620 04:27:45.299968  3091 net.cpp:454] conv4_10_3x3 <- conv4_10_1x1_reduce
I0620 04:27:45.299975  3091 net.cpp:411] conv4_10_3x3 -> conv4_10_3x3
I0620 04:27:45.316575  3091 net.cpp:150] Setting up conv4_10_3x3
I0620 04:27:45.316649  3091 net.cpp:157] Top shape: 5 256 60 60 (4608000)
I0620 04:27:45.316654  3091 net.cpp:165] Memory required for data: 9224347000
I0620 04:27:45.316669  3091 layer_factory.hpp:77] Creating layer conv4_10_3x3/bn
I0620 04:27:45.316694  3091 net.cpp:106] Creating Layer conv4_10_3x3/bn
I0620 04:27:45.316704  3091 net.cpp:454] conv4_10_3x3/bn <- conv4_10_3x3
I0620 04:27:45.316715  3091 net.cpp:397] conv4_10_3x3/bn -> conv4_10_3x3 (in-place)
I0620 04:27:45.316958  3091 net.cpp:150] Setting up conv4_10_3x3/bn
I0620 04:27:45.316967  3091 net.cpp:157] Top shape: 5 256 60 60 (4608000)
I0620 04:27:45.316970  3091 net.cpp:165] Memory required for data: 9242779000
I0620 04:27:45.316979  3091 layer_factory.hpp:77] Creating layer conv4_10_3x3/relu
I0620 04:27:45.316990  3091 net.cpp:106] Creating Layer conv4_10_3x3/relu
I0620 04:27:45.316994  3091 net.cpp:454] conv4_10_3x3/relu <- conv4_10_3x3
I0620 04:27:45.317000  3091 net.cpp:397] conv4_10_3x3/relu -> conv4_10_3x3 (in-place)
I0620 04:27:45.317008  3091 net.cpp:150] Setting up conv4_10_3x3/relu
I0620 04:27:45.317013  3091 net.cpp:157] Top shape: 5 256 60 60 (4608000)
I0620 04:27:45.317016  3091 net.cpp:165] Memory required for data: 9261211000
I0620 04:27:45.317020  3091 layer_factory.hpp:77] Creating layer conv4_10_1x1_increase
I0620 04:27:45.317034  3091 net.cpp:106] Creating Layer conv4_10_1x1_increase
I0620 04:27:45.317037  3091 net.cpp:454] conv4_10_1x1_increase <- conv4_10_3x3
I0620 04:27:45.317044  3091 net.cpp:411] conv4_10_1x1_increase -> conv4_10_1x1_increase
I0620 04:27:45.327013  3091 net.cpp:150] Setting up conv4_10_1x1_increase
I0620 04:27:45.327071  3091 net.cpp:157] Top shape: 5 1024 60 60 (18432000)
I0620 04:27:45.327075  3091 net.cpp:165] Memory required for data: 9334939000
I0620 04:27:45.327090  3091 layer_factory.hpp:77] Creating layer conv4_10_1x1_increase/bn
I0620 04:27:45.327106  3091 net.cpp:106] Creating Layer conv4_10_1x1_increase/bn
I0620 04:27:45.327114  3091 net.cpp:454] conv4_10_1x1_increase/bn <- conv4_10_1x1_increase
I0620 04:27:45.327121  3091 net.cpp:397] conv4_10_1x1_increase/bn -> conv4_10_1x1_increase (in-place)
I0620 04:27:45.327332  3091 net.cpp:150] Setting up conv4_10_1x1_increase/bn
I0620 04:27:45.327338  3091 net.cpp:157] Top shape: 5 1024 60 60 (18432000)
I0620 04:27:45.327340  3091 net.cpp:165] Memory required for data: 9408667000
I0620 04:27:45.327347  3091 layer_factory.hpp:77] Creating layer conv4_10
I0620 04:27:45.327354  3091 net.cpp:106] Creating Layer conv4_10
I0620 04:27:45.327358  3091 net.cpp:454] conv4_10 <- conv4_9_conv4_9/relu_0_split_1
I0620 04:27:45.327361  3091 net.cpp:454] conv4_10 <- conv4_10_1x1_increase
I0620 04:27:45.327365  3091 net.cpp:411] conv4_10 -> conv4_10
I0620 04:27:45.327385  3091 net.cpp:150] Setting up conv4_10
I0620 04:27:45.327389  3091 net.cpp:157] Top shape: 5 1024 60 60 (18432000)
I0620 04:27:45.327392  3091 net.cpp:165] Memory required for data: 9482395000
I0620 04:27:45.327395  3091 layer_factory.hpp:77] Creating layer conv4_10/relu
I0620 04:27:45.327400  3091 net.cpp:106] Creating Layer conv4_10/relu
I0620 04:27:45.327404  3091 net.cpp:454] conv4_10/relu <- conv4_10
I0620 04:27:45.327406  3091 net.cpp:397] conv4_10/relu -> conv4_10 (in-place)
I0620 04:27:45.327411  3091 net.cpp:150] Setting up conv4_10/relu
I0620 04:27:45.327414  3091 net.cpp:157] Top shape: 5 1024 60 60 (18432000)
I0620 04:27:45.327417  3091 net.cpp:165] Memory required for data: 9556123000
I0620 04:27:45.327420  3091 layer_factory.hpp:77] Creating layer conv4_10_conv4_10/relu_0_split
I0620 04:27:45.327425  3091 net.cpp:106] Creating Layer conv4_10_conv4_10/relu_0_split
I0620 04:27:45.327427  3091 net.cpp:454] conv4_10_conv4_10/relu_0_split <- conv4_10
I0620 04:27:45.327430  3091 net.cpp:411] conv4_10_conv4_10/relu_0_split -> conv4_10_conv4_10/relu_0_split_0
I0620 04:27:45.327435  3091 net.cpp:411] conv4_10_conv4_10/relu_0_split -> conv4_10_conv4_10/relu_0_split_1
I0620 04:27:45.327458  3091 net.cpp:150] Setting up conv4_10_conv4_10/relu_0_split
I0620 04:27:45.327482  3091 net.cpp:157] Top shape: 5 1024 60 60 (18432000)
I0620 04:27:45.327486  3091 net.cpp:157] Top shape: 5 1024 60 60 (18432000)
I0620 04:27:45.327488  3091 net.cpp:165] Memory required for data: 9703579000
I0620 04:27:45.327491  3091 layer_factory.hpp:77] Creating layer conv4_11_1x1_reduce
I0620 04:27:45.327502  3091 net.cpp:106] Creating Layer conv4_11_1x1_reduce
I0620 04:27:45.327504  3091 net.cpp:454] conv4_11_1x1_reduce <- conv4_10_conv4_10/relu_0_split_0
I0620 04:27:45.327510  3091 net.cpp:411] conv4_11_1x1_reduce -> conv4_11_1x1_reduce
I0620 04:27:45.333173  3091 net.cpp:150] Setting up conv4_11_1x1_reduce
I0620 04:27:45.333180  3091 net.cpp:157] Top shape: 5 256 60 60 (4608000)
I0620 04:27:45.333184  3091 net.cpp:165] Memory required for data: 9722011000
I0620 04:27:45.333186  3091 layer_factory.hpp:77] Creating layer conv4_11_1x1_reduce/bn
I0620 04:27:45.333191  3091 net.cpp:106] Creating Layer conv4_11_1x1_reduce/bn
I0620 04:27:45.333194  3091 net.cpp:454] conv4_11_1x1_reduce/bn <- conv4_11_1x1_reduce
I0620 04:27:45.333199  3091 net.cpp:397] conv4_11_1x1_reduce/bn -> conv4_11_1x1_reduce (in-place)
I0620 04:27:45.333338  3091 net.cpp:150] Setting up conv4_11_1x1_reduce/bn
I0620 04:27:45.333343  3091 net.cpp:157] Top shape: 5 256 60 60 (4608000)
I0620 04:27:45.333345  3091 net.cpp:165] Memory required for data: 9740443000
I0620 04:27:45.333350  3091 layer_factory.hpp:77] Creating layer conv4_11_1x1_reduce/relu
I0620 04:27:45.333354  3091 net.cpp:106] Creating Layer conv4_11_1x1_reduce/relu
I0620 04:27:45.333358  3091 net.cpp:454] conv4_11_1x1_reduce/relu <- conv4_11_1x1_reduce
I0620 04:27:45.333360  3091 net.cpp:397] conv4_11_1x1_reduce/relu -> conv4_11_1x1_reduce (in-place)
I0620 04:27:45.333364  3091 net.cpp:150] Setting up conv4_11_1x1_reduce/relu
I0620 04:27:45.333367  3091 net.cpp:157] Top shape: 5 256 60 60 (4608000)
I0620 04:27:45.333369  3091 net.cpp:165] Memory required for data: 9758875000
I0620 04:27:45.333372  3091 layer_factory.hpp:77] Creating layer conv4_11_3x3
I0620 04:27:45.333379  3091 net.cpp:106] Creating Layer conv4_11_3x3
I0620 04:27:45.333382  3091 net.cpp:454] conv4_11_3x3 <- conv4_11_1x1_reduce
I0620 04:27:45.333386  3091 net.cpp:411] conv4_11_3x3 -> conv4_11_3x3
I0620 04:27:45.346567  3091 net.cpp:150] Setting up conv4_11_3x3
I0620 04:27:45.346583  3091 net.cpp:157] Top shape: 5 256 60 60 (4608000)
I0620 04:27:45.346586  3091 net.cpp:165] Memory required for data: 9777307000
I0620 04:27:45.346590  3091 layer_factory.hpp:77] Creating layer conv4_11_3x3/bn
I0620 04:27:45.346601  3091 net.cpp:106] Creating Layer conv4_11_3x3/bn
I0620 04:27:45.346606  3091 net.cpp:454] conv4_11_3x3/bn <- conv4_11_3x3
I0620 04:27:45.346611  3091 net.cpp:397] conv4_11_3x3/bn -> conv4_11_3x3 (in-place)
I0620 04:27:45.346768  3091 net.cpp:150] Setting up conv4_11_3x3/bn
I0620 04:27:45.346773  3091 net.cpp:157] Top shape: 5 256 60 60 (4608000)
I0620 04:27:45.346776  3091 net.cpp:165] Memory required for data: 9795739000
I0620 04:27:45.346781  3091 layer_factory.hpp:77] Creating layer conv4_11_3x3/relu
I0620 04:27:45.346786  3091 net.cpp:106] Creating Layer conv4_11_3x3/relu
…
I0620 04:27:45.671217  3091 net.cpp:411] conv4_21 -> conv4_21
I0620 04:27:45.671257  3091 net.cpp:150] Setting up conv4_21
I0620 04:27:45.671263  3091 net.cpp:157] Top shape: 5 1024 60 60 (18432000)
I0620 04:27:45.671267  3091 net.cpp:165] Memory required for data: 15564955000
I0620 04:27:45.671272  3091 layer_factory.hpp:77] Creating layer conv4_21/relu
I0620 04:27:45.671285  3091 net.cpp:106] Creating Layer conv4_21/relu
I0620 04:27:45.671289  3091 net.cpp:454] conv4_21/relu <- conv4_21
I0620 04:27:45.671295  3091 net.cpp:397] conv4_21/relu -> conv4_21 (in-place)
I0620 04:27:45.671303  3091 net.cpp:150] Setting up conv4_21/relu
I0620 04:27:45.671308  3091 net.cpp:157] Top shape: 5 1024 60 60 (18432000)
I0620 04:27:45.671311  3091 net.cpp:165] Memory required for data: 15638683000
I0620 04:27:45.671315  3091 layer_factory.hpp:77] Creating layer conv4_21_conv4_21/relu_0_split
I0620 04:27:45.671325  3091 net.cpp:106] Creating Layer conv4_21_conv4_21/relu_0_split
I0620 04:27:45.671382  3091 net.cpp:454] conv4_21_conv4_21/relu_0_split <- conv4_21
I0620 04:27:45.671389  3091 net.cpp:411] conv4_21_conv4_21/relu_0_split -> conv4_21_conv4_21/relu_0_split_0
I0620 04:27:45.671396  3091 net.cpp:411] conv4_21_conv4_21/relu_0_split -> conv4_21_conv4_21/relu_0_split_1
I0620 04:27:45.671433  3091 net.cpp:150] Setting up conv4_21_conv4_21/relu_0_split
I0620 04:27:45.671439  3091 net.cpp:157] Top shape: 5 1024 60 60 (18432000)
I0620 04:27:45.671444  3091 net.cpp:157] Top shape: 5 1024 60 60 (18432000)
I0620 04:27:45.671448  3091 net.cpp:165] Memory required for data: 15786139000
I0620 04:27:45.671452  3091 layer_factory.hpp:77] Creating layer conv4_22_1x1_reduce
I0620 04:27:45.671468  3091 net.cpp:106] Creating Layer conv4_22_1x1_reduce
I0620 04:27:45.671473  3091 net.cpp:454] conv4_22_1x1_reduce <- conv4_21_conv4_21/relu_0_split_0
I0620 04:27:45.671479  3091 net.cpp:411] conv4_22_1x1_reduce -> conv4_22_1x1_reduce
I0620 04:27:45.677424  3091 net.cpp:150] Setting up conv4_22_1x1_reduce
I0620 04:27:45.677438  3091 net.cpp:157] Top shape: 5 256 60 60 (4608000)
I0620 04:27:45.677440  3091 net.cpp:165] Memory required for data: 15804571000
I0620 04:27:45.677444  3091 layer_factory.hpp:77] Creating layer conv4_22_1x1_reduce/bn
I0620 04:27:45.677450  3091 net.cpp:106] Creating Layer conv4_22_1x1_reduce/bn
I0620 04:27:45.677453  3091 net.cpp:454] conv4_22_1x1_reduce/bn <- conv4_22_1x1_reduce
I0620 04:27:45.677456  3091 net.cpp:397] conv4_22_1x1_reduce/bn -> conv4_22_1x1_reduce (in-place)
I0620 04:27:45.677613  3091 net.cpp:150] Setting up conv4_22_1x1_reduce/bn
I0620 04:27:45.677618  3091 net.cpp:157] Top shape: 5 256 60 60 (4608000)
I0620 04:27:45.677620  3091 net.cpp:165] Memory required for data: 15823003000
I0620 04:27:45.677624  3091 layer_factory.hpp:77] Creating layer conv4_22_1x1_reduce/relu
I0620 04:27:45.677628  3091 net.cpp:106] Creating Layer conv4_22_1x1_reduce/relu
I0620 04:27:45.677630  3091 net.cpp:454] conv4_22_1x1_reduce/relu <- conv4_22_1x1_reduce
I0620 04:27:45.677634  3091 net.cpp:397] conv4_22_1x1_reduce/relu -> conv4_22_1x1_reduce (in-place)
I0620 04:27:45.677636  3091 net.cpp:150] Setting up conv4_22_1x1_reduce/relu
I0620 04:27:45.677639  3091 net.cpp:157] Top shape: 5 256 60 60 (4608000)
I0620 04:27:45.677640  3091 net.cpp:165] Memory required for data: 15841435000
I0620 04:27:45.677642  3091 layer_factory.hpp:77] Creating layer conv4_22_3x3
I0620 04:27:45.677649  3091 net.cpp:106] Creating Layer conv4_22_3x3
I0620 04:27:45.677651  3091 net.cpp:454] conv4_22_3x3 <- conv4_22_1x1_reduce
I0620 04:27:45.677656  3091 net.cpp:411] conv4_22_3x3 -> conv4_22_3x3
I0620 04:27:45.690841  3091 net.cpp:150] Setting up conv4_22_3x3
I0620 04:27:45.690855  3091 net.cpp:157] Top shape: 5 256 60 60 (4608000)
I0620 04:27:45.690857  3091 net.cpp:165] Memory required for data: 15859867000
I0620 04:27:45.690862  3091 layer_factory.hpp:77] Creating layer conv4_22_3x3/bn
I0620 04:27:45.690876  3091 net.cpp:106] Creating Layer conv4_22_3x3/bn
I0620 04:27:45.690878  3091 net.cpp:454] conv4_22_3x3/bn <- conv4_22_3x3
I0620 04:27:45.690882  3091 net.cpp:397] conv4_22_3x3/bn -> conv4_22_3x3 (in-place)
I0620 04:27:45.691045  3091 net.cpp:150] Setting up conv4_22_3x3/bn
I0620 04:27:45.691051  3091 net.cpp:157] Top shape: 5 256 60 60 (4608000)
I0620 04:27:45.691052  3091 net.cpp:165] Memory required for data: 15878299000
I0620 04:27:45.691059  3091 layer_factory.hpp:77] Creating layer conv4_22_3x3/relu
I0620 04:27:45.691067  3091 net.cpp:106] Creating Layer conv4_22_3x3/relu
I0620 04:27:45.691071  3091 net.cpp:454] conv4_22_3x3/relu <- conv4_22_3x3
I0620 04:27:45.691073  3091 net.cpp:397] conv4_22_3x3/relu -> conv4_22_3x3 (in-place)
I0620 04:27:45.691077  3091 net.cpp:150] Setting up conv4_22_3x3/relu
I0620 04:27:45.691081  3091 net.cpp:157] Top shape: 5 256 60 60 (4608000)
I0620 04:27:45.691083  3091 net.cpp:165] Memory required for data: 15896731000
I0620 04:27:45.691087  3091 layer_factory.hpp:77] Creating layer conv4_22_1x1_increase
I0620 04:27:45.691093  3091 net.cpp:106] Creating Layer conv4_22_1x1_increase
I0620 04:27:45.691113  3091 net.cpp:454] conv4_22_1x1_increase <- conv4_22_3x3
I0620 04:27:45.691118  3091 net.cpp:411] conv4_22_1x1_increase -> conv4_22_1x1_increase
I0620 04:27:45.697497  3091 net.cpp:150] Setting up conv4_22_1x1_increase
I0620 04:27:45.697515  3091 net.cpp:157] Top shape: 5 1024 60 60 (18432000)
I0620 04:27:45.697518  3091 net.cpp:165] Memory required for data: 15970459000
I0620 04:27:45.697525  3091 layer_factory.hpp:77] Creating layer conv4_22_1x1_increase/bn
I0620 04:27:45.697536  3091 net.cpp:106] Creating Layer conv4_22_1x1_increase/bn
I0620 04:27:45.697543  3091 net.cpp:454] conv4_22_1x1_increase/bn <- conv4_22_1x1_increase
I0620 04:27:45.697548  3091 net.cpp:397] conv4_22_1x1_increase/bn -> conv4_22_1x1_increase (in-place)
I0620 04:27:45.697722  3091 net.cpp:150] Setting up conv4_22_1x1_increase/bn
I0620 04:27:45.697727  3091 net.cpp:157] Top shape: 5 1024 60 60 (18432000)
I0620 04:27:45.697731  3091 net.cpp:165] Memory required for data: 16044187000
I0620 04:27:45.697736  3091 layer_factory.hpp:77] Creating layer conv4_22
I0620 04:27:45.697741  3091 net.cpp:106] Creating Layer conv4_22
I0620 04:27:45.697744  3091 net.cpp:454] conv4_22 <- conv4_21_conv4_21/relu_0_split_1
I0620 04:27:45.697748  3091 net.cpp:454] conv4_22 <- conv4_22_1x1_increase
I0620 04:27:45.697758  3091 net.cpp:411] conv4_22 -> conv4_22
I0620 04:27:45.697782  3091 net.cpp:150] Setting up conv4_22
I0620 04:27:45.697784  3091 net.cpp:157] Top shape: 5 1024 60 60 (18432000)
I0620 04:27:45.697788  3091 net.cpp:165] Memory required for data: 16117915000
I0620 04:27:45.697790  3091 layer_factory.hpp:77] Creating layer conv4_22/relu
I0620 04:27:45.697795  3091 net.cpp:106] Creating Layer conv4_22/relu
I0620 04:27:45.697798  3091 net.cpp:454] conv4_22/relu <- conv4_22
I0620 04:27:45.697803  3091 net.cpp:397] conv4_22/relu -> conv4_22 (in-place)
I0620 04:27:45.697808  3091 net.cpp:150] Setting up conv4_22/relu
I0620 04:27:45.697810  3091 net.cpp:157] Top shape: 5 1024 60 60 (18432000)
I0620 04:27:45.697813  3091 net.cpp:165] Memory required for data: 16191643000
I0620 04:27:45.697815  3091 layer_factory.hpp:77] Creating layer conv4_22_conv4_22/relu_0_split
I0620 04:27:45.697821  3091 net.cpp:106] Creating Layer conv4_22_conv4_22/relu_0_split
I0620 04:27:45.697824  3091 net.cpp:454] conv4_22_conv4_22/relu_0_split <- conv4_22
I0620 04:27:45.697829  3091 net.cpp:411] conv4_22_conv4_22/relu_0_split -> conv4_22_conv4_22/relu_0_split_0
I0620 04:27:45.697832  3091 net.cpp:411] conv4_22_conv4_22/relu_0_split -> conv4_22_conv4_22/relu_0_split_1
I0620 04:27:45.697859  3091 net.cpp:150] Setting up conv4_22_conv4_22/relu_0_split
I0620 04:27:45.697862  3091 net.cpp:157] Top shape: 5 1024 60 60 (18432000)
I0620 04:27:45.697865  3091 net.cpp:157] Top shape: 5 1024 60 60 (18432000)
I0620 04:27:45.697868  3091 net.cpp:165] Memory required for data: 16339099000
I0620 04:27:45.697870  3091 layer_factory.hpp:77] Creating layer conv4_23_1x1_reduce
I0620 04:27:45.697880  3091 net.cpp:106] Creating Layer conv4_23_1x1_reduce
I0620 04:27:45.697882  3091 net.cpp:454] conv4_23_1x1_reduce <- conv4_22_conv4_22/relu_0_split_0
I0620 04:27:45.697887  3091 net.cpp:411] conv4_23_1x1_reduce -> conv4_23_1x1_reduce
I0620 04:27:45.705343  3091 net.cpp:150] Setting up conv4_23_1x1_reduce
I0620 04:27:45.705418  3091 net.cpp:157] Top shape: 5 256 60 60 (4608000)
I0620 04:27:45.705425  3091 net.cpp:165] Memory required for data: 16357531000
I0620 04:27:45.705440  3091 layer_factory.hpp:77] Creating layer conv4_23_1x1_reduce/bn
I0620 04:27:45.705466  3091 net.cpp:106] Creating Layer conv4_23_1x1_reduce/bn
I0620 04:27:45.705476  3091 net.cpp:454] conv4_23_1x1_reduce/bn <- conv4_23_1x1_reduce
I0620 04:27:45.705488  3091 net.cpp:397] conv4_23_1x1_reduce/bn -> conv4_23_1x1_reduce (in-place)
I0620 04:27:45.705827  3091 net.cpp:150] Setting up conv4_23_1x1_reduce/bn
I0620 04:27:45.705837  3091 net.cpp:157] Top shape: 5 256 60 60 (4608000)
I0620 04:27:45.705842  3091 net.cpp:165] Memory required for data: 16375963000
I0620 04:27:45.705904  3091 layer_factory.hpp:77] Creating layer conv4_23_1x1_reduce/relu
I0620 04:27:45.705916  3091 net.cpp:106] Creating Layer conv4_23_1x1_reduce/relu
I0620 04:27:45.705921  3091 net.cpp:454] conv4_23_1x1_reduce/relu <- conv4_23_1x1_reduce
I0620 04:27:45.705926  3091 net.cpp:397] conv4_23_1x1_reduce/relu -> conv4_23_1x1_reduce (in-place)
I0620 04:27:45.705935  3091 net.cpp:150] Setting up conv4_23_1x1_reduce/relu
I0620 04:27:45.705940  3091 net.cpp:157] Top shape: 5 256 60 60 (4608000)
I0620 04:27:45.705945  3091 net.cpp:165] Memory required for data: 16394395000
I0620 04:27:45.705950  3091 layer_factory.hpp:77] Creating layer conv4_23_3x3
I0620 04:27:45.705966  3091 net.cpp:106] Creating Layer conv4_23_3x3
I0620 04:27:45.705971  3091 net.cpp:454] conv4_23_3x3 <- conv4_23_1x1_reduce
I0620 04:27:45.705978  3091 net.cpp:411] conv4_23_3x3 -> conv4_23_3x3
I0620 04:27:45.722153  3091 net.cpp:150] Setting up conv4_23_3x3
I0620 04:27:45.722178  3091 net.cpp:157] Top shape: 5 256 60 60 (4608000)
I0620 04:27:45.722182  3091 net.cpp:165] Memory required for data: 16412827000
I0620 04:27:45.722193  3091 layer_factory.hpp:77] Creating layer conv4_23_3x3/bn
I0620 04:27:45.722213  3091 net.cpp:106] Creating Layer conv4_23_3x3/bn
I0620 04:27:45.722221  3091 net.cpp:454] conv4_23_3x3/bn <- conv4_23_3x3
I0620 04:27:45.722228  3091 net.cpp:397] conv4_23_3x3/bn -> conv4_23_3x3 (in-place)
I0620 04:27:45.722404  3091 net.cpp:150] Setting up conv4_23_3x3/bn
I0620 04:27:45.722409  3091 net.cpp:157] Top shape: 5 256 60 60 (4608000)
I0620 04:27:45.722411  3091 net.cpp:165] Memory required for data: 16431259000
I0620 04:27:45.722416  3091 layer_factory.hpp:77] Creating layer conv4_23_3x3/relu
I0620 04:27:45.722422  3091 net.cpp:106] Creating Layer conv4_23_3x3/relu
I0620 04:27:45.722424  3091 net.cpp:454] conv4_23_3x3/relu <- conv4_23_3x3
I0620 04:27:45.722429  3091 net.cpp:397] conv4_23_3x3/relu -> conv4_23_3x3 (in-place)
I0620 04:27:45.722432  3091 net.cpp:150] Setting up conv4_23_3x3/relu
I0620 04:27:45.722436  3091 net.cpp:157] Top shape: 5 256 60 60 (4608000)
I0620 04:27:45.722439  3091 net.cpp:165] Memory required for data: 16449691000
I0620 04:27:45.722441  3091 layer_factory.hpp:77] Creating layer conv4_23_1x1_increase
I0620 04:27:45.722450  3091 net.cpp:106] Creating Layer conv4_23_1x1_increase
I0620 04:27:45.722451  3091 net.cpp:454] conv4_23_1x1_increase <- conv4_23_3x3
I0620 04:27:45.722456  3091 net.cpp:411] conv4_23_1x1_increase -> conv4_23_1x1_increase
I0620 04:27:45.728830  3091 net.cpp:150] Setting up conv4_23_1x1_increase
I0620 04:27:45.728842  3091 net.cpp:157] Top shape: 5 1024 60 60 (18432000)
I0620 04:27:45.728844  3091 net.cpp:165] Memory required for data: 16523419000
I0620 04:27:45.728848  3091 layer_factory.hpp:77] Creating layer conv4_23_1x1_increase/bn
I0620 04:27:45.728857  3091 net.cpp:106] Creating Layer conv4_23_1x1_increase/bn
I0620 04:27:45.728859  3091 net.cpp:454] conv4_23_1x1_increase/bn <- conv4_23_1x1_increase
I0620 04:27:45.728864  3091 net.cpp:397] conv4_23_1x1_increase/bn -> conv4_23_1x1_increase (in-place)
I0620 04:27:45.729030  3091 net.cpp:150] Setting up conv4_23_1x1_increase/bn
I0620 04:27:45.729035  3091 net.cpp:157] Top shape: 5 1024 60 60 (18432000)
I0620 04:27:45.729038  3091 net.cpp:165] Memory required for data: 16597147000
I0620 04:27:45.729043  3091 layer_factory.hpp:77] Creating layer conv4_23
I0620 04:27:45.729050  3091 net.cpp:106] Creating Layer conv4_23
I0620 04:27:45.729053  3091 net.cpp:454] conv4_23 <- conv4_22_conv4_22/relu_0_split_1
I0620 04:27:45.729058  3091 net.cpp:454] conv4_23 <- conv4_23_1x1_increase
I0620 04:27:45.729060  3091 net.cpp:411] conv4_23 -> conv4_23
I0620 04:27:45.729080  3091 net.cpp:150] Setting up conv4_23
I0620 04:27:45.729084  3091 net.cpp:157] Top shape: 5 1024 60 60 (18432000)
I0620 04:27:45.729086  3091 net.cpp:165] Memory required for data: 16670875000
I0620 04:27:45.729089  3091 layer_factory.hpp:77] Creating layer conv4_23/relu
I0620 04:27:45.729094  3091 net.cpp:106] Creating Layer conv4_23/relu
I0620 04:27:45.729097  3091 net.cpp:454] conv4_23/relu <- conv4_23
I0620 04:27:45.729115  3091 net.cpp:397] conv4_23/relu -> conv4_23 (in-place)
I0620 04:27:45.729120  3091 net.cpp:150] Setting up conv4_23/relu
I0620 04:27:45.729123  3091 net.cpp:157] Top shape: 5 1024 60 60 (18432000)
I0620 04:27:45.729126  3091 net.cpp:165] Memory required for data: 16744603000
I0620 04:27:45.729130  3091 layer_factory.hpp:77] Creating layer conv4_23_conv4_23/relu_0_split
I0620 04:27:45.729133  3091 net.cpp:106] Creating Layer conv4_23_conv4_23/relu_0_split
I0620 04:27:45.729136  3091 net.cpp:454] conv4_23_conv4_23/relu_0_split <- conv4_23
I0620 04:27:45.729140  3091 net.cpp:411] conv4_23_conv4_23/relu_0_split -> conv4_23_conv4_23/relu_0_split_0
I0620 04:27:45.729143  3091 net.cpp:411] conv4_23_conv4_23/relu_0_split -> conv4_23_conv4_23/relu_0_split_1
I0620 04:27:45.729171  3091 net.cpp:150] Setting up conv4_23_conv4_23/relu_0_split
I0620 04:27:45.729176  3091 net.cpp:157] Top shape: 5 1024 60 60 (18432000)
I0620 04:27:45.729178  3091 net.cpp:157] Top shape: 5 1024 60 60 (18432000)
I0620 04:27:45.729181  3091 net.cpp:165] Memory required for data: 16892059000
I0620 04:27:45.729183  3091 layer_factory.hpp:77] Creating layer conv5_1_1x1_reduce
I0620 04:27:45.729195  3091 net.cpp:106] Creating Layer conv5_1_1x1_reduce
I0620 04:27:45.729198  3091 net.cpp:454] conv5_1_1x1_reduce <- conv4_23_conv4_23/relu_0_split_0
I0620 04:27:45.729203  3091 net.cpp:411] conv5_1_1x1_reduce -> conv5_1_1x1_reduce
I0620 04:27:45.741086  3091 net.cpp:150] Setting up conv5_1_1x1_reduce
I0620 04:27:45.741106  3091 net.cpp:157] Top shape: 5 512 60 60 (9216000)
I0620 04:27:45.741109  3091 net.cpp:165] Memory required for data: 16928923000
I0620 04:27:45.741116  3091 layer_factory.hpp:77] Creating layer conv5_1_1x1_reduce/bn
I0620 04:27:45.741124  3091 net.cpp:106] Creating Layer conv5_1_1x1_reduce/bn
I0620 04:27:45.741129  3091 net.cpp:454] conv5_1_1x1_reduce/bn <- conv5_1_1x1_reduce
I0620 04:27:45.741135  3091 net.cpp:397] conv5_1_1x1_reduce/bn -> conv5_1_1x1_reduce (in-place)
I0620 04:27:45.741313  3091 net.cpp:150] Setting up conv5_1_1x1_reduce/bn
I0620 04:27:45.741318  3091 net.cpp:157] Top shape: 5 512 60 60 (9216000)
I0620 04:27:45.741322  3091 net.cpp:165] Memory required for data: 16965787000
I0620 04:27:45.741327  3091 layer_factory.hpp:77] Creating layer conv5_1_1x1_reduce/relu
I0620 04:27:45.741331  3091 net.cpp:106] Creating Layer conv5_1_1x1_reduce/relu
I0620 04:27:45.741334  3091 net.cpp:454] conv5_1_1x1_reduce/relu <- conv5_1_1x1_reduce
I0620 04:27:45.741338  3091 net.cpp:397] conv5_1_1x1_reduce/relu -> conv5_1_1x1_reduce (in-place)
I0620 04:27:45.741341  3091 net.cpp:150] Setting up conv5_1_1x1_reduce/relu
I0620 04:27:45.741345  3091 net.cpp:157] Top shape: 5 512 60 60 (9216000)
I0620 04:27:45.741348  3091 net.cpp:165] Memory required for data: 17002651000
I0620 04:27:45.741350  3091 layer_factory.hpp:77] Creating layer conv5_1_3x3
I0620 04:27:45.741358  3091 net.cpp:106] Creating Layer conv5_1_3x3
I0620 04:27:45.741359  3091 net.cpp:454] conv5_1_3x3 <- conv5_1_1x1_reduce
I0620 04:27:45.741364  3091 net.cpp:411] conv5_1_3x3 -> conv5_1_3x3
I0620 04:27:45.799491  3091 net.cpp:150] Setting up conv5_1_3x3
I0620 04:27:45.799561  3091 net.cpp:157] Top shape: 5 512 60 60 (9216000)
I0620 04:27:45.799566  3091 net.cpp:165] Memory required for data: 17039515000
I0620 04:27:45.799583  3091 layer_factory.hpp:77] Creating layer conv5_1_3x3/bn
I0620 04:27:45.799612  3091 net.cpp:106] Creating Layer conv5_1_3x3/bn
I0620 04:27:45.799623  3091 net.cpp:454] conv5_1_3x3/bn <- conv5_1_3x3
I0620 04:27:45.799638  3091 net.cpp:397] conv5_1_3x3/bn -> conv5_1_3x3 (in-place)
I0620 04:27:45.799955  3091 net.cpp:150] Setting up conv5_1_3x3/bn
I0620 04:27:45.799962  3091 net.cpp:157] Top shape: 5 512 60 60 (9216000)
I0620 04:27:45.799968  3091 net.cpp:165] Memory required for data: 17076379000
I0620 04:27:45.799979  3091 layer_factory.hpp:77] Creating layer conv5_1_3x3/relu
I0620 04:27:45.799993  3091 net.cpp:106] Creating Layer conv5_1_3x3/relu
I0620 04:27:45.799996  3091 net.cpp:454] conv5_1_3x3/relu <- conv5_1_3x3
I0620 04:27:45.800050  3091 net.cpp:397] conv5_1_3x3/relu -> conv5_1_3x3 (in-place)
I0620 04:27:45.800058  3091 net.cpp:150] Setting up conv5_1_3x3/relu
I0620 04:27:45.800063  3091 net.cpp:157] Top shape: 5 512 60 60 (9216000)
I0620 04:27:45.800067  3091 net.cpp:165] Memory required for data: 17113243000
I0620 04:27:45.800072  3091 layer_factory.hpp:77] Creating layer conv5_1_1x1_increase
I0620 04:27:45.800089  3091 net.cpp:106] Creating Layer conv5_1_1x1_increase
I0620 04:27:45.800093  3091 net.cpp:454] conv5_1_1x1_increase <- conv5_1_3x3
I0620 04:27:45.800101  3091 net.cpp:411] conv5_1_1x1_increase -> conv5_1_1x1_increase
I0620 04:27:45.825922  3091 net.cpp:150] Setting up conv5_1_1x1_increase
I0620 04:27:45.825956  3091 net.cpp:157] Top shape: 5 2048 60 60 (36864000)
I0620 04:27:45.825958  3091 net.cpp:165] Memory required for data: 17260699000
I0620 04:27:45.825966  3091 layer_factory.hpp:77] Creating layer conv5_1_1x1_increase/bn
I0620 04:27:45.825976  3091 net.cpp:106] Creating Layer conv5_1_1x1_increase/bn
I0620 04:27:45.825984  3091 net.cpp:454] conv5_1_1x1_increase/bn <- conv5_1_1x1_increase
I0620 04:27:45.825989  3091 net.cpp:397] conv5_1_1x1_increase/bn -> conv5_1_1x1_increase (in-place)
I0620 04:27:45.826169  3091 net.cpp:150] Setting up conv5_1_1x1_increase/bn
I0620 04:27:45.826174  3091 net.cpp:157] Top shape: 5 2048 60 60 (36864000)
I0620 04:27:45.826175  3091 net.cpp:165] Memory required for data: 17408155000
I0620 04:27:45.826180  3091 layer_factory.hpp:77] Creating layer conv5_1_1x1_proj
I0620 04:27:45.826187  3091 net.cpp:106] Creating Layer conv5_1_1x1_proj
I0620 04:27:45.826190  3091 net.cpp:454] conv5_1_1x1_proj <- conv4_23_conv4_23/relu_0_split_1
I0620 04:27:45.826195  3091 net.cpp:411] conv5_1_1x1_proj -> conv5_1_1x1_proj
I0620 04:27:45.876904  3091 net.cpp:150] Setting up conv5_1_1x1_proj
I0620 04:27:45.876976  3091 net.cpp:157] Top shape: 5 2048 60 60 (36864000)
I0620 04:27:45.876983  3091 net.cpp:165] Memory required for data: 17555611000
I0620 04:27:45.876999  3091 layer_factory.hpp:77] Creating layer conv5_1_1x1_proj/bn
I0620 04:27:45.877027  3091 net.cpp:106] Creating Layer conv5_1_1x1_proj/bn
I0620 04:27:45.877038  3091 net.cpp:454] conv5_1_1x1_proj/bn <- conv5_1_1x1_proj
I0620 04:27:45.877046  3091 net.cpp:397] conv5_1_1x1_proj/bn -> conv5_1_1x1_proj (in-place)
I0620 04:27:45.877342  3091 net.cpp:150] Setting up conv5_1_1x1_proj/bn
I0620 04:27:45.877351  3091 net.cpp:157] Top shape: 5 2048 60 60 (36864000)
I0620 04:27:45.877355  3091 net.cpp:165] Memory required for data: 17703067000
I0620 04:27:45.877365  3091 layer_factory.hpp:77] Creating layer conv5_1
I0620 04:27:45.877377  3091 net.cpp:106] Creating Layer conv5_1
I0620 04:27:45.877382  3091 net.cpp:454] conv5_1 <- conv5_1_1x1_proj
I0620 04:27:45.877387  3091 net.cpp:454] conv5_1 <- conv5_1_1x1_increase
I0620 04:27:45.877393  3091 net.cpp:411] conv5_1 -> conv5_1
I0620 04:27:45.877432  3091 net.cpp:150] Setting up conv5_1
I0620 04:27:45.877439  3091 net.cpp:157] Top shape: 5 2048 60 60 (36864000)
I0620 04:27:45.877442  3091 net.cpp:165] Memory required for data: 17850523000
I0620 04:27:45.877446  3091 layer_factory.hpp:77] Creating layer conv5_1/relu
I0620 04:27:45.877455  3091 net.cpp:106] Creating Layer conv5_1/relu
I0620 04:27:45.877460  3091 net.cpp:454] conv5_1/relu <- conv5_1
I0620 04:27:45.877467  3091 net.cpp:397] conv5_1/relu -> conv5_1 (in-place)
I0620 04:27:45.877475  3091 net.cpp:150] Setting up conv5_1/relu
I0620 04:27:45.877480  3091 net.cpp:157] Top shape: 5 2048 60 60 (36864000)
I0620 04:27:45.877483  3091 net.cpp:165] Memory required for data: 17997979000
I0620 04:27:45.877487  3091 layer_factory.hpp:77] Creating layer conv5_1_conv5_1/relu_0_split
I0620 04:27:45.877496  3091 net.cpp:106] Creating Layer conv5_1_conv5_1/relu_0_split
I0620 04:27:45.877499  3091 net.cpp:454] conv5_1_conv5_1/relu_0_split <- conv5_1
I0620 04:27:45.877504  3091 net.cpp:411] conv5_1_conv5_1/relu_0_split -> conv5_1_conv5_1/relu_0_split_0
I0620 04:27:45.877511  3091 net.cpp:411] conv5_1_conv5_1/relu_0_split -> conv5_1_conv5_1/relu_0_split_1
I0620 04:27:45.877595  3091 net.cpp:150] Setting up conv5_1_conv5_1/relu_0_split
I0620 04:27:45.877601  3091 net.cpp:157] Top shape: 5 2048 60 60 (36864000)
I0620 04:27:45.877606  3091 net.cpp:157] Top shape: 5 2048 60 60 (36864000)
I0620 04:27:45.877610  3091 net.cpp:165] Memory required for data: 18292891000
I0620 04:27:45.877615  3091 layer_factory.hpp:77] Creating layer conv5_2_1x1_reduce
I0620 04:27:45.877627  3091 net.cpp:106] Creating Layer conv5_2_1x1_reduce
I0620 04:27:45.877631  3091 net.cpp:454] conv5_2_1x1_reduce <- conv5_1_conv5_1/relu_0_split_0
I0620 04:27:45.877640  3091 net.cpp:411] conv5_2_1x1_reduce -> conv5_2_1x1_reduce
I0620 04:27:45.905477  3091 net.cpp:150] Setting up conv5_2_1x1_reduce
I0620 04:27:45.905511  3091 net.cpp:157] Top shape: 5 512 60 60 (9216000)
I0620 04:27:45.905514  3091 net.cpp:165] Memory required for data: 18329755000
I0620 04:27:45.905520  3091 layer_factory.hpp:77] Creating layer conv5_2_1x1_reduce/bn
I0620 04:27:45.905529  3091 net.cpp:106] Creating Layer conv5_2_1x1_reduce/bn
I0620 04:27:45.905536  3091 net.cpp:454] conv5_2_1x1_reduce/bn <- conv5_2_1x1_reduce
I0620 04:27:45.905540  3091 net.cpp:397] conv5_2_1x1_reduce/bn -> conv5_2_1x1_reduce (in-place)
I0620 04:27:45.905735  3091 net.cpp:150] Setting up conv5_2_1x1_reduce/bn
I0620 04:27:45.905740  3091 net.cpp:157] Top shape: 5 512 60 60 (9216000)
I0620 04:27:45.905742  3091 net.cpp:165] Memory required for data: 18366619000
I0620 04:27:45.905748  3091 layer_factory.hpp:77] Creating layer conv5_2_1x1_reduce/relu
I0620 04:27:45.905761  3091 net.cpp:106] Creating Layer conv5_2_1x1_reduce/relu
I0620 04:27:45.905764  3091 net.cpp:454] conv5_2_1x1_reduce/relu <- conv5_2_1x1_reduce
I0620 04:27:45.905769  3091 net.cpp:397] conv5_2_1x1_reduce/relu -> conv5_2_1x1_reduce (in-place)
I0620 04:27:45.905774  3091 net.cpp:150] Setting up conv5_2_1x1_reduce/relu
I0620 04:27:45.905778  3091 net.cpp:157] Top shape: 5 512 60 60 (9216000)
I0620 04:27:45.905781  3091 net.cpp:165] Memory required for data: 18403483000
I0620 04:27:45.905784  3091 layer_factory.hpp:77] Creating layer conv5_2_3x3
I0620 04:27:45.905794  3091 net.cpp:106] Creating Layer conv5_2_3x3
I0620 04:27:45.905797  3091 net.cpp:454] conv5_2_3x3 <- conv5_2_1x1_reduce
I0620 04:27:45.905802  3091 net.cpp:411] conv5_2_3x3 -> conv5_2_3x3
I0620 04:27:45.971225  3091 net.cpp:150] Setting up conv5_2_3x3
I0620 04:27:45.971321  3091 net.cpp:157] Top shape: 5 512 60 60 (9216000)
I0620 04:27:45.971328  3091 net.cpp:165] Memory required for data: 18440347000
I0620 04:27:45.971344  3091 layer_factory.hpp:77] Creating layer conv5_2_3x3/bn
I0620 04:27:45.971371  3091 net.cpp:106] Creating Layer conv5_2_3x3/bn
I0620 04:27:45.971385  3091 net.cpp:454] conv5_2_3x3/bn <- conv5_2_3x3
I0620 04:27:45.971398  3091 net.cpp:397] conv5_2_3x3/bn -> conv5_2_3x3 (in-place)
I0620 04:27:45.971735  3091 net.cpp:150] Setting up conv5_2_3x3/bn
I0620 04:27:45.971743  3091 net.cpp:157] Top shape: 5 512 60 60 (9216000)
I0620 04:27:45.971753  3091 net.cpp:165] Memory required for data: 18477211000
I0620 04:27:45.971763  3091 layer_factory.hpp:77] Creating layer conv5_2_3x3/relu
I0620 04:27:45.971777  3091 net.cpp:106] Creating Layer conv5_2_3x3/relu
I0620 04:27:45.971782  3091 net.cpp:454] conv5_2_3x3/relu <- conv5_2_3x3
I0620 04:27:45.971787  3091 net.cpp:397] conv5_2_3x3/relu -> conv5_2_3x3 (in-place)
I0620 04:27:45.971796  3091 net.cpp:150] Setting up conv5_2_3x3/relu
I0620 04:27:45.971801  3091 net.cpp:157] Top shape: 5 512 60 60 (9216000)
I0620 04:27:45.971806  3091 net.cpp:165] Memory required for data: 18514075000
I0620 04:27:45.971809  3091 layer_factory.hpp:77] Creating layer conv5_2_1x1_increase
I0620 04:27:45.971822  3091 net.cpp:106] Creating Layer conv5_2_1x1_increase
I0620 04:27:45.971827  3091 net.cpp:454] conv5_2_1x1_increase <- conv5_2_3x3
I0620 04:27:45.971832  3091 net.cpp:411] conv5_2_1x1_increase -> conv5_2_1x1_increase
I0620 04:27:45.996839  3091 net.cpp:150] Setting up conv5_2_1x1_increase
I0620 04:27:45.996858  3091 net.cpp:157] Top shape: 5 2048 60 60 (36864000)
I0620 04:27:45.996862  3091 net.cpp:165] Memory required for data: 18661531000
I0620 04:27:45.996884  3091 layer_factory.hpp:77] Creating layer conv5_2_1x1_increase/bn
I0620 04:27:45.996894  3091 net.cpp:106] Creating Layer conv5_2_1x1_increase/bn
I0620 04:27:45.996898  3091 net.cpp:454] conv5_2_1x1_increase/bn <- conv5_2_1x1_increase
I0620 04:27:45.996907  3091 net.cpp:397] conv5_2_1x1_increase/bn -> conv5_2_1x1_increase (in-place)
I0620 04:27:45.997099  3091 net.cpp:150] Setting up conv5_2_1x1_increase/bn
I0620 04:27:45.997104  3091 net.cpp:157] Top shape: 5 2048 60 60 (36864000)
I0620 04:27:45.997107  3091 net.cpp:165] Memory required for data: 18808987000
I0620 04:27:45.997160  3091 layer_factory.hpp:77] Creating layer conv5_2
I0620 04:27:45.997166  3091 net.cpp:106] Creating Layer conv5_2
I0620 04:27:45.997169  3091 net.cpp:454] conv5_2 <- conv5_1_conv5_1/relu_0_split_1
I0620 04:27:45.997174  3091 net.cpp:454] conv5_2 <- conv5_2_1x1_increase
I0620 04:27:45.997177  3091 net.cpp:411] conv5_2 -> conv5_2
I0620 04:27:45.997203  3091 net.cpp:150] Setting up conv5_2
I0620 04:27:45.997207  3091 net.cpp:157] Top shape: 5 2048 60 60 (36864000)
I0620 04:27:45.997210  3091 net.cpp:165] Memory required for data: 18956443000
I0620 04:27:45.997213  3091 layer_factory.hpp:77] Creating layer conv5_2/relu
I0620 04:27:45.997220  3091 net.cpp:106] Creating Layer conv5_2/relu
I0620 04:27:45.997222  3091 net.cpp:454] conv5_2/relu <- conv5_2
I0620 04:27:45.997227  3091 net.cpp:397] conv5_2/relu -> conv5_2 (in-place)
I0620 04:27:45.997233  3091 net.cpp:150] Setting up conv5_2/relu
I0620 04:27:45.997236  3091 net.cpp:157] Top shape: 5 2048 60 60 (36864000)
I0620 04:27:45.997239  3091 net.cpp:165] Memory required for data: 19103899000
I0620 04:27:45.997241  3091 layer_factory.hpp:77] Creating layer conv5_2_conv5_2/relu_0_split
I0620 04:27:45.997246  3091 net.cpp:106] Creating Layer conv5_2_conv5_2/relu_0_split
I0620 04:27:45.997249  3091 net.cpp:454] conv5_2_conv5_2/relu_0_split <- conv5_2
I0620 04:27:45.997252  3091 net.cpp:411] conv5_2_conv5_2/relu_0_split -> conv5_2_conv5_2/relu_0_split_0
I0620 04:27:45.997257  3091 net.cpp:411] conv5_2_conv5_2/relu_0_split -> conv5_2_conv5_2/relu_0_split_1
I0620 04:27:45.997283  3091 net.cpp:150] Setting up conv5_2_conv5_2/relu_0_split
I0620 04:27:45.997287  3091 net.cpp:157] Top shape: 5 2048 60 60 (36864000)
I0620 04:27:45.997290  3091 net.cpp:157] Top shape: 5 2048 60 60 (36864000)
I0620 04:27:45.997293  3091 net.cpp:165] Memory required for data: 19398811000
I0620 04:27:45.997297  3091 layer_factory.hpp:77] Creating layer conv5_3_1x1_reduce
I0620 04:27:45.997303  3091 net.cpp:106] Creating Layer conv5_3_1x1_reduce
I0620 04:27:45.997308  3091 net.cpp:454] conv5_3_1x1_reduce <- conv5_2_conv5_2/relu_0_split_0
I0620 04:27:45.997311  3091 net.cpp:411] conv5_3_1x1_reduce -> conv5_3_1x1_reduce
I0620 04:27:46.024503  3091 net.cpp:150] Setting up conv5_3_1x1_reduce
I0620 04:27:46.024525  3091 net.cpp:157] Top shape: 5 512 60 60 (9216000)
I0620 04:27:46.024528  3091 net.cpp:165] Memory required for data: 19435675000
I0620 04:27:46.024534  3091 layer_factory.hpp:77] Creating layer conv5_3_1x1_reduce/bn
I0620 04:27:46.024544  3091 net.cpp:106] Creating Layer conv5_3_1x1_reduce/bn
I0620 04:27:46.024549  3091 net.cpp:454] conv5_3_1x1_reduce/bn <- conv5_3_1x1_reduce
I0620 04:27:46.024556  3091 net.cpp:397] conv5_3_1x1_reduce/bn -> conv5_3_1x1_reduce (in-place)
I0620 04:27:46.024752  3091 net.cpp:150] Setting up conv5_3_1x1_reduce/bn
I0620 04:27:46.024757  3091 net.cpp:157] Top shape: 5 512 60 60 (9216000)
I0620 04:27:46.024760  3091 net.cpp:165] Memory required for data: 19472539000
I0620 04:27:46.024765  3091 layer_factory.hpp:77] Creating layer conv5_3_1x1_reduce/relu
I0620 04:27:46.024771  3091 net.cpp:106] Creating Layer conv5_3_1x1_reduce/relu
I0620 04:27:46.024775  3091 net.cpp:454] conv5_3_1x1_reduce/relu <- conv5_3_1x1_reduce
I0620 04:27:46.024778  3091 net.cpp:397] conv5_3_1x1_reduce/relu -> conv5_3_1x1_reduce (in-place)
I0620 04:27:46.024782  3091 net.cpp:150] Setting up conv5_3_1x1_reduce/relu
I0620 04:27:46.024786  3091 net.cpp:157] Top shape: 5 512 60 60 (9216000)
I0620 04:27:46.024806  3091 net.cpp:165] Memory required for data: 19509403000
I0620 04:27:46.024807  3091 layer_factory.hpp:77] Creating layer conv5_3_3x3
I0620 04:27:46.024813  3091 net.cpp:106] Creating Layer conv5_3_3x3
I0620 04:27:46.024816  3091 net.cpp:454] conv5_3_3x3 <- conv5_3_1x1_reduce
I0620 04:27:46.024819  3091 net.cpp:411] conv5_3_3x3 -> conv5_3_3x3
I0620 04:27:46.080781  3091 net.cpp:150] Setting up conv5_3_3x3
I0620 04:27:46.080806  3091 net.cpp:157] Top shape: 5 512 60 60 (9216000)
I0620 04:27:46.080811  3091 net.cpp:165] Memory required for data: 19546267000
I0620 04:27:46.080821  3091 layer_factory.hpp:77] Creating layer conv5_3_3x3/bn
I0620 04:27:46.080839  3091 net.cpp:106] Creating Layer conv5_3_3x3/bn
I0620 04:27:46.080847  3091 net.cpp:454] conv5_3_3x3/bn <- conv5_3_3x3
I0620 04:27:46.080852  3091 net.cpp:397] conv5_3_3x3/bn -> conv5_3_3x3 (in-place)
I0620 04:27:46.081042  3091 net.cpp:150] Setting up conv5_3_3x3/bn
I0620 04:27:46.081046  3091 net.cpp:157] Top shape: 5 512 60 60 (9216000)
I0620 04:27:46.081049  3091 net.cpp:165] Memory required for data: 19583131000
I0620 04:27:46.081054  3091 layer_factory.hpp:77] Creating layer conv5_3_3x3/relu
I0620 04:27:46.081059  3091 net.cpp:106] Creating Layer conv5_3_3x3/relu
I0620 04:27:46.081063  3091 net.cpp:454] conv5_3_3x3/relu <- conv5_3_3x3
I0620 04:27:46.081066  3091 net.cpp:397] conv5_3_3x3/relu -> conv5_3_3x3 (in-place)
I0620 04:27:46.081071  3091 net.cpp:150] Setting up conv5_3_3x3/relu
I0620 04:27:46.081074  3091 net.cpp:157] Top shape: 5 512 60 60 (9216000)
I0620 04:27:46.081077  3091 net.cpp:165] Memory required for data: 19619995000
I0620 04:27:46.081079  3091 layer_factory.hpp:77] Creating layer conv5_3_1x1_increase
I0620 04:27:46.081087  3091 net.cpp:106] Creating Layer conv5_3_1x1_increase
I0620 04:27:46.081090  3091 net.cpp:454] conv5_3_1x1_increase <- conv5_3_3x3
I0620 04:27:46.081095  3091 net.cpp:411] conv5_3_1x1_increase -> conv5_3_1x1_increase
I0620 04:27:46.108700  3091 net.cpp:150] Setting up conv5_3_1x1_increase
I0620 04:27:46.108739  3091 net.cpp:157] Top shape: 5 2048 60 60 (36864000)
I0620 04:27:46.108743  3091 net.cpp:165] Memory required for data: 19767451000
I0620 04:27:46.108754  3091 layer_factory.hpp:77] Creating layer conv5_3_1x1_increase/bn
I0620 04:27:46.108773  3091 net.cpp:106] Creating Layer conv5_3_1x1_increase/bn
I0620 04:27:46.108779  3091 net.cpp:454] conv5_3_1x1_increase/bn <- conv5_3_1x1_increase
I0620 04:27:46.108785  3091 net.cpp:397] conv5_3_1x1_increase/bn -> conv5_3_1x1_increase (in-place)
I0620 04:27:46.108975  3091 net.cpp:150] Setting up conv5_3_1x1_increase/bn
I0620 04:27:46.108980  3091 net.cpp:157] Top shape: 5 2048 60 60 (36864000)
I0620 04:27:46.108983  3091 net.cpp:165] Memory required for data: 19914907000
I0620 04:27:46.108989  3091 layer_factory.hpp:77] Creating layer conv5_3
I0620 04:27:46.108994  3091 net.cpp:106] Creating Layer conv5_3
I0620 04:27:46.108997  3091 net.cpp:454] conv5_3 <- conv5_2_conv5_2/relu_0_split_1
I0620 04:27:46.109000  3091 net.cpp:454] conv5_3 <- conv5_3_1x1_increase
I0620 04:27:46.109004  3091 net.cpp:411] conv5_3 -> conv5_3
I0620 04:27:46.109026  3091 net.cpp:150] Setting up conv5_3
I0620 04:27:46.109030  3091 net.cpp:157] Top shape: 5 2048 60 60 (36864000)
I0620 04:27:46.109033  3091 net.cpp:165] Memory required for data: 20062363000
I0620 04:27:46.109036  3091 layer_factory.hpp:77] Creating layer conv5_3/relu
I0620 04:27:46.109041  3091 net.cpp:106] Creating Layer conv5_3/relu
I0620 04:27:46.109045  3091 net.cpp:454] conv5_3/relu <- conv5_3
I0620 04:27:46.109048  3091 net.cpp:397] conv5_3/relu -> conv5_3 (in-place)
I0620 04:27:46.109053  3091 net.cpp:150] Setting up conv5_3/relu
I0620 04:27:46.109056  3091 net.cpp:157] Top shape: 5 2048 60 60 (36864000)
I0620 04:27:46.109060  3091 net.cpp:165] Memory required for data: 20209819000
I0620 04:27:46.109062  3091 layer_factory.hpp:77] Creating layer conv5_3_conv5_3/relu_0_split
I0620 04:27:46.109066  3091 net.cpp:106] Creating Layer conv5_3_conv5_3/relu_0_split
I0620 04:27:46.109069  3091 net.cpp:454] conv5_3_conv5_3/relu_0_split <- conv5_3
I0620 04:27:46.109097  3091 net.cpp:411] conv5_3_conv5_3/relu_0_split -> conv5_3_conv5_3/relu_0_split_0
I0620 04:27:46.109102  3091 net.cpp:411] conv5_3_conv5_3/relu_0_split -> conv5_3_conv5_3/relu_0_split_1
I0620 04:27:46.109108  3091 net.cpp:411] conv5_3_conv5_3/relu_0_split -> conv5_3_conv5_3/relu_0_split_2
I0620 04:27:46.109113  3091 net.cpp:411] conv5_3_conv5_3/relu_0_split -> conv5_3_conv5_3/relu_0_split_3
I0620 04:27:46.109117  3091 net.cpp:411] conv5_3_conv5_3/relu_0_split -> conv5_3_conv5_3/relu_0_split_4
I0620 04:27:46.109170  3091 net.cpp:150] Setting up conv5_3_conv5_3/relu_0_split
I0620 04:27:46.109174  3091 net.cpp:157] Top shape: 5 2048 60 60 (36864000)
I0620 04:27:46.109177  3091 net.cpp:157] Top shape: 5 2048 60 60 (36864000)
I0620 04:27:46.109180  3091 net.cpp:157] Top shape: 5 2048 60 60 (36864000)
I0620 04:27:46.109184  3091 net.cpp:157] Top shape: 5 2048 60 60 (36864000)
I0620 04:27:46.109187  3091 net.cpp:157] Top shape: 5 2048 60 60 (36864000)
I0620 04:27:46.109189  3091 net.cpp:165] Memory required for data: 20947099000
I0620 04:27:46.109192  3091 layer_factory.hpp:77] Creating layer conv5_3_pool1
I0620 04:27:46.109199  3091 net.cpp:106] Creating Layer conv5_3_pool1
I0620 04:27:46.109201  3091 net.cpp:454] conv5_3_pool1 <- conv5_3_conv5_3/relu_0_split_0
I0620 04:27:46.109205  3091 net.cpp:411] conv5_3_pool1 -> conv5_3_pool1
I0620 04:27:46.109222  3091 net.cpp:150] Setting up conv5_3_pool1
I0620 04:27:46.109227  3091 net.cpp:157] Top shape: 5 2048 1 1 (10240)
I0620 04:27:46.109230  3091 net.cpp:165] Memory required for data: 20947139960
I0620 04:27:46.109232  3091 layer_factory.hpp:77] Creating layer conv5_3_pool1_conv
I0620 04:27:46.109241  3091 net.cpp:106] Creating Layer conv5_3_pool1_conv
I0620 04:27:46.109243  3091 net.cpp:454] conv5_3_pool1_conv <- conv5_3_pool1
I0620 04:27:46.109248  3091 net.cpp:411] conv5_3_pool1_conv -> conv5_3_pool1_conv
I0620 04:27:46.132294  3091 net.cpp:150] Setting up conv5_3_pool1_conv
I0620 04:27:46.132323  3091 net.cpp:157] Top shape: 5 512 1 1 (2560)
I0620 04:27:46.132324  3091 net.cpp:165] Memory required for data: 20947150200
I0620 04:27:46.132330  3091 layer_factory.hpp:77] Creating layer conv5_3_pool1_conv/bn
I0620 04:27:46.132339  3091 net.cpp:106] Creating Layer conv5_3_pool1_conv/bn
I0620 04:27:46.132344  3091 net.cpp:454] conv5_3_pool1_conv/bn <- conv5_3_pool1_conv
I0620 04:27:46.132349  3091 net.cpp:397] conv5_3_pool1_conv/bn -> conv5_3_pool1_conv (in-place)
I0620 04:27:46.132516  3091 net.cpp:150] Setting up conv5_3_pool1_conv/bn
I0620 04:27:46.132521  3091 net.cpp:157] Top shape: 5 512 1 1 (2560)
I0620 04:27:46.132524  3091 net.cpp:165] Memory required for data: 20947160440
I0620 04:27:46.132529  3091 layer_factory.hpp:77] Creating layer conv5_3_pool1_conv/relu
I0620 04:27:46.132534  3091 net.cpp:106] Creating Layer conv5_3_pool1_conv/relu
I0620 04:27:46.132536  3091 net.cpp:454] conv5_3_pool1_conv/relu <- conv5_3_pool1_conv
I0620 04:27:46.132539  3091 net.cpp:397] conv5_3_pool1_conv/relu -> conv5_3_pool1_conv (in-place)
I0620 04:27:46.132544  3091 net.cpp:150] Setting up conv5_3_pool1_conv/relu
I0620 04:27:46.132546  3091 net.cpp:157] Top shape: 5 512 1 1 (2560)
I0620 04:27:46.132550  3091 net.cpp:165] Memory required for data: 20947170680
I0620 04:27:46.132553  3091 layer_factory.hpp:77] Creating layer conv5_3_pool1_interp
I0620 04:27:46.132568  3091 net.cpp:106] Creating Layer conv5_3_pool1_interp
I0620 04:27:46.132571  3091 net.cpp:454] conv5_3_pool1_interp <- conv5_3_pool1_conv
I0620 04:27:46.132575  3091 net.cpp:411] conv5_3_pool1_interp -> conv5_3_pool1_interp
I0620 04:27:46.132599  3091 net.cpp:150] Setting up conv5_3_pool1_interp
I0620 04:27:46.132603  3091 net.cpp:157] Top shape: 5 512 60 60 (9216000)
I0620 04:27:46.132606  3091 net.cpp:165] Memory required for data: 20984034680
I0620 04:27:46.132608  3091 layer_factory.hpp:77] Creating layer conv5_3_pool2
I0620 04:27:46.132613  3091 net.cpp:106] Creating Layer conv5_3_pool2
I0620 04:27:46.132616  3091 net.cpp:454] conv5_3_pool2 <- conv5_3_conv5_3/relu_0_split_1
I0620 04:27:46.132633  3091 net.cpp:411] conv5_3_pool2 -> conv5_3_pool2
I0620 04:27:46.132652  3091 net.cpp:150] Setting up conv5_3_pool2
I0620 04:27:46.132657  3091 net.cpp:157] Top shape: 5 2048 2 2 (40960)
I0620 04:27:46.132658  3091 net.cpp:165] Memory required for data: 20984198520
I0620 04:27:46.132660  3091 layer_factory.hpp:77] Creating layer conv5_3_pool2_conv
I0620 04:27:46.132668  3091 net.cpp:106] Creating Layer conv5_3_pool2_conv
I0620 04:27:46.132671  3091 net.cpp:454] conv5_3_pool2_conv <- conv5_3_pool2
I0620 04:27:46.132675  3091 net.cpp:411] conv5_3_pool2_conv -> conv5_3_pool2_conv
I0620 04:27:46.159901  3091 net.cpp:150] Setting up conv5_3_pool2_conv
I0620 04:27:46.159924  3091 net.cpp:157] Top shape: 5 512 2 2 (10240)
I0620 04:27:46.159926  3091 net.cpp:165] Memory required for data: 20984239480
I0620 04:27:46.159932  3091 layer_factory.hpp:77] Creating layer conv5_3_pool2_conv/bn
I0620 04:27:46.159945  3091 net.cpp:106] Creating Layer conv5_3_pool2_conv/bn
I0620 04:27:46.159955  3091 net.cpp:454] conv5_3_pool2_conv/bn <- conv5_3_pool2_conv
I0620 04:27:46.159965  3091 net.cpp:397] conv5_3_pool2_conv/bn -> conv5_3_pool2_conv (in-place)
I0620 04:27:46.160159  3091 net.cpp:150] Setting up conv5_3_pool2_conv/bn
I0620 04:27:46.160164  3091 net.cpp:157] Top shape: 5 512 2 2 (10240)
I0620 04:27:46.160167  3091 net.cpp:165] Memory required for data: 20984280440
I0620 04:27:46.160172  3091 layer_factory.hpp:77] Creating layer conv5_3_pool2_conv/relu
I0620 04:27:46.160177  3091 net.cpp:106] Creating Layer conv5_3_pool2_conv/relu
I0620 04:27:46.160181  3091 net.cpp:454] conv5_3_pool2_conv/relu <- conv5_3_pool2_conv
I0620 04:27:46.160184  3091 net.cpp:397] conv5_3_pool2_conv/relu -> conv5_3_pool2_conv (in-place)
I0620 04:27:46.160188  3091 net.cpp:150] Setting up conv5_3_pool2_conv/relu
I0620 04:27:46.160192  3091 net.cpp:157] Top shape: 5 512 2 2 (10240)
I0620 04:27:46.160194  3091 net.cpp:165] Memory required for data: 20984321400
I0620 04:27:46.160197  3091 layer_factory.hpp:77] Creating layer conv5_3_pool2_interp
I0620 04:27:46.160202  3091 net.cpp:106] Creating Layer conv5_3_pool2_interp
I0620 04:27:46.160205  3091 net.cpp:454] conv5_3_pool2_interp <- conv5_3_pool2_conv
I0620 04:27:46.160208  3091 net.cpp:411] conv5_3_pool2_interp -> conv5_3_pool2_interp
I0620 04:27:46.160239  3091 net.cpp:150] Setting up conv5_3_pool2_interp
I0620 04:27:46.160243  3091 net.cpp:157] Top shape: 5 512 60 60 (9216000)
I0620 04:27:46.160245  3091 net.cpp:165] Memory required for data: 21021185400
I0620 04:27:46.160248  3091 layer_factory.hpp:77] Creating layer conv5_3_pool3
I0620 04:27:46.160255  3091 net.cpp:106] Creating Layer conv5_3_pool3
I0620 04:27:46.160257  3091 net.cpp:454] conv5_3_pool3 <- conv5_3_conv5_3/relu_0_split_2
I0620 04:27:46.160260  3091 net.cpp:411] conv5_3_pool3 -> conv5_3_pool3
I0620 04:27:46.160277  3091 net.cpp:150] Setting up conv5_3_pool3
I0620 04:27:46.160281  3091 net.cpp:157] Top shape: 5 2048 3 3 (92160)
I0620 04:27:46.160284  3091 net.cpp:165] Memory required for data: 21021554040
I0620 04:27:46.160286  3091 layer_factory.hpp:77] Creating layer conv5_3_pool3_conv
I0620 04:27:46.160293  3091 net.cpp:106] Creating Layer conv5_3_pool3_conv
I0620 04:27:46.160297  3091 net.cpp:454] conv5_3_pool3_conv <- conv5_3_pool3
I0620 04:27:46.160301  3091 net.cpp:411] conv5_3_pool3_conv -> conv5_3_pool3_conv
I0620 04:27:46.185176  3091 net.cpp:150] Setting up conv5_3_pool3_conv
I0620 04:27:46.185258  3091 net.cpp:157] Top shape: 5 512 3 3 (23040)
I0620 04:27:46.185266  3091 net.cpp:165] Memory required for data: 21021646200
I0620 04:27:46.185281  3091 layer_factory.hpp:77] Creating layer conv5_3_pool3_conv/bn
I0620 04:27:46.185309  3091 net.cpp:106] Creating Layer conv5_3_pool3_conv/bn
I0620 04:27:46.185320  3091 net.cpp:454] conv5_3_pool3_conv/bn <- conv5_3_pool3_conv
I0620 04:27:46.185333  3091 net.cpp:397] conv5_3_pool3_conv/bn -> conv5_3_pool3_conv (in-place)
I0620 04:27:46.185632  3091 net.cpp:150] Setting up conv5_3_pool3_conv/bn
I0620 04:27:46.185642  3091 net.cpp:157] Top shape: 5 512 3 3 (23040)
I0620 04:27:46.185698  3091 net.cpp:165] Memory required for data: 21021738360
I0620 04:27:46.185708  3091 layer_factory.hpp:77] Creating layer conv5_3_pool3_conv/relu
I0620 04:27:46.185717  3091 net.cpp:106] Creating Layer conv5_3_pool3_conv/relu
I0620 04:27:46.185721  3091 net.cpp:454] conv5_3_pool3_conv/relu <- conv5_3_pool3_conv
I0620 04:27:46.185727  3091 net.cpp:397] conv5_3_pool3_conv/relu -> conv5_3_pool3_conv (in-place)
I0620 04:27:46.185735  3091 net.cpp:150] Setting up conv5_3_pool3_conv/relu
I0620 04:27:46.185741  3091 net.cpp:157] Top shape: 5 512 3 3 (23040)
I0620 04:27:46.185745  3091 net.cpp:165] Memory required for data: 21021830520
I0620 04:27:46.185750  3091 layer_factory.hpp:77] Creating layer conv5_3_pool3_interp
I0620 04:27:46.185782  3091 net.cpp:106] Creating Layer conv5_3_pool3_interp
I0620 04:27:46.185786  3091 net.cpp:454] conv5_3_pool3_interp <- conv5_3_pool3_conv
I0620 04:27:46.185792  3091 net.cpp:411] conv5_3_pool3_interp -> conv5_3_pool3_interp
I0620 04:27:46.185837  3091 net.cpp:150] Setting up conv5_3_pool3_interp
I0620 04:27:46.185844  3091 net.cpp:157] Top shape: 5 512 60 60 (9216000)
I0620 04:27:46.185848  3091 net.cpp:165] Memory required for data: 21058694520
I0620 04:27:46.185853  3091 layer_factory.hpp:77] Creating layer conv5_3_pool6
I0620 04:27:46.185861  3091 net.cpp:106] Creating Layer conv5_3_pool6
I0620 04:27:46.185865  3091 net.cpp:454] conv5_3_pool6 <- conv5_3_conv5_3/relu_0_split_3
I0620 04:27:46.185873  3091 net.cpp:411] conv5_3_pool6 -> conv5_3_pool6
I0620 04:27:46.185904  3091 net.cpp:150] Setting up conv5_3_pool6
I0620 04:27:46.185910  3091 net.cpp:157] Top shape: 5 2048 6 6 (368640)
I0620 04:27:46.185914  3091 net.cpp:165] Memory required for data: 21060169080
I0620 04:27:46.185919  3091 layer_factory.hpp:77] Creating layer conv5_3_pool6_conv
I0620 04:27:46.185931  3091 net.cpp:106] Creating Layer conv5_3_pool6_conv
I0620 04:27:46.185936  3091 net.cpp:454] conv5_3_pool6_conv <- conv5_3_pool6
I0620 04:27:46.185950  3091 net.cpp:411] conv5_3_pool6_conv -> conv5_3_pool6_conv
I0620 04:27:46.212790  3091 net.cpp:150] Setting up conv5_3_pool6_conv
I0620 04:27:46.212810  3091 net.cpp:157] Top shape: 5 512 6 6 (92160)
I0620 04:27:46.212812  3091 net.cpp:165] Memory required for data: 21060537720
I0620 04:27:46.212818  3091 layer_factory.hpp:77] Creating layer conv5_3_pool6_conv/bn
I0620 04:27:46.212828  3091 net.cpp:106] Creating Layer conv5_3_pool6_conv/bn
I0620 04:27:46.212833  3091 net.cpp:454] conv5_3_pool6_conv/bn <- conv5_3_pool6_conv
I0620 04:27:46.212842  3091 net.cpp:397] conv5_3_pool6_conv/bn -> conv5_3_pool6_conv (in-place)
I0620 04:27:46.213052  3091 net.cpp:150] Setting up conv5_3_pool6_conv/bn
I0620 04:27:46.213057  3091 net.cpp:157] Top shape: 5 512 6 6 (92160)
I0620 04:27:46.213059  3091 net.cpp:165] Memory required for data: 21060906360
I0620 04:27:46.213064  3091 layer_factory.hpp:77] Creating layer conv5_3_pool6_conv/relu
I0620 04:27:46.213071  3091 net.cpp:106] Creating Layer conv5_3_pool6_conv/relu
I0620 04:27:46.213074  3091 net.cpp:454] conv5_3_pool6_conv/relu <- conv5_3_pool6_conv
I0620 04:27:46.213078  3091 net.cpp:397] conv5_3_pool6_conv/relu -> conv5_3_pool6_conv (in-place)
I0620 04:27:46.213083  3091 net.cpp:150] Setting up conv5_3_pool6_conv/relu
I0620 04:27:46.213085  3091 net.cpp:157] Top shape: 5 512 6 6 (92160)
I0620 04:27:46.213088  3091 net.cpp:165] Memory required for data: 21061275000
I0620 04:27:46.213091  3091 layer_factory.hpp:77] Creating layer conv5_3_pool6_interp
I0620 04:27:46.213096  3091 net.cpp:106] Creating Layer conv5_3_pool6_interp
I0620 04:27:46.213099  3091 net.cpp:454] conv5_3_pool6_interp <- conv5_3_pool6_conv
I0620 04:27:46.213102  3091 net.cpp:411] conv5_3_pool6_interp -> conv5_3_pool6_interp
I0620 04:27:46.213126  3091 net.cpp:150] Setting up conv5_3_pool6_interp
I0620 04:27:46.213130  3091 net.cpp:157] Top shape: 5 512 60 60 (9216000)
I0620 04:27:46.213132  3091 net.cpp:165] Memory required for data: 21098139000
I0620 04:27:46.213135  3091 layer_factory.hpp:77] Creating layer conv5_3_concat
I0620 04:27:46.213140  3091 net.cpp:106] Creating Layer conv5_3_concat
I0620 04:27:46.213162  3091 net.cpp:454] conv5_3_concat <- conv5_3_conv5_3/relu_0_split_4
I0620 04:27:46.213166  3091 net.cpp:454] conv5_3_concat <- conv5_3_pool6_interp
I0620 04:27:46.213169  3091 net.cpp:454] conv5_3_concat <- conv5_3_pool3_interp
I0620 04:27:46.213172  3091 net.cpp:454] conv5_3_concat <- conv5_3_pool2_interp
I0620 04:27:46.213176  3091 net.cpp:454] conv5_3_concat <- conv5_3_pool1_interp
I0620 04:27:46.213181  3091 net.cpp:411] conv5_3_concat -> conv5_3_concat
I0620 04:27:46.213198  3091 net.cpp:150] Setting up conv5_3_concat
I0620 04:27:46.213202  3091 net.cpp:157] Top shape: 5 4096 60 60 (73728000)
I0620 04:27:46.213205  3091 net.cpp:165] Memory required for data: 21393051000
I0620 04:27:46.213207  3091 layer_factory.hpp:77] Creating layer conv5_4
I0620 04:27:46.213217  3091 net.cpp:106] Creating Layer conv5_4
I0620 04:27:46.213219  3091 net.cpp:454] conv5_4 <- conv5_3_concat
I0620 04:27:46.213224  3091 net.cpp:411] conv5_4 -> conv5_4
I0620 04:27:46.654726  3091 net.cpp:150] Setting up conv5_4
I0620 04:27:46.654757  3091 net.cpp:157] Top shape: 5 512 60 60 (9216000)
I0620 04:27:46.654762  3091 net.cpp:165] Memory required for data: 21429915000
I0620 04:27:46.654767  3091 layer_factory.hpp:77] Creating layer conv5_4/bn
I0620 04:27:46.654778  3091 net.cpp:106] Creating Layer conv5_4/bn
I0620 04:27:46.654781  3091 net.cpp:454] conv5_4/bn <- conv5_4
I0620 04:27:46.654785  3091 net.cpp:397] conv5_4/bn -> conv5_4 (in-place)
I0620 04:27:46.654996  3091 net.cpp:150] Setting up conv5_4/bn
I0620 04:27:46.655000  3091 net.cpp:157] Top shape: 5 512 60 60 (9216000)
I0620 04:27:46.655002  3091 net.cpp:165] Memory required for data: 21466779000
I0620 04:27:46.655022  3091 layer_factory.hpp:77] Creating layer conv5_4/relu
I0620 04:27:46.655040  3091 net.cpp:106] Creating Layer conv5_4/relu
I0620 04:27:46.655043  3091 net.cpp:454] conv5_4/relu <- conv5_4
I0620 04:27:46.655045  3091 net.cpp:397] conv5_4/relu -> conv5_4 (in-place)
I0620 04:27:46.655050  3091 net.cpp:150] Setting up conv5_4/relu
I0620 04:27:46.655053  3091 net.cpp:157] Top shape: 5 512 60 60 (9216000)
I0620 04:27:46.655055  3091 net.cpp:165] Memory required for data: 21503643000
I0620 04:27:46.655057  3091 layer_factory.hpp:77] Creating layer conv5_4/dropout
I0620 04:27:46.655066  3091 net.cpp:106] Creating Layer conv5_4/dropout
I0620 04:27:46.655069  3091 net.cpp:454] conv5_4/dropout <- conv5_4
I0620 04:27:46.655072  3091 net.cpp:397] conv5_4/dropout -> conv5_4 (in-place)
I0620 04:27:46.655097  3091 net.cpp:150] Setting up conv5_4/dropout
I0620 04:27:46.655100  3091 net.cpp:157] Top shape: 5 512 60 60 (9216000)
I0620 04:27:46.655102  3091 net.cpp:165] Memory required for data: 21540507000
I0620 04:27:46.655104  3091 layer_factory.hpp:77] Creating layer conv6
I0620 04:27:46.655112  3091 net.cpp:106] Creating Layer conv6
I0620 04:27:46.655113  3091 net.cpp:454] conv6 <- conv5_4
I0620 04:27:46.655117  3091 net.cpp:411] conv6 -> conv6
I0620 04:27:46.655537  3091 net.cpp:150] Setting up conv6
I0620 04:27:46.655542  3091 net.cpp:157] Top shape: 5 21 60 60 (378000)
I0620 04:27:46.655544  3091 net.cpp:165] Memory required for data: 21542019000
I0620 04:27:46.655549  3091 layer_factory.hpp:77] Creating layer conv6_interp
I0620 04:27:46.655551  3091 net.cpp:106] Creating Layer conv6_interp
I0620 04:27:46.655555  3091 net.cpp:454] conv6_interp <- conv6
I0620 04:27:46.655558  3091 net.cpp:411] conv6_interp -> conv6_interp
I0620 04:27:46.655575  3091 net.cpp:150] Setting up conv6_interp
I0620 04:27:46.655580  3091 net.cpp:157] Top shape: 5 21 473 473 (23491545)
I0620 04:27:46.655581  3091 net.cpp:165] Memory required for data: 21635985180
I0620 04:27:46.655583  3091 net.cpp:228] conv6_interp does not need backward computation.
I0620 04:27:46.655586  3091 net.cpp:228] conv6 does not need backward computation.
I0620 04:27:46.655587  3091 net.cpp:228] conv5_4/dropout does not need backward computation.
I0620 04:27:46.655589  3091 net.cpp:228] conv5_4/relu does not need backward computation.
…
