…
I0622 01:35:26.748693  4705 solver.cpp:81] Creating training net from train_net file: exper/voc12/config/pspnet_resnet101/train_train_aug.prototxt
I0622 01:35:26.755619  4705 net.cpp:49] Initializing net from parameters: 
name: "pspnet_resnet101"
state {
  phase: TRAIN
}
layer {
  name: "data"
  type: "ImageSegData"
  top: "data"
  top: "label"
  include {
    phase: TRAIN
  }
  transform_param {
    mirror: true
    crop_size: 473
    mean_value: 104.008
    mean_value: 116.669
    mean_value: 122.675
  }
  image_data_param {
    source: "exper/voc12/list/train_aug.txt"
    batch_size: 2
    shuffle: true
    root_folder: "exper/voc12/data"
    label_type: PIXEL
  }
}
layer {
  name: "conv1_1_3x3_s2"
  type: "Convolution"
  bottom: "data"
  top: "conv1_1_3x3_s2"
  param {
    lr_mult: 1
    decay_mult: 1
  }
  convolution_param {
    num_output: 64
    bias_term: false
    pad: 1
    kernel_size: 3
    stride: 2
    weight_filler {
      type: "msra"
    }
  }
}
layer {
  name: "conv1_1_3x3_s2/bn"
  type: "BN"
  bottom: "conv1_1_3x3_s2"
  top: "conv1_1_3x3_s2"
  param {
    lr_mult: 1
    decay_mult: 0
  }
  param {
    lr_mult: 1
    decay_mult: 0
  }
  param {
    lr_mult: 0
    decay_mult: 0
  }
  param {
    lr_mult: 0
    decay_mult: 0
  }
  bn_param {
    slope_filler {
      type: "constant"
      value: 1
    }
    bias_filler {
      type: "constant"
      value: 0
    }
    momentum: 0.95
    frozen: false
  }
}
layer {
  name: "conv1_1_3x3_s2/relu"
  type: "ReLU"
  bottom: "conv1_1_3x3_s2"
  top: "conv1_1_3x3_s2"
}
layer {
  name: "conv1_2_3x3"
  type: "Convolution"
  bottom: "conv1_1_3x3_s2"
  top: "conv1_2_3x3"
  param {
    lr_mult: 1
    decay_mult: 1
  }
  convolution_param {
    num_output: 64
    bias_term: false
    pad: 1
    kernel_size: 3
    stride: 1
    weight_filler {
      type: "msra"
    }
  }
}
layer {
  name: "conv1_2_3x3/bn"
  type: "BN"
  bottom: "conv1_2_3x3"
  top: "conv1_2_3x3"
  param {
    lr_mult: 1
    decay_mult: 0
  }
  param {
    lr_mult: 1
    decay_mult: 0
  }
  param {
    lr_mult: 0
    decay_mult: 0
  }
  param {
    lr_mult: 0
    decay_mult: 0
  }
  bn_param {
    slope_filler {
      type: "constant"
      value: 1
    }
    bias_filler {
      type: "constant"
      value: 0
    }
    momentum: 0.95
    frozen: true
  }
}
layer {
  name: "conv1_2_3x3/relu"
  type: "ReLU"
  bottom: "conv1_2_3x3"
  top: "conv1_2_3x3"
}
layer {
  name: "conv1_3_3x3"
  type: "Convolution"
  bottom: "conv1_2_3x3"
  top: "conv1_3_3x3"
  param {
    lr_mult: 1
    decay_mult: 1
  }
  convolution_param {
    num_output: 128
    bias_term: false
    pad: 1
    kernel_size: 3
    stride: 1
    weight_filler {
      type: "msra"
    }
  }
}
layer {
  name: "conv1_3_3x3/bn"
  type: "BN"
  bottom: "conv1_3_3x3"
  top: "conv1_3_3x3"
  param {
    lr_mult: 1
    decay_mult: 0
  }
  param {
    lr_mult: 1
    decay_mult: 0
  }
  param {
    lr_mult: 0
    decay_mult: 0
  }
  param {
    lr_mult: 0
    decay_mult: 0
  }
  bn_param {
    slope_filler {
      type: "constant"
      value: 1
    }
    bias_filler {
      type: "constant"
      value: 0
    }
    momentum: 0.95
    frozen: true
  }
}
layer {
  name: "conv1_3_3x3/relu"
  type: "ReLU"
  bottom: "conv1_3_3x3"
  top: "conv1_3_3x3"
}
layer {
  name: "pool1_3x3_s2"
  type: "Pooling"
  bottom: "conv1_3_3x3"
  top: "pool1_3x3_s2"
  pooling_param {
    pool: MAX
    kernel_size: 3
    stride: 2
    pad: 1
  }
}
layer {
  name: "conv2_1_1x1_reduce"
  type: "Convolution"
  bottom: "pool1_3x3_s2"
  top: "conv2_1_1x1_reduce"
  param {
    lr_mult: 1
    decay_mult: 1
  }
  convolution_param {
    num_output: 64
    bias_term: false
    pad: 0
    kernel_size: 1
    stride: 1
    weight_filler {
      type: "msra"
    }
  }
}
layer {
  name: "conv2_1_1x1_reduce/bn"
  type: "BN"
  bottom: "conv2_1_1x1_reduce"
  top: "conv2_1_1x1_reduce"
  param {
    lr_mult: 1
    decay_mult: 0
  }
  param {
    lr_mult: 1
    decay_mult: 0
  }
  param {
    lr_mult: 0
    decay_mult: 0
  }
  param {
    lr_mult: 0
    decay_mult: 0
  }
  bn_param {
    slope_filler {
      type: "constant"
      value: 1
    }
    bias_filler {
      type: "constant"
      value: 0
    }
    momentum: 0.95
    frozen: true
  }
}
layer {
  name: "conv2_1_1x1_reduce/relu"
  type: "ReLU"
  bottom: "conv2_1_1x1_reduce"
  top: "conv2_1_1x1_reduce"
}
layer {
  name: "conv2_1_3x3"
  type: "Convolution"
  bottom: "conv2_1_1x1_reduce"
  top: "conv2_1_3x3"
  param {
    lr_mult: 1
    decay_mult: 1
  }
  convolution_param {
    num_output: 64
    bias_term: false
    pad: 1
    kernel_size: 3
    stride: 1
    weight_filler {
      type: "msra"
    }
  }
}
layer {
  name: "conv2_1_3x3/bn"
  type: "BN"
  bottom: "conv2_1_3x3"
  top: "conv2_1_3x3"
  param {
    lr_mult: 1
    decay_mult: 0
  }
  param {
    lr_mult: 1
    decay_mult: 0
  }
  param {
    lr_mult: 0
    decay_mult: 0
  }
  param {
    lr_mult: 0
    decay_mult: 0
  }
  bn_param {
    slope_filler {
      type: "constant"
      value: 1
    }
    bias_filler {
      type: "constant"
      value: 0
    }
    momentum: 0.95
    frozen: true
  }
}
layer {
  name: "conv2_1_3x3/relu"
  type: "ReLU"
  bottom: "conv2_1_3x3"
  top: "conv2_1_3x3"
}
layer {
  name: "conv2_1_1x1_increase"
  type: "Convolution"
  bottom: "conv2_1_3x3"
  top: "conv2_1_1x1_increase"
  param {
    lr_mult: 1
    decay_mult: 1
  }
  convolution_param {
    num_output: 256
    bias_term: false
    pad: 0
    kernel_size: 1
    stride: 1
    weight_filler {
      type: "msra"
    }
  }
}
layer {
  name: "conv2_1_1x1_increase/bn"
  type: "BN"
  bottom: "conv2_1_1x1_increase"
  top: "conv2_1_1x1_increase"
  param {
    lr_mult: 1
    decay_mult: 0
  }
  param {
    lr_mult: 1
    decay_mult: 0
  }
  param {
    lr_mult: 0
    decay_mult: 0
  }
  param {
    lr_mult: 0
    decay_mult: 0
  }
  bn_param {
    slope_filler {
      type: "constant"
      value: 1
    }
    bias_filler {
      type: "constant"
      value: 0
    }
    momentum: 0.95
    frozen: true
  }
}
layer {
  name: "conv2_1_1x1_proj"
  type: "Convolution"
  bottom: "pool1_3x3_s2"
  top: "conv2_1_1x1_proj"
  param {
    lr_mult: 1
    decay_mult: 1
  }
  convolution_param {
    num_output: 256
    bias_term: false
    pad: 0
    kernel_size: 1
    stride: 1
    weight_filler {
      type: "msra"
    }
  }
}
layer {
  name: "conv2_1_1x1_proj/bn"
  type: "BN"
  bottom: "conv2_1_1x1_proj"
  top: "conv2_1_1x1_proj"
  param {
    lr_mult: 1
    decay_mult: 0
  }
  param {
    lr_mult: 1
    decay_mult: 0
  }
  param {
    lr_mult: 0
    decay_mult: 0
  }
  param {
    lr_mult: 0
    decay_mult: 0
  }
  bn_param {
    slope_filler {
      type: "constant"
      value: 1
    }
    bias_filler {
      type: "constant"
      value: 0
    }
    momentum: 0.95
    frozen: true
  }
}
layer {
  name: "conv2_1"
  type: "Eltwise"
  bottom: "conv2_1_1x1_proj"
  bottom: "conv2_1_1x1_increase"
  top: "conv2_1"
  eltwise_param {
    operation: SUM
  }
}
layer {
  name: "conv2_1/relu"
  type: "ReLU"
  bottom: "conv2_1"
  top: "conv2_1"
}
layer {
  name: "conv2_2_1x1_reduce"
  type: "Convolution"
  bottom: "conv2_1"
  top: "conv2_2_1x1_reduce"
  param {
    lr_mult: 1
    decay_mult: 1
  }
  convolution_param {
    num_output: 64
    bias_term: false
    pad: 0
    kernel_size: 1
    stride: 1
    weight_filler {
      type: "msra"
    }
  }
}
layer {
  name: "conv2_2_1x1_reduce/bn"
  type: "BN"
  bottom: "conv2_2_1x1_reduce"
  top: "conv2_2_1x1_reduce"
  param {
    lr_mult: 1
    decay_mult: 0
  }
  param {
    lr_mult: 1
    decay_mult: 0
  }
  param {
    lr_mult: 0
    decay_mult: 0
  }
  param {
    lr_mult: 0
    decay_mult: 0
  }
  bn_param {
    slope_filler {
      type: "constant"
      value: 1
    }
    bias_filler {
      type: "constant"
      value: 0
    }
    momentum: 0.95
    frozen: true
  }
}
layer {
  name: "conv2_2_1x1_reduce/relu"
  type: "ReLU"
  bottom: "conv2_2_1x1_reduce"
  top: "conv2_2_1x1_reduce"
}
layer {
  name: "conv2_2_3x3"
  type: "Convolution"
  bottom: "conv2_2_1x1_reduce"
  top: "conv2_2_3x3"
  param {
    lr_mult: 1
    decay_mult: 1
  }
  convolution_param {
    num_output: 64
    bias_term: false
    pad: 1
    kernel_size: 3
    stride: 1
    weight_filler {
      type: "msra"
    }
  }
}
layer {
  name: "conv2_2_3x3/bn"
  type: "BN"
  bottom: "conv2_2_3x3"
  top: "conv2_2_3x3"
  param {
    lr_mult: 1
    decay_mult: 0
  }
  param {
    lr_mult: 1
    decay_mult: 0
  }
  param {
    lr_mult: 0
    decay_mult: 0
  }
  param {
    lr_mult: 0
    decay_mult: 0
  }
  bn_param {
    slope_filler {
      type: "constant"
      value: 1
    }
    bias_filler {
      type: "constant"
      value: 0
    }
    momentum: 0.95
    frozen: true
  }
}
layer {
  name: "conv2_2_3x3/relu"
  type: "ReLU"
  bottom: "conv2_2_3x3"
  top: "conv2_2_3x3"
}
layer {
  name: "conv2_2_1x1_increase"
  type: "Convolution"
  bottom: "conv2_2_3x3"
  top: "conv2_2_1x1_increase"
  param {
    lr_mult: 1
    decay_mult: 1
  }
  convolution_param {
    num_output: 256
    bias_term: false
    pad: 0
    kernel_size: 1
    stride: 1
    weight_filler {
      type: "msra"
    }
  }
}
layer {
  name: "conv2_2_1x1_increase/bn"
  type: "BN"
  bottom: "conv2_2_1x1_increase"
  top: "conv2_2_1x1_increase"
  param {
    lr_mult: 1
    decay_mult: 0
  }
  param {
    lr_mult: 1
    decay_mult: 0
  }
  param {
    lr_mult: 0
    decay_mult: 0
  }
  param {
    lr_mult: 0
    decay_mult: 0
  }
  bn_param {
    slope_filler {
      type: "constant"
      value: 1
    }
    bias_filler {
      type: "constant"
      value: 0
    }
    momentum: 0.95
    frozen: true
  }
}
layer {
  name: "conv2_2"
  type: "Eltwise"
  bottom: "conv2_1"
  bottom: "conv2_2_1x1_increase"
  top: "conv2_2"
  eltwise_param {
    operation: SUM
  }
}
layer {
  name: "conv2_2/relu"
  type: "ReLU"
  bottom: "conv2_2"
  top: "conv2_2"
}
layer {
  name: "conv2_3_1x1_reduce"
  type: "Convolution"
  bottom: "conv2_2"
  top: "conv2_3_1x1_reduce"
  param {
    lr_mult: 1
    decay_mult: 1
  }
  convolution_param {
    num_output: 64
    bias_term: false
    pad: 0
    kernel_size: 1
    stride: 1
    weight_filler {
      type: "msra"
    }
  }
}
layer {
  name: "conv2_3_1x1_reduce/bn"
  type: "BN"
  bottom: "conv2_3_1x1_reduce"
  top: "conv2_3_1x1_reduce"
  param {
    lr_mult: 1
    decay_mult: 0
  }
  param {
    lr_mult: 1
    decay_mult: 0
  }
  param {
    lr_mult: 0
    decay_mult: 0
  }
  param {
    lr_mult: 0
    decay_mult: 0
  }
  bn_param {
    slope_filler {
      type: "constant"
      value: 1
    }
    bias_filler {
      type: "constant"
      value: 0
    }
    momentum: 0.95
    frozen: true
  }
}
layer {
  name: "conv2_3_1x1_reduce/relu"
  type: "ReLU"
  bottom: "conv2_3_1x1_reduce"
  top: "conv2_3_1x1_reduce"
}
layer {
  name: "conv2_3_3x3"
  type: "Convolution"
  bottom: "conv2_3_1x1_reduce"
  top: "conv2_3_3x3"
  param {
    lr_mult: 1
    decay_mult: 1
  }
  convolution_param {
    num_output: 64
    bias_term: false
    pad: 1
    kernel_size: 3
    stride: 1
    weight_filler {
      type: "msra"
    }
  }
}
layer {
  name: "conv2_3_3x3/bn"
  type: "BN"
  bottom: "conv2_3_3x3"
  top: "conv2_3_3x3"
  param {
    lr_mult: 1
    decay_mult: 0
  }
  param {
    lr_mult: 1
    decay_mult: 0
  }
  param {
    lr_mult: 0
    decay_mult: 0
  }
  param {
    lr_mult: 0
    decay_mult: 0
  }
  bn_param {
    slope_filler {
      type: "constant"
      value: 1
    }
    bias_filler {
      type: "constant"
      value: 0
    }
    momentum: 0.95
    frozen: true
  }
}
layer {
  name: "conv2_3_3x3/relu"
  type: "ReLU"
  bottom: "conv2_3_3x3"
  top: "conv2_3_3x3"
}
layer {
  name: "conv2_3_1x1_increase"
  type: "Convolution"
  bottom: "conv2_3_3x3"
  top: "conv2_3_1x1_increase"
  param {
    lr_mult: 1
    decay_mult: 1
  }
  convolution_param {
    num_output: 256
    bias_term: false
    pad: 0
    kernel_size: 1
    stride: 1
    weight_filler {
      type: "msra"
    }
  }
}
layer {
  name: "conv2_3_1x1_increase/bn"
  type: "BN"
  bottom: "conv2_3_1x1_increase"
  top: "conv2_3_1x1_increase"
  param {
    lr_mult: 1
    decay_mult: 0
  }
  param {
    lr_mult: 1
    decay_mult: 0
  }
  param {
    lr_mult: 0
    decay_mult: 0
  }
  param {
    lr_mult: 0
    decay_mult: 0
  }
  bn_param {
    slope_filler {
      type: "constant"
      value: 1
    }
    bias_filler {
      type: "constant"
      value: 0
    }
    momentum: 0.95
    frozen: true
  }
}
layer {
  name: "conv2_3"
  type: "Eltwise"
  bottom: "conv2_2"
  bottom: "conv2_3_1x1_increase"
  top: "conv2_3"
  eltwise_param {
    operation: SUM
  }
}
layer {
  name: "conv2_3/relu"
  type: "ReLU"
  bottom: "conv2_3"
  top: "conv2_3"
}
layer {
  name: "conv3_1_1x1_reduce"
  type: "Convolution"
  bottom: "conv2_3"
  top: "conv3_1_1x1_reduce"
  param {
    lr_mult: 1
    decay_mult: 1
  }
  convolution_param {
    num_output: 128
    bias_term: false
    pad: 0
    kernel_size: 1
    stride: 1
    weight_filler {
      type: "msra"
    }
  }
}
layer {
  name: "conv3_1_1x1_reduce/bn"
  type: "BN"
  bottom: "conv3_1_1x1_reduce"
  top: "conv3_1_1x1_reduce"
  param {
    lr_mult: 1
    decay_mult: 0
  }
  param {
    lr_mult: 1
    decay_mult: 0
  }
  param {
    lr_mult: 0
    decay_mult: 0
  }
  param {
    lr_mult: 0
    decay_mult: 0
  }
  bn_param {
    slope_filler {
      type: "constant"
      value: 1
    }
    bias_filler {
      type: "constant"
      value: 0
    }
    momentum: 0.95
    frozen: true
  }
}
layer {
  name: "conv3_1_1x1_reduce/relu"
  type: "ReLU"
  bottom: "conv3_1_1x1_reduce"
  top: "conv3_1_1x1_reduce"
}
layer {
  name: "conv3_1_3x3"
  type: "Convolution"
  bottom: "conv3_1_1x1_reduce"
  top: "conv3_1_3x3"
  param {
    lr_mult: 1
    decay_mult: 1
  }
  convolution_param {
    num_output: 128
    bias_term: false
    pad: 1
    kernel_size: 3
    stride: 2
    weight_filler {
      type: "msra"
    }
  }
}
layer {
  name: "conv3_1_3x3/bn"
  type: "BN"
  bottom: "conv3_1_3x3"
  top: "conv3_1_3x3"
  param {
    lr_mult: 1
    decay_mult: 0
  }
  param {
    lr_mult: 1
    decay_mult: 0
  }
  param {
    lr_mult: 0
    decay_mult: 0
  }
  param {
    lr_mult: 0
    decay_mult: 0
  }
  bn_param {
    slope_filler {
      type: "constant"
      value: 1
    }
    bias_filler {
      type: "constant"
      value: 0
    }
    momentum: 0.95
    frozen: true
  }
}
layer {
  name: "conv3_1_3x3/relu"
  type: "ReLU"
  bottom: "conv3_1_3x3"
  top: "conv3_1_3x3"
}
layer {
  name: "conv3_1_1x1_increase"
  type: "Convolution"
  bottom: "conv3_1_3x3"
  top: "conv3_1_1x1_increase"
  param {
    lr_mult: 1
    decay_mult: 1
  }
  convolution_param {
    num_output: 512
    bias_term: false
    pad: 0
    kernel_size: 1
    stride: 1
    weight_filler {
      type: "msra"
    }
  }
}
layer {
  name: "conv3_1_1x1_increase/bn"
  type: "BN"
  bottom: "conv3_1_1x1_increase"
  top: "conv3_1_1x1_increase"
  param {
    lr_mult: 1
    decay_mult: 0
  }
  param {
    lr_mult: 1
    decay_mult: 0
  }
  param {
    lr_mult: 0
    decay_mult: 0
  }
  param {
    lr_mult: 0
    decay_mult: 0
  }
  bn_param {
    slope_filler {
      type: "constant"
      value: 1
    }
    bias_filler {
      type: "constant"
      value: 0
    }
    momentum: 0.95
    frozen: true
  }
}
layer {
  name: "conv3_1_1x1_proj"
  type: "Convolution"
  bottom: "conv2_3"
  top: "conv3_1_1x1_proj"
  param {
    lr_mult: 1
    decay_mult: 1
  }
  convolution_param {
    num_output: 512
    bias_term: false
    pad: 0
    kernel_size: 1
    stride: 2
    weight_filler {
      type: "msra"
    }
  }
}
layer {
  name: "conv3_1_1x1_proj/bn"
  type: "BN"
  bottom: "conv3_1_1x1_proj"
  top: "conv3_1_1x1_proj"
  param {
    lr_mult: 1
    decay_mult: 0
  }
  param {
    lr_mult: 1
    decay_mult: 0
  }
  param {
    lr_mult: 0
    decay_mult: 0
  }
  param {
    lr_mult: 0
    decay_mult: 0
  }
  bn_param {
    slope_filler {
      type: "constant"
      value: 1
    }
    bias_filler {
      type: "constant"
      value: 0
    }
    momentum: 0.95
    frozen: true
  }
}
layer {
  name: "conv3_1"
  type: "Eltwise"
  bottom: "conv3_1_1x1_proj"
  bottom: "conv3_1_1x1_increase"
  top: "conv3_1"
  eltwise_param {
    operation: SUM
  }
}
layer {
  name: "conv3_1/relu"
  type: "ReLU"
  bottom: "conv3_1"
  top: "conv3_1"
}
layer {
  name: "conv3_2_1x1_reduce"
  type: "Convolution"
  bottom: "conv3_1"
  top: "conv3_2_1x1_reduce"
  param {
    lr_mult: 1
    decay_mult: 1
  }
  convolution_param {
    num_output: 128
    bias_term: false
    pad: 0
    kernel_size: 1
    stride: 1
    weight_filler {
      type: "msra"
    }
  }
}
layer {
  name: "conv3_2_1x1_reduce/bn"
  type: "BN"
  bottom: "conv3_2_1x1_reduce"
  top: "conv3_2_1x1_reduce"
  param {
    lr_mult: 1
    decay_mult: 0
  }
  param {
    lr_mult: 1
    decay_mult: 0
  }
  param {
    lr_mult: 0
    decay_mult: 0
  }
  param {
    lr_mult: 0
    decay_mult: 0
  }
  bn_param {
    slope_filler {
      type: "constant"
      value: 1
    }
    bias_filler {
      type: "constant"
      value: 0
    }
    momentum: 0.95
    frozen: true
  }
}
layer {
  name: "conv3_2_1x1_reduce/relu"
  type: "ReLU"
  bottom: "conv3_2_1x1_reduce"
  top: "conv3_2_1x1_reduce"
}
layer {
  name: "conv3_2_3x3"
  type: "Convolution"
  bottom: "conv3_2_1x1_reduce"
  top: "conv3_2_3x3"
  param {
    lr_mult: 1
    decay_mult: 1
  }
  convolution_param {
    num_output: 128
    bias_term: false
    pad: 1
    kernel_size: 3
    stride: 1
    weight_filler {
      type: "msra"
    }
  }
}
layer {
  name: "conv3_2_3x3/bn"
  type: "BN"
  bottom: "conv3_2_3x3"
  top: "conv3_2_3x3"
  param {
    lr_mult: 1
    decay_mult: 0
  }
  param {
    lr_mult: 1
    decay_mult: 0
  }
  param {
    lr_mult: 0
    decay_mult: 0
  }
  param {
    lr_mult: 0
    decay_mult: 0
  }
  bn_param {
    slope_filler {
      type: "constant"
      value: 1
    }
    bias_filler {
      type: "constant"
      value: 0
    }
    momentum: 0.95
    frozen: true
  }
}
layer {
  name: "conv3_2_3x3/relu"
  type: "ReLU"
  bottom: "conv3_2_3x3"
  top: "conv3_2_3x3"
}
layer {
  name: "conv3_2_1x1_increase"
  type: "Convolution"
  bottom: "conv3_2_3x3"
  top: "conv3_2_1x1_increase"
  param {
    lr_mult: 1
    decay_mult: 1
  }
  convolution_param {
    num_output: 512
    bias_term: false
    pad: 0
    kernel_size: 1
    stride: 1
    weight_filler {
      type: "msra"
    }
  }
}
layer {
  name: "conv3_2_1x1_increase/bn"
  type: "BN"
  bottom: "conv3_2_1x1_increase"
  top: "conv3_2_1x1_increase"
  param {
    lr_mult: 1
    decay_mult: 0
  }
  param {
    lr_mult: 1
    decay_mult: 0
  }
  param {
    lr_mult: 0
    decay_mult: 0
  }
  param {
    lr_mult: 0
    decay_mult: 0
  }
  bn_param {
    slope_filler {
      type: "constant"
      value: 1
    }
    bias_filler {
      type: "constant"
      value: 0
    }
    momentum: 0.95
    frozen: true
  }
}
layer {
  name: "conv3_2"
  type: "Eltwise"
  bottom: "conv3_1"
  bottom: "conv3_2_1x1_increase"
  top: "conv3_2"
  eltwise_param {
    operation: SUM
  }
}
layer {
  name: "conv3_2/relu"
  type: "ReLU"
  bottom: "conv3_2"
  top: "conv3_2"
}
layer {
  name: "conv3_3_1x1_reduce"
  type: "Convolution"
  bottom: "conv3_2"
  top: "conv3_3_1x1_reduce"
  param {
    lr_mult: 1
    decay_mult: 1
  }
  convolution_param {
    num_output: 128
    bias_term: false
    pad: 0
    kernel_size: 1
    stride: 1
    weight_filler {
      type: "msra"
    }
  }
}
layer {
  name: "conv3_3_1x1_reduce/bn"
  type: "BN"
  bottom: "conv3_3_1x1_reduce"
  top: "conv3_3_1x1_reduce"
  param {
    lr_mult: 1
    decay_mult: 0
  }
  param {
    lr_mult: 1
    decay_mult: 0
  }
  param {
    lr_mult: 0
    decay_mult: 0
  }
  param {
    lr_mult: 0
    decay_mult: 0
  }
  bn_param {
    slope_filler {
      type: "constant"
      value: 1
    }
    bias_filler {
      type: "constant"
      value: 0
    }
    momentum: 0.95
    frozen: true
  }
}
layer {
  name: "conv3_3_1x1_reduce/relu"
  type: "ReLU"
  bottom: "conv3_3_1x1_reduce"
  top: "conv3_3_1x1_reduce"
}
layer {
  name: "conv3_3_3x3"
  type: "Convolution"
  bottom: "conv3_3_1x1_reduce"
  top: "conv3_3_3x3"
  param {
    lr_mult: 1
    decay_mult: 1
  }
  convolution_param {
    num_output: 128
    bias_term: false
    pad: 1
    kernel_size: 3
    stride: 1
    weight_filler {
      type: "msra"
    }
  }
}
layer {
  name: "conv3_3_3x3/bn"
  type: "BN"
  bottom: "conv3_3_3x3"
  top: "conv3_3_3x3"
  param {
    lr_mult: 1
    decay_mult: 0
  }
  param {
    lr_mult: 1
    decay_mult: 0
  }
  param {
    lr_mult: 0
    decay_mult: 0
  }
  param {
    lr_mult: 0
    decay_mult: 0
  }
  bn_param {
    slope_filler {
      type: "constant"
      value: 1
    }
    bias_filler {
      type: "constant"
      value: 0
    }
    momentum: 0.95
    frozen: true
  }
}
layer {
  name: "conv3_3_3x3/relu"
  type: "ReLU"
  bottom: "conv3_3_3x3"
  top: "conv3_3_3x3"
}
layer {
  name: "conv3_3_1x1_increase"
  type: "Convolution"
  bottom: "conv3_3_3x3"
  top: "conv3_3_1x1_increase"
  param {
    lr_mult: 1
    decay_mult: 1
  }
  convolution_param {
    num_output: 512
    bias_term: false
    pad: 0
    kernel_size: 1
    stride: 1
    weight_filler {
      type: "msra"
    }
  }
}
layer {
  name: "conv3_3_1x1_increase/bn"
  type: "BN"
  bottom: "conv3_3_1x1_increase"
  top: "conv3_3_1x1_increase"
  param {
    lr_mult: 1
    decay_mult: 0
  }
  param {
    lr_mult: 1
    decay_mult: 0
  }
  param {
    lr_mult: 0
    decay_mult: 0
  }
  param {
    lr_mult: 0
    decay_mult: 0
  }
  bn_param {
    slope_filler {
      type: "constant"
      value: 1
    }
    bias_filler {
      type: "constant"
      value: 0
    }
    momentum: 0.95
    frozen: true
  }
}
layer {
  name: "conv3_3"
  type: "Eltwise"
  bottom: "conv3_2"
  bottom: "conv3_3_1x1_increase"
  top: "conv3_3"
  eltwise_param {
    operation: SUM
  }
}
layer {
  name: "conv3_3/relu"
  type: "ReLU"
  bottom: "conv3_3"
  top: "conv3_3"
}
layer {
  name: "conv3_4_1x1_reduce"
  type: "Convolution"
  bottom: "conv3_3"
  top: "conv3_4_1x1_reduce"
  param {
    lr_mult: 1
    decay_mult: 1
  }
  convolution_param {
    num_output: 128
    bias_term: false
    pad: 0
    kernel_size: 1
    stride: 1
    weight_filler {
      type: "msra"
    }
  }
}
layer {
  name: "conv3_4_1x1_reduce/bn"
  type: "BN"
  bottom: "conv3_4_1x1_reduce"
  top: "conv3_4_1x1_reduce"
  param {
    lr_mult: 1
    decay_mult: 0
  }
  param {
    lr_mult: 1
    decay_mult: 0
  }
  param {
    lr_mult: 0
    decay_mult: 0
  }
  param {
    lr_mult: 0
    decay_mult: 0
  }
  bn_param {
    slope_filler {
      type: "constant"
      value: 1
    }
    bias_filler {
      type: "constant"
      value: 0
    }
    momentum: 0.95
    frozen: true
  }
}
layer {
  name: "conv3_4_1x1_reduce/relu"
  type: "ReLU"
  bottom: "conv3_4_1x1_reduce"
  top: "conv3_4_1x1_reduce"
}
layer {
  name: "conv3_4_3x3"
  type: "Convolution"
  bottom: "conv3_4_1x1_reduce"
  top: "conv3_4_3x3"
  param {
    lr_mult: 1
    decay_mult: 1
  }
  convolution_param {
    num_output: 128
    bias_term: false
    pad: 1
    kernel_size: 3
    stride: 1
    weight_filler {
      type: "msra"
    }
  }
}
layer {
  name: "conv3_4_3x3/bn"
  type: "BN"
  bottom: "conv3_4_3x3"
  top: "conv3_4_3x3"
  param {
    lr_mult: 1
    decay_mult: 0
  }
  param {
    lr_mult: 1
    decay_mult: 0
  }
  param {
    lr_mult: 0
    decay_mult: 0
  }
  param {
    lr_mult: 0
    decay_mult: 0
  }
  bn_param {
    slope_filler {
      type: "constant"
      value: 1
    }
    bias_filler {
      type: "constant"
      value: 0
    }
    momentum: 0.95
    frozen: true
  }
}
layer {
  name: "conv3_4_3x3/relu"
  type: "ReLU"
  bottom: "conv3_4_3x3"
  top: "conv3_4_3x3"
}
layer {
  name: "conv3_4_1x1_increase"
  type: "Convolution"
  bottom: "conv3_4_3x3"
  top: "conv3_4_1x1_increase"
  param {
    lr_mult: 1
    decay_mult: 1
  }
  convolution_param {
    num_output: 512
    bias_term: false
    pad: 0
    kernel_size: 1
    stride: 1
    weight_filler {
      type: "msra"
    }
  }
}
layer {
  name: "conv3_4_1x1_increase/bn"
  type: "BN"
  bottom: "conv3_4_1x1_increase"
  top: "conv3_4_1x1_increase"
  param {
    lr_mult: 1
    decay_mult: 0
  }
  param {
    lr_mult: 1
    decay_mult: 0
  }
  param {
    lr_mult: 0
    decay_mult: 0
  }
  param {
    lr_mult: 0
    decay_mult: 0
  }
  bn_param {
    slope_filler {
      type: "constant"
      value: 1
    }
    bias_filler {
      type: "constant"
      value: 0
    }
    momentum: 0.95
    frozen: true
  }
}
layer {
  name: "conv3_4"
  type: "Eltwise"
  bottom: "conv3_3"
  bottom: "conv3_4_1x1_increase"
  top: "conv3_4"
  eltwise_param {
    operation: SUM
  }
}
layer {
  name: "conv3_4/relu"
  type: "ReLU"
  bottom: "conv3_4"
  top: "conv3_4"
}
layer {
  name: "conv4_1_1x1_reduce"
  type: "Convolution"
  bottom: "conv3_4"
  top: "conv4_1_1x1_reduce"
  param {
    lr_mult: 1
    decay_mult: 1
  }
  convolution_param {
    num_output: 256
    bias_term: false
    pad: 0
    kernel_size: 1
    stride: 1
    weight_filler {
      type: "msra"
    }
  }
}
layer {
  name: "conv4_1_1x1_reduce/bn"
  type: "BN"
  bottom: "conv4_1_1x1_reduce"
  top: "conv4_1_1x1_reduce"
  param {
    lr_mult: 1
    decay_mult: 0
  }
  param {
    lr_mult: 1
    decay_mult: 0
  }
  param {
    lr_mult: 0
    decay_mult: 0
  }
  param {
    lr_mult: 0
    decay_mult: 0
  }
  bn_param {
    slope_filler {
      type: "constant"
      value: 1
    }
    bias_filler {
      type: "constant"
      value: 0
    }
    momentum: 0.95
    frozen: true
  }
}
layer {
  name: "conv4_1_1x1_reduce/relu"
  type: "ReLU"
  bottom: "conv4_1_1x1_reduce"
  top: "conv4_1_1x1_reduce"
}
layer {
  name: "conv4_1_3x3"
  type: "Convolution"
  bottom: "conv4_1_1x1_reduce"
  top: "conv4_1_3x3"
  param {
    lr_mult: 1
    decay_mult: 1
  }
  convolution_param {
    num_output: 256
    bias_term: false
    pad: 2
    kernel_size: 3
    stride: 1
    weight_filler {
      type: "msra"
    }
    dilation: 2
  }
}
layer {
  name: "conv4_1_3x3/bn"
  type: "BN"
  bottom: "conv4_1_3x3"
  top: "conv4_1_3x3"
  param {
    lr_mult: 1
    decay_mult: 0
  }
  param {
    lr_mult: 1
    decay_mult: 0
  }
  param {
    lr_mult: 0
    decay_mult: 0
  }
  param {
    lr_mult: 0
    decay_mult: 0
  }
  bn_param {
    slope_filler {
      type: "constant"
      value: 1
    }
    bias_filler {
      type: "constant"
      value: 0
    }
    momentum: 0.95
    frozen: true
  }
}
layer {
  name: "conv4_1_3x3/relu"
  type: "ReLU"
  bottom: "conv4_1_3x3"
  top: "conv4_1_3x3"
}
layer {
  name: "conv4_1_1x1_increase"
  type: "Convolution"
  bottom: "conv4_1_3x3"
  top: "conv4_1_1x1_increase"
  param {
    lr_mult: 1
    decay_mult: 1
  }
  convolution_param {
    num_output: 1024
    bias_term: false
    pad: 0
    kernel_size: 1
    stride: 1
    weight_filler {
      type: "msra"
    }
  }
}
layer {
  name: "conv4_1_1x1_increase/bn"
  type: "BN"
  bottom: "conv4_1_1x1_increase"
  top: "conv4_1_1x1_increase"
  param {
    lr_mult: 1
    decay_mult: 0
  }
  param {
    lr_mult: 1
    decay_mult: 0
  }
  param {
    lr_mult: 0
    decay_mult: 0
  }
  param {
    lr_mult: 0
    decay_mult: 0
  }
  bn_param {
    slope_filler {
      type: "constant"
      value: 1
    }
    bias_filler {
      type: "constant"
      value: 0
    }
    momentum: 0.95
    frozen: true
  }
}
layer {
  name: "conv4_1_1x1_proj"
  type: "Convolution"
  bottom: "conv3_4"
  top: "conv4_1_1x1_proj"
  param {
    lr_mult: 1
    decay_mult: 1
  }
  convolution_param {
    num_output: 1024
    bias_term: false
    pad: 0
    kernel_size: 1
    stride: 1
    weight_filler {
      type: "msra"
    }
  }
}
layer {
  name: "conv4_1_1x1_proj/bn"
  type: "BN"
  bottom: "conv4_1_1x1_proj"
  top: "conv4_1_1x1_proj"
  param {
    lr_mult: 1
    decay_mult: 0
  }
  param {
    lr_mult: 1
    decay_mult: 0
  }
  param {
    lr_mult: 0
    decay_mult: 0
  }
  param {
    lr_mult: 0
    decay_mult: 0
  }
  bn_param {
    slope_filler {
      type: "constant"
      value: 1
    }
    bias_filler {
      type: "constant"
      value: 0
    }
    momentum: 0.95
    frozen: true
  }
}
layer {
  name: "conv4_1"
  type: "Eltwise"
  bottom: "conv4_1_1x1_proj"
  bottom: "conv4_1_1x1_increase"
  top: "conv4_1"
  eltwise_param {
    operation: SUM
  }
}
layer {
  name: "conv4_1/relu"
  type: "ReLU"
  bottom: "conv4_1"
  top: "conv4_1"
}
layer {
  name: "conv4_2_1x1_reduce"
  type: "Convolution"
  bottom: "conv4_1"
  top: "conv4_2_1x1_reduce"
  param {
    lr_mult: 1
    decay_mult: 1
  }
  convolution_param {
    num_output: 256
    bias_term: false
    pad: 0
    kernel_size: 1
    stride: 1
    weight_filler {
      type: "msra"
    }
  }
}
layer {
  name: "conv4_2_1x1_reduce/bn"
  type: "BN"
  bottom: "conv4_2_1x1_reduce"
  top: "conv4_2_1x1_reduce"
  param {
    lr_mult: 1
    decay_mult: 0
  }
  param {
    lr_mult: 1
    decay_mult: 0
  }
  param {
    lr_mult: 0
    decay_mult: 0
  }
  param {
    lr_mult: 0
    decay_mult: 0
  }
  bn_param {
    slope_filler {
      type: "constant"
      value: 1
    }
    bias_filler {
      type: "constant"
      value: 0
    }
    momentum: 0.95
    frozen: true
  }
}
layer {
  name: "conv4_2_1x1_reduce/relu"
  type: "ReLU"
  bottom: "conv4_2_1x1_reduce"
  top: "conv4_2_1x1_reduce"
}
layer {
  name: "conv4_2_3x3"
  type: "Convolution"
  bottom: "conv4_2_1x1_reduce"
  top: "conv4_2_3x3"
  param {
    lr_mult: 1
    decay_mult: 1
  }
  convolution_param {
    num_output: 256
    bias_term: false
    pad: 2
    kernel_size: 3
    stride: 1
    weight_filler {
      type: "msra"
    }
    dilation: 2
  }
}
layer {
  name: "conv4_2_3x3/bn"
  type: "BN"
  bottom: "conv4_2_3x3"
  top: "conv4_2_3x3"
  param {
    lr_mult: 1
    decay_mult: 0
  }
  param {
    lr_mult: 1
    decay_mult: 0
  }
  param {
    lr_mult: 0
    decay_mult: 0
  }
  param {
    lr_mult: 0
    decay_mult: 0
  }
  bn_param {
    slope_filler {
      type: "constant"
      value: 1
    }
    bias_filler {
      type: "constant"
      value: 0
    }
    momentum: 0.95
    frozen: true
  }
}
layer {
  name: "conv4_2
I0622 01:35:26.760068  4705 layer_factory.hpp:77] Creating layer data
I0622 01:35:26.760097  4705 net.cpp:106] Creating Layer data
I0622 01:35:26.760102  4705 net.cpp:411] data -> data
I0622 01:35:26.760123  4705 net.cpp:411] data -> label
I0622 01:35:26.760130  4705 net.cpp:411] data -> (automatic)
I0622 01:35:26.760459  4705 image_seg_data_layer.cpp:46] Opening file exper/voc12/list/train_aug.txt
I0622 01:35:26.767349  4705 image_seg_data_layer.cpp:63] Shuffling data
I0622 01:35:26.768376  4705 image_seg_data_layer.cpp:68] A total of 10582 images.
I0622 01:35:26.789439  4705 image_seg_data_layer.cpp:137] output data size: 2,3,473,473
I0622 01:35:26.789502  4705 image_seg_data_layer.cpp:141] output label size: 2,1,473,473
I0622 01:35:26.789510  4705 image_seg_data_layer.cpp:145] output data_dim size: 2,1,1,2
I0622 01:35:26.820453  4705 net.cpp:150] Setting up data
I0622 01:35:26.820487  4705 net.cpp:157] Top shape: 2 3 473 473 (1342374)
I0622 01:35:26.820492  4705 net.cpp:157] Top shape: 2 1 473 473 (447458)
I0622 01:35:26.820497  4705 net.cpp:157] Top shape: 2 1 1 2 (4)
I0622 01:35:26.820499  4705 net.cpp:165] Memory required for data: 7159344
I0622 01:35:26.820518  4705 layer_factory.hpp:77] Creating layer conv1_1_3x3_s2
I0622 01:35:26.820580  4705 net.cpp:106] Creating Layer conv1_1_3x3_s2
I0622 01:35:26.820586  4705 net.cpp:454] conv1_1_3x3_s2 <- data
I0622 01:35:26.820597  4705 net.cpp:411] conv1_1_3x3_s2 -> conv1_1_3x3_s2
I0622 01:35:26.821570  4705 net.cpp:150] Setting up conv1_1_3x3_s2
I0622 01:35:26.821584  4705 net.cpp:157] Top shape: 2 64 237 237 (7189632)
I0622 01:35:26.821588  4705 net.cpp:165] Memory required for data: 35917872
I0622 01:35:26.821604  4705 layer_factory.hpp:77] Creating layer conv1_1_3x3_s2/bn
I0622 01:35:26.821622  4705 net.cpp:106] Creating Layer conv1_1_3x3_s2/bn
I0622 01:35:26.821629  4705 net.cpp:454] conv1_1_3x3_s2/bn <- conv1_1_3x3_s2
I0622 01:35:26.821635  4705 net.cpp:397] conv1_1_3x3_s2/bn -> conv1_1_3x3_s2 (in-place)
I0622 01:35:26.824992  4705 net.cpp:150] Setting up conv1_1_3x3_s2/bn
I0622 01:35:26.825006  4705 net.cpp:157] Top shape: 2 64 237 237 (7189632)
I0622 01:35:26.825009  4705 net.cpp:165] Memory required for data: 64676400
I0622 01:35:26.825043  4705 layer_factory.hpp:77] Creating layer conv1_1_3x3_s2/relu
I0622 01:35:26.825055  4705 net.cpp:106] Creating Layer conv1_1_3x3_s2/relu
I0622 01:35:26.825058  4705 net.cpp:454] conv1_1_3x3_s2/relu <- conv1_1_3x3_s2
I0622 01:35:26.825062  4705 net.cpp:397] conv1_1_3x3_s2/relu -> conv1_1_3x3_s2 (in-place)
I0622 01:35:26.825078  4705 net.cpp:150] Setting up conv1_1_3x3_s2/relu
I0622 01:35:26.825080  4705 net.cpp:157] Top shape: 2 64 237 237 (7189632)
I0622 01:35:26.825084  4705 net.cpp:165] Memory required for data: 93434928
I0622 01:35:26.825088  4705 layer_factory.hpp:77] Creating layer conv1_2_3x3
I0622 01:35:26.825100  4705 net.cpp:106] Creating Layer conv1_2_3x3
I0622 01:35:26.825103  4705 net.cpp:454] conv1_2_3x3 <- conv1_1_3x3_s2
I0622 01:35:26.825106  4705 net.cpp:411] conv1_2_3x3 -> conv1_2_3x3
I0622 01:35:26.825970  4705 net.cpp:150] Setting up conv1_2_3x3
I0622 01:35:26.825976  4705 net.cpp:157] Top shape: 2 64 237 237 (7189632)
I0622 01:35:26.825978  4705 net.cpp:165] Memory required for data: 122193456
I0622 01:35:26.825981  4705 layer_factory.hpp:77] Creating layer conv1_2_3x3/bn
I0622 01:35:26.825986  4705 net.cpp:106] Creating Layer conv1_2_3x3/bn
I0622 01:35:26.825989  4705 net.cpp:454] conv1_2_3x3/bn <- conv1_2_3x3
I0622 01:35:26.825991  4705 net.cpp:397] conv1_2_3x3/bn -> conv1_2_3x3 (in-place)
I0622 01:35:26.826133  4705 net.cpp:150] Setting up conv1_2_3x3/bn
I0622 01:35:26.826136  4705 net.cpp:157] Top shape: 2 64 237 237 (7189632)
I0622 01:35:26.826139  4705 net.cpp:165] Memory required for data: 150951984
I0622 01:35:26.826145  4705 layer_factory.hpp:77] Creating layer conv1_2_3x3/relu
I0622 01:35:26.826148  4705 net.cpp:106] Creating Layer conv1_2_3x3/relu
I0622 01:35:26.826150  4705 net.cpp:454] conv1_2_3x3/relu <- conv1_2_3x3
I0622 01:35:26.826153  4705 net.cpp:397] conv1_2_3x3/relu -> conv1_2_3x3 (in-place)
I0622 01:35:26.826156  4705 net.cpp:150] Setting up conv1_2_3x3/relu
I0622 01:35:26.826159  4705 net.cpp:157] Top shape: 2 64 237 237 (7189632)
I0622 01:35:26.826161  4705 net.cpp:165] Memory required for data: 179710512
I0622 01:35:26.826164  4705 layer_factory.hpp:77] Creating layer conv1_3_3x3
I0622 01:35:26.826169  4705 net.cpp:106] Creating Layer conv1_3_3x3
I0622 01:35:26.826171  4705 net.cpp:454] conv1_3_3x3 <- conv1_2_3x3
I0622 01:35:26.826175  4705 net.cpp:411] conv1_3_3x3 -> conv1_3_3x3
I0622 01:35:26.827834  4705 net.cpp:150] Setting up conv1_3_3x3
I0622 01:35:26.827842  4705 net.cpp:157] Top shape: 2 128 237 237 (14379264)
I0622 01:35:26.827846  4705 net.cpp:165] Memory required for data: 237227568
I0622 01:35:26.827849  4705 layer_factory.hpp:77] Creating layer conv1_3_3x3/bn
I0622 01:35:26.827857  4705 net.cpp:106] Creating Layer conv1_3_3x3/bn
I0622 01:35:26.827859  4705 net.cpp:454] conv1_3_3x3/bn <- conv1_3_3x3
I0622 01:35:26.827864  4705 net.cpp:397] conv1_3_3x3/bn -> conv1_3_3x3 (in-place)
I0622 01:35:26.828023  4705 net.cpp:150] Setting up conv1_3_3x3/bn
I0622 01:35:26.828028  4705 net.cpp:157] Top shape: 2 128 237 237 (14379264)
I0622 01:35:26.828030  4705 net.cpp:165] Memory required for data: 294744624
I0622 01:35:26.828037  4705 layer_factory.hpp:77] Creating layer conv1_3_3x3/relu
I0622 01:35:26.828040  4705 net.cpp:106] Creating Layer conv1_3_3x3/relu
I0622 01:35:26.828044  4705 net.cpp:454] conv1_3_3x3/relu <- conv1_3_3x3
I0622 01:35:26.828047  4705 net.cpp:397] conv1_3_3x3/relu -> conv1_3_3x3 (in-place)
I0622 01:35:26.828052  4705 net.cpp:150] Setting up conv1_3_3x3/relu
I0622 01:35:26.828054  4705 net.cpp:157] Top shape: 2 128 237 237 (14379264)
I0622 01:35:26.828058  4705 net.cpp:165] Memory required for data: 352261680
I0622 01:35:26.828059  4705 layer_factory.hpp:77] Creating layer pool1_3x3_s2
I0622 01:35:26.828064  4705 net.cpp:106] Creating Layer pool1_3x3_s2
I0622 01:35:26.828066  4705 net.cpp:454] pool1_3x3_s2 <- conv1_3_3x3
I0622 01:35:26.828070  4705 net.cpp:411] pool1_3x3_s2 -> pool1_3x3_s2
I0622 01:35:26.828102  4705 net.cpp:150] Setting up pool1_3x3_s2
I0622 01:35:26.828106  4705 net.cpp:157] Top shape: 2 128 119 119 (3625216)
I0622 01:35:26.828119  4705 net.cpp:165] Memory required for data: 366762544
I0622 01:35:26.828122  4705 layer_factory.hpp:77] Creating layer pool1_3x3_s2_pool1_3x3_s2_0_split
I0622 01:35:26.828132  4705 net.cpp:106] Creating Layer pool1_3x3_s2_pool1_3x3_s2_0_split
I0622 01:35:26.828135  4705 net.cpp:454] pool1_3x3_s2_pool1_3x3_s2_0_split <- pool1_3x3_s2
I0622 01:35:26.828140  4705 net.cpp:411] pool1_3x3_s2_pool1_3x3_s2_0_split -> pool1_3x3_s2_pool1_3x3_s2_0_split_0
I0622 01:35:26.828143  4705 net.cpp:411] pool1_3x3_s2_pool1_3x3_s2_0_split -> pool1_3x3_s2_pool1_3x3_s2_0_split_1
I0622 01:35:26.828164  4705 net.cpp:150] Setting up pool1_3x3_s2_pool1_3x3_s2_0_split
I0622 01:35:26.828168  4705 net.cpp:157] Top shape: 2 128 119 119 (3625216)
I0622 01:35:26.828173  4705 net.cpp:157] Top shape: 2 128 119 119 (3625216)
I0622 01:35:26.828176  4705 net.cpp:165] Memory required for data: 395764272
I0622 01:35:26.828179  4705 layer_factory.hpp:77] Creating layer conv2_1_1x1_reduce
I0622 01:35:26.828186  4705 net.cpp:106] Creating Layer conv2_1_1x1_reduce
I0622 01:35:26.828191  4705 net.cpp:454] conv2_1_1x1_reduce <- pool1_3x3_s2_pool1_3x3_s2_0_split_0
I0622 01:35:26.828196  4705 net.cpp:411] conv2_1_1x1_reduce -> conv2_1_1x1_reduce
I0622 01:35:26.830030  4705 net.cpp:150] Setting up conv2_1_1x1_reduce
I0622 01:35:26.830061  4705 net.cpp:157] Top shape: 2 64 119 119 (1812608)
I0622 01:35:26.830065  4705 net.cpp:165] Memory required for data: 403014704
I0622 01:35:26.830075  4705 layer_factory.hpp:77] Creating layer conv2_1_1x1_reduce/bn
I0622 01:35:26.830090  4705 net.cpp:106] Creating Layer conv2_1_1x1_reduce/bn
I0622 01:35:26.830096  4705 net.cpp:454] conv2_1_1x1_reduce/bn <- conv2_1_1x1_reduce
I0622 01:35:26.830106  4705 net.cpp:397] conv2_1_1x1_reduce/bn -> conv2_1_1x1_reduce (in-place)
I0622 01:35:26.830256  4705 net.cpp:150] Setting up conv2_1_1x1_reduce/bn
I0622 01:35:26.830263  4705 net.cpp:157] Top shape: 2 64 119 119 (1812608)
I0622 01:35:26.830265  4705 net.cpp:165] Memory required for data: 410265136
I0622 01:35:26.830277  4705 layer_factory.hpp:77] Creating layer conv2_1_1x1_reduce/relu
I0622 01:35:26.830286  4705 net.cpp:106] Creating Layer conv2_1_1x1_reduce/relu
I0622 01:35:26.830288  4705 net.cpp:454] conv2_1_1x1_reduce/relu <- conv2_1_1x1_reduce
I0622 01:35:26.830292  4705 net.cpp:397] conv2_1_1x1_reduce/relu -> conv2_1_1x1_reduce (in-place)
I0622 01:35:26.830297  4705 net.cpp:150] Setting up conv2_1_1x1_reduce/relu
I0622 01:35:26.830301  4705 net.cpp:157] Top shape: 2 64 119 119 (1812608)
I0622 01:35:26.830303  4705 net.cpp:165] Memory required for data: 417515568
I0622 01:35:26.830307  4705 layer_factory.hpp:77] Creating layer conv2_1_3x3
I0622 01:35:26.830314  4705 net.cpp:106] Creating Layer conv2_1_3x3
I0622 01:35:26.830317  4705 net.cpp:454] conv2_1_3x3 <- conv2_1_1x1_reduce
I0622 01:35:26.830322  4705 net.cpp:411] conv2_1_3x3 -> conv2_1_3x3
I0622 01:35:26.831246  4705 net.cpp:150] Setting up conv2_1_3x3
I0622 01:35:26.831254  4705 net.cpp:157] Top shape: 2 64 119 119 (1812608)
I0622 01:35:26.831256  4705 net.cpp:165] Memory required for data: 424766000
I0622 01:35:26.831260  4705 layer_factory.hpp:77] Creating layer conv2_1_3x3/bn
I0622 01:35:26.831272  4705 net.cpp:106] Creating Layer conv2_1_3x3/bn
I0622 01:35:26.831275  4705 net.cpp:454] conv2_1_3x3/bn <- conv2_1_3x3
I0622 01:35:26.831280  4705 net.cpp:397] conv2_1_3x3/bn -> conv2_1_3x3 (in-place)
I0622 01:35:26.831418  4705 net.cpp:150] Setting up conv2_1_3x3/bn
I0622 01:35:26.831423  4705 net.cpp:157] Top shape: 2 64 119 119 (1812608)
I0622 01:35:26.831426  4705 net.cpp:165] Memory required for data: 432016432
I0622 01:35:26.831432  4705 layer_factory.hpp:77] Creating layer conv2_1_3x3/relu
I0622 01:35:26.831437  4705 net.cpp:106] Creating Layer conv2_1_3x3/relu
I0622 01:35:26.831440  4705 net.cpp:454] conv2_1_3x3/relu <- conv2_1_3x3
I0622 01:35:26.831444  4705 net.cpp:397] conv2_1_3x3/relu -> conv2_1_3x3 (in-place)
I0622 01:35:26.831447  4705 net.cpp:150] Setting up conv2_1_3x3/relu
I0622 01:35:26.831450  4705 net.cpp:157] Top shape: 2 64 119 119 (1812608)
I0622 01:35:26.831480  4705 net.cpp:165] Memory required for data: 439266864
I0622 01:35:26.831483  4705 layer_factory.hpp:77] Creating layer conv2_1_1x1_increase
I0622 01:35:26.831490  4705 net.cpp:106] Creating Layer conv2_1_1x1_increase
I0622 01:35:26.831493  4705 net.cpp:454] conv2_1_1x1_increase <- conv2_1_3x3
I0622 01:35:26.831497  4705 net.cpp:411] conv2_1_1x1_increase -> conv2_1_1x1_increase
I0622 01:35:26.831964  4705 net.cpp:150] Setting up conv2_1_1x1_increase
I0622 01:35:26.831969  4705 net.cpp:157] Top shape: 2 256 119 119 (7250432)
I0622 01:35:26.831972  4705 net.cpp:165] Memory required for data: 468268592
I0622 01:35:26.831976  4705 layer_factory.hpp:77] Creating layer conv2_1_1x1_increase/bn
I0622 01:35:26.831982  4705 net.cpp:106] Creating Layer conv2_1_1x1_increase/bn
I0622 01:35:26.831984  4705 net.cpp:454] conv2_1_1x1_increase/bn <- conv2_1_1x1_increase
I0622 01:35:26.831989  4705 net.cpp:397] conv2_1_1x1_increase/bn -> conv2_1_1x1_increase (in-place)
I0622 01:35:26.832114  4705 net.cpp:150] Setting up conv2_1_1x1_increase/bn
I0622 01:35:26.832119  4705 net.cpp:157] Top shape: 2 256 119 119 (7250432)
I0622 01:35:26.832121  4705 net.cpp:165] Memory required for data: 497270320
I0622 01:35:26.832126  4705 layer_factory.hpp:77] Creating layer conv2_1_1x1_proj
I0622 01:35:26.832134  4705 net.cpp:106] Creating Layer conv2_1_1x1_proj
I0622 01:35:26.832136  4705 net.cpp:454] conv2_1_1x1_proj <- pool1_3x3_s2_pool1_3x3_s2_0_split_1
I0622 01:35:26.832140  4705 net.cpp:411] conv2_1_1x1_proj -> conv2_1_1x1_proj
I0622 01:35:26.833004  4705 net.cpp:150] Setting up conv2_1_1x1_proj
I0622 01:35:26.833011  4705 net.cpp:157] Top shape: 2 256 119 119 (7250432)
I0622 01:35:26.833015  4705 net.cpp:165] Memory required for data: 526272048
I0622 01:35:26.833020  4705 layer_factory.hpp:77] Creating layer conv2_1_1x1_proj/bn
I0622 01:35:26.833029  4705 net.cpp:106] Creating Layer conv2_1_1x1_proj/bn
I0622 01:35:26.833032  4705 net.cpp:454] conv2_1_1x1_proj/bn <- conv2_1_1x1_proj
I0622 01:35:26.833037  4705 net.cpp:397] conv2_1_1x1_proj/bn -> conv2_1_1x1_proj (in-place)
I0622 01:35:26.833168  4705 net.cpp:150] Setting up conv2_1_1x1_proj/bn
I0622 01:35:26.833173  4705 net.cpp:157] Top shape: 2 256 119 119 (7250432)
I0622 01:35:26.833178  4705 net.cpp:165] Memory required for data: 555273776
I0622 01:35:26.833189  4705 layer_factory.hpp:77] Creating layer conv2_1
I0622 01:35:26.833209  4705 net.cpp:106] Creating Layer conv2_1
I0622 01:35:26.833212  4705 net.cpp:454] conv2_1 <- conv2_1_1x1_proj
I0622 01:35:26.833215  4705 net.cpp:454] conv2_1 <- conv2_1_1x1_increase
I0622 01:35:26.833219  4705 net.cpp:411] conv2_1 -> conv2_1
I0622 01:35:26.833256  4705 net.cpp:150] Setting up conv2_1
I0622 01:35:26.833259  4705 net.cpp:157] Top shape: 2 256 119 119 (7250432)
I0622 01:35:26.833262  4705 net.cpp:165] Memory required for data: 584275504
I0622 01:35:26.833266  4705 layer_factory.hpp:77] Creating layer conv2_1/relu
I0622 01:35:26.833271  4705 net.cpp:106] Creating Layer conv2_1/relu
I0622 01:35:26.833272  4705 net.cpp:454] conv2_1/relu <- conv2_1
I0622 01:35:26.833276  4705 net.cpp:397] conv2_1/relu -> conv2_1 (in-place)
I0622 01:35:26.833281  4705 net.cpp:150] Setting up conv2_1/relu
I0622 01:35:26.833283  4705 net.cpp:157] Top shape: 2 256 119 119 (7250432)
I0622 01:35:26.833287  4705 net.cpp:165] Memory required for data: 613277232
I0622 01:35:26.833289  4705 layer_factory.hpp:77] Creating layer conv2_1_conv2_1/relu_0_split
I0622 01:35:26.833293  4705 net.cpp:106] Creating Layer conv2_1_conv2_1/relu_0_split
I0622 01:35:26.833297  4705 net.cpp:454] conv2_1_conv2_1/relu_0_split <- conv2_1
I0622 01:35:26.833299  4705 net.cpp:411] conv2_1_conv2_1/relu_0_split -> conv2_1_conv2_1/relu_0_split_0
I0622 01:35:26.833303  4705 net.cpp:411] conv2_1_conv2_1/relu_0_split -> conv2_1_conv2_1/relu_0_split_1
I0622 01:35:26.833323  4705 net.cpp:150] Setting up conv2_1_conv2_1/relu_0_split
I0622 01:35:26.833328  4705 net.cpp:157] Top shape: 2 256 119 119 (7250432)
I0622 01:35:26.833330  4705 net.cpp:157] Top shape: 2 256 119 119 (7250432)
I0622 01:35:26.833351  4705 net.cpp:165] Memory required for data: 671280688
I0622 01:35:26.833354  4705 layer_factory.hpp:77] Creating layer conv2_2_1x1_reduce
I0622 01:35:26.833361  4705 net.cpp:106] Creating Layer conv2_2_1x1_reduce
I0622 01:35:26.833364  4705 net.cpp:454] conv2_2_1x1_reduce <- conv2_1_conv2_1/relu_0_split_0
I0622 01:35:26.833369  4705 net.cpp:411] conv2_2_1x1_reduce -> conv2_2_1x1_reduce
I0622 01:35:26.833827  4705 net.cpp:150] Setting up conv2_2_1x1_reduce
I0622 01:35:26.833833  4705 net.cpp:157] Top shape: 2 64 119 119 (1812608)
I0622 01:35:26.833835  4705 net.cpp:165] Memory required for data: 678531120
I0622 01:35:26.833839  4705 layer_factory.hpp:77] Creating layer conv2_2_1x1_reduce/bn
I0622 01:35:26.833847  4705 net.cpp:106] Creating Layer conv2_2_1x1_reduce/bn
I0622 01:35:26.833849  4705 net.cpp:454] conv2_2_1x1_reduce/bn <- conv2_2_1x1_reduce
I0622 01:35:26.833853  4705 net.cpp:397] conv2_2_1x1_reduce/bn -> conv2_2_1x1_reduce (in-place)
I0622 01:35:26.834000  4705 net.cpp:150] Setting up conv2_2_1x1_reduce/bn
I0622 01:35:26.834004  4705 net.cpp:157] Top shape: 2 64 119 119 (1812608)
I0622 01:35:26.834007  4705 net.cpp:165] Memory required for data: 685781552
I0622 01:35:26.834012  4705 layer_factory.hpp:77] Creating layer conv2_2_1x1_reduce/relu
I0622 01:35:26.834018  4705 net.cpp:106] Creating Layer conv2_2_1x1_reduce/relu
I0622 01:35:26.834020  4705 net.cpp:454] conv2_2_1x1_reduce/relu <- conv2_2_1x1_reduce
I0622 01:35:26.834026  4705 net.cpp:397] conv2_2_1x1_reduce/relu -> conv2_2_1x1_reduce (in-place)
I0622 01:35:26.834030  4705 net.cpp:150] Setting up conv2_2_1x1_reduce/relu
I0622 01:35:26.834033  4705 net.cpp:157] Top shape: 2 64 119 119 (1812608)
I0622 01:35:26.834036  4705 net.cpp:165] Memory required for data: 693031984
I0622 01:35:26.834038  4705 layer_factory.hpp:77] Creating layer conv2_2_3x3
I0622 01:35:26.834044  4705 net.cpp:106] Creating Layer conv2_2_3x3
I0622 01:35:26.834048  4705 net.cpp:454] conv2_2_3x3 <- conv2_2_1x1_reduce
I0622 01:35:26.834053  4705 net.cpp:411] conv2_2_3x3 -> conv2_2_3x3
I0622 01:35:26.834962  4705 net.cpp:150] Setting up conv2_2_3x3
I0622 01:35:26.834969  4705 net.cpp:157] Top shape: 2 64 119 119 (1812608)
I0622 01:35:26.834972  4705 net.cpp:165] Memory required for data: 700282416
I0622 01:35:26.834975  4705 layer_factory.hpp:77] Creating layer conv2_2_3x3/bn
I0622 01:35:26.834987  4705 net.cpp:106] Creating Layer conv2_2_3x3/bn
I0622 01:35:26.834990  4705 net.cpp:454] conv2_2_3x3/bn <- conv2_2_3x3
I0622 01:35:26.834993  4705 net.cpp:397] conv2_2_3x3/bn -> conv2_2_3x3 (in-place)
I0622 01:35:26.835140  4705 net.cpp:150] Setting up conv2_2_3x3/bn
I0622 01:35:26.835146  4705 net.cpp:157] Top shape: 2 64 119 119 (1812608)
I0622 01:35:26.835150  4705 net.cpp:165] Memory required for data: 707532848
I0622 01:35:26.835155  4705 layer_factory.hpp:77] Creating layer conv2_2_3x3/relu
I0622 01:35:26.835160  4705 net.cpp:106] Creating Layer conv2_2_3x3/relu
I0622 01:35:26.835163  4705 net.cpp:454] conv2_2_3x3/relu <- conv2_2_3x3
I0622 01:35:26.835166  4705 net.cpp:397] conv2_2_3x3/relu -> conv2_2_3x3 (in-place)
I0622 01:35:26.835170  4705 net.cpp:150] Setting up conv2_2_3x3/relu
I0622 01:35:26.835173  4705 net.cpp:157] Top shape: 2 64 119 119 (1812608)
I0622 01:35:26.835176  4705 net.cpp:165] Memory required for data: 714783280
I0622 01:35:26.835178  4705 layer_factory.hpp:77] Creating layer conv2_2_1x1_increase
I0622 01:35:26.835185  4705 net.cpp:106] Creating Layer conv2_2_1x1_increase
I0622 01:35:26.835186  4705 net.cpp:454] conv2_2_1x1_increase <- conv2_2_3x3
I0622 01:35:26.835191  4705 net.cpp:411] conv2_2_1x1_increase -> conv2_2_1x1_increase
I0622 01:35:26.835646  4705 net.cpp:150] Setting up conv2_2_1x1_increase
I0622 01:35:26.835652  4705 net.cpp:157] Top shape: 2 256 119 119 (7250432)
I0622 01:35:26.835655  4705 net.cpp:165] Memory required for data: 743785008
I0622 01:35:26.835659  4705 layer_factory.hpp:77] Creating layer conv2_2_1x1_increase/bn
I0622 01:35:26.835669  4705 net.cpp:106] Creating Layer conv2_2_1x1_increase/bn
I0622 01:35:26.835680  4705 net.cpp:454] conv2_2_1x1_increase/bn <- conv2_2_1x1_increase
I0622 01:35:26.835685  4705 net.cpp:397] conv2_2_1x1_increase/bn -> conv2_2_1x1_increase (in-place)
I0622 01:35:26.835808  4705 net.cpp:150] Setting up conv2_2_1x1_increase/bn
I0622 01:35:26.835813  4705 net.cpp:157] Top shape: 2 256 119 119 (7250432)
I0622 01:35:26.835815  4705 net.cpp:165] Memory required for data: 772786736
I0622 01:35:26.835820  4705 layer_factory.hpp:77] Creating layer conv2_2
I0622 01:35:26.835825  4705 net.cpp:106] Creating Layer conv2_2
I0622 01:35:26.835829  4705 net.cpp:454] conv2_2 <- conv2_1_conv2_1/relu_0_split_1
I0622 01:35:26.835831  4705 net.cpp:454] conv2_2 <- conv2_2_1x1_increase
I0622 01:35:26.835834  4705 net.cpp:411] conv2_2 -> conv2_2
I0622 01:35:26.835850  4705 net.cpp:150] Setting up conv2_2
I0622 01:35:26.835853  4705 net.cpp:157] Top shape: 2 256 119 119 (7250432)
I0622 01:35:26.835856  4705 net.cpp:165] Memory required for data: 801788464
I0622 01:35:26.835860  4705 layer_factory.hpp:77] Creating layer conv2_2/relu
I0622 01:35:26.835862  4705 net.cpp:106] Creating Layer conv2_2/relu
I0622 01:35:26.835865  4705 net.cpp:454] conv2_2/relu <- conv2_2
I0622 01:35:26.835870  4705 net.cpp:397] conv2_2/relu -> conv2_2 (in-place)
I0622 01:35:26.835872  4705 net.cpp:150] Setting up conv2_2/relu
I0622 01:35:26.835875  4705 net.cpp:157] Top shape: 2 256 119 119 (7250432)
I0622 01:35:26.835878  4705 net.cpp:165] Memory required for data: 830790192
I0622 01:35:26.835881  4705 layer_factory.hpp:77] Creating layer conv2_2_conv2_2/relu_0_split
I0622 01:35:26.835886  4705 net.cpp:106] Creating Layer conv2_2_conv2_2/relu_0_split
I0622 01:35:26.835887  4705 net.cpp:454] conv2_2_conv2_2/relu_0_split <- conv2_2
I0622 01:35:26.835891  4705 net.cpp:411] conv2_2_conv2_2/relu_0_split -> conv2_2_conv2_2/relu_0_split_0
I0622 01:35:26.835894  4705 net.cpp:411] conv2_2_conv2_2/relu_0_split -> conv2_2_conv2_2/relu_0_split_1
I0622 01:35:26.835916  4705 net.cpp:150] Setting up conv2_2_conv2_2/relu_0_split
I0622 01:35:26.835919  4705 net.cpp:157] Top shape: 2 256 119 119 (7250432)
I0622 01:35:26.835922  4705 net.cpp:157] Top shape: 2 256 119 119 (7250432)
I0622 01:35:26.835924  4705 net.cpp:165] Memory required for data: 888793648
I0622 01:35:26.835927  4705 layer_factory.hpp:77] Creating layer conv2_3_1x1_reduce
I0622 01:35:26.835932  4705 net.cpp:106] Creating Layer conv2_3_1x1_reduce
I0622 01:35:26.835935  4705 net.cpp:454] conv2_3_1x1_reduce <- conv2_2_conv2_2/relu_0_split_0
I0622 01:35:26.835939  4705 net.cpp:411] conv2_3_1x1_reduce -> conv2_3_1x1_reduce
I0622 01:35:26.836386  4705 net.cpp:150] Setting up conv2_3_1x1_reduce
I0622 01:35:26.836391  4705 net.cpp:157] Top shape: 2 64 119 119 (1812608)
I0622 01:35:26.836393  4705 net.cpp:165] Memory required for data: 896044080
I0622 01:35:26.836397  4705 layer_factory.hpp:77] Creating layer conv2_3_1x1_reduce/bn
I0622 01:35:26.836401  4705 net.cpp:106] Creating Layer conv2_3_1x1_reduce/bn
I0622 01:35:26.836405  4705 net.cpp:454] conv2_3_1x1_reduce/bn <- conv2_3_1x1_reduce
I0622 01:35:26.836410  4705 net.cpp:397] conv2_3_1x1_reduce/bn -> conv2_3_1x1_reduce (in-place)
I0622 01:35:26.836560  4705 net.cpp:150] Setting up conv2_3_1x1_reduce/bn
I0622 01:35:26.836565  4705 net.cpp:157] Top shape: 2 64 119 119 (1812608)
I0622 01:35:26.836568  4705 net.cpp:165] Memory required for data: 903294512
I0622 01:35:26.836573  4705 layer_factory.hpp:77] Creating layer conv2_3_1x1_reduce/relu
I0622 01:35:26.836578  4705 net.cpp:106] Creating Layer conv2_3_1x1_reduce/relu
I0622 01:35:26.836581  4705 net.cpp:454] conv2_3_1x1_reduce/relu <- conv2_3_1x1_reduce
I0622 01:35:26.836585  4705 net.cpp:397] conv2_3_1x1_reduce/relu -> conv2_3_1x1_reduce (in-place)
I0622 01:35:26.836588  4705 net.cpp:150] Setting up conv2_3_1x1_reduce/relu
I0622 01:35:26.836592  4705 net.cpp:157] Top shape: 2 64 119 119 (1812608)
I0622 01:35:26.836594  4705 net.cpp:165] Memory required for data: 910544944
I0622 01:35:26.836596  4705 layer_factory.hpp:77] Creating layer conv2_3_3x3
I0622 01:35:26.836602  4705 net.cpp:106] Creating Layer conv2_3_3x3
I0622 01:35:26.836611  4705 net.cpp:454] conv2_3_3x3 <- conv2_3_1x1_reduce
I0622 01:35:26.836614  4705 net.cpp:411] conv2_3_3x3 -> conv2_3_3x3
I0622 01:35:26.837617  4705 net.cpp:150] Setting up conv2_3_3x3
I0622 01:35:26.837641  4705 net.cpp:157] Top shape: 2 64 119 119 (1812608)
I0622 01:35:26.837646  4705 net.cpp:165] Memory required for data: 917795376
I0622 01:35:26.837653  4705 layer_factory.hpp:77] Creating layer conv2_3_3x3/bn
I0622 01:35:26.837662  4705 net.cpp:106] Creating Layer conv2_3_3x3/bn
I0622 01:35:26.837667  4705 net.cpp:454] conv2_3_3x3/bn <- conv2_3_3x3
I0622 01:35:26.837674  4705 net.cpp:397] conv2_3_3x3/bn -> conv2_3_3x3 (in-place)
I0622 01:35:26.837846  4705 net.cpp:150] Setting up conv2_3_3x3/bn
I0622 01:35:26.837853  4705 net.cpp:157] Top shape: 2 64 119 119 (1812608)
I0622 01:35:26.837855  4705 net.cpp:165] Memory required for data: 925045808
I0622 01:35:26.837862  4705 layer_factory.hpp:77] Creating layer conv2_3_3x3/relu
I0622 01:35:26.837868  4705 net.cpp:106] Creating Layer conv2_3_3x3/relu
I0622 01:35:26.837870  4705 net.cpp:454] conv2_3_3x3/relu <- conv2_3_3x3
I0622 01:35:26.837877  4705 net.cpp:397] conv2_3_3x3/relu -> conv2_3_3x3 (in-place)
I0622 01:35:26.837880  4705 net.cpp:150] Setting up conv2_3_3x3/relu
I0622 01:35:26.837883  4705 net.cpp:157] Top shape: 2 64 119 119 (1812608)
I0622 01:35:26.837885  4705 net.cpp:165] Memory required for data: 932296240
I0622 01:35:26.837888  4705 layer_factory.hpp:77] Creating layer conv2_3_1x1_increase
I0622 01:35:26.837898  4705 net.cpp:106] Creating Layer conv2_3_1x1_increase
I0622 01:35:26.837899  4705 net.cpp:454] conv2_3_1x1_increase <- conv2_3_3x3
I0622 01:35:26.837904  4705 net.cpp:411] conv2_3_1x1_increase -> conv2_3_1x1_increase
I0622 01:35:26.838495  4705 net.cpp:150] Setting up conv2_3_1x1_increase
I0622 01:35:26.838505  4705 net.cpp:157] Top shape: 2 256 119 119 (7250432)
I0622 01:35:26.838508  4705 net.cpp:165] Memory required for data: 961297968
I0622 01:35:26.838512  4705 layer_factory.hpp:77] Creating layer conv2_3_1x1_increase/bn
I0622 01:35:26.838522  4705 net.cpp:106] Creating Layer conv2_3_1x1_increase/bn
I0622 01:35:26.838526  4705 net.cpp:454] conv2_3_1x1_increase/bn <- conv2_3_1x1_increase
I0622 01:35:26.838531  4705 net.cpp:397] conv2_3_1x1_increase/bn -> conv2_3_1x1_increase (in-place)
I0622 01:35:26.838691  4705 net.cpp:150] Setting up conv2_3_1x1_increase/bn
I0622 01:35:26.838698  4705 net.cpp:157] Top shape: 2 256 119 119 (7250432)
I0622 01:35:26.838702  4705 net.cpp:165] Memory required for data: 990299696
I0622 01:35:26.838740  4705 layer_factory.hpp:77] Creating layer conv2_3
I0622 01:35:26.838754  4705 net.cpp:106] Creating Layer conv2_3
I0622 01:35:26.838758  4705 net.cpp:454] conv2_3 <- conv2_2_conv2_2/relu_0_split_1
I0622 01:35:26.838763  4705 net.cpp:454] conv2_3 <- conv2_3_1x1_increase
I0622 01:35:26.838768  4705 net.cpp:411] conv2_3 -> conv2_3
I0622 01:35:26.838799  4705 net.cpp:150] Setting up conv2_3
I0622 01:35:26.838806  4705 net.cpp:157] Top shape: 2 256 119 119 (7250432)
I0622 01:35:26.838814  4705 net.cpp:165] Memory required for data: 1019301424
I0622 01:35:26.838817  4705 layer_factory.hpp:77] Creating layer conv2_3/relu
I0622 01:35:26.838827  4705 net.cpp:106] Creating Layer conv2_3/relu
I0622 01:35:26.838835  4705 net.cpp:454] conv2_3/relu <- conv2_3
I0622 01:35:26.838845  4705 net.cpp:397] conv2_3/relu -> conv2_3 (in-place)
I0622 01:35:26.838852  4705 net.cpp:150] Setting up conv2_3/relu
I0622 01:35:26.838858  4705 net.cpp:157] Top shape: 2 256 119 119 (7250432)
I0622 01:35:26.838862  4705 net.cpp:165] Memory required for data: 1048303152
I0622 01:35:26.838867  4705 layer_factory.hpp:77] Creating layer conv2_3_conv2_3/relu_0_split
I0622 01:35:26.838877  4705 net.cpp:106] Creating Layer conv2_3_conv2_3/relu_0_split
I0622 01:35:26.838881  4705 net.cpp:454] conv2_3_conv2_3/relu_0_split <- conv2_3
I0622 01:35:26.838887  4705 net.cpp:411] conv2_3_conv2_3/relu_0_split -> conv2_3_conv2_3/relu_0_split_0
I0622 01:35:26.838893  4705 net.cpp:411] conv2_3_conv2_3/relu_0_split -> conv2_3_conv2_3/relu_0_split_1
I0622 01:35:26.838986  4705 net.cpp:150] Setting up conv2_3_conv2_3/relu_0_split
I0622 01:35:26.838992  4705 net.cpp:157] Top shape: 2 256 119 119 (7250432)
I0622 01:35:26.838996  4705 net.cpp:157] Top shape: 2 256 119 119 (7250432)
I0622 01:35:26.839000  4705 net.cpp:165] Memory required for data: 1106306608
I0622 01:35:26.839005  4705 layer_factory.hpp:77] Creating layer conv3_1_1x1_reduce
I0622 01:35:26.839043  4705 net.cpp:106] Creating Layer conv3_1_1x1_reduce
I0622 01:35:26.839048  4705 net.cpp:454] conv3_1_1x1_reduce <- conv2_3_conv2_3/relu_0_split_0
I0622 01:35:26.839056  4705 net.cpp:411] conv3_1_1x1_reduce -> conv3_1_1x1_reduce
I0622 01:35:26.840014  4705 net.cpp:150] Setting up conv3_1_1x1_reduce
I0622 01:35:26.840034  4705 net.cpp:157] Top shape: 2 128 119 119 (3625216)
I0622 01:35:26.840041  4705 net.cpp:165] Memory required for data: 1120807472
I0622 01:35:26.840049  4705 layer_factory.hpp:77] Creating layer conv3_1_1x1_reduce/bn
I0622 01:35:26.840359  4705 net.cpp:106] Creating Layer conv3_1_1x1_reduce/bn
I0622 01:35:26.840368  4705 net.cpp:454] conv3_1_1x1_reduce/bn <- conv3_1_1x1_reduce
I0622 01:35:26.840380  4705 net.cpp:397] conv3_1_1x1_reduce/bn -> conv3_1_1x1_reduce (in-place)
I0622 01:35:26.840623  4705 net.cpp:150] Setting up conv3_1_1x1_reduce/bn
I0622 01:35:26.840632  4705 net.cpp:157] Top shape: 2 128 119 119 (3625216)
I0622 01:35:26.840636  4705 net.cpp:165] Memory required for data: 1135308336
I0622 01:35:26.840646  4705 layer_factory.hpp:77] Creating layer conv3_1_1x1_reduce/relu
I0622 01:35:26.840656  4705 net.cpp:106] Creating Layer conv3_1_1x1_reduce/relu
I0622 01:35:26.840662  4705 net.cpp:454] conv3_1_1x1_reduce/relu <- conv3_1_1x1_reduce
I0622 01:35:26.840669  4705 net.cpp:397] conv3_1_1x1_reduce/relu -> conv3_1_1x1_reduce (in-place)
I0622 01:35:26.840677  4705 net.cpp:150] Setting up conv3_1_1x1_reduce/relu
I0622 01:35:26.840684  4705 net.cpp:157] Top shape: 2 128 119 119 (3625216)
I0622 01:35:26.840687  4705 net.cpp:165] Memory required for data: 1149809200
I0622 01:35:26.840693  4705 layer_factory.hpp:77] Creating layer conv3_1_3x3
I0622 01:35:26.840708  4705 net.cpp:106] Creating Layer conv3_1_3x3
I0622 01:35:26.840713  4705 net.cpp:454] conv3_1_3x3 <- conv3_1_1x1_reduce
I0622 01:35:26.840718  4705 net.cpp:411] conv3_1_3x3 -> conv3_1_3x3
I0622 01:35:26.845369  4705 net.cpp:150] Setting up conv3_1_3x3
I0622 01:35:26.845381  4705 net.cpp:157] Top shape: 2 128 60 60 (921600)
I0622 01:35:26.845384  4705 net.cpp:165] Memory required for data: 1153495600
I0622 01:35:26.845389  4705 layer_factory.hpp:77] Creating layer conv3_1_3x3/bn
I0622 01:35:26.845396  4705 net.cpp:106] Creating Layer conv3_1_3x3/bn
I0622 01:35:26.845398  4705 net.cpp:454] conv3_1_3x3/bn <- conv3_1_3x3
I0622 01:35:26.845403  4705 net.cpp:397] conv3_1_3x3/bn -> conv3_1_3x3 (in-place)
I0622 01:35:26.847748  4705 net.cpp:150] Setting up conv3_1_3x3/bn
I0622 01:35:26.847756  4705 net.cpp:157] Top shape: 2 128 60 60 (921600)
I0622 01:35:26.847759  4705 net.cpp:165] Memory required for data: 1157182000
I0622 01:35:26.847765  4705 layer_factory.hpp:77] Creating layer conv3_1_3x3/relu
I0622 01:35:26.847771  4705 net.cpp:106] Creating Layer conv3_1_3x3/relu
I0622 01:35:26.847774  4705 net.cpp:454] conv3_1_3x3/relu <- conv3_1_3x3
I0622 01:35:26.847779  4705 net.cpp:397] conv3_1_3x3/relu -> conv3_1_3x3 (in-place)
I0622 01:35:26.847784  4705 net.cpp:150] Setting up conv3_1_3x3/relu
I0622 01:35:26.847787  4705 net.cpp:157] Top shape: 2 128 60 60 (921600)
I0622 01:35:26.847790  4705 net.cpp:165] Memory required for data: 1160868400
I0622 01:35:26.847792  4705 layer_factory.hpp:77] Creating layer conv3_1_1x1_increase
I0622 01:35:26.847800  4705 net.cpp:106] Creating Layer conv3_1_1x1_increase
I0622 01:35:26.847802  4705 net.cpp:454] conv3_1_1x1_increase <- conv3_1_3x3
I0622 01:35:26.847806  4705 net.cpp:411] conv3_1_1x1_increase -> conv3_1_1x1_increase
I0622 01:35:26.849351  4705 net.cpp:150] Setting up conv3_1_1x1_increase
I0622 01:35:26.849359  4705 net.cpp:157] Top shape: 2 512 60 60 (3686400)
I0622 01:35:26.849370  4705 net.cpp:165] Memory required for data: 1175614000
I0622 01:35:26.849375  4705 layer_factory.hpp:77] Creating layer conv3_1_1x1_increase/bn
I0622 01:35:26.849380  4705 net.cpp:106] Creating Layer conv3_1_1x1_increase/bn
I0622 01:35:26.849382  4705 net.cpp:454] conv3_1_1x1_increase/bn <- conv3_1_1x1_increase
I0622 01:35:26.849387  4705 net.cpp:397] conv3_1_1x1_increase/bn -> conv3_1_1x1_increase (in-place)
I0622 01:35:26.850076  4705 net.cpp:150] Setting up conv3_1_1x1_increase/bn
I0622 01:35:26.850083  4705 net.cpp:157] Top shape: 2 512 60 60 (3686400)
I0622 01:35:26.850086  4705 net.cpp:165] Memory required for data: 1190359600
I0622 01:35:26.850092  4705 layer_factory.hpp:77] Creating layer conv3_1_1x1_proj
I0622 01:35:26.850100  4705 net.cpp:106] Creating Layer conv3_1_1x1_proj
I0622 01:35:26.850105  4705 net.cpp:454] conv3_1_1x1_proj <- conv2_3_conv2_3/relu_0_split_1
I0622 01:35:26.850108  4705 net.cpp:411] conv3_1_1x1_proj -> conv3_1_1x1_proj
I0622 01:35:26.853190  4705 net.cpp:150] Setting up conv3_1_1x1_proj
I0622 01:35:26.853255  4705 net.cpp:157] Top shape: 2 512 60 60 (3686400)
I0622 01:35:26.853260  4705 net.cpp:165] Memory required for data: 1205105200
I0622 01:35:26.853272  4705 layer_factory.hpp:77] Creating layer conv3_1_1x1_proj/bn
I0622 01:35:26.853293  4705 net.cpp:106] Creating Layer conv3_1_1x1_proj/bn
I0622 01:35:26.853303  4705 net.cpp:454] conv3_1_1x1_proj/bn <- conv3_1_1x1_proj
I0622 01:35:26.853312  4705 net.cpp:397] conv3_1_1x1_proj/bn -> conv3_1_1x1_proj (in-place)
I0622 01:35:26.853497  4705 net.cpp:150] Setting up conv3_1_1x1_proj/bn
I0622 01:35:26.853502  4705 net.cpp:157] Top shape: 2 512 60 60 (3686400)
I0622 01:35:26.853504  4705 net.cpp:165] Memory required for data: 1219850800
I0622 01:35:26.853509  4705 layer_factory.hpp:77] Creating layer conv3_1
I0622 01:35:26.853518  4705 net.cpp:106] Creating Layer conv3_1
I0622 01:35:26.853520  4705 net.cpp:454] conv3_1 <- conv3_1_1x1_proj
I0622 01:35:26.853524  4705 net.cpp:454] conv3_1 <- conv3_1_1x1_increase
I0622 01:35:26.853528  4705 net.cpp:411] conv3_1 -> conv3_1
I0622 01:35:26.853559  4705 net.cpp:150] Setting up conv3_1
I0622 01:35:26.853564  4705 net.cpp:157] Top shape: 2 512 60 60 (3686400)
I0622 01:35:26.853567  4705 net.cpp:165] Memory required for data: 1234596400
I0622 01:35:26.853570  4705 layer_factory.hpp:77] Creating layer conv3_1/relu
I0622 01:35:26.853576  4705 net.cpp:106] Creating Layer conv3_1/relu
I0622 01:35:26.853579  4705 net.cpp:454] conv3_1/relu <- conv3_1
I0622 01:35:26.853581  4705 net.cpp:397] conv3_1/relu -> conv3_1 (in-place)
I0622 01:35:26.853586  4705 net.cpp:150] Setting up conv3_1/relu
I0622 01:35:26.853590  4705 net.cpp:157] Top shape: 2 512 60 60 (3686400)
I0622 01:35:26.853592  4705 net.cpp:165] Memory required for data: 1249342000
I0622 01:35:26.853595  4705 layer_factory.hpp:77] Creating layer conv3_1_conv3_1/relu_0_split
I0622 01:35:26.853601  4705 net.cpp:106] Creating Layer conv3_1_conv3_1/relu_0_split
I0622 01:35:26.853605  4705 net.cpp:454] conv3_1_conv3_1/relu_0_split <- conv3_1
I0622 01:35:26.853607  4705 net.cpp:411] conv3_1_conv3_1/relu_0_split -> conv3_1_conv3_1/relu_0_split_0
I0622 01:35:26.853611  4705 net.cpp:411] conv3_1_conv3_1/relu_0_split -> conv3_1_conv3_1/relu_0_split_1
I0622 01:35:26.853632  4705 net.cpp:150] Setting up conv3_1_conv3_1/relu_0_split
I0622 01:35:26.853636  4705 net.cpp:157] Top shape: 2 512 60 60 (3686400)
I0622 01:35:26.853638  4705 net.cpp:157] Top shape: 2 512 60 60 (3686400)
I0622 01:35:26.853641  4705 net.cpp:165] Memory required for data: 1278833200
I0622 01:35:26.853644  4705 layer_factory.hpp:77] Creating layer conv3_2_1x1_reduce
I0622 01:35:26.853652  4705 net.cpp:106] Creating Layer conv3_2_1x1_reduce
I0622 01:35:26.853654  4705 net.cpp:454] conv3_2_1x1_reduce <- conv3_1_conv3_1/relu_0_split_0
I0622 01:35:26.853658  4705 net.cpp:411] conv3_2_1x1_reduce -> conv3_2_1x1_reduce
I0622 01:35:26.855816  4705 net.cpp:150] Setting up conv3_2_1x1_reduce
I0622 01:35:26.855852  4705 net.cpp:157] Top shape: 2 128 60 60 (921600)
I0622 01:35:26.855891  4705 net.cpp:165] Memory required for data: 1282519600
I0622 01:35:26.855902  4705 layer_factory.hpp:77] Creating layer conv3_2_1x1_reduce/bn
I0622 01:35:26.855917  4705 net.cpp:106] Creating Layer conv3_2_1x1_reduce/bn
I0622 01:35:26.855923  4705 net.cpp:454] conv3_2_1x1_reduce/bn <- conv3_2_1x1_reduce
I0622 01:35:26.855931  4705 net.cpp:397] conv3_2_1x1_reduce/bn -> conv3_2_1x1_reduce (in-place)
I0622 01:35:26.856123  4705 net.cpp:150] Setting up conv3_2_1x1_reduce/bn
I0622 01:35:26.856132  4705 net.cpp:157] Top shape: 2 128 60 60 (921600)
I0622 01:35:26.856134  4705 net.cpp:165] Memory required for data: 1286206000
I0622 01:35:26.856140  4705 layer_factory.hpp:77] Creating layer conv3_2_1x1_reduce/relu
I0622 01:35:26.856148  4705 net.cpp:106] Creating Layer conv3_2_1x1_reduce/relu
I0622 01:35:26.856151  4705 net.cpp:454] conv3_2_1x1_reduce/relu <- conv3_2_1x1_reduce
I0622 01:35:26.867676  4705 net.cpp:397] conv3_2_1x1_reduce/relu -> conv3_2_1x1_reduce (in-place)
I0622 01:35:26.867748  4705 net.cpp:150] Setting up conv3_2_1x1_reduce/relu
I0622 01:35:26.867765  4705 net.cpp:157] Top shape: 2 128 60 60 (921600)
I0622 01:35:26.867770  4705 net.cpp:165] Memory required for data: 1289892400
I0622 01:35:26.867779  4705 layer_factory.hpp:77] Creating layer conv3_2_3x3
I0622 01:35:26.867806  4705 net.cpp:106] Creating Layer conv3_2_3x3
I0622 01:35:26.867812  4705 net.cpp:454] conv3_2_3x3 <- conv3_2_1x1_reduce
I0622 01:35:26.867837  4705 net.cpp:411] conv3_2_3x3 -> conv3_2_3x3
I0622 01:35:26.874318  4705 net.cpp:150] Setting up conv3_2_3x3
I0622 01:35:26.874351  4705 net.cpp:157] Top shape: 2 128 60 60 (921600)
I0622 01:35:26.874353  4705 net.cpp:165] Memory required for data: 1293578800
I0622 01:35:26.874363  4705 layer_factory.hpp:77] Creating layer conv3_2_3x3/bn
I0622 01:35:26.874380  4705 net.cpp:106] Creating Layer conv3_2_3x3/bn
I0622 01:35:26.874387  4705 net.cpp:454] conv3_2_3x3/bn <- conv3_2_3x3
I0622 01:35:26.874392  4705 net.cpp:397] conv3_2_3x3/bn -> conv3_2_3x3 (in-place)
I0622 01:35:26.875128  4705 net.cpp:150] Setting up conv3_2_3x3/bn
I0622 01:35:26.875134  4705 net.cpp:157] Top shape: 2 128 60 60 (921600)
I0622 01:35:26.875138  4705 net.cpp:165] Memory required for data: 1297265200
I0622 01:35:26.875143  4705 layer_factory.hpp:77] Creating layer conv3_2_3x3/relu
I0622 01:35:26.875149  4705 net.cpp:106] Creating Layer conv3_2_3x3/relu
I0622 01:35:26.875152  4705 net.cpp:454] conv3_2_3x3/relu <- conv3_2_3x3
I0622 01:35:26.875156  4705 net.cpp:397] conv3_2_3x3/relu -> conv3_2_3x3 (in-place)
I0622 01:35:26.875160  4705 net.cpp:150] Setting up conv3_2_3x3/relu
I0622 01:35:26.875164  4705 net.cpp:157] Top shape: 2 128 60 60 (921600)
I0622 01:35:26.875166  4705 net.cpp:165] Memory required for data: 1300951600
I0622 01:35:26.875169  4705 layer_factory.hpp:77] Creating layer conv3_2_1x1_increase
I0622 01:35:26.875176  4705 net.cpp:106] Creating Layer conv3_2_1x1_increase
I0622 01:35:26.875180  4705 net.cpp:454] conv3_2_1x1_increase <- conv3_2_3x3
I0622 01:35:26.875185  4705 net.cpp:411] conv3_2_1x1_increase -> conv3_2_1x1_increase
I0622 01:35:26.877426  4705 net.cpp:150] Setting up conv3_2_1x1_increase
I0622 01:35:26.877437  4705 net.cpp:157] Top shape: 2 512 60 60 (3686400)
I0622 01:35:26.877440  4705 net.cpp:165] Memory required for data: 1315697200
I0622 01:35:26.877444  4705 layer_factory.hpp:77] Creating layer conv3_2_1x1_increase/bn
I0622 01:35:26.877450  4705 net.cpp:106] Creating Layer conv3_2_1x1_increase/bn
I0622 01:35:26.877454  4705 net.cpp:454] conv3_2_1x1_increase/bn <- conv3_2_1x1_increase
I0622 01:35:26.877459  4705 net.cpp:397] conv3_2_1x1_increase/bn -> conv3_2_1x1_increase (in-place)
I0622 01:35:26.877586  4705 net.cpp:150] Setting up conv3_2_1x1_increase/bn
I0622 01:35:26.877590  4705 net.cpp:157] Top shape: 2 512 60 60 (3686400)
I0622 01:35:26.877593  4705 net.cpp:165] Memory required for data: 1330442800
I0622 01:35:26.877599  4705 layer_factory.hpp:77] Creating layer conv3_2
I0622 01:35:26.877604  4705 net.cpp:106] Creating Layer conv3_2
I0622 01:35:26.877606  4705 net.cpp:454] conv3_2 <- conv3_1_conv3_1/relu_0_split_1
I0622 01:35:26.877622  4705 net.cpp:454] conv3_2 <- conv3_2_1x1_increase
I0622 01:35:26.877627  4705 net.cpp:411] conv3_2 -> conv3_2
I0622 01:35:26.877645  4705 net.cpp:150] Setting up conv3_2
I0622 01:35:26.877648  4705 net.cpp:157] Top shape: 2 512 60 60 (3686400)
I0622 01:35:26.877650  4705 net.cpp:165] Memory required for data: 1345188400
I0622 01:35:26.877653  4705 layer_factory.hpp:77] Creating layer conv3_2/relu
I0622 01:35:26.877660  4705 net.cpp:106] Creating Layer conv3_2/relu
I0622 01:35:26.877661  4705 net.cpp:454] conv3_2/relu <- conv3_2
I0622 01:35:26.877665  4705 net.cpp:397] conv3_2/relu -> conv3_2 (in-place)
I0622 01:35:26.877668  4705 net.cpp:150] Setting up conv3_2/relu
I0622 01:35:26.877672  4705 net.cpp:157] Top shape: 2 512 60 60 (3686400)
I0622 01:35:26.877674  4705 net.cpp:165] Memory required for data: 1359934000
I0622 01:35:26.877677  4705 layer_factory.hpp:77] Creating layer conv3_2_conv3_2/relu_0_split
I0622 01:35:26.877682  4705 net.cpp:106] Creating Layer conv3_2_conv3_2/relu_0_split
I0622 01:35:26.877686  4705 net.cpp:454] conv3_2_conv3_2/relu_0_split <- conv3_2
I0622 01:35:26.877688  4705 net.cpp:411] conv3_2_conv3_2/relu_0_split -> conv3_2_conv3_2/relu_0_split_0
I0622 01:35:26.877692  4705 net.cpp:411] conv3_2_conv3_2/relu_0_split -> conv3_2_conv3_2/relu_0_split_1
I0622 01:35:26.877713  4705 net.cpp:150] Setting up conv3_2_conv3_2/relu_0_split
I0622 01:35:26.877717  4705 net.cpp:157] Top shape: 2 512 60 60 (3686400)
I0622 01:35:26.877720  4705 net.cpp:157] Top shape: 2 512 60 60 (3686400)
I0622 01:35:26.877722  4705 net.cpp:165] Memory required for data: 1389425200
I0622 01:35:26.877725  4705 layer_factory.hpp:77] Creating layer conv3_3_1x1_reduce
I0622 01:35:26.877732  4705 net.cpp:106] Creating Layer conv3_3_1x1_reduce
I0622 01:35:26.877734  4705 net.cpp:454] conv3_3_1x1_reduce <- conv3_2_conv3_2/relu_0_split_0
I0622 01:35:26.877738  4705 net.cpp:411] conv3_3_1x1_reduce -> conv3_3_1x1_reduce
I0622 01:35:26.879365  4705 net.cpp:150] Setting up conv3_3_1x1_reduce
I0622 01:35:26.879374  4705 net.cpp:157] Top shape: 2 128 60 60 (921600)
I0622 01:35:26.879377  4705 net.cpp:165] Memory required for data: 1393111600
I0622 01:35:26.879384  4705 layer_factory.hpp:77] Creating layer conv3_3_1x1_reduce/bn
I0622 01:35:26.879391  4705 net.cpp:106] Creating Layer conv3_3_1x1_reduce/bn
I0622 01:35:26.879395  4705 net.cpp:454] conv3_3_1x1_reduce/bn <- conv3_3_1x1_reduce
I0622 01:35:26.879400  4705 net.cpp:397] conv3_3_1x1_reduce/bn -> conv3_3_1x1_reduce (in-place)
I0622 01:35:26.879536  4705 net.cpp:150] Setting up conv3_3_1x1_reduce/bn
I0622 01:35:26.879541  4705 net.cpp:157] Top shape: 2 128 60 60 (921600)
I0622 01:35:26.879544  4705 net.cpp:165] Memory required for data: 1396798000
I0622 01:35:26.879549  4705 layer_factory.hpp:77] Creating layer conv3_3_1x1_reduce/relu
I0622 01:35:26.879554  4705 net.cpp:106] Creating Layer conv3_3_1x1_reduce/relu
I0622 01:35:26.879556  4705 net.cpp:454] conv3_3_1x1_reduce/relu <- conv3_3_1x1_reduce
I0622 01:35:26.879559  4705 net.cpp:397] conv3_3_1x1_reduce/relu -> conv3_3_1x1_reduce (in-place)
I0622 01:35:26.879564  4705 net.cpp:150] Setting up conv3_3_1x1_reduce/relu
I0622 01:35:26.879567  4705 net.cpp:157] Top shape: 2 128 60 60 (921600)
I0622 01:35:26.879570  4705 net.cpp:165] Memory required for data: 1400484400
I0622 01:35:26.879572  4705 layer_factory.hpp:77] Creating layer conv3_3_3x3
I0622 01:35:26.879577  4705 net.cpp:106] Creating Layer conv3_3_3x3
I0622 01:35:26.879580  4705 net.cpp:454] conv3_3_3x3 <- conv3_3_1x1_reduce
I0622 01:35:26.879585  4705 net.cpp:411] conv3_3_3x3 -> conv3_3_3x3
I0622 01:35:26.884009  4705 net.cpp:150] Setting up conv3_3_3x3
I0622 01:35:26.884055  4705 net.cpp:157] Top shape: 2 128 60 60 (921600)
I0622 01:35:26.884058  4705 net.cpp:165] Memory required for data: 1404170800
I0622 01:35:26.884069  4705 layer_factory.hpp:77] Creating layer conv3_3_3x3/bn
I0622 01:35:26.884081  4705 net.cpp:106] Creating Layer conv3_3_3x3/bn
I0622 01:35:26.884085  4705 net.cpp:454] conv3_3_3x3/bn <- conv3_3_3x3
I0622 01:35:26.884105  4705 net.cpp:397] conv3_3_3x3/bn -> conv3_3_3x3 (in-place)
I0622 01:35:26.884263  4705 net.cpp:150] Setting up conv3_3_3x3/bn
I0622 01:35:26.884268  4705 net.cpp:157] Top shape: 2 128 60 60 (921600)
I0622 01:35:26.884270  4705 net.cpp:165] Memory required for data: 1407857200
I0622 01:35:26.884275  4705 layer_factory.hpp:77] Creating layer conv3_3_3x3/relu
I0622 01:35:26.884279  4705 net.cpp:106] Creating Layer conv3_3_3x3/relu
I0622 01:35:26.884281  4705 net.cpp:454] conv3_3_3x3/relu <- conv3_3_3x3
I0622 01:35:26.884284  4705 net.cpp:397] conv3_3_3x3/relu -> conv3_3_3x3 (in-place)
I0622 01:35:26.884289  4705 net.cpp:150] Setting up conv3_3_3x3/relu
I0622 01:35:26.884290  4705 net.cpp:157] Top shape: 2 128 60 60 (921600)
I0622 01:35:26.884292  4705 net.cpp:165] Memory required for data: 1411543600
I0622 01:35:26.884295  4705 layer_factory.hpp:77] Creating layer conv3_3_1x1_increase
I0622 01:35:26.884301  4705 net.cpp:106] Creating Layer conv3_3_1x1_increase
I0622 01:35:26.884304  4705 net.cpp:454] conv3_3_1x1_increase <- conv3_3_3x3
I0622 01:35:26.884308  4705 net.cpp:411] conv3_3_1x1_increase -> conv3_3_1x1_increase
I0622 01:35:26.885830  4705 net.cpp:150] Setting up conv3_3_1x1_increase
I0622 01:35:26.885835  4705 net.cpp:157] Top shape: 2 512 60 60 (3686400)
I0622 01:35:26.885838  4705 net.cpp:165] Memory required for data: 1426289200
I0622 01:35:26.885841  4705 layer_factory.hpp:77] Creating layer conv3_3_1x1_increase/bn
I0622 01:35:26.885848  4705 net.cpp:106] Creating Layer conv3_3_1x1_increase/bn
I0622 01:35:26.885850  4705 net.cpp:454] conv3_3_1x1_increase/bn <- conv3_3_1x1_increase
I0622 01:35:26.885854  4705 net.cpp:397] conv3_3_1x1_increase/bn -> conv3_3_1x1_increase (in-place)
I0622 01:35:26.885979  4705 net.cpp:150] Setting up conv3_3_1x1_increase/bn
I0622 01:35:26.885983  4705 net.cpp:157] Top shape: 2 512 60 60 (3686400)
I0622 01:35:26.885987  4705 net.cpp:165] Memory required for data: 1441034800
I0622 01:35:26.885992  4705 layer_factory.hpp:77] Creating layer conv3_3
I0622 01:35:26.885998  4705 net.cpp:106] Creating Layer conv3_3
I0622 01:35:26.886000  4705 net.cpp:454] conv3_3 <- conv3_2_conv3_2/relu_0_split_1
I0622 01:35:26.886003  4705 net.cpp:454] conv3_3 <- conv3_3_1x1_increase
I0622 01:35:26.886008  4705 net.cpp:411] conv3_3 -> conv3_3
I0622 01:35:26.886023  4705 net.cpp:150] Setting up conv3_3
I0622 01:35:26.886026  4705 net.cpp:157] Top shape: 2 512 60 60 (3686400)
I0622 01:35:26.886029  4705 net.cpp:165] Memory required for data: 1455780400
I0622 01:35:26.886031  4705 layer_factory.hpp:77] Creating layer conv3_3/relu
I0622 01:35:26.886035  4705 net.cpp:106] Creating Layer conv3_3/relu
I0622 01:35:26.886039  4705 net.cpp:454] conv3_3/relu <- conv3_3
I0622 01:35:26.886042  4705 net.cpp:397] conv3_3/relu -> conv3_3 (in-place)
I0622 01:35:26.886047  4705 net.cpp:150] Setting up conv3_3/relu
I0622 01:35:26.886050  4705 net.cpp:157] Top shape: 2 512 60 60 (3686400)
I0622 01:35:26.886052  4705 net.cpp:165] Memory required for data: 1470526000
I0622 01:35:26.886055  4705 layer_factory.hpp:77] Creating layer conv3_3_conv3_3/relu_0_split
I0622 01:35:26.886060  4705 net.cpp:106] Creating Layer conv3_3_conv3_3/relu_0_split
I0622 01:35:26.886063  4705 net.cpp:454] conv3_3_conv3_3/relu_0_split <- conv3_3
I0622 01:35:26.886066  4705 net.cpp:411] conv3_3_conv3_3/relu_0_split -> conv3_3_conv3_3/relu_0_split_0
I0622 01:35:26.886070  4705 net.cpp:411] conv3_3_conv3_3/relu_0_split -> conv3_3_conv3_3/relu_0_split_1
I0622 01:35:26.886092  4705 net.cpp:150] Setting up conv3_3_conv3_3/relu_0_split
I0622 01:35:26.886096  4705 net.cpp:157] Top shape: 2 512 60 60 (3686400)
I0622 01:35:26.886099  4705 net.cpp:157] Top shape: 2 512 60 60 (3686400)
I0622 01:35:26.886101  4705 net.cpp:165] Memory required for data: 1500017200
I0622 01:35:26.886104  4705 layer_factory.hpp:77] Creating layer conv3_4_1x1_reduce
I0622 01:35:26.886109  4705 net.cpp:106] Creating Layer conv3_4_1x1_reduce
I0622 01:35:26.886112  4705 net.cpp:454] conv3_4_1x1_reduce <- conv3_3_conv3_3/relu_0_split_0
I0622 01:35:26.886117  4705 net.cpp:411] conv3_4_1x1_reduce -> conv3_4_1x1_reduce
I0622 01:35:26.887696  4705 net.cpp:150] Setting up conv3_4_1x1_reduce
I0622 01:35:26.887702  4705 net.cpp:157] Top shape: 2 128 60 60 (921600)
I0622 01:35:26.887706  4705 net.cpp:165] Memory required for data: 1503703600
I0622 01:35:26.887709  4705 layer_factory.hpp:77] Creating layer conv3_4_1x1_reduce/bn
I0622 01:35:26.887714  4705 net.cpp:106] Creating Layer conv3_4_1x1_reduce/bn
I0622 01:35:26.887717  4705 net.cpp:454] conv3_4_1x1_reduce/bn <- conv3_4_1x1_reduce
I0622 01:35:26.887722  4705 net.cpp:397] conv3_4_1x1_reduce/bn -> conv3_4_1x1_reduce (in-place)
I0622 01:35:26.887859  4705 net.cpp:150] Setting up conv3_4_1x1_reduce/bn
I0622 01:35:26.887866  4705 net.cpp:157] Top shape: 2 128 60 60 (921600)
I0622 01:35:26.887868  4705 net.cpp:165] Memory required for data: 1507390000
I0622 01:35:26.887874  4705 layer_factory.hpp:77] Creating layer conv3_4_1x1_reduce/relu
I0622 01:35:26.887878  4705 net.cpp:106] Creating Layer conv3_4_1x1_reduce/relu
I0622 01:35:26.887881  4705 net.cpp:454] conv3_4_1x1_reduce/relu <- conv3_4_1x1_reduce
I0622 01:35:26.887886  4705 net.cpp:397] conv3_4_1x1_reduce/relu -> conv3_4_1x1_reduce (in-place)
I0622 01:35:26.887889  4705 net.cpp:150] Setting up conv3_4_1x1_reduce/relu
I0622 01:35:26.887895  4705 net.cpp:157] Top shape: 2 128 60 60 (921600)
I0622 01:35:26.887898  4705 net.cpp:165] Memory required for data: 1511076400
I0622 01:35:26.887903  4705 layer_factory.hpp:77] Creating layer conv3_4_3x3
I0622 01:35:26.887912  4705 net.cpp:106] Creating Layer conv3_4_3x3
I0622 01:35:26.887917  4705 net.cpp:454] conv3_4_3x3 <- conv3_4_1x1_reduce
I0622 01:35:26.887922  4705 net.cpp:411] conv3_4_3x3 -> conv3_4_3x3
I0622 01:35:26.892256  4705 net.cpp:150] Setting up conv3_4_3x3
I0622 01:35:26.892297  4705 net.cpp:157] Top shape: 2 128 60 60 (921600)
I0622 01:35:26.892300  4705 net.cpp:165] Memory required for data: 1514762800
I0622 01:35:26.892314  4705 layer_factory.hpp:77] Creating layer conv3_4_3x3/bn
I0622 01:35:26.892335  4705 net.cpp:106] Creating Layer conv3_4_3x3/bn
I0622 01:35:26.892344  4705 net.cpp:454] conv3_4_3x3/bn <- conv3_4_3x3
I0622 01:35:26.892359  4705 net.cpp:397] conv3_4_3x3/bn -> conv3_4_3x3 (in-place)
I0622 01:35:26.892551  4705 net.cpp:150] Setting up conv3_4_3x3/bn
I0622 01:35:26.892557  4705 net.cpp:157] Top shape: 2 128 60 60 (921600)
I0622 01:35:26.892561  4705 net.cpp:165] Memory required for data: 1518449200
I0622 01:35:26.892570  4705 layer_factory.hpp:77] Creating layer conv3_4_3x3/relu
I0622 01:35:26.892578  4705 net.cpp:106] Creating Layer conv3_4_3x3/relu
I0622 01:35:26.892582  4705 net.cpp:454] conv3_4_3x3/relu <- conv3_4_3x3
I0622 01:35:26.892588  4705 net.cpp:397] conv3_4_3x3/relu -> conv3_4_3x3 (in-place)
I0622 01:35:26.892594  4705 net.cpp:150] Setting up conv3_4_3x3/relu
I0622 01:35:26.892599  4705 net.cpp:157] Top shape: 2 128 60 60 (921600)
I0622 01:35:26.892603  4705 net.cpp:165] Memory required for data: 1522135600
I0622 01:35:26.892607  4705 layer_factory.hpp:77] Creating layer conv3_4_1x1_increase
I0622 01:35:26.892616  4705 net.cpp:106] Creating Layer conv3_4_1x1_increase
I0622 01:35:26.892619  4705 net.cpp:454] conv3_4_1x1_increase <- conv3_4_3x3
I0622 01:35:26.892627  4705 net.cpp:411] conv3_4_1x1_increase -> conv3_4_1x1_increase
I0622 01:35:26.894634  4705 net.cpp:150] Setting up conv3_4_1x1_increase
I0622 01:35:26.894644  4705 net.cpp:157] Top shape: 2 512 60 60 (3686400)
I0622 01:35:26.894647  4705 net.cpp:165] Memory required for data: 1536881200
I0622 01:35:26.894654  4705 layer_factory.hpp:77] Creating layer conv3_4_1x1_increase/bn
I0622 01:35:26.894660  4705 net.cpp:106] Creating Layer conv3_4_1x1_increase/bn
I0622 01:35:26.894665  4705 net.cpp:454] conv3_4_1x1_increase/bn <- conv3_4_1x1_increase
I0622 01:35:26.894671  4705 net.cpp:397] conv3_4_1x1_increase/bn -> conv3_4_1x1_increase (in-place)
I0622 01:35:26.894845  4705 net.cpp:150] Setting up conv3_4_1x1_increase/bn
I0622 01:35:26.894850  4705 net.cpp:157] Top shape: 2 512 60 60 (3686400)
I0622 01:35:26.894855  4705 net.cpp:165] Memory required for data: 1551626800
I0622 01:35:26.894897  4705 layer_factory.hpp:77] Creating layer conv3_4
I0622 01:35:26.894906  4705 net.cpp:106] Creating Layer conv3_4
I0622 01:35:26.898589  4705 net.cpp:454] conv3_4 <- conv3_3_conv3_3/relu_0_split_1
I0622 01:35:26.898597  4705 net.cpp:454] conv3_4 <- conv3_4_1x1_increase
I0622 01:35:26.898603  4705 net.cpp:411] conv3_4 -> conv3_4
I0622 01:35:26.898854  4705 net.cpp:150] Setting up conv3_4
I0622 01:35:26.898860  4705 net.cpp:157] Top shape: 2 512 60 60 (3686400)
I0622 01:35:26.898864  4705 net.cpp:165] Memory required for data: 1566372400
I0622 01:35:26.898869  4705 layer_factory.hpp:77] Creating layer conv3_4/relu
I0622 01:35:26.898876  4705 net.cpp:106] Creating Layer conv3_4/relu
I0622 01:35:26.898880  4705 net.cpp:454] conv3_4/relu <- conv3_4
I0622 01:35:26.898885  4705 net.cpp:397] conv3_4/relu -> conv3_4 (in-place)
I0622 01:35:26.898890  4705 net.cpp:150] Setting up conv3_4/relu
I0622 01:35:26.898895  4705 net.cpp:157] Top shape: 2 512 60 60 (3686400)
I0622 01:35:26.898900  4705 net.cpp:165] Memory required for data: 1581118000
I0622 01:35:26.898902  4705 layer_factory.hpp:77] Creating layer conv3_4_conv3_4/relu_0_split
I0622 01:35:26.898907  4705 net.cpp:106] Creating Layer conv3_4_conv3_4/relu_0_split
I0622 01:35:26.898911  4705 net.cpp:454] conv3_4_conv3_4/relu_0_split <- conv3_4
I0622 01:35:26.898917  4705 net.cpp:411] conv3_4_conv3_4/relu_0_split -> conv3_4_conv3_4/relu_0_split_0
I0622 01:35:26.898922  4705 net.cpp:411] conv3_4_conv3_4/relu_0_split -> conv3_4_conv3_4/relu_0_split_1
I0622 01:35:26.898947  4705 net.cpp:150] Setting up conv3_4_conv3_4/relu_0_split
I0622 01:35:26.898950  4705 net.cpp:157] Top shape: 2 512 60 60 (3686400)
I0622 01:35:26.898953  4705 net.cpp:157] Top shape: 2 512 60 60 (3686400)
I0622 01:35:26.898957  4705 net.cpp:165] Memory required for data: 1610609200
I0622 01:35:26.898958  4705 layer_factory.hpp:77] Creating layer conv4_1_1x1_reduce
I0622 01:35:26.898965  4705 net.cpp:106] Creating Layer conv4_1_1x1_reduce
I0622 01:35:26.898969  4705 net.cpp:454] conv4_1_1x1_reduce <- conv3_4_conv3_4/relu_0_split_0
I0622 01:35:26.898973  4705 net.cpp:411] conv4_1_1x1_reduce -> conv4_1_1x1_reduce
I0622 01:35:26.902722  4705 net.cpp:150] Setting up conv4_1_1x1_reduce
I0622 01:35:26.902736  4705 net.cpp:157] Top shape: 2 256 60 60 (1843200)
I0622 01:35:26.902740  4705 net.cpp:165] Memory required for data: 1617982000
I0622 01:35:26.902745  4705 layer_factory.hpp:77] Creating layer conv4_1_1x1_reduce/bn
I0622 01:35:26.902753  4705 net.cpp:106] Creating Layer conv4_1_1x1_reduce/bn
I0622 01:35:26.902757  4705 net.cpp:454] conv4_1_1x1_reduce/bn <- conv4_1_1x1_reduce
I0622 01:35:26.902761  4705 net.cpp:397] conv4_1_1x1_reduce/bn -> conv4_1_1x1_reduce (in-place)
I0622 01:35:26.902925  4705 net.cpp:150] Setting up conv4_1_1x1_reduce/bn
I0622 01:35:26.902932  4705 net.cpp:157] Top shape: 2 256 60 60 (1843200)
I0622 01:35:26.902936  4705 net.cpp:165] Memory required for data: 1625354800
I0622 01:35:26.902945  4705 layer_factory.hpp:77] Creating layer conv4_1_1x1_reduce/relu
I0622 01:35:26.902951  4705 net.cpp:106] Creating Layer conv4_1_1x1_reduce/relu
I0622 01:35:26.902953  4705 net.cpp:454] conv4_1_1x1_reduce/relu <- conv4_1_1x1_reduce
I0622 01:35:26.902956  4705 net.cpp:397] conv4_1_1x1_reduce/relu -> conv4_1_1x1_reduce (in-place)
I0622 01:35:26.902961  4705 net.cpp:150] Setting up conv4_1_1x1_reduce/relu
I0622 01:35:26.902964  4705 net.cpp:157] Top shape: 2 256 60 60 (1843200)
I0622 01:35:26.902967  4705 net.cpp:165] Memory required for data: 1632727600
I0622 01:35:26.902969  4705 layer_factory.hpp:77] Creating layer conv4_1_3x3
I0622 01:35:26.902977  4705 net.cpp:106] Creating Layer conv4_1_3x3
I0622 01:35:26.902981  4705 net.cpp:454] conv4_1_3x3 <- conv4_1_1x1_reduce
I0622 01:35:26.902987  4705 net.cpp:411] conv4_1_3x3 -> conv4_1_3x3
I0622 01:35:26.920234  4705 net.cpp:150] Setting up conv4_1_3x3
I0622 01:35:26.920330  4705 net.cpp:157] Top shape: 2 256 60 60 (1843200)
I0622 01:35:26.920337  4705 net.cpp:165] Memory required for data: 1640100400
I0622 01:35:26.920425  4705 layer_factory.hpp:77] Creating layer conv4_1_3x3/bn
I0622 01:35:26.920460  4705 net.cpp:106] Creating Layer conv4_1_3x3/bn
I0622 01:35:26.920472  4705 net.cpp:454] conv4_1_3x3/bn <- conv4_1_3x3
I0622 01:35:26.920486  4705 net.cpp:397] conv4_1_3x3/bn -> conv4_1_3x3 (in-place)
I0622 01:35:26.920758  4705 net.cpp:150] Setting up conv4_1_3x3/bn
I0622 01:35:26.920768  4705 net.cpp:157] Top shape: 2 256 60 60 (1843200)
I0622 01:35:26.920773  4705 net.cpp:165] Memory required for data: 1647473200
I0622 01:35:26.920783  4705 layer_factory.hpp:77] Creating layer conv4_1_3x3/relu
I0622 01:35:26.920799  4705 net.cpp:106] Creating Layer conv4_1_3x3/relu
I0622 01:35:26.920806  4705 net.cpp:454] conv4_1_3x3/relu <- conv4_1_3x3
I0622 01:35:26.920812  4705 net.cpp:397] conv4_1_3x3/relu -> conv4_1_3x3 (in-place)
I0622 01:35:26.920819  4705 net.cpp:150] Setting up conv4_1_3x3/relu
I0622 01:35:26.920825  4705 net.cpp:157] Top shape: 2 256 60 60 (1843200)
I0622 01:35:26.920830  4705 net.cpp:165] Memory required for data: 1654846000
I0622 01:35:26.920833  4705 layer_factory.hpp:77] Creating layer conv4_1_1x1_increase
I0622 01:35:26.920850  4705 net.cpp:106] Creating Layer conv4_1_1x1_increase
I0622 01:35:26.920855  4705 net.cpp:454] conv4_1_1x1_increase <- conv4_1_3x3
I0622 01:35:26.920862  4705 net.cpp:411] conv4_1_1x1_increase -> conv4_1_1x1_increase
I0622 01:35:26.929867  4705 net.cpp:150] Setting up conv4_1_1x1_increase
I0622 01:35:26.929886  4705 net.cpp:157] Top shape: 2 1024 60 60 (7372800)
I0622 01:35:26.929891  4705 net.cpp:165] Memory required for data: 1684337200
I0622 01:35:26.929903  4705 layer_factory.hpp:77] Creating layer conv4_1_1x1_increase/bn
I0622 01:35:26.929921  4705 net.cpp:106] Creating Layer conv4_1_1x1_increase/bn
I0622 01:35:26.929927  4705 net.cpp:454] conv4_1_1x1_increase/bn <- conv4_1_1x1_increase
I0622 01:35:26.929934  4705 net.cpp:397] conv4_1_1x1_increase/bn -> conv4_1_1x1_increase (in-place)
I0622 01:35:26.930130  4705 net.cpp:150] Setting up conv4_1_1x1_increase/bn
I0622 01:35:26.930136  4705 net.cpp:157] Top shape: 2 1024 60 60 (7372800)
I0622 01:35:26.930140  4705 net.cpp:165] Memory required for data: 1713828400
I0622 01:35:26.930150  4705 layer_factory.hpp:77] Creating layer conv4_1_1x1_proj
I0622 01:35:26.930162  4705 net.cpp:106] Creating Layer conv4_1_1x1_proj
I0622 01:35:26.930167  4705 net.cpp:454] conv4_1_1x1_proj <- conv3_4_conv3_4/relu_0_split_1
I0622 01:35:26.930174  4705 net.cpp:411] conv4_1_1x1_proj -> conv4_1_1x1_proj
I0622 01:35:26.945181  4705 net.cpp:150] Setting up conv4_1_1x1_proj
I0622 01:35:26.945228  4705 net.cpp:157] Top shape: 2 1024 60 60 (7372800)
I0622 01:35:26.945235  4705 net.cpp:165] Memory required for data: 1743319600
I0622 01:35:26.945247  4705 layer_factory.hpp:77] Creating layer conv4_1_1x1_proj/bn
I0622 01:35:26.945271  4705 net.cpp:106] Creating Layer conv4_1_1x1_proj/bn
I0622 01:35:26.945279  4705 net.cpp:454] conv4_1_1x1_proj/bn <- conv4_1_1x1_proj
I0622 01:35:26.945288  4705 net.cpp:397] conv4_1_1x1_proj/bn -> conv4_1_1x1_proj (in-place)
I0622 01:35:26.945545  4705 net.cpp:150] Setting up conv4_1_1x1_proj/bn
I0622 01:35:26.945554  4705 net.cpp:157] Top shape: 2 1024 60 60 (7372800)
I0622 01:35:26.945559  4705 net.cpp:165] Memory required for data: 1772810800
I0622 01:35:26.945569  4705 layer_factory.hpp:77] Creating layer conv4_1
I0622 01:35:26.945580  4705 net.cpp:106] Creating Layer conv4_1
I0622 01:35:26.945585  4705 net.cpp:454] conv4_1 <- conv4_1_1x1_proj
I0622 01:35:26.945590  4705 net.cpp:454] conv4_1 <- conv4_1_1x1_increase
I0622 01:35:26.945597  4705 net.cpp:411] conv4_1 -> conv4_1
I0622 01:35:26.945636  4705 net.cpp:150] Setting up conv4_1
I0622 01:35:26.945644  4705 net.cpp:157] Top shape: 2 1024 60 60 (7372800)
I0622 01:35:26.945649  4705 net.cpp:165] Memory required for data: 1802302000
I0622 01:35:26.945657  4705 layer_factory.hpp:77] Creating layer conv4_1/relu
I0622 01:35:26.945669  4705 net.cpp:106] Creating Layer conv4_1/relu
I0622 01:35:26.945675  4705 net.cpp:454] conv4_1/relu <- conv4_1
I0622 01:35:26.945689  4705 net.cpp:397] conv4_1/relu -> conv4_1 (in-place)
I0622 01:35:26.945742  4705 net.cpp:150] Setting up conv4_1/relu
I0622 01:35:26.945749  4705 net.cpp:157] Top shape: 2 1024 60 60 (7372800)
I0622 01:35:26.945754  4705 net.cpp:165] Memory required for data: 1831793200
I0622 01:35:26.945760  4705 layer_factory.hpp:77] Creating layer conv4_1_conv4_1/relu_0_split
I0622 01:35:26.945768  4705 net.cpp:106] Creating Layer conv4_1_conv4_1/relu_0_split
I0622 01:35:26.945773  4705 net.cpp:454] conv4_1_conv4_1/relu_0_split <- conv4_1
I0622 01:35:26.945781  4705 net.cpp:411] conv4_1_conv4_1/relu_0_split -> conv4_1_conv4_1/relu_0_split_0
I0622 01:35:26.945789  4705 net.cpp:411] conv4_1_conv4_1/relu_0_split -> conv4_1_conv4_1/relu_0_split_1
I0622 01:35:26.945825  4705 net.cpp:150] Setting up conv4_1_conv4_1/relu_0_split
I0622 01:35:26.945832  4705 net.cpp:157] Top shape: 2 1024 60 60 (7372800)
I0622 01:35:26.945837  4705 net.cpp:157] Top shape: 2 1024 60 60 (7372800)
I0622 01:35:26.945842  4705 net.cpp:165] Memory required for data: 1890775600
I0622 01:35:26.945845  4705 layer_factory.hpp:77] Creating layer conv4_2_1x1_reduce
I0622 01:35:26.945859  4705 net.cpp:106] Creating Layer conv4_2_1x1_reduce
I0622 01:35:26.945864  4705 net.cpp:454] conv4_2_1x1_reduce <- conv4_1_conv4_1/relu_0_split_0
I0622 01:35:26.945876  4705 net.cpp:411] conv4_2_1x1_reduce -> conv4_2_1x1_reduce
I0622 01:35:26.953086  4705 net.cpp:150] Setting up conv4_2_1x1_reduce
I0622 01:35:26.953100  4705 net.cpp:157] Top shape: 2 256 60 60 (1843200)
I0622 01:35:26.953104  4705 net.cpp:165] Memory required for data: 1898148400
I0622 01:35:26.953109  4705 layer_factory.hpp:77] Creating layer conv4_2_1x1_reduce/bn
I0622 01:35:26.953116  4705 net.cpp:106] Creating Layer conv4_2_1x1_reduce/bn
I0622 01:35:26.953119  4705 net.cpp:454] conv4_2_1x1_reduce/bn <- conv4_2_1x1_reduce
I0622 01:35:26.953125  4705 net.cpp:397] conv4_2_1x1_reduce/bn -> conv4_2_1x1_reduce (in-place)
I0622 01:35:26.953253  4705 net.cpp:150] Setting up conv4_2_1x1_reduce/bn
I0622 01:35:26.953256  4705 net.cpp:157] Top shape: 2 256 60 60 (1843200)
I0622 01:35:26.953259  4705 net.cpp:165] Memory required for data: 1905521200
I0622 01:35:26.953264  4705 layer_factory.hpp:77] Creating layer conv4_2_1x1_reduce/relu
I0622 01:35:26.953269  4705 net.cpp:106] Creating Layer conv4_2_1x1_reduce/relu
I0622 01:35:26.953272  4705 net.cpp:454] conv4_2_1x1_reduce/relu <- conv4_2_1x1_reduce
I0622 01:35:26.953275  4705 net.cpp:397] conv4_2_1x1_reduce/relu -> conv4_2_1x1_reduce (in-place)
I0622 01:35:26.953279  4705 net.cpp:150] Setting up conv4_2_1x1_reduce/relu
I0622 01:35:26.953282  4705 net.cpp:157] Top shape: 2 256 60 60 (1843200)
I0622 01:35:26.953284  4705 net.cpp:165] Memory required for data: 1912894000
I0622 01:35:26.953287  4705 layer_factory.hpp:77] Creating layer conv4_2_3x3
I0622 01:35:26.953294  4705 net.cpp:106] Creating Layer conv4_2_3x3
I0622 01:35:26.953296  4705 net.cpp:454] conv4_2_3x3 <- conv4_2_1x1_reduce
I0622 01:35:26.953301  4705 net.cpp:411] conv4_2_3x3 -> conv4_2_3x3
I0622 01:35:26.966408  4705 net.cpp:150] Setting up conv4_2_3x3
I0622 01:35:26.966428  4705 net.cpp:157] Top shape: 2 256 60 60 (1843200)
I0622 01:35:26.966430  4705 net.cpp:165] Memory required for data: 1920266800
I0622 01:35:26.966436  4705 layer_factory.hpp:77] Creating layer conv4_2_3x3/bn
I0622 01:35:26.966445  4705 net.cpp:106] Creating Layer conv4_2_3x3/bn
I0622 01:35:26.966449  4705 net.cpp:454] conv4_2_3x3/bn <- conv4_2_3x3
I0622 01:35:26.966456  4705 net.cpp:397] conv4_2_3x3/bn -> conv4_2_3x3 (in-place)
I0622 01:35:26.966591  4705 net.cpp:150] Setting up conv4_2_3x3/bn
I0622 01:35:26.966595  4705 net.cpp:157] Top shape: 2 256 60 60 (1843200)
I0622 01:35:26.966598  4705 net.cpp:165] Memory required for data: 1927639600
I0622 01:35:26.966603  4705 layer_factory.hpp:77] Creating layer conv4_2_3x3/relu
I0622 01:35:26.966606  4705 net.cpp:106] Creating Layer conv4_2_3x3/relu
I0622 01:35:26.966609  4705 net.cpp:454] conv4_2_3x3/relu <- conv4_2_3x3
I0622 01:35:26.966611  4705 net.cpp:397] conv4_2_3x3/relu -> conv4_2_3x3 (in-place)
I0622 01:35:26.966634  4705 net.cpp:150] Setting up conv4_2_3x3/relu
I0622 01:35:26.966639  4705 net.cpp:157] Top shape: 2 256 60 60 (1843200)
I0622 01:35:26.966640  4705 net.cpp:165] Memory required for data: 1935012400
I0622 01:35:26.966644  4705 layer_factory.hpp:77] Creating layer conv4_2_1x1_increase
I0622 01:35:26.966650  4705 net.cpp:106] Creating Layer conv4_2_1x1_increase
I0622 01:35:26.966652  4705 net.cpp:454] conv4_2_1x1_increase <- conv4_2_3x3
I0622 01:35:26.966656  4705 net.cpp:411] conv4_2_1x1_increase -> conv4_2_1x1_increase
I0622 01:35:26.972910  4705 net.cpp:150] Setting up conv4_2_1x1_increase
I0622 01:35:26.972960  4705 net.cpp:157] Top shape: 2 1024 60 60 (7372800)
I0622 01:35:26.972966  4705 net.cpp:165] Memory required for data: 1964503600
I0622 01:35:26.972978  4705 layer_factory.hpp:77] Creating layer conv4_2_1x1_increase/bn
I0622 01:35:26.972996  4705 net.cpp:106] Creating Layer conv4_2_1x1_increase/bn
I0622 01:35:26.973006  4705 net.cpp:454] conv4_2_1x1_increase/bn <- conv4_2_1x1_increase
I0622 01:35:26.973014  4705 net.cpp:397] conv4_2_1x1_increase/bn -> conv4_2_1x1_increase (in-place)
I0622 01:35:26.973206  4705 net.cpp:150] Setting up conv4_2_1x1_increase/bn
I0622 01:35:26.973212  4705 net.cpp:157] Top shape: 2 1024 60 60 (7372800)
I0622 01:35:26.973214  4705 net.cpp:165] Memory required for data: 1993994800
I0622 01:35:26.973222  4705 layer_factory.hpp:77] Creating layer conv4_2
I0622 01:35:26.973228  4705 net.cpp:106] Creating Layer conv4_2
I0622 01:35:26.973232  4705 net.cpp:454] conv4_2 <- conv4_1_conv4_1/relu_0_split_1
I0622 01:35:26.973235  4705 net.cpp:454] conv4_2 <- conv4_2_1x1_increase
I0622 01:35:26.973239  4705 net.cpp:411] conv4_2 -> conv4_2
I0622 01:35:26.973258  4705 net.cpp:150] Setting up conv4_2
I0622 01:35:26.973263  4705 net.cpp:157] Top shape: 2 1024 60 60 (7372800)
I0622 01:35:26.973265  4705 net.cpp:165] Memory required for data: 2023486000
I0622 01:35:26.973268  4705 layer_factory.hpp:77] Creating layer conv4_2/relu
I0622 01:35:26.973273  4705 net.cpp:106] Creating Layer conv4_2/relu
I0622 01:35:26.973274  4705 net.cpp:454] conv4_2/relu <- conv4_2
I0622 01:35:26.973278  4705 net.cpp:397] conv4_2/relu -> conv4_2 (in-place)
I0622 01:35:26.973282  4705 net.cpp:150] Setting up conv4_2/relu
I0622 01:35:26.973285  4705 net.cpp:157] Top shape: 2 1024 60 60 (7372800)
I0622 01:35:26.973289  4705 net.cpp:165] Memory required for data: 2052977200
I0622 01:35:26.973290  4705 layer_factory.hpp:77] Creating layer conv4_2_conv4_2/relu_0_split
I0622 01:35:26.973296  4705 net.cpp:106] Creating Layer conv4_2_conv4_2/relu_0_split
I0622 01:35:26.973299  4705 net.cpp:454] conv4_2_conv4_2/relu_0_split <- conv4_2
I0622 01:35:26.973302  4705 net.cpp:411] conv4_2_conv4_2/relu_0_split -> conv4_2_conv4_2/relu_0_split_0
I0622 01:35:26.973315  4705 net.cpp:411] conv4_2_conv4_2/relu_0_split -> conv4_2_conv4_2/relu_0_split_1
I0622 01:35:26.973336  4705 net.cpp:150] Setting up conv4_2_conv4_2/relu_0_split
I0622 01:35:26.973341  4705 net.cpp:157] Top shape: 2 1024 60 60 (7372800)
I0622 01:35:26.973345  4705 net.cpp:157] Top shape: 2 1024 60 60 (7372800)
I0622 01:35:26.973346  4705 net.cpp:165] Memory required for data: 2111959600
I0622 01:35:26.973350  4705 layer_factory.hpp:77] Creating layer conv4_3_1x1_reduce
I0622 01:35:26.973356  4705 net.cpp:106] Creating Layer conv4_3_1x1_reduce
I0622 01:35:26.973359  4705 net.cpp:454] conv4_3_1x1_reduce <- conv4_2_conv4_2/relu_0_split_0
I0622 01:35:26.973363  4705 net.cpp:411] conv4_3_1x1_reduce -> conv4_3_1x1_reduce
I0622 01:35:26.979238  4705 net.cpp:150] Setting up conv4_3_1x1_reduce
I0622 01:35:26.979288  4705 net.cpp:157] Top shape: 2 256 60 60 (1843200)
I0622 01:35:26.979293  4705 net.cpp:165] Memory required for data: 2119332400
I0622 01:35:26.979305  4705 layer_factory.hpp:77] Creating layer conv4_3_1x1_reduce/bn
I0622 01:35:26.979323  4705 net.cpp:106] Creating Layer conv4_3_1x1_reduce/bn
I0622 01:35:26.979331  4705 net.cpp:454] conv4_3_1x1_reduce/bn <- conv4_3_1x1_reduce
I0622 01:35:26.979338  4705 net.cpp:397] conv4_3_1x1_reduce/bn -> conv4_3_1x1_reduce (in-place)
I0622 01:35:26.979569  4705 net.cpp:150] Setting up conv4_3_1x1_reduce/bn
I0622 01:35:26.979575  4705 net.cpp:157] Top shape: 2 256 60 60 (1843200)
I0622 01:35:26.979583  4705 net.cpp:165] Memory required for data: 2126705200
I0622 01:35:26.979589  4705 layer_factory.hpp:77] Creating layer conv4_3_1x1_reduce/relu
I0622 01:35:26.979598  4705 net.cpp:106] Creating Layer conv4_3_1x1_reduce/relu
I0622 01:35:26.979600  4705 net.cpp:454] conv4_3_1x1_reduce/relu <- conv4_3_1x1_reduce
I0622 01:35:26.979604  4705 net.cpp:397] conv4_3_1x1_reduce/relu -> conv4_3_1x1_reduce (in-place)
I0622 01:35:26.979609  4705 net.cpp:150] Setting up conv4_3_1x1_reduce/relu
I0622 01:35:26.979612  4705 net.cpp:157] Top shape: 2 256 60 60 (1843200)
I0622 01:35:26.979615  4705 net.cpp:165] Memory required for data: 2134078000
I0622 01:35:26.979617  4705 layer_factory.hpp:77] Creating layer conv4_3_3x3
I0622 01:35:26.979631  4705 net.cpp:106] Creating Layer conv4_3_3x3
I0622 01:35:26.979635  4705 net.cpp:454] conv4_3_3x3 <- conv4_3_1x1_reduce
I0622 01:35:26.979640  4705 net.cpp:411] conv4_3_3x3 -> conv4_3_3x3
I0622 01:35:26.993576  4705 net.cpp:150] Setting up conv4_3_3x3
I0622 01:35:26.993604  4705 net.cpp:157] Top shape: 2 256 60 60 (1843200)
I0622 01:35:26.993607  4705 net.cpp:165] Memory required for data: 2141450800
I0622 01:35:26.993614  4705 layer_factory.hpp:77] Creating layer conv4_3_3x3/bn
I0622 01:35:26.993624  4705 net.cpp:106] Creating Layer conv4_3_3x3/bn
I0622 01:35:26.993629  4705 net.cpp:454] conv4_3_3x3/bn <- conv4_3_3x3
I0622 01:35:26.993634  4705 net.cpp:397] conv4_3_3x3/bn -> conv4_3_3x3 (in-place)
I0622 01:35:26.993774  4705 net.cpp:150] Setting up conv4_3_3x3/bn
I0622 01:35:26.993780  4705 net.cpp:157] Top shape: 2 256 60 60 (1843200)
I0622 01:35:26.993782  4705 net.cpp:165] Memory required for data: 2148823600
I0622 01:35:26.993788  4705 layer_factory.hpp:77] Creating layer conv4_3_3x3/relu
I0622 01:35:26.993790  4705 net.cpp:106] Creating Layer conv4_3_3x3/relu
I0622 01:35:26.993793  4705 net.cpp:454] conv4_3_3x3/relu <- conv4_3_3x3
I0622 01:35:26.993795  4705 net.cpp:397] conv4_3_3x3/relu -> conv4_3_3x3 (in-place)
I0622 01:35:26.993799  4705 net.cpp:150] Setting up conv4_3_3x3/relu
I0622 01:35:26.993803  4705 net.cpp:157] Top shape: 2 256 60 60 (1843200)
I0622 01:35:26.993804  4705 net.cpp:165] Memory required for data: 2156196400
I0622 01:35:26.993808  4705 layer_factory.hpp:77] Creating layer conv4_3_1x1_increase
I0622 01:35:26.993813  4705 net.cpp:106] Creating Layer conv4_3_1x1_increase
I0622 01:35:26.993816  4705 net.cpp:454] conv4_3_1x1_increase <- conv4_3_3x3
I0622 01:35:26.993821  4705 net.cpp:411] conv4_3_1x1_increase -> conv4_3_1x1_increase
I0622 01:35:27.000021  4705 net.cpp:150] Setting up conv4_3_1x1_increase
I0622 01:35:27.000030  4705 net.cpp:157] Top shape: 2 1024 60 60 (7372800)
I0622 01:35:27.000033  4705 net.cpp:165] Memory required for data: 2185687600
I0622 01:35:27.000037  4705 layer_factory.hpp:77] Creating layer conv4_3_1x1_increase/bn
I0622 01:35:27.000043  4705 net.cpp:106] Creating Layer conv4_3_1x1_increase/bn
I0622 01:35:27.000046  4705 net.cpp:454] conv4_3_1x1_increase/bn <- conv4_3_1x1_increase
I0622 01:35:27.000051  4705 net.cpp:397] conv4_3_1x1_increase/bn -> conv4_3_1x1_increase (in-place)
I0622 01:35:27.000191  4705 net.cpp:150] Setting up conv4_3_1x1_increase/bn
I0622 01:35:27.000196  4705 net.cpp:157] Top shape: 2 1024 60 60 (7372800)
I0622 01:35:27.000198  4705 net.cpp:165] Memory required for data: 2215178800
I0622 01:35:27.000203  4705 layer_factory.hpp:77] Creating layer conv4_3
I0622 01:35:27.000208  4705 net.cpp:106] Creating Layer conv4_3
I0622 01:35:27.000211  4705 net.cpp:454] conv4_3 <- conv4_2_conv4_2/relu_0_split_1
I0622 01:35:27.000213  4705 net.cpp:454] conv4_3 <- conv4_3_1x1_increase
I0622 01:35:27.000217  4705 net.cpp:411] conv4_3 -> conv4_3
I0622 01:35:27.000233  4705 net.cpp:150] Setting up conv4_3
I0622 01:35:27.000237  4705 net.cpp:157] Top shape: 2 1024 60 60 (7372800)
I0622 01:35:27.000239  4705 net.cpp:165] Memory required for data: 2244670000
I0622 01:35:27.000242  4705 layer_factory.hpp:77] Creating layer conv4_3/relu
I0622 01:35:27.000262  4705 net.cpp:106] Creating Layer conv4_3/relu
I0622 01:35:27.000264  4705 net.cpp:454] conv4_3/relu <- conv4_3
I0622 01:35:27.000268  4705 net.cpp:397] conv4_3/relu -> conv4_3 (in-place)
I0622 01:35:27.000273  4705 net.cpp:150] Setting up conv4_3/relu
I0622 01:35:27.000275  4705 net.cpp:157] Top shape: 2 1024 60 60 (7372800)
I0622 01:35:27.000278  4705 net.cpp:165] Memory required for data: 2274161200
I0622 01:35:27.000282  4705 layer_factory.hpp:77] Creating layer conv4_3_conv4_3/relu_0_split
I0622 01:35:27.000285  4705 net.cpp:106] Creating Layer conv4_3_conv4_3/relu_0_split
I0622 01:35:27.000288  4705 net.cpp:454] conv4_3_conv4_3/relu_0_split <- conv4_3
I0622 01:35:27.000290  4705 net.cpp:411] conv4_3_conv4_3/relu_0_split -> conv4_3_conv4_3/relu_0_split_0
I0622 01:35:27.000293  4705 net.cpp:411] conv4_3_conv4_3/relu_0_split -> conv4_3_conv4_3/relu_0_split_1
I0622 01:35:27.000314  4705 net.cpp:150] Setting up conv4_3_conv4_3/relu_0_split
I0622 01:35:27.000319  4705 net.cpp:157] Top shape: 2 1024 60 60 (7372800)
I0622 01:35:27.000320  4705 net.cpp:157] Top shape: 2 1024 60 60 (7372800)
I0622 01:35:27.000324  4705 net.cpp:165] Memory required for data: 2333143600
I0622 01:35:27.000325  4705 layer_factory.hpp:77] Creating layer conv4_4_1x1_reduce
I0622 01:35:27.000344  4705 net.cpp:106] Creating Layer conv4_4_1x1_reduce
I0622 01:35:27.000349  4705 net.cpp:454] conv4_4_1x1_reduce <- conv4_3_conv4_3/relu_0_split_0
I0622 01:35:27.000352  4705 net.cpp:411] conv4_4_1x1_reduce -> conv4_4_1x1_reduce
I0622 01:35:27.005947  4705 net.cpp:150] Setting up conv4_4_1x1_reduce
I0622 01:35:27.005957  4705 net.cpp:157] Top shape: 2 256 60 60 (1843200)
I0622 01:35:27.005959  4705 net.cpp:165] Memory required for data: 2340516400
I0622 01:35:27.005964  4705 layer_factory.hpp:77] Creating layer conv4_4_1x1_reduce/bn
I0622 01:35:27.005970  4705 net.cpp:106] Creating Layer conv4_4_1x1_reduce/bn
I0622 01:35:27.005972  4705 net.cpp:454] conv4_4_1x1_reduce/bn <- conv4_4_1x1_reduce
I0622 01:35:27.005976  4705 net.cpp:397] conv4_4_1x1_reduce/bn -> conv4_4_1x1_reduce (in-place)
I0622 01:35:27.006105  4705 net.cpp:150] Setting up conv4_4_1x1_reduce/bn
I0622 01:35:27.006110  4705 net.cpp:157] Top shape: 2 256 60 60 (1843200)
I0622 01:35:27.006112  4705 net.cpp:165] Memory required for data: 2347889200
I0622 01:35:27.006117  4705 layer_factory.hpp:77] Creating layer conv4_4_1x1_reduce/relu
I0622 01:35:27.006120  4705 net.cpp:106] Creating Layer conv4_4_1x1_reduce/relu
I0622 01:35:27.006124  4705 net.cpp:454] conv4_4_1x1_reduce/relu <- conv4_4_1x1_reduce
I0622 01:35:27.006126  4705 net.cpp:397] conv4_4_1x1_reduce/relu -> conv4_4_1x1_reduce (in-place)
I0622 01:35:27.006130  4705 net.cpp:150] Setting up conv4_4_1x1_reduce/relu
I0622 01:35:27.006132  4705 net.cpp:157] Top shape: 2 256 60 60 (1843200)
I0622 01:35:27.006134  4705 net.cpp:165] Memory required for data: 2355262000
I0622 01:35:27.006136  4705 layer_factory.hpp:77] Creating layer conv4_4_3x3
I0622 01:35:27.006150  4705 net.cpp:106] Creating Layer conv4_4_3x3
I0622 01:35:27.006153  4705 net.cpp:454] conv4_4_3x3 <- conv4_4_1x1_reduce
I0622 01:35:27.006157  4705 net.cpp:411] conv4_4_3x3 -> conv4_4_3x3
I0622 01:35:27.019204  4705 net.cpp:150] Setting up conv4_4_3x3
I0622 01:35:27.019230  4705 net.cpp:157] Top shape: 2 256 60 60 (1843200)
I0622 01:35:27.019233  4705 net.cpp:165] Memory required for data: 2362634800
I0622 01:35:27.019240  4705 layer_factory.hpp:77] Creating layer conv4_4_3x3/bn
I0622 01:35:27.019250  4705 net.cpp:106] Creating Layer conv4_4_3x3/bn
I0622 01:35:27.019255  4705 net.cpp:454] conv4_4_3x3/bn <- conv4_4_3x3
I0622 01:35:27.019261  4705 net.cpp:397] conv4_4_3x3/bn -> conv4_4_3x3 (in-place)
I0622 01:35:27.019402  4705 net.cpp:150] Setting up conv4_4_3x3/bn
I0622 01:35:27.019407  4705 net.cpp:157] Top shape: 2 256 60 60 (1843200)
I0622 01:35:27.019410  4705 net.cpp:165] Memory required for data: 2370007600
I0622 01:35:27.019415  4705 layer_factory.hpp:77] Creating layer conv4_4_3x3/relu
I0622 01:35:27.019443  4705 net.cpp:106] Creating Layer conv4_4_3x3/relu
I0622 01:35:27.019446  4705 net.cpp:454] conv4_4_3x3/relu <- conv4_4_3x3
I0622 01:35:27.019449  4705 net.cpp:397] conv4_4_3x3/relu -> conv4_4_3x3 (in-place)
I0622 01:35:27.019453  4705 net.cpp:150] Setting up conv4_4_3x3/relu
I0622 01:35:27.019455  4705 net.cpp:157] Top shape: 2 256 60 60 (1843200)
I0622 01:35:27.019457  4705 net.cpp:165] Memory required for data: 2377380400
I0622 01:35:27.019460  4705 layer_factory.hpp:77] Creating layer conv4_4_1x1_increase
I0622 01:35:27.019466  4705 net.cpp:106] Creating Layer conv4_4_1x1_increase
I0622 01:35:27.019469  4705 net.cpp:454] conv4_4_1x1_increase <- conv4_4_3x3
I0622 01:35:27.019472  4705 net.cpp:411] conv4_4_1x1_increase -> conv4_4_1x1_increase
I0622 01:35:27.025848  4705 net.cpp:150] Setting up conv4_4_1x1_increase
I0622 01:35:27.025868  4705 net.cpp:157] Top shape: 2 1024 60 60 (7372800)
I0622 01:35:27.025871  4705 net.cpp:165] Memory required for data: 2406871600
I0622 01:35:27.025876  4705 layer_factory.hpp:77] Creating layer conv4_4_1x1_increase/bn
I0622 01:35:27.025883  4705 net.cpp:106] Creating Layer conv4_4_1x1_increase/bn
I0622 01:35:27.025887  4705 net.cpp:454] conv4_4_1x1_increase/bn <- conv4_4_1x1_increase
I0622 01:35:27.025892  4705 net.cpp:397] conv4_4_1x1_increase/bn -> conv4_4_1x1_increase (in-place)
I0622 01:35:27.026039  4705 net.cpp:150] Setting up conv4_4_1x1_increase/bn
I0622 01:35:27.026044  4705 net.cpp:157] Top shape: 2 1024 60 60 (7372800)
I0622 01:35:27.026046  4705 net.cpp:165] Memory required for data: 2436362800
I0622 01:35:27.026051  4705 layer_factory.hpp:77] Creating layer conv4_4
I0622 01:35:27.026056  4705 net.cpp:106] Creating Layer conv4_4
I0622 01:35:27.026057  4705 net.cpp:454] conv4_4 <- conv4_3_conv4_3/relu_0_split_1
I0622 01:35:27.026060  4705 net.cpp:454] conv4_4 <- conv4_4_1x1_increase
I0622 01:35:27.026063  4705 net.cpp:411] conv4_4 -> conv4_4
I0622 01:35:27.026080  4705 net.cpp:150] Setting up conv4_4
I0622 01:35:27.026084  4705 net.cpp:157] Top shape: 2 1024 60 60 (7372800)
I0622 01:35:27.026087  4705 net.cpp:165] Memory required for data: 2465854000
I0622 01:35:27.026089  4705 layer_factory.hpp:77] Creating layer conv4_4/relu
I0622 01:35:27.026095  4705 net.cpp:106] Creating Layer conv4_4/relu
I0622 01:35:27.026098  4705 net.cpp:454] conv4_4/relu <- conv4_4
I0622 01:35:27.026103  4705 net.cpp:397] conv4_4/relu -> conv4_4 (in-place)
I0622 01:35:27.026106  4705 net.cpp:150] Setting up conv4_4/relu
I0622 01:35:27.026109  4705 net.cpp:157] Top shape: 2 1024 60 60 (7372800)
I0622 01:35:27.026111  4705 net.cpp:165] Memory required for data: 2495345200
I0622 01:35:27.026114  4705 layer_factory.hpp:77] Creating layer conv4_4_conv4_4/relu_0_split
I0622 01:35:27.026119  4705 net.cpp:106] Creating Layer conv4_4_conv4_4/relu_0_split
I0622 01:35:27.026121  4705 net.cpp:454] conv4_4_conv4_4/relu_0_split <- conv4_4
I0622 01:35:27.026125  4705 net.cpp:411] conv4_4_conv4_4/relu_0_split -> conv4_4_conv4_4/relu_0_split_0
I0622 01:35:27.026130  4705 net.cpp:411] conv4_4_conv4_4/relu_0_split -> conv4_4_conv4_4/relu_0_split_1
I0622 01:35:27.026151  4705 net.cpp:150] Setting up conv4_4_conv4_4/relu_0_split
I0622 01:35:27.026155  4705 net.cpp:157] Top shape: 2 1024 60 60 (7372800)
I0622 01:35:27.026159  4705 net.cpp:157] Top shape: 2 1024 60 60 (7372800)
I0622 01:35:27.026160  4705 net.cpp:165] Memory required for data: 2554327600
I0622 01:35:27.026162  4705 layer_factory.hpp:77] Creating layer conv4_5_1x1_reduce
I0622 01:35:27.026168  4705 net.cpp:106] Creating Layer conv4_5_1x1_reduce
I0622 01:35:27.026171  4705 net.cpp:454] conv4_5_1x1_reduce <- conv4_4_conv4_4/relu_0_split_0
I0622 01:35:27.026175  4705 net.cpp:411] conv4_5_1x1_reduce -> conv4_5_1x1_reduce
I0622 01:35:27.031793  4705 net.cpp:150] Setting up conv4_5_1x1_reduce
I0622 01:35:27.031800  4705 net.cpp:157] Top shape: 2 256 60 60 (1843200)
I0622 01:35:27.031801  4705 net.cpp:165] Memory required for data: 2561700400
I0622 01:35:27.031805  4705 layer_factory.hpp:77] Creating layer conv4_5_1x1_reduce/bn
I0622 01:35:27.031810  4705 net.cpp:106] Creating Layer conv4_5_1x1_reduce/bn
I0622 01:35:27.031829  4705 net.cpp:454] conv4_5_1x1_reduce/bn <- conv4_5_1x1_reduce
I0622 01:35:27.031833  4705 net.cpp:397] conv4_5_1x1_reduce/bn -> conv4_5_1x1_reduce (in-place)
I0622 01:35:27.031960  4705 net.cpp:150] Setting up conv4_5_1x1_reduce/bn
I0622 01:35:27.031965  4705 net.cpp:157] Top shape: 2 256 60 60 (1843200)
I0622 01:35:27.031966  4705 net.cpp:165] Memory required for data: 2569073200
I0622 01:35:27.031970  4705 layer_factory.hpp:77] Creating layer conv4_5_1x1_reduce/relu
I0622 01:35:27.031975  4705 net.cpp:106] Creating Layer conv4_5_1x1_reduce/relu
I0622 01:35:27.031976  4705 net.cpp:454] conv4_5_1x1_reduce/relu <- conv4_5_1x1_reduce
I0622 01:35:27.031980  4705 net.cpp:397] conv4_5_1x1_reduce/relu -> conv4_5_1x1_reduce (in-place)
I0622 01:35:27.031982  4705 net.cpp:150] Setting up conv4_5_1x1_reduce/relu
I0622 01:35:27.031985  4705 net.cpp:157] Top shape: 2 256 60 60 (1843200)
I0622 01:35:27.031986  4705 net.cpp:165] Memory required for data: 2576446000
I0622 01:35:27.031988  4705 layer_factory.hpp:77] Creating layer conv4_5_3x3
I0622 01:35:27.031994  4705 net.cpp:106] Creating Layer conv4_5_3x3
I0622 01:35:27.031997  4705 net.cpp:454] conv4_5_3x3 <- conv4_5_1x1_reduce
I0622 01:35:27.032001  4705 net.cpp:411] conv4_5_3x3 -> conv4_5_3x3
I0622 01:35:27.045773  4705 net.cpp:150] Setting up conv4_5_3x3
I0622 01:35:27.045841  4705 net.cpp:157] Top shape: 2 256 60 60 (1843200)
I0622 01:35:27.045866  4705 net.cpp:165] Memory required for data: 2583818800
I0622 01:35:27.045882  4705 layer_factory.hpp:77] Creating layer conv4_5_3x3/bn
I0622 01:35:27.045905  4705 net.cpp:106] Creating Layer conv4_5_3x3/bn
I0622 01:35:27.045914  4705 net.cpp:454] conv4_5_3x3/bn <- conv4_5_3x3
I0622 01:35:27.045923  4705 net.cpp:397] conv4_5_3x3/bn -> conv4_5_3x3 (in-place)
I0622 01:35:27.046128  4705 net.cpp:150] Setting up conv4_5_3x3/bn
I0622 01:35:27.046134  4705 net.cpp:157] Top shape: 2 256 60 60 (1843200)
I0622 01:35:27.046139  4705 net.cpp:165] Memory required for data: 2591191600
I0622 01:35:27.046146  4705 layer_factory.hpp:77] Creating layer conv4_5_3x3/relu
I0622 01:35:27.046156  4705 net.cpp:106] Creating Layer conv4_5_3x3/relu
I0622 01:35:27.046159  4705 net.cpp:454] conv4_5_3x3/relu <- conv4_5_3x3
I0622 01:35:27.046165  4705 net.cpp:397] conv4_5_3x3/relu -> conv4_5_3x3 (in-place)
I0622 01:35:27.046172  4705 net.cpp:150] Setting up conv4_5_3x3/relu
I0622 01:35:27.046176  4705 net.cpp:157] Top shape: 2 256 60 60 (1843200)
I0622 01:35:27.046180  4705 net.cpp:165] Memory required for data: 2598564400
I0622 01:35:27.046183  4705 layer_factory.hpp:77] Creating layer conv4_5_1x1_increase
I0622 01:35:27.046195  4705 net.cpp:106] Creating Layer conv4_5_1x1_increase
I0622 01:35:27.046197  4705 net.cpp:454] conv4_5_1x1_increase <- conv4_5_3x3
I0622 01:35:27.046205  4705 net.cpp:411] conv4_5_1x1_increase -> conv4_5_1x1_increase
I0622 01:35:27.052999  4705 net.cpp:150] Setting up conv4_5_1x1_increase
I0622 01:35:27.053026  4705 net.cpp:157] Top shape: 2 1024 60 60 (7372800)
I0622 01:35:27.053030  4705 net.cpp:165] Memory required for data: 2628055600
I0622 01:35:27.053040  4705 layer_factory.hpp:77] Creating layer conv4_5_1x1_increase/bn
I0622 01:35:27.053051  4705 net.cpp:106] Creating Layer conv4_5_1x1_increase/bn
I0622 01:35:27.053057  4705 net.cpp:454] conv4_5_1x1_increase/bn <- conv4_5_1x1_increase
I0622 01:35:27.053064  4705 net.cpp:397] conv4_5_1x1_increase/bn -> conv4_5_1x1_increase (in-place)
I0622 01:35:27.053231  4705 net.cpp:150] Setting up conv4_5_1x1_increase/bn
I0622 01:35:27.053238  4705 net.cpp:157] Top shape: 2 1024 60 60 (7372800)
I0622 01:35:27.053242  4705 net.cpp:165] Memory required for data: 2657546800
I0622 01:35:27.053251  4705 layer_factory.hpp:77] Creating layer conv4_5
I0622 01:35:27.053258  4705 net.cpp:106] Creating Layer conv4_5
I0622 01:35:27.053263  4705 net.cpp:454] conv4_5 <- conv4_4_conv4_4/relu_0_split_1
I0622 01:35:27.053268  4705 net.cpp:454] conv4_5 <- conv4_5_1x1_increase
I0622 01:35:27.053274  4705 net.cpp:411] conv4_5 -> conv4_5
I0622 01:35:27.053321  4705 net.cpp:150] Setting up conv4_5
I0622 01:35:27.053328  4705 net.cpp:157] Top shape: 2 1024 60 60 (7372800)
I0622 01:35:27.053331  4705 net.cpp:165] Memory required for data: 2687038000
I0622 01:35:27.053334  4705 layer_factory.hpp:77] Creating layer conv4_5/relu
I0622 01:35:27.053342  4705 net.cpp:106] Creating Layer conv4_5/relu
I0622 01:35:27.053346  4705 net.cpp:454] conv4_5/relu <- conv4_5
I0622 01:35:27.053351  4705 net.cpp:397] conv4_5/relu -> conv4_5 (in-place)
I0622 01:35:27.053356  4705 net.cpp:150] Setting up conv4_5/relu
I0622 01:35:27.053360  4705 net.cpp:157] Top shape: 2 1024 60 60 (7372800)
I0622 01:35:27.053364  4705 net.cpp:165] Memory required for data: 2716529200
I0622 01:35:27.053367  4705 layer_factory.hpp:77] Creating layer conv4_5_conv4_5/relu_0_split
I0622 01:35:27.053372  4705 net.cpp:106] Creating Layer conv4_5_conv4_5/relu_0_split
I0622 01:35:27.053376  4705 net.cpp:454] conv4_5_conv4_5/relu_0_split <- conv4_5
I0622 01:35:27.053381  4705 net.cpp:411] conv4_5_conv4_5/relu_0_split -> conv4_5_conv4_5/relu_0_split_0
I0622 01:35:27.053386  4705 net.cpp:411] conv4_5_conv4_5/relu_0_split -> conv4_5_conv4_5/relu_0_split_1
I0622 01:35:27.053409  4705 net.cpp:150] Setting up conv4_5_conv4_5/relu_0_split
I0622 01:35:27.053416  4705 net.cpp:157] Top shape: 2 1024 60 60 (7372800)
I0622 01:35:27.053419  4705 net.cpp:157] Top shape: 2 1024 60 60 (7372800)
I0622 01:35:27.053422  4705 net.cpp:165] Memory required for data: 2775511600
I0622 01:35:27.053426  4705 layer_factory.hpp:77] Creating layer conv4_6_1x1_reduce
I0622 01:35:27.053434  4705 net.cpp:106] Creating Layer conv4_6_1x1_reduce
I0622 01:35:27.053438  4705 net.cpp:454] conv4_6_1x1_reduce <- conv4_5_conv4_5/relu_0_split_0
I0622 01:35:27.053443  4705 net.cpp:411] conv4_6_1x1_reduce -> conv4_6_1x1_reduce
I0622 01:35:27.059068  4705 net.cpp:150] Setting up conv4_6_1x1_reduce
I0622 01:35:27.059079  4705 net.cpp:157] Top shape: 2 256 60 60 (1843200)
I0622 01:35:27.059083  4705 net.cpp:165] Memory required for data: 2782884400
I0622 01:35:27.059089  4705 layer_factory.hpp:77] Creating layer conv4_6_1x1_reduce/bn
I0622 01:35:27.059098  4705 net.cpp:106] Creating Layer conv4_6_1x1_reduce/bn
I0622 01:35:27.059103  4705 net.cpp:454] conv4_6_1x1_reduce/bn <- conv4_6_1x1_reduce
I0622 01:35:27.059108  4705 net.cpp:397] conv4_6_1x1_reduce/bn -> conv4_6_1x1_reduce (in-place)
I0622 01:35:27.059248  4705 net.cpp:150] Setting up conv4_6_1x1_reduce/bn
I0622 01:35:27.059254  4705 net.cpp:157] Top shape: 2 256 60 60 (1843200)
I0622 01:35:27.059258  4705 net.cpp:165] Memory required for data: 2790257200
I0622 01:35:27.059264  4705 layer_factory.hpp:77] Creating layer conv4_6_1x1_reduce/relu
I0622 01:35:27.059270  4705 net.cpp:106] Creating Layer conv4_6_1x1_reduce/relu
I0622 01:35:27.059273  4705 net.cpp:454] conv4_6_1x1_reduce/relu <- conv4_6_1x1_reduce
I0622 01:35:27.059278  4705 net.cpp:397] conv4_6_1x1_reduce/relu -> conv4_6_1x1_reduce (in-place)
I0622 01:35:27.059283  4705 net.cpp:150] Setting up conv4_6_1x1_reduce/relu
I0622 01:35:27.059288  4705 net.cpp:157] Top shape: 2 256 60 60 (1843200)
I0622 01:35:27.059290  4705 net.cpp:165] Memory required for data: 2797630000
I0622 01:35:27.059293  4705 layer_factory.hpp:77] Creating layer conv4_6_3x3
I0622 01:35:27.059301  4705 net.cpp:106] Creating Layer conv4_6_3x3
I0622 01:35:27.059304  4705 net.cpp:454] conv4_6_3x3 <- conv4_6_1x1_reduce
I0622 01:35:27.059310  4705 net.cpp:411] conv4_6_3x3 -> conv4_6_3x3
I0622 01:35:27.072350  4705 net.cpp:150] Setting up conv4_6_3x3
I0622 01:35:27.072377  4705 net.cpp:157] Top shape: 2 256 60 60 (1843200)
I0622 01:35:27.072393  4705 net.cpp:165] Memory required for data: 2805002800
I0622 01:35:27.072407  4705 layer_factory.hpp:77] Creating layer conv4_6_3x3/bn
I0622 01:35:27.072422  4705 net.cpp:106] Creating Layer conv4_6_3x3/bn
I0622 01:35:27.072427  4705 net.cpp:454] conv4_6_3x3/bn <- conv4_6_3x3
I0622 01:35:27.072435  4705 net.cpp:397] conv4_6_3x3/bn -> conv4_6_3x3 (in-place)
I0622 01:35:27.072613  4705 net.cpp:150] Setting up conv4_6_3x3/bn
I0622 01:35:27.072644  4705 net.cpp:157] Top shape: 2 256 60 60 (1843200)
I0622 01:35:27.072649  4705 net.cpp:165] Memory required for data: 2812375600
I0622 01:35:27.072655  4705 layer_factory.hpp:77] Creating layer conv4_6_3x3/relu
I0622 01:35:27.072662  4705 net.cpp:106] Creating Layer conv4_6_3x3/relu
I0622 01:35:27.072666  4705 net.cpp:454] conv4_6_3x3/relu <- conv4_6_3x3
I0622 01:35:27.072671  4705 net.cpp:397] conv4_6_3x3/relu -> conv4_6_3x3 (in-place)
I0622 01:35:27.072679  4705 net.cpp:150] Setting up conv4_6_3x3/relu
I0622 01:35:27.072682  4705 net.cpp:157] Top shape: 2 256 60 60 (1843200)
I0622 01:35:27.072686  4705 net.cpp:165] Memory required for data: 2819748400
I0622 01:35:27.072690  4705 layer_factory.hpp:77] Creating layer conv4_6_1x1_increase
I0622 01:35:27.072710  4705 net.cpp:106] Creating Layer conv4_6_1x1_increase
I0622 01:35:27.072712  4705 net.cpp:454] conv4_6_1x1_increase <- conv4_6_3x3
I0622 01:35:27.072718  4705 net.cpp:411] conv4_6_1x1_increase -> conv4_6_1x1_increase
I0622 01:35:27.079236  4705 net.cpp:150] Setting up conv4_6_1x1_increase
I0622 01:35:27.079277  4705 net.cpp:157] Top shape: 2 1024 60 60 (7372800)
I0622 01:35:27.079282  4705 net.cpp:165] Memory required for data: 2849239600
I0622 01:35:27.079289  4705 layer_factory.hpp:77] Creating layer conv4_6_1x1_increase/bn
I0622 01:35:27.079299  4705 net.cpp:106] Creating Layer conv4_6_1x1_increase/bn
I0622 01:35:27.079305  4705 net.cpp:454] conv4_6_1x1_increase/bn <- conv4_6_1x1_increase
I0622 01:35:27.079311  4705 net.cpp:397] conv4_6_1x1_increase/bn -> conv4_6_1x1_increase (in-place)
I0622 01:35:27.079464  4705 net.cpp:150] Setting up conv4_6_1x1_increase/bn
I0622 01:35:27.079471  4705 net.cpp:157] Top shape: 2 1024 60 60 (7372800)
I0622 01:35:27.079475  4705 net.cpp:165] Memory required for data: 2878730800
I0622 01:35:27.079483  4705 layer_factory.hpp:77] Creating layer conv4_6
I0622 01:35:27.079488  4705 net.cpp:106] Creating Layer conv4_6
I0622 01:35:27.079491  4705 net.cpp:454] conv4_6 <- conv4_5_conv4_5/relu_0_split_1
I0622 01:35:27.079496  4705 net.cpp:454] conv4_6 <- conv4_6_1x1_increase
I0622 01:35:27.079501  4705 net.cpp:411] conv4_6 -> conv4_6
I0622 01:35:27.079520  4705 net.cpp:150] Setting up conv4_6
I0622 01:35:27.079525  4705 net.cpp:157] Top shape: 2 1024 60 60 (7372800)
I0622 01:35:27.079529  4705 net.cpp:165] Memory required for data: 2908222000
I0622 01:35:27.079531  4705 layer_factory.hpp:77] Creating layer conv4_6/relu
I0622 01:35:27.079538  4705 net.cpp:106] Creating Layer conv4_6/relu
I0622 01:35:27.079542  4705 net.cpp:454] conv4_6/relu <- conv4_6
I0622 01:35:27.079546  4705 net.cpp:397] conv4_6/relu -> conv4_6 (in-place)
I0622 01:35:27.079551  4705 net.cpp:150] Setting up conv4_6/relu
I0622 01:35:27.079556  4705 net.cpp:157] Top shape: 2 1024 60 60 (7372800)
I0622 01:35:27.079560  4705 net.cpp:165] Memory required for data: 2937713200
I0622 01:35:27.079562  4705 layer_factory.hpp:77] Creating layer conv4_6_conv4_6/relu_0_split
I0622 01:35:27.079569  4705 net.cpp:106] Creating Layer conv4_6_conv4_6/relu_0_split
I0622 01:35:27.079572  4705 net.cpp:454] conv4_6_conv4_6/relu_0_split <- conv4_6
I0622 01:35:27.079576  4705 net.cpp:411] conv4_6_conv4_6/relu_0_split -> conv4_6_conv4_6/relu_0_split_0
I0622 01:35:27.079582  4705 net.cpp:411] conv4_6_conv4_6/relu_0_split -> conv4_6_conv4_6/relu_0_split_1
I0622 01:35:27.079605  4705 net.cpp:150] Setting up conv4_6_conv4_6/relu_0_split
I0622 01:35:27.079610  4705 net.cpp:157] Top shape: 2 1024 60 60 (7372800)
I0622 01:35:27.079614  4705 net.cpp:157] Top shape: 2 1024 60 60 (7372800)
I0622 01:35:27.079617  4705 net.cpp:165] Memory required for data: 2996695600
I0622 01:35:27.079620  4705 layer_factory.hpp:77] Creating layer conv4_7_1x1_reduce
I0622 01:35:27.079628  4705 net.cpp:106] Creating Layer conv4_7_1x1_reduce
I0622 01:35:27.079632  4705 net.cpp:454] conv4_7_1x1_reduce <- conv4_6_conv4_6/relu_0_split_0
I0622 01:35:27.079638  4705 net.cpp:411] conv4_7_1x1_reduce -> conv4_7_1x1_reduce
I0622 01:35:27.085271  4705 net.cpp:150] Setting up conv4_7_1x1_reduce
I0622 01:35:27.085279  4705 net.cpp:157] Top shape: 2 256 60 60 (1843200)
I0622 01:35:27.085300  4705 net.cpp:165] Memory required for data: 3004068400
I0622 01:35:27.085306  4705 layer_factory.hpp:77] Creating layer conv4_7_1x1_reduce/bn
I0622 01:35:27.085312  4705 net.cpp:106] Creating Layer conv4_7_1x1_reduce/bn
I0622 01:35:27.085315  4705 net.cpp:454] conv4_7_1x1_reduce/bn <- conv4_7_1x1_reduce
I0622 01:35:27.085321  4705 net.cpp:397] conv4_7_1x1_reduce/bn -> conv4_7_1x1_reduce (in-place)
I0622 01:35:27.085459  4705 net.cpp:150] Setting up conv4_7_1x1_reduce/bn
I0622 01:35:27.085464  4705 net.cpp:157] Top shape: 2 256 60 60 (1843200)
I0622 01:35:27.085469  4705 net.cpp:165] Memory required for data: 3011441200
I0622 01:35:27.085475  4705 layer_factory.hpp:77] Creating layer conv4_7_1x1_reduce/relu
I0622 01:35:27.085480  4705 net.cpp:106] Creating Layer conv4_7_1x1_reduce/relu
I0622 01:35:27.085484  4705 net.cpp:454] conv4_7_1x1_reduce/relu <- conv4_7_1x1_reduce
I0622 01:35:27.085487  4705 net.cpp:397] conv4_7_1x1_reduce/relu -> conv4_7_1x1_reduce (in-place)
I0622 01:35:27.085492  4705 net.cpp:150] Setting up conv4_7_1x1_reduce/relu
I0622 01:35:27.085497  4705 net.cpp:157] Top shape: 2 256 60 60 (1843200)
I0622 01:35:27.085500  4705 net.cpp:165] Memory required for data: 3018814000
I0622 01:35:27.085503  4705 layer_factory.hpp:77] Creating layer conv4_7_3x3
I0622 01:35:27.085511  4705 net.cpp:106] Creating Layer conv4_7_3x3
I0622 01:35:27.085515  4705 net.cpp:454] conv4_7_3x3 <- conv4_7_1x1_reduce
I0622 01:35:27.085521  4705 net.cpp:411] conv4_7_3x3 -> conv4_7_3x3
I0622 01:35:27.098532  4705 net.cpp:150] Setting up conv4_7_3x3
I0622 01:35:27.098554  4705 net.cpp:157] Top shape: 2 256 60 60 (1843200)
I0622 01:35:27.098556  4705 net.cpp:165] Memory required for data: 3026186800
I0622 01:35:27.098563  4705 layer_factory.hpp:77] Creating layer conv4_7_3x3/bn
I0622 01:35:27.098572  4705 net.cpp:106] Creating Layer conv4_7_3x3/bn
I0622 01:35:27.098577  4705 net.cpp:454] conv4_7_3x3/bn <- conv4_7_3x3
I0622 01:35:27.098585  4705 net.cpp:397] conv4_7_3x3/bn -> conv4_7_3x3 (in-place)
I0622 01:35:27.098734  4705 net.cpp:150] Setting up conv4_7_3x3/bn
I0622 01:35:27.098740  4705 net.cpp:157] Top shape: 2 256 60 60 (1843200)
I0622 01:35:27.098743  4705 net.cpp:165] Memory required for data: 3033559600
I0622 01:35:27.098752  4705 layer_factory.hpp:77] Creating layer conv4_7_3x3/relu
I0622 01:35:27.098757  4705 net.cpp:106] Creating Layer conv4_7_3x3/relu
I0622 01:35:27.098760  4705 net.cpp:454] conv4_7_3x3/relu <- conv4_7_3x3
I0622 01:35:27.098765  4705 net.cpp:397] conv4_7_3x3/relu -> conv4_7_3x3 (in-place)
I0622 01:35:27.098772  4705 net.cpp:150] Setting up conv4_7_3x3/relu
I0622 01:35:27.098775  4705 net.cpp:157] Top shape: 2 256 60 60 (1843200)
I0622 01:35:27.098778  4705 net.cpp:165] Memory required for data: 3040932400
I0622 01:35:27.098783  4705 layer_factory.hpp:77] Creating layer conv4_7_1x1_increase
I0622 01:35:27.098790  4705 net.cpp:106] Creating Layer conv4_7_1x1_increase
I0622 01:35:27.098793  4705 net.cpp:454] conv4_7_1x1_increase <- conv4_7_3x3
I0622 01:35:27.098799  4705 net.cpp:411] conv4_7_1x1_increase -> conv4_7_1x1_increase
I0622 01:35:27.105065  4705 net.cpp:150] Setting up conv4_7_1x1_increase
I0622 01:35:27.105093  4705 net.cpp:157] Top shape: 2 1024 60 60 (7372800)
I0622 01:35:27.105100  4705 net.cpp:165] Memory required for data: 3070423600
I0622 01:35:27.105114  4705 layer_factory.hpp:77] Creating layer conv4_7_1x1_increase/bn
I0622 01:35:27.105132  4705 net.cpp:106] Creating Layer conv4_7_1x1_increase/bn
I0622 01:35:27.105139  4705 net.cpp:454] conv4_7_1x1_increase/bn <- conv4_7_1x1_increase
I0622 01:35:27.105147  4705 net.cpp:397] conv4_7_1x1_increase/bn -> conv4_7_1x1_increase (in-place)
I0622 01:35:27.105386  4705 net.cpp:150] Setting up conv4_7_1x1_increase/bn
I0622 01:35:27.105394  4705 net.cpp:157] Top shape: 2 1024 60 60 (7372800)
I0622 01:35:27.105398  4705 net.cpp:165] Memory required for data: 3099914800
I0622 01:35:27.105407  4705 layer_factory.hpp:77] Creating layer conv4_7
I0622 01:35:27.105414  4705 net.cpp:106] Creating Layer conv4_7
I0622 01:35:27.105442  4705 net.cpp:454] conv4_7 <- conv4_6_conv4_6/relu_0_split_1
I0622 01:35:27.105446  4705 net.cpp:454] conv4_7 <- conv4_7_1x1_increase
I0622 01:35:27.105451  4705 net.cpp:411] conv4_7 -> conv4_7
I0622 01:35:27.105476  4705 net.cpp:150] Setting up conv4_7
I0622 01:35:27.105481  4705 net.cpp:157] Top shape: 2 1024 60 60 (7372800)
I0622 01:35:27.105484  4705 net.cpp:165] Memory required for data: 3129406000
I0622 01:35:27.105489  4705 layer_factory.hpp:77] Creating layer conv4_7/relu
I0622 01:35:27.105495  4705 net.cpp:106] Creating Layer conv4_7/relu
I0622 01:35:27.105499  4705 net.cpp:454] conv4_7/relu <- conv4_7
I0622 01:35:27.105504  4705 net.cpp:397] conv4_7/relu -> conv4_7 (in-place)
I0622 01:35:27.105509  4705 net.cpp:150] Setting up conv4_7/relu
I0622 01:35:27.105514  4705 net.cpp:157] Top shape: 2 1024 60 60 (7372800)
I0622 01:35:27.105516  4705 net.cpp:165] Memory required for data: 3158897200
I0622 01:35:27.105520  4705 layer_factory.hpp:77] Creating layer conv4_7_conv4_7/relu_0_split
I0622 01:35:27.105527  4705 net.cpp:106] Creating Layer conv4_7_conv4_7/relu_0_split
I0622 01:35:27.105530  4705 net.cpp:454] conv4_7_conv4_7/relu_0_split <- conv4_7
I0622 01:35:27.105535  4705 net.cpp:411] conv4_7_conv4_7/relu_0_split -> conv4_7_conv4_7/relu_0_split_0
I0622 01:35:27.105540  4705 net.cpp:411] conv4_7_conv4_7/relu_0_split -> conv4_7_conv4_7/relu_0_split_1
I0622 01:35:27.105564  4705 net.cpp:150] Setting up conv4_7_conv4_7/relu_0_split
I0622 01:35:27.105569  4705 net.cpp:157] Top shape: 2 1024 60 60 (7372800)
I0622 01:35:27.105574  4705 net.cpp:157] Top shape: 2 1024 60 60 (7372800)
I0622 01:35:27.105577  4705 net.cpp:165] Memory required for data: 3217879600
I0622 01:35:27.105581  4705 layer_factory.hpp:77] Creating layer conv4_8_1x1_reduce
I0622 01:35:27.105590  4705 net.cpp:106] Creating Layer conv4_8_1x1_reduce
I0622 01:35:27.105594  4705 net.cpp:454] conv4_8_1x1_reduce <- conv4_7_conv4_7/relu_0_split_0
I0622 01:35:27.105600  4705 net.cpp:411] conv4_8_1x1_reduce -> conv4_8_1x1_reduce
I0622 01:35:27.113832  4705 net.cpp:150] Setting up conv4_8_1x1_reduce
I0622 01:35:27.113898  4705 net.cpp:157] Top shape: 2 256 60 60 (1843200)
I0622 01:35:27.113904  4705 net.cpp:165] Memory required for data: 3225252400
I0622 01:35:27.113920  4705 layer_factory.hpp:77] Creating layer conv4_8_1x1_reduce/bn
I0622 01:35:27.113950  4705 net.cpp:106] Creating Layer conv4_8_1x1_reduce/bn
I0622 01:35:27.113961  4705 net.cpp:454] conv4_8_1x1_reduce/bn <- conv4_8_1x1_reduce
I0622 01:35:27.113975  4705 net.cpp:397] conv4_8_1x1_reduce/bn -> conv4_8_1x1_reduce (in-place)
I0622 01:35:27.114246  4705 net.cpp:150] Setting up conv4_8_1x1_reduce/bn
I0622 01:35:27.114254  4705 net.cpp:157] Top shape: 2 256 60 60 (1843200)
I0622 01:35:27.114258  4705 net.cpp:165] Memory required for data: 3232625200
I0622 01:35:27.114267  4705 layer_factory.hpp:77] Creating layer conv4_8_1x1_reduce/relu
I0622 01:35:27.114279  4705 net.cpp:106] Creating Layer conv4_8_1x1_reduce/relu
I0622 01:35:27.114284  4705 net.cpp:454] conv4_8_1x1_reduce/relu <- conv4_8_1x1_reduce
I0622 01:35:27.114289  4705 net.cpp:397] conv4_8_1x1_reduce/relu -> conv4_8_1x1_reduce (in-place)
I0622 01:35:27.114297  4705 net.cpp:150] Setting up conv4_8_1x1_reduce/relu
I0622 01:35:27.114303  4705 net.cpp:157] Top shape: 2 256 60 60 (1843200)
I0622 01:35:27.114306  4705 net.cpp:165] Memory required for data: 3239998000
I0622 01:35:27.114311  4705 layer_factory.hpp:77] Creating layer conv4_8_3x3
I0622 01:35:27.114327  4705 net.cpp:106] Creating Layer conv4_8_3x3
I0622 01:35:27.114332  4705 net.cpp:454] conv4_8_3x3 <- conv4_8_1x1_reduce
I0622 01:35:27.114339  4705 net.cpp:411] conv4_8_3x3 -> conv4_8_3x3
I0622 01:35:27.129561  4705 net.cpp:150] Setting up conv4_8_3x3
I0622 01:35:27.129590  4705 net.cpp:157] Top shape: 2 256 60 60 (1843200)
I0622 01:35:27.129595  4705 net.cpp:165] Memory required for data: 3247370800
I0622 01:35:27.129606  4705 layer_factory.hpp:77] Creating layer conv4_8_3x3/bn
I0622 01:35:27.129618  4705 net.cpp:106] Creating Layer conv4_8_3x3/bn
I0622 01:35:27.129643  4705 net.cpp:454] conv4_8_3x3/bn <- conv4_8_3x3
I0622 01:35:27.129650  4705 net.cpp:397] conv4_8_3x3/bn -> conv4_8_3x3 (in-place)
I0622 01:35:27.129804  4705 net.cpp:150] Setting up conv4_8_3x3/bn
I0622 01:35:27.129809  4705 net.cpp:157] Top shape: 2 256 60 60 (1843200)
I0622 01:35:27.129813  4705 net.cpp:165] Memory required for data: 3254743600
I0622 01:35:27.129820  4705 layer_factory.hpp:77] Creating layer conv4_8_3x3/relu
I0622 01:35:27.129827  4705 net.cpp:106] Creating Layer conv4_8_3x3/relu
I0622 01:35:27.129829  4705 net.cpp:454] conv4_8_3x3/relu <- conv4_8_3x3
I0622 01:35:27.129834  4705 net.cpp:397] conv4_8_3x3/relu -> conv4_8_3x3 (in-place)
I0622 01:35:27.129839  4705 net.cpp:150] Setting up conv4_8_3x3/relu
I0622 01:35:27.129843  4705 net.cpp:157] Top shape: 2 256 60 60 (1843200)
I0622 01:35:27.129848  4705 net.cpp:165] Memory required for data: 3262116400
I0622 01:35:27.129850  4705 layer_factory.hpp:77] Creating layer conv4_8_1x1_increase
I0622 01:35:27.129859  4705 net.cpp:106] Creating Layer conv4_8_1x1_increase
I0622 01:35:27.129863  4705 net.cpp:454] conv4_8_1x1_increase <- conv4_8_3x3
I0622 01:35:27.129869  4705 net.cpp:411] conv4_8_1x1_increase -> conv4_8_1x1_increase
I0622 01:35:27.136097  4705 net.cpp:150] Setting up conv4_8_1x1_increase
I0622 01:35:27.136107  4705 net.cpp:157] Top shape: 2 1024 60 60 (7372800)
I0622 01:35:27.136111  4705 net.cpp:165] Memory required for data: 3291607600
I0622 01:35:27.136117  4705 layer_factory.hpp:77] Creating layer conv4_8_1x1_increase/bn
I0622 01:35:27.136124  4705 net.cpp:106] Creating Layer conv4_8_1x1_increase/bn
I0622 01:35:27.136128  4705 net.cpp:454] conv4_8_1x1_increase/bn <- conv4_8_1x1_increase
I0622 01:35:27.136133  4705 net.cpp:397] conv4_8_1x1_increase/bn -> conv4_8_1x1_increase (in-place)
I0622 01:35:27.136277  4705 net.cpp:150] Setting up conv4_8_1x1_increase/bn
I0622 01:35:27.136283  4705 net.cpp:157] Top shape: 2 1024 60 60 (7372800)
I0622 01:35:27.136287  4705 net.cpp:165] Memory required for data: 3321098800
I0622 01:35:27.136294  4705 layer_factory.hpp:77] Creating layer conv4_8
I0622 01:35:27.136301  4705 net.cpp:106] Creating Layer conv4_8
I0622 01:35:27.136303  4705 net.cpp:454] conv4_8 <- conv4_7_conv4_7/relu_0_split_1
I0622 01:35:27.136308  4705 net.cpp:454] conv4_8 <- conv4_8_1x1_increase
I0622 01:35:27.136313  4705 net.cpp:411] conv4_8 -> conv4_8
I0622 01:35:27.136333  4705 net.cpp:150] Setting up conv4_8
I0622 01:35:27.136338  4705 net.cpp:157] Top shape: 2 1024 60 60 (7372800)
I0622 01:35:27.136342  4705 net.cpp:165] Memory required for data: 3350590000
I0622 01:35:27.136345  4705 layer_factory.hpp:77] Creating layer conv4_8/relu
I0622 01:35:27.136351  4705 net.cpp:106] Creating Layer conv4_8/relu
I0622 01:35:27.136354  4705 net.cpp:454] conv4_8/relu <- conv4_8
I0622 01:35:27.136360  4705 net.cpp:397] conv4_8/relu -> conv4_8 (in-place)
I0622 01:35:27.136365  4705 net.cpp:150] Setting up conv4_8/relu
I0622 01:35:27.136369  4705 net.cpp:157] Top shape: 2 1024 60 60 (7372800)
I0622 01:35:27.136373  4705 net.cpp:165] Memory required for data: 3380081200
I0622 01:35:27.136375  4705 layer_factory.hpp:77] Creating layer conv4_8_conv4_8/relu_0_split
I0622 01:35:27.136380  4705 net.cpp:106] Creating Layer conv4_8_conv4_8/relu_0_split
I0622 01:35:27.136384  4705 net.cpp:454] conv4_8_conv4_8/relu_0_split <- conv4_8
I0622 01:35:27.136389  4705 net.cpp:411] conv4_8_conv4_8/relu_0_split -> conv4_8_conv4_8/relu_0_split_0
I0622 01:35:27.136394  4705 net.cpp:411] conv4_8_conv4_8/relu_0_split -> conv4_8_conv4_8/relu_0_split_1
I0622 01:35:27.136418  4705 net.cpp:150] Setting up conv4_8_conv4_8/relu_0_split
I0622 01:35:27.136423  4705 net.cpp:157] Top shape: 2 1024 60 60 (7372800)
I0622 01:35:27.136428  4705 net.cpp:157] Top shape: 2 1024 60 60 (7372800)
I0622 01:35:27.136431  4705 net.cpp:165] Memory required for data: 3439063600
I0622 01:35:27.136435  4705 layer_factory.hpp:77] Creating layer conv4_9_1x1_reduce
I0622 01:35:27.136443  4705 net.cpp:106] Creating Layer conv4_9_1x1_reduce
I0622 01:35:27.136447  4705 net.cpp:454] conv4_9_1x1_reduce <- conv4_8_conv4_8/relu_0_split_0
I0622 01:35:27.136462  4705 net.cpp:411] conv4_9_1x1_reduce -> conv4_9_1x1_reduce
I0622 01:35:27.141993  4705 net.cpp:150] Setting up conv4_9_1x1_reduce
I0622 01:35:27.142002  4705 net.cpp:157] Top shape: 2 256 60 60 (1843200)
I0622 01:35:27.142006  4705 net.cpp:165] Memory required for data: 3446436400
I0622 01:35:27.142012  4705 layer_factory.hpp:77] Creating layer conv4_9_1x1_reduce/bn
I0622 01:35:27.142019  4705 net.cpp:106] Creating Layer conv4_9_1x1_reduce/bn
I0622 01:35:27.142022  4705 net.cpp:454] conv4_9_1x1_reduce/bn <- conv4_9_1x1_reduce
I0622 01:35:27.142027  4705 net.cpp:397] conv4_9_1x1_reduce/bn -> conv4_9_1x1_reduce (in-place)
I0622 01:35:27.142166  4705 net.cpp:150] Setting up conv4_9_1x1_reduce/bn
I0622 01:35:27.142172  4705 net.cpp:157] Top shape: 2 256 60 60 (1843200)
I0622 01:35:27.142175  4705 net.cpp:165] Memory required for data: 3453809200
I0622 01:35:27.142210  4705 layer_factory.hpp:77] Creating layer conv4_9_1x1_reduce/relu
I0622 01:35:27.142216  4705 net.cpp:106] Creating Layer conv4_9_1x1_reduce/relu
I0622 01:35:27.142220  4705 net.cpp:454] conv4_9_1x1_reduce/relu <- conv4_9_1x1_reduce
I0622 01:35:27.142225  4705 net.cpp:397] conv4_9_1x1_reduce/relu -> conv4_9_1x1_reduce (in-place)
I0622 01:35:27.142230  4705 net.cpp:150] Setting up conv4_9_1x1_reduce/relu
I0622 01:35:27.142235  4705 net.cpp:157] Top shape: 2 256 60 60 (1843200)
I0622 01:35:27.142237  4705 net.cpp:165] Memory required for data: 3461182000
I0622 01:35:27.142241  4705 layer_factory.hpp:77] Creating layer conv4_9_3x3
I0622 01:35:27.142248  4705 net.cpp:106] Creating Layer conv4_9_3x3
I0622 01:35:27.142251  4705 net.cpp:454] conv4_9_3x3 <- conv4_9_1x1_reduce
I0622 01:35:27.142257  4705 net.cpp:411] conv4_9_3x3 -> conv4_9_3x3
I0622 01:35:27.155524  4705 net.cpp:150] Setting up conv4_9_3x3
I0622 01:35:27.155563  4705 net.cpp:157] Top shape: 2 256 60 60 (1843200)
I0622 01:35:27.155568  4705 net.cpp:165] Memory required for data: 3468554800
I0622 01:35:27.155580  4705 layer_factory.hpp:77] Creating layer conv4_9_3x3/bn
I0622 01:35:27.155596  4705 net.cpp:106] Creating Layer conv4_9_3x3/bn
I0622 01:35:27.155604  4705 net.cpp:454] conv4_9_3x3/bn <- conv4_9_3x3
I0622 01:35:27.155613  4705 net.cpp:397] conv4_9_3x3/bn -> conv4_9_3x3 (in-place)
I0622 01:35:27.155776  4705 net.cpp:150] Setting up conv4_9_3x3/bn
I0622 01:35:27.155782  4705 net.cpp:157] Top shape: 2 256 60 60 (1843200)
I0622 01:35:27.155786  4705 net.cpp:165] Memory required for data: 3475927600
I0622 01:35:27.155793  4705 layer_factory.hpp:77] Creating layer conv4_9_3x3/relu
I0622 01:35:27.155800  4705 net.cpp:106] Creating Layer conv4_9_3x3/relu
I0622 01:35:27.155803  4705 net.cpp:454] conv4_9_3x3/relu <- conv4_9_3x3
I0622 01:35:27.155808  4705 net.cpp:397] conv4_9_3x3/relu -> conv4_9_3x3 (in-place)
I0622 01:35:27.155813  4705 net.cpp:150] Setting up conv4_9_3x3/relu
I0622 01:35:27.155817  4705 net.cpp:157] Top shape: 2 256 60 60 (1843200)
I0622 01:35:27.155820  4705 net.cpp:165] Memory required for data: 3483300400
I0622 01:35:27.155824  4705 layer_factory.hpp:77] Creating layer conv4_9_1x1_increase
I0622 01:35:27.155831  4705 net.cpp:106] Creating Layer conv4_9_1x1_increase
I0622 01:35:27.155834  4705 net.cpp:454] conv4_9_1x1_increase <- conv4_9_3x3
I0622 01:35:27.155840  4705 net.cpp:411] conv4_9_1x1_increase -> conv4_9_1x1_increase
I0622 01:35:27.162461  4705 net.cpp:150] Setting up conv4_9_1x1_increase
I0622 01:35:27.162497  4705 net.cpp:157] Top shape: 2 1024 60 60 (7372800)
I0622 01:35:27.162502  4705 net.cpp:165] Memory required for data: 3512791600
I0622 01:35:27.162511  4705 layer_factory.hpp:77] Creating layer conv4_9_1x1_increase/bn
I0622 01:35:27.162524  4705 net.cpp:106] Creating Layer conv4_9_1x1_increase/bn
I0622 01:35:27.162530  4705 net.cpp:454] conv4_9_1x1_increase/bn <- conv4_9_1x1_increase
I0622 01:35:27.162540  4705 net.cpp:397] conv4_9_1x1_increase/bn -> conv4_9_1x1_increase (in-place)
I0622 01:35:27.162715  4705 net.cpp:150] Setting up conv4_9_1x1_increase/bn
I0622 01:35:27.162720  4705 net.cpp:157] Top shape: 2 1024 60 60 (7372800)
I0622 01:35:27.162744  4705 net.cpp:165] Memory required for data: 3542282800
I0622 01:35:27.162755  4705 layer_factory.hpp:77] Creating layer conv4_9
I0622 01:35:27.162767  4705 net.cpp:106] Creating Layer conv4_9
I0622 01:35:27.162772  4705 net.cpp:454] conv4_9 <- conv4_8_conv4_8/relu_0_split_1
I0622 01:35:27.162777  4705 net.cpp:454] conv4_9 <- conv4_9_1x1_increase
I0622 01:35:27.162783  4705 net.cpp:411] conv4_9 -> conv4_9
I0622 01:35:27.162812  4705 net.cpp:150] Setting up conv4_9
I0622 01:35:27.162818  4705 net.cpp:157] Top shape: 2 1024 60 60 (7372800)
I0622 01:35:27.162822  4705 net.cpp:165] Memory required for data: 3571774000
I0622 01:35:27.162827  4705 layer_factory.hpp:77] Creating layer conv4_9/relu
I0622 01:35:27.162833  4705 net.cpp:106] Creating Layer conv4_9/relu
I0622 01:35:27.162837  4705 net.cpp:454] conv4_9/relu <- conv4_9
I0622 01:35:27.162844  4705 net.cpp:397] conv4_9/relu -> conv4_9 (in-place)
I0622 01:35:27.162850  4705 net.cpp:150] Setting up conv4_9/relu
I0622 01:35:27.162855  4705 net.cpp:157] Top shape: 2 1024 60 60 (7372800)
I0622 01:35:27.162859  4705 net.cpp:165] Memory required for data: 3601265200
I0622 01:35:27.162864  4705 layer_factory.hpp:77] Creating layer conv4_9_conv4_9/relu_0_split
I0622 01:35:27.162870  4705 net.cpp:106] Creating Layer conv4_9_conv4_9/relu_0_split
I0622 01:35:27.162874  4705 net.cpp:454] conv4_9_conv4_9/relu_0_split <- conv4_9
I0622 01:35:27.162880  4705 net.cpp:411] conv4_9_conv4_9/relu_0_split -> conv4_9_conv4_9/relu_0_split_0
I0622 01:35:27.162888  4705 net.cpp:411] conv4_9_conv4_9/relu_0_split -> conv4_9_conv4_9/relu_0_split_1
I0622 01:35:27.162917  4705 net.cpp:150] Setting up conv4_9_conv4_9/relu_0_split
I0622 01:35:27.162924  4705 net.cpp:157] Top shape: 2 1024 60 60 (7372800)
I0622 01:35:27.162928  4705 net.cpp:157] Top shape: 2 1024 60 60 (7372800)
I0622 01:35:27.162932  4705 net.cpp:165] Memory required for data: 3660247600
I0622 01:35:27.162936  4705 layer_factory.hpp:77] Creating layer conv4_10_1x1_reduce
I0622 01:35:27.162950  4705 net.cpp:106] Creating Layer conv4_10_1x1_reduce
I0622 01:35:27.162955  4705 net.cpp:454] conv4_10_1x1_reduce <- conv4_9_conv4_9/relu_0_split_0
I0622 01:35:27.162964  4705 net.cpp:411] conv4_10_1x1_reduce -> conv4_10_1x1_reduce
I0622 01:35:27.171545  4705 net.cpp:150] Setting up conv4_10_1x1_reduce
I0622 01:35:27.171617  4705 net.cpp:157] Top shape: 2 256 60 60 (1843200)
I0622 01:35:27.171624  4705 net.cpp:165] Memory required for data: 3667620400
I0622 01:35:27.171644  4705 layer_factory.hpp:77] Creating layer conv4_10_1x1_reduce/bn
I0622 01:35:27.171672  4705 net.cpp:106] Creating Layer conv4_10_1x1_reduce/bn
I0622 01:35:27.171682  4705 net.cpp:454] conv4_10_1x1_reduce/bn <- conv4_10_1x1_reduce
I0622 01:35:27.171694  4705 net.cpp:397] conv4_10_1x1_reduce/bn -> conv4_10_1x1_reduce (in-place)
I0622 01:35:27.171939  4705 net.cpp:150] Setting up conv4_10_1x1_reduce/bn
I0622 01:35:27.171947  4705 net.cpp:157] Top shape: 2 256 60 60 (1843200)
I0622 01:35:27.171952  4705 net.cpp:165] Memory required for data: 3674993200
I0622 01:35:27.171962  4705 layer_factory.hpp:77] Creating layer conv4_10_1x1_reduce/relu
I0622 01:35:27.171975  4705 net.cpp:106] Creating Layer conv4_10_1x1_reduce/relu
I0622 01:35:27.171979  4705 net.cpp:454] conv4_10_1x1_reduce/relu <- conv4_10_1x1_reduce
I0622 01:35:27.171985  4705 net.cpp:397] conv4_10_1x1_reduce/relu -> conv4_10_1x1_reduce (in-place)
I0622 01:35:27.171994  4705 net.cpp:150] Setting up conv4_10_1x1_reduce/relu
I0622 01:35:27.171999  4705 net.cpp:157] Top shape: 2 256 60 60 (1843200)
I0622 01:35:27.172003  4705 net.cpp:165] Memory required for data: 3682366000
I0622 01:35:27.172006  4705 layer_factory.hpp:77] Creating layer conv4_10_3x3
I0622 01:35:27.172022  4705 net.cpp:106] Creating Layer conv4_10_3x3
I0622 01:35:27.172027  4705 net.cpp:454] conv4_10_3x3 <- conv4_10_1x1_reduce
I0622 01:35:27.172034  4705 net.cpp:411] conv4_10_3x3 -> conv4_10_3x3
I0622 01:35:27.186949  4705 net.cpp:150] Setting up conv4_10_3x3
I0622 01:35:27.186970  4705 net.cpp:157] Top shape: 2 256 60 60 (1843200)
I0622 01:35:27.186987  4705 net.cpp:165] Memory required for data: 3689738800
I0622 01:35:27.186995  4705 layer_factory.hpp:77] Creating layer conv4_10_3x3/bn
I0622 01:35:27.187006  4705 net.cpp:106] Creating Layer conv4_10_3x3/bn
I0622 01:35:27.187011  4705 net.cpp:454] conv4_10_3x3/bn <- conv4_10_3x3
I0622 01:35:27.187018  4705 net.cpp:397] conv4_10_3x3/bn -> conv4_10_3x3 (in-place)
I0622 01:35:27.187181  4705 net.cpp:150] Setting up conv4_10_3x3/bn
I0622 01:35:27.187186  4705 net.cpp:157] Top shape: 2 256 60 60 (1843200)
I0622 01:35:27.187189  4705 net.cpp:165] Memory required for data: 3697111600
I0622 01:35:27.187196  4705 layer_factory.hpp:77] Creating layer conv4_10_3x3/relu
I0622 01:35:27.187201  4705 net.cpp:106] Creating Layer conv4_10_3x3/relu
I0622 01:35:27.187204  4705 net.cpp:454] conv4_10_3x3/relu <- conv4_10_3x3
I0622 01:35:27.187208  4705 net.cpp:397] conv4_10_3x3/relu -> conv4_10_3x3 (in-place)
I0622 01:35:27.187213  4705 net.cpp:150] Setting up conv4_10_3x3/relu
I0622 01:35:27.187216  4705 net.cpp:157] Top shape: 2 256 60 60 (1843200)
I0622 01:35:27.187219  4705 net.cpp:165] Memory required for data: 3704484400
I0622 01:35:27.187222  4705 layer_factory.hpp:77] Creating layer conv4_10_1x1_increase
I0622 01:35:27.187230  4705 net.cpp:106] Creating Layer conv4_10_1x1_increase
I0622 01:35:27.187234  4705 net.cpp:454] conv4_10_1x1_increase <- conv4_10_3x3
I0622 01:35:27.187240  4705 net.cpp:411] conv4_10_1x1_increase -> conv4_10_1x1_increase
I0622 01:35:27.193630  4705 net.cpp:150] Setting up conv4_10_1x1_increase
I0622 01:35:27.193651  4705 net.cpp:157] Top shape: 2 1024 60 60 (7372800)
I0622 01:35:27.193655  4705 net.cpp:165] Memory required for data: 3733975600
I0622 01:35:27.193662  4705 layer_factory.hpp:77] Creating layer conv4_10_1x1_increase/bn
I0622 01:35:27.193673  4705 net.cpp:106] Creating Layer conv4_10_1x1_increase/bn
I0622 01:35:27.193677  4705 net.cpp:454] conv4_10_1x1_increase/bn <- conv4_10_1x1_increase
I0622 01:35:27.193683  4705 net.cpp:397] conv4_10_1x1_increase/bn -> conv4_10_1x1_increase (in-place)
I0622 01:35:27.193847  4705 net.cpp:150] Setting up conv4_10_1x1_increase/bn
I0622 01:35:27.193853  4705 net.cpp:157] Top shape: 2 1024 60 60 (7372800)
I0622 01:35:27.193856  4705 net.cpp:165] Memory required for data: 3763466800
I0622 01:35:27.193861  4705 layer_factory.hpp:77] Creating layer conv4_10
I0622 01:35:27.193867  4705 net.cpp:106] Creating Layer conv4_10
I0622 01:35:27.193871  4705 net.cpp:454] conv4_10 <- conv4_9_conv4_9/relu_0_split_1
I0622 01:35:27.193873  4705 net.cpp:454] conv4_10 <- conv4_10_1x1_increase
I0622 01:35:27.193877  4705 net.cpp:411] conv4_10 -> conv4_10
I0622 01:35:27.193895  4705 net.cpp:150] Setting up conv4_10
I0622 01:35:27.193899  4705 net.cpp:157] Top shape: 2 1024 60 60 (7372800)
I0622 01:35:27.193902  4705 net.cpp:165] Memory required for data: 3792958000
I0622 01:35:27.193903  4705 layer_factory.hpp:77] Creating layer conv4_10/relu
I0622 01:35:27.193907  4705 net.cpp:106] Creating Layer conv4_10/relu
I0622 01:35:27.193909  4705 net.cpp:454] conv4_10/relu <- conv4_10
I0622 01:35:27.193912  4705 net.cpp:397] conv4_10/relu -> conv4_10 (in-place)
I0622 01:35:27.193917  4705 net.cpp:150] Setting up conv4_10/relu
I0622 01:35:27.193919  4705 net.cpp:157] Top shape: 2 1024 60 60 (7372800)
I0622 01:35:27.193920  4705 net.cpp:165] Memory required for data: 3822449200
I0622 01:35:27.193923  4705 layer_factory.hpp:77] Creating layer conv4_10_conv4_10/relu_0_split
I0622 01:35:27.193927  4705 net.cpp:106] Creating Layer conv4_10_conv4_10/relu_0_split
I0622 01:35:27.193929  4705 net.cpp:454] conv4_10_conv4_10/relu_0_split <- conv4_10
I0622 01:35:27.193933  4705 net.cpp:411] conv4_10_conv4_10/relu_0_split -> conv4_10_conv4_10/relu_0_split_0
I0622 01:35:27.193938  4705 net.cpp:411] conv4_10_conv4_10/relu_0_split -> conv4_10_conv4_10/relu_0_split_1
I0622 01:35:27.193960  4705 net.cpp:150] Setting up conv4_10_conv4_10/relu_0_split
I0622 01:35:27.193964  4705 net.cpp:157] Top shape: 2 1024 60 60 (7372800)
I0622 01:35:27.193967  4705 net.cpp:157] Top shape: 2 1024 60 60 (7372800)
I0622 01:35:27.193991  4705 net.cpp:165] Memory required for data: 3881431600
I0622 01:35:27.193995  4705 layer_factory.hpp:77] Creating layer conv4_11_1x1_reduce
I0622 01:35:27.194005  4705 net.cpp:106] Creating Layer conv4_11_1x1_reduce
I0622 01:35:27.194007  4705 net.cpp:454] conv4_11_1x1_reduce <- conv4_10_conv4_10/relu_0_split_0
I0622 01:35:27.194011  4705 net.cpp:411] conv4_11_1x1_reduce -> conv4_11_1x1_reduce
I0622 01:35:27.199622  4705 net.cpp:150] Setting up conv4_11_1x1_reduce
I0622 01:35:27.199628  4705 net.cpp:157] Top shape: 2 256 60 60 (1843200)
I0622 01:35:27.199630  4705 net.cpp:165] Memory required for data: 3888804400
I0622 01:35:27.199635  4705 layer_factory.hpp:77] Creating layer conv4_11_1x1_reduce/bn
I0622 01:35:27.199641  4705 net.cpp:106] Creating Layer conv4_11_1x1_reduce/bn
I0622 01:35:27.199645  4705 net.cpp:454] conv4_11_1x1_reduce/bn <- conv4_11_1x1_reduce
I0622 01:35:27.199648  4705 net.cpp:397] conv4_11_1x1_reduce/bn -> conv4_11_1x1_reduce (in-place)
I0622 01:35:27.199787  4705 net.cpp:150] Setting up conv4_11_1x1_reduce/bn
I0622 01:35:27.199792  4705 net.cpp:157] Top shape: 2 256 60 60 (1843200)
I0622 01:35:27.199795  4705 net.cpp:165] Memory required for data: 3896177200
I0622 01:35:27.199800  4705 layer_factory.hpp:77] Creating layer conv4_11_1x1_reduce/relu
I0622 01:35:27.199806  4705 net.cpp:106] Creating Layer conv4_11_1x1_reduce/relu
I0622 01:35:27.199808  4705 net.cpp:454] conv4_11_1x1_reduce/relu <- conv4_11_1x1_reduce
I0622 01:35:27.199812  4705 net.cpp:397] conv4_11_1x1_reduce/relu -> conv4_11_1x1_reduce (in-place)
I0622 01:35:27.199816  4705 net.cpp:150] Setting up conv4_11_1x1_reduce/relu
I0622 01:35:27.199820  4705 net.cpp:157] Top shape: 2 256 60 60 (1843200)
I0622 01:35:27.199821  4705 net.cpp:165] Memory required for data: 3903550000
I0622 01:35:27.199825  4705 layer_factory.hpp:77] Creating layer conv4_11_3x3
I0622 01:35:27.199836  4705 net.cpp:106] Creating Layer conv4_11_3x3
I0622 01:35:27.199838  4705 net.cpp:454] conv4_11_3x3 <- conv4_11_1x1_reduce
I0622 01:35:27.199842  4705 net.cpp:411] conv4_11_3x3 -> conv4_11_3x3
I0622 01:35:27.212862  4705 net.cpp:150] Setting up conv4_11_3x3
I0622 01:35:27.212882  4705 net.cpp:157] Top shape: 2 256 60 60 (1843200)
I0622 01:35:27.212885  4705 net.cpp:165] Memory required for data: 3910922800
I0622 01:35:27.212893  4705 layer_factory.hpp:77] Creating layer conv4_11_3x3/bn
I0622 01:35:27.212903  4705 net.cpp:106] Creating Layer conv4_11_3x3/bn
I0622 01:35:27.212908  4705 net.cpp:454] conv4_11_3x3/bn <- conv4_11_3x3
I0622 01:35:27.212913  4705 net.cpp:397] conv4_11_3x3/bn -> conv4_11_3x3 (in-place)
I0622 01:35:27.213074  4705 net.cpp:150] Setting up conv4_11_3x3/bn
I0622 01:35:27.213079  4705 net.cpp:157] Top shape: 2 256 60 60 (1843200)
I0622 01:35:27.213083  4705 net.cpp:165] Memory required for data: 3918295600
I0622 01:35:27.213088  4705 layer_factory.hpp:77] Creating layer conv4_11_3x3/relu
…
I0622 01:35:27.515965  4705 net.cpp:150] Setting up conv4_21/relu
I0622 01:35:27.515970  4705 net.cpp:157] Top shape: 2 1024 60 60 (7372800)
I0622 01:35:27.515974  4705 net.cpp:165] Memory required for data: 6255473200
I0622 01:35:27.515978  4705 layer_factory.hpp:77] Creating layer conv4_21_conv4_21/relu_0_split
I0622 01:35:27.515985  4705 net.cpp:106] Creating Layer conv4_21_conv4_21/relu_0_split
I0622 01:35:27.515988  4705 net.cpp:454] conv4_21_conv4_21/relu_0_split <- conv4_21
I0622 01:35:27.515993  4705 net.cpp:411] conv4_21_conv4_21/relu_0_split -> conv4_21_conv4_21/relu_0_split_0
I0622 01:35:27.516000  4705 net.cpp:411] conv4_21_conv4_21/relu_0_split -> conv4_21_conv4_21/relu_0_split_1
I0622 01:35:27.516060  4705 net.cpp:150] Setting up conv4_21_conv4_21/relu_0_split
I0622 01:35:27.516067  4705 net.cpp:157] Top shape: 2 1024 60 60 (7372800)
I0622 01:35:27.516072  4705 net.cpp:157] Top shape: 2 1024 60 60 (7372800)
I0622 01:35:27.516075  4705 net.cpp:165] Memory required for data: 6314455600
I0622 01:35:27.516080  4705 layer_factory.hpp:77] Creating layer conv4_22_1x1_reduce
I0622 01:35:27.516093  4705 net.cpp:106] Creating Layer conv4_22_1x1_reduce
I0622 01:35:27.516096  4705 net.cpp:454] conv4_22_1x1_reduce <- conv4_21_conv4_21/relu_0_split_0
I0622 01:35:27.516104  4705 net.cpp:411] conv4_22_1x1_reduce -> conv4_22_1x1_reduce
I0622 01:35:27.524011  4705 net.cpp:150] Setting up conv4_22_1x1_reduce
I0622 01:35:27.524066  4705 net.cpp:157] Top shape: 2 256 60 60 (1843200)
I0622 01:35:27.524071  4705 net.cpp:165] Memory required for data: 6321828400
I0622 01:35:27.524085  4705 layer_factory.hpp:77] Creating layer conv4_22_1x1_reduce/bn
I0622 01:35:27.524106  4705 net.cpp:106] Creating Layer conv4_22_1x1_reduce/bn
I0622 01:35:27.524116  4705 net.cpp:454] conv4_22_1x1_reduce/bn <- conv4_22_1x1_reduce
I0622 01:35:27.524127  4705 net.cpp:397] conv4_22_1x1_reduce/bn -> conv4_22_1x1_reduce (in-place)
I0622 01:35:27.524390  4705 net.cpp:150] Setting up conv4_22_1x1_reduce/bn
I0622 01:35:27.524399  4705 net.cpp:157] Top shape: 2 256 60 60 (1843200)
I0622 01:35:27.524402  4705 net.cpp:165] Memory required for data: 6329201200
I0622 01:35:27.524411  4705 layer_factory.hpp:77] Creating layer conv4_22_1x1_reduce/relu
I0622 01:35:27.524418  4705 net.cpp:106] Creating Layer conv4_22_1x1_reduce/relu
I0622 01:35:27.524423  4705 net.cpp:454] conv4_22_1x1_reduce/relu <- conv4_22_1x1_reduce
I0622 01:35:27.524428  4705 net.cpp:397] conv4_22_1x1_reduce/relu -> conv4_22_1x1_reduce (in-place)
I0622 01:35:27.524435  4705 net.cpp:150] Setting up conv4_22_1x1_reduce/relu
I0622 01:35:27.524441  4705 net.cpp:157] Top shape: 2 256 60 60 (1843200)
I0622 01:35:27.524446  4705 net.cpp:165] Memory required for data: 6336574000
I0622 01:35:27.524449  4705 layer_factory.hpp:77] Creating layer conv4_22_3x3
I0622 01:35:27.524461  4705 net.cpp:106] Creating Layer conv4_22_3x3
I0622 01:35:27.524464  4705 net.cpp:454] conv4_22_3x3 <- conv4_22_1x1_reduce
I0622 01:35:27.524471  4705 net.cpp:411] conv4_22_3x3 -> conv4_22_3x3
I0622 01:35:27.542109  4705 net.cpp:150] Setting up conv4_22_3x3
I0622 01:35:27.542142  4705 net.cpp:157] Top shape: 2 256 60 60 (1843200)
I0622 01:35:27.542147  4705 net.cpp:165] Memory required for data: 6343946800
I0622 01:35:27.542157  4705 layer_factory.hpp:77] Creating layer conv4_22_3x3/bn
I0622 01:35:27.542170  4705 net.cpp:106] Creating Layer conv4_22_3x3/bn
I0622 01:35:27.542176  4705 net.cpp:454] conv4_22_3x3/bn <- conv4_22_3x3
I0622 01:35:27.542186  4705 net.cpp:397] conv4_22_3x3/bn -> conv4_22_3x3 (in-place)
I0622 01:35:27.542424  4705 net.cpp:150] Setting up conv4_22_3x3/bn
I0622 01:35:27.542431  4705 net.cpp:157] Top shape: 2 256 60 60 (1843200)
I0622 01:35:27.542434  4705 net.cpp:165] Memory required for data: 6351319600
I0622 01:35:27.542443  4705 layer_factory.hpp:77] Creating layer conv4_22_3x3/relu
I0622 01:35:27.542449  4705 net.cpp:106] Creating Layer conv4_22_3x3/relu
I0622 01:35:27.542454  4705 net.cpp:454] conv4_22_3x3/relu <- conv4_22_3x3
I0622 01:35:27.542459  4705 net.cpp:397] conv4_22_3x3/relu -> conv4_22_3x3 (in-place)
I0622 01:35:27.542465  4705 net.cpp:150] Setting up conv4_22_3x3/relu
I0622 01:35:27.542470  4705 net.cpp:157] Top shape: 2 256 60 60 (1843200)
I0622 01:35:27.542474  4705 net.cpp:165] Memory required for data: 6358692400
I0622 01:35:27.542477  4705 layer_factory.hpp:77] Creating layer conv4_22_1x1_increase
I0622 01:35:27.542486  4705 net.cpp:106] Creating Layer conv4_22_1x1_increase
I0622 01:35:27.542490  4705 net.cpp:454] conv4_22_1x1_increase <- conv4_22_3x3
I0622 01:35:27.542497  4705 net.cpp:411] conv4_22_1x1_increase -> conv4_22_1x1_increase
I0622 01:35:27.550705  4705 net.cpp:150] Setting up conv4_22_1x1_increase
I0622 01:35:27.550725  4705 net.cpp:157] Top shape: 2 1024 60 60 (7372800)
I0622 01:35:27.550745  4705 net.cpp:165] Memory required for data: 6388183600
I0622 01:35:27.550753  4705 layer_factory.hpp:77] Creating layer conv4_22_1x1_increase/bn
I0622 01:35:27.550765  4705 net.cpp:106] Creating Layer conv4_22_1x1_increase/bn
I0622 01:35:27.550771  4705 net.cpp:454] conv4_22_1x1_increase/bn <- conv4_22_1x1_increase
I0622 01:35:27.550781  4705 net.cpp:397] conv4_22_1x1_increase/bn -> conv4_22_1x1_increase (in-place)
I0622 01:35:27.551015  4705 net.cpp:150] Setting up conv4_22_1x1_increase/bn
I0622 01:35:27.551023  4705 net.cpp:157] Top shape: 2 1024 60 60 (7372800)
I0622 01:35:27.551026  4705 net.cpp:165] Memory required for data: 6417674800
I0622 01:35:27.551034  4705 layer_factory.hpp:77] Creating layer conv4_22
I0622 01:35:27.551043  4705 net.cpp:106] Creating Layer conv4_22
I0622 01:35:27.551046  4705 net.cpp:454] conv4_22 <- conv4_21_conv4_21/relu_0_split_1
I0622 01:35:27.551051  4705 net.cpp:454] conv4_22 <- conv4_22_1x1_increase
I0622 01:35:27.551056  4705 net.cpp:411] conv4_22 -> conv4_22
I0622 01:35:27.551082  4705 net.cpp:150] Setting up conv4_22
I0622 01:35:27.551087  4705 net.cpp:157] Top shape: 2 1024 60 60 (7372800)
I0622 01:35:27.551091  4705 net.cpp:165] Memory required for data: 6447166000
I0622 01:35:27.551095  4705 layer_factory.hpp:77] Creating layer conv4_22/relu
I0622 01:35:27.551100  4705 net.cpp:106] Creating Layer conv4_22/relu
I0622 01:35:27.551105  4705 net.cpp:454] conv4_22/relu <- conv4_22
I0622 01:35:27.551110  4705 net.cpp:397] conv4_22/relu -> conv4_22 (in-place)
I0622 01:35:27.551115  4705 net.cpp:150] Setting up conv4_22/relu
I0622 01:35:27.551120  4705 net.cpp:157] Top shape: 2 1024 60 60 (7372800)
I0622 01:35:27.551125  4705 net.cpp:165] Memory required for data: 6476657200
I0622 01:35:27.551128  4705 layer_factory.hpp:77] Creating layer conv4_22_conv4_22/relu_0_split
I0622 01:35:27.551133  4705 net.cpp:106] Creating Layer conv4_22_conv4_22/relu_0_split
I0622 01:35:27.551138  4705 net.cpp:454] conv4_22_conv4_22/relu_0_split <- conv4_22
I0622 01:35:27.551144  4705 net.cpp:411] conv4_22_conv4_22/relu_0_split -> conv4_22_conv4_22/relu_0_split_0
I0622 01:35:27.551152  4705 net.cpp:411] conv4_22_conv4_22/relu_0_split -> conv4_22_conv4_22/relu_0_split_1
I0622 01:35:27.551184  4705 net.cpp:150] Setting up conv4_22_conv4_22/relu_0_split
I0622 01:35:27.551190  4705 net.cpp:157] Top shape: 2 1024 60 60 (7372800)
I0622 01:35:27.551194  4705 net.cpp:157] Top shape: 2 1024 60 60 (7372800)
I0622 01:35:27.551198  4705 net.cpp:165] Memory required for data: 6535639600
I0622 01:35:27.551201  4705 layer_factory.hpp:77] Creating layer conv4_23_1x1_reduce
I0622 01:35:27.551210  4705 net.cpp:106] Creating Layer conv4_23_1x1_reduce
I0622 01:35:27.551214  4705 net.cpp:454] conv4_23_1x1_reduce <- conv4_22_conv4_22/relu_0_split_0
I0622 01:35:27.551220  4705 net.cpp:411] conv4_23_1x1_reduce -> conv4_23_1x1_reduce
I0622 01:35:27.557559  4705 net.cpp:150] Setting up conv4_23_1x1_reduce
I0622 01:35:27.557608  4705 net.cpp:157] Top shape: 2 256 60 60 (1843200)
I0622 01:35:27.557612  4705 net.cpp:165] Memory required for data: 6543012400
I0622 01:35:27.557626  4705 layer_factory.hpp:77] Creating layer conv4_23_1x1_reduce/bn
I0622 01:35:27.557656  4705 net.cpp:106] Creating Layer conv4_23_1x1_reduce/bn
I0622 01:35:27.557667  4705 net.cpp:454] conv4_23_1x1_reduce/bn <- conv4_23_1x1_reduce
I0622 01:35:27.557675  4705 net.cpp:397] conv4_23_1x1_reduce/bn -> conv4_23_1x1_reduce (in-place)
I0622 01:35:27.557904  4705 net.cpp:150] Setting up conv4_23_1x1_reduce/bn
I0622 01:35:27.557912  4705 net.cpp:157] Top shape: 2 256 60 60 (1843200)
I0622 01:35:27.557916  4705 net.cpp:165] Memory required for data: 6550385200
I0622 01:35:27.557924  4705 layer_factory.hpp:77] Creating layer conv4_23_1x1_reduce/relu
I0622 01:35:27.557931  4705 net.cpp:106] Creating Layer conv4_23_1x1_reduce/relu
I0622 01:35:27.557935  4705 net.cpp:454] conv4_23_1x1_reduce/relu <- conv4_23_1x1_reduce
I0622 01:35:27.557940  4705 net.cpp:397] conv4_23_1x1_reduce/relu -> conv4_23_1x1_reduce (in-place)
I0622 01:35:27.557989  4705 net.cpp:150] Setting up conv4_23_1x1_reduce/relu
I0622 01:35:27.557993  4705 net.cpp:157] Top shape: 2 256 60 60 (1843200)
I0622 01:35:27.557996  4705 net.cpp:165] Memory required for data: 6557758000
I0622 01:35:27.557998  4705 layer_factory.hpp:77] Creating layer conv4_23_3x3
I0622 01:35:27.558009  4705 net.cpp:106] Creating Layer conv4_23_3x3
I0622 01:35:27.558012  4705 net.cpp:454] conv4_23_3x3 <- conv4_23_1x1_reduce
I0622 01:35:27.558017  4705 net.cpp:411] conv4_23_3x3 -> conv4_23_3x3
I0622 01:35:27.571388  4705 net.cpp:150] Setting up conv4_23_3x3
I0622 01:35:27.571442  4705 net.cpp:157] Top shape: 2 256 60 60 (1843200)
I0622 01:35:27.571446  4705 net.cpp:165] Memory required for data: 6565130800
I0622 01:35:27.571458  4705 layer_factory.hpp:77] Creating layer conv4_23_3x3/bn
I0622 01:35:27.571473  4705 net.cpp:106] Creating Layer conv4_23_3x3/bn
I0622 01:35:27.571480  4705 net.cpp:454] conv4_23_3x3/bn <- conv4_23_3x3
I0622 01:35:27.571488  4705 net.cpp:397] conv4_23_3x3/bn -> conv4_23_3x3 (in-place)
I0622 01:35:27.571686  4705 net.cpp:150] Setting up conv4_23_3x3/bn
I0622 01:35:27.571691  4705 net.cpp:157] Top shape: 2 256 60 60 (1843200)
I0622 01:35:27.571694  4705 net.cpp:165] Memory required for data: 6572503600
I0622 01:35:27.571701  4705 layer_factory.hpp:77] Creating layer conv4_23_3x3/relu
I0622 01:35:27.571708  4705 net.cpp:106] Creating Layer conv4_23_3x3/relu
I0622 01:35:27.571712  4705 net.cpp:454] conv4_23_3x3/relu <- conv4_23_3x3
I0622 01:35:27.571714  4705 net.cpp:397] conv4_23_3x3/relu -> conv4_23_3x3 (in-place)
I0622 01:35:27.571719  4705 net.cpp:150] Setting up conv4_23_3x3/relu
I0622 01:35:27.571723  4705 net.cpp:157] Top shape: 2 256 60 60 (1843200)
I0622 01:35:27.571725  4705 net.cpp:165] Memory required for data: 6579876400
I0622 01:35:27.571728  4705 layer_factory.hpp:77] Creating layer conv4_23_1x1_increase
I0622 01:35:27.571735  4705 net.cpp:106] Creating Layer conv4_23_1x1_increase
I0622 01:35:27.571738  4705 net.cpp:454] conv4_23_1x1_increase <- conv4_23_3x3
I0622 01:35:27.571754  4705 net.cpp:411] conv4_23_1x1_increase -> conv4_23_1x1_increase
I0622 01:35:27.578793  4705 net.cpp:150] Setting up conv4_23_1x1_increase
I0622 01:35:27.578845  4705 net.cpp:157] Top shape: 2 1024 60 60 (7372800)
I0622 01:35:27.578850  4705 net.cpp:165] Memory required for data: 6609367600
I0622 01:35:27.578862  4705 layer_factory.hpp:77] Creating layer conv4_23_1x1_increase/bn
I0622 01:35:27.578882  4705 net.cpp:106] Creating Layer conv4_23_1x1_increase/bn
I0622 01:35:27.578892  4705 net.cpp:454] conv4_23_1x1_increase/bn <- conv4_23_1x1_increase
I0622 01:35:27.578902  4705 net.cpp:397] conv4_23_1x1_increase/bn -> conv4_23_1x1_increase (in-place)
I0622 01:35:27.579159  4705 net.cpp:150] Setting up conv4_23_1x1_increase/bn
I0622 01:35:27.579165  4705 net.cpp:157] Top shape: 2 1024 60 60 (7372800)
I0622 01:35:27.579171  4705 net.cpp:165] Memory required for data: 6638858800
I0622 01:35:27.579179  4705 layer_factory.hpp:77] Creating layer conv4_23
I0622 01:35:27.579188  4705 net.cpp:106] Creating Layer conv4_23
I0622 01:35:27.579192  4705 net.cpp:454] conv4_23 <- conv4_22_conv4_22/relu_0_split_1
I0622 01:35:27.579197  4705 net.cpp:454] conv4_23 <- conv4_23_1x1_increase
I0622 01:35:27.579202  4705 net.cpp:411] conv4_23 -> conv4_23
I0622 01:35:27.579231  4705 net.cpp:150] Setting up conv4_23
I0622 01:35:27.579236  4705 net.cpp:157] Top shape: 2 1024 60 60 (7372800)
I0622 01:35:27.579238  4705 net.cpp:165] Memory required for data: 6668350000
I0622 01:35:27.579241  4705 layer_factory.hpp:77] Creating layer conv4_23/relu
I0622 01:35:27.579247  4705 net.cpp:106] Creating Layer conv4_23/relu
I0622 01:35:27.579251  4705 net.cpp:454] conv4_23/relu <- conv4_23
I0622 01:35:27.579257  4705 net.cpp:397] conv4_23/relu -> conv4_23 (in-place)
I0622 01:35:27.579262  4705 net.cpp:150] Setting up conv4_23/relu
I0622 01:35:27.579265  4705 net.cpp:157] Top shape: 2 1024 60 60 (7372800)
I0622 01:35:27.579268  4705 net.cpp:165] Memory required for data: 6697841200
I0622 01:35:27.579272  4705 layer_factory.hpp:77] Creating layer conv4_23_conv4_23/relu_0_split
I0622 01:35:27.579310  4705 net.cpp:106] Creating Layer conv4_23_conv4_23/relu_0_split
I0622 01:35:27.579313  4705 net.cpp:454] conv4_23_conv4_23/relu_0_split <- conv4_23
I0622 01:35:27.579319  4705 net.cpp:411] conv4_23_conv4_23/relu_0_split -> conv4_23_conv4_23/relu_0_split_0
I0622 01:35:27.579324  4705 net.cpp:411] conv4_23_conv4_23/relu_0_split -> conv4_23_conv4_23/relu_0_split_1
I0622 01:35:27.579350  4705 net.cpp:150] Setting up conv4_23_conv4_23/relu_0_split
I0622 01:35:27.579355  4705 net.cpp:157] Top shape: 2 1024 60 60 (7372800)
I0622 01:35:27.579358  4705 net.cpp:157] Top shape: 2 1024 60 60 (7372800)
I0622 01:35:27.579361  4705 net.cpp:165] Memory required for data: 6756823600
I0622 01:35:27.579365  4705 layer_factory.hpp:77] Creating layer conv5_1_1x1_reduce
I0622 01:35:27.579373  4705 net.cpp:106] Creating Layer conv5_1_1x1_reduce
I0622 01:35:27.579376  4705 net.cpp:454] conv5_1_1x1_reduce <- conv4_23_conv4_23/relu_0_split_0
I0622 01:35:27.579383  4705 net.cpp:411] conv5_1_1x1_reduce -> conv5_1_1x1_reduce
I0622 01:35:27.591809  4705 net.cpp:150] Setting up conv5_1_1x1_reduce
I0622 01:35:27.591832  4705 net.cpp:157] Top shape: 2 512 60 60 (3686400)
I0622 01:35:27.591835  4705 net.cpp:165] Memory required for data: 6771569200
I0622 01:35:27.591842  4705 layer_factory.hpp:77] Creating layer conv5_1_1x1_reduce/bn
I0622 01:35:27.591851  4705 net.cpp:106] Creating Layer conv5_1_1x1_reduce/bn
I0622 01:35:27.591856  4705 net.cpp:454] conv5_1_1x1_reduce/bn <- conv5_1_1x1_reduce
I0622 01:35:27.591862  4705 net.cpp:397] conv5_1_1x1_reduce/bn -> conv5_1_1x1_reduce (in-place)
I0622 01:35:27.592062  4705 net.cpp:150] Setting up conv5_1_1x1_reduce/bn
I0622 01:35:27.592067  4705 net.cpp:157] Top shape: 2 512 60 60 (3686400)
I0622 01:35:27.592070  4705 net.cpp:165] Memory required for data: 6786314800
I0622 01:35:27.592077  4705 layer_factory.hpp:77] Creating layer conv5_1_1x1_reduce/relu
I0622 01:35:27.592082  4705 net.cpp:106] Creating Layer conv5_1_1x1_reduce/relu
I0622 01:35:27.592084  4705 net.cpp:454] conv5_1_1x1_reduce/relu <- conv5_1_1x1_reduce
I0622 01:35:27.592087  4705 net.cpp:397] conv5_1_1x1_reduce/relu -> conv5_1_1x1_reduce (in-place)
I0622 01:35:27.592092  4705 net.cpp:150] Setting up conv5_1_1x1_reduce/relu
I0622 01:35:27.592095  4705 net.cpp:157] Top shape: 2 512 60 60 (3686400)
I0622 01:35:27.592097  4705 net.cpp:165] Memory required for data: 6801060400
I0622 01:35:27.592100  4705 layer_factory.hpp:77] Creating layer conv5_1_3x3
I0622 01:35:27.592106  4705 net.cpp:106] Creating Layer conv5_1_3x3
I0622 01:35:27.592109  4705 net.cpp:454] conv5_1_3x3 <- conv5_1_1x1_reduce
I0622 01:35:27.592113  4705 net.cpp:411] conv5_1_3x3 -> conv5_1_3x3
I0622 01:35:27.645683  4705 net.cpp:150] Setting up conv5_1_3x3
I0622 01:35:27.645709  4705 net.cpp:157] Top shape: 2 512 60 60 (3686400)
I0622 01:35:27.645714  4705 net.cpp:165] Memory required for data: 6815806000
I0622 01:35:27.645720  4705 layer_factory.hpp:77] Creating layer conv5_1_3x3/bn
I0622 01:35:27.645733  4705 net.cpp:106] Creating Layer conv5_1_3x3/bn
I0622 01:35:27.645740  4705 net.cpp:454] conv5_1_3x3/bn <- conv5_1_3x3
I0622 01:35:27.645745  4705 net.cpp:397] conv5_1_3x3/bn -> conv5_1_3x3 (in-place)
I0622 01:35:27.645926  4705 net.cpp:150] Setting up conv5_1_3x3/bn
I0622 01:35:27.645931  4705 net.cpp:157] Top shape: 2 512 60 60 (3686400)
I0622 01:35:27.645934  4705 net.cpp:165] Memory required for data: 6830551600
I0622 01:35:27.645941  4705 layer_factory.hpp:77] Creating layer conv5_1_3x3/relu
I0622 01:35:27.645948  4705 net.cpp:106] Creating Layer conv5_1_3x3/relu
I0622 01:35:27.645951  4705 net.cpp:454] conv5_1_3x3/relu <- conv5_1_3x3
I0622 01:35:27.645956  4705 net.cpp:397] conv5_1_3x3/relu -> conv5_1_3x3 (in-place)
I0622 01:35:27.645961  4705 net.cpp:150] Setting up conv5_1_3x3/relu
I0622 01:35:27.645965  4705 net.cpp:157] Top shape: 2 512 60 60 (3686400)
I0622 01:35:27.645967  4705 net.cpp:165] Memory required for data: 6845297200
I0622 01:35:27.645970  4705 layer_factory.hpp:77] Creating layer conv5_1_1x1_increase
I0622 01:35:27.645997  4705 net.cpp:106] Creating Layer conv5_1_1x1_increase
I0622 01:35:27.645999  4705 net.cpp:454] conv5_1_1x1_increase <- conv5_1_3x3
I0622 01:35:27.646003  4705 net.cpp:411] conv5_1_1x1_increase -> conv5_1_1x1_increase
I0622 01:35:27.675151  4705 net.cpp:150] Setting up conv5_1_1x1_increase
I0622 01:35:27.675220  4705 net.cpp:157] Top shape: 2 2048 60 60 (14745600)
I0622 01:35:27.675225  4705 net.cpp:165] Memory required for data: 6904279600
I0622 01:35:27.675242  4705 layer_factory.hpp:77] Creating layer conv5_1_1x1_increase/bn
I0622 01:35:27.675269  4705 net.cpp:106] Creating Layer conv5_1_1x1_increase/bn
I0622 01:35:27.675284  4705 net.cpp:454] conv5_1_1x1_increase/bn <- conv5_1_1x1_increase
I0622 01:35:27.675292  4705 net.cpp:397] conv5_1_1x1_increase/bn -> conv5_1_1x1_increase (in-place)
I0622 01:35:27.675545  4705 net.cpp:150] Setting up conv5_1_1x1_increase/bn
I0622 01:35:27.675550  4705 net.cpp:157] Top shape: 2 2048 60 60 (14745600)
I0622 01:35:27.675554  4705 net.cpp:165] Memory required for data: 6963262000
I0622 01:35:27.675560  4705 layer_factory.hpp:77] Creating layer conv5_1_1x1_proj
I0622 01:35:27.675573  4705 net.cpp:106] Creating Layer conv5_1_1x1_proj
I0622 01:35:27.675582  4705 net.cpp:454] conv5_1_1x1_proj <- conv4_23_conv4_23/relu_0_split_1
I0622 01:35:27.675588  4705 net.cpp:411] conv5_1_1x1_proj -> conv5_1_1x1_proj
I0622 01:35:27.722023  4705 net.cpp:150] Setting up conv5_1_1x1_proj
I0622 01:35:27.722065  4705 net.cpp:157] Top shape: 2 2048 60 60 (14745600)
I0622 01:35:27.722069  4705 net.cpp:165] Memory required for data: 7022244400
I0622 01:35:27.722084  4705 layer_factory.hpp:77] Creating layer conv5_1_1x1_proj/bn
I0622 01:35:27.722095  4705 net.cpp:106] Creating Layer conv5_1_1x1_proj/bn
I0622 01:35:27.722103  4705 net.cpp:454] conv5_1_1x1_proj/bn <- conv5_1_1x1_proj
I0622 01:35:27.722110  4705 net.cpp:397] conv5_1_1x1_proj/bn -> conv5_1_1x1_proj (in-place)
I0622 01:35:27.722307  4705 net.cpp:150] Setting up conv5_1_1x1_proj/bn
I0622 01:35:27.722312  4705 net.cpp:157] Top shape: 2 2048 60 60 (14745600)
I0622 01:35:27.722316  4705 net.cpp:165] Memory required for data: 7081226800
I0622 01:35:27.722321  4705 layer_factory.hpp:77] Creating layer conv5_1
I0622 01:35:27.722328  4705 net.cpp:106] Creating Layer conv5_1
I0622 01:35:27.722332  4705 net.cpp:454] conv5_1 <- conv5_1_1x1_proj
I0622 01:35:27.722334  4705 net.cpp:454] conv5_1 <- conv5_1_1x1_increase
I0622 01:35:27.722338  4705 net.cpp:411] conv5_1 -> conv5_1
I0622 01:35:27.722367  4705 net.cpp:150] Setting up conv5_1
I0622 01:35:27.722370  4705 net.cpp:157] Top shape: 2 2048 60 60 (14745600)
I0622 01:35:27.722373  4705 net.cpp:165] Memory required for data: 7140209200
I0622 01:35:27.722375  4705 layer_factory.hpp:77] Creating layer conv5_1/relu
I0622 01:35:27.722380  4705 net.cpp:106] Creating Layer conv5_1/relu
I0622 01:35:27.722383  4705 net.cpp:454] conv5_1/relu <- conv5_1
I0622 01:35:27.722388  4705 net.cpp:397] conv5_1/relu -> conv5_1 (in-place)
I0622 01:35:27.722391  4705 net.cpp:150] Setting up conv5_1/relu
I0622 01:35:27.722395  4705 net.cpp:157] Top shape: 2 2048 60 60 (14745600)
I0622 01:35:27.722398  4705 net.cpp:165] Memory required for data: 7199191600
I0622 01:35:27.722400  4705 layer_factory.hpp:77] Creating layer conv5_1_conv5_1/relu_0_split
I0622 01:35:27.722404  4705 net.cpp:106] Creating Layer conv5_1_conv5_1/relu_0_split
I0622 01:35:27.722407  4705 net.cpp:454] conv5_1_conv5_1/relu_0_split <- conv5_1
I0622 01:35:27.722411  4705 net.cpp:411] conv5_1_conv5_1/relu_0_split -> conv5_1_conv5_1/relu_0_split_0
I0622 01:35:27.722415  4705 net.cpp:411] conv5_1_conv5_1/relu_0_split -> conv5_1_conv5_1/relu_0_split_1
I0622 01:35:27.722440  4705 net.cpp:150] Setting up conv5_1_conv5_1/relu_0_split
I0622 01:35:27.722445  4705 net.cpp:157] Top shape: 2 2048 60 60 (14745600)
I0622 01:35:27.722448  4705 net.cpp:157] Top shape: 2 2048 60 60 (14745600)
I0622 01:35:27.722451  4705 net.cpp:165] Memory required for data: 7317156400
I0622 01:35:27.722453  4705 layer_factory.hpp:77] Creating layer conv5_2_1x1_reduce
I0622 01:35:27.722479  4705 net.cpp:106] Creating Layer conv5_2_1x1_reduce
I0622 01:35:27.722483  4705 net.cpp:454] conv5_2_1x1_reduce <- conv5_1_conv5_1/relu_0_split_0
I0622 01:35:27.722488  4705 net.cpp:411] conv5_2_1x1_reduce -> conv5_2_1x1_reduce
I0622 01:35:27.746091  4705 net.cpp:150] Setting up conv5_2_1x1_reduce
I0622 01:35:27.746150  4705 net.cpp:157] Top shape: 2 512 60 60 (3686400)
I0622 01:35:27.746155  4705 net.cpp:165] Memory required for data: 7331902000
I0622 01:35:27.746168  4705 layer_factory.hpp:77] Creating layer conv5_2_1x1_reduce/bn
I0622 01:35:27.746186  4705 net.cpp:106] Creating Layer conv5_2_1x1_reduce/bn
I0622 01:35:27.746196  4705 net.cpp:454] conv5_2_1x1_reduce/bn <- conv5_2_1x1_reduce
I0622 01:35:27.746204  4705 net.cpp:397] conv5_2_1x1_reduce/bn -> conv5_2_1x1_reduce (in-place)
I0622 01:35:27.746438  4705 net.cpp:150] Setting up conv5_2_1x1_reduce/bn
I0622 01:35:27.746444  4705 net.cpp:157] Top shape: 2 512 60 60 (3686400)
I0622 01:35:27.746448  4705 net.cpp:165] Memory required for data: 7346647600
I0622 01:35:27.746455  4705 layer_factory.hpp:77] Creating layer conv5_2_1x1_reduce/relu
I0622 01:35:27.746465  4705 net.cpp:106] Creating Layer conv5_2_1x1_reduce/relu
I0622 01:35:27.746469  4705 net.cpp:454] conv5_2_1x1_reduce/relu <- conv5_2_1x1_reduce
I0622 01:35:27.746472  4705 net.cpp:397] conv5_2_1x1_reduce/relu -> conv5_2_1x1_reduce (in-place)
I0622 01:35:27.746479  4705 net.cpp:150] Setting up conv5_2_1x1_reduce/relu
I0622 01:35:27.746481  4705 net.cpp:157] Top shape: 2 512 60 60 (3686400)
I0622 01:35:27.746484  4705 net.cpp:165] Memory required for data: 7361393200
I0622 01:35:27.746487  4705 layer_factory.hpp:77] Creating layer conv5_2_3x3
I0622 01:35:27.746495  4705 net.cpp:106] Creating Layer conv5_2_3x3
I0622 01:35:27.746498  4705 net.cpp:454] conv5_2_3x3 <- conv5_2_1x1_reduce
I0622 01:35:27.746502  4705 net.cpp:411] conv5_2_3x3 -> conv5_2_3x3
I0622 01:35:27.809265  4705 net.cpp:150] Setting up conv5_2_3x3
I0622 01:35:27.809341  4705 net.cpp:157] Top shape: 2 512 60 60 (3686400)
I0622 01:35:27.809350  4705 net.cpp:165] Memory required for data: 7376138800
I0622 01:35:27.809365  4705 layer_factory.hpp:77] Creating layer conv5_2_3x3/bn
I0622 01:35:27.809383  4705 net.cpp:106] Creating Layer conv5_2_3x3/bn
I0622 01:35:27.809393  4705 net.cpp:454] conv5_2_3x3/bn <- conv5_2_3x3
I0622 01:35:27.809399  4705 net.cpp:397] conv5_2_3x3/bn -> conv5_2_3x3 (in-place)
I0622 01:35:27.809636  4705 net.cpp:150] Setting up conv5_2_3x3/bn
I0622 01:35:27.809641  4705 net.cpp:157] Top shape: 2 512 60 60 (3686400)
I0622 01:35:27.809644  4705 net.cpp:165] Memory required for data: 7390884400
I0622 01:35:27.809651  4705 layer_factory.hpp:77] Creating layer conv5_2_3x3/relu
I0622 01:35:27.809660  4705 net.cpp:106] Creating Layer conv5_2_3x3/relu
I0622 01:35:27.809664  4705 net.cpp:454] conv5_2_3x3/relu <- conv5_2_3x3
I0622 01:35:27.809666  4705 net.cpp:397] conv5_2_3x3/relu -> conv5_2_3x3 (in-place)
I0622 01:35:27.809671  4705 net.cpp:150] Setting up conv5_2_3x3/relu
I0622 01:35:27.809675  4705 net.cpp:157] Top shape: 2 512 60 60 (3686400)
I0622 01:35:27.809677  4705 net.cpp:165] Memory required for data: 7405630000
I0622 01:35:27.809680  4705 layer_factory.hpp:77] Creating layer conv5_2_1x1_increase
I0622 01:35:27.809705  4705 net.cpp:106] Creating Layer conv5_2_1x1_increase
I0622 01:35:27.809707  4705 net.cpp:454] conv5_2_1x1_increase <- conv5_2_3x3
I0622 01:35:27.809712  4705 net.cpp:411] conv5_2_1x1_increase -> conv5_2_1x1_increase
I0622 01:35:27.834630  4705 net.cpp:150] Setting up conv5_2_1x1_increase
I0622 01:35:27.834659  4705 net.cpp:157] Top shape: 2 2048 60 60 (14745600)
I0622 01:35:27.834662  4705 net.cpp:165] Memory required for data: 7464612400
I0622 01:35:27.834668  4705 layer_factory.hpp:77] Creating layer conv5_2_1x1_increase/bn
I0622 01:35:27.834677  4705 net.cpp:106] Creating Layer conv5_2_1x1_increase/bn
I0622 01:35:27.834682  4705 net.cpp:454] conv5_2_1x1_increase/bn <- conv5_2_1x1_increase
I0622 01:35:27.834688  4705 net.cpp:397] conv5_2_1x1_increase/bn -> conv5_2_1x1_increase (in-place)
I0622 01:35:27.834887  4705 net.cpp:150] Setting up conv5_2_1x1_increase/bn
I0622 01:35:27.834892  4705 net.cpp:157] Top shape: 2 2048 60 60 (14745600)
I0622 01:35:27.834894  4705 net.cpp:165] Memory required for data: 7523594800
I0622 01:35:27.834952  4705 layer_factory.hpp:77] Creating layer conv5_2
I0622 01:35:27.834961  4705 net.cpp:106] Creating Layer conv5_2
I0622 01:35:27.834964  4705 net.cpp:454] conv5_2 <- conv5_1_conv5_1/relu_0_split_1
I0622 01:35:27.834967  4705 net.cpp:454] conv5_2 <- conv5_2_1x1_increase
I0622 01:35:27.834971  4705 net.cpp:411] conv5_2 -> conv5_2
I0622 01:35:27.834995  4705 net.cpp:150] Setting up conv5_2
I0622 01:35:27.834998  4705 net.cpp:157] Top shape: 2 2048 60 60 (14745600)
I0622 01:35:27.835000  4705 net.cpp:165] Memory required for data: 7582577200
I0622 01:35:27.835002  4705 layer_factory.hpp:77] Creating layer conv5_2/relu
I0622 01:35:27.835006  4705 net.cpp:106] Creating Layer conv5_2/relu
I0622 01:35:27.835009  4705 net.cpp:454] conv5_2/relu <- conv5_2
I0622 01:35:27.835012  4705 net.cpp:397] conv5_2/relu -> conv5_2 (in-place)
I0622 01:35:27.835016  4705 net.cpp:150] Setting up conv5_2/relu
I0622 01:35:27.835018  4705 net.cpp:157] Top shape: 2 2048 60 60 (14745600)
I0622 01:35:27.835021  4705 net.cpp:165] Memory required for data: 7641559600
I0622 01:35:27.835023  4705 layer_factory.hpp:77] Creating layer conv5_2_conv5_2/relu_0_split
I0622 01:35:27.835027  4705 net.cpp:106] Creating Layer conv5_2_conv5_2/relu_0_split
I0622 01:35:27.835029  4705 net.cpp:454] conv5_2_conv5_2/relu_0_split <- conv5_2
I0622 01:35:27.835034  4705 net.cpp:411] conv5_2_conv5_2/relu_0_split -> conv5_2_conv5_2/relu_0_split_0
I0622 01:35:27.835038  4705 net.cpp:411] conv5_2_conv5_2/relu_0_split -> conv5_2_conv5_2/relu_0_split_1
I0622 01:35:27.835063  4705 net.cpp:150] Setting up conv5_2_conv5_2/relu_0_split
I0622 01:35:27.835068  4705 net.cpp:157] Top shape: 2 2048 60 60 (14745600)
I0622 01:35:27.835072  4705 net.cpp:157] Top shape: 2 2048 60 60 (14745600)
I0622 01:35:27.835073  4705 net.cpp:165] Memory required for data: 7759524400
I0622 01:35:27.835077  4705 layer_factory.hpp:77] Creating layer conv5_3_1x1_reduce
I0622 01:35:27.835085  4705 net.cpp:106] Creating Layer conv5_3_1x1_reduce
I0622 01:35:27.835088  4705 net.cpp:454] conv5_3_1x1_reduce <- conv5_2_conv5_2/relu_0_split_0
I0622 01:35:27.835093  4705 net.cpp:411] conv5_3_1x1_reduce -> conv5_3_1x1_reduce
I0622 01:35:27.858515  4705 net.cpp:150] Setting up conv5_3_1x1_reduce
I0622 01:35:27.858578  4705 net.cpp:157] Top shape: 2 512 60 60 (3686400)
I0622 01:35:27.858584  4705 net.cpp:165] Memory required for data: 7774270000
I0622 01:35:27.858599  4705 layer_factory.hpp:77] Creating layer conv5_3_1x1_reduce/bn
I0622 01:35:27.858623  4705 net.cpp:106] Creating Layer conv5_3_1x1_reduce/bn
I0622 01:35:27.858635  4705 net.cpp:454] conv5_3_1x1_reduce/bn <- conv5_3_1x1_reduce
I0622 01:35:27.858642  4705 net.cpp:397] conv5_3_1x1_reduce/bn -> conv5_3_1x1_reduce (in-place)
I0622 01:35:27.858899  4705 net.cpp:150] Setting up conv5_3_1x1_reduce/bn
I0622 01:35:27.858906  4705 net.cpp:157] Top shape: 2 512 60 60 (3686400)
I0622 01:35:27.858913  4705 net.cpp:165] Memory required for data: 7789015600
I0622 01:35:27.858921  4705 layer_factory.hpp:77] Creating layer conv5_3_1x1_reduce/relu
I0622 01:35:27.858929  4705 net.cpp:106] Creating Layer conv5_3_1x1_reduce/relu
I0622 01:35:27.858932  4705 net.cpp:454] conv5_3_1x1_reduce/relu <- conv5_3_1x1_reduce
I0622 01:35:27.858937  4705 net.cpp:397] conv5_3_1x1_reduce/relu -> conv5_3_1x1_reduce (in-place)
I0622 01:35:27.858942  4705 net.cpp:150] Setting up conv5_3_1x1_reduce/relu
I0622 01:35:27.858947  4705 net.cpp:157] Top shape: 2 512 60 60 (3686400)
I0622 01:35:27.858949  4705 net.cpp:165] Memory required for data: 7803761200
I0622 01:35:27.858952  4705 layer_factory.hpp:77] Creating layer conv5_3_3x3
I0622 01:35:27.858964  4705 net.cpp:106] Creating Layer conv5_3_3x3
I0622 01:35:27.858968  4705 net.cpp:454] conv5_3_3x3 <- conv5_3_1x1_reduce
I0622 01:35:27.858973  4705 net.cpp:411] conv5_3_3x3 -> conv5_3_3x3
I0622 01:35:27.922302  4705 net.cpp:150] Setting up conv5_3_3x3
I0622 01:35:27.922366  4705 net.cpp:157] Top shape: 2 512 60 60 (3686400)
I0622 01:35:27.922370  4705 net.cpp:165] Memory required for data: 7818506800
I0622 01:35:27.922384  4705 layer_factory.hpp:77] Creating layer conv5_3_3x3/bn
I0622 01:35:27.922405  4705 net.cpp:106] Creating Layer conv5_3_3x3/bn
I0622 01:35:27.922413  4705 net.cpp:454] conv5_3_3x3/bn <- conv5_3_3x3
I0622 01:35:27.922420  4705 net.cpp:397] conv5_3_3x3/bn -> conv5_3_3x3 (in-place)
I0622 01:35:27.922665  4705 net.cpp:150] Setting up conv5_3_3x3/bn
I0622 01:35:27.922672  4705 net.cpp:157] Top shape: 2 512 60 60 (3686400)
I0622 01:35:27.922677  4705 net.cpp:165] Memory required for data: 7833252400
I0622 01:35:27.922685  4705 layer_factory.hpp:77] Creating layer conv5_3_3x3/relu
I0622 01:35:27.922693  4705 net.cpp:106] Creating Layer conv5_3_3x3/relu
I0622 01:35:27.922696  4705 net.cpp:454] conv5_3_3x3/relu <- conv5_3_3x3
I0622 01:35:27.922700  4705 net.cpp:397] conv5_3_3x3/relu -> conv5_3_3x3 (in-place)
I0622 01:35:27.922706  4705 net.cpp:150] Setting up conv5_3_3x3/relu
I0622 01:35:27.922710  4705 net.cpp:157] Top shape: 2 512 60 60 (3686400)
I0622 01:35:27.922713  4705 net.cpp:165] Memory required for data: 7847998000
I0622 01:35:27.922716  4705 layer_factory.hpp:77] Creating layer conv5_3_1x1_increase
I0622 01:35:27.922729  4705 net.cpp:106] Creating Layer conv5_3_1x1_increase
I0622 01:35:27.922731  4705 net.cpp:454] conv5_3_1x1_increase <- conv5_3_3x3
I0622 01:35:27.922737  4705 net.cpp:411] conv5_3_1x1_increase -> conv5_3_1x1_increase
I0622 01:35:27.947856  4705 net.cpp:150] Setting up conv5_3_1x1_increase
I0622 01:35:27.947878  4705 net.cpp:157] Top shape: 2 2048 60 60 (14745600)
I0622 01:35:27.947880  4705 net.cpp:165] Memory required for data: 7906980400
I0622 01:35:27.947887  4705 layer_factory.hpp:77] Creating layer conv5_3_1x1_increase/bn
I0622 01:35:27.947896  4705 net.cpp:106] Creating Layer conv5_3_1x1_increase/bn
I0622 01:35:27.947899  4705 net.cpp:454] conv5_3_1x1_increase/bn <- conv5_3_1x1_increase
I0622 01:35:27.947908  4705 net.cpp:397] conv5_3_1x1_increase/bn -> conv5_3_1x1_increase (in-place)
I0622 01:35:27.948117  4705 net.cpp:150] Setting up conv5_3_1x1_increase/bn
I0622 01:35:27.948122  4705 net.cpp:157] Top shape: 2 2048 60 60 (14745600)
I0622 01:35:27.948124  4705 net.cpp:165] Memory required for data: 7965962800
I0622 01:35:27.948128  4705 layer_factory.hpp:77] Creating layer conv5_3
I0622 01:35:27.948135  4705 net.cpp:106] Creating Layer conv5_3
I0622 01:35:27.948137  4705 net.cpp:454] conv5_3 <- conv5_2_conv5_2/relu_0_split_1
I0622 01:35:27.948140  4705 net.cpp:454] conv5_3 <- conv5_3_1x1_increase
I0622 01:35:27.948143  4705 net.cpp:411] conv5_3 -> conv5_3
I0622 01:35:27.948164  4705 net.cpp:150] Setting up conv5_3
I0622 01:35:27.948168  4705 net.cpp:157] Top shape: 2 2048 60 60 (14745600)
I0622 01:35:27.948170  4705 net.cpp:165] Memory required for data: 8024945200
I0622 01:35:27.948173  4705 layer_factory.hpp:77] Creating layer conv5_3/relu
I0622 01:35:27.948177  4705 net.cpp:106] Creating Layer conv5_3/relu
I0622 01:35:27.948179  4705 net.cpp:454] conv5_3/relu <- conv5_3
I0622 01:35:27.948182  4705 net.cpp:397] conv5_3/relu -> conv5_3 (in-place)
I0622 01:35:27.948185  4705 net.cpp:150] Setting up conv5_3/relu
I0622 01:35:27.948189  4705 net.cpp:157] Top shape: 2 2048 60 60 (14745600)
I0622 01:35:27.948190  4705 net.cpp:165] Memory required for data: 8083927600
I0622 01:35:27.948192  4705 layer_factory.hpp:77] Creating layer conv5_3_conv5_3/relu_0_split
I0622 01:35:27.948197  4705 net.cpp:106] Creating Layer conv5_3_conv5_3/relu_0_split
I0622 01:35:27.948200  4705 net.cpp:454] conv5_3_conv5_3/relu_0_split <- conv5_3
I0622 01:35:27.948205  4705 net.cpp:411] conv5_3_conv5_3/relu_0_split -> conv5_3_conv5_3/relu_0_split_0
I0622 01:35:27.948210  4705 net.cpp:411] conv5_3_conv5_3/relu_0_split -> conv5_3_conv5_3/relu_0_split_1
I0622 01:35:27.948213  4705 net.cpp:411] conv5_3_conv5_3/relu_0_split -> conv5_3_conv5_3/relu_0_split_2
I0622 01:35:27.948217  4705 net.cpp:411] conv5_3_conv5_3/relu_0_split -> conv5_3_conv5_3/relu_0_split_3
I0622 01:35:27.948240  4705 net.cpp:411] conv5_3_conv5_3/relu_0_split -> conv5_3_conv5_3/relu_0_split_4
I0622 01:35:27.948297  4705 net.cpp:150] Setting up conv5_3_conv5_3/relu_0_split
I0622 01:35:27.948302  4705 net.cpp:157] Top shape: 2 2048 60 60 (14745600)
I0622 01:35:27.948304  4705 net.cpp:157] Top shape: 2 2048 60 60 (14745600)
I0622 01:35:27.948307  4705 net.cpp:157] Top shape: 2 2048 60 60 (14745600)
I0622 01:35:27.948309  4705 net.cpp:157] Top shape: 2 2048 60 60 (14745600)
I0622 01:35:27.948312  4705 net.cpp:157] Top shape: 2 2048 60 60 (14745600)
I0622 01:35:27.948313  4705 net.cpp:165] Memory required for data: 8378839600
I0622 01:35:27.948315  4705 layer_factory.hpp:77] Creating layer conv5_3_pool1
I0622 01:35:27.948320  4705 net.cpp:106] Creating Layer conv5_3_pool1
I0622 01:35:27.948323  4705 net.cpp:454] conv5_3_pool1 <- conv5_3_conv5_3/relu_0_split_0
I0622 01:35:27.948326  4705 net.cpp:411] conv5_3_pool1 -> conv5_3_pool1
I0622 01:35:27.948343  4705 net.cpp:150] Setting up conv5_3_pool1
I0622 01:35:27.948348  4705 net.cpp:157] Top shape: 2 2048 1 1 (4096)
I0622 01:35:27.948350  4705 net.cpp:165] Memory required for data: 8378855984
I0622 01:35:27.948352  4705 layer_factory.hpp:77] Creating layer conv5_3_pool1_conv
I0622 01:35:27.948360  4705 net.cpp:106] Creating Layer conv5_3_pool1_conv
I0622 01:35:27.948364  4705 net.cpp:454] conv5_3_pool1_conv <- conv5_3_pool1
I0622 01:35:27.948367  4705 net.cpp:411] conv5_3_pool1_conv -> conv5_3_pool1_conv
I0622 01:35:27.971627  4705 net.cpp:150] Setting up conv5_3_pool1_conv
I0622 01:35:27.971678  4705 net.cpp:157] Top shape: 2 512 1 1 (1024)
I0622 01:35:27.971681  4705 net.cpp:165] Memory required for data: 8378860080
I0622 01:35:27.971690  4705 layer_factory.hpp:77] Creating layer conv5_3_pool1_conv/bn
I0622 01:35:27.971707  4705 net.cpp:106] Creating Layer conv5_3_pool1_conv/bn
I0622 01:35:27.971716  4705 net.cpp:454] conv5_3_pool1_conv/bn <- conv5_3_pool1_conv
I0622 01:35:27.971722  4705 net.cpp:397] conv5_3_pool1_conv/bn -> conv5_3_pool1_conv (in-place)
I0622 01:35:27.971948  4705 net.cpp:150] Setting up conv5_3_pool1_conv/bn
I0622 01:35:27.971956  4705 net.cpp:157] Top shape: 2 512 1 1 (1024)
I0622 01:35:27.971959  4705 net.cpp:165] Memory required for data: 8378864176
I0622 01:35:27.971966  4705 layer_factory.hpp:77] Creating layer conv5_3_pool1_conv/relu
I0622 01:35:27.971974  4705 net.cpp:106] Creating Layer conv5_3_pool1_conv/relu
I0622 01:35:27.971977  4705 net.cpp:454] conv5_3_pool1_conv/relu <- conv5_3_pool1_conv
I0622 01:35:27.971982  4705 net.cpp:397] conv5_3_pool1_conv/relu -> conv5_3_pool1_conv (in-place)
I0622 01:35:27.971987  4705 net.cpp:150] Setting up conv5_3_pool1_conv/relu
I0622 01:35:27.971989  4705 net.cpp:157] Top shape: 2 512 1 1 (1024)
I0622 01:35:27.971992  4705 net.cpp:165] Memory required for data: 8378868272
I0622 01:35:27.971995  4705 layer_factory.hpp:77] Creating layer conv5_3_pool1_interp
I0622 01:35:27.972002  4705 net.cpp:106] Creating Layer conv5_3_pool1_interp
I0622 01:35:27.972004  4705 net.cpp:454] conv5_3_pool1_interp <- conv5_3_pool1_conv
I0622 01:35:27.972010  4705 net.cpp:411] conv5_3_pool1_interp -> conv5_3_pool1_interp
I0622 01:35:27.972050  4705 net.cpp:150] Setting up conv5_3_pool1_interp
I0622 01:35:27.972056  4705 net.cpp:157] Top shape: 2 512 60 60 (3686400)
I0622 01:35:27.972059  4705 net.cpp:165] Memory required for data: 8393613872
I0622 01:35:27.972062  4705 layer_factory.hpp:77] Creating layer conv5_3_pool2
I0622 01:35:27.972067  4705 net.cpp:106] Creating Layer conv5_3_pool2
I0622 01:35:27.972070  4705 net.cpp:454] conv5_3_pool2 <- conv5_3_conv5_3/relu_0_split_1
I0622 01:35:27.972075  4705 net.cpp:411] conv5_3_pool2 -> conv5_3_pool2
I0622 01:35:27.972096  4705 net.cpp:150] Setting up conv5_3_pool2
I0622 01:35:27.972100  4705 net.cpp:157] Top shape: 2 2048 2 2 (16384)
I0622 01:35:27.972103  4705 net.cpp:165] Memory required for data: 8393679408
I0622 01:35:27.972106  4705 layer_factory.hpp:77] Creating layer conv5_3_pool2_conv
I0622 01:35:27.972151  4705 net.cpp:106] Creating Layer conv5_3_pool2_conv
I0622 01:35:27.972156  4705 net.cpp:454] conv5_3_pool2_conv <- conv5_3_pool2
I0622 01:35:27.972167  4705 net.cpp:411] conv5_3_pool2_conv -> conv5_3_pool2_conv
I0622 01:35:27.997058  4705 net.cpp:150] Setting up conv5_3_pool2_conv
I0622 01:35:27.997083  4705 net.cpp:157] Top shape: 2 512 2 2 (4096)
I0622 01:35:27.997087  4705 net.cpp:165] Memory required for data: 8393695792
I0622 01:35:27.997099  4705 layer_factory.hpp:77] Creating layer conv5_3_pool2_conv/bn
I0622 01:35:27.997115  4705 net.cpp:106] Creating Layer conv5_3_pool2_conv/bn
I0622 01:35:27.997120  4705 net.cpp:454] conv5_3_pool2_conv/bn <- conv5_3_pool2_conv
I0622 01:35:27.997125  4705 net.cpp:397] conv5_3_pool2_conv/bn -> conv5_3_pool2_conv (in-place)
I0622 01:35:27.997297  4705 net.cpp:150] Setting up conv5_3_pool2_conv/bn
I0622 01:35:27.997301  4705 net.cpp:157] Top shape: 2 512 2 2 (4096)
I0622 01:35:27.997303  4705 net.cpp:165] Memory required for data: 8393712176
I0622 01:35:27.997308  4705 layer_factory.hpp:77] Creating layer conv5_3_pool2_conv/relu
I0622 01:35:27.997313  4705 net.cpp:106] Creating Layer conv5_3_pool2_conv/relu
I0622 01:35:27.997314  4705 net.cpp:454] conv5_3_pool2_conv/relu <- conv5_3_pool2_conv
I0622 01:35:27.997323  4705 net.cpp:397] conv5_3_pool2_conv/relu -> conv5_3_pool2_conv (in-place)
I0622 01:35:27.997328  4705 net.cpp:150] Setting up conv5_3_pool2_conv/relu
I0622 01:35:27.997331  4705 net.cpp:157] Top shape: 2 512 2 2 (4096)
I0622 01:35:27.997334  4705 net.cpp:165] Memory required for data: 8393728560
I0622 01:35:27.997336  4705 layer_factory.hpp:77] Creating layer conv5_3_pool2_interp
I0622 01:35:27.997340  4705 net.cpp:106] Creating Layer conv5_3_pool2_interp
I0622 01:35:27.997344  4705 net.cpp:454] conv5_3_pool2_interp <- conv5_3_pool2_conv
I0622 01:35:27.997347  4705 net.cpp:411] conv5_3_pool2_interp -> conv5_3_pool2_interp
I0622 01:35:27.997367  4705 net.cpp:150] Setting up conv5_3_pool2_interp
I0622 01:35:27.997370  4705 net.cpp:157] Top shape: 2 512 60 60 (3686400)
I0622 01:35:27.997373  4705 net.cpp:165] Memory required for data: 8408474160
I0622 01:35:27.997376  4705 layer_factory.hpp:77] Creating layer conv5_3_pool3
I0622 01:35:27.997381  4705 net.cpp:106] Creating Layer conv5_3_pool3
I0622 01:35:27.997385  4705 net.cpp:454] conv5_3_pool3 <- conv5_3_conv5_3/relu_0_split_2
I0622 01:35:27.997388  4705 net.cpp:411] conv5_3_pool3 -> conv5_3_pool3
I0622 01:35:27.997411  4705 net.cpp:150] Setting up conv5_3_pool3
I0622 01:35:27.997416  4705 net.cpp:157] Top shape: 2 2048 3 3 (36864)
I0622 01:35:27.997418  4705 net.cpp:165] Memory required for data: 8408621616
I0622 01:35:27.997421  4705 layer_factory.hpp:77] Creating layer conv5_3_pool3_conv
I0622 01:35:27.997427  4705 net.cpp:106] Creating Layer conv5_3_pool3_conv
I0622 01:35:27.997431  4705 net.cpp:454] conv5_3_pool3_conv <- conv5_3_pool3
I0622 01:35:27.997437  4705 net.cpp:411] conv5_3_pool3_conv -> conv5_3_pool3_conv
I0622 01:35:28.021006  4705 net.cpp:150] Setting up conv5_3_pool3_conv
I0622 01:35:28.021030  4705 net.cpp:157] Top shape: 2 512 3 3 (9216)
I0622 01:35:28.021034  4705 net.cpp:165] Memory required for data: 8408658480
I0622 01:35:28.021039  4705 layer_factory.hpp:77] Creating layer conv5_3_pool3_conv/bn
I0622 01:35:28.021050  4705 net.cpp:106] Creating Layer conv5_3_pool3_conv/bn
I0622 01:35:28.021055  4705 net.cpp:454] conv5_3_pool3_conv/bn <- conv5_3_pool3_conv
I0622 01:35:28.021061  4705 net.cpp:397] conv5_3_pool3_conv/bn -> conv5_3_pool3_conv (in-place)
I0622 01:35:28.021239  4705 net.cpp:150] Setting up conv5_3_pool3_conv/bn
I0622 01:35:28.021244  4705 net.cpp:157] Top shape: 2 512 3 3 (9216)
I0622 01:35:28.021246  4705 net.cpp:165] Memory required for data: 8408695344
I0622 01:35:28.021252  4705 layer_factory.hpp:77] Creating layer conv5_3_pool3_conv/relu
I0622 01:35:28.021256  4705 net.cpp:106] Creating Layer conv5_3_pool3_conv/relu
I0622 01:35:28.021260  4705 net.cpp:454] conv5_3_pool3_conv/relu <- conv5_3_pool3_conv
I0622 01:35:28.021263  4705 net.cpp:397] conv5_3_pool3_conv/relu -> conv5_3_pool3_conv (in-place)
I0622 01:35:28.021291  4705 net.cpp:150] Setting up conv5_3_pool3_conv/relu
I0622 01:35:28.021293  4705 net.cpp:157] Top shape: 2 512 3 3 (9216)
I0622 01:35:28.021296  4705 net.cpp:165] Memory required for data: 8408732208
I0622 01:35:28.021299  4705 layer_factory.hpp:77] Creating layer conv5_3_pool3_interp
I0622 01:35:28.021304  4705 net.cpp:106] Creating Layer conv5_3_pool3_interp
I0622 01:35:28.021306  4705 net.cpp:454] conv5_3_pool3_interp <- conv5_3_pool3_conv
I0622 01:35:28.021311  4705 net.cpp:411] conv5_3_pool3_interp -> conv5_3_pool3_interp
I0622 01:35:28.021333  4705 net.cpp:150] Setting up conv5_3_pool3_interp
I0622 01:35:28.021337  4705 net.cpp:157] Top shape: 2 512 60 60 (3686400)
I0622 01:35:28.021339  4705 net.cpp:165] Memory required for data: 8423477808
I0622 01:35:28.021342  4705 layer_factory.hpp:77] Creating layer conv5_3_pool6
I0622 01:35:28.021347  4705 net.cpp:106] Creating Layer conv5_3_pool6
I0622 01:35:28.021350  4705 net.cpp:454] conv5_3_pool6 <- conv5_3_conv5_3/relu_0_split_3
I0622 01:35:28.021354  4705 net.cpp:411] conv5_3_pool6 -> conv5_3_pool6
I0622 01:35:28.021373  4705 net.cpp:150] Setting up conv5_3_pool6
I0622 01:35:28.021378  4705 net.cpp:157] Top shape: 2 2048 6 6 (147456)
I0622 01:35:28.021379  4705 net.cpp:165] Memory required for data: 8424067632
I0622 01:35:28.021383  4705 layer_factory.hpp:77] Creating layer conv5_3_pool6_conv
I0622 01:35:28.021389  4705 net.cpp:106] Creating Layer conv5_3_pool6_conv
I0622 01:35:28.021391  4705 net.cpp:454] conv5_3_pool6_conv <- conv5_3_pool6
I0622 01:35:28.021395  4705 net.cpp:411] conv5_3_pool6_conv -> conv5_3_pool6_conv
I0622 01:35:28.045109  4705 net.cpp:150] Setting up conv5_3_pool6_conv
I0622 01:35:28.045131  4705 net.cpp:157] Top shape: 2 512 6 6 (36864)
I0622 01:35:28.045135  4705 net.cpp:165] Memory required for data: 8424215088
I0622 01:35:28.045141  4705 layer_factory.hpp:77] Creating layer conv5_3_pool6_conv/bn
I0622 01:35:28.045155  4705 net.cpp:106] Creating Layer conv5_3_pool6_conv/bn
I0622 01:35:28.045159  4705 net.cpp:454] conv5_3_pool6_conv/bn <- conv5_3_pool6_conv
I0622 01:35:28.045166  4705 net.cpp:397] conv5_3_pool6_conv/bn -> conv5_3_pool6_conv (in-place)
I0622 01:35:28.045374  4705 net.cpp:150] Setting up conv5_3_pool6_conv/bn
I0622 01:35:28.045379  4705 net.cpp:157] Top shape: 2 512 6 6 (36864)
I0622 01:35:28.045382  4705 net.cpp:165] Memory required for data: 8424362544
I0622 01:35:28.045387  4705 layer_factory.hpp:77] Creating layer conv5_3_pool6_conv/relu
I0622 01:35:28.045392  4705 net.cpp:106] Creating Layer conv5_3_pool6_conv/relu
I0622 01:35:28.045395  4705 net.cpp:454] conv5_3_pool6_conv/relu <- conv5_3_pool6_conv
I0622 01:35:28.045399  4705 net.cpp:397] conv5_3_pool6_conv/relu -> conv5_3_pool6_conv (in-place)
I0622 01:35:28.045403  4705 net.cpp:150] Setting up conv5_3_pool6_conv/relu
I0622 01:35:28.045408  4705 net.cpp:157] Top shape: 2 512 6 6 (36864)
I0622 01:35:28.045409  4705 net.cpp:165] Memory required for data: 8424510000
I0622 01:35:28.045413  4705 layer_factory.hpp:77] Creating layer conv5_3_pool6_interp
I0622 01:35:28.045425  4705 net.cpp:106] Creating Layer conv5_3_pool6_interp
I0622 01:35:28.045428  4705 net.cpp:454] conv5_3_pool6_interp <- conv5_3_pool6_conv
I0622 01:35:28.045431  4705 net.cpp:411] conv5_3_pool6_interp -> conv5_3_pool6_interp
I0622 01:35:28.045460  4705 net.cpp:150] Setting up conv5_3_pool6_interp
I0622 01:35:28.045464  4705 net.cpp:157] Top shape: 2 512 60 60 (3686400)
I0622 01:35:28.045467  4705 net.cpp:165] Memory required for data: 8439255600
I0622 01:35:28.045469  4705 layer_factory.hpp:77] Creating layer conv5_3_concat
I0622 01:35:28.045475  4705 net.cpp:106] Creating Layer conv5_3_concat
I0622 01:35:28.045477  4705 net.cpp:454] conv5_3_concat <- conv5_3_conv5_3/relu_0_split_4
I0622 01:35:28.045480  4705 net.cpp:454] conv5_3_concat <- conv5_3_pool6_interp
I0622 01:35:28.045483  4705 net.cpp:454] conv5_3_concat <- conv5_3_pool3_interp
I0622 01:35:28.045487  4705 net.cpp:454] conv5_3_concat <- conv5_3_pool2_interp
I0622 01:35:28.045490  4705 net.cpp:454] conv5_3_concat <- conv5_3_pool1_interp
I0622 01:35:28.045518  4705 net.cpp:411] conv5_3_concat -> conv5_3_concat
I0622 01:35:28.045542  4705 net.cpp:150] Setting up conv5_3_concat
I0622 01:35:28.045545  4705 net.cpp:157] Top shape: 2 4096 60 60 (29491200)
I0622 01:35:28.045547  4705 net.cpp:165] Memory required for data: 8557220400
I0622 01:35:28.045550  4705 layer_factory.hpp:77] Creating layer conv5_4
I0622 01:35:28.045558  4705 net.cpp:106] Creating Layer conv5_4
I0622 01:35:28.045562  4705 net.cpp:454] conv5_4 <- conv5_3_concat
I0622 01:35:28.045565  4705 net.cpp:411] conv5_4 -> conv5_4
I0622 01:35:28.483137  4705 net.cpp:150] Setting up conv5_4
I0622 01:35:28.483156  4705 net.cpp:157] Top shape: 2 512 60 60 (3686400)
I0622 01:35:28.483160  4705 net.cpp:165] Memory required for data: 8571966000
I0622 01:35:28.483180  4705 layer_factory.hpp:77] Creating layer conv5_4/bn
I0622 01:35:28.483189  4705 net.cpp:106] Creating Layer conv5_4/bn
I0622 01:35:28.483194  4705 net.cpp:454] conv5_4/bn <- conv5_4
I0622 01:35:28.483201  4705 net.cpp:397] conv5_4/bn -> conv5_4 (in-place)
I0622 01:35:28.483410  4705 net.cpp:150] Setting up conv5_4/bn
I0622 01:35:28.483415  4705 net.cpp:157] Top shape: 2 512 60 60 (3686400)
I0622 01:35:28.483431  4705 net.cpp:165] Memory required for data: 8586711600
I0622 01:35:28.483436  4705 layer_factory.hpp:77] Creating layer conv5_4/relu
I0622 01:35:28.483455  4705 net.cpp:106] Creating Layer conv5_4/relu
I0622 01:35:28.483458  4705 net.cpp:454] conv5_4/relu <- conv5_4
I0622 01:35:28.483461  4705 net.cpp:397] conv5_4/relu -> conv5_4 (in-place)
I0622 01:35:28.483465  4705 net.cpp:150] Setting up conv5_4/relu
I0622 01:35:28.483469  4705 net.cpp:157] Top shape: 2 512 60 60 (3686400)
I0622 01:35:28.483471  4705 net.cpp:165] Memory required for data: 8601457200
I0622 01:35:28.483474  4705 layer_factory.hpp:77] Creating layer conv5_4/dropout
I0622 01:35:28.483484  4705 net.cpp:106] Creating Layer conv5_4/dropout
I0622 01:35:28.483485  4705 net.cpp:454] conv5_4/dropout <- conv5_4
I0622 01:35:28.483489  4705 net.cpp:397] conv5_4/dropout -> conv5_4 (in-place)
I0622 01:35:28.483513  4705 net.cpp:150] Setting up conv5_4/dropout
I0622 01:35:28.483517  4705 net.cpp:157] Top shape: 2 512 60 60 (3686400)
I0622 01:35:28.483520  4705 net.cpp:165] Memory required for data: 8616202800
I0622 01:35:28.483522  4705 layer_factory.hpp:77] Creating layer conv6
I0622 01:35:28.483530  4705 net.cpp:106] Creating Layer conv6
I0622 01:35:28.483533  4705 net.cpp:454] conv6 <- conv5_4
I0622 01:35:28.483537  4705 net.cpp:411] conv6 -> conv6
I0622 01:35:28.483955  4705 net.cpp:150] Setting up conv6
I0622 01:35:28.483961  4705 net.cpp:157] Top shape: 2 21 60 60 (151200)
I0622 01:35:28.483964  4705 net.cpp:165] Memory required for data: 8616807600
I0622 01:35:28.483968  4705 layer_factory.hpp:77] Creating layer conv6_conv6_0_split
I0622 01:35:28.483973  4705 net.cpp:106] Creating Layer conv6_conv6_0_split
I0622 01:35:28.483975  4705 net.cpp:454] conv6_conv6_0_split <- conv6
I0622 01:35:28.483979  4705 net.cpp:411] conv6_conv6_0_split -> conv6_conv6_0_split_0
I0622 01:35:28.483983  4705 net.cpp:411] conv6_conv6_0_split -> conv6_conv6_0_split_1
I0622 01:35:28.484010  4705 net.cpp:150] Setting up conv6_conv6_0_split
I0622 01:35:28.484014  4705 net.cpp:157] Top shape: 2 21 60 60 (151200)
I0622 01:35:28.484019  4705 net.cpp:157] Top shape: 2 21 60 60 (151200)
I0622 01:35:28.484020  4705 net.cpp:165] Memory required for data: 8618017200
I0622 01:35:28.484024  4705 layer_factory.hpp:77] Creating layer conv6_interp
I0622 01:35:28.484027  4705 net.cpp:106] Creating Layer conv6_interp
I0622 01:35:28.484030  4705 net.cpp:454] conv6_interp <- conv6_conv6_0_split_0
I0622 01:35:28.484033  4705 net.cpp:411] conv6_interp -> conv6_interp
I0622 01:35:28.484050  4705 net.cpp:150] Setting up conv6_interp
I0622 01:35:28.484055  4705 net.cpp:157] Top shape: 2 21 473 473 (9396618)
I0622 01:35:28.484057  4705 net.cpp:165] Memory required for data: 8655603672
I0622 01:35:28.484061  4705 layer_factory.hpp:77] Creating layer loss
I0622 01:35:28.484066  4705 net.cpp:106] Creating Layer loss
I0622 01:35:28.484084  4705 net.cpp:454] loss <- conv6_conv6_0_split_1
I0622 01:35:28.484087  4705 net.cpp:454] loss <- conv6_interp
I0622 01:35:28.484092  4705 net.cpp:411] loss -> (automatic)
…
