…
I0621 16:04:08.552311 10428 solver.cpp:81] Creating training net from train_net file: exper/voc12/config/pspnet_resnet101/train_train_aug.prototxt
I0621 16:04:08.559347 10428 net.cpp:49] Initializing net from parameters: 
name: "pspnet_resnet101"
state {
  phase: TRAIN
}
layer {
  name: "data"
  type: "ImageSegData"
  top: "data"
  top: "label"
  include {
    phase: TRAIN
  }
  transform_param {
    mirror: true
    crop_size: 473
    mean_value: 104.008
    mean_value: 116.669
    mean_value: 122.675
  }
  image_data_param {
    source: "exper/voc12/list/train_aug.txt"
    batch_size: 1
    shuffle: true
    root_folder: "exper/voc12/data"
    label_type: PIXEL
  }
}
layer {
  name: "conv1_1_3x3_s2"
  type: "Convolution"
  bottom: "data"
  top: "conv1_1_3x3_s2"
  param {
    lr_mult: 1
    decay_mult: 1
  }
  convolution_param {
    num_output: 64
    bias_term: false
    pad: 1
    kernel_size: 3
    stride: 2
    weight_filler {
      type: "msra"
    }
  }
}
layer {
  name: "conv1_1_3x3_s2/bn"
  type: "BN"
  bottom: "conv1_1_3x3_s2"
  top: "conv1_1_3x3_s2"
  param {
    lr_mult: 1
    decay_mult: 0
  }
  param {
    lr_mult: 1
    decay_mult: 0
  }
  param {
    lr_mult: 0
    decay_mult: 0
  }
  param {
    lr_mult: 0
    decay_mult: 0
  }
  bn_param {
    slope_filler {
      type: "constant"
      value: 1
    }
    bias_filler {
      type: "constant"
      value: 0
    }
    momentum: 0.95
    frozen: false
  }
}
layer {
  name: "conv1_1_3x3_s2/relu"
  type: "ReLU"
  bottom: "conv1_1_3x3_s2"
  top: "conv1_1_3x3_s2"
}
layer {
  name: "conv1_2_3x3"
  type: "Convolution"
  bottom: "conv1_1_3x3_s2"
  top: "conv1_2_3x3"
  param {
    lr_mult: 1
    decay_mult: 1
  }
  convolution_param {
    num_output: 64
    bias_term: false
    pad: 1
    kernel_size: 3
    stride: 1
    weight_filler {
      type: "msra"
    }
  }
}
layer {
  name: "conv1_2_3x3/bn"
  type: "BN"
  bottom: "conv1_2_3x3"
  top: "conv1_2_3x3"
  param {
    lr_mult: 1
    decay_mult: 0
  }
  param {
    lr_mult: 1
    decay_mult: 0
  }
  param {
    lr_mult: 0
    decay_mult: 0
  }
  param {
    lr_mult: 0
    decay_mult: 0
  }
  bn_param {
    slope_filler {
      type: "constant"
      value: 1
    }
    bias_filler {
      type: "constant"
      value: 0
    }
    momentum: 0.95
    frozen: true
  }
}
layer {
  name: "conv1_2_3x3/relu"
  type: "ReLU"
  bottom: "conv1_2_3x3"
  top: "conv1_2_3x3"
}
layer {
  name: "conv1_3_3x3"
  type: "Convolution"
  bottom: "conv1_2_3x3"
  top: "conv1_3_3x3"
  param {
    lr_mult: 1
    decay_mult: 1
  }
  convolution_param {
    num_output: 128
    bias_term: false
    pad: 1
    kernel_size: 3
    stride: 1
    weight_filler {
      type: "msra"
    }
  }
}
layer {
  name: "conv1_3_3x3/bn"
  type: "BN"
  bottom: "conv1_3_3x3"
  top: "conv1_3_3x3"
  param {
    lr_mult: 1
    decay_mult: 0
  }
  param {
    lr_mult: 1
    decay_mult: 0
  }
  param {
    lr_mult: 0
    decay_mult: 0
  }
  param {
    lr_mult: 0
    decay_mult: 0
  }
  bn_param {
    slope_filler {
      type: "constant"
      value: 1
    }
    bias_filler {
      type: "constant"
      value: 0
    }
    momentum: 0.95
    frozen: true
  }
}
layer {
  name: "conv1_3_3x3/relu"
  type: "ReLU"
  bottom: "conv1_3_3x3"
  top: "conv1_3_3x3"
}
layer {
  name: "pool1_3x3_s2"
  type: "Pooling"
  bottom: "conv1_3_3x3"
  top: "pool1_3x3_s2"
  pooling_param {
    pool: MAX
    kernel_size: 3
    stride: 2
    pad: 1
  }
}
layer {
  name: "conv2_1_1x1_reduce"
  type: "Convolution"
  bottom: "pool1_3x3_s2"
  top: "conv2_1_1x1_reduce"
  param {
    lr_mult: 1
    decay_mult: 1
  }
  convolution_param {
    num_output: 64
    bias_term: false
    pad: 0
    kernel_size: 1
    stride: 1
    weight_filler {
      type: "msra"
    }
  }
}
layer {
  name: "conv2_1_1x1_reduce/bn"
  type: "BN"
  bottom: "conv2_1_1x1_reduce"
  top: "conv2_1_1x1_reduce"
  param {
    lr_mult: 1
    decay_mult: 0
  }
  param {
    lr_mult: 1
    decay_mult: 0
  }
  param {
    lr_mult: 0
    decay_mult: 0
  }
  param {
    lr_mult: 0
    decay_mult: 0
  }
  bn_param {
    slope_filler {
      type: "constant"
      value: 1
    }
    bias_filler {
      type: "constant"
      value: 0
    }
    momentum: 0.95
    frozen: true
  }
}
layer {
  name: "conv2_1_1x1_reduce/relu"
  type: "ReLU"
  bottom: "conv2_1_1x1_reduce"
  top: "conv2_1_1x1_reduce"
}
layer {
  name: "conv2_1_3x3"
  type: "Convolution"
  bottom: "conv2_1_1x1_reduce"
  top: "conv2_1_3x3"
  param {
    lr_mult: 1
    decay_mult: 1
  }
  convolution_param {
    num_output: 64
    bias_term: false
    pad: 1
    kernel_size: 3
    stride: 1
    weight_filler {
      type: "msra"
    }
  }
}
layer {
  name: "conv2_1_3x3/bn"
  type: "BN"
  bottom: "conv2_1_3x3"
  top: "conv2_1_3x3"
  param {
    lr_mult: 1
    decay_mult: 0
  }
  param {
    lr_mult: 1
    decay_mult: 0
  }
  param {
    lr_mult: 0
    decay_mult: 0
  }
  param {
    lr_mult: 0
    decay_mult: 0
  }
  bn_param {
    slope_filler {
      type: "constant"
      value: 1
    }
    bias_filler {
      type: "constant"
      value: 0
    }
    momentum: 0.95
    frozen: true
  }
}
layer {
  name: "conv2_1_3x3/relu"
  type: "ReLU"
  bottom: "conv2_1_3x3"
  top: "conv2_1_3x3"
}
layer {
  name: "conv2_1_1x1_increase"
  type: "Convolution"
  bottom: "conv2_1_3x3"
  top: "conv2_1_1x1_increase"
  param {
    lr_mult: 1
    decay_mult: 1
  }
  convolution_param {
    num_output: 256
    bias_term: false
    pad: 0
    kernel_size: 1
    stride: 1
    weight_filler {
      type: "msra"
    }
  }
}
layer {
  name: "conv2_1_1x1_increase/bn"
  type: "BN"
  bottom: "conv2_1_1x1_increase"
  top: "conv2_1_1x1_increase"
  param {
    lr_mult: 1
    decay_mult: 0
  }
  param {
    lr_mult: 1
    decay_mult: 0
  }
  param {
    lr_mult: 0
    decay_mult: 0
  }
  param {
    lr_mult: 0
    decay_mult: 0
  }
  bn_param {
    slope_filler {
      type: "constant"
      value: 1
    }
    bias_filler {
      type: "constant"
      value: 0
    }
    momentum: 0.95
    frozen: true
  }
}
layer {
  name: "conv2_1_1x1_proj"
  type: "Convolution"
  bottom: "pool1_3x3_s2"
  top: "conv2_1_1x1_proj"
  param {
    lr_mult: 1
    decay_mult: 1
  }
  convolution_param {
    num_output: 256
    bias_term: false
    pad: 0
    kernel_size: 1
    stride: 1
    weight_filler {
      type: "msra"
    }
  }
}
layer {
  name: "conv2_1_1x1_proj/bn"
  type: "BN"
  bottom: "conv2_1_1x1_proj"
  top: "conv2_1_1x1_proj"
  param {
    lr_mult: 1
    decay_mult: 0
  }
  param {
    lr_mult: 1
    decay_mult: 0
  }
  param {
    lr_mult: 0
    decay_mult: 0
  }
  param {
    lr_mult: 0
    decay_mult: 0
  }
  bn_param {
    slope_filler {
      type: "constant"
      value: 1
    }
    bias_filler {
      type: "constant"
      value: 0
    }
    momentum: 0.95
    frozen: true
  }
}
layer {
  name: "conv2_1"
  type: "Eltwise"
  bottom: "conv2_1_1x1_proj"
  bottom: "conv2_1_1x1_increase"
  top: "conv2_1"
  eltwise_param {
    operation: SUM
  }
}
layer {
  name: "conv2_1/relu"
  type: "ReLU"
  bottom: "conv2_1"
  top: "conv2_1"
}
layer {
  name: "conv2_2_1x1_reduce"
  type: "Convolution"
  bottom: "conv2_1"
  top: "conv2_2_1x1_reduce"
  param {
    lr_mult: 1
    decay_mult: 1
  }
  convolution_param {
    num_output: 64
    bias_term: false
    pad: 0
    kernel_size: 1
    stride: 1
    weight_filler {
      type: "msra"
    }
  }
}
layer {
  name: "conv2_2_1x1_reduce/bn"
  type: "BN"
  bottom: "conv2_2_1x1_reduce"
  top: "conv2_2_1x1_reduce"
  param {
    lr_mult: 1
    decay_mult: 0
  }
  param {
    lr_mult: 1
    decay_mult: 0
  }
  param {
    lr_mult: 0
    decay_mult: 0
  }
  param {
    lr_mult: 0
    decay_mult: 0
  }
  bn_param {
    slope_filler {
      type: "constant"
      value: 1
    }
    bias_filler {
      type: "constant"
      value: 0
    }
    momentum: 0.95
    frozen: true
  }
}
layer {
  name: "conv2_2_1x1_reduce/relu"
  type: "ReLU"
  bottom: "conv2_2_1x1_reduce"
  top: "conv2_2_1x1_reduce"
}
layer {
  name: "conv2_2_3x3"
  type: "Convolution"
  bottom: "conv2_2_1x1_reduce"
  top: "conv2_2_3x3"
  param {
    lr_mult: 1
    decay_mult: 1
  }
  convolution_param {
    num_output: 64
    bias_term: false
    pad: 1
    kernel_size: 3
    stride: 1
    weight_filler {
      type: "msra"
    }
  }
}
layer {
  name: "conv2_2_3x3/bn"
  type: "BN"
  bottom: "conv2_2_3x3"
  top: "conv2_2_3x3"
  param {
    lr_mult: 1
    decay_mult: 0
  }
  param {
    lr_mult: 1
    decay_mult: 0
  }
  param {
    lr_mult: 0
    decay_mult: 0
  }
  param {
    lr_mult: 0
    decay_mult: 0
  }
  bn_param {
    slope_filler {
      type: "constant"
      value: 1
    }
    bias_filler {
      type: "constant"
      value: 0
    }
    momentum: 0.95
    frozen: true
  }
}
layer {
  name: "conv2_2_3x3/relu"
  type: "ReLU"
  bottom: "conv2_2_3x3"
  top: "conv2_2_3x3"
}
layer {
  name: "conv2_2_1x1_increase"
  type: "Convolution"
  bottom: "conv2_2_3x3"
  top: "conv2_2_1x1_increase"
  param {
    lr_mult: 1
    decay_mult: 1
  }
  convolution_param {
    num_output: 256
    bias_term: false
    pad: 0
    kernel_size: 1
    stride: 1
    weight_filler {
      type: "msra"
    }
  }
}
layer {
  name: "conv2_2_1x1_increase/bn"
  type: "BN"
  bottom: "conv2_2_1x1_increase"
  top: "conv2_2_1x1_increase"
  param {
    lr_mult: 1
    decay_mult: 0
  }
  param {
    lr_mult: 1
    decay_mult: 0
  }
  param {
    lr_mult: 0
    decay_mult: 0
  }
  param {
    lr_mult: 0
    decay_mult: 0
  }
  bn_param {
    slope_filler {
      type: "constant"
      value: 1
    }
    bias_filler {
      type: "constant"
      value: 0
    }
    momentum: 0.95
    frozen: true
  }
}
layer {
  name: "conv2_2"
  type: "Eltwise"
  bottom: "conv2_1"
  bottom: "conv2_2_1x1_increase"
  top: "conv2_2"
  eltwise_param {
    operation: SUM
  }
}
layer {
  name: "conv2_2/relu"
  type: "ReLU"
  bottom: "conv2_2"
  top: "conv2_2"
}
layer {
  name: "conv2_3_1x1_reduce"
  type: "Convolution"
  bottom: "conv2_2"
  top: "conv2_3_1x1_reduce"
  param {
    lr_mult: 1
    decay_mult: 1
  }
  convolution_param {
    num_output: 64
    bias_term: false
    pad: 0
    kernel_size: 1
    stride: 1
    weight_filler {
      type: "msra"
    }
  }
}
layer {
  name: "conv2_3_1x1_reduce/bn"
  type: "BN"
  bottom: "conv2_3_1x1_reduce"
  top: "conv2_3_1x1_reduce"
  param {
    lr_mult: 1
    decay_mult: 0
  }
  param {
    lr_mult: 1
    decay_mult: 0
  }
  param {
    lr_mult: 0
    decay_mult: 0
  }
  param {
    lr_mult: 0
    decay_mult: 0
  }
  bn_param {
    slope_filler {
      type: "constant"
      value: 1
    }
    bias_filler {
      type: "constant"
      value: 0
    }
    momentum: 0.95
    frozen: true
  }
}
layer {
  name: "conv2_3_1x1_reduce/relu"
  type: "ReLU"
  bottom: "conv2_3_1x1_reduce"
  top: "conv2_3_1x1_reduce"
}
layer {
  name: "conv2_3_3x3"
  type: "Convolution"
  bottom: "conv2_3_1x1_reduce"
  top: "conv2_3_3x3"
  param {
    lr_mult: 1
    decay_mult: 1
  }
  convolution_param {
    num_output: 64
    bias_term: false
    pad: 1
    kernel_size: 3
    stride: 1
    weight_filler {
      type: "msra"
    }
  }
}
layer {
  name: "conv2_3_3x3/bn"
  type: "BN"
  bottom: "conv2_3_3x3"
  top: "conv2_3_3x3"
  param {
    lr_mult: 1
    decay_mult: 0
  }
  param {
    lr_mult: 1
    decay_mult: 0
  }
  param {
    lr_mult: 0
    decay_mult: 0
  }
  param {
    lr_mult: 0
    decay_mult: 0
  }
  bn_param {
    slope_filler {
      type: "constant"
      value: 1
    }
    bias_filler {
      type: "constant"
      value: 0
    }
    momentum: 0.95
    frozen: true
  }
}
layer {
  name: "conv2_3_3x3/relu"
  type: "ReLU"
  bottom: "conv2_3_3x3"
  top: "conv2_3_3x3"
}
layer {
  name: "conv2_3_1x1_increase"
  type: "Convolution"
  bottom: "conv2_3_3x3"
  top: "conv2_3_1x1_increase"
  param {
    lr_mult: 1
    decay_mult: 1
  }
  convolution_param {
    num_output: 256
    bias_term: false
    pad: 0
    kernel_size: 1
    stride: 1
    weight_filler {
      type: "msra"
    }
  }
}
layer {
  name: "conv2_3_1x1_increase/bn"
  type: "BN"
  bottom: "conv2_3_1x1_increase"
  top: "conv2_3_1x1_increase"
  param {
    lr_mult: 1
    decay_mult: 0
  }
  param {
    lr_mult: 1
    decay_mult: 0
  }
  param {
    lr_mult: 0
    decay_mult: 0
  }
  param {
    lr_mult: 0
    decay_mult: 0
  }
  bn_param {
    slope_filler {
      type: "constant"
      value: 1
    }
    bias_filler {
      type: "constant"
      value: 0
    }
    momentum: 0.95
    frozen: true
  }
}
layer {
  name: "conv2_3"
  type: "Eltwise"
  bottom: "conv2_2"
  bottom: "conv2_3_1x1_increase"
  top: "conv2_3"
  eltwise_param {
    operation: SUM
  }
}
layer {
  name: "conv2_3/relu"
  type: "ReLU"
  bottom: "conv2_3"
  top: "conv2_3"
}
layer {
  name: "conv3_1_1x1_reduce"
  type: "Convolution"
  bottom: "conv2_3"
  top: "conv3_1_1x1_reduce"
  param {
    lr_mult: 1
    decay_mult: 1
  }
  convolution_param {
    num_output: 128
    bias_term: false
    pad: 0
    kernel_size: 1
    stride: 1
    weight_filler {
      type: "msra"
    }
  }
}
layer {
  name: "conv3_1_1x1_reduce/bn"
  type: "BN"
  bottom: "conv3_1_1x1_reduce"
  top: "conv3_1_1x1_reduce"
  param {
    lr_mult: 1
    decay_mult: 0
  }
  param {
    lr_mult: 1
    decay_mult: 0
  }
  param {
    lr_mult: 0
    decay_mult: 0
  }
  param {
    lr_mult: 0
    decay_mult: 0
  }
  bn_param {
    slope_filler {
      type: "constant"
      value: 1
    }
    bias_filler {
      type: "constant"
      value: 0
    }
    momentum: 0.95
    frozen: true
  }
}
layer {
  name: "conv3_1_1x1_reduce/relu"
  type: "ReLU"
  bottom: "conv3_1_1x1_reduce"
  top: "conv3_1_1x1_reduce"
}
layer {
  name: "conv3_1_3x3"
  type: "Convolution"
  bottom: "conv3_1_1x1_reduce"
  top: "conv3_1_3x3"
  param {
    lr_mult: 1
    decay_mult: 1
  }
  convolution_param {
    num_output: 128
    bias_term: false
    pad: 1
    kernel_size: 3
    stride: 2
    weight_filler {
      type: "msra"
    }
  }
}
layer {
  name: "conv3_1_3x3/bn"
  type: "BN"
  bottom: "conv3_1_3x3"
  top: "conv3_1_3x3"
  param {
    lr_mult: 1
    decay_mult: 0
  }
  param {
    lr_mult: 1
    decay_mult: 0
  }
  param {
    lr_mult: 0
    decay_mult: 0
  }
  param {
    lr_mult: 0
    decay_mult: 0
  }
  bn_param {
    slope_filler {
      type: "constant"
      value: 1
    }
    bias_filler {
      type: "constant"
      value: 0
    }
    momentum: 0.95
    frozen: true
  }
}
layer {
  name: "conv3_1_3x3/relu"
  type: "ReLU"
  bottom: "conv3_1_3x3"
  top: "conv3_1_3x3"
}
layer {
  name: "conv3_1_1x1_increase"
  type: "Convolution"
  bottom: "conv3_1_3x3"
  top: "conv3_1_1x1_increase"
  param {
    lr_mult: 1
    decay_mult: 1
  }
  convolution_param {
    num_output: 512
    bias_term: false
    pad: 0
    kernel_size: 1
    stride: 1
    weight_filler {
      type: "msra"
    }
  }
}
layer {
  name: "conv3_1_1x1_increase/bn"
  type: "BN"
  bottom: "conv3_1_1x1_increase"
  top: "conv3_1_1x1_increase"
  param {
    lr_mult: 1
    decay_mult: 0
  }
  param {
    lr_mult: 1
    decay_mult: 0
  }
  param {
    lr_mult: 0
    decay_mult: 0
  }
  param {
    lr_mult: 0
    decay_mult: 0
  }
  bn_param {
    slope_filler {
      type: "constant"
      value: 1
    }
    bias_filler {
      type: "constant"
      value: 0
    }
    momentum: 0.95
    frozen: true
  }
}
layer {
  name: "conv3_1_1x1_proj"
  type: "Convolution"
  bottom: "conv2_3"
  top: "conv3_1_1x1_proj"
  param {
    lr_mult: 1
    decay_mult: 1
  }
  convolution_param {
    num_output: 512
    bias_term: false
    pad: 0
    kernel_size: 1
    stride: 2
    weight_filler {
      type: "msra"
    }
  }
}
layer {
  name: "conv3_1_1x1_proj/bn"
  type: "BN"
  bottom: "conv3_1_1x1_proj"
  top: "conv3_1_1x1_proj"
  param {
    lr_mult: 1
    decay_mult: 0
  }
  param {
    lr_mult: 1
    decay_mult: 0
  }
  param {
    lr_mult: 0
    decay_mult: 0
  }
  param {
    lr_mult: 0
    decay_mult: 0
  }
  bn_param {
    slope_filler {
      type: "constant"
      value: 1
    }
    bias_filler {
      type: "constant"
      value: 0
    }
    momentum: 0.95
    frozen: true
  }
}
layer {
  name: "conv3_1"
  type: "Eltwise"
  bottom: "conv3_1_1x1_proj"
  bottom: "conv3_1_1x1_increase"
  top: "conv3_1"
  eltwise_param {
    operation: SUM
  }
}
layer {
  name: "conv3_1/relu"
  type: "ReLU"
  bottom: "conv3_1"
  top: "conv3_1"
}
layer {
  name: "conv3_2_1x1_reduce"
  type: "Convolution"
  bottom: "conv3_1"
  top: "conv3_2_1x1_reduce"
  param {
    lr_mult: 1
    decay_mult: 1
  }
  convolution_param {
    num_output: 128
    bias_term: false
    pad: 0
    kernel_size: 1
    stride: 1
    weight_filler {
      type: "msra"
    }
  }
}
layer {
  name: "conv3_2_1x1_reduce/bn"
  type: "BN"
  bottom: "conv3_2_1x1_reduce"
  top: "conv3_2_1x1_reduce"
  param {
    lr_mult: 1
    decay_mult: 0
  }
  param {
    lr_mult: 1
    decay_mult: 0
  }
  param {
    lr_mult: 0
    decay_mult: 0
  }
  param {
    lr_mult: 0
    decay_mult: 0
  }
  bn_param {
    slope_filler {
      type: "constant"
      value: 1
    }
    bias_filler {
      type: "constant"
      value: 0
    }
    momentum: 0.95
    frozen: true
  }
}
layer {
  name: "conv3_2_1x1_reduce/relu"
  type: "ReLU"
  bottom: "conv3_2_1x1_reduce"
  top: "conv3_2_1x1_reduce"
}
layer {
  name: "conv3_2_3x3"
  type: "Convolution"
  bottom: "conv3_2_1x1_reduce"
  top: "conv3_2_3x3"
  param {
    lr_mult: 1
    decay_mult: 1
  }
  convolution_param {
    num_output: 128
    bias_term: false
    pad: 1
    kernel_size: 3
    stride: 1
    weight_filler {
      type: "msra"
    }
  }
}
layer {
  name: "conv3_2_3x3/bn"
  type: "BN"
  bottom: "conv3_2_3x3"
  top: "conv3_2_3x3"
  param {
    lr_mult: 1
    decay_mult: 0
  }
  param {
    lr_mult: 1
    decay_mult: 0
  }
  param {
    lr_mult: 0
    decay_mult: 0
  }
  param {
    lr_mult: 0
    decay_mult: 0
  }
  bn_param {
    slope_filler {
      type: "constant"
      value: 1
    }
    bias_filler {
      type: "constant"
      value: 0
    }
    momentum: 0.95
    frozen: true
  }
}
layer {
  name: "conv3_2_3x3/relu"
  type: "ReLU"
  bottom: "conv3_2_3x3"
  top: "conv3_2_3x3"
}
layer {
  name: "conv3_2_1x1_increase"
  type: "Convolution"
  bottom: "conv3_2_3x3"
  top: "conv3_2_1x1_increase"
  param {
    lr_mult: 1
    decay_mult: 1
  }
  convolution_param {
    num_output: 512
    bias_term: false
    pad: 0
    kernel_size: 1
    stride: 1
    weight_filler {
      type: "msra"
    }
  }
}
layer {
  name: "conv3_2_1x1_increase/bn"
  type: "BN"
  bottom: "conv3_2_1x1_increase"
  top: "conv3_2_1x1_increase"
  param {
    lr_mult: 1
    decay_mult: 0
  }
  param {
    lr_mult: 1
    decay_mult: 0
  }
  param {
    lr_mult: 0
    decay_mult: 0
  }
  param {
    lr_mult: 0
    decay_mult: 0
  }
  bn_param {
    slope_filler {
      type: "constant"
      value: 1
    }
    bias_filler {
      type: "constant"
      value: 0
    }
    momentum: 0.95
    frozen: true
  }
}
layer {
  name: "conv3_2"
  type: "Eltwise"
  bottom: "conv3_1"
  bottom: "conv3_2_1x1_increase"
  top: "conv3_2"
  eltwise_param {
    operation: SUM
  }
}
layer {
  name: "conv3_2/relu"
  type: "ReLU"
  bottom: "conv3_2"
  top: "conv3_2"
}
layer {
  name: "conv3_3_1x1_reduce"
  type: "Convolution"
  bottom: "conv3_2"
  top: "conv3_3_1x1_reduce"
  param {
    lr_mult: 1
    decay_mult: 1
  }
  convolution_param {
    num_output: 128
    bias_term: false
    pad: 0
    kernel_size: 1
    stride: 1
    weight_filler {
      type: "msra"
    }
  }
}
layer {
  name: "conv3_3_1x1_reduce/bn"
  type: "BN"
  bottom: "conv3_3_1x1_reduce"
  top: "conv3_3_1x1_reduce"
  param {
    lr_mult: 1
    decay_mult: 0
  }
  param {
    lr_mult: 1
    decay_mult: 0
  }
  param {
    lr_mult: 0
    decay_mult: 0
  }
  param {
    lr_mult: 0
    decay_mult: 0
  }
  bn_param {
    slope_filler {
      type: "constant"
      value: 1
    }
    bias_filler {
      type: "constant"
      value: 0
    }
    momentum: 0.95
    frozen: true
  }
}
layer {
  name: "conv3_3_1x1_reduce/relu"
  type: "ReLU"
  bottom: "conv3_3_1x1_reduce"
  top: "conv3_3_1x1_reduce"
}
layer {
  name: "conv3_3_3x3"
  type: "Convolution"
  bottom: "conv3_3_1x1_reduce"
  top: "conv3_3_3x3"
  param {
    lr_mult: 1
    decay_mult: 1
  }
  convolution_param {
    num_output: 128
    bias_term: false
    pad: 1
    kernel_size: 3
    stride: 1
    weight_filler {
      type: "msra"
    }
  }
}
layer {
  name: "conv3_3_3x3/bn"
  type: "BN"
  bottom: "conv3_3_3x3"
  top: "conv3_3_3x3"
  param {
    lr_mult: 1
    decay_mult: 0
  }
  param {
    lr_mult: 1
    decay_mult: 0
  }
  param {
    lr_mult: 0
    decay_mult: 0
  }
  param {
    lr_mult: 0
    decay_mult: 0
  }
  bn_param {
    slope_filler {
      type: "constant"
      value: 1
    }
    bias_filler {
      type: "constant"
      value: 0
    }
    momentum: 0.95
    frozen: true
  }
}
layer {
  name: "conv3_3_3x3/relu"
  type: "ReLU"
  bottom: "conv3_3_3x3"
  top: "conv3_3_3x3"
}
layer {
  name: "conv3_3_1x1_increase"
  type: "Convolution"
  bottom: "conv3_3_3x3"
  top: "conv3_3_1x1_increase"
  param {
    lr_mult: 1
    decay_mult: 1
  }
  convolution_param {
    num_output: 512
    bias_term: false
    pad: 0
    kernel_size: 1
    stride: 1
    weight_filler {
      type: "msra"
    }
  }
}
layer {
  name: "conv3_3_1x1_increase/bn"
  type: "BN"
  bottom: "conv3_3_1x1_increase"
  top: "conv3_3_1x1_increase"
  param {
    lr_mult: 1
    decay_mult: 0
  }
  param {
    lr_mult: 1
    decay_mult: 0
  }
  param {
    lr_mult: 0
    decay_mult: 0
  }
  param {
    lr_mult: 0
    decay_mult: 0
  }
  bn_param {
    slope_filler {
      type: "constant"
      value: 1
    }
    bias_filler {
      type: "constant"
      value: 0
    }
    momentum: 0.95
    frozen: true
  }
}
layer {
  name: "conv3_3"
  type: "Eltwise"
  bottom: "conv3_2"
  bottom: "conv3_3_1x1_increase"
  top: "conv3_3"
  eltwise_param {
    operation: SUM
  }
}
layer {
  name: "conv3_3/relu"
  type: "ReLU"
  bottom: "conv3_3"
  top: "conv3_3"
}
layer {
  name: "conv3_4_1x1_reduce"
  type: "Convolution"
  bottom: "conv3_3"
  top: "conv3_4_1x1_reduce"
  param {
    lr_mult: 1
    decay_mult: 1
  }
  convolution_param {
    num_output: 128
    bias_term: false
    pad: 0
    kernel_size: 1
    stride: 1
    weight_filler {
      type: "msra"
    }
  }
}
layer {
  name: "conv3_4_1x1_reduce/bn"
  type: "BN"
  bottom: "conv3_4_1x1_reduce"
  top: "conv3_4_1x1_reduce"
  param {
    lr_mult: 1
    decay_mult: 0
  }
  param {
    lr_mult: 1
    decay_mult: 0
  }
  param {
    lr_mult: 0
    decay_mult: 0
  }
  param {
    lr_mult: 0
    decay_mult: 0
  }
  bn_param {
    slope_filler {
      type: "constant"
      value: 1
    }
    bias_filler {
      type: "constant"
      value: 0
    }
    momentum: 0.95
    frozen: true
  }
}
layer {
  name: "conv3_4_1x1_reduce/relu"
  type: "ReLU"
  bottom: "conv3_4_1x1_reduce"
  top: "conv3_4_1x1_reduce"
}
layer {
  name: "conv3_4_3x3"
  type: "Convolution"
  bottom: "conv3_4_1x1_reduce"
  top: "conv3_4_3x3"
  param {
    lr_mult: 1
    decay_mult: 1
  }
  convolution_param {
    num_output: 128
    bias_term: false
    pad: 1
    kernel_size: 3
    stride: 1
    weight_filler {
      type: "msra"
    }
  }
}
layer {
  name: "conv3_4_3x3/bn"
  type: "BN"
  bottom: "conv3_4_3x3"
  top: "conv3_4_3x3"
  param {
    lr_mult: 1
    decay_mult: 0
  }
  param {
    lr_mult: 1
    decay_mult: 0
  }
  param {
    lr_mult: 0
    decay_mult: 0
  }
  param {
    lr_mult: 0
    decay_mult: 0
  }
  bn_param {
    slope_filler {
      type: "constant"
      value: 1
    }
    bias_filler {
      type: "constant"
      value: 0
    }
    momentum: 0.95
    frozen: true
  }
}
layer {
  name: "conv3_4_3x3/relu"
  type: "ReLU"
  bottom: "conv3_4_3x3"
  top: "conv3_4_3x3"
}
layer {
  name: "conv3_4_1x1_increase"
  type: "Convolution"
  bottom: "conv3_4_3x3"
  top: "conv3_4_1x1_increase"
  param {
    lr_mult: 1
    decay_mult: 1
  }
  convolution_param {
    num_output: 512
    bias_term: false
    pad: 0
    kernel_size: 1
    stride: 1
    weight_filler {
      type: "msra"
    }
  }
}
layer {
  name: "conv3_4_1x1_increase/bn"
  type: "BN"
  bottom: "conv3_4_1x1_increase"
  top: "conv3_4_1x1_increase"
  param {
    lr_mult: 1
    decay_mult: 0
  }
  param {
    lr_mult: 1
    decay_mult: 0
  }
  param {
    lr_mult: 0
    decay_mult: 0
  }
  param {
    lr_mult: 0
    decay_mult: 0
  }
  bn_param {
    slope_filler {
      type: "constant"
      value: 1
    }
    bias_filler {
      type: "constant"
      value: 0
    }
    momentum: 0.95
    frozen: true
  }
}
layer {
  name: "conv3_4"
  type: "Eltwise"
  bottom: "conv3_3"
  bottom: "conv3_4_1x1_increase"
  top: "conv3_4"
  eltwise_param {
    operation: SUM
  }
}
layer {
  name: "conv3_4/relu"
  type: "ReLU"
  bottom: "conv3_4"
  top: "conv3_4"
}
layer {
  name: "conv4_1_1x1_reduce"
  type: "Convolution"
  bottom: "conv3_4"
  top: "conv4_1_1x1_reduce"
  param {
    lr_mult: 1
    decay_mult: 1
  }
  convolution_param {
    num_output: 256
    bias_term: false
    pad: 0
    kernel_size: 1
    stride: 1
    weight_filler {
      type: "msra"
    }
  }
}
layer {
  name: "conv4_1_1x1_reduce/bn"
  type: "BN"
  bottom: "conv4_1_1x1_reduce"
  top: "conv4_1_1x1_reduce"
  param {
    lr_mult: 1
    decay_mult: 0
  }
  param {
    lr_mult: 1
    decay_mult: 0
  }
  param {
    lr_mult: 0
    decay_mult: 0
  }
  param {
    lr_mult: 0
    decay_mult: 0
  }
  bn_param {
    slope_filler {
      type: "constant"
      value: 1
    }
    bias_filler {
      type: "constant"
      value: 0
    }
    momentum: 0.95
    frozen: true
  }
}
layer {
  name: "conv4_1_1x1_reduce/relu"
  type: "ReLU"
  bottom: "conv4_1_1x1_reduce"
  top: "conv4_1_1x1_reduce"
}
layer {
  name: "conv4_1_3x3"
  type: "Convolution"
  bottom: "conv4_1_1x1_reduce"
  top: "conv4_1_3x3"
  param {
    lr_mult: 1
    decay_mult: 1
  }
  convolution_param {
    num_output: 256
    bias_term: false
    pad: 2
    kernel_size: 3
    stride: 1
    weight_filler {
      type: "msra"
    }
    dilation: 2
  }
}
layer {
  name: "conv4_1_3x3/bn"
  type: "BN"
  bottom: "conv4_1_3x3"
  top: "conv4_1_3x3"
  param {
    lr_mult: 1
    decay_mult: 0
  }
  param {
    lr_mult: 1
    decay_mult: 0
  }
  param {
    lr_mult: 0
    decay_mult: 0
  }
  param {
    lr_mult: 0
    decay_mult: 0
  }
  bn_param {
    slope_filler {
      type: "constant"
      value: 1
    }
    bias_filler {
      type: "constant"
      value: 0
    }
    momentum: 0.95
    frozen: true
  }
}
layer {
  name: "conv4_1_3x3/relu"
  type: "ReLU"
  bottom: "conv4_1_3x3"
  top: "conv4_1_3x3"
}
layer {
  name: "conv4_1_1x1_increase"
  type: "Convolution"
  bottom: "conv4_1_3x3"
  top: "conv4_1_1x1_increase"
  param {
    lr_mult: 1
    decay_mult: 1
  }
  convolution_param {
    num_output: 1024
    bias_term: false
    pad: 0
    kernel_size: 1
    stride: 1
    weight_filler {
      type: "msra"
    }
  }
}
layer {
  name: "conv4_1_1x1_increase/bn"
  type: "BN"
  bottom: "conv4_1_1x1_increase"
  top: "conv4_1_1x1_increase"
  param {
    lr_mult: 1
    decay_mult: 0
  }
  param {
    lr_mult: 1
    decay_mult: 0
  }
  param {
    lr_mult: 0
    decay_mult: 0
  }
  param {
    lr_mult: 0
    decay_mult: 0
  }
  bn_param {
    slope_filler {
      type: "constant"
      value: 1
    }
    bias_filler {
      type: "constant"
      value: 0
    }
    momentum: 0.95
    frozen: true
  }
}
layer {
  name: "conv4_1_1x1_proj"
  type: "Convolution"
  bottom: "conv3_4"
  top: "conv4_1_1x1_proj"
  param {
    lr_mult: 1
    decay_mult: 1
  }
  convolution_param {
    num_output: 1024
    bias_term: false
    pad: 0
    kernel_size: 1
    stride: 1
    weight_filler {
      type: "msra"
    }
  }
}
layer {
  name: "conv4_1_1x1_proj/bn"
  type: "BN"
  bottom: "conv4_1_1x1_proj"
  top: "conv4_1_1x1_proj"
  param {
    lr_mult: 1
    decay_mult: 0
  }
  param {
    lr_mult: 1
    decay_mult: 0
  }
  param {
    lr_mult: 0
    decay_mult: 0
  }
  param {
    lr_mult: 0
    decay_mult: 0
  }
  bn_param {
    slope_filler {
      type: "constant"
      value: 1
    }
    bias_filler {
      type: "constant"
      value: 0
    }
    momentum: 0.95
    frozen: true
  }
}
layer {
  name: "conv4_1"
  type: "Eltwise"
  bottom: "conv4_1_1x1_proj"
  bottom: "conv4_1_1x1_increase"
  top: "conv4_1"
  eltwise_param {
    operation: SUM
  }
}
layer {
  name: "conv4_1/relu"
  type: "ReLU"
  bottom: "conv4_1"
  top: "conv4_1"
}
layer {
  name: "conv4_2_1x1_reduce"
  type: "Convolution"
  bottom: "conv4_1"
  top: "conv4_2_1x1_reduce"
  param {
    lr_mult: 1
    decay_mult: 1
  }
  convolution_param {
    num_output: 256
    bias_term: false
    pad: 0
    kernel_size: 1
    stride: 1
    weight_filler {
      type: "msra"
    }
  }
}
layer {
  name: "conv4_2_1x1_reduce/bn"
  type: "BN"
  bottom: "conv4_2_1x1_reduce"
  top: "conv4_2_1x1_reduce"
  param {
    lr_mult: 1
    decay_mult: 0
  }
  param {
    lr_mult: 1
    decay_mult: 0
  }
  param {
    lr_mult: 0
    decay_mult: 0
  }
  param {
    lr_mult: 0
    decay_mult: 0
  }
  bn_param {
    slope_filler {
      type: "constant"
      value: 1
    }
    bias_filler {
      type: "constant"
      value: 0
    }
    momentum: 0.95
    frozen: true
  }
}
layer {
  name: "conv4_2_1x1_reduce/relu"
  type: "ReLU"
  bottom: "conv4_2_1x1_reduce"
  top: "conv4_2_1x1_reduce"
}
layer {
  name: "conv4_2_3x3"
  type: "Convolution"
  bottom: "conv4_2_1x1_reduce"
  top: "conv4_2_3x3"
  param {
    lr_mult: 1
    decay_mult: 1
  }
  convolution_param {
    num_output: 256
    bias_term: false
    pad: 2
    kernel_size: 3
    stride: 1
    weight_filler {
      type: "msra"
    }
    dilation: 2
  }
}
layer {
  name: "conv4_2_3x3/bn"
  type: "BN"
  bottom: "conv4_2_3x3"
  top: "conv4_2_3x3"
  param {
    lr_mult: 1
    decay_mult: 0
  }
  param {
    lr_mult: 1
    decay_mult: 0
  }
  param {
    lr_mult: 0
    decay_mult: 0
  }
  param {
    lr_mult: 0
    decay_mult: 0
  }
  bn_param {
    slope_filler {
      type: "constant"
      value: 1
    }
    bias_filler {
      type: "constant"
      value: 0
    }
    momentum: 0.95
    frozen: true
  }
}
layer {
  name: "conv4_2
I0621 16:04:08.563805 10428 layer_factory.hpp:77] Creating layer data
I0621 16:04:08.563835 10428 net.cpp:106] Creating Layer data
I0621 16:04:08.563840 10428 net.cpp:411] data -> data
I0621 16:04:08.563858 10428 net.cpp:411] data -> label
I0621 16:04:08.563866 10428 net.cpp:411] data -> (automatic)
I0621 16:04:08.564189 10428 image_seg_data_layer.cpp:46] Opening file exper/voc12/list/train_aug.txt
I0621 16:04:08.571187 10428 image_seg_data_layer.cpp:63] Shuffling data
I0621 16:04:08.572237 10428 image_seg_data_layer.cpp:68] A total of 10582 images.
I0621 16:04:08.602416 10428 image_seg_data_layer.cpp:137] output data size: 1,3,473,473
I0621 16:04:08.602437 10428 image_seg_data_layer.cpp:141] output label size: 1,1,473,473
I0621 16:04:08.602442 10428 image_seg_data_layer.cpp:145] output data_dim size: 1,1,1,2
I0621 16:04:08.621963 10428 net.cpp:150] Setting up data
I0621 16:04:08.621987 10428 net.cpp:157] Top shape: 1 3 473 473 (671187)
I0621 16:04:08.621991 10428 net.cpp:157] Top shape: 1 1 473 473 (223729)
I0621 16:04:08.621994 10428 net.cpp:157] Top shape: 1 1 1 2 (2)
I0621 16:04:08.621997 10428 net.cpp:165] Memory required for data: 3579672
I0621 16:04:08.622004 10428 layer_factory.hpp:77] Creating layer conv1_1_3x3_s2
I0621 16:04:08.622037 10428 net.cpp:106] Creating Layer conv1_1_3x3_s2
I0621 16:04:08.622043 10428 net.cpp:454] conv1_1_3x3_s2 <- data
I0621 16:04:08.622056 10428 net.cpp:411] conv1_1_3x3_s2 -> conv1_1_3x3_s2
I0621 16:04:08.622866 10428 net.cpp:150] Setting up conv1_1_3x3_s2
I0621 16:04:08.622877 10428 net.cpp:157] Top shape: 1 64 237 237 (3594816)
I0621 16:04:08.622884 10428 net.cpp:165] Memory required for data: 17958936
I0621 16:04:08.622895 10428 layer_factory.hpp:77] Creating layer conv1_1_3x3_s2/bn
I0621 16:04:08.622905 10428 net.cpp:106] Creating Layer conv1_1_3x3_s2/bn
I0621 16:04:08.622907 10428 net.cpp:454] conv1_1_3x3_s2/bn <- conv1_1_3x3_s2
I0621 16:04:08.622912 10428 net.cpp:397] conv1_1_3x3_s2/bn -> conv1_1_3x3_s2 (in-place)
I0621 16:04:08.625110 10428 net.cpp:150] Setting up conv1_1_3x3_s2/bn
I0621 16:04:08.625120 10428 net.cpp:157] Top shape: 1 64 237 237 (3594816)
I0621 16:04:08.625124 10428 net.cpp:165] Memory required for data: 32338200
I0621 16:04:08.625155 10428 layer_factory.hpp:77] Creating layer conv1_1_3x3_s2/relu
I0621 16:04:08.625162 10428 net.cpp:106] Creating Layer conv1_1_3x3_s2/relu
I0621 16:04:08.625166 10428 net.cpp:454] conv1_1_3x3_s2/relu <- conv1_1_3x3_s2
I0621 16:04:08.625170 10428 net.cpp:397] conv1_1_3x3_s2/relu -> conv1_1_3x3_s2 (in-place)
I0621 16:04:08.625183 10428 net.cpp:150] Setting up conv1_1_3x3_s2/relu
I0621 16:04:08.625186 10428 net.cpp:157] Top shape: 1 64 237 237 (3594816)
I0621 16:04:08.625190 10428 net.cpp:165] Memory required for data: 46717464
I0621 16:04:08.625192 10428 layer_factory.hpp:77] Creating layer conv1_2_3x3
I0621 16:04:08.625200 10428 net.cpp:106] Creating Layer conv1_2_3x3
I0621 16:04:08.625203 10428 net.cpp:454] conv1_2_3x3 <- conv1_1_3x3_s2
I0621 16:04:08.625207 10428 net.cpp:411] conv1_2_3x3 -> conv1_2_3x3
I0621 16:04:08.626066 10428 net.cpp:150] Setting up conv1_2_3x3
I0621 16:04:08.626071 10428 net.cpp:157] Top shape: 1 64 237 237 (3594816)
I0621 16:04:08.626075 10428 net.cpp:165] Memory required for data: 61096728
I0621 16:04:08.626078 10428 layer_factory.hpp:77] Creating layer conv1_2_3x3/bn
I0621 16:04:08.626085 10428 net.cpp:106] Creating Layer conv1_2_3x3/bn
I0621 16:04:08.626088 10428 net.cpp:454] conv1_2_3x3/bn <- conv1_2_3x3
I0621 16:04:08.626092 10428 net.cpp:397] conv1_2_3x3/bn -> conv1_2_3x3 (in-place)
I0621 16:04:08.626227 10428 net.cpp:150] Setting up conv1_2_3x3/bn
I0621 16:04:08.626231 10428 net.cpp:157] Top shape: 1 64 237 237 (3594816)
I0621 16:04:08.626235 10428 net.cpp:165] Memory required for data: 75475992
I0621 16:04:08.626241 10428 layer_factory.hpp:77] Creating layer conv1_2_3x3/relu
I0621 16:04:08.626245 10428 net.cpp:106] Creating Layer conv1_2_3x3/relu
I0621 16:04:08.626248 10428 net.cpp:454] conv1_2_3x3/relu <- conv1_2_3x3
I0621 16:04:08.626252 10428 net.cpp:397] conv1_2_3x3/relu -> conv1_2_3x3 (in-place)
I0621 16:04:08.626255 10428 net.cpp:150] Setting up conv1_2_3x3/relu
I0621 16:04:08.626260 10428 net.cpp:157] Top shape: 1 64 237 237 (3594816)
I0621 16:04:08.626261 10428 net.cpp:165] Memory required for data: 89855256
I0621 16:04:08.626265 10428 layer_factory.hpp:77] Creating layer conv1_3_3x3
I0621 16:04:08.626269 10428 net.cpp:106] Creating Layer conv1_3_3x3
I0621 16:04:08.626272 10428 net.cpp:454] conv1_3_3x3 <- conv1_2_3x3
I0621 16:04:08.626276 10428 net.cpp:411] conv1_3_3x3 -> conv1_3_3x3
I0621 16:04:08.628471 10428 net.cpp:150] Setting up conv1_3_3x3
I0621 16:04:08.628505 10428 net.cpp:157] Top shape: 1 128 237 237 (7189632)
I0621 16:04:08.628512 10428 net.cpp:165] Memory required for data: 118613784
I0621 16:04:08.628526 10428 layer_factory.hpp:77] Creating layer conv1_3_3x3/bn
I0621 16:04:08.628551 10428 net.cpp:106] Creating Layer conv1_3_3x3/bn
I0621 16:04:08.628558 10428 net.cpp:454] conv1_3_3x3/bn <- conv1_3_3x3
I0621 16:04:08.628568 10428 net.cpp:397] conv1_3_3x3/bn -> conv1_3_3x3 (in-place)
I0621 16:04:08.628870 10428 net.cpp:150] Setting up conv1_3_3x3/bn
I0621 16:04:08.628882 10428 net.cpp:157] Top shape: 1 128 237 237 (7189632)
I0621 16:04:08.628890 10428 net.cpp:165] Memory required for data: 147372312
I0621 16:04:08.628902 10428 layer_factory.hpp:77] Creating layer conv1_3_3x3/relu
I0621 16:04:08.628918 10428 net.cpp:106] Creating Layer conv1_3_3x3/relu
I0621 16:04:08.628924 10428 net.cpp:454] conv1_3_3x3/relu <- conv1_3_3x3
I0621 16:04:08.628931 10428 net.cpp:397] conv1_3_3x3/relu -> conv1_3_3x3 (in-place)
I0621 16:04:08.628962 10428 net.cpp:150] Setting up conv1_3_3x3/relu
I0621 16:04:08.628974 10428 net.cpp:157] Top shape: 1 128 237 237 (7189632)
I0621 16:04:08.628979 10428 net.cpp:165] Memory required for data: 176130840
I0621 16:04:08.628984 10428 layer_factory.hpp:77] Creating layer pool1_3x3_s2
I0621 16:04:08.628993 10428 net.cpp:106] Creating Layer pool1_3x3_s2
I0621 16:04:08.628998 10428 net.cpp:454] pool1_3x3_s2 <- conv1_3_3x3
I0621 16:04:08.629006 10428 net.cpp:411] pool1_3x3_s2 -> pool1_3x3_s2
I0621 16:04:08.629072 10428 net.cpp:150] Setting up pool1_3x3_s2
I0621 16:04:08.629079 10428 net.cpp:157] Top shape: 1 128 119 119 (1812608)
I0621 16:04:08.629134 10428 net.cpp:165] Memory required for data: 183381272
I0621 16:04:08.629140 10428 layer_factory.hpp:77] Creating layer pool1_3x3_s2_pool1_3x3_s2_0_split
I0621 16:04:08.629153 10428 net.cpp:106] Creating Layer pool1_3x3_s2_pool1_3x3_s2_0_split
I0621 16:04:08.629158 10428 net.cpp:454] pool1_3x3_s2_pool1_3x3_s2_0_split <- pool1_3x3_s2
I0621 16:04:08.629163 10428 net.cpp:411] pool1_3x3_s2_pool1_3x3_s2_0_split -> pool1_3x3_s2_pool1_3x3_s2_0_split_0
I0621 16:04:08.629170 10428 net.cpp:411] pool1_3x3_s2_pool1_3x3_s2_0_split -> pool1_3x3_s2_pool1_3x3_s2_0_split_1
I0621 16:04:08.629202 10428 net.cpp:150] Setting up pool1_3x3_s2_pool1_3x3_s2_0_split
I0621 16:04:08.629209 10428 net.cpp:157] Top shape: 1 128 119 119 (1812608)
I0621 16:04:08.629215 10428 net.cpp:157] Top shape: 1 128 119 119 (1812608)
I0621 16:04:08.629220 10428 net.cpp:165] Memory required for data: 197882136
I0621 16:04:08.629225 10428 layer_factory.hpp:77] Creating layer conv2_1_1x1_reduce
I0621 16:04:08.629235 10428 net.cpp:106] Creating Layer conv2_1_1x1_reduce
I0621 16:04:08.629240 10428 net.cpp:454] conv2_1_1x1_reduce <- pool1_3x3_s2_pool1_3x3_s2_0_split_0
I0621 16:04:08.629247 10428 net.cpp:411] conv2_1_1x1_reduce -> conv2_1_1x1_reduce
I0621 16:04:08.631033 10428 net.cpp:150] Setting up conv2_1_1x1_reduce
I0621 16:04:08.631057 10428 net.cpp:157] Top shape: 1 64 119 119 (906304)
I0621 16:04:08.631062 10428 net.cpp:165] Memory required for data: 201507352
I0621 16:04:08.631069 10428 layer_factory.hpp:77] Creating layer conv2_1_1x1_reduce/bn
I0621 16:04:08.631081 10428 net.cpp:106] Creating Layer conv2_1_1x1_reduce/bn
I0621 16:04:08.631086 10428 net.cpp:454] conv2_1_1x1_reduce/bn <- conv2_1_1x1_reduce
I0621 16:04:08.631094 10428 net.cpp:397] conv2_1_1x1_reduce/bn -> conv2_1_1x1_reduce (in-place)
I0621 16:04:08.631274 10428 net.cpp:150] Setting up conv2_1_1x1_reduce/bn
I0621 16:04:08.631281 10428 net.cpp:157] Top shape: 1 64 119 119 (906304)
I0621 16:04:08.631285 10428 net.cpp:165] Memory required for data: 205132568
I0621 16:04:08.631301 10428 layer_factory.hpp:77] Creating layer conv2_1_1x1_reduce/relu
I0621 16:04:08.631310 10428 net.cpp:106] Creating Layer conv2_1_1x1_reduce/relu
I0621 16:04:08.631315 10428 net.cpp:454] conv2_1_1x1_reduce/relu <- conv2_1_1x1_reduce
I0621 16:04:08.631320 10428 net.cpp:397] conv2_1_1x1_reduce/relu -> conv2_1_1x1_reduce (in-place)
I0621 16:04:08.631326 10428 net.cpp:150] Setting up conv2_1_1x1_reduce/relu
I0621 16:04:08.631331 10428 net.cpp:157] Top shape: 1 64 119 119 (906304)
I0621 16:04:08.631335 10428 net.cpp:165] Memory required for data: 208757784
I0621 16:04:08.631340 10428 layer_factory.hpp:77] Creating layer conv2_1_3x3
I0621 16:04:08.631347 10428 net.cpp:106] Creating Layer conv2_1_3x3
I0621 16:04:08.631351 10428 net.cpp:454] conv2_1_3x3 <- conv2_1_1x1_reduce
I0621 16:04:08.631358 10428 net.cpp:411] conv2_1_3x3 -> conv2_1_3x3
I0621 16:04:08.632544 10428 net.cpp:150] Setting up conv2_1_3x3
I0621 16:04:08.632550 10428 net.cpp:157] Top shape: 1 64 119 119 (906304)
I0621 16:04:08.632553 10428 net.cpp:165] Memory required for data: 212383000
I0621 16:04:08.632560 10428 layer_factory.hpp:77] Creating layer conv2_1_3x3/bn
I0621 16:04:08.632567 10428 net.cpp:106] Creating Layer conv2_1_3x3/bn
I0621 16:04:08.632572 10428 net.cpp:454] conv2_1_3x3/bn <- conv2_1_3x3
I0621 16:04:08.632577 10428 net.cpp:397] conv2_1_3x3/bn -> conv2_1_3x3 (in-place)
I0621 16:04:08.632743 10428 net.cpp:150] Setting up conv2_1_3x3/bn
I0621 16:04:08.632750 10428 net.cpp:157] Top shape: 1 64 119 119 (906304)
I0621 16:04:08.632755 10428 net.cpp:165] Memory required for data: 216008216
I0621 16:04:08.632762 10428 layer_factory.hpp:77] Creating layer conv2_1_3x3/relu
I0621 16:04:08.632767 10428 net.cpp:106] Creating Layer conv2_1_3x3/relu
I0621 16:04:08.632771 10428 net.cpp:454] conv2_1_3x3/relu <- conv2_1_3x3
I0621 16:04:08.632776 10428 net.cpp:397] conv2_1_3x3/relu -> conv2_1_3x3 (in-place)
I0621 16:04:08.632781 10428 net.cpp:150] Setting up conv2_1_3x3/relu
I0621 16:04:08.632786 10428 net.cpp:157] Top shape: 1 64 119 119 (906304)
I0621 16:04:08.632803 10428 net.cpp:165] Memory required for data: 219633432
I0621 16:04:08.632807 10428 layer_factory.hpp:77] Creating layer conv2_1_1x1_increase
I0621 16:04:08.632813 10428 net.cpp:106] Creating Layer conv2_1_1x1_increase
I0621 16:04:08.632817 10428 net.cpp:454] conv2_1_1x1_increase <- conv2_1_3x3
I0621 16:04:08.632822 10428 net.cpp:411] conv2_1_1x1_increase -> conv2_1_1x1_increase
I0621 16:04:08.633431 10428 net.cpp:150] Setting up conv2_1_1x1_increase
I0621 16:04:08.633440 10428 net.cpp:157] Top shape: 1 256 119 119 (3625216)
I0621 16:04:08.633445 10428 net.cpp:165] Memory required for data: 234134296
I0621 16:04:08.633450 10428 layer_factory.hpp:77] Creating layer conv2_1_1x1_increase/bn
I0621 16:04:08.633457 10428 net.cpp:106] Creating Layer conv2_1_1x1_increase/bn
I0621 16:04:08.633461 10428 net.cpp:454] conv2_1_1x1_increase/bn <- conv2_1_1x1_increase
I0621 16:04:08.633467 10428 net.cpp:397] conv2_1_1x1_increase/bn -> conv2_1_1x1_increase (in-place)
I0621 16:04:08.633625 10428 net.cpp:150] Setting up conv2_1_1x1_increase/bn
I0621 16:04:08.633631 10428 net.cpp:157] Top shape: 1 256 119 119 (3625216)
I0621 16:04:08.633635 10428 net.cpp:165] Memory required for data: 248635160
I0621 16:04:08.633643 10428 layer_factory.hpp:77] Creating layer conv2_1_1x1_proj
I0621 16:04:08.633651 10428 net.cpp:106] Creating Layer conv2_1_1x1_proj
I0621 16:04:08.633656 10428 net.cpp:454] conv2_1_1x1_proj <- pool1_3x3_s2_pool1_3x3_s2_0_split_1
I0621 16:04:08.633661 10428 net.cpp:411] conv2_1_1x1_proj -> conv2_1_1x1_proj
I0621 16:04:08.635308 10428 net.cpp:150] Setting up conv2_1_1x1_proj
I0621 16:04:08.635316 10428 net.cpp:157] Top shape: 1 256 119 119 (3625216)
I0621 16:04:08.635321 10428 net.cpp:165] Memory required for data: 263136024
I0621 16:04:08.635326 10428 layer_factory.hpp:77] Creating layer conv2_1_1x1_proj/bn
I0621 16:04:08.635334 10428 net.cpp:106] Creating Layer conv2_1_1x1_proj/bn
I0621 16:04:08.635337 10428 net.cpp:454] conv2_1_1x1_proj/bn <- conv2_1_1x1_proj
I0621 16:04:08.635344 10428 net.cpp:397] conv2_1_1x1_proj/bn -> conv2_1_1x1_proj (in-place)
I0621 16:04:08.635910 10428 net.cpp:150] Setting up conv2_1_1x1_proj/bn
I0621 16:04:08.635916 10428 net.cpp:157] Top shape: 1 256 119 119 (3625216)
I0621 16:04:08.635920 10428 net.cpp:165] Memory required for data: 277636888
I0621 16:04:08.635931 10428 layer_factory.hpp:77] Creating layer conv2_1
I0621 16:04:08.635949 10428 net.cpp:106] Creating Layer conv2_1
I0621 16:04:08.635954 10428 net.cpp:454] conv2_1 <- conv2_1_1x1_proj
I0621 16:04:08.635960 10428 net.cpp:454] conv2_1 <- conv2_1_1x1_increase
I0621 16:04:08.635965 10428 net.cpp:411] conv2_1 -> conv2_1
I0621 16:04:08.635996 10428 net.cpp:150] Setting up conv2_1
I0621 16:04:08.636003 10428 net.cpp:157] Top shape: 1 256 119 119 (3625216)
I0621 16:04:08.636008 10428 net.cpp:165] Memory required for data: 292137752
I0621 16:04:08.636011 10428 layer_factory.hpp:77] Creating layer conv2_1/relu
I0621 16:04:08.636018 10428 net.cpp:106] Creating Layer conv2_1/relu
I0621 16:04:08.636021 10428 net.cpp:454] conv2_1/relu <- conv2_1
I0621 16:04:08.636026 10428 net.cpp:397] conv2_1/relu -> conv2_1 (in-place)
I0621 16:04:08.636032 10428 net.cpp:150] Setting up conv2_1/relu
I0621 16:04:08.636036 10428 net.cpp:157] Top shape: 1 256 119 119 (3625216)
I0621 16:04:08.636039 10428 net.cpp:165] Memory required for data: 306638616
I0621 16:04:08.636041 10428 layer_factory.hpp:77] Creating layer conv2_1_conv2_1/relu_0_split
I0621 16:04:08.636045 10428 net.cpp:106] Creating Layer conv2_1_conv2_1/relu_0_split
I0621 16:04:08.636049 10428 net.cpp:454] conv2_1_conv2_1/relu_0_split <- conv2_1
I0621 16:04:08.636052 10428 net.cpp:411] conv2_1_conv2_1/relu_0_split -> conv2_1_conv2_1/relu_0_split_0
I0621 16:04:08.636056 10428 net.cpp:411] conv2_1_conv2_1/relu_0_split -> conv2_1_conv2_1/relu_0_split_1
I0621 16:04:08.636076 10428 net.cpp:150] Setting up conv2_1_conv2_1/relu_0_split
I0621 16:04:08.636082 10428 net.cpp:157] Top shape: 1 256 119 119 (3625216)
I0621 16:04:08.636085 10428 net.cpp:157] Top shape: 1 256 119 119 (3625216)
I0621 16:04:08.636097 10428 net.cpp:165] Memory required for data: 335640344
I0621 16:04:08.636101 10428 layer_factory.hpp:77] Creating layer conv2_2_1x1_reduce
I0621 16:04:08.636106 10428 net.cpp:106] Creating Layer conv2_2_1x1_reduce
I0621 16:04:08.636109 10428 net.cpp:454] conv2_2_1x1_reduce <- conv2_1_conv2_1/relu_0_split_0
I0621 16:04:08.636113 10428 net.cpp:411] conv2_2_1x1_reduce -> conv2_2_1x1_reduce
I0621 16:04:08.636615 10428 net.cpp:150] Setting up conv2_2_1x1_reduce
I0621 16:04:08.636623 10428 net.cpp:157] Top shape: 1 64 119 119 (906304)
I0621 16:04:08.636627 10428 net.cpp:165] Memory required for data: 339265560
I0621 16:04:08.636633 10428 layer_factory.hpp:77] Creating layer conv2_2_1x1_reduce/bn
I0621 16:04:08.636641 10428 net.cpp:106] Creating Layer conv2_2_1x1_reduce/bn
I0621 16:04:08.636644 10428 net.cpp:454] conv2_2_1x1_reduce/bn <- conv2_2_1x1_reduce
I0621 16:04:08.636651 10428 net.cpp:397] conv2_2_1x1_reduce/bn -> conv2_2_1x1_reduce (in-place)
I0621 16:04:08.636826 10428 net.cpp:150] Setting up conv2_2_1x1_reduce/bn
I0621 16:04:08.636833 10428 net.cpp:157] Top shape: 1 64 119 119 (906304)
I0621 16:04:08.636837 10428 net.cpp:165] Memory required for data: 342890776
I0621 16:04:08.636845 10428 layer_factory.hpp:77] Creating layer conv2_2_1x1_reduce/relu
I0621 16:04:08.636852 10428 net.cpp:106] Creating Layer conv2_2_1x1_reduce/relu
I0621 16:04:08.636855 10428 net.cpp:454] conv2_2_1x1_reduce/relu <- conv2_2_1x1_reduce
I0621 16:04:08.636860 10428 net.cpp:397] conv2_2_1x1_reduce/relu -> conv2_2_1x1_reduce (in-place)
I0621 16:04:08.636867 10428 net.cpp:150] Setting up conv2_2_1x1_reduce/relu
I0621 16:04:08.636871 10428 net.cpp:157] Top shape: 1 64 119 119 (906304)
I0621 16:04:08.636875 10428 net.cpp:165] Memory required for data: 346515992
I0621 16:04:08.636879 10428 layer_factory.hpp:77] Creating layer conv2_2_3x3
I0621 16:04:08.636886 10428 net.cpp:106] Creating Layer conv2_2_3x3
I0621 16:04:08.636890 10428 net.cpp:454] conv2_2_3x3 <- conv2_2_1x1_reduce
I0621 16:04:08.636896 10428 net.cpp:411] conv2_2_3x3 -> conv2_2_3x3
I0621 16:04:08.638106 10428 net.cpp:150] Setting up conv2_2_3x3
I0621 16:04:08.638115 10428 net.cpp:157] Top shape: 1 64 119 119 (906304)
I0621 16:04:08.638119 10428 net.cpp:165] Memory required for data: 350141208
I0621 16:04:08.638124 10428 layer_factory.hpp:77] Creating layer conv2_2_3x3/bn
I0621 16:04:08.638133 10428 net.cpp:106] Creating Layer conv2_2_3x3/bn
I0621 16:04:08.638136 10428 net.cpp:454] conv2_2_3x3/bn <- conv2_2_3x3
I0621 16:04:08.638142 10428 net.cpp:397] conv2_2_3x3/bn -> conv2_2_3x3 (in-place)
I0621 16:04:08.638319 10428 net.cpp:150] Setting up conv2_2_3x3/bn
I0621 16:04:08.638326 10428 net.cpp:157] Top shape: 1 64 119 119 (906304)
I0621 16:04:08.638330 10428 net.cpp:165] Memory required for data: 353766424
I0621 16:04:08.638339 10428 layer_factory.hpp:77] Creating layer conv2_2_3x3/relu
I0621 16:04:08.638345 10428 net.cpp:106] Creating Layer conv2_2_3x3/relu
I0621 16:04:08.638350 10428 net.cpp:454] conv2_2_3x3/relu <- conv2_2_3x3
I0621 16:04:08.638355 10428 net.cpp:397] conv2_2_3x3/relu -> conv2_2_3x3 (in-place)
I0621 16:04:08.638360 10428 net.cpp:150] Setting up conv2_2_3x3/relu
I0621 16:04:08.638365 10428 net.cpp:157] Top shape: 1 64 119 119 (906304)
I0621 16:04:08.638368 10428 net.cpp:165] Memory required for data: 357391640
I0621 16:04:08.638372 10428 layer_factory.hpp:77] Creating layer conv2_2_1x1_increase
I0621 16:04:08.638380 10428 net.cpp:106] Creating Layer conv2_2_1x1_increase
I0621 16:04:08.638383 10428 net.cpp:454] conv2_2_1x1_increase <- conv2_2_3x3
I0621 16:04:08.638389 10428 net.cpp:411] conv2_2_1x1_increase -> conv2_2_1x1_increase
I0621 16:04:08.638998 10428 net.cpp:150] Setting up conv2_2_1x1_increase
I0621 16:04:08.639005 10428 net.cpp:157] Top shape: 1 256 119 119 (3625216)
I0621 16:04:08.639009 10428 net.cpp:165] Memory required for data: 371892504
I0621 16:04:08.639016 10428 layer_factory.hpp:77] Creating layer conv2_2_1x1_increase/bn
I0621 16:04:08.639032 10428 net.cpp:106] Creating Layer conv2_2_1x1_increase/bn
I0621 16:04:08.639061 10428 net.cpp:454] conv2_2_1x1_increase/bn <- conv2_2_1x1_increase
I0621 16:04:08.639070 10428 net.cpp:397] conv2_2_1x1_increase/bn -> conv2_2_1x1_increase (in-place)
I0621 16:04:08.639230 10428 net.cpp:150] Setting up conv2_2_1x1_increase/bn
I0621 16:04:08.639235 10428 net.cpp:157] Top shape: 1 256 119 119 (3625216)
I0621 16:04:08.639240 10428 net.cpp:165] Memory required for data: 386393368
I0621 16:04:08.639247 10428 layer_factory.hpp:77] Creating layer conv2_2
I0621 16:04:08.639257 10428 net.cpp:106] Creating Layer conv2_2
I0621 16:04:08.639261 10428 net.cpp:454] conv2_2 <- conv2_1_conv2_1/relu_0_split_1
I0621 16:04:08.639266 10428 net.cpp:454] conv2_2 <- conv2_2_1x1_increase
I0621 16:04:08.639272 10428 net.cpp:411] conv2_2 -> conv2_2
I0621 16:04:08.639293 10428 net.cpp:150] Setting up conv2_2
I0621 16:04:08.639298 10428 net.cpp:157] Top shape: 1 256 119 119 (3625216)
I0621 16:04:08.639302 10428 net.cpp:165] Memory required for data: 400894232
I0621 16:04:08.639307 10428 layer_factory.hpp:77] Creating layer conv2_2/relu
I0621 16:04:08.639312 10428 net.cpp:106] Creating Layer conv2_2/relu
I0621 16:04:08.639317 10428 net.cpp:454] conv2_2/relu <- conv2_2
I0621 16:04:08.639322 10428 net.cpp:397] conv2_2/relu -> conv2_2 (in-place)
I0621 16:04:08.639328 10428 net.cpp:150] Setting up conv2_2/relu
I0621 16:04:08.639331 10428 net.cpp:157] Top shape: 1 256 119 119 (3625216)
I0621 16:04:08.639336 10428 net.cpp:165] Memory required for data: 415395096
I0621 16:04:08.639340 10428 layer_factory.hpp:77] Creating layer conv2_2_conv2_2/relu_0_split
I0621 16:04:08.639348 10428 net.cpp:106] Creating Layer conv2_2_conv2_2/relu_0_split
I0621 16:04:08.639353 10428 net.cpp:454] conv2_2_conv2_2/relu_0_split <- conv2_2
I0621 16:04:08.639358 10428 net.cpp:411] conv2_2_conv2_2/relu_0_split -> conv2_2_conv2_2/relu_0_split_0
I0621 16:04:08.639364 10428 net.cpp:411] conv2_2_conv2_2/relu_0_split -> conv2_2_conv2_2/relu_0_split_1
I0621 16:04:08.639391 10428 net.cpp:150] Setting up conv2_2_conv2_2/relu_0_split
I0621 16:04:08.639396 10428 net.cpp:157] Top shape: 1 256 119 119 (3625216)
I0621 16:04:08.639401 10428 net.cpp:157] Top shape: 1 256 119 119 (3625216)
I0621 16:04:08.639405 10428 net.cpp:165] Memory required for data: 444396824
I0621 16:04:08.639410 10428 layer_factory.hpp:77] Creating layer conv2_3_1x1_reduce
I0621 16:04:08.639417 10428 net.cpp:106] Creating Layer conv2_3_1x1_reduce
I0621 16:04:08.639422 10428 net.cpp:454] conv2_3_1x1_reduce <- conv2_2_conv2_2/relu_0_split_0
I0621 16:04:08.639428 10428 net.cpp:411] conv2_3_1x1_reduce -> conv2_3_1x1_reduce
I0621 16:04:08.640043 10428 net.cpp:150] Setting up conv2_3_1x1_reduce
I0621 16:04:08.640050 10428 net.cpp:157] Top shape: 1 64 119 119 (906304)
I0621 16:04:08.640053 10428 net.cpp:165] Memory required for data: 448022040
I0621 16:04:08.640059 10428 layer_factory.hpp:77] Creating layer conv2_3_1x1_reduce/bn
I0621 16:04:08.640066 10428 net.cpp:106] Creating Layer conv2_3_1x1_reduce/bn
I0621 16:04:08.640070 10428 net.cpp:454] conv2_3_1x1_reduce/bn <- conv2_3_1x1_reduce
I0621 16:04:08.640075 10428 net.cpp:397] conv2_3_1x1_reduce/bn -> conv2_3_1x1_reduce (in-place)
I0621 16:04:08.640244 10428 net.cpp:150] Setting up conv2_3_1x1_reduce/bn
I0621 16:04:08.640249 10428 net.cpp:157] Top shape: 1 64 119 119 (906304)
I0621 16:04:08.640254 10428 net.cpp:165] Memory required for data: 451647256
I0621 16:04:08.640261 10428 layer_factory.hpp:77] Creating layer conv2_3_1x1_reduce/relu
I0621 16:04:08.640267 10428 net.cpp:106] Creating Layer conv2_3_1x1_reduce/relu
I0621 16:04:08.640271 10428 net.cpp:454] conv2_3_1x1_reduce/relu <- conv2_3_1x1_reduce
I0621 16:04:08.640276 10428 net.cpp:397] conv2_3_1x1_reduce/relu -> conv2_3_1x1_reduce (in-place)
I0621 16:04:08.640282 10428 net.cpp:150] Setting up conv2_3_1x1_reduce/relu
I0621 16:04:08.640287 10428 net.cpp:157] Top shape: 1 64 119 119 (906304)
I0621 16:04:08.640290 10428 net.cpp:165] Memory required for data: 455272472
I0621 16:04:08.640295 10428 layer_factory.hpp:77] Creating layer conv2_3_3x3
I0621 16:04:08.640301 10428 net.cpp:106] Creating Layer conv2_3_3x3
I0621 16:04:08.640311 10428 net.cpp:454] conv2_3_3x3 <- conv2_3_1x1_reduce
I0621 16:04:08.640317 10428 net.cpp:411] conv2_3_3x3 -> conv2_3_3x3
I0621 16:04:08.641527 10428 net.cpp:150] Setting up conv2_3_3x3
I0621 16:04:08.641547 10428 net.cpp:157] Top shape: 1 64 119 119 (906304)
I0621 16:04:08.641553 10428 net.cpp:165] Memory required for data: 458897688
I0621 16:04:08.641564 10428 layer_factory.hpp:77] Creating layer conv2_3_3x3/bn
I0621 16:04:08.641580 10428 net.cpp:106] Creating Layer conv2_3_3x3/bn
I0621 16:04:08.641587 10428 net.cpp:454] conv2_3_3x3/bn <- conv2_3_3x3
I0621 16:04:08.641598 10428 net.cpp:397] conv2_3_3x3/bn -> conv2_3_3x3 (in-place)
I0621 16:04:08.641850 10428 net.cpp:150] Setting up conv2_3_3x3/bn
I0621 16:04:08.641860 10428 net.cpp:157] Top shape: 1 64 119 119 (906304)
I0621 16:04:08.641866 10428 net.cpp:165] Memory required for data: 462522904
I0621 16:04:08.641875 10428 layer_factory.hpp:77] Creating layer conv2_3_3x3/relu
I0621 16:04:08.641885 10428 net.cpp:106] Creating Layer conv2_3_3x3/relu
I0621 16:04:08.641891 10428 net.cpp:454] conv2_3_3x3/relu <- conv2_3_3x3
I0621 16:04:08.641896 10428 net.cpp:397] conv2_3_3x3/relu -> conv2_3_3x3 (in-place)
I0621 16:04:08.641902 10428 net.cpp:150] Setting up conv2_3_3x3/relu
I0621 16:04:08.641908 10428 net.cpp:157] Top shape: 1 64 119 119 (906304)
I0621 16:04:08.641911 10428 net.cpp:165] Memory required for data: 466148120
I0621 16:04:08.641916 10428 layer_factory.hpp:77] Creating layer conv2_3_1x1_increase
I0621 16:04:08.641923 10428 net.cpp:106] Creating Layer conv2_3_1x1_increase
I0621 16:04:08.641927 10428 net.cpp:454] conv2_3_1x1_increase <- conv2_3_3x3
I0621 16:04:08.641933 10428 net.cpp:411] conv2_3_1x1_increase -> conv2_3_1x1_increase
I0621 16:04:08.642542 10428 net.cpp:150] Setting up conv2_3_1x1_increase
I0621 16:04:08.642551 10428 net.cpp:157] Top shape: 1 256 119 119 (3625216)
I0621 16:04:08.642557 10428 net.cpp:165] Memory required for data: 480648984
I0621 16:04:08.642563 10428 layer_factory.hpp:77] Creating layer conv2_3_1x1_increase/bn
I0621 16:04:08.642571 10428 net.cpp:106] Creating Layer conv2_3_1x1_increase/bn
I0621 16:04:08.642577 10428 net.cpp:454] conv2_3_1x1_increase/bn <- conv2_3_1x1_increase
I0621 16:04:08.642585 10428 net.cpp:397] conv2_3_1x1_increase/bn -> conv2_3_1x1_increase (in-place)
I0621 16:04:08.642784 10428 net.cpp:150] Setting up conv2_3_1x1_increase/bn
I0621 16:04:08.642791 10428 net.cpp:157] Top shape: 1 256 119 119 (3625216)
I0621 16:04:08.642796 10428 net.cpp:165] Memory required for data: 495149848
I0621 16:04:08.642822 10428 layer_factory.hpp:77] Creating layer conv2_3
I0621 16:04:08.642832 10428 net.cpp:106] Creating Layer conv2_3
I0621 16:04:08.642838 10428 net.cpp:454] conv2_3 <- conv2_2_conv2_2/relu_0_split_1
I0621 16:04:08.642843 10428 net.cpp:454] conv2_3 <- conv2_3_1x1_increase
I0621 16:04:08.642849 10428 net.cpp:411] conv2_3 -> conv2_3
I0621 16:04:08.642871 10428 net.cpp:150] Setting up conv2_3
I0621 16:04:08.642877 10428 net.cpp:157] Top shape: 1 256 119 119 (3625216)
I0621 16:04:08.642881 10428 net.cpp:165] Memory required for data: 509650712
I0621 16:04:08.642886 10428 layer_factory.hpp:77] Creating layer conv2_3/relu
I0621 16:04:08.642894 10428 net.cpp:106] Creating Layer conv2_3/relu
I0621 16:04:08.642899 10428 net.cpp:454] conv2_3/relu <- conv2_3
I0621 16:04:08.642904 10428 net.cpp:397] conv2_3/relu -> conv2_3 (in-place)
I0621 16:04:08.642910 10428 net.cpp:150] Setting up conv2_3/relu
I0621 16:04:08.642916 10428 net.cpp:157] Top shape: 1 256 119 119 (3625216)
I0621 16:04:08.642920 10428 net.cpp:165] Memory required for data: 524151576
I0621 16:04:08.642923 10428 layer_factory.hpp:77] Creating layer conv2_3_conv2_3/relu_0_split
I0621 16:04:08.642931 10428 net.cpp:106] Creating Layer conv2_3_conv2_3/relu_0_split
I0621 16:04:08.642936 10428 net.cpp:454] conv2_3_conv2_3/relu_0_split <- conv2_3
I0621 16:04:08.642942 10428 net.cpp:411] conv2_3_conv2_3/relu_0_split -> conv2_3_conv2_3/relu_0_split_0
I0621 16:04:08.642949 10428 net.cpp:411] conv2_3_conv2_3/relu_0_split -> conv2_3_conv2_3/relu_0_split_1
I0621 16:04:08.643014 10428 net.cpp:150] Setting up conv2_3_conv2_3/relu_0_split
I0621 16:04:08.643020 10428 net.cpp:157] Top shape: 1 256 119 119 (3625216)
I0621 16:04:08.643026 10428 net.cpp:157] Top shape: 1 256 119 119 (3625216)
I0621 16:04:08.643030 10428 net.cpp:165] Memory required for data: 553153304
I0621 16:04:08.643034 10428 layer_factory.hpp:77] Creating layer conv3_1_1x1_reduce
I0621 16:04:08.643045 10428 net.cpp:106] Creating Layer conv3_1_1x1_reduce
I0621 16:04:08.643050 10428 net.cpp:454] conv3_1_1x1_reduce <- conv2_3_conv2_3/relu_0_split_0
I0621 16:04:08.643059 10428 net.cpp:411] conv3_1_1x1_reduce -> conv3_1_1x1_reduce
I0621 16:04:08.644147 10428 net.cpp:150] Setting up conv3_1_1x1_reduce
I0621 16:04:08.644162 10428 net.cpp:157] Top shape: 1 128 119 119 (1812608)
I0621 16:04:08.644166 10428 net.cpp:165] Memory required for data: 560403736
I0621 16:04:08.644173 10428 layer_factory.hpp:77] Creating layer conv3_1_1x1_reduce/bn
I0621 16:04:08.644186 10428 net.cpp:106] Creating Layer conv3_1_1x1_reduce/bn
I0621 16:04:08.644189 10428 net.cpp:454] conv3_1_1x1_reduce/bn <- conv3_1_1x1_reduce
I0621 16:04:08.644196 10428 net.cpp:397] conv3_1_1x1_reduce/bn -> conv3_1_1x1_reduce (in-place)
I0621 16:04:08.644392 10428 net.cpp:150] Setting up conv3_1_1x1_reduce/bn
I0621 16:04:08.644397 10428 net.cpp:157] Top shape: 1 128 119 119 (1812608)
I0621 16:04:08.644402 10428 net.cpp:165] Memory required for data: 567654168
I0621 16:04:08.644410 10428 layer_factory.hpp:77] Creating layer conv3_1_1x1_reduce/relu
I0621 16:04:08.644418 10428 net.cpp:106] Creating Layer conv3_1_1x1_reduce/relu
I0621 16:04:08.644423 10428 net.cpp:454] conv3_1_1x1_reduce/relu <- conv3_1_1x1_reduce
I0621 16:04:08.644428 10428 net.cpp:397] conv3_1_1x1_reduce/relu -> conv3_1_1x1_reduce (in-place)
I0621 16:04:08.644435 10428 net.cpp:150] Setting up conv3_1_1x1_reduce/relu
I0621 16:04:08.644440 10428 net.cpp:157] Top shape: 1 128 119 119 (1812608)
I0621 16:04:08.644444 10428 net.cpp:165] Memory required for data: 574904600
I0621 16:04:08.644448 10428 layer_factory.hpp:77] Creating layer conv3_1_3x3
I0621 16:04:08.644459 10428 net.cpp:106] Creating Layer conv3_1_3x3
I0621 16:04:08.644462 10428 net.cpp:454] conv3_1_3x3 <- conv3_1_1x1_reduce
I0621 16:04:08.644469 10428 net.cpp:411] conv3_1_3x3 -> conv3_1_3x3
I0621 16:04:08.648694 10428 net.cpp:150] Setting up conv3_1_3x3
I0621 16:04:08.648702 10428 net.cpp:157] Top shape: 1 128 60 60 (460800)
I0621 16:04:08.648705 10428 net.cpp:165] Memory required for data: 576747800
I0621 16:04:08.648710 10428 layer_factory.hpp:77] Creating layer conv3_1_3x3/bn
I0621 16:04:08.648715 10428 net.cpp:106] Creating Layer conv3_1_3x3/bn
I0621 16:04:08.648717 10428 net.cpp:454] conv3_1_3x3/bn <- conv3_1_3x3
I0621 16:04:08.648721 10428 net.cpp:397] conv3_1_3x3/bn -> conv3_1_3x3 (in-place)
I0621 16:04:08.648867 10428 net.cpp:150] Setting up conv3_1_3x3/bn
I0621 16:04:08.648874 10428 net.cpp:157] Top shape: 1 128 60 60 (460800)
I0621 16:04:08.648876 10428 net.cpp:165] Memory required for data: 578591000
I0621 16:04:08.648881 10428 layer_factory.hpp:77] Creating layer conv3_1_3x3/relu
I0621 16:04:08.648885 10428 net.cpp:106] Creating Layer conv3_1_3x3/relu
I0621 16:04:08.648887 10428 net.cpp:454] conv3_1_3x3/relu <- conv3_1_3x3
I0621 16:04:08.648890 10428 net.cpp:397] conv3_1_3x3/relu -> conv3_1_3x3 (in-place)
I0621 16:04:08.648893 10428 net.cpp:150] Setting up conv3_1_3x3/relu
I0621 16:04:08.648896 10428 net.cpp:157] Top shape: 1 128 60 60 (460800)
I0621 16:04:08.648898 10428 net.cpp:165] Memory required for data: 580434200
I0621 16:04:08.648901 10428 layer_factory.hpp:77] Creating layer conv3_1_1x1_increase
I0621 16:04:08.648906 10428 net.cpp:106] Creating Layer conv3_1_1x1_increase
I0621 16:04:08.648910 10428 net.cpp:454] conv3_1_1x1_increase <- conv3_1_3x3
I0621 16:04:08.648914 10428 net.cpp:411] conv3_1_1x1_increase -> conv3_1_1x1_increase
I0621 16:04:08.650775 10428 net.cpp:150] Setting up conv3_1_1x1_increase
I0621 16:04:08.650785 10428 net.cpp:157] Top shape: 1 512 60 60 (1843200)
I0621 16:04:08.650789 10428 net.cpp:165] Memory required for data: 587807000
I0621 16:04:08.650812 10428 layer_factory.hpp:77] Creating layer conv3_1_1x1_increase/bn
I0621 16:04:08.650820 10428 net.cpp:106] Creating Layer conv3_1_1x1_increase/bn
I0621 16:04:08.650825 10428 net.cpp:454] conv3_1_1x1_increase/bn <- conv3_1_1x1_increase
I0621 16:04:08.650830 10428 net.cpp:397] conv3_1_1x1_increase/bn -> conv3_1_1x1_increase (in-place)
I0621 16:04:08.651931 10428 net.cpp:150] Setting up conv3_1_1x1_increase/bn
I0621 16:04:08.651944 10428 net.cpp:157] Top shape: 1 512 60 60 (1843200)
I0621 16:04:08.651949 10428 net.cpp:165] Memory required for data: 595179800
I0621 16:04:08.651959 10428 layer_factory.hpp:77] Creating layer conv3_1_1x1_proj
I0621 16:04:08.651978 10428 net.cpp:106] Creating Layer conv3_1_1x1_proj
I0621 16:04:08.651984 10428 net.cpp:454] conv3_1_1x1_proj <- conv2_3_conv2_3/relu_0_split_1
I0621 16:04:08.651991 10428 net.cpp:411] conv3_1_1x1_proj -> conv3_1_1x1_proj
I0621 16:04:08.656870 10428 net.cpp:150] Setting up conv3_1_1x1_proj
I0621 16:04:08.656996 10428 net.cpp:157] Top shape: 1 512 60 60 (1843200)
I0621 16:04:08.657004 10428 net.cpp:165] Memory required for data: 602552600
I0621 16:04:08.657023 10428 layer_factory.hpp:77] Creating layer conv3_1_1x1_proj/bn
I0621 16:04:08.657057 10428 net.cpp:106] Creating Layer conv3_1_1x1_proj/bn
I0621 16:04:08.657070 10428 net.cpp:454] conv3_1_1x1_proj/bn <- conv3_1_1x1_proj
I0621 16:04:08.657085 10428 net.cpp:397] conv3_1_1x1_proj/bn -> conv3_1_1x1_proj (in-place)
I0621 16:04:08.657388 10428 net.cpp:150] Setting up conv3_1_1x1_proj/bn
I0621 16:04:08.657402 10428 net.cpp:157] Top shape: 1 512 60 60 (1843200)
I0621 16:04:08.657411 10428 net.cpp:165] Memory required for data: 609925400
I0621 16:04:08.657425 10428 layer_factory.hpp:77] Creating layer conv3_1
I0621 16:04:08.657444 10428 net.cpp:106] Creating Layer conv3_1
I0621 16:04:08.657451 10428 net.cpp:454] conv3_1 <- conv3_1_1x1_proj
I0621 16:04:08.657461 10428 net.cpp:454] conv3_1 <- conv3_1_1x1_increase
I0621 16:04:08.657472 10428 net.cpp:411] conv3_1 -> conv3_1
I0621 16:04:08.657526 10428 net.cpp:150] Setting up conv3_1
I0621 16:04:08.657536 10428 net.cpp:157] Top shape: 1 512 60 60 (1843200)
I0621 16:04:08.657542 10428 net.cpp:165] Memory required for data: 617298200
I0621 16:04:08.657551 10428 layer_factory.hpp:77] Creating layer conv3_1/relu
I0621 16:04:08.657567 10428 net.cpp:106] Creating Layer conv3_1/relu
I0621 16:04:08.657575 10428 net.cpp:454] conv3_1/relu <- conv3_1
I0621 16:04:08.657585 10428 net.cpp:397] conv3_1/relu -> conv3_1 (in-place)
I0621 16:04:08.657598 10428 net.cpp:150] Setting up conv3_1/relu
I0621 16:04:08.657608 10428 net.cpp:157] Top shape: 1 512 60 60 (1843200)
I0621 16:04:08.657614 10428 net.cpp:165] Memory required for data: 624671000
I0621 16:04:08.657621 10428 layer_factory.hpp:77] Creating layer conv3_1_conv3_1/relu_0_split
I0621 16:04:08.657634 10428 net.cpp:106] Creating Layer conv3_1_conv3_1/relu_0_split
I0621 16:04:08.657641 10428 net.cpp:454] conv3_1_conv3_1/relu_0_split <- conv3_1
I0621 16:04:08.657651 10428 net.cpp:411] conv3_1_conv3_1/relu_0_split -> conv3_1_conv3_1/relu_0_split_0
I0621 16:04:08.657662 10428 net.cpp:411] conv3_1_conv3_1/relu_0_split -> conv3_1_conv3_1/relu_0_split_1
I0621 16:04:08.657701 10428 net.cpp:150] Setting up conv3_1_conv3_1/relu_0_split
I0621 16:04:08.657708 10428 net.cpp:157] Top shape: 1 512 60 60 (1843200)
I0621 16:04:08.657713 10428 net.cpp:157] Top shape: 1 512 60 60 (1843200)
I0621 16:04:08.657718 10428 net.cpp:165] Memory required for data: 639416600
I0621 16:04:08.657724 10428 layer_factory.hpp:77] Creating layer conv3_2_1x1_reduce
I0621 16:04:08.657744 10428 net.cpp:106] Creating Layer conv3_2_1x1_reduce
I0621 16:04:08.657750 10428 net.cpp:454] conv3_2_1x1_reduce <- conv3_1_conv3_1/relu_0_split_0
I0621 16:04:08.657758 10428 net.cpp:411] conv3_2_1x1_reduce -> conv3_2_1x1_reduce
I0621 16:04:08.659890 10428 net.cpp:150] Setting up conv3_2_1x1_reduce
I0621 16:04:08.659953 10428 net.cpp:157] Top shape: 1 128 60 60 (460800)
I0621 16:04:08.659960 10428 net.cpp:165] Memory required for data: 641259800
I0621 16:04:08.660045 10428 layer_factory.hpp:77] Creating layer conv3_2_1x1_reduce/bn
I0621 16:04:08.660070 10428 net.cpp:106] Creating Layer conv3_2_1x1_reduce/bn
I0621 16:04:08.660079 10428 net.cpp:454] conv3_2_1x1_reduce/bn <- conv3_2_1x1_reduce
I0621 16:04:08.660091 10428 net.cpp:397] conv3_2_1x1_reduce/bn -> conv3_2_1x1_reduce (in-place)
I0621 16:04:08.660325 10428 net.cpp:150] Setting up conv3_2_1x1_reduce/bn
I0621 16:04:08.660332 10428 net.cpp:157] Top shape: 1 128 60 60 (460800)
I0621 16:04:08.660337 10428 net.cpp:165] Memory required for data: 643103000
I0621 16:04:08.660346 10428 layer_factory.hpp:77] Creating layer conv3_2_1x1_reduce/relu
I0621 16:04:08.660360 10428 net.cpp:106] Creating Layer conv3_2_1x1_reduce/relu
I0621 16:04:08.660364 10428 net.cpp:454] conv3_2_1x1_reduce/relu <- conv3_2_1x1_reduce
I0621 16:04:08.660372 10428 net.cpp:397] conv3_2_1x1_reduce/relu -> conv3_2_1x1_reduce (in-place)
I0621 16:04:08.670994 10428 net.cpp:150] Setting up conv3_2_1x1_reduce/relu
I0621 16:04:08.671015 10428 net.cpp:157] Top shape: 1 128 60 60 (460800)
I0621 16:04:08.671018 10428 net.cpp:165] Memory required for data: 644946200
I0621 16:04:08.671025 10428 layer_factory.hpp:77] Creating layer conv3_2_3x3
I0621 16:04:08.671039 10428 net.cpp:106] Creating Layer conv3_2_3x3
I0621 16:04:08.671043 10428 net.cpp:454] conv3_2_3x3 <- conv3_2_1x1_reduce
I0621 16:04:08.671052 10428 net.cpp:411] conv3_2_3x3 -> conv3_2_3x3
I0621 16:04:08.675433 10428 net.cpp:150] Setting up conv3_2_3x3
I0621 16:04:08.675468 10428 net.cpp:157] Top shape: 1 128 60 60 (460800)
I0621 16:04:08.675474 10428 net.cpp:165] Memory required for data: 646789400
I0621 16:04:08.675487 10428 layer_factory.hpp:77] Creating layer conv3_2_3x3/bn
I0621 16:04:08.675529 10428 net.cpp:106] Creating Layer conv3_2_3x3/bn
I0621 16:04:08.675535 10428 net.cpp:454] conv3_2_3x3/bn <- conv3_2_3x3
I0621 16:04:08.675544 10428 net.cpp:397] conv3_2_3x3/bn -> conv3_2_3x3 (in-place)
I0621 16:04:08.675719 10428 net.cpp:150] Setting up conv3_2_3x3/bn
I0621 16:04:08.675725 10428 net.cpp:157] Top shape: 1 128 60 60 (460800)
I0621 16:04:08.675730 10428 net.cpp:165] Memory required for data: 648632600
I0621 16:04:08.675739 10428 layer_factory.hpp:77] Creating layer conv3_2_3x3/relu
I0621 16:04:08.675745 10428 net.cpp:106] Creating Layer conv3_2_3x3/relu
I0621 16:04:08.675750 10428 net.cpp:454] conv3_2_3x3/relu <- conv3_2_3x3
I0621 16:04:08.675755 10428 net.cpp:397] conv3_2_3x3/relu -> conv3_2_3x3 (in-place)
I0621 16:04:08.675761 10428 net.cpp:150] Setting up conv3_2_3x3/relu
I0621 16:04:08.675766 10428 net.cpp:157] Top shape: 1 128 60 60 (460800)
I0621 16:04:08.675770 10428 net.cpp:165] Memory required for data: 650475800
I0621 16:04:08.675775 10428 layer_factory.hpp:77] Creating layer conv3_2_1x1_increase
I0621 16:04:08.675786 10428 net.cpp:106] Creating Layer conv3_2_1x1_increase
I0621 16:04:08.675791 10428 net.cpp:454] conv3_2_1x1_increase <- conv3_2_3x3
I0621 16:04:08.675797 10428 net.cpp:411] conv3_2_1x1_increase -> conv3_2_1x1_increase
I0621 16:04:08.679746 10428 net.cpp:150] Setting up conv3_2_1x1_increase
I0621 16:04:08.679764 10428 net.cpp:157] Top shape: 1 512 60 60 (1843200)
I0621 16:04:08.679769 10428 net.cpp:165] Memory required for data: 657848600
I0621 16:04:08.679775 10428 layer_factory.hpp:77] Creating layer conv3_2_1x1_increase/bn
I0621 16:04:08.679783 10428 net.cpp:106] Creating Layer conv3_2_1x1_increase/bn
I0621 16:04:08.679787 10428 net.cpp:454] conv3_2_1x1_increase/bn <- conv3_2_1x1_increase
I0621 16:04:08.679792 10428 net.cpp:397] conv3_2_1x1_increase/bn -> conv3_2_1x1_increase (in-place)
I0621 16:04:08.679929 10428 net.cpp:150] Setting up conv3_2_1x1_increase/bn
I0621 16:04:08.679936 10428 net.cpp:157] Top shape: 1 512 60 60 (1843200)
I0621 16:04:08.679939 10428 net.cpp:165] Memory required for data: 665221400
I0621 16:04:08.679944 10428 layer_factory.hpp:77] Creating layer conv3_2
I0621 16:04:08.679949 10428 net.cpp:106] Creating Layer conv3_2
I0621 16:04:08.679952 10428 net.cpp:454] conv3_2 <- conv3_1_conv3_1/relu_0_split_1
I0621 16:04:08.679970 10428 net.cpp:454] conv3_2 <- conv3_2_1x1_increase
I0621 16:04:08.679975 10428 net.cpp:411] conv3_2 -> conv3_2
I0621 16:04:08.679992 10428 net.cpp:150] Setting up conv3_2
I0621 16:04:08.679996 10428 net.cpp:157] Top shape: 1 512 60 60 (1843200)
I0621 16:04:08.679999 10428 net.cpp:165] Memory required for data: 672594200
I0621 16:04:08.680001 10428 layer_factory.hpp:77] Creating layer conv3_2/relu
I0621 16:04:08.680007 10428 net.cpp:106] Creating Layer conv3_2/relu
I0621 16:04:08.680011 10428 net.cpp:454] conv3_2/relu <- conv3_2
I0621 16:04:08.680013 10428 net.cpp:397] conv3_2/relu -> conv3_2 (in-place)
I0621 16:04:08.680018 10428 net.cpp:150] Setting up conv3_2/relu
I0621 16:04:08.680022 10428 net.cpp:157] Top shape: 1 512 60 60 (1843200)
I0621 16:04:08.680024 10428 net.cpp:165] Memory required for data: 679967000
I0621 16:04:08.680027 10428 layer_factory.hpp:77] Creating layer conv3_2_conv3_2/relu_0_split
I0621 16:04:08.680032 10428 net.cpp:106] Creating Layer conv3_2_conv3_2/relu_0_split
I0621 16:04:08.680033 10428 net.cpp:454] conv3_2_conv3_2/relu_0_split <- conv3_2
I0621 16:04:08.680037 10428 net.cpp:411] conv3_2_conv3_2/relu_0_split -> conv3_2_conv3_2/relu_0_split_0
I0621 16:04:08.680042 10428 net.cpp:411] conv3_2_conv3_2/relu_0_split -> conv3_2_conv3_2/relu_0_split_1
I0621 16:04:08.680070 10428 net.cpp:150] Setting up conv3_2_conv3_2/relu_0_split
I0621 16:04:08.680078 10428 net.cpp:157] Top shape: 1 512 60 60 (1843200)
I0621 16:04:08.680083 10428 net.cpp:157] Top shape: 1 512 60 60 (1843200)
I0621 16:04:08.680086 10428 net.cpp:165] Memory required for data: 694712600
I0621 16:04:08.680090 10428 layer_factory.hpp:77] Creating layer conv3_3_1x1_reduce
I0621 16:04:08.680099 10428 net.cpp:106] Creating Layer conv3_3_1x1_reduce
I0621 16:04:08.680104 10428 net.cpp:454] conv3_3_1x1_reduce <- conv3_2_conv3_2/relu_0_split_0
I0621 16:04:08.680110 10428 net.cpp:411] conv3_3_1x1_reduce -> conv3_3_1x1_reduce
I0621 16:04:08.682101 10428 net.cpp:150] Setting up conv3_3_1x1_reduce
I0621 16:04:08.682109 10428 net.cpp:157] Top shape: 1 128 60 60 (460800)
I0621 16:04:08.682114 10428 net.cpp:165] Memory required for data: 696555800
I0621 16:04:08.682119 10428 layer_factory.hpp:77] Creating layer conv3_3_1x1_reduce/bn
I0621 16:04:08.682127 10428 net.cpp:106] Creating Layer conv3_3_1x1_reduce/bn
I0621 16:04:08.682132 10428 net.cpp:454] conv3_3_1x1_reduce/bn <- conv3_3_1x1_reduce
I0621 16:04:08.682137 10428 net.cpp:397] conv3_3_1x1_reduce/bn -> conv3_3_1x1_reduce (in-place)
I0621 16:04:08.682296 10428 net.cpp:150] Setting up conv3_3_1x1_reduce/bn
I0621 16:04:08.682302 10428 net.cpp:157] Top shape: 1 128 60 60 (460800)
I0621 16:04:08.682307 10428 net.cpp:165] Memory required for data: 698399000
I0621 16:04:08.682315 10428 layer_factory.hpp:77] Creating layer conv3_3_1x1_reduce/relu
I0621 16:04:08.682320 10428 net.cpp:106] Creating Layer conv3_3_1x1_reduce/relu
I0621 16:04:08.682325 10428 net.cpp:454] conv3_3_1x1_reduce/relu <- conv3_3_1x1_reduce
I0621 16:04:08.682330 10428 net.cpp:397] conv3_3_1x1_reduce/relu -> conv3_3_1x1_reduce (in-place)
I0621 16:04:08.682337 10428 net.cpp:150] Setting up conv3_3_1x1_reduce/relu
I0621 16:04:08.682341 10428 net.cpp:157] Top shape: 1 128 60 60 (460800)
I0621 16:04:08.682345 10428 net.cpp:165] Memory required for data: 700242200
I0621 16:04:08.682349 10428 layer_factory.hpp:77] Creating layer conv3_3_3x3
I0621 16:04:08.682356 10428 net.cpp:106] Creating Layer conv3_3_3x3
I0621 16:04:08.682360 10428 net.cpp:454] conv3_3_3x3 <- conv3_3_1x1_reduce
I0621 16:04:08.682366 10428 net.cpp:411] conv3_3_3x3 -> conv3_3_3x3
I0621 16:04:08.686635 10428 net.cpp:150] Setting up conv3_3_3x3
I0621 16:04:08.686699 10428 net.cpp:157] Top shape: 1 128 60 60 (460800)
I0621 16:04:08.686704 10428 net.cpp:165] Memory required for data: 702085400
I0621 16:04:08.686715 10428 layer_factory.hpp:77] Creating layer conv3_3_3x3/bn
I0621 16:04:08.686728 10428 net.cpp:106] Creating Layer conv3_3_3x3/bn
I0621 16:04:08.686733 10428 net.cpp:454] conv3_3_3x3/bn <- conv3_3_3x3
I0621 16:04:08.686743 10428 net.cpp:397] conv3_3_3x3/bn -> conv3_3_3x3 (in-place)
I0621 16:04:08.686970 10428 net.cpp:150] Setting up conv3_3_3x3/bn
I0621 16:04:08.686977 10428 net.cpp:157] Top shape: 1 128 60 60 (460800)
I0621 16:04:08.686981 10428 net.cpp:165] Memory required for data: 703928600
I0621 16:04:08.686991 10428 layer_factory.hpp:77] Creating layer conv3_3_3x3/relu
I0621 16:04:08.687000 10428 net.cpp:106] Creating Layer conv3_3_3x3/relu
I0621 16:04:08.687003 10428 net.cpp:454] conv3_3_3x3/relu <- conv3_3_3x3
I0621 16:04:08.687010 10428 net.cpp:397] conv3_3_3x3/relu -> conv3_3_3x3 (in-place)
I0621 16:04:08.687016 10428 net.cpp:150] Setting up conv3_3_3x3/relu
I0621 16:04:08.687022 10428 net.cpp:157] Top shape: 1 128 60 60 (460800)
I0621 16:04:08.687026 10428 net.cpp:165] Memory required for data: 705771800
I0621 16:04:08.687029 10428 layer_factory.hpp:77] Creating layer conv3_3_1x1_increase
I0621 16:04:08.687038 10428 net.cpp:106] Creating Layer conv3_3_1x1_increase
I0621 16:04:08.687043 10428 net.cpp:454] conv3_3_1x1_increase <- conv3_3_3x3
I0621 16:04:08.687049 10428 net.cpp:411] conv3_3_1x1_increase -> conv3_3_1x1_increase
I0621 16:04:08.689059 10428 net.cpp:150] Setting up conv3_3_1x1_increase
I0621 16:04:08.689067 10428 net.cpp:157] Top shape: 1 512 60 60 (1843200)
I0621 16:04:08.689071 10428 net.cpp:165] Memory required for data: 713144600
I0621 16:04:08.689076 10428 layer_factory.hpp:77] Creating layer conv3_3_1x1_increase/bn
I0621 16:04:08.689083 10428 net.cpp:106] Creating Layer conv3_3_1x1_increase/bn
I0621 16:04:08.689087 10428 net.cpp:454] conv3_3_1x1_increase/bn <- conv3_3_1x1_increase
I0621 16:04:08.689093 10428 net.cpp:397] conv3_3_1x1_increase/bn -> conv3_3_1x1_increase (in-place)
I0621 16:04:08.689272 10428 net.cpp:150] Setting up conv3_3_1x1_increase/bn
I0621 16:04:08.689280 10428 net.cpp:157] Top shape: 1 512 60 60 (1843200)
I0621 16:04:08.689283 10428 net.cpp:165] Memory required for data: 720517400
I0621 16:04:08.689291 10428 layer_factory.hpp:77] Creating layer conv3_3
I0621 16:04:08.689299 10428 net.cpp:106] Creating Layer conv3_3
I0621 16:04:08.689303 10428 net.cpp:454] conv3_3 <- conv3_2_conv3_2/relu_0_split_1
I0621 16:04:08.689308 10428 net.cpp:454] conv3_3 <- conv3_3_1x1_increase
I0621 16:04:08.689314 10428 net.cpp:411] conv3_3 -> conv3_3
I0621 16:04:08.689335 10428 net.cpp:150] Setting up conv3_3
I0621 16:04:08.689340 10428 net.cpp:157] Top shape: 1 512 60 60 (1843200)
I0621 16:04:08.689344 10428 net.cpp:165] Memory required for data: 727890200
I0621 16:04:08.689348 10428 layer_factory.hpp:77] Creating layer conv3_3/relu
I0621 16:04:08.689353 10428 net.cpp:106] Creating Layer conv3_3/relu
I0621 16:04:08.689357 10428 net.cpp:454] conv3_3/relu <- conv3_3
I0621 16:04:08.689363 10428 net.cpp:397] conv3_3/relu -> conv3_3 (in-place)
I0621 16:04:08.689368 10428 net.cpp:150] Setting up conv3_3/relu
I0621 16:04:08.689374 10428 net.cpp:157] Top shape: 1 512 60 60 (1843200)
I0621 16:04:08.689378 10428 net.cpp:165] Memory required for data: 735263000
I0621 16:04:08.689383 10428 layer_factory.hpp:77] Creating layer conv3_3_conv3_3/relu_0_split
I0621 16:04:08.689388 10428 net.cpp:106] Creating Layer conv3_3_conv3_3/relu_0_split
I0621 16:04:08.689393 10428 net.cpp:454] conv3_3_conv3_3/relu_0_split <- conv3_3
I0621 16:04:08.689399 10428 net.cpp:411] conv3_3_conv3_3/relu_0_split -> conv3_3_conv3_3/relu_0_split_0
I0621 16:04:08.689404 10428 net.cpp:411] conv3_3_conv3_3/relu_0_split -> conv3_3_conv3_3/relu_0_split_1
I0621 16:04:08.689435 10428 net.cpp:150] Setting up conv3_3_conv3_3/relu_0_split
I0621 16:04:08.689441 10428 net.cpp:157] Top shape: 1 512 60 60 (1843200)
I0621 16:04:08.689446 10428 net.cpp:157] Top shape: 1 512 60 60 (1843200)
I0621 16:04:08.689450 10428 net.cpp:165] Memory required for data: 750008600
I0621 16:04:08.689455 10428 layer_factory.hpp:77] Creating layer conv3_4_1x1_reduce
I0621 16:04:08.689465 10428 net.cpp:106] Creating Layer conv3_4_1x1_reduce
I0621 16:04:08.689468 10428 net.cpp:454] conv3_4_1x1_reduce <- conv3_3_conv3_3/relu_0_split_0
I0621 16:04:08.689476 10428 net.cpp:411] conv3_4_1x1_reduce -> conv3_4_1x1_reduce
I0621 16:04:08.691236 10428 net.cpp:150] Setting up conv3_4_1x1_reduce
I0621 16:04:08.691242 10428 net.cpp:157] Top shape: 1 128 60 60 (460800)
I0621 16:04:08.691246 10428 net.cpp:165] Memory required for data: 751851800
I0621 16:04:08.691249 10428 layer_factory.hpp:77] Creating layer conv3_4_1x1_reduce/bn
I0621 16:04:08.691254 10428 net.cpp:106] Creating Layer conv3_4_1x1_reduce/bn
I0621 16:04:08.691257 10428 net.cpp:454] conv3_4_1x1_reduce/bn <- conv3_4_1x1_reduce
I0621 16:04:08.691262 10428 net.cpp:397] conv3_4_1x1_reduce/bn -> conv3_4_1x1_reduce (in-place)
I0621 16:04:08.691377 10428 net.cpp:150] Setting up conv3_4_1x1_reduce/bn
I0621 16:04:08.691381 10428 net.cpp:157] Top shape: 1 128 60 60 (460800)
I0621 16:04:08.691385 10428 net.cpp:165] Memory required for data: 753695000
I0621 16:04:08.691390 10428 layer_factory.hpp:77] Creating layer conv3_4_1x1_reduce/relu
I0621 16:04:08.691393 10428 net.cpp:106] Creating Layer conv3_4_1x1_reduce/relu
I0621 16:04:08.691396 10428 net.cpp:454] conv3_4_1x1_reduce/relu <- conv3_4_1x1_reduce
I0621 16:04:08.691400 10428 net.cpp:397] conv3_4_1x1_reduce/relu -> conv3_4_1x1_reduce (in-place)
I0621 16:04:08.691403 10428 net.cpp:150] Setting up conv3_4_1x1_reduce/relu
I0621 16:04:08.691406 10428 net.cpp:157] Top shape: 1 128 60 60 (460800)
I0621 16:04:08.691409 10428 net.cpp:165] Memory required for data: 755538200
I0621 16:04:08.691411 10428 layer_factory.hpp:77] Creating layer conv3_4_3x3
I0621 16:04:08.691417 10428 net.cpp:106] Creating Layer conv3_4_3x3
I0621 16:04:08.691419 10428 net.cpp:454] conv3_4_3x3 <- conv3_4_1x1_reduce
I0621 16:04:08.691423 10428 net.cpp:411] conv3_4_3x3 -> conv3_4_3x3
I0621 16:04:08.695359 10428 net.cpp:150] Setting up conv3_4_3x3
I0621 16:04:08.695372 10428 net.cpp:157] Top shape: 1 128 60 60 (460800)
I0621 16:04:08.695376 10428 net.cpp:165] Memory required for data: 757381400
I0621 16:04:08.695381 10428 layer_factory.hpp:77] Creating layer conv3_4_3x3/bn
I0621 16:04:08.695387 10428 net.cpp:106] Creating Layer conv3_4_3x3/bn
I0621 16:04:08.695390 10428 net.cpp:454] conv3_4_3x3/bn <- conv3_4_3x3
I0621 16:04:08.695395 10428 net.cpp:397] conv3_4_3x3/bn -> conv3_4_3x3 (in-place)
I0621 16:04:08.695514 10428 net.cpp:150] Setting up conv3_4_3x3/bn
I0621 16:04:08.695518 10428 net.cpp:157] Top shape: 1 128 60 60 (460800)
I0621 16:04:08.695521 10428 net.cpp:165] Memory required for data: 759224600
I0621 16:04:08.695526 10428 layer_factory.hpp:77] Creating layer conv3_4_3x3/relu
I0621 16:04:08.695531 10428 net.cpp:106] Creating Layer conv3_4_3x3/relu
I0621 16:04:08.695533 10428 net.cpp:454] conv3_4_3x3/relu <- conv3_4_3x3
I0621 16:04:08.695538 10428 net.cpp:397] conv3_4_3x3/relu -> conv3_4_3x3 (in-place)
I0621 16:04:08.695541 10428 net.cpp:150] Setting up conv3_4_3x3/relu
I0621 16:04:08.695544 10428 net.cpp:157] Top shape: 1 128 60 60 (460800)
I0621 16:04:08.695547 10428 net.cpp:165] Memory required for data: 761067800
I0621 16:04:08.695549 10428 layer_factory.hpp:77] Creating layer conv3_4_1x1_increase
I0621 16:04:08.695555 10428 net.cpp:106] Creating Layer conv3_4_1x1_increase
I0621 16:04:08.695559 10428 net.cpp:454] conv3_4_1x1_increase <- conv3_4_3x3
I0621 16:04:08.695562 10428 net.cpp:411] conv3_4_1x1_increase -> conv3_4_1x1_increase
I0621 16:04:08.697047 10428 net.cpp:150] Setting up conv3_4_1x1_increase
I0621 16:04:08.697053 10428 net.cpp:157] Top shape: 1 512 60 60 (1843200)
I0621 16:04:08.697057 10428 net.cpp:165] Memory required for data: 768440600
I0621 16:04:08.697059 10428 layer_factory.hpp:77] Creating layer conv3_4_1x1_increase/bn
I0621 16:04:08.697064 10428 net.cpp:106] Creating Layer conv3_4_1x1_increase/bn
I0621 16:04:08.697067 10428 net.cpp:454] conv3_4_1x1_increase/bn <- conv3_4_1x1_increase
I0621 16:04:08.697072 10428 net.cpp:397] conv3_4_1x1_increase/bn -> conv3_4_1x1_increase (in-place)
I0621 16:04:08.697185 10428 net.cpp:150] Setting up conv3_4_1x1_increase/bn
I0621 16:04:08.697190 10428 net.cpp:157] Top shape: 1 512 60 60 (1843200)
I0621 16:04:08.697192 10428 net.cpp:165] Memory required for data: 775813400
I0621 16:04:08.697211 10428 layer_factory.hpp:77] Creating layer conv3_4
I0621 16:04:08.697230 10428 net.cpp:106] Creating Layer conv3_4
I0621 16:04:08.697233 10428 net.cpp:454] conv3_4 <- conv3_3_conv3_3/relu_0_split_1
I0621 16:04:08.697237 10428 net.cpp:454] conv3_4 <- conv3_4_1x1_increase
I0621 16:04:08.697240 10428 net.cpp:411] conv3_4 -> conv3_4
I0621 16:04:08.697254 10428 net.cpp:150] Setting up conv3_4
I0621 16:04:08.697258 10428 net.cpp:157] Top shape: 1 512 60 60 (1843200)
I0621 16:04:08.697260 10428 net.cpp:165] Memory required for data: 783186200
I0621 16:04:08.697263 10428 layer_factory.hpp:77] Creating layer conv3_4/relu
I0621 16:04:08.702059 10428 net.cpp:106] Creating Layer conv3_4/relu
I0621 16:04:08.702088 10428 net.cpp:454] conv3_4/relu <- conv3_4
I0621 16:04:08.702097 10428 net.cpp:397] conv3_4/relu -> conv3_4 (in-place)
I0621 16:04:08.702116 10428 net.cpp:150] Setting up conv3_4/relu
I0621 16:04:08.702123 10428 net.cpp:157] Top shape: 1 512 60 60 (1843200)
I0621 16:04:08.702126 10428 net.cpp:165] Memory required for data: 790559000
I0621 16:04:08.702131 10428 layer_factory.hpp:77] Creating layer conv3_4_conv3_4/relu_0_split
I0621 16:04:08.702136 10428 net.cpp:106] Creating Layer conv3_4_conv3_4/relu_0_split
I0621 16:04:08.702139 10428 net.cpp:454] conv3_4_conv3_4/relu_0_split <- conv3_4
I0621 16:04:08.702142 10428 net.cpp:411] conv3_4_conv3_4/relu_0_split -> conv3_4_conv3_4/relu_0_split_0
I0621 16:04:08.702147 10428 net.cpp:411] conv3_4_conv3_4/relu_0_split -> conv3_4_conv3_4/relu_0_split_1
I0621 16:04:08.702271 10428 net.cpp:150] Setting up conv3_4_conv3_4/relu_0_split
I0621 16:04:08.702276 10428 net.cpp:157] Top shape: 1 512 60 60 (1843200)
I0621 16:04:08.702280 10428 net.cpp:157] Top shape: 1 512 60 60 (1843200)
I0621 16:04:08.702281 10428 net.cpp:165] Memory required for data: 805304600
I0621 16:04:08.702285 10428 layer_factory.hpp:77] Creating layer conv4_1_1x1_reduce
I0621 16:04:08.702296 10428 net.cpp:106] Creating Layer conv4_1_1x1_reduce
I0621 16:04:08.702297 10428 net.cpp:454] conv4_1_1x1_reduce <- conv3_4_conv3_4/relu_0_split_0
I0621 16:04:08.702301 10428 net.cpp:411] conv4_1_1x1_reduce -> conv4_1_1x1_reduce
I0621 16:04:08.705296 10428 net.cpp:150] Setting up conv4_1_1x1_reduce
I0621 16:04:08.705303 10428 net.cpp:157] Top shape: 1 256 60 60 (921600)
I0621 16:04:08.705305 10428 net.cpp:165] Memory required for data: 808991000
I0621 16:04:08.705310 10428 layer_factory.hpp:77] Creating layer conv4_1_1x1_reduce/bn
I0621 16:04:08.705317 10428 net.cpp:106] Creating Layer conv4_1_1x1_reduce/bn
I0621 16:04:08.705319 10428 net.cpp:454] conv4_1_1x1_reduce/bn <- conv4_1_1x1_reduce
I0621 16:04:08.705322 10428 net.cpp:397] conv4_1_1x1_reduce/bn -> conv4_1_1x1_reduce (in-place)
I0621 16:04:08.705442 10428 net.cpp:150] Setting up conv4_1_1x1_reduce/bn
I0621 16:04:08.705446 10428 net.cpp:157] Top shape: 1 256 60 60 (921600)
I0621 16:04:08.705448 10428 net.cpp:165] Memory required for data: 812677400
I0621 16:04:08.705453 10428 layer_factory.hpp:77] Creating layer conv4_1_1x1_reduce/relu
I0621 16:04:08.705456 10428 net.cpp:106] Creating Layer conv4_1_1x1_reduce/relu
I0621 16:04:08.705459 10428 net.cpp:454] conv4_1_1x1_reduce/relu <- conv4_1_1x1_reduce
I0621 16:04:08.705468 10428 net.cpp:397] conv4_1_1x1_reduce/relu -> conv4_1_1x1_reduce (in-place)
I0621 16:04:08.705472 10428 net.cpp:150] Setting up conv4_1_1x1_reduce/relu
I0621 16:04:08.705476 10428 net.cpp:157] Top shape: 1 256 60 60 (921600)
I0621 16:04:08.705478 10428 net.cpp:165] Memory required for data: 816363800
I0621 16:04:08.705480 10428 layer_factory.hpp:77] Creating layer conv4_1_3x3
I0621 16:04:08.705485 10428 net.cpp:106] Creating Layer conv4_1_3x3
I0621 16:04:08.705488 10428 net.cpp:454] conv4_1_3x3 <- conv4_1_1x1_reduce
I0621 16:04:08.705492 10428 net.cpp:411] conv4_1_3x3 -> conv4_1_3x3
I0621 16:04:08.718585 10428 net.cpp:150] Setting up conv4_1_3x3
I0621 16:04:08.718646 10428 net.cpp:157] Top shape: 1 256 60 60 (921600)
I0621 16:04:08.718650 10428 net.cpp:165] Memory required for data: 820050200
I0621 16:04:08.718662 10428 layer_factory.hpp:77] Creating layer conv4_1_3x3/bn
I0621 16:04:08.718729 10428 net.cpp:106] Creating Layer conv4_1_3x3/bn
I0621 16:04:08.718739 10428 net.cpp:454] conv4_1_3x3/bn <- conv4_1_3x3
I0621 16:04:08.718760 10428 net.cpp:397] conv4_1_3x3/bn -> conv4_1_3x3 (in-place)
I0621 16:04:08.718946 10428 net.cpp:150] Setting up conv4_1_3x3/bn
I0621 16:04:08.718952 10428 net.cpp:157] Top shape: 1 256 60 60 (921600)
I0621 16:04:08.718955 10428 net.cpp:165] Memory required for data: 823736600
I0621 16:04:08.718961 10428 layer_factory.hpp:77] Creating layer conv4_1_3x3/relu
I0621 16:04:08.718968 10428 net.cpp:106] Creating Layer conv4_1_3x3/relu
I0621 16:04:08.718971 10428 net.cpp:454] conv4_1_3x3/relu <- conv4_1_3x3
I0621 16:04:08.718976 10428 net.cpp:397] conv4_1_3x3/relu -> conv4_1_3x3 (in-place)
I0621 16:04:08.718981 10428 net.cpp:150] Setting up conv4_1_3x3/relu
I0621 16:04:08.718986 10428 net.cpp:157] Top shape: 1 256 60 60 (921600)
I0621 16:04:08.718988 10428 net.cpp:165] Memory required for data: 827423000
I0621 16:04:08.718991 10428 layer_factory.hpp:77] Creating layer conv4_1_1x1_increase
I0621 16:04:08.719000 10428 net.cpp:106] Creating Layer conv4_1_1x1_increase
I0621 16:04:08.719002 10428 net.cpp:454] conv4_1_1x1_increase <- conv4_1_3x3
I0621 16:04:08.719007 10428 net.cpp:411] conv4_1_1x1_increase -> conv4_1_1x1_increase
I0621 16:04:08.725932 10428 net.cpp:150] Setting up conv4_1_1x1_increase
I0621 16:04:08.725993 10428 net.cpp:157] Top shape: 1 1024 60 60 (3686400)
I0621 16:04:08.725998 10428 net.cpp:165] Memory required for data: 842168600
I0621 16:04:08.726011 10428 layer_factory.hpp:77] Creating layer conv4_1_1x1_increase/bn
I0621 16:04:08.726032 10428 net.cpp:106] Creating Layer conv4_1_1x1_increase/bn
I0621 16:04:08.726039 10428 net.cpp:454] conv4_1_1x1_increase/bn <- conv4_1_1x1_increase
I0621 16:04:08.726047 10428 net.cpp:397] conv4_1_1x1_increase/bn -> conv4_1_1x1_increase (in-place)
I0621 16:04:08.726260 10428 net.cpp:150] Setting up conv4_1_1x1_increase/bn
I0621 16:04:08.726267 10428 net.cpp:157] Top shape: 1 1024 60 60 (3686400)
I0621 16:04:08.726275 10428 net.cpp:165] Memory required for data: 856914200
I0621 16:04:08.726281 10428 layer_factory.hpp:77] Creating layer conv4_1_1x1_proj
I0621 16:04:08.726294 10428 net.cpp:106] Creating Layer conv4_1_1x1_proj
I0621 16:04:08.726299 10428 net.cpp:454] conv4_1_1x1_proj <- conv3_4_conv3_4/relu_0_split_1
I0621 16:04:08.726303 10428 net.cpp:411] conv4_1_1x1_proj -> conv4_1_1x1_proj
I0621 16:04:08.738593 10428 net.cpp:150] Setting up conv4_1_1x1_proj
I0621 16:04:08.738612 10428 net.cpp:157] Top shape: 1 1024 60 60 (3686400)
I0621 16:04:08.738615 10428 net.cpp:165] Memory required for data: 871659800
I0621 16:04:08.738621 10428 layer_factory.hpp:77] Creating layer conv4_1_1x1_proj/bn
I0621 16:04:08.738633 10428 net.cpp:106] Creating Layer conv4_1_1x1_proj/bn
I0621 16:04:08.738637 10428 net.cpp:454] conv4_1_1x1_proj/bn <- conv4_1_1x1_proj
I0621 16:04:08.738643 10428 net.cpp:397] conv4_1_1x1_proj/bn -> conv4_1_1x1_proj (in-place)
I0621 16:04:08.738812 10428 net.cpp:150] Setting up conv4_1_1x1_proj/bn
I0621 16:04:08.738818 10428 net.cpp:157] Top shape: 1 1024 60 60 (3686400)
I0621 16:04:08.738821 10428 net.cpp:165] Memory required for data: 886405400
I0621 16:04:08.738826 10428 layer_factory.hpp:77] Creating layer conv4_1
I0621 16:04:08.738831 10428 net.cpp:106] Creating Layer conv4_1
I0621 16:04:08.738834 10428 net.cpp:454] conv4_1 <- conv4_1_1x1_proj
I0621 16:04:08.738837 10428 net.cpp:454] conv4_1 <- conv4_1_1x1_increase
I0621 16:04:08.738842 10428 net.cpp:411] conv4_1 -> conv4_1
I0621 16:04:08.738857 10428 net.cpp:150] Setting up conv4_1
I0621 16:04:08.738860 10428 net.cpp:157] Top shape: 1 1024 60 60 (3686400)
I0621 16:04:08.738863 10428 net.cpp:165] Memory required for data: 901151000
I0621 16:04:08.738867 10428 layer_factory.hpp:77] Creating layer conv4_1/relu
I0621 16:04:08.738872 10428 net.cpp:106] Creating Layer conv4_1/relu
I0621 16:04:08.738874 10428 net.cpp:454] conv4_1/relu <- conv4_1
I0621 16:04:08.738878 10428 net.cpp:397] conv4_1/relu -> conv4_1 (in-place)
I0621 16:04:08.738883 10428 net.cpp:150] Setting up conv4_1/relu
I0621 16:04:08.738903 10428 net.cpp:157] Top shape: 1 1024 60 60 (3686400)
I0621 16:04:08.738905 10428 net.cpp:165] Memory required for data: 915896600
I0621 16:04:08.738909 10428 layer_factory.hpp:77] Creating layer conv4_1_conv4_1/relu_0_split
I0621 16:04:08.738914 10428 net.cpp:106] Creating Layer conv4_1_conv4_1/relu_0_split
I0621 16:04:08.738915 10428 net.cpp:454] conv4_1_conv4_1/relu_0_split <- conv4_1
I0621 16:04:08.738919 10428 net.cpp:411] conv4_1_conv4_1/relu_0_split -> conv4_1_conv4_1/relu_0_split_0
I0621 16:04:08.738924 10428 net.cpp:411] conv4_1_conv4_1/relu_0_split -> conv4_1_conv4_1/relu_0_split_1
I0621 16:04:08.738946 10428 net.cpp:150] Setting up conv4_1_conv4_1/relu_0_split
I0621 16:04:08.738950 10428 net.cpp:157] Top shape: 1 1024 60 60 (3686400)
I0621 16:04:08.738953 10428 net.cpp:157] Top shape: 1 1024 60 60 (3686400)
I0621 16:04:08.738955 10428 net.cpp:165] Memory required for data: 945387800
I0621 16:04:08.738958 10428 layer_factory.hpp:77] Creating layer conv4_2_1x1_reduce
I0621 16:04:08.738965 10428 net.cpp:106] Creating Layer conv4_2_1x1_reduce
I0621 16:04:08.738968 10428 net.cpp:454] conv4_2_1x1_reduce <- conv4_1_conv4_1/relu_0_split_0
I0621 16:04:08.738972 10428 net.cpp:411] conv4_2_1x1_reduce -> conv4_2_1x1_reduce
I0621 16:04:08.744659 10428 net.cpp:150] Setting up conv4_2_1x1_reduce
I0621 16:04:08.744669 10428 net.cpp:157] Top shape: 1 256 60 60 (921600)
I0621 16:04:08.744673 10428 net.cpp:165] Memory required for data: 949074200
I0621 16:04:08.744678 10428 layer_factory.hpp:77] Creating layer conv4_2_1x1_reduce/bn
I0621 16:04:08.744685 10428 net.cpp:106] Creating Layer conv4_2_1x1_reduce/bn
I0621 16:04:08.744689 10428 net.cpp:454] conv4_2_1x1_reduce/bn <- conv4_2_1x1_reduce
I0621 16:04:08.744693 10428 net.cpp:397] conv4_2_1x1_reduce/bn -> conv4_2_1x1_reduce (in-place)
I0621 16:04:08.744828 10428 net.cpp:150] Setting up conv4_2_1x1_reduce/bn
I0621 16:04:08.744833 10428 net.cpp:157] Top shape: 1 256 60 60 (921600)
I0621 16:04:08.744835 10428 net.cpp:165] Memory required for data: 952760600
I0621 16:04:08.744841 10428 layer_factory.hpp:77] Creating layer conv4_2_1x1_reduce/relu
I0621 16:04:08.744845 10428 net.cpp:106] Creating Layer conv4_2_1x1_reduce/relu
I0621 16:04:08.744848 10428 net.cpp:454] conv4_2_1x1_reduce/relu <- conv4_2_1x1_reduce
I0621 16:04:08.744853 10428 net.cpp:397] conv4_2_1x1_reduce/relu -> conv4_2_1x1_reduce (in-place)
I0621 16:04:08.744856 10428 net.cpp:150] Setting up conv4_2_1x1_reduce/relu
I0621 16:04:08.744859 10428 net.cpp:157] Top shape: 1 256 60 60 (921600)
I0621 16:04:08.744861 10428 net.cpp:165] Memory required for data: 956447000
I0621 16:04:08.744864 10428 layer_factory.hpp:77] Creating layer conv4_2_3x3
I0621 16:04:08.744871 10428 net.cpp:106] Creating Layer conv4_2_3x3
I0621 16:04:08.744874 10428 net.cpp:454] conv4_2_3x3 <- conv4_2_1x1_reduce
I0621 16:04:08.744879 10428 net.cpp:411] conv4_2_3x3 -> conv4_2_3x3
I0621 16:04:08.758046 10428 net.cpp:150] Setting up conv4_2_3x3
I0621 16:04:08.758067 10428 net.cpp:157] Top shape: 1 256 60 60 (921600)
I0621 16:04:08.758071 10428 net.cpp:165] Memory required for data: 960133400
I0621 16:04:08.758077 10428 layer_factory.hpp:77] Creating layer conv4_2_3x3/bn
I0621 16:04:08.758087 10428 net.cpp:106] Creating Layer conv4_2_3x3/bn
I0621 16:04:08.758091 10428 net.cpp:454] conv4_2_3x3/bn <- conv4_2_3x3
I0621 16:04:08.758096 10428 net.cpp:397] conv4_2_3x3/bn -> conv4_2_3x3 (in-place)
I0621 16:04:08.758239 10428 net.cpp:150] Setting up conv4_2_3x3/bn
I0621 16:04:08.758244 10428 net.cpp:157] Top shape: 1 256 60 60 (921600)
I0621 16:04:08.758246 10428 net.cpp:165] Memory required for data: 963819800
I0621 16:04:08.758252 10428 layer_factory.hpp:77] Creating layer conv4_2_3x3/relu
I0621 16:04:08.758258 10428 net.cpp:106] Creating Layer conv4_2_3x3/relu
I0621 16:04:08.758261 10428 net.cpp:454] conv4_2_3x3/relu <- conv4_2_3x3
I0621 16:04:08.758265 10428 net.cpp:397] conv4_2_3x3/relu -> conv4_2_3x3 (in-place)
I0621 16:04:08.758270 10428 net.cpp:150] Setting up conv4_2_3x3/relu
I0621 16:04:08.758272 10428 net.cpp:157] Top shape: 1 256 60 60 (921600)
I0621 16:04:08.758293 10428 net.cpp:165] Memory required for data: 967506200
I0621 16:04:08.758296 10428 layer_factory.hpp:77] Creating layer conv4_2_1x1_increase
I0621 16:04:08.758302 10428 net.cpp:106] Creating Layer conv4_2_1x1_increase
I0621 16:04:08.758306 10428 net.cpp:454] conv4_2_1x1_increase <- conv4_2_3x3
I0621 16:04:08.758311 10428 net.cpp:411] conv4_2_1x1_increase -> conv4_2_1x1_increase
I0621 16:04:08.764650 10428 net.cpp:150] Setting up conv4_2_1x1_increase
I0621 16:04:08.764706 10428 net.cpp:157] Top shape: 1 1024 60 60 (3686400)
I0621 16:04:08.764710 10428 net.cpp:165] Memory required for data: 982251800
I0621 16:04:08.764721 10428 layer_factory.hpp:77] Creating layer conv4_2_1x1_increase/bn
I0621 16:04:08.764741 10428 net.cpp:106] Creating Layer conv4_2_1x1_increase/bn
I0621 16:04:08.764749 10428 net.cpp:454] conv4_2_1x1_increase/bn <- conv4_2_1x1_increase
I0621 16:04:08.764756 10428 net.cpp:397] conv4_2_1x1_increase/bn -> conv4_2_1x1_increase (in-place)
I0621 16:04:08.765007 10428 net.cpp:150] Setting up conv4_2_1x1_increase/bn
I0621 16:04:08.765013 10428 net.cpp:157] Top shape: 1 1024 60 60 (3686400)
I0621 16:04:08.765015 10428 net.cpp:165] Memory required for data: 996997400
I0621 16:04:08.765022 10428 layer_factory.hpp:77] Creating layer conv4_2
I0621 16:04:08.765028 10428 net.cpp:106] Creating Layer conv4_2
I0621 16:04:08.765030 10428 net.cpp:454] conv4_2 <- conv4_1_conv4_1/relu_0_split_1
I0621 16:04:08.765034 10428 net.cpp:454] conv4_2 <- conv4_2_1x1_increase
I0621 16:04:08.765038 10428 net.cpp:411] conv4_2 -> conv4_2
I0621 16:04:08.765055 10428 net.cpp:150] Setting up conv4_2
I0621 16:04:08.765058 10428 net.cpp:157] Top shape: 1 1024 60 60 (3686400)
I0621 16:04:08.765060 10428 net.cpp:165] Memory required for data: 1011743000
I0621 16:04:08.765064 10428 layer_factory.hpp:77] Creating layer conv4_2/relu
I0621 16:04:08.765070 10428 net.cpp:106] Creating Layer conv4_2/relu
I0621 16:04:08.765072 10428 net.cpp:454] conv4_2/relu <- conv4_2
I0621 16:04:08.765075 10428 net.cpp:397] conv4_2/relu -> conv4_2 (in-place)
I0621 16:04:08.765079 10428 net.cpp:150] Setting up conv4_2/relu
I0621 16:04:08.765082 10428 net.cpp:157] Top shape: 1 1024 60 60 (3686400)
I0621 16:04:08.765084 10428 net.cpp:165] Memory required for data: 1026488600
I0621 16:04:08.765086 10428 layer_factory.hpp:77] Creating layer conv4_2_conv4_2/relu_0_split
I0621 16:04:08.765090 10428 net.cpp:106] Creating Layer conv4_2_conv4_2/relu_0_split
I0621 16:04:08.765092 10428 net.cpp:454] conv4_2_conv4_2/relu_0_split <- conv4_2
I0621 16:04:08.765096 10428 net.cpp:411] conv4_2_conv4_2/relu_0_split -> conv4_2_conv4_2/relu_0_split_0
I0621 16:04:08.765112 10428 net.cpp:411] conv4_2_conv4_2/relu_0_split -> conv4_2_conv4_2/relu_0_split_1
I0621 16:04:08.765135 10428 net.cpp:150] Setting up conv4_2_conv4_2/relu_0_split
I0621 16:04:08.765137 10428 net.cpp:157] Top shape: 1 1024 60 60 (3686400)
I0621 16:04:08.765141 10428 net.cpp:157] Top shape: 1 1024 60 60 (3686400)
I0621 16:04:08.765142 10428 net.cpp:165] Memory required for data: 1055979800
I0621 16:04:08.765144 10428 layer_factory.hpp:77] Creating layer conv4_3_1x1_reduce
I0621 16:04:08.765154 10428 net.cpp:106] Creating Layer conv4_3_1x1_reduce
I0621 16:04:08.765157 10428 net.cpp:454] conv4_3_1x1_reduce <- conv4_2_conv4_2/relu_0_split_0
I0621 16:04:08.765161 10428 net.cpp:411] conv4_3_1x1_reduce -> conv4_3_1x1_reduce
I0621 16:04:08.771216 10428 net.cpp:150] Setting up conv4_3_1x1_reduce
I0621 16:04:08.771266 10428 net.cpp:157] Top shape: 1 256 60 60 (921600)
I0621 16:04:08.771271 10428 net.cpp:165] Memory required for data: 1059666200
I0621 16:04:08.771284 10428 layer_factory.hpp:77] Creating layer conv4_3_1x1_reduce/bn
I0621 16:04:08.771304 10428 net.cpp:106] Creating Layer conv4_3_1x1_reduce/bn
I0621 16:04:08.771311 10428 net.cpp:454] conv4_3_1x1_reduce/bn <- conv4_3_1x1_reduce
I0621 16:04:08.771322 10428 net.cpp:397] conv4_3_1x1_reduce/bn -> conv4_3_1x1_reduce (in-place)
I0621 16:04:08.771540 10428 net.cpp:150] Setting up conv4_3_1x1_reduce/bn
I0621 16:04:08.771546 10428 net.cpp:157] Top shape: 1 256 60 60 (921600)
I0621 16:04:08.771597 10428 net.cpp:165] Memory required for data: 1063352600
I0621 16:04:08.771603 10428 layer_factory.hpp:77] Creating layer conv4_3_1x1_reduce/relu
I0621 16:04:08.771612 10428 net.cpp:106] Creating Layer conv4_3_1x1_reduce/relu
I0621 16:04:08.771615 10428 net.cpp:454] conv4_3_1x1_reduce/relu <- conv4_3_1x1_reduce
I0621 16:04:08.771620 10428 net.cpp:397] conv4_3_1x1_reduce/relu -> conv4_3_1x1_reduce (in-place)
I0621 16:04:08.771625 10428 net.cpp:150] Setting up conv4_3_1x1_reduce/relu
I0621 16:04:08.771627 10428 net.cpp:157] Top shape: 1 256 60 60 (921600)
I0621 16:04:08.771631 10428 net.cpp:165] Memory required for data: 1067039000
I0621 16:04:08.771633 10428 layer_factory.hpp:77] Creating layer conv4_3_3x3
I0621 16:04:08.771642 10428 net.cpp:106] Creating Layer conv4_3_3x3
I0621 16:04:08.771646 10428 net.cpp:454] conv4_3_3x3 <- conv4_3_1x1_reduce
I0621 16:04:08.771666 10428 net.cpp:411] conv4_3_3x3 -> conv4_3_3x3
I0621 16:04:08.785323 10428 net.cpp:150] Setting up conv4_3_3x3
I0621 16:04:08.785343 10428 net.cpp:157] Top shape: 1 256 60 60 (921600)
I0621 16:04:08.785346 10428 net.cpp:165] Memory required for data: 1070725400
I0621 16:04:08.785354 10428 layer_factory.hpp:77] Creating layer conv4_3_3x3/bn
I0621 16:04:08.785370 10428 net.cpp:106] Creating Layer conv4_3_3x3/bn
I0621 16:04:08.785377 10428 net.cpp:454] conv4_3_3x3/bn <- conv4_3_3x3
I0621 16:04:08.785383 10428 net.cpp:397] conv4_3_3x3/bn -> conv4_3_3x3 (in-place)
I0621 16:04:08.785529 10428 net.cpp:150] Setting up conv4_3_3x3/bn
I0621 16:04:08.785533 10428 net.cpp:157] Top shape: 1 256 60 60 (921600)
I0621 16:04:08.785536 10428 net.cpp:165] Memory required for data: 1074411800
I0621 16:04:08.785540 10428 layer_factory.hpp:77] Creating layer conv4_3_3x3/relu
I0621 16:04:08.785545 10428 net.cpp:106] Creating Layer conv4_3_3x3/relu
I0621 16:04:08.785547 10428 net.cpp:454] conv4_3_3x3/relu <- conv4_3_3x3
I0621 16:04:08.785550 10428 net.cpp:397] conv4_3_3x3/relu -> conv4_3_3x3 (in-place)
I0621 16:04:08.785553 10428 net.cpp:150] Setting up conv4_3_3x3/relu
I0621 16:04:08.785557 10428 net.cpp:157] Top shape: 1 256 60 60 (921600)
I0621 16:04:08.785558 10428 net.cpp:165] Memory required for data: 1078098200
I0621 16:04:08.785562 10428 layer_factory.hpp:77] Creating layer conv4_3_1x1_increase
I0621 16:04:08.785569 10428 net.cpp:106] Creating Layer conv4_3_1x1_increase
I0621 16:04:08.785573 10428 net.cpp:454] conv4_3_1x1_increase <- conv4_3_3x3
I0621 16:04:08.785576 10428 net.cpp:411] conv4_3_1x1_increase -> conv4_3_1x1_increase
I0621 16:04:08.791837 10428 net.cpp:150] Setting up conv4_3_1x1_increase
I0621 16:04:08.791847 10428 net.cpp:157] Top shape: 1 1024 60 60 (3686400)
I0621 16:04:08.791851 10428 net.cpp:165] Memory required for data: 1092843800
I0621 16:04:08.791854 10428 layer_factory.hpp:77] Creating layer conv4_3_1x1_increase/bn
I0621 16:04:08.791860 10428 net.cpp:106] Creating Layer conv4_3_1x1_increase/bn
I0621 16:04:08.791863 10428 net.cpp:454] conv4_3_1x1_increase/bn <- conv4_3_1x1_increase
I0621 16:04:08.791868 10428 net.cpp:397] conv4_3_1x1_increase/bn -> conv4_3_1x1_increase (in-place)
I0621 16:04:08.792008 10428 net.cpp:150] Setting up conv4_3_1x1_increase/bn
I0621 16:04:08.792012 10428 net.cpp:157] Top shape: 1 1024 60 60 (3686400)
I0621 16:04:08.792016 10428 net.cpp:165] Memory required for data: 1107589400
I0621 16:04:08.792021 10428 layer_factory.hpp:77] Creating layer conv4_3
I0621 16:04:08.792027 10428 net.cpp:106] Creating Layer conv4_3
I0621 16:04:08.792032 10428 net.cpp:454] conv4_3 <- conv4_2_conv4_2/relu_0_split_1
I0621 16:04:08.792034 10428 net.cpp:454] conv4_3 <- conv4_3_1x1_increase
I0621 16:04:08.792038 10428 net.cpp:411] conv4_3 -> conv4_3
I0621 16:04:08.792053 10428 net.cpp:150] Setting up conv4_3
I0621 16:04:08.792057 10428 net.cpp:157] Top shape: 1 1024 60 60 (3686400)
I0621 16:04:08.792059 10428 net.cpp:165] Memory required for data: 1122335000
I0621 16:04:08.792062 10428 layer_factory.hpp:77] Creating layer conv4_3/relu
I0621 16:04:08.792068 10428 net.cpp:106] Creating Layer conv4_3/relu
I0621 16:04:08.792085 10428 net.cpp:454] conv4_3/relu <- conv4_3
I0621 16:04:08.792089 10428 net.cpp:397] conv4_3/relu -> conv4_3 (in-place)
I0621 16:04:08.792093 10428 net.cpp:150] Setting up conv4_3/relu
I0621 16:04:08.792096 10428 net.cpp:157] Top shape: 1 1024 60 60 (3686400)
I0621 16:04:08.792098 10428 net.cpp:165] Memory required for data: 1137080600
I0621 16:04:08.792101 10428 layer_factory.hpp:77] Creating layer conv4_3_conv4_3/relu_0_split
I0621 16:04:08.792105 10428 net.cpp:106] Creating Layer conv4_3_conv4_3/relu_0_split
I0621 16:04:08.792107 10428 net.cpp:454] conv4_3_conv4_3/relu_0_split <- conv4_3
I0621 16:04:08.792112 10428 net.cpp:411] conv4_3_conv4_3/relu_0_split -> conv4_3_conv4_3/relu_0_split_0
I0621 16:04:08.792116 10428 net.cpp:411] conv4_3_conv4_3/relu_0_split -> conv4_3_conv4_3/relu_0_split_1
I0621 16:04:08.792138 10428 net.cpp:150] Setting up conv4_3_conv4_3/relu_0_split
I0621 16:04:08.792142 10428 net.cpp:157] Top shape: 1 1024 60 60 (3686400)
I0621 16:04:08.792145 10428 net.cpp:157] Top shape: 1 1024 60 60 (3686400)
I0621 16:04:08.792147 10428 net.cpp:165] Memory required for data: 1166571800
I0621 16:04:08.792150 10428 layer_factory.hpp:77] Creating layer conv4_4_1x1_reduce
I0621 16:04:08.792171 10428 net.cpp:106] Creating Layer conv4_4_1x1_reduce
I0621 16:04:08.792173 10428 net.cpp:454] conv4_4_1x1_reduce <- conv4_3_conv4_3/relu_0_split_0
I0621 16:04:08.792177 10428 net.cpp:411] conv4_4_1x1_reduce -> conv4_4_1x1_reduce
I0621 16:04:08.797776 10428 net.cpp:150] Setting up conv4_4_1x1_reduce
I0621 16:04:08.797791 10428 net.cpp:157] Top shape: 1 256 60 60 (921600)
I0621 16:04:08.797794 10428 net.cpp:165] Memory required for data: 1170258200
I0621 16:04:08.797802 10428 layer_factory.hpp:77] Creating layer conv4_4_1x1_reduce/bn
I0621 16:04:08.797812 10428 net.cpp:106] Creating Layer conv4_4_1x1_reduce/bn
I0621 16:04:08.797816 10428 net.cpp:454] conv4_4_1x1_reduce/bn <- conv4_4_1x1_reduce
I0621 16:04:08.797821 10428 net.cpp:397] conv4_4_1x1_reduce/bn -> conv4_4_1x1_reduce (in-place)
I0621 16:04:08.797955 10428 net.cpp:150] Setting up conv4_4_1x1_reduce/bn
I0621 16:04:08.797960 10428 net.cpp:157] Top shape: 1 256 60 60 (921600)
I0621 16:04:08.797962 10428 net.cpp:165] Memory required for data: 1173944600
I0621 16:04:08.797968 10428 layer_factory.hpp:77] Creating layer conv4_4_1x1_reduce/relu
I0621 16:04:08.797972 10428 net.cpp:106] Creating Layer conv4_4_1x1_reduce/relu
I0621 16:04:08.797976 10428 net.cpp:454] conv4_4_1x1_reduce/relu <- conv4_4_1x1_reduce
I0621 16:04:08.797979 10428 net.cpp:397] conv4_4_1x1_reduce/relu -> conv4_4_1x1_reduce (in-place)
I0621 16:04:08.797983 10428 net.cpp:150] Setting up conv4_4_1x1_reduce/relu
I0621 16:04:08.797986 10428 net.cpp:157] Top shape: 1 256 60 60 (921600)
I0621 16:04:08.797989 10428 net.cpp:165] Memory required for data: 1177631000
I0621 16:04:08.797992 10428 layer_factory.hpp:77] Creating layer conv4_4_3x3
I0621 16:04:08.797997 10428 net.cpp:106] Creating Layer conv4_4_3x3
I0621 16:04:08.798001 10428 net.cpp:454] conv4_4_3x3 <- conv4_4_1x1_reduce
I0621 16:04:08.798004 10428 net.cpp:411] conv4_4_3x3 -> conv4_4_3x3
I0621 16:04:08.810945 10428 net.cpp:150] Setting up conv4_4_3x3
I0621 16:04:08.810967 10428 net.cpp:157] Top shape: 1 256 60 60 (921600)
I0621 16:04:08.810971 10428 net.cpp:165] Memory required for data: 1181317400
I0621 16:04:08.810978 10428 layer_factory.hpp:77] Creating layer conv4_4_3x3/bn
I0621 16:04:08.810987 10428 net.cpp:106] Creating Layer conv4_4_3x3/bn
I0621 16:04:08.810992 10428 net.cpp:454] conv4_4_3x3/bn <- conv4_4_3x3
I0621 16:04:08.810997 10428 net.cpp:397] conv4_4_3x3/bn -> conv4_4_3x3 (in-place)
I0621 16:04:08.811143 10428 net.cpp:150] Setting up conv4_4_3x3/bn
I0621 16:04:08.811148 10428 net.cpp:157] Top shape: 1 256 60 60 (921600)
I0621 16:04:08.811151 10428 net.cpp:165] Memory required for data: 1185003800
I0621 16:04:08.811156 10428 layer_factory.hpp:77] Creating layer conv4_4_3x3/relu
I0621 16:04:08.811161 10428 net.cpp:106] Creating Layer conv4_4_3x3/relu
I0621 16:04:08.811163 10428 net.cpp:454] conv4_4_3x3/relu <- conv4_4_3x3
I0621 16:04:08.811183 10428 net.cpp:397] conv4_4_3x3/relu -> conv4_4_3x3 (in-place)
I0621 16:04:08.811188 10428 net.cpp:150] Setting up conv4_4_3x3/relu
I0621 16:04:08.811192 10428 net.cpp:157] Top shape: 1 256 60 60 (921600)
I0621 16:04:08.811194 10428 net.cpp:165] Memory required for data: 1188690200
I0621 16:04:08.811197 10428 layer_factory.hpp:77] Creating layer conv4_4_1x1_increase
I0621 16:04:08.811204 10428 net.cpp:106] Creating Layer conv4_4_1x1_increase
I0621 16:04:08.811208 10428 net.cpp:454] conv4_4_1x1_increase <- conv4_4_3x3
I0621 16:04:08.811213 10428 net.cpp:411] conv4_4_1x1_increase -> conv4_4_1x1_increase
I0621 16:04:08.817442 10428 net.cpp:150] Setting up conv4_4_1x1_increase
I0621 16:04:08.817476 10428 net.cpp:157] Top shape: 1 1024 60 60 (3686400)
I0621 16:04:08.817478 10428 net.cpp:165] Memory required for data: 1203435800
I0621 16:04:08.817487 10428 layer_factory.hpp:77] Creating layer conv4_4_1x1_increase/bn
I0621 16:04:08.817500 10428 net.cpp:106] Creating Layer conv4_4_1x1_increase/bn
I0621 16:04:08.817504 10428 net.cpp:454] conv4_4_1x1_increase/bn <- conv4_4_1x1_increase
I0621 16:04:08.817509 10428 net.cpp:397] conv4_4_1x1_increase/bn -> conv4_4_1x1_increase (in-place)
I0621 16:04:08.817677 10428 net.cpp:150] Setting up conv4_4_1x1_increase/bn
I0621 16:04:08.817682 10428 net.cpp:157] Top shape: 1 1024 60 60 (3686400)
I0621 16:04:08.817684 10428 net.cpp:165] Memory required for data: 1218181400
I0621 16:04:08.817689 10428 layer_factory.hpp:77] Creating layer conv4_4
I0621 16:04:08.817695 10428 net.cpp:106] Creating Layer conv4_4
I0621 16:04:08.817698 10428 net.cpp:454] conv4_4 <- conv4_3_conv4_3/relu_0_split_1
I0621 16:04:08.817700 10428 net.cpp:454] conv4_4 <- conv4_4_1x1_increase
I0621 16:04:08.817703 10428 net.cpp:411] conv4_4 -> conv4_4
I0621 16:04:08.817720 10428 net.cpp:150] Setting up conv4_4
I0621 16:04:08.817724 10428 net.cpp:157] Top shape: 1 1024 60 60 (3686400)
I0621 16:04:08.817726 10428 net.cpp:165] Memory required for data: 1232927000
I0621 16:04:08.817728 10428 layer_factory.hpp:77] Creating layer conv4_4/relu
I0621 16:04:08.817733 10428 net.cpp:106] Creating Layer conv4_4/relu
I0621 16:04:08.817734 10428 net.cpp:454] conv4_4/relu <- conv4_4
I0621 16:04:08.817739 10428 net.cpp:397] conv4_4/relu -> conv4_4 (in-place)
I0621 16:04:08.817741 10428 net.cpp:150] Setting up conv4_4/relu
I0621 16:04:08.817744 10428 net.cpp:157] Top shape: 1 1024 60 60 (3686400)
I0621 16:04:08.817746 10428 net.cpp:165] Memory required for data: 1247672600
I0621 16:04:08.817749 10428 layer_factory.hpp:77] Creating layer conv4_4_conv4_4/relu_0_split
I0621 16:04:08.817752 10428 net.cpp:106] Creating Layer conv4_4_conv4_4/relu_0_split
I0621 16:04:08.817755 10428 net.cpp:454] conv4_4_conv4_4/relu_0_split <- conv4_4
I0621 16:04:08.817759 10428 net.cpp:411] conv4_4_conv4_4/relu_0_split -> conv4_4_conv4_4/relu_0_split_0
I0621 16:04:08.817764 10428 net.cpp:411] conv4_4_conv4_4/relu_0_split -> conv4_4_conv4_4/relu_0_split_1
I0621 16:04:08.817785 10428 net.cpp:150] Setting up conv4_4_conv4_4/relu_0_split
I0621 16:04:08.817790 10428 net.cpp:157] Top shape: 1 1024 60 60 (3686400)
I0621 16:04:08.817792 10428 net.cpp:157] Top shape: 1 1024 60 60 (3686400)
I0621 16:04:08.817795 10428 net.cpp:165] Memory required for data: 1277163800
I0621 16:04:08.817797 10428 layer_factory.hpp:77] Creating layer conv4_5_1x1_reduce
I0621 16:04:08.817804 10428 net.cpp:106] Creating Layer conv4_5_1x1_reduce
I0621 16:04:08.817807 10428 net.cpp:454] conv4_5_1x1_reduce <- conv4_4_conv4_4/relu_0_split_0
I0621 16:04:08.817812 10428 net.cpp:411] conv4_5_1x1_reduce -> conv4_5_1x1_reduce
I0621 16:04:08.823525 10428 net.cpp:150] Setting up conv4_5_1x1_reduce
I0621 16:04:08.823531 10428 net.cpp:157] Top shape: 1 256 60 60 (921600)
I0621 16:04:08.823534 10428 net.cpp:165] Memory required for data: 1280850200
I0621 16:04:08.823537 10428 layer_factory.hpp:77] Creating layer conv4_5_1x1_reduce/bn
I0621 16:04:08.823542 10428 net.cpp:106] Creating Layer conv4_5_1x1_reduce/bn
I0621 16:04:08.823545 10428 net.cpp:454] conv4_5_1x1_reduce/bn <- conv4_5_1x1_reduce
I0621 16:04:08.823567 10428 net.cpp:397] conv4_5_1x1_reduce/bn -> conv4_5_1x1_reduce (in-place)
I0621 16:04:08.823698 10428 net.cpp:150] Setting up conv4_5_1x1_reduce/bn
I0621 16:04:08.823703 10428 net.cpp:157] Top shape: 1 256 60 60 (921600)
I0621 16:04:08.823704 10428 net.cpp:165] Memory required for data: 1284536600
I0621 16:04:08.823710 10428 layer_factory.hpp:77] Creating layer conv4_5_1x1_reduce/relu
I0621 16:04:08.823714 10428 net.cpp:106] Creating Layer conv4_5_1x1_reduce/relu
I0621 16:04:08.823717 10428 net.cpp:454] conv4_5_1x1_reduce/relu <- conv4_5_1x1_reduce
I0621 16:04:08.823721 10428 net.cpp:397] conv4_5_1x1_reduce/relu -> conv4_5_1x1_reduce (in-place)
I0621 16:04:08.823725 10428 net.cpp:150] Setting up conv4_5_1x1_reduce/relu
I0621 16:04:08.823729 10428 net.cpp:157] Top shape: 1 256 60 60 (921600)
I0621 16:04:08.823730 10428 net.cpp:165] Memory required for data: 1288223000
I0621 16:04:08.823734 10428 layer_factory.hpp:77] Creating layer conv4_5_3x3
I0621 16:04:08.823740 10428 net.cpp:106] Creating Layer conv4_5_3x3
I0621 16:04:08.823741 10428 net.cpp:454] conv4_5_3x3 <- conv4_5_1x1_reduce
I0621 16:04:08.823745 10428 net.cpp:411] conv4_5_3x3 -> conv4_5_3x3
I0621 16:04:08.836805 10428 net.cpp:150] Setting up conv4_5_3x3
I0621 16:04:08.836848 10428 net.cpp:157] Top shape: 1 256 60 60 (921600)
I0621 16:04:08.836851 10428 net.cpp:165] Memory required for data: 1291909400
I0621 16:04:08.836863 10428 layer_factory.hpp:77] Creating layer conv4_5_3x3/bn
I0621 16:04:08.836880 10428 net.cpp:106] Creating Layer conv4_5_3x3/bn
I0621 16:04:08.836886 10428 net.cpp:454] conv4_5_3x3/bn <- conv4_5_3x3
I0621 16:04:08.836892 10428 net.cpp:397] conv4_5_3x3/bn -> conv4_5_3x3 (in-place)
I0621 16:04:08.837077 10428 net.cpp:150] Setting up conv4_5_3x3/bn
I0621 16:04:08.837082 10428 net.cpp:157] Top shape: 1 256 60 60 (921600)
I0621 16:04:08.837085 10428 net.cpp:165] Memory required for data: 1295595800
I0621 16:04:08.837090 10428 layer_factory.hpp:77] Creating layer conv4_5_3x3/relu
I0621 16:04:08.837095 10428 net.cpp:106] Creating Layer conv4_5_3x3/relu
I0621 16:04:08.837098 10428 net.cpp:454] conv4_5_3x3/relu <- conv4_5_3x3
I0621 16:04:08.837101 10428 net.cpp:397] conv4_5_3x3/relu -> conv4_5_3x3 (in-place)
I0621 16:04:08.837106 10428 net.cpp:150] Setting up conv4_5_3x3/relu
I0621 16:04:08.837110 10428 net.cpp:157] Top shape: 1 256 60 60 (921600)
I0621 16:04:08.837115 10428 net.cpp:165] Memory required for data: 1299282200
I0621 16:04:08.837116 10428 layer_factory.hpp:77] Creating layer conv4_5_1x1_increase
I0621 16:04:08.837124 10428 net.cpp:106] Creating Layer conv4_5_1x1_increase
I0621 16:04:08.837127 10428 net.cpp:454] conv4_5_1x1_increase <- conv4_5_3x3
I0621 16:04:08.837132 10428 net.cpp:411] conv4_5_1x1_increase -> conv4_5_1x1_increase
I0621 16:04:08.843772 10428 net.cpp:150] Setting up conv4_5_1x1_increase
I0621 16:04:08.843827 10428 net.cpp:157] Top shape: 1 1024 60 60 (3686400)
I0621 16:04:08.843832 10428 net.cpp:165] Memory required for data: 1314027800
I0621 16:04:08.843842 10428 layer_factory.hpp:77] Creating layer conv4_5_1x1_increase/bn
I0621 16:04:08.843858 10428 net.cpp:106] Creating Layer conv4_5_1x1_increase/bn
I0621 16:04:08.843865 10428 net.cpp:454] conv4_5_1x1_increase/bn <- conv4_5_1x1_increase
I0621 16:04:08.843874 10428 net.cpp:397] conv4_5_1x1_increase/bn -> conv4_5_1x1_increase (in-place)
I0621 16:04:08.844076 10428 net.cpp:150] Setting up conv4_5_1x1_increase/bn
I0621 16:04:08.844082 10428 net.cpp:157] Top shape: 1 1024 60 60 (3686400)
I0621 16:04:08.844085 10428 net.cpp:165] Memory required for data: 1328773400
I0621 16:04:08.844092 10428 layer_factory.hpp:77] Creating layer conv4_5
I0621 16:04:08.844100 10428 net.cpp:106] Creating Layer conv4_5
I0621 16:04:08.844103 10428 net.cpp:454] conv4_5 <- conv4_4_conv4_4/relu_0_split_1
I0621 16:04:08.844108 10428 net.cpp:454] conv4_5 <- conv4_5_1x1_increase
I0621 16:04:08.844112 10428 net.cpp:411] conv4_5 -> conv4_5
I0621 16:04:08.844132 10428 net.cpp:150] Setting up conv4_5
I0621 16:04:08.844137 10428 net.cpp:157] Top shape: 1 1024 60 60 (3686400)
I0621 16:04:08.844172 10428 net.cpp:165] Memory required for data: 1343519000
I0621 16:04:08.844174 10428 layer_factory.hpp:77] Creating layer conv4_5/relu
I0621 16:04:08.844182 10428 net.cpp:106] Creating Layer conv4_5/relu
I0621 16:04:08.844187 10428 net.cpp:454] conv4_5/relu <- conv4_5
I0621 16:04:08.844190 10428 net.cpp:397] conv4_5/relu -> conv4_5 (in-place)
I0621 16:04:08.844195 10428 net.cpp:150] Setting up conv4_5/relu
I0621 16:04:08.844199 10428 net.cpp:157] Top shape: 1 1024 60 60 (3686400)
I0621 16:04:08.844202 10428 net.cpp:165] Memory required for data: 1358264600
I0621 16:04:08.844204 10428 layer_factory.hpp:77] Creating layer conv4_5_conv4_5/relu_0_split
I0621 16:04:08.844209 10428 net.cpp:106] Creating Layer conv4_5_conv4_5/relu_0_split
I0621 16:04:08.844213 10428 net.cpp:454] conv4_5_conv4_5/relu_0_split <- conv4_5
I0621 16:04:08.844215 10428 net.cpp:411] conv4_5_conv4_5/relu_0_split -> conv4_5_conv4_5/relu_0_split_0
I0621 16:04:08.844221 10428 net.cpp:411] conv4_5_conv4_5/relu_0_split -> conv4_5_conv4_5/relu_0_split_1
I0621 16:04:08.844245 10428 net.cpp:150] Setting up conv4_5_conv4_5/relu_0_split
I0621 16:04:08.844249 10428 net.cpp:157] Top shape: 1 1024 60 60 (3686400)
I0621 16:04:08.844254 10428 net.cpp:157] Top shape: 1 1024 60 60 (3686400)
I0621 16:04:08.844255 10428 net.cpp:165] Memory required for data: 1387755800
I0621 16:04:08.844259 10428 layer_factory.hpp:77] Creating layer conv4_6_1x1_reduce
I0621 16:04:08.844267 10428 net.cpp:106] Creating Layer conv4_6_1x1_reduce
I0621 16:04:08.844270 10428 net.cpp:454] conv4_6_1x1_reduce <- conv4_5_conv4_5/relu_0_split_0
I0621 16:04:08.844275 10428 net.cpp:411] conv4_6_1x1_reduce -> conv4_6_1x1_reduce
I0621 16:04:08.850371 10428 net.cpp:150] Setting up conv4_6_1x1_reduce
I0621 16:04:08.850419 10428 net.cpp:157] Top shape: 1 256 60 60 (921600)
I0621 16:04:08.850424 10428 net.cpp:165] Memory required for data: 1391442200
I0621 16:04:08.850435 10428 layer_factory.hpp:77] Creating layer conv4_6_1x1_reduce/bn
I0621 16:04:08.850451 10428 net.cpp:106] Creating Layer conv4_6_1x1_reduce/bn
I0621 16:04:08.850456 10428 net.cpp:454] conv4_6_1x1_reduce/bn <- conv4_6_1x1_reduce
I0621 16:04:08.850468 10428 net.cpp:397] conv4_6_1x1_reduce/bn -> conv4_6_1x1_reduce (in-place)
I0621 16:04:08.850672 10428 net.cpp:150] Setting up conv4_6_1x1_reduce/bn
I0621 16:04:08.850678 10428 net.cpp:157] Top shape: 1 256 60 60 (921600)
I0621 16:04:08.850682 10428 net.cpp:165] Memory required for data: 1395128600
I0621 16:04:08.850687 10428 layer_factory.hpp:77] Creating layer conv4_6_1x1_reduce/relu
I0621 16:04:08.850694 10428 net.cpp:106] Creating Layer conv4_6_1x1_reduce/relu
I0621 16:04:08.850697 10428 net.cpp:454] conv4_6_1x1_reduce/relu <- conv4_6_1x1_reduce
I0621 16:04:08.850702 10428 net.cpp:397] conv4_6_1x1_reduce/relu -> conv4_6_1x1_reduce (in-place)
I0621 16:04:08.850708 10428 net.cpp:150] Setting up conv4_6_1x1_reduce/relu
I0621 16:04:08.850710 10428 net.cpp:157] Top shape: 1 256 60 60 (921600)
I0621 16:04:08.850713 10428 net.cpp:165] Memory required for data: 1398815000
I0621 16:04:08.850716 10428 layer_factory.hpp:77] Creating layer conv4_6_3x3
I0621 16:04:08.850724 10428 net.cpp:106] Creating Layer conv4_6_3x3
I0621 16:04:08.850728 10428 net.cpp:454] conv4_6_3x3 <- conv4_6_1x1_reduce
I0621 16:04:08.850731 10428 net.cpp:411] conv4_6_3x3 -> conv4_6_3x3
I0621 16:04:08.864394 10428 net.cpp:150] Setting up conv4_6_3x3
I0621 16:04:08.864415 10428 net.cpp:157] Top shape: 1 256 60 60 (921600)
I0621 16:04:08.864418 10428 net.cpp:165] Memory required for data: 1402501400
I0621 16:04:08.864423 10428 layer_factory.hpp:77] Creating layer conv4_6_3x3/bn
I0621 16:04:08.864434 10428 net.cpp:106] Creating Layer conv4_6_3x3/bn
I0621 16:04:08.864436 10428 net.cpp:454] conv4_6_3x3/bn <- conv4_6_3x3
I0621 16:04:08.864441 10428 net.cpp:397] conv4_6_3x3/bn -> conv4_6_3x3 (in-place)
I0621 16:04:08.864589 10428 net.cpp:150] Setting up conv4_6_3x3/bn
I0621 16:04:08.864594 10428 net.cpp:157] Top shape: 1 256 60 60 (921600)
I0621 16:04:08.864596 10428 net.cpp:165] Memory required for data: 1406187800
I0621 16:04:08.864616 10428 layer_factory.hpp:77] Creating layer conv4_6_3x3/relu
I0621 16:04:08.864622 10428 net.cpp:106] Creating Layer conv4_6_3x3/relu
I0621 16:04:08.864625 10428 net.cpp:454] conv4_6_3x3/relu <- conv4_6_3x3
I0621 16:04:08.864629 10428 net.cpp:397] conv4_6_3x3/relu -> conv4_6_3x3 (in-place)
I0621 16:04:08.864634 10428 net.cpp:150] Setting up conv4_6_3x3/relu
I0621 16:04:08.864636 10428 net.cpp:157] Top shape: 1 256 60 60 (921600)
I0621 16:04:08.864639 10428 net.cpp:165] Memory required for data: 1409874200
I0621 16:04:08.864641 10428 layer_factory.hpp:77] Creating layer conv4_6_1x1_increase
I0621 16:04:08.864650 10428 net.cpp:106] Creating Layer conv4_6_1x1_increase
I0621 16:04:08.864653 10428 net.cpp:454] conv4_6_1x1_increase <- conv4_6_3x3
I0621 16:04:08.864658 10428 net.cpp:411] conv4_6_1x1_increase -> conv4_6_1x1_increase
I0621 16:04:08.870906 10428 net.cpp:150] Setting up conv4_6_1x1_increase
I0621 16:04:08.870918 10428 net.cpp:157] Top shape: 1 1024 60 60 (3686400)
I0621 16:04:08.870919 10428 net.cpp:165] Memory required for data: 1424619800
I0621 16:04:08.870923 10428 layer_factory.hpp:77] Creating layer conv4_6_1x1_increase/bn
I0621 16:04:08.870929 10428 net.cpp:106] Creating Layer conv4_6_1x1_increase/bn
I0621 16:04:08.870932 10428 net.cpp:454] conv4_6_1x1_increase/bn <- conv4_6_1x1_increase
I0621 16:04:08.870935 10428 net.cpp:397] conv4_6_1x1_increase/bn -> conv4_6_1x1_increase (in-place)
I0621 16:04:08.871073 10428 net.cpp:150] Setting up conv4_6_1x1_increase/bn
I0621 16:04:08.871078 10428 net.cpp:157] Top shape: 1 1024 60 60 (3686400)
I0621 16:04:08.871081 10428 net.cpp:165] Memory required for data: 1439365400
I0621 16:04:08.871091 10428 layer_factory.hpp:77] Creating layer conv4_6
I0621 16:04:08.871096 10428 net.cpp:106] Creating Layer conv4_6
I0621 16:04:08.871099 10428 net.cpp:454] conv4_6 <- conv4_5_conv4_5/relu_0_split_1
I0621 16:04:08.871103 10428 net.cpp:454] conv4_6 <- conv4_6_1x1_increase
I0621 16:04:08.871105 10428 net.cpp:411] conv4_6 -> conv4_6
I0621 16:04:08.871121 10428 net.cpp:150] Setting up conv4_6
I0621 16:04:08.871125 10428 net.cpp:157] Top shape: 1 1024 60 60 (3686400)
I0621 16:04:08.871127 10428 net.cpp:165] Memory required for data: 1454111000
I0621 16:04:08.871129 10428 layer_factory.hpp:77] Creating layer conv4_6/relu
I0621 16:04:08.871134 10428 net.cpp:106] Creating Layer conv4_6/relu
I0621 16:04:08.871135 10428 net.cpp:454] conv4_6/relu <- conv4_6
I0621 16:04:08.871139 10428 net.cpp:397] conv4_6/relu -> conv4_6 (in-place)
I0621 16:04:08.871141 10428 net.cpp:150] Setting up conv4_6/relu
I0621 16:04:08.871145 10428 net.cpp:157] Top shape: 1 1024 60 60 (3686400)
I0621 16:04:08.871146 10428 net.cpp:165] Memory required for data: 1468856600
I0621 16:04:08.871148 10428 layer_factory.hpp:77] Creating layer conv4_6_conv4_6/relu_0_split
I0621 16:04:08.871151 10428 net.cpp:106] Creating Layer conv4_6_conv4_6/relu_0_split
I0621 16:04:08.871153 10428 net.cpp:454] conv4_6_conv4_6/relu_0_split <- conv4_6
I0621 16:04:08.871158 10428 net.cpp:411] conv4_6_conv4_6/relu_0_split -> conv4_6_conv4_6/relu_0_split_0
I0621 16:04:08.871162 10428 net.cpp:411] conv4_6_conv4_6/relu_0_split -> conv4_6_conv4_6/relu_0_split_1
I0621 16:04:08.871183 10428 net.cpp:150] Setting up conv4_6_conv4_6/relu_0_split
I0621 16:04:08.871187 10428 net.cpp:157] Top shape: 1 1024 60 60 (3686400)
I0621 16:04:08.871191 10428 net.cpp:157] Top shape: 1 1024 60 60 (3686400)
I0621 16:04:08.871193 10428 net.cpp:165] Memory required for data: 1498347800
I0621 16:04:08.871196 10428 layer_factory.hpp:77] Creating layer conv4_7_1x1_reduce
I0621 16:04:08.871206 10428 net.cpp:106] Creating Layer conv4_7_1x1_reduce
I0621 16:04:08.871209 10428 net.cpp:454] conv4_7_1x1_reduce <- conv4_6_conv4_6/relu_0_split_0
I0621 16:04:08.871213 10428 net.cpp:411] conv4_7_1x1_reduce -> conv4_7_1x1_reduce
I0621 16:04:08.876751 10428 net.cpp:150] Setting up conv4_7_1x1_reduce
I0621 16:04:08.876760 10428 net.cpp:157] Top shape: 1 256 60 60 (921600)
I0621 16:04:08.876763 10428 net.cpp:165] Memory required for data: 1502034200
I0621 16:04:08.876787 10428 layer_factory.hpp:77] Creating layer conv4_7_1x1_reduce/bn
I0621 16:04:08.876793 10428 net.cpp:106] Creating Layer conv4_7_1x1_reduce/bn
I0621 16:04:08.876796 10428 net.cpp:454] conv4_7_1x1_reduce/bn <- conv4_7_1x1_reduce
I0621 16:04:08.876801 10428 net.cpp:397] conv4_7_1x1_reduce/bn -> conv4_7_1x1_reduce (in-place)
I0621 16:04:08.876943 10428 net.cpp:150] Setting up conv4_7_1x1_reduce/bn
I0621 16:04:08.876948 10428 net.cpp:157] Top shape: 1 256 60 60 (921600)
I0621 16:04:08.876950 10428 net.cpp:165] Memory required for data: 1505720600
I0621 16:04:08.876955 10428 layer_factory.hpp:77] Creating layer conv4_7_1x1_reduce/relu
I0621 16:04:08.876958 10428 net.cpp:106] Creating Layer conv4_7_1x1_reduce/relu
I0621 16:04:08.876961 10428 net.cpp:454] conv4_7_1x1_reduce/relu <- conv4_7_1x1_reduce
I0621 16:04:08.876963 10428 net.cpp:397] conv4_7_1x1_reduce/relu -> conv4_7_1x1_reduce (in-place)
I0621 16:04:08.876966 10428 net.cpp:150] Setting up conv4_7_1x1_reduce/relu
I0621 16:04:08.876969 10428 net.cpp:157] Top shape: 1 256 60 60 (921600)
I0621 16:04:08.876971 10428 net.cpp:165] Memory required for data: 1509407000
I0621 16:04:08.876973 10428 layer_factory.hpp:77] Creating layer conv4_7_3x3
I0621 16:04:08.876978 10428 net.cpp:106] Creating Layer conv4_7_3x3
I0621 16:04:08.876981 10428 net.cpp:454] conv4_7_3x3 <- conv4_7_1x1_reduce
I0621 16:04:08.876984 10428 net.cpp:411] conv4_7_3x3 -> conv4_7_3x3
I0621 16:04:08.890177 10428 net.cpp:150] Setting up conv4_7_3x3
I0621 16:04:08.890206 10428 net.cpp:157] Top shape: 1 256 60 60 (921600)
I0621 16:04:08.890209 10428 net.cpp:165] Memory required for data: 1513093400
I0621 16:04:08.890218 10428 layer_factory.hpp:77] Creating layer conv4_7_3x3/bn
I0621 16:04:08.890236 10428 net.cpp:106] Creating Layer conv4_7_3x3/bn
I0621 16:04:08.890242 10428 net.cpp:454] conv4_7_3x3/bn <- conv4_7_3x3
I0621 16:04:08.890249 10428 net.cpp:397] conv4_7_3x3/bn -> conv4_7_3x3 (in-place)
I0621 16:04:08.890409 10428 net.cpp:150] Setting up conv4_7_3x3/bn
I0621 16:04:08.890413 10428 net.cpp:157] Top shape: 1 256 60 60 (921600)
I0621 16:04:08.890415 10428 net.cpp:165] Memory required for data: 1516779800
I0621 16:04:08.890420 10428 layer_factory.hpp:77] Creating layer conv4_7_3x3/relu
I0621 16:04:08.890425 10428 net.cpp:106] Creating Layer conv4_7_3x3/relu
I0621 16:04:08.890427 10428 net.cpp:454] conv4_7_3x3/relu <- conv4_7_3x3
I0621 16:04:08.890429 10428 net.cpp:397] conv4_7_3x3/relu -> conv4_7_3x3 (in-place)
I0621 16:04:08.890434 10428 net.cpp:150] Setting up conv4_7_3x3/relu
I0621 16:04:08.890436 10428 net.cpp:157] Top shape: 1 256 60 60 (921600)
I0621 16:04:08.890440 10428 net.cpp:165] Memory required for data: 1520466200
I0621 16:04:08.890444 10428 layer_factory.hpp:77] Creating layer conv4_7_1x1_increase
I0621 16:04:08.890451 10428 net.cpp:106] Creating Layer conv4_7_1x1_increase
I0621 16:04:08.890455 10428 net.cpp:454] conv4_7_1x1_increase <- conv4_7_3x3
I0621 16:04:08.890460 10428 net.cpp:411] conv4_7_1x1_increase -> conv4_7_1x1_increase
I0621 16:04:08.896975 10428 net.cpp:150] Setting up conv4_7_1x1_increase
I0621 16:04:08.897007 10428 net.cpp:157] Top shape: 1 1024 60 60 (3686400)
I0621 16:04:08.897011 10428 net.cpp:165] Memory required for data: 1535211800
I0621 16:04:08.897018 10428 layer_factory.hpp:77] Creating layer conv4_7_1x1_increase/bn
I0621 16:04:08.897033 10428 net.cpp:106] Creating Layer conv4_7_1x1_increase/bn
I0621 16:04:08.897038 10428 net.cpp:454] conv4_7_1x1_increase/bn <- conv4_7_1x1_increase
I0621 16:04:08.897044 10428 net.cpp:397] conv4_7_1x1_increase/bn -> conv4_7_1x1_increase (in-place)
I0621 16:04:08.897213 10428 net.cpp:150] Setting up conv4_7_1x1_increase/bn
I0621 16:04:08.897218 10428 net.cpp:157] Top shape: 1 1024 60 60 (3686400)
I0621 16:04:08.897222 10428 net.cpp:165] Memory required for data: 1549957400
I0621 16:04:08.897228 10428 layer_factory.hpp:77] Creating layer conv4_7
I0621 16:04:08.897234 10428 net.cpp:106] Creating Layer conv4_7
I0621 16:04:08.897238 10428 net.cpp:454] conv4_7 <- conv4_6_conv4_6/relu_0_split_1
I0621 16:04:08.897241 10428 net.cpp:454] conv4_7 <- conv4_7_1x1_increase
I0621 16:04:08.897267 10428 net.cpp:411] conv4_7 -> conv4_7
I0621 16:04:08.897284 10428 net.cpp:150] Setting up conv4_7
I0621 16:04:08.897289 10428 net.cpp:157] Top shape: 1 1024 60 60 (3686400)
I0621 16:04:08.897291 10428 net.cpp:165] Memory required for data: 1564703000
I0621 16:04:08.897294 10428 layer_factory.hpp:77] Creating layer conv4_7/relu
I0621 16:04:08.897301 10428 net.cpp:106] Creating Layer conv4_7/relu
I0621 16:04:08.897305 10428 net.cpp:454] conv4_7/relu <- conv4_7
I0621 16:04:08.897308 10428 net.cpp:397] conv4_7/relu -> conv4_7 (in-place)
I0621 16:04:08.897312 10428 net.cpp:150] Setting up conv4_7/relu
I0621 16:04:08.897316 10428 net.cpp:157] Top shape: 1 1024 60 60 (3686400)
I0621 16:04:08.897318 10428 net.cpp:165] Memory required for data: 1579448600
I0621 16:04:08.897321 10428 layer_factory.hpp:77] Creating layer conv4_7_conv4_7/relu_0_split
I0621 16:04:08.897326 10428 net.cpp:106] Creating Layer conv4_7_conv4_7/relu_0_split
I0621 16:04:08.897330 10428 net.cpp:454] conv4_7_conv4_7/relu_0_split <- conv4_7
I0621 16:04:08.897333 10428 net.cpp:411] conv4_7_conv4_7/relu_0_split -> conv4_7_conv4_7/relu_0_split_0
I0621 16:04:08.897337 10428 net.cpp:411] conv4_7_conv4_7/relu_0_split -> conv4_7_conv4_7/relu_0_split_1
I0621 16:04:08.897359 10428 net.cpp:150] Setting up conv4_7_conv4_7/relu_0_split
I0621 16:04:08.897363 10428 net.cpp:157] Top shape: 1 1024 60 60 (3686400)
I0621 16:04:08.897367 10428 net.cpp:157] Top shape: 1 1024 60 60 (3686400)
I0621 16:04:08.897369 10428 net.cpp:165] Memory required for data: 1608939800
I0621 16:04:08.897372 10428 layer_factory.hpp:77] Creating layer conv4_8_1x1_reduce
I0621 16:04:08.897380 10428 net.cpp:106] Creating Layer conv4_8_1x1_reduce
I0621 16:04:08.897384 10428 net.cpp:454] conv4_8_1x1_reduce <- conv4_7_conv4_7/relu_0_split_0
I0621 16:04:08.897388 10428 net.cpp:411] conv4_8_1x1_reduce -> conv4_8_1x1_reduce
I0621 16:04:08.903281 10428 net.cpp:150] Setting up conv4_8_1x1_reduce
I0621 16:04:08.903348 10428 net.cpp:157] Top shape: 1 256 60 60 (921600)
I0621 16:04:08.903354 10428 net.cpp:165] Memory required for data: 1612626200
I0621 16:04:08.903367 10428 layer_factory.hpp:77] Creating layer conv4_8_1x1_reduce/bn
I0621 16:04:08.903383 10428 net.cpp:106] Creating Layer conv4_8_1x1_reduce/bn
I0621 16:04:08.903393 10428 net.cpp:454] conv4_8_1x1_reduce/bn <- conv4_8_1x1_reduce
I0621 16:04:08.903420 10428 net.cpp:397] conv4_8_1x1_reduce/bn -> conv4_8_1x1_reduce (in-place)
I0621 16:04:08.903607 10428 net.cpp:150] Setting up conv4_8_1x1_reduce/bn
I0621 16:04:08.903612 10428 net.cpp:157] Top shape: 1 256 60 60 (921600)
I0621 16:04:08.903615 10428 net.cpp:165] Memory required for data: 1616312600
I0621 16:04:08.903626 10428 layer_factory.hpp:77] Creating layer conv4_8_1x1_reduce/relu
I0621 16:04:08.903635 10428 net.cpp:106] Creating Layer conv4_8_1x1_reduce/relu
I0621 16:04:08.903638 10428 net.cpp:454] conv4_8_1x1_reduce/relu <- conv4_8_1x1_reduce
I0621 16:04:08.903642 10428 net.cpp:397] conv4_8_1x1_reduce/relu -> conv4_8_1x1_reduce (in-place)
I0621 16:04:08.903648 10428 net.cpp:150] Setting up conv4_8_1x1_reduce/relu
I0621 16:04:08.903651 10428 net.cpp:157] Top shape: 1 256 60 60 (921600)
I0621 16:04:08.903654 10428 net.cpp:165] Memory required for data: 1619999000
I0621 16:04:08.903657 10428 layer_factory.hpp:77] Creating layer conv4_8_3x3
I0621 16:04:08.903666 10428 net.cpp:106] Creating Layer conv4_8_3x3
I0621 16:04:08.903668 10428 net.cpp:454] conv4_8_3x3 <- conv4_8_1x1_reduce
I0621 16:04:08.903674 10428 net.cpp:411] conv4_8_3x3 -> conv4_8_3x3
I0621 16:04:08.917634 10428 net.cpp:150] Setting up conv4_8_3x3
I0621 16:04:08.917652 10428 net.cpp:157] Top shape: 1 256 60 60 (921600)
I0621 16:04:08.917654 10428 net.cpp:165] Memory required for data: 1623685400
I0621 16:04:08.917660 10428 layer_factory.hpp:77] Creating layer conv4_8_3x3/bn
I0621 16:04:08.917668 10428 net.cpp:106] Creating Layer conv4_8_3x3/bn
I0621 16:04:08.917672 10428 net.cpp:454] conv4_8_3x3/bn <- conv4_8_3x3
I0621 16:04:08.917676 10428 net.cpp:397] conv4_8_3x3/bn -> conv4_8_3x3 (in-place)
I0621 16:04:08.917834 10428 net.cpp:150] Setting up conv4_8_3x3/bn
I0621 16:04:08.917840 10428 net.cpp:157] Top shape: 1 256 60 60 (921600)
I0621 16:04:08.917841 10428 net.cpp:165] Memory required for data: 1627371800
I0621 16:04:08.917846 10428 layer_factory.hpp:77] Creating layer conv4_8_3x3/relu
I0621 16:04:08.917851 10428 net.cpp:106] Creating Layer conv4_8_3x3/relu
I0621 16:04:08.917853 10428 net.cpp:454] conv4_8_3x3/relu <- conv4_8_3x3
I0621 16:04:08.917856 10428 net.cpp:397] conv4_8_3x3/relu -> conv4_8_3x3 (in-place)
I0621 16:04:08.917860 10428 net.cpp:150] Setting up conv4_8_3x3/relu
I0621 16:04:08.917863 10428 net.cpp:157] Top shape: 1 256 60 60 (921600)
I0621 16:04:08.917865 10428 net.cpp:165] Memory required for data: 1631058200
I0621 16:04:08.917870 10428 layer_factory.hpp:77] Creating layer conv4_8_1x1_increase
I0621 16:04:08.917876 10428 net.cpp:106] Creating Layer conv4_8_1x1_increase
I0621 16:04:08.917879 10428 net.cpp:454] conv4_8_1x1_increase <- conv4_8_3x3
I0621 16:04:08.917883 10428 net.cpp:411] conv4_8_1x1_increase -> conv4_8_1x1_increase
I0621 16:04:08.924204 10428 net.cpp:150] Setting up conv4_8_1x1_increase
I0621 16:04:08.924219 10428 net.cpp:157] Top shape: 1 1024 60 60 (3686400)
I0621 16:04:08.924222 10428 net.cpp:165] Memory required for data: 1645803800
I0621 16:04:08.924227 10428 layer_factory.hpp:77] Creating layer conv4_8_1x1_increase/bn
I0621 16:04:08.924234 10428 net.cpp:106] Creating Layer conv4_8_1x1_increase/bn
I0621 16:04:08.924239 10428 net.cpp:454] conv4_8_1x1_increase/bn <- conv4_8_1x1_increase
I0621 16:04:08.924245 10428 net.cpp:397] conv4_8_1x1_increase/bn -> conv4_8_1x1_increase (in-place)
I0621 16:04:08.924412 10428 net.cpp:150] Setting up conv4_8_1x1_increase/bn
I0621 16:04:08.924417 10428 net.cpp:157] Top shape: 1 1024 60 60 (3686400)
I0621 16:04:08.924419 10428 net.cpp:165] Memory required for data: 1660549400
I0621 16:04:08.924424 10428 layer_factory.hpp:77] Creating layer conv4_8
I0621 16:04:08.924429 10428 net.cpp:106] Creating Layer conv4_8
I0621 16:04:08.924432 10428 net.cpp:454] conv4_8 <- conv4_7_conv4_7/relu_0_split_1
I0621 16:04:08.924437 10428 net.cpp:454] conv4_8 <- conv4_8_1x1_increase
I0621 16:04:08.924440 10428 net.cpp:411] conv4_8 -> conv4_8
I0621 16:04:08.924456 10428 net.cpp:150] Setting up conv4_8
I0621 16:04:08.924459 10428 net.cpp:157] Top shape: 1 1024 60 60 (3686400)
I0621 16:04:08.924463 10428 net.cpp:165] Memory required for data: 1675295000
I0621 16:04:08.924464 10428 layer_factory.hpp:77] Creating layer conv4_8/relu
I0621 16:04:08.924470 10428 net.cpp:106] Creating Layer conv4_8/relu
I0621 16:04:08.924474 10428 net.cpp:454] conv4_8/relu <- conv4_8
I0621 16:04:08.924476 10428 net.cpp:397] conv4_8/relu -> conv4_8 (in-place)
I0621 16:04:08.924481 10428 net.cpp:150] Setting up conv4_8/relu
I0621 16:04:08.924484 10428 net.cpp:157] Top shape: 1 1024 60 60 (3686400)
I0621 16:04:08.924486 10428 net.cpp:165] Memory required for data: 1690040600
I0621 16:04:08.924489 10428 layer_factory.hpp:77] Creating layer conv4_8_conv4_8/relu_0_split
I0621 16:04:08.924494 10428 net.cpp:106] Creating Layer conv4_8_conv4_8/relu_0_split
I0621 16:04:08.924496 10428 net.cpp:454] conv4_8_conv4_8/relu_0_split <- conv4_8
I0621 16:04:08.924500 10428 net.cpp:411] conv4_8_conv4_8/relu_0_split -> conv4_8_conv4_8/relu_0_split_0
I0621 16:04:08.924505 10428 net.cpp:411] conv4_8_conv4_8/relu_0_split -> conv4_8_conv4_8/relu_0_split_1
I0621 16:04:08.924528 10428 net.cpp:150] Setting up conv4_8_conv4_8/relu_0_split
I0621 16:04:08.924532 10428 net.cpp:157] Top shape: 1 1024 60 60 (3686400)
I0621 16:04:08.924535 10428 net.cpp:157] Top shape: 1 1024 60 60 (3686400)
I0621 16:04:08.924537 10428 net.cpp:165] Memory required for data: 1719531800
I0621 16:04:08.924540 10428 layer_factory.hpp:77] Creating layer conv4_9_1x1_reduce
I0621 16:04:08.924547 10428 net.cpp:106] Creating Layer conv4_9_1x1_reduce
I0621 16:04:08.924551 10428 net.cpp:454] conv4_9_1x1_reduce <- conv4_8_conv4_8/relu_0_split_0
I0621 16:04:08.924554 10428 net.cpp:411] conv4_9_1x1_reduce -> conv4_9_1x1_reduce
I0621 16:04:08.930166 10428 net.cpp:150] Setting up conv4_9_1x1_reduce
I0621 16:04:08.930178 10428 net.cpp:157] Top shape: 1 256 60 60 (921600)
I0621 16:04:08.930181 10428 net.cpp:165] Memory required for data: 1723218200
I0621 16:04:08.930186 10428 layer_factory.hpp:77] Creating layer conv4_9_1x1_reduce/bn
I0621 16:04:08.930191 10428 net.cpp:106] Creating Layer conv4_9_1x1_reduce/bn
I0621 16:04:08.930196 10428 net.cpp:454] conv4_9_1x1_reduce/bn <- conv4_9_1x1_reduce
I0621 16:04:08.930202 10428 net.cpp:397] conv4_9_1x1_reduce/bn -> conv4_9_1x1_reduce (in-place)
I0621 16:04:08.930341 10428 net.cpp:150] Setting up conv4_9_1x1_reduce/bn
I0621 16:04:08.930346 10428 net.cpp:157] Top shape: 1 256 60 60 (921600)
I0621 16:04:08.930347 10428 net.cpp:165] Memory required for data: 1726904600
I0621 16:04:08.930379 10428 layer_factory.hpp:77] Creating layer conv4_9_1x1_reduce/relu
I0621 16:04:08.930384 10428 net.cpp:106] Creating Layer conv4_9_1x1_reduce/relu
I0621 16:04:08.930387 10428 net.cpp:454] conv4_9_1x1_reduce/relu <- conv4_9_1x1_reduce
I0621 16:04:08.930390 10428 net.cpp:397] conv4_9_1x1_reduce/relu -> conv4_9_1x1_reduce (in-place)
I0621 16:04:08.930394 10428 net.cpp:150] Setting up conv4_9_1x1_reduce/relu
I0621 16:04:08.930398 10428 net.cpp:157] Top shape: 1 256 60 60 (921600)
I0621 16:04:08.930400 10428 net.cpp:165] Memory required for data: 1730591000
I0621 16:04:08.930403 10428 layer_factory.hpp:77] Creating layer conv4_9_3x3
I0621 16:04:08.930409 10428 net.cpp:106] Creating Layer conv4_9_3x3
I0621 16:04:08.930413 10428 net.cpp:454] conv4_9_3x3 <- conv4_9_1x1_reduce
I0621 16:04:08.930418 10428 net.cpp:411] conv4_9_3x3 -> conv4_9_3x3
I0621 16:04:08.943663 10428 net.cpp:150] Setting up conv4_9_3x3
I0621 16:04:08.943708 10428 net.cpp:157] Top shape: 1 256 60 60 (921600)
I0621 16:04:08.943711 10428 net.cpp:165] Memory required for data: 1734277400
I0621 16:04:08.943723 10428 layer_factory.hpp:77] Creating layer conv4_9_3x3/bn
I0621 16:04:08.943742 10428 net.cpp:106] Creating Layer conv4_9_3x3/bn
I0621 16:04:08.943750 10428 net.cpp:454] conv4_9_3x3/bn <- conv4_9_3x3
I0621 16:04:08.943758 10428 net.cpp:397] conv4_9_3x3/bn -> conv4_9_3x3 (in-place)
I0621 16:04:08.943969 10428 net.cpp:150] Setting up conv4_9_3x3/bn
I0621 16:04:08.943976 10428 net.cpp:157] Top shape: 1 256 60 60 (921600)
I0621 16:04:08.943979 10428 net.cpp:165] Memory required for data: 1737963800
I0621 16:04:08.943985 10428 layer_factory.hpp:77] Creating layer conv4_9_3x3/relu
I0621 16:04:08.943992 10428 net.cpp:106] Creating Layer conv4_9_3x3/relu
I0621 16:04:08.943996 10428 net.cpp:454] conv4_9_3x3/relu <- conv4_9_3x3
I0621 16:04:08.944000 10428 net.cpp:397] conv4_9_3x3/relu -> conv4_9_3x3 (in-place)
I0621 16:04:08.944005 10428 net.cpp:150] Setting up conv4_9_3x3/relu
I0621 16:04:08.944008 10428 net.cpp:157] Top shape: 1 256 60 60 (921600)
I0621 16:04:08.944010 10428 net.cpp:165] Memory required for data: 1741650200
I0621 16:04:08.944013 10428 layer_factory.hpp:77] Creating layer conv4_9_1x1_increase
I0621 16:04:08.944020 10428 net.cpp:106] Creating Layer conv4_9_1x1_increase
I0621 16:04:08.944023 10428 net.cpp:454] conv4_9_1x1_increase <- conv4_9_3x3
I0621 16:04:08.944028 10428 net.cpp:411] conv4_9_1x1_increase -> conv4_9_1x1_increase
I0621 16:04:08.950350 10428 net.cpp:150] Setting up conv4_9_1x1_increase
I0621 16:04:08.950367 10428 net.cpp:157] Top shape: 1 1024 60 60 (3686400)
I0621 16:04:08.950371 10428 net.cpp:165] Memory required for data: 1756395800
I0621 16:04:08.950376 10428 layer_factory.hpp:77] Creating layer conv4_9_1x1_increase/bn
I0621 16:04:08.950387 10428 net.cpp:106] Creating Layer conv4_9_1x1_increase/bn
I0621 16:04:08.950392 10428 net.cpp:454] conv4_9_1x1_increase/bn <- conv4_9_1x1_increase
I0621 16:04:08.950397 10428 net.cpp:397] conv4_9_1x1_increase/bn -> conv4_9_1x1_increase (in-place)
I0621 16:04:08.950553 10428 net.cpp:150] Setting up conv4_9_1x1_increase/bn
I0621 16:04:08.950559 10428 net.cpp:157] Top shape: 1 1024 60 60 (3686400)
I0621 16:04:08.950562 10428 net.cpp:165] Memory required for data: 1771141400
I0621 16:04:08.950567 10428 layer_factory.hpp:77] Creating layer conv4_9
I0621 16:04:08.950588 10428 net.cpp:106] Creating Layer conv4_9
I0621 16:04:08.950592 10428 net.cpp:454] conv4_9 <- conv4_8_conv4_8/relu_0_split_1
I0621 16:04:08.950595 10428 net.cpp:454] conv4_9 <- conv4_9_1x1_increase
I0621 16:04:08.950599 10428 net.cpp:411] conv4_9 -> conv4_9
I0621 16:04:08.950615 10428 net.cpp:150] Setting up conv4_9
I0621 16:04:08.950619 10428 net.cpp:157] Top shape: 1 1024 60 60 (3686400)
I0621 16:04:08.950623 10428 net.cpp:165] Memory required for data: 1785887000
I0621 16:04:08.950625 10428 layer_factory.hpp:77] Creating layer conv4_9/relu
I0621 16:04:08.950631 10428 net.cpp:106] Creating Layer conv4_9/relu
I0621 16:04:08.950635 10428 net.cpp:454] conv4_9/relu <- conv4_9
I0621 16:04:08.950639 10428 net.cpp:397] conv4_9/relu -> conv4_9 (in-place)
I0621 16:04:08.950642 10428 net.cpp:150] Setting up conv4_9/relu
I0621 16:04:08.950646 10428 net.cpp:157] Top shape: 1 1024 60 60 (3686400)
I0621 16:04:08.950649 10428 net.cpp:165] Memory required for data: 1800632600
I0621 16:04:08.950652 10428 layer_factory.hpp:77] Creating layer conv4_9_conv4_9/relu_0_split
I0621 16:04:08.950657 10428 net.cpp:106] Creating Layer conv4_9_conv4_9/relu_0_split
I0621 16:04:08.950660 10428 net.cpp:454] conv4_9_conv4_9/relu_0_split <- conv4_9
I0621 16:04:08.950664 10428 net.cpp:411] conv4_9_conv4_9/relu_0_split -> conv4_9_conv4_9/relu_0_split_0
I0621 16:04:08.950669 10428 net.cpp:411] conv4_9_conv4_9/relu_0_split -> conv4_9_conv4_9/relu_0_split_1
I0621 16:04:08.950690 10428 net.cpp:150] Setting up conv4_9_conv4_9/relu_0_split
I0621 16:04:08.950695 10428 net.cpp:157] Top shape: 1 1024 60 60 (3686400)
I0621 16:04:08.950698 10428 net.cpp:157] Top shape: 1 1024 60 60 (3686400)
I0621 16:04:08.950701 10428 net.cpp:165] Memory required for data: 1830123800
I0621 16:04:08.950704 10428 layer_factory.hpp:77] Creating layer conv4_10_1x1_reduce
I0621 16:04:08.950712 10428 net.cpp:106] Creating Layer conv4_10_1x1_reduce
I0621 16:04:08.950716 10428 net.cpp:454] conv4_10_1x1_reduce <- conv4_9_conv4_9/relu_0_split_0
I0621 16:04:08.950721 10428 net.cpp:411] conv4_10_1x1_reduce -> conv4_10_1x1_reduce
I0621 16:04:08.956437 10428 net.cpp:150] Setting up conv4_10_1x1_reduce
I0621 16:04:08.956463 10428 net.cpp:157] Top shape: 1 256 60 60 (921600)
I0621 16:04:08.956466 10428 net.cpp:165] Memory required for data: 1833810200
I0621 16:04:08.956472 10428 layer_factory.hpp:77] Creating layer conv4_10_1x1_reduce/bn
I0621 16:04:08.956482 10428 net.cpp:106] Creating Layer conv4_10_1x1_reduce/bn
I0621 16:04:08.956487 10428 net.cpp:454] conv4_10_1x1_reduce/bn <- conv4_10_1x1_reduce
I0621 16:04:08.956492 10428 net.cpp:397] conv4_10_1x1_reduce/bn -> conv4_10_1x1_reduce (in-place)
I0621 16:04:08.956640 10428 net.cpp:150] Setting up conv4_10_1x1_reduce/bn
I0621 16:04:08.956645 10428 net.cpp:157] Top shape: 1 256 60 60 (921600)
I0621 16:04:08.956648 10428 net.cpp:165] Memory required for data: 1837496600
I0621 16:04:08.956655 10428 layer_factory.hpp:77] Creating layer conv4_10_1x1_reduce/relu
I0621 16:04:08.956660 10428 net.cpp:106] Creating Layer conv4_10_1x1_reduce/relu
I0621 16:04:08.956663 10428 net.cpp:454] conv4_10_1x1_reduce/relu <- conv4_10_1x1_reduce
I0621 16:04:08.956667 10428 net.cpp:397] conv4_10_1x1_reduce/relu -> conv4_10_1x1_reduce (in-place)
I0621 16:04:08.956672 10428 net.cpp:150] Setting up conv4_10_1x1_reduce/relu
I0621 16:04:08.956676 10428 net.cpp:157] Top shape: 1 256 60 60 (921600)
I0621 16:04:08.956678 10428 net.cpp:165] Memory required for data: 1841183000
I0621 16:04:08.956681 10428 layer_factory.hpp:77] Creating layer conv4_10_3x3
I0621 16:04:08.956689 10428 net.cpp:106] Creating Layer conv4_10_3x3
I0621 16:04:08.956692 10428 net.cpp:454] conv4_10_3x3 <- conv4_10_1x1_reduce
I0621 16:04:08.956696 10428 net.cpp:411] conv4_10_3x3 -> conv4_10_3x3
I0621 16:04:08.970444 10428 net.cpp:150] Setting up conv4_10_3x3
I0621 16:04:08.970475 10428 net.cpp:157] Top shape: 1 256 60 60 (921600)
I0621 16:04:08.970479 10428 net.cpp:165] Memory required for data: 1844869400
I0621 16:04:08.970485 10428 layer_factory.hpp:77] Creating layer conv4_10_3x3/bn
I0621 16:04:08.970513 10428 net.cpp:106] Creating Layer conv4_10_3x3/bn
I0621 16:04:08.970520 10428 net.cpp:454] conv4_10_3x3/bn <- conv4_10_3x3
I0621 16:04:08.970525 10428 net.cpp:397] conv4_10_3x3/bn -> conv4_10_3x3 (in-place)
I0621 16:04:08.970679 10428 net.cpp:150] Setting up conv4_10_3x3/bn
I0621 16:04:08.970683 10428 net.cpp:157] Top shape: 1 256 60 60 (921600)
I0621 16:04:08.970686 10428 net.cpp:165] Memory required for data: 1848555800
I0621 16:04:08.970692 10428 layer_factory.hpp:77] Creating layer conv4_10_3x3/relu
I0621 16:04:08.970698 10428 net.cpp:106] Creating Layer conv4_10_3x3/relu
I0621 16:04:08.970701 10428 net.cpp:454] conv4_10_3x3/relu <- conv4_10_3x3
I0621 16:04:08.970705 10428 net.cpp:397] conv4_10_3x3/relu -> conv4_10_3x3 (in-place)
I0621 16:04:08.970710 10428 net.cpp:150] Setting up conv4_10_3x3/relu
I0621 16:04:08.970712 10428 net.cpp:157] Top shape: 1 256 60 60 (921600)
I0621 16:04:08.970715 10428 net.cpp:165] Memory required for data: 1852242200
I0621 16:04:08.970717 10428 layer_factory.hpp:77] Creating layer conv4_10_1x1_increase
I0621 16:04:08.970724 10428 net.cpp:106] Creating Layer conv4_10_1x1_increase
I0621 16:04:08.970727 10428 net.cpp:454] conv4_10_1x1_increase <- conv4_10_3x3
I0621 16:04:08.970731 10428 net.cpp:411] conv4_10_1x1_increase -> conv4_10_1x1_increase
I0621 16:04:08.977114 10428 net.cpp:150] Setting up conv4_10_1x1_increase
I0621 16:04:08.977129 10428 net.cpp:157] Top shape: 1 1024 60 60 (3686400)
I0621 16:04:08.977131 10428 net.cpp:165] Memory required for data: 1866987800
I0621 16:04:08.977135 10428 layer_factory.hpp:77] Creating layer conv4_10_1x1_increase/bn
I0621 16:04:08.977143 10428 net.cpp:106] Creating Layer conv4_10_1x1_increase/bn
I0621 16:04:08.977147 10428 net.cpp:454] conv4_10_1x1_increase/bn <- conv4_10_1x1_increase
I0621 16:04:08.977151 10428 net.cpp:397] conv4_10_1x1_increase/bn -> conv4_10_1x1_increase (in-place)
I0621 16:04:08.977311 10428 net.cpp:150] Setting up conv4_10_1x1_increase/bn
I0621 16:04:08.977316 10428 net.cpp:157] Top shape: 1 1024 60 60 (3686400)
I0621 16:04:08.977319 10428 net.cpp:165] Memory required for data: 1881733400
I0621 16:04:08.977324 10428 layer_factory.hpp:77] Creating layer conv4_10
I0621 16:04:08.977329 10428 net.cpp:106] Creating Layer conv4_10
I0621 16:04:08.977334 10428 net.cpp:454] conv4_10 <- conv4_9_conv4_9/relu_0_split_1
I0621 16:04:08.977336 10428 net.cpp:454] conv4_10 <- conv4_10_1x1_increase
I0621 16:04:08.977340 10428 net.cpp:411] conv4_10 -> conv4_10
I0621 16:04:08.977355 10428 net.cpp:150] Setting up conv4_10
I0621 16:04:08.977360 10428 net.cpp:157] Top shape: 1 1024 60 60 (3686400)
I0621 16:04:08.977361 10428 net.cpp:165] Memory required for data: 1896479000
I0621 16:04:08.977363 10428 layer_factory.hpp:77] Creating layer conv4_10/relu
I0621 16:04:08.977367 10428 net.cpp:106] Creating Layer conv4_10/relu
I0621 16:04:08.977370 10428 net.cpp:454] conv4_10/relu <- conv4_10
I0621 16:04:08.977372 10428 net.cpp:397] conv4_10/relu -> conv4_10 (in-place)
I0621 16:04:08.977376 10428 net.cpp:150] Setting up conv4_10/relu
I0621 16:04:08.977380 10428 net.cpp:157] Top shape: 1 1024 60 60 (3686400)
I0621 16:04:08.977381 10428 net.cpp:165] Memory required for data: 1911224600
I0621 16:04:08.977383 10428 layer_factory.hpp:77] Creating layer conv4_10_conv4_10/relu_0_split
I0621 16:04:08.977387 10428 net.cpp:106] Creating Layer conv4_10_conv4_10/relu_0_split
I0621 16:04:08.977391 10428 net.cpp:454] conv4_10_conv4_10/relu_0_split <- conv4_10
I0621 16:04:08.977396 10428 net.cpp:411] conv4_10_conv4_10/relu_0_split -> conv4_10_conv4_10/relu_0_split_0
I0621 16:04:08.977401 10428 net.cpp:411] conv4_10_conv4_10/relu_0_split -> conv4_10_conv4_10/relu_0_split_1
I0621 16:04:08.977422 10428 net.cpp:150] Setting up conv4_10_conv4_10/relu_0_split
I0621 16:04:08.977427 10428 net.cpp:157] Top shape: 1 1024 60 60 (3686400)
I0621 16:04:08.977428 10428 net.cpp:157] Top shape: 1 1024 60 60 (3686400)
I0621 16:04:08.977430 10428 net.cpp:165] Memory required for data: 1940715800
I0621 16:04:08.977432 10428 layer_factory.hpp:77] Creating layer conv4_11_1x1_reduce
I0621 16:04:08.977449 10428 net.cpp:106] Creating Layer conv4_11_1x1_reduce
I0621 16:04:08.977452 10428 net.cpp:454] conv4_11_1x1_reduce <- conv4_10_conv4_10/relu_0_split_0
I0621 16:04:08.977458 10428 net.cpp:411] conv4_11_1x1_reduce -> conv4_11_1x1_reduce
I0621 16:04:08.983088 10428 net.cpp:150] Setting up conv4_11_1x1_reduce
I0621 16:04:08.983098 10428 net.cpp:157] Top shape: 1 256 60 60 (921600)
I0621 16:04:08.983100 10428 net.cpp:165] Memory required for data: 1944402200
I0621 16:04:08.983104 10428 layer_factory.hpp:77] Creating layer conv4_11_1x1_reduce/bn
I0621 16:04:08.983110 10428 net.cpp:106] Creating Layer conv4_11_1x1_reduce/bn
I0621 16:04:08.983115 10428 net.cpp:454] conv4_11_1x1_reduce/bn <- conv4_11_1x1_reduce
I0621 16:04:08.983120 10428 net.cpp:397] conv4_11_1x1_reduce/bn -> conv4_11_1x1_reduce (in-place)
I0621 16:04:08.983261 10428 net.cpp:150] Setting up conv4_11_1x1_reduce/bn
I0621 16:04:08.983266 10428 net.cpp:157] Top shape: 1 256 60 60 (921600)
I0621 16:04:08.983269 10428 net.cpp:165] Memory required for data: 1948088600
I0621 16:04:08.983275 10428 layer_factory.hpp:77] Creating layer conv4_11_1x1_reduce/relu
I0621 16:04:08.983283 10428 net.cpp:106] Creating Layer conv4_11_1x1_reduce/relu
I0621 16:04:08.983285 10428 net.cpp:454] conv4_11_1x1_reduce/relu <- conv4_11_1x1_reduce
I0621 16:04:08.983289 10428 net.cpp:397] conv4_11_1x1_reduce/relu -> conv4_11_1x1_reduce (in-place)
I0621 16:04:08.983292 10428 net.cpp:150] Setting up conv4_11_1x1_reduce/relu
I0621 16:04:08.983295 10428 net.cpp:157] Top shape: 1 256 60 60 (921600)
I0621 16:04:08.983299 10428 net.cpp:165] Memory required for data: 1951775000
I0621 16:04:08.983301 10428 layer_factory.hpp:77] Creating layer conv4_11_3x3
I0621 16:04:08.983307 10428 net.cpp:106] Creating Layer conv4_11_3x3
I0621 16:04:08.983310 10428 net.cpp:454] conv4_11_3x3 <- conv4_11_1x1_reduce
I0621 16:04:08.983314 10428 net.cpp:411] conv4_11_3x3 -> conv4_11_3x3
I0621 16:04:08.996516 10428 net.cpp:150] Setting up conv4_11_3x3
I0621 16:04:08.996541 10428 net.cpp:157] Top shape: 1 256 60 60 (921600)
I0621 16:04:08.996544 10428 net.cpp:165] Memory required for data: 1955461400
I0621 16:04:08.996552 10428 layer_factory.hpp:77] Creating layer conv4_11_3x3/bn
I0621 16:04:08.996567 10428 net.cpp:106] Creating Layer conv4_11_3x3/bn
I0621 16:04:08.996573 10428 net.cpp:454] conv4_11_3x3/bn <- conv4_11_3x3
I0621 16:04:08.996578 10428 net.cpp:397] conv4_11_3x3/bn -> conv4_11_3x3 (in-place)
I0621 16:04:08.996733 10428 net.cpp:150] Setting up conv4_11_3x3/bn
I0621 16:04:08.996738 10428 net.cpp:157] Top shape: 1 256 60 60 (921600)
I0621 16:04:08.996742 10428 net.cpp:165] Memory required for data: 1959147800
I0621 16:04:08.996747 10428 layer_factory.hpp:77] Creating layer conv4_11_3x3/relu
I0621 16:04:08.996752 10428 net.cpp:106] Creating Layer conv4_11_3x3/relu
I0621 16:04:08.996754 10428 net.cpp:454] conv4_11_3x3/relu <- conv4_11_3x3
…
I0621 16:04:09.289664 10428 net.cpp:454] conv4_21 <- conv4_20_conv4_20/relu_0_split_1
I0621 16:04:09.289669 10428 net.cpp:454] conv4_21 <- conv4_21_1x1_increase
I0621 16:04:09.289674 10428 net.cpp:411] conv4_21 -> conv4_21
I0621 16:04:09.289702 10428 net.cpp:150] Setting up conv4_21
I0621 16:04:09.289708 10428 net.cpp:157] Top shape: 1 1024 60 60 (3686400)
I0621 16:04:09.289711 10428 net.cpp:165] Memory required for data: 3112991000
I0621 16:04:09.289716 10428 layer_factory.hpp:77] Creating layer conv4_21/relu
I0621 16:04:09.289731 10428 net.cpp:106] Creating Layer conv4_21/relu
I0621 16:04:09.289736 10428 net.cpp:454] conv4_21/relu <- conv4_21
I0621 16:04:09.289741 10428 net.cpp:397] conv4_21/relu -> conv4_21 (in-place)
I0621 16:04:09.289748 10428 net.cpp:150] Setting up conv4_21/relu
I0621 16:04:09.289753 10428 net.cpp:157] Top shape: 1 1024 60 60 (3686400)
I0621 16:04:09.289757 10428 net.cpp:165] Memory required for data: 3127736600
I0621 16:04:09.289762 10428 layer_factory.hpp:77] Creating layer conv4_21_conv4_21/relu_0_split
I0621 16:04:09.289774 10428 net.cpp:106] Creating Layer conv4_21_conv4_21/relu_0_split
I0621 16:04:09.289778 10428 net.cpp:454] conv4_21_conv4_21/relu_0_split <- conv4_21
I0621 16:04:09.289785 10428 net.cpp:411] conv4_21_conv4_21/relu_0_split -> conv4_21_conv4_21/relu_0_split_0
I0621 16:04:09.289791 10428 net.cpp:411] conv4_21_conv4_21/relu_0_split -> conv4_21_conv4_21/relu_0_split_1
I0621 16:04:09.289831 10428 net.cpp:150] Setting up conv4_21_conv4_21/relu_0_split
I0621 16:04:09.289837 10428 net.cpp:157] Top shape: 1 1024 60 60 (3686400)
I0621 16:04:09.289842 10428 net.cpp:157] Top shape: 1 1024 60 60 (3686400)
I0621 16:04:09.289896 10428 net.cpp:165] Memory required for data: 3157227800
I0621 16:04:09.289901 10428 layer_factory.hpp:77] Creating layer conv4_22_1x1_reduce
I0621 16:04:09.289916 10428 net.cpp:106] Creating Layer conv4_22_1x1_reduce
I0621 16:04:09.289922 10428 net.cpp:454] conv4_22_1x1_reduce <- conv4_21_conv4_21/relu_0_split_0
I0621 16:04:09.289928 10428 net.cpp:411] conv4_22_1x1_reduce -> conv4_22_1x1_reduce
I0621 16:04:09.297341 10428 net.cpp:150] Setting up conv4_22_1x1_reduce
I0621 16:04:09.297363 10428 net.cpp:157] Top shape: 1 256 60 60 (921600)
I0621 16:04:09.297364 10428 net.cpp:165] Memory required for data: 3160914200
I0621 16:04:09.297369 10428 layer_factory.hpp:77] Creating layer conv4_22_1x1_reduce/bn
I0621 16:04:09.297381 10428 net.cpp:106] Creating Layer conv4_22_1x1_reduce/bn
I0621 16:04:09.297389 10428 net.cpp:454] conv4_22_1x1_reduce/bn <- conv4_22_1x1_reduce
I0621 16:04:09.297399 10428 net.cpp:397] conv4_22_1x1_reduce/bn -> conv4_22_1x1_reduce (in-place)
I0621 16:04:09.297586 10428 net.cpp:150] Setting up conv4_22_1x1_reduce/bn
I0621 16:04:09.297591 10428 net.cpp:157] Top shape: 1 256 60 60 (921600)
I0621 16:04:09.297593 10428 net.cpp:165] Memory required for data: 3164600600
I0621 16:04:09.297597 10428 layer_factory.hpp:77] Creating layer conv4_22_1x1_reduce/relu
I0621 16:04:09.297602 10428 net.cpp:106] Creating Layer conv4_22_1x1_reduce/relu
I0621 16:04:09.297605 10428 net.cpp:454] conv4_22_1x1_reduce/relu <- conv4_22_1x1_reduce
I0621 16:04:09.297606 10428 net.cpp:397] conv4_22_1x1_reduce/relu -> conv4_22_1x1_reduce (in-place)
I0621 16:04:09.297610 10428 net.cpp:150] Setting up conv4_22_1x1_reduce/relu
I0621 16:04:09.297613 10428 net.cpp:157] Top shape: 1 256 60 60 (921600)
I0621 16:04:09.297616 10428 net.cpp:165] Memory required for data: 3168287000
I0621 16:04:09.297617 10428 layer_factory.hpp:77] Creating layer conv4_22_3x3
I0621 16:04:09.297623 10428 net.cpp:106] Creating Layer conv4_22_3x3
I0621 16:04:09.297627 10428 net.cpp:454] conv4_22_3x3 <- conv4_22_1x1_reduce
I0621 16:04:09.297632 10428 net.cpp:411] conv4_22_3x3 -> conv4_22_3x3
I0621 16:04:09.310883 10428 net.cpp:150] Setting up conv4_22_3x3
I0621 16:04:09.310907 10428 net.cpp:157] Top shape: 1 256 60 60 (921600)
I0621 16:04:09.310910 10428 net.cpp:165] Memory required for data: 3171973400
I0621 16:04:09.310915 10428 layer_factory.hpp:77] Creating layer conv4_22_3x3/bn
I0621 16:04:09.310925 10428 net.cpp:106] Creating Layer conv4_22_3x3/bn
I0621 16:04:09.310930 10428 net.cpp:454] conv4_22_3x3/bn <- conv4_22_3x3
I0621 16:04:09.310935 10428 net.cpp:397] conv4_22_3x3/bn -> conv4_22_3x3 (in-place)
I0621 16:04:09.311094 10428 net.cpp:150] Setting up conv4_22_3x3/bn
I0621 16:04:09.311100 10428 net.cpp:157] Top shape: 1 256 60 60 (921600)
I0621 16:04:09.311101 10428 net.cpp:165] Memory required for data: 3175659800
I0621 16:04:09.311107 10428 layer_factory.hpp:77] Creating layer conv4_22_3x3/relu
I0621 16:04:09.311112 10428 net.cpp:106] Creating Layer conv4_22_3x3/relu
I0621 16:04:09.311115 10428 net.cpp:454] conv4_22_3x3/relu <- conv4_22_3x3
I0621 16:04:09.311118 10428 net.cpp:397] conv4_22_3x3/relu -> conv4_22_3x3 (in-place)
I0621 16:04:09.311122 10428 net.cpp:150] Setting up conv4_22_3x3/relu
I0621 16:04:09.311126 10428 net.cpp:157] Top shape: 1 256 60 60 (921600)
I0621 16:04:09.311128 10428 net.cpp:165] Memory required for data: 3179346200
I0621 16:04:09.311131 10428 layer_factory.hpp:77] Creating layer conv4_22_1x1_increase
I0621 16:04:09.311141 10428 net.cpp:106] Creating Layer conv4_22_1x1_increase
I0621 16:04:09.311143 10428 net.cpp:454] conv4_22_1x1_increase <- conv4_22_3x3
I0621 16:04:09.311147 10428 net.cpp:411] conv4_22_1x1_increase -> conv4_22_1x1_increase
I0621 16:04:09.317519 10428 net.cpp:150] Setting up conv4_22_1x1_increase
I0621 16:04:09.317533 10428 net.cpp:157] Top shape: 1 1024 60 60 (3686400)
I0621 16:04:09.317535 10428 net.cpp:165] Memory required for data: 3194091800
I0621 16:04:09.317540 10428 layer_factory.hpp:77] Creating layer conv4_22_1x1_increase/bn
I0621 16:04:09.317567 10428 net.cpp:106] Creating Layer conv4_22_1x1_increase/bn
I0621 16:04:09.317574 10428 net.cpp:454] conv4_22_1x1_increase/bn <- conv4_22_1x1_increase
I0621 16:04:09.317579 10428 net.cpp:397] conv4_22_1x1_increase/bn -> conv4_22_1x1_increase (in-place)
I0621 16:04:09.317760 10428 net.cpp:150] Setting up conv4_22_1x1_increase/bn
I0621 16:04:09.317765 10428 net.cpp:157] Top shape: 1 1024 60 60 (3686400)
I0621 16:04:09.317769 10428 net.cpp:165] Memory required for data: 3208837400
I0621 16:04:09.317775 10428 layer_factory.hpp:77] Creating layer conv4_22
I0621 16:04:09.317778 10428 net.cpp:106] Creating Layer conv4_22
I0621 16:04:09.317782 10428 net.cpp:454] conv4_22 <- conv4_21_conv4_21/relu_0_split_1
I0621 16:04:09.317785 10428 net.cpp:454] conv4_22 <- conv4_22_1x1_increase
I0621 16:04:09.317790 10428 net.cpp:411] conv4_22 -> conv4_22
I0621 16:04:09.317806 10428 net.cpp:150] Setting up conv4_22
I0621 16:04:09.317809 10428 net.cpp:157] Top shape: 1 1024 60 60 (3686400)
I0621 16:04:09.317811 10428 net.cpp:165] Memory required for data: 3223583000
I0621 16:04:09.317814 10428 layer_factory.hpp:77] Creating layer conv4_22/relu
I0621 16:04:09.317819 10428 net.cpp:106] Creating Layer conv4_22/relu
I0621 16:04:09.317822 10428 net.cpp:454] conv4_22/relu <- conv4_22
I0621 16:04:09.317826 10428 net.cpp:397] conv4_22/relu -> conv4_22 (in-place)
I0621 16:04:09.317831 10428 net.cpp:150] Setting up conv4_22/relu
I0621 16:04:09.317834 10428 net.cpp:157] Top shape: 1 1024 60 60 (3686400)
I0621 16:04:09.317836 10428 net.cpp:165] Memory required for data: 3238328600
I0621 16:04:09.317839 10428 layer_factory.hpp:77] Creating layer conv4_22_conv4_22/relu_0_split
I0621 16:04:09.317843 10428 net.cpp:106] Creating Layer conv4_22_conv4_22/relu_0_split
I0621 16:04:09.317845 10428 net.cpp:454] conv4_22_conv4_22/relu_0_split <- conv4_22
I0621 16:04:09.317850 10428 net.cpp:411] conv4_22_conv4_22/relu_0_split -> conv4_22_conv4_22/relu_0_split_0
I0621 16:04:09.317854 10428 net.cpp:411] conv4_22_conv4_22/relu_0_split -> conv4_22_conv4_22/relu_0_split_1
I0621 16:04:09.317879 10428 net.cpp:150] Setting up conv4_22_conv4_22/relu_0_split
I0621 16:04:09.317883 10428 net.cpp:157] Top shape: 1 1024 60 60 (3686400)
I0621 16:04:09.317886 10428 net.cpp:157] Top shape: 1 1024 60 60 (3686400)
I0621 16:04:09.317888 10428 net.cpp:165] Memory required for data: 3267819800
I0621 16:04:09.317891 10428 layer_factory.hpp:77] Creating layer conv4_23_1x1_reduce
I0621 16:04:09.317901 10428 net.cpp:106] Creating Layer conv4_23_1x1_reduce
I0621 16:04:09.317904 10428 net.cpp:454] conv4_23_1x1_reduce <- conv4_22_conv4_22/relu_0_split_0
I0621 16:04:09.317909 10428 net.cpp:411] conv4_23_1x1_reduce -> conv4_23_1x1_reduce
I0621 16:04:09.323551 10428 net.cpp:150] Setting up conv4_23_1x1_reduce
I0621 16:04:09.323575 10428 net.cpp:157] Top shape: 1 256 60 60 (921600)
I0621 16:04:09.323578 10428 net.cpp:165] Memory required for data: 3271506200
I0621 16:04:09.323587 10428 layer_factory.hpp:77] Creating layer conv4_23_1x1_reduce/bn
I0621 16:04:09.323601 10428 net.cpp:106] Creating Layer conv4_23_1x1_reduce/bn
I0621 16:04:09.323608 10428 net.cpp:454] conv4_23_1x1_reduce/bn <- conv4_23_1x1_reduce
I0621 16:04:09.323614 10428 net.cpp:397] conv4_23_1x1_reduce/bn -> conv4_23_1x1_reduce (in-place)
I0621 16:04:09.323784 10428 net.cpp:150] Setting up conv4_23_1x1_reduce/bn
I0621 16:04:09.323789 10428 net.cpp:157] Top shape: 1 256 60 60 (921600)
I0621 16:04:09.323792 10428 net.cpp:165] Memory required for data: 3275192600
I0621 16:04:09.323797 10428 layer_factory.hpp:77] Creating layer conv4_23_1x1_reduce/relu
I0621 16:04:09.323804 10428 net.cpp:106] Creating Layer conv4_23_1x1_reduce/relu
I0621 16:04:09.323807 10428 net.cpp:454] conv4_23_1x1_reduce/relu <- conv4_23_1x1_reduce
I0621 16:04:09.323810 10428 net.cpp:397] conv4_23_1x1_reduce/relu -> conv4_23_1x1_reduce (in-place)
I0621 16:04:09.323814 10428 net.cpp:150] Setting up conv4_23_1x1_reduce/relu
I0621 16:04:09.323817 10428 net.cpp:157] Top shape: 1 256 60 60 (921600)
I0621 16:04:09.323820 10428 net.cpp:165] Memory required for data: 3278879000
I0621 16:04:09.323843 10428 layer_factory.hpp:77] Creating layer conv4_23_3x3
I0621 16:04:09.323850 10428 net.cpp:106] Creating Layer conv4_23_3x3
I0621 16:04:09.323853 10428 net.cpp:454] conv4_23_3x3 <- conv4_23_1x1_reduce
I0621 16:04:09.323858 10428 net.cpp:411] conv4_23_3x3 -> conv4_23_3x3
I0621 16:04:09.338244 10428 net.cpp:150] Setting up conv4_23_3x3
I0621 16:04:09.338311 10428 net.cpp:157] Top shape: 1 256 60 60 (921600)
I0621 16:04:09.338318 10428 net.cpp:165] Memory required for data: 3282565400
I0621 16:04:09.338335 10428 layer_factory.hpp:77] Creating layer conv4_23_3x3/bn
I0621 16:04:09.338364 10428 net.cpp:106] Creating Layer conv4_23_3x3/bn
I0621 16:04:09.338376 10428 net.cpp:454] conv4_23_3x3/bn <- conv4_23_3x3
I0621 16:04:09.338387 10428 net.cpp:397] conv4_23_3x3/bn -> conv4_23_3x3 (in-place)
I0621 16:04:09.338670 10428 net.cpp:150] Setting up conv4_23_3x3/bn
I0621 16:04:09.338680 10428 net.cpp:157] Top shape: 1 256 60 60 (921600)
I0621 16:04:09.338685 10428 net.cpp:165] Memory required for data: 3286251800
I0621 16:04:09.338692 10428 layer_factory.hpp:77] Creating layer conv4_23_3x3/relu
I0621 16:04:09.338703 10428 net.cpp:106] Creating Layer conv4_23_3x3/relu
I0621 16:04:09.338708 10428 net.cpp:454] conv4_23_3x3/relu <- conv4_23_3x3
I0621 16:04:09.338713 10428 net.cpp:397] conv4_23_3x3/relu -> conv4_23_3x3 (in-place)
I0621 16:04:09.338719 10428 net.cpp:150] Setting up conv4_23_3x3/relu
I0621 16:04:09.338724 10428 net.cpp:157] Top shape: 1 256 60 60 (921600)
I0621 16:04:09.338728 10428 net.cpp:165] Memory required for data: 3289938200
I0621 16:04:09.338732 10428 layer_factory.hpp:77] Creating layer conv4_23_1x1_increase
I0621 16:04:09.338747 10428 net.cpp:106] Creating Layer conv4_23_1x1_increase
I0621 16:04:09.338752 10428 net.cpp:454] conv4_23_1x1_increase <- conv4_23_3x3
I0621 16:04:09.338758 10428 net.cpp:411] conv4_23_1x1_increase -> conv4_23_1x1_increase
I0621 16:04:09.348981 10428 net.cpp:150] Setting up conv4_23_1x1_increase
I0621 16:04:09.349062 10428 net.cpp:157] Top shape: 1 1024 60 60 (3686400)
I0621 16:04:09.349069 10428 net.cpp:165] Memory required for data: 3304683800
I0621 16:04:09.349086 10428 layer_factory.hpp:77] Creating layer conv4_23_1x1_increase/bn
I0621 16:04:09.349115 10428 net.cpp:106] Creating Layer conv4_23_1x1_increase/bn
I0621 16:04:09.349126 10428 net.cpp:454] conv4_23_1x1_increase/bn <- conv4_23_1x1_increase
I0621 16:04:09.349141 10428 net.cpp:397] conv4_23_1x1_increase/bn -> conv4_23_1x1_increase (in-place)
I0621 16:04:09.349473 10428 net.cpp:150] Setting up conv4_23_1x1_increase/bn
I0621 16:04:09.349485 10428 net.cpp:157] Top shape: 1 1024 60 60 (3686400)
I0621 16:04:09.349490 10428 net.cpp:165] Memory required for data: 3319429400
I0621 16:04:09.349499 10428 layer_factory.hpp:77] Creating layer conv4_23
I0621 16:04:09.349512 10428 net.cpp:106] Creating Layer conv4_23
I0621 16:04:09.349519 10428 net.cpp:454] conv4_23 <- conv4_22_conv4_22/relu_0_split_1
I0621 16:04:09.349525 10428 net.cpp:454] conv4_23 <- conv4_23_1x1_increase
I0621 16:04:09.349532 10428 net.cpp:411] conv4_23 -> conv4_23
I0621 16:04:09.349560 10428 net.cpp:150] Setting up conv4_23
I0621 16:04:09.349567 10428 net.cpp:157] Top shape: 1 1024 60 60 (3686400)
I0621 16:04:09.349571 10428 net.cpp:165] Memory required for data: 3334175000
I0621 16:04:09.349575 10428 layer_factory.hpp:77] Creating layer conv4_23/relu
I0621 16:04:09.349589 10428 net.cpp:106] Creating Layer conv4_23/relu
I0621 16:04:09.349594 10428 net.cpp:454] conv4_23/relu <- conv4_23
I0621 16:04:09.349601 10428 net.cpp:397] conv4_23/relu -> conv4_23 (in-place)
I0621 16:04:09.349607 10428 net.cpp:150] Setting up conv4_23/relu
I0621 16:04:09.349612 10428 net.cpp:157] Top shape: 1 1024 60 60 (3686400)
I0621 16:04:09.349617 10428 net.cpp:165] Memory required for data: 3348920600
I0621 16:04:09.349622 10428 layer_factory.hpp:77] Creating layer conv4_23_conv4_23/relu_0_split
I0621 16:04:09.349630 10428 net.cpp:106] Creating Layer conv4_23_conv4_23/relu_0_split
I0621 16:04:09.349634 10428 net.cpp:454] conv4_23_conv4_23/relu_0_split <- conv4_23
I0621 16:04:09.349690 10428 net.cpp:411] conv4_23_conv4_23/relu_0_split -> conv4_23_conv4_23/relu_0_split_0
I0621 16:04:09.349697 10428 net.cpp:411] conv4_23_conv4_23/relu_0_split -> conv4_23_conv4_23/relu_0_split_1
I0621 16:04:09.349732 10428 net.cpp:150] Setting up conv4_23_conv4_23/relu_0_split
I0621 16:04:09.349738 10428 net.cpp:157] Top shape: 1 1024 60 60 (3686400)
I0621 16:04:09.349745 10428 net.cpp:157] Top shape: 1 1024 60 60 (3686400)
I0621 16:04:09.349747 10428 net.cpp:165] Memory required for data: 3378411800
I0621 16:04:09.349752 10428 layer_factory.hpp:77] Creating layer conv5_1_1x1_reduce
I0621 16:04:09.349768 10428 net.cpp:106] Creating Layer conv5_1_1x1_reduce
I0621 16:04:09.349773 10428 net.cpp:454] conv5_1_1x1_reduce <- conv4_23_conv4_23/relu_0_split_0
I0621 16:04:09.349789 10428 net.cpp:411] conv5_1_1x1_reduce -> conv5_1_1x1_reduce
I0621 16:04:09.362013 10428 net.cpp:150] Setting up conv5_1_1x1_reduce
I0621 16:04:09.362032 10428 net.cpp:157] Top shape: 1 512 60 60 (1843200)
I0621 16:04:09.362035 10428 net.cpp:165] Memory required for data: 3385784600
I0621 16:04:09.362041 10428 layer_factory.hpp:77] Creating layer conv5_1_1x1_reduce/bn
I0621 16:04:09.362052 10428 net.cpp:106] Creating Layer conv5_1_1x1_reduce/bn
I0621 16:04:09.362057 10428 net.cpp:454] conv5_1_1x1_reduce/bn <- conv5_1_1x1_reduce
I0621 16:04:09.362066 10428 net.cpp:397] conv5_1_1x1_reduce/bn -> conv5_1_1x1_reduce (in-place)
I0621 16:04:09.362247 10428 net.cpp:150] Setting up conv5_1_1x1_reduce/bn
I0621 16:04:09.362251 10428 net.cpp:157] Top shape: 1 512 60 60 (1843200)
I0621 16:04:09.362253 10428 net.cpp:165] Memory required for data: 3393157400
I0621 16:04:09.362258 10428 layer_factory.hpp:77] Creating layer conv5_1_1x1_reduce/relu
I0621 16:04:09.362262 10428 net.cpp:106] Creating Layer conv5_1_1x1_reduce/relu
I0621 16:04:09.362265 10428 net.cpp:454] conv5_1_1x1_reduce/relu <- conv5_1_1x1_reduce
I0621 16:04:09.362267 10428 net.cpp:397] conv5_1_1x1_reduce/relu -> conv5_1_1x1_reduce (in-place)
I0621 16:04:09.362272 10428 net.cpp:150] Setting up conv5_1_1x1_reduce/relu
I0621 16:04:09.362274 10428 net.cpp:157] Top shape: 1 512 60 60 (1843200)
I0621 16:04:09.362277 10428 net.cpp:165] Memory required for data: 3400530200
I0621 16:04:09.362278 10428 layer_factory.hpp:77] Creating layer conv5_1_3x3
I0621 16:04:09.362285 10428 net.cpp:106] Creating Layer conv5_1_3x3
I0621 16:04:09.362288 10428 net.cpp:454] conv5_1_3x3 <- conv5_1_1x1_reduce
I0621 16:04:09.362293 10428 net.cpp:411] conv5_1_3x3 -> conv5_1_3x3
I0621 16:04:09.418248 10428 net.cpp:150] Setting up conv5_1_3x3
I0621 16:04:09.418272 10428 net.cpp:157] Top shape: 1 512 60 60 (1843200)
I0621 16:04:09.418275 10428 net.cpp:165] Memory required for data: 3407903000
I0621 16:04:09.418282 10428 layer_factory.hpp:77] Creating layer conv5_1_3x3/bn
I0621 16:04:09.418290 10428 net.cpp:106] Creating Layer conv5_1_3x3/bn
I0621 16:04:09.418295 10428 net.cpp:454] conv5_1_3x3/bn <- conv5_1_3x3
I0621 16:04:09.418318 10428 net.cpp:397] conv5_1_3x3/bn -> conv5_1_3x3 (in-place)
I0621 16:04:09.418503 10428 net.cpp:150] Setting up conv5_1_3x3/bn
I0621 16:04:09.418509 10428 net.cpp:157] Top shape: 1 512 60 60 (1843200)
I0621 16:04:09.418511 10428 net.cpp:165] Memory required for data: 3415275800
I0621 16:04:09.418516 10428 layer_factory.hpp:77] Creating layer conv5_1_3x3/relu
I0621 16:04:09.418522 10428 net.cpp:106] Creating Layer conv5_1_3x3/relu
I0621 16:04:09.418524 10428 net.cpp:454] conv5_1_3x3/relu <- conv5_1_3x3
I0621 16:04:09.418529 10428 net.cpp:397] conv5_1_3x3/relu -> conv5_1_3x3 (in-place)
I0621 16:04:09.418532 10428 net.cpp:150] Setting up conv5_1_3x3/relu
I0621 16:04:09.418535 10428 net.cpp:157] Top shape: 1 512 60 60 (1843200)
I0621 16:04:09.418539 10428 net.cpp:165] Memory required for data: 3422648600
I0621 16:04:09.418540 10428 layer_factory.hpp:77] Creating layer conv5_1_1x1_increase
I0621 16:04:09.418548 10428 net.cpp:106] Creating Layer conv5_1_1x1_increase
I0621 16:04:09.418551 10428 net.cpp:454] conv5_1_1x1_increase <- conv5_1_3x3
I0621 16:04:09.418557 10428 net.cpp:411] conv5_1_1x1_increase -> conv5_1_1x1_increase
I0621 16:04:09.441721 10428 net.cpp:150] Setting up conv5_1_1x1_increase
I0621 16:04:09.441745 10428 net.cpp:157] Top shape: 1 2048 60 60 (7372800)
I0621 16:04:09.441750 10428 net.cpp:165] Memory required for data: 3452139800
I0621 16:04:09.441756 10428 layer_factory.hpp:77] Creating layer conv5_1_1x1_increase/bn
I0621 16:04:09.441766 10428 net.cpp:106] Creating Layer conv5_1_1x1_increase/bn
I0621 16:04:09.441771 10428 net.cpp:454] conv5_1_1x1_increase/bn <- conv5_1_1x1_increase
I0621 16:04:09.441776 10428 net.cpp:397] conv5_1_1x1_increase/bn -> conv5_1_1x1_increase (in-place)
I0621 16:04:09.441963 10428 net.cpp:150] Setting up conv5_1_1x1_increase/bn
I0621 16:04:09.441968 10428 net.cpp:157] Top shape: 1 2048 60 60 (7372800)
I0621 16:04:09.441972 10428 net.cpp:165] Memory required for data: 3481631000
I0621 16:04:09.441977 10428 layer_factory.hpp:77] Creating layer conv5_1_1x1_proj
I0621 16:04:09.441987 10428 net.cpp:106] Creating Layer conv5_1_1x1_proj
I0621 16:04:09.441992 10428 net.cpp:454] conv5_1_1x1_proj <- conv4_23_conv4_23/relu_0_split_1
I0621 16:04:09.441997 10428 net.cpp:411] conv5_1_1x1_proj -> conv5_1_1x1_proj
I0621 16:04:09.495447 10428 net.cpp:150] Setting up conv5_1_1x1_proj
I0621 16:04:09.495471 10428 net.cpp:157] Top shape: 1 2048 60 60 (7372800)
I0621 16:04:09.495476 10428 net.cpp:165] Memory required for data: 3511122200
I0621 16:04:09.495484 10428 layer_factory.hpp:77] Creating layer conv5_1_1x1_proj/bn
I0621 16:04:09.495497 10428 net.cpp:106] Creating Layer conv5_1_1x1_proj/bn
I0621 16:04:09.495504 10428 net.cpp:454] conv5_1_1x1_proj/bn <- conv5_1_1x1_proj
I0621 16:04:09.495512 10428 net.cpp:397] conv5_1_1x1_proj/bn -> conv5_1_1x1_proj (in-place)
I0621 16:04:09.495759 10428 net.cpp:150] Setting up conv5_1_1x1_proj/bn
I0621 16:04:09.495766 10428 net.cpp:157] Top shape: 1 2048 60 60 (7372800)
I0621 16:04:09.495770 10428 net.cpp:165] Memory required for data: 3540613400
I0621 16:04:09.495779 10428 layer_factory.hpp:77] Creating layer conv5_1
I0621 16:04:09.495785 10428 net.cpp:106] Creating Layer conv5_1
I0621 16:04:09.495790 10428 net.cpp:454] conv5_1 <- conv5_1_1x1_proj
I0621 16:04:09.495795 10428 net.cpp:454] conv5_1 <- conv5_1_1x1_increase
I0621 16:04:09.495800 10428 net.cpp:411] conv5_1 -> conv5_1
I0621 16:04:09.495823 10428 net.cpp:150] Setting up conv5_1
I0621 16:04:09.495828 10428 net.cpp:157] Top shape: 1 2048 60 60 (7372800)
I0621 16:04:09.495832 10428 net.cpp:165] Memory required for data: 3570104600
I0621 16:04:09.495836 10428 layer_factory.hpp:77] Creating layer conv5_1/relu
I0621 16:04:09.495841 10428 net.cpp:106] Creating Layer conv5_1/relu
I0621 16:04:09.495846 10428 net.cpp:454] conv5_1/relu <- conv5_1
I0621 16:04:09.495853 10428 net.cpp:397] conv5_1/relu -> conv5_1 (in-place)
I0621 16:04:09.495859 10428 net.cpp:150] Setting up conv5_1/relu
I0621 16:04:09.495864 10428 net.cpp:157] Top shape: 1 2048 60 60 (7372800)
I0621 16:04:09.495868 10428 net.cpp:165] Memory required for data: 3599595800
I0621 16:04:09.495872 10428 layer_factory.hpp:77] Creating layer conv5_1_conv5_1/relu_0_split
I0621 16:04:09.495877 10428 net.cpp:106] Creating Layer conv5_1_conv5_1/relu_0_split
I0621 16:04:09.495882 10428 net.cpp:454] conv5_1_conv5_1/relu_0_split <- conv5_1
I0621 16:04:09.495887 10428 net.cpp:411] conv5_1_conv5_1/relu_0_split -> conv5_1_conv5_1/relu_0_split_0
I0621 16:04:09.495892 10428 net.cpp:411] conv5_1_conv5_1/relu_0_split -> conv5_1_conv5_1/relu_0_split_1
I0621 16:04:09.495925 10428 net.cpp:150] Setting up conv5_1_conv5_1/relu_0_split
I0621 16:04:09.495930 10428 net.cpp:157] Top shape: 1 2048 60 60 (7372800)
I0621 16:04:09.495935 10428 net.cpp:157] Top shape: 1 2048 60 60 (7372800)
I0621 16:04:09.495939 10428 net.cpp:165] Memory required for data: 3658578200
I0621 16:04:09.495941 10428 layer_factory.hpp:77] Creating layer conv5_2_1x1_reduce
I0621 16:04:09.495949 10428 net.cpp:106] Creating Layer conv5_2_1x1_reduce
I0621 16:04:09.495954 10428 net.cpp:454] conv5_2_1x1_reduce <- conv5_1_conv5_1/relu_0_split_0
I0621 16:04:09.495959 10428 net.cpp:411] conv5_2_1x1_reduce -> conv5_2_1x1_reduce
I0621 16:04:09.522115 10428 net.cpp:150] Setting up conv5_2_1x1_reduce
I0621 16:04:09.522164 10428 net.cpp:157] Top shape: 1 512 60 60 (1843200)
I0621 16:04:09.522169 10428 net.cpp:165] Memory required for data: 3665951000
I0621 16:04:09.522178 10428 layer_factory.hpp:77] Creating layer conv5_2_1x1_reduce/bn
I0621 16:04:09.522189 10428 net.cpp:106] Creating Layer conv5_2_1x1_reduce/bn
I0621 16:04:09.522195 10428 net.cpp:454] conv5_2_1x1_reduce/bn <- conv5_2_1x1_reduce
I0621 16:04:09.522202 10428 net.cpp:397] conv5_2_1x1_reduce/bn -> conv5_2_1x1_reduce (in-place)
I0621 16:04:09.522408 10428 net.cpp:150] Setting up conv5_2_1x1_reduce/bn
I0621 16:04:09.522414 10428 net.cpp:157] Top shape: 1 512 60 60 (1843200)
I0621 16:04:09.522418 10428 net.cpp:165] Memory required for data: 3673323800
I0621 16:04:09.522423 10428 layer_factory.hpp:77] Creating layer conv5_2_1x1_reduce/relu
I0621 16:04:09.522428 10428 net.cpp:106] Creating Layer conv5_2_1x1_reduce/relu
I0621 16:04:09.522430 10428 net.cpp:454] conv5_2_1x1_reduce/relu <- conv5_2_1x1_reduce
I0621 16:04:09.522434 10428 net.cpp:397] conv5_2_1x1_reduce/relu -> conv5_2_1x1_reduce (in-place)
I0621 16:04:09.522439 10428 net.cpp:150] Setting up conv5_2_1x1_reduce/relu
I0621 16:04:09.522442 10428 net.cpp:157] Top shape: 1 512 60 60 (1843200)
I0621 16:04:09.522444 10428 net.cpp:165] Memory required for data: 3680696600
I0621 16:04:09.522447 10428 layer_factory.hpp:77] Creating layer conv5_2_3x3
I0621 16:04:09.522454 10428 net.cpp:106] Creating Layer conv5_2_3x3
I0621 16:04:09.522456 10428 net.cpp:454] conv5_2_3x3 <- conv5_2_1x1_reduce
I0621 16:04:09.522461 10428 net.cpp:411] conv5_2_3x3 -> conv5_2_3x3
I0621 16:04:09.580816 10428 net.cpp:150] Setting up conv5_2_3x3
I0621 16:04:09.580883 10428 net.cpp:157] Top shape: 1 512 60 60 (1843200)
I0621 16:04:09.580893 10428 net.cpp:165] Memory required for data: 3688069400
I0621 16:04:09.580910 10428 layer_factory.hpp:77] Creating layer conv5_2_3x3/bn
I0621 16:04:09.580930 10428 net.cpp:106] Creating Layer conv5_2_3x3/bn
I0621 16:04:09.580961 10428 net.cpp:454] conv5_2_3x3/bn <- conv5_2_3x3
I0621 16:04:09.580974 10428 net.cpp:397] conv5_2_3x3/bn -> conv5_2_3x3 (in-place)
I0621 16:04:09.581238 10428 net.cpp:150] Setting up conv5_2_3x3/bn
I0621 16:04:09.581243 10428 net.cpp:157] Top shape: 1 512 60 60 (1843200)
I0621 16:04:09.581245 10428 net.cpp:165] Memory required for data: 3695442200
I0621 16:04:09.581252 10428 layer_factory.hpp:77] Creating layer conv5_2_3x3/relu
I0621 16:04:09.581264 10428 net.cpp:106] Creating Layer conv5_2_3x3/relu
I0621 16:04:09.581266 10428 net.cpp:454] conv5_2_3x3/relu <- conv5_2_3x3
I0621 16:04:09.581269 10428 net.cpp:397] conv5_2_3x3/relu -> conv5_2_3x3 (in-place)
I0621 16:04:09.581275 10428 net.cpp:150] Setting up conv5_2_3x3/relu
I0621 16:04:09.581279 10428 net.cpp:157] Top shape: 1 512 60 60 (1843200)
I0621 16:04:09.581281 10428 net.cpp:165] Memory required for data: 3702815000
I0621 16:04:09.581284 10428 layer_factory.hpp:77] Creating layer conv5_2_1x1_increase
I0621 16:04:09.581291 10428 net.cpp:106] Creating Layer conv5_2_1x1_increase
I0621 16:04:09.581295 10428 net.cpp:454] conv5_2_1x1_increase <- conv5_2_3x3
I0621 16:04:09.581298 10428 net.cpp:411] conv5_2_1x1_increase -> conv5_2_1x1_increase
I0621 16:04:09.607668 10428 net.cpp:150] Setting up conv5_2_1x1_increase
I0621 16:04:09.607692 10428 net.cpp:157] Top shape: 1 2048 60 60 (7372800)
I0621 16:04:09.607694 10428 net.cpp:165] Memory required for data: 3732306200
I0621 16:04:09.607699 10428 layer_factory.hpp:77] Creating layer conv5_2_1x1_increase/bn
I0621 16:04:09.607712 10428 net.cpp:106] Creating Layer conv5_2_1x1_increase/bn
I0621 16:04:09.607720 10428 net.cpp:454] conv5_2_1x1_increase/bn <- conv5_2_1x1_increase
I0621 16:04:09.607733 10428 net.cpp:397] conv5_2_1x1_increase/bn -> conv5_2_1x1_increase (in-place)
I0621 16:04:09.607921 10428 net.cpp:150] Setting up conv5_2_1x1_increase/bn
I0621 16:04:09.607925 10428 net.cpp:157] Top shape: 1 2048 60 60 (7372800)
I0621 16:04:09.607928 10428 net.cpp:165] Memory required for data: 3761797400
I0621 16:04:09.607990 10428 layer_factory.hpp:77] Creating layer conv5_2
I0621 16:04:09.607997 10428 net.cpp:106] Creating Layer conv5_2
I0621 16:04:09.608000 10428 net.cpp:454] conv5_2 <- conv5_1_conv5_1/relu_0_split_1
I0621 16:04:09.608005 10428 net.cpp:454] conv5_2 <- conv5_2_1x1_increase
I0621 16:04:09.608007 10428 net.cpp:411] conv5_2 -> conv5_2
I0621 16:04:09.608026 10428 net.cpp:150] Setting up conv5_2
I0621 16:04:09.608031 10428 net.cpp:157] Top shape: 1 2048 60 60 (7372800)
I0621 16:04:09.608033 10428 net.cpp:165] Memory required for data: 3791288600
I0621 16:04:09.608036 10428 layer_factory.hpp:77] Creating layer conv5_2/relu
I0621 16:04:09.608039 10428 net.cpp:106] Creating Layer conv5_2/relu
I0621 16:04:09.608042 10428 net.cpp:454] conv5_2/relu <- conv5_2
I0621 16:04:09.608045 10428 net.cpp:397] conv5_2/relu -> conv5_2 (in-place)
I0621 16:04:09.608049 10428 net.cpp:150] Setting up conv5_2/relu
I0621 16:04:09.608052 10428 net.cpp:157] Top shape: 1 2048 60 60 (7372800)
I0621 16:04:09.608053 10428 net.cpp:165] Memory required for data: 3820779800
I0621 16:04:09.608057 10428 layer_factory.hpp:77] Creating layer conv5_2_conv5_2/relu_0_split
I0621 16:04:09.608059 10428 net.cpp:106] Creating Layer conv5_2_conv5_2/relu_0_split
I0621 16:04:09.608062 10428 net.cpp:454] conv5_2_conv5_2/relu_0_split <- conv5_2
I0621 16:04:09.608064 10428 net.cpp:411] conv5_2_conv5_2/relu_0_split -> conv5_2_conv5_2/relu_0_split_0
I0621 16:04:09.608069 10428 net.cpp:411] conv5_2_conv5_2/relu_0_split -> conv5_2_conv5_2/relu_0_split_1
I0621 16:04:09.608093 10428 net.cpp:150] Setting up conv5_2_conv5_2/relu_0_split
I0621 16:04:09.608098 10428 net.cpp:157] Top shape: 1 2048 60 60 (7372800)
I0621 16:04:09.608100 10428 net.cpp:157] Top shape: 1 2048 60 60 (7372800)
I0621 16:04:09.608103 10428 net.cpp:165] Memory required for data: 3879762200
I0621 16:04:09.608104 10428 layer_factory.hpp:77] Creating layer conv5_3_1x1_reduce
I0621 16:04:09.608110 10428 net.cpp:106] Creating Layer conv5_3_1x1_reduce
I0621 16:04:09.608114 10428 net.cpp:454] conv5_3_1x1_reduce <- conv5_2_conv5_2/relu_0_split_0
I0621 16:04:09.608117 10428 net.cpp:411] conv5_3_1x1_reduce -> conv5_3_1x1_reduce
I0621 16:04:09.631394 10428 net.cpp:150] Setting up conv5_3_1x1_reduce
I0621 16:04:09.631465 10428 net.cpp:157] Top shape: 1 512 60 60 (1843200)
I0621 16:04:09.631474 10428 net.cpp:165] Memory required for data: 3887135000
I0621 16:04:09.631486 10428 layer_factory.hpp:77] Creating layer conv5_3_1x1_reduce/bn
I0621 16:04:09.631506 10428 net.cpp:106] Creating Layer conv5_3_1x1_reduce/bn
I0621 16:04:09.631515 10428 net.cpp:454] conv5_3_1x1_reduce/bn <- conv5_3_1x1_reduce
I0621 16:04:09.631525 10428 net.cpp:397] conv5_3_1x1_reduce/bn -> conv5_3_1x1_reduce (in-place)
I0621 16:04:09.631789 10428 net.cpp:150] Setting up conv5_3_1x1_reduce/bn
I0621 16:04:09.631796 10428 net.cpp:157] Top shape: 1 512 60 60 (1843200)
I0621 16:04:09.631799 10428 net.cpp:165] Memory required for data: 3894507800
I0621 16:04:09.631806 10428 layer_factory.hpp:77] Creating layer conv5_3_1x1_reduce/relu
I0621 16:04:09.631815 10428 net.cpp:106] Creating Layer conv5_3_1x1_reduce/relu
I0621 16:04:09.631819 10428 net.cpp:454] conv5_3_1x1_reduce/relu <- conv5_3_1x1_reduce
I0621 16:04:09.631822 10428 net.cpp:397] conv5_3_1x1_reduce/relu -> conv5_3_1x1_reduce (in-place)
I0621 16:04:09.631827 10428 net.cpp:150] Setting up conv5_3_1x1_reduce/relu
I0621 16:04:09.631830 10428 net.cpp:157] Top shape: 1 512 60 60 (1843200)
I0621 16:04:09.631834 10428 net.cpp:165] Memory required for data: 3901880600
I0621 16:04:09.631836 10428 layer_factory.hpp:77] Creating layer conv5_3_3x3
I0621 16:04:09.631845 10428 net.cpp:106] Creating Layer conv5_3_3x3
I0621 16:04:09.631849 10428 net.cpp:454] conv5_3_3x3 <- conv5_3_1x1_reduce
I0621 16:04:09.631853 10428 net.cpp:411] conv5_3_3x3 -> conv5_3_3x3
I0621 16:04:09.687393 10428 net.cpp:150] Setting up conv5_3_3x3
I0621 16:04:09.687439 10428 net.cpp:157] Top shape: 1 512 60 60 (1843200)
I0621 16:04:09.687443 10428 net.cpp:165] Memory required for data: 3909253400
I0621 16:04:09.687453 10428 layer_factory.hpp:77] Creating layer conv5_3_3x3/bn
I0621 16:04:09.687500 10428 net.cpp:106] Creating Layer conv5_3_3x3/bn
I0621 16:04:09.687505 10428 net.cpp:454] conv5_3_3x3/bn <- conv5_3_3x3
I0621 16:04:09.687510 10428 net.cpp:397] conv5_3_3x3/bn -> conv5_3_3x3 (in-place)
I0621 16:04:09.687711 10428 net.cpp:150] Setting up conv5_3_3x3/bn
I0621 16:04:09.687716 10428 net.cpp:157] Top shape: 1 512 60 60 (1843200)
I0621 16:04:09.687718 10428 net.cpp:165] Memory required for data: 3916626200
I0621 16:04:09.687724 10428 layer_factory.hpp:77] Creating layer conv5_3_3x3/relu
I0621 16:04:09.687731 10428 net.cpp:106] Creating Layer conv5_3_3x3/relu
I0621 16:04:09.687733 10428 net.cpp:454] conv5_3_3x3/relu <- conv5_3_3x3
I0621 16:04:09.687736 10428 net.cpp:397] conv5_3_3x3/relu -> conv5_3_3x3 (in-place)
I0621 16:04:09.687741 10428 net.cpp:150] Setting up conv5_3_3x3/relu
I0621 16:04:09.687744 10428 net.cpp:157] Top shape: 1 512 60 60 (1843200)
I0621 16:04:09.687747 10428 net.cpp:165] Memory required for data: 3923999000
I0621 16:04:09.687750 10428 layer_factory.hpp:77] Creating layer conv5_3_1x1_increase
I0621 16:04:09.687760 10428 net.cpp:106] Creating Layer conv5_3_1x1_increase
I0621 16:04:09.687763 10428 net.cpp:454] conv5_3_1x1_increase <- conv5_3_3x3
I0621 16:04:09.687768 10428 net.cpp:411] conv5_3_1x1_increase -> conv5_3_1x1_increase
I0621 16:04:09.711102 10428 net.cpp:150] Setting up conv5_3_1x1_increase
I0621 16:04:09.711123 10428 net.cpp:157] Top shape: 1 2048 60 60 (7372800)
I0621 16:04:09.711125 10428 net.cpp:165] Memory required for data: 3953490200
I0621 16:04:09.711132 10428 layer_factory.hpp:77] Creating layer conv5_3_1x1_increase/bn
I0621 16:04:09.711140 10428 net.cpp:106] Creating Layer conv5_3_1x1_increase/bn
I0621 16:04:09.711144 10428 net.cpp:454] conv5_3_1x1_increase/bn <- conv5_3_1x1_increase
I0621 16:04:09.711150 10428 net.cpp:397] conv5_3_1x1_increase/bn -> conv5_3_1x1_increase (in-place)
I0621 16:04:09.711344 10428 net.cpp:150] Setting up conv5_3_1x1_increase/bn
I0621 16:04:09.711349 10428 net.cpp:157] Top shape: 1 2048 60 60 (7372800)
I0621 16:04:09.711352 10428 net.cpp:165] Memory required for data: 3982981400
I0621 16:04:09.711357 10428 layer_factory.hpp:77] Creating layer conv5_3
I0621 16:04:09.711364 10428 net.cpp:106] Creating Layer conv5_3
I0621 16:04:09.711365 10428 net.cpp:454] conv5_3 <- conv5_2_conv5_2/relu_0_split_1
I0621 16:04:09.711369 10428 net.cpp:454] conv5_3 <- conv5_3_1x1_increase
I0621 16:04:09.711372 10428 net.cpp:411] conv5_3 -> conv5_3
I0621 16:04:09.711390 10428 net.cpp:150] Setting up conv5_3
I0621 16:04:09.711395 10428 net.cpp:157] Top shape: 1 2048 60 60 (7372800)
I0621 16:04:09.711397 10428 net.cpp:165] Memory required for data: 4012472600
I0621 16:04:09.711400 10428 layer_factory.hpp:77] Creating layer conv5_3/relu
I0621 16:04:09.711405 10428 net.cpp:106] Creating Layer conv5_3/relu
I0621 16:04:09.711408 10428 net.cpp:454] conv5_3/relu <- conv5_3
I0621 16:04:09.711412 10428 net.cpp:397] conv5_3/relu -> conv5_3 (in-place)
I0621 16:04:09.711417 10428 net.cpp:150] Setting up conv5_3/relu
I0621 16:04:09.711421 10428 net.cpp:157] Top shape: 1 2048 60 60 (7372800)
I0621 16:04:09.711422 10428 net.cpp:165] Memory required for data: 4041963800
I0621 16:04:09.711426 10428 layer_factory.hpp:77] Creating layer conv5_3_conv5_3/relu_0_split
I0621 16:04:09.711429 10428 net.cpp:106] Creating Layer conv5_3_conv5_3/relu_0_split
I0621 16:04:09.711432 10428 net.cpp:454] conv5_3_conv5_3/relu_0_split <- conv5_3
I0621 16:04:09.711436 10428 net.cpp:411] conv5_3_conv5_3/relu_0_split -> conv5_3_conv5_3/relu_0_split_0
I0621 16:04:09.711441 10428 net.cpp:411] conv5_3_conv5_3/relu_0_split -> conv5_3_conv5_3/relu_0_split_1
I0621 16:04:09.711446 10428 net.cpp:411] conv5_3_conv5_3/relu_0_split -> conv5_3_conv5_3/relu_0_split_2
I0621 16:04:09.711449 10428 net.cpp:411] conv5_3_conv5_3/relu_0_split -> conv5_3_conv5_3/relu_0_split_3
I0621 16:04:09.711454 10428 net.cpp:411] conv5_3_conv5_3/relu_0_split -> conv5_3_conv5_3/relu_0_split_4
I0621 16:04:09.711506 10428 net.cpp:150] Setting up conv5_3_conv5_3/relu_0_split
I0621 16:04:09.711526 10428 net.cpp:157] Top shape: 1 2048 60 60 (7372800)
I0621 16:04:09.711530 10428 net.cpp:157] Top shape: 1 2048 60 60 (7372800)
I0621 16:04:09.711534 10428 net.cpp:157] Top shape: 1 2048 60 60 (7372800)
I0621 16:04:09.711536 10428 net.cpp:157] Top shape: 1 2048 60 60 (7372800)
I0621 16:04:09.711539 10428 net.cpp:157] Top shape: 1 2048 60 60 (7372800)
I0621 16:04:09.711541 10428 net.cpp:165] Memory required for data: 4189419800
I0621 16:04:09.711544 10428 layer_factory.hpp:77] Creating layer conv5_3_pool1
I0621 16:04:09.711550 10428 net.cpp:106] Creating Layer conv5_3_pool1
I0621 16:04:09.711554 10428 net.cpp:454] conv5_3_pool1 <- conv5_3_conv5_3/relu_0_split_0
I0621 16:04:09.711557 10428 net.cpp:411] conv5_3_pool1 -> conv5_3_pool1
I0621 16:04:09.711575 10428 net.cpp:150] Setting up conv5_3_pool1
I0621 16:04:09.711580 10428 net.cpp:157] Top shape: 1 2048 1 1 (2048)
I0621 16:04:09.711582 10428 net.cpp:165] Memory required for data: 4189427992
I0621 16:04:09.711585 10428 layer_factory.hpp:77] Creating layer conv5_3_pool1_conv
I0621 16:04:09.711592 10428 net.cpp:106] Creating Layer conv5_3_pool1_conv
I0621 16:04:09.711596 10428 net.cpp:454] conv5_3_pool1_conv <- conv5_3_pool1
I0621 16:04:09.711599 10428 net.cpp:411] conv5_3_pool1_conv -> conv5_3_pool1_conv
I0621 16:04:09.734814 10428 net.cpp:150] Setting up conv5_3_pool1_conv
I0621 16:04:09.734843 10428 net.cpp:157] Top shape: 1 512 1 1 (512)
I0621 16:04:09.734846 10428 net.cpp:165] Memory required for data: 4189430040
I0621 16:04:09.734854 10428 layer_factory.hpp:77] Creating layer conv5_3_pool1_conv/bn
I0621 16:04:09.734865 10428 net.cpp:106] Creating Layer conv5_3_pool1_conv/bn
I0621 16:04:09.734874 10428 net.cpp:454] conv5_3_pool1_conv/bn <- conv5_3_pool1_conv
I0621 16:04:09.734882 10428 net.cpp:397] conv5_3_pool1_conv/bn -> conv5_3_pool1_conv (in-place)
I0621 16:04:09.735088 10428 net.cpp:150] Setting up conv5_3_pool1_conv/bn
I0621 16:04:09.735093 10428 net.cpp:157] Top shape: 1 512 1 1 (512)
I0621 16:04:09.735095 10428 net.cpp:165] Memory required for data: 4189432088
I0621 16:04:09.735100 10428 layer_factory.hpp:77] Creating layer conv5_3_pool1_conv/relu
I0621 16:04:09.735105 10428 net.cpp:106] Creating Layer conv5_3_pool1_conv/relu
I0621 16:04:09.735108 10428 net.cpp:454] conv5_3_pool1_conv/relu <- conv5_3_pool1_conv
I0621 16:04:09.735111 10428 net.cpp:397] conv5_3_pool1_conv/relu -> conv5_3_pool1_conv (in-place)
I0621 16:04:09.735116 10428 net.cpp:150] Setting up conv5_3_pool1_conv/relu
I0621 16:04:09.735118 10428 net.cpp:157] Top shape: 1 512 1 1 (512)
I0621 16:04:09.735122 10428 net.cpp:165] Memory required for data: 4189434136
I0621 16:04:09.735126 10428 layer_factory.hpp:77] Creating layer conv5_3_pool1_interp
I0621 16:04:09.735132 10428 net.cpp:106] Creating Layer conv5_3_pool1_interp
I0621 16:04:09.735136 10428 net.cpp:454] conv5_3_pool1_interp <- conv5_3_pool1_conv
I0621 16:04:09.735138 10428 net.cpp:411] conv5_3_pool1_interp -> conv5_3_pool1_interp
I0621 16:04:09.735164 10428 net.cpp:150] Setting up conv5_3_pool1_interp
I0621 16:04:09.735167 10428 net.cpp:157] Top shape: 1 512 60 60 (1843200)
I0621 16:04:09.735169 10428 net.cpp:165] Memory required for data: 4196806936
I0621 16:04:09.735172 10428 layer_factory.hpp:77] Creating layer conv5_3_pool2
I0621 16:04:09.735178 10428 net.cpp:106] Creating Layer conv5_3_pool2
I0621 16:04:09.735182 10428 net.cpp:454] conv5_3_pool2 <- conv5_3_conv5_3/relu_0_split_1
I0621 16:04:09.735185 10428 net.cpp:411] conv5_3_pool2 -> conv5_3_pool2
I0621 16:04:09.735203 10428 net.cpp:150] Setting up conv5_3_pool2
I0621 16:04:09.735208 10428 net.cpp:157] Top shape: 1 2048 2 2 (8192)
I0621 16:04:09.735209 10428 net.cpp:165] Memory required for data: 4196839704
I0621 16:04:09.735213 10428 layer_factory.hpp:77] Creating layer conv5_3_pool2_conv
I0621 16:04:09.735221 10428 net.cpp:106] Creating Layer conv5_3_pool2_conv
I0621 16:04:09.735224 10428 net.cpp:454] conv5_3_pool2_conv <- conv5_3_pool2
I0621 16:04:09.735229 10428 net.cpp:411] conv5_3_pool2_conv -> conv5_3_pool2_conv
I0621 16:04:09.759198 10428 net.cpp:150] Setting up conv5_3_pool2_conv
I0621 16:04:09.759307 10428 net.cpp:157] Top shape: 1 512 2 2 (2048)
I0621 16:04:09.759315 10428 net.cpp:165] Memory required for data: 4196847896
I0621 16:04:09.759335 10428 layer_factory.hpp:77] Creating layer conv5_3_pool2_conv/bn
I0621 16:04:09.759361 10428 net.cpp:106] Creating Layer conv5_3_pool2_conv/bn
I0621 16:04:09.759371 10428 net.cpp:454] conv5_3_pool2_conv/bn <- conv5_3_pool2_conv
I0621 16:04:09.759380 10428 net.cpp:397] conv5_3_pool2_conv/bn -> conv5_3_pool2_conv (in-place)
I0621 16:04:09.759623 10428 net.cpp:150] Setting up conv5_3_pool2_conv/bn
I0621 16:04:09.759629 10428 net.cpp:157] Top shape: 1 512 2 2 (2048)
I0621 16:04:09.759631 10428 net.cpp:165] Memory required for data: 4196856088
I0621 16:04:09.759639 10428 layer_factory.hpp:77] Creating layer conv5_3_pool2_conv/relu
I0621 16:04:09.759649 10428 net.cpp:106] Creating Layer conv5_3_pool2_conv/relu
I0621 16:04:09.759651 10428 net.cpp:454] conv5_3_pool2_conv/relu <- conv5_3_pool2_conv
I0621 16:04:09.759655 10428 net.cpp:397] conv5_3_pool2_conv/relu -> conv5_3_pool2_conv (in-place)
I0621 16:04:09.759661 10428 net.cpp:150] Setting up conv5_3_pool2_conv/relu
I0621 16:04:09.759665 10428 net.cpp:157] Top shape: 1 512 2 2 (2048)
I0621 16:04:09.759667 10428 net.cpp:165] Memory required for data: 4196864280
I0621 16:04:09.759670 10428 layer_factory.hpp:77] Creating layer conv5_3_pool2_interp
I0621 16:04:09.759677 10428 net.cpp:106] Creating Layer conv5_3_pool2_interp
I0621 16:04:09.759680 10428 net.cpp:454] conv5_3_pool2_interp <- conv5_3_pool2_conv
I0621 16:04:09.759685 10428 net.cpp:411] conv5_3_pool2_interp -> conv5_3_pool2_interp
I0621 16:04:09.759708 10428 net.cpp:150] Setting up conv5_3_pool2_interp
I0621 16:04:09.759713 10428 net.cpp:157] Top shape: 1 512 60 60 (1843200)
I0621 16:04:09.759716 10428 net.cpp:165] Memory required for data: 4204237080
I0621 16:04:09.759718 10428 layer_factory.hpp:77] Creating layer conv5_3_pool3
I0621 16:04:09.759724 10428 net.cpp:106] Creating Layer conv5_3_pool3
I0621 16:04:09.759729 10428 net.cpp:454] conv5_3_pool3 <- conv5_3_conv5_3/relu_0_split_2
I0621 16:04:09.759733 10428 net.cpp:411] conv5_3_pool3 -> conv5_3_pool3
I0621 16:04:09.759750 10428 net.cpp:150] Setting up conv5_3_pool3
I0621 16:04:09.759755 10428 net.cpp:157] Top shape: 1 2048 3 3 (18432)
I0621 16:04:09.759757 10428 net.cpp:165] Memory required for data: 4204310808
I0621 16:04:09.759762 10428 layer_factory.hpp:77] Creating layer conv5_3_pool3_conv
I0621 16:04:09.759773 10428 net.cpp:106] Creating Layer conv5_3_pool3_conv
I0621 16:04:09.759775 10428 net.cpp:454] conv5_3_pool3_conv <- conv5_3_pool3
I0621 16:04:09.759780 10428 net.cpp:411] conv5_3_pool3_conv -> conv5_3_pool3_conv
I0621 16:04:09.784498 10428 net.cpp:150] Setting up conv5_3_pool3_conv
I0621 16:04:09.784519 10428 net.cpp:157] Top shape: 1 512 3 3 (4608)
I0621 16:04:09.784523 10428 net.cpp:165] Memory required for data: 4204329240
I0621 16:04:09.784528 10428 layer_factory.hpp:77] Creating layer conv5_3_pool3_conv/bn
I0621 16:04:09.784546 10428 net.cpp:106] Creating Layer conv5_3_pool3_conv/bn
I0621 16:04:09.784551 10428 net.cpp:454] conv5_3_pool3_conv/bn <- conv5_3_pool3_conv
I0621 16:04:09.784559 10428 net.cpp:397] conv5_3_pool3_conv/bn -> conv5_3_pool3_conv (in-place)
I0621 16:04:09.784750 10428 net.cpp:150] Setting up conv5_3_pool3_conv/bn
I0621 16:04:09.784755 10428 net.cpp:157] Top shape: 1 512 3 3 (4608)
I0621 16:04:09.784759 10428 net.cpp:165] Memory required for data: 4204347672
I0621 16:04:09.784763 10428 layer_factory.hpp:77] Creating layer conv5_3_pool3_conv/relu
I0621 16:04:09.784768 10428 net.cpp:106] Creating Layer conv5_3_pool3_conv/relu
I0621 16:04:09.784771 10428 net.cpp:454] conv5_3_pool3_conv/relu <- conv5_3_pool3_conv
I0621 16:04:09.784775 10428 net.cpp:397] conv5_3_pool3_conv/relu -> conv5_3_pool3_conv (in-place)
I0621 16:04:09.784778 10428 net.cpp:150] Setting up conv5_3_pool3_conv/relu
I0621 16:04:09.784782 10428 net.cpp:157] Top shape: 1 512 3 3 (4608)
I0621 16:04:09.784785 10428 net.cpp:165] Memory required for data: 4204366104
I0621 16:04:09.784803 10428 layer_factory.hpp:77] Creating layer conv5_3_pool3_interp
I0621 16:04:09.784808 10428 net.cpp:106] Creating Layer conv5_3_pool3_interp
I0621 16:04:09.784811 10428 net.cpp:454] conv5_3_pool3_interp <- conv5_3_pool3_conv
I0621 16:04:09.784816 10428 net.cpp:411] conv5_3_pool3_interp -> conv5_3_pool3_interp
I0621 16:04:09.784834 10428 net.cpp:150] Setting up conv5_3_pool3_interp
I0621 16:04:09.784839 10428 net.cpp:157] Top shape: 1 512 60 60 (1843200)
I0621 16:04:09.784842 10428 net.cpp:165] Memory required for data: 4211738904
I0621 16:04:09.784845 10428 layer_factory.hpp:77] Creating layer conv5_3_pool6
I0621 16:04:09.784850 10428 net.cpp:106] Creating Layer conv5_3_pool6
I0621 16:04:09.784853 10428 net.cpp:454] conv5_3_pool6 <- conv5_3_conv5_3/relu_0_split_3
I0621 16:04:09.784858 10428 net.cpp:411] conv5_3_pool6 -> conv5_3_pool6
I0621 16:04:09.784878 10428 net.cpp:150] Setting up conv5_3_pool6
I0621 16:04:09.784881 10428 net.cpp:157] Top shape: 1 2048 6 6 (73728)
I0621 16:04:09.784883 10428 net.cpp:165] Memory required for data: 4212033816
I0621 16:04:09.784886 10428 layer_factory.hpp:77] Creating layer conv5_3_pool6_conv
I0621 16:04:09.784893 10428 net.cpp:106] Creating Layer conv5_3_pool6_conv
I0621 16:04:09.784895 10428 net.cpp:454] conv5_3_pool6_conv <- conv5_3_pool6
I0621 16:04:09.784899 10428 net.cpp:411] conv5_3_pool6_conv -> conv5_3_pool6_conv
I0621 16:04:09.807976 10428 net.cpp:150] Setting up conv5_3_pool6_conv
I0621 16:04:09.807998 10428 net.cpp:157] Top shape: 1 512 6 6 (18432)
I0621 16:04:09.808001 10428 net.cpp:165] Memory required for data: 4212107544
I0621 16:04:09.808008 10428 layer_factory.hpp:77] Creating layer conv5_3_pool6_conv/bn
I0621 16:04:09.808019 10428 net.cpp:106] Creating Layer conv5_3_pool6_conv/bn
I0621 16:04:09.808029 10428 net.cpp:454] conv5_3_pool6_conv/bn <- conv5_3_pool6_conv
I0621 16:04:09.808040 10428 net.cpp:397] conv5_3_pool6_conv/bn -> conv5_3_pool6_conv (in-place)
I0621 16:04:09.808230 10428 net.cpp:150] Setting up conv5_3_pool6_conv/bn
I0621 16:04:09.808235 10428 net.cpp:157] Top shape: 1 512 6 6 (18432)
I0621 16:04:09.808238 10428 net.cpp:165] Memory required for data: 4212181272
I0621 16:04:09.808243 10428 layer_factory.hpp:77] Creating layer conv5_3_pool6_conv/relu
I0621 16:04:09.808250 10428 net.cpp:106] Creating Layer conv5_3_pool6_conv/relu
I0621 16:04:09.808254 10428 net.cpp:454] conv5_3_pool6_conv/relu <- conv5_3_pool6_conv
I0621 16:04:09.808257 10428 net.cpp:397] conv5_3_pool6_conv/relu -> conv5_3_pool6_conv (in-place)
I0621 16:04:09.808262 10428 net.cpp:150] Setting up conv5_3_pool6_conv/relu
I0621 16:04:09.808265 10428 net.cpp:157] Top shape: 1 512 6 6 (18432)
I0621 16:04:09.808269 10428 net.cpp:165] Memory required for data: 4212255000
I0621 16:04:09.808271 10428 layer_factory.hpp:77] Creating layer conv5_3_pool6_interp
I0621 16:04:09.808276 10428 net.cpp:106] Creating Layer conv5_3_pool6_interp
I0621 16:04:09.808279 10428 net.cpp:454] conv5_3_pool6_interp <- conv5_3_pool6_conv
I0621 16:04:09.808282 10428 net.cpp:411] conv5_3_pool6_interp -> conv5_3_pool6_interp
I0621 16:04:09.808300 10428 net.cpp:150] Setting up conv5_3_pool6_interp
I0621 16:04:09.808305 10428 net.cpp:157] Top shape: 1 512 60 60 (1843200)
I0621 16:04:09.808307 10428 net.cpp:165] Memory required for data: 4219627800
I0621 16:04:09.808310 10428 layer_factory.hpp:77] Creating layer conv5_3_concat
I0621 16:04:09.808318 10428 net.cpp:106] Creating Layer conv5_3_concat
I0621 16:04:09.808322 10428 net.cpp:454] conv5_3_concat <- conv5_3_conv5_3/relu_0_split_4
I0621 16:04:09.808326 10428 net.cpp:454] conv5_3_concat <- conv5_3_pool6_interp
I0621 16:04:09.808329 10428 net.cpp:454] conv5_3_concat <- conv5_3_pool3_interp
I0621 16:04:09.808332 10428 net.cpp:454] conv5_3_concat <- conv5_3_pool2_interp
I0621 16:04:09.808336 10428 net.cpp:454] conv5_3_concat <- conv5_3_pool1_interp
I0621 16:04:09.808341 10428 net.cpp:411] conv5_3_concat -> conv5_3_concat
I0621 16:04:09.808359 10428 net.cpp:150] Setting up conv5_3_concat
I0621 16:04:09.808363 10428 net.cpp:157] Top shape: 1 4096 60 60 (14745600)
I0621 16:04:09.808394 10428 net.cpp:165] Memory required for data: 4278610200
I0621 16:04:09.808398 10428 layer_factory.hpp:77] Creating layer conv5_4
I0621 16:04:09.808409 10428 net.cpp:106] Creating Layer conv5_4
I0621 16:04:09.808413 10428 net.cpp:454] conv5_4 <- conv5_3_concat
I0621 16:04:09.808419 10428 net.cpp:411] conv5_4 -> conv5_4
I0621 16:04:10.231024 10428 net.cpp:150] Setting up conv5_4
I0621 16:04:10.231045 10428 net.cpp:157] Top shape: 1 512 60 60 (1843200)
I0621 16:04:10.231050 10428 net.cpp:165] Memory required for data: 4285983000
I0621 16:04:10.231056 10428 layer_factory.hpp:77] Creating layer conv5_4/bn
I0621 16:04:10.231075 10428 net.cpp:106] Creating Layer conv5_4/bn
I0621 16:04:10.231078 10428 net.cpp:454] conv5_4/bn <- conv5_4
I0621 16:04:10.231082 10428 net.cpp:397] conv5_4/bn -> conv5_4 (in-place)
I0621 16:04:10.231266 10428 net.cpp:150] Setting up conv5_4/bn
I0621 16:04:10.231271 10428 net.cpp:157] Top shape: 1 512 60 60 (1843200)
I0621 16:04:10.231273 10428 net.cpp:165] Memory required for data: 4293355800
I0621 16:04:10.231278 10428 layer_factory.hpp:77] Creating layer conv5_4/relu
I0621 16:04:10.231282 10428 net.cpp:106] Creating Layer conv5_4/relu
I0621 16:04:10.231284 10428 net.cpp:454] conv5_4/relu <- conv5_4
I0621 16:04:10.231287 10428 net.cpp:397] conv5_4/relu -> conv5_4 (in-place)
I0621 16:04:10.231290 10428 net.cpp:150] Setting up conv5_4/relu
I0621 16:04:10.231293 10428 net.cpp:157] Top shape: 1 512 60 60 (1843200)
I0621 16:04:10.231297 10428 net.cpp:165] Memory required for data: 4300728600
I0621 16:04:10.231300 10428 layer_factory.hpp:77] Creating layer conv5_4/dropout
I0621 16:04:10.231305 10428 net.cpp:106] Creating Layer conv5_4/dropout
I0621 16:04:10.231308 10428 net.cpp:454] conv5_4/dropout <- conv5_4
I0621 16:04:10.231312 10428 net.cpp:397] conv5_4/dropout -> conv5_4 (in-place)
I0621 16:04:10.231343 10428 net.cpp:150] Setting up conv5_4/dropout
I0621 16:04:10.231348 10428 net.cpp:157] Top shape: 1 512 60 60 (1843200)
I0621 16:04:10.231351 10428 net.cpp:165] Memory required for data: 4308101400
I0621 16:04:10.231353 10428 layer_factory.hpp:77] Creating layer conv6
I0621 16:04:10.231369 10428 net.cpp:106] Creating Layer conv6
I0621 16:04:10.231371 10428 net.cpp:454] conv6 <- conv5_4
I0621 16:04:10.231375 10428 net.cpp:411] conv6 -> conv6
I0621 16:04:10.231803 10428 net.cpp:150] Setting up conv6
I0621 16:04:10.231808 10428 net.cpp:157] Top shape: 1 21 60 60 (75600)
I0621 16:04:10.231811 10428 net.cpp:165] Memory required for data: 4308403800
I0621 16:04:10.231814 10428 layer_factory.hpp:77] Creating layer conv6_interp
I0621 16:04:10.231818 10428 net.cpp:106] Creating Layer conv6_interp
I0621 16:04:10.231820 10428 net.cpp:454] conv6_interp <- conv6
I0621 16:04:10.231824 10428 net.cpp:411] conv6_interp -> conv6_interp
I0621 16:04:10.231842 10428 net.cpp:150] Setting up conv6_interp
I0621 16:04:10.231847 10428 net.cpp:157] Top shape: 1 21 473 473 (4698309)
I0621 16:04:10.231848 10428 net.cpp:165] Memory required for data: 4327197036
I0621 16:04:10.231850 10428 net.cpp:228] conv6_interp does not need backward computation.
I0621 16:04:10.231853 10428 net.cpp:228] conv6 does not need backward computation.
I0621 16:04:10.231854 10428 net.cpp:228] conv5_4/dropout does not need backward computation.
I0621 16:04:10.231856 10428 net.cpp:228] conv5_4/relu does not need backward computation.
…
