…
state {
  phase: TRAIN
}
layer {
  name: "data"
  type: "ImageSegData"
  top: "data"
  top: "label"
  include {
    phase: TRAIN
  }
  transform_param {
    mirror: true
    crop_size: 473
    mean_value: 104.008
    mean_value: 116.669
    mean_value: 122.675
    scale_factors: 0.5
    scale_factors: 0.75
    scale_factors: 1
    scale_factors: 1.25
    scale_factors: 1.5
  }
  image_data_param {
    source: "exper/voc12/list/train_aug.txt"
    batch_size: 2
    shuffle: true
    root_folder: "exper/voc12/data"
    label_type: PIXEL
  }
}
layer {
  name: "conv1_1_3x3_s2"
  type: "Convolution"
  bottom: "data"
  top: "conv1_1_3x3_s2"
  param {
    lr_mult: 1
    decay_mult: 1
  }
  convolution_param {
    num_output: 64
    bias_term: false
    pad: 1
    kernel_size: 3
    stride: 2
    weight_filler {
      type: "msra"
    }
  }
}
layer {
  name: "conv1_1_3x3_s2/bn"
  type: "BN"
  bottom: "conv1_1_3x3_s2"
  top: "conv1_1_3x3_s2"
  param {
    lr_mult: 1
    decay_mult: 0
  }
  param {
    lr_mult: 1
    decay_mult: 0
  }
  param {
    lr_mult: 0
    decay_mult: 0
  }
  param {
    lr_mult: 0
    decay_mult: 0
  }
  bn_param {
    slope_filler {
      type: "constant"
      value: 1
    }
    bias_filler {
      type: "constant"
      value: 0
    }
    momentum: 0.95
    frozen: true
  }
}
layer {
  name: "conv1_1_3x3_s2/relu"
  type: "ReLU"
  bottom: "conv1_1_3x3_s2"
  top: "conv1_1_3x3_s2"
}
layer {
  name: "conv1_2_3x3"
  type: "Convolution"
  bottom: "conv1_1_3x3_s2"
  top: "conv1_2_3x3"
  param {
    lr_mult: 1
    decay_mult: 1
  }
  convolution_param {
    num_output: 64
    bias_term: false
    pad: 1
    kernel_size: 3
    stride: 1
    weight_filler {
      type: "msra"
    }
  }
}
layer {
  name: "conv1_2_3x3/bn"
  type: "BN"
  bottom: "conv1_2_3x3"
  top: "conv1_2_3x3"
  param {
    lr_mult: 1
    decay_mult: 0
  }
  param {
    lr_mult: 1
    decay_mult: 0
  }
  param {
    lr_mult: 0
    decay_mult: 0
  }
  param {
    lr_mult: 0
    decay_mult: 0
  }
  bn_param {
    slope_filler {
      type: "constant"
      value: 1
    }
    bias_filler {
      type: "constant"
      value: 0
    }
    momentum: 0.95
    frozen: true
  }
}
layer {
  name: "conv1_2_3x3/relu"
  type: "ReLU"
  bottom: "conv1_2_3x3"
  top: "conv1_2_3x3"
}
layer {
  name: "conv1_3_3x3"
  type: "Convolution"
  bottom: "conv1_2_3x3"
  top: "conv1_3_3x3"
  param {
    lr_mult: 1
    decay_mult: 1
  }
  convolution_param {
    num_output: 128
    bias_term: false
    pad: 1
    kernel_size: 3
    stride: 1
    weight_filler {
      type: "msra"
    }
  }
}
layer {
  name: "conv1_3_3x3/bn"
  type: "BN"
  bottom: "conv1_3_3x3"
  top: "conv1_3_3x3"
  param {
    lr_mult: 1
    decay_mult: 0
  }
  param {
    lr_mult: 1
    decay_mult: 0
  }
  param {
    lr_mult: 0
    decay_mult: 0
  }
  param {
    lr_mult: 0
    decay_mult: 0
  }
  bn_param {
    slope_filler {
      type: "constant"
      value: 1
    }
    bias_filler {
      type: "constant"
      value: 0
    }
    momentum: 0.95
    frozen: true
  }
}
layer {
  name: "conv1_3_3x3/relu"
  type: "ReLU"
  bottom: "conv1_3_3x3"
  top: "conv1_3_3x3"
}
layer {
  name: "pool1_3x3_s2"
  type: "Pooling"
  bottom: "conv1_3_3x3"
  top: "pool1_3x3_s2"
  pooling_param {
    pool: MAX
    kernel_size: 3
    stride: 2
    pad: 1
  }
}
layer {
  name: "conv2_1_1x1_reduce"
  type: "Convolution"
  bottom: "pool1_3x3_s2"
  top: "conv2_1_1x1_reduce"
  param {
    lr_mult: 1
    decay_mult: 1
  }
  convolution_param {
    num_output: 64
    bias_term: false
    pad: 0
    kernel_size: 1
    stride: 1
    weight_filler {
      type: "msra"
    }
  }
}
layer {
  name: "conv2_1_1x1_reduce/bn"
  type: "BN"
  bottom: "conv2_1_1x1_reduce"
  top: "conv2_1_1x1_reduce"
  param {
    lr_mult: 1
    decay_mult: 0
  }
  param {
    lr_mult: 1
    decay_mult: 0
  }
  param {
    lr_mult: 0
    decay_mult: 0
  }
  param {
    lr_mult: 0
    decay_mult: 0
  }
  bn_param {
    slope_filler {
      type: "constant"
      value: 1
    }
    bias_filler {
      type: "constant"
      value: 0
    }
    momentum: 0.95
    frozen: true
  }
}
layer {
  name: "conv2_1_1x1_reduce/relu"
  type: "ReLU"
  bottom: "conv2_1_1x1_reduce"
  top: "conv2_1_1x1_reduce"
}
layer {
  name: "conv2_1_3x3"
  type: "Convolution"
  bottom: "conv2_1_1x1_reduce"
  top: "conv2_1_3x3"
  param {
    lr_mult: 1
    decay_mult: 1
  }
  convolution_param {
    num_output: 64
    bias_term: false
    pad: 1
    kernel_size: 3
    stride: 1
    weight_filler {
      type: "msra"
    }
  }
}
layer {
  name: "conv2_1_3x3/bn"
  type: "BN"
  bottom: "conv2_1_3x3"
  top: "conv2_1_3x3"
  param {
    lr_mult: 1
    decay_mult: 0
  }
  param {
    lr_mult: 1
    decay_mult: 0
  }
  param {
    lr_mult: 0
    decay_mult: 0
  }
  param {
    lr_mult: 0
    decay_mult: 0
  }
  bn_param {
    slope_filler {
      type: "constant"
      value: 1
    }
    bias_filler {
      type: "constant"
      value: 0
    }
    momentum: 0.95
    frozen: true
  }
}
layer {
  name: "conv2_1_3x3/relu"
  type: "ReLU"
  bottom: "conv2_1_3x3"
  top: "conv2_1_3x3"
}
layer {
  name: "conv2_1_1x1_increase"
  type: "Convolution"
  bottom: "conv2_1_3x3"
  top: "conv2_1_1x1_increase"
  param {
    lr_mult: 1
    decay_mult: 1
  }
  convolution_param {
    num_output: 256
    bias_term: false
    pad: 0
    kernel_size: 1
    stride: 1
    weight_filler {
      type: "msra"
    }
  }
}
layer {
  name: "conv2_1_1x1_increase/bn"
  type: "BN"
  bottom: "conv2_1_1x1_increase"
  top: "conv2_1_1x1_increase"
  param {
    lr_mult: 1
    decay_mult: 0
  }
  param {
    lr_mult: 1
    decay_mult: 0
  }
  param {
    lr_mult: 0
    decay_mult: 0
  }
  param {
    lr_mult: 0
    decay_mult: 0
  }
  bn_param {
    slope_filler {
      type: "constant"
      value: 1
    }
    bias_filler {
      type: "constant"
      value: 0
    }
    momentum: 0.95
    frozen: true
  }
}
layer {
  name: "conv2_1_1x1_proj"
  type: "Convolution"
  bottom: "pool1_3x3_s2"
  top: "conv2_1_1x1_proj"
  param {
    lr_mult: 1
    decay_mult: 1
  }
  convolution_param {
    num_output: 256
    bias_term: false
    pad: 0
    kernel_size: 1
    stride: 1
    weight_filler {
      type: "msra"
    }
  }
}
layer {
  name: "conv2_1_1x1_proj/bn"
  type: "BN"
  bottom: "conv2_1_1x1_proj"
  top: "conv2_1_1x1_proj"
  param {
    lr_mult: 1
    decay_mult: 0
  }
  param {
    lr_mult: 1
    decay_mult: 0
  }
  param {
    lr_mult: 0
    decay_mult: 0
  }
  param {
    lr_mult: 0
    decay_mult: 0
  }
  bn_param {
    slope_filler {
      type: "constant"
      value: 1
    }
    bias_filler {
      type: "constant"
      value: 0
    }
    momentum: 0.95
    frozen: true
  }
}
layer {
  name: "conv2_1"
  type: "Eltwise"
  bottom: "conv2_1_1x1_proj"
  bottom: "conv2_1_1x1_increase"
  top: "conv2_1"
  eltwise_param {
    operation: SUM
  }
}
layer {
  name: "conv2_1/relu"
  type: "ReLU"
  bottom: "conv2_1"
  top: "conv2_1"
}
layer {
  name: "conv2_2_1x1_reduce"
  type: "Convolution"
  bottom: "conv2_1"
  top: "conv2_2_1x1_reduce"
  param {
    lr_mult: 1
    decay_mult: 1
  }
  convolution_param {
    num_output: 64
    bias_term: false
    pad: 0
    kernel_size: 1
    stride: 1
    weight_filler {
      type: "msra"
    }
  }
}
layer {
  name: "conv2_2_1x1_reduce/bn"
  type: "BN"
  bottom: "conv2_2_1x1_reduce"
  top: "conv2_2_1x1_reduce"
  param {
    lr_mult: 1
    decay_mult: 0
  }
  param {
    lr_mult: 1
    decay_mult: 0
  }
  param {
    lr_mult: 0
    decay_mult: 0
  }
  param {
    lr_mult: 0
    decay_mult: 0
  }
  bn_param {
    slope_filler {
      type: "constant"
      value: 1
    }
    bias_filler {
      type: "constant"
      value: 0
    }
    momentum: 0.95
    frozen: true
  }
}
layer {
  name: "conv2_2_1x1_reduce/relu"
  type: "ReLU"
  bottom: "conv2_2_1x1_reduce"
  top: "conv2_2_1x1_reduce"
}
layer {
  name: "conv2_2_3x3"
  type: "Convolution"
  bottom: "conv2_2_1x1_reduce"
  top: "conv2_2_3x3"
  param {
    lr_mult: 1
    decay_mult: 1
  }
  convolution_param {
    num_output: 64
    bias_term: false
    pad: 1
    kernel_size: 3
    stride: 1
    weight_filler {
      type: "msra"
    }
  }
}
layer {
  name: "conv2_2_3x3/bn"
  type: "BN"
  bottom: "conv2_2_3x3"
  top: "conv2_2_3x3"
  param {
    lr_mult: 1
    decay_mult: 0
  }
  param {
    lr_mult: 1
    decay_mult: 0
  }
  param {
    lr_mult: 0
    decay_mult: 0
  }
  param {
    lr_mult: 0
    decay_mult: 0
  }
  bn_param {
    slope_filler {
      type: "constant"
      value: 1
    }
    bias_filler {
      type: "constant"
      value: 0
    }
    momentum: 0.95
    frozen: true
  }
}
layer {
  name: "conv2_2_3x3/relu"
  type: "ReLU"
  bottom: "conv2_2_3x3"
  top: "conv2_2_3x3"
}
layer {
  name: "conv2_2_1x1_increase"
  type: "Convolution"
  bottom: "conv2_2_3x3"
  top: "conv2_2_1x1_increase"
  param {
    lr_mult: 1
    decay_mult: 1
  }
  convolution_param {
    num_output: 256
    bias_term: false
    pad: 0
    kernel_size: 1
    stride: 1
    weight_filler {
      type: "msra"
    }
  }
}
layer {
  name: "conv2_2_1x1_increase/bn"
  type: "BN"
  bottom: "conv2_2_1x1_increase"
  top: "conv2_2_1x1_increase"
  param {
    lr_mult: 1
    decay_mult: 0
  }
  param {
    lr_mult: 1
    decay_mult: 0
  }
  param {
    lr_mult: 0
    decay_mult: 0
  }
  param {
    lr_mult: 0
    decay_mult: 0
  }
  bn_param {
    slope_filler {
      type: "constant"
      value: 1
    }
    bias_filler {
      type: "constant"
      value: 0
    }
    momentum: 0.95
    frozen: true
  }
}
layer {
  name: "conv2_2"
  type: "Eltwise"
  bottom: "conv2_1"
  bottom: "conv2_2_1x1_increase"
  top: "conv2_2"
  eltwise_param {
    operation: SUM
  }
}
layer {
  name: "conv2_2/relu"
  type: "ReLU"
  bottom: "conv2_2"
  top: "conv2_2"
}
layer {
  name: "conv2_3_1x1_reduce"
  type: "Convolution"
  bottom: "conv2_2"
  top: "conv2_3_1x1_reduce"
  param {
    lr_mult: 1
    decay_mult: 1
  }
  convolution_param {
    num_output: 64
    bias_term: false
    pad: 0
    kernel_size: 1
    stride: 1
    weight_filler {
      type: "msra"
    }
  }
}
layer {
  name: "conv2_3_1x1_reduce/bn"
  type: "BN"
  bottom: "conv2_3_1x1_reduce"
  top: "conv2_3_1x1_reduce"
  param {
    lr_mult: 1
    decay_mult: 0
  }
  param {
    lr_mult: 1
    decay_mult: 0
  }
  param {
    lr_mult: 0
    decay_mult: 0
  }
  param {
    lr_mult: 0
    decay_mult: 0
  }
  bn_param {
    slope_filler {
      type: "constant"
      value: 1
    }
    bias_filler {
      type: "constant"
      value: 0
    }
    momentum: 0.95
    frozen: true
  }
}
layer {
  name: "conv2_3_1x1_reduce/relu"
  type: "ReLU"
  bottom: "conv2_3_1x1_reduce"
  top: "conv2_3_1x1_reduce"
}
layer {
  name: "conv2_3_3x3"
  type: "Convolution"
  bottom: "conv2_3_1x1_reduce"
  top: "conv2_3_3x3"
  param {
    lr_mult: 1
    decay_mult: 1
  }
  convolution_param {
    num_output: 64
    bias_term: false
    pad: 1
    kernel_size: 3
    stride: 1
    weight_filler {
      type: "msra"
    }
  }
}
layer {
  name: "conv2_3_3x3/bn"
  type: "BN"
  bottom: "conv2_3_3x3"
  top: "conv2_3_3x3"
  param {
    lr_mult: 1
    decay_mult: 0
  }
  param {
    lr_mult: 1
    decay_mult: 0
  }
  param {
    lr_mult: 0
    decay_mult: 0
  }
  param {
    lr_mult: 0
    decay_mult: 0
  }
  bn_param {
    slope_filler {
      type: "constant"
      value: 1
    }
    bias_filler {
      type: "constant"
      value: 0
    }
    momentum: 0.95
    frozen: true
  }
}
layer {
  name: "conv2_3_3x3/relu"
  type: "ReLU"
  bottom: "conv2_3_3x3"
  top: "conv2_3_3x3"
}
layer {
  name: "conv2_3_1x1_increase"
  type: "Convolution"
  bottom: "conv2_3_3x3"
  top: "conv2_3_1x1_increase"
  param {
    lr_mult: 1
    decay_mult: 1
  }
  convolution_param {
    num_output: 256
    bias_term: false
    pad: 0
    kernel_size: 1
    stride: 1
    weight_filler {
      type: "msra"
    }
  }
}
layer {
  name: "conv2_3_1x1_increase/bn"
  type: "BN"
  bottom: "conv2_3_1x1_increase"
  top: "conv2_3_1x1_increase"
  param {
    lr_mult: 1
    decay_mult: 0
  }
  param {
    lr_mult: 1
    decay_mult: 0
  }
  param {
    lr_mult: 0
    decay_mult: 0
  }
  param {
    lr_mult: 0
    decay_mult: 0
  }
  bn_param {
    slope_filler {
      type: "constant"
      value: 1
    }
    bias_filler {
      type: "constant"
      value: 0
    }
    momentum: 0.95
    frozen: true
  }
}
layer {
  name: "conv2_3"
  type: "Eltwise"
  bottom: "conv2_2"
  bottom: "conv2_3_1x1_increase"
  top: "conv2_3"
  eltwise_param {
    operation: SUM
  }
}
layer {
  name: "conv2_3/relu"
  type: "ReLU"
  bottom: "conv2_3"
  top: "conv2_3"
}
layer {
  name: "conv3_1_1x1_reduce"
  type: "Convolution"
  bottom: "conv2_3"
  top: "conv3_1_1x1_reduce"
  param {
    lr_mult: 1
    decay_mult: 1
  }
  convolution_param {
    num_output: 128
    bias_term: false
    pad: 0
    kernel_size: 1
    stride: 1
    weight_filler {
      type: "msra"
    }
  }
}
layer {
  name: "conv3_1_1x1_reduce/bn"
  type: "BN"
  bottom: "conv3_1_1x1_reduce"
  top: "conv3_1_1x1_reduce"
  param {
    lr_mult: 1
    decay_mult: 0
  }
  param {
    lr_mult: 1
    decay_mult: 0
  }
  param {
    lr_mult: 0
    decay_mult: 0
  }
  param {
    lr_mult: 0
    decay_mult: 0
  }
  bn_param {
    slope_filler {
      type: "constant"
      value: 1
    }
    bias_filler {
      type: "constant"
      value: 0
    }
    momentum: 0.95
    frozen: true
  }
}
layer {
  name: "conv3_1_1x1_reduce/relu"
  type: "ReLU"
  bottom: "conv3_1_1x1_reduce"
  top: "conv3_1_1x1_reduce"
}
layer {
  name: "conv3_1_3x3"
  type: "Convolution"
  bottom: "conv3_1_1x1_reduce"
  top: "conv3_1_3x3"
  param {
    lr_mult: 1
    decay_mult: 1
  }
  convolution_param {
    num_output: 128
    bias_term: false
    pad: 1
    kernel_size: 3
    stride: 2
    weight_filler {
      type: "msra"
    }
  }
}
layer {
  name: "conv3_1_3x3/bn"
  type: "BN"
  bottom: "conv3_1_3x3"
  top: "conv3_1_3x3"
  param {
    lr_mult: 1
    decay_mult: 0
  }
  param {
    lr_mult: 1
    decay_mult: 0
  }
  param {
    lr_mult: 0
    decay_mult: 0
  }
  param {
    lr_mult: 0
    decay_mult: 0
  }
  bn_param {
    slope_filler {
      type: "constant"
      value: 1
    }
    bias_filler {
      type: "constant"
      value: 0
    }
    momentum: 0.95
    frozen: true
  }
}
layer {
  name: "conv3_1_3x3/relu"
  type: "ReLU"
  bottom: "conv3_1_3x3"
  top: "conv3_1_3x3"
}
layer {
  name: "conv3_1_1x1_increase"
  type: "Convolution"
  bottom: "conv3_1_3x3"
  top: "conv3_1_1x1_increase"
  param {
    lr_mult: 1
    decay_mult: 1
  }
  convolution_param {
    num_output: 512
    bias_term: false
    pad: 0
    kernel_size: 1
    stride: 1
    weight_filler {
      type: "msra"
    }
  }
}
layer {
  name: "conv3_1_1x1_increase/bn"
  type: "BN"
  bottom: "conv3_1_1x1_increase"
  top: "conv3_1_1x1_increase"
  param {
    lr_mult: 1
    decay_mult: 0
  }
  param {
    lr_mult: 1
    decay_mult: 0
  }
  param {
    lr_mult: 0
    decay_mult: 0
  }
  param {
    lr_mult: 0
    decay_mult: 0
  }
  bn_param {
    slope_filler {
      type: "constant"
      value: 1
    }
    bias_filler {
      type: "constant"
      value: 0
    }
    momentum: 0.95
    frozen: true
  }
}
layer {
  name: "conv3_1_1x1_proj"
  type: "Convolution"
  bottom: "conv2_3"
  top: "conv3_1_1x1_proj"
  param {
    lr_mult: 1
    decay_mult: 1
  }
  convolution_param {
    num_output: 512
    bias_term: false
    pad: 0
    kernel_size: 1
    stride: 2
    weight_filler {
      type: "msra"
    }
  }
}
layer {
  name: "conv3_1_1x1_proj/bn"
  type: "BN"
  bottom: "conv3_1_1x1_proj"
  top: "conv3_1_1x1_proj"
  param {
    lr_mult: 1
    decay_mult: 0
  }
  param {
    lr_mult: 1
    decay_mult: 0
  }
  param {
    lr_mult: 0
    decay_mult: 0
  }
  param {
    lr_mult: 0
    decay_mult: 0
  }
  bn_param {
    slope_filler {
      type: "constant"
      value: 1
    }
    bias_filler {
      type: "constant"
      value: 0
    }
    momentum: 0.95
    frozen: true
  }
}
layer {
  name: "conv3_1"
  type: "Eltwise"
  bottom: "conv3_1_1x1_proj"
  bottom: "conv3_1_1x1_increase"
  top: "conv3_1"
  eltwise_param {
    operation: SUM
  }
}
layer {
  name: "conv3_1/relu"
  type: "ReLU"
  bottom: "conv3_1"
  top: "conv3_1"
}
layer {
  name: "conv3_2_1x1_reduce"
  type: "Convolution"
  bottom: "conv3_1"
  top: "conv3_2_1x1_reduce"
  param {
    lr_mult: 1
    decay_mult: 1
  }
  convolution_param {
    num_output: 128
    bias_term: false
    pad: 0
    kernel_size: 1
    stride: 1
    weight_filler {
      type: "msra"
    }
  }
}
layer {
  name: "conv3_2_1x1_reduce/bn"
  type: "BN"
  bottom: "conv3_2_1x1_reduce"
  top: "conv3_2_1x1_reduce"
  param {
    lr_mult: 1
    decay_mult: 0
  }
  param {
    lr_mult: 1
    decay_mult: 0
  }
  param {
    lr_mult: 0
    decay_mult: 0
  }
  param {
    lr_mult: 0
    decay_mult: 0
  }
  bn_param {
    slope_filler {
      type: "constant"
      value: 1
    }
    bias_filler {
      type: "constant"
      value: 0
    }
    momentum: 0.95
    frozen: true
  }
}
layer {
  name: "conv3_2_1x1_reduce/relu"
  type: "ReLU"
  bottom: "conv3_2_1x1_reduce"
  top: "conv3_2_1x1_reduce"
}
layer {
  name: "conv3_2_3x3"
  type: "Convolution"
  bottom: "conv3_2_1x1_reduce"
  top: "conv3_2_3x3"
  param {
    lr_mult: 1
    decay_mult: 1
  }
  convolution_param {
    num_output: 128
    bias_term: false
    pad: 1
    kernel_size: 3
    stride: 1
    weight_filler {
      type: "msra"
    }
  }
}
layer {
  name: "conv3_2_3x3/bn"
  type: "BN"
  bottom: "conv3_2_3x3"
  top: "conv3_2_3x3"
  param {
    lr_mult: 1
    decay_mult: 0
  }
  param {
    lr_mult: 1
    decay_mult: 0
  }
  param {
    lr_mult: 0
    decay_mult: 0
  }
  param {
    lr_mult: 0
    decay_mult: 0
  }
  bn_param {
    slope_filler {
      type: "constant"
      value: 1
    }
    bias_filler {
      type: "constant"
      value: 0
    }
    momentum: 0.95
    frozen: true
  }
}
layer {
  name: "conv3_2_3x3/relu"
  type: "ReLU"
  bottom: "conv3_2_3x3"
  top: "conv3_2_3x3"
}
layer {
  name: "conv3_2_1x1_increase"
  type: "Convolution"
  bottom: "conv3_2_3x3"
  top: "conv3_2_1x1_increase"
  param {
    lr_mult: 1
    decay_mult: 1
  }
  convolution_param {
    num_output: 512
    bias_term: false
    pad: 0
    kernel_size: 1
    stride: 1
    weight_filler {
      type: "msra"
    }
  }
}
layer {
  name: "conv3_2_1x1_increase/bn"
  type: "BN"
  bottom: "conv3_2_1x1_increase"
  top: "conv3_2_1x1_increase"
  param {
    lr_mult: 1
    decay_mult: 0
  }
  param {
    lr_mult: 1
    decay_mult: 0
  }
  param {
    lr_mult: 0
    decay_mult: 0
  }
  param {
    lr_mult: 0
    decay_mult: 0
  }
  bn_param {
    slope_filler {
      type: "constant"
      value: 1
    }
    bias_filler {
      type: "constant"
      value: 0
    }
    momentum: 0.95
    frozen: true
  }
}
layer {
  name: "conv3_2"
  type: "Eltwise"
  bottom: "conv3_1"
  bottom: "conv3_2_1x1_increase"
  top: "conv3_2"
  eltwise_param {
    operation: SUM
  }
}
layer {
  name: "conv3_2/relu"
  type: "ReLU"
  bottom: "conv3_2"
  top: "conv3_2"
}
layer {
  name: "conv3_3_1x1_reduce"
  type: "Convolution"
  bottom: "conv3_2"
  top: "conv3_3_1x1_reduce"
  param {
    lr_mult: 1
    decay_mult: 1
  }
  convolution_param {
    num_output: 128
    bias_term: false
    pad: 0
    kernel_size: 1
    stride: 1
    weight_filler {
      type: "msra"
    }
  }
}
layer {
  name: "conv3_3_1x1_reduce/bn"
  type: "BN"
  bottom: "conv3_3_1x1_reduce"
  top: "conv3_3_1x1_reduce"
  param {
    lr_mult: 1
    decay_mult: 0
  }
  param {
    lr_mult: 1
    decay_mult: 0
  }
  param {
    lr_mult: 0
    decay_mult: 0
  }
  param {
    lr_mult: 0
    decay_mult: 0
  }
  bn_param {
    slope_filler {
      type: "constant"
      value: 1
    }
    bias_filler {
      type: "constant"
      value: 0
    }
    momentum: 0.95
    frozen: true
  }
}
layer {
  name: "conv3_3_1x1_reduce/relu"
  type: "ReLU"
  bottom: "conv3_3_1x1_reduce"
  top: "conv3_3_1x1_reduce"
}
layer {
  name: "conv3_3_3x3"
  type: "Convolution"
  bottom: "conv3_3_1x1_reduce"
  top: "conv3_3_3x3"
  param {
    lr_mult: 1
    decay_mult: 1
  }
  convolution_param {
    num_output: 128
    bias_term: false
    pad: 1
    kernel_size: 3
    stride: 1
    weight_filler {
      type: "msra"
    }
  }
}
layer {
  name: "conv3_3_3x3/bn"
  type: "BN"
  bottom: "conv3_3_3x3"
  top: "conv3_3_3x3"
  param {
    lr_mult: 1
    decay_mult: 0
  }
  param {
    lr_mult: 1
    decay_mult: 0
  }
  param {
    lr_mult: 0
    decay_mult: 0
  }
  param {
    lr_mult: 0
    decay_mult: 0
  }
  bn_param {
    slope_filler {
      type: "constant"
      value: 1
    }
    bias_filler {
      type: "constant"
      value: 0
    }
    momentum: 0.95
    frozen: true
  }
}
layer {
  name: "conv3_3_3x3/relu"
  type: "ReLU"
  bottom: "conv3_3_3x3"
  top: "conv3_3_3x3"
}
layer {
  name: "conv3_3_1x1_increase"
  type: "Convolution"
  bottom: "conv3_3_3x3"
  top: "conv3_3_1x1_increase"
  param {
    lr_mult: 1
    decay_mult: 1
  }
  convolution_param {
    num_output: 512
    bias_term: false
    pad: 0
    kernel_size: 1
    stride: 1
    weight_filler {
      type: "msra"
    }
  }
}
layer {
  name: "conv3_3_1x1_increase/bn"
  type: "BN"
  bottom: "conv3_3_1x1_increase"
  top: "conv3_3_1x1_increase"
  param {
    lr_mult: 1
    decay_mult: 0
  }
  param {
    lr_mult: 1
    decay_mult: 0
  }
  param {
    lr_mult: 0
    decay_mult: 0
  }
  param {
    lr_mult: 0
    decay_mult: 0
  }
  bn_param {
    slope_filler {
      type: "constant"
      value: 1
    }
    bias_filler {
      type: "constant"
      value: 0
    }
    momentum: 0.95
    frozen: true
  }
}
layer {
  name: "conv3_3"
  type: "Eltwise"
  bottom: "conv3_2"
  bottom: "conv3_3_1x1_increase"
  top: "conv3_3"
  eltwise_param {
    operation: SUM
  }
}
layer {
  name: "conv3_3/relu"
  type: "ReLU"
  bottom: "conv3_3"
  top: "conv3_3"
}
layer {
  name: "conv3_4_1x1_reduce"
  type: "Convolution"
  bottom: "conv3_3"
  top: "conv3_4_1x1_reduce"
  param {
    lr_mult: 1
    decay_mult: 1
  }
  convolution_param {
    num_output: 128
    bias_term: false
    pad: 0
    kernel_size: 1
    stride: 1
    weight_filler {
      type: "msra"
    }
  }
}
layer {
  name: "conv3_4_1x1_reduce/bn"
  type: "BN"
  bottom: "conv3_4_1x1_reduce"
  top: "conv3_4_1x1_reduce"
  param {
    lr_mult: 1
    decay_mult: 0
  }
  param {
    lr_mult: 1
    decay_mult: 0
  }
  param {
    lr_mult: 0
    decay_mult: 0
  }
  param {
    lr_mult: 0
    decay_mult: 0
  }
  bn_param {
    slope_filler {
      type: "constant"
      value: 1
    }
    bias_filler {
      type: "constant"
      value: 0
    }
    momentum: 0.95
    frozen: true
  }
}
layer {
  name: "conv3_4_1x1_reduce/relu"
  type: "ReLU"
  bottom: "conv3_4_1x1_reduce"
  top: "conv3_4_1x1_reduce"
}
layer {
  name: "conv3_4_3x3"
  type: "Convolution"
  bottom: "conv3_4_1x1_reduce"
  top: "conv3_4_3x3"
  param {
    lr_mult: 1
    decay_mult: 1
  }
  convolution_param {
    num_output: 128
    bias_term: false
    pad: 1
    kernel_size: 3
    stride: 1
    weight_filler {
      type: "msra"
    }
  }
}
layer {
  name: "conv3_4_3x3/bn"
  type: "BN"
  bottom: "conv3_4_3x3"
  top: "conv3_4_3x3"
  param {
    lr_mult: 1
    decay_mult: 0
  }
  param {
    lr_mult: 1
    decay_mult: 0
  }
  param {
    lr_mult: 0
    decay_mult: 0
  }
  param {
    lr_mult: 0
    decay_mult: 0
  }
  bn_param {
    slope_filler {
      type: "constant"
      value: 1
    }
    bias_filler {
      type: "constant"
      value: 0
    }
    momentum: 0.95
    frozen: true
  }
}
layer {
  name: "conv3_4_3x3/relu"
  type: "ReLU"
  bottom: "conv3_4_3x3"
  top: "conv3_4_3x3"
}
layer {
  name: "conv3_4_1x1_increase"
  type: "Convolution"
  bottom: "conv3_4_3x3"
  top: "conv3_4_1x1_increase"
  param {
    lr_mult: 1
    decay_mult: 1
  }
  convolution_param {
    num_output: 512
    bias_term: false
    pad: 0
    kernel_size: 1
    stride: 1
    weight_filler {
      type: "msra"
    }
  }
}
layer {
  name: "conv3_4_1x1_increase/bn"
  type: "BN"
  bottom: "conv3_4_1x1_increase"
  top: "conv3_4_1x1_increase"
  param {
    lr_mult: 1
    decay_mult: 0
  }
  param {
    lr_mult: 1
    decay_mult: 0
  }
  param {
    lr_mult: 0
    decay_mult: 0
  }
  param {
    lr_mult: 0
    decay_mult: 0
  }
  bn_param {
    slope_filler {
      type: "constant"
      value: 1
    }
    bias_filler {
      type: "constant"
      value: 0
    }
    momentum: 0.95
    frozen: true
  }
}
layer {
  name: "conv3_4"
  type: "Eltwise"
  bottom: "conv3_3"
  bottom: "conv3_4_1x1_increase"
  top: "conv3_4"
  eltwise_param {
    operation: SUM
  }
}
layer {
  name: "conv3_4/relu"
  type: "ReLU"
  bottom: "conv3_4"
  top: "conv3_4"
}
layer {
  name: "conv4_1_1x1_reduce"
  type: "Convolution"
  bottom: "conv3_4"
  top: "conv4_1_1x1_reduce"
  param {
    lr_mult: 1
    decay_mult: 1
  }
  convolution_param {
    num_output: 256
    bias_term: false
    pad: 0
    kernel_size: 1
    stride: 1
    weight_filler {
      type: "msra"
    }
  }
}
layer {
  name: "conv4_1_1x1_reduce/bn"
  type: "BN"
  bottom: "conv4_1_1x1_reduce"
  top: "conv4_1_1x1_reduce"
  param {
    lr_mult: 1
    decay_mult: 0
  }
  param {
    lr_mult: 1
    decay_mult: 0
  }
  param {
    lr_mult: 0
    decay_mult: 0
  }
  param {
    lr_mult: 0
    decay_mult: 0
  }
  bn_param {
    slope_filler {
      type: "constant"
      value: 1
    }
    bias_filler {
      type: "constant"
      value: 0
    }
    momentum: 0.95
    frozen: true
  }
}
layer {
  name: "conv4_1_1x1_reduce/relu"
  type: "ReLU"
  bottom: "conv4_1_1x1_reduce"
  top: "conv4_1_1x1_reduce"
}
layer {
  name: "conv4_1_3x3"
  type: "Convolution"
  bottom: "conv4_1_1x1_reduce"
  top: "conv4_1_3x3"
  param {
    lr_mult: 1
    decay_mult: 1
  }
  convolution_param {
    num_output: 256
    bias_term: false
    pad: 2
    kernel_size: 3
    stride: 1
    weight_filler {
      type: "msra"
    }
    dilation: 2
  }
}
layer {
  name: "conv4_1_3x3/bn"
  type: "BN"
  bottom: "conv4_1_3x3"
  top: "conv4_1_3x3"
  param {
    lr_mult: 1
    decay_mult: 0
  }
  param {
    lr_mult: 1
    decay_mult: 0
  }
  param {
    lr_mult: 0
    decay_mult: 0
  }
  param {
    lr_mult: 0
    decay_mult: 0
  }
  bn_param {
    slope_filler {
      type: "constant"
      value: 1
    }
    bias_filler {
      type: "constant"
      value: 0
    }
    momentum: 0.95
    frozen: true
  }
}
layer {
  name: "conv4_1_3x3/relu"
  type: "ReLU"
  bottom: "conv4_1_3x3"
  top: "conv4_1_3x3"
}
layer {
  name: "conv4_1_1x1_increase"
  type: "Convolution"
  bottom: "conv4_1_3x3"
  top: "conv4_1_1x1_increase"
  param {
    lr_mult: 1
    decay_mult: 1
  }
  convolution_param {
    num_output: 1024
    bias_term: false
    pad: 0
    kernel_size: 1
    stride: 1
    weight_filler {
      type: "msra"
    }
  }
}
layer {
  name: "conv4_1_1x1_increase/bn"
  type: "BN"
  bottom: "conv4_1_1x1_increase"
  top: "conv4_1_1x1_increase"
  param {
    lr_mult: 1
    decay_mult: 0
  }
  param {
    lr_mult: 1
    decay_mult: 0
  }
  param {
    lr_mult: 0
    decay_mult: 0
  }
  param {
    lr_mult: 0
    decay_mult: 0
  }
  bn_param {
    slope_filler {
      type: "constant"
      value: 1
    }
    bias_filler {
      type: "constant"
      value: 0
    }
    momentum: 0.95
    frozen: true
  }
}
layer {
  name: "conv4_1_1x1_proj"
  type: "Convolution"
  bottom: "conv3_4"
  top: "conv4_1_1x1_proj"
  param {
    lr_mult: 1
    decay_mult: 1
  }
  convolution_param {
    num_output: 1024
    bias_term: false
    pad: 0
    kernel_size: 1
    stride: 1
    weight_filler {
      type: "msra"
    }
  }
}
layer {
  name: "conv4_1_1x1_proj/bn"
  type: "BN"
  bottom: "conv4_1_1x1_proj"
  top: "conv4_1_1x1_proj"
  param {
    lr_mult: 1
    decay_mult: 0
  }
  param {
    lr_mult: 1
    decay_mult: 0
  }
  param {
    lr_mult: 0
    decay_mult: 0
  }
  param {
    lr_mult: 0
    decay_mult: 0
  }
  bn_param {
    slope_filler {
      type: "constant"
      value: 1
    }
    bias_filler {
      type: "constant"
      value: 0
    }
    momentum: 0.95
    frozen: true
  }
}
layer {
  name: "conv4_1"
  type: "Eltwise"
  bottom: "conv4_1_1x1_proj"
  bottom: "conv4_1_1x1_increase"
  top: "conv4_1"
  eltwise_param {
    operation: SUM
  }
}
layer {
  name: "conv4_1/relu"
  type: "ReLU"
  bottom: "conv4_1"
  top: "conv4_1"
}
layer {
  name: "conv4_2_1x1_reduce"
  type: "Convolution"
  bottom: "conv4_1"
  top: "conv4_2_1x1_reduce"
  param {
    lr_mult: 1
    decay_mult: 1
  }
  convolution_param {
    num_output: 256
    bias_term: false
    pad: 0
    kernel_size: 1
    stride: 1
    weight_filler {
      type: "msra"
    }
  }
}
layer {
  name: "conv4_2_1x1_reduce/bn"
  type: "BN"
  bottom: "conv4_2_1x1_reduce"
  top: "conv4_2_1x1_reduce"
  param {
    lr_mult: 1
    decay_mult: 0
  }
  param {
    lr_mult: 1
    decay_mult: 0
  }
  param {
    lr_mult: 0
    decay_mult: 0
  }
  param {
    lr_mult: 0
    decay_mult: 0
  }
  bn_param {
    slope_filler {
      type: "constant"
      value: 1
    }
    bias_filler {
      type: "constant"
      value: 0
    }
    momentum: 0.95
    frozen: true
  }
}
layer {
  name: "conv4_2_1x1_reduce/relu"
  type: "ReLU"
  bottom: "conv4_2_1x1_reduce"
  top: "conv4_2_1x1_reduce"
}
layer {
  name: "conv4_2_3x3"
  type: "Convolution"
  bottom: "conv4_2_1x1_reduce"
  top: "conv4_2_3x3"
  param {
    lr_mult: 1
    decay_mult: 1
  }
  convolution_param {
    num_output: 256
    bias_term: false
    pad: 2
    kernel_size: 3
    stride: 1
    weight_filler {
      type: "msra"
    }
    dilation: 2
  }
}
layer {
  name: "conv4_2_3x3/bn"
  type: "BN"
  bottom: "conv4_2_3x3"
  top: "conv4_2_3x3"
  param {
    lr_mult: 1
    decay_mult: 0
  }
  param {
    lr_mult: 1
    decay_mult: 0
  }
  param {
    lr_mult: 0
    decay_mult: 0
  }
  param {
    lr_mult: 0
    decay_mult: 0
  }
  bn_param {
    slope_filler {
      type: "constant"
      value: 1
    }
    bias_fille
I0620 04:28:07.825510  3148 layer_factory.hpp:77] Creating layer data
I0620 04:28:07.825541  3148 net.cpp:106] Creating Layer data
I0620 04:28:07.825546  3148 net.cpp:411] data -> data
I0620 04:28:07.825567  3148 net.cpp:411] data -> label
I0620 04:28:07.825573  3148 net.cpp:411] data -> (automatic)
I0620 04:28:07.825930  3148 image_seg_data_layer.cpp:46] Opening file exper/voc12/list/train_aug.txt
I0620 04:28:07.832629  3148 image_seg_data_layer.cpp:63] Shuffling data
I0620 04:28:07.833763  3148 image_seg_data_layer.cpp:68] A total of 10582 images.
I0620 04:28:07.861886  3148 image_seg_data_layer.cpp:137] output data size: 2,3,473,473
I0620 04:28:07.861905  3148 image_seg_data_layer.cpp:141] output label size: 2,1,473,473
I0620 04:28:07.861908  3148 image_seg_data_layer.cpp:145] output data_dim size: 2,1,1,2
I0620 04:28:07.893189  3148 net.cpp:150] Setting up data
I0620 04:28:07.893277  3148 net.cpp:157] Top shape: 2 3 473 473 (1342374)
I0620 04:28:07.893288  3148 net.cpp:157] Top shape: 2 1 473 473 (447458)
I0620 04:28:07.893295  3148 net.cpp:157] Top shape: 2 1 1 2 (4)
I0620 04:28:07.893298  3148 net.cpp:165] Memory required for data: 7159344
I0620 04:28:07.893321  3148 layer_factory.hpp:77] Creating layer conv1_1_3x3_s2
I0620 04:28:07.893393  3148 net.cpp:106] Creating Layer conv1_1_3x3_s2
I0620 04:28:07.893404  3148 net.cpp:454] conv1_1_3x3_s2 <- data
I0620 04:28:07.893431  3148 net.cpp:411] conv1_1_3x3_s2 -> conv1_1_3x3_s2
I0620 04:28:07.895555  3148 net.cpp:150] Setting up conv1_1_3x3_s2
I0620 04:28:07.895620  3148 net.cpp:157] Top shape: 2 64 237 237 (7189632)
I0620 04:28:07.895627  3148 net.cpp:165] Memory required for data: 35917872
I0620 04:28:07.895659  3148 layer_factory.hpp:77] Creating layer conv1_1_3x3_s2/bn
I0620 04:28:07.895689  3148 net.cpp:106] Creating Layer conv1_1_3x3_s2/bn
I0620 04:28:07.895694  3148 net.cpp:454] conv1_1_3x3_s2/bn <- conv1_1_3x3_s2
I0620 04:28:07.895704  3148 net.cpp:397] conv1_1_3x3_s2/bn -> conv1_1_3x3_s2 (in-place)
I0620 04:28:07.897701  3148 net.cpp:150] Setting up conv1_1_3x3_s2/bn
I0620 04:28:07.897785  3148 net.cpp:157] Top shape: 2 64 237 237 (7189632)
I0620 04:28:07.897792  3148 net.cpp:165] Memory required for data: 64676400
I0620 04:28:07.897897  3148 layer_factory.hpp:77] Creating layer conv1_1_3x3_s2/relu
I0620 04:28:07.897922  3148 net.cpp:106] Creating Layer conv1_1_3x3_s2/relu
I0620 04:28:07.897929  3148 net.cpp:454] conv1_1_3x3_s2/relu <- conv1_1_3x3_s2
I0620 04:28:07.897938  3148 net.cpp:397] conv1_1_3x3_s2/relu -> conv1_1_3x3_s2 (in-place)
I0620 04:28:07.897967  3148 net.cpp:150] Setting up conv1_1_3x3_s2/relu
I0620 04:28:07.897974  3148 net.cpp:157] Top shape: 2 64 237 237 (7189632)
I0620 04:28:07.897977  3148 net.cpp:165] Memory required for data: 93434928
I0620 04:28:07.897982  3148 layer_factory.hpp:77] Creating layer conv1_2_3x3
I0620 04:28:07.897996  3148 net.cpp:106] Creating Layer conv1_2_3x3
I0620 04:28:07.898001  3148 net.cpp:454] conv1_2_3x3 <- conv1_1_3x3_s2
I0620 04:28:07.898010  3148 net.cpp:411] conv1_2_3x3 -> conv1_2_3x3
I0620 04:28:07.899402  3148 net.cpp:150] Setting up conv1_2_3x3
I0620 04:28:07.899422  3148 net.cpp:157] Top shape: 2 64 237 237 (7189632)
I0620 04:28:07.899427  3148 net.cpp:165] Memory required for data: 122193456
I0620 04:28:07.899437  3148 layer_factory.hpp:77] Creating layer conv1_2_3x3/bn
I0620 04:28:07.899453  3148 net.cpp:106] Creating Layer conv1_2_3x3/bn
I0620 04:28:07.899458  3148 net.cpp:454] conv1_2_3x3/bn <- conv1_2_3x3
I0620 04:28:07.899466  3148 net.cpp:397] conv1_2_3x3/bn -> conv1_2_3x3 (in-place)
I0620 04:28:07.899752  3148 net.cpp:150] Setting up conv1_2_3x3/bn
I0620 04:28:07.899761  3148 net.cpp:157] Top shape: 2 64 237 237 (7189632)
I0620 04:28:07.899770  3148 net.cpp:165] Memory required for data: 150951984
I0620 04:28:07.899785  3148 layer_factory.hpp:77] Creating layer conv1_2_3x3/relu
I0620 04:28:07.899796  3148 net.cpp:106] Creating Layer conv1_2_3x3/relu
I0620 04:28:07.899799  3148 net.cpp:454] conv1_2_3x3/relu <- conv1_2_3x3
I0620 04:28:07.899806  3148 net.cpp:397] conv1_2_3x3/relu -> conv1_2_3x3 (in-place)
I0620 04:28:07.899812  3148 net.cpp:150] Setting up conv1_2_3x3/relu
I0620 04:28:07.899818  3148 net.cpp:157] Top shape: 2 64 237 237 (7189632)
I0620 04:28:07.899821  3148 net.cpp:165] Memory required for data: 179710512
I0620 04:28:07.899827  3148 layer_factory.hpp:77] Creating layer conv1_3_3x3
I0620 04:28:07.899837  3148 net.cpp:106] Creating Layer conv1_3_3x3
I0620 04:28:07.899842  3148 net.cpp:454] conv1_3_3x3 <- conv1_2_3x3
I0620 04:28:07.899847  3148 net.cpp:411] conv1_3_3x3 -> conv1_3_3x3
I0620 04:28:07.902001  3148 net.cpp:150] Setting up conv1_3_3x3
I0620 04:28:07.902024  3148 net.cpp:157] Top shape: 2 128 237 237 (14379264)
I0620 04:28:07.902027  3148 net.cpp:165] Memory required for data: 237227568
I0620 04:28:07.902034  3148 layer_factory.hpp:77] Creating layer conv1_3_3x3/bn
I0620 04:28:07.902045  3148 net.cpp:106] Creating Layer conv1_3_3x3/bn
I0620 04:28:07.902050  3148 net.cpp:454] conv1_3_3x3/bn <- conv1_3_3x3
I0620 04:28:07.902055  3148 net.cpp:397] conv1_3_3x3/bn -> conv1_3_3x3 (in-place)
I0620 04:28:07.904666  3148 net.cpp:150] Setting up conv1_3_3x3/bn
I0620 04:28:07.904675  3148 net.cpp:157] Top shape: 2 128 237 237 (14379264)
I0620 04:28:07.904678  3148 net.cpp:165] Memory required for data: 294744624
I0620 04:28:07.904686  3148 layer_factory.hpp:77] Creating layer conv1_3_3x3/relu
I0620 04:28:07.904695  3148 net.cpp:106] Creating Layer conv1_3_3x3/relu
I0620 04:28:07.904703  3148 net.cpp:454] conv1_3_3x3/relu <- conv1_3_3x3
I0620 04:28:07.904709  3148 net.cpp:397] conv1_3_3x3/relu -> conv1_3_3x3 (in-place)
I0620 04:28:07.904716  3148 net.cpp:150] Setting up conv1_3_3x3/relu
I0620 04:28:07.904721  3148 net.cpp:157] Top shape: 2 128 237 237 (14379264)
I0620 04:28:07.904726  3148 net.cpp:165] Memory required for data: 352261680
I0620 04:28:07.904731  3148 layer_factory.hpp:77] Creating layer pool1_3x3_s2
I0620 04:28:07.904738  3148 net.cpp:106] Creating Layer pool1_3x3_s2
I0620 04:28:07.904743  3148 net.cpp:454] pool1_3x3_s2 <- conv1_3_3x3
I0620 04:28:07.904748  3148 net.cpp:411] pool1_3x3_s2 -> pool1_3x3_s2
I0620 04:28:07.904855  3148 net.cpp:150] Setting up pool1_3x3_s2
I0620 04:28:07.904865  3148 net.cpp:157] Top shape: 2 128 119 119 (3625216)
I0620 04:28:07.904892  3148 net.cpp:165] Memory required for data: 366762544
I0620 04:28:07.904897  3148 layer_factory.hpp:77] Creating layer pool1_3x3_s2_pool1_3x3_s2_0_split
I0620 04:28:07.904911  3148 net.cpp:106] Creating Layer pool1_3x3_s2_pool1_3x3_s2_0_split
I0620 04:28:07.904914  3148 net.cpp:454] pool1_3x3_s2_pool1_3x3_s2_0_split <- pool1_3x3_s2
I0620 04:28:07.904919  3148 net.cpp:411] pool1_3x3_s2_pool1_3x3_s2_0_split -> pool1_3x3_s2_pool1_3x3_s2_0_split_0
I0620 04:28:07.904925  3148 net.cpp:411] pool1_3x3_s2_pool1_3x3_s2_0_split -> pool1_3x3_s2_pool1_3x3_s2_0_split_1
I0620 04:28:07.904954  3148 net.cpp:150] Setting up pool1_3x3_s2_pool1_3x3_s2_0_split
I0620 04:28:07.904960  3148 net.cpp:157] Top shape: 2 128 119 119 (3625216)
I0620 04:28:07.904965  3148 net.cpp:157] Top shape: 2 128 119 119 (3625216)
I0620 04:28:07.904969  3148 net.cpp:165] Memory required for data: 395764272
I0620 04:28:07.904974  3148 layer_factory.hpp:77] Creating layer conv2_1_1x1_reduce
I0620 04:28:07.904984  3148 net.cpp:106] Creating Layer conv2_1_1x1_reduce
I0620 04:28:07.904989  3148 net.cpp:454] conv2_1_1x1_reduce <- pool1_3x3_s2_pool1_3x3_s2_0_split_0
I0620 04:28:07.904995  3148 net.cpp:411] conv2_1_1x1_reduce -> conv2_1_1x1_reduce
I0620 04:28:07.906184  3148 net.cpp:150] Setting up conv2_1_1x1_reduce
I0620 04:28:07.906198  3148 net.cpp:157] Top shape: 2 64 119 119 (1812608)
I0620 04:28:07.906200  3148 net.cpp:165] Memory required for data: 403014704
I0620 04:28:07.906204  3148 layer_factory.hpp:77] Creating layer conv2_1_1x1_reduce/bn
I0620 04:28:07.906210  3148 net.cpp:106] Creating Layer conv2_1_1x1_reduce/bn
I0620 04:28:07.906213  3148 net.cpp:454] conv2_1_1x1_reduce/bn <- conv2_1_1x1_reduce
I0620 04:28:07.906216  3148 net.cpp:397] conv2_1_1x1_reduce/bn -> conv2_1_1x1_reduce (in-place)
I0620 04:28:07.906349  3148 net.cpp:150] Setting up conv2_1_1x1_reduce/bn
I0620 04:28:07.906353  3148 net.cpp:157] Top shape: 2 64 119 119 (1812608)
I0620 04:28:07.906357  3148 net.cpp:165] Memory required for data: 410265136
I0620 04:28:07.906365  3148 layer_factory.hpp:77] Creating layer conv2_1_1x1_reduce/relu
I0620 04:28:07.906369  3148 net.cpp:106] Creating Layer conv2_1_1x1_reduce/relu
I0620 04:28:07.906371  3148 net.cpp:454] conv2_1_1x1_reduce/relu <- conv2_1_1x1_reduce
I0620 04:28:07.906374  3148 net.cpp:397] conv2_1_1x1_reduce/relu -> conv2_1_1x1_reduce (in-place)
I0620 04:28:07.906378  3148 net.cpp:150] Setting up conv2_1_1x1_reduce/relu
I0620 04:28:07.906383  3148 net.cpp:157] Top shape: 2 64 119 119 (1812608)
I0620 04:28:07.906385  3148 net.cpp:165] Memory required for data: 417515568
I0620 04:28:07.906388  3148 layer_factory.hpp:77] Creating layer conv2_1_3x3
I0620 04:28:07.906395  3148 net.cpp:106] Creating Layer conv2_1_3x3
I0620 04:28:07.906399  3148 net.cpp:454] conv2_1_3x3 <- conv2_1_1x1_reduce
I0620 04:28:07.906402  3148 net.cpp:411] conv2_1_3x3 -> conv2_1_3x3
I0620 04:28:07.907279  3148 net.cpp:150] Setting up conv2_1_3x3
I0620 04:28:07.907285  3148 net.cpp:157] Top shape: 2 64 119 119 (1812608)
I0620 04:28:07.907289  3148 net.cpp:165] Memory required for data: 424766000
I0620 04:28:07.907291  3148 layer_factory.hpp:77] Creating layer conv2_1_3x3/bn
I0620 04:28:07.907299  3148 net.cpp:106] Creating Layer conv2_1_3x3/bn
I0620 04:28:07.907301  3148 net.cpp:454] conv2_1_3x3/bn <- conv2_1_3x3
I0620 04:28:07.907305  3148 net.cpp:397] conv2_1_3x3/bn -> conv2_1_3x3 (in-place)
I0620 04:28:07.907435  3148 net.cpp:150] Setting up conv2_1_3x3/bn
I0620 04:28:07.907440  3148 net.cpp:157] Top shape: 2 64 119 119 (1812608)
I0620 04:28:07.907444  3148 net.cpp:165] Memory required for data: 432016432
I0620 04:28:07.907449  3148 layer_factory.hpp:77] Creating layer conv2_1_3x3/relu
I0620 04:28:07.907452  3148 net.cpp:106] Creating Layer conv2_1_3x3/relu
I0620 04:28:07.907455  3148 net.cpp:454] conv2_1_3x3/relu <- conv2_1_3x3
I0620 04:28:07.907459  3148 net.cpp:397] conv2_1_3x3/relu -> conv2_1_3x3 (in-place)
I0620 04:28:07.907462  3148 net.cpp:150] Setting up conv2_1_3x3/relu
I0620 04:28:07.907465  3148 net.cpp:157] Top shape: 2 64 119 119 (1812608)
I0620 04:28:07.907480  3148 net.cpp:165] Memory required for data: 439266864
I0620 04:28:07.907482  3148 layer_factory.hpp:77] Creating layer conv2_1_1x1_increase
I0620 04:28:07.907488  3148 net.cpp:106] Creating Layer conv2_1_1x1_increase
I0620 04:28:07.907490  3148 net.cpp:454] conv2_1_1x1_increase <- conv2_1_3x3
I0620 04:28:07.907495  3148 net.cpp:411] conv2_1_1x1_increase -> conv2_1_1x1_increase
I0620 04:28:07.907949  3148 net.cpp:150] Setting up conv2_1_1x1_increase
I0620 04:28:07.907955  3148 net.cpp:157] Top shape: 2 256 119 119 (7250432)
I0620 04:28:07.907958  3148 net.cpp:165] Memory required for data: 468268592
I0620 04:28:07.907963  3148 layer_factory.hpp:77] Creating layer conv2_1_1x1_increase/bn
I0620 04:28:07.907969  3148 net.cpp:106] Creating Layer conv2_1_1x1_increase/bn
I0620 04:28:07.907974  3148 net.cpp:454] conv2_1_1x1_increase/bn <- conv2_1_1x1_increase
I0620 04:28:07.907977  3148 net.cpp:397] conv2_1_1x1_increase/bn -> conv2_1_1x1_increase (in-place)
I0620 04:28:07.908100  3148 net.cpp:150] Setting up conv2_1_1x1_increase/bn
I0620 04:28:07.908104  3148 net.cpp:157] Top shape: 2 256 119 119 (7250432)
I0620 04:28:07.908107  3148 net.cpp:165] Memory required for data: 497270320
I0620 04:28:07.908113  3148 layer_factory.hpp:77] Creating layer conv2_1_1x1_proj
I0620 04:28:07.908121  3148 net.cpp:106] Creating Layer conv2_1_1x1_proj
I0620 04:28:07.908125  3148 net.cpp:454] conv2_1_1x1_proj <- pool1_3x3_s2_pool1_3x3_s2_0_split_1
I0620 04:28:07.908129  3148 net.cpp:411] conv2_1_1x1_proj -> conv2_1_1x1_proj
I0620 04:28:07.908946  3148 net.cpp:150] Setting up conv2_1_1x1_proj
I0620 04:28:07.908954  3148 net.cpp:157] Top shape: 2 256 119 119 (7250432)
I0620 04:28:07.908957  3148 net.cpp:165] Memory required for data: 526272048
I0620 04:28:07.908962  3148 layer_factory.hpp:77] Creating layer conv2_1_1x1_proj/bn
I0620 04:28:07.908968  3148 net.cpp:106] Creating Layer conv2_1_1x1_proj/bn
I0620 04:28:07.908972  3148 net.cpp:454] conv2_1_1x1_proj/bn <- conv2_1_1x1_proj
I0620 04:28:07.908975  3148 net.cpp:397] conv2_1_1x1_proj/bn -> conv2_1_1x1_proj (in-place)
I0620 04:28:07.909135  3148 net.cpp:150] Setting up conv2_1_1x1_proj/bn
I0620 04:28:07.909143  3148 net.cpp:157] Top shape: 2 256 119 119 (7250432)
I0620 04:28:07.909147  3148 net.cpp:165] Memory required for data: 555273776
I0620 04:28:07.909167  3148 layer_factory.hpp:77] Creating layer conv2_1
I0620 04:28:07.909193  3148 net.cpp:106] Creating Layer conv2_1
I0620 04:28:07.909196  3148 net.cpp:454] conv2_1 <- conv2_1_1x1_proj
I0620 04:28:07.909201  3148 net.cpp:454] conv2_1 <- conv2_1_1x1_increase
I0620 04:28:07.909206  3148 net.cpp:411] conv2_1 -> conv2_1
I0620 04:28:07.909270  3148 net.cpp:150] Setting up conv2_1
I0620 04:28:07.909273  3148 net.cpp:157] Top shape: 2 256 119 119 (7250432)
I0620 04:28:07.909276  3148 net.cpp:165] Memory required for data: 584275504
I0620 04:28:07.909279  3148 layer_factory.hpp:77] Creating layer conv2_1/relu
I0620 04:28:07.909286  3148 net.cpp:106] Creating Layer conv2_1/relu
I0620 04:28:07.909289  3148 net.cpp:454] conv2_1/relu <- conv2_1
I0620 04:28:07.909293  3148 net.cpp:397] conv2_1/relu -> conv2_1 (in-place)
I0620 04:28:07.909297  3148 net.cpp:150] Setting up conv2_1/relu
I0620 04:28:07.909301  3148 net.cpp:157] Top shape: 2 256 119 119 (7250432)
I0620 04:28:07.909303  3148 net.cpp:165] Memory required for data: 613277232
I0620 04:28:07.909307  3148 layer_factory.hpp:77] Creating layer conv2_1_conv2_1/relu_0_split
I0620 04:28:07.909312  3148 net.cpp:106] Creating Layer conv2_1_conv2_1/relu_0_split
I0620 04:28:07.909315  3148 net.cpp:454] conv2_1_conv2_1/relu_0_split <- conv2_1
I0620 04:28:07.909319  3148 net.cpp:411] conv2_1_conv2_1/relu_0_split -> conv2_1_conv2_1/relu_0_split_0
I0620 04:28:07.909323  3148 net.cpp:411] conv2_1_conv2_1/relu_0_split -> conv2_1_conv2_1/relu_0_split_1
I0620 04:28:07.909348  3148 net.cpp:150] Setting up conv2_1_conv2_1/relu_0_split
I0620 04:28:07.909354  3148 net.cpp:157] Top shape: 2 256 119 119 (7250432)
I0620 04:28:07.909358  3148 net.cpp:157] Top shape: 2 256 119 119 (7250432)
I0620 04:28:07.909394  3148 net.cpp:165] Memory required for data: 671280688
I0620 04:28:07.909397  3148 layer_factory.hpp:77] Creating layer conv2_2_1x1_reduce
I0620 04:28:07.909410  3148 net.cpp:106] Creating Layer conv2_2_1x1_reduce
I0620 04:28:07.909415  3148 net.cpp:454] conv2_2_1x1_reduce <- conv2_1_conv2_1/relu_0_split_0
I0620 04:28:07.909418  3148 net.cpp:411] conv2_2_1x1_reduce -> conv2_2_1x1_reduce
I0620 04:28:07.909916  3148 net.cpp:150] Setting up conv2_2_1x1_reduce
I0620 04:28:07.909929  3148 net.cpp:157] Top shape: 2 64 119 119 (1812608)
I0620 04:28:07.909931  3148 net.cpp:165] Memory required for data: 678531120
I0620 04:28:07.909936  3148 layer_factory.hpp:77] Creating layer conv2_2_1x1_reduce/bn
I0620 04:28:07.909946  3148 net.cpp:106] Creating Layer conv2_2_1x1_reduce/bn
I0620 04:28:07.909950  3148 net.cpp:454] conv2_2_1x1_reduce/bn <- conv2_2_1x1_reduce
I0620 04:28:07.909955  3148 net.cpp:397] conv2_2_1x1_reduce/bn -> conv2_2_1x1_reduce (in-place)
I0620 04:28:07.910099  3148 net.cpp:150] Setting up conv2_2_1x1_reduce/bn
I0620 04:28:07.910102  3148 net.cpp:157] Top shape: 2 64 119 119 (1812608)
I0620 04:28:07.910105  3148 net.cpp:165] Memory required for data: 685781552
I0620 04:28:07.910112  3148 layer_factory.hpp:77] Creating layer conv2_2_1x1_reduce/relu
I0620 04:28:07.910118  3148 net.cpp:106] Creating Layer conv2_2_1x1_reduce/relu
I0620 04:28:07.910122  3148 net.cpp:454] conv2_2_1x1_reduce/relu <- conv2_2_1x1_reduce
I0620 04:28:07.910126  3148 net.cpp:397] conv2_2_1x1_reduce/relu -> conv2_2_1x1_reduce (in-place)
I0620 04:28:07.910131  3148 net.cpp:150] Setting up conv2_2_1x1_reduce/relu
I0620 04:28:07.910135  3148 net.cpp:157] Top shape: 2 64 119 119 (1812608)
I0620 04:28:07.910137  3148 net.cpp:165] Memory required for data: 693031984
I0620 04:28:07.910140  3148 layer_factory.hpp:77] Creating layer conv2_2_3x3
I0620 04:28:07.910147  3148 net.cpp:106] Creating Layer conv2_2_3x3
I0620 04:28:07.910151  3148 net.cpp:454] conv2_2_3x3 <- conv2_2_1x1_reduce
I0620 04:28:07.910154  3148 net.cpp:411] conv2_2_3x3 -> conv2_2_3x3
I0620 04:28:07.911207  3148 net.cpp:150] Setting up conv2_2_3x3
I0620 04:28:07.911214  3148 net.cpp:157] Top shape: 2 64 119 119 (1812608)
I0620 04:28:07.911217  3148 net.cpp:165] Memory required for data: 700282416
I0620 04:28:07.911221  3148 layer_factory.hpp:77] Creating layer conv2_2_3x3/bn
I0620 04:28:07.911229  3148 net.cpp:106] Creating Layer conv2_2_3x3/bn
I0620 04:28:07.911233  3148 net.cpp:454] conv2_2_3x3/bn <- conv2_2_3x3
I0620 04:28:07.911238  3148 net.cpp:397] conv2_2_3x3/bn -> conv2_2_3x3 (in-place)
I0620 04:28:07.911381  3148 net.cpp:150] Setting up conv2_2_3x3/bn
I0620 04:28:07.911384  3148 net.cpp:157] Top shape: 2 64 119 119 (1812608)
I0620 04:28:07.911387  3148 net.cpp:165] Memory required for data: 707532848
I0620 04:28:07.911393  3148 layer_factory.hpp:77] Creating layer conv2_2_3x3/relu
I0620 04:28:07.911401  3148 net.cpp:106] Creating Layer conv2_2_3x3/relu
I0620 04:28:07.911404  3148 net.cpp:454] conv2_2_3x3/relu <- conv2_2_3x3
I0620 04:28:07.911408  3148 net.cpp:397] conv2_2_3x3/relu -> conv2_2_3x3 (in-place)
I0620 04:28:07.911413  3148 net.cpp:150] Setting up conv2_2_3x3/relu
I0620 04:28:07.911417  3148 net.cpp:157] Top shape: 2 64 119 119 (1812608)
I0620 04:28:07.911418  3148 net.cpp:165] Memory required for data: 714783280
I0620 04:28:07.911422  3148 layer_factory.hpp:77] Creating layer conv2_2_1x1_increase
I0620 04:28:07.911427  3148 net.cpp:106] Creating Layer conv2_2_1x1_increase
I0620 04:28:07.911430  3148 net.cpp:454] conv2_2_1x1_increase <- conv2_2_3x3
I0620 04:28:07.911433  3148 net.cpp:411] conv2_2_1x1_increase -> conv2_2_1x1_increase
I0620 04:28:07.911909  3148 net.cpp:150] Setting up conv2_2_1x1_increase
I0620 04:28:07.911914  3148 net.cpp:157] Top shape: 2 256 119 119 (7250432)
I0620 04:28:07.911917  3148 net.cpp:165] Memory required for data: 743785008
I0620 04:28:07.911921  3148 layer_factory.hpp:77] Creating layer conv2_2_1x1_increase/bn
I0620 04:28:07.911929  3148 net.cpp:106] Creating Layer conv2_2_1x1_increase/bn
I0620 04:28:07.911939  3148 net.cpp:454] conv2_2_1x1_increase/bn <- conv2_2_1x1_increase
I0620 04:28:07.911944  3148 net.cpp:397] conv2_2_1x1_increase/bn -> conv2_2_1x1_increase (in-place)
I0620 04:28:07.912067  3148 net.cpp:150] Setting up conv2_2_1x1_increase/bn
I0620 04:28:07.912071  3148 net.cpp:157] Top shape: 2 256 119 119 (7250432)
I0620 04:28:07.912075  3148 net.cpp:165] Memory required for data: 772786736
I0620 04:28:07.912080  3148 layer_factory.hpp:77] Creating layer conv2_2
I0620 04:28:07.912084  3148 net.cpp:106] Creating Layer conv2_2
I0620 04:28:07.912087  3148 net.cpp:454] conv2_2 <- conv2_1_conv2_1/relu_0_split_1
I0620 04:28:07.912091  3148 net.cpp:454] conv2_2 <- conv2_2_1x1_increase
I0620 04:28:07.912094  3148 net.cpp:411] conv2_2 -> conv2_2
I0620 04:28:07.912108  3148 net.cpp:150] Setting up conv2_2
I0620 04:28:07.912111  3148 net.cpp:157] Top shape: 2 256 119 119 (7250432)
I0620 04:28:07.912114  3148 net.cpp:165] Memory required for data: 801788464
I0620 04:28:07.912117  3148 layer_factory.hpp:77] Creating layer conv2_2/relu
I0620 04:28:07.912122  3148 net.cpp:106] Creating Layer conv2_2/relu
I0620 04:28:07.912124  3148 net.cpp:454] conv2_2/relu <- conv2_2
I0620 04:28:07.912128  3148 net.cpp:397] conv2_2/relu -> conv2_2 (in-place)
I0620 04:28:07.912132  3148 net.cpp:150] Setting up conv2_2/relu
I0620 04:28:07.912135  3148 net.cpp:157] Top shape: 2 256 119 119 (7250432)
I0620 04:28:07.912138  3148 net.cpp:165] Memory required for data: 830790192
I0620 04:28:07.912140  3148 layer_factory.hpp:77] Creating layer conv2_2_conv2_2/relu_0_split
I0620 04:28:07.912147  3148 net.cpp:106] Creating Layer conv2_2_conv2_2/relu_0_split
I0620 04:28:07.912149  3148 net.cpp:454] conv2_2_conv2_2/relu_0_split <- conv2_2
I0620 04:28:07.912153  3148 net.cpp:411] conv2_2_conv2_2/relu_0_split -> conv2_2_conv2_2/relu_0_split_0
I0620 04:28:07.912156  3148 net.cpp:411] conv2_2_conv2_2/relu_0_split -> conv2_2_conv2_2/relu_0_split_1
I0620 04:28:07.912174  3148 net.cpp:150] Setting up conv2_2_conv2_2/relu_0_split
I0620 04:28:07.912178  3148 net.cpp:157] Top shape: 2 256 119 119 (7250432)
I0620 04:28:07.912181  3148 net.cpp:157] Top shape: 2 256 119 119 (7250432)
I0620 04:28:07.912184  3148 net.cpp:165] Memory required for data: 888793648
I0620 04:28:07.912186  3148 layer_factory.hpp:77] Creating layer conv2_3_1x1_reduce
I0620 04:28:07.912192  3148 net.cpp:106] Creating Layer conv2_3_1x1_reduce
I0620 04:28:07.912195  3148 net.cpp:454] conv2_3_1x1_reduce <- conv2_2_conv2_2/relu_0_split_0
I0620 04:28:07.912199  3148 net.cpp:411] conv2_3_1x1_reduce -> conv2_3_1x1_reduce
I0620 04:28:07.912648  3148 net.cpp:150] Setting up conv2_3_1x1_reduce
I0620 04:28:07.912652  3148 net.cpp:157] Top shape: 2 64 119 119 (1812608)
I0620 04:28:07.912655  3148 net.cpp:165] Memory required for data: 896044080
I0620 04:28:07.912658  3148 layer_factory.hpp:77] Creating layer conv2_3_1x1_reduce/bn
I0620 04:28:07.912663  3148 net.cpp:106] Creating Layer conv2_3_1x1_reduce/bn
I0620 04:28:07.912667  3148 net.cpp:454] conv2_3_1x1_reduce/bn <- conv2_3_1x1_reduce
I0620 04:28:07.912670  3148 net.cpp:397] conv2_3_1x1_reduce/bn -> conv2_3_1x1_reduce (in-place)
I0620 04:28:07.912793  3148 net.cpp:150] Setting up conv2_3_1x1_reduce/bn
I0620 04:28:07.912798  3148 net.cpp:157] Top shape: 2 64 119 119 (1812608)
I0620 04:28:07.912801  3148 net.cpp:165] Memory required for data: 903294512
I0620 04:28:07.912806  3148 layer_factory.hpp:77] Creating layer conv2_3_1x1_reduce/relu
I0620 04:28:07.912809  3148 net.cpp:106] Creating Layer conv2_3_1x1_reduce/relu
I0620 04:28:07.912812  3148 net.cpp:454] conv2_3_1x1_reduce/relu <- conv2_3_1x1_reduce
I0620 04:28:07.912817  3148 net.cpp:397] conv2_3_1x1_reduce/relu -> conv2_3_1x1_reduce (in-place)
I0620 04:28:07.912820  3148 net.cpp:150] Setting up conv2_3_1x1_reduce/relu
I0620 04:28:07.912823  3148 net.cpp:157] Top shape: 2 64 119 119 (1812608)
I0620 04:28:07.912825  3148 net.cpp:165] Memory required for data: 910544944
I0620 04:28:07.912828  3148 layer_factory.hpp:77] Creating layer conv2_3_3x3
I0620 04:28:07.912834  3148 net.cpp:106] Creating Layer conv2_3_3x3
I0620 04:28:07.912845  3148 net.cpp:454] conv2_3_3x3 <- conv2_3_1x1_reduce
I0620 04:28:07.912849  3148 net.cpp:411] conv2_3_3x3 -> conv2_3_3x3
I0620 04:28:07.913719  3148 net.cpp:150] Setting up conv2_3_3x3
I0620 04:28:07.913723  3148 net.cpp:157] Top shape: 2 64 119 119 (1812608)
I0620 04:28:07.913727  3148 net.cpp:165] Memory required for data: 917795376
I0620 04:28:07.913730  3148 layer_factory.hpp:77] Creating layer conv2_3_3x3/bn
I0620 04:28:07.913734  3148 net.cpp:106] Creating Layer conv2_3_3x3/bn
I0620 04:28:07.913738  3148 net.cpp:454] conv2_3_3x3/bn <- conv2_3_3x3
I0620 04:28:07.913741  3148 net.cpp:397] conv2_3_3x3/bn -> conv2_3_3x3 (in-place)
I0620 04:28:07.913875  3148 net.cpp:150] Setting up conv2_3_3x3/bn
I0620 04:28:07.913880  3148 net.cpp:157] Top shape: 2 64 119 119 (1812608)
I0620 04:28:07.913883  3148 net.cpp:165] Memory required for data: 925045808
I0620 04:28:07.913888  3148 layer_factory.hpp:77] Creating layer conv2_3_3x3/relu
I0620 04:28:07.913892  3148 net.cpp:106] Creating Layer conv2_3_3x3/relu
I0620 04:28:07.913894  3148 net.cpp:454] conv2_3_3x3/relu <- conv2_3_3x3
I0620 04:28:07.913898  3148 net.cpp:397] conv2_3_3x3/relu -> conv2_3_3x3 (in-place)
I0620 04:28:07.913902  3148 net.cpp:150] Setting up conv2_3_3x3/relu
I0620 04:28:07.913905  3148 net.cpp:157] Top shape: 2 64 119 119 (1812608)
I0620 04:28:07.913908  3148 net.cpp:165] Memory required for data: 932296240
I0620 04:28:07.913911  3148 layer_factory.hpp:77] Creating layer conv2_3_1x1_increase
I0620 04:28:07.913915  3148 net.cpp:106] Creating Layer conv2_3_1x1_increase
I0620 04:28:07.913918  3148 net.cpp:454] conv2_3_1x1_increase <- conv2_3_3x3
I0620 04:28:07.913923  3148 net.cpp:411] conv2_3_1x1_increase -> conv2_3_1x1_increase
I0620 04:28:07.914371  3148 net.cpp:150] Setting up conv2_3_1x1_increase
I0620 04:28:07.914376  3148 net.cpp:157] Top shape: 2 256 119 119 (7250432)
I0620 04:28:07.914378  3148 net.cpp:165] Memory required for data: 961297968
I0620 04:28:07.914381  3148 layer_factory.hpp:77] Creating layer conv2_3_1x1_increase/bn
I0620 04:28:07.914386  3148 net.cpp:106] Creating Layer conv2_3_1x1_increase/bn
I0620 04:28:07.914388  3148 net.cpp:454] conv2_3_1x1_increase/bn <- conv2_3_1x1_increase
I0620 04:28:07.914392  3148 net.cpp:397] conv2_3_1x1_increase/bn -> conv2_3_1x1_increase (in-place)
I0620 04:28:07.914520  3148 net.cpp:150] Setting up conv2_3_1x1_increase/bn
I0620 04:28:07.914525  3148 net.cpp:157] Top shape: 2 256 119 119 (7250432)
I0620 04:28:07.914526  3148 net.cpp:165] Memory required for data: 990299696
I0620 04:28:07.914537  3148 layer_factory.hpp:77] Creating layer conv2_3
I0620 04:28:07.914541  3148 net.cpp:106] Creating Layer conv2_3
I0620 04:28:07.914546  3148 net.cpp:454] conv2_3 <- conv2_2_conv2_2/relu_0_split_1
I0620 04:28:07.914548  3148 net.cpp:454] conv2_3 <- conv2_3_1x1_increase
I0620 04:28:07.914551  3148 net.cpp:411] conv2_3 -> conv2_3
I0620 04:28:07.914566  3148 net.cpp:150] Setting up conv2_3
I0620 04:28:07.914569  3148 net.cpp:157] Top shape: 2 256 119 119 (7250432)
I0620 04:28:07.914572  3148 net.cpp:165] Memory required for data: 1019301424
I0620 04:28:07.914574  3148 layer_factory.hpp:77] Creating layer conv2_3/relu
I0620 04:28:07.914578  3148 net.cpp:106] Creating Layer conv2_3/relu
I0620 04:28:07.914580  3148 net.cpp:454] conv2_3/relu <- conv2_3
I0620 04:28:07.914584  3148 net.cpp:397] conv2_3/relu -> conv2_3 (in-place)
I0620 04:28:07.914587  3148 net.cpp:150] Setting up conv2_3/relu
I0620 04:28:07.914590  3148 net.cpp:157] Top shape: 2 256 119 119 (7250432)
I0620 04:28:07.914593  3148 net.cpp:165] Memory required for data: 1048303152
I0620 04:28:07.914597  3148 layer_factory.hpp:77] Creating layer conv2_3_conv2_3/relu_0_split
I0620 04:28:07.914600  3148 net.cpp:106] Creating Layer conv2_3_conv2_3/relu_0_split
I0620 04:28:07.914602  3148 net.cpp:454] conv2_3_conv2_3/relu_0_split <- conv2_3
I0620 04:28:07.914607  3148 net.cpp:411] conv2_3_conv2_3/relu_0_split -> conv2_3_conv2_3/relu_0_split_0
I0620 04:28:07.914610  3148 net.cpp:411] conv2_3_conv2_3/relu_0_split -> conv2_3_conv2_3/relu_0_split_1
I0620 04:28:07.914635  3148 net.cpp:150] Setting up conv2_3_conv2_3/relu_0_split
I0620 04:28:07.914640  3148 net.cpp:157] Top shape: 2 256 119 119 (7250432)
I0620 04:28:07.914644  3148 net.cpp:157] Top shape: 2 256 119 119 (7250432)
I0620 04:28:07.914646  3148 net.cpp:165] Memory required for data: 1106306608
I0620 04:28:07.914649  3148 layer_factory.hpp:77] Creating layer conv3_1_1x1_reduce
I0620 04:28:07.914659  3148 net.cpp:106] Creating Layer conv3_1_1x1_reduce
I0620 04:28:07.914661  3148 net.cpp:454] conv3_1_1x1_reduce <- conv2_3_conv2_3/relu_0_split_0
I0620 04:28:07.914666  3148 net.cpp:411] conv3_1_1x1_reduce -> conv3_1_1x1_reduce
I0620 04:28:07.915501  3148 net.cpp:150] Setting up conv3_1_1x1_reduce
I0620 04:28:07.915515  3148 net.cpp:157] Top shape: 2 128 119 119 (3625216)
I0620 04:28:07.915518  3148 net.cpp:165] Memory required for data: 1120807472
I0620 04:28:07.915525  3148 layer_factory.hpp:77] Creating layer conv3_1_1x1_reduce/bn
I0620 04:28:07.915534  3148 net.cpp:106] Creating Layer conv3_1_1x1_reduce/bn
I0620 04:28:07.935555  3148 net.cpp:454] conv3_1_1x1_reduce/bn <- conv3_1_1x1_reduce
I0620 04:28:07.935592  3148 net.cpp:397] conv3_1_1x1_reduce/bn -> conv3_1_1x1_reduce (in-place)
I0620 04:28:07.935863  3148 net.cpp:150] Setting up conv3_1_1x1_reduce/bn
I0620 04:28:07.935875  3148 net.cpp:157] Top shape: 2 128 119 119 (3625216)
I0620 04:28:07.935879  3148 net.cpp:165] Memory required for data: 1135308336
I0620 04:28:07.935887  3148 layer_factory.hpp:77] Creating layer conv3_1_1x1_reduce/relu
I0620 04:28:07.935896  3148 net.cpp:106] Creating Layer conv3_1_1x1_reduce/relu
I0620 04:28:07.935899  3148 net.cpp:454] conv3_1_1x1_reduce/relu <- conv3_1_1x1_reduce
I0620 04:28:07.935904  3148 net.cpp:397] conv3_1_1x1_reduce/relu -> conv3_1_1x1_reduce (in-place)
I0620 04:28:07.935909  3148 net.cpp:150] Setting up conv3_1_1x1_reduce/relu
I0620 04:28:07.935912  3148 net.cpp:157] Top shape: 2 128 119 119 (3625216)
I0620 04:28:07.935915  3148 net.cpp:165] Memory required for data: 1149809200
I0620 04:28:07.935919  3148 layer_factory.hpp:77] Creating layer conv3_1_3x3
I0620 04:28:07.935927  3148 net.cpp:106] Creating Layer conv3_1_3x3
I0620 04:28:07.935930  3148 net.cpp:454] conv3_1_3x3 <- conv3_1_1x1_reduce
I0620 04:28:07.935935  3148 net.cpp:411] conv3_1_3x3 -> conv3_1_3x3
I0620 04:28:07.942234  3148 net.cpp:150] Setting up conv3_1_3x3
I0620 04:28:07.942322  3148 net.cpp:157] Top shape: 2 128 60 60 (921600)
I0620 04:28:07.942355  3148 net.cpp:165] Memory required for data: 1153495600
I0620 04:28:07.942375  3148 layer_factory.hpp:77] Creating layer conv3_1_3x3/bn
I0620 04:28:07.942409  3148 net.cpp:106] Creating Layer conv3_1_3x3/bn
I0620 04:28:07.942421  3148 net.cpp:454] conv3_1_3x3/bn <- conv3_1_3x3
I0620 04:28:07.942440  3148 net.cpp:397] conv3_1_3x3/bn -> conv3_1_3x3 (in-place)
I0620 04:28:07.942675  3148 net.cpp:150] Setting up conv3_1_3x3/bn
I0620 04:28:07.942683  3148 net.cpp:157] Top shape: 2 128 60 60 (921600)
I0620 04:28:07.942688  3148 net.cpp:165] Memory required for data: 1157182000
I0620 04:28:07.942698  3148 layer_factory.hpp:77] Creating layer conv3_1_3x3/relu
I0620 04:28:07.942709  3148 net.cpp:106] Creating Layer conv3_1_3x3/relu
I0620 04:28:07.942714  3148 net.cpp:454] conv3_1_3x3/relu <- conv3_1_3x3
I0620 04:28:07.942723  3148 net.cpp:397] conv3_1_3x3/relu -> conv3_1_3x3 (in-place)
I0620 04:28:07.942731  3148 net.cpp:150] Setting up conv3_1_3x3/relu
I0620 04:28:07.942737  3148 net.cpp:157] Top shape: 2 128 60 60 (921600)
I0620 04:28:07.942740  3148 net.cpp:165] Memory required for data: 1160868400
I0620 04:28:07.942746  3148 layer_factory.hpp:77] Creating layer conv3_1_1x1_increase
I0620 04:28:07.942764  3148 net.cpp:106] Creating Layer conv3_1_1x1_increase
I0620 04:28:07.942767  3148 net.cpp:454] conv3_1_1x1_increase <- conv3_1_3x3
I0620 04:28:07.942775  3148 net.cpp:411] conv3_1_1x1_increase -> conv3_1_1x1_increase
I0620 04:28:07.945097  3148 net.cpp:150] Setting up conv3_1_1x1_increase
I0620 04:28:07.945127  3148 net.cpp:157] Top shape: 2 512 60 60 (3686400)
I0620 04:28:07.945204  3148 net.cpp:165] Memory required for data: 1175614000
I0620 04:28:07.945216  3148 layer_factory.hpp:77] Creating layer conv3_1_1x1_increase/bn
I0620 04:28:07.945232  3148 net.cpp:106] Creating Layer conv3_1_1x1_increase/bn
I0620 04:28:07.945241  3148 net.cpp:454] conv3_1_1x1_increase/bn <- conv3_1_1x1_increase
I0620 04:28:07.945250  3148 net.cpp:397] conv3_1_1x1_increase/bn -> conv3_1_1x1_increase (in-place)
I0620 04:28:07.952991  3148 net.cpp:150] Setting up conv3_1_1x1_increase/bn
I0620 04:28:07.953016  3148 net.cpp:157] Top shape: 2 512 60 60 (3686400)
I0620 04:28:07.953019  3148 net.cpp:165] Memory required for data: 1190359600
I0620 04:28:07.953028  3148 layer_factory.hpp:77] Creating layer conv3_1_1x1_proj
I0620 04:28:07.953040  3148 net.cpp:106] Creating Layer conv3_1_1x1_proj
I0620 04:28:07.953047  3148 net.cpp:454] conv3_1_1x1_proj <- conv2_3_conv2_3/relu_0_split_1
I0620 04:28:07.953053  3148 net.cpp:411] conv3_1_1x1_proj -> conv3_1_1x1_proj
I0620 04:28:07.956012  3148 net.cpp:150] Setting up conv3_1_1x1_proj
I0620 04:28:07.956028  3148 net.cpp:157] Top shape: 2 512 60 60 (3686400)
I0620 04:28:07.956032  3148 net.cpp:165] Memory required for data: 1205105200
I0620 04:28:07.956037  3148 layer_factory.hpp:77] Creating layer conv3_1_1x1_proj/bn
I0620 04:28:07.956048  3148 net.cpp:106] Creating Layer conv3_1_1x1_proj/bn
I0620 04:28:07.956054  3148 net.cpp:454] conv3_1_1x1_proj/bn <- conv3_1_1x1_proj
I0620 04:28:07.956060  3148 net.cpp:397] conv3_1_1x1_proj/bn -> conv3_1_1x1_proj (in-place)
I0620 04:28:07.956234  3148 net.cpp:150] Setting up conv3_1_1x1_proj/bn
I0620 04:28:07.956241  3148 net.cpp:157] Top shape: 2 512 60 60 (3686400)
I0620 04:28:07.956245  3148 net.cpp:165] Memory required for data: 1219850800
I0620 04:28:07.956252  3148 layer_factory.hpp:77] Creating layer conv3_1
I0620 04:28:07.956259  3148 net.cpp:106] Creating Layer conv3_1
I0620 04:28:07.956262  3148 net.cpp:454] conv3_1 <- conv3_1_1x1_proj
I0620 04:28:07.956266  3148 net.cpp:454] conv3_1 <- conv3_1_1x1_increase
I0620 04:28:07.956271  3148 net.cpp:411] conv3_1 -> conv3_1
I0620 04:28:07.956300  3148 net.cpp:150] Setting up conv3_1
I0620 04:28:07.956305  3148 net.cpp:157] Top shape: 2 512 60 60 (3686400)
I0620 04:28:07.956308  3148 net.cpp:165] Memory required for data: 1234596400
I0620 04:28:07.956310  3148 layer_factory.hpp:77] Creating layer conv3_1/relu
I0620 04:28:07.956318  3148 net.cpp:106] Creating Layer conv3_1/relu
I0620 04:28:07.956321  3148 net.cpp:454] conv3_1/relu <- conv3_1
I0620 04:28:07.956326  3148 net.cpp:397] conv3_1/relu -> conv3_1 (in-place)
I0620 04:28:07.956331  3148 net.cpp:150] Setting up conv3_1/relu
I0620 04:28:07.956333  3148 net.cpp:157] Top shape: 2 512 60 60 (3686400)
I0620 04:28:07.956336  3148 net.cpp:165] Memory required for data: 1249342000
I0620 04:28:07.956339  3148 layer_factory.hpp:77] Creating layer conv3_1_conv3_1/relu_0_split
I0620 04:28:07.956346  3148 net.cpp:106] Creating Layer conv3_1_conv3_1/relu_0_split
I0620 04:28:07.956348  3148 net.cpp:454] conv3_1_conv3_1/relu_0_split <- conv3_1
I0620 04:28:07.956351  3148 net.cpp:411] conv3_1_conv3_1/relu_0_split -> conv3_1_conv3_1/relu_0_split_0
I0620 04:28:07.956357  3148 net.cpp:411] conv3_1_conv3_1/relu_0_split -> conv3_1_conv3_1/relu_0_split_1
I0620 04:28:07.956378  3148 net.cpp:150] Setting up conv3_1_conv3_1/relu_0_split
I0620 04:28:07.956382  3148 net.cpp:157] Top shape: 2 512 60 60 (3686400)
I0620 04:28:07.956385  3148 net.cpp:157] Top shape: 2 512 60 60 (3686400)
I0620 04:28:07.956388  3148 net.cpp:165] Memory required for data: 1278833200
I0620 04:28:07.956392  3148 layer_factory.hpp:77] Creating layer conv3_2_1x1_reduce
I0620 04:28:07.956399  3148 net.cpp:106] Creating Layer conv3_2_1x1_reduce
I0620 04:28:07.956403  3148 net.cpp:454] conv3_2_1x1_reduce <- conv3_1_conv3_1/relu_0_split_0
I0620 04:28:07.956406  3148 net.cpp:411] conv3_2_1x1_reduce -> conv3_2_1x1_reduce
I0620 04:28:07.957976  3148 net.cpp:150] Setting up conv3_2_1x1_reduce
I0620 04:28:07.957986  3148 net.cpp:157] Top shape: 2 128 60 60 (921600)
I0620 04:28:07.958014  3148 net.cpp:165] Memory required for data: 1282519600
I0620 04:28:07.958024  3148 layer_factory.hpp:77] Creating layer conv3_2_1x1_reduce/bn
I0620 04:28:07.958030  3148 net.cpp:106] Creating Layer conv3_2_1x1_reduce/bn
I0620 04:28:07.958034  3148 net.cpp:454] conv3_2_1x1_reduce/bn <- conv3_2_1x1_reduce
I0620 04:28:07.958039  3148 net.cpp:397] conv3_2_1x1_reduce/bn -> conv3_2_1x1_reduce (in-place)
I0620 04:28:07.958163  3148 net.cpp:150] Setting up conv3_2_1x1_reduce/bn
I0620 04:28:07.958168  3148 net.cpp:157] Top shape: 2 128 60 60 (921600)
I0620 04:28:07.958170  3148 net.cpp:165] Memory required for data: 1286206000
I0620 04:28:07.958175  3148 layer_factory.hpp:77] Creating layer conv3_2_1x1_reduce/relu
I0620 04:28:07.958181  3148 net.cpp:106] Creating Layer conv3_2_1x1_reduce/relu
I0620 04:28:07.958184  3148 net.cpp:454] conv3_2_1x1_reduce/relu <- conv3_2_1x1_reduce
I0620 04:28:07.958187  3148 net.cpp:397] conv3_2_1x1_reduce/relu -> conv3_2_1x1_reduce (in-place)
I0620 04:28:07.958191  3148 net.cpp:150] Setting up conv3_2_1x1_reduce/relu
I0620 04:28:07.958194  3148 net.cpp:157] Top shape: 2 128 60 60 (921600)
I0620 04:28:07.958197  3148 net.cpp:165] Memory required for data: 1289892400
I0620 04:28:07.958200  3148 layer_factory.hpp:77] Creating layer conv3_2_3x3
I0620 04:28:07.958205  3148 net.cpp:106] Creating Layer conv3_2_3x3
I0620 04:28:07.958209  3148 net.cpp:454] conv3_2_3x3 <- conv3_2_1x1_reduce
I0620 04:28:07.958212  3148 net.cpp:411] conv3_2_3x3 -> conv3_2_3x3
I0620 04:28:07.961467  3148 net.cpp:150] Setting up conv3_2_3x3
I0620 04:28:07.961473  3148 net.cpp:157] Top shape: 2 128 60 60 (921600)
I0620 04:28:07.961477  3148 net.cpp:165] Memory required for data: 1293578800
I0620 04:28:07.961480  3148 layer_factory.hpp:77] Creating layer conv3_2_3x3/bn
I0620 04:28:07.961494  3148 net.cpp:106] Creating Layer conv3_2_3x3/bn
I0620 04:28:07.961498  3148 net.cpp:454] conv3_2_3x3/bn <- conv3_2_3x3
I0620 04:28:07.961501  3148 net.cpp:397] conv3_2_3x3/bn -> conv3_2_3x3 (in-place)
I0620 04:28:07.961616  3148 net.cpp:150] Setting up conv3_2_3x3/bn
I0620 04:28:07.961619  3148 net.cpp:157] Top shape: 2 128 60 60 (921600)
I0620 04:28:07.961622  3148 net.cpp:165] Memory required for data: 1297265200
I0620 04:28:07.961627  3148 layer_factory.hpp:77] Creating layer conv3_2_3x3/relu
I0620 04:28:07.961634  3148 net.cpp:106] Creating Layer conv3_2_3x3/relu
I0620 04:28:07.961637  3148 net.cpp:454] conv3_2_3x3/relu <- conv3_2_3x3
I0620 04:28:07.961640  3148 net.cpp:397] conv3_2_3x3/relu -> conv3_2_3x3 (in-place)
I0620 04:28:07.961644  3148 net.cpp:150] Setting up conv3_2_3x3/relu
I0620 04:28:07.961647  3148 net.cpp:157] Top shape: 2 128 60 60 (921600)
I0620 04:28:07.961649  3148 net.cpp:165] Memory required for data: 1300951600
I0620 04:28:07.961652  3148 layer_factory.hpp:77] Creating layer conv3_2_1x1_increase
I0620 04:28:07.961658  3148 net.cpp:106] Creating Layer conv3_2_1x1_increase
I0620 04:28:07.961660  3148 net.cpp:454] conv3_2_1x1_increase <- conv3_2_3x3
I0620 04:28:07.961663  3148 net.cpp:411] conv3_2_1x1_increase -> conv3_2_1x1_increase
I0620 04:28:07.963881  3148 net.cpp:150] Setting up conv3_2_1x1_increase
I0620 04:28:07.963891  3148 net.cpp:157] Top shape: 2 512 60 60 (3686400)
I0620 04:28:07.963893  3148 net.cpp:165] Memory required for data: 1315697200
I0620 04:28:07.963897  3148 layer_factory.hpp:77] Creating layer conv3_2_1x1_increase/bn
I0620 04:28:07.963902  3148 net.cpp:106] Creating Layer conv3_2_1x1_increase/bn
I0620 04:28:07.963906  3148 net.cpp:454] conv3_2_1x1_increase/bn <- conv3_2_1x1_increase
I0620 04:28:07.963909  3148 net.cpp:397] conv3_2_1x1_increase/bn -> conv3_2_1x1_increase (in-place)
I0620 04:28:07.964028  3148 net.cpp:150] Setting up conv3_2_1x1_increase/bn
I0620 04:28:07.964032  3148 net.cpp:157] Top shape: 2 512 60 60 (3686400)
I0620 04:28:07.964036  3148 net.cpp:165] Memory required for data: 1330442800
I0620 04:28:07.964042  3148 layer_factory.hpp:77] Creating layer conv3_2
I0620 04:28:07.964049  3148 net.cpp:106] Creating Layer conv3_2
I0620 04:28:07.964052  3148 net.cpp:454] conv3_2 <- conv3_1_conv3_1/relu_0_split_1
I0620 04:28:07.964071  3148 net.cpp:454] conv3_2 <- conv3_2_1x1_increase
I0620 04:28:07.964076  3148 net.cpp:411] conv3_2 -> conv3_2
I0620 04:28:07.964092  3148 net.cpp:150] Setting up conv3_2
I0620 04:28:07.964095  3148 net.cpp:157] Top shape: 2 512 60 60 (3686400)
I0620 04:28:07.964097  3148 net.cpp:165] Memory required for data: 1345188400
I0620 04:28:07.964100  3148 layer_factory.hpp:77] Creating layer conv3_2/relu
I0620 04:28:07.964104  3148 net.cpp:106] Creating Layer conv3_2/relu
I0620 04:28:07.964854  3148 net.cpp:454] conv3_2/relu <- conv3_2
I0620 04:28:07.964862  3148 net.cpp:397] conv3_2/relu -> conv3_2 (in-place)
I0620 04:28:07.964869  3148 net.cpp:150] Setting up conv3_2/relu
I0620 04:28:07.964872  3148 net.cpp:157] Top shape: 2 512 60 60 (3686400)
I0620 04:28:07.964875  3148 net.cpp:165] Memory required for data: 1359934000
I0620 04:28:07.964879  3148 layer_factory.hpp:77] Creating layer conv3_2_conv3_2/relu_0_split
I0620 04:28:07.964882  3148 net.cpp:106] Creating Layer conv3_2_conv3_2/relu_0_split
I0620 04:28:07.964885  3148 net.cpp:454] conv3_2_conv3_2/relu_0_split <- conv3_2
I0620 04:28:07.964890  3148 net.cpp:411] conv3_2_conv3_2/relu_0_split -> conv3_2_conv3_2/relu_0_split_0
I0620 04:28:07.964893  3148 net.cpp:411] conv3_2_conv3_2/relu_0_split -> conv3_2_conv3_2/relu_0_split_1
I0620 04:28:07.964922  3148 net.cpp:150] Setting up conv3_2_conv3_2/relu_0_split
I0620 04:28:07.964926  3148 net.cpp:157] Top shape: 2 512 60 60 (3686400)
I0620 04:28:07.964931  3148 net.cpp:157] Top shape: 2 512 60 60 (3686400)
I0620 04:28:07.964932  3148 net.cpp:165] Memory required for data: 1389425200
I0620 04:28:07.964936  3148 layer_factory.hpp:77] Creating layer conv3_3_1x1_reduce
I0620 04:28:07.964946  3148 net.cpp:106] Creating Layer conv3_3_1x1_reduce
I0620 04:28:07.964948  3148 net.cpp:454] conv3_3_1x1_reduce <- conv3_2_conv3_2/relu_0_split_0
I0620 04:28:07.964952  3148 net.cpp:411] conv3_3_1x1_reduce -> conv3_3_1x1_reduce
I0620 04:28:07.966823  3148 net.cpp:150] Setting up conv3_3_1x1_reduce
I0620 04:28:07.966866  3148 net.cpp:157] Top shape: 2 128 60 60 (921600)
I0620 04:28:07.966872  3148 net.cpp:165] Memory required for data: 1393111600
I0620 04:28:07.966886  3148 layer_factory.hpp:77] Creating layer conv3_3_1x1_reduce/bn
I0620 04:28:07.966904  3148 net.cpp:106] Creating Layer conv3_3_1x1_reduce/bn
I0620 04:28:07.966913  3148 net.cpp:454] conv3_3_1x1_reduce/bn <- conv3_3_1x1_reduce
I0620 04:28:07.966923  3148 net.cpp:397] conv3_3_1x1_reduce/bn -> conv3_3_1x1_reduce (in-place)
I0620 04:28:07.967125  3148 net.cpp:150] Setting up conv3_3_1x1_reduce/bn
I0620 04:28:07.967134  3148 net.cpp:157] Top shape: 2 128 60 60 (921600)
I0620 04:28:07.967137  3148 net.cpp:165] Memory required for data: 1396798000
I0620 04:28:07.967145  3148 layer_factory.hpp:77] Creating layer conv3_3_1x1_reduce/relu
I0620 04:28:07.967154  3148 net.cpp:106] Creating Layer conv3_3_1x1_reduce/relu
I0620 04:28:07.967159  3148 net.cpp:454] conv3_3_1x1_reduce/relu <- conv3_3_1x1_reduce
I0620 04:28:07.967162  3148 net.cpp:397] conv3_3_1x1_reduce/relu -> conv3_3_1x1_reduce (in-place)
I0620 04:28:07.967169  3148 net.cpp:150] Setting up conv3_3_1x1_reduce/relu
I0620 04:28:07.967171  3148 net.cpp:157] Top shape: 2 128 60 60 (921600)
I0620 04:28:07.967175  3148 net.cpp:165] Memory required for data: 1400484400
I0620 04:28:07.967177  3148 layer_factory.hpp:77] Creating layer conv3_3_3x3
I0620 04:28:07.967186  3148 net.cpp:106] Creating Layer conv3_3_3x3
I0620 04:28:07.967190  3148 net.cpp:454] conv3_3_3x3 <- conv3_3_1x1_reduce
I0620 04:28:07.967195  3148 net.cpp:411] conv3_3_3x3 -> conv3_3_3x3
I0620 04:28:07.971519  3148 net.cpp:150] Setting up conv3_3_3x3
I0620 04:28:07.971542  3148 net.cpp:157] Top shape: 2 128 60 60 (921600)
I0620 04:28:07.971545  3148 net.cpp:165] Memory required for data: 1404170800
I0620 04:28:07.971552  3148 layer_factory.hpp:77] Creating layer conv3_3_3x3/bn
I0620 04:28:07.971565  3148 net.cpp:106] Creating Layer conv3_3_3x3/bn
I0620 04:28:07.971570  3148 net.cpp:454] conv3_3_3x3/bn <- conv3_3_3x3
I0620 04:28:07.971611  3148 net.cpp:397] conv3_3_3x3/bn -> conv3_3_3x3 (in-place)
I0620 04:28:07.971741  3148 net.cpp:150] Setting up conv3_3_3x3/bn
I0620 04:28:07.971745  3148 net.cpp:157] Top shape: 2 128 60 60 (921600)
I0620 04:28:07.971750  3148 net.cpp:165] Memory required for data: 1407857200
I0620 04:28:07.971755  3148 layer_factory.hpp:77] Creating layer conv3_3_3x3/relu
I0620 04:28:07.971760  3148 net.cpp:106] Creating Layer conv3_3_3x3/relu
I0620 04:28:07.971761  3148 net.cpp:454] conv3_3_3x3/relu <- conv3_3_3x3
I0620 04:28:07.971765  3148 net.cpp:397] conv3_3_3x3/relu -> conv3_3_3x3 (in-place)
I0620 04:28:07.971770  3148 net.cpp:150] Setting up conv3_3_3x3/relu
I0620 04:28:07.971773  3148 net.cpp:157] Top shape: 2 128 60 60 (921600)
I0620 04:28:07.971776  3148 net.cpp:165] Memory required for data: 1411543600
I0620 04:28:07.971778  3148 layer_factory.hpp:77] Creating layer conv3_3_1x1_increase
I0620 04:28:07.971783  3148 net.cpp:106] Creating Layer conv3_3_1x1_increase
I0620 04:28:07.971786  3148 net.cpp:454] conv3_3_1x1_increase <- conv3_3_3x3
I0620 04:28:07.971791  3148 net.cpp:411] conv3_3_1x1_increase -> conv3_3_1x1_increase
I0620 04:28:07.973282  3148 net.cpp:150] Setting up conv3_3_1x1_increase
I0620 04:28:07.973287  3148 net.cpp:157] Top shape: 2 512 60 60 (3686400)
I0620 04:28:07.973290  3148 net.cpp:165] Memory required for data: 1426289200
I0620 04:28:07.973294  3148 layer_factory.hpp:77] Creating layer conv3_3_1x1_increase/bn
I0620 04:28:07.973299  3148 net.cpp:106] Creating Layer conv3_3_1x1_increase/bn
I0620 04:28:07.973301  3148 net.cpp:454] conv3_3_1x1_increase/bn <- conv3_3_1x1_increase
I0620 04:28:07.973304  3148 net.cpp:397] conv3_3_1x1_increase/bn -> conv3_3_1x1_increase (in-place)
I0620 04:28:07.973423  3148 net.cpp:150] Setting up conv3_3_1x1_increase/bn
I0620 04:28:07.973428  3148 net.cpp:157] Top shape: 2 512 60 60 (3686400)
I0620 04:28:07.973430  3148 net.cpp:165] Memory required for data: 1441034800
I0620 04:28:07.973435  3148 layer_factory.hpp:77] Creating layer conv3_3
I0620 04:28:07.973440  3148 net.cpp:106] Creating Layer conv3_3
I0620 04:28:07.973443  3148 net.cpp:454] conv3_3 <- conv3_2_conv3_2/relu_0_split_1
I0620 04:28:07.973448  3148 net.cpp:454] conv3_3 <- conv3_3_1x1_increase
I0620 04:28:07.973450  3148 net.cpp:411] conv3_3 -> conv3_3
I0620 04:28:07.973465  3148 net.cpp:150] Setting up conv3_3
I0620 04:28:07.973469  3148 net.cpp:157] Top shape: 2 512 60 60 (3686400)
I0620 04:28:07.973471  3148 net.cpp:165] Memory required for data: 1455780400
I0620 04:28:07.973474  3148 layer_factory.hpp:77] Creating layer conv3_3/relu
I0620 04:28:07.973477  3148 net.cpp:106] Creating Layer conv3_3/relu
I0620 04:28:07.973480  3148 net.cpp:454] conv3_3/relu <- conv3_3
I0620 04:28:07.973484  3148 net.cpp:397] conv3_3/relu -> conv3_3 (in-place)
I0620 04:28:07.973489  3148 net.cpp:150] Setting up conv3_3/relu
I0620 04:28:07.973491  3148 net.cpp:157] Top shape: 2 512 60 60 (3686400)
I0620 04:28:07.973493  3148 net.cpp:165] Memory required for data: 1470526000
I0620 04:28:07.973496  3148 layer_factory.hpp:77] Creating layer conv3_3_conv3_3/relu_0_split
I0620 04:28:07.973500  3148 net.cpp:106] Creating Layer conv3_3_conv3_3/relu_0_split
I0620 04:28:07.973503  3148 net.cpp:454] conv3_3_conv3_3/relu_0_split <- conv3_3
I0620 04:28:07.973506  3148 net.cpp:411] conv3_3_conv3_3/relu_0_split -> conv3_3_conv3_3/relu_0_split_0
I0620 04:28:07.973510  3148 net.cpp:411] conv3_3_conv3_3/relu_0_split -> conv3_3_conv3_3/relu_0_split_1
I0620 04:28:07.973531  3148 net.cpp:150] Setting up conv3_3_conv3_3/relu_0_split
I0620 04:28:07.973534  3148 net.cpp:157] Top shape: 2 512 60 60 (3686400)
I0620 04:28:07.973537  3148 net.cpp:157] Top shape: 2 512 60 60 (3686400)
I0620 04:28:07.973541  3148 net.cpp:165] Memory required for data: 1500017200
I0620 04:28:07.973543  3148 layer_factory.hpp:77] Creating layer conv3_4_1x1_reduce
I0620 04:28:07.973551  3148 net.cpp:106] Creating Layer conv3_4_1x1_reduce
I0620 04:28:07.973554  3148 net.cpp:454] conv3_4_1x1_reduce <- conv3_3_conv3_3/relu_0_split_0
I0620 04:28:07.973558  3148 net.cpp:411] conv3_4_1x1_reduce -> conv3_4_1x1_reduce
I0620 04:28:07.976522  3148 net.cpp:150] Setting up conv3_4_1x1_reduce
I0620 04:28:07.976532  3148 net.cpp:157] Top shape: 2 128 60 60 (921600)
I0620 04:28:07.976536  3148 net.cpp:165] Memory required for data: 1503703600
I0620 04:28:07.976539  3148 layer_factory.hpp:77] Creating layer conv3_4_1x1_reduce/bn
I0620 04:28:07.976546  3148 net.cpp:106] Creating Layer conv3_4_1x1_reduce/bn
I0620 04:28:07.976547  3148 net.cpp:454] conv3_4_1x1_reduce/bn <- conv3_4_1x1_reduce
I0620 04:28:07.976552  3148 net.cpp:397] conv3_4_1x1_reduce/bn -> conv3_4_1x1_reduce (in-place)
I0620 04:28:07.976675  3148 net.cpp:150] Setting up conv3_4_1x1_reduce/bn
I0620 04:28:07.976680  3148 net.cpp:157] Top shape: 2 128 60 60 (921600)
I0620 04:28:07.976682  3148 net.cpp:165] Memory required for data: 1507390000
I0620 04:28:07.976687  3148 layer_factory.hpp:77] Creating layer conv3_4_1x1_reduce/relu
I0620 04:28:07.976692  3148 net.cpp:106] Creating Layer conv3_4_1x1_reduce/relu
I0620 04:28:07.976696  3148 net.cpp:454] conv3_4_1x1_reduce/relu <- conv3_4_1x1_reduce
I0620 04:28:07.976699  3148 net.cpp:397] conv3_4_1x1_reduce/relu -> conv3_4_1x1_reduce (in-place)
I0620 04:28:07.976704  3148 net.cpp:150] Setting up conv3_4_1x1_reduce/relu
I0620 04:28:07.976707  3148 net.cpp:157] Top shape: 2 128 60 60 (921600)
I0620 04:28:07.976709  3148 net.cpp:165] Memory required for data: 1511076400
I0620 04:28:07.976712  3148 layer_factory.hpp:77] Creating layer conv3_4_3x3
I0620 04:28:07.976718  3148 net.cpp:106] Creating Layer conv3_4_3x3
I0620 04:28:07.976721  3148 net.cpp:454] conv3_4_3x3 <- conv3_4_1x1_reduce
I0620 04:28:07.976724  3148 net.cpp:411] conv3_4_3x3 -> conv3_4_3x3
I0620 04:28:07.979998  3148 net.cpp:150] Setting up conv3_4_3x3
I0620 04:28:07.980006  3148 net.cpp:157] Top shape: 2 128 60 60 (921600)
I0620 04:28:07.980010  3148 net.cpp:165] Memory required for data: 1514762800
I0620 04:28:07.980016  3148 layer_factory.hpp:77] Creating layer conv3_4_3x3/bn
I0620 04:28:07.980022  3148 net.cpp:106] Creating Layer conv3_4_3x3/bn
I0620 04:28:07.980027  3148 net.cpp:454] conv3_4_3x3/bn <- conv3_4_3x3
I0620 04:28:07.980032  3148 net.cpp:397] conv3_4_3x3/bn -> conv3_4_3x3 (in-place)
I0620 04:28:07.980171  3148 net.cpp:150] Setting up conv3_4_3x3/bn
I0620 04:28:07.980178  3148 net.cpp:157] Top shape: 2 128 60 60 (921600)
I0620 04:28:07.980182  3148 net.cpp:165] Memory required for data: 1518449200
I0620 04:28:07.980190  3148 layer_factory.hpp:77] Creating layer conv3_4_3x3/relu
I0620 04:28:07.980195  3148 net.cpp:106] Creating Layer conv3_4_3x3/relu
I0620 04:28:07.980199  3148 net.cpp:454] conv3_4_3x3/relu <- conv3_4_3x3
I0620 04:28:07.980206  3148 net.cpp:397] conv3_4_3x3/relu -> conv3_4_3x3 (in-place)
I0620 04:28:07.980211  3148 net.cpp:150] Setting up conv3_4_3x3/relu
I0620 04:28:07.980216  3148 net.cpp:157] Top shape: 2 128 60 60 (921600)
I0620 04:28:07.980219  3148 net.cpp:165] Memory required for data: 1522135600
I0620 04:28:07.980223  3148 layer_factory.hpp:77] Creating layer conv3_4_1x1_increase
I0620 04:28:07.980229  3148 net.cpp:106] Creating Layer conv3_4_1x1_increase
I0620 04:28:07.980233  3148 net.cpp:454] conv3_4_1x1_increase <- conv3_4_3x3
I0620 04:28:07.980238  3148 net.cpp:411] conv3_4_1x1_increase -> conv3_4_1x1_increase
I0620 04:28:07.981864  3148 net.cpp:150] Setting up conv3_4_1x1_increase
I0620 04:28:07.981889  3148 net.cpp:157] Top shape: 2 512 60 60 (3686400)
I0620 04:28:07.981891  3148 net.cpp:165] Memory required for data: 1536881200
I0620 04:28:07.981897  3148 layer_factory.hpp:77] Creating layer conv3_4_1x1_increase/bn
I0620 04:28:07.981910  3148 net.cpp:106] Creating Layer conv3_4_1x1_increase/bn
I0620 04:28:07.981914  3148 net.cpp:454] conv3_4_1x1_increase/bn <- conv3_4_1x1_increase
I0620 04:28:07.981920  3148 net.cpp:397] conv3_4_1x1_increase/bn -> conv3_4_1x1_increase (in-place)
I0620 04:28:07.982071  3148 net.cpp:150] Setting up conv3_4_1x1_increase/bn
I0620 04:28:07.982077  3148 net.cpp:157] Top shape: 2 512 60 60 (3686400)
I0620 04:28:07.982079  3148 net.cpp:165] Memory required for data: 1551626800
I0620 04:28:07.982182  3148 layer_factory.hpp:77] Creating layer conv3_4
I0620 04:28:07.982190  3148 net.cpp:106] Creating Layer conv3_4
I0620 04:28:07.982195  3148 net.cpp:454] conv3_4 <- conv3_3_conv3_3/relu_0_split_1
I0620 04:28:07.982200  3148 net.cpp:454] conv3_4 <- conv3_4_1x1_increase
I0620 04:28:07.982204  3148 net.cpp:411] conv3_4 -> conv3_4
I0620 04:28:07.982230  3148 net.cpp:150] Setting up conv3_4
I0620 04:28:07.982235  3148 net.cpp:157] Top shape: 2 512 60 60 (3686400)
I0620 04:28:07.982237  3148 net.cpp:165] Memory required for data: 1566372400
I0620 04:28:07.982240  3148 layer_factory.hpp:77] Creating layer conv3_4/relu
I0620 04:28:07.982249  3148 net.cpp:106] Creating Layer conv3_4/relu
I0620 04:28:07.982251  3148 net.cpp:454] conv3_4/relu <- conv3_4
I0620 04:28:07.982254  3148 net.cpp:397] conv3_4/relu -> conv3_4 (in-place)
I0620 04:28:07.982259  3148 net.cpp:150] Setting up conv3_4/relu
I0620 04:28:07.982261  3148 net.cpp:157] Top shape: 2 512 60 60 (3686400)
I0620 04:28:07.982264  3148 net.cpp:165] Memory required for data: 1581118000
I0620 04:28:07.982266  3148 layer_factory.hpp:77] Creating layer conv3_4_conv3_4/relu_0_split
I0620 04:28:07.982272  3148 net.cpp:106] Creating Layer conv3_4_conv3_4/relu_0_split
I0620 04:28:07.982275  3148 net.cpp:454] conv3_4_conv3_4/relu_0_split <- conv3_4
I0620 04:28:07.982280  3148 net.cpp:411] conv3_4_conv3_4/relu_0_split -> conv3_4_conv3_4/relu_0_split_0
I0620 04:28:07.982285  3148 net.cpp:411] conv3_4_conv3_4/relu_0_split -> conv3_4_conv3_4/relu_0_split_1
I0620 04:28:07.982308  3148 net.cpp:150] Setting up conv3_4_conv3_4/relu_0_split
I0620 04:28:07.982314  3148 net.cpp:157] Top shape: 2 512 60 60 (3686400)
I0620 04:28:07.982318  3148 net.cpp:157] Top shape: 2 512 60 60 (3686400)
I0620 04:28:07.982321  3148 net.cpp:165] Memory required for data: 1610609200
I0620 04:28:07.982323  3148 layer_factory.hpp:77] Creating layer conv4_1_1x1_reduce
I0620 04:28:07.982333  3148 net.cpp:106] Creating Layer conv4_1_1x1_reduce
I0620 04:28:07.982336  3148 net.cpp:454] conv4_1_1x1_reduce <- conv3_4_conv3_4/relu_0_split_0
I0620 04:28:07.982341  3148 net.cpp:411] conv4_1_1x1_reduce -> conv4_1_1x1_reduce
I0620 04:28:07.985281  3148 net.cpp:150] Setting up conv4_1_1x1_reduce
I0620 04:28:07.985286  3148 net.cpp:157] Top shape: 2 256 60 60 (1843200)
I0620 04:28:07.985290  3148 net.cpp:165] Memory required for data: 1617982000
I0620 04:28:07.985293  3148 layer_factory.hpp:77] Creating layer conv4_1_1x1_reduce/bn
I0620 04:28:07.985297  3148 net.cpp:106] Creating Layer conv4_1_1x1_reduce/bn
I0620 04:28:07.985301  3148 net.cpp:454] conv4_1_1x1_reduce/bn <- conv4_1_1x1_reduce
I0620 04:28:07.985306  3148 net.cpp:397] conv4_1_1x1_reduce/bn -> conv4_1_1x1_reduce (in-place)
I0620 04:28:07.985432  3148 net.cpp:150] Setting up conv4_1_1x1_reduce/bn
I0620 04:28:07.985436  3148 net.cpp:157] Top shape: 2 256 60 60 (1843200)
I0620 04:28:07.985440  3148 net.cpp:165] Memory required for data: 1625354800
I0620 04:28:07.985445  3148 layer_factory.hpp:77] Creating layer conv4_1_1x1_reduce/relu
I0620 04:28:07.985450  3148 net.cpp:106] Creating Layer conv4_1_1x1_reduce/relu
I0620 04:28:07.985453  3148 net.cpp:454] conv4_1_1x1_reduce/relu <- conv4_1_1x1_reduce
I0620 04:28:07.985456  3148 net.cpp:397] conv4_1_1x1_reduce/relu -> conv4_1_1x1_reduce (in-place)
I0620 04:28:07.985460  3148 net.cpp:150] Setting up conv4_1_1x1_reduce/relu
I0620 04:28:07.985463  3148 net.cpp:157] Top shape: 2 256 60 60 (1843200)
I0620 04:28:07.985466  3148 net.cpp:165] Memory required for data: 1632727600
I0620 04:28:07.985468  3148 layer_factory.hpp:77] Creating layer conv4_1_3x3
I0620 04:28:07.985473  3148 net.cpp:106] Creating Layer conv4_1_3x3
I0620 04:28:07.985476  3148 net.cpp:454] conv4_1_3x3 <- conv4_1_1x1_reduce
I0620 04:28:07.985481  3148 net.cpp:411] conv4_1_3x3 -> conv4_1_3x3
I0620 04:28:08.006208  3148 net.cpp:150] Setting up conv4_1_3x3
I0620 04:28:08.006247  3148 net.cpp:157] Top shape: 2 256 60 60 (1843200)
I0620 04:28:08.006249  3148 net.cpp:165] Memory required for data: 1640100400
I0620 04:28:08.006287  3148 layer_factory.hpp:77] Creating layer conv4_1_3x3/bn
I0620 04:28:08.006304  3148 net.cpp:106] Creating Layer conv4_1_3x3/bn
I0620 04:28:08.006310  3148 net.cpp:454] conv4_1_3x3/bn <- conv4_1_3x3
I0620 04:28:08.006321  3148 net.cpp:397] conv4_1_3x3/bn -> conv4_1_3x3 (in-place)
I0620 04:28:08.006500  3148 net.cpp:150] Setting up conv4_1_3x3/bn
I0620 04:28:08.006505  3148 net.cpp:157] Top shape: 2 256 60 60 (1843200)
I0620 04:28:08.006508  3148 net.cpp:165] Memory required for data: 1647473200
I0620 04:28:08.006515  3148 layer_factory.hpp:77] Creating layer conv4_1_3x3/relu
I0620 04:28:08.006520  3148 net.cpp:106] Creating Layer conv4_1_3x3/relu
I0620 04:28:08.006523  3148 net.cpp:454] conv4_1_3x3/relu <- conv4_1_3x3
I0620 04:28:08.006527  3148 net.cpp:397] conv4_1_3x3/relu -> conv4_1_3x3 (in-place)
I0620 04:28:08.006532  3148 net.cpp:150] Setting up conv4_1_3x3/relu
I0620 04:28:08.006536  3148 net.cpp:157] Top shape: 2 256 60 60 (1843200)
I0620 04:28:08.006538  3148 net.cpp:165] Memory required for data: 1654846000
I0620 04:28:08.006541  3148 layer_factory.hpp:77] Creating layer conv4_1_1x1_increase
I0620 04:28:08.006549  3148 net.cpp:106] Creating Layer conv4_1_1x1_increase
I0620 04:28:08.006552  3148 net.cpp:454] conv4_1_1x1_increase <- conv4_1_3x3
I0620 04:28:08.006556  3148 net.cpp:411] conv4_1_1x1_increase -> conv4_1_1x1_increase
I0620 04:28:08.013461  3148 net.cpp:150] Setting up conv4_1_1x1_increase
I0620 04:28:08.013502  3148 net.cpp:157] Top shape: 2 1024 60 60 (7372800)
I0620 04:28:08.013506  3148 net.cpp:165] Memory required for data: 1684337200
I0620 04:28:08.013516  3148 layer_factory.hpp:77] Creating layer conv4_1_1x1_increase/bn
I0620 04:28:08.013530  3148 net.cpp:106] Creating Layer conv4_1_1x1_increase/bn
I0620 04:28:08.013535  3148 net.cpp:454] conv4_1_1x1_increase/bn <- conv4_1_1x1_increase
I0620 04:28:08.013547  3148 net.cpp:397] conv4_1_1x1_increase/bn -> conv4_1_1x1_increase (in-place)
I0620 04:28:08.013787  3148 net.cpp:150] Setting up conv4_1_1x1_increase/bn
I0620 04:28:08.013793  3148 net.cpp:157] Top shape: 2 1024 60 60 (7372800)
I0620 04:28:08.013797  3148 net.cpp:165] Memory required for data: 1713828400
I0620 04:28:08.013803  3148 layer_factory.hpp:77] Creating layer conv4_1_1x1_proj
I0620 04:28:08.013821  3148 net.cpp:106] Creating Layer conv4_1_1x1_proj
I0620 04:28:08.013825  3148 net.cpp:454] conv4_1_1x1_proj <- conv3_4_conv3_4/relu_0_split_1
I0620 04:28:08.013831  3148 net.cpp:411] conv4_1_1x1_proj -> conv4_1_1x1_proj
I0620 04:28:08.026242  3148 net.cpp:150] Setting up conv4_1_1x1_proj
I0620 04:28:08.026268  3148 net.cpp:157] Top shape: 2 1024 60 60 (7372800)
I0620 04:28:08.026271  3148 net.cpp:165] Memory required for data: 1743319600
I0620 04:28:08.026278  3148 layer_factory.hpp:77] Creating layer conv4_1_1x1_proj/bn
I0620 04:28:08.026288  3148 net.cpp:106] Creating Layer conv4_1_1x1_proj/bn
I0620 04:28:08.026293  3148 net.cpp:454] conv4_1_1x1_proj/bn <- conv4_1_1x1_proj
I0620 04:28:08.026302  3148 net.cpp:397] conv4_1_1x1_proj/bn -> conv4_1_1x1_proj (in-place)
I0620 04:28:08.026468  3148 net.cpp:150] Setting up conv4_1_1x1_proj/bn
I0620 04:28:08.026473  3148 net.cpp:157] Top shape: 2 1024 60 60 (7372800)
I0620 04:28:08.026475  3148 net.cpp:165] Memory required for data: 1772810800
I0620 04:28:08.026481  3148 layer_factory.hpp:77] Creating layer conv4_1
I0620 04:28:08.026487  3148 net.cpp:106] Creating Layer conv4_1
I0620 04:28:08.026490  3148 net.cpp:454] conv4_1 <- conv4_1_1x1_proj
I0620 04:28:08.026494  3148 net.cpp:454] conv4_1 <- conv4_1_1x1_increase
I0620 04:28:08.026497  3148 net.cpp:411] conv4_1 -> conv4_1
I0620 04:28:08.026516  3148 net.cpp:150] Setting up conv4_1
I0620 04:28:08.026520  3148 net.cpp:157] Top shape: 2 1024 60 60 (7372800)
I0620 04:28:08.026522  3148 net.cpp:165] Memory required for data: 1802302000
I0620 04:28:08.026525  3148 layer_factory.hpp:77] Creating layer conv4_1/relu
I0620 04:28:08.026530  3148 net.cpp:106] Creating Layer conv4_1/relu
I0620 04:28:08.026532  3148 net.cpp:454] conv4_1/relu <- conv4_1
I0620 04:28:08.026536  3148 net.cpp:397] conv4_1/relu -> conv4_1 (in-place)
I0620 04:28:08.026559  3148 net.cpp:150] Setting up conv4_1/relu
I0620 04:28:08.026562  3148 net.cpp:157] Top shape: 2 1024 60 60 (7372800)
I0620 04:28:08.026566  3148 net.cpp:165] Memory required for data: 1831793200
I0620 04:28:08.026568  3148 layer_factory.hpp:77] Creating layer conv4_1_conv4_1/relu_0_split
I0620 04:28:08.026573  3148 net.cpp:106] Creating Layer conv4_1_conv4_1/relu_0_split
I0620 04:28:08.026576  3148 net.cpp:454] conv4_1_conv4_1/relu_0_split <- conv4_1
I0620 04:28:08.026581  3148 net.cpp:411] conv4_1_conv4_1/relu_0_split -> conv4_1_conv4_1/relu_0_split_0
I0620 04:28:08.026584  3148 net.cpp:411] conv4_1_conv4_1/relu_0_split -> conv4_1_conv4_1/relu_0_split_1
I0620 04:28:08.026607  3148 net.cpp:150] Setting up conv4_1_conv4_1/relu_0_split
I0620 04:28:08.026612  3148 net.cpp:157] Top shape: 2 1024 60 60 (7372800)
I0620 04:28:08.026614  3148 net.cpp:157] Top shape: 2 1024 60 60 (7372800)
I0620 04:28:08.026618  3148 net.cpp:165] Memory required for data: 1890775600
I0620 04:28:08.026619  3148 layer_factory.hpp:77] Creating layer conv4_2_1x1_reduce
I0620 04:28:08.026626  3148 net.cpp:106] Creating Layer conv4_2_1x1_reduce
I0620 04:28:08.026629  3148 net.cpp:454] conv4_2_1x1_reduce <- conv4_1_conv4_1/relu_0_split_0
I0620 04:28:08.026634  3148 net.cpp:411] conv4_2_1x1_reduce -> conv4_2_1x1_reduce
I0620 04:28:08.032320  3148 net.cpp:150] Setting up conv4_2_1x1_reduce
I0620 04:28:08.032327  3148 net.cpp:157] Top shape: 2 256 60 60 (1843200)
I0620 04:28:08.032330  3148 net.cpp:165] Memory required for data: 1898148400
I0620 04:28:08.032333  3148 layer_factory.hpp:77] Creating layer conv4_2_1x1_reduce/bn
I0620 04:28:08.032338  3148 net.cpp:106] Creating Layer conv4_2_1x1_reduce/bn
I0620 04:28:08.032341  3148 net.cpp:454] conv4_2_1x1_reduce/bn <- conv4_2_1x1_reduce
I0620 04:28:08.032344  3148 net.cpp:397] conv4_2_1x1_reduce/bn -> conv4_2_1x1_reduce (in-place)
I0620 04:28:08.032477  3148 net.cpp:150] Setting up conv4_2_1x1_reduce/bn
I0620 04:28:08.032482  3148 net.cpp:157] Top shape: 2 256 60 60 (1843200)
I0620 04:28:08.032485  3148 net.cpp:165] Memory required for data: 1905521200
I0620 04:28:08.032490  3148 layer_factory.hpp:77] Creating layer conv4_2_1x1_reduce/relu
I0620 04:28:08.032493  3148 net.cpp:106] Creating Layer conv4_2_1x1_reduce/relu
I0620 04:28:08.032495  3148 net.cpp:454] conv4_2_1x1_reduce/relu <- conv4_2_1x1_reduce
I0620 04:28:08.032498  3148 net.cpp:397] conv4_2_1x1_reduce/relu -> conv4_2_1x1_reduce (in-place)
I0620 04:28:08.032501  3148 net.cpp:150] Setting up conv4_2_1x1_reduce/relu
I0620 04:28:08.032505  3148 net.cpp:157] Top shape: 2 256 60 60 (1843200)
I0620 04:28:08.032506  3148 net.cpp:165] Memory required for data: 1912894000
I0620 04:28:08.032508  3148 layer_factory.hpp:77] Creating layer conv4_2_3x3
I0620 04:28:08.032517  3148 net.cpp:106] Creating Layer conv4_2_3x3
I0620 04:28:08.032521  3148 net.cpp:454] conv4_2_3x3 <- conv4_2_1x1_reduce
I0620 04:28:08.032527  3148 net.cpp:411] conv4_2_3x3 -> conv4_2_3x3
I0620 04:28:08.048102  3148 net.cpp:150] Setting up conv4_2_3x3
I0620 04:28:08.048192  3148 net.cpp:157] Top shape: 2 256 60 60 (1843200)
I0620 04:28:08.048197  3148 net.cpp:165] Memory required for data: 1920266800
I0620 04:28:08.048216  3148 layer_factory.hpp:77] Creating layer conv4_2_3x3/bn
I0620 04:28:08.048241  3148 net.cpp:106] Creating Layer conv4_2_3x3/bn
I0620 04:28:08.048252  3148 net.cpp:454] conv4_2_3x3/bn <- conv4_2_3x3
I0620 04:28:08.048265  3148 net.cpp:397] conv4_2_3x3/bn -> conv4_2_3x3 (in-place)
I0620 04:28:08.048514  3148 net.cpp:150] Setting up conv4_2_3x3/bn
I0620 04:28:08.048526  3148 net.cpp:157] Top shape: 2 256 60 60 (1843200)
I0620 04:28:08.048530  3148 net.cpp:165] Memory required for data: 1927639600
I0620 04:28:08.048539  3148 layer_factory.hpp:77] Creating layer conv4_2_3x3/relu
I0620 04:28:08.048552  3148 net.cpp:106] Creating Layer conv4_2_3x3/relu
I0620 04:28:08.048557  3148 net.cpp:454] conv4_2_3x3/relu <- conv4_2_3x3
I0620 04:28:08.048563  3148 net.cpp:397] conv4_2_3x3/relu -> conv4_2_3x3 (in-place)
I0620 04:28:08.048631  3148 net.cpp:150] Setting up conv4_2_3x3/relu
I0620 04:28:08.048637  3148 net.cpp:157] Top shape: 2 256 60 60 (1843200)
I0620 04:28:08.048641  3148 net.cpp:165] Memory required for data: 1935012400
I0620 04:28:08.048645  3148 layer_factory.hpp:77] Creating layer conv4_2_1x1_increase
I0620 04:28:08.048660  3148 net.cpp:106] Creating Layer conv4_2_1x1_increase
I0620 04:28:08.048665  3148 net.cpp:454] conv4_2_1x1_increase <- conv4_2_3x3
I0620 04:28:08.048671  3148 net.cpp:411] conv4_2_1x1_increase -> conv4_2_1x1_increase
I0620 04:28:08.057065  3148 net.cpp:150] Setting up conv4_2_1x1_increase
I0620 04:28:08.057099  3148 net.cpp:157] Top shape: 2 1024 60 60 (7372800)
I0620 04:28:08.057103  3148 net.cpp:165] Memory required for data: 1964503600
I0620 04:28:08.057111  3148 layer_factory.hpp:77] Creating layer conv4_2_1x1_increase/bn
I0620 04:28:08.057122  3148 net.cpp:106] Creating Layer conv4_2_1x1_increase/bn
I0620 04:28:08.057127  3148 net.cpp:454] conv4_2_1x1_increase/bn <- conv4_2_1x1_increase
I0620 04:28:08.057134  3148 net.cpp:397] conv4_2_1x1_increase/bn -> conv4_2_1x1_increase (in-place)
I0620 04:28:08.057302  3148 net.cpp:150] Setting up conv4_2_1x1_increase/bn
I0620 04:28:08.057312  3148 net.cpp:157] Top shape: 2 1024 60 60 (7372800)
I0620 04:28:08.057315  3148 net.cpp:165] Memory required for data: 1993994800
I0620 04:28:08.057324  3148 layer_factory.hpp:77] Creating layer conv4_2
I0620 04:28:08.057333  3148 net.cpp:106] Creating Layer conv4_2
I0620 04:28:08.057337  3148 net.cpp:454] conv4_2 <- conv4_1_conv4_1/relu_0_split_1
I0620 04:28:08.057343  3148 net.cpp:454] conv4_2 <- conv4_2_1x1_increase
I0620 04:28:08.057348  3148 net.cpp:411] conv4_2 -> conv4_2
I0620 04:28:08.057370  3148 net.cpp:150] Setting up conv4_2
I0620 04:28:08.057375  3148 net.cpp:157] Top shape: 2 1024 60 60 (7372800)
I0620 04:28:08.057379  3148 net.cpp:165] Memory required for data: 2023486000
I0620 04:28:08.057382  3148 layer_factory.hpp:77] Creating layer conv4_2/relu
I0620 04:28:08.057389  3148 net.cpp:106] Creating Layer conv4_2/relu
I0620 04:28:08.057394  3148 net.cpp:454] conv4_2/relu <- conv4_2
I0620 04:28:08.057399  3148 net.cpp:397] conv4_2/relu -> conv4_2 (in-place)
I0620 04:28:08.057404  3148 net.cpp:150] Setting up conv4_2/relu
I0620 04:28:08.057407  3148 net.cpp:157] Top shape: 2 1024 60 60 (7372800)
I0620 04:28:08.057410  3148 net.cpp:165] Memory required for data: 2052977200
I0620 04:28:08.057415  3148 layer_factory.hpp:77] Creating layer conv4_2_conv4_2/relu_0_split
I0620 04:28:08.057420  3148 net.cpp:106] Creating Layer conv4_2_conv4_2/relu_0_split
I0620 04:28:08.057422  3148 net.cpp:454] conv4_2_conv4_2/relu_0_split <- conv4_2
I0620 04:28:08.057427  3148 net.cpp:411] conv4_2_conv4_2/relu_0_split -> conv4_2_conv4_2/relu_0_split_0
I0620 04:28:08.057440  3148 net.cpp:411] conv4_2_conv4_2/relu_0_split -> conv4_2_conv4_2/relu_0_split_1
I0620 04:28:08.057464  3148 net.cpp:150] Setting up conv4_2_conv4_2/relu_0_split
I0620 04:28:08.057479  3148 net.cpp:157] Top shape: 2 1024 60 60 (7372800)
I0620 04:28:08.057483  3148 net.cpp:157] Top shape: 2 1024 60 60 (7372800)
I0620 04:28:08.057487  3148 net.cpp:165] Memory required for data: 2111959600
I0620 04:28:08.057490  3148 layer_factory.hpp:77] Creating layer conv4_3_1x1_reduce
I0620 04:28:08.057499  3148 net.cpp:106] Creating Layer conv4_3_1x1_reduce
I0620 04:28:08.057502  3148 net.cpp:454] conv4_3_1x1_reduce <- conv4_2_conv4_2/relu_0_split_0
I0620 04:28:08.057510  3148 net.cpp:411] conv4_3_1x1_reduce -> conv4_3_1x1_reduce
I0620 04:28:08.063175  3148 net.cpp:150] Setting up conv4_3_1x1_reduce
I0620 04:28:08.063184  3148 net.cpp:157] Top shape: 2 256 60 60 (1843200)
I0620 04:28:08.063185  3148 net.cpp:165] Memory required for data: 2119332400
I0620 04:28:08.063190  3148 layer_factory.hpp:77] Creating layer conv4_3_1x1_reduce/bn
I0620 04:28:08.063199  3148 net.cpp:106] Creating Layer conv4_3_1x1_reduce/bn
I0620 04:28:08.063201  3148 net.cpp:454] conv4_3_1x1_reduce/bn <- conv4_3_1x1_reduce
I0620 04:28:08.063206  3148 net.cpp:397] conv4_3_1x1_reduce/bn -> conv4_3_1x1_reduce (in-place)
I0620 04:28:08.063364  3148 net.cpp:150] Setting up conv4_3_1x1_reduce/bn
I0620 04:28:08.063367  3148 net.cpp:157] Top shape: 2 256 60 60 (1843200)
I0620 04:28:08.063370  3148 net.cpp:165] Memory required for data: 2126705200
I0620 04:28:08.063376  3148 layer_factory.hpp:77] Creating layer conv4_3_1x1_reduce/relu
I0620 04:28:08.063380  3148 net.cpp:106] Creating Layer conv4_3_1x1_reduce/relu
I0620 04:28:08.063383  3148 net.cpp:454] conv4_3_1x1_reduce/relu <- conv4_3_1x1_reduce
I0620 04:28:08.063386  3148 net.cpp:397] conv4_3_1x1_reduce/relu -> conv4_3_1x1_reduce (in-place)
I0620 04:28:08.063390  3148 net.cpp:150] Setting up conv4_3_1x1_reduce/relu
I0620 04:28:08.063393  3148 net.cpp:157] Top shape: 2 256 60 60 (1843200)
I0620 04:28:08.063396  3148 net.cpp:165] Memory required for data: 2134078000
I0620 04:28:08.063398  3148 layer_factory.hpp:77] Creating layer conv4_3_3x3
I0620 04:28:08.063405  3148 net.cpp:106] Creating Layer conv4_3_3x3
I0620 04:28:08.063406  3148 net.cpp:454] conv4_3_3x3 <- conv4_3_1x1_reduce
I0620 04:28:08.063411  3148 net.cpp:411] conv4_3_3x3 -> conv4_3_3x3
I0620 04:28:08.076421  3148 net.cpp:150] Setting up conv4_3_3x3
I0620 04:28:08.076438  3148 net.cpp:157] Top shape: 2 256 60 60 (1843200)
I0620 04:28:08.076442  3148 net.cpp:165] Memory required for data: 2141450800
I0620 04:28:08.076447  3148 layer_factory.hpp:77] Creating layer conv4_3_3x3/bn
I0620 04:28:08.076453  3148 net.cpp:106] Creating Layer conv4_3_3x3/bn
I0620 04:28:08.076457  3148 net.cpp:454] conv4_3_3x3/bn <- conv4_3_3x3
I0620 04:28:08.076462  3148 net.cpp:397] conv4_3_3x3/bn -> conv4_3_3x3 (in-place)
I0620 04:28:08.076596  3148 net.cpp:150] Setting up conv4_3_3x3/bn
I0620 04:28:08.076601  3148 net.cpp:157] Top shape: 2 256 60 60 (1843200)
I0620 04:28:08.076603  3148 net.cpp:165] Memory required for data: 2148823600
I0620 04:28:08.076608  3148 layer_factory.hpp:77] Creating layer conv4_3_3x3/relu
I0620 04:28:08.076612  3148 net.cpp:106] Creating Layer conv4_3_3x3/relu
I0620 04:28:08.076616  3148 net.cpp:454] conv4_3_3x3/relu <- conv4_3_3x3
I0620 04:28:08.076619  3148 net.cpp:397] conv4_3_3x3/relu -> conv4_3_3x3 (in-place)
I0620 04:28:08.076624  3148 net.cpp:150] Setting up conv4_3_3x3/relu
I0620 04:28:08.076627  3148 net.cpp:157] Top shape: 2 256 60 60 (1843200)
I0620 04:28:08.076630  3148 net.cpp:165] Memory required for data: 2156196400
I0620 04:28:08.076632  3148 layer_factory.hpp:77] Creating layer conv4_3_1x1_increase
I0620 04:28:08.076637  3148 net.cpp:106] Creating Layer conv4_3_1x1_increase
I0620 04:28:08.076640  3148 net.cpp:454] conv4_3_1x1_increase <- conv4_3_3x3
I0620 04:28:08.076644  3148 net.cpp:411] conv4_3_1x1_increase -> conv4_3_1x1_increase
I0620 04:28:08.083115  3148 net.cpp:150] Setting up conv4_3_1x1_increase
I0620 04:28:08.083137  3148 net.cpp:157] Top shape: 2 1024 60 60 (7372800)
I0620 04:28:08.083138  3148 net.cpp:165] Memory required for data: 2185687600
I0620 04:28:08.083143  3148 layer_factory.hpp:77] Creating layer conv4_3_1x1_increase/bn
I0620 04:28:08.083151  3148 net.cpp:106] Creating Layer conv4_3_1x1_increase/bn
I0620 04:28:08.083155  3148 net.cpp:454] conv4_3_1x1_increase/bn <- conv4_3_1x1_increase
I0620 04:28:08.083160  3148 net.cpp:397] conv4_3_1x1_increase/bn -> conv4_3_1x1_increase (in-place)
I0620 04:28:08.083308  3148 net.cpp:150] Setting up conv4_3_1x1_increase/bn
I0620 04:28:08.083312  3148 net.cpp:157] Top shape: 2 1024 60 60 (7372800)
I0620 04:28:08.083315  3148 net.cpp:165] Memory required for data: 2215178800
I0620 04:28:08.083320  3148 layer_factory.hpp:77] Creating layer conv4_3
I0620 04:28:08.083324  3148 net.cpp:106] Creating Layer conv4_3
I0620 04:28:08.083326  3148 net.cpp:454] conv4_3 <- conv4_2_conv4_2/relu_0_split_1
I0620 04:28:08.083329  3148 net.cpp:454] conv4_3 <- conv4_3_1x1_increase
I0620 04:28:08.083334  3148 net.cpp:411] conv4_3 -> conv4_3
I0620 04:28:08.083351  3148 net.cpp:150] Setting up conv4_3
I0620 04:28:08.083355  3148 net.cpp:157] Top shape: 2 1024 60 60 (7372800)
I0620 04:28:08.083358  3148 net.cpp:165] Memory required for data: 2244670000
I0620 04:28:08.083359  3148 layer_factory.hpp:77] Creating layer conv4_3/relu
I0620 04:28:08.083380  3148 net.cpp:106] Creating Layer conv4_3/relu
I0620 04:28:08.083382  3148 net.cpp:454] conv4_3/relu <- conv4_3
I0620 04:28:08.083385  3148 net.cpp:397] conv4_3/relu -> conv4_3 (in-place)
I0620 04:28:08.083390  3148 net.cpp:150] Setting up conv4_3/relu
I0620 04:28:08.083394  3148 net.cpp:157] Top shape: 2 1024 60 60 (7372800)
I0620 04:28:08.083395  3148 net.cpp:165] Memory required for data: 2274161200
I0620 04:28:08.083398  3148 layer_factory.hpp:77] Creating layer conv4_3_conv4_3/relu_0_split
I0620 04:28:08.083403  3148 net.cpp:106] Creating Layer conv4_3_conv4_3/relu_0_split
I0620 04:28:08.083406  3148 net.cpp:454] conv4_3_conv4_3/relu_0_split <- conv4_3
I0620 04:28:08.083410  3148 net.cpp:411] conv4_3_conv4_3/relu_0_split -> conv4_3_conv4_3/relu_0_split_0
I0620 04:28:08.083415  3148 net.cpp:411] conv4_3_conv4_3/relu_0_split -> conv4_3_conv4_3/relu_0_split_1
I0620 04:28:08.083436  3148 net.cpp:150] Setting up conv4_3_conv4_3/relu_0_split
I0620 04:28:08.083441  3148 net.cpp:157] Top shape: 2 1024 60 60 (7372800)
I0620 04:28:08.083443  3148 net.cpp:157] Top shape: 2 1024 60 60 (7372800)
I0620 04:28:08.083446  3148 net.cpp:165] Memory required for data: 2333143600
I0620 04:28:08.083448  3148 layer_factory.hpp:77] Creating layer conv4_4_1x1_reduce
I0620 04:28:08.083467  3148 net.cpp:106] Creating Layer conv4_4_1x1_reduce
I0620 04:28:08.083469  3148 net.cpp:454] conv4_4_1x1_reduce <- conv4_3_conv4_3/relu_0_split_0
I0620 04:28:08.083473  3148 net.cpp:411] conv4_4_1x1_reduce -> conv4_4_1x1_reduce
I0620 04:28:08.089133  3148 net.cpp:150] Setting up conv4_4_1x1_reduce
I0620 04:28:08.089143  3148 net.cpp:157] Top shape: 2 256 60 60 (1843200)
I0620 04:28:08.089145  3148 net.cpp:165] Memory required for data: 2340516400
I0620 04:28:08.089151  3148 layer_factory.hpp:77] Creating layer conv4_4_1x1_reduce/bn
I0620 04:28:08.089157  3148 net.cpp:106] Creating Layer conv4_4_1x1_reduce/bn
I0620 04:28:08.089160  3148 net.cpp:454] conv4_4_1x1_reduce/bn <- conv4_4_1x1_reduce
I0620 04:28:08.089167  3148 net.cpp:397] conv4_4_1x1_reduce/bn -> conv4_4_1x1_reduce (in-place)
I0620 04:28:08.089299  3148 net.cpp:150] Setting up conv4_4_1x1_reduce/bn
I0620 04:28:08.089304  3148 net.cpp:157] Top shape: 2 256 60 60 (1843200)
I0620 04:28:08.089306  3148 net.cpp:165] Memory required for data: 2347889200
I0620 04:28:08.089313  3148 layer_factory.hpp:77] Creating layer conv4_4_1x1_reduce/relu
I0620 04:28:08.089318  3148 net.cpp:106] Creating Layer conv4_4_1x1_reduce/relu
I0620 04:28:08.089320  3148 net.cpp:454] conv4_4_1x1_reduce/relu <- conv4_4_1x1_reduce
I0620 04:28:08.089323  3148 net.cpp:397] conv4_4_1x1_reduce/relu -> conv4_4_1x1_reduce (in-place)
I0620 04:28:08.089328  3148 net.cpp:150] Setting up conv4_4_1x1_reduce/relu
I0620 04:28:08.089330  3148 net.cpp:157] Top shape: 2 256 60 60 (1843200)
I0620 04:28:08.089334  3148 net.cpp:165] Memory required for data: 2355262000
I0620 04:28:08.089336  3148 layer_factory.hpp:77] Creating layer conv4_4_3x3
I0620 04:28:08.089344  3148 net.cpp:106] Creating Layer conv4_4_3x3
I0620 04:28:08.089349  3148 net.cpp:454] conv4_4_3x3 <- conv4_4_1x1_reduce
I0620 04:28:08.089354  3148 net.cpp:411] conv4_4_3x3 -> conv4_4_3x3
I0620 04:28:08.106796  3148 net.cpp:150] Setting up conv4_4_3x3
I0620 04:28:08.106822  3148 net.cpp:157] Top shape: 2 256 60 60 (1843200)
I0620 04:28:08.106827  3148 net.cpp:165] Memory required for data: 2362634800
I0620 04:28:08.106835  3148 layer_factory.hpp:77] Creating layer conv4_4_3x3/bn
I0620 04:28:08.106850  3148 net.cpp:106] Creating Layer conv4_4_3x3/bn
I0620 04:28:08.106855  3148 net.cpp:454] conv4_4_3x3/bn <- conv4_4_3x3
I0620 04:28:08.106863  3148 net.cpp:397] conv4_4_3x3/bn -> conv4_4_3x3 (in-place)
I0620 04:28:08.107026  3148 net.cpp:150] Setting up conv4_4_3x3/bn
I0620 04:28:08.107033  3148 net.cpp:157] Top shape: 2 256 60 60 (1843200)
I0620 04:28:08.107038  3148 net.cpp:165] Memory required for data: 2370007600
I0620 04:28:08.107044  3148 layer_factory.hpp:77] Creating layer conv4_4_3x3/relu
I0620 04:28:08.107071  3148 net.cpp:106] Creating Layer conv4_4_3x3/relu
I0620 04:28:08.107075  3148 net.cpp:454] conv4_4_3x3/relu <- conv4_4_3x3
I0620 04:28:08.107080  3148 net.cpp:397] conv4_4_3x3/relu -> conv4_4_3x3 (in-place)
I0620 04:28:08.107086  3148 net.cpp:150] Setting up conv4_4_3x3/relu
I0620 04:28:08.107090  3148 net.cpp:157] Top shape: 2 256 60 60 (1843200)
I0620 04:28:08.107095  3148 net.cpp:165] Memory required for data: 2377380400
I0620 04:28:08.107097  3148 layer_factory.hpp:77] Creating layer conv4_4_1x1_increase
I0620 04:28:08.107106  3148 net.cpp:106] Creating Layer conv4_4_1x1_increase
I0620 04:28:08.107110  3148 net.cpp:454] conv4_4_1x1_increase <- conv4_4_3x3
I0620 04:28:08.107115  3148 net.cpp:411] conv4_4_1x1_increase -> conv4_4_1x1_increase
I0620 04:28:08.113396  3148 net.cpp:150] Setting up conv4_4_1x1_increase
I0620 04:28:08.113409  3148 net.cpp:157] Top shape: 2 1024 60 60 (7372800)
I0620 04:28:08.113412  3148 net.cpp:165] Memory required for data: 2406871600
I0620 04:28:08.113417  3148 layer_factory.hpp:77] Creating layer conv4_4_1x1_increase/bn
I0620 04:28:08.113426  3148 net.cpp:106] Creating Layer conv4_4_1x1_increase/bn
I0620 04:28:08.113430  3148 net.cpp:454] conv4_4_1x1_increase/bn <- conv4_4_1x1_increase
I0620 04:28:08.113435  3148 net.cpp:397] conv4_4_1x1_increase/bn -> conv4_4_1x1_increase (in-place)
I0620 04:28:08.113579  3148 net.cpp:150] Setting up conv4_4_1x1_increase/bn
I0620 04:28:08.113584  3148 net.cpp:157] Top shape: 2 1024 60 60 (7372800)
I0620 04:28:08.113589  3148 net.cpp:165] Memory required for data: 2436362800
I0620 04:28:08.113595  3148 layer_factory.hpp:77] Creating layer conv4_4
I0620 04:28:08.113600  3148 net.cpp:106] Creating Layer conv4_4
I0620 04:28:08.113605  3148 net.cpp:454] conv4_4 <- conv4_3_conv4_3/relu_0_split_1
I0620 04:28:08.113608  3148 net.cpp:454] conv4_4 <- conv4_4_1x1_increase
I0620 04:28:08.113612  3148 net.cpp:411] conv4_4 -> conv4_4
I0620 04:28:08.113631  3148 net.cpp:150] Setting up conv4_4
I0620 04:28:08.113636  3148 net.cpp:157] Top shape: 2 1024 60 60 (7372800)
I0620 04:28:08.113639  3148 net.cpp:165] Memory required for data: 2465854000
I0620 04:28:08.113642  3148 layer_factory.hpp:77] Creating layer conv4_4/relu
I0620 04:28:08.113648  3148 net.cpp:106] Creating Layer conv4_4/relu
I0620 04:28:08.113651  3148 net.cpp:454] conv4_4/relu <- conv4_4
I0620 04:28:08.113656  3148 net.cpp:397] conv4_4/relu -> conv4_4 (in-place)
I0620 04:28:08.113661  3148 net.cpp:150] Setting up conv4_4/relu
I0620 04:28:08.113664  3148 net.cpp:157] Top shape: 2 1024 60 60 (7372800)
I0620 04:28:08.113667  3148 net.cpp:165] Memory required for data: 2495345200
I0620 04:28:08.113670  3148 layer_factory.hpp:77] Creating layer conv4_4_conv4_4/relu_0_split
I0620 04:28:08.113675  3148 net.cpp:106] Creating Layer conv4_4_conv4_4/relu_0_split
I0620 04:28:08.113678  3148 net.cpp:454] conv4_4_conv4_4/relu_0_split <- conv4_4
I0620 04:28:08.113684  3148 net.cpp:411] conv4_4_conv4_4/relu_0_split -> conv4_4_conv4_4/relu_0_split_0
I0620 04:28:08.113689  3148 net.cpp:411] conv4_4_conv4_4/relu_0_split -> conv4_4_conv4_4/relu_0_split_1
I0620 04:28:08.113713  3148 net.cpp:150] Setting up conv4_4_conv4_4/relu_0_split
I0620 04:28:08.113718  3148 net.cpp:157] Top shape: 2 1024 60 60 (7372800)
I0620 04:28:08.113721  3148 net.cpp:157] Top shape: 2 1024 60 60 (7372800)
I0620 04:28:08.113724  3148 net.cpp:165] Memory required for data: 2554327600
I0620 04:28:08.113728  3148 layer_factory.hpp:77] Creating layer conv4_5_1x1_reduce
I0620 04:28:08.113735  3148 net.cpp:106] Creating Layer conv4_5_1x1_reduce
I0620 04:28:08.113739  3148 net.cpp:454] conv4_5_1x1_reduce <- conv4_4_conv4_4/relu_0_split_0
I0620 04:28:08.113744  3148 net.cpp:411] conv4_5_1x1_reduce -> conv4_5_1x1_reduce
I0620 04:28:08.119279  3148 net.cpp:150] Setting up conv4_5_1x1_reduce
I0620 04:28:08.119288  3148 net.cpp:157] Top shape: 2 256 60 60 (1843200)
I0620 04:28:08.119293  3148 net.cpp:165] Memory required for data: 2561700400
I0620 04:28:08.119300  3148 layer_factory.hpp:77] Creating layer conv4_5_1x1_reduce/bn
I0620 04:28:08.119308  3148 net.cpp:106] Creating Layer conv4_5_1x1_reduce/bn
I0620 04:28:08.119331  3148 net.cpp:454] conv4_5_1x1_reduce/bn <- conv4_5_1x1_reduce
I0620 04:28:08.119339  3148 net.cpp:397] conv4_5_1x1_reduce/bn -> conv4_5_1x1_reduce (in-place)
I0620 04:28:08.119483  3148 net.cpp:150] Setting up conv4_5_1x1_reduce/bn
I0620 04:28:08.119488  3148 net.cpp:157] Top shape: 2 256 60 60 (1843200)
I0620 04:28:08.119491  3148 net.cpp:165] Memory required for data: 2569073200
I0620 04:28:08.119496  3148 layer_factory.hpp:77] Creating layer conv4_5_1x1_reduce/relu
I0620 04:28:08.119503  3148 net.cpp:106] Creating Layer conv4_5_1x1_reduce/relu
I0620 04:28:08.119505  3148 net.cpp:454] conv4_5_1x1_reduce/relu <- conv4_5_1x1_reduce
I0620 04:28:08.119508  3148 net.cpp:397] conv4_5_1x1_reduce/relu -> conv4_5_1x1_reduce (in-place)
I0620 04:28:08.119511  3148 net.cpp:150] Setting up conv4_5_1x1_reduce/relu
I0620 04:28:08.119514  3148 net.cpp:157] Top shape: 2 256 60 60 (1843200)
I0620 04:28:08.119518  3148 net.cpp:165] Memory required for data: 2576446000
I0620 04:28:08.119521  3148 layer_factory.hpp:77] Creating layer conv4_5_3x3
I0620 04:28:08.119529  3148 net.cpp:106] Creating Layer conv4_5_3x3
I0620 04:28:08.119534  3148 net.cpp:454] conv4_5_3x3 <- conv4_5_1x1_reduce
I0620 04:28:08.119544  3148 net.cpp:411] conv4_5_3x3 -> conv4_5_3x3
I0620 04:28:08.132647  3148 net.cpp:150] Setting up conv4_5_3x3
I0620 04:28:08.132679  3148 net.cpp:157] Top shape: 2 256 60 60 (1843200)
I0620 04:28:08.132683  3148 net.cpp:165] Memory required for data: 2583818800
I0620 04:28:08.132690  3148 layer_factory.hpp:77] Creating layer conv4_5_3x3/bn
I0620 04:28:08.132704  3148 net.cpp:106] Creating Layer conv4_5_3x3/bn
I0620 04:28:08.132710  3148 net.cpp:454] conv4_5_3x3/bn <- conv4_5_3x3
I0620 04:28:08.132719  3148 net.cpp:397] conv4_5_3x3/bn -> conv4_5_3x3 (in-place)
I0620 04:28:08.132894  3148 net.cpp:150] Setting up conv4_5_3x3/bn
I0620 04:28:08.132899  3148 net.cpp:157] Top shape: 2 256 60 60 (1843200)
I0620 04:28:08.132901  3148 net.cpp:165] Memory required for data: 2591191600
I0620 04:28:08.132906  3148 layer_factory.hpp:77] Creating layer conv4_5_3x3/relu
I0620 04:28:08.132910  3148 net.cpp:106] Creating Layer conv4_5_3x3/relu
I0620 04:28:08.132913  3148 net.cpp:454] conv4_5_3x3/relu <- conv4_5_3x3
I0620 04:28:08.132915  3148 net.cpp:397] conv4_5_3x3/relu -> conv4_5_3x3 (in-place)
I0620 04:28:08.132920  3148 net.cpp:150] Setting up conv4_5_3x3/relu
I0620 04:28:08.132922  3148 net.cpp:157] Top shape: 2 256 60 60 (1843200)
I0620 04:28:08.132925  3148 net.cpp:165] Memory required for data: 2598564400
I0620 04:28:08.132927  3148 layer_factory.hpp:77] Creating layer conv4_5_1x1_increase
I0620 04:28:08.132936  3148 net.cpp:106] Creating Layer conv4_5_1x1_increase
I0620 04:28:08.132941  3148 net.cpp:454] conv4_5_1x1_increase <- conv4_5_3x3
I0620 04:28:08.132947  3148 net.cpp:411] conv4_5_1x1_increase -> conv4_5_1x1_increase
I0620 04:28:08.141280  3148 net.cpp:150] Setting up conv4_5_1x1_increase
I0620 04:28:08.141363  3148 net.cpp:157] Top shape: 2 1024 60 60 (7372800)
I0620 04:28:08.141376  3148 net.cpp:165] Memory required for data: 2628055600
I0620 04:28:08.141393  3148 layer_factory.hpp:77] Creating layer conv4_5_1x1_increase/bn
I0620 04:28:08.141423  3148 net.cpp:106] Creating Layer conv4_5_1x1_increase/bn
I0620 04:28:08.141434  3148 net.cpp:454] conv4_5_1x1_increase/bn <- conv4_5_1x1_increase
I0620 04:28:08.141448  3148 net.cpp:397] conv4_5_1x1_increase/bn -> conv4_5_1x1_increase (in-place)
I0620 04:28:08.141731  3148 net.cpp:150] Setting up conv4_5_1x1_increase/bn
I0620 04:28:08.141741  3148 net.cpp:157] Top shape: 2 1024 60 60 (7372800)
I0620 04:28:08.141746  3148 net.cpp:165] Memory required for data: 2657546800
I0620 04:28:08.141777  3148 layer_factory.hpp:77] Creating layer conv4_5
I0620 04:28:08.141790  3148 net.cpp:106] Creating Layer conv4_5
I0620 04:28:08.141796  3148 net.cpp:454] conv4_5 <- conv4_4_conv4_4/relu_0_split_1
I0620 04:28:08.141803  3148 net.cpp:454] conv4_5 <- conv4_5_1x1_increase
I0620 04:28:08.141810  3148 net.cpp:411] conv4_5 -> conv4_5
I0620 04:28:08.141903  3148 net.cpp:150] Setting up conv4_5
I0620 04:28:08.141911  3148 net.cpp:157] Top shape: 2 1024 60 60 (7372800)
I0620 04:28:08.141914  3148 net.cpp:165] Memory required for data: 2687038000
I0620 04:28:08.141919  3148 layer_factory.hpp:77] Creating layer conv4_5/relu
I0620 04:28:08.141932  3148 net.cpp:106] Creating Layer conv4_5/relu
I0620 04:28:08.141935  3148 net.cpp:454] conv4_5/relu <- conv4_5
I0620 04:28:08.141942  3148 net.cpp:397] conv4_5/relu -> conv4_5 (in-place)
I0620 04:28:08.141948  3148 net.cpp:150] Setting up conv4_5/relu
I0620 04:28:08.141953  3148 net.cpp:157] Top shape: 2 1024 60 60 (7372800)
I0620 04:28:08.141957  3148 net.cpp:165] Memory required for data: 2716529200
I0620 04:28:08.141963  3148 layer_factory.hpp:77] Creating layer conv4_5_conv4_5/relu_0_split
I0620 04:28:08.141969  3148 net.cpp:106] Creating Layer conv4_5_conv4_5/relu_0_split
I0620 04:28:08.141973  3148 net.cpp:454] conv4_5_conv4_5/relu_0_split <- conv4_5
I0620 04:28:08.141981  3148 net.cpp:411] conv4_5_conv4_5/relu_0_split -> conv4_5_conv4_5/relu_0_split_0
I0620 04:28:08.141988  3148 net.cpp:411] conv4_5_conv4_5/relu_0_split -> conv4_5_conv4_5/relu_0_split_1
I0620 04:28:08.142019  3148 net.cpp:150] Setting up conv4_5_conv4_5/relu_0_split
I0620 04:28:08.142024  3148 net.cpp:157] Top shape: 2 1024 60 60 (7372800)
I0620 04:28:08.142030  3148 net.cpp:157] Top shape: 2 1024 60 60 (7372800)
I0620 04:28:08.142032  3148 net.cpp:165] Memory required for data: 2775511600
I0620 04:28:08.142036  3148 layer_factory.hpp:77] Creating layer conv4_6_1x1_reduce
I0620 04:28:08.142050  3148 net.cpp:106] Creating Layer conv4_6_1x1_reduce
I0620 04:28:08.142055  3148 net.cpp:454] conv4_6_1x1_reduce <- conv4_5_conv4_5/relu_0_split_0
I0620 04:28:08.142060  3148 net.cpp:411] conv4_6_1x1_reduce -> conv4_6_1x1_reduce
I0620 04:28:08.150005  3148 net.cpp:150] Setting up conv4_6_1x1_reduce
I0620 04:28:08.150043  3148 net.cpp:157] Top shape: 2 256 60 60 (1843200)
I0620 04:28:08.150046  3148 net.cpp:165] Memory required for data: 2782884400
I0620 04:28:08.150055  3148 layer_factory.hpp:77] Creating layer conv4_6_1x1_reduce/bn
I0620 04:28:08.150069  3148 net.cpp:106] Creating Layer conv4_6_1x1_reduce/bn
I0620 04:28:08.150074  3148 net.cpp:454] conv4_6_1x1_reduce/bn <- conv4_6_1x1_reduce
I0620 04:28:08.150084  3148 net.cpp:397] conv4_6_1x1_reduce/bn -> conv4_6_1x1_reduce (in-place)
I0620 04:28:08.150239  3148 net.cpp:150] Setting up conv4_6_1x1_reduce/bn
I0620 04:28:08.150244  3148 net.cpp:157] Top shape: 2 256 60 60 (1843200)
I0620 04:28:08.150246  3148 net.cpp:165] Memory required for data: 2790257200
I0620 04:28:08.150252  3148 layer_factory.hpp:77] Creating layer conv4_6_1x1_reduce/relu
I0620 04:28:08.150259  3148 net.cpp:106] Creating Layer conv4_6_1x1_reduce/relu
I0620 04:28:08.150260  3148 net.cpp:454] conv4_6_1x1_reduce/relu <- conv4_6_1x1_reduce
I0620 04:28:08.150264  3148 net.cpp:397] conv4_6_1x1_reduce/relu -> conv4_6_1x1_reduce (in-place)
I0620 04:28:08.150269  3148 net.cpp:150] Setting up conv4_6_1x1_reduce/relu
I0620 04:28:08.150271  3148 net.cpp:157] Top shape: 2 256 60 60 (1843200)
I0620 04:28:08.150274  3148 net.cpp:165] Memory required for data: 2797630000
I0620 04:28:08.150276  3148 layer_factory.hpp:77] Creating layer conv4_6_3x3
I0620 04:28:08.150283  3148 net.cpp:106] Creating Layer conv4_6_3x3
I0620 04:28:08.150285  3148 net.cpp:454] conv4_6_3x3 <- conv4_6_1x1_reduce
I0620 04:28:08.150290  3148 net.cpp:411] conv4_6_3x3 -> conv4_6_3x3
I0620 04:28:08.163394  3148 net.cpp:150] Setting up conv4_6_3x3
I0620 04:28:08.163413  3148 net.cpp:157] Top shape: 2 256 60 60 (1843200)
I0620 04:28:08.163415  3148 net.cpp:165] Memory required for data: 2805002800
I0620 04:28:08.163419  3148 layer_factory.hpp:77] Creating layer conv4_6_3x3/bn
I0620 04:28:08.163426  3148 net.cpp:106] Creating Layer conv4_6_3x3/bn
I0620 04:28:08.163429  3148 net.cpp:454] conv4_6_3x3/bn <- conv4_6_3x3
I0620 04:28:08.163432  3148 net.cpp:397] conv4_6_3x3/bn -> conv4_6_3x3 (in-place)
I0620 04:28:08.163588  3148 net.cpp:150] Setting up conv4_6_3x3/bn
I0620 04:28:08.163609  3148 net.cpp:157] Top shape: 2 256 60 60 (1843200)
I0620 04:28:08.163610  3148 net.cpp:165] Memory required for data: 2812375600
I0620 04:28:08.163615  3148 layer_factory.hpp:77] Creating layer conv4_6_3x3/relu
I0620 04:28:08.163620  3148 net.cpp:106] Creating Layer conv4_6_3x3/relu
I0620 04:28:08.163622  3148 net.cpp:454] conv4_6_3x3/relu <- conv4_6_3x3
I0620 04:28:08.163626  3148 net.cpp:397] conv4_6_3x3/relu -> conv4_6_3x3 (in-place)
I0620 04:28:08.163630  3148 net.cpp:150] Setting up conv4_6_3x3/relu
I0620 04:28:08.163633  3148 net.cpp:157] Top shape: 2 256 60 60 (1843200)
I0620 04:28:08.163636  3148 net.cpp:165] Memory required for data: 2819748400
I0620 04:28:08.163640  3148 layer_factory.hpp:77] Creating layer conv4_6_1x1_increase
I0620 04:28:08.163648  3148 net.cpp:106] Creating Layer conv4_6_1x1_increase
I0620 04:28:08.163652  3148 net.cpp:454] conv4_6_1x1_increase <- conv4_6_3x3
I0620 04:28:08.163658  3148 net.cpp:411] conv4_6_1x1_increase -> conv4_6_1x1_increase
I0620 04:28:08.169888  3148 net.cpp:150] Setting up conv4_6_1x1_increase
I0620 04:28:08.169899  3148 net.cpp:157] Top shape: 2 1024 60 60 (7372800)
I0620 04:28:08.169901  3148 net.cpp:165] Memory required for data: 2849239600
I0620 04:28:08.169905  3148 layer_factory.hpp:77] Creating layer conv4_6_1x1_increase/bn
I0620 04:28:08.169910  3148 net.cpp:106] Creating Layer conv4_6_1x1_increase/bn
I0620 04:28:08.169914  3148 net.cpp:454] conv4_6_1x1_increase/bn <- conv4_6_1x1_increase
I0620 04:28:08.169917  3148 net.cpp:397] conv4_6_1x1_increase/bn -> conv4_6_1x1_increase (in-place)
I0620 04:28:08.170079  3148 net.cpp:150] Setting up conv4_6_1x1_increase/bn
I0620 04:28:08.170086  3148 net.cpp:157] Top shape: 2 1024 60 60 (7372800)
I0620 04:28:08.170089  3148 net.cpp:165] Memory required for data: 2878730800
I0620 04:28:08.170094  3148 layer_factory.hpp:77] Creating layer conv4_6
I0620 04:28:08.170099  3148 net.cpp:106] Creating Layer conv4_6
I0620 04:28:08.170101  3148 net.cpp:454] conv4_6 <- conv4_5_conv4_5/relu_0_split_1
I0620 04:28:08.170104  3148 net.cpp:454] conv4_6 <- conv4_6_1x1_increase
I0620 04:28:08.170107  3148 net.cpp:411] conv4_6 -> conv4_6
I0620 04:28:08.170126  3148 net.cpp:150] Setting up conv4_6
I0620 04:28:08.170135  3148 net.cpp:157] Top shape: 2 1024 60 60 (7372800)
I0620 04:28:08.170137  3148 net.cpp:165] Memory required for data: 2908222000
I0620 04:28:08.170140  3148 layer_factory.hpp:77] Creating layer conv4_6/relu
I0620 04:28:08.170143  3148 net.cpp:106] Creating Layer conv4_6/relu
I0620 04:28:08.170146  3148 net.cpp:454] conv4_6/relu <- conv4_6
I0620 04:28:08.170148  3148 net.cpp:397] conv4_6/relu -> conv4_6 (in-place)
I0620 04:28:08.170152  3148 net.cpp:150] Setting up conv4_6/relu
I0620 04:28:08.170156  3148 net.cpp:157] Top shape: 2 1024 60 60 (7372800)
I0620 04:28:08.170157  3148 net.cpp:165] Memory required for data: 2937713200
I0620 04:28:08.170161  3148 layer_factory.hpp:77] Creating layer conv4_6_conv4_6/relu_0_split
I0620 04:28:08.170164  3148 net.cpp:106] Creating Layer conv4_6_conv4_6/relu_0_split
I0620 04:28:08.170167  3148 net.cpp:454] conv4_6_conv4_6/relu_0_split <- conv4_6
I0620 04:28:08.170171  3148 net.cpp:411] conv4_6_conv4_6/relu_0_split -> conv4_6_conv4_6/relu_0_split_0
I0620 04:28:08.170176  3148 net.cpp:411] conv4_6_conv4_6/relu_0_split -> conv4_6_conv4_6/relu_0_split_1
I0620 04:28:08.170197  3148 net.cpp:150] Setting up conv4_6_conv4_6/relu_0_split
I0620 04:28:08.170202  3148 net.cpp:157] Top shape: 2 1024 60 60 (7372800)
I0620 04:28:08.170203  3148 net.cpp:157] Top shape: 2 1024 60 60 (7372800)
I0620 04:28:08.170205  3148 net.cpp:165] Memory required for data: 2996695600
I0620 04:28:08.170207  3148 layer_factory.hpp:77] Creating layer conv4_7_1x1_reduce
I0620 04:28:08.170215  3148 net.cpp:106] Creating Layer conv4_7_1x1_reduce
I0620 04:28:08.170217  3148 net.cpp:454] conv4_7_1x1_reduce <- conv4_6_conv4_6/relu_0_split_0
I0620 04:28:08.170222  3148 net.cpp:411] conv4_7_1x1_reduce -> conv4_7_1x1_reduce
I0620 04:28:08.175765  3148 net.cpp:150] Setting up conv4_7_1x1_reduce
I0620 04:28:08.175773  3148 net.cpp:157] Top shape: 2 256 60 60 (1843200)
I0620 04:28:08.175789  3148 net.cpp:165] Memory required for data: 3004068400
I0620 04:28:08.175794  3148 layer_factory.hpp:77] Creating layer conv4_7_1x1_reduce/bn
I0620 04:28:08.175801  3148 net.cpp:106] Creating Layer conv4_7_1x1_reduce/bn
I0620 04:28:08.175803  3148 net.cpp:454] conv4_7_1x1_reduce/bn <- conv4_7_1x1_reduce
I0620 04:28:08.175809  3148 net.cpp:397] conv4_7_1x1_reduce/bn -> conv4_7_1x1_reduce (in-place)
I0620 04:28:08.175945  3148 net.cpp:150] Setting up conv4_7_1x1_reduce/bn
I0620 04:28:08.175951  3148 net.cpp:157] Top shape: 2 256 60 60 (1843200)
I0620 04:28:08.175952  3148 net.cpp:165] Memory required for data: 3011441200
I0620 04:28:08.175957  3148 layer_factory.hpp:77] Creating layer conv4_7_1x1_reduce/relu
I0620 04:28:08.175961  3148 net.cpp:106] Creating Layer conv4_7_1x1_reduce/relu
I0620 04:28:08.175964  3148 net.cpp:454] conv4_7_1x1_reduce/relu <- conv4_7_1x1_reduce
I0620 04:28:08.175966  3148 net.cpp:397] conv4_7_1x1_reduce/relu -> conv4_7_1x1_reduce (in-place)
I0620 04:28:08.175971  3148 net.cpp:150] Setting up conv4_7_1x1_reduce/relu
I0620 04:28:08.175973  3148 net.cpp:157] Top shape: 2 256 60 60 (1843200)
I0620 04:28:08.175976  3148 net.cpp:165] Memory required for data: 3018814000
I0620 04:28:08.175977  3148 layer_factory.hpp:77] Creating layer conv4_7_3x3
I0620 04:28:08.175983  3148 net.cpp:106] Creating Layer conv4_7_3x3
I0620 04:28:08.175985  3148 net.cpp:454] conv4_7_3x3 <- conv4_7_1x1_reduce
I0620 04:28:08.175989  3148 net.cpp:411] conv4_7_3x3 -> conv4_7_3x3
I0620 04:28:08.193898  3148 net.cpp:150] Setting up conv4_7_3x3
I0620 04:28:08.193931  3148 net.cpp:157] Top shape: 2 256 60 60 (1843200)
I0620 04:28:08.193936  3148 net.cpp:165] Memory required for data: 3026186800
I0620 04:28:08.193948  3148 layer_factory.hpp:77] Creating layer conv4_7_3x3/bn
I0620 04:28:08.193965  3148 net.cpp:106] Creating Layer conv4_7_3x3/bn
I0620 04:28:08.193972  3148 net.cpp:454] conv4_7_3x3/bn <- conv4_7_3x3
I0620 04:28:08.193984  3148 net.cpp:397] conv4_7_3x3/bn -> conv4_7_3x3 (in-place)
I0620 04:28:08.194203  3148 net.cpp:150] Setting up conv4_7_3x3/bn
I0620 04:28:08.194212  3148 net.cpp:157] Top shape: 2 256 60 60 (1843200)
I0620 04:28:08.194217  3148 net.cpp:165] Memory required for data: 3033559600
I0620 04:28:08.194226  3148 layer_factory.hpp:77] Creating layer conv4_7_3x3/relu
I0620 04:28:08.194233  3148 net.cpp:106] Creating Layer conv4_7_3x3/relu
I0620 04:28:08.194238  3148 net.cpp:454] conv4_7_3x3/relu <- conv4_7_3x3
I0620 04:28:08.194244  3148 net.cpp:397] conv4_7_3x3/relu -> conv4_7_3x3 (in-place)
I0620 04:28:08.194252  3148 net.cpp:150] Setting up conv4_7_3x3/relu
I0620 04:28:08.194257  3148 net.cpp:157] Top shape: 2 256 60 60 (1843200)
I0620 04:28:08.194260  3148 net.cpp:165] Memory required for data: 3040932400
I0620 04:28:08.194264  3148 layer_factory.hpp:77] Creating layer conv4_7_1x1_increase
I0620 04:28:08.194272  3148 net.cpp:106] Creating Layer conv4_7_1x1_increase
I0620 04:28:08.194277  3148 net.cpp:454] conv4_7_1x1_increase <- conv4_7_3x3
I0620 04:28:08.194283  3148 net.cpp:411] conv4_7_1x1_increase -> conv4_7_1x1_increase
I0620 04:28:08.203377  3148 net.cpp:150] Setting up conv4_7_1x1_increase
I0620 04:28:08.203415  3148 net.cpp:157] Top shape: 2 1024 60 60 (7372800)
I0620 04:28:08.203419  3148 net.cpp:165] Memory required for data: 3070423600
I0620 04:28:08.203425  3148 layer_factory.hpp:77] Creating layer conv4_7_1x1_increase/bn
I0620 04:28:08.203435  3148 net.cpp:106] Creating Layer conv4_7_1x1_increase/bn
I0620 04:28:08.203443  3148 net.cpp:454] conv4_7_1x1_increase/bn <- conv4_7_1x1_increase
I0620 04:28:08.203449  3148 net.cpp:397] conv4_7_1x1_increase/bn -> conv4_7_1x1_increase (in-place)
I0620 04:28:08.203675  3148 net.cpp:150] Setting up conv4_7_1x1_increase/bn
I0620 04:28:08.203683  3148 net.cpp:157] Top shape: 2 1024 60 60 (7372800)
I0620 04:28:08.203687  3148 net.cpp:165] Memory required for data: 3099914800
I0620 04:28:08.203696  3148 layer_factory.hpp:77] Creating layer conv4_7
I0620 04:28:08.203703  3148 net.cpp:106] Creating Layer conv4_7
I0620 04:28:08.203743  3148 net.cpp:454] conv4_7 <- conv4_6_conv4_6/relu_0_split_1
I0620 04:28:08.203748  3148 net.cpp:454] conv4_7 <- conv4_7_1x1_increase
I0620 04:28:08.203754  3148 net.cpp:411] conv4_7 -> conv4_7
I0620 04:28:08.203778  3148 net.cpp:150] Setting up conv4_7
I0620 04:28:08.203783  3148 net.cpp:157] Top shape: 2 1024 60 60 (7372800)
I0620 04:28:08.203788  3148 net.cpp:165] Memory required for data: 3129406000
I0620 04:28:08.203790  3148 layer_factory.hpp:77] Creating layer conv4_7/relu
I0620 04:28:08.203796  3148 net.cpp:106] Creating Layer conv4_7/relu
I0620 04:28:08.203799  3148 net.cpp:454] conv4_7/relu <- conv4_7
I0620 04:28:08.203804  3148 net.cpp:397] conv4_7/relu -> conv4_7 (in-place)
I0620 04:28:08.203809  3148 net.cpp:150] Setting up conv4_7/relu
I0620 04:28:08.203814  3148 net.cpp:157] Top shape: 2 1024 60 60 (7372800)
I0620 04:28:08.203816  3148 net.cpp:165] Memory required for data: 3158897200
I0620 04:28:08.203819  3148 layer_factory.hpp:77] Creating layer conv4_7_conv4_7/relu_0_split
I0620 04:28:08.203825  3148 net.cpp:106] Creating Layer conv4_7_conv4_7/relu_0_split
I0620 04:28:08.203846  3148 net.cpp:454] conv4_7_conv4_7/relu_0_split <- conv4_7
I0620 04:28:08.203855  3148 net.cpp:411] conv4_7_conv4_7/relu_0_split -> conv4_7_conv4_7/relu_0_split_0
I0620 04:28:08.203860  3148 net.cpp:411] conv4_7_conv4_7/relu_0_split -> conv4_7_conv4_7/relu_0_split_1
I0620 04:28:08.203896  3148 net.cpp:150] Setting up conv4_7_conv4_7/relu_0_split
I0620 04:28:08.203902  3148 net.cpp:157] Top shape: 2 1024 60 60 (7372800)
I0620 04:28:08.203907  3148 net.cpp:157] Top shape: 2 1024 60 60 (7372800)
I0620 04:28:08.203910  3148 net.cpp:165] Memory required for data: 3217879600
I0620 04:28:08.203913  3148 layer_factory.hpp:77] Creating layer conv4_8_1x1_reduce
I0620 04:28:08.203922  3148 net.cpp:106] Creating Layer conv4_8_1x1_reduce
I0620 04:28:08.203925  3148 net.cpp:454] conv4_8_1x1_reduce <- conv4_7_conv4_7/relu_0_split_0
I0620 04:28:08.203932  3148 net.cpp:411] conv4_8_1x1_reduce -> conv4_8_1x1_reduce
I0620 04:28:08.212124  3148 net.cpp:150] Setting up conv4_8_1x1_reduce
I0620 04:28:08.212136  3148 net.cpp:157] Top shape: 2 256 60 60 (1843200)
I0620 04:28:08.212139  3148 net.cpp:165] Memory required for data: 3225252400
I0620 04:28:08.212144  3148 layer_factory.hpp:77] Creating layer conv4_8_1x1_reduce/bn
I0620 04:28:08.212153  3148 net.cpp:106] Creating Layer conv4_8_1x1_reduce/bn
I0620 04:28:08.212157  3148 net.cpp:454] conv4_8_1x1_reduce/bn <- conv4_8_1x1_reduce
I0620 04:28:08.212163  3148 net.cpp:397] conv4_8_1x1_reduce/bn -> conv4_8_1x1_reduce (in-place)
I0620 04:28:08.212424  3148 net.cpp:150] Setting up conv4_8_1x1_reduce/bn
I0620 04:28:08.212443  3148 net.cpp:157] Top shape: 2 256 60 60 (1843200)
I0620 04:28:08.212446  3148 net.cpp:165] Memory required for data: 3232625200
I0620 04:28:08.212455  3148 layer_factory.hpp:77] Creating layer conv4_8_1x1_reduce/relu
I0620 04:28:08.212460  3148 net.cpp:106] Creating Layer conv4_8_1x1_reduce/relu
I0620 04:28:08.212463  3148 net.cpp:454] conv4_8_1x1_reduce/relu <- conv4_8_1x1_reduce
I0620 04:28:08.212467  3148 net.cpp:397] conv4_8_1x1_reduce/relu -> conv4_8_1x1_reduce (in-place)
I0620 04:28:08.212473  3148 net.cpp:150] Setting up conv4_8_1x1_reduce/relu
I0620 04:28:08.212479  3148 net.cpp:157] Top shape: 2 256 60 60 (1843200)
I0620 04:28:08.212482  3148 net.cpp:165] Memory required for data: 3239998000
I0620 04:28:08.212486  3148 layer_factory.hpp:77] Creating layer conv4_8_3x3
I0620 04:28:08.212492  3148 net.cpp:106] Creating Layer conv4_8_3x3
I0620 04:28:08.212496  3148 net.cpp:454] conv4_8_3x3 <- conv4_8_1x1_reduce
I0620 04:28:08.212502  3148 net.cpp:411] conv4_8_3x3 -> conv4_8_3x3
I0620 04:28:08.229732  3148 net.cpp:150] Setting up conv4_8_3x3
I0620 04:28:08.229842  3148 net.cpp:157] Top shape: 2 256 60 60 (1843200)
I0620 04:28:08.229851  3148 net.cpp:165] Memory required for data: 3247370800
I0620 04:28:08.229867  3148 layer_factory.hpp:77] Creating layer conv4_8_3x3/bn
I0620 04:28:08.229894  3148 net.cpp:106] Creating Layer conv4_8_3x3/bn
I0620 04:28:08.229959  3148 net.cpp:454] conv4_8_3x3/bn <- conv4_8_3x3
I0620 04:28:08.229975  3148 net.cpp:397] conv4_8_3x3/bn -> conv4_8_3x3 (in-place)
I0620 04:28:08.230252  3148 net.cpp:150] Setting up conv4_8_3x3/bn
I0620 04:28:08.230260  3148 net.cpp:157] Top shape: 2 256 60 60 (1843200)
I0620 04:28:08.230265  3148 net.cpp:165] Memory required for data: 3254743600
I0620 04:28:08.230274  3148 layer_factory.hpp:77] Creating layer conv4_8_3x3/relu
I0620 04:28:08.230285  3148 net.cpp:106] Creating Layer conv4_8_3x3/relu
I0620 04:28:08.230290  3148 net.cpp:454] conv4_8_3x3/relu <- conv4_8_3x3
I0620 04:28:08.230296  3148 net.cpp:397] conv4_8_3x3/relu -> conv4_8_3x3 (in-place)
I0620 04:28:08.230304  3148 net.cpp:150] Setting up conv4_8_3x3/relu
I0620 04:28:08.230310  3148 net.cpp:157] Top shape: 2 256 60 60 (1843200)
I0620 04:28:08.230314  3148 net.cpp:165] Memory required for data: 3262116400
I0620 04:28:08.230319  3148 layer_factory.hpp:77] Creating layer conv4_8_1x1_increase
I0620 04:28:08.230329  3148 net.cpp:106] Creating Layer conv4_8_1x1_increase
I0620 04:28:08.230334  3148 net.cpp:454] conv4_8_1x1_increase <- conv4_8_3x3
I0620 04:28:08.230341  3148 net.cpp:411] conv4_8_1x1_increase -> conv4_8_1x1_increase
I0620 04:28:08.239897  3148 net.cpp:150] Setting up conv4_8_1x1_increase
I0620 04:28:08.239930  3148 net.cpp:157] Top shape: 2 1024 60 60 (7372800)
I0620 04:28:08.239935  3148 net.cpp:165] Memory required for data: 3291607600
I0620 04:28:08.239945  3148 layer_factory.hpp:77] Creating layer conv4_8_1x1_increase/bn
I0620 04:28:08.239964  3148 net.cpp:106] Creating Layer conv4_8_1x1_increase/bn
I0620 04:28:08.239970  3148 net.cpp:454] conv4_8_1x1_increase/bn <- conv4_8_1x1_increase
I0620 04:28:08.239980  3148 net.cpp:397] conv4_8_1x1_increase/bn -> conv4_8_1x1_increase (in-place)
I0620 04:28:08.240206  3148 net.cpp:150] Setting up conv4_8_1x1_increase/bn
I0620 04:28:08.240216  3148 net.cpp:157] Top shape: 2 1024 60 60 (7372800)
I0620 04:28:08.240219  3148 net.cpp:165] Memory required for data: 3321098800
I0620 04:28:08.240227  3148 layer_factory.hpp:77] Creating layer conv4_8
I0620 04:28:08.240236  3148 net.cpp:106] Creating Layer conv4_8
I0620 04:28:08.240242  3148 net.cpp:454] conv4_8 <- conv4_7_conv4_7/relu_0_split_1
I0620 04:28:08.240248  3148 net.cpp:454] conv4_8 <- conv4_8_1x1_increase
I0620 04:28:08.240255  3148 net.cpp:411] conv4_8 -> conv4_8
I0620 04:28:08.240280  3148 net.cpp:150] Setting up conv4_8
I0620 04:28:08.240286  3148 net.cpp:157] Top shape: 2 1024 60 60 (7372800)
I0620 04:28:08.240289  3148 net.cpp:165] Memory required for data: 3350590000
I0620 04:28:08.240293  3148 layer_factory.hpp:77] Creating layer conv4_8/relu
I0620 04:28:08.240298  3148 net.cpp:106] Creating Layer conv4_8/relu
I0620 04:28:08.240303  3148 net.cpp:454] conv4_8/relu <- conv4_8
I0620 04:28:08.240306  3148 net.cpp:397] conv4_8/relu -> conv4_8 (in-place)
I0620 04:28:08.240311  3148 net.cpp:150] Setting up conv4_8/relu
I0620 04:28:08.240316  3148 net.cpp:157] Top shape: 2 1024 60 60 (7372800)
I0620 04:28:08.240320  3148 net.cpp:165] Memory required for data: 3380081200
I0620 04:28:08.240324  3148 layer_factory.hpp:77] Creating layer conv4_8_conv4_8/relu_0_split
I0620 04:28:08.240332  3148 net.cpp:106] Creating Layer conv4_8_conv4_8/relu_0_split
I0620 04:28:08.240336  3148 net.cpp:454] conv4_8_conv4_8/relu_0_split <- conv4_8
I0620 04:28:08.240341  3148 net.cpp:411] conv4_8_conv4_8/relu_0_split -> conv4_8_conv4_8/relu_0_split_0
I0620 04:28:08.240347  3148 net.cpp:411] conv4_8_conv4_8/relu_0_split -> conv4_8_conv4_8/relu_0_split_1
I0620 04:28:08.240386  3148 net.cpp:150] Setting up conv4_8_conv4_8/relu_0_split
I0620 04:28:08.240393  3148 net.cpp:157] Top shape: 2 1024 60 60 (7372800)
I0620 04:28:08.240398  3148 net.cpp:157] Top shape: 2 1024 60 60 (7372800)
I0620 04:28:08.240402  3148 net.cpp:165] Memory required for data: 3439063600
I0620 04:28:08.240406  3148 layer_factory.hpp:77] Creating layer conv4_9_1x1_reduce
I0620 04:28:08.240416  3148 net.cpp:106] Creating Layer conv4_9_1x1_reduce
I0620 04:28:08.240419  3148 net.cpp:454] conv4_9_1x1_reduce <- conv4_8_conv4_8/relu_0_split_0
I0620 04:28:08.240444  3148 net.cpp:411] conv4_9_1x1_reduce -> conv4_9_1x1_reduce
I0620 04:28:08.247961  3148 net.cpp:150] Setting up conv4_9_1x1_reduce
I0620 04:28:08.247975  3148 net.cpp:157] Top shape: 2 256 60 60 (1843200)
I0620 04:28:08.247979  3148 net.cpp:165] Memory required for data: 3446436400
I0620 04:28:08.247987  3148 layer_factory.hpp:77] Creating layer conv4_9_1x1_reduce/bn
I0620 04:28:08.247998  3148 net.cpp:106] Creating Layer conv4_9_1x1_reduce/bn
I0620 04:28:08.248005  3148 net.cpp:454] conv4_9_1x1_reduce/bn <- conv4_9_1x1_reduce
I0620 04:28:08.248011  3148 net.cpp:397] conv4_9_1x1_reduce/bn -> conv4_9_1x1_reduce (in-place)
I0620 04:28:08.248219  3148 net.cpp:150] Setting up conv4_9_1x1_reduce/bn
I0620 04:28:08.248225  3148 net.cpp:157] Top shape: 2 256 60 60 (1843200)
I0620 04:28:08.248229  3148 net.cpp:165] Memory required for data: 3453809200
I0620 04:28:08.248271  3148 layer_factory.hpp:77] Creating layer conv4_9_1x1_reduce/relu
I0620 04:28:08.248280  3148 net.cpp:106] Creating Layer conv4_9_1x1_reduce/relu
I0620 04:28:08.248283  3148 net.cpp:454] conv4_9_1x1_reduce/relu <- conv4_9_1x1_reduce
I0620 04:28:08.248301  3148 net.cpp:397] conv4_9_1x1_reduce/relu -> conv4_9_1x1_reduce (in-place)
I0620 04:28:08.248322  3148 net.cpp:150] Setting up conv4_9_1x1_reduce/relu
I0620 04:28:08.248327  3148 net.cpp:157] Top shape: 2 256 60 60 (1843200)
I0620 04:28:08.248330  3148 net.cpp:165] Memory required for data: 3461182000
I0620 04:28:08.248334  3148 layer_factory.hpp:77] Creating layer conv4_9_3x3
I0620 04:28:08.248343  3148 net.cpp:106] Creating Layer conv4_9_3x3
I0620 04:28:08.248348  3148 net.cpp:454] conv4_9_3x3 <- conv4_9_1x1_reduce
I0620 04:28:08.248353  3148 net.cpp:411] conv4_9_3x3 -> conv4_9_3x3
I0620 04:28:08.266886  3148 net.cpp:150] Setting up conv4_9_3x3
I0620 04:28:08.266909  3148 net.cpp:157] Top shape: 2 256 60 60 (1843200)
I0620 04:28:08.266912  3148 net.cpp:165] Memory required for data: 3468554800
I0620 04:28:08.266919  3148 layer_factory.hpp:77] Creating layer conv4_9_3x3/bn
I0620 04:28:08.266932  3148 net.cpp:106] Creating Layer conv4_9_3x3/bn
I0620 04:28:08.266935  3148 net.cpp:454] conv4_9_3x3/bn <- conv4_9_3x3
I0620 04:28:08.266942  3148 net.cpp:397] conv4_9_3x3/bn -> conv4_9_3x3 (in-place)
I0620 04:28:08.267097  3148 net.cpp:150] Setting up conv4_9_3x3/bn
I0620 04:28:08.267102  3148 net.cpp:157] Top shape: 2 256 60 60 (1843200)
I0620 04:28:08.267105  3148 net.cpp:165] Memory required for data: 3475927600
I0620 04:28:08.267112  3148 layer_factory.hpp:77] Creating layer conv4_9_3x3/relu
I0620 04:28:08.267117  3148 net.cpp:106] Creating Layer conv4_9_3x3/relu
I0620 04:28:08.267120  3148 net.cpp:454] conv4_9_3x3/relu <- conv4_9_3x3
I0620 04:28:08.267123  3148 net.cpp:397] conv4_9_3x3/relu -> conv4_9_3x3 (in-place)
I0620 04:28:08.267128  3148 net.cpp:150] Setting up conv4_9_3x3/relu
I0620 04:28:08.267132  3148 net.cpp:157] Top shape: 2 256 60 60 (1843200)
I0620 04:28:08.267134  3148 net.cpp:165] Memory required for data: 3483300400
I0620 04:28:08.267137  3148 layer_factory.hpp:77] Creating layer conv4_9_1x1_increase
I0620 04:28:08.267144  3148 net.cpp:106] Creating Layer conv4_9_1x1_increase
I0620 04:28:08.267148  3148 net.cpp:454] conv4_9_1x1_increase <- conv4_9_3x3
I0620 04:28:08.267153  3148 net.cpp:411] conv4_9_1x1_increase -> conv4_9_1x1_increase
I0620 04:28:08.274015  3148 net.cpp:150] Setting up conv4_9_1x1_increase
I0620 04:28:08.274063  3148 net.cpp:157] Top shape: 2 1024 60 60 (7372800)
I0620 04:28:08.274067  3148 net.cpp:165] Memory required for data: 3512791600
I0620 04:28:08.274078  3148 layer_factory.hpp:77] Creating layer conv4_9_1x1_increase/bn
I0620 04:28:08.274096  3148 net.cpp:106] Creating Layer conv4_9_1x1_increase/bn
I0620 04:28:08.274104  3148 net.cpp:454] conv4_9_1x1_increase/bn <- conv4_9_1x1_increase
I0620 04:28:08.274113  3148 net.cpp:397] conv4_9_1x1_increase/bn -> conv4_9_1x1_increase (in-place)
I0620 04:28:08.274307  3148 net.cpp:150] Setting up conv4_9_1x1_increase/bn
I0620 04:28:08.274312  3148 net.cpp:157] Top shape: 2 1024 60 60 (7372800)
I0620 04:28:08.274353  3148 net.cpp:165] Memory required for data: 3542282800
I0620 04:28:08.274359  3148 layer_factory.hpp:77] Creating layer conv4_9
I0620 04:28:08.274366  3148 net.cpp:106] Creating Layer conv4_9
I0620 04:28:08.274370  3148 net.cpp:454] conv4_9 <- conv4_8_conv4_8/relu_0_split_1
I0620 04:28:08.274374  3148 net.cpp:454] conv4_9 <- conv4_9_1x1_increase
I0620 04:28:08.274377  3148 net.cpp:411] conv4_9 -> conv4_9
I0620 04:28:08.274405  3148 net.cpp:150] Setting up conv4_9
I0620 04:28:08.274408  3148 net.cpp:157] Top shape: 2 1024 60 60 (7372800)
I0620 04:28:08.274411  3148 net.cpp:165] Memory required for data: 3571774000
I0620 04:28:08.274415  3148 layer_factory.hpp:77] Creating layer conv4_9/relu
I0620 04:28:08.274421  3148 net.cpp:106] Creating Layer conv4_9/relu
I0620 04:28:08.274425  3148 net.cpp:454] conv4_9/relu <- conv4_9
I0620 04:28:08.274428  3148 net.cpp:397] conv4_9/relu -> conv4_9 (in-place)
I0620 04:28:08.274433  3148 net.cpp:150] Setting up conv4_9/relu
I0620 04:28:08.274437  3148 net.cpp:157] Top shape: 2 1024 60 60 (7372800)
I0620 04:28:08.274441  3148 net.cpp:165] Memory required for data: 3601265200
I0620 04:28:08.274442  3148 layer_factory.hpp:77] Creating layer conv4_9_conv4_9/relu_0_split
I0620 04:28:08.274448  3148 net.cpp:106] Creating Layer conv4_9_conv4_9/relu_0_split
I0620 04:28:08.274451  3148 net.cpp:454] conv4_9_conv4_9/relu_0_split <- conv4_9
I0620 04:28:08.274454  3148 net.cpp:411] conv4_9_conv4_9/relu_0_split -> conv4_9_conv4_9/relu_0_split_0
I0620 04:28:08.274458  3148 net.cpp:411] conv4_9_conv4_9/relu_0_split -> conv4_9_conv4_9/relu_0_split_1
I0620 04:28:08.274483  3148 net.cpp:150] Setting up conv4_9_conv4_9/relu_0_split
I0620 04:28:08.274487  3148 net.cpp:157] Top shape: 2 1024 60 60 (7372800)
I0620 04:28:08.274492  3148 net.cpp:157] Top shape: 2 1024 60 60 (7372800)
I0620 04:28:08.274493  3148 net.cpp:165] Memory required for data: 3660247600
I0620 04:28:08.274497  3148 layer_factory.hpp:77] Creating layer conv4_10_1x1_reduce
I0620 04:28:08.274505  3148 net.cpp:106] Creating Layer conv4_10_1x1_reduce
I0620 04:28:08.274509  3148 net.cpp:454] conv4_10_1x1_reduce <- conv4_9_conv4_9/relu_0_split_0
I0620 04:28:08.274515  3148 net.cpp:411] conv4_10_1x1_reduce -> conv4_10_1x1_reduce
I0620 04:28:08.280668  3148 net.cpp:150] Setting up conv4_10_1x1_reduce
I0620 04:28:08.280721  3148 net.cpp:157] Top shape: 2 256 60 60 (1843200)
I0620 04:28:08.280733  3148 net.cpp:165] Memory required for data: 3667620400
I0620 04:28:08.280748  3148 layer_factory.hpp:77] Creating layer conv4_10_1x1_reduce/bn
I0620 04:28:08.280767  3148 net.cpp:106] Creating Layer conv4_10_1x1_reduce/bn
I0620 04:28:08.280776  3148 net.cpp:454] conv4_10_1x1_reduce/bn <- conv4_10_1x1_reduce
I0620 04:28:08.280787  3148 net.cpp:397] conv4_10_1x1_reduce/bn -> conv4_10_1x1_reduce (in-place)
I0620 04:28:08.281002  3148 net.cpp:150] Setting up conv4_10_1x1_reduce/bn
I0620 04:28:08.281008  3148 net.cpp:157] Top shape: 2 256 60 60 (1843200)
I0620 04:28:08.281011  3148 net.cpp:165] Memory required for data: 3674993200
I0620 04:28:08.281018  3148 layer_factory.hpp:77] Creating layer conv4_10_1x1_reduce/relu
I0620 04:28:08.281025  3148 net.cpp:106] Creating Layer conv4_10_1x1_reduce/relu
I0620 04:28:08.281028  3148 net.cpp:454] conv4_10_1x1_reduce/relu <- conv4_10_1x1_reduce
I0620 04:28:08.281034  3148 net.cpp:397] conv4_10_1x1_reduce/relu -> conv4_10_1x1_reduce (in-place)
I0620 04:28:08.281040  3148 net.cpp:150] Setting up conv4_10_1x1_reduce/relu
I0620 04:28:08.281044  3148 net.cpp:157] Top shape: 2 256 60 60 (1843200)
I0620 04:28:08.281046  3148 net.cpp:165] Memory required for data: 3682366000
I0620 04:28:08.281049  3148 layer_factory.hpp:77] Creating layer conv4_10_3x3
I0620 04:28:08.281056  3148 net.cpp:106] Creating Layer conv4_10_3x3
I0620 04:28:08.281059  3148 net.cpp:454] conv4_10_3x3 <- conv4_10_1x1_reduce
I0620 04:28:08.281064  3148 net.cpp:411] conv4_10_3x3 -> conv4_10_3x3
I0620 04:28:08.299332  3148 net.cpp:150] Setting up conv4_10_3x3
I0620 04:28:08.299358  3148 net.cpp:157] Top shape: 2 256 60 60 (1843200)
I0620 04:28:08.299381  3148 net.cpp:165] Memory required for data: 3689738800
I0620 04:28:08.299389  3148 layer_factory.hpp:77] Creating layer conv4_10_3x3/bn
I0620 04:28:08.299402  3148 net.cpp:106] Creating Layer conv4_10_3x3/bn
I0620 04:28:08.299408  3148 net.cpp:454] conv4_10_3x3/bn <- conv4_10_3x3
I0620 04:28:08.299429  3148 net.cpp:397] conv4_10_3x3/bn -> conv4_10_3x3 (in-place)
I0620 04:28:08.299654  3148 net.cpp:150] Setting up conv4_10_3x3/bn
I0620 04:28:08.299661  3148 net.cpp:157] Top shape: 2 256 60 60 (1843200)
I0620 04:28:08.299665  3148 net.cpp:165] Memory required for data: 3697111600
I0620 04:28:08.299674  3148 layer_factory.hpp:77] Creating layer conv4_10_3x3/relu
I0620 04:28:08.299680  3148 net.cpp:106] Creating Layer conv4_10_3x3/relu
I0620 04:28:08.299685  3148 net.cpp:454] conv4_10_3x3/relu <- conv4_10_3x3
I0620 04:28:08.299690  3148 net.cpp:397] conv4_10_3x3/relu -> conv4_10_3x3 (in-place)
I0620 04:28:08.299696  3148 net.cpp:150] Setting up conv4_10_3x3/relu
I0620 04:28:08.299701  3148 net.cpp:157] Top shape: 2 256 60 60 (1843200)
I0620 04:28:08.299705  3148 net.cpp:165] Memory required for data: 3704484400
I0620 04:28:08.299710  3148 layer_factory.hpp:77] Creating layer conv4_10_1x1_increase
I0620 04:28:08.299717  3148 net.cpp:106] Creating Layer conv4_10_1x1_increase
I0620 04:28:08.299722  3148 net.cpp:454] conv4_10_1x1_increase <- conv4_10_3x3
I0620 04:28:08.299729  3148 net.cpp:411] conv4_10_1x1_increase -> conv4_10_1x1_increase
I0620 04:28:08.307950  3148 net.cpp:150] Setting up conv4_10_1x1_increase
I0620 04:28:08.307973  3148 net.cpp:157] Top shape: 2 1024 60 60 (7372800)
I0620 04:28:08.307978  3148 net.cpp:165] Memory required for data: 3733975600
I0620 04:28:08.307986  3148 layer_factory.hpp:77] Creating layer conv4_10_1x1_increase/bn
I0620 04:28:08.307996  3148 net.cpp:106] Creating Layer conv4_10_1x1_increase/bn
I0620 04:28:08.308003  3148 net.cpp:454] conv4_10_1x1_increase/bn <- conv4_10_1x1_increase
I0620 04:28:08.308012  3148 net.cpp:397] conv4_10_1x1_increase/bn -> conv4_10_1x1_increase (in-place)
I0620 04:28:08.308243  3148 net.cpp:150] Setting up conv4_10_1x1_increase/bn
I0620 04:28:08.308250  3148 net.cpp:157] Top shape: 2 1024 60 60 (7372800)
I0620 04:28:08.308255  3148 net.cpp:165] Memory required for data: 3763466800
I0620 04:28:08.308264  3148 layer_factory.hpp:77] Creating layer conv4_10
I0620 04:28:08.308270  3148 net.cpp:106] Creating Layer conv4_10
I0620 04:28:08.308276  3148 net.cpp:454] conv4_10 <- conv4_9_conv4_9/relu_0_split_1
I0620 04:28:08.308281  3148 net.cpp:454] conv4_10 <- conv4_10_1x1_increase
I0620 04:28:08.308286  3148 net.cpp:411] conv4_10 -> conv4_10
I0620 04:28:08.308313  3148 net.cpp:150] Setting up conv4_10
I0620 04:28:08.308320  3148 net.cpp:157] Top shape: 2 1024 60 60 (7372800)
I0620 04:28:08.308324  3148 net.cpp:165] Memory required for data: 3792958000
I0620 04:28:08.308329  3148 layer_factory.hpp:77] Creating layer conv4_10/relu
I0620 04:28:08.308336  3148 net.cpp:106] Creating Layer conv4_10/relu
I0620 04:28:08.308341  3148 net.cpp:454] conv4_10/relu <- conv4_10
I0620 04:28:08.308348  3148 net.cpp:397] conv4_10/relu -> conv4_10 (in-place)
I0620 04:28:08.308356  3148 net.cpp:150] Setting up conv4_10/relu
I0620 04:28:08.308360  3148 net.cpp:157] Top shape: 2 1024 60 60 (7372800)
I0620 04:28:08.308364  3148 net.cpp:165] Memory required for data: 3822449200
I0620 04:28:08.308368  3148 layer_factory.hpp:77] Creating layer conv4_10_conv4_10/relu_0_split
I0620 04:28:08.308375  3148 net.cpp:106] Creating Layer conv4_10_conv4_10/relu_0_split
I0620 04:28:08.308379  3148 net.cpp:454] conv4_10_conv4_10/relu_0_split <- conv4_10
I0620 04:28:08.308384  3148 net.cpp:411] conv4_10_conv4_10/relu_0_split -> conv4_10_conv4_10/relu_0_split_0
I0620 04:28:08.308390  3148 net.cpp:411] conv4_10_conv4_10/relu_0_split -> conv4_10_conv4_10/relu_0_split_1
I0620 04:28:08.308423  3148 net.cpp:150] Setting up conv4_10_conv4_10/relu_0_split
I0620 04:28:08.308429  3148 net.cpp:157] Top shape: 2 1024 60 60 (7372800)
I0620 04:28:08.308434  3148 net.cpp:157] Top shape: 2 1024 60 60 (7372800)
I0620 04:28:08.308454  3148 net.cpp:165] Memory required for data: 3881431600
I0620 04:28:08.308459  3148 layer_factory.hpp:77] Creating layer conv4_11_1x1_reduce
I0620 04:28:08.308468  3148 net.cpp:106] Creating Layer conv4_11_1x1_reduce
I0620 04:28:08.308475  3148 net.cpp:454] conv4_11_1x1_reduce <- conv4_10_conv4_10/relu_0_split_0
I0620 04:28:08.308482  3148 net.cpp:411] conv4_11_1x1_reduce -> conv4_11_1x1_reduce
I0620 04:28:08.314878  3148 net.cpp:150] Setting up conv4_11_1x1_reduce
I0620 04:28:08.314898  3148 net.cpp:157] Top shape: 2 256 60 60 (1843200)
I0620 04:28:08.314900  3148 net.cpp:165] Memory required for data: 3888804400
I0620 04:28:08.314905  3148 layer_factory.hpp:77] Creating layer conv4_11_1x1_reduce/bn
I0620 04:28:08.314915  3148 net.cpp:106] Creating Layer conv4_11_1x1_reduce/bn
I0620 04:28:08.314920  3148 net.cpp:454] conv4_11_1x1_reduce/bn <- conv4_11_1x1_reduce
I0620 04:28:08.314925  3148 net.cpp:397] conv4_11_1x1_reduce/bn -> conv4_11_1x1_reduce (in-place)
I0620 04:28:08.315074  3148 net.cpp:150] Setting up conv4_11_1x1_reduce/bn
I0620 04:28:08.315079  3148 net.cpp:157] Top shape: 2 256 60 60 (1843200)
I0620 04:28:08.315081  3148 net.cpp:165] Memory required for data: 3896177200
I0620 04:28:08.315086  3148 layer_factory.hpp:77] Creating layer conv4_11_1x1_reduce/relu
I0620 04:28:08.315090  3148 net.cpp:106] Creating Layer conv4_11_1x1_reduce/relu
I0620 04:28:08.315093  3148 net.cpp:454] conv4_11_1x1_reduce/relu <- conv4_11_1x1_reduce
I0620 04:28:08.315095  3148 net.cpp:397] conv4_11_1x1_reduce/relu -> conv4_11_1x1_reduce (in-place)
I0620 04:28:08.315099  3148 net.cpp:150] Setting up conv4_11_1x1_reduce/relu
I0620 04:28:08.315102  3148 net.cpp:157] Top shape: 2 256 60 60 (1843200)
I0620 04:28:08.315104  3148 net.cpp:165] Memory required for data: 3903550000
I0620 04:28:08.315106  3148 layer_factory.hpp:77] Creating layer conv4_11_3x3
I0620 04:28:08.315111  3148 net.cpp:106] Creating Layer conv4_11_3x3
I0620 04:28:08.315114  3148 net.cpp:454] conv4_11_3x3 <- conv4_11_1x1_reduce
I0620 04:28:08.315119  3148 net.cpp:411] conv4_11_3x3 -> conv4_11_3x3
I0620 04:28:08.330883  3148 net.cpp:150] Setting up conv4_11_3x3
I0620 04:28:08.330955  3148 net.cpp:157] Top shape: 2 256 60 60 (1843200)
I0620 04:28:08.330960  3148 net.cpp:165] Memory required for data: 3910922800
I0620 04:28:08.330971  3148 layer_factory.hpp:77] Creating layer conv4_11_3x3/bn
I0620 04:28:08.330996  3148 net.cpp:106] Creating Layer conv4_11_3x3/bn
I0620 04:28:08.331003  3148 net.cpp:454] conv4_11_3x3/bn <- conv4_11_3x3
I0620 04:28:08.331013  3148 net.cpp:397] conv4_11_3x3/bn -> conv4_11_3x3 (in-place)
I0620 04:28:08.331212  3148 net.cpp:150] Setting up conv4_11_3x3/bn
I0620 04:28:08.331218  3148 net.cpp:157] Top shape: 2 256 60 60 (1843200)
I0620 04:28:08.331224  3148 net.cpp:165] Memory required for data: 3918295600
I0620 04:28:08.331230  3148 layer_factory.hpp:77] Creating layer conv4_11_3x3/relu
I0620 04:28:08.331239  3148 net.cpp:106] Creating Layer conv4_11_3x3/relu
I0620 04:28:08.331243  3148 net.cpp:454] conv4_11_3x3/relu <- conv4_11_3x3
I0620 04:28:08.331246  3148 net.cpp:397] conv4_11_3x3/relu -> conv4_11_3x3 (in-place)
…
I0620 04:28:08.658977  3148 net.cpp:454] conv4_21 <- conv4_21_1x1_increase
I0620 04:28:08.658982  3148 net.cpp:411] conv4_21 -> conv4_21
I0620 04:28:08.659006  3148 net.cpp:150] Setting up conv4_21
I0620 04:28:08.659010  3148 net.cpp:157] Top shape: 2 1024 60 60 (7372800)
I0620 04:28:08.659013  3148 net.cpp:165] Memory required for data: 6225982000
I0620 04:28:08.659015  3148 layer_factory.hpp:77] Creating layer conv4_21/relu
I0620 04:28:08.659021  3148 net.cpp:106] Creating Layer conv4_21/relu
I0620 04:28:08.659024  3148 net.cpp:454] conv4_21/relu <- conv4_21
I0620 04:28:08.659029  3148 net.cpp:397] conv4_21/relu -> conv4_21 (in-place)
I0620 04:28:08.659032  3148 net.cpp:150] Setting up conv4_21/relu
I0620 04:28:08.659035  3148 net.cpp:157] Top shape: 2 1024 60 60 (7372800)
I0620 04:28:08.659039  3148 net.cpp:165] Memory required for data: 6255473200
I0620 04:28:08.659041  3148 layer_factory.hpp:77] Creating layer conv4_21_conv4_21/relu_0_split
I0620 04:28:08.659045  3148 net.cpp:106] Creating Layer conv4_21_conv4_21/relu_0_split
I0620 04:28:08.659049  3148 net.cpp:454] conv4_21_conv4_21/relu_0_split <- conv4_21
I0620 04:28:08.659051  3148 net.cpp:411] conv4_21_conv4_21/relu_0_split -> conv4_21_conv4_21/relu_0_split_0
I0620 04:28:08.659056  3148 net.cpp:411] conv4_21_conv4_21/relu_0_split -> conv4_21_conv4_21/relu_0_split_1
I0620 04:28:08.659097  3148 net.cpp:150] Setting up conv4_21_conv4_21/relu_0_split
I0620 04:28:08.659101  3148 net.cpp:157] Top shape: 2 1024 60 60 (7372800)
I0620 04:28:08.659106  3148 net.cpp:157] Top shape: 2 1024 60 60 (7372800)
I0620 04:28:08.659107  3148 net.cpp:165] Memory required for data: 6314455600
I0620 04:28:08.659111  3148 layer_factory.hpp:77] Creating layer conv4_22_1x1_reduce
I0620 04:28:08.659122  3148 net.cpp:106] Creating Layer conv4_22_1x1_reduce
I0620 04:28:08.659126  3148 net.cpp:454] conv4_22_1x1_reduce <- conv4_21_conv4_21/relu_0_split_0
I0620 04:28:08.659131  3148 net.cpp:411] conv4_22_1x1_reduce -> conv4_22_1x1_reduce
I0620 04:28:08.664728  3148 net.cpp:150] Setting up conv4_22_1x1_reduce
I0620 04:28:08.664736  3148 net.cpp:157] Top shape: 2 256 60 60 (1843200)
I0620 04:28:08.664738  3148 net.cpp:165] Memory required for data: 6321828400
I0620 04:28:08.664742  3148 layer_factory.hpp:77] Creating layer conv4_22_1x1_reduce/bn
I0620 04:28:08.664749  3148 net.cpp:106] Creating Layer conv4_22_1x1_reduce/bn
I0620 04:28:08.664752  3148 net.cpp:454] conv4_22_1x1_reduce/bn <- conv4_22_1x1_reduce
I0620 04:28:08.664757  3148 net.cpp:397] conv4_22_1x1_reduce/bn -> conv4_22_1x1_reduce (in-place)
I0620 04:28:08.664908  3148 net.cpp:150] Setting up conv4_22_1x1_reduce/bn
I0620 04:28:08.664912  3148 net.cpp:157] Top shape: 2 256 60 60 (1843200)
I0620 04:28:08.664916  3148 net.cpp:165] Memory required for data: 6329201200
I0620 04:28:08.664921  3148 layer_factory.hpp:77] Creating layer conv4_22_1x1_reduce/relu
I0620 04:28:08.664924  3148 net.cpp:106] Creating Layer conv4_22_1x1_reduce/relu
I0620 04:28:08.664927  3148 net.cpp:454] conv4_22_1x1_reduce/relu <- conv4_22_1x1_reduce
I0620 04:28:08.664932  3148 net.cpp:397] conv4_22_1x1_reduce/relu -> conv4_22_1x1_reduce (in-place)
I0620 04:28:08.664935  3148 net.cpp:150] Setting up conv4_22_1x1_reduce/relu
I0620 04:28:08.664939  3148 net.cpp:157] Top shape: 2 256 60 60 (1843200)
I0620 04:28:08.664942  3148 net.cpp:165] Memory required for data: 6336574000
I0620 04:28:08.664944  3148 layer_factory.hpp:77] Creating layer conv4_22_3x3
I0620 04:28:08.664949  3148 net.cpp:106] Creating Layer conv4_22_3x3
I0620 04:28:08.664952  3148 net.cpp:454] conv4_22_3x3 <- conv4_22_1x1_reduce
I0620 04:28:08.664955  3148 net.cpp:411] conv4_22_3x3 -> conv4_22_3x3
I0620 04:28:08.681882  3148 net.cpp:150] Setting up conv4_22_3x3
I0620 04:28:08.681972  3148 net.cpp:157] Top shape: 2 256 60 60 (1843200)
I0620 04:28:08.681978  3148 net.cpp:165] Memory required for data: 6343946800
I0620 04:28:08.681994  3148 layer_factory.hpp:77] Creating layer conv4_22_3x3/bn
I0620 04:28:08.682023  3148 net.cpp:106] Creating Layer conv4_22_3x3/bn
I0620 04:28:08.682034  3148 net.cpp:454] conv4_22_3x3/bn <- conv4_22_3x3
I0620 04:28:08.682050  3148 net.cpp:397] conv4_22_3x3/bn -> conv4_22_3x3 (in-place)
I0620 04:28:08.682339  3148 net.cpp:150] Setting up conv4_22_3x3/bn
I0620 04:28:08.682353  3148 net.cpp:157] Top shape: 2 256 60 60 (1843200)
I0620 04:28:08.682358  3148 net.cpp:165] Memory required for data: 6351319600
I0620 04:28:08.682368  3148 layer_factory.hpp:77] Creating layer conv4_22_3x3/relu
I0620 04:28:08.682379  3148 net.cpp:106] Creating Layer conv4_22_3x3/relu
I0620 04:28:08.682384  3148 net.cpp:454] conv4_22_3x3/relu <- conv4_22_3x3
I0620 04:28:08.682391  3148 net.cpp:397] conv4_22_3x3/relu -> conv4_22_3x3 (in-place)
I0620 04:28:08.682399  3148 net.cpp:150] Setting up conv4_22_3x3/relu
I0620 04:28:08.682404  3148 net.cpp:157] Top shape: 2 256 60 60 (1843200)
I0620 04:28:08.682409  3148 net.cpp:165] Memory required for data: 6358692400
I0620 04:28:08.682412  3148 layer_factory.hpp:77] Creating layer conv4_22_1x1_increase
I0620 04:28:08.682425  3148 net.cpp:106] Creating Layer conv4_22_1x1_increase
I0620 04:28:08.682430  3148 net.cpp:454] conv4_22_1x1_increase <- conv4_22_3x3
I0620 04:28:08.682437  3148 net.cpp:411] conv4_22_1x1_increase -> conv4_22_1x1_increase
I0620 04:28:08.689708  3148 net.cpp:150] Setting up conv4_22_1x1_increase
I0620 04:28:08.689730  3148 net.cpp:157] Top shape: 2 1024 60 60 (7372800)
I0620 04:28:08.689761  3148 net.cpp:165] Memory required for data: 6388183600
I0620 04:28:08.689770  3148 layer_factory.hpp:77] Creating layer conv4_22_1x1_increase/bn
I0620 04:28:08.689781  3148 net.cpp:106] Creating Layer conv4_22_1x1_increase/bn
I0620 04:28:08.689787  3148 net.cpp:454] conv4_22_1x1_increase/bn <- conv4_22_1x1_increase
I0620 04:28:08.689792  3148 net.cpp:397] conv4_22_1x1_increase/bn -> conv4_22_1x1_increase (in-place)
I0620 04:28:08.689996  3148 net.cpp:150] Setting up conv4_22_1x1_increase/bn
I0620 04:28:08.690001  3148 net.cpp:157] Top shape: 2 1024 60 60 (7372800)
I0620 04:28:08.690002  3148 net.cpp:165] Memory required for data: 6417674800
I0620 04:28:08.690008  3148 layer_factory.hpp:77] Creating layer conv4_22
I0620 04:28:08.690013  3148 net.cpp:106] Creating Layer conv4_22
I0620 04:28:08.690016  3148 net.cpp:454] conv4_22 <- conv4_21_conv4_21/relu_0_split_1
I0620 04:28:08.690019  3148 net.cpp:454] conv4_22 <- conv4_22_1x1_increase
I0620 04:28:08.690023  3148 net.cpp:411] conv4_22 -> conv4_22
I0620 04:28:08.690045  3148 net.cpp:150] Setting up conv4_22
I0620 04:28:08.690049  3148 net.cpp:157] Top shape: 2 1024 60 60 (7372800)
I0620 04:28:08.690052  3148 net.cpp:165] Memory required for data: 6447166000
I0620 04:28:08.690054  3148 layer_factory.hpp:77] Creating layer conv4_22/relu
I0620 04:28:08.690058  3148 net.cpp:106] Creating Layer conv4_22/relu
I0620 04:28:08.690062  3148 net.cpp:454] conv4_22/relu <- conv4_22
I0620 04:28:08.690065  3148 net.cpp:397] conv4_22/relu -> conv4_22 (in-place)
I0620 04:28:08.690070  3148 net.cpp:150] Setting up conv4_22/relu
I0620 04:28:08.690073  3148 net.cpp:157] Top shape: 2 1024 60 60 (7372800)
I0620 04:28:08.690075  3148 net.cpp:165] Memory required for data: 6476657200
I0620 04:28:08.690078  3148 layer_factory.hpp:77] Creating layer conv4_22_conv4_22/relu_0_split
I0620 04:28:08.690083  3148 net.cpp:106] Creating Layer conv4_22_conv4_22/relu_0_split
I0620 04:28:08.690085  3148 net.cpp:454] conv4_22_conv4_22/relu_0_split <- conv4_22
I0620 04:28:08.690090  3148 net.cpp:411] conv4_22_conv4_22/relu_0_split -> conv4_22_conv4_22/relu_0_split_0
I0620 04:28:08.690094  3148 net.cpp:411] conv4_22_conv4_22/relu_0_split -> conv4_22_conv4_22/relu_0_split_1
I0620 04:28:08.690121  3148 net.cpp:150] Setting up conv4_22_conv4_22/relu_0_split
I0620 04:28:08.690125  3148 net.cpp:157] Top shape: 2 1024 60 60 (7372800)
I0620 04:28:08.690129  3148 net.cpp:157] Top shape: 2 1024 60 60 (7372800)
I0620 04:28:08.690131  3148 net.cpp:165] Memory required for data: 6535639600
I0620 04:28:08.690135  3148 layer_factory.hpp:77] Creating layer conv4_23_1x1_reduce
I0620 04:28:08.690140  3148 net.cpp:106] Creating Layer conv4_23_1x1_reduce
I0620 04:28:08.690143  3148 net.cpp:454] conv4_23_1x1_reduce <- conv4_22_conv4_22/relu_0_split_0
I0620 04:28:08.690148  3148 net.cpp:411] conv4_23_1x1_reduce -> conv4_23_1x1_reduce
I0620 04:28:08.695744  3148 net.cpp:150] Setting up conv4_23_1x1_reduce
I0620 04:28:08.695752  3148 net.cpp:157] Top shape: 2 256 60 60 (1843200)
I0620 04:28:08.695755  3148 net.cpp:165] Memory required for data: 6543012400
I0620 04:28:08.695760  3148 layer_factory.hpp:77] Creating layer conv4_23_1x1_reduce/bn
I0620 04:28:08.695765  3148 net.cpp:106] Creating Layer conv4_23_1x1_reduce/bn
I0620 04:28:08.695767  3148 net.cpp:454] conv4_23_1x1_reduce/bn <- conv4_23_1x1_reduce
I0620 04:28:08.695772  3148 net.cpp:397] conv4_23_1x1_reduce/bn -> conv4_23_1x1_reduce (in-place)
I0620 04:28:08.695925  3148 net.cpp:150] Setting up conv4_23_1x1_reduce/bn
I0620 04:28:08.695930  3148 net.cpp:157] Top shape: 2 256 60 60 (1843200)
I0620 04:28:08.695932  3148 net.cpp:165] Memory required for data: 6550385200
I0620 04:28:08.695937  3148 layer_factory.hpp:77] Creating layer conv4_23_1x1_reduce/relu
I0620 04:28:08.695942  3148 net.cpp:106] Creating Layer conv4_23_1x1_reduce/relu
I0620 04:28:08.695945  3148 net.cpp:454] conv4_23_1x1_reduce/relu <- conv4_23_1x1_reduce
I0620 04:28:08.695950  3148 net.cpp:397] conv4_23_1x1_reduce/relu -> conv4_23_1x1_reduce (in-place)
I0620 04:28:08.695961  3148 net.cpp:150] Setting up conv4_23_1x1_reduce/relu
I0620 04:28:08.695966  3148 net.cpp:157] Top shape: 2 256 60 60 (1843200)
I0620 04:28:08.695967  3148 net.cpp:165] Memory required for data: 6557758000
I0620 04:28:08.695971  3148 layer_factory.hpp:77] Creating layer conv4_23_3x3
I0620 04:28:08.695976  3148 net.cpp:106] Creating Layer conv4_23_3x3
I0620 04:28:08.695978  3148 net.cpp:454] conv4_23_3x3 <- conv4_23_1x1_reduce
I0620 04:28:08.695982  3148 net.cpp:411] conv4_23_3x3 -> conv4_23_3x3
I0620 04:28:08.709424  3148 net.cpp:150] Setting up conv4_23_3x3
I0620 04:28:08.709442  3148 net.cpp:157] Top shape: 2 256 60 60 (1843200)
I0620 04:28:08.709445  3148 net.cpp:165] Memory required for data: 6565130800
I0620 04:28:08.709452  3148 layer_factory.hpp:77] Creating layer conv4_23_3x3/bn
I0620 04:28:08.709461  3148 net.cpp:106] Creating Layer conv4_23_3x3/bn
I0620 04:28:08.709467  3148 net.cpp:454] conv4_23_3x3/bn <- conv4_23_3x3
I0620 04:28:08.709473  3148 net.cpp:397] conv4_23_3x3/bn -> conv4_23_3x3 (in-place)
I0620 04:28:08.709643  3148 net.cpp:150] Setting up conv4_23_3x3/bn
I0620 04:28:08.709648  3148 net.cpp:157] Top shape: 2 256 60 60 (1843200)
I0620 04:28:08.709652  3148 net.cpp:165] Memory required for data: 6572503600
I0620 04:28:08.709657  3148 layer_factory.hpp:77] Creating layer conv4_23_3x3/relu
I0620 04:28:08.709662  3148 net.cpp:106] Creating Layer conv4_23_3x3/relu
I0620 04:28:08.709666  3148 net.cpp:454] conv4_23_3x3/relu <- conv4_23_3x3
I0620 04:28:08.709668  3148 net.cpp:397] conv4_23_3x3/relu -> conv4_23_3x3 (in-place)
I0620 04:28:08.709673  3148 net.cpp:150] Setting up conv4_23_3x3/relu
I0620 04:28:08.709676  3148 net.cpp:157] Top shape: 2 256 60 60 (1843200)
I0620 04:28:08.709681  3148 net.cpp:165] Memory required for data: 6579876400
I0620 04:28:08.709682  3148 layer_factory.hpp:77] Creating layer conv4_23_1x1_increase
I0620 04:28:08.709689  3148 net.cpp:106] Creating Layer conv4_23_1x1_increase
I0620 04:28:08.709692  3148 net.cpp:454] conv4_23_1x1_increase <- conv4_23_3x3
I0620 04:28:08.709697  3148 net.cpp:411] conv4_23_1x1_increase -> conv4_23_1x1_increase
I0620 04:28:08.717998  3148 net.cpp:150] Setting up conv4_23_1x1_increase
I0620 04:28:08.718091  3148 net.cpp:157] Top shape: 2 1024 60 60 (7372800)
I0620 04:28:08.718097  3148 net.cpp:165] Memory required for data: 6609367600
I0620 04:28:08.718114  3148 layer_factory.hpp:77] Creating layer conv4_23_1x1_increase/bn
I0620 04:28:08.718144  3148 net.cpp:106] Creating Layer conv4_23_1x1_increase/bn
I0620 04:28:08.718158  3148 net.cpp:454] conv4_23_1x1_increase/bn <- conv4_23_1x1_increase
I0620 04:28:08.718174  3148 net.cpp:397] conv4_23_1x1_increase/bn -> conv4_23_1x1_increase (in-place)
I0620 04:28:08.718484  3148 net.cpp:150] Setting up conv4_23_1x1_increase/bn
I0620 04:28:08.718497  3148 net.cpp:157] Top shape: 2 1024 60 60 (7372800)
I0620 04:28:08.718502  3148 net.cpp:165] Memory required for data: 6638858800
I0620 04:28:08.718513  3148 layer_factory.hpp:77] Creating layer conv4_23
I0620 04:28:08.718525  3148 net.cpp:106] Creating Layer conv4_23
I0620 04:28:08.718533  3148 net.cpp:454] conv4_23 <- conv4_22_conv4_22/relu_0_split_1
I0620 04:28:08.718539  3148 net.cpp:454] conv4_23 <- conv4_23_1x1_increase
I0620 04:28:08.718545  3148 net.cpp:411] conv4_23 -> conv4_23
I0620 04:28:08.718587  3148 net.cpp:150] Setting up conv4_23
I0620 04:28:08.718593  3148 net.cpp:157] Top shape: 2 1024 60 60 (7372800)
I0620 04:28:08.718597  3148 net.cpp:165] Memory required for data: 6668350000
I0620 04:28:08.718601  3148 layer_factory.hpp:77] Creating layer conv4_23/relu
I0620 04:28:08.718612  3148 net.cpp:106] Creating Layer conv4_23/relu
I0620 04:28:08.718617  3148 net.cpp:454] conv4_23/relu <- conv4_23
I0620 04:28:08.718623  3148 net.cpp:397] conv4_23/relu -> conv4_23 (in-place)
I0620 04:28:08.718631  3148 net.cpp:150] Setting up conv4_23/relu
I0620 04:28:08.718636  3148 net.cpp:157] Top shape: 2 1024 60 60 (7372800)
I0620 04:28:08.718641  3148 net.cpp:165] Memory required for data: 6697841200
I0620 04:28:08.718644  3148 layer_factory.hpp:77] Creating layer conv4_23_conv4_23/relu_0_split
I0620 04:28:08.718703  3148 net.cpp:106] Creating Layer conv4_23_conv4_23/relu_0_split
I0620 04:28:08.718708  3148 net.cpp:454] conv4_23_conv4_23/relu_0_split <- conv4_23
I0620 04:28:08.718713  3148 net.cpp:411] conv4_23_conv4_23/relu_0_split -> conv4_23_conv4_23/relu_0_split_0
I0620 04:28:08.718721  3148 net.cpp:411] conv4_23_conv4_23/relu_0_split -> conv4_23_conv4_23/relu_0_split_1
I0620 04:28:08.718763  3148 net.cpp:150] Setting up conv4_23_conv4_23/relu_0_split
I0620 04:28:08.718770  3148 net.cpp:157] Top shape: 2 1024 60 60 (7372800)
I0620 04:28:08.718775  3148 net.cpp:157] Top shape: 2 1024 60 60 (7372800)
I0620 04:28:08.718778  3148 net.cpp:165] Memory required for data: 6756823600
I0620 04:28:08.718785  3148 layer_factory.hpp:77] Creating layer conv5_1_1x1_reduce
I0620 04:28:08.718801  3148 net.cpp:106] Creating Layer conv5_1_1x1_reduce
I0620 04:28:08.718804  3148 net.cpp:454] conv5_1_1x1_reduce <- conv4_23_conv4_23/relu_0_split_0
I0620 04:28:08.718813  3148 net.cpp:411] conv5_1_1x1_reduce -> conv5_1_1x1_reduce
I0620 04:28:08.733266  3148 net.cpp:150] Setting up conv5_1_1x1_reduce
I0620 04:28:08.733301  3148 net.cpp:157] Top shape: 2 512 60 60 (3686400)
I0620 04:28:08.733304  3148 net.cpp:165] Memory required for data: 6771569200
I0620 04:28:08.733311  3148 layer_factory.hpp:77] Creating layer conv5_1_1x1_reduce/bn
I0620 04:28:08.733322  3148 net.cpp:106] Creating Layer conv5_1_1x1_reduce/bn
I0620 04:28:08.733327  3148 net.cpp:454] conv5_1_1x1_reduce/bn <- conv5_1_1x1_reduce
I0620 04:28:08.733333  3148 net.cpp:397] conv5_1_1x1_reduce/bn -> conv5_1_1x1_reduce (in-place)
I0620 04:28:08.733515  3148 net.cpp:150] Setting up conv5_1_1x1_reduce/bn
I0620 04:28:08.733520  3148 net.cpp:157] Top shape: 2 512 60 60 (3686400)
I0620 04:28:08.733522  3148 net.cpp:165] Memory required for data: 6786314800
I0620 04:28:08.733527  3148 layer_factory.hpp:77] Creating layer conv5_1_1x1_reduce/relu
I0620 04:28:08.733532  3148 net.cpp:106] Creating Layer conv5_1_1x1_reduce/relu
I0620 04:28:08.733536  3148 net.cpp:454] conv5_1_1x1_reduce/relu <- conv5_1_1x1_reduce
I0620 04:28:08.733538  3148 net.cpp:397] conv5_1_1x1_reduce/relu -> conv5_1_1x1_reduce (in-place)
I0620 04:28:08.733543  3148 net.cpp:150] Setting up conv5_1_1x1_reduce/relu
I0620 04:28:08.733546  3148 net.cpp:157] Top shape: 2 512 60 60 (3686400)
I0620 04:28:08.733549  3148 net.cpp:165] Memory required for data: 6801060400
I0620 04:28:08.733552  3148 layer_factory.hpp:77] Creating layer conv5_1_3x3
I0620 04:28:08.733572  3148 net.cpp:106] Creating Layer conv5_1_3x3
I0620 04:28:08.733575  3148 net.cpp:454] conv5_1_3x3 <- conv5_1_1x1_reduce
I0620 04:28:08.733582  3148 net.cpp:411] conv5_1_3x3 -> conv5_1_3x3
I0620 04:28:08.789628  3148 net.cpp:150] Setting up conv5_1_3x3
I0620 04:28:08.789652  3148 net.cpp:157] Top shape: 2 512 60 60 (3686400)
I0620 04:28:08.789656  3148 net.cpp:165] Memory required for data: 6815806000
I0620 04:28:08.789669  3148 layer_factory.hpp:77] Creating layer conv5_1_3x3/bn
I0620 04:28:08.789685  3148 net.cpp:106] Creating Layer conv5_1_3x3/bn
I0620 04:28:08.789691  3148 net.cpp:454] conv5_1_3x3/bn <- conv5_1_3x3
I0620 04:28:08.789696  3148 net.cpp:397] conv5_1_3x3/bn -> conv5_1_3x3 (in-place)
I0620 04:28:08.789878  3148 net.cpp:150] Setting up conv5_1_3x3/bn
I0620 04:28:08.789885  3148 net.cpp:157] Top shape: 2 512 60 60 (3686400)
I0620 04:28:08.789886  3148 net.cpp:165] Memory required for data: 6830551600
I0620 04:28:08.789891  3148 layer_factory.hpp:77] Creating layer conv5_1_3x3/relu
I0620 04:28:08.789896  3148 net.cpp:106] Creating Layer conv5_1_3x3/relu
I0620 04:28:08.789898  3148 net.cpp:454] conv5_1_3x3/relu <- conv5_1_3x3
I0620 04:28:08.789901  3148 net.cpp:397] conv5_1_3x3/relu -> conv5_1_3x3 (in-place)
I0620 04:28:08.789904  3148 net.cpp:150] Setting up conv5_1_3x3/relu
I0620 04:28:08.789907  3148 net.cpp:157] Top shape: 2 512 60 60 (3686400)
I0620 04:28:08.789909  3148 net.cpp:165] Memory required for data: 6845297200
I0620 04:28:08.789911  3148 layer_factory.hpp:77] Creating layer conv5_1_1x1_increase
I0620 04:28:08.789938  3148 net.cpp:106] Creating Layer conv5_1_1x1_increase
I0620 04:28:08.789942  3148 net.cpp:454] conv5_1_1x1_increase <- conv5_1_3x3
I0620 04:28:08.789948  3148 net.cpp:411] conv5_1_1x1_increase -> conv5_1_1x1_increase
I0620 04:28:08.817906  3148 net.cpp:150] Setting up conv5_1_1x1_increase
I0620 04:28:08.817931  3148 net.cpp:157] Top shape: 2 2048 60 60 (14745600)
I0620 04:28:08.817934  3148 net.cpp:165] Memory required for data: 6904279600
I0620 04:28:08.817945  3148 layer_factory.hpp:77] Creating layer conv5_1_1x1_increase/bn
I0620 04:28:08.817956  3148 net.cpp:106] Creating Layer conv5_1_1x1_increase/bn
I0620 04:28:08.817962  3148 net.cpp:454] conv5_1_1x1_increase/bn <- conv5_1_1x1_increase
I0620 04:28:08.817970  3148 net.cpp:397] conv5_1_1x1_increase/bn -> conv5_1_1x1_increase (in-place)
I0620 04:28:08.818167  3148 net.cpp:150] Setting up conv5_1_1x1_increase/bn
I0620 04:28:08.818173  3148 net.cpp:157] Top shape: 2 2048 60 60 (14745600)
I0620 04:28:08.818176  3148 net.cpp:165] Memory required for data: 6963262000
I0620 04:28:08.818182  3148 layer_factory.hpp:77] Creating layer conv5_1_1x1_proj
I0620 04:28:08.818190  3148 net.cpp:106] Creating Layer conv5_1_1x1_proj
I0620 04:28:08.818194  3148 net.cpp:454] conv5_1_1x1_proj <- conv4_23_conv4_23/relu_0_split_1
I0620 04:28:08.818199  3148 net.cpp:411] conv5_1_1x1_proj -> conv5_1_1x1_proj
I0620 04:28:08.869381  3148 net.cpp:150] Setting up conv5_1_1x1_proj
I0620 04:28:08.869411  3148 net.cpp:157] Top shape: 2 2048 60 60 (14745600)
I0620 04:28:08.869415  3148 net.cpp:165] Memory required for data: 7022244400
I0620 04:28:08.869422  3148 layer_factory.hpp:77] Creating layer conv5_1_1x1_proj/bn
I0620 04:28:08.869433  3148 net.cpp:106] Creating Layer conv5_1_1x1_proj/bn
I0620 04:28:08.869441  3148 net.cpp:454] conv5_1_1x1_proj/bn <- conv5_1_1x1_proj
I0620 04:28:08.869446  3148 net.cpp:397] conv5_1_1x1_proj/bn -> conv5_1_1x1_proj (in-place)
I0620 04:28:08.869623  3148 net.cpp:150] Setting up conv5_1_1x1_proj/bn
I0620 04:28:08.869628  3148 net.cpp:157] Top shape: 2 2048 60 60 (14745600)
I0620 04:28:08.869632  3148 net.cpp:165] Memory required for data: 7081226800
I0620 04:28:08.869639  3148 layer_factory.hpp:77] Creating layer conv5_1
I0620 04:28:08.869647  3148 net.cpp:106] Creating Layer conv5_1
I0620 04:28:08.869649  3148 net.cpp:454] conv5_1 <- conv5_1_1x1_proj
I0620 04:28:08.869653  3148 net.cpp:454] conv5_1 <- conv5_1_1x1_increase
I0620 04:28:08.869657  3148 net.cpp:411] conv5_1 -> conv5_1
I0620 04:28:08.869678  3148 net.cpp:150] Setting up conv5_1
I0620 04:28:08.869683  3148 net.cpp:157] Top shape: 2 2048 60 60 (14745600)
I0620 04:28:08.869684  3148 net.cpp:165] Memory required for data: 7140209200
I0620 04:28:08.869688  3148 layer_factory.hpp:77] Creating layer conv5_1/relu
I0620 04:28:08.869693  3148 net.cpp:106] Creating Layer conv5_1/relu
I0620 04:28:08.869696  3148 net.cpp:454] conv5_1/relu <- conv5_1
I0620 04:28:08.869699  3148 net.cpp:397] conv5_1/relu -> conv5_1 (in-place)
I0620 04:28:08.869704  3148 net.cpp:150] Setting up conv5_1/relu
I0620 04:28:08.869707  3148 net.cpp:157] Top shape: 2 2048 60 60 (14745600)
I0620 04:28:08.869710  3148 net.cpp:165] Memory required for data: 7199191600
I0620 04:28:08.869712  3148 layer_factory.hpp:77] Creating layer conv5_1_conv5_1/relu_0_split
I0620 04:28:08.869717  3148 net.cpp:106] Creating Layer conv5_1_conv5_1/relu_0_split
I0620 04:28:08.869719  3148 net.cpp:454] conv5_1_conv5_1/relu_0_split <- conv5_1
I0620 04:28:08.869724  3148 net.cpp:411] conv5_1_conv5_1/relu_0_split -> conv5_1_conv5_1/relu_0_split_0
I0620 04:28:08.869727  3148 net.cpp:411] conv5_1_conv5_1/relu_0_split -> conv5_1_conv5_1/relu_0_split_1
I0620 04:28:08.869757  3148 net.cpp:150] Setting up conv5_1_conv5_1/relu_0_split
I0620 04:28:08.869761  3148 net.cpp:157] Top shape: 2 2048 60 60 (14745600)
I0620 04:28:08.869765  3148 net.cpp:157] Top shape: 2 2048 60 60 (14745600)
I0620 04:28:08.869767  3148 net.cpp:165] Memory required for data: 7317156400
I0620 04:28:08.869771  3148 layer_factory.hpp:77] Creating layer conv5_2_1x1_reduce
I0620 04:28:08.869802  3148 net.cpp:106] Creating Layer conv5_2_1x1_reduce
I0620 04:28:08.869807  3148 net.cpp:454] conv5_2_1x1_reduce <- conv5_1_conv5_1/relu_0_split_0
I0620 04:28:08.869810  3148 net.cpp:411] conv5_2_1x1_reduce -> conv5_2_1x1_reduce
I0620 04:28:08.894070  3148 net.cpp:150] Setting up conv5_2_1x1_reduce
I0620 04:28:08.894150  3148 net.cpp:157] Top shape: 2 512 60 60 (3686400)
I0620 04:28:08.894156  3148 net.cpp:165] Memory required for data: 7331902000
I0620 04:28:08.894173  3148 layer_factory.hpp:77] Creating layer conv5_2_1x1_reduce/bn
I0620 04:28:08.894203  3148 net.cpp:106] Creating Layer conv5_2_1x1_reduce/bn
I0620 04:28:08.894214  3148 net.cpp:454] conv5_2_1x1_reduce/bn <- conv5_2_1x1_reduce
I0620 04:28:08.894227  3148 net.cpp:397] conv5_2_1x1_reduce/bn -> conv5_2_1x1_reduce (in-place)
I0620 04:28:08.894551  3148 net.cpp:150] Setting up conv5_2_1x1_reduce/bn
I0620 04:28:08.894560  3148 net.cpp:157] Top shape: 2 512 60 60 (3686400)
I0620 04:28:08.894565  3148 net.cpp:165] Memory required for data: 7346647600
I0620 04:28:08.894575  3148 layer_factory.hpp:77] Creating layer conv5_2_1x1_reduce/relu
I0620 04:28:08.894587  3148 net.cpp:106] Creating Layer conv5_2_1x1_reduce/relu
I0620 04:28:08.894593  3148 net.cpp:454] conv5_2_1x1_reduce/relu <- conv5_2_1x1_reduce
I0620 04:28:08.894598  3148 net.cpp:397] conv5_2_1x1_reduce/relu -> conv5_2_1x1_reduce (in-place)
I0620 04:28:08.894606  3148 net.cpp:150] Setting up conv5_2_1x1_reduce/relu
I0620 04:28:08.894613  3148 net.cpp:157] Top shape: 2 512 60 60 (3686400)
I0620 04:28:08.894615  3148 net.cpp:165] Memory required for data: 7361393200
I0620 04:28:08.894620  3148 layer_factory.hpp:77] Creating layer conv5_2_3x3
I0620 04:28:08.894640  3148 net.cpp:106] Creating Layer conv5_2_3x3
I0620 04:28:08.894645  3148 net.cpp:454] conv5_2_3x3 <- conv5_2_1x1_reduce
I0620 04:28:08.894654  3148 net.cpp:411] conv5_2_3x3 -> conv5_2_3x3
I0620 04:28:08.956250  3148 net.cpp:150] Setting up conv5_2_3x3
I0620 04:28:08.956276  3148 net.cpp:157] Top shape: 2 512 60 60 (3686400)
I0620 04:28:08.956280  3148 net.cpp:165] Memory required for data: 7376138800
I0620 04:28:08.956290  3148 layer_factory.hpp:77] Creating layer conv5_2_3x3/bn
I0620 04:28:08.956322  3148 net.cpp:106] Creating Layer conv5_2_3x3/bn
I0620 04:28:08.956332  3148 net.cpp:454] conv5_2_3x3/bn <- conv5_2_3x3
I0620 04:28:08.956338  3148 net.cpp:397] conv5_2_3x3/bn -> conv5_2_3x3 (in-place)
I0620 04:28:08.956523  3148 net.cpp:150] Setting up conv5_2_3x3/bn
I0620 04:28:08.956529  3148 net.cpp:157] Top shape: 2 512 60 60 (3686400)
I0620 04:28:08.956532  3148 net.cpp:165] Memory required for data: 7390884400
I0620 04:28:08.956538  3148 layer_factory.hpp:77] Creating layer conv5_2_3x3/relu
I0620 04:28:08.956543  3148 net.cpp:106] Creating Layer conv5_2_3x3/relu
I0620 04:28:08.956547  3148 net.cpp:454] conv5_2_3x3/relu <- conv5_2_3x3
I0620 04:28:08.956549  3148 net.cpp:397] conv5_2_3x3/relu -> conv5_2_3x3 (in-place)
I0620 04:28:08.956554  3148 net.cpp:150] Setting up conv5_2_3x3/relu
I0620 04:28:08.956558  3148 net.cpp:157] Top shape: 2 512 60 60 (3686400)
I0620 04:28:08.956560  3148 net.cpp:165] Memory required for data: 7405630000
I0620 04:28:08.956563  3148 layer_factory.hpp:77] Creating layer conv5_2_1x1_increase
I0620 04:28:08.956570  3148 net.cpp:106] Creating Layer conv5_2_1x1_increase
I0620 04:28:08.956573  3148 net.cpp:454] conv5_2_1x1_increase <- conv5_2_3x3
I0620 04:28:08.956578  3148 net.cpp:411] conv5_2_1x1_increase -> conv5_2_1x1_increase
I0620 04:28:08.981113  3148 net.cpp:150] Setting up conv5_2_1x1_increase
I0620 04:28:08.981204  3148 net.cpp:157] Top shape: 2 2048 60 60 (14745600)
I0620 04:28:08.981211  3148 net.cpp:165] Memory required for data: 7464612400
I0620 04:28:08.981227  3148 layer_factory.hpp:77] Creating layer conv5_2_1x1_increase/bn
I0620 04:28:08.981259  3148 net.cpp:106] Creating Layer conv5_2_1x1_increase/bn
I0620 04:28:08.981273  3148 net.cpp:454] conv5_2_1x1_increase/bn <- conv5_2_1x1_increase
I0620 04:28:08.981293  3148 net.cpp:397] conv5_2_1x1_increase/bn -> conv5_2_1x1_increase (in-place)
I0620 04:28:08.981670  3148 net.cpp:150] Setting up conv5_2_1x1_increase/bn
I0620 04:28:08.981683  3148 net.cpp:157] Top shape: 2 2048 60 60 (14745600)
I0620 04:28:08.981686  3148 net.cpp:165] Memory required for data: 7523594800
I0620 04:28:08.981853  3148 layer_factory.hpp:77] Creating layer conv5_2
I0620 04:28:08.981868  3148 net.cpp:106] Creating Layer conv5_2
I0620 04:28:08.981873  3148 net.cpp:454] conv5_2 <- conv5_1_conv5_1/relu_0_split_1
I0620 04:28:08.981880  3148 net.cpp:454] conv5_2 <- conv5_2_1x1_increase
I0620 04:28:08.981886  3148 net.cpp:411] conv5_2 -> conv5_2
I0620 04:28:08.981938  3148 net.cpp:150] Setting up conv5_2
I0620 04:28:08.981945  3148 net.cpp:157] Top shape: 2 2048 60 60 (14745600)
I0620 04:28:08.981950  3148 net.cpp:165] Memory required for data: 7582577200
I0620 04:28:08.981953  3148 layer_factory.hpp:77] Creating layer conv5_2/relu
I0620 04:28:08.981964  3148 net.cpp:106] Creating Layer conv5_2/relu
I0620 04:28:08.981969  3148 net.cpp:454] conv5_2/relu <- conv5_2
I0620 04:28:08.981974  3148 net.cpp:397] conv5_2/relu -> conv5_2 (in-place)
I0620 04:28:08.981982  3148 net.cpp:150] Setting up conv5_2/relu
I0620 04:28:08.981987  3148 net.cpp:157] Top shape: 2 2048 60 60 (14745600)
I0620 04:28:08.981992  3148 net.cpp:165] Memory required for data: 7641559600
I0620 04:28:08.981995  3148 layer_factory.hpp:77] Creating layer conv5_2_conv5_2/relu_0_split
I0620 04:28:08.982004  3148 net.cpp:106] Creating Layer conv5_2_conv5_2/relu_0_split
I0620 04:28:08.982008  3148 net.cpp:454] conv5_2_conv5_2/relu_0_split <- conv5_2
I0620 04:28:08.982015  3148 net.cpp:411] conv5_2_conv5_2/relu_0_split -> conv5_2_conv5_2/relu_0_split_0
I0620 04:28:08.982023  3148 net.cpp:411] conv5_2_conv5_2/relu_0_split -> conv5_2_conv5_2/relu_0_split_1
I0620 04:28:08.982060  3148 net.cpp:150] Setting up conv5_2_conv5_2/relu_0_split
I0620 04:28:08.982069  3148 net.cpp:157] Top shape: 2 2048 60 60 (14745600)
I0620 04:28:08.982074  3148 net.cpp:157] Top shape: 2 2048 60 60 (14745600)
I0620 04:28:08.982077  3148 net.cpp:165] Memory required for data: 7759524400
I0620 04:28:08.982081  3148 layer_factory.hpp:77] Creating layer conv5_3_1x1_reduce
I0620 04:28:08.982095  3148 net.cpp:106] Creating Layer conv5_3_1x1_reduce
I0620 04:28:08.982100  3148 net.cpp:454] conv5_3_1x1_reduce <- conv5_2_conv5_2/relu_0_split_0
I0620 04:28:08.982105  3148 net.cpp:411] conv5_3_1x1_reduce -> conv5_3_1x1_reduce
I0620 04:28:09.009167  3148 net.cpp:150] Setting up conv5_3_1x1_reduce
I0620 04:28:09.009192  3148 net.cpp:157] Top shape: 2 512 60 60 (3686400)
I0620 04:28:09.009196  3148 net.cpp:165] Memory required for data: 7774270000
I0620 04:28:09.009205  3148 layer_factory.hpp:77] Creating layer conv5_3_1x1_reduce/bn
I0620 04:28:09.009220  3148 net.cpp:106] Creating Layer conv5_3_1x1_reduce/bn
I0620 04:28:09.009230  3148 net.cpp:454] conv5_3_1x1_reduce/bn <- conv5_3_1x1_reduce
I0620 04:28:09.009239  3148 net.cpp:397] conv5_3_1x1_reduce/bn -> conv5_3_1x1_reduce (in-place)
I0620 04:28:09.009423  3148 net.cpp:150] Setting up conv5_3_1x1_reduce/bn
I0620 04:28:09.009428  3148 net.cpp:157] Top shape: 2 512 60 60 (3686400)
I0620 04:28:09.009429  3148 net.cpp:165] Memory required for data: 7789015600
I0620 04:28:09.009434  3148 layer_factory.hpp:77] Creating layer conv5_3_1x1_reduce/relu
I0620 04:28:09.009439  3148 net.cpp:106] Creating Layer conv5_3_1x1_reduce/relu
I0620 04:28:09.009443  3148 net.cpp:454] conv5_3_1x1_reduce/relu <- conv5_3_1x1_reduce
I0620 04:28:09.009444  3148 net.cpp:397] conv5_3_1x1_reduce/relu -> conv5_3_1x1_reduce (in-place)
I0620 04:28:09.009449  3148 net.cpp:150] Setting up conv5_3_1x1_reduce/relu
I0620 04:28:09.009451  3148 net.cpp:157] Top shape: 2 512 60 60 (3686400)
I0620 04:28:09.009454  3148 net.cpp:165] Memory required for data: 7803761200
I0620 04:28:09.009456  3148 layer_factory.hpp:77] Creating layer conv5_3_3x3
I0620 04:28:09.009464  3148 net.cpp:106] Creating Layer conv5_3_3x3
I0620 04:28:09.009467  3148 net.cpp:454] conv5_3_3x3 <- conv5_3_1x1_reduce
I0620 04:28:09.009471  3148 net.cpp:411] conv5_3_3x3 -> conv5_3_3x3
I0620 04:28:09.067076  3148 net.cpp:150] Setting up conv5_3_3x3
I0620 04:28:09.067153  3148 net.cpp:157] Top shape: 2 512 60 60 (3686400)
I0620 04:28:09.067164  3148 net.cpp:165] Memory required for data: 7818506800
I0620 04:28:09.067183  3148 layer_factory.hpp:77] Creating layer conv5_3_3x3/bn
I0620 04:28:09.067209  3148 net.cpp:106] Creating Layer conv5_3_3x3/bn
I0620 04:28:09.067220  3148 net.cpp:454] conv5_3_3x3/bn <- conv5_3_3x3
I0620 04:28:09.067234  3148 net.cpp:397] conv5_3_3x3/bn -> conv5_3_3x3 (in-place)
I0620 04:28:09.067544  3148 net.cpp:150] Setting up conv5_3_3x3/bn
I0620 04:28:09.067555  3148 net.cpp:157] Top shape: 2 512 60 60 (3686400)
I0620 04:28:09.067560  3148 net.cpp:165] Memory required for data: 7833252400
I0620 04:28:09.067571  3148 layer_factory.hpp:77] Creating layer conv5_3_3x3/relu
I0620 04:28:09.067584  3148 net.cpp:106] Creating Layer conv5_3_3x3/relu
I0620 04:28:09.067589  3148 net.cpp:454] conv5_3_3x3/relu <- conv5_3_3x3
I0620 04:28:09.067595  3148 net.cpp:397] conv5_3_3x3/relu -> conv5_3_3x3 (in-place)
I0620 04:28:09.067603  3148 net.cpp:150] Setting up conv5_3_3x3/relu
I0620 04:28:09.067610  3148 net.cpp:157] Top shape: 2 512 60 60 (3686400)
I0620 04:28:09.067612  3148 net.cpp:165] Memory required for data: 7847998000
I0620 04:28:09.067617  3148 layer_factory.hpp:77] Creating layer conv5_3_1x1_increase
I0620 04:28:09.067632  3148 net.cpp:106] Creating Layer conv5_3_1x1_increase
I0620 04:28:09.067637  3148 net.cpp:454] conv5_3_1x1_increase <- conv5_3_3x3
I0620 04:28:09.067646  3148 net.cpp:411] conv5_3_1x1_increase -> conv5_3_1x1_increase
I0620 04:28:09.094363  3148 net.cpp:150] Setting up conv5_3_1x1_increase
I0620 04:28:09.094396  3148 net.cpp:157] Top shape: 2 2048 60 60 (14745600)
I0620 04:28:09.094398  3148 net.cpp:165] Memory required for data: 7906980400
I0620 04:28:09.094408  3148 layer_factory.hpp:77] Creating layer conv5_3_1x1_increase/bn
I0620 04:28:09.094418  3148 net.cpp:106] Creating Layer conv5_3_1x1_increase/bn
I0620 04:28:09.094422  3148 net.cpp:454] conv5_3_1x1_increase/bn <- conv5_3_1x1_increase
I0620 04:28:09.094427  3148 net.cpp:397] conv5_3_1x1_increase/bn -> conv5_3_1x1_increase (in-place)
I0620 04:28:09.094605  3148 net.cpp:150] Setting up conv5_3_1x1_increase/bn
I0620 04:28:09.094610  3148 net.cpp:157] Top shape: 2 2048 60 60 (14745600)
I0620 04:28:09.094612  3148 net.cpp:165] Memory required for data: 7965962800
I0620 04:28:09.094617  3148 layer_factory.hpp:77] Creating layer conv5_3
I0620 04:28:09.094621  3148 net.cpp:106] Creating Layer conv5_3
I0620 04:28:09.094624  3148 net.cpp:454] conv5_3 <- conv5_2_conv5_2/relu_0_split_1
I0620 04:28:09.094626  3148 net.cpp:454] conv5_3 <- conv5_3_1x1_increase
I0620 04:28:09.094630  3148 net.cpp:411] conv5_3 -> conv5_3
I0620 04:28:09.094651  3148 net.cpp:150] Setting up conv5_3
I0620 04:28:09.094655  3148 net.cpp:157] Top shape: 2 2048 60 60 (14745600)
I0620 04:28:09.094657  3148 net.cpp:165] Memory required for data: 8024945200
I0620 04:28:09.094660  3148 layer_factory.hpp:77] Creating layer conv5_3/relu
I0620 04:28:09.094665  3148 net.cpp:106] Creating Layer conv5_3/relu
I0620 04:28:09.094666  3148 net.cpp:454] conv5_3/relu <- conv5_3
I0620 04:28:09.094669  3148 net.cpp:397] conv5_3/relu -> conv5_3 (in-place)
I0620 04:28:09.094673  3148 net.cpp:150] Setting up conv5_3/relu
I0620 04:28:09.094676  3148 net.cpp:157] Top shape: 2 2048 60 60 (14745600)
I0620 04:28:09.094677  3148 net.cpp:165] Memory required for data: 8083927600
I0620 04:28:09.094681  3148 layer_factory.hpp:77] Creating layer conv5_3_conv5_3/relu_0_split
I0620 04:28:09.094684  3148 net.cpp:106] Creating Layer conv5_3_conv5_3/relu_0_split
I0620 04:28:09.094686  3148 net.cpp:454] conv5_3_conv5_3/relu_0_split <- conv5_3
I0620 04:28:09.094691  3148 net.cpp:411] conv5_3_conv5_3/relu_0_split -> conv5_3_conv5_3/relu_0_split_0
I0620 04:28:09.094693  3148 net.cpp:411] conv5_3_conv5_3/relu_0_split -> conv5_3_conv5_3/relu_0_split_1
I0620 04:28:09.094698  3148 net.cpp:411] conv5_3_conv5_3/relu_0_split -> conv5_3_conv5_3/relu_0_split_2
I0620 04:28:09.094703  3148 net.cpp:411] conv5_3_conv5_3/relu_0_split -> conv5_3_conv5_3/relu_0_split_3
I0620 04:28:09.094735  3148 net.cpp:411] conv5_3_conv5_3/relu_0_split -> conv5_3_conv5_3/relu_0_split_4
I0620 04:28:09.094792  3148 net.cpp:150] Setting up conv5_3_conv5_3/relu_0_split
I0620 04:28:09.094796  3148 net.cpp:157] Top shape: 2 2048 60 60 (14745600)
I0620 04:28:09.094799  3148 net.cpp:157] Top shape: 2 2048 60 60 (14745600)
I0620 04:28:09.094802  3148 net.cpp:157] Top shape: 2 2048 60 60 (14745600)
I0620 04:28:09.094805  3148 net.cpp:157] Top shape: 2 2048 60 60 (14745600)
I0620 04:28:09.094808  3148 net.cpp:157] Top shape: 2 2048 60 60 (14745600)
I0620 04:28:09.094810  3148 net.cpp:165] Memory required for data: 8378839600
I0620 04:28:09.094813  3148 layer_factory.hpp:77] Creating layer conv5_3_pool1
I0620 04:28:09.094818  3148 net.cpp:106] Creating Layer conv5_3_pool1
I0620 04:28:09.094821  3148 net.cpp:454] conv5_3_pool1 <- conv5_3_conv5_3/relu_0_split_0
I0620 04:28:09.094826  3148 net.cpp:411] conv5_3_pool1 -> conv5_3_pool1
I0620 04:28:09.094849  3148 net.cpp:150] Setting up conv5_3_pool1
I0620 04:28:09.094854  3148 net.cpp:157] Top shape: 2 2048 1 1 (4096)
I0620 04:28:09.094857  3148 net.cpp:165] Memory required for data: 8378855984
I0620 04:28:09.094861  3148 layer_factory.hpp:77] Creating layer conv5_3_pool1_conv
I0620 04:28:09.094871  3148 net.cpp:106] Creating Layer conv5_3_pool1_conv
I0620 04:28:09.094876  3148 net.cpp:454] conv5_3_pool1_conv <- conv5_3_pool1
I0620 04:28:09.094882  3148 net.cpp:411] conv5_3_pool1_conv -> conv5_3_pool1_conv
I0620 04:28:09.122035  3148 net.cpp:150] Setting up conv5_3_pool1_conv
I0620 04:28:09.122059  3148 net.cpp:157] Top shape: 2 512 1 1 (1024)
I0620 04:28:09.122062  3148 net.cpp:165] Memory required for data: 8378860080
I0620 04:28:09.122068  3148 layer_factory.hpp:77] Creating layer conv5_3_pool1_conv/bn
I0620 04:28:09.122078  3148 net.cpp:106] Creating Layer conv5_3_pool1_conv/bn
I0620 04:28:09.122083  3148 net.cpp:454] conv5_3_pool1_conv/bn <- conv5_3_pool1_conv
I0620 04:28:09.122089  3148 net.cpp:397] conv5_3_pool1_conv/bn -> conv5_3_pool1_conv (in-place)
I0620 04:28:09.122253  3148 net.cpp:150] Setting up conv5_3_pool1_conv/bn
I0620 04:28:09.122258  3148 net.cpp:157] Top shape: 2 512 1 1 (1024)
I0620 04:28:09.122262  3148 net.cpp:165] Memory required for data: 8378864176
I0620 04:28:09.122267  3148 layer_factory.hpp:77] Creating layer conv5_3_pool1_conv/relu
I0620 04:28:09.122272  3148 net.cpp:106] Creating Layer conv5_3_pool1_conv/relu
I0620 04:28:09.122274  3148 net.cpp:454] conv5_3_pool1_conv/relu <- conv5_3_pool1_conv
I0620 04:28:09.122279  3148 net.cpp:397] conv5_3_pool1_conv/relu -> conv5_3_pool1_conv (in-place)
I0620 04:28:09.122284  3148 net.cpp:150] Setting up conv5_3_pool1_conv/relu
I0620 04:28:09.122287  3148 net.cpp:157] Top shape: 2 512 1 1 (1024)
I0620 04:28:09.122290  3148 net.cpp:165] Memory required for data: 8378868272
I0620 04:28:09.122293  3148 layer_factory.hpp:77] Creating layer conv5_3_pool1_interp
I0620 04:28:09.122298  3148 net.cpp:106] Creating Layer conv5_3_pool1_interp
I0620 04:28:09.122301  3148 net.cpp:454] conv5_3_pool1_interp <- conv5_3_pool1_conv
I0620 04:28:09.122304  3148 net.cpp:411] conv5_3_pool1_interp -> conv5_3_pool1_interp
I0620 04:28:09.122328  3148 net.cpp:150] Setting up conv5_3_pool1_interp
I0620 04:28:09.122333  3148 net.cpp:157] Top shape: 2 512 60 60 (3686400)
I0620 04:28:09.122335  3148 net.cpp:165] Memory required for data: 8393613872
I0620 04:28:09.122339  3148 layer_factory.hpp:77] Creating layer conv5_3_pool2
I0620 04:28:09.122344  3148 net.cpp:106] Creating Layer conv5_3_pool2
I0620 04:28:09.122346  3148 net.cpp:454] conv5_3_pool2 <- conv5_3_conv5_3/relu_0_split_1
I0620 04:28:09.122349  3148 net.cpp:411] conv5_3_pool2 -> conv5_3_pool2
I0620 04:28:09.122367  3148 net.cpp:150] Setting up conv5_3_pool2
I0620 04:28:09.122371  3148 net.cpp:157] Top shape: 2 2048 2 2 (16384)
I0620 04:28:09.122373  3148 net.cpp:165] Memory required for data: 8393679408
I0620 04:28:09.122376  3148 layer_factory.hpp:77] Creating layer conv5_3_pool2_conv
I0620 04:28:09.122400  3148 net.cpp:106] Creating Layer conv5_3_pool2_conv
I0620 04:28:09.122403  3148 net.cpp:454] conv5_3_pool2_conv <- conv5_3_pool2
I0620 04:28:09.122408  3148 net.cpp:411] conv5_3_pool2_conv -> conv5_3_pool2_conv
I0620 04:28:09.145521  3148 net.cpp:150] Setting up conv5_3_pool2_conv
I0620 04:28:09.145542  3148 net.cpp:157] Top shape: 2 512 2 2 (4096)
I0620 04:28:09.145546  3148 net.cpp:165] Memory required for data: 8393695792
I0620 04:28:09.145552  3148 layer_factory.hpp:77] Creating layer conv5_3_pool2_conv/bn
I0620 04:28:09.145562  3148 net.cpp:106] Creating Layer conv5_3_pool2_conv/bn
I0620 04:28:09.145567  3148 net.cpp:454] conv5_3_pool2_conv/bn <- conv5_3_pool2_conv
I0620 04:28:09.145573  3148 net.cpp:397] conv5_3_pool2_conv/bn -> conv5_3_pool2_conv (in-place)
I0620 04:28:09.145743  3148 net.cpp:150] Setting up conv5_3_pool2_conv/bn
I0620 04:28:09.145748  3148 net.cpp:157] Top shape: 2 512 2 2 (4096)
I0620 04:28:09.145758  3148 net.cpp:165] Memory required for data: 8393712176
I0620 04:28:09.145764  3148 layer_factory.hpp:77] Creating layer conv5_3_pool2_conv/relu
I0620 04:28:09.145769  3148 net.cpp:106] Creating Layer conv5_3_pool2_conv/relu
I0620 04:28:09.145772  3148 net.cpp:454] conv5_3_pool2_conv/relu <- conv5_3_pool2_conv
I0620 04:28:09.145776  3148 net.cpp:397] conv5_3_pool2_conv/relu -> conv5_3_pool2_conv (in-place)
I0620 04:28:09.145781  3148 net.cpp:150] Setting up conv5_3_pool2_conv/relu
I0620 04:28:09.145783  3148 net.cpp:157] Top shape: 2 512 2 2 (4096)
I0620 04:28:09.145786  3148 net.cpp:165] Memory required for data: 8393728560
I0620 04:28:09.145788  3148 layer_factory.hpp:77] Creating layer conv5_3_pool2_interp
I0620 04:28:09.145792  3148 net.cpp:106] Creating Layer conv5_3_pool2_interp
I0620 04:28:09.145795  3148 net.cpp:454] conv5_3_pool2_interp <- conv5_3_pool2_conv
I0620 04:28:09.145799  3148 net.cpp:411] conv5_3_pool2_interp -> conv5_3_pool2_interp
I0620 04:28:09.145823  3148 net.cpp:150] Setting up conv5_3_pool2_interp
I0620 04:28:09.145828  3148 net.cpp:157] Top shape: 2 512 60 60 (3686400)
I0620 04:28:09.145829  3148 net.cpp:165] Memory required for data: 8408474160
I0620 04:28:09.145833  3148 layer_factory.hpp:77] Creating layer conv5_3_pool3
I0620 04:28:09.145838  3148 net.cpp:106] Creating Layer conv5_3_pool3
I0620 04:28:09.145840  3148 net.cpp:454] conv5_3_pool3 <- conv5_3_conv5_3/relu_0_split_2
I0620 04:28:09.145844  3148 net.cpp:411] conv5_3_pool3 -> conv5_3_pool3
I0620 04:28:09.145861  3148 net.cpp:150] Setting up conv5_3_pool3
I0620 04:28:09.145865  3148 net.cpp:157] Top shape: 2 2048 3 3 (36864)
I0620 04:28:09.145869  3148 net.cpp:165] Memory required for data: 8408621616
I0620 04:28:09.145870  3148 layer_factory.hpp:77] Creating layer conv5_3_pool3_conv
I0620 04:28:09.145877  3148 net.cpp:106] Creating Layer conv5_3_pool3_conv
I0620 04:28:09.145880  3148 net.cpp:454] conv5_3_pool3_conv <- conv5_3_pool3
I0620 04:28:09.145885  3148 net.cpp:411] conv5_3_pool3_conv -> conv5_3_pool3_conv
I0620 04:28:09.173149  3148 net.cpp:150] Setting up conv5_3_pool3_conv
I0620 04:28:09.173176  3148 net.cpp:157] Top shape: 2 512 3 3 (9216)
I0620 04:28:09.173177  3148 net.cpp:165] Memory required for data: 8408658480
I0620 04:28:09.173183  3148 layer_factory.hpp:77] Creating layer conv5_3_pool3_conv/bn
I0620 04:28:09.173192  3148 net.cpp:106] Creating Layer conv5_3_pool3_conv/bn
I0620 04:28:09.173197  3148 net.cpp:454] conv5_3_pool3_conv/bn <- conv5_3_pool3_conv
I0620 04:28:09.173203  3148 net.cpp:397] conv5_3_pool3_conv/bn -> conv5_3_pool3_conv (in-place)
I0620 04:28:09.173387  3148 net.cpp:150] Setting up conv5_3_pool3_conv/bn
I0620 04:28:09.173390  3148 net.cpp:157] Top shape: 2 512 3 3 (9216)
I0620 04:28:09.173393  3148 net.cpp:165] Memory required for data: 8408695344
I0620 04:28:09.173399  3148 layer_factory.hpp:77] Creating layer conv5_3_pool3_conv/relu
I0620 04:28:09.173404  3148 net.cpp:106] Creating Layer conv5_3_pool3_conv/relu
I0620 04:28:09.173408  3148 net.cpp:454] conv5_3_pool3_conv/relu <- conv5_3_pool3_conv
I0620 04:28:09.173413  3148 net.cpp:397] conv5_3_pool3_conv/relu -> conv5_3_pool3_conv (in-place)
I0620 04:28:09.173441  3148 net.cpp:150] Setting up conv5_3_pool3_conv/relu
I0620 04:28:09.173444  3148 net.cpp:157] Top shape: 2 512 3 3 (9216)
I0620 04:28:09.173446  3148 net.cpp:165] Memory required for data: 8408732208
I0620 04:28:09.173449  3148 layer_factory.hpp:77] Creating layer conv5_3_pool3_interp
I0620 04:28:09.173452  3148 net.cpp:106] Creating Layer conv5_3_pool3_interp
I0620 04:28:09.173455  3148 net.cpp:454] conv5_3_pool3_interp <- conv5_3_pool3_conv
I0620 04:28:09.173460  3148 net.cpp:411] conv5_3_pool3_interp -> conv5_3_pool3_interp
I0620 04:28:09.173480  3148 net.cpp:150] Setting up conv5_3_pool3_interp
I0620 04:28:09.173485  3148 net.cpp:157] Top shape: 2 512 60 60 (3686400)
I0620 04:28:09.173486  3148 net.cpp:165] Memory required for data: 8423477808
I0620 04:28:09.173488  3148 layer_factory.hpp:77] Creating layer conv5_3_pool6
I0620 04:28:09.173492  3148 net.cpp:106] Creating Layer conv5_3_pool6
I0620 04:28:09.173496  3148 net.cpp:454] conv5_3_pool6 <- conv5_3_conv5_3/relu_0_split_3
I0620 04:28:09.173498  3148 net.cpp:411] conv5_3_pool6 -> conv5_3_pool6
I0620 04:28:09.173516  3148 net.cpp:150] Setting up conv5_3_pool6
I0620 04:28:09.173521  3148 net.cpp:157] Top shape: 2 2048 6 6 (147456)
I0620 04:28:09.173522  3148 net.cpp:165] Memory required for data: 8424067632
I0620 04:28:09.173524  3148 layer_factory.hpp:77] Creating layer conv5_3_pool6_conv
I0620 04:28:09.173533  3148 net.cpp:106] Creating Layer conv5_3_pool6_conv
I0620 04:28:09.173537  3148 net.cpp:454] conv5_3_pool6_conv <- conv5_3_pool6
I0620 04:28:09.173540  3148 net.cpp:411] conv5_3_pool6_conv -> conv5_3_pool6_conv
I0620 04:28:09.199654  3148 net.cpp:150] Setting up conv5_3_pool6_conv
I0620 04:28:09.199717  3148 net.cpp:157] Top shape: 2 512 6 6 (36864)
I0620 04:28:09.199724  3148 net.cpp:165] Memory required for data: 8424215088
I0620 04:28:09.199740  3148 layer_factory.hpp:77] Creating layer conv5_3_pool6_conv/bn
I0620 04:28:09.199767  3148 net.cpp:106] Creating Layer conv5_3_pool6_conv/bn
I0620 04:28:09.199780  3148 net.cpp:454] conv5_3_pool6_conv/bn <- conv5_3_pool6_conv
I0620 04:28:09.199795  3148 net.cpp:397] conv5_3_pool6_conv/bn -> conv5_3_pool6_conv (in-place)
I0620 04:28:09.200110  3148 net.cpp:150] Setting up conv5_3_pool6_conv/bn
I0620 04:28:09.200120  3148 net.cpp:157] Top shape: 2 512 6 6 (36864)
I0620 04:28:09.200125  3148 net.cpp:165] Memory required for data: 8424362544
I0620 04:28:09.200134  3148 layer_factory.hpp:77] Creating layer conv5_3_pool6_conv/relu
I0620 04:28:09.200145  3148 net.cpp:106] Creating Layer conv5_3_pool6_conv/relu
I0620 04:28:09.200150  3148 net.cpp:454] conv5_3_pool6_conv/relu <- conv5_3_pool6_conv
I0620 04:28:09.200156  3148 net.cpp:397] conv5_3_pool6_conv/relu -> conv5_3_pool6_conv (in-place)
I0620 04:28:09.200165  3148 net.cpp:150] Setting up conv5_3_pool6_conv/relu
I0620 04:28:09.200170  3148 net.cpp:157] Top shape: 2 512 6 6 (36864)
I0620 04:28:09.200173  3148 net.cpp:165] Memory required for data: 8424510000
I0620 04:28:09.200177  3148 layer_factory.hpp:77] Creating layer conv5_3_pool6_interp
I0620 04:28:09.200186  3148 net.cpp:106] Creating Layer conv5_3_pool6_interp
I0620 04:28:09.200189  3148 net.cpp:454] conv5_3_pool6_interp <- conv5_3_pool6_conv
I0620 04:28:09.200194  3148 net.cpp:411] conv5_3_pool6_interp -> conv5_3_pool6_interp
I0620 04:28:09.200233  3148 net.cpp:150] Setting up conv5_3_pool6_interp
I0620 04:28:09.200239  3148 net.cpp:157] Top shape: 2 512 60 60 (3686400)
I0620 04:28:09.200243  3148 net.cpp:165] Memory required for data: 8439255600
I0620 04:28:09.200248  3148 layer_factory.hpp:77] Creating layer conv5_3_concat
I0620 04:28:09.200255  3148 net.cpp:106] Creating Layer conv5_3_concat
I0620 04:28:09.200263  3148 net.cpp:454] conv5_3_concat <- conv5_3_conv5_3/relu_0_split_4
I0620 04:28:09.200268  3148 net.cpp:454] conv5_3_concat <- conv5_3_pool6_interp
I0620 04:28:09.200273  3148 net.cpp:454] conv5_3_concat <- conv5_3_pool3_interp
I0620 04:28:09.200276  3148 net.cpp:454] conv5_3_concat <- conv5_3_pool2_interp
I0620 04:28:09.200281  3148 net.cpp:454] conv5_3_concat <- conv5_3_pool1_interp
I0620 04:28:09.200326  3148 net.cpp:411] conv5_3_concat -> conv5_3_concat
I0620 04:28:09.200357  3148 net.cpp:150] Setting up conv5_3_concat
I0620 04:28:09.200362  3148 net.cpp:157] Top shape: 2 4096 60 60 (29491200)
I0620 04:28:09.200366  3148 net.cpp:165] Memory required for data: 8557220400
I0620 04:28:09.200371  3148 layer_factory.hpp:77] Creating layer conv5_4
I0620 04:28:09.200386  3148 net.cpp:106] Creating Layer conv5_4
I0620 04:28:09.200390  3148 net.cpp:454] conv5_4 <- conv5_3_concat
I0620 04:28:09.200397  3148 net.cpp:411] conv5_4 -> conv5_4
I0620 04:28:09.626269  3148 net.cpp:150] Setting up conv5_4
I0620 04:28:09.626302  3148 net.cpp:157] Top shape: 2 512 60 60 (3686400)
I0620 04:28:09.626307  3148 net.cpp:165] Memory required for data: 8571966000
I0620 04:28:09.626313  3148 layer_factory.hpp:77] Creating layer conv5_4/bn
I0620 04:28:09.626322  3148 net.cpp:106] Creating Layer conv5_4/bn
I0620 04:28:09.626327  3148 net.cpp:454] conv5_4/bn <- conv5_4
I0620 04:28:09.626332  3148 net.cpp:397] conv5_4/bn -> conv5_4 (in-place)
I0620 04:28:09.626543  3148 net.cpp:150] Setting up conv5_4/bn
I0620 04:28:09.626547  3148 net.cpp:157] Top shape: 2 512 60 60 (3686400)
I0620 04:28:09.626564  3148 net.cpp:165] Memory required for data: 8586711600
I0620 04:28:09.626569  3148 layer_factory.hpp:77] Creating layer conv5_4/relu
I0620 04:28:09.626574  3148 net.cpp:106] Creating Layer conv5_4/relu
I0620 04:28:09.626577  3148 net.cpp:454] conv5_4/relu <- conv5_4
I0620 04:28:09.626579  3148 net.cpp:397] conv5_4/relu -> conv5_4 (in-place)
I0620 04:28:09.626585  3148 net.cpp:150] Setting up conv5_4/relu
I0620 04:28:09.626587  3148 net.cpp:157] Top shape: 2 512 60 60 (3686400)
I0620 04:28:09.626590  3148 net.cpp:165] Memory required for data: 8601457200
I0620 04:28:09.626591  3148 layer_factory.hpp:77] Creating layer conv5_4/dropout
I0620 04:28:09.626603  3148 net.cpp:106] Creating Layer conv5_4/dropout
I0620 04:28:09.626605  3148 net.cpp:454] conv5_4/dropout <- conv5_4
I0620 04:28:09.626608  3148 net.cpp:397] conv5_4/dropout -> conv5_4 (in-place)
I0620 04:28:09.626633  3148 net.cpp:150] Setting up conv5_4/dropout
I0620 04:28:09.626636  3148 net.cpp:157] Top shape: 2 512 60 60 (3686400)
I0620 04:28:09.626638  3148 net.cpp:165] Memory required for data: 8616202800
I0620 04:28:09.626641  3148 layer_factory.hpp:77] Creating layer conv6
I0620 04:28:09.626647  3148 net.cpp:106] Creating Layer conv6
I0620 04:28:09.626651  3148 net.cpp:454] conv6 <- conv5_4
I0620 04:28:09.626653  3148 net.cpp:411] conv6 -> conv6
I0620 04:28:09.627084  3148 net.cpp:150] Setting up conv6
I0620 04:28:09.627089  3148 net.cpp:157] Top shape: 2 21 60 60 (151200)
I0620 04:28:09.627090  3148 net.cpp:165] Memory required for data: 8616807600
I0620 04:28:09.627094  3148 layer_factory.hpp:77] Creating layer conv6_interp
I0620 04:28:09.627099  3148 net.cpp:106] Creating Layer conv6_interp
I0620 04:28:09.627101  3148 net.cpp:454] conv6_interp <- conv6
I0620 04:28:09.627104  3148 net.cpp:411] conv6_interp -> conv6_interp
I0620 04:28:09.627122  3148 net.cpp:150] Setting up conv6_interp
I0620 04:28:09.627126  3148 net.cpp:157] Top shape: 2 21 473 473 (9396618)
I0620 04:28:09.627128  3148 net.cpp:165] Memory required for data: 8654394072
I0620 04:28:09.627131  3148 net.cpp:228] conv6_interp does not need backward computation.
I0620 04:28:09.627133  3148 net.cpp:228] conv6 does not need backward computation.
I0620 04:28:09.627135  3148 net.cpp:228] conv5_4/dropout does not need backward computation.
I0620 04:28:09.627138  3148 net.cpp:228] conv5_4/relu does not need backward computation.
…
