…
state {
  phase: TRAIN
}
layer {
  name: "data"
  type: "ImageSegData"
  top: "data"
  top: "label"
  include {
    phase: TRAIN
  }
  transform_param {
    mirror: true
    crop_size: 473
    mean_value: 104.008
    mean_value: 116.669
    mean_value: 122.675
    scale_factors: 0.5
    scale_factors: 0.75
    scale_factors: 1
    scale_factors: 1.25
    scale_factors: 1.5
  }
  image_data_param {
    source: "exper/voc12/list/train_aug.txt"
    batch_size: 1
    shuffle: true
    root_folder: "exper/voc12/data"
    label_type: PIXEL
  }
}
layer {
  name: "conv1_1_3x3_s2"
  type: "Convolution"
  bottom: "data"
  top: "conv1_1_3x3_s2"
  param {
    lr_mult: 1
    decay_mult: 1
  }
  convolution_param {
    num_output: 64
    bias_term: false
    pad: 1
    kernel_size: 3
    stride: 2
    weight_filler {
      type: "msra"
    }
  }
}
layer {
  name: "conv1_1_3x3_s2/bn"
  type: "BN"
  bottom: "conv1_1_3x3_s2"
  top: "conv1_1_3x3_s2"
  param {
    lr_mult: 1
    decay_mult: 0
  }
  param {
    lr_mult: 1
    decay_mult: 0
  }
  param {
    lr_mult: 0
    decay_mult: 0
  }
  param {
    lr_mult: 0
    decay_mult: 0
  }
  bn_param {
    slope_filler {
      type: "constant"
      value: 1
    }
    bias_filler {
      type: "constant"
      value: 0
    }
    momentum: 0.95
    frozen: true
  }
}
layer {
  name: "conv1_1_3x3_s2/relu"
  type: "ReLU"
  bottom: "conv1_1_3x3_s2"
  top: "conv1_1_3x3_s2"
}
layer {
  name: "conv1_2_3x3"
  type: "Convolution"
  bottom: "conv1_1_3x3_s2"
  top: "conv1_2_3x3"
  param {
    lr_mult: 1
    decay_mult: 1
  }
  convolution_param {
    num_output: 64
    bias_term: false
    pad: 1
    kernel_size: 3
    stride: 1
    weight_filler {
      type: "msra"
    }
  }
}
layer {
  name: "conv1_2_3x3/bn"
  type: "BN"
  bottom: "conv1_2_3x3"
  top: "conv1_2_3x3"
  param {
    lr_mult: 1
    decay_mult: 0
  }
  param {
    lr_mult: 1
    decay_mult: 0
  }
  param {
    lr_mult: 0
    decay_mult: 0
  }
  param {
    lr_mult: 0
    decay_mult: 0
  }
  bn_param {
    slope_filler {
      type: "constant"
      value: 1
    }
    bias_filler {
      type: "constant"
      value: 0
    }
    momentum: 0.95
    frozen: true
  }
}
layer {
  name: "conv1_2_3x3/relu"
  type: "ReLU"
  bottom: "conv1_2_3x3"
  top: "conv1_2_3x3"
}
layer {
  name: "conv1_3_3x3"
  type: "Convolution"
  bottom: "conv1_2_3x3"
  top: "conv1_3_3x3"
  param {
    lr_mult: 1
    decay_mult: 1
  }
  convolution_param {
    num_output: 128
    bias_term: false
    pad: 1
    kernel_size: 3
    stride: 1
    weight_filler {
      type: "msra"
    }
  }
}
layer {
  name: "conv1_3_3x3/bn"
  type: "BN"
  bottom: "conv1_3_3x3"
  top: "conv1_3_3x3"
  param {
    lr_mult: 1
    decay_mult: 0
  }
  param {
    lr_mult: 1
    decay_mult: 0
  }
  param {
    lr_mult: 0
    decay_mult: 0
  }
  param {
    lr_mult: 0
    decay_mult: 0
  }
  bn_param {
    slope_filler {
      type: "constant"
      value: 1
    }
    bias_filler {
      type: "constant"
      value: 0
    }
    momentum: 0.95
    frozen: true
  }
}
layer {
  name: "conv1_3_3x3/relu"
  type: "ReLU"
  bottom: "conv1_3_3x3"
  top: "conv1_3_3x3"
}
layer {
  name: "pool1_3x3_s2"
  type: "Pooling"
  bottom: "conv1_3_3x3"
  top: "pool1_3x3_s2"
  pooling_param {
    pool: MAX
    kernel_size: 3
    stride: 2
    pad: 1
  }
}
layer {
  name: "conv2_1_1x1_reduce"
  type: "Convolution"
  bottom: "pool1_3x3_s2"
  top: "conv2_1_1x1_reduce"
  param {
    lr_mult: 1
    decay_mult: 1
  }
  convolution_param {
    num_output: 64
    bias_term: false
    pad: 0
    kernel_size: 1
    stride: 1
    weight_filler {
      type: "msra"
    }
  }
}
layer {
  name: "conv2_1_1x1_reduce/bn"
  type: "BN"
  bottom: "conv2_1_1x1_reduce"
  top: "conv2_1_1x1_reduce"
  param {
    lr_mult: 1
    decay_mult: 0
  }
  param {
    lr_mult: 1
    decay_mult: 0
  }
  param {
    lr_mult: 0
    decay_mult: 0
  }
  param {
    lr_mult: 0
    decay_mult: 0
  }
  bn_param {
    slope_filler {
      type: "constant"
      value: 1
    }
    bias_filler {
      type: "constant"
      value: 0
    }
    momentum: 0.95
    frozen: true
  }
}
layer {
  name: "conv2_1_1x1_reduce/relu"
  type: "ReLU"
  bottom: "conv2_1_1x1_reduce"
  top: "conv2_1_1x1_reduce"
}
layer {
  name: "conv2_1_3x3"
  type: "Convolution"
  bottom: "conv2_1_1x1_reduce"
  top: "conv2_1_3x3"
  param {
    lr_mult: 1
    decay_mult: 1
  }
  convolution_param {
    num_output: 64
    bias_term: false
    pad: 1
    kernel_size: 3
    stride: 1
    weight_filler {
      type: "msra"
    }
  }
}
layer {
  name: "conv2_1_3x3/bn"
  type: "BN"
  bottom: "conv2_1_3x3"
  top: "conv2_1_3x3"
  param {
    lr_mult: 1
    decay_mult: 0
  }
  param {
    lr_mult: 1
    decay_mult: 0
  }
  param {
    lr_mult: 0
    decay_mult: 0
  }
  param {
    lr_mult: 0
    decay_mult: 0
  }
  bn_param {
    slope_filler {
      type: "constant"
      value: 1
    }
    bias_filler {
      type: "constant"
      value: 0
    }
    momentum: 0.95
    frozen: true
  }
}
layer {
  name: "conv2_1_3x3/relu"
  type: "ReLU"
  bottom: "conv2_1_3x3"
  top: "conv2_1_3x3"
}
layer {
  name: "conv2_1_1x1_increase"
  type: "Convolution"
  bottom: "conv2_1_3x3"
  top: "conv2_1_1x1_increase"
  param {
    lr_mult: 1
    decay_mult: 1
  }
  convolution_param {
    num_output: 256
    bias_term: false
    pad: 0
    kernel_size: 1
    stride: 1
    weight_filler {
      type: "msra"
    }
  }
}
layer {
  name: "conv2_1_1x1_increase/bn"
  type: "BN"
  bottom: "conv2_1_1x1_increase"
  top: "conv2_1_1x1_increase"
  param {
    lr_mult: 1
    decay_mult: 0
  }
  param {
    lr_mult: 1
    decay_mult: 0
  }
  param {
    lr_mult: 0
    decay_mult: 0
  }
  param {
    lr_mult: 0
    decay_mult: 0
  }
  bn_param {
    slope_filler {
      type: "constant"
      value: 1
    }
    bias_filler {
      type: "constant"
      value: 0
    }
    momentum: 0.95
    frozen: true
  }
}
layer {
  name: "conv2_1_1x1_proj"
  type: "Convolution"
  bottom: "pool1_3x3_s2"
  top: "conv2_1_1x1_proj"
  param {
    lr_mult: 1
    decay_mult: 1
  }
  convolution_param {
    num_output: 256
    bias_term: false
    pad: 0
    kernel_size: 1
    stride: 1
    weight_filler {
      type: "msra"
    }
  }
}
layer {
  name: "conv2_1_1x1_proj/bn"
  type: "BN"
  bottom: "conv2_1_1x1_proj"
  top: "conv2_1_1x1_proj"
  param {
    lr_mult: 1
    decay_mult: 0
  }
  param {
    lr_mult: 1
    decay_mult: 0
  }
  param {
    lr_mult: 0
    decay_mult: 0
  }
  param {
    lr_mult: 0
    decay_mult: 0
  }
  bn_param {
    slope_filler {
      type: "constant"
      value: 1
    }
    bias_filler {
      type: "constant"
      value: 0
    }
    momentum: 0.95
    frozen: true
  }
}
layer {
  name: "conv2_1"
  type: "Eltwise"
  bottom: "conv2_1_1x1_proj"
  bottom: "conv2_1_1x1_increase"
  top: "conv2_1"
  eltwise_param {
    operation: SUM
  }
}
layer {
  name: "conv2_1/relu"
  type: "ReLU"
  bottom: "conv2_1"
  top: "conv2_1"
}
layer {
  name: "conv2_2_1x1_reduce"
  type: "Convolution"
  bottom: "conv2_1"
  top: "conv2_2_1x1_reduce"
  param {
    lr_mult: 1
    decay_mult: 1
  }
  convolution_param {
    num_output: 64
    bias_term: false
    pad: 0
    kernel_size: 1
    stride: 1
    weight_filler {
      type: "msra"
    }
  }
}
layer {
  name: "conv2_2_1x1_reduce/bn"
  type: "BN"
  bottom: "conv2_2_1x1_reduce"
  top: "conv2_2_1x1_reduce"
  param {
    lr_mult: 1
    decay_mult: 0
  }
  param {
    lr_mult: 1
    decay_mult: 0
  }
  param {
    lr_mult: 0
    decay_mult: 0
  }
  param {
    lr_mult: 0
    decay_mult: 0
  }
  bn_param {
    slope_filler {
      type: "constant"
      value: 1
    }
    bias_filler {
      type: "constant"
      value: 0
    }
    momentum: 0.95
    frozen: true
  }
}
layer {
  name: "conv2_2_1x1_reduce/relu"
  type: "ReLU"
  bottom: "conv2_2_1x1_reduce"
  top: "conv2_2_1x1_reduce"
}
layer {
  name: "conv2_2_3x3"
  type: "Convolution"
  bottom: "conv2_2_1x1_reduce"
  top: "conv2_2_3x3"
  param {
    lr_mult: 1
    decay_mult: 1
  }
  convolution_param {
    num_output: 64
    bias_term: false
    pad: 1
    kernel_size: 3
    stride: 1
    weight_filler {
      type: "msra"
    }
  }
}
layer {
  name: "conv2_2_3x3/bn"
  type: "BN"
  bottom: "conv2_2_3x3"
  top: "conv2_2_3x3"
  param {
    lr_mult: 1
    decay_mult: 0
  }
  param {
    lr_mult: 1
    decay_mult: 0
  }
  param {
    lr_mult: 0
    decay_mult: 0
  }
  param {
    lr_mult: 0
    decay_mult: 0
  }
  bn_param {
    slope_filler {
      type: "constant"
      value: 1
    }
    bias_filler {
      type: "constant"
      value: 0
    }
    momentum: 0.95
    frozen: true
  }
}
layer {
  name: "conv2_2_3x3/relu"
  type: "ReLU"
  bottom: "conv2_2_3x3"
  top: "conv2_2_3x3"
}
layer {
  name: "conv2_2_1x1_increase"
  type: "Convolution"
  bottom: "conv2_2_3x3"
  top: "conv2_2_1x1_increase"
  param {
    lr_mult: 1
    decay_mult: 1
  }
  convolution_param {
    num_output: 256
    bias_term: false
    pad: 0
    kernel_size: 1
    stride: 1
    weight_filler {
      type: "msra"
    }
  }
}
layer {
  name: "conv2_2_1x1_increase/bn"
  type: "BN"
  bottom: "conv2_2_1x1_increase"
  top: "conv2_2_1x1_increase"
  param {
    lr_mult: 1
    decay_mult: 0
  }
  param {
    lr_mult: 1
    decay_mult: 0
  }
  param {
    lr_mult: 0
    decay_mult: 0
  }
  param {
    lr_mult: 0
    decay_mult: 0
  }
  bn_param {
    slope_filler {
      type: "constant"
      value: 1
    }
    bias_filler {
      type: "constant"
      value: 0
    }
    momentum: 0.95
    frozen: true
  }
}
layer {
  name: "conv2_2"
  type: "Eltwise"
  bottom: "conv2_1"
  bottom: "conv2_2_1x1_increase"
  top: "conv2_2"
  eltwise_param {
    operation: SUM
  }
}
layer {
  name: "conv2_2/relu"
  type: "ReLU"
  bottom: "conv2_2"
  top: "conv2_2"
}
layer {
  name: "conv2_3_1x1_reduce"
  type: "Convolution"
  bottom: "conv2_2"
  top: "conv2_3_1x1_reduce"
  param {
    lr_mult: 1
    decay_mult: 1
  }
  convolution_param {
    num_output: 64
    bias_term: false
    pad: 0
    kernel_size: 1
    stride: 1
    weight_filler {
      type: "msra"
    }
  }
}
layer {
  name: "conv2_3_1x1_reduce/bn"
  type: "BN"
  bottom: "conv2_3_1x1_reduce"
  top: "conv2_3_1x1_reduce"
  param {
    lr_mult: 1
    decay_mult: 0
  }
  param {
    lr_mult: 1
    decay_mult: 0
  }
  param {
    lr_mult: 0
    decay_mult: 0
  }
  param {
    lr_mult: 0
    decay_mult: 0
  }
  bn_param {
    slope_filler {
      type: "constant"
      value: 1
    }
    bias_filler {
      type: "constant"
      value: 0
    }
    momentum: 0.95
    frozen: true
  }
}
layer {
  name: "conv2_3_1x1_reduce/relu"
  type: "ReLU"
  bottom: "conv2_3_1x1_reduce"
  top: "conv2_3_1x1_reduce"
}
layer {
  name: "conv2_3_3x3"
  type: "Convolution"
  bottom: "conv2_3_1x1_reduce"
  top: "conv2_3_3x3"
  param {
    lr_mult: 1
    decay_mult: 1
  }
  convolution_param {
    num_output: 64
    bias_term: false
    pad: 1
    kernel_size: 3
    stride: 1
    weight_filler {
      type: "msra"
    }
  }
}
layer {
  name: "conv2_3_3x3/bn"
  type: "BN"
  bottom: "conv2_3_3x3"
  top: "conv2_3_3x3"
  param {
    lr_mult: 1
    decay_mult: 0
  }
  param {
    lr_mult: 1
    decay_mult: 0
  }
  param {
    lr_mult: 0
    decay_mult: 0
  }
  param {
    lr_mult: 0
    decay_mult: 0
  }
  bn_param {
    slope_filler {
      type: "constant"
      value: 1
    }
    bias_filler {
      type: "constant"
      value: 0
    }
    momentum: 0.95
    frozen: true
  }
}
layer {
  name: "conv2_3_3x3/relu"
  type: "ReLU"
  bottom: "conv2_3_3x3"
  top: "conv2_3_3x3"
}
layer {
  name: "conv2_3_1x1_increase"
  type: "Convolution"
  bottom: "conv2_3_3x3"
  top: "conv2_3_1x1_increase"
  param {
    lr_mult: 1
    decay_mult: 1
  }
  convolution_param {
    num_output: 256
    bias_term: false
    pad: 0
    kernel_size: 1
    stride: 1
    weight_filler {
      type: "msra"
    }
  }
}
layer {
  name: "conv2_3_1x1_increase/bn"
  type: "BN"
  bottom: "conv2_3_1x1_increase"
  top: "conv2_3_1x1_increase"
  param {
    lr_mult: 1
    decay_mult: 0
  }
  param {
    lr_mult: 1
    decay_mult: 0
  }
  param {
    lr_mult: 0
    decay_mult: 0
  }
  param {
    lr_mult: 0
    decay_mult: 0
  }
  bn_param {
    slope_filler {
      type: "constant"
      value: 1
    }
    bias_filler {
      type: "constant"
      value: 0
    }
    momentum: 0.95
    frozen: true
  }
}
layer {
  name: "conv2_3"
  type: "Eltwise"
  bottom: "conv2_2"
  bottom: "conv2_3_1x1_increase"
  top: "conv2_3"
  eltwise_param {
    operation: SUM
  }
}
layer {
  name: "conv2_3/relu"
  type: "ReLU"
  bottom: "conv2_3"
  top: "conv2_3"
}
layer {
  name: "conv3_1_1x1_reduce"
  type: "Convolution"
  bottom: "conv2_3"
  top: "conv3_1_1x1_reduce"
  param {
    lr_mult: 1
    decay_mult: 1
  }
  convolution_param {
    num_output: 128
    bias_term: false
    pad: 0
    kernel_size: 1
    stride: 1
    weight_filler {
      type: "msra"
    }
  }
}
layer {
  name: "conv3_1_1x1_reduce/bn"
  type: "BN"
  bottom: "conv3_1_1x1_reduce"
  top: "conv3_1_1x1_reduce"
  param {
    lr_mult: 1
    decay_mult: 0
  }
  param {
    lr_mult: 1
    decay_mult: 0
  }
  param {
    lr_mult: 0
    decay_mult: 0
  }
  param {
    lr_mult: 0
    decay_mult: 0
  }
  bn_param {
    slope_filler {
      type: "constant"
      value: 1
    }
    bias_filler {
      type: "constant"
      value: 0
    }
    momentum: 0.95
    frozen: true
  }
}
layer {
  name: "conv3_1_1x1_reduce/relu"
  type: "ReLU"
  bottom: "conv3_1_1x1_reduce"
  top: "conv3_1_1x1_reduce"
}
layer {
  name: "conv3_1_3x3"
  type: "Convolution"
  bottom: "conv3_1_1x1_reduce"
  top: "conv3_1_3x3"
  param {
    lr_mult: 1
    decay_mult: 1
  }
  convolution_param {
    num_output: 128
    bias_term: false
    pad: 1
    kernel_size: 3
    stride: 2
    weight_filler {
      type: "msra"
    }
  }
}
layer {
  name: "conv3_1_3x3/bn"
  type: "BN"
  bottom: "conv3_1_3x3"
  top: "conv3_1_3x3"
  param {
    lr_mult: 1
    decay_mult: 0
  }
  param {
    lr_mult: 1
    decay_mult: 0
  }
  param {
    lr_mult: 0
    decay_mult: 0
  }
  param {
    lr_mult: 0
    decay_mult: 0
  }
  bn_param {
    slope_filler {
      type: "constant"
      value: 1
    }
    bias_filler {
      type: "constant"
      value: 0
    }
    momentum: 0.95
    frozen: true
  }
}
layer {
  name: "conv3_1_3x3/relu"
  type: "ReLU"
  bottom: "conv3_1_3x3"
  top: "conv3_1_3x3"
}
layer {
  name: "conv3_1_1x1_increase"
  type: "Convolution"
  bottom: "conv3_1_3x3"
  top: "conv3_1_1x1_increase"
  param {
    lr_mult: 1
    decay_mult: 1
  }
  convolution_param {
    num_output: 512
    bias_term: false
    pad: 0
    kernel_size: 1
    stride: 1
    weight_filler {
      type: "msra"
    }
  }
}
layer {
  name: "conv3_1_1x1_increase/bn"
  type: "BN"
  bottom: "conv3_1_1x1_increase"
  top: "conv3_1_1x1_increase"
  param {
    lr_mult: 1
    decay_mult: 0
  }
  param {
    lr_mult: 1
    decay_mult: 0
  }
  param {
    lr_mult: 0
    decay_mult: 0
  }
  param {
    lr_mult: 0
    decay_mult: 0
  }
  bn_param {
    slope_filler {
      type: "constant"
      value: 1
    }
    bias_filler {
      type: "constant"
      value: 0
    }
    momentum: 0.95
    frozen: true
  }
}
layer {
  name: "conv3_1_1x1_proj"
  type: "Convolution"
  bottom: "conv2_3"
  top: "conv3_1_1x1_proj"
  param {
    lr_mult: 1
    decay_mult: 1
  }
  convolution_param {
    num_output: 512
    bias_term: false
    pad: 0
    kernel_size: 1
    stride: 2
    weight_filler {
      type: "msra"
    }
  }
}
layer {
  name: "conv3_1_1x1_proj/bn"
  type: "BN"
  bottom: "conv3_1_1x1_proj"
  top: "conv3_1_1x1_proj"
  param {
    lr_mult: 1
    decay_mult: 0
  }
  param {
    lr_mult: 1
    decay_mult: 0
  }
  param {
    lr_mult: 0
    decay_mult: 0
  }
  param {
    lr_mult: 0
    decay_mult: 0
  }
  bn_param {
    slope_filler {
      type: "constant"
      value: 1
    }
    bias_filler {
      type: "constant"
      value: 0
    }
    momentum: 0.95
    frozen: true
  }
}
layer {
  name: "conv3_1"
  type: "Eltwise"
  bottom: "conv3_1_1x1_proj"
  bottom: "conv3_1_1x1_increase"
  top: "conv3_1"
  eltwise_param {
    operation: SUM
  }
}
layer {
  name: "conv3_1/relu"
  type: "ReLU"
  bottom: "conv3_1"
  top: "conv3_1"
}
layer {
  name: "conv3_2_1x1_reduce"
  type: "Convolution"
  bottom: "conv3_1"
  top: "conv3_2_1x1_reduce"
  param {
    lr_mult: 1
    decay_mult: 1
  }
  convolution_param {
    num_output: 128
    bias_term: false
    pad: 0
    kernel_size: 1
    stride: 1
    weight_filler {
      type: "msra"
    }
  }
}
layer {
  name: "conv3_2_1x1_reduce/bn"
  type: "BN"
  bottom: "conv3_2_1x1_reduce"
  top: "conv3_2_1x1_reduce"
  param {
    lr_mult: 1
    decay_mult: 0
  }
  param {
    lr_mult: 1
    decay_mult: 0
  }
  param {
    lr_mult: 0
    decay_mult: 0
  }
  param {
    lr_mult: 0
    decay_mult: 0
  }
  bn_param {
    slope_filler {
      type: "constant"
      value: 1
    }
    bias_filler {
      type: "constant"
      value: 0
    }
    momentum: 0.95
    frozen: true
  }
}
layer {
  name: "conv3_2_1x1_reduce/relu"
  type: "ReLU"
  bottom: "conv3_2_1x1_reduce"
  top: "conv3_2_1x1_reduce"
}
layer {
  name: "conv3_2_3x3"
  type: "Convolution"
  bottom: "conv3_2_1x1_reduce"
  top: "conv3_2_3x3"
  param {
    lr_mult: 1
    decay_mult: 1
  }
  convolution_param {
    num_output: 128
    bias_term: false
    pad: 1
    kernel_size: 3
    stride: 1
    weight_filler {
      type: "msra"
    }
  }
}
layer {
  name: "conv3_2_3x3/bn"
  type: "BN"
  bottom: "conv3_2_3x3"
  top: "conv3_2_3x3"
  param {
    lr_mult: 1
    decay_mult: 0
  }
  param {
    lr_mult: 1
    decay_mult: 0
  }
  param {
    lr_mult: 0
    decay_mult: 0
  }
  param {
    lr_mult: 0
    decay_mult: 0
  }
  bn_param {
    slope_filler {
      type: "constant"
      value: 1
    }
    bias_filler {
      type: "constant"
      value: 0
    }
    momentum: 0.95
    frozen: true
  }
}
layer {
  name: "conv3_2_3x3/relu"
  type: "ReLU"
  bottom: "conv3_2_3x3"
  top: "conv3_2_3x3"
}
layer {
  name: "conv3_2_1x1_increase"
  type: "Convolution"
  bottom: "conv3_2_3x3"
  top: "conv3_2_1x1_increase"
  param {
    lr_mult: 1
    decay_mult: 1
  }
  convolution_param {
    num_output: 512
    bias_term: false
    pad: 0
    kernel_size: 1
    stride: 1
    weight_filler {
      type: "msra"
    }
  }
}
layer {
  name: "conv3_2_1x1_increase/bn"
  type: "BN"
  bottom: "conv3_2_1x1_increase"
  top: "conv3_2_1x1_increase"
  param {
    lr_mult: 1
    decay_mult: 0
  }
  param {
    lr_mult: 1
    decay_mult: 0
  }
  param {
    lr_mult: 0
    decay_mult: 0
  }
  param {
    lr_mult: 0
    decay_mult: 0
  }
  bn_param {
    slope_filler {
      type: "constant"
      value: 1
    }
    bias_filler {
      type: "constant"
      value: 0
    }
    momentum: 0.95
    frozen: true
  }
}
layer {
  name: "conv3_2"
  type: "Eltwise"
  bottom: "conv3_1"
  bottom: "conv3_2_1x1_increase"
  top: "conv3_2"
  eltwise_param {
    operation: SUM
  }
}
layer {
  name: "conv3_2/relu"
  type: "ReLU"
  bottom: "conv3_2"
  top: "conv3_2"
}
layer {
  name: "conv3_3_1x1_reduce"
  type: "Convolution"
  bottom: "conv3_2"
  top: "conv3_3_1x1_reduce"
  param {
    lr_mult: 1
    decay_mult: 1
  }
  convolution_param {
    num_output: 128
    bias_term: false
    pad: 0
    kernel_size: 1
    stride: 1
    weight_filler {
      type: "msra"
    }
  }
}
layer {
  name: "conv3_3_1x1_reduce/bn"
  type: "BN"
  bottom: "conv3_3_1x1_reduce"
  top: "conv3_3_1x1_reduce"
  param {
    lr_mult: 1
    decay_mult: 0
  }
  param {
    lr_mult: 1
    decay_mult: 0
  }
  param {
    lr_mult: 0
    decay_mult: 0
  }
  param {
    lr_mult: 0
    decay_mult: 0
  }
  bn_param {
    slope_filler {
      type: "constant"
      value: 1
    }
    bias_filler {
      type: "constant"
      value: 0
    }
    momentum: 0.95
    frozen: true
  }
}
layer {
  name: "conv3_3_1x1_reduce/relu"
  type: "ReLU"
  bottom: "conv3_3_1x1_reduce"
  top: "conv3_3_1x1_reduce"
}
layer {
  name: "conv3_3_3x3"
  type: "Convolution"
  bottom: "conv3_3_1x1_reduce"
  top: "conv3_3_3x3"
  param {
    lr_mult: 1
    decay_mult: 1
  }
  convolution_param {
    num_output: 128
    bias_term: false
    pad: 1
    kernel_size: 3
    stride: 1
    weight_filler {
      type: "msra"
    }
  }
}
layer {
  name: "conv3_3_3x3/bn"
  type: "BN"
  bottom: "conv3_3_3x3"
  top: "conv3_3_3x3"
  param {
    lr_mult: 1
    decay_mult: 0
  }
  param {
    lr_mult: 1
    decay_mult: 0
  }
  param {
    lr_mult: 0
    decay_mult: 0
  }
  param {
    lr_mult: 0
    decay_mult: 0
  }
  bn_param {
    slope_filler {
      type: "constant"
      value: 1
    }
    bias_filler {
      type: "constant"
      value: 0
    }
    momentum: 0.95
    frozen: true
  }
}
layer {
  name: "conv3_3_3x3/relu"
  type: "ReLU"
  bottom: "conv3_3_3x3"
  top: "conv3_3_3x3"
}
layer {
  name: "conv3_3_1x1_increase"
  type: "Convolution"
  bottom: "conv3_3_3x3"
  top: "conv3_3_1x1_increase"
  param {
    lr_mult: 1
    decay_mult: 1
  }
  convolution_param {
    num_output: 512
    bias_term: false
    pad: 0
    kernel_size: 1
    stride: 1
    weight_filler {
      type: "msra"
    }
  }
}
layer {
  name: "conv3_3_1x1_increase/bn"
  type: "BN"
  bottom: "conv3_3_1x1_increase"
  top: "conv3_3_1x1_increase"
  param {
    lr_mult: 1
    decay_mult: 0
  }
  param {
    lr_mult: 1
    decay_mult: 0
  }
  param {
    lr_mult: 0
    decay_mult: 0
  }
  param {
    lr_mult: 0
    decay_mult: 0
  }
  bn_param {
    slope_filler {
      type: "constant"
      value: 1
    }
    bias_filler {
      type: "constant"
      value: 0
    }
    momentum: 0.95
    frozen: true
  }
}
layer {
  name: "conv3_3"
  type: "Eltwise"
  bottom: "conv3_2"
  bottom: "conv3_3_1x1_increase"
  top: "conv3_3"
  eltwise_param {
    operation: SUM
  }
}
layer {
  name: "conv3_3/relu"
  type: "ReLU"
  bottom: "conv3_3"
  top: "conv3_3"
}
layer {
  name: "conv3_4_1x1_reduce"
  type: "Convolution"
  bottom: "conv3_3"
  top: "conv3_4_1x1_reduce"
  param {
    lr_mult: 1
    decay_mult: 1
  }
  convolution_param {
    num_output: 128
    bias_term: false
    pad: 0
    kernel_size: 1
    stride: 1
    weight_filler {
      type: "msra"
    }
  }
}
layer {
  name: "conv3_4_1x1_reduce/bn"
  type: "BN"
  bottom: "conv3_4_1x1_reduce"
  top: "conv3_4_1x1_reduce"
  param {
    lr_mult: 1
    decay_mult: 0
  }
  param {
    lr_mult: 1
    decay_mult: 0
  }
  param {
    lr_mult: 0
    decay_mult: 0
  }
  param {
    lr_mult: 0
    decay_mult: 0
  }
  bn_param {
    slope_filler {
      type: "constant"
      value: 1
    }
    bias_filler {
      type: "constant"
      value: 0
    }
    momentum: 0.95
    frozen: true
  }
}
layer {
  name: "conv3_4_1x1_reduce/relu"
  type: "ReLU"
  bottom: "conv3_4_1x1_reduce"
  top: "conv3_4_1x1_reduce"
}
layer {
  name: "conv3_4_3x3"
  type: "Convolution"
  bottom: "conv3_4_1x1_reduce"
  top: "conv3_4_3x3"
  param {
    lr_mult: 1
    decay_mult: 1
  }
  convolution_param {
    num_output: 128
    bias_term: false
    pad: 1
    kernel_size: 3
    stride: 1
    weight_filler {
      type: "msra"
    }
  }
}
layer {
  name: "conv3_4_3x3/bn"
  type: "BN"
  bottom: "conv3_4_3x3"
  top: "conv3_4_3x3"
  param {
    lr_mult: 1
    decay_mult: 0
  }
  param {
    lr_mult: 1
    decay_mult: 0
  }
  param {
    lr_mult: 0
    decay_mult: 0
  }
  param {
    lr_mult: 0
    decay_mult: 0
  }
  bn_param {
    slope_filler {
      type: "constant"
      value: 1
    }
    bias_filler {
      type: "constant"
      value: 0
    }
    momentum: 0.95
    frozen: true
  }
}
layer {
  name: "conv3_4_3x3/relu"
  type: "ReLU"
  bottom: "conv3_4_3x3"
  top: "conv3_4_3x3"
}
layer {
  name: "conv3_4_1x1_increase"
  type: "Convolution"
  bottom: "conv3_4_3x3"
  top: "conv3_4_1x1_increase"
  param {
    lr_mult: 1
    decay_mult: 1
  }
  convolution_param {
    num_output: 512
    bias_term: false
    pad: 0
    kernel_size: 1
    stride: 1
    weight_filler {
      type: "msra"
    }
  }
}
layer {
  name: "conv3_4_1x1_increase/bn"
  type: "BN"
  bottom: "conv3_4_1x1_increase"
  top: "conv3_4_1x1_increase"
  param {
    lr_mult: 1
    decay_mult: 0
  }
  param {
    lr_mult: 1
    decay_mult: 0
  }
  param {
    lr_mult: 0
    decay_mult: 0
  }
  param {
    lr_mult: 0
    decay_mult: 0
  }
  bn_param {
    slope_filler {
      type: "constant"
      value: 1
    }
    bias_filler {
      type: "constant"
      value: 0
    }
    momentum: 0.95
    frozen: true
  }
}
layer {
  name: "conv3_4"
  type: "Eltwise"
  bottom: "conv3_3"
  bottom: "conv3_4_1x1_increase"
  top: "conv3_4"
  eltwise_param {
    operation: SUM
  }
}
layer {
  name: "conv3_4/relu"
  type: "ReLU"
  bottom: "conv3_4"
  top: "conv3_4"
}
layer {
  name: "conv4_1_1x1_reduce"
  type: "Convolution"
  bottom: "conv3_4"
  top: "conv4_1_1x1_reduce"
  param {
    lr_mult: 1
    decay_mult: 1
  }
  convolution_param {
    num_output: 256
    bias_term: false
    pad: 0
    kernel_size: 1
    stride: 1
    weight_filler {
      type: "msra"
    }
  }
}
layer {
  name: "conv4_1_1x1_reduce/bn"
  type: "BN"
  bottom: "conv4_1_1x1_reduce"
  top: "conv4_1_1x1_reduce"
  param {
    lr_mult: 1
    decay_mult: 0
  }
  param {
    lr_mult: 1
    decay_mult: 0
  }
  param {
    lr_mult: 0
    decay_mult: 0
  }
  param {
    lr_mult: 0
    decay_mult: 0
  }
  bn_param {
    slope_filler {
      type: "constant"
      value: 1
    }
    bias_filler {
      type: "constant"
      value: 0
    }
    momentum: 0.95
    frozen: true
  }
}
layer {
  name: "conv4_1_1x1_reduce/relu"
  type: "ReLU"
  bottom: "conv4_1_1x1_reduce"
  top: "conv4_1_1x1_reduce"
}
layer {
  name: "conv4_1_3x3"
  type: "Convolution"
  bottom: "conv4_1_1x1_reduce"
  top: "conv4_1_3x3"
  param {
    lr_mult: 1
    decay_mult: 1
  }
  convolution_param {
    num_output: 256
    bias_term: false
    pad: 2
    kernel_size: 3
    stride: 1
    weight_filler {
      type: "msra"
    }
    dilation: 2
  }
}
layer {
  name: "conv4_1_3x3/bn"
  type: "BN"
  bottom: "conv4_1_3x3"
  top: "conv4_1_3x3"
  param {
    lr_mult: 1
    decay_mult: 0
  }
  param {
    lr_mult: 1
    decay_mult: 0
  }
  param {
    lr_mult: 0
    decay_mult: 0
  }
  param {
    lr_mult: 0
    decay_mult: 0
  }
  bn_param {
    slope_filler {
      type: "constant"
      value: 1
    }
    bias_filler {
      type: "constant"
      value: 0
    }
    momentum: 0.95
    frozen: true
  }
}
layer {
  name: "conv4_1_3x3/relu"
  type: "ReLU"
  bottom: "conv4_1_3x3"
  top: "conv4_1_3x3"
}
layer {
  name: "conv4_1_1x1_increase"
  type: "Convolution"
  bottom: "conv4_1_3x3"
  top: "conv4_1_1x1_increase"
  param {
    lr_mult: 1
    decay_mult: 1
  }
  convolution_param {
    num_output: 1024
    bias_term: false
    pad: 0
    kernel_size: 1
    stride: 1
    weight_filler {
      type: "msra"
    }
  }
}
layer {
  name: "conv4_1_1x1_increase/bn"
  type: "BN"
  bottom: "conv4_1_1x1_increase"
  top: "conv4_1_1x1_increase"
  param {
    lr_mult: 1
    decay_mult: 0
  }
  param {
    lr_mult: 1
    decay_mult: 0
  }
  param {
    lr_mult: 0
    decay_mult: 0
  }
  param {
    lr_mult: 0
    decay_mult: 0
  }
  bn_param {
    slope_filler {
      type: "constant"
      value: 1
    }
    bias_filler {
      type: "constant"
      value: 0
    }
    momentum: 0.95
    frozen: true
  }
}
layer {
  name: "conv4_1_1x1_proj"
  type: "Convolution"
  bottom: "conv3_4"
  top: "conv4_1_1x1_proj"
  param {
    lr_mult: 1
    decay_mult: 1
  }
  convolution_param {
    num_output: 1024
    bias_term: false
    pad: 0
    kernel_size: 1
    stride: 1
    weight_filler {
      type: "msra"
    }
  }
}
layer {
  name: "conv4_1_1x1_proj/bn"
  type: "BN"
  bottom: "conv4_1_1x1_proj"
  top: "conv4_1_1x1_proj"
  param {
    lr_mult: 1
    decay_mult: 0
  }
  param {
    lr_mult: 1
    decay_mult: 0
  }
  param {
    lr_mult: 0
    decay_mult: 0
  }
  param {
    lr_mult: 0
    decay_mult: 0
  }
  bn_param {
    slope_filler {
      type: "constant"
      value: 1
    }
    bias_filler {
      type: "constant"
      value: 0
    }
    momentum: 0.95
    frozen: true
  }
}
layer {
  name: "conv4_1"
  type: "Eltwise"
  bottom: "conv4_1_1x1_proj"
  bottom: "conv4_1_1x1_increase"
  top: "conv4_1"
  eltwise_param {
    operation: SUM
  }
}
layer {
  name: "conv4_1/relu"
  type: "ReLU"
  bottom: "conv4_1"
  top: "conv4_1"
}
layer {
  name: "conv4_2_1x1_reduce"
  type: "Convolution"
  bottom: "conv4_1"
  top: "conv4_2_1x1_reduce"
  param {
    lr_mult: 1
    decay_mult: 1
  }
  convolution_param {
    num_output: 256
    bias_term: false
    pad: 0
    kernel_size: 1
    stride: 1
    weight_filler {
      type: "msra"
    }
  }
}
layer {
  name: "conv4_2_1x1_reduce/bn"
  type: "BN"
  bottom: "conv4_2_1x1_reduce"
  top: "conv4_2_1x1_reduce"
  param {
    lr_mult: 1
    decay_mult: 0
  }
  param {
    lr_mult: 1
    decay_mult: 0
  }
  param {
    lr_mult: 0
    decay_mult: 0
  }
  param {
    lr_mult: 0
    decay_mult: 0
  }
  bn_param {
    slope_filler {
      type: "constant"
      value: 1
    }
    bias_filler {
      type: "constant"
      value: 0
    }
    momentum: 0.95
    frozen: true
  }
}
layer {
  name: "conv4_2_1x1_reduce/relu"
  type: "ReLU"
  bottom: "conv4_2_1x1_reduce"
  top: "conv4_2_1x1_reduce"
}
layer {
  name: "conv4_2_3x3"
  type: "Convolution"
  bottom: "conv4_2_1x1_reduce"
  top: "conv4_2_3x3"
  param {
    lr_mult: 1
    decay_mult: 1
  }
  convolution_param {
    num_output: 256
    bias_term: false
    pad: 2
    kernel_size: 3
    stride: 1
    weight_filler {
      type: "msra"
    }
    dilation: 2
  }
}
layer {
  name: "conv4_2_3x3/bn"
  type: "BN"
  bottom: "conv4_2_3x3"
  top: "conv4_2_3x3"
  param {
    lr_mult: 1
    decay_mult: 0
  }
  param {
    lr_mult: 1
    decay_mult: 0
  }
  param {
    lr_mult: 0
    decay_mult: 0
  }
  param {
    lr_mult: 0
    decay_mult: 0
  }
  bn_param {
    slope_filler {
      type: "constant"
      value: 1
    }
    bias_fille
I0620 16:07:19.215507  6278 layer_factory.hpp:77] Creating layer data
I0620 16:07:19.216141  6278 net.cpp:106] Creating Layer data
I0620 16:07:19.216151  6278 net.cpp:411] data -> data
I0620 16:07:19.216174  6278 net.cpp:411] data -> label
I0620 16:07:19.216184  6278 net.cpp:411] data -> (automatic)
I0620 16:07:19.217052  6278 image_seg_data_layer.cpp:46] Opening file exper/voc12/list/train_aug.txt
I0620 16:07:19.223963  6278 image_seg_data_layer.cpp:63] Shuffling data
I0620 16:07:19.224983  6278 image_seg_data_layer.cpp:68] A total of 10582 images.
I0620 16:07:19.281172  6278 image_seg_data_layer.cpp:137] output data size: 1,3,473,473
I0620 16:07:19.281190  6278 image_seg_data_layer.cpp:141] output label size: 1,1,473,473
I0620 16:07:19.281193  6278 image_seg_data_layer.cpp:145] output data_dim size: 1,1,1,2
I0620 16:07:19.300353  6278 net.cpp:150] Setting up data
I0620 16:07:19.300428  6278 net.cpp:157] Top shape: 1 3 473 473 (671187)
I0620 16:07:19.300438  6278 net.cpp:157] Top shape: 1 1 473 473 (223729)
I0620 16:07:19.300443  6278 net.cpp:157] Top shape: 1 1 1 2 (2)
I0620 16:07:19.300447  6278 net.cpp:165] Memory required for data: 3579672
I0620 16:07:19.300473  6278 layer_factory.hpp:77] Creating layer conv1_1_3x3_s2
I0620 16:07:19.300540  6278 net.cpp:106] Creating Layer conv1_1_3x3_s2
I0620 16:07:19.300550  6278 net.cpp:454] conv1_1_3x3_s2 <- data
I0620 16:07:19.300575  6278 net.cpp:411] conv1_1_3x3_s2 -> conv1_1_3x3_s2
I0620 16:07:19.304898  6278 net.cpp:150] Setting up conv1_1_3x3_s2
I0620 16:07:19.305016  6278 net.cpp:157] Top shape: 1 64 237 237 (3594816)
I0620 16:07:19.305027  6278 net.cpp:165] Memory required for data: 17958936
I0620 16:07:19.305059  6278 layer_factory.hpp:77] Creating layer conv1_1_3x3_s2/bn
I0620 16:07:19.305096  6278 net.cpp:106] Creating Layer conv1_1_3x3_s2/bn
I0620 16:07:19.305109  6278 net.cpp:454] conv1_1_3x3_s2/bn <- conv1_1_3x3_s2
I0620 16:07:19.305132  6278 net.cpp:397] conv1_1_3x3_s2/bn -> conv1_1_3x3_s2 (in-place)
I0620 16:07:19.306673  6278 net.cpp:150] Setting up conv1_1_3x3_s2/bn
I0620 16:07:19.306694  6278 net.cpp:157] Top shape: 1 64 237 237 (3594816)
I0620 16:07:19.306697  6278 net.cpp:165] Memory required for data: 32338200
I0620 16:07:19.306752  6278 layer_factory.hpp:77] Creating layer conv1_1_3x3_s2/relu
I0620 16:07:19.306772  6278 net.cpp:106] Creating Layer conv1_1_3x3_s2/relu
I0620 16:07:19.306777  6278 net.cpp:454] conv1_1_3x3_s2/relu <- conv1_1_3x3_s2
I0620 16:07:19.306785  6278 net.cpp:397] conv1_1_3x3_s2/relu -> conv1_1_3x3_s2 (in-place)
I0620 16:07:19.307822  6278 net.cpp:150] Setting up conv1_1_3x3_s2/relu
I0620 16:07:19.307832  6278 net.cpp:157] Top shape: 1 64 237 237 (3594816)
I0620 16:07:19.307837  6278 net.cpp:165] Memory required for data: 46717464
I0620 16:07:19.307842  6278 layer_factory.hpp:77] Creating layer conv1_2_3x3
I0620 16:07:19.307855  6278 net.cpp:106] Creating Layer conv1_2_3x3
I0620 16:07:19.307858  6278 net.cpp:454] conv1_2_3x3 <- conv1_1_3x3_s2
I0620 16:07:19.307863  6278 net.cpp:411] conv1_2_3x3 -> conv1_2_3x3
I0620 16:07:19.309250  6278 net.cpp:150] Setting up conv1_2_3x3
I0620 16:07:19.309278  6278 net.cpp:157] Top shape: 1 64 237 237 (3594816)
I0620 16:07:19.309286  6278 net.cpp:165] Memory required for data: 61096728
I0620 16:07:19.309298  6278 layer_factory.hpp:77] Creating layer conv1_2_3x3/bn
I0620 16:07:19.309312  6278 net.cpp:106] Creating Layer conv1_2_3x3/bn
I0620 16:07:19.309319  6278 net.cpp:454] conv1_2_3x3/bn <- conv1_2_3x3
I0620 16:07:19.309325  6278 net.cpp:397] conv1_2_3x3/bn -> conv1_2_3x3 (in-place)
I0620 16:07:19.309532  6278 net.cpp:150] Setting up conv1_2_3x3/bn
I0620 16:07:19.309540  6278 net.cpp:157] Top shape: 1 64 237 237 (3594816)
I0620 16:07:19.309545  6278 net.cpp:165] Memory required for data: 75475992
I0620 16:07:19.309553  6278 layer_factory.hpp:77] Creating layer conv1_2_3x3/relu
I0620 16:07:19.309561  6278 net.cpp:106] Creating Layer conv1_2_3x3/relu
I0620 16:07:19.309563  6278 net.cpp:454] conv1_2_3x3/relu <- conv1_2_3x3
I0620 16:07:19.309567  6278 net.cpp:397] conv1_2_3x3/relu -> conv1_2_3x3 (in-place)
I0620 16:07:19.309572  6278 net.cpp:150] Setting up conv1_2_3x3/relu
I0620 16:07:19.309576  6278 net.cpp:157] Top shape: 1 64 237 237 (3594816)
I0620 16:07:19.309578  6278 net.cpp:165] Memory required for data: 89855256
I0620 16:07:19.309581  6278 layer_factory.hpp:77] Creating layer conv1_3_3x3
I0620 16:07:19.309587  6278 net.cpp:106] Creating Layer conv1_3_3x3
I0620 16:07:19.309589  6278 net.cpp:454] conv1_3_3x3 <- conv1_2_3x3
I0620 16:07:19.309593  6278 net.cpp:411] conv1_3_3x3 -> conv1_3_3x3
I0620 16:07:19.311673  6278 net.cpp:150] Setting up conv1_3_3x3
I0620 16:07:19.311733  6278 net.cpp:157] Top shape: 1 128 237 237 (7189632)
I0620 16:07:19.311740  6278 net.cpp:165] Memory required for data: 118613784
I0620 16:07:19.311763  6278 layer_factory.hpp:77] Creating layer conv1_3_3x3/bn
I0620 16:07:19.311789  6278 net.cpp:106] Creating Layer conv1_3_3x3/bn
I0620 16:07:19.311799  6278 net.cpp:454] conv1_3_3x3/bn <- conv1_3_3x3
I0620 16:07:19.311810  6278 net.cpp:397] conv1_3_3x3/bn -> conv1_3_3x3 (in-place)
I0620 16:07:19.312095  6278 net.cpp:150] Setting up conv1_3_3x3/bn
I0620 16:07:19.312103  6278 net.cpp:157] Top shape: 1 128 237 237 (7189632)
I0620 16:07:19.312108  6278 net.cpp:165] Memory required for data: 147372312
I0620 16:07:19.312116  6278 layer_factory.hpp:77] Creating layer conv1_3_3x3/relu
I0620 16:07:19.312129  6278 net.cpp:106] Creating Layer conv1_3_3x3/relu
I0620 16:07:19.312132  6278 net.cpp:454] conv1_3_3x3/relu <- conv1_3_3x3
I0620 16:07:19.312139  6278 net.cpp:397] conv1_3_3x3/relu -> conv1_3_3x3 (in-place)
I0620 16:07:19.312145  6278 net.cpp:150] Setting up conv1_3_3x3/relu
I0620 16:07:19.312150  6278 net.cpp:157] Top shape: 1 128 237 237 (7189632)
I0620 16:07:19.312155  6278 net.cpp:165] Memory required for data: 176130840
I0620 16:07:19.312160  6278 layer_factory.hpp:77] Creating layer pool1_3x3_s2
I0620 16:07:19.312167  6278 net.cpp:106] Creating Layer pool1_3x3_s2
I0620 16:07:19.312171  6278 net.cpp:454] pool1_3x3_s2 <- conv1_3_3x3
I0620 16:07:19.312177  6278 net.cpp:411] pool1_3x3_s2 -> pool1_3x3_s2
I0620 16:07:19.312224  6278 net.cpp:150] Setting up pool1_3x3_s2
I0620 16:07:19.312232  6278 net.cpp:157] Top shape: 1 128 119 119 (1812608)
I0620 16:07:19.312276  6278 net.cpp:165] Memory required for data: 183381272
I0620 16:07:19.312281  6278 layer_factory.hpp:77] Creating layer pool1_3x3_s2_pool1_3x3_s2_0_split
I0620 16:07:19.312512  6278 net.cpp:106] Creating Layer pool1_3x3_s2_pool1_3x3_s2_0_split
I0620 16:07:19.312520  6278 net.cpp:454] pool1_3x3_s2_pool1_3x3_s2_0_split <- pool1_3x3_s2
I0620 16:07:19.312525  6278 net.cpp:411] pool1_3x3_s2_pool1_3x3_s2_0_split -> pool1_3x3_s2_pool1_3x3_s2_0_split_0
I0620 16:07:19.312531  6278 net.cpp:411] pool1_3x3_s2_pool1_3x3_s2_0_split -> pool1_3x3_s2_pool1_3x3_s2_0_split_1
I0620 16:07:19.312569  6278 net.cpp:150] Setting up pool1_3x3_s2_pool1_3x3_s2_0_split
I0620 16:07:19.312577  6278 net.cpp:157] Top shape: 1 128 119 119 (1812608)
I0620 16:07:19.312582  6278 net.cpp:157] Top shape: 1 128 119 119 (1812608)
I0620 16:07:19.312587  6278 net.cpp:165] Memory required for data: 197882136
I0620 16:07:19.312590  6278 layer_factory.hpp:77] Creating layer conv2_1_1x1_reduce
I0620 16:07:19.312604  6278 net.cpp:106] Creating Layer conv2_1_1x1_reduce
I0620 16:07:19.312608  6278 net.cpp:454] conv2_1_1x1_reduce <- pool1_3x3_s2_pool1_3x3_s2_0_split_0
I0620 16:07:19.312616  6278 net.cpp:411] conv2_1_1x1_reduce -> conv2_1_1x1_reduce
I0620 16:07:19.314219  6278 net.cpp:150] Setting up conv2_1_1x1_reduce
I0620 16:07:19.314234  6278 net.cpp:157] Top shape: 1 64 119 119 (906304)
I0620 16:07:19.314239  6278 net.cpp:165] Memory required for data: 201507352
I0620 16:07:19.314246  6278 layer_factory.hpp:77] Creating layer conv2_1_1x1_reduce/bn
I0620 16:07:19.314260  6278 net.cpp:106] Creating Layer conv2_1_1x1_reduce/bn
I0620 16:07:19.314265  6278 net.cpp:454] conv2_1_1x1_reduce/bn <- conv2_1_1x1_reduce
I0620 16:07:19.314272  6278 net.cpp:397] conv2_1_1x1_reduce/bn -> conv2_1_1x1_reduce (in-place)
I0620 16:07:19.314465  6278 net.cpp:150] Setting up conv2_1_1x1_reduce/bn
I0620 16:07:19.314471  6278 net.cpp:157] Top shape: 1 64 119 119 (906304)
I0620 16:07:19.314476  6278 net.cpp:165] Memory required for data: 205132568
I0620 16:07:19.314491  6278 layer_factory.hpp:77] Creating layer conv2_1_1x1_reduce/relu
I0620 16:07:19.314499  6278 net.cpp:106] Creating Layer conv2_1_1x1_reduce/relu
I0620 16:07:19.314504  6278 net.cpp:454] conv2_1_1x1_reduce/relu <- conv2_1_1x1_reduce
I0620 16:07:19.314509  6278 net.cpp:397] conv2_1_1x1_reduce/relu -> conv2_1_1x1_reduce (in-place)
I0620 16:07:19.314517  6278 net.cpp:150] Setting up conv2_1_1x1_reduce/relu
I0620 16:07:19.314522  6278 net.cpp:157] Top shape: 1 64 119 119 (906304)
I0620 16:07:19.314525  6278 net.cpp:165] Memory required for data: 208757784
I0620 16:07:19.314530  6278 layer_factory.hpp:77] Creating layer conv2_1_3x3
I0620 16:07:19.314540  6278 net.cpp:106] Creating Layer conv2_1_3x3
I0620 16:07:19.314544  6278 net.cpp:454] conv2_1_3x3 <- conv2_1_1x1_reduce
I0620 16:07:19.314551  6278 net.cpp:411] conv2_1_3x3 -> conv2_1_3x3
I0620 16:07:19.315733  6278 net.cpp:150] Setting up conv2_1_3x3
I0620 16:07:19.315740  6278 net.cpp:157] Top shape: 1 64 119 119 (906304)
I0620 16:07:19.315745  6278 net.cpp:165] Memory required for data: 212383000
I0620 16:07:19.315750  6278 layer_factory.hpp:77] Creating layer conv2_1_3x3/bn
I0620 16:07:19.315762  6278 net.cpp:106] Creating Layer conv2_1_3x3/bn
I0620 16:07:19.315768  6278 net.cpp:454] conv2_1_3x3/bn <- conv2_1_3x3
I0620 16:07:19.315773  6278 net.cpp:397] conv2_1_3x3/bn -> conv2_1_3x3 (in-place)
I0620 16:07:19.315953  6278 net.cpp:150] Setting up conv2_1_3x3/bn
I0620 16:07:19.315963  6278 net.cpp:157] Top shape: 1 64 119 119 (906304)
I0620 16:07:19.315968  6278 net.cpp:165] Memory required for data: 216008216
I0620 16:07:19.315979  6278 layer_factory.hpp:77] Creating layer conv2_1_3x3/relu
I0620 16:07:19.315984  6278 net.cpp:106] Creating Layer conv2_1_3x3/relu
I0620 16:07:19.315989  6278 net.cpp:454] conv2_1_3x3/relu <- conv2_1_3x3
I0620 16:07:19.315994  6278 net.cpp:397] conv2_1_3x3/relu -> conv2_1_3x3 (in-place)
I0620 16:07:19.315999  6278 net.cpp:150] Setting up conv2_1_3x3/relu
I0620 16:07:19.316004  6278 net.cpp:157] Top shape: 1 64 119 119 (906304)
I0620 16:07:19.316025  6278 net.cpp:165] Memory required for data: 219633432
I0620 16:07:19.316030  6278 layer_factory.hpp:77] Creating layer conv2_1_1x1_increase
I0620 16:07:19.316040  6278 net.cpp:106] Creating Layer conv2_1_1x1_increase
I0620 16:07:19.316045  6278 net.cpp:454] conv2_1_1x1_increase <- conv2_1_3x3
I0620 16:07:19.316049  6278 net.cpp:411] conv2_1_1x1_increase -> conv2_1_1x1_increase
I0620 16:07:19.316639  6278 net.cpp:150] Setting up conv2_1_1x1_increase
I0620 16:07:19.316648  6278 net.cpp:157] Top shape: 1 256 119 119 (3625216)
I0620 16:07:19.316651  6278 net.cpp:165] Memory required for data: 234134296
I0620 16:07:19.316658  6278 layer_factory.hpp:77] Creating layer conv2_1_1x1_increase/bn
I0620 16:07:19.316664  6278 net.cpp:106] Creating Layer conv2_1_1x1_increase/bn
I0620 16:07:19.316668  6278 net.cpp:454] conv2_1_1x1_increase/bn <- conv2_1_1x1_increase
I0620 16:07:19.316673  6278 net.cpp:397] conv2_1_1x1_increase/bn -> conv2_1_1x1_increase (in-place)
I0620 16:07:19.316833  6278 net.cpp:150] Setting up conv2_1_1x1_increase/bn
I0620 16:07:19.316839  6278 net.cpp:157] Top shape: 1 256 119 119 (3625216)
I0620 16:07:19.316843  6278 net.cpp:165] Memory required for data: 248635160
I0620 16:07:19.316851  6278 layer_factory.hpp:77] Creating layer conv2_1_1x1_proj
I0620 16:07:19.316859  6278 net.cpp:106] Creating Layer conv2_1_1x1_proj
I0620 16:07:19.316864  6278 net.cpp:454] conv2_1_1x1_proj <- pool1_3x3_s2_pool1_3x3_s2_0_split_1
I0620 16:07:19.316869  6278 net.cpp:411] conv2_1_1x1_proj -> conv2_1_1x1_proj
I0620 16:07:19.318415  6278 net.cpp:150] Setting up conv2_1_1x1_proj
I0620 16:07:19.318423  6278 net.cpp:157] Top shape: 1 256 119 119 (3625216)
I0620 16:07:19.318428  6278 net.cpp:165] Memory required for data: 263136024
I0620 16:07:19.318434  6278 layer_factory.hpp:77] Creating layer conv2_1_1x1_proj/bn
I0620 16:07:19.318441  6278 net.cpp:106] Creating Layer conv2_1_1x1_proj/bn
I0620 16:07:19.318445  6278 net.cpp:454] conv2_1_1x1_proj/bn <- conv2_1_1x1_proj
I0620 16:07:19.318451  6278 net.cpp:397] conv2_1_1x1_proj/bn -> conv2_1_1x1_proj (in-place)
I0620 16:07:19.318868  6278 net.cpp:150] Setting up conv2_1_1x1_proj/bn
I0620 16:07:19.318876  6278 net.cpp:157] Top shape: 1 256 119 119 (3625216)
I0620 16:07:19.318878  6278 net.cpp:165] Memory required for data: 277636888
I0620 16:07:19.318888  6278 layer_factory.hpp:77] Creating layer conv2_1
I0620 16:07:19.319747  6278 net.cpp:106] Creating Layer conv2_1
I0620 16:07:19.319752  6278 net.cpp:454] conv2_1 <- conv2_1_1x1_proj
I0620 16:07:19.319758  6278 net.cpp:454] conv2_1 <- conv2_1_1x1_increase
I0620 16:07:19.319763  6278 net.cpp:411] conv2_1 -> conv2_1
I0620 16:07:19.320719  6278 net.cpp:150] Setting up conv2_1
I0620 16:07:19.320729  6278 net.cpp:157] Top shape: 1 256 119 119 (3625216)
I0620 16:07:19.320734  6278 net.cpp:165] Memory required for data: 292137752
I0620 16:07:19.320737  6278 layer_factory.hpp:77] Creating layer conv2_1/relu
I0620 16:07:19.320744  6278 net.cpp:106] Creating Layer conv2_1/relu
I0620 16:07:19.320749  6278 net.cpp:454] conv2_1/relu <- conv2_1
I0620 16:07:19.320755  6278 net.cpp:397] conv2_1/relu -> conv2_1 (in-place)
I0620 16:07:19.320760  6278 net.cpp:150] Setting up conv2_1/relu
I0620 16:07:19.320766  6278 net.cpp:157] Top shape: 1 256 119 119 (3625216)
I0620 16:07:19.320770  6278 net.cpp:165] Memory required for data: 306638616
I0620 16:07:19.320773  6278 layer_factory.hpp:77] Creating layer conv2_1_conv2_1/relu_0_split
I0620 16:07:19.320780  6278 net.cpp:106] Creating Layer conv2_1_conv2_1/relu_0_split
I0620 16:07:19.320782  6278 net.cpp:454] conv2_1_conv2_1/relu_0_split <- conv2_1
I0620 16:07:19.320786  6278 net.cpp:411] conv2_1_conv2_1/relu_0_split -> conv2_1_conv2_1/relu_0_split_0
I0620 16:07:19.320791  6278 net.cpp:411] conv2_1_conv2_1/relu_0_split -> conv2_1_conv2_1/relu_0_split_1
I0620 16:07:19.320812  6278 net.cpp:150] Setting up conv2_1_conv2_1/relu_0_split
I0620 16:07:19.320816  6278 net.cpp:157] Top shape: 1 256 119 119 (3625216)
I0620 16:07:19.320819  6278 net.cpp:157] Top shape: 1 256 119 119 (3625216)
I0620 16:07:19.320830  6278 net.cpp:165] Memory required for data: 335640344
I0620 16:07:19.320833  6278 layer_factory.hpp:77] Creating layer conv2_2_1x1_reduce
I0620 16:07:19.320840  6278 net.cpp:106] Creating Layer conv2_2_1x1_reduce
I0620 16:07:19.320844  6278 net.cpp:454] conv2_2_1x1_reduce <- conv2_1_conv2_1/relu_0_split_0
I0620 16:07:19.320852  6278 net.cpp:411] conv2_2_1x1_reduce -> conv2_2_1x1_reduce
I0620 16:07:19.321476  6278 net.cpp:150] Setting up conv2_2_1x1_reduce
I0620 16:07:19.321485  6278 net.cpp:157] Top shape: 1 64 119 119 (906304)
I0620 16:07:19.321488  6278 net.cpp:165] Memory required for data: 339265560
I0620 16:07:19.321494  6278 layer_factory.hpp:77] Creating layer conv2_2_1x1_reduce/bn
I0620 16:07:19.321501  6278 net.cpp:106] Creating Layer conv2_2_1x1_reduce/bn
I0620 16:07:19.321506  6278 net.cpp:454] conv2_2_1x1_reduce/bn <- conv2_2_1x1_reduce
I0620 16:07:19.321511  6278 net.cpp:397] conv2_2_1x1_reduce/bn -> conv2_2_1x1_reduce (in-place)
I0620 16:07:19.321684  6278 net.cpp:150] Setting up conv2_2_1x1_reduce/bn
I0620 16:07:19.321691  6278 net.cpp:157] Top shape: 1 64 119 119 (906304)
I0620 16:07:19.321694  6278 net.cpp:165] Memory required for data: 342890776
I0620 16:07:19.321703  6278 layer_factory.hpp:77] Creating layer conv2_2_1x1_reduce/relu
I0620 16:07:19.321709  6278 net.cpp:106] Creating Layer conv2_2_1x1_reduce/relu
I0620 16:07:19.321713  6278 net.cpp:454] conv2_2_1x1_reduce/relu <- conv2_2_1x1_reduce
I0620 16:07:19.321719  6278 net.cpp:397] conv2_2_1x1_reduce/relu -> conv2_2_1x1_reduce (in-place)
I0620 16:07:19.321725  6278 net.cpp:150] Setting up conv2_2_1x1_reduce/relu
I0620 16:07:19.321730  6278 net.cpp:157] Top shape: 1 64 119 119 (906304)
I0620 16:07:19.321734  6278 net.cpp:165] Memory required for data: 346515992
I0620 16:07:19.321738  6278 layer_factory.hpp:77] Creating layer conv2_2_3x3
I0620 16:07:19.321745  6278 net.cpp:106] Creating Layer conv2_2_3x3
I0620 16:07:19.321749  6278 net.cpp:454] conv2_2_3x3 <- conv2_2_1x1_reduce
I0620 16:07:19.321756  6278 net.cpp:411] conv2_2_3x3 -> conv2_2_3x3
I0620 16:07:19.322937  6278 net.cpp:150] Setting up conv2_2_3x3
I0620 16:07:19.322943  6278 net.cpp:157] Top shape: 1 64 119 119 (906304)
I0620 16:07:19.322947  6278 net.cpp:165] Memory required for data: 350141208
I0620 16:07:19.322952  6278 layer_factory.hpp:77] Creating layer conv2_2_3x3/bn
I0620 16:07:19.322959  6278 net.cpp:106] Creating Layer conv2_2_3x3/bn
I0620 16:07:19.322963  6278 net.cpp:454] conv2_2_3x3/bn <- conv2_2_3x3
I0620 16:07:19.322968  6278 net.cpp:397] conv2_2_3x3/bn -> conv2_2_3x3 (in-place)
I0620 16:07:19.323151  6278 net.cpp:150] Setting up conv2_2_3x3/bn
I0620 16:07:19.323158  6278 net.cpp:157] Top shape: 1 64 119 119 (906304)
I0620 16:07:19.323161  6278 net.cpp:165] Memory required for data: 353766424
I0620 16:07:19.323169  6278 layer_factory.hpp:77] Creating layer conv2_2_3x3/relu
I0620 16:07:19.323176  6278 net.cpp:106] Creating Layer conv2_2_3x3/relu
I0620 16:07:19.323180  6278 net.cpp:454] conv2_2_3x3/relu <- conv2_2_3x3
I0620 16:07:19.323185  6278 net.cpp:397] conv2_2_3x3/relu -> conv2_2_3x3 (in-place)
I0620 16:07:19.323192  6278 net.cpp:150] Setting up conv2_2_3x3/relu
I0620 16:07:19.323197  6278 net.cpp:157] Top shape: 1 64 119 119 (906304)
I0620 16:07:19.323201  6278 net.cpp:165] Memory required for data: 357391640
I0620 16:07:19.323204  6278 layer_factory.hpp:77] Creating layer conv2_2_1x1_increase
I0620 16:07:19.323210  6278 net.cpp:106] Creating Layer conv2_2_1x1_increase
I0620 16:07:19.323213  6278 net.cpp:454] conv2_2_1x1_increase <- conv2_2_3x3
I0620 16:07:19.323218  6278 net.cpp:411] conv2_2_1x1_increase -> conv2_2_1x1_increase
I0620 16:07:19.323719  6278 net.cpp:150] Setting up conv2_2_1x1_increase
I0620 16:07:19.323727  6278 net.cpp:157] Top shape: 1 256 119 119 (3625216)
I0620 16:07:19.323730  6278 net.cpp:165] Memory required for data: 371892504
I0620 16:07:19.323735  6278 layer_factory.hpp:77] Creating layer conv2_2_1x1_increase/bn
I0620 16:07:19.323745  6278 net.cpp:106] Creating Layer conv2_2_1x1_increase/bn
I0620 16:07:19.323757  6278 net.cpp:454] conv2_2_1x1_increase/bn <- conv2_2_1x1_increase
I0620 16:07:19.323763  6278 net.cpp:397] conv2_2_1x1_increase/bn -> conv2_2_1x1_increase (in-place)
I0620 16:07:19.323904  6278 net.cpp:150] Setting up conv2_2_1x1_increase/bn
I0620 16:07:19.323909  6278 net.cpp:157] Top shape: 1 256 119 119 (3625216)
I0620 16:07:19.323911  6278 net.cpp:165] Memory required for data: 386393368
I0620 16:07:19.323917  6278 layer_factory.hpp:77] Creating layer conv2_2
I0620 16:07:19.323922  6278 net.cpp:106] Creating Layer conv2_2
I0620 16:07:19.323925  6278 net.cpp:454] conv2_2 <- conv2_1_conv2_1/relu_0_split_1
I0620 16:07:19.323928  6278 net.cpp:454] conv2_2 <- conv2_2_1x1_increase
I0620 16:07:19.323931  6278 net.cpp:411] conv2_2 -> conv2_2
I0620 16:07:19.323946  6278 net.cpp:150] Setting up conv2_2
I0620 16:07:19.323951  6278 net.cpp:157] Top shape: 1 256 119 119 (3625216)
I0620 16:07:19.323956  6278 net.cpp:165] Memory required for data: 400894232
I0620 16:07:19.323961  6278 layer_factory.hpp:77] Creating layer conv2_2/relu
I0620 16:07:19.323966  6278 net.cpp:106] Creating Layer conv2_2/relu
I0620 16:07:19.323969  6278 net.cpp:454] conv2_2/relu <- conv2_2
I0620 16:07:19.323978  6278 net.cpp:397] conv2_2/relu -> conv2_2 (in-place)
I0620 16:07:19.323984  6278 net.cpp:150] Setting up conv2_2/relu
I0620 16:07:19.323989  6278 net.cpp:157] Top shape: 1 256 119 119 (3625216)
I0620 16:07:19.323993  6278 net.cpp:165] Memory required for data: 415395096
I0620 16:07:19.323997  6278 layer_factory.hpp:77] Creating layer conv2_2_conv2_2/relu_0_split
I0620 16:07:19.324002  6278 net.cpp:106] Creating Layer conv2_2_conv2_2/relu_0_split
I0620 16:07:19.324007  6278 net.cpp:454] conv2_2_conv2_2/relu_0_split <- conv2_2
I0620 16:07:19.324012  6278 net.cpp:411] conv2_2_conv2_2/relu_0_split -> conv2_2_conv2_2/relu_0_split_0
I0620 16:07:19.324018  6278 net.cpp:411] conv2_2_conv2_2/relu_0_split -> conv2_2_conv2_2/relu_0_split_1
I0620 16:07:19.324048  6278 net.cpp:150] Setting up conv2_2_conv2_2/relu_0_split
I0620 16:07:19.324053  6278 net.cpp:157] Top shape: 1 256 119 119 (3625216)
I0620 16:07:19.324057  6278 net.cpp:157] Top shape: 1 256 119 119 (3625216)
I0620 16:07:19.324061  6278 net.cpp:165] Memory required for data: 444396824
I0620 16:07:19.324065  6278 layer_factory.hpp:77] Creating layer conv2_3_1x1_reduce
I0620 16:07:19.324074  6278 net.cpp:106] Creating Layer conv2_3_1x1_reduce
I0620 16:07:19.324079  6278 net.cpp:454] conv2_3_1x1_reduce <- conv2_2_conv2_2/relu_0_split_0
I0620 16:07:19.324085  6278 net.cpp:411] conv2_3_1x1_reduce -> conv2_3_1x1_reduce
I0620 16:07:19.324666  6278 net.cpp:150] Setting up conv2_3_1x1_reduce
I0620 16:07:19.324672  6278 net.cpp:157] Top shape: 1 64 119 119 (906304)
I0620 16:07:19.324676  6278 net.cpp:165] Memory required for data: 448022040
I0620 16:07:19.324679  6278 layer_factory.hpp:77] Creating layer conv2_3_1x1_reduce/bn
I0620 16:07:19.324684  6278 net.cpp:106] Creating Layer conv2_3_1x1_reduce/bn
I0620 16:07:19.324687  6278 net.cpp:454] conv2_3_1x1_reduce/bn <- conv2_3_1x1_reduce
I0620 16:07:19.324692  6278 net.cpp:397] conv2_3_1x1_reduce/bn -> conv2_3_1x1_reduce (in-place)
I0620 16:07:19.324818  6278 net.cpp:150] Setting up conv2_3_1x1_reduce/bn
I0620 16:07:19.324822  6278 net.cpp:157] Top shape: 1 64 119 119 (906304)
I0620 16:07:19.324826  6278 net.cpp:165] Memory required for data: 451647256
I0620 16:07:19.324831  6278 layer_factory.hpp:77] Creating layer conv2_3_1x1_reduce/relu
I0620 16:07:19.324834  6278 net.cpp:106] Creating Layer conv2_3_1x1_reduce/relu
I0620 16:07:19.324837  6278 net.cpp:454] conv2_3_1x1_reduce/relu <- conv2_3_1x1_reduce
I0620 16:07:19.324841  6278 net.cpp:397] conv2_3_1x1_reduce/relu -> conv2_3_1x1_reduce (in-place)
I0620 16:07:19.324844  6278 net.cpp:150] Setting up conv2_3_1x1_reduce/relu
I0620 16:07:19.324847  6278 net.cpp:157] Top shape: 1 64 119 119 (906304)
I0620 16:07:19.324851  6278 net.cpp:165] Memory required for data: 455272472
I0620 16:07:19.324852  6278 layer_factory.hpp:77] Creating layer conv2_3_3x3
I0620 16:07:19.324862  6278 net.cpp:106] Creating Layer conv2_3_3x3
I0620 16:07:19.324870  6278 net.cpp:454] conv2_3_3x3 <- conv2_3_1x1_reduce
I0620 16:07:19.324875  6278 net.cpp:411] conv2_3_3x3 -> conv2_3_3x3
I0620 16:07:19.325901  6278 net.cpp:150] Setting up conv2_3_3x3
I0620 16:07:19.325918  6278 net.cpp:157] Top shape: 1 64 119 119 (906304)
I0620 16:07:19.325922  6278 net.cpp:165] Memory required for data: 458897688
I0620 16:07:19.325929  6278 layer_factory.hpp:77] Creating layer conv2_3_3x3/bn
I0620 16:07:19.325942  6278 net.cpp:106] Creating Layer conv2_3_3x3/bn
I0620 16:07:19.325948  6278 net.cpp:454] conv2_3_3x3/bn <- conv2_3_3x3
I0620 16:07:19.325955  6278 net.cpp:397] conv2_3_3x3/bn -> conv2_3_3x3 (in-place)
I0620 16:07:19.326174  6278 net.cpp:150] Setting up conv2_3_3x3/bn
I0620 16:07:19.326182  6278 net.cpp:157] Top shape: 1 64 119 119 (906304)
I0620 16:07:19.326186  6278 net.cpp:165] Memory required for data: 462522904
I0620 16:07:19.326195  6278 layer_factory.hpp:77] Creating layer conv2_3_3x3/relu
I0620 16:07:19.326208  6278 net.cpp:106] Creating Layer conv2_3_3x3/relu
I0620 16:07:19.326213  6278 net.cpp:454] conv2_3_3x3/relu <- conv2_3_3x3
I0620 16:07:19.326220  6278 net.cpp:397] conv2_3_3x3/relu -> conv2_3_3x3 (in-place)
I0620 16:07:19.326228  6278 net.cpp:150] Setting up conv2_3_3x3/relu
I0620 16:07:19.326234  6278 net.cpp:157] Top shape: 1 64 119 119 (906304)
I0620 16:07:19.326238  6278 net.cpp:165] Memory required for data: 466148120
I0620 16:07:19.326244  6278 layer_factory.hpp:77] Creating layer conv2_3_1x1_increase
I0620 16:07:19.326254  6278 net.cpp:106] Creating Layer conv2_3_1x1_increase
I0620 16:07:19.326259  6278 net.cpp:454] conv2_3_1x1_increase <- conv2_3_3x3
I0620 16:07:19.326267  6278 net.cpp:411] conv2_3_1x1_increase -> conv2_3_1x1_increase
I0620 16:07:19.326910  6278 net.cpp:150] Setting up conv2_3_1x1_increase
I0620 16:07:19.326920  6278 net.cpp:157] Top shape: 1 256 119 119 (3625216)
I0620 16:07:19.326922  6278 net.cpp:165] Memory required for data: 480648984
I0620 16:07:19.326927  6278 layer_factory.hpp:77] Creating layer conv2_3_1x1_increase/bn
I0620 16:07:19.326933  6278 net.cpp:106] Creating Layer conv2_3_1x1_increase/bn
I0620 16:07:19.326937  6278 net.cpp:454] conv2_3_1x1_increase/bn <- conv2_3_1x1_increase
I0620 16:07:19.326942  6278 net.cpp:397] conv2_3_1x1_increase/bn -> conv2_3_1x1_increase (in-place)
I0620 16:07:19.327100  6278 net.cpp:150] Setting up conv2_3_1x1_increase/bn
I0620 16:07:19.327106  6278 net.cpp:157] Top shape: 1 256 119 119 (3625216)
I0620 16:07:19.327109  6278 net.cpp:165] Memory required for data: 495149848
I0620 16:07:19.327126  6278 layer_factory.hpp:77] Creating layer conv2_3
I0620 16:07:19.339740  6278 net.cpp:106] Creating Layer conv2_3
I0620 16:07:19.339792  6278 net.cpp:454] conv2_3 <- conv2_2_conv2_2/relu_0_split_1
I0620 16:07:19.339809  6278 net.cpp:454] conv2_3 <- conv2_3_1x1_increase
I0620 16:07:19.339819  6278 net.cpp:411] conv2_3 -> conv2_3
I0620 16:07:19.340009  6278 net.cpp:150] Setting up conv2_3
I0620 16:07:19.340025  6278 net.cpp:157] Top shape: 1 256 119 119 (3625216)
I0620 16:07:19.340029  6278 net.cpp:165] Memory required for data: 509650712
I0620 16:07:19.340036  6278 layer_factory.hpp:77] Creating layer conv2_3/relu
I0620 16:07:19.340047  6278 net.cpp:106] Creating Layer conv2_3/relu
I0620 16:07:19.340051  6278 net.cpp:454] conv2_3/relu <- conv2_3
I0620 16:07:19.340059  6278 net.cpp:397] conv2_3/relu -> conv2_3 (in-place)
I0620 16:07:19.340065  6278 net.cpp:150] Setting up conv2_3/relu
I0620 16:07:19.340068  6278 net.cpp:157] Top shape: 1 256 119 119 (3625216)
I0620 16:07:19.340071  6278 net.cpp:165] Memory required for data: 524151576
I0620 16:07:19.340075  6278 layer_factory.hpp:77] Creating layer conv2_3_conv2_3/relu_0_split
I0620 16:07:19.340083  6278 net.cpp:106] Creating Layer conv2_3_conv2_3/relu_0_split
I0620 16:07:19.340086  6278 net.cpp:454] conv2_3_conv2_3/relu_0_split <- conv2_3
I0620 16:07:19.340091  6278 net.cpp:411] conv2_3_conv2_3/relu_0_split -> conv2_3_conv2_3/relu_0_split_0
I0620 16:07:19.340097  6278 net.cpp:411] conv2_3_conv2_3/relu_0_split -> conv2_3_conv2_3/relu_0_split_1
I0620 16:07:19.340185  6278 net.cpp:150] Setting up conv2_3_conv2_3/relu_0_split
I0620 16:07:19.340191  6278 net.cpp:157] Top shape: 1 256 119 119 (3625216)
I0620 16:07:19.340195  6278 net.cpp:157] Top shape: 1 256 119 119 (3625216)
I0620 16:07:19.340198  6278 net.cpp:165] Memory required for data: 553153304
I0620 16:07:19.340203  6278 layer_factory.hpp:77] Creating layer conv3_1_1x1_reduce
I0620 16:07:19.340219  6278 net.cpp:106] Creating Layer conv3_1_1x1_reduce
I0620 16:07:19.340224  6278 net.cpp:454] conv3_1_1x1_reduce <- conv2_3_conv2_3/relu_0_split_0
I0620 16:07:19.340230  6278 net.cpp:411] conv3_1_1x1_reduce -> conv3_1_1x1_reduce
I0620 16:07:19.341102  6278 net.cpp:150] Setting up conv3_1_1x1_reduce
I0620 16:07:19.341110  6278 net.cpp:157] Top shape: 1 128 119 119 (1812608)
I0620 16:07:19.341114  6278 net.cpp:165] Memory required for data: 560403736
I0620 16:07:19.341120  6278 layer_factory.hpp:77] Creating layer conv3_1_1x1_reduce/bn
I0620 16:07:19.341125  6278 net.cpp:106] Creating Layer conv3_1_1x1_reduce/bn
I0620 16:07:19.341130  6278 net.cpp:454] conv3_1_1x1_reduce/bn <- conv3_1_1x1_reduce
I0620 16:07:19.341135  6278 net.cpp:397] conv3_1_1x1_reduce/bn -> conv3_1_1x1_reduce (in-place)
I0620 16:07:19.341279  6278 net.cpp:150] Setting up conv3_1_1x1_reduce/bn
I0620 16:07:19.341285  6278 net.cpp:157] Top shape: 1 128 119 119 (1812608)
I0620 16:07:19.341289  6278 net.cpp:165] Memory required for data: 567654168
I0620 16:07:19.341298  6278 layer_factory.hpp:77] Creating layer conv3_1_1x1_reduce/relu
I0620 16:07:19.341305  6278 net.cpp:106] Creating Layer conv3_1_1x1_reduce/relu
I0620 16:07:19.341308  6278 net.cpp:454] conv3_1_1x1_reduce/relu <- conv3_1_1x1_reduce
I0620 16:07:19.341313  6278 net.cpp:397] conv3_1_1x1_reduce/relu -> conv3_1_1x1_reduce (in-place)
I0620 16:07:19.341320  6278 net.cpp:150] Setting up conv3_1_1x1_reduce/relu
I0620 16:07:19.341325  6278 net.cpp:157] Top shape: 1 128 119 119 (1812608)
I0620 16:07:19.341326  6278 net.cpp:165] Memory required for data: 574904600
I0620 16:07:19.341330  6278 layer_factory.hpp:77] Creating layer conv3_1_3x3
I0620 16:07:19.341334  6278 net.cpp:106] Creating Layer conv3_1_3x3
I0620 16:07:19.341337  6278 net.cpp:454] conv3_1_3x3 <- conv3_1_1x1_reduce
I0620 16:07:19.341341  6278 net.cpp:411] conv3_1_3x3 -> conv3_1_3x3
I0620 16:07:19.345947  6278 net.cpp:150] Setting up conv3_1_3x3
I0620 16:07:19.345975  6278 net.cpp:157] Top shape: 1 128 60 60 (460800)
I0620 16:07:19.345979  6278 net.cpp:165] Memory required for data: 576747800
I0620 16:07:19.345988  6278 layer_factory.hpp:77] Creating layer conv3_1_3x3/bn
I0620 16:07:19.346004  6278 net.cpp:106] Creating Layer conv3_1_3x3/bn
I0620 16:07:19.346009  6278 net.cpp:454] conv3_1_3x3/bn <- conv3_1_3x3
I0620 16:07:19.346017  6278 net.cpp:397] conv3_1_3x3/bn -> conv3_1_3x3 (in-place)
I0620 16:07:19.346200  6278 net.cpp:150] Setting up conv3_1_3x3/bn
I0620 16:07:19.346207  6278 net.cpp:157] Top shape: 1 128 60 60 (460800)
I0620 16:07:19.346211  6278 net.cpp:165] Memory required for data: 578591000
I0620 16:07:19.346220  6278 layer_factory.hpp:77] Creating layer conv3_1_3x3/relu
I0620 16:07:19.346228  6278 net.cpp:106] Creating Layer conv3_1_3x3/relu
I0620 16:07:19.346233  6278 net.cpp:454] conv3_1_3x3/relu <- conv3_1_3x3
I0620 16:07:19.346238  6278 net.cpp:397] conv3_1_3x3/relu -> conv3_1_3x3 (in-place)
I0620 16:07:19.346246  6278 net.cpp:150] Setting up conv3_1_3x3/relu
I0620 16:07:19.346249  6278 net.cpp:157] Top shape: 1 128 60 60 (460800)
I0620 16:07:19.346253  6278 net.cpp:165] Memory required for data: 580434200
I0620 16:07:19.346257  6278 layer_factory.hpp:77] Creating layer conv3_1_1x1_increase
I0620 16:07:19.346268  6278 net.cpp:106] Creating Layer conv3_1_1x1_increase
I0620 16:07:19.346273  6278 net.cpp:454] conv3_1_1x1_increase <- conv3_1_3x3
I0620 16:07:19.346284  6278 net.cpp:411] conv3_1_1x1_increase -> conv3_1_1x1_increase
I0620 16:07:19.347885  6278 net.cpp:150] Setting up conv3_1_1x1_increase
I0620 16:07:19.347892  6278 net.cpp:157] Top shape: 1 512 60 60 (1843200)
I0620 16:07:19.347895  6278 net.cpp:165] Memory required for data: 587807000
I0620 16:07:19.347916  6278 layer_factory.hpp:77] Creating layer conv3_1_1x1_increase/bn
I0620 16:07:19.347923  6278 net.cpp:106] Creating Layer conv3_1_1x1_increase/bn
I0620 16:07:19.347926  6278 net.cpp:454] conv3_1_1x1_increase/bn <- conv3_1_1x1_increase
I0620 16:07:19.347930  6278 net.cpp:397] conv3_1_1x1_increase/bn -> conv3_1_1x1_increase (in-place)
I0620 16:07:19.348950  6278 net.cpp:150] Setting up conv3_1_1x1_increase/bn
I0620 16:07:19.348974  6278 net.cpp:157] Top shape: 1 512 60 60 (1843200)
I0620 16:07:19.348978  6278 net.cpp:165] Memory required for data: 595179800
I0620 16:07:19.348986  6278 layer_factory.hpp:77] Creating layer conv3_1_1x1_proj
I0620 16:07:19.349006  6278 net.cpp:106] Creating Layer conv3_1_1x1_proj
I0620 16:07:19.349010  6278 net.cpp:454] conv3_1_1x1_proj <- conv2_3_conv2_3/relu_0_split_1
I0620 16:07:19.349019  6278 net.cpp:411] conv3_1_1x1_proj -> conv3_1_1x1_proj
I0620 16:07:19.353193  6278 net.cpp:150] Setting up conv3_1_1x1_proj
I0620 16:07:19.353261  6278 net.cpp:157] Top shape: 1 512 60 60 (1843200)
I0620 16:07:19.353266  6278 net.cpp:165] Memory required for data: 602552600
I0620 16:07:19.353281  6278 layer_factory.hpp:77] Creating layer conv3_1_1x1_proj/bn
I0620 16:07:19.353302  6278 net.cpp:106] Creating Layer conv3_1_1x1_proj/bn
I0620 16:07:19.353309  6278 net.cpp:454] conv3_1_1x1_proj/bn <- conv3_1_1x1_proj
I0620 16:07:19.353317  6278 net.cpp:397] conv3_1_1x1_proj/bn -> conv3_1_1x1_proj (in-place)
I0620 16:07:19.353521  6278 net.cpp:150] Setting up conv3_1_1x1_proj/bn
I0620 16:07:19.353526  6278 net.cpp:157] Top shape: 1 512 60 60 (1843200)
I0620 16:07:19.353530  6278 net.cpp:165] Memory required for data: 609925400
I0620 16:07:19.353536  6278 layer_factory.hpp:77] Creating layer conv3_1
I0620 16:07:19.353544  6278 net.cpp:106] Creating Layer conv3_1
I0620 16:07:19.353548  6278 net.cpp:454] conv3_1 <- conv3_1_1x1_proj
I0620 16:07:19.353551  6278 net.cpp:454] conv3_1 <- conv3_1_1x1_increase
I0620 16:07:19.353555  6278 net.cpp:411] conv3_1 -> conv3_1
I0620 16:07:19.353584  6278 net.cpp:150] Setting up conv3_1
I0620 16:07:19.353588  6278 net.cpp:157] Top shape: 1 512 60 60 (1843200)
I0620 16:07:19.353591  6278 net.cpp:165] Memory required for data: 617298200
I0620 16:07:19.353595  6278 layer_factory.hpp:77] Creating layer conv3_1/relu
I0620 16:07:19.353608  6278 net.cpp:106] Creating Layer conv3_1/relu
I0620 16:07:19.353611  6278 net.cpp:454] conv3_1/relu <- conv3_1
I0620 16:07:19.353616  6278 net.cpp:397] conv3_1/relu -> conv3_1 (in-place)
I0620 16:07:19.353623  6278 net.cpp:150] Setting up conv3_1/relu
I0620 16:07:19.353627  6278 net.cpp:157] Top shape: 1 512 60 60 (1843200)
I0620 16:07:19.353631  6278 net.cpp:165] Memory required for data: 624671000
I0620 16:07:19.353633  6278 layer_factory.hpp:77] Creating layer conv3_1_conv3_1/relu_0_split
I0620 16:07:19.353639  6278 net.cpp:106] Creating Layer conv3_1_conv3_1/relu_0_split
I0620 16:07:19.353642  6278 net.cpp:454] conv3_1_conv3_1/relu_0_split <- conv3_1
I0620 16:07:19.353646  6278 net.cpp:411] conv3_1_conv3_1/relu_0_split -> conv3_1_conv3_1/relu_0_split_0
I0620 16:07:19.353651  6278 net.cpp:411] conv3_1_conv3_1/relu_0_split -> conv3_1_conv3_1/relu_0_split_1
I0620 16:07:19.353679  6278 net.cpp:150] Setting up conv3_1_conv3_1/relu_0_split
I0620 16:07:19.353683  6278 net.cpp:157] Top shape: 1 512 60 60 (1843200)
I0620 16:07:19.353687  6278 net.cpp:157] Top shape: 1 512 60 60 (1843200)
I0620 16:07:19.353689  6278 net.cpp:165] Memory required for data: 639416600
I0620 16:07:19.353693  6278 layer_factory.hpp:77] Creating layer conv3_2_1x1_reduce
I0620 16:07:19.353703  6278 net.cpp:106] Creating Layer conv3_2_1x1_reduce
I0620 16:07:19.353706  6278 net.cpp:454] conv3_2_1x1_reduce <- conv3_1_conv3_1/relu_0_split_0
I0620 16:07:19.353713  6278 net.cpp:411] conv3_2_1x1_reduce -> conv3_2_1x1_reduce
I0620 16:07:19.356478  6278 net.cpp:150] Setting up conv3_2_1x1_reduce
I0620 16:07:19.356523  6278 net.cpp:157] Top shape: 1 128 60 60 (460800)
I0620 16:07:19.356526  6278 net.cpp:165] Memory required for data: 641259800
I0620 16:07:19.356571  6278 layer_factory.hpp:77] Creating layer conv3_2_1x1_reduce/bn
I0620 16:07:19.356588  6278 net.cpp:106] Creating Layer conv3_2_1x1_reduce/bn
I0620 16:07:19.356595  6278 net.cpp:454] conv3_2_1x1_reduce/bn <- conv3_2_1x1_reduce
I0620 16:07:19.356602  6278 net.cpp:397] conv3_2_1x1_reduce/bn -> conv3_2_1x1_reduce (in-place)
I0620 16:07:19.356755  6278 net.cpp:150] Setting up conv3_2_1x1_reduce/bn
I0620 16:07:19.356761  6278 net.cpp:157] Top shape: 1 128 60 60 (460800)
I0620 16:07:19.356765  6278 net.cpp:165] Memory required for data: 643103000
I0620 16:07:19.356770  6278 layer_factory.hpp:77] Creating layer conv3_2_1x1_reduce/relu
I0620 16:07:19.356776  6278 net.cpp:106] Creating Layer conv3_2_1x1_reduce/relu
I0620 16:07:19.356779  6278 net.cpp:454] conv3_2_1x1_reduce/relu <- conv3_2_1x1_reduce
I0620 16:07:19.356783  6278 net.cpp:397] conv3_2_1x1_reduce/relu -> conv3_2_1x1_reduce (in-place)
I0620 16:07:19.356788  6278 net.cpp:150] Setting up conv3_2_1x1_reduce/relu
I0620 16:07:19.356792  6278 net.cpp:157] Top shape: 1 128 60 60 (460800)
I0620 16:07:19.356794  6278 net.cpp:165] Memory required for data: 644946200
I0620 16:07:19.356797  6278 layer_factory.hpp:77] Creating layer conv3_2_3x3
I0620 16:07:19.356819  6278 net.cpp:106] Creating Layer conv3_2_3x3
I0620 16:07:19.356823  6278 net.cpp:454] conv3_2_3x3 <- conv3_2_1x1_reduce
I0620 16:07:19.356827  6278 net.cpp:411] conv3_2_3x3 -> conv3_2_3x3
I0620 16:07:19.361397  6278 net.cpp:150] Setting up conv3_2_3x3
I0620 16:07:19.361474  6278 net.cpp:157] Top shape: 1 128 60 60 (460800)
I0620 16:07:19.361485  6278 net.cpp:165] Memory required for data: 646789400
I0620 16:07:19.361502  6278 layer_factory.hpp:77] Creating layer conv3_2_3x3/bn
I0620 16:07:19.361549  6278 net.cpp:106] Creating Layer conv3_2_3x3/bn
I0620 16:07:19.361560  6278 net.cpp:454] conv3_2_3x3/bn <- conv3_2_3x3
I0620 16:07:19.361575  6278 net.cpp:397] conv3_2_3x3/bn -> conv3_2_3x3 (in-place)
I0620 16:07:19.368489  6278 net.cpp:150] Setting up conv3_2_3x3/bn
I0620 16:07:19.368537  6278 net.cpp:157] Top shape: 1 128 60 60 (460800)
I0620 16:07:19.368544  6278 net.cpp:165] Memory required for data: 648632600
I0620 16:07:19.368567  6278 layer_factory.hpp:77] Creating layer conv3_2_3x3/relu
I0620 16:07:19.368789  6278 net.cpp:106] Creating Layer conv3_2_3x3/relu
I0620 16:07:19.368798  6278 net.cpp:454] conv3_2_3x3/relu <- conv3_2_3x3
I0620 16:07:19.368803  6278 net.cpp:397] conv3_2_3x3/relu -> conv3_2_3x3 (in-place)
I0620 16:07:19.368813  6278 net.cpp:150] Setting up conv3_2_3x3/relu
I0620 16:07:19.368818  6278 net.cpp:157] Top shape: 1 128 60 60 (460800)
I0620 16:07:19.368820  6278 net.cpp:165] Memory required for data: 650475800
I0620 16:07:19.368824  6278 layer_factory.hpp:77] Creating layer conv3_2_1x1_increase
I0620 16:07:19.368832  6278 net.cpp:106] Creating Layer conv3_2_1x1_increase
I0620 16:07:19.368834  6278 net.cpp:454] conv3_2_1x1_increase <- conv3_2_3x3
I0620 16:07:19.368839  6278 net.cpp:411] conv3_2_1x1_increase -> conv3_2_1x1_increase
I0620 16:07:19.371733  6278 net.cpp:150] Setting up conv3_2_1x1_increase
I0620 16:07:19.371762  6278 net.cpp:157] Top shape: 1 512 60 60 (1843200)
I0620 16:07:19.371767  6278 net.cpp:165] Memory required for data: 657848600
I0620 16:07:19.371775  6278 layer_factory.hpp:77] Creating layer conv3_2_1x1_increase/bn
I0620 16:07:19.371788  6278 net.cpp:106] Creating Layer conv3_2_1x1_increase/bn
I0620 16:07:19.371791  6278 net.cpp:454] conv3_2_1x1_increase/bn <- conv3_2_1x1_increase
I0620 16:07:19.371800  6278 net.cpp:397] conv3_2_1x1_increase/bn -> conv3_2_1x1_increase (in-place)
I0620 16:07:19.372027  6278 net.cpp:150] Setting up conv3_2_1x1_increase/bn
I0620 16:07:19.372042  6278 net.cpp:157] Top shape: 1 512 60 60 (1843200)
I0620 16:07:19.372048  6278 net.cpp:165] Memory required for data: 665221400
I0620 16:07:19.372062  6278 layer_factory.hpp:77] Creating layer conv3_2
I0620 16:07:19.372079  6278 net.cpp:106] Creating Layer conv3_2
I0620 16:07:19.372087  6278 net.cpp:454] conv3_2 <- conv3_1_conv3_1/relu_0_split_1
I0620 16:07:19.372160  6278 net.cpp:454] conv3_2 <- conv3_2_1x1_increase
I0620 16:07:19.372167  6278 net.cpp:411] conv3_2 -> conv3_2
I0620 16:07:19.372186  6278 net.cpp:150] Setting up conv3_2
I0620 16:07:19.372190  6278 net.cpp:157] Top shape: 1 512 60 60 (1843200)
I0620 16:07:19.372192  6278 net.cpp:165] Memory required for data: 672594200
I0620 16:07:19.372195  6278 layer_factory.hpp:77] Creating layer conv3_2/relu
I0620 16:07:19.372202  6278 net.cpp:106] Creating Layer conv3_2/relu
I0620 16:07:19.372205  6278 net.cpp:454] conv3_2/relu <- conv3_2
I0620 16:07:19.372208  6278 net.cpp:397] conv3_2/relu -> conv3_2 (in-place)
I0620 16:07:19.372216  6278 net.cpp:150] Setting up conv3_2/relu
I0620 16:07:19.372222  6278 net.cpp:157] Top shape: 1 512 60 60 (1843200)
I0620 16:07:19.372226  6278 net.cpp:165] Memory required for data: 679967000
I0620 16:07:19.372232  6278 layer_factory.hpp:77] Creating layer conv3_2_conv3_2/relu_0_split
I0620 16:07:19.372246  6278 net.cpp:106] Creating Layer conv3_2_conv3_2/relu_0_split
I0620 16:07:19.372249  6278 net.cpp:454] conv3_2_conv3_2/relu_0_split <- conv3_2
I0620 16:07:19.372256  6278 net.cpp:411] conv3_2_conv3_2/relu_0_split -> conv3_2_conv3_2/relu_0_split_0
I0620 16:07:19.372264  6278 net.cpp:411] conv3_2_conv3_2/relu_0_split -> conv3_2_conv3_2/relu_0_split_1
I0620 16:07:19.372289  6278 net.cpp:150] Setting up conv3_2_conv3_2/relu_0_split
I0620 16:07:19.372294  6278 net.cpp:157] Top shape: 1 512 60 60 (1843200)
I0620 16:07:19.372298  6278 net.cpp:157] Top shape: 1 512 60 60 (1843200)
I0620 16:07:19.372299  6278 net.cpp:165] Memory required for data: 694712600
I0620 16:07:19.372303  6278 layer_factory.hpp:77] Creating layer conv3_3_1x1_reduce
I0620 16:07:19.372308  6278 net.cpp:106] Creating Layer conv3_3_1x1_reduce
I0620 16:07:19.372311  6278 net.cpp:454] conv3_3_1x1_reduce <- conv3_2_conv3_2/relu_0_split_0
I0620 16:07:19.372318  6278 net.cpp:411] conv3_3_1x1_reduce -> conv3_3_1x1_reduce
I0620 16:07:19.374073  6278 net.cpp:150] Setting up conv3_3_1x1_reduce
I0620 16:07:19.374080  6278 net.cpp:157] Top shape: 1 128 60 60 (460800)
I0620 16:07:19.374083  6278 net.cpp:165] Memory required for data: 696555800
I0620 16:07:19.374088  6278 layer_factory.hpp:77] Creating layer conv3_3_1x1_reduce/bn
I0620 16:07:19.374094  6278 net.cpp:106] Creating Layer conv3_3_1x1_reduce/bn
I0620 16:07:19.374097  6278 net.cpp:454] conv3_3_1x1_reduce/bn <- conv3_3_1x1_reduce
I0620 16:07:19.374101  6278 net.cpp:397] conv3_3_1x1_reduce/bn -> conv3_3_1x1_reduce (in-place)
I0620 16:07:19.374253  6278 net.cpp:150] Setting up conv3_3_1x1_reduce/bn
I0620 16:07:19.374258  6278 net.cpp:157] Top shape: 1 128 60 60 (460800)
I0620 16:07:19.374260  6278 net.cpp:165] Memory required for data: 698399000
I0620 16:07:19.374266  6278 layer_factory.hpp:77] Creating layer conv3_3_1x1_reduce/relu
I0620 16:07:19.374270  6278 net.cpp:106] Creating Layer conv3_3_1x1_reduce/relu
I0620 16:07:19.374274  6278 net.cpp:454] conv3_3_1x1_reduce/relu <- conv3_3_1x1_reduce
I0620 16:07:19.374279  6278 net.cpp:397] conv3_3_1x1_reduce/relu -> conv3_3_1x1_reduce (in-place)
I0620 16:07:19.374286  6278 net.cpp:150] Setting up conv3_3_1x1_reduce/relu
I0620 16:07:19.374292  6278 net.cpp:157] Top shape: 1 128 60 60 (460800)
I0620 16:07:19.374297  6278 net.cpp:165] Memory required for data: 700242200
I0620 16:07:19.374303  6278 layer_factory.hpp:77] Creating layer conv3_3_3x3
I0620 16:07:19.374315  6278 net.cpp:106] Creating Layer conv3_3_3x3
I0620 16:07:19.374320  6278 net.cpp:454] conv3_3_3x3 <- conv3_3_1x1_reduce
I0620 16:07:19.374330  6278 net.cpp:411] conv3_3_3x3 -> conv3_3_3x3
I0620 16:07:19.378713  6278 net.cpp:150] Setting up conv3_3_3x3
I0620 16:07:19.378734  6278 net.cpp:157] Top shape: 1 128 60 60 (460800)
I0620 16:07:19.378737  6278 net.cpp:165] Memory required for data: 702085400
I0620 16:07:19.378746  6278 layer_factory.hpp:77] Creating layer conv3_3_3x3/bn
I0620 16:07:19.378760  6278 net.cpp:106] Creating Layer conv3_3_3x3/bn
I0620 16:07:19.378765  6278 net.cpp:454] conv3_3_3x3/bn <- conv3_3_3x3
I0620 16:07:19.378770  6278 net.cpp:397] conv3_3_3x3/bn -> conv3_3_3x3 (in-place)
I0620 16:07:19.378931  6278 net.cpp:150] Setting up conv3_3_3x3/bn
I0620 16:07:19.378935  6278 net.cpp:157] Top shape: 1 128 60 60 (460800)
I0620 16:07:19.378938  6278 net.cpp:165] Memory required for data: 703928600
I0620 16:07:19.378943  6278 layer_factory.hpp:77] Creating layer conv3_3_3x3/relu
I0620 16:07:19.378947  6278 net.cpp:106] Creating Layer conv3_3_3x3/relu
I0620 16:07:19.378949  6278 net.cpp:454] conv3_3_3x3/relu <- conv3_3_3x3
I0620 16:07:19.378952  6278 net.cpp:397] conv3_3_3x3/relu -> conv3_3_3x3 (in-place)
I0620 16:07:19.378957  6278 net.cpp:150] Setting up conv3_3_3x3/relu
I0620 16:07:19.378960  6278 net.cpp:157] Top shape: 1 128 60 60 (460800)
I0620 16:07:19.378963  6278 net.cpp:165] Memory required for data: 705771800
I0620 16:07:19.378965  6278 layer_factory.hpp:77] Creating layer conv3_3_1x1_increase
I0620 16:07:19.378971  6278 net.cpp:106] Creating Layer conv3_3_1x1_increase
I0620 16:07:19.378974  6278 net.cpp:454] conv3_3_1x1_increase <- conv3_3_3x3
I0620 16:07:19.378983  6278 net.cpp:411] conv3_3_1x1_increase -> conv3_3_1x1_increase
I0620 16:07:19.380592  6278 net.cpp:150] Setting up conv3_3_1x1_increase
I0620 16:07:19.380599  6278 net.cpp:157] Top shape: 1 512 60 60 (1843200)
I0620 16:07:19.380601  6278 net.cpp:165] Memory required for data: 713144600
I0620 16:07:19.380604  6278 layer_factory.hpp:77] Creating layer conv3_3_1x1_increase/bn
I0620 16:07:19.380609  6278 net.cpp:106] Creating Layer conv3_3_1x1_increase/bn
I0620 16:07:19.380612  6278 net.cpp:454] conv3_3_1x1_increase/bn <- conv3_3_1x1_increase
I0620 16:07:19.380617  6278 net.cpp:397] conv3_3_1x1_increase/bn -> conv3_3_1x1_increase (in-place)
I0620 16:07:19.380764  6278 net.cpp:150] Setting up conv3_3_1x1_increase/bn
I0620 16:07:19.380769  6278 net.cpp:157] Top shape: 1 512 60 60 (1843200)
I0620 16:07:19.380771  6278 net.cpp:165] Memory required for data: 720517400
I0620 16:07:19.380776  6278 layer_factory.hpp:77] Creating layer conv3_3
I0620 16:07:19.380781  6278 net.cpp:106] Creating Layer conv3_3
I0620 16:07:19.380784  6278 net.cpp:454] conv3_3 <- conv3_2_conv3_2/relu_0_split_1
I0620 16:07:19.380789  6278 net.cpp:454] conv3_3 <- conv3_3_1x1_increase
I0620 16:07:19.380792  6278 net.cpp:411] conv3_3 -> conv3_3
I0620 16:07:19.380817  6278 net.cpp:150] Setting up conv3_3
I0620 16:07:19.380825  6278 net.cpp:157] Top shape: 1 512 60 60 (1843200)
I0620 16:07:19.380830  6278 net.cpp:165] Memory required for data: 727890200
I0620 16:07:19.380832  6278 layer_factory.hpp:77] Creating layer conv3_3/relu
I0620 16:07:19.380836  6278 net.cpp:106] Creating Layer conv3_3/relu
I0620 16:07:19.380839  6278 net.cpp:454] conv3_3/relu <- conv3_3
I0620 16:07:19.380843  6278 net.cpp:397] conv3_3/relu -> conv3_3 (in-place)
I0620 16:07:19.380846  6278 net.cpp:150] Setting up conv3_3/relu
I0620 16:07:19.380851  6278 net.cpp:157] Top shape: 1 512 60 60 (1843200)
I0620 16:07:19.380852  6278 net.cpp:165] Memory required for data: 735263000
I0620 16:07:19.380856  6278 layer_factory.hpp:77] Creating layer conv3_3_conv3_3/relu_0_split
I0620 16:07:19.380861  6278 net.cpp:106] Creating Layer conv3_3_conv3_3/relu_0_split
I0620 16:07:19.380863  6278 net.cpp:454] conv3_3_conv3_3/relu_0_split <- conv3_3
I0620 16:07:19.380867  6278 net.cpp:411] conv3_3_conv3_3/relu_0_split -> conv3_3_conv3_3/relu_0_split_0
I0620 16:07:19.380870  6278 net.cpp:411] conv3_3_conv3_3/relu_0_split -> conv3_3_conv3_3/relu_0_split_1
I0620 16:07:19.380892  6278 net.cpp:150] Setting up conv3_3_conv3_3/relu_0_split
I0620 16:07:19.380897  6278 net.cpp:157] Top shape: 1 512 60 60 (1843200)
I0620 16:07:19.380899  6278 net.cpp:157] Top shape: 1 512 60 60 (1843200)
I0620 16:07:19.380903  6278 net.cpp:165] Memory required for data: 750008600
I0620 16:07:19.380904  6278 layer_factory.hpp:77] Creating layer conv3_4_1x1_reduce
I0620 16:07:19.380910  6278 net.cpp:106] Creating Layer conv3_4_1x1_reduce
I0620 16:07:19.380913  6278 net.cpp:454] conv3_4_1x1_reduce <- conv3_3_conv3_3/relu_0_split_0
I0620 16:07:19.380918  6278 net.cpp:411] conv3_4_1x1_reduce -> conv3_4_1x1_reduce
I0620 16:07:19.382526  6278 net.cpp:150] Setting up conv3_4_1x1_reduce
I0620 16:07:19.382532  6278 net.cpp:157] Top shape: 1 128 60 60 (460800)
I0620 16:07:19.382534  6278 net.cpp:165] Memory required for data: 751851800
I0620 16:07:19.382539  6278 layer_factory.hpp:77] Creating layer conv3_4_1x1_reduce/bn
I0620 16:07:19.382544  6278 net.cpp:106] Creating Layer conv3_4_1x1_reduce/bn
I0620 16:07:19.382546  6278 net.cpp:454] conv3_4_1x1_reduce/bn <- conv3_4_1x1_reduce
I0620 16:07:19.382550  6278 net.cpp:397] conv3_4_1x1_reduce/bn -> conv3_4_1x1_reduce (in-place)
I0620 16:07:19.382690  6278 net.cpp:150] Setting up conv3_4_1x1_reduce/bn
I0620 16:07:19.382699  6278 net.cpp:157] Top shape: 1 128 60 60 (460800)
I0620 16:07:19.382704  6278 net.cpp:165] Memory required for data: 753695000
I0620 16:07:19.382716  6278 layer_factory.hpp:77] Creating layer conv3_4_1x1_reduce/relu
I0620 16:07:19.382721  6278 net.cpp:106] Creating Layer conv3_4_1x1_reduce/relu
I0620 16:07:19.382725  6278 net.cpp:454] conv3_4_1x1_reduce/relu <- conv3_4_1x1_reduce
I0620 16:07:19.382727  6278 net.cpp:397] conv3_4_1x1_reduce/relu -> conv3_4_1x1_reduce (in-place)
I0620 16:07:19.382731  6278 net.cpp:150] Setting up conv3_4_1x1_reduce/relu
I0620 16:07:19.382735  6278 net.cpp:157] Top shape: 1 128 60 60 (460800)
I0620 16:07:19.382737  6278 net.cpp:165] Memory required for data: 755538200
I0620 16:07:19.382740  6278 layer_factory.hpp:77] Creating layer conv3_4_3x3
I0620 16:07:19.382745  6278 net.cpp:106] Creating Layer conv3_4_3x3
I0620 16:07:19.382747  6278 net.cpp:454] conv3_4_3x3 <- conv3_4_1x1_reduce
I0620 16:07:19.382751  6278 net.cpp:411] conv3_4_3x3 -> conv3_4_3x3
I0620 16:07:19.387007  6278 net.cpp:150] Setting up conv3_4_3x3
I0620 16:07:19.387017  6278 net.cpp:157] Top shape: 1 128 60 60 (460800)
I0620 16:07:19.387020  6278 net.cpp:165] Memory required for data: 757381400
I0620 16:07:19.387024  6278 layer_factory.hpp:77] Creating layer conv3_4_3x3/bn
I0620 16:07:19.387030  6278 net.cpp:106] Creating Layer conv3_4_3x3/bn
I0620 16:07:19.387034  6278 net.cpp:454] conv3_4_3x3/bn <- conv3_4_3x3
I0620 16:07:19.387038  6278 net.cpp:397] conv3_4_3x3/bn -> conv3_4_3x3 (in-place)
I0620 16:07:19.387179  6278 net.cpp:150] Setting up conv3_4_3x3/bn
I0620 16:07:19.387184  6278 net.cpp:157] Top shape: 1 128 60 60 (460800)
I0620 16:07:19.387187  6278 net.cpp:165] Memory required for data: 759224600
I0620 16:07:19.387197  6278 layer_factory.hpp:77] Creating layer conv3_4_3x3/relu
I0620 16:07:19.387205  6278 net.cpp:106] Creating Layer conv3_4_3x3/relu
I0620 16:07:19.387212  6278 net.cpp:454] conv3_4_3x3/relu <- conv3_4_3x3
I0620 16:07:19.387219  6278 net.cpp:397] conv3_4_3x3/relu -> conv3_4_3x3 (in-place)
I0620 16:07:19.387225  6278 net.cpp:150] Setting up conv3_4_3x3/relu
I0620 16:07:19.387229  6278 net.cpp:157] Top shape: 1 128 60 60 (460800)
I0620 16:07:19.387233  6278 net.cpp:165] Memory required for data: 761067800
I0620 16:07:19.387234  6278 layer_factory.hpp:77] Creating layer conv3_4_1x1_increase
I0620 16:07:19.387240  6278 net.cpp:106] Creating Layer conv3_4_1x1_increase
I0620 16:07:19.387243  6278 net.cpp:454] conv3_4_1x1_increase <- conv3_4_3x3
I0620 16:07:19.387250  6278 net.cpp:411] conv3_4_1x1_increase -> conv3_4_1x1_increase
I0620 16:07:19.388854  6278 net.cpp:150] Setting up conv3_4_1x1_increase
I0620 16:07:19.388864  6278 net.cpp:157] Top shape: 1 512 60 60 (1843200)
I0620 16:07:19.388866  6278 net.cpp:165] Memory required for data: 768440600
I0620 16:07:19.388870  6278 layer_factory.hpp:77] Creating layer conv3_4_1x1_increase/bn
I0620 16:07:19.388875  6278 net.cpp:106] Creating Layer conv3_4_1x1_increase/bn
I0620 16:07:19.388880  6278 net.cpp:454] conv3_4_1x1_increase/bn <- conv3_4_1x1_increase
I0620 16:07:19.388882  6278 net.cpp:397] conv3_4_1x1_increase/bn -> conv3_4_1x1_increase (in-place)
I0620 16:07:19.389008  6278 net.cpp:150] Setting up conv3_4_1x1_increase/bn
I0620 16:07:19.389012  6278 net.cpp:157] Top shape: 1 512 60 60 (1843200)
I0620 16:07:19.389015  6278 net.cpp:165] Memory required for data: 775813400
I0620 16:07:19.389032  6278 layer_factory.hpp:77] Creating layer conv3_4
I0620 16:07:19.389051  6278 net.cpp:106] Creating Layer conv3_4
I0620 16:07:19.389055  6278 net.cpp:454] conv3_4 <- conv3_3_conv3_3/relu_0_split_1
I0620 16:07:19.389058  6278 net.cpp:454] conv3_4 <- conv3_4_1x1_increase
I0620 16:07:19.389061  6278 net.cpp:411] conv3_4 -> conv3_4
I0620 16:07:19.389077  6278 net.cpp:150] Setting up conv3_4
I0620 16:07:19.389081  6278 net.cpp:157] Top shape: 1 512 60 60 (1843200)
I0620 16:07:19.389083  6278 net.cpp:165] Memory required for data: 783186200
I0620 16:07:19.389086  6278 layer_factory.hpp:77] Creating layer conv3_4/relu
I0620 16:07:19.389091  6278 net.cpp:106] Creating Layer conv3_4/relu
I0620 16:07:19.389094  6278 net.cpp:454] conv3_4/relu <- conv3_4
I0620 16:07:19.389097  6278 net.cpp:397] conv3_4/relu -> conv3_4 (in-place)
I0620 16:07:19.389101  6278 net.cpp:150] Setting up conv3_4/relu
I0620 16:07:19.389104  6278 net.cpp:157] Top shape: 1 512 60 60 (1843200)
I0620 16:07:19.389106  6278 net.cpp:165] Memory required for data: 790559000
I0620 16:07:19.389109  6278 layer_factory.hpp:77] Creating layer conv3_4_conv3_4/relu_0_split
I0620 16:07:19.389113  6278 net.cpp:106] Creating Layer conv3_4_conv3_4/relu_0_split
I0620 16:07:19.389117  6278 net.cpp:454] conv3_4_conv3_4/relu_0_split <- conv3_4
I0620 16:07:19.389122  6278 net.cpp:411] conv3_4_conv3_4/relu_0_split -> conv3_4_conv3_4/relu_0_split_0
I0620 16:07:19.389125  6278 net.cpp:411] conv3_4_conv3_4/relu_0_split -> conv3_4_conv3_4/relu_0_split_1
I0620 16:07:19.389161  6278 net.cpp:150] Setting up conv3_4_conv3_4/relu_0_split
I0620 16:07:19.389173  6278 net.cpp:157] Top shape: 1 512 60 60 (1843200)
I0620 16:07:19.389178  6278 net.cpp:157] Top shape: 1 512 60 60 (1843200)
I0620 16:07:19.389180  6278 net.cpp:165] Memory required for data: 805304600
I0620 16:07:19.389183  6278 layer_factory.hpp:77] Creating layer conv4_1_1x1_reduce
I0620 16:07:19.389189  6278 net.cpp:106] Creating Layer conv4_1_1x1_reduce
I0620 16:07:19.389192  6278 net.cpp:454] conv4_1_1x1_reduce <- conv3_4_conv3_4/relu_0_split_0
I0620 16:07:19.399370  6278 net.cpp:411] conv4_1_1x1_reduce -> conv4_1_1x1_reduce
I0620 16:07:19.402485  6278 net.cpp:150] Setting up conv4_1_1x1_reduce
I0620 16:07:19.402503  6278 net.cpp:157] Top shape: 1 256 60 60 (921600)
I0620 16:07:19.402504  6278 net.cpp:165] Memory required for data: 808991000
I0620 16:07:19.402511  6278 layer_factory.hpp:77] Creating layer conv4_1_1x1_reduce/bn
I0620 16:07:19.402520  6278 net.cpp:106] Creating Layer conv4_1_1x1_reduce/bn
I0620 16:07:19.402524  6278 net.cpp:454] conv4_1_1x1_reduce/bn <- conv4_1_1x1_reduce
I0620 16:07:19.402529  6278 net.cpp:397] conv4_1_1x1_reduce/bn -> conv4_1_1x1_reduce (in-place)
I0620 16:07:19.402674  6278 net.cpp:150] Setting up conv4_1_1x1_reduce/bn
I0620 16:07:19.402679  6278 net.cpp:157] Top shape: 1 256 60 60 (921600)
I0620 16:07:19.402683  6278 net.cpp:165] Memory required for data: 812677400
I0620 16:07:19.402686  6278 layer_factory.hpp:77] Creating layer conv4_1_1x1_reduce/relu
I0620 16:07:19.402691  6278 net.cpp:106] Creating Layer conv4_1_1x1_reduce/relu
I0620 16:07:19.402693  6278 net.cpp:454] conv4_1_1x1_reduce/relu <- conv4_1_1x1_reduce
I0620 16:07:19.402696  6278 net.cpp:397] conv4_1_1x1_reduce/relu -> conv4_1_1x1_reduce (in-place)
I0620 16:07:19.402700  6278 net.cpp:150] Setting up conv4_1_1x1_reduce/relu
I0620 16:07:19.402704  6278 net.cpp:157] Top shape: 1 256 60 60 (921600)
I0620 16:07:19.402705  6278 net.cpp:165] Memory required for data: 816363800
I0620 16:07:19.402707  6278 layer_factory.hpp:77] Creating layer conv4_1_3x3
I0620 16:07:19.402714  6278 net.cpp:106] Creating Layer conv4_1_3x3
I0620 16:07:19.402719  6278 net.cpp:454] conv4_1_3x3 <- conv4_1_1x1_reduce
I0620 16:07:19.402727  6278 net.cpp:411] conv4_1_3x3 -> conv4_1_3x3
I0620 16:07:19.420987  6278 net.cpp:150] Setting up conv4_1_3x3
I0620 16:07:19.421056  6278 net.cpp:157] Top shape: 1 256 60 60 (921600)
I0620 16:07:19.421061  6278 net.cpp:165] Memory required for data: 820050200
I0620 16:07:19.421072  6278 layer_factory.hpp:77] Creating layer conv4_1_3x3/bn
I0620 16:07:19.421133  6278 net.cpp:106] Creating Layer conv4_1_3x3/bn
I0620 16:07:19.421140  6278 net.cpp:454] conv4_1_3x3/bn <- conv4_1_3x3
I0620 16:07:19.421149  6278 net.cpp:397] conv4_1_3x3/bn -> conv4_1_3x3 (in-place)
I0620 16:07:19.421320  6278 net.cpp:150] Setting up conv4_1_3x3/bn
I0620 16:07:19.421326  6278 net.cpp:157] Top shape: 1 256 60 60 (921600)
I0620 16:07:19.421330  6278 net.cpp:165] Memory required for data: 823736600
I0620 16:07:19.421337  6278 layer_factory.hpp:77] Creating layer conv4_1_3x3/relu
I0620 16:07:19.421346  6278 net.cpp:106] Creating Layer conv4_1_3x3/relu
I0620 16:07:19.421350  6278 net.cpp:454] conv4_1_3x3/relu <- conv4_1_3x3
I0620 16:07:19.421353  6278 net.cpp:397] conv4_1_3x3/relu -> conv4_1_3x3 (in-place)
I0620 16:07:19.421358  6278 net.cpp:150] Setting up conv4_1_3x3/relu
I0620 16:07:19.421362  6278 net.cpp:157] Top shape: 1 256 60 60 (921600)
I0620 16:07:19.421365  6278 net.cpp:165] Memory required for data: 827423000
I0620 16:07:19.421368  6278 layer_factory.hpp:77] Creating layer conv4_1_1x1_increase
I0620 16:07:19.421382  6278 net.cpp:106] Creating Layer conv4_1_1x1_increase
I0620 16:07:19.421386  6278 net.cpp:454] conv4_1_1x1_increase <- conv4_1_3x3
I0620 16:07:19.421391  6278 net.cpp:411] conv4_1_1x1_increase -> conv4_1_1x1_increase
I0620 16:07:19.428047  6278 net.cpp:150] Setting up conv4_1_1x1_increase
I0620 16:07:19.428087  6278 net.cpp:157] Top shape: 1 1024 60 60 (3686400)
I0620 16:07:19.428091  6278 net.cpp:165] Memory required for data: 842168600
I0620 16:07:19.428099  6278 layer_factory.hpp:77] Creating layer conv4_1_1x1_increase/bn
I0620 16:07:19.428117  6278 net.cpp:106] Creating Layer conv4_1_1x1_increase/bn
I0620 16:07:19.428123  6278 net.cpp:454] conv4_1_1x1_increase/bn <- conv4_1_1x1_increase
I0620 16:07:19.428131  6278 net.cpp:397] conv4_1_1x1_increase/bn -> conv4_1_1x1_increase (in-place)
I0620 16:07:19.428318  6278 net.cpp:150] Setting up conv4_1_1x1_increase/bn
I0620 16:07:19.428328  6278 net.cpp:157] Top shape: 1 1024 60 60 (3686400)
I0620 16:07:19.428329  6278 net.cpp:165] Memory required for data: 856914200
I0620 16:07:19.428335  6278 layer_factory.hpp:77] Creating layer conv4_1_1x1_proj
I0620 16:07:19.428360  6278 net.cpp:106] Creating Layer conv4_1_1x1_proj
I0620 16:07:19.428365  6278 net.cpp:454] conv4_1_1x1_proj <- conv3_4_conv3_4/relu_0_split_1
I0620 16:07:19.428371  6278 net.cpp:411] conv4_1_1x1_proj -> conv4_1_1x1_proj
I0620 16:07:19.441836  6278 net.cpp:150] Setting up conv4_1_1x1_proj
I0620 16:07:19.441874  6278 net.cpp:157] Top shape: 1 1024 60 60 (3686400)
I0620 16:07:19.441880  6278 net.cpp:165] Memory required for data: 871659800
I0620 16:07:19.441896  6278 layer_factory.hpp:77] Creating layer conv4_1_1x1_proj/bn
I0620 16:07:19.441917  6278 net.cpp:106] Creating Layer conv4_1_1x1_proj/bn
I0620 16:07:19.441925  6278 net.cpp:454] conv4_1_1x1_proj/bn <- conv4_1_1x1_proj
I0620 16:07:19.441934  6278 net.cpp:397] conv4_1_1x1_proj/bn -> conv4_1_1x1_proj (in-place)
I0620 16:07:19.442302  6278 net.cpp:150] Setting up conv4_1_1x1_proj/bn
I0620 16:07:19.442322  6278 net.cpp:157] Top shape: 1 1024 60 60 (3686400)
I0620 16:07:19.442327  6278 net.cpp:165] Memory required for data: 886405400
I0620 16:07:19.442337  6278 layer_factory.hpp:77] Creating layer conv4_1
I0620 16:07:19.442353  6278 net.cpp:106] Creating Layer conv4_1
I0620 16:07:19.442358  6278 net.cpp:454] conv4_1 <- conv4_1_1x1_proj
I0620 16:07:19.442363  6278 net.cpp:454] conv4_1 <- conv4_1_1x1_increase
I0620 16:07:19.442368  6278 net.cpp:411] conv4_1 -> conv4_1
I0620 16:07:19.442396  6278 net.cpp:150] Setting up conv4_1
I0620 16:07:19.442402  6278 net.cpp:157] Top shape: 1 1024 60 60 (3686400)
I0620 16:07:19.442406  6278 net.cpp:165] Memory required for data: 901151000
I0620 16:07:19.442409  6278 layer_factory.hpp:77] Creating layer conv4_1/relu
I0620 16:07:19.442423  6278 net.cpp:106] Creating Layer conv4_1/relu
I0620 16:07:19.442427  6278 net.cpp:454] conv4_1/relu <- conv4_1
I0620 16:07:19.442435  6278 net.cpp:397] conv4_1/relu -> conv4_1 (in-place)
I0620 16:07:19.442442  6278 net.cpp:150] Setting up conv4_1/relu
I0620 16:07:19.442499  6278 net.cpp:157] Top shape: 1 1024 60 60 (3686400)
I0620 16:07:19.442504  6278 net.cpp:165] Memory required for data: 915896600
I0620 16:07:19.442509  6278 layer_factory.hpp:77] Creating layer conv4_1_conv4_1/relu_0_split
I0620 16:07:19.442518  6278 net.cpp:106] Creating Layer conv4_1_conv4_1/relu_0_split
I0620 16:07:19.442523  6278 net.cpp:454] conv4_1_conv4_1/relu_0_split <- conv4_1
I0620 16:07:19.442533  6278 net.cpp:411] conv4_1_conv4_1/relu_0_split -> conv4_1_conv4_1/relu_0_split_0
I0620 16:07:19.442539  6278 net.cpp:411] conv4_1_conv4_1/relu_0_split -> conv4_1_conv4_1/relu_0_split_1
I0620 16:07:19.442576  6278 net.cpp:150] Setting up conv4_1_conv4_1/relu_0_split
I0620 16:07:19.442582  6278 net.cpp:157] Top shape: 1 1024 60 60 (3686400)
I0620 16:07:19.442587  6278 net.cpp:157] Top shape: 1 1024 60 60 (3686400)
I0620 16:07:19.442590  6278 net.cpp:165] Memory required for data: 945387800
I0620 16:07:19.442595  6278 layer_factory.hpp:77] Creating layer conv4_2_1x1_reduce
I0620 16:07:19.442608  6278 net.cpp:106] Creating Layer conv4_2_1x1_reduce
I0620 16:07:19.442613  6278 net.cpp:454] conv4_2_1x1_reduce <- conv4_1_conv4_1/relu_0_split_0
I0620 16:07:19.442625  6278 net.cpp:411] conv4_2_1x1_reduce -> conv4_2_1x1_reduce
I0620 16:07:19.448493  6278 net.cpp:150] Setting up conv4_2_1x1_reduce
I0620 16:07:19.448504  6278 net.cpp:157] Top shape: 1 256 60 60 (921600)
I0620 16:07:19.448506  6278 net.cpp:165] Memory required for data: 949074200
I0620 16:07:19.448511  6278 layer_factory.hpp:77] Creating layer conv4_2_1x1_reduce/bn
I0620 16:07:19.448518  6278 net.cpp:106] Creating Layer conv4_2_1x1_reduce/bn
I0620 16:07:19.448520  6278 net.cpp:454] conv4_2_1x1_reduce/bn <- conv4_2_1x1_reduce
I0620 16:07:19.448523  6278 net.cpp:397] conv4_2_1x1_reduce/bn -> conv4_2_1x1_reduce (in-place)
I0620 16:07:19.448652  6278 net.cpp:150] Setting up conv4_2_1x1_reduce/bn
I0620 16:07:19.448657  6278 net.cpp:157] Top shape: 1 256 60 60 (921600)
I0620 16:07:19.448659  6278 net.cpp:165] Memory required for data: 952760600
I0620 16:07:19.448663  6278 layer_factory.hpp:77] Creating layer conv4_2_1x1_reduce/relu
I0620 16:07:19.448668  6278 net.cpp:106] Creating Layer conv4_2_1x1_reduce/relu
I0620 16:07:19.448669  6278 net.cpp:454] conv4_2_1x1_reduce/relu <- conv4_2_1x1_reduce
I0620 16:07:19.448673  6278 net.cpp:397] conv4_2_1x1_reduce/relu -> conv4_2_1x1_reduce (in-place)
I0620 16:07:19.448676  6278 net.cpp:150] Setting up conv4_2_1x1_reduce/relu
I0620 16:07:19.448679  6278 net.cpp:157] Top shape: 1 256 60 60 (921600)
I0620 16:07:19.448683  6278 net.cpp:165] Memory required for data: 956447000
I0620 16:07:19.448684  6278 layer_factory.hpp:77] Creating layer conv4_2_3x3
I0620 16:07:19.448690  6278 net.cpp:106] Creating Layer conv4_2_3x3
I0620 16:07:19.448693  6278 net.cpp:454] conv4_2_3x3 <- conv4_2_1x1_reduce
I0620 16:07:19.448698  6278 net.cpp:411] conv4_2_3x3 -> conv4_2_3x3
I0620 16:07:19.462235  6278 net.cpp:150] Setting up conv4_2_3x3
I0620 16:07:19.462293  6278 net.cpp:157] Top shape: 1 256 60 60 (921600)
I0620 16:07:19.462297  6278 net.cpp:165] Memory required for data: 960133400
I0620 16:07:19.462311  6278 layer_factory.hpp:77] Creating layer conv4_2_3x3/bn
I0620 16:07:19.462334  6278 net.cpp:106] Creating Layer conv4_2_3x3/bn
I0620 16:07:19.462342  6278 net.cpp:454] conv4_2_3x3/bn <- conv4_2_3x3
I0620 16:07:19.462352  6278 net.cpp:397] conv4_2_3x3/bn -> conv4_2_3x3 (in-place)
I0620 16:07:19.462534  6278 net.cpp:150] Setting up conv4_2_3x3/bn
I0620 16:07:19.462541  6278 net.cpp:157] Top shape: 1 256 60 60 (921600)
I0620 16:07:19.462545  6278 net.cpp:165] Memory required for data: 963819800
I0620 16:07:19.462553  6278 layer_factory.hpp:77] Creating layer conv4_2_3x3/relu
I0620 16:07:19.462563  6278 net.cpp:106] Creating Layer conv4_2_3x3/relu
I0620 16:07:19.462566  6278 net.cpp:454] conv4_2_3x3/relu <- conv4_2_3x3
I0620 16:07:19.462569  6278 net.cpp:397] conv4_2_3x3/relu -> conv4_2_3x3 (in-place)
I0620 16:07:19.462575  6278 net.cpp:150] Setting up conv4_2_3x3/relu
I0620 16:07:19.462579  6278 net.cpp:157] Top shape: 1 256 60 60 (921600)
I0620 16:07:19.462625  6278 net.cpp:165] Memory required for data: 967506200
I0620 16:07:19.462627  6278 layer_factory.hpp:77] Creating layer conv4_2_1x1_increase
I0620 16:07:19.462640  6278 net.cpp:106] Creating Layer conv4_2_1x1_increase
I0620 16:07:19.462641  6278 net.cpp:454] conv4_2_1x1_increase <- conv4_2_3x3
I0620 16:07:19.462646  6278 net.cpp:411] conv4_2_1x1_increase -> conv4_2_1x1_increase
I0620 16:07:19.470691  6278 net.cpp:150] Setting up conv4_2_1x1_increase
I0620 16:07:19.470779  6278 net.cpp:157] Top shape: 1 1024 60 60 (3686400)
I0620 16:07:19.470790  6278 net.cpp:165] Memory required for data: 982251800
I0620 16:07:19.470808  6278 layer_factory.hpp:77] Creating layer conv4_2_1x1_increase/bn
I0620 16:07:19.470835  6278 net.cpp:106] Creating Layer conv4_2_1x1_increase/bn
I0620 16:07:19.470846  6278 net.cpp:454] conv4_2_1x1_increase/bn <- conv4_2_1x1_increase
I0620 16:07:19.470865  6278 net.cpp:397] conv4_2_1x1_increase/bn -> conv4_2_1x1_increase (in-place)
I0620 16:07:19.471141  6278 net.cpp:150] Setting up conv4_2_1x1_increase/bn
I0620 16:07:19.471150  6278 net.cpp:157] Top shape: 1 1024 60 60 (3686400)
I0620 16:07:19.471154  6278 net.cpp:165] Memory required for data: 996997400
I0620 16:07:19.471164  6278 layer_factory.hpp:77] Creating layer conv4_2
I0620 16:07:19.471176  6278 net.cpp:106] Creating Layer conv4_2
I0620 16:07:19.471181  6278 net.cpp:454] conv4_2 <- conv4_1_conv4_1/relu_0_split_1
I0620 16:07:19.471189  6278 net.cpp:454] conv4_2 <- conv4_2_1x1_increase
I0620 16:07:19.471194  6278 net.cpp:411] conv4_2 -> conv4_2
I0620 16:07:19.471220  6278 net.cpp:150] Setting up conv4_2
I0620 16:07:19.471225  6278 net.cpp:157] Top shape: 1 1024 60 60 (3686400)
I0620 16:07:19.471228  6278 net.cpp:165] Memory required for data: 1011743000
I0620 16:07:19.471233  6278 layer_factory.hpp:77] Creating layer conv4_2/relu
I0620 16:07:19.471243  6278 net.cpp:106] Creating Layer conv4_2/relu
I0620 16:07:19.471248  6278 net.cpp:454] conv4_2/relu <- conv4_2
I0620 16:07:19.471254  6278 net.cpp:397] conv4_2/relu -> conv4_2 (in-place)
I0620 16:07:19.471262  6278 net.cpp:150] Setting up conv4_2/relu
I0620 16:07:19.471268  6278 net.cpp:157] Top shape: 1 1024 60 60 (3686400)
I0620 16:07:19.471271  6278 net.cpp:165] Memory required for data: 1026488600
I0620 16:07:19.471276  6278 layer_factory.hpp:77] Creating layer conv4_2_conv4_2/relu_0_split
I0620 16:07:19.471283  6278 net.cpp:106] Creating Layer conv4_2_conv4_2/relu_0_split
I0620 16:07:19.471287  6278 net.cpp:454] conv4_2_conv4_2/relu_0_split <- conv4_2
I0620 16:07:19.471293  6278 net.cpp:411] conv4_2_conv4_2/relu_0_split -> conv4_2_conv4_2/relu_0_split_0
I0620 16:07:19.471318  6278 net.cpp:411] conv4_2_conv4_2/relu_0_split -> conv4_2_conv4_2/relu_0_split_1
I0620 16:07:19.471349  6278 net.cpp:150] Setting up conv4_2_conv4_2/relu_0_split
I0620 16:07:19.471355  6278 net.cpp:157] Top shape: 1 1024 60 60 (3686400)
I0620 16:07:19.471360  6278 net.cpp:157] Top shape: 1 1024 60 60 (3686400)
I0620 16:07:19.471364  6278 net.cpp:165] Memory required for data: 1055979800
I0620 16:07:19.471369  6278 layer_factory.hpp:77] Creating layer conv4_3_1x1_reduce
I0620 16:07:19.471385  6278 net.cpp:106] Creating Layer conv4_3_1x1_reduce
I0620 16:07:19.471390  6278 net.cpp:454] conv4_3_1x1_reduce <- conv4_2_conv4_2/relu_0_split_0
I0620 16:07:19.471396  6278 net.cpp:411] conv4_3_1x1_reduce -> conv4_3_1x1_reduce
I0620 16:07:19.479902  6278 net.cpp:150] Setting up conv4_3_1x1_reduce
I0620 16:07:19.479986  6278 net.cpp:157] Top shape: 1 256 60 60 (921600)
I0620 16:07:19.479992  6278 net.cpp:165] Memory required for data: 1059666200
I0620 16:07:19.480010  6278 layer_factory.hpp:77] Creating layer conv4_3_1x1_reduce/bn
I0620 16:07:19.480037  6278 net.cpp:106] Creating Layer conv4_3_1x1_reduce/bn
I0620 16:07:19.480047  6278 net.cpp:454] conv4_3_1x1_reduce/bn <- conv4_3_1x1_reduce
I0620 16:07:19.480059  6278 net.cpp:397] conv4_3_1x1_reduce/bn -> conv4_3_1x1_reduce (in-place)
I0620 16:07:19.480301  6278 net.cpp:150] Setting up conv4_3_1x1_reduce/bn
I0620 16:07:19.480311  6278 net.cpp:157] Top shape: 1 256 60 60 (921600)
I0620 16:07:19.480371  6278 net.cpp:165] Memory required for data: 1063352600
I0620 16:07:19.480381  6278 layer_factory.hpp:77] Creating layer conv4_3_1x1_reduce/relu
I0620 16:07:19.480392  6278 net.cpp:106] Creating Layer conv4_3_1x1_reduce/relu
I0620 16:07:19.480397  6278 net.cpp:454] conv4_3_1x1_reduce/relu <- conv4_3_1x1_reduce
I0620 16:07:19.480404  6278 net.cpp:397] conv4_3_1x1_reduce/relu -> conv4_3_1x1_reduce (in-place)
I0620 16:07:19.480412  6278 net.cpp:150] Setting up conv4_3_1x1_reduce/relu
I0620 16:07:19.480417  6278 net.cpp:157] Top shape: 1 256 60 60 (921600)
I0620 16:07:19.480422  6278 net.cpp:165] Memory required for data: 1067039000
I0620 16:07:19.480427  6278 layer_factory.hpp:77] Creating layer conv4_3_3x3
I0620 16:07:19.480439  6278 net.cpp:106] Creating Layer conv4_3_3x3
I0620 16:07:19.480443  6278 net.cpp:454] conv4_3_3x3 <- conv4_3_1x1_reduce
I0620 16:07:19.480450  6278 net.cpp:411] conv4_3_3x3 -> conv4_3_3x3
I0620 16:07:19.494680  6278 net.cpp:150] Setting up conv4_3_3x3
I0620 16:07:19.494704  6278 net.cpp:157] Top shape: 1 256 60 60 (921600)
I0620 16:07:19.494706  6278 net.cpp:165] Memory required for data: 1070725400
I0620 16:07:19.494714  6278 layer_factory.hpp:77] Creating layer conv4_3_3x3/bn
I0620 16:07:19.494729  6278 net.cpp:106] Creating Layer conv4_3_3x3/bn
I0620 16:07:19.494734  6278 net.cpp:454] conv4_3_3x3/bn <- conv4_3_3x3
I0620 16:07:19.494738  6278 net.cpp:397] conv4_3_3x3/bn -> conv4_3_3x3 (in-place)
I0620 16:07:19.494902  6278 net.cpp:150] Setting up conv4_3_3x3/bn
I0620 16:07:19.494909  6278 net.cpp:157] Top shape: 1 256 60 60 (921600)
I0620 16:07:19.494911  6278 net.cpp:165] Memory required for data: 1074411800
I0620 16:07:19.494917  6278 layer_factory.hpp:77] Creating layer conv4_3_3x3/relu
I0620 16:07:19.494923  6278 net.cpp:106] Creating Layer conv4_3_3x3/relu
I0620 16:07:19.494925  6278 net.cpp:454] conv4_3_3x3/relu <- conv4_3_3x3
I0620 16:07:19.494930  6278 net.cpp:397] conv4_3_3x3/relu -> conv4_3_3x3 (in-place)
I0620 16:07:19.494933  6278 net.cpp:150] Setting up conv4_3_3x3/relu
I0620 16:07:19.494937  6278 net.cpp:157] Top shape: 1 256 60 60 (921600)
I0620 16:07:19.494940  6278 net.cpp:165] Memory required for data: 1078098200
I0620 16:07:19.494943  6278 layer_factory.hpp:77] Creating layer conv4_3_1x1_increase
I0620 16:07:19.494951  6278 net.cpp:106] Creating Layer conv4_3_1x1_increase
I0620 16:07:19.494953  6278 net.cpp:454] conv4_3_1x1_increase <- conv4_3_3x3
I0620 16:07:19.494958  6278 net.cpp:411] conv4_3_1x1_increase -> conv4_3_1x1_increase
I0620 16:07:19.501247  6278 net.cpp:150] Setting up conv4_3_1x1_increase
I0620 16:07:19.501260  6278 net.cpp:157] Top shape: 1 1024 60 60 (3686400)
I0620 16:07:19.501262  6278 net.cpp:165] Memory required for data: 1092843800
I0620 16:07:19.501266  6278 layer_factory.hpp:77] Creating layer conv4_3_1x1_increase/bn
I0620 16:07:19.501274  6278 net.cpp:106] Creating Layer conv4_3_1x1_increase/bn
I0620 16:07:19.501277  6278 net.cpp:454] conv4_3_1x1_increase/bn <- conv4_3_1x1_increase
I0620 16:07:19.501282  6278 net.cpp:397] conv4_3_1x1_increase/bn -> conv4_3_1x1_increase (in-place)
I0620 16:07:19.501417  6278 net.cpp:150] Setting up conv4_3_1x1_increase/bn
I0620 16:07:19.501421  6278 net.cpp:157] Top shape: 1 1024 60 60 (3686400)
I0620 16:07:19.501425  6278 net.cpp:165] Memory required for data: 1107589400
I0620 16:07:19.501430  6278 layer_factory.hpp:77] Creating layer conv4_3
I0620 16:07:19.501435  6278 net.cpp:106] Creating Layer conv4_3
I0620 16:07:19.501438  6278 net.cpp:454] conv4_3 <- conv4_2_conv4_2/relu_0_split_1
I0620 16:07:19.501441  6278 net.cpp:454] conv4_3 <- conv4_3_1x1_increase
I0620 16:07:19.501444  6278 net.cpp:411] conv4_3 -> conv4_3
I0620 16:07:19.501459  6278 net.cpp:150] Setting up conv4_3
I0620 16:07:19.501463  6278 net.cpp:157] Top shape: 1 1024 60 60 (3686400)
I0620 16:07:19.501466  6278 net.cpp:165] Memory required for data: 1122335000
I0620 16:07:19.501469  6278 layer_factory.hpp:77] Creating layer conv4_3/relu
I0620 16:07:19.501473  6278 net.cpp:106] Creating Layer conv4_3/relu
I0620 16:07:19.501503  6278 net.cpp:454] conv4_3/relu <- conv4_3
I0620 16:07:19.501508  6278 net.cpp:397] conv4_3/relu -> conv4_3 (in-place)
I0620 16:07:19.501513  6278 net.cpp:150] Setting up conv4_3/relu
I0620 16:07:19.501516  6278 net.cpp:157] Top shape: 1 1024 60 60 (3686400)
I0620 16:07:19.501519  6278 net.cpp:165] Memory required for data: 1137080600
I0620 16:07:19.501523  6278 layer_factory.hpp:77] Creating layer conv4_3_conv4_3/relu_0_split
I0620 16:07:19.501526  6278 net.cpp:106] Creating Layer conv4_3_conv4_3/relu_0_split
I0620 16:07:19.501528  6278 net.cpp:454] conv4_3_conv4_3/relu_0_split <- conv4_3
I0620 16:07:19.501533  6278 net.cpp:411] conv4_3_conv4_3/relu_0_split -> conv4_3_conv4_3/relu_0_split_0
I0620 16:07:19.501536  6278 net.cpp:411] conv4_3_conv4_3/relu_0_split -> conv4_3_conv4_3/relu_0_split_1
I0620 16:07:19.501559  6278 net.cpp:150] Setting up conv4_3_conv4_3/relu_0_split
I0620 16:07:19.501562  6278 net.cpp:157] Top shape: 1 1024 60 60 (3686400)
I0620 16:07:19.501565  6278 net.cpp:157] Top shape: 1 1024 60 60 (3686400)
I0620 16:07:19.501567  6278 net.cpp:165] Memory required for data: 1166571800
I0620 16:07:19.501570  6278 layer_factory.hpp:77] Creating layer conv4_4_1x1_reduce
I0620 16:07:19.501587  6278 net.cpp:106] Creating Layer conv4_4_1x1_reduce
I0620 16:07:19.501590  6278 net.cpp:454] conv4_4_1x1_reduce <- conv4_3_conv4_3/relu_0_split_0
I0620 16:07:19.501595  6278 net.cpp:411] conv4_4_1x1_reduce -> conv4_4_1x1_reduce
I0620 16:07:19.507344  6278 net.cpp:150] Setting up conv4_4_1x1_reduce
I0620 16:07:19.507360  6278 net.cpp:157] Top shape: 1 256 60 60 (921600)
I0620 16:07:19.507364  6278 net.cpp:165] Memory required for data: 1170258200
I0620 16:07:19.507369  6278 layer_factory.hpp:77] Creating layer conv4_4_1x1_reduce/bn
I0620 16:07:19.507377  6278 net.cpp:106] Creating Layer conv4_4_1x1_reduce/bn
I0620 16:07:19.507381  6278 net.cpp:454] conv4_4_1x1_reduce/bn <- conv4_4_1x1_reduce
I0620 16:07:19.507386  6278 net.cpp:397] conv4_4_1x1_reduce/bn -> conv4_4_1x1_reduce (in-place)
I0620 16:07:19.507535  6278 net.cpp:150] Setting up conv4_4_1x1_reduce/bn
I0620 16:07:19.507539  6278 net.cpp:157] Top shape: 1 256 60 60 (921600)
I0620 16:07:19.507542  6278 net.cpp:165] Memory required for data: 1173944600
I0620 16:07:19.507549  6278 layer_factory.hpp:77] Creating layer conv4_4_1x1_reduce/relu
I0620 16:07:19.507555  6278 net.cpp:106] Creating Layer conv4_4_1x1_reduce/relu
I0620 16:07:19.507557  6278 net.cpp:454] conv4_4_1x1_reduce/relu <- conv4_4_1x1_reduce
I0620 16:07:19.507560  6278 net.cpp:397] conv4_4_1x1_reduce/relu -> conv4_4_1x1_reduce (in-place)
I0620 16:07:19.507566  6278 net.cpp:150] Setting up conv4_4_1x1_reduce/relu
I0620 16:07:19.507570  6278 net.cpp:157] Top shape: 1 256 60 60 (921600)
I0620 16:07:19.507572  6278 net.cpp:165] Memory required for data: 1177631000
I0620 16:07:19.507575  6278 layer_factory.hpp:77] Creating layer conv4_4_3x3
I0620 16:07:19.507596  6278 net.cpp:106] Creating Layer conv4_4_3x3
I0620 16:07:19.507597  6278 net.cpp:454] conv4_4_3x3 <- conv4_4_1x1_reduce
I0620 16:07:19.507602  6278 net.cpp:411] conv4_4_3x3 -> conv4_4_3x3
I0620 16:07:19.521174  6278 net.cpp:150] Setting up conv4_4_3x3
I0620 16:07:19.521240  6278 net.cpp:157] Top shape: 1 256 60 60 (921600)
I0620 16:07:19.521245  6278 net.cpp:165] Memory required for data: 1181317400
I0620 16:07:19.521256  6278 layer_factory.hpp:77] Creating layer conv4_4_3x3/bn
I0620 16:07:19.521280  6278 net.cpp:106] Creating Layer conv4_4_3x3/bn
I0620 16:07:19.521287  6278 net.cpp:454] conv4_4_3x3/bn <- conv4_4_3x3
I0620 16:07:19.521296  6278 net.cpp:397] conv4_4_3x3/bn -> conv4_4_3x3 (in-place)
I0620 16:07:19.521494  6278 net.cpp:150] Setting up conv4_4_3x3/bn
I0620 16:07:19.521502  6278 net.cpp:157] Top shape: 1 256 60 60 (921600)
I0620 16:07:19.521504  6278 net.cpp:165] Memory required for data: 1185003800
I0620 16:07:19.521510  6278 layer_factory.hpp:77] Creating layer conv4_4_3x3/relu
I0620 16:07:19.521517  6278 net.cpp:106] Creating Layer conv4_4_3x3/relu
I0620 16:07:19.521520  6278 net.cpp:454] conv4_4_3x3/relu <- conv4_4_3x3
I0620 16:07:19.521561  6278 net.cpp:397] conv4_4_3x3/relu -> conv4_4_3x3 (in-place)
I0620 16:07:19.521567  6278 net.cpp:150] Setting up conv4_4_3x3/relu
I0620 16:07:19.521571  6278 net.cpp:157] Top shape: 1 256 60 60 (921600)
I0620 16:07:19.521574  6278 net.cpp:165] Memory required for data: 1188690200
I0620 16:07:19.521577  6278 layer_factory.hpp:77] Creating layer conv4_4_1x1_increase
I0620 16:07:19.521589  6278 net.cpp:106] Creating Layer conv4_4_1x1_increase
I0620 16:07:19.521592  6278 net.cpp:454] conv4_4_1x1_increase <- conv4_4_3x3
I0620 16:07:19.521600  6278 net.cpp:411] conv4_4_1x1_increase -> conv4_4_1x1_increase
I0620 16:07:19.531483  6278 net.cpp:150] Setting up conv4_4_1x1_increase
I0620 16:07:19.531576  6278 net.cpp:157] Top shape: 1 1024 60 60 (3686400)
I0620 16:07:19.531587  6278 net.cpp:165] Memory required for data: 1203435800
I0620 16:07:19.531605  6278 layer_factory.hpp:77] Creating layer conv4_4_1x1_increase/bn
I0620 16:07:19.531637  6278 net.cpp:106] Creating Layer conv4_4_1x1_increase/bn
I0620 16:07:19.531648  6278 net.cpp:454] conv4_4_1x1_increase/bn <- conv4_4_1x1_increase
I0620 16:07:19.531661  6278 net.cpp:397] conv4_4_1x1_increase/bn -> conv4_4_1x1_increase (in-place)
I0620 16:07:19.531927  6278 net.cpp:150] Setting up conv4_4_1x1_increase/bn
I0620 16:07:19.531935  6278 net.cpp:157] Top shape: 1 1024 60 60 (3686400)
I0620 16:07:19.531942  6278 net.cpp:165] Memory required for data: 1218181400
I0620 16:07:19.531952  6278 layer_factory.hpp:77] Creating layer conv4_4
I0620 16:07:19.531965  6278 net.cpp:106] Creating Layer conv4_4
I0620 16:07:19.531970  6278 net.cpp:454] conv4_4 <- conv4_3_conv4_3/relu_0_split_1
I0620 16:07:19.531975  6278 net.cpp:454] conv4_4 <- conv4_4_1x1_increase
I0620 16:07:19.531981  6278 net.cpp:411] conv4_4 -> conv4_4
I0620 16:07:19.532004  6278 net.cpp:150] Setting up conv4_4
I0620 16:07:19.532011  6278 net.cpp:157] Top shape: 1 1024 60 60 (3686400)
I0620 16:07:19.532014  6278 net.cpp:165] Memory required for data: 1232927000
I0620 16:07:19.532018  6278 layer_factory.hpp:77] Creating layer conv4_4/relu
I0620 16:07:19.532032  6278 net.cpp:106] Creating Layer conv4_4/relu
I0620 16:07:19.532037  6278 net.cpp:454] conv4_4/relu <- conv4_4
I0620 16:07:19.532042  6278 net.cpp:397] conv4_4/relu -> conv4_4 (in-place)
I0620 16:07:19.532048  6278 net.cpp:150] Setting up conv4_4/relu
I0620 16:07:19.532054  6278 net.cpp:157] Top shape: 1 1024 60 60 (3686400)
I0620 16:07:19.532058  6278 net.cpp:165] Memory required for data: 1247672600
I0620 16:07:19.532063  6278 layer_factory.hpp:77] Creating layer conv4_4_conv4_4/relu_0_split
I0620 16:07:19.532070  6278 net.cpp:106] Creating Layer conv4_4_conv4_4/relu_0_split
I0620 16:07:19.532074  6278 net.cpp:454] conv4_4_conv4_4/relu_0_split <- conv4_4
I0620 16:07:19.532080  6278 net.cpp:411] conv4_4_conv4_4/relu_0_split -> conv4_4_conv4_4/relu_0_split_0
I0620 16:07:19.532086  6278 net.cpp:411] conv4_4_conv4_4/relu_0_split -> conv4_4_conv4_4/relu_0_split_1
I0620 16:07:19.532117  6278 net.cpp:150] Setting up conv4_4_conv4_4/relu_0_split
I0620 16:07:19.532124  6278 net.cpp:157] Top shape: 1 1024 60 60 (3686400)
I0620 16:07:19.532129  6278 net.cpp:157] Top shape: 1 1024 60 60 (3686400)
I0620 16:07:19.532132  6278 net.cpp:165] Memory required for data: 1277163800
I0620 16:07:19.532137  6278 layer_factory.hpp:77] Creating layer conv4_5_1x1_reduce
I0620 16:07:19.532153  6278 net.cpp:106] Creating Layer conv4_5_1x1_reduce
I0620 16:07:19.532158  6278 net.cpp:454] conv4_5_1x1_reduce <- conv4_4_conv4_4/relu_0_split_0
I0620 16:07:19.532165  6278 net.cpp:411] conv4_5_1x1_reduce -> conv4_5_1x1_reduce
I0620 16:07:19.538182  6278 net.cpp:150] Setting up conv4_5_1x1_reduce
I0620 16:07:19.538190  6278 net.cpp:157] Top shape: 1 256 60 60 (921600)
I0620 16:07:19.538193  6278 net.cpp:165] Memory required for data: 1280850200
I0620 16:07:19.538199  6278 layer_factory.hpp:77] Creating layer conv4_5_1x1_reduce/bn
I0620 16:07:19.538208  6278 net.cpp:106] Creating Layer conv4_5_1x1_reduce/bn
I0620 16:07:19.538213  6278 net.cpp:454] conv4_5_1x1_reduce/bn <- conv4_5_1x1_reduce
I0620 16:07:19.538249  6278 net.cpp:397] conv4_5_1x1_reduce/bn -> conv4_5_1x1_reduce (in-place)
I0620 16:07:19.538388  6278 net.cpp:150] Setting up conv4_5_1x1_reduce/bn
I0620 16:07:19.538393  6278 net.cpp:157] Top shape: 1 256 60 60 (921600)
I0620 16:07:19.538396  6278 net.cpp:165] Memory required for data: 1284536600
I0620 16:07:19.538403  6278 layer_factory.hpp:77] Creating layer conv4_5_1x1_reduce/relu
I0620 16:07:19.538408  6278 net.cpp:106] Creating Layer conv4_5_1x1_reduce/relu
I0620 16:07:19.538409  6278 net.cpp:454] conv4_5_1x1_reduce/relu <- conv4_5_1x1_reduce
I0620 16:07:19.538414  6278 net.cpp:397] conv4_5_1x1_reduce/relu -> conv4_5_1x1_reduce (in-place)
I0620 16:07:19.538417  6278 net.cpp:150] Setting up conv4_5_1x1_reduce/relu
I0620 16:07:19.538420  6278 net.cpp:157] Top shape: 1 256 60 60 (921600)
I0620 16:07:19.538424  6278 net.cpp:165] Memory required for data: 1288223000
I0620 16:07:19.538425  6278 layer_factory.hpp:77] Creating layer conv4_5_3x3
I0620 16:07:19.538431  6278 net.cpp:106] Creating Layer conv4_5_3x3
I0620 16:07:19.538434  6278 net.cpp:454] conv4_5_3x3 <- conv4_5_1x1_reduce
I0620 16:07:19.538439  6278 net.cpp:411] conv4_5_3x3 -> conv4_5_3x3
I0620 16:07:19.551606  6278 net.cpp:150] Setting up conv4_5_3x3
I0620 16:07:19.551630  6278 net.cpp:157] Top shape: 1 256 60 60 (921600)
I0620 16:07:19.551633  6278 net.cpp:165] Memory required for data: 1291909400
I0620 16:07:19.551640  6278 layer_factory.hpp:77] Creating layer conv4_5_3x3/bn
I0620 16:07:19.551651  6278 net.cpp:106] Creating Layer conv4_5_3x3/bn
I0620 16:07:19.551656  6278 net.cpp:454] conv4_5_3x3/bn <- conv4_5_3x3
I0620 16:07:19.551661  6278 net.cpp:397] conv4_5_3x3/bn -> conv4_5_3x3 (in-place)
I0620 16:07:19.551805  6278 net.cpp:150] Setting up conv4_5_3x3/bn
I0620 16:07:19.551810  6278 net.cpp:157] Top shape: 1 256 60 60 (921600)
I0620 16:07:19.551812  6278 net.cpp:165] Memory required for data: 1295595800
I0620 16:07:19.551818  6278 layer_factory.hpp:77] Creating layer conv4_5_3x3/relu
I0620 16:07:19.551826  6278 net.cpp:106] Creating Layer conv4_5_3x3/relu
I0620 16:07:19.551829  6278 net.cpp:454] conv4_5_3x3/relu <- conv4_5_3x3
I0620 16:07:19.551832  6278 net.cpp:397] conv4_5_3x3/relu -> conv4_5_3x3 (in-place)
I0620 16:07:19.551837  6278 net.cpp:150] Setting up conv4_5_3x3/relu
I0620 16:07:19.551841  6278 net.cpp:157] Top shape: 1 256 60 60 (921600)
I0620 16:07:19.551843  6278 net.cpp:165] Memory required for data: 1299282200
I0620 16:07:19.551846  6278 layer_factory.hpp:77] Creating layer conv4_5_1x1_increase
I0620 16:07:19.551852  6278 net.cpp:106] Creating Layer conv4_5_1x1_increase
I0620 16:07:19.551856  6278 net.cpp:454] conv4_5_1x1_increase <- conv4_5_3x3
I0620 16:07:19.551861  6278 net.cpp:411] conv4_5_1x1_increase -> conv4_5_1x1_increase
I0620 16:07:19.558164  6278 net.cpp:150] Setting up conv4_5_1x1_increase
I0620 16:07:19.558178  6278 net.cpp:157] Top shape: 1 1024 60 60 (3686400)
I0620 16:07:19.558182  6278 net.cpp:165] Memory required for data: 1314027800
I0620 16:07:19.558185  6278 layer_factory.hpp:77] Creating layer conv4_5_1x1_increase/bn
I0620 16:07:19.558192  6278 net.cpp:106] Creating Layer conv4_5_1x1_increase/bn
I0620 16:07:19.558197  6278 net.cpp:454] conv4_5_1x1_increase/bn <- conv4_5_1x1_increase
I0620 16:07:19.558200  6278 net.cpp:397] conv4_5_1x1_increase/bn -> conv4_5_1x1_increase (in-place)
I0620 16:07:19.558344  6278 net.cpp:150] Setting up conv4_5_1x1_increase/bn
I0620 16:07:19.558349  6278 net.cpp:157] Top shape: 1 1024 60 60 (3686400)
I0620 16:07:19.558351  6278 net.cpp:165] Memory required for data: 1328773400
I0620 16:07:19.558357  6278 layer_factory.hpp:77] Creating layer conv4_5
I0620 16:07:19.558360  6278 net.cpp:106] Creating Layer conv4_5
I0620 16:07:19.558363  6278 net.cpp:454] conv4_5 <- conv4_4_conv4_4/relu_0_split_1
I0620 16:07:19.558367  6278 net.cpp:454] conv4_5 <- conv4_5_1x1_increase
I0620 16:07:19.558369  6278 net.cpp:411] conv4_5 -> conv4_5
I0620 16:07:19.558383  6278 net.cpp:150] Setting up conv4_5
I0620 16:07:19.558387  6278 net.cpp:157] Top shape: 1 1024 60 60 (3686400)
I0620 16:07:19.558403  6278 net.cpp:165] Memory required for data: 1343519000
I0620 16:07:19.558404  6278 layer_factory.hpp:77] Creating layer conv4_5/relu
I0620 16:07:19.558409  6278 net.cpp:106] Creating Layer conv4_5/relu
I0620 16:07:19.558411  6278 net.cpp:454] conv4_5/relu <- conv4_5
I0620 16:07:19.558414  6278 net.cpp:397] conv4_5/relu -> conv4_5 (in-place)
I0620 16:07:19.558418  6278 net.cpp:150] Setting up conv4_5/relu
I0620 16:07:19.558421  6278 net.cpp:157] Top shape: 1 1024 60 60 (3686400)
I0620 16:07:19.558423  6278 net.cpp:165] Memory required for data: 1358264600
I0620 16:07:19.558425  6278 layer_factory.hpp:77] Creating layer conv4_5_conv4_5/relu_0_split
I0620 16:07:19.558431  6278 net.cpp:106] Creating Layer conv4_5_conv4_5/relu_0_split
I0620 16:07:19.558434  6278 net.cpp:454] conv4_5_conv4_5/relu_0_split <- conv4_5
I0620 16:07:19.558436  6278 net.cpp:411] conv4_5_conv4_5/relu_0_split -> conv4_5_conv4_5/relu_0_split_0
I0620 16:07:19.558440  6278 net.cpp:411] conv4_5_conv4_5/relu_0_split -> conv4_5_conv4_5/relu_0_split_1
I0620 16:07:19.558462  6278 net.cpp:150] Setting up conv4_5_conv4_5/relu_0_split
I0620 16:07:19.558466  6278 net.cpp:157] Top shape: 1 1024 60 60 (3686400)
I0620 16:07:19.558470  6278 net.cpp:157] Top shape: 1 1024 60 60 (3686400)
I0620 16:07:19.558472  6278 net.cpp:165] Memory required for data: 1387755800
I0620 16:07:19.558475  6278 layer_factory.hpp:77] Creating layer conv4_6_1x1_reduce
I0620 16:07:19.558481  6278 net.cpp:106] Creating Layer conv4_6_1x1_reduce
I0620 16:07:19.558485  6278 net.cpp:454] conv4_6_1x1_reduce <- conv4_5_conv4_5/relu_0_split_0
I0620 16:07:19.558488  6278 net.cpp:411] conv4_6_1x1_reduce -> conv4_6_1x1_reduce
I0620 16:07:19.564190  6278 net.cpp:150] Setting up conv4_6_1x1_reduce
I0620 16:07:19.564213  6278 net.cpp:157] Top shape: 1 256 60 60 (921600)
I0620 16:07:19.564215  6278 net.cpp:165] Memory required for data: 1391442200
I0620 16:07:19.564223  6278 layer_factory.hpp:77] Creating layer conv4_6_1x1_reduce/bn
I0620 16:07:19.564235  6278 net.cpp:106] Creating Layer conv4_6_1x1_reduce/bn
I0620 16:07:19.564244  6278 net.cpp:454] conv4_6_1x1_reduce/bn <- conv4_6_1x1_reduce
I0620 16:07:19.564250  6278 net.cpp:397] conv4_6_1x1_reduce/bn -> conv4_6_1x1_reduce (in-place)
I0620 16:07:19.564411  6278 net.cpp:150] Setting up conv4_6_1x1_reduce/bn
I0620 16:07:19.564416  6278 net.cpp:157] Top shape: 1 256 60 60 (921600)
I0620 16:07:19.564419  6278 net.cpp:165] Memory required for data: 1395128600
I0620 16:07:19.564424  6278 layer_factory.hpp:77] Creating layer conv4_6_1x1_reduce/relu
I0620 16:07:19.564430  6278 net.cpp:106] Creating Layer conv4_6_1x1_reduce/relu
I0620 16:07:19.564433  6278 net.cpp:454] conv4_6_1x1_reduce/relu <- conv4_6_1x1_reduce
I0620 16:07:19.564436  6278 net.cpp:397] conv4_6_1x1_reduce/relu -> conv4_6_1x1_reduce (in-place)
I0620 16:07:19.564441  6278 net.cpp:150] Setting up conv4_6_1x1_reduce/relu
I0620 16:07:19.564445  6278 net.cpp:157] Top shape: 1 256 60 60 (921600)
I0620 16:07:19.564447  6278 net.cpp:165] Memory required for data: 1398815000
I0620 16:07:19.564450  6278 layer_factory.hpp:77] Creating layer conv4_6_3x3
I0620 16:07:19.564457  6278 net.cpp:106] Creating Layer conv4_6_3x3
I0620 16:07:19.564460  6278 net.cpp:454] conv4_6_3x3 <- conv4_6_1x1_reduce
I0620 16:07:19.564465  6278 net.cpp:411] conv4_6_3x3 -> conv4_6_3x3
I0620 16:07:19.581862  6278 net.cpp:150] Setting up conv4_6_3x3
I0620 16:07:19.581920  6278 net.cpp:157] Top shape: 1 256 60 60 (921600)
I0620 16:07:19.581925  6278 net.cpp:165] Memory required for data: 1402501400
I0620 16:07:19.581940  6278 layer_factory.hpp:77] Creating layer conv4_6_3x3/bn
I0620 16:07:19.581964  6278 net.cpp:106] Creating Layer conv4_6_3x3/bn
I0620 16:07:19.581970  6278 net.cpp:454] conv4_6_3x3/bn <- conv4_6_3x3
I0620 16:07:19.581979  6278 net.cpp:397] conv4_6_3x3/bn -> conv4_6_3x3 (in-place)
I0620 16:07:19.582187  6278 net.cpp:150] Setting up conv4_6_3x3/bn
I0620 16:07:19.582193  6278 net.cpp:157] Top shape: 1 256 60 60 (921600)
I0620 16:07:19.582197  6278 net.cpp:165] Memory required for data: 1406187800
I0620 16:07:19.582240  6278 layer_factory.hpp:77] Creating layer conv4_6_3x3/relu
I0620 16:07:19.582249  6278 net.cpp:106] Creating Layer conv4_6_3x3/relu
I0620 16:07:19.582253  6278 net.cpp:454] conv4_6_3x3/relu <- conv4_6_3x3
I0620 16:07:19.582258  6278 net.cpp:397] conv4_6_3x3/relu -> conv4_6_3x3 (in-place)
I0620 16:07:19.582265  6278 net.cpp:150] Setting up conv4_6_3x3/relu
I0620 16:07:19.582270  6278 net.cpp:157] Top shape: 1 256 60 60 (921600)
I0620 16:07:19.582274  6278 net.cpp:165] Memory required for data: 1409874200
I0620 16:07:19.582278  6278 layer_factory.hpp:77] Creating layer conv4_6_1x1_increase
I0620 16:07:19.582289  6278 net.cpp:106] Creating Layer conv4_6_1x1_increase
I0620 16:07:19.582293  6278 net.cpp:454] conv4_6_1x1_increase <- conv4_6_3x3
I0620 16:07:19.582299  6278 net.cpp:411] conv4_6_1x1_increase -> conv4_6_1x1_increase
I0620 16:07:19.589740  6278 net.cpp:150] Setting up conv4_6_1x1_increase
I0620 16:07:19.589762  6278 net.cpp:157] Top shape: 1 1024 60 60 (3686400)
I0620 16:07:19.589766  6278 net.cpp:165] Memory required for data: 1424619800
I0620 16:07:19.589771  6278 layer_factory.hpp:77] Creating layer conv4_6_1x1_increase/bn
I0620 16:07:19.589781  6278 net.cpp:106] Creating Layer conv4_6_1x1_increase/bn
I0620 16:07:19.589787  6278 net.cpp:454] conv4_6_1x1_increase/bn <- conv4_6_1x1_increase
I0620 16:07:19.589792  6278 net.cpp:397] conv4_6_1x1_increase/bn -> conv4_6_1x1_increase (in-place)
I0620 16:07:19.589959  6278 net.cpp:150] Setting up conv4_6_1x1_increase/bn
I0620 16:07:19.589965  6278 net.cpp:157] Top shape: 1 1024 60 60 (3686400)
I0620 16:07:19.589968  6278 net.cpp:165] Memory required for data: 1439365400
I0620 16:07:19.589974  6278 layer_factory.hpp:77] Creating layer conv4_6
I0620 16:07:19.589982  6278 net.cpp:106] Creating Layer conv4_6
I0620 16:07:19.589985  6278 net.cpp:454] conv4_6 <- conv4_5_conv4_5/relu_0_split_1
I0620 16:07:19.589988  6278 net.cpp:454] conv4_6 <- conv4_6_1x1_increase
I0620 16:07:19.589994  6278 net.cpp:411] conv4_6 -> conv4_6
I0620 16:07:19.590008  6278 net.cpp:150] Setting up conv4_6
I0620 16:07:19.590013  6278 net.cpp:157] Top shape: 1 1024 60 60 (3686400)
I0620 16:07:19.590014  6278 net.cpp:165] Memory required for data: 1454111000
I0620 16:07:19.590018  6278 layer_factory.hpp:77] Creating layer conv4_6/relu
I0620 16:07:19.590023  6278 net.cpp:106] Creating Layer conv4_6/relu
I0620 16:07:19.590026  6278 net.cpp:454] conv4_6/relu <- conv4_6
I0620 16:07:19.590029  6278 net.cpp:397] conv4_6/relu -> conv4_6 (in-place)
I0620 16:07:19.590035  6278 net.cpp:150] Setting up conv4_6/relu
I0620 16:07:19.590039  6278 net.cpp:157] Top shape: 1 1024 60 60 (3686400)
I0620 16:07:19.590041  6278 net.cpp:165] Memory required for data: 1468856600
I0620 16:07:19.590044  6278 layer_factory.hpp:77] Creating layer conv4_6_conv4_6/relu_0_split
I0620 16:07:19.590049  6278 net.cpp:106] Creating Layer conv4_6_conv4_6/relu_0_split
I0620 16:07:19.590051  6278 net.cpp:454] conv4_6_conv4_6/relu_0_split <- conv4_6
I0620 16:07:19.590054  6278 net.cpp:411] conv4_6_conv4_6/relu_0_split -> conv4_6_conv4_6/relu_0_split_0
I0620 16:07:19.590059  6278 net.cpp:411] conv4_6_conv4_6/relu_0_split -> conv4_6_conv4_6/relu_0_split_1
I0620 16:07:19.590080  6278 net.cpp:150] Setting up conv4_6_conv4_6/relu_0_split
I0620 16:07:19.590083  6278 net.cpp:157] Top shape: 1 1024 60 60 (3686400)
I0620 16:07:19.590087  6278 net.cpp:157] Top shape: 1 1024 60 60 (3686400)
I0620 16:07:19.590090  6278 net.cpp:165] Memory required for data: 1498347800
I0620 16:07:19.590092  6278 layer_factory.hpp:77] Creating layer conv4_7_1x1_reduce
I0620 16:07:19.590101  6278 net.cpp:106] Creating Layer conv4_7_1x1_reduce
I0620 16:07:19.590104  6278 net.cpp:454] conv4_7_1x1_reduce <- conv4_6_conv4_6/relu_0_split_0
I0620 16:07:19.590109  6278 net.cpp:411] conv4_7_1x1_reduce -> conv4_7_1x1_reduce
I0620 16:07:19.595908  6278 net.cpp:150] Setting up conv4_7_1x1_reduce
I0620 16:07:19.595930  6278 net.cpp:157] Top shape: 1 256 60 60 (921600)
I0620 16:07:19.595932  6278 net.cpp:165] Memory required for data: 1502034200
I0620 16:07:19.595960  6278 layer_factory.hpp:77] Creating layer conv4_7_1x1_reduce/bn
I0620 16:07:19.595976  6278 net.cpp:106] Creating Layer conv4_7_1x1_reduce/bn
I0620 16:07:19.595983  6278 net.cpp:454] conv4_7_1x1_reduce/bn <- conv4_7_1x1_reduce
I0620 16:07:19.595988  6278 net.cpp:397] conv4_7_1x1_reduce/bn -> conv4_7_1x1_reduce (in-place)
I0620 16:07:19.596146  6278 net.cpp:150] Setting up conv4_7_1x1_reduce/bn
I0620 16:07:19.596151  6278 net.cpp:157] Top shape: 1 256 60 60 (921600)
I0620 16:07:19.596154  6278 net.cpp:165] Memory required for data: 1505720600
I0620 16:07:19.596160  6278 layer_factory.hpp:77] Creating layer conv4_7_1x1_reduce/relu
I0620 16:07:19.596166  6278 net.cpp:106] Creating Layer conv4_7_1x1_reduce/relu
I0620 16:07:19.596169  6278 net.cpp:454] conv4_7_1x1_reduce/relu <- conv4_7_1x1_reduce
I0620 16:07:19.596174  6278 net.cpp:397] conv4_7_1x1_reduce/relu -> conv4_7_1x1_reduce (in-place)
I0620 16:07:19.596177  6278 net.cpp:150] Setting up conv4_7_1x1_reduce/relu
I0620 16:07:19.596181  6278 net.cpp:157] Top shape: 1 256 60 60 (921600)
I0620 16:07:19.596184  6278 net.cpp:165] Memory required for data: 1509407000
I0620 16:07:19.596186  6278 layer_factory.hpp:77] Creating layer conv4_7_3x3
I0620 16:07:19.596194  6278 net.cpp:106] Creating Layer conv4_7_3x3
I0620 16:07:19.596196  6278 net.cpp:454] conv4_7_3x3 <- conv4_7_1x1_reduce
I0620 16:07:19.596200  6278 net.cpp:411] conv4_7_3x3 -> conv4_7_3x3
I0620 16:07:19.610154  6278 net.cpp:150] Setting up conv4_7_3x3
I0620 16:07:19.610178  6278 net.cpp:157] Top shape: 1 256 60 60 (921600)
I0620 16:07:19.610182  6278 net.cpp:165] Memory required for data: 1513093400
I0620 16:07:19.610190  6278 layer_factory.hpp:77] Creating layer conv4_7_3x3/bn
I0620 16:07:19.610201  6278 net.cpp:106] Creating Layer conv4_7_3x3/bn
I0620 16:07:19.610208  6278 net.cpp:454] conv4_7_3x3/bn <- conv4_7_3x3
I0620 16:07:19.610213  6278 net.cpp:397] conv4_7_3x3/bn -> conv4_7_3x3 (in-place)
I0620 16:07:19.610383  6278 net.cpp:150] Setting up conv4_7_3x3/bn
I0620 16:07:19.610389  6278 net.cpp:157] Top shape: 1 256 60 60 (921600)
I0620 16:07:19.610391  6278 net.cpp:165] Memory required for data: 1516779800
I0620 16:07:19.610396  6278 layer_factory.hpp:77] Creating layer conv4_7_3x3/relu
I0620 16:07:19.610401  6278 net.cpp:106] Creating Layer conv4_7_3x3/relu
I0620 16:07:19.610404  6278 net.cpp:454] conv4_7_3x3/relu <- conv4_7_3x3
I0620 16:07:19.610406  6278 net.cpp:397] conv4_7_3x3/relu -> conv4_7_3x3 (in-place)
I0620 16:07:19.610410  6278 net.cpp:150] Setting up conv4_7_3x3/relu
I0620 16:07:19.610414  6278 net.cpp:157] Top shape: 1 256 60 60 (921600)
I0620 16:07:19.610417  6278 net.cpp:165] Memory required for data: 1520466200
I0620 16:07:19.610420  6278 layer_factory.hpp:77] Creating layer conv4_7_1x1_increase
I0620 16:07:19.610426  6278 net.cpp:106] Creating Layer conv4_7_1x1_increase
I0620 16:07:19.610430  6278 net.cpp:454] conv4_7_1x1_increase <- conv4_7_3x3
I0620 16:07:19.610433  6278 net.cpp:411] conv4_7_1x1_increase -> conv4_7_1x1_increase
I0620 16:07:19.616770  6278 net.cpp:150] Setting up conv4_7_1x1_increase
I0620 16:07:19.616791  6278 net.cpp:157] Top shape: 1 1024 60 60 (3686400)
I0620 16:07:19.616794  6278 net.cpp:165] Memory required for data: 1535211800
I0620 16:07:19.616801  6278 layer_factory.hpp:77] Creating layer conv4_7_1x1_increase/bn
I0620 16:07:19.616811  6278 net.cpp:106] Creating Layer conv4_7_1x1_increase/bn
I0620 16:07:19.616816  6278 net.cpp:454] conv4_7_1x1_increase/bn <- conv4_7_1x1_increase
I0620 16:07:19.616821  6278 net.cpp:397] conv4_7_1x1_increase/bn -> conv4_7_1x1_increase (in-place)
I0620 16:07:19.616981  6278 net.cpp:150] Setting up conv4_7_1x1_increase/bn
I0620 16:07:19.616986  6278 net.cpp:157] Top shape: 1 1024 60 60 (3686400)
I0620 16:07:19.616988  6278 net.cpp:165] Memory required for data: 1549957400
I0620 16:07:19.616993  6278 layer_factory.hpp:77] Creating layer conv4_7
I0620 16:07:19.616998  6278 net.cpp:106] Creating Layer conv4_7
I0620 16:07:19.617002  6278 net.cpp:454] conv4_7 <- conv4_6_conv4_6/relu_0_split_1
I0620 16:07:19.617005  6278 net.cpp:454] conv4_7 <- conv4_7_1x1_increase
I0620 16:07:19.617025  6278 net.cpp:411] conv4_7 -> conv4_7
I0620 16:07:19.617041  6278 net.cpp:150] Setting up conv4_7
I0620 16:07:19.617045  6278 net.cpp:157] Top shape: 1 1024 60 60 (3686400)
I0620 16:07:19.617048  6278 net.cpp:165] Memory required for data: 1564703000
I0620 16:07:19.617050  6278 layer_factory.hpp:77] Creating layer conv4_7/relu
I0620 16:07:19.617055  6278 net.cpp:106] Creating Layer conv4_7/relu
I0620 16:07:19.617058  6278 net.cpp:454] conv4_7/relu <- conv4_7
I0620 16:07:19.617063  6278 net.cpp:397] conv4_7/relu -> conv4_7 (in-place)
I0620 16:07:19.617067  6278 net.cpp:150] Setting up conv4_7/relu
I0620 16:07:19.617070  6278 net.cpp:157] Top shape: 1 1024 60 60 (3686400)
I0620 16:07:19.617074  6278 net.cpp:165] Memory required for data: 1579448600
I0620 16:07:19.617076  6278 layer_factory.hpp:77] Creating layer conv4_7_conv4_7/relu_0_split
I0620 16:07:19.617080  6278 net.cpp:106] Creating Layer conv4_7_conv4_7/relu_0_split
I0620 16:07:19.617082  6278 net.cpp:454] conv4_7_conv4_7/relu_0_split <- conv4_7
I0620 16:07:19.617086  6278 net.cpp:411] conv4_7_conv4_7/relu_0_split -> conv4_7_conv4_7/relu_0_split_0
I0620 16:07:19.617091  6278 net.cpp:411] conv4_7_conv4_7/relu_0_split -> conv4_7_conv4_7/relu_0_split_1
I0620 16:07:19.617113  6278 net.cpp:150] Setting up conv4_7_conv4_7/relu_0_split
I0620 16:07:19.617117  6278 net.cpp:157] Top shape: 1 1024 60 60 (3686400)
I0620 16:07:19.617120  6278 net.cpp:157] Top shape: 1 1024 60 60 (3686400)
I0620 16:07:19.617122  6278 net.cpp:165] Memory required for data: 1608939800
I0620 16:07:19.617125  6278 layer_factory.hpp:77] Creating layer conv4_8_1x1_reduce
I0620 16:07:19.617132  6278 net.cpp:106] Creating Layer conv4_8_1x1_reduce
I0620 16:07:19.617136  6278 net.cpp:454] conv4_8_1x1_reduce <- conv4_7_conv4_7/relu_0_split_0
I0620 16:07:19.617141  6278 net.cpp:411] conv4_8_1x1_reduce -> conv4_8_1x1_reduce
I0620 16:07:19.623037  6278 net.cpp:150] Setting up conv4_8_1x1_reduce
I0620 16:07:19.623077  6278 net.cpp:157] Top shape: 1 256 60 60 (921600)
I0620 16:07:19.623082  6278 net.cpp:165] Memory required for data: 1612626200
I0620 16:07:19.623096  6278 layer_factory.hpp:77] Creating layer conv4_8_1x1_reduce/bn
I0620 16:07:19.623122  6278 net.cpp:106] Creating Layer conv4_8_1x1_reduce/bn
I0620 16:07:19.623131  6278 net.cpp:454] conv4_8_1x1_reduce/bn <- conv4_8_1x1_reduce
I0620 16:07:19.623139  6278 net.cpp:397] conv4_8_1x1_reduce/bn -> conv4_8_1x1_reduce (in-place)
I0620 16:07:19.623381  6278 net.cpp:150] Setting up conv4_8_1x1_reduce/bn
I0620 16:07:19.623387  6278 net.cpp:157] Top shape: 1 256 60 60 (921600)
I0620 16:07:19.623392  6278 net.cpp:165] Memory required for data: 1616312600
I0620 16:07:19.623400  6278 layer_factory.hpp:77] Creating layer conv4_8_1x1_reduce/relu
I0620 16:07:19.623409  6278 net.cpp:106] Creating Layer conv4_8_1x1_reduce/relu
I0620 16:07:19.623412  6278 net.cpp:454] conv4_8_1x1_reduce/relu <- conv4_8_1x1_reduce
I0620 16:07:19.623420  6278 net.cpp:397] conv4_8_1x1_reduce/relu -> conv4_8_1x1_reduce (in-place)
I0620 16:07:19.623425  6278 net.cpp:150] Setting up conv4_8_1x1_reduce/relu
I0620 16:07:19.623430  6278 net.cpp:157] Top shape: 1 256 60 60 (921600)
I0620 16:07:19.623435  6278 net.cpp:165] Memory required for data: 1619999000
I0620 16:07:19.623438  6278 layer_factory.hpp:77] Creating layer conv4_8_3x3
I0620 16:07:19.623450  6278 net.cpp:106] Creating Layer conv4_8_3x3
I0620 16:07:19.623453  6278 net.cpp:454] conv4_8_3x3 <- conv4_8_1x1_reduce
I0620 16:07:19.623459  6278 net.cpp:411] conv4_8_3x3 -> conv4_8_3x3
I0620 16:07:19.641762  6278 net.cpp:150] Setting up conv4_8_3x3
I0620 16:07:19.641798  6278 net.cpp:157] Top shape: 1 256 60 60 (921600)
I0620 16:07:19.641801  6278 net.cpp:165] Memory required for data: 1623685400
I0620 16:07:19.641810  6278 layer_factory.hpp:77] Creating layer conv4_8_3x3/bn
I0620 16:07:19.641822  6278 net.cpp:106] Creating Layer conv4_8_3x3/bn
I0620 16:07:19.641829  6278 net.cpp:454] conv4_8_3x3/bn <- conv4_8_3x3
I0620 16:07:19.641834  6278 net.cpp:397] conv4_8_3x3/bn -> conv4_8_3x3 (in-place)
I0620 16:07:19.642046  6278 net.cpp:150] Setting up conv4_8_3x3/bn
I0620 16:07:19.642052  6278 net.cpp:157] Top shape: 1 256 60 60 (921600)
I0620 16:07:19.642055  6278 net.cpp:165] Memory required for data: 1627371800
I0620 16:07:19.642060  6278 layer_factory.hpp:77] Creating layer conv4_8_3x3/relu
I0620 16:07:19.642066  6278 net.cpp:106] Creating Layer conv4_8_3x3/relu
I0620 16:07:19.642068  6278 net.cpp:454] conv4_8_3x3/relu <- conv4_8_3x3
I0620 16:07:19.642072  6278 net.cpp:397] conv4_8_3x3/relu -> conv4_8_3x3 (in-place)
I0620 16:07:19.642076  6278 net.cpp:150] Setting up conv4_8_3x3/relu
I0620 16:07:19.642081  6278 net.cpp:157] Top shape: 1 256 60 60 (921600)
I0620 16:07:19.642082  6278 net.cpp:165] Memory required for data: 1631058200
I0620 16:07:19.642086  6278 layer_factory.hpp:77] Creating layer conv4_8_1x1_increase
I0620 16:07:19.642092  6278 net.cpp:106] Creating Layer conv4_8_1x1_increase
I0620 16:07:19.642096  6278 net.cpp:454] conv4_8_1x1_increase <- conv4_8_3x3
I0620 16:07:19.642101  6278 net.cpp:411] conv4_8_1x1_increase -> conv4_8_1x1_increase
I0620 16:07:19.648403  6278 net.cpp:150] Setting up conv4_8_1x1_increase
I0620 16:07:19.648429  6278 net.cpp:157] Top shape: 1 1024 60 60 (3686400)
I0620 16:07:19.648432  6278 net.cpp:165] Memory required for data: 1645803800
I0620 16:07:19.648442  6278 layer_factory.hpp:77] Creating layer conv4_8_1x1_increase/bn
I0620 16:07:19.648449  6278 net.cpp:106] Creating Layer conv4_8_1x1_increase/bn
I0620 16:07:19.648453  6278 net.cpp:454] conv4_8_1x1_increase/bn <- conv4_8_1x1_increase
I0620 16:07:19.648458  6278 net.cpp:397] conv4_8_1x1_increase/bn -> conv4_8_1x1_increase (in-place)
I0620 16:07:19.648604  6278 net.cpp:150] Setting up conv4_8_1x1_increase/bn
I0620 16:07:19.648609  6278 net.cpp:157] Top shape: 1 1024 60 60 (3686400)
I0620 16:07:19.648612  6278 net.cpp:165] Memory required for data: 1660549400
I0620 16:07:19.648617  6278 layer_factory.hpp:77] Creating layer conv4_8
I0620 16:07:19.648622  6278 net.cpp:106] Creating Layer conv4_8
I0620 16:07:19.648625  6278 net.cpp:454] conv4_8 <- conv4_7_conv4_7/relu_0_split_1
I0620 16:07:19.648628  6278 net.cpp:454] conv4_8 <- conv4_8_1x1_increase
I0620 16:07:19.648633  6278 net.cpp:411] conv4_8 -> conv4_8
I0620 16:07:19.648648  6278 net.cpp:150] Setting up conv4_8
I0620 16:07:19.648651  6278 net.cpp:157] Top shape: 1 1024 60 60 (3686400)
I0620 16:07:19.648654  6278 net.cpp:165] Memory required for data: 1675295000
I0620 16:07:19.648658  6278 layer_factory.hpp:77] Creating layer conv4_8/relu
I0620 16:07:19.648663  6278 net.cpp:106] Creating Layer conv4_8/relu
I0620 16:07:19.648665  6278 net.cpp:454] conv4_8/relu <- conv4_8
I0620 16:07:19.648669  6278 net.cpp:397] conv4_8/relu -> conv4_8 (in-place)
I0620 16:07:19.648676  6278 net.cpp:150] Setting up conv4_8/relu
I0620 16:07:19.648679  6278 net.cpp:157] Top shape: 1 1024 60 60 (3686400)
I0620 16:07:19.648682  6278 net.cpp:165] Memory required for data: 1690040600
I0620 16:07:19.648686  6278 layer_factory.hpp:77] Creating layer conv4_8_conv4_8/relu_0_split
I0620 16:07:19.648691  6278 net.cpp:106] Creating Layer conv4_8_conv4_8/relu_0_split
I0620 16:07:19.648694  6278 net.cpp:454] conv4_8_conv4_8/relu_0_split <- conv4_8
I0620 16:07:19.648697  6278 net.cpp:411] conv4_8_conv4_8/relu_0_split -> conv4_8_conv4_8/relu_0_split_0
I0620 16:07:19.648701  6278 net.cpp:411] conv4_8_conv4_8/relu_0_split -> conv4_8_conv4_8/relu_0_split_1
I0620 16:07:19.648723  6278 net.cpp:150] Setting up conv4_8_conv4_8/relu_0_split
I0620 16:07:19.648727  6278 net.cpp:157] Top shape: 1 1024 60 60 (3686400)
I0620 16:07:19.648730  6278 net.cpp:157] Top shape: 1 1024 60 60 (3686400)
I0620 16:07:19.648733  6278 net.cpp:165] Memory required for data: 1719531800
I0620 16:07:19.648736  6278 layer_factory.hpp:77] Creating layer conv4_9_1x1_reduce
I0620 16:07:19.648742  6278 net.cpp:106] Creating Layer conv4_9_1x1_reduce
I0620 16:07:19.648746  6278 net.cpp:454] conv4_9_1x1_reduce <- conv4_8_conv4_8/relu_0_split_0
I0620 16:07:19.648751  6278 net.cpp:411] conv4_9_1x1_reduce -> conv4_9_1x1_reduce
I0620 16:07:19.654392  6278 net.cpp:150] Setting up conv4_9_1x1_reduce
I0620 16:07:19.654397  6278 net.cpp:157] Top shape: 1 256 60 60 (921600)
I0620 16:07:19.654399  6278 net.cpp:165] Memory required for data: 1723218200
I0620 16:07:19.654403  6278 layer_factory.hpp:77] Creating layer conv4_9_1x1_reduce/bn
I0620 16:07:19.654408  6278 net.cpp:106] Creating Layer conv4_9_1x1_reduce/bn
I0620 16:07:19.654410  6278 net.cpp:454] conv4_9_1x1_reduce/bn <- conv4_9_1x1_reduce
I0620 16:07:19.654420  6278 net.cpp:397] conv4_9_1x1_reduce/bn -> conv4_9_1x1_reduce (in-place)
I0620 16:07:19.654554  6278 net.cpp:150] Setting up conv4_9_1x1_reduce/bn
I0620 16:07:19.654558  6278 net.cpp:157] Top shape: 1 256 60 60 (921600)
I0620 16:07:19.654561  6278 net.cpp:165] Memory required for data: 1726904600
I0620 16:07:19.654598  6278 layer_factory.hpp:77] Creating layer conv4_9_1x1_reduce/relu
I0620 16:07:19.654606  6278 net.cpp:106] Creating Layer conv4_9_1x1_reduce/relu
I0620 16:07:19.654609  6278 net.cpp:454] conv4_9_1x1_reduce/relu <- conv4_9_1x1_reduce
I0620 16:07:19.654613  6278 net.cpp:397] conv4_9_1x1_reduce/relu -> conv4_9_1x1_reduce (in-place)
I0620 16:07:19.654618  6278 net.cpp:150] Setting up conv4_9_1x1_reduce/relu
I0620 16:07:19.654620  6278 net.cpp:157] Top shape: 1 256 60 60 (921600)
I0620 16:07:19.654623  6278 net.cpp:165] Memory required for data: 1730591000
I0620 16:07:19.654625  6278 layer_factory.hpp:77] Creating layer conv4_9_3x3
I0620 16:07:19.654631  6278 net.cpp:106] Creating Layer conv4_9_3x3
I0620 16:07:19.654634  6278 net.cpp:454] conv4_9_3x3 <- conv4_9_1x1_reduce
I0620 16:07:19.654639  6278 net.cpp:411] conv4_9_3x3 -> conv4_9_3x3
I0620 16:07:19.667824  6278 net.cpp:150] Setting up conv4_9_3x3
I0620 16:07:19.667845  6278 net.cpp:157] Top shape: 1 256 60 60 (921600)
I0620 16:07:19.667848  6278 net.cpp:165] Memory required for data: 1734277400
I0620 16:07:19.667855  6278 layer_factory.hpp:77] Creating layer conv4_9_3x3/bn
I0620 16:07:19.667865  6278 net.cpp:106] Creating Layer conv4_9_3x3/bn
I0620 16:07:19.667871  6278 net.cpp:454] conv4_9_3x3/bn <- conv4_9_3x3
I0620 16:07:19.667878  6278 net.cpp:397] conv4_9_3x3/bn -> conv4_9_3x3 (in-place)
I0620 16:07:19.668028  6278 net.cpp:150] Setting up conv4_9_3x3/bn
I0620 16:07:19.668032  6278 net.cpp:157] Top shape: 1 256 60 60 (921600)
I0620 16:07:19.668035  6278 net.cpp:165] Memory required for data: 1737963800
I0620 16:07:19.668040  6278 layer_factory.hpp:77] Creating layer conv4_9_3x3/relu
I0620 16:07:19.668045  6278 net.cpp:106] Creating Layer conv4_9_3x3/relu
I0620 16:07:19.668047  6278 net.cpp:454] conv4_9_3x3/relu <- conv4_9_3x3
I0620 16:07:19.668051  6278 net.cpp:397] conv4_9_3x3/relu -> conv4_9_3x3 (in-place)
I0620 16:07:19.668053  6278 net.cpp:150] Setting up conv4_9_3x3/relu
I0620 16:07:19.668056  6278 net.cpp:157] Top shape: 1 256 60 60 (921600)
I0620 16:07:19.668059  6278 net.cpp:165] Memory required for data: 1741650200
I0620 16:07:19.668062  6278 layer_factory.hpp:77] Creating layer conv4_9_1x1_increase
I0620 16:07:19.668068  6278 net.cpp:106] Creating Layer conv4_9_1x1_increase
I0620 16:07:19.668071  6278 net.cpp:454] conv4_9_1x1_increase <- conv4_9_3x3
I0620 16:07:19.668076  6278 net.cpp:411] conv4_9_1x1_increase -> conv4_9_1x1_increase
I0620 16:07:19.674878  6278 net.cpp:150] Setting up conv4_9_1x1_increase
I0620 16:07:19.674908  6278 net.cpp:157] Top shape: 1 1024 60 60 (3686400)
I0620 16:07:19.674912  6278 net.cpp:165] Memory required for data: 1756395800
I0620 16:07:19.674921  6278 layer_factory.hpp:77] Creating layer conv4_9_1x1_increase/bn
I0620 16:07:19.674937  6278 net.cpp:106] Creating Layer conv4_9_1x1_increase/bn
I0620 16:07:19.674944  6278 net.cpp:454] conv4_9_1x1_increase/bn <- conv4_9_1x1_increase
I0620 16:07:19.674962  6278 net.cpp:397] conv4_9_1x1_increase/bn -> conv4_9_1x1_increase (in-place)
I0620 16:07:19.675174  6278 net.cpp:150] Setting up conv4_9_1x1_increase/bn
I0620 16:07:19.675181  6278 net.cpp:157] Top shape: 1 1024 60 60 (3686400)
I0620 16:07:19.675186  6278 net.cpp:165] Memory required for data: 1771141400
I0620 16:07:19.675194  6278 layer_factory.hpp:77] Creating layer conv4_9
I0620 16:07:19.675225  6278 net.cpp:106] Creating Layer conv4_9
I0620 16:07:19.675230  6278 net.cpp:454] conv4_9 <- conv4_8_conv4_8/relu_0_split_1
I0620 16:07:19.675235  6278 net.cpp:454] conv4_9 <- conv4_9_1x1_increase
I0620 16:07:19.675240  6278 net.cpp:411] conv4_9 -> conv4_9
I0620 16:07:19.675261  6278 net.cpp:150] Setting up conv4_9
I0620 16:07:19.675267  6278 net.cpp:157] Top shape: 1 1024 60 60 (3686400)
I0620 16:07:19.675271  6278 net.cpp:165] Memory required for data: 1785887000
I0620 16:07:19.675276  6278 layer_factory.hpp:77] Creating layer conv4_9/relu
I0620 16:07:19.675283  6278 net.cpp:106] Creating Layer conv4_9/relu
I0620 16:07:19.675287  6278 net.cpp:454] conv4_9/relu <- conv4_9
I0620 16:07:19.675293  6278 net.cpp:397] conv4_9/relu -> conv4_9 (in-place)
I0620 16:07:19.675300  6278 net.cpp:150] Setting up conv4_9/relu
I0620 16:07:19.675305  6278 net.cpp:157] Top shape: 1 1024 60 60 (3686400)
I0620 16:07:19.675312  6278 net.cpp:165] Memory required for data: 1800632600
I0620 16:07:19.675314  6278 layer_factory.hpp:77] Creating layer conv4_9_conv4_9/relu_0_split
I0620 16:07:19.675320  6278 net.cpp:106] Creating Layer conv4_9_conv4_9/relu_0_split
I0620 16:07:19.675323  6278 net.cpp:454] conv4_9_conv4_9/relu_0_split <- conv4_9
I0620 16:07:19.675328  6278 net.cpp:411] conv4_9_conv4_9/relu_0_split -> conv4_9_conv4_9/relu_0_split_0
I0620 16:07:19.675335  6278 net.cpp:411] conv4_9_conv4_9/relu_0_split -> conv4_9_conv4_9/relu_0_split_1
I0620 16:07:19.675366  6278 net.cpp:150] Setting up conv4_9_conv4_9/relu_0_split
I0620 16:07:19.675372  6278 net.cpp:157] Top shape: 1 1024 60 60 (3686400)
I0620 16:07:19.675379  6278 net.cpp:157] Top shape: 1 1024 60 60 (3686400)
I0620 16:07:19.675382  6278 net.cpp:165] Memory required for data: 1830123800
I0620 16:07:19.675386  6278 layer_factory.hpp:77] Creating layer conv4_10_1x1_reduce
I0620 16:07:19.675395  6278 net.cpp:106] Creating Layer conv4_10_1x1_reduce
I0620 16:07:19.675400  6278 net.cpp:454] conv4_10_1x1_reduce <- conv4_9_conv4_9/relu_0_split_0
I0620 16:07:19.675408  6278 net.cpp:411] conv4_10_1x1_reduce -> conv4_10_1x1_reduce
I0620 16:07:19.683585  6278 net.cpp:150] Setting up conv4_10_1x1_reduce
I0620 16:07:19.683656  6278 net.cpp:157] Top shape: 1 256 60 60 (921600)
I0620 16:07:19.683663  6278 net.cpp:165] Memory required for data: 1833810200
I0620 16:07:19.683681  6278 layer_factory.hpp:77] Creating layer conv4_10_1x1_reduce/bn
I0620 16:07:19.683718  6278 net.cpp:106] Creating Layer conv4_10_1x1_reduce/bn
I0620 16:07:19.683730  6278 net.cpp:454] conv4_10_1x1_reduce/bn <- conv4_10_1x1_reduce
I0620 16:07:19.683743  6278 net.cpp:397] conv4_10_1x1_reduce/bn -> conv4_10_1x1_reduce (in-place)
I0620 16:07:19.684001  6278 net.cpp:150] Setting up conv4_10_1x1_reduce/bn
I0620 16:07:19.684010  6278 net.cpp:157] Top shape: 1 256 60 60 (921600)
I0620 16:07:19.684016  6278 net.cpp:165] Memory required for data: 1837496600
I0620 16:07:19.684029  6278 layer_factory.hpp:77] Creating layer conv4_10_1x1_reduce/relu
I0620 16:07:19.684042  6278 net.cpp:106] Creating Layer conv4_10_1x1_reduce/relu
I0620 16:07:19.684046  6278 net.cpp:454] conv4_10_1x1_reduce/relu <- conv4_10_1x1_reduce
I0620 16:07:19.684052  6278 net.cpp:397] conv4_10_1x1_reduce/relu -> conv4_10_1x1_reduce (in-place)
I0620 16:07:19.684059  6278 net.cpp:150] Setting up conv4_10_1x1_reduce/relu
I0620 16:07:19.684064  6278 net.cpp:157] Top shape: 1 256 60 60 (921600)
I0620 16:07:19.684068  6278 net.cpp:165] Memory required for data: 1841183000
I0620 16:07:19.684072  6278 layer_factory.hpp:77] Creating layer conv4_10_3x3
I0620 16:07:19.684084  6278 net.cpp:106] Creating Layer conv4_10_3x3
I0620 16:07:19.684088  6278 net.cpp:454] conv4_10_3x3 <- conv4_10_1x1_reduce
I0620 16:07:19.684094  6278 net.cpp:411] conv4_10_3x3 -> conv4_10_3x3
I0620 16:07:19.699920  6278 net.cpp:150] Setting up conv4_10_3x3
I0620 16:07:19.699960  6278 net.cpp:157] Top shape: 1 256 60 60 (921600)
I0620 16:07:19.699964  6278 net.cpp:165] Memory required for data: 1844869400
I0620 16:07:19.699970  6278 layer_factory.hpp:77] Creating layer conv4_10_3x3/bn
I0620 16:07:19.699995  6278 net.cpp:106] Creating Layer conv4_10_3x3/bn
I0620 16:07:19.700000  6278 net.cpp:454] conv4_10_3x3/bn <- conv4_10_3x3
I0620 16:07:19.700006  6278 net.cpp:397] conv4_10_3x3/bn -> conv4_10_3x3 (in-place)
I0620 16:07:19.700165  6278 net.cpp:150] Setting up conv4_10_3x3/bn
I0620 16:07:19.700170  6278 net.cpp:157] Top shape: 1 256 60 60 (921600)
I0620 16:07:19.700173  6278 net.cpp:165] Memory required for data: 1848555800
I0620 16:07:19.700179  6278 layer_factory.hpp:77] Creating layer conv4_10_3x3/relu
I0620 16:07:19.700187  6278 net.cpp:106] Creating Layer conv4_10_3x3/relu
I0620 16:07:19.700191  6278 net.cpp:454] conv4_10_3x3/relu <- conv4_10_3x3
I0620 16:07:19.700194  6278 net.cpp:397] conv4_10_3x3/relu -> conv4_10_3x3 (in-place)
I0620 16:07:19.700199  6278 net.cpp:150] Setting up conv4_10_3x3/relu
I0620 16:07:19.700202  6278 net.cpp:157] Top shape: 1 256 60 60 (921600)
I0620 16:07:19.700206  6278 net.cpp:165] Memory required for data: 1852242200
I0620 16:07:19.700207  6278 layer_factory.hpp:77] Creating layer conv4_10_1x1_increase
I0620 16:07:19.700213  6278 net.cpp:106] Creating Layer conv4_10_1x1_increase
I0620 16:07:19.700217  6278 net.cpp:454] conv4_10_1x1_increase <- conv4_10_3x3
I0620 16:07:19.700222  6278 net.cpp:411] conv4_10_1x1_increase -> conv4_10_1x1_increase
I0620 16:07:19.706532  6278 net.cpp:150] Setting up conv4_10_1x1_increase
I0620 16:07:19.706547  6278 net.cpp:157] Top shape: 1 1024 60 60 (3686400)
I0620 16:07:19.706549  6278 net.cpp:165] Memory required for data: 1866987800
I0620 16:07:19.706554  6278 layer_factory.hpp:77] Creating layer conv4_10_1x1_increase/bn
I0620 16:07:19.706562  6278 net.cpp:106] Creating Layer conv4_10_1x1_increase/bn
I0620 16:07:19.706567  6278 net.cpp:454] conv4_10_1x1_increase/bn <- conv4_10_1x1_increase
I0620 16:07:19.706571  6278 net.cpp:397] conv4_10_1x1_increase/bn -> conv4_10_1x1_increase (in-place)
I0620 16:07:19.706722  6278 net.cpp:150] Setting up conv4_10_1x1_increase/bn
I0620 16:07:19.706727  6278 net.cpp:157] Top shape: 1 1024 60 60 (3686400)
I0620 16:07:19.706729  6278 net.cpp:165] Memory required for data: 1881733400
I0620 16:07:19.706734  6278 layer_factory.hpp:77] Creating layer conv4_10
I0620 16:07:19.706740  6278 net.cpp:106] Creating Layer conv4_10
I0620 16:07:19.706744  6278 net.cpp:454] conv4_10 <- conv4_9_conv4_9/relu_0_split_1
I0620 16:07:19.706748  6278 net.cpp:454] conv4_10 <- conv4_10_1x1_increase
I0620 16:07:19.706751  6278 net.cpp:411] conv4_10 -> conv4_10
I0620 16:07:19.706766  6278 net.cpp:150] Setting up conv4_10
I0620 16:07:19.706770  6278 net.cpp:157] Top shape: 1 1024 60 60 (3686400)
I0620 16:07:19.706773  6278 net.cpp:165] Memory required for data: 1896479000
I0620 16:07:19.706775  6278 layer_factory.hpp:77] Creating layer conv4_10/relu
I0620 16:07:19.706780  6278 net.cpp:106] Creating Layer conv4_10/relu
I0620 16:07:19.706782  6278 net.cpp:454] conv4_10/relu <- conv4_10
I0620 16:07:19.706786  6278 net.cpp:397] conv4_10/relu -> conv4_10 (in-place)
I0620 16:07:19.706790  6278 net.cpp:150] Setting up conv4_10/relu
I0620 16:07:19.706794  6278 net.cpp:157] Top shape: 1 1024 60 60 (3686400)
I0620 16:07:19.706795  6278 net.cpp:165] Memory required for data: 1911224600
I0620 16:07:19.706797  6278 layer_factory.hpp:77] Creating layer conv4_10_conv4_10/relu_0_split
I0620 16:07:19.706802  6278 net.cpp:106] Creating Layer conv4_10_conv4_10/relu_0_split
I0620 16:07:19.706804  6278 net.cpp:454] conv4_10_conv4_10/relu_0_split <- conv4_10
I0620 16:07:19.706809  6278 net.cpp:411] conv4_10_conv4_10/relu_0_split -> conv4_10_conv4_10/relu_0_split_0
I0620 16:07:19.706812  6278 net.cpp:411] conv4_10_conv4_10/relu_0_split -> conv4_10_conv4_10/relu_0_split_1
I0620 16:07:19.706833  6278 net.cpp:150] Setting up conv4_10_conv4_10/relu_0_split
I0620 16:07:19.706837  6278 net.cpp:157] Top shape: 1 1024 60 60 (3686400)
I0620 16:07:19.706840  6278 net.cpp:157] Top shape: 1 1024 60 60 (3686400)
I0620 16:07:19.706841  6278 net.cpp:165] Memory required for data: 1940715800
I0620 16:07:19.706843  6278 layer_factory.hpp:77] Creating layer conv4_11_1x1_reduce
I0620 16:07:19.706862  6278 net.cpp:106] Creating Layer conv4_11_1x1_reduce
I0620 16:07:19.706866  6278 net.cpp:454] conv4_11_1x1_reduce <- conv4_10_conv4_10/relu_0_split_0
I0620 16:07:19.706869  6278 net.cpp:411] conv4_11_1x1_reduce -> conv4_11_1x1_reduce
I0620 16:07:19.712575  6278 net.cpp:150] Setting up conv4_11_1x1_reduce
I0620 16:07:19.712597  6278 net.cpp:157] Top shape: 1 256 60 60 (921600)
I0620 16:07:19.712600  6278 net.cpp:165] Memory required for data: 1944402200
I0620 16:07:19.712607  6278 layer_factory.hpp:77] Creating layer conv4_11_1x1_reduce/bn
I0620 16:07:19.712620  6278 net.cpp:106] Creating Layer conv4_11_1x1_reduce/bn
I0620 16:07:19.712625  6278 net.cpp:454] conv4_11_1x1_reduce/bn <- conv4_11_1x1_reduce
I0620 16:07:19.712631  6278 net.cpp:397] conv4_11_1x1_reduce/bn -> conv4_11_1x1_reduce (in-place)
I0620 16:07:19.712805  6278 net.cpp:150] Setting up conv4_11_1x1_reduce/bn
I0620 16:07:19.712810  6278 net.cpp:157] Top shape: 1 256 60 60 (921600)
I0620 16:07:19.712812  6278 net.cpp:165] Memory required for data: 1948088600
I0620 16:07:19.712818  6278 layer_factory.hpp:77] Creating layer conv4_11_1x1_reduce/relu
I0620 16:07:19.712823  6278 net.cpp:106] Creating Layer conv4_11_1x1_reduce/relu
I0620 16:07:19.712826  6278 net.cpp:454] conv4_11_1x1_reduce/relu <- conv4_11_1x1_reduce
I0620 16:07:19.712829  6278 net.cpp:397] conv4_11_1x1_reduce/relu -> conv4_11_1x1_reduce (in-place)
I0620 16:07:19.712834  6278 net.cpp:150] Setting up conv4_11_1x1_reduce/relu
I0620 16:07:19.712837  6278 net.cpp:157] Top shape: 1 256 60 60 (921600)
I0620 16:07:19.712839  6278 net.cpp:165] Memory required for data: 1951775000
I0620 16:07:19.712842  6278 layer_factory.hpp:77] Creating layer conv4_11_3x3
I0620 16:07:19.712855  6278 net.cpp:106] Creating Layer conv4_11_3x3
I0620 16:07:19.712859  6278 net.cpp:454] conv4_11_3x3 <- conv4_11_1x1_reduce
I0620 16:07:19.712863  6278 net.cpp:411] conv4_11_3x3 -> conv4_11_3x3
I0620 16:07:19.726384  6278 net.cpp:150] Setting up conv4_11_3x3
I0620 16:07:19.726435  6278 net.cpp:157] Top shape: 1 256 60 60 (921600)
I0620 16:07:19.726440  6278 net.cpp:165] Memory required for data: 1955461400
I0620 16:07:19.726450  6278 layer_factory.hpp:77] Creating layer conv4_11_3x3/bn
I0620 16:07:19.726466  6278 net.cpp:106] Creating Layer conv4_11_3x3/bn
I0620 16:07:19.726474  6278 net.cpp:454] conv4_11_3x3/bn <- conv4_11_3x3
I0620 16:07:19.726481  6278 net.cpp:397] conv4_11_3x3/bn -> conv4_11_3x3 (in-place)
I0620 16:07:19.726718  6278 net.cpp:150] Setting up conv4_11_3x3/bn
I0620 16:07:19.726725  6278 net.cpp:157] Top shape: 1 256 60 60 (921600)
I0620 16:07:19.726729  6278 net.cpp:165] Memory required for data: 1959147800
I0620 16:07:19.726738  6278 layer_factory.hpp:77] Creating layer conv4_11_3x3/relu
I0620 16:07:19.726747  6278 net.cpp:106] Creating Layer conv4_11_3x3/relu
I0620 16:07:19.726752  6278 net.cpp:454] conv4_11_3x3/relu <- conv4_11_3x3
I0620 16:07:19.726757  6278 net.cpp:397] conv4_11_3x3/relu -> conv4_11_3x3 (in-place)
I0620 16:07:19.726763  6278 net.cpp:150] Setting up conv4_11_3x3/relu
I0620 16:07:19.726768  6278 net.cpp:157] Top shape: 1 256 60 60 (921600)
…
I0620 16:07:20.034852  6278 net.cpp:454] conv4_21 <- conv4_20_conv4_20/relu_0_split_1
I0620 16:07:20.034854  6278 net.cpp:454] conv4_21 <- conv4_21_1x1_increase
I0620 16:07:20.034858  6278 net.cpp:411] conv4_21 -> conv4_21
I0620 16:07:20.034874  6278 net.cpp:150] Setting up conv4_21
I0620 16:07:20.034878  6278 net.cpp:157] Top shape: 1 1024 60 60 (3686400)
I0620 16:07:20.034881  6278 net.cpp:165] Memory required for data: 3112991000
I0620 16:07:20.034883  6278 layer_factory.hpp:77] Creating layer conv4_21/relu
I0620 16:07:20.034888  6278 net.cpp:106] Creating Layer conv4_21/relu
I0620 16:07:20.034891  6278 net.cpp:454] conv4_21/relu <- conv4_21
I0620 16:07:20.034895  6278 net.cpp:397] conv4_21/relu -> conv4_21 (in-place)
I0620 16:07:20.034899  6278 net.cpp:150] Setting up conv4_21/relu
I0620 16:07:20.034904  6278 net.cpp:157] Top shape: 1 1024 60 60 (3686400)
I0620 16:07:20.034906  6278 net.cpp:165] Memory required for data: 3127736600
I0620 16:07:20.034909  6278 layer_factory.hpp:77] Creating layer conv4_21_conv4_21/relu_0_split
I0620 16:07:20.034914  6278 net.cpp:106] Creating Layer conv4_21_conv4_21/relu_0_split
I0620 16:07:20.034916  6278 net.cpp:454] conv4_21_conv4_21/relu_0_split <- conv4_21
I0620 16:07:20.034920  6278 net.cpp:411] conv4_21_conv4_21/relu_0_split -> conv4_21_conv4_21/relu_0_split_0
I0620 16:07:20.034925  6278 net.cpp:411] conv4_21_conv4_21/relu_0_split -> conv4_21_conv4_21/relu_0_split_1
I0620 16:07:20.034948  6278 net.cpp:150] Setting up conv4_21_conv4_21/relu_0_split
I0620 16:07:20.034952  6278 net.cpp:157] Top shape: 1 1024 60 60 (3686400)
I0620 16:07:20.034955  6278 net.cpp:157] Top shape: 1 1024 60 60 (3686400)
I0620 16:07:20.034976  6278 net.cpp:165] Memory required for data: 3157227800
I0620 16:07:20.034979  6278 layer_factory.hpp:77] Creating layer conv4_22_1x1_reduce
I0620 16:07:20.034988  6278 net.cpp:106] Creating Layer conv4_22_1x1_reduce
I0620 16:07:20.034991  6278 net.cpp:454] conv4_22_1x1_reduce <- conv4_21_conv4_21/relu_0_split_0
I0620 16:07:20.034996  6278 net.cpp:411] conv4_22_1x1_reduce -> conv4_22_1x1_reduce
I0620 16:07:20.041401  6278 net.cpp:150] Setting up conv4_22_1x1_reduce
I0620 16:07:20.041445  6278 net.cpp:157] Top shape: 1 256 60 60 (921600)
I0620 16:07:20.041450  6278 net.cpp:165] Memory required for data: 3160914200
I0620 16:07:20.041461  6278 layer_factory.hpp:77] Creating layer conv4_22_1x1_reduce/bn
I0620 16:07:20.041484  6278 net.cpp:106] Creating Layer conv4_22_1x1_reduce/bn
I0620 16:07:20.041493  6278 net.cpp:454] conv4_22_1x1_reduce/bn <- conv4_22_1x1_reduce
I0620 16:07:20.041502  6278 net.cpp:397] conv4_22_1x1_reduce/bn -> conv4_22_1x1_reduce (in-place)
I0620 16:07:20.041734  6278 net.cpp:150] Setting up conv4_22_1x1_reduce/bn
I0620 16:07:20.041743  6278 net.cpp:157] Top shape: 1 256 60 60 (921600)
I0620 16:07:20.041749  6278 net.cpp:165] Memory required for data: 3164600600
I0620 16:07:20.041756  6278 layer_factory.hpp:77] Creating layer conv4_22_1x1_reduce/relu
I0620 16:07:20.041766  6278 net.cpp:106] Creating Layer conv4_22_1x1_reduce/relu
I0620 16:07:20.041770  6278 net.cpp:454] conv4_22_1x1_reduce/relu <- conv4_22_1x1_reduce
I0620 16:07:20.041776  6278 net.cpp:397] conv4_22_1x1_reduce/relu -> conv4_22_1x1_reduce (in-place)
I0620 16:07:20.041784  6278 net.cpp:150] Setting up conv4_22_1x1_reduce/relu
I0620 16:07:20.041788  6278 net.cpp:157] Top shape: 1 256 60 60 (921600)
I0620 16:07:20.041792  6278 net.cpp:165] Memory required for data: 3168287000
I0620 16:07:20.041797  6278 layer_factory.hpp:77] Creating layer conv4_22_3x3
I0620 16:07:20.041810  6278 net.cpp:106] Creating Layer conv4_22_3x3
I0620 16:07:20.041813  6278 net.cpp:454] conv4_22_3x3 <- conv4_22_1x1_reduce
I0620 16:07:20.041820  6278 net.cpp:411] conv4_22_3x3 -> conv4_22_3x3
I0620 16:07:20.059659  6278 net.cpp:150] Setting up conv4_22_3x3
I0620 16:07:20.059685  6278 net.cpp:157] Top shape: 1 256 60 60 (921600)
I0620 16:07:20.059689  6278 net.cpp:165] Memory required for data: 3171973400
I0620 16:07:20.059696  6278 layer_factory.hpp:77] Creating layer conv4_22_3x3/bn
I0620 16:07:20.059708  6278 net.cpp:106] Creating Layer conv4_22_3x3/bn
I0620 16:07:20.059713  6278 net.cpp:454] conv4_22_3x3/bn <- conv4_22_3x3
I0620 16:07:20.059722  6278 net.cpp:397] conv4_22_3x3/bn -> conv4_22_3x3 (in-place)
I0620 16:07:20.059900  6278 net.cpp:150] Setting up conv4_22_3x3/bn
I0620 16:07:20.059904  6278 net.cpp:157] Top shape: 1 256 60 60 (921600)
I0620 16:07:20.059907  6278 net.cpp:165] Memory required for data: 3175659800
I0620 16:07:20.059912  6278 layer_factory.hpp:77] Creating layer conv4_22_3x3/relu
I0620 16:07:20.059918  6278 net.cpp:106] Creating Layer conv4_22_3x3/relu
I0620 16:07:20.059921  6278 net.cpp:454] conv4_22_3x3/relu <- conv4_22_3x3
I0620 16:07:20.059926  6278 net.cpp:397] conv4_22_3x3/relu -> conv4_22_3x3 (in-place)
I0620 16:07:20.059929  6278 net.cpp:150] Setting up conv4_22_3x3/relu
I0620 16:07:20.059932  6278 net.cpp:157] Top shape: 1 256 60 60 (921600)
I0620 16:07:20.059936  6278 net.cpp:165] Memory required for data: 3179346200
I0620 16:07:20.059937  6278 layer_factory.hpp:77] Creating layer conv4_22_1x1_increase
I0620 16:07:20.059944  6278 net.cpp:106] Creating Layer conv4_22_1x1_increase
I0620 16:07:20.059947  6278 net.cpp:454] conv4_22_1x1_increase <- conv4_22_3x3
I0620 16:07:20.059952  6278 net.cpp:411] conv4_22_1x1_increase -> conv4_22_1x1_increase
I0620 16:07:20.066252  6278 net.cpp:150] Setting up conv4_22_1x1_increase
I0620 16:07:20.066264  6278 net.cpp:157] Top shape: 1 1024 60 60 (3686400)
I0620 16:07:20.066267  6278 net.cpp:165] Memory required for data: 3194091800
I0620 16:07:20.066272  6278 layer_factory.hpp:77] Creating layer conv4_22_1x1_increase/bn
I0620 16:07:20.066282  6278 net.cpp:106] Creating Layer conv4_22_1x1_increase/bn
I0620 16:07:20.066304  6278 net.cpp:454] conv4_22_1x1_increase/bn <- conv4_22_1x1_increase
I0620 16:07:20.066309  6278 net.cpp:397] conv4_22_1x1_increase/bn -> conv4_22_1x1_increase (in-place)
I0620 16:07:20.066486  6278 net.cpp:150] Setting up conv4_22_1x1_increase/bn
I0620 16:07:20.066493  6278 net.cpp:157] Top shape: 1 1024 60 60 (3686400)
I0620 16:07:20.066495  6278 net.cpp:165] Memory required for data: 3208837400
I0620 16:07:20.066503  6278 layer_factory.hpp:77] Creating layer conv4_22
I0620 16:07:20.066510  6278 net.cpp:106] Creating Layer conv4_22
I0620 16:07:20.066514  6278 net.cpp:454] conv4_22 <- conv4_21_conv4_21/relu_0_split_1
I0620 16:07:20.066517  6278 net.cpp:454] conv4_22 <- conv4_22_1x1_increase
I0620 16:07:20.066524  6278 net.cpp:411] conv4_22 -> conv4_22
I0620 16:07:20.066546  6278 net.cpp:150] Setting up conv4_22
I0620 16:07:20.066553  6278 net.cpp:157] Top shape: 1 1024 60 60 (3686400)
I0620 16:07:20.066565  6278 net.cpp:165] Memory required for data: 3223583000
I0620 16:07:20.066568  6278 layer_factory.hpp:77] Creating layer conv4_22/relu
I0620 16:07:20.066576  6278 net.cpp:106] Creating Layer conv4_22/relu
I0620 16:07:20.066579  6278 net.cpp:454] conv4_22/relu <- conv4_22
I0620 16:07:20.066584  6278 net.cpp:397] conv4_22/relu -> conv4_22 (in-place)
I0620 16:07:20.066591  6278 net.cpp:150] Setting up conv4_22/relu
I0620 16:07:20.066596  6278 net.cpp:157] Top shape: 1 1024 60 60 (3686400)
I0620 16:07:20.066601  6278 net.cpp:165] Memory required for data: 3238328600
I0620 16:07:20.066603  6278 layer_factory.hpp:77] Creating layer conv4_22_conv4_22/relu_0_split
I0620 16:07:20.066610  6278 net.cpp:106] Creating Layer conv4_22_conv4_22/relu_0_split
I0620 16:07:20.066614  6278 net.cpp:454] conv4_22_conv4_22/relu_0_split <- conv4_22
I0620 16:07:20.066622  6278 net.cpp:411] conv4_22_conv4_22/relu_0_split -> conv4_22_conv4_22/relu_0_split_0
I0620 16:07:20.066628  6278 net.cpp:411] conv4_22_conv4_22/relu_0_split -> conv4_22_conv4_22/relu_0_split_1
I0620 16:07:20.066654  6278 net.cpp:150] Setting up conv4_22_conv4_22/relu_0_split
I0620 16:07:20.066658  6278 net.cpp:157] Top shape: 1 1024 60 60 (3686400)
I0620 16:07:20.066661  6278 net.cpp:157] Top shape: 1 1024 60 60 (3686400)
I0620 16:07:20.066664  6278 net.cpp:165] Memory required for data: 3267819800
I0620 16:07:20.066666  6278 layer_factory.hpp:77] Creating layer conv4_23_1x1_reduce
I0620 16:07:20.066673  6278 net.cpp:106] Creating Layer conv4_23_1x1_reduce
I0620 16:07:20.066676  6278 net.cpp:454] conv4_23_1x1_reduce <- conv4_22_conv4_22/relu_0_split_0
I0620 16:07:20.066681  6278 net.cpp:411] conv4_23_1x1_reduce -> conv4_23_1x1_reduce
I0620 16:07:20.072260  6278 net.cpp:150] Setting up conv4_23_1x1_reduce
I0620 16:07:20.072266  6278 net.cpp:157] Top shape: 1 256 60 60 (921600)
I0620 16:07:20.072268  6278 net.cpp:165] Memory required for data: 3271506200
I0620 16:07:20.072273  6278 layer_factory.hpp:77] Creating layer conv4_23_1x1_reduce/bn
I0620 16:07:20.072280  6278 net.cpp:106] Creating Layer conv4_23_1x1_reduce/bn
I0620 16:07:20.072283  6278 net.cpp:454] conv4_23_1x1_reduce/bn <- conv4_23_1x1_reduce
I0620 16:07:20.072286  6278 net.cpp:397] conv4_23_1x1_reduce/bn -> conv4_23_1x1_reduce (in-place)
I0620 16:07:20.072438  6278 net.cpp:150] Setting up conv4_23_1x1_reduce/bn
I0620 16:07:20.072441  6278 net.cpp:157] Top shape: 1 256 60 60 (921600)
I0620 16:07:20.072444  6278 net.cpp:165] Memory required for data: 3275192600
I0620 16:07:20.072449  6278 layer_factory.hpp:77] Creating layer conv4_23_1x1_reduce/relu
I0620 16:07:20.072453  6278 net.cpp:106] Creating Layer conv4_23_1x1_reduce/relu
I0620 16:07:20.072456  6278 net.cpp:454] conv4_23_1x1_reduce/relu <- conv4_23_1x1_reduce
I0620 16:07:20.072459  6278 net.cpp:397] conv4_23_1x1_reduce/relu -> conv4_23_1x1_reduce (in-place)
I0620 16:07:20.072463  6278 net.cpp:150] Setting up conv4_23_1x1_reduce/relu
I0620 16:07:20.072466  6278 net.cpp:157] Top shape: 1 256 60 60 (921600)
I0620 16:07:20.072469  6278 net.cpp:165] Memory required for data: 3278879000
I0620 16:07:20.072480  6278 layer_factory.hpp:77] Creating layer conv4_23_3x3
I0620 16:07:20.072486  6278 net.cpp:106] Creating Layer conv4_23_3x3
I0620 16:07:20.072489  6278 net.cpp:454] conv4_23_3x3 <- conv4_23_1x1_reduce
I0620 16:07:20.072494  6278 net.cpp:411] conv4_23_3x3 -> conv4_23_3x3
I0620 16:07:20.085897  6278 net.cpp:150] Setting up conv4_23_3x3
I0620 16:07:20.085918  6278 net.cpp:157] Top shape: 1 256 60 60 (921600)
I0620 16:07:20.085921  6278 net.cpp:165] Memory required for data: 3282565400
I0620 16:07:20.085927  6278 layer_factory.hpp:77] Creating layer conv4_23_3x3/bn
I0620 16:07:20.085934  6278 net.cpp:106] Creating Layer conv4_23_3x3/bn
I0620 16:07:20.085938  6278 net.cpp:454] conv4_23_3x3/bn <- conv4_23_3x3
I0620 16:07:20.085944  6278 net.cpp:397] conv4_23_3x3/bn -> conv4_23_3x3 (in-place)
I0620 16:07:20.086129  6278 net.cpp:150] Setting up conv4_23_3x3/bn
I0620 16:07:20.086135  6278 net.cpp:157] Top shape: 1 256 60 60 (921600)
I0620 16:07:20.086138  6278 net.cpp:165] Memory required for data: 3286251800
I0620 16:07:20.086143  6278 layer_factory.hpp:77] Creating layer conv4_23_3x3/relu
I0620 16:07:20.086148  6278 net.cpp:106] Creating Layer conv4_23_3x3/relu
I0620 16:07:20.086150  6278 net.cpp:454] conv4_23_3x3/relu <- conv4_23_3x3
I0620 16:07:20.086153  6278 net.cpp:397] conv4_23_3x3/relu -> conv4_23_3x3 (in-place)
I0620 16:07:20.086158  6278 net.cpp:150] Setting up conv4_23_3x3/relu
I0620 16:07:20.086160  6278 net.cpp:157] Top shape: 1 256 60 60 (921600)
I0620 16:07:20.086163  6278 net.cpp:165] Memory required for data: 3289938200
I0620 16:07:20.086165  6278 layer_factory.hpp:77] Creating layer conv4_23_1x1_increase
I0620 16:07:20.086171  6278 net.cpp:106] Creating Layer conv4_23_1x1_increase
I0620 16:07:20.086174  6278 net.cpp:454] conv4_23_1x1_increase <- conv4_23_3x3
I0620 16:07:20.086185  6278 net.cpp:411] conv4_23_1x1_increase -> conv4_23_1x1_increase
I0620 16:07:20.093009  6278 net.cpp:150] Setting up conv4_23_1x1_increase
I0620 16:07:20.093091  6278 net.cpp:157] Top shape: 1 1024 60 60 (3686400)
I0620 16:07:20.093096  6278 net.cpp:165] Memory required for data: 3304683800
I0620 16:07:20.093113  6278 layer_factory.hpp:77] Creating layer conv4_23_1x1_increase/bn
I0620 16:07:20.093145  6278 net.cpp:106] Creating Layer conv4_23_1x1_increase/bn
I0620 16:07:20.093161  6278 net.cpp:454] conv4_23_1x1_increase/bn <- conv4_23_1x1_increase
I0620 16:07:20.093178  6278 net.cpp:397] conv4_23_1x1_increase/bn -> conv4_23_1x1_increase (in-place)
I0620 16:07:20.093538  6278 net.cpp:150] Setting up conv4_23_1x1_increase/bn
I0620 16:07:20.093546  6278 net.cpp:157] Top shape: 1 1024 60 60 (3686400)
I0620 16:07:20.093550  6278 net.cpp:165] Memory required for data: 3319429400
I0620 16:07:20.093560  6278 layer_factory.hpp:77] Creating layer conv4_23
I0620 16:07:20.093575  6278 net.cpp:106] Creating Layer conv4_23
I0620 16:07:20.093581  6278 net.cpp:454] conv4_23 <- conv4_22_conv4_22/relu_0_split_1
I0620 16:07:20.093587  6278 net.cpp:454] conv4_23 <- conv4_23_1x1_increase
I0620 16:07:20.093592  6278 net.cpp:411] conv4_23 -> conv4_23
I0620 16:07:20.093621  6278 net.cpp:150] Setting up conv4_23
I0620 16:07:20.093627  6278 net.cpp:157] Top shape: 1 1024 60 60 (3686400)
I0620 16:07:20.093631  6278 net.cpp:165] Memory required for data: 3334175000
I0620 16:07:20.093636  6278 layer_factory.hpp:77] Creating layer conv4_23/relu
I0620 16:07:20.093647  6278 net.cpp:106] Creating Layer conv4_23/relu
I0620 16:07:20.093652  6278 net.cpp:454] conv4_23/relu <- conv4_23
I0620 16:07:20.093663  6278 net.cpp:397] conv4_23/relu -> conv4_23 (in-place)
I0620 16:07:20.093670  6278 net.cpp:150] Setting up conv4_23/relu
I0620 16:07:20.093675  6278 net.cpp:157] Top shape: 1 1024 60 60 (3686400)
I0620 16:07:20.093679  6278 net.cpp:165] Memory required for data: 3348920600
I0620 16:07:20.093683  6278 layer_factory.hpp:77] Creating layer conv4_23_conv4_23/relu_0_split
I0620 16:07:20.093689  6278 net.cpp:106] Creating Layer conv4_23_conv4_23/relu_0_split
I0620 16:07:20.093693  6278 net.cpp:454] conv4_23_conv4_23/relu_0_split <- conv4_23
I0620 16:07:20.093742  6278 net.cpp:411] conv4_23_conv4_23/relu_0_split -> conv4_23_conv4_23/relu_0_split_0
I0620 16:07:20.093750  6278 net.cpp:411] conv4_23_conv4_23/relu_0_split -> conv4_23_conv4_23/relu_0_split_1
I0620 16:07:20.093786  6278 net.cpp:150] Setting up conv4_23_conv4_23/relu_0_split
I0620 16:07:20.093793  6278 net.cpp:157] Top shape: 1 1024 60 60 (3686400)
I0620 16:07:20.093798  6278 net.cpp:157] Top shape: 1 1024 60 60 (3686400)
I0620 16:07:20.093802  6278 net.cpp:165] Memory required for data: 3378411800
I0620 16:07:20.093807  6278 layer_factory.hpp:77] Creating layer conv5_1_1x1_reduce
I0620 16:07:20.093818  6278 net.cpp:106] Creating Layer conv5_1_1x1_reduce
I0620 16:07:20.093822  6278 net.cpp:454] conv5_1_1x1_reduce <- conv4_23_conv4_23/relu_0_split_0
I0620 16:07:20.093834  6278 net.cpp:411] conv5_1_1x1_reduce -> conv5_1_1x1_reduce
I0620 16:07:20.111174  6278 net.cpp:150] Setting up conv5_1_1x1_reduce
I0620 16:07:20.111222  6278 net.cpp:157] Top shape: 1 512 60 60 (1843200)
I0620 16:07:20.111227  6278 net.cpp:165] Memory required for data: 3385784600
I0620 16:07:20.111240  6278 layer_factory.hpp:77] Creating layer conv5_1_1x1_reduce/bn
I0620 16:07:20.111260  6278 net.cpp:106] Creating Layer conv5_1_1x1_reduce/bn
I0620 16:07:20.111269  6278 net.cpp:454] conv5_1_1x1_reduce/bn <- conv5_1_1x1_reduce
I0620 16:07:20.111280  6278 net.cpp:397] conv5_1_1x1_reduce/bn -> conv5_1_1x1_reduce (in-place)
I0620 16:07:20.111543  6278 net.cpp:150] Setting up conv5_1_1x1_reduce/bn
I0620 16:07:20.111549  6278 net.cpp:157] Top shape: 1 512 60 60 (1843200)
I0620 16:07:20.111552  6278 net.cpp:165] Memory required for data: 3393157400
I0620 16:07:20.111559  6278 layer_factory.hpp:77] Creating layer conv5_1_1x1_reduce/relu
I0620 16:07:20.111568  6278 net.cpp:106] Creating Layer conv5_1_1x1_reduce/relu
I0620 16:07:20.111572  6278 net.cpp:454] conv5_1_1x1_reduce/relu <- conv5_1_1x1_reduce
I0620 16:07:20.111575  6278 net.cpp:397] conv5_1_1x1_reduce/relu -> conv5_1_1x1_reduce (in-place)
I0620 16:07:20.111579  6278 net.cpp:150] Setting up conv5_1_1x1_reduce/relu
I0620 16:07:20.111583  6278 net.cpp:157] Top shape: 1 512 60 60 (1843200)
I0620 16:07:20.111587  6278 net.cpp:165] Memory required for data: 3400530200
I0620 16:07:20.111589  6278 layer_factory.hpp:77] Creating layer conv5_1_3x3
I0620 16:07:20.111596  6278 net.cpp:106] Creating Layer conv5_1_3x3
I0620 16:07:20.111599  6278 net.cpp:454] conv5_1_3x3 <- conv5_1_1x1_reduce
I0620 16:07:20.111604  6278 net.cpp:411] conv5_1_3x3 -> conv5_1_3x3
I0620 16:07:20.169637  6278 net.cpp:150] Setting up conv5_1_3x3
I0620 16:07:20.169658  6278 net.cpp:157] Top shape: 1 512 60 60 (1843200)
I0620 16:07:20.169661  6278 net.cpp:165] Memory required for data: 3407903000
I0620 16:07:20.169667  6278 layer_factory.hpp:77] Creating layer conv5_1_3x3/bn
I0620 16:07:20.169674  6278 net.cpp:106] Creating Layer conv5_1_3x3/bn
I0620 16:07:20.169679  6278 net.cpp:454] conv5_1_3x3/bn <- conv5_1_3x3
I0620 16:07:20.169688  6278 net.cpp:397] conv5_1_3x3/bn -> conv5_1_3x3 (in-place)
I0620 16:07:20.169886  6278 net.cpp:150] Setting up conv5_1_3x3/bn
I0620 16:07:20.169891  6278 net.cpp:157] Top shape: 1 512 60 60 (1843200)
I0620 16:07:20.169893  6278 net.cpp:165] Memory required for data: 3415275800
I0620 16:07:20.169898  6278 layer_factory.hpp:77] Creating layer conv5_1_3x3/relu
I0620 16:07:20.169903  6278 net.cpp:106] Creating Layer conv5_1_3x3/relu
I0620 16:07:20.169905  6278 net.cpp:454] conv5_1_3x3/relu <- conv5_1_3x3
I0620 16:07:20.169909  6278 net.cpp:397] conv5_1_3x3/relu -> conv5_1_3x3 (in-place)
I0620 16:07:20.169914  6278 net.cpp:150] Setting up conv5_1_3x3/relu
I0620 16:07:20.169916  6278 net.cpp:157] Top shape: 1 512 60 60 (1843200)
I0620 16:07:20.169917  6278 net.cpp:165] Memory required for data: 3422648600
I0620 16:07:20.169920  6278 layer_factory.hpp:77] Creating layer conv5_1_1x1_increase
I0620 16:07:20.169926  6278 net.cpp:106] Creating Layer conv5_1_1x1_increase
I0620 16:07:20.169929  6278 net.cpp:454] conv5_1_1x1_increase <- conv5_1_3x3
I0620 16:07:20.169934  6278 net.cpp:411] conv5_1_1x1_increase -> conv5_1_1x1_increase
I0620 16:07:20.193930  6278 net.cpp:150] Setting up conv5_1_1x1_increase
I0620 16:07:20.193964  6278 net.cpp:157] Top shape: 1 2048 60 60 (7372800)
I0620 16:07:20.193970  6278 net.cpp:165] Memory required for data: 3452139800
I0620 16:07:20.193982  6278 layer_factory.hpp:77] Creating layer conv5_1_1x1_increase/bn
I0620 16:07:20.194000  6278 net.cpp:106] Creating Layer conv5_1_1x1_increase/bn
I0620 16:07:20.194008  6278 net.cpp:454] conv5_1_1x1_increase/bn <- conv5_1_1x1_increase
I0620 16:07:20.194018  6278 net.cpp:397] conv5_1_1x1_increase/bn -> conv5_1_1x1_increase (in-place)
I0620 16:07:20.194273  6278 net.cpp:150] Setting up conv5_1_1x1_increase/bn
I0620 16:07:20.194281  6278 net.cpp:157] Top shape: 1 2048 60 60 (7372800)
I0620 16:07:20.194285  6278 net.cpp:165] Memory required for data: 3481631000
I0620 16:07:20.194294  6278 layer_factory.hpp:77] Creating layer conv5_1_1x1_proj
I0620 16:07:20.194305  6278 net.cpp:106] Creating Layer conv5_1_1x1_proj
I0620 16:07:20.194311  6278 net.cpp:454] conv5_1_1x1_proj <- conv4_23_conv4_23/relu_0_split_1
I0620 16:07:20.194319  6278 net.cpp:411] conv5_1_1x1_proj -> conv5_1_1x1_proj
I0620 16:07:20.247560  6278 net.cpp:150] Setting up conv5_1_1x1_proj
I0620 16:07:20.247611  6278 net.cpp:157] Top shape: 1 2048 60 60 (7372800)
I0620 16:07:20.247617  6278 net.cpp:165] Memory required for data: 3511122200
I0620 16:07:20.247632  6278 layer_factory.hpp:77] Creating layer conv5_1_1x1_proj/bn
I0620 16:07:20.247650  6278 net.cpp:106] Creating Layer conv5_1_1x1_proj/bn
I0620 16:07:20.247660  6278 net.cpp:454] conv5_1_1x1_proj/bn <- conv5_1_1x1_proj
I0620 16:07:20.247673  6278 net.cpp:397] conv5_1_1x1_proj/bn -> conv5_1_1x1_proj (in-place)
I0620 16:07:20.247957  6278 net.cpp:150] Setting up conv5_1_1x1_proj/bn
I0620 16:07:20.247966  6278 net.cpp:157] Top shape: 1 2048 60 60 (7372800)
I0620 16:07:20.247969  6278 net.cpp:165] Memory required for data: 3540613400
I0620 16:07:20.247977  6278 layer_factory.hpp:77] Creating layer conv5_1
I0620 16:07:20.247993  6278 net.cpp:106] Creating Layer conv5_1
I0620 16:07:20.247997  6278 net.cpp:454] conv5_1 <- conv5_1_1x1_proj
I0620 16:07:20.248006  6278 net.cpp:454] conv5_1 <- conv5_1_1x1_increase
I0620 16:07:20.248013  6278 net.cpp:411] conv5_1 -> conv5_1
I0620 16:07:20.248039  6278 net.cpp:150] Setting up conv5_1
I0620 16:07:20.248046  6278 net.cpp:157] Top shape: 1 2048 60 60 (7372800)
I0620 16:07:20.248050  6278 net.cpp:165] Memory required for data: 3570104600
I0620 16:07:20.248055  6278 layer_factory.hpp:77] Creating layer conv5_1/relu
I0620 16:07:20.248065  6278 net.cpp:106] Creating Layer conv5_1/relu
I0620 16:07:20.248070  6278 net.cpp:454] conv5_1/relu <- conv5_1
I0620 16:07:20.248075  6278 net.cpp:397] conv5_1/relu -> conv5_1 (in-place)
I0620 16:07:20.248083  6278 net.cpp:150] Setting up conv5_1/relu
I0620 16:07:20.248090  6278 net.cpp:157] Top shape: 1 2048 60 60 (7372800)
I0620 16:07:20.248093  6278 net.cpp:165] Memory required for data: 3599595800
I0620 16:07:20.248097  6278 layer_factory.hpp:77] Creating layer conv5_1_conv5_1/relu_0_split
I0620 16:07:20.248105  6278 net.cpp:106] Creating Layer conv5_1_conv5_1/relu_0_split
I0620 16:07:20.248108  6278 net.cpp:454] conv5_1_conv5_1/relu_0_split <- conv5_1
I0620 16:07:20.248116  6278 net.cpp:411] conv5_1_conv5_1/relu_0_split -> conv5_1_conv5_1/relu_0_split_0
I0620 16:07:20.248123  6278 net.cpp:411] conv5_1_conv5_1/relu_0_split -> conv5_1_conv5_1/relu_0_split_1
I0620 16:07:20.248160  6278 net.cpp:150] Setting up conv5_1_conv5_1/relu_0_split
I0620 16:07:20.248169  6278 net.cpp:157] Top shape: 1 2048 60 60 (7372800)
I0620 16:07:20.248174  6278 net.cpp:157] Top shape: 1 2048 60 60 (7372800)
I0620 16:07:20.248178  6278 net.cpp:165] Memory required for data: 3658578200
I0620 16:07:20.248183  6278 layer_factory.hpp:77] Creating layer conv5_2_1x1_reduce
I0620 16:07:20.248193  6278 net.cpp:106] Creating Layer conv5_2_1x1_reduce
I0620 16:07:20.248198  6278 net.cpp:454] conv5_2_1x1_reduce <- conv5_1_conv5_1/relu_0_split_0
I0620 16:07:20.248206  6278 net.cpp:411] conv5_2_1x1_reduce -> conv5_2_1x1_reduce
I0620 16:07:20.276968  6278 net.cpp:150] Setting up conv5_2_1x1_reduce
I0620 16:07:20.276991  6278 net.cpp:157] Top shape: 1 512 60 60 (1843200)
I0620 16:07:20.276993  6278 net.cpp:165] Memory required for data: 3665951000
I0620 16:07:20.277000  6278 layer_factory.hpp:77] Creating layer conv5_2_1x1_reduce/bn
I0620 16:07:20.277009  6278 net.cpp:106] Creating Layer conv5_2_1x1_reduce/bn
I0620 16:07:20.277014  6278 net.cpp:454] conv5_2_1x1_reduce/bn <- conv5_2_1x1_reduce
I0620 16:07:20.277022  6278 net.cpp:397] conv5_2_1x1_reduce/bn -> conv5_2_1x1_reduce (in-place)
I0620 16:07:20.277215  6278 net.cpp:150] Setting up conv5_2_1x1_reduce/bn
I0620 16:07:20.277221  6278 net.cpp:157] Top shape: 1 512 60 60 (1843200)
I0620 16:07:20.277223  6278 net.cpp:165] Memory required for data: 3673323800
I0620 16:07:20.277228  6278 layer_factory.hpp:77] Creating layer conv5_2_1x1_reduce/relu
I0620 16:07:20.277235  6278 net.cpp:106] Creating Layer conv5_2_1x1_reduce/relu
I0620 16:07:20.277236  6278 net.cpp:454] conv5_2_1x1_reduce/relu <- conv5_2_1x1_reduce
I0620 16:07:20.277240  6278 net.cpp:397] conv5_2_1x1_reduce/relu -> conv5_2_1x1_reduce (in-place)
I0620 16:07:20.277245  6278 net.cpp:150] Setting up conv5_2_1x1_reduce/relu
I0620 16:07:20.277246  6278 net.cpp:157] Top shape: 1 512 60 60 (1843200)
I0620 16:07:20.277249  6278 net.cpp:165] Memory required for data: 3680696600
I0620 16:07:20.277253  6278 layer_factory.hpp:77] Creating layer conv5_2_3x3
I0620 16:07:20.277261  6278 net.cpp:106] Creating Layer conv5_2_3x3
I0620 16:07:20.277266  6278 net.cpp:454] conv5_2_3x3 <- conv5_2_1x1_reduce
I0620 16:07:20.277274  6278 net.cpp:411] conv5_2_3x3 -> conv5_2_3x3
I0620 16:07:20.334107  6278 net.cpp:150] Setting up conv5_2_3x3
I0620 16:07:20.334136  6278 net.cpp:157] Top shape: 1 512 60 60 (1843200)
I0620 16:07:20.334138  6278 net.cpp:165] Memory required for data: 3688069400
I0620 16:07:20.334146  6278 layer_factory.hpp:77] Creating layer conv5_2_3x3/bn
I0620 16:07:20.334157  6278 net.cpp:106] Creating Layer conv5_2_3x3/bn
I0620 16:07:20.334163  6278 net.cpp:454] conv5_2_3x3/bn <- conv5_2_3x3
I0620 16:07:20.334172  6278 net.cpp:397] conv5_2_3x3/bn -> conv5_2_3x3 (in-place)
I0620 16:07:20.334358  6278 net.cpp:150] Setting up conv5_2_3x3/bn
I0620 16:07:20.334364  6278 net.cpp:157] Top shape: 1 512 60 60 (1843200)
I0620 16:07:20.334368  6278 net.cpp:165] Memory required for data: 3695442200
I0620 16:07:20.334377  6278 layer_factory.hpp:77] Creating layer conv5_2_3x3/relu
I0620 16:07:20.334383  6278 net.cpp:106] Creating Layer conv5_2_3x3/relu
I0620 16:07:20.334388  6278 net.cpp:454] conv5_2_3x3/relu <- conv5_2_3x3
I0620 16:07:20.334393  6278 net.cpp:397] conv5_2_3x3/relu -> conv5_2_3x3 (in-place)
I0620 16:07:20.334399  6278 net.cpp:150] Setting up conv5_2_3x3/relu
I0620 16:07:20.334405  6278 net.cpp:157] Top shape: 1 512 60 60 (1843200)
I0620 16:07:20.334409  6278 net.cpp:165] Memory required for data: 3702815000
I0620 16:07:20.334414  6278 layer_factory.hpp:77] Creating layer conv5_2_1x1_increase
I0620 16:07:20.334429  6278 net.cpp:106] Creating Layer conv5_2_1x1_increase
I0620 16:07:20.334434  6278 net.cpp:454] conv5_2_1x1_increase <- conv5_2_3x3
I0620 16:07:20.334440  6278 net.cpp:411] conv5_2_1x1_increase -> conv5_2_1x1_increase
I0620 16:07:20.361562  6278 net.cpp:150] Setting up conv5_2_1x1_increase
I0620 16:07:20.361610  6278 net.cpp:157] Top shape: 1 2048 60 60 (7372800)
I0620 16:07:20.361616  6278 net.cpp:165] Memory required for data: 3732306200
I0620 16:07:20.361634  6278 layer_factory.hpp:77] Creating layer conv5_2_1x1_increase/bn
I0620 16:07:20.361660  6278 net.cpp:106] Creating Layer conv5_2_1x1_increase/bn
I0620 16:07:20.361668  6278 net.cpp:454] conv5_2_1x1_increase/bn <- conv5_2_1x1_increase
I0620 16:07:20.361678  6278 net.cpp:397] conv5_2_1x1_increase/bn -> conv5_2_1x1_increase (in-place)
I0620 16:07:20.361899  6278 net.cpp:150] Setting up conv5_2_1x1_increase/bn
I0620 16:07:20.361905  6278 net.cpp:157] Top shape: 1 2048 60 60 (7372800)
I0620 16:07:20.361909  6278 net.cpp:165] Memory required for data: 3761797400
I0620 16:07:20.362053  6278 layer_factory.hpp:77] Creating layer conv5_2
I0620 16:07:20.362064  6278 net.cpp:106] Creating Layer conv5_2
I0620 16:07:20.362069  6278 net.cpp:454] conv5_2 <- conv5_1_conv5_1/relu_0_split_1
I0620 16:07:20.362077  6278 net.cpp:454] conv5_2 <- conv5_2_1x1_increase
I0620 16:07:20.362085  6278 net.cpp:411] conv5_2 -> conv5_2
I0620 16:07:20.362130  6278 net.cpp:150] Setting up conv5_2
I0620 16:07:20.362135  6278 net.cpp:157] Top shape: 1 2048 60 60 (7372800)
I0620 16:07:20.362139  6278 net.cpp:165] Memory required for data: 3791288600
I0620 16:07:20.362144  6278 layer_factory.hpp:77] Creating layer conv5_2/relu
I0620 16:07:20.362156  6278 net.cpp:106] Creating Layer conv5_2/relu
I0620 16:07:20.362161  6278 net.cpp:454] conv5_2/relu <- conv5_2
I0620 16:07:20.362167  6278 net.cpp:397] conv5_2/relu -> conv5_2 (in-place)
I0620 16:07:20.362177  6278 net.cpp:150] Setting up conv5_2/relu
I0620 16:07:20.362182  6278 net.cpp:157] Top shape: 1 2048 60 60 (7372800)
I0620 16:07:20.362186  6278 net.cpp:165] Memory required for data: 3820779800
I0620 16:07:20.362192  6278 layer_factory.hpp:77] Creating layer conv5_2_conv5_2/relu_0_split
I0620 16:07:20.362200  6278 net.cpp:106] Creating Layer conv5_2_conv5_2/relu_0_split
I0620 16:07:20.362205  6278 net.cpp:454] conv5_2_conv5_2/relu_0_split <- conv5_2
I0620 16:07:20.362215  6278 net.cpp:411] conv5_2_conv5_2/relu_0_split -> conv5_2_conv5_2/relu_0_split_0
I0620 16:07:20.362221  6278 net.cpp:411] conv5_2_conv5_2/relu_0_split -> conv5_2_conv5_2/relu_0_split_1
I0620 16:07:20.362262  6278 net.cpp:150] Setting up conv5_2_conv5_2/relu_0_split
I0620 16:07:20.362267  6278 net.cpp:157] Top shape: 1 2048 60 60 (7372800)
I0620 16:07:20.362272  6278 net.cpp:157] Top shape: 1 2048 60 60 (7372800)
I0620 16:07:20.362275  6278 net.cpp:165] Memory required for data: 3879762200
I0620 16:07:20.362280  6278 layer_factory.hpp:77] Creating layer conv5_3_1x1_reduce
I0620 16:07:20.362298  6278 net.cpp:106] Creating Layer conv5_3_1x1_reduce
I0620 16:07:20.362303  6278 net.cpp:454] conv5_3_1x1_reduce <- conv5_2_conv5_2/relu_0_split_0
I0620 16:07:20.362309  6278 net.cpp:411] conv5_3_1x1_reduce -> conv5_3_1x1_reduce
I0620 16:07:20.385905  6278 net.cpp:150] Setting up conv5_3_1x1_reduce
I0620 16:07:20.385941  6278 net.cpp:157] Top shape: 1 512 60 60 (1843200)
I0620 16:07:20.385944  6278 net.cpp:165] Memory required for data: 3887135000
I0620 16:07:20.385954  6278 layer_factory.hpp:77] Creating layer conv5_3_1x1_reduce/bn
I0620 16:07:20.385965  6278 net.cpp:106] Creating Layer conv5_3_1x1_reduce/bn
I0620 16:07:20.385972  6278 net.cpp:454] conv5_3_1x1_reduce/bn <- conv5_3_1x1_reduce
I0620 16:07:20.385978  6278 net.cpp:397] conv5_3_1x1_reduce/bn -> conv5_3_1x1_reduce (in-place)
I0620 16:07:20.386174  6278 net.cpp:150] Setting up conv5_3_1x1_reduce/bn
I0620 16:07:20.386180  6278 net.cpp:157] Top shape: 1 512 60 60 (1843200)
I0620 16:07:20.386184  6278 net.cpp:165] Memory required for data: 3894507800
I0620 16:07:20.386191  6278 layer_factory.hpp:77] Creating layer conv5_3_1x1_reduce/relu
I0620 16:07:20.386198  6278 net.cpp:106] Creating Layer conv5_3_1x1_reduce/relu
I0620 16:07:20.386201  6278 net.cpp:454] conv5_3_1x1_reduce/relu <- conv5_3_1x1_reduce
I0620 16:07:20.386205  6278 net.cpp:397] conv5_3_1x1_reduce/relu -> conv5_3_1x1_reduce (in-place)
I0620 16:07:20.386210  6278 net.cpp:150] Setting up conv5_3_1x1_reduce/relu
I0620 16:07:20.386215  6278 net.cpp:157] Top shape: 1 512 60 60 (1843200)
I0620 16:07:20.386219  6278 net.cpp:165] Memory required for data: 3901880600
I0620 16:07:20.386221  6278 layer_factory.hpp:77] Creating layer conv5_3_3x3
I0620 16:07:20.386230  6278 net.cpp:106] Creating Layer conv5_3_3x3
I0620 16:07:20.386234  6278 net.cpp:454] conv5_3_3x3 <- conv5_3_1x1_reduce
I0620 16:07:20.386241  6278 net.cpp:411] conv5_3_3x3 -> conv5_3_3x3
I0620 16:07:20.443435  6278 net.cpp:150] Setting up conv5_3_3x3
I0620 16:07:20.443464  6278 net.cpp:157] Top shape: 1 512 60 60 (1843200)
I0620 16:07:20.443466  6278 net.cpp:165] Memory required for data: 3909253400
I0620 16:07:20.443475  6278 layer_factory.hpp:77] Creating layer conv5_3_3x3/bn
I0620 16:07:20.443512  6278 net.cpp:106] Creating Layer conv5_3_3x3/bn
I0620 16:07:20.443519  6278 net.cpp:454] conv5_3_3x3/bn <- conv5_3_3x3
I0620 16:07:20.443528  6278 net.cpp:397] conv5_3_3x3/bn -> conv5_3_3x3 (in-place)
I0620 16:07:20.443720  6278 net.cpp:150] Setting up conv5_3_3x3/bn
I0620 16:07:20.443727  6278 net.cpp:157] Top shape: 1 512 60 60 (1843200)
I0620 16:07:20.443728  6278 net.cpp:165] Memory required for data: 3916626200
I0620 16:07:20.443733  6278 layer_factory.hpp:77] Creating layer conv5_3_3x3/relu
I0620 16:07:20.443738  6278 net.cpp:106] Creating Layer conv5_3_3x3/relu
I0620 16:07:20.443740  6278 net.cpp:454] conv5_3_3x3/relu <- conv5_3_3x3
I0620 16:07:20.443743  6278 net.cpp:397] conv5_3_3x3/relu -> conv5_3_3x3 (in-place)
I0620 16:07:20.443748  6278 net.cpp:150] Setting up conv5_3_3x3/relu
I0620 16:07:20.443750  6278 net.cpp:157] Top shape: 1 512 60 60 (1843200)
I0620 16:07:20.443753  6278 net.cpp:165] Memory required for data: 3923999000
I0620 16:07:20.443756  6278 layer_factory.hpp:77] Creating layer conv5_3_1x1_increase
I0620 16:07:20.443763  6278 net.cpp:106] Creating Layer conv5_3_1x1_increase
I0620 16:07:20.443766  6278 net.cpp:454] conv5_3_1x1_increase <- conv5_3_3x3
I0620 16:07:20.443771  6278 net.cpp:411] conv5_3_1x1_increase -> conv5_3_1x1_increase
I0620 16:07:20.472226  6278 net.cpp:150] Setting up conv5_3_1x1_increase
I0620 16:07:20.472249  6278 net.cpp:157] Top shape: 1 2048 60 60 (7372800)
I0620 16:07:20.472252  6278 net.cpp:165] Memory required for data: 3953490200
I0620 16:07:20.472261  6278 layer_factory.hpp:77] Creating layer conv5_3_1x1_increase/bn
I0620 16:07:20.472277  6278 net.cpp:106] Creating Layer conv5_3_1x1_increase/bn
I0620 16:07:20.472285  6278 net.cpp:454] conv5_3_1x1_increase/bn <- conv5_3_1x1_increase
I0620 16:07:20.472292  6278 net.cpp:397] conv5_3_1x1_increase/bn -> conv5_3_1x1_increase (in-place)
I0620 16:07:20.472484  6278 net.cpp:150] Setting up conv5_3_1x1_increase/bn
I0620 16:07:20.472491  6278 net.cpp:157] Top shape: 1 2048 60 60 (7372800)
I0620 16:07:20.472493  6278 net.cpp:165] Memory required for data: 3982981400
I0620 16:07:20.472501  6278 layer_factory.hpp:77] Creating layer conv5_3
I0620 16:07:20.472506  6278 net.cpp:106] Creating Layer conv5_3
I0620 16:07:20.472509  6278 net.cpp:454] conv5_3 <- conv5_2_conv5_2/relu_0_split_1
I0620 16:07:20.472514  6278 net.cpp:454] conv5_3 <- conv5_3_1x1_increase
I0620 16:07:20.472519  6278 net.cpp:411] conv5_3 -> conv5_3
I0620 16:07:20.472542  6278 net.cpp:150] Setting up conv5_3
I0620 16:07:20.472546  6278 net.cpp:157] Top shape: 1 2048 60 60 (7372800)
I0620 16:07:20.472549  6278 net.cpp:165] Memory required for data: 4012472600
I0620 16:07:20.472553  6278 layer_factory.hpp:77] Creating layer conv5_3/relu
I0620 16:07:20.472560  6278 net.cpp:106] Creating Layer conv5_3/relu
I0620 16:07:20.472563  6278 net.cpp:454] conv5_3/relu <- conv5_3
I0620 16:07:20.472568  6278 net.cpp:397] conv5_3/relu -> conv5_3 (in-place)
I0620 16:07:20.472573  6278 net.cpp:150] Setting up conv5_3/relu
I0620 16:07:20.472578  6278 net.cpp:157] Top shape: 1 2048 60 60 (7372800)
I0620 16:07:20.472580  6278 net.cpp:165] Memory required for data: 4041963800
I0620 16:07:20.472584  6278 layer_factory.hpp:77] Creating layer conv5_3_conv5_3/relu_0_split
I0620 16:07:20.472590  6278 net.cpp:106] Creating Layer conv5_3_conv5_3/relu_0_split
I0620 16:07:20.472594  6278 net.cpp:454] conv5_3_conv5_3/relu_0_split <- conv5_3
I0620 16:07:20.472599  6278 net.cpp:411] conv5_3_conv5_3/relu_0_split -> conv5_3_conv5_3/relu_0_split_0
I0620 16:07:20.472604  6278 net.cpp:411] conv5_3_conv5_3/relu_0_split -> conv5_3_conv5_3/relu_0_split_1
I0620 16:07:20.472607  6278 net.cpp:411] conv5_3_conv5_3/relu_0_split -> conv5_3_conv5_3/relu_0_split_2
I0620 16:07:20.472612  6278 net.cpp:411] conv5_3_conv5_3/relu_0_split -> conv5_3_conv5_3/relu_0_split_3
I0620 16:07:20.472616  6278 net.cpp:411] conv5_3_conv5_3/relu_0_split -> conv5_3_conv5_3/relu_0_split_4
I0620 16:07:20.472678  6278 net.cpp:150] Setting up conv5_3_conv5_3/relu_0_split
I0620 16:07:20.472699  6278 net.cpp:157] Top shape: 1 2048 60 60 (7372800)
I0620 16:07:20.472702  6278 net.cpp:157] Top shape: 1 2048 60 60 (7372800)
I0620 16:07:20.472705  6278 net.cpp:157] Top shape: 1 2048 60 60 (7372800)
I0620 16:07:20.472708  6278 net.cpp:157] Top shape: 1 2048 60 60 (7372800)
I0620 16:07:20.472712  6278 net.cpp:157] Top shape: 1 2048 60 60 (7372800)
I0620 16:07:20.472714  6278 net.cpp:165] Memory required for data: 4189419800
I0620 16:07:20.472718  6278 layer_factory.hpp:77] Creating layer conv5_3_pool1
I0620 16:07:20.472721  6278 net.cpp:106] Creating Layer conv5_3_pool1
I0620 16:07:20.472724  6278 net.cpp:454] conv5_3_pool1 <- conv5_3_conv5_3/relu_0_split_0
I0620 16:07:20.472729  6278 net.cpp:411] conv5_3_pool1 -> conv5_3_pool1
I0620 16:07:20.472745  6278 net.cpp:150] Setting up conv5_3_pool1
I0620 16:07:20.472749  6278 net.cpp:157] Top shape: 1 2048 1 1 (2048)
I0620 16:07:20.472753  6278 net.cpp:165] Memory required for data: 4189427992
I0620 16:07:20.472754  6278 layer_factory.hpp:77] Creating layer conv5_3_pool1_conv
I0620 16:07:20.472762  6278 net.cpp:106] Creating Layer conv5_3_pool1_conv
I0620 16:07:20.472765  6278 net.cpp:454] conv5_3_pool1_conv <- conv5_3_pool1
I0620 16:07:20.472769  6278 net.cpp:411] conv5_3_pool1_conv -> conv5_3_pool1_conv
I0620 16:07:20.496330  6278 net.cpp:150] Setting up conv5_3_pool1_conv
I0620 16:07:20.496356  6278 net.cpp:157] Top shape: 1 512 1 1 (512)
I0620 16:07:20.496359  6278 net.cpp:165] Memory required for data: 4189430040
I0620 16:07:20.496369  6278 layer_factory.hpp:77] Creating layer conv5_3_pool1_conv/bn
I0620 16:07:20.496381  6278 net.cpp:106] Creating Layer conv5_3_pool1_conv/bn
I0620 16:07:20.496388  6278 net.cpp:454] conv5_3_pool1_conv/bn <- conv5_3_pool1_conv
I0620 16:07:20.496394  6278 net.cpp:397] conv5_3_pool1_conv/bn -> conv5_3_pool1_conv (in-place)
I0620 16:07:20.496567  6278 net.cpp:150] Setting up conv5_3_pool1_conv/bn
I0620 16:07:20.496572  6278 net.cpp:157] Top shape: 1 512 1 1 (512)
I0620 16:07:20.496575  6278 net.cpp:165] Memory required for data: 4189432088
I0620 16:07:20.496583  6278 layer_factory.hpp:77] Creating layer conv5_3_pool1_conv/relu
I0620 16:07:20.496589  6278 net.cpp:106] Creating Layer conv5_3_pool1_conv/relu
I0620 16:07:20.496592  6278 net.cpp:454] conv5_3_pool1_conv/relu <- conv5_3_pool1_conv
I0620 16:07:20.496596  6278 net.cpp:397] conv5_3_pool1_conv/relu -> conv5_3_pool1_conv (in-place)
I0620 16:07:20.496603  6278 net.cpp:150] Setting up conv5_3_pool1_conv/relu
I0620 16:07:20.496606  6278 net.cpp:157] Top shape: 1 512 1 1 (512)
I0620 16:07:20.496609  6278 net.cpp:165] Memory required for data: 4189434136
I0620 16:07:20.496613  6278 layer_factory.hpp:77] Creating layer conv5_3_pool1_interp
I0620 16:07:20.496618  6278 net.cpp:106] Creating Layer conv5_3_pool1_interp
I0620 16:07:20.496621  6278 net.cpp:454] conv5_3_pool1_interp <- conv5_3_pool1_conv
I0620 16:07:20.496626  6278 net.cpp:411] conv5_3_pool1_interp -> conv5_3_pool1_interp
I0620 16:07:20.496649  6278 net.cpp:150] Setting up conv5_3_pool1_interp
I0620 16:07:20.496654  6278 net.cpp:157] Top shape: 1 512 60 60 (1843200)
I0620 16:07:20.496657  6278 net.cpp:165] Memory required for data: 4196806936
I0620 16:07:20.496660  6278 layer_factory.hpp:77] Creating layer conv5_3_pool2
I0620 16:07:20.496665  6278 net.cpp:106] Creating Layer conv5_3_pool2
I0620 16:07:20.496668  6278 net.cpp:454] conv5_3_pool2 <- conv5_3_conv5_3/relu_0_split_1
I0620 16:07:20.496673  6278 net.cpp:411] conv5_3_pool2 -> conv5_3_pool2
I0620 16:07:20.496692  6278 net.cpp:150] Setting up conv5_3_pool2
I0620 16:07:20.496697  6278 net.cpp:157] Top shape: 1 2048 2 2 (8192)
I0620 16:07:20.496701  6278 net.cpp:165] Memory required for data: 4196839704
I0620 16:07:20.496703  6278 layer_factory.hpp:77] Creating layer conv5_3_pool2_conv
I0620 16:07:20.496711  6278 net.cpp:106] Creating Layer conv5_3_pool2_conv
I0620 16:07:20.496714  6278 net.cpp:454] conv5_3_pool2_conv <- conv5_3_pool2
I0620 16:07:20.496721  6278 net.cpp:411] conv5_3_pool2_conv -> conv5_3_pool2_conv
I0620 16:07:20.525431  6278 net.cpp:150] Setting up conv5_3_pool2_conv
I0620 16:07:20.525506  6278 net.cpp:157] Top shape: 1 512 2 2 (2048)
I0620 16:07:20.525509  6278 net.cpp:165] Memory required for data: 4196847896
I0620 16:07:20.525521  6278 layer_factory.hpp:77] Creating layer conv5_3_pool2_conv/bn
I0620 16:07:20.525534  6278 net.cpp:106] Creating Layer conv5_3_pool2_conv/bn
I0620 16:07:20.525542  6278 net.cpp:454] conv5_3_pool2_conv/bn <- conv5_3_pool2_conv
I0620 16:07:20.525549  6278 net.cpp:397] conv5_3_pool2_conv/bn -> conv5_3_pool2_conv (in-place)
I0620 16:07:20.525821  6278 net.cpp:150] Setting up conv5_3_pool2_conv/bn
I0620 16:07:20.525832  6278 net.cpp:157] Top shape: 1 512 2 2 (2048)
I0620 16:07:20.525840  6278 net.cpp:165] Memory required for data: 4196856088
I0620 16:07:20.525851  6278 layer_factory.hpp:77] Creating layer conv5_3_pool2_conv/relu
I0620 16:07:20.525862  6278 net.cpp:106] Creating Layer conv5_3_pool2_conv/relu
I0620 16:07:20.525868  6278 net.cpp:454] conv5_3_pool2_conv/relu <- conv5_3_pool2_conv
I0620 16:07:20.525893  6278 net.cpp:397] conv5_3_pool2_conv/relu -> conv5_3_pool2_conv (in-place)
I0620 16:07:20.525902  6278 net.cpp:150] Setting up conv5_3_pool2_conv/relu
I0620 16:07:20.525908  6278 net.cpp:157] Top shape: 1 512 2 2 (2048)
I0620 16:07:20.525913  6278 net.cpp:165] Memory required for data: 4196864280
I0620 16:07:20.525918  6278 layer_factory.hpp:77] Creating layer conv5_3_pool2_interp
I0620 16:07:20.525931  6278 net.cpp:106] Creating Layer conv5_3_pool2_interp
I0620 16:07:20.525936  6278 net.cpp:454] conv5_3_pool2_interp <- conv5_3_pool2_conv
I0620 16:07:20.525945  6278 net.cpp:411] conv5_3_pool2_interp -> conv5_3_pool2_interp
I0620 16:07:20.525981  6278 net.cpp:150] Setting up conv5_3_pool2_interp
I0620 16:07:20.525987  6278 net.cpp:157] Top shape: 1 512 60 60 (1843200)
I0620 16:07:20.525992  6278 net.cpp:165] Memory required for data: 4204237080
I0620 16:07:20.525996  6278 layer_factory.hpp:77] Creating layer conv5_3_pool3
I0620 16:07:20.526006  6278 net.cpp:106] Creating Layer conv5_3_pool3
I0620 16:07:20.526011  6278 net.cpp:454] conv5_3_pool3 <- conv5_3_conv5_3/relu_0_split_2
I0620 16:07:20.526017  6278 net.cpp:411] conv5_3_pool3 -> conv5_3_pool3
I0620 16:07:20.526046  6278 net.cpp:150] Setting up conv5_3_pool3
I0620 16:07:20.526052  6278 net.cpp:157] Top shape: 1 2048 3 3 (18432)
I0620 16:07:20.526057  6278 net.cpp:165] Memory required for data: 4204310808
I0620 16:07:20.526062  6278 layer_factory.hpp:77] Creating layer conv5_3_pool3_conv
I0620 16:07:20.526077  6278 net.cpp:106] Creating Layer conv5_3_pool3_conv
I0620 16:07:20.526082  6278 net.cpp:454] conv5_3_pool3_conv <- conv5_3_pool3
I0620 16:07:20.526090  6278 net.cpp:411] conv5_3_pool3_conv -> conv5_3_pool3_conv
I0620 16:07:20.549743  6278 net.cpp:150] Setting up conv5_3_pool3_conv
I0620 16:07:20.549767  6278 net.cpp:157] Top shape: 1 512 3 3 (4608)
I0620 16:07:20.549772  6278 net.cpp:165] Memory required for data: 4204329240
I0620 16:07:20.549782  6278 layer_factory.hpp:77] Creating layer conv5_3_pool3_conv/bn
I0620 16:07:20.549798  6278 net.cpp:106] Creating Layer conv5_3_pool3_conv/bn
I0620 16:07:20.549804  6278 net.cpp:454] conv5_3_pool3_conv/bn <- conv5_3_pool3_conv
I0620 16:07:20.549809  6278 net.cpp:397] conv5_3_pool3_conv/bn -> conv5_3_pool3_conv (in-place)
I0620 16:07:20.549996  6278 net.cpp:150] Setting up conv5_3_pool3_conv/bn
I0620 16:07:20.550000  6278 net.cpp:157] Top shape: 1 512 3 3 (4608)
I0620 16:07:20.550004  6278 net.cpp:165] Memory required for data: 4204347672
I0620 16:07:20.550009  6278 layer_factory.hpp:77] Creating layer conv5_3_pool3_conv/relu
I0620 16:07:20.550012  6278 net.cpp:106] Creating Layer conv5_3_pool3_conv/relu
I0620 16:07:20.550014  6278 net.cpp:454] conv5_3_pool3_conv/relu <- conv5_3_pool3_conv
I0620 16:07:20.550017  6278 net.cpp:397] conv5_3_pool3_conv/relu -> conv5_3_pool3_conv (in-place)
I0620 16:07:20.550021  6278 net.cpp:150] Setting up conv5_3_pool3_conv/relu
I0620 16:07:20.550024  6278 net.cpp:157] Top shape: 1 512 3 3 (4608)
I0620 16:07:20.550026  6278 net.cpp:165] Memory required for data: 4204366104
I0620 16:07:20.550046  6278 layer_factory.hpp:77] Creating layer conv5_3_pool3_interp
I0620 16:07:20.550050  6278 net.cpp:106] Creating Layer conv5_3_pool3_interp
I0620 16:07:20.550052  6278 net.cpp:454] conv5_3_pool3_interp <- conv5_3_pool3_conv
I0620 16:07:20.550056  6278 net.cpp:411] conv5_3_pool3_interp -> conv5_3_pool3_interp
I0620 16:07:20.550074  6278 net.cpp:150] Setting up conv5_3_pool3_interp
I0620 16:07:20.550077  6278 net.cpp:157] Top shape: 1 512 60 60 (1843200)
I0620 16:07:20.550079  6278 net.cpp:165] Memory required for data: 4211738904
I0620 16:07:20.550081  6278 layer_factory.hpp:77] Creating layer conv5_3_pool6
I0620 16:07:20.550086  6278 net.cpp:106] Creating Layer conv5_3_pool6
I0620 16:07:20.550088  6278 net.cpp:454] conv5_3_pool6 <- conv5_3_conv5_3/relu_0_split_3
I0620 16:07:20.550092  6278 net.cpp:411] conv5_3_pool6 -> conv5_3_pool6
I0620 16:07:20.550110  6278 net.cpp:150] Setting up conv5_3_pool6
I0620 16:07:20.550114  6278 net.cpp:157] Top shape: 1 2048 6 6 (73728)
I0620 16:07:20.550117  6278 net.cpp:165] Memory required for data: 4212033816
I0620 16:07:20.550118  6278 layer_factory.hpp:77] Creating layer conv5_3_pool6_conv
I0620 16:07:20.550127  6278 net.cpp:106] Creating Layer conv5_3_pool6_conv
I0620 16:07:20.550129  6278 net.cpp:454] conv5_3_pool6_conv <- conv5_3_pool6
I0620 16:07:20.550133  6278 net.cpp:411] conv5_3_pool6_conv -> conv5_3_pool6_conv
I0620 16:07:20.578001  6278 net.cpp:150] Setting up conv5_3_pool6_conv
I0620 16:07:20.578024  6278 net.cpp:157] Top shape: 1 512 6 6 (18432)
I0620 16:07:20.578027  6278 net.cpp:165] Memory required for data: 4212107544
I0620 16:07:20.578035  6278 layer_factory.hpp:77] Creating layer conv5_3_pool6_conv/bn
I0620 16:07:20.578047  6278 net.cpp:106] Creating Layer conv5_3_pool6_conv/bn
I0620 16:07:20.578052  6278 net.cpp:454] conv5_3_pool6_conv/bn <- conv5_3_pool6_conv
I0620 16:07:20.578058  6278 net.cpp:397] conv5_3_pool6_conv/bn -> conv5_3_pool6_conv (in-place)
I0620 16:07:20.578249  6278 net.cpp:150] Setting up conv5_3_pool6_conv/bn
I0620 16:07:20.578253  6278 net.cpp:157] Top shape: 1 512 6 6 (18432)
I0620 16:07:20.578256  6278 net.cpp:165] Memory required for data: 4212181272
I0620 16:07:20.578263  6278 layer_factory.hpp:77] Creating layer conv5_3_pool6_conv/relu
I0620 16:07:20.578268  6278 net.cpp:106] Creating Layer conv5_3_pool6_conv/relu
I0620 16:07:20.578270  6278 net.cpp:454] conv5_3_pool6_conv/relu <- conv5_3_pool6_conv
I0620 16:07:20.578279  6278 net.cpp:397] conv5_3_pool6_conv/relu -> conv5_3_pool6_conv (in-place)
I0620 16:07:20.578284  6278 net.cpp:150] Setting up conv5_3_pool6_conv/relu
I0620 16:07:20.578289  6278 net.cpp:157] Top shape: 1 512 6 6 (18432)
I0620 16:07:20.578290  6278 net.cpp:165] Memory required for data: 4212255000
I0620 16:07:20.578294  6278 layer_factory.hpp:77] Creating layer conv5_3_pool6_interp
I0620 16:07:20.578299  6278 net.cpp:106] Creating Layer conv5_3_pool6_interp
I0620 16:07:20.578301  6278 net.cpp:454] conv5_3_pool6_interp <- conv5_3_pool6_conv
I0620 16:07:20.578305  6278 net.cpp:411] conv5_3_pool6_interp -> conv5_3_pool6_interp
I0620 16:07:20.578323  6278 net.cpp:150] Setting up conv5_3_pool6_interp
I0620 16:07:20.578328  6278 net.cpp:157] Top shape: 1 512 60 60 (1843200)
I0620 16:07:20.578330  6278 net.cpp:165] Memory required for data: 4219627800
I0620 16:07:20.578333  6278 layer_factory.hpp:77] Creating layer conv5_3_concat
I0620 16:07:20.578338  6278 net.cpp:106] Creating Layer conv5_3_concat
I0620 16:07:20.578341  6278 net.cpp:454] conv5_3_concat <- conv5_3_conv5_3/relu_0_split_4
I0620 16:07:20.578346  6278 net.cpp:454] conv5_3_concat <- conv5_3_pool6_interp
I0620 16:07:20.578348  6278 net.cpp:454] conv5_3_concat <- conv5_3_pool3_interp
I0620 16:07:20.578352  6278 net.cpp:454] conv5_3_concat <- conv5_3_pool2_interp
I0620 16:07:20.578356  6278 net.cpp:454] conv5_3_concat <- conv5_3_pool1_interp
I0620 16:07:20.578361  6278 net.cpp:411] conv5_3_concat -> conv5_3_concat
I0620 16:07:20.578377  6278 net.cpp:150] Setting up conv5_3_concat
I0620 16:07:20.578382  6278 net.cpp:157] Top shape: 1 4096 60 60 (14745600)
I0620 16:07:20.578400  6278 net.cpp:165] Memory required for data: 4278610200
I0620 16:07:20.578403  6278 layer_factory.hpp:77] Creating layer conv5_4
I0620 16:07:20.578410  6278 net.cpp:106] Creating Layer conv5_4
I0620 16:07:20.578413  6278 net.cpp:454] conv5_4 <- conv5_3_concat
I0620 16:07:20.578418  6278 net.cpp:411] conv5_4 -> conv5_4
I0620 16:07:21.041724  6278 net.cpp:150] Setting up conv5_4
I0620 16:07:21.041785  6278 net.cpp:157] Top shape: 1 512 60 60 (1843200)
I0620 16:07:21.041790  6278 net.cpp:165] Memory required for data: 4285983000
I0620 16:07:21.041802  6278 layer_factory.hpp:77] Creating layer conv5_4/bn
I0620 16:07:21.041823  6278 net.cpp:106] Creating Layer conv5_4/bn
I0620 16:07:21.041832  6278 net.cpp:454] conv5_4/bn <- conv5_4
I0620 16:07:21.041846  6278 net.cpp:397] conv5_4/bn -> conv5_4 (in-place)
I0620 16:07:21.042120  6278 net.cpp:150] Setting up conv5_4/bn
I0620 16:07:21.042126  6278 net.cpp:157] Top shape: 1 512 60 60 (1843200)
I0620 16:07:21.042129  6278 net.cpp:165] Memory required for data: 4293355800
I0620 16:07:21.042135  6278 layer_factory.hpp:77] Creating layer conv5_4/relu
I0620 16:07:21.042145  6278 net.cpp:106] Creating Layer conv5_4/relu
I0620 16:07:21.042147  6278 net.cpp:454] conv5_4/relu <- conv5_4
I0620 16:07:21.042150  6278 net.cpp:397] conv5_4/relu -> conv5_4 (in-place)
I0620 16:07:21.042155  6278 net.cpp:150] Setting up conv5_4/relu
I0620 16:07:21.042161  6278 net.cpp:157] Top shape: 1 512 60 60 (1843200)
I0620 16:07:21.042166  6278 net.cpp:165] Memory required for data: 4300728600
I0620 16:07:21.042170  6278 layer_factory.hpp:77] Creating layer conv5_4/dropout
I0620 16:07:21.042189  6278 net.cpp:106] Creating Layer conv5_4/dropout
I0620 16:07:21.042192  6278 net.cpp:454] conv5_4/dropout <- conv5_4
I0620 16:07:21.042196  6278 net.cpp:397] conv5_4/dropout -> conv5_4 (in-place)
I0620 16:07:21.042237  6278 net.cpp:150] Setting up conv5_4/dropout
I0620 16:07:21.042243  6278 net.cpp:157] Top shape: 1 512 60 60 (1843200)
I0620 16:07:21.042245  6278 net.cpp:165] Memory required for data: 4308101400
I0620 16:07:21.042248  6278 layer_factory.hpp:77] Creating layer conv6
I0620 16:07:21.042261  6278 net.cpp:106] Creating Layer conv6
I0620 16:07:21.042263  6278 net.cpp:454] conv6 <- conv5_4
I0620 16:07:21.042266  6278 net.cpp:411] conv6 -> conv6
I0620 16:07:21.042860  6278 net.cpp:150] Setting up conv6
I0620 16:07:21.042871  6278 net.cpp:157] Top shape: 1 21 60 60 (75600)
I0620 16:07:21.042874  6278 net.cpp:165] Memory required for data: 4308403800
I0620 16:07:21.042881  6278 layer_factory.hpp:77] Creating layer conv6_interp
I0620 16:07:21.042889  6278 net.cpp:106] Creating Layer conv6_interp
I0620 16:07:21.042893  6278 net.cpp:454] conv6_interp <- conv6
I0620 16:07:21.042897  6278 net.cpp:411] conv6_interp -> conv6_interp
I0620 16:07:21.042922  6278 net.cpp:150] Setting up conv6_interp
I0620 16:07:21.042925  6278 net.cpp:157] Top shape: 1 21 473 473 (4698309)
I0620 16:07:21.042927  6278 net.cpp:165] Memory required for data: 4327197036
I0620 16:07:21.042929  6278 net.cpp:228] conv6_interp does not need backward computation.
I0620 16:07:21.042932  6278 net.cpp:228] conv6 does not need backward computation.
I0620 16:07:21.042935  6278 net.cpp:228] conv5_4/dropout does not need backward computation.
I0620 16:07:21.042938  6278 net.cpp:228] conv5_4/relu does not need backward computation.
…
