…
I0621 16:02:19.401253  5496 solver.cpp:81] Creating training net from train_net file: exper/voc12/config/pspnet_resnet101/train_train_aug.prototxt
I0621 16:02:19.408298  5496 net.cpp:49] Initializing net from parameters: 
name: "pspnet_resnet101"
state {
  phase: TRAIN
}
layer {
  name: "data"
  type: "ImageSegData"
  top: "data"
  top: "label"
  include {
    phase: TRAIN
  }
  transform_param {
    mirror: true
    crop_size: 473
    mean_value: 104.008
    mean_value: 116.669
    mean_value: 122.675
  }
  image_data_param {
    source: "exper/voc12/list/train_aug.txt"
    batch_size: 1
    shuffle: true
    root_folder: "exper/voc12/data"
    label_type: PIXEL
  }
}
layer {
  name: "conv1_1_3x3_s2"
  type: "Convolution"
  bottom: "data"
  top: "conv1_1_3x3_s2"
  param {
    lr_mult: 1
    decay_mult: 1
  }
  convolution_param {
    num_output: 64
    bias_term: false
    pad: 1
    kernel_size: 3
    stride: 2
    weight_filler {
      type: "msra"
    }
  }
}
layer {
  name: "conv1_1_3x3_s2/bn"
  type: "BN"
  bottom: "conv1_1_3x3_s2"
  top: "conv1_1_3x3_s2"
  param {
    lr_mult: 1
    decay_mult: 0
  }
  param {
    lr_mult: 1
    decay_mult: 0
  }
  param {
    lr_mult: 0
    decay_mult: 0
  }
  param {
    lr_mult: 0
    decay_mult: 0
  }
  bn_param {
    slope_filler {
      type: "constant"
      value: 1
    }
    bias_filler {
      type: "constant"
      value: 0
    }
    momentum: 0.95
    frozen: false
  }
}
layer {
  name: "conv1_1_3x3_s2/relu"
  type: "ReLU"
  bottom: "conv1_1_3x3_s2"
  top: "conv1_1_3x3_s2"
}
layer {
  name: "conv1_2_3x3"
  type: "Convolution"
  bottom: "conv1_1_3x3_s2"
  top: "conv1_2_3x3"
  param {
    lr_mult: 1
    decay_mult: 1
  }
  convolution_param {
    num_output: 64
    bias_term: false
    pad: 1
    kernel_size: 3
    stride: 1
    weight_filler {
      type: "msra"
    }
  }
}
layer {
  name: "conv1_2_3x3/bn"
  type: "BN"
  bottom: "conv1_2_3x3"
  top: "conv1_2_3x3"
  param {
    lr_mult: 1
    decay_mult: 0
  }
  param {
    lr_mult: 1
    decay_mult: 0
  }
  param {
    lr_mult: 0
    decay_mult: 0
  }
  param {
    lr_mult: 0
    decay_mult: 0
  }
  bn_param {
    slope_filler {
      type: "constant"
      value: 1
    }
    bias_filler {
      type: "constant"
      value: 0
    }
    momentum: 0.95
    frozen: true
  }
}
layer {
  name: "conv1_2_3x3/relu"
  type: "ReLU"
  bottom: "conv1_2_3x3"
  top: "conv1_2_3x3"
}
layer {
  name: "conv1_3_3x3"
  type: "Convolution"
  bottom: "conv1_2_3x3"
  top: "conv1_3_3x3"
  param {
    lr_mult: 1
    decay_mult: 1
  }
  convolution_param {
    num_output: 128
    bias_term: false
    pad: 1
    kernel_size: 3
    stride: 1
    weight_filler {
      type: "msra"
    }
  }
}
layer {
  name: "conv1_3_3x3/bn"
  type: "BN"
  bottom: "conv1_3_3x3"
  top: "conv1_3_3x3"
  param {
    lr_mult: 1
    decay_mult: 0
  }
  param {
    lr_mult: 1
    decay_mult: 0
  }
  param {
    lr_mult: 0
    decay_mult: 0
  }
  param {
    lr_mult: 0
    decay_mult: 0
  }
  bn_param {
    slope_filler {
      type: "constant"
      value: 1
    }
    bias_filler {
      type: "constant"
      value: 0
    }
    momentum: 0.95
    frozen: true
  }
}
layer {
  name: "conv1_3_3x3/relu"
  type: "ReLU"
  bottom: "conv1_3_3x3"
  top: "conv1_3_3x3"
}
layer {
  name: "pool1_3x3_s2"
  type: "Pooling"
  bottom: "conv1_3_3x3"
  top: "pool1_3x3_s2"
  pooling_param {
    pool: MAX
    kernel_size: 3
    stride: 2
    pad: 1
  }
}
layer {
  name: "conv2_1_1x1_reduce"
  type: "Convolution"
  bottom: "pool1_3x3_s2"
  top: "conv2_1_1x1_reduce"
  param {
    lr_mult: 1
    decay_mult: 1
  }
  convolution_param {
    num_output: 64
    bias_term: false
    pad: 0
    kernel_size: 1
    stride: 1
    weight_filler {
      type: "msra"
    }
  }
}
layer {
  name: "conv2_1_1x1_reduce/bn"
  type: "BN"
  bottom: "conv2_1_1x1_reduce"
  top: "conv2_1_1x1_reduce"
  param {
    lr_mult: 1
    decay_mult: 0
  }
  param {
    lr_mult: 1
    decay_mult: 0
  }
  param {
    lr_mult: 0
    decay_mult: 0
  }
  param {
    lr_mult: 0
    decay_mult: 0
  }
  bn_param {
    slope_filler {
      type: "constant"
      value: 1
    }
    bias_filler {
      type: "constant"
      value: 0
    }
    momentum: 0.95
    frozen: true
  }
}
layer {
  name: "conv2_1_1x1_reduce/relu"
  type: "ReLU"
  bottom: "conv2_1_1x1_reduce"
  top: "conv2_1_1x1_reduce"
}
layer {
  name: "conv2_1_3x3"
  type: "Convolution"
  bottom: "conv2_1_1x1_reduce"
  top: "conv2_1_3x3"
  param {
    lr_mult: 1
    decay_mult: 1
  }
  convolution_param {
    num_output: 64
    bias_term: false
    pad: 1
    kernel_size: 3
    stride: 1
    weight_filler {
      type: "msra"
    }
  }
}
layer {
  name: "conv2_1_3x3/bn"
  type: "BN"
  bottom: "conv2_1_3x3"
  top: "conv2_1_3x3"
  param {
    lr_mult: 1
    decay_mult: 0
  }
  param {
    lr_mult: 1
    decay_mult: 0
  }
  param {
    lr_mult: 0
    decay_mult: 0
  }
  param {
    lr_mult: 0
    decay_mult: 0
  }
  bn_param {
    slope_filler {
      type: "constant"
      value: 1
    }
    bias_filler {
      type: "constant"
      value: 0
    }
    momentum: 0.95
    frozen: true
  }
}
layer {
  name: "conv2_1_3x3/relu"
  type: "ReLU"
  bottom: "conv2_1_3x3"
  top: "conv2_1_3x3"
}
layer {
  name: "conv2_1_1x1_increase"
  type: "Convolution"
  bottom: "conv2_1_3x3"
  top: "conv2_1_1x1_increase"
  param {
    lr_mult: 1
    decay_mult: 1
  }
  convolution_param {
    num_output: 256
    bias_term: false
    pad: 0
    kernel_size: 1
    stride: 1
    weight_filler {
      type: "msra"
    }
  }
}
layer {
  name: "conv2_1_1x1_increase/bn"
  type: "BN"
  bottom: "conv2_1_1x1_increase"
  top: "conv2_1_1x1_increase"
  param {
    lr_mult: 1
    decay_mult: 0
  }
  param {
    lr_mult: 1
    decay_mult: 0
  }
  param {
    lr_mult: 0
    decay_mult: 0
  }
  param {
    lr_mult: 0
    decay_mult: 0
  }
  bn_param {
    slope_filler {
      type: "constant"
      value: 1
    }
    bias_filler {
      type: "constant"
      value: 0
    }
    momentum: 0.95
    frozen: true
  }
}
layer {
  name: "conv2_1_1x1_proj"
  type: "Convolution"
  bottom: "pool1_3x3_s2"
  top: "conv2_1_1x1_proj"
  param {
    lr_mult: 1
    decay_mult: 1
  }
  convolution_param {
    num_output: 256
    bias_term: false
    pad: 0
    kernel_size: 1
    stride: 1
    weight_filler {
      type: "msra"
    }
  }
}
layer {
  name: "conv2_1_1x1_proj/bn"
  type: "BN"
  bottom: "conv2_1_1x1_proj"
  top: "conv2_1_1x1_proj"
  param {
    lr_mult: 1
    decay_mult: 0
  }
  param {
    lr_mult: 1
    decay_mult: 0
  }
  param {
    lr_mult: 0
    decay_mult: 0
  }
  param {
    lr_mult: 0
    decay_mult: 0
  }
  bn_param {
    slope_filler {
      type: "constant"
      value: 1
    }
    bias_filler {
      type: "constant"
      value: 0
    }
    momentum: 0.95
    frozen: true
  }
}
layer {
  name: "conv2_1"
  type: "Eltwise"
  bottom: "conv2_1_1x1_proj"
  bottom: "conv2_1_1x1_increase"
  top: "conv2_1"
  eltwise_param {
    operation: SUM
  }
}
layer {
  name: "conv2_1/relu"
  type: "ReLU"
  bottom: "conv2_1"
  top: "conv2_1"
}
layer {
  name: "conv2_2_1x1_reduce"
  type: "Convolution"
  bottom: "conv2_1"
  top: "conv2_2_1x1_reduce"
  param {
    lr_mult: 1
    decay_mult: 1
  }
  convolution_param {
    num_output: 64
    bias_term: false
    pad: 0
    kernel_size: 1
    stride: 1
    weight_filler {
      type: "msra"
    }
  }
}
layer {
  name: "conv2_2_1x1_reduce/bn"
  type: "BN"
  bottom: "conv2_2_1x1_reduce"
  top: "conv2_2_1x1_reduce"
  param {
    lr_mult: 1
    decay_mult: 0
  }
  param {
    lr_mult: 1
    decay_mult: 0
  }
  param {
    lr_mult: 0
    decay_mult: 0
  }
  param {
    lr_mult: 0
    decay_mult: 0
  }
  bn_param {
    slope_filler {
      type: "constant"
      value: 1
    }
    bias_filler {
      type: "constant"
      value: 0
    }
    momentum: 0.95
    frozen: true
  }
}
layer {
  name: "conv2_2_1x1_reduce/relu"
  type: "ReLU"
  bottom: "conv2_2_1x1_reduce"
  top: "conv2_2_1x1_reduce"
}
layer {
  name: "conv2_2_3x3"
  type: "Convolution"
  bottom: "conv2_2_1x1_reduce"
  top: "conv2_2_3x3"
  param {
    lr_mult: 1
    decay_mult: 1
  }
  convolution_param {
    num_output: 64
    bias_term: false
    pad: 1
    kernel_size: 3
    stride: 1
    weight_filler {
      type: "msra"
    }
  }
}
layer {
  name: "conv2_2_3x3/bn"
  type: "BN"
  bottom: "conv2_2_3x3"
  top: "conv2_2_3x3"
  param {
    lr_mult: 1
    decay_mult: 0
  }
  param {
    lr_mult: 1
    decay_mult: 0
  }
  param {
    lr_mult: 0
    decay_mult: 0
  }
  param {
    lr_mult: 0
    decay_mult: 0
  }
  bn_param {
    slope_filler {
      type: "constant"
      value: 1
    }
    bias_filler {
      type: "constant"
      value: 0
    }
    momentum: 0.95
    frozen: true
  }
}
layer {
  name: "conv2_2_3x3/relu"
  type: "ReLU"
  bottom: "conv2_2_3x3"
  top: "conv2_2_3x3"
}
layer {
  name: "conv2_2_1x1_increase"
  type: "Convolution"
  bottom: "conv2_2_3x3"
  top: "conv2_2_1x1_increase"
  param {
    lr_mult: 1
    decay_mult: 1
  }
  convolution_param {
    num_output: 256
    bias_term: false
    pad: 0
    kernel_size: 1
    stride: 1
    weight_filler {
      type: "msra"
    }
  }
}
layer {
  name: "conv2_2_1x1_increase/bn"
  type: "BN"
  bottom: "conv2_2_1x1_increase"
  top: "conv2_2_1x1_increase"
  param {
    lr_mult: 1
    decay_mult: 0
  }
  param {
    lr_mult: 1
    decay_mult: 0
  }
  param {
    lr_mult: 0
    decay_mult: 0
  }
  param {
    lr_mult: 0
    decay_mult: 0
  }
  bn_param {
    slope_filler {
      type: "constant"
      value: 1
    }
    bias_filler {
      type: "constant"
      value: 0
    }
    momentum: 0.95
    frozen: true
  }
}
layer {
  name: "conv2_2"
  type: "Eltwise"
  bottom: "conv2_1"
  bottom: "conv2_2_1x1_increase"
  top: "conv2_2"
  eltwise_param {
    operation: SUM
  }
}
layer {
  name: "conv2_2/relu"
  type: "ReLU"
  bottom: "conv2_2"
  top: "conv2_2"
}
layer {
  name: "conv2_3_1x1_reduce"
  type: "Convolution"
  bottom: "conv2_2"
  top: "conv2_3_1x1_reduce"
  param {
    lr_mult: 1
    decay_mult: 1
  }
  convolution_param {
    num_output: 64
    bias_term: false
    pad: 0
    kernel_size: 1
    stride: 1
    weight_filler {
      type: "msra"
    }
  }
}
layer {
  name: "conv2_3_1x1_reduce/bn"
  type: "BN"
  bottom: "conv2_3_1x1_reduce"
  top: "conv2_3_1x1_reduce"
  param {
    lr_mult: 1
    decay_mult: 0
  }
  param {
    lr_mult: 1
    decay_mult: 0
  }
  param {
    lr_mult: 0
    decay_mult: 0
  }
  param {
    lr_mult: 0
    decay_mult: 0
  }
  bn_param {
    slope_filler {
      type: "constant"
      value: 1
    }
    bias_filler {
      type: "constant"
      value: 0
    }
    momentum: 0.95
    frozen: true
  }
}
layer {
  name: "conv2_3_1x1_reduce/relu"
  type: "ReLU"
  bottom: "conv2_3_1x1_reduce"
  top: "conv2_3_1x1_reduce"
}
layer {
  name: "conv2_3_3x3"
  type: "Convolution"
  bottom: "conv2_3_1x1_reduce"
  top: "conv2_3_3x3"
  param {
    lr_mult: 1
    decay_mult: 1
  }
  convolution_param {
    num_output: 64
    bias_term: false
    pad: 1
    kernel_size: 3
    stride: 1
    weight_filler {
      type: "msra"
    }
  }
}
layer {
  name: "conv2_3_3x3/bn"
  type: "BN"
  bottom: "conv2_3_3x3"
  top: "conv2_3_3x3"
  param {
    lr_mult: 1
    decay_mult: 0
  }
  param {
    lr_mult: 1
    decay_mult: 0
  }
  param {
    lr_mult: 0
    decay_mult: 0
  }
  param {
    lr_mult: 0
    decay_mult: 0
  }
  bn_param {
    slope_filler {
      type: "constant"
      value: 1
    }
    bias_filler {
      type: "constant"
      value: 0
    }
    momentum: 0.95
    frozen: true
  }
}
layer {
  name: "conv2_3_3x3/relu"
  type: "ReLU"
  bottom: "conv2_3_3x3"
  top: "conv2_3_3x3"
}
layer {
  name: "conv2_3_1x1_increase"
  type: "Convolution"
  bottom: "conv2_3_3x3"
  top: "conv2_3_1x1_increase"
  param {
    lr_mult: 1
    decay_mult: 1
  }
  convolution_param {
    num_output: 256
    bias_term: false
    pad: 0
    kernel_size: 1
    stride: 1
    weight_filler {
      type: "msra"
    }
  }
}
layer {
  name: "conv2_3_1x1_increase/bn"
  type: "BN"
  bottom: "conv2_3_1x1_increase"
  top: "conv2_3_1x1_increase"
  param {
    lr_mult: 1
    decay_mult: 0
  }
  param {
    lr_mult: 1
    decay_mult: 0
  }
  param {
    lr_mult: 0
    decay_mult: 0
  }
  param {
    lr_mult: 0
    decay_mult: 0
  }
  bn_param {
    slope_filler {
      type: "constant"
      value: 1
    }
    bias_filler {
      type: "constant"
      value: 0
    }
    momentum: 0.95
    frozen: true
  }
}
layer {
  name: "conv2_3"
  type: "Eltwise"
  bottom: "conv2_2"
  bottom: "conv2_3_1x1_increase"
  top: "conv2_3"
  eltwise_param {
    operation: SUM
  }
}
layer {
  name: "conv2_3/relu"
  type: "ReLU"
  bottom: "conv2_3"
  top: "conv2_3"
}
layer {
  name: "conv3_1_1x1_reduce"
  type: "Convolution"
  bottom: "conv2_3"
  top: "conv3_1_1x1_reduce"
  param {
    lr_mult: 1
    decay_mult: 1
  }
  convolution_param {
    num_output: 128
    bias_term: false
    pad: 0
    kernel_size: 1
    stride: 1
    weight_filler {
      type: "msra"
    }
  }
}
layer {
  name: "conv3_1_1x1_reduce/bn"
  type: "BN"
  bottom: "conv3_1_1x1_reduce"
  top: "conv3_1_1x1_reduce"
  param {
    lr_mult: 1
    decay_mult: 0
  }
  param {
    lr_mult: 1
    decay_mult: 0
  }
  param {
    lr_mult: 0
    decay_mult: 0
  }
  param {
    lr_mult: 0
    decay_mult: 0
  }
  bn_param {
    slope_filler {
      type: "constant"
      value: 1
    }
    bias_filler {
      type: "constant"
      value: 0
    }
    momentum: 0.95
    frozen: true
  }
}
layer {
  name: "conv3_1_1x1_reduce/relu"
  type: "ReLU"
  bottom: "conv3_1_1x1_reduce"
  top: "conv3_1_1x1_reduce"
}
layer {
  name: "conv3_1_3x3"
  type: "Convolution"
  bottom: "conv3_1_1x1_reduce"
  top: "conv3_1_3x3"
  param {
    lr_mult: 1
    decay_mult: 1
  }
  convolution_param {
    num_output: 128
    bias_term: false
    pad: 1
    kernel_size: 3
    stride: 2
    weight_filler {
      type: "msra"
    }
  }
}
layer {
  name: "conv3_1_3x3/bn"
  type: "BN"
  bottom: "conv3_1_3x3"
  top: "conv3_1_3x3"
  param {
    lr_mult: 1
    decay_mult: 0
  }
  param {
    lr_mult: 1
    decay_mult: 0
  }
  param {
    lr_mult: 0
    decay_mult: 0
  }
  param {
    lr_mult: 0
    decay_mult: 0
  }
  bn_param {
    slope_filler {
      type: "constant"
      value: 1
    }
    bias_filler {
      type: "constant"
      value: 0
    }
    momentum: 0.95
    frozen: true
  }
}
layer {
  name: "conv3_1_3x3/relu"
  type: "ReLU"
  bottom: "conv3_1_3x3"
  top: "conv3_1_3x3"
}
layer {
  name: "conv3_1_1x1_increase"
  type: "Convolution"
  bottom: "conv3_1_3x3"
  top: "conv3_1_1x1_increase"
  param {
    lr_mult: 1
    decay_mult: 1
  }
  convolution_param {
    num_output: 512
    bias_term: false
    pad: 0
    kernel_size: 1
    stride: 1
    weight_filler {
      type: "msra"
    }
  }
}
layer {
  name: "conv3_1_1x1_increase/bn"
  type: "BN"
  bottom: "conv3_1_1x1_increase"
  top: "conv3_1_1x1_increase"
  param {
    lr_mult: 1
    decay_mult: 0
  }
  param {
    lr_mult: 1
    decay_mult: 0
  }
  param {
    lr_mult: 0
    decay_mult: 0
  }
  param {
    lr_mult: 0
    decay_mult: 0
  }
  bn_param {
    slope_filler {
      type: "constant"
      value: 1
    }
    bias_filler {
      type: "constant"
      value: 0
    }
    momentum: 0.95
    frozen: true
  }
}
layer {
  name: "conv3_1_1x1_proj"
  type: "Convolution"
  bottom: "conv2_3"
  top: "conv3_1_1x1_proj"
  param {
    lr_mult: 1
    decay_mult: 1
  }
  convolution_param {
    num_output: 512
    bias_term: false
    pad: 0
    kernel_size: 1
    stride: 2
    weight_filler {
      type: "msra"
    }
  }
}
layer {
  name: "conv3_1_1x1_proj/bn"
  type: "BN"
  bottom: "conv3_1_1x1_proj"
  top: "conv3_1_1x1_proj"
  param {
    lr_mult: 1
    decay_mult: 0
  }
  param {
    lr_mult: 1
    decay_mult: 0
  }
  param {
    lr_mult: 0
    decay_mult: 0
  }
  param {
    lr_mult: 0
    decay_mult: 0
  }
  bn_param {
    slope_filler {
      type: "constant"
      value: 1
    }
    bias_filler {
      type: "constant"
      value: 0
    }
    momentum: 0.95
    frozen: true
  }
}
layer {
  name: "conv3_1"
  type: "Eltwise"
  bottom: "conv3_1_1x1_proj"
  bottom: "conv3_1_1x1_increase"
  top: "conv3_1"
  eltwise_param {
    operation: SUM
  }
}
layer {
  name: "conv3_1/relu"
  type: "ReLU"
  bottom: "conv3_1"
  top: "conv3_1"
}
layer {
  name: "conv3_2_1x1_reduce"
  type: "Convolution"
  bottom: "conv3_1"
  top: "conv3_2_1x1_reduce"
  param {
    lr_mult: 1
    decay_mult: 1
  }
  convolution_param {
    num_output: 128
    bias_term: false
    pad: 0
    kernel_size: 1
    stride: 1
    weight_filler {
      type: "msra"
    }
  }
}
layer {
  name: "conv3_2_1x1_reduce/bn"
  type: "BN"
  bottom: "conv3_2_1x1_reduce"
  top: "conv3_2_1x1_reduce"
  param {
    lr_mult: 1
    decay_mult: 0
  }
  param {
    lr_mult: 1
    decay_mult: 0
  }
  param {
    lr_mult: 0
    decay_mult: 0
  }
  param {
    lr_mult: 0
    decay_mult: 0
  }
  bn_param {
    slope_filler {
      type: "constant"
      value: 1
    }
    bias_filler {
      type: "constant"
      value: 0
    }
    momentum: 0.95
    frozen: true
  }
}
layer {
  name: "conv3_2_1x1_reduce/relu"
  type: "ReLU"
  bottom: "conv3_2_1x1_reduce"
  top: "conv3_2_1x1_reduce"
}
layer {
  name: "conv3_2_3x3"
  type: "Convolution"
  bottom: "conv3_2_1x1_reduce"
  top: "conv3_2_3x3"
  param {
    lr_mult: 1
    decay_mult: 1
  }
  convolution_param {
    num_output: 128
    bias_term: false
    pad: 1
    kernel_size: 3
    stride: 1
    weight_filler {
      type: "msra"
    }
  }
}
layer {
  name: "conv3_2_3x3/bn"
  type: "BN"
  bottom: "conv3_2_3x3"
  top: "conv3_2_3x3"
  param {
    lr_mult: 1
    decay_mult: 0
  }
  param {
    lr_mult: 1
    decay_mult: 0
  }
  param {
    lr_mult: 0
    decay_mult: 0
  }
  param {
    lr_mult: 0
    decay_mult: 0
  }
  bn_param {
    slope_filler {
      type: "constant"
      value: 1
    }
    bias_filler {
      type: "constant"
      value: 0
    }
    momentum: 0.95
    frozen: true
  }
}
layer {
  name: "conv3_2_3x3/relu"
  type: "ReLU"
  bottom: "conv3_2_3x3"
  top: "conv3_2_3x3"
}
layer {
  name: "conv3_2_1x1_increase"
  type: "Convolution"
  bottom: "conv3_2_3x3"
  top: "conv3_2_1x1_increase"
  param {
    lr_mult: 1
    decay_mult: 1
  }
  convolution_param {
    num_output: 512
    bias_term: false
    pad: 0
    kernel_size: 1
    stride: 1
    weight_filler {
      type: "msra"
    }
  }
}
layer {
  name: "conv3_2_1x1_increase/bn"
  type: "BN"
  bottom: "conv3_2_1x1_increase"
  top: "conv3_2_1x1_increase"
  param {
    lr_mult: 1
    decay_mult: 0
  }
  param {
    lr_mult: 1
    decay_mult: 0
  }
  param {
    lr_mult: 0
    decay_mult: 0
  }
  param {
    lr_mult: 0
    decay_mult: 0
  }
  bn_param {
    slope_filler {
      type: "constant"
      value: 1
    }
    bias_filler {
      type: "constant"
      value: 0
    }
    momentum: 0.95
    frozen: true
  }
}
layer {
  name: "conv3_2"
  type: "Eltwise"
  bottom: "conv3_1"
  bottom: "conv3_2_1x1_increase"
  top: "conv3_2"
  eltwise_param {
    operation: SUM
  }
}
layer {
  name: "conv3_2/relu"
  type: "ReLU"
  bottom: "conv3_2"
  top: "conv3_2"
}
layer {
  name: "conv3_3_1x1_reduce"
  type: "Convolution"
  bottom: "conv3_2"
  top: "conv3_3_1x1_reduce"
  param {
    lr_mult: 1
    decay_mult: 1
  }
  convolution_param {
    num_output: 128
    bias_term: false
    pad: 0
    kernel_size: 1
    stride: 1
    weight_filler {
      type: "msra"
    }
  }
}
layer {
  name: "conv3_3_1x1_reduce/bn"
  type: "BN"
  bottom: "conv3_3_1x1_reduce"
  top: "conv3_3_1x1_reduce"
  param {
    lr_mult: 1
    decay_mult: 0
  }
  param {
    lr_mult: 1
    decay_mult: 0
  }
  param {
    lr_mult: 0
    decay_mult: 0
  }
  param {
    lr_mult: 0
    decay_mult: 0
  }
  bn_param {
    slope_filler {
      type: "constant"
      value: 1
    }
    bias_filler {
      type: "constant"
      value: 0
    }
    momentum: 0.95
    frozen: true
  }
}
layer {
  name: "conv3_3_1x1_reduce/relu"
  type: "ReLU"
  bottom: "conv3_3_1x1_reduce"
  top: "conv3_3_1x1_reduce"
}
layer {
  name: "conv3_3_3x3"
  type: "Convolution"
  bottom: "conv3_3_1x1_reduce"
  top: "conv3_3_3x3"
  param {
    lr_mult: 1
    decay_mult: 1
  }
  convolution_param {
    num_output: 128
    bias_term: false
    pad: 1
    kernel_size: 3
    stride: 1
    weight_filler {
      type: "msra"
    }
  }
}
layer {
  name: "conv3_3_3x3/bn"
  type: "BN"
  bottom: "conv3_3_3x3"
  top: "conv3_3_3x3"
  param {
    lr_mult: 1
    decay_mult: 0
  }
  param {
    lr_mult: 1
    decay_mult: 0
  }
  param {
    lr_mult: 0
    decay_mult: 0
  }
  param {
    lr_mult: 0
    decay_mult: 0
  }
  bn_param {
    slope_filler {
      type: "constant"
      value: 1
    }
    bias_filler {
      type: "constant"
      value: 0
    }
    momentum: 0.95
    frozen: true
  }
}
layer {
  name: "conv3_3_3x3/relu"
  type: "ReLU"
  bottom: "conv3_3_3x3"
  top: "conv3_3_3x3"
}
layer {
  name: "conv3_3_1x1_increase"
  type: "Convolution"
  bottom: "conv3_3_3x3"
  top: "conv3_3_1x1_increase"
  param {
    lr_mult: 1
    decay_mult: 1
  }
  convolution_param {
    num_output: 512
    bias_term: false
    pad: 0
    kernel_size: 1
    stride: 1
    weight_filler {
      type: "msra"
    }
  }
}
layer {
  name: "conv3_3_1x1_increase/bn"
  type: "BN"
  bottom: "conv3_3_1x1_increase"
  top: "conv3_3_1x1_increase"
  param {
    lr_mult: 1
    decay_mult: 0
  }
  param {
    lr_mult: 1
    decay_mult: 0
  }
  param {
    lr_mult: 0
    decay_mult: 0
  }
  param {
    lr_mult: 0
    decay_mult: 0
  }
  bn_param {
    slope_filler {
      type: "constant"
      value: 1
    }
    bias_filler {
      type: "constant"
      value: 0
    }
    momentum: 0.95
    frozen: true
  }
}
layer {
  name: "conv3_3"
  type: "Eltwise"
  bottom: "conv3_2"
  bottom: "conv3_3_1x1_increase"
  top: "conv3_3"
  eltwise_param {
    operation: SUM
  }
}
layer {
  name: "conv3_3/relu"
  type: "ReLU"
  bottom: "conv3_3"
  top: "conv3_3"
}
layer {
  name: "conv3_4_1x1_reduce"
  type: "Convolution"
  bottom: "conv3_3"
  top: "conv3_4_1x1_reduce"
  param {
    lr_mult: 1
    decay_mult: 1
  }
  convolution_param {
    num_output: 128
    bias_term: false
    pad: 0
    kernel_size: 1
    stride: 1
    weight_filler {
      type: "msra"
    }
  }
}
layer {
  name: "conv3_4_1x1_reduce/bn"
  type: "BN"
  bottom: "conv3_4_1x1_reduce"
  top: "conv3_4_1x1_reduce"
  param {
    lr_mult: 1
    decay_mult: 0
  }
  param {
    lr_mult: 1
    decay_mult: 0
  }
  param {
    lr_mult: 0
    decay_mult: 0
  }
  param {
    lr_mult: 0
    decay_mult: 0
  }
  bn_param {
    slope_filler {
      type: "constant"
      value: 1
    }
    bias_filler {
      type: "constant"
      value: 0
    }
    momentum: 0.95
    frozen: true
  }
}
layer {
  name: "conv3_4_1x1_reduce/relu"
  type: "ReLU"
  bottom: "conv3_4_1x1_reduce"
  top: "conv3_4_1x1_reduce"
}
layer {
  name: "conv3_4_3x3"
  type: "Convolution"
  bottom: "conv3_4_1x1_reduce"
  top: "conv3_4_3x3"
  param {
    lr_mult: 1
    decay_mult: 1
  }
  convolution_param {
    num_output: 128
    bias_term: false
    pad: 1
    kernel_size: 3
    stride: 1
    weight_filler {
      type: "msra"
    }
  }
}
layer {
  name: "conv3_4_3x3/bn"
  type: "BN"
  bottom: "conv3_4_3x3"
  top: "conv3_4_3x3"
  param {
    lr_mult: 1
    decay_mult: 0
  }
  param {
    lr_mult: 1
    decay_mult: 0
  }
  param {
    lr_mult: 0
    decay_mult: 0
  }
  param {
    lr_mult: 0
    decay_mult: 0
  }
  bn_param {
    slope_filler {
      type: "constant"
      value: 1
    }
    bias_filler {
      type: "constant"
      value: 0
    }
    momentum: 0.95
    frozen: true
  }
}
layer {
  name: "conv3_4_3x3/relu"
  type: "ReLU"
  bottom: "conv3_4_3x3"
  top: "conv3_4_3x3"
}
layer {
  name: "conv3_4_1x1_increase"
  type: "Convolution"
  bottom: "conv3_4_3x3"
  top: "conv3_4_1x1_increase"
  param {
    lr_mult: 1
    decay_mult: 1
  }
  convolution_param {
    num_output: 512
    bias_term: false
    pad: 0
    kernel_size: 1
    stride: 1
    weight_filler {
      type: "msra"
    }
  }
}
layer {
  name: "conv3_4_1x1_increase/bn"
  type: "BN"
  bottom: "conv3_4_1x1_increase"
  top: "conv3_4_1x1_increase"
  param {
    lr_mult: 1
    decay_mult: 0
  }
  param {
    lr_mult: 1
    decay_mult: 0
  }
  param {
    lr_mult: 0
    decay_mult: 0
  }
  param {
    lr_mult: 0
    decay_mult: 0
  }
  bn_param {
    slope_filler {
      type: "constant"
      value: 1
    }
    bias_filler {
      type: "constant"
      value: 0
    }
    momentum: 0.95
    frozen: true
  }
}
layer {
  name: "conv3_4"
  type: "Eltwise"
  bottom: "conv3_3"
  bottom: "conv3_4_1x1_increase"
  top: "conv3_4"
  eltwise_param {
    operation: SUM
  }
}
layer {
  name: "conv3_4/relu"
  type: "ReLU"
  bottom: "conv3_4"
  top: "conv3_4"
}
layer {
  name: "conv4_1_1x1_reduce"
  type: "Convolution"
  bottom: "conv3_4"
  top: "conv4_1_1x1_reduce"
  param {
    lr_mult: 1
    decay_mult: 1
  }
  convolution_param {
    num_output: 256
    bias_term: false
    pad: 0
    kernel_size: 1
    stride: 1
    weight_filler {
      type: "msra"
    }
  }
}
layer {
  name: "conv4_1_1x1_reduce/bn"
  type: "BN"
  bottom: "conv4_1_1x1_reduce"
  top: "conv4_1_1x1_reduce"
  param {
    lr_mult: 1
    decay_mult: 0
  }
  param {
    lr_mult: 1
    decay_mult: 0
  }
  param {
    lr_mult: 0
    decay_mult: 0
  }
  param {
    lr_mult: 0
    decay_mult: 0
  }
  bn_param {
    slope_filler {
      type: "constant"
      value: 1
    }
    bias_filler {
      type: "constant"
      value: 0
    }
    momentum: 0.95
    frozen: true
  }
}
layer {
  name: "conv4_1_1x1_reduce/relu"
  type: "ReLU"
  bottom: "conv4_1_1x1_reduce"
  top: "conv4_1_1x1_reduce"
}
layer {
  name: "conv4_1_3x3"
  type: "Convolution"
  bottom: "conv4_1_1x1_reduce"
  top: "conv4_1_3x3"
  param {
    lr_mult: 1
    decay_mult: 1
  }
  convolution_param {
    num_output: 256
    bias_term: false
    pad: 2
    kernel_size: 3
    stride: 1
    weight_filler {
      type: "msra"
    }
    dilation: 2
  }
}
layer {
  name: "conv4_1_3x3/bn"
  type: "BN"
  bottom: "conv4_1_3x3"
  top: "conv4_1_3x3"
  param {
    lr_mult: 1
    decay_mult: 0
  }
  param {
    lr_mult: 1
    decay_mult: 0
  }
  param {
    lr_mult: 0
    decay_mult: 0
  }
  param {
    lr_mult: 0
    decay_mult: 0
  }
  bn_param {
    slope_filler {
      type: "constant"
      value: 1
    }
    bias_filler {
      type: "constant"
      value: 0
    }
    momentum: 0.95
    frozen: true
  }
}
layer {
  name: "conv4_1_3x3/relu"
  type: "ReLU"
  bottom: "conv4_1_3x3"
  top: "conv4_1_3x3"
}
layer {
  name: "conv4_1_1x1_increase"
  type: "Convolution"
  bottom: "conv4_1_3x3"
  top: "conv4_1_1x1_increase"
  param {
    lr_mult: 1
    decay_mult: 1
  }
  convolution_param {
    num_output: 1024
    bias_term: false
    pad: 0
    kernel_size: 1
    stride: 1
    weight_filler {
      type: "msra"
    }
  }
}
layer {
  name: "conv4_1_1x1_increase/bn"
  type: "BN"
  bottom: "conv4_1_1x1_increase"
  top: "conv4_1_1x1_increase"
  param {
    lr_mult: 1
    decay_mult: 0
  }
  param {
    lr_mult: 1
    decay_mult: 0
  }
  param {
    lr_mult: 0
    decay_mult: 0
  }
  param {
    lr_mult: 0
    decay_mult: 0
  }
  bn_param {
    slope_filler {
      type: "constant"
      value: 1
    }
    bias_filler {
      type: "constant"
      value: 0
    }
    momentum: 0.95
    frozen: true
  }
}
layer {
  name: "conv4_1_1x1_proj"
  type: "Convolution"
  bottom: "conv3_4"
  top: "conv4_1_1x1_proj"
  param {
    lr_mult: 1
    decay_mult: 1
  }
  convolution_param {
    num_output: 1024
    bias_term: false
    pad: 0
    kernel_size: 1
    stride: 1
    weight_filler {
      type: "msra"
    }
  }
}
layer {
  name: "conv4_1_1x1_proj/bn"
  type: "BN"
  bottom: "conv4_1_1x1_proj"
  top: "conv4_1_1x1_proj"
  param {
    lr_mult: 1
    decay_mult: 0
  }
  param {
    lr_mult: 1
    decay_mult: 0
  }
  param {
    lr_mult: 0
    decay_mult: 0
  }
  param {
    lr_mult: 0
    decay_mult: 0
  }
  bn_param {
    slope_filler {
      type: "constant"
      value: 1
    }
    bias_filler {
      type: "constant"
      value: 0
    }
    momentum: 0.95
    frozen: true
  }
}
layer {
  name: "conv4_1"
  type: "Eltwise"
  bottom: "conv4_1_1x1_proj"
  bottom: "conv4_1_1x1_increase"
  top: "conv4_1"
  eltwise_param {
    operation: SUM
  }
}
layer {
  name: "conv4_1/relu"
  type: "ReLU"
  bottom: "conv4_1"
  top: "conv4_1"
}
layer {
  name: "conv4_2_1x1_reduce"
  type: "Convolution"
  bottom: "conv4_1"
  top: "conv4_2_1x1_reduce"
  param {
    lr_mult: 1
    decay_mult: 1
  }
  convolution_param {
    num_output: 256
    bias_term: false
    pad: 0
    kernel_size: 1
    stride: 1
    weight_filler {
      type: "msra"
    }
  }
}
layer {
  name: "conv4_2_1x1_reduce/bn"
  type: "BN"
  bottom: "conv4_2_1x1_reduce"
  top: "conv4_2_1x1_reduce"
  param {
    lr_mult: 1
    decay_mult: 0
  }
  param {
    lr_mult: 1
    decay_mult: 0
  }
  param {
    lr_mult: 0
    decay_mult: 0
  }
  param {
    lr_mult: 0
    decay_mult: 0
  }
  bn_param {
    slope_filler {
      type: "constant"
      value: 1
    }
    bias_filler {
      type: "constant"
      value: 0
    }
    momentum: 0.95
    frozen: true
  }
}
layer {
  name: "conv4_2_1x1_reduce/relu"
  type: "ReLU"
  bottom: "conv4_2_1x1_reduce"
  top: "conv4_2_1x1_reduce"
}
layer {
  name: "conv4_2_3x3"
  type: "Convolution"
  bottom: "conv4_2_1x1_reduce"
  top: "conv4_2_3x3"
  param {
    lr_mult: 1
    decay_mult: 1
  }
  convolution_param {
    num_output: 256
    bias_term: false
    pad: 2
    kernel_size: 3
    stride: 1
    weight_filler {
      type: "msra"
    }
    dilation: 2
  }
}
layer {
  name: "conv4_2_3x3/bn"
  type: "BN"
  bottom: "conv4_2_3x3"
  top: "conv4_2_3x3"
  param {
    lr_mult: 1
    decay_mult: 0
  }
  param {
    lr_mult: 1
    decay_mult: 0
  }
  param {
    lr_mult: 0
    decay_mult: 0
  }
  param {
    lr_mult: 0
    decay_mult: 0
  }
  bn_param {
    slope_filler {
      type: "constant"
      value: 1
    }
    bias_filler {
      type: "constant"
      value: 0
    }
    momentum: 0.95
    frozen: true
  }
}
layer {
  name: "conv4_2
I0621 16:02:19.412997  5496 layer_factory.hpp:77] Creating layer data
I0621 16:02:19.413050  5496 net.cpp:106] Creating Layer data
I0621 16:02:19.413058  5496 net.cpp:411] data -> data
I0621 16:02:19.413090  5496 net.cpp:411] data -> label
I0621 16:02:19.413101  5496 net.cpp:411] data -> (automatic)
I0621 16:02:19.413439  5496 image_seg_data_layer.cpp:46] Opening file exper/voc12/list/train_aug.txt
I0621 16:02:19.420483  5496 image_seg_data_layer.cpp:63] Shuffling data
I0621 16:02:19.421489  5496 image_seg_data_layer.cpp:68] A total of 10582 images.
I0621 16:02:19.448215  5496 image_seg_data_layer.cpp:137] output data size: 1,3,473,473
I0621 16:02:19.448233  5496 image_seg_data_layer.cpp:141] output label size: 1,1,473,473
I0621 16:02:19.448235  5496 image_seg_data_layer.cpp:145] output data_dim size: 1,1,1,2
I0621 16:02:19.464473  5496 net.cpp:150] Setting up data
I0621 16:02:19.464541  5496 net.cpp:157] Top shape: 1 3 473 473 (671187)
I0621 16:02:19.464550  5496 net.cpp:157] Top shape: 1 1 473 473 (223729)
I0621 16:02:19.464555  5496 net.cpp:157] Top shape: 1 1 1 2 (2)
I0621 16:02:19.464560  5496 net.cpp:165] Memory required for data: 3579672
I0621 16:02:19.464577  5496 layer_factory.hpp:77] Creating layer conv1_1_3x3_s2
I0621 16:02:19.464618  5496 net.cpp:106] Creating Layer conv1_1_3x3_s2
I0621 16:02:19.464625  5496 net.cpp:454] conv1_1_3x3_s2 <- data
I0621 16:02:19.464638  5496 net.cpp:411] conv1_1_3x3_s2 -> conv1_1_3x3_s2
I0621 16:02:19.465704  5496 net.cpp:150] Setting up conv1_1_3x3_s2
I0621 16:02:19.465723  5496 net.cpp:157] Top shape: 1 64 237 237 (3594816)
I0621 16:02:19.465728  5496 net.cpp:165] Memory required for data: 17958936
I0621 16:02:19.465740  5496 layer_factory.hpp:77] Creating layer conv1_1_3x3_s2/bn
I0621 16:02:19.465752  5496 net.cpp:106] Creating Layer conv1_1_3x3_s2/bn
I0621 16:02:19.465756  5496 net.cpp:454] conv1_1_3x3_s2/bn <- conv1_1_3x3_s2
I0621 16:02:19.465761  5496 net.cpp:397] conv1_1_3x3_s2/bn -> conv1_1_3x3_s2 (in-place)
I0621 16:02:19.467988  5496 net.cpp:150] Setting up conv1_1_3x3_s2/bn
I0621 16:02:19.468006  5496 net.cpp:157] Top shape: 1 64 237 237 (3594816)
I0621 16:02:19.468009  5496 net.cpp:165] Memory required for data: 32338200
I0621 16:02:19.468039  5496 layer_factory.hpp:77] Creating layer conv1_1_3x3_s2/relu
I0621 16:02:19.468046  5496 net.cpp:106] Creating Layer conv1_1_3x3_s2/relu
I0621 16:02:19.468050  5496 net.cpp:454] conv1_1_3x3_s2/relu <- conv1_1_3x3_s2
I0621 16:02:19.468055  5496 net.cpp:397] conv1_1_3x3_s2/relu -> conv1_1_3x3_s2 (in-place)
I0621 16:02:19.468061  5496 net.cpp:150] Setting up conv1_1_3x3_s2/relu
I0621 16:02:19.468065  5496 net.cpp:157] Top shape: 1 64 237 237 (3594816)
I0621 16:02:19.468067  5496 net.cpp:165] Memory required for data: 46717464
I0621 16:02:19.468072  5496 layer_factory.hpp:77] Creating layer conv1_2_3x3
I0621 16:02:19.468081  5496 net.cpp:106] Creating Layer conv1_2_3x3
I0621 16:02:19.468083  5496 net.cpp:454] conv1_2_3x3 <- conv1_1_3x3_s2
I0621 16:02:19.468088  5496 net.cpp:411] conv1_2_3x3 -> conv1_2_3x3
I0621 16:02:19.468974  5496 net.cpp:150] Setting up conv1_2_3x3
I0621 16:02:19.468981  5496 net.cpp:157] Top shape: 1 64 237 237 (3594816)
I0621 16:02:19.468982  5496 net.cpp:165] Memory required for data: 61096728
I0621 16:02:19.468986  5496 layer_factory.hpp:77] Creating layer conv1_2_3x3/bn
I0621 16:02:19.468991  5496 net.cpp:106] Creating Layer conv1_2_3x3/bn
I0621 16:02:19.468994  5496 net.cpp:454] conv1_2_3x3/bn <- conv1_2_3x3
I0621 16:02:19.468997  5496 net.cpp:397] conv1_2_3x3/bn -> conv1_2_3x3 (in-place)
I0621 16:02:19.469143  5496 net.cpp:150] Setting up conv1_2_3x3/bn
I0621 16:02:19.469146  5496 net.cpp:157] Top shape: 1 64 237 237 (3594816)
I0621 16:02:19.469148  5496 net.cpp:165] Memory required for data: 75475992
I0621 16:02:19.469156  5496 layer_factory.hpp:77] Creating layer conv1_2_3x3/relu
I0621 16:02:19.469159  5496 net.cpp:106] Creating Layer conv1_2_3x3/relu
I0621 16:02:19.469161  5496 net.cpp:454] conv1_2_3x3/relu <- conv1_2_3x3
I0621 16:02:19.469164  5496 net.cpp:397] conv1_2_3x3/relu -> conv1_2_3x3 (in-place)
I0621 16:02:19.469167  5496 net.cpp:150] Setting up conv1_2_3x3/relu
I0621 16:02:19.469169  5496 net.cpp:157] Top shape: 1 64 237 237 (3594816)
I0621 16:02:19.469172  5496 net.cpp:165] Memory required for data: 89855256
I0621 16:02:19.469173  5496 layer_factory.hpp:77] Creating layer conv1_3_3x3
I0621 16:02:19.469178  5496 net.cpp:106] Creating Layer conv1_3_3x3
I0621 16:02:19.469180  5496 net.cpp:454] conv1_3_3x3 <- conv1_2_3x3
I0621 16:02:19.469183  5496 net.cpp:411] conv1_3_3x3 -> conv1_3_3x3
I0621 16:02:19.470878  5496 net.cpp:150] Setting up conv1_3_3x3
I0621 16:02:19.470885  5496 net.cpp:157] Top shape: 1 128 237 237 (7189632)
I0621 16:02:19.470888  5496 net.cpp:165] Memory required for data: 118613784
I0621 16:02:19.470893  5496 layer_factory.hpp:77] Creating layer conv1_3_3x3/bn
I0621 16:02:19.470901  5496 net.cpp:106] Creating Layer conv1_3_3x3/bn
I0621 16:02:19.470906  5496 net.cpp:454] conv1_3_3x3/bn <- conv1_3_3x3
I0621 16:02:19.470909  5496 net.cpp:397] conv1_3_3x3/bn -> conv1_3_3x3 (in-place)
I0621 16:02:19.471045  5496 net.cpp:150] Setting up conv1_3_3x3/bn
I0621 16:02:19.471050  5496 net.cpp:157] Top shape: 1 128 237 237 (7189632)
I0621 16:02:19.471052  5496 net.cpp:165] Memory required for data: 147372312
I0621 16:02:19.471057  5496 layer_factory.hpp:77] Creating layer conv1_3_3x3/relu
I0621 16:02:19.471061  5496 net.cpp:106] Creating Layer conv1_3_3x3/relu
I0621 16:02:19.471065  5496 net.cpp:454] conv1_3_3x3/relu <- conv1_3_3x3
I0621 16:02:19.471067  5496 net.cpp:397] conv1_3_3x3/relu -> conv1_3_3x3 (in-place)
I0621 16:02:19.471071  5496 net.cpp:150] Setting up conv1_3_3x3/relu
I0621 16:02:19.471074  5496 net.cpp:157] Top shape: 1 128 237 237 (7189632)
I0621 16:02:19.471076  5496 net.cpp:165] Memory required for data: 176130840
I0621 16:02:19.471079  5496 layer_factory.hpp:77] Creating layer pool1_3x3_s2
I0621 16:02:19.471083  5496 net.cpp:106] Creating Layer pool1_3x3_s2
I0621 16:02:19.471086  5496 net.cpp:454] pool1_3x3_s2 <- conv1_3_3x3
I0621 16:02:19.471089  5496 net.cpp:411] pool1_3x3_s2 -> pool1_3x3_s2
I0621 16:02:19.471117  5496 net.cpp:150] Setting up pool1_3x3_s2
I0621 16:02:19.471120  5496 net.cpp:157] Top shape: 1 128 119 119 (1812608)
I0621 16:02:19.471132  5496 net.cpp:165] Memory required for data: 183381272
I0621 16:02:19.471133  5496 layer_factory.hpp:77] Creating layer pool1_3x3_s2_pool1_3x3_s2_0_split
I0621 16:02:19.471143  5496 net.cpp:106] Creating Layer pool1_3x3_s2_pool1_3x3_s2_0_split
I0621 16:02:19.471146  5496 net.cpp:454] pool1_3x3_s2_pool1_3x3_s2_0_split <- pool1_3x3_s2
I0621 16:02:19.471150  5496 net.cpp:411] pool1_3x3_s2_pool1_3x3_s2_0_split -> pool1_3x3_s2_pool1_3x3_s2_0_split_0
I0621 16:02:19.471155  5496 net.cpp:411] pool1_3x3_s2_pool1_3x3_s2_0_split -> pool1_3x3_s2_pool1_3x3_s2_0_split_1
I0621 16:02:19.471175  5496 net.cpp:150] Setting up pool1_3x3_s2_pool1_3x3_s2_0_split
I0621 16:02:19.471179  5496 net.cpp:157] Top shape: 1 128 119 119 (1812608)
I0621 16:02:19.471184  5496 net.cpp:157] Top shape: 1 128 119 119 (1812608)
I0621 16:02:19.471185  5496 net.cpp:165] Memory required for data: 197882136
I0621 16:02:19.471189  5496 layer_factory.hpp:77] Creating layer conv2_1_1x1_reduce
I0621 16:02:19.471194  5496 net.cpp:106] Creating Layer conv2_1_1x1_reduce
I0621 16:02:19.471196  5496 net.cpp:454] conv2_1_1x1_reduce <- pool1_3x3_s2_pool1_3x3_s2_0_split_0
I0621 16:02:19.471200  5496 net.cpp:411] conv2_1_1x1_reduce -> conv2_1_1x1_reduce
I0621 16:02:19.472201  5496 net.cpp:150] Setting up conv2_1_1x1_reduce
I0621 16:02:19.472210  5496 net.cpp:157] Top shape: 1 64 119 119 (906304)
I0621 16:02:19.472213  5496 net.cpp:165] Memory required for data: 201507352
I0621 16:02:19.472218  5496 layer_factory.hpp:77] Creating layer conv2_1_1x1_reduce/bn
I0621 16:02:19.472223  5496 net.cpp:106] Creating Layer conv2_1_1x1_reduce/bn
I0621 16:02:19.472226  5496 net.cpp:454] conv2_1_1x1_reduce/bn <- conv2_1_1x1_reduce
I0621 16:02:19.472230  5496 net.cpp:397] conv2_1_1x1_reduce/bn -> conv2_1_1x1_reduce (in-place)
I0621 16:02:19.472357  5496 net.cpp:150] Setting up conv2_1_1x1_reduce/bn
I0621 16:02:19.472360  5496 net.cpp:157] Top shape: 1 64 119 119 (906304)
I0621 16:02:19.472363  5496 net.cpp:165] Memory required for data: 205132568
I0621 16:02:19.472371  5496 layer_factory.hpp:77] Creating layer conv2_1_1x1_reduce/relu
I0621 16:02:19.472378  5496 net.cpp:106] Creating Layer conv2_1_1x1_reduce/relu
I0621 16:02:19.472379  5496 net.cpp:454] conv2_1_1x1_reduce/relu <- conv2_1_1x1_reduce
I0621 16:02:19.472383  5496 net.cpp:397] conv2_1_1x1_reduce/relu -> conv2_1_1x1_reduce (in-place)
I0621 16:02:19.472388  5496 net.cpp:150] Setting up conv2_1_1x1_reduce/relu
I0621 16:02:19.472390  5496 net.cpp:157] Top shape: 1 64 119 119 (906304)
I0621 16:02:19.472393  5496 net.cpp:165] Memory required for data: 208757784
I0621 16:02:19.472396  5496 layer_factory.hpp:77] Creating layer conv2_1_3x3
I0621 16:02:19.472404  5496 net.cpp:106] Creating Layer conv2_1_3x3
I0621 16:02:19.472406  5496 net.cpp:454] conv2_1_3x3 <- conv2_1_1x1_reduce
I0621 16:02:19.472410  5496 net.cpp:411] conv2_1_3x3 -> conv2_1_3x3
I0621 16:02:19.473328  5496 net.cpp:150] Setting up conv2_1_3x3
I0621 16:02:19.473336  5496 net.cpp:157] Top shape: 1 64 119 119 (906304)
I0621 16:02:19.473338  5496 net.cpp:165] Memory required for data: 212383000
I0621 16:02:19.473342  5496 layer_factory.hpp:77] Creating layer conv2_1_3x3/bn
I0621 16:02:19.473352  5496 net.cpp:106] Creating Layer conv2_1_3x3/bn
I0621 16:02:19.473356  5496 net.cpp:454] conv2_1_3x3/bn <- conv2_1_3x3
I0621 16:02:19.473359  5496 net.cpp:397] conv2_1_3x3/bn -> conv2_1_3x3 (in-place)
I0621 16:02:19.473489  5496 net.cpp:150] Setting up conv2_1_3x3/bn
I0621 16:02:19.473495  5496 net.cpp:157] Top shape: 1 64 119 119 (906304)
I0621 16:02:19.473496  5496 net.cpp:165] Memory required for data: 216008216
I0621 16:02:19.473502  5496 layer_factory.hpp:77] Creating layer conv2_1_3x3/relu
I0621 16:02:19.473506  5496 net.cpp:106] Creating Layer conv2_1_3x3/relu
I0621 16:02:19.473510  5496 net.cpp:454] conv2_1_3x3/relu <- conv2_1_3x3
I0621 16:02:19.473513  5496 net.cpp:397] conv2_1_3x3/relu -> conv2_1_3x3 (in-place)
I0621 16:02:19.473517  5496 net.cpp:150] Setting up conv2_1_3x3/relu
I0621 16:02:19.473520  5496 net.cpp:157] Top shape: 1 64 119 119 (906304)
I0621 16:02:19.473546  5496 net.cpp:165] Memory required for data: 219633432
I0621 16:02:19.473548  5496 layer_factory.hpp:77] Creating layer conv2_1_1x1_increase
I0621 16:02:19.473556  5496 net.cpp:106] Creating Layer conv2_1_1x1_increase
I0621 16:02:19.473558  5496 net.cpp:454] conv2_1_1x1_increase <- conv2_1_3x3
I0621 16:02:19.473564  5496 net.cpp:411] conv2_1_1x1_increase -> conv2_1_1x1_increase
I0621 16:02:19.474036  5496 net.cpp:150] Setting up conv2_1_1x1_increase
I0621 16:02:19.474046  5496 net.cpp:157] Top shape: 1 256 119 119 (3625216)
I0621 16:02:19.474048  5496 net.cpp:165] Memory required for data: 234134296
I0621 16:02:19.474052  5496 layer_factory.hpp:77] Creating layer conv2_1_1x1_increase/bn
I0621 16:02:19.474062  5496 net.cpp:106] Creating Layer conv2_1_1x1_increase/bn
I0621 16:02:19.474064  5496 net.cpp:454] conv2_1_1x1_increase/bn <- conv2_1_1x1_increase
I0621 16:02:19.474071  5496 net.cpp:397] conv2_1_1x1_increase/bn -> conv2_1_1x1_increase (in-place)
I0621 16:02:19.474200  5496 net.cpp:150] Setting up conv2_1_1x1_increase/bn
I0621 16:02:19.474206  5496 net.cpp:157] Top shape: 1 256 119 119 (3625216)
I0621 16:02:19.474210  5496 net.cpp:165] Memory required for data: 248635160
I0621 16:02:19.474215  5496 layer_factory.hpp:77] Creating layer conv2_1_1x1_proj
I0621 16:02:19.474221  5496 net.cpp:106] Creating Layer conv2_1_1x1_proj
I0621 16:02:19.474225  5496 net.cpp:454] conv2_1_1x1_proj <- pool1_3x3_s2_pool1_3x3_s2_0_split_1
I0621 16:02:19.474231  5496 net.cpp:411] conv2_1_1x1_proj -> conv2_1_1x1_proj
I0621 16:02:19.475018  5496 net.cpp:150] Setting up conv2_1_1x1_proj
I0621 16:02:19.475023  5496 net.cpp:157] Top shape: 1 256 119 119 (3625216)
I0621 16:02:19.475026  5496 net.cpp:165] Memory required for data: 263136024
I0621 16:02:19.475029  5496 layer_factory.hpp:77] Creating layer conv2_1_1x1_proj/bn
I0621 16:02:19.475035  5496 net.cpp:106] Creating Layer conv2_1_1x1_proj/bn
I0621 16:02:19.475039  5496 net.cpp:454] conv2_1_1x1_proj/bn <- conv2_1_1x1_proj
I0621 16:02:19.475042  5496 net.cpp:397] conv2_1_1x1_proj/bn -> conv2_1_1x1_proj (in-place)
I0621 16:02:19.475160  5496 net.cpp:150] Setting up conv2_1_1x1_proj/bn
I0621 16:02:19.475164  5496 net.cpp:157] Top shape: 1 256 119 119 (3625216)
I0621 16:02:19.475167  5496 net.cpp:165] Memory required for data: 277636888
I0621 16:02:19.475178  5496 layer_factory.hpp:77] Creating layer conv2_1
I0621 16:02:19.475188  5496 net.cpp:106] Creating Layer conv2_1
I0621 16:02:19.475191  5496 net.cpp:454] conv2_1 <- conv2_1_1x1_proj
I0621 16:02:19.475194  5496 net.cpp:454] conv2_1 <- conv2_1_1x1_increase
I0621 16:02:19.475198  5496 net.cpp:411] conv2_1 -> conv2_1
I0621 16:02:19.475224  5496 net.cpp:150] Setting up conv2_1
I0621 16:02:19.475227  5496 net.cpp:157] Top shape: 1 256 119 119 (3625216)
I0621 16:02:19.475230  5496 net.cpp:165] Memory required for data: 292137752
I0621 16:02:19.475234  5496 layer_factory.hpp:77] Creating layer conv2_1/relu
I0621 16:02:19.475239  5496 net.cpp:106] Creating Layer conv2_1/relu
I0621 16:02:19.475241  5496 net.cpp:454] conv2_1/relu <- conv2_1
I0621 16:02:19.475244  5496 net.cpp:397] conv2_1/relu -> conv2_1 (in-place)
I0621 16:02:19.475248  5496 net.cpp:150] Setting up conv2_1/relu
I0621 16:02:19.475251  5496 net.cpp:157] Top shape: 1 256 119 119 (3625216)
I0621 16:02:19.475255  5496 net.cpp:165] Memory required for data: 306638616
I0621 16:02:19.475256  5496 layer_factory.hpp:77] Creating layer conv2_1_conv2_1/relu_0_split
I0621 16:02:19.475265  5496 net.cpp:106] Creating Layer conv2_1_conv2_1/relu_0_split
I0621 16:02:19.475266  5496 net.cpp:454] conv2_1_conv2_1/relu_0_split <- conv2_1
I0621 16:02:19.475270  5496 net.cpp:411] conv2_1_conv2_1/relu_0_split -> conv2_1_conv2_1/relu_0_split_0
I0621 16:02:19.475275  5496 net.cpp:411] conv2_1_conv2_1/relu_0_split -> conv2_1_conv2_1/relu_0_split_1
I0621 16:02:19.475293  5496 net.cpp:150] Setting up conv2_1_conv2_1/relu_0_split
I0621 16:02:19.475297  5496 net.cpp:157] Top shape: 1 256 119 119 (3625216)
I0621 16:02:19.475301  5496 net.cpp:157] Top shape: 1 256 119 119 (3625216)
I0621 16:02:19.475312  5496 net.cpp:165] Memory required for data: 335640344
I0621 16:02:19.475314  5496 layer_factory.hpp:77] Creating layer conv2_2_1x1_reduce
I0621 16:02:19.475358  5496 net.cpp:106] Creating Layer conv2_2_1x1_reduce
I0621 16:02:19.475360  5496 net.cpp:454] conv2_2_1x1_reduce <- conv2_1_conv2_1/relu_0_split_0
I0621 16:02:19.475365  5496 net.cpp:411] conv2_2_1x1_reduce -> conv2_2_1x1_reduce
I0621 16:02:19.475843  5496 net.cpp:150] Setting up conv2_2_1x1_reduce
I0621 16:02:19.475852  5496 net.cpp:157] Top shape: 1 64 119 119 (906304)
I0621 16:02:19.475853  5496 net.cpp:165] Memory required for data: 339265560
I0621 16:02:19.475857  5496 layer_factory.hpp:77] Creating layer conv2_2_1x1_reduce/bn
I0621 16:02:19.475863  5496 net.cpp:106] Creating Layer conv2_2_1x1_reduce/bn
I0621 16:02:19.475867  5496 net.cpp:454] conv2_2_1x1_reduce/bn <- conv2_2_1x1_reduce
I0621 16:02:19.475870  5496 net.cpp:397] conv2_2_1x1_reduce/bn -> conv2_2_1x1_reduce (in-place)
I0621 16:02:19.476016  5496 net.cpp:150] Setting up conv2_2_1x1_reduce/bn
I0621 16:02:19.476022  5496 net.cpp:157] Top shape: 1 64 119 119 (906304)
I0621 16:02:19.476024  5496 net.cpp:165] Memory required for data: 342890776
I0621 16:02:19.476029  5496 layer_factory.hpp:77] Creating layer conv2_2_1x1_reduce/relu
I0621 16:02:19.476038  5496 net.cpp:106] Creating Layer conv2_2_1x1_reduce/relu
I0621 16:02:19.476040  5496 net.cpp:454] conv2_2_1x1_reduce/relu <- conv2_2_1x1_reduce
I0621 16:02:19.476044  5496 net.cpp:397] conv2_2_1x1_reduce/relu -> conv2_2_1x1_reduce (in-place)
I0621 16:02:19.476048  5496 net.cpp:150] Setting up conv2_2_1x1_reduce/relu
I0621 16:02:19.476052  5496 net.cpp:157] Top shape: 1 64 119 119 (906304)
I0621 16:02:19.476054  5496 net.cpp:165] Memory required for data: 346515992
I0621 16:02:19.476058  5496 layer_factory.hpp:77] Creating layer conv2_2_3x3
I0621 16:02:19.476068  5496 net.cpp:106] Creating Layer conv2_2_3x3
I0621 16:02:19.476070  5496 net.cpp:454] conv2_2_3x3 <- conv2_2_1x1_reduce
I0621 16:02:19.476075  5496 net.cpp:411] conv2_2_3x3 -> conv2_2_3x3
I0621 16:02:19.476974  5496 net.cpp:150] Setting up conv2_2_3x3
I0621 16:02:19.476980  5496 net.cpp:157] Top shape: 1 64 119 119 (906304)
I0621 16:02:19.476982  5496 net.cpp:165] Memory required for data: 350141208
I0621 16:02:19.476986  5496 layer_factory.hpp:77] Creating layer conv2_2_3x3/bn
I0621 16:02:19.476994  5496 net.cpp:106] Creating Layer conv2_2_3x3/bn
I0621 16:02:19.476997  5496 net.cpp:454] conv2_2_3x3/bn <- conv2_2_3x3
I0621 16:02:19.477000  5496 net.cpp:397] conv2_2_3x3/bn -> conv2_2_3x3 (in-place)
I0621 16:02:19.477136  5496 net.cpp:150] Setting up conv2_2_3x3/bn
I0621 16:02:19.477143  5496 net.cpp:157] Top shape: 1 64 119 119 (906304)
I0621 16:02:19.477145  5496 net.cpp:165] Memory required for data: 353766424
I0621 16:02:19.477151  5496 layer_factory.hpp:77] Creating layer conv2_2_3x3/relu
I0621 16:02:19.477155  5496 net.cpp:106] Creating Layer conv2_2_3x3/relu
I0621 16:02:19.477159  5496 net.cpp:454] conv2_2_3x3/relu <- conv2_2_3x3
I0621 16:02:19.477162  5496 net.cpp:397] conv2_2_3x3/relu -> conv2_2_3x3 (in-place)
I0621 16:02:19.477166  5496 net.cpp:150] Setting up conv2_2_3x3/relu
I0621 16:02:19.477169  5496 net.cpp:157] Top shape: 1 64 119 119 (906304)
I0621 16:02:19.477172  5496 net.cpp:165] Memory required for data: 357391640
I0621 16:02:19.477175  5496 layer_factory.hpp:77] Creating layer conv2_2_1x1_increase
I0621 16:02:19.477182  5496 net.cpp:106] Creating Layer conv2_2_1x1_increase
I0621 16:02:19.477185  5496 net.cpp:454] conv2_2_1x1_increase <- conv2_2_3x3
I0621 16:02:19.477188  5496 net.cpp:411] conv2_2_1x1_increase -> conv2_2_1x1_increase
I0621 16:02:19.477660  5496 net.cpp:150] Setting up conv2_2_1x1_increase
I0621 16:02:19.477668  5496 net.cpp:157] Top shape: 1 256 119 119 (3625216)
I0621 16:02:19.477670  5496 net.cpp:165] Memory required for data: 371892504
I0621 16:02:19.477674  5496 layer_factory.hpp:77] Creating layer conv2_2_1x1_increase/bn
I0621 16:02:19.477686  5496 net.cpp:106] Creating Layer conv2_2_1x1_increase/bn
I0621 16:02:19.477705  5496 net.cpp:454] conv2_2_1x1_increase/bn <- conv2_2_1x1_increase
I0621 16:02:19.477710  5496 net.cpp:397] conv2_2_1x1_increase/bn -> conv2_2_1x1_increase (in-place)
I0621 16:02:19.477840  5496 net.cpp:150] Setting up conv2_2_1x1_increase/bn
I0621 16:02:19.477845  5496 net.cpp:157] Top shape: 1 256 119 119 (3625216)
I0621 16:02:19.477847  5496 net.cpp:165] Memory required for data: 386393368
I0621 16:02:19.477852  5496 layer_factory.hpp:77] Creating layer conv2_2
I0621 16:02:19.477859  5496 net.cpp:106] Creating Layer conv2_2
I0621 16:02:19.477861  5496 net.cpp:454] conv2_2 <- conv2_1_conv2_1/relu_0_split_1
I0621 16:02:19.477864  5496 net.cpp:454] conv2_2 <- conv2_2_1x1_increase
I0621 16:02:19.477867  5496 net.cpp:411] conv2_2 -> conv2_2
I0621 16:02:19.477883  5496 net.cpp:150] Setting up conv2_2
I0621 16:02:19.477887  5496 net.cpp:157] Top shape: 1 256 119 119 (3625216)
I0621 16:02:19.477890  5496 net.cpp:165] Memory required for data: 400894232
I0621 16:02:19.477892  5496 layer_factory.hpp:77] Creating layer conv2_2/relu
I0621 16:02:19.477896  5496 net.cpp:106] Creating Layer conv2_2/relu
I0621 16:02:19.477898  5496 net.cpp:454] conv2_2/relu <- conv2_2
I0621 16:02:19.477902  5496 net.cpp:397] conv2_2/relu -> conv2_2 (in-place)
I0621 16:02:19.477906  5496 net.cpp:150] Setting up conv2_2/relu
I0621 16:02:19.477910  5496 net.cpp:157] Top shape: 1 256 119 119 (3625216)
I0621 16:02:19.477911  5496 net.cpp:165] Memory required for data: 415395096
I0621 16:02:19.477915  5496 layer_factory.hpp:77] Creating layer conv2_2_conv2_2/relu_0_split
I0621 16:02:19.477918  5496 net.cpp:106] Creating Layer conv2_2_conv2_2/relu_0_split
I0621 16:02:19.477921  5496 net.cpp:454] conv2_2_conv2_2/relu_0_split <- conv2_2
I0621 16:02:19.477924  5496 net.cpp:411] conv2_2_conv2_2/relu_0_split -> conv2_2_conv2_2/relu_0_split_0
I0621 16:02:19.477927  5496 net.cpp:411] conv2_2_conv2_2/relu_0_split -> conv2_2_conv2_2/relu_0_split_1
I0621 16:02:19.477947  5496 net.cpp:150] Setting up conv2_2_conv2_2/relu_0_split
I0621 16:02:19.477952  5496 net.cpp:157] Top shape: 1 256 119 119 (3625216)
I0621 16:02:19.477954  5496 net.cpp:157] Top shape: 1 256 119 119 (3625216)
I0621 16:02:19.477957  5496 net.cpp:165] Memory required for data: 444396824
I0621 16:02:19.477959  5496 layer_factory.hpp:77] Creating layer conv2_3_1x1_reduce
I0621 16:02:19.477965  5496 net.cpp:106] Creating Layer conv2_3_1x1_reduce
I0621 16:02:19.477969  5496 net.cpp:454] conv2_3_1x1_reduce <- conv2_2_conv2_2/relu_0_split_0
I0621 16:02:19.477975  5496 net.cpp:411] conv2_3_1x1_reduce -> conv2_3_1x1_reduce
I0621 16:02:19.478423  5496 net.cpp:150] Setting up conv2_3_1x1_reduce
I0621 16:02:19.478428  5496 net.cpp:157] Top shape: 1 64 119 119 (906304)
I0621 16:02:19.478431  5496 net.cpp:165] Memory required for data: 448022040
I0621 16:02:19.478435  5496 layer_factory.hpp:77] Creating layer conv2_3_1x1_reduce/bn
I0621 16:02:19.478440  5496 net.cpp:106] Creating Layer conv2_3_1x1_reduce/bn
I0621 16:02:19.478441  5496 net.cpp:454] conv2_3_1x1_reduce/bn <- conv2_3_1x1_reduce
I0621 16:02:19.478446  5496 net.cpp:397] conv2_3_1x1_reduce/bn -> conv2_3_1x1_reduce (in-place)
I0621 16:02:19.478586  5496 net.cpp:150] Setting up conv2_3_1x1_reduce/bn
I0621 16:02:19.478590  5496 net.cpp:157] Top shape: 1 64 119 119 (906304)
I0621 16:02:19.478593  5496 net.cpp:165] Memory required for data: 451647256
I0621 16:02:19.478600  5496 layer_factory.hpp:77] Creating layer conv2_3_1x1_reduce/relu
I0621 16:02:19.478603  5496 net.cpp:106] Creating Layer conv2_3_1x1_reduce/relu
I0621 16:02:19.478606  5496 net.cpp:454] conv2_3_1x1_reduce/relu <- conv2_3_1x1_reduce
I0621 16:02:19.478610  5496 net.cpp:397] conv2_3_1x1_reduce/relu -> conv2_3_1x1_reduce (in-place)
I0621 16:02:19.478612  5496 net.cpp:150] Setting up conv2_3_1x1_reduce/relu
I0621 16:02:19.478616  5496 net.cpp:157] Top shape: 1 64 119 119 (906304)
I0621 16:02:19.478619  5496 net.cpp:165] Memory required for data: 455272472
I0621 16:02:19.478621  5496 layer_factory.hpp:77] Creating layer conv2_3_3x3
I0621 16:02:19.478627  5496 net.cpp:106] Creating Layer conv2_3_3x3
I0621 16:02:19.478642  5496 net.cpp:454] conv2_3_3x3 <- conv2_3_1x1_reduce
I0621 16:02:19.478646  5496 net.cpp:411] conv2_3_3x3 -> conv2_3_3x3
I0621 16:02:19.479537  5496 net.cpp:150] Setting up conv2_3_3x3
I0621 16:02:19.479542  5496 net.cpp:157] Top shape: 1 64 119 119 (906304)
I0621 16:02:19.479545  5496 net.cpp:165] Memory required for data: 458897688
I0621 16:02:19.479549  5496 layer_factory.hpp:77] Creating layer conv2_3_3x3/bn
I0621 16:02:19.479557  5496 net.cpp:106] Creating Layer conv2_3_3x3/bn
I0621 16:02:19.479558  5496 net.cpp:454] conv2_3_3x3/bn <- conv2_3_3x3
I0621 16:02:19.479562  5496 net.cpp:397] conv2_3_3x3/bn -> conv2_3_3x3 (in-place)
I0621 16:02:19.479706  5496 net.cpp:150] Setting up conv2_3_3x3/bn
I0621 16:02:19.490073  5496 net.cpp:157] Top shape: 1 64 119 119 (906304)
I0621 16:02:19.490090  5496 net.cpp:165] Memory required for data: 462522904
I0621 16:02:19.490113  5496 layer_factory.hpp:77] Creating layer conv2_3_3x3/relu
I0621 16:02:19.490131  5496 net.cpp:106] Creating Layer conv2_3_3x3/relu
I0621 16:02:19.490139  5496 net.cpp:454] conv2_3_3x3/relu <- conv2_3_3x3
I0621 16:02:19.490151  5496 net.cpp:397] conv2_3_3x3/relu -> conv2_3_3x3 (in-place)
I0621 16:02:19.490167  5496 net.cpp:150] Setting up conv2_3_3x3/relu
I0621 16:02:19.490173  5496 net.cpp:157] Top shape: 1 64 119 119 (906304)
I0621 16:02:19.490176  5496 net.cpp:165] Memory required for data: 466148120
I0621 16:02:19.490180  5496 layer_factory.hpp:77] Creating layer conv2_3_1x1_increase
I0621 16:02:19.490193  5496 net.cpp:106] Creating Layer conv2_3_1x1_increase
I0621 16:02:19.490197  5496 net.cpp:454] conv2_3_1x1_increase <- conv2_3_3x3
I0621 16:02:19.490206  5496 net.cpp:411] conv2_3_1x1_increase -> conv2_3_1x1_increase
I0621 16:02:19.490968  5496 net.cpp:150] Setting up conv2_3_1x1_increase
I0621 16:02:19.490990  5496 net.cpp:157] Top shape: 1 256 119 119 (3625216)
I0621 16:02:19.490995  5496 net.cpp:165] Memory required for data: 480648984
I0621 16:02:19.491003  5496 layer_factory.hpp:77] Creating layer conv2_3_1x1_increase/bn
I0621 16:02:19.491019  5496 net.cpp:106] Creating Layer conv2_3_1x1_increase/bn
I0621 16:02:19.491025  5496 net.cpp:454] conv2_3_1x1_increase/bn <- conv2_3_1x1_increase
I0621 16:02:19.491032  5496 net.cpp:397] conv2_3_1x1_increase/bn -> conv2_3_1x1_increase (in-place)
I0621 16:02:19.491227  5496 net.cpp:150] Setting up conv2_3_1x1_increase/bn
I0621 16:02:19.491235  5496 net.cpp:157] Top shape: 1 256 119 119 (3625216)
I0621 16:02:19.491240  5496 net.cpp:165] Memory required for data: 495149848
I0621 16:02:19.491268  5496 layer_factory.hpp:77] Creating layer conv2_3
I0621 16:02:19.491279  5496 net.cpp:106] Creating Layer conv2_3
I0621 16:02:19.491284  5496 net.cpp:454] conv2_3 <- conv2_2_conv2_2/relu_0_split_1
I0621 16:02:19.491291  5496 net.cpp:454] conv2_3 <- conv2_3_1x1_increase
I0621 16:02:19.491297  5496 net.cpp:411] conv2_3 -> conv2_3
I0621 16:02:19.491329  5496 net.cpp:150] Setting up conv2_3
I0621 16:02:19.491335  5496 net.cpp:157] Top shape: 1 256 119 119 (3625216)
I0621 16:02:19.491340  5496 net.cpp:165] Memory required for data: 509650712
I0621 16:02:19.491344  5496 layer_factory.hpp:77] Creating layer conv2_3/relu
I0621 16:02:19.491353  5496 net.cpp:106] Creating Layer conv2_3/relu
I0621 16:02:19.491358  5496 net.cpp:454] conv2_3/relu <- conv2_3
I0621 16:02:19.491364  5496 net.cpp:397] conv2_3/relu -> conv2_3 (in-place)
I0621 16:02:19.491371  5496 net.cpp:150] Setting up conv2_3/relu
I0621 16:02:19.491376  5496 net.cpp:157] Top shape: 1 256 119 119 (3625216)
I0621 16:02:19.491380  5496 net.cpp:165] Memory required for data: 524151576
I0621 16:02:19.491384  5496 layer_factory.hpp:77] Creating layer conv2_3_conv2_3/relu_0_split
I0621 16:02:19.491392  5496 net.cpp:106] Creating Layer conv2_3_conv2_3/relu_0_split
I0621 16:02:19.491396  5496 net.cpp:454] conv2_3_conv2_3/relu_0_split <- conv2_3
I0621 16:02:19.491401  5496 net.cpp:411] conv2_3_conv2_3/relu_0_split -> conv2_3_conv2_3/relu_0_split_0
I0621 16:02:19.491407  5496 net.cpp:411] conv2_3_conv2_3/relu_0_split -> conv2_3_conv2_3/relu_0_split_1
I0621 16:02:19.491489  5496 net.cpp:150] Setting up conv2_3_conv2_3/relu_0_split
I0621 16:02:19.491495  5496 net.cpp:157] Top shape: 1 256 119 119 (3625216)
I0621 16:02:19.491500  5496 net.cpp:157] Top shape: 1 256 119 119 (3625216)
I0621 16:02:19.491504  5496 net.cpp:165] Memory required for data: 553153304
I0621 16:02:19.491508  5496 layer_factory.hpp:77] Creating layer conv3_1_1x1_reduce
I0621 16:02:19.491519  5496 net.cpp:106] Creating Layer conv3_1_1x1_reduce
I0621 16:02:19.491523  5496 net.cpp:454] conv3_1_1x1_reduce <- conv2_3_conv2_3/relu_0_split_0
I0621 16:02:19.491533  5496 net.cpp:411] conv3_1_1x1_reduce -> conv3_1_1x1_reduce
I0621 16:02:19.492605  5496 net.cpp:150] Setting up conv3_1_1x1_reduce
I0621 16:02:19.492612  5496 net.cpp:157] Top shape: 1 128 119 119 (1812608)
I0621 16:02:19.492616  5496 net.cpp:165] Memory required for data: 560403736
I0621 16:02:19.492621  5496 layer_factory.hpp:77] Creating layer conv3_1_1x1_reduce/bn
I0621 16:02:19.492630  5496 net.cpp:106] Creating Layer conv3_1_1x1_reduce/bn
I0621 16:02:19.492633  5496 net.cpp:454] conv3_1_1x1_reduce/bn <- conv3_1_1x1_reduce
I0621 16:02:19.492640  5496 net.cpp:397] conv3_1_1x1_reduce/bn -> conv3_1_1x1_reduce (in-place)
I0621 16:02:19.492808  5496 net.cpp:150] Setting up conv3_1_1x1_reduce/bn
I0621 16:02:19.492815  5496 net.cpp:157] Top shape: 1 128 119 119 (1812608)
I0621 16:02:19.492820  5496 net.cpp:165] Memory required for data: 567654168
I0621 16:02:19.492826  5496 layer_factory.hpp:77] Creating layer conv3_1_1x1_reduce/relu
I0621 16:02:19.492832  5496 net.cpp:106] Creating Layer conv3_1_1x1_reduce/relu
I0621 16:02:19.492836  5496 net.cpp:454] conv3_1_1x1_reduce/relu <- conv3_1_1x1_reduce
I0621 16:02:19.492851  5496 net.cpp:397] conv3_1_1x1_reduce/relu -> conv3_1_1x1_reduce (in-place)
I0621 16:02:19.492856  5496 net.cpp:150] Setting up conv3_1_1x1_reduce/relu
I0621 16:02:19.492861  5496 net.cpp:157] Top shape: 1 128 119 119 (1812608)
I0621 16:02:19.492866  5496 net.cpp:165] Memory required for data: 574904600
I0621 16:02:19.492869  5496 layer_factory.hpp:77] Creating layer conv3_1_3x3
I0621 16:02:19.492877  5496 net.cpp:106] Creating Layer conv3_1_3x3
I0621 16:02:19.492882  5496 net.cpp:454] conv3_1_3x3 <- conv3_1_1x1_reduce
I0621 16:02:19.492887  5496 net.cpp:411] conv3_1_3x3 -> conv3_1_3x3
I0621 16:02:19.497082  5496 net.cpp:150] Setting up conv3_1_3x3
I0621 16:02:19.497098  5496 net.cpp:157] Top shape: 1 128 60 60 (460800)
I0621 16:02:19.497103  5496 net.cpp:165] Memory required for data: 576747800
I0621 16:02:19.497112  5496 layer_factory.hpp:77] Creating layer conv3_1_3x3/bn
I0621 16:02:19.497120  5496 net.cpp:106] Creating Layer conv3_1_3x3/bn
I0621 16:02:19.497125  5496 net.cpp:454] conv3_1_3x3/bn <- conv3_1_3x3
I0621 16:02:19.497148  5496 net.cpp:397] conv3_1_3x3/bn -> conv3_1_3x3 (in-place)
I0621 16:02:19.497333  5496 net.cpp:150] Setting up conv3_1_3x3/bn
I0621 16:02:19.497339  5496 net.cpp:157] Top shape: 1 128 60 60 (460800)
I0621 16:02:19.497342  5496 net.cpp:165] Memory required for data: 578591000
I0621 16:02:19.497351  5496 layer_factory.hpp:77] Creating layer conv3_1_3x3/relu
I0621 16:02:19.497364  5496 net.cpp:106] Creating Layer conv3_1_3x3/relu
I0621 16:02:19.497369  5496 net.cpp:454] conv3_1_3x3/relu <- conv3_1_3x3
I0621 16:02:19.497373  5496 net.cpp:397] conv3_1_3x3/relu -> conv3_1_3x3 (in-place)
I0621 16:02:19.497380  5496 net.cpp:150] Setting up conv3_1_3x3/relu
I0621 16:02:19.497385  5496 net.cpp:157] Top shape: 1 128 60 60 (460800)
I0621 16:02:19.497388  5496 net.cpp:165] Memory required for data: 580434200
I0621 16:02:19.497392  5496 layer_factory.hpp:77] Creating layer conv3_1_1x1_increase
I0621 16:02:19.497400  5496 net.cpp:106] Creating Layer conv3_1_1x1_increase
I0621 16:02:19.497404  5496 net.cpp:454] conv3_1_1x1_increase <- conv3_1_3x3
I0621 16:02:19.497411  5496 net.cpp:411] conv3_1_1x1_increase -> conv3_1_1x1_increase
I0621 16:02:19.499478  5496 net.cpp:150] Setting up conv3_1_1x1_increase
I0621 16:02:19.499500  5496 net.cpp:157] Top shape: 1 512 60 60 (1843200)
I0621 16:02:19.499505  5496 net.cpp:165] Memory required for data: 587807000
I0621 16:02:19.499528  5496 layer_factory.hpp:77] Creating layer conv3_1_1x1_increase/bn
I0621 16:02:19.499541  5496 net.cpp:106] Creating Layer conv3_1_1x1_increase/bn
I0621 16:02:19.499547  5496 net.cpp:454] conv3_1_1x1_increase/bn <- conv3_1_1x1_increase
I0621 16:02:19.499553  5496 net.cpp:397] conv3_1_1x1_increase/bn -> conv3_1_1x1_increase (in-place)
I0621 16:02:19.500875  5496 net.cpp:150] Setting up conv3_1_1x1_increase/bn
I0621 16:02:19.500915  5496 net.cpp:157] Top shape: 1 512 60 60 (1843200)
I0621 16:02:19.500919  5496 net.cpp:165] Memory required for data: 595179800
I0621 16:02:19.500952  5496 layer_factory.hpp:77] Creating layer conv3_1_1x1_proj
I0621 16:02:19.500982  5496 net.cpp:106] Creating Layer conv3_1_1x1_proj
I0621 16:02:19.500993  5496 net.cpp:454] conv3_1_1x1_proj <- conv2_3_conv2_3/relu_0_split_1
I0621 16:02:19.501005  5496 net.cpp:411] conv3_1_1x1_proj -> conv3_1_1x1_proj
I0621 16:02:19.506427  5496 net.cpp:150] Setting up conv3_1_1x1_proj
I0621 16:02:19.506527  5496 net.cpp:157] Top shape: 1 512 60 60 (1843200)
I0621 16:02:19.506534  5496 net.cpp:165] Memory required for data: 602552600
I0621 16:02:19.506556  5496 layer_factory.hpp:77] Creating layer conv3_1_1x1_proj/bn
I0621 16:02:19.506597  5496 net.cpp:106] Creating Layer conv3_1_1x1_proj/bn
I0621 16:02:19.506609  5496 net.cpp:454] conv3_1_1x1_proj/bn <- conv3_1_1x1_proj
I0621 16:02:19.506624  5496 net.cpp:397] conv3_1_1x1_proj/bn -> conv3_1_1x1_proj (in-place)
I0621 16:02:19.506914  5496 net.cpp:150] Setting up conv3_1_1x1_proj/bn
I0621 16:02:19.506923  5496 net.cpp:157] Top shape: 1 512 60 60 (1843200)
I0621 16:02:19.506929  5496 net.cpp:165] Memory required for data: 609925400
I0621 16:02:19.506939  5496 layer_factory.hpp:77] Creating layer conv3_1
I0621 16:02:19.506953  5496 net.cpp:106] Creating Layer conv3_1
I0621 16:02:19.506958  5496 net.cpp:454] conv3_1 <- conv3_1_1x1_proj
I0621 16:02:19.506965  5496 net.cpp:454] conv3_1 <- conv3_1_1x1_increase
I0621 16:02:19.506973  5496 net.cpp:411] conv3_1 -> conv3_1
I0621 16:02:19.507019  5496 net.cpp:150] Setting up conv3_1
I0621 16:02:19.507030  5496 net.cpp:157] Top shape: 1 512 60 60 (1843200)
I0621 16:02:19.507035  5496 net.cpp:165] Memory required for data: 617298200
I0621 16:02:19.507038  5496 layer_factory.hpp:77] Creating layer conv3_1/relu
I0621 16:02:19.507050  5496 net.cpp:106] Creating Layer conv3_1/relu
I0621 16:02:19.507055  5496 net.cpp:454] conv3_1/relu <- conv3_1
I0621 16:02:19.507061  5496 net.cpp:397] conv3_1/relu -> conv3_1 (in-place)
I0621 16:02:19.507069  5496 net.cpp:150] Setting up conv3_1/relu
I0621 16:02:19.507076  5496 net.cpp:157] Top shape: 1 512 60 60 (1843200)
I0621 16:02:19.507081  5496 net.cpp:165] Memory required for data: 624671000
I0621 16:02:19.507084  5496 layer_factory.hpp:77] Creating layer conv3_1_conv3_1/relu_0_split
I0621 16:02:19.507097  5496 net.cpp:106] Creating Layer conv3_1_conv3_1/relu_0_split
I0621 16:02:19.507102  5496 net.cpp:454] conv3_1_conv3_1/relu_0_split <- conv3_1
I0621 16:02:19.507110  5496 net.cpp:411] conv3_1_conv3_1/relu_0_split -> conv3_1_conv3_1/relu_0_split_0
I0621 16:02:19.507118  5496 net.cpp:411] conv3_1_conv3_1/relu_0_split -> conv3_1_conv3_1/relu_0_split_1
I0621 16:02:19.507153  5496 net.cpp:150] Setting up conv3_1_conv3_1/relu_0_split
I0621 16:02:19.507161  5496 net.cpp:157] Top shape: 1 512 60 60 (1843200)
I0621 16:02:19.507167  5496 net.cpp:157] Top shape: 1 512 60 60 (1843200)
I0621 16:02:19.507172  5496 net.cpp:165] Memory required for data: 639416600
I0621 16:02:19.507177  5496 layer_factory.hpp:77] Creating layer conv3_2_1x1_reduce
I0621 16:02:19.507195  5496 net.cpp:106] Creating Layer conv3_2_1x1_reduce
I0621 16:02:19.507200  5496 net.cpp:454] conv3_2_1x1_reduce <- conv3_1_conv3_1/relu_0_split_0
I0621 16:02:19.507207  5496 net.cpp:411] conv3_2_1x1_reduce -> conv3_2_1x1_reduce
I0621 16:02:19.509341  5496 net.cpp:150] Setting up conv3_2_1x1_reduce
I0621 16:02:19.509380  5496 net.cpp:157] Top shape: 1 128 60 60 (460800)
I0621 16:02:19.509385  5496 net.cpp:165] Memory required for data: 641259800
I0621 16:02:19.509462  5496 layer_factory.hpp:77] Creating layer conv3_2_1x1_reduce/bn
I0621 16:02:19.509487  5496 net.cpp:106] Creating Layer conv3_2_1x1_reduce/bn
I0621 16:02:19.509495  5496 net.cpp:454] conv3_2_1x1_reduce/bn <- conv3_2_1x1_reduce
I0621 16:02:19.509505  5496 net.cpp:397] conv3_2_1x1_reduce/bn -> conv3_2_1x1_reduce (in-place)
I0621 16:02:19.509730  5496 net.cpp:150] Setting up conv3_2_1x1_reduce/bn
I0621 16:02:19.509739  5496 net.cpp:157] Top shape: 1 128 60 60 (460800)
I0621 16:02:19.509743  5496 net.cpp:165] Memory required for data: 643103000
I0621 16:02:19.509752  5496 layer_factory.hpp:77] Creating layer conv3_2_1x1_reduce/relu
I0621 16:02:19.509764  5496 net.cpp:106] Creating Layer conv3_2_1x1_reduce/relu
I0621 16:02:19.509769  5496 net.cpp:454] conv3_2_1x1_reduce/relu <- conv3_2_1x1_reduce
I0621 16:02:19.509774  5496 net.cpp:397] conv3_2_1x1_reduce/relu -> conv3_2_1x1_reduce (in-place)
I0621 16:02:19.520661  5496 net.cpp:150] Setting up conv3_2_1x1_reduce/relu
I0621 16:02:19.520694  5496 net.cpp:157] Top shape: 1 128 60 60 (460800)
I0621 16:02:19.520699  5496 net.cpp:165] Memory required for data: 644946200
I0621 16:02:19.520706  5496 layer_factory.hpp:77] Creating layer conv3_2_3x3
I0621 16:02:19.520728  5496 net.cpp:106] Creating Layer conv3_2_3x3
I0621 16:02:19.520733  5496 net.cpp:454] conv3_2_3x3 <- conv3_2_1x1_reduce
I0621 16:02:19.520747  5496 net.cpp:411] conv3_2_3x3 -> conv3_2_3x3
I0621 16:02:19.525171  5496 net.cpp:150] Setting up conv3_2_3x3
I0621 16:02:19.525197  5496 net.cpp:157] Top shape: 1 128 60 60 (460800)
I0621 16:02:19.525202  5496 net.cpp:165] Memory required for data: 646789400
I0621 16:02:19.525210  5496 layer_factory.hpp:77] Creating layer conv3_2_3x3/bn
I0621 16:02:19.525236  5496 net.cpp:106] Creating Layer conv3_2_3x3/bn
I0621 16:02:19.525243  5496 net.cpp:454] conv3_2_3x3/bn <- conv3_2_3x3
I0621 16:02:19.525259  5496 net.cpp:397] conv3_2_3x3/bn -> conv3_2_3x3 (in-place)
I0621 16:02:19.525450  5496 net.cpp:150] Setting up conv3_2_3x3/bn
I0621 16:02:19.525457  5496 net.cpp:157] Top shape: 1 128 60 60 (460800)
I0621 16:02:19.525460  5496 net.cpp:165] Memory required for data: 648632600
I0621 16:02:19.525468  5496 layer_factory.hpp:77] Creating layer conv3_2_3x3/relu
I0621 16:02:19.525476  5496 net.cpp:106] Creating Layer conv3_2_3x3/relu
I0621 16:02:19.525480  5496 net.cpp:454] conv3_2_3x3/relu <- conv3_2_3x3
I0621 16:02:19.525485  5496 net.cpp:397] conv3_2_3x3/relu -> conv3_2_3x3 (in-place)
I0621 16:02:19.525490  5496 net.cpp:150] Setting up conv3_2_3x3/relu
I0621 16:02:19.525496  5496 net.cpp:157] Top shape: 1 128 60 60 (460800)
I0621 16:02:19.525499  5496 net.cpp:165] Memory required for data: 650475800
I0621 16:02:19.525502  5496 layer_factory.hpp:77] Creating layer conv3_2_1x1_increase
I0621 16:02:19.525511  5496 net.cpp:106] Creating Layer conv3_2_1x1_increase
I0621 16:02:19.525514  5496 net.cpp:454] conv3_2_1x1_increase <- conv3_2_3x3
I0621 16:02:19.525519  5496 net.cpp:411] conv3_2_1x1_increase -> conv3_2_1x1_increase
I0621 16:02:19.529258  5496 net.cpp:150] Setting up conv3_2_1x1_increase
I0621 16:02:19.529270  5496 net.cpp:157] Top shape: 1 512 60 60 (1843200)
I0621 16:02:19.529274  5496 net.cpp:165] Memory required for data: 657848600
I0621 16:02:19.529279  5496 layer_factory.hpp:77] Creating layer conv3_2_1x1_increase/bn
I0621 16:02:19.529286  5496 net.cpp:106] Creating Layer conv3_2_1x1_increase/bn
I0621 16:02:19.529289  5496 net.cpp:454] conv3_2_1x1_increase/bn <- conv3_2_1x1_increase
I0621 16:02:19.529294  5496 net.cpp:397] conv3_2_1x1_increase/bn -> conv3_2_1x1_increase (in-place)
I0621 16:02:19.529439  5496 net.cpp:150] Setting up conv3_2_1x1_increase/bn
I0621 16:02:19.529445  5496 net.cpp:157] Top shape: 1 512 60 60 (1843200)
I0621 16:02:19.529448  5496 net.cpp:165] Memory required for data: 665221400
I0621 16:02:19.529453  5496 layer_factory.hpp:77] Creating layer conv3_2
I0621 16:02:19.529458  5496 net.cpp:106] Creating Layer conv3_2
I0621 16:02:19.529459  5496 net.cpp:454] conv3_2 <- conv3_1_conv3_1/relu_0_split_1
I0621 16:02:19.529475  5496 net.cpp:454] conv3_2 <- conv3_2_1x1_increase
I0621 16:02:19.529479  5496 net.cpp:411] conv3_2 -> conv3_2
I0621 16:02:19.529494  5496 net.cpp:150] Setting up conv3_2
I0621 16:02:19.529497  5496 net.cpp:157] Top shape: 1 512 60 60 (1843200)
I0621 16:02:19.529498  5496 net.cpp:165] Memory required for data: 672594200
I0621 16:02:19.529500  5496 layer_factory.hpp:77] Creating layer conv3_2/relu
I0621 16:02:19.529505  5496 net.cpp:106] Creating Layer conv3_2/relu
I0621 16:02:19.529507  5496 net.cpp:454] conv3_2/relu <- conv3_2
I0621 16:02:19.529510  5496 net.cpp:397] conv3_2/relu -> conv3_2 (in-place)
I0621 16:02:19.529515  5496 net.cpp:150] Setting up conv3_2/relu
I0621 16:02:19.529518  5496 net.cpp:157] Top shape: 1 512 60 60 (1843200)
I0621 16:02:19.529520  5496 net.cpp:165] Memory required for data: 679967000
I0621 16:02:19.529523  5496 layer_factory.hpp:77] Creating layer conv3_2_conv3_2/relu_0_split
I0621 16:02:19.529527  5496 net.cpp:106] Creating Layer conv3_2_conv3_2/relu_0_split
I0621 16:02:19.529531  5496 net.cpp:454] conv3_2_conv3_2/relu_0_split <- conv3_2
I0621 16:02:19.529534  5496 net.cpp:411] conv3_2_conv3_2/relu_0_split -> conv3_2_conv3_2/relu_0_split_0
I0621 16:02:19.529538  5496 net.cpp:411] conv3_2_conv3_2/relu_0_split -> conv3_2_conv3_2/relu_0_split_1
I0621 16:02:19.529564  5496 net.cpp:150] Setting up conv3_2_conv3_2/relu_0_split
I0621 16:02:19.529572  5496 net.cpp:157] Top shape: 1 512 60 60 (1843200)
I0621 16:02:19.529577  5496 net.cpp:157] Top shape: 1 512 60 60 (1843200)
I0621 16:02:19.529580  5496 net.cpp:165] Memory required for data: 694712600
I0621 16:02:19.529584  5496 layer_factory.hpp:77] Creating layer conv3_3_1x1_reduce
I0621 16:02:19.529592  5496 net.cpp:106] Creating Layer conv3_3_1x1_reduce
I0621 16:02:19.529597  5496 net.cpp:454] conv3_3_1x1_reduce <- conv3_2_conv3_2/relu_0_split_0
I0621 16:02:19.529603  5496 net.cpp:411] conv3_3_1x1_reduce -> conv3_3_1x1_reduce
I0621 16:02:19.531595  5496 net.cpp:150] Setting up conv3_3_1x1_reduce
I0621 16:02:19.531605  5496 net.cpp:157] Top shape: 1 128 60 60 (460800)
I0621 16:02:19.531608  5496 net.cpp:165] Memory required for data: 696555800
I0621 16:02:19.531615  5496 layer_factory.hpp:77] Creating layer conv3_3_1x1_reduce/bn
I0621 16:02:19.531622  5496 net.cpp:106] Creating Layer conv3_3_1x1_reduce/bn
I0621 16:02:19.531627  5496 net.cpp:454] conv3_3_1x1_reduce/bn <- conv3_3_1x1_reduce
I0621 16:02:19.531633  5496 net.cpp:397] conv3_3_1x1_reduce/bn -> conv3_3_1x1_reduce (in-place)
I0621 16:02:19.531803  5496 net.cpp:150] Setting up conv3_3_1x1_reduce/bn
I0621 16:02:19.531810  5496 net.cpp:157] Top shape: 1 128 60 60 (460800)
I0621 16:02:19.531814  5496 net.cpp:165] Memory required for data: 698399000
I0621 16:02:19.531822  5496 layer_factory.hpp:77] Creating layer conv3_3_1x1_reduce/relu
I0621 16:02:19.531828  5496 net.cpp:106] Creating Layer conv3_3_1x1_reduce/relu
I0621 16:02:19.531832  5496 net.cpp:454] conv3_3_1x1_reduce/relu <- conv3_3_1x1_reduce
I0621 16:02:19.531837  5496 net.cpp:397] conv3_3_1x1_reduce/relu -> conv3_3_1x1_reduce (in-place)
I0621 16:02:19.531843  5496 net.cpp:150] Setting up conv3_3_1x1_reduce/relu
I0621 16:02:19.531848  5496 net.cpp:157] Top shape: 1 128 60 60 (460800)
I0621 16:02:19.531852  5496 net.cpp:165] Memory required for data: 700242200
I0621 16:02:19.531857  5496 layer_factory.hpp:77] Creating layer conv3_3_3x3
I0621 16:02:19.531864  5496 net.cpp:106] Creating Layer conv3_3_3x3
I0621 16:02:19.531867  5496 net.cpp:454] conv3_3_3x3 <- conv3_3_1x1_reduce
I0621 16:02:19.531874  5496 net.cpp:411] conv3_3_3x3 -> conv3_3_3x3
I0621 16:02:19.536222  5496 net.cpp:150] Setting up conv3_3_3x3
I0621 16:02:19.536288  5496 net.cpp:157] Top shape: 1 128 60 60 (460800)
I0621 16:02:19.536293  5496 net.cpp:165] Memory required for data: 702085400
I0621 16:02:19.536309  5496 layer_factory.hpp:77] Creating layer conv3_3_3x3/bn
I0621 16:02:19.536329  5496 net.cpp:106] Creating Layer conv3_3_3x3/bn
I0621 16:02:19.536336  5496 net.cpp:454] conv3_3_3x3/bn <- conv3_3_3x3
I0621 16:02:19.536346  5496 net.cpp:397] conv3_3_3x3/bn -> conv3_3_3x3 (in-place)
I0621 16:02:19.536586  5496 net.cpp:150] Setting up conv3_3_3x3/bn
I0621 16:02:19.536594  5496 net.cpp:157] Top shape: 1 128 60 60 (460800)
I0621 16:02:19.536599  5496 net.cpp:165] Memory required for data: 703928600
I0621 16:02:19.536608  5496 layer_factory.hpp:77] Creating layer conv3_3_3x3/relu
I0621 16:02:19.536619  5496 net.cpp:106] Creating Layer conv3_3_3x3/relu
I0621 16:02:19.536623  5496 net.cpp:454] conv3_3_3x3/relu <- conv3_3_3x3
I0621 16:02:19.536628  5496 net.cpp:397] conv3_3_3x3/relu -> conv3_3_3x3 (in-place)
I0621 16:02:19.536634  5496 net.cpp:150] Setting up conv3_3_3x3/relu
I0621 16:02:19.536639  5496 net.cpp:157] Top shape: 1 128 60 60 (460800)
I0621 16:02:19.536643  5496 net.cpp:165] Memory required for data: 705771800
I0621 16:02:19.536648  5496 layer_factory.hpp:77] Creating layer conv3_3_1x1_increase
I0621 16:02:19.536661  5496 net.cpp:106] Creating Layer conv3_3_1x1_increase
I0621 16:02:19.536665  5496 net.cpp:454] conv3_3_1x1_increase <- conv3_3_3x3
I0621 16:02:19.536674  5496 net.cpp:411] conv3_3_1x1_increase -> conv3_3_1x1_increase
I0621 16:02:19.538700  5496 net.cpp:150] Setting up conv3_3_1x1_increase
I0621 16:02:19.538712  5496 net.cpp:157] Top shape: 1 512 60 60 (1843200)
I0621 16:02:19.538717  5496 net.cpp:165] Memory required for data: 713144600
I0621 16:02:19.538722  5496 layer_factory.hpp:77] Creating layer conv3_3_1x1_increase/bn
I0621 16:02:19.538729  5496 net.cpp:106] Creating Layer conv3_3_1x1_increase/bn
I0621 16:02:19.538734  5496 net.cpp:454] conv3_3_1x1_increase/bn <- conv3_3_1x1_increase
I0621 16:02:19.538740  5496 net.cpp:397] conv3_3_1x1_increase/bn -> conv3_3_1x1_increase (in-place)
I0621 16:02:19.538918  5496 net.cpp:150] Setting up conv3_3_1x1_increase/bn
I0621 16:02:19.538924  5496 net.cpp:157] Top shape: 1 512 60 60 (1843200)
I0621 16:02:19.538928  5496 net.cpp:165] Memory required for data: 720517400
I0621 16:02:19.538936  5496 layer_factory.hpp:77] Creating layer conv3_3
I0621 16:02:19.538942  5496 net.cpp:106] Creating Layer conv3_3
I0621 16:02:19.538946  5496 net.cpp:454] conv3_3 <- conv3_2_conv3_2/relu_0_split_1
I0621 16:02:19.538951  5496 net.cpp:454] conv3_3 <- conv3_3_1x1_increase
I0621 16:02:19.538957  5496 net.cpp:411] conv3_3 -> conv3_3
I0621 16:02:19.538975  5496 net.cpp:150] Setting up conv3_3
I0621 16:02:19.538980  5496 net.cpp:157] Top shape: 1 512 60 60 (1843200)
I0621 16:02:19.538985  5496 net.cpp:165] Memory required for data: 727890200
I0621 16:02:19.538987  5496 layer_factory.hpp:77] Creating layer conv3_3/relu
I0621 16:02:19.538992  5496 net.cpp:106] Creating Layer conv3_3/relu
I0621 16:02:19.538996  5496 net.cpp:454] conv3_3/relu <- conv3_3
I0621 16:02:19.539003  5496 net.cpp:397] conv3_3/relu -> conv3_3 (in-place)
I0621 16:02:19.539011  5496 net.cpp:150] Setting up conv3_3/relu
I0621 16:02:19.539016  5496 net.cpp:157] Top shape: 1 512 60 60 (1843200)
I0621 16:02:19.539019  5496 net.cpp:165] Memory required for data: 735263000
I0621 16:02:19.539023  5496 layer_factory.hpp:77] Creating layer conv3_3_conv3_3/relu_0_split
I0621 16:02:19.539031  5496 net.cpp:106] Creating Layer conv3_3_conv3_3/relu_0_split
I0621 16:02:19.539034  5496 net.cpp:454] conv3_3_conv3_3/relu_0_split <- conv3_3
I0621 16:02:19.539041  5496 net.cpp:411] conv3_3_conv3_3/relu_0_split -> conv3_3_conv3_3/relu_0_split_0
I0621 16:02:19.539047  5496 net.cpp:411] conv3_3_conv3_3/relu_0_split -> conv3_3_conv3_3/relu_0_split_1
I0621 16:02:19.539079  5496 net.cpp:150] Setting up conv3_3_conv3_3/relu_0_split
I0621 16:02:19.539088  5496 net.cpp:157] Top shape: 1 512 60 60 (1843200)
I0621 16:02:19.539093  5496 net.cpp:157] Top shape: 1 512 60 60 (1843200)
I0621 16:02:19.539096  5496 net.cpp:165] Memory required for data: 750008600
I0621 16:02:19.539099  5496 layer_factory.hpp:77] Creating layer conv3_4_1x1_reduce
I0621 16:02:19.539110  5496 net.cpp:106] Creating Layer conv3_4_1x1_reduce
I0621 16:02:19.539115  5496 net.cpp:454] conv3_4_1x1_reduce <- conv3_3_conv3_3/relu_0_split_0
I0621 16:02:19.539121  5496 net.cpp:411] conv3_4_1x1_reduce -> conv3_4_1x1_reduce
I0621 16:02:19.540964  5496 net.cpp:150] Setting up conv3_4_1x1_reduce
I0621 16:02:19.540971  5496 net.cpp:157] Top shape: 1 128 60 60 (460800)
I0621 16:02:19.540973  5496 net.cpp:165] Memory required for data: 751851800
I0621 16:02:19.540977  5496 layer_factory.hpp:77] Creating layer conv3_4_1x1_reduce/bn
I0621 16:02:19.540983  5496 net.cpp:106] Creating Layer conv3_4_1x1_reduce/bn
I0621 16:02:19.540987  5496 net.cpp:454] conv3_4_1x1_reduce/bn <- conv3_4_1x1_reduce
I0621 16:02:19.540990  5496 net.cpp:397] conv3_4_1x1_reduce/bn -> conv3_4_1x1_reduce (in-place)
I0621 16:02:19.541112  5496 net.cpp:150] Setting up conv3_4_1x1_reduce/bn
I0621 16:02:19.541116  5496 net.cpp:157] Top shape: 1 128 60 60 (460800)
I0621 16:02:19.541119  5496 net.cpp:165] Memory required for data: 753695000
I0621 16:02:19.541124  5496 layer_factory.hpp:77] Creating layer conv3_4_1x1_reduce/relu
I0621 16:02:19.541128  5496 net.cpp:106] Creating Layer conv3_4_1x1_reduce/relu
I0621 16:02:19.541131  5496 net.cpp:454] conv3_4_1x1_reduce/relu <- conv3_4_1x1_reduce
I0621 16:02:19.541134  5496 net.cpp:397] conv3_4_1x1_reduce/relu -> conv3_4_1x1_reduce (in-place)
I0621 16:02:19.541138  5496 net.cpp:150] Setting up conv3_4_1x1_reduce/relu
I0621 16:02:19.541141  5496 net.cpp:157] Top shape: 1 128 60 60 (460800)
I0621 16:02:19.541144  5496 net.cpp:165] Memory required for data: 755538200
I0621 16:02:19.541146  5496 layer_factory.hpp:77] Creating layer conv3_4_3x3
I0621 16:02:19.541152  5496 net.cpp:106] Creating Layer conv3_4_3x3
I0621 16:02:19.541154  5496 net.cpp:454] conv3_4_3x3 <- conv3_4_1x1_reduce
I0621 16:02:19.541158  5496 net.cpp:411] conv3_4_3x3 -> conv3_4_3x3
I0621 16:02:19.545212  5496 net.cpp:150] Setting up conv3_4_3x3
I0621 16:02:19.545225  5496 net.cpp:157] Top shape: 1 128 60 60 (460800)
I0621 16:02:19.545229  5496 net.cpp:165] Memory required for data: 757381400
I0621 16:02:19.545236  5496 layer_factory.hpp:77] Creating layer conv3_4_3x3/bn
I0621 16:02:19.545244  5496 net.cpp:106] Creating Layer conv3_4_3x3/bn
I0621 16:02:19.545248  5496 net.cpp:454] conv3_4_3x3/bn <- conv3_4_3x3
I0621 16:02:19.545255  5496 net.cpp:397] conv3_4_3x3/bn -> conv3_4_3x3 (in-place)
I0621 16:02:19.545423  5496 net.cpp:150] Setting up conv3_4_3x3/bn
I0621 16:02:19.545431  5496 net.cpp:157] Top shape: 1 128 60 60 (460800)
I0621 16:02:19.545435  5496 net.cpp:165] Memory required for data: 759224600
I0621 16:02:19.545442  5496 layer_factory.hpp:77] Creating layer conv3_4_3x3/relu
I0621 16:02:19.545449  5496 net.cpp:106] Creating Layer conv3_4_3x3/relu
I0621 16:02:19.545454  5496 net.cpp:454] conv3_4_3x3/relu <- conv3_4_3x3
I0621 16:02:19.545459  5496 net.cpp:397] conv3_4_3x3/relu -> conv3_4_3x3 (in-place)
I0621 16:02:19.545464  5496 net.cpp:150] Setting up conv3_4_3x3/relu
I0621 16:02:19.545469  5496 net.cpp:157] Top shape: 1 128 60 60 (460800)
I0621 16:02:19.545472  5496 net.cpp:165] Memory required for data: 761067800
I0621 16:02:19.545476  5496 layer_factory.hpp:77] Creating layer conv3_4_1x1_increase
I0621 16:02:19.545483  5496 net.cpp:106] Creating Layer conv3_4_1x1_increase
I0621 16:02:19.545487  5496 net.cpp:454] conv3_4_1x1_increase <- conv3_4_3x3
I0621 16:02:19.545493  5496 net.cpp:411] conv3_4_1x1_increase -> conv3_4_1x1_increase
I0621 16:02:19.547233  5496 net.cpp:150] Setting up conv3_4_1x1_increase
I0621 16:02:19.547247  5496 net.cpp:157] Top shape: 1 512 60 60 (1843200)
I0621 16:02:19.547250  5496 net.cpp:165] Memory required for data: 768440600
I0621 16:02:19.547255  5496 layer_factory.hpp:77] Creating layer conv3_4_1x1_increase/bn
I0621 16:02:19.547262  5496 net.cpp:106] Creating Layer conv3_4_1x1_increase/bn
I0621 16:02:19.547266  5496 net.cpp:454] conv3_4_1x1_increase/bn <- conv3_4_1x1_increase
I0621 16:02:19.547271  5496 net.cpp:397] conv3_4_1x1_increase/bn -> conv3_4_1x1_increase (in-place)
I0621 16:02:19.547412  5496 net.cpp:150] Setting up conv3_4_1x1_increase/bn
I0621 16:02:19.547417  5496 net.cpp:157] Top shape: 1 512 60 60 (1843200)
I0621 16:02:19.547420  5496 net.cpp:165] Memory required for data: 775813400
I0621 16:02:19.547443  5496 layer_factory.hpp:77] Creating layer conv3_4
I0621 16:02:19.547464  5496 net.cpp:106] Creating Layer conv3_4
I0621 16:02:19.547467  5496 net.cpp:454] conv3_4 <- conv3_3_conv3_3/relu_0_split_1
I0621 16:02:19.547472  5496 net.cpp:454] conv3_4 <- conv3_4_1x1_increase
I0621 16:02:19.547475  5496 net.cpp:411] conv3_4 -> conv3_4
I0621 16:02:19.547492  5496 net.cpp:150] Setting up conv3_4
I0621 16:02:19.547497  5496 net.cpp:157] Top shape: 1 512 60 60 (1843200)
I0621 16:02:19.547498  5496 net.cpp:165] Memory required for data: 783186200
I0621 16:02:19.547502  5496 layer_factory.hpp:77] Creating layer conv3_4/relu
I0621 16:02:19.551717  5496 net.cpp:106] Creating Layer conv3_4/relu
I0621 16:02:19.551753  5496 net.cpp:454] conv3_4/relu <- conv3_4
I0621 16:02:19.551766  5496 net.cpp:397] conv3_4/relu -> conv3_4 (in-place)
I0621 16:02:19.551784  5496 net.cpp:150] Setting up conv3_4/relu
I0621 16:02:19.551796  5496 net.cpp:157] Top shape: 1 512 60 60 (1843200)
I0621 16:02:19.551803  5496 net.cpp:165] Memory required for data: 790559000
I0621 16:02:19.551813  5496 layer_factory.hpp:77] Creating layer conv3_4_conv3_4/relu_0_split
I0621 16:02:19.551826  5496 net.cpp:106] Creating Layer conv3_4_conv3_4/relu_0_split
I0621 16:02:19.551833  5496 net.cpp:454] conv3_4_conv3_4/relu_0_split <- conv3_4
I0621 16:02:19.551844  5496 net.cpp:411] conv3_4_conv3_4/relu_0_split -> conv3_4_conv3_4/relu_0_split_0
I0621 16:02:19.551854  5496 net.cpp:411] conv3_4_conv3_4/relu_0_split -> conv3_4_conv3_4/relu_0_split_1
I0621 16:02:19.551996  5496 net.cpp:150] Setting up conv3_4_conv3_4/relu_0_split
I0621 16:02:19.552012  5496 net.cpp:157] Top shape: 1 512 60 60 (1843200)
I0621 16:02:19.552019  5496 net.cpp:157] Top shape: 1 512 60 60 (1843200)
I0621 16:02:19.552026  5496 net.cpp:165] Memory required for data: 805304600
I0621 16:02:19.552031  5496 layer_factory.hpp:77] Creating layer conv4_1_1x1_reduce
I0621 16:02:19.552047  5496 net.cpp:106] Creating Layer conv4_1_1x1_reduce
I0621 16:02:19.552054  5496 net.cpp:454] conv4_1_1x1_reduce <- conv3_4_conv3_4/relu_0_split_0
I0621 16:02:19.552065  5496 net.cpp:411] conv4_1_1x1_reduce -> conv4_1_1x1_reduce
I0621 16:02:19.556481  5496 net.cpp:150] Setting up conv4_1_1x1_reduce
I0621 16:02:19.556556  5496 net.cpp:157] Top shape: 1 256 60 60 (921600)
I0621 16:02:19.556565  5496 net.cpp:165] Memory required for data: 808991000
I0621 16:02:19.556582  5496 layer_factory.hpp:77] Creating layer conv4_1_1x1_reduce/bn
I0621 16:02:19.556613  5496 net.cpp:106] Creating Layer conv4_1_1x1_reduce/bn
I0621 16:02:19.556624  5496 net.cpp:454] conv4_1_1x1_reduce/bn <- conv4_1_1x1_reduce
I0621 16:02:19.556641  5496 net.cpp:397] conv4_1_1x1_reduce/bn -> conv4_1_1x1_reduce (in-place)
I0621 16:02:19.556911  5496 net.cpp:150] Setting up conv4_1_1x1_reduce/bn
I0621 16:02:19.556922  5496 net.cpp:157] Top shape: 1 256 60 60 (921600)
I0621 16:02:19.556928  5496 net.cpp:165] Memory required for data: 812677400
I0621 16:02:19.556957  5496 layer_factory.hpp:77] Creating layer conv4_1_1x1_reduce/relu
I0621 16:02:19.556974  5496 net.cpp:106] Creating Layer conv4_1_1x1_reduce/relu
I0621 16:02:19.556980  5496 net.cpp:454] conv4_1_1x1_reduce/relu <- conv4_1_1x1_reduce
I0621 16:02:19.556988  5496 net.cpp:397] conv4_1_1x1_reduce/relu -> conv4_1_1x1_reduce (in-place)
I0621 16:02:19.556998  5496 net.cpp:150] Setting up conv4_1_1x1_reduce/relu
I0621 16:02:19.557004  5496 net.cpp:157] Top shape: 1 256 60 60 (921600)
I0621 16:02:19.557010  5496 net.cpp:165] Memory required for data: 816363800
I0621 16:02:19.557018  5496 layer_factory.hpp:77] Creating layer conv4_1_3x3
I0621 16:02:19.557035  5496 net.cpp:106] Creating Layer conv4_1_3x3
I0621 16:02:19.557041  5496 net.cpp:454] conv4_1_3x3 <- conv4_1_1x1_reduce
I0621 16:02:19.557051  5496 net.cpp:411] conv4_1_3x3 -> conv4_1_3x3
I0621 16:02:19.573127  5496 net.cpp:150] Setting up conv4_1_3x3
I0621 16:02:19.573163  5496 net.cpp:157] Top shape: 1 256 60 60 (921600)
I0621 16:02:19.573166  5496 net.cpp:165] Memory required for data: 820050200
I0621 16:02:19.573175  5496 layer_factory.hpp:77] Creating layer conv4_1_3x3/bn
I0621 16:02:19.573204  5496 net.cpp:106] Creating Layer conv4_1_3x3/bn
I0621 16:02:19.573210  5496 net.cpp:454] conv4_1_3x3/bn <- conv4_1_3x3
I0621 16:02:19.573213  5496 net.cpp:397] conv4_1_3x3/bn -> conv4_1_3x3 (in-place)
I0621 16:02:19.573356  5496 net.cpp:150] Setting up conv4_1_3x3/bn
I0621 16:02:19.573361  5496 net.cpp:157] Top shape: 1 256 60 60 (921600)
I0621 16:02:19.573364  5496 net.cpp:165] Memory required for data: 823736600
I0621 16:02:19.573369  5496 layer_factory.hpp:77] Creating layer conv4_1_3x3/relu
I0621 16:02:19.573374  5496 net.cpp:106] Creating Layer conv4_1_3x3/relu
I0621 16:02:19.573377  5496 net.cpp:454] conv4_1_3x3/relu <- conv4_1_3x3
I0621 16:02:19.573380  5496 net.cpp:397] conv4_1_3x3/relu -> conv4_1_3x3 (in-place)
I0621 16:02:19.573385  5496 net.cpp:150] Setting up conv4_1_3x3/relu
I0621 16:02:19.573387  5496 net.cpp:157] Top shape: 1 256 60 60 (921600)
I0621 16:02:19.573390  5496 net.cpp:165] Memory required for data: 827423000
I0621 16:02:19.573392  5496 layer_factory.hpp:77] Creating layer conv4_1_1x1_increase
I0621 16:02:19.573400  5496 net.cpp:106] Creating Layer conv4_1_1x1_increase
I0621 16:02:19.573402  5496 net.cpp:454] conv4_1_1x1_increase <- conv4_1_3x3
I0621 16:02:19.573406  5496 net.cpp:411] conv4_1_1x1_increase -> conv4_1_1x1_increase
I0621 16:02:19.579881  5496 net.cpp:150] Setting up conv4_1_1x1_increase
I0621 16:02:19.579895  5496 net.cpp:157] Top shape: 1 1024 60 60 (3686400)
I0621 16:02:19.579898  5496 net.cpp:165] Memory required for data: 842168600
I0621 16:02:19.579903  5496 layer_factory.hpp:77] Creating layer conv4_1_1x1_increase/bn
I0621 16:02:19.579911  5496 net.cpp:106] Creating Layer conv4_1_1x1_increase/bn
I0621 16:02:19.579916  5496 net.cpp:454] conv4_1_1x1_increase/bn <- conv4_1_1x1_increase
I0621 16:02:19.579921  5496 net.cpp:397] conv4_1_1x1_increase/bn -> conv4_1_1x1_increase (in-place)
I0621 16:02:19.580061  5496 net.cpp:150] Setting up conv4_1_1x1_increase/bn
I0621 16:02:19.580065  5496 net.cpp:157] Top shape: 1 1024 60 60 (3686400)
I0621 16:02:19.580068  5496 net.cpp:165] Memory required for data: 856914200
I0621 16:02:19.580073  5496 layer_factory.hpp:77] Creating layer conv4_1_1x1_proj
I0621 16:02:19.580080  5496 net.cpp:106] Creating Layer conv4_1_1x1_proj
I0621 16:02:19.580083  5496 net.cpp:454] conv4_1_1x1_proj <- conv3_4_conv3_4/relu_0_split_1
I0621 16:02:19.580088  5496 net.cpp:411] conv4_1_1x1_proj -> conv4_1_1x1_proj
I0621 16:02:19.592989  5496 net.cpp:150] Setting up conv4_1_1x1_proj
I0621 16:02:19.593022  5496 net.cpp:157] Top shape: 1 1024 60 60 (3686400)
I0621 16:02:19.593025  5496 net.cpp:165] Memory required for data: 871659800
I0621 16:02:19.593034  5496 layer_factory.hpp:77] Creating layer conv4_1_1x1_proj/bn
I0621 16:02:19.593050  5496 net.cpp:106] Creating Layer conv4_1_1x1_proj/bn
I0621 16:02:19.593060  5496 net.cpp:454] conv4_1_1x1_proj/bn <- conv4_1_1x1_proj
I0621 16:02:19.593068  5496 net.cpp:397] conv4_1_1x1_proj/bn -> conv4_1_1x1_proj (in-place)
I0621 16:02:19.593230  5496 net.cpp:150] Setting up conv4_1_1x1_proj/bn
I0621 16:02:19.593235  5496 net.cpp:157] Top shape: 1 1024 60 60 (3686400)
I0621 16:02:19.593238  5496 net.cpp:165] Memory required for data: 886405400
I0621 16:02:19.593245  5496 layer_factory.hpp:77] Creating layer conv4_1
I0621 16:02:19.593250  5496 net.cpp:106] Creating Layer conv4_1
I0621 16:02:19.593253  5496 net.cpp:454] conv4_1 <- conv4_1_1x1_proj
I0621 16:02:19.593260  5496 net.cpp:454] conv4_1 <- conv4_1_1x1_increase
I0621 16:02:19.593263  5496 net.cpp:411] conv4_1 -> conv4_1
I0621 16:02:19.593279  5496 net.cpp:150] Setting up conv4_1
I0621 16:02:19.593283  5496 net.cpp:157] Top shape: 1 1024 60 60 (3686400)
I0621 16:02:19.593286  5496 net.cpp:165] Memory required for data: 901151000
I0621 16:02:19.593288  5496 layer_factory.hpp:77] Creating layer conv4_1/relu
I0621 16:02:19.593293  5496 net.cpp:106] Creating Layer conv4_1/relu
I0621 16:02:19.593297  5496 net.cpp:454] conv4_1/relu <- conv4_1
I0621 16:02:19.593302  5496 net.cpp:397] conv4_1/relu -> conv4_1 (in-place)
I0621 16:02:19.593305  5496 net.cpp:150] Setting up conv4_1/relu
I0621 16:02:19.593338  5496 net.cpp:157] Top shape: 1 1024 60 60 (3686400)
I0621 16:02:19.593339  5496 net.cpp:165] Memory required for data: 915896600
I0621 16:02:19.593343  5496 layer_factory.hpp:77] Creating layer conv4_1_conv4_1/relu_0_split
I0621 16:02:19.593348  5496 net.cpp:106] Creating Layer conv4_1_conv4_1/relu_0_split
I0621 16:02:19.593349  5496 net.cpp:454] conv4_1_conv4_1/relu_0_split <- conv4_1
I0621 16:02:19.593353  5496 net.cpp:411] conv4_1_conv4_1/relu_0_split -> conv4_1_conv4_1/relu_0_split_0
I0621 16:02:19.593358  5496 net.cpp:411] conv4_1_conv4_1/relu_0_split -> conv4_1_conv4_1/relu_0_split_1
I0621 16:02:19.593381  5496 net.cpp:150] Setting up conv4_1_conv4_1/relu_0_split
I0621 16:02:19.593385  5496 net.cpp:157] Top shape: 1 1024 60 60 (3686400)
I0621 16:02:19.593389  5496 net.cpp:157] Top shape: 1 1024 60 60 (3686400)
I0621 16:02:19.593390  5496 net.cpp:165] Memory required for data: 945387800
I0621 16:02:19.593392  5496 layer_factory.hpp:77] Creating layer conv4_2_1x1_reduce
I0621 16:02:19.593403  5496 net.cpp:106] Creating Layer conv4_2_1x1_reduce
I0621 16:02:19.593406  5496 net.cpp:454] conv4_2_1x1_reduce <- conv4_1_conv4_1/relu_0_split_0
I0621 16:02:19.593422  5496 net.cpp:411] conv4_2_1x1_reduce -> conv4_2_1x1_reduce
I0621 16:02:19.599253  5496 net.cpp:150] Setting up conv4_2_1x1_reduce
I0621 16:02:19.599262  5496 net.cpp:157] Top shape: 1 256 60 60 (921600)
I0621 16:02:19.599265  5496 net.cpp:165] Memory required for data: 949074200
I0621 16:02:19.599269  5496 layer_factory.hpp:77] Creating layer conv4_2_1x1_reduce/bn
I0621 16:02:19.599275  5496 net.cpp:106] Creating Layer conv4_2_1x1_reduce/bn
I0621 16:02:19.599278  5496 net.cpp:454] conv4_2_1x1_reduce/bn <- conv4_2_1x1_reduce
I0621 16:02:19.599282  5496 net.cpp:397] conv4_2_1x1_reduce/bn -> conv4_2_1x1_reduce (in-place)
I0621 16:02:19.599408  5496 net.cpp:150] Setting up conv4_2_1x1_reduce/bn
I0621 16:02:19.599413  5496 net.cpp:157] Top shape: 1 256 60 60 (921600)
I0621 16:02:19.599416  5496 net.cpp:165] Memory required for data: 952760600
I0621 16:02:19.599421  5496 layer_factory.hpp:77] Creating layer conv4_2_1x1_reduce/relu
I0621 16:02:19.599426  5496 net.cpp:106] Creating Layer conv4_2_1x1_reduce/relu
I0621 16:02:19.599428  5496 net.cpp:454] conv4_2_1x1_reduce/relu <- conv4_2_1x1_reduce
I0621 16:02:19.599431  5496 net.cpp:397] conv4_2_1x1_reduce/relu -> conv4_2_1x1_reduce (in-place)
I0621 16:02:19.599436  5496 net.cpp:150] Setting up conv4_2_1x1_reduce/relu
I0621 16:02:19.599438  5496 net.cpp:157] Top shape: 1 256 60 60 (921600)
I0621 16:02:19.599442  5496 net.cpp:165] Memory required for data: 956447000
I0621 16:02:19.599443  5496 layer_factory.hpp:77] Creating layer conv4_2_3x3
I0621 16:02:19.599449  5496 net.cpp:106] Creating Layer conv4_2_3x3
I0621 16:02:19.599452  5496 net.cpp:454] conv4_2_3x3 <- conv4_2_1x1_reduce
I0621 16:02:19.599457  5496 net.cpp:411] conv4_2_3x3 -> conv4_2_3x3
I0621 16:02:19.615411  5496 net.cpp:150] Setting up conv4_2_3x3
I0621 16:02:19.615473  5496 net.cpp:157] Top shape: 1 256 60 60 (921600)
I0621 16:02:19.615479  5496 net.cpp:165] Memory required for data: 960133400
I0621 16:02:19.615495  5496 layer_factory.hpp:77] Creating layer conv4_2_3x3/bn
I0621 16:02:19.615516  5496 net.cpp:106] Creating Layer conv4_2_3x3/bn
I0621 16:02:19.615527  5496 net.cpp:454] conv4_2_3x3/bn <- conv4_2_3x3
I0621 16:02:19.615541  5496 net.cpp:397] conv4_2_3x3/bn -> conv4_2_3x3 (in-place)
I0621 16:02:19.615768  5496 net.cpp:150] Setting up conv4_2_3x3/bn
I0621 16:02:19.615777  5496 net.cpp:157] Top shape: 1 256 60 60 (921600)
I0621 16:02:19.615784  5496 net.cpp:165] Memory required for data: 963819800
I0621 16:02:19.615795  5496 layer_factory.hpp:77] Creating layer conv4_2_3x3/relu
I0621 16:02:19.615804  5496 net.cpp:106] Creating Layer conv4_2_3x3/relu
I0621 16:02:19.615808  5496 net.cpp:454] conv4_2_3x3/relu <- conv4_2_3x3
I0621 16:02:19.615813  5496 net.cpp:397] conv4_2_3x3/relu -> conv4_2_3x3 (in-place)
I0621 16:02:19.615819  5496 net.cpp:150] Setting up conv4_2_3x3/relu
I0621 16:02:19.615823  5496 net.cpp:157] Top shape: 1 256 60 60 (921600)
I0621 16:02:19.615880  5496 net.cpp:165] Memory required for data: 967506200
I0621 16:02:19.615885  5496 layer_factory.hpp:77] Creating layer conv4_2_1x1_increase
I0621 16:02:19.615895  5496 net.cpp:106] Creating Layer conv4_2_1x1_increase
I0621 16:02:19.615897  5496 net.cpp:454] conv4_2_1x1_increase <- conv4_2_3x3
I0621 16:02:19.615902  5496 net.cpp:411] conv4_2_1x1_increase -> conv4_2_1x1_increase
I0621 16:02:19.622915  5496 net.cpp:150] Setting up conv4_2_1x1_increase
I0621 16:02:19.622977  5496 net.cpp:157] Top shape: 1 1024 60 60 (3686400)
I0621 16:02:19.622983  5496 net.cpp:165] Memory required for data: 982251800
I0621 16:02:19.622998  5496 layer_factory.hpp:77] Creating layer conv4_2_1x1_increase/bn
I0621 16:02:19.623018  5496 net.cpp:106] Creating Layer conv4_2_1x1_increase/bn
I0621 16:02:19.623025  5496 net.cpp:454] conv4_2_1x1_increase/bn <- conv4_2_1x1_increase
I0621 16:02:19.623036  5496 net.cpp:397] conv4_2_1x1_increase/bn -> conv4_2_1x1_increase (in-place)
I0621 16:02:19.623229  5496 net.cpp:150] Setting up conv4_2_1x1_increase/bn
I0621 16:02:19.623234  5496 net.cpp:157] Top shape: 1 1024 60 60 (3686400)
I0621 16:02:19.623236  5496 net.cpp:165] Memory required for data: 996997400
I0621 16:02:19.623242  5496 layer_factory.hpp:77] Creating layer conv4_2
I0621 16:02:19.623250  5496 net.cpp:106] Creating Layer conv4_2
I0621 16:02:19.623253  5496 net.cpp:454] conv4_2 <- conv4_1_conv4_1/relu_0_split_1
I0621 16:02:19.623257  5496 net.cpp:454] conv4_2 <- conv4_2_1x1_increase
I0621 16:02:19.623261  5496 net.cpp:411] conv4_2 -> conv4_2
I0621 16:02:19.623280  5496 net.cpp:150] Setting up conv4_2
I0621 16:02:19.623283  5496 net.cpp:157] Top shape: 1 1024 60 60 (3686400)
I0621 16:02:19.623286  5496 net.cpp:165] Memory required for data: 1011743000
I0621 16:02:19.623288  5496 layer_factory.hpp:77] Creating layer conv4_2/relu
I0621 16:02:19.623296  5496 net.cpp:106] Creating Layer conv4_2/relu
I0621 16:02:19.623298  5496 net.cpp:454] conv4_2/relu <- conv4_2
I0621 16:02:19.623301  5496 net.cpp:397] conv4_2/relu -> conv4_2 (in-place)
I0621 16:02:19.623306  5496 net.cpp:150] Setting up conv4_2/relu
I0621 16:02:19.623309  5496 net.cpp:157] Top shape: 1 1024 60 60 (3686400)
I0621 16:02:19.623312  5496 net.cpp:165] Memory required for data: 1026488600
I0621 16:02:19.623316  5496 layer_factory.hpp:77] Creating layer conv4_2_conv4_2/relu_0_split
I0621 16:02:19.623322  5496 net.cpp:106] Creating Layer conv4_2_conv4_2/relu_0_split
I0621 16:02:19.623324  5496 net.cpp:454] conv4_2_conv4_2/relu_0_split <- conv4_2
I0621 16:02:19.623327  5496 net.cpp:411] conv4_2_conv4_2/relu_0_split -> conv4_2_conv4_2/relu_0_split_0
I0621 16:02:19.623344  5496 net.cpp:411] conv4_2_conv4_2/relu_0_split -> conv4_2_conv4_2/relu_0_split_1
I0621 16:02:19.623368  5496 net.cpp:150] Setting up conv4_2_conv4_2/relu_0_split
I0621 16:02:19.623371  5496 net.cpp:157] Top shape: 1 1024 60 60 (3686400)
I0621 16:02:19.623375  5496 net.cpp:157] Top shape: 1 1024 60 60 (3686400)
I0621 16:02:19.623378  5496 net.cpp:165] Memory required for data: 1055979800
I0621 16:02:19.623380  5496 layer_factory.hpp:77] Creating layer conv4_3_1x1_reduce
I0621 16:02:19.623389  5496 net.cpp:106] Creating Layer conv4_3_1x1_reduce
I0621 16:02:19.623392  5496 net.cpp:454] conv4_3_1x1_reduce <- conv4_2_conv4_2/relu_0_split_0
I0621 16:02:19.623396  5496 net.cpp:411] conv4_3_1x1_reduce -> conv4_3_1x1_reduce
I0621 16:02:19.629276  5496 net.cpp:150] Setting up conv4_3_1x1_reduce
I0621 16:02:19.629286  5496 net.cpp:157] Top shape: 1 256 60 60 (921600)
I0621 16:02:19.629288  5496 net.cpp:165] Memory required for data: 1059666200
I0621 16:02:19.629292  5496 layer_factory.hpp:77] Creating layer conv4_3_1x1_reduce/bn
I0621 16:02:19.629297  5496 net.cpp:106] Creating Layer conv4_3_1x1_reduce/bn
I0621 16:02:19.629299  5496 net.cpp:454] conv4_3_1x1_reduce/bn <- conv4_3_1x1_reduce
I0621 16:02:19.629302  5496 net.cpp:397] conv4_3_1x1_reduce/bn -> conv4_3_1x1_reduce (in-place)
I0621 16:02:19.629426  5496 net.cpp:150] Setting up conv4_3_1x1_reduce/bn
I0621 16:02:19.629431  5496 net.cpp:157] Top shape: 1 256 60 60 (921600)
I0621 16:02:19.629448  5496 net.cpp:165] Memory required for data: 1063352600
I0621 16:02:19.629453  5496 layer_factory.hpp:77] Creating layer conv4_3_1x1_reduce/relu
I0621 16:02:19.629458  5496 net.cpp:106] Creating Layer conv4_3_1x1_reduce/relu
I0621 16:02:19.629462  5496 net.cpp:454] conv4_3_1x1_reduce/relu <- conv4_3_1x1_reduce
I0621 16:02:19.629464  5496 net.cpp:397] conv4_3_1x1_reduce/relu -> conv4_3_1x1_reduce (in-place)
I0621 16:02:19.629468  5496 net.cpp:150] Setting up conv4_3_1x1_reduce/relu
I0621 16:02:19.629472  5496 net.cpp:157] Top shape: 1 256 60 60 (921600)
I0621 16:02:19.629474  5496 net.cpp:165] Memory required for data: 1067039000
I0621 16:02:19.629477  5496 layer_factory.hpp:77] Creating layer conv4_3_3x3
I0621 16:02:19.629487  5496 net.cpp:106] Creating Layer conv4_3_3x3
I0621 16:02:19.629489  5496 net.cpp:454] conv4_3_3x3 <- conv4_3_1x1_reduce
I0621 16:02:19.629494  5496 net.cpp:411] conv4_3_3x3 -> conv4_3_3x3
I0621 16:02:19.642623  5496 net.cpp:150] Setting up conv4_3_3x3
I0621 16:02:19.642644  5496 net.cpp:157] Top shape: 1 256 60 60 (921600)
I0621 16:02:19.642647  5496 net.cpp:165] Memory required for data: 1070725400
I0621 16:02:19.642653  5496 layer_factory.hpp:77] Creating layer conv4_3_3x3/bn
I0621 16:02:19.642662  5496 net.cpp:106] Creating Layer conv4_3_3x3/bn
I0621 16:02:19.642666  5496 net.cpp:454] conv4_3_3x3/bn <- conv4_3_3x3
I0621 16:02:19.642670  5496 net.cpp:397] conv4_3_3x3/bn -> conv4_3_3x3 (in-place)
I0621 16:02:19.642808  5496 net.cpp:150] Setting up conv4_3_3x3/bn
I0621 16:02:19.642813  5496 net.cpp:157] Top shape: 1 256 60 60 (921600)
I0621 16:02:19.642815  5496 net.cpp:165] Memory required for data: 1074411800
I0621 16:02:19.642820  5496 layer_factory.hpp:77] Creating layer conv4_3_3x3/relu
I0621 16:02:19.642823  5496 net.cpp:106] Creating Layer conv4_3_3x3/relu
I0621 16:02:19.642827  5496 net.cpp:454] conv4_3_3x3/relu <- conv4_3_3x3
I0621 16:02:19.642828  5496 net.cpp:397] conv4_3_3x3/relu -> conv4_3_3x3 (in-place)
I0621 16:02:19.642832  5496 net.cpp:150] Setting up conv4_3_3x3/relu
I0621 16:02:19.642835  5496 net.cpp:157] Top shape: 1 256 60 60 (921600)
I0621 16:02:19.642838  5496 net.cpp:165] Memory required for data: 1078098200
I0621 16:02:19.642840  5496 layer_factory.hpp:77] Creating layer conv4_3_1x1_increase
I0621 16:02:19.642846  5496 net.cpp:106] Creating Layer conv4_3_1x1_increase
I0621 16:02:19.642848  5496 net.cpp:454] conv4_3_1x1_increase <- conv4_3_3x3
I0621 16:02:19.642853  5496 net.cpp:411] conv4_3_1x1_increase -> conv4_3_1x1_increase
I0621 16:02:19.649315  5496 net.cpp:150] Setting up conv4_3_1x1_increase
I0621 16:02:19.649332  5496 net.cpp:157] Top shape: 1 1024 60 60 (3686400)
I0621 16:02:19.649333  5496 net.cpp:165] Memory required for data: 1092843800
I0621 16:02:19.649338  5496 layer_factory.hpp:77] Creating layer conv4_3_1x1_increase/bn
I0621 16:02:19.649345  5496 net.cpp:106] Creating Layer conv4_3_1x1_increase/bn
I0621 16:02:19.649349  5496 net.cpp:454] conv4_3_1x1_increase/bn <- conv4_3_1x1_increase
I0621 16:02:19.649353  5496 net.cpp:397] conv4_3_1x1_increase/bn -> conv4_3_1x1_increase (in-place)
I0621 16:02:19.649507  5496 net.cpp:150] Setting up conv4_3_1x1_increase/bn
I0621 16:02:19.649511  5496 net.cpp:157] Top shape: 1 1024 60 60 (3686400)
I0621 16:02:19.649513  5496 net.cpp:165] Memory required for data: 1107589400
I0621 16:02:19.649518  5496 layer_factory.hpp:77] Creating layer conv4_3
I0621 16:02:19.649523  5496 net.cpp:106] Creating Layer conv4_3
I0621 16:02:19.649525  5496 net.cpp:454] conv4_3 <- conv4_2_conv4_2/relu_0_split_1
I0621 16:02:19.649528  5496 net.cpp:454] conv4_3 <- conv4_3_1x1_increase
I0621 16:02:19.649531  5496 net.cpp:411] conv4_3 -> conv4_3
I0621 16:02:19.649566  5496 net.cpp:150] Setting up conv4_3
I0621 16:02:19.649570  5496 net.cpp:157] Top shape: 1 1024 60 60 (3686400)
I0621 16:02:19.649572  5496 net.cpp:165] Memory required for data: 1122335000
I0621 16:02:19.649574  5496 layer_factory.hpp:77] Creating layer conv4_3/relu
I0621 16:02:19.649580  5496 net.cpp:106] Creating Layer conv4_3/relu
I0621 16:02:19.649596  5496 net.cpp:454] conv4_3/relu <- conv4_3
I0621 16:02:19.649600  5496 net.cpp:397] conv4_3/relu -> conv4_3 (in-place)
I0621 16:02:19.649605  5496 net.cpp:150] Setting up conv4_3/relu
I0621 16:02:19.649608  5496 net.cpp:157] Top shape: 1 1024 60 60 (3686400)
I0621 16:02:19.649610  5496 net.cpp:165] Memory required for data: 1137080600
I0621 16:02:19.649613  5496 layer_factory.hpp:77] Creating layer conv4_3_conv4_3/relu_0_split
I0621 16:02:19.649617  5496 net.cpp:106] Creating Layer conv4_3_conv4_3/relu_0_split
I0621 16:02:19.649621  5496 net.cpp:454] conv4_3_conv4_3/relu_0_split <- conv4_3
I0621 16:02:19.649623  5496 net.cpp:411] conv4_3_conv4_3/relu_0_split -> conv4_3_conv4_3/relu_0_split_0
I0621 16:02:19.649627  5496 net.cpp:411] conv4_3_conv4_3/relu_0_split -> conv4_3_conv4_3/relu_0_split_1
I0621 16:02:19.649648  5496 net.cpp:150] Setting up conv4_3_conv4_3/relu_0_split
I0621 16:02:19.649652  5496 net.cpp:157] Top shape: 1 1024 60 60 (3686400)
I0621 16:02:19.649657  5496 net.cpp:157] Top shape: 1 1024 60 60 (3686400)
I0621 16:02:19.649658  5496 net.cpp:165] Memory required for data: 1166571800
I0621 16:02:19.649660  5496 layer_factory.hpp:77] Creating layer conv4_4_1x1_reduce
I0621 16:02:19.649677  5496 net.cpp:106] Creating Layer conv4_4_1x1_reduce
I0621 16:02:19.649680  5496 net.cpp:454] conv4_4_1x1_reduce <- conv4_3_conv4_3/relu_0_split_0
I0621 16:02:19.649684  5496 net.cpp:411] conv4_4_1x1_reduce -> conv4_4_1x1_reduce
I0621 16:02:19.655347  5496 net.cpp:150] Setting up conv4_4_1x1_reduce
I0621 16:02:19.655364  5496 net.cpp:157] Top shape: 1 256 60 60 (921600)
I0621 16:02:19.655367  5496 net.cpp:165] Memory required for data: 1170258200
I0621 16:02:19.655376  5496 layer_factory.hpp:77] Creating layer conv4_4_1x1_reduce/bn
I0621 16:02:19.655387  5496 net.cpp:106] Creating Layer conv4_4_1x1_reduce/bn
I0621 16:02:19.655392  5496 net.cpp:454] conv4_4_1x1_reduce/bn <- conv4_4_1x1_reduce
I0621 16:02:19.655398  5496 net.cpp:397] conv4_4_1x1_reduce/bn -> conv4_4_1x1_reduce (in-place)
I0621 16:02:19.655539  5496 net.cpp:150] Setting up conv4_4_1x1_reduce/bn
I0621 16:02:19.655542  5496 net.cpp:157] Top shape: 1 256 60 60 (921600)
I0621 16:02:19.655545  5496 net.cpp:165] Memory required for data: 1173944600
I0621 16:02:19.655550  5496 layer_factory.hpp:77] Creating layer conv4_4_1x1_reduce/relu
I0621 16:02:19.655555  5496 net.cpp:106] Creating Layer conv4_4_1x1_reduce/relu
I0621 16:02:19.655557  5496 net.cpp:454] conv4_4_1x1_reduce/relu <- conv4_4_1x1_reduce
I0621 16:02:19.655560  5496 net.cpp:397] conv4_4_1x1_reduce/relu -> conv4_4_1x1_reduce (in-place)
I0621 16:02:19.655565  5496 net.cpp:150] Setting up conv4_4_1x1_reduce/relu
I0621 16:02:19.655568  5496 net.cpp:157] Top shape: 1 256 60 60 (921600)
I0621 16:02:19.655570  5496 net.cpp:165] Memory required for data: 1177631000
I0621 16:02:19.655573  5496 layer_factory.hpp:77] Creating layer conv4_4_3x3
I0621 16:02:19.655588  5496 net.cpp:106] Creating Layer conv4_4_3x3
I0621 16:02:19.655591  5496 net.cpp:454] conv4_4_3x3 <- conv4_4_1x1_reduce
I0621 16:02:19.655596  5496 net.cpp:411] conv4_4_3x3 -> conv4_4_3x3
I0621 16:02:19.668862  5496 net.cpp:150] Setting up conv4_4_3x3
I0621 16:02:19.668921  5496 net.cpp:157] Top shape: 1 256 60 60 (921600)
I0621 16:02:19.668926  5496 net.cpp:165] Memory required for data: 1181317400
I0621 16:02:19.668952  5496 layer_factory.hpp:77] Creating layer conv4_4_3x3/bn
I0621 16:02:19.668979  5496 net.cpp:106] Creating Layer conv4_4_3x3/bn
I0621 16:02:19.668987  5496 net.cpp:454] conv4_4_3x3/bn <- conv4_4_3x3
I0621 16:02:19.668993  5496 net.cpp:397] conv4_4_3x3/bn -> conv4_4_3x3 (in-place)
I0621 16:02:19.669180  5496 net.cpp:150] Setting up conv4_4_3x3/bn
I0621 16:02:19.669185  5496 net.cpp:157] Top shape: 1 256 60 60 (921600)
I0621 16:02:19.669188  5496 net.cpp:165] Memory required for data: 1185003800
I0621 16:02:19.669194  5496 layer_factory.hpp:77] Creating layer conv4_4_3x3/relu
I0621 16:02:19.669201  5496 net.cpp:106] Creating Layer conv4_4_3x3/relu
I0621 16:02:19.669204  5496 net.cpp:454] conv4_4_3x3/relu <- conv4_4_3x3
I0621 16:02:19.669245  5496 net.cpp:397] conv4_4_3x3/relu -> conv4_4_3x3 (in-place)
I0621 16:02:19.669250  5496 net.cpp:150] Setting up conv4_4_3x3/relu
I0621 16:02:19.669253  5496 net.cpp:157] Top shape: 1 256 60 60 (921600)
I0621 16:02:19.669256  5496 net.cpp:165] Memory required for data: 1188690200
I0621 16:02:19.669260  5496 layer_factory.hpp:77] Creating layer conv4_4_1x1_increase
I0621 16:02:19.669266  5496 net.cpp:106] Creating Layer conv4_4_1x1_increase
I0621 16:02:19.669270  5496 net.cpp:454] conv4_4_1x1_increase <- conv4_4_3x3
I0621 16:02:19.669276  5496 net.cpp:411] conv4_4_1x1_increase -> conv4_4_1x1_increase
I0621 16:02:19.676198  5496 net.cpp:150] Setting up conv4_4_1x1_increase
I0621 16:02:19.676251  5496 net.cpp:157] Top shape: 1 1024 60 60 (3686400)
I0621 16:02:19.676255  5496 net.cpp:165] Memory required for data: 1203435800
I0621 16:02:19.676272  5496 layer_factory.hpp:77] Creating layer conv4_4_1x1_increase/bn
I0621 16:02:19.676293  5496 net.cpp:106] Creating Layer conv4_4_1x1_increase/bn
I0621 16:02:19.676302  5496 net.cpp:454] conv4_4_1x1_increase/bn <- conv4_4_1x1_increase
I0621 16:02:19.676314  5496 net.cpp:397] conv4_4_1x1_increase/bn -> conv4_4_1x1_increase (in-place)
I0621 16:02:19.676615  5496 net.cpp:150] Setting up conv4_4_1x1_increase/bn
I0621 16:02:19.676626  5496 net.cpp:157] Top shape: 1 1024 60 60 (3686400)
I0621 16:02:19.676633  5496 net.cpp:165] Memory required for data: 1218181400
I0621 16:02:19.676643  5496 layer_factory.hpp:77] Creating layer conv4_4
I0621 16:02:19.676657  5496 net.cpp:106] Creating Layer conv4_4
I0621 16:02:19.676663  5496 net.cpp:454] conv4_4 <- conv4_3_conv4_3/relu_0_split_1
I0621 16:02:19.676669  5496 net.cpp:454] conv4_4 <- conv4_4_1x1_increase
I0621 16:02:19.676676  5496 net.cpp:411] conv4_4 -> conv4_4
I0621 16:02:19.676702  5496 net.cpp:150] Setting up conv4_4
I0621 16:02:19.676709  5496 net.cpp:157] Top shape: 1 1024 60 60 (3686400)
I0621 16:02:19.676714  5496 net.cpp:165] Memory required for data: 1232927000
I0621 16:02:19.676717  5496 layer_factory.hpp:77] Creating layer conv4_4/relu
I0621 16:02:19.676724  5496 net.cpp:106] Creating Layer conv4_4/relu
I0621 16:02:19.676728  5496 net.cpp:454] conv4_4/relu <- conv4_4
I0621 16:02:19.676733  5496 net.cpp:397] conv4_4/relu -> conv4_4 (in-place)
I0621 16:02:19.676738  5496 net.cpp:150] Setting up conv4_4/relu
I0621 16:02:19.676741  5496 net.cpp:157] Top shape: 1 1024 60 60 (3686400)
I0621 16:02:19.676744  5496 net.cpp:165] Memory required for data: 1247672600
I0621 16:02:19.676748  5496 layer_factory.hpp:77] Creating layer conv4_4_conv4_4/relu_0_split
I0621 16:02:19.676751  5496 net.cpp:106] Creating Layer conv4_4_conv4_4/relu_0_split
I0621 16:02:19.676754  5496 net.cpp:454] conv4_4_conv4_4/relu_0_split <- conv4_4
I0621 16:02:19.676759  5496 net.cpp:411] conv4_4_conv4_4/relu_0_split -> conv4_4_conv4_4/relu_0_split_0
I0621 16:02:19.676764  5496 net.cpp:411] conv4_4_conv4_4/relu_0_split -> conv4_4_conv4_4/relu_0_split_1
I0621 16:02:19.676785  5496 net.cpp:150] Setting up conv4_4_conv4_4/relu_0_split
I0621 16:02:19.676790  5496 net.cpp:157] Top shape: 1 1024 60 60 (3686400)
I0621 16:02:19.676795  5496 net.cpp:157] Top shape: 1 1024 60 60 (3686400)
I0621 16:02:19.676796  5496 net.cpp:165] Memory required for data: 1277163800
I0621 16:02:19.676800  5496 layer_factory.hpp:77] Creating layer conv4_5_1x1_reduce
I0621 16:02:19.676806  5496 net.cpp:106] Creating Layer conv4_5_1x1_reduce
I0621 16:02:19.676810  5496 net.cpp:454] conv4_5_1x1_reduce <- conv4_4_conv4_4/relu_0_split_0
I0621 16:02:19.676815  5496 net.cpp:411] conv4_5_1x1_reduce -> conv4_5_1x1_reduce
I0621 16:02:19.682925  5496 net.cpp:150] Setting up conv4_5_1x1_reduce
I0621 16:02:19.682948  5496 net.cpp:157] Top shape: 1 256 60 60 (921600)
I0621 16:02:19.682951  5496 net.cpp:165] Memory required for data: 1280850200
I0621 16:02:19.682956  5496 layer_factory.hpp:77] Creating layer conv4_5_1x1_reduce/bn
I0621 16:02:19.682967  5496 net.cpp:106] Creating Layer conv4_5_1x1_reduce/bn
I0621 16:02:19.682972  5496 net.cpp:454] conv4_5_1x1_reduce/bn <- conv4_5_1x1_reduce
I0621 16:02:19.683002  5496 net.cpp:397] conv4_5_1x1_reduce/bn -> conv4_5_1x1_reduce (in-place)
I0621 16:02:19.683148  5496 net.cpp:150] Setting up conv4_5_1x1_reduce/bn
I0621 16:02:19.683153  5496 net.cpp:157] Top shape: 1 256 60 60 (921600)
I0621 16:02:19.683156  5496 net.cpp:165] Memory required for data: 1284536600
I0621 16:02:19.683161  5496 layer_factory.hpp:77] Creating layer conv4_5_1x1_reduce/relu
I0621 16:02:19.683166  5496 net.cpp:106] Creating Layer conv4_5_1x1_reduce/relu
I0621 16:02:19.683167  5496 net.cpp:454] conv4_5_1x1_reduce/relu <- conv4_5_1x1_reduce
I0621 16:02:19.683169  5496 net.cpp:397] conv4_5_1x1_reduce/relu -> conv4_5_1x1_reduce (in-place)
I0621 16:02:19.683173  5496 net.cpp:150] Setting up conv4_5_1x1_reduce/relu
I0621 16:02:19.683176  5496 net.cpp:157] Top shape: 1 256 60 60 (921600)
I0621 16:02:19.683178  5496 net.cpp:165] Memory required for data: 1288223000
I0621 16:02:19.683182  5496 layer_factory.hpp:77] Creating layer conv4_5_3x3
I0621 16:02:19.683190  5496 net.cpp:106] Creating Layer conv4_5_3x3
I0621 16:02:19.683193  5496 net.cpp:454] conv4_5_3x3 <- conv4_5_1x1_reduce
I0621 16:02:19.683198  5496 net.cpp:411] conv4_5_3x3 -> conv4_5_3x3
I0621 16:02:19.696315  5496 net.cpp:150] Setting up conv4_5_3x3
I0621 16:02:19.696328  5496 net.cpp:157] Top shape: 1 256 60 60 (921600)
I0621 16:02:19.696331  5496 net.cpp:165] Memory required for data: 1291909400
I0621 16:02:19.696336  5496 layer_factory.hpp:77] Creating layer conv4_5_3x3/bn
I0621 16:02:19.696346  5496 net.cpp:106] Creating Layer conv4_5_3x3/bn
I0621 16:02:19.696351  5496 net.cpp:454] conv4_5_3x3/bn <- conv4_5_3x3
I0621 16:02:19.696357  5496 net.cpp:397] conv4_5_3x3/bn -> conv4_5_3x3 (in-place)
I0621 16:02:19.696497  5496 net.cpp:150] Setting up conv4_5_3x3/bn
I0621 16:02:19.696501  5496 net.cpp:157] Top shape: 1 256 60 60 (921600)
I0621 16:02:19.696504  5496 net.cpp:165] Memory required for data: 1295595800
I0621 16:02:19.696511  5496 layer_factory.hpp:77] Creating layer conv4_5_3x3/relu
I0621 16:02:19.696514  5496 net.cpp:106] Creating Layer conv4_5_3x3/relu
I0621 16:02:19.696517  5496 net.cpp:454] conv4_5_3x3/relu <- conv4_5_3x3
I0621 16:02:19.696521  5496 net.cpp:397] conv4_5_3x3/relu -> conv4_5_3x3 (in-place)
I0621 16:02:19.696526  5496 net.cpp:150] Setting up conv4_5_3x3/relu
I0621 16:02:19.696528  5496 net.cpp:157] Top shape: 1 256 60 60 (921600)
I0621 16:02:19.696530  5496 net.cpp:165] Memory required for data: 1299282200
I0621 16:02:19.696533  5496 layer_factory.hpp:77] Creating layer conv4_5_1x1_increase
I0621 16:02:19.696539  5496 net.cpp:106] Creating Layer conv4_5_1x1_increase
I0621 16:02:19.696542  5496 net.cpp:454] conv4_5_1x1_increase <- conv4_5_3x3
I0621 16:02:19.696547  5496 net.cpp:411] conv4_5_1x1_increase -> conv4_5_1x1_increase
I0621 16:02:19.702944  5496 net.cpp:150] Setting up conv4_5_1x1_increase
I0621 16:02:19.702960  5496 net.cpp:157] Top shape: 1 1024 60 60 (3686400)
I0621 16:02:19.702963  5496 net.cpp:165] Memory required for data: 1314027800
I0621 16:02:19.702968  5496 layer_factory.hpp:77] Creating layer conv4_5_1x1_increase/bn
I0621 16:02:19.702977  5496 net.cpp:106] Creating Layer conv4_5_1x1_increase/bn
I0621 16:02:19.702981  5496 net.cpp:454] conv4_5_1x1_increase/bn <- conv4_5_1x1_increase
I0621 16:02:19.702986  5496 net.cpp:397] conv4_5_1x1_increase/bn -> conv4_5_1x1_increase (in-place)
I0621 16:02:19.703138  5496 net.cpp:150] Setting up conv4_5_1x1_increase/bn
I0621 16:02:19.703142  5496 net.cpp:157] Top shape: 1 1024 60 60 (3686400)
I0621 16:02:19.703145  5496 net.cpp:165] Memory required for data: 1328773400
I0621 16:02:19.703151  5496 layer_factory.hpp:77] Creating layer conv4_5
I0621 16:02:19.703156  5496 net.cpp:106] Creating Layer conv4_5
I0621 16:02:19.703160  5496 net.cpp:454] conv4_5 <- conv4_4_conv4_4/relu_0_split_1
I0621 16:02:19.703162  5496 net.cpp:454] conv4_5 <- conv4_5_1x1_increase
I0621 16:02:19.703166  5496 net.cpp:411] conv4_5 -> conv4_5
I0621 16:02:19.703182  5496 net.cpp:150] Setting up conv4_5
I0621 16:02:19.703186  5496 net.cpp:157] Top shape: 1 1024 60 60 (3686400)
I0621 16:02:19.703214  5496 net.cpp:165] Memory required for data: 1343519000
I0621 16:02:19.703217  5496 layer_factory.hpp:77] Creating layer conv4_5/relu
I0621 16:02:19.703222  5496 net.cpp:106] Creating Layer conv4_5/relu
I0621 16:02:19.703223  5496 net.cpp:454] conv4_5/relu <- conv4_5
I0621 16:02:19.703227  5496 net.cpp:397] conv4_5/relu -> conv4_5 (in-place)
I0621 16:02:19.703229  5496 net.cpp:150] Setting up conv4_5/relu
I0621 16:02:19.703233  5496 net.cpp:157] Top shape: 1 1024 60 60 (3686400)
I0621 16:02:19.703234  5496 net.cpp:165] Memory required for data: 1358264600
I0621 16:02:19.703236  5496 layer_factory.hpp:77] Creating layer conv4_5_conv4_5/relu_0_split
I0621 16:02:19.703241  5496 net.cpp:106] Creating Layer conv4_5_conv4_5/relu_0_split
I0621 16:02:19.703244  5496 net.cpp:454] conv4_5_conv4_5/relu_0_split <- conv4_5
I0621 16:02:19.703248  5496 net.cpp:411] conv4_5_conv4_5/relu_0_split -> conv4_5_conv4_5/relu_0_split_0
I0621 16:02:19.703251  5496 net.cpp:411] conv4_5_conv4_5/relu_0_split -> conv4_5_conv4_5/relu_0_split_1
I0621 16:02:19.703272  5496 net.cpp:150] Setting up conv4_5_conv4_5/relu_0_split
I0621 16:02:19.703276  5496 net.cpp:157] Top shape: 1 1024 60 60 (3686400)
I0621 16:02:19.703279  5496 net.cpp:157] Top shape: 1 1024 60 60 (3686400)
I0621 16:02:19.703281  5496 net.cpp:165] Memory required for data: 1387755800
I0621 16:02:19.703284  5496 layer_factory.hpp:77] Creating layer conv4_6_1x1_reduce
I0621 16:02:19.703289  5496 net.cpp:106] Creating Layer conv4_6_1x1_reduce
I0621 16:02:19.703292  5496 net.cpp:454] conv4_6_1x1_reduce <- conv4_5_conv4_5/relu_0_split_0
I0621 16:02:19.703295  5496 net.cpp:411] conv4_6_1x1_reduce -> conv4_6_1x1_reduce
I0621 16:02:19.709142  5496 net.cpp:150] Setting up conv4_6_1x1_reduce
I0621 16:02:19.709167  5496 net.cpp:157] Top shape: 1 256 60 60 (921600)
I0621 16:02:19.709169  5496 net.cpp:165] Memory required for data: 1391442200
I0621 16:02:19.709177  5496 layer_factory.hpp:77] Creating layer conv4_6_1x1_reduce/bn
I0621 16:02:19.709189  5496 net.cpp:106] Creating Layer conv4_6_1x1_reduce/bn
I0621 16:02:19.709197  5496 net.cpp:454] conv4_6_1x1_reduce/bn <- conv4_6_1x1_reduce
I0621 16:02:19.709203  5496 net.cpp:397] conv4_6_1x1_reduce/bn -> conv4_6_1x1_reduce (in-place)
I0621 16:02:19.709353  5496 net.cpp:150] Setting up conv4_6_1x1_reduce/bn
I0621 16:02:19.709358  5496 net.cpp:157] Top shape: 1 256 60 60 (921600)
I0621 16:02:19.709360  5496 net.cpp:165] Memory required for data: 1395128600
I0621 16:02:19.709365  5496 layer_factory.hpp:77] Creating layer conv4_6_1x1_reduce/relu
I0621 16:02:19.709372  5496 net.cpp:106] Creating Layer conv4_6_1x1_reduce/relu
I0621 16:02:19.709373  5496 net.cpp:454] conv4_6_1x1_reduce/relu <- conv4_6_1x1_reduce
I0621 16:02:19.709377  5496 net.cpp:397] conv4_6_1x1_reduce/relu -> conv4_6_1x1_reduce (in-place)
I0621 16:02:19.709379  5496 net.cpp:150] Setting up conv4_6_1x1_reduce/relu
I0621 16:02:19.709383  5496 net.cpp:157] Top shape: 1 256 60 60 (921600)
I0621 16:02:19.709384  5496 net.cpp:165] Memory required for data: 1398815000
I0621 16:02:19.709388  5496 layer_factory.hpp:77] Creating layer conv4_6_3x3
I0621 16:02:19.709396  5496 net.cpp:106] Creating Layer conv4_6_3x3
I0621 16:02:19.709399  5496 net.cpp:454] conv4_6_3x3 <- conv4_6_1x1_reduce
I0621 16:02:19.709403  5496 net.cpp:411] conv4_6_3x3 -> conv4_6_3x3
I0621 16:02:19.722703  5496 net.cpp:150] Setting up conv4_6_3x3
I0621 16:02:19.722743  5496 net.cpp:157] Top shape: 1 256 60 60 (921600)
I0621 16:02:19.722748  5496 net.cpp:165] Memory required for data: 1402501400
I0621 16:02:19.722755  5496 layer_factory.hpp:77] Creating layer conv4_6_3x3/bn
I0621 16:02:19.722774  5496 net.cpp:106] Creating Layer conv4_6_3x3/bn
I0621 16:02:19.722782  5496 net.cpp:454] conv4_6_3x3/bn <- conv4_6_3x3
I0621 16:02:19.722790  5496 net.cpp:397] conv4_6_3x3/bn -> conv4_6_3x3 (in-place)
I0621 16:02:19.722967  5496 net.cpp:150] Setting up conv4_6_3x3/bn
I0621 16:02:19.722973  5496 net.cpp:157] Top shape: 1 256 60 60 (921600)
I0621 16:02:19.722976  5496 net.cpp:165] Memory required for data: 1406187800
I0621 16:02:19.723008  5496 layer_factory.hpp:77] Creating layer conv4_6_3x3/relu
I0621 16:02:19.723013  5496 net.cpp:106] Creating Layer conv4_6_3x3/relu
I0621 16:02:19.723016  5496 net.cpp:454] conv4_6_3x3/relu <- conv4_6_3x3
I0621 16:02:19.723021  5496 net.cpp:397] conv4_6_3x3/relu -> conv4_6_3x3 (in-place)
I0621 16:02:19.723024  5496 net.cpp:150] Setting up conv4_6_3x3/relu
I0621 16:02:19.723028  5496 net.cpp:157] Top shape: 1 256 60 60 (921600)
I0621 16:02:19.723031  5496 net.cpp:165] Memory required for data: 1409874200
I0621 16:02:19.723033  5496 layer_factory.hpp:77] Creating layer conv4_6_1x1_increase
I0621 16:02:19.723040  5496 net.cpp:106] Creating Layer conv4_6_1x1_increase
I0621 16:02:19.723043  5496 net.cpp:454] conv4_6_1x1_increase <- conv4_6_3x3
I0621 16:02:19.723053  5496 net.cpp:411] conv4_6_1x1_increase -> conv4_6_1x1_increase
I0621 16:02:19.729753  5496 net.cpp:150] Setting up conv4_6_1x1_increase
I0621 16:02:19.729815  5496 net.cpp:157] Top shape: 1 1024 60 60 (3686400)
I0621 16:02:19.729817  5496 net.cpp:165] Memory required for data: 1424619800
I0621 16:02:19.729830  5496 layer_factory.hpp:77] Creating layer conv4_6_1x1_increase/bn
I0621 16:02:19.729853  5496 net.cpp:106] Creating Layer conv4_6_1x1_increase/bn
I0621 16:02:19.729862  5496 net.cpp:454] conv4_6_1x1_increase/bn <- conv4_6_1x1_increase
I0621 16:02:19.729873  5496 net.cpp:397] conv4_6_1x1_increase/bn -> conv4_6_1x1_increase (in-place)
I0621 16:02:19.730105  5496 net.cpp:150] Setting up conv4_6_1x1_increase/bn
I0621 16:02:19.730111  5496 net.cpp:157] Top shape: 1 1024 60 60 (3686400)
I0621 16:02:19.730113  5496 net.cpp:165] Memory required for data: 1439365400
I0621 16:02:19.730120  5496 layer_factory.hpp:77] Creating layer conv4_6
I0621 16:02:19.730129  5496 net.cpp:106] Creating Layer conv4_6
I0621 16:02:19.730132  5496 net.cpp:454] conv4_6 <- conv4_5_conv4_5/relu_0_split_1
I0621 16:02:19.730136  5496 net.cpp:454] conv4_6 <- conv4_6_1x1_increase
I0621 16:02:19.730140  5496 net.cpp:411] conv4_6 -> conv4_6
I0621 16:02:19.730159  5496 net.cpp:150] Setting up conv4_6
I0621 16:02:19.730162  5496 net.cpp:157] Top shape: 1 1024 60 60 (3686400)
I0621 16:02:19.730165  5496 net.cpp:165] Memory required for data: 1454111000
I0621 16:02:19.730168  5496 layer_factory.hpp:77] Creating layer conv4_6/relu
I0621 16:02:19.730177  5496 net.cpp:106] Creating Layer conv4_6/relu
I0621 16:02:19.730181  5496 net.cpp:454] conv4_6/relu <- conv4_6
I0621 16:02:19.730185  5496 net.cpp:397] conv4_6/relu -> conv4_6 (in-place)
I0621 16:02:19.730190  5496 net.cpp:150] Setting up conv4_6/relu
I0621 16:02:19.730192  5496 net.cpp:157] Top shape: 1 1024 60 60 (3686400)
I0621 16:02:19.730195  5496 net.cpp:165] Memory required for data: 1468856600
I0621 16:02:19.730198  5496 layer_factory.hpp:77] Creating layer conv4_6_conv4_6/relu_0_split
I0621 16:02:19.730204  5496 net.cpp:106] Creating Layer conv4_6_conv4_6/relu_0_split
I0621 16:02:19.730208  5496 net.cpp:454] conv4_6_conv4_6/relu_0_split <- conv4_6
I0621 16:02:19.730211  5496 net.cpp:411] conv4_6_conv4_6/relu_0_split -> conv4_6_conv4_6/relu_0_split_0
I0621 16:02:19.730216  5496 net.cpp:411] conv4_6_conv4_6/relu_0_split -> conv4_6_conv4_6/relu_0_split_1
I0621 16:02:19.730238  5496 net.cpp:150] Setting up conv4_6_conv4_6/relu_0_split
I0621 16:02:19.730242  5496 net.cpp:157] Top shape: 1 1024 60 60 (3686400)
I0621 16:02:19.730245  5496 net.cpp:157] Top shape: 1 1024 60 60 (3686400)
I0621 16:02:19.730248  5496 net.cpp:165] Memory required for data: 1498347800
I0621 16:02:19.730252  5496 layer_factory.hpp:77] Creating layer conv4_7_1x1_reduce
I0621 16:02:19.730259  5496 net.cpp:106] Creating Layer conv4_7_1x1_reduce
I0621 16:02:19.730262  5496 net.cpp:454] conv4_7_1x1_reduce <- conv4_6_conv4_6/relu_0_split_0
I0621 16:02:19.730267  5496 net.cpp:411] conv4_7_1x1_reduce -> conv4_7_1x1_reduce
I0621 16:02:19.736524  5496 net.cpp:150] Setting up conv4_7_1x1_reduce
I0621 16:02:19.736582  5496 net.cpp:157] Top shape: 1 256 60 60 (921600)
I0621 16:02:19.736590  5496 net.cpp:165] Memory required for data: 1502034200
I0621 16:02:19.736655  5496 layer_factory.hpp:77] Creating layer conv4_7_1x1_reduce/bn
I0621 16:02:19.736690  5496 net.cpp:106] Creating Layer conv4_7_1x1_reduce/bn
I0621 16:02:19.736703  5496 net.cpp:454] conv4_7_1x1_reduce/bn <- conv4_7_1x1_reduce
I0621 16:02:19.736714  5496 net.cpp:397] conv4_7_1x1_reduce/bn -> conv4_7_1x1_reduce (in-place)
I0621 16:02:19.736999  5496 net.cpp:150] Setting up conv4_7_1x1_reduce/bn
I0621 16:02:19.737009  5496 net.cpp:157] Top shape: 1 256 60 60 (921600)
I0621 16:02:19.737012  5496 net.cpp:165] Memory required for data: 1505720600
I0621 16:02:19.737020  5496 layer_factory.hpp:77] Creating layer conv4_7_1x1_reduce/relu
I0621 16:02:19.737030  5496 net.cpp:106] Creating Layer conv4_7_1x1_reduce/relu
I0621 16:02:19.737035  5496 net.cpp:454] conv4_7_1x1_reduce/relu <- conv4_7_1x1_reduce
I0621 16:02:19.737040  5496 net.cpp:397] conv4_7_1x1_reduce/relu -> conv4_7_1x1_reduce (in-place)
I0621 16:02:19.737046  5496 net.cpp:150] Setting up conv4_7_1x1_reduce/relu
I0621 16:02:19.737051  5496 net.cpp:157] Top shape: 1 256 60 60 (921600)
I0621 16:02:19.737053  5496 net.cpp:165] Memory required for data: 1509407000
I0621 16:02:19.737057  5496 layer_factory.hpp:77] Creating layer conv4_7_3x3
I0621 16:02:19.737073  5496 net.cpp:106] Creating Layer conv4_7_3x3
I0621 16:02:19.737077  5496 net.cpp:454] conv4_7_3x3 <- conv4_7_1x1_reduce
I0621 16:02:19.737085  5496 net.cpp:411] conv4_7_3x3 -> conv4_7_3x3
I0621 16:02:19.750939  5496 net.cpp:150] Setting up conv4_7_3x3
I0621 16:02:19.750959  5496 net.cpp:157] Top shape: 1 256 60 60 (921600)
I0621 16:02:19.750963  5496 net.cpp:165] Memory required for data: 1513093400
I0621 16:02:19.750972  5496 layer_factory.hpp:77] Creating layer conv4_7_3x3/bn
I0621 16:02:19.750984  5496 net.cpp:106] Creating Layer conv4_7_3x3/bn
I0621 16:02:19.750989  5496 net.cpp:454] conv4_7_3x3/bn <- conv4_7_3x3
I0621 16:02:19.750995  5496 net.cpp:397] conv4_7_3x3/bn -> conv4_7_3x3 (in-place)
I0621 16:02:19.751164  5496 net.cpp:150] Setting up conv4_7_3x3/bn
I0621 16:02:19.751169  5496 net.cpp:157] Top shape: 1 256 60 60 (921600)
I0621 16:02:19.751173  5496 net.cpp:165] Memory required for data: 1516779800
I0621 16:02:19.751178  5496 layer_factory.hpp:77] Creating layer conv4_7_3x3/relu
I0621 16:02:19.751183  5496 net.cpp:106] Creating Layer conv4_7_3x3/relu
I0621 16:02:19.751186  5496 net.cpp:454] conv4_7_3x3/relu <- conv4_7_3x3
I0621 16:02:19.751189  5496 net.cpp:397] conv4_7_3x3/relu -> conv4_7_3x3 (in-place)
I0621 16:02:19.751194  5496 net.cpp:150] Setting up conv4_7_3x3/relu
I0621 16:02:19.751197  5496 net.cpp:157] Top shape: 1 256 60 60 (921600)
I0621 16:02:19.751200  5496 net.cpp:165] Memory required for data: 1520466200
I0621 16:02:19.751204  5496 layer_factory.hpp:77] Creating layer conv4_7_1x1_increase
I0621 16:02:19.751209  5496 net.cpp:106] Creating Layer conv4_7_1x1_increase
I0621 16:02:19.751211  5496 net.cpp:454] conv4_7_1x1_increase <- conv4_7_3x3
I0621 16:02:19.751216  5496 net.cpp:411] conv4_7_1x1_increase -> conv4_7_1x1_increase
I0621 16:02:19.757468  5496 net.cpp:150] Setting up conv4_7_1x1_increase
I0621 16:02:19.757478  5496 net.cpp:157] Top shape: 1 1024 60 60 (3686400)
I0621 16:02:19.757481  5496 net.cpp:165] Memory required for data: 1535211800
I0621 16:02:19.757485  5496 layer_factory.hpp:77] Creating layer conv4_7_1x1_increase/bn
I0621 16:02:19.757493  5496 net.cpp:106] Creating Layer conv4_7_1x1_increase/bn
I0621 16:02:19.757496  5496 net.cpp:454] conv4_7_1x1_increase/bn <- conv4_7_1x1_increase
I0621 16:02:19.757500  5496 net.cpp:397] conv4_7_1x1_increase/bn -> conv4_7_1x1_increase (in-place)
I0621 16:02:19.757711  5496 net.cpp:150] Setting up conv4_7_1x1_increase/bn
I0621 16:02:19.757719  5496 net.cpp:157] Top shape: 1 1024 60 60 (3686400)
I0621 16:02:19.757726  5496 net.cpp:165] Memory required for data: 1549957400
I0621 16:02:19.757731  5496 layer_factory.hpp:77] Creating layer conv4_7
I0621 16:02:19.757738  5496 net.cpp:106] Creating Layer conv4_7
I0621 16:02:19.757742  5496 net.cpp:454] conv4_7 <- conv4_6_conv4_6/relu_0_split_1
I0621 16:02:19.757745  5496 net.cpp:454] conv4_7 <- conv4_7_1x1_increase
I0621 16:02:19.757763  5496 net.cpp:411] conv4_7 -> conv4_7
I0621 16:02:19.757779  5496 net.cpp:150] Setting up conv4_7
I0621 16:02:19.757783  5496 net.cpp:157] Top shape: 1 1024 60 60 (3686400)
I0621 16:02:19.757786  5496 net.cpp:165] Memory required for data: 1564703000
I0621 16:02:19.757788  5496 layer_factory.hpp:77] Creating layer conv4_7/relu
I0621 16:02:19.757793  5496 net.cpp:106] Creating Layer conv4_7/relu
I0621 16:02:19.757797  5496 net.cpp:454] conv4_7/relu <- conv4_7
I0621 16:02:19.757799  5496 net.cpp:397] conv4_7/relu -> conv4_7 (in-place)
I0621 16:02:19.757803  5496 net.cpp:150] Setting up conv4_7/relu
I0621 16:02:19.757807  5496 net.cpp:157] Top shape: 1 1024 60 60 (3686400)
I0621 16:02:19.757809  5496 net.cpp:165] Memory required for data: 1579448600
I0621 16:02:19.757812  5496 layer_factory.hpp:77] Creating layer conv4_7_conv4_7/relu_0_split
I0621 16:02:19.757817  5496 net.cpp:106] Creating Layer conv4_7_conv4_7/relu_0_split
I0621 16:02:19.757819  5496 net.cpp:454] conv4_7_conv4_7/relu_0_split <- conv4_7
I0621 16:02:19.757823  5496 net.cpp:411] conv4_7_conv4_7/relu_0_split -> conv4_7_conv4_7/relu_0_split_0
I0621 16:02:19.757827  5496 net.cpp:411] conv4_7_conv4_7/relu_0_split -> conv4_7_conv4_7/relu_0_split_1
I0621 16:02:19.757849  5496 net.cpp:150] Setting up conv4_7_conv4_7/relu_0_split
I0621 16:02:19.757853  5496 net.cpp:157] Top shape: 1 1024 60 60 (3686400)
I0621 16:02:19.757856  5496 net.cpp:157] Top shape: 1 1024 60 60 (3686400)
I0621 16:02:19.757858  5496 net.cpp:165] Memory required for data: 1608939800
I0621 16:02:19.757861  5496 layer_factory.hpp:77] Creating layer conv4_8_1x1_reduce
I0621 16:02:19.757869  5496 net.cpp:106] Creating Layer conv4_8_1x1_reduce
I0621 16:02:19.757871  5496 net.cpp:454] conv4_8_1x1_reduce <- conv4_7_conv4_7/relu_0_split_0
I0621 16:02:19.757875  5496 net.cpp:411] conv4_8_1x1_reduce -> conv4_8_1x1_reduce
I0621 16:02:19.763406  5496 net.cpp:150] Setting up conv4_8_1x1_reduce
I0621 16:02:19.763412  5496 net.cpp:157] Top shape: 1 256 60 60 (921600)
I0621 16:02:19.763415  5496 net.cpp:165] Memory required for data: 1612626200
I0621 16:02:19.763419  5496 layer_factory.hpp:77] Creating layer conv4_8_1x1_reduce/bn
I0621 16:02:19.763424  5496 net.cpp:106] Creating Layer conv4_8_1x1_reduce/bn
I0621 16:02:19.763427  5496 net.cpp:454] conv4_8_1x1_reduce/bn <- conv4_8_1x1_reduce
I0621 16:02:19.763432  5496 net.cpp:397] conv4_8_1x1_reduce/bn -> conv4_8_1x1_reduce (in-place)
I0621 16:02:19.763569  5496 net.cpp:150] Setting up conv4_8_1x1_reduce/bn
I0621 16:02:19.763573  5496 net.cpp:157] Top shape: 1 256 60 60 (921600)
I0621 16:02:19.763576  5496 net.cpp:165] Memory required for data: 1616312600
I0621 16:02:19.763581  5496 layer_factory.hpp:77] Creating layer conv4_8_1x1_reduce/relu
I0621 16:02:19.763586  5496 net.cpp:106] Creating Layer conv4_8_1x1_reduce/relu
I0621 16:02:19.763588  5496 net.cpp:454] conv4_8_1x1_reduce/relu <- conv4_8_1x1_reduce
I0621 16:02:19.763592  5496 net.cpp:397] conv4_8_1x1_reduce/relu -> conv4_8_1x1_reduce (in-place)
I0621 16:02:19.763597  5496 net.cpp:150] Setting up conv4_8_1x1_reduce/relu
I0621 16:02:19.763599  5496 net.cpp:157] Top shape: 1 256 60 60 (921600)
I0621 16:02:19.763602  5496 net.cpp:165] Memory required for data: 1619999000
I0621 16:02:19.763604  5496 layer_factory.hpp:77] Creating layer conv4_8_3x3
I0621 16:02:19.763612  5496 net.cpp:106] Creating Layer conv4_8_3x3
I0621 16:02:19.763614  5496 net.cpp:454] conv4_8_3x3 <- conv4_8_1x1_reduce
I0621 16:02:19.763619  5496 net.cpp:411] conv4_8_3x3 -> conv4_8_3x3
I0621 16:02:19.777329  5496 net.cpp:150] Setting up conv4_8_3x3
I0621 16:02:19.777350  5496 net.cpp:157] Top shape: 1 256 60 60 (921600)
I0621 16:02:19.777354  5496 net.cpp:165] Memory required for data: 1623685400
I0621 16:02:19.777359  5496 layer_factory.hpp:77] Creating layer conv4_8_3x3/bn
I0621 16:02:19.777369  5496 net.cpp:106] Creating Layer conv4_8_3x3/bn
I0621 16:02:19.777374  5496 net.cpp:454] conv4_8_3x3/bn <- conv4_8_3x3
I0621 16:02:19.777380  5496 net.cpp:397] conv4_8_3x3/bn -> conv4_8_3x3 (in-place)
I0621 16:02:19.777551  5496 net.cpp:150] Setting up conv4_8_3x3/bn
I0621 16:02:19.777556  5496 net.cpp:157] Top shape: 1 256 60 60 (921600)
I0621 16:02:19.777559  5496 net.cpp:165] Memory required for data: 1627371800
I0621 16:02:19.777564  5496 layer_factory.hpp:77] Creating layer conv4_8_3x3/relu
I0621 16:02:19.777567  5496 net.cpp:106] Creating Layer conv4_8_3x3/relu
I0621 16:02:19.777570  5496 net.cpp:454] conv4_8_3x3/relu <- conv4_8_3x3
I0621 16:02:19.777572  5496 net.cpp:397] conv4_8_3x3/relu -> conv4_8_3x3 (in-place)
I0621 16:02:19.777576  5496 net.cpp:150] Setting up conv4_8_3x3/relu
I0621 16:02:19.777580  5496 net.cpp:157] Top shape: 1 256 60 60 (921600)
I0621 16:02:19.777580  5496 net.cpp:165] Memory required for data: 1631058200
I0621 16:02:19.777583  5496 layer_factory.hpp:77] Creating layer conv4_8_1x1_increase
I0621 16:02:19.777590  5496 net.cpp:106] Creating Layer conv4_8_1x1_increase
I0621 16:02:19.777593  5496 net.cpp:454] conv4_8_1x1_increase <- conv4_8_3x3
I0621 16:02:19.777597  5496 net.cpp:411] conv4_8_1x1_increase -> conv4_8_1x1_increase
I0621 16:02:19.786254  5496 net.cpp:150] Setting up conv4_8_1x1_increase
I0621 16:02:19.786350  5496 net.cpp:157] Top shape: 1 1024 60 60 (3686400)
I0621 16:02:19.786362  5496 net.cpp:165] Memory required for data: 1645803800
I0621 16:02:19.786383  5496 layer_factory.hpp:77] Creating layer conv4_8_1x1_increase/bn
I0621 16:02:19.786417  5496 net.cpp:106] Creating Layer conv4_8_1x1_increase/bn
I0621 16:02:19.786429  5496 net.cpp:454] conv4_8_1x1_increase/bn <- conv4_8_1x1_increase
I0621 16:02:19.786443  5496 net.cpp:397] conv4_8_1x1_increase/bn -> conv4_8_1x1_increase (in-place)
I0621 16:02:19.786722  5496 net.cpp:150] Setting up conv4_8_1x1_increase/bn
I0621 16:02:19.786731  5496 net.cpp:157] Top shape: 1 1024 60 60 (3686400)
I0621 16:02:19.786736  5496 net.cpp:165] Memory required for data: 1660549400
I0621 16:02:19.786746  5496 layer_factory.hpp:77] Creating layer conv4_8
I0621 16:02:19.786758  5496 net.cpp:106] Creating Layer conv4_8
I0621 16:02:19.786763  5496 net.cpp:454] conv4_8 <- conv4_7_conv4_7/relu_0_split_1
I0621 16:02:19.786768  5496 net.cpp:454] conv4_8 <- conv4_8_1x1_increase
I0621 16:02:19.786774  5496 net.cpp:411] conv4_8 -> conv4_8
I0621 16:02:19.786799  5496 net.cpp:150] Setting up conv4_8
I0621 16:02:19.786805  5496 net.cpp:157] Top shape: 1 1024 60 60 (3686400)
I0621 16:02:19.786808  5496 net.cpp:165] Memory required for data: 1675295000
I0621 16:02:19.786813  5496 layer_factory.hpp:77] Creating layer conv4_8/relu
I0621 16:02:19.786825  5496 net.cpp:106] Creating Layer conv4_8/relu
I0621 16:02:19.786829  5496 net.cpp:454] conv4_8/relu <- conv4_8
I0621 16:02:19.786835  5496 net.cpp:397] conv4_8/relu -> conv4_8 (in-place)
I0621 16:02:19.786844  5496 net.cpp:150] Setting up conv4_8/relu
I0621 16:02:19.786849  5496 net.cpp:157] Top shape: 1 1024 60 60 (3686400)
I0621 16:02:19.786852  5496 net.cpp:165] Memory required for data: 1690040600
I0621 16:02:19.786856  5496 layer_factory.hpp:77] Creating layer conv4_8_conv4_8/relu_0_split
I0621 16:02:19.786862  5496 net.cpp:106] Creating Layer conv4_8_conv4_8/relu_0_split
I0621 16:02:19.786866  5496 net.cpp:454] conv4_8_conv4_8/relu_0_split <- conv4_8
I0621 16:02:19.786871  5496 net.cpp:411] conv4_8_conv4_8/relu_0_split -> conv4_8_conv4_8/relu_0_split_0
I0621 16:02:19.786877  5496 net.cpp:411] conv4_8_conv4_8/relu_0_split -> conv4_8_conv4_8/relu_0_split_1
I0621 16:02:19.786914  5496 net.cpp:150] Setting up conv4_8_conv4_8/relu_0_split
I0621 16:02:19.786921  5496 net.cpp:157] Top shape: 1 1024 60 60 (3686400)
I0621 16:02:19.786926  5496 net.cpp:157] Top shape: 1 1024 60 60 (3686400)
I0621 16:02:19.786929  5496 net.cpp:165] Memory required for data: 1719531800
I0621 16:02:19.786934  5496 layer_factory.hpp:77] Creating layer conv4_9_1x1_reduce
I0621 16:02:19.786963  5496 net.cpp:106] Creating Layer conv4_9_1x1_reduce
I0621 16:02:19.786968  5496 net.cpp:454] conv4_9_1x1_reduce <- conv4_8_conv4_8/relu_0_split_0
I0621 16:02:19.786975  5496 net.cpp:411] conv4_9_1x1_reduce -> conv4_9_1x1_reduce
I0621 16:02:19.794944  5496 net.cpp:150] Setting up conv4_9_1x1_reduce
I0621 16:02:19.794973  5496 net.cpp:157] Top shape: 1 256 60 60 (921600)
I0621 16:02:19.794977  5496 net.cpp:165] Memory required for data: 1723218200
I0621 16:02:19.794987  5496 layer_factory.hpp:77] Creating layer conv4_9_1x1_reduce/bn
I0621 16:02:19.795001  5496 net.cpp:106] Creating Layer conv4_9_1x1_reduce/bn
I0621 16:02:19.795006  5496 net.cpp:454] conv4_9_1x1_reduce/bn <- conv4_9_1x1_reduce
I0621 16:02:19.795012  5496 net.cpp:397] conv4_9_1x1_reduce/bn -> conv4_9_1x1_reduce (in-place)
I0621 16:02:19.795167  5496 net.cpp:150] Setting up conv4_9_1x1_reduce/bn
I0621 16:02:19.795171  5496 net.cpp:157] Top shape: 1 256 60 60 (921600)
I0621 16:02:19.795174  5496 net.cpp:165] Memory required for data: 1726904600
I0621 16:02:19.795203  5496 layer_factory.hpp:77] Creating layer conv4_9_1x1_reduce/relu
I0621 16:02:19.795210  5496 net.cpp:106] Creating Layer conv4_9_1x1_reduce/relu
I0621 16:02:19.795213  5496 net.cpp:454] conv4_9_1x1_reduce/relu <- conv4_9_1x1_reduce
I0621 16:02:19.795217  5496 net.cpp:397] conv4_9_1x1_reduce/relu -> conv4_9_1x1_reduce (in-place)
I0621 16:02:19.795222  5496 net.cpp:150] Setting up conv4_9_1x1_reduce/relu
I0621 16:02:19.795224  5496 net.cpp:157] Top shape: 1 256 60 60 (921600)
I0621 16:02:19.795228  5496 net.cpp:165] Memory required for data: 1730591000
I0621 16:02:19.795229  5496 layer_factory.hpp:77] Creating layer conv4_9_3x3
I0621 16:02:19.795238  5496 net.cpp:106] Creating Layer conv4_9_3x3
I0621 16:02:19.795240  5496 net.cpp:454] conv4_9_3x3 <- conv4_9_1x1_reduce
I0621 16:02:19.795245  5496 net.cpp:411] conv4_9_3x3 -> conv4_9_3x3
I0621 16:02:19.808589  5496 net.cpp:150] Setting up conv4_9_3x3
I0621 16:02:19.808609  5496 net.cpp:157] Top shape: 1 256 60 60 (921600)
I0621 16:02:19.808611  5496 net.cpp:165] Memory required for data: 1734277400
I0621 16:02:19.808619  5496 layer_factory.hpp:77] Creating layer conv4_9_3x3/bn
I0621 16:02:19.808632  5496 net.cpp:106] Creating Layer conv4_9_3x3/bn
I0621 16:02:19.808641  5496 net.cpp:454] conv4_9_3x3/bn <- conv4_9_3x3
I0621 16:02:19.808661  5496 net.cpp:397] conv4_9_3x3/bn -> conv4_9_3x3 (in-place)
I0621 16:02:19.808823  5496 net.cpp:150] Setting up conv4_9_3x3/bn
I0621 16:02:19.808828  5496 net.cpp:157] Top shape: 1 256 60 60 (921600)
I0621 16:02:19.808831  5496 net.cpp:165] Memory required for data: 1737963800
I0621 16:02:19.808836  5496 layer_factory.hpp:77] Creating layer conv4_9_3x3/relu
I0621 16:02:19.808842  5496 net.cpp:106] Creating Layer conv4_9_3x3/relu
I0621 16:02:19.808845  5496 net.cpp:454] conv4_9_3x3/relu <- conv4_9_3x3
I0621 16:02:19.808850  5496 net.cpp:397] conv4_9_3x3/relu -> conv4_9_3x3 (in-place)
I0621 16:02:19.808853  5496 net.cpp:150] Setting up conv4_9_3x3/relu
I0621 16:02:19.808857  5496 net.cpp:157] Top shape: 1 256 60 60 (921600)
I0621 16:02:19.808859  5496 net.cpp:165] Memory required for data: 1741650200
I0621 16:02:19.808862  5496 layer_factory.hpp:77] Creating layer conv4_9_1x1_increase
I0621 16:02:19.808868  5496 net.cpp:106] Creating Layer conv4_9_1x1_increase
I0621 16:02:19.808871  5496 net.cpp:454] conv4_9_1x1_increase <- conv4_9_3x3
I0621 16:02:19.808874  5496 net.cpp:411] conv4_9_1x1_increase -> conv4_9_1x1_increase
I0621 16:02:19.815186  5496 net.cpp:150] Setting up conv4_9_1x1_increase
I0621 16:02:19.815207  5496 net.cpp:157] Top shape: 1 1024 60 60 (3686400)
I0621 16:02:19.815208  5496 net.cpp:165] Memory required for data: 1756395800
I0621 16:02:19.815215  5496 layer_factory.hpp:77] Creating layer conv4_9_1x1_increase/bn
I0621 16:02:19.815223  5496 net.cpp:106] Creating Layer conv4_9_1x1_increase/bn
I0621 16:02:19.815227  5496 net.cpp:454] conv4_9_1x1_increase/bn <- conv4_9_1x1_increase
I0621 16:02:19.815232  5496 net.cpp:397] conv4_9_1x1_increase/bn -> conv4_9_1x1_increase (in-place)
I0621 16:02:19.815388  5496 net.cpp:150] Setting up conv4_9_1x1_increase/bn
I0621 16:02:19.815392  5496 net.cpp:157] Top shape: 1 1024 60 60 (3686400)
I0621 16:02:19.815395  5496 net.cpp:165] Memory required for data: 1771141400
I0621 16:02:19.815400  5496 layer_factory.hpp:77] Creating layer conv4_9
I0621 16:02:19.815420  5496 net.cpp:106] Creating Layer conv4_9
I0621 16:02:19.815425  5496 net.cpp:454] conv4_9 <- conv4_8_conv4_8/relu_0_split_1
I0621 16:02:19.815428  5496 net.cpp:454] conv4_9 <- conv4_9_1x1_increase
I0621 16:02:19.815433  5496 net.cpp:411] conv4_9 -> conv4_9
I0621 16:02:19.815449  5496 net.cpp:150] Setting up conv4_9
I0621 16:02:19.815452  5496 net.cpp:157] Top shape: 1 1024 60 60 (3686400)
I0621 16:02:19.815455  5496 net.cpp:165] Memory required for data: 1785887000
I0621 16:02:19.815459  5496 layer_factory.hpp:77] Creating layer conv4_9/relu
I0621 16:02:19.815462  5496 net.cpp:106] Creating Layer conv4_9/relu
I0621 16:02:19.815464  5496 net.cpp:454] conv4_9/relu <- conv4_9
I0621 16:02:19.815467  5496 net.cpp:397] conv4_9/relu -> conv4_9 (in-place)
I0621 16:02:19.815472  5496 net.cpp:150] Setting up conv4_9/relu
I0621 16:02:19.815475  5496 net.cpp:157] Top shape: 1 1024 60 60 (3686400)
I0621 16:02:19.815477  5496 net.cpp:165] Memory required for data: 1800632600
I0621 16:02:19.815480  5496 layer_factory.hpp:77] Creating layer conv4_9_conv4_9/relu_0_split
I0621 16:02:19.815487  5496 net.cpp:106] Creating Layer conv4_9_conv4_9/relu_0_split
I0621 16:02:19.815490  5496 net.cpp:454] conv4_9_conv4_9/relu_0_split <- conv4_9
I0621 16:02:19.815493  5496 net.cpp:411] conv4_9_conv4_9/relu_0_split -> conv4_9_conv4_9/relu_0_split_0
I0621 16:02:19.815498  5496 net.cpp:411] conv4_9_conv4_9/relu_0_split -> conv4_9_conv4_9/relu_0_split_1
I0621 16:02:19.815521  5496 net.cpp:150] Setting up conv4_9_conv4_9/relu_0_split
I0621 16:02:19.815526  5496 net.cpp:157] Top shape: 1 1024 60 60 (3686400)
I0621 16:02:19.815528  5496 net.cpp:157] Top shape: 1 1024 60 60 (3686400)
I0621 16:02:19.815531  5496 net.cpp:165] Memory required for data: 1830123800
I0621 16:02:19.815533  5496 layer_factory.hpp:77] Creating layer conv4_10_1x1_reduce
I0621 16:02:19.815539  5496 net.cpp:106] Creating Layer conv4_10_1x1_reduce
I0621 16:02:19.815542  5496 net.cpp:454] conv4_10_1x1_reduce <- conv4_9_conv4_9/relu_0_split_0
I0621 16:02:19.815548  5496 net.cpp:411] conv4_10_1x1_reduce -> conv4_10_1x1_reduce
I0621 16:02:19.821163  5496 net.cpp:150] Setting up conv4_10_1x1_reduce
I0621 16:02:19.821182  5496 net.cpp:157] Top shape: 1 256 60 60 (921600)
I0621 16:02:19.821184  5496 net.cpp:165] Memory required for data: 1833810200
I0621 16:02:19.821192  5496 layer_factory.hpp:77] Creating layer conv4_10_1x1_reduce/bn
I0621 16:02:19.821202  5496 net.cpp:106] Creating Layer conv4_10_1x1_reduce/bn
I0621 16:02:19.821208  5496 net.cpp:454] conv4_10_1x1_reduce/bn <- conv4_10_1x1_reduce
I0621 16:02:19.821213  5496 net.cpp:397] conv4_10_1x1_reduce/bn -> conv4_10_1x1_reduce (in-place)
I0621 16:02:19.821357  5496 net.cpp:150] Setting up conv4_10_1x1_reduce/bn
I0621 16:02:19.821362  5496 net.cpp:157] Top shape: 1 256 60 60 (921600)
I0621 16:02:19.821364  5496 net.cpp:165] Memory required for data: 1837496600
I0621 16:02:19.821370  5496 layer_factory.hpp:77] Creating layer conv4_10_1x1_reduce/relu
I0621 16:02:19.821375  5496 net.cpp:106] Creating Layer conv4_10_1x1_reduce/relu
I0621 16:02:19.821377  5496 net.cpp:454] conv4_10_1x1_reduce/relu <- conv4_10_1x1_reduce
I0621 16:02:19.821382  5496 net.cpp:397] conv4_10_1x1_reduce/relu -> conv4_10_1x1_reduce (in-place)
I0621 16:02:19.821385  5496 net.cpp:150] Setting up conv4_10_1x1_reduce/relu
I0621 16:02:19.821388  5496 net.cpp:157] Top shape: 1 256 60 60 (921600)
I0621 16:02:19.821390  5496 net.cpp:165] Memory required for data: 1841183000
I0621 16:02:19.821393  5496 layer_factory.hpp:77] Creating layer conv4_10_3x3
I0621 16:02:19.821400  5496 net.cpp:106] Creating Layer conv4_10_3x3
I0621 16:02:19.821403  5496 net.cpp:454] conv4_10_3x3 <- conv4_10_1x1_reduce
I0621 16:02:19.821408  5496 net.cpp:411] conv4_10_3x3 -> conv4_10_3x3
I0621 16:02:19.835139  5496 net.cpp:150] Setting up conv4_10_3x3
I0621 16:02:19.835172  5496 net.cpp:157] Top shape: 1 256 60 60 (921600)
I0621 16:02:19.835177  5496 net.cpp:165] Memory required for data: 1844869400
I0621 16:02:19.835191  5496 layer_factory.hpp:77] Creating layer conv4_10_3x3/bn
I0621 16:02:19.835249  5496 net.cpp:106] Creating Layer conv4_10_3x3/bn
I0621 16:02:19.835258  5496 net.cpp:454] conv4_10_3x3/bn <- conv4_10_3x3
I0621 16:02:19.835266  5496 net.cpp:397] conv4_10_3x3/bn -> conv4_10_3x3 (in-place)
I0621 16:02:19.835494  5496 net.cpp:150] Setting up conv4_10_3x3/bn
I0621 16:02:19.835501  5496 net.cpp:157] Top shape: 1 256 60 60 (921600)
I0621 16:02:19.835505  5496 net.cpp:165] Memory required for data: 1848555800
I0621 16:02:19.835513  5496 layer_factory.hpp:77] Creating layer conv4_10_3x3/relu
I0621 16:02:19.835522  5496 net.cpp:106] Creating Layer conv4_10_3x3/relu
I0621 16:02:19.835526  5496 net.cpp:454] conv4_10_3x3/relu <- conv4_10_3x3
I0621 16:02:19.835531  5496 net.cpp:397] conv4_10_3x3/relu -> conv4_10_3x3 (in-place)
I0621 16:02:19.835537  5496 net.cpp:150] Setting up conv4_10_3x3/relu
I0621 16:02:19.835542  5496 net.cpp:157] Top shape: 1 256 60 60 (921600)
I0621 16:02:19.835547  5496 net.cpp:165] Memory required for data: 1852242200
I0621 16:02:19.835551  5496 layer_factory.hpp:77] Creating layer conv4_10_1x1_increase
I0621 16:02:19.835559  5496 net.cpp:106] Creating Layer conv4_10_1x1_increase
I0621 16:02:19.835564  5496 net.cpp:454] conv4_10_1x1_increase <- conv4_10_3x3
I0621 16:02:19.835571  5496 net.cpp:411] conv4_10_1x1_increase -> conv4_10_1x1_increase
I0621 16:02:19.845582  5496 net.cpp:150] Setting up conv4_10_1x1_increase
I0621 16:02:19.845665  5496 net.cpp:157] Top shape: 1 1024 60 60 (3686400)
I0621 16:02:19.845676  5496 net.cpp:165] Memory required for data: 1866987800
I0621 16:02:19.845691  5496 layer_factory.hpp:77] Creating layer conv4_10_1x1_increase/bn
I0621 16:02:19.845723  5496 net.cpp:106] Creating Layer conv4_10_1x1_increase/bn
I0621 16:02:19.845734  5496 net.cpp:454] conv4_10_1x1_increase/bn <- conv4_10_1x1_increase
I0621 16:02:19.845751  5496 net.cpp:397] conv4_10_1x1_increase/bn -> conv4_10_1x1_increase (in-place)
I0621 16:02:19.846031  5496 net.cpp:150] Setting up conv4_10_1x1_increase/bn
I0621 16:02:19.846040  5496 net.cpp:157] Top shape: 1 1024 60 60 (3686400)
I0621 16:02:19.846043  5496 net.cpp:165] Memory required for data: 1881733400
I0621 16:02:19.846053  5496 layer_factory.hpp:77] Creating layer conv4_10
I0621 16:02:19.846066  5496 net.cpp:106] Creating Layer conv4_10
I0621 16:02:19.846076  5496 net.cpp:454] conv4_10 <- conv4_9_conv4_9/relu_0_split_1
I0621 16:02:19.846082  5496 net.cpp:454] conv4_10 <- conv4_10_1x1_increase
I0621 16:02:19.846088  5496 net.cpp:411] conv4_10 -> conv4_10
I0621 16:02:19.846114  5496 net.cpp:150] Setting up conv4_10
I0621 16:02:19.846120  5496 net.cpp:157] Top shape: 1 1024 60 60 (3686400)
I0621 16:02:19.846124  5496 net.cpp:165] Memory required for data: 1896479000
I0621 16:02:19.846128  5496 layer_factory.hpp:77] Creating layer conv4_10/relu
I0621 16:02:19.846138  5496 net.cpp:106] Creating Layer conv4_10/relu
I0621 16:02:19.846141  5496 net.cpp:454] conv4_10/relu <- conv4_10
I0621 16:02:19.846148  5496 net.cpp:397] conv4_10/relu -> conv4_10 (in-place)
I0621 16:02:19.846155  5496 net.cpp:150] Setting up conv4_10/relu
I0621 16:02:19.846160  5496 net.cpp:157] Top shape: 1 1024 60 60 (3686400)
I0621 16:02:19.846164  5496 net.cpp:165] Memory required for data: 1911224600
I0621 16:02:19.846168  5496 layer_factory.hpp:77] Creating layer conv4_10_conv4_10/relu_0_split
I0621 16:02:19.846177  5496 net.cpp:106] Creating Layer conv4_10_conv4_10/relu_0_split
I0621 16:02:19.846181  5496 net.cpp:454] conv4_10_conv4_10/relu_0_split <- conv4_10
I0621 16:02:19.846186  5496 net.cpp:411] conv4_10_conv4_10/relu_0_split -> conv4_10_conv4_10/relu_0_split_0
I0621 16:02:19.846194  5496 net.cpp:411] conv4_10_conv4_10/relu_0_split -> conv4_10_conv4_10/relu_0_split_1
I0621 16:02:19.846225  5496 net.cpp:150] Setting up conv4_10_conv4_10/relu_0_split
I0621 16:02:19.846232  5496 net.cpp:157] Top shape: 1 1024 60 60 (3686400)
I0621 16:02:19.846237  5496 net.cpp:157] Top shape: 1 1024 60 60 (3686400)
I0621 16:02:19.846242  5496 net.cpp:165] Memory required for data: 1940715800
I0621 16:02:19.846246  5496 layer_factory.hpp:77] Creating layer conv4_11_1x1_reduce
I0621 16:02:19.846310  5496 net.cpp:106] Creating Layer conv4_11_1x1_reduce
I0621 16:02:19.846315  5496 net.cpp:454] conv4_11_1x1_reduce <- conv4_10_conv4_10/relu_0_split_0
I0621 16:02:19.846323  5496 net.cpp:411] conv4_11_1x1_reduce -> conv4_11_1x1_reduce
I0621 16:02:19.853173  5496 net.cpp:150] Setting up conv4_11_1x1_reduce
I0621 16:02:19.853199  5496 net.cpp:157] Top shape: 1 256 60 60 (921600)
I0621 16:02:19.853201  5496 net.cpp:165] Memory required for data: 1944402200
I0621 16:02:19.853211  5496 layer_factory.hpp:77] Creating layer conv4_11_1x1_reduce/bn
I0621 16:02:19.853227  5496 net.cpp:106] Creating Layer conv4_11_1x1_reduce/bn
I0621 16:02:19.853235  5496 net.cpp:454] conv4_11_1x1_reduce/bn <- conv4_11_1x1_reduce
I0621 16:02:19.853240  5496 net.cpp:397] conv4_11_1x1_reduce/bn -> conv4_11_1x1_reduce (in-place)
I0621 16:02:19.853394  5496 net.cpp:150] Setting up conv4_11_1x1_reduce/bn
I0621 16:02:19.853397  5496 net.cpp:157] Top shape: 1 256 60 60 (921600)
I0621 16:02:19.853400  5496 net.cpp:165] Memory required for data: 1948088600
I0621 16:02:19.853405  5496 layer_factory.hpp:77] Creating layer conv4_11_1x1_reduce/relu
I0621 16:02:19.853410  5496 net.cpp:106] Creating Layer conv4_11_1x1_reduce/relu
I0621 16:02:19.853413  5496 net.cpp:454] conv4_11_1x1_reduce/relu <- conv4_11_1x1_reduce
I0621 16:02:19.853416  5496 net.cpp:397] conv4_11_1x1_reduce/relu -> conv4_11_1x1_reduce (in-place)
I0621 16:02:19.853420  5496 net.cpp:150] Setting up conv4_11_1x1_reduce/relu
I0621 16:02:19.853423  5496 net.cpp:157] Top shape: 1 256 60 60 (921600)
I0621 16:02:19.853425  5496 net.cpp:165] Memory required for data: 1951775000
I0621 16:02:19.853428  5496 layer_factory.hpp:77] Creating layer conv4_11_3x3
I0621 16:02:19.853442  5496 net.cpp:106] Creating Layer conv4_11_3x3
I0621 16:02:19.853446  5496 net.cpp:454] conv4_11_3x3 <- conv4_11_1x1_reduce
I0621 16:02:19.853449  5496 net.cpp:411] conv4_11_3x3 -> conv4_11_3x3
I0621 16:02:19.866830  5496 net.cpp:150] Setting up conv4_11_3x3
I0621 16:02:19.866850  5496 net.cpp:157] Top shape: 1 256 60 60 (921600)
I0621 16:02:19.866852  5496 net.cpp:165] Memory required for data: 1955461400
I0621 16:02:19.866858  5496 layer_factory.hpp:77] Creating layer conv4_11_3x3/bn
I0621 16:02:19.866868  5496 net.cpp:106] Creating Layer conv4_11_3x3/bn
I0621 16:02:19.866871  5496 net.cpp:454] conv4_11_3x3/bn <- conv4_11_3x3
I0621 16:02:19.866878  5496 net.cpp:397] conv4_11_3x3/bn -> conv4_11_3x3 (in-place)
I0621 16:02:19.867024  5496 net.cpp:150] Setting up conv4_11_3x3/bn
I0621 16:02:19.867029  5496 net.cpp:157] Top shape: 1 256 60 60 (921600)
I0621 16:02:19.867032  5496 net.cpp:165] Memory required for data: 1959147800
I0621 16:02:19.867036  5496 layer_factory.hpp:77] Creating layer conv4_11_3x3/relu
I0621 16:02:19.867041  5496 net.cpp:106] Creating Layer conv4_11_3x3/relu
I0621 16:02:19.867043  5496 net.cpp:454] conv4_11_3x3/relu <- conv4_11_3x3
…
I0621 16:02:20.164662  5496 net.cpp:454] conv4_21 <- conv4_20_conv4_20/relu_0_split_1
I0621 16:02:20.164666  5496 net.cpp:454] conv4_21 <- conv4_21_1x1_increase
I0621 16:02:20.164671  5496 net.cpp:411] conv4_21 -> conv4_21
I0621 16:02:20.164690  5496 net.cpp:150] Setting up conv4_21
I0621 16:02:20.164693  5496 net.cpp:157] Top shape: 1 1024 60 60 (3686400)
I0621 16:02:20.164695  5496 net.cpp:165] Memory required for data: 3112991000
I0621 16:02:20.164698  5496 layer_factory.hpp:77] Creating layer conv4_21/relu
I0621 16:02:20.164702  5496 net.cpp:106] Creating Layer conv4_21/relu
I0621 16:02:20.164705  5496 net.cpp:454] conv4_21/relu <- conv4_21
I0621 16:02:20.164710  5496 net.cpp:397] conv4_21/relu -> conv4_21 (in-place)
I0621 16:02:20.164714  5496 net.cpp:150] Setting up conv4_21/relu
I0621 16:02:20.164717  5496 net.cpp:157] Top shape: 1 1024 60 60 (3686400)
I0621 16:02:20.164719  5496 net.cpp:165] Memory required for data: 3127736600
I0621 16:02:20.164722  5496 layer_factory.hpp:77] Creating layer conv4_21_conv4_21/relu_0_split
I0621 16:02:20.164726  5496 net.cpp:106] Creating Layer conv4_21_conv4_21/relu_0_split
I0621 16:02:20.164729  5496 net.cpp:454] conv4_21_conv4_21/relu_0_split <- conv4_21
I0621 16:02:20.164732  5496 net.cpp:411] conv4_21_conv4_21/relu_0_split -> conv4_21_conv4_21/relu_0_split_0
I0621 16:02:20.164736  5496 net.cpp:411] conv4_21_conv4_21/relu_0_split -> conv4_21_conv4_21/relu_0_split_1
I0621 16:02:20.164762  5496 net.cpp:150] Setting up conv4_21_conv4_21/relu_0_split
I0621 16:02:20.164765  5496 net.cpp:157] Top shape: 1 1024 60 60 (3686400)
I0621 16:02:20.164768  5496 net.cpp:157] Top shape: 1 1024 60 60 (3686400)
I0621 16:02:20.164790  5496 net.cpp:165] Memory required for data: 3157227800
I0621 16:02:20.164793  5496 layer_factory.hpp:77] Creating layer conv4_22_1x1_reduce
I0621 16:02:20.164800  5496 net.cpp:106] Creating Layer conv4_22_1x1_reduce
I0621 16:02:20.164803  5496 net.cpp:454] conv4_22_1x1_reduce <- conv4_21_conv4_21/relu_0_split_0
I0621 16:02:20.164808  5496 net.cpp:411] conv4_22_1x1_reduce -> conv4_22_1x1_reduce
I0621 16:02:20.173099  5496 net.cpp:150] Setting up conv4_22_1x1_reduce
I0621 16:02:20.173171  5496 net.cpp:157] Top shape: 1 256 60 60 (921600)
I0621 16:02:20.173178  5496 net.cpp:165] Memory required for data: 3160914200
I0621 16:02:20.173197  5496 layer_factory.hpp:77] Creating layer conv4_22_1x1_reduce/bn
I0621 16:02:20.173224  5496 net.cpp:106] Creating Layer conv4_22_1x1_reduce/bn
I0621 16:02:20.173238  5496 net.cpp:454] conv4_22_1x1_reduce/bn <- conv4_22_1x1_reduce
I0621 16:02:20.173251  5496 net.cpp:397] conv4_22_1x1_reduce/bn -> conv4_22_1x1_reduce (in-place)
I0621 16:02:20.173548  5496 net.cpp:150] Setting up conv4_22_1x1_reduce/bn
I0621 16:02:20.173555  5496 net.cpp:157] Top shape: 1 256 60 60 (921600)
I0621 16:02:20.173564  5496 net.cpp:165] Memory required for data: 3164600600
I0621 16:02:20.173574  5496 layer_factory.hpp:77] Creating layer conv4_22_1x1_reduce/relu
I0621 16:02:20.173588  5496 net.cpp:106] Creating Layer conv4_22_1x1_reduce/relu
I0621 16:02:20.173593  5496 net.cpp:454] conv4_22_1x1_reduce/relu <- conv4_22_1x1_reduce
I0621 16:02:20.173599  5496 net.cpp:397] conv4_22_1x1_reduce/relu -> conv4_22_1x1_reduce (in-place)
I0621 16:02:20.173606  5496 net.cpp:150] Setting up conv4_22_1x1_reduce/relu
I0621 16:02:20.173611  5496 net.cpp:157] Top shape: 1 256 60 60 (921600)
I0621 16:02:20.173615  5496 net.cpp:165] Memory required for data: 3168287000
I0621 16:02:20.173619  5496 layer_factory.hpp:77] Creating layer conv4_22_3x3
I0621 16:02:20.173635  5496 net.cpp:106] Creating Layer conv4_22_3x3
I0621 16:02:20.173638  5496 net.cpp:454] conv4_22_3x3 <- conv4_22_1x1_reduce
I0621 16:02:20.173661  5496 net.cpp:411] conv4_22_3x3 -> conv4_22_3x3
I0621 16:02:20.189023  5496 net.cpp:150] Setting up conv4_22_3x3
I0621 16:02:20.189045  5496 net.cpp:157] Top shape: 1 256 60 60 (921600)
I0621 16:02:20.189049  5496 net.cpp:165] Memory required for data: 3171973400
I0621 16:02:20.189054  5496 layer_factory.hpp:77] Creating layer conv4_22_3x3/bn
I0621 16:02:20.189062  5496 net.cpp:106] Creating Layer conv4_22_3x3/bn
I0621 16:02:20.189067  5496 net.cpp:454] conv4_22_3x3/bn <- conv4_22_3x3
I0621 16:02:20.189074  5496 net.cpp:397] conv4_22_3x3/bn -> conv4_22_3x3 (in-place)
I0621 16:02:20.189232  5496 net.cpp:150] Setting up conv4_22_3x3/bn
I0621 16:02:20.189236  5496 net.cpp:157] Top shape: 1 256 60 60 (921600)
I0621 16:02:20.189239  5496 net.cpp:165] Memory required for data: 3175659800
I0621 16:02:20.189244  5496 layer_factory.hpp:77] Creating layer conv4_22_3x3/relu
I0621 16:02:20.189249  5496 net.cpp:106] Creating Layer conv4_22_3x3/relu
I0621 16:02:20.189251  5496 net.cpp:454] conv4_22_3x3/relu <- conv4_22_3x3
I0621 16:02:20.189254  5496 net.cpp:397] conv4_22_3x3/relu -> conv4_22_3x3 (in-place)
I0621 16:02:20.189257  5496 net.cpp:150] Setting up conv4_22_3x3/relu
I0621 16:02:20.189260  5496 net.cpp:157] Top shape: 1 256 60 60 (921600)
I0621 16:02:20.189262  5496 net.cpp:165] Memory required for data: 3179346200
I0621 16:02:20.189266  5496 layer_factory.hpp:77] Creating layer conv4_22_1x1_increase
I0621 16:02:20.189275  5496 net.cpp:106] Creating Layer conv4_22_1x1_increase
I0621 16:02:20.189276  5496 net.cpp:454] conv4_22_1x1_increase <- conv4_22_3x3
I0621 16:02:20.189280  5496 net.cpp:411] conv4_22_1x1_increase -> conv4_22_1x1_increase
I0621 16:02:20.195677  5496 net.cpp:150] Setting up conv4_22_1x1_increase
I0621 16:02:20.195688  5496 net.cpp:157] Top shape: 1 1024 60 60 (3686400)
I0621 16:02:20.195689  5496 net.cpp:165] Memory required for data: 3194091800
I0621 16:02:20.195693  5496 layer_factory.hpp:77] Creating layer conv4_22_1x1_increase/bn
I0621 16:02:20.195699  5496 net.cpp:106] Creating Layer conv4_22_1x1_increase/bn
I0621 16:02:20.195720  5496 net.cpp:454] conv4_22_1x1_increase/bn <- conv4_22_1x1_increase
I0621 16:02:20.195726  5496 net.cpp:397] conv4_22_1x1_increase/bn -> conv4_22_1x1_increase (in-place)
I0621 16:02:20.195905  5496 net.cpp:150] Setting up conv4_22_1x1_increase/bn
I0621 16:02:20.195909  5496 net.cpp:157] Top shape: 1 1024 60 60 (3686400)
I0621 16:02:20.195911  5496 net.cpp:165] Memory required for data: 3208837400
I0621 16:02:20.195916  5496 layer_factory.hpp:77] Creating layer conv4_22
I0621 16:02:20.195922  5496 net.cpp:106] Creating Layer conv4_22
I0621 16:02:20.195924  5496 net.cpp:454] conv4_22 <- conv4_21_conv4_21/relu_0_split_1
I0621 16:02:20.195927  5496 net.cpp:454] conv4_22 <- conv4_22_1x1_increase
I0621 16:02:20.195930  5496 net.cpp:411] conv4_22 -> conv4_22
I0621 16:02:20.195945  5496 net.cpp:150] Setting up conv4_22
I0621 16:02:20.195950  5496 net.cpp:157] Top shape: 1 1024 60 60 (3686400)
I0621 16:02:20.195952  5496 net.cpp:165] Memory required for data: 3223583000
I0621 16:02:20.195955  5496 layer_factory.hpp:77] Creating layer conv4_22/relu
I0621 16:02:20.195958  5496 net.cpp:106] Creating Layer conv4_22/relu
I0621 16:02:20.195961  5496 net.cpp:454] conv4_22/relu <- conv4_22
I0621 16:02:20.195966  5496 net.cpp:397] conv4_22/relu -> conv4_22 (in-place)
I0621 16:02:20.195969  5496 net.cpp:150] Setting up conv4_22/relu
I0621 16:02:20.195972  5496 net.cpp:157] Top shape: 1 1024 60 60 (3686400)
I0621 16:02:20.195976  5496 net.cpp:165] Memory required for data: 3238328600
I0621 16:02:20.195977  5496 layer_factory.hpp:77] Creating layer conv4_22_conv4_22/relu_0_split
I0621 16:02:20.195982  5496 net.cpp:106] Creating Layer conv4_22_conv4_22/relu_0_split
I0621 16:02:20.195984  5496 net.cpp:454] conv4_22_conv4_22/relu_0_split <- conv4_22
I0621 16:02:20.195988  5496 net.cpp:411] conv4_22_conv4_22/relu_0_split -> conv4_22_conv4_22/relu_0_split_0
I0621 16:02:20.195993  5496 net.cpp:411] conv4_22_conv4_22/relu_0_split -> conv4_22_conv4_22/relu_0_split_1
I0621 16:02:20.196020  5496 net.cpp:150] Setting up conv4_22_conv4_22/relu_0_split
I0621 16:02:20.196024  5496 net.cpp:157] Top shape: 1 1024 60 60 (3686400)
I0621 16:02:20.196027  5496 net.cpp:157] Top shape: 1 1024 60 60 (3686400)
I0621 16:02:20.196029  5496 net.cpp:165] Memory required for data: 3267819800
I0621 16:02:20.196033  5496 layer_factory.hpp:77] Creating layer conv4_23_1x1_reduce
I0621 16:02:20.196039  5496 net.cpp:106] Creating Layer conv4_23_1x1_reduce
I0621 16:02:20.196043  5496 net.cpp:454] conv4_23_1x1_reduce <- conv4_22_conv4_22/relu_0_split_0
I0621 16:02:20.196048  5496 net.cpp:411] conv4_23_1x1_reduce -> conv4_23_1x1_reduce
I0621 16:02:20.201658  5496 net.cpp:150] Setting up conv4_23_1x1_reduce
I0621 16:02:20.201665  5496 net.cpp:157] Top shape: 1 256 60 60 (921600)
I0621 16:02:20.201668  5496 net.cpp:165] Memory required for data: 3271506200
I0621 16:02:20.201673  5496 layer_factory.hpp:77] Creating layer conv4_23_1x1_reduce/bn
I0621 16:02:20.201678  5496 net.cpp:106] Creating Layer conv4_23_1x1_reduce/bn
I0621 16:02:20.201680  5496 net.cpp:454] conv4_23_1x1_reduce/bn <- conv4_23_1x1_reduce
I0621 16:02:20.201683  5496 net.cpp:397] conv4_23_1x1_reduce/bn -> conv4_23_1x1_reduce (in-place)
I0621 16:02:20.201833  5496 net.cpp:150] Setting up conv4_23_1x1_reduce/bn
I0621 16:02:20.201836  5496 net.cpp:157] Top shape: 1 256 60 60 (921600)
I0621 16:02:20.201838  5496 net.cpp:165] Memory required for data: 3275192600
I0621 16:02:20.201843  5496 layer_factory.hpp:77] Creating layer conv4_23_1x1_reduce/relu
I0621 16:02:20.201848  5496 net.cpp:106] Creating Layer conv4_23_1x1_reduce/relu
I0621 16:02:20.201849  5496 net.cpp:454] conv4_23_1x1_reduce/relu <- conv4_23_1x1_reduce
I0621 16:02:20.201853  5496 net.cpp:397] conv4_23_1x1_reduce/relu -> conv4_23_1x1_reduce (in-place)
I0621 16:02:20.201855  5496 net.cpp:150] Setting up conv4_23_1x1_reduce/relu
I0621 16:02:20.201858  5496 net.cpp:157] Top shape: 1 256 60 60 (921600)
I0621 16:02:20.201860  5496 net.cpp:165] Memory required for data: 3278879000
I0621 16:02:20.201870  5496 layer_factory.hpp:77] Creating layer conv4_23_3x3
I0621 16:02:20.201877  5496 net.cpp:106] Creating Layer conv4_23_3x3
I0621 16:02:20.201879  5496 net.cpp:454] conv4_23_3x3 <- conv4_23_1x1_reduce
I0621 16:02:20.201884  5496 net.cpp:411] conv4_23_3x3 -> conv4_23_3x3
I0621 16:02:20.215126  5496 net.cpp:150] Setting up conv4_23_3x3
I0621 16:02:20.215147  5496 net.cpp:157] Top shape: 1 256 60 60 (921600)
I0621 16:02:20.215150  5496 net.cpp:165] Memory required for data: 3282565400
I0621 16:02:20.215157  5496 layer_factory.hpp:77] Creating layer conv4_23_3x3/bn
I0621 16:02:20.215165  5496 net.cpp:106] Creating Layer conv4_23_3x3/bn
I0621 16:02:20.215169  5496 net.cpp:454] conv4_23_3x3/bn <- conv4_23_3x3
I0621 16:02:20.215178  5496 net.cpp:397] conv4_23_3x3/bn -> conv4_23_3x3 (in-place)
I0621 16:02:20.215342  5496 net.cpp:150] Setting up conv4_23_3x3/bn
I0621 16:02:20.215346  5496 net.cpp:157] Top shape: 1 256 60 60 (921600)
I0621 16:02:20.215349  5496 net.cpp:165] Memory required for data: 3286251800
I0621 16:02:20.215354  5496 layer_factory.hpp:77] Creating layer conv4_23_3x3/relu
I0621 16:02:20.215359  5496 net.cpp:106] Creating Layer conv4_23_3x3/relu
I0621 16:02:20.215363  5496 net.cpp:454] conv4_23_3x3/relu <- conv4_23_3x3
I0621 16:02:20.215366  5496 net.cpp:397] conv4_23_3x3/relu -> conv4_23_3x3 (in-place)
I0621 16:02:20.215370  5496 net.cpp:150] Setting up conv4_23_3x3/relu
I0621 16:02:20.215373  5496 net.cpp:157] Top shape: 1 256 60 60 (921600)
I0621 16:02:20.215375  5496 net.cpp:165] Memory required for data: 3289938200
I0621 16:02:20.215378  5496 layer_factory.hpp:77] Creating layer conv4_23_1x1_increase
I0621 16:02:20.215384  5496 net.cpp:106] Creating Layer conv4_23_1x1_increase
I0621 16:02:20.215387  5496 net.cpp:454] conv4_23_1x1_increase <- conv4_23_3x3
I0621 16:02:20.215391  5496 net.cpp:411] conv4_23_1x1_increase -> conv4_23_1x1_increase
I0621 16:02:20.222425  5496 net.cpp:150] Setting up conv4_23_1x1_increase
I0621 16:02:20.222496  5496 net.cpp:157] Top shape: 1 1024 60 60 (3686400)
I0621 16:02:20.222501  5496 net.cpp:165] Memory required for data: 3304683800
I0621 16:02:20.222517  5496 layer_factory.hpp:77] Creating layer conv4_23_1x1_increase/bn
I0621 16:02:20.222543  5496 net.cpp:106] Creating Layer conv4_23_1x1_increase/bn
I0621 16:02:20.222555  5496 net.cpp:454] conv4_23_1x1_increase/bn <- conv4_23_1x1_increase
I0621 16:02:20.222570  5496 net.cpp:397] conv4_23_1x1_increase/bn -> conv4_23_1x1_increase (in-place)
I0621 16:02:20.222918  5496 net.cpp:150] Setting up conv4_23_1x1_increase/bn
I0621 16:02:20.222926  5496 net.cpp:157] Top shape: 1 1024 60 60 (3686400)
I0621 16:02:20.222931  5496 net.cpp:165] Memory required for data: 3319429400
I0621 16:02:20.222940  5496 layer_factory.hpp:77] Creating layer conv4_23
I0621 16:02:20.222954  5496 net.cpp:106] Creating Layer conv4_23
I0621 16:02:20.222959  5496 net.cpp:454] conv4_23 <- conv4_22_conv4_22/relu_0_split_1
I0621 16:02:20.222965  5496 net.cpp:454] conv4_23 <- conv4_23_1x1_increase
I0621 16:02:20.222971  5496 net.cpp:411] conv4_23 -> conv4_23
I0621 16:02:20.222998  5496 net.cpp:150] Setting up conv4_23
I0621 16:02:20.223003  5496 net.cpp:157] Top shape: 1 1024 60 60 (3686400)
I0621 16:02:20.223007  5496 net.cpp:165] Memory required for data: 3334175000
I0621 16:02:20.223011  5496 layer_factory.hpp:77] Creating layer conv4_23/relu
I0621 16:02:20.223021  5496 net.cpp:106] Creating Layer conv4_23/relu
I0621 16:02:20.223024  5496 net.cpp:454] conv4_23/relu <- conv4_23
I0621 16:02:20.223033  5496 net.cpp:397] conv4_23/relu -> conv4_23 (in-place)
I0621 16:02:20.223040  5496 net.cpp:150] Setting up conv4_23/relu
I0621 16:02:20.223045  5496 net.cpp:157] Top shape: 1 1024 60 60 (3686400)
I0621 16:02:20.223049  5496 net.cpp:165] Memory required for data: 3348920600
I0621 16:02:20.223053  5496 layer_factory.hpp:77] Creating layer conv4_23_conv4_23/relu_0_split
I0621 16:02:20.223063  5496 net.cpp:106] Creating Layer conv4_23_conv4_23/relu_0_split
I0621 16:02:20.223067  5496 net.cpp:454] conv4_23_conv4_23/relu_0_split <- conv4_23
I0621 16:02:20.223124  5496 net.cpp:411] conv4_23_conv4_23/relu_0_split -> conv4_23_conv4_23/relu_0_split_0
I0621 16:02:20.223130  5496 net.cpp:411] conv4_23_conv4_23/relu_0_split -> conv4_23_conv4_23/relu_0_split_1
I0621 16:02:20.223166  5496 net.cpp:150] Setting up conv4_23_conv4_23/relu_0_split
I0621 16:02:20.223172  5496 net.cpp:157] Top shape: 1 1024 60 60 (3686400)
I0621 16:02:20.223177  5496 net.cpp:157] Top shape: 1 1024 60 60 (3686400)
I0621 16:02:20.223181  5496 net.cpp:165] Memory required for data: 3378411800
I0621 16:02:20.223186  5496 layer_factory.hpp:77] Creating layer conv5_1_1x1_reduce
I0621 16:02:20.223198  5496 net.cpp:106] Creating Layer conv5_1_1x1_reduce
I0621 16:02:20.223203  5496 net.cpp:454] conv5_1_1x1_reduce <- conv4_23_conv4_23/relu_0_split_0
I0621 16:02:20.223213  5496 net.cpp:411] conv5_1_1x1_reduce -> conv5_1_1x1_reduce
I0621 16:02:20.239375  5496 net.cpp:150] Setting up conv5_1_1x1_reduce
I0621 16:02:20.239400  5496 net.cpp:157] Top shape: 1 512 60 60 (1843200)
I0621 16:02:20.239403  5496 net.cpp:165] Memory required for data: 3385784600
I0621 16:02:20.239410  5496 layer_factory.hpp:77] Creating layer conv5_1_1x1_reduce/bn
I0621 16:02:20.239421  5496 net.cpp:106] Creating Layer conv5_1_1x1_reduce/bn
I0621 16:02:20.239428  5496 net.cpp:454] conv5_1_1x1_reduce/bn <- conv5_1_1x1_reduce
I0621 16:02:20.239434  5496 net.cpp:397] conv5_1_1x1_reduce/bn -> conv5_1_1x1_reduce (in-place)
I0621 16:02:20.239622  5496 net.cpp:150] Setting up conv5_1_1x1_reduce/bn
I0621 16:02:20.239627  5496 net.cpp:157] Top shape: 1 512 60 60 (1843200)
I0621 16:02:20.239630  5496 net.cpp:165] Memory required for data: 3393157400
I0621 16:02:20.239637  5496 layer_factory.hpp:77] Creating layer conv5_1_1x1_reduce/relu
I0621 16:02:20.239644  5496 net.cpp:106] Creating Layer conv5_1_1x1_reduce/relu
I0621 16:02:20.239645  5496 net.cpp:454] conv5_1_1x1_reduce/relu <- conv5_1_1x1_reduce
I0621 16:02:20.239650  5496 net.cpp:397] conv5_1_1x1_reduce/relu -> conv5_1_1x1_reduce (in-place)
I0621 16:02:20.239653  5496 net.cpp:150] Setting up conv5_1_1x1_reduce/relu
I0621 16:02:20.239656  5496 net.cpp:157] Top shape: 1 512 60 60 (1843200)
I0621 16:02:20.239660  5496 net.cpp:165] Memory required for data: 3400530200
I0621 16:02:20.239661  5496 layer_factory.hpp:77] Creating layer conv5_1_3x3
I0621 16:02:20.239668  5496 net.cpp:106] Creating Layer conv5_1_3x3
I0621 16:02:20.239671  5496 net.cpp:454] conv5_1_3x3 <- conv5_1_1x1_reduce
I0621 16:02:20.239675  5496 net.cpp:411] conv5_1_3x3 -> conv5_1_3x3
I0621 16:02:20.296165  5496 net.cpp:150] Setting up conv5_1_3x3
I0621 16:02:20.296191  5496 net.cpp:157] Top shape: 1 512 60 60 (1843200)
I0621 16:02:20.296195  5496 net.cpp:165] Memory required for data: 3407903000
I0621 16:02:20.296202  5496 layer_factory.hpp:77] Creating layer conv5_1_3x3/bn
I0621 16:02:20.296214  5496 net.cpp:106] Creating Layer conv5_1_3x3/bn
I0621 16:02:20.296218  5496 net.cpp:454] conv5_1_3x3/bn <- conv5_1_3x3
I0621 16:02:20.296223  5496 net.cpp:397] conv5_1_3x3/bn -> conv5_1_3x3 (in-place)
I0621 16:02:20.296396  5496 net.cpp:150] Setting up conv5_1_3x3/bn
I0621 16:02:20.296401  5496 net.cpp:157] Top shape: 1 512 60 60 (1843200)
I0621 16:02:20.296403  5496 net.cpp:165] Memory required for data: 3415275800
I0621 16:02:20.296408  5496 layer_factory.hpp:77] Creating layer conv5_1_3x3/relu
I0621 16:02:20.296416  5496 net.cpp:106] Creating Layer conv5_1_3x3/relu
I0621 16:02:20.296417  5496 net.cpp:454] conv5_1_3x3/relu <- conv5_1_3x3
I0621 16:02:20.296432  5496 net.cpp:397] conv5_1_3x3/relu -> conv5_1_3x3 (in-place)
I0621 16:02:20.296437  5496 net.cpp:150] Setting up conv5_1_3x3/relu
I0621 16:02:20.296440  5496 net.cpp:157] Top shape: 1 512 60 60 (1843200)
I0621 16:02:20.296442  5496 net.cpp:165] Memory required for data: 3422648600
I0621 16:02:20.296447  5496 layer_factory.hpp:77] Creating layer conv5_1_1x1_increase
I0621 16:02:20.296453  5496 net.cpp:106] Creating Layer conv5_1_1x1_increase
I0621 16:02:20.296456  5496 net.cpp:454] conv5_1_1x1_increase <- conv5_1_3x3
I0621 16:02:20.296460  5496 net.cpp:411] conv5_1_1x1_increase -> conv5_1_1x1_increase
I0621 16:02:20.319986  5496 net.cpp:150] Setting up conv5_1_1x1_increase
I0621 16:02:20.320010  5496 net.cpp:157] Top shape: 1 2048 60 60 (7372800)
I0621 16:02:20.320013  5496 net.cpp:165] Memory required for data: 3452139800
I0621 16:02:20.320019  5496 layer_factory.hpp:77] Creating layer conv5_1_1x1_increase/bn
I0621 16:02:20.320029  5496 net.cpp:106] Creating Layer conv5_1_1x1_increase/bn
I0621 16:02:20.320035  5496 net.cpp:454] conv5_1_1x1_increase/bn <- conv5_1_1x1_increase
I0621 16:02:20.320044  5496 net.cpp:397] conv5_1_1x1_increase/bn -> conv5_1_1x1_increase (in-place)
I0621 16:02:20.320230  5496 net.cpp:150] Setting up conv5_1_1x1_increase/bn
I0621 16:02:20.320235  5496 net.cpp:157] Top shape: 1 2048 60 60 (7372800)
I0621 16:02:20.320236  5496 net.cpp:165] Memory required for data: 3481631000
I0621 16:02:20.320242  5496 layer_factory.hpp:77] Creating layer conv5_1_1x1_proj
I0621 16:02:20.320250  5496 net.cpp:106] Creating Layer conv5_1_1x1_proj
I0621 16:02:20.320253  5496 net.cpp:454] conv5_1_1x1_proj <- conv4_23_conv4_23/relu_0_split_1
I0621 16:02:20.320258  5496 net.cpp:411] conv5_1_1x1_proj -> conv5_1_1x1_proj
I0621 16:02:20.370129  5496 net.cpp:150] Setting up conv5_1_1x1_proj
I0621 16:02:20.370157  5496 net.cpp:157] Top shape: 1 2048 60 60 (7372800)
I0621 16:02:20.370160  5496 net.cpp:165] Memory required for data: 3511122200
I0621 16:02:20.370170  5496 layer_factory.hpp:77] Creating layer conv5_1_1x1_proj/bn
I0621 16:02:20.370180  5496 net.cpp:106] Creating Layer conv5_1_1x1_proj/bn
I0621 16:02:20.370187  5496 net.cpp:454] conv5_1_1x1_proj/bn <- conv5_1_1x1_proj
I0621 16:02:20.370193  5496 net.cpp:397] conv5_1_1x1_proj/bn -> conv5_1_1x1_proj (in-place)
I0621 16:02:20.370365  5496 net.cpp:150] Setting up conv5_1_1x1_proj/bn
I0621 16:02:20.370369  5496 net.cpp:157] Top shape: 1 2048 60 60 (7372800)
I0621 16:02:20.370371  5496 net.cpp:165] Memory required for data: 3540613400
I0621 16:02:20.370376  5496 layer_factory.hpp:77] Creating layer conv5_1
I0621 16:02:20.370383  5496 net.cpp:106] Creating Layer conv5_1
I0621 16:02:20.370385  5496 net.cpp:454] conv5_1 <- conv5_1_1x1_proj
I0621 16:02:20.370388  5496 net.cpp:454] conv5_1 <- conv5_1_1x1_increase
I0621 16:02:20.370391  5496 net.cpp:411] conv5_1 -> conv5_1
I0621 16:02:20.370407  5496 net.cpp:150] Setting up conv5_1
I0621 16:02:20.370411  5496 net.cpp:157] Top shape: 1 2048 60 60 (7372800)
I0621 16:02:20.370414  5496 net.cpp:165] Memory required for data: 3570104600
I0621 16:02:20.370415  5496 layer_factory.hpp:77] Creating layer conv5_1/relu
I0621 16:02:20.370420  5496 net.cpp:106] Creating Layer conv5_1/relu
I0621 16:02:20.370424  5496 net.cpp:454] conv5_1/relu <- conv5_1
I0621 16:02:20.370426  5496 net.cpp:397] conv5_1/relu -> conv5_1 (in-place)
I0621 16:02:20.370430  5496 net.cpp:150] Setting up conv5_1/relu
I0621 16:02:20.370434  5496 net.cpp:157] Top shape: 1 2048 60 60 (7372800)
I0621 16:02:20.370435  5496 net.cpp:165] Memory required for data: 3599595800
I0621 16:02:20.370438  5496 layer_factory.hpp:77] Creating layer conv5_1_conv5_1/relu_0_split
I0621 16:02:20.370442  5496 net.cpp:106] Creating Layer conv5_1_conv5_1/relu_0_split
I0621 16:02:20.370445  5496 net.cpp:454] conv5_1_conv5_1/relu_0_split <- conv5_1
I0621 16:02:20.370450  5496 net.cpp:411] conv5_1_conv5_1/relu_0_split -> conv5_1_conv5_1/relu_0_split_0
I0621 16:02:20.370453  5496 net.cpp:411] conv5_1_conv5_1/relu_0_split -> conv5_1_conv5_1/relu_0_split_1
I0621 16:02:20.370477  5496 net.cpp:150] Setting up conv5_1_conv5_1/relu_0_split
I0621 16:02:20.370481  5496 net.cpp:157] Top shape: 1 2048 60 60 (7372800)
I0621 16:02:20.370484  5496 net.cpp:157] Top shape: 1 2048 60 60 (7372800)
I0621 16:02:20.370486  5496 net.cpp:165] Memory required for data: 3658578200
I0621 16:02:20.370488  5496 layer_factory.hpp:77] Creating layer conv5_2_1x1_reduce
I0621 16:02:20.370493  5496 net.cpp:106] Creating Layer conv5_2_1x1_reduce
I0621 16:02:20.370496  5496 net.cpp:454] conv5_2_1x1_reduce <- conv5_1_conv5_1/relu_0_split_0
I0621 16:02:20.370501  5496 net.cpp:411] conv5_2_1x1_reduce -> conv5_2_1x1_reduce
I0621 16:02:20.395725  5496 net.cpp:150] Setting up conv5_2_1x1_reduce
I0621 16:02:20.395800  5496 net.cpp:157] Top shape: 1 512 60 60 (1843200)
I0621 16:02:20.395808  5496 net.cpp:165] Memory required for data: 3665951000
I0621 16:02:20.395828  5496 layer_factory.hpp:77] Creating layer conv5_2_1x1_reduce/bn
I0621 16:02:20.395864  5496 net.cpp:106] Creating Layer conv5_2_1x1_reduce/bn
I0621 16:02:20.395879  5496 net.cpp:454] conv5_2_1x1_reduce/bn <- conv5_2_1x1_reduce
I0621 16:02:20.395895  5496 net.cpp:397] conv5_2_1x1_reduce/bn -> conv5_2_1x1_reduce (in-place)
I0621 16:02:20.396239  5496 net.cpp:150] Setting up conv5_2_1x1_reduce/bn
I0621 16:02:20.396250  5496 net.cpp:157] Top shape: 1 512 60 60 (1843200)
I0621 16:02:20.396253  5496 net.cpp:165] Memory required for data: 3673323800
I0621 16:02:20.396262  5496 layer_factory.hpp:77] Creating layer conv5_2_1x1_reduce/relu
I0621 16:02:20.396271  5496 net.cpp:106] Creating Layer conv5_2_1x1_reduce/relu
I0621 16:02:20.396275  5496 net.cpp:454] conv5_2_1x1_reduce/relu <- conv5_2_1x1_reduce
I0621 16:02:20.396281  5496 net.cpp:397] conv5_2_1x1_reduce/relu -> conv5_2_1x1_reduce (in-place)
I0621 16:02:20.396287  5496 net.cpp:150] Setting up conv5_2_1x1_reduce/relu
I0621 16:02:20.396292  5496 net.cpp:157] Top shape: 1 512 60 60 (1843200)
I0621 16:02:20.396296  5496 net.cpp:165] Memory required for data: 3680696600
I0621 16:02:20.396301  5496 layer_factory.hpp:77] Creating layer conv5_2_3x3
I0621 16:02:20.396313  5496 net.cpp:106] Creating Layer conv5_2_3x3
I0621 16:02:20.396318  5496 net.cpp:454] conv5_2_3x3 <- conv5_2_1x1_reduce
I0621 16:02:20.396324  5496 net.cpp:411] conv5_2_3x3 -> conv5_2_3x3
I0621 16:02:20.454248  5496 net.cpp:150] Setting up conv5_2_3x3
I0621 16:02:20.454273  5496 net.cpp:157] Top shape: 1 512 60 60 (1843200)
I0621 16:02:20.454277  5496 net.cpp:165] Memory required for data: 3688069400
I0621 16:02:20.454288  5496 layer_factory.hpp:77] Creating layer conv5_2_3x3/bn
I0621 16:02:20.454313  5496 net.cpp:106] Creating Layer conv5_2_3x3/bn
I0621 16:02:20.454321  5496 net.cpp:454] conv5_2_3x3/bn <- conv5_2_3x3
I0621 16:02:20.454329  5496 net.cpp:397] conv5_2_3x3/bn -> conv5_2_3x3 (in-place)
I0621 16:02:20.454589  5496 net.cpp:150] Setting up conv5_2_3x3/bn
I0621 16:02:20.454596  5496 net.cpp:157] Top shape: 1 512 60 60 (1843200)
I0621 16:02:20.454601  5496 net.cpp:165] Memory required for data: 3695442200
I0621 16:02:20.454608  5496 layer_factory.hpp:77] Creating layer conv5_2_3x3/relu
I0621 16:02:20.454617  5496 net.cpp:106] Creating Layer conv5_2_3x3/relu
I0621 16:02:20.454619  5496 net.cpp:454] conv5_2_3x3/relu <- conv5_2_3x3
I0621 16:02:20.454624  5496 net.cpp:397] conv5_2_3x3/relu -> conv5_2_3x3 (in-place)
I0621 16:02:20.454630  5496 net.cpp:150] Setting up conv5_2_3x3/relu
I0621 16:02:20.454637  5496 net.cpp:157] Top shape: 1 512 60 60 (1843200)
I0621 16:02:20.454639  5496 net.cpp:165] Memory required for data: 3702815000
I0621 16:02:20.454644  5496 layer_factory.hpp:77] Creating layer conv5_2_1x1_increase
I0621 16:02:20.454656  5496 net.cpp:106] Creating Layer conv5_2_1x1_increase
I0621 16:02:20.454660  5496 net.cpp:454] conv5_2_1x1_increase <- conv5_2_3x3
I0621 16:02:20.454668  5496 net.cpp:411] conv5_2_1x1_increase -> conv5_2_1x1_increase
I0621 16:02:20.483566  5496 net.cpp:150] Setting up conv5_2_1x1_increase
I0621 16:02:20.483598  5496 net.cpp:157] Top shape: 1 2048 60 60 (7372800)
I0621 16:02:20.483602  5496 net.cpp:165] Memory required for data: 3732306200
I0621 16:02:20.483609  5496 layer_factory.hpp:77] Creating layer conv5_2_1x1_increase/bn
I0621 16:02:20.483618  5496 net.cpp:106] Creating Layer conv5_2_1x1_increase/bn
I0621 16:02:20.483625  5496 net.cpp:454] conv5_2_1x1_increase/bn <- conv5_2_1x1_increase
I0621 16:02:20.483631  5496 net.cpp:397] conv5_2_1x1_increase/bn -> conv5_2_1x1_increase (in-place)
I0621 16:02:20.483822  5496 net.cpp:150] Setting up conv5_2_1x1_increase/bn
I0621 16:02:20.483827  5496 net.cpp:157] Top shape: 1 2048 60 60 (7372800)
I0621 16:02:20.483830  5496 net.cpp:165] Memory required for data: 3761797400
I0621 16:02:20.483911  5496 layer_factory.hpp:77] Creating layer conv5_2
I0621 16:02:20.483917  5496 net.cpp:106] Creating Layer conv5_2
I0621 16:02:20.483922  5496 net.cpp:454] conv5_2 <- conv5_1_conv5_1/relu_0_split_1
I0621 16:02:20.483924  5496 net.cpp:454] conv5_2 <- conv5_2_1x1_increase
I0621 16:02:20.483928  5496 net.cpp:411] conv5_2 -> conv5_2
I0621 16:02:20.483948  5496 net.cpp:150] Setting up conv5_2
I0621 16:02:20.483953  5496 net.cpp:157] Top shape: 1 2048 60 60 (7372800)
I0621 16:02:20.483955  5496 net.cpp:165] Memory required for data: 3791288600
I0621 16:02:20.483958  5496 layer_factory.hpp:77] Creating layer conv5_2/relu
I0621 16:02:20.483963  5496 net.cpp:106] Creating Layer conv5_2/relu
I0621 16:02:20.483966  5496 net.cpp:454] conv5_2/relu <- conv5_2
I0621 16:02:20.483969  5496 net.cpp:397] conv5_2/relu -> conv5_2 (in-place)
I0621 16:02:20.483973  5496 net.cpp:150] Setting up conv5_2/relu
I0621 16:02:20.483978  5496 net.cpp:157] Top shape: 1 2048 60 60 (7372800)
I0621 16:02:20.483979  5496 net.cpp:165] Memory required for data: 3820779800
I0621 16:02:20.483983  5496 layer_factory.hpp:77] Creating layer conv5_2_conv5_2/relu_0_split
I0621 16:02:20.483986  5496 net.cpp:106] Creating Layer conv5_2_conv5_2/relu_0_split
I0621 16:02:20.483989  5496 net.cpp:454] conv5_2_conv5_2/relu_0_split <- conv5_2
I0621 16:02:20.483994  5496 net.cpp:411] conv5_2_conv5_2/relu_0_split -> conv5_2_conv5_2/relu_0_split_0
I0621 16:02:20.483999  5496 net.cpp:411] conv5_2_conv5_2/relu_0_split -> conv5_2_conv5_2/relu_0_split_1
I0621 16:02:20.484025  5496 net.cpp:150] Setting up conv5_2_conv5_2/relu_0_split
I0621 16:02:20.484028  5496 net.cpp:157] Top shape: 1 2048 60 60 (7372800)
I0621 16:02:20.484032  5496 net.cpp:157] Top shape: 1 2048 60 60 (7372800)
I0621 16:02:20.484035  5496 net.cpp:165] Memory required for data: 3879762200
I0621 16:02:20.484037  5496 layer_factory.hpp:77] Creating layer conv5_3_1x1_reduce
I0621 16:02:20.484046  5496 net.cpp:106] Creating Layer conv5_3_1x1_reduce
I0621 16:02:20.484050  5496 net.cpp:454] conv5_3_1x1_reduce <- conv5_2_conv5_2/relu_0_split_0
I0621 16:02:20.484055  5496 net.cpp:411] conv5_3_1x1_reduce -> conv5_3_1x1_reduce
I0621 16:02:20.507213  5496 net.cpp:150] Setting up conv5_3_1x1_reduce
I0621 16:02:20.507237  5496 net.cpp:157] Top shape: 1 512 60 60 (1843200)
I0621 16:02:20.507241  5496 net.cpp:165] Memory required for data: 3887135000
I0621 16:02:20.507246  5496 layer_factory.hpp:77] Creating layer conv5_3_1x1_reduce/bn
I0621 16:02:20.507256  5496 net.cpp:106] Creating Layer conv5_3_1x1_reduce/bn
I0621 16:02:20.507262  5496 net.cpp:454] conv5_3_1x1_reduce/bn <- conv5_3_1x1_reduce
I0621 16:02:20.507269  5496 net.cpp:397] conv5_3_1x1_reduce/bn -> conv5_3_1x1_reduce (in-place)
I0621 16:02:20.507457  5496 net.cpp:150] Setting up conv5_3_1x1_reduce/bn
I0621 16:02:20.507460  5496 net.cpp:157] Top shape: 1 512 60 60 (1843200)
I0621 16:02:20.507462  5496 net.cpp:165] Memory required for data: 3894507800
I0621 16:02:20.507467  5496 layer_factory.hpp:77] Creating layer conv5_3_1x1_reduce/relu
I0621 16:02:20.507472  5496 net.cpp:106] Creating Layer conv5_3_1x1_reduce/relu
I0621 16:02:20.507474  5496 net.cpp:454] conv5_3_1x1_reduce/relu <- conv5_3_1x1_reduce
I0621 16:02:20.507477  5496 net.cpp:397] conv5_3_1x1_reduce/relu -> conv5_3_1x1_reduce (in-place)
I0621 16:02:20.507480  5496 net.cpp:150] Setting up conv5_3_1x1_reduce/relu
I0621 16:02:20.507483  5496 net.cpp:157] Top shape: 1 512 60 60 (1843200)
I0621 16:02:20.507485  5496 net.cpp:165] Memory required for data: 3901880600
I0621 16:02:20.507488  5496 layer_factory.hpp:77] Creating layer conv5_3_3x3
I0621 16:02:20.507495  5496 net.cpp:106] Creating Layer conv5_3_3x3
I0621 16:02:20.507498  5496 net.cpp:454] conv5_3_3x3 <- conv5_3_1x1_reduce
I0621 16:02:20.507503  5496 net.cpp:411] conv5_3_3x3 -> conv5_3_3x3
I0621 16:02:20.565094  5496 net.cpp:150] Setting up conv5_3_3x3
I0621 16:02:20.565120  5496 net.cpp:157] Top shape: 1 512 60 60 (1843200)
I0621 16:02:20.565122  5496 net.cpp:165] Memory required for data: 3909253400
I0621 16:02:20.565131  5496 layer_factory.hpp:77] Creating layer conv5_3_3x3/bn
I0621 16:02:20.565183  5496 net.cpp:106] Creating Layer conv5_3_3x3/bn
I0621 16:02:20.565191  5496 net.cpp:454] conv5_3_3x3/bn <- conv5_3_3x3
I0621 16:02:20.565196  5496 net.cpp:397] conv5_3_3x3/bn -> conv5_3_3x3 (in-place)
I0621 16:02:20.565408  5496 net.cpp:150] Setting up conv5_3_3x3/bn
I0621 16:02:20.565413  5496 net.cpp:157] Top shape: 1 512 60 60 (1843200)
I0621 16:02:20.565415  5496 net.cpp:165] Memory required for data: 3916626200
I0621 16:02:20.565420  5496 layer_factory.hpp:77] Creating layer conv5_3_3x3/relu
I0621 16:02:20.565425  5496 net.cpp:106] Creating Layer conv5_3_3x3/relu
I0621 16:02:20.565428  5496 net.cpp:454] conv5_3_3x3/relu <- conv5_3_3x3
I0621 16:02:20.565430  5496 net.cpp:397] conv5_3_3x3/relu -> conv5_3_3x3 (in-place)
I0621 16:02:20.565434  5496 net.cpp:150] Setting up conv5_3_3x3/relu
I0621 16:02:20.565438  5496 net.cpp:157] Top shape: 1 512 60 60 (1843200)
I0621 16:02:20.565440  5496 net.cpp:165] Memory required for data: 3923999000
I0621 16:02:20.565443  5496 layer_factory.hpp:77] Creating layer conv5_3_1x1_increase
I0621 16:02:20.565450  5496 net.cpp:106] Creating Layer conv5_3_1x1_increase
I0621 16:02:20.565454  5496 net.cpp:454] conv5_3_1x1_increase <- conv5_3_3x3
I0621 16:02:20.565457  5496 net.cpp:411] conv5_3_1x1_increase -> conv5_3_1x1_increase
I0621 16:02:20.594213  5496 net.cpp:150] Setting up conv5_3_1x1_increase
I0621 16:02:20.594275  5496 net.cpp:157] Top shape: 1 2048 60 60 (7372800)
I0621 16:02:20.594282  5496 net.cpp:165] Memory required for data: 3953490200
I0621 16:02:20.594297  5496 layer_factory.hpp:77] Creating layer conv5_3_1x1_increase/bn
I0621 16:02:20.594323  5496 net.cpp:106] Creating Layer conv5_3_1x1_increase/bn
I0621 16:02:20.594336  5496 net.cpp:454] conv5_3_1x1_increase/bn <- conv5_3_1x1_increase
I0621 16:02:20.594349  5496 net.cpp:397] conv5_3_1x1_increase/bn -> conv5_3_1x1_increase (in-place)
I0621 16:02:20.594637  5496 net.cpp:150] Setting up conv5_3_1x1_increase/bn
I0621 16:02:20.594645  5496 net.cpp:157] Top shape: 1 2048 60 60 (7372800)
I0621 16:02:20.594650  5496 net.cpp:165] Memory required for data: 3982981400
I0621 16:02:20.594658  5496 layer_factory.hpp:77] Creating layer conv5_3
I0621 16:02:20.594669  5496 net.cpp:106] Creating Layer conv5_3
I0621 16:02:20.594672  5496 net.cpp:454] conv5_3 <- conv5_2_conv5_2/relu_0_split_1
I0621 16:02:20.594676  5496 net.cpp:454] conv5_3 <- conv5_3_1x1_increase
I0621 16:02:20.594681  5496 net.cpp:411] conv5_3 -> conv5_3
I0621 16:02:20.594702  5496 net.cpp:150] Setting up conv5_3
I0621 16:02:20.594707  5496 net.cpp:157] Top shape: 1 2048 60 60 (7372800)
I0621 16:02:20.594712  5496 net.cpp:165] Memory required for data: 4012472600
I0621 16:02:20.594715  5496 layer_factory.hpp:77] Creating layer conv5_3/relu
I0621 16:02:20.594722  5496 net.cpp:106] Creating Layer conv5_3/relu
I0621 16:02:20.594724  5496 net.cpp:454] conv5_3/relu <- conv5_3
I0621 16:02:20.594728  5496 net.cpp:397] conv5_3/relu -> conv5_3 (in-place)
I0621 16:02:20.594733  5496 net.cpp:150] Setting up conv5_3/relu
I0621 16:02:20.594738  5496 net.cpp:157] Top shape: 1 2048 60 60 (7372800)
I0621 16:02:20.594739  5496 net.cpp:165] Memory required for data: 4041963800
I0621 16:02:20.594743  5496 layer_factory.hpp:77] Creating layer conv5_3_conv5_3/relu_0_split
I0621 16:02:20.594748  5496 net.cpp:106] Creating Layer conv5_3_conv5_3/relu_0_split
I0621 16:02:20.594750  5496 net.cpp:454] conv5_3_conv5_3/relu_0_split <- conv5_3
I0621 16:02:20.594754  5496 net.cpp:411] conv5_3_conv5_3/relu_0_split -> conv5_3_conv5_3/relu_0_split_0
I0621 16:02:20.594759  5496 net.cpp:411] conv5_3_conv5_3/relu_0_split -> conv5_3_conv5_3/relu_0_split_1
I0621 16:02:20.594763  5496 net.cpp:411] conv5_3_conv5_3/relu_0_split -> conv5_3_conv5_3/relu_0_split_2
I0621 16:02:20.594768  5496 net.cpp:411] conv5_3_conv5_3/relu_0_split -> conv5_3_conv5_3/relu_0_split_3
I0621 16:02:20.594772  5496 net.cpp:411] conv5_3_conv5_3/relu_0_split -> conv5_3_conv5_3/relu_0_split_4
I0621 16:02:20.594828  5496 net.cpp:150] Setting up conv5_3_conv5_3/relu_0_split
I0621 16:02:20.594854  5496 net.cpp:157] Top shape: 1 2048 60 60 (7372800)
I0621 16:02:20.594857  5496 net.cpp:157] Top shape: 1 2048 60 60 (7372800)
I0621 16:02:20.594861  5496 net.cpp:157] Top shape: 1 2048 60 60 (7372800)
I0621 16:02:20.594863  5496 net.cpp:157] Top shape: 1 2048 60 60 (7372800)
I0621 16:02:20.594866  5496 net.cpp:157] Top shape: 1 2048 60 60 (7372800)
I0621 16:02:20.594869  5496 net.cpp:165] Memory required for data: 4189419800
I0621 16:02:20.594872  5496 layer_factory.hpp:77] Creating layer conv5_3_pool1
I0621 16:02:20.594883  5496 net.cpp:106] Creating Layer conv5_3_pool1
I0621 16:02:20.594887  5496 net.cpp:454] conv5_3_pool1 <- conv5_3_conv5_3/relu_0_split_0
I0621 16:02:20.594890  5496 net.cpp:411] conv5_3_pool1 -> conv5_3_pool1
I0621 16:02:20.594909  5496 net.cpp:150] Setting up conv5_3_pool1
I0621 16:02:20.594913  5496 net.cpp:157] Top shape: 1 2048 1 1 (2048)
I0621 16:02:20.594915  5496 net.cpp:165] Memory required for data: 4189427992
I0621 16:02:20.594918  5496 layer_factory.hpp:77] Creating layer conv5_3_pool1_conv
I0621 16:02:20.594925  5496 net.cpp:106] Creating Layer conv5_3_pool1_conv
I0621 16:02:20.594928  5496 net.cpp:454] conv5_3_pool1_conv <- conv5_3_pool1
I0621 16:02:20.594933  5496 net.cpp:411] conv5_3_pool1_conv -> conv5_3_pool1_conv
I0621 16:02:20.618552  5496 net.cpp:150] Setting up conv5_3_pool1_conv
I0621 16:02:20.618577  5496 net.cpp:157] Top shape: 1 512 1 1 (512)
I0621 16:02:20.618579  5496 net.cpp:165] Memory required for data: 4189430040
I0621 16:02:20.618588  5496 layer_factory.hpp:77] Creating layer conv5_3_pool1_conv/bn
I0621 16:02:20.618604  5496 net.cpp:106] Creating Layer conv5_3_pool1_conv/bn
I0621 16:02:20.618610  5496 net.cpp:454] conv5_3_pool1_conv/bn <- conv5_3_pool1_conv
I0621 16:02:20.618615  5496 net.cpp:397] conv5_3_pool1_conv/bn -> conv5_3_pool1_conv (in-place)
I0621 16:02:20.618791  5496 net.cpp:150] Setting up conv5_3_pool1_conv/bn
I0621 16:02:20.618796  5496 net.cpp:157] Top shape: 1 512 1 1 (512)
I0621 16:02:20.618798  5496 net.cpp:165] Memory required for data: 4189432088
I0621 16:02:20.618803  5496 layer_factory.hpp:77] Creating layer conv5_3_pool1_conv/relu
I0621 16:02:20.618808  5496 net.cpp:106] Creating Layer conv5_3_pool1_conv/relu
I0621 16:02:20.618810  5496 net.cpp:454] conv5_3_pool1_conv/relu <- conv5_3_pool1_conv
I0621 16:02:20.618813  5496 net.cpp:397] conv5_3_pool1_conv/relu -> conv5_3_pool1_conv (in-place)
I0621 16:02:20.618816  5496 net.cpp:150] Setting up conv5_3_pool1_conv/relu
I0621 16:02:20.618819  5496 net.cpp:157] Top shape: 1 512 1 1 (512)
I0621 16:02:20.618821  5496 net.cpp:165] Memory required for data: 4189434136
I0621 16:02:20.618824  5496 layer_factory.hpp:77] Creating layer conv5_3_pool1_interp
I0621 16:02:20.618835  5496 net.cpp:106] Creating Layer conv5_3_pool1_interp
I0621 16:02:20.618837  5496 net.cpp:454] conv5_3_pool1_interp <- conv5_3_pool1_conv
I0621 16:02:20.618842  5496 net.cpp:411] conv5_3_pool1_interp -> conv5_3_pool1_interp
I0621 16:02:20.618863  5496 net.cpp:150] Setting up conv5_3_pool1_interp
I0621 16:02:20.618868  5496 net.cpp:157] Top shape: 1 512 60 60 (1843200)
I0621 16:02:20.618871  5496 net.cpp:165] Memory required for data: 4196806936
I0621 16:02:20.618873  5496 layer_factory.hpp:77] Creating layer conv5_3_pool2
I0621 16:02:20.618877  5496 net.cpp:106] Creating Layer conv5_3_pool2
I0621 16:02:20.618880  5496 net.cpp:454] conv5_3_pool2 <- conv5_3_conv5_3/relu_0_split_1
I0621 16:02:20.618885  5496 net.cpp:411] conv5_3_pool2 -> conv5_3_pool2
I0621 16:02:20.618901  5496 net.cpp:150] Setting up conv5_3_pool2
I0621 16:02:20.618906  5496 net.cpp:157] Top shape: 1 2048 2 2 (8192)
I0621 16:02:20.618908  5496 net.cpp:165] Memory required for data: 4196839704
I0621 16:02:20.618911  5496 layer_factory.hpp:77] Creating layer conv5_3_pool2_conv
I0621 16:02:20.618917  5496 net.cpp:106] Creating Layer conv5_3_pool2_conv
I0621 16:02:20.618921  5496 net.cpp:454] conv5_3_pool2_conv <- conv5_3_pool2
I0621 16:02:20.618927  5496 net.cpp:411] conv5_3_pool2_conv -> conv5_3_pool2_conv
I0621 16:02:20.643795  5496 net.cpp:150] Setting up conv5_3_pool2_conv
I0621 16:02:20.643947  5496 net.cpp:157] Top shape: 1 512 2 2 (2048)
I0621 16:02:20.643959  5496 net.cpp:165] Memory required for data: 4196847896
I0621 16:02:20.643977  5496 layer_factory.hpp:77] Creating layer conv5_3_pool2_conv/bn
I0621 16:02:20.644006  5496 net.cpp:106] Creating Layer conv5_3_pool2_conv/bn
I0621 16:02:20.644016  5496 net.cpp:454] conv5_3_pool2_conv/bn <- conv5_3_pool2_conv
I0621 16:02:20.644032  5496 net.cpp:397] conv5_3_pool2_conv/bn -> conv5_3_pool2_conv (in-place)
I0621 16:02:20.644318  5496 net.cpp:150] Setting up conv5_3_pool2_conv/bn
I0621 16:02:20.644325  5496 net.cpp:157] Top shape: 1 512 2 2 (2048)
I0621 16:02:20.644330  5496 net.cpp:165] Memory required for data: 4196856088
I0621 16:02:20.644338  5496 layer_factory.hpp:77] Creating layer conv5_3_pool2_conv/relu
I0621 16:02:20.644351  5496 net.cpp:106] Creating Layer conv5_3_pool2_conv/relu
I0621 16:02:20.644354  5496 net.cpp:454] conv5_3_pool2_conv/relu <- conv5_3_pool2_conv
I0621 16:02:20.644361  5496 net.cpp:397] conv5_3_pool2_conv/relu -> conv5_3_pool2_conv (in-place)
I0621 16:02:20.644369  5496 net.cpp:150] Setting up conv5_3_pool2_conv/relu
I0621 16:02:20.644374  5496 net.cpp:157] Top shape: 1 512 2 2 (2048)
I0621 16:02:20.644378  5496 net.cpp:165] Memory required for data: 4196864280
I0621 16:02:20.644383  5496 layer_factory.hpp:77] Creating layer conv5_3_pool2_interp
I0621 16:02:20.644392  5496 net.cpp:106] Creating Layer conv5_3_pool2_interp
I0621 16:02:20.644397  5496 net.cpp:454] conv5_3_pool2_interp <- conv5_3_pool2_conv
I0621 16:02:20.644404  5496 net.cpp:411] conv5_3_pool2_interp -> conv5_3_pool2_interp
I0621 16:02:20.644431  5496 net.cpp:150] Setting up conv5_3_pool2_interp
I0621 16:02:20.644436  5496 net.cpp:157] Top shape: 1 512 60 60 (1843200)
I0621 16:02:20.644440  5496 net.cpp:165] Memory required for data: 4204237080
I0621 16:02:20.644444  5496 layer_factory.hpp:77] Creating layer conv5_3_pool3
I0621 16:02:20.644456  5496 net.cpp:106] Creating Layer conv5_3_pool3
I0621 16:02:20.644462  5496 net.cpp:454] conv5_3_pool3 <- conv5_3_conv5_3/relu_0_split_2
I0621 16:02:20.644469  5496 net.cpp:411] conv5_3_pool3 -> conv5_3_pool3
I0621 16:02:20.644495  5496 net.cpp:150] Setting up conv5_3_pool3
I0621 16:02:20.644500  5496 net.cpp:157] Top shape: 1 2048 3 3 (18432)
I0621 16:02:20.644505  5496 net.cpp:165] Memory required for data: 4204310808
I0621 16:02:20.644510  5496 layer_factory.hpp:77] Creating layer conv5_3_pool3_conv
I0621 16:02:20.644528  5496 net.cpp:106] Creating Layer conv5_3_pool3_conv
I0621 16:02:20.644532  5496 net.cpp:454] conv5_3_pool3_conv <- conv5_3_pool3
I0621 16:02:20.644541  5496 net.cpp:411] conv5_3_pool3_conv -> conv5_3_pool3_conv
I0621 16:02:20.672101  5496 net.cpp:150] Setting up conv5_3_pool3_conv
I0621 16:02:20.672122  5496 net.cpp:157] Top shape: 1 512 3 3 (4608)
I0621 16:02:20.672125  5496 net.cpp:165] Memory required for data: 4204329240
I0621 16:02:20.672132  5496 layer_factory.hpp:77] Creating layer conv5_3_pool3_conv/bn
I0621 16:02:20.672140  5496 net.cpp:106] Creating Layer conv5_3_pool3_conv/bn
I0621 16:02:20.672148  5496 net.cpp:454] conv5_3_pool3_conv/bn <- conv5_3_pool3_conv
I0621 16:02:20.672153  5496 net.cpp:397] conv5_3_pool3_conv/bn -> conv5_3_pool3_conv (in-place)
I0621 16:02:20.672339  5496 net.cpp:150] Setting up conv5_3_pool3_conv/bn
I0621 16:02:20.672345  5496 net.cpp:157] Top shape: 1 512 3 3 (4608)
I0621 16:02:20.672348  5496 net.cpp:165] Memory required for data: 4204347672
I0621 16:02:20.672353  5496 layer_factory.hpp:77] Creating layer conv5_3_pool3_conv/relu
I0621 16:02:20.672356  5496 net.cpp:106] Creating Layer conv5_3_pool3_conv/relu
I0621 16:02:20.672358  5496 net.cpp:454] conv5_3_pool3_conv/relu <- conv5_3_pool3_conv
I0621 16:02:20.672361  5496 net.cpp:397] conv5_3_pool3_conv/relu -> conv5_3_pool3_conv (in-place)
I0621 16:02:20.672365  5496 net.cpp:150] Setting up conv5_3_pool3_conv/relu
I0621 16:02:20.672369  5496 net.cpp:157] Top shape: 1 512 3 3 (4608)
I0621 16:02:20.672371  5496 net.cpp:165] Memory required for data: 4204366104
I0621 16:02:20.672396  5496 layer_factory.hpp:77] Creating layer conv5_3_pool3_interp
I0621 16:02:20.672401  5496 net.cpp:106] Creating Layer conv5_3_pool3_interp
I0621 16:02:20.672405  5496 net.cpp:454] conv5_3_pool3_interp <- conv5_3_pool3_conv
I0621 16:02:20.672408  5496 net.cpp:411] conv5_3_pool3_interp -> conv5_3_pool3_interp
I0621 16:02:20.672427  5496 net.cpp:150] Setting up conv5_3_pool3_interp
I0621 16:02:20.672431  5496 net.cpp:157] Top shape: 1 512 60 60 (1843200)
I0621 16:02:20.672435  5496 net.cpp:165] Memory required for data: 4211738904
I0621 16:02:20.672436  5496 layer_factory.hpp:77] Creating layer conv5_3_pool6
I0621 16:02:20.672442  5496 net.cpp:106] Creating Layer conv5_3_pool6
I0621 16:02:20.672446  5496 net.cpp:454] conv5_3_pool6 <- conv5_3_conv5_3/relu_0_split_3
I0621 16:02:20.672448  5496 net.cpp:411] conv5_3_pool6 -> conv5_3_pool6
I0621 16:02:20.672467  5496 net.cpp:150] Setting up conv5_3_pool6
I0621 16:02:20.672472  5496 net.cpp:157] Top shape: 1 2048 6 6 (73728)
I0621 16:02:20.672473  5496 net.cpp:165] Memory required for data: 4212033816
I0621 16:02:20.672477  5496 layer_factory.hpp:77] Creating layer conv5_3_pool6_conv
I0621 16:02:20.672483  5496 net.cpp:106] Creating Layer conv5_3_pool6_conv
I0621 16:02:20.672487  5496 net.cpp:454] conv5_3_pool6_conv <- conv5_3_pool6
I0621 16:02:20.672490  5496 net.cpp:411] conv5_3_pool6_conv -> conv5_3_pool6_conv
I0621 16:02:20.695765  5496 net.cpp:150] Setting up conv5_3_pool6_conv
I0621 16:02:20.695785  5496 net.cpp:157] Top shape: 1 512 6 6 (18432)
I0621 16:02:20.695788  5496 net.cpp:165] Memory required for data: 4212107544
I0621 16:02:20.695796  5496 layer_factory.hpp:77] Creating layer conv5_3_pool6_conv/bn
I0621 16:02:20.695804  5496 net.cpp:106] Creating Layer conv5_3_pool6_conv/bn
I0621 16:02:20.695811  5496 net.cpp:454] conv5_3_pool6_conv/bn <- conv5_3_pool6_conv
I0621 16:02:20.695816  5496 net.cpp:397] conv5_3_pool6_conv/bn -> conv5_3_pool6_conv (in-place)
I0621 16:02:20.695999  5496 net.cpp:150] Setting up conv5_3_pool6_conv/bn
I0621 16:02:20.696004  5496 net.cpp:157] Top shape: 1 512 6 6 (18432)
I0621 16:02:20.696007  5496 net.cpp:165] Memory required for data: 4212181272
I0621 16:02:20.696012  5496 layer_factory.hpp:77] Creating layer conv5_3_pool6_conv/relu
I0621 16:02:20.696017  5496 net.cpp:106] Creating Layer conv5_3_pool6_conv/relu
I0621 16:02:20.696020  5496 net.cpp:454] conv5_3_pool6_conv/relu <- conv5_3_pool6_conv
I0621 16:02:20.696023  5496 net.cpp:397] conv5_3_pool6_conv/relu -> conv5_3_pool6_conv (in-place)
I0621 16:02:20.696028  5496 net.cpp:150] Setting up conv5_3_pool6_conv/relu
I0621 16:02:20.696032  5496 net.cpp:157] Top shape: 1 512 6 6 (18432)
I0621 16:02:20.696033  5496 net.cpp:165] Memory required for data: 4212255000
I0621 16:02:20.696036  5496 layer_factory.hpp:77] Creating layer conv5_3_pool6_interp
I0621 16:02:20.696041  5496 net.cpp:106] Creating Layer conv5_3_pool6_interp
I0621 16:02:20.696044  5496 net.cpp:454] conv5_3_pool6_interp <- conv5_3_pool6_conv
I0621 16:02:20.696049  5496 net.cpp:411] conv5_3_pool6_interp -> conv5_3_pool6_interp
I0621 16:02:20.696068  5496 net.cpp:150] Setting up conv5_3_pool6_interp
I0621 16:02:20.696071  5496 net.cpp:157] Top shape: 1 512 60 60 (1843200)
I0621 16:02:20.696074  5496 net.cpp:165] Memory required for data: 4219627800
I0621 16:02:20.696075  5496 layer_factory.hpp:77] Creating layer conv5_3_concat
I0621 16:02:20.696080  5496 net.cpp:106] Creating Layer conv5_3_concat
I0621 16:02:20.696084  5496 net.cpp:454] conv5_3_concat <- conv5_3_conv5_3/relu_0_split_4
I0621 16:02:20.696086  5496 net.cpp:454] conv5_3_concat <- conv5_3_pool6_interp
I0621 16:02:20.696089  5496 net.cpp:454] conv5_3_concat <- conv5_3_pool3_interp
I0621 16:02:20.696094  5496 net.cpp:454] conv5_3_concat <- conv5_3_pool2_interp
I0621 16:02:20.696095  5496 net.cpp:454] conv5_3_concat <- conv5_3_pool1_interp
I0621 16:02:20.696100  5496 net.cpp:411] conv5_3_concat -> conv5_3_concat
I0621 16:02:20.696118  5496 net.cpp:150] Setting up conv5_3_concat
I0621 16:02:20.696122  5496 net.cpp:157] Top shape: 1 4096 60 60 (14745600)
I0621 16:02:20.696142  5496 net.cpp:165] Memory required for data: 4278610200
I0621 16:02:20.696146  5496 layer_factory.hpp:77] Creating layer conv5_4
I0621 16:02:20.696151  5496 net.cpp:106] Creating Layer conv5_4
I0621 16:02:20.696154  5496 net.cpp:454] conv5_4 <- conv5_3_concat
I0621 16:02:20.696159  5496 net.cpp:411] conv5_4 -> conv5_4
I0621 16:02:21.149544  5496 net.cpp:150] Setting up conv5_4
I0621 16:02:21.149577  5496 net.cpp:157] Top shape: 1 512 60 60 (1843200)
I0621 16:02:21.149581  5496 net.cpp:165] Memory required for data: 4285983000
I0621 16:02:21.149587  5496 layer_factory.hpp:77] Creating layer conv5_4/bn
I0621 16:02:21.149597  5496 net.cpp:106] Creating Layer conv5_4/bn
I0621 16:02:21.149600  5496 net.cpp:454] conv5_4/bn <- conv5_4
I0621 16:02:21.149606  5496 net.cpp:397] conv5_4/bn -> conv5_4 (in-place)
I0621 16:02:21.149811  5496 net.cpp:150] Setting up conv5_4/bn
I0621 16:02:21.149816  5496 net.cpp:157] Top shape: 1 512 60 60 (1843200)
I0621 16:02:21.149833  5496 net.cpp:165] Memory required for data: 4293355800
I0621 16:02:21.149838  5496 layer_factory.hpp:77] Creating layer conv5_4/relu
I0621 16:02:21.149847  5496 net.cpp:106] Creating Layer conv5_4/relu
I0621 16:02:21.149849  5496 net.cpp:454] conv5_4/relu <- conv5_4
I0621 16:02:21.149852  5496 net.cpp:397] conv5_4/relu -> conv5_4 (in-place)
I0621 16:02:21.149855  5496 net.cpp:150] Setting up conv5_4/relu
I0621 16:02:21.149858  5496 net.cpp:157] Top shape: 1 512 60 60 (1843200)
I0621 16:02:21.149860  5496 net.cpp:165] Memory required for data: 4300728600
I0621 16:02:21.149863  5496 layer_factory.hpp:77] Creating layer conv5_4/dropout
I0621 16:02:21.149871  5496 net.cpp:106] Creating Layer conv5_4/dropout
I0621 16:02:21.149873  5496 net.cpp:454] conv5_4/dropout <- conv5_4
I0621 16:02:21.149876  5496 net.cpp:397] conv5_4/dropout -> conv5_4 (in-place)
I0621 16:02:21.149895  5496 net.cpp:150] Setting up conv5_4/dropout
I0621 16:02:21.149899  5496 net.cpp:157] Top shape: 1 512 60 60 (1843200)
I0621 16:02:21.149901  5496 net.cpp:165] Memory required for data: 4308101400
I0621 16:02:21.149904  5496 layer_factory.hpp:77] Creating layer conv6
I0621 16:02:21.149911  5496 net.cpp:106] Creating Layer conv6
I0621 16:02:21.149914  5496 net.cpp:454] conv6 <- conv5_4
I0621 16:02:21.149917  5496 net.cpp:411] conv6 -> conv6
I0621 16:02:21.150346  5496 net.cpp:150] Setting up conv6
I0621 16:02:21.150352  5496 net.cpp:157] Top shape: 1 21 60 60 (75600)
I0621 16:02:21.150369  5496 net.cpp:165] Memory required for data: 4308403800
I0621 16:02:21.150373  5496 layer_factory.hpp:77] Creating layer conv6_interp
I0621 16:02:21.150377  5496 net.cpp:106] Creating Layer conv6_interp
I0621 16:02:21.150380  5496 net.cpp:454] conv6_interp <- conv6
I0621 16:02:21.150383  5496 net.cpp:411] conv6_interp -> conv6_interp
I0621 16:02:21.150401  5496 net.cpp:150] Setting up conv6_interp
I0621 16:02:21.150405  5496 net.cpp:157] Top shape: 1 21 473 473 (4698309)
I0621 16:02:21.150408  5496 net.cpp:165] Memory required for data: 4327197036
I0621 16:02:21.150409  5496 net.cpp:228] conv6_interp does not need backward computation.
I0621 16:02:21.150413  5496 net.cpp:228] conv6 does not need backward computation.
I0621 16:02:21.150415  5496 net.cpp:228] conv5_4/dropout does not need backward computation.
I0621 16:02:21.150418  5496 net.cpp:228] conv5_4/relu does not need backward computation.
…
