…
I0622 01:31:28.186229  4511 solver.cpp:81] Creating training net from train_net file: exper/voc12/config/pspnet_resnet101/train_train_aug.prototxt
I0622 01:31:28.197901  4511 net.cpp:49] Initializing net from parameters: 
name: "pspnet_resnet101"
state {
  phase: TRAIN
}
layer {
  name: "data"
  type: "ImageSegData"
  top: "data"
  top: "label"
  include {
    phase: TRAIN
  }
  transform_param {
    mirror: true
    crop_size: 473
    mean_value: 104.008
    mean_value: 116.669
    mean_value: 122.675
  }
  image_data_param {
    source: "exper/voc12/list/train_aug.txt"
    batch_size: 2
    shuffle: true
    root_folder: "exper/voc12/data"
    label_type: PIXEL
  }
}
layer {
  name: "conv1_1_3x3_s2"
  type: "Convolution"
  bottom: "data"
  top: "conv1_1_3x3_s2"
  param {
    lr_mult: 1
    decay_mult: 1
  }
  convolution_param {
    num_output: 64
    bias_term: false
    pad: 1
    kernel_size: 3
    stride: 2
    weight_filler {
      type: "msra"
    }
  }
}
layer {
  name: "conv1_1_3x3_s2/bn"
  type: "BN"
  bottom: "conv1_1_3x3_s2"
  top: "conv1_1_3x3_s2"
  param {
    lr_mult: 1
    decay_mult: 0
  }
  param {
    lr_mult: 1
    decay_mult: 0
  }
  param {
    lr_mult: 0
    decay_mult: 0
  }
  param {
    lr_mult: 0
    decay_mult: 0
  }
  bn_param {
    slope_filler {
      type: "constant"
      value: 1
    }
    bias_filler {
      type: "constant"
      value: 0
    }
    momentum: 0.95
    frozen: false
  }
}
layer {
  name: "conv1_1_3x3_s2/relu"
  type: "ReLU"
  bottom: "conv1_1_3x3_s2"
  top: "conv1_1_3x3_s2"
}
layer {
  name: "conv1_2_3x3"
  type: "Convolution"
  bottom: "conv1_1_3x3_s2"
  top: "conv1_2_3x3"
  param {
    lr_mult: 1
    decay_mult: 1
  }
  convolution_param {
    num_output: 64
    bias_term: false
    pad: 1
    kernel_size: 3
    stride: 1
    weight_filler {
      type: "msra"
    }
  }
}
layer {
  name: "conv1_2_3x3/bn"
  type: "BN"
  bottom: "conv1_2_3x3"
  top: "conv1_2_3x3"
  param {
    lr_mult: 1
    decay_mult: 0
  }
  param {
    lr_mult: 1
    decay_mult: 0
  }
  param {
    lr_mult: 0
    decay_mult: 0
  }
  param {
    lr_mult: 0
    decay_mult: 0
  }
  bn_param {
    slope_filler {
      type: "constant"
      value: 1
    }
    bias_filler {
      type: "constant"
      value: 0
    }
    momentum: 0.95
    frozen: true
  }
}
layer {
  name: "conv1_2_3x3/relu"
  type: "ReLU"
  bottom: "conv1_2_3x3"
  top: "conv1_2_3x3"
}
layer {
  name: "conv1_3_3x3"
  type: "Convolution"
  bottom: "conv1_2_3x3"
  top: "conv1_3_3x3"
  param {
    lr_mult: 1
    decay_mult: 1
  }
  convolution_param {
    num_output: 128
    bias_term: false
    pad: 1
    kernel_size: 3
    stride: 1
    weight_filler {
      type: "msra"
    }
  }
}
layer {
  name: "conv1_3_3x3/bn"
  type: "BN"
  bottom: "conv1_3_3x3"
  top: "conv1_3_3x3"
  param {
    lr_mult: 1
    decay_mult: 0
  }
  param {
    lr_mult: 1
    decay_mult: 0
  }
  param {
    lr_mult: 0
    decay_mult: 0
  }
  param {
    lr_mult: 0
    decay_mult: 0
  }
  bn_param {
    slope_filler {
      type: "constant"
      value: 1
    }
    bias_filler {
      type: "constant"
      value: 0
    }
    momentum: 0.95
    frozen: true
  }
}
layer {
  name: "conv1_3_3x3/relu"
  type: "ReLU"
  bottom: "conv1_3_3x3"
  top: "conv1_3_3x3"
}
layer {
  name: "pool1_3x3_s2"
  type: "Pooling"
  bottom: "conv1_3_3x3"
  top: "pool1_3x3_s2"
  pooling_param {
    pool: MAX
    kernel_size: 3
    stride: 2
    pad: 1
  }
}
layer {
  name: "conv2_1_1x1_reduce"
  type: "Convolution"
  bottom: "pool1_3x3_s2"
  top: "conv2_1_1x1_reduce"
  param {
    lr_mult: 1
    decay_mult: 1
  }
  convolution_param {
    num_output: 64
    bias_term: false
    pad: 0
    kernel_size: 1
    stride: 1
    weight_filler {
      type: "msra"
    }
  }
}
layer {
  name: "conv2_1_1x1_reduce/bn"
  type: "BN"
  bottom: "conv2_1_1x1_reduce"
  top: "conv2_1_1x1_reduce"
  param {
    lr_mult: 1
    decay_mult: 0
  }
  param {
    lr_mult: 1
    decay_mult: 0
  }
  param {
    lr_mult: 0
    decay_mult: 0
  }
  param {
    lr_mult: 0
    decay_mult: 0
  }
  bn_param {
    slope_filler {
      type: "constant"
      value: 1
    }
    bias_filler {
      type: "constant"
      value: 0
    }
    momentum: 0.95
    frozen: true
  }
}
layer {
  name: "conv2_1_1x1_reduce/relu"
  type: "ReLU"
  bottom: "conv2_1_1x1_reduce"
  top: "conv2_1_1x1_reduce"
}
layer {
  name: "conv2_1_3x3"
  type: "Convolution"
  bottom: "conv2_1_1x1_reduce"
  top: "conv2_1_3x3"
  param {
    lr_mult: 1
    decay_mult: 1
  }
  convolution_param {
    num_output: 64
    bias_term: false
    pad: 1
    kernel_size: 3
    stride: 1
    weight_filler {
      type: "msra"
    }
  }
}
layer {
  name: "conv2_1_3x3/bn"
  type: "BN"
  bottom: "conv2_1_3x3"
  top: "conv2_1_3x3"
  param {
    lr_mult: 1
    decay_mult: 0
  }
  param {
    lr_mult: 1
    decay_mult: 0
  }
  param {
    lr_mult: 0
    decay_mult: 0
  }
  param {
    lr_mult: 0
    decay_mult: 0
  }
  bn_param {
    slope_filler {
      type: "constant"
      value: 1
    }
    bias_filler {
      type: "constant"
      value: 0
    }
    momentum: 0.95
    frozen: true
  }
}
layer {
  name: "conv2_1_3x3/relu"
  type: "ReLU"
  bottom: "conv2_1_3x3"
  top: "conv2_1_3x3"
}
layer {
  name: "conv2_1_1x1_increase"
  type: "Convolution"
  bottom: "conv2_1_3x3"
  top: "conv2_1_1x1_increase"
  param {
    lr_mult: 1
    decay_mult: 1
  }
  convolution_param {
    num_output: 256
    bias_term: false
    pad: 0
    kernel_size: 1
    stride: 1
    weight_filler {
      type: "msra"
    }
  }
}
layer {
  name: "conv2_1_1x1_increase/bn"
  type: "BN"
  bottom: "conv2_1_1x1_increase"
  top: "conv2_1_1x1_increase"
  param {
    lr_mult: 1
    decay_mult: 0
  }
  param {
    lr_mult: 1
    decay_mult: 0
  }
  param {
    lr_mult: 0
    decay_mult: 0
  }
  param {
    lr_mult: 0
    decay_mult: 0
  }
  bn_param {
    slope_filler {
      type: "constant"
      value: 1
    }
    bias_filler {
      type: "constant"
      value: 0
    }
    momentum: 0.95
    frozen: true
  }
}
layer {
  name: "conv2_1_1x1_proj"
  type: "Convolution"
  bottom: "pool1_3x3_s2"
  top: "conv2_1_1x1_proj"
  param {
    lr_mult: 1
    decay_mult: 1
  }
  convolution_param {
    num_output: 256
    bias_term: false
    pad: 0
    kernel_size: 1
    stride: 1
    weight_filler {
      type: "msra"
    }
  }
}
layer {
  name: "conv2_1_1x1_proj/bn"
  type: "BN"
  bottom: "conv2_1_1x1_proj"
  top: "conv2_1_1x1_proj"
  param {
    lr_mult: 1
    decay_mult: 0
  }
  param {
    lr_mult: 1
    decay_mult: 0
  }
  param {
    lr_mult: 0
    decay_mult: 0
  }
  param {
    lr_mult: 0
    decay_mult: 0
  }
  bn_param {
    slope_filler {
      type: "constant"
      value: 1
    }
    bias_filler {
      type: "constant"
      value: 0
    }
    momentum: 0.95
    frozen: true
  }
}
layer {
  name: "conv2_1"
  type: "Eltwise"
  bottom: "conv2_1_1x1_proj"
  bottom: "conv2_1_1x1_increase"
  top: "conv2_1"
  eltwise_param {
    operation: SUM
  }
}
layer {
  name: "conv2_1/relu"
  type: "ReLU"
  bottom: "conv2_1"
  top: "conv2_1"
}
layer {
  name: "conv2_2_1x1_reduce"
  type: "Convolution"
  bottom: "conv2_1"
  top: "conv2_2_1x1_reduce"
  param {
    lr_mult: 1
    decay_mult: 1
  }
  convolution_param {
    num_output: 64
    bias_term: false
    pad: 0
    kernel_size: 1
    stride: 1
    weight_filler {
      type: "msra"
    }
  }
}
layer {
  name: "conv2_2_1x1_reduce/bn"
  type: "BN"
  bottom: "conv2_2_1x1_reduce"
  top: "conv2_2_1x1_reduce"
  param {
    lr_mult: 1
    decay_mult: 0
  }
  param {
    lr_mult: 1
    decay_mult: 0
  }
  param {
    lr_mult: 0
    decay_mult: 0
  }
  param {
    lr_mult: 0
    decay_mult: 0
  }
  bn_param {
    slope_filler {
      type: "constant"
      value: 1
    }
    bias_filler {
      type: "constant"
      value: 0
    }
    momentum: 0.95
    frozen: true
  }
}
layer {
  name: "conv2_2_1x1_reduce/relu"
  type: "ReLU"
  bottom: "conv2_2_1x1_reduce"
  top: "conv2_2_1x1_reduce"
}
layer {
  name: "conv2_2_3x3"
  type: "Convolution"
  bottom: "conv2_2_1x1_reduce"
  top: "conv2_2_3x3"
  param {
    lr_mult: 1
    decay_mult: 1
  }
  convolution_param {
    num_output: 64
    bias_term: false
    pad: 1
    kernel_size: 3
    stride: 1
    weight_filler {
      type: "msra"
    }
  }
}
layer {
  name: "conv2_2_3x3/bn"
  type: "BN"
  bottom: "conv2_2_3x3"
  top: "conv2_2_3x3"
  param {
    lr_mult: 1
    decay_mult: 0
  }
  param {
    lr_mult: 1
    decay_mult: 0
  }
  param {
    lr_mult: 0
    decay_mult: 0
  }
  param {
    lr_mult: 0
    decay_mult: 0
  }
  bn_param {
    slope_filler {
      type: "constant"
      value: 1
    }
    bias_filler {
      type: "constant"
      value: 0
    }
    momentum: 0.95
    frozen: true
  }
}
layer {
  name: "conv2_2_3x3/relu"
  type: "ReLU"
  bottom: "conv2_2_3x3"
  top: "conv2_2_3x3"
}
layer {
  name: "conv2_2_1x1_increase"
  type: "Convolution"
  bottom: "conv2_2_3x3"
  top: "conv2_2_1x1_increase"
  param {
    lr_mult: 1
    decay_mult: 1
  }
  convolution_param {
    num_output: 256
    bias_term: false
    pad: 0
    kernel_size: 1
    stride: 1
    weight_filler {
      type: "msra"
    }
  }
}
layer {
  name: "conv2_2_1x1_increase/bn"
  type: "BN"
  bottom: "conv2_2_1x1_increase"
  top: "conv2_2_1x1_increase"
  param {
    lr_mult: 1
    decay_mult: 0
  }
  param {
    lr_mult: 1
    decay_mult: 0
  }
  param {
    lr_mult: 0
    decay_mult: 0
  }
  param {
    lr_mult: 0
    decay_mult: 0
  }
  bn_param {
    slope_filler {
      type: "constant"
      value: 1
    }
    bias_filler {
      type: "constant"
      value: 0
    }
    momentum: 0.95
    frozen: true
  }
}
layer {
  name: "conv2_2"
  type: "Eltwise"
  bottom: "conv2_1"
  bottom: "conv2_2_1x1_increase"
  top: "conv2_2"
  eltwise_param {
    operation: SUM
  }
}
layer {
  name: "conv2_2/relu"
  type: "ReLU"
  bottom: "conv2_2"
  top: "conv2_2"
}
layer {
  name: "conv2_3_1x1_reduce"
  type: "Convolution"
  bottom: "conv2_2"
  top: "conv2_3_1x1_reduce"
  param {
    lr_mult: 1
    decay_mult: 1
  }
  convolution_param {
    num_output: 64
    bias_term: false
    pad: 0
    kernel_size: 1
    stride: 1
    weight_filler {
      type: "msra"
    }
  }
}
layer {
  name: "conv2_3_1x1_reduce/bn"
  type: "BN"
  bottom: "conv2_3_1x1_reduce"
  top: "conv2_3_1x1_reduce"
  param {
    lr_mult: 1
    decay_mult: 0
  }
  param {
    lr_mult: 1
    decay_mult: 0
  }
  param {
    lr_mult: 0
    decay_mult: 0
  }
  param {
    lr_mult: 0
    decay_mult: 0
  }
  bn_param {
    slope_filler {
      type: "constant"
      value: 1
    }
    bias_filler {
      type: "constant"
      value: 0
    }
    momentum: 0.95
    frozen: true
  }
}
layer {
  name: "conv2_3_1x1_reduce/relu"
  type: "ReLU"
  bottom: "conv2_3_1x1_reduce"
  top: "conv2_3_1x1_reduce"
}
layer {
  name: "conv2_3_3x3"
  type: "Convolution"
  bottom: "conv2_3_1x1_reduce"
  top: "conv2_3_3x3"
  param {
    lr_mult: 1
    decay_mult: 1
  }
  convolution_param {
    num_output: 64
    bias_term: false
    pad: 1
    kernel_size: 3
    stride: 1
    weight_filler {
      type: "msra"
    }
  }
}
layer {
  name: "conv2_3_3x3/bn"
  type: "BN"
  bottom: "conv2_3_3x3"
  top: "conv2_3_3x3"
  param {
    lr_mult: 1
    decay_mult: 0
  }
  param {
    lr_mult: 1
    decay_mult: 0
  }
  param {
    lr_mult: 0
    decay_mult: 0
  }
  param {
    lr_mult: 0
    decay_mult: 0
  }
  bn_param {
    slope_filler {
      type: "constant"
      value: 1
    }
    bias_filler {
      type: "constant"
      value: 0
    }
    momentum: 0.95
    frozen: true
  }
}
layer {
  name: "conv2_3_3x3/relu"
  type: "ReLU"
  bottom: "conv2_3_3x3"
  top: "conv2_3_3x3"
}
layer {
  name: "conv2_3_1x1_increase"
  type: "Convolution"
  bottom: "conv2_3_3x3"
  top: "conv2_3_1x1_increase"
  param {
    lr_mult: 1
    decay_mult: 1
  }
  convolution_param {
    num_output: 256
    bias_term: false
    pad: 0
    kernel_size: 1
    stride: 1
    weight_filler {
      type: "msra"
    }
  }
}
layer {
  name: "conv2_3_1x1_increase/bn"
  type: "BN"
  bottom: "conv2_3_1x1_increase"
  top: "conv2_3_1x1_increase"
  param {
    lr_mult: 1
    decay_mult: 0
  }
  param {
    lr_mult: 1
    decay_mult: 0
  }
  param {
    lr_mult: 0
    decay_mult: 0
  }
  param {
    lr_mult: 0
    decay_mult: 0
  }
  bn_param {
    slope_filler {
      type: "constant"
      value: 1
    }
    bias_filler {
      type: "constant"
      value: 0
    }
    momentum: 0.95
    frozen: true
  }
}
layer {
  name: "conv2_3"
  type: "Eltwise"
  bottom: "conv2_2"
  bottom: "conv2_3_1x1_increase"
  top: "conv2_3"
  eltwise_param {
    operation: SUM
  }
}
layer {
  name: "conv2_3/relu"
  type: "ReLU"
  bottom: "conv2_3"
  top: "conv2_3"
}
layer {
  name: "conv3_1_1x1_reduce"
  type: "Convolution"
  bottom: "conv2_3"
  top: "conv3_1_1x1_reduce"
  param {
    lr_mult: 1
    decay_mult: 1
  }
  convolution_param {
    num_output: 128
    bias_term: false
    pad: 0
    kernel_size: 1
    stride: 1
    weight_filler {
      type: "msra"
    }
  }
}
layer {
  name: "conv3_1_1x1_reduce/bn"
  type: "BN"
  bottom: "conv3_1_1x1_reduce"
  top: "conv3_1_1x1_reduce"
  param {
    lr_mult: 1
    decay_mult: 0
  }
  param {
    lr_mult: 1
    decay_mult: 0
  }
  param {
    lr_mult: 0
    decay_mult: 0
  }
  param {
    lr_mult: 0
    decay_mult: 0
  }
  bn_param {
    slope_filler {
      type: "constant"
      value: 1
    }
    bias_filler {
      type: "constant"
      value: 0
    }
    momentum: 0.95
    frozen: true
  }
}
layer {
  name: "conv3_1_1x1_reduce/relu"
  type: "ReLU"
  bottom: "conv3_1_1x1_reduce"
  top: "conv3_1_1x1_reduce"
}
layer {
  name: "conv3_1_3x3"
  type: "Convolution"
  bottom: "conv3_1_1x1_reduce"
  top: "conv3_1_3x3"
  param {
    lr_mult: 1
    decay_mult: 1
  }
  convolution_param {
    num_output: 128
    bias_term: false
    pad: 1
    kernel_size: 3
    stride: 2
    weight_filler {
      type: "msra"
    }
  }
}
layer {
  name: "conv3_1_3x3/bn"
  type: "BN"
  bottom: "conv3_1_3x3"
  top: "conv3_1_3x3"
  param {
    lr_mult: 1
    decay_mult: 0
  }
  param {
    lr_mult: 1
    decay_mult: 0
  }
  param {
    lr_mult: 0
    decay_mult: 0
  }
  param {
    lr_mult: 0
    decay_mult: 0
  }
  bn_param {
    slope_filler {
      type: "constant"
      value: 1
    }
    bias_filler {
      type: "constant"
      value: 0
    }
    momentum: 0.95
    frozen: true
  }
}
layer {
  name: "conv3_1_3x3/relu"
  type: "ReLU"
  bottom: "conv3_1_3x3"
  top: "conv3_1_3x3"
}
layer {
  name: "conv3_1_1x1_increase"
  type: "Convolution"
  bottom: "conv3_1_3x3"
  top: "conv3_1_1x1_increase"
  param {
    lr_mult: 1
    decay_mult: 1
  }
  convolution_param {
    num_output: 512
    bias_term: false
    pad: 0
    kernel_size: 1
    stride: 1
    weight_filler {
      type: "msra"
    }
  }
}
layer {
  name: "conv3_1_1x1_increase/bn"
  type: "BN"
  bottom: "conv3_1_1x1_increase"
  top: "conv3_1_1x1_increase"
  param {
    lr_mult: 1
    decay_mult: 0
  }
  param {
    lr_mult: 1
    decay_mult: 0
  }
  param {
    lr_mult: 0
    decay_mult: 0
  }
  param {
    lr_mult: 0
    decay_mult: 0
  }
  bn_param {
    slope_filler {
      type: "constant"
      value: 1
    }
    bias_filler {
      type: "constant"
      value: 0
    }
    momentum: 0.95
    frozen: true
  }
}
layer {
  name: "conv3_1_1x1_proj"
  type: "Convolution"
  bottom: "conv2_3"
  top: "conv3_1_1x1_proj"
  param {
    lr_mult: 1
    decay_mult: 1
  }
  convolution_param {
    num_output: 512
    bias_term: false
    pad: 0
    kernel_size: 1
    stride: 2
    weight_filler {
      type: "msra"
    }
  }
}
layer {
  name: "conv3_1_1x1_proj/bn"
  type: "BN"
  bottom: "conv3_1_1x1_proj"
  top: "conv3_1_1x1_proj"
  param {
    lr_mult: 1
    decay_mult: 0
  }
  param {
    lr_mult: 1
    decay_mult: 0
  }
  param {
    lr_mult: 0
    decay_mult: 0
  }
  param {
    lr_mult: 0
    decay_mult: 0
  }
  bn_param {
    slope_filler {
      type: "constant"
      value: 1
    }
    bias_filler {
      type: "constant"
      value: 0
    }
    momentum: 0.95
    frozen: true
  }
}
layer {
  name: "conv3_1"
  type: "Eltwise"
  bottom: "conv3_1_1x1_proj"
  bottom: "conv3_1_1x1_increase"
  top: "conv3_1"
  eltwise_param {
    operation: SUM
  }
}
layer {
  name: "conv3_1/relu"
  type: "ReLU"
  bottom: "conv3_1"
  top: "conv3_1"
}
layer {
  name: "conv3_2_1x1_reduce"
  type: "Convolution"
  bottom: "conv3_1"
  top: "conv3_2_1x1_reduce"
  param {
    lr_mult: 1
    decay_mult: 1
  }
  convolution_param {
    num_output: 128
    bias_term: false
    pad: 0
    kernel_size: 1
    stride: 1
    weight_filler {
      type: "msra"
    }
  }
}
layer {
  name: "conv3_2_1x1_reduce/bn"
  type: "BN"
  bottom: "conv3_2_1x1_reduce"
  top: "conv3_2_1x1_reduce"
  param {
    lr_mult: 1
    decay_mult: 0
  }
  param {
    lr_mult: 1
    decay_mult: 0
  }
  param {
    lr_mult: 0
    decay_mult: 0
  }
  param {
    lr_mult: 0
    decay_mult: 0
  }
  bn_param {
    slope_filler {
      type: "constant"
      value: 1
    }
    bias_filler {
      type: "constant"
      value: 0
    }
    momentum: 0.95
    frozen: true
  }
}
layer {
  name: "conv3_2_1x1_reduce/relu"
  type: "ReLU"
  bottom: "conv3_2_1x1_reduce"
  top: "conv3_2_1x1_reduce"
}
layer {
  name: "conv3_2_3x3"
  type: "Convolution"
  bottom: "conv3_2_1x1_reduce"
  top: "conv3_2_3x3"
  param {
    lr_mult: 1
    decay_mult: 1
  }
  convolution_param {
    num_output: 128
    bias_term: false
    pad: 1
    kernel_size: 3
    stride: 1
    weight_filler {
      type: "msra"
    }
  }
}
layer {
  name: "conv3_2_3x3/bn"
  type: "BN"
  bottom: "conv3_2_3x3"
  top: "conv3_2_3x3"
  param {
    lr_mult: 1
    decay_mult: 0
  }
  param {
    lr_mult: 1
    decay_mult: 0
  }
  param {
    lr_mult: 0
    decay_mult: 0
  }
  param {
    lr_mult: 0
    decay_mult: 0
  }
  bn_param {
    slope_filler {
      type: "constant"
      value: 1
    }
    bias_filler {
      type: "constant"
      value: 0
    }
    momentum: 0.95
    frozen: true
  }
}
layer {
  name: "conv3_2_3x3/relu"
  type: "ReLU"
  bottom: "conv3_2_3x3"
  top: "conv3_2_3x3"
}
layer {
  name: "conv3_2_1x1_increase"
  type: "Convolution"
  bottom: "conv3_2_3x3"
  top: "conv3_2_1x1_increase"
  param {
    lr_mult: 1
    decay_mult: 1
  }
  convolution_param {
    num_output: 512
    bias_term: false
    pad: 0
    kernel_size: 1
    stride: 1
    weight_filler {
      type: "msra"
    }
  }
}
layer {
  name: "conv3_2_1x1_increase/bn"
  type: "BN"
  bottom: "conv3_2_1x1_increase"
  top: "conv3_2_1x1_increase"
  param {
    lr_mult: 1
    decay_mult: 0
  }
  param {
    lr_mult: 1
    decay_mult: 0
  }
  param {
    lr_mult: 0
    decay_mult: 0
  }
  param {
    lr_mult: 0
    decay_mult: 0
  }
  bn_param {
    slope_filler {
      type: "constant"
      value: 1
    }
    bias_filler {
      type: "constant"
      value: 0
    }
    momentum: 0.95
    frozen: true
  }
}
layer {
  name: "conv3_2"
  type: "Eltwise"
  bottom: "conv3_1"
  bottom: "conv3_2_1x1_increase"
  top: "conv3_2"
  eltwise_param {
    operation: SUM
  }
}
layer {
  name: "conv3_2/relu"
  type: "ReLU"
  bottom: "conv3_2"
  top: "conv3_2"
}
layer {
  name: "conv3_3_1x1_reduce"
  type: "Convolution"
  bottom: "conv3_2"
  top: "conv3_3_1x1_reduce"
  param {
    lr_mult: 1
    decay_mult: 1
  }
  convolution_param {
    num_output: 128
    bias_term: false
    pad: 0
    kernel_size: 1
    stride: 1
    weight_filler {
      type: "msra"
    }
  }
}
layer {
  name: "conv3_3_1x1_reduce/bn"
  type: "BN"
  bottom: "conv3_3_1x1_reduce"
  top: "conv3_3_1x1_reduce"
  param {
    lr_mult: 1
    decay_mult: 0
  }
  param {
    lr_mult: 1
    decay_mult: 0
  }
  param {
    lr_mult: 0
    decay_mult: 0
  }
  param {
    lr_mult: 0
    decay_mult: 0
  }
  bn_param {
    slope_filler {
      type: "constant"
      value: 1
    }
    bias_filler {
      type: "constant"
      value: 0
    }
    momentum: 0.95
    frozen: true
  }
}
layer {
  name: "conv3_3_1x1_reduce/relu"
  type: "ReLU"
  bottom: "conv3_3_1x1_reduce"
  top: "conv3_3_1x1_reduce"
}
layer {
  name: "conv3_3_3x3"
  type: "Convolution"
  bottom: "conv3_3_1x1_reduce"
  top: "conv3_3_3x3"
  param {
    lr_mult: 1
    decay_mult: 1
  }
  convolution_param {
    num_output: 128
    bias_term: false
    pad: 1
    kernel_size: 3
    stride: 1
    weight_filler {
      type: "msra"
    }
  }
}
layer {
  name: "conv3_3_3x3/bn"
  type: "BN"
  bottom: "conv3_3_3x3"
  top: "conv3_3_3x3"
  param {
    lr_mult: 1
    decay_mult: 0
  }
  param {
    lr_mult: 1
    decay_mult: 0
  }
  param {
    lr_mult: 0
    decay_mult: 0
  }
  param {
    lr_mult: 0
    decay_mult: 0
  }
  bn_param {
    slope_filler {
      type: "constant"
      value: 1
    }
    bias_filler {
      type: "constant"
      value: 0
    }
    momentum: 0.95
    frozen: true
  }
}
layer {
  name: "conv3_3_3x3/relu"
  type: "ReLU"
  bottom: "conv3_3_3x3"
  top: "conv3_3_3x3"
}
layer {
  name: "conv3_3_1x1_increase"
  type: "Convolution"
  bottom: "conv3_3_3x3"
  top: "conv3_3_1x1_increase"
  param {
    lr_mult: 1
    decay_mult: 1
  }
  convolution_param {
    num_output: 512
    bias_term: false
    pad: 0
    kernel_size: 1
    stride: 1
    weight_filler {
      type: "msra"
    }
  }
}
layer {
  name: "conv3_3_1x1_increase/bn"
  type: "BN"
  bottom: "conv3_3_1x1_increase"
  top: "conv3_3_1x1_increase"
  param {
    lr_mult: 1
    decay_mult: 0
  }
  param {
    lr_mult: 1
    decay_mult: 0
  }
  param {
    lr_mult: 0
    decay_mult: 0
  }
  param {
    lr_mult: 0
    decay_mult: 0
  }
  bn_param {
    slope_filler {
      type: "constant"
      value: 1
    }
    bias_filler {
      type: "constant"
      value: 0
    }
    momentum: 0.95
    frozen: true
  }
}
layer {
  name: "conv3_3"
  type: "Eltwise"
  bottom: "conv3_2"
  bottom: "conv3_3_1x1_increase"
  top: "conv3_3"
  eltwise_param {
    operation: SUM
  }
}
layer {
  name: "conv3_3/relu"
  type: "ReLU"
  bottom: "conv3_3"
  top: "conv3_3"
}
layer {
  name: "conv3_4_1x1_reduce"
  type: "Convolution"
  bottom: "conv3_3"
  top: "conv3_4_1x1_reduce"
  param {
    lr_mult: 1
    decay_mult: 1
  }
  convolution_param {
    num_output: 128
    bias_term: false
    pad: 0
    kernel_size: 1
    stride: 1
    weight_filler {
      type: "msra"
    }
  }
}
layer {
  name: "conv3_4_1x1_reduce/bn"
  type: "BN"
  bottom: "conv3_4_1x1_reduce"
  top: "conv3_4_1x1_reduce"
  param {
    lr_mult: 1
    decay_mult: 0
  }
  param {
    lr_mult: 1
    decay_mult: 0
  }
  param {
    lr_mult: 0
    decay_mult: 0
  }
  param {
    lr_mult: 0
    decay_mult: 0
  }
  bn_param {
    slope_filler {
      type: "constant"
      value: 1
    }
    bias_filler {
      type: "constant"
      value: 0
    }
    momentum: 0.95
    frozen: true
  }
}
layer {
  name: "conv3_4_1x1_reduce/relu"
  type: "ReLU"
  bottom: "conv3_4_1x1_reduce"
  top: "conv3_4_1x1_reduce"
}
layer {
  name: "conv3_4_3x3"
  type: "Convolution"
  bottom: "conv3_4_1x1_reduce"
  top: "conv3_4_3x3"
  param {
    lr_mult: 1
    decay_mult: 1
  }
  convolution_param {
    num_output: 128
    bias_term: false
    pad: 1
    kernel_size: 3
    stride: 1
    weight_filler {
      type: "msra"
    }
  }
}
layer {
  name: "conv3_4_3x3/bn"
  type: "BN"
  bottom: "conv3_4_3x3"
  top: "conv3_4_3x3"
  param {
    lr_mult: 1
    decay_mult: 0
  }
  param {
    lr_mult: 1
    decay_mult: 0
  }
  param {
    lr_mult: 0
    decay_mult: 0
  }
  param {
    lr_mult: 0
    decay_mult: 0
  }
  bn_param {
    slope_filler {
      type: "constant"
      value: 1
    }
    bias_filler {
      type: "constant"
      value: 0
    }
    momentum: 0.95
    frozen: true
  }
}
layer {
  name: "conv3_4_3x3/relu"
  type: "ReLU"
  bottom: "conv3_4_3x3"
  top: "conv3_4_3x3"
}
layer {
  name: "conv3_4_1x1_increase"
  type: "Convolution"
  bottom: "conv3_4_3x3"
  top: "conv3_4_1x1_increase"
  param {
    lr_mult: 1
    decay_mult: 1
  }
  convolution_param {
    num_output: 512
    bias_term: false
    pad: 0
    kernel_size: 1
    stride: 1
    weight_filler {
      type: "msra"
    }
  }
}
layer {
  name: "conv3_4_1x1_increase/bn"
  type: "BN"
  bottom: "conv3_4_1x1_increase"
  top: "conv3_4_1x1_increase"
  param {
    lr_mult: 1
    decay_mult: 0
  }
  param {
    lr_mult: 1
    decay_mult: 0
  }
  param {
    lr_mult: 0
    decay_mult: 0
  }
  param {
    lr_mult: 0
    decay_mult: 0
  }
  bn_param {
    slope_filler {
      type: "constant"
      value: 1
    }
    bias_filler {
      type: "constant"
      value: 0
    }
    momentum: 0.95
    frozen: true
  }
}
layer {
  name: "conv3_4"
  type: "Eltwise"
  bottom: "conv3_3"
  bottom: "conv3_4_1x1_increase"
  top: "conv3_4"
  eltwise_param {
    operation: SUM
  }
}
layer {
  name: "conv3_4/relu"
  type: "ReLU"
  bottom: "conv3_4"
  top: "conv3_4"
}
layer {
  name: "conv4_1_1x1_reduce"
  type: "Convolution"
  bottom: "conv3_4"
  top: "conv4_1_1x1_reduce"
  param {
    lr_mult: 1
    decay_mult: 1
  }
  convolution_param {
    num_output: 256
    bias_term: false
    pad: 0
    kernel_size: 1
    stride: 1
    weight_filler {
      type: "msra"
    }
  }
}
layer {
  name: "conv4_1_1x1_reduce/bn"
  type: "BN"
  bottom: "conv4_1_1x1_reduce"
  top: "conv4_1_1x1_reduce"
  param {
    lr_mult: 1
    decay_mult: 0
  }
  param {
    lr_mult: 1
    decay_mult: 0
  }
  param {
    lr_mult: 0
    decay_mult: 0
  }
  param {
    lr_mult: 0
    decay_mult: 0
  }
  bn_param {
    slope_filler {
      type: "constant"
      value: 1
    }
    bias_filler {
      type: "constant"
      value: 0
    }
    momentum: 0.95
    frozen: true
  }
}
layer {
  name: "conv4_1_1x1_reduce/relu"
  type: "ReLU"
  bottom: "conv4_1_1x1_reduce"
  top: "conv4_1_1x1_reduce"
}
layer {
  name: "conv4_1_3x3"
  type: "Convolution"
  bottom: "conv4_1_1x1_reduce"
  top: "conv4_1_3x3"
  param {
    lr_mult: 1
    decay_mult: 1
  }
  convolution_param {
    num_output: 256
    bias_term: false
    pad: 2
    kernel_size: 3
    stride: 1
    weight_filler {
      type: "msra"
    }
    dilation: 2
  }
}
layer {
  name: "conv4_1_3x3/bn"
  type: "BN"
  bottom: "conv4_1_3x3"
  top: "conv4_1_3x3"
  param {
    lr_mult: 1
    decay_mult: 0
  }
  param {
    lr_mult: 1
    decay_mult: 0
  }
  param {
    lr_mult: 0
    decay_mult: 0
  }
  param {
    lr_mult: 0
    decay_mult: 0
  }
  bn_param {
    slope_filler {
      type: "constant"
      value: 1
    }
    bias_filler {
      type: "constant"
      value: 0
    }
    momentum: 0.95
    frozen: true
  }
}
layer {
  name: "conv4_1_3x3/relu"
  type: "ReLU"
  bottom: "conv4_1_3x3"
  top: "conv4_1_3x3"
}
layer {
  name: "conv4_1_1x1_increase"
  type: "Convolution"
  bottom: "conv4_1_3x3"
  top: "conv4_1_1x1_increase"
  param {
    lr_mult: 1
    decay_mult: 1
  }
  convolution_param {
    num_output: 1024
    bias_term: false
    pad: 0
    kernel_size: 1
    stride: 1
    weight_filler {
      type: "msra"
    }
  }
}
layer {
  name: "conv4_1_1x1_increase/bn"
  type: "BN"
  bottom: "conv4_1_1x1_increase"
  top: "conv4_1_1x1_increase"
  param {
    lr_mult: 1
    decay_mult: 0
  }
  param {
    lr_mult: 1
    decay_mult: 0
  }
  param {
    lr_mult: 0
    decay_mult: 0
  }
  param {
    lr_mult: 0
    decay_mult: 0
  }
  bn_param {
    slope_filler {
      type: "constant"
      value: 1
    }
    bias_filler {
      type: "constant"
      value: 0
    }
    momentum: 0.95
    frozen: true
  }
}
layer {
  name: "conv4_1_1x1_proj"
  type: "Convolution"
  bottom: "conv3_4"
  top: "conv4_1_1x1_proj"
  param {
    lr_mult: 1
    decay_mult: 1
  }
  convolution_param {
    num_output: 1024
    bias_term: false
    pad: 0
    kernel_size: 1
    stride: 1
    weight_filler {
      type: "msra"
    }
  }
}
layer {
  name: "conv4_1_1x1_proj/bn"
  type: "BN"
  bottom: "conv4_1_1x1_proj"
  top: "conv4_1_1x1_proj"
  param {
    lr_mult: 1
    decay_mult: 0
  }
  param {
    lr_mult: 1
    decay_mult: 0
  }
  param {
    lr_mult: 0
    decay_mult: 0
  }
  param {
    lr_mult: 0
    decay_mult: 0
  }
  bn_param {
    slope_filler {
      type: "constant"
      value: 1
    }
    bias_filler {
      type: "constant"
      value: 0
    }
    momentum: 0.95
    frozen: true
  }
}
layer {
  name: "conv4_1"
  type: "Eltwise"
  bottom: "conv4_1_1x1_proj"
  bottom: "conv4_1_1x1_increase"
  top: "conv4_1"
  eltwise_param {
    operation: SUM
  }
}
layer {
  name: "conv4_1/relu"
  type: "ReLU"
  bottom: "conv4_1"
  top: "conv4_1"
}
layer {
  name: "conv4_2_1x1_reduce"
  type: "Convolution"
  bottom: "conv4_1"
  top: "conv4_2_1x1_reduce"
  param {
    lr_mult: 1
    decay_mult: 1
  }
  convolution_param {
    num_output: 256
    bias_term: false
    pad: 0
    kernel_size: 1
    stride: 1
    weight_filler {
      type: "msra"
    }
  }
}
layer {
  name: "conv4_2_1x1_reduce/bn"
  type: "BN"
  bottom: "conv4_2_1x1_reduce"
  top: "conv4_2_1x1_reduce"
  param {
    lr_mult: 1
    decay_mult: 0
  }
  param {
    lr_mult: 1
    decay_mult: 0
  }
  param {
    lr_mult: 0
    decay_mult: 0
  }
  param {
    lr_mult: 0
    decay_mult: 0
  }
  bn_param {
    slope_filler {
      type: "constant"
      value: 1
    }
    bias_filler {
      type: "constant"
      value: 0
    }
    momentum: 0.95
    frozen: true
  }
}
layer {
  name: "conv4_2_1x1_reduce/relu"
  type: "ReLU"
  bottom: "conv4_2_1x1_reduce"
  top: "conv4_2_1x1_reduce"
}
layer {
  name: "conv4_2_3x3"
  type: "Convolution"
  bottom: "conv4_2_1x1_reduce"
  top: "conv4_2_3x3"
  param {
    lr_mult: 1
    decay_mult: 1
  }
  convolution_param {
    num_output: 256
    bias_term: false
    pad: 2
    kernel_size: 3
    stride: 1
    weight_filler {
      type: "msra"
    }
    dilation: 2
  }
}
layer {
  name: "conv4_2_3x3/bn"
  type: "BN"
  bottom: "conv4_2_3x3"
  top: "conv4_2_3x3"
  param {
    lr_mult: 1
    decay_mult: 0
  }
  param {
    lr_mult: 1
    decay_mult: 0
  }
  param {
    lr_mult: 0
    decay_mult: 0
  }
  param {
    lr_mult: 0
    decay_mult: 0
  }
  bn_param {
    slope_filler {
      type: "constant"
      value: 1
    }
    bias_filler {
      type: "constant"
      value: 0
    }
    momentum: 0.95
    frozen: true
  }
}
layer {
  name: "conv4_2
I0622 01:31:28.213598  4511 layer_factory.hpp:77] Creating layer data
I0622 01:31:28.215651  4511 net.cpp:106] Creating Layer data
I0622 01:31:28.215682  4511 net.cpp:411] data -> data
I0622 01:31:28.215746  4511 net.cpp:411] data -> label
I0622 01:31:28.215760  4511 net.cpp:411] data -> (automatic)
I0622 01:31:28.216747  4511 image_seg_data_layer.cpp:46] Opening file exper/voc12/list/train_aug.txt
I0622 01:31:28.225167  4511 image_seg_data_layer.cpp:63] Shuffling data
I0622 01:31:28.226161  4511 image_seg_data_layer.cpp:68] A total of 10582 images.
I0622 01:31:28.292883  4511 image_seg_data_layer.cpp:137] output data size: 2,3,473,473
I0622 01:31:28.292906  4511 image_seg_data_layer.cpp:141] output label size: 2,1,473,473
I0622 01:31:28.292909  4511 image_seg_data_layer.cpp:145] output data_dim size: 2,1,1,2
I0622 01:31:28.325268  4511 net.cpp:150] Setting up data
I0622 01:31:28.325306  4511 net.cpp:157] Top shape: 2 3 473 473 (1342374)
I0622 01:31:28.325312  4511 net.cpp:157] Top shape: 2 1 473 473 (447458)
I0622 01:31:28.325315  4511 net.cpp:157] Top shape: 2 1 1 2 (4)
I0622 01:31:28.325318  4511 net.cpp:165] Memory required for data: 7159344
I0622 01:31:28.325328  4511 layer_factory.hpp:77] Creating layer conv1_1_3x3_s2
I0622 01:31:28.325366  4511 net.cpp:106] Creating Layer conv1_1_3x3_s2
I0622 01:31:28.325371  4511 net.cpp:454] conv1_1_3x3_s2 <- data
I0622 01:31:28.325382  4511 net.cpp:411] conv1_1_3x3_s2 -> conv1_1_3x3_s2
I0622 01:31:28.329910  4511 net.cpp:150] Setting up conv1_1_3x3_s2
I0622 01:31:28.329926  4511 net.cpp:157] Top shape: 2 64 237 237 (7189632)
I0622 01:31:28.329927  4511 net.cpp:165] Memory required for data: 35917872
I0622 01:31:28.329936  4511 layer_factory.hpp:77] Creating layer conv1_1_3x3_s2/bn
I0622 01:31:28.329946  4511 net.cpp:106] Creating Layer conv1_1_3x3_s2/bn
I0622 01:31:28.329948  4511 net.cpp:454] conv1_1_3x3_s2/bn <- conv1_1_3x3_s2
I0622 01:31:28.329954  4511 net.cpp:397] conv1_1_3x3_s2/bn -> conv1_1_3x3_s2 (in-place)
I0622 01:31:28.330639  4511 net.cpp:150] Setting up conv1_1_3x3_s2/bn
I0622 01:31:28.330651  4511 net.cpp:157] Top shape: 2 64 237 237 (7189632)
I0622 01:31:28.330655  4511 net.cpp:165] Memory required for data: 64676400
I0622 01:31:28.330684  4511 layer_factory.hpp:77] Creating layer conv1_1_3x3_s2/relu
I0622 01:31:28.330693  4511 net.cpp:106] Creating Layer conv1_1_3x3_s2/relu
I0622 01:31:28.330698  4511 net.cpp:454] conv1_1_3x3_s2/relu <- conv1_1_3x3_s2
I0622 01:31:28.330701  4511 net.cpp:397] conv1_1_3x3_s2/relu -> conv1_1_3x3_s2 (in-place)
I0622 01:31:28.331871  4511 net.cpp:150] Setting up conv1_1_3x3_s2/relu
I0622 01:31:28.331885  4511 net.cpp:157] Top shape: 2 64 237 237 (7189632)
I0622 01:31:28.331890  4511 net.cpp:165] Memory required for data: 93434928
I0622 01:31:28.331895  4511 layer_factory.hpp:77] Creating layer conv1_2_3x3
I0622 01:31:28.331918  4511 net.cpp:106] Creating Layer conv1_2_3x3
I0622 01:31:28.331923  4511 net.cpp:454] conv1_2_3x3 <- conv1_1_3x3_s2
I0622 01:31:28.331933  4511 net.cpp:411] conv1_2_3x3 -> conv1_2_3x3
I0622 01:31:28.333256  4511 net.cpp:150] Setting up conv1_2_3x3
I0622 01:31:28.333269  4511 net.cpp:157] Top shape: 2 64 237 237 (7189632)
I0622 01:31:28.333274  4511 net.cpp:165] Memory required for data: 122193456
I0622 01:31:28.333283  4511 layer_factory.hpp:77] Creating layer conv1_2_3x3/bn
I0622 01:31:28.333294  4511 net.cpp:106] Creating Layer conv1_2_3x3/bn
I0622 01:31:28.333302  4511 net.cpp:454] conv1_2_3x3/bn <- conv1_2_3x3
I0622 01:31:28.333308  4511 net.cpp:397] conv1_2_3x3/bn -> conv1_2_3x3 (in-place)
I0622 01:31:28.333477  4511 net.cpp:150] Setting up conv1_2_3x3/bn
I0622 01:31:28.333483  4511 net.cpp:157] Top shape: 2 64 237 237 (7189632)
I0622 01:31:28.333485  4511 net.cpp:165] Memory required for data: 150951984
I0622 01:31:28.333493  4511 layer_factory.hpp:77] Creating layer conv1_2_3x3/relu
I0622 01:31:28.333498  4511 net.cpp:106] Creating Layer conv1_2_3x3/relu
I0622 01:31:28.333501  4511 net.cpp:454] conv1_2_3x3/relu <- conv1_2_3x3
I0622 01:31:28.333504  4511 net.cpp:397] conv1_2_3x3/relu -> conv1_2_3x3 (in-place)
I0622 01:31:28.333509  4511 net.cpp:150] Setting up conv1_2_3x3/relu
I0622 01:31:28.333513  4511 net.cpp:157] Top shape: 2 64 237 237 (7189632)
I0622 01:31:28.333514  4511 net.cpp:165] Memory required for data: 179710512
I0622 01:31:28.333518  4511 layer_factory.hpp:77] Creating layer conv1_3_3x3
I0622 01:31:28.333523  4511 net.cpp:106] Creating Layer conv1_3_3x3
I0622 01:31:28.333525  4511 net.cpp:454] conv1_3_3x3 <- conv1_2_3x3
I0622 01:31:28.333529  4511 net.cpp:411] conv1_3_3x3 -> conv1_3_3x3
I0622 01:31:28.335511  4511 net.cpp:150] Setting up conv1_3_3x3
I0622 01:31:28.335537  4511 net.cpp:157] Top shape: 2 128 237 237 (14379264)
I0622 01:31:28.335546  4511 net.cpp:165] Memory required for data: 237227568
I0622 01:31:28.335556  4511 layer_factory.hpp:77] Creating layer conv1_3_3x3/bn
I0622 01:31:28.335583  4511 net.cpp:106] Creating Layer conv1_3_3x3/bn
I0622 01:31:28.335595  4511 net.cpp:454] conv1_3_3x3/bn <- conv1_3_3x3
I0622 01:31:28.335611  4511 net.cpp:397] conv1_3_3x3/bn -> conv1_3_3x3 (in-place)
I0622 01:31:28.335974  4511 net.cpp:150] Setting up conv1_3_3x3/bn
I0622 01:31:28.335983  4511 net.cpp:157] Top shape: 2 128 237 237 (14379264)
I0622 01:31:28.335988  4511 net.cpp:165] Memory required for data: 294744624
I0622 01:31:28.335996  4511 layer_factory.hpp:77] Creating layer conv1_3_3x3/relu
I0622 01:31:28.336007  4511 net.cpp:106] Creating Layer conv1_3_3x3/relu
I0622 01:31:28.336010  4511 net.cpp:454] conv1_3_3x3/relu <- conv1_3_3x3
I0622 01:31:28.336015  4511 net.cpp:397] conv1_3_3x3/relu -> conv1_3_3x3 (in-place)
I0622 01:31:28.336020  4511 net.cpp:150] Setting up conv1_3_3x3/relu
I0622 01:31:28.336025  4511 net.cpp:157] Top shape: 2 128 237 237 (14379264)
I0622 01:31:28.336028  4511 net.cpp:165] Memory required for data: 352261680
I0622 01:31:28.336031  4511 layer_factory.hpp:77] Creating layer pool1_3x3_s2
I0622 01:31:28.336038  4511 net.cpp:106] Creating Layer pool1_3x3_s2
I0622 01:31:28.336041  4511 net.cpp:454] pool1_3x3_s2 <- conv1_3_3x3
I0622 01:31:28.336047  4511 net.cpp:411] pool1_3x3_s2 -> pool1_3x3_s2
I0622 01:31:28.336102  4511 net.cpp:150] Setting up pool1_3x3_s2
I0622 01:31:28.336108  4511 net.cpp:157] Top shape: 2 128 119 119 (3625216)
I0622 01:31:28.336134  4511 net.cpp:165] Memory required for data: 366762544
I0622 01:31:28.336139  4511 layer_factory.hpp:77] Creating layer pool1_3x3_s2_pool1_3x3_s2_0_split
I0622 01:31:28.336402  4511 net.cpp:106] Creating Layer pool1_3x3_s2_pool1_3x3_s2_0_split
I0622 01:31:28.336410  4511 net.cpp:454] pool1_3x3_s2_pool1_3x3_s2_0_split <- pool1_3x3_s2
I0622 01:31:28.336417  4511 net.cpp:411] pool1_3x3_s2_pool1_3x3_s2_0_split -> pool1_3x3_s2_pool1_3x3_s2_0_split_0
I0622 01:31:28.336426  4511 net.cpp:411] pool1_3x3_s2_pool1_3x3_s2_0_split -> pool1_3x3_s2_pool1_3x3_s2_0_split_1
I0622 01:31:28.336475  4511 net.cpp:150] Setting up pool1_3x3_s2_pool1_3x3_s2_0_split
I0622 01:31:28.336482  4511 net.cpp:157] Top shape: 2 128 119 119 (3625216)
I0622 01:31:28.336488  4511 net.cpp:157] Top shape: 2 128 119 119 (3625216)
I0622 01:31:28.336490  4511 net.cpp:165] Memory required for data: 395764272
I0622 01:31:28.336494  4511 layer_factory.hpp:77] Creating layer conv2_1_1x1_reduce
I0622 01:31:28.336508  4511 net.cpp:106] Creating Layer conv2_1_1x1_reduce
I0622 01:31:28.336513  4511 net.cpp:454] conv2_1_1x1_reduce <- pool1_3x3_s2_pool1_3x3_s2_0_split_0
I0622 01:31:28.336519  4511 net.cpp:411] conv2_1_1x1_reduce -> conv2_1_1x1_reduce
I0622 01:31:28.364394  4511 net.cpp:150] Setting up conv2_1_1x1_reduce
I0622 01:31:28.364452  4511 net.cpp:157] Top shape: 2 64 119 119 (1812608)
I0622 01:31:28.364464  4511 net.cpp:165] Memory required for data: 403014704
I0622 01:31:28.364476  4511 layer_factory.hpp:77] Creating layer conv2_1_1x1_reduce/bn
I0622 01:31:28.364508  4511 net.cpp:106] Creating Layer conv2_1_1x1_reduce/bn
I0622 01:31:28.364521  4511 net.cpp:454] conv2_1_1x1_reduce/bn <- conv2_1_1x1_reduce
I0622 01:31:28.364533  4511 net.cpp:397] conv2_1_1x1_reduce/bn -> conv2_1_1x1_reduce (in-place)
I0622 01:31:28.364794  4511 net.cpp:150] Setting up conv2_1_1x1_reduce/bn
I0622 01:31:28.364806  4511 net.cpp:157] Top shape: 2 64 119 119 (1812608)
I0622 01:31:28.364812  4511 net.cpp:165] Memory required for data: 410265136
I0622 01:31:28.364830  4511 layer_factory.hpp:77] Creating layer conv2_1_1x1_reduce/relu
I0622 01:31:28.364851  4511 net.cpp:106] Creating Layer conv2_1_1x1_reduce/relu
I0622 01:31:28.364857  4511 net.cpp:454] conv2_1_1x1_reduce/relu <- conv2_1_1x1_reduce
I0622 01:31:28.364866  4511 net.cpp:397] conv2_1_1x1_reduce/relu -> conv2_1_1x1_reduce (in-place)
I0622 01:31:28.364879  4511 net.cpp:150] Setting up conv2_1_1x1_reduce/relu
I0622 01:31:28.364886  4511 net.cpp:157] Top shape: 2 64 119 119 (1812608)
I0622 01:31:28.364890  4511 net.cpp:165] Memory required for data: 417515568
I0622 01:31:28.364894  4511 layer_factory.hpp:77] Creating layer conv2_1_3x3
I0622 01:31:28.364909  4511 net.cpp:106] Creating Layer conv2_1_3x3
I0622 01:31:28.364915  4511 net.cpp:454] conv2_1_3x3 <- conv2_1_1x1_reduce
I0622 01:31:28.364923  4511 net.cpp:411] conv2_1_3x3 -> conv2_1_3x3
I0622 01:31:28.366302  4511 net.cpp:150] Setting up conv2_1_3x3
I0622 01:31:28.366348  4511 net.cpp:157] Top shape: 2 64 119 119 (1812608)
I0622 01:31:28.366354  4511 net.cpp:165] Memory required for data: 424766000
I0622 01:31:28.366371  4511 layer_factory.hpp:77] Creating layer conv2_1_3x3/bn
I0622 01:31:28.366410  4511 net.cpp:106] Creating Layer conv2_1_3x3/bn
I0622 01:31:28.366418  4511 net.cpp:454] conv2_1_3x3/bn <- conv2_1_3x3
I0622 01:31:28.366431  4511 net.cpp:397] conv2_1_3x3/bn -> conv2_1_3x3 (in-place)
I0622 01:31:28.366741  4511 net.cpp:150] Setting up conv2_1_3x3/bn
I0622 01:31:28.366751  4511 net.cpp:157] Top shape: 2 64 119 119 (1812608)
I0622 01:31:28.366756  4511 net.cpp:165] Memory required for data: 432016432
I0622 01:31:28.366771  4511 layer_factory.hpp:77] Creating layer conv2_1_3x3/relu
I0622 01:31:28.366785  4511 net.cpp:106] Creating Layer conv2_1_3x3/relu
I0622 01:31:28.366791  4511 net.cpp:454] conv2_1_3x3/relu <- conv2_1_3x3
I0622 01:31:28.366796  4511 net.cpp:397] conv2_1_3x3/relu -> conv2_1_3x3 (in-place)
I0622 01:31:28.366804  4511 net.cpp:150] Setting up conv2_1_3x3/relu
I0622 01:31:28.366812  4511 net.cpp:157] Top shape: 2 64 119 119 (1812608)
I0622 01:31:28.366858  4511 net.cpp:165] Memory required for data: 439266864
I0622 01:31:28.366861  4511 layer_factory.hpp:77] Creating layer conv2_1_1x1_increase
I0622 01:31:28.366879  4511 net.cpp:106] Creating Layer conv2_1_1x1_increase
I0622 01:31:28.366886  4511 net.cpp:454] conv2_1_1x1_increase <- conv2_1_3x3
I0622 01:31:28.366892  4511 net.cpp:411] conv2_1_1x1_increase -> conv2_1_1x1_increase
I0622 01:31:28.367568  4511 net.cpp:150] Setting up conv2_1_1x1_increase
I0622 01:31:28.367576  4511 net.cpp:157] Top shape: 2 256 119 119 (7250432)
I0622 01:31:28.367580  4511 net.cpp:165] Memory required for data: 468268592
I0622 01:31:28.367586  4511 layer_factory.hpp:77] Creating layer conv2_1_1x1_increase/bn
I0622 01:31:28.367599  4511 net.cpp:106] Creating Layer conv2_1_1x1_increase/bn
I0622 01:31:28.367604  4511 net.cpp:454] conv2_1_1x1_increase/bn <- conv2_1_1x1_increase
I0622 01:31:28.367609  4511 net.cpp:397] conv2_1_1x1_increase/bn -> conv2_1_1x1_increase (in-place)
I0622 01:31:28.367768  4511 net.cpp:150] Setting up conv2_1_1x1_increase/bn
I0622 01:31:28.367774  4511 net.cpp:157] Top shape: 2 256 119 119 (7250432)
I0622 01:31:28.367779  4511 net.cpp:165] Memory required for data: 497270320
I0622 01:31:28.367786  4511 layer_factory.hpp:77] Creating layer conv2_1_1x1_proj
I0622 01:31:28.367794  4511 net.cpp:106] Creating Layer conv2_1_1x1_proj
I0622 01:31:28.367799  4511 net.cpp:454] conv2_1_1x1_proj <- pool1_3x3_s2_pool1_3x3_s2_0_split_1
I0622 01:31:28.367806  4511 net.cpp:411] conv2_1_1x1_proj -> conv2_1_1x1_proj
I0622 01:31:28.368860  4511 net.cpp:150] Setting up conv2_1_1x1_proj
I0622 01:31:28.368868  4511 net.cpp:157] Top shape: 2 256 119 119 (7250432)
I0622 01:31:28.368872  4511 net.cpp:165] Memory required for data: 526272048
I0622 01:31:28.368880  4511 layer_factory.hpp:77] Creating layer conv2_1_1x1_proj/bn
I0622 01:31:28.368890  4511 net.cpp:106] Creating Layer conv2_1_1x1_proj/bn
I0622 01:31:28.368893  4511 net.cpp:454] conv2_1_1x1_proj/bn <- conv2_1_1x1_proj
I0622 01:31:28.368899  4511 net.cpp:397] conv2_1_1x1_proj/bn -> conv2_1_1x1_proj (in-place)
I0622 01:31:28.369086  4511 net.cpp:150] Setting up conv2_1_1x1_proj/bn
I0622 01:31:28.369094  4511 net.cpp:157] Top shape: 2 256 119 119 (7250432)
I0622 01:31:28.369097  4511 net.cpp:165] Memory required for data: 555273776
I0622 01:31:28.369115  4511 layer_factory.hpp:77] Creating layer conv2_1
I0622 01:31:28.369794  4511 net.cpp:106] Creating Layer conv2_1
I0622 01:31:28.369801  4511 net.cpp:454] conv2_1 <- conv2_1_1x1_proj
I0622 01:31:28.369807  4511 net.cpp:454] conv2_1 <- conv2_1_1x1_increase
I0622 01:31:28.369814  4511 net.cpp:411] conv2_1 -> conv2_1
I0622 01:31:28.370785  4511 net.cpp:150] Setting up conv2_1
I0622 01:31:28.370792  4511 net.cpp:157] Top shape: 2 256 119 119 (7250432)
I0622 01:31:28.370795  4511 net.cpp:165] Memory required for data: 584275504
I0622 01:31:28.370798  4511 layer_factory.hpp:77] Creating layer conv2_1/relu
I0622 01:31:28.370805  4511 net.cpp:106] Creating Layer conv2_1/relu
I0622 01:31:28.370807  4511 net.cpp:454] conv2_1/relu <- conv2_1
I0622 01:31:28.370812  4511 net.cpp:397] conv2_1/relu -> conv2_1 (in-place)
I0622 01:31:28.370816  4511 net.cpp:150] Setting up conv2_1/relu
I0622 01:31:28.370820  4511 net.cpp:157] Top shape: 2 256 119 119 (7250432)
I0622 01:31:28.370823  4511 net.cpp:165] Memory required for data: 613277232
I0622 01:31:28.370826  4511 layer_factory.hpp:77] Creating layer conv2_1_conv2_1/relu_0_split
I0622 01:31:28.370831  4511 net.cpp:106] Creating Layer conv2_1_conv2_1/relu_0_split
I0622 01:31:28.370834  4511 net.cpp:454] conv2_1_conv2_1/relu_0_split <- conv2_1
I0622 01:31:28.370838  4511 net.cpp:411] conv2_1_conv2_1/relu_0_split -> conv2_1_conv2_1/relu_0_split_0
I0622 01:31:28.370842  4511 net.cpp:411] conv2_1_conv2_1/relu_0_split -> conv2_1_conv2_1/relu_0_split_1
I0622 01:31:28.370864  4511 net.cpp:150] Setting up conv2_1_conv2_1/relu_0_split
I0622 01:31:28.370869  4511 net.cpp:157] Top shape: 2 256 119 119 (7250432)
I0622 01:31:28.370872  4511 net.cpp:157] Top shape: 2 256 119 119 (7250432)
I0622 01:31:28.370884  4511 net.cpp:165] Memory required for data: 671280688
I0622 01:31:28.370887  4511 layer_factory.hpp:77] Creating layer conv2_2_1x1_reduce
I0622 01:31:28.370895  4511 net.cpp:106] Creating Layer conv2_2_1x1_reduce
I0622 01:31:28.370899  4511 net.cpp:454] conv2_2_1x1_reduce <- conv2_1_conv2_1/relu_0_split_0
I0622 01:31:28.370904  4511 net.cpp:411] conv2_2_1x1_reduce -> conv2_2_1x1_reduce
I0622 01:31:28.371412  4511 net.cpp:150] Setting up conv2_2_1x1_reduce
I0622 01:31:28.371418  4511 net.cpp:157] Top shape: 2 64 119 119 (1812608)
I0622 01:31:28.371421  4511 net.cpp:165] Memory required for data: 678531120
I0622 01:31:28.371425  4511 layer_factory.hpp:77] Creating layer conv2_2_1x1_reduce/bn
I0622 01:31:28.371430  4511 net.cpp:106] Creating Layer conv2_2_1x1_reduce/bn
I0622 01:31:28.371433  4511 net.cpp:454] conv2_2_1x1_reduce/bn <- conv2_2_1x1_reduce
I0622 01:31:28.371439  4511 net.cpp:397] conv2_2_1x1_reduce/bn -> conv2_2_1x1_reduce (in-place)
I0622 01:31:28.371628  4511 net.cpp:150] Setting up conv2_2_1x1_reduce/bn
I0622 01:31:28.371636  4511 net.cpp:157] Top shape: 2 64 119 119 (1812608)
I0622 01:31:28.371640  4511 net.cpp:165] Memory required for data: 685781552
I0622 01:31:28.371649  4511 layer_factory.hpp:77] Creating layer conv2_2_1x1_reduce/relu
I0622 01:31:28.371655  4511 net.cpp:106] Creating Layer conv2_2_1x1_reduce/relu
I0622 01:31:28.371659  4511 net.cpp:454] conv2_2_1x1_reduce/relu <- conv2_2_1x1_reduce
I0622 01:31:28.371665  4511 net.cpp:397] conv2_2_1x1_reduce/relu -> conv2_2_1x1_reduce (in-place)
I0622 01:31:28.371670  4511 net.cpp:150] Setting up conv2_2_1x1_reduce/relu
I0622 01:31:28.371675  4511 net.cpp:157] Top shape: 2 64 119 119 (1812608)
I0622 01:31:28.371680  4511 net.cpp:165] Memory required for data: 693031984
I0622 01:31:28.371683  4511 layer_factory.hpp:77] Creating layer conv2_2_3x3
I0622 01:31:28.371690  4511 net.cpp:106] Creating Layer conv2_2_3x3
I0622 01:31:28.371695  4511 net.cpp:454] conv2_2_3x3 <- conv2_2_1x1_reduce
I0622 01:31:28.371701  4511 net.cpp:411] conv2_2_3x3 -> conv2_2_3x3
I0622 01:31:28.372881  4511 net.cpp:150] Setting up conv2_2_3x3
I0622 01:31:28.372889  4511 net.cpp:157] Top shape: 2 64 119 119 (1812608)
I0622 01:31:28.372894  4511 net.cpp:165] Memory required for data: 700282416
I0622 01:31:28.372898  4511 layer_factory.hpp:77] Creating layer conv2_2_3x3/bn
I0622 01:31:28.372906  4511 net.cpp:106] Creating Layer conv2_2_3x3/bn
I0622 01:31:28.372910  4511 net.cpp:454] conv2_2_3x3/bn <- conv2_2_3x3
I0622 01:31:28.372915  4511 net.cpp:397] conv2_2_3x3/bn -> conv2_2_3x3 (in-place)
I0622 01:31:28.373109  4511 net.cpp:150] Setting up conv2_2_3x3/bn
I0622 01:31:28.373116  4511 net.cpp:157] Top shape: 2 64 119 119 (1812608)
I0622 01:31:28.373121  4511 net.cpp:165] Memory required for data: 707532848
I0622 01:31:28.373129  4511 layer_factory.hpp:77] Creating layer conv2_2_3x3/relu
I0622 01:31:28.373136  4511 net.cpp:106] Creating Layer conv2_2_3x3/relu
I0622 01:31:28.373141  4511 net.cpp:454] conv2_2_3x3/relu <- conv2_2_3x3
I0622 01:31:28.373144  4511 net.cpp:397] conv2_2_3x3/relu -> conv2_2_3x3 (in-place)
I0622 01:31:28.373152  4511 net.cpp:150] Setting up conv2_2_3x3/relu
I0622 01:31:28.373157  4511 net.cpp:157] Top shape: 2 64 119 119 (1812608)
I0622 01:31:28.373160  4511 net.cpp:165] Memory required for data: 714783280
I0622 01:31:28.373164  4511 layer_factory.hpp:77] Creating layer conv2_2_1x1_increase
I0622 01:31:28.373172  4511 net.cpp:106] Creating Layer conv2_2_1x1_increase
I0622 01:31:28.373176  4511 net.cpp:454] conv2_2_1x1_increase <- conv2_2_3x3
I0622 01:31:28.373183  4511 net.cpp:411] conv2_2_1x1_increase -> conv2_2_1x1_increase
I0622 01:31:28.373790  4511 net.cpp:150] Setting up conv2_2_1x1_increase
I0622 01:31:28.373797  4511 net.cpp:157] Top shape: 2 256 119 119 (7250432)
I0622 01:31:28.373801  4511 net.cpp:165] Memory required for data: 743785008
I0622 01:31:28.373806  4511 layer_factory.hpp:77] Creating layer conv2_2_1x1_increase/bn
I0622 01:31:28.373816  4511 net.cpp:106] Creating Layer conv2_2_1x1_increase/bn
I0622 01:31:28.373828  4511 net.cpp:454] conv2_2_1x1_increase/bn <- conv2_2_1x1_increase
I0622 01:31:28.373836  4511 net.cpp:397] conv2_2_1x1_increase/bn -> conv2_2_1x1_increase (in-place)
I0622 01:31:28.374004  4511 net.cpp:150] Setting up conv2_2_1x1_increase/bn
I0622 01:31:28.374011  4511 net.cpp:157] Top shape: 2 256 119 119 (7250432)
I0622 01:31:28.374014  4511 net.cpp:165] Memory required for data: 772786736
I0622 01:31:28.374022  4511 layer_factory.hpp:77] Creating layer conv2_2
I0622 01:31:28.374029  4511 net.cpp:106] Creating Layer conv2_2
I0622 01:31:28.374033  4511 net.cpp:454] conv2_2 <- conv2_1_conv2_1/relu_0_split_1
I0622 01:31:28.374037  4511 net.cpp:454] conv2_2 <- conv2_2_1x1_increase
I0622 01:31:28.374043  4511 net.cpp:411] conv2_2 -> conv2_2
I0622 01:31:28.374063  4511 net.cpp:150] Setting up conv2_2
I0622 01:31:28.374068  4511 net.cpp:157] Top shape: 2 256 119 119 (7250432)
I0622 01:31:28.374071  4511 net.cpp:165] Memory required for data: 801788464
I0622 01:31:28.374075  4511 layer_factory.hpp:77] Creating layer conv2_2/relu
I0622 01:31:28.374080  4511 net.cpp:106] Creating Layer conv2_2/relu
I0622 01:31:28.374084  4511 net.cpp:454] conv2_2/relu <- conv2_2
I0622 01:31:28.374090  4511 net.cpp:397] conv2_2/relu -> conv2_2 (in-place)
I0622 01:31:28.374096  4511 net.cpp:150] Setting up conv2_2/relu
I0622 01:31:28.374101  4511 net.cpp:157] Top shape: 2 256 119 119 (7250432)
I0622 01:31:28.374105  4511 net.cpp:165] Memory required for data: 830790192
I0622 01:31:28.374109  4511 layer_factory.hpp:77] Creating layer conv2_2_conv2_2/relu_0_split
I0622 01:31:28.374114  4511 net.cpp:106] Creating Layer conv2_2_conv2_2/relu_0_split
I0622 01:31:28.374119  4511 net.cpp:454] conv2_2_conv2_2/relu_0_split <- conv2_2
I0622 01:31:28.374124  4511 net.cpp:411] conv2_2_conv2_2/relu_0_split -> conv2_2_conv2_2/relu_0_split_0
I0622 01:31:28.374130  4511 net.cpp:411] conv2_2_conv2_2/relu_0_split -> conv2_2_conv2_2/relu_0_split_1
I0622 01:31:28.374156  4511 net.cpp:150] Setting up conv2_2_conv2_2/relu_0_split
I0622 01:31:28.374162  4511 net.cpp:157] Top shape: 2 256 119 119 (7250432)
I0622 01:31:28.374167  4511 net.cpp:157] Top shape: 2 256 119 119 (7250432)
I0622 01:31:28.374171  4511 net.cpp:165] Memory required for data: 888793648
I0622 01:31:28.374174  4511 layer_factory.hpp:77] Creating layer conv2_3_1x1_reduce
I0622 01:31:28.374183  4511 net.cpp:106] Creating Layer conv2_3_1x1_reduce
I0622 01:31:28.374187  4511 net.cpp:454] conv2_3_1x1_reduce <- conv2_2_conv2_2/relu_0_split_0
I0622 01:31:28.374195  4511 net.cpp:411] conv2_3_1x1_reduce -> conv2_3_1x1_reduce
I0622 01:31:28.374768  4511 net.cpp:150] Setting up conv2_3_1x1_reduce
I0622 01:31:28.374775  4511 net.cpp:157] Top shape: 2 64 119 119 (1812608)
I0622 01:31:28.374778  4511 net.cpp:165] Memory required for data: 896044080
I0622 01:31:28.374781  4511 layer_factory.hpp:77] Creating layer conv2_3_1x1_reduce/bn
I0622 01:31:28.374786  4511 net.cpp:106] Creating Layer conv2_3_1x1_reduce/bn
I0622 01:31:28.374790  4511 net.cpp:454] conv2_3_1x1_reduce/bn <- conv2_3_1x1_reduce
I0622 01:31:28.374799  4511 net.cpp:397] conv2_3_1x1_reduce/bn -> conv2_3_1x1_reduce (in-place)
I0622 01:31:28.374959  4511 net.cpp:150] Setting up conv2_3_1x1_reduce/bn
I0622 01:31:28.374965  4511 net.cpp:157] Top shape: 2 64 119 119 (1812608)
I0622 01:31:28.374967  4511 net.cpp:165] Memory required for data: 903294512
I0622 01:31:28.374974  4511 layer_factory.hpp:77] Creating layer conv2_3_1x1_reduce/relu
I0622 01:31:28.374977  4511 net.cpp:106] Creating Layer conv2_3_1x1_reduce/relu
I0622 01:31:28.374980  4511 net.cpp:454] conv2_3_1x1_reduce/relu <- conv2_3_1x1_reduce
I0622 01:31:28.374984  4511 net.cpp:397] conv2_3_1x1_reduce/relu -> conv2_3_1x1_reduce (in-place)
I0622 01:31:28.374987  4511 net.cpp:150] Setting up conv2_3_1x1_reduce/relu
I0622 01:31:28.374990  4511 net.cpp:157] Top shape: 2 64 119 119 (1812608)
I0622 01:31:28.374994  4511 net.cpp:165] Memory required for data: 910544944
I0622 01:31:28.374995  4511 layer_factory.hpp:77] Creating layer conv2_3_3x3
I0622 01:31:28.375003  4511 net.cpp:106] Creating Layer conv2_3_3x3
I0622 01:31:28.375015  4511 net.cpp:454] conv2_3_3x3 <- conv2_3_1x1_reduce
I0622 01:31:28.375025  4511 net.cpp:411] conv2_3_3x3 -> conv2_3_3x3
I0622 01:31:28.376036  4511 net.cpp:150] Setting up conv2_3_3x3
I0622 01:31:28.376045  4511 net.cpp:157] Top shape: 2 64 119 119 (1812608)
I0622 01:31:28.376049  4511 net.cpp:165] Memory required for data: 917795376
I0622 01:31:28.376055  4511 layer_factory.hpp:77] Creating layer conv2_3_3x3/bn
I0622 01:31:28.376061  4511 net.cpp:106] Creating Layer conv2_3_3x3/bn
I0622 01:31:28.376065  4511 net.cpp:454] conv2_3_3x3/bn <- conv2_3_3x3
I0622 01:31:28.376071  4511 net.cpp:397] conv2_3_3x3/bn -> conv2_3_3x3 (in-place)
I0622 01:31:28.376255  4511 net.cpp:150] Setting up conv2_3_3x3/bn
I0622 01:31:28.376263  4511 net.cpp:157] Top shape: 2 64 119 119 (1812608)
I0622 01:31:28.376267  4511 net.cpp:165] Memory required for data: 925045808
I0622 01:31:28.376276  4511 layer_factory.hpp:77] Creating layer conv2_3_3x3/relu
I0622 01:31:28.376281  4511 net.cpp:106] Creating Layer conv2_3_3x3/relu
I0622 01:31:28.376286  4511 net.cpp:454] conv2_3_3x3/relu <- conv2_3_3x3
I0622 01:31:28.376291  4511 net.cpp:397] conv2_3_3x3/relu -> conv2_3_3x3 (in-place)
I0622 01:31:28.376298  4511 net.cpp:150] Setting up conv2_3_3x3/relu
I0622 01:31:28.376303  4511 net.cpp:157] Top shape: 2 64 119 119 (1812608)
I0622 01:31:28.376307  4511 net.cpp:165] Memory required for data: 932296240
I0622 01:31:28.376312  4511 layer_factory.hpp:77] Creating layer conv2_3_1x1_increase
I0622 01:31:28.376324  4511 net.cpp:106] Creating Layer conv2_3_1x1_increase
I0622 01:31:28.376329  4511 net.cpp:454] conv2_3_1x1_increase <- conv2_3_3x3
I0622 01:31:28.376337  4511 net.cpp:411] conv2_3_1x1_increase -> conv2_3_1x1_increase
I0622 01:31:28.376957  4511 net.cpp:150] Setting up conv2_3_1x1_increase
I0622 01:31:28.376966  4511 net.cpp:157] Top shape: 2 256 119 119 (7250432)
I0622 01:31:28.376971  4511 net.cpp:165] Memory required for data: 961297968
I0622 01:31:28.376976  4511 layer_factory.hpp:77] Creating layer conv2_3_1x1_increase/bn
I0622 01:31:28.376986  4511 net.cpp:106] Creating Layer conv2_3_1x1_increase/bn
I0622 01:31:28.376991  4511 net.cpp:454] conv2_3_1x1_increase/bn <- conv2_3_1x1_increase
I0622 01:31:28.376996  4511 net.cpp:397] conv2_3_1x1_increase/bn -> conv2_3_1x1_increase (in-place)
I0622 01:31:28.377174  4511 net.cpp:150] Setting up conv2_3_1x1_increase/bn
I0622 01:31:28.377183  4511 net.cpp:157] Top shape: 2 256 119 119 (7250432)
I0622 01:31:28.377187  4511 net.cpp:165] Memory required for data: 990299696
I0622 01:31:28.377207  4511 layer_factory.hpp:77] Creating layer conv2_3
I0622 01:31:28.377213  4511 net.cpp:106] Creating Layer conv2_3
I0622 01:31:28.377218  4511 net.cpp:454] conv2_3 <- conv2_2_conv2_2/relu_0_split_1
I0622 01:31:28.377223  4511 net.cpp:454] conv2_3 <- conv2_3_1x1_increase
I0622 01:31:28.377228  4511 net.cpp:411] conv2_3 -> conv2_3
I0622 01:31:28.377249  4511 net.cpp:150] Setting up conv2_3
I0622 01:31:28.377255  4511 net.cpp:157] Top shape: 2 256 119 119 (7250432)
I0622 01:31:28.377259  4511 net.cpp:165] Memory required for data: 1019301424
I0622 01:31:28.377262  4511 layer_factory.hpp:77] Creating layer conv2_3/relu
I0622 01:31:28.377267  4511 net.cpp:106] Creating Layer conv2_3/relu
I0622 01:31:28.377271  4511 net.cpp:454] conv2_3/relu <- conv2_3
I0622 01:31:28.377277  4511 net.cpp:397] conv2_3/relu -> conv2_3 (in-place)
I0622 01:31:28.377282  4511 net.cpp:150] Setting up conv2_3/relu
I0622 01:31:28.377287  4511 net.cpp:157] Top shape: 2 256 119 119 (7250432)
I0622 01:31:28.377292  4511 net.cpp:165] Memory required for data: 1048303152
I0622 01:31:28.377296  4511 layer_factory.hpp:77] Creating layer conv2_3_conv2_3/relu_0_split
I0622 01:31:28.377302  4511 net.cpp:106] Creating Layer conv2_3_conv2_3/relu_0_split
I0622 01:31:28.377306  4511 net.cpp:454] conv2_3_conv2_3/relu_0_split <- conv2_3
I0622 01:31:28.377311  4511 net.cpp:411] conv2_3_conv2_3/relu_0_split -> conv2_3_conv2_3/relu_0_split_0
I0622 01:31:28.377321  4511 net.cpp:411] conv2_3_conv2_3/relu_0_split -> conv2_3_conv2_3/relu_0_split_1
I0622 01:31:28.377374  4511 net.cpp:150] Setting up conv2_3_conv2_3/relu_0_split
I0622 01:31:28.377379  4511 net.cpp:157] Top shape: 2 256 119 119 (7250432)
I0622 01:31:28.377384  4511 net.cpp:157] Top shape: 2 256 119 119 (7250432)
I0622 01:31:28.377388  4511 net.cpp:165] Memory required for data: 1106306608
I0622 01:31:28.377393  4511 layer_factory.hpp:77] Creating layer conv3_1_1x1_reduce
I0622 01:31:28.377400  4511 net.cpp:106] Creating Layer conv3_1_1x1_reduce
I0622 01:31:28.377404  4511 net.cpp:454] conv3_1_1x1_reduce <- conv2_3_conv2_3/relu_0_split_0
I0622 01:31:28.377411  4511 net.cpp:411] conv3_1_1x1_reduce -> conv3_1_1x1_reduce
I0622 01:31:28.378478  4511 net.cpp:150] Setting up conv3_1_1x1_reduce
I0622 01:31:28.378496  4511 net.cpp:157] Top shape: 2 128 119 119 (3625216)
I0622 01:31:28.378500  4511 net.cpp:165] Memory required for data: 1120807472
I0622 01:31:28.378509  4511 layer_factory.hpp:77] Creating layer conv3_1_1x1_reduce/bn
I0622 01:31:28.378518  4511 net.cpp:106] Creating Layer conv3_1_1x1_reduce/bn
I0622 01:31:28.378525  4511 net.cpp:454] conv3_1_1x1_reduce/bn <- conv3_1_1x1_reduce
I0622 01:31:28.378535  4511 net.cpp:397] conv3_1_1x1_reduce/bn -> conv3_1_1x1_reduce (in-place)
I0622 01:31:28.378733  4511 net.cpp:150] Setting up conv3_1_1x1_reduce/bn
I0622 01:31:28.378744  4511 net.cpp:157] Top shape: 2 128 119 119 (3625216)
I0622 01:31:28.378748  4511 net.cpp:165] Memory required for data: 1135308336
I0622 01:31:28.378758  4511 layer_factory.hpp:77] Creating layer conv3_1_1x1_reduce/relu
I0622 01:31:28.378767  4511 net.cpp:106] Creating Layer conv3_1_1x1_reduce/relu
I0622 01:31:28.378770  4511 net.cpp:454] conv3_1_1x1_reduce/relu <- conv3_1_1x1_reduce
I0622 01:31:28.378777  4511 net.cpp:397] conv3_1_1x1_reduce/relu -> conv3_1_1x1_reduce (in-place)
I0622 01:31:28.378783  4511 net.cpp:150] Setting up conv3_1_1x1_reduce/relu
I0622 01:31:28.378788  4511 net.cpp:157] Top shape: 2 128 119 119 (3625216)
I0622 01:31:28.378793  4511 net.cpp:165] Memory required for data: 1149809200
I0622 01:31:28.378796  4511 layer_factory.hpp:77] Creating layer conv3_1_3x3
I0622 01:31:28.378803  4511 net.cpp:106] Creating Layer conv3_1_3x3
I0622 01:31:28.378808  4511 net.cpp:454] conv3_1_3x3 <- conv3_1_1x1_reduce
I0622 01:31:28.378813  4511 net.cpp:411] conv3_1_3x3 -> conv3_1_3x3
I0622 01:31:28.384476  4511 net.cpp:150] Setting up conv3_1_3x3
I0622 01:31:28.384534  4511 net.cpp:157] Top shape: 2 128 60 60 (921600)
I0622 01:31:28.384539  4511 net.cpp:165] Memory required for data: 1153495600
I0622 01:31:28.384557  4511 layer_factory.hpp:77] Creating layer conv3_1_3x3/bn
I0622 01:31:28.384578  4511 net.cpp:106] Creating Layer conv3_1_3x3/bn
I0622 01:31:28.384587  4511 net.cpp:454] conv3_1_3x3/bn <- conv3_1_3x3
I0622 01:31:28.384598  4511 net.cpp:397] conv3_1_3x3/bn -> conv3_1_3x3 (in-place)
I0622 01:31:28.384810  4511 net.cpp:150] Setting up conv3_1_3x3/bn
I0622 01:31:28.384817  4511 net.cpp:157] Top shape: 2 128 60 60 (921600)
I0622 01:31:28.384821  4511 net.cpp:165] Memory required for data: 1157182000
I0622 01:31:28.384829  4511 layer_factory.hpp:77] Creating layer conv3_1_3x3/relu
I0622 01:31:28.384836  4511 net.cpp:106] Creating Layer conv3_1_3x3/relu
I0622 01:31:28.384840  4511 net.cpp:454] conv3_1_3x3/relu <- conv3_1_3x3
I0622 01:31:28.384846  4511 net.cpp:397] conv3_1_3x3/relu -> conv3_1_3x3 (in-place)
I0622 01:31:28.384853  4511 net.cpp:150] Setting up conv3_1_3x3/relu
I0622 01:31:28.384858  4511 net.cpp:157] Top shape: 2 128 60 60 (921600)
I0622 01:31:28.384861  4511 net.cpp:165] Memory required for data: 1160868400
I0622 01:31:28.384865  4511 layer_factory.hpp:77] Creating layer conv3_1_1x1_increase
I0622 01:31:28.384878  4511 net.cpp:106] Creating Layer conv3_1_1x1_increase
I0622 01:31:28.384882  4511 net.cpp:454] conv3_1_1x1_increase <- conv3_1_3x3
I0622 01:31:28.384888  4511 net.cpp:411] conv3_1_1x1_increase -> conv3_1_1x1_increase
I0622 01:31:28.388978  4511 net.cpp:150] Setting up conv3_1_1x1_increase
I0622 01:31:28.388991  4511 net.cpp:157] Top shape: 2 512 60 60 (3686400)
I0622 01:31:28.389009  4511 net.cpp:165] Memory required for data: 1175614000
I0622 01:31:28.389015  4511 layer_factory.hpp:77] Creating layer conv3_1_1x1_increase/bn
I0622 01:31:28.389026  4511 net.cpp:106] Creating Layer conv3_1_1x1_increase/bn
I0622 01:31:28.389029  4511 net.cpp:454] conv3_1_1x1_increase/bn <- conv3_1_1x1_increase
I0622 01:31:28.389040  4511 net.cpp:397] conv3_1_1x1_increase/bn -> conv3_1_1x1_increase (in-place)
I0622 01:31:28.389890  4511 net.cpp:150] Setting up conv3_1_1x1_increase/bn
I0622 01:31:28.389904  4511 net.cpp:157] Top shape: 2 512 60 60 (3686400)
I0622 01:31:28.389907  4511 net.cpp:165] Memory required for data: 1190359600
I0622 01:31:28.389917  4511 layer_factory.hpp:77] Creating layer conv3_1_1x1_proj
I0622 01:31:28.389930  4511 net.cpp:106] Creating Layer conv3_1_1x1_proj
I0622 01:31:28.389935  4511 net.cpp:454] conv3_1_1x1_proj <- conv2_3_conv2_3/relu_0_split_1
I0622 01:31:28.389942  4511 net.cpp:411] conv3_1_1x1_proj -> conv3_1_1x1_proj
I0622 01:31:28.393620  4511 net.cpp:150] Setting up conv3_1_1x1_proj
I0622 01:31:28.393642  4511 net.cpp:157] Top shape: 2 512 60 60 (3686400)
I0622 01:31:28.393647  4511 net.cpp:165] Memory required for data: 1205105200
I0622 01:31:28.393656  4511 layer_factory.hpp:77] Creating layer conv3_1_1x1_proj/bn
I0622 01:31:28.393666  4511 net.cpp:106] Creating Layer conv3_1_1x1_proj/bn
I0622 01:31:28.393671  4511 net.cpp:454] conv3_1_1x1_proj/bn <- conv3_1_1x1_proj
I0622 01:31:28.393678  4511 net.cpp:397] conv3_1_1x1_proj/bn -> conv3_1_1x1_proj (in-place)
I0622 01:31:28.393864  4511 net.cpp:150] Setting up conv3_1_1x1_proj/bn
I0622 01:31:28.393872  4511 net.cpp:157] Top shape: 2 512 60 60 (3686400)
I0622 01:31:28.393877  4511 net.cpp:165] Memory required for data: 1219850800
I0622 01:31:28.393884  4511 layer_factory.hpp:77] Creating layer conv3_1
I0622 01:31:28.393890  4511 net.cpp:106] Creating Layer conv3_1
I0622 01:31:28.393894  4511 net.cpp:454] conv3_1 <- conv3_1_1x1_proj
I0622 01:31:28.393899  4511 net.cpp:454] conv3_1 <- conv3_1_1x1_increase
I0622 01:31:28.393908  4511 net.cpp:411] conv3_1 -> conv3_1
I0622 01:31:28.393939  4511 net.cpp:150] Setting up conv3_1
I0622 01:31:28.393945  4511 net.cpp:157] Top shape: 2 512 60 60 (3686400)
I0622 01:31:28.393949  4511 net.cpp:165] Memory required for data: 1234596400
I0622 01:31:28.393954  4511 layer_factory.hpp:77] Creating layer conv3_1/relu
I0622 01:31:28.393959  4511 net.cpp:106] Creating Layer conv3_1/relu
I0622 01:31:28.393965  4511 net.cpp:454] conv3_1/relu <- conv3_1
I0622 01:31:28.393970  4511 net.cpp:397] conv3_1/relu -> conv3_1 (in-place)
I0622 01:31:28.393976  4511 net.cpp:150] Setting up conv3_1/relu
I0622 01:31:28.393981  4511 net.cpp:157] Top shape: 2 512 60 60 (3686400)
I0622 01:31:28.393985  4511 net.cpp:165] Memory required for data: 1249342000
I0622 01:31:28.393990  4511 layer_factory.hpp:77] Creating layer conv3_1_conv3_1/relu_0_split
I0622 01:31:28.393996  4511 net.cpp:106] Creating Layer conv3_1_conv3_1/relu_0_split
I0622 01:31:28.393999  4511 net.cpp:454] conv3_1_conv3_1/relu_0_split <- conv3_1
I0622 01:31:28.394004  4511 net.cpp:411] conv3_1_conv3_1/relu_0_split -> conv3_1_conv3_1/relu_0_split_0
I0622 01:31:28.394011  4511 net.cpp:411] conv3_1_conv3_1/relu_0_split -> conv3_1_conv3_1/relu_0_split_1
I0622 01:31:28.394039  4511 net.cpp:150] Setting up conv3_1_conv3_1/relu_0_split
I0622 01:31:28.394045  4511 net.cpp:157] Top shape: 2 512 60 60 (3686400)
I0622 01:31:28.394049  4511 net.cpp:157] Top shape: 2 512 60 60 (3686400)
I0622 01:31:28.394053  4511 net.cpp:165] Memory required for data: 1278833200
I0622 01:31:28.394057  4511 layer_factory.hpp:77] Creating layer conv3_2_1x1_reduce
I0622 01:31:28.394067  4511 net.cpp:106] Creating Layer conv3_2_1x1_reduce
I0622 01:31:28.394071  4511 net.cpp:454] conv3_2_1x1_reduce <- conv3_1_conv3_1/relu_0_split_0
I0622 01:31:28.394078  4511 net.cpp:411] conv3_2_1x1_reduce -> conv3_2_1x1_reduce
I0622 01:31:28.396100  4511 net.cpp:150] Setting up conv3_2_1x1_reduce
I0622 01:31:28.396129  4511 net.cpp:157] Top shape: 2 128 60 60 (921600)
I0622 01:31:28.396157  4511 net.cpp:165] Memory required for data: 1282519600
I0622 01:31:28.396167  4511 layer_factory.hpp:77] Creating layer conv3_2_1x1_reduce/bn
I0622 01:31:28.396180  4511 net.cpp:106] Creating Layer conv3_2_1x1_reduce/bn
I0622 01:31:28.396186  4511 net.cpp:454] conv3_2_1x1_reduce/bn <- conv3_2_1x1_reduce
I0622 01:31:28.396194  4511 net.cpp:397] conv3_2_1x1_reduce/bn -> conv3_2_1x1_reduce (in-place)
I0622 01:31:28.396384  4511 net.cpp:150] Setting up conv3_2_1x1_reduce/bn
I0622 01:31:28.396392  4511 net.cpp:157] Top shape: 2 128 60 60 (921600)
I0622 01:31:28.396397  4511 net.cpp:165] Memory required for data: 1286206000
I0622 01:31:28.396409  4511 layer_factory.hpp:77] Creating layer conv3_2_1x1_reduce/relu
I0622 01:31:28.396422  4511 net.cpp:106] Creating Layer conv3_2_1x1_reduce/relu
I0622 01:31:28.396427  4511 net.cpp:454] conv3_2_1x1_reduce/relu <- conv3_2_1x1_reduce
I0622 01:31:28.396433  4511 net.cpp:397] conv3_2_1x1_reduce/relu -> conv3_2_1x1_reduce (in-place)
I0622 01:31:28.396440  4511 net.cpp:150] Setting up conv3_2_1x1_reduce/relu
I0622 01:31:28.396446  4511 net.cpp:157] Top shape: 2 128 60 60 (921600)
I0622 01:31:28.396450  4511 net.cpp:165] Memory required for data: 1289892400
I0622 01:31:28.396455  4511 layer_factory.hpp:77] Creating layer conv3_2_3x3
I0622 01:31:28.396472  4511 net.cpp:106] Creating Layer conv3_2_3x3
I0622 01:31:28.396477  4511 net.cpp:454] conv3_2_3x3 <- conv3_2_1x1_reduce
I0622 01:31:28.396484  4511 net.cpp:411] conv3_2_3x3 -> conv3_2_3x3
I0622 01:31:28.400995  4511 net.cpp:150] Setting up conv3_2_3x3
I0622 01:31:28.401051  4511 net.cpp:157] Top shape: 2 128 60 60 (921600)
I0622 01:31:28.401057  4511 net.cpp:165] Memory required for data: 1293578800
I0622 01:31:28.401072  4511 layer_factory.hpp:77] Creating layer conv3_2_3x3/bn
I0622 01:31:28.401116  4511 net.cpp:106] Creating Layer conv3_2_3x3/bn
I0622 01:31:28.401126  4511 net.cpp:454] conv3_2_3x3/bn <- conv3_2_3x3
I0622 01:31:28.401139  4511 net.cpp:397] conv3_2_3x3/bn -> conv3_2_3x3 (in-place)
I0622 01:31:28.401347  4511 net.cpp:150] Setting up conv3_2_3x3/bn
I0622 01:31:28.401358  4511 net.cpp:157] Top shape: 2 128 60 60 (921600)
I0622 01:31:28.401362  4511 net.cpp:165] Memory required for data: 1297265200
I0622 01:31:28.401371  4511 layer_factory.hpp:77] Creating layer conv3_2_3x3/relu
I0622 01:31:28.401383  4511 net.cpp:106] Creating Layer conv3_2_3x3/relu
I0622 01:31:28.401388  4511 net.cpp:454] conv3_2_3x3/relu <- conv3_2_3x3
I0622 01:31:28.401393  4511 net.cpp:397] conv3_2_3x3/relu -> conv3_2_3x3 (in-place)
I0622 01:31:28.401401  4511 net.cpp:150] Setting up conv3_2_3x3/relu
I0622 01:31:28.401407  4511 net.cpp:157] Top shape: 2 128 60 60 (921600)
I0622 01:31:28.401412  4511 net.cpp:165] Memory required for data: 1300951600
I0622 01:31:28.401415  4511 layer_factory.hpp:77] Creating layer conv3_2_1x1_increase
I0622 01:31:28.401428  4511 net.cpp:106] Creating Layer conv3_2_1x1_increase
I0622 01:31:28.401433  4511 net.cpp:454] conv3_2_1x1_increase <- conv3_2_3x3
I0622 01:31:28.401438  4511 net.cpp:411] conv3_2_1x1_increase -> conv3_2_1x1_increase
I0622 01:31:28.404605  4511 net.cpp:150] Setting up conv3_2_1x1_increase
I0622 01:31:28.404657  4511 net.cpp:157] Top shape: 2 512 60 60 (3686400)
I0622 01:31:28.404664  4511 net.cpp:165] Memory required for data: 1315697200
I0622 01:31:28.404680  4511 layer_factory.hpp:77] Creating layer conv3_2_1x1_increase/bn
I0622 01:31:28.404697  4511 net.cpp:106] Creating Layer conv3_2_1x1_increase/bn
I0622 01:31:28.404705  4511 net.cpp:454] conv3_2_1x1_increase/bn <- conv3_2_1x1_increase
I0622 01:31:28.404719  4511 net.cpp:397] conv3_2_1x1_increase/bn -> conv3_2_1x1_increase (in-place)
I0622 01:31:28.404983  4511 net.cpp:150] Setting up conv3_2_1x1_increase/bn
I0622 01:31:28.404994  4511 net.cpp:157] Top shape: 2 512 60 60 (3686400)
I0622 01:31:28.404997  4511 net.cpp:165] Memory required for data: 1330442800
I0622 01:31:28.405007  4511 layer_factory.hpp:77] Creating layer conv3_2
I0622 01:31:28.405017  4511 net.cpp:106] Creating Layer conv3_2
I0622 01:31:28.405022  4511 net.cpp:454] conv3_2 <- conv3_1_conv3_1/relu_0_split_1
I0622 01:31:28.405063  4511 net.cpp:454] conv3_2 <- conv3_2_1x1_increase
I0622 01:31:28.405071  4511 net.cpp:411] conv3_2 -> conv3_2
I0622 01:31:28.405099  4511 net.cpp:150] Setting up conv3_2
I0622 01:31:28.405107  4511 net.cpp:157] Top shape: 2 512 60 60 (3686400)
I0622 01:31:28.405110  4511 net.cpp:165] Memory required for data: 1345188400
I0622 01:31:28.405114  4511 layer_factory.hpp:77] Creating layer conv3_2/relu
I0622 01:31:28.405122  4511 net.cpp:106] Creating Layer conv3_2/relu
I0622 01:31:28.405127  4511 net.cpp:454] conv3_2/relu <- conv3_2
I0622 01:31:28.405133  4511 net.cpp:397] conv3_2/relu -> conv3_2 (in-place)
I0622 01:31:28.405139  4511 net.cpp:150] Setting up conv3_2/relu
I0622 01:31:28.405144  4511 net.cpp:157] Top shape: 2 512 60 60 (3686400)
I0622 01:31:28.405149  4511 net.cpp:165] Memory required for data: 1359934000
I0622 01:31:28.405153  4511 layer_factory.hpp:77] Creating layer conv3_2_conv3_2/relu_0_split
I0622 01:31:28.405160  4511 net.cpp:106] Creating Layer conv3_2_conv3_2/relu_0_split
I0622 01:31:28.405164  4511 net.cpp:454] conv3_2_conv3_2/relu_0_split <- conv3_2
I0622 01:31:28.405169  4511 net.cpp:411] conv3_2_conv3_2/relu_0_split -> conv3_2_conv3_2/relu_0_split_0
I0622 01:31:28.405176  4511 net.cpp:411] conv3_2_conv3_2/relu_0_split -> conv3_2_conv3_2/relu_0_split_1
I0622 01:31:28.405206  4511 net.cpp:150] Setting up conv3_2_conv3_2/relu_0_split
I0622 01:31:28.405212  4511 net.cpp:157] Top shape: 2 512 60 60 (3686400)
I0622 01:31:28.405217  4511 net.cpp:157] Top shape: 2 512 60 60 (3686400)
I0622 01:31:28.405221  4511 net.cpp:165] Memory required for data: 1389425200
I0622 01:31:28.405225  4511 layer_factory.hpp:77] Creating layer conv3_3_1x1_reduce
I0622 01:31:28.405236  4511 net.cpp:106] Creating Layer conv3_3_1x1_reduce
I0622 01:31:28.405241  4511 net.cpp:454] conv3_3_1x1_reduce <- conv3_2_conv3_2/relu_0_split_0
I0622 01:31:28.405248  4511 net.cpp:411] conv3_3_1x1_reduce -> conv3_3_1x1_reduce
I0622 01:31:28.407140  4511 net.cpp:150] Setting up conv3_3_1x1_reduce
I0622 01:31:28.407177  4511 net.cpp:157] Top shape: 2 128 60 60 (921600)
I0622 01:31:28.407182  4511 net.cpp:165] Memory required for data: 1393111600
I0622 01:31:28.407191  4511 layer_factory.hpp:77] Creating layer conv3_3_1x1_reduce/bn
I0622 01:31:28.407249  4511 net.cpp:106] Creating Layer conv3_3_1x1_reduce/bn
I0622 01:31:28.407266  4511 net.cpp:454] conv3_3_1x1_reduce/bn <- conv3_3_1x1_reduce
I0622 01:31:28.407279  4511 net.cpp:397] conv3_3_1x1_reduce/bn -> conv3_3_1x1_reduce (in-place)
I0622 01:31:28.407531  4511 net.cpp:150] Setting up conv3_3_1x1_reduce/bn
I0622 01:31:28.407542  4511 net.cpp:157] Top shape: 2 128 60 60 (921600)
I0622 01:31:28.407546  4511 net.cpp:165] Memory required for data: 1396798000
I0622 01:31:28.407557  4511 layer_factory.hpp:77] Creating layer conv3_3_1x1_reduce/relu
I0622 01:31:28.407567  4511 net.cpp:106] Creating Layer conv3_3_1x1_reduce/relu
I0622 01:31:28.407572  4511 net.cpp:454] conv3_3_1x1_reduce/relu <- conv3_3_1x1_reduce
I0622 01:31:28.407577  4511 net.cpp:397] conv3_3_1x1_reduce/relu -> conv3_3_1x1_reduce (in-place)
I0622 01:31:28.407584  4511 net.cpp:150] Setting up conv3_3_1x1_reduce/relu
I0622 01:31:28.407590  4511 net.cpp:157] Top shape: 2 128 60 60 (921600)
I0622 01:31:28.407593  4511 net.cpp:165] Memory required for data: 1400484400
I0622 01:31:28.410979  4511 layer_factory.hpp:77] Creating layer conv3_3_3x3
I0622 01:31:28.411088  4511 net.cpp:106] Creating Layer conv3_3_3x3
I0622 01:31:28.411113  4511 net.cpp:454] conv3_3_3x3 <- conv3_3_1x1_reduce
I0622 01:31:28.411133  4511 net.cpp:411] conv3_3_3x3 -> conv3_3_3x3
I0622 01:31:28.419746  4511 net.cpp:150] Setting up conv3_3_3x3
I0622 01:31:28.419770  4511 net.cpp:157] Top shape: 2 128 60 60 (921600)
I0622 01:31:28.419775  4511 net.cpp:165] Memory required for data: 1404170800
I0622 01:31:28.419781  4511 layer_factory.hpp:77] Creating layer conv3_3_3x3/bn
I0622 01:31:28.419793  4511 net.cpp:106] Creating Layer conv3_3_3x3/bn
I0622 01:31:28.419798  4511 net.cpp:454] conv3_3_3x3/bn <- conv3_3_3x3
I0622 01:31:28.419826  4511 net.cpp:397] conv3_3_3x3/bn -> conv3_3_3x3 (in-place)
I0622 01:31:28.422507  4511 net.cpp:150] Setting up conv3_3_3x3/bn
I0622 01:31:28.422515  4511 net.cpp:157] Top shape: 2 128 60 60 (921600)
I0622 01:31:28.422518  4511 net.cpp:165] Memory required for data: 1407857200
I0622 01:31:28.422524  4511 layer_factory.hpp:77] Creating layer conv3_3_3x3/relu
I0622 01:31:28.422530  4511 net.cpp:106] Creating Layer conv3_3_3x3/relu
I0622 01:31:28.422533  4511 net.cpp:454] conv3_3_3x3/relu <- conv3_3_3x3
I0622 01:31:28.422538  4511 net.cpp:397] conv3_3_3x3/relu -> conv3_3_3x3 (in-place)
I0622 01:31:28.422543  4511 net.cpp:150] Setting up conv3_3_3x3/relu
I0622 01:31:28.422545  4511 net.cpp:157] Top shape: 2 128 60 60 (921600)
I0622 01:31:28.422549  4511 net.cpp:165] Memory required for data: 1411543600
I0622 01:31:28.422550  4511 layer_factory.hpp:77] Creating layer conv3_3_1x1_increase
I0622 01:31:28.422556  4511 net.cpp:106] Creating Layer conv3_3_1x1_increase
I0622 01:31:28.422559  4511 net.cpp:454] conv3_3_1x1_increase <- conv3_3_3x3
I0622 01:31:28.422564  4511 net.cpp:411] conv3_3_1x1_increase -> conv3_3_1x1_increase
I0622 01:31:28.424324  4511 net.cpp:150] Setting up conv3_3_1x1_increase
I0622 01:31:28.424334  4511 net.cpp:157] Top shape: 2 512 60 60 (3686400)
I0622 01:31:28.424337  4511 net.cpp:165] Memory required for data: 1426289200
I0622 01:31:28.424343  4511 layer_factory.hpp:77] Creating layer conv3_3_1x1_increase/bn
I0622 01:31:28.424351  4511 net.cpp:106] Creating Layer conv3_3_1x1_increase/bn
I0622 01:31:28.424356  4511 net.cpp:454] conv3_3_1x1_increase/bn <- conv3_3_1x1_increase
I0622 01:31:28.424362  4511 net.cpp:397] conv3_3_1x1_increase/bn -> conv3_3_1x1_increase (in-place)
I0622 01:31:28.424549  4511 net.cpp:150] Setting up conv3_3_1x1_increase/bn
I0622 01:31:28.424556  4511 net.cpp:157] Top shape: 2 512 60 60 (3686400)
I0622 01:31:28.424559  4511 net.cpp:165] Memory required for data: 1441034800
I0622 01:31:28.424568  4511 layer_factory.hpp:77] Creating layer conv3_3
I0622 01:31:28.424574  4511 net.cpp:106] Creating Layer conv3_3
I0622 01:31:28.424579  4511 net.cpp:454] conv3_3 <- conv3_2_conv3_2/relu_0_split_1
I0622 01:31:28.424583  4511 net.cpp:454] conv3_3 <- conv3_3_1x1_increase
I0622 01:31:28.424589  4511 net.cpp:411] conv3_3 -> conv3_3
I0622 01:31:28.424610  4511 net.cpp:150] Setting up conv3_3
I0622 01:31:28.424615  4511 net.cpp:157] Top shape: 2 512 60 60 (3686400)
I0622 01:31:28.424619  4511 net.cpp:165] Memory required for data: 1455780400
I0622 01:31:28.424623  4511 layer_factory.hpp:77] Creating layer conv3_3/relu
I0622 01:31:28.424629  4511 net.cpp:106] Creating Layer conv3_3/relu
I0622 01:31:28.424633  4511 net.cpp:454] conv3_3/relu <- conv3_3
I0622 01:31:28.424638  4511 net.cpp:397] conv3_3/relu -> conv3_3 (in-place)
I0622 01:31:28.424644  4511 net.cpp:150] Setting up conv3_3/relu
I0622 01:31:28.424649  4511 net.cpp:157] Top shape: 2 512 60 60 (3686400)
I0622 01:31:28.424652  4511 net.cpp:165] Memory required for data: 1470526000
I0622 01:31:28.424656  4511 layer_factory.hpp:77] Creating layer conv3_3_conv3_3/relu_0_split
I0622 01:31:28.424665  4511 net.cpp:106] Creating Layer conv3_3_conv3_3/relu_0_split
I0622 01:31:28.424670  4511 net.cpp:454] conv3_3_conv3_3/relu_0_split <- conv3_3
I0622 01:31:28.424675  4511 net.cpp:411] conv3_3_conv3_3/relu_0_split -> conv3_3_conv3_3/relu_0_split_0
I0622 01:31:28.424681  4511 net.cpp:411] conv3_3_conv3_3/relu_0_split -> conv3_3_conv3_3/relu_0_split_1
I0622 01:31:28.424712  4511 net.cpp:150] Setting up conv3_3_conv3_3/relu_0_split
I0622 01:31:28.424718  4511 net.cpp:157] Top shape: 2 512 60 60 (3686400)
I0622 01:31:28.424723  4511 net.cpp:157] Top shape: 2 512 60 60 (3686400)
I0622 01:31:28.424727  4511 net.cpp:165] Memory required for data: 1500017200
I0622 01:31:28.424731  4511 layer_factory.hpp:77] Creating layer conv3_4_1x1_reduce
I0622 01:31:28.424739  4511 net.cpp:106] Creating Layer conv3_4_1x1_reduce
I0622 01:31:28.424743  4511 net.cpp:454] conv3_4_1x1_reduce <- conv3_3_conv3_3/relu_0_split_0
I0622 01:31:28.424751  4511 net.cpp:411] conv3_4_1x1_reduce -> conv3_4_1x1_reduce
I0622 01:31:28.426723  4511 net.cpp:150] Setting up conv3_4_1x1_reduce
I0622 01:31:28.426730  4511 net.cpp:157] Top shape: 2 128 60 60 (921600)
I0622 01:31:28.426733  4511 net.cpp:165] Memory required for data: 1503703600
I0622 01:31:28.426738  4511 layer_factory.hpp:77] Creating layer conv3_4_1x1_reduce/bn
I0622 01:31:28.426745  4511 net.cpp:106] Creating Layer conv3_4_1x1_reduce/bn
I0622 01:31:28.426750  4511 net.cpp:454] conv3_4_1x1_reduce/bn <- conv3_4_1x1_reduce
I0622 01:31:28.426759  4511 net.cpp:397] conv3_4_1x1_reduce/bn -> conv3_4_1x1_reduce (in-place)
I0622 01:31:28.426904  4511 net.cpp:150] Setting up conv3_4_1x1_reduce/bn
I0622 01:31:28.426909  4511 net.cpp:157] Top shape: 2 128 60 60 (921600)
I0622 01:31:28.426913  4511 net.cpp:165] Memory required for data: 1507390000
I0622 01:31:28.426918  4511 layer_factory.hpp:77] Creating layer conv3_4_1x1_reduce/relu
I0622 01:31:28.426923  4511 net.cpp:106] Creating Layer conv3_4_1x1_reduce/relu
I0622 01:31:28.426928  4511 net.cpp:454] conv3_4_1x1_reduce/relu <- conv3_4_1x1_reduce
I0622 01:31:28.426933  4511 net.cpp:397] conv3_4_1x1_reduce/relu -> conv3_4_1x1_reduce (in-place)
I0622 01:31:28.426937  4511 net.cpp:150] Setting up conv3_4_1x1_reduce/relu
I0622 01:31:28.426940  4511 net.cpp:157] Top shape: 2 128 60 60 (921600)
I0622 01:31:28.426942  4511 net.cpp:165] Memory required for data: 1511076400
I0622 01:31:28.426946  4511 layer_factory.hpp:77] Creating layer conv3_4_3x3
I0622 01:31:28.426952  4511 net.cpp:106] Creating Layer conv3_4_3x3
I0622 01:31:28.426955  4511 net.cpp:454] conv3_4_3x3 <- conv3_4_1x1_reduce
I0622 01:31:28.426959  4511 net.cpp:411] conv3_4_3x3 -> conv3_4_3x3
I0622 01:31:28.431213  4511 net.cpp:150] Setting up conv3_4_3x3
I0622 01:31:28.431285  4511 net.cpp:157] Top shape: 2 128 60 60 (921600)
I0622 01:31:28.431291  4511 net.cpp:165] Memory required for data: 1514762800
I0622 01:31:28.431309  4511 layer_factory.hpp:77] Creating layer conv3_4_3x3/bn
I0622 01:31:28.431334  4511 net.cpp:106] Creating Layer conv3_4_3x3/bn
I0622 01:31:28.431342  4511 net.cpp:454] conv3_4_3x3/bn <- conv3_4_3x3
I0622 01:31:28.431354  4511 net.cpp:397] conv3_4_3x3/bn -> conv3_4_3x3 (in-place)
I0622 01:31:28.431565  4511 net.cpp:150] Setting up conv3_4_3x3/bn
I0622 01:31:28.431576  4511 net.cpp:157] Top shape: 2 128 60 60 (921600)
I0622 01:31:28.431581  4511 net.cpp:165] Memory required for data: 1518449200
I0622 01:31:28.431589  4511 layer_factory.hpp:77] Creating layer conv3_4_3x3/relu
I0622 01:31:28.431603  4511 net.cpp:106] Creating Layer conv3_4_3x3/relu
I0622 01:31:28.431608  4511 net.cpp:454] conv3_4_3x3/relu <- conv3_4_3x3
I0622 01:31:28.431614  4511 net.cpp:397] conv3_4_3x3/relu -> conv3_4_3x3 (in-place)
I0622 01:31:28.431627  4511 net.cpp:150] Setting up conv3_4_3x3/relu
I0622 01:31:28.431633  4511 net.cpp:157] Top shape: 2 128 60 60 (921600)
I0622 01:31:28.431638  4511 net.cpp:165] Memory required for data: 1522135600
I0622 01:31:28.431641  4511 layer_factory.hpp:77] Creating layer conv3_4_1x1_increase
I0622 01:31:28.431656  4511 net.cpp:106] Creating Layer conv3_4_1x1_increase
I0622 01:31:28.431660  4511 net.cpp:454] conv3_4_1x1_increase <- conv3_4_3x3
I0622 01:31:28.431674  4511 net.cpp:411] conv3_4_1x1_increase -> conv3_4_1x1_increase
I0622 01:31:28.433775  4511 net.cpp:150] Setting up conv3_4_1x1_increase
I0622 01:31:28.433791  4511 net.cpp:157] Top shape: 2 512 60 60 (3686400)
I0622 01:31:28.433795  4511 net.cpp:165] Memory required for data: 1536881200
I0622 01:31:28.433801  4511 layer_factory.hpp:77] Creating layer conv3_4_1x1_increase/bn
I0622 01:31:28.433818  4511 net.cpp:106] Creating Layer conv3_4_1x1_increase/bn
I0622 01:31:28.433825  4511 net.cpp:454] conv3_4_1x1_increase/bn <- conv3_4_1x1_increase
I0622 01:31:28.433835  4511 net.cpp:397] conv3_4_1x1_increase/bn -> conv3_4_1x1_increase (in-place)
I0622 01:31:28.434046  4511 net.cpp:150] Setting up conv3_4_1x1_increase/bn
I0622 01:31:28.434052  4511 net.cpp:157] Top shape: 2 512 60 60 (3686400)
I0622 01:31:28.434056  4511 net.cpp:165] Memory required for data: 1551626800
I0622 01:31:28.434111  4511 layer_factory.hpp:77] Creating layer conv3_4
I0622 01:31:28.434119  4511 net.cpp:106] Creating Layer conv3_4
I0622 01:31:28.434123  4511 net.cpp:454] conv3_4 <- conv3_3_conv3_3/relu_0_split_1
I0622 01:31:28.434129  4511 net.cpp:454] conv3_4 <- conv3_4_1x1_increase
I0622 01:31:28.434134  4511 net.cpp:411] conv3_4 -> conv3_4
I0622 01:31:28.434164  4511 net.cpp:150] Setting up conv3_4
I0622 01:31:28.434170  4511 net.cpp:157] Top shape: 2 512 60 60 (3686400)
I0622 01:31:28.434172  4511 net.cpp:165] Memory required for data: 1566372400
I0622 01:31:28.434175  4511 layer_factory.hpp:77] Creating layer conv3_4/relu
I0622 01:31:28.434182  4511 net.cpp:106] Creating Layer conv3_4/relu
I0622 01:31:28.434185  4511 net.cpp:454] conv3_4/relu <- conv3_4
I0622 01:31:28.434190  4511 net.cpp:397] conv3_4/relu -> conv3_4 (in-place)
I0622 01:31:28.434196  4511 net.cpp:150] Setting up conv3_4/relu
I0622 01:31:28.434201  4511 net.cpp:157] Top shape: 2 512 60 60 (3686400)
I0622 01:31:28.434206  4511 net.cpp:165] Memory required for data: 1581118000
I0622 01:31:28.434208  4511 layer_factory.hpp:77] Creating layer conv3_4_conv3_4/relu_0_split
I0622 01:31:28.434216  4511 net.cpp:106] Creating Layer conv3_4_conv3_4/relu_0_split
I0622 01:31:28.434221  4511 net.cpp:454] conv3_4_conv3_4/relu_0_split <- conv3_4
I0622 01:31:28.434226  4511 net.cpp:411] conv3_4_conv3_4/relu_0_split -> conv3_4_conv3_4/relu_0_split_0
I0622 01:31:28.434231  4511 net.cpp:411] conv3_4_conv3_4/relu_0_split -> conv3_4_conv3_4/relu_0_split_1
I0622 01:31:28.434262  4511 net.cpp:150] Setting up conv3_4_conv3_4/relu_0_split
I0622 01:31:28.434267  4511 net.cpp:157] Top shape: 2 512 60 60 (3686400)
I0622 01:31:28.434272  4511 net.cpp:157] Top shape: 2 512 60 60 (3686400)
I0622 01:31:28.434275  4511 net.cpp:165] Memory required for data: 1610609200
I0622 01:31:28.434280  4511 layer_factory.hpp:77] Creating layer conv4_1_1x1_reduce
I0622 01:31:28.434293  4511 net.cpp:106] Creating Layer conv4_1_1x1_reduce
I0622 01:31:28.434298  4511 net.cpp:454] conv4_1_1x1_reduce <- conv3_4_conv3_4/relu_0_split_0
I0622 01:31:28.434303  4511 net.cpp:411] conv4_1_1x1_reduce -> conv4_1_1x1_reduce
I0622 01:31:28.437934  4511 net.cpp:150] Setting up conv4_1_1x1_reduce
I0622 01:31:28.437944  4511 net.cpp:157] Top shape: 2 256 60 60 (1843200)
I0622 01:31:28.437949  4511 net.cpp:165] Memory required for data: 1617982000
I0622 01:31:28.437954  4511 layer_factory.hpp:77] Creating layer conv4_1_1x1_reduce/bn
I0622 01:31:28.437963  4511 net.cpp:106] Creating Layer conv4_1_1x1_reduce/bn
I0622 01:31:28.437966  4511 net.cpp:454] conv4_1_1x1_reduce/bn <- conv4_1_1x1_reduce
I0622 01:31:28.437973  4511 net.cpp:397] conv4_1_1x1_reduce/bn -> conv4_1_1x1_reduce (in-place)
I0622 01:31:28.438141  4511 net.cpp:150] Setting up conv4_1_1x1_reduce/bn
I0622 01:31:28.438148  4511 net.cpp:157] Top shape: 2 256 60 60 (1843200)
I0622 01:31:28.438151  4511 net.cpp:165] Memory required for data: 1625354800
I0622 01:31:28.438159  4511 layer_factory.hpp:77] Creating layer conv4_1_1x1_reduce/relu
I0622 01:31:28.438168  4511 net.cpp:106] Creating Layer conv4_1_1x1_reduce/relu
I0622 01:31:28.438172  4511 net.cpp:454] conv4_1_1x1_reduce/relu <- conv4_1_1x1_reduce
I0622 01:31:28.438176  4511 net.cpp:397] conv4_1_1x1_reduce/relu -> conv4_1_1x1_reduce (in-place)
I0622 01:31:28.438182  4511 net.cpp:150] Setting up conv4_1_1x1_reduce/relu
I0622 01:31:28.438187  4511 net.cpp:157] Top shape: 2 256 60 60 (1843200)
I0622 01:31:28.438191  4511 net.cpp:165] Memory required for data: 1632727600
I0622 01:31:28.438195  4511 layer_factory.hpp:77] Creating layer conv4_1_3x3
I0622 01:31:28.438204  4511 net.cpp:106] Creating Layer conv4_1_3x3
I0622 01:31:28.438207  4511 net.cpp:454] conv4_1_3x3 <- conv4_1_1x1_reduce
I0622 01:31:28.438215  4511 net.cpp:411] conv4_1_3x3 -> conv4_1_3x3
I0622 01:31:28.453274  4511 net.cpp:150] Setting up conv4_1_3x3
I0622 01:31:28.453344  4511 net.cpp:157] Top shape: 2 256 60 60 (1843200)
I0622 01:31:28.453351  4511 net.cpp:165] Memory required for data: 1640100400
I0622 01:31:28.453394  4511 layer_factory.hpp:77] Creating layer conv4_1_3x3/bn
I0622 01:31:28.453416  4511 net.cpp:106] Creating Layer conv4_1_3x3/bn
I0622 01:31:28.453424  4511 net.cpp:454] conv4_1_3x3/bn <- conv4_1_3x3
I0622 01:31:28.453433  4511 net.cpp:397] conv4_1_3x3/bn -> conv4_1_3x3 (in-place)
I0622 01:31:28.453646  4511 net.cpp:150] Setting up conv4_1_3x3/bn
I0622 01:31:28.453655  4511 net.cpp:157] Top shape: 2 256 60 60 (1843200)
I0622 01:31:28.453660  4511 net.cpp:165] Memory required for data: 1647473200
I0622 01:31:28.453668  4511 layer_factory.hpp:77] Creating layer conv4_1_3x3/relu
I0622 01:31:28.453677  4511 net.cpp:106] Creating Layer conv4_1_3x3/relu
I0622 01:31:28.453682  4511 net.cpp:454] conv4_1_3x3/relu <- conv4_1_3x3
I0622 01:31:28.453687  4511 net.cpp:397] conv4_1_3x3/relu -> conv4_1_3x3 (in-place)
I0622 01:31:28.453693  4511 net.cpp:150] Setting up conv4_1_3x3/relu
I0622 01:31:28.453698  4511 net.cpp:157] Top shape: 2 256 60 60 (1843200)
I0622 01:31:28.453702  4511 net.cpp:165] Memory required for data: 1654846000
I0622 01:31:28.453706  4511 layer_factory.hpp:77] Creating layer conv4_1_1x1_increase
I0622 01:31:28.453716  4511 net.cpp:106] Creating Layer conv4_1_1x1_increase
I0622 01:31:28.453721  4511 net.cpp:454] conv4_1_1x1_increase <- conv4_1_3x3
I0622 01:31:28.453727  4511 net.cpp:411] conv4_1_1x1_increase -> conv4_1_1x1_increase
I0622 01:31:28.462632  4511 net.cpp:150] Setting up conv4_1_1x1_increase
I0622 01:31:28.462666  4511 net.cpp:157] Top shape: 2 1024 60 60 (7372800)
I0622 01:31:28.462668  4511 net.cpp:165] Memory required for data: 1684337200
I0622 01:31:28.462677  4511 layer_factory.hpp:77] Creating layer conv4_1_1x1_increase/bn
I0622 01:31:28.462695  4511 net.cpp:106] Creating Layer conv4_1_1x1_increase/bn
I0622 01:31:28.462704  4511 net.cpp:454] conv4_1_1x1_increase/bn <- conv4_1_1x1_increase
I0622 01:31:28.462713  4511 net.cpp:397] conv4_1_1x1_increase/bn -> conv4_1_1x1_increase (in-place)
I0622 01:31:28.462929  4511 net.cpp:150] Setting up conv4_1_1x1_increase/bn
I0622 01:31:28.462937  4511 net.cpp:157] Top shape: 2 1024 60 60 (7372800)
I0622 01:31:28.462940  4511 net.cpp:165] Memory required for data: 1713828400
I0622 01:31:28.462950  4511 layer_factory.hpp:77] Creating layer conv4_1_1x1_proj
I0622 01:31:28.462960  4511 net.cpp:106] Creating Layer conv4_1_1x1_proj
I0622 01:31:28.462966  4511 net.cpp:454] conv4_1_1x1_proj <- conv3_4_conv3_4/relu_0_split_1
I0622 01:31:28.462973  4511 net.cpp:411] conv4_1_1x1_proj -> conv4_1_1x1_proj
I0622 01:31:28.479933  4511 net.cpp:150] Setting up conv4_1_1x1_proj
I0622 01:31:28.480048  4511 net.cpp:157] Top shape: 2 1024 60 60 (7372800)
I0622 01:31:28.480094  4511 net.cpp:165] Memory required for data: 1743319600
I0622 01:31:28.480142  4511 layer_factory.hpp:77] Creating layer conv4_1_1x1_proj/bn
I0622 01:31:28.480197  4511 net.cpp:106] Creating Layer conv4_1_1x1_proj/bn
I0622 01:31:28.480244  4511 net.cpp:454] conv4_1_1x1_proj/bn <- conv4_1_1x1_proj
I0622 01:31:28.480293  4511 net.cpp:397] conv4_1_1x1_proj/bn -> conv4_1_1x1_proj (in-place)
I0622 01:31:28.480545  4511 net.cpp:150] Setting up conv4_1_1x1_proj/bn
I0622 01:31:28.480595  4511 net.cpp:157] Top shape: 2 1024 60 60 (7372800)
I0622 01:31:28.480638  4511 net.cpp:165] Memory required for data: 1772810800
I0622 01:31:28.480687  4511 layer_factory.hpp:77] Creating layer conv4_1
I0622 01:31:28.480736  4511 net.cpp:106] Creating Layer conv4_1
I0622 01:31:28.480779  4511 net.cpp:454] conv4_1 <- conv4_1_1x1_proj
I0622 01:31:28.480825  4511 net.cpp:454] conv4_1 <- conv4_1_1x1_increase
I0622 01:31:28.480871  4511 net.cpp:411] conv4_1 -> conv4_1
I0622 01:31:28.480955  4511 net.cpp:150] Setting up conv4_1
I0622 01:31:28.481004  4511 net.cpp:157] Top shape: 2 1024 60 60 (7372800)
I0622 01:31:28.481050  4511 net.cpp:165] Memory required for data: 1802302000
I0622 01:31:28.481093  4511 layer_factory.hpp:77] Creating layer conv4_1/relu
I0622 01:31:28.481168  4511 net.cpp:106] Creating Layer conv4_1/relu
I0622 01:31:28.481211  4511 net.cpp:454] conv4_1/relu <- conv4_1
I0622 01:31:28.481259  4511 net.cpp:397] conv4_1/relu -> conv4_1 (in-place)
I0622 01:31:28.481323  4511 net.cpp:150] Setting up conv4_1/relu
I0622 01:31:28.481369  4511 net.cpp:157] Top shape: 2 1024 60 60 (7372800)
I0622 01:31:28.481413  4511 net.cpp:165] Memory required for data: 1831793200
I0622 01:31:28.481457  4511 layer_factory.hpp:77] Creating layer conv4_1_conv4_1/relu_0_split
I0622 01:31:28.481504  4511 net.cpp:106] Creating Layer conv4_1_conv4_1/relu_0_split
I0622 01:31:28.481613  4511 net.cpp:454] conv4_1_conv4_1/relu_0_split <- conv4_1
I0622 01:31:28.481683  4511 net.cpp:411] conv4_1_conv4_1/relu_0_split -> conv4_1_conv4_1/relu_0_split_0
I0622 01:31:28.481734  4511 net.cpp:411] conv4_1_conv4_1/relu_0_split -> conv4_1_conv4_1/relu_0_split_1
I0622 01:31:28.481815  4511 net.cpp:150] Setting up conv4_1_conv4_1/relu_0_split
I0622 01:31:28.481869  4511 net.cpp:157] Top shape: 2 1024 60 60 (7372800)
I0622 01:31:28.481920  4511 net.cpp:157] Top shape: 2 1024 60 60 (7372800)
I0622 01:31:28.481964  4511 net.cpp:165] Memory required for data: 1890775600
I0622 01:31:28.482012  4511 layer_factory.hpp:77] Creating layer conv4_2_1x1_reduce
I0622 01:31:28.482064  4511 net.cpp:106] Creating Layer conv4_2_1x1_reduce
I0622 01:31:28.482107  4511 net.cpp:454] conv4_2_1x1_reduce <- conv4_1_conv4_1/relu_0_split_0
I0622 01:31:28.482156  4511 net.cpp:411] conv4_2_1x1_reduce -> conv4_2_1x1_reduce
I0622 01:31:28.490624  4511 net.cpp:150] Setting up conv4_2_1x1_reduce
I0622 01:31:28.490926  4511 net.cpp:157] Top shape: 2 256 60 60 (1843200)
I0622 01:31:28.490983  4511 net.cpp:165] Memory required for data: 1898148400
I0622 01:31:28.491050  4511 layer_factory.hpp:77] Creating layer conv4_2_1x1_reduce/bn
I0622 01:31:28.491132  4511 net.cpp:106] Creating Layer conv4_2_1x1_reduce/bn
I0622 01:31:28.491185  4511 net.cpp:454] conv4_2_1x1_reduce/bn <- conv4_2_1x1_reduce
I0622 01:31:28.491246  4511 net.cpp:397] conv4_2_1x1_reduce/bn -> conv4_2_1x1_reduce (in-place)
I0622 01:31:28.491618  4511 net.cpp:150] Setting up conv4_2_1x1_reduce/bn
I0622 01:31:28.491675  4511 net.cpp:157] Top shape: 2 256 60 60 (1843200)
I0622 01:31:28.491720  4511 net.cpp:165] Memory required for data: 1905521200
I0622 01:31:28.491770  4511 layer_factory.hpp:77] Creating layer conv4_2_1x1_reduce/relu
I0622 01:31:28.491823  4511 net.cpp:106] Creating Layer conv4_2_1x1_reduce/relu
I0622 01:31:28.491870  4511 net.cpp:454] conv4_2_1x1_reduce/relu <- conv4_2_1x1_reduce
I0622 01:31:28.491917  4511 net.cpp:397] conv4_2_1x1_reduce/relu -> conv4_2_1x1_reduce (in-place)
I0622 01:31:28.491961  4511 net.cpp:150] Setting up conv4_2_1x1_reduce/relu
I0622 01:31:28.491969  4511 net.cpp:157] Top shape: 2 256 60 60 (1843200)
I0622 01:31:28.491976  4511 net.cpp:165] Memory required for data: 1912894000
I0622 01:31:28.491982  4511 layer_factory.hpp:77] Creating layer conv4_2_3x3
I0622 01:31:28.492002  4511 net.cpp:106] Creating Layer conv4_2_3x3
I0622 01:31:28.492010  4511 net.cpp:454] conv4_2_3x3 <- conv4_2_1x1_reduce
I0622 01:31:28.492023  4511 net.cpp:411] conv4_2_3x3 -> conv4_2_3x3
I0622 01:31:28.508903  4511 net.cpp:150] Setting up conv4_2_3x3
I0622 01:31:28.508929  4511 net.cpp:157] Top shape: 2 256 60 60 (1843200)
I0622 01:31:28.508931  4511 net.cpp:165] Memory required for data: 1920266800
I0622 01:31:28.508944  4511 layer_factory.hpp:77] Creating layer conv4_2_3x3/bn
I0622 01:31:28.508955  4511 net.cpp:106] Creating Layer conv4_2_3x3/bn
I0622 01:31:28.508965  4511 net.cpp:454] conv4_2_3x3/bn <- conv4_2_3x3
I0622 01:31:28.508976  4511 net.cpp:397] conv4_2_3x3/bn -> conv4_2_3x3 (in-place)
I0622 01:31:28.509138  4511 net.cpp:150] Setting up conv4_2_3x3/bn
I0622 01:31:28.509143  4511 net.cpp:157] Top shape: 2 256 60 60 (1843200)
I0622 01:31:28.509148  4511 net.cpp:165] Memory required for data: 1927639600
I0622 01:31:28.509155  4511 layer_factory.hpp:77] Creating layer conv4_2_3x3/relu
I0622 01:31:28.509160  4511 net.cpp:106] Creating Layer conv4_2_3x3/relu
I0622 01:31:28.509163  4511 net.cpp:454] conv4_2_3x3/relu <- conv4_2_3x3
I0622 01:31:28.509166  4511 net.cpp:397] conv4_2_3x3/relu -> conv4_2_3x3 (in-place)
I0622 01:31:28.509192  4511 net.cpp:150] Setting up conv4_2_3x3/relu
I0622 01:31:28.509196  4511 net.cpp:157] Top shape: 2 256 60 60 (1843200)
I0622 01:31:28.509198  4511 net.cpp:165] Memory required for data: 1935012400
I0622 01:31:28.509202  4511 layer_factory.hpp:77] Creating layer conv4_2_1x1_increase
I0622 01:31:28.509208  4511 net.cpp:106] Creating Layer conv4_2_1x1_increase
I0622 01:31:28.509210  4511 net.cpp:454] conv4_2_1x1_increase <- conv4_2_3x3
I0622 01:31:28.509214  4511 net.cpp:411] conv4_2_1x1_increase -> conv4_2_1x1_increase
I0622 01:31:28.515764  4511 net.cpp:150] Setting up conv4_2_1x1_increase
I0622 01:31:28.515815  4511 net.cpp:157] Top shape: 2 1024 60 60 (7372800)
I0622 01:31:28.515820  4511 net.cpp:165] Memory required for data: 1964503600
I0622 01:31:28.515828  4511 layer_factory.hpp:77] Creating layer conv4_2_1x1_increase/bn
I0622 01:31:28.515857  4511 net.cpp:106] Creating Layer conv4_2_1x1_increase/bn
I0622 01:31:28.515867  4511 net.cpp:454] conv4_2_1x1_increase/bn <- conv4_2_1x1_increase
I0622 01:31:28.515877  4511 net.cpp:397] conv4_2_1x1_increase/bn -> conv4_2_1x1_increase (in-place)
I0622 01:31:28.516121  4511 net.cpp:150] Setting up conv4_2_1x1_increase/bn
I0622 01:31:28.516131  4511 net.cpp:157] Top shape: 2 1024 60 60 (7372800)
I0622 01:31:28.516135  4511 net.cpp:165] Memory required for data: 1993994800
I0622 01:31:28.516146  4511 layer_factory.hpp:77] Creating layer conv4_2
I0622 01:31:28.516157  4511 net.cpp:106] Creating Layer conv4_2
I0622 01:31:28.516161  4511 net.cpp:454] conv4_2 <- conv4_1_conv4_1/relu_0_split_1
I0622 01:31:28.516166  4511 net.cpp:454] conv4_2 <- conv4_2_1x1_increase
I0622 01:31:28.516171  4511 net.cpp:411] conv4_2 -> conv4_2
I0622 01:31:28.516201  4511 net.cpp:150] Setting up conv4_2
I0622 01:31:28.516206  4511 net.cpp:157] Top shape: 2 1024 60 60 (7372800)
I0622 01:31:28.516209  4511 net.cpp:165] Memory required for data: 2023486000
I0622 01:31:28.516213  4511 layer_factory.hpp:77] Creating layer conv4_2/relu
I0622 01:31:28.516222  4511 net.cpp:106] Creating Layer conv4_2/relu
I0622 01:31:28.516225  4511 net.cpp:454] conv4_2/relu <- conv4_2
I0622 01:31:28.516233  4511 net.cpp:397] conv4_2/relu -> conv4_2 (in-place)
I0622 01:31:28.516239  4511 net.cpp:150] Setting up conv4_2/relu
I0622 01:31:28.516243  4511 net.cpp:157] Top shape: 2 1024 60 60 (7372800)
I0622 01:31:28.516247  4511 net.cpp:165] Memory required for data: 2052977200
I0622 01:31:28.516252  4511 layer_factory.hpp:77] Creating layer conv4_2_conv4_2/relu_0_split
I0622 01:31:28.516258  4511 net.cpp:106] Creating Layer conv4_2_conv4_2/relu_0_split
I0622 01:31:28.516261  4511 net.cpp:454] conv4_2_conv4_2/relu_0_split <- conv4_2
I0622 01:31:28.516268  4511 net.cpp:411] conv4_2_conv4_2/relu_0_split -> conv4_2_conv4_2/relu_0_split_0
I0622 01:31:28.516288  4511 net.cpp:411] conv4_2_conv4_2/relu_0_split -> conv4_2_conv4_2/relu_0_split_1
I0622 01:31:28.516316  4511 net.cpp:150] Setting up conv4_2_conv4_2/relu_0_split
I0622 01:31:28.516321  4511 net.cpp:157] Top shape: 2 1024 60 60 (7372800)
I0622 01:31:28.516325  4511 net.cpp:157] Top shape: 2 1024 60 60 (7372800)
I0622 01:31:28.516327  4511 net.cpp:165] Memory required for data: 2111959600
I0622 01:31:28.516330  4511 layer_factory.hpp:77] Creating layer conv4_3_1x1_reduce
I0622 01:31:28.516342  4511 net.cpp:106] Creating Layer conv4_3_1x1_reduce
I0622 01:31:28.516345  4511 net.cpp:454] conv4_3_1x1_reduce <- conv4_2_conv4_2/relu_0_split_0
I0622 01:31:28.516352  4511 net.cpp:411] conv4_3_1x1_reduce -> conv4_3_1x1_reduce
I0622 01:31:28.522178  4511 net.cpp:150] Setting up conv4_3_1x1_reduce
I0622 01:31:28.522192  4511 net.cpp:157] Top shape: 2 256 60 60 (1843200)
I0622 01:31:28.522194  4511 net.cpp:165] Memory required for data: 2119332400
I0622 01:31:28.522199  4511 layer_factory.hpp:77] Creating layer conv4_3_1x1_reduce/bn
I0622 01:31:28.522204  4511 net.cpp:106] Creating Layer conv4_3_1x1_reduce/bn
I0622 01:31:28.522208  4511 net.cpp:454] conv4_3_1x1_reduce/bn <- conv4_3_1x1_reduce
I0622 01:31:28.522212  4511 net.cpp:397] conv4_3_1x1_reduce/bn -> conv4_3_1x1_reduce (in-place)
I0622 01:31:28.522368  4511 net.cpp:150] Setting up conv4_3_1x1_reduce/bn
I0622 01:31:28.522372  4511 net.cpp:157] Top shape: 2 256 60 60 (1843200)
I0622 01:31:28.522374  4511 net.cpp:165] Memory required for data: 2126705200
I0622 01:31:28.522379  4511 layer_factory.hpp:77] Creating layer conv4_3_1x1_reduce/relu
I0622 01:31:28.522384  4511 net.cpp:106] Creating Layer conv4_3_1x1_reduce/relu
I0622 01:31:28.522387  4511 net.cpp:454] conv4_3_1x1_reduce/relu <- conv4_3_1x1_reduce
I0622 01:31:28.522390  4511 net.cpp:397] conv4_3_1x1_reduce/relu -> conv4_3_1x1_reduce (in-place)
I0622 01:31:28.522393  4511 net.cpp:150] Setting up conv4_3_1x1_reduce/relu
I0622 01:31:28.522397  4511 net.cpp:157] Top shape: 2 256 60 60 (1843200)
I0622 01:31:28.522398  4511 net.cpp:165] Memory required for data: 2134078000
I0622 01:31:28.522402  4511 layer_factory.hpp:77] Creating layer conv4_3_3x3
I0622 01:31:28.522409  4511 net.cpp:106] Creating Layer conv4_3_3x3
I0622 01:31:28.522413  4511 net.cpp:454] conv4_3_3x3 <- conv4_3_1x1_reduce
I0622 01:31:28.522418  4511 net.cpp:411] conv4_3_3x3 -> conv4_3_3x3
I0622 01:31:28.536306  4511 net.cpp:150] Setting up conv4_3_3x3
I0622 01:31:28.536363  4511 net.cpp:157] Top shape: 2 256 60 60 (1843200)
I0622 01:31:28.536368  4511 net.cpp:165] Memory required for data: 2141450800
I0622 01:31:28.536386  4511 layer_factory.hpp:77] Creating layer conv4_3_3x3/bn
I0622 01:31:28.536412  4511 net.cpp:106] Creating Layer conv4_3_3x3/bn
I0622 01:31:28.536425  4511 net.cpp:454] conv4_3_3x3/bn <- conv4_3_3x3
I0622 01:31:28.536437  4511 net.cpp:397] conv4_3_3x3/bn -> conv4_3_3x3 (in-place)
I0622 01:31:28.536690  4511 net.cpp:150] Setting up conv4_3_3x3/bn
I0622 01:31:28.536700  4511 net.cpp:157] Top shape: 2 256 60 60 (1843200)
I0622 01:31:28.536705  4511 net.cpp:165] Memory required for data: 2148823600
I0622 01:31:28.536715  4511 layer_factory.hpp:77] Creating layer conv4_3_3x3/relu
I0622 01:31:28.536728  4511 net.cpp:106] Creating Layer conv4_3_3x3/relu
I0622 01:31:28.536732  4511 net.cpp:454] conv4_3_3x3/relu <- conv4_3_3x3
I0622 01:31:28.536737  4511 net.cpp:397] conv4_3_3x3/relu -> conv4_3_3x3 (in-place)
I0622 01:31:28.536746  4511 net.cpp:150] Setting up conv4_3_3x3/relu
I0622 01:31:28.536751  4511 net.cpp:157] Top shape: 2 256 60 60 (1843200)
I0622 01:31:28.536753  4511 net.cpp:165] Memory required for data: 2156196400
I0622 01:31:28.536757  4511 layer_factory.hpp:77] Creating layer conv4_3_1x1_increase
I0622 01:31:28.536772  4511 net.cpp:106] Creating Layer conv4_3_1x1_increase
I0622 01:31:28.536777  4511 net.cpp:454] conv4_3_1x1_increase <- conv4_3_3x3
I0622 01:31:28.536784  4511 net.cpp:411] conv4_3_1x1_increase -> conv4_3_1x1_increase
I0622 01:31:28.543556  4511 net.cpp:150] Setting up conv4_3_1x1_increase
I0622 01:31:28.543567  4511 net.cpp:157] Top shape: 2 1024 60 60 (7372800)
I0622 01:31:28.543570  4511 net.cpp:165] Memory required for data: 2185687600
I0622 01:31:28.543576  4511 layer_factory.hpp:77] Creating layer conv4_3_1x1_increase/bn
I0622 01:31:28.543582  4511 net.cpp:106] Creating Layer conv4_3_1x1_increase/bn
I0622 01:31:28.543586  4511 net.cpp:454] conv4_3_1x1_increase/bn <- conv4_3_1x1_increase
I0622 01:31:28.543591  4511 net.cpp:397] conv4_3_1x1_increase/bn -> conv4_3_1x1_increase (in-place)
I0622 01:31:28.543728  4511 net.cpp:150] Setting up conv4_3_1x1_increase/bn
I0622 01:31:28.543733  4511 net.cpp:157] Top shape: 2 1024 60 60 (7372800)
I0622 01:31:28.543736  4511 net.cpp:165] Memory required for data: 2215178800
I0622 01:31:28.543741  4511 layer_factory.hpp:77] Creating layer conv4_3
I0622 01:31:28.543746  4511 net.cpp:106] Creating Layer conv4_3
I0622 01:31:28.543750  4511 net.cpp:454] conv4_3 <- conv4_2_conv4_2/relu_0_split_1
I0622 01:31:28.543752  4511 net.cpp:454] conv4_3 <- conv4_3_1x1_increase
I0622 01:31:28.543756  4511 net.cpp:411] conv4_3 -> conv4_3
I0622 01:31:28.543774  4511 net.cpp:150] Setting up conv4_3
I0622 01:31:28.543778  4511 net.cpp:157] Top shape: 2 1024 60 60 (7372800)
I0622 01:31:28.543781  4511 net.cpp:165] Memory required for data: 2244670000
I0622 01:31:28.543784  4511 layer_factory.hpp:77] Creating layer conv4_3/relu
I0622 01:31:28.543807  4511 net.cpp:106] Creating Layer conv4_3/relu
I0622 01:31:28.543810  4511 net.cpp:454] conv4_3/relu <- conv4_3
I0622 01:31:28.543817  4511 net.cpp:397] conv4_3/relu -> conv4_3 (in-place)
I0622 01:31:28.543823  4511 net.cpp:150] Setting up conv4_3/relu
I0622 01:31:28.543826  4511 net.cpp:157] Top shape: 2 1024 60 60 (7372800)
I0622 01:31:28.543829  4511 net.cpp:165] Memory required for data: 2274161200
I0622 01:31:28.543833  4511 layer_factory.hpp:77] Creating layer conv4_3_conv4_3/relu_0_split
I0622 01:31:28.543838  4511 net.cpp:106] Creating Layer conv4_3_conv4_3/relu_0_split
I0622 01:31:28.543841  4511 net.cpp:454] conv4_3_conv4_3/relu_0_split <- conv4_3
I0622 01:31:28.543846  4511 net.cpp:411] conv4_3_conv4_3/relu_0_split -> conv4_3_conv4_3/relu_0_split_0
I0622 01:31:28.543851  4511 net.cpp:411] conv4_3_conv4_3/relu_0_split -> conv4_3_conv4_3/relu_0_split_1
I0622 01:31:28.543875  4511 net.cpp:150] Setting up conv4_3_conv4_3/relu_0_split
I0622 01:31:28.543880  4511 net.cpp:157] Top shape: 2 1024 60 60 (7372800)
I0622 01:31:28.543885  4511 net.cpp:157] Top shape: 2 1024 60 60 (7372800)
I0622 01:31:28.543887  4511 net.cpp:165] Memory required for data: 2333143600
I0622 01:31:28.543891  4511 layer_factory.hpp:77] Creating layer conv4_4_1x1_reduce
I0622 01:31:28.543912  4511 net.cpp:106] Creating Layer conv4_4_1x1_reduce
I0622 01:31:28.543916  4511 net.cpp:454] conv4_4_1x1_reduce <- conv4_3_conv4_3/relu_0_split_0
I0622 01:31:28.543921  4511 net.cpp:411] conv4_4_1x1_reduce -> conv4_4_1x1_reduce
I0622 01:31:28.549897  4511 net.cpp:150] Setting up conv4_4_1x1_reduce
I0622 01:31:28.549947  4511 net.cpp:157] Top shape: 2 256 60 60 (1843200)
I0622 01:31:28.549952  4511 net.cpp:165] Memory required for data: 2340516400
I0622 01:31:28.549964  4511 layer_factory.hpp:77] Creating layer conv4_4_1x1_reduce/bn
I0622 01:31:28.549986  4511 net.cpp:106] Creating Layer conv4_4_1x1_reduce/bn
I0622 01:31:28.549996  4511 net.cpp:454] conv4_4_1x1_reduce/bn <- conv4_4_1x1_reduce
I0622 01:31:28.550005  4511 net.cpp:397] conv4_4_1x1_reduce/bn -> conv4_4_1x1_reduce (in-place)
I0622 01:31:28.550211  4511 net.cpp:150] Setting up conv4_4_1x1_reduce/bn
I0622 01:31:28.550221  4511 net.cpp:157] Top shape: 2 256 60 60 (1843200)
I0622 01:31:28.550225  4511 net.cpp:165] Memory required for data: 2347889200
I0622 01:31:28.550231  4511 layer_factory.hpp:77] Creating layer conv4_4_1x1_reduce/relu
I0622 01:31:28.550240  4511 net.cpp:106] Creating Layer conv4_4_1x1_reduce/relu
I0622 01:31:28.550243  4511 net.cpp:454] conv4_4_1x1_reduce/relu <- conv4_4_1x1_reduce
I0622 01:31:28.550248  4511 net.cpp:397] conv4_4_1x1_reduce/relu -> conv4_4_1x1_reduce (in-place)
I0622 01:31:28.550256  4511 net.cpp:150] Setting up conv4_4_1x1_reduce/relu
I0622 01:31:28.550259  4511 net.cpp:157] Top shape: 2 256 60 60 (1843200)
I0622 01:31:28.550262  4511 net.cpp:165] Memory required for data: 2355262000
I0622 01:31:28.550266  4511 layer_factory.hpp:77] Creating layer conv4_4_3x3
I0622 01:31:28.550281  4511 net.cpp:106] Creating Layer conv4_4_3x3
I0622 01:31:28.550283  4511 net.cpp:454] conv4_4_3x3 <- conv4_4_1x1_reduce
I0622 01:31:28.550292  4511 net.cpp:411] conv4_4_3x3 -> conv4_4_3x3
I0622 01:31:28.565865  4511 net.cpp:150] Setting up conv4_4_3x3
I0622 01:31:28.565933  4511 net.cpp:157] Top shape: 2 256 60 60 (1843200)
I0622 01:31:28.565939  4511 net.cpp:165] Memory required for data: 2362634800
I0622 01:31:28.565958  4511 layer_factory.hpp:77] Creating layer conv4_4_3x3/bn
I0622 01:31:28.565992  4511 net.cpp:106] Creating Layer conv4_4_3x3/bn
I0622 01:31:28.566006  4511 net.cpp:454] conv4_4_3x3/bn <- conv4_4_3x3
I0622 01:31:28.566021  4511 net.cpp:397] conv4_4_3x3/bn -> conv4_4_3x3 (in-place)
I0622 01:31:28.566282  4511 net.cpp:150] Setting up conv4_4_3x3/bn
I0622 01:31:28.566293  4511 net.cpp:157] Top shape: 2 256 60 60 (1843200)
I0622 01:31:28.566298  4511 net.cpp:165] Memory required for data: 2370007600
I0622 01:31:28.566308  4511 layer_factory.hpp:77] Creating layer conv4_4_3x3/relu
I0622 01:31:28.566378  4511 net.cpp:106] Creating Layer conv4_4_3x3/relu
I0622 01:31:28.566383  4511 net.cpp:454] conv4_4_3x3/relu <- conv4_4_3x3
I0622 01:31:28.566390  4511 net.cpp:397] conv4_4_3x3/relu -> conv4_4_3x3 (in-place)
I0622 01:31:28.566398  4511 net.cpp:150] Setting up conv4_4_3x3/relu
I0622 01:31:28.566404  4511 net.cpp:157] Top shape: 2 256 60 60 (1843200)
I0622 01:31:28.566408  4511 net.cpp:165] Memory required for data: 2377380400
I0622 01:31:28.566413  4511 layer_factory.hpp:77] Creating layer conv4_4_1x1_increase
I0622 01:31:28.566429  4511 net.cpp:106] Creating Layer conv4_4_1x1_increase
I0622 01:31:28.566434  4511 net.cpp:454] conv4_4_1x1_increase <- conv4_4_3x3
I0622 01:31:28.566443  4511 net.cpp:411] conv4_4_1x1_increase -> conv4_4_1x1_increase
I0622 01:31:28.576349  4511 net.cpp:150] Setting up conv4_4_1x1_increase
I0622 01:31:28.576421  4511 net.cpp:157] Top shape: 2 1024 60 60 (7372800)
I0622 01:31:28.576426  4511 net.cpp:165] Memory required for data: 2406871600
I0622 01:31:28.576442  4511 layer_factory.hpp:77] Creating layer conv4_4_1x1_increase/bn
I0622 01:31:28.576469  4511 net.cpp:106] Creating Layer conv4_4_1x1_increase/bn
I0622 01:31:28.576480  4511 net.cpp:454] conv4_4_1x1_increase/bn <- conv4_4_1x1_increase
I0622 01:31:28.576493  4511 net.cpp:397] conv4_4_1x1_increase/bn -> conv4_4_1x1_increase (in-place)
I0622 01:31:28.576736  4511 net.cpp:150] Setting up conv4_4_1x1_increase/bn
I0622 01:31:28.576743  4511 net.cpp:157] Top shape: 2 1024 60 60 (7372800)
I0622 01:31:28.576747  4511 net.cpp:165] Memory required for data: 2436362800
I0622 01:31:28.576756  4511 layer_factory.hpp:77] Creating layer conv4_4
I0622 01:31:28.576763  4511 net.cpp:106] Creating Layer conv4_4
I0622 01:31:28.576767  4511 net.cpp:454] conv4_4 <- conv4_3_conv4_3/relu_0_split_1
I0622 01:31:28.576772  4511 net.cpp:454] conv4_4 <- conv4_4_1x1_increase
I0622 01:31:28.576777  4511 net.cpp:411] conv4_4 -> conv4_4
I0622 01:31:28.576809  4511 net.cpp:150] Setting up conv4_4
I0622 01:31:28.576814  4511 net.cpp:157] Top shape: 2 1024 60 60 (7372800)
I0622 01:31:28.576818  4511 net.cpp:165] Memory required for data: 2465854000
I0622 01:31:28.576822  4511 layer_factory.hpp:77] Creating layer conv4_4/relu
I0622 01:31:28.576829  4511 net.cpp:106] Creating Layer conv4_4/relu
I0622 01:31:28.576833  4511 net.cpp:454] conv4_4/relu <- conv4_4
I0622 01:31:28.576838  4511 net.cpp:397] conv4_4/relu -> conv4_4 (in-place)
I0622 01:31:28.576843  4511 net.cpp:150] Setting up conv4_4/relu
I0622 01:31:28.576848  4511 net.cpp:157] Top shape: 2 1024 60 60 (7372800)
I0622 01:31:28.576850  4511 net.cpp:165] Memory required for data: 2495345200
I0622 01:31:28.576853  4511 layer_factory.hpp:77] Creating layer conv4_4_conv4_4/relu_0_split
I0622 01:31:28.576860  4511 net.cpp:106] Creating Layer conv4_4_conv4_4/relu_0_split
I0622 01:31:28.576864  4511 net.cpp:454] conv4_4_conv4_4/relu_0_split <- conv4_4
I0622 01:31:28.576869  4511 net.cpp:411] conv4_4_conv4_4/relu_0_split -> conv4_4_conv4_4/relu_0_split_0
I0622 01:31:28.576874  4511 net.cpp:411] conv4_4_conv4_4/relu_0_split -> conv4_4_conv4_4/relu_0_split_1
I0622 01:31:28.576896  4511 net.cpp:150] Setting up conv4_4_conv4_4/relu_0_split
I0622 01:31:28.576901  4511 net.cpp:157] Top shape: 2 1024 60 60 (7372800)
I0622 01:31:28.576906  4511 net.cpp:157] Top shape: 2 1024 60 60 (7372800)
I0622 01:31:28.576910  4511 net.cpp:165] Memory required for data: 2554327600
I0622 01:31:28.576912  4511 layer_factory.hpp:77] Creating layer conv4_5_1x1_reduce
I0622 01:31:28.576920  4511 net.cpp:106] Creating Layer conv4_5_1x1_reduce
I0622 01:31:28.576925  4511 net.cpp:454] conv4_5_1x1_reduce <- conv4_4_conv4_4/relu_0_split_0
I0622 01:31:28.576930  4511 net.cpp:411] conv4_5_1x1_reduce -> conv4_5_1x1_reduce
I0622 01:31:28.582746  4511 net.cpp:150] Setting up conv4_5_1x1_reduce
I0622 01:31:28.582777  4511 net.cpp:157] Top shape: 2 256 60 60 (1843200)
I0622 01:31:28.582780  4511 net.cpp:165] Memory required for data: 2561700400
I0622 01:31:28.582792  4511 layer_factory.hpp:77] Creating layer conv4_5_1x1_reduce/bn
I0622 01:31:28.582808  4511 net.cpp:106] Creating Layer conv4_5_1x1_reduce/bn
I0622 01:31:28.582854  4511 net.cpp:454] conv4_5_1x1_reduce/bn <- conv4_5_1x1_reduce
I0622 01:31:28.582862  4511 net.cpp:397] conv4_5_1x1_reduce/bn -> conv4_5_1x1_reduce (in-place)
I0622 01:31:28.583037  4511 net.cpp:150] Setting up conv4_5_1x1_reduce/bn
I0622 01:31:28.583042  4511 net.cpp:157] Top shape: 2 256 60 60 (1843200)
I0622 01:31:28.583046  4511 net.cpp:165] Memory required for data: 2569073200
I0622 01:31:28.583055  4511 layer_factory.hpp:77] Creating layer conv4_5_1x1_reduce/relu
I0622 01:31:28.583063  4511 net.cpp:106] Creating Layer conv4_5_1x1_reduce/relu
I0622 01:31:28.583067  4511 net.cpp:454] conv4_5_1x1_reduce/relu <- conv4_5_1x1_reduce
I0622 01:31:28.583071  4511 net.cpp:397] conv4_5_1x1_reduce/relu -> conv4_5_1x1_reduce (in-place)
I0622 01:31:28.583078  4511 net.cpp:150] Setting up conv4_5_1x1_reduce/relu
I0622 01:31:28.583082  4511 net.cpp:157] Top shape: 2 256 60 60 (1843200)
I0622 01:31:28.583086  4511 net.cpp:165] Memory required for data: 2576446000
I0622 01:31:28.583089  4511 layer_factory.hpp:77] Creating layer conv4_5_3x3
I0622 01:31:28.583103  4511 net.cpp:106] Creating Layer conv4_5_3x3
I0622 01:31:28.583106  4511 net.cpp:454] conv4_5_3x3 <- conv4_5_1x1_reduce
I0622 01:31:28.583113  4511 net.cpp:411] conv4_5_3x3 -> conv4_5_3x3
I0622 01:31:28.596802  4511 net.cpp:150] Setting up conv4_5_3x3
I0622 01:31:28.596825  4511 net.cpp:157] Top shape: 2 256 60 60 (1843200)
I0622 01:31:28.596830  4511 net.cpp:165] Memory required for data: 2583818800
I0622 01:31:28.596838  4511 layer_factory.hpp:77] Creating layer conv4_5_3x3/bn
I0622 01:31:28.596848  4511 net.cpp:106] Creating Layer conv4_5_3x3/bn
I0622 01:31:28.596854  4511 net.cpp:454] conv4_5_3x3/bn <- conv4_5_3x3
I0622 01:31:28.596863  4511 net.cpp:397] conv4_5_3x3/bn -> conv4_5_3x3 (in-place)
I0622 01:31:28.597023  4511 net.cpp:150] Setting up conv4_5_3x3/bn
I0622 01:31:28.597029  4511 net.cpp:157] Top shape: 2 256 60 60 (1843200)
I0622 01:31:28.597033  4511 net.cpp:165] Memory required for data: 2591191600
I0622 01:31:28.597043  4511 layer_factory.hpp:77] Creating layer conv4_5_3x3/relu
I0622 01:31:28.597050  4511 net.cpp:106] Creating Layer conv4_5_3x3/relu
I0622 01:31:28.597054  4511 net.cpp:454] conv4_5_3x3/relu <- conv4_5_3x3
I0622 01:31:28.597057  4511 net.cpp:397] conv4_5_3x3/relu -> conv4_5_3x3 (in-place)
I0622 01:31:28.597064  4511 net.cpp:150] Setting up conv4_5_3x3/relu
I0622 01:31:28.597067  4511 net.cpp:157] Top shape: 2 256 60 60 (1843200)
I0622 01:31:28.597070  4511 net.cpp:165] Memory required for data: 2598564400
I0622 01:31:28.597074  4511 layer_factory.hpp:77] Creating layer conv4_5_1x1_increase
I0622 01:31:28.597084  4511 net.cpp:106] Creating Layer conv4_5_1x1_increase
I0622 01:31:28.597086  4511 net.cpp:454] conv4_5_1x1_increase <- conv4_5_3x3
I0622 01:31:28.597092  4511 net.cpp:411] conv4_5_1x1_increase -> conv4_5_1x1_increase
I0622 01:31:28.604055  4511 net.cpp:150] Setting up conv4_5_1x1_increase
I0622 01:31:28.604081  4511 net.cpp:157] Top shape: 2 1024 60 60 (7372800)
I0622 01:31:28.604084  4511 net.cpp:165] Memory required for data: 2628055600
I0622 01:31:28.604089  4511 layer_factory.hpp:77] Creating layer conv4_5_1x1_increase/bn
I0622 01:31:28.604100  4511 net.cpp:106] Creating Layer conv4_5_1x1_increase/bn
I0622 01:31:28.604107  4511 net.cpp:454] conv4_5_1x1_increase/bn <- conv4_5_1x1_increase
I0622 01:31:28.604116  4511 net.cpp:397] conv4_5_1x1_increase/bn -> conv4_5_1x1_increase (in-place)
I0622 01:31:28.604277  4511 net.cpp:150] Setting up conv4_5_1x1_increase/bn
I0622 01:31:28.604284  4511 net.cpp:157] Top shape: 2 1024 60 60 (7372800)
I0622 01:31:28.604287  4511 net.cpp:165] Memory required for data: 2657546800
I0622 01:31:28.604296  4511 layer_factory.hpp:77] Creating layer conv4_5
I0622 01:31:28.604303  4511 net.cpp:106] Creating Layer conv4_5
I0622 01:31:28.604306  4511 net.cpp:454] conv4_5 <- conv4_4_conv4_4/relu_0_split_1
I0622 01:31:28.604311  4511 net.cpp:454] conv4_5 <- conv4_5_1x1_increase
I0622 01:31:28.604315  4511 net.cpp:411] conv4_5 -> conv4_5
I0622 01:31:28.604362  4511 net.cpp:150] Setting up conv4_5
I0622 01:31:28.604367  4511 net.cpp:157] Top shape: 2 1024 60 60 (7372800)
I0622 01:31:28.604370  4511 net.cpp:165] Memory required for data: 2687038000
I0622 01:31:28.604373  4511 layer_factory.hpp:77] Creating layer conv4_5/relu
I0622 01:31:28.604380  4511 net.cpp:106] Creating Layer conv4_5/relu
I0622 01:31:28.604384  4511 net.cpp:454] conv4_5/relu <- conv4_5
I0622 01:31:28.604388  4511 net.cpp:397] conv4_5/relu -> conv4_5 (in-place)
I0622 01:31:28.604393  4511 net.cpp:150] Setting up conv4_5/relu
I0622 01:31:28.604398  4511 net.cpp:157] Top shape: 2 1024 60 60 (7372800)
I0622 01:31:28.604401  4511 net.cpp:165] Memory required for data: 2716529200
I0622 01:31:28.604405  4511 layer_factory.hpp:77] Creating layer conv4_5_conv4_5/relu_0_split
I0622 01:31:28.604411  4511 net.cpp:106] Creating Layer conv4_5_conv4_5/relu_0_split
I0622 01:31:28.604414  4511 net.cpp:454] conv4_5_conv4_5/relu_0_split <- conv4_5
I0622 01:31:28.604420  4511 net.cpp:411] conv4_5_conv4_5/relu_0_split -> conv4_5_conv4_5/relu_0_split_0
I0622 01:31:28.604425  4511 net.cpp:411] conv4_5_conv4_5/relu_0_split -> conv4_5_conv4_5/relu_0_split_1
I0622 01:31:28.604449  4511 net.cpp:150] Setting up conv4_5_conv4_5/relu_0_split
I0622 01:31:28.604454  4511 net.cpp:157] Top shape: 2 1024 60 60 (7372800)
I0622 01:31:28.604460  4511 net.cpp:157] Top shape: 2 1024 60 60 (7372800)
I0622 01:31:28.604462  4511 net.cpp:165] Memory required for data: 2775511600
I0622 01:31:28.604465  4511 layer_factory.hpp:77] Creating layer conv4_6_1x1_reduce
I0622 01:31:28.604473  4511 net.cpp:106] Creating Layer conv4_6_1x1_reduce
I0622 01:31:28.604477  4511 net.cpp:454] conv4_6_1x1_reduce <- conv4_5_conv4_5/relu_0_split_0
I0622 01:31:28.604483  4511 net.cpp:411] conv4_6_1x1_reduce -> conv4_6_1x1_reduce
I0622 01:31:28.610846  4511 net.cpp:150] Setting up conv4_6_1x1_reduce
I0622 01:31:28.610908  4511 net.cpp:157] Top shape: 2 256 60 60 (1843200)
I0622 01:31:28.610913  4511 net.cpp:165] Memory required for data: 2782884400
I0622 01:31:28.610925  4511 layer_factory.hpp:77] Creating layer conv4_6_1x1_reduce/bn
I0622 01:31:28.610949  4511 net.cpp:106] Creating Layer conv4_6_1x1_reduce/bn
I0622 01:31:28.610957  4511 net.cpp:454] conv4_6_1x1_reduce/bn <- conv4_6_1x1_reduce
I0622 01:31:28.610967  4511 net.cpp:397] conv4_6_1x1_reduce/bn -> conv4_6_1x1_reduce (in-place)
I0622 01:31:28.611171  4511 net.cpp:150] Setting up conv4_6_1x1_reduce/bn
I0622 01:31:28.611176  4511 net.cpp:157] Top shape: 2 256 60 60 (1843200)
I0622 01:31:28.611181  4511 net.cpp:165] Memory required for data: 2790257200
I0622 01:31:28.611189  4511 layer_factory.hpp:77] Creating layer conv4_6_1x1_reduce/relu
I0622 01:31:28.611197  4511 net.cpp:106] Creating Layer conv4_6_1x1_reduce/relu
I0622 01:31:28.611201  4511 net.cpp:454] conv4_6_1x1_reduce/relu <- conv4_6_1x1_reduce
I0622 01:31:28.611205  4511 net.cpp:397] conv4_6_1x1_reduce/relu -> conv4_6_1x1_reduce (in-place)
I0622 01:31:28.611213  4511 net.cpp:150] Setting up conv4_6_1x1_reduce/relu
I0622 01:31:28.611217  4511 net.cpp:157] Top shape: 2 256 60 60 (1843200)
I0622 01:31:28.611220  4511 net.cpp:165] Memory required for data: 2797630000
I0622 01:31:28.611223  4511 layer_factory.hpp:77] Creating layer conv4_6_3x3
I0622 01:31:28.611238  4511 net.cpp:106] Creating Layer conv4_6_3x3
I0622 01:31:28.611240  4511 net.cpp:454] conv4_6_3x3 <- conv4_6_1x1_reduce
I0622 01:31:28.611248  4511 net.cpp:411] conv4_6_3x3 -> conv4_6_3x3
I0622 01:31:28.624809  4511 net.cpp:150] Setting up conv4_6_3x3
I0622 01:31:28.624860  4511 net.cpp:157] Top shape: 2 256 60 60 (1843200)
I0622 01:31:28.624863  4511 net.cpp:165] Memory required for data: 2805002800
I0622 01:31:28.624877  4511 layer_factory.hpp:77] Creating layer conv4_6_3x3/bn
I0622 01:31:28.624897  4511 net.cpp:106] Creating Layer conv4_6_3x3/bn
I0622 01:31:28.624907  4511 net.cpp:454] conv4_6_3x3/bn <- conv4_6_3x3
I0622 01:31:28.624917  4511 net.cpp:397] conv4_6_3x3/bn -> conv4_6_3x3 (in-place)
I0622 01:31:28.625114  4511 net.cpp:150] Setting up conv4_6_3x3/bn
I0622 01:31:28.625159  4511 net.cpp:157] Top shape: 2 256 60 60 (1843200)
I0622 01:31:28.625162  4511 net.cpp:165] Memory required for data: 2812375600
I0622 01:31:28.625169  4511 layer_factory.hpp:77] Creating layer conv4_6_3x3/relu
I0622 01:31:28.625177  4511 net.cpp:106] Creating Layer conv4_6_3x3/relu
I0622 01:31:28.625181  4511 net.cpp:454] conv4_6_3x3/relu <- conv4_6_3x3
I0622 01:31:28.625185  4511 net.cpp:397] conv4_6_3x3/relu -> conv4_6_3x3 (in-place)
I0622 01:31:28.625192  4511 net.cpp:150] Setting up conv4_6_3x3/relu
I0622 01:31:28.625196  4511 net.cpp:157] Top shape: 2 256 60 60 (1843200)
I0622 01:31:28.625200  4511 net.cpp:165] Memory required for data: 2819748400
I0622 01:31:28.625202  4511 layer_factory.hpp:77] Creating layer conv4_6_1x1_increase
I0622 01:31:28.625213  4511 net.cpp:106] Creating Layer conv4_6_1x1_increase
I0622 01:31:28.625216  4511 net.cpp:454] conv4_6_1x1_increase <- conv4_6_3x3
I0622 01:31:28.625222  4511 net.cpp:411] conv4_6_1x1_increase -> conv4_6_1x1_increase
I0622 01:31:28.631925  4511 net.cpp:150] Setting up conv4_6_1x1_increase
I0622 01:31:28.631975  4511 net.cpp:157] Top shape: 2 1024 60 60 (7372800)
I0622 01:31:28.631979  4511 net.cpp:165] Memory required for data: 2849239600
I0622 01:31:28.631992  4511 layer_factory.hpp:77] Creating layer conv4_6_1x1_increase/bn
I0622 01:31:28.632014  4511 net.cpp:106] Creating Layer conv4_6_1x1_increase/bn
I0622 01:31:28.632022  4511 net.cpp:454] conv4_6_1x1_increase/bn <- conv4_6_1x1_increase
I0622 01:31:28.632032  4511 net.cpp:397] conv4_6_1x1_increase/bn -> conv4_6_1x1_increase (in-place)
I0622 01:31:28.632227  4511 net.cpp:150] Setting up conv4_6_1x1_increase/bn
I0622 01:31:28.632233  4511 net.cpp:157] Top shape: 2 1024 60 60 (7372800)
I0622 01:31:28.632237  4511 net.cpp:165] Memory required for data: 2878730800
I0622 01:31:28.632247  4511 layer_factory.hpp:77] Creating layer conv4_6
I0622 01:31:28.632257  4511 net.cpp:106] Creating Layer conv4_6
I0622 01:31:28.632262  4511 net.cpp:454] conv4_6 <- conv4_5_conv4_5/relu_0_split_1
I0622 01:31:28.632268  4511 net.cpp:454] conv4_6 <- conv4_6_1x1_increase
I0622 01:31:28.632273  4511 net.cpp:411] conv4_6 -> conv4_6
I0622 01:31:28.632313  4511 net.cpp:150] Setting up conv4_6
I0622 01:31:28.632318  4511 net.cpp:157] Top shape: 2 1024 60 60 (7372800)
I0622 01:31:28.632320  4511 net.cpp:165] Memory required for data: 2908222000
I0622 01:31:28.632326  4511 layer_factory.hpp:77] Creating layer conv4_6/relu
I0622 01:31:28.632338  4511 net.cpp:106] Creating Layer conv4_6/relu
I0622 01:31:28.632341  4511 net.cpp:454] conv4_6/relu <- conv4_6
I0622 01:31:28.632347  4511 net.cpp:397] conv4_6/relu -> conv4_6 (in-place)
I0622 01:31:28.632352  4511 net.cpp:150] Setting up conv4_6/relu
I0622 01:31:28.632357  4511 net.cpp:157] Top shape: 2 1024 60 60 (7372800)
I0622 01:31:28.632361  4511 net.cpp:165] Memory required for data: 2937713200
I0622 01:31:28.632365  4511 layer_factory.hpp:77] Creating layer conv4_6_conv4_6/relu_0_split
I0622 01:31:28.632375  4511 net.cpp:106] Creating Layer conv4_6_conv4_6/relu_0_split
I0622 01:31:28.632380  4511 net.cpp:454] conv4_6_conv4_6/relu_0_split <- conv4_6
I0622 01:31:28.632383  4511 net.cpp:411] conv4_6_conv4_6/relu_0_split -> conv4_6_conv4_6/relu_0_split_0
I0622 01:31:28.632390  4511 net.cpp:411] conv4_6_conv4_6/relu_0_split -> conv4_6_conv4_6/relu_0_split_1
I0622 01:31:28.632416  4511 net.cpp:150] Setting up conv4_6_conv4_6/relu_0_split
I0622 01:31:28.632419  4511 net.cpp:157] Top shape: 2 1024 60 60 (7372800)
I0622 01:31:28.632423  4511 net.cpp:157] Top shape: 2 1024 60 60 (7372800)
I0622 01:31:28.632427  4511 net.cpp:165] Memory required for data: 2996695600
I0622 01:31:28.632431  4511 layer_factory.hpp:77] Creating layer conv4_7_1x1_reduce
I0622 01:31:28.632444  4511 net.cpp:106] Creating Layer conv4_7_1x1_reduce
I0622 01:31:28.632447  4511 net.cpp:454] conv4_7_1x1_reduce <- conv4_6_conv4_6/relu_0_split_0
I0622 01:31:28.632455  4511 net.cpp:411] conv4_7_1x1_reduce -> conv4_7_1x1_reduce
I0622 01:31:28.640626  4511 net.cpp:150] Setting up conv4_7_1x1_reduce
I0622 01:31:28.640710  4511 net.cpp:157] Top shape: 2 256 60 60 (1843200)
I0622 01:31:28.640776  4511 net.cpp:165] Memory required for data: 3004068400
I0622 01:31:28.640794  4511 layer_factory.hpp:77] Creating layer conv4_7_1x1_reduce/bn
I0622 01:31:28.640822  4511 net.cpp:106] Creating Layer conv4_7_1x1_reduce/bn
I0622 01:31:28.640832  4511 net.cpp:454] conv4_7_1x1_reduce/bn <- conv4_7_1x1_reduce
I0622 01:31:28.640846  4511 net.cpp:397] conv4_7_1x1_reduce/bn -> conv4_7_1x1_reduce (in-place)
I0622 01:31:28.641149  4511 net.cpp:150] Setting up conv4_7_1x1_reduce/bn
I0622 01:31:28.641160  4511 net.cpp:157] Top shape: 2 256 60 60 (1843200)
I0622 01:31:28.641165  4511 net.cpp:165] Memory required for data: 3011441200
I0622 01:31:28.641175  4511 layer_factory.hpp:77] Creating layer conv4_7_1x1_reduce/relu
I0622 01:31:28.641186  4511 net.cpp:106] Creating Layer conv4_7_1x1_reduce/relu
I0622 01:31:28.641191  4511 net.cpp:454] conv4_7_1x1_reduce/relu <- conv4_7_1x1_reduce
I0622 01:31:28.641196  4511 net.cpp:397] conv4_7_1x1_reduce/relu -> conv4_7_1x1_reduce (in-place)
I0622 01:31:28.641203  4511 net.cpp:150] Setting up conv4_7_1x1_reduce/relu
I0622 01:31:28.641208  4511 net.cpp:157] Top shape: 2 256 60 60 (1843200)
I0622 01:31:28.641212  4511 net.cpp:165] Memory required for data: 3018814000
I0622 01:31:28.641216  4511 layer_factory.hpp:77] Creating layer conv4_7_3x3
I0622 01:31:28.641232  4511 net.cpp:106] Creating Layer conv4_7_3x3
I0622 01:31:28.641237  4511 net.cpp:454] conv4_7_3x3 <- conv4_7_1x1_reduce
I0622 01:31:28.641244  4511 net.cpp:411] conv4_7_3x3 -> conv4_7_3x3
I0622 01:31:28.660243  4511 net.cpp:150] Setting up conv4_7_3x3
I0622 01:31:28.660275  4511 net.cpp:157] Top shape: 2 256 60 60 (1843200)
I0622 01:31:28.660280  4511 net.cpp:165] Memory required for data: 3026186800
I0622 01:31:28.660290  4511 layer_factory.hpp:77] Creating layer conv4_7_3x3/bn
I0622 01:31:28.660301  4511 net.cpp:106] Creating Layer conv4_7_3x3/bn
I0622 01:31:28.660308  4511 net.cpp:454] conv4_7_3x3/bn <- conv4_7_3x3
I0622 01:31:28.660315  4511 net.cpp:397] conv4_7_3x3/bn -> conv4_7_3x3 (in-place)
I0622 01:31:28.660465  4511 net.cpp:150] Setting up conv4_7_3x3/bn
I0622 01:31:28.660471  4511 net.cpp:157] Top shape: 2 256 60 60 (1843200)
I0622 01:31:28.660475  4511 net.cpp:165] Memory required for data: 3033559600
I0622 01:31:28.660482  4511 layer_factory.hpp:77] Creating layer conv4_7_3x3/relu
I0622 01:31:28.660487  4511 net.cpp:106] Creating Layer conv4_7_3x3/relu
I0622 01:31:28.660491  4511 net.cpp:454] conv4_7_3x3/relu <- conv4_7_3x3
I0622 01:31:28.660495  4511 net.cpp:397] conv4_7_3x3/relu -> conv4_7_3x3 (in-place)
I0622 01:31:28.660501  4511 net.cpp:150] Setting up conv4_7_3x3/relu
I0622 01:31:28.660506  4511 net.cpp:157] Top shape: 2 256 60 60 (1843200)
I0622 01:31:28.660508  4511 net.cpp:165] Memory required for data: 3040932400
I0622 01:31:28.660512  4511 layer_factory.hpp:77] Creating layer conv4_7_1x1_increase
I0622 01:31:28.660519  4511 net.cpp:106] Creating Layer conv4_7_1x1_increase
I0622 01:31:28.660522  4511 net.cpp:454] conv4_7_1x1_increase <- conv4_7_3x3
I0622 01:31:28.660529  4511 net.cpp:411] conv4_7_1x1_increase -> conv4_7_1x1_increase
I0622 01:31:28.667582  4511 net.cpp:150] Setting up conv4_7_1x1_increase
I0622 01:31:28.667613  4511 net.cpp:157] Top shape: 2 1024 60 60 (7372800)
I0622 01:31:28.667618  4511 net.cpp:165] Memory required for data: 3070423600
I0622 01:31:28.667629  4511 layer_factory.hpp:77] Creating layer conv4_7_1x1_increase/bn
I0622 01:31:28.667647  4511 net.cpp:106] Creating Layer conv4_7_1x1_increase/bn
I0622 01:31:28.667656  4511 net.cpp:454] conv4_7_1x1_increase/bn <- conv4_7_1x1_increase
I0622 01:31:28.667665  4511 net.cpp:397] conv4_7_1x1_increase/bn -> conv4_7_1x1_increase (in-place)
I0622 01:31:28.667901  4511 net.cpp:150] Setting up conv4_7_1x1_increase/bn
I0622 01:31:28.667908  4511 net.cpp:157] Top shape: 2 1024 60 60 (7372800)
I0622 01:31:28.667912  4511 net.cpp:165] Memory required for data: 3099914800
I0622 01:31:28.667919  4511 layer_factory.hpp:77] Creating layer conv4_7
I0622 01:31:28.667925  4511 net.cpp:106] Creating Layer conv4_7
I0622 01:31:28.667948  4511 net.cpp:454] conv4_7 <- conv4_6_conv4_6/relu_0_split_1
I0622 01:31:28.667953  4511 net.cpp:454] conv4_7 <- conv4_7_1x1_increase
I0622 01:31:28.667959  4511 net.cpp:411] conv4_7 -> conv4_7
I0622 01:31:28.667989  4511 net.cpp:150] Setting up conv4_7
I0622 01:31:28.667994  4511 net.cpp:157] Top shape: 2 1024 60 60 (7372800)
I0622 01:31:28.667997  4511 net.cpp:165] Memory required for data: 3129406000
I0622 01:31:28.668001  4511 layer_factory.hpp:77] Creating layer conv4_7/relu
I0622 01:31:28.668010  4511 net.cpp:106] Creating Layer conv4_7/relu
I0622 01:31:28.668014  4511 net.cpp:454] conv4_7/relu <- conv4_7
I0622 01:31:28.668018  4511 net.cpp:397] conv4_7/relu -> conv4_7 (in-place)
I0622 01:31:28.668026  4511 net.cpp:150] Setting up conv4_7/relu
I0622 01:31:28.668031  4511 net.cpp:157] Top shape: 2 1024 60 60 (7372800)
I0622 01:31:28.668035  4511 net.cpp:165] Memory required for data: 3158897200
I0622 01:31:28.668038  4511 layer_factory.hpp:77] Creating layer conv4_7_conv4_7/relu_0_split
I0622 01:31:28.668045  4511 net.cpp:106] Creating Layer conv4_7_conv4_7/relu_0_split
I0622 01:31:28.668050  4511 net.cpp:454] conv4_7_conv4_7/relu_0_split <- conv4_7
I0622 01:31:28.668054  4511 net.cpp:411] conv4_7_conv4_7/relu_0_split -> conv4_7_conv4_7/relu_0_split_0
I0622 01:31:28.668061  4511 net.cpp:411] conv4_7_conv4_7/relu_0_split -> conv4_7_conv4_7/relu_0_split_1
I0622 01:31:28.668092  4511 net.cpp:150] Setting up conv4_7_conv4_7/relu_0_split
I0622 01:31:28.668097  4511 net.cpp:157] Top shape: 2 1024 60 60 (7372800)
I0622 01:31:28.668102  4511 net.cpp:157] Top shape: 2 1024 60 60 (7372800)
I0622 01:31:28.668107  4511 net.cpp:165] Memory required for data: 3217879600
I0622 01:31:28.668110  4511 layer_factory.hpp:77] Creating layer conv4_8_1x1_reduce
I0622 01:31:28.668126  4511 net.cpp:106] Creating Layer conv4_8_1x1_reduce
I0622 01:31:28.668131  4511 net.cpp:454] conv4_8_1x1_reduce <- conv4_7_conv4_7/relu_0_split_0
I0622 01:31:28.668138  4511 net.cpp:411] conv4_8_1x1_reduce -> conv4_8_1x1_reduce
I0622 01:31:28.674687  4511 net.cpp:150] Setting up conv4_8_1x1_reduce
I0622 01:31:28.674695  4511 net.cpp:157] Top shape: 2 256 60 60 (1843200)
I0622 01:31:28.674698  4511 net.cpp:165] Memory required for data: 3225252400
I0622 01:31:28.674702  4511 layer_factory.hpp:77] Creating layer conv4_8_1x1_reduce/bn
I0622 01:31:28.674707  4511 net.cpp:106] Creating Layer conv4_8_1x1_reduce/bn
I0622 01:31:28.674710  4511 net.cpp:454] conv4_8_1x1_reduce/bn <- conv4_8_1x1_reduce
I0622 01:31:28.674715  4511 net.cpp:397] conv4_8_1x1_reduce/bn -> conv4_8_1x1_reduce (in-place)
I0622 01:31:28.674852  4511 net.cpp:150] Setting up conv4_8_1x1_reduce/bn
I0622 01:31:28.674856  4511 net.cpp:157] Top shape: 2 256 60 60 (1843200)
I0622 01:31:28.674860  4511 net.cpp:165] Memory required for data: 3232625200
I0622 01:31:28.674865  4511 layer_factory.hpp:77] Creating layer conv4_8_1x1_reduce/relu
I0622 01:31:28.674870  4511 net.cpp:106] Creating Layer conv4_8_1x1_reduce/relu
I0622 01:31:28.674872  4511 net.cpp:454] conv4_8_1x1_reduce/relu <- conv4_8_1x1_reduce
I0622 01:31:28.674876  4511 net.cpp:397] conv4_8_1x1_reduce/relu -> conv4_8_1x1_reduce (in-place)
I0622 01:31:28.674880  4511 net.cpp:150] Setting up conv4_8_1x1_reduce/relu
I0622 01:31:28.674883  4511 net.cpp:157] Top shape: 2 256 60 60 (1843200)
I0622 01:31:28.674886  4511 net.cpp:165] Memory required for data: 3239998000
I0622 01:31:28.674890  4511 layer_factory.hpp:77] Creating layer conv4_8_3x3
I0622 01:31:28.674896  4511 net.cpp:106] Creating Layer conv4_8_3x3
I0622 01:31:28.674898  4511 net.cpp:454] conv4_8_3x3 <- conv4_8_1x1_reduce
I0622 01:31:28.674901  4511 net.cpp:411] conv4_8_3x3 -> conv4_8_3x3
I0622 01:31:28.688309  4511 net.cpp:150] Setting up conv4_8_3x3
I0622 01:31:28.688331  4511 net.cpp:157] Top shape: 2 256 60 60 (1843200)
I0622 01:31:28.688334  4511 net.cpp:165] Memory required for data: 3247370800
I0622 01:31:28.688340  4511 layer_factory.hpp:77] Creating layer conv4_8_3x3/bn
I0622 01:31:28.688349  4511 net.cpp:106] Creating Layer conv4_8_3x3/bn
I0622 01:31:28.688380  4511 net.cpp:454] conv4_8_3x3/bn <- conv4_8_3x3
I0622 01:31:28.688385  4511 net.cpp:397] conv4_8_3x3/bn -> conv4_8_3x3 (in-place)
I0622 01:31:28.688530  4511 net.cpp:150] Setting up conv4_8_3x3/bn
I0622 01:31:28.688535  4511 net.cpp:157] Top shape: 2 256 60 60 (1843200)
I0622 01:31:28.688537  4511 net.cpp:165] Memory required for data: 3254743600
I0622 01:31:28.688542  4511 layer_factory.hpp:77] Creating layer conv4_8_3x3/relu
I0622 01:31:28.688547  4511 net.cpp:106] Creating Layer conv4_8_3x3/relu
I0622 01:31:28.688549  4511 net.cpp:454] conv4_8_3x3/relu <- conv4_8_3x3
I0622 01:31:28.688552  4511 net.cpp:397] conv4_8_3x3/relu -> conv4_8_3x3 (in-place)
I0622 01:31:28.688555  4511 net.cpp:150] Setting up conv4_8_3x3/relu
I0622 01:31:28.688558  4511 net.cpp:157] Top shape: 2 256 60 60 (1843200)
I0622 01:31:28.688561  4511 net.cpp:165] Memory required for data: 3262116400
I0622 01:31:28.688563  4511 layer_factory.hpp:77] Creating layer conv4_8_1x1_increase
I0622 01:31:28.688571  4511 net.cpp:106] Creating Layer conv4_8_1x1_increase
I0622 01:31:28.688575  4511 net.cpp:454] conv4_8_1x1_increase <- conv4_8_3x3
I0622 01:31:28.688580  4511 net.cpp:411] conv4_8_1x1_increase -> conv4_8_1x1_increase
I0622 01:31:28.694795  4511 net.cpp:150] Setting up conv4_8_1x1_increase
I0622 01:31:28.694815  4511 net.cpp:157] Top shape: 2 1024 60 60 (7372800)
I0622 01:31:28.694818  4511 net.cpp:165] Memory required for data: 3291607600
I0622 01:31:28.694823  4511 layer_factory.hpp:77] Creating layer conv4_8_1x1_increase/bn
I0622 01:31:28.694834  4511 net.cpp:106] Creating Layer conv4_8_1x1_increase/bn
I0622 01:31:28.694839  4511 net.cpp:454] conv4_8_1x1_increase/bn <- conv4_8_1x1_increase
I0622 01:31:28.694849  4511 net.cpp:397] conv4_8_1x1_increase/bn -> conv4_8_1x1_increase (in-place)
I0622 01:31:28.695010  4511 net.cpp:150] Setting up conv4_8_1x1_increase/bn
I0622 01:31:28.695015  4511 net.cpp:157] Top shape: 2 1024 60 60 (7372800)
I0622 01:31:28.695017  4511 net.cpp:165] Memory required for data: 3321098800
I0622 01:31:28.695024  4511 layer_factory.hpp:77] Creating layer conv4_8
I0622 01:31:28.695031  4511 net.cpp:106] Creating Layer conv4_8
I0622 01:31:28.695035  4511 net.cpp:454] conv4_8 <- conv4_7_conv4_7/relu_0_split_1
I0622 01:31:28.695039  4511 net.cpp:454] conv4_8 <- conv4_8_1x1_increase
I0622 01:31:28.695045  4511 net.cpp:411] conv4_8 -> conv4_8
I0622 01:31:28.695078  4511 net.cpp:150] Setting up conv4_8
I0622 01:31:28.695083  4511 net.cpp:157] Top shape: 2 1024 60 60 (7372800)
I0622 01:31:28.695086  4511 net.cpp:165] Memory required for data: 3350590000
I0622 01:31:28.695087  4511 layer_factory.hpp:77] Creating layer conv4_8/relu
I0622 01:31:28.695093  4511 net.cpp:106] Creating Layer conv4_8/relu
I0622 01:31:28.695096  4511 net.cpp:454] conv4_8/relu <- conv4_8
I0622 01:31:28.695099  4511 net.cpp:397] conv4_8/relu -> conv4_8 (in-place)
I0622 01:31:28.695103  4511 net.cpp:150] Setting up conv4_8/relu
I0622 01:31:28.695106  4511 net.cpp:157] Top shape: 2 1024 60 60 (7372800)
I0622 01:31:28.695108  4511 net.cpp:165] Memory required for data: 3380081200
I0622 01:31:28.695111  4511 layer_factory.hpp:77] Creating layer conv4_8_conv4_8/relu_0_split
I0622 01:31:28.695116  4511 net.cpp:106] Creating Layer conv4_8_conv4_8/relu_0_split
I0622 01:31:28.695117  4511 net.cpp:454] conv4_8_conv4_8/relu_0_split <- conv4_8
I0622 01:31:28.695121  4511 net.cpp:411] conv4_8_conv4_8/relu_0_split -> conv4_8_conv4_8/relu_0_split_0
I0622 01:31:28.695124  4511 net.cpp:411] conv4_8_conv4_8/relu_0_split -> conv4_8_conv4_8/relu_0_split_1
I0622 01:31:28.695147  4511 net.cpp:150] Setting up conv4_8_conv4_8/relu_0_split
I0622 01:31:28.695150  4511 net.cpp:157] Top shape: 2 1024 60 60 (7372800)
I0622 01:31:28.695153  4511 net.cpp:157] Top shape: 2 1024 60 60 (7372800)
I0622 01:31:28.695155  4511 net.cpp:165] Memory required for data: 3439063600
I0622 01:31:28.695158  4511 layer_factory.hpp:77] Creating layer conv4_9_1x1_reduce
I0622 01:31:28.695163  4511 net.cpp:106] Creating Layer conv4_9_1x1_reduce
I0622 01:31:28.695165  4511 net.cpp:454] conv4_9_1x1_reduce <- conv4_8_conv4_8/relu_0_split_0
I0622 01:31:28.695188  4511 net.cpp:411] conv4_9_1x1_reduce -> conv4_9_1x1_reduce
I0622 01:31:28.701025  4511 net.cpp:150] Setting up conv4_9_1x1_reduce
I0622 01:31:28.701051  4511 net.cpp:157] Top shape: 2 256 60 60 (1843200)
I0622 01:31:28.701055  4511 net.cpp:165] Memory required for data: 3446436400
I0622 01:31:28.701062  4511 layer_factory.hpp:77] Creating layer conv4_9_1x1_reduce/bn
I0622 01:31:28.701073  4511 net.cpp:106] Creating Layer conv4_9_1x1_reduce/bn
I0622 01:31:28.701078  4511 net.cpp:454] conv4_9_1x1_reduce/bn <- conv4_9_1x1_reduce
I0622 01:31:28.701084  4511 net.cpp:397] conv4_9_1x1_reduce/bn -> conv4_9_1x1_reduce (in-place)
I0622 01:31:28.701252  4511 net.cpp:150] Setting up conv4_9_1x1_reduce/bn
I0622 01:31:28.701256  4511 net.cpp:157] Top shape: 2 256 60 60 (1843200)
I0622 01:31:28.701259  4511 net.cpp:165] Memory required for data: 3453809200
I0622 01:31:28.701285  4511 layer_factory.hpp:77] Creating layer conv4_9_1x1_reduce/relu
I0622 01:31:28.701292  4511 net.cpp:106] Creating Layer conv4_9_1x1_reduce/relu
I0622 01:31:28.701294  4511 net.cpp:454] conv4_9_1x1_reduce/relu <- conv4_9_1x1_reduce
I0622 01:31:28.701298  4511 net.cpp:397] conv4_9_1x1_reduce/relu -> conv4_9_1x1_reduce (in-place)
I0622 01:31:28.701303  4511 net.cpp:150] Setting up conv4_9_1x1_reduce/relu
I0622 01:31:28.701305  4511 net.cpp:157] Top shape: 2 256 60 60 (1843200)
I0622 01:31:28.701308  4511 net.cpp:165] Memory required for data: 3461182000
I0622 01:31:28.701310  4511 layer_factory.hpp:77] Creating layer conv4_9_3x3
I0622 01:31:28.701318  4511 net.cpp:106] Creating Layer conv4_9_3x3
I0622 01:31:28.701320  4511 net.cpp:454] conv4_9_3x3 <- conv4_9_1x1_reduce
I0622 01:31:28.701324  4511 net.cpp:411] conv4_9_3x3 -> conv4_9_3x3
I0622 01:31:28.719254  4511 net.cpp:150] Setting up conv4_9_3x3
I0622 01:31:28.719328  4511 net.cpp:157] Top shape: 2 256 60 60 (1843200)
I0622 01:31:28.719334  4511 net.cpp:165] Memory required for data: 3468554800
I0622 01:31:28.719353  4511 layer_factory.hpp:77] Creating layer conv4_9_3x3/bn
I0622 01:31:28.719380  4511 net.cpp:106] Creating Layer conv4_9_3x3/bn
I0622 01:31:28.719393  4511 net.cpp:454] conv4_9_3x3/bn <- conv4_9_3x3
I0622 01:31:28.719408  4511 net.cpp:397] conv4_9_3x3/bn -> conv4_9_3x3 (in-place)
I0622 01:31:28.719687  4511 net.cpp:150] Setting up conv4_9_3x3/bn
I0622 01:31:28.719696  4511 net.cpp:157] Top shape: 2 256 60 60 (1843200)
I0622 01:31:28.719700  4511 net.cpp:165] Memory required for data: 3475927600
I0622 01:31:28.719710  4511 layer_factory.hpp:77] Creating layer conv4_9_3x3/relu
I0622 01:31:28.719723  4511 net.cpp:106] Creating Layer conv4_9_3x3/relu
I0622 01:31:28.719727  4511 net.cpp:454] conv4_9_3x3/relu <- conv4_9_3x3
I0622 01:31:28.719733  4511 net.cpp:397] conv4_9_3x3/relu -> conv4_9_3x3 (in-place)
I0622 01:31:28.719739  4511 net.cpp:150] Setting up conv4_9_3x3/relu
I0622 01:31:28.719745  4511 net.cpp:157] Top shape: 2 256 60 60 (1843200)
I0622 01:31:28.719749  4511 net.cpp:165] Memory required for data: 3483300400
I0622 01:31:28.719753  4511 layer_factory.hpp:77] Creating layer conv4_9_1x1_increase
I0622 01:31:28.719765  4511 net.cpp:106] Creating Layer conv4_9_1x1_increase
I0622 01:31:28.719769  4511 net.cpp:454] conv4_9_1x1_increase <- conv4_9_3x3
I0622 01:31:28.719779  4511 net.cpp:411] conv4_9_1x1_increase -> conv4_9_1x1_increase
I0622 01:31:28.726743  4511 net.cpp:150] Setting up conv4_9_1x1_increase
I0622 01:31:28.726765  4511 net.cpp:157] Top shape: 2 1024 60 60 (7372800)
I0622 01:31:28.726768  4511 net.cpp:165] Memory required for data: 3512791600
I0622 01:31:28.726774  4511 layer_factory.hpp:77] Creating layer conv4_9_1x1_increase/bn
I0622 01:31:28.726786  4511 net.cpp:106] Creating Layer conv4_9_1x1_increase/bn
I0622 01:31:28.726794  4511 net.cpp:454] conv4_9_1x1_increase/bn <- conv4_9_1x1_increase
I0622 01:31:28.726804  4511 net.cpp:397] conv4_9_1x1_increase/bn -> conv4_9_1x1_increase (in-place)
I0622 01:31:28.726974  4511 net.cpp:150] Setting up conv4_9_1x1_increase/bn
I0622 01:31:28.726979  4511 net.cpp:157] Top shape: 2 1024 60 60 (7372800)
I0622 01:31:28.726996  4511 net.cpp:165] Memory required for data: 3542282800
I0622 01:31:28.727002  4511 layer_factory.hpp:77] Creating layer conv4_9
I0622 01:31:28.727007  4511 net.cpp:106] Creating Layer conv4_9
I0622 01:31:28.727010  4511 net.cpp:454] conv4_9 <- conv4_8_conv4_8/relu_0_split_1
I0622 01:31:28.727013  4511 net.cpp:454] conv4_9 <- conv4_9_1x1_increase
I0622 01:31:28.727017  4511 net.cpp:411] conv4_9 -> conv4_9
I0622 01:31:28.727036  4511 net.cpp:150] Setting up conv4_9
I0622 01:31:28.727039  4511 net.cpp:157] Top shape: 2 1024 60 60 (7372800)
I0622 01:31:28.727041  4511 net.cpp:165] Memory required for data: 3571774000
I0622 01:31:28.727043  4511 layer_factory.hpp:77] Creating layer conv4_9/relu
I0622 01:31:28.727048  4511 net.cpp:106] Creating Layer conv4_9/relu
I0622 01:31:28.727051  4511 net.cpp:454] conv4_9/relu <- conv4_9
I0622 01:31:28.727054  4511 net.cpp:397] conv4_9/relu -> conv4_9 (in-place)
I0622 01:31:28.727058  4511 net.cpp:150] Setting up conv4_9/relu
I0622 01:31:28.727061  4511 net.cpp:157] Top shape: 2 1024 60 60 (7372800)
I0622 01:31:28.727063  4511 net.cpp:165] Memory required for data: 3601265200
I0622 01:31:28.727066  4511 layer_factory.hpp:77] Creating layer conv4_9_conv4_9/relu_0_split
I0622 01:31:28.727069  4511 net.cpp:106] Creating Layer conv4_9_conv4_9/relu_0_split
I0622 01:31:28.727072  4511 net.cpp:454] conv4_9_conv4_9/relu_0_split <- conv4_9
I0622 01:31:28.727077  4511 net.cpp:411] conv4_9_conv4_9/relu_0_split -> conv4_9_conv4_9/relu_0_split_0
I0622 01:31:28.727080  4511 net.cpp:411] conv4_9_conv4_9/relu_0_split -> conv4_9_conv4_9/relu_0_split_1
I0622 01:31:28.727102  4511 net.cpp:150] Setting up conv4_9_conv4_9/relu_0_split
I0622 01:31:28.727107  4511 net.cpp:157] Top shape: 2 1024 60 60 (7372800)
I0622 01:31:28.727109  4511 net.cpp:157] Top shape: 2 1024 60 60 (7372800)
I0622 01:31:28.727111  4511 net.cpp:165] Memory required for data: 3660247600
I0622 01:31:28.727113  4511 layer_factory.hpp:77] Creating layer conv4_10_1x1_reduce
I0622 01:31:28.727118  4511 net.cpp:106] Creating Layer conv4_10_1x1_reduce
I0622 01:31:28.727121  4511 net.cpp:454] conv4_10_1x1_reduce <- conv4_9_conv4_9/relu_0_split_0
I0622 01:31:28.727126  4511 net.cpp:411] conv4_10_1x1_reduce -> conv4_10_1x1_reduce
I0622 01:31:28.733249  4511 net.cpp:150] Setting up conv4_10_1x1_reduce
I0622 01:31:28.733283  4511 net.cpp:157] Top shape: 2 256 60 60 (1843200)
I0622 01:31:28.733285  4511 net.cpp:165] Memory required for data: 3667620400
I0622 01:31:28.733291  4511 layer_factory.hpp:77] Creating layer conv4_10_1x1_reduce/bn
I0622 01:31:28.733301  4511 net.cpp:106] Creating Layer conv4_10_1x1_reduce/bn
I0622 01:31:28.733306  4511 net.cpp:454] conv4_10_1x1_reduce/bn <- conv4_10_1x1_reduce
I0622 01:31:28.733311  4511 net.cpp:397] conv4_10_1x1_reduce/bn -> conv4_10_1x1_reduce (in-place)
I0622 01:31:28.733463  4511 net.cpp:150] Setting up conv4_10_1x1_reduce/bn
I0622 01:31:28.733466  4511 net.cpp:157] Top shape: 2 256 60 60 (1843200)
I0622 01:31:28.733469  4511 net.cpp:165] Memory required for data: 3674993200
I0622 01:31:28.733474  4511 layer_factory.hpp:77] Creating layer conv4_10_1x1_reduce/relu
I0622 01:31:28.733479  4511 net.cpp:106] Creating Layer conv4_10_1x1_reduce/relu
I0622 01:31:28.733480  4511 net.cpp:454] conv4_10_1x1_reduce/relu <- conv4_10_1x1_reduce
I0622 01:31:28.733482  4511 net.cpp:397] conv4_10_1x1_reduce/relu -> conv4_10_1x1_reduce (in-place)
I0622 01:31:28.733486  4511 net.cpp:150] Setting up conv4_10_1x1_reduce/relu
I0622 01:31:28.733489  4511 net.cpp:157] Top shape: 2 256 60 60 (1843200)
I0622 01:31:28.733491  4511 net.cpp:165] Memory required for data: 3682366000
I0622 01:31:28.733494  4511 layer_factory.hpp:77] Creating layer conv4_10_3x3
I0622 01:31:28.733500  4511 net.cpp:106] Creating Layer conv4_10_3x3
I0622 01:31:28.733503  4511 net.cpp:454] conv4_10_3x3 <- conv4_10_1x1_reduce
I0622 01:31:28.733506  4511 net.cpp:411] conv4_10_3x3 -> conv4_10_3x3
I0622 01:31:28.746649  4511 net.cpp:150] Setting up conv4_10_3x3
I0622 01:31:28.746665  4511 net.cpp:157] Top shape: 2 256 60 60 (1843200)
I0622 01:31:28.746681  4511 net.cpp:165] Memory required for data: 3689738800
I0622 01:31:28.746686  4511 layer_factory.hpp:77] Creating layer conv4_10_3x3/bn
I0622 01:31:28.746693  4511 net.cpp:106] Creating Layer conv4_10_3x3/bn
I0622 01:31:28.746698  4511 net.cpp:454] conv4_10_3x3/bn <- conv4_10_3x3
I0622 01:31:28.746703  4511 net.cpp:397] conv4_10_3x3/bn -> conv4_10_3x3 (in-place)
I0622 01:31:28.746850  4511 net.cpp:150] Setting up conv4_10_3x3/bn
I0622 01:31:28.746853  4511 net.cpp:157] Top shape: 2 256 60 60 (1843200)
I0622 01:31:28.746855  4511 net.cpp:165] Memory required for data: 3697111600
I0622 01:31:28.746860  4511 layer_factory.hpp:77] Creating layer conv4_10_3x3/relu
I0622 01:31:28.746865  4511 net.cpp:106] Creating Layer conv4_10_3x3/relu
I0622 01:31:28.746867  4511 net.cpp:454] conv4_10_3x3/relu <- conv4_10_3x3
I0622 01:31:28.746870  4511 net.cpp:397] conv4_10_3x3/relu -> conv4_10_3x3 (in-place)
I0622 01:31:28.746873  4511 net.cpp:150] Setting up conv4_10_3x3/relu
I0622 01:31:28.746876  4511 net.cpp:157] Top shape: 2 256 60 60 (1843200)
I0622 01:31:28.746878  4511 net.cpp:165] Memory required for data: 3704484400
I0622 01:31:28.746881  4511 layer_factory.hpp:77] Creating layer conv4_10_1x1_increase
I0622 01:31:28.746887  4511 net.cpp:106] Creating Layer conv4_10_1x1_increase
I0622 01:31:28.746889  4511 net.cpp:454] conv4_10_1x1_increase <- conv4_10_3x3
I0622 01:31:28.746896  4511 net.cpp:411] conv4_10_1x1_increase -> conv4_10_1x1_increase
I0622 01:31:28.753639  4511 net.cpp:150] Setting up conv4_10_1x1_increase
I0622 01:31:28.753724  4511 net.cpp:157] Top shape: 2 1024 60 60 (7372800)
I0622 01:31:28.753733  4511 net.cpp:165] Memory required for data: 3733975600
I0622 01:31:28.753756  4511 layer_factory.hpp:77] Creating layer conv4_10_1x1_increase/bn
I0622 01:31:28.753787  4511 net.cpp:106] Creating Layer conv4_10_1x1_increase/bn
I0622 01:31:28.753801  4511 net.cpp:454] conv4_10_1x1_increase/bn <- conv4_10_1x1_increase
I0622 01:31:28.753816  4511 net.cpp:397] conv4_10_1x1_increase/bn -> conv4_10_1x1_increase (in-place)
I0622 01:31:28.754102  4511 net.cpp:150] Setting up conv4_10_1x1_increase/bn
I0622 01:31:28.754109  4511 net.cpp:157] Top shape: 2 1024 60 60 (7372800)
I0622 01:31:28.754112  4511 net.cpp:165] Memory required for data: 3763466800
I0622 01:31:28.754120  4511 layer_factory.hpp:77] Creating layer conv4_10
I0622 01:31:28.754132  4511 net.cpp:106] Creating Layer conv4_10
I0622 01:31:28.754139  4511 net.cpp:454] conv4_10 <- conv4_9_conv4_9/relu_0_split_1
I0622 01:31:28.754143  4511 net.cpp:454] conv4_10 <- conv4_10_1x1_increase
I0622 01:31:28.754148  4511 net.cpp:411] conv4_10 -> conv4_10
I0622 01:31:28.754179  4511 net.cpp:150] Setting up conv4_10
I0622 01:31:28.754181  4511 net.cpp:157] Top shape: 2 1024 60 60 (7372800)
I0622 01:31:28.754184  4511 net.cpp:165] Memory required for data: 3792958000
I0622 01:31:28.754185  4511 layer_factory.hpp:77] Creating layer conv4_10/relu
I0622 01:31:28.754194  4511 net.cpp:106] Creating Layer conv4_10/relu
I0622 01:31:28.754195  4511 net.cpp:454] conv4_10/relu <- conv4_10
I0622 01:31:28.754200  4511 net.cpp:397] conv4_10/relu -> conv4_10 (in-place)
I0622 01:31:28.754205  4511 net.cpp:150] Setting up conv4_10/relu
I0622 01:31:28.754209  4511 net.cpp:157] Top shape: 2 1024 60 60 (7372800)
I0622 01:31:28.754212  4511 net.cpp:165] Memory required for data: 3822449200
I0622 01:31:28.754217  4511 layer_factory.hpp:77] Creating layer conv4_10_conv4_10/relu_0_split
I0622 01:31:28.754226  4511 net.cpp:106] Creating Layer conv4_10_conv4_10/relu_0_split
I0622 01:31:28.754230  4511 net.cpp:454] conv4_10_conv4_10/relu_0_split <- conv4_10
I0622 01:31:28.754238  4511 net.cpp:411] conv4_10_conv4_10/relu_0_split -> conv4_10_conv4_10/relu_0_split_0
I0622 01:31:28.754245  4511 net.cpp:411] conv4_10_conv4_10/relu_0_split -> conv4_10_conv4_10/relu_0_split_1
I0622 01:31:28.754276  4511 net.cpp:150] Setting up conv4_10_conv4_10/relu_0_split
I0622 01:31:28.754282  4511 net.cpp:157] Top shape: 2 1024 60 60 (7372800)
I0622 01:31:28.754288  4511 net.cpp:157] Top shape: 2 1024 60 60 (7372800)
I0622 01:31:28.754333  4511 net.cpp:165] Memory required for data: 3881431600
I0622 01:31:28.754338  4511 layer_factory.hpp:77] Creating layer conv4_11_1x1_reduce
I0622 01:31:28.754346  4511 net.cpp:106] Creating Layer conv4_11_1x1_reduce
I0622 01:31:28.754350  4511 net.cpp:454] conv4_11_1x1_reduce <- conv4_10_conv4_10/relu_0_split_0
I0622 01:31:28.754371  4511 net.cpp:411] conv4_11_1x1_reduce -> conv4_11_1x1_reduce
I0622 01:31:28.760228  4511 net.cpp:150] Setting up conv4_11_1x1_reduce
I0622 01:31:28.760234  4511 net.cpp:157] Top shape: 2 256 60 60 (1843200)
I0622 01:31:28.760236  4511 net.cpp:165] Memory required for data: 3888804400
I0622 01:31:28.760241  4511 layer_factory.hpp:77] Creating layer conv4_11_1x1_reduce/bn
I0622 01:31:28.760247  4511 net.cpp:106] Creating Layer conv4_11_1x1_reduce/bn
I0622 01:31:28.760251  4511 net.cpp:454] conv4_11_1x1_reduce/bn <- conv4_11_1x1_reduce
I0622 01:31:28.760254  4511 net.cpp:397] conv4_11_1x1_reduce/bn -> conv4_11_1x1_reduce (in-place)
I0622 01:31:28.760392  4511 net.cpp:150] Setting up conv4_11_1x1_reduce/bn
I0622 01:31:28.760396  4511 net.cpp:157] Top shape: 2 256 60 60 (1843200)
I0622 01:31:28.760399  4511 net.cpp:165] Memory required for data: 3896177200
I0622 01:31:28.760404  4511 layer_factory.hpp:77] Creating layer conv4_11_1x1_reduce/relu
I0622 01:31:28.760408  4511 net.cpp:106] Creating Layer conv4_11_1x1_reduce/relu
I0622 01:31:28.760411  4511 net.cpp:454] conv4_11_1x1_reduce/relu <- conv4_11_1x1_reduce
I0622 01:31:28.760414  4511 net.cpp:397] conv4_11_1x1_reduce/relu -> conv4_11_1x1_reduce (in-place)
I0622 01:31:28.760418  4511 net.cpp:150] Setting up conv4_11_1x1_reduce/relu
I0622 01:31:28.760422  4511 net.cpp:157] Top shape: 2 256 60 60 (1843200)
I0622 01:31:28.760424  4511 net.cpp:165] Memory required for data: 3903550000
I0622 01:31:28.760427  4511 layer_factory.hpp:77] Creating layer conv4_11_3x3
I0622 01:31:28.760433  4511 net.cpp:106] Creating Layer conv4_11_3x3
I0622 01:31:28.760435  4511 net.cpp:454] conv4_11_3x3 <- conv4_11_1x1_reduce
I0622 01:31:28.760440  4511 net.cpp:411] conv4_11_3x3 -> conv4_11_3x3
I0622 01:31:28.773514  4511 net.cpp:150] Setting up conv4_11_3x3
I0622 01:31:28.773538  4511 net.cpp:157] Top shape: 2 256 60 60 (1843200)
I0622 01:31:28.773541  4511 net.cpp:165] Memory required for data: 3910922800
I0622 01:31:28.773547  4511 layer_factory.hpp:77] Creating layer conv4_11_3x3/bn
I0622 01:31:28.773556  4511 net.cpp:106] Creating Layer conv4_11_3x3/bn
I0622 01:31:28.773561  4511 net.cpp:454] conv4_11_3x3/bn <- conv4_11_3x3
I0622 01:31:28.773568  4511 net.cpp:397] conv4_11_3x3/bn -> conv4_11_3x3 (in-place)
I0622 01:31:28.773721  4511 net.cpp:150] Setting up conv4_11_3x3/bn
I0622 01:31:28.773725  4511 net.cpp:157] Top shape: 2 256 60 60 (1843200)
I0622 01:31:28.773727  4511 net.cpp:165] Memory required for data: 3918295600
I0622 01:31:28.773732  4511 layer_factory.hpp:77] Creating layer conv4_11_3x3/relu
…
I0622 01:31:29.075145  4511 net.cpp:454] conv4_21 <- conv4_21_1x1_increase
I0622 01:31:29.075148  4511 net.cpp:411] conv4_21 -> conv4_21
I0622 01:31:29.075167  4511 net.cpp:150] Setting up conv4_21
I0622 01:31:29.075171  4511 net.cpp:157] Top shape: 2 1024 60 60 (7372800)
I0622 01:31:29.075175  4511 net.cpp:165] Memory required for data: 6225982000
I0622 01:31:29.075177  4511 layer_factory.hpp:77] Creating layer conv4_21/relu
I0622 01:31:29.075181  4511 net.cpp:106] Creating Layer conv4_21/relu
I0622 01:31:29.075184  4511 net.cpp:454] conv4_21/relu <- conv4_21
I0622 01:31:29.075188  4511 net.cpp:397] conv4_21/relu -> conv4_21 (in-place)
I0622 01:31:29.075193  4511 net.cpp:150] Setting up conv4_21/relu
I0622 01:31:29.075196  4511 net.cpp:157] Top shape: 2 1024 60 60 (7372800)
I0622 01:31:29.075198  4511 net.cpp:165] Memory required for data: 6255473200
I0622 01:31:29.075202  4511 layer_factory.hpp:77] Creating layer conv4_21_conv4_21/relu_0_split
I0622 01:31:29.075208  4511 net.cpp:106] Creating Layer conv4_21_conv4_21/relu_0_split
I0622 01:31:29.075212  4511 net.cpp:454] conv4_21_conv4_21/relu_0_split <- conv4_21
I0622 01:31:29.075215  4511 net.cpp:411] conv4_21_conv4_21/relu_0_split -> conv4_21_conv4_21/relu_0_split_0
I0622 01:31:29.075220  4511 net.cpp:411] conv4_21_conv4_21/relu_0_split -> conv4_21_conv4_21/relu_0_split_1
I0622 01:31:29.075263  4511 net.cpp:150] Setting up conv4_21_conv4_21/relu_0_split
I0622 01:31:29.075268  4511 net.cpp:157] Top shape: 2 1024 60 60 (7372800)
I0622 01:31:29.075273  4511 net.cpp:157] Top shape: 2 1024 60 60 (7372800)
I0622 01:31:29.075276  4511 net.cpp:165] Memory required for data: 6314455600
I0622 01:31:29.075280  4511 layer_factory.hpp:77] Creating layer conv4_22_1x1_reduce
I0622 01:31:29.075290  4511 net.cpp:106] Creating Layer conv4_22_1x1_reduce
I0622 01:31:29.075294  4511 net.cpp:454] conv4_22_1x1_reduce <- conv4_21_conv4_21/relu_0_split_0
I0622 01:31:29.075304  4511 net.cpp:411] conv4_22_1x1_reduce -> conv4_22_1x1_reduce
I0622 01:31:29.080900  4511 net.cpp:150] Setting up conv4_22_1x1_reduce
I0622 01:31:29.080912  4511 net.cpp:157] Top shape: 2 256 60 60 (1843200)
I0622 01:31:29.080914  4511 net.cpp:165] Memory required for data: 6321828400
I0622 01:31:29.080919  4511 layer_factory.hpp:77] Creating layer conv4_22_1x1_reduce/bn
I0622 01:31:29.080927  4511 net.cpp:106] Creating Layer conv4_22_1x1_reduce/bn
I0622 01:31:29.080931  4511 net.cpp:454] conv4_22_1x1_reduce/bn <- conv4_22_1x1_reduce
I0622 01:31:29.080941  4511 net.cpp:397] conv4_22_1x1_reduce/bn -> conv4_22_1x1_reduce (in-place)
I0622 01:31:29.081106  4511 net.cpp:150] Setting up conv4_22_1x1_reduce/bn
I0622 01:31:29.081110  4511 net.cpp:157] Top shape: 2 256 60 60 (1843200)
I0622 01:31:29.081112  4511 net.cpp:165] Memory required for data: 6329201200
I0622 01:31:29.081120  4511 layer_factory.hpp:77] Creating layer conv4_22_1x1_reduce/relu
I0622 01:31:29.081125  4511 net.cpp:106] Creating Layer conv4_22_1x1_reduce/relu
I0622 01:31:29.081127  4511 net.cpp:454] conv4_22_1x1_reduce/relu <- conv4_22_1x1_reduce
I0622 01:31:29.081131  4511 net.cpp:397] conv4_22_1x1_reduce/relu -> conv4_22_1x1_reduce (in-place)
I0622 01:31:29.081135  4511 net.cpp:150] Setting up conv4_22_1x1_reduce/relu
I0622 01:31:29.081138  4511 net.cpp:157] Top shape: 2 256 60 60 (1843200)
I0622 01:31:29.081140  4511 net.cpp:165] Memory required for data: 6336574000
I0622 01:31:29.081143  4511 layer_factory.hpp:77] Creating layer conv4_22_3x3
I0622 01:31:29.081149  4511 net.cpp:106] Creating Layer conv4_22_3x3
I0622 01:31:29.081152  4511 net.cpp:454] conv4_22_3x3 <- conv4_22_1x1_reduce
I0622 01:31:29.081156  4511 net.cpp:411] conv4_22_3x3 -> conv4_22_3x3
I0622 01:31:29.094753  4511 net.cpp:150] Setting up conv4_22_3x3
I0622 01:31:29.094774  4511 net.cpp:157] Top shape: 2 256 60 60 (1843200)
I0622 01:31:29.094776  4511 net.cpp:165] Memory required for data: 6343946800
I0622 01:31:29.094782  4511 layer_factory.hpp:77] Creating layer conv4_22_3x3/bn
I0622 01:31:29.094790  4511 net.cpp:106] Creating Layer conv4_22_3x3/bn
I0622 01:31:29.094794  4511 net.cpp:454] conv4_22_3x3/bn <- conv4_22_3x3
I0622 01:31:29.094802  4511 net.cpp:397] conv4_22_3x3/bn -> conv4_22_3x3 (in-place)
I0622 01:31:29.094969  4511 net.cpp:150] Setting up conv4_22_3x3/bn
I0622 01:31:29.094974  4511 net.cpp:157] Top shape: 2 256 60 60 (1843200)
I0622 01:31:29.094976  4511 net.cpp:165] Memory required for data: 6351319600
I0622 01:31:29.094981  4511 layer_factory.hpp:77] Creating layer conv4_22_3x3/relu
I0622 01:31:29.094985  4511 net.cpp:106] Creating Layer conv4_22_3x3/relu
I0622 01:31:29.094988  4511 net.cpp:454] conv4_22_3x3/relu <- conv4_22_3x3
I0622 01:31:29.094990  4511 net.cpp:397] conv4_22_3x3/relu -> conv4_22_3x3 (in-place)
I0622 01:31:29.094995  4511 net.cpp:150] Setting up conv4_22_3x3/relu
I0622 01:31:29.094997  4511 net.cpp:157] Top shape: 2 256 60 60 (1843200)
I0622 01:31:29.095000  4511 net.cpp:165] Memory required for data: 6358692400
I0622 01:31:29.095002  4511 layer_factory.hpp:77] Creating layer conv4_22_1x1_increase
I0622 01:31:29.095008  4511 net.cpp:106] Creating Layer conv4_22_1x1_increase
I0622 01:31:29.095011  4511 net.cpp:454] conv4_22_1x1_increase <- conv4_22_3x3
I0622 01:31:29.095021  4511 net.cpp:411] conv4_22_1x1_increase -> conv4_22_1x1_increase
I0622 01:31:29.101326  4511 net.cpp:150] Setting up conv4_22_1x1_increase
I0622 01:31:29.101348  4511 net.cpp:157] Top shape: 2 1024 60 60 (7372800)
I0622 01:31:29.101368  4511 net.cpp:165] Memory required for data: 6388183600
I0622 01:31:29.101375  4511 layer_factory.hpp:77] Creating layer conv4_22_1x1_increase/bn
I0622 01:31:29.101387  4511 net.cpp:106] Creating Layer conv4_22_1x1_increase/bn
I0622 01:31:29.101392  4511 net.cpp:454] conv4_22_1x1_increase/bn <- conv4_22_1x1_increase
I0622 01:31:29.101398  4511 net.cpp:397] conv4_22_1x1_increase/bn -> conv4_22_1x1_increase (in-place)
I0622 01:31:29.101585  4511 net.cpp:150] Setting up conv4_22_1x1_increase/bn
I0622 01:31:29.101590  4511 net.cpp:157] Top shape: 2 1024 60 60 (7372800)
I0622 01:31:29.101593  4511 net.cpp:165] Memory required for data: 6417674800
I0622 01:31:29.101598  4511 layer_factory.hpp:77] Creating layer conv4_22
I0622 01:31:29.101603  4511 net.cpp:106] Creating Layer conv4_22
I0622 01:31:29.101608  4511 net.cpp:454] conv4_22 <- conv4_21_conv4_21/relu_0_split_1
I0622 01:31:29.101610  4511 net.cpp:454] conv4_22 <- conv4_22_1x1_increase
I0622 01:31:29.101614  4511 net.cpp:411] conv4_22 -> conv4_22
I0622 01:31:29.101635  4511 net.cpp:150] Setting up conv4_22
I0622 01:31:29.101639  4511 net.cpp:157] Top shape: 2 1024 60 60 (7372800)
I0622 01:31:29.101642  4511 net.cpp:165] Memory required for data: 6447166000
I0622 01:31:29.101646  4511 layer_factory.hpp:77] Creating layer conv4_22/relu
I0622 01:31:29.101651  4511 net.cpp:106] Creating Layer conv4_22/relu
I0622 01:31:29.101655  4511 net.cpp:454] conv4_22/relu <- conv4_22
I0622 01:31:29.101658  4511 net.cpp:397] conv4_22/relu -> conv4_22 (in-place)
I0622 01:31:29.101662  4511 net.cpp:150] Setting up conv4_22/relu
I0622 01:31:29.101666  4511 net.cpp:157] Top shape: 2 1024 60 60 (7372800)
I0622 01:31:29.101668  4511 net.cpp:165] Memory required for data: 6476657200
I0622 01:31:29.101671  4511 layer_factory.hpp:77] Creating layer conv4_22_conv4_22/relu_0_split
I0622 01:31:29.101675  4511 net.cpp:106] Creating Layer conv4_22_conv4_22/relu_0_split
I0622 01:31:29.101678  4511 net.cpp:454] conv4_22_conv4_22/relu_0_split <- conv4_22
I0622 01:31:29.101683  4511 net.cpp:411] conv4_22_conv4_22/relu_0_split -> conv4_22_conv4_22/relu_0_split_0
I0622 01:31:29.101687  4511 net.cpp:411] conv4_22_conv4_22/relu_0_split -> conv4_22_conv4_22/relu_0_split_1
I0622 01:31:29.101711  4511 net.cpp:150] Setting up conv4_22_conv4_22/relu_0_split
I0622 01:31:29.101716  4511 net.cpp:157] Top shape: 2 1024 60 60 (7372800)
I0622 01:31:29.101719  4511 net.cpp:157] Top shape: 2 1024 60 60 (7372800)
I0622 01:31:29.101722  4511 net.cpp:165] Memory required for data: 6535639600
I0622 01:31:29.101724  4511 layer_factory.hpp:77] Creating layer conv4_23_1x1_reduce
I0622 01:31:29.101730  4511 net.cpp:106] Creating Layer conv4_23_1x1_reduce
I0622 01:31:29.101733  4511 net.cpp:454] conv4_23_1x1_reduce <- conv4_22_conv4_22/relu_0_split_0
I0622 01:31:29.101738  4511 net.cpp:411] conv4_23_1x1_reduce -> conv4_23_1x1_reduce
I0622 01:31:29.107400  4511 net.cpp:150] Setting up conv4_23_1x1_reduce
I0622 01:31:29.107408  4511 net.cpp:157] Top shape: 2 256 60 60 (1843200)
I0622 01:31:29.107410  4511 net.cpp:165] Memory required for data: 6543012400
I0622 01:31:29.107414  4511 layer_factory.hpp:77] Creating layer conv4_23_1x1_reduce/bn
I0622 01:31:29.107420  4511 net.cpp:106] Creating Layer conv4_23_1x1_reduce/bn
I0622 01:31:29.107424  4511 net.cpp:454] conv4_23_1x1_reduce/bn <- conv4_23_1x1_reduce
I0622 01:31:29.107427  4511 net.cpp:397] conv4_23_1x1_reduce/bn -> conv4_23_1x1_reduce (in-place)
I0622 01:31:29.107626  4511 net.cpp:150] Setting up conv4_23_1x1_reduce/bn
I0622 01:31:29.107635  4511 net.cpp:157] Top shape: 2 256 60 60 (1843200)
I0622 01:31:29.107638  4511 net.cpp:165] Memory required for data: 6550385200
I0622 01:31:29.107647  4511 layer_factory.hpp:77] Creating layer conv4_23_1x1_reduce/relu
I0622 01:31:29.107655  4511 net.cpp:106] Creating Layer conv4_23_1x1_reduce/relu
I0622 01:31:29.107659  4511 net.cpp:454] conv4_23_1x1_reduce/relu <- conv4_23_1x1_reduce
I0622 01:31:29.107664  4511 net.cpp:397] conv4_23_1x1_reduce/relu -> conv4_23_1x1_reduce (in-place)
I0622 01:31:29.107692  4511 net.cpp:150] Setting up conv4_23_1x1_reduce/relu
I0622 01:31:29.107697  4511 net.cpp:157] Top shape: 2 256 60 60 (1843200)
I0622 01:31:29.107702  4511 net.cpp:165] Memory required for data: 6557758000
I0622 01:31:29.107707  4511 layer_factory.hpp:77] Creating layer conv4_23_3x3
I0622 01:31:29.107718  4511 net.cpp:106] Creating Layer conv4_23_3x3
I0622 01:31:29.107722  4511 net.cpp:454] conv4_23_3x3 <- conv4_23_1x1_reduce
I0622 01:31:29.107729  4511 net.cpp:411] conv4_23_3x3 -> conv4_23_3x3
I0622 01:31:29.125736  4511 net.cpp:150] Setting up conv4_23_3x3
I0622 01:31:29.125778  4511 net.cpp:157] Top shape: 2 256 60 60 (1843200)
I0622 01:31:29.125782  4511 net.cpp:165] Memory required for data: 6565130800
I0622 01:31:29.125797  4511 layer_factory.hpp:77] Creating layer conv4_23_3x3/bn
I0622 01:31:29.125823  4511 net.cpp:106] Creating Layer conv4_23_3x3/bn
I0622 01:31:29.125830  4511 net.cpp:454] conv4_23_3x3/bn <- conv4_23_3x3
I0622 01:31:29.125839  4511 net.cpp:397] conv4_23_3x3/bn -> conv4_23_3x3 (in-place)
I0622 01:31:29.126030  4511 net.cpp:150] Setting up conv4_23_3x3/bn
I0622 01:31:29.126035  4511 net.cpp:157] Top shape: 2 256 60 60 (1843200)
I0622 01:31:29.126037  4511 net.cpp:165] Memory required for data: 6572503600
I0622 01:31:29.126044  4511 layer_factory.hpp:77] Creating layer conv4_23_3x3/relu
I0622 01:31:29.126049  4511 net.cpp:106] Creating Layer conv4_23_3x3/relu
I0622 01:31:29.126051  4511 net.cpp:454] conv4_23_3x3/relu <- conv4_23_3x3
I0622 01:31:29.126055  4511 net.cpp:397] conv4_23_3x3/relu -> conv4_23_3x3 (in-place)
I0622 01:31:29.126060  4511 net.cpp:150] Setting up conv4_23_3x3/relu
I0622 01:31:29.126062  4511 net.cpp:157] Top shape: 2 256 60 60 (1843200)
I0622 01:31:29.126065  4511 net.cpp:165] Memory required for data: 6579876400
I0622 01:31:29.126067  4511 layer_factory.hpp:77] Creating layer conv4_23_1x1_increase
I0622 01:31:29.126073  4511 net.cpp:106] Creating Layer conv4_23_1x1_increase
I0622 01:31:29.126076  4511 net.cpp:454] conv4_23_1x1_increase <- conv4_23_3x3
I0622 01:31:29.126082  4511 net.cpp:411] conv4_23_1x1_increase -> conv4_23_1x1_increase
I0622 01:31:29.132555  4511 net.cpp:150] Setting up conv4_23_1x1_increase
I0622 01:31:29.132591  4511 net.cpp:157] Top shape: 2 1024 60 60 (7372800)
I0622 01:31:29.132592  4511 net.cpp:165] Memory required for data: 6609367600
I0622 01:31:29.132598  4511 layer_factory.hpp:77] Creating layer conv4_23_1x1_increase/bn
I0622 01:31:29.132616  4511 net.cpp:106] Creating Layer conv4_23_1x1_increase/bn
I0622 01:31:29.132624  4511 net.cpp:454] conv4_23_1x1_increase/bn <- conv4_23_1x1_increase
I0622 01:31:29.132635  4511 net.cpp:397] conv4_23_1x1_increase/bn -> conv4_23_1x1_increase (in-place)
I0622 01:31:29.132889  4511 net.cpp:150] Setting up conv4_23_1x1_increase/bn
I0622 01:31:29.132895  4511 net.cpp:157] Top shape: 2 1024 60 60 (7372800)
I0622 01:31:29.132899  4511 net.cpp:165] Memory required for data: 6638858800
I0622 01:31:29.132908  4511 layer_factory.hpp:77] Creating layer conv4_23
I0622 01:31:29.132920  4511 net.cpp:106] Creating Layer conv4_23
I0622 01:31:29.132925  4511 net.cpp:454] conv4_23 <- conv4_22_conv4_22/relu_0_split_1
I0622 01:31:29.132928  4511 net.cpp:454] conv4_23 <- conv4_23_1x1_increase
I0622 01:31:29.132932  4511 net.cpp:411] conv4_23 -> conv4_23
I0622 01:31:29.132977  4511 net.cpp:150] Setting up conv4_23
I0622 01:31:29.132980  4511 net.cpp:157] Top shape: 2 1024 60 60 (7372800)
I0622 01:31:29.132983  4511 net.cpp:165] Memory required for data: 6668350000
I0622 01:31:29.132987  4511 layer_factory.hpp:77] Creating layer conv4_23/relu
I0622 01:31:29.132994  4511 net.cpp:106] Creating Layer conv4_23/relu
I0622 01:31:29.132997  4511 net.cpp:454] conv4_23/relu <- conv4_23
I0622 01:31:29.133002  4511 net.cpp:397] conv4_23/relu -> conv4_23 (in-place)
I0622 01:31:29.133007  4511 net.cpp:150] Setting up conv4_23/relu
I0622 01:31:29.133009  4511 net.cpp:157] Top shape: 2 1024 60 60 (7372800)
I0622 01:31:29.133013  4511 net.cpp:165] Memory required for data: 6697841200
I0622 01:31:29.133015  4511 layer_factory.hpp:77] Creating layer conv4_23_conv4_23/relu_0_split
I0622 01:31:29.133044  4511 net.cpp:106] Creating Layer conv4_23_conv4_23/relu_0_split
I0622 01:31:29.133047  4511 net.cpp:454] conv4_23_conv4_23/relu_0_split <- conv4_23
I0622 01:31:29.133054  4511 net.cpp:411] conv4_23_conv4_23/relu_0_split -> conv4_23_conv4_23/relu_0_split_0
I0622 01:31:29.133057  4511 net.cpp:411] conv4_23_conv4_23/relu_0_split -> conv4_23_conv4_23/relu_0_split_1
I0622 01:31:29.133085  4511 net.cpp:150] Setting up conv4_23_conv4_23/relu_0_split
I0622 01:31:29.133088  4511 net.cpp:157] Top shape: 2 1024 60 60 (7372800)
I0622 01:31:29.133092  4511 net.cpp:157] Top shape: 2 1024 60 60 (7372800)
I0622 01:31:29.133095  4511 net.cpp:165] Memory required for data: 6756823600
I0622 01:31:29.133097  4511 layer_factory.hpp:77] Creating layer conv5_1_1x1_reduce
I0622 01:31:29.133102  4511 net.cpp:106] Creating Layer conv5_1_1x1_reduce
I0622 01:31:29.133105  4511 net.cpp:454] conv5_1_1x1_reduce <- conv4_23_conv4_23/relu_0_split_0
I0622 01:31:29.133111  4511 net.cpp:411] conv5_1_1x1_reduce -> conv5_1_1x1_reduce
I0622 01:31:29.144966  4511 net.cpp:150] Setting up conv5_1_1x1_reduce
I0622 01:31:29.144989  4511 net.cpp:157] Top shape: 2 512 60 60 (3686400)
I0622 01:31:29.144994  4511 net.cpp:165] Memory required for data: 6771569200
I0622 01:31:29.145000  4511 layer_factory.hpp:77] Creating layer conv5_1_1x1_reduce/bn
I0622 01:31:29.145010  4511 net.cpp:106] Creating Layer conv5_1_1x1_reduce/bn
I0622 01:31:29.145015  4511 net.cpp:454] conv5_1_1x1_reduce/bn <- conv5_1_1x1_reduce
I0622 01:31:29.145026  4511 net.cpp:397] conv5_1_1x1_reduce/bn -> conv5_1_1x1_reduce (in-place)
I0622 01:31:29.145228  4511 net.cpp:150] Setting up conv5_1_1x1_reduce/bn
I0622 01:31:29.145233  4511 net.cpp:157] Top shape: 2 512 60 60 (3686400)
I0622 01:31:29.145236  4511 net.cpp:165] Memory required for data: 6786314800
I0622 01:31:29.145241  4511 layer_factory.hpp:77] Creating layer conv5_1_1x1_reduce/relu
I0622 01:31:29.145246  4511 net.cpp:106] Creating Layer conv5_1_1x1_reduce/relu
I0622 01:31:29.145249  4511 net.cpp:454] conv5_1_1x1_reduce/relu <- conv5_1_1x1_reduce
I0622 01:31:29.145251  4511 net.cpp:397] conv5_1_1x1_reduce/relu -> conv5_1_1x1_reduce (in-place)
I0622 01:31:29.145256  4511 net.cpp:150] Setting up conv5_1_1x1_reduce/relu
I0622 01:31:29.145258  4511 net.cpp:157] Top shape: 2 512 60 60 (3686400)
I0622 01:31:29.145261  4511 net.cpp:165] Memory required for data: 6801060400
I0622 01:31:29.145263  4511 layer_factory.hpp:77] Creating layer conv5_1_3x3
I0622 01:31:29.145270  4511 net.cpp:106] Creating Layer conv5_1_3x3
I0622 01:31:29.145273  4511 net.cpp:454] conv5_1_3x3 <- conv5_1_1x1_reduce
I0622 01:31:29.145278  4511 net.cpp:411] conv5_1_3x3 -> conv5_1_3x3
I0622 01:31:29.202534  4511 net.cpp:150] Setting up conv5_1_3x3
I0622 01:31:29.202564  4511 net.cpp:157] Top shape: 2 512 60 60 (3686400)
I0622 01:31:29.202566  4511 net.cpp:165] Memory required for data: 6815806000
I0622 01:31:29.202576  4511 layer_factory.hpp:77] Creating layer conv5_1_3x3/bn
I0622 01:31:29.202589  4511 net.cpp:106] Creating Layer conv5_1_3x3/bn
I0622 01:31:29.202594  4511 net.cpp:454] conv5_1_3x3/bn <- conv5_1_3x3
I0622 01:31:29.202601  4511 net.cpp:397] conv5_1_3x3/bn -> conv5_1_3x3 (in-place)
I0622 01:31:29.202787  4511 net.cpp:150] Setting up conv5_1_3x3/bn
I0622 01:31:29.202791  4511 net.cpp:157] Top shape: 2 512 60 60 (3686400)
I0622 01:31:29.202795  4511 net.cpp:165] Memory required for data: 6830551600
I0622 01:31:29.202800  4511 layer_factory.hpp:77] Creating layer conv5_1_3x3/relu
I0622 01:31:29.202803  4511 net.cpp:106] Creating Layer conv5_1_3x3/relu
I0622 01:31:29.202805  4511 net.cpp:454] conv5_1_3x3/relu <- conv5_1_3x3
I0622 01:31:29.202810  4511 net.cpp:397] conv5_1_3x3/relu -> conv5_1_3x3 (in-place)
I0622 01:31:29.202812  4511 net.cpp:150] Setting up conv5_1_3x3/relu
I0622 01:31:29.202816  4511 net.cpp:157] Top shape: 2 512 60 60 (3686400)
I0622 01:31:29.202817  4511 net.cpp:165] Memory required for data: 6845297200
I0622 01:31:29.202819  4511 layer_factory.hpp:77] Creating layer conv5_1_1x1_increase
I0622 01:31:29.202842  4511 net.cpp:106] Creating Layer conv5_1_1x1_increase
I0622 01:31:29.202846  4511 net.cpp:454] conv5_1_1x1_increase <- conv5_1_3x3
I0622 01:31:29.202848  4511 net.cpp:411] conv5_1_1x1_increase -> conv5_1_1x1_increase
I0622 01:31:29.226078  4511 net.cpp:150] Setting up conv5_1_1x1_increase
I0622 01:31:29.226106  4511 net.cpp:157] Top shape: 2 2048 60 60 (14745600)
I0622 01:31:29.226109  4511 net.cpp:165] Memory required for data: 6904279600
I0622 01:31:29.226117  4511 layer_factory.hpp:77] Creating layer conv5_1_1x1_increase/bn
I0622 01:31:29.226127  4511 net.cpp:106] Creating Layer conv5_1_1x1_increase/bn
I0622 01:31:29.226138  4511 net.cpp:454] conv5_1_1x1_increase/bn <- conv5_1_1x1_increase
I0622 01:31:29.226145  4511 net.cpp:397] conv5_1_1x1_increase/bn -> conv5_1_1x1_increase (in-place)
I0622 01:31:29.226375  4511 net.cpp:150] Setting up conv5_1_1x1_increase/bn
I0622 01:31:29.226382  4511 net.cpp:157] Top shape: 2 2048 60 60 (14745600)
I0622 01:31:29.226384  4511 net.cpp:165] Memory required for data: 6963262000
I0622 01:31:29.226389  4511 layer_factory.hpp:77] Creating layer conv5_1_1x1_proj
I0622 01:31:29.226398  4511 net.cpp:106] Creating Layer conv5_1_1x1_proj
I0622 01:31:29.226403  4511 net.cpp:454] conv5_1_1x1_proj <- conv4_23_conv4_23/relu_0_split_1
I0622 01:31:29.226408  4511 net.cpp:411] conv5_1_1x1_proj -> conv5_1_1x1_proj
I0622 01:31:29.278226  4511 net.cpp:150] Setting up conv5_1_1x1_proj
I0622 01:31:29.278251  4511 net.cpp:157] Top shape: 2 2048 60 60 (14745600)
I0622 01:31:29.278254  4511 net.cpp:165] Memory required for data: 7022244400
I0622 01:31:29.278260  4511 layer_factory.hpp:77] Creating layer conv5_1_1x1_proj/bn
I0622 01:31:29.278271  4511 net.cpp:106] Creating Layer conv5_1_1x1_proj/bn
I0622 01:31:29.278276  4511 net.cpp:454] conv5_1_1x1_proj/bn <- conv5_1_1x1_proj
I0622 01:31:29.278282  4511 net.cpp:397] conv5_1_1x1_proj/bn -> conv5_1_1x1_proj (in-place)
I0622 01:31:29.278462  4511 net.cpp:150] Setting up conv5_1_1x1_proj/bn
I0622 01:31:29.278468  4511 net.cpp:157] Top shape: 2 2048 60 60 (14745600)
I0622 01:31:29.278472  4511 net.cpp:165] Memory required for data: 7081226800
I0622 01:31:29.278483  4511 layer_factory.hpp:77] Creating layer conv5_1
I0622 01:31:29.278489  4511 net.cpp:106] Creating Layer conv5_1
I0622 01:31:29.278492  4511 net.cpp:454] conv5_1 <- conv5_1_1x1_proj
I0622 01:31:29.278496  4511 net.cpp:454] conv5_1 <- conv5_1_1x1_increase
I0622 01:31:29.278499  4511 net.cpp:411] conv5_1 -> conv5_1
I0622 01:31:29.278520  4511 net.cpp:150] Setting up conv5_1
I0622 01:31:29.278524  4511 net.cpp:157] Top shape: 2 2048 60 60 (14745600)
I0622 01:31:29.278527  4511 net.cpp:165] Memory required for data: 7140209200
I0622 01:31:29.278529  4511 layer_factory.hpp:77] Creating layer conv5_1/relu
I0622 01:31:29.278535  4511 net.cpp:106] Creating Layer conv5_1/relu
I0622 01:31:29.278537  4511 net.cpp:454] conv5_1/relu <- conv5_1
I0622 01:31:29.278542  4511 net.cpp:397] conv5_1/relu -> conv5_1 (in-place)
I0622 01:31:29.278545  4511 net.cpp:150] Setting up conv5_1/relu
I0622 01:31:29.278548  4511 net.cpp:157] Top shape: 2 2048 60 60 (14745600)
I0622 01:31:29.278551  4511 net.cpp:165] Memory required for data: 7199191600
I0622 01:31:29.278554  4511 layer_factory.hpp:77] Creating layer conv5_1_conv5_1/relu_0_split
I0622 01:31:29.278558  4511 net.cpp:106] Creating Layer conv5_1_conv5_1/relu_0_split
I0622 01:31:29.278561  4511 net.cpp:454] conv5_1_conv5_1/relu_0_split <- conv5_1
I0622 01:31:29.278565  4511 net.cpp:411] conv5_1_conv5_1/relu_0_split -> conv5_1_conv5_1/relu_0_split_0
I0622 01:31:29.278569  4511 net.cpp:411] conv5_1_conv5_1/relu_0_split -> conv5_1_conv5_1/relu_0_split_1
I0622 01:31:29.278595  4511 net.cpp:150] Setting up conv5_1_conv5_1/relu_0_split
I0622 01:31:29.278599  4511 net.cpp:157] Top shape: 2 2048 60 60 (14745600)
I0622 01:31:29.278602  4511 net.cpp:157] Top shape: 2 2048 60 60 (14745600)
I0622 01:31:29.278604  4511 net.cpp:165] Memory required for data: 7317156400
I0622 01:31:29.278607  4511 layer_factory.hpp:77] Creating layer conv5_2_1x1_reduce
I0622 01:31:29.278640  4511 net.cpp:106] Creating Layer conv5_2_1x1_reduce
I0622 01:31:29.278643  4511 net.cpp:454] conv5_2_1x1_reduce <- conv5_1_conv5_1/relu_0_split_0
I0622 01:31:29.278647  4511 net.cpp:411] conv5_2_1x1_reduce -> conv5_2_1x1_reduce
I0622 01:31:29.301931  4511 net.cpp:150] Setting up conv5_2_1x1_reduce
I0622 01:31:29.301956  4511 net.cpp:157] Top shape: 2 512 60 60 (3686400)
I0622 01:31:29.301959  4511 net.cpp:165] Memory required for data: 7331902000
I0622 01:31:29.301966  4511 layer_factory.hpp:77] Creating layer conv5_2_1x1_reduce/bn
I0622 01:31:29.301977  4511 net.cpp:106] Creating Layer conv5_2_1x1_reduce/bn
I0622 01:31:29.301983  4511 net.cpp:454] conv5_2_1x1_reduce/bn <- conv5_2_1x1_reduce
I0622 01:31:29.301990  4511 net.cpp:397] conv5_2_1x1_reduce/bn -> conv5_2_1x1_reduce (in-place)
I0622 01:31:29.302162  4511 net.cpp:150] Setting up conv5_2_1x1_reduce/bn
I0622 01:31:29.302166  4511 net.cpp:157] Top shape: 2 512 60 60 (3686400)
I0622 01:31:29.302170  4511 net.cpp:165] Memory required for data: 7346647600
I0622 01:31:29.302175  4511 layer_factory.hpp:77] Creating layer conv5_2_1x1_reduce/relu
I0622 01:31:29.302181  4511 net.cpp:106] Creating Layer conv5_2_1x1_reduce/relu
I0622 01:31:29.302184  4511 net.cpp:454] conv5_2_1x1_reduce/relu <- conv5_2_1x1_reduce
I0622 01:31:29.302187  4511 net.cpp:397] conv5_2_1x1_reduce/relu -> conv5_2_1x1_reduce (in-place)
I0622 01:31:29.302191  4511 net.cpp:150] Setting up conv5_2_1x1_reduce/relu
I0622 01:31:29.302196  4511 net.cpp:157] Top shape: 2 512 60 60 (3686400)
I0622 01:31:29.302197  4511 net.cpp:165] Memory required for data: 7361393200
I0622 01:31:29.302201  4511 layer_factory.hpp:77] Creating layer conv5_2_3x3
I0622 01:31:29.302206  4511 net.cpp:106] Creating Layer conv5_2_3x3
I0622 01:31:29.302209  4511 net.cpp:454] conv5_2_3x3 <- conv5_2_1x1_reduce
I0622 01:31:29.302218  4511 net.cpp:411] conv5_2_3x3 -> conv5_2_3x3
I0622 01:31:29.358337  4511 net.cpp:150] Setting up conv5_2_3x3
I0622 01:31:29.358361  4511 net.cpp:157] Top shape: 2 512 60 60 (3686400)
I0622 01:31:29.358366  4511 net.cpp:165] Memory required for data: 7376138800
I0622 01:31:29.358372  4511 layer_factory.hpp:77] Creating layer conv5_2_3x3/bn
I0622 01:31:29.358388  4511 net.cpp:106] Creating Layer conv5_2_3x3/bn
I0622 01:31:29.358395  4511 net.cpp:454] conv5_2_3x3/bn <- conv5_2_3x3
I0622 01:31:29.358402  4511 net.cpp:397] conv5_2_3x3/bn -> conv5_2_3x3 (in-place)
I0622 01:31:29.358585  4511 net.cpp:150] Setting up conv5_2_3x3/bn
I0622 01:31:29.358590  4511 net.cpp:157] Top shape: 2 512 60 60 (3686400)
I0622 01:31:29.358594  4511 net.cpp:165] Memory required for data: 7390884400
I0622 01:31:29.358599  4511 layer_factory.hpp:77] Creating layer conv5_2_3x3/relu
I0622 01:31:29.358604  4511 net.cpp:106] Creating Layer conv5_2_3x3/relu
I0622 01:31:29.358608  4511 net.cpp:454] conv5_2_3x3/relu <- conv5_2_3x3
I0622 01:31:29.358611  4511 net.cpp:397] conv5_2_3x3/relu -> conv5_2_3x3 (in-place)
I0622 01:31:29.358616  4511 net.cpp:150] Setting up conv5_2_3x3/relu
I0622 01:31:29.358619  4511 net.cpp:157] Top shape: 2 512 60 60 (3686400)
I0622 01:31:29.358623  4511 net.cpp:165] Memory required for data: 7405630000
I0622 01:31:29.358625  4511 layer_factory.hpp:77] Creating layer conv5_2_1x1_increase
I0622 01:31:29.358633  4511 net.cpp:106] Creating Layer conv5_2_1x1_increase
I0622 01:31:29.358636  4511 net.cpp:454] conv5_2_1x1_increase <- conv5_2_3x3
I0622 01:31:29.358640  4511 net.cpp:411] conv5_2_1x1_increase -> conv5_2_1x1_increase
I0622 01:31:29.382161  4511 net.cpp:150] Setting up conv5_2_1x1_increase
I0622 01:31:29.382230  4511 net.cpp:157] Top shape: 2 2048 60 60 (14745600)
I0622 01:31:29.382237  4511 net.cpp:165] Memory required for data: 7464612400
I0622 01:31:29.382253  4511 layer_factory.hpp:77] Creating layer conv5_2_1x1_increase/bn
I0622 01:31:29.382282  4511 net.cpp:106] Creating Layer conv5_2_1x1_increase/bn
I0622 01:31:29.382293  4511 net.cpp:454] conv5_2_1x1_increase/bn <- conv5_2_1x1_increase
I0622 01:31:29.382306  4511 net.cpp:397] conv5_2_1x1_increase/bn -> conv5_2_1x1_increase (in-place)
I0622 01:31:29.382629  4511 net.cpp:150] Setting up conv5_2_1x1_increase/bn
I0622 01:31:29.382634  4511 net.cpp:157] Top shape: 2 2048 60 60 (14745600)
I0622 01:31:29.382637  4511 net.cpp:165] Memory required for data: 7523594800
I0622 01:31:29.382757  4511 layer_factory.hpp:77] Creating layer conv5_2
I0622 01:31:29.382767  4511 net.cpp:106] Creating Layer conv5_2
I0622 01:31:29.382771  4511 net.cpp:454] conv5_2 <- conv5_1_conv5_1/relu_0_split_1
I0622 01:31:29.382776  4511 net.cpp:454] conv5_2 <- conv5_2_1x1_increase
I0622 01:31:29.382779  4511 net.cpp:411] conv5_2 -> conv5_2
I0622 01:31:29.382819  4511 net.cpp:150] Setting up conv5_2
I0622 01:31:29.382823  4511 net.cpp:157] Top shape: 2 2048 60 60 (14745600)
I0622 01:31:29.382827  4511 net.cpp:165] Memory required for data: 7582577200
I0622 01:31:29.382829  4511 layer_factory.hpp:77] Creating layer conv5_2/relu
I0622 01:31:29.382838  4511 net.cpp:106] Creating Layer conv5_2/relu
I0622 01:31:29.382843  4511 net.cpp:454] conv5_2/relu <- conv5_2
I0622 01:31:29.382846  4511 net.cpp:397] conv5_2/relu -> conv5_2 (in-place)
I0622 01:31:29.382853  4511 net.cpp:150] Setting up conv5_2/relu
I0622 01:31:29.382855  4511 net.cpp:157] Top shape: 2 2048 60 60 (14745600)
I0622 01:31:29.382858  4511 net.cpp:165] Memory required for data: 7641559600
I0622 01:31:29.382861  4511 layer_factory.hpp:77] Creating layer conv5_2_conv5_2/relu_0_split
I0622 01:31:29.382869  4511 net.cpp:106] Creating Layer conv5_2_conv5_2/relu_0_split
I0622 01:31:29.382871  4511 net.cpp:454] conv5_2_conv5_2/relu_0_split <- conv5_2
I0622 01:31:29.382876  4511 net.cpp:411] conv5_2_conv5_2/relu_0_split -> conv5_2_conv5_2/relu_0_split_0
I0622 01:31:29.382881  4511 net.cpp:411] conv5_2_conv5_2/relu_0_split -> conv5_2_conv5_2/relu_0_split_1
I0622 01:31:29.382910  4511 net.cpp:150] Setting up conv5_2_conv5_2/relu_0_split
I0622 01:31:29.382913  4511 net.cpp:157] Top shape: 2 2048 60 60 (14745600)
I0622 01:31:29.382916  4511 net.cpp:157] Top shape: 2 2048 60 60 (14745600)
I0622 01:31:29.382918  4511 net.cpp:165] Memory required for data: 7759524400
I0622 01:31:29.382921  4511 layer_factory.hpp:77] Creating layer conv5_3_1x1_reduce
I0622 01:31:29.382935  4511 net.cpp:106] Creating Layer conv5_3_1x1_reduce
I0622 01:31:29.382937  4511 net.cpp:454] conv5_3_1x1_reduce <- conv5_2_conv5_2/relu_0_split_0
I0622 01:31:29.382941  4511 net.cpp:411] conv5_3_1x1_reduce -> conv5_3_1x1_reduce
I0622 01:31:29.412185  4511 net.cpp:150] Setting up conv5_3_1x1_reduce
I0622 01:31:29.412226  4511 net.cpp:157] Top shape: 2 512 60 60 (3686400)
I0622 01:31:29.412230  4511 net.cpp:165] Memory required for data: 7774270000
I0622 01:31:29.412236  4511 layer_factory.hpp:77] Creating layer conv5_3_1x1_reduce/bn
I0622 01:31:29.412248  4511 net.cpp:106] Creating Layer conv5_3_1x1_reduce/bn
I0622 01:31:29.412253  4511 net.cpp:454] conv5_3_1x1_reduce/bn <- conv5_3_1x1_reduce
I0622 01:31:29.412257  4511 net.cpp:397] conv5_3_1x1_reduce/bn -> conv5_3_1x1_reduce (in-place)
I0622 01:31:29.412442  4511 net.cpp:150] Setting up conv5_3_1x1_reduce/bn
I0622 01:31:29.412447  4511 net.cpp:157] Top shape: 2 512 60 60 (3686400)
I0622 01:31:29.412449  4511 net.cpp:165] Memory required for data: 7789015600
I0622 01:31:29.412456  4511 layer_factory.hpp:77] Creating layer conv5_3_1x1_reduce/relu
I0622 01:31:29.412461  4511 net.cpp:106] Creating Layer conv5_3_1x1_reduce/relu
I0622 01:31:29.412464  4511 net.cpp:454] conv5_3_1x1_reduce/relu <- conv5_3_1x1_reduce
I0622 01:31:29.412469  4511 net.cpp:397] conv5_3_1x1_reduce/relu -> conv5_3_1x1_reduce (in-place)
I0622 01:31:29.412475  4511 net.cpp:150] Setting up conv5_3_1x1_reduce/relu
I0622 01:31:29.412479  4511 net.cpp:157] Top shape: 2 512 60 60 (3686400)
I0622 01:31:29.412482  4511 net.cpp:165] Memory required for data: 7803761200
I0622 01:31:29.412484  4511 layer_factory.hpp:77] Creating layer conv5_3_3x3
I0622 01:31:29.412492  4511 net.cpp:106] Creating Layer conv5_3_3x3
I0622 01:31:29.412495  4511 net.cpp:454] conv5_3_3x3 <- conv5_3_1x1_reduce
I0622 01:31:29.412500  4511 net.cpp:411] conv5_3_3x3 -> conv5_3_3x3
I0622 01:31:29.471781  4511 net.cpp:150] Setting up conv5_3_3x3
I0622 01:31:29.471804  4511 net.cpp:157] Top shape: 2 512 60 60 (3686400)
I0622 01:31:29.471807  4511 net.cpp:165] Memory required for data: 7818506800
I0622 01:31:29.471812  4511 layer_factory.hpp:77] Creating layer conv5_3_3x3/bn
I0622 01:31:29.471823  4511 net.cpp:106] Creating Layer conv5_3_3x3/bn
I0622 01:31:29.471828  4511 net.cpp:454] conv5_3_3x3/bn <- conv5_3_3x3
I0622 01:31:29.471834  4511 net.cpp:397] conv5_3_3x3/bn -> conv5_3_3x3 (in-place)
I0622 01:31:29.472034  4511 net.cpp:150] Setting up conv5_3_3x3/bn
I0622 01:31:29.472039  4511 net.cpp:157] Top shape: 2 512 60 60 (3686400)
I0622 01:31:29.472041  4511 net.cpp:165] Memory required for data: 7833252400
I0622 01:31:29.472046  4511 layer_factory.hpp:77] Creating layer conv5_3_3x3/relu
I0622 01:31:29.472051  4511 net.cpp:106] Creating Layer conv5_3_3x3/relu
I0622 01:31:29.472054  4511 net.cpp:454] conv5_3_3x3/relu <- conv5_3_3x3
I0622 01:31:29.472056  4511 net.cpp:397] conv5_3_3x3/relu -> conv5_3_3x3 (in-place)
I0622 01:31:29.472060  4511 net.cpp:150] Setting up conv5_3_3x3/relu
I0622 01:31:29.472064  4511 net.cpp:157] Top shape: 2 512 60 60 (3686400)
I0622 01:31:29.472065  4511 net.cpp:165] Memory required for data: 7847998000
I0622 01:31:29.472067  4511 layer_factory.hpp:77] Creating layer conv5_3_1x1_increase
I0622 01:31:29.472074  4511 net.cpp:106] Creating Layer conv5_3_1x1_increase
I0622 01:31:29.472076  4511 net.cpp:454] conv5_3_1x1_increase <- conv5_3_3x3
I0622 01:31:29.472080  4511 net.cpp:411] conv5_3_1x1_increase -> conv5_3_1x1_increase
I0622 01:31:29.495669  4511 net.cpp:150] Setting up conv5_3_1x1_increase
I0622 01:31:29.495690  4511 net.cpp:157] Top shape: 2 2048 60 60 (14745600)
I0622 01:31:29.495693  4511 net.cpp:165] Memory required for data: 7906980400
I0622 01:31:29.495698  4511 layer_factory.hpp:77] Creating layer conv5_3_1x1_increase/bn
I0622 01:31:29.495708  4511 net.cpp:106] Creating Layer conv5_3_1x1_increase/bn
I0622 01:31:29.495713  4511 net.cpp:454] conv5_3_1x1_increase/bn <- conv5_3_1x1_increase
I0622 01:31:29.495720  4511 net.cpp:397] conv5_3_1x1_increase/bn -> conv5_3_1x1_increase (in-place)
I0622 01:31:29.495896  4511 net.cpp:150] Setting up conv5_3_1x1_increase/bn
I0622 01:31:29.495901  4511 net.cpp:157] Top shape: 2 2048 60 60 (14745600)
I0622 01:31:29.495904  4511 net.cpp:165] Memory required for data: 7965962800
I0622 01:31:29.495909  4511 layer_factory.hpp:77] Creating layer conv5_3
I0622 01:31:29.495914  4511 net.cpp:106] Creating Layer conv5_3
I0622 01:31:29.495918  4511 net.cpp:454] conv5_3 <- conv5_2_conv5_2/relu_0_split_1
I0622 01:31:29.495920  4511 net.cpp:454] conv5_3 <- conv5_3_1x1_increase
I0622 01:31:29.495924  4511 net.cpp:411] conv5_3 -> conv5_3
I0622 01:31:29.495944  4511 net.cpp:150] Setting up conv5_3
I0622 01:31:29.495949  4511 net.cpp:157] Top shape: 2 2048 60 60 (14745600)
I0622 01:31:29.495950  4511 net.cpp:165] Memory required for data: 8024945200
I0622 01:31:29.495952  4511 layer_factory.hpp:77] Creating layer conv5_3/relu
I0622 01:31:29.495957  4511 net.cpp:106] Creating Layer conv5_3/relu
I0622 01:31:29.495959  4511 net.cpp:454] conv5_3/relu <- conv5_3
I0622 01:31:29.495962  4511 net.cpp:397] conv5_3/relu -> conv5_3 (in-place)
I0622 01:31:29.495966  4511 net.cpp:150] Setting up conv5_3/relu
I0622 01:31:29.495968  4511 net.cpp:157] Top shape: 2 2048 60 60 (14745600)
I0622 01:31:29.495970  4511 net.cpp:165] Memory required for data: 8083927600
I0622 01:31:29.495973  4511 layer_factory.hpp:77] Creating layer conv5_3_conv5_3/relu_0_split
I0622 01:31:29.495978  4511 net.cpp:106] Creating Layer conv5_3_conv5_3/relu_0_split
I0622 01:31:29.495981  4511 net.cpp:454] conv5_3_conv5_3/relu_0_split <- conv5_3
I0622 01:31:29.495985  4511 net.cpp:411] conv5_3_conv5_3/relu_0_split -> conv5_3_conv5_3/relu_0_split_0
I0622 01:31:29.495990  4511 net.cpp:411] conv5_3_conv5_3/relu_0_split -> conv5_3_conv5_3/relu_0_split_1
I0622 01:31:29.495992  4511 net.cpp:411] conv5_3_conv5_3/relu_0_split -> conv5_3_conv5_3/relu_0_split_2
I0622 01:31:29.495997  4511 net.cpp:411] conv5_3_conv5_3/relu_0_split -> conv5_3_conv5_3/relu_0_split_3
I0622 01:31:29.496017  4511 net.cpp:411] conv5_3_conv5_3/relu_0_split -> conv5_3_conv5_3/relu_0_split_4
I0622 01:31:29.496073  4511 net.cpp:150] Setting up conv5_3_conv5_3/relu_0_split
I0622 01:31:29.496078  4511 net.cpp:157] Top shape: 2 2048 60 60 (14745600)
I0622 01:31:29.496083  4511 net.cpp:157] Top shape: 2 2048 60 60 (14745600)
I0622 01:31:29.496085  4511 net.cpp:157] Top shape: 2 2048 60 60 (14745600)
I0622 01:31:29.496088  4511 net.cpp:157] Top shape: 2 2048 60 60 (14745600)
I0622 01:31:29.496090  4511 net.cpp:157] Top shape: 2 2048 60 60 (14745600)
I0622 01:31:29.496093  4511 net.cpp:165] Memory required for data: 8378839600
I0622 01:31:29.496094  4511 layer_factory.hpp:77] Creating layer conv5_3_pool1
I0622 01:31:29.496098  4511 net.cpp:106] Creating Layer conv5_3_pool1
I0622 01:31:29.496100  4511 net.cpp:454] conv5_3_pool1 <- conv5_3_conv5_3/relu_0_split_0
I0622 01:31:29.496105  4511 net.cpp:411] conv5_3_pool1 -> conv5_3_pool1
I0622 01:31:29.496121  4511 net.cpp:150] Setting up conv5_3_pool1
I0622 01:31:29.496125  4511 net.cpp:157] Top shape: 2 2048 1 1 (4096)
I0622 01:31:29.496127  4511 net.cpp:165] Memory required for data: 8378855984
I0622 01:31:29.496129  4511 layer_factory.hpp:77] Creating layer conv5_3_pool1_conv
I0622 01:31:29.496139  4511 net.cpp:106] Creating Layer conv5_3_pool1_conv
I0622 01:31:29.496141  4511 net.cpp:454] conv5_3_pool1_conv <- conv5_3_pool1
I0622 01:31:29.496145  4511 net.cpp:411] conv5_3_pool1_conv -> conv5_3_pool1_conv
I0622 01:31:29.525246  4511 net.cpp:150] Setting up conv5_3_pool1_conv
I0622 01:31:29.525331  4511 net.cpp:157] Top shape: 2 512 1 1 (1024)
I0622 01:31:29.525339  4511 net.cpp:165] Memory required for data: 8378860080
I0622 01:31:29.525357  4511 layer_factory.hpp:77] Creating layer conv5_3_pool1_conv/bn
I0622 01:31:29.525399  4511 net.cpp:106] Creating Layer conv5_3_pool1_conv/bn
I0622 01:31:29.525414  4511 net.cpp:454] conv5_3_pool1_conv/bn <- conv5_3_pool1_conv
I0622 01:31:29.525429  4511 net.cpp:397] conv5_3_pool1_conv/bn -> conv5_3_pool1_conv (in-place)
I0622 01:31:29.525729  4511 net.cpp:150] Setting up conv5_3_pool1_conv/bn
I0622 01:31:29.525738  4511 net.cpp:157] Top shape: 2 512 1 1 (1024)
I0622 01:31:29.525743  4511 net.cpp:165] Memory required for data: 8378864176
I0622 01:31:29.525753  4511 layer_factory.hpp:77] Creating layer conv5_3_pool1_conv/relu
I0622 01:31:29.525765  4511 net.cpp:106] Creating Layer conv5_3_pool1_conv/relu
I0622 01:31:29.525770  4511 net.cpp:454] conv5_3_pool1_conv/relu <- conv5_3_pool1_conv
I0622 01:31:29.525776  4511 net.cpp:397] conv5_3_pool1_conv/relu -> conv5_3_pool1_conv (in-place)
I0622 01:31:29.525784  4511 net.cpp:150] Setting up conv5_3_pool1_conv/relu
I0622 01:31:29.525789  4511 net.cpp:157] Top shape: 2 512 1 1 (1024)
I0622 01:31:29.525794  4511 net.cpp:165] Memory required for data: 8378868272
I0622 01:31:29.525797  4511 layer_factory.hpp:77] Creating layer conv5_3_pool1_interp
I0622 01:31:29.525828  4511 net.cpp:106] Creating Layer conv5_3_pool1_interp
I0622 01:31:29.525833  4511 net.cpp:454] conv5_3_pool1_interp <- conv5_3_pool1_conv
I0622 01:31:29.525841  4511 net.cpp:411] conv5_3_pool1_interp -> conv5_3_pool1_interp
I0622 01:31:29.525903  4511 net.cpp:150] Setting up conv5_3_pool1_interp
I0622 01:31:29.525909  4511 net.cpp:157] Top shape: 2 512 60 60 (3686400)
I0622 01:31:29.525913  4511 net.cpp:165] Memory required for data: 8393613872
I0622 01:31:29.525918  4511 layer_factory.hpp:77] Creating layer conv5_3_pool2
I0622 01:31:29.525929  4511 net.cpp:106] Creating Layer conv5_3_pool2
I0622 01:31:29.525934  4511 net.cpp:454] conv5_3_pool2 <- conv5_3_conv5_3/relu_0_split_1
I0622 01:31:29.525943  4511 net.cpp:411] conv5_3_pool2 -> conv5_3_pool2
I0622 01:31:29.525967  4511 net.cpp:150] Setting up conv5_3_pool2
I0622 01:31:29.525975  4511 net.cpp:157] Top shape: 2 2048 2 2 (16384)
I0622 01:31:29.525982  4511 net.cpp:165] Memory required for data: 8393679408
I0622 01:31:29.525985  4511 layer_factory.hpp:77] Creating layer conv5_3_pool2_conv
I0622 01:31:29.526047  4511 net.cpp:106] Creating Layer conv5_3_pool2_conv
I0622 01:31:29.526052  4511 net.cpp:454] conv5_3_pool2_conv <- conv5_3_pool2
I0622 01:31:29.526062  4511 net.cpp:411] conv5_3_pool2_conv -> conv5_3_pool2_conv
I0622 01:31:29.550413  4511 net.cpp:150] Setting up conv5_3_pool2_conv
I0622 01:31:29.550467  4511 net.cpp:157] Top shape: 2 512 2 2 (4096)
I0622 01:31:29.550470  4511 net.cpp:165] Memory required for data: 8393695792
I0622 01:31:29.550487  4511 layer_factory.hpp:77] Creating layer conv5_3_pool2_conv/bn
I0622 01:31:29.550513  4511 net.cpp:106] Creating Layer conv5_3_pool2_conv/bn
I0622 01:31:29.550523  4511 net.cpp:454] conv5_3_pool2_conv/bn <- conv5_3_pool2_conv
I0622 01:31:29.550532  4511 net.cpp:397] conv5_3_pool2_conv/bn -> conv5_3_pool2_conv (in-place)
I0622 01:31:29.550772  4511 net.cpp:150] Setting up conv5_3_pool2_conv/bn
I0622 01:31:29.550778  4511 net.cpp:157] Top shape: 2 512 2 2 (4096)
I0622 01:31:29.550781  4511 net.cpp:165] Memory required for data: 8393712176
I0622 01:31:29.550789  4511 layer_factory.hpp:77] Creating layer conv5_3_pool2_conv/relu
I0622 01:31:29.550796  4511 net.cpp:106] Creating Layer conv5_3_pool2_conv/relu
I0622 01:31:29.550799  4511 net.cpp:454] conv5_3_pool2_conv/relu <- conv5_3_pool2_conv
I0622 01:31:29.550806  4511 net.cpp:397] conv5_3_pool2_conv/relu -> conv5_3_pool2_conv (in-place)
I0622 01:31:29.550812  4511 net.cpp:150] Setting up conv5_3_pool2_conv/relu
I0622 01:31:29.550815  4511 net.cpp:157] Top shape: 2 512 2 2 (4096)
I0622 01:31:29.550817  4511 net.cpp:165] Memory required for data: 8393728560
I0622 01:31:29.550820  4511 layer_factory.hpp:77] Creating layer conv5_3_pool2_interp
I0622 01:31:29.550828  4511 net.cpp:106] Creating Layer conv5_3_pool2_interp
I0622 01:31:29.550832  4511 net.cpp:454] conv5_3_pool2_interp <- conv5_3_pool2_conv
I0622 01:31:29.550835  4511 net.cpp:411] conv5_3_pool2_interp -> conv5_3_pool2_interp
I0622 01:31:29.550868  4511 net.cpp:150] Setting up conv5_3_pool2_interp
I0622 01:31:29.550871  4511 net.cpp:157] Top shape: 2 512 60 60 (3686400)
I0622 01:31:29.550873  4511 net.cpp:165] Memory required for data: 8408474160
I0622 01:31:29.550876  4511 layer_factory.hpp:77] Creating layer conv5_3_pool3
I0622 01:31:29.550884  4511 net.cpp:106] Creating Layer conv5_3_pool3
I0622 01:31:29.550887  4511 net.cpp:454] conv5_3_pool3 <- conv5_3_conv5_3/relu_0_split_2
I0622 01:31:29.550890  4511 net.cpp:411] conv5_3_pool3 -> conv5_3_pool3
I0622 01:31:29.550907  4511 net.cpp:150] Setting up conv5_3_pool3
I0622 01:31:29.550911  4511 net.cpp:157] Top shape: 2 2048 3 3 (36864)
I0622 01:31:29.550915  4511 net.cpp:165] Memory required for data: 8408621616
I0622 01:31:29.550916  4511 layer_factory.hpp:77] Creating layer conv5_3_pool3_conv
I0622 01:31:29.550927  4511 net.cpp:106] Creating Layer conv5_3_pool3_conv
I0622 01:31:29.550930  4511 net.cpp:454] conv5_3_pool3_conv <- conv5_3_pool3
I0622 01:31:29.550937  4511 net.cpp:411] conv5_3_pool3_conv -> conv5_3_pool3_conv
I0622 01:31:29.575004  4511 net.cpp:150] Setting up conv5_3_pool3_conv
I0622 01:31:29.575027  4511 net.cpp:157] Top shape: 2 512 3 3 (9216)
I0622 01:31:29.575029  4511 net.cpp:165] Memory required for data: 8408658480
I0622 01:31:29.575036  4511 layer_factory.hpp:77] Creating layer conv5_3_pool3_conv/bn
I0622 01:31:29.575044  4511 net.cpp:106] Creating Layer conv5_3_pool3_conv/bn
I0622 01:31:29.575052  4511 net.cpp:454] conv5_3_pool3_conv/bn <- conv5_3_pool3_conv
I0622 01:31:29.575057  4511 net.cpp:397] conv5_3_pool3_conv/bn -> conv5_3_pool3_conv (in-place)
I0622 01:31:29.575244  4511 net.cpp:150] Setting up conv5_3_pool3_conv/bn
I0622 01:31:29.575249  4511 net.cpp:157] Top shape: 2 512 3 3 (9216)
I0622 01:31:29.575251  4511 net.cpp:165] Memory required for data: 8408695344
I0622 01:31:29.575256  4511 layer_factory.hpp:77] Creating layer conv5_3_pool3_conv/relu
I0622 01:31:29.575260  4511 net.cpp:106] Creating Layer conv5_3_pool3_conv/relu
I0622 01:31:29.575263  4511 net.cpp:454] conv5_3_pool3_conv/relu <- conv5_3_pool3_conv
I0622 01:31:29.575265  4511 net.cpp:397] conv5_3_pool3_conv/relu -> conv5_3_pool3_conv (in-place)
I0622 01:31:29.575289  4511 net.cpp:150] Setting up conv5_3_pool3_conv/relu
I0622 01:31:29.575291  4511 net.cpp:157] Top shape: 2 512 3 3 (9216)
I0622 01:31:29.575294  4511 net.cpp:165] Memory required for data: 8408732208
I0622 01:31:29.575295  4511 layer_factory.hpp:77] Creating layer conv5_3_pool3_interp
I0622 01:31:29.575299  4511 net.cpp:106] Creating Layer conv5_3_pool3_interp
I0622 01:31:29.575301  4511 net.cpp:454] conv5_3_pool3_interp <- conv5_3_pool3_conv
I0622 01:31:29.575305  4511 net.cpp:411] conv5_3_pool3_interp -> conv5_3_pool3_interp
I0622 01:31:29.575326  4511 net.cpp:150] Setting up conv5_3_pool3_interp
I0622 01:31:29.575330  4511 net.cpp:157] Top shape: 2 512 60 60 (3686400)
I0622 01:31:29.575332  4511 net.cpp:165] Memory required for data: 8423477808
I0622 01:31:29.575335  4511 layer_factory.hpp:77] Creating layer conv5_3_pool6
I0622 01:31:29.575340  4511 net.cpp:106] Creating Layer conv5_3_pool6
I0622 01:31:29.575343  4511 net.cpp:454] conv5_3_pool6 <- conv5_3_conv5_3/relu_0_split_3
I0622 01:31:29.575346  4511 net.cpp:411] conv5_3_pool6 -> conv5_3_pool6
I0622 01:31:29.575364  4511 net.cpp:150] Setting up conv5_3_pool6
I0622 01:31:29.575368  4511 net.cpp:157] Top shape: 2 2048 6 6 (147456)
I0622 01:31:29.575371  4511 net.cpp:165] Memory required for data: 8424067632
I0622 01:31:29.575373  4511 layer_factory.hpp:77] Creating layer conv5_3_pool6_conv
I0622 01:31:29.575381  4511 net.cpp:106] Creating Layer conv5_3_pool6_conv
I0622 01:31:29.575384  4511 net.cpp:454] conv5_3_pool6_conv <- conv5_3_pool6
I0622 01:31:29.575388  4511 net.cpp:411] conv5_3_pool6_conv -> conv5_3_pool6_conv
I0622 01:31:29.604035  4511 net.cpp:150] Setting up conv5_3_pool6_conv
I0622 01:31:29.604060  4511 net.cpp:157] Top shape: 2 512 6 6 (36864)
I0622 01:31:29.604063  4511 net.cpp:165] Memory required for data: 8424215088
I0622 01:31:29.604069  4511 layer_factory.hpp:77] Creating layer conv5_3_pool6_conv/bn
I0622 01:31:29.604081  4511 net.cpp:106] Creating Layer conv5_3_pool6_conv/bn
I0622 01:31:29.604090  4511 net.cpp:454] conv5_3_pool6_conv/bn <- conv5_3_pool6_conv
I0622 01:31:29.604099  4511 net.cpp:397] conv5_3_pool6_conv/bn -> conv5_3_pool6_conv (in-place)
I0622 01:31:29.604300  4511 net.cpp:150] Setting up conv5_3_pool6_conv/bn
I0622 01:31:29.604305  4511 net.cpp:157] Top shape: 2 512 6 6 (36864)
I0622 01:31:29.604307  4511 net.cpp:165] Memory required for data: 8424362544
I0622 01:31:29.604312  4511 layer_factory.hpp:77] Creating layer conv5_3_pool6_conv/relu
I0622 01:31:29.604316  4511 net.cpp:106] Creating Layer conv5_3_pool6_conv/relu
I0622 01:31:29.604318  4511 net.cpp:454] conv5_3_pool6_conv/relu <- conv5_3_pool6_conv
I0622 01:31:29.604322  4511 net.cpp:397] conv5_3_pool6_conv/relu -> conv5_3_pool6_conv (in-place)
I0622 01:31:29.604326  4511 net.cpp:150] Setting up conv5_3_pool6_conv/relu
I0622 01:31:29.604329  4511 net.cpp:157] Top shape: 2 512 6 6 (36864)
I0622 01:31:29.604331  4511 net.cpp:165] Memory required for data: 8424510000
I0622 01:31:29.604334  4511 layer_factory.hpp:77] Creating layer conv5_3_pool6_interp
I0622 01:31:29.604339  4511 net.cpp:106] Creating Layer conv5_3_pool6_interp
I0622 01:31:29.604342  4511 net.cpp:454] conv5_3_pool6_interp <- conv5_3_pool6_conv
I0622 01:31:29.604346  4511 net.cpp:411] conv5_3_pool6_interp -> conv5_3_pool6_interp
I0622 01:31:29.604369  4511 net.cpp:150] Setting up conv5_3_pool6_interp
I0622 01:31:29.604373  4511 net.cpp:157] Top shape: 2 512 60 60 (3686400)
I0622 01:31:29.604377  4511 net.cpp:165] Memory required for data: 8439255600
I0622 01:31:29.604379  4511 layer_factory.hpp:77] Creating layer conv5_3_concat
I0622 01:31:29.604384  4511 net.cpp:106] Creating Layer conv5_3_concat
I0622 01:31:29.604387  4511 net.cpp:454] conv5_3_concat <- conv5_3_conv5_3/relu_0_split_4
I0622 01:31:29.604393  4511 net.cpp:454] conv5_3_concat <- conv5_3_pool6_interp
I0622 01:31:29.604396  4511 net.cpp:454] conv5_3_concat <- conv5_3_pool3_interp
I0622 01:31:29.604399  4511 net.cpp:454] conv5_3_concat <- conv5_3_pool2_interp
I0622 01:31:29.604403  4511 net.cpp:454] conv5_3_concat <- conv5_3_pool1_interp
I0622 01:31:29.604423  4511 net.cpp:411] conv5_3_concat -> conv5_3_concat
I0622 01:31:29.604442  4511 net.cpp:150] Setting up conv5_3_concat
I0622 01:31:29.604446  4511 net.cpp:157] Top shape: 2 4096 60 60 (29491200)
I0622 01:31:29.604449  4511 net.cpp:165] Memory required for data: 8557220400
I0622 01:31:29.604451  4511 layer_factory.hpp:77] Creating layer conv5_4
I0622 01:31:29.604460  4511 net.cpp:106] Creating Layer conv5_4
I0622 01:31:29.604463  4511 net.cpp:454] conv5_4 <- conv5_3_concat
I0622 01:31:29.604467  4511 net.cpp:411] conv5_4 -> conv5_4
I0622 01:31:30.070729  4511 net.cpp:150] Setting up conv5_4
I0622 01:31:30.070812  4511 net.cpp:157] Top shape: 2 512 60 60 (3686400)
I0622 01:31:30.070819  4511 net.cpp:165] Memory required for data: 8571966000
I0622 01:31:30.070837  4511 layer_factory.hpp:77] Creating layer conv5_4/bn
I0622 01:31:30.070865  4511 net.cpp:106] Creating Layer conv5_4/bn
I0622 01:31:30.070875  4511 net.cpp:454] conv5_4/bn <- conv5_4
I0622 01:31:30.070894  4511 net.cpp:397] conv5_4/bn -> conv5_4 (in-place)
I0622 01:31:30.071220  4511 net.cpp:150] Setting up conv5_4/bn
I0622 01:31:30.071229  4511 net.cpp:157] Top shape: 2 512 60 60 (3686400)
I0622 01:31:30.071233  4511 net.cpp:165] Memory required for data: 8586711600
I0622 01:31:30.071245  4511 layer_factory.hpp:77] Creating layer conv5_4/relu
I0622 01:31:30.071260  4511 net.cpp:106] Creating Layer conv5_4/relu
I0622 01:31:30.071265  4511 net.cpp:454] conv5_4/relu <- conv5_4
I0622 01:31:30.071270  4511 net.cpp:397] conv5_4/relu -> conv5_4 (in-place)
I0622 01:31:30.071279  4511 net.cpp:150] Setting up conv5_4/relu
I0622 01:31:30.071285  4511 net.cpp:157] Top shape: 2 512 60 60 (3686400)
I0622 01:31:30.071288  4511 net.cpp:165] Memory required for data: 8601457200
I0622 01:31:30.071292  4511 layer_factory.hpp:77] Creating layer conv5_4/dropout
I0622 01:31:30.071310  4511 net.cpp:106] Creating Layer conv5_4/dropout
I0622 01:31:30.071316  4511 net.cpp:454] conv5_4/dropout <- conv5_4
I0622 01:31:30.071321  4511 net.cpp:397] conv5_4/dropout -> conv5_4 (in-place)
I0622 01:31:30.071372  4511 net.cpp:150] Setting up conv5_4/dropout
I0622 01:31:30.071378  4511 net.cpp:157] Top shape: 2 512 60 60 (3686400)
I0622 01:31:30.071382  4511 net.cpp:165] Memory required for data: 8616202800
I0622 01:31:30.071386  4511 layer_factory.hpp:77] Creating layer conv6
I0622 01:31:30.071398  4511 net.cpp:106] Creating Layer conv6
I0622 01:31:30.071403  4511 net.cpp:454] conv6 <- conv5_4
I0622 01:31:30.071409  4511 net.cpp:411] conv6 -> conv6
I0622 01:31:30.072113  4511 net.cpp:150] Setting up conv6
I0622 01:31:30.072123  4511 net.cpp:157] Top shape: 2 21 60 60 (151200)
I0622 01:31:30.072127  4511 net.cpp:165] Memory required for data: 8616807600
I0622 01:31:30.072134  4511 layer_factory.hpp:77] Creating layer conv6_interp
I0622 01:31:30.072145  4511 net.cpp:106] Creating Layer conv6_interp
I0622 01:31:30.072150  4511 net.cpp:454] conv6_interp <- conv6
I0622 01:31:30.072156  4511 net.cpp:411] conv6_interp -> conv6_interp
I0622 01:31:30.072185  4511 net.cpp:150] Setting up conv6_interp
I0622 01:31:30.072190  4511 net.cpp:157] Top shape: 2 21 473 473 (9396618)
I0622 01:31:30.072193  4511 net.cpp:165] Memory required for data: 8654394072
I0622 01:31:30.072198  4511 layer_factory.hpp:77] Creating layer loss
I0622 01:31:30.072222  4511 net.cpp:106] Creating Layer loss
I0622 01:31:30.072227  4511 net.cpp:454] loss <- conv6_interp
I0622 01:31:30.072309  4511 net.cpp:411] loss -> (automatic)
F0622 01:31:30.072336  4511 layer.hpp:374] Check failed: ExactNumBottomBlobs() == bottom.size() (2 vs. 1) SoftmaxWithLoss Layer takes 2 bottom blob(s) as input.
