…
state {
  phase: TRAIN
}
layer {
  name: "data"
  type: "ImageSegData"
  top: "data"
  top: "label"
  include {
    phase: TRAIN
  }
  transform_param {
    mirror: true
    crop_size: 473
    mean_value: 104.008
    mean_value: 116.669
    mean_value: 122.675
    scale_factors: 0.5
    scale_factors: 0.75
    scale_factors: 1
    scale_factors: 1.25
    scale_factors: 1.5
  }
  image_data_param {
    source: "exper/voc12/list/train_aug.txt"
    batch_size: 8
    shuffle: true
    root_folder: "exper/voc12/data"
    label_type: PIXEL
  }
}
layer {
  name: "conv1_1_3x3_s2"
  type: "Convolution"
  bottom: "data"
  top: "conv1_1_3x3_s2"
  param {
    lr_mult: 1
    decay_mult: 1
  }
  convolution_param {
    num_output: 64
    bias_term: false
    pad: 1
    kernel_size: 3
    stride: 2
    weight_filler {
      type: "msra"
    }
  }
}
layer {
  name: "conv1_1_3x3_s2/bn"
  type: "BN"
  bottom: "conv1_1_3x3_s2"
  top: "conv1_1_3x3_s2"
  param {
    lr_mult: 1
    decay_mult: 0
  }
  param {
    lr_mult: 1
    decay_mult: 0
  }
  param {
    lr_mult: 0
    decay_mult: 0
  }
  param {
    lr_mult: 0
    decay_mult: 0
  }
  bn_param {
    slope_filler {
      type: "constant"
      value: 1
    }
    bias_filler {
      type: "constant"
      value: 0
    }
    momentum: 0.95
    frozen: true
  }
}
layer {
  name: "conv1_1_3x3_s2/relu"
  type: "ReLU"
  bottom: "conv1_1_3x3_s2"
  top: "conv1_1_3x3_s2"
}
layer {
  name: "conv1_2_3x3"
  type: "Convolution"
  bottom: "conv1_1_3x3_s2"
  top: "conv1_2_3x3"
  param {
    lr_mult: 1
    decay_mult: 1
  }
  convolution_param {
    num_output: 64
    bias_term: false
    pad: 1
    kernel_size: 3
    stride: 1
    weight_filler {
      type: "msra"
    }
  }
}
layer {
  name: "conv1_2_3x3/bn"
  type: "BN"
  bottom: "conv1_2_3x3"
  top: "conv1_2_3x3"
  param {
    lr_mult: 1
    decay_mult: 0
  }
  param {
    lr_mult: 1
    decay_mult: 0
  }
  param {
    lr_mult: 0
    decay_mult: 0
  }
  param {
    lr_mult: 0
    decay_mult: 0
  }
  bn_param {
    slope_filler {
      type: "constant"
      value: 1
    }
    bias_filler {
      type: "constant"
      value: 0
    }
    momentum: 0.95
    frozen: true
  }
}
layer {
  name: "conv1_2_3x3/relu"
  type: "ReLU"
  bottom: "conv1_2_3x3"
  top: "conv1_2_3x3"
}
layer {
  name: "conv1_3_3x3"
  type: "Convolution"
  bottom: "conv1_2_3x3"
  top: "conv1_3_3x3"
  param {
    lr_mult: 1
    decay_mult: 1
  }
  convolution_param {
    num_output: 128
    bias_term: false
    pad: 1
    kernel_size: 3
    stride: 1
    weight_filler {
      type: "msra"
    }
  }
}
layer {
  name: "conv1_3_3x3/bn"
  type: "BN"
  bottom: "conv1_3_3x3"
  top: "conv1_3_3x3"
  param {
    lr_mult: 1
    decay_mult: 0
  }
  param {
    lr_mult: 1
    decay_mult: 0
  }
  param {
    lr_mult: 0
    decay_mult: 0
  }
  param {
    lr_mult: 0
    decay_mult: 0
  }
  bn_param {
    slope_filler {
      type: "constant"
      value: 1
    }
    bias_filler {
      type: "constant"
      value: 0
    }
    momentum: 0.95
    frozen: true
  }
}
layer {
  name: "conv1_3_3x3/relu"
  type: "ReLU"
  bottom: "conv1_3_3x3"
  top: "conv1_3_3x3"
}
layer {
  name: "pool1_3x3_s2"
  type: "Pooling"
  bottom: "conv1_3_3x3"
  top: "pool1_3x3_s2"
  pooling_param {
    pool: MAX
    kernel_size: 3
    stride: 2
    pad: 1
  }
}
layer {
  name: "conv2_1_1x1_reduce"
  type: "Convolution"
  bottom: "pool1_3x3_s2"
  top: "conv2_1_1x1_reduce"
  param {
    lr_mult: 1
    decay_mult: 1
  }
  convolution_param {
    num_output: 64
    bias_term: false
    pad: 0
    kernel_size: 1
    stride: 1
    weight_filler {
      type: "msra"
    }
  }
}
layer {
  name: "conv2_1_1x1_reduce/bn"
  type: "BN"
  bottom: "conv2_1_1x1_reduce"
  top: "conv2_1_1x1_reduce"
  param {
    lr_mult: 1
    decay_mult: 0
  }
  param {
    lr_mult: 1
    decay_mult: 0
  }
  param {
    lr_mult: 0
    decay_mult: 0
  }
  param {
    lr_mult: 0
    decay_mult: 0
  }
  bn_param {
    slope_filler {
      type: "constant"
      value: 1
    }
    bias_filler {
      type: "constant"
      value: 0
    }
    momentum: 0.95
    frozen: true
  }
}
layer {
  name: "conv2_1_1x1_reduce/relu"
  type: "ReLU"
  bottom: "conv2_1_1x1_reduce"
  top: "conv2_1_1x1_reduce"
}
layer {
  name: "conv2_1_3x3"
  type: "Convolution"
  bottom: "conv2_1_1x1_reduce"
  top: "conv2_1_3x3"
  param {
    lr_mult: 1
    decay_mult: 1
  }
  convolution_param {
    num_output: 64
    bias_term: false
    pad: 1
    kernel_size: 3
    stride: 1
    weight_filler {
      type: "msra"
    }
  }
}
layer {
  name: "conv2_1_3x3/bn"
  type: "BN"
  bottom: "conv2_1_3x3"
  top: "conv2_1_3x3"
  param {
    lr_mult: 1
    decay_mult: 0
  }
  param {
    lr_mult: 1
    decay_mult: 0
  }
  param {
    lr_mult: 0
    decay_mult: 0
  }
  param {
    lr_mult: 0
    decay_mult: 0
  }
  bn_param {
    slope_filler {
      type: "constant"
      value: 1
    }
    bias_filler {
      type: "constant"
      value: 0
    }
    momentum: 0.95
    frozen: true
  }
}
layer {
  name: "conv2_1_3x3/relu"
  type: "ReLU"
  bottom: "conv2_1_3x3"
  top: "conv2_1_3x3"
}
layer {
  name: "conv2_1_1x1_increase"
  type: "Convolution"
  bottom: "conv2_1_3x3"
  top: "conv2_1_1x1_increase"
  param {
    lr_mult: 1
    decay_mult: 1
  }
  convolution_param {
    num_output: 256
    bias_term: false
    pad: 0
    kernel_size: 1
    stride: 1
    weight_filler {
      type: "msra"
    }
  }
}
layer {
  name: "conv2_1_1x1_increase/bn"
  type: "BN"
  bottom: "conv2_1_1x1_increase"
  top: "conv2_1_1x1_increase"
  param {
    lr_mult: 1
    decay_mult: 0
  }
  param {
    lr_mult: 1
    decay_mult: 0
  }
  param {
    lr_mult: 0
    decay_mult: 0
  }
  param {
    lr_mult: 0
    decay_mult: 0
  }
  bn_param {
    slope_filler {
      type: "constant"
      value: 1
    }
    bias_filler {
      type: "constant"
      value: 0
    }
    momentum: 0.95
    frozen: true
  }
}
layer {
  name: "conv2_1_1x1_proj"
  type: "Convolution"
  bottom: "pool1_3x3_s2"
  top: "conv2_1_1x1_proj"
  param {
    lr_mult: 1
    decay_mult: 1
  }
  convolution_param {
    num_output: 256
    bias_term: false
    pad: 0
    kernel_size: 1
    stride: 1
    weight_filler {
      type: "msra"
    }
  }
}
layer {
  name: "conv2_1_1x1_proj/bn"
  type: "BN"
  bottom: "conv2_1_1x1_proj"
  top: "conv2_1_1x1_proj"
  param {
    lr_mult: 1
    decay_mult: 0
  }
  param {
    lr_mult: 1
    decay_mult: 0
  }
  param {
    lr_mult: 0
    decay_mult: 0
  }
  param {
    lr_mult: 0
    decay_mult: 0
  }
  bn_param {
    slope_filler {
      type: "constant"
      value: 1
    }
    bias_filler {
      type: "constant"
      value: 0
    }
    momentum: 0.95
    frozen: true
  }
}
layer {
  name: "conv2_1"
  type: "Eltwise"
  bottom: "conv2_1_1x1_proj"
  bottom: "conv2_1_1x1_increase"
  top: "conv2_1"
  eltwise_param {
    operation: SUM
  }
}
layer {
  name: "conv2_1/relu"
  type: "ReLU"
  bottom: "conv2_1"
  top: "conv2_1"
}
layer {
  name: "conv2_2_1x1_reduce"
  type: "Convolution"
  bottom: "conv2_1"
  top: "conv2_2_1x1_reduce"
  param {
    lr_mult: 1
    decay_mult: 1
  }
  convolution_param {
    num_output: 64
    bias_term: false
    pad: 0
    kernel_size: 1
    stride: 1
    weight_filler {
      type: "msra"
    }
  }
}
layer {
  name: "conv2_2_1x1_reduce/bn"
  type: "BN"
  bottom: "conv2_2_1x1_reduce"
  top: "conv2_2_1x1_reduce"
  param {
    lr_mult: 1
    decay_mult: 0
  }
  param {
    lr_mult: 1
    decay_mult: 0
  }
  param {
    lr_mult: 0
    decay_mult: 0
  }
  param {
    lr_mult: 0
    decay_mult: 0
  }
  bn_param {
    slope_filler {
      type: "constant"
      value: 1
    }
    bias_filler {
      type: "constant"
      value: 0
    }
    momentum: 0.95
    frozen: true
  }
}
layer {
  name: "conv2_2_1x1_reduce/relu"
  type: "ReLU"
  bottom: "conv2_2_1x1_reduce"
  top: "conv2_2_1x1_reduce"
}
layer {
  name: "conv2_2_3x3"
  type: "Convolution"
  bottom: "conv2_2_1x1_reduce"
  top: "conv2_2_3x3"
  param {
    lr_mult: 1
    decay_mult: 1
  }
  convolution_param {
    num_output: 64
    bias_term: false
    pad: 1
    kernel_size: 3
    stride: 1
    weight_filler {
      type: "msra"
    }
  }
}
layer {
  name: "conv2_2_3x3/bn"
  type: "BN"
  bottom: "conv2_2_3x3"
  top: "conv2_2_3x3"
  param {
    lr_mult: 1
    decay_mult: 0
  }
  param {
    lr_mult: 1
    decay_mult: 0
  }
  param {
    lr_mult: 0
    decay_mult: 0
  }
  param {
    lr_mult: 0
    decay_mult: 0
  }
  bn_param {
    slope_filler {
      type: "constant"
      value: 1
    }
    bias_filler {
      type: "constant"
      value: 0
    }
    momentum: 0.95
    frozen: true
  }
}
layer {
  name: "conv2_2_3x3/relu"
  type: "ReLU"
  bottom: "conv2_2_3x3"
  top: "conv2_2_3x3"
}
layer {
  name: "conv2_2_1x1_increase"
  type: "Convolution"
  bottom: "conv2_2_3x3"
  top: "conv2_2_1x1_increase"
  param {
    lr_mult: 1
    decay_mult: 1
  }
  convolution_param {
    num_output: 256
    bias_term: false
    pad: 0
    kernel_size: 1
    stride: 1
    weight_filler {
      type: "msra"
    }
  }
}
layer {
  name: "conv2_2_1x1_increase/bn"
  type: "BN"
  bottom: "conv2_2_1x1_increase"
  top: "conv2_2_1x1_increase"
  param {
    lr_mult: 1
    decay_mult: 0
  }
  param {
    lr_mult: 1
    decay_mult: 0
  }
  param {
    lr_mult: 0
    decay_mult: 0
  }
  param {
    lr_mult: 0
    decay_mult: 0
  }
  bn_param {
    slope_filler {
      type: "constant"
      value: 1
    }
    bias_filler {
      type: "constant"
      value: 0
    }
    momentum: 0.95
    frozen: true
  }
}
layer {
  name: "conv2_2"
  type: "Eltwise"
  bottom: "conv2_1"
  bottom: "conv2_2_1x1_increase"
  top: "conv2_2"
  eltwise_param {
    operation: SUM
  }
}
layer {
  name: "conv2_2/relu"
  type: "ReLU"
  bottom: "conv2_2"
  top: "conv2_2"
}
layer {
  name: "conv2_3_1x1_reduce"
  type: "Convolution"
  bottom: "conv2_2"
  top: "conv2_3_1x1_reduce"
  param {
    lr_mult: 1
    decay_mult: 1
  }
  convolution_param {
    num_output: 64
    bias_term: false
    pad: 0
    kernel_size: 1
    stride: 1
    weight_filler {
      type: "msra"
    }
  }
}
layer {
  name: "conv2_3_1x1_reduce/bn"
  type: "BN"
  bottom: "conv2_3_1x1_reduce"
  top: "conv2_3_1x1_reduce"
  param {
    lr_mult: 1
    decay_mult: 0
  }
  param {
    lr_mult: 1
    decay_mult: 0
  }
  param {
    lr_mult: 0
    decay_mult: 0
  }
  param {
    lr_mult: 0
    decay_mult: 0
  }
  bn_param {
    slope_filler {
      type: "constant"
      value: 1
    }
    bias_filler {
      type: "constant"
      value: 0
    }
    momentum: 0.95
    frozen: true
  }
}
layer {
  name: "conv2_3_1x1_reduce/relu"
  type: "ReLU"
  bottom: "conv2_3_1x1_reduce"
  top: "conv2_3_1x1_reduce"
}
layer {
  name: "conv2_3_3x3"
  type: "Convolution"
  bottom: "conv2_3_1x1_reduce"
  top: "conv2_3_3x3"
  param {
    lr_mult: 1
    decay_mult: 1
  }
  convolution_param {
    num_output: 64
    bias_term: false
    pad: 1
    kernel_size: 3
    stride: 1
    weight_filler {
      type: "msra"
    }
  }
}
layer {
  name: "conv2_3_3x3/bn"
  type: "BN"
  bottom: "conv2_3_3x3"
  top: "conv2_3_3x3"
  param {
    lr_mult: 1
    decay_mult: 0
  }
  param {
    lr_mult: 1
    decay_mult: 0
  }
  param {
    lr_mult: 0
    decay_mult: 0
  }
  param {
    lr_mult: 0
    decay_mult: 0
  }
  bn_param {
    slope_filler {
      type: "constant"
      value: 1
    }
    bias_filler {
      type: "constant"
      value: 0
    }
    momentum: 0.95
    frozen: true
  }
}
layer {
  name: "conv2_3_3x3/relu"
  type: "ReLU"
  bottom: "conv2_3_3x3"
  top: "conv2_3_3x3"
}
layer {
  name: "conv2_3_1x1_increase"
  type: "Convolution"
  bottom: "conv2_3_3x3"
  top: "conv2_3_1x1_increase"
  param {
    lr_mult: 1
    decay_mult: 1
  }
  convolution_param {
    num_output: 256
    bias_term: false
    pad: 0
    kernel_size: 1
    stride: 1
    weight_filler {
      type: "msra"
    }
  }
}
layer {
  name: "conv2_3_1x1_increase/bn"
  type: "BN"
  bottom: "conv2_3_1x1_increase"
  top: "conv2_3_1x1_increase"
  param {
    lr_mult: 1
    decay_mult: 0
  }
  param {
    lr_mult: 1
    decay_mult: 0
  }
  param {
    lr_mult: 0
    decay_mult: 0
  }
  param {
    lr_mult: 0
    decay_mult: 0
  }
  bn_param {
    slope_filler {
      type: "constant"
      value: 1
    }
    bias_filler {
      type: "constant"
      value: 0
    }
    momentum: 0.95
    frozen: true
  }
}
layer {
  name: "conv2_3"
  type: "Eltwise"
  bottom: "conv2_2"
  bottom: "conv2_3_1x1_increase"
  top: "conv2_3"
  eltwise_param {
    operation: SUM
  }
}
layer {
  name: "conv2_3/relu"
  type: "ReLU"
  bottom: "conv2_3"
  top: "conv2_3"
}
layer {
  name: "conv3_1_1x1_reduce"
  type: "Convolution"
  bottom: "conv2_3"
  top: "conv3_1_1x1_reduce"
  param {
    lr_mult: 1
    decay_mult: 1
  }
  convolution_param {
    num_output: 128
    bias_term: false
    pad: 0
    kernel_size: 1
    stride: 1
    weight_filler {
      type: "msra"
    }
  }
}
layer {
  name: "conv3_1_1x1_reduce/bn"
  type: "BN"
  bottom: "conv3_1_1x1_reduce"
  top: "conv3_1_1x1_reduce"
  param {
    lr_mult: 1
    decay_mult: 0
  }
  param {
    lr_mult: 1
    decay_mult: 0
  }
  param {
    lr_mult: 0
    decay_mult: 0
  }
  param {
    lr_mult: 0
    decay_mult: 0
  }
  bn_param {
    slope_filler {
      type: "constant"
      value: 1
    }
    bias_filler {
      type: "constant"
      value: 0
    }
    momentum: 0.95
    frozen: true
  }
}
layer {
  name: "conv3_1_1x1_reduce/relu"
  type: "ReLU"
  bottom: "conv3_1_1x1_reduce"
  top: "conv3_1_1x1_reduce"
}
layer {
  name: "conv3_1_3x3"
  type: "Convolution"
  bottom: "conv3_1_1x1_reduce"
  top: "conv3_1_3x3"
  param {
    lr_mult: 1
    decay_mult: 1
  }
  convolution_param {
    num_output: 128
    bias_term: false
    pad: 1
    kernel_size: 3
    stride: 2
    weight_filler {
      type: "msra"
    }
  }
}
layer {
  name: "conv3_1_3x3/bn"
  type: "BN"
  bottom: "conv3_1_3x3"
  top: "conv3_1_3x3"
  param {
    lr_mult: 1
    decay_mult: 0
  }
  param {
    lr_mult: 1
    decay_mult: 0
  }
  param {
    lr_mult: 0
    decay_mult: 0
  }
  param {
    lr_mult: 0
    decay_mult: 0
  }
  bn_param {
    slope_filler {
      type: "constant"
      value: 1
    }
    bias_filler {
      type: "constant"
      value: 0
    }
    momentum: 0.95
    frozen: true
  }
}
layer {
  name: "conv3_1_3x3/relu"
  type: "ReLU"
  bottom: "conv3_1_3x3"
  top: "conv3_1_3x3"
}
layer {
  name: "conv3_1_1x1_increase"
  type: "Convolution"
  bottom: "conv3_1_3x3"
  top: "conv3_1_1x1_increase"
  param {
    lr_mult: 1
    decay_mult: 1
  }
  convolution_param {
    num_output: 512
    bias_term: false
    pad: 0
    kernel_size: 1
    stride: 1
    weight_filler {
      type: "msra"
    }
  }
}
layer {
  name: "conv3_1_1x1_increase/bn"
  type: "BN"
  bottom: "conv3_1_1x1_increase"
  top: "conv3_1_1x1_increase"
  param {
    lr_mult: 1
    decay_mult: 0
  }
  param {
    lr_mult: 1
    decay_mult: 0
  }
  param {
    lr_mult: 0
    decay_mult: 0
  }
  param {
    lr_mult: 0
    decay_mult: 0
  }
  bn_param {
    slope_filler {
      type: "constant"
      value: 1
    }
    bias_filler {
      type: "constant"
      value: 0
    }
    momentum: 0.95
    frozen: true
  }
}
layer {
  name: "conv3_1_1x1_proj"
  type: "Convolution"
  bottom: "conv2_3"
  top: "conv3_1_1x1_proj"
  param {
    lr_mult: 1
    decay_mult: 1
  }
  convolution_param {
    num_output: 512
    bias_term: false
    pad: 0
    kernel_size: 1
    stride: 2
    weight_filler {
      type: "msra"
    }
  }
}
layer {
  name: "conv3_1_1x1_proj/bn"
  type: "BN"
  bottom: "conv3_1_1x1_proj"
  top: "conv3_1_1x1_proj"
  param {
    lr_mult: 1
    decay_mult: 0
  }
  param {
    lr_mult: 1
    decay_mult: 0
  }
  param {
    lr_mult: 0
    decay_mult: 0
  }
  param {
    lr_mult: 0
    decay_mult: 0
  }
  bn_param {
    slope_filler {
      type: "constant"
      value: 1
    }
    bias_filler {
      type: "constant"
      value: 0
    }
    momentum: 0.95
    frozen: true
  }
}
layer {
  name: "conv3_1"
  type: "Eltwise"
  bottom: "conv3_1_1x1_proj"
  bottom: "conv3_1_1x1_increase"
  top: "conv3_1"
  eltwise_param {
    operation: SUM
  }
}
layer {
  name: "conv3_1/relu"
  type: "ReLU"
  bottom: "conv3_1"
  top: "conv3_1"
}
layer {
  name: "conv3_2_1x1_reduce"
  type: "Convolution"
  bottom: "conv3_1"
  top: "conv3_2_1x1_reduce"
  param {
    lr_mult: 1
    decay_mult: 1
  }
  convolution_param {
    num_output: 128
    bias_term: false
    pad: 0
    kernel_size: 1
    stride: 1
    weight_filler {
      type: "msra"
    }
  }
}
layer {
  name: "conv3_2_1x1_reduce/bn"
  type: "BN"
  bottom: "conv3_2_1x1_reduce"
  top: "conv3_2_1x1_reduce"
  param {
    lr_mult: 1
    decay_mult: 0
  }
  param {
    lr_mult: 1
    decay_mult: 0
  }
  param {
    lr_mult: 0
    decay_mult: 0
  }
  param {
    lr_mult: 0
    decay_mult: 0
  }
  bn_param {
    slope_filler {
      type: "constant"
      value: 1
    }
    bias_filler {
      type: "constant"
      value: 0
    }
    momentum: 0.95
    frozen: true
  }
}
layer {
  name: "conv3_2_1x1_reduce/relu"
  type: "ReLU"
  bottom: "conv3_2_1x1_reduce"
  top: "conv3_2_1x1_reduce"
}
layer {
  name: "conv3_2_3x3"
  type: "Convolution"
  bottom: "conv3_2_1x1_reduce"
  top: "conv3_2_3x3"
  param {
    lr_mult: 1
    decay_mult: 1
  }
  convolution_param {
    num_output: 128
    bias_term: false
    pad: 1
    kernel_size: 3
    stride: 1
    weight_filler {
      type: "msra"
    }
  }
}
layer {
  name: "conv3_2_3x3/bn"
  type: "BN"
  bottom: "conv3_2_3x3"
  top: "conv3_2_3x3"
  param {
    lr_mult: 1
    decay_mult: 0
  }
  param {
    lr_mult: 1
    decay_mult: 0
  }
  param {
    lr_mult: 0
    decay_mult: 0
  }
  param {
    lr_mult: 0
    decay_mult: 0
  }
  bn_param {
    slope_filler {
      type: "constant"
      value: 1
    }
    bias_filler {
      type: "constant"
      value: 0
    }
    momentum: 0.95
    frozen: true
  }
}
layer {
  name: "conv3_2_3x3/relu"
  type: "ReLU"
  bottom: "conv3_2_3x3"
  top: "conv3_2_3x3"
}
layer {
  name: "conv3_2_1x1_increase"
  type: "Convolution"
  bottom: "conv3_2_3x3"
  top: "conv3_2_1x1_increase"
  param {
    lr_mult: 1
    decay_mult: 1
  }
  convolution_param {
    num_output: 512
    bias_term: false
    pad: 0
    kernel_size: 1
    stride: 1
    weight_filler {
      type: "msra"
    }
  }
}
layer {
  name: "conv3_2_1x1_increase/bn"
  type: "BN"
  bottom: "conv3_2_1x1_increase"
  top: "conv3_2_1x1_increase"
  param {
    lr_mult: 1
    decay_mult: 0
  }
  param {
    lr_mult: 1
    decay_mult: 0
  }
  param {
    lr_mult: 0
    decay_mult: 0
  }
  param {
    lr_mult: 0
    decay_mult: 0
  }
  bn_param {
    slope_filler {
      type: "constant"
      value: 1
    }
    bias_filler {
      type: "constant"
      value: 0
    }
    momentum: 0.95
    frozen: true
  }
}
layer {
  name: "conv3_2"
  type: "Eltwise"
  bottom: "conv3_1"
  bottom: "conv3_2_1x1_increase"
  top: "conv3_2"
  eltwise_param {
    operation: SUM
  }
}
layer {
  name: "conv3_2/relu"
  type: "ReLU"
  bottom: "conv3_2"
  top: "conv3_2"
}
layer {
  name: "conv3_3_1x1_reduce"
  type: "Convolution"
  bottom: "conv3_2"
  top: "conv3_3_1x1_reduce"
  param {
    lr_mult: 1
    decay_mult: 1
  }
  convolution_param {
    num_output: 128
    bias_term: false
    pad: 0
    kernel_size: 1
    stride: 1
    weight_filler {
      type: "msra"
    }
  }
}
layer {
  name: "conv3_3_1x1_reduce/bn"
  type: "BN"
  bottom: "conv3_3_1x1_reduce"
  top: "conv3_3_1x1_reduce"
  param {
    lr_mult: 1
    decay_mult: 0
  }
  param {
    lr_mult: 1
    decay_mult: 0
  }
  param {
    lr_mult: 0
    decay_mult: 0
  }
  param {
    lr_mult: 0
    decay_mult: 0
  }
  bn_param {
    slope_filler {
      type: "constant"
      value: 1
    }
    bias_filler {
      type: "constant"
      value: 0
    }
    momentum: 0.95
    frozen: true
  }
}
layer {
  name: "conv3_3_1x1_reduce/relu"
  type: "ReLU"
  bottom: "conv3_3_1x1_reduce"
  top: "conv3_3_1x1_reduce"
}
layer {
  name: "conv3_3_3x3"
  type: "Convolution"
  bottom: "conv3_3_1x1_reduce"
  top: "conv3_3_3x3"
  param {
    lr_mult: 1
    decay_mult: 1
  }
  convolution_param {
    num_output: 128
    bias_term: false
    pad: 1
    kernel_size: 3
    stride: 1
    weight_filler {
      type: "msra"
    }
  }
}
layer {
  name: "conv3_3_3x3/bn"
  type: "BN"
  bottom: "conv3_3_3x3"
  top: "conv3_3_3x3"
  param {
    lr_mult: 1
    decay_mult: 0
  }
  param {
    lr_mult: 1
    decay_mult: 0
  }
  param {
    lr_mult: 0
    decay_mult: 0
  }
  param {
    lr_mult: 0
    decay_mult: 0
  }
  bn_param {
    slope_filler {
      type: "constant"
      value: 1
    }
    bias_filler {
      type: "constant"
      value: 0
    }
    momentum: 0.95
    frozen: true
  }
}
layer {
  name: "conv3_3_3x3/relu"
  type: "ReLU"
  bottom: "conv3_3_3x3"
  top: "conv3_3_3x3"
}
layer {
  name: "conv3_3_1x1_increase"
  type: "Convolution"
  bottom: "conv3_3_3x3"
  top: "conv3_3_1x1_increase"
  param {
    lr_mult: 1
    decay_mult: 1
  }
  convolution_param {
    num_output: 512
    bias_term: false
    pad: 0
    kernel_size: 1
    stride: 1
    weight_filler {
      type: "msra"
    }
  }
}
layer {
  name: "conv3_3_1x1_increase/bn"
  type: "BN"
  bottom: "conv3_3_1x1_increase"
  top: "conv3_3_1x1_increase"
  param {
    lr_mult: 1
    decay_mult: 0
  }
  param {
    lr_mult: 1
    decay_mult: 0
  }
  param {
    lr_mult: 0
    decay_mult: 0
  }
  param {
    lr_mult: 0
    decay_mult: 0
  }
  bn_param {
    slope_filler {
      type: "constant"
      value: 1
    }
    bias_filler {
      type: "constant"
      value: 0
    }
    momentum: 0.95
    frozen: true
  }
}
layer {
  name: "conv3_3"
  type: "Eltwise"
  bottom: "conv3_2"
  bottom: "conv3_3_1x1_increase"
  top: "conv3_3"
  eltwise_param {
    operation: SUM
  }
}
layer {
  name: "conv3_3/relu"
  type: "ReLU"
  bottom: "conv3_3"
  top: "conv3_3"
}
layer {
  name: "conv3_4_1x1_reduce"
  type: "Convolution"
  bottom: "conv3_3"
  top: "conv3_4_1x1_reduce"
  param {
    lr_mult: 1
    decay_mult: 1
  }
  convolution_param {
    num_output: 128
    bias_term: false
    pad: 0
    kernel_size: 1
    stride: 1
    weight_filler {
      type: "msra"
    }
  }
}
layer {
  name: "conv3_4_1x1_reduce/bn"
  type: "BN"
  bottom: "conv3_4_1x1_reduce"
  top: "conv3_4_1x1_reduce"
  param {
    lr_mult: 1
    decay_mult: 0
  }
  param {
    lr_mult: 1
    decay_mult: 0
  }
  param {
    lr_mult: 0
    decay_mult: 0
  }
  param {
    lr_mult: 0
    decay_mult: 0
  }
  bn_param {
    slope_filler {
      type: "constant"
      value: 1
    }
    bias_filler {
      type: "constant"
      value: 0
    }
    momentum: 0.95
    frozen: true
  }
}
layer {
  name: "conv3_4_1x1_reduce/relu"
  type: "ReLU"
  bottom: "conv3_4_1x1_reduce"
  top: "conv3_4_1x1_reduce"
}
layer {
  name: "conv3_4_3x3"
  type: "Convolution"
  bottom: "conv3_4_1x1_reduce"
  top: "conv3_4_3x3"
  param {
    lr_mult: 1
    decay_mult: 1
  }
  convolution_param {
    num_output: 128
    bias_term: false
    pad: 1
    kernel_size: 3
    stride: 1
    weight_filler {
      type: "msra"
    }
  }
}
layer {
  name: "conv3_4_3x3/bn"
  type: "BN"
  bottom: "conv3_4_3x3"
  top: "conv3_4_3x3"
  param {
    lr_mult: 1
    decay_mult: 0
  }
  param {
    lr_mult: 1
    decay_mult: 0
  }
  param {
    lr_mult: 0
    decay_mult: 0
  }
  param {
    lr_mult: 0
    decay_mult: 0
  }
  bn_param {
    slope_filler {
      type: "constant"
      value: 1
    }
    bias_filler {
      type: "constant"
      value: 0
    }
    momentum: 0.95
    frozen: true
  }
}
layer {
  name: "conv3_4_3x3/relu"
  type: "ReLU"
  bottom: "conv3_4_3x3"
  top: "conv3_4_3x3"
}
layer {
  name: "conv3_4_1x1_increase"
  type: "Convolution"
  bottom: "conv3_4_3x3"
  top: "conv3_4_1x1_increase"
  param {
    lr_mult: 1
    decay_mult: 1
  }
  convolution_param {
    num_output: 512
    bias_term: false
    pad: 0
    kernel_size: 1
    stride: 1
    weight_filler {
      type: "msra"
    }
  }
}
layer {
  name: "conv3_4_1x1_increase/bn"
  type: "BN"
  bottom: "conv3_4_1x1_increase"
  top: "conv3_4_1x1_increase"
  param {
    lr_mult: 1
    decay_mult: 0
  }
  param {
    lr_mult: 1
    decay_mult: 0
  }
  param {
    lr_mult: 0
    decay_mult: 0
  }
  param {
    lr_mult: 0
    decay_mult: 0
  }
  bn_param {
    slope_filler {
      type: "constant"
      value: 1
    }
    bias_filler {
      type: "constant"
      value: 0
    }
    momentum: 0.95
    frozen: true
  }
}
layer {
  name: "conv3_4"
  type: "Eltwise"
  bottom: "conv3_3"
  bottom: "conv3_4_1x1_increase"
  top: "conv3_4"
  eltwise_param {
    operation: SUM
  }
}
layer {
  name: "conv3_4/relu"
  type: "ReLU"
  bottom: "conv3_4"
  top: "conv3_4"
}
layer {
  name: "conv4_1_1x1_reduce"
  type: "Convolution"
  bottom: "conv3_4"
  top: "conv4_1_1x1_reduce"
  param {
    lr_mult: 1
    decay_mult: 1
  }
  convolution_param {
    num_output: 256
    bias_term: false
    pad: 0
    kernel_size: 1
    stride: 1
    weight_filler {
      type: "msra"
    }
  }
}
layer {
  name: "conv4_1_1x1_reduce/bn"
  type: "BN"
  bottom: "conv4_1_1x1_reduce"
  top: "conv4_1_1x1_reduce"
  param {
    lr_mult: 1
    decay_mult: 0
  }
  param {
    lr_mult: 1
    decay_mult: 0
  }
  param {
    lr_mult: 0
    decay_mult: 0
  }
  param {
    lr_mult: 0
    decay_mult: 0
  }
  bn_param {
    slope_filler {
      type: "constant"
      value: 1
    }
    bias_filler {
      type: "constant"
      value: 0
    }
    momentum: 0.95
    frozen: true
  }
}
layer {
  name: "conv4_1_1x1_reduce/relu"
  type: "ReLU"
  bottom: "conv4_1_1x1_reduce"
  top: "conv4_1_1x1_reduce"
}
layer {
  name: "conv4_1_3x3"
  type: "Convolution"
  bottom: "conv4_1_1x1_reduce"
  top: "conv4_1_3x3"
  param {
    lr_mult: 1
    decay_mult: 1
  }
  convolution_param {
    num_output: 256
    bias_term: false
    pad: 2
    kernel_size: 3
    stride: 1
    weight_filler {
      type: "msra"
    }
    dilation: 2
  }
}
layer {
  name: "conv4_1_3x3/bn"
  type: "BN"
  bottom: "conv4_1_3x3"
  top: "conv4_1_3x3"
  param {
    lr_mult: 1
    decay_mult: 0
  }
  param {
    lr_mult: 1
    decay_mult: 0
  }
  param {
    lr_mult: 0
    decay_mult: 0
  }
  param {
    lr_mult: 0
    decay_mult: 0
  }
  bn_param {
    slope_filler {
      type: "constant"
      value: 1
    }
    bias_filler {
      type: "constant"
      value: 0
    }
    momentum: 0.95
    frozen: true
  }
}
layer {
  name: "conv4_1_3x3/relu"
  type: "ReLU"
  bottom: "conv4_1_3x3"
  top: "conv4_1_3x3"
}
layer {
  name: "conv4_1_1x1_increase"
  type: "Convolution"
  bottom: "conv4_1_3x3"
  top: "conv4_1_1x1_increase"
  param {
    lr_mult: 1
    decay_mult: 1
  }
  convolution_param {
    num_output: 1024
    bias_term: false
    pad: 0
    kernel_size: 1
    stride: 1
    weight_filler {
      type: "msra"
    }
  }
}
layer {
  name: "conv4_1_1x1_increase/bn"
  type: "BN"
  bottom: "conv4_1_1x1_increase"
  top: "conv4_1_1x1_increase"
  param {
    lr_mult: 1
    decay_mult: 0
  }
  param {
    lr_mult: 1
    decay_mult: 0
  }
  param {
    lr_mult: 0
    decay_mult: 0
  }
  param {
    lr_mult: 0
    decay_mult: 0
  }
  bn_param {
    slope_filler {
      type: "constant"
      value: 1
    }
    bias_filler {
      type: "constant"
      value: 0
    }
    momentum: 0.95
    frozen: true
  }
}
layer {
  name: "conv4_1_1x1_proj"
  type: "Convolution"
  bottom: "conv3_4"
  top: "conv4_1_1x1_proj"
  param {
    lr_mult: 1
    decay_mult: 1
  }
  convolution_param {
    num_output: 1024
    bias_term: false
    pad: 0
    kernel_size: 1
    stride: 1
    weight_filler {
      type: "msra"
    }
  }
}
layer {
  name: "conv4_1_1x1_proj/bn"
  type: "BN"
  bottom: "conv4_1_1x1_proj"
  top: "conv4_1_1x1_proj"
  param {
    lr_mult: 1
    decay_mult: 0
  }
  param {
    lr_mult: 1
    decay_mult: 0
  }
  param {
    lr_mult: 0
    decay_mult: 0
  }
  param {
    lr_mult: 0
    decay_mult: 0
  }
  bn_param {
    slope_filler {
      type: "constant"
      value: 1
    }
    bias_filler {
      type: "constant"
      value: 0
    }
    momentum: 0.95
    frozen: true
  }
}
layer {
  name: "conv4_1"
  type: "Eltwise"
  bottom: "conv4_1_1x1_proj"
  bottom: "conv4_1_1x1_increase"
  top: "conv4_1"
  eltwise_param {
    operation: SUM
  }
}
layer {
  name: "conv4_1/relu"
  type: "ReLU"
  bottom: "conv4_1"
  top: "conv4_1"
}
layer {
  name: "conv4_2_1x1_reduce"
  type: "Convolution"
  bottom: "conv4_1"
  top: "conv4_2_1x1_reduce"
  param {
    lr_mult: 1
    decay_mult: 1
  }
  convolution_param {
    num_output: 256
    bias_term: false
    pad: 0
    kernel_size: 1
    stride: 1
    weight_filler {
      type: "msra"
    }
  }
}
layer {
  name: "conv4_2_1x1_reduce/bn"
  type: "BN"
  bottom: "conv4_2_1x1_reduce"
  top: "conv4_2_1x1_reduce"
  param {
    lr_mult: 1
    decay_mult: 0
  }
  param {
    lr_mult: 1
    decay_mult: 0
  }
  param {
    lr_mult: 0
    decay_mult: 0
  }
  param {
    lr_mult: 0
    decay_mult: 0
  }
  bn_param {
    slope_filler {
      type: "constant"
      value: 1
    }
    bias_filler {
      type: "constant"
      value: 0
    }
    momentum: 0.95
    frozen: true
  }
}
layer {
  name: "conv4_2_1x1_reduce/relu"
  type: "ReLU"
  bottom: "conv4_2_1x1_reduce"
  top: "conv4_2_1x1_reduce"
}
layer {
  name: "conv4_2_3x3"
  type: "Convolution"
  bottom: "conv4_2_1x1_reduce"
  top: "conv4_2_3x3"
  param {
    lr_mult: 1
    decay_mult: 1
  }
  convolution_param {
    num_output: 256
    bias_term: false
    pad: 2
    kernel_size: 3
    stride: 1
    weight_filler {
      type: "msra"
    }
    dilation: 2
  }
}
layer {
  name: "conv4_2_3x3/bn"
  type: "BN"
  bottom: "conv4_2_3x3"
  top: "conv4_2_3x3"
  param {
    lr_mult: 1
    decay_mult: 0
  }
  param {
    lr_mult: 1
    decay_mult: 0
  }
  param {
    lr_mult: 0
    decay_mult: 0
  }
  param {
    lr_mult: 0
    decay_mult: 0
  }
  bn_param {
    slope_filler {
      type: "constant"
      value: 1
    }
    bias_fille
I0620 04:26:52.303182  3057 layer_factory.hpp:77] Creating layer data
I0620 04:26:52.303212  3057 net.cpp:106] Creating Layer data
I0620 04:26:52.303218  3057 net.cpp:411] data -> data
I0620 04:26:52.303236  3057 net.cpp:411] data -> label
I0620 04:26:52.303244  3057 net.cpp:411] data -> (automatic)
I0620 04:26:52.303562  3057 image_seg_data_layer.cpp:46] Opening file exper/voc12/list/train_aug.txt
I0620 04:26:52.312579  3057 image_seg_data_layer.cpp:63] Shuffling data
I0620 04:26:52.316063  3057 image_seg_data_layer.cpp:68] A total of 10582 images.
I0620 04:26:52.334444  3057 image_seg_data_layer.cpp:137] output data size: 8,3,473,473
I0620 04:26:52.334461  3057 image_seg_data_layer.cpp:141] output label size: 8,1,473,473
I0620 04:26:52.334465  3057 image_seg_data_layer.cpp:145] output data_dim size: 8,1,1,2
I0620 04:26:52.451414  3057 net.cpp:150] Setting up data
I0620 04:26:52.451437  3057 net.cpp:157] Top shape: 8 3 473 473 (5369496)
I0620 04:26:52.451442  3057 net.cpp:157] Top shape: 8 1 473 473 (1789832)
I0620 04:26:52.451447  3057 net.cpp:157] Top shape: 8 1 1 2 (16)
I0620 04:26:52.451448  3057 net.cpp:165] Memory required for data: 28637376
I0620 04:26:52.451455  3057 layer_factory.hpp:77] Creating layer conv1_1_3x3_s2
I0620 04:26:52.451474  3057 net.cpp:106] Creating Layer conv1_1_3x3_s2
I0620 04:26:52.451479  3057 net.cpp:454] conv1_1_3x3_s2 <- data
I0620 04:26:52.451490  3057 net.cpp:411] conv1_1_3x3_s2 -> conv1_1_3x3_s2
I0620 04:26:52.452307  3057 net.cpp:150] Setting up conv1_1_3x3_s2
I0620 04:26:52.452328  3057 net.cpp:157] Top shape: 8 64 237 237 (28758528)
I0620 04:26:52.452332  3057 net.cpp:165] Memory required for data: 143671488
I0620 04:26:52.452352  3057 layer_factory.hpp:77] Creating layer conv1_1_3x3_s2/bn
I0620 04:26:52.452364  3057 net.cpp:106] Creating Layer conv1_1_3x3_s2/bn
I0620 04:26:52.452368  3057 net.cpp:454] conv1_1_3x3_s2/bn <- conv1_1_3x3_s2
I0620 04:26:52.452375  3057 net.cpp:397] conv1_1_3x3_s2/bn -> conv1_1_3x3_s2 (in-place)
I0620 04:26:52.462092  3057 net.cpp:150] Setting up conv1_1_3x3_s2/bn
I0620 04:26:52.462105  3057 net.cpp:157] Top shape: 8 64 237 237 (28758528)
I0620 04:26:52.462107  3057 net.cpp:165] Memory required for data: 258705600
I0620 04:26:52.462136  3057 layer_factory.hpp:77] Creating layer conv1_1_3x3_s2/relu
I0620 04:26:52.462142  3057 net.cpp:106] Creating Layer conv1_1_3x3_s2/relu
I0620 04:26:52.462146  3057 net.cpp:454] conv1_1_3x3_s2/relu <- conv1_1_3x3_s2
I0620 04:26:52.462149  3057 net.cpp:397] conv1_1_3x3_s2/relu -> conv1_1_3x3_s2 (in-place)
I0620 04:26:52.462159  3057 net.cpp:150] Setting up conv1_1_3x3_s2/relu
I0620 04:26:52.462162  3057 net.cpp:157] Top shape: 8 64 237 237 (28758528)
I0620 04:26:52.462165  3057 net.cpp:165] Memory required for data: 373739712
I0620 04:26:52.462168  3057 layer_factory.hpp:77] Creating layer conv1_2_3x3
I0620 04:26:52.462175  3057 net.cpp:106] Creating Layer conv1_2_3x3
I0620 04:26:52.462178  3057 net.cpp:454] conv1_2_3x3 <- conv1_1_3x3_s2
I0620 04:26:52.462182  3057 net.cpp:411] conv1_2_3x3 -> conv1_2_3x3
I0620 04:26:52.463104  3057 net.cpp:150] Setting up conv1_2_3x3
I0620 04:26:52.463109  3057 net.cpp:157] Top shape: 8 64 237 237 (28758528)
I0620 04:26:52.463112  3057 net.cpp:165] Memory required for data: 488773824
I0620 04:26:52.463116  3057 layer_factory.hpp:77] Creating layer conv1_2_3x3/bn
I0620 04:26:52.463121  3057 net.cpp:106] Creating Layer conv1_2_3x3/bn
I0620 04:26:52.463124  3057 net.cpp:454] conv1_2_3x3/bn <- conv1_2_3x3
I0620 04:26:52.463127  3057 net.cpp:397] conv1_2_3x3/bn -> conv1_2_3x3 (in-place)
I0620 04:26:52.463270  3057 net.cpp:150] Setting up conv1_2_3x3/bn
I0620 04:26:52.463274  3057 net.cpp:157] Top shape: 8 64 237 237 (28758528)
I0620 04:26:52.463277  3057 net.cpp:165] Memory required for data: 603807936
I0620 04:26:52.463284  3057 layer_factory.hpp:77] Creating layer conv1_2_3x3/relu
I0620 04:26:52.463289  3057 net.cpp:106] Creating Layer conv1_2_3x3/relu
I0620 04:26:52.463290  3057 net.cpp:454] conv1_2_3x3/relu <- conv1_2_3x3
I0620 04:26:52.463294  3057 net.cpp:397] conv1_2_3x3/relu -> conv1_2_3x3 (in-place)
I0620 04:26:52.463299  3057 net.cpp:150] Setting up conv1_2_3x3/relu
I0620 04:26:52.463301  3057 net.cpp:157] Top shape: 8 64 237 237 (28758528)
I0620 04:26:52.463304  3057 net.cpp:165] Memory required for data: 718842048
I0620 04:26:52.463306  3057 layer_factory.hpp:77] Creating layer conv1_3_3x3
I0620 04:26:52.463312  3057 net.cpp:106] Creating Layer conv1_3_3x3
I0620 04:26:52.463315  3057 net.cpp:454] conv1_3_3x3 <- conv1_2_3x3
I0620 04:26:52.463320  3057 net.cpp:411] conv1_3_3x3 -> conv1_3_3x3
I0620 04:26:52.465625  3057 net.cpp:150] Setting up conv1_3_3x3
I0620 04:26:52.465637  3057 net.cpp:157] Top shape: 8 128 237 237 (57517056)
I0620 04:26:52.465641  3057 net.cpp:165] Memory required for data: 948910272
I0620 04:26:52.465644  3057 layer_factory.hpp:77] Creating layer conv1_3_3x3/bn
I0620 04:26:52.465651  3057 net.cpp:106] Creating Layer conv1_3_3x3/bn
I0620 04:26:52.465654  3057 net.cpp:454] conv1_3_3x3/bn <- conv1_3_3x3
I0620 04:26:52.465658  3057 net.cpp:397] conv1_3_3x3/bn -> conv1_3_3x3 (in-place)
I0620 04:26:52.465847  3057 net.cpp:150] Setting up conv1_3_3x3/bn
I0620 04:26:52.465852  3057 net.cpp:157] Top shape: 8 128 237 237 (57517056)
I0620 04:26:52.465854  3057 net.cpp:165] Memory required for data: 1178978496
I0620 04:26:52.465859  3057 layer_factory.hpp:77] Creating layer conv1_3_3x3/relu
I0620 04:26:52.465864  3057 net.cpp:106] Creating Layer conv1_3_3x3/relu
I0620 04:26:52.465867  3057 net.cpp:454] conv1_3_3x3/relu <- conv1_3_3x3
I0620 04:26:52.465869  3057 net.cpp:397] conv1_3_3x3/relu -> conv1_3_3x3 (in-place)
I0620 04:26:52.465873  3057 net.cpp:150] Setting up conv1_3_3x3/relu
I0620 04:26:52.465875  3057 net.cpp:157] Top shape: 8 128 237 237 (57517056)
I0620 04:26:52.465878  3057 net.cpp:165] Memory required for data: 1409046720
I0620 04:26:52.465881  3057 layer_factory.hpp:77] Creating layer pool1_3x3_s2
I0620 04:26:52.465886  3057 net.cpp:106] Creating Layer pool1_3x3_s2
I0620 04:26:52.465889  3057 net.cpp:454] pool1_3x3_s2 <- conv1_3_3x3
I0620 04:26:52.465893  3057 net.cpp:411] pool1_3x3_s2 -> pool1_3x3_s2
I0620 04:26:52.465922  3057 net.cpp:150] Setting up pool1_3x3_s2
I0620 04:26:52.465939  3057 net.cpp:157] Top shape: 8 128 119 119 (14500864)
I0620 04:26:52.465941  3057 net.cpp:165] Memory required for data: 1467050176
I0620 04:26:52.465943  3057 layer_factory.hpp:77] Creating layer pool1_3x3_s2_pool1_3x3_s2_0_split
I0620 04:26:52.465952  3057 net.cpp:106] Creating Layer pool1_3x3_s2_pool1_3x3_s2_0_split
I0620 04:26:52.465955  3057 net.cpp:454] pool1_3x3_s2_pool1_3x3_s2_0_split <- pool1_3x3_s2
I0620 04:26:52.465957  3057 net.cpp:411] pool1_3x3_s2_pool1_3x3_s2_0_split -> pool1_3x3_s2_pool1_3x3_s2_0_split_0
I0620 04:26:52.465961  3057 net.cpp:411] pool1_3x3_s2_pool1_3x3_s2_0_split -> pool1_3x3_s2_pool1_3x3_s2_0_split_1
I0620 04:26:52.465981  3057 net.cpp:150] Setting up pool1_3x3_s2_pool1_3x3_s2_0_split
I0620 04:26:52.465986  3057 net.cpp:157] Top shape: 8 128 119 119 (14500864)
I0620 04:26:52.465988  3057 net.cpp:157] Top shape: 8 128 119 119 (14500864)
I0620 04:26:52.465991  3057 net.cpp:165] Memory required for data: 1583057088
I0620 04:26:52.465992  3057 layer_factory.hpp:77] Creating layer conv2_1_1x1_reduce
I0620 04:26:52.465998  3057 net.cpp:106] Creating Layer conv2_1_1x1_reduce
I0620 04:26:52.466001  3057 net.cpp:454] conv2_1_1x1_reduce <- pool1_3x3_s2_pool1_3x3_s2_0_split_0
I0620 04:26:52.466004  3057 net.cpp:411] conv2_1_1x1_reduce -> conv2_1_1x1_reduce
I0620 04:26:52.466897  3057 net.cpp:150] Setting up conv2_1_1x1_reduce
I0620 04:26:52.466907  3057 net.cpp:157] Top shape: 8 64 119 119 (7250432)
I0620 04:26:52.466909  3057 net.cpp:165] Memory required for data: 1612058816
I0620 04:26:52.466913  3057 layer_factory.hpp:77] Creating layer conv2_1_1x1_reduce/bn
I0620 04:26:52.466922  3057 net.cpp:106] Creating Layer conv2_1_1x1_reduce/bn
I0620 04:26:52.466925  3057 net.cpp:454] conv2_1_1x1_reduce/bn <- conv2_1_1x1_reduce
I0620 04:26:52.466929  3057 net.cpp:397] conv2_1_1x1_reduce/bn -> conv2_1_1x1_reduce (in-place)
I0620 04:26:52.467069  3057 net.cpp:150] Setting up conv2_1_1x1_reduce/bn
I0620 04:26:52.467075  3057 net.cpp:157] Top shape: 8 64 119 119 (7250432)
I0620 04:26:52.467077  3057 net.cpp:165] Memory required for data: 1641060544
I0620 04:26:52.467087  3057 layer_factory.hpp:77] Creating layer conv2_1_1x1_reduce/relu
I0620 04:26:52.467092  3057 net.cpp:106] Creating Layer conv2_1_1x1_reduce/relu
I0620 04:26:52.467095  3057 net.cpp:454] conv2_1_1x1_reduce/relu <- conv2_1_1x1_reduce
I0620 04:26:52.467099  3057 net.cpp:397] conv2_1_1x1_reduce/relu -> conv2_1_1x1_reduce (in-place)
I0620 04:26:52.467103  3057 net.cpp:150] Setting up conv2_1_1x1_reduce/relu
I0620 04:26:52.467106  3057 net.cpp:157] Top shape: 8 64 119 119 (7250432)
I0620 04:26:52.467109  3057 net.cpp:165] Memory required for data: 1670062272
I0620 04:26:52.467113  3057 layer_factory.hpp:77] Creating layer conv2_1_3x3
I0620 04:26:52.467118  3057 net.cpp:106] Creating Layer conv2_1_3x3
I0620 04:26:52.467120  3057 net.cpp:454] conv2_1_3x3 <- conv2_1_1x1_reduce
I0620 04:26:52.467124  3057 net.cpp:411] conv2_1_3x3 -> conv2_1_3x3
I0620 04:26:52.468432  3057 net.cpp:150] Setting up conv2_1_3x3
I0620 04:26:52.468482  3057 net.cpp:157] Top shape: 8 64 119 119 (7250432)
I0620 04:26:52.468488  3057 net.cpp:165] Memory required for data: 1699064000
I0620 04:26:52.468499  3057 layer_factory.hpp:77] Creating layer conv2_1_3x3/bn
I0620 04:26:52.468528  3057 net.cpp:106] Creating Layer conv2_1_3x3/bn
I0620 04:26:52.468533  3057 net.cpp:454] conv2_1_3x3/bn <- conv2_1_3x3
I0620 04:26:52.468546  3057 net.cpp:397] conv2_1_3x3/bn -> conv2_1_3x3 (in-place)
I0620 04:26:52.468819  3057 net.cpp:150] Setting up conv2_1_3x3/bn
I0620 04:26:52.468827  3057 net.cpp:157] Top shape: 8 64 119 119 (7250432)
I0620 04:26:52.468832  3057 net.cpp:165] Memory required for data: 1728065728
I0620 04:26:52.468839  3057 layer_factory.hpp:77] Creating layer conv2_1_3x3/relu
I0620 04:26:52.468852  3057 net.cpp:106] Creating Layer conv2_1_3x3/relu
I0620 04:26:52.468858  3057 net.cpp:454] conv2_1_3x3/relu <- conv2_1_3x3
I0620 04:26:52.468863  3057 net.cpp:397] conv2_1_3x3/relu -> conv2_1_3x3 (in-place)
I0620 04:26:52.468868  3057 net.cpp:150] Setting up conv2_1_3x3/relu
I0620 04:26:52.468945  3057 net.cpp:157] Top shape: 8 64 119 119 (7250432)
I0620 04:26:52.468948  3057 net.cpp:165] Memory required for data: 1757067456
I0620 04:26:52.468951  3057 layer_factory.hpp:77] Creating layer conv2_1_1x1_increase
I0620 04:26:52.468966  3057 net.cpp:106] Creating Layer conv2_1_1x1_increase
I0620 04:26:52.468971  3057 net.cpp:454] conv2_1_1x1_increase <- conv2_1_3x3
I0620 04:26:52.468978  3057 net.cpp:411] conv2_1_1x1_increase -> conv2_1_1x1_increase
I0620 04:26:52.469698  3057 net.cpp:150] Setting up conv2_1_1x1_increase
I0620 04:26:52.469705  3057 net.cpp:157] Top shape: 8 256 119 119 (29001728)
I0620 04:26:52.469708  3057 net.cpp:165] Memory required for data: 1873074368
I0620 04:26:52.469715  3057 layer_factory.hpp:77] Creating layer conv2_1_1x1_increase/bn
I0620 04:26:52.469727  3057 net.cpp:106] Creating Layer conv2_1_1x1_increase/bn
I0620 04:26:52.469729  3057 net.cpp:454] conv2_1_1x1_increase/bn <- conv2_1_1x1_increase
I0620 04:26:52.469738  3057 net.cpp:397] conv2_1_1x1_increase/bn -> conv2_1_1x1_increase (in-place)
I0620 04:26:52.469955  3057 net.cpp:150] Setting up conv2_1_1x1_increase/bn
I0620 04:26:52.469965  3057 net.cpp:157] Top shape: 8 256 119 119 (29001728)
I0620 04:26:52.469970  3057 net.cpp:165] Memory required for data: 1989081280
I0620 04:26:52.469980  3057 layer_factory.hpp:77] Creating layer conv2_1_1x1_proj
I0620 04:26:52.469991  3057 net.cpp:106] Creating Layer conv2_1_1x1_proj
I0620 04:26:52.469997  3057 net.cpp:454] conv2_1_1x1_proj <- pool1_3x3_s2_pool1_3x3_s2_0_split_1
I0620 04:26:52.470005  3057 net.cpp:411] conv2_1_1x1_proj -> conv2_1_1x1_proj
I0620 04:26:52.471233  3057 net.cpp:150] Setting up conv2_1_1x1_proj
I0620 04:26:52.471246  3057 net.cpp:157] Top shape: 8 256 119 119 (29001728)
I0620 04:26:52.471251  3057 net.cpp:165] Memory required for data: 2105088192
I0620 04:26:52.471257  3057 layer_factory.hpp:77] Creating layer conv2_1_1x1_proj/bn
I0620 04:26:52.471269  3057 net.cpp:106] Creating Layer conv2_1_1x1_proj/bn
I0620 04:26:52.471273  3057 net.cpp:454] conv2_1_1x1_proj/bn <- conv2_1_1x1_proj
I0620 04:26:52.471280  3057 net.cpp:397] conv2_1_1x1_proj/bn -> conv2_1_1x1_proj (in-place)
I0620 04:26:52.471479  3057 net.cpp:150] Setting up conv2_1_1x1_proj/bn
I0620 04:26:52.471487  3057 net.cpp:157] Top shape: 8 256 119 119 (29001728)
I0620 04:26:52.471491  3057 net.cpp:165] Memory required for data: 2221095104
I0620 04:26:52.471516  3057 layer_factory.hpp:77] Creating layer conv2_1
I0620 04:26:52.471552  3057 net.cpp:106] Creating Layer conv2_1
I0620 04:26:52.471559  3057 net.cpp:454] conv2_1 <- conv2_1_1x1_proj
I0620 04:26:52.471565  3057 net.cpp:454] conv2_1 <- conv2_1_1x1_increase
I0620 04:26:52.471571  3057 net.cpp:411] conv2_1 -> conv2_1
I0620 04:26:52.471626  3057 net.cpp:150] Setting up conv2_1
I0620 04:26:52.471632  3057 net.cpp:157] Top shape: 8 256 119 119 (29001728)
I0620 04:26:52.471637  3057 net.cpp:165] Memory required for data: 2337102016
I0620 04:26:52.471640  3057 layer_factory.hpp:77] Creating layer conv2_1/relu
I0620 04:26:52.471650  3057 net.cpp:106] Creating Layer conv2_1/relu
I0620 04:26:52.471655  3057 net.cpp:454] conv2_1/relu <- conv2_1
I0620 04:26:52.471660  3057 net.cpp:397] conv2_1/relu -> conv2_1 (in-place)
I0620 04:26:52.471668  3057 net.cpp:150] Setting up conv2_1/relu
I0620 04:26:52.471673  3057 net.cpp:157] Top shape: 8 256 119 119 (29001728)
I0620 04:26:52.471678  3057 net.cpp:165] Memory required for data: 2453108928
I0620 04:26:52.471681  3057 layer_factory.hpp:77] Creating layer conv2_1_conv2_1/relu_0_split
I0620 04:26:52.471693  3057 net.cpp:106] Creating Layer conv2_1_conv2_1/relu_0_split
I0620 04:26:52.471698  3057 net.cpp:454] conv2_1_conv2_1/relu_0_split <- conv2_1
I0620 04:26:52.471704  3057 net.cpp:411] conv2_1_conv2_1/relu_0_split -> conv2_1_conv2_1/relu_0_split_0
I0620 04:26:52.471711  3057 net.cpp:411] conv2_1_conv2_1/relu_0_split -> conv2_1_conv2_1/relu_0_split_1
I0620 04:26:52.471741  3057 net.cpp:150] Setting up conv2_1_conv2_1/relu_0_split
I0620 04:26:52.471747  3057 net.cpp:157] Top shape: 8 256 119 119 (29001728)
I0620 04:26:52.471803  3057 net.cpp:157] Top shape: 8 256 119 119 (29001728)
I0620 04:26:52.471808  3057 net.cpp:165] Memory required for data: 2685122752
I0620 04:26:52.471812  3057 layer_factory.hpp:77] Creating layer conv2_2_1x1_reduce
I0620 04:26:52.471827  3057 net.cpp:106] Creating Layer conv2_2_1x1_reduce
I0620 04:26:52.471830  3057 net.cpp:454] conv2_2_1x1_reduce <- conv2_1_conv2_1/relu_0_split_0
I0620 04:26:52.471838  3057 net.cpp:411] conv2_2_1x1_reduce -> conv2_2_1x1_reduce
I0620 04:26:52.472564  3057 net.cpp:150] Setting up conv2_2_1x1_reduce
I0620 04:26:52.472575  3057 net.cpp:157] Top shape: 8 64 119 119 (7250432)
I0620 04:26:52.472579  3057 net.cpp:165] Memory required for data: 2714124480
I0620 04:26:52.472586  3057 layer_factory.hpp:77] Creating layer conv2_2_1x1_reduce/bn
I0620 04:26:52.472596  3057 net.cpp:106] Creating Layer conv2_2_1x1_reduce/bn
I0620 04:26:52.472601  3057 net.cpp:454] conv2_2_1x1_reduce/bn <- conv2_2_1x1_reduce
I0620 04:26:52.472609  3057 net.cpp:397] conv2_2_1x1_reduce/bn -> conv2_2_1x1_reduce (in-place)
I0620 04:26:52.472839  3057 net.cpp:150] Setting up conv2_2_1x1_reduce/bn
I0620 04:26:52.472847  3057 net.cpp:157] Top shape: 8 64 119 119 (7250432)
I0620 04:26:52.472851  3057 net.cpp:165] Memory required for data: 2743126208
I0620 04:26:52.472860  3057 layer_factory.hpp:77] Creating layer conv2_2_1x1_reduce/relu
I0620 04:26:52.472870  3057 net.cpp:106] Creating Layer conv2_2_1x1_reduce/relu
I0620 04:26:52.472874  3057 net.cpp:454] conv2_2_1x1_reduce/relu <- conv2_2_1x1_reduce
I0620 04:26:52.472879  3057 net.cpp:397] conv2_2_1x1_reduce/relu -> conv2_2_1x1_reduce (in-place)
I0620 04:26:52.472885  3057 net.cpp:150] Setting up conv2_2_1x1_reduce/relu
I0620 04:26:52.472890  3057 net.cpp:157] Top shape: 8 64 119 119 (7250432)
I0620 04:26:52.472894  3057 net.cpp:165] Memory required for data: 2772127936
I0620 04:26:52.472899  3057 layer_factory.hpp:77] Creating layer conv2_2_3x3
I0620 04:26:52.472911  3057 net.cpp:106] Creating Layer conv2_2_3x3
I0620 04:26:52.472915  3057 net.cpp:454] conv2_2_3x3 <- conv2_2_1x1_reduce
I0620 04:26:52.472923  3057 net.cpp:411] conv2_2_3x3 -> conv2_2_3x3
I0620 04:26:52.474278  3057 net.cpp:150] Setting up conv2_2_3x3
I0620 04:26:52.474294  3057 net.cpp:157] Top shape: 8 64 119 119 (7250432)
I0620 04:26:52.474298  3057 net.cpp:165] Memory required for data: 2801129664
I0620 04:26:52.474305  3057 layer_factory.hpp:77] Creating layer conv2_2_3x3/bn
I0620 04:26:52.474320  3057 net.cpp:106] Creating Layer conv2_2_3x3/bn
I0620 04:26:52.474324  3057 net.cpp:454] conv2_2_3x3/bn <- conv2_2_3x3
I0620 04:26:52.474331  3057 net.cpp:397] conv2_2_3x3/bn -> conv2_2_3x3 (in-place)
I0620 04:26:52.474552  3057 net.cpp:150] Setting up conv2_2_3x3/bn
I0620 04:26:52.474560  3057 net.cpp:157] Top shape: 8 64 119 119 (7250432)
I0620 04:26:52.474565  3057 net.cpp:165] Memory required for data: 2830131392
I0620 04:26:52.474573  3057 layer_factory.hpp:77] Creating layer conv2_2_3x3/relu
I0620 04:26:52.474582  3057 net.cpp:106] Creating Layer conv2_2_3x3/relu
I0620 04:26:52.474587  3057 net.cpp:454] conv2_2_3x3/relu <- conv2_2_3x3
I0620 04:26:52.474593  3057 net.cpp:397] conv2_2_3x3/relu -> conv2_2_3x3 (in-place)
I0620 04:26:52.474601  3057 net.cpp:150] Setting up conv2_2_3x3/relu
I0620 04:26:52.474606  3057 net.cpp:157] Top shape: 8 64 119 119 (7250432)
I0620 04:26:52.474609  3057 net.cpp:165] Memory required for data: 2859133120
I0620 04:26:52.474613  3057 layer_factory.hpp:77] Creating layer conv2_2_1x1_increase
I0620 04:26:52.474623  3057 net.cpp:106] Creating Layer conv2_2_1x1_increase
I0620 04:26:52.474627  3057 net.cpp:454] conv2_2_1x1_increase <- conv2_2_3x3
I0620 04:26:52.474634  3057 net.cpp:411] conv2_2_1x1_increase -> conv2_2_1x1_increase
I0620 04:26:52.475312  3057 net.cpp:150] Setting up conv2_2_1x1_increase
I0620 04:26:52.475322  3057 net.cpp:157] Top shape: 8 256 119 119 (29001728)
I0620 04:26:52.475325  3057 net.cpp:165] Memory required for data: 2975140032
I0620 04:26:52.475332  3057 layer_factory.hpp:77] Creating layer conv2_2_1x1_increase/bn
I0620 04:26:52.475395  3057 net.cpp:106] Creating Layer conv2_2_1x1_increase/bn
I0620 04:26:52.475400  3057 net.cpp:454] conv2_2_1x1_increase/bn <- conv2_2_1x1_increase
I0620 04:26:52.475409  3057 net.cpp:397] conv2_2_1x1_increase/bn -> conv2_2_1x1_increase (in-place)
I0620 04:26:52.477851  3057 net.cpp:150] Setting up conv2_2_1x1_increase/bn
I0620 04:26:52.477933  3057 net.cpp:157] Top shape: 8 256 119 119 (29001728)
I0620 04:26:52.477941  3057 net.cpp:165] Memory required for data: 3091146944
I0620 04:26:52.477965  3057 layer_factory.hpp:77] Creating layer conv2_2
I0620 04:26:52.477988  3057 net.cpp:106] Creating Layer conv2_2
I0620 04:26:52.477998  3057 net.cpp:454] conv2_2 <- conv2_1_conv2_1/relu_0_split_1
I0620 04:26:52.478008  3057 net.cpp:454] conv2_2 <- conv2_2_1x1_increase
I0620 04:26:52.478015  3057 net.cpp:411] conv2_2 -> conv2_2
I0620 04:26:52.478801  3057 net.cpp:150] Setting up conv2_2
I0620 04:26:52.478814  3057 net.cpp:157] Top shape: 8 256 119 119 (29001728)
I0620 04:26:52.478818  3057 net.cpp:165] Memory required for data: 3207153856
I0620 04:26:52.478823  3057 layer_factory.hpp:77] Creating layer conv2_2/relu
I0620 04:26:52.478834  3057 net.cpp:106] Creating Layer conv2_2/relu
I0620 04:26:52.478840  3057 net.cpp:454] conv2_2/relu <- conv2_2
I0620 04:26:52.478989  3057 net.cpp:397] conv2_2/relu -> conv2_2 (in-place)
I0620 04:26:52.479004  3057 net.cpp:150] Setting up conv2_2/relu
I0620 04:26:52.479010  3057 net.cpp:157] Top shape: 8 256 119 119 (29001728)
I0620 04:26:52.479014  3057 net.cpp:165] Memory required for data: 3323160768
I0620 04:26:52.479018  3057 layer_factory.hpp:77] Creating layer conv2_2_conv2_2/relu_0_split
I0620 04:26:52.479029  3057 net.cpp:106] Creating Layer conv2_2_conv2_2/relu_0_split
I0620 04:26:52.479034  3057 net.cpp:454] conv2_2_conv2_2/relu_0_split <- conv2_2
I0620 04:26:52.479039  3057 net.cpp:411] conv2_2_conv2_2/relu_0_split -> conv2_2_conv2_2/relu_0_split_0
I0620 04:26:52.479046  3057 net.cpp:411] conv2_2_conv2_2/relu_0_split -> conv2_2_conv2_2/relu_0_split_1
I0620 04:26:52.479212  3057 net.cpp:150] Setting up conv2_2_conv2_2/relu_0_split
I0620 04:26:52.479219  3057 net.cpp:157] Top shape: 8 256 119 119 (29001728)
I0620 04:26:52.479224  3057 net.cpp:157] Top shape: 8 256 119 119 (29001728)
I0620 04:26:52.479228  3057 net.cpp:165] Memory required for data: 3555174592
I0620 04:26:52.479233  3057 layer_factory.hpp:77] Creating layer conv2_3_1x1_reduce
I0620 04:26:52.479585  3057 net.cpp:106] Creating Layer conv2_3_1x1_reduce
I0620 04:26:52.479593  3057 net.cpp:454] conv2_3_1x1_reduce <- conv2_2_conv2_2/relu_0_split_0
I0620 04:26:52.481876  3057 net.cpp:411] conv2_3_1x1_reduce -> conv2_3_1x1_reduce
I0620 04:26:52.483527  3057 net.cpp:150] Setting up conv2_3_1x1_reduce
I0620 04:26:52.483574  3057 net.cpp:157] Top shape: 8 64 119 119 (7250432)
I0620 04:26:52.483580  3057 net.cpp:165] Memory required for data: 3584176320
I0620 04:26:52.483589  3057 layer_factory.hpp:77] Creating layer conv2_3_1x1_reduce/bn
I0620 04:26:52.483602  3057 net.cpp:106] Creating Layer conv2_3_1x1_reduce/bn
I0620 04:26:52.483605  3057 net.cpp:454] conv2_3_1x1_reduce/bn <- conv2_3_1x1_reduce
I0620 04:26:52.483636  3057 net.cpp:397] conv2_3_1x1_reduce/bn -> conv2_3_1x1_reduce (in-place)
I0620 04:26:52.483863  3057 net.cpp:150] Setting up conv2_3_1x1_reduce/bn
I0620 04:26:52.483871  3057 net.cpp:157] Top shape: 8 64 119 119 (7250432)
I0620 04:26:52.483875  3057 net.cpp:165] Memory required for data: 3613178048
I0620 04:26:52.483882  3057 layer_factory.hpp:77] Creating layer conv2_3_1x1_reduce/relu
I0620 04:26:52.483892  3057 net.cpp:106] Creating Layer conv2_3_1x1_reduce/relu
I0620 04:26:52.483896  3057 net.cpp:454] conv2_3_1x1_reduce/relu <- conv2_3_1x1_reduce
I0620 04:26:52.483901  3057 net.cpp:397] conv2_3_1x1_reduce/relu -> conv2_3_1x1_reduce (in-place)
I0620 04:26:52.483907  3057 net.cpp:150] Setting up conv2_3_1x1_reduce/relu
I0620 04:26:52.483912  3057 net.cpp:157] Top shape: 8 64 119 119 (7250432)
I0620 04:26:52.483916  3057 net.cpp:165] Memory required for data: 3642179776
I0620 04:26:52.483919  3057 layer_factory.hpp:77] Creating layer conv2_3_3x3
I0620 04:26:52.483968  3057 net.cpp:106] Creating Layer conv2_3_3x3
I0620 04:26:52.483973  3057 net.cpp:454] conv2_3_3x3 <- conv2_3_1x1_reduce
I0620 04:26:52.483978  3057 net.cpp:411] conv2_3_3x3 -> conv2_3_3x3
I0620 04:26:52.484974  3057 net.cpp:150] Setting up conv2_3_3x3
I0620 04:26:52.484985  3057 net.cpp:157] Top shape: 8 64 119 119 (7250432)
I0620 04:26:52.484989  3057 net.cpp:165] Memory required for data: 3671181504
I0620 04:26:52.484997  3057 layer_factory.hpp:77] Creating layer conv2_3_3x3/bn
I0620 04:26:52.485008  3057 net.cpp:106] Creating Layer conv2_3_3x3/bn
I0620 04:26:52.485011  3057 net.cpp:454] conv2_3_3x3/bn <- conv2_3_3x3
I0620 04:26:52.485018  3057 net.cpp:397] conv2_3_3x3/bn -> conv2_3_3x3 (in-place)
I0620 04:26:52.485198  3057 net.cpp:150] Setting up conv2_3_3x3/bn
I0620 04:26:52.485204  3057 net.cpp:157] Top shape: 8 64 119 119 (7250432)
I0620 04:26:52.485208  3057 net.cpp:165] Memory required for data: 3700183232
I0620 04:26:52.485213  3057 layer_factory.hpp:77] Creating layer conv2_3_3x3/relu
I0620 04:26:52.485221  3057 net.cpp:106] Creating Layer conv2_3_3x3/relu
I0620 04:26:52.485224  3057 net.cpp:454] conv2_3_3x3/relu <- conv2_3_3x3
I0620 04:26:52.485229  3057 net.cpp:397] conv2_3_3x3/relu -> conv2_3_3x3 (in-place)
I0620 04:26:52.485235  3057 net.cpp:150] Setting up conv2_3_3x3/relu
I0620 04:26:52.485239  3057 net.cpp:157] Top shape: 8 64 119 119 (7250432)
I0620 04:26:52.485242  3057 net.cpp:165] Memory required for data: 3729184960
I0620 04:26:52.485245  3057 layer_factory.hpp:77] Creating layer conv2_3_1x1_increase
I0620 04:26:52.485252  3057 net.cpp:106] Creating Layer conv2_3_1x1_increase
I0620 04:26:52.485256  3057 net.cpp:454] conv2_3_1x1_increase <- conv2_3_3x3
I0620 04:26:52.485266  3057 net.cpp:411] conv2_3_1x1_increase -> conv2_3_1x1_increase
I0620 04:26:52.485790  3057 net.cpp:150] Setting up conv2_3_1x1_increase
I0620 04:26:52.485796  3057 net.cpp:157] Top shape: 8 256 119 119 (29001728)
I0620 04:26:52.485800  3057 net.cpp:165] Memory required for data: 3845191872
I0620 04:26:52.485805  3057 layer_factory.hpp:77] Creating layer conv2_3_1x1_increase/bn
I0620 04:26:52.485813  3057 net.cpp:106] Creating Layer conv2_3_1x1_increase/bn
I0620 04:26:52.485817  3057 net.cpp:454] conv2_3_1x1_increase/bn <- conv2_3_1x1_increase
I0620 04:26:52.485821  3057 net.cpp:397] conv2_3_1x1_increase/bn -> conv2_3_1x1_increase (in-place)
I0620 04:26:52.485949  3057 net.cpp:150] Setting up conv2_3_1x1_increase/bn
I0620 04:26:52.485954  3057 net.cpp:157] Top shape: 8 256 119 119 (29001728)
I0620 04:26:52.485957  3057 net.cpp:165] Memory required for data: 3961198784
I0620 04:26:52.485972  3057 layer_factory.hpp:77] Creating layer conv2_3
I0620 04:26:52.485983  3057 net.cpp:106] Creating Layer conv2_3
I0620 04:26:52.485987  3057 net.cpp:454] conv2_3 <- conv2_2_conv2_2/relu_0_split_1
I0620 04:26:52.485991  3057 net.cpp:454] conv2_3 <- conv2_3_1x1_increase
I0620 04:26:52.485996  3057 net.cpp:411] conv2_3 -> conv2_3
I0620 04:26:52.486016  3057 net.cpp:150] Setting up conv2_3
I0620 04:26:52.486021  3057 net.cpp:157] Top shape: 8 256 119 119 (29001728)
I0620 04:26:52.486024  3057 net.cpp:165] Memory required for data: 4077205696
I0620 04:26:52.486028  3057 layer_factory.hpp:77] Creating layer conv2_3/relu
I0620 04:26:52.486034  3057 net.cpp:106] Creating Layer conv2_3/relu
I0620 04:26:52.486037  3057 net.cpp:454] conv2_3/relu <- conv2_3
I0620 04:26:52.486042  3057 net.cpp:397] conv2_3/relu -> conv2_3 (in-place)
I0620 04:26:52.486047  3057 net.cpp:150] Setting up conv2_3/relu
I0620 04:26:52.486052  3057 net.cpp:157] Top shape: 8 256 119 119 (29001728)
I0620 04:26:52.486054  3057 net.cpp:165] Memory required for data: 4193212608
I0620 04:26:52.486057  3057 layer_factory.hpp:77] Creating layer conv2_3_conv2_3/relu_0_split
I0620 04:26:52.486063  3057 net.cpp:106] Creating Layer conv2_3_conv2_3/relu_0_split
I0620 04:26:52.486065  3057 net.cpp:454] conv2_3_conv2_3/relu_0_split <- conv2_3
I0620 04:26:52.486070  3057 net.cpp:411] conv2_3_conv2_3/relu_0_split -> conv2_3_conv2_3/relu_0_split_0
I0620 04:26:52.486086  3057 net.cpp:411] conv2_3_conv2_3/relu_0_split -> conv2_3_conv2_3/relu_0_split_1
I0620 04:26:52.486110  3057 net.cpp:150] Setting up conv2_3_conv2_3/relu_0_split
I0620 04:26:52.486114  3057 net.cpp:157] Top shape: 8 256 119 119 (29001728)
I0620 04:26:52.486119  3057 net.cpp:157] Top shape: 8 256 119 119 (29001728)
I0620 04:26:52.486121  3057 net.cpp:165] Memory required for data: 4425226432
I0620 04:26:52.486125  3057 layer_factory.hpp:77] Creating layer conv3_1_1x1_reduce
I0620 04:26:52.486133  3057 net.cpp:106] Creating Layer conv3_1_1x1_reduce
I0620 04:26:52.486136  3057 net.cpp:454] conv3_1_1x1_reduce <- conv2_3_conv2_3/relu_0_split_0
I0620 04:26:52.486143  3057 net.cpp:411] conv3_1_1x1_reduce -> conv3_1_1x1_reduce
I0620 04:26:52.486994  3057 net.cpp:150] Setting up conv3_1_1x1_reduce
I0620 04:26:52.486999  3057 net.cpp:157] Top shape: 8 128 119 119 (14500864)
I0620 04:26:52.487002  3057 net.cpp:165] Memory required for data: 4483229888
I0620 04:26:52.487007  3057 layer_factory.hpp:77] Creating layer conv3_1_1x1_reduce/bn
I0620 04:26:52.487012  3057 net.cpp:106] Creating Layer conv3_1_1x1_reduce/bn
I0620 04:26:52.487016  3057 net.cpp:454] conv3_1_1x1_reduce/bn <- conv3_1_1x1_reduce
I0620 04:26:52.487021  3057 net.cpp:397] conv3_1_1x1_reduce/bn -> conv3_1_1x1_reduce (in-place)
I0620 04:26:52.487150  3057 net.cpp:150] Setting up conv3_1_1x1_reduce/bn
I0620 04:26:52.487155  3057 net.cpp:157] Top shape: 8 128 119 119 (14500864)
I0620 04:26:52.487159  3057 net.cpp:165] Memory required for data: 4541233344
I0620 04:26:52.487165  3057 layer_factory.hpp:77] Creating layer conv3_1_1x1_reduce/relu
I0620 04:26:52.487170  3057 net.cpp:106] Creating Layer conv3_1_1x1_reduce/relu
I0620 04:26:52.487174  3057 net.cpp:454] conv3_1_1x1_reduce/relu <- conv3_1_1x1_reduce
I0620 04:26:52.487179  3057 net.cpp:397] conv3_1_1x1_reduce/relu -> conv3_1_1x1_reduce (in-place)
I0620 04:26:52.487184  3057 net.cpp:150] Setting up conv3_1_1x1_reduce/relu
I0620 04:26:52.487187  3057 net.cpp:157] Top shape: 8 128 119 119 (14500864)
I0620 04:26:52.487190  3057 net.cpp:165] Memory required for data: 4599236800
I0620 04:26:52.487193  3057 layer_factory.hpp:77] Creating layer conv3_1_3x3
I0620 04:26:52.487200  3057 net.cpp:106] Creating Layer conv3_1_3x3
I0620 04:26:52.487202  3057 net.cpp:454] conv3_1_3x3 <- conv3_1_1x1_reduce
I0620 04:26:52.487206  3057 net.cpp:411] conv3_1_3x3 -> conv3_1_3x3
I0620 04:26:52.491911  3057 net.cpp:150] Setting up conv3_1_3x3
I0620 04:26:52.491950  3057 net.cpp:157] Top shape: 8 128 60 60 (3686400)
I0620 04:26:52.491955  3057 net.cpp:165] Memory required for data: 4613982400
I0620 04:26:52.491964  3057 layer_factory.hpp:77] Creating layer conv3_1_3x3/bn
I0620 04:26:52.491983  3057 net.cpp:106] Creating Layer conv3_1_3x3/bn
I0620 04:26:52.491991  3057 net.cpp:454] conv3_1_3x3/bn <- conv3_1_3x3
I0620 04:26:52.491999  3057 net.cpp:397] conv3_1_3x3/bn -> conv3_1_3x3 (in-place)
I0620 04:26:52.492173  3057 net.cpp:150] Setting up conv3_1_3x3/bn
I0620 04:26:52.492180  3057 net.cpp:157] Top shape: 8 128 60 60 (3686400)
I0620 04:26:52.492184  3057 net.cpp:165] Memory required for data: 4628728000
I0620 04:26:52.492192  3057 layer_factory.hpp:77] Creating layer conv3_1_3x3/relu
I0620 04:26:52.492200  3057 net.cpp:106] Creating Layer conv3_1_3x3/relu
I0620 04:26:52.492203  3057 net.cpp:454] conv3_1_3x3/relu <- conv3_1_3x3
I0620 04:26:52.492209  3057 net.cpp:397] conv3_1_3x3/relu -> conv3_1_3x3 (in-place)
I0620 04:26:52.492215  3057 net.cpp:150] Setting up conv3_1_3x3/relu
I0620 04:26:52.492219  3057 net.cpp:157] Top shape: 8 128 60 60 (3686400)
I0620 04:26:52.492223  3057 net.cpp:165] Memory required for data: 4643473600
I0620 04:26:52.492226  3057 layer_factory.hpp:77] Creating layer conv3_1_1x1_increase
I0620 04:26:52.492234  3057 net.cpp:106] Creating Layer conv3_1_1x1_increase
I0620 04:26:52.492238  3057 net.cpp:454] conv3_1_1x1_increase <- conv3_1_3x3
I0620 04:26:52.492244  3057 net.cpp:411] conv3_1_1x1_increase -> conv3_1_1x1_increase
I0620 04:26:52.493983  3057 net.cpp:150] Setting up conv3_1_1x1_increase
I0620 04:26:52.494076  3057 net.cpp:157] Top shape: 8 512 60 60 (14745600)
I0620 04:26:52.494081  3057 net.cpp:165] Memory required for data: 4702456000
I0620 04:26:52.494089  3057 layer_factory.hpp:77] Creating layer conv3_1_1x1_increase/bn
I0620 04:26:52.494105  3057 net.cpp:106] Creating Layer conv3_1_1x1_increase/bn
I0620 04:26:52.494112  3057 net.cpp:454] conv3_1_1x1_increase/bn <- conv3_1_1x1_increase
I0620 04:26:52.494119  3057 net.cpp:397] conv3_1_1x1_increase/bn -> conv3_1_1x1_increase (in-place)
I0620 04:26:52.495450  3057 net.cpp:150] Setting up conv3_1_1x1_increase/bn
I0620 04:26:52.495468  3057 net.cpp:157] Top shape: 8 512 60 60 (14745600)
I0620 04:26:52.495473  3057 net.cpp:165] Memory required for data: 4761438400
I0620 04:26:52.495481  3057 layer_factory.hpp:77] Creating layer conv3_1_1x1_proj
I0620 04:26:52.495496  3057 net.cpp:106] Creating Layer conv3_1_1x1_proj
I0620 04:26:52.495499  3057 net.cpp:454] conv3_1_1x1_proj <- conv2_3_conv2_3/relu_0_split_1
I0620 04:26:52.495507  3057 net.cpp:411] conv3_1_1x1_proj -> conv3_1_1x1_proj
I0620 04:26:52.498632  3057 net.cpp:150] Setting up conv3_1_1x1_proj
I0620 04:26:52.498641  3057 net.cpp:157] Top shape: 8 512 60 60 (14745600)
I0620 04:26:52.498643  3057 net.cpp:165] Memory required for data: 4820420800
I0620 04:26:52.498648  3057 layer_factory.hpp:77] Creating layer conv3_1_1x1_proj/bn
I0620 04:26:52.498654  3057 net.cpp:106] Creating Layer conv3_1_1x1_proj/bn
I0620 04:26:52.498657  3057 net.cpp:454] conv3_1_1x1_proj/bn <- conv3_1_1x1_proj
I0620 04:26:52.498663  3057 net.cpp:397] conv3_1_1x1_proj/bn -> conv3_1_1x1_proj (in-place)
I0620 04:26:52.498791  3057 net.cpp:150] Setting up conv3_1_1x1_proj/bn
I0620 04:26:52.498798  3057 net.cpp:157] Top shape: 8 512 60 60 (14745600)
I0620 04:26:52.498803  3057 net.cpp:165] Memory required for data: 4879403200
I0620 04:26:52.498809  3057 layer_factory.hpp:77] Creating layer conv3_1
I0620 04:26:52.498818  3057 net.cpp:106] Creating Layer conv3_1
I0620 04:26:52.498822  3057 net.cpp:454] conv3_1 <- conv3_1_1x1_proj
I0620 04:26:52.498826  3057 net.cpp:454] conv3_1 <- conv3_1_1x1_increase
I0620 04:26:52.498831  3057 net.cpp:411] conv3_1 -> conv3_1
I0620 04:26:52.498855  3057 net.cpp:150] Setting up conv3_1
I0620 04:26:52.498862  3057 net.cpp:157] Top shape: 8 512 60 60 (14745600)
I0620 04:26:52.498864  3057 net.cpp:165] Memory required for data: 4938385600
I0620 04:26:52.498867  3057 layer_factory.hpp:77] Creating layer conv3_1/relu
I0620 04:26:52.498878  3057 net.cpp:106] Creating Layer conv3_1/relu
I0620 04:26:52.498881  3057 net.cpp:454] conv3_1/relu <- conv3_1
I0620 04:26:52.498886  3057 net.cpp:397] conv3_1/relu -> conv3_1 (in-place)
I0620 04:26:52.498893  3057 net.cpp:150] Setting up conv3_1/relu
I0620 04:26:52.498898  3057 net.cpp:157] Top shape: 8 512 60 60 (14745600)
I0620 04:26:52.498901  3057 net.cpp:165] Memory required for data: 4997368000
I0620 04:26:52.498906  3057 layer_factory.hpp:77] Creating layer conv3_1_conv3_1/relu_0_split
I0620 04:26:52.498915  3057 net.cpp:106] Creating Layer conv3_1_conv3_1/relu_0_split
I0620 04:26:52.498917  3057 net.cpp:454] conv3_1_conv3_1/relu_0_split <- conv3_1
I0620 04:26:52.498925  3057 net.cpp:411] conv3_1_conv3_1/relu_0_split -> conv3_1_conv3_1/relu_0_split_0
I0620 04:26:52.498931  3057 net.cpp:411] conv3_1_conv3_1/relu_0_split -> conv3_1_conv3_1/relu_0_split_1
I0620 04:26:52.498956  3057 net.cpp:150] Setting up conv3_1_conv3_1/relu_0_split
I0620 04:26:52.498961  3057 net.cpp:157] Top shape: 8 512 60 60 (14745600)
I0620 04:26:52.498965  3057 net.cpp:157] Top shape: 8 512 60 60 (14745600)
I0620 04:26:52.498968  3057 net.cpp:165] Memory required for data: 5115332800
I0620 04:26:52.498971  3057 layer_factory.hpp:77] Creating layer conv3_2_1x1_reduce
I0620 04:26:52.498980  3057 net.cpp:106] Creating Layer conv3_2_1x1_reduce
I0620 04:26:52.498983  3057 net.cpp:454] conv3_2_1x1_reduce <- conv3_1_conv3_1/relu_0_split_0
I0620 04:26:52.498988  3057 net.cpp:411] conv3_2_1x1_reduce -> conv3_2_1x1_reduce
I0620 04:26:52.500655  3057 net.cpp:150] Setting up conv3_2_1x1_reduce
I0620 04:26:52.500697  3057 net.cpp:157] Top shape: 8 128 60 60 (3686400)
I0620 04:26:52.500701  3057 net.cpp:165] Memory required for data: 5130078400
I0620 04:26:52.500711  3057 layer_factory.hpp:77] Creating layer conv3_2_1x1_reduce/bn
I0620 04:26:52.500721  3057 net.cpp:106] Creating Layer conv3_2_1x1_reduce/bn
I0620 04:26:52.500725  3057 net.cpp:454] conv3_2_1x1_reduce/bn <- conv3_2_1x1_reduce
I0620 04:26:52.500733  3057 net.cpp:397] conv3_2_1x1_reduce/bn -> conv3_2_1x1_reduce (in-place)
I0620 04:26:52.500906  3057 net.cpp:150] Setting up conv3_2_1x1_reduce/bn
I0620 04:26:52.500913  3057 net.cpp:157] Top shape: 8 128 60 60 (3686400)
I0620 04:26:52.500917  3057 net.cpp:165] Memory required for data: 5144824000
I0620 04:26:52.500926  3057 layer_factory.hpp:77] Creating layer conv3_2_1x1_reduce/relu
I0620 04:26:52.500937  3057 net.cpp:106] Creating Layer conv3_2_1x1_reduce/relu
I0620 04:26:52.500941  3057 net.cpp:454] conv3_2_1x1_reduce/relu <- conv3_2_1x1_reduce
I0620 04:26:52.500946  3057 net.cpp:397] conv3_2_1x1_reduce/relu -> conv3_2_1x1_reduce (in-place)
I0620 04:26:52.500952  3057 net.cpp:150] Setting up conv3_2_1x1_reduce/relu
I0620 04:26:52.500955  3057 net.cpp:157] Top shape: 8 128 60 60 (3686400)
I0620 04:26:52.500959  3057 net.cpp:165] Memory required for data: 5159569600
I0620 04:26:52.500962  3057 layer_factory.hpp:77] Creating layer conv3_2_3x3
I0620 04:26:52.500972  3057 net.cpp:106] Creating Layer conv3_2_3x3
I0620 04:26:52.500975  3057 net.cpp:454] conv3_2_3x3 <- conv3_2_1x1_reduce
I0620 04:26:52.500980  3057 net.cpp:411] conv3_2_3x3 -> conv3_2_3x3
I0620 04:26:52.504515  3057 net.cpp:150] Setting up conv3_2_3x3
I0620 04:26:52.504531  3057 net.cpp:157] Top shape: 8 128 60 60 (3686400)
I0620 04:26:52.511219  3057 net.cpp:165] Memory required for data: 5174315200
I0620 04:26:52.511240  3057 layer_factory.hpp:77] Creating layer conv3_2_3x3/bn
I0620 04:26:52.511265  3057 net.cpp:106] Creating Layer conv3_2_3x3/bn
I0620 04:26:52.511270  3057 net.cpp:454] conv3_2_3x3/bn <- conv3_2_3x3
I0620 04:26:52.511277  3057 net.cpp:397] conv3_2_3x3/bn -> conv3_2_3x3 (in-place)
I0620 04:26:52.511513  3057 net.cpp:150] Setting up conv3_2_3x3/bn
I0620 04:26:52.511519  3057 net.cpp:157] Top shape: 8 128 60 60 (3686400)
I0620 04:26:52.511523  3057 net.cpp:165] Memory required for data: 5189060800
I0620 04:26:52.511528  3057 layer_factory.hpp:77] Creating layer conv3_2_3x3/relu
I0620 04:26:52.511535  3057 net.cpp:106] Creating Layer conv3_2_3x3/relu
I0620 04:26:52.511538  3057 net.cpp:454] conv3_2_3x3/relu <- conv3_2_3x3
I0620 04:26:52.511543  3057 net.cpp:397] conv3_2_3x3/relu -> conv3_2_3x3 (in-place)
I0620 04:26:52.511548  3057 net.cpp:150] Setting up conv3_2_3x3/relu
I0620 04:26:52.511550  3057 net.cpp:157] Top shape: 8 128 60 60 (3686400)
I0620 04:26:52.511554  3057 net.cpp:165] Memory required for data: 5203806400
I0620 04:26:52.511555  3057 layer_factory.hpp:77] Creating layer conv3_2_1x1_increase
I0620 04:26:52.511564  3057 net.cpp:106] Creating Layer conv3_2_1x1_increase
I0620 04:26:52.511565  3057 net.cpp:454] conv3_2_1x1_increase <- conv3_2_3x3
I0620 04:26:52.511575  3057 net.cpp:411] conv3_2_1x1_increase -> conv3_2_1x1_increase
I0620 04:26:52.513834  3057 net.cpp:150] Setting up conv3_2_1x1_increase
I0620 04:26:52.513849  3057 net.cpp:157] Top shape: 8 512 60 60 (14745600)
I0620 04:26:52.513852  3057 net.cpp:165] Memory required for data: 5262788800
I0620 04:26:52.513859  3057 layer_factory.hpp:77] Creating layer conv3_2_1x1_increase/bn
I0620 04:26:52.513866  3057 net.cpp:106] Creating Layer conv3_2_1x1_increase/bn
I0620 04:26:52.513871  3057 net.cpp:454] conv3_2_1x1_increase/bn <- conv3_2_1x1_increase
I0620 04:26:52.513876  3057 net.cpp:397] conv3_2_1x1_increase/bn -> conv3_2_1x1_increase (in-place)
I0620 04:26:52.514041  3057 net.cpp:150] Setting up conv3_2_1x1_increase/bn
I0620 04:26:52.514048  3057 net.cpp:157] Top shape: 8 512 60 60 (14745600)
I0620 04:26:52.514051  3057 net.cpp:165] Memory required for data: 5321771200
I0620 04:26:52.514058  3057 layer_factory.hpp:77] Creating layer conv3_2
I0620 04:26:52.514093  3057 net.cpp:106] Creating Layer conv3_2
I0620 04:26:52.514097  3057 net.cpp:454] conv3_2 <- conv3_1_conv3_1/relu_0_split_1
I0620 04:26:52.514101  3057 net.cpp:454] conv3_2 <- conv3_2_1x1_increase
I0620 04:26:52.514106  3057 net.cpp:411] conv3_2 -> conv3_2
I0620 04:26:52.514138  3057 net.cpp:150] Setting up conv3_2
I0620 04:26:52.514142  3057 net.cpp:157] Top shape: 8 512 60 60 (14745600)
I0620 04:26:52.514145  3057 net.cpp:165] Memory required for data: 5380753600
I0620 04:26:52.514147  3057 layer_factory.hpp:77] Creating layer conv3_2/relu
I0620 04:26:52.514158  3057 net.cpp:106] Creating Layer conv3_2/relu
I0620 04:26:52.514160  3057 net.cpp:454] conv3_2/relu <- conv3_2
I0620 04:26:52.514164  3057 net.cpp:397] conv3_2/relu -> conv3_2 (in-place)
I0620 04:26:52.514168  3057 net.cpp:150] Setting up conv3_2/relu
I0620 04:26:52.514173  3057 net.cpp:157] Top shape: 8 512 60 60 (14745600)
I0620 04:26:52.514174  3057 net.cpp:165] Memory required for data: 5439736000
I0620 04:26:52.514178  3057 layer_factory.hpp:77] Creating layer conv3_2_conv3_2/relu_0_split
I0620 04:26:52.514183  3057 net.cpp:106] Creating Layer conv3_2_conv3_2/relu_0_split
I0620 04:26:52.514186  3057 net.cpp:454] conv3_2_conv3_2/relu_0_split <- conv3_2
I0620 04:26:52.514191  3057 net.cpp:411] conv3_2_conv3_2/relu_0_split -> conv3_2_conv3_2/relu_0_split_0
I0620 04:26:52.514195  3057 net.cpp:411] conv3_2_conv3_2/relu_0_split -> conv3_2_conv3_2/relu_0_split_1
I0620 04:26:52.514220  3057 net.cpp:150] Setting up conv3_2_conv3_2/relu_0_split
I0620 04:26:52.514225  3057 net.cpp:157] Top shape: 8 512 60 60 (14745600)
I0620 04:26:52.514228  3057 net.cpp:157] Top shape: 8 512 60 60 (14745600)
I0620 04:26:52.514230  3057 net.cpp:165] Memory required for data: 5557700800
I0620 04:26:52.514235  3057 layer_factory.hpp:77] Creating layer conv3_3_1x1_reduce
I0620 04:26:52.514241  3057 net.cpp:106] Creating Layer conv3_3_1x1_reduce
I0620 04:26:52.514245  3057 net.cpp:454] conv3_3_1x1_reduce <- conv3_2_conv3_2/relu_0_split_0
I0620 04:26:52.514250  3057 net.cpp:411] conv3_3_1x1_reduce -> conv3_3_1x1_reduce
I0620 04:26:52.515924  3057 net.cpp:150] Setting up conv3_3_1x1_reduce
I0620 04:26:52.515964  3057 net.cpp:157] Top shape: 8 128 60 60 (3686400)
I0620 04:26:52.515967  3057 net.cpp:165] Memory required for data: 5572446400
I0620 04:26:52.515975  3057 layer_factory.hpp:77] Creating layer conv3_3_1x1_reduce/bn
I0620 04:26:52.515992  3057 net.cpp:106] Creating Layer conv3_3_1x1_reduce/bn
I0620 04:26:52.515996  3057 net.cpp:454] conv3_3_1x1_reduce/bn <- conv3_3_1x1_reduce
I0620 04:26:52.516005  3057 net.cpp:397] conv3_3_1x1_reduce/bn -> conv3_3_1x1_reduce (in-place)
I0620 04:26:52.516166  3057 net.cpp:150] Setting up conv3_3_1x1_reduce/bn
I0620 04:26:52.516171  3057 net.cpp:157] Top shape: 8 128 60 60 (3686400)
I0620 04:26:52.516175  3057 net.cpp:165] Memory required for data: 5587192000
I0620 04:26:52.516180  3057 layer_factory.hpp:77] Creating layer conv3_3_1x1_reduce/relu
I0620 04:26:52.516186  3057 net.cpp:106] Creating Layer conv3_3_1x1_reduce/relu
I0620 04:26:52.516188  3057 net.cpp:454] conv3_3_1x1_reduce/relu <- conv3_3_1x1_reduce
I0620 04:26:52.516192  3057 net.cpp:397] conv3_3_1x1_reduce/relu -> conv3_3_1x1_reduce (in-place)
I0620 04:26:52.516196  3057 net.cpp:150] Setting up conv3_3_1x1_reduce/relu
I0620 04:26:52.516199  3057 net.cpp:157] Top shape: 8 128 60 60 (3686400)
I0620 04:26:52.516201  3057 net.cpp:165] Memory required for data: 5601937600
I0620 04:26:52.516204  3057 layer_factory.hpp:77] Creating layer conv3_3_3x3
I0620 04:26:52.516212  3057 net.cpp:106] Creating Layer conv3_3_3x3
I0620 04:26:52.516214  3057 net.cpp:454] conv3_3_3x3 <- conv3_3_1x1_reduce
I0620 04:26:52.516219  3057 net.cpp:411] conv3_3_3x3 -> conv3_3_3x3
I0620 04:26:52.522428  3057 net.cpp:150] Setting up conv3_3_3x3
I0620 04:26:52.522488  3057 net.cpp:157] Top shape: 8 128 60 60 (3686400)
I0620 04:26:52.522495  3057 net.cpp:165] Memory required for data: 5616683200
I0620 04:26:52.522509  3057 layer_factory.hpp:77] Creating layer conv3_3_3x3/bn
I0620 04:26:52.522536  3057 net.cpp:106] Creating Layer conv3_3_3x3/bn
I0620 04:26:52.522584  3057 net.cpp:454] conv3_3_3x3/bn <- conv3_3_3x3
I0620 04:26:52.522595  3057 net.cpp:397] conv3_3_3x3/bn -> conv3_3_3x3 (in-place)
I0620 04:26:52.522830  3057 net.cpp:150] Setting up conv3_3_3x3/bn
I0620 04:26:52.522841  3057 net.cpp:157] Top shape: 8 128 60 60 (3686400)
I0620 04:26:52.522845  3057 net.cpp:165] Memory required for data: 5631428800
I0620 04:26:52.522853  3057 layer_factory.hpp:77] Creating layer conv3_3_3x3/relu
I0620 04:26:52.522862  3057 net.cpp:106] Creating Layer conv3_3_3x3/relu
I0620 04:26:52.522867  3057 net.cpp:454] conv3_3_3x3/relu <- conv3_3_3x3
I0620 04:26:52.522872  3057 net.cpp:397] conv3_3_3x3/relu -> conv3_3_3x3 (in-place)
I0620 04:26:52.522879  3057 net.cpp:150] Setting up conv3_3_3x3/relu
I0620 04:26:52.522884  3057 net.cpp:157] Top shape: 8 128 60 60 (3686400)
I0620 04:26:52.522888  3057 net.cpp:165] Memory required for data: 5646174400
I0620 04:26:52.522892  3057 layer_factory.hpp:77] Creating layer conv3_3_1x1_increase
I0620 04:26:52.522905  3057 net.cpp:106] Creating Layer conv3_3_1x1_increase
I0620 04:26:52.522909  3057 net.cpp:454] conv3_3_1x1_increase <- conv3_3_3x3
I0620 04:26:52.522918  3057 net.cpp:411] conv3_3_1x1_increase -> conv3_3_1x1_increase
I0620 04:26:52.525207  3057 net.cpp:150] Setting up conv3_3_1x1_increase
I0620 04:26:52.525234  3057 net.cpp:157] Top shape: 8 512 60 60 (14745600)
I0620 04:26:52.525239  3057 net.cpp:165] Memory required for data: 5705156800
I0620 04:26:52.525248  3057 layer_factory.hpp:77] Creating layer conv3_3_1x1_increase/bn
I0620 04:26:52.525261  3057 net.cpp:106] Creating Layer conv3_3_1x1_increase/bn
I0620 04:26:52.525267  3057 net.cpp:454] conv3_3_1x1_increase/bn <- conv3_3_1x1_increase
I0620 04:26:52.525275  3057 net.cpp:397] conv3_3_1x1_increase/bn -> conv3_3_1x1_increase (in-place)
I0620 04:26:52.525493  3057 net.cpp:150] Setting up conv3_3_1x1_increase/bn
I0620 04:26:52.525501  3057 net.cpp:157] Top shape: 8 512 60 60 (14745600)
I0620 04:26:52.525506  3057 net.cpp:165] Memory required for data: 5764139200
I0620 04:26:52.525514  3057 layer_factory.hpp:77] Creating layer conv3_3
I0620 04:26:52.525523  3057 net.cpp:106] Creating Layer conv3_3
I0620 04:26:52.525528  3057 net.cpp:454] conv3_3 <- conv3_2_conv3_2/relu_0_split_1
I0620 04:26:52.525533  3057 net.cpp:454] conv3_3 <- conv3_3_1x1_increase
I0620 04:26:52.525540  3057 net.cpp:411] conv3_3 -> conv3_3
I0620 04:26:52.525568  3057 net.cpp:150] Setting up conv3_3
I0620 04:26:52.525576  3057 net.cpp:157] Top shape: 8 512 60 60 (14745600)
I0620 04:26:52.525580  3057 net.cpp:165] Memory required for data: 5823121600
I0620 04:26:52.525584  3057 layer_factory.hpp:77] Creating layer conv3_3/relu
I0620 04:26:52.525591  3057 net.cpp:106] Creating Layer conv3_3/relu
I0620 04:26:52.525596  3057 net.cpp:454] conv3_3/relu <- conv3_3
I0620 04:26:52.525601  3057 net.cpp:397] conv3_3/relu -> conv3_3 (in-place)
I0620 04:26:52.525607  3057 net.cpp:150] Setting up conv3_3/relu
I0620 04:26:52.525612  3057 net.cpp:157] Top shape: 8 512 60 60 (14745600)
I0620 04:26:52.525617  3057 net.cpp:165] Memory required for data: 5882104000
I0620 04:26:52.525621  3057 layer_factory.hpp:77] Creating layer conv3_3_conv3_3/relu_0_split
I0620 04:26:52.525627  3057 net.cpp:106] Creating Layer conv3_3_conv3_3/relu_0_split
I0620 04:26:52.525631  3057 net.cpp:454] conv3_3_conv3_3/relu_0_split <- conv3_3
I0620 04:26:52.525638  3057 net.cpp:411] conv3_3_conv3_3/relu_0_split -> conv3_3_conv3_3/relu_0_split_0
I0620 04:26:52.525645  3057 net.cpp:411] conv3_3_conv3_3/relu_0_split -> conv3_3_conv3_3/relu_0_split_1
I0620 04:26:52.525674  3057 net.cpp:150] Setting up conv3_3_conv3_3/relu_0_split
I0620 04:26:52.525681  3057 net.cpp:157] Top shape: 8 512 60 60 (14745600)
I0620 04:26:52.525686  3057 net.cpp:157] Top shape: 8 512 60 60 (14745600)
I0620 04:26:52.525689  3057 net.cpp:165] Memory required for data: 6000068800
I0620 04:26:52.525693  3057 layer_factory.hpp:77] Creating layer conv3_4_1x1_reduce
I0620 04:26:52.525704  3057 net.cpp:106] Creating Layer conv3_4_1x1_reduce
I0620 04:26:52.525770  3057 net.cpp:454] conv3_4_1x1_reduce <- conv3_3_conv3_3/relu_0_split_0
I0620 04:26:52.525779  3057 net.cpp:411] conv3_4_1x1_reduce -> conv3_4_1x1_reduce
I0620 04:26:52.528309  3057 net.cpp:150] Setting up conv3_4_1x1_reduce
I0620 04:26:52.528393  3057 net.cpp:157] Top shape: 8 128 60 60 (3686400)
I0620 04:26:52.528400  3057 net.cpp:165] Memory required for data: 6014814400
I0620 04:26:52.528419  3057 layer_factory.hpp:77] Creating layer conv3_4_1x1_reduce/bn
I0620 04:26:52.528451  3057 net.cpp:106] Creating Layer conv3_4_1x1_reduce/bn
I0620 04:26:52.528462  3057 net.cpp:454] conv3_4_1x1_reduce/bn <- conv3_4_1x1_reduce
I0620 04:26:52.528478  3057 net.cpp:397] conv3_4_1x1_reduce/bn -> conv3_4_1x1_reduce (in-place)
I0620 04:26:52.528786  3057 net.cpp:150] Setting up conv3_4_1x1_reduce/bn
I0620 04:26:52.528795  3057 net.cpp:157] Top shape: 8 128 60 60 (3686400)
I0620 04:26:52.528801  3057 net.cpp:165] Memory required for data: 6029560000
I0620 04:26:52.528812  3057 layer_factory.hpp:77] Creating layer conv3_4_1x1_reduce/relu
I0620 04:26:52.528827  3057 net.cpp:106] Creating Layer conv3_4_1x1_reduce/relu
I0620 04:26:52.528831  3057 net.cpp:454] conv3_4_1x1_reduce/relu <- conv3_4_1x1_reduce
I0620 04:26:52.528836  3057 net.cpp:397] conv3_4_1x1_reduce/relu -> conv3_4_1x1_reduce (in-place)
I0620 04:26:52.528844  3057 net.cpp:150] Setting up conv3_4_1x1_reduce/relu
I0620 04:26:52.528851  3057 net.cpp:157] Top shape: 8 128 60 60 (3686400)
I0620 04:26:52.528854  3057 net.cpp:165] Memory required for data: 6044305600
I0620 04:26:52.528857  3057 layer_factory.hpp:77] Creating layer conv3_4_3x3
I0620 04:26:52.528872  3057 net.cpp:106] Creating Layer conv3_4_3x3
I0620 04:26:52.528877  3057 net.cpp:454] conv3_4_3x3 <- conv3_4_1x1_reduce
I0620 04:26:52.528884  3057 net.cpp:411] conv3_4_3x3 -> conv3_4_3x3
I0620 04:26:52.534131  3057 net.cpp:150] Setting up conv3_4_3x3
I0620 04:26:52.534174  3057 net.cpp:157] Top shape: 8 128 60 60 (3686400)
I0620 04:26:52.534178  3057 net.cpp:165] Memory required for data: 6059051200
I0620 04:26:52.534189  3057 layer_factory.hpp:77] Creating layer conv3_4_3x3/bn
I0620 04:26:52.534204  3057 net.cpp:106] Creating Layer conv3_4_3x3/bn
I0620 04:26:52.534212  3057 net.cpp:454] conv3_4_3x3/bn <- conv3_4_3x3
I0620 04:26:52.534222  3057 net.cpp:397] conv3_4_3x3/bn -> conv3_4_3x3 (in-place)
I0620 04:26:52.534409  3057 net.cpp:150] Setting up conv3_4_3x3/bn
I0620 04:26:52.534416  3057 net.cpp:157] Top shape: 8 128 60 60 (3686400)
I0620 04:26:52.534420  3057 net.cpp:165] Memory required for data: 6073796800
I0620 04:26:52.534425  3057 layer_factory.hpp:77] Creating layer conv3_4_3x3/relu
I0620 04:26:52.534431  3057 net.cpp:106] Creating Layer conv3_4_3x3/relu
I0620 04:26:52.534433  3057 net.cpp:454] conv3_4_3x3/relu <- conv3_4_3x3
I0620 04:26:52.534436  3057 net.cpp:397] conv3_4_3x3/relu -> conv3_4_3x3 (in-place)
I0620 04:26:52.534441  3057 net.cpp:150] Setting up conv3_4_3x3/relu
I0620 04:26:52.534445  3057 net.cpp:157] Top shape: 8 128 60 60 (3686400)
I0620 04:26:52.534446  3057 net.cpp:165] Memory required for data: 6088542400
I0620 04:26:52.534449  3057 layer_factory.hpp:77] Creating layer conv3_4_1x1_increase
I0620 04:26:52.534457  3057 net.cpp:106] Creating Layer conv3_4_1x1_increase
I0620 04:26:52.534459  3057 net.cpp:454] conv3_4_1x1_increase <- conv3_4_3x3
I0620 04:26:52.534466  3057 net.cpp:411] conv3_4_1x1_increase -> conv3_4_1x1_increase
I0620 04:26:52.536123  3057 net.cpp:150] Setting up conv3_4_1x1_increase
I0620 04:26:52.536128  3057 net.cpp:157] Top shape: 8 512 60 60 (14745600)
I0620 04:26:52.536130  3057 net.cpp:165] Memory required for data: 6147524800
I0620 04:26:52.536134  3057 layer_factory.hpp:77] Creating layer conv3_4_1x1_increase/bn
I0620 04:26:52.536139  3057 net.cpp:106] Creating Layer conv3_4_1x1_increase/bn
I0620 04:26:52.536141  3057 net.cpp:454] conv3_4_1x1_increase/bn <- conv3_4_1x1_increase
I0620 04:26:52.536145  3057 net.cpp:397] conv3_4_1x1_increase/bn -> conv3_4_1x1_increase (in-place)
I0620 04:26:52.536270  3057 net.cpp:150] Setting up conv3_4_1x1_increase/bn
I0620 04:26:52.536286  3057 net.cpp:157] Top shape: 8 512 60 60 (14745600)
I0620 04:26:52.536289  3057 net.cpp:165] Memory required for data: 6206507200
I0620 04:26:52.536308  3057 layer_factory.hpp:77] Creating layer conv3_4
I0620 04:26:52.536314  3057 net.cpp:106] Creating Layer conv3_4
I0620 04:26:52.536317  3057 net.cpp:454] conv3_4 <- conv3_3_conv3_3/relu_0_split_1
I0620 04:26:52.536320  3057 net.cpp:454] conv3_4 <- conv3_4_1x1_increase
I0620 04:26:52.536324  3057 net.cpp:411] conv3_4 -> conv3_4
I0620 04:26:52.536344  3057 net.cpp:150] Setting up conv3_4
I0620 04:26:52.536348  3057 net.cpp:157] Top shape: 8 512 60 60 (14745600)
I0620 04:26:52.536350  3057 net.cpp:165] Memory required for data: 6265489600
I0620 04:26:52.536353  3057 layer_factory.hpp:77] Creating layer conv3_4/relu
I0620 04:26:52.536357  3057 net.cpp:106] Creating Layer conv3_4/relu
I0620 04:26:52.536360  3057 net.cpp:454] conv3_4/relu <- conv3_4
I0620 04:26:52.536365  3057 net.cpp:397] conv3_4/relu -> conv3_4 (in-place)
I0620 04:26:52.536368  3057 net.cpp:150] Setting up conv3_4/relu
I0620 04:26:52.536371  3057 net.cpp:157] Top shape: 8 512 60 60 (14745600)
I0620 04:26:52.536375  3057 net.cpp:165] Memory required for data: 6324472000
I0620 04:26:52.536377  3057 layer_factory.hpp:77] Creating layer conv3_4_conv3_4/relu_0_split
I0620 04:26:52.536381  3057 net.cpp:106] Creating Layer conv3_4_conv3_4/relu_0_split
I0620 04:26:52.536384  3057 net.cpp:454] conv3_4_conv3_4/relu_0_split <- conv3_4
I0620 04:26:52.536387  3057 net.cpp:411] conv3_4_conv3_4/relu_0_split -> conv3_4_conv3_4/relu_0_split_0
I0620 04:26:52.536393  3057 net.cpp:411] conv3_4_conv3_4/relu_0_split -> conv3_4_conv3_4/relu_0_split_1
I0620 04:26:52.536417  3057 net.cpp:150] Setting up conv3_4_conv3_4/relu_0_split
I0620 04:26:52.536420  3057 net.cpp:157] Top shape: 8 512 60 60 (14745600)
I0620 04:26:52.536423  3057 net.cpp:157] Top shape: 8 512 60 60 (14745600)
I0620 04:26:52.536427  3057 net.cpp:165] Memory required for data: 6442436800
I0620 04:26:52.536428  3057 layer_factory.hpp:77] Creating layer conv4_1_1x1_reduce
I0620 04:26:52.536435  3057 net.cpp:106] Creating Layer conv4_1_1x1_reduce
I0620 04:26:52.542002  3057 net.cpp:454] conv4_1_1x1_reduce <- conv3_4_conv3_4/relu_0_split_0
I0620 04:26:52.542062  3057 net.cpp:411] conv4_1_1x1_reduce -> conv4_1_1x1_reduce
I0620 04:26:52.545681  3057 net.cpp:150] Setting up conv4_1_1x1_reduce
I0620 04:26:52.545699  3057 net.cpp:157] Top shape: 8 256 60 60 (7372800)
I0620 04:26:52.545703  3057 net.cpp:165] Memory required for data: 6471928000
I0620 04:26:52.545711  3057 layer_factory.hpp:77] Creating layer conv4_1_1x1_reduce/bn
I0620 04:26:52.545719  3057 net.cpp:106] Creating Layer conv4_1_1x1_reduce/bn
I0620 04:26:52.545723  3057 net.cpp:454] conv4_1_1x1_reduce/bn <- conv4_1_1x1_reduce
I0620 04:26:52.545730  3057 net.cpp:397] conv4_1_1x1_reduce/bn -> conv4_1_1x1_reduce (in-place)
I0620 04:26:52.545892  3057 net.cpp:150] Setting up conv4_1_1x1_reduce/bn
I0620 04:26:52.545898  3057 net.cpp:157] Top shape: 8 256 60 60 (7372800)
I0620 04:26:52.545902  3057 net.cpp:165] Memory required for data: 6501419200
I0620 04:26:52.545909  3057 layer_factory.hpp:77] Creating layer conv4_1_1x1_reduce/relu
I0620 04:26:52.545914  3057 net.cpp:106] Creating Layer conv4_1_1x1_reduce/relu
I0620 04:26:52.545918  3057 net.cpp:454] conv4_1_1x1_reduce/relu <- conv4_1_1x1_reduce
I0620 04:26:52.545924  3057 net.cpp:397] conv4_1_1x1_reduce/relu -> conv4_1_1x1_reduce (in-place)
I0620 04:26:52.545929  3057 net.cpp:150] Setting up conv4_1_1x1_reduce/relu
I0620 04:26:52.545934  3057 net.cpp:157] Top shape: 8 256 60 60 (7372800)
I0620 04:26:52.545938  3057 net.cpp:165] Memory required for data: 6530910400
I0620 04:26:52.545940  3057 layer_factory.hpp:77] Creating layer conv4_1_3x3
I0620 04:26:52.545948  3057 net.cpp:106] Creating Layer conv4_1_3x3
I0620 04:26:52.545950  3057 net.cpp:454] conv4_1_3x3 <- conv4_1_1x1_reduce
I0620 04:26:52.545955  3057 net.cpp:411] conv4_1_3x3 -> conv4_1_3x3
I0620 04:26:52.563788  3057 net.cpp:150] Setting up conv4_1_3x3
I0620 04:26:52.563812  3057 net.cpp:157] Top shape: 8 256 60 60 (7372800)
I0620 04:26:52.563832  3057 net.cpp:165] Memory required for data: 6560401600
I0620 04:26:52.563843  3057 layer_factory.hpp:77] Creating layer conv4_1_3x3/bn
I0620 04:26:52.563855  3057 net.cpp:106] Creating Layer conv4_1_3x3/bn
I0620 04:26:52.563860  3057 net.cpp:454] conv4_1_3x3/bn <- conv4_1_3x3
I0620 04:26:52.563866  3057 net.cpp:397] conv4_1_3x3/bn -> conv4_1_3x3 (in-place)
I0620 04:26:52.564023  3057 net.cpp:150] Setting up conv4_1_3x3/bn
I0620 04:26:52.564028  3057 net.cpp:157] Top shape: 8 256 60 60 (7372800)
I0620 04:26:52.564031  3057 net.cpp:165] Memory required for data: 6589892800
I0620 04:26:52.564038  3057 layer_factory.hpp:77] Creating layer conv4_1_3x3/relu
I0620 04:26:52.564043  3057 net.cpp:106] Creating Layer conv4_1_3x3/relu
I0620 04:26:52.564047  3057 net.cpp:454] conv4_1_3x3/relu <- conv4_1_3x3
I0620 04:26:52.564052  3057 net.cpp:397] conv4_1_3x3/relu -> conv4_1_3x3 (in-place)
I0620 04:26:52.564057  3057 net.cpp:150] Setting up conv4_1_3x3/relu
I0620 04:26:52.564061  3057 net.cpp:157] Top shape: 8 256 60 60 (7372800)
I0620 04:26:52.564064  3057 net.cpp:165] Memory required for data: 6619384000
I0620 04:26:52.564069  3057 layer_factory.hpp:77] Creating layer conv4_1_1x1_increase
I0620 04:26:52.564075  3057 net.cpp:106] Creating Layer conv4_1_1x1_increase
I0620 04:26:52.564079  3057 net.cpp:454] conv4_1_1x1_increase <- conv4_1_3x3
I0620 04:26:52.564083  3057 net.cpp:411] conv4_1_1x1_increase -> conv4_1_1x1_increase
I0620 04:26:52.571153  3057 net.cpp:150] Setting up conv4_1_1x1_increase
I0620 04:26:52.571173  3057 net.cpp:157] Top shape: 8 1024 60 60 (29491200)
I0620 04:26:52.571177  3057 net.cpp:165] Memory required for data: 6737348800
I0620 04:26:52.571184  3057 layer_factory.hpp:77] Creating layer conv4_1_1x1_increase/bn
I0620 04:26:52.571193  3057 net.cpp:106] Creating Layer conv4_1_1x1_increase/bn
I0620 04:26:52.571197  3057 net.cpp:454] conv4_1_1x1_increase/bn <- conv4_1_1x1_increase
I0620 04:26:52.571202  3057 net.cpp:397] conv4_1_1x1_increase/bn -> conv4_1_1x1_increase (in-place)
I0620 04:26:52.571347  3057 net.cpp:150] Setting up conv4_1_1x1_increase/bn
I0620 04:26:52.571353  3057 net.cpp:157] Top shape: 8 1024 60 60 (29491200)
I0620 04:26:52.571357  3057 net.cpp:165] Memory required for data: 6855313600
I0620 04:26:52.571363  3057 layer_factory.hpp:77] Creating layer conv4_1_1x1_proj
I0620 04:26:52.571372  3057 net.cpp:106] Creating Layer conv4_1_1x1_proj
I0620 04:26:52.571375  3057 net.cpp:454] conv4_1_1x1_proj <- conv3_4_conv3_4/relu_0_split_1
I0620 04:26:52.571380  3057 net.cpp:411] conv4_1_1x1_proj -> conv4_1_1x1_proj
I0620 04:26:52.592406  3057 net.cpp:150] Setting up conv4_1_1x1_proj
I0620 04:26:52.592514  3057 net.cpp:157] Top shape: 8 1024 60 60 (29491200)
I0620 04:26:52.592526  3057 net.cpp:165] Memory required for data: 6973278400
I0620 04:26:52.592548  3057 layer_factory.hpp:77] Creating layer conv4_1_1x1_proj/bn
I0620 04:26:52.592581  3057 net.cpp:106] Creating Layer conv4_1_1x1_proj/bn
I0620 04:26:52.592592  3057 net.cpp:454] conv4_1_1x1_proj/bn <- conv4_1_1x1_proj
I0620 04:26:52.592607  3057 net.cpp:397] conv4_1_1x1_proj/bn -> conv4_1_1x1_proj (in-place)
I0620 04:26:52.592876  3057 net.cpp:150] Setting up conv4_1_1x1_proj/bn
I0620 04:26:52.592890  3057 net.cpp:157] Top shape: 8 1024 60 60 (29491200)
I0620 04:26:52.592895  3057 net.cpp:165] Memory required for data: 7091243200
I0620 04:26:52.592905  3057 layer_factory.hpp:77] Creating layer conv4_1
I0620 04:26:52.592917  3057 net.cpp:106] Creating Layer conv4_1
I0620 04:26:52.592922  3057 net.cpp:454] conv4_1 <- conv4_1_1x1_proj
I0620 04:26:52.592928  3057 net.cpp:454] conv4_1 <- conv4_1_1x1_increase
I0620 04:26:52.592936  3057 net.cpp:411] conv4_1 -> conv4_1
I0620 04:26:52.592977  3057 net.cpp:150] Setting up conv4_1
I0620 04:26:52.592983  3057 net.cpp:157] Top shape: 8 1024 60 60 (29491200)
I0620 04:26:52.592988  3057 net.cpp:165] Memory required for data: 7209208000
I0620 04:26:52.592991  3057 layer_factory.hpp:77] Creating layer conv4_1/relu
I0620 04:26:52.593003  3057 net.cpp:106] Creating Layer conv4_1/relu
I0620 04:26:52.593062  3057 net.cpp:454] conv4_1/relu <- conv4_1
I0620 04:26:52.593068  3057 net.cpp:397] conv4_1/relu -> conv4_1 (in-place)
I0620 04:26:52.593077  3057 net.cpp:150] Setting up conv4_1/relu
I0620 04:26:52.593083  3057 net.cpp:157] Top shape: 8 1024 60 60 (29491200)
I0620 04:26:52.593087  3057 net.cpp:165] Memory required for data: 7327172800
I0620 04:26:52.593092  3057 layer_factory.hpp:77] Creating layer conv4_1_conv4_1/relu_0_split
I0620 04:26:52.593102  3057 net.cpp:106] Creating Layer conv4_1_conv4_1/relu_0_split
I0620 04:26:52.593107  3057 net.cpp:454] conv4_1_conv4_1/relu_0_split <- conv4_1
I0620 04:26:52.593113  3057 net.cpp:411] conv4_1_conv4_1/relu_0_split -> conv4_1_conv4_1/relu_0_split_0
I0620 04:26:52.593119  3057 net.cpp:411] conv4_1_conv4_1/relu_0_split -> conv4_1_conv4_1/relu_0_split_1
I0620 04:26:52.593160  3057 net.cpp:150] Setting up conv4_1_conv4_1/relu_0_split
I0620 04:26:52.593168  3057 net.cpp:157] Top shape: 8 1024 60 60 (29491200)
I0620 04:26:52.593173  3057 net.cpp:157] Top shape: 8 1024 60 60 (29491200)
I0620 04:26:52.593176  3057 net.cpp:165] Memory required for data: 7563102400
I0620 04:26:52.593180  3057 layer_factory.hpp:77] Creating layer conv4_2_1x1_reduce
I0620 04:26:52.593197  3057 net.cpp:106] Creating Layer conv4_2_1x1_reduce
I0620 04:26:52.593202  3057 net.cpp:454] conv4_2_1x1_reduce <- conv4_1_conv4_1/relu_0_split_0
I0620 04:26:52.593209  3057 net.cpp:411] conv4_2_1x1_reduce -> conv4_2_1x1_reduce
I0620 04:26:52.599423  3057 net.cpp:150] Setting up conv4_2_1x1_reduce
I0620 04:26:52.599436  3057 net.cpp:157] Top shape: 8 256 60 60 (7372800)
I0620 04:26:52.599440  3057 net.cpp:165] Memory required for data: 7592593600
I0620 04:26:52.599447  3057 layer_factory.hpp:77] Creating layer conv4_2_1x1_reduce/bn
I0620 04:26:52.599457  3057 net.cpp:106] Creating Layer conv4_2_1x1_reduce/bn
I0620 04:26:52.599462  3057 net.cpp:454] conv4_2_1x1_reduce/bn <- conv4_2_1x1_reduce
I0620 04:26:52.599467  3057 net.cpp:397] conv4_2_1x1_reduce/bn -> conv4_2_1x1_reduce (in-place)
I0620 04:26:52.599607  3057 net.cpp:150] Setting up conv4_2_1x1_reduce/bn
I0620 04:26:52.599613  3057 net.cpp:157] Top shape: 8 256 60 60 (7372800)
I0620 04:26:52.599617  3057 net.cpp:165] Memory required for data: 7622084800
I0620 04:26:52.599624  3057 layer_factory.hpp:77] Creating layer conv4_2_1x1_reduce/relu
I0620 04:26:52.599630  3057 net.cpp:106] Creating Layer conv4_2_1x1_reduce/relu
I0620 04:26:52.599633  3057 net.cpp:454] conv4_2_1x1_reduce/relu <- conv4_2_1x1_reduce
I0620 04:26:52.599638  3057 net.cpp:397] conv4_2_1x1_reduce/relu -> conv4_2_1x1_reduce (in-place)
I0620 04:26:52.599644  3057 net.cpp:150] Setting up conv4_2_1x1_reduce/relu
I0620 04:26:52.599648  3057 net.cpp:157] Top shape: 8 256 60 60 (7372800)
I0620 04:26:52.599651  3057 net.cpp:165] Memory required for data: 7651576000
I0620 04:26:52.599655  3057 layer_factory.hpp:77] Creating layer conv4_2_3x3
I0620 04:26:52.599664  3057 net.cpp:106] Creating Layer conv4_2_3x3
I0620 04:26:52.599668  3057 net.cpp:454] conv4_2_3x3 <- conv4_2_1x1_reduce
I0620 04:26:52.599674  3057 net.cpp:411] conv4_2_3x3 -> conv4_2_3x3
I0620 04:26:52.614364  3057 net.cpp:150] Setting up conv4_2_3x3
I0620 04:26:52.614430  3057 net.cpp:157] Top shape: 8 256 60 60 (7372800)
I0620 04:26:52.614436  3057 net.cpp:165] Memory required for data: 7681067200
I0620 04:26:52.614452  3057 layer_factory.hpp:77] Creating layer conv4_2_3x3/bn
I0620 04:26:52.614473  3057 net.cpp:106] Creating Layer conv4_2_3x3/bn
I0620 04:26:52.614481  3057 net.cpp:454] conv4_2_3x3/bn <- conv4_2_3x3
I0620 04:26:52.614490  3057 net.cpp:397] conv4_2_3x3/bn -> conv4_2_3x3 (in-place)
I0620 04:26:52.614681  3057 net.cpp:150] Setting up conv4_2_3x3/bn
I0620 04:26:52.614689  3057 net.cpp:157] Top shape: 8 256 60 60 (7372800)
I0620 04:26:52.614693  3057 net.cpp:165] Memory required for data: 7710558400
I0620 04:26:52.614702  3057 layer_factory.hpp:77] Creating layer conv4_2_3x3/relu
I0620 04:26:52.614711  3057 net.cpp:106] Creating Layer conv4_2_3x3/relu
I0620 04:26:52.614714  3057 net.cpp:454] conv4_2_3x3/relu <- conv4_2_3x3
I0620 04:26:52.614755  3057 net.cpp:397] conv4_2_3x3/relu -> conv4_2_3x3 (in-place)
I0620 04:26:52.614763  3057 net.cpp:150] Setting up conv4_2_3x3/relu
I0620 04:26:52.614768  3057 net.cpp:157] Top shape: 8 256 60 60 (7372800)
I0620 04:26:52.614771  3057 net.cpp:165] Memory required for data: 7740049600
I0620 04:26:52.614778  3057 layer_factory.hpp:77] Creating layer conv4_2_1x1_increase
I0620 04:26:52.614789  3057 net.cpp:106] Creating Layer conv4_2_1x1_increase
I0620 04:26:52.614792  3057 net.cpp:454] conv4_2_1x1_increase <- conv4_2_3x3
I0620 04:26:52.614800  3057 net.cpp:411] conv4_2_1x1_increase -> conv4_2_1x1_increase
I0620 04:26:52.622023  3057 net.cpp:150] Setting up conv4_2_1x1_increase
I0620 04:26:52.622053  3057 net.cpp:157] Top shape: 8 1024 60 60 (29491200)
I0620 04:26:52.622056  3057 net.cpp:165] Memory required for data: 7858014400
I0620 04:26:52.622066  3057 layer_factory.hpp:77] Creating layer conv4_2_1x1_increase/bn
I0620 04:26:52.622083  3057 net.cpp:106] Creating Layer conv4_2_1x1_increase/bn
I0620 04:26:52.622090  3057 net.cpp:454] conv4_2_1x1_increase/bn <- conv4_2_1x1_increase
I0620 04:26:52.622097  3057 net.cpp:397] conv4_2_1x1_increase/bn -> conv4_2_1x1_increase (in-place)
I0620 04:26:52.622262  3057 net.cpp:150] Setting up conv4_2_1x1_increase/bn
I0620 04:26:52.622267  3057 net.cpp:157] Top shape: 8 1024 60 60 (29491200)
I0620 04:26:52.622270  3057 net.cpp:165] Memory required for data: 7975979200
I0620 04:26:52.622277  3057 layer_factory.hpp:77] Creating layer conv4_2
I0620 04:26:52.622283  3057 net.cpp:106] Creating Layer conv4_2
I0620 04:26:52.622287  3057 net.cpp:454] conv4_2 <- conv4_1_conv4_1/relu_0_split_1
I0620 04:26:52.622290  3057 net.cpp:454] conv4_2 <- conv4_2_1x1_increase
I0620 04:26:52.622293  3057 net.cpp:411] conv4_2 -> conv4_2
I0620 04:26:52.622314  3057 net.cpp:150] Setting up conv4_2
I0620 04:26:52.622318  3057 net.cpp:157] Top shape: 8 1024 60 60 (29491200)
I0620 04:26:52.622320  3057 net.cpp:165] Memory required for data: 8093944000
I0620 04:26:52.622323  3057 layer_factory.hpp:77] Creating layer conv4_2/relu
I0620 04:26:52.622331  3057 net.cpp:106] Creating Layer conv4_2/relu
I0620 04:26:52.622334  3057 net.cpp:454] conv4_2/relu <- conv4_2
I0620 04:26:52.622337  3057 net.cpp:397] conv4_2/relu -> conv4_2 (in-place)
I0620 04:26:52.622342  3057 net.cpp:150] Setting up conv4_2/relu
I0620 04:26:52.622345  3057 net.cpp:157] Top shape: 8 1024 60 60 (29491200)
I0620 04:26:52.622349  3057 net.cpp:165] Memory required for data: 8211908800
I0620 04:26:52.622351  3057 layer_factory.hpp:77] Creating layer conv4_2_conv4_2/relu_0_split
I0620 04:26:52.622359  3057 net.cpp:106] Creating Layer conv4_2_conv4_2/relu_0_split
I0620 04:26:52.622361  3057 net.cpp:454] conv4_2_conv4_2/relu_0_split <- conv4_2
I0620 04:26:52.622367  3057 net.cpp:411] conv4_2_conv4_2/relu_0_split -> conv4_2_conv4_2/relu_0_split_0
I0620 04:26:52.622383  3057 net.cpp:411] conv4_2_conv4_2/relu_0_split -> conv4_2_conv4_2/relu_0_split_1
I0620 04:26:52.622408  3057 net.cpp:150] Setting up conv4_2_conv4_2/relu_0_split
I0620 04:26:52.622414  3057 net.cpp:157] Top shape: 8 1024 60 60 (29491200)
I0620 04:26:52.622419  3057 net.cpp:157] Top shape: 8 1024 60 60 (29491200)
I0620 04:26:52.622422  3057 net.cpp:165] Memory required for data: 8447838400
I0620 04:26:52.622426  3057 layer_factory.hpp:77] Creating layer conv4_3_1x1_reduce
I0620 04:26:52.622450  3057 net.cpp:106] Creating Layer conv4_3_1x1_reduce
I0620 04:26:52.622454  3057 net.cpp:454] conv4_3_1x1_reduce <- conv4_2_conv4_2/relu_0_split_0
I0620 04:26:52.622459  3057 net.cpp:411] conv4_3_1x1_reduce -> conv4_3_1x1_reduce
I0620 04:26:52.628978  3057 net.cpp:150] Setting up conv4_3_1x1_reduce
I0620 04:26:52.629055  3057 net.cpp:157] Top shape: 8 256 60 60 (7372800)
I0620 04:26:52.629081  3057 net.cpp:165] Memory required for data: 8477329600
I0620 04:26:52.629098  3057 layer_factory.hpp:77] Creating layer conv4_3_1x1_reduce/bn
I0620 04:26:52.629125  3057 net.cpp:106] Creating Layer conv4_3_1x1_reduce/bn
I0620 04:26:52.629137  3057 net.cpp:454] conv4_3_1x1_reduce/bn <- conv4_3_1x1_reduce
I0620 04:26:52.629207  3057 net.cpp:397] conv4_3_1x1_reduce/bn -> conv4_3_1x1_reduce (in-place)
I0620 04:26:52.629438  3057 net.cpp:150] Setting up conv4_3_1x1_reduce/bn
I0620 04:26:52.629446  3057 net.cpp:157] Top shape: 8 256 60 60 (7372800)
I0620 04:26:52.629448  3057 net.cpp:165] Memory required for data: 8506820800
I0620 04:26:52.629458  3057 layer_factory.hpp:77] Creating layer conv4_3_1x1_reduce/relu
I0620 04:26:52.629469  3057 net.cpp:106] Creating Layer conv4_3_1x1_reduce/relu
I0620 04:26:52.629473  3057 net.cpp:454] conv4_3_1x1_reduce/relu <- conv4_3_1x1_reduce
I0620 04:26:52.629478  3057 net.cpp:397] conv4_3_1x1_reduce/relu -> conv4_3_1x1_reduce (in-place)
I0620 04:26:52.629485  3057 net.cpp:150] Setting up conv4_3_1x1_reduce/relu
I0620 04:26:52.629489  3057 net.cpp:157] Top shape: 8 256 60 60 (7372800)
I0620 04:26:52.629492  3057 net.cpp:165] Memory required for data: 8536312000
I0620 04:26:52.629497  3057 layer_factory.hpp:77] Creating layer conv4_3_3x3
I0620 04:26:52.629508  3057 net.cpp:106] Creating Layer conv4_3_3x3
I0620 04:26:52.629511  3057 net.cpp:454] conv4_3_3x3 <- conv4_3_1x1_reduce
I0620 04:26:52.629518  3057 net.cpp:411] conv4_3_3x3 -> conv4_3_3x3
I0620 04:26:52.651090  3057 net.cpp:150] Setting up conv4_3_3x3
I0620 04:26:52.651126  3057 net.cpp:157] Top shape: 8 256 60 60 (7372800)
I0620 04:26:52.651131  3057 net.cpp:165] Memory required for data: 8565803200
I0620 04:26:52.651142  3057 layer_factory.hpp:77] Creating layer conv4_3_3x3/bn
I0620 04:26:52.651154  3057 net.cpp:106] Creating Layer conv4_3_3x3/bn
I0620 04:26:52.651162  3057 net.cpp:454] conv4_3_3x3/bn <- conv4_3_3x3
I0620 04:26:52.651170  3057 net.cpp:397] conv4_3_3x3/bn -> conv4_3_3x3 (in-place)
I0620 04:26:52.651376  3057 net.cpp:150] Setting up conv4_3_3x3/bn
I0620 04:26:52.651383  3057 net.cpp:157] Top shape: 8 256 60 60 (7372800)
I0620 04:26:52.651388  3057 net.cpp:165] Memory required for data: 8595294400
I0620 04:26:52.651398  3057 layer_factory.hpp:77] Creating layer conv4_3_3x3/relu
I0620 04:26:52.651407  3057 net.cpp:106] Creating Layer conv4_3_3x3/relu
I0620 04:26:52.651412  3057 net.cpp:454] conv4_3_3x3/relu <- conv4_3_3x3
I0620 04:26:52.651417  3057 net.cpp:397] conv4_3_3x3/relu -> conv4_3_3x3 (in-place)
I0620 04:26:52.651424  3057 net.cpp:150] Setting up conv4_3_3x3/relu
I0620 04:26:52.651430  3057 net.cpp:157] Top shape: 8 256 60 60 (7372800)
I0620 04:26:52.651435  3057 net.cpp:165] Memory required for data: 8624785600
I0620 04:26:52.651439  3057 layer_factory.hpp:77] Creating layer conv4_3_1x1_increase
I0620 04:26:52.651451  3057 net.cpp:106] Creating Layer conv4_3_1x1_increase
I0620 04:26:52.651456  3057 net.cpp:454] conv4_3_1x1_increase <- conv4_3_3x3
I0620 04:26:52.651463  3057 net.cpp:411] conv4_3_1x1_increase -> conv4_3_1x1_increase
I0620 04:26:52.660115  3057 net.cpp:150] Setting up conv4_3_1x1_increase
I0620 04:26:52.660140  3057 net.cpp:157] Top shape: 8 1024 60 60 (29491200)
I0620 04:26:52.660157  3057 net.cpp:165] Memory required for data: 8742750400
I0620 04:26:52.660168  3057 layer_factory.hpp:77] Creating layer conv4_3_1x1_increase/bn
I0620 04:26:52.660183  3057 net.cpp:106] Creating Layer conv4_3_1x1_increase/bn
I0620 04:26:52.660192  3057 net.cpp:454] conv4_3_1x1_increase/bn <- conv4_3_1x1_increase
I0620 04:26:52.660203  3057 net.cpp:397] conv4_3_1x1_increase/bn -> conv4_3_1x1_increase (in-place)
I0620 04:26:52.660418  3057 net.cpp:150] Setting up conv4_3_1x1_increase/bn
I0620 04:26:52.660424  3057 net.cpp:157] Top shape: 8 1024 60 60 (29491200)
I0620 04:26:52.660429  3057 net.cpp:165] Memory required for data: 8860715200
I0620 04:26:52.660437  3057 layer_factory.hpp:77] Creating layer conv4_3
I0620 04:26:52.660444  3057 net.cpp:106] Creating Layer conv4_3
I0620 04:26:52.660449  3057 net.cpp:454] conv4_3 <- conv4_2_conv4_2/relu_0_split_1
I0620 04:26:52.660454  3057 net.cpp:454] conv4_3 <- conv4_3_1x1_increase
I0620 04:26:52.660460  3057 net.cpp:411] conv4_3 -> conv4_3
I0620 04:26:52.660486  3057 net.cpp:150] Setting up conv4_3
I0620 04:26:52.660493  3057 net.cpp:157] Top shape: 8 1024 60 60 (29491200)
I0620 04:26:52.660508  3057 net.cpp:165] Memory required for data: 8978680000
I0620 04:26:52.660513  3057 layer_factory.hpp:77] Creating layer conv4_3/relu
I0620 04:26:52.660526  3057 net.cpp:106] Creating Layer conv4_3/relu
I0620 04:26:52.660531  3057 net.cpp:454] conv4_3/relu <- conv4_3
I0620 04:26:52.660537  3057 net.cpp:397] conv4_3/relu -> conv4_3 (in-place)
I0620 04:26:52.660542  3057 net.cpp:150] Setting up conv4_3/relu
I0620 04:26:52.660547  3057 net.cpp:157] Top shape: 8 1024 60 60 (29491200)
I0620 04:26:52.660552  3057 net.cpp:165] Memory required for data: 9096644800
I0620 04:26:52.660555  3057 layer_factory.hpp:77] Creating layer conv4_3_conv4_3/relu_0_split
I0620 04:26:52.660562  3057 net.cpp:106] Creating Layer conv4_3_conv4_3/relu_0_split
I0620 04:26:52.660565  3057 net.cpp:454] conv4_3_conv4_3/relu_0_split <- conv4_3
I0620 04:26:52.660573  3057 net.cpp:411] conv4_3_conv4_3/relu_0_split -> conv4_3_conv4_3/relu_0_split_0
I0620 04:26:52.660578  3057 net.cpp:411] conv4_3_conv4_3/relu_0_split -> conv4_3_conv4_3/relu_0_split_1
I0620 04:26:52.660614  3057 net.cpp:150] Setting up conv4_3_conv4_3/relu_0_split
I0620 04:26:52.660621  3057 net.cpp:157] Top shape: 8 1024 60 60 (29491200)
I0620 04:26:52.660625  3057 net.cpp:157] Top shape: 8 1024 60 60 (29491200)
I0620 04:26:52.660629  3057 net.cpp:165] Memory required for data: 9332574400
I0620 04:26:52.660634  3057 layer_factory.hpp:77] Creating layer conv4_4_1x1_reduce
I0620 04:26:52.660676  3057 net.cpp:106] Creating Layer conv4_4_1x1_reduce
I0620 04:26:52.660682  3057 net.cpp:454] conv4_4_1x1_reduce <- conv4_3_conv4_3/relu_0_split_0
I0620 04:26:52.660688  3057 net.cpp:411] conv4_4_1x1_reduce -> conv4_4_1x1_reduce
I0620 04:26:52.668601  3057 net.cpp:150] Setting up conv4_4_1x1_reduce
I0620 04:26:52.668630  3057 net.cpp:157] Top shape: 8 256 60 60 (7372800)
I0620 04:26:52.668634  3057 net.cpp:165] Memory required for data: 9362065600
I0620 04:26:52.668643  3057 layer_factory.hpp:77] Creating layer conv4_4_1x1_reduce/bn
I0620 04:26:52.668658  3057 net.cpp:106] Creating Layer conv4_4_1x1_reduce/bn
I0620 04:26:52.668663  3057 net.cpp:454] conv4_4_1x1_reduce/bn <- conv4_4_1x1_reduce
I0620 04:26:52.668671  3057 net.cpp:397] conv4_4_1x1_reduce/bn -> conv4_4_1x1_reduce (in-place)
I0620 04:26:52.668879  3057 net.cpp:150] Setting up conv4_4_1x1_reduce/bn
I0620 04:26:52.668887  3057 net.cpp:157] Top shape: 8 256 60 60 (7372800)
I0620 04:26:52.668892  3057 net.cpp:165] Memory required for data: 9391556800
I0620 04:26:52.668902  3057 layer_factory.hpp:77] Creating layer conv4_4_1x1_reduce/relu
I0620 04:26:52.668913  3057 net.cpp:106] Creating Layer conv4_4_1x1_reduce/relu
I0620 04:26:52.668918  3057 net.cpp:454] conv4_4_1x1_reduce/relu <- conv4_4_1x1_reduce
I0620 04:26:52.668925  3057 net.cpp:397] conv4_4_1x1_reduce/relu -> conv4_4_1x1_reduce (in-place)
I0620 04:26:52.668932  3057 net.cpp:150] Setting up conv4_4_1x1_reduce/relu
I0620 04:26:52.668937  3057 net.cpp:157] Top shape: 8 256 60 60 (7372800)
I0620 04:26:52.668941  3057 net.cpp:165] Memory required for data: 9421048000
I0620 04:26:52.668946  3057 layer_factory.hpp:77] Creating layer conv4_4_3x3
I0620 04:26:52.668953  3057 net.cpp:106] Creating Layer conv4_4_3x3
I0620 04:26:52.668957  3057 net.cpp:454] conv4_4_3x3 <- conv4_4_1x1_reduce
I0620 04:26:52.668963  3057 net.cpp:411] conv4_4_3x3 -> conv4_4_3x3
I0620 04:26:52.684664  3057 net.cpp:150] Setting up conv4_4_3x3
I0620 04:26:52.684710  3057 net.cpp:157] Top shape: 8 256 60 60 (7372800)
I0620 04:26:52.684715  3057 net.cpp:165] Memory required for data: 9450539200
I0620 04:26:52.684725  3057 layer_factory.hpp:77] Creating layer conv4_4_3x3/bn
I0620 04:26:52.684752  3057 net.cpp:106] Creating Layer conv4_4_3x3/bn
I0620 04:26:52.684759  3057 net.cpp:454] conv4_4_3x3/bn <- conv4_4_3x3
I0620 04:26:52.684767  3057 net.cpp:397] conv4_4_3x3/bn -> conv4_4_3x3 (in-place)
I0620 04:26:52.684934  3057 net.cpp:150] Setting up conv4_4_3x3/bn
I0620 04:26:52.684939  3057 net.cpp:157] Top shape: 8 256 60 60 (7372800)
I0620 04:26:52.684943  3057 net.cpp:165] Memory required for data: 9480030400
I0620 04:26:52.684974  3057 layer_factory.hpp:77] Creating layer conv4_4_3x3/relu
I0620 04:26:52.684981  3057 net.cpp:106] Creating Layer conv4_4_3x3/relu
I0620 04:26:52.684983  3057 net.cpp:454] conv4_4_3x3/relu <- conv4_4_3x3
I0620 04:26:52.684988  3057 net.cpp:397] conv4_4_3x3/relu -> conv4_4_3x3 (in-place)
I0620 04:26:52.684993  3057 net.cpp:150] Setting up conv4_4_3x3/relu
I0620 04:26:52.684996  3057 net.cpp:157] Top shape: 8 256 60 60 (7372800)
I0620 04:26:52.684999  3057 net.cpp:165] Memory required for data: 9509521600
I0620 04:26:52.685003  3057 layer_factory.hpp:77] Creating layer conv4_4_1x1_increase
I0620 04:26:52.685011  3057 net.cpp:106] Creating Layer conv4_4_1x1_increase
I0620 04:26:52.685016  3057 net.cpp:454] conv4_4_1x1_increase <- conv4_4_3x3
I0620 04:26:52.685021  3057 net.cpp:411] conv4_4_1x1_increase -> conv4_4_1x1_increase
I0620 04:26:52.693029  3057 net.cpp:150] Setting up conv4_4_1x1_increase
I0620 04:26:52.693116  3057 net.cpp:157] Top shape: 8 1024 60 60 (29491200)
I0620 04:26:52.693125  3057 net.cpp:165] Memory required for data: 9627486400
I0620 04:26:52.693143  3057 layer_factory.hpp:77] Creating layer conv4_4_1x1_increase/bn
I0620 04:26:52.693169  3057 net.cpp:106] Creating Layer conv4_4_1x1_increase/bn
I0620 04:26:52.693177  3057 net.cpp:454] conv4_4_1x1_increase/bn <- conv4_4_1x1_increase
I0620 04:26:52.693186  3057 net.cpp:397] conv4_4_1x1_increase/bn -> conv4_4_1x1_increase (in-place)
I0620 04:26:52.693470  3057 net.cpp:150] Setting up conv4_4_1x1_increase/bn
I0620 04:26:52.693480  3057 net.cpp:157] Top shape: 8 1024 60 60 (29491200)
I0620 04:26:52.693485  3057 net.cpp:165] Memory required for data: 9745451200
I0620 04:26:52.693495  3057 layer_factory.hpp:77] Creating layer conv4_4
I0620 04:26:52.693508  3057 net.cpp:106] Creating Layer conv4_4
I0620 04:26:52.693513  3057 net.cpp:454] conv4_4 <- conv4_3_conv4_3/relu_0_split_1
I0620 04:26:52.693519  3057 net.cpp:454] conv4_4 <- conv4_4_1x1_increase
I0620 04:26:52.693524  3057 net.cpp:411] conv4_4 -> conv4_4
I0620 04:26:52.693567  3057 net.cpp:150] Setting up conv4_4
I0620 04:26:52.693574  3057 net.cpp:157] Top shape: 8 1024 60 60 (29491200)
I0620 04:26:52.693578  3057 net.cpp:165] Memory required for data: 9863416000
I0620 04:26:52.693583  3057 layer_factory.hpp:77] Creating layer conv4_4/relu
I0620 04:26:52.693593  3057 net.cpp:106] Creating Layer conv4_4/relu
I0620 04:26:52.693596  3057 net.cpp:454] conv4_4/relu <- conv4_4
I0620 04:26:52.693604  3057 net.cpp:397] conv4_4/relu -> conv4_4 (in-place)
I0620 04:26:52.693612  3057 net.cpp:150] Setting up conv4_4/relu
I0620 04:26:52.693617  3057 net.cpp:157] Top shape: 8 1024 60 60 (29491200)
I0620 04:26:52.693622  3057 net.cpp:165] Memory required for data: 9981380800
I0620 04:26:52.693626  3057 layer_factory.hpp:77] Creating layer conv4_4_conv4_4/relu_0_split
I0620 04:26:52.693635  3057 net.cpp:106] Creating Layer conv4_4_conv4_4/relu_0_split
I0620 04:26:52.693639  3057 net.cpp:454] conv4_4_conv4_4/relu_0_split <- conv4_4
I0620 04:26:52.693645  3057 net.cpp:411] conv4_4_conv4_4/relu_0_split -> conv4_4_conv4_4/relu_0_split_0
I0620 04:26:52.693650  3057 net.cpp:411] conv4_4_conv4_4/relu_0_split -> conv4_4_conv4_4/relu_0_split_1
I0620 04:26:52.693684  3057 net.cpp:150] Setting up conv4_4_conv4_4/relu_0_split
I0620 04:26:52.693692  3057 net.cpp:157] Top shape: 8 1024 60 60 (29491200)
I0620 04:26:52.693698  3057 net.cpp:157] Top shape: 8 1024 60 60 (29491200)
I0620 04:26:52.693704  3057 net.cpp:165] Memory required for data: 10217310400
I0620 04:26:52.693708  3057 layer_factory.hpp:77] Creating layer conv4_5_1x1_reduce
I0620 04:26:52.693727  3057 net.cpp:106] Creating Layer conv4_5_1x1_reduce
I0620 04:26:52.693730  3057 net.cpp:454] conv4_5_1x1_reduce <- conv4_4_conv4_4/relu_0_split_0
I0620 04:26:52.693738  3057 net.cpp:411] conv4_5_1x1_reduce -> conv4_5_1x1_reduce
I0620 04:26:52.701246  3057 net.cpp:150] Setting up conv4_5_1x1_reduce
I0620 04:26:52.701290  3057 net.cpp:157] Top shape: 8 256 60 60 (7372800)
I0620 04:26:52.701297  3057 net.cpp:165] Memory required for data: 10246801600
I0620 04:26:52.701350  3057 layer_factory.hpp:77] Creating layer conv4_5_1x1_reduce/bn
I0620 04:26:52.701372  3057 net.cpp:106] Creating Layer conv4_5_1x1_reduce/bn
I0620 04:26:52.701380  3057 net.cpp:454] conv4_5_1x1_reduce/bn <- conv4_5_1x1_reduce
I0620 04:26:52.701390  3057 net.cpp:397] conv4_5_1x1_reduce/bn -> conv4_5_1x1_reduce (in-place)
I0620 04:26:52.701661  3057 net.cpp:150] Setting up conv4_5_1x1_reduce/bn
I0620 04:26:52.701666  3057 net.cpp:157] Top shape: 8 256 60 60 (7372800)
I0620 04:26:52.701673  3057 net.cpp:165] Memory required for data: 10276292800
I0620 04:26:52.701678  3057 layer_factory.hpp:77] Creating layer conv4_5_1x1_reduce/relu
I0620 04:26:52.701688  3057 net.cpp:106] Creating Layer conv4_5_1x1_reduce/relu
I0620 04:26:52.701690  3057 net.cpp:454] conv4_5_1x1_reduce/relu <- conv4_5_1x1_reduce
I0620 04:26:52.701695  3057 net.cpp:397] conv4_5_1x1_reduce/relu -> conv4_5_1x1_reduce (in-place)
I0620 04:26:52.701700  3057 net.cpp:150] Setting up conv4_5_1x1_reduce/relu
I0620 04:26:52.701704  3057 net.cpp:157] Top shape: 8 256 60 60 (7372800)
I0620 04:26:52.701707  3057 net.cpp:165] Memory required for data: 10305784000
I0620 04:26:52.701710  3057 layer_factory.hpp:77] Creating layer conv4_5_3x3
I0620 04:26:52.701719  3057 net.cpp:106] Creating Layer conv4_5_3x3
I0620 04:26:52.701722  3057 net.cpp:454] conv4_5_3x3 <- conv4_5_1x1_reduce
I0620 04:26:52.701728  3057 net.cpp:411] conv4_5_3x3 -> conv4_5_3x3
I0620 04:26:52.716351  3057 net.cpp:150] Setting up conv4_5_3x3
I0620 04:26:52.716395  3057 net.cpp:157] Top shape: 8 256 60 60 (7372800)
I0620 04:26:52.716398  3057 net.cpp:165] Memory required for data: 10335275200
I0620 04:26:52.716411  3057 layer_factory.hpp:77] Creating layer conv4_5_3x3/bn
I0620 04:26:52.716444  3057 net.cpp:106] Creating Layer conv4_5_3x3/bn
I0620 04:26:52.716459  3057 net.cpp:454] conv4_5_3x3/bn <- conv4_5_3x3
I0620 04:26:52.716465  3057 net.cpp:397] conv4_5_3x3/bn -> conv4_5_3x3 (in-place)
I0620 04:26:52.716663  3057 net.cpp:150] Setting up conv4_5_3x3/bn
I0620 04:26:52.716668  3057 net.cpp:157] Top shape: 8 256 60 60 (7372800)
I0620 04:26:52.716670  3057 net.cpp:165] Memory required for data: 10364766400
I0620 04:26:52.716677  3057 layer_factory.hpp:77] Creating layer conv4_5_3x3/relu
I0620 04:26:52.716682  3057 net.cpp:106] Creating Layer conv4_5_3x3/relu
I0620 04:26:52.716684  3057 net.cpp:454] conv4_5_3x3/relu <- conv4_5_3x3
I0620 04:26:52.716687  3057 net.cpp:397] conv4_5_3x3/relu -> conv4_5_3x3 (in-place)
I0620 04:26:52.716691  3057 net.cpp:150] Setting up conv4_5_3x3/relu
I0620 04:26:52.716694  3057 net.cpp:157] Top shape: 8 256 60 60 (7372800)
I0620 04:26:52.716697  3057 net.cpp:165] Memory required for data: 10394257600
I0620 04:26:52.716701  3057 layer_factory.hpp:77] Creating layer conv4_5_1x1_increase
I0620 04:26:52.716711  3057 net.cpp:106] Creating Layer conv4_5_1x1_increase
I0620 04:26:52.716714  3057 net.cpp:454] conv4_5_1x1_increase <- conv4_5_3x3
I0620 04:26:52.716720  3057 net.cpp:411] conv4_5_1x1_increase -> conv4_5_1x1_increase
I0620 04:26:52.723492  3057 net.cpp:150] Setting up conv4_5_1x1_increase
I0620 04:26:52.723503  3057 net.cpp:157] Top shape: 8 1024 60 60 (29491200)
I0620 04:26:52.723505  3057 net.cpp:165] Memory required for data: 10512222400
I0620 04:26:52.723510  3057 layer_factory.hpp:77] Creating layer conv4_5_1x1_increase/bn
I0620 04:26:52.723515  3057 net.cpp:106] Creating Layer conv4_5_1x1_increase/bn
I0620 04:26:52.723518  3057 net.cpp:454] conv4_5_1x1_increase/bn <- conv4_5_1x1_increase
I0620 04:26:52.723521  3057 net.cpp:397] conv4_5_1x1_increase/bn -> conv4_5_1x1_increase (in-place)
I0620 04:26:52.723665  3057 net.cpp:150] Setting up conv4_5_1x1_increase/bn
I0620 04:26:52.723670  3057 net.cpp:157] Top shape: 8 1024 60 60 (29491200)
I0620 04:26:52.723671  3057 net.cpp:165] Memory required for data: 10630187200
I0620 04:26:52.723676  3057 layer_factory.hpp:77] Creating layer conv4_5
I0620 04:26:52.723680  3057 net.cpp:106] Creating Layer conv4_5
I0620 04:26:52.723683  3057 net.cpp:454] conv4_5 <- conv4_4_conv4_4/relu_0_split_1
I0620 04:26:52.723703  3057 net.cpp:454] conv4_5 <- conv4_5_1x1_increase
I0620 04:26:52.723707  3057 net.cpp:411] conv4_5 -> conv4_5
I0620 04:26:52.723726  3057 net.cpp:150] Setting up conv4_5
I0620 04:26:52.723729  3057 net.cpp:157] Top shape: 8 1024 60 60 (29491200)
I0620 04:26:52.723732  3057 net.cpp:165] Memory required for data: 10748152000
I0620 04:26:52.723734  3057 layer_factory.hpp:77] Creating layer conv4_5/relu
I0620 04:26:52.723739  3057 net.cpp:106] Creating Layer conv4_5/relu
I0620 04:26:52.723742  3057 net.cpp:454] conv4_5/relu <- conv4_5
I0620 04:26:52.723745  3057 net.cpp:397] conv4_5/relu -> conv4_5 (in-place)
I0620 04:26:52.723748  3057 net.cpp:150] Setting up conv4_5/relu
I0620 04:26:52.723752  3057 net.cpp:157] Top shape: 8 1024 60 60 (29491200)
I0620 04:26:52.723753  3057 net.cpp:165] Memory required for data: 10866116800
I0620 04:26:52.723755  3057 layer_factory.hpp:77] Creating layer conv4_5_conv4_5/relu_0_split
I0620 04:26:52.723759  3057 net.cpp:106] Creating Layer conv4_5_conv4_5/relu_0_split
I0620 04:26:52.723760  3057 net.cpp:454] conv4_5_conv4_5/relu_0_split <- conv4_5
I0620 04:26:52.723763  3057 net.cpp:411] conv4_5_conv4_5/relu_0_split -> conv4_5_conv4_5/relu_0_split_0
I0620 04:26:52.723767  3057 net.cpp:411] conv4_5_conv4_5/relu_0_split -> conv4_5_conv4_5/relu_0_split_1
I0620 04:26:52.723788  3057 net.cpp:150] Setting up conv4_5_conv4_5/relu_0_split
I0620 04:26:52.723793  3057 net.cpp:157] Top shape: 8 1024 60 60 (29491200)
I0620 04:26:52.723794  3057 net.cpp:157] Top shape: 8 1024 60 60 (29491200)
I0620 04:26:52.723796  3057 net.cpp:165] Memory required for data: 11102046400
I0620 04:26:52.723798  3057 layer_factory.hpp:77] Creating layer conv4_6_1x1_reduce
I0620 04:26:52.723808  3057 net.cpp:106] Creating Layer conv4_6_1x1_reduce
I0620 04:26:52.723809  3057 net.cpp:454] conv4_6_1x1_reduce <- conv4_5_conv4_5/relu_0_split_0
I0620 04:26:52.723814  3057 net.cpp:411] conv4_6_1x1_reduce -> conv4_6_1x1_reduce
I0620 04:26:52.736703  3057 net.cpp:150] Setting up conv4_6_1x1_reduce
I0620 04:26:52.736730  3057 net.cpp:157] Top shape: 8 256 60 60 (7372800)
I0620 04:26:52.736735  3057 net.cpp:165] Memory required for data: 11131537600
I0620 04:26:52.736742  3057 layer_factory.hpp:77] Creating layer conv4_6_1x1_reduce/bn
I0620 04:26:52.736752  3057 net.cpp:106] Creating Layer conv4_6_1x1_reduce/bn
I0620 04:26:52.736758  3057 net.cpp:454] conv4_6_1x1_reduce/bn <- conv4_6_1x1_reduce
I0620 04:26:52.736764  3057 net.cpp:397] conv4_6_1x1_reduce/bn -> conv4_6_1x1_reduce (in-place)
I0620 04:26:52.736917  3057 net.cpp:150] Setting up conv4_6_1x1_reduce/bn
I0620 04:26:52.736922  3057 net.cpp:157] Top shape: 8 256 60 60 (7372800)
I0620 04:26:52.736925  3057 net.cpp:165] Memory required for data: 11161028800
I0620 04:26:52.736932  3057 layer_factory.hpp:77] Creating layer conv4_6_1x1_reduce/relu
I0620 04:26:52.736937  3057 net.cpp:106] Creating Layer conv4_6_1x1_reduce/relu
I0620 04:26:52.736940  3057 net.cpp:454] conv4_6_1x1_reduce/relu <- conv4_6_1x1_reduce
I0620 04:26:52.736946  3057 net.cpp:397] conv4_6_1x1_reduce/relu -> conv4_6_1x1_reduce (in-place)
I0620 04:26:52.736951  3057 net.cpp:150] Setting up conv4_6_1x1_reduce/relu
I0620 04:26:52.736956  3057 net.cpp:157] Top shape: 8 256 60 60 (7372800)
I0620 04:26:52.736959  3057 net.cpp:165] Memory required for data: 11190520000
I0620 04:26:52.736963  3057 layer_factory.hpp:77] Creating layer conv4_6_3x3
I0620 04:26:52.736974  3057 net.cpp:106] Creating Layer conv4_6_3x3
I0620 04:26:52.736977  3057 net.cpp:454] conv4_6_3x3 <- conv4_6_1x1_reduce
I0620 04:26:52.736984  3057 net.cpp:411] conv4_6_3x3 -> conv4_6_3x3
I0620 04:26:52.755818  3057 net.cpp:150] Setting up conv4_6_3x3
I0620 04:26:52.755852  3057 net.cpp:157] Top shape: 8 256 60 60 (7372800)
I0620 04:26:52.755856  3057 net.cpp:165] Memory required for data: 11220011200
I0620 04:26:52.755866  3057 layer_factory.hpp:77] Creating layer conv4_6_3x3/bn
I0620 04:26:52.755877  3057 net.cpp:106] Creating Layer conv4_6_3x3/bn
I0620 04:26:52.755884  3057 net.cpp:454] conv4_6_3x3/bn <- conv4_6_3x3
I0620 04:26:52.755913  3057 net.cpp:397] conv4_6_3x3/bn -> conv4_6_3x3 (in-place)
I0620 04:26:52.756112  3057 net.cpp:150] Setting up conv4_6_3x3/bn
I0620 04:26:52.756121  3057 net.cpp:157] Top shape: 8 256 60 60 (7372800)
I0620 04:26:52.756126  3057 net.cpp:165] Memory required for data: 11249502400
I0620 04:26:52.756135  3057 layer_factory.hpp:77] Creating layer conv4_6_3x3/relu
I0620 04:26:52.756145  3057 net.cpp:106] Creating Layer conv4_6_3x3/relu
I0620 04:26:52.756148  3057 net.cpp:454] conv4_6_3x3/relu <- conv4_6_3x3
I0620 04:26:52.756155  3057 net.cpp:397] conv4_6_3x3/relu -> conv4_6_3x3 (in-place)
I0620 04:26:52.756163  3057 net.cpp:150] Setting up conv4_6_3x3/relu
I0620 04:26:52.756170  3057 net.cpp:157] Top shape: 8 256 60 60 (7372800)
I0620 04:26:52.756175  3057 net.cpp:165] Memory required for data: 11278993600
I0620 04:26:52.756178  3057 layer_factory.hpp:77] Creating layer conv4_6_1x1_increase
I0620 04:26:52.756191  3057 net.cpp:106] Creating Layer conv4_6_1x1_increase
I0620 04:26:52.756194  3057 net.cpp:454] conv4_6_1x1_increase <- conv4_6_3x3
I0620 04:26:52.756203  3057 net.cpp:411] conv4_6_1x1_increase -> conv4_6_1x1_increase
I0620 04:26:52.763615  3057 net.cpp:150] Setting up conv4_6_1x1_increase
I0620 04:26:52.763646  3057 net.cpp:157] Top shape: 8 1024 60 60 (29491200)
I0620 04:26:52.763654  3057 net.cpp:165] Memory required for data: 11396958400
I0620 04:26:52.763664  3057 layer_factory.hpp:77] Creating layer conv4_6_1x1_increase/bn
I0620 04:26:52.763680  3057 net.cpp:106] Creating Layer conv4_6_1x1_increase/bn
I0620 04:26:52.763690  3057 net.cpp:454] conv4_6_1x1_increase/bn <- conv4_6_1x1_increase
I0620 04:26:52.763700  3057 net.cpp:397] conv4_6_1x1_increase/bn -> conv4_6_1x1_increase (in-place)
I0620 04:26:52.763898  3057 net.cpp:150] Setting up conv4_6_1x1_increase/bn
I0620 04:26:52.763907  3057 net.cpp:157] Top shape: 8 1024 60 60 (29491200)
I0620 04:26:52.763914  3057 net.cpp:165] Memory required for data: 11514923200
I0620 04:26:52.763923  3057 layer_factory.hpp:77] Creating layer conv4_6
I0620 04:26:52.763932  3057 net.cpp:106] Creating Layer conv4_6
I0620 04:26:52.763938  3057 net.cpp:454] conv4_6 <- conv4_5_conv4_5/relu_0_split_1
I0620 04:26:52.763944  3057 net.cpp:454] conv4_6 <- conv4_6_1x1_increase
I0620 04:26:52.763952  3057 net.cpp:411] conv4_6 -> conv4_6
I0620 04:26:52.763977  3057 net.cpp:150] Setting up conv4_6
I0620 04:26:52.763984  3057 net.cpp:157] Top shape: 8 1024 60 60 (29491200)
I0620 04:26:52.763989  3057 net.cpp:165] Memory required for data: 11632888000
I0620 04:26:52.763995  3057 layer_factory.hpp:77] Creating layer conv4_6/relu
I0620 04:26:52.764003  3057 net.cpp:106] Creating Layer conv4_6/relu
I0620 04:26:52.764009  3057 net.cpp:454] conv4_6/relu <- conv4_6
I0620 04:26:52.764015  3057 net.cpp:397] conv4_6/relu -> conv4_6 (in-place)
I0620 04:26:52.764024  3057 net.cpp:150] Setting up conv4_6/relu
I0620 04:26:52.764030  3057 net.cpp:157] Top shape: 8 1024 60 60 (29491200)
I0620 04:26:52.764035  3057 net.cpp:165] Memory required for data: 11750852800
I0620 04:26:52.764040  3057 layer_factory.hpp:77] Creating layer conv4_6_conv4_6/relu_0_split
I0620 04:26:52.764047  3057 net.cpp:106] Creating Layer conv4_6_conv4_6/relu_0_split
I0620 04:26:52.764053  3057 net.cpp:454] conv4_6_conv4_6/relu_0_split <- conv4_6
I0620 04:26:52.764060  3057 net.cpp:411] conv4_6_conv4_6/relu_0_split -> conv4_6_conv4_6/relu_0_split_0
I0620 04:26:52.764068  3057 net.cpp:411] conv4_6_conv4_6/relu_0_split -> conv4_6_conv4_6/relu_0_split_1
I0620 04:26:52.764098  3057 net.cpp:150] Setting up conv4_6_conv4_6/relu_0_split
I0620 04:26:52.764106  3057 net.cpp:157] Top shape: 8 1024 60 60 (29491200)
I0620 04:26:52.764114  3057 net.cpp:157] Top shape: 8 1024 60 60 (29491200)
I0620 04:26:52.764120  3057 net.cpp:165] Memory required for data: 11986782400
I0620 04:26:52.764125  3057 layer_factory.hpp:77] Creating layer conv4_7_1x1_reduce
I0620 04:26:52.764137  3057 net.cpp:106] Creating Layer conv4_7_1x1_reduce
I0620 04:26:52.764144  3057 net.cpp:454] conv4_7_1x1_reduce <- conv4_6_conv4_6/relu_0_split_0
I0620 04:26:52.764163  3057 net.cpp:411] conv4_7_1x1_reduce -> conv4_7_1x1_reduce
I0620 04:26:52.770432  3057 net.cpp:150] Setting up conv4_7_1x1_reduce
I0620 04:26:52.770452  3057 net.cpp:157] Top shape: 8 256 60 60 (7372800)
I0620 04:26:52.770453  3057 net.cpp:165] Memory required for data: 12016273600
I0620 04:26:52.770460  3057 layer_factory.hpp:77] Creating layer conv4_7_1x1_reduce/bn
I0620 04:26:52.770468  3057 net.cpp:106] Creating Layer conv4_7_1x1_reduce/bn
I0620 04:26:52.770473  3057 net.cpp:454] conv4_7_1x1_reduce/bn <- conv4_7_1x1_reduce
I0620 04:26:52.770480  3057 net.cpp:397] conv4_7_1x1_reduce/bn -> conv4_7_1x1_reduce (in-place)
I0620 04:26:52.770632  3057 net.cpp:150] Setting up conv4_7_1x1_reduce/bn
I0620 04:26:52.770637  3057 net.cpp:157] Top shape: 8 256 60 60 (7372800)
I0620 04:26:52.770638  3057 net.cpp:165] Memory required for data: 12045764800
I0620 04:26:52.770643  3057 layer_factory.hpp:77] Creating layer conv4_7_1x1_reduce/relu
I0620 04:26:52.770648  3057 net.cpp:106] Creating Layer conv4_7_1x1_reduce/relu
I0620 04:26:52.770650  3057 net.cpp:454] conv4_7_1x1_reduce/relu <- conv4_7_1x1_reduce
I0620 04:26:52.770653  3057 net.cpp:397] conv4_7_1x1_reduce/relu -> conv4_7_1x1_reduce (in-place)
I0620 04:26:52.770658  3057 net.cpp:150] Setting up conv4_7_1x1_reduce/relu
I0620 04:26:52.770660  3057 net.cpp:157] Top shape: 8 256 60 60 (7372800)
I0620 04:26:52.770663  3057 net.cpp:165] Memory required for data: 12075256000
I0620 04:26:52.770665  3057 layer_factory.hpp:77] Creating layer conv4_7_3x3
I0620 04:26:52.770673  3057 net.cpp:106] Creating Layer conv4_7_3x3
I0620 04:26:52.770676  3057 net.cpp:454] conv4_7_3x3 <- conv4_7_1x1_reduce
I0620 04:26:52.770679  3057 net.cpp:411] conv4_7_3x3 -> conv4_7_3x3
I0620 04:26:52.784739  3057 net.cpp:150] Setting up conv4_7_3x3
I0620 04:26:52.784765  3057 net.cpp:157] Top shape: 8 256 60 60 (7372800)
I0620 04:26:52.784767  3057 net.cpp:165] Memory required for data: 12104747200
I0620 04:26:52.784775  3057 layer_factory.hpp:77] Creating layer conv4_7_3x3/bn
I0620 04:26:52.784788  3057 net.cpp:106] Creating Layer conv4_7_3x3/bn
I0620 04:26:52.784797  3057 net.cpp:454] conv4_7_3x3/bn <- conv4_7_3x3
I0620 04:26:52.784803  3057 net.cpp:397] conv4_7_3x3/bn -> conv4_7_3x3 (in-place)
I0620 04:26:52.784976  3057 net.cpp:150] Setting up conv4_7_3x3/bn
I0620 04:26:52.784981  3057 net.cpp:157] Top shape: 8 256 60 60 (7372800)
I0620 04:26:52.784984  3057 net.cpp:165] Memory required for data: 12134238400
I0620 04:26:52.784989  3057 layer_factory.hpp:77] Creating layer conv4_7_3x3/relu
I0620 04:26:52.784993  3057 net.cpp:106] Creating Layer conv4_7_3x3/relu
I0620 04:26:52.784996  3057 net.cpp:454] conv4_7_3x3/relu <- conv4_7_3x3
I0620 04:26:52.784998  3057 net.cpp:397] conv4_7_3x3/relu -> conv4_7_3x3 (in-place)
I0620 04:26:52.785002  3057 net.cpp:150] Setting up conv4_7_3x3/relu
I0620 04:26:52.785006  3057 net.cpp:157] Top shape: 8 256 60 60 (7372800)
I0620 04:26:52.785007  3057 net.cpp:165] Memory required for data: 12163729600
I0620 04:26:52.785010  3057 layer_factory.hpp:77] Creating layer conv4_7_1x1_increase
I0620 04:26:52.785017  3057 net.cpp:106] Creating Layer conv4_7_1x1_increase
I0620 04:26:52.785020  3057 net.cpp:454] conv4_7_1x1_increase <- conv4_7_3x3
I0620 04:26:52.785024  3057 net.cpp:411] conv4_7_1x1_increase -> conv4_7_1x1_increase
I0620 04:26:52.793519  3057 net.cpp:150] Setting up conv4_7_1x1_increase
I0620 04:26:52.793582  3057 net.cpp:157] Top shape: 8 1024 60 60 (29491200)
I0620 04:26:52.793589  3057 net.cpp:165] Memory required for data: 12281694400
I0620 04:26:52.793606  3057 layer_factory.hpp:77] Creating layer conv4_7_1x1_increase/bn
I0620 04:26:52.793634  3057 net.cpp:106] Creating Layer conv4_7_1x1_increase/bn
I0620 04:26:52.793647  3057 net.cpp:454] conv4_7_1x1_increase/bn <- conv4_7_1x1_increase
I0620 04:26:52.793658  3057 net.cpp:397] conv4_7_1x1_increase/bn -> conv4_7_1x1_increase (in-place)
I0620 04:26:52.793941  3057 net.cpp:150] Setting up conv4_7_1x1_increase/bn
I0620 04:26:52.793948  3057 net.cpp:157] Top shape: 8 1024 60 60 (29491200)
I0620 04:26:52.794003  3057 net.cpp:165] Memory required for data: 12399659200
I0620 04:26:52.794013  3057 layer_factory.hpp:77] Creating layer conv4_7
I0620 04:26:52.794023  3057 net.cpp:106] Creating Layer conv4_7
I0620 04:26:52.794029  3057 net.cpp:454] conv4_7 <- conv4_6_conv4_6/relu_0_split_1
I0620 04:26:52.794034  3057 net.cpp:454] conv4_7 <- conv4_7_1x1_increase
I0620 04:26:52.794040  3057 net.cpp:411] conv4_7 -> conv4_7
I0620 04:26:52.794083  3057 net.cpp:150] Setting up conv4_7
I0620 04:26:52.794090  3057 net.cpp:157] Top shape: 8 1024 60 60 (29491200)
I0620 04:26:52.794095  3057 net.cpp:165] Memory required for data: 12517624000
I0620 04:26:52.794100  3057 layer_factory.hpp:77] Creating layer conv4_7/relu
I0620 04:26:52.794109  3057 net.cpp:106] Creating Layer conv4_7/relu
I0620 04:26:52.794114  3057 net.cpp:454] conv4_7/relu <- conv4_7
I0620 04:26:52.794119  3057 net.cpp:397] conv4_7/relu -> conv4_7 (in-place)
I0620 04:26:52.794127  3057 net.cpp:150] Setting up conv4_7/relu
I0620 04:26:52.794133  3057 net.cpp:157] Top shape: 8 1024 60 60 (29491200)
I0620 04:26:52.794137  3057 net.cpp:165] Memory required for data: 12635588800
I0620 04:26:52.794142  3057 layer_factory.hpp:77] Creating layer conv4_7_conv4_7/relu_0_split
I0620 04:26:52.794148  3057 net.cpp:106] Creating Layer conv4_7_conv4_7/relu_0_split
I0620 04:26:52.794153  3057 net.cpp:454] conv4_7_conv4_7/relu_0_split <- conv4_7
I0620 04:26:52.794159  3057 net.cpp:411] conv4_7_conv4_7/relu_0_split -> conv4_7_conv4_7/relu_0_split_0
I0620 04:26:52.794167  3057 net.cpp:411] conv4_7_conv4_7/relu_0_split -> conv4_7_conv4_7/relu_0_split_1
I0620 04:26:52.794199  3057 net.cpp:150] Setting up conv4_7_conv4_7/relu_0_split
I0620 04:26:52.794206  3057 net.cpp:157] Top shape: 8 1024 60 60 (29491200)
I0620 04:26:52.794211  3057 net.cpp:157] Top shape: 8 1024 60 60 (29491200)
I0620 04:26:52.794215  3057 net.cpp:165] Memory required for data: 12871518400
I0620 04:26:52.794220  3057 layer_factory.hpp:77] Creating layer conv4_8_1x1_reduce
I0620 04:26:52.794234  3057 net.cpp:106] Creating Layer conv4_8_1x1_reduce
I0620 04:26:52.794239  3057 net.cpp:454] conv4_8_1x1_reduce <- conv4_7_conv4_7/relu_0_split_0
I0620 04:26:52.794246  3057 net.cpp:411] conv4_8_1x1_reduce -> conv4_8_1x1_reduce
I0620 04:26:52.803187  3057 net.cpp:150] Setting up conv4_8_1x1_reduce
I0620 04:26:52.803275  3057 net.cpp:157] Top shape: 8 256 60 60 (7372800)
I0620 04:26:52.803282  3057 net.cpp:165] Memory required for data: 12901009600
I0620 04:26:52.803302  3057 layer_factory.hpp:77] Creating layer conv4_8_1x1_reduce/bn
I0620 04:26:52.803328  3057 net.cpp:106] Creating Layer conv4_8_1x1_reduce/bn
I0620 04:26:52.803340  3057 net.cpp:454] conv4_8_1x1_reduce/bn <- conv4_8_1x1_reduce
I0620 04:26:52.803366  3057 net.cpp:397] conv4_8_1x1_reduce/bn -> conv4_8_1x1_reduce (in-place)
I0620 04:26:52.803681  3057 net.cpp:150] Setting up conv4_8_1x1_reduce/bn
I0620 04:26:52.803692  3057 net.cpp:157] Top shape: 8 256 60 60 (7372800)
I0620 04:26:52.803702  3057 net.cpp:165] Memory required for data: 12930500800
I0620 04:26:52.803712  3057 layer_factory.hpp:77] Creating layer conv4_8_1x1_reduce/relu
I0620 04:26:52.803727  3057 net.cpp:106] Creating Layer conv4_8_1x1_reduce/relu
I0620 04:26:52.803732  3057 net.cpp:454] conv4_8_1x1_reduce/relu <- conv4_8_1x1_reduce
I0620 04:26:52.803738  3057 net.cpp:397] conv4_8_1x1_reduce/relu -> conv4_8_1x1_reduce (in-place)
I0620 04:26:52.803746  3057 net.cpp:150] Setting up conv4_8_1x1_reduce/relu
I0620 04:26:52.803751  3057 net.cpp:157] Top shape: 8 256 60 60 (7372800)
I0620 04:26:52.803755  3057 net.cpp:165] Memory required for data: 12959992000
I0620 04:26:52.803761  3057 layer_factory.hpp:77] Creating layer conv4_8_3x3
I0620 04:26:52.803776  3057 net.cpp:106] Creating Layer conv4_8_3x3
I0620 04:26:52.803781  3057 net.cpp:454] conv4_8_3x3 <- conv4_8_1x1_reduce
I0620 04:26:52.803808  3057 net.cpp:411] conv4_8_3x3 -> conv4_8_3x3
I0620 04:26:52.819983  3057 net.cpp:150] Setting up conv4_8_3x3
I0620 04:26:52.820004  3057 net.cpp:157] Top shape: 8 256 60 60 (7372800)
I0620 04:26:52.820008  3057 net.cpp:165] Memory required for data: 12989483200
I0620 04:26:52.820037  3057 layer_factory.hpp:77] Creating layer conv4_8_3x3/bn
I0620 04:26:52.820055  3057 net.cpp:106] Creating Layer conv4_8_3x3/bn
I0620 04:26:52.820063  3057 net.cpp:454] conv4_8_3x3/bn <- conv4_8_3x3
I0620 04:26:52.820070  3057 net.cpp:397] conv4_8_3x3/bn -> conv4_8_3x3 (in-place)
I0620 04:26:52.820241  3057 net.cpp:150] Setting up conv4_8_3x3/bn
I0620 04:26:52.820247  3057 net.cpp:157] Top shape: 8 256 60 60 (7372800)
I0620 04:26:52.820250  3057 net.cpp:165] Memory required for data: 13018974400
I0620 04:26:52.820255  3057 layer_factory.hpp:77] Creating layer conv4_8_3x3/relu
I0620 04:26:52.820260  3057 net.cpp:106] Creating Layer conv4_8_3x3/relu
I0620 04:26:52.820261  3057 net.cpp:454] conv4_8_3x3/relu <- conv4_8_3x3
I0620 04:26:52.820263  3057 net.cpp:397] conv4_8_3x3/relu -> conv4_8_3x3 (in-place)
I0620 04:26:52.820267  3057 net.cpp:150] Setting up conv4_8_3x3/relu
I0620 04:26:52.820271  3057 net.cpp:157] Top shape: 8 256 60 60 (7372800)
I0620 04:26:52.820272  3057 net.cpp:165] Memory required for data: 13048465600
I0620 04:26:52.820274  3057 layer_factory.hpp:77] Creating layer conv4_8_1x1_increase
I0620 04:26:52.820283  3057 net.cpp:106] Creating Layer conv4_8_1x1_increase
I0620 04:26:52.820287  3057 net.cpp:454] conv4_8_1x1_increase <- conv4_8_3x3
I0620 04:26:52.820292  3057 net.cpp:411] conv4_8_1x1_increase -> conv4_8_1x1_increase
I0620 04:26:52.832768  3057 net.cpp:150] Setting up conv4_8_1x1_increase
I0620 04:26:52.832782  3057 net.cpp:157] Top shape: 8 1024 60 60 (29491200)
I0620 04:26:52.832787  3057 net.cpp:165] Memory required for data: 13166430400
I0620 04:26:52.832794  3057 layer_factory.hpp:77] Creating layer conv4_8_1x1_increase/bn
I0620 04:26:52.832803  3057 net.cpp:106] Creating Layer conv4_8_1x1_increase/bn
I0620 04:26:52.832806  3057 net.cpp:454] conv4_8_1x1_increase/bn <- conv4_8_1x1_increase
I0620 04:26:52.832813  3057 net.cpp:397] conv4_8_1x1_increase/bn -> conv4_8_1x1_increase (in-place)
I0620 04:26:52.832970  3057 net.cpp:150] Setting up conv4_8_1x1_increase/bn
I0620 04:26:52.832976  3057 net.cpp:157] Top shape: 8 1024 60 60 (29491200)
I0620 04:26:52.832980  3057 net.cpp:165] Memory required for data: 13284395200
I0620 04:26:52.832988  3057 layer_factory.hpp:77] Creating layer conv4_8
I0620 04:26:52.832994  3057 net.cpp:106] Creating Layer conv4_8
I0620 04:26:52.832998  3057 net.cpp:454] conv4_8 <- conv4_7_conv4_7/relu_0_split_1
I0620 04:26:52.833003  3057 net.cpp:454] conv4_8 <- conv4_8_1x1_increase
I0620 04:26:52.833008  3057 net.cpp:411] conv4_8 -> conv4_8
I0620 04:26:52.833029  3057 net.cpp:150] Setting up conv4_8
I0620 04:26:52.833034  3057 net.cpp:157] Top shape: 8 1024 60 60 (29491200)
I0620 04:26:52.833039  3057 net.cpp:165] Memory required for data: 13402360000
I0620 04:26:52.833041  3057 layer_factory.hpp:77] Creating layer conv4_8/relu
I0620 04:26:52.833047  3057 net.cpp:106] Creating Layer conv4_8/relu
I0620 04:26:52.833051  3057 net.cpp:454] conv4_8/relu <- conv4_8
I0620 04:26:52.833055  3057 net.cpp:397] conv4_8/relu -> conv4_8 (in-place)
I0620 04:26:52.833060  3057 net.cpp:150] Setting up conv4_8/relu
I0620 04:26:52.833065  3057 net.cpp:157] Top shape: 8 1024 60 60 (29491200)
I0620 04:26:52.833067  3057 net.cpp:165] Memory required for data: 13520324800
I0620 04:26:52.833070  3057 layer_factory.hpp:77] Creating layer conv4_8_conv4_8/relu_0_split
I0620 04:26:52.833076  3057 net.cpp:106] Creating Layer conv4_8_conv4_8/relu_0_split
I0620 04:26:52.833079  3057 net.cpp:454] conv4_8_conv4_8/relu_0_split <- conv4_8
I0620 04:26:52.833084  3057 net.cpp:411] conv4_8_conv4_8/relu_0_split -> conv4_8_conv4_8/relu_0_split_0
I0620 04:26:52.833091  3057 net.cpp:411] conv4_8_conv4_8/relu_0_split -> conv4_8_conv4_8/relu_0_split_1
I0620 04:26:52.833114  3057 net.cpp:150] Setting up conv4_8_conv4_8/relu_0_split
I0620 04:26:52.833119  3057 net.cpp:157] Top shape: 8 1024 60 60 (29491200)
I0620 04:26:52.833124  3057 net.cpp:157] Top shape: 8 1024 60 60 (29491200)
I0620 04:26:52.833127  3057 net.cpp:165] Memory required for data: 13756254400
I0620 04:26:52.833143  3057 layer_factory.hpp:77] Creating layer conv4_9_1x1_reduce
I0620 04:26:52.833154  3057 net.cpp:106] Creating Layer conv4_9_1x1_reduce
I0620 04:26:52.833158  3057 net.cpp:454] conv4_9_1x1_reduce <- conv4_8_conv4_8/relu_0_split_0
I0620 04:26:52.833163  3057 net.cpp:411] conv4_9_1x1_reduce -> conv4_9_1x1_reduce
I0620 04:26:52.839226  3057 net.cpp:150] Setting up conv4_9_1x1_reduce
I0620 04:26:52.839246  3057 net.cpp:157] Top shape: 8 256 60 60 (7372800)
I0620 04:26:52.839249  3057 net.cpp:165] Memory required for data: 13785745600
I0620 04:26:52.839257  3057 layer_factory.hpp:77] Creating layer conv4_9_1x1_reduce/bn
I0620 04:26:52.839264  3057 net.cpp:106] Creating Layer conv4_9_1x1_reduce/bn
I0620 04:26:52.839272  3057 net.cpp:454] conv4_9_1x1_reduce/bn <- conv4_9_1x1_reduce
I0620 04:26:52.839279  3057 net.cpp:397] conv4_9_1x1_reduce/bn -> conv4_9_1x1_reduce (in-place)
I0620 04:26:52.839447  3057 net.cpp:150] Setting up conv4_9_1x1_reduce/bn
I0620 04:26:52.839453  3057 net.cpp:157] Top shape: 8 256 60 60 (7372800)
I0620 04:26:52.839457  3057 net.cpp:165] Memory required for data: 13815236800
I0620 04:26:52.839495  3057 layer_factory.hpp:77] Creating layer conv4_9_1x1_reduce/relu
I0620 04:26:52.839501  3057 net.cpp:106] Creating Layer conv4_9_1x1_reduce/relu
I0620 04:26:52.839504  3057 net.cpp:454] conv4_9_1x1_reduce/relu <- conv4_9_1x1_reduce
I0620 04:26:52.839509  3057 net.cpp:397] conv4_9_1x1_reduce/relu -> conv4_9_1x1_reduce (in-place)
I0620 04:26:52.839514  3057 net.cpp:150] Setting up conv4_9_1x1_reduce/relu
I0620 04:26:52.839519  3057 net.cpp:157] Top shape: 8 256 60 60 (7372800)
I0620 04:26:52.839521  3057 net.cpp:165] Memory required for data: 13844728000
I0620 04:26:52.839524  3057 layer_factory.hpp:77] Creating layer conv4_9_3x3
I0620 04:26:52.839532  3057 net.cpp:106] Creating Layer conv4_9_3x3
I0620 04:26:52.839536  3057 net.cpp:454] conv4_9_3x3 <- conv4_9_1x1_reduce
I0620 04:26:52.839542  3057 net.cpp:411] conv4_9_3x3 -> conv4_9_3x3
I0620 04:26:52.854454  3057 net.cpp:150] Setting up conv4_9_3x3
I0620 04:26:52.854528  3057 net.cpp:157] Top shape: 8 256 60 60 (7372800)
I0620 04:26:52.854538  3057 net.cpp:165] Memory required for data: 13874219200
I0620 04:26:52.854557  3057 layer_factory.hpp:77] Creating layer conv4_9_3x3/bn
I0620 04:26:52.854591  3057 net.cpp:106] Creating Layer conv4_9_3x3/bn
I0620 04:26:52.854604  3057 net.cpp:454] conv4_9_3x3/bn <- conv4_9_3x3
I0620 04:26:52.854619  3057 net.cpp:397] conv4_9_3x3/bn -> conv4_9_3x3 (in-place)
I0620 04:26:52.854946  3057 net.cpp:150] Setting up conv4_9_3x3/bn
I0620 04:26:52.854960  3057 net.cpp:157] Top shape: 8 256 60 60 (7372800)
I0620 04:26:52.854964  3057 net.cpp:165] Memory required for data: 13903710400
I0620 04:26:52.854974  3057 layer_factory.hpp:77] Creating layer conv4_9_3x3/relu
I0620 04:26:52.854987  3057 net.cpp:106] Creating Layer conv4_9_3x3/relu
I0620 04:26:52.854993  3057 net.cpp:454] conv4_9_3x3/relu <- conv4_9_3x3
I0620 04:26:52.854998  3057 net.cpp:397] conv4_9_3x3/relu -> conv4_9_3x3 (in-place)
I0620 04:26:52.855006  3057 net.cpp:150] Setting up conv4_9_3x3/relu
I0620 04:26:52.855011  3057 net.cpp:157] Top shape: 8 256 60 60 (7372800)
I0620 04:26:52.855015  3057 net.cpp:165] Memory required for data: 13933201600
I0620 04:26:52.855020  3057 layer_factory.hpp:77] Creating layer conv4_9_1x1_increase
I0620 04:26:52.855036  3057 net.cpp:106] Creating Layer conv4_9_1x1_increase
I0620 04:26:52.855043  3057 net.cpp:454] conv4_9_1x1_increase <- conv4_9_3x3
I0620 04:26:52.855052  3057 net.cpp:411] conv4_9_1x1_increase -> conv4_9_1x1_increase
I0620 04:26:52.865389  3057 net.cpp:150] Setting up conv4_9_1x1_increase
I0620 04:26:52.865429  3057 net.cpp:157] Top shape: 8 1024 60 60 (29491200)
I0620 04:26:52.865434  3057 net.cpp:165] Memory required for data: 14051166400
I0620 04:26:52.865448  3057 layer_factory.hpp:77] Creating layer conv4_9_1x1_increase/bn
I0620 04:26:52.865469  3057 net.cpp:106] Creating Layer conv4_9_1x1_increase/bn
I0620 04:26:52.865478  3057 net.cpp:454] conv4_9_1x1_increase/bn <- conv4_9_1x1_increase
I0620 04:26:52.865506  3057 net.cpp:397] conv4_9_1x1_increase/bn -> conv4_9_1x1_increase (in-place)
I0620 04:26:52.865684  3057 net.cpp:150] Setting up conv4_9_1x1_increase/bn
I0620 04:26:52.865690  3057 net.cpp:157] Top shape: 8 1024 60 60 (29491200)
I0620 04:26:52.865694  3057 net.cpp:165] Memory required for data: 14169131200
I0620 04:26:52.865702  3057 layer_factory.hpp:77] Creating layer conv4_9
I0620 04:26:52.865710  3057 net.cpp:106] Creating Layer conv4_9
I0620 04:26:52.865712  3057 net.cpp:454] conv4_9 <- conv4_8_conv4_8/relu_0_split_1
I0620 04:26:52.865717  3057 net.cpp:454] conv4_9 <- conv4_9_1x1_increase
I0620 04:26:52.865721  3057 net.cpp:411] conv4_9 -> conv4_9
I0620 04:26:52.865742  3057 net.cpp:150] Setting up conv4_9
I0620 04:26:52.865746  3057 net.cpp:157] Top shape: 8 1024 60 60 (29491200)
I0620 04:26:52.865749  3057 net.cpp:165] Memory required for data: 14287096000
I0620 04:26:52.865768  3057 layer_factory.hpp:77] Creating layer conv4_9/relu
I0620 04:26:52.865775  3057 net.cpp:106] Creating Layer conv4_9/relu
I0620 04:26:52.865778  3057 net.cpp:454] conv4_9/relu <- conv4_9
I0620 04:26:52.865782  3057 net.cpp:397] conv4_9/relu -> conv4_9 (in-place)
I0620 04:26:52.865787  3057 net.cpp:150] Setting up conv4_9/relu
I0620 04:26:52.865789  3057 net.cpp:157] Top shape: 8 1024 60 60 (29491200)
I0620 04:26:52.865793  3057 net.cpp:165] Memory required for data: 14405060800
I0620 04:26:52.865797  3057 layer_factory.hpp:77] Creating layer conv4_9_conv4_9/relu_0_split
I0620 04:26:52.865804  3057 net.cpp:106] Creating Layer conv4_9_conv4_9/relu_0_split
I0620 04:26:52.865808  3057 net.cpp:454] conv4_9_conv4_9/relu_0_split <- conv4_9
I0620 04:26:52.865813  3057 net.cpp:411] conv4_9_conv4_9/relu_0_split -> conv4_9_conv4_9/relu_0_split_0
I0620 04:26:52.865818  3057 net.cpp:411] conv4_9_conv4_9/relu_0_split -> conv4_9_conv4_9/relu_0_split_1
I0620 04:26:52.865846  3057 net.cpp:150] Setting up conv4_9_conv4_9/relu_0_split
I0620 04:26:52.865851  3057 net.cpp:157] Top shape: 8 1024 60 60 (29491200)
I0620 04:26:52.865856  3057 net.cpp:157] Top shape: 8 1024 60 60 (29491200)
I0620 04:26:52.865859  3057 net.cpp:165] Memory required for data: 14640990400
I0620 04:26:52.865864  3057 layer_factory.hpp:77] Creating layer conv4_10_1x1_reduce
I0620 04:26:52.865872  3057 net.cpp:106] Creating Layer conv4_10_1x1_reduce
I0620 04:26:52.865875  3057 net.cpp:454] conv4_10_1x1_reduce <- conv4_9_conv4_9/relu_0_split_0
I0620 04:26:52.865881  3057 net.cpp:411] conv4_10_1x1_reduce -> conv4_10_1x1_reduce
I0620 04:26:52.872051  3057 net.cpp:150] Setting up conv4_10_1x1_reduce
I0620 04:26:52.872071  3057 net.cpp:157] Top shape: 8 256 60 60 (7372800)
I0620 04:26:52.872074  3057 net.cpp:165] Memory required for data: 14670481600
I0620 04:26:52.872082  3057 layer_factory.hpp:77] Creating layer conv4_10_1x1_reduce/bn
I0620 04:26:52.872092  3057 net.cpp:106] Creating Layer conv4_10_1x1_reduce/bn
I0620 04:26:52.872097  3057 net.cpp:454] conv4_10_1x1_reduce/bn <- conv4_10_1x1_reduce
I0620 04:26:52.872103  3057 net.cpp:397] conv4_10_1x1_reduce/bn -> conv4_10_1x1_reduce (in-place)
I0620 04:26:52.872261  3057 net.cpp:150] Setting up conv4_10_1x1_reduce/bn
I0620 04:26:52.872267  3057 net.cpp:157] Top shape: 8 256 60 60 (7372800)
I0620 04:26:52.872270  3057 net.cpp:165] Memory required for data: 14699972800
I0620 04:26:52.872277  3057 layer_factory.hpp:77] Creating layer conv4_10_1x1_reduce/relu
I0620 04:26:52.872283  3057 net.cpp:106] Creating Layer conv4_10_1x1_reduce/relu
I0620 04:26:52.872287  3057 net.cpp:454] conv4_10_1x1_reduce/relu <- conv4_10_1x1_reduce
I0620 04:26:52.872290  3057 net.cpp:397] conv4_10_1x1_reduce/relu -> conv4_10_1x1_reduce (in-place)
I0620 04:26:52.872295  3057 net.cpp:150] Setting up conv4_10_1x1_reduce/relu
I0620 04:26:52.872300  3057 net.cpp:157] Top shape: 8 256 60 60 (7372800)
I0620 04:26:52.872303  3057 net.cpp:165] Memory required for data: 14729464000
I0620 04:26:52.872306  3057 layer_factory.hpp:77] Creating layer conv4_10_3x3
I0620 04:26:52.872314  3057 net.cpp:106] Creating Layer conv4_10_3x3
I0620 04:26:52.872318  3057 net.cpp:454] conv4_10_3x3 <- conv4_10_1x1_reduce
I0620 04:26:52.872342  3057 net.cpp:411] conv4_10_3x3 -> conv4_10_3x3
I0620 04:26:52.887269  3057 net.cpp:150] Setting up conv4_10_3x3
I0620 04:26:52.887295  3057 net.cpp:157] Top shape: 8 256 60 60 (7372800)
I0620 04:26:52.887298  3057 net.cpp:165] Memory required for data: 14758955200
I0620 04:26:52.887306  3057 layer_factory.hpp:77] Creating layer conv4_10_3x3/bn
I0620 04:26:52.887325  3057 net.cpp:106] Creating Layer conv4_10_3x3/bn
I0620 04:26:52.887334  3057 net.cpp:454] conv4_10_3x3/bn <- conv4_10_3x3
I0620 04:26:52.887346  3057 net.cpp:397] conv4_10_3x3/bn -> conv4_10_3x3 (in-place)
I0620 04:26:52.887589  3057 net.cpp:150] Setting up conv4_10_3x3/bn
I0620 04:26:52.887598  3057 net.cpp:157] Top shape: 8 256 60 60 (7372800)
I0620 04:26:52.887603  3057 net.cpp:165] Memory required for data: 14788446400
I0620 04:26:52.887609  3057 layer_factory.hpp:77] Creating layer conv4_10_3x3/relu
I0620 04:26:52.887616  3057 net.cpp:106] Creating Layer conv4_10_3x3/relu
I0620 04:26:52.887620  3057 net.cpp:454] conv4_10_3x3/relu <- conv4_10_3x3
I0620 04:26:52.887625  3057 net.cpp:397] conv4_10_3x3/relu -> conv4_10_3x3 (in-place)
I0620 04:26:52.887631  3057 net.cpp:150] Setting up conv4_10_3x3/relu
I0620 04:26:52.887636  3057 net.cpp:157] Top shape: 8 256 60 60 (7372800)
I0620 04:26:52.887640  3057 net.cpp:165] Memory required for data: 14817937600
I0620 04:26:52.887645  3057 layer_factory.hpp:77] Creating layer conv4_10_1x1_increase
I0620 04:26:52.887655  3057 net.cpp:106] Creating Layer conv4_10_1x1_increase
I0620 04:26:52.887658  3057 net.cpp:454] conv4_10_1x1_increase <- conv4_10_3x3
I0620 04:26:52.887665  3057 net.cpp:411] conv4_10_1x1_increase -> conv4_10_1x1_increase
I0620 04:26:52.894958  3057 net.cpp:150] Setting up conv4_10_1x1_increase
I0620 04:26:52.894997  3057 net.cpp:157] Top shape: 8 1024 60 60 (29491200)
I0620 04:26:52.895000  3057 net.cpp:165] Memory required for data: 14935902400
I0620 04:26:52.895009  3057 layer_factory.hpp:77] Creating layer conv4_10_1x1_increase/bn
I0620 04:26:52.895030  3057 net.cpp:106] Creating Layer conv4_10_1x1_increase/bn
I0620 04:26:52.895045  3057 net.cpp:454] conv4_10_1x1_increase/bn <- conv4_10_1x1_increase
I0620 04:26:52.895056  3057 net.cpp:397] conv4_10_1x1_increase/bn -> conv4_10_1x1_increase (in-place)
I0620 04:26:52.895285  3057 net.cpp:150] Setting up conv4_10_1x1_increase/bn
I0620 04:26:52.895294  3057 net.cpp:157] Top shape: 8 1024 60 60 (29491200)
I0620 04:26:52.895299  3057 net.cpp:165] Memory required for data: 15053867200
I0620 04:26:52.895306  3057 layer_factory.hpp:77] Creating layer conv4_10
I0620 04:26:52.895314  3057 net.cpp:106] Creating Layer conv4_10
I0620 04:26:52.895319  3057 net.cpp:454] conv4_10 <- conv4_9_conv4_9/relu_0_split_1
I0620 04:26:52.895323  3057 net.cpp:454] conv4_10 <- conv4_10_1x1_increase
I0620 04:26:52.895328  3057 net.cpp:411] conv4_10 -> conv4_10
I0620 04:26:52.895357  3057 net.cpp:150] Setting up conv4_10
I0620 04:26:52.895362  3057 net.cpp:157] Top shape: 8 1024 60 60 (29491200)
I0620 04:26:52.895366  3057 net.cpp:165] Memory required for data: 15171832000
I0620 04:26:52.895370  3057 layer_factory.hpp:77] Creating layer conv4_10/relu
I0620 04:26:52.895377  3057 net.cpp:106] Creating Layer conv4_10/relu
I0620 04:26:52.895381  3057 net.cpp:454] conv4_10/relu <- conv4_10
I0620 04:26:52.895385  3057 net.cpp:397] conv4_10/relu -> conv4_10 (in-place)
I0620 04:26:52.895392  3057 net.cpp:150] Setting up conv4_10/relu
I0620 04:26:52.895396  3057 net.cpp:157] Top shape: 8 1024 60 60 (29491200)
I0620 04:26:52.895400  3057 net.cpp:165] Memory required for data: 15289796800
I0620 04:26:52.895403  3057 layer_factory.hpp:77] Creating layer conv4_10_conv4_10/relu_0_split
I0620 04:26:52.895409  3057 net.cpp:106] Creating Layer conv4_10_conv4_10/relu_0_split
I0620 04:26:52.895412  3057 net.cpp:454] conv4_10_conv4_10/relu_0_split <- conv4_10
I0620 04:26:52.895416  3057 net.cpp:411] conv4_10_conv4_10/relu_0_split -> conv4_10_conv4_10/relu_0_split_0
I0620 04:26:52.895421  3057 net.cpp:411] conv4_10_conv4_10/relu_0_split -> conv4_10_conv4_10/relu_0_split_1
I0620 04:26:52.895473  3057 net.cpp:150] Setting up conv4_10_conv4_10/relu_0_split
I0620 04:26:52.895478  3057 net.cpp:157] Top shape: 8 1024 60 60 (29491200)
I0620 04:26:52.895480  3057 net.cpp:157] Top shape: 8 1024 60 60 (29491200)
I0620 04:26:52.895483  3057 net.cpp:165] Memory required for data: 15525726400
I0620 04:26:52.895488  3057 layer_factory.hpp:77] Creating layer conv4_11_1x1_reduce
I0620 04:26:52.895496  3057 net.cpp:106] Creating Layer conv4_11_1x1_reduce
I0620 04:26:52.895500  3057 net.cpp:454] conv4_11_1x1_reduce <- conv4_10_conv4_10/relu_0_split_0
I0620 04:26:52.895506  3057 net.cpp:411] conv4_11_1x1_reduce -> conv4_11_1x1_reduce
I0620 04:26:52.903219  3057 net.cpp:150] Setting up conv4_11_1x1_reduce
I0620 04:26:52.903308  3057 net.cpp:157] Top shape: 8 256 60 60 (7372800)
I0620 04:26:52.903317  3057 net.cpp:165] Memory required for data: 15555217600
I0620 04:26:52.903334  3057 layer_factory.hpp:77] Creating layer conv4_11_1x1_reduce/bn
I0620 04:26:52.903357  3057 net.cpp:106] Creating Layer conv4_11_1x1_reduce/bn
I0620 04:26:52.903369  3057 net.cpp:454] conv4_11_1x1_reduce/bn <- conv4_11_1x1_reduce
I0620 04:26:52.903386  3057 net.cpp:397] conv4_11_1x1_reduce/bn -> conv4_11_1x1_reduce (in-place)
I0620 04:26:52.903699  3057 net.cpp:150] Setting up conv4_11_1x1_reduce/bn
I0620 04:26:52.903707  3057 net.cpp:157] Top shape: 8 256 60 60 (7372800)
I0620 04:26:52.903717  3057 net.cpp:165] Memory required for data: 15584708800
I0620 04:26:52.903724  3057 layer_factory.hpp:77] Creating layer conv4_11_1x1_reduce/relu
I0620 04:26:52.903736  3057 net.cpp:106] Creating Layer conv4_11_1x1_reduce/relu
I0620 04:26:52.903741  3057 net.cpp:454] conv4_11_1x1_reduce/relu <- conv4_11_1x1_reduce
I0620 04:26:52.903746  3057 net.cpp:397] conv4_11_1x1_reduce/relu -> conv4_11_1x1_reduce (in-place)
I0620 04:26:52.903753  3057 net.cpp:150] Setting up conv4_11_1x1_reduce/relu
I0620 04:26:52.903759  3057 net.cpp:157] Top shape: 8 256 60 60 (7372800)
I0620 04:26:52.903762  3057 net.cpp:165] Memory required for data: 15614200000
I0620 04:26:52.903767  3057 layer_factory.hpp:77] Creating layer conv4_11_3x3
I0620 04:26:52.903784  3057 net.cpp:106] Creating Layer conv4_11_3x3
I0620 04:26:52.903787  3057 net.cpp:454] conv4_11_3x3 <- conv4_11_1x1_reduce
I0620 04:26:52.903795  3057 net.cpp:411] conv4_11_3x3 -> conv4_11_3x3
I0620 04:26:52.924196  3057 net.cpp:150] Setting up conv4_11_3x3
I0620 04:26:52.924219  3057 net.cpp:157] Top shape: 8 256 60 60 (7372800)
I0620 04:26:52.924221  3057 net.cpp:165] Memory required for data: 15643691200
I0620 04:26:52.924227  3057 layer_factory.hpp:77] Creating layer conv4_11_3x3/bn
I0620 04:26:52.924240  3057 net.cpp:106] Creating Layer conv4_11_3x3/bn
I0620 04:26:52.924249  3057 net.cpp:454] conv4_11_3x3/bn <- conv4_11_3x3
I0620 04:26:52.924262  3057 net.cpp:397] conv4_11_3x3/bn -> conv4_11_3x3 (in-place)
I0620 04:26:52.924433  3057 net.cpp:150] Setting up conv4_11_3x3/bn
I0620 04:26:52.924439  3057 net.cpp:157] Top shape: 8 256 60 60 (7372800)
I0620 04:26:52.924443  3057 net.cpp:165] Memory required for data: 15673182400
I0620 04:26:52.924450  3057 layer_factory.hpp:77] Creating layer conv4_11_3x3/relu
…
I0620 04:26:53.238632  3057 net.cpp:150] Setting up conv4_21
I0620 04:26:53.238637  3057 net.cpp:157] Top shape: 8 1024 60 60 (29491200)
I0620 04:26:53.238641  3057 net.cpp:165] Memory required for data: 24903928000
I0620 04:26:53.238644  3057 layer_factory.hpp:77] Creating layer conv4_21/relu
I0620 04:26:53.238649  3057 net.cpp:106] Creating Layer conv4_21/relu
I0620 04:26:53.238652  3057 net.cpp:454] conv4_21/relu <- conv4_21
I0620 04:26:53.238656  3057 net.cpp:397] conv4_21/relu -> conv4_21 (in-place)
I0620 04:26:53.238662  3057 net.cpp:150] Setting up conv4_21/relu
I0620 04:26:53.238665  3057 net.cpp:157] Top shape: 8 1024 60 60 (29491200)
I0620 04:26:53.238668  3057 net.cpp:165] Memory required for data: 25021892800
I0620 04:26:53.238672  3057 layer_factory.hpp:77] Creating layer conv4_21_conv4_21/relu_0_split
I0620 04:26:53.238693  3057 net.cpp:106] Creating Layer conv4_21_conv4_21/relu_0_split
I0620 04:26:53.238698  3057 net.cpp:454] conv4_21_conv4_21/relu_0_split <- conv4_21
I0620 04:26:53.238701  3057 net.cpp:411] conv4_21_conv4_21/relu_0_split -> conv4_21_conv4_21/relu_0_split_0
I0620 04:26:53.238706  3057 net.cpp:411] conv4_21_conv4_21/relu_0_split -> conv4_21_conv4_21/relu_0_split_1
I0620 04:26:53.238732  3057 net.cpp:150] Setting up conv4_21_conv4_21/relu_0_split
I0620 04:26:53.238737  3057 net.cpp:157] Top shape: 8 1024 60 60 (29491200)
I0620 04:26:53.238741  3057 net.cpp:157] Top shape: 8 1024 60 60 (29491200)
I0620 04:26:53.238744  3057 net.cpp:165] Memory required for data: 25257822400
I0620 04:26:53.238749  3057 layer_factory.hpp:77] Creating layer conv4_22_1x1_reduce
I0620 04:26:53.238756  3057 net.cpp:106] Creating Layer conv4_22_1x1_reduce
I0620 04:26:53.238759  3057 net.cpp:454] conv4_22_1x1_reduce <- conv4_21_conv4_21/relu_0_split_0
I0620 04:26:53.238765  3057 net.cpp:411] conv4_22_1x1_reduce -> conv4_22_1x1_reduce
I0620 04:26:53.244664  3057 net.cpp:150] Setting up conv4_22_1x1_reduce
I0620 04:26:53.244673  3057 net.cpp:157] Top shape: 8 256 60 60 (7372800)
I0620 04:26:53.244676  3057 net.cpp:165] Memory required for data: 25287313600
I0620 04:26:53.244680  3057 layer_factory.hpp:77] Creating layer conv4_22_1x1_reduce/bn
I0620 04:26:53.244688  3057 net.cpp:106] Creating Layer conv4_22_1x1_reduce/bn
I0620 04:26:53.244690  3057 net.cpp:454] conv4_22_1x1_reduce/bn <- conv4_22_1x1_reduce
I0620 04:26:53.244695  3057 net.cpp:397] conv4_22_1x1_reduce/bn -> conv4_22_1x1_reduce (in-place)
I0620 04:26:53.244846  3057 net.cpp:150] Setting up conv4_22_1x1_reduce/bn
I0620 04:26:53.244851  3057 net.cpp:157] Top shape: 8 256 60 60 (7372800)
I0620 04:26:53.244854  3057 net.cpp:165] Memory required for data: 25316804800
I0620 04:26:53.244861  3057 layer_factory.hpp:77] Creating layer conv4_22_1x1_reduce/relu
I0620 04:26:53.244865  3057 net.cpp:106] Creating Layer conv4_22_1x1_reduce/relu
I0620 04:26:53.244868  3057 net.cpp:454] conv4_22_1x1_reduce/relu <- conv4_22_1x1_reduce
I0620 04:26:53.244873  3057 net.cpp:397] conv4_22_1x1_reduce/relu -> conv4_22_1x1_reduce (in-place)
I0620 04:26:53.244877  3057 net.cpp:150] Setting up conv4_22_1x1_reduce/relu
I0620 04:26:53.244881  3057 net.cpp:157] Top shape: 8 256 60 60 (7372800)
I0620 04:26:53.244884  3057 net.cpp:165] Memory required for data: 25346296000
I0620 04:26:53.244887  3057 layer_factory.hpp:77] Creating layer conv4_22_3x3
I0620 04:26:53.244894  3057 net.cpp:106] Creating Layer conv4_22_3x3
I0620 04:26:53.244897  3057 net.cpp:454] conv4_22_3x3 <- conv4_22_1x1_reduce
I0620 04:26:53.244902  3057 net.cpp:411] conv4_22_3x3 -> conv4_22_3x3
I0620 04:26:53.262337  3057 net.cpp:150] Setting up conv4_22_3x3
I0620 04:26:53.262408  3057 net.cpp:157] Top shape: 8 256 60 60 (7372800)
I0620 04:26:53.262415  3057 net.cpp:165] Memory required for data: 25375787200
I0620 04:26:53.262430  3057 layer_factory.hpp:77] Creating layer conv4_22_3x3/bn
I0620 04:26:53.262460  3057 net.cpp:106] Creating Layer conv4_22_3x3/bn
I0620 04:26:53.262473  3057 net.cpp:454] conv4_22_3x3/bn <- conv4_22_3x3
I0620 04:26:53.262485  3057 net.cpp:397] conv4_22_3x3/bn -> conv4_22_3x3 (in-place)
I0620 04:26:53.262763  3057 net.cpp:150] Setting up conv4_22_3x3/bn
I0620 04:26:53.262771  3057 net.cpp:157] Top shape: 8 256 60 60 (7372800)
I0620 04:26:53.262775  3057 net.cpp:165] Memory required for data: 25405278400
I0620 04:26:53.262784  3057 layer_factory.hpp:77] Creating layer conv4_22_3x3/relu
I0620 04:26:53.262794  3057 net.cpp:106] Creating Layer conv4_22_3x3/relu
I0620 04:26:53.262799  3057 net.cpp:454] conv4_22_3x3/relu <- conv4_22_3x3
I0620 04:26:53.262804  3057 net.cpp:397] conv4_22_3x3/relu -> conv4_22_3x3 (in-place)
I0620 04:26:53.262811  3057 net.cpp:150] Setting up conv4_22_3x3/relu
I0620 04:26:53.262817  3057 net.cpp:157] Top shape: 8 256 60 60 (7372800)
I0620 04:26:53.262821  3057 net.cpp:165] Memory required for data: 25434769600
I0620 04:26:53.262861  3057 layer_factory.hpp:77] Creating layer conv4_22_1x1_increase
I0620 04:26:53.262873  3057 net.cpp:106] Creating Layer conv4_22_1x1_increase
I0620 04:26:53.262878  3057 net.cpp:454] conv4_22_1x1_increase <- conv4_22_3x3
I0620 04:26:53.262886  3057 net.cpp:411] conv4_22_1x1_increase -> conv4_22_1x1_increase
I0620 04:26:53.269842  3057 net.cpp:150] Setting up conv4_22_1x1_increase
I0620 04:26:53.269860  3057 net.cpp:157] Top shape: 8 1024 60 60 (29491200)
I0620 04:26:53.269865  3057 net.cpp:165] Memory required for data: 25552734400
I0620 04:26:53.269873  3057 layer_factory.hpp:77] Creating layer conv4_22_1x1_increase/bn
I0620 04:26:53.269889  3057 net.cpp:106] Creating Layer conv4_22_1x1_increase/bn
I0620 04:26:53.269896  3057 net.cpp:454] conv4_22_1x1_increase/bn <- conv4_22_1x1_increase
I0620 04:26:53.269906  3057 net.cpp:397] conv4_22_1x1_increase/bn -> conv4_22_1x1_increase (in-place)
I0620 04:26:53.270092  3057 net.cpp:150] Setting up conv4_22_1x1_increase/bn
I0620 04:26:53.270098  3057 net.cpp:157] Top shape: 8 1024 60 60 (29491200)
I0620 04:26:53.270102  3057 net.cpp:165] Memory required for data: 25670699200
I0620 04:26:53.270109  3057 layer_factory.hpp:77] Creating layer conv4_22
I0620 04:26:53.270115  3057 net.cpp:106] Creating Layer conv4_22
I0620 04:26:53.270119  3057 net.cpp:454] conv4_22 <- conv4_21_conv4_21/relu_0_split_1
I0620 04:26:53.270123  3057 net.cpp:454] conv4_22 <- conv4_22_1x1_increase
I0620 04:26:53.270128  3057 net.cpp:411] conv4_22 -> conv4_22
I0620 04:26:53.270150  3057 net.cpp:150] Setting up conv4_22
I0620 04:26:53.270155  3057 net.cpp:157] Top shape: 8 1024 60 60 (29491200)
I0620 04:26:53.270159  3057 net.cpp:165] Memory required for data: 25788664000
I0620 04:26:53.270161  3057 layer_factory.hpp:77] Creating layer conv4_22/relu
I0620 04:26:53.270167  3057 net.cpp:106] Creating Layer conv4_22/relu
I0620 04:26:53.270171  3057 net.cpp:454] conv4_22/relu <- conv4_22
I0620 04:26:53.270174  3057 net.cpp:397] conv4_22/relu -> conv4_22 (in-place)
I0620 04:26:53.270190  3057 net.cpp:150] Setting up conv4_22/relu
I0620 04:26:53.270193  3057 net.cpp:157] Top shape: 8 1024 60 60 (29491200)
I0620 04:26:53.270196  3057 net.cpp:165] Memory required for data: 25906628800
I0620 04:26:53.270200  3057 layer_factory.hpp:77] Creating layer conv4_22_conv4_22/relu_0_split
I0620 04:26:53.270206  3057 net.cpp:106] Creating Layer conv4_22_conv4_22/relu_0_split
I0620 04:26:53.270210  3057 net.cpp:454] conv4_22_conv4_22/relu_0_split <- conv4_22
I0620 04:26:53.270215  3057 net.cpp:411] conv4_22_conv4_22/relu_0_split -> conv4_22_conv4_22/relu_0_split_0
I0620 04:26:53.270220  3057 net.cpp:411] conv4_22_conv4_22/relu_0_split -> conv4_22_conv4_22/relu_0_split_1
I0620 04:26:53.270246  3057 net.cpp:150] Setting up conv4_22_conv4_22/relu_0_split
I0620 04:26:53.270251  3057 net.cpp:157] Top shape: 8 1024 60 60 (29491200)
I0620 04:26:53.270256  3057 net.cpp:157] Top shape: 8 1024 60 60 (29491200)
I0620 04:26:53.270259  3057 net.cpp:165] Memory required for data: 26142558400
I0620 04:26:53.270262  3057 layer_factory.hpp:77] Creating layer conv4_23_1x1_reduce
I0620 04:26:53.270269  3057 net.cpp:106] Creating Layer conv4_23_1x1_reduce
I0620 04:26:53.270272  3057 net.cpp:454] conv4_23_1x1_reduce <- conv4_22_conv4_22/relu_0_split_0
I0620 04:26:53.270278  3057 net.cpp:411] conv4_23_1x1_reduce -> conv4_23_1x1_reduce
I0620 04:26:53.276291  3057 net.cpp:150] Setting up conv4_23_1x1_reduce
I0620 04:26:53.276300  3057 net.cpp:157] Top shape: 8 256 60 60 (7372800)
I0620 04:26:53.276304  3057 net.cpp:165] Memory required for data: 26172049600
I0620 04:26:53.276309  3057 layer_factory.hpp:77] Creating layer conv4_23_1x1_reduce/bn
I0620 04:26:53.276315  3057 net.cpp:106] Creating Layer conv4_23_1x1_reduce/bn
I0620 04:26:53.276320  3057 net.cpp:454] conv4_23_1x1_reduce/bn <- conv4_23_1x1_reduce
I0620 04:26:53.276325  3057 net.cpp:397] conv4_23_1x1_reduce/bn -> conv4_23_1x1_reduce (in-place)
I0620 04:26:53.276494  3057 net.cpp:150] Setting up conv4_23_1x1_reduce/bn
I0620 04:26:53.276500  3057 net.cpp:157] Top shape: 8 256 60 60 (7372800)
I0620 04:26:53.276517  3057 net.cpp:165] Memory required for data: 26201540800
I0620 04:26:53.276525  3057 layer_factory.hpp:77] Creating layer conv4_23_1x1_reduce/relu
I0620 04:26:53.276530  3057 net.cpp:106] Creating Layer conv4_23_1x1_reduce/relu
I0620 04:26:53.276532  3057 net.cpp:454] conv4_23_1x1_reduce/relu <- conv4_23_1x1_reduce
I0620 04:26:53.276536  3057 net.cpp:397] conv4_23_1x1_reduce/relu -> conv4_23_1x1_reduce (in-place)
I0620 04:26:53.276541  3057 net.cpp:150] Setting up conv4_23_1x1_reduce/relu
I0620 04:26:53.276546  3057 net.cpp:157] Top shape: 8 256 60 60 (7372800)
I0620 04:26:53.276548  3057 net.cpp:165] Memory required for data: 26231032000
I0620 04:26:53.276551  3057 layer_factory.hpp:77] Creating layer conv4_23_3x3
I0620 04:26:53.276558  3057 net.cpp:106] Creating Layer conv4_23_3x3
I0620 04:26:53.276561  3057 net.cpp:454] conv4_23_3x3 <- conv4_23_1x1_reduce
I0620 04:26:53.276567  3057 net.cpp:411] conv4_23_3x3 -> conv4_23_3x3
I0620 04:26:53.290539  3057 net.cpp:150] Setting up conv4_23_3x3
I0620 04:26:53.290560  3057 net.cpp:157] Top shape: 8 256 60 60 (7372800)
I0620 04:26:53.290565  3057 net.cpp:165] Memory required for data: 26260523200
I0620 04:26:53.290572  3057 layer_factory.hpp:77] Creating layer conv4_23_3x3/bn
I0620 04:26:53.290582  3057 net.cpp:106] Creating Layer conv4_23_3x3/bn
I0620 04:26:53.290587  3057 net.cpp:454] conv4_23_3x3/bn <- conv4_23_3x3
I0620 04:26:53.290593  3057 net.cpp:397] conv4_23_3x3/bn -> conv4_23_3x3 (in-place)
I0620 04:26:53.290761  3057 net.cpp:150] Setting up conv4_23_3x3/bn
I0620 04:26:53.290767  3057 net.cpp:157] Top shape: 8 256 60 60 (7372800)
I0620 04:26:53.290771  3057 net.cpp:165] Memory required for data: 26290014400
I0620 04:26:53.290777  3057 layer_factory.hpp:77] Creating layer conv4_23_3x3/relu
I0620 04:26:53.290782  3057 net.cpp:106] Creating Layer conv4_23_3x3/relu
I0620 04:26:53.290786  3057 net.cpp:454] conv4_23_3x3/relu <- conv4_23_3x3
I0620 04:26:53.290791  3057 net.cpp:397] conv4_23_3x3/relu -> conv4_23_3x3 (in-place)
I0620 04:26:53.290796  3057 net.cpp:150] Setting up conv4_23_3x3/relu
I0620 04:26:53.290799  3057 net.cpp:157] Top shape: 8 256 60 60 (7372800)
I0620 04:26:53.290802  3057 net.cpp:165] Memory required for data: 26319505600
I0620 04:26:53.290805  3057 layer_factory.hpp:77] Creating layer conv4_23_1x1_increase
I0620 04:26:53.290814  3057 net.cpp:106] Creating Layer conv4_23_1x1_increase
I0620 04:26:53.290817  3057 net.cpp:454] conv4_23_1x1_increase <- conv4_23_3x3
I0620 04:26:53.290823  3057 net.cpp:411] conv4_23_1x1_increase -> conv4_23_1x1_increase
I0620 04:26:53.299805  3057 net.cpp:150] Setting up conv4_23_1x1_increase
I0620 04:26:53.299890  3057 net.cpp:157] Top shape: 8 1024 60 60 (29491200)
I0620 04:26:53.299896  3057 net.cpp:165] Memory required for data: 26437470400
I0620 04:26:53.299912  3057 layer_factory.hpp:77] Creating layer conv4_23_1x1_increase/bn
I0620 04:26:53.299942  3057 net.cpp:106] Creating Layer conv4_23_1x1_increase/bn
I0620 04:26:53.299957  3057 net.cpp:454] conv4_23_1x1_increase/bn <- conv4_23_1x1_increase
I0620 04:26:53.299970  3057 net.cpp:397] conv4_23_1x1_increase/bn -> conv4_23_1x1_increase (in-place)
I0620 04:26:53.300297  3057 net.cpp:150] Setting up conv4_23_1x1_increase/bn
I0620 04:26:53.300307  3057 net.cpp:157] Top shape: 8 1024 60 60 (29491200)
I0620 04:26:53.300312  3057 net.cpp:165] Memory required for data: 26555435200
I0620 04:26:53.300320  3057 layer_factory.hpp:77] Creating layer conv4_23
I0620 04:26:53.300333  3057 net.cpp:106] Creating Layer conv4_23
I0620 04:26:53.300338  3057 net.cpp:454] conv4_23 <- conv4_22_conv4_22/relu_0_split_1
I0620 04:26:53.300344  3057 net.cpp:454] conv4_23 <- conv4_23_1x1_increase
I0620 04:26:53.300350  3057 net.cpp:411] conv4_23 -> conv4_23
I0620 04:26:53.300390  3057 net.cpp:150] Setting up conv4_23
I0620 04:26:53.300396  3057 net.cpp:157] Top shape: 8 1024 60 60 (29491200)
I0620 04:26:53.300400  3057 net.cpp:165] Memory required for data: 26673400000
I0620 04:26:53.300405  3057 layer_factory.hpp:77] Creating layer conv4_23/relu
I0620 04:26:53.300463  3057 net.cpp:106] Creating Layer conv4_23/relu
I0620 04:26:53.300468  3057 net.cpp:454] conv4_23/relu <- conv4_23
I0620 04:26:53.300475  3057 net.cpp:397] conv4_23/relu -> conv4_23 (in-place)
I0620 04:26:53.300484  3057 net.cpp:150] Setting up conv4_23/relu
I0620 04:26:53.300490  3057 net.cpp:157] Top shape: 8 1024 60 60 (29491200)
I0620 04:26:53.300493  3057 net.cpp:165] Memory required for data: 26791364800
I0620 04:26:53.300498  3057 layer_factory.hpp:77] Creating layer conv4_23_conv4_23/relu_0_split
I0620 04:26:53.300506  3057 net.cpp:106] Creating Layer conv4_23_conv4_23/relu_0_split
I0620 04:26:53.300511  3057 net.cpp:454] conv4_23_conv4_23/relu_0_split <- conv4_23
I0620 04:26:53.300518  3057 net.cpp:411] conv4_23_conv4_23/relu_0_split -> conv4_23_conv4_23/relu_0_split_0
I0620 04:26:53.300523  3057 net.cpp:411] conv4_23_conv4_23/relu_0_split -> conv4_23_conv4_23/relu_0_split_1
I0620 04:26:53.300565  3057 net.cpp:150] Setting up conv4_23_conv4_23/relu_0_split
I0620 04:26:53.300571  3057 net.cpp:157] Top shape: 8 1024 60 60 (29491200)
I0620 04:26:53.300576  3057 net.cpp:157] Top shape: 8 1024 60 60 (29491200)
I0620 04:26:53.300580  3057 net.cpp:165] Memory required for data: 27027294400
I0620 04:26:53.300583  3057 layer_factory.hpp:77] Creating layer conv5_1_1x1_reduce
I0620 04:26:53.300617  3057 net.cpp:106] Creating Layer conv5_1_1x1_reduce
I0620 04:26:53.300622  3057 net.cpp:454] conv5_1_1x1_reduce <- conv4_23_conv4_23/relu_0_split_0
I0620 04:26:53.300633  3057 net.cpp:411] conv5_1_1x1_reduce -> conv5_1_1x1_reduce
I0620 04:26:53.315321  3057 net.cpp:150] Setting up conv5_1_1x1_reduce
I0620 04:26:53.315346  3057 net.cpp:157] Top shape: 8 512 60 60 (14745600)
I0620 04:26:53.315349  3057 net.cpp:165] Memory required for data: 27086276800
I0620 04:26:53.315359  3057 layer_factory.hpp:77] Creating layer conv5_1_1x1_reduce/bn
I0620 04:26:53.315371  3057 net.cpp:106] Creating Layer conv5_1_1x1_reduce/bn
I0620 04:26:53.315379  3057 net.cpp:454] conv5_1_1x1_reduce/bn <- conv5_1_1x1_reduce
I0620 04:26:53.315385  3057 net.cpp:397] conv5_1_1x1_reduce/bn -> conv5_1_1x1_reduce (in-place)
I0620 04:26:53.315594  3057 net.cpp:150] Setting up conv5_1_1x1_reduce/bn
I0620 04:26:53.315600  3057 net.cpp:157] Top shape: 8 512 60 60 (14745600)
I0620 04:26:53.315603  3057 net.cpp:165] Memory required for data: 27145259200
I0620 04:26:53.315609  3057 layer_factory.hpp:77] Creating layer conv5_1_1x1_reduce/relu
I0620 04:26:53.315614  3057 net.cpp:106] Creating Layer conv5_1_1x1_reduce/relu
I0620 04:26:53.315618  3057 net.cpp:454] conv5_1_1x1_reduce/relu <- conv5_1_1x1_reduce
I0620 04:26:53.315621  3057 net.cpp:397] conv5_1_1x1_reduce/relu -> conv5_1_1x1_reduce (in-place)
I0620 04:26:53.315625  3057 net.cpp:150] Setting up conv5_1_1x1_reduce/relu
I0620 04:26:53.315629  3057 net.cpp:157] Top shape: 8 512 60 60 (14745600)
I0620 04:26:53.315631  3057 net.cpp:165] Memory required for data: 27204241600
I0620 04:26:53.315634  3057 layer_factory.hpp:77] Creating layer conv5_1_3x3
I0620 04:26:53.315642  3057 net.cpp:106] Creating Layer conv5_1_3x3
I0620 04:26:53.315645  3057 net.cpp:454] conv5_1_3x3 <- conv5_1_1x1_reduce
I0620 04:26:53.315649  3057 net.cpp:411] conv5_1_3x3 -> conv5_1_3x3
I0620 04:26:53.374413  3057 net.cpp:150] Setting up conv5_1_3x3
I0620 04:26:53.374434  3057 net.cpp:157] Top shape: 8 512 60 60 (14745600)
I0620 04:26:53.374438  3057 net.cpp:165] Memory required for data: 27263224000
I0620 04:26:53.374444  3057 layer_factory.hpp:77] Creating layer conv5_1_3x3/bn
I0620 04:26:53.374452  3057 net.cpp:106] Creating Layer conv5_1_3x3/bn
I0620 04:26:53.374457  3057 net.cpp:454] conv5_1_3x3/bn <- conv5_1_3x3
I0620 04:26:53.374464  3057 net.cpp:397] conv5_1_3x3/bn -> conv5_1_3x3 (in-place)
I0620 04:26:53.374639  3057 net.cpp:150] Setting up conv5_1_3x3/bn
I0620 04:26:53.374644  3057 net.cpp:157] Top shape: 8 512 60 60 (14745600)
I0620 04:26:53.374646  3057 net.cpp:165] Memory required for data: 27322206400
I0620 04:26:53.374655  3057 layer_factory.hpp:77] Creating layer conv5_1_3x3/relu
I0620 04:26:53.374660  3057 net.cpp:106] Creating Layer conv5_1_3x3/relu
I0620 04:26:53.374680  3057 net.cpp:454] conv5_1_3x3/relu <- conv5_1_3x3
I0620 04:26:53.374685  3057 net.cpp:397] conv5_1_3x3/relu -> conv5_1_3x3 (in-place)
I0620 04:26:53.374691  3057 net.cpp:150] Setting up conv5_1_3x3/relu
I0620 04:26:53.374696  3057 net.cpp:157] Top shape: 8 512 60 60 (14745600)
I0620 04:26:53.374698  3057 net.cpp:165] Memory required for data: 27381188800
I0620 04:26:53.374702  3057 layer_factory.hpp:77] Creating layer conv5_1_1x1_increase
I0620 04:26:53.374711  3057 net.cpp:106] Creating Layer conv5_1_1x1_increase
I0620 04:26:53.374714  3057 net.cpp:454] conv5_1_1x1_increase <- conv5_1_3x3
I0620 04:26:53.374722  3057 net.cpp:411] conv5_1_1x1_increase -> conv5_1_1x1_increase
I0620 04:26:53.402885  3057 net.cpp:150] Setting up conv5_1_1x1_increase
I0620 04:26:53.402909  3057 net.cpp:157] Top shape: 8 2048 60 60 (58982400)
I0620 04:26:53.402914  3057 net.cpp:165] Memory required for data: 27617118400
I0620 04:26:53.402922  3057 layer_factory.hpp:77] Creating layer conv5_1_1x1_increase/bn
I0620 04:26:53.402936  3057 net.cpp:106] Creating Layer conv5_1_1x1_increase/bn
I0620 04:26:53.402946  3057 net.cpp:454] conv5_1_1x1_increase/bn <- conv5_1_1x1_increase
I0620 04:26:53.402956  3057 net.cpp:397] conv5_1_1x1_increase/bn -> conv5_1_1x1_increase (in-place)
I0620 04:26:53.403136  3057 net.cpp:150] Setting up conv5_1_1x1_increase/bn
I0620 04:26:53.403141  3057 net.cpp:157] Top shape: 8 2048 60 60 (58982400)
I0620 04:26:53.403144  3057 net.cpp:165] Memory required for data: 27853048000
I0620 04:26:53.403149  3057 layer_factory.hpp:77] Creating layer conv5_1_1x1_proj
I0620 04:26:53.403156  3057 net.cpp:106] Creating Layer conv5_1_1x1_proj
I0620 04:26:53.403159  3057 net.cpp:454] conv5_1_1x1_proj <- conv4_23_conv4_23/relu_0_split_1
I0620 04:26:53.403163  3057 net.cpp:411] conv5_1_1x1_proj -> conv5_1_1x1_proj
I0620 04:26:53.455960  3057 net.cpp:150] Setting up conv5_1_1x1_proj
I0620 04:26:53.455986  3057 net.cpp:157] Top shape: 8 2048 60 60 (58982400)
I0620 04:26:53.455991  3057 net.cpp:165] Memory required for data: 28088977600
I0620 04:26:53.455996  3057 layer_factory.hpp:77] Creating layer conv5_1_1x1_proj/bn
I0620 04:26:53.456008  3057 net.cpp:106] Creating Layer conv5_1_1x1_proj/bn
I0620 04:26:53.456017  3057 net.cpp:454] conv5_1_1x1_proj/bn <- conv5_1_1x1_proj
I0620 04:26:53.456027  3057 net.cpp:397] conv5_1_1x1_proj/bn -> conv5_1_1x1_proj (in-place)
I0620 04:26:53.456214  3057 net.cpp:150] Setting up conv5_1_1x1_proj/bn
I0620 04:26:53.456218  3057 net.cpp:157] Top shape: 8 2048 60 60 (58982400)
I0620 04:26:53.456220  3057 net.cpp:165] Memory required for data: 28324907200
I0620 04:26:53.456225  3057 layer_factory.hpp:77] Creating layer conv5_1
I0620 04:26:53.456229  3057 net.cpp:106] Creating Layer conv5_1
I0620 04:26:53.456233  3057 net.cpp:454] conv5_1 <- conv5_1_1x1_proj
I0620 04:26:53.456234  3057 net.cpp:454] conv5_1 <- conv5_1_1x1_increase
I0620 04:26:53.456238  3057 net.cpp:411] conv5_1 -> conv5_1
I0620 04:26:53.456259  3057 net.cpp:150] Setting up conv5_1
I0620 04:26:53.456262  3057 net.cpp:157] Top shape: 8 2048 60 60 (58982400)
I0620 04:26:53.456265  3057 net.cpp:165] Memory required for data: 28560836800
I0620 04:26:53.456269  3057 layer_factory.hpp:77] Creating layer conv5_1/relu
I0620 04:26:53.456275  3057 net.cpp:106] Creating Layer conv5_1/relu
I0620 04:26:53.456279  3057 net.cpp:454] conv5_1/relu <- conv5_1
I0620 04:26:53.456284  3057 net.cpp:397] conv5_1/relu -> conv5_1 (in-place)
I0620 04:26:53.456291  3057 net.cpp:150] Setting up conv5_1/relu
I0620 04:26:53.456295  3057 net.cpp:157] Top shape: 8 2048 60 60 (58982400)
I0620 04:26:53.456298  3057 net.cpp:165] Memory required for data: 28796766400
I0620 04:26:53.456301  3057 layer_factory.hpp:77] Creating layer conv5_1_conv5_1/relu_0_split
I0620 04:26:53.456307  3057 net.cpp:106] Creating Layer conv5_1_conv5_1/relu_0_split
I0620 04:26:53.456310  3057 net.cpp:454] conv5_1_conv5_1/relu_0_split <- conv5_1
I0620 04:26:53.456315  3057 net.cpp:411] conv5_1_conv5_1/relu_0_split -> conv5_1_conv5_1/relu_0_split_0
I0620 04:26:53.456332  3057 net.cpp:411] conv5_1_conv5_1/relu_0_split -> conv5_1_conv5_1/relu_0_split_1
I0620 04:26:53.456362  3057 net.cpp:150] Setting up conv5_1_conv5_1/relu_0_split
I0620 04:26:53.456367  3057 net.cpp:157] Top shape: 8 2048 60 60 (58982400)
I0620 04:26:53.456372  3057 net.cpp:157] Top shape: 8 2048 60 60 (58982400)
I0620 04:26:53.456373  3057 net.cpp:165] Memory required for data: 29268625600
I0620 04:26:53.456377  3057 layer_factory.hpp:77] Creating layer conv5_2_1x1_reduce
I0620 04:26:53.456384  3057 net.cpp:106] Creating Layer conv5_2_1x1_reduce
I0620 04:26:53.456388  3057 net.cpp:454] conv5_2_1x1_reduce <- conv5_1_conv5_1/relu_0_split_0
I0620 04:26:53.456395  3057 net.cpp:411] conv5_2_1x1_reduce -> conv5_2_1x1_reduce
I0620 04:26:53.484623  3057 net.cpp:150] Setting up conv5_2_1x1_reduce
I0620 04:26:53.484648  3057 net.cpp:157] Top shape: 8 512 60 60 (14745600)
I0620 04:26:53.484652  3057 net.cpp:165] Memory required for data: 29327608000
I0620 04:26:53.484660  3057 layer_factory.hpp:77] Creating layer conv5_2_1x1_reduce/bn
I0620 04:26:53.484674  3057 net.cpp:106] Creating Layer conv5_2_1x1_reduce/bn
I0620 04:26:53.484683  3057 net.cpp:454] conv5_2_1x1_reduce/bn <- conv5_2_1x1_reduce
I0620 04:26:53.484689  3057 net.cpp:397] conv5_2_1x1_reduce/bn -> conv5_2_1x1_reduce (in-place)
I0620 04:26:53.484894  3057 net.cpp:150] Setting up conv5_2_1x1_reduce/bn
I0620 04:26:53.484901  3057 net.cpp:157] Top shape: 8 512 60 60 (14745600)
I0620 04:26:53.484905  3057 net.cpp:165] Memory required for data: 29386590400
I0620 04:26:53.484912  3057 layer_factory.hpp:77] Creating layer conv5_2_1x1_reduce/relu
I0620 04:26:53.484918  3057 net.cpp:106] Creating Layer conv5_2_1x1_reduce/relu
I0620 04:26:53.484921  3057 net.cpp:454] conv5_2_1x1_reduce/relu <- conv5_2_1x1_reduce
I0620 04:26:53.484925  3057 net.cpp:397] conv5_2_1x1_reduce/relu -> conv5_2_1x1_reduce (in-place)
I0620 04:26:53.484931  3057 net.cpp:150] Setting up conv5_2_1x1_reduce/relu
I0620 04:26:53.484935  3057 net.cpp:157] Top shape: 8 512 60 60 (14745600)
I0620 04:26:53.484938  3057 net.cpp:165] Memory required for data: 29445572800
I0620 04:26:53.484942  3057 layer_factory.hpp:77] Creating layer conv5_2_3x3
I0620 04:26:53.484949  3057 net.cpp:106] Creating Layer conv5_2_3x3
I0620 04:26:53.484952  3057 net.cpp:454] conv5_2_3x3 <- conv5_2_1x1_reduce
I0620 04:26:53.484958  3057 net.cpp:411] conv5_2_3x3 -> conv5_2_3x3
I0620 04:26:53.544965  3057 net.cpp:150] Setting up conv5_2_3x3
I0620 04:26:53.544986  3057 net.cpp:157] Top shape: 8 512 60 60 (14745600)
I0620 04:26:53.544991  3057 net.cpp:165] Memory required for data: 29504555200
I0620 04:26:53.544997  3057 layer_factory.hpp:77] Creating layer conv5_2_3x3/bn
I0620 04:26:53.545006  3057 net.cpp:106] Creating Layer conv5_2_3x3/bn
I0620 04:26:53.545011  3057 net.cpp:454] conv5_2_3x3/bn <- conv5_2_3x3
I0620 04:26:53.545019  3057 net.cpp:397] conv5_2_3x3/bn -> conv5_2_3x3 (in-place)
I0620 04:26:53.545197  3057 net.cpp:150] Setting up conv5_2_3x3/bn
I0620 04:26:53.545203  3057 net.cpp:157] Top shape: 8 512 60 60 (14745600)
I0620 04:26:53.545207  3057 net.cpp:165] Memory required for data: 29563537600
I0620 04:26:53.545213  3057 layer_factory.hpp:77] Creating layer conv5_2_3x3/relu
I0620 04:26:53.545219  3057 net.cpp:106] Creating Layer conv5_2_3x3/relu
I0620 04:26:53.545222  3057 net.cpp:454] conv5_2_3x3/relu <- conv5_2_3x3
I0620 04:26:53.545228  3057 net.cpp:397] conv5_2_3x3/relu -> conv5_2_3x3 (in-place)
I0620 04:26:53.545233  3057 net.cpp:150] Setting up conv5_2_3x3/relu
I0620 04:26:53.545236  3057 net.cpp:157] Top shape: 8 512 60 60 (14745600)
I0620 04:26:53.545239  3057 net.cpp:165] Memory required for data: 29622520000
I0620 04:26:53.545243  3057 layer_factory.hpp:77] Creating layer conv5_2_1x1_increase
I0620 04:26:53.545249  3057 net.cpp:106] Creating Layer conv5_2_1x1_increase
I0620 04:26:53.545253  3057 net.cpp:454] conv5_2_1x1_increase <- conv5_2_3x3
I0620 04:26:53.545258  3057 net.cpp:411] conv5_2_1x1_increase -> conv5_2_1x1_increase
I0620 04:26:53.573339  3057 net.cpp:150] Setting up conv5_2_1x1_increase
I0620 04:26:53.573441  3057 net.cpp:157] Top shape: 8 2048 60 60 (58982400)
I0620 04:26:53.573447  3057 net.cpp:165] Memory required for data: 29858449600
I0620 04:26:53.573464  3057 layer_factory.hpp:77] Creating layer conv5_2_1x1_increase/bn
I0620 04:26:53.573488  3057 net.cpp:106] Creating Layer conv5_2_1x1_increase/bn
I0620 04:26:53.573499  3057 net.cpp:454] conv5_2_1x1_increase/bn <- conv5_2_1x1_increase
I0620 04:26:53.573516  3057 net.cpp:397] conv5_2_1x1_increase/bn -> conv5_2_1x1_increase (in-place)
I0620 04:26:53.573761  3057 net.cpp:150] Setting up conv5_2_1x1_increase/bn
I0620 04:26:53.573768  3057 net.cpp:157] Top shape: 8 2048 60 60 (58982400)
I0620 04:26:53.573771  3057 net.cpp:165] Memory required for data: 30094379200
I0620 04:26:53.573855  3057 layer_factory.hpp:77] Creating layer conv5_2
I0620 04:26:53.573863  3057 net.cpp:106] Creating Layer conv5_2
I0620 04:26:53.573868  3057 net.cpp:454] conv5_2 <- conv5_1_conv5_1/relu_0_split_1
I0620 04:26:53.573873  3057 net.cpp:454] conv5_2 <- conv5_2_1x1_increase
I0620 04:26:53.573879  3057 net.cpp:411] conv5_2 -> conv5_2
I0620 04:26:53.573909  3057 net.cpp:150] Setting up conv5_2
I0620 04:26:53.573915  3057 net.cpp:157] Top shape: 8 2048 60 60 (58982400)
I0620 04:26:53.573918  3057 net.cpp:165] Memory required for data: 30330308800
I0620 04:26:53.573922  3057 layer_factory.hpp:77] Creating layer conv5_2/relu
I0620 04:26:53.573930  3057 net.cpp:106] Creating Layer conv5_2/relu
I0620 04:26:53.573933  3057 net.cpp:454] conv5_2/relu <- conv5_2
I0620 04:26:53.573940  3057 net.cpp:397] conv5_2/relu -> conv5_2 (in-place)
I0620 04:26:53.573947  3057 net.cpp:150] Setting up conv5_2/relu
I0620 04:26:53.573953  3057 net.cpp:157] Top shape: 8 2048 60 60 (58982400)
I0620 04:26:53.573957  3057 net.cpp:165] Memory required for data: 30566238400
I0620 04:26:53.573961  3057 layer_factory.hpp:77] Creating layer conv5_2_conv5_2/relu_0_split
I0620 04:26:53.573967  3057 net.cpp:106] Creating Layer conv5_2_conv5_2/relu_0_split
I0620 04:26:53.573972  3057 net.cpp:454] conv5_2_conv5_2/relu_0_split <- conv5_2
I0620 04:26:53.573978  3057 net.cpp:411] conv5_2_conv5_2/relu_0_split -> conv5_2_conv5_2/relu_0_split_0
I0620 04:26:53.573987  3057 net.cpp:411] conv5_2_conv5_2/relu_0_split -> conv5_2_conv5_2/relu_0_split_1
I0620 04:26:53.574021  3057 net.cpp:150] Setting up conv5_2_conv5_2/relu_0_split
I0620 04:26:53.574028  3057 net.cpp:157] Top shape: 8 2048 60 60 (58982400)
I0620 04:26:53.574033  3057 net.cpp:157] Top shape: 8 2048 60 60 (58982400)
I0620 04:26:53.574036  3057 net.cpp:165] Memory required for data: 31038097600
I0620 04:26:53.574040  3057 layer_factory.hpp:77] Creating layer conv5_3_1x1_reduce
I0620 04:26:53.574050  3057 net.cpp:106] Creating Layer conv5_3_1x1_reduce
I0620 04:26:53.574055  3057 net.cpp:454] conv5_3_1x1_reduce <- conv5_2_conv5_2/relu_0_split_0
I0620 04:26:53.574064  3057 net.cpp:411] conv5_3_1x1_reduce -> conv5_3_1x1_reduce
I0620 04:26:53.598505  3057 net.cpp:150] Setting up conv5_3_1x1_reduce
I0620 04:26:53.598523  3057 net.cpp:157] Top shape: 8 512 60 60 (14745600)
I0620 04:26:53.598528  3057 net.cpp:165] Memory required for data: 31097080000
I0620 04:26:53.598536  3057 layer_factory.hpp:77] Creating layer conv5_3_1x1_reduce/bn
I0620 04:26:53.598546  3057 net.cpp:106] Creating Layer conv5_3_1x1_reduce/bn
I0620 04:26:53.598552  3057 net.cpp:454] conv5_3_1x1_reduce/bn <- conv5_3_1x1_reduce
I0620 04:26:53.598562  3057 net.cpp:397] conv5_3_1x1_reduce/bn -> conv5_3_1x1_reduce (in-place)
I0620 04:26:53.598747  3057 net.cpp:150] Setting up conv5_3_1x1_reduce/bn
I0620 04:26:53.598753  3057 net.cpp:157] Top shape: 8 512 60 60 (14745600)
I0620 04:26:53.598757  3057 net.cpp:165] Memory required for data: 31156062400
I0620 04:26:53.598767  3057 layer_factory.hpp:77] Creating layer conv5_3_1x1_reduce/relu
I0620 04:26:53.598773  3057 net.cpp:106] Creating Layer conv5_3_1x1_reduce/relu
I0620 04:26:53.598778  3057 net.cpp:454] conv5_3_1x1_reduce/relu <- conv5_3_1x1_reduce
I0620 04:26:53.598786  3057 net.cpp:397] conv5_3_1x1_reduce/relu -> conv5_3_1x1_reduce (in-place)
I0620 04:26:53.598809  3057 net.cpp:150] Setting up conv5_3_1x1_reduce/relu
I0620 04:26:53.598812  3057 net.cpp:157] Top shape: 8 512 60 60 (14745600)
I0620 04:26:53.598814  3057 net.cpp:165] Memory required for data: 31215044800
I0620 04:26:53.598817  3057 layer_factory.hpp:77] Creating layer conv5_3_3x3
I0620 04:26:53.598824  3057 net.cpp:106] Creating Layer conv5_3_3x3
I0620 04:26:53.598826  3057 net.cpp:454] conv5_3_3x3 <- conv5_3_1x1_reduce
I0620 04:26:53.598830  3057 net.cpp:411] conv5_3_3x3 -> conv5_3_3x3
I0620 04:26:53.661317  3057 net.cpp:150] Setting up conv5_3_3x3
I0620 04:26:53.661393  3057 net.cpp:157] Top shape: 8 512 60 60 (14745600)
I0620 04:26:53.661401  3057 net.cpp:165] Memory required for data: 31274027200
I0620 04:26:53.661415  3057 layer_factory.hpp:77] Creating layer conv5_3_3x3/bn
I0620 04:26:53.661442  3057 net.cpp:106] Creating Layer conv5_3_3x3/bn
I0620 04:26:53.661456  3057 net.cpp:454] conv5_3_3x3/bn <- conv5_3_3x3
I0620 04:26:53.661466  3057 net.cpp:397] conv5_3_3x3/bn -> conv5_3_3x3 (in-place)
I0620 04:26:53.661811  3057 net.cpp:150] Setting up conv5_3_3x3/bn
I0620 04:26:53.661821  3057 net.cpp:157] Top shape: 8 512 60 60 (14745600)
I0620 04:26:53.661826  3057 net.cpp:165] Memory required for data: 31333009600
I0620 04:26:53.661836  3057 layer_factory.hpp:77] Creating layer conv5_3_3x3/relu
I0620 04:26:53.661844  3057 net.cpp:106] Creating Layer conv5_3_3x3/relu
I0620 04:26:53.661849  3057 net.cpp:454] conv5_3_3x3/relu <- conv5_3_3x3
I0620 04:26:53.661854  3057 net.cpp:397] conv5_3_3x3/relu -> conv5_3_3x3 (in-place)
I0620 04:26:53.661862  3057 net.cpp:150] Setting up conv5_3_3x3/relu
I0620 04:26:53.661867  3057 net.cpp:157] Top shape: 8 512 60 60 (14745600)
I0620 04:26:53.661871  3057 net.cpp:165] Memory required for data: 31391992000
I0620 04:26:53.661875  3057 layer_factory.hpp:77] Creating layer conv5_3_1x1_increase
I0620 04:26:53.661891  3057 net.cpp:106] Creating Layer conv5_3_1x1_increase
I0620 04:26:53.661896  3057 net.cpp:454] conv5_3_1x1_increase <- conv5_3_3x3
I0620 04:26:53.661905  3057 net.cpp:411] conv5_3_1x1_increase -> conv5_3_1x1_increase
I0620 04:26:53.686892  3057 net.cpp:150] Setting up conv5_3_1x1_increase
I0620 04:26:53.686913  3057 net.cpp:157] Top shape: 8 2048 60 60 (58982400)
I0620 04:26:53.686918  3057 net.cpp:165] Memory required for data: 31627921600
I0620 04:26:53.686926  3057 layer_factory.hpp:77] Creating layer conv5_3_1x1_increase/bn
I0620 04:26:53.686939  3057 net.cpp:106] Creating Layer conv5_3_1x1_increase/bn
I0620 04:26:53.686944  3057 net.cpp:454] conv5_3_1x1_increase/bn <- conv5_3_1x1_increase
I0620 04:26:53.686949  3057 net.cpp:397] conv5_3_1x1_increase/bn -> conv5_3_1x1_increase (in-place)
I0620 04:26:53.687140  3057 net.cpp:150] Setting up conv5_3_1x1_increase/bn
I0620 04:26:53.687145  3057 net.cpp:157] Top shape: 8 2048 60 60 (58982400)
I0620 04:26:53.687150  3057 net.cpp:165] Memory required for data: 31863851200
I0620 04:26:53.687155  3057 layer_factory.hpp:77] Creating layer conv5_3
I0620 04:26:53.687161  3057 net.cpp:106] Creating Layer conv5_3
I0620 04:26:53.687165  3057 net.cpp:454] conv5_3 <- conv5_2_conv5_2/relu_0_split_1
I0620 04:26:53.687167  3057 net.cpp:454] conv5_3 <- conv5_3_1x1_increase
I0620 04:26:53.687171  3057 net.cpp:411] conv5_3 -> conv5_3
I0620 04:26:53.687193  3057 net.cpp:150] Setting up conv5_3
I0620 04:26:53.687197  3057 net.cpp:157] Top shape: 8 2048 60 60 (58982400)
I0620 04:26:53.687199  3057 net.cpp:165] Memory required for data: 32099780800
I0620 04:26:53.687202  3057 layer_factory.hpp:77] Creating layer conv5_3/relu
I0620 04:26:53.687206  3057 net.cpp:106] Creating Layer conv5_3/relu
I0620 04:26:53.687209  3057 net.cpp:454] conv5_3/relu <- conv5_3
I0620 04:26:53.687213  3057 net.cpp:397] conv5_3/relu -> conv5_3 (in-place)
I0620 04:26:53.687217  3057 net.cpp:150] Setting up conv5_3/relu
I0620 04:26:53.687222  3057 net.cpp:157] Top shape: 8 2048 60 60 (58982400)
I0620 04:26:53.687223  3057 net.cpp:165] Memory required for data: 32335710400
I0620 04:26:53.687227  3057 layer_factory.hpp:77] Creating layer conv5_3_conv5_3/relu_0_split
I0620 04:26:53.687248  3057 net.cpp:106] Creating Layer conv5_3_conv5_3/relu_0_split
I0620 04:26:53.687252  3057 net.cpp:454] conv5_3_conv5_3/relu_0_split <- conv5_3
I0620 04:26:53.687255  3057 net.cpp:411] conv5_3_conv5_3/relu_0_split -> conv5_3_conv5_3/relu_0_split_0
I0620 04:26:53.687259  3057 net.cpp:411] conv5_3_conv5_3/relu_0_split -> conv5_3_conv5_3/relu_0_split_1
I0620 04:26:53.687264  3057 net.cpp:411] conv5_3_conv5_3/relu_0_split -> conv5_3_conv5_3/relu_0_split_2
I0620 04:26:53.687268  3057 net.cpp:411] conv5_3_conv5_3/relu_0_split -> conv5_3_conv5_3/relu_0_split_3
I0620 04:26:53.687273  3057 net.cpp:411] conv5_3_conv5_3/relu_0_split -> conv5_3_conv5_3/relu_0_split_4
I0620 04:26:53.687325  3057 net.cpp:150] Setting up conv5_3_conv5_3/relu_0_split
I0620 04:26:53.687328  3057 net.cpp:157] Top shape: 8 2048 60 60 (58982400)
I0620 04:26:53.687332  3057 net.cpp:157] Top shape: 8 2048 60 60 (58982400)
I0620 04:26:53.687335  3057 net.cpp:157] Top shape: 8 2048 60 60 (58982400)
I0620 04:26:53.687338  3057 net.cpp:157] Top shape: 8 2048 60 60 (58982400)
I0620 04:26:53.687341  3057 net.cpp:157] Top shape: 8 2048 60 60 (58982400)
I0620 04:26:53.687343  3057 net.cpp:165] Memory required for data: 33515358400
I0620 04:26:53.687346  3057 layer_factory.hpp:77] Creating layer conv5_3_pool1
I0620 04:26:53.687351  3057 net.cpp:106] Creating Layer conv5_3_pool1
I0620 04:26:53.687355  3057 net.cpp:454] conv5_3_pool1 <- conv5_3_conv5_3/relu_0_split_0
I0620 04:26:53.687357  3057 net.cpp:411] conv5_3_pool1 -> conv5_3_pool1
I0620 04:26:53.687374  3057 net.cpp:150] Setting up conv5_3_pool1
I0620 04:26:53.687378  3057 net.cpp:157] Top shape: 8 2048 1 1 (16384)
I0620 04:26:53.687381  3057 net.cpp:165] Memory required for data: 33515423936
I0620 04:26:53.687384  3057 layer_factory.hpp:77] Creating layer conv5_3_pool1_conv
I0620 04:26:53.687391  3057 net.cpp:106] Creating Layer conv5_3_pool1_conv
I0620 04:26:53.687393  3057 net.cpp:454] conv5_3_pool1_conv <- conv5_3_pool1
I0620 04:26:53.687397  3057 net.cpp:411] conv5_3_pool1_conv -> conv5_3_pool1_conv
I0620 04:26:53.715688  3057 net.cpp:150] Setting up conv5_3_pool1_conv
I0620 04:26:53.715711  3057 net.cpp:157] Top shape: 8 512 1 1 (4096)
I0620 04:26:53.715714  3057 net.cpp:165] Memory required for data: 33515440320
I0620 04:26:53.715723  3057 layer_factory.hpp:77] Creating layer conv5_3_pool1_conv/bn
I0620 04:26:53.715731  3057 net.cpp:106] Creating Layer conv5_3_pool1_conv/bn
I0620 04:26:53.715736  3057 net.cpp:454] conv5_3_pool1_conv/bn <- conv5_3_pool1_conv
I0620 04:26:53.715744  3057 net.cpp:397] conv5_3_pool1_conv/bn -> conv5_3_pool1_conv (in-place)
I0620 04:26:53.715942  3057 net.cpp:150] Setting up conv5_3_pool1_conv/bn
I0620 04:26:53.715947  3057 net.cpp:157] Top shape: 8 512 1 1 (4096)
I0620 04:26:53.715950  3057 net.cpp:165] Memory required for data: 33515456704
I0620 04:26:53.715955  3057 layer_factory.hpp:77] Creating layer conv5_3_pool1_conv/relu
I0620 04:26:53.715960  3057 net.cpp:106] Creating Layer conv5_3_pool1_conv/relu
I0620 04:26:53.715963  3057 net.cpp:454] conv5_3_pool1_conv/relu <- conv5_3_pool1_conv
I0620 04:26:53.715967  3057 net.cpp:397] conv5_3_pool1_conv/relu -> conv5_3_pool1_conv (in-place)
I0620 04:26:53.715972  3057 net.cpp:150] Setting up conv5_3_pool1_conv/relu
I0620 04:26:53.715975  3057 net.cpp:157] Top shape: 8 512 1 1 (4096)
I0620 04:26:53.715978  3057 net.cpp:165] Memory required for data: 33515473088
I0620 04:26:53.715981  3057 layer_factory.hpp:77] Creating layer conv5_3_pool1_interp
I0620 04:26:53.715992  3057 net.cpp:106] Creating Layer conv5_3_pool1_interp
I0620 04:26:53.715996  3057 net.cpp:454] conv5_3_pool1_interp <- conv5_3_pool1_conv
I0620 04:26:53.715999  3057 net.cpp:411] conv5_3_pool1_interp -> conv5_3_pool1_interp
I0620 04:26:53.716028  3057 net.cpp:150] Setting up conv5_3_pool1_interp
I0620 04:26:53.716032  3057 net.cpp:157] Top shape: 8 512 60 60 (14745600)
I0620 04:26:53.716034  3057 net.cpp:165] Memory required for data: 33574455488
I0620 04:26:53.716037  3057 layer_factory.hpp:77] Creating layer conv5_3_pool2
I0620 04:26:53.716065  3057 net.cpp:106] Creating Layer conv5_3_pool2
I0620 04:26:53.716068  3057 net.cpp:454] conv5_3_pool2 <- conv5_3_conv5_3/relu_0_split_1
I0620 04:26:53.716073  3057 net.cpp:411] conv5_3_pool2 -> conv5_3_pool2
I0620 04:26:53.716091  3057 net.cpp:150] Setting up conv5_3_pool2
I0620 04:26:53.716094  3057 net.cpp:157] Top shape: 8 2048 2 2 (65536)
I0620 04:26:53.716097  3057 net.cpp:165] Memory required for data: 33574717632
I0620 04:26:53.716099  3057 layer_factory.hpp:77] Creating layer conv5_3_pool2_conv
I0620 04:26:53.716106  3057 net.cpp:106] Creating Layer conv5_3_pool2_conv
I0620 04:26:53.716109  3057 net.cpp:454] conv5_3_pool2_conv <- conv5_3_pool2
I0620 04:26:53.716114  3057 net.cpp:411] conv5_3_pool2_conv -> conv5_3_pool2_conv
I0620 04:26:53.743546  3057 net.cpp:150] Setting up conv5_3_pool2_conv
I0620 04:26:53.743628  3057 net.cpp:157] Top shape: 8 512 2 2 (16384)
I0620 04:26:53.743635  3057 net.cpp:165] Memory required for data: 33574783168
I0620 04:26:53.743654  3057 layer_factory.hpp:77] Creating layer conv5_3_pool2_conv/bn
I0620 04:26:53.743686  3057 net.cpp:106] Creating Layer conv5_3_pool2_conv/bn
I0620 04:26:53.743700  3057 net.cpp:454] conv5_3_pool2_conv/bn <- conv5_3_pool2_conv
I0620 04:26:53.743713  3057 net.cpp:397] conv5_3_pool2_conv/bn -> conv5_3_pool2_conv (in-place)
I0620 04:26:53.744014  3057 net.cpp:150] Setting up conv5_3_pool2_conv/bn
I0620 04:26:53.744030  3057 net.cpp:157] Top shape: 8 512 2 2 (16384)
I0620 04:26:53.744035  3057 net.cpp:165] Memory required for data: 33574848704
I0620 04:26:53.744047  3057 layer_factory.hpp:77] Creating layer conv5_3_pool2_conv/relu
I0620 04:26:53.744060  3057 net.cpp:106] Creating Layer conv5_3_pool2_conv/relu
I0620 04:26:53.744065  3057 net.cpp:454] conv5_3_pool2_conv/relu <- conv5_3_pool2_conv
I0620 04:26:53.744071  3057 net.cpp:397] conv5_3_pool2_conv/relu -> conv5_3_pool2_conv (in-place)
I0620 04:26:53.744078  3057 net.cpp:150] Setting up conv5_3_pool2_conv/relu
I0620 04:26:53.744083  3057 net.cpp:157] Top shape: 8 512 2 2 (16384)
I0620 04:26:53.744087  3057 net.cpp:165] Memory required for data: 33574914240
I0620 04:26:53.744092  3057 layer_factory.hpp:77] Creating layer conv5_3_pool2_interp
I0620 04:26:53.744101  3057 net.cpp:106] Creating Layer conv5_3_pool2_interp
I0620 04:26:53.744105  3057 net.cpp:454] conv5_3_pool2_interp <- conv5_3_pool2_conv
I0620 04:26:53.744112  3057 net.cpp:411] conv5_3_pool2_interp -> conv5_3_pool2_interp
I0620 04:26:53.744163  3057 net.cpp:150] Setting up conv5_3_pool2_interp
I0620 04:26:53.744169  3057 net.cpp:157] Top shape: 8 512 60 60 (14745600)
I0620 04:26:53.744174  3057 net.cpp:165] Memory required for data: 33633896640
I0620 04:26:53.744179  3057 layer_factory.hpp:77] Creating layer conv5_3_pool3
I0620 04:26:53.744189  3057 net.cpp:106] Creating Layer conv5_3_pool3
I0620 04:26:53.744195  3057 net.cpp:454] conv5_3_pool3 <- conv5_3_conv5_3/relu_0_split_2
I0620 04:26:53.744202  3057 net.cpp:411] conv5_3_pool3 -> conv5_3_pool3
I0620 04:26:53.744226  3057 net.cpp:150] Setting up conv5_3_pool3
I0620 04:26:53.744232  3057 net.cpp:157] Top shape: 8 2048 3 3 (147456)
I0620 04:26:53.744236  3057 net.cpp:165] Memory required for data: 33634486464
I0620 04:26:53.744246  3057 layer_factory.hpp:77] Creating layer conv5_3_pool3_conv
I0620 04:26:53.744264  3057 net.cpp:106] Creating Layer conv5_3_pool3_conv
I0620 04:26:53.744269  3057 net.cpp:454] conv5_3_pool3_conv <- conv5_3_pool3
I0620 04:26:53.744276  3057 net.cpp:411] conv5_3_pool3_conv -> conv5_3_pool3_conv
I0620 04:26:53.770987  3057 net.cpp:150] Setting up conv5_3_pool3_conv
I0620 04:26:53.771011  3057 net.cpp:157] Top shape: 8 512 3 3 (36864)
I0620 04:26:53.771015  3057 net.cpp:165] Memory required for data: 33634633920
I0620 04:26:53.771021  3057 layer_factory.hpp:77] Creating layer conv5_3_pool3_conv/bn
I0620 04:26:53.771031  3057 net.cpp:106] Creating Layer conv5_3_pool3_conv/bn
I0620 04:26:53.771037  3057 net.cpp:454] conv5_3_pool3_conv/bn <- conv5_3_pool3_conv
I0620 04:26:53.771044  3057 net.cpp:397] conv5_3_pool3_conv/bn -> conv5_3_pool3_conv (in-place)
I0620 04:26:53.771272  3057 net.cpp:150] Setting up conv5_3_pool3_conv/bn
I0620 04:26:53.771277  3057 net.cpp:157] Top shape: 8 512 3 3 (36864)
I0620 04:26:53.771281  3057 net.cpp:165] Memory required for data: 33634781376
I0620 04:26:53.771286  3057 layer_factory.hpp:77] Creating layer conv5_3_pool3_conv/relu
I0620 04:26:53.771291  3057 net.cpp:106] Creating Layer conv5_3_pool3_conv/relu
I0620 04:26:53.771294  3057 net.cpp:454] conv5_3_pool3_conv/relu <- conv5_3_pool3_conv
I0620 04:26:53.771297  3057 net.cpp:397] conv5_3_pool3_conv/relu -> conv5_3_pool3_conv (in-place)
I0620 04:26:53.771302  3057 net.cpp:150] Setting up conv5_3_pool3_conv/relu
I0620 04:26:53.771306  3057 net.cpp:157] Top shape: 8 512 3 3 (36864)
I0620 04:26:53.771308  3057 net.cpp:165] Memory required for data: 33634928832
I0620 04:26:53.771311  3057 layer_factory.hpp:77] Creating layer conv5_3_pool3_interp
I0620 04:26:53.771317  3057 net.cpp:106] Creating Layer conv5_3_pool3_interp
I0620 04:26:53.771320  3057 net.cpp:454] conv5_3_pool3_interp <- conv5_3_pool3_conv
I0620 04:26:53.771325  3057 net.cpp:411] conv5_3_pool3_interp -> conv5_3_pool3_interp
I0620 04:26:53.771353  3057 net.cpp:150] Setting up conv5_3_pool3_interp
I0620 04:26:53.771356  3057 net.cpp:157] Top shape: 8 512 60 60 (14745600)
I0620 04:26:53.771358  3057 net.cpp:165] Memory required for data: 33693911232
I0620 04:26:53.771360  3057 layer_factory.hpp:77] Creating layer conv5_3_pool6
I0620 04:26:53.771364  3057 net.cpp:106] Creating Layer conv5_3_pool6
I0620 04:26:53.771366  3057 net.cpp:454] conv5_3_pool6 <- conv5_3_conv5_3/relu_0_split_3
I0620 04:26:53.771370  3057 net.cpp:411] conv5_3_pool6 -> conv5_3_pool6
I0620 04:26:53.771386  3057 net.cpp:150] Setting up conv5_3_pool6
I0620 04:26:53.771394  3057 net.cpp:157] Top shape: 8 2048 6 6 (589824)
I0620 04:26:53.771395  3057 net.cpp:165] Memory required for data: 33696270528
I0620 04:26:53.771399  3057 layer_factory.hpp:77] Creating layer conv5_3_pool6_conv
I0620 04:26:53.771404  3057 net.cpp:106] Creating Layer conv5_3_pool6_conv
I0620 04:26:53.771407  3057 net.cpp:454] conv5_3_pool6_conv <- conv5_3_pool6
I0620 04:26:53.771411  3057 net.cpp:411] conv5_3_pool6_conv -> conv5_3_pool6_conv
I0620 04:26:53.799645  3057 net.cpp:150] Setting up conv5_3_pool6_conv
I0620 04:26:53.799666  3057 net.cpp:157] Top shape: 8 512 6 6 (147456)
I0620 04:26:53.799671  3057 net.cpp:165] Memory required for data: 33696860352
I0620 04:26:53.799677  3057 layer_factory.hpp:77] Creating layer conv5_3_pool6_conv/bn
I0620 04:26:53.799686  3057 net.cpp:106] Creating Layer conv5_3_pool6_conv/bn
I0620 04:26:53.799690  3057 net.cpp:454] conv5_3_pool6_conv/bn <- conv5_3_pool6_conv
I0620 04:26:53.799696  3057 net.cpp:397] conv5_3_pool6_conv/bn -> conv5_3_pool6_conv (in-place)
I0620 04:26:53.799886  3057 net.cpp:150] Setting up conv5_3_pool6_conv/bn
I0620 04:26:53.799891  3057 net.cpp:157] Top shape: 8 512 6 6 (147456)
I0620 04:26:53.799895  3057 net.cpp:165] Memory required for data: 33697450176
I0620 04:26:53.799901  3057 layer_factory.hpp:77] Creating layer conv5_3_pool6_conv/relu
I0620 04:26:53.799909  3057 net.cpp:106] Creating Layer conv5_3_pool6_conv/relu
I0620 04:26:53.799912  3057 net.cpp:454] conv5_3_pool6_conv/relu <- conv5_3_pool6_conv
I0620 04:26:53.799916  3057 net.cpp:397] conv5_3_pool6_conv/relu -> conv5_3_pool6_conv (in-place)
I0620 04:26:53.799921  3057 net.cpp:150] Setting up conv5_3_pool6_conv/relu
I0620 04:26:53.799924  3057 net.cpp:157] Top shape: 8 512 6 6 (147456)
I0620 04:26:53.799926  3057 net.cpp:165] Memory required for data: 33698040000
I0620 04:26:53.799929  3057 layer_factory.hpp:77] Creating layer conv5_3_pool6_interp
I0620 04:26:53.799933  3057 net.cpp:106] Creating Layer conv5_3_pool6_interp
I0620 04:26:53.799937  3057 net.cpp:454] conv5_3_pool6_interp <- conv5_3_pool6_conv
I0620 04:26:53.799940  3057 net.cpp:411] conv5_3_pool6_interp -> conv5_3_pool6_interp
I0620 04:26:53.799963  3057 net.cpp:150] Setting up conv5_3_pool6_interp
I0620 04:26:53.799968  3057 net.cpp:157] Top shape: 8 512 60 60 (14745600)
I0620 04:26:53.799969  3057 net.cpp:165] Memory required for data: 33757022400
I0620 04:26:53.799988  3057 layer_factory.hpp:77] Creating layer conv5_3_concat
I0620 04:26:53.799993  3057 net.cpp:106] Creating Layer conv5_3_concat
I0620 04:26:53.799996  3057 net.cpp:454] conv5_3_concat <- conv5_3_conv5_3/relu_0_split_4
I0620 04:26:53.800000  3057 net.cpp:454] conv5_3_concat <- conv5_3_pool6_interp
I0620 04:26:53.800004  3057 net.cpp:454] conv5_3_concat <- conv5_3_pool3_interp
I0620 04:26:53.800007  3057 net.cpp:454] conv5_3_concat <- conv5_3_pool2_interp
I0620 04:26:53.800010  3057 net.cpp:454] conv5_3_concat <- conv5_3_pool1_interp
I0620 04:26:53.800014  3057 net.cpp:411] conv5_3_concat -> conv5_3_concat
I0620 04:26:53.800032  3057 net.cpp:150] Setting up conv5_3_concat
I0620 04:26:53.800036  3057 net.cpp:157] Top shape: 8 4096 60 60 (117964800)
I0620 04:26:53.800038  3057 net.cpp:165] Memory required for data: 34228881600
I0620 04:26:53.800041  3057 layer_factory.hpp:77] Creating layer conv5_4
I0620 04:26:53.800050  3057 net.cpp:106] Creating Layer conv5_4
I0620 04:26:53.800055  3057 net.cpp:454] conv5_4 <- conv5_3_concat
I0620 04:26:53.800057  3057 net.cpp:411] conv5_4 -> conv5_4
I0620 04:26:54.247656  3057 net.cpp:150] Setting up conv5_4
I0620 04:26:54.247690  3057 net.cpp:157] Top shape: 8 512 60 60 (14745600)
I0620 04:26:54.247694  3057 net.cpp:165] Memory required for data: 34287864000
I0620 04:26:54.247700  3057 layer_factory.hpp:77] Creating layer conv5_4/bn
I0620 04:26:54.247710  3057 net.cpp:106] Creating Layer conv5_4/bn
I0620 04:26:54.247714  3057 net.cpp:454] conv5_4/bn <- conv5_4
I0620 04:26:54.247719  3057 net.cpp:397] conv5_4/bn -> conv5_4 (in-place)
I0620 04:26:54.247930  3057 net.cpp:150] Setting up conv5_4/bn
I0620 04:26:54.247934  3057 net.cpp:157] Top shape: 8 512 60 60 (14745600)
I0620 04:26:54.247951  3057 net.cpp:165] Memory required for data: 34346846400
I0620 04:26:54.247956  3057 layer_factory.hpp:77] Creating layer conv5_4/relu
I0620 04:26:54.247961  3057 net.cpp:106] Creating Layer conv5_4/relu
I0620 04:26:54.247963  3057 net.cpp:454] conv5_4/relu <- conv5_4
I0620 04:26:54.247967  3057 net.cpp:397] conv5_4/relu -> conv5_4 (in-place)
I0620 04:26:54.247972  3057 net.cpp:150] Setting up conv5_4/relu
I0620 04:26:54.247974  3057 net.cpp:157] Top shape: 8 512 60 60 (14745600)
I0620 04:26:54.247977  3057 net.cpp:165] Memory required for data: 34405828800
I0620 04:26:54.247979  3057 layer_factory.hpp:77] Creating layer conv5_4/dropout
I0620 04:26:54.247983  3057 net.cpp:106] Creating Layer conv5_4/dropout
I0620 04:26:54.247987  3057 net.cpp:454] conv5_4/dropout <- conv5_4
I0620 04:26:54.247989  3057 net.cpp:397] conv5_4/dropout -> conv5_4 (in-place)
I0620 04:26:54.248013  3057 net.cpp:150] Setting up conv5_4/dropout
I0620 04:26:54.248018  3057 net.cpp:157] Top shape: 8 512 60 60 (14745600)
I0620 04:26:54.248020  3057 net.cpp:165] Memory required for data: 34464811200
I0620 04:26:54.248023  3057 layer_factory.hpp:77] Creating layer conv6
I0620 04:26:54.248030  3057 net.cpp:106] Creating Layer conv6
I0620 04:26:54.248033  3057 net.cpp:454] conv6 <- conv5_4
I0620 04:26:54.248036  3057 net.cpp:411] conv6 -> conv6
I0620 04:26:54.248495  3057 net.cpp:150] Setting up conv6
I0620 04:26:54.248500  3057 net.cpp:157] Top shape: 8 21 60 60 (604800)
I0620 04:26:54.248502  3057 net.cpp:165] Memory required for data: 34467230400
I0620 04:26:54.248507  3057 layer_factory.hpp:77] Creating layer conv6_interp
I0620 04:26:54.248510  3057 net.cpp:106] Creating Layer conv6_interp
I0620 04:26:54.248512  3057 net.cpp:454] conv6_interp <- conv6
I0620 04:26:54.248517  3057 net.cpp:411] conv6_interp -> conv6_interp
I0620 04:26:54.248533  3057 net.cpp:150] Setting up conv6_interp
I0620 04:26:54.248538  3057 net.cpp:157] Top shape: 8 21 473 473 (37586472)
I0620 04:26:54.248540  3057 net.cpp:165] Memory required for data: 34617576288
I0620 04:26:54.248543  3057 net.cpp:228] conv6_interp does not need backward computation.
I0620 04:26:54.248544  3057 net.cpp:228] conv6 does not need backward computation.
I0620 04:26:54.248546  3057 net.cpp:228] conv5_4/dropout does not need backward computation.
I0620 04:26:54.248564  3057 net.cpp:228] conv5_4/relu does not need backward computation.
…
