…
I0624 00:10:58.693670  2542 solver.cpp:81] Creating training net from train_net file: exper/voc12/config/pspnet_resnet101/train_train_aug.prototxt
I0624 00:10:58.701293  2542 net.cpp:49] Initializing net from parameters: 
name: "pspnet_resnet101"
state {
  phase: TRAIN
}
layer {
  name: "data"
  type: "ImageSegData"
  top: "data"
  top: "label"
  include {
    phase: TRAIN
  }
  transform_param {
    mirror: true
    crop_size: 473
    mean_value: 104.008
    mean_value: 116.669
    mean_value: 122.675
  }
  image_data_param {
    source: "exper/voc12/list/train_aug.txt"
    batch_size: 2
    shuffle: true
    root_folder: "exper/voc12/data"
    label_type: PIXEL
  }
}
layer {
  name: "conv1_1_3x3_s2"
  type: "Convolution"
  bottom: "data"
  top: "conv1_1_3x3_s2"
  param {
    lr_mult: 1
    decay_mult: 1
  }
  convolution_param {
    num_output: 64
    bias_term: false
    pad: 1
    kernel_size: 3
    stride: 2
    weight_filler {
      type: "msra"
    }
  }
}
layer {
  name: "conv1_1_3x3_s2/bn"
  type: "BN"
  bottom: "conv1_1_3x3_s2"
  top: "conv1_1_3x3_s2"
  param {
    lr_mult: 1
    decay_mult: 0
  }
  param {
    lr_mult: 1
    decay_mult: 0
  }
  param {
    lr_mult: 0
    decay_mult: 0
  }
  param {
    lr_mult: 0
    decay_mult: 0
  }
  bn_param {
    slope_filler {
      type: "constant"
      value: 1
    }
    bias_filler {
      type: "constant"
      value: 0
    }
    momentum: 0.95
    frozen: false
  }
}
layer {
  name: "conv1_1_3x3_s2/relu"
  type: "ReLU"
  bottom: "conv1_1_3x3_s2"
  top: "conv1_1_3x3_s2"
}
layer {
  name: "conv1_2_3x3"
  type: "Convolution"
  bottom: "conv1_1_3x3_s2"
  top: "conv1_2_3x3"
  param {
    lr_mult: 1
    decay_mult: 1
  }
  convolution_param {
    num_output: 64
    bias_term: false
    pad: 1
    kernel_size: 3
    stride: 1
    weight_filler {
      type: "msra"
    }
  }
}
layer {
  name: "conv1_2_3x3/bn"
  type: "BN"
  bottom: "conv1_2_3x3"
  top: "conv1_2_3x3"
  param {
    lr_mult: 1
    decay_mult: 0
  }
  param {
    lr_mult: 1
    decay_mult: 0
  }
  param {
    lr_mult: 0
    decay_mult: 0
  }
  param {
    lr_mult: 0
    decay_mult: 0
  }
  bn_param {
    slope_filler {
      type: "constant"
      value: 1
    }
    bias_filler {
      type: "constant"
      value: 0
    }
    momentum: 0.95
    frozen: true
  }
}
layer {
  name: "conv1_2_3x3/relu"
  type: "ReLU"
  bottom: "conv1_2_3x3"
  top: "conv1_2_3x3"
}
layer {
  name: "conv1_3_3x3"
  type: "Convolution"
  bottom: "conv1_2_3x3"
  top: "conv1_3_3x3"
  param {
    lr_mult: 1
    decay_mult: 1
  }
  convolution_param {
    num_output: 128
    bias_term: false
    pad: 1
    kernel_size: 3
    stride: 1
    weight_filler {
      type: "msra"
    }
  }
}
layer {
  name: "conv1_3_3x3/bn"
  type: "BN"
  bottom: "conv1_3_3x3"
  top: "conv1_3_3x3"
  param {
    lr_mult: 1
    decay_mult: 0
  }
  param {
    lr_mult: 1
    decay_mult: 0
  }
  param {
    lr_mult: 0
    decay_mult: 0
  }
  param {
    lr_mult: 0
    decay_mult: 0
  }
  bn_param {
    slope_filler {
      type: "constant"
      value: 1
    }
    bias_filler {
      type: "constant"
      value: 0
    }
    momentum: 0.95
    frozen: true
  }
}
layer {
  name: "conv1_3_3x3/relu"
  type: "ReLU"
  bottom: "conv1_3_3x3"
  top: "conv1_3_3x3"
}
layer {
  name: "pool1_3x3_s2"
  type: "Pooling"
  bottom: "conv1_3_3x3"
  top: "pool1_3x3_s2"
  pooling_param {
    pool: MAX
    kernel_size: 3
    stride: 2
    pad: 1
  }
}
layer {
  name: "conv2_1_1x1_reduce"
  type: "Convolution"
  bottom: "pool1_3x3_s2"
  top: "conv2_1_1x1_reduce"
  param {
    lr_mult: 1
    decay_mult: 1
  }
  convolution_param {
    num_output: 64
    bias_term: false
    pad: 0
    kernel_size: 1
    stride: 1
    weight_filler {
      type: "msra"
    }
  }
}
layer {
  name: "conv2_1_1x1_reduce/bn"
  type: "BN"
  bottom: "conv2_1_1x1_reduce"
  top: "conv2_1_1x1_reduce"
  param {
    lr_mult: 1
    decay_mult: 0
  }
  param {
    lr_mult: 1
    decay_mult: 0
  }
  param {
    lr_mult: 0
    decay_mult: 0
  }
  param {
    lr_mult: 0
    decay_mult: 0
  }
  bn_param {
    slope_filler {
      type: "constant"
      value: 1
    }
    bias_filler {
      type: "constant"
      value: 0
    }
    momentum: 0.95
    frozen: true
  }
}
layer {
  name: "conv2_1_1x1_reduce/relu"
  type: "ReLU"
  bottom: "conv2_1_1x1_reduce"
  top: "conv2_1_1x1_reduce"
}
layer {
  name: "conv2_1_3x3"
  type: "Convolution"
  bottom: "conv2_1_1x1_reduce"
  top: "conv2_1_3x3"
  param {
    lr_mult: 1
    decay_mult: 1
  }
  convolution_param {
    num_output: 64
    bias_term: false
    pad: 1
    kernel_size: 3
    stride: 1
    weight_filler {
      type: "msra"
    }
  }
}
layer {
  name: "conv2_1_3x3/bn"
  type: "BN"
  bottom: "conv2_1_3x3"
  top: "conv2_1_3x3"
  param {
    lr_mult: 1
    decay_mult: 0
  }
  param {
    lr_mult: 1
    decay_mult: 0
  }
  param {
    lr_mult: 0
    decay_mult: 0
  }
  param {
    lr_mult: 0
    decay_mult: 0
  }
  bn_param {
    slope_filler {
      type: "constant"
      value: 1
    }
    bias_filler {
      type: "constant"
      value: 0
    }
    momentum: 0.95
    frozen: true
  }
}
layer {
  name: "conv2_1_3x3/relu"
  type: "ReLU"
  bottom: "conv2_1_3x3"
  top: "conv2_1_3x3"
}
layer {
  name: "conv2_1_1x1_increase"
  type: "Convolution"
  bottom: "conv2_1_3x3"
  top: "conv2_1_1x1_increase"
  param {
    lr_mult: 1
    decay_mult: 1
  }
  convolution_param {
    num_output: 256
    bias_term: false
    pad: 0
    kernel_size: 1
    stride: 1
    weight_filler {
      type: "msra"
    }
  }
}
layer {
  name: "conv2_1_1x1_increase/bn"
  type: "BN"
  bottom: "conv2_1_1x1_increase"
  top: "conv2_1_1x1_increase"
  param {
    lr_mult: 1
    decay_mult: 0
  }
  param {
    lr_mult: 1
    decay_mult: 0
  }
  param {
    lr_mult: 0
    decay_mult: 0
  }
  param {
    lr_mult: 0
    decay_mult: 0
  }
  bn_param {
    slope_filler {
      type: "constant"
      value: 1
    }
    bias_filler {
      type: "constant"
      value: 0
    }
    momentum: 0.95
    frozen: true
  }
}
layer {
  name: "conv2_1_1x1_proj"
  type: "Convolution"
  bottom: "pool1_3x3_s2"
  top: "conv2_1_1x1_proj"
  param {
    lr_mult: 1
    decay_mult: 1
  }
  convolution_param {
    num_output: 256
    bias_term: false
    pad: 0
    kernel_size: 1
    stride: 1
    weight_filler {
      type: "msra"
    }
  }
}
layer {
  name: "conv2_1_1x1_proj/bn"
  type: "BN"
  bottom: "conv2_1_1x1_proj"
  top: "conv2_1_1x1_proj"
  param {
    lr_mult: 1
    decay_mult: 0
  }
  param {
    lr_mult: 1
    decay_mult: 0
  }
  param {
    lr_mult: 0
    decay_mult: 0
  }
  param {
    lr_mult: 0
    decay_mult: 0
  }
  bn_param {
    slope_filler {
      type: "constant"
      value: 1
    }
    bias_filler {
      type: "constant"
      value: 0
    }
    momentum: 0.95
    frozen: true
  }
}
layer {
  name: "conv2_1"
  type: "Eltwise"
  bottom: "conv2_1_1x1_proj"
  bottom: "conv2_1_1x1_increase"
  top: "conv2_1"
  eltwise_param {
    operation: SUM
  }
}
layer {
  name: "conv2_1/relu"
  type: "ReLU"
  bottom: "conv2_1"
  top: "conv2_1"
}
layer {
  name: "conv2_2_1x1_reduce"
  type: "Convolution"
  bottom: "conv2_1"
  top: "conv2_2_1x1_reduce"
  param {
    lr_mult: 1
    decay_mult: 1
  }
  convolution_param {
    num_output: 64
    bias_term: false
    pad: 0
    kernel_size: 1
    stride: 1
    weight_filler {
      type: "msra"
    }
  }
}
layer {
  name: "conv2_2_1x1_reduce/bn"
  type: "BN"
  bottom: "conv2_2_1x1_reduce"
  top: "conv2_2_1x1_reduce"
  param {
    lr_mult: 1
    decay_mult: 0
  }
  param {
    lr_mult: 1
    decay_mult: 0
  }
  param {
    lr_mult: 0
    decay_mult: 0
  }
  param {
    lr_mult: 0
    decay_mult: 0
  }
  bn_param {
    slope_filler {
      type: "constant"
      value: 1
    }
    bias_filler {
      type: "constant"
      value: 0
    }
    momentum: 0.95
    frozen: true
  }
}
layer {
  name: "conv2_2_1x1_reduce/relu"
  type: "ReLU"
  bottom: "conv2_2_1x1_reduce"
  top: "conv2_2_1x1_reduce"
}
layer {
  name: "conv2_2_3x3"
  type: "Convolution"
  bottom: "conv2_2_1x1_reduce"
  top: "conv2_2_3x3"
  param {
    lr_mult: 1
    decay_mult: 1
  }
  convolution_param {
    num_output: 64
    bias_term: false
    pad: 1
    kernel_size: 3
    stride: 1
    weight_filler {
      type: "msra"
    }
  }
}
layer {
  name: "conv2_2_3x3/bn"
  type: "BN"
  bottom: "conv2_2_3x3"
  top: "conv2_2_3x3"
  param {
    lr_mult: 1
    decay_mult: 0
  }
  param {
    lr_mult: 1
    decay_mult: 0
  }
  param {
    lr_mult: 0
    decay_mult: 0
  }
  param {
    lr_mult: 0
    decay_mult: 0
  }
  bn_param {
    slope_filler {
      type: "constant"
      value: 1
    }
    bias_filler {
      type: "constant"
      value: 0
    }
    momentum: 0.95
    frozen: true
  }
}
layer {
  name: "conv2_2_3x3/relu"
  type: "ReLU"
  bottom: "conv2_2_3x3"
  top: "conv2_2_3x3"
}
layer {
  name: "conv2_2_1x1_increase"
  type: "Convolution"
  bottom: "conv2_2_3x3"
  top: "conv2_2_1x1_increase"
  param {
    lr_mult: 1
    decay_mult: 1
  }
  convolution_param {
    num_output: 256
    bias_term: false
    pad: 0
    kernel_size: 1
    stride: 1
    weight_filler {
      type: "msra"
    }
  }
}
layer {
  name: "conv2_2_1x1_increase/bn"
  type: "BN"
  bottom: "conv2_2_1x1_increase"
  top: "conv2_2_1x1_increase"
  param {
    lr_mult: 1
    decay_mult: 0
  }
  param {
    lr_mult: 1
    decay_mult: 0
  }
  param {
    lr_mult: 0
    decay_mult: 0
  }
  param {
    lr_mult: 0
    decay_mult: 0
  }
  bn_param {
    slope_filler {
      type: "constant"
      value: 1
    }
    bias_filler {
      type: "constant"
      value: 0
    }
    momentum: 0.95
    frozen: true
  }
}
layer {
  name: "conv2_2"
  type: "Eltwise"
  bottom: "conv2_1"
  bottom: "conv2_2_1x1_increase"
  top: "conv2_2"
  eltwise_param {
    operation: SUM
  }
}
layer {
  name: "conv2_2/relu"
  type: "ReLU"
  bottom: "conv2_2"
  top: "conv2_2"
}
layer {
  name: "conv2_3_1x1_reduce"
  type: "Convolution"
  bottom: "conv2_2"
  top: "conv2_3_1x1_reduce"
  param {
    lr_mult: 1
    decay_mult: 1
  }
  convolution_param {
    num_output: 64
    bias_term: false
    pad: 0
    kernel_size: 1
    stride: 1
    weight_filler {
      type: "msra"
    }
  }
}
layer {
  name: "conv2_3_1x1_reduce/bn"
  type: "BN"
  bottom: "conv2_3_1x1_reduce"
  top: "conv2_3_1x1_reduce"
  param {
    lr_mult: 1
    decay_mult: 0
  }
  param {
    lr_mult: 1
    decay_mult: 0
  }
  param {
    lr_mult: 0
    decay_mult: 0
  }
  param {
    lr_mult: 0
    decay_mult: 0
  }
  bn_param {
    slope_filler {
      type: "constant"
      value: 1
    }
    bias_filler {
      type: "constant"
      value: 0
    }
    momentum: 0.95
    frozen: true
  }
}
layer {
  name: "conv2_3_1x1_reduce/relu"
  type: "ReLU"
  bottom: "conv2_3_1x1_reduce"
  top: "conv2_3_1x1_reduce"
}
layer {
  name: "conv2_3_3x3"
  type: "Convolution"
  bottom: "conv2_3_1x1_reduce"
  top: "conv2_3_3x3"
  param {
    lr_mult: 1
    decay_mult: 1
  }
  convolution_param {
    num_output: 64
    bias_term: false
    pad: 1
    kernel_size: 3
    stride: 1
    weight_filler {
      type: "msra"
    }
  }
}
layer {
  name: "conv2_3_3x3/bn"
  type: "BN"
  bottom: "conv2_3_3x3"
  top: "conv2_3_3x3"
  param {
    lr_mult: 1
    decay_mult: 0
  }
  param {
    lr_mult: 1
    decay_mult: 0
  }
  param {
    lr_mult: 0
    decay_mult: 0
  }
  param {
    lr_mult: 0
    decay_mult: 0
  }
  bn_param {
    slope_filler {
      type: "constant"
      value: 1
    }
    bias_filler {
      type: "constant"
      value: 0
    }
    momentum: 0.95
    frozen: true
  }
}
layer {
  name: "conv2_3_3x3/relu"
  type: "ReLU"
  bottom: "conv2_3_3x3"
  top: "conv2_3_3x3"
}
layer {
  name: "conv2_3_1x1_increase"
  type: "Convolution"
  bottom: "conv2_3_3x3"
  top: "conv2_3_1x1_increase"
  param {
    lr_mult: 1
    decay_mult: 1
  }
  convolution_param {
    num_output: 256
    bias_term: false
    pad: 0
    kernel_size: 1
    stride: 1
    weight_filler {
      type: "msra"
    }
  }
}
layer {
  name: "conv2_3_1x1_increase/bn"
  type: "BN"
  bottom: "conv2_3_1x1_increase"
  top: "conv2_3_1x1_increase"
  param {
    lr_mult: 1
    decay_mult: 0
  }
  param {
    lr_mult: 1
    decay_mult: 0
  }
  param {
    lr_mult: 0
    decay_mult: 0
  }
  param {
    lr_mult: 0
    decay_mult: 0
  }
  bn_param {
    slope_filler {
      type: "constant"
      value: 1
    }
    bias_filler {
      type: "constant"
      value: 0
    }
    momentum: 0.95
    frozen: true
  }
}
layer {
  name: "conv2_3"
  type: "Eltwise"
  bottom: "conv2_2"
  bottom: "conv2_3_1x1_increase"
  top: "conv2_3"
  eltwise_param {
    operation: SUM
  }
}
layer {
  name: "conv2_3/relu"
  type: "ReLU"
  bottom: "conv2_3"
  top: "conv2_3"
}
layer {
  name: "conv3_1_1x1_reduce"
  type: "Convolution"
  bottom: "conv2_3"
  top: "conv3_1_1x1_reduce"
  param {
    lr_mult: 1
    decay_mult: 1
  }
  convolution_param {
    num_output: 128
    bias_term: false
    pad: 0
    kernel_size: 1
    stride: 1
    weight_filler {
      type: "msra"
    }
  }
}
layer {
  name: "conv3_1_1x1_reduce/bn"
  type: "BN"
  bottom: "conv3_1_1x1_reduce"
  top: "conv3_1_1x1_reduce"
  param {
    lr_mult: 1
    decay_mult: 0
  }
  param {
    lr_mult: 1
    decay_mult: 0
  }
  param {
    lr_mult: 0
    decay_mult: 0
  }
  param {
    lr_mult: 0
    decay_mult: 0
  }
  bn_param {
    slope_filler {
      type: "constant"
      value: 1
    }
    bias_filler {
      type: "constant"
      value: 0
    }
    momentum: 0.95
    frozen: true
  }
}
layer {
  name: "conv3_1_1x1_reduce/relu"
  type: "ReLU"
  bottom: "conv3_1_1x1_reduce"
  top: "conv3_1_1x1_reduce"
}
layer {
  name: "conv3_1_3x3"
  type: "Convolution"
  bottom: "conv3_1_1x1_reduce"
  top: "conv3_1_3x3"
  param {
    lr_mult: 1
    decay_mult: 1
  }
  convolution_param {
    num_output: 128
    bias_term: false
    pad: 1
    kernel_size: 3
    stride: 2
    weight_filler {
      type: "msra"
    }
  }
}
layer {
  name: "conv3_1_3x3/bn"
  type: "BN"
  bottom: "conv3_1_3x3"
  top: "conv3_1_3x3"
  param {
    lr_mult: 1
    decay_mult: 0
  }
  param {
    lr_mult: 1
    decay_mult: 0
  }
  param {
    lr_mult: 0
    decay_mult: 0
  }
  param {
    lr_mult: 0
    decay_mult: 0
  }
  bn_param {
    slope_filler {
      type: "constant"
      value: 1
    }
    bias_filler {
      type: "constant"
      value: 0
    }
    momentum: 0.95
    frozen: true
  }
}
layer {
  name: "conv3_1_3x3/relu"
  type: "ReLU"
  bottom: "conv3_1_3x3"
  top: "conv3_1_3x3"
}
layer {
  name: "conv3_1_1x1_increase"
  type: "Convolution"
  bottom: "conv3_1_3x3"
  top: "conv3_1_1x1_increase"
  param {
    lr_mult: 1
    decay_mult: 1
  }
  convolution_param {
    num_output: 512
    bias_term: false
    pad: 0
    kernel_size: 1
    stride: 1
    weight_filler {
      type: "msra"
    }
  }
}
layer {
  name: "conv3_1_1x1_increase/bn"
  type: "BN"
  bottom: "conv3_1_1x1_increase"
  top: "conv3_1_1x1_increase"
  param {
    lr_mult: 1
    decay_mult: 0
  }
  param {
    lr_mult: 1
    decay_mult: 0
  }
  param {
    lr_mult: 0
    decay_mult: 0
  }
  param {
    lr_mult: 0
    decay_mult: 0
  }
  bn_param {
    slope_filler {
      type: "constant"
      value: 1
    }
    bias_filler {
      type: "constant"
      value: 0
    }
    momentum: 0.95
    frozen: true
  }
}
layer {
  name: "conv3_1_1x1_proj"
  type: "Convolution"
  bottom: "conv2_3"
  top: "conv3_1_1x1_proj"
  param {
    lr_mult: 1
    decay_mult: 1
  }
  convolution_param {
    num_output: 512
    bias_term: false
    pad: 0
    kernel_size: 1
    stride: 2
    weight_filler {
      type: "msra"
    }
  }
}
layer {
  name: "conv3_1_1x1_proj/bn"
  type: "BN"
  bottom: "conv3_1_1x1_proj"
  top: "conv3_1_1x1_proj"
  param {
    lr_mult: 1
    decay_mult: 0
  }
  param {
    lr_mult: 1
    decay_mult: 0
  }
  param {
    lr_mult: 0
    decay_mult: 0
  }
  param {
    lr_mult: 0
    decay_mult: 0
  }
  bn_param {
    slope_filler {
      type: "constant"
      value: 1
    }
    bias_filler {
      type: "constant"
      value: 0
    }
    momentum: 0.95
    frozen: true
  }
}
layer {
  name: "conv3_1"
  type: "Eltwise"
  bottom: "conv3_1_1x1_proj"
  bottom: "conv3_1_1x1_increase"
  top: "conv3_1"
  eltwise_param {
    operation: SUM
  }
}
layer {
  name: "conv3_1/relu"
  type: "ReLU"
  bottom: "conv3_1"
  top: "conv3_1"
}
layer {
  name: "conv3_2_1x1_reduce"
  type: "Convolution"
  bottom: "conv3_1"
  top: "conv3_2_1x1_reduce"
  param {
    lr_mult: 1
    decay_mult: 1
  }
  convolution_param {
    num_output: 128
    bias_term: false
    pad: 0
    kernel_size: 1
    stride: 1
    weight_filler {
      type: "msra"
    }
  }
}
layer {
  name: "conv3_2_1x1_reduce/bn"
  type: "BN"
  bottom: "conv3_2_1x1_reduce"
  top: "conv3_2_1x1_reduce"
  param {
    lr_mult: 1
    decay_mult: 0
  }
  param {
    lr_mult: 1
    decay_mult: 0
  }
  param {
    lr_mult: 0
    decay_mult: 0
  }
  param {
    lr_mult: 0
    decay_mult: 0
  }
  bn_param {
    slope_filler {
      type: "constant"
      value: 1
    }
    bias_filler {
      type: "constant"
      value: 0
    }
    momentum: 0.95
    frozen: true
  }
}
layer {
  name: "conv3_2_1x1_reduce/relu"
  type: "ReLU"
  bottom: "conv3_2_1x1_reduce"
  top: "conv3_2_1x1_reduce"
}
layer {
  name: "conv3_2_3x3"
  type: "Convolution"
  bottom: "conv3_2_1x1_reduce"
  top: "conv3_2_3x3"
  param {
    lr_mult: 1
    decay_mult: 1
  }
  convolution_param {
    num_output: 128
    bias_term: false
    pad: 1
    kernel_size: 3
    stride: 1
    weight_filler {
      type: "msra"
    }
  }
}
layer {
  name: "conv3_2_3x3/bn"
  type: "BN"
  bottom: "conv3_2_3x3"
  top: "conv3_2_3x3"
  param {
    lr_mult: 1
    decay_mult: 0
  }
  param {
    lr_mult: 1
    decay_mult: 0
  }
  param {
    lr_mult: 0
    decay_mult: 0
  }
  param {
    lr_mult: 0
    decay_mult: 0
  }
  bn_param {
    slope_filler {
      type: "constant"
      value: 1
    }
    bias_filler {
      type: "constant"
      value: 0
    }
    momentum: 0.95
    frozen: true
  }
}
layer {
  name: "conv3_2_3x3/relu"
  type: "ReLU"
  bottom: "conv3_2_3x3"
  top: "conv3_2_3x3"
}
layer {
  name: "conv3_2_1x1_increase"
  type: "Convolution"
  bottom: "conv3_2_3x3"
  top: "conv3_2_1x1_increase"
  param {
    lr_mult: 1
    decay_mult: 1
  }
  convolution_param {
    num_output: 512
    bias_term: false
    pad: 0
    kernel_size: 1
    stride: 1
    weight_filler {
      type: "msra"
    }
  }
}
layer {
  name: "conv3_2_1x1_increase/bn"
  type: "BN"
  bottom: "conv3_2_1x1_increase"
  top: "conv3_2_1x1_increase"
  param {
    lr_mult: 1
    decay_mult: 0
  }
  param {
    lr_mult: 1
    decay_mult: 0
  }
  param {
    lr_mult: 0
    decay_mult: 0
  }
  param {
    lr_mult: 0
    decay_mult: 0
  }
  bn_param {
    slope_filler {
      type: "constant"
      value: 1
    }
    bias_filler {
      type: "constant"
      value: 0
    }
    momentum: 0.95
    frozen: true
  }
}
layer {
  name: "conv3_2"
  type: "Eltwise"
  bottom: "conv3_1"
  bottom: "conv3_2_1x1_increase"
  top: "conv3_2"
  eltwise_param {
    operation: SUM
  }
}
layer {
  name: "conv3_2/relu"
  type: "ReLU"
  bottom: "conv3_2"
  top: "conv3_2"
}
layer {
  name: "conv3_3_1x1_reduce"
  type: "Convolution"
  bottom: "conv3_2"
  top: "conv3_3_1x1_reduce"
  param {
    lr_mult: 1
    decay_mult: 1
  }
  convolution_param {
    num_output: 128
    bias_term: false
    pad: 0
    kernel_size: 1
    stride: 1
    weight_filler {
      type: "msra"
    }
  }
}
layer {
  name: "conv3_3_1x1_reduce/bn"
  type: "BN"
  bottom: "conv3_3_1x1_reduce"
  top: "conv3_3_1x1_reduce"
  param {
    lr_mult: 1
    decay_mult: 0
  }
  param {
    lr_mult: 1
    decay_mult: 0
  }
  param {
    lr_mult: 0
    decay_mult: 0
  }
  param {
    lr_mult: 0
    decay_mult: 0
  }
  bn_param {
    slope_filler {
      type: "constant"
      value: 1
    }
    bias_filler {
      type: "constant"
      value: 0
    }
    momentum: 0.95
    frozen: true
  }
}
layer {
  name: "conv3_3_1x1_reduce/relu"
  type: "ReLU"
  bottom: "conv3_3_1x1_reduce"
  top: "conv3_3_1x1_reduce"
}
layer {
  name: "conv3_3_3x3"
  type: "Convolution"
  bottom: "conv3_3_1x1_reduce"
  top: "conv3_3_3x3"
  param {
    lr_mult: 1
    decay_mult: 1
  }
  convolution_param {
    num_output: 128
    bias_term: false
    pad: 1
    kernel_size: 3
    stride: 1
    weight_filler {
      type: "msra"
    }
  }
}
layer {
  name: "conv3_3_3x3/bn"
  type: "BN"
  bottom: "conv3_3_3x3"
  top: "conv3_3_3x3"
  param {
    lr_mult: 1
    decay_mult: 0
  }
  param {
    lr_mult: 1
    decay_mult: 0
  }
  param {
    lr_mult: 0
    decay_mult: 0
  }
  param {
    lr_mult: 0
    decay_mult: 0
  }
  bn_param {
    slope_filler {
      type: "constant"
      value: 1
    }
    bias_filler {
      type: "constant"
      value: 0
    }
    momentum: 0.95
    frozen: true
  }
}
layer {
  name: "conv3_3_3x3/relu"
  type: "ReLU"
  bottom: "conv3_3_3x3"
  top: "conv3_3_3x3"
}
layer {
  name: "conv3_3_1x1_increase"
  type: "Convolution"
  bottom: "conv3_3_3x3"
  top: "conv3_3_1x1_increase"
  param {
    lr_mult: 1
    decay_mult: 1
  }
  convolution_param {
    num_output: 512
    bias_term: false
    pad: 0
    kernel_size: 1
    stride: 1
    weight_filler {
      type: "msra"
    }
  }
}
layer {
  name: "conv3_3_1x1_increase/bn"
  type: "BN"
  bottom: "conv3_3_1x1_increase"
  top: "conv3_3_1x1_increase"
  param {
    lr_mult: 1
    decay_mult: 0
  }
  param {
    lr_mult: 1
    decay_mult: 0
  }
  param {
    lr_mult: 0
    decay_mult: 0
  }
  param {
    lr_mult: 0
    decay_mult: 0
  }
  bn_param {
    slope_filler {
      type: "constant"
      value: 1
    }
    bias_filler {
      type: "constant"
      value: 0
    }
    momentum: 0.95
    frozen: true
  }
}
layer {
  name: "conv3_3"
  type: "Eltwise"
  bottom: "conv3_2"
  bottom: "conv3_3_1x1_increase"
  top: "conv3_3"
  eltwise_param {
    operation: SUM
  }
}
layer {
  name: "conv3_3/relu"
  type: "ReLU"
  bottom: "conv3_3"
  top: "conv3_3"
}
layer {
  name: "conv3_4_1x1_reduce"
  type: "Convolution"
  bottom: "conv3_3"
  top: "conv3_4_1x1_reduce"
  param {
    lr_mult: 1
    decay_mult: 1
  }
  convolution_param {
    num_output: 128
    bias_term: false
    pad: 0
    kernel_size: 1
    stride: 1
    weight_filler {
      type: "msra"
    }
  }
}
layer {
  name: "conv3_4_1x1_reduce/bn"
  type: "BN"
  bottom: "conv3_4_1x1_reduce"
  top: "conv3_4_1x1_reduce"
  param {
    lr_mult: 1
    decay_mult: 0
  }
  param {
    lr_mult: 1
    decay_mult: 0
  }
  param {
    lr_mult: 0
    decay_mult: 0
  }
  param {
    lr_mult: 0
    decay_mult: 0
  }
  bn_param {
    slope_filler {
      type: "constant"
      value: 1
    }
    bias_filler {
      type: "constant"
      value: 0
    }
    momentum: 0.95
    frozen: true
  }
}
layer {
  name: "conv3_4_1x1_reduce/relu"
  type: "ReLU"
  bottom: "conv3_4_1x1_reduce"
  top: "conv3_4_1x1_reduce"
}
layer {
  name: "conv3_4_3x3"
  type: "Convolution"
  bottom: "conv3_4_1x1_reduce"
  top: "conv3_4_3x3"
  param {
    lr_mult: 1
    decay_mult: 1
  }
  convolution_param {
    num_output: 128
    bias_term: false
    pad: 1
    kernel_size: 3
    stride: 1
    weight_filler {
      type: "msra"
    }
  }
}
layer {
  name: "conv3_4_3x3/bn"
  type: "BN"
  bottom: "conv3_4_3x3"
  top: "conv3_4_3x3"
  param {
    lr_mult: 1
    decay_mult: 0
  }
  param {
    lr_mult: 1
    decay_mult: 0
  }
  param {
    lr_mult: 0
    decay_mult: 0
  }
  param {
    lr_mult: 0
    decay_mult: 0
  }
  bn_param {
    slope_filler {
      type: "constant"
      value: 1
    }
    bias_filler {
      type: "constant"
      value: 0
    }
    momentum: 0.95
    frozen: true
  }
}
layer {
  name: "conv3_4_3x3/relu"
  type: "ReLU"
  bottom: "conv3_4_3x3"
  top: "conv3_4_3x3"
}
layer {
  name: "conv3_4_1x1_increase"
  type: "Convolution"
  bottom: "conv3_4_3x3"
  top: "conv3_4_1x1_increase"
  param {
    lr_mult: 1
    decay_mult: 1
  }
  convolution_param {
    num_output: 512
    bias_term: false
    pad: 0
    kernel_size: 1
    stride: 1
    weight_filler {
      type: "msra"
    }
  }
}
layer {
  name: "conv3_4_1x1_increase/bn"
  type: "BN"
  bottom: "conv3_4_1x1_increase"
  top: "conv3_4_1x1_increase"
  param {
    lr_mult: 1
    decay_mult: 0
  }
  param {
    lr_mult: 1
    decay_mult: 0
  }
  param {
    lr_mult: 0
    decay_mult: 0
  }
  param {
    lr_mult: 0
    decay_mult: 0
  }
  bn_param {
    slope_filler {
      type: "constant"
      value: 1
    }
    bias_filler {
      type: "constant"
      value: 0
    }
    momentum: 0.95
    frozen: true
  }
}
layer {
  name: "conv3_4"
  type: "Eltwise"
  bottom: "conv3_3"
  bottom: "conv3_4_1x1_increase"
  top: "conv3_4"
  eltwise_param {
    operation: SUM
  }
}
layer {
  name: "conv3_4/relu"
  type: "ReLU"
  bottom: "conv3_4"
  top: "conv3_4"
}
layer {
  name: "conv4_1_1x1_reduce"
  type: "Convolution"
  bottom: "conv3_4"
  top: "conv4_1_1x1_reduce"
  param {
    lr_mult: 1
    decay_mult: 1
  }
  convolution_param {
    num_output: 256
    bias_term: false
    pad: 0
    kernel_size: 1
    stride: 1
    weight_filler {
      type: "msra"
    }
  }
}
layer {
  name: "conv4_1_1x1_reduce/bn"
  type: "BN"
  bottom: "conv4_1_1x1_reduce"
  top: "conv4_1_1x1_reduce"
  param {
    lr_mult: 1
    decay_mult: 0
  }
  param {
    lr_mult: 1
    decay_mult: 0
  }
  param {
    lr_mult: 0
    decay_mult: 0
  }
  param {
    lr_mult: 0
    decay_mult: 0
  }
  bn_param {
    slope_filler {
      type: "constant"
      value: 1
    }
    bias_filler {
      type: "constant"
      value: 0
    }
    momentum: 0.95
    frozen: true
  }
}
layer {
  name: "conv4_1_1x1_reduce/relu"
  type: "ReLU"
  bottom: "conv4_1_1x1_reduce"
  top: "conv4_1_1x1_reduce"
}
layer {
  name: "conv4_1_3x3"
  type: "Convolution"
  bottom: "conv4_1_1x1_reduce"
  top: "conv4_1_3x3"
  param {
    lr_mult: 1
    decay_mult: 1
  }
  convolution_param {
    num_output: 256
    bias_term: false
    pad: 2
    kernel_size: 3
    stride: 1
    weight_filler {
      type: "msra"
    }
    dilation: 2
  }
}
layer {
  name: "conv4_1_3x3/bn"
  type: "BN"
  bottom: "conv4_1_3x3"
  top: "conv4_1_3x3"
  param {
    lr_mult: 1
    decay_mult: 0
  }
  param {
    lr_mult: 1
    decay_mult: 0
  }
  param {
    lr_mult: 0
    decay_mult: 0
  }
  param {
    lr_mult: 0
    decay_mult: 0
  }
  bn_param {
    slope_filler {
      type: "constant"
      value: 1
    }
    bias_filler {
      type: "constant"
      value: 0
    }
    momentum: 0.95
    frozen: true
  }
}
layer {
  name: "conv4_1_3x3/relu"
  type: "ReLU"
  bottom: "conv4_1_3x3"
  top: "conv4_1_3x3"
}
layer {
  name: "conv4_1_1x1_increase"
  type: "Convolution"
  bottom: "conv4_1_3x3"
  top: "conv4_1_1x1_increase"
  param {
    lr_mult: 1
    decay_mult: 1
  }
  convolution_param {
    num_output: 1024
    bias_term: false
    pad: 0
    kernel_size: 1
    stride: 1
    weight_filler {
      type: "msra"
    }
  }
}
layer {
  name: "conv4_1_1x1_increase/bn"
  type: "BN"
  bottom: "conv4_1_1x1_increase"
  top: "conv4_1_1x1_increase"
  param {
    lr_mult: 1
    decay_mult: 0
  }
  param {
    lr_mult: 1
    decay_mult: 0
  }
  param {
    lr_mult: 0
    decay_mult: 0
  }
  param {
    lr_mult: 0
    decay_mult: 0
  }
  bn_param {
    slope_filler {
      type: "constant"
      value: 1
    }
    bias_filler {
      type: "constant"
      value: 0
    }
    momentum: 0.95
    frozen: true
  }
}
layer {
  name: "conv4_1_1x1_proj"
  type: "Convolution"
  bottom: "conv3_4"
  top: "conv4_1_1x1_proj"
  param {
    lr_mult: 1
    decay_mult: 1
  }
  convolution_param {
    num_output: 1024
    bias_term: false
    pad: 0
    kernel_size: 1
    stride: 1
    weight_filler {
      type: "msra"
    }
  }
}
layer {
  name: "conv4_1_1x1_proj/bn"
  type: "BN"
  bottom: "conv4_1_1x1_proj"
  top: "conv4_1_1x1_proj"
  param {
    lr_mult: 1
    decay_mult: 0
  }
  param {
    lr_mult: 1
    decay_mult: 0
  }
  param {
    lr_mult: 0
    decay_mult: 0
  }
  param {
    lr_mult: 0
    decay_mult: 0
  }
  bn_param {
    slope_filler {
      type: "constant"
      value: 1
    }
    bias_filler {
      type: "constant"
      value: 0
    }
    momentum: 0.95
    frozen: true
  }
}
layer {
  name: "conv4_1"
  type: "Eltwise"
  bottom: "conv4_1_1x1_proj"
  bottom: "conv4_1_1x1_increase"
  top: "conv4_1"
  eltwise_param {
    operation: SUM
  }
}
layer {
  name: "conv4_1/relu"
  type: "ReLU"
  bottom: "conv4_1"
  top: "conv4_1"
}
layer {
  name: "conv4_2_1x1_reduce"
  type: "Convolution"
  bottom: "conv4_1"
  top: "conv4_2_1x1_reduce"
  param {
    lr_mult: 1
    decay_mult: 1
  }
  convolution_param {
    num_output: 256
    bias_term: false
    pad: 0
    kernel_size: 1
    stride: 1
    weight_filler {
      type: "msra"
    }
  }
}
layer {
  name: "conv4_2_1x1_reduce/bn"
  type: "BN"
  bottom: "conv4_2_1x1_reduce"
  top: "conv4_2_1x1_reduce"
  param {
    lr_mult: 1
    decay_mult: 0
  }
  param {
    lr_mult: 1
    decay_mult: 0
  }
  param {
    lr_mult: 0
    decay_mult: 0
  }
  param {
    lr_mult: 0
    decay_mult: 0
  }
  bn_param {
    slope_filler {
      type: "constant"
      value: 1
    }
    bias_filler {
      type: "constant"
      value: 0
    }
    momentum: 0.95
    frozen: true
  }
}
layer {
  name: "conv4_2_1x1_reduce/relu"
  type: "ReLU"
  bottom: "conv4_2_1x1_reduce"
  top: "conv4_2_1x1_reduce"
}
layer {
  name: "conv4_2_3x3"
  type: "Convolution"
  bottom: "conv4_2_1x1_reduce"
  top: "conv4_2_3x3"
  param {
    lr_mult: 1
    decay_mult: 1
  }
  convolution_param {
    num_output: 256
    bias_term: false
    pad: 2
    kernel_size: 3
    stride: 1
    weight_filler {
      type: "msra"
    }
    dilation: 2
  }
}
layer {
  name: "conv4_2_3x3/bn"
  type: "BN"
  bottom: "conv4_2_3x3"
  top: "conv4_2_3x3"
  param {
    lr_mult: 1
    decay_mult: 0
  }
  param {
    lr_mult: 1
    decay_mult: 0
  }
  param {
    lr_mult: 0
    decay_mult: 0
  }
  param {
    lr_mult: 0
    decay_mult: 0
  }
  bn_param {
    slope_filler {
      type: "constant"
      value: 1
    }
    bias_filler {
      type: "constant"
      value: 0
    }
    momentum: 0.95
    frozen: true
  }
}
layer {
  name: "conv4_2
I0624 00:10:58.704573  2542 layer_factory.hpp:77] Creating layer data
I0624 00:10:58.705163  2542 net.cpp:106] Creating Layer data
I0624 00:10:58.705173  2542 net.cpp:411] data -> data
I0624 00:10:58.705204  2542 net.cpp:411] data -> label
I0624 00:10:58.705215  2542 net.cpp:411] data -> (automatic)
I0624 00:10:58.706037  2542 image_seg_data_layer.cpp:46] Opening file exper/voc12/list/train_aug.txt
I0624 00:10:58.713418  2542 image_seg_data_layer.cpp:63] Shuffling data
I0624 00:10:58.714637  2542 image_seg_data_layer.cpp:68] A total of 10582 images.
I0624 00:10:58.783689  2542 image_seg_data_layer.cpp:137] output data size: 2,3,473,473
I0624 00:10:58.783736  2542 image_seg_data_layer.cpp:141] output label size: 2,1,473,473
I0624 00:10:58.783751  2542 image_seg_data_layer.cpp:145] output data_dim size: 2,1,1,2
I0624 00:10:58.830622  2542 net.cpp:150] Setting up data
I0624 00:10:58.830660  2542 net.cpp:157] Top shape: 2 3 473 473 (1342374)
I0624 00:10:58.830667  2542 net.cpp:157] Top shape: 2 1 473 473 (447458)
I0624 00:10:58.830672  2542 net.cpp:157] Top shape: 2 1 1 2 (4)
I0624 00:10:58.830674  2542 net.cpp:165] Memory required for data: 7159344
I0624 00:10:58.830688  2542 layer_factory.hpp:77] Creating layer conv1_1_3x3_s2
I0624 00:10:58.830716  2542 net.cpp:106] Creating Layer conv1_1_3x3_s2
I0624 00:10:58.830721  2542 net.cpp:454] conv1_1_3x3_s2 <- data
I0624 00:10:58.830734  2542 net.cpp:411] conv1_1_3x3_s2 -> conv1_1_3x3_s2
I0624 00:10:58.835067  2542 net.cpp:150] Setting up conv1_1_3x3_s2
I0624 00:10:58.835081  2542 net.cpp:157] Top shape: 2 64 237 237 (7189632)
I0624 00:10:58.835085  2542 net.cpp:165] Memory required for data: 35917872
I0624 00:10:58.835096  2542 layer_factory.hpp:77] Creating layer conv1_1_3x3_s2/bn
I0624 00:10:58.835108  2542 net.cpp:106] Creating Layer conv1_1_3x3_s2/bn
I0624 00:10:58.835115  2542 net.cpp:454] conv1_1_3x3_s2/bn <- conv1_1_3x3_s2
I0624 00:10:58.835122  2542 net.cpp:397] conv1_1_3x3_s2/bn -> conv1_1_3x3_s2 (in-place)
I0624 00:10:58.836208  2542 net.cpp:150] Setting up conv1_1_3x3_s2/bn
I0624 00:10:58.836221  2542 net.cpp:157] Top shape: 2 64 237 237 (7189632)
I0624 00:10:58.836225  2542 net.cpp:165] Memory required for data: 64676400
I0624 00:10:58.836252  2542 layer_factory.hpp:77] Creating layer conv1_1_3x3_s2/relu
I0624 00:10:58.836261  2542 net.cpp:106] Creating Layer conv1_1_3x3_s2/relu
I0624 00:10:58.836266  2542 net.cpp:454] conv1_1_3x3_s2/relu <- conv1_1_3x3_s2
I0624 00:10:58.836271  2542 net.cpp:397] conv1_1_3x3_s2/relu -> conv1_1_3x3_s2 (in-place)
I0624 00:10:58.837092  2542 net.cpp:150] Setting up conv1_1_3x3_s2/relu
I0624 00:10:58.837101  2542 net.cpp:157] Top shape: 2 64 237 237 (7189632)
I0624 00:10:58.837105  2542 net.cpp:165] Memory required for data: 93434928
I0624 00:10:58.837108  2542 layer_factory.hpp:77] Creating layer conv1_2_3x3
I0624 00:10:58.837118  2542 net.cpp:106] Creating Layer conv1_2_3x3
I0624 00:10:58.837122  2542 net.cpp:454] conv1_2_3x3 <- conv1_1_3x3_s2
I0624 00:10:58.837127  2542 net.cpp:411] conv1_2_3x3 -> conv1_2_3x3
I0624 00:10:58.838146  2542 net.cpp:150] Setting up conv1_2_3x3
I0624 00:10:58.838156  2542 net.cpp:157] Top shape: 2 64 237 237 (7189632)
I0624 00:10:58.838158  2542 net.cpp:165] Memory required for data: 122193456
I0624 00:10:58.838165  2542 layer_factory.hpp:77] Creating layer conv1_2_3x3/bn
I0624 00:10:58.838171  2542 net.cpp:106] Creating Layer conv1_2_3x3/bn
I0624 00:10:58.838176  2542 net.cpp:454] conv1_2_3x3/bn <- conv1_2_3x3
I0624 00:10:58.838179  2542 net.cpp:397] conv1_2_3x3/bn -> conv1_2_3x3 (in-place)
I0624 00:10:58.838352  2542 net.cpp:150] Setting up conv1_2_3x3/bn
I0624 00:10:58.838359  2542 net.cpp:157] Top shape: 2 64 237 237 (7189632)
I0624 00:10:58.838363  2542 net.cpp:165] Memory required for data: 150951984
I0624 00:10:58.838374  2542 layer_factory.hpp:77] Creating layer conv1_2_3x3/relu
I0624 00:10:58.838379  2542 net.cpp:106] Creating Layer conv1_2_3x3/relu
I0624 00:10:58.838382  2542 net.cpp:454] conv1_2_3x3/relu <- conv1_2_3x3
I0624 00:10:58.838388  2542 net.cpp:397] conv1_2_3x3/relu -> conv1_2_3x3 (in-place)
I0624 00:10:58.838394  2542 net.cpp:150] Setting up conv1_2_3x3/relu
I0624 00:10:58.838399  2542 net.cpp:157] Top shape: 2 64 237 237 (7189632)
I0624 00:10:58.838403  2542 net.cpp:165] Memory required for data: 179710512
I0624 00:10:58.838407  2542 layer_factory.hpp:77] Creating layer conv1_3_3x3
I0624 00:10:58.838414  2542 net.cpp:106] Creating Layer conv1_3_3x3
I0624 00:10:58.838418  2542 net.cpp:454] conv1_3_3x3 <- conv1_2_3x3
I0624 00:10:58.838423  2542 net.cpp:411] conv1_3_3x3 -> conv1_3_3x3
I0624 00:10:58.840620  2542 net.cpp:150] Setting up conv1_3_3x3
I0624 00:10:58.840636  2542 net.cpp:157] Top shape: 2 128 237 237 (14379264)
I0624 00:10:58.840641  2542 net.cpp:165] Memory required for data: 237227568
I0624 00:10:58.840647  2542 layer_factory.hpp:77] Creating layer conv1_3_3x3/bn
I0624 00:10:58.840659  2542 net.cpp:106] Creating Layer conv1_3_3x3/bn
I0624 00:10:58.840667  2542 net.cpp:454] conv1_3_3x3/bn <- conv1_3_3x3
I0624 00:10:58.840677  2542 net.cpp:397] conv1_3_3x3/bn -> conv1_3_3x3 (in-place)
I0624 00:10:58.840916  2542 net.cpp:150] Setting up conv1_3_3x3/bn
I0624 00:10:58.840924  2542 net.cpp:157] Top shape: 2 128 237 237 (14379264)
I0624 00:10:58.840929  2542 net.cpp:165] Memory required for data: 294744624
I0624 00:10:58.840958  2542 layer_factory.hpp:77] Creating layer conv1_3_3x3/relu
I0624 00:10:58.840965  2542 net.cpp:106] Creating Layer conv1_3_3x3/relu
I0624 00:10:58.840968  2542 net.cpp:454] conv1_3_3x3/relu <- conv1_3_3x3
I0624 00:10:58.840971  2542 net.cpp:397] conv1_3_3x3/relu -> conv1_3_3x3 (in-place)
I0624 00:10:58.840977  2542 net.cpp:150] Setting up conv1_3_3x3/relu
I0624 00:10:58.840981  2542 net.cpp:157] Top shape: 2 128 237 237 (14379264)
I0624 00:10:58.840983  2542 net.cpp:165] Memory required for data: 352261680
I0624 00:10:58.840986  2542 layer_factory.hpp:77] Creating layer pool1_3x3_s2
I0624 00:10:58.840991  2542 net.cpp:106] Creating Layer pool1_3x3_s2
I0624 00:10:58.840993  2542 net.cpp:454] pool1_3x3_s2 <- conv1_3_3x3
I0624 00:10:58.840998  2542 net.cpp:411] pool1_3x3_s2 -> pool1_3x3_s2
I0624 00:10:58.841035  2542 net.cpp:150] Setting up pool1_3x3_s2
I0624 00:10:58.841039  2542 net.cpp:157] Top shape: 2 128 119 119 (3625216)
I0624 00:10:58.841061  2542 net.cpp:165] Memory required for data: 366762544
I0624 00:10:58.841065  2542 layer_factory.hpp:77] Creating layer pool1_3x3_s2_pool1_3x3_s2_0_split
I0624 00:10:58.841327  2542 net.cpp:106] Creating Layer pool1_3x3_s2_pool1_3x3_s2_0_split
I0624 00:10:58.841331  2542 net.cpp:454] pool1_3x3_s2_pool1_3x3_s2_0_split <- pool1_3x3_s2
I0624 00:10:58.841336  2542 net.cpp:411] pool1_3x3_s2_pool1_3x3_s2_0_split -> pool1_3x3_s2_pool1_3x3_s2_0_split_0
I0624 00:10:58.841341  2542 net.cpp:411] pool1_3x3_s2_pool1_3x3_s2_0_split -> pool1_3x3_s2_pool1_3x3_s2_0_split_1
I0624 00:10:58.841364  2542 net.cpp:150] Setting up pool1_3x3_s2_pool1_3x3_s2_0_split
I0624 00:10:58.841368  2542 net.cpp:157] Top shape: 2 128 119 119 (3625216)
I0624 00:10:58.841372  2542 net.cpp:157] Top shape: 2 128 119 119 (3625216)
I0624 00:10:58.841375  2542 net.cpp:165] Memory required for data: 395764272
I0624 00:10:58.841378  2542 layer_factory.hpp:77] Creating layer conv2_1_1x1_reduce
I0624 00:10:58.841385  2542 net.cpp:106] Creating Layer conv2_1_1x1_reduce
I0624 00:10:58.841388  2542 net.cpp:454] conv2_1_1x1_reduce <- pool1_3x3_s2_pool1_3x3_s2_0_split_0
I0624 00:10:58.841392  2542 net.cpp:411] conv2_1_1x1_reduce -> conv2_1_1x1_reduce
I0624 00:10:58.844619  2542 net.cpp:150] Setting up conv2_1_1x1_reduce
I0624 00:10:58.844658  2542 net.cpp:157] Top shape: 2 64 119 119 (1812608)
I0624 00:10:58.844661  2542 net.cpp:165] Memory required for data: 403014704
I0624 00:10:58.844676  2542 layer_factory.hpp:77] Creating layer conv2_1_1x1_reduce/bn
I0624 00:10:58.844691  2542 net.cpp:106] Creating Layer conv2_1_1x1_reduce/bn
I0624 00:10:58.844696  2542 net.cpp:454] conv2_1_1x1_reduce/bn <- conv2_1_1x1_reduce
I0624 00:10:58.844704  2542 net.cpp:397] conv2_1_1x1_reduce/bn -> conv2_1_1x1_reduce (in-place)
I0624 00:10:58.844877  2542 net.cpp:150] Setting up conv2_1_1x1_reduce/bn
I0624 00:10:58.844883  2542 net.cpp:157] Top shape: 2 64 119 119 (1812608)
I0624 00:10:58.844887  2542 net.cpp:165] Memory required for data: 410265136
I0624 00:10:58.844902  2542 layer_factory.hpp:77] Creating layer conv2_1_1x1_reduce/relu
I0624 00:10:58.844909  2542 net.cpp:106] Creating Layer conv2_1_1x1_reduce/relu
I0624 00:10:58.844913  2542 net.cpp:454] conv2_1_1x1_reduce/relu <- conv2_1_1x1_reduce
I0624 00:10:58.844916  2542 net.cpp:397] conv2_1_1x1_reduce/relu -> conv2_1_1x1_reduce (in-place)
I0624 00:10:58.844923  2542 net.cpp:150] Setting up conv2_1_1x1_reduce/relu
I0624 00:10:58.844926  2542 net.cpp:157] Top shape: 2 64 119 119 (1812608)
I0624 00:10:58.844929  2542 net.cpp:165] Memory required for data: 417515568
I0624 00:10:58.844933  2542 layer_factory.hpp:77] Creating layer conv2_1_3x3
I0624 00:10:58.844969  2542 net.cpp:106] Creating Layer conv2_1_3x3
I0624 00:10:58.844974  2542 net.cpp:454] conv2_1_3x3 <- conv2_1_1x1_reduce
I0624 00:10:58.844980  2542 net.cpp:411] conv2_1_3x3 -> conv2_1_3x3
I0624 00:10:58.846014  2542 net.cpp:150] Setting up conv2_1_3x3
I0624 00:10:58.846032  2542 net.cpp:157] Top shape: 2 64 119 119 (1812608)
I0624 00:10:58.846035  2542 net.cpp:165] Memory required for data: 424766000
I0624 00:10:58.846040  2542 layer_factory.hpp:77] Creating layer conv2_1_3x3/bn
I0624 00:10:58.846052  2542 net.cpp:106] Creating Layer conv2_1_3x3/bn
I0624 00:10:58.846056  2542 net.cpp:454] conv2_1_3x3/bn <- conv2_1_3x3
I0624 00:10:58.846060  2542 net.cpp:397] conv2_1_3x3/bn -> conv2_1_3x3 (in-place)
I0624 00:10:58.846231  2542 net.cpp:150] Setting up conv2_1_3x3/bn
I0624 00:10:58.846237  2542 net.cpp:157] Top shape: 2 64 119 119 (1812608)
I0624 00:10:58.846240  2542 net.cpp:165] Memory required for data: 432016432
I0624 00:10:58.846247  2542 layer_factory.hpp:77] Creating layer conv2_1_3x3/relu
I0624 00:10:58.846257  2542 net.cpp:106] Creating Layer conv2_1_3x3/relu
I0624 00:10:58.846261  2542 net.cpp:454] conv2_1_3x3/relu <- conv2_1_3x3
I0624 00:10:58.846266  2542 net.cpp:397] conv2_1_3x3/relu -> conv2_1_3x3 (in-place)
I0624 00:10:58.846271  2542 net.cpp:150] Setting up conv2_1_3x3/relu
I0624 00:10:58.846273  2542 net.cpp:157] Top shape: 2 64 119 119 (1812608)
I0624 00:10:58.846315  2542 net.cpp:165] Memory required for data: 439266864
I0624 00:10:58.846319  2542 layer_factory.hpp:77] Creating layer conv2_1_1x1_increase
I0624 00:10:58.846328  2542 net.cpp:106] Creating Layer conv2_1_1x1_increase
I0624 00:10:58.846330  2542 net.cpp:454] conv2_1_1x1_increase <- conv2_1_3x3
I0624 00:10:58.846336  2542 net.cpp:411] conv2_1_1x1_increase -> conv2_1_1x1_increase
I0624 00:10:58.846853  2542 net.cpp:150] Setting up conv2_1_1x1_increase
I0624 00:10:58.846864  2542 net.cpp:157] Top shape: 2 256 119 119 (7250432)
I0624 00:10:58.846866  2542 net.cpp:165] Memory required for data: 468268592
I0624 00:10:58.846873  2542 layer_factory.hpp:77] Creating layer conv2_1_1x1_increase/bn
I0624 00:10:58.846881  2542 net.cpp:106] Creating Layer conv2_1_1x1_increase/bn
I0624 00:10:58.846886  2542 net.cpp:454] conv2_1_1x1_increase/bn <- conv2_1_1x1_increase
I0624 00:10:58.846891  2542 net.cpp:397] conv2_1_1x1_increase/bn -> conv2_1_1x1_increase (in-place)
I0624 00:10:58.847122  2542 net.cpp:150] Setting up conv2_1_1x1_increase/bn
I0624 00:10:58.847127  2542 net.cpp:157] Top shape: 2 256 119 119 (7250432)
I0624 00:10:58.847131  2542 net.cpp:165] Memory required for data: 497270320
I0624 00:10:58.847136  2542 layer_factory.hpp:77] Creating layer conv2_1_1x1_proj
I0624 00:10:58.847144  2542 net.cpp:106] Creating Layer conv2_1_1x1_proj
I0624 00:10:58.847147  2542 net.cpp:454] conv2_1_1x1_proj <- pool1_3x3_s2_pool1_3x3_s2_0_split_1
I0624 00:10:58.847153  2542 net.cpp:411] conv2_1_1x1_proj -> conv2_1_1x1_proj
I0624 00:10:58.847972  2542 net.cpp:150] Setting up conv2_1_1x1_proj
I0624 00:10:58.847978  2542 net.cpp:157] Top shape: 2 256 119 119 (7250432)
I0624 00:10:58.847980  2542 net.cpp:165] Memory required for data: 526272048
I0624 00:10:58.847983  2542 layer_factory.hpp:77] Creating layer conv2_1_1x1_proj/bn
I0624 00:10:58.847988  2542 net.cpp:106] Creating Layer conv2_1_1x1_proj/bn
I0624 00:10:58.847991  2542 net.cpp:454] conv2_1_1x1_proj/bn <- conv2_1_1x1_proj
I0624 00:10:58.847995  2542 net.cpp:397] conv2_1_1x1_proj/bn -> conv2_1_1x1_proj (in-place)
I0624 00:10:58.848114  2542 net.cpp:150] Setting up conv2_1_1x1_proj/bn
I0624 00:10:58.848117  2542 net.cpp:157] Top shape: 2 256 119 119 (7250432)
I0624 00:10:58.848119  2542 net.cpp:165] Memory required for data: 555273776
I0624 00:10:58.848136  2542 layer_factory.hpp:77] Creating layer conv2_1
I0624 00:10:58.848708  2542 net.cpp:106] Creating Layer conv2_1
I0624 00:10:58.848716  2542 net.cpp:454] conv2_1 <- conv2_1_1x1_proj
I0624 00:10:58.848721  2542 net.cpp:454] conv2_1 <- conv2_1_1x1_increase
I0624 00:10:58.848726  2542 net.cpp:411] conv2_1 -> conv2_1
I0624 00:10:58.849568  2542 net.cpp:150] Setting up conv2_1
I0624 00:10:58.849581  2542 net.cpp:157] Top shape: 2 256 119 119 (7250432)
I0624 00:10:58.849584  2542 net.cpp:165] Memory required for data: 584275504
I0624 00:10:58.849587  2542 layer_factory.hpp:77] Creating layer conv2_1/relu
I0624 00:10:58.849594  2542 net.cpp:106] Creating Layer conv2_1/relu
I0624 00:10:58.849597  2542 net.cpp:454] conv2_1/relu <- conv2_1
I0624 00:10:58.849602  2542 net.cpp:397] conv2_1/relu -> conv2_1 (in-place)
I0624 00:10:58.849607  2542 net.cpp:150] Setting up conv2_1/relu
I0624 00:10:58.849611  2542 net.cpp:157] Top shape: 2 256 119 119 (7250432)
I0624 00:10:58.849613  2542 net.cpp:165] Memory required for data: 613277232
I0624 00:10:58.849617  2542 layer_factory.hpp:77] Creating layer conv2_1_conv2_1/relu_0_split
I0624 00:10:58.849622  2542 net.cpp:106] Creating Layer conv2_1_conv2_1/relu_0_split
I0624 00:10:58.849627  2542 net.cpp:454] conv2_1_conv2_1/relu_0_split <- conv2_1
I0624 00:10:58.849632  2542 net.cpp:411] conv2_1_conv2_1/relu_0_split -> conv2_1_conv2_1/relu_0_split_0
I0624 00:10:58.849644  2542 net.cpp:411] conv2_1_conv2_1/relu_0_split -> conv2_1_conv2_1/relu_0_split_1
I0624 00:10:58.849683  2542 net.cpp:150] Setting up conv2_1_conv2_1/relu_0_split
I0624 00:10:58.849687  2542 net.cpp:157] Top shape: 2 256 119 119 (7250432)
I0624 00:10:58.849690  2542 net.cpp:157] Top shape: 2 256 119 119 (7250432)
I0624 00:10:58.849716  2542 net.cpp:165] Memory required for data: 671280688
I0624 00:10:58.849720  2542 layer_factory.hpp:77] Creating layer conv2_2_1x1_reduce
I0624 00:10:58.849730  2542 net.cpp:106] Creating Layer conv2_2_1x1_reduce
I0624 00:10:58.849732  2542 net.cpp:454] conv2_2_1x1_reduce <- conv2_1_conv2_1/relu_0_split_0
I0624 00:10:58.849737  2542 net.cpp:411] conv2_2_1x1_reduce -> conv2_2_1x1_reduce
I0624 00:10:58.850234  2542 net.cpp:150] Setting up conv2_2_1x1_reduce
I0624 00:10:58.850239  2542 net.cpp:157] Top shape: 2 64 119 119 (1812608)
I0624 00:10:58.850241  2542 net.cpp:165] Memory required for data: 678531120
I0624 00:10:58.850245  2542 layer_factory.hpp:77] Creating layer conv2_2_1x1_reduce/bn
I0624 00:10:58.850250  2542 net.cpp:106] Creating Layer conv2_2_1x1_reduce/bn
I0624 00:10:58.850253  2542 net.cpp:454] conv2_2_1x1_reduce/bn <- conv2_2_1x1_reduce
I0624 00:10:58.850257  2542 net.cpp:397] conv2_2_1x1_reduce/bn -> conv2_2_1x1_reduce (in-place)
I0624 00:10:58.850410  2542 net.cpp:150] Setting up conv2_2_1x1_reduce/bn
I0624 00:10:58.850419  2542 net.cpp:157] Top shape: 2 64 119 119 (1812608)
I0624 00:10:58.850422  2542 net.cpp:165] Memory required for data: 685781552
I0624 00:10:58.850432  2542 layer_factory.hpp:77] Creating layer conv2_2_1x1_reduce/relu
I0624 00:10:58.850440  2542 net.cpp:106] Creating Layer conv2_2_1x1_reduce/relu
I0624 00:10:58.850443  2542 net.cpp:454] conv2_2_1x1_reduce/relu <- conv2_2_1x1_reduce
I0624 00:10:58.850447  2542 net.cpp:397] conv2_2_1x1_reduce/relu -> conv2_2_1x1_reduce (in-place)
I0624 00:10:58.850451  2542 net.cpp:150] Setting up conv2_2_1x1_reduce/relu
I0624 00:10:58.850455  2542 net.cpp:157] Top shape: 2 64 119 119 (1812608)
I0624 00:10:58.850457  2542 net.cpp:165] Memory required for data: 693031984
I0624 00:10:58.850461  2542 layer_factory.hpp:77] Creating layer conv2_2_3x3
I0624 00:10:58.850466  2542 net.cpp:106] Creating Layer conv2_2_3x3
I0624 00:10:58.850469  2542 net.cpp:454] conv2_2_3x3 <- conv2_2_1x1_reduce
I0624 00:10:58.850473  2542 net.cpp:411] conv2_2_3x3 -> conv2_2_3x3
I0624 00:10:58.851377  2542 net.cpp:150] Setting up conv2_2_3x3
I0624 00:10:58.851382  2542 net.cpp:157] Top shape: 2 64 119 119 (1812608)
I0624 00:10:58.851384  2542 net.cpp:165] Memory required for data: 700282416
I0624 00:10:58.851388  2542 layer_factory.hpp:77] Creating layer conv2_2_3x3/bn
I0624 00:10:58.851393  2542 net.cpp:106] Creating Layer conv2_2_3x3/bn
I0624 00:10:58.851398  2542 net.cpp:454] conv2_2_3x3/bn <- conv2_2_3x3
I0624 00:10:58.851404  2542 net.cpp:397] conv2_2_3x3/bn -> conv2_2_3x3 (in-place)
I0624 00:10:58.851548  2542 net.cpp:150] Setting up conv2_2_3x3/bn
I0624 00:10:58.851555  2542 net.cpp:157] Top shape: 2 64 119 119 (1812608)
I0624 00:10:58.851558  2542 net.cpp:165] Memory required for data: 707532848
I0624 00:10:58.851567  2542 layer_factory.hpp:77] Creating layer conv2_2_3x3/relu
I0624 00:10:58.851572  2542 net.cpp:106] Creating Layer conv2_2_3x3/relu
I0624 00:10:58.851575  2542 net.cpp:454] conv2_2_3x3/relu <- conv2_2_3x3
I0624 00:10:58.851580  2542 net.cpp:397] conv2_2_3x3/relu -> conv2_2_3x3 (in-place)
I0624 00:10:58.851584  2542 net.cpp:150] Setting up conv2_2_3x3/relu
I0624 00:10:58.851589  2542 net.cpp:157] Top shape: 2 64 119 119 (1812608)
I0624 00:10:58.851593  2542 net.cpp:165] Memory required for data: 714783280
I0624 00:10:58.851598  2542 layer_factory.hpp:77] Creating layer conv2_2_1x1_increase
I0624 00:10:58.851604  2542 net.cpp:106] Creating Layer conv2_2_1x1_increase
I0624 00:10:58.851608  2542 net.cpp:454] conv2_2_1x1_increase <- conv2_2_3x3
I0624 00:10:58.851613  2542 net.cpp:411] conv2_2_1x1_increase -> conv2_2_1x1_increase
I0624 00:10:58.852088  2542 net.cpp:150] Setting up conv2_2_1x1_increase
I0624 00:10:58.852093  2542 net.cpp:157] Top shape: 2 256 119 119 (7250432)
I0624 00:10:58.852097  2542 net.cpp:165] Memory required for data: 743785008
I0624 00:10:58.852099  2542 layer_factory.hpp:77] Creating layer conv2_2_1x1_increase/bn
I0624 00:10:58.852108  2542 net.cpp:106] Creating Layer conv2_2_1x1_increase/bn
I0624 00:10:58.852120  2542 net.cpp:454] conv2_2_1x1_increase/bn <- conv2_2_1x1_increase
I0624 00:10:58.852124  2542 net.cpp:397] conv2_2_1x1_increase/bn -> conv2_2_1x1_increase (in-place)
I0624 00:10:58.852242  2542 net.cpp:150] Setting up conv2_2_1x1_increase/bn
I0624 00:10:58.852246  2542 net.cpp:157] Top shape: 2 256 119 119 (7250432)
I0624 00:10:58.852248  2542 net.cpp:165] Memory required for data: 772786736
I0624 00:10:58.852254  2542 layer_factory.hpp:77] Creating layer conv2_2
I0624 00:10:58.852258  2542 net.cpp:106] Creating Layer conv2_2
I0624 00:10:58.852262  2542 net.cpp:454] conv2_2 <- conv2_1_conv2_1/relu_0_split_1
I0624 00:10:58.852264  2542 net.cpp:454] conv2_2 <- conv2_2_1x1_increase
I0624 00:10:58.852268  2542 net.cpp:411] conv2_2 -> conv2_2
I0624 00:10:58.852283  2542 net.cpp:150] Setting up conv2_2
I0624 00:10:58.852289  2542 net.cpp:157] Top shape: 2 256 119 119 (7250432)
I0624 00:10:58.852293  2542 net.cpp:165] Memory required for data: 801788464
I0624 00:10:58.852298  2542 layer_factory.hpp:77] Creating layer conv2_2/relu
I0624 00:10:58.852301  2542 net.cpp:106] Creating Layer conv2_2/relu
I0624 00:10:58.852304  2542 net.cpp:454] conv2_2/relu <- conv2_2
I0624 00:10:58.852308  2542 net.cpp:397] conv2_2/relu -> conv2_2 (in-place)
I0624 00:10:58.852311  2542 net.cpp:150] Setting up conv2_2/relu
I0624 00:10:58.852315  2542 net.cpp:157] Top shape: 2 256 119 119 (7250432)
I0624 00:10:58.852318  2542 net.cpp:165] Memory required for data: 830790192
I0624 00:10:58.852320  2542 layer_factory.hpp:77] Creating layer conv2_2_conv2_2/relu_0_split
I0624 00:10:58.852324  2542 net.cpp:106] Creating Layer conv2_2_conv2_2/relu_0_split
I0624 00:10:58.852326  2542 net.cpp:454] conv2_2_conv2_2/relu_0_split <- conv2_2
I0624 00:10:58.852330  2542 net.cpp:411] conv2_2_conv2_2/relu_0_split -> conv2_2_conv2_2/relu_0_split_0
I0624 00:10:58.852334  2542 net.cpp:411] conv2_2_conv2_2/relu_0_split -> conv2_2_conv2_2/relu_0_split_1
I0624 00:10:58.852352  2542 net.cpp:150] Setting up conv2_2_conv2_2/relu_0_split
I0624 00:10:58.852356  2542 net.cpp:157] Top shape: 2 256 119 119 (7250432)
I0624 00:10:58.852360  2542 net.cpp:157] Top shape: 2 256 119 119 (7250432)
I0624 00:10:58.852361  2542 net.cpp:165] Memory required for data: 888793648
I0624 00:10:58.852365  2542 layer_factory.hpp:77] Creating layer conv2_3_1x1_reduce
I0624 00:10:58.852370  2542 net.cpp:106] Creating Layer conv2_3_1x1_reduce
I0624 00:10:58.852372  2542 net.cpp:454] conv2_3_1x1_reduce <- conv2_2_conv2_2/relu_0_split_0
I0624 00:10:58.852376  2542 net.cpp:411] conv2_3_1x1_reduce -> conv2_3_1x1_reduce
I0624 00:10:58.852820  2542 net.cpp:150] Setting up conv2_3_1x1_reduce
I0624 00:10:58.852825  2542 net.cpp:157] Top shape: 2 64 119 119 (1812608)
I0624 00:10:58.852828  2542 net.cpp:165] Memory required for data: 896044080
I0624 00:10:58.852833  2542 layer_factory.hpp:77] Creating layer conv2_3_1x1_reduce/bn
I0624 00:10:58.852839  2542 net.cpp:106] Creating Layer conv2_3_1x1_reduce/bn
I0624 00:10:58.852843  2542 net.cpp:454] conv2_3_1x1_reduce/bn <- conv2_3_1x1_reduce
I0624 00:10:58.852846  2542 net.cpp:397] conv2_3_1x1_reduce/bn -> conv2_3_1x1_reduce (in-place)
I0624 00:10:58.852988  2542 net.cpp:150] Setting up conv2_3_1x1_reduce/bn
I0624 00:10:58.852993  2542 net.cpp:157] Top shape: 2 64 119 119 (1812608)
I0624 00:10:58.852996  2542 net.cpp:165] Memory required for data: 903294512
I0624 00:10:58.853003  2542 layer_factory.hpp:77] Creating layer conv2_3_1x1_reduce/relu
I0624 00:10:58.853006  2542 net.cpp:106] Creating Layer conv2_3_1x1_reduce/relu
I0624 00:10:58.853009  2542 net.cpp:454] conv2_3_1x1_reduce/relu <- conv2_3_1x1_reduce
I0624 00:10:58.853013  2542 net.cpp:397] conv2_3_1x1_reduce/relu -> conv2_3_1x1_reduce (in-place)
I0624 00:10:58.853016  2542 net.cpp:150] Setting up conv2_3_1x1_reduce/relu
I0624 00:10:58.853019  2542 net.cpp:157] Top shape: 2 64 119 119 (1812608)
I0624 00:10:58.853021  2542 net.cpp:165] Memory required for data: 910544944
I0624 00:10:58.853024  2542 layer_factory.hpp:77] Creating layer conv2_3_3x3
I0624 00:10:58.853029  2542 net.cpp:106] Creating Layer conv2_3_3x3
I0624 00:10:58.853039  2542 net.cpp:454] conv2_3_3x3 <- conv2_3_1x1_reduce
I0624 00:10:58.853044  2542 net.cpp:411] conv2_3_3x3 -> conv2_3_3x3
I0624 00:10:58.853921  2542 net.cpp:150] Setting up conv2_3_3x3
I0624 00:10:58.853926  2542 net.cpp:157] Top shape: 2 64 119 119 (1812608)
I0624 00:10:58.853929  2542 net.cpp:165] Memory required for data: 917795376
I0624 00:10:58.853934  2542 layer_factory.hpp:77] Creating layer conv2_3_3x3/bn
I0624 00:10:58.853940  2542 net.cpp:106] Creating Layer conv2_3_3x3/bn
I0624 00:10:58.853943  2542 net.cpp:454] conv2_3_3x3/bn <- conv2_3_3x3
I0624 00:10:58.853947  2542 net.cpp:397] conv2_3_3x3/bn -> conv2_3_3x3 (in-place)
I0624 00:10:58.854074  2542 net.cpp:150] Setting up conv2_3_3x3/bn
I0624 00:10:58.854079  2542 net.cpp:157] Top shape: 2 64 119 119 (1812608)
I0624 00:10:58.854082  2542 net.cpp:165] Memory required for data: 925045808
I0624 00:10:58.854089  2542 layer_factory.hpp:77] Creating layer conv2_3_3x3/relu
I0624 00:10:58.854092  2542 net.cpp:106] Creating Layer conv2_3_3x3/relu
I0624 00:10:58.854094  2542 net.cpp:454] conv2_3_3x3/relu <- conv2_3_3x3
I0624 00:10:58.854099  2542 net.cpp:397] conv2_3_3x3/relu -> conv2_3_3x3 (in-place)
I0624 00:10:58.854102  2542 net.cpp:150] Setting up conv2_3_3x3/relu
I0624 00:10:58.854105  2542 net.cpp:157] Top shape: 2 64 119 119 (1812608)
I0624 00:10:58.854109  2542 net.cpp:165] Memory required for data: 932296240
I0624 00:10:58.854110  2542 layer_factory.hpp:77] Creating layer conv2_3_1x1_increase
I0624 00:10:58.854115  2542 net.cpp:106] Creating Layer conv2_3_1x1_increase
I0624 00:10:58.854118  2542 net.cpp:454] conv2_3_1x1_increase <- conv2_3_3x3
I0624 00:10:58.854122  2542 net.cpp:411] conv2_3_1x1_increase -> conv2_3_1x1_increase
I0624 00:10:58.854600  2542 net.cpp:150] Setting up conv2_3_1x1_increase
I0624 00:10:58.854609  2542 net.cpp:157] Top shape: 2 256 119 119 (7250432)
I0624 00:10:58.854611  2542 net.cpp:165] Memory required for data: 961297968
I0624 00:10:58.854616  2542 layer_factory.hpp:77] Creating layer conv2_3_1x1_increase/bn
I0624 00:10:58.854624  2542 net.cpp:106] Creating Layer conv2_3_1x1_increase/bn
I0624 00:10:58.854629  2542 net.cpp:454] conv2_3_1x1_increase/bn <- conv2_3_1x1_increase
I0624 00:10:58.854634  2542 net.cpp:397] conv2_3_1x1_increase/bn -> conv2_3_1x1_increase (in-place)
I0624 00:10:58.854759  2542 net.cpp:150] Setting up conv2_3_1x1_increase/bn
I0624 00:10:58.854764  2542 net.cpp:157] Top shape: 2 256 119 119 (7250432)
I0624 00:10:58.854768  2542 net.cpp:165] Memory required for data: 990299696
I0624 00:10:58.854778  2542 layer_factory.hpp:77] Creating layer conv2_3
I0624 00:10:58.854781  2542 net.cpp:106] Creating Layer conv2_3
I0624 00:10:58.854784  2542 net.cpp:454] conv2_3 <- conv2_2_conv2_2/relu_0_split_1
I0624 00:10:58.854789  2542 net.cpp:454] conv2_3 <- conv2_3_1x1_increase
I0624 00:10:58.854791  2542 net.cpp:411] conv2_3 -> conv2_3
I0624 00:10:58.854807  2542 net.cpp:150] Setting up conv2_3
I0624 00:10:58.854813  2542 net.cpp:157] Top shape: 2 256 119 119 (7250432)
I0624 00:10:58.854817  2542 net.cpp:165] Memory required for data: 1019301424
I0624 00:10:58.854821  2542 layer_factory.hpp:77] Creating layer conv2_3/relu
I0624 00:10:58.854826  2542 net.cpp:106] Creating Layer conv2_3/relu
I0624 00:10:58.854830  2542 net.cpp:454] conv2_3/relu <- conv2_3
I0624 00:10:58.854836  2542 net.cpp:397] conv2_3/relu -> conv2_3 (in-place)
I0624 00:10:58.854842  2542 net.cpp:150] Setting up conv2_3/relu
I0624 00:10:58.854847  2542 net.cpp:157] Top shape: 2 256 119 119 (7250432)
I0624 00:10:58.854851  2542 net.cpp:165] Memory required for data: 1048303152
I0624 00:10:58.854856  2542 layer_factory.hpp:77] Creating layer conv2_3_conv2_3/relu_0_split
I0624 00:10:58.854861  2542 net.cpp:106] Creating Layer conv2_3_conv2_3/relu_0_split
I0624 00:10:58.854864  2542 net.cpp:454] conv2_3_conv2_3/relu_0_split <- conv2_3
I0624 00:10:58.854871  2542 net.cpp:411] conv2_3_conv2_3/relu_0_split -> conv2_3_conv2_3/relu_0_split_0
I0624 00:10:58.854876  2542 net.cpp:411] conv2_3_conv2_3/relu_0_split -> conv2_3_conv2_3/relu_0_split_1
I0624 00:10:58.854913  2542 net.cpp:150] Setting up conv2_3_conv2_3/relu_0_split
I0624 00:10:58.854919  2542 net.cpp:157] Top shape: 2 256 119 119 (7250432)
I0624 00:10:58.854924  2542 net.cpp:157] Top shape: 2 256 119 119 (7250432)
I0624 00:10:58.854928  2542 net.cpp:165] Memory required for data: 1106306608
I0624 00:10:58.854933  2542 layer_factory.hpp:77] Creating layer conv3_1_1x1_reduce
I0624 00:10:58.854939  2542 net.cpp:106] Creating Layer conv3_1_1x1_reduce
I0624 00:10:58.854944  2542 net.cpp:454] conv3_1_1x1_reduce <- conv2_3_conv2_3/relu_0_split_0
I0624 00:10:58.854949  2542 net.cpp:411] conv3_1_1x1_reduce -> conv3_1_1x1_reduce
I0624 00:10:58.855999  2542 net.cpp:150] Setting up conv3_1_1x1_reduce
I0624 00:10:58.856009  2542 net.cpp:157] Top shape: 2 128 119 119 (3625216)
I0624 00:10:58.856014  2542 net.cpp:165] Memory required for data: 1120807472
I0624 00:10:58.856020  2542 layer_factory.hpp:77] Creating layer conv3_1_1x1_reduce/bn
I0624 00:10:58.856029  2542 net.cpp:106] Creating Layer conv3_1_1x1_reduce/bn
I0624 00:10:58.856034  2542 net.cpp:454] conv3_1_1x1_reduce/bn <- conv3_1_1x1_reduce
I0624 00:10:58.856042  2542 net.cpp:397] conv3_1_1x1_reduce/bn -> conv3_1_1x1_reduce (in-place)
I0624 00:10:58.856230  2542 net.cpp:150] Setting up conv3_1_1x1_reduce/bn
I0624 00:10:58.856237  2542 net.cpp:157] Top shape: 2 128 119 119 (3625216)
I0624 00:10:58.856241  2542 net.cpp:165] Memory required for data: 1135308336
I0624 00:10:58.856250  2542 layer_factory.hpp:77] Creating layer conv3_1_1x1_reduce/relu
I0624 00:10:58.856256  2542 net.cpp:106] Creating Layer conv3_1_1x1_reduce/relu
I0624 00:10:58.856261  2542 net.cpp:454] conv3_1_1x1_reduce/relu <- conv3_1_1x1_reduce
I0624 00:10:58.856264  2542 net.cpp:397] conv3_1_1x1_reduce/relu -> conv3_1_1x1_reduce (in-place)
I0624 00:10:58.856271  2542 net.cpp:150] Setting up conv3_1_1x1_reduce/relu
I0624 00:10:58.856274  2542 net.cpp:157] Top shape: 2 128 119 119 (3625216)
I0624 00:10:58.856277  2542 net.cpp:165] Memory required for data: 1149809200
I0624 00:10:58.856281  2542 layer_factory.hpp:77] Creating layer conv3_1_3x3
I0624 00:10:58.856287  2542 net.cpp:106] Creating Layer conv3_1_3x3
I0624 00:10:58.856292  2542 net.cpp:454] conv3_1_3x3 <- conv3_1_1x1_reduce
I0624 00:10:58.856297  2542 net.cpp:411] conv3_1_3x3 -> conv3_1_3x3
I0624 00:10:58.861732  2542 net.cpp:150] Setting up conv3_1_3x3
I0624 00:10:58.861764  2542 net.cpp:157] Top shape: 2 128 60 60 (921600)
I0624 00:10:58.861768  2542 net.cpp:165] Memory required for data: 1153495600
I0624 00:10:58.861775  2542 layer_factory.hpp:77] Creating layer conv3_1_3x3/bn
I0624 00:10:58.861788  2542 net.cpp:106] Creating Layer conv3_1_3x3/bn
I0624 00:10:58.861795  2542 net.cpp:454] conv3_1_3x3/bn <- conv3_1_3x3
I0624 00:10:58.861802  2542 net.cpp:397] conv3_1_3x3/bn -> conv3_1_3x3 (in-place)
I0624 00:10:58.861981  2542 net.cpp:150] Setting up conv3_1_3x3/bn
I0624 00:10:58.861987  2542 net.cpp:157] Top shape: 2 128 60 60 (921600)
I0624 00:10:58.861990  2542 net.cpp:165] Memory required for data: 1157182000
I0624 00:10:58.861997  2542 layer_factory.hpp:77] Creating layer conv3_1_3x3/relu
I0624 00:10:58.862004  2542 net.cpp:106] Creating Layer conv3_1_3x3/relu
I0624 00:10:58.862007  2542 net.cpp:454] conv3_1_3x3/relu <- conv3_1_3x3
I0624 00:10:58.862011  2542 net.cpp:397] conv3_1_3x3/relu -> conv3_1_3x3 (in-place)
I0624 00:10:58.862018  2542 net.cpp:150] Setting up conv3_1_3x3/relu
I0624 00:10:58.862023  2542 net.cpp:157] Top shape: 2 128 60 60 (921600)
I0624 00:10:58.862027  2542 net.cpp:165] Memory required for data: 1160868400
I0624 00:10:58.862033  2542 layer_factory.hpp:77] Creating layer conv3_1_1x1_increase
I0624 00:10:58.862042  2542 net.cpp:106] Creating Layer conv3_1_1x1_increase
I0624 00:10:58.862047  2542 net.cpp:454] conv3_1_1x1_increase <- conv3_1_3x3
I0624 00:10:58.862053  2542 net.cpp:411] conv3_1_1x1_increase -> conv3_1_1x1_increase
I0624 00:10:58.878239  2542 net.cpp:150] Setting up conv3_1_1x1_increase
I0624 00:10:58.878269  2542 net.cpp:157] Top shape: 2 512 60 60 (3686400)
I0624 00:10:58.878295  2542 net.cpp:165] Memory required for data: 1175614000
I0624 00:10:58.878309  2542 layer_factory.hpp:77] Creating layer conv3_1_1x1_increase/bn
I0624 00:10:58.878325  2542 net.cpp:106] Creating Layer conv3_1_1x1_increase/bn
I0624 00:10:58.878331  2542 net.cpp:454] conv3_1_1x1_increase/bn <- conv3_1_1x1_increase
I0624 00:10:58.878340  2542 net.cpp:397] conv3_1_1x1_increase/bn -> conv3_1_1x1_increase (in-place)
I0624 00:10:58.879479  2542 net.cpp:150] Setting up conv3_1_1x1_increase/bn
I0624 00:10:58.879509  2542 net.cpp:157] Top shape: 2 512 60 60 (3686400)
I0624 00:10:58.879515  2542 net.cpp:165] Memory required for data: 1190359600
I0624 00:10:58.879534  2542 layer_factory.hpp:77] Creating layer conv3_1_1x1_proj
I0624 00:10:58.879557  2542 net.cpp:106] Creating Layer conv3_1_1x1_proj
I0624 00:10:58.879567  2542 net.cpp:454] conv3_1_1x1_proj <- conv2_3_conv2_3/relu_0_split_1
I0624 00:10:58.879581  2542 net.cpp:411] conv3_1_1x1_proj -> conv3_1_1x1_proj
I0624 00:10:58.883908  2542 net.cpp:150] Setting up conv3_1_1x1_proj
I0624 00:10:58.883972  2542 net.cpp:157] Top shape: 2 512 60 60 (3686400)
I0624 00:10:58.883980  2542 net.cpp:165] Memory required for data: 1205105200
I0624 00:10:58.883999  2542 layer_factory.hpp:77] Creating layer conv3_1_1x1_proj/bn
I0624 00:10:58.884027  2542 net.cpp:106] Creating Layer conv3_1_1x1_proj/bn
I0624 00:10:58.884037  2542 net.cpp:454] conv3_1_1x1_proj/bn <- conv3_1_1x1_proj
I0624 00:10:58.884045  2542 net.cpp:397] conv3_1_1x1_proj/bn -> conv3_1_1x1_proj (in-place)
I0624 00:10:58.884279  2542 net.cpp:150] Setting up conv3_1_1x1_proj/bn
I0624 00:10:58.884289  2542 net.cpp:157] Top shape: 2 512 60 60 (3686400)
I0624 00:10:58.884294  2542 net.cpp:165] Memory required for data: 1219850800
I0624 00:10:58.884305  2542 layer_factory.hpp:77] Creating layer conv3_1
I0624 00:10:58.884316  2542 net.cpp:106] Creating Layer conv3_1
I0624 00:10:58.884320  2542 net.cpp:454] conv3_1 <- conv3_1_1x1_proj
I0624 00:10:58.884326  2542 net.cpp:454] conv3_1 <- conv3_1_1x1_increase
I0624 00:10:58.884332  2542 net.cpp:411] conv3_1 -> conv3_1
I0624 00:10:58.884377  2542 net.cpp:150] Setting up conv3_1
I0624 00:10:58.884384  2542 net.cpp:157] Top shape: 2 512 60 60 (3686400)
I0624 00:10:58.884390  2542 net.cpp:165] Memory required for data: 1234596400
I0624 00:10:58.884394  2542 layer_factory.hpp:77] Creating layer conv3_1/relu
I0624 00:10:58.884405  2542 net.cpp:106] Creating Layer conv3_1/relu
I0624 00:10:58.884410  2542 net.cpp:454] conv3_1/relu <- conv3_1
I0624 00:10:58.884415  2542 net.cpp:397] conv3_1/relu -> conv3_1 (in-place)
I0624 00:10:58.884423  2542 net.cpp:150] Setting up conv3_1/relu
I0624 00:10:58.884428  2542 net.cpp:157] Top shape: 2 512 60 60 (3686400)
I0624 00:10:58.884433  2542 net.cpp:165] Memory required for data: 1249342000
I0624 00:10:58.884436  2542 layer_factory.hpp:77] Creating layer conv3_1_conv3_1/relu_0_split
I0624 00:10:58.884445  2542 net.cpp:106] Creating Layer conv3_1_conv3_1/relu_0_split
I0624 00:10:58.884449  2542 net.cpp:454] conv3_1_conv3_1/relu_0_split <- conv3_1
I0624 00:10:58.884456  2542 net.cpp:411] conv3_1_conv3_1/relu_0_split -> conv3_1_conv3_1/relu_0_split_0
I0624 00:10:58.884464  2542 net.cpp:411] conv3_1_conv3_1/relu_0_split -> conv3_1_conv3_1/relu_0_split_1
I0624 00:10:58.884493  2542 net.cpp:150] Setting up conv3_1_conv3_1/relu_0_split
I0624 00:10:58.884498  2542 net.cpp:157] Top shape: 2 512 60 60 (3686400)
I0624 00:10:58.884503  2542 net.cpp:157] Top shape: 2 512 60 60 (3686400)
I0624 00:10:58.884507  2542 net.cpp:165] Memory required for data: 1278833200
I0624 00:10:58.884512  2542 layer_factory.hpp:77] Creating layer conv3_2_1x1_reduce
I0624 00:10:58.884527  2542 net.cpp:106] Creating Layer conv3_2_1x1_reduce
I0624 00:10:58.884531  2542 net.cpp:454] conv3_2_1x1_reduce <- conv3_1_conv3_1/relu_0_split_0
I0624 00:10:58.884537  2542 net.cpp:411] conv3_2_1x1_reduce -> conv3_2_1x1_reduce
I0624 00:10:58.886631  2542 net.cpp:150] Setting up conv3_2_1x1_reduce
I0624 00:10:58.886665  2542 net.cpp:157] Top shape: 2 128 60 60 (921600)
I0624 00:10:58.886742  2542 net.cpp:165] Memory required for data: 1282519600
I0624 00:10:58.886754  2542 layer_factory.hpp:77] Creating layer conv3_2_1x1_reduce/bn
I0624 00:10:58.886775  2542 net.cpp:106] Creating Layer conv3_2_1x1_reduce/bn
I0624 00:10:58.886781  2542 net.cpp:454] conv3_2_1x1_reduce/bn <- conv3_2_1x1_reduce
I0624 00:10:58.886790  2542 net.cpp:397] conv3_2_1x1_reduce/bn -> conv3_2_1x1_reduce (in-place)
I0624 00:10:58.887018  2542 net.cpp:150] Setting up conv3_2_1x1_reduce/bn
I0624 00:10:58.887027  2542 net.cpp:157] Top shape: 2 128 60 60 (921600)
I0624 00:10:58.887030  2542 net.cpp:165] Memory required for data: 1286206000
I0624 00:10:58.887040  2542 layer_factory.hpp:77] Creating layer conv3_2_1x1_reduce/relu
I0624 00:10:58.887051  2542 net.cpp:106] Creating Layer conv3_2_1x1_reduce/relu
I0624 00:10:58.887055  2542 net.cpp:454] conv3_2_1x1_reduce/relu <- conv3_2_1x1_reduce
I0624 00:10:58.887063  2542 net.cpp:397] conv3_2_1x1_reduce/relu -> conv3_2_1x1_reduce (in-place)
I0624 00:10:58.887069  2542 net.cpp:150] Setting up conv3_2_1x1_reduce/relu
I0624 00:10:58.887073  2542 net.cpp:157] Top shape: 2 128 60 60 (921600)
I0624 00:10:58.887078  2542 net.cpp:165] Memory required for data: 1289892400
I0624 00:10:58.887081  2542 layer_factory.hpp:77] Creating layer conv3_2_3x3
I0624 00:10:58.887095  2542 net.cpp:106] Creating Layer conv3_2_3x3
I0624 00:10:58.887099  2542 net.cpp:454] conv3_2_3x3 <- conv3_2_1x1_reduce
I0624 00:10:58.887107  2542 net.cpp:411] conv3_2_3x3 -> conv3_2_3x3
I0624 00:10:58.893229  2542 net.cpp:150] Setting up conv3_2_3x3
I0624 00:10:58.893313  2542 net.cpp:157] Top shape: 2 128 60 60 (921600)
I0624 00:10:58.893323  2542 net.cpp:165] Memory required for data: 1293578800
I0624 00:10:58.893344  2542 layer_factory.hpp:77] Creating layer conv3_2_3x3/bn
I0624 00:10:58.893389  2542 net.cpp:106] Creating Layer conv3_2_3x3/bn
I0624 00:10:58.893402  2542 net.cpp:454] conv3_2_3x3/bn <- conv3_2_3x3
I0624 00:10:58.893415  2542 net.cpp:397] conv3_2_3x3/bn -> conv3_2_3x3 (in-place)
I0624 00:10:58.893633  2542 net.cpp:150] Setting up conv3_2_3x3/bn
I0624 00:10:58.893645  2542 net.cpp:157] Top shape: 2 128 60 60 (921600)
I0624 00:10:58.893651  2542 net.cpp:165] Memory required for data: 1297265200
I0624 00:10:58.893663  2542 layer_factory.hpp:77] Creating layer conv3_2_3x3/relu
I0624 00:10:58.893678  2542 net.cpp:106] Creating Layer conv3_2_3x3/relu
I0624 00:10:58.893687  2542 net.cpp:454] conv3_2_3x3/relu <- conv3_2_3x3
I0624 00:10:58.893694  2542 net.cpp:397] conv3_2_3x3/relu -> conv3_2_3x3 (in-place)
I0624 00:10:58.893704  2542 net.cpp:150] Setting up conv3_2_3x3/relu
I0624 00:10:58.893712  2542 net.cpp:157] Top shape: 2 128 60 60 (921600)
I0624 00:10:58.893718  2542 net.cpp:165] Memory required for data: 1300951600
I0624 00:10:58.893725  2542 layer_factory.hpp:77] Creating layer conv3_2_1x1_increase
I0624 00:10:58.893739  2542 net.cpp:106] Creating Layer conv3_2_1x1_increase
I0624 00:10:58.893746  2542 net.cpp:454] conv3_2_1x1_increase <- conv3_2_3x3
I0624 00:10:58.893755  2542 net.cpp:411] conv3_2_1x1_increase -> conv3_2_1x1_increase
I0624 00:10:58.897475  2542 net.cpp:150] Setting up conv3_2_1x1_increase
I0624 00:10:58.897518  2542 net.cpp:157] Top shape: 2 512 60 60 (3686400)
I0624 00:10:58.897523  2542 net.cpp:165] Memory required for data: 1315697200
I0624 00:10:58.897529  2542 layer_factory.hpp:77] Creating layer conv3_2_1x1_increase/bn
I0624 00:10:58.897541  2542 net.cpp:106] Creating Layer conv3_2_1x1_increase/bn
I0624 00:10:58.897544  2542 net.cpp:454] conv3_2_1x1_increase/bn <- conv3_2_1x1_increase
I0624 00:10:58.897549  2542 net.cpp:397] conv3_2_1x1_increase/bn -> conv3_2_1x1_increase (in-place)
I0624 00:10:58.897691  2542 net.cpp:150] Setting up conv3_2_1x1_increase/bn
I0624 00:10:58.897696  2542 net.cpp:157] Top shape: 2 512 60 60 (3686400)
I0624 00:10:58.897699  2542 net.cpp:165] Memory required for data: 1330442800
I0624 00:10:58.897703  2542 layer_factory.hpp:77] Creating layer conv3_2
I0624 00:10:58.897708  2542 net.cpp:106] Creating Layer conv3_2
I0624 00:10:58.897711  2542 net.cpp:454] conv3_2 <- conv3_1_conv3_1/relu_0_split_1
I0624 00:10:58.897734  2542 net.cpp:454] conv3_2 <- conv3_2_1x1_increase
I0624 00:10:58.897738  2542 net.cpp:411] conv3_2 -> conv3_2
I0624 00:10:58.897758  2542 net.cpp:150] Setting up conv3_2
I0624 00:10:58.897761  2542 net.cpp:157] Top shape: 2 512 60 60 (3686400)
I0624 00:10:58.897763  2542 net.cpp:165] Memory required for data: 1345188400
I0624 00:10:58.897765  2542 layer_factory.hpp:77] Creating layer conv3_2/relu
I0624 00:10:58.897769  2542 net.cpp:106] Creating Layer conv3_2/relu
I0624 00:10:58.897771  2542 net.cpp:454] conv3_2/relu <- conv3_2
I0624 00:10:58.897774  2542 net.cpp:397] conv3_2/relu -> conv3_2 (in-place)
I0624 00:10:58.897778  2542 net.cpp:150] Setting up conv3_2/relu
I0624 00:10:58.897780  2542 net.cpp:157] Top shape: 2 512 60 60 (3686400)
I0624 00:10:58.897783  2542 net.cpp:165] Memory required for data: 1359934000
I0624 00:10:58.897784  2542 layer_factory.hpp:77] Creating layer conv3_2_conv3_2/relu_0_split
I0624 00:10:58.897789  2542 net.cpp:106] Creating Layer conv3_2_conv3_2/relu_0_split
I0624 00:10:58.897791  2542 net.cpp:454] conv3_2_conv3_2/relu_0_split <- conv3_2
I0624 00:10:58.897794  2542 net.cpp:411] conv3_2_conv3_2/relu_0_split -> conv3_2_conv3_2/relu_0_split_0
I0624 00:10:58.897799  2542 net.cpp:411] conv3_2_conv3_2/relu_0_split -> conv3_2_conv3_2/relu_0_split_1
I0624 00:10:58.897819  2542 net.cpp:150] Setting up conv3_2_conv3_2/relu_0_split
I0624 00:10:58.897822  2542 net.cpp:157] Top shape: 2 512 60 60 (3686400)
I0624 00:10:58.897825  2542 net.cpp:157] Top shape: 2 512 60 60 (3686400)
I0624 00:10:58.897828  2542 net.cpp:165] Memory required for data: 1389425200
I0624 00:10:58.897830  2542 layer_factory.hpp:77] Creating layer conv3_3_1x1_reduce
I0624 00:10:58.897837  2542 net.cpp:106] Creating Layer conv3_3_1x1_reduce
I0624 00:10:58.897840  2542 net.cpp:454] conv3_3_1x1_reduce <- conv3_2_conv3_2/relu_0_split_0
I0624 00:10:58.897845  2542 net.cpp:411] conv3_3_1x1_reduce -> conv3_3_1x1_reduce
I0624 00:10:58.899325  2542 net.cpp:150] Setting up conv3_3_1x1_reduce
I0624 00:10:58.899330  2542 net.cpp:157] Top shape: 2 128 60 60 (921600)
I0624 00:10:58.899333  2542 net.cpp:165] Memory required for data: 1393111600
I0624 00:10:58.899336  2542 layer_factory.hpp:77] Creating layer conv3_3_1x1_reduce/bn
I0624 00:10:58.899341  2542 net.cpp:106] Creating Layer conv3_3_1x1_reduce/bn
I0624 00:10:58.899344  2542 net.cpp:454] conv3_3_1x1_reduce/bn <- conv3_3_1x1_reduce
I0624 00:10:58.899348  2542 net.cpp:397] conv3_3_1x1_reduce/bn -> conv3_3_1x1_reduce (in-place)
I0624 00:10:58.899461  2542 net.cpp:150] Setting up conv3_3_1x1_reduce/bn
I0624 00:10:58.899466  2542 net.cpp:157] Top shape: 2 128 60 60 (921600)
I0624 00:10:58.899468  2542 net.cpp:165] Memory required for data: 1396798000
I0624 00:10:58.899473  2542 layer_factory.hpp:77] Creating layer conv3_3_1x1_reduce/relu
I0624 00:10:58.905395  2542 net.cpp:106] Creating Layer conv3_3_1x1_reduce/relu
I0624 00:10:58.905412  2542 net.cpp:454] conv3_3_1x1_reduce/relu <- conv3_3_1x1_reduce
I0624 00:10:58.905421  2542 net.cpp:397] conv3_3_1x1_reduce/relu -> conv3_3_1x1_reduce (in-place)
I0624 00:10:58.905431  2542 net.cpp:150] Setting up conv3_3_1x1_reduce/relu
I0624 00:10:58.905436  2542 net.cpp:157] Top shape: 2 128 60 60 (921600)
I0624 00:10:58.905438  2542 net.cpp:165] Memory required for data: 1400484400
I0624 00:10:58.905442  2542 layer_factory.hpp:77] Creating layer conv3_3_3x3
I0624 00:10:58.905454  2542 net.cpp:106] Creating Layer conv3_3_3x3
I0624 00:10:58.905458  2542 net.cpp:454] conv3_3_3x3 <- conv3_3_1x1_reduce
I0624 00:10:58.905463  2542 net.cpp:411] conv3_3_3x3 -> conv3_3_3x3
I0624 00:10:58.909554  2542 net.cpp:150] Setting up conv3_3_3x3
I0624 00:10:58.909580  2542 net.cpp:157] Top shape: 2 128 60 60 (921600)
I0624 00:10:58.909584  2542 net.cpp:165] Memory required for data: 1404170800
I0624 00:10:58.909591  2542 layer_factory.hpp:77] Creating layer conv3_3_3x3/bn
I0624 00:10:58.909600  2542 net.cpp:106] Creating Layer conv3_3_3x3/bn
I0624 00:10:58.909603  2542 net.cpp:454] conv3_3_3x3/bn <- conv3_3_3x3
I0624 00:10:58.909621  2542 net.cpp:397] conv3_3_3x3/bn -> conv3_3_3x3 (in-place)
I0624 00:10:58.909759  2542 net.cpp:150] Setting up conv3_3_3x3/bn
I0624 00:10:58.909766  2542 net.cpp:157] Top shape: 2 128 60 60 (921600)
I0624 00:10:58.909768  2542 net.cpp:165] Memory required for data: 1407857200
I0624 00:10:58.909773  2542 layer_factory.hpp:77] Creating layer conv3_3_3x3/relu
I0624 00:10:58.909780  2542 net.cpp:106] Creating Layer conv3_3_3x3/relu
I0624 00:10:58.909782  2542 net.cpp:454] conv3_3_3x3/relu <- conv3_3_3x3
I0624 00:10:58.909785  2542 net.cpp:397] conv3_3_3x3/relu -> conv3_3_3x3 (in-place)
I0624 00:10:58.909790  2542 net.cpp:150] Setting up conv3_3_3x3/relu
I0624 00:10:58.909795  2542 net.cpp:157] Top shape: 2 128 60 60 (921600)
I0624 00:10:58.909796  2542 net.cpp:165] Memory required for data: 1411543600
I0624 00:10:58.909798  2542 layer_factory.hpp:77] Creating layer conv3_3_1x1_increase
I0624 00:10:58.909806  2542 net.cpp:106] Creating Layer conv3_3_1x1_increase
I0624 00:10:58.909807  2542 net.cpp:454] conv3_3_1x1_increase <- conv3_3_3x3
I0624 00:10:58.909811  2542 net.cpp:411] conv3_3_1x1_increase -> conv3_3_1x1_increase
I0624 00:10:58.911409  2542 net.cpp:150] Setting up conv3_3_1x1_increase
I0624 00:10:58.911425  2542 net.cpp:157] Top shape: 2 512 60 60 (3686400)
I0624 00:10:58.911428  2542 net.cpp:165] Memory required for data: 1426289200
I0624 00:10:58.911433  2542 layer_factory.hpp:77] Creating layer conv3_3_1x1_increase/bn
I0624 00:10:58.911442  2542 net.cpp:106] Creating Layer conv3_3_1x1_increase/bn
I0624 00:10:58.911447  2542 net.cpp:454] conv3_3_1x1_increase/bn <- conv3_3_1x1_increase
I0624 00:10:58.911453  2542 net.cpp:397] conv3_3_1x1_increase/bn -> conv3_3_1x1_increase (in-place)
I0624 00:10:58.911603  2542 net.cpp:150] Setting up conv3_3_1x1_increase/bn
I0624 00:10:58.911609  2542 net.cpp:157] Top shape: 2 512 60 60 (3686400)
I0624 00:10:58.911612  2542 net.cpp:165] Memory required for data: 1441034800
I0624 00:10:58.911617  2542 layer_factory.hpp:77] Creating layer conv3_3
I0624 00:10:58.911624  2542 net.cpp:106] Creating Layer conv3_3
I0624 00:10:58.911628  2542 net.cpp:454] conv3_3 <- conv3_2_conv3_2/relu_0_split_1
I0624 00:10:58.911633  2542 net.cpp:454] conv3_3 <- conv3_3_1x1_increase
I0624 00:10:58.911638  2542 net.cpp:411] conv3_3 -> conv3_3
I0624 00:10:58.911658  2542 net.cpp:150] Setting up conv3_3
I0624 00:10:58.911661  2542 net.cpp:157] Top shape: 2 512 60 60 (3686400)
I0624 00:10:58.911664  2542 net.cpp:165] Memory required for data: 1455780400
I0624 00:10:58.911666  2542 layer_factory.hpp:77] Creating layer conv3_3/relu
I0624 00:10:58.911679  2542 net.cpp:106] Creating Layer conv3_3/relu
I0624 00:10:58.911682  2542 net.cpp:454] conv3_3/relu <- conv3_3
I0624 00:10:58.911686  2542 net.cpp:397] conv3_3/relu -> conv3_3 (in-place)
I0624 00:10:58.911690  2542 net.cpp:150] Setting up conv3_3/relu
I0624 00:10:58.911694  2542 net.cpp:157] Top shape: 2 512 60 60 (3686400)
I0624 00:10:58.911696  2542 net.cpp:165] Memory required for data: 1470526000
I0624 00:10:58.911700  2542 layer_factory.hpp:77] Creating layer conv3_3_conv3_3/relu_0_split
I0624 00:10:58.911711  2542 net.cpp:106] Creating Layer conv3_3_conv3_3/relu_0_split
I0624 00:10:58.911713  2542 net.cpp:454] conv3_3_conv3_3/relu_0_split <- conv3_3
I0624 00:10:58.911718  2542 net.cpp:411] conv3_3_conv3_3/relu_0_split -> conv3_3_conv3_3/relu_0_split_0
I0624 00:10:58.911722  2542 net.cpp:411] conv3_3_conv3_3/relu_0_split -> conv3_3_conv3_3/relu_0_split_1
I0624 00:10:58.911749  2542 net.cpp:150] Setting up conv3_3_conv3_3/relu_0_split
I0624 00:10:58.911756  2542 net.cpp:157] Top shape: 2 512 60 60 (3686400)
I0624 00:10:58.911758  2542 net.cpp:157] Top shape: 2 512 60 60 (3686400)
I0624 00:10:58.911761  2542 net.cpp:165] Memory required for data: 1500017200
I0624 00:10:58.911764  2542 layer_factory.hpp:77] Creating layer conv3_4_1x1_reduce
I0624 00:10:58.911772  2542 net.cpp:106] Creating Layer conv3_4_1x1_reduce
I0624 00:10:58.911777  2542 net.cpp:454] conv3_4_1x1_reduce <- conv3_3_conv3_3/relu_0_split_0
I0624 00:10:58.911780  2542 net.cpp:411] conv3_4_1x1_reduce -> conv3_4_1x1_reduce
I0624 00:10:58.913565  2542 net.cpp:150] Setting up conv3_4_1x1_reduce
I0624 00:10:58.913589  2542 net.cpp:157] Top shape: 2 128 60 60 (921600)
I0624 00:10:58.913591  2542 net.cpp:165] Memory required for data: 1503703600
I0624 00:10:58.913597  2542 layer_factory.hpp:77] Creating layer conv3_4_1x1_reduce/bn
I0624 00:10:58.913606  2542 net.cpp:106] Creating Layer conv3_4_1x1_reduce/bn
I0624 00:10:58.913611  2542 net.cpp:454] conv3_4_1x1_reduce/bn <- conv3_4_1x1_reduce
I0624 00:10:58.913615  2542 net.cpp:397] conv3_4_1x1_reduce/bn -> conv3_4_1x1_reduce (in-place)
I0624 00:10:58.913750  2542 net.cpp:150] Setting up conv3_4_1x1_reduce/bn
I0624 00:10:58.913754  2542 net.cpp:157] Top shape: 2 128 60 60 (921600)
I0624 00:10:58.913758  2542 net.cpp:165] Memory required for data: 1507390000
I0624 00:10:58.913764  2542 layer_factory.hpp:77] Creating layer conv3_4_1x1_reduce/relu
I0624 00:10:58.913771  2542 net.cpp:106] Creating Layer conv3_4_1x1_reduce/relu
I0624 00:10:58.913774  2542 net.cpp:454] conv3_4_1x1_reduce/relu <- conv3_4_1x1_reduce
I0624 00:10:58.913777  2542 net.cpp:397] conv3_4_1x1_reduce/relu -> conv3_4_1x1_reduce (in-place)
I0624 00:10:58.913781  2542 net.cpp:150] Setting up conv3_4_1x1_reduce/relu
I0624 00:10:58.913784  2542 net.cpp:157] Top shape: 2 128 60 60 (921600)
I0624 00:10:58.913786  2542 net.cpp:165] Memory required for data: 1511076400
I0624 00:10:58.913789  2542 layer_factory.hpp:77] Creating layer conv3_4_3x3
I0624 00:10:58.913800  2542 net.cpp:106] Creating Layer conv3_4_3x3
I0624 00:10:58.913803  2542 net.cpp:454] conv3_4_3x3 <- conv3_4_1x1_reduce
I0624 00:10:58.913808  2542 net.cpp:411] conv3_4_3x3 -> conv3_4_3x3
I0624 00:10:58.918992  2542 net.cpp:150] Setting up conv3_4_3x3
I0624 00:10:58.919001  2542 net.cpp:157] Top shape: 2 128 60 60 (921600)
I0624 00:10:58.919004  2542 net.cpp:165] Memory required for data: 1514762800
I0624 00:10:58.919008  2542 layer_factory.hpp:77] Creating layer conv3_4_3x3/bn
I0624 00:10:58.919013  2542 net.cpp:106] Creating Layer conv3_4_3x3/bn
I0624 00:10:58.919015  2542 net.cpp:454] conv3_4_3x3/bn <- conv3_4_3x3
I0624 00:10:58.919020  2542 net.cpp:397] conv3_4_3x3/bn -> conv3_4_3x3 (in-place)
I0624 00:10:58.919167  2542 net.cpp:150] Setting up conv3_4_3x3/bn
I0624 00:10:58.919173  2542 net.cpp:157] Top shape: 2 128 60 60 (921600)
I0624 00:10:58.919175  2542 net.cpp:165] Memory required for data: 1518449200
I0624 00:10:58.919180  2542 layer_factory.hpp:77] Creating layer conv3_4_3x3/relu
I0624 00:10:58.919184  2542 net.cpp:106] Creating Layer conv3_4_3x3/relu
I0624 00:10:58.919186  2542 net.cpp:454] conv3_4_3x3/relu <- conv3_4_3x3
I0624 00:10:58.919189  2542 net.cpp:397] conv3_4_3x3/relu -> conv3_4_3x3 (in-place)
I0624 00:10:58.919193  2542 net.cpp:150] Setting up conv3_4_3x3/relu
I0624 00:10:58.919196  2542 net.cpp:157] Top shape: 2 128 60 60 (921600)
I0624 00:10:58.919198  2542 net.cpp:165] Memory required for data: 1522135600
I0624 00:10:58.919200  2542 layer_factory.hpp:77] Creating layer conv3_4_1x1_increase
I0624 00:10:58.919206  2542 net.cpp:106] Creating Layer conv3_4_1x1_increase
I0624 00:10:58.919209  2542 net.cpp:454] conv3_4_1x1_increase <- conv3_4_3x3
I0624 00:10:58.919216  2542 net.cpp:411] conv3_4_1x1_increase -> conv3_4_1x1_increase
I0624 00:10:58.920819  2542 net.cpp:150] Setting up conv3_4_1x1_increase
I0624 00:10:58.920825  2542 net.cpp:157] Top shape: 2 512 60 60 (3686400)
I0624 00:10:58.920826  2542 net.cpp:165] Memory required for data: 1536881200
I0624 00:10:58.920830  2542 layer_factory.hpp:77] Creating layer conv3_4_1x1_increase/bn
I0624 00:10:58.920835  2542 net.cpp:106] Creating Layer conv3_4_1x1_increase/bn
I0624 00:10:58.920836  2542 net.cpp:454] conv3_4_1x1_increase/bn <- conv3_4_1x1_increase
I0624 00:10:58.920840  2542 net.cpp:397] conv3_4_1x1_increase/bn -> conv3_4_1x1_increase (in-place)
I0624 00:10:58.920994  2542 net.cpp:150] Setting up conv3_4_1x1_increase/bn
I0624 00:10:58.920999  2542 net.cpp:157] Top shape: 2 512 60 60 (3686400)
I0624 00:10:58.921000  2542 net.cpp:165] Memory required for data: 1551626800
I0624 00:10:58.921046  2542 layer_factory.hpp:77] Creating layer conv3_4
I0624 00:10:58.921054  2542 net.cpp:106] Creating Layer conv3_4
I0624 00:10:58.921057  2542 net.cpp:454] conv3_4 <- conv3_3_conv3_3/relu_0_split_1
I0624 00:10:58.921061  2542 net.cpp:454] conv3_4 <- conv3_4_1x1_increase
I0624 00:10:58.921064  2542 net.cpp:411] conv3_4 -> conv3_4
I0624 00:10:58.921079  2542 net.cpp:150] Setting up conv3_4
I0624 00:10:58.921083  2542 net.cpp:157] Top shape: 2 512 60 60 (3686400)
I0624 00:10:58.921085  2542 net.cpp:165] Memory required for data: 1566372400
I0624 00:10:58.921088  2542 layer_factory.hpp:77] Creating layer conv3_4/relu
I0624 00:10:58.921092  2542 net.cpp:106] Creating Layer conv3_4/relu
I0624 00:10:58.921093  2542 net.cpp:454] conv3_4/relu <- conv3_4
I0624 00:10:58.921099  2542 net.cpp:397] conv3_4/relu -> conv3_4 (in-place)
I0624 00:10:58.921103  2542 net.cpp:150] Setting up conv3_4/relu
I0624 00:10:58.921106  2542 net.cpp:157] Top shape: 2 512 60 60 (3686400)
I0624 00:10:58.921108  2542 net.cpp:165] Memory required for data: 1581118000
I0624 00:10:58.921113  2542 layer_factory.hpp:77] Creating layer conv3_4_conv3_4/relu_0_split
I0624 00:10:58.921116  2542 net.cpp:106] Creating Layer conv3_4_conv3_4/relu_0_split
I0624 00:10:58.921119  2542 net.cpp:454] conv3_4_conv3_4/relu_0_split <- conv3_4
I0624 00:10:58.921123  2542 net.cpp:411] conv3_4_conv3_4/relu_0_split -> conv3_4_conv3_4/relu_0_split_0
I0624 00:10:58.921126  2542 net.cpp:411] conv3_4_conv3_4/relu_0_split -> conv3_4_conv3_4/relu_0_split_1
I0624 00:10:58.921149  2542 net.cpp:150] Setting up conv3_4_conv3_4/relu_0_split
I0624 00:10:58.921154  2542 net.cpp:157] Top shape: 2 512 60 60 (3686400)
I0624 00:10:58.921160  2542 net.cpp:157] Top shape: 2 512 60 60 (3686400)
I0624 00:10:58.921165  2542 net.cpp:165] Memory required for data: 1610609200
I0624 00:10:58.921170  2542 layer_factory.hpp:77] Creating layer conv4_1_1x1_reduce
I0624 00:10:58.921183  2542 net.cpp:106] Creating Layer conv4_1_1x1_reduce
I0624 00:10:58.921188  2542 net.cpp:454] conv4_1_1x1_reduce <- conv3_4_conv3_4/relu_0_split_0
I0624 00:10:58.921193  2542 net.cpp:411] conv4_1_1x1_reduce -> conv4_1_1x1_reduce
I0624 00:10:58.924263  2542 net.cpp:150] Setting up conv4_1_1x1_reduce
I0624 00:10:58.924270  2542 net.cpp:157] Top shape: 2 256 60 60 (1843200)
I0624 00:10:58.924273  2542 net.cpp:165] Memory required for data: 1617982000
I0624 00:10:58.924278  2542 layer_factory.hpp:77] Creating layer conv4_1_1x1_reduce/bn
I0624 00:10:58.924402  2542 net.cpp:106] Creating Layer conv4_1_1x1_reduce/bn
I0624 00:10:58.924412  2542 net.cpp:454] conv4_1_1x1_reduce/bn <- conv4_1_1x1_reduce
I0624 00:10:58.924419  2542 net.cpp:397] conv4_1_1x1_reduce/bn -> conv4_1_1x1_reduce (in-place)
I0624 00:10:58.924576  2542 net.cpp:150] Setting up conv4_1_1x1_reduce/bn
I0624 00:10:58.924581  2542 net.cpp:157] Top shape: 2 256 60 60 (1843200)
I0624 00:10:58.924583  2542 net.cpp:165] Memory required for data: 1625354800
I0624 00:10:58.924587  2542 layer_factory.hpp:77] Creating layer conv4_1_1x1_reduce/relu
I0624 00:10:58.924592  2542 net.cpp:106] Creating Layer conv4_1_1x1_reduce/relu
I0624 00:10:58.924595  2542 net.cpp:454] conv4_1_1x1_reduce/relu <- conv4_1_1x1_reduce
I0624 00:10:58.924598  2542 net.cpp:397] conv4_1_1x1_reduce/relu -> conv4_1_1x1_reduce (in-place)
I0624 00:10:58.924602  2542 net.cpp:150] Setting up conv4_1_1x1_reduce/relu
I0624 00:10:58.924605  2542 net.cpp:157] Top shape: 2 256 60 60 (1843200)
I0624 00:10:58.924607  2542 net.cpp:165] Memory required for data: 1632727600
I0624 00:10:58.924610  2542 layer_factory.hpp:77] Creating layer conv4_1_3x3
I0624 00:10:58.924616  2542 net.cpp:106] Creating Layer conv4_1_3x3
I0624 00:10:58.924619  2542 net.cpp:454] conv4_1_3x3 <- conv4_1_1x1_reduce
I0624 00:10:58.924623  2542 net.cpp:411] conv4_1_3x3 -> conv4_1_3x3
I0624 00:10:58.943451  2542 net.cpp:150] Setting up conv4_1_3x3
I0624 00:10:58.943470  2542 net.cpp:157] Top shape: 2 256 60 60 (1843200)
I0624 00:10:58.943473  2542 net.cpp:165] Memory required for data: 1640100400
I0624 00:10:58.943495  2542 layer_factory.hpp:77] Creating layer conv4_1_3x3/bn
I0624 00:10:58.943506  2542 net.cpp:106] Creating Layer conv4_1_3x3/bn
I0624 00:10:58.943511  2542 net.cpp:454] conv4_1_3x3/bn <- conv4_1_3x3
I0624 00:10:58.943517  2542 net.cpp:397] conv4_1_3x3/bn -> conv4_1_3x3 (in-place)
I0624 00:10:58.943694  2542 net.cpp:150] Setting up conv4_1_3x3/bn
I0624 00:10:58.943701  2542 net.cpp:157] Top shape: 2 256 60 60 (1843200)
I0624 00:10:58.943703  2542 net.cpp:165] Memory required for data: 1647473200
I0624 00:10:58.943711  2542 layer_factory.hpp:77] Creating layer conv4_1_3x3/relu
I0624 00:10:58.943717  2542 net.cpp:106] Creating Layer conv4_1_3x3/relu
I0624 00:10:58.943720  2542 net.cpp:454] conv4_1_3x3/relu <- conv4_1_3x3
I0624 00:10:58.943725  2542 net.cpp:397] conv4_1_3x3/relu -> conv4_1_3x3 (in-place)
I0624 00:10:58.943732  2542 net.cpp:150] Setting up conv4_1_3x3/relu
I0624 00:10:58.943737  2542 net.cpp:157] Top shape: 2 256 60 60 (1843200)
I0624 00:10:58.943740  2542 net.cpp:165] Memory required for data: 1654846000
I0624 00:10:58.943744  2542 layer_factory.hpp:77] Creating layer conv4_1_1x1_increase
I0624 00:10:58.943753  2542 net.cpp:106] Creating Layer conv4_1_1x1_increase
I0624 00:10:58.943756  2542 net.cpp:454] conv4_1_1x1_increase <- conv4_1_3x3
I0624 00:10:58.943764  2542 net.cpp:411] conv4_1_1x1_increase -> conv4_1_1x1_increase
I0624 00:10:58.952179  2542 net.cpp:150] Setting up conv4_1_1x1_increase
I0624 00:10:58.952219  2542 net.cpp:157] Top shape: 2 1024 60 60 (7372800)
I0624 00:10:58.952224  2542 net.cpp:165] Memory required for data: 1684337200
I0624 00:10:58.952232  2542 layer_factory.hpp:77] Creating layer conv4_1_1x1_increase/bn
I0624 00:10:58.952250  2542 net.cpp:106] Creating Layer conv4_1_1x1_increase/bn
I0624 00:10:58.952256  2542 net.cpp:454] conv4_1_1x1_increase/bn <- conv4_1_1x1_increase
I0624 00:10:58.952265  2542 net.cpp:397] conv4_1_1x1_increase/bn -> conv4_1_1x1_increase (in-place)
I0624 00:10:58.952584  2542 net.cpp:150] Setting up conv4_1_1x1_increase/bn
I0624 00:10:58.952594  2542 net.cpp:157] Top shape: 2 1024 60 60 (7372800)
I0624 00:10:58.952600  2542 net.cpp:165] Memory required for data: 1713828400
I0624 00:10:58.952610  2542 layer_factory.hpp:77] Creating layer conv4_1_1x1_proj
I0624 00:10:58.952623  2542 net.cpp:106] Creating Layer conv4_1_1x1_proj
I0624 00:10:58.952628  2542 net.cpp:454] conv4_1_1x1_proj <- conv3_4_conv3_4/relu_0_split_1
I0624 00:10:58.952636  2542 net.cpp:411] conv4_1_1x1_proj -> conv4_1_1x1_proj
I0624 00:10:58.965270  2542 net.cpp:150] Setting up conv4_1_1x1_proj
I0624 00:10:58.965340  2542 net.cpp:157] Top shape: 2 1024 60 60 (7372800)
I0624 00:10:58.965345  2542 net.cpp:165] Memory required for data: 1743319600
I0624 00:10:58.965359  2542 layer_factory.hpp:77] Creating layer conv4_1_1x1_proj/bn
I0624 00:10:58.965381  2542 net.cpp:106] Creating Layer conv4_1_1x1_proj/bn
I0624 00:10:58.965389  2542 net.cpp:454] conv4_1_1x1_proj/bn <- conv4_1_1x1_proj
I0624 00:10:58.965400  2542 net.cpp:397] conv4_1_1x1_proj/bn -> conv4_1_1x1_proj (in-place)
I0624 00:10:58.965625  2542 net.cpp:150] Setting up conv4_1_1x1_proj/bn
I0624 00:10:58.965632  2542 net.cpp:157] Top shape: 2 1024 60 60 (7372800)
I0624 00:10:58.965636  2542 net.cpp:165] Memory required for data: 1772810800
I0624 00:10:58.965644  2542 layer_factory.hpp:77] Creating layer conv4_1
I0624 00:10:58.965656  2542 net.cpp:106] Creating Layer conv4_1
I0624 00:10:58.965658  2542 net.cpp:454] conv4_1 <- conv4_1_1x1_proj
I0624 00:10:58.965662  2542 net.cpp:454] conv4_1 <- conv4_1_1x1_increase
I0624 00:10:58.965667  2542 net.cpp:411] conv4_1 -> conv4_1
I0624 00:10:58.965697  2542 net.cpp:150] Setting up conv4_1
I0624 00:10:58.965700  2542 net.cpp:157] Top shape: 2 1024 60 60 (7372800)
I0624 00:10:58.965703  2542 net.cpp:165] Memory required for data: 1802302000
I0624 00:10:58.965706  2542 layer_factory.hpp:77] Creating layer conv4_1/relu
I0624 00:10:58.965714  2542 net.cpp:106] Creating Layer conv4_1/relu
I0624 00:10:58.965718  2542 net.cpp:454] conv4_1/relu <- conv4_1
I0624 00:10:58.965721  2542 net.cpp:397] conv4_1/relu -> conv4_1 (in-place)
I0624 00:10:58.965773  2542 net.cpp:150] Setting up conv4_1/relu
I0624 00:10:58.965777  2542 net.cpp:157] Top shape: 2 1024 60 60 (7372800)
I0624 00:10:58.965780  2542 net.cpp:165] Memory required for data: 1831793200
I0624 00:10:58.965783  2542 layer_factory.hpp:77] Creating layer conv4_1_conv4_1/relu_0_split
I0624 00:10:58.965790  2542 net.cpp:106] Creating Layer conv4_1_conv4_1/relu_0_split
I0624 00:10:58.965793  2542 net.cpp:454] conv4_1_conv4_1/relu_0_split <- conv4_1
I0624 00:10:58.965801  2542 net.cpp:411] conv4_1_conv4_1/relu_0_split -> conv4_1_conv4_1/relu_0_split_0
I0624 00:10:58.965804  2542 net.cpp:411] conv4_1_conv4_1/relu_0_split -> conv4_1_conv4_1/relu_0_split_1
I0624 00:10:58.965828  2542 net.cpp:150] Setting up conv4_1_conv4_1/relu_0_split
I0624 00:10:58.965833  2542 net.cpp:157] Top shape: 2 1024 60 60 (7372800)
I0624 00:10:58.965837  2542 net.cpp:157] Top shape: 2 1024 60 60 (7372800)
I0624 00:10:58.965838  2542 net.cpp:165] Memory required for data: 1890775600
I0624 00:10:58.965842  2542 layer_factory.hpp:77] Creating layer conv4_2_1x1_reduce
I0624 00:10:58.965857  2542 net.cpp:106] Creating Layer conv4_2_1x1_reduce
I0624 00:10:58.965859  2542 net.cpp:454] conv4_2_1x1_reduce <- conv4_1_conv4_1/relu_0_split_0
I0624 00:10:58.965863  2542 net.cpp:411] conv4_2_1x1_reduce -> conv4_2_1x1_reduce
I0624 00:10:58.971873  2542 net.cpp:150] Setting up conv4_2_1x1_reduce
I0624 00:10:58.971904  2542 net.cpp:157] Top shape: 2 256 60 60 (1843200)
I0624 00:10:58.971912  2542 net.cpp:165] Memory required for data: 1898148400
I0624 00:10:58.971927  2542 layer_factory.hpp:77] Creating layer conv4_2_1x1_reduce/bn
I0624 00:10:58.971946  2542 net.cpp:106] Creating Layer conv4_2_1x1_reduce/bn
I0624 00:10:58.971951  2542 net.cpp:454] conv4_2_1x1_reduce/bn <- conv4_2_1x1_reduce
I0624 00:10:58.971961  2542 net.cpp:397] conv4_2_1x1_reduce/bn -> conv4_2_1x1_reduce (in-place)
I0624 00:10:58.972126  2542 net.cpp:150] Setting up conv4_2_1x1_reduce/bn
I0624 00:10:58.972131  2542 net.cpp:157] Top shape: 2 256 60 60 (1843200)
I0624 00:10:58.972133  2542 net.cpp:165] Memory required for data: 1905521200
I0624 00:10:58.972138  2542 layer_factory.hpp:77] Creating layer conv4_2_1x1_reduce/relu
I0624 00:10:58.972143  2542 net.cpp:106] Creating Layer conv4_2_1x1_reduce/relu
I0624 00:10:58.972146  2542 net.cpp:454] conv4_2_1x1_reduce/relu <- conv4_2_1x1_reduce
I0624 00:10:58.972151  2542 net.cpp:397] conv4_2_1x1_reduce/relu -> conv4_2_1x1_reduce (in-place)
I0624 00:10:58.972156  2542 net.cpp:150] Setting up conv4_2_1x1_reduce/relu
I0624 00:10:58.972159  2542 net.cpp:157] Top shape: 2 256 60 60 (1843200)
I0624 00:10:58.972162  2542 net.cpp:165] Memory required for data: 1912894000
I0624 00:10:58.972164  2542 layer_factory.hpp:77] Creating layer conv4_2_3x3
I0624 00:10:58.972170  2542 net.cpp:106] Creating Layer conv4_2_3x3
I0624 00:10:58.972173  2542 net.cpp:454] conv4_2_3x3 <- conv4_2_1x1_reduce
I0624 00:10:58.972177  2542 net.cpp:411] conv4_2_3x3 -> conv4_2_3x3
I0624 00:10:58.986243  2542 net.cpp:150] Setting up conv4_2_3x3
I0624 00:10:58.986271  2542 net.cpp:157] Top shape: 2 256 60 60 (1843200)
I0624 00:10:58.986276  2542 net.cpp:165] Memory required for data: 1920266800
I0624 00:10:58.986282  2542 layer_factory.hpp:77] Creating layer conv4_2_3x3/bn
I0624 00:10:58.986291  2542 net.cpp:106] Creating Layer conv4_2_3x3/bn
I0624 00:10:58.986295  2542 net.cpp:454] conv4_2_3x3/bn <- conv4_2_3x3
I0624 00:10:58.986299  2542 net.cpp:397] conv4_2_3x3/bn -> conv4_2_3x3 (in-place)
I0624 00:10:58.986454  2542 net.cpp:150] Setting up conv4_2_3x3/bn
I0624 00:10:58.986459  2542 net.cpp:157] Top shape: 2 256 60 60 (1843200)
I0624 00:10:58.986461  2542 net.cpp:165] Memory required for data: 1927639600
I0624 00:10:58.986466  2542 layer_factory.hpp:77] Creating layer conv4_2_3x3/relu
I0624 00:10:58.986470  2542 net.cpp:106] Creating Layer conv4_2_3x3/relu
I0624 00:10:58.986472  2542 net.cpp:454] conv4_2_3x3/relu <- conv4_2_3x3
I0624 00:10:58.986475  2542 net.cpp:397] conv4_2_3x3/relu -> conv4_2_3x3 (in-place)
I0624 00:10:58.986493  2542 net.cpp:150] Setting up conv4_2_3x3/relu
I0624 00:10:58.986497  2542 net.cpp:157] Top shape: 2 256 60 60 (1843200)
I0624 00:10:58.986500  2542 net.cpp:165] Memory required for data: 1935012400
I0624 00:10:58.986503  2542 layer_factory.hpp:77] Creating layer conv4_2_1x1_increase
I0624 00:10:58.986510  2542 net.cpp:106] Creating Layer conv4_2_1x1_increase
I0624 00:10:58.986513  2542 net.cpp:454] conv4_2_1x1_increase <- conv4_2_3x3
I0624 00:10:58.986518  2542 net.cpp:411] conv4_2_1x1_increase -> conv4_2_1x1_increase
I0624 00:10:58.993507  2542 net.cpp:150] Setting up conv4_2_1x1_increase
I0624 00:10:58.993527  2542 net.cpp:157] Top shape: 2 1024 60 60 (7372800)
I0624 00:10:58.993530  2542 net.cpp:165] Memory required for data: 1964503600
I0624 00:10:58.993535  2542 layer_factory.hpp:77] Creating layer conv4_2_1x1_increase/bn
I0624 00:10:58.993542  2542 net.cpp:106] Creating Layer conv4_2_1x1_increase/bn
I0624 00:10:58.993546  2542 net.cpp:454] conv4_2_1x1_increase/bn <- conv4_2_1x1_increase
I0624 00:10:58.993549  2542 net.cpp:397] conv4_2_1x1_increase/bn -> conv4_2_1x1_increase (in-place)
I0624 00:10:58.993711  2542 net.cpp:150] Setting up conv4_2_1x1_increase/bn
I0624 00:10:58.993716  2542 net.cpp:157] Top shape: 2 1024 60 60 (7372800)
I0624 00:10:58.993719  2542 net.cpp:165] Memory required for data: 1993994800
I0624 00:10:58.993724  2542 layer_factory.hpp:77] Creating layer conv4_2
I0624 00:10:58.993728  2542 net.cpp:106] Creating Layer conv4_2
I0624 00:10:58.993731  2542 net.cpp:454] conv4_2 <- conv4_1_conv4_1/relu_0_split_1
I0624 00:10:58.993733  2542 net.cpp:454] conv4_2 <- conv4_2_1x1_increase
I0624 00:10:58.993736  2542 net.cpp:411] conv4_2 -> conv4_2
I0624 00:10:58.993754  2542 net.cpp:150] Setting up conv4_2
I0624 00:10:58.993758  2542 net.cpp:157] Top shape: 2 1024 60 60 (7372800)
I0624 00:10:58.993760  2542 net.cpp:165] Memory required for data: 2023486000
I0624 00:10:58.993762  2542 layer_factory.hpp:77] Creating layer conv4_2/relu
I0624 00:10:58.993767  2542 net.cpp:106] Creating Layer conv4_2/relu
I0624 00:10:58.993772  2542 net.cpp:454] conv4_2/relu <- conv4_2
I0624 00:10:58.993777  2542 net.cpp:397] conv4_2/relu -> conv4_2 (in-place)
I0624 00:10:58.993783  2542 net.cpp:150] Setting up conv4_2/relu
I0624 00:10:58.993789  2542 net.cpp:157] Top shape: 2 1024 60 60 (7372800)
I0624 00:10:58.993795  2542 net.cpp:165] Memory required for data: 2052977200
I0624 00:10:58.993805  2542 layer_factory.hpp:77] Creating layer conv4_2_conv4_2/relu_0_split
I0624 00:10:58.993811  2542 net.cpp:106] Creating Layer conv4_2_conv4_2/relu_0_split
I0624 00:10:58.993813  2542 net.cpp:454] conv4_2_conv4_2/relu_0_split <- conv4_2
I0624 00:10:58.993818  2542 net.cpp:411] conv4_2_conv4_2/relu_0_split -> conv4_2_conv4_2/relu_0_split_0
I0624 00:10:58.993831  2542 net.cpp:411] conv4_2_conv4_2/relu_0_split -> conv4_2_conv4_2/relu_0_split_1
I0624 00:10:58.993854  2542 net.cpp:150] Setting up conv4_2_conv4_2/relu_0_split
I0624 00:10:58.993860  2542 net.cpp:157] Top shape: 2 1024 60 60 (7372800)
I0624 00:10:58.993862  2542 net.cpp:157] Top shape: 2 1024 60 60 (7372800)
I0624 00:10:58.993865  2542 net.cpp:165] Memory required for data: 2111959600
I0624 00:10:58.993867  2542 layer_factory.hpp:77] Creating layer conv4_3_1x1_reduce
I0624 00:10:58.993873  2542 net.cpp:106] Creating Layer conv4_3_1x1_reduce
I0624 00:10:58.993875  2542 net.cpp:454] conv4_3_1x1_reduce <- conv4_2_conv4_2/relu_0_split_0
I0624 00:10:58.993880  2542 net.cpp:411] conv4_3_1x1_reduce -> conv4_3_1x1_reduce
I0624 00:10:58.999610  2542 net.cpp:150] Setting up conv4_3_1x1_reduce
I0624 00:10:58.999630  2542 net.cpp:157] Top shape: 2 256 60 60 (1843200)
I0624 00:10:58.999634  2542 net.cpp:165] Memory required for data: 2119332400
I0624 00:10:58.999639  2542 layer_factory.hpp:77] Creating layer conv4_3_1x1_reduce/bn
I0624 00:10:58.999660  2542 net.cpp:106] Creating Layer conv4_3_1x1_reduce/bn
I0624 00:10:58.999665  2542 net.cpp:454] conv4_3_1x1_reduce/bn <- conv4_3_1x1_reduce
I0624 00:10:58.999670  2542 net.cpp:397] conv4_3_1x1_reduce/bn -> conv4_3_1x1_reduce (in-place)
I0624 00:10:58.999828  2542 net.cpp:150] Setting up conv4_3_1x1_reduce/bn
I0624 00:10:58.999833  2542 net.cpp:157] Top shape: 2 256 60 60 (1843200)
I0624 00:10:58.999836  2542 net.cpp:165] Memory required for data: 2126705200
I0624 00:10:58.999841  2542 layer_factory.hpp:77] Creating layer conv4_3_1x1_reduce/relu
I0624 00:10:58.999846  2542 net.cpp:106] Creating Layer conv4_3_1x1_reduce/relu
I0624 00:10:58.999850  2542 net.cpp:454] conv4_3_1x1_reduce/relu <- conv4_3_1x1_reduce
I0624 00:10:58.999853  2542 net.cpp:397] conv4_3_1x1_reduce/relu -> conv4_3_1x1_reduce (in-place)
I0624 00:10:58.999857  2542 net.cpp:150] Setting up conv4_3_1x1_reduce/relu
I0624 00:10:58.999861  2542 net.cpp:157] Top shape: 2 256 60 60 (1843200)
I0624 00:10:58.999863  2542 net.cpp:165] Memory required for data: 2134078000
I0624 00:10:58.999866  2542 layer_factory.hpp:77] Creating layer conv4_3_3x3
I0624 00:10:58.999873  2542 net.cpp:106] Creating Layer conv4_3_3x3
I0624 00:10:58.999876  2542 net.cpp:454] conv4_3_3x3 <- conv4_3_1x1_reduce
I0624 00:10:58.999881  2542 net.cpp:411] conv4_3_3x3 -> conv4_3_3x3
I0624 00:10:59.013279  2542 net.cpp:150] Setting up conv4_3_3x3
I0624 00:10:59.013337  2542 net.cpp:157] Top shape: 2 256 60 60 (1843200)
I0624 00:10:59.013342  2542 net.cpp:165] Memory required for data: 2141450800
I0624 00:10:59.013355  2542 layer_factory.hpp:77] Creating layer conv4_3_3x3/bn
I0624 00:10:59.013372  2542 net.cpp:106] Creating Layer conv4_3_3x3/bn
I0624 00:10:59.013380  2542 net.cpp:454] conv4_3_3x3/bn <- conv4_3_3x3
I0624 00:10:59.013391  2542 net.cpp:397] conv4_3_3x3/bn -> conv4_3_3x3 (in-place)
I0624 00:10:59.013577  2542 net.cpp:150] Setting up conv4_3_3x3/bn
I0624 00:10:59.013583  2542 net.cpp:157] Top shape: 2 256 60 60 (1843200)
I0624 00:10:59.013588  2542 net.cpp:165] Memory required for data: 2148823600
I0624 00:10:59.013597  2542 layer_factory.hpp:77] Creating layer conv4_3_3x3/relu
I0624 00:10:59.013607  2542 net.cpp:106] Creating Layer conv4_3_3x3/relu
I0624 00:10:59.013609  2542 net.cpp:454] conv4_3_3x3/relu <- conv4_3_3x3
I0624 00:10:59.013615  2542 net.cpp:397] conv4_3_3x3/relu -> conv4_3_3x3 (in-place)
I0624 00:10:59.013620  2542 net.cpp:150] Setting up conv4_3_3x3/relu
I0624 00:10:59.013623  2542 net.cpp:157] Top shape: 2 256 60 60 (1843200)
I0624 00:10:59.013626  2542 net.cpp:165] Memory required for data: 2156196400
I0624 00:10:59.013629  2542 layer_factory.hpp:77] Creating layer conv4_3_1x1_increase
I0624 00:10:59.013638  2542 net.cpp:106] Creating Layer conv4_3_1x1_increase
I0624 00:10:59.013641  2542 net.cpp:454] conv4_3_1x1_increase <- conv4_3_3x3
I0624 00:10:59.013648  2542 net.cpp:411] conv4_3_1x1_increase -> conv4_3_1x1_increase
I0624 00:10:59.020603  2542 net.cpp:150] Setting up conv4_3_1x1_increase
I0624 00:10:59.020632  2542 net.cpp:157] Top shape: 2 1024 60 60 (7372800)
I0624 00:10:59.020635  2542 net.cpp:165] Memory required for data: 2185687600
I0624 00:10:59.020642  2542 layer_factory.hpp:77] Creating layer conv4_3_1x1_increase/bn
I0624 00:10:59.020655  2542 net.cpp:106] Creating Layer conv4_3_1x1_increase/bn
I0624 00:10:59.020661  2542 net.cpp:454] conv4_3_1x1_increase/bn <- conv4_3_1x1_increase
I0624 00:10:59.020674  2542 net.cpp:397] conv4_3_1x1_increase/bn -> conv4_3_1x1_increase (in-place)
I0624 00:10:59.020854  2542 net.cpp:150] Setting up conv4_3_1x1_increase/bn
I0624 00:10:59.020859  2542 net.cpp:157] Top shape: 2 1024 60 60 (7372800)
I0624 00:10:59.020861  2542 net.cpp:165] Memory required for data: 2215178800
I0624 00:10:59.020866  2542 layer_factory.hpp:77] Creating layer conv4_3
I0624 00:10:59.020872  2542 net.cpp:106] Creating Layer conv4_3
I0624 00:10:59.020875  2542 net.cpp:454] conv4_3 <- conv4_2_conv4_2/relu_0_split_1
I0624 00:10:59.020879  2542 net.cpp:454] conv4_3 <- conv4_3_1x1_increase
I0624 00:10:59.020882  2542 net.cpp:411] conv4_3 -> conv4_3
I0624 00:10:59.020901  2542 net.cpp:150] Setting up conv4_3
I0624 00:10:59.020905  2542 net.cpp:157] Top shape: 2 1024 60 60 (7372800)
I0624 00:10:59.020907  2542 net.cpp:165] Memory required for data: 2244670000
I0624 00:10:59.020910  2542 layer_factory.hpp:77] Creating layer conv4_3/relu
I0624 00:10:59.020932  2542 net.cpp:106] Creating Layer conv4_3/relu
I0624 00:10:59.020948  2542 net.cpp:454] conv4_3/relu <- conv4_3
I0624 00:10:59.020956  2542 net.cpp:397] conv4_3/relu -> conv4_3 (in-place)
I0624 00:10:59.020961  2542 net.cpp:150] Setting up conv4_3/relu
I0624 00:10:59.020964  2542 net.cpp:157] Top shape: 2 1024 60 60 (7372800)
I0624 00:10:59.020967  2542 net.cpp:165] Memory required for data: 2274161200
I0624 00:10:59.020969  2542 layer_factory.hpp:77] Creating layer conv4_3_conv4_3/relu_0_split
I0624 00:10:59.020974  2542 net.cpp:106] Creating Layer conv4_3_conv4_3/relu_0_split
I0624 00:10:59.020977  2542 net.cpp:454] conv4_3_conv4_3/relu_0_split <- conv4_3
I0624 00:10:59.020982  2542 net.cpp:411] conv4_3_conv4_3/relu_0_split -> conv4_3_conv4_3/relu_0_split_0
I0624 00:10:59.020987  2542 net.cpp:411] conv4_3_conv4_3/relu_0_split -> conv4_3_conv4_3/relu_0_split_1
I0624 00:10:59.021008  2542 net.cpp:150] Setting up conv4_3_conv4_3/relu_0_split
I0624 00:10:59.021013  2542 net.cpp:157] Top shape: 2 1024 60 60 (7372800)
I0624 00:10:59.021016  2542 net.cpp:157] Top shape: 2 1024 60 60 (7372800)
I0624 00:10:59.021018  2542 net.cpp:165] Memory required for data: 2333143600
I0624 00:10:59.021021  2542 layer_factory.hpp:77] Creating layer conv4_4_1x1_reduce
I0624 00:10:59.021039  2542 net.cpp:106] Creating Layer conv4_4_1x1_reduce
I0624 00:10:59.021042  2542 net.cpp:454] conv4_4_1x1_reduce <- conv4_3_conv4_3/relu_0_split_0
I0624 00:10:59.021046  2542 net.cpp:411] conv4_4_1x1_reduce -> conv4_4_1x1_reduce
I0624 00:10:59.026638  2542 net.cpp:150] Setting up conv4_4_1x1_reduce
I0624 00:10:59.026644  2542 net.cpp:157] Top shape: 2 256 60 60 (1843200)
I0624 00:10:59.026648  2542 net.cpp:165] Memory required for data: 2340516400
I0624 00:10:59.026651  2542 layer_factory.hpp:77] Creating layer conv4_4_1x1_reduce/bn
I0624 00:10:59.026657  2542 net.cpp:106] Creating Layer conv4_4_1x1_reduce/bn
I0624 00:10:59.026660  2542 net.cpp:454] conv4_4_1x1_reduce/bn <- conv4_4_1x1_reduce
I0624 00:10:59.026664  2542 net.cpp:397] conv4_4_1x1_reduce/bn -> conv4_4_1x1_reduce (in-place)
I0624 00:10:59.026794  2542 net.cpp:150] Setting up conv4_4_1x1_reduce/bn
I0624 00:10:59.026798  2542 net.cpp:157] Top shape: 2 256 60 60 (1843200)
I0624 00:10:59.026801  2542 net.cpp:165] Memory required for data: 2347889200
I0624 00:10:59.026806  2542 layer_factory.hpp:77] Creating layer conv4_4_1x1_reduce/relu
I0624 00:10:59.026810  2542 net.cpp:106] Creating Layer conv4_4_1x1_reduce/relu
I0624 00:10:59.026813  2542 net.cpp:454] conv4_4_1x1_reduce/relu <- conv4_4_1x1_reduce
I0624 00:10:59.026816  2542 net.cpp:397] conv4_4_1x1_reduce/relu -> conv4_4_1x1_reduce (in-place)
I0624 00:10:59.026820  2542 net.cpp:150] Setting up conv4_4_1x1_reduce/relu
I0624 00:10:59.026823  2542 net.cpp:157] Top shape: 2 256 60 60 (1843200)
I0624 00:10:59.026826  2542 net.cpp:165] Memory required for data: 2355262000
I0624 00:10:59.026829  2542 layer_factory.hpp:77] Creating layer conv4_4_3x3
I0624 00:10:59.026834  2542 net.cpp:106] Creating Layer conv4_4_3x3
I0624 00:10:59.026836  2542 net.cpp:454] conv4_4_3x3 <- conv4_4_1x1_reduce
I0624 00:10:59.026841  2542 net.cpp:411] conv4_4_3x3 -> conv4_4_3x3
I0624 00:10:59.040019  2542 net.cpp:150] Setting up conv4_4_3x3
I0624 00:10:59.040052  2542 net.cpp:157] Top shape: 2 256 60 60 (1843200)
I0624 00:10:59.040055  2542 net.cpp:165] Memory required for data: 2362634800
I0624 00:10:59.040061  2542 layer_factory.hpp:77] Creating layer conv4_4_3x3/bn
I0624 00:10:59.040069  2542 net.cpp:106] Creating Layer conv4_4_3x3/bn
I0624 00:10:59.040073  2542 net.cpp:454] conv4_4_3x3/bn <- conv4_4_3x3
I0624 00:10:59.040079  2542 net.cpp:397] conv4_4_3x3/bn -> conv4_4_3x3 (in-place)
I0624 00:10:59.040226  2542 net.cpp:150] Setting up conv4_4_3x3/bn
I0624 00:10:59.040231  2542 net.cpp:157] Top shape: 2 256 60 60 (1843200)
I0624 00:10:59.040233  2542 net.cpp:165] Memory required for data: 2370007600
I0624 00:10:59.040237  2542 layer_factory.hpp:77] Creating layer conv4_4_3x3/relu
I0624 00:10:59.040257  2542 net.cpp:106] Creating Layer conv4_4_3x3/relu
I0624 00:10:59.040261  2542 net.cpp:454] conv4_4_3x3/relu <- conv4_4_3x3
I0624 00:10:59.040269  2542 net.cpp:397] conv4_4_3x3/relu -> conv4_4_3x3 (in-place)
I0624 00:10:59.040274  2542 net.cpp:150] Setting up conv4_4_3x3/relu
I0624 00:10:59.040277  2542 net.cpp:157] Top shape: 2 256 60 60 (1843200)
I0624 00:10:59.040279  2542 net.cpp:165] Memory required for data: 2377380400
I0624 00:10:59.040282  2542 layer_factory.hpp:77] Creating layer conv4_4_1x1_increase
I0624 00:10:59.040288  2542 net.cpp:106] Creating Layer conv4_4_1x1_increase
I0624 00:10:59.040290  2542 net.cpp:454] conv4_4_1x1_increase <- conv4_4_3x3
I0624 00:10:59.040294  2542 net.cpp:411] conv4_4_1x1_increase -> conv4_4_1x1_increase
I0624 00:10:59.046728  2542 net.cpp:150] Setting up conv4_4_1x1_increase
I0624 00:10:59.046756  2542 net.cpp:157] Top shape: 2 1024 60 60 (7372800)
I0624 00:10:59.046759  2542 net.cpp:165] Memory required for data: 2406871600
I0624 00:10:59.046768  2542 layer_factory.hpp:77] Creating layer conv4_4_1x1_increase/bn
I0624 00:10:59.046779  2542 net.cpp:106] Creating Layer conv4_4_1x1_increase/bn
I0624 00:10:59.046784  2542 net.cpp:454] conv4_4_1x1_increase/bn <- conv4_4_1x1_increase
I0624 00:10:59.046793  2542 net.cpp:397] conv4_4_1x1_increase/bn -> conv4_4_1x1_increase (in-place)
I0624 00:10:59.046955  2542 net.cpp:150] Setting up conv4_4_1x1_increase/bn
I0624 00:10:59.046960  2542 net.cpp:157] Top shape: 2 1024 60 60 (7372800)
I0624 00:10:59.046962  2542 net.cpp:165] Memory required for data: 2436362800
I0624 00:10:59.046968  2542 layer_factory.hpp:77] Creating layer conv4_4
I0624 00:10:59.046973  2542 net.cpp:106] Creating Layer conv4_4
I0624 00:10:59.046977  2542 net.cpp:454] conv4_4 <- conv4_3_conv4_3/relu_0_split_1
I0624 00:10:59.046980  2542 net.cpp:454] conv4_4 <- conv4_4_1x1_increase
I0624 00:10:59.046984  2542 net.cpp:411] conv4_4 -> conv4_4
I0624 00:10:59.047004  2542 net.cpp:150] Setting up conv4_4
I0624 00:10:59.047008  2542 net.cpp:157] Top shape: 2 1024 60 60 (7372800)
I0624 00:10:59.047010  2542 net.cpp:165] Memory required for data: 2465854000
I0624 00:10:59.047013  2542 layer_factory.hpp:77] Creating layer conv4_4/relu
I0624 00:10:59.047019  2542 net.cpp:106] Creating Layer conv4_4/relu
I0624 00:10:59.047020  2542 net.cpp:454] conv4_4/relu <- conv4_4
I0624 00:10:59.047024  2542 net.cpp:397] conv4_4/relu -> conv4_4 (in-place)
I0624 00:10:59.047029  2542 net.cpp:150] Setting up conv4_4/relu
I0624 00:10:59.047032  2542 net.cpp:157] Top shape: 2 1024 60 60 (7372800)
I0624 00:10:59.047034  2542 net.cpp:165] Memory required for data: 2495345200
I0624 00:10:59.047037  2542 layer_factory.hpp:77] Creating layer conv4_4_conv4_4/relu_0_split
I0624 00:10:59.047042  2542 net.cpp:106] Creating Layer conv4_4_conv4_4/relu_0_split
I0624 00:10:59.047045  2542 net.cpp:454] conv4_4_conv4_4/relu_0_split <- conv4_4
I0624 00:10:59.047049  2542 net.cpp:411] conv4_4_conv4_4/relu_0_split -> conv4_4_conv4_4/relu_0_split_0
I0624 00:10:59.047052  2542 net.cpp:411] conv4_4_conv4_4/relu_0_split -> conv4_4_conv4_4/relu_0_split_1
I0624 00:10:59.047078  2542 net.cpp:150] Setting up conv4_4_conv4_4/relu_0_split
I0624 00:10:59.047082  2542 net.cpp:157] Top shape: 2 1024 60 60 (7372800)
I0624 00:10:59.047086  2542 net.cpp:157] Top shape: 2 1024 60 60 (7372800)
I0624 00:10:59.047088  2542 net.cpp:165] Memory required for data: 2554327600
I0624 00:10:59.047091  2542 layer_factory.hpp:77] Creating layer conv4_5_1x1_reduce
I0624 00:10:59.047098  2542 net.cpp:106] Creating Layer conv4_5_1x1_reduce
I0624 00:10:59.047101  2542 net.cpp:454] conv4_5_1x1_reduce <- conv4_4_conv4_4/relu_0_split_0
I0624 00:10:59.047106  2542 net.cpp:411] conv4_5_1x1_reduce -> conv4_5_1x1_reduce
I0624 00:10:59.052819  2542 net.cpp:150] Setting up conv4_5_1x1_reduce
I0624 00:10:59.052829  2542 net.cpp:157] Top shape: 2 256 60 60 (1843200)
I0624 00:10:59.052831  2542 net.cpp:165] Memory required for data: 2561700400
I0624 00:10:59.052835  2542 layer_factory.hpp:77] Creating layer conv4_5_1x1_reduce/bn
I0624 00:10:59.052844  2542 net.cpp:106] Creating Layer conv4_5_1x1_reduce/bn
I0624 00:10:59.052861  2542 net.cpp:454] conv4_5_1x1_reduce/bn <- conv4_5_1x1_reduce
I0624 00:10:59.052866  2542 net.cpp:397] conv4_5_1x1_reduce/bn -> conv4_5_1x1_reduce (in-place)
I0624 00:10:59.053006  2542 net.cpp:150] Setting up conv4_5_1x1_reduce/bn
I0624 00:10:59.053011  2542 net.cpp:157] Top shape: 2 256 60 60 (1843200)
I0624 00:10:59.053014  2542 net.cpp:165] Memory required for data: 2569073200
I0624 00:10:59.053020  2542 layer_factory.hpp:77] Creating layer conv4_5_1x1_reduce/relu
I0624 00:10:59.053025  2542 net.cpp:106] Creating Layer conv4_5_1x1_reduce/relu
I0624 00:10:59.053027  2542 net.cpp:454] conv4_5_1x1_reduce/relu <- conv4_5_1x1_reduce
I0624 00:10:59.053030  2542 net.cpp:397] conv4_5_1x1_reduce/relu -> conv4_5_1x1_reduce (in-place)
I0624 00:10:59.053035  2542 net.cpp:150] Setting up conv4_5_1x1_reduce/relu
I0624 00:10:59.053037  2542 net.cpp:157] Top shape: 2 256 60 60 (1843200)
I0624 00:10:59.053040  2542 net.cpp:165] Memory required for data: 2576446000
I0624 00:10:59.053042  2542 layer_factory.hpp:77] Creating layer conv4_5_3x3
I0624 00:10:59.053048  2542 net.cpp:106] Creating Layer conv4_5_3x3
I0624 00:10:59.053050  2542 net.cpp:454] conv4_5_3x3 <- conv4_5_1x1_reduce
I0624 00:10:59.053056  2542 net.cpp:411] conv4_5_3x3 -> conv4_5_3x3
I0624 00:10:59.066098  2542 net.cpp:150] Setting up conv4_5_3x3
I0624 00:10:59.066125  2542 net.cpp:157] Top shape: 2 256 60 60 (1843200)
I0624 00:10:59.066128  2542 net.cpp:165] Memory required for data: 2583818800
I0624 00:10:59.066135  2542 layer_factory.hpp:77] Creating layer conv4_5_3x3/bn
I0624 00:10:59.066144  2542 net.cpp:106] Creating Layer conv4_5_3x3/bn
I0624 00:10:59.066148  2542 net.cpp:454] conv4_5_3x3/bn <- conv4_5_3x3
I0624 00:10:59.066154  2542 net.cpp:397] conv4_5_3x3/bn -> conv4_5_3x3 (in-place)
I0624 00:10:59.066298  2542 net.cpp:150] Setting up conv4_5_3x3/bn
I0624 00:10:59.066303  2542 net.cpp:157] Top shape: 2 256 60 60 (1843200)
I0624 00:10:59.066306  2542 net.cpp:165] Memory required for data: 2591191600
I0624 00:10:59.066311  2542 layer_factory.hpp:77] Creating layer conv4_5_3x3/relu
I0624 00:10:59.066318  2542 net.cpp:106] Creating Layer conv4_5_3x3/relu
I0624 00:10:59.066320  2542 net.cpp:454] conv4_5_3x3/relu <- conv4_5_3x3
I0624 00:10:59.066324  2542 net.cpp:397] conv4_5_3x3/relu -> conv4_5_3x3 (in-place)
I0624 00:10:59.066329  2542 net.cpp:150] Setting up conv4_5_3x3/relu
I0624 00:10:59.066332  2542 net.cpp:157] Top shape: 2 256 60 60 (1843200)
I0624 00:10:59.066334  2542 net.cpp:165] Memory required for data: 2598564400
I0624 00:10:59.066337  2542 layer_factory.hpp:77] Creating layer conv4_5_1x1_increase
I0624 00:10:59.066344  2542 net.cpp:106] Creating Layer conv4_5_1x1_increase
I0624 00:10:59.066346  2542 net.cpp:454] conv4_5_1x1_increase <- conv4_5_3x3
I0624 00:10:59.066350  2542 net.cpp:411] conv4_5_1x1_increase -> conv4_5_1x1_increase
I0624 00:10:59.072791  2542 net.cpp:150] Setting up conv4_5_1x1_increase
I0624 00:10:59.072872  2542 net.cpp:157] Top shape: 2 1024 60 60 (7372800)
I0624 00:10:59.072880  2542 net.cpp:165] Memory required for data: 2628055600
I0624 00:10:59.072896  2542 layer_factory.hpp:77] Creating layer conv4_5_1x1_increase/bn
I0624 00:10:59.072916  2542 net.cpp:106] Creating Layer conv4_5_1x1_increase/bn
I0624 00:10:59.072923  2542 net.cpp:454] conv4_5_1x1_increase/bn <- conv4_5_1x1_increase
I0624 00:10:59.072959  2542 net.cpp:397] conv4_5_1x1_increase/bn -> conv4_5_1x1_increase (in-place)
I0624 00:10:59.073200  2542 net.cpp:150] Setting up conv4_5_1x1_increase/bn
I0624 00:10:59.073206  2542 net.cpp:157] Top shape: 2 1024 60 60 (7372800)
I0624 00:10:59.073210  2542 net.cpp:165] Memory required for data: 2657546800
I0624 00:10:59.073217  2542 layer_factory.hpp:77] Creating layer conv4_5
I0624 00:10:59.073227  2542 net.cpp:106] Creating Layer conv4_5
I0624 00:10:59.073232  2542 net.cpp:454] conv4_5 <- conv4_4_conv4_4/relu_0_split_1
I0624 00:10:59.073237  2542 net.cpp:454] conv4_5 <- conv4_5_1x1_increase
I0624 00:10:59.073241  2542 net.cpp:411] conv4_5 -> conv4_5
I0624 00:10:59.073318  2542 net.cpp:150] Setting up conv4_5
I0624 00:10:59.073323  2542 net.cpp:157] Top shape: 2 1024 60 60 (7372800)
I0624 00:10:59.073325  2542 net.cpp:165] Memory required for data: 2687038000
I0624 00:10:59.073328  2542 layer_factory.hpp:77] Creating layer conv4_5/relu
I0624 00:10:59.073336  2542 net.cpp:106] Creating Layer conv4_5/relu
I0624 00:10:59.073339  2542 net.cpp:454] conv4_5/relu <- conv4_5
I0624 00:10:59.073344  2542 net.cpp:397] conv4_5/relu -> conv4_5 (in-place)
I0624 00:10:59.073350  2542 net.cpp:150] Setting up conv4_5/relu
I0624 00:10:59.073354  2542 net.cpp:157] Top shape: 2 1024 60 60 (7372800)
I0624 00:10:59.073355  2542 net.cpp:165] Memory required for data: 2716529200
I0624 00:10:59.073359  2542 layer_factory.hpp:77] Creating layer conv4_5_conv4_5/relu_0_split
I0624 00:10:59.073365  2542 net.cpp:106] Creating Layer conv4_5_conv4_5/relu_0_split
I0624 00:10:59.073369  2542 net.cpp:454] conv4_5_conv4_5/relu_0_split <- conv4_5
I0624 00:10:59.073371  2542 net.cpp:411] conv4_5_conv4_5/relu_0_split -> conv4_5_conv4_5/relu_0_split_0
I0624 00:10:59.073377  2542 net.cpp:411] conv4_5_conv4_5/relu_0_split -> conv4_5_conv4_5/relu_0_split_1
I0624 00:10:59.073400  2542 net.cpp:150] Setting up conv4_5_conv4_5/relu_0_split
I0624 00:10:59.073405  2542 net.cpp:157] Top shape: 2 1024 60 60 (7372800)
I0624 00:10:59.073407  2542 net.cpp:157] Top shape: 2 1024 60 60 (7372800)
I0624 00:10:59.073410  2542 net.cpp:165] Memory required for data: 2775511600
I0624 00:10:59.073413  2542 layer_factory.hpp:77] Creating layer conv4_6_1x1_reduce
I0624 00:10:59.073424  2542 net.cpp:106] Creating Layer conv4_6_1x1_reduce
I0624 00:10:59.073427  2542 net.cpp:454] conv4_6_1x1_reduce <- conv4_5_conv4_5/relu_0_split_0
I0624 00:10:59.073433  2542 net.cpp:411] conv4_6_1x1_reduce -> conv4_6_1x1_reduce
I0624 00:10:59.079540  2542 net.cpp:150] Setting up conv4_6_1x1_reduce
I0624 00:10:59.079591  2542 net.cpp:157] Top shape: 2 256 60 60 (1843200)
I0624 00:10:59.079594  2542 net.cpp:165] Memory required for data: 2782884400
I0624 00:10:59.079607  2542 layer_factory.hpp:77] Creating layer conv4_6_1x1_reduce/bn
I0624 00:10:59.079628  2542 net.cpp:106] Creating Layer conv4_6_1x1_reduce/bn
I0624 00:10:59.079638  2542 net.cpp:454] conv4_6_1x1_reduce/bn <- conv4_6_1x1_reduce
I0624 00:10:59.079645  2542 net.cpp:397] conv4_6_1x1_reduce/bn -> conv4_6_1x1_reduce (in-place)
I0624 00:10:59.079840  2542 net.cpp:150] Setting up conv4_6_1x1_reduce/bn
I0624 00:10:59.079845  2542 net.cpp:157] Top shape: 2 256 60 60 (1843200)
I0624 00:10:59.079850  2542 net.cpp:165] Memory required for data: 2790257200
I0624 00:10:59.079856  2542 layer_factory.hpp:77] Creating layer conv4_6_1x1_reduce/relu
I0624 00:10:59.079861  2542 net.cpp:106] Creating Layer conv4_6_1x1_reduce/relu
I0624 00:10:59.079864  2542 net.cpp:454] conv4_6_1x1_reduce/relu <- conv4_6_1x1_reduce
I0624 00:10:59.079869  2542 net.cpp:397] conv4_6_1x1_reduce/relu -> conv4_6_1x1_reduce (in-place)
I0624 00:10:59.079872  2542 net.cpp:150] Setting up conv4_6_1x1_reduce/relu
I0624 00:10:59.079875  2542 net.cpp:157] Top shape: 2 256 60 60 (1843200)
I0624 00:10:59.079879  2542 net.cpp:165] Memory required for data: 2797630000
I0624 00:10:59.079881  2542 layer_factory.hpp:77] Creating layer conv4_6_3x3
I0624 00:10:59.079890  2542 net.cpp:106] Creating Layer conv4_6_3x3
I0624 00:10:59.079893  2542 net.cpp:454] conv4_6_3x3 <- conv4_6_1x1_reduce
I0624 00:10:59.079897  2542 net.cpp:411] conv4_6_3x3 -> conv4_6_3x3
I0624 00:10:59.093293  2542 net.cpp:150] Setting up conv4_6_3x3
I0624 00:10:59.093313  2542 net.cpp:157] Top shape: 2 256 60 60 (1843200)
I0624 00:10:59.093317  2542 net.cpp:165] Memory required for data: 2805002800
I0624 00:10:59.093323  2542 layer_factory.hpp:77] Creating layer conv4_6_3x3/bn
I0624 00:10:59.093330  2542 net.cpp:106] Creating Layer conv4_6_3x3/bn
I0624 00:10:59.093334  2542 net.cpp:454] conv4_6_3x3/bn <- conv4_6_3x3
I0624 00:10:59.093341  2542 net.cpp:397] conv4_6_3x3/bn -> conv4_6_3x3 (in-place)
I0624 00:10:59.093487  2542 net.cpp:150] Setting up conv4_6_3x3/bn
I0624 00:10:59.093508  2542 net.cpp:157] Top shape: 2 256 60 60 (1843200)
I0624 00:10:59.093510  2542 net.cpp:165] Memory required for data: 2812375600
I0624 00:10:59.093516  2542 layer_factory.hpp:77] Creating layer conv4_6_3x3/relu
I0624 00:10:59.093523  2542 net.cpp:106] Creating Layer conv4_6_3x3/relu
I0624 00:10:59.093525  2542 net.cpp:454] conv4_6_3x3/relu <- conv4_6_3x3
I0624 00:10:59.093528  2542 net.cpp:397] conv4_6_3x3/relu -> conv4_6_3x3 (in-place)
I0624 00:10:59.093533  2542 net.cpp:150] Setting up conv4_6_3x3/relu
I0624 00:10:59.093535  2542 net.cpp:157] Top shape: 2 256 60 60 (1843200)
I0624 00:10:59.093538  2542 net.cpp:165] Memory required for data: 2819748400
I0624 00:10:59.093540  2542 layer_factory.hpp:77] Creating layer conv4_6_1x1_increase
I0624 00:10:59.093549  2542 net.cpp:106] Creating Layer conv4_6_1x1_increase
I0624 00:10:59.093551  2542 net.cpp:454] conv4_6_1x1_increase <- conv4_6_3x3
I0624 00:10:59.093557  2542 net.cpp:411] conv4_6_1x1_increase -> conv4_6_1x1_increase
I0624 00:10:59.099838  2542 net.cpp:150] Setting up conv4_6_1x1_increase
I0624 00:10:59.099858  2542 net.cpp:157] Top shape: 2 1024 60 60 (7372800)
I0624 00:10:59.099861  2542 net.cpp:165] Memory required for data: 2849239600
I0624 00:10:59.099867  2542 layer_factory.hpp:77] Creating layer conv4_6_1x1_increase/bn
I0624 00:10:59.099875  2542 net.cpp:106] Creating Layer conv4_6_1x1_increase/bn
I0624 00:10:59.099879  2542 net.cpp:454] conv4_6_1x1_increase/bn <- conv4_6_1x1_increase
I0624 00:10:59.099885  2542 net.cpp:397] conv4_6_1x1_increase/bn -> conv4_6_1x1_increase (in-place)
I0624 00:10:59.100037  2542 net.cpp:150] Setting up conv4_6_1x1_increase/bn
I0624 00:10:59.100042  2542 net.cpp:157] Top shape: 2 1024 60 60 (7372800)
I0624 00:10:59.100044  2542 net.cpp:165] Memory required for data: 2878730800
I0624 00:10:59.100049  2542 layer_factory.hpp:77] Creating layer conv4_6
I0624 00:10:59.100054  2542 net.cpp:106] Creating Layer conv4_6
I0624 00:10:59.100056  2542 net.cpp:454] conv4_6 <- conv4_5_conv4_5/relu_0_split_1
I0624 00:10:59.100059  2542 net.cpp:454] conv4_6 <- conv4_6_1x1_increase
I0624 00:10:59.100062  2542 net.cpp:411] conv4_6 -> conv4_6
I0624 00:10:59.100080  2542 net.cpp:150] Setting up conv4_6
I0624 00:10:59.100083  2542 net.cpp:157] Top shape: 2 1024 60 60 (7372800)
I0624 00:10:59.100085  2542 net.cpp:165] Memory required for data: 2908222000
I0624 00:10:59.100087  2542 layer_factory.hpp:77] Creating layer conv4_6/relu
I0624 00:10:59.100091  2542 net.cpp:106] Creating Layer conv4_6/relu
I0624 00:10:59.100093  2542 net.cpp:454] conv4_6/relu <- conv4_6
I0624 00:10:59.100096  2542 net.cpp:397] conv4_6/relu -> conv4_6 (in-place)
I0624 00:10:59.100100  2542 net.cpp:150] Setting up conv4_6/relu
I0624 00:10:59.100103  2542 net.cpp:157] Top shape: 2 1024 60 60 (7372800)
I0624 00:10:59.100106  2542 net.cpp:165] Memory required for data: 2937713200
I0624 00:10:59.100107  2542 layer_factory.hpp:77] Creating layer conv4_6_conv4_6/relu_0_split
I0624 00:10:59.100111  2542 net.cpp:106] Creating Layer conv4_6_conv4_6/relu_0_split
I0624 00:10:59.100112  2542 net.cpp:454] conv4_6_conv4_6/relu_0_split <- conv4_6
I0624 00:10:59.100116  2542 net.cpp:411] conv4_6_conv4_6/relu_0_split -> conv4_6_conv4_6/relu_0_split_0
I0624 00:10:59.100121  2542 net.cpp:411] conv4_6_conv4_6/relu_0_split -> conv4_6_conv4_6/relu_0_split_1
I0624 00:10:59.100142  2542 net.cpp:150] Setting up conv4_6_conv4_6/relu_0_split
I0624 00:10:59.100147  2542 net.cpp:157] Top shape: 2 1024 60 60 (7372800)
I0624 00:10:59.100149  2542 net.cpp:157] Top shape: 2 1024 60 60 (7372800)
I0624 00:10:59.100152  2542 net.cpp:165] Memory required for data: 2996695600
I0624 00:10:59.100153  2542 layer_factory.hpp:77] Creating layer conv4_7_1x1_reduce
I0624 00:10:59.100158  2542 net.cpp:106] Creating Layer conv4_7_1x1_reduce
I0624 00:10:59.100162  2542 net.cpp:454] conv4_7_1x1_reduce <- conv4_6_conv4_6/relu_0_split_0
I0624 00:10:59.100170  2542 net.cpp:411] conv4_7_1x1_reduce -> conv4_7_1x1_reduce
I0624 00:10:59.105767  2542 net.cpp:150] Setting up conv4_7_1x1_reduce
I0624 00:10:59.105778  2542 net.cpp:157] Top shape: 2 256 60 60 (1843200)
I0624 00:10:59.105796  2542 net.cpp:165] Memory required for data: 3004068400
I0624 00:10:59.105799  2542 layer_factory.hpp:77] Creating layer conv4_7_1x1_reduce/bn
I0624 00:10:59.105806  2542 net.cpp:106] Creating Layer conv4_7_1x1_reduce/bn
I0624 00:10:59.105810  2542 net.cpp:454] conv4_7_1x1_reduce/bn <- conv4_7_1x1_reduce
I0624 00:10:59.105813  2542 net.cpp:397] conv4_7_1x1_reduce/bn -> conv4_7_1x1_reduce (in-place)
I0624 00:10:59.105948  2542 net.cpp:150] Setting up conv4_7_1x1_reduce/bn
I0624 00:10:59.105952  2542 net.cpp:157] Top shape: 2 256 60 60 (1843200)
I0624 00:10:59.105954  2542 net.cpp:165] Memory required for data: 3011441200
I0624 00:10:59.105959  2542 layer_factory.hpp:77] Creating layer conv4_7_1x1_reduce/relu
I0624 00:10:59.105962  2542 net.cpp:106] Creating Layer conv4_7_1x1_reduce/relu
I0624 00:10:59.105965  2542 net.cpp:454] conv4_7_1x1_reduce/relu <- conv4_7_1x1_reduce
I0624 00:10:59.105967  2542 net.cpp:397] conv4_7_1x1_reduce/relu -> conv4_7_1x1_reduce (in-place)
I0624 00:10:59.105971  2542 net.cpp:150] Setting up conv4_7_1x1_reduce/relu
I0624 00:10:59.105973  2542 net.cpp:157] Top shape: 2 256 60 60 (1843200)
I0624 00:10:59.105975  2542 net.cpp:165] Memory required for data: 3018814000
I0624 00:10:59.105978  2542 layer_factory.hpp:77] Creating layer conv4_7_3x3
I0624 00:10:59.105984  2542 net.cpp:106] Creating Layer conv4_7_3x3
I0624 00:10:59.105988  2542 net.cpp:454] conv4_7_3x3 <- conv4_7_1x1_reduce
I0624 00:10:59.105991  2542 net.cpp:411] conv4_7_3x3 -> conv4_7_3x3
I0624 00:10:59.119052  2542 net.cpp:150] Setting up conv4_7_3x3
I0624 00:10:59.119076  2542 net.cpp:157] Top shape: 2 256 60 60 (1843200)
I0624 00:10:59.119078  2542 net.cpp:165] Memory required for data: 3026186800
I0624 00:10:59.119084  2542 layer_factory.hpp:77] Creating layer conv4_7_3x3/bn
I0624 00:10:59.119092  2542 net.cpp:106] Creating Layer conv4_7_3x3/bn
I0624 00:10:59.119096  2542 net.cpp:454] conv4_7_3x3/bn <- conv4_7_3x3
I0624 00:10:59.119103  2542 net.cpp:397] conv4_7_3x3/bn -> conv4_7_3x3 (in-place)
I0624 00:10:59.119251  2542 net.cpp:150] Setting up conv4_7_3x3/bn
I0624 00:10:59.119254  2542 net.cpp:157] Top shape: 2 256 60 60 (1843200)
I0624 00:10:59.119257  2542 net.cpp:165] Memory required for data: 3033559600
I0624 00:10:59.119261  2542 layer_factory.hpp:77] Creating layer conv4_7_3x3/relu
I0624 00:10:59.119266  2542 net.cpp:106] Creating Layer conv4_7_3x3/relu
I0624 00:10:59.119268  2542 net.cpp:454] conv4_7_3x3/relu <- conv4_7_3x3
I0624 00:10:59.119271  2542 net.cpp:397] conv4_7_3x3/relu -> conv4_7_3x3 (in-place)
I0624 00:10:59.119276  2542 net.cpp:150] Setting up conv4_7_3x3/relu
I0624 00:10:59.119277  2542 net.cpp:157] Top shape: 2 256 60 60 (1843200)
I0624 00:10:59.119279  2542 net.cpp:165] Memory required for data: 3040932400
I0624 00:10:59.119282  2542 layer_factory.hpp:77] Creating layer conv4_7_1x1_increase
I0624 00:10:59.119287  2542 net.cpp:106] Creating Layer conv4_7_1x1_increase
I0624 00:10:59.119289  2542 net.cpp:454] conv4_7_1x1_increase <- conv4_7_3x3
I0624 00:10:59.119294  2542 net.cpp:411] conv4_7_1x1_increase -> conv4_7_1x1_increase
I0624 00:10:59.125504  2542 net.cpp:150] Setting up conv4_7_1x1_increase
I0624 00:10:59.125522  2542 net.cpp:157] Top shape: 2 1024 60 60 (7372800)
I0624 00:10:59.125525  2542 net.cpp:165] Memory required for data: 3070423600
I0624 00:10:59.125531  2542 layer_factory.hpp:77] Creating layer conv4_7_1x1_increase/bn
I0624 00:10:59.125541  2542 net.cpp:106] Creating Layer conv4_7_1x1_increase/bn
I0624 00:10:59.125545  2542 net.cpp:454] conv4_7_1x1_increase/bn <- conv4_7_1x1_increase
I0624 00:10:59.125552  2542 net.cpp:397] conv4_7_1x1_increase/bn -> conv4_7_1x1_increase (in-place)
I0624 00:10:59.125710  2542 net.cpp:150] Setting up conv4_7_1x1_increase/bn
I0624 00:10:59.125715  2542 net.cpp:157] Top shape: 2 1024 60 60 (7372800)
I0624 00:10:59.125717  2542 net.cpp:165] Memory required for data: 3099914800
I0624 00:10:59.125723  2542 layer_factory.hpp:77] Creating layer conv4_7
I0624 00:10:59.125730  2542 net.cpp:106] Creating Layer conv4_7
I0624 00:10:59.125752  2542 net.cpp:454] conv4_7 <- conv4_6_conv4_6/relu_0_split_1
I0624 00:10:59.125756  2542 net.cpp:454] conv4_7 <- conv4_7_1x1_increase
I0624 00:10:59.125761  2542 net.cpp:411] conv4_7 -> conv4_7
I0624 00:10:59.125782  2542 net.cpp:150] Setting up conv4_7
I0624 00:10:59.125787  2542 net.cpp:157] Top shape: 2 1024 60 60 (7372800)
I0624 00:10:59.125788  2542 net.cpp:165] Memory required for data: 3129406000
I0624 00:10:59.125792  2542 layer_factory.hpp:77] Creating layer conv4_7/relu
I0624 00:10:59.125797  2542 net.cpp:106] Creating Layer conv4_7/relu
I0624 00:10:59.125799  2542 net.cpp:454] conv4_7/relu <- conv4_7
I0624 00:10:59.125803  2542 net.cpp:397] conv4_7/relu -> conv4_7 (in-place)
I0624 00:10:59.125808  2542 net.cpp:150] Setting up conv4_7/relu
I0624 00:10:59.125811  2542 net.cpp:157] Top shape: 2 1024 60 60 (7372800)
I0624 00:10:59.125814  2542 net.cpp:165] Memory required for data: 3158897200
I0624 00:10:59.125818  2542 layer_factory.hpp:77] Creating layer conv4_7_conv4_7/relu_0_split
I0624 00:10:59.125823  2542 net.cpp:106] Creating Layer conv4_7_conv4_7/relu_0_split
I0624 00:10:59.125824  2542 net.cpp:454] conv4_7_conv4_7/relu_0_split <- conv4_7
I0624 00:10:59.125829  2542 net.cpp:411] conv4_7_conv4_7/relu_0_split -> conv4_7_conv4_7/relu_0_split_0
I0624 00:10:59.125833  2542 net.cpp:411] conv4_7_conv4_7/relu_0_split -> conv4_7_conv4_7/relu_0_split_1
I0624 00:10:59.125855  2542 net.cpp:150] Setting up conv4_7_conv4_7/relu_0_split
I0624 00:10:59.125860  2542 net.cpp:157] Top shape: 2 1024 60 60 (7372800)
I0624 00:10:59.125864  2542 net.cpp:157] Top shape: 2 1024 60 60 (7372800)
I0624 00:10:59.125866  2542 net.cpp:165] Memory required for data: 3217879600
I0624 00:10:59.125869  2542 layer_factory.hpp:77] Creating layer conv4_8_1x1_reduce
I0624 00:10:59.125876  2542 net.cpp:106] Creating Layer conv4_8_1x1_reduce
I0624 00:10:59.125880  2542 net.cpp:454] conv4_8_1x1_reduce <- conv4_7_conv4_7/relu_0_split_0
I0624 00:10:59.125885  2542 net.cpp:411] conv4_8_1x1_reduce -> conv4_8_1x1_reduce
I0624 00:10:59.131763  2542 net.cpp:150] Setting up conv4_8_1x1_reduce
I0624 00:10:59.131824  2542 net.cpp:157] Top shape: 2 256 60 60 (1843200)
I0624 00:10:59.131829  2542 net.cpp:165] Memory required for data: 3225252400
I0624 00:10:59.131841  2542 layer_factory.hpp:77] Creating layer conv4_8_1x1_reduce/bn
I0624 00:10:59.131868  2542 net.cpp:106] Creating Layer conv4_8_1x1_reduce/bn
I0624 00:10:59.131876  2542 net.cpp:454] conv4_8_1x1_reduce/bn <- conv4_8_1x1_reduce
I0624 00:10:59.131883  2542 net.cpp:397] conv4_8_1x1_reduce/bn -> conv4_8_1x1_reduce (in-place)
I0624 00:10:59.132083  2542 net.cpp:150] Setting up conv4_8_1x1_reduce/bn
I0624 00:10:59.132091  2542 net.cpp:157] Top shape: 2 256 60 60 (1843200)
I0624 00:10:59.132092  2542 net.cpp:165] Memory required for data: 3232625200
I0624 00:10:59.132100  2542 layer_factory.hpp:77] Creating layer conv4_8_1x1_reduce/relu
I0624 00:10:59.132109  2542 net.cpp:106] Creating Layer conv4_8_1x1_reduce/relu
I0624 00:10:59.132112  2542 net.cpp:454] conv4_8_1x1_reduce/relu <- conv4_8_1x1_reduce
I0624 00:10:59.132115  2542 net.cpp:397] conv4_8_1x1_reduce/relu -> conv4_8_1x1_reduce (in-place)
I0624 00:10:59.132120  2542 net.cpp:150] Setting up conv4_8_1x1_reduce/relu
I0624 00:10:59.132123  2542 net.cpp:157] Top shape: 2 256 60 60 (1843200)
I0624 00:10:59.132127  2542 net.cpp:165] Memory required for data: 3239998000
I0624 00:10:59.132129  2542 layer_factory.hpp:77] Creating layer conv4_8_3x3
I0624 00:10:59.132140  2542 net.cpp:106] Creating Layer conv4_8_3x3
I0624 00:10:59.132143  2542 net.cpp:454] conv4_8_3x3 <- conv4_8_1x1_reduce
I0624 00:10:59.132148  2542 net.cpp:411] conv4_8_3x3 -> conv4_8_3x3
I0624 00:10:59.146147  2542 net.cpp:150] Setting up conv4_8_3x3
I0624 00:10:59.146172  2542 net.cpp:157] Top shape: 2 256 60 60 (1843200)
I0624 00:10:59.146174  2542 net.cpp:165] Memory required for data: 3247370800
I0624 00:10:59.146183  2542 layer_factory.hpp:77] Creating layer conv4_8_3x3/bn
I0624 00:10:59.146196  2542 net.cpp:106] Creating Layer conv4_8_3x3/bn
I0624 00:10:59.146229  2542 net.cpp:454] conv4_8_3x3/bn <- conv4_8_3x3
I0624 00:10:59.146235  2542 net.cpp:397] conv4_8_3x3/bn -> conv4_8_3x3 (in-place)
I0624 00:10:59.146414  2542 net.cpp:150] Setting up conv4_8_3x3/bn
I0624 00:10:59.146420  2542 net.cpp:157] Top shape: 2 256 60 60 (1843200)
I0624 00:10:59.146422  2542 net.cpp:165] Memory required for data: 3254743600
I0624 00:10:59.146428  2542 layer_factory.hpp:77] Creating layer conv4_8_3x3/relu
I0624 00:10:59.146441  2542 net.cpp:106] Creating Layer conv4_8_3x3/relu
I0624 00:10:59.146445  2542 net.cpp:454] conv4_8_3x3/relu <- conv4_8_3x3
I0624 00:10:59.146448  2542 net.cpp:397] conv4_8_3x3/relu -> conv4_8_3x3 (in-place)
I0624 00:10:59.146452  2542 net.cpp:150] Setting up conv4_8_3x3/relu
I0624 00:10:59.146456  2542 net.cpp:157] Top shape: 2 256 60 60 (1843200)
I0624 00:10:59.146458  2542 net.cpp:165] Memory required for data: 3262116400
I0624 00:10:59.146461  2542 layer_factory.hpp:77] Creating layer conv4_8_1x1_increase
I0624 00:10:59.146468  2542 net.cpp:106] Creating Layer conv4_8_1x1_increase
I0624 00:10:59.146471  2542 net.cpp:454] conv4_8_1x1_increase <- conv4_8_3x3
I0624 00:10:59.146479  2542 net.cpp:411] conv4_8_1x1_increase -> conv4_8_1x1_increase
I0624 00:10:59.152791  2542 net.cpp:150] Setting up conv4_8_1x1_increase
I0624 00:10:59.152809  2542 net.cpp:157] Top shape: 2 1024 60 60 (7372800)
I0624 00:10:59.152812  2542 net.cpp:165] Memory required for data: 3291607600
I0624 00:10:59.152818  2542 layer_factory.hpp:77] Creating layer conv4_8_1x1_increase/bn
I0624 00:10:59.152824  2542 net.cpp:106] Creating Layer conv4_8_1x1_increase/bn
I0624 00:10:59.152828  2542 net.cpp:454] conv4_8_1x1_increase/bn <- conv4_8_1x1_increase
I0624 00:10:59.152833  2542 net.cpp:397] conv4_8_1x1_increase/bn -> conv4_8_1x1_increase (in-place)
I0624 00:10:59.153014  2542 net.cpp:150] Setting up conv4_8_1x1_increase/bn
I0624 00:10:59.153019  2542 net.cpp:157] Top shape: 2 1024 60 60 (7372800)
I0624 00:10:59.153023  2542 net.cpp:165] Memory required for data: 3321098800
I0624 00:10:59.153028  2542 layer_factory.hpp:77] Creating layer conv4_8
I0624 00:10:59.153038  2542 net.cpp:106] Creating Layer conv4_8
I0624 00:10:59.153041  2542 net.cpp:454] conv4_8 <- conv4_7_conv4_7/relu_0_split_1
I0624 00:10:59.153044  2542 net.cpp:454] conv4_8 <- conv4_8_1x1_increase
I0624 00:10:59.153048  2542 net.cpp:411] conv4_8 -> conv4_8
I0624 00:10:59.153069  2542 net.cpp:150] Setting up conv4_8
I0624 00:10:59.153071  2542 net.cpp:157] Top shape: 2 1024 60 60 (7372800)
I0624 00:10:59.153074  2542 net.cpp:165] Memory required for data: 3350590000
I0624 00:10:59.153076  2542 layer_factory.hpp:77] Creating layer conv4_8/relu
I0624 00:10:59.153081  2542 net.cpp:106] Creating Layer conv4_8/relu
I0624 00:10:59.153084  2542 net.cpp:454] conv4_8/relu <- conv4_8
I0624 00:10:59.153087  2542 net.cpp:397] conv4_8/relu -> conv4_8 (in-place)
I0624 00:10:59.153092  2542 net.cpp:150] Setting up conv4_8/relu
I0624 00:10:59.153095  2542 net.cpp:157] Top shape: 2 1024 60 60 (7372800)
I0624 00:10:59.153097  2542 net.cpp:165] Memory required for data: 3380081200
I0624 00:10:59.153100  2542 layer_factory.hpp:77] Creating layer conv4_8_conv4_8/relu_0_split
I0624 00:10:59.153105  2542 net.cpp:106] Creating Layer conv4_8_conv4_8/relu_0_split
I0624 00:10:59.153108  2542 net.cpp:454] conv4_8_conv4_8/relu_0_split <- conv4_8
I0624 00:10:59.153112  2542 net.cpp:411] conv4_8_conv4_8/relu_0_split -> conv4_8_conv4_8/relu_0_split_0
I0624 00:10:59.153116  2542 net.cpp:411] conv4_8_conv4_8/relu_0_split -> conv4_8_conv4_8/relu_0_split_1
I0624 00:10:59.153141  2542 net.cpp:150] Setting up conv4_8_conv4_8/relu_0_split
I0624 00:10:59.153146  2542 net.cpp:157] Top shape: 2 1024 60 60 (7372800)
I0624 00:10:59.153148  2542 net.cpp:157] Top shape: 2 1024 60 60 (7372800)
I0624 00:10:59.153151  2542 net.cpp:165] Memory required for data: 3439063600
I0624 00:10:59.153154  2542 layer_factory.hpp:77] Creating layer conv4_9_1x1_reduce
I0624 00:10:59.153161  2542 net.cpp:106] Creating Layer conv4_9_1x1_reduce
I0624 00:10:59.153162  2542 net.cpp:454] conv4_9_1x1_reduce <- conv4_8_conv4_8/relu_0_split_0
I0624 00:10:59.153182  2542 net.cpp:411] conv4_9_1x1_reduce -> conv4_9_1x1_reduce
I0624 00:10:59.158764  2542 net.cpp:150] Setting up conv4_9_1x1_reduce
I0624 00:10:59.158771  2542 net.cpp:157] Top shape: 2 256 60 60 (1843200)
I0624 00:10:59.158773  2542 net.cpp:165] Memory required for data: 3446436400
I0624 00:10:59.158776  2542 layer_factory.hpp:77] Creating layer conv4_9_1x1_reduce/bn
I0624 00:10:59.158783  2542 net.cpp:106] Creating Layer conv4_9_1x1_reduce/bn
I0624 00:10:59.158787  2542 net.cpp:454] conv4_9_1x1_reduce/bn <- conv4_9_1x1_reduce
I0624 00:10:59.158790  2542 net.cpp:397] conv4_9_1x1_reduce/bn -> conv4_9_1x1_reduce (in-place)
I0624 00:10:59.158923  2542 net.cpp:150] Setting up conv4_9_1x1_reduce/bn
I0624 00:10:59.158927  2542 net.cpp:157] Top shape: 2 256 60 60 (1843200)
I0624 00:10:59.158931  2542 net.cpp:165] Memory required for data: 3453809200
I0624 00:10:59.158967  2542 layer_factory.hpp:77] Creating layer conv4_9_1x1_reduce/relu
I0624 00:10:59.158972  2542 net.cpp:106] Creating Layer conv4_9_1x1_reduce/relu
I0624 00:10:59.158975  2542 net.cpp:454] conv4_9_1x1_reduce/relu <- conv4_9_1x1_reduce
I0624 00:10:59.158978  2542 net.cpp:397] conv4_9_1x1_reduce/relu -> conv4_9_1x1_reduce (in-place)
I0624 00:10:59.158982  2542 net.cpp:150] Setting up conv4_9_1x1_reduce/relu
I0624 00:10:59.158985  2542 net.cpp:157] Top shape: 2 256 60 60 (1843200)
I0624 00:10:59.158988  2542 net.cpp:165] Memory required for data: 3461182000
I0624 00:10:59.158990  2542 layer_factory.hpp:77] Creating layer conv4_9_3x3
I0624 00:10:59.158996  2542 net.cpp:106] Creating Layer conv4_9_3x3
I0624 00:10:59.158998  2542 net.cpp:454] conv4_9_3x3 <- conv4_9_1x1_reduce
I0624 00:10:59.159003  2542 net.cpp:411] conv4_9_3x3 -> conv4_9_3x3
I0624 00:10:59.172147  2542 net.cpp:150] Setting up conv4_9_3x3
I0624 00:10:59.172199  2542 net.cpp:157] Top shape: 2 256 60 60 (1843200)
I0624 00:10:59.172201  2542 net.cpp:165] Memory required for data: 3468554800
I0624 00:10:59.172214  2542 layer_factory.hpp:77] Creating layer conv4_9_3x3/bn
I0624 00:10:59.172230  2542 net.cpp:106] Creating Layer conv4_9_3x3/bn
I0624 00:10:59.172237  2542 net.cpp:454] conv4_9_3x3/bn <- conv4_9_3x3
I0624 00:10:59.172245  2542 net.cpp:397] conv4_9_3x3/bn -> conv4_9_3x3 (in-place)
I0624 00:10:59.172454  2542 net.cpp:150] Setting up conv4_9_3x3/bn
I0624 00:10:59.172459  2542 net.cpp:157] Top shape: 2 256 60 60 (1843200)
I0624 00:10:59.172464  2542 net.cpp:165] Memory required for data: 3475927600
I0624 00:10:59.172471  2542 layer_factory.hpp:77] Creating layer conv4_9_3x3/relu
I0624 00:10:59.172479  2542 net.cpp:106] Creating Layer conv4_9_3x3/relu
I0624 00:10:59.172482  2542 net.cpp:454] conv4_9_3x3/relu <- conv4_9_3x3
I0624 00:10:59.172487  2542 net.cpp:397] conv4_9_3x3/relu -> conv4_9_3x3 (in-place)
I0624 00:10:59.172490  2542 net.cpp:150] Setting up conv4_9_3x3/relu
I0624 00:10:59.172494  2542 net.cpp:157] Top shape: 2 256 60 60 (1843200)
I0624 00:10:59.172497  2542 net.cpp:165] Memory required for data: 3483300400
I0624 00:10:59.172500  2542 layer_factory.hpp:77] Creating layer conv4_9_1x1_increase
I0624 00:10:59.172510  2542 net.cpp:106] Creating Layer conv4_9_1x1_increase
I0624 00:10:59.172514  2542 net.cpp:454] conv4_9_1x1_increase <- conv4_9_3x3
I0624 00:10:59.172519  2542 net.cpp:411] conv4_9_1x1_increase -> conv4_9_1x1_increase
I0624 00:10:59.178786  2542 net.cpp:150] Setting up conv4_9_1x1_increase
I0624 00:10:59.178793  2542 net.cpp:157] Top shape: 2 1024 60 60 (7372800)
I0624 00:10:59.178797  2542 net.cpp:165] Memory required for data: 3512791600
I0624 00:10:59.178800  2542 layer_factory.hpp:77] Creating layer conv4_9_1x1_increase/bn
I0624 00:10:59.178807  2542 net.cpp:106] Creating Layer conv4_9_1x1_increase/bn
I0624 00:10:59.178809  2542 net.cpp:454] conv4_9_1x1_increase/bn <- conv4_9_1x1_increase
I0624 00:10:59.178814  2542 net.cpp:397] conv4_9_1x1_increase/bn -> conv4_9_1x1_increase (in-place)
I0624 00:10:59.178959  2542 net.cpp:150] Setting up conv4_9_1x1_increase/bn
I0624 00:10:59.178963  2542 net.cpp:157] Top shape: 2 1024 60 60 (7372800)
I0624 00:10:59.178980  2542 net.cpp:165] Memory required for data: 3542282800
I0624 00:10:59.178987  2542 layer_factory.hpp:77] Creating layer conv4_9
I0624 00:10:59.178990  2542 net.cpp:106] Creating Layer conv4_9
I0624 00:10:59.178993  2542 net.cpp:454] conv4_9 <- conv4_8_conv4_8/relu_0_split_1
I0624 00:10:59.178997  2542 net.cpp:454] conv4_9 <- conv4_9_1x1_increase
I0624 00:10:59.179000  2542 net.cpp:411] conv4_9 -> conv4_9
I0624 00:10:59.179018  2542 net.cpp:150] Setting up conv4_9
I0624 00:10:59.179023  2542 net.cpp:157] Top shape: 2 1024 60 60 (7372800)
I0624 00:10:59.179024  2542 net.cpp:165] Memory required for data: 3571774000
I0624 00:10:59.179026  2542 layer_factory.hpp:77] Creating layer conv4_9/relu
I0624 00:10:59.179031  2542 net.cpp:106] Creating Layer conv4_9/relu
I0624 00:10:59.179034  2542 net.cpp:454] conv4_9/relu <- conv4_9
I0624 00:10:59.179038  2542 net.cpp:397] conv4_9/relu -> conv4_9 (in-place)
I0624 00:10:59.179041  2542 net.cpp:150] Setting up conv4_9/relu
I0624 00:10:59.179044  2542 net.cpp:157] Top shape: 2 1024 60 60 (7372800)
I0624 00:10:59.179047  2542 net.cpp:165] Memory required for data: 3601265200
I0624 00:10:59.179049  2542 layer_factory.hpp:77] Creating layer conv4_9_conv4_9/relu_0_split
I0624 00:10:59.179054  2542 net.cpp:106] Creating Layer conv4_9_conv4_9/relu_0_split
I0624 00:10:59.179055  2542 net.cpp:454] conv4_9_conv4_9/relu_0_split <- conv4_9
I0624 00:10:59.179059  2542 net.cpp:411] conv4_9_conv4_9/relu_0_split -> conv4_9_conv4_9/relu_0_split_0
I0624 00:10:59.179064  2542 net.cpp:411] conv4_9_conv4_9/relu_0_split -> conv4_9_conv4_9/relu_0_split_1
I0624 00:10:59.179086  2542 net.cpp:150] Setting up conv4_9_conv4_9/relu_0_split
I0624 00:10:59.179090  2542 net.cpp:157] Top shape: 2 1024 60 60 (7372800)
I0624 00:10:59.179093  2542 net.cpp:157] Top shape: 2 1024 60 60 (7372800)
I0624 00:10:59.179095  2542 net.cpp:165] Memory required for data: 3660247600
I0624 00:10:59.179098  2542 layer_factory.hpp:77] Creating layer conv4_10_1x1_reduce
I0624 00:10:59.179105  2542 net.cpp:106] Creating Layer conv4_10_1x1_reduce
I0624 00:10:59.179108  2542 net.cpp:454] conv4_10_1x1_reduce <- conv4_9_conv4_9/relu_0_split_0
I0624 00:10:59.179112  2542 net.cpp:411] conv4_10_1x1_reduce -> conv4_10_1x1_reduce
I0624 00:10:59.184634  2542 net.cpp:150] Setting up conv4_10_1x1_reduce
I0624 00:10:59.184643  2542 net.cpp:157] Top shape: 2 256 60 60 (1843200)
I0624 00:10:59.184646  2542 net.cpp:165] Memory required for data: 3667620400
I0624 00:10:59.184651  2542 layer_factory.hpp:77] Creating layer conv4_10_1x1_reduce/bn
I0624 00:10:59.184659  2542 net.cpp:106] Creating Layer conv4_10_1x1_reduce/bn
I0624 00:10:59.184664  2542 net.cpp:454] conv4_10_1x1_reduce/bn <- conv4_10_1x1_reduce
I0624 00:10:59.184669  2542 net.cpp:397] conv4_10_1x1_reduce/bn -> conv4_10_1x1_reduce (in-place)
I0624 00:10:59.184824  2542 net.cpp:150] Setting up conv4_10_1x1_reduce/bn
I0624 00:10:59.184829  2542 net.cpp:157] Top shape: 2 256 60 60 (1843200)
I0624 00:10:59.184834  2542 net.cpp:165] Memory required for data: 3674993200
I0624 00:10:59.184839  2542 layer_factory.hpp:77] Creating layer conv4_10_1x1_reduce/relu
I0624 00:10:59.184847  2542 net.cpp:106] Creating Layer conv4_10_1x1_reduce/relu
I0624 00:10:59.184850  2542 net.cpp:454] conv4_10_1x1_reduce/relu <- conv4_10_1x1_reduce
I0624 00:10:59.184854  2542 net.cpp:397] conv4_10_1x1_reduce/relu -> conv4_10_1x1_reduce (in-place)
I0624 00:10:59.184859  2542 net.cpp:150] Setting up conv4_10_1x1_reduce/relu
I0624 00:10:59.184862  2542 net.cpp:157] Top shape: 2 256 60 60 (1843200)
I0624 00:10:59.184865  2542 net.cpp:165] Memory required for data: 3682366000
I0624 00:10:59.184870  2542 layer_factory.hpp:77] Creating layer conv4_10_3x3
I0624 00:10:59.184876  2542 net.cpp:106] Creating Layer conv4_10_3x3
I0624 00:10:59.184880  2542 net.cpp:454] conv4_10_3x3 <- conv4_10_1x1_reduce
I0624 00:10:59.184883  2542 net.cpp:411] conv4_10_3x3 -> conv4_10_3x3
I0624 00:10:59.198379  2542 net.cpp:150] Setting up conv4_10_3x3
I0624 00:10:59.198444  2542 net.cpp:157] Top shape: 2 256 60 60 (1843200)
I0624 00:10:59.198494  2542 net.cpp:165] Memory required for data: 3689738800
I0624 00:10:59.198506  2542 layer_factory.hpp:77] Creating layer conv4_10_3x3/bn
I0624 00:10:59.198524  2542 net.cpp:106] Creating Layer conv4_10_3x3/bn
I0624 00:10:59.198534  2542 net.cpp:454] conv4_10_3x3/bn <- conv4_10_3x3
I0624 00:10:59.198541  2542 net.cpp:397] conv4_10_3x3/bn -> conv4_10_3x3 (in-place)
I0624 00:10:59.198740  2542 net.cpp:150] Setting up conv4_10_3x3/bn
I0624 00:10:59.198745  2542 net.cpp:157] Top shape: 2 256 60 60 (1843200)
I0624 00:10:59.198751  2542 net.cpp:165] Memory required for data: 3697111600
I0624 00:10:59.198757  2542 layer_factory.hpp:77] Creating layer conv4_10_3x3/relu
I0624 00:10:59.198766  2542 net.cpp:106] Creating Layer conv4_10_3x3/relu
I0624 00:10:59.198770  2542 net.cpp:454] conv4_10_3x3/relu <- conv4_10_3x3
I0624 00:10:59.198773  2542 net.cpp:397] conv4_10_3x3/relu -> conv4_10_3x3 (in-place)
I0624 00:10:59.198778  2542 net.cpp:150] Setting up conv4_10_3x3/relu
I0624 00:10:59.198781  2542 net.cpp:157] Top shape: 2 256 60 60 (1843200)
I0624 00:10:59.198784  2542 net.cpp:165] Memory required for data: 3704484400
I0624 00:10:59.198787  2542 layer_factory.hpp:77] Creating layer conv4_10_1x1_increase
I0624 00:10:59.198796  2542 net.cpp:106] Creating Layer conv4_10_1x1_increase
I0624 00:10:59.198798  2542 net.cpp:454] conv4_10_1x1_increase <- conv4_10_3x3
I0624 00:10:59.198803  2542 net.cpp:411] conv4_10_1x1_increase -> conv4_10_1x1_increase
I0624 00:10:59.205409  2542 net.cpp:150] Setting up conv4_10_1x1_increase
I0624 00:10:59.205425  2542 net.cpp:157] Top shape: 2 1024 60 60 (7372800)
I0624 00:10:59.205427  2542 net.cpp:165] Memory required for data: 3733975600
I0624 00:10:59.205431  2542 layer_factory.hpp:77] Creating layer conv4_10_1x1_increase/bn
I0624 00:10:59.205440  2542 net.cpp:106] Creating Layer conv4_10_1x1_increase/bn
I0624 00:10:59.205443  2542 net.cpp:454] conv4_10_1x1_increase/bn <- conv4_10_1x1_increase
I0624 00:10:59.205448  2542 net.cpp:397] conv4_10_1x1_increase/bn -> conv4_10_1x1_increase (in-place)
I0624 00:10:59.205620  2542 net.cpp:150] Setting up conv4_10_1x1_increase/bn
I0624 00:10:59.205626  2542 net.cpp:157] Top shape: 2 1024 60 60 (7372800)
I0624 00:10:59.205627  2542 net.cpp:165] Memory required for data: 3763466800
I0624 00:10:59.205633  2542 layer_factory.hpp:77] Creating layer conv4_10
I0624 00:10:59.205639  2542 net.cpp:106] Creating Layer conv4_10
I0624 00:10:59.205642  2542 net.cpp:454] conv4_10 <- conv4_9_conv4_9/relu_0_split_1
I0624 00:10:59.205646  2542 net.cpp:454] conv4_10 <- conv4_10_1x1_increase
I0624 00:10:59.205651  2542 net.cpp:411] conv4_10 -> conv4_10
I0624 00:10:59.205672  2542 net.cpp:150] Setting up conv4_10
I0624 00:10:59.205677  2542 net.cpp:157] Top shape: 2 1024 60 60 (7372800)
I0624 00:10:59.205679  2542 net.cpp:165] Memory required for data: 3792958000
I0624 00:10:59.205682  2542 layer_factory.hpp:77] Creating layer conv4_10/relu
I0624 00:10:59.205685  2542 net.cpp:106] Creating Layer conv4_10/relu
I0624 00:10:59.205688  2542 net.cpp:454] conv4_10/relu <- conv4_10
I0624 00:10:59.205691  2542 net.cpp:397] conv4_10/relu -> conv4_10 (in-place)
I0624 00:10:59.205695  2542 net.cpp:150] Setting up conv4_10/relu
I0624 00:10:59.205699  2542 net.cpp:157] Top shape: 2 1024 60 60 (7372800)
I0624 00:10:59.205701  2542 net.cpp:165] Memory required for data: 3822449200
I0624 00:10:59.205704  2542 layer_factory.hpp:77] Creating layer conv4_10_conv4_10/relu_0_split
I0624 00:10:59.205708  2542 net.cpp:106] Creating Layer conv4_10_conv4_10/relu_0_split
I0624 00:10:59.205710  2542 net.cpp:454] conv4_10_conv4_10/relu_0_split <- conv4_10
I0624 00:10:59.205714  2542 net.cpp:411] conv4_10_conv4_10/relu_0_split -> conv4_10_conv4_10/relu_0_split_0
I0624 00:10:59.205719  2542 net.cpp:411] conv4_10_conv4_10/relu_0_split -> conv4_10_conv4_10/relu_0_split_1
I0624 00:10:59.205741  2542 net.cpp:150] Setting up conv4_10_conv4_10/relu_0_split
I0624 00:10:59.205745  2542 net.cpp:157] Top shape: 2 1024 60 60 (7372800)
I0624 00:10:59.205749  2542 net.cpp:157] Top shape: 2 1024 60 60 (7372800)
I0624 00:10:59.205765  2542 net.cpp:165] Memory required for data: 3881431600
I0624 00:10:59.205767  2542 layer_factory.hpp:77] Creating layer conv4_11_1x1_reduce
I0624 00:10:59.205775  2542 net.cpp:106] Creating Layer conv4_11_1x1_reduce
I0624 00:10:59.205777  2542 net.cpp:454] conv4_11_1x1_reduce <- conv4_10_conv4_10/relu_0_split_0
I0624 00:10:59.205781  2542 net.cpp:411] conv4_11_1x1_reduce -> conv4_11_1x1_reduce
I0624 00:10:59.211361  2542 net.cpp:150] Setting up conv4_11_1x1_reduce
I0624 00:10:59.211369  2542 net.cpp:157] Top shape: 2 256 60 60 (1843200)
I0624 00:10:59.211371  2542 net.cpp:165] Memory required for data: 3888804400
I0624 00:10:59.211376  2542 layer_factory.hpp:77] Creating layer conv4_11_1x1_reduce/bn
I0624 00:10:59.211381  2542 net.cpp:106] Creating Layer conv4_11_1x1_reduce/bn
I0624 00:10:59.211385  2542 net.cpp:454] conv4_11_1x1_reduce/bn <- conv4_11_1x1_reduce
I0624 00:10:59.211390  2542 net.cpp:397] conv4_11_1x1_reduce/bn -> conv4_11_1x1_reduce (in-place)
I0624 00:10:59.211534  2542 net.cpp:150] Setting up conv4_11_1x1_reduce/bn
I0624 00:10:59.211537  2542 net.cpp:157] Top shape: 2 256 60 60 (1843200)
I0624 00:10:59.211540  2542 net.cpp:165] Memory required for data: 3896177200
I0624 00:10:59.211545  2542 layer_factory.hpp:77] Creating layer conv4_11_1x1_reduce/relu
I0624 00:10:59.211552  2542 net.cpp:106] Creating Layer conv4_11_1x1_reduce/relu
I0624 00:10:59.211555  2542 net.cpp:454] conv4_11_1x1_reduce/relu <- conv4_11_1x1_reduce
I0624 00:10:59.211558  2542 net.cpp:397] conv4_11_1x1_reduce/relu -> conv4_11_1x1_reduce (in-place)
I0624 00:10:59.211561  2542 net.cpp:150] Setting up conv4_11_1x1_reduce/relu
I0624 00:10:59.211565  2542 net.cpp:157] Top shape: 2 256 60 60 (1843200)
I0624 00:10:59.211567  2542 net.cpp:165] Memory required for data: 3903550000
I0624 00:10:59.211570  2542 layer_factory.hpp:77] Creating layer conv4_11_3x3
I0624 00:10:59.211575  2542 net.cpp:106] Creating Layer conv4_11_3x3
I0624 00:10:59.211577  2542 net.cpp:454] conv4_11_3x3 <- conv4_11_1x1_reduce
I0624 00:10:59.211582  2542 net.cpp:411] conv4_11_3x3 -> conv4_11_3x3
I0624 00:10:59.224813  2542 net.cpp:150] Setting up conv4_11_3x3
I0624 00:10:59.224835  2542 net.cpp:157] Top shape: 2 256 60 60 (1843200)
I0624 00:10:59.224838  2542 net.cpp:165] Memory required for data: 3910922800
I0624 00:10:59.224843  2542 layer_factory.hpp:77] Creating layer conv4_11_3x3/bn
I0624 00:10:59.224851  2542 net.cpp:106] Creating Layer conv4_11_3x3/bn
I0624 00:10:59.224856  2542 net.cpp:454] conv4_11_3x3/bn <- conv4_11_3x3
I0624 00:10:59.224862  2542 net.cpp:397] conv4_11_3x3/bn -> conv4_11_3x3 (in-place)
I0624 00:10:59.225021  2542 net.cpp:150] Setting up conv4_11_3x3/bn
I0624 00:10:59.225028  2542 net.cpp:157] Top shape: 2 256 60 60 (1843200)
I0624 00:10:59.225029  2542 net.cpp:165] Memory required for data: 3918295600
I0624 00:10:59.225034  2542 layer_factory.hpp:77] Creating layer conv4_11_3x3/relu
…
I0624 00:10:59.545271  2542 net.cpp:150] Setting up conv4_21/relu
I0624 00:10:59.545274  2542 net.cpp:157] Top shape: 2 1024 60 60 (7372800)
I0624 00:10:59.545277  2542 net.cpp:165] Memory required for data: 6255473200
I0624 00:10:59.545279  2542 layer_factory.hpp:77] Creating layer conv4_21_conv4_21/relu_0_split
I0624 00:10:59.545284  2542 net.cpp:106] Creating Layer conv4_21_conv4_21/relu_0_split
I0624 00:10:59.545287  2542 net.cpp:454] conv4_21_conv4_21/relu_0_split <- conv4_21
I0624 00:10:59.545291  2542 net.cpp:411] conv4_21_conv4_21/relu_0_split -> conv4_21_conv4_21/relu_0_split_0
I0624 00:10:59.545295  2542 net.cpp:411] conv4_21_conv4_21/relu_0_split -> conv4_21_conv4_21/relu_0_split_1
I0624 00:10:59.545343  2542 net.cpp:150] Setting up conv4_21_conv4_21/relu_0_split
I0624 00:10:59.545348  2542 net.cpp:157] Top shape: 2 1024 60 60 (7372800)
I0624 00:10:59.545352  2542 net.cpp:157] Top shape: 2 1024 60 60 (7372800)
I0624 00:10:59.545354  2542 net.cpp:165] Memory required for data: 6314455600
I0624 00:10:59.545357  2542 layer_factory.hpp:77] Creating layer conv4_22_1x1_reduce
I0624 00:10:59.545369  2542 net.cpp:106] Creating Layer conv4_22_1x1_reduce
I0624 00:10:59.545372  2542 net.cpp:454] conv4_22_1x1_reduce <- conv4_21_conv4_21/relu_0_split_0
I0624 00:10:59.545377  2542 net.cpp:411] conv4_22_1x1_reduce -> conv4_22_1x1_reduce
I0624 00:10:59.552100  2542 net.cpp:150] Setting up conv4_22_1x1_reduce
I0624 00:10:59.552135  2542 net.cpp:157] Top shape: 2 256 60 60 (1843200)
I0624 00:10:59.552139  2542 net.cpp:165] Memory required for data: 6321828400
I0624 00:10:59.552147  2542 layer_factory.hpp:77] Creating layer conv4_22_1x1_reduce/bn
I0624 00:10:59.552161  2542 net.cpp:106] Creating Layer conv4_22_1x1_reduce/bn
I0624 00:10:59.552168  2542 net.cpp:454] conv4_22_1x1_reduce/bn <- conv4_22_1x1_reduce
I0624 00:10:59.552178  2542 net.cpp:397] conv4_22_1x1_reduce/bn -> conv4_22_1x1_reduce (in-place)
I0624 00:10:59.552389  2542 net.cpp:150] Setting up conv4_22_1x1_reduce/bn
I0624 00:10:59.552394  2542 net.cpp:157] Top shape: 2 256 60 60 (1843200)
I0624 00:10:59.552397  2542 net.cpp:165] Memory required for data: 6329201200
I0624 00:10:59.552403  2542 layer_factory.hpp:77] Creating layer conv4_22_1x1_reduce/relu
I0624 00:10:59.552412  2542 net.cpp:106] Creating Layer conv4_22_1x1_reduce/relu
I0624 00:10:59.552414  2542 net.cpp:454] conv4_22_1x1_reduce/relu <- conv4_22_1x1_reduce
I0624 00:10:59.552418  2542 net.cpp:397] conv4_22_1x1_reduce/relu -> conv4_22_1x1_reduce (in-place)
I0624 00:10:59.552423  2542 net.cpp:150] Setting up conv4_22_1x1_reduce/relu
I0624 00:10:59.552426  2542 net.cpp:157] Top shape: 2 256 60 60 (1843200)
I0624 00:10:59.552429  2542 net.cpp:165] Memory required for data: 6336574000
I0624 00:10:59.552431  2542 layer_factory.hpp:77] Creating layer conv4_22_3x3
I0624 00:10:59.552439  2542 net.cpp:106] Creating Layer conv4_22_3x3
I0624 00:10:59.552441  2542 net.cpp:454] conv4_22_3x3 <- conv4_22_1x1_reduce
I0624 00:10:59.552446  2542 net.cpp:411] conv4_22_3x3 -> conv4_22_3x3
I0624 00:10:59.567507  2542 net.cpp:150] Setting up conv4_22_3x3
I0624 00:10:59.567564  2542 net.cpp:157] Top shape: 2 256 60 60 (1843200)
I0624 00:10:59.567567  2542 net.cpp:165] Memory required for data: 6343946800
I0624 00:10:59.567580  2542 layer_factory.hpp:77] Creating layer conv4_22_3x3/bn
I0624 00:10:59.567596  2542 net.cpp:106] Creating Layer conv4_22_3x3/bn
I0624 00:10:59.567607  2542 net.cpp:454] conv4_22_3x3/bn <- conv4_22_3x3
I0624 00:10:59.567615  2542 net.cpp:397] conv4_22_3x3/bn -> conv4_22_3x3 (in-place)
I0624 00:10:59.567849  2542 net.cpp:150] Setting up conv4_22_3x3/bn
I0624 00:10:59.567854  2542 net.cpp:157] Top shape: 2 256 60 60 (1843200)
I0624 00:10:59.567859  2542 net.cpp:165] Memory required for data: 6351319600
I0624 00:10:59.567867  2542 layer_factory.hpp:77] Creating layer conv4_22_3x3/relu
I0624 00:10:59.567876  2542 net.cpp:106] Creating Layer conv4_22_3x3/relu
I0624 00:10:59.567879  2542 net.cpp:454] conv4_22_3x3/relu <- conv4_22_3x3
I0624 00:10:59.567885  2542 net.cpp:397] conv4_22_3x3/relu -> conv4_22_3x3 (in-place)
I0624 00:10:59.567890  2542 net.cpp:150] Setting up conv4_22_3x3/relu
I0624 00:10:59.567894  2542 net.cpp:157] Top shape: 2 256 60 60 (1843200)
I0624 00:10:59.567896  2542 net.cpp:165] Memory required for data: 6358692400
I0624 00:10:59.567900  2542 layer_factory.hpp:77] Creating layer conv4_22_1x1_increase
I0624 00:10:59.567912  2542 net.cpp:106] Creating Layer conv4_22_1x1_increase
I0624 00:10:59.567915  2542 net.cpp:454] conv4_22_1x1_increase <- conv4_22_3x3
I0624 00:10:59.567920  2542 net.cpp:411] conv4_22_1x1_increase -> conv4_22_1x1_increase
I0624 00:10:59.576177  2542 net.cpp:150] Setting up conv4_22_1x1_increase
I0624 00:10:59.576251  2542 net.cpp:157] Top shape: 2 1024 60 60 (7372800)
I0624 00:10:59.576306  2542 net.cpp:165] Memory required for data: 6388183600
I0624 00:10:59.576321  2542 layer_factory.hpp:77] Creating layer conv4_22_1x1_increase/bn
I0624 00:10:59.576345  2542 net.cpp:106] Creating Layer conv4_22_1x1_increase/bn
I0624 00:10:59.576356  2542 net.cpp:454] conv4_22_1x1_increase/bn <- conv4_22_1x1_increase
I0624 00:10:59.576369  2542 net.cpp:397] conv4_22_1x1_increase/bn -> conv4_22_1x1_increase (in-place)
I0624 00:10:59.576675  2542 net.cpp:150] Setting up conv4_22_1x1_increase/bn
I0624 00:10:59.576683  2542 net.cpp:157] Top shape: 2 1024 60 60 (7372800)
I0624 00:10:59.576692  2542 net.cpp:165] Memory required for data: 6417674800
I0624 00:10:59.576702  2542 layer_factory.hpp:77] Creating layer conv4_22
I0624 00:10:59.576714  2542 net.cpp:106] Creating Layer conv4_22
I0624 00:10:59.576720  2542 net.cpp:454] conv4_22 <- conv4_21_conv4_21/relu_0_split_1
I0624 00:10:59.576725  2542 net.cpp:454] conv4_22 <- conv4_22_1x1_increase
I0624 00:10:59.576733  2542 net.cpp:411] conv4_22 -> conv4_22
I0624 00:10:59.576771  2542 net.cpp:150] Setting up conv4_22
I0624 00:10:59.576779  2542 net.cpp:157] Top shape: 2 1024 60 60 (7372800)
I0624 00:10:59.576783  2542 net.cpp:165] Memory required for data: 6447166000
I0624 00:10:59.576787  2542 layer_factory.hpp:77] Creating layer conv4_22/relu
I0624 00:10:59.576798  2542 net.cpp:106] Creating Layer conv4_22/relu
I0624 00:10:59.576802  2542 net.cpp:454] conv4_22/relu <- conv4_22
I0624 00:10:59.576807  2542 net.cpp:397] conv4_22/relu -> conv4_22 (in-place)
I0624 00:10:59.576814  2542 net.cpp:150] Setting up conv4_22/relu
I0624 00:10:59.576819  2542 net.cpp:157] Top shape: 2 1024 60 60 (7372800)
I0624 00:10:59.576823  2542 net.cpp:165] Memory required for data: 6476657200
I0624 00:10:59.576828  2542 layer_factory.hpp:77] Creating layer conv4_22_conv4_22/relu_0_split
I0624 00:10:59.576836  2542 net.cpp:106] Creating Layer conv4_22_conv4_22/relu_0_split
I0624 00:10:59.576840  2542 net.cpp:454] conv4_22_conv4_22/relu_0_split <- conv4_22
I0624 00:10:59.576848  2542 net.cpp:411] conv4_22_conv4_22/relu_0_split -> conv4_22_conv4_22/relu_0_split_0
I0624 00:10:59.576854  2542 net.cpp:411] conv4_22_conv4_22/relu_0_split -> conv4_22_conv4_22/relu_0_split_1
I0624 00:10:59.576889  2542 net.cpp:150] Setting up conv4_22_conv4_22/relu_0_split
I0624 00:10:59.576896  2542 net.cpp:157] Top shape: 2 1024 60 60 (7372800)
I0624 00:10:59.576901  2542 net.cpp:157] Top shape: 2 1024 60 60 (7372800)
I0624 00:10:59.576905  2542 net.cpp:165] Memory required for data: 6535639600
I0624 00:10:59.576910  2542 layer_factory.hpp:77] Creating layer conv4_23_1x1_reduce
I0624 00:10:59.576926  2542 net.cpp:106] Creating Layer conv4_23_1x1_reduce
I0624 00:10:59.576930  2542 net.cpp:454] conv4_23_1x1_reduce <- conv4_22_conv4_22/relu_0_split_0
I0624 00:10:59.576956  2542 net.cpp:411] conv4_23_1x1_reduce -> conv4_23_1x1_reduce
I0624 00:10:59.585229  2542 net.cpp:150] Setting up conv4_23_1x1_reduce
I0624 00:10:59.585260  2542 net.cpp:157] Top shape: 2 256 60 60 (1843200)
I0624 00:10:59.585263  2542 net.cpp:165] Memory required for data: 6543012400
I0624 00:10:59.585271  2542 layer_factory.hpp:77] Creating layer conv4_23_1x1_reduce/bn
I0624 00:10:59.585286  2542 net.cpp:106] Creating Layer conv4_23_1x1_reduce/bn
I0624 00:10:59.585297  2542 net.cpp:454] conv4_23_1x1_reduce/bn <- conv4_23_1x1_reduce
I0624 00:10:59.585311  2542 net.cpp:397] conv4_23_1x1_reduce/bn -> conv4_23_1x1_reduce (in-place)
I0624 00:10:59.585503  2542 net.cpp:150] Setting up conv4_23_1x1_reduce/bn
I0624 00:10:59.585508  2542 net.cpp:157] Top shape: 2 256 60 60 (1843200)
I0624 00:10:59.585511  2542 net.cpp:165] Memory required for data: 6550385200
I0624 00:10:59.585516  2542 layer_factory.hpp:77] Creating layer conv4_23_1x1_reduce/relu
I0624 00:10:59.585522  2542 net.cpp:106] Creating Layer conv4_23_1x1_reduce/relu
I0624 00:10:59.585525  2542 net.cpp:454] conv4_23_1x1_reduce/relu <- conv4_23_1x1_reduce
I0624 00:10:59.585528  2542 net.cpp:397] conv4_23_1x1_reduce/relu -> conv4_23_1x1_reduce (in-place)
I0624 00:10:59.585556  2542 net.cpp:150] Setting up conv4_23_1x1_reduce/relu
I0624 00:10:59.585559  2542 net.cpp:157] Top shape: 2 256 60 60 (1843200)
I0624 00:10:59.585561  2542 net.cpp:165] Memory required for data: 6557758000
I0624 00:10:59.585564  2542 layer_factory.hpp:77] Creating layer conv4_23_3x3
I0624 00:10:59.585572  2542 net.cpp:106] Creating Layer conv4_23_3x3
I0624 00:10:59.585573  2542 net.cpp:454] conv4_23_3x3 <- conv4_23_1x1_reduce
I0624 00:10:59.585578  2542 net.cpp:411] conv4_23_3x3 -> conv4_23_3x3
I0624 00:10:59.598814  2542 net.cpp:150] Setting up conv4_23_3x3
I0624 00:10:59.598845  2542 net.cpp:157] Top shape: 2 256 60 60 (1843200)
I0624 00:10:59.598847  2542 net.cpp:165] Memory required for data: 6565130800
I0624 00:10:59.598855  2542 layer_factory.hpp:77] Creating layer conv4_23_3x3/bn
I0624 00:10:59.598862  2542 net.cpp:106] Creating Layer conv4_23_3x3/bn
I0624 00:10:59.598866  2542 net.cpp:454] conv4_23_3x3/bn <- conv4_23_3x3
I0624 00:10:59.598879  2542 net.cpp:397] conv4_23_3x3/bn -> conv4_23_3x3 (in-place)
I0624 00:10:59.599052  2542 net.cpp:150] Setting up conv4_23_3x3/bn
I0624 00:10:59.599057  2542 net.cpp:157] Top shape: 2 256 60 60 (1843200)
I0624 00:10:59.599059  2542 net.cpp:165] Memory required for data: 6572503600
I0624 00:10:59.599064  2542 layer_factory.hpp:77] Creating layer conv4_23_3x3/relu
I0624 00:10:59.599068  2542 net.cpp:106] Creating Layer conv4_23_3x3/relu
I0624 00:10:59.599071  2542 net.cpp:454] conv4_23_3x3/relu <- conv4_23_3x3
I0624 00:10:59.599074  2542 net.cpp:397] conv4_23_3x3/relu -> conv4_23_3x3 (in-place)
I0624 00:10:59.599078  2542 net.cpp:150] Setting up conv4_23_3x3/relu
I0624 00:10:59.599081  2542 net.cpp:157] Top shape: 2 256 60 60 (1843200)
I0624 00:10:59.599082  2542 net.cpp:165] Memory required for data: 6579876400
I0624 00:10:59.599086  2542 layer_factory.hpp:77] Creating layer conv4_23_1x1_increase
I0624 00:10:59.599092  2542 net.cpp:106] Creating Layer conv4_23_1x1_increase
I0624 00:10:59.599093  2542 net.cpp:454] conv4_23_1x1_increase <- conv4_23_3x3
I0624 00:10:59.599097  2542 net.cpp:411] conv4_23_1x1_increase -> conv4_23_1x1_increase
I0624 00:10:59.605705  2542 net.cpp:150] Setting up conv4_23_1x1_increase
I0624 00:10:59.605749  2542 net.cpp:157] Top shape: 2 1024 60 60 (7372800)
I0624 00:10:59.605753  2542 net.cpp:165] Memory required for data: 6609367600
I0624 00:10:59.605762  2542 layer_factory.hpp:77] Creating layer conv4_23_1x1_increase/bn
I0624 00:10:59.605777  2542 net.cpp:106] Creating Layer conv4_23_1x1_increase/bn
I0624 00:10:59.605783  2542 net.cpp:454] conv4_23_1x1_increase/bn <- conv4_23_1x1_increase
I0624 00:10:59.605790  2542 net.cpp:397] conv4_23_1x1_increase/bn -> conv4_23_1x1_increase (in-place)
I0624 00:10:59.606016  2542 net.cpp:150] Setting up conv4_23_1x1_increase/bn
I0624 00:10:59.606022  2542 net.cpp:157] Top shape: 2 1024 60 60 (7372800)
I0624 00:10:59.606026  2542 net.cpp:165] Memory required for data: 6638858800
I0624 00:10:59.606032  2542 layer_factory.hpp:77] Creating layer conv4_23
I0624 00:10:59.606040  2542 net.cpp:106] Creating Layer conv4_23
I0624 00:10:59.606047  2542 net.cpp:454] conv4_23 <- conv4_22_conv4_22/relu_0_split_1
I0624 00:10:59.606052  2542 net.cpp:454] conv4_23 <- conv4_23_1x1_increase
I0624 00:10:59.606060  2542 net.cpp:411] conv4_23 -> conv4_23
I0624 00:10:59.606106  2542 net.cpp:150] Setting up conv4_23
I0624 00:10:59.606115  2542 net.cpp:157] Top shape: 2 1024 60 60 (7372800)
I0624 00:10:59.606118  2542 net.cpp:165] Memory required for data: 6668350000
I0624 00:10:59.606123  2542 layer_factory.hpp:77] Creating layer conv4_23/relu
I0624 00:10:59.606133  2542 net.cpp:106] Creating Layer conv4_23/relu
I0624 00:10:59.606137  2542 net.cpp:454] conv4_23/relu <- conv4_23
I0624 00:10:59.606142  2542 net.cpp:397] conv4_23/relu -> conv4_23 (in-place)
I0624 00:10:59.606148  2542 net.cpp:150] Setting up conv4_23/relu
I0624 00:10:59.606153  2542 net.cpp:157] Top shape: 2 1024 60 60 (7372800)
I0624 00:10:59.606155  2542 net.cpp:165] Memory required for data: 6697841200
I0624 00:10:59.606159  2542 layer_factory.hpp:77] Creating layer conv4_23_conv4_23/relu_0_split
I0624 00:10:59.606220  2542 net.cpp:106] Creating Layer conv4_23_conv4_23/relu_0_split
I0624 00:10:59.606223  2542 net.cpp:454] conv4_23_conv4_23/relu_0_split <- conv4_23
I0624 00:10:59.606230  2542 net.cpp:411] conv4_23_conv4_23/relu_0_split -> conv4_23_conv4_23/relu_0_split_0
I0624 00:10:59.606237  2542 net.cpp:411] conv4_23_conv4_23/relu_0_split -> conv4_23_conv4_23/relu_0_split_1
I0624 00:10:59.606281  2542 net.cpp:150] Setting up conv4_23_conv4_23/relu_0_split
I0624 00:10:59.606287  2542 net.cpp:157] Top shape: 2 1024 60 60 (7372800)
I0624 00:10:59.606292  2542 net.cpp:157] Top shape: 2 1024 60 60 (7372800)
I0624 00:10:59.606297  2542 net.cpp:165] Memory required for data: 6756823600
I0624 00:10:59.606303  2542 layer_factory.hpp:77] Creating layer conv5_1_1x1_reduce
I0624 00:10:59.606317  2542 net.cpp:106] Creating Layer conv5_1_1x1_reduce
I0624 00:10:59.606322  2542 net.cpp:454] conv5_1_1x1_reduce <- conv4_23_conv4_23/relu_0_split_0
I0624 00:10:59.606333  2542 net.cpp:411] conv5_1_1x1_reduce -> conv5_1_1x1_reduce
I0624 00:10:59.618945  2542 net.cpp:150] Setting up conv5_1_1x1_reduce
I0624 00:10:59.618995  2542 net.cpp:157] Top shape: 2 512 60 60 (3686400)
I0624 00:10:59.618999  2542 net.cpp:165] Memory required for data: 6771569200
I0624 00:10:59.619010  2542 layer_factory.hpp:77] Creating layer conv5_1_1x1_reduce/bn
I0624 00:10:59.619035  2542 net.cpp:106] Creating Layer conv5_1_1x1_reduce/bn
I0624 00:10:59.619043  2542 net.cpp:454] conv5_1_1x1_reduce/bn <- conv5_1_1x1_reduce
I0624 00:10:59.619057  2542 net.cpp:397] conv5_1_1x1_reduce/bn -> conv5_1_1x1_reduce (in-place)
I0624 00:10:59.619334  2542 net.cpp:150] Setting up conv5_1_1x1_reduce/bn
I0624 00:10:59.619340  2542 net.cpp:157] Top shape: 2 512 60 60 (3686400)
I0624 00:10:59.619343  2542 net.cpp:165] Memory required for data: 6786314800
I0624 00:10:59.619348  2542 layer_factory.hpp:77] Creating layer conv5_1_1x1_reduce/relu
I0624 00:10:59.619352  2542 net.cpp:106] Creating Layer conv5_1_1x1_reduce/relu
I0624 00:10:59.619354  2542 net.cpp:454] conv5_1_1x1_reduce/relu <- conv5_1_1x1_reduce
I0624 00:10:59.619359  2542 net.cpp:397] conv5_1_1x1_reduce/relu -> conv5_1_1x1_reduce (in-place)
I0624 00:10:59.619362  2542 net.cpp:150] Setting up conv5_1_1x1_reduce/relu
I0624 00:10:59.619365  2542 net.cpp:157] Top shape: 2 512 60 60 (3686400)
I0624 00:10:59.619369  2542 net.cpp:165] Memory required for data: 6801060400
I0624 00:10:59.619372  2542 layer_factory.hpp:77] Creating layer conv5_1_3x3
I0624 00:10:59.619380  2542 net.cpp:106] Creating Layer conv5_1_3x3
I0624 00:10:59.619385  2542 net.cpp:454] conv5_1_3x3 <- conv5_1_1x1_reduce
I0624 00:10:59.619390  2542 net.cpp:411] conv5_1_3x3 -> conv5_1_3x3
I0624 00:10:59.675204  2542 net.cpp:150] Setting up conv5_1_3x3
I0624 00:10:59.675257  2542 net.cpp:157] Top shape: 2 512 60 60 (3686400)
I0624 00:10:59.675261  2542 net.cpp:165] Memory required for data: 6815806000
I0624 00:10:59.675274  2542 layer_factory.hpp:77] Creating layer conv5_1_3x3/bn
I0624 00:10:59.675297  2542 net.cpp:106] Creating Layer conv5_1_3x3/bn
I0624 00:10:59.675304  2542 net.cpp:454] conv5_1_3x3/bn <- conv5_1_3x3
I0624 00:10:59.675312  2542 net.cpp:397] conv5_1_3x3/bn -> conv5_1_3x3 (in-place)
I0624 00:10:59.675556  2542 net.cpp:150] Setting up conv5_1_3x3/bn
I0624 00:10:59.675562  2542 net.cpp:157] Top shape: 2 512 60 60 (3686400)
I0624 00:10:59.675565  2542 net.cpp:165] Memory required for data: 6830551600
I0624 00:10:59.675570  2542 layer_factory.hpp:77] Creating layer conv5_1_3x3/relu
I0624 00:10:59.675577  2542 net.cpp:106] Creating Layer conv5_1_3x3/relu
I0624 00:10:59.675580  2542 net.cpp:454] conv5_1_3x3/relu <- conv5_1_3x3
I0624 00:10:59.675583  2542 net.cpp:397] conv5_1_3x3/relu -> conv5_1_3x3 (in-place)
I0624 00:10:59.675590  2542 net.cpp:150] Setting up conv5_1_3x3/relu
I0624 00:10:59.675593  2542 net.cpp:157] Top shape: 2 512 60 60 (3686400)
I0624 00:10:59.675596  2542 net.cpp:165] Memory required for data: 6845297200
I0624 00:10:59.675599  2542 layer_factory.hpp:77] Creating layer conv5_1_1x1_increase
I0624 00:10:59.675645  2542 net.cpp:106] Creating Layer conv5_1_1x1_increase
I0624 00:10:59.675647  2542 net.cpp:454] conv5_1_1x1_increase <- conv5_1_3x3
I0624 00:10:59.675652  2542 net.cpp:411] conv5_1_1x1_increase -> conv5_1_1x1_increase
I0624 00:10:59.703193  2542 net.cpp:150] Setting up conv5_1_1x1_increase
I0624 00:10:59.703218  2542 net.cpp:157] Top shape: 2 2048 60 60 (14745600)
I0624 00:10:59.703222  2542 net.cpp:165] Memory required for data: 6904279600
I0624 00:10:59.703229  2542 layer_factory.hpp:77] Creating layer conv5_1_1x1_increase/bn
I0624 00:10:59.703241  2542 net.cpp:106] Creating Layer conv5_1_1x1_increase/bn
I0624 00:10:59.703246  2542 net.cpp:454] conv5_1_1x1_increase/bn <- conv5_1_1x1_increase
I0624 00:10:59.703251  2542 net.cpp:397] conv5_1_1x1_increase/bn -> conv5_1_1x1_increase (in-place)
I0624 00:10:59.703433  2542 net.cpp:150] Setting up conv5_1_1x1_increase/bn
I0624 00:10:59.703438  2542 net.cpp:157] Top shape: 2 2048 60 60 (14745600)
I0624 00:10:59.703440  2542 net.cpp:165] Memory required for data: 6963262000
I0624 00:10:59.703446  2542 layer_factory.hpp:77] Creating layer conv5_1_1x1_proj
I0624 00:10:59.703454  2542 net.cpp:106] Creating Layer conv5_1_1x1_proj
I0624 00:10:59.703460  2542 net.cpp:454] conv5_1_1x1_proj <- conv4_23_conv4_23/relu_0_split_1
I0624 00:10:59.703467  2542 net.cpp:411] conv5_1_1x1_proj -> conv5_1_1x1_proj
I0624 00:10:59.754925  2542 net.cpp:150] Setting up conv5_1_1x1_proj
I0624 00:10:59.755014  2542 net.cpp:157] Top shape: 2 2048 60 60 (14745600)
I0624 00:10:59.755022  2542 net.cpp:165] Memory required for data: 7022244400
I0624 00:10:59.755038  2542 layer_factory.hpp:77] Creating layer conv5_1_1x1_proj/bn
I0624 00:10:59.755065  2542 net.cpp:106] Creating Layer conv5_1_1x1_proj/bn
I0624 00:10:59.755079  2542 net.cpp:454] conv5_1_1x1_proj/bn <- conv5_1_1x1_proj
I0624 00:10:59.755094  2542 net.cpp:397] conv5_1_1x1_proj/bn -> conv5_1_1x1_proj (in-place)
I0624 00:10:59.755408  2542 net.cpp:150] Setting up conv5_1_1x1_proj/bn
I0624 00:10:59.755414  2542 net.cpp:157] Top shape: 2 2048 60 60 (14745600)
I0624 00:10:59.755419  2542 net.cpp:165] Memory required for data: 7081226800
I0624 00:10:59.755429  2542 layer_factory.hpp:77] Creating layer conv5_1
I0624 00:10:59.755439  2542 net.cpp:106] Creating Layer conv5_1
I0624 00:10:59.755444  2542 net.cpp:454] conv5_1 <- conv5_1_1x1_proj
I0624 00:10:59.755450  2542 net.cpp:454] conv5_1 <- conv5_1_1x1_increase
I0624 00:10:59.755460  2542 net.cpp:411] conv5_1 -> conv5_1
I0624 00:10:59.755497  2542 net.cpp:150] Setting up conv5_1
I0624 00:10:59.755503  2542 net.cpp:157] Top shape: 2 2048 60 60 (14745600)
I0624 00:10:59.755507  2542 net.cpp:165] Memory required for data: 7140209200
I0624 00:10:59.755512  2542 layer_factory.hpp:77] Creating layer conv5_1/relu
I0624 00:10:59.755522  2542 net.cpp:106] Creating Layer conv5_1/relu
I0624 00:10:59.755525  2542 net.cpp:454] conv5_1/relu <- conv5_1
I0624 00:10:59.755530  2542 net.cpp:397] conv5_1/relu -> conv5_1 (in-place)
I0624 00:10:59.755537  2542 net.cpp:150] Setting up conv5_1/relu
I0624 00:10:59.755542  2542 net.cpp:157] Top shape: 2 2048 60 60 (14745600)
I0624 00:10:59.755547  2542 net.cpp:165] Memory required for data: 7199191600
I0624 00:10:59.755550  2542 layer_factory.hpp:77] Creating layer conv5_1_conv5_1/relu_0_split
I0624 00:10:59.755559  2542 net.cpp:106] Creating Layer conv5_1_conv5_1/relu_0_split
I0624 00:10:59.755564  2542 net.cpp:454] conv5_1_conv5_1/relu_0_split <- conv5_1
I0624 00:10:59.755569  2542 net.cpp:411] conv5_1_conv5_1/relu_0_split -> conv5_1_conv5_1/relu_0_split_0
I0624 00:10:59.755575  2542 net.cpp:411] conv5_1_conv5_1/relu_0_split -> conv5_1_conv5_1/relu_0_split_1
I0624 00:10:59.755621  2542 net.cpp:150] Setting up conv5_1_conv5_1/relu_0_split
I0624 00:10:59.755627  2542 net.cpp:157] Top shape: 2 2048 60 60 (14745600)
I0624 00:10:59.755632  2542 net.cpp:157] Top shape: 2 2048 60 60 (14745600)
I0624 00:10:59.755636  2542 net.cpp:165] Memory required for data: 7317156400
I0624 00:10:59.755640  2542 layer_factory.hpp:77] Creating layer conv5_2_1x1_reduce
I0624 00:10:59.755707  2542 net.cpp:106] Creating Layer conv5_2_1x1_reduce
I0624 00:10:59.755712  2542 net.cpp:454] conv5_2_1x1_reduce <- conv5_1_conv5_1/relu_0_split_0
I0624 00:10:59.755717  2542 net.cpp:411] conv5_2_1x1_reduce -> conv5_2_1x1_reduce
I0624 00:10:59.782142  2542 net.cpp:150] Setting up conv5_2_1x1_reduce
I0624 00:10:59.782165  2542 net.cpp:157] Top shape: 2 512 60 60 (3686400)
I0624 00:10:59.782167  2542 net.cpp:165] Memory required for data: 7331902000
I0624 00:10:59.782173  2542 layer_factory.hpp:77] Creating layer conv5_2_1x1_reduce/bn
I0624 00:10:59.782181  2542 net.cpp:106] Creating Layer conv5_2_1x1_reduce/bn
I0624 00:10:59.782186  2542 net.cpp:454] conv5_2_1x1_reduce/bn <- conv5_2_1x1_reduce
I0624 00:10:59.782193  2542 net.cpp:397] conv5_2_1x1_reduce/bn -> conv5_2_1x1_reduce (in-place)
I0624 00:10:59.782387  2542 net.cpp:150] Setting up conv5_2_1x1_reduce/bn
I0624 00:10:59.782392  2542 net.cpp:157] Top shape: 2 512 60 60 (3686400)
I0624 00:10:59.782395  2542 net.cpp:165] Memory required for data: 7346647600
I0624 00:10:59.782400  2542 layer_factory.hpp:77] Creating layer conv5_2_1x1_reduce/relu
I0624 00:10:59.782405  2542 net.cpp:106] Creating Layer conv5_2_1x1_reduce/relu
I0624 00:10:59.782408  2542 net.cpp:454] conv5_2_1x1_reduce/relu <- conv5_2_1x1_reduce
I0624 00:10:59.782411  2542 net.cpp:397] conv5_2_1x1_reduce/relu -> conv5_2_1x1_reduce (in-place)
I0624 00:10:59.782416  2542 net.cpp:150] Setting up conv5_2_1x1_reduce/relu
I0624 00:10:59.782419  2542 net.cpp:157] Top shape: 2 512 60 60 (3686400)
I0624 00:10:59.782421  2542 net.cpp:165] Memory required for data: 7361393200
I0624 00:10:59.782424  2542 layer_factory.hpp:77] Creating layer conv5_2_3x3
I0624 00:10:59.782431  2542 net.cpp:106] Creating Layer conv5_2_3x3
I0624 00:10:59.782434  2542 net.cpp:454] conv5_2_3x3 <- conv5_2_1x1_reduce
I0624 00:10:59.782439  2542 net.cpp:411] conv5_2_3x3 -> conv5_2_3x3
I0624 00:10:59.838517  2542 net.cpp:150] Setting up conv5_2_3x3
I0624 00:10:59.838551  2542 net.cpp:157] Top shape: 2 512 60 60 (3686400)
I0624 00:10:59.838556  2542 net.cpp:165] Memory required for data: 7376138800
I0624 00:10:59.838562  2542 layer_factory.hpp:77] Creating layer conv5_2_3x3/bn
I0624 00:10:59.838573  2542 net.cpp:106] Creating Layer conv5_2_3x3/bn
I0624 00:10:59.838578  2542 net.cpp:454] conv5_2_3x3/bn <- conv5_2_3x3
I0624 00:10:59.838583  2542 net.cpp:397] conv5_2_3x3/bn -> conv5_2_3x3 (in-place)
I0624 00:10:59.838766  2542 net.cpp:150] Setting up conv5_2_3x3/bn
I0624 00:10:59.838771  2542 net.cpp:157] Top shape: 2 512 60 60 (3686400)
I0624 00:10:59.838773  2542 net.cpp:165] Memory required for data: 7390884400
I0624 00:10:59.838779  2542 layer_factory.hpp:77] Creating layer conv5_2_3x3/relu
I0624 00:10:59.838784  2542 net.cpp:106] Creating Layer conv5_2_3x3/relu
I0624 00:10:59.838788  2542 net.cpp:454] conv5_2_3x3/relu <- conv5_2_3x3
I0624 00:10:59.838790  2542 net.cpp:397] conv5_2_3x3/relu -> conv5_2_3x3 (in-place)
I0624 00:10:59.838794  2542 net.cpp:150] Setting up conv5_2_3x3/relu
I0624 00:10:59.838798  2542 net.cpp:157] Top shape: 2 512 60 60 (3686400)
I0624 00:10:59.838800  2542 net.cpp:165] Memory required for data: 7405630000
I0624 00:10:59.838804  2542 layer_factory.hpp:77] Creating layer conv5_2_1x1_increase
I0624 00:10:59.838811  2542 net.cpp:106] Creating Layer conv5_2_1x1_increase
I0624 00:10:59.838814  2542 net.cpp:454] conv5_2_1x1_increase <- conv5_2_3x3
I0624 00:10:59.838819  2542 net.cpp:411] conv5_2_1x1_increase -> conv5_2_1x1_increase
I0624 00:10:59.861975  2542 net.cpp:150] Setting up conv5_2_1x1_increase
I0624 00:10:59.861996  2542 net.cpp:157] Top shape: 2 2048 60 60 (14745600)
I0624 00:10:59.861999  2542 net.cpp:165] Memory required for data: 7464612400
I0624 00:10:59.862006  2542 layer_factory.hpp:77] Creating layer conv5_2_1x1_increase/bn
I0624 00:10:59.862022  2542 net.cpp:106] Creating Layer conv5_2_1x1_increase/bn
I0624 00:10:59.862031  2542 net.cpp:454] conv5_2_1x1_increase/bn <- conv5_2_1x1_increase
I0624 00:10:59.862037  2542 net.cpp:397] conv5_2_1x1_increase/bn -> conv5_2_1x1_increase (in-place)
I0624 00:10:59.862262  2542 net.cpp:150] Setting up conv5_2_1x1_increase/bn
I0624 00:10:59.862267  2542 net.cpp:157] Top shape: 2 2048 60 60 (14745600)
I0624 00:10:59.862269  2542 net.cpp:165] Memory required for data: 7523594800
I0624 00:10:59.862320  2542 layer_factory.hpp:77] Creating layer conv5_2
I0624 00:10:59.862325  2542 net.cpp:106] Creating Layer conv5_2
I0624 00:10:59.862329  2542 net.cpp:454] conv5_2 <- conv5_1_conv5_1/relu_0_split_1
I0624 00:10:59.862332  2542 net.cpp:454] conv5_2 <- conv5_2_1x1_increase
I0624 00:10:59.862336  2542 net.cpp:411] conv5_2 -> conv5_2
I0624 00:10:59.862359  2542 net.cpp:150] Setting up conv5_2
I0624 00:10:59.862362  2542 net.cpp:157] Top shape: 2 2048 60 60 (14745600)
I0624 00:10:59.862365  2542 net.cpp:165] Memory required for data: 7582577200
I0624 00:10:59.862368  2542 layer_factory.hpp:77] Creating layer conv5_2/relu
I0624 00:10:59.862373  2542 net.cpp:106] Creating Layer conv5_2/relu
I0624 00:10:59.862375  2542 net.cpp:454] conv5_2/relu <- conv5_2
I0624 00:10:59.862380  2542 net.cpp:397] conv5_2/relu -> conv5_2 (in-place)
I0624 00:10:59.862385  2542 net.cpp:150] Setting up conv5_2/relu
I0624 00:10:59.862388  2542 net.cpp:157] Top shape: 2 2048 60 60 (14745600)
I0624 00:10:59.862390  2542 net.cpp:165] Memory required for data: 7641559600
I0624 00:10:59.862393  2542 layer_factory.hpp:77] Creating layer conv5_2_conv5_2/relu_0_split
I0624 00:10:59.862397  2542 net.cpp:106] Creating Layer conv5_2_conv5_2/relu_0_split
I0624 00:10:59.862401  2542 net.cpp:454] conv5_2_conv5_2/relu_0_split <- conv5_2
I0624 00:10:59.862404  2542 net.cpp:411] conv5_2_conv5_2/relu_0_split -> conv5_2_conv5_2/relu_0_split_0
I0624 00:10:59.862408  2542 net.cpp:411] conv5_2_conv5_2/relu_0_split -> conv5_2_conv5_2/relu_0_split_1
I0624 00:10:59.862434  2542 net.cpp:150] Setting up conv5_2_conv5_2/relu_0_split
I0624 00:10:59.862438  2542 net.cpp:157] Top shape: 2 2048 60 60 (14745600)
I0624 00:10:59.862442  2542 net.cpp:157] Top shape: 2 2048 60 60 (14745600)
I0624 00:10:59.862444  2542 net.cpp:165] Memory required for data: 7759524400
I0624 00:10:59.862447  2542 layer_factory.hpp:77] Creating layer conv5_3_1x1_reduce
I0624 00:10:59.862453  2542 net.cpp:106] Creating Layer conv5_3_1x1_reduce
I0624 00:10:59.862457  2542 net.cpp:454] conv5_3_1x1_reduce <- conv5_2_conv5_2/relu_0_split_0
I0624 00:10:59.862462  2542 net.cpp:411] conv5_3_1x1_reduce -> conv5_3_1x1_reduce
I0624 00:10:59.886065  2542 net.cpp:150] Setting up conv5_3_1x1_reduce
I0624 00:10:59.886085  2542 net.cpp:157] Top shape: 2 512 60 60 (3686400)
I0624 00:10:59.886087  2542 net.cpp:165] Memory required for data: 7774270000
I0624 00:10:59.886092  2542 layer_factory.hpp:77] Creating layer conv5_3_1x1_reduce/bn
I0624 00:10:59.886101  2542 net.cpp:106] Creating Layer conv5_3_1x1_reduce/bn
I0624 00:10:59.886106  2542 net.cpp:454] conv5_3_1x1_reduce/bn <- conv5_3_1x1_reduce
I0624 00:10:59.886111  2542 net.cpp:397] conv5_3_1x1_reduce/bn -> conv5_3_1x1_reduce (in-place)
I0624 00:10:59.886296  2542 net.cpp:150] Setting up conv5_3_1x1_reduce/bn
I0624 00:10:59.886301  2542 net.cpp:157] Top shape: 2 512 60 60 (3686400)
I0624 00:10:59.886303  2542 net.cpp:165] Memory required for data: 7789015600
I0624 00:10:59.886308  2542 layer_factory.hpp:77] Creating layer conv5_3_1x1_reduce/relu
I0624 00:10:59.886313  2542 net.cpp:106] Creating Layer conv5_3_1x1_reduce/relu
I0624 00:10:59.886317  2542 net.cpp:454] conv5_3_1x1_reduce/relu <- conv5_3_1x1_reduce
I0624 00:10:59.886318  2542 net.cpp:397] conv5_3_1x1_reduce/relu -> conv5_3_1x1_reduce (in-place)
I0624 00:10:59.886322  2542 net.cpp:150] Setting up conv5_3_1x1_reduce/relu
I0624 00:10:59.886327  2542 net.cpp:157] Top shape: 2 512 60 60 (3686400)
I0624 00:10:59.886329  2542 net.cpp:165] Memory required for data: 7803761200
I0624 00:10:59.886332  2542 layer_factory.hpp:77] Creating layer conv5_3_3x3
I0624 00:10:59.886338  2542 net.cpp:106] Creating Layer conv5_3_3x3
I0624 00:10:59.886342  2542 net.cpp:454] conv5_3_3x3 <- conv5_3_1x1_reduce
I0624 00:10:59.886345  2542 net.cpp:411] conv5_3_3x3 -> conv5_3_3x3
I0624 00:10:59.944332  2542 net.cpp:150] Setting up conv5_3_3x3
I0624 00:10:59.944358  2542 net.cpp:157] Top shape: 2 512 60 60 (3686400)
I0624 00:10:59.944362  2542 net.cpp:165] Memory required for data: 7818506800
I0624 00:10:59.944372  2542 layer_factory.hpp:77] Creating layer conv5_3_3x3/bn
I0624 00:10:59.944391  2542 net.cpp:106] Creating Layer conv5_3_3x3/bn
I0624 00:10:59.944398  2542 net.cpp:454] conv5_3_3x3/bn <- conv5_3_3x3
I0624 00:10:59.944406  2542 net.cpp:397] conv5_3_3x3/bn -> conv5_3_3x3 (in-place)
I0624 00:10:59.944604  2542 net.cpp:150] Setting up conv5_3_3x3/bn
I0624 00:10:59.944609  2542 net.cpp:157] Top shape: 2 512 60 60 (3686400)
I0624 00:10:59.944612  2542 net.cpp:165] Memory required for data: 7833252400
I0624 00:10:59.944617  2542 layer_factory.hpp:77] Creating layer conv5_3_3x3/relu
I0624 00:10:59.944622  2542 net.cpp:106] Creating Layer conv5_3_3x3/relu
I0624 00:10:59.944624  2542 net.cpp:454] conv5_3_3x3/relu <- conv5_3_3x3
I0624 00:10:59.944629  2542 net.cpp:397] conv5_3_3x3/relu -> conv5_3_3x3 (in-place)
I0624 00:10:59.944634  2542 net.cpp:150] Setting up conv5_3_3x3/relu
I0624 00:10:59.944638  2542 net.cpp:157] Top shape: 2 512 60 60 (3686400)
I0624 00:10:59.944640  2542 net.cpp:165] Memory required for data: 7847998000
I0624 00:10:59.944643  2542 layer_factory.hpp:77] Creating layer conv5_3_1x1_increase
I0624 00:10:59.944649  2542 net.cpp:106] Creating Layer conv5_3_1x1_increase
I0624 00:10:59.944659  2542 net.cpp:454] conv5_3_1x1_increase <- conv5_3_3x3
I0624 00:10:59.944664  2542 net.cpp:411] conv5_3_1x1_increase -> conv5_3_1x1_increase
I0624 00:10:59.967962  2542 net.cpp:150] Setting up conv5_3_1x1_increase
I0624 00:10:59.967984  2542 net.cpp:157] Top shape: 2 2048 60 60 (14745600)
I0624 00:10:59.967986  2542 net.cpp:165] Memory required for data: 7906980400
I0624 00:10:59.967993  2542 layer_factory.hpp:77] Creating layer conv5_3_1x1_increase/bn
I0624 00:10:59.967999  2542 net.cpp:106] Creating Layer conv5_3_1x1_increase/bn
I0624 00:10:59.968003  2542 net.cpp:454] conv5_3_1x1_increase/bn <- conv5_3_1x1_increase
I0624 00:10:59.968009  2542 net.cpp:397] conv5_3_1x1_increase/bn -> conv5_3_1x1_increase (in-place)
I0624 00:10:59.968202  2542 net.cpp:150] Setting up conv5_3_1x1_increase/bn
I0624 00:10:59.968206  2542 net.cpp:157] Top shape: 2 2048 60 60 (14745600)
I0624 00:10:59.968209  2542 net.cpp:165] Memory required for data: 7965962800
I0624 00:10:59.968214  2542 layer_factory.hpp:77] Creating layer conv5_3
I0624 00:10:59.968219  2542 net.cpp:106] Creating Layer conv5_3
I0624 00:10:59.968220  2542 net.cpp:454] conv5_3 <- conv5_2_conv5_2/relu_0_split_1
I0624 00:10:59.968224  2542 net.cpp:454] conv5_3 <- conv5_3_1x1_increase
I0624 00:10:59.968227  2542 net.cpp:411] conv5_3 -> conv5_3
I0624 00:10:59.968246  2542 net.cpp:150] Setting up conv5_3
I0624 00:10:59.968250  2542 net.cpp:157] Top shape: 2 2048 60 60 (14745600)
I0624 00:10:59.968252  2542 net.cpp:165] Memory required for data: 8024945200
I0624 00:10:59.968255  2542 layer_factory.hpp:77] Creating layer conv5_3/relu
I0624 00:10:59.968258  2542 net.cpp:106] Creating Layer conv5_3/relu
I0624 00:10:59.968261  2542 net.cpp:454] conv5_3/relu <- conv5_3
I0624 00:10:59.968263  2542 net.cpp:397] conv5_3/relu -> conv5_3 (in-place)
I0624 00:10:59.968266  2542 net.cpp:150] Setting up conv5_3/relu
I0624 00:10:59.968269  2542 net.cpp:157] Top shape: 2 2048 60 60 (14745600)
I0624 00:10:59.968271  2542 net.cpp:165] Memory required for data: 8083927600
I0624 00:10:59.968273  2542 layer_factory.hpp:77] Creating layer conv5_3_conv5_3/relu_0_split
I0624 00:10:59.968278  2542 net.cpp:106] Creating Layer conv5_3_conv5_3/relu_0_split
I0624 00:10:59.968281  2542 net.cpp:454] conv5_3_conv5_3/relu_0_split <- conv5_3
I0624 00:10:59.968283  2542 net.cpp:411] conv5_3_conv5_3/relu_0_split -> conv5_3_conv5_3/relu_0_split_0
I0624 00:10:59.968287  2542 net.cpp:411] conv5_3_conv5_3/relu_0_split -> conv5_3_conv5_3/relu_0_split_1
I0624 00:10:59.968292  2542 net.cpp:411] conv5_3_conv5_3/relu_0_split -> conv5_3_conv5_3/relu_0_split_2
I0624 00:10:59.968298  2542 net.cpp:411] conv5_3_conv5_3/relu_0_split -> conv5_3_conv5_3/relu_0_split_3
I0624 00:10:59.968317  2542 net.cpp:411] conv5_3_conv5_3/relu_0_split -> conv5_3_conv5_3/relu_0_split_4
I0624 00:10:59.968374  2542 net.cpp:150] Setting up conv5_3_conv5_3/relu_0_split
I0624 00:10:59.968379  2542 net.cpp:157] Top shape: 2 2048 60 60 (14745600)
I0624 00:10:59.968380  2542 net.cpp:157] Top shape: 2 2048 60 60 (14745600)
I0624 00:10:59.968384  2542 net.cpp:157] Top shape: 2 2048 60 60 (14745600)
I0624 00:10:59.968385  2542 net.cpp:157] Top shape: 2 2048 60 60 (14745600)
I0624 00:10:59.968387  2542 net.cpp:157] Top shape: 2 2048 60 60 (14745600)
I0624 00:10:59.968389  2542 net.cpp:165] Memory required for data: 8378839600
I0624 00:10:59.968391  2542 layer_factory.hpp:77] Creating layer conv5_3_pool1
I0624 00:10:59.968396  2542 net.cpp:106] Creating Layer conv5_3_pool1
I0624 00:10:59.968399  2542 net.cpp:454] conv5_3_pool1 <- conv5_3_conv5_3/relu_0_split_0
I0624 00:10:59.968406  2542 net.cpp:411] conv5_3_pool1 -> conv5_3_pool1
I0624 00:10:59.968423  2542 net.cpp:150] Setting up conv5_3_pool1
I0624 00:10:59.968427  2542 net.cpp:157] Top shape: 2 2048 1 1 (4096)
I0624 00:10:59.968430  2542 net.cpp:165] Memory required for data: 8378855984
I0624 00:10:59.968431  2542 layer_factory.hpp:77] Creating layer conv5_3_pool1_conv
I0624 00:10:59.968438  2542 net.cpp:106] Creating Layer conv5_3_pool1_conv
I0624 00:10:59.968441  2542 net.cpp:454] conv5_3_pool1_conv <- conv5_3_pool1
I0624 00:10:59.968446  2542 net.cpp:411] conv5_3_pool1_conv -> conv5_3_pool1_conv
I0624 00:10:59.992849  2542 net.cpp:150] Setting up conv5_3_pool1_conv
I0624 00:10:59.992892  2542 net.cpp:157] Top shape: 2 512 1 1 (1024)
I0624 00:10:59.992897  2542 net.cpp:165] Memory required for data: 8378860080
I0624 00:10:59.992904  2542 layer_factory.hpp:77] Creating layer conv5_3_pool1_conv/bn
I0624 00:10:59.992918  2542 net.cpp:106] Creating Layer conv5_3_pool1_conv/bn
I0624 00:10:59.992923  2542 net.cpp:454] conv5_3_pool1_conv/bn <- conv5_3_pool1_conv
I0624 00:10:59.992929  2542 net.cpp:397] conv5_3_pool1_conv/bn -> conv5_3_pool1_conv (in-place)
I0624 00:10:59.993145  2542 net.cpp:150] Setting up conv5_3_pool1_conv/bn
I0624 00:10:59.993155  2542 net.cpp:157] Top shape: 2 512 1 1 (1024)
I0624 00:10:59.993160  2542 net.cpp:165] Memory required for data: 8378864176
I0624 00:10:59.993173  2542 layer_factory.hpp:77] Creating layer conv5_3_pool1_conv/relu
I0624 00:10:59.993180  2542 net.cpp:106] Creating Layer conv5_3_pool1_conv/relu
I0624 00:10:59.993183  2542 net.cpp:454] conv5_3_pool1_conv/relu <- conv5_3_pool1_conv
I0624 00:10:59.993186  2542 net.cpp:397] conv5_3_pool1_conv/relu -> conv5_3_pool1_conv (in-place)
I0624 00:10:59.993191  2542 net.cpp:150] Setting up conv5_3_pool1_conv/relu
I0624 00:10:59.993194  2542 net.cpp:157] Top shape: 2 512 1 1 (1024)
I0624 00:10:59.993197  2542 net.cpp:165] Memory required for data: 8378868272
I0624 00:10:59.993199  2542 layer_factory.hpp:77] Creating layer conv5_3_pool1_interp
I0624 00:10:59.993211  2542 net.cpp:106] Creating Layer conv5_3_pool1_interp
I0624 00:10:59.993213  2542 net.cpp:454] conv5_3_pool1_interp <- conv5_3_pool1_conv
I0624 00:10:59.993217  2542 net.cpp:411] conv5_3_pool1_interp -> conv5_3_pool1_interp
I0624 00:10:59.993242  2542 net.cpp:150] Setting up conv5_3_pool1_interp
I0624 00:10:59.993247  2542 net.cpp:157] Top shape: 2 512 60 60 (3686400)
I0624 00:10:59.993249  2542 net.cpp:165] Memory required for data: 8393613872
I0624 00:10:59.993252  2542 layer_factory.hpp:77] Creating layer conv5_3_pool2
I0624 00:10:59.993257  2542 net.cpp:106] Creating Layer conv5_3_pool2
I0624 00:10:59.993260  2542 net.cpp:454] conv5_3_pool2 <- conv5_3_conv5_3/relu_0_split_1
I0624 00:10:59.993263  2542 net.cpp:411] conv5_3_pool2 -> conv5_3_pool2
I0624 00:10:59.993280  2542 net.cpp:150] Setting up conv5_3_pool2
I0624 00:10:59.993284  2542 net.cpp:157] Top shape: 2 2048 2 2 (16384)
I0624 00:10:59.993286  2542 net.cpp:165] Memory required for data: 8393679408
I0624 00:10:59.993290  2542 layer_factory.hpp:77] Creating layer conv5_3_pool2_conv
I0624 00:10:59.993333  2542 net.cpp:106] Creating Layer conv5_3_pool2_conv
I0624 00:10:59.993337  2542 net.cpp:454] conv5_3_pool2_conv <- conv5_3_pool2
I0624 00:10:59.993342  2542 net.cpp:411] conv5_3_pool2_conv -> conv5_3_pool2_conv
I0624 00:11:00.018287  2542 net.cpp:150] Setting up conv5_3_pool2_conv
I0624 00:11:00.018316  2542 net.cpp:157] Top shape: 2 512 2 2 (4096)
I0624 00:11:00.018318  2542 net.cpp:165] Memory required for data: 8393695792
I0624 00:11:00.018327  2542 layer_factory.hpp:77] Creating layer conv5_3_pool2_conv/bn
I0624 00:11:00.018344  2542 net.cpp:106] Creating Layer conv5_3_pool2_conv/bn
I0624 00:11:00.018353  2542 net.cpp:454] conv5_3_pool2_conv/bn <- conv5_3_pool2_conv
I0624 00:11:00.018363  2542 net.cpp:397] conv5_3_pool2_conv/bn -> conv5_3_pool2_conv (in-place)
I0624 00:11:00.018585  2542 net.cpp:150] Setting up conv5_3_pool2_conv/bn
I0624 00:11:00.018590  2542 net.cpp:157] Top shape: 2 512 2 2 (4096)
I0624 00:11:00.018592  2542 net.cpp:165] Memory required for data: 8393712176
I0624 00:11:00.018597  2542 layer_factory.hpp:77] Creating layer conv5_3_pool2_conv/relu
I0624 00:11:00.018602  2542 net.cpp:106] Creating Layer conv5_3_pool2_conv/relu
I0624 00:11:00.018606  2542 net.cpp:454] conv5_3_pool2_conv/relu <- conv5_3_pool2_conv
I0624 00:11:00.018611  2542 net.cpp:397] conv5_3_pool2_conv/relu -> conv5_3_pool2_conv (in-place)
I0624 00:11:00.018616  2542 net.cpp:150] Setting up conv5_3_pool2_conv/relu
I0624 00:11:00.018620  2542 net.cpp:157] Top shape: 2 512 2 2 (4096)
I0624 00:11:00.018622  2542 net.cpp:165] Memory required for data: 8393728560
I0624 00:11:00.018625  2542 layer_factory.hpp:77] Creating layer conv5_3_pool2_interp
I0624 00:11:00.018637  2542 net.cpp:106] Creating Layer conv5_3_pool2_interp
I0624 00:11:00.018643  2542 net.cpp:454] conv5_3_pool2_interp <- conv5_3_pool2_conv
I0624 00:11:00.018648  2542 net.cpp:411] conv5_3_pool2_interp -> conv5_3_pool2_interp
I0624 00:11:00.018676  2542 net.cpp:150] Setting up conv5_3_pool2_interp
I0624 00:11:00.018682  2542 net.cpp:157] Top shape: 2 512 60 60 (3686400)
I0624 00:11:00.018684  2542 net.cpp:165] Memory required for data: 8408474160
I0624 00:11:00.018687  2542 layer_factory.hpp:77] Creating layer conv5_3_pool3
I0624 00:11:00.018690  2542 net.cpp:106] Creating Layer conv5_3_pool3
I0624 00:11:00.018693  2542 net.cpp:454] conv5_3_pool3 <- conv5_3_conv5_3/relu_0_split_2
I0624 00:11:00.018699  2542 net.cpp:411] conv5_3_pool3 -> conv5_3_pool3
I0624 00:11:00.018720  2542 net.cpp:150] Setting up conv5_3_pool3
I0624 00:11:00.018726  2542 net.cpp:157] Top shape: 2 2048 3 3 (36864)
I0624 00:11:00.018728  2542 net.cpp:165] Memory required for data: 8408621616
I0624 00:11:00.018731  2542 layer_factory.hpp:77] Creating layer conv5_3_pool3_conv
I0624 00:11:00.018741  2542 net.cpp:106] Creating Layer conv5_3_pool3_conv
I0624 00:11:00.018744  2542 net.cpp:454] conv5_3_pool3_conv <- conv5_3_pool3
I0624 00:11:00.018750  2542 net.cpp:411] conv5_3_pool3_conv -> conv5_3_pool3_conv
I0624 00:11:00.048249  2542 net.cpp:150] Setting up conv5_3_pool3_conv
I0624 00:11:00.048305  2542 net.cpp:157] Top shape: 2 512 3 3 (9216)
I0624 00:11:00.048311  2542 net.cpp:165] Memory required for data: 8408658480
I0624 00:11:00.048327  2542 layer_factory.hpp:77] Creating layer conv5_3_pool3_conv/bn
I0624 00:11:00.048355  2542 net.cpp:106] Creating Layer conv5_3_pool3_conv/bn
I0624 00:11:00.048364  2542 net.cpp:454] conv5_3_pool3_conv/bn <- conv5_3_pool3_conv
I0624 00:11:00.048374  2542 net.cpp:397] conv5_3_pool3_conv/bn -> conv5_3_pool3_conv (in-place)
I0624 00:11:00.048610  2542 net.cpp:150] Setting up conv5_3_pool3_conv/bn
I0624 00:11:00.048615  2542 net.cpp:157] Top shape: 2 512 3 3 (9216)
I0624 00:11:00.048619  2542 net.cpp:165] Memory required for data: 8408695344
I0624 00:11:00.048624  2542 layer_factory.hpp:77] Creating layer conv5_3_pool3_conv/relu
I0624 00:11:00.048633  2542 net.cpp:106] Creating Layer conv5_3_pool3_conv/relu
I0624 00:11:00.048636  2542 net.cpp:454] conv5_3_pool3_conv/relu <- conv5_3_pool3_conv
I0624 00:11:00.048641  2542 net.cpp:397] conv5_3_pool3_conv/relu -> conv5_3_pool3_conv (in-place)
I0624 00:11:00.048681  2542 net.cpp:150] Setting up conv5_3_pool3_conv/relu
I0624 00:11:00.048686  2542 net.cpp:157] Top shape: 2 512 3 3 (9216)
I0624 00:11:00.048689  2542 net.cpp:165] Memory required for data: 8408732208
I0624 00:11:00.048691  2542 layer_factory.hpp:77] Creating layer conv5_3_pool3_interp
I0624 00:11:00.048697  2542 net.cpp:106] Creating Layer conv5_3_pool3_interp
I0624 00:11:00.048701  2542 net.cpp:454] conv5_3_pool3_interp <- conv5_3_pool3_conv
I0624 00:11:00.048703  2542 net.cpp:411] conv5_3_pool3_interp -> conv5_3_pool3_interp
I0624 00:11:00.048730  2542 net.cpp:150] Setting up conv5_3_pool3_interp
I0624 00:11:00.048734  2542 net.cpp:157] Top shape: 2 512 60 60 (3686400)
I0624 00:11:00.048738  2542 net.cpp:165] Memory required for data: 8423477808
I0624 00:11:00.048740  2542 layer_factory.hpp:77] Creating layer conv5_3_pool6
I0624 00:11:00.048745  2542 net.cpp:106] Creating Layer conv5_3_pool6
I0624 00:11:00.048748  2542 net.cpp:454] conv5_3_pool6 <- conv5_3_conv5_3/relu_0_split_3
I0624 00:11:00.048753  2542 net.cpp:411] conv5_3_pool6 -> conv5_3_pool6
I0624 00:11:00.048771  2542 net.cpp:150] Setting up conv5_3_pool6
I0624 00:11:00.048776  2542 net.cpp:157] Top shape: 2 2048 6 6 (147456)
I0624 00:11:00.048779  2542 net.cpp:165] Memory required for data: 8424067632
I0624 00:11:00.048781  2542 layer_factory.hpp:77] Creating layer conv5_3_pool6_conv
I0624 00:11:00.048792  2542 net.cpp:106] Creating Layer conv5_3_pool6_conv
I0624 00:11:00.048795  2542 net.cpp:454] conv5_3_pool6_conv <- conv5_3_pool6
I0624 00:11:00.048800  2542 net.cpp:411] conv5_3_pool6_conv -> conv5_3_pool6_conv
I0624 00:11:00.073868  2542 net.cpp:150] Setting up conv5_3_pool6_conv
I0624 00:11:00.073890  2542 net.cpp:157] Top shape: 2 512 6 6 (36864)
I0624 00:11:00.073894  2542 net.cpp:165] Memory required for data: 8424215088
I0624 00:11:00.073900  2542 layer_factory.hpp:77] Creating layer conv5_3_pool6_conv/bn
I0624 00:11:00.073909  2542 net.cpp:106] Creating Layer conv5_3_pool6_conv/bn
I0624 00:11:00.073915  2542 net.cpp:454] conv5_3_pool6_conv/bn <- conv5_3_pool6_conv
I0624 00:11:00.073920  2542 net.cpp:397] conv5_3_pool6_conv/bn -> conv5_3_pool6_conv (in-place)
I0624 00:11:00.074105  2542 net.cpp:150] Setting up conv5_3_pool6_conv/bn
I0624 00:11:00.074110  2542 net.cpp:157] Top shape: 2 512 6 6 (36864)
I0624 00:11:00.074112  2542 net.cpp:165] Memory required for data: 8424362544
I0624 00:11:00.074118  2542 layer_factory.hpp:77] Creating layer conv5_3_pool6_conv/relu
I0624 00:11:00.074131  2542 net.cpp:106] Creating Layer conv5_3_pool6_conv/relu
I0624 00:11:00.074134  2542 net.cpp:454] conv5_3_pool6_conv/relu <- conv5_3_pool6_conv
I0624 00:11:00.074138  2542 net.cpp:397] conv5_3_pool6_conv/relu -> conv5_3_pool6_conv (in-place)
I0624 00:11:00.074142  2542 net.cpp:150] Setting up conv5_3_pool6_conv/relu
I0624 00:11:00.074146  2542 net.cpp:157] Top shape: 2 512 6 6 (36864)
I0624 00:11:00.074148  2542 net.cpp:165] Memory required for data: 8424510000
I0624 00:11:00.074151  2542 layer_factory.hpp:77] Creating layer conv5_3_pool6_interp
I0624 00:11:00.074156  2542 net.cpp:106] Creating Layer conv5_3_pool6_interp
I0624 00:11:00.074158  2542 net.cpp:454] conv5_3_pool6_interp <- conv5_3_pool6_conv
I0624 00:11:00.074169  2542 net.cpp:411] conv5_3_pool6_interp -> conv5_3_pool6_interp
I0624 00:11:00.074192  2542 net.cpp:150] Setting up conv5_3_pool6_interp
I0624 00:11:00.074196  2542 net.cpp:157] Top shape: 2 512 60 60 (3686400)
I0624 00:11:00.074198  2542 net.cpp:165] Memory required for data: 8439255600
I0624 00:11:00.074201  2542 layer_factory.hpp:77] Creating layer conv5_3_concat
I0624 00:11:00.074205  2542 net.cpp:106] Creating Layer conv5_3_concat
I0624 00:11:00.074208  2542 net.cpp:454] conv5_3_concat <- conv5_3_conv5_3/relu_0_split_4
I0624 00:11:00.074213  2542 net.cpp:454] conv5_3_concat <- conv5_3_pool6_interp
I0624 00:11:00.074215  2542 net.cpp:454] conv5_3_concat <- conv5_3_pool3_interp
I0624 00:11:00.074219  2542 net.cpp:454] conv5_3_concat <- conv5_3_pool2_interp
I0624 00:11:00.074221  2542 net.cpp:454] conv5_3_concat <- conv5_3_pool1_interp
I0624 00:11:00.074244  2542 net.cpp:411] conv5_3_concat -> conv5_3_concat
I0624 00:11:00.074264  2542 net.cpp:150] Setting up conv5_3_concat
I0624 00:11:00.074267  2542 net.cpp:157] Top shape: 2 4096 60 60 (29491200)
I0624 00:11:00.074270  2542 net.cpp:165] Memory required for data: 8557220400
I0624 00:11:00.074272  2542 layer_factory.hpp:77] Creating layer conv5_4
I0624 00:11:00.074282  2542 net.cpp:106] Creating Layer conv5_4
I0624 00:11:00.074285  2542 net.cpp:454] conv5_4 <- conv5_3_concat
I0624 00:11:00.074290  2542 net.cpp:411] conv5_4 -> conv5_4
I0624 00:11:00.547708  2542 net.cpp:150] Setting up conv5_4
I0624 00:11:00.547741  2542 net.cpp:157] Top shape: 2 512 60 60 (3686400)
I0624 00:11:00.547745  2542 net.cpp:165] Memory required for data: 8571966000
I0624 00:11:00.547751  2542 layer_factory.hpp:77] Creating layer conv5_4/bn
I0624 00:11:00.547760  2542 net.cpp:106] Creating Layer conv5_4/bn
I0624 00:11:00.547765  2542 net.cpp:454] conv5_4/bn <- conv5_4
I0624 00:11:00.547770  2542 net.cpp:397] conv5_4/bn -> conv5_4 (in-place)
I0624 00:11:00.547984  2542 net.cpp:150] Setting up conv5_4/bn
I0624 00:11:00.547988  2542 net.cpp:157] Top shape: 2 512 60 60 (3686400)
I0624 00:11:00.548005  2542 net.cpp:165] Memory required for data: 8586711600
I0624 00:11:00.548010  2542 layer_factory.hpp:77] Creating layer conv5_4/relu
I0624 00:11:00.548015  2542 net.cpp:106] Creating Layer conv5_4/relu
I0624 00:11:00.548017  2542 net.cpp:454] conv5_4/relu <- conv5_4
I0624 00:11:00.548022  2542 net.cpp:397] conv5_4/relu -> conv5_4 (in-place)
I0624 00:11:00.548027  2542 net.cpp:150] Setting up conv5_4/relu
I0624 00:11:00.548028  2542 net.cpp:157] Top shape: 2 512 60 60 (3686400)
I0624 00:11:00.548032  2542 net.cpp:165] Memory required for data: 8601457200
I0624 00:11:00.548033  2542 layer_factory.hpp:77] Creating layer conv5_4/dropout
I0624 00:11:00.548043  2542 net.cpp:106] Creating Layer conv5_4/dropout
I0624 00:11:00.548045  2542 net.cpp:454] conv5_4/dropout <- conv5_4
I0624 00:11:00.548049  2542 net.cpp:397] conv5_4/dropout -> conv5_4 (in-place)
I0624 00:11:00.548089  2542 net.cpp:150] Setting up conv5_4/dropout
I0624 00:11:00.548092  2542 net.cpp:157] Top shape: 2 512 60 60 (3686400)
I0624 00:11:00.548094  2542 net.cpp:165] Memory required for data: 8616202800
I0624 00:11:00.548097  2542 layer_factory.hpp:77] Creating layer conv6
I0624 00:11:00.548105  2542 net.cpp:106] Creating Layer conv6
I0624 00:11:00.548106  2542 net.cpp:454] conv6 <- conv5_4
I0624 00:11:00.548111  2542 net.cpp:411] conv6 -> conv6
I0624 00:11:00.548527  2542 net.cpp:150] Setting up conv6
I0624 00:11:00.548532  2542 net.cpp:157] Top shape: 2 21 60 60 (151200)
I0624 00:11:00.548534  2542 net.cpp:165] Memory required for data: 8616807600
I0624 00:11:00.548539  2542 layer_factory.hpp:77] Creating layer conv6_conv6_0_split
I0624 00:11:00.548543  2542 net.cpp:106] Creating Layer conv6_conv6_0_split
I0624 00:11:00.548547  2542 net.cpp:454] conv6_conv6_0_split <- conv6
I0624 00:11:00.548552  2542 net.cpp:411] conv6_conv6_0_split -> conv6_conv6_0_split_0
I0624 00:11:00.548555  2542 net.cpp:411] conv6_conv6_0_split -> conv6_conv6_0_split_1
I0624 00:11:00.548583  2542 net.cpp:150] Setting up conv6_conv6_0_split
I0624 00:11:00.548588  2542 net.cpp:157] Top shape: 2 21 60 60 (151200)
I0624 00:11:00.548590  2542 net.cpp:157] Top shape: 2 21 60 60 (151200)
I0624 00:11:00.548593  2542 net.cpp:165] Memory required for data: 8618017200
I0624 00:11:00.548595  2542 layer_factory.hpp:77] Creating layer conv6_interp
I0624 00:11:00.548600  2542 net.cpp:106] Creating Layer conv6_interp
I0624 00:11:00.548604  2542 net.cpp:454] conv6_interp <- conv6_conv6_0_split_0
I0624 00:11:00.548607  2542 net.cpp:411] conv6_interp -> conv6_interp
I0624 00:11:00.548624  2542 net.cpp:150] Setting up conv6_interp
I0624 00:11:00.548629  2542 net.cpp:157] Top shape: 2 21 473 473 (9396618)
I0624 00:11:00.548631  2542 net.cpp:165] Memory required for data: 8655603672
I0624 00:11:00.548635  2542 layer_factory.hpp:77] Creating layer loss
I0624 00:11:00.548641  2542 net.cpp:106] Creating Layer loss
I0624 00:11:00.548660  2542 net.cpp:454] loss <- conv6_interp
I0624 00:11:00.548665  2542 net.cpp:454] loss <- conv6_conv6_0_split_1
I0624 00:11:00.548689  2542 net.cpp:411] loss -> (automatic)
…
