…
state {
  phase: TRAIN
}
layer {
  name: "data"
  type: "ImageSegData"
  top: "data"
  top: "label"
  include {
    phase: TRAIN
  }
  transform_param {
    mirror: true
    crop_size: 473
    mean_value: 104.008
    mean_value: 116.669
    mean_value: 122.675
    scale_factors: 0.5
    scale_factors: 0.75
    scale_factors: 1
    scale_factors: 1.25
    scale_factors: 1.5
  }
  image_data_param {
    source: "exper/voc12/list/train_aug.txt"
    batch_size: 2
    shuffle: true
    root_folder: "exper/voc12/data"
    label_type: PIXEL
  }
}
layer {
  name: "conv1_1_3x3_s2"
  type: "Convolution"
  bottom: "data"
  top: "conv1_1_3x3_s2"
  param {
    lr_mult: 1
    decay_mult: 1
  }
  convolution_param {
    num_output: 64
    bias_term: false
    pad: 1
    kernel_size: 3
    stride: 2
    weight_filler {
      type: "msra"
    }
  }
}
layer {
  name: "conv1_1_3x3_s2/bn"
  type: "BN"
  bottom: "conv1_1_3x3_s2"
  top: "conv1_1_3x3_s2"
  param {
    lr_mult: 1
    decay_mult: 0
  }
  param {
    lr_mult: 1
    decay_mult: 0
  }
  param {
    lr_mult: 0
    decay_mult: 0
  }
  param {
    lr_mult: 0
    decay_mult: 0
  }
  bn_param {
    slope_filler {
      type: "constant"
      value: 1
    }
    bias_filler {
      type: "constant"
      value: 0
    }
    momentum: 0.95
    frozen: true
  }
}
layer {
  name: "conv1_1_3x3_s2/relu"
  type: "ReLU"
  bottom: "conv1_1_3x3_s2"
  top: "conv1_1_3x3_s2"
}
layer {
  name: "conv1_2_3x3"
  type: "Convolution"
  bottom: "conv1_1_3x3_s2"
  top: "conv1_2_3x3"
  param {
    lr_mult: 1
    decay_mult: 1
  }
  convolution_param {
    num_output: 64
    bias_term: false
    pad: 1
    kernel_size: 3
    stride: 1
    weight_filler {
      type: "msra"
    }
  }
}
layer {
  name: "conv1_2_3x3/bn"
  type: "BN"
  bottom: "conv1_2_3x3"
  top: "conv1_2_3x3"
  param {
    lr_mult: 1
    decay_mult: 0
  }
  param {
    lr_mult: 1
    decay_mult: 0
  }
  param {
    lr_mult: 0
    decay_mult: 0
  }
  param {
    lr_mult: 0
    decay_mult: 0
  }
  bn_param {
    slope_filler {
      type: "constant"
      value: 1
    }
    bias_filler {
      type: "constant"
      value: 0
    }
    momentum: 0.95
    frozen: true
  }
}
layer {
  name: "conv1_2_3x3/relu"
  type: "ReLU"
  bottom: "conv1_2_3x3"
  top: "conv1_2_3x3"
}
layer {
  name: "conv1_3_3x3"
  type: "Convolution"
  bottom: "conv1_2_3x3"
  top: "conv1_3_3x3"
  param {
    lr_mult: 1
    decay_mult: 1
  }
  convolution_param {
    num_output: 128
    bias_term: false
    pad: 1
    kernel_size: 3
    stride: 1
    weight_filler {
      type: "msra"
    }
  }
}
layer {
  name: "conv1_3_3x3/bn"
  type: "BN"
  bottom: "conv1_3_3x3"
  top: "conv1_3_3x3"
  param {
    lr_mult: 1
    decay_mult: 0
  }
  param {
    lr_mult: 1
    decay_mult: 0
  }
  param {
    lr_mult: 0
    decay_mult: 0
  }
  param {
    lr_mult: 0
    decay_mult: 0
  }
  bn_param {
    slope_filler {
      type: "constant"
      value: 1
    }
    bias_filler {
      type: "constant"
      value: 0
    }
    momentum: 0.95
    frozen: true
  }
}
layer {
  name: "conv1_3_3x3/relu"
  type: "ReLU"
  bottom: "conv1_3_3x3"
  top: "conv1_3_3x3"
}
layer {
  name: "pool1_3x3_s2"
  type: "Pooling"
  bottom: "conv1_3_3x3"
  top: "pool1_3x3_s2"
  pooling_param {
    pool: MAX
    kernel_size: 3
    stride: 2
    pad: 1
  }
}
layer {
  name: "conv2_1_1x1_reduce"
  type: "Convolution"
  bottom: "pool1_3x3_s2"
  top: "conv2_1_1x1_reduce"
  param {
    lr_mult: 1
    decay_mult: 1
  }
  convolution_param {
    num_output: 64
    bias_term: false
    pad: 0
    kernel_size: 1
    stride: 1
    weight_filler {
      type: "msra"
    }
  }
}
layer {
  name: "conv2_1_1x1_reduce/bn"
  type: "BN"
  bottom: "conv2_1_1x1_reduce"
  top: "conv2_1_1x1_reduce"
  param {
    lr_mult: 1
    decay_mult: 0
  }
  param {
    lr_mult: 1
    decay_mult: 0
  }
  param {
    lr_mult: 0
    decay_mult: 0
  }
  param {
    lr_mult: 0
    decay_mult: 0
  }
  bn_param {
    slope_filler {
      type: "constant"
      value: 1
    }
    bias_filler {
      type: "constant"
      value: 0
    }
    momentum: 0.95
    frozen: true
  }
}
layer {
  name: "conv2_1_1x1_reduce/relu"
  type: "ReLU"
  bottom: "conv2_1_1x1_reduce"
  top: "conv2_1_1x1_reduce"
}
layer {
  name: "conv2_1_3x3"
  type: "Convolution"
  bottom: "conv2_1_1x1_reduce"
  top: "conv2_1_3x3"
  param {
    lr_mult: 1
    decay_mult: 1
  }
  convolution_param {
    num_output: 64
    bias_term: false
    pad: 1
    kernel_size: 3
    stride: 1
    weight_filler {
      type: "msra"
    }
  }
}
layer {
  name: "conv2_1_3x3/bn"
  type: "BN"
  bottom: "conv2_1_3x3"
  top: "conv2_1_3x3"
  param {
    lr_mult: 1
    decay_mult: 0
  }
  param {
    lr_mult: 1
    decay_mult: 0
  }
  param {
    lr_mult: 0
    decay_mult: 0
  }
  param {
    lr_mult: 0
    decay_mult: 0
  }
  bn_param {
    slope_filler {
      type: "constant"
      value: 1
    }
    bias_filler {
      type: "constant"
      value: 0
    }
    momentum: 0.95
    frozen: true
  }
}
layer {
  name: "conv2_1_3x3/relu"
  type: "ReLU"
  bottom: "conv2_1_3x3"
  top: "conv2_1_3x3"
}
layer {
  name: "conv2_1_1x1_increase"
  type: "Convolution"
  bottom: "conv2_1_3x3"
  top: "conv2_1_1x1_increase"
  param {
    lr_mult: 1
    decay_mult: 1
  }
  convolution_param {
    num_output: 256
    bias_term: false
    pad: 0
    kernel_size: 1
    stride: 1
    weight_filler {
      type: "msra"
    }
  }
}
layer {
  name: "conv2_1_1x1_increase/bn"
  type: "BN"
  bottom: "conv2_1_1x1_increase"
  top: "conv2_1_1x1_increase"
  param {
    lr_mult: 1
    decay_mult: 0
  }
  param {
    lr_mult: 1
    decay_mult: 0
  }
  param {
    lr_mult: 0
    decay_mult: 0
  }
  param {
    lr_mult: 0
    decay_mult: 0
  }
  bn_param {
    slope_filler {
      type: "constant"
      value: 1
    }
    bias_filler {
      type: "constant"
      value: 0
    }
    momentum: 0.95
    frozen: true
  }
}
layer {
  name: "conv2_1_1x1_proj"
  type: "Convolution"
  bottom: "pool1_3x3_s2"
  top: "conv2_1_1x1_proj"
  param {
    lr_mult: 1
    decay_mult: 1
  }
  convolution_param {
    num_output: 256
    bias_term: false
    pad: 0
    kernel_size: 1
    stride: 1
    weight_filler {
      type: "msra"
    }
  }
}
layer {
  name: "conv2_1_1x1_proj/bn"
  type: "BN"
  bottom: "conv2_1_1x1_proj"
  top: "conv2_1_1x1_proj"
  param {
    lr_mult: 1
    decay_mult: 0
  }
  param {
    lr_mult: 1
    decay_mult: 0
  }
  param {
    lr_mult: 0
    decay_mult: 0
  }
  param {
    lr_mult: 0
    decay_mult: 0
  }
  bn_param {
    slope_filler {
      type: "constant"
      value: 1
    }
    bias_filler {
      type: "constant"
      value: 0
    }
    momentum: 0.95
    frozen: true
  }
}
layer {
  name: "conv2_1"
  type: "Eltwise"
  bottom: "conv2_1_1x1_proj"
  bottom: "conv2_1_1x1_increase"
  top: "conv2_1"
  eltwise_param {
    operation: SUM
  }
}
layer {
  name: "conv2_1/relu"
  type: "ReLU"
  bottom: "conv2_1"
  top: "conv2_1"
}
layer {
  name: "conv2_2_1x1_reduce"
  type: "Convolution"
  bottom: "conv2_1"
  top: "conv2_2_1x1_reduce"
  param {
    lr_mult: 1
    decay_mult: 1
  }
  convolution_param {
    num_output: 64
    bias_term: false
    pad: 0
    kernel_size: 1
    stride: 1
    weight_filler {
      type: "msra"
    }
  }
}
layer {
  name: "conv2_2_1x1_reduce/bn"
  type: "BN"
  bottom: "conv2_2_1x1_reduce"
  top: "conv2_2_1x1_reduce"
  param {
    lr_mult: 1
    decay_mult: 0
  }
  param {
    lr_mult: 1
    decay_mult: 0
  }
  param {
    lr_mult: 0
    decay_mult: 0
  }
  param {
    lr_mult: 0
    decay_mult: 0
  }
  bn_param {
    slope_filler {
      type: "constant"
      value: 1
    }
    bias_filler {
      type: "constant"
      value: 0
    }
    momentum: 0.95
    frozen: true
  }
}
layer {
  name: "conv2_2_1x1_reduce/relu"
  type: "ReLU"
  bottom: "conv2_2_1x1_reduce"
  top: "conv2_2_1x1_reduce"
}
layer {
  name: "conv2_2_3x3"
  type: "Convolution"
  bottom: "conv2_2_1x1_reduce"
  top: "conv2_2_3x3"
  param {
    lr_mult: 1
    decay_mult: 1
  }
  convolution_param {
    num_output: 64
    bias_term: false
    pad: 1
    kernel_size: 3
    stride: 1
    weight_filler {
      type: "msra"
    }
  }
}
layer {
  name: "conv2_2_3x3/bn"
  type: "BN"
  bottom: "conv2_2_3x3"
  top: "conv2_2_3x3"
  param {
    lr_mult: 1
    decay_mult: 0
  }
  param {
    lr_mult: 1
    decay_mult: 0
  }
  param {
    lr_mult: 0
    decay_mult: 0
  }
  param {
    lr_mult: 0
    decay_mult: 0
  }
  bn_param {
    slope_filler {
      type: "constant"
      value: 1
    }
    bias_filler {
      type: "constant"
      value: 0
    }
    momentum: 0.95
    frozen: true
  }
}
layer {
  name: "conv2_2_3x3/relu"
  type: "ReLU"
  bottom: "conv2_2_3x3"
  top: "conv2_2_3x3"
}
layer {
  name: "conv2_2_1x1_increase"
  type: "Convolution"
  bottom: "conv2_2_3x3"
  top: "conv2_2_1x1_increase"
  param {
    lr_mult: 1
    decay_mult: 1
  }
  convolution_param {
    num_output: 256
    bias_term: false
    pad: 0
    kernel_size: 1
    stride: 1
    weight_filler {
      type: "msra"
    }
  }
}
layer {
  name: "conv2_2_1x1_increase/bn"
  type: "BN"
  bottom: "conv2_2_1x1_increase"
  top: "conv2_2_1x1_increase"
  param {
    lr_mult: 1
    decay_mult: 0
  }
  param {
    lr_mult: 1
    decay_mult: 0
  }
  param {
    lr_mult: 0
    decay_mult: 0
  }
  param {
    lr_mult: 0
    decay_mult: 0
  }
  bn_param {
    slope_filler {
      type: "constant"
      value: 1
    }
    bias_filler {
      type: "constant"
      value: 0
    }
    momentum: 0.95
    frozen: true
  }
}
layer {
  name: "conv2_2"
  type: "Eltwise"
  bottom: "conv2_1"
  bottom: "conv2_2_1x1_increase"
  top: "conv2_2"
  eltwise_param {
    operation: SUM
  }
}
layer {
  name: "conv2_2/relu"
  type: "ReLU"
  bottom: "conv2_2"
  top: "conv2_2"
}
layer {
  name: "conv2_3_1x1_reduce"
  type: "Convolution"
  bottom: "conv2_2"
  top: "conv2_3_1x1_reduce"
  param {
    lr_mult: 1
    decay_mult: 1
  }
  convolution_param {
    num_output: 64
    bias_term: false
    pad: 0
    kernel_size: 1
    stride: 1
    weight_filler {
      type: "msra"
    }
  }
}
layer {
  name: "conv2_3_1x1_reduce/bn"
  type: "BN"
  bottom: "conv2_3_1x1_reduce"
  top: "conv2_3_1x1_reduce"
  param {
    lr_mult: 1
    decay_mult: 0
  }
  param {
    lr_mult: 1
    decay_mult: 0
  }
  param {
    lr_mult: 0
    decay_mult: 0
  }
  param {
    lr_mult: 0
    decay_mult: 0
  }
  bn_param {
    slope_filler {
      type: "constant"
      value: 1
    }
    bias_filler {
      type: "constant"
      value: 0
    }
    momentum: 0.95
    frozen: true
  }
}
layer {
  name: "conv2_3_1x1_reduce/relu"
  type: "ReLU"
  bottom: "conv2_3_1x1_reduce"
  top: "conv2_3_1x1_reduce"
}
layer {
  name: "conv2_3_3x3"
  type: "Convolution"
  bottom: "conv2_3_1x1_reduce"
  top: "conv2_3_3x3"
  param {
    lr_mult: 1
    decay_mult: 1
  }
  convolution_param {
    num_output: 64
    bias_term: false
    pad: 1
    kernel_size: 3
    stride: 1
    weight_filler {
      type: "msra"
    }
  }
}
layer {
  name: "conv2_3_3x3/bn"
  type: "BN"
  bottom: "conv2_3_3x3"
  top: "conv2_3_3x3"
  param {
    lr_mult: 1
    decay_mult: 0
  }
  param {
    lr_mult: 1
    decay_mult: 0
  }
  param {
    lr_mult: 0
    decay_mult: 0
  }
  param {
    lr_mult: 0
    decay_mult: 0
  }
  bn_param {
    slope_filler {
      type: "constant"
      value: 1
    }
    bias_filler {
      type: "constant"
      value: 0
    }
    momentum: 0.95
    frozen: true
  }
}
layer {
  name: "conv2_3_3x3/relu"
  type: "ReLU"
  bottom: "conv2_3_3x3"
  top: "conv2_3_3x3"
}
layer {
  name: "conv2_3_1x1_increase"
  type: "Convolution"
  bottom: "conv2_3_3x3"
  top: "conv2_3_1x1_increase"
  param {
    lr_mult: 1
    decay_mult: 1
  }
  convolution_param {
    num_output: 256
    bias_term: false
    pad: 0
    kernel_size: 1
    stride: 1
    weight_filler {
      type: "msra"
    }
  }
}
layer {
  name: "conv2_3_1x1_increase/bn"
  type: "BN"
  bottom: "conv2_3_1x1_increase"
  top: "conv2_3_1x1_increase"
  param {
    lr_mult: 1
    decay_mult: 0
  }
  param {
    lr_mult: 1
    decay_mult: 0
  }
  param {
    lr_mult: 0
    decay_mult: 0
  }
  param {
    lr_mult: 0
    decay_mult: 0
  }
  bn_param {
    slope_filler {
      type: "constant"
      value: 1
    }
    bias_filler {
      type: "constant"
      value: 0
    }
    momentum: 0.95
    frozen: true
  }
}
layer {
  name: "conv2_3"
  type: "Eltwise"
  bottom: "conv2_2"
  bottom: "conv2_3_1x1_increase"
  top: "conv2_3"
  eltwise_param {
    operation: SUM
  }
}
layer {
  name: "conv2_3/relu"
  type: "ReLU"
  bottom: "conv2_3"
  top: "conv2_3"
}
layer {
  name: "conv3_1_1x1_reduce"
  type: "Convolution"
  bottom: "conv2_3"
  top: "conv3_1_1x1_reduce"
  param {
    lr_mult: 1
    decay_mult: 1
  }
  convolution_param {
    num_output: 128
    bias_term: false
    pad: 0
    kernel_size: 1
    stride: 1
    weight_filler {
      type: "msra"
    }
  }
}
layer {
  name: "conv3_1_1x1_reduce/bn"
  type: "BN"
  bottom: "conv3_1_1x1_reduce"
  top: "conv3_1_1x1_reduce"
  param {
    lr_mult: 1
    decay_mult: 0
  }
  param {
    lr_mult: 1
    decay_mult: 0
  }
  param {
    lr_mult: 0
    decay_mult: 0
  }
  param {
    lr_mult: 0
    decay_mult: 0
  }
  bn_param {
    slope_filler {
      type: "constant"
      value: 1
    }
    bias_filler {
      type: "constant"
      value: 0
    }
    momentum: 0.95
    frozen: true
  }
}
layer {
  name: "conv3_1_1x1_reduce/relu"
  type: "ReLU"
  bottom: "conv3_1_1x1_reduce"
  top: "conv3_1_1x1_reduce"
}
layer {
  name: "conv3_1_3x3"
  type: "Convolution"
  bottom: "conv3_1_1x1_reduce"
  top: "conv3_1_3x3"
  param {
    lr_mult: 1
    decay_mult: 1
  }
  convolution_param {
    num_output: 128
    bias_term: false
    pad: 1
    kernel_size: 3
    stride: 2
    weight_filler {
      type: "msra"
    }
  }
}
layer {
  name: "conv3_1_3x3/bn"
  type: "BN"
  bottom: "conv3_1_3x3"
  top: "conv3_1_3x3"
  param {
    lr_mult: 1
    decay_mult: 0
  }
  param {
    lr_mult: 1
    decay_mult: 0
  }
  param {
    lr_mult: 0
    decay_mult: 0
  }
  param {
    lr_mult: 0
    decay_mult: 0
  }
  bn_param {
    slope_filler {
      type: "constant"
      value: 1
    }
    bias_filler {
      type: "constant"
      value: 0
    }
    momentum: 0.95
    frozen: true
  }
}
layer {
  name: "conv3_1_3x3/relu"
  type: "ReLU"
  bottom: "conv3_1_3x3"
  top: "conv3_1_3x3"
}
layer {
  name: "conv3_1_1x1_increase"
  type: "Convolution"
  bottom: "conv3_1_3x3"
  top: "conv3_1_1x1_increase"
  param {
    lr_mult: 1
    decay_mult: 1
  }
  convolution_param {
    num_output: 512
    bias_term: false
    pad: 0
    kernel_size: 1
    stride: 1
    weight_filler {
      type: "msra"
    }
  }
}
layer {
  name: "conv3_1_1x1_increase/bn"
  type: "BN"
  bottom: "conv3_1_1x1_increase"
  top: "conv3_1_1x1_increase"
  param {
    lr_mult: 1
    decay_mult: 0
  }
  param {
    lr_mult: 1
    decay_mult: 0
  }
  param {
    lr_mult: 0
    decay_mult: 0
  }
  param {
    lr_mult: 0
    decay_mult: 0
  }
  bn_param {
    slope_filler {
      type: "constant"
      value: 1
    }
    bias_filler {
      type: "constant"
      value: 0
    }
    momentum: 0.95
    frozen: true
  }
}
layer {
  name: "conv3_1_1x1_proj"
  type: "Convolution"
  bottom: "conv2_3"
  top: "conv3_1_1x1_proj"
  param {
    lr_mult: 1
    decay_mult: 1
  }
  convolution_param {
    num_output: 512
    bias_term: false
    pad: 0
    kernel_size: 1
    stride: 2
    weight_filler {
      type: "msra"
    }
  }
}
layer {
  name: "conv3_1_1x1_proj/bn"
  type: "BN"
  bottom: "conv3_1_1x1_proj"
  top: "conv3_1_1x1_proj"
  param {
    lr_mult: 1
    decay_mult: 0
  }
  param {
    lr_mult: 1
    decay_mult: 0
  }
  param {
    lr_mult: 0
    decay_mult: 0
  }
  param {
    lr_mult: 0
    decay_mult: 0
  }
  bn_param {
    slope_filler {
      type: "constant"
      value: 1
    }
    bias_filler {
      type: "constant"
      value: 0
    }
    momentum: 0.95
    frozen: true
  }
}
layer {
  name: "conv3_1"
  type: "Eltwise"
  bottom: "conv3_1_1x1_proj"
  bottom: "conv3_1_1x1_increase"
  top: "conv3_1"
  eltwise_param {
    operation: SUM
  }
}
layer {
  name: "conv3_1/relu"
  type: "ReLU"
  bottom: "conv3_1"
  top: "conv3_1"
}
layer {
  name: "conv3_2_1x1_reduce"
  type: "Convolution"
  bottom: "conv3_1"
  top: "conv3_2_1x1_reduce"
  param {
    lr_mult: 1
    decay_mult: 1
  }
  convolution_param {
    num_output: 128
    bias_term: false
    pad: 0
    kernel_size: 1
    stride: 1
    weight_filler {
      type: "msra"
    }
  }
}
layer {
  name: "conv3_2_1x1_reduce/bn"
  type: "BN"
  bottom: "conv3_2_1x1_reduce"
  top: "conv3_2_1x1_reduce"
  param {
    lr_mult: 1
    decay_mult: 0
  }
  param {
    lr_mult: 1
    decay_mult: 0
  }
  param {
    lr_mult: 0
    decay_mult: 0
  }
  param {
    lr_mult: 0
    decay_mult: 0
  }
  bn_param {
    slope_filler {
      type: "constant"
      value: 1
    }
    bias_filler {
      type: "constant"
      value: 0
    }
    momentum: 0.95
    frozen: true
  }
}
layer {
  name: "conv3_2_1x1_reduce/relu"
  type: "ReLU"
  bottom: "conv3_2_1x1_reduce"
  top: "conv3_2_1x1_reduce"
}
layer {
  name: "conv3_2_3x3"
  type: "Convolution"
  bottom: "conv3_2_1x1_reduce"
  top: "conv3_2_3x3"
  param {
    lr_mult: 1
    decay_mult: 1
  }
  convolution_param {
    num_output: 128
    bias_term: false
    pad: 1
    kernel_size: 3
    stride: 1
    weight_filler {
      type: "msra"
    }
  }
}
layer {
  name: "conv3_2_3x3/bn"
  type: "BN"
  bottom: "conv3_2_3x3"
  top: "conv3_2_3x3"
  param {
    lr_mult: 1
    decay_mult: 0
  }
  param {
    lr_mult: 1
    decay_mult: 0
  }
  param {
    lr_mult: 0
    decay_mult: 0
  }
  param {
    lr_mult: 0
    decay_mult: 0
  }
  bn_param {
    slope_filler {
      type: "constant"
      value: 1
    }
    bias_filler {
      type: "constant"
      value: 0
    }
    momentum: 0.95
    frozen: true
  }
}
layer {
  name: "conv3_2_3x3/relu"
  type: "ReLU"
  bottom: "conv3_2_3x3"
  top: "conv3_2_3x3"
}
layer {
  name: "conv3_2_1x1_increase"
  type: "Convolution"
  bottom: "conv3_2_3x3"
  top: "conv3_2_1x1_increase"
  param {
    lr_mult: 1
    decay_mult: 1
  }
  convolution_param {
    num_output: 512
    bias_term: false
    pad: 0
    kernel_size: 1
    stride: 1
    weight_filler {
      type: "msra"
    }
  }
}
layer {
  name: "conv3_2_1x1_increase/bn"
  type: "BN"
  bottom: "conv3_2_1x1_increase"
  top: "conv3_2_1x1_increase"
  param {
    lr_mult: 1
    decay_mult: 0
  }
  param {
    lr_mult: 1
    decay_mult: 0
  }
  param {
    lr_mult: 0
    decay_mult: 0
  }
  param {
    lr_mult: 0
    decay_mult: 0
  }
  bn_param {
    slope_filler {
      type: "constant"
      value: 1
    }
    bias_filler {
      type: "constant"
      value: 0
    }
    momentum: 0.95
    frozen: true
  }
}
layer {
  name: "conv3_2"
  type: "Eltwise"
  bottom: "conv3_1"
  bottom: "conv3_2_1x1_increase"
  top: "conv3_2"
  eltwise_param {
    operation: SUM
  }
}
layer {
  name: "conv3_2/relu"
  type: "ReLU"
  bottom: "conv3_2"
  top: "conv3_2"
}
layer {
  name: "conv3_3_1x1_reduce"
  type: "Convolution"
  bottom: "conv3_2"
  top: "conv3_3_1x1_reduce"
  param {
    lr_mult: 1
    decay_mult: 1
  }
  convolution_param {
    num_output: 128
    bias_term: false
    pad: 0
    kernel_size: 1
    stride: 1
    weight_filler {
      type: "msra"
    }
  }
}
layer {
  name: "conv3_3_1x1_reduce/bn"
  type: "BN"
  bottom: "conv3_3_1x1_reduce"
  top: "conv3_3_1x1_reduce"
  param {
    lr_mult: 1
    decay_mult: 0
  }
  param {
    lr_mult: 1
    decay_mult: 0
  }
  param {
    lr_mult: 0
    decay_mult: 0
  }
  param {
    lr_mult: 0
    decay_mult: 0
  }
  bn_param {
    slope_filler {
      type: "constant"
      value: 1
    }
    bias_filler {
      type: "constant"
      value: 0
    }
    momentum: 0.95
    frozen: true
  }
}
layer {
  name: "conv3_3_1x1_reduce/relu"
  type: "ReLU"
  bottom: "conv3_3_1x1_reduce"
  top: "conv3_3_1x1_reduce"
}
layer {
  name: "conv3_3_3x3"
  type: "Convolution"
  bottom: "conv3_3_1x1_reduce"
  top: "conv3_3_3x3"
  param {
    lr_mult: 1
    decay_mult: 1
  }
  convolution_param {
    num_output: 128
    bias_term: false
    pad: 1
    kernel_size: 3
    stride: 1
    weight_filler {
      type: "msra"
    }
  }
}
layer {
  name: "conv3_3_3x3/bn"
  type: "BN"
  bottom: "conv3_3_3x3"
  top: "conv3_3_3x3"
  param {
    lr_mult: 1
    decay_mult: 0
  }
  param {
    lr_mult: 1
    decay_mult: 0
  }
  param {
    lr_mult: 0
    decay_mult: 0
  }
  param {
    lr_mult: 0
    decay_mult: 0
  }
  bn_param {
    slope_filler {
      type: "constant"
      value: 1
    }
    bias_filler {
      type: "constant"
      value: 0
    }
    momentum: 0.95
    frozen: true
  }
}
layer {
  name: "conv3_3_3x3/relu"
  type: "ReLU"
  bottom: "conv3_3_3x3"
  top: "conv3_3_3x3"
}
layer {
  name: "conv3_3_1x1_increase"
  type: "Convolution"
  bottom: "conv3_3_3x3"
  top: "conv3_3_1x1_increase"
  param {
    lr_mult: 1
    decay_mult: 1
  }
  convolution_param {
    num_output: 512
    bias_term: false
    pad: 0
    kernel_size: 1
    stride: 1
    weight_filler {
      type: "msra"
    }
  }
}
layer {
  name: "conv3_3_1x1_increase/bn"
  type: "BN"
  bottom: "conv3_3_1x1_increase"
  top: "conv3_3_1x1_increase"
  param {
    lr_mult: 1
    decay_mult: 0
  }
  param {
    lr_mult: 1
    decay_mult: 0
  }
  param {
    lr_mult: 0
    decay_mult: 0
  }
  param {
    lr_mult: 0
    decay_mult: 0
  }
  bn_param {
    slope_filler {
      type: "constant"
      value: 1
    }
    bias_filler {
      type: "constant"
      value: 0
    }
    momentum: 0.95
    frozen: true
  }
}
layer {
  name: "conv3_3"
  type: "Eltwise"
  bottom: "conv3_2"
  bottom: "conv3_3_1x1_increase"
  top: "conv3_3"
  eltwise_param {
    operation: SUM
  }
}
layer {
  name: "conv3_3/relu"
  type: "ReLU"
  bottom: "conv3_3"
  top: "conv3_3"
}
layer {
  name: "conv3_4_1x1_reduce"
  type: "Convolution"
  bottom: "conv3_3"
  top: "conv3_4_1x1_reduce"
  param {
    lr_mult: 1
    decay_mult: 1
  }
  convolution_param {
    num_output: 128
    bias_term: false
    pad: 0
    kernel_size: 1
    stride: 1
    weight_filler {
      type: "msra"
    }
  }
}
layer {
  name: "conv3_4_1x1_reduce/bn"
  type: "BN"
  bottom: "conv3_4_1x1_reduce"
  top: "conv3_4_1x1_reduce"
  param {
    lr_mult: 1
    decay_mult: 0
  }
  param {
    lr_mult: 1
    decay_mult: 0
  }
  param {
    lr_mult: 0
    decay_mult: 0
  }
  param {
    lr_mult: 0
    decay_mult: 0
  }
  bn_param {
    slope_filler {
      type: "constant"
      value: 1
    }
    bias_filler {
      type: "constant"
      value: 0
    }
    momentum: 0.95
    frozen: true
  }
}
layer {
  name: "conv3_4_1x1_reduce/relu"
  type: "ReLU"
  bottom: "conv3_4_1x1_reduce"
  top: "conv3_4_1x1_reduce"
}
layer {
  name: "conv3_4_3x3"
  type: "Convolution"
  bottom: "conv3_4_1x1_reduce"
  top: "conv3_4_3x3"
  param {
    lr_mult: 1
    decay_mult: 1
  }
  convolution_param {
    num_output: 128
    bias_term: false
    pad: 1
    kernel_size: 3
    stride: 1
    weight_filler {
      type: "msra"
    }
  }
}
layer {
  name: "conv3_4_3x3/bn"
  type: "BN"
  bottom: "conv3_4_3x3"
  top: "conv3_4_3x3"
  param {
    lr_mult: 1
    decay_mult: 0
  }
  param {
    lr_mult: 1
    decay_mult: 0
  }
  param {
    lr_mult: 0
    decay_mult: 0
  }
  param {
    lr_mult: 0
    decay_mult: 0
  }
  bn_param {
    slope_filler {
      type: "constant"
      value: 1
    }
    bias_filler {
      type: "constant"
      value: 0
    }
    momentum: 0.95
    frozen: true
  }
}
layer {
  name: "conv3_4_3x3/relu"
  type: "ReLU"
  bottom: "conv3_4_3x3"
  top: "conv3_4_3x3"
}
layer {
  name: "conv3_4_1x1_increase"
  type: "Convolution"
  bottom: "conv3_4_3x3"
  top: "conv3_4_1x1_increase"
  param {
    lr_mult: 1
    decay_mult: 1
  }
  convolution_param {
    num_output: 512
    bias_term: false
    pad: 0
    kernel_size: 1
    stride: 1
    weight_filler {
      type: "msra"
    }
  }
}
layer {
  name: "conv3_4_1x1_increase/bn"
  type: "BN"
  bottom: "conv3_4_1x1_increase"
  top: "conv3_4_1x1_increase"
  param {
    lr_mult: 1
    decay_mult: 0
  }
  param {
    lr_mult: 1
    decay_mult: 0
  }
  param {
    lr_mult: 0
    decay_mult: 0
  }
  param {
    lr_mult: 0
    decay_mult: 0
  }
  bn_param {
    slope_filler {
      type: "constant"
      value: 1
    }
    bias_filler {
      type: "constant"
      value: 0
    }
    momentum: 0.95
    frozen: true
  }
}
layer {
  name: "conv3_4"
  type: "Eltwise"
  bottom: "conv3_3"
  bottom: "conv3_4_1x1_increase"
  top: "conv3_4"
  eltwise_param {
    operation: SUM
  }
}
layer {
  name: "conv3_4/relu"
  type: "ReLU"
  bottom: "conv3_4"
  top: "conv3_4"
}
layer {
  name: "conv4_1_1x1_reduce"
  type: "Convolution"
  bottom: "conv3_4"
  top: "conv4_1_1x1_reduce"
  param {
    lr_mult: 1
    decay_mult: 1
  }
  convolution_param {
    num_output: 256
    bias_term: false
    pad: 0
    kernel_size: 1
    stride: 1
    weight_filler {
      type: "msra"
    }
  }
}
layer {
  name: "conv4_1_1x1_reduce/bn"
  type: "BN"
  bottom: "conv4_1_1x1_reduce"
  top: "conv4_1_1x1_reduce"
  param {
    lr_mult: 1
    decay_mult: 0
  }
  param {
    lr_mult: 1
    decay_mult: 0
  }
  param {
    lr_mult: 0
    decay_mult: 0
  }
  param {
    lr_mult: 0
    decay_mult: 0
  }
  bn_param {
    slope_filler {
      type: "constant"
      value: 1
    }
    bias_filler {
      type: "constant"
      value: 0
    }
    momentum: 0.95
    frozen: true
  }
}
layer {
  name: "conv4_1_1x1_reduce/relu"
  type: "ReLU"
  bottom: "conv4_1_1x1_reduce"
  top: "conv4_1_1x1_reduce"
}
layer {
  name: "conv4_1_3x3"
  type: "Convolution"
  bottom: "conv4_1_1x1_reduce"
  top: "conv4_1_3x3"
  param {
    lr_mult: 1
    decay_mult: 1
  }
  convolution_param {
    num_output: 256
    bias_term: false
    pad: 2
    kernel_size: 3
    stride: 1
    weight_filler {
      type: "msra"
    }
    dilation: 2
  }
}
layer {
  name: "conv4_1_3x3/bn"
  type: "BN"
  bottom: "conv4_1_3x3"
  top: "conv4_1_3x3"
  param {
    lr_mult: 1
    decay_mult: 0
  }
  param {
    lr_mult: 1
    decay_mult: 0
  }
  param {
    lr_mult: 0
    decay_mult: 0
  }
  param {
    lr_mult: 0
    decay_mult: 0
  }
  bn_param {
    slope_filler {
      type: "constant"
      value: 1
    }
    bias_filler {
      type: "constant"
      value: 0
    }
    momentum: 0.95
    frozen: true
  }
}
layer {
  name: "conv4_1_3x3/relu"
  type: "ReLU"
  bottom: "conv4_1_3x3"
  top: "conv4_1_3x3"
}
layer {
  name: "conv4_1_1x1_increase"
  type: "Convolution"
  bottom: "conv4_1_3x3"
  top: "conv4_1_1x1_increase"
  param {
    lr_mult: 1
    decay_mult: 1
  }
  convolution_param {
    num_output: 1024
    bias_term: false
    pad: 0
    kernel_size: 1
    stride: 1
    weight_filler {
      type: "msra"
    }
  }
}
layer {
  name: "conv4_1_1x1_increase/bn"
  type: "BN"
  bottom: "conv4_1_1x1_increase"
  top: "conv4_1_1x1_increase"
  param {
    lr_mult: 1
    decay_mult: 0
  }
  param {
    lr_mult: 1
    decay_mult: 0
  }
  param {
    lr_mult: 0
    decay_mult: 0
  }
  param {
    lr_mult: 0
    decay_mult: 0
  }
  bn_param {
    slope_filler {
      type: "constant"
      value: 1
    }
    bias_filler {
      type: "constant"
      value: 0
    }
    momentum: 0.95
    frozen: true
  }
}
layer {
  name: "conv4_1_1x1_proj"
  type: "Convolution"
  bottom: "conv3_4"
  top: "conv4_1_1x1_proj"
  param {
    lr_mult: 1
    decay_mult: 1
  }
  convolution_param {
    num_output: 1024
    bias_term: false
    pad: 0
    kernel_size: 1
    stride: 1
    weight_filler {
      type: "msra"
    }
  }
}
layer {
  name: "conv4_1_1x1_proj/bn"
  type: "BN"
  bottom: "conv4_1_1x1_proj"
  top: "conv4_1_1x1_proj"
  param {
    lr_mult: 1
    decay_mult: 0
  }
  param {
    lr_mult: 1
    decay_mult: 0
  }
  param {
    lr_mult: 0
    decay_mult: 0
  }
  param {
    lr_mult: 0
    decay_mult: 0
  }
  bn_param {
    slope_filler {
      type: "constant"
      value: 1
    }
    bias_filler {
      type: "constant"
      value: 0
    }
    momentum: 0.95
    frozen: true
  }
}
layer {
  name: "conv4_1"
  type: "Eltwise"
  bottom: "conv4_1_1x1_proj"
  bottom: "conv4_1_1x1_increase"
  top: "conv4_1"
  eltwise_param {
    operation: SUM
  }
}
layer {
  name: "conv4_1/relu"
  type: "ReLU"
  bottom: "conv4_1"
  top: "conv4_1"
}
layer {
  name: "conv4_2_1x1_reduce"
  type: "Convolution"
  bottom: "conv4_1"
  top: "conv4_2_1x1_reduce"
  param {
    lr_mult: 1
    decay_mult: 1
  }
  convolution_param {
    num_output: 256
    bias_term: false
    pad: 0
    kernel_size: 1
    stride: 1
    weight_filler {
      type: "msra"
    }
  }
}
layer {
  name: "conv4_2_1x1_reduce/bn"
  type: "BN"
  bottom: "conv4_2_1x1_reduce"
  top: "conv4_2_1x1_reduce"
  param {
    lr_mult: 1
    decay_mult: 0
  }
  param {
    lr_mult: 1
    decay_mult: 0
  }
  param {
    lr_mult: 0
    decay_mult: 0
  }
  param {
    lr_mult: 0
    decay_mult: 0
  }
  bn_param {
    slope_filler {
      type: "constant"
      value: 1
    }
    bias_filler {
      type: "constant"
      value: 0
    }
    momentum: 0.95
    frozen: true
  }
}
layer {
  name: "conv4_2_1x1_reduce/relu"
  type: "ReLU"
  bottom: "conv4_2_1x1_reduce"
  top: "conv4_2_1x1_reduce"
}
layer {
  name: "conv4_2_3x3"
  type: "Convolution"
  bottom: "conv4_2_1x1_reduce"
  top: "conv4_2_3x3"
  param {
    lr_mult: 1
    decay_mult: 1
  }
  convolution_param {
    num_output: 256
    bias_term: false
    pad: 2
    kernel_size: 3
    stride: 1
    weight_filler {
      type: "msra"
    }
    dilation: 2
  }
}
layer {
  name: "conv4_2_3x3/bn"
  type: "BN"
  bottom: "conv4_2_3x3"
  top: "conv4_2_3x3"
  param {
    lr_mult: 1
    decay_mult: 0
  }
  param {
    lr_mult: 1
    decay_mult: 0
  }
  param {
    lr_mult: 0
    decay_mult: 0
  }
  param {
    lr_mult: 0
    decay_mult: 0
  }
  bn_param {
    slope_filler {
      type: "constant"
      value: 1
    }
    bias_fille
I0620 13:01:04.591437  7135 layer_factory.hpp:77] Creating layer data
I0620 13:01:04.591475  7135 net.cpp:106] Creating Layer data
I0620 13:01:04.591481  7135 net.cpp:411] data -> data
I0620 13:01:04.591503  7135 net.cpp:411] data -> label
I0620 13:01:04.591511  7135 net.cpp:411] data -> (automatic)
I0620 13:01:04.591842  7135 image_seg_data_layer.cpp:46] Opening file exper/voc12/list/train_aug.txt
I0620 13:01:04.601092  7135 image_seg_data_layer.cpp:63] Shuffling data
I0620 13:01:04.602084  7135 image_seg_data_layer.cpp:68] A total of 10582 images.
I0620 13:01:04.631680  7135 image_seg_data_layer.cpp:137] output data size: 2,3,473,473
I0620 13:01:04.631762  7135 image_seg_data_layer.cpp:141] output label size: 2,1,473,473
I0620 13:01:04.631772  7135 image_seg_data_layer.cpp:145] output data_dim size: 2,1,1,2
I0620 13:01:04.667979  7135 net.cpp:150] Setting up data
I0620 13:01:04.668001  7135 net.cpp:157] Top shape: 2 3 473 473 (1342374)
I0620 13:01:04.668006  7135 net.cpp:157] Top shape: 2 1 473 473 (447458)
I0620 13:01:04.668010  7135 net.cpp:157] Top shape: 2 1 1 2 (4)
I0620 13:01:04.668015  7135 net.cpp:165] Memory required for data: 7159344
I0620 13:01:04.668025  7135 layer_factory.hpp:77] Creating layer conv1_1_3x3_s2
I0620 13:01:04.668056  7135 net.cpp:106] Creating Layer conv1_1_3x3_s2
I0620 13:01:04.668063  7135 net.cpp:454] conv1_1_3x3_s2 <- data
I0620 13:01:04.668076  7135 net.cpp:411] conv1_1_3x3_s2 -> conv1_1_3x3_s2
I0620 13:01:04.668936  7135 net.cpp:150] Setting up conv1_1_3x3_s2
I0620 13:01:04.668947  7135 net.cpp:157] Top shape: 2 64 237 237 (7189632)
I0620 13:01:04.668952  7135 net.cpp:165] Memory required for data: 35917872
I0620 13:01:04.668963  7135 layer_factory.hpp:77] Creating layer conv1_1_3x3_s2/bn
I0620 13:01:04.668972  7135 net.cpp:106] Creating Layer conv1_1_3x3_s2/bn
I0620 13:01:04.668977  7135 net.cpp:454] conv1_1_3x3_s2/bn <- conv1_1_3x3_s2
I0620 13:01:04.668984  7135 net.cpp:397] conv1_1_3x3_s2/bn -> conv1_1_3x3_s2 (in-place)
I0620 13:01:04.672443  7135 net.cpp:150] Setting up conv1_1_3x3_s2/bn
I0620 13:01:04.672459  7135 net.cpp:157] Top shape: 2 64 237 237 (7189632)
I0620 13:01:04.672462  7135 net.cpp:165] Memory required for data: 64676400
I0620 13:01:04.672492  7135 layer_factory.hpp:77] Creating layer conv1_1_3x3_s2/relu
I0620 13:01:04.672503  7135 net.cpp:106] Creating Layer conv1_1_3x3_s2/relu
I0620 13:01:04.672507  7135 net.cpp:454] conv1_1_3x3_s2/relu <- conv1_1_3x3_s2
I0620 13:01:04.672510  7135 net.cpp:397] conv1_1_3x3_s2/relu -> conv1_1_3x3_s2 (in-place)
I0620 13:01:04.672521  7135 net.cpp:150] Setting up conv1_1_3x3_s2/relu
I0620 13:01:04.672523  7135 net.cpp:157] Top shape: 2 64 237 237 (7189632)
I0620 13:01:04.672525  7135 net.cpp:165] Memory required for data: 93434928
I0620 13:01:04.672528  7135 layer_factory.hpp:77] Creating layer conv1_2_3x3
I0620 13:01:04.672536  7135 net.cpp:106] Creating Layer conv1_2_3x3
I0620 13:01:04.672540  7135 net.cpp:454] conv1_2_3x3 <- conv1_1_3x3_s2
I0620 13:01:04.672544  7135 net.cpp:411] conv1_2_3x3 -> conv1_2_3x3
I0620 13:01:04.673434  7135 net.cpp:150] Setting up conv1_2_3x3
I0620 13:01:04.673439  7135 net.cpp:157] Top shape: 2 64 237 237 (7189632)
I0620 13:01:04.673442  7135 net.cpp:165] Memory required for data: 122193456
I0620 13:01:04.673445  7135 layer_factory.hpp:77] Creating layer conv1_2_3x3/bn
I0620 13:01:04.673454  7135 net.cpp:106] Creating Layer conv1_2_3x3/bn
I0620 13:01:04.673457  7135 net.cpp:454] conv1_2_3x3/bn <- conv1_2_3x3
I0620 13:01:04.673463  7135 net.cpp:397] conv1_2_3x3/bn -> conv1_2_3x3 (in-place)
I0620 13:01:04.673705  7135 net.cpp:150] Setting up conv1_2_3x3/bn
I0620 13:01:04.673712  7135 net.cpp:157] Top shape: 2 64 237 237 (7189632)
I0620 13:01:04.673715  7135 net.cpp:165] Memory required for data: 150951984
I0620 13:01:04.673774  7135 layer_factory.hpp:77] Creating layer conv1_2_3x3/relu
I0620 13:01:04.673780  7135 net.cpp:106] Creating Layer conv1_2_3x3/relu
I0620 13:01:04.673784  7135 net.cpp:454] conv1_2_3x3/relu <- conv1_2_3x3
I0620 13:01:04.673789  7135 net.cpp:397] conv1_2_3x3/relu -> conv1_2_3x3 (in-place)
I0620 13:01:04.673796  7135 net.cpp:150] Setting up conv1_2_3x3/relu
I0620 13:01:04.673800  7135 net.cpp:157] Top shape: 2 64 237 237 (7189632)
I0620 13:01:04.673804  7135 net.cpp:165] Memory required for data: 179710512
I0620 13:01:04.673806  7135 layer_factory.hpp:77] Creating layer conv1_3_3x3
I0620 13:01:04.673812  7135 net.cpp:106] Creating Layer conv1_3_3x3
I0620 13:01:04.673815  7135 net.cpp:454] conv1_3_3x3 <- conv1_2_3x3
I0620 13:01:04.673820  7135 net.cpp:411] conv1_3_3x3 -> conv1_3_3x3
I0620 13:01:04.675518  7135 net.cpp:150] Setting up conv1_3_3x3
I0620 13:01:04.675524  7135 net.cpp:157] Top shape: 2 128 237 237 (14379264)
I0620 13:01:04.675530  7135 net.cpp:165] Memory required for data: 237227568
I0620 13:01:04.675535  7135 layer_factory.hpp:77] Creating layer conv1_3_3x3/bn
I0620 13:01:04.675544  7135 net.cpp:106] Creating Layer conv1_3_3x3/bn
I0620 13:01:04.675550  7135 net.cpp:454] conv1_3_3x3/bn <- conv1_3_3x3
I0620 13:01:04.675556  7135 net.cpp:397] conv1_3_3x3/bn -> conv1_3_3x3 (in-place)
I0620 13:01:04.675837  7135 net.cpp:150] Setting up conv1_3_3x3/bn
I0620 13:01:04.675844  7135 net.cpp:157] Top shape: 2 128 237 237 (14379264)
I0620 13:01:04.675848  7135 net.cpp:165] Memory required for data: 294744624
I0620 13:01:04.675855  7135 layer_factory.hpp:77] Creating layer conv1_3_3x3/relu
I0620 13:01:04.675861  7135 net.cpp:106] Creating Layer conv1_3_3x3/relu
I0620 13:01:04.675864  7135 net.cpp:454] conv1_3_3x3/relu <- conv1_3_3x3
I0620 13:01:04.675869  7135 net.cpp:397] conv1_3_3x3/relu -> conv1_3_3x3 (in-place)
I0620 13:01:04.675874  7135 net.cpp:150] Setting up conv1_3_3x3/relu
I0620 13:01:04.675879  7135 net.cpp:157] Top shape: 2 128 237 237 (14379264)
I0620 13:01:04.675884  7135 net.cpp:165] Memory required for data: 352261680
I0620 13:01:04.675889  7135 layer_factory.hpp:77] Creating layer pool1_3x3_s2
I0620 13:01:04.675897  7135 net.cpp:106] Creating Layer pool1_3x3_s2
I0620 13:01:04.675902  7135 net.cpp:454] pool1_3x3_s2 <- conv1_3_3x3
I0620 13:01:04.675916  7135 net.cpp:411] pool1_3x3_s2 -> pool1_3x3_s2
I0620 13:01:04.675969  7135 net.cpp:150] Setting up pool1_3x3_s2
I0620 13:01:04.675976  7135 net.cpp:157] Top shape: 2 128 119 119 (3625216)
I0620 13:01:04.675995  7135 net.cpp:165] Memory required for data: 366762544
I0620 13:01:04.675999  7135 layer_factory.hpp:77] Creating layer pool1_3x3_s2_pool1_3x3_s2_0_split
I0620 13:01:04.676010  7135 net.cpp:106] Creating Layer pool1_3x3_s2_pool1_3x3_s2_0_split
I0620 13:01:04.676015  7135 net.cpp:454] pool1_3x3_s2_pool1_3x3_s2_0_split <- pool1_3x3_s2
I0620 13:01:04.676021  7135 net.cpp:411] pool1_3x3_s2_pool1_3x3_s2_0_split -> pool1_3x3_s2_pool1_3x3_s2_0_split_0
I0620 13:01:04.676028  7135 net.cpp:411] pool1_3x3_s2_pool1_3x3_s2_0_split -> pool1_3x3_s2_pool1_3x3_s2_0_split_1
I0620 13:01:04.676056  7135 net.cpp:150] Setting up pool1_3x3_s2_pool1_3x3_s2_0_split
I0620 13:01:04.676064  7135 net.cpp:157] Top shape: 2 128 119 119 (3625216)
I0620 13:01:04.676070  7135 net.cpp:157] Top shape: 2 128 119 119 (3625216)
I0620 13:01:04.676074  7135 net.cpp:165] Memory required for data: 395764272
I0620 13:01:04.676079  7135 layer_factory.hpp:77] Creating layer conv2_1_1x1_reduce
I0620 13:01:04.676090  7135 net.cpp:106] Creating Layer conv2_1_1x1_reduce
I0620 13:01:04.676093  7135 net.cpp:454] conv2_1_1x1_reduce <- pool1_3x3_s2_pool1_3x3_s2_0_split_0
I0620 13:01:04.676100  7135 net.cpp:411] conv2_1_1x1_reduce -> conv2_1_1x1_reduce
I0620 13:01:04.678966  7135 net.cpp:150] Setting up conv2_1_1x1_reduce
I0620 13:01:04.679005  7135 net.cpp:157] Top shape: 2 64 119 119 (1812608)
I0620 13:01:04.679009  7135 net.cpp:165] Memory required for data: 403014704
I0620 13:01:04.679030  7135 layer_factory.hpp:77] Creating layer conv2_1_1x1_reduce/bn
I0620 13:01:04.679060  7135 net.cpp:106] Creating Layer conv2_1_1x1_reduce/bn
I0620 13:01:04.679072  7135 net.cpp:454] conv2_1_1x1_reduce/bn <- conv2_1_1x1_reduce
I0620 13:01:04.679086  7135 net.cpp:397] conv2_1_1x1_reduce/bn -> conv2_1_1x1_reduce (in-place)
I0620 13:01:04.679294  7135 net.cpp:150] Setting up conv2_1_1x1_reduce/bn
I0620 13:01:04.679301  7135 net.cpp:157] Top shape: 2 64 119 119 (1812608)
I0620 13:01:04.679303  7135 net.cpp:165] Memory required for data: 410265136
I0620 13:01:04.679316  7135 layer_factory.hpp:77] Creating layer conv2_1_1x1_reduce/relu
I0620 13:01:04.679322  7135 net.cpp:106] Creating Layer conv2_1_1x1_reduce/relu
I0620 13:01:04.679325  7135 net.cpp:454] conv2_1_1x1_reduce/relu <- conv2_1_1x1_reduce
I0620 13:01:04.679330  7135 net.cpp:397] conv2_1_1x1_reduce/relu -> conv2_1_1x1_reduce (in-place)
I0620 13:01:04.679337  7135 net.cpp:150] Setting up conv2_1_1x1_reduce/relu
I0620 13:01:04.679339  7135 net.cpp:157] Top shape: 2 64 119 119 (1812608)
I0620 13:01:04.679342  7135 net.cpp:165] Memory required for data: 417515568
I0620 13:01:04.679345  7135 layer_factory.hpp:77] Creating layer conv2_1_3x3
I0620 13:01:04.679354  7135 net.cpp:106] Creating Layer conv2_1_3x3
I0620 13:01:04.679360  7135 net.cpp:454] conv2_1_3x3 <- conv2_1_1x1_reduce
I0620 13:01:04.679368  7135 net.cpp:411] conv2_1_3x3 -> conv2_1_3x3
I0620 13:01:04.680459  7135 net.cpp:150] Setting up conv2_1_3x3
I0620 13:01:04.680471  7135 net.cpp:157] Top shape: 2 64 119 119 (1812608)
I0620 13:01:04.680479  7135 net.cpp:165] Memory required for data: 424766000
I0620 13:01:04.680483  7135 layer_factory.hpp:77] Creating layer conv2_1_3x3/bn
I0620 13:01:04.680491  7135 net.cpp:106] Creating Layer conv2_1_3x3/bn
I0620 13:01:04.680495  7135 net.cpp:454] conv2_1_3x3/bn <- conv2_1_3x3
I0620 13:01:04.680498  7135 net.cpp:397] conv2_1_3x3/bn -> conv2_1_3x3 (in-place)
I0620 13:01:04.680667  7135 net.cpp:150] Setting up conv2_1_3x3/bn
I0620 13:01:04.680673  7135 net.cpp:157] Top shape: 2 64 119 119 (1812608)
I0620 13:01:04.680676  7135 net.cpp:165] Memory required for data: 432016432
I0620 13:01:04.680682  7135 layer_factory.hpp:77] Creating layer conv2_1_3x3/relu
I0620 13:01:04.680688  7135 net.cpp:106] Creating Layer conv2_1_3x3/relu
I0620 13:01:04.680691  7135 net.cpp:454] conv2_1_3x3/relu <- conv2_1_3x3
I0620 13:01:04.680696  7135 net.cpp:397] conv2_1_3x3/relu -> conv2_1_3x3 (in-place)
I0620 13:01:04.680699  7135 net.cpp:150] Setting up conv2_1_3x3/relu
I0620 13:01:04.680702  7135 net.cpp:157] Top shape: 2 64 119 119 (1812608)
I0620 13:01:04.680758  7135 net.cpp:165] Memory required for data: 439266864
I0620 13:01:04.680766  7135 layer_factory.hpp:77] Creating layer conv2_1_1x1_increase
I0620 13:01:04.680784  7135 net.cpp:106] Creating Layer conv2_1_1x1_increase
I0620 13:01:04.680793  7135 net.cpp:454] conv2_1_1x1_increase <- conv2_1_3x3
I0620 13:01:04.680804  7135 net.cpp:411] conv2_1_1x1_increase -> conv2_1_1x1_increase
I0620 13:01:04.681375  7135 net.cpp:150] Setting up conv2_1_1x1_increase
I0620 13:01:04.681383  7135 net.cpp:157] Top shape: 2 256 119 119 (7250432)
I0620 13:01:04.681386  7135 net.cpp:165] Memory required for data: 468268592
I0620 13:01:04.681391  7135 layer_factory.hpp:77] Creating layer conv2_1_1x1_increase/bn
I0620 13:01:04.681401  7135 net.cpp:106] Creating Layer conv2_1_1x1_increase/bn
I0620 13:01:04.681404  7135 net.cpp:454] conv2_1_1x1_increase/bn <- conv2_1_1x1_increase
I0620 13:01:04.681411  7135 net.cpp:397] conv2_1_1x1_increase/bn -> conv2_1_1x1_increase (in-place)
I0620 13:01:04.681579  7135 net.cpp:150] Setting up conv2_1_1x1_increase/bn
I0620 13:01:04.681584  7135 net.cpp:157] Top shape: 2 256 119 119 (7250432)
I0620 13:01:04.681587  7135 net.cpp:165] Memory required for data: 497270320
I0620 13:01:04.681594  7135 layer_factory.hpp:77] Creating layer conv2_1_1x1_proj
I0620 13:01:04.681602  7135 net.cpp:106] Creating Layer conv2_1_1x1_proj
I0620 13:01:04.681607  7135 net.cpp:454] conv2_1_1x1_proj <- pool1_3x3_s2_pool1_3x3_s2_0_split_1
I0620 13:01:04.681612  7135 net.cpp:411] conv2_1_1x1_proj -> conv2_1_1x1_proj
I0620 13:01:04.682587  7135 net.cpp:150] Setting up conv2_1_1x1_proj
I0620 13:01:04.682598  7135 net.cpp:157] Top shape: 2 256 119 119 (7250432)
I0620 13:01:04.682600  7135 net.cpp:165] Memory required for data: 526272048
I0620 13:01:04.682605  7135 layer_factory.hpp:77] Creating layer conv2_1_1x1_proj/bn
I0620 13:01:04.682615  7135 net.cpp:106] Creating Layer conv2_1_1x1_proj/bn
I0620 13:01:04.682622  7135 net.cpp:454] conv2_1_1x1_proj/bn <- conv2_1_1x1_proj
I0620 13:01:04.682629  7135 net.cpp:397] conv2_1_1x1_proj/bn -> conv2_1_1x1_proj (in-place)
I0620 13:01:04.682804  7135 net.cpp:150] Setting up conv2_1_1x1_proj/bn
I0620 13:01:04.682816  7135 net.cpp:157] Top shape: 2 256 119 119 (7250432)
I0620 13:01:04.682822  7135 net.cpp:165] Memory required for data: 555273776
I0620 13:01:04.682850  7135 layer_factory.hpp:77] Creating layer conv2_1
I0620 13:01:04.682878  7135 net.cpp:106] Creating Layer conv2_1
I0620 13:01:04.682881  7135 net.cpp:454] conv2_1 <- conv2_1_1x1_proj
I0620 13:01:04.682885  7135 net.cpp:454] conv2_1 <- conv2_1_1x1_increase
I0620 13:01:04.682889  7135 net.cpp:411] conv2_1 -> conv2_1
I0620 13:01:04.682924  7135 net.cpp:150] Setting up conv2_1
I0620 13:01:04.682929  7135 net.cpp:157] Top shape: 2 256 119 119 (7250432)
I0620 13:01:04.682931  7135 net.cpp:165] Memory required for data: 584275504
I0620 13:01:04.682934  7135 layer_factory.hpp:77] Creating layer conv2_1/relu
I0620 13:01:04.682940  7135 net.cpp:106] Creating Layer conv2_1/relu
I0620 13:01:04.682942  7135 net.cpp:454] conv2_1/relu <- conv2_1
I0620 13:01:04.682945  7135 net.cpp:397] conv2_1/relu -> conv2_1 (in-place)
I0620 13:01:04.682952  7135 net.cpp:150] Setting up conv2_1/relu
I0620 13:01:04.682955  7135 net.cpp:157] Top shape: 2 256 119 119 (7250432)
I0620 13:01:04.682957  7135 net.cpp:165] Memory required for data: 613277232
I0620 13:01:04.682960  7135 layer_factory.hpp:77] Creating layer conv2_1_conv2_1/relu_0_split
I0620 13:01:04.682966  7135 net.cpp:106] Creating Layer conv2_1_conv2_1/relu_0_split
I0620 13:01:04.682968  7135 net.cpp:454] conv2_1_conv2_1/relu_0_split <- conv2_1
I0620 13:01:04.682974  7135 net.cpp:411] conv2_1_conv2_1/relu_0_split -> conv2_1_conv2_1/relu_0_split_0
I0620 13:01:04.682981  7135 net.cpp:411] conv2_1_conv2_1/relu_0_split -> conv2_1_conv2_1/relu_0_split_1
I0620 13:01:04.683022  7135 net.cpp:150] Setting up conv2_1_conv2_1/relu_0_split
I0620 13:01:04.683032  7135 net.cpp:157] Top shape: 2 256 119 119 (7250432)
I0620 13:01:04.683035  7135 net.cpp:157] Top shape: 2 256 119 119 (7250432)
I0620 13:01:04.683063  7135 net.cpp:165] Memory required for data: 671280688
I0620 13:01:04.683066  7135 layer_factory.hpp:77] Creating layer conv2_2_1x1_reduce
I0620 13:01:04.683073  7135 net.cpp:106] Creating Layer conv2_2_1x1_reduce
I0620 13:01:04.683075  7135 net.cpp:454] conv2_2_1x1_reduce <- conv2_1_conv2_1/relu_0_split_0
I0620 13:01:04.683079  7135 net.cpp:411] conv2_2_1x1_reduce -> conv2_2_1x1_reduce
I0620 13:01:04.683611  7135 net.cpp:150] Setting up conv2_2_1x1_reduce
I0620 13:01:04.683620  7135 net.cpp:157] Top shape: 2 64 119 119 (1812608)
I0620 13:01:04.683624  7135 net.cpp:165] Memory required for data: 678531120
I0620 13:01:04.683626  7135 layer_factory.hpp:77] Creating layer conv2_2_1x1_reduce/bn
I0620 13:01:04.683632  7135 net.cpp:106] Creating Layer conv2_2_1x1_reduce/bn
I0620 13:01:04.683634  7135 net.cpp:454] conv2_2_1x1_reduce/bn <- conv2_2_1x1_reduce
I0620 13:01:04.683639  7135 net.cpp:397] conv2_2_1x1_reduce/bn -> conv2_2_1x1_reduce (in-place)
I0620 13:01:04.683812  7135 net.cpp:150] Setting up conv2_2_1x1_reduce/bn
I0620 13:01:04.683818  7135 net.cpp:157] Top shape: 2 64 119 119 (1812608)
I0620 13:01:04.683820  7135 net.cpp:165] Memory required for data: 685781552
I0620 13:01:04.683826  7135 layer_factory.hpp:77] Creating layer conv2_2_1x1_reduce/relu
I0620 13:01:04.683835  7135 net.cpp:106] Creating Layer conv2_2_1x1_reduce/relu
I0620 13:01:04.683840  7135 net.cpp:454] conv2_2_1x1_reduce/relu <- conv2_2_1x1_reduce
I0620 13:01:04.683845  7135 net.cpp:397] conv2_2_1x1_reduce/relu -> conv2_2_1x1_reduce (in-place)
I0620 13:01:04.683854  7135 net.cpp:150] Setting up conv2_2_1x1_reduce/relu
I0620 13:01:04.683861  7135 net.cpp:157] Top shape: 2 64 119 119 (1812608)
I0620 13:01:04.683867  7135 net.cpp:165] Memory required for data: 693031984
I0620 13:01:04.683871  7135 layer_factory.hpp:77] Creating layer conv2_2_3x3
I0620 13:01:04.683879  7135 net.cpp:106] Creating Layer conv2_2_3x3
I0620 13:01:04.683883  7135 net.cpp:454] conv2_2_3x3 <- conv2_2_1x1_reduce
I0620 13:01:04.683889  7135 net.cpp:411] conv2_2_3x3 -> conv2_2_3x3
I0620 13:01:04.684836  7135 net.cpp:150] Setting up conv2_2_3x3
I0620 13:01:04.684844  7135 net.cpp:157] Top shape: 2 64 119 119 (1812608)
I0620 13:01:04.684845  7135 net.cpp:165] Memory required for data: 700282416
I0620 13:01:04.684849  7135 layer_factory.hpp:77] Creating layer conv2_2_3x3/bn
I0620 13:01:04.684854  7135 net.cpp:106] Creating Layer conv2_2_3x3/bn
I0620 13:01:04.684855  7135 net.cpp:454] conv2_2_3x3/bn <- conv2_2_3x3
I0620 13:01:04.684859  7135 net.cpp:397] conv2_2_3x3/bn -> conv2_2_3x3 (in-place)
I0620 13:01:04.684983  7135 net.cpp:150] Setting up conv2_2_3x3/bn
I0620 13:01:04.684988  7135 net.cpp:157] Top shape: 2 64 119 119 (1812608)
I0620 13:01:04.684990  7135 net.cpp:165] Memory required for data: 707532848
I0620 13:01:04.684995  7135 layer_factory.hpp:77] Creating layer conv2_2_3x3/relu
I0620 13:01:04.684999  7135 net.cpp:106] Creating Layer conv2_2_3x3/relu
I0620 13:01:04.685001  7135 net.cpp:454] conv2_2_3x3/relu <- conv2_2_3x3
I0620 13:01:04.685003  7135 net.cpp:397] conv2_2_3x3/relu -> conv2_2_3x3 (in-place)
I0620 13:01:04.685008  7135 net.cpp:150] Setting up conv2_2_3x3/relu
I0620 13:01:04.685010  7135 net.cpp:157] Top shape: 2 64 119 119 (1812608)
I0620 13:01:04.685012  7135 net.cpp:165] Memory required for data: 714783280
I0620 13:01:04.685014  7135 layer_factory.hpp:77] Creating layer conv2_2_1x1_increase
I0620 13:01:04.685019  7135 net.cpp:106] Creating Layer conv2_2_1x1_increase
I0620 13:01:04.685022  7135 net.cpp:454] conv2_2_1x1_increase <- conv2_2_3x3
I0620 13:01:04.685026  7135 net.cpp:411] conv2_2_1x1_increase -> conv2_2_1x1_increase
I0620 13:01:04.685546  7135 net.cpp:150] Setting up conv2_2_1x1_increase
I0620 13:01:04.685556  7135 net.cpp:157] Top shape: 2 256 119 119 (7250432)
I0620 13:01:04.685560  7135 net.cpp:165] Memory required for data: 743785008
I0620 13:01:04.685565  7135 layer_factory.hpp:77] Creating layer conv2_2_1x1_increase/bn
I0620 13:01:04.685575  7135 net.cpp:106] Creating Layer conv2_2_1x1_increase/bn
I0620 13:01:04.685591  7135 net.cpp:454] conv2_2_1x1_increase/bn <- conv2_2_1x1_increase
I0620 13:01:04.685598  7135 net.cpp:397] conv2_2_1x1_increase/bn -> conv2_2_1x1_increase (in-place)
I0620 13:01:04.685767  7135 net.cpp:150] Setting up conv2_2_1x1_increase/bn
I0620 13:01:04.685777  7135 net.cpp:157] Top shape: 2 256 119 119 (7250432)
I0620 13:01:04.685781  7135 net.cpp:165] Memory required for data: 772786736
I0620 13:01:04.685787  7135 layer_factory.hpp:77] Creating layer conv2_2
I0620 13:01:04.685793  7135 net.cpp:106] Creating Layer conv2_2
I0620 13:01:04.685796  7135 net.cpp:454] conv2_2 <- conv2_1_conv2_1/relu_0_split_1
I0620 13:01:04.685801  7135 net.cpp:454] conv2_2 <- conv2_2_1x1_increase
I0620 13:01:04.685803  7135 net.cpp:411] conv2_2 -> conv2_2
I0620 13:01:04.685824  7135 net.cpp:150] Setting up conv2_2
I0620 13:01:04.685829  7135 net.cpp:157] Top shape: 2 256 119 119 (7250432)
I0620 13:01:04.685832  7135 net.cpp:165] Memory required for data: 801788464
I0620 13:01:04.685834  7135 layer_factory.hpp:77] Creating layer conv2_2/relu
I0620 13:01:04.685839  7135 net.cpp:106] Creating Layer conv2_2/relu
I0620 13:01:04.685844  7135 net.cpp:454] conv2_2/relu <- conv2_2
I0620 13:01:04.685849  7135 net.cpp:397] conv2_2/relu -> conv2_2 (in-place)
I0620 13:01:04.685854  7135 net.cpp:150] Setting up conv2_2/relu
I0620 13:01:04.685858  7135 net.cpp:157] Top shape: 2 256 119 119 (7250432)
I0620 13:01:04.685860  7135 net.cpp:165] Memory required for data: 830790192
I0620 13:01:04.685863  7135 layer_factory.hpp:77] Creating layer conv2_2_conv2_2/relu_0_split
I0620 13:01:04.685868  7135 net.cpp:106] Creating Layer conv2_2_conv2_2/relu_0_split
I0620 13:01:04.685873  7135 net.cpp:454] conv2_2_conv2_2/relu_0_split <- conv2_2
I0620 13:01:04.685879  7135 net.cpp:411] conv2_2_conv2_2/relu_0_split -> conv2_2_conv2_2/relu_0_split_0
I0620 13:01:04.685884  7135 net.cpp:411] conv2_2_conv2_2/relu_0_split -> conv2_2_conv2_2/relu_0_split_1
I0620 13:01:04.685907  7135 net.cpp:150] Setting up conv2_2_conv2_2/relu_0_split
I0620 13:01:04.685912  7135 net.cpp:157] Top shape: 2 256 119 119 (7250432)
I0620 13:01:04.685915  7135 net.cpp:157] Top shape: 2 256 119 119 (7250432)
I0620 13:01:04.685917  7135 net.cpp:165] Memory required for data: 888793648
I0620 13:01:04.685920  7135 layer_factory.hpp:77] Creating layer conv2_3_1x1_reduce
I0620 13:01:04.685925  7135 net.cpp:106] Creating Layer conv2_3_1x1_reduce
I0620 13:01:04.685928  7135 net.cpp:454] conv2_3_1x1_reduce <- conv2_2_conv2_2/relu_0_split_0
I0620 13:01:04.685935  7135 net.cpp:411] conv2_3_1x1_reduce -> conv2_3_1x1_reduce
I0620 13:01:04.686430  7135 net.cpp:150] Setting up conv2_3_1x1_reduce
I0620 13:01:04.686439  7135 net.cpp:157] Top shape: 2 64 119 119 (1812608)
I0620 13:01:04.686441  7135 net.cpp:165] Memory required for data: 896044080
I0620 13:01:04.686444  7135 layer_factory.hpp:77] Creating layer conv2_3_1x1_reduce/bn
I0620 13:01:04.686450  7135 net.cpp:106] Creating Layer conv2_3_1x1_reduce/bn
I0620 13:01:04.686453  7135 net.cpp:454] conv2_3_1x1_reduce/bn <- conv2_3_1x1_reduce
I0620 13:01:04.686456  7135 net.cpp:397] conv2_3_1x1_reduce/bn -> conv2_3_1x1_reduce (in-place)
I0620 13:01:04.686619  7135 net.cpp:150] Setting up conv2_3_1x1_reduce/bn
I0620 13:01:04.686627  7135 net.cpp:157] Top shape: 2 64 119 119 (1812608)
I0620 13:01:04.686630  7135 net.cpp:165] Memory required for data: 903294512
I0620 13:01:04.686636  7135 layer_factory.hpp:77] Creating layer conv2_3_1x1_reduce/relu
I0620 13:01:04.686640  7135 net.cpp:106] Creating Layer conv2_3_1x1_reduce/relu
I0620 13:01:04.686642  7135 net.cpp:454] conv2_3_1x1_reduce/relu <- conv2_3_1x1_reduce
I0620 13:01:04.686646  7135 net.cpp:397] conv2_3_1x1_reduce/relu -> conv2_3_1x1_reduce (in-place)
I0620 13:01:04.686652  7135 net.cpp:150] Setting up conv2_3_1x1_reduce/relu
I0620 13:01:04.686658  7135 net.cpp:157] Top shape: 2 64 119 119 (1812608)
I0620 13:01:04.686661  7135 net.cpp:165] Memory required for data: 910544944
I0620 13:01:04.686663  7135 layer_factory.hpp:77] Creating layer conv2_3_3x3
I0620 13:01:04.686668  7135 net.cpp:106] Creating Layer conv2_3_3x3
I0620 13:01:04.686679  7135 net.cpp:454] conv2_3_3x3 <- conv2_3_1x1_reduce
I0620 13:01:04.686691  7135 net.cpp:411] conv2_3_3x3 -> conv2_3_3x3
I0620 13:01:04.687952  7135 net.cpp:150] Setting up conv2_3_3x3
I0620 13:01:04.687968  7135 net.cpp:157] Top shape: 2 64 119 119 (1812608)
I0620 13:01:04.687973  7135 net.cpp:165] Memory required for data: 917795376
I0620 13:01:04.687979  7135 layer_factory.hpp:77] Creating layer conv2_3_3x3/bn
I0620 13:01:04.687990  7135 net.cpp:106] Creating Layer conv2_3_3x3/bn
I0620 13:01:04.687995  7135 net.cpp:454] conv2_3_3x3/bn <- conv2_3_3x3
I0620 13:01:04.688001  7135 net.cpp:397] conv2_3_3x3/bn -> conv2_3_3x3 (in-place)
I0620 13:01:04.688235  7135 net.cpp:150] Setting up conv2_3_3x3/bn
I0620 13:01:04.688241  7135 net.cpp:157] Top shape: 2 64 119 119 (1812608)
I0620 13:01:04.688246  7135 net.cpp:165] Memory required for data: 925045808
I0620 13:01:04.688254  7135 layer_factory.hpp:77] Creating layer conv2_3_3x3/relu
I0620 13:01:04.688261  7135 net.cpp:106] Creating Layer conv2_3_3x3/relu
I0620 13:01:04.688266  7135 net.cpp:454] conv2_3_3x3/relu <- conv2_3_3x3
I0620 13:01:04.688271  7135 net.cpp:397] conv2_3_3x3/relu -> conv2_3_3x3 (in-place)
I0620 13:01:04.688277  7135 net.cpp:150] Setting up conv2_3_3x3/relu
I0620 13:01:04.688282  7135 net.cpp:157] Top shape: 2 64 119 119 (1812608)
I0620 13:01:04.688287  7135 net.cpp:165] Memory required for data: 932296240
I0620 13:01:04.688290  7135 layer_factory.hpp:77] Creating layer conv2_3_1x1_increase
I0620 13:01:04.688302  7135 net.cpp:106] Creating Layer conv2_3_1x1_increase
I0620 13:01:04.688305  7135 net.cpp:454] conv2_3_1x1_increase <- conv2_3_3x3
I0620 13:01:04.688313  7135 net.cpp:411] conv2_3_1x1_increase -> conv2_3_1x1_increase
I0620 13:01:04.688978  7135 net.cpp:150] Setting up conv2_3_1x1_increase
I0620 13:01:04.688997  7135 net.cpp:157] Top shape: 2 256 119 119 (7250432)
I0620 13:01:04.689000  7135 net.cpp:165] Memory required for data: 961297968
I0620 13:01:04.689007  7135 layer_factory.hpp:77] Creating layer conv2_3_1x1_increase/bn
I0620 13:01:04.689020  7135 net.cpp:106] Creating Layer conv2_3_1x1_increase/bn
I0620 13:01:04.709065  7135 net.cpp:454] conv2_3_1x1_increase/bn <- conv2_3_1x1_increase
I0620 13:01:04.709173  7135 net.cpp:397] conv2_3_1x1_increase/bn -> conv2_3_1x1_increase (in-place)
I0620 13:01:04.709589  7135 net.cpp:150] Setting up conv2_3_1x1_increase/bn
I0620 13:01:04.709609  7135 net.cpp:157] Top shape: 2 256 119 119 (7250432)
I0620 13:01:04.709614  7135 net.cpp:165] Memory required for data: 990299696
I0620 13:01:04.709651  7135 layer_factory.hpp:77] Creating layer conv2_3
I0620 13:01:04.709666  7135 net.cpp:106] Creating Layer conv2_3
I0620 13:01:04.709672  7135 net.cpp:454] conv2_3 <- conv2_2_conv2_2/relu_0_split_1
I0620 13:01:04.709678  7135 net.cpp:454] conv2_3 <- conv2_3_1x1_increase
I0620 13:01:04.709688  7135 net.cpp:411] conv2_3 -> conv2_3
I0620 13:01:04.709730  7135 net.cpp:150] Setting up conv2_3
I0620 13:01:04.709739  7135 net.cpp:157] Top shape: 2 256 119 119 (7250432)
I0620 13:01:04.709743  7135 net.cpp:165] Memory required for data: 1019301424
I0620 13:01:04.709748  7135 layer_factory.hpp:77] Creating layer conv2_3/relu
I0620 13:01:04.709774  7135 net.cpp:106] Creating Layer conv2_3/relu
I0620 13:01:04.709779  7135 net.cpp:454] conv2_3/relu <- conv2_3
I0620 13:01:04.709784  7135 net.cpp:397] conv2_3/relu -> conv2_3 (in-place)
I0620 13:01:04.709794  7135 net.cpp:150] Setting up conv2_3/relu
I0620 13:01:04.709800  7135 net.cpp:157] Top shape: 2 256 119 119 (7250432)
I0620 13:01:04.709803  7135 net.cpp:165] Memory required for data: 1048303152
I0620 13:01:04.709807  7135 layer_factory.hpp:77] Creating layer conv2_3_conv2_3/relu_0_split
I0620 13:01:04.709818  7135 net.cpp:106] Creating Layer conv2_3_conv2_3/relu_0_split
I0620 13:01:04.709822  7135 net.cpp:454] conv2_3_conv2_3/relu_0_split <- conv2_3
I0620 13:01:04.709830  7135 net.cpp:411] conv2_3_conv2_3/relu_0_split -> conv2_3_conv2_3/relu_0_split_0
I0620 13:01:04.709836  7135 net.cpp:411] conv2_3_conv2_3/relu_0_split -> conv2_3_conv2_3/relu_0_split_1
I0620 13:01:04.709944  7135 net.cpp:150] Setting up conv2_3_conv2_3/relu_0_split
I0620 13:01:04.709952  7135 net.cpp:157] Top shape: 2 256 119 119 (7250432)
I0620 13:01:04.709957  7135 net.cpp:157] Top shape: 2 256 119 119 (7250432)
I0620 13:01:04.709960  7135 net.cpp:165] Memory required for data: 1106306608
I0620 13:01:04.709965  7135 layer_factory.hpp:77] Creating layer conv3_1_1x1_reduce
I0620 13:01:04.709983  7135 net.cpp:106] Creating Layer conv3_1_1x1_reduce
I0620 13:01:04.709987  7135 net.cpp:454] conv3_1_1x1_reduce <- conv2_3_conv2_3/relu_0_split_0
I0620 13:01:04.709993  7135 net.cpp:411] conv3_1_1x1_reduce -> conv3_1_1x1_reduce
I0620 13:01:04.711235  7135 net.cpp:150] Setting up conv3_1_1x1_reduce
I0620 13:01:04.711248  7135 net.cpp:157] Top shape: 2 128 119 119 (3625216)
I0620 13:01:04.711253  7135 net.cpp:165] Memory required for data: 1120807472
I0620 13:01:04.711261  7135 layer_factory.hpp:77] Creating layer conv3_1_1x1_reduce/bn
I0620 13:01:04.711277  7135 net.cpp:106] Creating Layer conv3_1_1x1_reduce/bn
I0620 13:01:04.711282  7135 net.cpp:454] conv3_1_1x1_reduce/bn <- conv3_1_1x1_reduce
I0620 13:01:04.711289  7135 net.cpp:397] conv3_1_1x1_reduce/bn -> conv3_1_1x1_reduce (in-place)
I0620 13:01:04.711503  7135 net.cpp:150] Setting up conv3_1_1x1_reduce/bn
I0620 13:01:04.711511  7135 net.cpp:157] Top shape: 2 128 119 119 (3625216)
I0620 13:01:04.711515  7135 net.cpp:165] Memory required for data: 1135308336
I0620 13:01:04.711524  7135 layer_factory.hpp:77] Creating layer conv3_1_1x1_reduce/relu
I0620 13:01:04.711531  7135 net.cpp:106] Creating Layer conv3_1_1x1_reduce/relu
I0620 13:01:04.711535  7135 net.cpp:454] conv3_1_1x1_reduce/relu <- conv3_1_1x1_reduce
I0620 13:01:04.711540  7135 net.cpp:397] conv3_1_1x1_reduce/relu -> conv3_1_1x1_reduce (in-place)
I0620 13:01:04.711547  7135 net.cpp:150] Setting up conv3_1_1x1_reduce/relu
I0620 13:01:04.711554  7135 net.cpp:157] Top shape: 2 128 119 119 (3625216)
I0620 13:01:04.711556  7135 net.cpp:165] Memory required for data: 1149809200
I0620 13:01:04.711561  7135 layer_factory.hpp:77] Creating layer conv3_1_3x3
I0620 13:01:04.711570  7135 net.cpp:106] Creating Layer conv3_1_3x3
I0620 13:01:04.711575  7135 net.cpp:454] conv3_1_3x3 <- conv3_1_1x1_reduce
I0620 13:01:04.711581  7135 net.cpp:411] conv3_1_3x3 -> conv3_1_3x3
I0620 13:01:04.717032  7135 net.cpp:150] Setting up conv3_1_3x3
I0620 13:01:04.717105  7135 net.cpp:157] Top shape: 2 128 60 60 (921600)
I0620 13:01:04.717110  7135 net.cpp:165] Memory required for data: 1153495600
I0620 13:01:04.717118  7135 layer_factory.hpp:77] Creating layer conv3_1_3x3/bn
I0620 13:01:04.717130  7135 net.cpp:106] Creating Layer conv3_1_3x3/bn
I0620 13:01:04.717135  7135 net.cpp:454] conv3_1_3x3/bn <- conv3_1_3x3
I0620 13:01:04.717144  7135 net.cpp:397] conv3_1_3x3/bn -> conv3_1_3x3 (in-place)
I0620 13:01:04.717350  7135 net.cpp:150] Setting up conv3_1_3x3/bn
I0620 13:01:04.717357  7135 net.cpp:157] Top shape: 2 128 60 60 (921600)
I0620 13:01:04.717361  7135 net.cpp:165] Memory required for data: 1157182000
I0620 13:01:04.717370  7135 layer_factory.hpp:77] Creating layer conv3_1_3x3/relu
I0620 13:01:04.717382  7135 net.cpp:106] Creating Layer conv3_1_3x3/relu
I0620 13:01:04.717388  7135 net.cpp:454] conv3_1_3x3/relu <- conv3_1_3x3
I0620 13:01:04.717396  7135 net.cpp:397] conv3_1_3x3/relu -> conv3_1_3x3 (in-place)
I0620 13:01:04.717406  7135 net.cpp:150] Setting up conv3_1_3x3/relu
I0620 13:01:04.717413  7135 net.cpp:157] Top shape: 2 128 60 60 (921600)
I0620 13:01:04.717417  7135 net.cpp:165] Memory required for data: 1160868400
I0620 13:01:04.717424  7135 layer_factory.hpp:77] Creating layer conv3_1_1x1_increase
I0620 13:01:04.717440  7135 net.cpp:106] Creating Layer conv3_1_1x1_increase
I0620 13:01:04.717447  7135 net.cpp:454] conv3_1_1x1_increase <- conv3_1_3x3
I0620 13:01:04.717453  7135 net.cpp:411] conv3_1_1x1_increase -> conv3_1_1x1_increase
I0620 13:01:04.719175  7135 net.cpp:150] Setting up conv3_1_1x1_increase
I0620 13:01:04.719182  7135 net.cpp:157] Top shape: 2 512 60 60 (3686400)
I0620 13:01:04.719205  7135 net.cpp:165] Memory required for data: 1175614000
I0620 13:01:04.719209  7135 layer_factory.hpp:77] Creating layer conv3_1_1x1_increase/bn
I0620 13:01:04.719215  7135 net.cpp:106] Creating Layer conv3_1_1x1_increase/bn
I0620 13:01:04.719218  7135 net.cpp:454] conv3_1_1x1_increase/bn <- conv3_1_1x1_increase
I0620 13:01:04.719223  7135 net.cpp:397] conv3_1_1x1_increase/bn -> conv3_1_1x1_increase (in-place)
I0620 13:01:04.720352  7135 net.cpp:150] Setting up conv3_1_1x1_increase/bn
I0620 13:01:04.720367  7135 net.cpp:157] Top shape: 2 512 60 60 (3686400)
I0620 13:01:04.720371  7135 net.cpp:165] Memory required for data: 1190359600
I0620 13:01:04.720381  7135 layer_factory.hpp:77] Creating layer conv3_1_1x1_proj
I0620 13:01:04.720391  7135 net.cpp:106] Creating Layer conv3_1_1x1_proj
I0620 13:01:04.720397  7135 net.cpp:454] conv3_1_1x1_proj <- conv2_3_conv2_3/relu_0_split_1
I0620 13:01:04.720407  7135 net.cpp:411] conv3_1_1x1_proj -> conv3_1_1x1_proj
I0620 13:01:04.725543  7135 net.cpp:150] Setting up conv3_1_1x1_proj
I0620 13:01:04.725567  7135 net.cpp:157] Top shape: 2 512 60 60 (3686400)
I0620 13:01:04.725570  7135 net.cpp:165] Memory required for data: 1205105200
I0620 13:01:04.725577  7135 layer_factory.hpp:77] Creating layer conv3_1_1x1_proj/bn
I0620 13:01:04.725587  7135 net.cpp:106] Creating Layer conv3_1_1x1_proj/bn
I0620 13:01:04.725591  7135 net.cpp:454] conv3_1_1x1_proj/bn <- conv3_1_1x1_proj
I0620 13:01:04.725597  7135 net.cpp:397] conv3_1_1x1_proj/bn -> conv3_1_1x1_proj (in-place)
I0620 13:01:04.725735  7135 net.cpp:150] Setting up conv3_1_1x1_proj/bn
I0620 13:01:04.725740  7135 net.cpp:157] Top shape: 2 512 60 60 (3686400)
I0620 13:01:04.725742  7135 net.cpp:165] Memory required for data: 1219850800
I0620 13:01:04.725747  7135 layer_factory.hpp:77] Creating layer conv3_1
I0620 13:01:04.725767  7135 net.cpp:106] Creating Layer conv3_1
I0620 13:01:04.725770  7135 net.cpp:454] conv3_1 <- conv3_1_1x1_proj
I0620 13:01:04.725774  7135 net.cpp:454] conv3_1 <- conv3_1_1x1_increase
I0620 13:01:04.725777  7135 net.cpp:411] conv3_1 -> conv3_1
I0620 13:01:04.725796  7135 net.cpp:150] Setting up conv3_1
I0620 13:01:04.725801  7135 net.cpp:157] Top shape: 2 512 60 60 (3686400)
I0620 13:01:04.725803  7135 net.cpp:165] Memory required for data: 1234596400
I0620 13:01:04.725806  7135 layer_factory.hpp:77] Creating layer conv3_1/relu
I0620 13:01:04.725813  7135 net.cpp:106] Creating Layer conv3_1/relu
I0620 13:01:04.725816  7135 net.cpp:454] conv3_1/relu <- conv3_1
I0620 13:01:04.725819  7135 net.cpp:397] conv3_1/relu -> conv3_1 (in-place)
I0620 13:01:04.725826  7135 net.cpp:150] Setting up conv3_1/relu
I0620 13:01:04.725828  7135 net.cpp:157] Top shape: 2 512 60 60 (3686400)
I0620 13:01:04.725831  7135 net.cpp:165] Memory required for data: 1249342000
I0620 13:01:04.725834  7135 layer_factory.hpp:77] Creating layer conv3_1_conv3_1/relu_0_split
I0620 13:01:04.725838  7135 net.cpp:106] Creating Layer conv3_1_conv3_1/relu_0_split
I0620 13:01:04.725841  7135 net.cpp:454] conv3_1_conv3_1/relu_0_split <- conv3_1
I0620 13:01:04.725845  7135 net.cpp:411] conv3_1_conv3_1/relu_0_split -> conv3_1_conv3_1/relu_0_split_0
I0620 13:01:04.725849  7135 net.cpp:411] conv3_1_conv3_1/relu_0_split -> conv3_1_conv3_1/relu_0_split_1
I0620 13:01:04.725869  7135 net.cpp:150] Setting up conv3_1_conv3_1/relu_0_split
I0620 13:01:04.725874  7135 net.cpp:157] Top shape: 2 512 60 60 (3686400)
I0620 13:01:04.725878  7135 net.cpp:157] Top shape: 2 512 60 60 (3686400)
I0620 13:01:04.725880  7135 net.cpp:165] Memory required for data: 1278833200
I0620 13:01:04.725883  7135 layer_factory.hpp:77] Creating layer conv3_2_1x1_reduce
I0620 13:01:04.725889  7135 net.cpp:106] Creating Layer conv3_2_1x1_reduce
I0620 13:01:04.725893  7135 net.cpp:454] conv3_2_1x1_reduce <- conv3_1_conv3_1/relu_0_split_0
I0620 13:01:04.725896  7135 net.cpp:411] conv3_2_1x1_reduce -> conv3_2_1x1_reduce
I0620 13:01:04.727401  7135 net.cpp:150] Setting up conv3_2_1x1_reduce
I0620 13:01:04.727408  7135 net.cpp:157] Top shape: 2 128 60 60 (921600)
I0620 13:01:04.727425  7135 net.cpp:165] Memory required for data: 1282519600
I0620 13:01:04.727430  7135 layer_factory.hpp:77] Creating layer conv3_2_1x1_reduce/bn
I0620 13:01:04.727435  7135 net.cpp:106] Creating Layer conv3_2_1x1_reduce/bn
I0620 13:01:04.727438  7135 net.cpp:454] conv3_2_1x1_reduce/bn <- conv3_2_1x1_reduce
I0620 13:01:04.727442  7135 net.cpp:397] conv3_2_1x1_reduce/bn -> conv3_2_1x1_reduce (in-place)
I0620 13:01:04.727560  7135 net.cpp:150] Setting up conv3_2_1x1_reduce/bn
I0620 13:01:04.727566  7135 net.cpp:157] Top shape: 2 128 60 60 (921600)
I0620 13:01:04.727567  7135 net.cpp:165] Memory required for data: 1286206000
I0620 13:01:04.727572  7135 layer_factory.hpp:77] Creating layer conv3_2_1x1_reduce/relu
I0620 13:01:04.727576  7135 net.cpp:106] Creating Layer conv3_2_1x1_reduce/relu
I0620 13:01:04.727579  7135 net.cpp:454] conv3_2_1x1_reduce/relu <- conv3_2_1x1_reduce
I0620 13:01:04.727582  7135 net.cpp:397] conv3_2_1x1_reduce/relu -> conv3_2_1x1_reduce (in-place)
I0620 13:01:04.727586  7135 net.cpp:150] Setting up conv3_2_1x1_reduce/relu
I0620 13:01:04.727589  7135 net.cpp:157] Top shape: 2 128 60 60 (921600)
I0620 13:01:04.727592  7135 net.cpp:165] Memory required for data: 1289892400
I0620 13:01:04.727594  7135 layer_factory.hpp:77] Creating layer conv3_2_3x3
I0620 13:01:04.727601  7135 net.cpp:106] Creating Layer conv3_2_3x3
I0620 13:01:04.727603  7135 net.cpp:454] conv3_2_3x3 <- conv3_2_1x1_reduce
I0620 13:01:04.727607  7135 net.cpp:411] conv3_2_3x3 -> conv3_2_3x3
I0620 13:01:04.730916  7135 net.cpp:150] Setting up conv3_2_3x3
I0620 13:01:04.730947  7135 net.cpp:157] Top shape: 2 128 60 60 (921600)
I0620 13:01:04.730949  7135 net.cpp:165] Memory required for data: 1293578800
I0620 13:01:04.730960  7135 layer_factory.hpp:77] Creating layer conv3_2_3x3/bn
I0620 13:01:04.730993  7135 net.cpp:106] Creating Layer conv3_2_3x3/bn
I0620 13:01:04.739154  7135 net.cpp:454] conv3_2_3x3/bn <- conv3_2_3x3
I0620 13:01:04.739231  7135 net.cpp:397] conv3_2_3x3/bn -> conv3_2_3x3 (in-place)
I0620 13:01:04.739555  7135 net.cpp:150] Setting up conv3_2_3x3/bn
I0620 13:01:04.739573  7135 net.cpp:157] Top shape: 2 128 60 60 (921600)
I0620 13:01:04.739578  7135 net.cpp:165] Memory required for data: 1297265200
I0620 13:01:04.739593  7135 layer_factory.hpp:77] Creating layer conv3_2_3x3/relu
I0620 13:01:04.739611  7135 net.cpp:106] Creating Layer conv3_2_3x3/relu
I0620 13:01:04.739616  7135 net.cpp:454] conv3_2_3x3/relu <- conv3_2_3x3
I0620 13:01:04.739621  7135 net.cpp:397] conv3_2_3x3/relu -> conv3_2_3x3 (in-place)
I0620 13:01:04.739629  7135 net.cpp:150] Setting up conv3_2_3x3/relu
I0620 13:01:04.739634  7135 net.cpp:157] Top shape: 2 128 60 60 (921600)
I0620 13:01:04.739637  7135 net.cpp:165] Memory required for data: 1300951600
I0620 13:01:04.739641  7135 layer_factory.hpp:77] Creating layer conv3_2_1x1_increase
I0620 13:01:04.739651  7135 net.cpp:106] Creating Layer conv3_2_1x1_increase
I0620 13:01:04.739655  7135 net.cpp:454] conv3_2_1x1_increase <- conv3_2_3x3
I0620 13:01:04.739661  7135 net.cpp:411] conv3_2_1x1_increase -> conv3_2_1x1_increase
I0620 13:01:04.742437  7135 net.cpp:150] Setting up conv3_2_1x1_increase
I0620 13:01:04.742455  7135 net.cpp:157] Top shape: 2 512 60 60 (3686400)
I0620 13:01:04.742457  7135 net.cpp:165] Memory required for data: 1315697200
I0620 13:01:04.742462  7135 layer_factory.hpp:77] Creating layer conv3_2_1x1_increase/bn
I0620 13:01:04.742471  7135 net.cpp:106] Creating Layer conv3_2_1x1_increase/bn
I0620 13:01:04.742475  7135 net.cpp:454] conv3_2_1x1_increase/bn <- conv3_2_1x1_increase
I0620 13:01:04.742480  7135 net.cpp:397] conv3_2_1x1_increase/bn -> conv3_2_1x1_increase (in-place)
I0620 13:01:04.742616  7135 net.cpp:150] Setting up conv3_2_1x1_increase/bn
I0620 13:01:04.742621  7135 net.cpp:157] Top shape: 2 512 60 60 (3686400)
I0620 13:01:04.742624  7135 net.cpp:165] Memory required for data: 1330442800
I0620 13:01:04.742630  7135 layer_factory.hpp:77] Creating layer conv3_2
I0620 13:01:04.742635  7135 net.cpp:106] Creating Layer conv3_2
I0620 13:01:04.742637  7135 net.cpp:454] conv3_2 <- conv3_1_conv3_1/relu_0_split_1
I0620 13:01:04.742656  7135 net.cpp:454] conv3_2 <- conv3_2_1x1_increase
I0620 13:01:04.742660  7135 net.cpp:411] conv3_2 -> conv3_2
I0620 13:01:04.742677  7135 net.cpp:150] Setting up conv3_2
I0620 13:01:04.742681  7135 net.cpp:157] Top shape: 2 512 60 60 (3686400)
I0620 13:01:04.742683  7135 net.cpp:165] Memory required for data: 1345188400
I0620 13:01:04.742686  7135 layer_factory.hpp:77] Creating layer conv3_2/relu
I0620 13:01:04.742691  7135 net.cpp:106] Creating Layer conv3_2/relu
I0620 13:01:04.742693  7135 net.cpp:454] conv3_2/relu <- conv3_2
I0620 13:01:04.742697  7135 net.cpp:397] conv3_2/relu -> conv3_2 (in-place)
I0620 13:01:04.742702  7135 net.cpp:150] Setting up conv3_2/relu
I0620 13:01:04.742704  7135 net.cpp:157] Top shape: 2 512 60 60 (3686400)
I0620 13:01:04.742707  7135 net.cpp:165] Memory required for data: 1359934000
I0620 13:01:04.742709  7135 layer_factory.hpp:77] Creating layer conv3_2_conv3_2/relu_0_split
I0620 13:01:04.742713  7135 net.cpp:106] Creating Layer conv3_2_conv3_2/relu_0_split
I0620 13:01:04.742717  7135 net.cpp:454] conv3_2_conv3_2/relu_0_split <- conv3_2
I0620 13:01:04.742720  7135 net.cpp:411] conv3_2_conv3_2/relu_0_split -> conv3_2_conv3_2/relu_0_split_0
I0620 13:01:04.742724  7135 net.cpp:411] conv3_2_conv3_2/relu_0_split -> conv3_2_conv3_2/relu_0_split_1
I0620 13:01:04.742744  7135 net.cpp:150] Setting up conv3_2_conv3_2/relu_0_split
I0620 13:01:04.742749  7135 net.cpp:157] Top shape: 2 512 60 60 (3686400)
I0620 13:01:04.742753  7135 net.cpp:157] Top shape: 2 512 60 60 (3686400)
I0620 13:01:04.742755  7135 net.cpp:165] Memory required for data: 1389425200
I0620 13:01:04.742758  7135 layer_factory.hpp:77] Creating layer conv3_3_1x1_reduce
I0620 13:01:04.742765  7135 net.cpp:106] Creating Layer conv3_3_1x1_reduce
I0620 13:01:04.742769  7135 net.cpp:454] conv3_3_1x1_reduce <- conv3_2_conv3_2/relu_0_split_0
I0620 13:01:04.742774  7135 net.cpp:411] conv3_3_1x1_reduce -> conv3_3_1x1_reduce
I0620 13:01:04.745496  7135 net.cpp:150] Setting up conv3_3_1x1_reduce
I0620 13:01:04.745501  7135 net.cpp:157] Top shape: 2 128 60 60 (921600)
I0620 13:01:04.745504  7135 net.cpp:165] Memory required for data: 1393111600
I0620 13:01:04.745507  7135 layer_factory.hpp:77] Creating layer conv3_3_1x1_reduce/bn
I0620 13:01:04.745513  7135 net.cpp:106] Creating Layer conv3_3_1x1_reduce/bn
I0620 13:01:04.745517  7135 net.cpp:454] conv3_3_1x1_reduce/bn <- conv3_3_1x1_reduce
I0620 13:01:04.745519  7135 net.cpp:397] conv3_3_1x1_reduce/bn -> conv3_3_1x1_reduce (in-place)
I0620 13:01:04.746266  7135 net.cpp:150] Setting up conv3_3_1x1_reduce/bn
I0620 13:01:04.746275  7135 net.cpp:157] Top shape: 2 128 60 60 (921600)
I0620 13:01:04.746279  7135 net.cpp:165] Memory required for data: 1396798000
I0620 13:01:04.746285  7135 layer_factory.hpp:77] Creating layer conv3_3_1x1_reduce/relu
I0620 13:01:04.746289  7135 net.cpp:106] Creating Layer conv3_3_1x1_reduce/relu
I0620 13:01:04.746294  7135 net.cpp:454] conv3_3_1x1_reduce/relu <- conv3_3_1x1_reduce
I0620 13:01:04.746296  7135 net.cpp:397] conv3_3_1x1_reduce/relu -> conv3_3_1x1_reduce (in-place)
I0620 13:01:04.746302  7135 net.cpp:150] Setting up conv3_3_1x1_reduce/relu
I0620 13:01:04.746305  7135 net.cpp:157] Top shape: 2 128 60 60 (921600)
I0620 13:01:04.746307  7135 net.cpp:165] Memory required for data: 1400484400
I0620 13:01:04.746310  7135 layer_factory.hpp:77] Creating layer conv3_3_3x3
I0620 13:01:04.746317  7135 net.cpp:106] Creating Layer conv3_3_3x3
I0620 13:01:04.746320  7135 net.cpp:454] conv3_3_3x3 <- conv3_3_1x1_reduce
I0620 13:01:04.746325  7135 net.cpp:411] conv3_3_3x3 -> conv3_3_3x3
I0620 13:01:04.750368  7135 net.cpp:150] Setting up conv3_3_3x3
I0620 13:01:04.750414  7135 net.cpp:157] Top shape: 2 128 60 60 (921600)
I0620 13:01:04.750418  7135 net.cpp:165] Memory required for data: 1404170800
I0620 13:01:04.750427  7135 layer_factory.hpp:77] Creating layer conv3_3_3x3/bn
I0620 13:01:04.750443  7135 net.cpp:106] Creating Layer conv3_3_3x3/bn
I0620 13:01:04.750448  7135 net.cpp:454] conv3_3_3x3/bn <- conv3_3_3x3
I0620 13:01:04.750491  7135 net.cpp:397] conv3_3_3x3/bn -> conv3_3_3x3 (in-place)
I0620 13:01:04.750665  7135 net.cpp:150] Setting up conv3_3_3x3/bn
I0620 13:01:04.750671  7135 net.cpp:157] Top shape: 2 128 60 60 (921600)
I0620 13:01:04.750674  7135 net.cpp:165] Memory required for data: 1407857200
I0620 13:01:04.750679  7135 layer_factory.hpp:77] Creating layer conv3_3_3x3/relu
I0620 13:01:04.750686  7135 net.cpp:106] Creating Layer conv3_3_3x3/relu
I0620 13:01:04.750689  7135 net.cpp:454] conv3_3_3x3/relu <- conv3_3_3x3
I0620 13:01:04.750692  7135 net.cpp:397] conv3_3_3x3/relu -> conv3_3_3x3 (in-place)
I0620 13:01:04.750697  7135 net.cpp:150] Setting up conv3_3_3x3/relu
I0620 13:01:04.750700  7135 net.cpp:157] Top shape: 2 128 60 60 (921600)
I0620 13:01:04.750704  7135 net.cpp:165] Memory required for data: 1411543600
I0620 13:01:04.750706  7135 layer_factory.hpp:77] Creating layer conv3_3_1x1_increase
I0620 13:01:04.750715  7135 net.cpp:106] Creating Layer conv3_3_1x1_increase
I0620 13:01:04.750717  7135 net.cpp:454] conv3_3_1x1_increase <- conv3_3_3x3
I0620 13:01:04.750722  7135 net.cpp:411] conv3_3_1x1_increase -> conv3_3_1x1_increase
I0620 13:01:04.752342  7135 net.cpp:150] Setting up conv3_3_1x1_increase
I0620 13:01:04.752368  7135 net.cpp:157] Top shape: 2 512 60 60 (3686400)
I0620 13:01:04.752372  7135 net.cpp:165] Memory required for data: 1426289200
I0620 13:01:04.752378  7135 layer_factory.hpp:77] Creating layer conv3_3_1x1_increase/bn
I0620 13:01:04.752391  7135 net.cpp:106] Creating Layer conv3_3_1x1_increase/bn
I0620 13:01:04.752395  7135 net.cpp:454] conv3_3_1x1_increase/bn <- conv3_3_1x1_increase
I0620 13:01:04.752403  7135 net.cpp:397] conv3_3_1x1_increase/bn -> conv3_3_1x1_increase (in-place)
I0620 13:01:04.752600  7135 net.cpp:150] Setting up conv3_3_1x1_increase/bn
I0620 13:01:04.752612  7135 net.cpp:157] Top shape: 2 512 60 60 (3686400)
I0620 13:01:04.752616  7135 net.cpp:165] Memory required for data: 1441034800
I0620 13:01:04.752625  7135 layer_factory.hpp:77] Creating layer conv3_3
I0620 13:01:04.752635  7135 net.cpp:106] Creating Layer conv3_3
I0620 13:01:04.752640  7135 net.cpp:454] conv3_3 <- conv3_2_conv3_2/relu_0_split_1
I0620 13:01:04.752645  7135 net.cpp:454] conv3_3 <- conv3_3_1x1_increase
I0620 13:01:04.752651  7135 net.cpp:411] conv3_3 -> conv3_3
I0620 13:01:04.752678  7135 net.cpp:150] Setting up conv3_3
I0620 13:01:04.752686  7135 net.cpp:157] Top shape: 2 512 60 60 (3686400)
I0620 13:01:04.752689  7135 net.cpp:165] Memory required for data: 1455780400
I0620 13:01:04.752692  7135 layer_factory.hpp:77] Creating layer conv3_3/relu
I0620 13:01:04.752699  7135 net.cpp:106] Creating Layer conv3_3/relu
I0620 13:01:04.752703  7135 net.cpp:454] conv3_3/relu <- conv3_3
I0620 13:01:04.752708  7135 net.cpp:397] conv3_3/relu -> conv3_3 (in-place)
I0620 13:01:04.752714  7135 net.cpp:150] Setting up conv3_3/relu
I0620 13:01:04.752719  7135 net.cpp:157] Top shape: 2 512 60 60 (3686400)
I0620 13:01:04.752722  7135 net.cpp:165] Memory required for data: 1470526000
I0620 13:01:04.752724  7135 layer_factory.hpp:77] Creating layer conv3_3_conv3_3/relu_0_split
I0620 13:01:04.752730  7135 net.cpp:106] Creating Layer conv3_3_conv3_3/relu_0_split
I0620 13:01:04.752733  7135 net.cpp:454] conv3_3_conv3_3/relu_0_split <- conv3_3
I0620 13:01:04.752737  7135 net.cpp:411] conv3_3_conv3_3/relu_0_split -> conv3_3_conv3_3/relu_0_split_0
I0620 13:01:04.752741  7135 net.cpp:411] conv3_3_conv3_3/relu_0_split -> conv3_3_conv3_3/relu_0_split_1
I0620 13:01:04.752765  7135 net.cpp:150] Setting up conv3_3_conv3_3/relu_0_split
I0620 13:01:04.752769  7135 net.cpp:157] Top shape: 2 512 60 60 (3686400)
I0620 13:01:04.752773  7135 net.cpp:157] Top shape: 2 512 60 60 (3686400)
I0620 13:01:04.752775  7135 net.cpp:165] Memory required for data: 1500017200
I0620 13:01:04.752777  7135 layer_factory.hpp:77] Creating layer conv3_4_1x1_reduce
I0620 13:01:04.752787  7135 net.cpp:106] Creating Layer conv3_4_1x1_reduce
I0620 13:01:04.752790  7135 net.cpp:454] conv3_4_1x1_reduce <- conv3_3_conv3_3/relu_0_split_0
I0620 13:01:04.752794  7135 net.cpp:411] conv3_4_1x1_reduce -> conv3_4_1x1_reduce
I0620 13:01:04.754367  7135 net.cpp:150] Setting up conv3_4_1x1_reduce
I0620 13:01:04.754379  7135 net.cpp:157] Top shape: 2 128 60 60 (921600)
I0620 13:01:04.754381  7135 net.cpp:165] Memory required for data: 1503703600
I0620 13:01:04.754385  7135 layer_factory.hpp:77] Creating layer conv3_4_1x1_reduce/bn
I0620 13:01:04.754391  7135 net.cpp:106] Creating Layer conv3_4_1x1_reduce/bn
I0620 13:01:04.754395  7135 net.cpp:454] conv3_4_1x1_reduce/bn <- conv3_4_1x1_reduce
I0620 13:01:04.754397  7135 net.cpp:397] conv3_4_1x1_reduce/bn -> conv3_4_1x1_reduce (in-place)
I0620 13:01:04.754541  7135 net.cpp:150] Setting up conv3_4_1x1_reduce/bn
I0620 13:01:04.754547  7135 net.cpp:157] Top shape: 2 128 60 60 (921600)
I0620 13:01:04.754549  7135 net.cpp:165] Memory required for data: 1507390000
I0620 13:01:04.754555  7135 layer_factory.hpp:77] Creating layer conv3_4_1x1_reduce/relu
I0620 13:01:04.754560  7135 net.cpp:106] Creating Layer conv3_4_1x1_reduce/relu
I0620 13:01:04.754564  7135 net.cpp:454] conv3_4_1x1_reduce/relu <- conv3_4_1x1_reduce
I0620 13:01:04.754565  7135 net.cpp:397] conv3_4_1x1_reduce/relu -> conv3_4_1x1_reduce (in-place)
I0620 13:01:04.754570  7135 net.cpp:150] Setting up conv3_4_1x1_reduce/relu
I0620 13:01:04.754571  7135 net.cpp:157] Top shape: 2 128 60 60 (921600)
I0620 13:01:04.754573  7135 net.cpp:165] Memory required for data: 1511076400
I0620 13:01:04.754577  7135 layer_factory.hpp:77] Creating layer conv3_4_3x3
I0620 13:01:04.754585  7135 net.cpp:106] Creating Layer conv3_4_3x3
I0620 13:01:04.754587  7135 net.cpp:454] conv3_4_3x3 <- conv3_4_1x1_reduce
I0620 13:01:04.754592  7135 net.cpp:411] conv3_4_3x3 -> conv3_4_3x3
I0620 13:01:04.758100  7135 net.cpp:150] Setting up conv3_4_3x3
I0620 13:01:04.758121  7135 net.cpp:157] Top shape: 2 128 60 60 (921600)
I0620 13:01:04.758123  7135 net.cpp:165] Memory required for data: 1514762800
I0620 13:01:04.758129  7135 layer_factory.hpp:77] Creating layer conv3_4_3x3/bn
I0620 13:01:04.758139  7135 net.cpp:106] Creating Layer conv3_4_3x3/bn
I0620 13:01:04.758143  7135 net.cpp:454] conv3_4_3x3/bn <- conv3_4_3x3
I0620 13:01:04.758148  7135 net.cpp:397] conv3_4_3x3/bn -> conv3_4_3x3 (in-place)
I0620 13:01:04.758276  7135 net.cpp:150] Setting up conv3_4_3x3/bn
I0620 13:01:04.758281  7135 net.cpp:157] Top shape: 2 128 60 60 (921600)
I0620 13:01:04.758285  7135 net.cpp:165] Memory required for data: 1518449200
I0620 13:01:04.758291  7135 layer_factory.hpp:77] Creating layer conv3_4_3x3/relu
I0620 13:01:04.758296  7135 net.cpp:106] Creating Layer conv3_4_3x3/relu
I0620 13:01:04.758298  7135 net.cpp:454] conv3_4_3x3/relu <- conv3_4_3x3
I0620 13:01:04.758301  7135 net.cpp:397] conv3_4_3x3/relu -> conv3_4_3x3 (in-place)
I0620 13:01:04.758306  7135 net.cpp:150] Setting up conv3_4_3x3/relu
I0620 13:01:04.758309  7135 net.cpp:157] Top shape: 2 128 60 60 (921600)
I0620 13:01:04.758312  7135 net.cpp:165] Memory required for data: 1522135600
I0620 13:01:04.758316  7135 layer_factory.hpp:77] Creating layer conv3_4_1x1_increase
I0620 13:01:04.758322  7135 net.cpp:106] Creating Layer conv3_4_1x1_increase
I0620 13:01:04.758324  7135 net.cpp:454] conv3_4_1x1_increase <- conv3_4_3x3
I0620 13:01:04.758328  7135 net.cpp:411] conv3_4_1x1_increase -> conv3_4_1x1_increase
I0620 13:01:04.759948  7135 net.cpp:150] Setting up conv3_4_1x1_increase
I0620 13:01:04.759977  7135 net.cpp:157] Top shape: 2 512 60 60 (3686400)
I0620 13:01:04.759980  7135 net.cpp:165] Memory required for data: 1536881200
I0620 13:01:04.759987  7135 layer_factory.hpp:77] Creating layer conv3_4_1x1_increase/bn
I0620 13:01:04.760000  7135 net.cpp:106] Creating Layer conv3_4_1x1_increase/bn
I0620 13:01:04.760006  7135 net.cpp:454] conv3_4_1x1_increase/bn <- conv3_4_1x1_increase
I0620 13:01:04.760013  7135 net.cpp:397] conv3_4_1x1_increase/bn -> conv3_4_1x1_increase (in-place)
I0620 13:01:04.760171  7135 net.cpp:150] Setting up conv3_4_1x1_increase/bn
I0620 13:01:04.760176  7135 net.cpp:157] Top shape: 2 512 60 60 (3686400)
I0620 13:01:04.760179  7135 net.cpp:165] Memory required for data: 1551626800
I0620 13:01:04.760236  7135 layer_factory.hpp:77] Creating layer conv3_4
I0620 13:01:04.760242  7135 net.cpp:106] Creating Layer conv3_4
I0620 13:01:04.760246  7135 net.cpp:454] conv3_4 <- conv3_3_conv3_3/relu_0_split_1
I0620 13:01:04.760255  7135 net.cpp:454] conv3_4 <- conv3_4_1x1_increase
I0620 13:01:04.760259  7135 net.cpp:411] conv3_4 -> conv3_4
I0620 13:01:04.760279  7135 net.cpp:150] Setting up conv3_4
I0620 13:01:04.760283  7135 net.cpp:157] Top shape: 2 512 60 60 (3686400)
I0620 13:01:04.760285  7135 net.cpp:165] Memory required for data: 1566372400
I0620 13:01:04.760288  7135 layer_factory.hpp:77] Creating layer conv3_4/relu
I0620 13:01:04.760293  7135 net.cpp:106] Creating Layer conv3_4/relu
I0620 13:01:04.760295  7135 net.cpp:454] conv3_4/relu <- conv3_4
I0620 13:01:04.760300  7135 net.cpp:397] conv3_4/relu -> conv3_4 (in-place)
I0620 13:01:04.760305  7135 net.cpp:150] Setting up conv3_4/relu
I0620 13:01:04.760308  7135 net.cpp:157] Top shape: 2 512 60 60 (3686400)
I0620 13:01:04.760310  7135 net.cpp:165] Memory required for data: 1581118000
I0620 13:01:04.760313  7135 layer_factory.hpp:77] Creating layer conv3_4_conv3_4/relu_0_split
I0620 13:01:04.760318  7135 net.cpp:106] Creating Layer conv3_4_conv3_4/relu_0_split
I0620 13:01:04.760320  7135 net.cpp:454] conv3_4_conv3_4/relu_0_split <- conv3_4
I0620 13:01:04.760324  7135 net.cpp:411] conv3_4_conv3_4/relu_0_split -> conv3_4_conv3_4/relu_0_split_0
I0620 13:01:04.760327  7135 net.cpp:411] conv3_4_conv3_4/relu_0_split -> conv3_4_conv3_4/relu_0_split_1
I0620 13:01:04.760351  7135 net.cpp:150] Setting up conv3_4_conv3_4/relu_0_split
I0620 13:01:04.769413  7135 net.cpp:157] Top shape: 2 512 60 60 (3686400)
I0620 13:01:04.769449  7135 net.cpp:157] Top shape: 2 512 60 60 (3686400)
I0620 13:01:04.769454  7135 net.cpp:165] Memory required for data: 1610609200
I0620 13:01:04.769466  7135 layer_factory.hpp:77] Creating layer conv4_1_1x1_reduce
I0620 13:01:04.769515  7135 net.cpp:106] Creating Layer conv4_1_1x1_reduce
I0620 13:01:04.769526  7135 net.cpp:454] conv4_1_1x1_reduce <- conv3_4_conv3_4/relu_0_split_0
I0620 13:01:04.769542  7135 net.cpp:411] conv4_1_1x1_reduce -> conv4_1_1x1_reduce
I0620 13:01:04.774266  7135 net.cpp:150] Setting up conv4_1_1x1_reduce
I0620 13:01:04.774353  7135 net.cpp:157] Top shape: 2 256 60 60 (1843200)
I0620 13:01:04.774363  7135 net.cpp:165] Memory required for data: 1617982000
I0620 13:01:04.774384  7135 layer_factory.hpp:77] Creating layer conv4_1_1x1_reduce/bn
I0620 13:01:04.774416  7135 net.cpp:106] Creating Layer conv4_1_1x1_reduce/bn
I0620 13:01:04.774427  7135 net.cpp:454] conv4_1_1x1_reduce/bn <- conv4_1_1x1_reduce
I0620 13:01:04.774444  7135 net.cpp:397] conv4_1_1x1_reduce/bn -> conv4_1_1x1_reduce (in-place)
I0620 13:01:04.774724  7135 net.cpp:150] Setting up conv4_1_1x1_reduce/bn
I0620 13:01:04.774736  7135 net.cpp:157] Top shape: 2 256 60 60 (1843200)
I0620 13:01:04.774740  7135 net.cpp:165] Memory required for data: 1625354800
I0620 13:01:04.774749  7135 layer_factory.hpp:77] Creating layer conv4_1_1x1_reduce/relu
I0620 13:01:04.774761  7135 net.cpp:106] Creating Layer conv4_1_1x1_reduce/relu
I0620 13:01:04.774766  7135 net.cpp:454] conv4_1_1x1_reduce/relu <- conv4_1_1x1_reduce
I0620 13:01:04.774775  7135 net.cpp:397] conv4_1_1x1_reduce/relu -> conv4_1_1x1_reduce (in-place)
I0620 13:01:04.774783  7135 net.cpp:150] Setting up conv4_1_1x1_reduce/relu
I0620 13:01:04.774788  7135 net.cpp:157] Top shape: 2 256 60 60 (1843200)
I0620 13:01:04.774793  7135 net.cpp:165] Memory required for data: 1632727600
I0620 13:01:04.774797  7135 layer_factory.hpp:77] Creating layer conv4_1_3x3
I0620 13:01:04.774811  7135 net.cpp:106] Creating Layer conv4_1_3x3
I0620 13:01:04.774814  7135 net.cpp:454] conv4_1_3x3 <- conv4_1_1x1_reduce
I0620 13:01:04.774821  7135 net.cpp:411] conv4_1_3x3 -> conv4_1_3x3
I0620 13:01:04.793321  7135 net.cpp:150] Setting up conv4_1_3x3
I0620 13:01:04.793347  7135 net.cpp:157] Top shape: 2 256 60 60 (1843200)
I0620 13:01:04.793350  7135 net.cpp:165] Memory required for data: 1640100400
I0620 13:01:04.793385  7135 layer_factory.hpp:77] Creating layer conv4_1_3x3/bn
I0620 13:01:04.793392  7135 net.cpp:106] Creating Layer conv4_1_3x3/bn
I0620 13:01:04.793396  7135 net.cpp:454] conv4_1_3x3/bn <- conv4_1_3x3
I0620 13:01:04.793401  7135 net.cpp:397] conv4_1_3x3/bn -> conv4_1_3x3 (in-place)
I0620 13:01:04.793543  7135 net.cpp:150] Setting up conv4_1_3x3/bn
I0620 13:01:04.793548  7135 net.cpp:157] Top shape: 2 256 60 60 (1843200)
I0620 13:01:04.793550  7135 net.cpp:165] Memory required for data: 1647473200
I0620 13:01:04.793555  7135 layer_factory.hpp:77] Creating layer conv4_1_3x3/relu
I0620 13:01:04.793560  7135 net.cpp:106] Creating Layer conv4_1_3x3/relu
I0620 13:01:04.793562  7135 net.cpp:454] conv4_1_3x3/relu <- conv4_1_3x3
I0620 13:01:04.793565  7135 net.cpp:397] conv4_1_3x3/relu -> conv4_1_3x3 (in-place)
I0620 13:01:04.793570  7135 net.cpp:150] Setting up conv4_1_3x3/relu
I0620 13:01:04.793573  7135 net.cpp:157] Top shape: 2 256 60 60 (1843200)
I0620 13:01:04.793576  7135 net.cpp:165] Memory required for data: 1654846000
I0620 13:01:04.793578  7135 layer_factory.hpp:77] Creating layer conv4_1_1x1_increase
I0620 13:01:04.793586  7135 net.cpp:106] Creating Layer conv4_1_1x1_increase
I0620 13:01:04.793588  7135 net.cpp:454] conv4_1_1x1_increase <- conv4_1_3x3
I0620 13:01:04.793592  7135 net.cpp:411] conv4_1_1x1_increase -> conv4_1_1x1_increase
I0620 13:01:04.799854  7135 net.cpp:150] Setting up conv4_1_1x1_increase
I0620 13:01:04.799866  7135 net.cpp:157] Top shape: 2 1024 60 60 (7372800)
I0620 13:01:04.799870  7135 net.cpp:165] Memory required for data: 1684337200
I0620 13:01:04.799875  7135 layer_factory.hpp:77] Creating layer conv4_1_1x1_increase/bn
I0620 13:01:04.799882  7135 net.cpp:106] Creating Layer conv4_1_1x1_increase/bn
I0620 13:01:04.799885  7135 net.cpp:454] conv4_1_1x1_increase/bn <- conv4_1_1x1_increase
I0620 13:01:04.799890  7135 net.cpp:397] conv4_1_1x1_increase/bn -> conv4_1_1x1_increase (in-place)
I0620 13:01:04.800022  7135 net.cpp:150] Setting up conv4_1_1x1_increase/bn
I0620 13:01:04.800026  7135 net.cpp:157] Top shape: 2 1024 60 60 (7372800)
I0620 13:01:04.800029  7135 net.cpp:165] Memory required for data: 1713828400
I0620 13:01:04.800034  7135 layer_factory.hpp:77] Creating layer conv4_1_1x1_proj
I0620 13:01:04.800041  7135 net.cpp:106] Creating Layer conv4_1_1x1_proj
I0620 13:01:04.800045  7135 net.cpp:454] conv4_1_1x1_proj <- conv3_4_conv3_4/relu_0_split_1
I0620 13:01:04.800048  7135 net.cpp:411] conv4_1_1x1_proj -> conv4_1_1x1_proj
I0620 13:01:04.811923  7135 net.cpp:150] Setting up conv4_1_1x1_proj
I0620 13:01:04.811947  7135 net.cpp:157] Top shape: 2 1024 60 60 (7372800)
I0620 13:01:04.811950  7135 net.cpp:165] Memory required for data: 1743319600
I0620 13:01:04.811956  7135 layer_factory.hpp:77] Creating layer conv4_1_1x1_proj/bn
I0620 13:01:04.811967  7135 net.cpp:106] Creating Layer conv4_1_1x1_proj/bn
I0620 13:01:04.811971  7135 net.cpp:454] conv4_1_1x1_proj/bn <- conv4_1_1x1_proj
I0620 13:01:04.811980  7135 net.cpp:397] conv4_1_1x1_proj/bn -> conv4_1_1x1_proj (in-place)
I0620 13:01:04.812139  7135 net.cpp:150] Setting up conv4_1_1x1_proj/bn
I0620 13:01:04.812144  7135 net.cpp:157] Top shape: 2 1024 60 60 (7372800)
I0620 13:01:04.812146  7135 net.cpp:165] Memory required for data: 1772810800
I0620 13:01:04.812152  7135 layer_factory.hpp:77] Creating layer conv4_1
I0620 13:01:04.812156  7135 net.cpp:106] Creating Layer conv4_1
I0620 13:01:04.812160  7135 net.cpp:454] conv4_1 <- conv4_1_1x1_proj
I0620 13:01:04.812161  7135 net.cpp:454] conv4_1 <- conv4_1_1x1_increase
I0620 13:01:04.812165  7135 net.cpp:411] conv4_1 -> conv4_1
I0620 13:01:04.812182  7135 net.cpp:150] Setting up conv4_1
I0620 13:01:04.812186  7135 net.cpp:157] Top shape: 2 1024 60 60 (7372800)
I0620 13:01:04.812188  7135 net.cpp:165] Memory required for data: 1802302000
I0620 13:01:04.812191  7135 layer_factory.hpp:77] Creating layer conv4_1/relu
I0620 13:01:04.812194  7135 net.cpp:106] Creating Layer conv4_1/relu
I0620 13:01:04.812197  7135 net.cpp:454] conv4_1/relu <- conv4_1
I0620 13:01:04.812199  7135 net.cpp:397] conv4_1/relu -> conv4_1 (in-place)
I0620 13:01:04.812225  7135 net.cpp:150] Setting up conv4_1/relu
I0620 13:01:04.812228  7135 net.cpp:157] Top shape: 2 1024 60 60 (7372800)
I0620 13:01:04.812230  7135 net.cpp:165] Memory required for data: 1831793200
I0620 13:01:04.812232  7135 layer_factory.hpp:77] Creating layer conv4_1_conv4_1/relu_0_split
I0620 13:01:04.812237  7135 net.cpp:106] Creating Layer conv4_1_conv4_1/relu_0_split
I0620 13:01:04.812239  7135 net.cpp:454] conv4_1_conv4_1/relu_0_split <- conv4_1
I0620 13:01:04.812243  7135 net.cpp:411] conv4_1_conv4_1/relu_0_split -> conv4_1_conv4_1/relu_0_split_0
I0620 13:01:04.812247  7135 net.cpp:411] conv4_1_conv4_1/relu_0_split -> conv4_1_conv4_1/relu_0_split_1
I0620 13:01:04.812268  7135 net.cpp:150] Setting up conv4_1_conv4_1/relu_0_split
I0620 13:01:04.812273  7135 net.cpp:157] Top shape: 2 1024 60 60 (7372800)
I0620 13:01:04.812276  7135 net.cpp:157] Top shape: 2 1024 60 60 (7372800)
I0620 13:01:04.812278  7135 net.cpp:165] Memory required for data: 1890775600
I0620 13:01:04.812281  7135 layer_factory.hpp:77] Creating layer conv4_2_1x1_reduce
I0620 13:01:04.812294  7135 net.cpp:106] Creating Layer conv4_2_1x1_reduce
I0620 13:01:04.812297  7135 net.cpp:454] conv4_2_1x1_reduce <- conv4_1_conv4_1/relu_0_split_0
I0620 13:01:04.812301  7135 net.cpp:411] conv4_2_1x1_reduce -> conv4_2_1x1_reduce
I0620 13:01:04.818038  7135 net.cpp:150] Setting up conv4_2_1x1_reduce
I0620 13:01:04.818053  7135 net.cpp:157] Top shape: 2 256 60 60 (1843200)
I0620 13:01:04.818054  7135 net.cpp:165] Memory required for data: 1898148400
I0620 13:01:04.818059  7135 layer_factory.hpp:77] Creating layer conv4_2_1x1_reduce/bn
I0620 13:01:04.818068  7135 net.cpp:106] Creating Layer conv4_2_1x1_reduce/bn
I0620 13:01:04.818069  7135 net.cpp:454] conv4_2_1x1_reduce/bn <- conv4_2_1x1_reduce
I0620 13:01:04.818073  7135 net.cpp:397] conv4_2_1x1_reduce/bn -> conv4_2_1x1_reduce (in-place)
I0620 13:01:04.818202  7135 net.cpp:150] Setting up conv4_2_1x1_reduce/bn
I0620 13:01:04.818205  7135 net.cpp:157] Top shape: 2 256 60 60 (1843200)
I0620 13:01:04.818207  7135 net.cpp:165] Memory required for data: 1905521200
I0620 13:01:04.818212  7135 layer_factory.hpp:77] Creating layer conv4_2_1x1_reduce/relu
I0620 13:01:04.818217  7135 net.cpp:106] Creating Layer conv4_2_1x1_reduce/relu
I0620 13:01:04.818218  7135 net.cpp:454] conv4_2_1x1_reduce/relu <- conv4_2_1x1_reduce
I0620 13:01:04.818222  7135 net.cpp:397] conv4_2_1x1_reduce/relu -> conv4_2_1x1_reduce (in-place)
I0620 13:01:04.818224  7135 net.cpp:150] Setting up conv4_2_1x1_reduce/relu
I0620 13:01:04.818228  7135 net.cpp:157] Top shape: 2 256 60 60 (1843200)
I0620 13:01:04.818229  7135 net.cpp:165] Memory required for data: 1912894000
I0620 13:01:04.818231  7135 layer_factory.hpp:77] Creating layer conv4_2_3x3
I0620 13:01:04.818238  7135 net.cpp:106] Creating Layer conv4_2_3x3
I0620 13:01:04.818241  7135 net.cpp:454] conv4_2_3x3 <- conv4_2_1x1_reduce
I0620 13:01:04.818245  7135 net.cpp:411] conv4_2_3x3 -> conv4_2_3x3
I0620 13:01:04.834206  7135 net.cpp:150] Setting up conv4_2_3x3
I0620 13:01:04.834272  7135 net.cpp:157] Top shape: 2 256 60 60 (1843200)
I0620 13:01:04.834278  7135 net.cpp:165] Memory required for data: 1920266800
I0620 13:01:04.834292  7135 layer_factory.hpp:77] Creating layer conv4_2_3x3/bn
I0620 13:01:04.834318  7135 net.cpp:106] Creating Layer conv4_2_3x3/bn
I0620 13:01:04.834327  7135 net.cpp:454] conv4_2_3x3/bn <- conv4_2_3x3
I0620 13:01:04.834337  7135 net.cpp:397] conv4_2_3x3/bn -> conv4_2_3x3 (in-place)
I0620 13:01:04.834553  7135 net.cpp:150] Setting up conv4_2_3x3/bn
I0620 13:01:04.834559  7135 net.cpp:157] Top shape: 2 256 60 60 (1843200)
I0620 13:01:04.834564  7135 net.cpp:165] Memory required for data: 1927639600
I0620 13:01:04.834573  7135 layer_factory.hpp:77] Creating layer conv4_2_3x3/relu
I0620 13:01:04.834584  7135 net.cpp:106] Creating Layer conv4_2_3x3/relu
I0620 13:01:04.834589  7135 net.cpp:454] conv4_2_3x3/relu <- conv4_2_3x3
I0620 13:01:04.834594  7135 net.cpp:397] conv4_2_3x3/relu -> conv4_2_3x3 (in-place)
I0620 13:01:04.834652  7135 net.cpp:150] Setting up conv4_2_3x3/relu
I0620 13:01:04.834658  7135 net.cpp:157] Top shape: 2 256 60 60 (1843200)
I0620 13:01:04.834662  7135 net.cpp:165] Memory required for data: 1935012400
I0620 13:01:04.834666  7135 layer_factory.hpp:77] Creating layer conv4_2_1x1_increase
I0620 13:01:04.834679  7135 net.cpp:106] Creating Layer conv4_2_1x1_increase
I0620 13:01:04.834683  7135 net.cpp:454] conv4_2_1x1_increase <- conv4_2_3x3
I0620 13:01:04.834692  7135 net.cpp:411] conv4_2_1x1_increase -> conv4_2_1x1_increase
I0620 13:01:04.842438  7135 net.cpp:150] Setting up conv4_2_1x1_increase
I0620 13:01:04.842461  7135 net.cpp:157] Top shape: 2 1024 60 60 (7372800)
I0620 13:01:04.842465  7135 net.cpp:165] Memory required for data: 1964503600
I0620 13:01:04.842471  7135 layer_factory.hpp:77] Creating layer conv4_2_1x1_increase/bn
I0620 13:01:04.842484  7135 net.cpp:106] Creating Layer conv4_2_1x1_increase/bn
I0620 13:01:04.842489  7135 net.cpp:454] conv4_2_1x1_increase/bn <- conv4_2_1x1_increase
I0620 13:01:04.842495  7135 net.cpp:397] conv4_2_1x1_increase/bn -> conv4_2_1x1_increase (in-place)
I0620 13:01:04.842645  7135 net.cpp:150] Setting up conv4_2_1x1_increase/bn
I0620 13:01:04.842650  7135 net.cpp:157] Top shape: 2 1024 60 60 (7372800)
I0620 13:01:04.842653  7135 net.cpp:165] Memory required for data: 1993994800
I0620 13:01:04.842659  7135 layer_factory.hpp:77] Creating layer conv4_2
I0620 13:01:04.842664  7135 net.cpp:106] Creating Layer conv4_2
I0620 13:01:04.842669  7135 net.cpp:454] conv4_2 <- conv4_1_conv4_1/relu_0_split_1
I0620 13:01:04.842672  7135 net.cpp:454] conv4_2 <- conv4_2_1x1_increase
I0620 13:01:04.842675  7135 net.cpp:411] conv4_2 -> conv4_2
I0620 13:01:04.842694  7135 net.cpp:150] Setting up conv4_2
I0620 13:01:04.842697  7135 net.cpp:157] Top shape: 2 1024 60 60 (7372800)
I0620 13:01:04.842700  7135 net.cpp:165] Memory required for data: 2023486000
I0620 13:01:04.842703  7135 layer_factory.hpp:77] Creating layer conv4_2/relu
I0620 13:01:04.842710  7135 net.cpp:106] Creating Layer conv4_2/relu
I0620 13:01:04.842713  7135 net.cpp:454] conv4_2/relu <- conv4_2
I0620 13:01:04.842717  7135 net.cpp:397] conv4_2/relu -> conv4_2 (in-place)
I0620 13:01:04.842721  7135 net.cpp:150] Setting up conv4_2/relu
I0620 13:01:04.842725  7135 net.cpp:157] Top shape: 2 1024 60 60 (7372800)
I0620 13:01:04.842727  7135 net.cpp:165] Memory required for data: 2052977200
I0620 13:01:04.842730  7135 layer_factory.hpp:77] Creating layer conv4_2_conv4_2/relu_0_split
I0620 13:01:04.842734  7135 net.cpp:106] Creating Layer conv4_2_conv4_2/relu_0_split
I0620 13:01:04.842737  7135 net.cpp:454] conv4_2_conv4_2/relu_0_split <- conv4_2
I0620 13:01:04.842741  7135 net.cpp:411] conv4_2_conv4_2/relu_0_split -> conv4_2_conv4_2/relu_0_split_0
I0620 13:01:04.842753  7135 net.cpp:411] conv4_2_conv4_2/relu_0_split -> conv4_2_conv4_2/relu_0_split_1
I0620 13:01:04.842774  7135 net.cpp:150] Setting up conv4_2_conv4_2/relu_0_split
I0620 13:01:04.842778  7135 net.cpp:157] Top shape: 2 1024 60 60 (7372800)
I0620 13:01:04.842782  7135 net.cpp:157] Top shape: 2 1024 60 60 (7372800)
I0620 13:01:04.842784  7135 net.cpp:165] Memory required for data: 2111959600
I0620 13:01:04.842787  7135 layer_factory.hpp:77] Creating layer conv4_3_1x1_reduce
I0620 13:01:04.842794  7135 net.cpp:106] Creating Layer conv4_3_1x1_reduce
I0620 13:01:04.842797  7135 net.cpp:454] conv4_3_1x1_reduce <- conv4_2_conv4_2/relu_0_split_0
I0620 13:01:04.842802  7135 net.cpp:411] conv4_3_1x1_reduce -> conv4_3_1x1_reduce
I0620 13:01:04.848439  7135 net.cpp:150] Setting up conv4_3_1x1_reduce
I0620 13:01:04.848448  7135 net.cpp:157] Top shape: 2 256 60 60 (1843200)
I0620 13:01:04.848450  7135 net.cpp:165] Memory required for data: 2119332400
I0620 13:01:04.848454  7135 layer_factory.hpp:77] Creating layer conv4_3_1x1_reduce/bn
I0620 13:01:04.848460  7135 net.cpp:106] Creating Layer conv4_3_1x1_reduce/bn
I0620 13:01:04.848464  7135 net.cpp:454] conv4_3_1x1_reduce/bn <- conv4_3_1x1_reduce
I0620 13:01:04.848469  7135 net.cpp:397] conv4_3_1x1_reduce/bn -> conv4_3_1x1_reduce (in-place)
I0620 13:01:04.848613  7135 net.cpp:150] Setting up conv4_3_1x1_reduce/bn
I0620 13:01:04.848618  7135 net.cpp:157] Top shape: 2 256 60 60 (1843200)
I0620 13:01:04.848619  7135 net.cpp:165] Memory required for data: 2126705200
I0620 13:01:04.848625  7135 layer_factory.hpp:77] Creating layer conv4_3_1x1_reduce/relu
I0620 13:01:04.848630  7135 net.cpp:106] Creating Layer conv4_3_1x1_reduce/relu
I0620 13:01:04.848634  7135 net.cpp:454] conv4_3_1x1_reduce/relu <- conv4_3_1x1_reduce
I0620 13:01:04.848636  7135 net.cpp:397] conv4_3_1x1_reduce/relu -> conv4_3_1x1_reduce (in-place)
I0620 13:01:04.848641  7135 net.cpp:150] Setting up conv4_3_1x1_reduce/relu
I0620 13:01:04.848644  7135 net.cpp:157] Top shape: 2 256 60 60 (1843200)
I0620 13:01:04.848647  7135 net.cpp:165] Memory required for data: 2134078000
I0620 13:01:04.848649  7135 layer_factory.hpp:77] Creating layer conv4_3_3x3
I0620 13:01:04.848655  7135 net.cpp:106] Creating Layer conv4_3_3x3
I0620 13:01:04.848657  7135 net.cpp:454] conv4_3_3x3 <- conv4_3_1x1_reduce
I0620 13:01:04.848661  7135 net.cpp:411] conv4_3_3x3 -> conv4_3_3x3
I0620 13:01:04.861882  7135 net.cpp:150] Setting up conv4_3_3x3
I0620 13:01:04.861904  7135 net.cpp:157] Top shape: 2 256 60 60 (1843200)
I0620 13:01:04.861907  7135 net.cpp:165] Memory required for data: 2141450800
I0620 13:01:04.861913  7135 layer_factory.hpp:77] Creating layer conv4_3_3x3/bn
I0620 13:01:04.861922  7135 net.cpp:106] Creating Layer conv4_3_3x3/bn
I0620 13:01:04.861927  7135 net.cpp:454] conv4_3_3x3/bn <- conv4_3_3x3
I0620 13:01:04.861932  7135 net.cpp:397] conv4_3_3x3/bn -> conv4_3_3x3 (in-place)
I0620 13:01:04.862073  7135 net.cpp:150] Setting up conv4_3_3x3/bn
I0620 13:01:04.862078  7135 net.cpp:157] Top shape: 2 256 60 60 (1843200)
I0620 13:01:04.862082  7135 net.cpp:165] Memory required for data: 2148823600
I0620 13:01:04.862087  7135 layer_factory.hpp:77] Creating layer conv4_3_3x3/relu
I0620 13:01:04.862090  7135 net.cpp:106] Creating Layer conv4_3_3x3/relu
I0620 13:01:04.862093  7135 net.cpp:454] conv4_3_3x3/relu <- conv4_3_3x3
I0620 13:01:04.862097  7135 net.cpp:397] conv4_3_3x3/relu -> conv4_3_3x3 (in-place)
I0620 13:01:04.862102  7135 net.cpp:150] Setting up conv4_3_3x3/relu
I0620 13:01:04.862104  7135 net.cpp:157] Top shape: 2 256 60 60 (1843200)
I0620 13:01:04.862107  7135 net.cpp:165] Memory required for data: 2156196400
I0620 13:01:04.862109  7135 layer_factory.hpp:77] Creating layer conv4_3_1x1_increase
I0620 13:01:04.862116  7135 net.cpp:106] Creating Layer conv4_3_1x1_increase
I0620 13:01:04.862120  7135 net.cpp:454] conv4_3_1x1_increase <- conv4_3_3x3
I0620 13:01:04.862124  7135 net.cpp:411] conv4_3_1x1_increase -> conv4_3_1x1_increase
I0620 13:01:04.868373  7135 net.cpp:150] Setting up conv4_3_1x1_increase
I0620 13:01:04.868394  7135 net.cpp:157] Top shape: 2 1024 60 60 (7372800)
I0620 13:01:04.868397  7135 net.cpp:165] Memory required for data: 2185687600
I0620 13:01:04.868402  7135 layer_factory.hpp:77] Creating layer conv4_3_1x1_increase/bn
I0620 13:01:04.868412  7135 net.cpp:106] Creating Layer conv4_3_1x1_increase/bn
I0620 13:01:04.868417  7135 net.cpp:454] conv4_3_1x1_increase/bn <- conv4_3_1x1_increase
I0620 13:01:04.868420  7135 net.cpp:397] conv4_3_1x1_increase/bn -> conv4_3_1x1_increase (in-place)
I0620 13:01:04.868567  7135 net.cpp:150] Setting up conv4_3_1x1_increase/bn
I0620 13:01:04.868571  7135 net.cpp:157] Top shape: 2 1024 60 60 (7372800)
I0620 13:01:04.868573  7135 net.cpp:165] Memory required for data: 2215178800
I0620 13:01:04.868578  7135 layer_factory.hpp:77] Creating layer conv4_3
I0620 13:01:04.868584  7135 net.cpp:106] Creating Layer conv4_3
I0620 13:01:04.868587  7135 net.cpp:454] conv4_3 <- conv4_2_conv4_2/relu_0_split_1
I0620 13:01:04.868590  7135 net.cpp:454] conv4_3 <- conv4_3_1x1_increase
I0620 13:01:04.868593  7135 net.cpp:411] conv4_3 -> conv4_3
I0620 13:01:04.868610  7135 net.cpp:150] Setting up conv4_3
I0620 13:01:04.868614  7135 net.cpp:157] Top shape: 2 1024 60 60 (7372800)
I0620 13:01:04.868616  7135 net.cpp:165] Memory required for data: 2244670000
I0620 13:01:04.868618  7135 layer_factory.hpp:77] Creating layer conv4_3/relu
I0620 13:01:04.868641  7135 net.cpp:106] Creating Layer conv4_3/relu
I0620 13:01:04.868643  7135 net.cpp:454] conv4_3/relu <- conv4_3
I0620 13:01:04.868646  7135 net.cpp:397] conv4_3/relu -> conv4_3 (in-place)
I0620 13:01:04.868650  7135 net.cpp:150] Setting up conv4_3/relu
I0620 13:01:04.868652  7135 net.cpp:157] Top shape: 2 1024 60 60 (7372800)
I0620 13:01:04.868654  7135 net.cpp:165] Memory required for data: 2274161200
I0620 13:01:04.868657  7135 layer_factory.hpp:77] Creating layer conv4_3_conv4_3/relu_0_split
I0620 13:01:04.868662  7135 net.cpp:106] Creating Layer conv4_3_conv4_3/relu_0_split
I0620 13:01:04.868665  7135 net.cpp:454] conv4_3_conv4_3/relu_0_split <- conv4_3
I0620 13:01:04.868669  7135 net.cpp:411] conv4_3_conv4_3/relu_0_split -> conv4_3_conv4_3/relu_0_split_0
I0620 13:01:04.868674  7135 net.cpp:411] conv4_3_conv4_3/relu_0_split -> conv4_3_conv4_3/relu_0_split_1
I0620 13:01:04.868695  7135 net.cpp:150] Setting up conv4_3_conv4_3/relu_0_split
I0620 13:01:04.868700  7135 net.cpp:157] Top shape: 2 1024 60 60 (7372800)
I0620 13:01:04.868702  7135 net.cpp:157] Top shape: 2 1024 60 60 (7372800)
I0620 13:01:04.868705  7135 net.cpp:165] Memory required for data: 2333143600
I0620 13:01:04.868707  7135 layer_factory.hpp:77] Creating layer conv4_4_1x1_reduce
I0620 13:01:04.868731  7135 net.cpp:106] Creating Layer conv4_4_1x1_reduce
I0620 13:01:04.868736  7135 net.cpp:454] conv4_4_1x1_reduce <- conv4_3_conv4_3/relu_0_split_0
I0620 13:01:04.868739  7135 net.cpp:411] conv4_4_1x1_reduce -> conv4_4_1x1_reduce
I0620 13:01:04.874632  7135 net.cpp:150] Setting up conv4_4_1x1_reduce
I0620 13:01:04.874653  7135 net.cpp:157] Top shape: 2 256 60 60 (1843200)
I0620 13:01:04.874658  7135 net.cpp:165] Memory required for data: 2340516400
I0620 13:01:04.874666  7135 layer_factory.hpp:77] Creating layer conv4_4_1x1_reduce/bn
I0620 13:01:04.874680  7135 net.cpp:106] Creating Layer conv4_4_1x1_reduce/bn
I0620 13:01:04.874686  7135 net.cpp:454] conv4_4_1x1_reduce/bn <- conv4_4_1x1_reduce
I0620 13:01:04.874692  7135 net.cpp:397] conv4_4_1x1_reduce/bn -> conv4_4_1x1_reduce (in-place)
I0620 13:01:04.874891  7135 net.cpp:150] Setting up conv4_4_1x1_reduce/bn
I0620 13:01:04.874900  7135 net.cpp:157] Top shape: 2 256 60 60 (1843200)
I0620 13:01:04.874904  7135 net.cpp:165] Memory required for data: 2347889200
I0620 13:01:04.874912  7135 layer_factory.hpp:77] Creating layer conv4_4_1x1_reduce/relu
I0620 13:01:04.874919  7135 net.cpp:106] Creating Layer conv4_4_1x1_reduce/relu
I0620 13:01:04.874923  7135 net.cpp:454] conv4_4_1x1_reduce/relu <- conv4_4_1x1_reduce
I0620 13:01:04.874939  7135 net.cpp:397] conv4_4_1x1_reduce/relu -> conv4_4_1x1_reduce (in-place)
I0620 13:01:04.874948  7135 net.cpp:150] Setting up conv4_4_1x1_reduce/relu
I0620 13:01:04.874953  7135 net.cpp:157] Top shape: 2 256 60 60 (1843200)
I0620 13:01:04.874955  7135 net.cpp:165] Memory required for data: 2355262000
I0620 13:01:04.874959  7135 layer_factory.hpp:77] Creating layer conv4_4_3x3
I0620 13:01:04.874969  7135 net.cpp:106] Creating Layer conv4_4_3x3
I0620 13:01:04.874974  7135 net.cpp:454] conv4_4_3x3 <- conv4_4_1x1_reduce
I0620 13:01:04.874979  7135 net.cpp:411] conv4_4_3x3 -> conv4_4_3x3
I0620 13:01:04.892748  7135 net.cpp:150] Setting up conv4_4_3x3
I0620 13:01:04.892768  7135 net.cpp:157] Top shape: 2 256 60 60 (1843200)
I0620 13:01:04.892771  7135 net.cpp:165] Memory required for data: 2362634800
I0620 13:01:04.892779  7135 layer_factory.hpp:77] Creating layer conv4_4_3x3/bn
I0620 13:01:04.892788  7135 net.cpp:106] Creating Layer conv4_4_3x3/bn
I0620 13:01:04.892793  7135 net.cpp:454] conv4_4_3x3/bn <- conv4_4_3x3
I0620 13:01:04.892797  7135 net.cpp:397] conv4_4_3x3/bn -> conv4_4_3x3 (in-place)
I0620 13:01:04.892935  7135 net.cpp:150] Setting up conv4_4_3x3/bn
I0620 13:01:04.892940  7135 net.cpp:157] Top shape: 2 256 60 60 (1843200)
I0620 13:01:04.892942  7135 net.cpp:165] Memory required for data: 2370007600
I0620 13:01:04.892947  7135 layer_factory.hpp:77] Creating layer conv4_4_3x3/relu
I0620 13:01:04.892971  7135 net.cpp:106] Creating Layer conv4_4_3x3/relu
I0620 13:01:04.892973  7135 net.cpp:454] conv4_4_3x3/relu <- conv4_4_3x3
I0620 13:01:04.892976  7135 net.cpp:397] conv4_4_3x3/relu -> conv4_4_3x3 (in-place)
I0620 13:01:04.892982  7135 net.cpp:150] Setting up conv4_4_3x3/relu
I0620 13:01:04.892984  7135 net.cpp:157] Top shape: 2 256 60 60 (1843200)
I0620 13:01:04.892987  7135 net.cpp:165] Memory required for data: 2377380400
I0620 13:01:04.892989  7135 layer_factory.hpp:77] Creating layer conv4_4_1x1_increase
I0620 13:01:04.892997  7135 net.cpp:106] Creating Layer conv4_4_1x1_increase
I0620 13:01:04.892999  7135 net.cpp:454] conv4_4_1x1_increase <- conv4_4_3x3
I0620 13:01:04.893004  7135 net.cpp:411] conv4_4_1x1_increase -> conv4_4_1x1_increase
I0620 13:01:04.899276  7135 net.cpp:150] Setting up conv4_4_1x1_increase
I0620 13:01:04.899289  7135 net.cpp:157] Top shape: 2 1024 60 60 (7372800)
I0620 13:01:04.899292  7135 net.cpp:165] Memory required for data: 2406871600
I0620 13:01:04.899296  7135 layer_factory.hpp:77] Creating layer conv4_4_1x1_increase/bn
I0620 13:01:04.899303  7135 net.cpp:106] Creating Layer conv4_4_1x1_increase/bn
I0620 13:01:04.899307  7135 net.cpp:454] conv4_4_1x1_increase/bn <- conv4_4_1x1_increase
I0620 13:01:04.899312  7135 net.cpp:397] conv4_4_1x1_increase/bn -> conv4_4_1x1_increase (in-place)
I0620 13:01:04.899461  7135 net.cpp:150] Setting up conv4_4_1x1_increase/bn
I0620 13:01:04.899466  7135 net.cpp:157] Top shape: 2 1024 60 60 (7372800)
I0620 13:01:04.899467  7135 net.cpp:165] Memory required for data: 2436362800
I0620 13:01:04.899472  7135 layer_factory.hpp:77] Creating layer conv4_4
I0620 13:01:04.899478  7135 net.cpp:106] Creating Layer conv4_4
I0620 13:01:04.899482  7135 net.cpp:454] conv4_4 <- conv4_3_conv4_3/relu_0_split_1
I0620 13:01:04.899484  7135 net.cpp:454] conv4_4 <- conv4_4_1x1_increase
I0620 13:01:04.899487  7135 net.cpp:411] conv4_4 -> conv4_4
I0620 13:01:04.899504  7135 net.cpp:150] Setting up conv4_4
I0620 13:01:04.899508  7135 net.cpp:157] Top shape: 2 1024 60 60 (7372800)
I0620 13:01:04.899510  7135 net.cpp:165] Memory required for data: 2465854000
I0620 13:01:04.899513  7135 layer_factory.hpp:77] Creating layer conv4_4/relu
I0620 13:01:04.899515  7135 net.cpp:106] Creating Layer conv4_4/relu
I0620 13:01:04.899518  7135 net.cpp:454] conv4_4/relu <- conv4_4
I0620 13:01:04.899521  7135 net.cpp:397] conv4_4/relu -> conv4_4 (in-place)
I0620 13:01:04.899525  7135 net.cpp:150] Setting up conv4_4/relu
I0620 13:01:04.899528  7135 net.cpp:157] Top shape: 2 1024 60 60 (7372800)
I0620 13:01:04.899530  7135 net.cpp:165] Memory required for data: 2495345200
I0620 13:01:04.899533  7135 layer_factory.hpp:77] Creating layer conv4_4_conv4_4/relu_0_split
I0620 13:01:04.899535  7135 net.cpp:106] Creating Layer conv4_4_conv4_4/relu_0_split
I0620 13:01:04.899538  7135 net.cpp:454] conv4_4_conv4_4/relu_0_split <- conv4_4
I0620 13:01:04.899540  7135 net.cpp:411] conv4_4_conv4_4/relu_0_split -> conv4_4_conv4_4/relu_0_split_0
I0620 13:01:04.899544  7135 net.cpp:411] conv4_4_conv4_4/relu_0_split -> conv4_4_conv4_4/relu_0_split_1
I0620 13:01:04.899564  7135 net.cpp:150] Setting up conv4_4_conv4_4/relu_0_split
I0620 13:01:04.899569  7135 net.cpp:157] Top shape: 2 1024 60 60 (7372800)
I0620 13:01:04.899571  7135 net.cpp:157] Top shape: 2 1024 60 60 (7372800)
I0620 13:01:04.899572  7135 net.cpp:165] Memory required for data: 2554327600
I0620 13:01:04.899574  7135 layer_factory.hpp:77] Creating layer conv4_5_1x1_reduce
I0620 13:01:04.899580  7135 net.cpp:106] Creating Layer conv4_5_1x1_reduce
I0620 13:01:04.899582  7135 net.cpp:454] conv4_5_1x1_reduce <- conv4_4_conv4_4/relu_0_split_0
I0620 13:01:04.899586  7135 net.cpp:411] conv4_5_1x1_reduce -> conv4_5_1x1_reduce
I0620 13:01:04.905380  7135 net.cpp:150] Setting up conv4_5_1x1_reduce
I0620 13:01:04.905410  7135 net.cpp:157] Top shape: 2 256 60 60 (1843200)
I0620 13:01:04.905412  7135 net.cpp:165] Memory required for data: 2561700400
I0620 13:01:04.905418  7135 layer_factory.hpp:77] Creating layer conv4_5_1x1_reduce/bn
I0620 13:01:04.905428  7135 net.cpp:106] Creating Layer conv4_5_1x1_reduce/bn
I0620 13:01:04.905449  7135 net.cpp:454] conv4_5_1x1_reduce/bn <- conv4_5_1x1_reduce
I0620 13:01:04.905455  7135 net.cpp:397] conv4_5_1x1_reduce/bn -> conv4_5_1x1_reduce (in-place)
I0620 13:01:04.905596  7135 net.cpp:150] Setting up conv4_5_1x1_reduce/bn
I0620 13:01:04.905599  7135 net.cpp:157] Top shape: 2 256 60 60 (1843200)
I0620 13:01:04.905602  7135 net.cpp:165] Memory required for data: 2569073200
I0620 13:01:04.905608  7135 layer_factory.hpp:77] Creating layer conv4_5_1x1_reduce/relu
I0620 13:01:04.905613  7135 net.cpp:106] Creating Layer conv4_5_1x1_reduce/relu
I0620 13:01:04.905616  7135 net.cpp:454] conv4_5_1x1_reduce/relu <- conv4_5_1x1_reduce
I0620 13:01:04.905620  7135 net.cpp:397] conv4_5_1x1_reduce/relu -> conv4_5_1x1_reduce (in-place)
I0620 13:01:04.905624  7135 net.cpp:150] Setting up conv4_5_1x1_reduce/relu
I0620 13:01:04.905627  7135 net.cpp:157] Top shape: 2 256 60 60 (1843200)
I0620 13:01:04.905630  7135 net.cpp:165] Memory required for data: 2576446000
I0620 13:01:04.905633  7135 layer_factory.hpp:77] Creating layer conv4_5_3x3
I0620 13:01:04.905639  7135 net.cpp:106] Creating Layer conv4_5_3x3
I0620 13:01:04.905642  7135 net.cpp:454] conv4_5_3x3 <- conv4_5_1x1_reduce
I0620 13:01:04.905647  7135 net.cpp:411] conv4_5_3x3 -> conv4_5_3x3
I0620 13:01:04.918823  7135 net.cpp:150] Setting up conv4_5_3x3
I0620 13:01:04.918854  7135 net.cpp:157] Top shape: 2 256 60 60 (1843200)
I0620 13:01:04.918858  7135 net.cpp:165] Memory required for data: 2583818800
I0620 13:01:04.918865  7135 layer_factory.hpp:77] Creating layer conv4_5_3x3/bn
I0620 13:01:04.918874  7135 net.cpp:106] Creating Layer conv4_5_3x3/bn
I0620 13:01:04.918879  7135 net.cpp:454] conv4_5_3x3/bn <- conv4_5_3x3
I0620 13:01:04.918884  7135 net.cpp:397] conv4_5_3x3/bn -> conv4_5_3x3 (in-place)
I0620 13:01:04.919021  7135 net.cpp:150] Setting up conv4_5_3x3/bn
I0620 13:01:04.919026  7135 net.cpp:157] Top shape: 2 256 60 60 (1843200)
I0620 13:01:04.919028  7135 net.cpp:165] Memory required for data: 2591191600
I0620 13:01:04.919034  7135 layer_factory.hpp:77] Creating layer conv4_5_3x3/relu
I0620 13:01:04.919039  7135 net.cpp:106] Creating Layer conv4_5_3x3/relu
I0620 13:01:04.919041  7135 net.cpp:454] conv4_5_3x3/relu <- conv4_5_3x3
I0620 13:01:04.919044  7135 net.cpp:397] conv4_5_3x3/relu -> conv4_5_3x3 (in-place)
I0620 13:01:04.919049  7135 net.cpp:150] Setting up conv4_5_3x3/relu
I0620 13:01:04.919052  7135 net.cpp:157] Top shape: 2 256 60 60 (1843200)
I0620 13:01:04.919054  7135 net.cpp:165] Memory required for data: 2598564400
I0620 13:01:04.919057  7135 layer_factory.hpp:77] Creating layer conv4_5_1x1_increase
I0620 13:01:04.919064  7135 net.cpp:106] Creating Layer conv4_5_1x1_increase
I0620 13:01:04.919066  7135 net.cpp:454] conv4_5_1x1_increase <- conv4_5_3x3
I0620 13:01:04.919071  7135 net.cpp:411] conv4_5_1x1_increase -> conv4_5_1x1_increase
I0620 13:01:04.925396  7135 net.cpp:150] Setting up conv4_5_1x1_increase
I0620 13:01:04.925417  7135 net.cpp:157] Top shape: 2 1024 60 60 (7372800)
I0620 13:01:04.925420  7135 net.cpp:165] Memory required for data: 2628055600
I0620 13:01:04.925426  7135 layer_factory.hpp:77] Creating layer conv4_5_1x1_increase/bn
I0620 13:01:04.925434  7135 net.cpp:106] Creating Layer conv4_5_1x1_increase/bn
I0620 13:01:04.925438  7135 net.cpp:454] conv4_5_1x1_increase/bn <- conv4_5_1x1_increase
I0620 13:01:04.925443  7135 net.cpp:397] conv4_5_1x1_increase/bn -> conv4_5_1x1_increase (in-place)
I0620 13:01:04.925598  7135 net.cpp:150] Setting up conv4_5_1x1_increase/bn
I0620 13:01:04.925602  7135 net.cpp:157] Top shape: 2 1024 60 60 (7372800)
I0620 13:01:04.925606  7135 net.cpp:165] Memory required for data: 2657546800
I0620 13:01:04.925609  7135 layer_factory.hpp:77] Creating layer conv4_5
I0620 13:01:04.925613  7135 net.cpp:106] Creating Layer conv4_5
I0620 13:01:04.925616  7135 net.cpp:454] conv4_5 <- conv4_4_conv4_4/relu_0_split_1
I0620 13:01:04.925619  7135 net.cpp:454] conv4_5 <- conv4_5_1x1_increase
I0620 13:01:04.925622  7135 net.cpp:411] conv4_5 -> conv4_5
I0620 13:01:04.925669  7135 net.cpp:150] Setting up conv4_5
I0620 13:01:04.925673  7135 net.cpp:157] Top shape: 2 1024 60 60 (7372800)
I0620 13:01:04.925676  7135 net.cpp:165] Memory required for data: 2687038000
I0620 13:01:04.925679  7135 layer_factory.hpp:77] Creating layer conv4_5/relu
I0620 13:01:04.925684  7135 net.cpp:106] Creating Layer conv4_5/relu
I0620 13:01:04.925688  7135 net.cpp:454] conv4_5/relu <- conv4_5
I0620 13:01:04.925691  7135 net.cpp:397] conv4_5/relu -> conv4_5 (in-place)
I0620 13:01:04.925695  7135 net.cpp:150] Setting up conv4_5/relu
I0620 13:01:04.925699  7135 net.cpp:157] Top shape: 2 1024 60 60 (7372800)
I0620 13:01:04.925701  7135 net.cpp:165] Memory required for data: 2716529200
I0620 13:01:04.925704  7135 layer_factory.hpp:77] Creating layer conv4_5_conv4_5/relu_0_split
I0620 13:01:04.925709  7135 net.cpp:106] Creating Layer conv4_5_conv4_5/relu_0_split
I0620 13:01:04.925711  7135 net.cpp:454] conv4_5_conv4_5/relu_0_split <- conv4_5
I0620 13:01:04.925714  7135 net.cpp:411] conv4_5_conv4_5/relu_0_split -> conv4_5_conv4_5/relu_0_split_0
I0620 13:01:04.925719  7135 net.cpp:411] conv4_5_conv4_5/relu_0_split -> conv4_5_conv4_5/relu_0_split_1
I0620 13:01:04.925740  7135 net.cpp:150] Setting up conv4_5_conv4_5/relu_0_split
I0620 13:01:04.925745  7135 net.cpp:157] Top shape: 2 1024 60 60 (7372800)
I0620 13:01:04.925747  7135 net.cpp:157] Top shape: 2 1024 60 60 (7372800)
I0620 13:01:04.925762  7135 net.cpp:165] Memory required for data: 2775511600
I0620 13:01:04.925767  7135 layer_factory.hpp:77] Creating layer conv4_6_1x1_reduce
I0620 13:01:04.925777  7135 net.cpp:106] Creating Layer conv4_6_1x1_reduce
I0620 13:01:04.925781  7135 net.cpp:454] conv4_6_1x1_reduce <- conv4_5_conv4_5/relu_0_split_0
I0620 13:01:04.925786  7135 net.cpp:411] conv4_6_1x1_reduce -> conv4_6_1x1_reduce
I0620 13:01:04.933213  7135 net.cpp:150] Setting up conv4_6_1x1_reduce
I0620 13:01:04.933312  7135 net.cpp:157] Top shape: 2 256 60 60 (1843200)
I0620 13:01:04.933326  7135 net.cpp:165] Memory required for data: 2782884400
I0620 13:01:04.933344  7135 layer_factory.hpp:77] Creating layer conv4_6_1x1_reduce/bn
I0620 13:01:04.933373  7135 net.cpp:106] Creating Layer conv4_6_1x1_reduce/bn
I0620 13:01:04.933385  7135 net.cpp:454] conv4_6_1x1_reduce/bn <- conv4_6_1x1_reduce
I0620 13:01:04.933408  7135 net.cpp:397] conv4_6_1x1_reduce/bn -> conv4_6_1x1_reduce (in-place)
I0620 13:01:04.933678  7135 net.cpp:150] Setting up conv4_6_1x1_reduce/bn
I0620 13:01:04.933689  7135 net.cpp:157] Top shape: 2 256 60 60 (1843200)
I0620 13:01:04.933693  7135 net.cpp:165] Memory required for data: 2790257200
I0620 13:01:04.933702  7135 layer_factory.hpp:77] Creating layer conv4_6_1x1_reduce/relu
I0620 13:01:04.933713  7135 net.cpp:106] Creating Layer conv4_6_1x1_reduce/relu
I0620 13:01:04.933718  7135 net.cpp:454] conv4_6_1x1_reduce/relu <- conv4_6_1x1_reduce
I0620 13:01:04.933725  7135 net.cpp:397] conv4_6_1x1_reduce/relu -> conv4_6_1x1_reduce (in-place)
I0620 13:01:04.933734  7135 net.cpp:150] Setting up conv4_6_1x1_reduce/relu
I0620 13:01:04.933739  7135 net.cpp:157] Top shape: 2 256 60 60 (1843200)
I0620 13:01:04.933743  7135 net.cpp:165] Memory required for data: 2797630000
I0620 13:01:04.933748  7135 layer_factory.hpp:77] Creating layer conv4_6_3x3
I0620 13:01:04.933780  7135 net.cpp:106] Creating Layer conv4_6_3x3
I0620 13:01:04.933785  7135 net.cpp:454] conv4_6_3x3 <- conv4_6_1x1_reduce
I0620 13:01:04.933790  7135 net.cpp:411] conv4_6_3x3 -> conv4_6_3x3
I0620 13:01:04.950536  7135 net.cpp:150] Setting up conv4_6_3x3
I0620 13:01:04.950559  7135 net.cpp:157] Top shape: 2 256 60 60 (1843200)
I0620 13:01:04.950563  7135 net.cpp:165] Memory required for data: 2805002800
I0620 13:01:04.950570  7135 layer_factory.hpp:77] Creating layer conv4_6_3x3/bn
I0620 13:01:04.950580  7135 net.cpp:106] Creating Layer conv4_6_3x3/bn
I0620 13:01:04.950585  7135 net.cpp:454] conv4_6_3x3/bn <- conv4_6_3x3
I0620 13:01:04.950590  7135 net.cpp:397] conv4_6_3x3/bn -> conv4_6_3x3 (in-place)
I0620 13:01:04.950731  7135 net.cpp:150] Setting up conv4_6_3x3/bn
I0620 13:01:04.950748  7135 net.cpp:157] Top shape: 2 256 60 60 (1843200)
I0620 13:01:04.950752  7135 net.cpp:165] Memory required for data: 2812375600
I0620 13:01:04.950757  7135 layer_factory.hpp:77] Creating layer conv4_6_3x3/relu
I0620 13:01:04.950762  7135 net.cpp:106] Creating Layer conv4_6_3x3/relu
I0620 13:01:04.950764  7135 net.cpp:454] conv4_6_3x3/relu <- conv4_6_3x3
I0620 13:01:04.950768  7135 net.cpp:397] conv4_6_3x3/relu -> conv4_6_3x3 (in-place)
I0620 13:01:04.950773  7135 net.cpp:150] Setting up conv4_6_3x3/relu
I0620 13:01:04.950776  7135 net.cpp:157] Top shape: 2 256 60 60 (1843200)
I0620 13:01:04.950778  7135 net.cpp:165] Memory required for data: 2819748400
I0620 13:01:04.950781  7135 layer_factory.hpp:77] Creating layer conv4_6_1x1_increase
I0620 13:01:04.950790  7135 net.cpp:106] Creating Layer conv4_6_1x1_increase
I0620 13:01:04.950793  7135 net.cpp:454] conv4_6_1x1_increase <- conv4_6_3x3
I0620 13:01:04.950798  7135 net.cpp:411] conv4_6_1x1_increase -> conv4_6_1x1_increase
I0620 13:01:04.957289  7135 net.cpp:150] Setting up conv4_6_1x1_increase
I0620 13:01:04.957312  7135 net.cpp:157] Top shape: 2 1024 60 60 (7372800)
I0620 13:01:04.957315  7135 net.cpp:165] Memory required for data: 2849239600
I0620 13:01:04.957320  7135 layer_factory.hpp:77] Creating layer conv4_6_1x1_increase/bn
I0620 13:01:04.957332  7135 net.cpp:106] Creating Layer conv4_6_1x1_increase/bn
I0620 13:01:04.957337  7135 net.cpp:454] conv4_6_1x1_increase/bn <- conv4_6_1x1_increase
I0620 13:01:04.957342  7135 net.cpp:397] conv4_6_1x1_increase/bn -> conv4_6_1x1_increase (in-place)
I0620 13:01:04.957514  7135 net.cpp:150] Setting up conv4_6_1x1_increase/bn
I0620 13:01:04.957520  7135 net.cpp:157] Top shape: 2 1024 60 60 (7372800)
I0620 13:01:04.957522  7135 net.cpp:165] Memory required for data: 2878730800
I0620 13:01:04.957528  7135 layer_factory.hpp:77] Creating layer conv4_6
I0620 13:01:04.957533  7135 net.cpp:106] Creating Layer conv4_6
I0620 13:01:04.957536  7135 net.cpp:454] conv4_6 <- conv4_5_conv4_5/relu_0_split_1
I0620 13:01:04.957540  7135 net.cpp:454] conv4_6 <- conv4_6_1x1_increase
I0620 13:01:04.957545  7135 net.cpp:411] conv4_6 -> conv4_6
I0620 13:01:04.957564  7135 net.cpp:150] Setting up conv4_6
I0620 13:01:04.957567  7135 net.cpp:157] Top shape: 2 1024 60 60 (7372800)
I0620 13:01:04.957571  7135 net.cpp:165] Memory required for data: 2908222000
I0620 13:01:04.957573  7135 layer_factory.hpp:77] Creating layer conv4_6/relu
I0620 13:01:04.957578  7135 net.cpp:106] Creating Layer conv4_6/relu
I0620 13:01:04.957581  7135 net.cpp:454] conv4_6/relu <- conv4_6
I0620 13:01:04.957584  7135 net.cpp:397] conv4_6/relu -> conv4_6 (in-place)
I0620 13:01:04.957589  7135 net.cpp:150] Setting up conv4_6/relu
I0620 13:01:04.957592  7135 net.cpp:157] Top shape: 2 1024 60 60 (7372800)
I0620 13:01:04.957594  7135 net.cpp:165] Memory required for data: 2937713200
I0620 13:01:04.957597  7135 layer_factory.hpp:77] Creating layer conv4_6_conv4_6/relu_0_split
I0620 13:01:04.957602  7135 net.cpp:106] Creating Layer conv4_6_conv4_6/relu_0_split
I0620 13:01:04.957604  7135 net.cpp:454] conv4_6_conv4_6/relu_0_split <- conv4_6
I0620 13:01:04.957607  7135 net.cpp:411] conv4_6_conv4_6/relu_0_split -> conv4_6_conv4_6/relu_0_split_0
I0620 13:01:04.957612  7135 net.cpp:411] conv4_6_conv4_6/relu_0_split -> conv4_6_conv4_6/relu_0_split_1
I0620 13:01:04.957634  7135 net.cpp:150] Setting up conv4_6_conv4_6/relu_0_split
I0620 13:01:04.957638  7135 net.cpp:157] Top shape: 2 1024 60 60 (7372800)
I0620 13:01:04.957641  7135 net.cpp:157] Top shape: 2 1024 60 60 (7372800)
I0620 13:01:04.957643  7135 net.cpp:165] Memory required for data: 2996695600
I0620 13:01:04.957645  7135 layer_factory.hpp:77] Creating layer conv4_7_1x1_reduce
I0620 13:01:04.957651  7135 net.cpp:106] Creating Layer conv4_7_1x1_reduce
I0620 13:01:04.957654  7135 net.cpp:454] conv4_7_1x1_reduce <- conv4_6_conv4_6/relu_0_split_0
I0620 13:01:04.957659  7135 net.cpp:411] conv4_7_1x1_reduce -> conv4_7_1x1_reduce
I0620 13:01:04.963345  7135 net.cpp:150] Setting up conv4_7_1x1_reduce
I0620 13:01:04.963351  7135 net.cpp:157] Top shape: 2 256 60 60 (1843200)
I0620 13:01:04.963369  7135 net.cpp:165] Memory required for data: 3004068400
I0620 13:01:04.963373  7135 layer_factory.hpp:77] Creating layer conv4_7_1x1_reduce/bn
I0620 13:01:04.963378  7135 net.cpp:106] Creating Layer conv4_7_1x1_reduce/bn
I0620 13:01:04.963382  7135 net.cpp:454] conv4_7_1x1_reduce/bn <- conv4_7_1x1_reduce
I0620 13:01:04.963388  7135 net.cpp:397] conv4_7_1x1_reduce/bn -> conv4_7_1x1_reduce (in-place)
I0620 13:01:04.963521  7135 net.cpp:150] Setting up conv4_7_1x1_reduce/bn
I0620 13:01:04.963524  7135 net.cpp:157] Top shape: 2 256 60 60 (1843200)
I0620 13:01:04.963527  7135 net.cpp:165] Memory required for data: 3011441200
I0620 13:01:04.963532  7135 layer_factory.hpp:77] Creating layer conv4_7_1x1_reduce/relu
I0620 13:01:04.963538  7135 net.cpp:106] Creating Layer conv4_7_1x1_reduce/relu
I0620 13:01:04.963541  7135 net.cpp:454] conv4_7_1x1_reduce/relu <- conv4_7_1x1_reduce
I0620 13:01:04.963544  7135 net.cpp:397] conv4_7_1x1_reduce/relu -> conv4_7_1x1_reduce (in-place)
I0620 13:01:04.963549  7135 net.cpp:150] Setting up conv4_7_1x1_reduce/relu
I0620 13:01:04.963552  7135 net.cpp:157] Top shape: 2 256 60 60 (1843200)
I0620 13:01:04.963556  7135 net.cpp:165] Memory required for data: 3018814000
I0620 13:01:04.963557  7135 layer_factory.hpp:77] Creating layer conv4_7_3x3
I0620 13:01:04.963563  7135 net.cpp:106] Creating Layer conv4_7_3x3
I0620 13:01:04.963567  7135 net.cpp:454] conv4_7_3x3 <- conv4_7_1x1_reduce
I0620 13:01:04.963570  7135 net.cpp:411] conv4_7_3x3 -> conv4_7_3x3
I0620 13:01:04.976796  7135 net.cpp:150] Setting up conv4_7_3x3
I0620 13:01:04.976817  7135 net.cpp:157] Top shape: 2 256 60 60 (1843200)
I0620 13:01:04.976820  7135 net.cpp:165] Memory required for data: 3026186800
I0620 13:01:04.976826  7135 layer_factory.hpp:77] Creating layer conv4_7_3x3/bn
I0620 13:01:04.976835  7135 net.cpp:106] Creating Layer conv4_7_3x3/bn
I0620 13:01:04.976837  7135 net.cpp:454] conv4_7_3x3/bn <- conv4_7_3x3
I0620 13:01:04.976841  7135 net.cpp:397] conv4_7_3x3/bn -> conv4_7_3x3 (in-place)
I0620 13:01:04.976991  7135 net.cpp:150] Setting up conv4_7_3x3/bn
I0620 13:01:04.976996  7135 net.cpp:157] Top shape: 2 256 60 60 (1843200)
I0620 13:01:04.976999  7135 net.cpp:165] Memory required for data: 3033559600
I0620 13:01:04.977004  7135 layer_factory.hpp:77] Creating layer conv4_7_3x3/relu
I0620 13:01:04.977007  7135 net.cpp:106] Creating Layer conv4_7_3x3/relu
I0620 13:01:04.977010  7135 net.cpp:454] conv4_7_3x3/relu <- conv4_7_3x3
I0620 13:01:04.977012  7135 net.cpp:397] conv4_7_3x3/relu -> conv4_7_3x3 (in-place)
I0620 13:01:04.977015  7135 net.cpp:150] Setting up conv4_7_3x3/relu
I0620 13:01:04.977018  7135 net.cpp:157] Top shape: 2 256 60 60 (1843200)
I0620 13:01:04.977020  7135 net.cpp:165] Memory required for data: 3040932400
I0620 13:01:04.977022  7135 layer_factory.hpp:77] Creating layer conv4_7_1x1_increase
I0620 13:01:04.977028  7135 net.cpp:106] Creating Layer conv4_7_1x1_increase
I0620 13:01:04.977031  7135 net.cpp:454] conv4_7_1x1_increase <- conv4_7_3x3
I0620 13:01:04.977035  7135 net.cpp:411] conv4_7_1x1_increase -> conv4_7_1x1_increase
I0620 13:01:04.984803  7135 net.cpp:150] Setting up conv4_7_1x1_increase
I0620 13:01:04.984874  7135 net.cpp:157] Top shape: 2 1024 60 60 (7372800)
I0620 13:01:04.984880  7135 net.cpp:165] Memory required for data: 3070423600
I0620 13:01:04.984895  7135 layer_factory.hpp:77] Creating layer conv4_7_1x1_increase/bn
I0620 13:01:04.984923  7135 net.cpp:106] Creating Layer conv4_7_1x1_increase/bn
I0620 13:01:04.984932  7135 net.cpp:454] conv4_7_1x1_increase/bn <- conv4_7_1x1_increase
I0620 13:01:04.984943  7135 net.cpp:397] conv4_7_1x1_increase/bn -> conv4_7_1x1_increase (in-place)
I0620 13:01:04.985219  7135 net.cpp:150] Setting up conv4_7_1x1_increase/bn
I0620 13:01:04.985231  7135 net.cpp:157] Top shape: 2 1024 60 60 (7372800)
I0620 13:01:04.985236  7135 net.cpp:165] Memory required for data: 3099914800
I0620 13:01:04.985244  7135 layer_factory.hpp:77] Creating layer conv4_7
I0620 13:01:04.985257  7135 net.cpp:106] Creating Layer conv4_7
I0620 13:01:04.985307  7135 net.cpp:454] conv4_7 <- conv4_6_conv4_6/relu_0_split_1
I0620 13:01:04.985314  7135 net.cpp:454] conv4_7 <- conv4_7_1x1_increase
I0620 13:01:04.985321  7135 net.cpp:411] conv4_7 -> conv4_7
I0620 13:01:04.985363  7135 net.cpp:150] Setting up conv4_7
I0620 13:01:04.985369  7135 net.cpp:157] Top shape: 2 1024 60 60 (7372800)
I0620 13:01:04.985373  7135 net.cpp:165] Memory required for data: 3129406000
I0620 13:01:04.985376  7135 layer_factory.hpp:77] Creating layer conv4_7/relu
I0620 13:01:04.985389  7135 net.cpp:106] Creating Layer conv4_7/relu
I0620 13:01:04.985394  7135 net.cpp:454] conv4_7/relu <- conv4_7
I0620 13:01:04.985400  7135 net.cpp:397] conv4_7/relu -> conv4_7 (in-place)
I0620 13:01:04.985406  7135 net.cpp:150] Setting up conv4_7/relu
I0620 13:01:04.985411  7135 net.cpp:157] Top shape: 2 1024 60 60 (7372800)
I0620 13:01:04.985415  7135 net.cpp:165] Memory required for data: 3158897200
I0620 13:01:04.985419  7135 layer_factory.hpp:77] Creating layer conv4_7_conv4_7/relu_0_split
I0620 13:01:04.985430  7135 net.cpp:106] Creating Layer conv4_7_conv4_7/relu_0_split
I0620 13:01:04.985433  7135 net.cpp:454] conv4_7_conv4_7/relu_0_split <- conv4_7
I0620 13:01:04.985440  7135 net.cpp:411] conv4_7_conv4_7/relu_0_split -> conv4_7_conv4_7/relu_0_split_0
I0620 13:01:04.985447  7135 net.cpp:411] conv4_7_conv4_7/relu_0_split -> conv4_7_conv4_7/relu_0_split_1
I0620 13:01:04.985479  7135 net.cpp:150] Setting up conv4_7_conv4_7/relu_0_split
I0620 13:01:04.985486  7135 net.cpp:157] Top shape: 2 1024 60 60 (7372800)
I0620 13:01:04.985491  7135 net.cpp:157] Top shape: 2 1024 60 60 (7372800)
I0620 13:01:04.985494  7135 net.cpp:165] Memory required for data: 3217879600
I0620 13:01:04.985498  7135 layer_factory.hpp:77] Creating layer conv4_8_1x1_reduce
I0620 13:01:04.985512  7135 net.cpp:106] Creating Layer conv4_8_1x1_reduce
I0620 13:01:04.985517  7135 net.cpp:454] conv4_8_1x1_reduce <- conv4_7_conv4_7/relu_0_split_0
I0620 13:01:04.985523  7135 net.cpp:411] conv4_8_1x1_reduce -> conv4_8_1x1_reduce
I0620 13:01:04.994236  7135 net.cpp:150] Setting up conv4_8_1x1_reduce
I0620 13:01:04.994312  7135 net.cpp:157] Top shape: 2 256 60 60 (1843200)
I0620 13:01:04.994318  7135 net.cpp:165] Memory required for data: 3225252400
I0620 13:01:04.994330  7135 layer_factory.hpp:77] Creating layer conv4_8_1x1_reduce/bn
I0620 13:01:04.994355  7135 net.cpp:106] Creating Layer conv4_8_1x1_reduce/bn
I0620 13:01:04.994365  7135 net.cpp:454] conv4_8_1x1_reduce/bn <- conv4_8_1x1_reduce
I0620 13:01:04.994390  7135 net.cpp:397] conv4_8_1x1_reduce/bn -> conv4_8_1x1_reduce (in-place)
I0620 13:01:04.994642  7135 net.cpp:150] Setting up conv4_8_1x1_reduce/bn
I0620 13:01:04.994652  7135 net.cpp:157] Top shape: 2 256 60 60 (1843200)
I0620 13:01:04.994655  7135 net.cpp:165] Memory required for data: 3232625200
I0620 13:01:04.994664  7135 layer_factory.hpp:77] Creating layer conv4_8_1x1_reduce/relu
I0620 13:01:04.994676  7135 net.cpp:106] Creating Layer conv4_8_1x1_reduce/relu
I0620 13:01:04.994680  7135 net.cpp:454] conv4_8_1x1_reduce/relu <- conv4_8_1x1_reduce
I0620 13:01:04.994686  7135 net.cpp:397] conv4_8_1x1_reduce/relu -> conv4_8_1x1_reduce (in-place)
I0620 13:01:04.994693  7135 net.cpp:150] Setting up conv4_8_1x1_reduce/relu
I0620 13:01:04.994699  7135 net.cpp:157] Top shape: 2 256 60 60 (1843200)
I0620 13:01:04.994702  7135 net.cpp:165] Memory required for data: 3239998000
I0620 13:01:04.994706  7135 layer_factory.hpp:77] Creating layer conv4_8_3x3
I0620 13:01:04.994717  7135 net.cpp:106] Creating Layer conv4_8_3x3
I0620 13:01:04.994721  7135 net.cpp:454] conv4_8_3x3 <- conv4_8_1x1_reduce
I0620 13:01:04.994727  7135 net.cpp:411] conv4_8_3x3 -> conv4_8_3x3
I0620 13:01:05.008692  7135 net.cpp:150] Setting up conv4_8_3x3
I0620 13:01:05.008723  7135 net.cpp:157] Top shape: 2 256 60 60 (1843200)
I0620 13:01:05.008726  7135 net.cpp:165] Memory required for data: 3247370800
I0620 13:01:05.008733  7135 layer_factory.hpp:77] Creating layer conv4_8_3x3/bn
I0620 13:01:05.008744  7135 net.cpp:106] Creating Layer conv4_8_3x3/bn
I0620 13:01:05.008762  7135 net.cpp:454] conv4_8_3x3/bn <- conv4_8_3x3
I0620 13:01:05.008767  7135 net.cpp:397] conv4_8_3x3/bn -> conv4_8_3x3 (in-place)
I0620 13:01:05.008915  7135 net.cpp:150] Setting up conv4_8_3x3/bn
I0620 13:01:05.008920  7135 net.cpp:157] Top shape: 2 256 60 60 (1843200)
I0620 13:01:05.008924  7135 net.cpp:165] Memory required for data: 3254743600
I0620 13:01:05.008929  7135 layer_factory.hpp:77] Creating layer conv4_8_3x3/relu
I0620 13:01:05.008934  7135 net.cpp:106] Creating Layer conv4_8_3x3/relu
I0620 13:01:05.008936  7135 net.cpp:454] conv4_8_3x3/relu <- conv4_8_3x3
I0620 13:01:05.008939  7135 net.cpp:397] conv4_8_3x3/relu -> conv4_8_3x3 (in-place)
I0620 13:01:05.008944  7135 net.cpp:150] Setting up conv4_8_3x3/relu
I0620 13:01:05.008947  7135 net.cpp:157] Top shape: 2 256 60 60 (1843200)
I0620 13:01:05.008950  7135 net.cpp:165] Memory required for data: 3262116400
I0620 13:01:05.008954  7135 layer_factory.hpp:77] Creating layer conv4_8_1x1_increase
I0620 13:01:05.008961  7135 net.cpp:106] Creating Layer conv4_8_1x1_increase
I0620 13:01:05.008963  7135 net.cpp:454] conv4_8_1x1_increase <- conv4_8_3x3
I0620 13:01:05.008970  7135 net.cpp:411] conv4_8_1x1_increase -> conv4_8_1x1_increase
I0620 13:01:05.015278  7135 net.cpp:150] Setting up conv4_8_1x1_increase
I0620 13:01:05.015291  7135 net.cpp:157] Top shape: 2 1024 60 60 (7372800)
I0620 13:01:05.015293  7135 net.cpp:165] Memory required for data: 3291607600
I0620 13:01:05.015297  7135 layer_factory.hpp:77] Creating layer conv4_8_1x1_increase/bn
I0620 13:01:05.015303  7135 net.cpp:106] Creating Layer conv4_8_1x1_increase/bn
I0620 13:01:05.015307  7135 net.cpp:454] conv4_8_1x1_increase/bn <- conv4_8_1x1_increase
I0620 13:01:05.015311  7135 net.cpp:397] conv4_8_1x1_increase/bn -> conv4_8_1x1_increase (in-place)
I0620 13:01:05.015455  7135 net.cpp:150] Setting up conv4_8_1x1_increase/bn
I0620 13:01:05.015460  7135 net.cpp:157] Top shape: 2 1024 60 60 (7372800)
I0620 13:01:05.015462  7135 net.cpp:165] Memory required for data: 3321098800
I0620 13:01:05.015467  7135 layer_factory.hpp:77] Creating layer conv4_8
I0620 13:01:05.015471  7135 net.cpp:106] Creating Layer conv4_8
I0620 13:01:05.015473  7135 net.cpp:454] conv4_8 <- conv4_7_conv4_7/relu_0_split_1
I0620 13:01:05.015476  7135 net.cpp:454] conv4_8 <- conv4_8_1x1_increase
I0620 13:01:05.015480  7135 net.cpp:411] conv4_8 -> conv4_8
I0620 13:01:05.015496  7135 net.cpp:150] Setting up conv4_8
I0620 13:01:05.015501  7135 net.cpp:157] Top shape: 2 1024 60 60 (7372800)
I0620 13:01:05.015502  7135 net.cpp:165] Memory required for data: 3350590000
I0620 13:01:05.015504  7135 layer_factory.hpp:77] Creating layer conv4_8/relu
I0620 13:01:05.015508  7135 net.cpp:106] Creating Layer conv4_8/relu
I0620 13:01:05.015511  7135 net.cpp:454] conv4_8/relu <- conv4_8
I0620 13:01:05.015513  7135 net.cpp:397] conv4_8/relu -> conv4_8 (in-place)
I0620 13:01:05.015517  7135 net.cpp:150] Setting up conv4_8/relu
I0620 13:01:05.015519  7135 net.cpp:157] Top shape: 2 1024 60 60 (7372800)
I0620 13:01:05.015522  7135 net.cpp:165] Memory required for data: 3380081200
I0620 13:01:05.015523  7135 layer_factory.hpp:77] Creating layer conv4_8_conv4_8/relu_0_split
I0620 13:01:05.015527  7135 net.cpp:106] Creating Layer conv4_8_conv4_8/relu_0_split
I0620 13:01:05.015532  7135 net.cpp:454] conv4_8_conv4_8/relu_0_split <- conv4_8
I0620 13:01:05.015537  7135 net.cpp:411] conv4_8_conv4_8/relu_0_split -> conv4_8_conv4_8/relu_0_split_0
I0620 13:01:05.015540  7135 net.cpp:411] conv4_8_conv4_8/relu_0_split -> conv4_8_conv4_8/relu_0_split_1
I0620 13:01:05.015563  7135 net.cpp:150] Setting up conv4_8_conv4_8/relu_0_split
I0620 13:01:05.015568  7135 net.cpp:157] Top shape: 2 1024 60 60 (7372800)
I0620 13:01:05.015569  7135 net.cpp:157] Top shape: 2 1024 60 60 (7372800)
I0620 13:01:05.015571  7135 net.cpp:165] Memory required for data: 3439063600
I0620 13:01:05.015573  7135 layer_factory.hpp:77] Creating layer conv4_9_1x1_reduce
I0620 13:01:05.015579  7135 net.cpp:106] Creating Layer conv4_9_1x1_reduce
I0620 13:01:05.015581  7135 net.cpp:454] conv4_9_1x1_reduce <- conv4_8_conv4_8/relu_0_split_0
I0620 13:01:05.015596  7135 net.cpp:411] conv4_9_1x1_reduce -> conv4_9_1x1_reduce
I0620 13:01:05.021178  7135 net.cpp:150] Setting up conv4_9_1x1_reduce
I0620 13:01:05.021201  7135 net.cpp:157] Top shape: 2 256 60 60 (1843200)
I0620 13:01:05.021205  7135 net.cpp:165] Memory required for data: 3446436400
I0620 13:01:05.021214  7135 layer_factory.hpp:77] Creating layer conv4_9_1x1_reduce/bn
I0620 13:01:05.021227  7135 net.cpp:106] Creating Layer conv4_9_1x1_reduce/bn
I0620 13:01:05.021234  7135 net.cpp:454] conv4_9_1x1_reduce/bn <- conv4_9_1x1_reduce
I0620 13:01:05.021250  7135 net.cpp:397] conv4_9_1x1_reduce/bn -> conv4_9_1x1_reduce (in-place)
I0620 13:01:05.021428  7135 net.cpp:150] Setting up conv4_9_1x1_reduce/bn
I0620 13:01:05.021436  7135 net.cpp:157] Top shape: 2 256 60 60 (1843200)
I0620 13:01:05.021440  7135 net.cpp:165] Memory required for data: 3453809200
I0620 13:01:05.021497  7135 layer_factory.hpp:77] Creating layer conv4_9_1x1_reduce/relu
I0620 13:01:05.021504  7135 net.cpp:106] Creating Layer conv4_9_1x1_reduce/relu
I0620 13:01:05.021508  7135 net.cpp:454] conv4_9_1x1_reduce/relu <- conv4_9_1x1_reduce
I0620 13:01:05.021512  7135 net.cpp:397] conv4_9_1x1_reduce/relu -> conv4_9_1x1_reduce (in-place)
I0620 13:01:05.021517  7135 net.cpp:150] Setting up conv4_9_1x1_reduce/relu
I0620 13:01:05.021520  7135 net.cpp:157] Top shape: 2 256 60 60 (1843200)
I0620 13:01:05.021522  7135 net.cpp:165] Memory required for data: 3461182000
I0620 13:01:05.021525  7135 layer_factory.hpp:77] Creating layer conv4_9_3x3
I0620 13:01:05.021538  7135 net.cpp:106] Creating Layer conv4_9_3x3
I0620 13:01:05.021541  7135 net.cpp:454] conv4_9_3x3 <- conv4_9_1x1_reduce
I0620 13:01:05.021546  7135 net.cpp:411] conv4_9_3x3 -> conv4_9_3x3
I0620 13:01:05.036291  7135 net.cpp:150] Setting up conv4_9_3x3
I0620 13:01:05.036392  7135 net.cpp:157] Top shape: 2 256 60 60 (1843200)
I0620 13:01:05.036403  7135 net.cpp:165] Memory required for data: 3468554800
I0620 13:01:05.036423  7135 layer_factory.hpp:77] Creating layer conv4_9_3x3/bn
I0620 13:01:05.036458  7135 net.cpp:106] Creating Layer conv4_9_3x3/bn
I0620 13:01:05.036469  7135 net.cpp:454] conv4_9_3x3/bn <- conv4_9_3x3
I0620 13:01:05.036484  7135 net.cpp:397] conv4_9_3x3/bn -> conv4_9_3x3 (in-place)
I0620 13:01:05.036746  7135 net.cpp:150] Setting up conv4_9_3x3/bn
I0620 13:01:05.036756  7135 net.cpp:157] Top shape: 2 256 60 60 (1843200)
I0620 13:01:05.036763  7135 net.cpp:165] Memory required for data: 3475927600
I0620 13:01:05.036774  7135 layer_factory.hpp:77] Creating layer conv4_9_3x3/relu
I0620 13:01:05.036789  7135 net.cpp:106] Creating Layer conv4_9_3x3/relu
I0620 13:01:05.036798  7135 net.cpp:454] conv4_9_3x3/relu <- conv4_9_3x3
I0620 13:01:05.036804  7135 net.cpp:397] conv4_9_3x3/relu -> conv4_9_3x3 (in-place)
I0620 13:01:05.036814  7135 net.cpp:150] Setting up conv4_9_3x3/relu
I0620 13:01:05.036823  7135 net.cpp:157] Top shape: 2 256 60 60 (1843200)
I0620 13:01:05.036828  7135 net.cpp:165] Memory required for data: 3483300400
I0620 13:01:05.036835  7135 layer_factory.hpp:77] Creating layer conv4_9_1x1_increase
I0620 13:01:05.036849  7135 net.cpp:106] Creating Layer conv4_9_1x1_increase
I0620 13:01:05.036857  7135 net.cpp:454] conv4_9_1x1_increase <- conv4_9_3x3
I0620 13:01:05.036869  7135 net.cpp:411] conv4_9_1x1_increase -> conv4_9_1x1_increase
I0620 13:01:05.046969  7135 net.cpp:150] Setting up conv4_9_1x1_increase
I0620 13:01:05.047049  7135 net.cpp:157] Top shape: 2 1024 60 60 (7372800)
I0620 13:01:05.047060  7135 net.cpp:165] Memory required for data: 3512791600
I0620 13:01:05.047081  7135 layer_factory.hpp:77] Creating layer conv4_9_1x1_increase/bn
I0620 13:01:05.047128  7135 net.cpp:106] Creating Layer conv4_9_1x1_increase/bn
I0620 13:01:05.047142  7135 net.cpp:454] conv4_9_1x1_increase/bn <- conv4_9_1x1_increase
I0620 13:01:05.047161  7135 net.cpp:397] conv4_9_1x1_increase/bn -> conv4_9_1x1_increase (in-place)
I0620 13:01:05.047456  7135 net.cpp:150] Setting up conv4_9_1x1_increase/bn
I0620 13:01:05.047469  7135 net.cpp:157] Top shape: 2 1024 60 60 (7372800)
I0620 13:01:05.047533  7135 net.cpp:165] Memory required for data: 3542282800
I0620 13:01:05.047549  7135 layer_factory.hpp:77] Creating layer conv4_9
I0620 13:01:05.047562  7135 net.cpp:106] Creating Layer conv4_9
I0620 13:01:05.047567  7135 net.cpp:454] conv4_9 <- conv4_8_conv4_8/relu_0_split_1
I0620 13:01:05.047572  7135 net.cpp:454] conv4_9 <- conv4_9_1x1_increase
I0620 13:01:05.047579  7135 net.cpp:411] conv4_9 -> conv4_9
I0620 13:01:05.047616  7135 net.cpp:150] Setting up conv4_9
I0620 13:01:05.047622  7135 net.cpp:157] Top shape: 2 1024 60 60 (7372800)
I0620 13:01:05.047626  7135 net.cpp:165] Memory required for data: 3571774000
I0620 13:01:05.047631  7135 layer_factory.hpp:77] Creating layer conv4_9/relu
I0620 13:01:05.047641  7135 net.cpp:106] Creating Layer conv4_9/relu
I0620 13:01:05.047646  7135 net.cpp:454] conv4_9/relu <- conv4_9
I0620 13:01:05.047650  7135 net.cpp:397] conv4_9/relu -> conv4_9 (in-place)
I0620 13:01:05.047657  7135 net.cpp:150] Setting up conv4_9/relu
I0620 13:01:05.047662  7135 net.cpp:157] Top shape: 2 1024 60 60 (7372800)
I0620 13:01:05.047665  7135 net.cpp:165] Memory required for data: 3601265200
I0620 13:01:05.047669  7135 layer_factory.hpp:77] Creating layer conv4_9_conv4_9/relu_0_split
I0620 13:01:05.047678  7135 net.cpp:106] Creating Layer conv4_9_conv4_9/relu_0_split
I0620 13:01:05.047683  7135 net.cpp:454] conv4_9_conv4_9/relu_0_split <- conv4_9
I0620 13:01:05.047688  7135 net.cpp:411] conv4_9_conv4_9/relu_0_split -> conv4_9_conv4_9/relu_0_split_0
I0620 13:01:05.047693  7135 net.cpp:411] conv4_9_conv4_9/relu_0_split -> conv4_9_conv4_9/relu_0_split_1
I0620 13:01:05.047725  7135 net.cpp:150] Setting up conv4_9_conv4_9/relu_0_split
I0620 13:01:05.047730  7135 net.cpp:157] Top shape: 2 1024 60 60 (7372800)
I0620 13:01:05.047735  7135 net.cpp:157] Top shape: 2 1024 60 60 (7372800)
I0620 13:01:05.047739  7135 net.cpp:165] Memory required for data: 3660247600
I0620 13:01:05.047742  7135 layer_factory.hpp:77] Creating layer conv4_10_1x1_reduce
I0620 13:01:05.047756  7135 net.cpp:106] Creating Layer conv4_10_1x1_reduce
I0620 13:01:05.047760  7135 net.cpp:454] conv4_10_1x1_reduce <- conv4_9_conv4_9/relu_0_split_0
I0620 13:01:05.047770  7135 net.cpp:411] conv4_10_1x1_reduce -> conv4_10_1x1_reduce
I0620 13:01:05.053544  7135 net.cpp:150] Setting up conv4_10_1x1_reduce
I0620 13:01:05.053560  7135 net.cpp:157] Top shape: 2 256 60 60 (1843200)
I0620 13:01:05.053563  7135 net.cpp:165] Memory required for data: 3667620400
I0620 13:01:05.053570  7135 layer_factory.hpp:77] Creating layer conv4_10_1x1_reduce/bn
I0620 13:01:05.053576  7135 net.cpp:106] Creating Layer conv4_10_1x1_reduce/bn
I0620 13:01:05.053580  7135 net.cpp:454] conv4_10_1x1_reduce/bn <- conv4_10_1x1_reduce
I0620 13:01:05.053584  7135 net.cpp:397] conv4_10_1x1_reduce/bn -> conv4_10_1x1_reduce (in-place)
I0620 13:01:05.053732  7135 net.cpp:150] Setting up conv4_10_1x1_reduce/bn
I0620 13:01:05.053736  7135 net.cpp:157] Top shape: 2 256 60 60 (1843200)
I0620 13:01:05.053740  7135 net.cpp:165] Memory required for data: 3674993200
I0620 13:01:05.053743  7135 layer_factory.hpp:77] Creating layer conv4_10_1x1_reduce/relu
I0620 13:01:05.053748  7135 net.cpp:106] Creating Layer conv4_10_1x1_reduce/relu
I0620 13:01:05.053756  7135 net.cpp:454] conv4_10_1x1_reduce/relu <- conv4_10_1x1_reduce
I0620 13:01:05.053759  7135 net.cpp:397] conv4_10_1x1_reduce/relu -> conv4_10_1x1_reduce (in-place)
I0620 13:01:05.053763  7135 net.cpp:150] Setting up conv4_10_1x1_reduce/relu
I0620 13:01:05.053766  7135 net.cpp:157] Top shape: 2 256 60 60 (1843200)
I0620 13:01:05.053769  7135 net.cpp:165] Memory required for data: 3682366000
I0620 13:01:05.053771  7135 layer_factory.hpp:77] Creating layer conv4_10_3x3
I0620 13:01:05.053777  7135 net.cpp:106] Creating Layer conv4_10_3x3
I0620 13:01:05.053781  7135 net.cpp:454] conv4_10_3x3 <- conv4_10_1x1_reduce
I0620 13:01:05.053784  7135 net.cpp:411] conv4_10_3x3 -> conv4_10_3x3
I0620 13:01:05.067795  7135 net.cpp:150] Setting up conv4_10_3x3
I0620 13:01:05.067826  7135 net.cpp:157] Top shape: 2 256 60 60 (1843200)
I0620 13:01:05.067847  7135 net.cpp:165] Memory required for data: 3689738800
I0620 13:01:05.067853  7135 layer_factory.hpp:77] Creating layer conv4_10_3x3/bn
I0620 13:01:05.067862  7135 net.cpp:106] Creating Layer conv4_10_3x3/bn
I0620 13:01:05.067868  7135 net.cpp:454] conv4_10_3x3/bn <- conv4_10_3x3
I0620 13:01:05.067873  7135 net.cpp:397] conv4_10_3x3/bn -> conv4_10_3x3 (in-place)
I0620 13:01:05.068030  7135 net.cpp:150] Setting up conv4_10_3x3/bn
I0620 13:01:05.068035  7135 net.cpp:157] Top shape: 2 256 60 60 (1843200)
I0620 13:01:05.068038  7135 net.cpp:165] Memory required for data: 3697111600
I0620 13:01:05.068044  7135 layer_factory.hpp:77] Creating layer conv4_10_3x3/relu
I0620 13:01:05.068049  7135 net.cpp:106] Creating Layer conv4_10_3x3/relu
I0620 13:01:05.068053  7135 net.cpp:454] conv4_10_3x3/relu <- conv4_10_3x3
I0620 13:01:05.068055  7135 net.cpp:397] conv4_10_3x3/relu -> conv4_10_3x3 (in-place)
I0620 13:01:05.068060  7135 net.cpp:150] Setting up conv4_10_3x3/relu
I0620 13:01:05.068063  7135 net.cpp:157] Top shape: 2 256 60 60 (1843200)
I0620 13:01:05.068065  7135 net.cpp:165] Memory required for data: 3704484400
I0620 13:01:05.068068  7135 layer_factory.hpp:77] Creating layer conv4_10_1x1_increase
I0620 13:01:05.068076  7135 net.cpp:106] Creating Layer conv4_10_1x1_increase
I0620 13:01:05.068079  7135 net.cpp:454] conv4_10_1x1_increase <- conv4_10_3x3
I0620 13:01:05.068084  7135 net.cpp:411] conv4_10_1x1_increase -> conv4_10_1x1_increase
I0620 13:01:05.074503  7135 net.cpp:150] Setting up conv4_10_1x1_increase
I0620 13:01:05.074522  7135 net.cpp:157] Top shape: 2 1024 60 60 (7372800)
I0620 13:01:05.074525  7135 net.cpp:165] Memory required for data: 3733975600
I0620 13:01:05.074530  7135 layer_factory.hpp:77] Creating layer conv4_10_1x1_increase/bn
I0620 13:01:05.074538  7135 net.cpp:106] Creating Layer conv4_10_1x1_increase/bn
I0620 13:01:05.074543  7135 net.cpp:454] conv4_10_1x1_increase/bn <- conv4_10_1x1_increase
I0620 13:01:05.074548  7135 net.cpp:397] conv4_10_1x1_increase/bn -> conv4_10_1x1_increase (in-place)
I0620 13:01:05.074699  7135 net.cpp:150] Setting up conv4_10_1x1_increase/bn
I0620 13:01:05.074704  7135 net.cpp:157] Top shape: 2 1024 60 60 (7372800)
I0620 13:01:05.074707  7135 net.cpp:165] Memory required for data: 3763466800
I0620 13:01:05.074712  7135 layer_factory.hpp:77] Creating layer conv4_10
I0620 13:01:05.074717  7135 net.cpp:106] Creating Layer conv4_10
I0620 13:01:05.074721  7135 net.cpp:454] conv4_10 <- conv4_9_conv4_9/relu_0_split_1
I0620 13:01:05.074724  7135 net.cpp:454] conv4_10 <- conv4_10_1x1_increase
I0620 13:01:05.074728  7135 net.cpp:411] conv4_10 -> conv4_10
I0620 13:01:05.074746  7135 net.cpp:150] Setting up conv4_10
I0620 13:01:05.074750  7135 net.cpp:157] Top shape: 2 1024 60 60 (7372800)
I0620 13:01:05.074753  7135 net.cpp:165] Memory required for data: 3792958000
I0620 13:01:05.074755  7135 layer_factory.hpp:77] Creating layer conv4_10/relu
I0620 13:01:05.074760  7135 net.cpp:106] Creating Layer conv4_10/relu
I0620 13:01:05.074764  7135 net.cpp:454] conv4_10/relu <- conv4_10
I0620 13:01:05.074766  7135 net.cpp:397] conv4_10/relu -> conv4_10 (in-place)
I0620 13:01:05.074770  7135 net.cpp:150] Setting up conv4_10/relu
I0620 13:01:05.074774  7135 net.cpp:157] Top shape: 2 1024 60 60 (7372800)
I0620 13:01:05.074776  7135 net.cpp:165] Memory required for data: 3822449200
I0620 13:01:05.074779  7135 layer_factory.hpp:77] Creating layer conv4_10_conv4_10/relu_0_split
I0620 13:01:05.074784  7135 net.cpp:106] Creating Layer conv4_10_conv4_10/relu_0_split
I0620 13:01:05.074786  7135 net.cpp:454] conv4_10_conv4_10/relu_0_split <- conv4_10
I0620 13:01:05.074790  7135 net.cpp:411] conv4_10_conv4_10/relu_0_split -> conv4_10_conv4_10/relu_0_split_0
I0620 13:01:05.074795  7135 net.cpp:411] conv4_10_conv4_10/relu_0_split -> conv4_10_conv4_10/relu_0_split_1
I0620 13:01:05.074817  7135 net.cpp:150] Setting up conv4_10_conv4_10/relu_0_split
I0620 13:01:05.074820  7135 net.cpp:157] Top shape: 2 1024 60 60 (7372800)
I0620 13:01:05.074823  7135 net.cpp:157] Top shape: 2 1024 60 60 (7372800)
I0620 13:01:05.074841  7135 net.cpp:165] Memory required for data: 3881431600
I0620 13:01:05.074843  7135 layer_factory.hpp:77] Creating layer conv4_11_1x1_reduce
I0620 13:01:05.074849  7135 net.cpp:106] Creating Layer conv4_11_1x1_reduce
I0620 13:01:05.074852  7135 net.cpp:454] conv4_11_1x1_reduce <- conv4_10_conv4_10/relu_0_split_0
I0620 13:01:05.074856  7135 net.cpp:411] conv4_11_1x1_reduce -> conv4_11_1x1_reduce
I0620 13:01:05.081722  7135 net.cpp:150] Setting up conv4_11_1x1_reduce
I0620 13:01:05.081827  7135 net.cpp:157] Top shape: 2 256 60 60 (1843200)
I0620 13:01:05.081835  7135 net.cpp:165] Memory required for data: 3888804400
I0620 13:01:05.081852  7135 layer_factory.hpp:77] Creating layer conv4_11_1x1_reduce/bn
I0620 13:01:05.081877  7135 net.cpp:106] Creating Layer conv4_11_1x1_reduce/bn
I0620 13:01:05.081892  7135 net.cpp:454] conv4_11_1x1_reduce/bn <- conv4_11_1x1_reduce
I0620 13:01:05.081904  7135 net.cpp:397] conv4_11_1x1_reduce/bn -> conv4_11_1x1_reduce (in-place)
I0620 13:01:05.082186  7135 net.cpp:150] Setting up conv4_11_1x1_reduce/bn
I0620 13:01:05.082195  7135 net.cpp:157] Top shape: 2 256 60 60 (1843200)
I0620 13:01:05.082200  7135 net.cpp:165] Memory required for data: 3896177200
I0620 13:01:05.082209  7135 layer_factory.hpp:77] Creating layer conv4_11_1x1_reduce/relu
I0620 13:01:05.082221  7135 net.cpp:106] Creating Layer conv4_11_1x1_reduce/relu
I0620 13:01:05.082226  7135 net.cpp:454] conv4_11_1x1_reduce/relu <- conv4_11_1x1_reduce
I0620 13:01:05.082235  7135 net.cpp:397] conv4_11_1x1_reduce/relu -> conv4_11_1x1_reduce (in-place)
I0620 13:01:05.082243  7135 net.cpp:150] Setting up conv4_11_1x1_reduce/relu
I0620 13:01:05.082249  7135 net.cpp:157] Top shape: 2 256 60 60 (1843200)
I0620 13:01:05.082253  7135 net.cpp:165] Memory required for data: 3903550000
I0620 13:01:05.082257  7135 layer_factory.hpp:77] Creating layer conv4_11_3x3
I0620 13:01:05.082273  7135 net.cpp:106] Creating Layer conv4_11_3x3
I0620 13:01:05.082276  7135 net.cpp:454] conv4_11_3x3 <- conv4_11_1x1_reduce
I0620 13:01:05.082284  7135 net.cpp:411] conv4_11_3x3 -> conv4_11_3x3
I0620 13:01:05.099961  7135 net.cpp:150] Setting up conv4_11_3x3
I0620 13:01:05.099997  7135 net.cpp:157] Top shape: 2 256 60 60 (1843200)
I0620 13:01:05.100000  7135 net.cpp:165] Memory required for data: 3910922800
I0620 13:01:05.100011  7135 layer_factory.hpp:77] Creating layer conv4_11_3x3/bn
I0620 13:01:05.100021  7135 net.cpp:106] Creating Layer conv4_11_3x3/bn
I0620 13:01:05.100028  7135 net.cpp:454] conv4_11_3x3/bn <- conv4_11_3x3
I0620 13:01:05.100033  7135 net.cpp:397] conv4_11_3x3/bn -> conv4_11_3x3 (in-place)
I0620 13:01:05.100185  7135 net.cpp:150] Setting up conv4_11_3x3/bn
I0620 13:01:05.100190  7135 net.cpp:157] Top shape: 2 256 60 60 (1843200)
I0620 13:01:05.100193  7135 net.cpp:165] Memory required for data: 3918295600
I0620 13:01:05.100198  7135 layer_factory.hpp:77] Creating layer conv4_11_3x3/relu
I0620 13:01:05.100204  7135 net.cpp:106] Creating Layer conv4_11_3x3/relu
I0620 13:01:05.100208  7135 net.cpp:454] conv4_11_3x3/relu <- conv4_11_3x3
I0620 13:01:05.100210  7135 net.cpp:397] conv4_11_3x3/relu -> conv4_11_3x3 (in-place)
…
I0620 13:01:05.387728  7135 net.cpp:454] conv4_21 <- conv4_21_1x1_increase
I0620 13:01:05.387733  7135 net.cpp:411] conv4_21 -> conv4_21
I0620 13:01:05.387758  7135 net.cpp:150] Setting up conv4_21
I0620 13:01:05.387763  7135 net.cpp:157] Top shape: 2 1024 60 60 (7372800)
I0620 13:01:05.387765  7135 net.cpp:165] Memory required for data: 6225982000
I0620 13:01:05.387768  7135 layer_factory.hpp:77] Creating layer conv4_21/relu
I0620 13:01:05.387775  7135 net.cpp:106] Creating Layer conv4_21/relu
I0620 13:01:05.387778  7135 net.cpp:454] conv4_21/relu <- conv4_21
I0620 13:01:05.387781  7135 net.cpp:397] conv4_21/relu -> conv4_21 (in-place)
I0620 13:01:05.387786  7135 net.cpp:150] Setting up conv4_21/relu
I0620 13:01:05.387790  7135 net.cpp:157] Top shape: 2 1024 60 60 (7372800)
I0620 13:01:05.387792  7135 net.cpp:165] Memory required for data: 6255473200
I0620 13:01:05.387795  7135 layer_factory.hpp:77] Creating layer conv4_21_conv4_21/relu_0_split
I0620 13:01:05.387801  7135 net.cpp:106] Creating Layer conv4_21_conv4_21/relu_0_split
I0620 13:01:05.387804  7135 net.cpp:454] conv4_21_conv4_21/relu_0_split <- conv4_21
I0620 13:01:05.387809  7135 net.cpp:411] conv4_21_conv4_21/relu_0_split -> conv4_21_conv4_21/relu_0_split_0
I0620 13:01:05.387812  7135 net.cpp:411] conv4_21_conv4_21/relu_0_split -> conv4_21_conv4_21/relu_0_split_1
I0620 13:01:05.387866  7135 net.cpp:150] Setting up conv4_21_conv4_21/relu_0_split
I0620 13:01:05.387871  7135 net.cpp:157] Top shape: 2 1024 60 60 (7372800)
I0620 13:01:05.387874  7135 net.cpp:157] Top shape: 2 1024 60 60 (7372800)
I0620 13:01:05.387877  7135 net.cpp:165] Memory required for data: 6314455600
I0620 13:01:05.387881  7135 layer_factory.hpp:77] Creating layer conv4_22_1x1_reduce
I0620 13:01:05.387887  7135 net.cpp:106] Creating Layer conv4_22_1x1_reduce
I0620 13:01:05.387892  7135 net.cpp:454] conv4_22_1x1_reduce <- conv4_21_conv4_21/relu_0_split_0
I0620 13:01:05.387895  7135 net.cpp:411] conv4_22_1x1_reduce -> conv4_22_1x1_reduce
I0620 13:01:05.393633  7135 net.cpp:150] Setting up conv4_22_1x1_reduce
I0620 13:01:05.393643  7135 net.cpp:157] Top shape: 2 256 60 60 (1843200)
I0620 13:01:05.393652  7135 net.cpp:165] Memory required for data: 6321828400
I0620 13:01:05.393657  7135 layer_factory.hpp:77] Creating layer conv4_22_1x1_reduce/bn
I0620 13:01:05.393666  7135 net.cpp:106] Creating Layer conv4_22_1x1_reduce/bn
I0620 13:01:05.393671  7135 net.cpp:454] conv4_22_1x1_reduce/bn <- conv4_22_1x1_reduce
I0620 13:01:05.393674  7135 net.cpp:397] conv4_22_1x1_reduce/bn -> conv4_22_1x1_reduce (in-place)
I0620 13:01:05.393839  7135 net.cpp:150] Setting up conv4_22_1x1_reduce/bn
I0620 13:01:05.393843  7135 net.cpp:157] Top shape: 2 256 60 60 (1843200)
I0620 13:01:05.393846  7135 net.cpp:165] Memory required for data: 6329201200
I0620 13:01:05.393851  7135 layer_factory.hpp:77] Creating layer conv4_22_1x1_reduce/relu
I0620 13:01:05.393854  7135 net.cpp:106] Creating Layer conv4_22_1x1_reduce/relu
I0620 13:01:05.393857  7135 net.cpp:454] conv4_22_1x1_reduce/relu <- conv4_22_1x1_reduce
I0620 13:01:05.393860  7135 net.cpp:397] conv4_22_1x1_reduce/relu -> conv4_22_1x1_reduce (in-place)
I0620 13:01:05.393863  7135 net.cpp:150] Setting up conv4_22_1x1_reduce/relu
I0620 13:01:05.393867  7135 net.cpp:157] Top shape: 2 256 60 60 (1843200)
I0620 13:01:05.393868  7135 net.cpp:165] Memory required for data: 6336574000
I0620 13:01:05.393870  7135 layer_factory.hpp:77] Creating layer conv4_22_3x3
I0620 13:01:05.393875  7135 net.cpp:106] Creating Layer conv4_22_3x3
I0620 13:01:05.393878  7135 net.cpp:454] conv4_22_3x3 <- conv4_22_1x1_reduce
I0620 13:01:05.393883  7135 net.cpp:411] conv4_22_3x3 -> conv4_22_3x3
I0620 13:01:05.407896  7135 net.cpp:150] Setting up conv4_22_3x3
I0620 13:01:05.407917  7135 net.cpp:157] Top shape: 2 256 60 60 (1843200)
I0620 13:01:05.407920  7135 net.cpp:165] Memory required for data: 6343946800
I0620 13:01:05.407927  7135 layer_factory.hpp:77] Creating layer conv4_22_3x3/bn
I0620 13:01:05.407937  7135 net.cpp:106] Creating Layer conv4_22_3x3/bn
I0620 13:01:05.407941  7135 net.cpp:454] conv4_22_3x3/bn <- conv4_22_3x3
I0620 13:01:05.407946  7135 net.cpp:397] conv4_22_3x3/bn -> conv4_22_3x3 (in-place)
I0620 13:01:05.408107  7135 net.cpp:150] Setting up conv4_22_3x3/bn
I0620 13:01:05.408112  7135 net.cpp:157] Top shape: 2 256 60 60 (1843200)
I0620 13:01:05.408114  7135 net.cpp:165] Memory required for data: 6351319600
I0620 13:01:05.408119  7135 layer_factory.hpp:77] Creating layer conv4_22_3x3/relu
I0620 13:01:05.408124  7135 net.cpp:106] Creating Layer conv4_22_3x3/relu
I0620 13:01:05.408128  7135 net.cpp:454] conv4_22_3x3/relu <- conv4_22_3x3
I0620 13:01:05.408130  7135 net.cpp:397] conv4_22_3x3/relu -> conv4_22_3x3 (in-place)
I0620 13:01:05.408135  7135 net.cpp:150] Setting up conv4_22_3x3/relu
I0620 13:01:05.408138  7135 net.cpp:157] Top shape: 2 256 60 60 (1843200)
I0620 13:01:05.408140  7135 net.cpp:165] Memory required for data: 6358692400
I0620 13:01:05.408143  7135 layer_factory.hpp:77] Creating layer conv4_22_1x1_increase
I0620 13:01:05.408149  7135 net.cpp:106] Creating Layer conv4_22_1x1_increase
I0620 13:01:05.408152  7135 net.cpp:454] conv4_22_1x1_increase <- conv4_22_3x3
I0620 13:01:05.408156  7135 net.cpp:411] conv4_22_1x1_increase -> conv4_22_1x1_increase
I0620 13:01:05.414619  7135 net.cpp:150] Setting up conv4_22_1x1_increase
I0620 13:01:05.414681  7135 net.cpp:157] Top shape: 2 1024 60 60 (7372800)
I0620 13:01:05.414732  7135 net.cpp:165] Memory required for data: 6388183600
I0620 13:01:05.414744  7135 layer_factory.hpp:77] Creating layer conv4_22_1x1_increase/bn
I0620 13:01:05.414768  7135 net.cpp:106] Creating Layer conv4_22_1x1_increase/bn
I0620 13:01:05.414780  7135 net.cpp:454] conv4_22_1x1_increase/bn <- conv4_22_1x1_increase
I0620 13:01:05.414789  7135 net.cpp:397] conv4_22_1x1_increase/bn -> conv4_22_1x1_increase (in-place)
I0620 13:01:05.415043  7135 net.cpp:150] Setting up conv4_22_1x1_increase/bn
I0620 13:01:05.415051  7135 net.cpp:157] Top shape: 2 1024 60 60 (7372800)
I0620 13:01:05.415053  7135 net.cpp:165] Memory required for data: 6417674800
I0620 13:01:05.415058  7135 layer_factory.hpp:77] Creating layer conv4_22
I0620 13:01:05.415067  7135 net.cpp:106] Creating Layer conv4_22
I0620 13:01:05.415071  7135 net.cpp:454] conv4_22 <- conv4_21_conv4_21/relu_0_split_1
I0620 13:01:05.415073  7135 net.cpp:454] conv4_22 <- conv4_22_1x1_increase
I0620 13:01:05.415077  7135 net.cpp:411] conv4_22 -> conv4_22
I0620 13:01:05.415112  7135 net.cpp:150] Setting up conv4_22
I0620 13:01:05.415115  7135 net.cpp:157] Top shape: 2 1024 60 60 (7372800)
I0620 13:01:05.415118  7135 net.cpp:165] Memory required for data: 6447166000
I0620 13:01:05.415122  7135 layer_factory.hpp:77] Creating layer conv4_22/relu
I0620 13:01:05.415128  7135 net.cpp:106] Creating Layer conv4_22/relu
I0620 13:01:05.415132  7135 net.cpp:454] conv4_22/relu <- conv4_22
I0620 13:01:05.415135  7135 net.cpp:397] conv4_22/relu -> conv4_22 (in-place)
I0620 13:01:05.415140  7135 net.cpp:150] Setting up conv4_22/relu
I0620 13:01:05.415143  7135 net.cpp:157] Top shape: 2 1024 60 60 (7372800)
I0620 13:01:05.415146  7135 net.cpp:165] Memory required for data: 6476657200
I0620 13:01:05.415149  7135 layer_factory.hpp:77] Creating layer conv4_22_conv4_22/relu_0_split
I0620 13:01:05.415158  7135 net.cpp:106] Creating Layer conv4_22_conv4_22/relu_0_split
I0620 13:01:05.415160  7135 net.cpp:454] conv4_22_conv4_22/relu_0_split <- conv4_22
I0620 13:01:05.415164  7135 net.cpp:411] conv4_22_conv4_22/relu_0_split -> conv4_22_conv4_22/relu_0_split_0
I0620 13:01:05.415170  7135 net.cpp:411] conv4_22_conv4_22/relu_0_split -> conv4_22_conv4_22/relu_0_split_1
I0620 13:01:05.415196  7135 net.cpp:150] Setting up conv4_22_conv4_22/relu_0_split
I0620 13:01:05.415200  7135 net.cpp:157] Top shape: 2 1024 60 60 (7372800)
I0620 13:01:05.415204  7135 net.cpp:157] Top shape: 2 1024 60 60 (7372800)
I0620 13:01:05.415207  7135 net.cpp:165] Memory required for data: 6535639600
I0620 13:01:05.415210  7135 layer_factory.hpp:77] Creating layer conv4_23_1x1_reduce
I0620 13:01:05.415220  7135 net.cpp:106] Creating Layer conv4_23_1x1_reduce
I0620 13:01:05.415221  7135 net.cpp:454] conv4_23_1x1_reduce <- conv4_22_conv4_22/relu_0_split_0
I0620 13:01:05.415226  7135 net.cpp:411] conv4_23_1x1_reduce -> conv4_23_1x1_reduce
I0620 13:01:05.423285  7135 net.cpp:150] Setting up conv4_23_1x1_reduce
I0620 13:01:05.423357  7135 net.cpp:157] Top shape: 2 256 60 60 (1843200)
I0620 13:01:05.423362  7135 net.cpp:165] Memory required for data: 6543012400
I0620 13:01:05.423377  7135 layer_factory.hpp:77] Creating layer conv4_23_1x1_reduce/bn
I0620 13:01:05.423400  7135 net.cpp:106] Creating Layer conv4_23_1x1_reduce/bn
I0620 13:01:05.423414  7135 net.cpp:454] conv4_23_1x1_reduce/bn <- conv4_23_1x1_reduce
I0620 13:01:05.423430  7135 net.cpp:397] conv4_23_1x1_reduce/bn -> conv4_23_1x1_reduce (in-place)
I0620 13:01:05.423751  7135 net.cpp:150] Setting up conv4_23_1x1_reduce/bn
I0620 13:01:05.423763  7135 net.cpp:157] Top shape: 2 256 60 60 (1843200)
I0620 13:01:05.423768  7135 net.cpp:165] Memory required for data: 6550385200
I0620 13:01:05.423776  7135 layer_factory.hpp:77] Creating layer conv4_23_1x1_reduce/relu
I0620 13:01:05.423787  7135 net.cpp:106] Creating Layer conv4_23_1x1_reduce/relu
I0620 13:01:05.423794  7135 net.cpp:454] conv4_23_1x1_reduce/relu <- conv4_23_1x1_reduce
I0620 13:01:05.423799  7135 net.cpp:397] conv4_23_1x1_reduce/relu -> conv4_23_1x1_reduce (in-place)
I0620 13:01:05.423861  7135 net.cpp:150] Setting up conv4_23_1x1_reduce/relu
I0620 13:01:05.423866  7135 net.cpp:157] Top shape: 2 256 60 60 (1843200)
I0620 13:01:05.423871  7135 net.cpp:165] Memory required for data: 6557758000
I0620 13:01:05.423876  7135 layer_factory.hpp:77] Creating layer conv4_23_3x3
I0620 13:01:05.423892  7135 net.cpp:106] Creating Layer conv4_23_3x3
I0620 13:01:05.423895  7135 net.cpp:454] conv4_23_3x3 <- conv4_23_1x1_reduce
I0620 13:01:05.423902  7135 net.cpp:411] conv4_23_3x3 -> conv4_23_3x3
I0620 13:01:05.438972  7135 net.cpp:150] Setting up conv4_23_3x3
I0620 13:01:05.439010  7135 net.cpp:157] Top shape: 2 256 60 60 (1843200)
I0620 13:01:05.439013  7135 net.cpp:165] Memory required for data: 6565130800
I0620 13:01:05.439018  7135 layer_factory.hpp:77] Creating layer conv4_23_3x3/bn
I0620 13:01:05.439028  7135 net.cpp:106] Creating Layer conv4_23_3x3/bn
I0620 13:01:05.439033  7135 net.cpp:454] conv4_23_3x3/bn <- conv4_23_3x3
I0620 13:01:05.439038  7135 net.cpp:397] conv4_23_3x3/bn -> conv4_23_3x3 (in-place)
I0620 13:01:05.439199  7135 net.cpp:150] Setting up conv4_23_3x3/bn
I0620 13:01:05.439204  7135 net.cpp:157] Top shape: 2 256 60 60 (1843200)
I0620 13:01:05.439206  7135 net.cpp:165] Memory required for data: 6572503600
I0620 13:01:05.439211  7135 layer_factory.hpp:77] Creating layer conv4_23_3x3/relu
I0620 13:01:05.439215  7135 net.cpp:106] Creating Layer conv4_23_3x3/relu
I0620 13:01:05.439218  7135 net.cpp:454] conv4_23_3x3/relu <- conv4_23_3x3
I0620 13:01:05.439220  7135 net.cpp:397] conv4_23_3x3/relu -> conv4_23_3x3 (in-place)
I0620 13:01:05.439224  7135 net.cpp:150] Setting up conv4_23_3x3/relu
I0620 13:01:05.439226  7135 net.cpp:157] Top shape: 2 256 60 60 (1843200)
I0620 13:01:05.439229  7135 net.cpp:165] Memory required for data: 6579876400
I0620 13:01:05.439230  7135 layer_factory.hpp:77] Creating layer conv4_23_1x1_increase
I0620 13:01:05.439239  7135 net.cpp:106] Creating Layer conv4_23_1x1_increase
I0620 13:01:05.439240  7135 net.cpp:454] conv4_23_1x1_increase <- conv4_23_3x3
I0620 13:01:05.439244  7135 net.cpp:411] conv4_23_1x1_increase -> conv4_23_1x1_increase
I0620 13:01:05.445574  7135 net.cpp:150] Setting up conv4_23_1x1_increase
I0620 13:01:05.445590  7135 net.cpp:157] Top shape: 2 1024 60 60 (7372800)
I0620 13:01:05.445592  7135 net.cpp:165] Memory required for data: 6609367600
I0620 13:01:05.445598  7135 layer_factory.hpp:77] Creating layer conv4_23_1x1_increase/bn
I0620 13:01:05.445607  7135 net.cpp:106] Creating Layer conv4_23_1x1_increase/bn
I0620 13:01:05.445611  7135 net.cpp:454] conv4_23_1x1_increase/bn <- conv4_23_1x1_increase
I0620 13:01:05.445616  7135 net.cpp:397] conv4_23_1x1_increase/bn -> conv4_23_1x1_increase (in-place)
I0620 13:01:05.445791  7135 net.cpp:150] Setting up conv4_23_1x1_increase/bn
I0620 13:01:05.445797  7135 net.cpp:157] Top shape: 2 1024 60 60 (7372800)
I0620 13:01:05.445801  7135 net.cpp:165] Memory required for data: 6638858800
I0620 13:01:05.445806  7135 layer_factory.hpp:77] Creating layer conv4_23
I0620 13:01:05.445811  7135 net.cpp:106] Creating Layer conv4_23
I0620 13:01:05.445814  7135 net.cpp:454] conv4_23 <- conv4_22_conv4_22/relu_0_split_1
I0620 13:01:05.445817  7135 net.cpp:454] conv4_23 <- conv4_23_1x1_increase
I0620 13:01:05.445822  7135 net.cpp:411] conv4_23 -> conv4_23
I0620 13:01:05.445840  7135 net.cpp:150] Setting up conv4_23
I0620 13:01:05.445843  7135 net.cpp:157] Top shape: 2 1024 60 60 (7372800)
I0620 13:01:05.445847  7135 net.cpp:165] Memory required for data: 6668350000
I0620 13:01:05.445849  7135 layer_factory.hpp:77] Creating layer conv4_23/relu
I0620 13:01:05.445855  7135 net.cpp:106] Creating Layer conv4_23/relu
I0620 13:01:05.445858  7135 net.cpp:454] conv4_23/relu <- conv4_23
I0620 13:01:05.445863  7135 net.cpp:397] conv4_23/relu -> conv4_23 (in-place)
I0620 13:01:05.445866  7135 net.cpp:150] Setting up conv4_23/relu
I0620 13:01:05.445869  7135 net.cpp:157] Top shape: 2 1024 60 60 (7372800)
I0620 13:01:05.445873  7135 net.cpp:165] Memory required for data: 6697841200
I0620 13:01:05.445875  7135 layer_factory.hpp:77] Creating layer conv4_23_conv4_23/relu_0_split
I0620 13:01:05.445897  7135 net.cpp:106] Creating Layer conv4_23_conv4_23/relu_0_split
I0620 13:01:05.445900  7135 net.cpp:454] conv4_23_conv4_23/relu_0_split <- conv4_23
I0620 13:01:05.445904  7135 net.cpp:411] conv4_23_conv4_23/relu_0_split -> conv4_23_conv4_23/relu_0_split_0
I0620 13:01:05.445909  7135 net.cpp:411] conv4_23_conv4_23/relu_0_split -> conv4_23_conv4_23/relu_0_split_1
I0620 13:01:05.445935  7135 net.cpp:150] Setting up conv4_23_conv4_23/relu_0_split
I0620 13:01:05.445938  7135 net.cpp:157] Top shape: 2 1024 60 60 (7372800)
I0620 13:01:05.445941  7135 net.cpp:157] Top shape: 2 1024 60 60 (7372800)
I0620 13:01:05.445943  7135 net.cpp:165] Memory required for data: 6756823600
I0620 13:01:05.445946  7135 layer_factory.hpp:77] Creating layer conv5_1_1x1_reduce
I0620 13:01:05.445955  7135 net.cpp:106] Creating Layer conv5_1_1x1_reduce
I0620 13:01:05.445960  7135 net.cpp:454] conv5_1_1x1_reduce <- conv4_23_conv4_23/relu_0_split_0
I0620 13:01:05.445964  7135 net.cpp:411] conv5_1_1x1_reduce -> conv5_1_1x1_reduce
I0620 13:01:05.457794  7135 net.cpp:150] Setting up conv5_1_1x1_reduce
I0620 13:01:05.457819  7135 net.cpp:157] Top shape: 2 512 60 60 (3686400)
I0620 13:01:05.457823  7135 net.cpp:165] Memory required for data: 6771569200
I0620 13:01:05.457828  7135 layer_factory.hpp:77] Creating layer conv5_1_1x1_reduce/bn
I0620 13:01:05.457839  7135 net.cpp:106] Creating Layer conv5_1_1x1_reduce/bn
I0620 13:01:05.457845  7135 net.cpp:454] conv5_1_1x1_reduce/bn <- conv5_1_1x1_reduce
I0620 13:01:05.457852  7135 net.cpp:397] conv5_1_1x1_reduce/bn -> conv5_1_1x1_reduce (in-place)
I0620 13:01:05.458037  7135 net.cpp:150] Setting up conv5_1_1x1_reduce/bn
I0620 13:01:05.458042  7135 net.cpp:157] Top shape: 2 512 60 60 (3686400)
I0620 13:01:05.458045  7135 net.cpp:165] Memory required for data: 6786314800
I0620 13:01:05.458050  7135 layer_factory.hpp:77] Creating layer conv5_1_1x1_reduce/relu
I0620 13:01:05.458053  7135 net.cpp:106] Creating Layer conv5_1_1x1_reduce/relu
I0620 13:01:05.458056  7135 net.cpp:454] conv5_1_1x1_reduce/relu <- conv5_1_1x1_reduce
I0620 13:01:05.458058  7135 net.cpp:397] conv5_1_1x1_reduce/relu -> conv5_1_1x1_reduce (in-place)
I0620 13:01:05.458062  7135 net.cpp:150] Setting up conv5_1_1x1_reduce/relu
I0620 13:01:05.458065  7135 net.cpp:157] Top shape: 2 512 60 60 (3686400)
I0620 13:01:05.458068  7135 net.cpp:165] Memory required for data: 6801060400
I0620 13:01:05.458070  7135 layer_factory.hpp:77] Creating layer conv5_1_3x3
I0620 13:01:05.458077  7135 net.cpp:106] Creating Layer conv5_1_3x3
I0620 13:01:05.458081  7135 net.cpp:454] conv5_1_3x3 <- conv5_1_1x1_reduce
I0620 13:01:05.458084  7135 net.cpp:411] conv5_1_3x3 -> conv5_1_3x3
I0620 13:01:05.516932  7135 net.cpp:150] Setting up conv5_1_3x3
I0620 13:01:05.516960  7135 net.cpp:157] Top shape: 2 512 60 60 (3686400)
I0620 13:01:05.516964  7135 net.cpp:165] Memory required for data: 6815806000
I0620 13:01:05.516973  7135 layer_factory.hpp:77] Creating layer conv5_1_3x3/bn
I0620 13:01:05.516985  7135 net.cpp:106] Creating Layer conv5_1_3x3/bn
I0620 13:01:05.516993  7135 net.cpp:454] conv5_1_3x3/bn <- conv5_1_3x3
I0620 13:01:05.517001  7135 net.cpp:397] conv5_1_3x3/bn -> conv5_1_3x3 (in-place)
I0620 13:01:05.517190  7135 net.cpp:150] Setting up conv5_1_3x3/bn
I0620 13:01:05.517195  7135 net.cpp:157] Top shape: 2 512 60 60 (3686400)
I0620 13:01:05.517199  7135 net.cpp:165] Memory required for data: 6830551600
I0620 13:01:05.517204  7135 layer_factory.hpp:77] Creating layer conv5_1_3x3/relu
I0620 13:01:05.517212  7135 net.cpp:106] Creating Layer conv5_1_3x3/relu
I0620 13:01:05.517215  7135 net.cpp:454] conv5_1_3x3/relu <- conv5_1_3x3
I0620 13:01:05.517220  7135 net.cpp:397] conv5_1_3x3/relu -> conv5_1_3x3 (in-place)
I0620 13:01:05.517223  7135 net.cpp:150] Setting up conv5_1_3x3/relu
I0620 13:01:05.517226  7135 net.cpp:157] Top shape: 2 512 60 60 (3686400)
I0620 13:01:05.517230  7135 net.cpp:165] Memory required for data: 6845297200
I0620 13:01:05.517231  7135 layer_factory.hpp:77] Creating layer conv5_1_1x1_increase
I0620 13:01:05.517263  7135 net.cpp:106] Creating Layer conv5_1_1x1_increase
I0620 13:01:05.517266  7135 net.cpp:454] conv5_1_1x1_increase <- conv5_1_3x3
I0620 13:01:05.517272  7135 net.cpp:411] conv5_1_1x1_increase -> conv5_1_1x1_increase
I0620 13:01:05.541473  7135 net.cpp:150] Setting up conv5_1_1x1_increase
I0620 13:01:05.541515  7135 net.cpp:157] Top shape: 2 2048 60 60 (14745600)
I0620 13:01:05.541518  7135 net.cpp:165] Memory required for data: 6904279600
I0620 13:01:05.541523  7135 layer_factory.hpp:77] Creating layer conv5_1_1x1_increase/bn
I0620 13:01:05.541533  7135 net.cpp:106] Creating Layer conv5_1_1x1_increase/bn
I0620 13:01:05.541540  7135 net.cpp:454] conv5_1_1x1_increase/bn <- conv5_1_1x1_increase
I0620 13:01:05.541546  7135 net.cpp:397] conv5_1_1x1_increase/bn -> conv5_1_1x1_increase (in-place)
I0620 13:01:05.541724  7135 net.cpp:150] Setting up conv5_1_1x1_increase/bn
I0620 13:01:05.541728  7135 net.cpp:157] Top shape: 2 2048 60 60 (14745600)
I0620 13:01:05.541730  7135 net.cpp:165] Memory required for data: 6963262000
I0620 13:01:05.541735  7135 layer_factory.hpp:77] Creating layer conv5_1_1x1_proj
I0620 13:01:05.541743  7135 net.cpp:106] Creating Layer conv5_1_1x1_proj
I0620 13:01:05.541749  7135 net.cpp:454] conv5_1_1x1_proj <- conv4_23_conv4_23/relu_0_split_1
I0620 13:01:05.541760  7135 net.cpp:411] conv5_1_1x1_proj -> conv5_1_1x1_proj
I0620 13:01:05.593644  7135 net.cpp:150] Setting up conv5_1_1x1_proj
I0620 13:01:05.593673  7135 net.cpp:157] Top shape: 2 2048 60 60 (14745600)
I0620 13:01:05.593677  7135 net.cpp:165] Memory required for data: 7022244400
I0620 13:01:05.593683  7135 layer_factory.hpp:77] Creating layer conv5_1_1x1_proj/bn
I0620 13:01:05.593693  7135 net.cpp:106] Creating Layer conv5_1_1x1_proj/bn
I0620 13:01:05.593698  7135 net.cpp:454] conv5_1_1x1_proj/bn <- conv5_1_1x1_proj
I0620 13:01:05.593705  7135 net.cpp:397] conv5_1_1x1_proj/bn -> conv5_1_1x1_proj (in-place)
I0620 13:01:05.593897  7135 net.cpp:150] Setting up conv5_1_1x1_proj/bn
I0620 13:01:05.593902  7135 net.cpp:157] Top shape: 2 2048 60 60 (14745600)
I0620 13:01:05.593905  7135 net.cpp:165] Memory required for data: 7081226800
I0620 13:01:05.593911  7135 layer_factory.hpp:77] Creating layer conv5_1
I0620 13:01:05.593916  7135 net.cpp:106] Creating Layer conv5_1
I0620 13:01:05.593919  7135 net.cpp:454] conv5_1 <- conv5_1_1x1_proj
I0620 13:01:05.593922  7135 net.cpp:454] conv5_1 <- conv5_1_1x1_increase
I0620 13:01:05.593926  7135 net.cpp:411] conv5_1 -> conv5_1
I0620 13:01:05.593948  7135 net.cpp:150] Setting up conv5_1
I0620 13:01:05.593952  7135 net.cpp:157] Top shape: 2 2048 60 60 (14745600)
I0620 13:01:05.593955  7135 net.cpp:165] Memory required for data: 7140209200
I0620 13:01:05.593958  7135 layer_factory.hpp:77] Creating layer conv5_1/relu
I0620 13:01:05.593966  7135 net.cpp:106] Creating Layer conv5_1/relu
I0620 13:01:05.593968  7135 net.cpp:454] conv5_1/relu <- conv5_1
I0620 13:01:05.593974  7135 net.cpp:397] conv5_1/relu -> conv5_1 (in-place)
I0620 13:01:05.593979  7135 net.cpp:150] Setting up conv5_1/relu
I0620 13:01:05.593983  7135 net.cpp:157] Top shape: 2 2048 60 60 (14745600)
I0620 13:01:05.593986  7135 net.cpp:165] Memory required for data: 7199191600
I0620 13:01:05.593988  7135 layer_factory.hpp:77] Creating layer conv5_1_conv5_1/relu_0_split
I0620 13:01:05.593992  7135 net.cpp:106] Creating Layer conv5_1_conv5_1/relu_0_split
I0620 13:01:05.593996  7135 net.cpp:454] conv5_1_conv5_1/relu_0_split <- conv5_1
I0620 13:01:05.593998  7135 net.cpp:411] conv5_1_conv5_1/relu_0_split -> conv5_1_conv5_1/relu_0_split_0
I0620 13:01:05.594002  7135 net.cpp:411] conv5_1_conv5_1/relu_0_split -> conv5_1_conv5_1/relu_0_split_1
I0620 13:01:05.594027  7135 net.cpp:150] Setting up conv5_1_conv5_1/relu_0_split
I0620 13:01:05.594032  7135 net.cpp:157] Top shape: 2 2048 60 60 (14745600)
I0620 13:01:05.594034  7135 net.cpp:157] Top shape: 2 2048 60 60 (14745600)
I0620 13:01:05.594038  7135 net.cpp:165] Memory required for data: 7317156400
I0620 13:01:05.594040  7135 layer_factory.hpp:77] Creating layer conv5_2_1x1_reduce
I0620 13:01:05.594065  7135 net.cpp:106] Creating Layer conv5_2_1x1_reduce
I0620 13:01:05.594069  7135 net.cpp:454] conv5_2_1x1_reduce <- conv5_1_conv5_1/relu_0_split_0
I0620 13:01:05.594074  7135 net.cpp:411] conv5_2_1x1_reduce -> conv5_2_1x1_reduce
I0620 13:01:05.617121  7135 net.cpp:150] Setting up conv5_2_1x1_reduce
I0620 13:01:05.617144  7135 net.cpp:157] Top shape: 2 512 60 60 (3686400)
I0620 13:01:05.617147  7135 net.cpp:165] Memory required for data: 7331902000
I0620 13:01:05.617154  7135 layer_factory.hpp:77] Creating layer conv5_2_1x1_reduce/bn
I0620 13:01:05.617163  7135 net.cpp:106] Creating Layer conv5_2_1x1_reduce/bn
I0620 13:01:05.617169  7135 net.cpp:454] conv5_2_1x1_reduce/bn <- conv5_2_1x1_reduce
I0620 13:01:05.617174  7135 net.cpp:397] conv5_2_1x1_reduce/bn -> conv5_2_1x1_reduce (in-place)
I0620 13:01:05.617362  7135 net.cpp:150] Setting up conv5_2_1x1_reduce/bn
I0620 13:01:05.617368  7135 net.cpp:157] Top shape: 2 512 60 60 (3686400)
I0620 13:01:05.617372  7135 net.cpp:165] Memory required for data: 7346647600
I0620 13:01:05.617377  7135 layer_factory.hpp:77] Creating layer conv5_2_1x1_reduce/relu
I0620 13:01:05.617384  7135 net.cpp:106] Creating Layer conv5_2_1x1_reduce/relu
I0620 13:01:05.617388  7135 net.cpp:454] conv5_2_1x1_reduce/relu <- conv5_2_1x1_reduce
I0620 13:01:05.617390  7135 net.cpp:397] conv5_2_1x1_reduce/relu -> conv5_2_1x1_reduce (in-place)
I0620 13:01:05.617395  7135 net.cpp:150] Setting up conv5_2_1x1_reduce/relu
I0620 13:01:05.617398  7135 net.cpp:157] Top shape: 2 512 60 60 (3686400)
I0620 13:01:05.617401  7135 net.cpp:165] Memory required for data: 7361393200
I0620 13:01:05.617404  7135 layer_factory.hpp:77] Creating layer conv5_2_3x3
I0620 13:01:05.617409  7135 net.cpp:106] Creating Layer conv5_2_3x3
I0620 13:01:05.617413  7135 net.cpp:454] conv5_2_3x3 <- conv5_2_1x1_reduce
I0620 13:01:05.617418  7135 net.cpp:411] conv5_2_3x3 -> conv5_2_3x3
I0620 13:01:05.674547  7135 net.cpp:150] Setting up conv5_2_3x3
I0620 13:01:05.674576  7135 net.cpp:157] Top shape: 2 512 60 60 (3686400)
I0620 13:01:05.674578  7135 net.cpp:165] Memory required for data: 7376138800
I0620 13:01:05.674587  7135 layer_factory.hpp:77] Creating layer conv5_2_3x3/bn
I0620 13:01:05.674597  7135 net.cpp:106] Creating Layer conv5_2_3x3/bn
I0620 13:01:05.674603  7135 net.cpp:454] conv5_2_3x3/bn <- conv5_2_3x3
I0620 13:01:05.674612  7135 net.cpp:397] conv5_2_3x3/bn -> conv5_2_3x3 (in-place)
I0620 13:01:05.674799  7135 net.cpp:150] Setting up conv5_2_3x3/bn
I0620 13:01:05.674804  7135 net.cpp:157] Top shape: 2 512 60 60 (3686400)
I0620 13:01:05.674808  7135 net.cpp:165] Memory required for data: 7390884400
I0620 13:01:05.674813  7135 layer_factory.hpp:77] Creating layer conv5_2_3x3/relu
I0620 13:01:05.674818  7135 net.cpp:106] Creating Layer conv5_2_3x3/relu
I0620 13:01:05.674821  7135 net.cpp:454] conv5_2_3x3/relu <- conv5_2_3x3
I0620 13:01:05.674824  7135 net.cpp:397] conv5_2_3x3/relu -> conv5_2_3x3 (in-place)
I0620 13:01:05.674829  7135 net.cpp:150] Setting up conv5_2_3x3/relu
I0620 13:01:05.674832  7135 net.cpp:157] Top shape: 2 512 60 60 (3686400)
I0620 13:01:05.674835  7135 net.cpp:165] Memory required for data: 7405630000
I0620 13:01:05.674839  7135 layer_factory.hpp:77] Creating layer conv5_2_1x1_increase
I0620 13:01:05.674844  7135 net.cpp:106] Creating Layer conv5_2_1x1_increase
I0620 13:01:05.674847  7135 net.cpp:454] conv5_2_1x1_increase <- conv5_2_3x3
I0620 13:01:05.674852  7135 net.cpp:411] conv5_2_1x1_increase -> conv5_2_1x1_increase
I0620 13:01:05.702636  7135 net.cpp:150] Setting up conv5_2_1x1_increase
I0620 13:01:05.702661  7135 net.cpp:157] Top shape: 2 2048 60 60 (14745600)
I0620 13:01:05.702666  7135 net.cpp:165] Memory required for data: 7464612400
I0620 13:01:05.702677  7135 layer_factory.hpp:77] Creating layer conv5_2_1x1_increase/bn
I0620 13:01:05.702694  7135 net.cpp:106] Creating Layer conv5_2_1x1_increase/bn
I0620 13:01:05.702704  7135 net.cpp:454] conv5_2_1x1_increase/bn <- conv5_2_1x1_increase
I0620 13:01:05.702714  7135 net.cpp:397] conv5_2_1x1_increase/bn -> conv5_2_1x1_increase (in-place)
I0620 13:01:05.702919  7135 net.cpp:150] Setting up conv5_2_1x1_increase/bn
I0620 13:01:05.702924  7135 net.cpp:157] Top shape: 2 2048 60 60 (14745600)
I0620 13:01:05.702927  7135 net.cpp:165] Memory required for data: 7523594800
I0620 13:01:05.702991  7135 layer_factory.hpp:77] Creating layer conv5_2
I0620 13:01:05.703001  7135 net.cpp:106] Creating Layer conv5_2
I0620 13:01:05.703003  7135 net.cpp:454] conv5_2 <- conv5_1_conv5_1/relu_0_split_1
I0620 13:01:05.703007  7135 net.cpp:454] conv5_2 <- conv5_2_1x1_increase
I0620 13:01:05.703011  7135 net.cpp:411] conv5_2 -> conv5_2
I0620 13:01:05.703034  7135 net.cpp:150] Setting up conv5_2
I0620 13:01:05.703038  7135 net.cpp:157] Top shape: 2 2048 60 60 (14745600)
I0620 13:01:05.703042  7135 net.cpp:165] Memory required for data: 7582577200
I0620 13:01:05.703043  7135 layer_factory.hpp:77] Creating layer conv5_2/relu
I0620 13:01:05.703048  7135 net.cpp:106] Creating Layer conv5_2/relu
I0620 13:01:05.703052  7135 net.cpp:454] conv5_2/relu <- conv5_2
I0620 13:01:05.703055  7135 net.cpp:397] conv5_2/relu -> conv5_2 (in-place)
I0620 13:01:05.703060  7135 net.cpp:150] Setting up conv5_2/relu
I0620 13:01:05.703063  7135 net.cpp:157] Top shape: 2 2048 60 60 (14745600)
I0620 13:01:05.703066  7135 net.cpp:165] Memory required for data: 7641559600
I0620 13:01:05.703068  7135 layer_factory.hpp:77] Creating layer conv5_2_conv5_2/relu_0_split
I0620 13:01:05.703073  7135 net.cpp:106] Creating Layer conv5_2_conv5_2/relu_0_split
I0620 13:01:05.703076  7135 net.cpp:454] conv5_2_conv5_2/relu_0_split <- conv5_2
I0620 13:01:05.703079  7135 net.cpp:411] conv5_2_conv5_2/relu_0_split -> conv5_2_conv5_2/relu_0_split_0
I0620 13:01:05.703084  7135 net.cpp:411] conv5_2_conv5_2/relu_0_split -> conv5_2_conv5_2/relu_0_split_1
I0620 13:01:05.703110  7135 net.cpp:150] Setting up conv5_2_conv5_2/relu_0_split
I0620 13:01:05.703114  7135 net.cpp:157] Top shape: 2 2048 60 60 (14745600)
I0620 13:01:05.703117  7135 net.cpp:157] Top shape: 2 2048 60 60 (14745600)
I0620 13:01:05.703120  7135 net.cpp:165] Memory required for data: 7759524400
I0620 13:01:05.703122  7135 layer_factory.hpp:77] Creating layer conv5_3_1x1_reduce
I0620 13:01:05.703135  7135 net.cpp:106] Creating Layer conv5_3_1x1_reduce
I0620 13:01:05.703137  7135 net.cpp:454] conv5_3_1x1_reduce <- conv5_2_conv5_2/relu_0_split_0
I0620 13:01:05.703142  7135 net.cpp:411] conv5_3_1x1_reduce -> conv5_3_1x1_reduce
I0620 13:01:05.726635  7135 net.cpp:150] Setting up conv5_3_1x1_reduce
I0620 13:01:05.726657  7135 net.cpp:157] Top shape: 2 512 60 60 (3686400)
I0620 13:01:05.726660  7135 net.cpp:165] Memory required for data: 7774270000
I0620 13:01:05.726665  7135 layer_factory.hpp:77] Creating layer conv5_3_1x1_reduce/bn
I0620 13:01:05.726676  7135 net.cpp:106] Creating Layer conv5_3_1x1_reduce/bn
I0620 13:01:05.726685  7135 net.cpp:454] conv5_3_1x1_reduce/bn <- conv5_3_1x1_reduce
I0620 13:01:05.726691  7135 net.cpp:397] conv5_3_1x1_reduce/bn -> conv5_3_1x1_reduce (in-place)
I0620 13:01:05.726872  7135 net.cpp:150] Setting up conv5_3_1x1_reduce/bn
I0620 13:01:05.726877  7135 net.cpp:157] Top shape: 2 512 60 60 (3686400)
I0620 13:01:05.726879  7135 net.cpp:165] Memory required for data: 7789015600
I0620 13:01:05.726884  7135 layer_factory.hpp:77] Creating layer conv5_3_1x1_reduce/relu
I0620 13:01:05.726889  7135 net.cpp:106] Creating Layer conv5_3_1x1_reduce/relu
I0620 13:01:05.726891  7135 net.cpp:454] conv5_3_1x1_reduce/relu <- conv5_3_1x1_reduce
I0620 13:01:05.726896  7135 net.cpp:397] conv5_3_1x1_reduce/relu -> conv5_3_1x1_reduce (in-place)
I0620 13:01:05.726899  7135 net.cpp:150] Setting up conv5_3_1x1_reduce/relu
I0620 13:01:05.726902  7135 net.cpp:157] Top shape: 2 512 60 60 (3686400)
I0620 13:01:05.726904  7135 net.cpp:165] Memory required for data: 7803761200
I0620 13:01:05.726907  7135 layer_factory.hpp:77] Creating layer conv5_3_3x3
I0620 13:01:05.726914  7135 net.cpp:106] Creating Layer conv5_3_3x3
I0620 13:01:05.726917  7135 net.cpp:454] conv5_3_3x3 <- conv5_3_1x1_reduce
I0620 13:01:05.726920  7135 net.cpp:411] conv5_3_3x3 -> conv5_3_3x3
I0620 13:01:05.783565  7135 net.cpp:150] Setting up conv5_3_3x3
I0620 13:01:05.783593  7135 net.cpp:157] Top shape: 2 512 60 60 (3686400)
I0620 13:01:05.783601  7135 net.cpp:165] Memory required for data: 7818506800
I0620 13:01:05.783614  7135 layer_factory.hpp:77] Creating layer conv5_3_3x3/bn
I0620 13:01:05.783632  7135 net.cpp:106] Creating Layer conv5_3_3x3/bn
I0620 13:01:05.783640  7135 net.cpp:454] conv5_3_3x3/bn <- conv5_3_3x3
I0620 13:01:05.783648  7135 net.cpp:397] conv5_3_3x3/bn -> conv5_3_3x3 (in-place)
I0620 13:01:05.783856  7135 net.cpp:150] Setting up conv5_3_3x3/bn
I0620 13:01:05.783861  7135 net.cpp:157] Top shape: 2 512 60 60 (3686400)
I0620 13:01:05.783864  7135 net.cpp:165] Memory required for data: 7833252400
I0620 13:01:05.783870  7135 layer_factory.hpp:77] Creating layer conv5_3_3x3/relu
I0620 13:01:05.783875  7135 net.cpp:106] Creating Layer conv5_3_3x3/relu
I0620 13:01:05.783879  7135 net.cpp:454] conv5_3_3x3/relu <- conv5_3_3x3
I0620 13:01:05.783881  7135 net.cpp:397] conv5_3_3x3/relu -> conv5_3_3x3 (in-place)
I0620 13:01:05.783885  7135 net.cpp:150] Setting up conv5_3_3x3/relu
I0620 13:01:05.783887  7135 net.cpp:157] Top shape: 2 512 60 60 (3686400)
I0620 13:01:05.783890  7135 net.cpp:165] Memory required for data: 7847998000
I0620 13:01:05.783891  7135 layer_factory.hpp:77] Creating layer conv5_3_1x1_increase
I0620 13:01:05.783900  7135 net.cpp:106] Creating Layer conv5_3_1x1_increase
I0620 13:01:05.783902  7135 net.cpp:454] conv5_3_1x1_increase <- conv5_3_3x3
I0620 13:01:05.783906  7135 net.cpp:411] conv5_3_1x1_increase -> conv5_3_1x1_increase
I0620 13:01:05.812013  7135 net.cpp:150] Setting up conv5_3_1x1_increase
I0620 13:01:05.812034  7135 net.cpp:157] Top shape: 2 2048 60 60 (14745600)
I0620 13:01:05.812037  7135 net.cpp:165] Memory required for data: 7906980400
I0620 13:01:05.812046  7135 layer_factory.hpp:77] Creating layer conv5_3_1x1_increase/bn
I0620 13:01:05.812055  7135 net.cpp:106] Creating Layer conv5_3_1x1_increase/bn
I0620 13:01:05.812060  7135 net.cpp:454] conv5_3_1x1_increase/bn <- conv5_3_1x1_increase
I0620 13:01:05.812065  7135 net.cpp:397] conv5_3_1x1_increase/bn -> conv5_3_1x1_increase (in-place)
I0620 13:01:05.812243  7135 net.cpp:150] Setting up conv5_3_1x1_increase/bn
I0620 13:01:05.812248  7135 net.cpp:157] Top shape: 2 2048 60 60 (14745600)
I0620 13:01:05.812250  7135 net.cpp:165] Memory required for data: 7965962800
I0620 13:01:05.812256  7135 layer_factory.hpp:77] Creating layer conv5_3
I0620 13:01:05.812264  7135 net.cpp:106] Creating Layer conv5_3
I0620 13:01:05.812268  7135 net.cpp:454] conv5_3 <- conv5_2_conv5_2/relu_0_split_1
I0620 13:01:05.812271  7135 net.cpp:454] conv5_3 <- conv5_3_1x1_increase
I0620 13:01:05.812275  7135 net.cpp:411] conv5_3 -> conv5_3
I0620 13:01:05.812296  7135 net.cpp:150] Setting up conv5_3
I0620 13:01:05.812300  7135 net.cpp:157] Top shape: 2 2048 60 60 (14745600)
I0620 13:01:05.812304  7135 net.cpp:165] Memory required for data: 8024945200
I0620 13:01:05.812306  7135 layer_factory.hpp:77] Creating layer conv5_3/relu
I0620 13:01:05.812310  7135 net.cpp:106] Creating Layer conv5_3/relu
I0620 13:01:05.812314  7135 net.cpp:454] conv5_3/relu <- conv5_3
I0620 13:01:05.812317  7135 net.cpp:397] conv5_3/relu -> conv5_3 (in-place)
I0620 13:01:05.812321  7135 net.cpp:150] Setting up conv5_3/relu
I0620 13:01:05.812325  7135 net.cpp:157] Top shape: 2 2048 60 60 (14745600)
I0620 13:01:05.812327  7135 net.cpp:165] Memory required for data: 8083927600
I0620 13:01:05.812330  7135 layer_factory.hpp:77] Creating layer conv5_3_conv5_3/relu_0_split
I0620 13:01:05.812335  7135 net.cpp:106] Creating Layer conv5_3_conv5_3/relu_0_split
I0620 13:01:05.812337  7135 net.cpp:454] conv5_3_conv5_3/relu_0_split <- conv5_3
I0620 13:01:05.812341  7135 net.cpp:411] conv5_3_conv5_3/relu_0_split -> conv5_3_conv5_3/relu_0_split_0
I0620 13:01:05.812345  7135 net.cpp:411] conv5_3_conv5_3/relu_0_split -> conv5_3_conv5_3/relu_0_split_1
I0620 13:01:05.812351  7135 net.cpp:411] conv5_3_conv5_3/relu_0_split -> conv5_3_conv5_3/relu_0_split_2
I0620 13:01:05.812356  7135 net.cpp:411] conv5_3_conv5_3/relu_0_split -> conv5_3_conv5_3/relu_0_split_3
I0620 13:01:05.812376  7135 net.cpp:411] conv5_3_conv5_3/relu_0_split -> conv5_3_conv5_3/relu_0_split_4
I0620 13:01:05.812428  7135 net.cpp:150] Setting up conv5_3_conv5_3/relu_0_split
I0620 13:01:05.812433  7135 net.cpp:157] Top shape: 2 2048 60 60 (14745600)
I0620 13:01:05.812435  7135 net.cpp:157] Top shape: 2 2048 60 60 (14745600)
I0620 13:01:05.812438  7135 net.cpp:157] Top shape: 2 2048 60 60 (14745600)
I0620 13:01:05.812441  7135 net.cpp:157] Top shape: 2 2048 60 60 (14745600)
I0620 13:01:05.812444  7135 net.cpp:157] Top shape: 2 2048 60 60 (14745600)
I0620 13:01:05.812448  7135 net.cpp:165] Memory required for data: 8378839600
I0620 13:01:05.812450  7135 layer_factory.hpp:77] Creating layer conv5_3_pool1
I0620 13:01:05.812454  7135 net.cpp:106] Creating Layer conv5_3_pool1
I0620 13:01:05.812458  7135 net.cpp:454] conv5_3_pool1 <- conv5_3_conv5_3/relu_0_split_0
I0620 13:01:05.812461  7135 net.cpp:411] conv5_3_pool1 -> conv5_3_pool1
I0620 13:01:05.812479  7135 net.cpp:150] Setting up conv5_3_pool1
I0620 13:01:05.812482  7135 net.cpp:157] Top shape: 2 2048 1 1 (4096)
I0620 13:01:05.812485  7135 net.cpp:165] Memory required for data: 8378855984
I0620 13:01:05.812487  7135 layer_factory.hpp:77] Creating layer conv5_3_pool1_conv
I0620 13:01:05.812496  7135 net.cpp:106] Creating Layer conv5_3_pool1_conv
I0620 13:01:05.812500  7135 net.cpp:454] conv5_3_pool1_conv <- conv5_3_pool1
I0620 13:01:05.812503  7135 net.cpp:411] conv5_3_pool1_conv -> conv5_3_pool1_conv
I0620 13:01:05.835624  7135 net.cpp:150] Setting up conv5_3_pool1_conv
I0620 13:01:05.835645  7135 net.cpp:157] Top shape: 2 512 1 1 (1024)
I0620 13:01:05.835647  7135 net.cpp:165] Memory required for data: 8378860080
I0620 13:01:05.835654  7135 layer_factory.hpp:77] Creating layer conv5_3_pool1_conv/bn
I0620 13:01:05.835661  7135 net.cpp:106] Creating Layer conv5_3_pool1_conv/bn
I0620 13:01:05.835666  7135 net.cpp:454] conv5_3_pool1_conv/bn <- conv5_3_pool1_conv
I0620 13:01:05.835671  7135 net.cpp:397] conv5_3_pool1_conv/bn -> conv5_3_pool1_conv (in-place)
I0620 13:01:05.835835  7135 net.cpp:150] Setting up conv5_3_pool1_conv/bn
I0620 13:01:05.835840  7135 net.cpp:157] Top shape: 2 512 1 1 (1024)
I0620 13:01:05.835842  7135 net.cpp:165] Memory required for data: 8378864176
I0620 13:01:05.835847  7135 layer_factory.hpp:77] Creating layer conv5_3_pool1_conv/relu
I0620 13:01:05.835851  7135 net.cpp:106] Creating Layer conv5_3_pool1_conv/relu
I0620 13:01:05.835853  7135 net.cpp:454] conv5_3_pool1_conv/relu <- conv5_3_pool1_conv
I0620 13:01:05.835856  7135 net.cpp:397] conv5_3_pool1_conv/relu -> conv5_3_pool1_conv (in-place)
I0620 13:01:05.835860  7135 net.cpp:150] Setting up conv5_3_pool1_conv/relu
I0620 13:01:05.835862  7135 net.cpp:157] Top shape: 2 512 1 1 (1024)
I0620 13:01:05.835865  7135 net.cpp:165] Memory required for data: 8378868272
I0620 13:01:05.835866  7135 layer_factory.hpp:77] Creating layer conv5_3_pool1_interp
I0620 13:01:05.835872  7135 net.cpp:106] Creating Layer conv5_3_pool1_interp
I0620 13:01:05.835875  7135 net.cpp:454] conv5_3_pool1_interp <- conv5_3_pool1_conv
I0620 13:01:05.835878  7135 net.cpp:411] conv5_3_pool1_interp -> conv5_3_pool1_interp
I0620 13:01:05.835903  7135 net.cpp:150] Setting up conv5_3_pool1_interp
I0620 13:01:05.835906  7135 net.cpp:157] Top shape: 2 512 60 60 (3686400)
I0620 13:01:05.835908  7135 net.cpp:165] Memory required for data: 8393613872
I0620 13:01:05.835912  7135 layer_factory.hpp:77] Creating layer conv5_3_pool2
I0620 13:01:05.835916  7135 net.cpp:106] Creating Layer conv5_3_pool2
I0620 13:01:05.835919  7135 net.cpp:454] conv5_3_pool2 <- conv5_3_conv5_3/relu_0_split_1
I0620 13:01:05.835923  7135 net.cpp:411] conv5_3_pool2 -> conv5_3_pool2
I0620 13:01:05.835942  7135 net.cpp:150] Setting up conv5_3_pool2
I0620 13:01:05.835944  7135 net.cpp:157] Top shape: 2 2048 2 2 (16384)
I0620 13:01:05.835947  7135 net.cpp:165] Memory required for data: 8393679408
I0620 13:01:05.835948  7135 layer_factory.hpp:77] Creating layer conv5_3_pool2_conv
I0620 13:01:05.835971  7135 net.cpp:106] Creating Layer conv5_3_pool2_conv
I0620 13:01:05.835975  7135 net.cpp:454] conv5_3_pool2_conv <- conv5_3_pool2
I0620 13:01:05.835979  7135 net.cpp:411] conv5_3_pool2_conv -> conv5_3_pool2_conv
I0620 13:01:05.864775  7135 net.cpp:150] Setting up conv5_3_pool2_conv
I0620 13:01:05.864814  7135 net.cpp:157] Top shape: 2 512 2 2 (4096)
I0620 13:01:05.864817  7135 net.cpp:165] Memory required for data: 8393695792
I0620 13:01:05.864825  7135 layer_factory.hpp:77] Creating layer conv5_3_pool2_conv/bn
I0620 13:01:05.864840  7135 net.cpp:106] Creating Layer conv5_3_pool2_conv/bn
I0620 13:01:05.864845  7135 net.cpp:454] conv5_3_pool2_conv/bn <- conv5_3_pool2_conv
I0620 13:01:05.864851  7135 net.cpp:397] conv5_3_pool2_conv/bn -> conv5_3_pool2_conv (in-place)
I0620 13:01:05.865026  7135 net.cpp:150] Setting up conv5_3_pool2_conv/bn
I0620 13:01:05.865031  7135 net.cpp:157] Top shape: 2 512 2 2 (4096)
I0620 13:01:05.865034  7135 net.cpp:165] Memory required for data: 8393712176
I0620 13:01:05.865041  7135 layer_factory.hpp:77] Creating layer conv5_3_pool2_conv/relu
I0620 13:01:05.865046  7135 net.cpp:106] Creating Layer conv5_3_pool2_conv/relu
I0620 13:01:05.865048  7135 net.cpp:454] conv5_3_pool2_conv/relu <- conv5_3_pool2_conv
I0620 13:01:05.865052  7135 net.cpp:397] conv5_3_pool2_conv/relu -> conv5_3_pool2_conv (in-place)
I0620 13:01:05.865057  7135 net.cpp:150] Setting up conv5_3_pool2_conv/relu
I0620 13:01:05.865061  7135 net.cpp:157] Top shape: 2 512 2 2 (4096)
I0620 13:01:05.865063  7135 net.cpp:165] Memory required for data: 8393728560
I0620 13:01:05.865065  7135 layer_factory.hpp:77] Creating layer conv5_3_pool2_interp
I0620 13:01:05.865073  7135 net.cpp:106] Creating Layer conv5_3_pool2_interp
I0620 13:01:05.865075  7135 net.cpp:454] conv5_3_pool2_interp <- conv5_3_pool2_conv
I0620 13:01:05.865079  7135 net.cpp:411] conv5_3_pool2_interp -> conv5_3_pool2_interp
I0620 13:01:05.865101  7135 net.cpp:150] Setting up conv5_3_pool2_interp
I0620 13:01:05.865105  7135 net.cpp:157] Top shape: 2 512 60 60 (3686400)
I0620 13:01:05.865108  7135 net.cpp:165] Memory required for data: 8408474160
I0620 13:01:05.865110  7135 layer_factory.hpp:77] Creating layer conv5_3_pool3
I0620 13:01:05.865114  7135 net.cpp:106] Creating Layer conv5_3_pool3
I0620 13:01:05.865118  7135 net.cpp:454] conv5_3_pool3 <- conv5_3_conv5_3/relu_0_split_2
I0620 13:01:05.865123  7135 net.cpp:411] conv5_3_pool3 -> conv5_3_pool3
I0620 13:01:05.865139  7135 net.cpp:150] Setting up conv5_3_pool3
I0620 13:01:05.865142  7135 net.cpp:157] Top shape: 2 2048 3 3 (36864)
I0620 13:01:05.865144  7135 net.cpp:165] Memory required for data: 8408621616
I0620 13:01:05.865147  7135 layer_factory.hpp:77] Creating layer conv5_3_pool3_conv
I0620 13:01:05.865155  7135 net.cpp:106] Creating Layer conv5_3_pool3_conv
I0620 13:01:05.865159  7135 net.cpp:454] conv5_3_pool3_conv <- conv5_3_pool3
I0620 13:01:05.865162  7135 net.cpp:411] conv5_3_pool3_conv -> conv5_3_pool3_conv
I0620 13:01:05.888591  7135 net.cpp:150] Setting up conv5_3_pool3_conv
I0620 13:01:05.888615  7135 net.cpp:157] Top shape: 2 512 3 3 (9216)
I0620 13:01:05.888618  7135 net.cpp:165] Memory required for data: 8408658480
I0620 13:01:05.888624  7135 layer_factory.hpp:77] Creating layer conv5_3_pool3_conv/bn
I0620 13:01:05.888634  7135 net.cpp:106] Creating Layer conv5_3_pool3_conv/bn
I0620 13:01:05.888639  7135 net.cpp:454] conv5_3_pool3_conv/bn <- conv5_3_pool3_conv
I0620 13:01:05.888645  7135 net.cpp:397] conv5_3_pool3_conv/bn -> conv5_3_pool3_conv (in-place)
I0620 13:01:05.888824  7135 net.cpp:150] Setting up conv5_3_pool3_conv/bn
I0620 13:01:05.888829  7135 net.cpp:157] Top shape: 2 512 3 3 (9216)
I0620 13:01:05.888831  7135 net.cpp:165] Memory required for data: 8408695344
I0620 13:01:05.888836  7135 layer_factory.hpp:77] Creating layer conv5_3_pool3_conv/relu
I0620 13:01:05.888840  7135 net.cpp:106] Creating Layer conv5_3_pool3_conv/relu
I0620 13:01:05.888842  7135 net.cpp:454] conv5_3_pool3_conv/relu <- conv5_3_pool3_conv
I0620 13:01:05.888845  7135 net.cpp:397] conv5_3_pool3_conv/relu -> conv5_3_pool3_conv (in-place)
I0620 13:01:05.888870  7135 net.cpp:150] Setting up conv5_3_pool3_conv/relu
I0620 13:01:05.888872  7135 net.cpp:157] Top shape: 2 512 3 3 (9216)
I0620 13:01:05.888875  7135 net.cpp:165] Memory required for data: 8408732208
I0620 13:01:05.888878  7135 layer_factory.hpp:77] Creating layer conv5_3_pool3_interp
I0620 13:01:05.888883  7135 net.cpp:106] Creating Layer conv5_3_pool3_interp
I0620 13:01:05.888886  7135 net.cpp:454] conv5_3_pool3_interp <- conv5_3_pool3_conv
I0620 13:01:05.888890  7135 net.cpp:411] conv5_3_pool3_interp -> conv5_3_pool3_interp
I0620 13:01:05.888913  7135 net.cpp:150] Setting up conv5_3_pool3_interp
I0620 13:01:05.888917  7135 net.cpp:157] Top shape: 2 512 60 60 (3686400)
I0620 13:01:05.888919  7135 net.cpp:165] Memory required for data: 8423477808
I0620 13:01:05.888921  7135 layer_factory.hpp:77] Creating layer conv5_3_pool6
I0620 13:01:05.888924  7135 net.cpp:106] Creating Layer conv5_3_pool6
I0620 13:01:05.888927  7135 net.cpp:454] conv5_3_pool6 <- conv5_3_conv5_3/relu_0_split_3
I0620 13:01:05.888931  7135 net.cpp:411] conv5_3_pool6 -> conv5_3_pool6
I0620 13:01:05.888947  7135 net.cpp:150] Setting up conv5_3_pool6
I0620 13:01:05.888952  7135 net.cpp:157] Top shape: 2 2048 6 6 (147456)
I0620 13:01:05.888954  7135 net.cpp:165] Memory required for data: 8424067632
I0620 13:01:05.888957  7135 layer_factory.hpp:77] Creating layer conv5_3_pool6_conv
I0620 13:01:05.888962  7135 net.cpp:106] Creating Layer conv5_3_pool6_conv
I0620 13:01:05.888963  7135 net.cpp:454] conv5_3_pool6_conv <- conv5_3_pool6
I0620 13:01:05.888967  7135 net.cpp:411] conv5_3_pool6_conv -> conv5_3_pool6_conv
I0620 13:01:05.917330  7135 net.cpp:150] Setting up conv5_3_pool6_conv
I0620 13:01:05.917352  7135 net.cpp:157] Top shape: 2 512 6 6 (36864)
I0620 13:01:05.917356  7135 net.cpp:165] Memory required for data: 8424215088
I0620 13:01:05.917363  7135 layer_factory.hpp:77] Creating layer conv5_3_pool6_conv/bn
I0620 13:01:05.917373  7135 net.cpp:106] Creating Layer conv5_3_pool6_conv/bn
I0620 13:01:05.917379  7135 net.cpp:454] conv5_3_pool6_conv/bn <- conv5_3_pool6_conv
I0620 13:01:05.917387  7135 net.cpp:397] conv5_3_pool6_conv/bn -> conv5_3_pool6_conv (in-place)
I0620 13:01:05.917577  7135 net.cpp:150] Setting up conv5_3_pool6_conv/bn
I0620 13:01:05.917582  7135 net.cpp:157] Top shape: 2 512 6 6 (36864)
I0620 13:01:05.917584  7135 net.cpp:165] Memory required for data: 8424362544
I0620 13:01:05.917590  7135 layer_factory.hpp:77] Creating layer conv5_3_pool6_conv/relu
I0620 13:01:05.917596  7135 net.cpp:106] Creating Layer conv5_3_pool6_conv/relu
I0620 13:01:05.917599  7135 net.cpp:454] conv5_3_pool6_conv/relu <- conv5_3_pool6_conv
I0620 13:01:05.917603  7135 net.cpp:397] conv5_3_pool6_conv/relu -> conv5_3_pool6_conv (in-place)
I0620 13:01:05.917608  7135 net.cpp:150] Setting up conv5_3_pool6_conv/relu
I0620 13:01:05.917610  7135 net.cpp:157] Top shape: 2 512 6 6 (36864)
I0620 13:01:05.917613  7135 net.cpp:165] Memory required for data: 8424510000
I0620 13:01:05.917615  7135 layer_factory.hpp:77] Creating layer conv5_3_pool6_interp
I0620 13:01:05.917620  7135 net.cpp:106] Creating Layer conv5_3_pool6_interp
I0620 13:01:05.917623  7135 net.cpp:454] conv5_3_pool6_interp <- conv5_3_pool6_conv
I0620 13:01:05.917626  7135 net.cpp:411] conv5_3_pool6_interp -> conv5_3_pool6_interp
I0620 13:01:05.917647  7135 net.cpp:150] Setting up conv5_3_pool6_interp
I0620 13:01:05.917651  7135 net.cpp:157] Top shape: 2 512 60 60 (3686400)
I0620 13:01:05.917654  7135 net.cpp:165] Memory required for data: 8439255600
I0620 13:01:05.917656  7135 layer_factory.hpp:77] Creating layer conv5_3_concat
I0620 13:01:05.917662  7135 net.cpp:106] Creating Layer conv5_3_concat
I0620 13:01:05.917665  7135 net.cpp:454] conv5_3_concat <- conv5_3_conv5_3/relu_0_split_4
I0620 13:01:05.917670  7135 net.cpp:454] conv5_3_concat <- conv5_3_pool6_interp
I0620 13:01:05.917673  7135 net.cpp:454] conv5_3_concat <- conv5_3_pool3_interp
I0620 13:01:05.917678  7135 net.cpp:454] conv5_3_concat <- conv5_3_pool2_interp
I0620 13:01:05.917685  7135 net.cpp:454] conv5_3_concat <- conv5_3_pool1_interp
I0620 13:01:05.917713  7135 net.cpp:411] conv5_3_concat -> conv5_3_concat
I0620 13:01:05.917732  7135 net.cpp:150] Setting up conv5_3_concat
I0620 13:01:05.917737  7135 net.cpp:157] Top shape: 2 4096 60 60 (29491200)
I0620 13:01:05.917739  7135 net.cpp:165] Memory required for data: 8557220400
I0620 13:01:05.917742  7135 layer_factory.hpp:77] Creating layer conv5_4
I0620 13:01:05.917762  7135 net.cpp:106] Creating Layer conv5_4
I0620 13:01:05.917765  7135 net.cpp:454] conv5_4 <- conv5_3_concat
I0620 13:01:05.917770  7135 net.cpp:411] conv5_4 -> conv5_4
I0620 13:01:06.369920  7135 net.cpp:150] Setting up conv5_4
I0620 13:01:06.369946  7135 net.cpp:157] Top shape: 2 512 60 60 (3686400)
I0620 13:01:06.369949  7135 net.cpp:165] Memory required for data: 8571966000
I0620 13:01:06.369961  7135 layer_factory.hpp:77] Creating layer conv5_4/bn
I0620 13:01:06.369973  7135 net.cpp:106] Creating Layer conv5_4/bn
I0620 13:01:06.369979  7135 net.cpp:454] conv5_4/bn <- conv5_4
I0620 13:01:06.369985  7135 net.cpp:397] conv5_4/bn -> conv5_4 (in-place)
I0620 13:01:06.370182  7135 net.cpp:150] Setting up conv5_4/bn
I0620 13:01:06.370188  7135 net.cpp:157] Top shape: 2 512 60 60 (3686400)
I0620 13:01:06.370193  7135 net.cpp:165] Memory required for data: 8586711600
I0620 13:01:06.370200  7135 layer_factory.hpp:77] Creating layer conv5_4/relu
I0620 13:01:06.370208  7135 net.cpp:106] Creating Layer conv5_4/relu
I0620 13:01:06.370213  7135 net.cpp:454] conv5_4/relu <- conv5_4
I0620 13:01:06.370218  7135 net.cpp:397] conv5_4/relu -> conv5_4 (in-place)
I0620 13:01:06.370223  7135 net.cpp:150] Setting up conv5_4/relu
I0620 13:01:06.370226  7135 net.cpp:157] Top shape: 2 512 60 60 (3686400)
I0620 13:01:06.370230  7135 net.cpp:165] Memory required for data: 8601457200
I0620 13:01:06.370234  7135 layer_factory.hpp:77] Creating layer conv5_4/dropout
I0620 13:01:06.370256  7135 net.cpp:106] Creating Layer conv5_4/dropout
I0620 13:01:06.370260  7135 net.cpp:454] conv5_4/dropout <- conv5_4
I0620 13:01:06.370265  7135 net.cpp:397] conv5_4/dropout -> conv5_4 (in-place)
I0620 13:01:06.370306  7135 net.cpp:150] Setting up conv5_4/dropout
I0620 13:01:06.370313  7135 net.cpp:157] Top shape: 2 512 60 60 (3686400)
I0620 13:01:06.370316  7135 net.cpp:165] Memory required for data: 8616202800
I0620 13:01:06.370319  7135 layer_factory.hpp:77] Creating layer conv6
I0620 13:01:06.370335  7135 net.cpp:106] Creating Layer conv6
I0620 13:01:06.370339  7135 net.cpp:454] conv6 <- conv5_4
I0620 13:01:06.370347  7135 net.cpp:411] conv6 -> conv6
I0620 13:01:06.371003  7135 net.cpp:150] Setting up conv6
I0620 13:01:06.371016  7135 net.cpp:157] Top shape: 2 21 60 60 (151200)
I0620 13:01:06.371021  7135 net.cpp:165] Memory required for data: 8616807600
I0620 13:01:06.371028  7135 layer_factory.hpp:77] Creating layer conv6_interp
I0620 13:01:06.371035  7135 net.cpp:106] Creating Layer conv6_interp
I0620 13:01:06.371039  7135 net.cpp:454] conv6_interp <- conv6
I0620 13:01:06.371044  7135 net.cpp:411] conv6_interp -> conv6_interp
I0620 13:01:06.371068  7135 net.cpp:150] Setting up conv6_interp
I0620 13:01:06.371071  7135 net.cpp:157] Top shape: 2 21 473 473 (9396618)
I0620 13:01:06.371075  7135 net.cpp:165] Memory required for data: 8654394072
I0620 13:01:06.371078  7135 net.cpp:228] conv6_interp does not need backward computation.
I0620 13:01:06.371081  7135 net.cpp:228] conv6 does not need backward computation.
I0620 13:01:06.371085  7135 net.cpp:228] conv5_4/dropout does not need backward computation.
I0620 13:01:06.371088  7135 net.cpp:228] conv5_4/relu does not need backward computation.
…
