…
I0622 01:36:30.088181  4748 solver.cpp:81] Creating training net from train_net file: exper/voc12/config/pspnet_resnet101/train_train_aug.prototxt
I0622 01:36:30.095149  4748 net.cpp:49] Initializing net from parameters: 
name: "pspnet_resnet101"
state {
  phase: TRAIN
}
layer {
  name: "data"
  type: "ImageSegData"
  top: "data"
  top: "label"
  include {
    phase: TRAIN
  }
  transform_param {
    mirror: true
    crop_size: 473
    mean_value: 104.008
    mean_value: 116.669
    mean_value: 122.675
  }
  image_data_param {
    source: "exper/voc12/list/train_aug.txt"
    batch_size: 2
    shuffle: true
    root_folder: "exper/voc12/data"
    label_type: PIXEL
  }
}
layer {
  name: "conv1_1_3x3_s2"
  type: "Convolution"
  bottom: "data"
  top: "conv1_1_3x3_s2"
  param {
    lr_mult: 1
    decay_mult: 1
  }
  convolution_param {
    num_output: 64
    bias_term: false
    pad: 1
    kernel_size: 3
    stride: 2
    weight_filler {
      type: "msra"
    }
  }
}
layer {
  name: "conv1_1_3x3_s2/bn"
  type: "BN"
  bottom: "conv1_1_3x3_s2"
  top: "conv1_1_3x3_s2"
  param {
    lr_mult: 1
    decay_mult: 0
  }
  param {
    lr_mult: 1
    decay_mult: 0
  }
  param {
    lr_mult: 0
    decay_mult: 0
  }
  param {
    lr_mult: 0
    decay_mult: 0
  }
  bn_param {
    slope_filler {
      type: "constant"
      value: 1
    }
    bias_filler {
      type: "constant"
      value: 0
    }
    momentum: 0.95
    frozen: false
  }
}
layer {
  name: "conv1_1_3x3_s2/relu"
  type: "ReLU"
  bottom: "conv1_1_3x3_s2"
  top: "conv1_1_3x3_s2"
}
layer {
  name: "conv1_2_3x3"
  type: "Convolution"
  bottom: "conv1_1_3x3_s2"
  top: "conv1_2_3x3"
  param {
    lr_mult: 1
    decay_mult: 1
  }
  convolution_param {
    num_output: 64
    bias_term: false
    pad: 1
    kernel_size: 3
    stride: 1
    weight_filler {
      type: "msra"
    }
  }
}
layer {
  name: "conv1_2_3x3/bn"
  type: "BN"
  bottom: "conv1_2_3x3"
  top: "conv1_2_3x3"
  param {
    lr_mult: 1
    decay_mult: 0
  }
  param {
    lr_mult: 1
    decay_mult: 0
  }
  param {
    lr_mult: 0
    decay_mult: 0
  }
  param {
    lr_mult: 0
    decay_mult: 0
  }
  bn_param {
    slope_filler {
      type: "constant"
      value: 1
    }
    bias_filler {
      type: "constant"
      value: 0
    }
    momentum: 0.95
    frozen: true
  }
}
layer {
  name: "conv1_2_3x3/relu"
  type: "ReLU"
  bottom: "conv1_2_3x3"
  top: "conv1_2_3x3"
}
layer {
  name: "conv1_3_3x3"
  type: "Convolution"
  bottom: "conv1_2_3x3"
  top: "conv1_3_3x3"
  param {
    lr_mult: 1
    decay_mult: 1
  }
  convolution_param {
    num_output: 128
    bias_term: false
    pad: 1
    kernel_size: 3
    stride: 1
    weight_filler {
      type: "msra"
    }
  }
}
layer {
  name: "conv1_3_3x3/bn"
  type: "BN"
  bottom: "conv1_3_3x3"
  top: "conv1_3_3x3"
  param {
    lr_mult: 1
    decay_mult: 0
  }
  param {
    lr_mult: 1
    decay_mult: 0
  }
  param {
    lr_mult: 0
    decay_mult: 0
  }
  param {
    lr_mult: 0
    decay_mult: 0
  }
  bn_param {
    slope_filler {
      type: "constant"
      value: 1
    }
    bias_filler {
      type: "constant"
      value: 0
    }
    momentum: 0.95
    frozen: true
  }
}
layer {
  name: "conv1_3_3x3/relu"
  type: "ReLU"
  bottom: "conv1_3_3x3"
  top: "conv1_3_3x3"
}
layer {
  name: "pool1_3x3_s2"
  type: "Pooling"
  bottom: "conv1_3_3x3"
  top: "pool1_3x3_s2"
  pooling_param {
    pool: MAX
    kernel_size: 3
    stride: 2
    pad: 1
  }
}
layer {
  name: "conv2_1_1x1_reduce"
  type: "Convolution"
  bottom: "pool1_3x3_s2"
  top: "conv2_1_1x1_reduce"
  param {
    lr_mult: 1
    decay_mult: 1
  }
  convolution_param {
    num_output: 64
    bias_term: false
    pad: 0
    kernel_size: 1
    stride: 1
    weight_filler {
      type: "msra"
    }
  }
}
layer {
  name: "conv2_1_1x1_reduce/bn"
  type: "BN"
  bottom: "conv2_1_1x1_reduce"
  top: "conv2_1_1x1_reduce"
  param {
    lr_mult: 1
    decay_mult: 0
  }
  param {
    lr_mult: 1
    decay_mult: 0
  }
  param {
    lr_mult: 0
    decay_mult: 0
  }
  param {
    lr_mult: 0
    decay_mult: 0
  }
  bn_param {
    slope_filler {
      type: "constant"
      value: 1
    }
    bias_filler {
      type: "constant"
      value: 0
    }
    momentum: 0.95
    frozen: true
  }
}
layer {
  name: "conv2_1_1x1_reduce/relu"
  type: "ReLU"
  bottom: "conv2_1_1x1_reduce"
  top: "conv2_1_1x1_reduce"
}
layer {
  name: "conv2_1_3x3"
  type: "Convolution"
  bottom: "conv2_1_1x1_reduce"
  top: "conv2_1_3x3"
  param {
    lr_mult: 1
    decay_mult: 1
  }
  convolution_param {
    num_output: 64
    bias_term: false
    pad: 1
    kernel_size: 3
    stride: 1
    weight_filler {
      type: "msra"
    }
  }
}
layer {
  name: "conv2_1_3x3/bn"
  type: "BN"
  bottom: "conv2_1_3x3"
  top: "conv2_1_3x3"
  param {
    lr_mult: 1
    decay_mult: 0
  }
  param {
    lr_mult: 1
    decay_mult: 0
  }
  param {
    lr_mult: 0
    decay_mult: 0
  }
  param {
    lr_mult: 0
    decay_mult: 0
  }
  bn_param {
    slope_filler {
      type: "constant"
      value: 1
    }
    bias_filler {
      type: "constant"
      value: 0
    }
    momentum: 0.95
    frozen: true
  }
}
layer {
  name: "conv2_1_3x3/relu"
  type: "ReLU"
  bottom: "conv2_1_3x3"
  top: "conv2_1_3x3"
}
layer {
  name: "conv2_1_1x1_increase"
  type: "Convolution"
  bottom: "conv2_1_3x3"
  top: "conv2_1_1x1_increase"
  param {
    lr_mult: 1
    decay_mult: 1
  }
  convolution_param {
    num_output: 256
    bias_term: false
    pad: 0
    kernel_size: 1
    stride: 1
    weight_filler {
      type: "msra"
    }
  }
}
layer {
  name: "conv2_1_1x1_increase/bn"
  type: "BN"
  bottom: "conv2_1_1x1_increase"
  top: "conv2_1_1x1_increase"
  param {
    lr_mult: 1
    decay_mult: 0
  }
  param {
    lr_mult: 1
    decay_mult: 0
  }
  param {
    lr_mult: 0
    decay_mult: 0
  }
  param {
    lr_mult: 0
    decay_mult: 0
  }
  bn_param {
    slope_filler {
      type: "constant"
      value: 1
    }
    bias_filler {
      type: "constant"
      value: 0
    }
    momentum: 0.95
    frozen: true
  }
}
layer {
  name: "conv2_1_1x1_proj"
  type: "Convolution"
  bottom: "pool1_3x3_s2"
  top: "conv2_1_1x1_proj"
  param {
    lr_mult: 1
    decay_mult: 1
  }
  convolution_param {
    num_output: 256
    bias_term: false
    pad: 0
    kernel_size: 1
    stride: 1
    weight_filler {
      type: "msra"
    }
  }
}
layer {
  name: "conv2_1_1x1_proj/bn"
  type: "BN"
  bottom: "conv2_1_1x1_proj"
  top: "conv2_1_1x1_proj"
  param {
    lr_mult: 1
    decay_mult: 0
  }
  param {
    lr_mult: 1
    decay_mult: 0
  }
  param {
    lr_mult: 0
    decay_mult: 0
  }
  param {
    lr_mult: 0
    decay_mult: 0
  }
  bn_param {
    slope_filler {
      type: "constant"
      value: 1
    }
    bias_filler {
      type: "constant"
      value: 0
    }
    momentum: 0.95
    frozen: true
  }
}
layer {
  name: "conv2_1"
  type: "Eltwise"
  bottom: "conv2_1_1x1_proj"
  bottom: "conv2_1_1x1_increase"
  top: "conv2_1"
  eltwise_param {
    operation: SUM
  }
}
layer {
  name: "conv2_1/relu"
  type: "ReLU"
  bottom: "conv2_1"
  top: "conv2_1"
}
layer {
  name: "conv2_2_1x1_reduce"
  type: "Convolution"
  bottom: "conv2_1"
  top: "conv2_2_1x1_reduce"
  param {
    lr_mult: 1
    decay_mult: 1
  }
  convolution_param {
    num_output: 64
    bias_term: false
    pad: 0
    kernel_size: 1
    stride: 1
    weight_filler {
      type: "msra"
    }
  }
}
layer {
  name: "conv2_2_1x1_reduce/bn"
  type: "BN"
  bottom: "conv2_2_1x1_reduce"
  top: "conv2_2_1x1_reduce"
  param {
    lr_mult: 1
    decay_mult: 0
  }
  param {
    lr_mult: 1
    decay_mult: 0
  }
  param {
    lr_mult: 0
    decay_mult: 0
  }
  param {
    lr_mult: 0
    decay_mult: 0
  }
  bn_param {
    slope_filler {
      type: "constant"
      value: 1
    }
    bias_filler {
      type: "constant"
      value: 0
    }
    momentum: 0.95
    frozen: true
  }
}
layer {
  name: "conv2_2_1x1_reduce/relu"
  type: "ReLU"
  bottom: "conv2_2_1x1_reduce"
  top: "conv2_2_1x1_reduce"
}
layer {
  name: "conv2_2_3x3"
  type: "Convolution"
  bottom: "conv2_2_1x1_reduce"
  top: "conv2_2_3x3"
  param {
    lr_mult: 1
    decay_mult: 1
  }
  convolution_param {
    num_output: 64
    bias_term: false
    pad: 1
    kernel_size: 3
    stride: 1
    weight_filler {
      type: "msra"
    }
  }
}
layer {
  name: "conv2_2_3x3/bn"
  type: "BN"
  bottom: "conv2_2_3x3"
  top: "conv2_2_3x3"
  param {
    lr_mult: 1
    decay_mult: 0
  }
  param {
    lr_mult: 1
    decay_mult: 0
  }
  param {
    lr_mult: 0
    decay_mult: 0
  }
  param {
    lr_mult: 0
    decay_mult: 0
  }
  bn_param {
    slope_filler {
      type: "constant"
      value: 1
    }
    bias_filler {
      type: "constant"
      value: 0
    }
    momentum: 0.95
    frozen: true
  }
}
layer {
  name: "conv2_2_3x3/relu"
  type: "ReLU"
  bottom: "conv2_2_3x3"
  top: "conv2_2_3x3"
}
layer {
  name: "conv2_2_1x1_increase"
  type: "Convolution"
  bottom: "conv2_2_3x3"
  top: "conv2_2_1x1_increase"
  param {
    lr_mult: 1
    decay_mult: 1
  }
  convolution_param {
    num_output: 256
    bias_term: false
    pad: 0
    kernel_size: 1
    stride: 1
    weight_filler {
      type: "msra"
    }
  }
}
layer {
  name: "conv2_2_1x1_increase/bn"
  type: "BN"
  bottom: "conv2_2_1x1_increase"
  top: "conv2_2_1x1_increase"
  param {
    lr_mult: 1
    decay_mult: 0
  }
  param {
    lr_mult: 1
    decay_mult: 0
  }
  param {
    lr_mult: 0
    decay_mult: 0
  }
  param {
    lr_mult: 0
    decay_mult: 0
  }
  bn_param {
    slope_filler {
      type: "constant"
      value: 1
    }
    bias_filler {
      type: "constant"
      value: 0
    }
    momentum: 0.95
    frozen: true
  }
}
layer {
  name: "conv2_2"
  type: "Eltwise"
  bottom: "conv2_1"
  bottom: "conv2_2_1x1_increase"
  top: "conv2_2"
  eltwise_param {
    operation: SUM
  }
}
layer {
  name: "conv2_2/relu"
  type: "ReLU"
  bottom: "conv2_2"
  top: "conv2_2"
}
layer {
  name: "conv2_3_1x1_reduce"
  type: "Convolution"
  bottom: "conv2_2"
  top: "conv2_3_1x1_reduce"
  param {
    lr_mult: 1
    decay_mult: 1
  }
  convolution_param {
    num_output: 64
    bias_term: false
    pad: 0
    kernel_size: 1
    stride: 1
    weight_filler {
      type: "msra"
    }
  }
}
layer {
  name: "conv2_3_1x1_reduce/bn"
  type: "BN"
  bottom: "conv2_3_1x1_reduce"
  top: "conv2_3_1x1_reduce"
  param {
    lr_mult: 1
    decay_mult: 0
  }
  param {
    lr_mult: 1
    decay_mult: 0
  }
  param {
    lr_mult: 0
    decay_mult: 0
  }
  param {
    lr_mult: 0
    decay_mult: 0
  }
  bn_param {
    slope_filler {
      type: "constant"
      value: 1
    }
    bias_filler {
      type: "constant"
      value: 0
    }
    momentum: 0.95
    frozen: true
  }
}
layer {
  name: "conv2_3_1x1_reduce/relu"
  type: "ReLU"
  bottom: "conv2_3_1x1_reduce"
  top: "conv2_3_1x1_reduce"
}
layer {
  name: "conv2_3_3x3"
  type: "Convolution"
  bottom: "conv2_3_1x1_reduce"
  top: "conv2_3_3x3"
  param {
    lr_mult: 1
    decay_mult: 1
  }
  convolution_param {
    num_output: 64
    bias_term: false
    pad: 1
    kernel_size: 3
    stride: 1
    weight_filler {
      type: "msra"
    }
  }
}
layer {
  name: "conv2_3_3x3/bn"
  type: "BN"
  bottom: "conv2_3_3x3"
  top: "conv2_3_3x3"
  param {
    lr_mult: 1
    decay_mult: 0
  }
  param {
    lr_mult: 1
    decay_mult: 0
  }
  param {
    lr_mult: 0
    decay_mult: 0
  }
  param {
    lr_mult: 0
    decay_mult: 0
  }
  bn_param {
    slope_filler {
      type: "constant"
      value: 1
    }
    bias_filler {
      type: "constant"
      value: 0
    }
    momentum: 0.95
    frozen: true
  }
}
layer {
  name: "conv2_3_3x3/relu"
  type: "ReLU"
  bottom: "conv2_3_3x3"
  top: "conv2_3_3x3"
}
layer {
  name: "conv2_3_1x1_increase"
  type: "Convolution"
  bottom: "conv2_3_3x3"
  top: "conv2_3_1x1_increase"
  param {
    lr_mult: 1
    decay_mult: 1
  }
  convolution_param {
    num_output: 256
    bias_term: false
    pad: 0
    kernel_size: 1
    stride: 1
    weight_filler {
      type: "msra"
    }
  }
}
layer {
  name: "conv2_3_1x1_increase/bn"
  type: "BN"
  bottom: "conv2_3_1x1_increase"
  top: "conv2_3_1x1_increase"
  param {
    lr_mult: 1
    decay_mult: 0
  }
  param {
    lr_mult: 1
    decay_mult: 0
  }
  param {
    lr_mult: 0
    decay_mult: 0
  }
  param {
    lr_mult: 0
    decay_mult: 0
  }
  bn_param {
    slope_filler {
      type: "constant"
      value: 1
    }
    bias_filler {
      type: "constant"
      value: 0
    }
    momentum: 0.95
    frozen: true
  }
}
layer {
  name: "conv2_3"
  type: "Eltwise"
  bottom: "conv2_2"
  bottom: "conv2_3_1x1_increase"
  top: "conv2_3"
  eltwise_param {
    operation: SUM
  }
}
layer {
  name: "conv2_3/relu"
  type: "ReLU"
  bottom: "conv2_3"
  top: "conv2_3"
}
layer {
  name: "conv3_1_1x1_reduce"
  type: "Convolution"
  bottom: "conv2_3"
  top: "conv3_1_1x1_reduce"
  param {
    lr_mult: 1
    decay_mult: 1
  }
  convolution_param {
    num_output: 128
    bias_term: false
    pad: 0
    kernel_size: 1
    stride: 1
    weight_filler {
      type: "msra"
    }
  }
}
layer {
  name: "conv3_1_1x1_reduce/bn"
  type: "BN"
  bottom: "conv3_1_1x1_reduce"
  top: "conv3_1_1x1_reduce"
  param {
    lr_mult: 1
    decay_mult: 0
  }
  param {
    lr_mult: 1
    decay_mult: 0
  }
  param {
    lr_mult: 0
    decay_mult: 0
  }
  param {
    lr_mult: 0
    decay_mult: 0
  }
  bn_param {
    slope_filler {
      type: "constant"
      value: 1
    }
    bias_filler {
      type: "constant"
      value: 0
    }
    momentum: 0.95
    frozen: true
  }
}
layer {
  name: "conv3_1_1x1_reduce/relu"
  type: "ReLU"
  bottom: "conv3_1_1x1_reduce"
  top: "conv3_1_1x1_reduce"
}
layer {
  name: "conv3_1_3x3"
  type: "Convolution"
  bottom: "conv3_1_1x1_reduce"
  top: "conv3_1_3x3"
  param {
    lr_mult: 1
    decay_mult: 1
  }
  convolution_param {
    num_output: 128
    bias_term: false
    pad: 1
    kernel_size: 3
    stride: 2
    weight_filler {
      type: "msra"
    }
  }
}
layer {
  name: "conv3_1_3x3/bn"
  type: "BN"
  bottom: "conv3_1_3x3"
  top: "conv3_1_3x3"
  param {
    lr_mult: 1
    decay_mult: 0
  }
  param {
    lr_mult: 1
    decay_mult: 0
  }
  param {
    lr_mult: 0
    decay_mult: 0
  }
  param {
    lr_mult: 0
    decay_mult: 0
  }
  bn_param {
    slope_filler {
      type: "constant"
      value: 1
    }
    bias_filler {
      type: "constant"
      value: 0
    }
    momentum: 0.95
    frozen: true
  }
}
layer {
  name: "conv3_1_3x3/relu"
  type: "ReLU"
  bottom: "conv3_1_3x3"
  top: "conv3_1_3x3"
}
layer {
  name: "conv3_1_1x1_increase"
  type: "Convolution"
  bottom: "conv3_1_3x3"
  top: "conv3_1_1x1_increase"
  param {
    lr_mult: 1
    decay_mult: 1
  }
  convolution_param {
    num_output: 512
    bias_term: false
    pad: 0
    kernel_size: 1
    stride: 1
    weight_filler {
      type: "msra"
    }
  }
}
layer {
  name: "conv3_1_1x1_increase/bn"
  type: "BN"
  bottom: "conv3_1_1x1_increase"
  top: "conv3_1_1x1_increase"
  param {
    lr_mult: 1
    decay_mult: 0
  }
  param {
    lr_mult: 1
    decay_mult: 0
  }
  param {
    lr_mult: 0
    decay_mult: 0
  }
  param {
    lr_mult: 0
    decay_mult: 0
  }
  bn_param {
    slope_filler {
      type: "constant"
      value: 1
    }
    bias_filler {
      type: "constant"
      value: 0
    }
    momentum: 0.95
    frozen: true
  }
}
layer {
  name: "conv3_1_1x1_proj"
  type: "Convolution"
  bottom: "conv2_3"
  top: "conv3_1_1x1_proj"
  param {
    lr_mult: 1
    decay_mult: 1
  }
  convolution_param {
    num_output: 512
    bias_term: false
    pad: 0
    kernel_size: 1
    stride: 2
    weight_filler {
      type: "msra"
    }
  }
}
layer {
  name: "conv3_1_1x1_proj/bn"
  type: "BN"
  bottom: "conv3_1_1x1_proj"
  top: "conv3_1_1x1_proj"
  param {
    lr_mult: 1
    decay_mult: 0
  }
  param {
    lr_mult: 1
    decay_mult: 0
  }
  param {
    lr_mult: 0
    decay_mult: 0
  }
  param {
    lr_mult: 0
    decay_mult: 0
  }
  bn_param {
    slope_filler {
      type: "constant"
      value: 1
    }
    bias_filler {
      type: "constant"
      value: 0
    }
    momentum: 0.95
    frozen: true
  }
}
layer {
  name: "conv3_1"
  type: "Eltwise"
  bottom: "conv3_1_1x1_proj"
  bottom: "conv3_1_1x1_increase"
  top: "conv3_1"
  eltwise_param {
    operation: SUM
  }
}
layer {
  name: "conv3_1/relu"
  type: "ReLU"
  bottom: "conv3_1"
  top: "conv3_1"
}
layer {
  name: "conv3_2_1x1_reduce"
  type: "Convolution"
  bottom: "conv3_1"
  top: "conv3_2_1x1_reduce"
  param {
    lr_mult: 1
    decay_mult: 1
  }
  convolution_param {
    num_output: 128
    bias_term: false
    pad: 0
    kernel_size: 1
    stride: 1
    weight_filler {
      type: "msra"
    }
  }
}
layer {
  name: "conv3_2_1x1_reduce/bn"
  type: "BN"
  bottom: "conv3_2_1x1_reduce"
  top: "conv3_2_1x1_reduce"
  param {
    lr_mult: 1
    decay_mult: 0
  }
  param {
    lr_mult: 1
    decay_mult: 0
  }
  param {
    lr_mult: 0
    decay_mult: 0
  }
  param {
    lr_mult: 0
    decay_mult: 0
  }
  bn_param {
    slope_filler {
      type: "constant"
      value: 1
    }
    bias_filler {
      type: "constant"
      value: 0
    }
    momentum: 0.95
    frozen: true
  }
}
layer {
  name: "conv3_2_1x1_reduce/relu"
  type: "ReLU"
  bottom: "conv3_2_1x1_reduce"
  top: "conv3_2_1x1_reduce"
}
layer {
  name: "conv3_2_3x3"
  type: "Convolution"
  bottom: "conv3_2_1x1_reduce"
  top: "conv3_2_3x3"
  param {
    lr_mult: 1
    decay_mult: 1
  }
  convolution_param {
    num_output: 128
    bias_term: false
    pad: 1
    kernel_size: 3
    stride: 1
    weight_filler {
      type: "msra"
    }
  }
}
layer {
  name: "conv3_2_3x3/bn"
  type: "BN"
  bottom: "conv3_2_3x3"
  top: "conv3_2_3x3"
  param {
    lr_mult: 1
    decay_mult: 0
  }
  param {
    lr_mult: 1
    decay_mult: 0
  }
  param {
    lr_mult: 0
    decay_mult: 0
  }
  param {
    lr_mult: 0
    decay_mult: 0
  }
  bn_param {
    slope_filler {
      type: "constant"
      value: 1
    }
    bias_filler {
      type: "constant"
      value: 0
    }
    momentum: 0.95
    frozen: true
  }
}
layer {
  name: "conv3_2_3x3/relu"
  type: "ReLU"
  bottom: "conv3_2_3x3"
  top: "conv3_2_3x3"
}
layer {
  name: "conv3_2_1x1_increase"
  type: "Convolution"
  bottom: "conv3_2_3x3"
  top: "conv3_2_1x1_increase"
  param {
    lr_mult: 1
    decay_mult: 1
  }
  convolution_param {
    num_output: 512
    bias_term: false
    pad: 0
    kernel_size: 1
    stride: 1
    weight_filler {
      type: "msra"
    }
  }
}
layer {
  name: "conv3_2_1x1_increase/bn"
  type: "BN"
  bottom: "conv3_2_1x1_increase"
  top: "conv3_2_1x1_increase"
  param {
    lr_mult: 1
    decay_mult: 0
  }
  param {
    lr_mult: 1
    decay_mult: 0
  }
  param {
    lr_mult: 0
    decay_mult: 0
  }
  param {
    lr_mult: 0
    decay_mult: 0
  }
  bn_param {
    slope_filler {
      type: "constant"
      value: 1
    }
    bias_filler {
      type: "constant"
      value: 0
    }
    momentum: 0.95
    frozen: true
  }
}
layer {
  name: "conv3_2"
  type: "Eltwise"
  bottom: "conv3_1"
  bottom: "conv3_2_1x1_increase"
  top: "conv3_2"
  eltwise_param {
    operation: SUM
  }
}
layer {
  name: "conv3_2/relu"
  type: "ReLU"
  bottom: "conv3_2"
  top: "conv3_2"
}
layer {
  name: "conv3_3_1x1_reduce"
  type: "Convolution"
  bottom: "conv3_2"
  top: "conv3_3_1x1_reduce"
  param {
    lr_mult: 1
    decay_mult: 1
  }
  convolution_param {
    num_output: 128
    bias_term: false
    pad: 0
    kernel_size: 1
    stride: 1
    weight_filler {
      type: "msra"
    }
  }
}
layer {
  name: "conv3_3_1x1_reduce/bn"
  type: "BN"
  bottom: "conv3_3_1x1_reduce"
  top: "conv3_3_1x1_reduce"
  param {
    lr_mult: 1
    decay_mult: 0
  }
  param {
    lr_mult: 1
    decay_mult: 0
  }
  param {
    lr_mult: 0
    decay_mult: 0
  }
  param {
    lr_mult: 0
    decay_mult: 0
  }
  bn_param {
    slope_filler {
      type: "constant"
      value: 1
    }
    bias_filler {
      type: "constant"
      value: 0
    }
    momentum: 0.95
    frozen: true
  }
}
layer {
  name: "conv3_3_1x1_reduce/relu"
  type: "ReLU"
  bottom: "conv3_3_1x1_reduce"
  top: "conv3_3_1x1_reduce"
}
layer {
  name: "conv3_3_3x3"
  type: "Convolution"
  bottom: "conv3_3_1x1_reduce"
  top: "conv3_3_3x3"
  param {
    lr_mult: 1
    decay_mult: 1
  }
  convolution_param {
    num_output: 128
    bias_term: false
    pad: 1
    kernel_size: 3
    stride: 1
    weight_filler {
      type: "msra"
    }
  }
}
layer {
  name: "conv3_3_3x3/bn"
  type: "BN"
  bottom: "conv3_3_3x3"
  top: "conv3_3_3x3"
  param {
    lr_mult: 1
    decay_mult: 0
  }
  param {
    lr_mult: 1
    decay_mult: 0
  }
  param {
    lr_mult: 0
    decay_mult: 0
  }
  param {
    lr_mult: 0
    decay_mult: 0
  }
  bn_param {
    slope_filler {
      type: "constant"
      value: 1
    }
    bias_filler {
      type: "constant"
      value: 0
    }
    momentum: 0.95
    frozen: true
  }
}
layer {
  name: "conv3_3_3x3/relu"
  type: "ReLU"
  bottom: "conv3_3_3x3"
  top: "conv3_3_3x3"
}
layer {
  name: "conv3_3_1x1_increase"
  type: "Convolution"
  bottom: "conv3_3_3x3"
  top: "conv3_3_1x1_increase"
  param {
    lr_mult: 1
    decay_mult: 1
  }
  convolution_param {
    num_output: 512
    bias_term: false
    pad: 0
    kernel_size: 1
    stride: 1
    weight_filler {
      type: "msra"
    }
  }
}
layer {
  name: "conv3_3_1x1_increase/bn"
  type: "BN"
  bottom: "conv3_3_1x1_increase"
  top: "conv3_3_1x1_increase"
  param {
    lr_mult: 1
    decay_mult: 0
  }
  param {
    lr_mult: 1
    decay_mult: 0
  }
  param {
    lr_mult: 0
    decay_mult: 0
  }
  param {
    lr_mult: 0
    decay_mult: 0
  }
  bn_param {
    slope_filler {
      type: "constant"
      value: 1
    }
    bias_filler {
      type: "constant"
      value: 0
    }
    momentum: 0.95
    frozen: true
  }
}
layer {
  name: "conv3_3"
  type: "Eltwise"
  bottom: "conv3_2"
  bottom: "conv3_3_1x1_increase"
  top: "conv3_3"
  eltwise_param {
    operation: SUM
  }
}
layer {
  name: "conv3_3/relu"
  type: "ReLU"
  bottom: "conv3_3"
  top: "conv3_3"
}
layer {
  name: "conv3_4_1x1_reduce"
  type: "Convolution"
  bottom: "conv3_3"
  top: "conv3_4_1x1_reduce"
  param {
    lr_mult: 1
    decay_mult: 1
  }
  convolution_param {
    num_output: 128
    bias_term: false
    pad: 0
    kernel_size: 1
    stride: 1
    weight_filler {
      type: "msra"
    }
  }
}
layer {
  name: "conv3_4_1x1_reduce/bn"
  type: "BN"
  bottom: "conv3_4_1x1_reduce"
  top: "conv3_4_1x1_reduce"
  param {
    lr_mult: 1
    decay_mult: 0
  }
  param {
    lr_mult: 1
    decay_mult: 0
  }
  param {
    lr_mult: 0
    decay_mult: 0
  }
  param {
    lr_mult: 0
    decay_mult: 0
  }
  bn_param {
    slope_filler {
      type: "constant"
      value: 1
    }
    bias_filler {
      type: "constant"
      value: 0
    }
    momentum: 0.95
    frozen: true
  }
}
layer {
  name: "conv3_4_1x1_reduce/relu"
  type: "ReLU"
  bottom: "conv3_4_1x1_reduce"
  top: "conv3_4_1x1_reduce"
}
layer {
  name: "conv3_4_3x3"
  type: "Convolution"
  bottom: "conv3_4_1x1_reduce"
  top: "conv3_4_3x3"
  param {
    lr_mult: 1
    decay_mult: 1
  }
  convolution_param {
    num_output: 128
    bias_term: false
    pad: 1
    kernel_size: 3
    stride: 1
    weight_filler {
      type: "msra"
    }
  }
}
layer {
  name: "conv3_4_3x3/bn"
  type: "BN"
  bottom: "conv3_4_3x3"
  top: "conv3_4_3x3"
  param {
    lr_mult: 1
    decay_mult: 0
  }
  param {
    lr_mult: 1
    decay_mult: 0
  }
  param {
    lr_mult: 0
    decay_mult: 0
  }
  param {
    lr_mult: 0
    decay_mult: 0
  }
  bn_param {
    slope_filler {
      type: "constant"
      value: 1
    }
    bias_filler {
      type: "constant"
      value: 0
    }
    momentum: 0.95
    frozen: true
  }
}
layer {
  name: "conv3_4_3x3/relu"
  type: "ReLU"
  bottom: "conv3_4_3x3"
  top: "conv3_4_3x3"
}
layer {
  name: "conv3_4_1x1_increase"
  type: "Convolution"
  bottom: "conv3_4_3x3"
  top: "conv3_4_1x1_increase"
  param {
    lr_mult: 1
    decay_mult: 1
  }
  convolution_param {
    num_output: 512
    bias_term: false
    pad: 0
    kernel_size: 1
    stride: 1
    weight_filler {
      type: "msra"
    }
  }
}
layer {
  name: "conv3_4_1x1_increase/bn"
  type: "BN"
  bottom: "conv3_4_1x1_increase"
  top: "conv3_4_1x1_increase"
  param {
    lr_mult: 1
    decay_mult: 0
  }
  param {
    lr_mult: 1
    decay_mult: 0
  }
  param {
    lr_mult: 0
    decay_mult: 0
  }
  param {
    lr_mult: 0
    decay_mult: 0
  }
  bn_param {
    slope_filler {
      type: "constant"
      value: 1
    }
    bias_filler {
      type: "constant"
      value: 0
    }
    momentum: 0.95
    frozen: true
  }
}
layer {
  name: "conv3_4"
  type: "Eltwise"
  bottom: "conv3_3"
  bottom: "conv3_4_1x1_increase"
  top: "conv3_4"
  eltwise_param {
    operation: SUM
  }
}
layer {
  name: "conv3_4/relu"
  type: "ReLU"
  bottom: "conv3_4"
  top: "conv3_4"
}
layer {
  name: "conv4_1_1x1_reduce"
  type: "Convolution"
  bottom: "conv3_4"
  top: "conv4_1_1x1_reduce"
  param {
    lr_mult: 1
    decay_mult: 1
  }
  convolution_param {
    num_output: 256
    bias_term: false
    pad: 0
    kernel_size: 1
    stride: 1
    weight_filler {
      type: "msra"
    }
  }
}
layer {
  name: "conv4_1_1x1_reduce/bn"
  type: "BN"
  bottom: "conv4_1_1x1_reduce"
  top: "conv4_1_1x1_reduce"
  param {
    lr_mult: 1
    decay_mult: 0
  }
  param {
    lr_mult: 1
    decay_mult: 0
  }
  param {
    lr_mult: 0
    decay_mult: 0
  }
  param {
    lr_mult: 0
    decay_mult: 0
  }
  bn_param {
    slope_filler {
      type: "constant"
      value: 1
    }
    bias_filler {
      type: "constant"
      value: 0
    }
    momentum: 0.95
    frozen: true
  }
}
layer {
  name: "conv4_1_1x1_reduce/relu"
  type: "ReLU"
  bottom: "conv4_1_1x1_reduce"
  top: "conv4_1_1x1_reduce"
}
layer {
  name: "conv4_1_3x3"
  type: "Convolution"
  bottom: "conv4_1_1x1_reduce"
  top: "conv4_1_3x3"
  param {
    lr_mult: 1
    decay_mult: 1
  }
  convolution_param {
    num_output: 256
    bias_term: false
    pad: 2
    kernel_size: 3
    stride: 1
    weight_filler {
      type: "msra"
    }
    dilation: 2
  }
}
layer {
  name: "conv4_1_3x3/bn"
  type: "BN"
  bottom: "conv4_1_3x3"
  top: "conv4_1_3x3"
  param {
    lr_mult: 1
    decay_mult: 0
  }
  param {
    lr_mult: 1
    decay_mult: 0
  }
  param {
    lr_mult: 0
    decay_mult: 0
  }
  param {
    lr_mult: 0
    decay_mult: 0
  }
  bn_param {
    slope_filler {
      type: "constant"
      value: 1
    }
    bias_filler {
      type: "constant"
      value: 0
    }
    momentum: 0.95
    frozen: true
  }
}
layer {
  name: "conv4_1_3x3/relu"
  type: "ReLU"
  bottom: "conv4_1_3x3"
  top: "conv4_1_3x3"
}
layer {
  name: "conv4_1_1x1_increase"
  type: "Convolution"
  bottom: "conv4_1_3x3"
  top: "conv4_1_1x1_increase"
  param {
    lr_mult: 1
    decay_mult: 1
  }
  convolution_param {
    num_output: 1024
    bias_term: false
    pad: 0
    kernel_size: 1
    stride: 1
    weight_filler {
      type: "msra"
    }
  }
}
layer {
  name: "conv4_1_1x1_increase/bn"
  type: "BN"
  bottom: "conv4_1_1x1_increase"
  top: "conv4_1_1x1_increase"
  param {
    lr_mult: 1
    decay_mult: 0
  }
  param {
    lr_mult: 1
    decay_mult: 0
  }
  param {
    lr_mult: 0
    decay_mult: 0
  }
  param {
    lr_mult: 0
    decay_mult: 0
  }
  bn_param {
    slope_filler {
      type: "constant"
      value: 1
    }
    bias_filler {
      type: "constant"
      value: 0
    }
    momentum: 0.95
    frozen: true
  }
}
layer {
  name: "conv4_1_1x1_proj"
  type: "Convolution"
  bottom: "conv3_4"
  top: "conv4_1_1x1_proj"
  param {
    lr_mult: 1
    decay_mult: 1
  }
  convolution_param {
    num_output: 1024
    bias_term: false
    pad: 0
    kernel_size: 1
    stride: 1
    weight_filler {
      type: "msra"
    }
  }
}
layer {
  name: "conv4_1_1x1_proj/bn"
  type: "BN"
  bottom: "conv4_1_1x1_proj"
  top: "conv4_1_1x1_proj"
  param {
    lr_mult: 1
    decay_mult: 0
  }
  param {
    lr_mult: 1
    decay_mult: 0
  }
  param {
    lr_mult: 0
    decay_mult: 0
  }
  param {
    lr_mult: 0
    decay_mult: 0
  }
  bn_param {
    slope_filler {
      type: "constant"
      value: 1
    }
    bias_filler {
      type: "constant"
      value: 0
    }
    momentum: 0.95
    frozen: true
  }
}
layer {
  name: "conv4_1"
  type: "Eltwise"
  bottom: "conv4_1_1x1_proj"
  bottom: "conv4_1_1x1_increase"
  top: "conv4_1"
  eltwise_param {
    operation: SUM
  }
}
layer {
  name: "conv4_1/relu"
  type: "ReLU"
  bottom: "conv4_1"
  top: "conv4_1"
}
layer {
  name: "conv4_2_1x1_reduce"
  type: "Convolution"
  bottom: "conv4_1"
  top: "conv4_2_1x1_reduce"
  param {
    lr_mult: 1
    decay_mult: 1
  }
  convolution_param {
    num_output: 256
    bias_term: false
    pad: 0
    kernel_size: 1
    stride: 1
    weight_filler {
      type: "msra"
    }
  }
}
layer {
  name: "conv4_2_1x1_reduce/bn"
  type: "BN"
  bottom: "conv4_2_1x1_reduce"
  top: "conv4_2_1x1_reduce"
  param {
    lr_mult: 1
    decay_mult: 0
  }
  param {
    lr_mult: 1
    decay_mult: 0
  }
  param {
    lr_mult: 0
    decay_mult: 0
  }
  param {
    lr_mult: 0
    decay_mult: 0
  }
  bn_param {
    slope_filler {
      type: "constant"
      value: 1
    }
    bias_filler {
      type: "constant"
      value: 0
    }
    momentum: 0.95
    frozen: true
  }
}
layer {
  name: "conv4_2_1x1_reduce/relu"
  type: "ReLU"
  bottom: "conv4_2_1x1_reduce"
  top: "conv4_2_1x1_reduce"
}
layer {
  name: "conv4_2_3x3"
  type: "Convolution"
  bottom: "conv4_2_1x1_reduce"
  top: "conv4_2_3x3"
  param {
    lr_mult: 1
    decay_mult: 1
  }
  convolution_param {
    num_output: 256
    bias_term: false
    pad: 2
    kernel_size: 3
    stride: 1
    weight_filler {
      type: "msra"
    }
    dilation: 2
  }
}
layer {
  name: "conv4_2_3x3/bn"
  type: "BN"
  bottom: "conv4_2_3x3"
  top: "conv4_2_3x3"
  param {
    lr_mult: 1
    decay_mult: 0
  }
  param {
    lr_mult: 1
    decay_mult: 0
  }
  param {
    lr_mult: 0
    decay_mult: 0
  }
  param {
    lr_mult: 0
    decay_mult: 0
  }
  bn_param {
    slope_filler {
      type: "constant"
      value: 1
    }
    bias_filler {
      type: "constant"
      value: 0
    }
    momentum: 0.95
    frozen: true
  }
}
layer {
  name: "conv4_2
I0622 01:36:30.099560  4748 layer_factory.hpp:77] Creating layer data
I0622 01:36:30.099586  4748 net.cpp:106] Creating Layer data
I0622 01:36:30.099592  4748 net.cpp:411] data -> data
I0622 01:36:30.099609  4748 net.cpp:411] data -> label
I0622 01:36:30.099617  4748 net.cpp:411] data -> (automatic)
I0622 01:36:30.099934  4748 image_seg_data_layer.cpp:46] Opening file exper/voc12/list/train_aug.txt
I0622 01:36:30.107244  4748 image_seg_data_layer.cpp:63] Shuffling data
I0622 01:36:30.108255  4748 image_seg_data_layer.cpp:68] A total of 10582 images.
I0622 01:36:30.126197  4748 image_seg_data_layer.cpp:137] output data size: 2,3,473,473
I0622 01:36:30.126268  4748 image_seg_data_layer.cpp:141] output label size: 2,1,473,473
I0622 01:36:30.126276  4748 image_seg_data_layer.cpp:145] output data_dim size: 2,1,1,2
I0622 01:36:30.159329  4748 net.cpp:150] Setting up data
I0622 01:36:30.159348  4748 net.cpp:157] Top shape: 2 3 473 473 (1342374)
I0622 01:36:30.159353  4748 net.cpp:157] Top shape: 2 1 473 473 (447458)
I0622 01:36:30.159355  4748 net.cpp:157] Top shape: 2 1 1 2 (4)
I0622 01:36:30.159358  4748 net.cpp:165] Memory required for data: 7159344
I0622 01:36:30.159364  4748 layer_factory.hpp:77] Creating layer conv1_1_3x3_s2
I0622 01:36:30.159379  4748 net.cpp:106] Creating Layer conv1_1_3x3_s2
I0622 01:36:30.159384  4748 net.cpp:454] conv1_1_3x3_s2 <- data
I0622 01:36:30.159394  4748 net.cpp:411] conv1_1_3x3_s2 -> conv1_1_3x3_s2
I0622 01:36:30.160202  4748 net.cpp:150] Setting up conv1_1_3x3_s2
I0622 01:36:30.160212  4748 net.cpp:157] Top shape: 2 64 237 237 (7189632)
I0622 01:36:30.160214  4748 net.cpp:165] Memory required for data: 35917872
I0622 01:36:30.160221  4748 layer_factory.hpp:77] Creating layer conv1_1_3x3_s2/bn
I0622 01:36:30.160229  4748 net.cpp:106] Creating Layer conv1_1_3x3_s2/bn
I0622 01:36:30.160231  4748 net.cpp:454] conv1_1_3x3_s2/bn <- conv1_1_3x3_s2
I0622 01:36:30.160235  4748 net.cpp:397] conv1_1_3x3_s2/bn -> conv1_1_3x3_s2 (in-place)
I0622 01:36:30.163535  4748 net.cpp:150] Setting up conv1_1_3x3_s2/bn
I0622 01:36:30.163549  4748 net.cpp:157] Top shape: 2 64 237 237 (7189632)
I0622 01:36:30.163552  4748 net.cpp:165] Memory required for data: 64676400
I0622 01:36:30.163580  4748 layer_factory.hpp:77] Creating layer conv1_1_3x3_s2/relu
I0622 01:36:30.163588  4748 net.cpp:106] Creating Layer conv1_1_3x3_s2/relu
I0622 01:36:30.163591  4748 net.cpp:454] conv1_1_3x3_s2/relu <- conv1_1_3x3_s2
I0622 01:36:30.163595  4748 net.cpp:397] conv1_1_3x3_s2/relu -> conv1_1_3x3_s2 (in-place)
I0622 01:36:30.163609  4748 net.cpp:150] Setting up conv1_1_3x3_s2/relu
I0622 01:36:30.163612  4748 net.cpp:157] Top shape: 2 64 237 237 (7189632)
I0622 01:36:30.163615  4748 net.cpp:165] Memory required for data: 93434928
I0622 01:36:30.163622  4748 layer_factory.hpp:77] Creating layer conv1_2_3x3
I0622 01:36:30.163630  4748 net.cpp:106] Creating Layer conv1_2_3x3
I0622 01:36:30.163632  4748 net.cpp:454] conv1_2_3x3 <- conv1_1_3x3_s2
I0622 01:36:30.163636  4748 net.cpp:411] conv1_2_3x3 -> conv1_2_3x3
I0622 01:36:30.164504  4748 net.cpp:150] Setting up conv1_2_3x3
I0622 01:36:30.164510  4748 net.cpp:157] Top shape: 2 64 237 237 (7189632)
I0622 01:36:30.164512  4748 net.cpp:165] Memory required for data: 122193456
I0622 01:36:30.164515  4748 layer_factory.hpp:77] Creating layer conv1_2_3x3/bn
I0622 01:36:30.164520  4748 net.cpp:106] Creating Layer conv1_2_3x3/bn
I0622 01:36:30.164523  4748 net.cpp:454] conv1_2_3x3/bn <- conv1_2_3x3
I0622 01:36:30.164527  4748 net.cpp:397] conv1_2_3x3/bn -> conv1_2_3x3 (in-place)
I0622 01:36:30.164672  4748 net.cpp:150] Setting up conv1_2_3x3/bn
I0622 01:36:30.164677  4748 net.cpp:157] Top shape: 2 64 237 237 (7189632)
I0622 01:36:30.164680  4748 net.cpp:165] Memory required for data: 150951984
I0622 01:36:30.164686  4748 layer_factory.hpp:77] Creating layer conv1_2_3x3/relu
I0622 01:36:30.164690  4748 net.cpp:106] Creating Layer conv1_2_3x3/relu
I0622 01:36:30.164693  4748 net.cpp:454] conv1_2_3x3/relu <- conv1_2_3x3
I0622 01:36:30.164697  4748 net.cpp:397] conv1_2_3x3/relu -> conv1_2_3x3 (in-place)
I0622 01:36:30.164700  4748 net.cpp:150] Setting up conv1_2_3x3/relu
I0622 01:36:30.164703  4748 net.cpp:157] Top shape: 2 64 237 237 (7189632)
I0622 01:36:30.164706  4748 net.cpp:165] Memory required for data: 179710512
I0622 01:36:30.164710  4748 layer_factory.hpp:77] Creating layer conv1_3_3x3
I0622 01:36:30.164714  4748 net.cpp:106] Creating Layer conv1_3_3x3
I0622 01:36:30.164717  4748 net.cpp:454] conv1_3_3x3 <- conv1_2_3x3
I0622 01:36:30.164721  4748 net.cpp:411] conv1_3_3x3 -> conv1_3_3x3
I0622 01:36:30.166831  4748 net.cpp:150] Setting up conv1_3_3x3
I0622 01:36:30.166853  4748 net.cpp:157] Top shape: 2 128 237 237 (14379264)
I0622 01:36:30.166858  4748 net.cpp:165] Memory required for data: 237227568
I0622 01:36:30.166868  4748 layer_factory.hpp:77] Creating layer conv1_3_3x3/bn
I0622 01:36:30.166884  4748 net.cpp:106] Creating Layer conv1_3_3x3/bn
I0622 01:36:30.166890  4748 net.cpp:454] conv1_3_3x3/bn <- conv1_3_3x3
I0622 01:36:30.166898  4748 net.cpp:397] conv1_3_3x3/bn -> conv1_3_3x3 (in-place)
I0622 01:36:30.167134  4748 net.cpp:150] Setting up conv1_3_3x3/bn
I0622 01:36:30.167140  4748 net.cpp:157] Top shape: 2 128 237 237 (14379264)
I0622 01:36:30.167145  4748 net.cpp:165] Memory required for data: 294744624
I0622 01:36:30.167153  4748 layer_factory.hpp:77] Creating layer conv1_3_3x3/relu
I0622 01:36:30.167162  4748 net.cpp:106] Creating Layer conv1_3_3x3/relu
I0622 01:36:30.167166  4748 net.cpp:454] conv1_3_3x3/relu <- conv1_3_3x3
I0622 01:36:30.167171  4748 net.cpp:397] conv1_3_3x3/relu -> conv1_3_3x3 (in-place)
I0622 01:36:30.167179  4748 net.cpp:150] Setting up conv1_3_3x3/relu
I0622 01:36:30.167184  4748 net.cpp:157] Top shape: 2 128 237 237 (14379264)
I0622 01:36:30.167188  4748 net.cpp:165] Memory required for data: 352261680
I0622 01:36:30.167192  4748 layer_factory.hpp:77] Creating layer pool1_3x3_s2
I0622 01:36:30.167199  4748 net.cpp:106] Creating Layer pool1_3x3_s2
I0622 01:36:30.167203  4748 net.cpp:454] pool1_3x3_s2 <- conv1_3_3x3
I0622 01:36:30.167208  4748 net.cpp:411] pool1_3x3_s2 -> pool1_3x3_s2
I0622 01:36:30.167256  4748 net.cpp:150] Setting up pool1_3x3_s2
I0622 01:36:30.167265  4748 net.cpp:157] Top shape: 2 128 119 119 (3625216)
I0622 01:36:30.167306  4748 net.cpp:165] Memory required for data: 366762544
I0622 01:36:30.167312  4748 layer_factory.hpp:77] Creating layer pool1_3x3_s2_pool1_3x3_s2_0_split
I0622 01:36:30.167338  4748 net.cpp:106] Creating Layer pool1_3x3_s2_pool1_3x3_s2_0_split
I0622 01:36:30.167346  4748 net.cpp:454] pool1_3x3_s2_pool1_3x3_s2_0_split <- pool1_3x3_s2
I0622 01:36:30.167353  4748 net.cpp:411] pool1_3x3_s2_pool1_3x3_s2_0_split -> pool1_3x3_s2_pool1_3x3_s2_0_split_0
I0622 01:36:30.167361  4748 net.cpp:411] pool1_3x3_s2_pool1_3x3_s2_0_split -> pool1_3x3_s2_pool1_3x3_s2_0_split_1
I0622 01:36:30.167402  4748 net.cpp:150] Setting up pool1_3x3_s2_pool1_3x3_s2_0_split
I0622 01:36:30.167408  4748 net.cpp:157] Top shape: 2 128 119 119 (3625216)
I0622 01:36:30.167415  4748 net.cpp:157] Top shape: 2 128 119 119 (3625216)
I0622 01:36:30.167420  4748 net.cpp:165] Memory required for data: 395764272
I0622 01:36:30.167424  4748 layer_factory.hpp:77] Creating layer conv2_1_1x1_reduce
I0622 01:36:30.167439  4748 net.cpp:106] Creating Layer conv2_1_1x1_reduce
I0622 01:36:30.167444  4748 net.cpp:454] conv2_1_1x1_reduce <- pool1_3x3_s2_pool1_3x3_s2_0_split_0
I0622 01:36:30.167451  4748 net.cpp:411] conv2_1_1x1_reduce -> conv2_1_1x1_reduce
I0622 01:36:30.169368  4748 net.cpp:150] Setting up conv2_1_1x1_reduce
I0622 01:36:30.169396  4748 net.cpp:157] Top shape: 2 64 119 119 (1812608)
I0622 01:36:30.169401  4748 net.cpp:165] Memory required for data: 403014704
I0622 01:36:30.169409  4748 layer_factory.hpp:77] Creating layer conv2_1_1x1_reduce/bn
I0622 01:36:30.169427  4748 net.cpp:106] Creating Layer conv2_1_1x1_reduce/bn
I0622 01:36:30.169433  4748 net.cpp:454] conv2_1_1x1_reduce/bn <- conv2_1_1x1_reduce
I0622 01:36:30.169445  4748 net.cpp:397] conv2_1_1x1_reduce/bn -> conv2_1_1x1_reduce (in-place)
I0622 01:36:30.169670  4748 net.cpp:150] Setting up conv2_1_1x1_reduce/bn
I0622 01:36:30.169682  4748 net.cpp:157] Top shape: 2 64 119 119 (1812608)
I0622 01:36:30.169690  4748 net.cpp:165] Memory required for data: 410265136
I0622 01:36:30.169711  4748 layer_factory.hpp:77] Creating layer conv2_1_1x1_reduce/relu
I0622 01:36:30.169724  4748 net.cpp:106] Creating Layer conv2_1_1x1_reduce/relu
I0622 01:36:30.169730  4748 net.cpp:454] conv2_1_1x1_reduce/relu <- conv2_1_1x1_reduce
I0622 01:36:30.169736  4748 net.cpp:397] conv2_1_1x1_reduce/relu -> conv2_1_1x1_reduce (in-place)
I0622 01:36:30.169746  4748 net.cpp:150] Setting up conv2_1_1x1_reduce/relu
I0622 01:36:30.169750  4748 net.cpp:157] Top shape: 2 64 119 119 (1812608)
I0622 01:36:30.169756  4748 net.cpp:165] Memory required for data: 417515568
I0622 01:36:30.169761  4748 layer_factory.hpp:77] Creating layer conv2_1_3x3
I0622 01:36:30.169776  4748 net.cpp:106] Creating Layer conv2_1_3x3
I0622 01:36:30.169781  4748 net.cpp:454] conv2_1_3x3 <- conv2_1_1x1_reduce
I0622 01:36:30.169787  4748 net.cpp:411] conv2_1_3x3 -> conv2_1_3x3
I0622 01:36:30.171005  4748 net.cpp:150] Setting up conv2_1_3x3
I0622 01:36:30.171012  4748 net.cpp:157] Top shape: 2 64 119 119 (1812608)
I0622 01:36:30.171016  4748 net.cpp:165] Memory required for data: 424766000
I0622 01:36:30.171021  4748 layer_factory.hpp:77] Creating layer conv2_1_3x3/bn
I0622 01:36:30.171031  4748 net.cpp:106] Creating Layer conv2_1_3x3/bn
I0622 01:36:30.171036  4748 net.cpp:454] conv2_1_3x3/bn <- conv2_1_3x3
I0622 01:36:30.171041  4748 net.cpp:397] conv2_1_3x3/bn -> conv2_1_3x3 (in-place)
I0622 01:36:30.171226  4748 net.cpp:150] Setting up conv2_1_3x3/bn
I0622 01:36:30.171233  4748 net.cpp:157] Top shape: 2 64 119 119 (1812608)
I0622 01:36:30.171237  4748 net.cpp:165] Memory required for data: 432016432
I0622 01:36:30.171245  4748 layer_factory.hpp:77] Creating layer conv2_1_3x3/relu
I0622 01:36:30.171252  4748 net.cpp:106] Creating Layer conv2_1_3x3/relu
I0622 01:36:30.171257  4748 net.cpp:454] conv2_1_3x3/relu <- conv2_1_3x3
I0622 01:36:30.171262  4748 net.cpp:397] conv2_1_3x3/relu -> conv2_1_3x3 (in-place)
I0622 01:36:30.171267  4748 net.cpp:150] Setting up conv2_1_3x3/relu
I0622 01:36:30.171272  4748 net.cpp:157] Top shape: 2 64 119 119 (1812608)
I0622 01:36:30.171314  4748 net.cpp:165] Memory required for data: 439266864
I0622 01:36:30.171319  4748 layer_factory.hpp:77] Creating layer conv2_1_1x1_increase
I0622 01:36:30.171326  4748 net.cpp:106] Creating Layer conv2_1_1x1_increase
I0622 01:36:30.171330  4748 net.cpp:454] conv2_1_1x1_increase <- conv2_1_3x3
I0622 01:36:30.171337  4748 net.cpp:411] conv2_1_1x1_increase -> conv2_1_1x1_increase
I0622 01:36:30.171947  4748 net.cpp:150] Setting up conv2_1_1x1_increase
I0622 01:36:30.171953  4748 net.cpp:157] Top shape: 2 256 119 119 (7250432)
I0622 01:36:30.171955  4748 net.cpp:165] Memory required for data: 468268592
I0622 01:36:30.171959  4748 layer_factory.hpp:77] Creating layer conv2_1_1x1_increase/bn
I0622 01:36:30.171965  4748 net.cpp:106] Creating Layer conv2_1_1x1_increase/bn
I0622 01:36:30.171968  4748 net.cpp:454] conv2_1_1x1_increase/bn <- conv2_1_1x1_increase
I0622 01:36:30.171972  4748 net.cpp:397] conv2_1_1x1_increase/bn -> conv2_1_1x1_increase (in-place)
I0622 01:36:30.172099  4748 net.cpp:150] Setting up conv2_1_1x1_increase/bn
I0622 01:36:30.172106  4748 net.cpp:157] Top shape: 2 256 119 119 (7250432)
I0622 01:36:30.172108  4748 net.cpp:165] Memory required for data: 497270320
I0622 01:36:30.172114  4748 layer_factory.hpp:77] Creating layer conv2_1_1x1_proj
I0622 01:36:30.172121  4748 net.cpp:106] Creating Layer conv2_1_1x1_proj
I0622 01:36:30.172123  4748 net.cpp:454] conv2_1_1x1_proj <- pool1_3x3_s2_pool1_3x3_s2_0_split_1
I0622 01:36:30.172127  4748 net.cpp:411] conv2_1_1x1_proj -> conv2_1_1x1_proj
I0622 01:36:30.173185  4748 net.cpp:150] Setting up conv2_1_1x1_proj
I0622 01:36:30.173195  4748 net.cpp:157] Top shape: 2 256 119 119 (7250432)
I0622 01:36:30.173199  4748 net.cpp:165] Memory required for data: 526272048
I0622 01:36:30.173205  4748 layer_factory.hpp:77] Creating layer conv2_1_1x1_proj/bn
I0622 01:36:30.173213  4748 net.cpp:106] Creating Layer conv2_1_1x1_proj/bn
I0622 01:36:30.173216  4748 net.cpp:454] conv2_1_1x1_proj/bn <- conv2_1_1x1_proj
I0622 01:36:30.173223  4748 net.cpp:397] conv2_1_1x1_proj/bn -> conv2_1_1x1_proj (in-place)
I0622 01:36:30.173387  4748 net.cpp:150] Setting up conv2_1_1x1_proj/bn
I0622 01:36:30.173393  4748 net.cpp:157] Top shape: 2 256 119 119 (7250432)
I0622 01:36:30.173398  4748 net.cpp:165] Memory required for data: 555273776
I0622 01:36:30.173409  4748 layer_factory.hpp:77] Creating layer conv2_1
I0622 01:36:30.173420  4748 net.cpp:106] Creating Layer conv2_1
I0622 01:36:30.173424  4748 net.cpp:454] conv2_1 <- conv2_1_1x1_proj
I0622 01:36:30.173430  4748 net.cpp:454] conv2_1 <- conv2_1_1x1_increase
I0622 01:36:30.173435  4748 net.cpp:411] conv2_1 -> conv2_1
I0622 01:36:30.173463  4748 net.cpp:150] Setting up conv2_1
I0622 01:36:30.173470  4748 net.cpp:157] Top shape: 2 256 119 119 (7250432)
I0622 01:36:30.173473  4748 net.cpp:165] Memory required for data: 584275504
I0622 01:36:30.173477  4748 layer_factory.hpp:77] Creating layer conv2_1/relu
I0622 01:36:30.173483  4748 net.cpp:106] Creating Layer conv2_1/relu
I0622 01:36:30.173487  4748 net.cpp:454] conv2_1/relu <- conv2_1
I0622 01:36:30.173492  4748 net.cpp:397] conv2_1/relu -> conv2_1 (in-place)
I0622 01:36:30.173497  4748 net.cpp:150] Setting up conv2_1/relu
I0622 01:36:30.173502  4748 net.cpp:157] Top shape: 2 256 119 119 (7250432)
I0622 01:36:30.173506  4748 net.cpp:165] Memory required for data: 613277232
I0622 01:36:30.173511  4748 layer_factory.hpp:77] Creating layer conv2_1_conv2_1/relu_0_split
I0622 01:36:30.173516  4748 net.cpp:106] Creating Layer conv2_1_conv2_1/relu_0_split
I0622 01:36:30.173521  4748 net.cpp:454] conv2_1_conv2_1/relu_0_split <- conv2_1
I0622 01:36:30.173526  4748 net.cpp:411] conv2_1_conv2_1/relu_0_split -> conv2_1_conv2_1/relu_0_split_0
I0622 01:36:30.173532  4748 net.cpp:411] conv2_1_conv2_1/relu_0_split -> conv2_1_conv2_1/relu_0_split_1
I0622 01:36:30.173557  4748 net.cpp:150] Setting up conv2_1_conv2_1/relu_0_split
I0622 01:36:30.173563  4748 net.cpp:157] Top shape: 2 256 119 119 (7250432)
I0622 01:36:30.173568  4748 net.cpp:157] Top shape: 2 256 119 119 (7250432)
I0622 01:36:30.173581  4748 net.cpp:165] Memory required for data: 671280688
I0622 01:36:30.173585  4748 layer_factory.hpp:77] Creating layer conv2_2_1x1_reduce
I0622 01:36:30.173593  4748 net.cpp:106] Creating Layer conv2_2_1x1_reduce
I0622 01:36:30.173598  4748 net.cpp:454] conv2_2_1x1_reduce <- conv2_1_conv2_1/relu_0_split_0
I0622 01:36:30.173604  4748 net.cpp:411] conv2_2_1x1_reduce -> conv2_2_1x1_reduce
I0622 01:36:30.174203  4748 net.cpp:150] Setting up conv2_2_1x1_reduce
I0622 01:36:30.174213  4748 net.cpp:157] Top shape: 2 64 119 119 (1812608)
I0622 01:36:30.174217  4748 net.cpp:165] Memory required for data: 678531120
I0622 01:36:30.174223  4748 layer_factory.hpp:77] Creating layer conv2_2_1x1_reduce/bn
I0622 01:36:30.174229  4748 net.cpp:106] Creating Layer conv2_2_1x1_reduce/bn
I0622 01:36:30.174232  4748 net.cpp:454] conv2_2_1x1_reduce/bn <- conv2_2_1x1_reduce
I0622 01:36:30.174237  4748 net.cpp:397] conv2_2_1x1_reduce/bn -> conv2_2_1x1_reduce (in-place)
I0622 01:36:30.174366  4748 net.cpp:150] Setting up conv2_2_1x1_reduce/bn
I0622 01:36:30.174372  4748 net.cpp:157] Top shape: 2 64 119 119 (1812608)
I0622 01:36:30.174374  4748 net.cpp:165] Memory required for data: 685781552
I0622 01:36:30.174381  4748 layer_factory.hpp:77] Creating layer conv2_2_1x1_reduce/relu
I0622 01:36:30.174386  4748 net.cpp:106] Creating Layer conv2_2_1x1_reduce/relu
I0622 01:36:30.174389  4748 net.cpp:454] conv2_2_1x1_reduce/relu <- conv2_2_1x1_reduce
I0622 01:36:30.174392  4748 net.cpp:397] conv2_2_1x1_reduce/relu -> conv2_2_1x1_reduce (in-place)
I0622 01:36:30.174396  4748 net.cpp:150] Setting up conv2_2_1x1_reduce/relu
I0622 01:36:30.174401  4748 net.cpp:157] Top shape: 2 64 119 119 (1812608)
I0622 01:36:30.174402  4748 net.cpp:165] Memory required for data: 693031984
I0622 01:36:30.174405  4748 layer_factory.hpp:77] Creating layer conv2_2_3x3
I0622 01:36:30.174410  4748 net.cpp:106] Creating Layer conv2_2_3x3
I0622 01:36:30.174413  4748 net.cpp:454] conv2_2_3x3 <- conv2_2_1x1_reduce
I0622 01:36:30.174417  4748 net.cpp:411] conv2_2_3x3 -> conv2_2_3x3
I0622 01:36:30.175467  4748 net.cpp:150] Setting up conv2_2_3x3
I0622 01:36:30.175477  4748 net.cpp:157] Top shape: 2 64 119 119 (1812608)
I0622 01:36:30.175480  4748 net.cpp:165] Memory required for data: 700282416
I0622 01:36:30.175487  4748 layer_factory.hpp:77] Creating layer conv2_2_3x3/bn
I0622 01:36:30.175494  4748 net.cpp:106] Creating Layer conv2_2_3x3/bn
I0622 01:36:30.175498  4748 net.cpp:454] conv2_2_3x3/bn <- conv2_2_3x3
I0622 01:36:30.175505  4748 net.cpp:397] conv2_2_3x3/bn -> conv2_2_3x3 (in-place)
I0622 01:36:30.175696  4748 net.cpp:150] Setting up conv2_2_3x3/bn
I0622 01:36:30.175704  4748 net.cpp:157] Top shape: 2 64 119 119 (1812608)
I0622 01:36:30.175707  4748 net.cpp:165] Memory required for data: 707532848
I0622 01:36:30.175716  4748 layer_factory.hpp:77] Creating layer conv2_2_3x3/relu
I0622 01:36:30.175722  4748 net.cpp:106] Creating Layer conv2_2_3x3/relu
I0622 01:36:30.175726  4748 net.cpp:454] conv2_2_3x3/relu <- conv2_2_3x3
I0622 01:36:30.175732  4748 net.cpp:397] conv2_2_3x3/relu -> conv2_2_3x3 (in-place)
I0622 01:36:30.175739  4748 net.cpp:150] Setting up conv2_2_3x3/relu
I0622 01:36:30.175743  4748 net.cpp:157] Top shape: 2 64 119 119 (1812608)
I0622 01:36:30.175747  4748 net.cpp:165] Memory required for data: 714783280
I0622 01:36:30.175751  4748 layer_factory.hpp:77] Creating layer conv2_2_1x1_increase
I0622 01:36:30.175760  4748 net.cpp:106] Creating Layer conv2_2_1x1_increase
I0622 01:36:30.175763  4748 net.cpp:454] conv2_2_1x1_increase <- conv2_2_3x3
I0622 01:36:30.175770  4748 net.cpp:411] conv2_2_1x1_increase -> conv2_2_1x1_increase
I0622 01:36:30.176384  4748 net.cpp:150] Setting up conv2_2_1x1_increase
I0622 01:36:30.176393  4748 net.cpp:157] Top shape: 2 256 119 119 (7250432)
I0622 01:36:30.176398  4748 net.cpp:165] Memory required for data: 743785008
I0622 01:36:30.176403  4748 layer_factory.hpp:77] Creating layer conv2_2_1x1_increase/bn
I0622 01:36:30.176419  4748 net.cpp:106] Creating Layer conv2_2_1x1_increase/bn
I0622 01:36:30.176455  4748 net.cpp:454] conv2_2_1x1_increase/bn <- conv2_2_1x1_increase
I0622 01:36:30.176465  4748 net.cpp:397] conv2_2_1x1_increase/bn -> conv2_2_1x1_increase (in-place)
I0622 01:36:30.176658  4748 net.cpp:150] Setting up conv2_2_1x1_increase/bn
I0622 01:36:30.176666  4748 net.cpp:157] Top shape: 2 256 119 119 (7250432)
I0622 01:36:30.176669  4748 net.cpp:165] Memory required for data: 772786736
I0622 01:36:30.176677  4748 layer_factory.hpp:77] Creating layer conv2_2
I0622 01:36:30.176686  4748 net.cpp:106] Creating Layer conv2_2
I0622 01:36:30.176689  4748 net.cpp:454] conv2_2 <- conv2_1_conv2_1/relu_0_split_1
I0622 01:36:30.176694  4748 net.cpp:454] conv2_2 <- conv2_2_1x1_increase
I0622 01:36:30.176702  4748 net.cpp:411] conv2_2 -> conv2_2
I0622 01:36:30.176722  4748 net.cpp:150] Setting up conv2_2
I0622 01:36:30.176728  4748 net.cpp:157] Top shape: 2 256 119 119 (7250432)
I0622 01:36:30.176730  4748 net.cpp:165] Memory required for data: 801788464
I0622 01:36:30.176735  4748 layer_factory.hpp:77] Creating layer conv2_2/relu
I0622 01:36:30.176741  4748 net.cpp:106] Creating Layer conv2_2/relu
I0622 01:36:30.176745  4748 net.cpp:454] conv2_2/relu <- conv2_2
I0622 01:36:30.176750  4748 net.cpp:397] conv2_2/relu -> conv2_2 (in-place)
I0622 01:36:30.176756  4748 net.cpp:150] Setting up conv2_2/relu
I0622 01:36:30.176761  4748 net.cpp:157] Top shape: 2 256 119 119 (7250432)
I0622 01:36:30.176764  4748 net.cpp:165] Memory required for data: 830790192
I0622 01:36:30.176769  4748 layer_factory.hpp:77] Creating layer conv2_2_conv2_2/relu_0_split
I0622 01:36:30.176776  4748 net.cpp:106] Creating Layer conv2_2_conv2_2/relu_0_split
I0622 01:36:30.176780  4748 net.cpp:454] conv2_2_conv2_2/relu_0_split <- conv2_2
I0622 01:36:30.176785  4748 net.cpp:411] conv2_2_conv2_2/relu_0_split -> conv2_2_conv2_2/relu_0_split_0
I0622 01:36:30.176791  4748 net.cpp:411] conv2_2_conv2_2/relu_0_split -> conv2_2_conv2_2/relu_0_split_1
I0622 01:36:30.176821  4748 net.cpp:150] Setting up conv2_2_conv2_2/relu_0_split
I0622 01:36:30.176827  4748 net.cpp:157] Top shape: 2 256 119 119 (7250432)
I0622 01:36:30.176832  4748 net.cpp:157] Top shape: 2 256 119 119 (7250432)
I0622 01:36:30.176836  4748 net.cpp:165] Memory required for data: 888793648
I0622 01:36:30.176841  4748 layer_factory.hpp:77] Creating layer conv2_3_1x1_reduce
I0622 01:36:30.176851  4748 net.cpp:106] Creating Layer conv2_3_1x1_reduce
I0622 01:36:30.176854  4748 net.cpp:454] conv2_3_1x1_reduce <- conv2_2_conv2_2/relu_0_split_0
I0622 01:36:30.176862  4748 net.cpp:411] conv2_3_1x1_reduce -> conv2_3_1x1_reduce
I0622 01:36:30.177525  4748 net.cpp:150] Setting up conv2_3_1x1_reduce
I0622 01:36:30.177536  4748 net.cpp:157] Top shape: 2 64 119 119 (1812608)
I0622 01:36:30.177541  4748 net.cpp:165] Memory required for data: 896044080
I0622 01:36:30.177549  4748 layer_factory.hpp:77] Creating layer conv2_3_1x1_reduce/bn
I0622 01:36:30.177561  4748 net.cpp:106] Creating Layer conv2_3_1x1_reduce/bn
I0622 01:36:30.177567  4748 net.cpp:454] conv2_3_1x1_reduce/bn <- conv2_3_1x1_reduce
I0622 01:36:30.177574  4748 net.cpp:397] conv2_3_1x1_reduce/bn -> conv2_3_1x1_reduce (in-place)
I0622 01:36:30.177778  4748 net.cpp:150] Setting up conv2_3_1x1_reduce/bn
I0622 01:36:30.177784  4748 net.cpp:157] Top shape: 2 64 119 119 (1812608)
I0622 01:36:30.177788  4748 net.cpp:165] Memory required for data: 903294512
I0622 01:36:30.177796  4748 layer_factory.hpp:77] Creating layer conv2_3_1x1_reduce/relu
I0622 01:36:30.177803  4748 net.cpp:106] Creating Layer conv2_3_1x1_reduce/relu
I0622 01:36:30.177806  4748 net.cpp:454] conv2_3_1x1_reduce/relu <- conv2_3_1x1_reduce
I0622 01:36:30.177814  4748 net.cpp:397] conv2_3_1x1_reduce/relu -> conv2_3_1x1_reduce (in-place)
I0622 01:36:30.177821  4748 net.cpp:150] Setting up conv2_3_1x1_reduce/relu
I0622 01:36:30.177827  4748 net.cpp:157] Top shape: 2 64 119 119 (1812608)
I0622 01:36:30.177831  4748 net.cpp:165] Memory required for data: 910544944
I0622 01:36:30.177835  4748 layer_factory.hpp:77] Creating layer conv2_3_3x3
I0622 01:36:30.177846  4748 net.cpp:106] Creating Layer conv2_3_3x3
I0622 01:36:30.177880  4748 net.cpp:454] conv2_3_3x3 <- conv2_3_1x1_reduce
I0622 01:36:30.177887  4748 net.cpp:411] conv2_3_3x3 -> conv2_3_3x3
I0622 01:36:30.179160  4748 net.cpp:150] Setting up conv2_3_3x3
I0622 01:36:30.179183  4748 net.cpp:157] Top shape: 2 64 119 119 (1812608)
I0622 01:36:30.179186  4748 net.cpp:165] Memory required for data: 917795376
I0622 01:36:30.179193  4748 layer_factory.hpp:77] Creating layer conv2_3_3x3/bn
I0622 01:36:30.179205  4748 net.cpp:106] Creating Layer conv2_3_3x3/bn
I0622 01:36:30.179209  4748 net.cpp:454] conv2_3_3x3/bn <- conv2_3_3x3
I0622 01:36:30.179217  4748 net.cpp:397] conv2_3_3x3/bn -> conv2_3_3x3 (in-place)
I0622 01:36:30.179451  4748 net.cpp:150] Setting up conv2_3_3x3/bn
I0622 01:36:30.179462  4748 net.cpp:157] Top shape: 2 64 119 119 (1812608)
I0622 01:36:30.179473  4748 net.cpp:165] Memory required for data: 925045808
I0622 01:36:30.179481  4748 layer_factory.hpp:77] Creating layer conv2_3_3x3/relu
I0622 01:36:30.179493  4748 net.cpp:106] Creating Layer conv2_3_3x3/relu
I0622 01:36:30.179497  4748 net.cpp:454] conv2_3_3x3/relu <- conv2_3_3x3
I0622 01:36:30.179502  4748 net.cpp:397] conv2_3_3x3/relu -> conv2_3_3x3 (in-place)
I0622 01:36:30.179509  4748 net.cpp:150] Setting up conv2_3_3x3/relu
I0622 01:36:30.179513  4748 net.cpp:157] Top shape: 2 64 119 119 (1812608)
I0622 01:36:30.179517  4748 net.cpp:165] Memory required for data: 932296240
I0622 01:36:30.179520  4748 layer_factory.hpp:77] Creating layer conv2_3_1x1_increase
I0622 01:36:30.179534  4748 net.cpp:106] Creating Layer conv2_3_1x1_increase
I0622 01:36:30.179538  4748 net.cpp:454] conv2_3_1x1_increase <- conv2_3_3x3
I0622 01:36:30.179545  4748 net.cpp:411] conv2_3_1x1_increase -> conv2_3_1x1_increase
I0622 01:36:30.180168  4748 net.cpp:150] Setting up conv2_3_1x1_increase
I0622 01:36:30.180178  4748 net.cpp:157] Top shape: 2 256 119 119 (7250432)
I0622 01:36:30.180182  4748 net.cpp:165] Memory required for data: 961297968
I0622 01:36:30.180187  4748 layer_factory.hpp:77] Creating layer conv2_3_1x1_increase/bn
I0622 01:36:30.180197  4748 net.cpp:106] Creating Layer conv2_3_1x1_increase/bn
I0622 01:36:30.180202  4748 net.cpp:454] conv2_3_1x1_increase/bn <- conv2_3_1x1_increase
I0622 01:36:30.180208  4748 net.cpp:397] conv2_3_1x1_increase/bn -> conv2_3_1x1_increase (in-place)
I0622 01:36:30.180402  4748 net.cpp:150] Setting up conv2_3_1x1_increase/bn
I0622 01:36:30.180408  4748 net.cpp:157] Top shape: 2 256 119 119 (7250432)
I0622 01:36:30.180418  4748 net.cpp:165] Memory required for data: 990299696
I0622 01:36:30.180450  4748 layer_factory.hpp:77] Creating layer conv2_3
I0622 01:36:30.180469  4748 net.cpp:106] Creating Layer conv2_3
I0622 01:36:30.180474  4748 net.cpp:454] conv2_3 <- conv2_2_conv2_2/relu_0_split_1
I0622 01:36:30.180480  4748 net.cpp:454] conv2_3 <- conv2_3_1x1_increase
I0622 01:36:30.180486  4748 net.cpp:411] conv2_3 -> conv2_3
I0622 01:36:30.180516  4748 net.cpp:150] Setting up conv2_3
I0622 01:36:30.180521  4748 net.cpp:157] Top shape: 2 256 119 119 (7250432)
I0622 01:36:30.180524  4748 net.cpp:165] Memory required for data: 1019301424
I0622 01:36:30.180529  4748 layer_factory.hpp:77] Creating layer conv2_3/relu
I0622 01:36:30.180538  4748 net.cpp:106] Creating Layer conv2_3/relu
I0622 01:36:30.180542  4748 net.cpp:454] conv2_3/relu <- conv2_3
I0622 01:36:30.180546  4748 net.cpp:397] conv2_3/relu -> conv2_3 (in-place)
I0622 01:36:30.180553  4748 net.cpp:150] Setting up conv2_3/relu
I0622 01:36:30.180557  4748 net.cpp:157] Top shape: 2 256 119 119 (7250432)
I0622 01:36:30.180562  4748 net.cpp:165] Memory required for data: 1048303152
I0622 01:36:30.180565  4748 layer_factory.hpp:77] Creating layer conv2_3_conv2_3/relu_0_split
I0622 01:36:30.180575  4748 net.cpp:106] Creating Layer conv2_3_conv2_3/relu_0_split
I0622 01:36:30.180579  4748 net.cpp:454] conv2_3_conv2_3/relu_0_split <- conv2_3
I0622 01:36:30.180584  4748 net.cpp:411] conv2_3_conv2_3/relu_0_split -> conv2_3_conv2_3/relu_0_split_0
I0622 01:36:30.180590  4748 net.cpp:411] conv2_3_conv2_3/relu_0_split -> conv2_3_conv2_3/relu_0_split_1
I0622 01:36:30.180665  4748 net.cpp:150] Setting up conv2_3_conv2_3/relu_0_split
I0622 01:36:30.180670  4748 net.cpp:157] Top shape: 2 256 119 119 (7250432)
I0622 01:36:30.180675  4748 net.cpp:157] Top shape: 2 256 119 119 (7250432)
I0622 01:36:30.180680  4748 net.cpp:165] Memory required for data: 1106306608
I0622 01:36:30.180683  4748 layer_factory.hpp:77] Creating layer conv3_1_1x1_reduce
I0622 01:36:30.180697  4748 net.cpp:106] Creating Layer conv3_1_1x1_reduce
I0622 01:36:30.180702  4748 net.cpp:454] conv3_1_1x1_reduce <- conv2_3_conv2_3/relu_0_split_0
I0622 01:36:30.180709  4748 net.cpp:411] conv3_1_1x1_reduce -> conv3_1_1x1_reduce
I0622 01:36:30.181803  4748 net.cpp:150] Setting up conv3_1_1x1_reduce
I0622 01:36:30.181812  4748 net.cpp:157] Top shape: 2 128 119 119 (3625216)
I0622 01:36:30.181815  4748 net.cpp:165] Memory required for data: 1120807472
I0622 01:36:30.181823  4748 layer_factory.hpp:77] Creating layer conv3_1_1x1_reduce/bn
I0622 01:36:30.181833  4748 net.cpp:106] Creating Layer conv3_1_1x1_reduce/bn
I0622 01:36:30.181838  4748 net.cpp:454] conv3_1_1x1_reduce/bn <- conv3_1_1x1_reduce
I0622 01:36:30.181843  4748 net.cpp:397] conv3_1_1x1_reduce/bn -> conv3_1_1x1_reduce (in-place)
I0622 01:36:30.182025  4748 net.cpp:150] Setting up conv3_1_1x1_reduce/bn
I0622 01:36:30.182032  4748 net.cpp:157] Top shape: 2 128 119 119 (3625216)
I0622 01:36:30.182035  4748 net.cpp:165] Memory required for data: 1135308336
I0622 01:36:30.182045  4748 layer_factory.hpp:77] Creating layer conv3_1_1x1_reduce/relu
I0622 01:36:30.182052  4748 net.cpp:106] Creating Layer conv3_1_1x1_reduce/relu
I0622 01:36:30.182056  4748 net.cpp:454] conv3_1_1x1_reduce/relu <- conv3_1_1x1_reduce
I0622 01:36:30.182061  4748 net.cpp:397] conv3_1_1x1_reduce/relu -> conv3_1_1x1_reduce (in-place)
I0622 01:36:30.182066  4748 net.cpp:150] Setting up conv3_1_1x1_reduce/relu
I0622 01:36:30.182071  4748 net.cpp:157] Top shape: 2 128 119 119 (3625216)
I0622 01:36:30.182075  4748 net.cpp:165] Memory required for data: 1149809200
I0622 01:36:30.182080  4748 layer_factory.hpp:77] Creating layer conv3_1_3x3
I0622 01:36:30.182087  4748 net.cpp:106] Creating Layer conv3_1_3x3
I0622 01:36:30.182091  4748 net.cpp:454] conv3_1_3x3 <- conv3_1_1x1_reduce
I0622 01:36:30.182097  4748 net.cpp:411] conv3_1_3x3 -> conv3_1_3x3
I0622 01:36:30.187090  4748 net.cpp:150] Setting up conv3_1_3x3
I0622 01:36:30.187104  4748 net.cpp:157] Top shape: 2 128 60 60 (921600)
I0622 01:36:30.187108  4748 net.cpp:165] Memory required for data: 1153495600
I0622 01:36:30.187114  4748 layer_factory.hpp:77] Creating layer conv3_1_3x3/bn
I0622 01:36:30.187124  4748 net.cpp:106] Creating Layer conv3_1_3x3/bn
I0622 01:36:30.187126  4748 net.cpp:454] conv3_1_3x3/bn <- conv3_1_3x3
I0622 01:36:30.187131  4748 net.cpp:397] conv3_1_3x3/bn -> conv3_1_3x3 (in-place)
I0622 01:36:30.187278  4748 net.cpp:150] Setting up conv3_1_3x3/bn
I0622 01:36:30.187284  4748 net.cpp:157] Top shape: 2 128 60 60 (921600)
I0622 01:36:30.187288  4748 net.cpp:165] Memory required for data: 1157182000
I0622 01:36:30.187292  4748 layer_factory.hpp:77] Creating layer conv3_1_3x3/relu
I0622 01:36:30.187297  4748 net.cpp:106] Creating Layer conv3_1_3x3/relu
I0622 01:36:30.187300  4748 net.cpp:454] conv3_1_3x3/relu <- conv3_1_3x3
I0622 01:36:30.187304  4748 net.cpp:397] conv3_1_3x3/relu -> conv3_1_3x3 (in-place)
I0622 01:36:30.187309  4748 net.cpp:150] Setting up conv3_1_3x3/relu
I0622 01:36:30.187311  4748 net.cpp:157] Top shape: 2 128 60 60 (921600)
I0622 01:36:30.187314  4748 net.cpp:165] Memory required for data: 1160868400
I0622 01:36:30.187316  4748 layer_factory.hpp:77] Creating layer conv3_1_1x1_increase
I0622 01:36:30.187322  4748 net.cpp:106] Creating Layer conv3_1_1x1_increase
I0622 01:36:30.187325  4748 net.cpp:454] conv3_1_1x1_increase <- conv3_1_3x3
I0622 01:36:30.187330  4748 net.cpp:411] conv3_1_1x1_increase -> conv3_1_1x1_increase
I0622 01:36:30.189328  4748 net.cpp:150] Setting up conv3_1_1x1_increase
I0622 01:36:30.189337  4748 net.cpp:157] Top shape: 2 512 60 60 (3686400)
I0622 01:36:30.189352  4748 net.cpp:165] Memory required for data: 1175614000
I0622 01:36:30.189357  4748 layer_factory.hpp:77] Creating layer conv3_1_1x1_increase/bn
I0622 01:36:30.189365  4748 net.cpp:106] Creating Layer conv3_1_1x1_increase/bn
I0622 01:36:30.189370  4748 net.cpp:454] conv3_1_1x1_increase/bn <- conv3_1_1x1_increase
I0622 01:36:30.189376  4748 net.cpp:397] conv3_1_1x1_increase/bn -> conv3_1_1x1_increase (in-place)
I0622 01:36:30.190225  4748 net.cpp:150] Setting up conv3_1_1x1_increase/bn
I0622 01:36:30.190233  4748 net.cpp:157] Top shape: 2 512 60 60 (3686400)
I0622 01:36:30.190237  4748 net.cpp:165] Memory required for data: 1190359600
I0622 01:36:30.190243  4748 layer_factory.hpp:77] Creating layer conv3_1_1x1_proj
I0622 01:36:30.190251  4748 net.cpp:106] Creating Layer conv3_1_1x1_proj
I0622 01:36:30.190254  4748 net.cpp:454] conv3_1_1x1_proj <- conv2_3_conv2_3/relu_0_split_1
I0622 01:36:30.190259  4748 net.cpp:411] conv3_1_1x1_proj -> conv3_1_1x1_proj
I0622 01:36:30.194187  4748 net.cpp:150] Setting up conv3_1_1x1_proj
I0622 01:36:30.194238  4748 net.cpp:157] Top shape: 2 512 60 60 (3686400)
I0622 01:36:30.194244  4748 net.cpp:165] Memory required for data: 1205105200
I0622 01:36:30.194257  4748 layer_factory.hpp:77] Creating layer conv3_1_1x1_proj/bn
I0622 01:36:30.194279  4748 net.cpp:106] Creating Layer conv3_1_1x1_proj/bn
I0622 01:36:30.194286  4748 net.cpp:454] conv3_1_1x1_proj/bn <- conv3_1_1x1_proj
I0622 01:36:30.194298  4748 net.cpp:397] conv3_1_1x1_proj/bn -> conv3_1_1x1_proj (in-place)
I0622 01:36:30.194514  4748 net.cpp:150] Setting up conv3_1_1x1_proj/bn
I0622 01:36:30.194520  4748 net.cpp:157] Top shape: 2 512 60 60 (3686400)
I0622 01:36:30.194525  4748 net.cpp:165] Memory required for data: 1219850800
I0622 01:36:30.194532  4748 layer_factory.hpp:77] Creating layer conv3_1
I0622 01:36:30.194547  4748 net.cpp:106] Creating Layer conv3_1
I0622 01:36:30.194551  4748 net.cpp:454] conv3_1 <- conv3_1_1x1_proj
I0622 01:36:30.194556  4748 net.cpp:454] conv3_1 <- conv3_1_1x1_increase
I0622 01:36:30.194563  4748 net.cpp:411] conv3_1 -> conv3_1
I0622 01:36:30.194604  4748 net.cpp:150] Setting up conv3_1
I0622 01:36:30.194612  4748 net.cpp:157] Top shape: 2 512 60 60 (3686400)
I0622 01:36:30.194617  4748 net.cpp:165] Memory required for data: 1234596400
I0622 01:36:30.194622  4748 layer_factory.hpp:77] Creating layer conv3_1/relu
I0622 01:36:30.194633  4748 net.cpp:106] Creating Layer conv3_1/relu
I0622 01:36:30.194636  4748 net.cpp:454] conv3_1/relu <- conv3_1
I0622 01:36:30.194643  4748 net.cpp:397] conv3_1/relu -> conv3_1 (in-place)
I0622 01:36:30.194650  4748 net.cpp:150] Setting up conv3_1/relu
I0622 01:36:30.194655  4748 net.cpp:157] Top shape: 2 512 60 60 (3686400)
I0622 01:36:30.194659  4748 net.cpp:165] Memory required for data: 1249342000
I0622 01:36:30.194664  4748 layer_factory.hpp:77] Creating layer conv3_1_conv3_1/relu_0_split
I0622 01:36:30.194670  4748 net.cpp:106] Creating Layer conv3_1_conv3_1/relu_0_split
I0622 01:36:30.194675  4748 net.cpp:454] conv3_1_conv3_1/relu_0_split <- conv3_1
I0622 01:36:30.194680  4748 net.cpp:411] conv3_1_conv3_1/relu_0_split -> conv3_1_conv3_1/relu_0_split_0
I0622 01:36:30.194686  4748 net.cpp:411] conv3_1_conv3_1/relu_0_split -> conv3_1_conv3_1/relu_0_split_1
I0622 01:36:30.194715  4748 net.cpp:150] Setting up conv3_1_conv3_1/relu_0_split
I0622 01:36:30.194721  4748 net.cpp:157] Top shape: 2 512 60 60 (3686400)
I0622 01:36:30.194725  4748 net.cpp:157] Top shape: 2 512 60 60 (3686400)
I0622 01:36:30.194730  4748 net.cpp:165] Memory required for data: 1278833200
I0622 01:36:30.194735  4748 layer_factory.hpp:77] Creating layer conv3_2_1x1_reduce
I0622 01:36:30.194749  4748 net.cpp:106] Creating Layer conv3_2_1x1_reduce
I0622 01:36:30.194753  4748 net.cpp:454] conv3_2_1x1_reduce <- conv3_1_conv3_1/relu_0_split_0
I0622 01:36:30.194761  4748 net.cpp:411] conv3_2_1x1_reduce -> conv3_2_1x1_reduce
I0622 01:36:30.196852  4748 net.cpp:150] Setting up conv3_2_1x1_reduce
I0622 01:36:30.196888  4748 net.cpp:157] Top shape: 2 128 60 60 (921600)
I0622 01:36:30.196982  4748 net.cpp:165] Memory required for data: 1282519600
I0622 01:36:30.196995  4748 layer_factory.hpp:77] Creating layer conv3_2_1x1_reduce/bn
I0622 01:36:30.197013  4748 net.cpp:106] Creating Layer conv3_2_1x1_reduce/bn
I0622 01:36:30.197021  4748 net.cpp:454] conv3_2_1x1_reduce/bn <- conv3_2_1x1_reduce
I0622 01:36:30.197032  4748 net.cpp:397] conv3_2_1x1_reduce/bn -> conv3_2_1x1_reduce (in-place)
I0622 01:36:30.197263  4748 net.cpp:150] Setting up conv3_2_1x1_reduce/bn
I0622 01:36:30.197270  4748 net.cpp:157] Top shape: 2 128 60 60 (921600)
I0622 01:36:30.197274  4748 net.cpp:165] Memory required for data: 1286206000
I0622 01:36:30.197283  4748 layer_factory.hpp:77] Creating layer conv3_2_1x1_reduce/relu
I0622 01:36:30.197293  4748 net.cpp:106] Creating Layer conv3_2_1x1_reduce/relu
I0622 01:36:30.197299  4748 net.cpp:454] conv3_2_1x1_reduce/relu <- conv3_2_1x1_reduce
I0622 01:36:30.206643  4748 net.cpp:397] conv3_2_1x1_reduce/relu -> conv3_2_1x1_reduce (in-place)
I0622 01:36:30.206719  4748 net.cpp:150] Setting up conv3_2_1x1_reduce/relu
I0622 01:36:30.206737  4748 net.cpp:157] Top shape: 2 128 60 60 (921600)
I0622 01:36:30.206743  4748 net.cpp:165] Memory required for data: 1289892400
I0622 01:36:30.206753  4748 layer_factory.hpp:77] Creating layer conv3_2_3x3
I0622 01:36:30.206795  4748 net.cpp:106] Creating Layer conv3_2_3x3
I0622 01:36:30.206804  4748 net.cpp:454] conv3_2_3x3 <- conv3_2_1x1_reduce
I0622 01:36:30.206811  4748 net.cpp:411] conv3_2_3x3 -> conv3_2_3x3
I0622 01:36:30.212118  4748 net.cpp:150] Setting up conv3_2_3x3
I0622 01:36:30.212141  4748 net.cpp:157] Top shape: 2 128 60 60 (921600)
I0622 01:36:30.212146  4748 net.cpp:165] Memory required for data: 1293578800
I0622 01:36:30.212153  4748 layer_factory.hpp:77] Creating layer conv3_2_3x3/bn
I0622 01:36:30.212173  4748 net.cpp:106] Creating Layer conv3_2_3x3/bn
I0622 01:36:30.212178  4748 net.cpp:454] conv3_2_3x3/bn <- conv3_2_3x3
I0622 01:36:30.212185  4748 net.cpp:397] conv3_2_3x3/bn -> conv3_2_3x3 (in-place)
I0622 01:36:30.212371  4748 net.cpp:150] Setting up conv3_2_3x3/bn
I0622 01:36:30.212378  4748 net.cpp:157] Top shape: 2 128 60 60 (921600)
I0622 01:36:30.212381  4748 net.cpp:165] Memory required for data: 1297265200
I0622 01:36:30.212390  4748 layer_factory.hpp:77] Creating layer conv3_2_3x3/relu
I0622 01:36:30.212396  4748 net.cpp:106] Creating Layer conv3_2_3x3/relu
I0622 01:36:30.212400  4748 net.cpp:454] conv3_2_3x3/relu <- conv3_2_3x3
I0622 01:36:30.212404  4748 net.cpp:397] conv3_2_3x3/relu -> conv3_2_3x3 (in-place)
I0622 01:36:30.212410  4748 net.cpp:150] Setting up conv3_2_3x3/relu
I0622 01:36:30.212415  4748 net.cpp:157] Top shape: 2 128 60 60 (921600)
I0622 01:36:30.212419  4748 net.cpp:165] Memory required for data: 1300951600
I0622 01:36:30.212424  4748 layer_factory.hpp:77] Creating layer conv3_2_1x1_increase
I0622 01:36:30.212431  4748 net.cpp:106] Creating Layer conv3_2_1x1_increase
I0622 01:36:30.212435  4748 net.cpp:454] conv3_2_1x1_increase <- conv3_2_3x3
I0622 01:36:30.212441  4748 net.cpp:411] conv3_2_1x1_increase -> conv3_2_1x1_increase
I0622 01:36:30.216176  4748 net.cpp:150] Setting up conv3_2_1x1_increase
I0622 01:36:30.216187  4748 net.cpp:157] Top shape: 2 512 60 60 (3686400)
I0622 01:36:30.216192  4748 net.cpp:165] Memory required for data: 1315697200
I0622 01:36:30.216197  4748 layer_factory.hpp:77] Creating layer conv3_2_1x1_increase/bn
I0622 01:36:30.216207  4748 net.cpp:106] Creating Layer conv3_2_1x1_increase/bn
I0622 01:36:30.216209  4748 net.cpp:454] conv3_2_1x1_increase/bn <- conv3_2_1x1_increase
I0622 01:36:30.216214  4748 net.cpp:397] conv3_2_1x1_increase/bn -> conv3_2_1x1_increase (in-place)
I0622 01:36:30.216373  4748 net.cpp:150] Setting up conv3_2_1x1_increase/bn
I0622 01:36:30.216382  4748 net.cpp:157] Top shape: 2 512 60 60 (3686400)
I0622 01:36:30.216384  4748 net.cpp:165] Memory required for data: 1330442800
I0622 01:36:30.216392  4748 layer_factory.hpp:77] Creating layer conv3_2
I0622 01:36:30.216398  4748 net.cpp:106] Creating Layer conv3_2
I0622 01:36:30.216400  4748 net.cpp:454] conv3_2 <- conv3_1_conv3_1/relu_0_split_1
I0622 01:36:30.216418  4748 net.cpp:454] conv3_2 <- conv3_2_1x1_increase
I0622 01:36:30.216421  4748 net.cpp:411] conv3_2 -> conv3_2
I0622 01:36:30.216437  4748 net.cpp:150] Setting up conv3_2
I0622 01:36:30.216441  4748 net.cpp:157] Top shape: 2 512 60 60 (3686400)
I0622 01:36:30.216444  4748 net.cpp:165] Memory required for data: 1345188400
I0622 01:36:30.216446  4748 layer_factory.hpp:77] Creating layer conv3_2/relu
I0622 01:36:30.216452  4748 net.cpp:106] Creating Layer conv3_2/relu
I0622 01:36:30.216456  4748 net.cpp:454] conv3_2/relu <- conv3_2
I0622 01:36:30.216461  4748 net.cpp:397] conv3_2/relu -> conv3_2 (in-place)
I0622 01:36:30.216467  4748 net.cpp:150] Setting up conv3_2/relu
I0622 01:36:30.216473  4748 net.cpp:157] Top shape: 2 512 60 60 (3686400)
I0622 01:36:30.216477  4748 net.cpp:165] Memory required for data: 1359934000
I0622 01:36:30.216481  4748 layer_factory.hpp:77] Creating layer conv3_2_conv3_2/relu_0_split
I0622 01:36:30.216488  4748 net.cpp:106] Creating Layer conv3_2_conv3_2/relu_0_split
I0622 01:36:30.216492  4748 net.cpp:454] conv3_2_conv3_2/relu_0_split <- conv3_2
I0622 01:36:30.216497  4748 net.cpp:411] conv3_2_conv3_2/relu_0_split -> conv3_2_conv3_2/relu_0_split_0
I0622 01:36:30.216503  4748 net.cpp:411] conv3_2_conv3_2/relu_0_split -> conv3_2_conv3_2/relu_0_split_1
I0622 01:36:30.216536  4748 net.cpp:150] Setting up conv3_2_conv3_2/relu_0_split
I0622 01:36:30.216543  4748 net.cpp:157] Top shape: 2 512 60 60 (3686400)
I0622 01:36:30.216548  4748 net.cpp:157] Top shape: 2 512 60 60 (3686400)
I0622 01:36:30.216552  4748 net.cpp:165] Memory required for data: 1389425200
I0622 01:36:30.216555  4748 layer_factory.hpp:77] Creating layer conv3_3_1x1_reduce
I0622 01:36:30.216564  4748 net.cpp:106] Creating Layer conv3_3_1x1_reduce
I0622 01:36:30.216568  4748 net.cpp:454] conv3_3_1x1_reduce <- conv3_2_conv3_2/relu_0_split_0
I0622 01:36:30.216574  4748 net.cpp:411] conv3_3_1x1_reduce -> conv3_3_1x1_reduce
I0622 01:36:30.218603  4748 net.cpp:150] Setting up conv3_3_1x1_reduce
I0622 01:36:30.218611  4748 net.cpp:157] Top shape: 2 128 60 60 (921600)
I0622 01:36:30.218616  4748 net.cpp:165] Memory required for data: 1393111600
I0622 01:36:30.218621  4748 layer_factory.hpp:77] Creating layer conv3_3_1x1_reduce/bn
I0622 01:36:30.218627  4748 net.cpp:106] Creating Layer conv3_3_1x1_reduce/bn
I0622 01:36:30.218632  4748 net.cpp:454] conv3_3_1x1_reduce/bn <- conv3_3_1x1_reduce
I0622 01:36:30.218637  4748 net.cpp:397] conv3_3_1x1_reduce/bn -> conv3_3_1x1_reduce (in-place)
I0622 01:36:30.218804  4748 net.cpp:150] Setting up conv3_3_1x1_reduce/bn
I0622 01:36:30.218811  4748 net.cpp:157] Top shape: 2 128 60 60 (921600)
I0622 01:36:30.218816  4748 net.cpp:165] Memory required for data: 1396798000
I0622 01:36:30.218824  4748 layer_factory.hpp:77] Creating layer conv3_3_1x1_reduce/relu
I0622 01:36:30.218832  4748 net.cpp:106] Creating Layer conv3_3_1x1_reduce/relu
I0622 01:36:30.218835  4748 net.cpp:454] conv3_3_1x1_reduce/relu <- conv3_3_1x1_reduce
I0622 01:36:30.218839  4748 net.cpp:397] conv3_3_1x1_reduce/relu -> conv3_3_1x1_reduce (in-place)
I0622 01:36:30.218845  4748 net.cpp:150] Setting up conv3_3_1x1_reduce/relu
I0622 01:36:30.218850  4748 net.cpp:157] Top shape: 2 128 60 60 (921600)
I0622 01:36:30.218854  4748 net.cpp:165] Memory required for data: 1400484400
I0622 01:36:30.218858  4748 layer_factory.hpp:77] Creating layer conv3_3_3x3
I0622 01:36:30.218866  4748 net.cpp:106] Creating Layer conv3_3_3x3
I0622 01:36:30.218870  4748 net.cpp:454] conv3_3_3x3 <- conv3_3_1x1_reduce
I0622 01:36:30.218878  4748 net.cpp:411] conv3_3_3x3 -> conv3_3_3x3
I0622 01:36:30.224011  4748 net.cpp:150] Setting up conv3_3_3x3
I0622 01:36:30.224052  4748 net.cpp:157] Top shape: 2 128 60 60 (921600)
I0622 01:36:30.224057  4748 net.cpp:165] Memory required for data: 1404170800
I0622 01:36:30.224071  4748 layer_factory.hpp:77] Creating layer conv3_3_3x3/bn
I0622 01:36:30.224088  4748 net.cpp:106] Creating Layer conv3_3_3x3/bn
I0622 01:36:30.224097  4748 net.cpp:454] conv3_3_3x3/bn <- conv3_3_3x3
I0622 01:36:30.224158  4748 net.cpp:397] conv3_3_3x3/bn -> conv3_3_3x3 (in-place)
I0622 01:36:30.224347  4748 net.cpp:150] Setting up conv3_3_3x3/bn
I0622 01:36:30.224354  4748 net.cpp:157] Top shape: 2 128 60 60 (921600)
I0622 01:36:30.224359  4748 net.cpp:165] Memory required for data: 1407857200
I0622 01:36:30.224366  4748 layer_factory.hpp:77] Creating layer conv3_3_3x3/relu
I0622 01:36:30.224373  4748 net.cpp:106] Creating Layer conv3_3_3x3/relu
I0622 01:36:30.224377  4748 net.cpp:454] conv3_3_3x3/relu <- conv3_3_3x3
I0622 01:36:30.224382  4748 net.cpp:397] conv3_3_3x3/relu -> conv3_3_3x3 (in-place)
I0622 01:36:30.224390  4748 net.cpp:150] Setting up conv3_3_3x3/relu
I0622 01:36:30.224395  4748 net.cpp:157] Top shape: 2 128 60 60 (921600)
I0622 01:36:30.224398  4748 net.cpp:165] Memory required for data: 1411543600
I0622 01:36:30.224403  4748 layer_factory.hpp:77] Creating layer conv3_3_1x1_increase
I0622 01:36:30.224416  4748 net.cpp:106] Creating Layer conv3_3_1x1_increase
I0622 01:36:30.224421  4748 net.cpp:454] conv3_3_1x1_increase <- conv3_3_3x3
I0622 01:36:30.224429  4748 net.cpp:411] conv3_3_1x1_increase -> conv3_3_1x1_increase
I0622 01:36:30.226433  4748 net.cpp:150] Setting up conv3_3_1x1_increase
I0622 01:36:30.226440  4748 net.cpp:157] Top shape: 2 512 60 60 (3686400)
I0622 01:36:30.226444  4748 net.cpp:165] Memory required for data: 1426289200
I0622 01:36:30.226447  4748 layer_factory.hpp:77] Creating layer conv3_3_1x1_increase/bn
I0622 01:36:30.226454  4748 net.cpp:106] Creating Layer conv3_3_1x1_increase/bn
I0622 01:36:30.226456  4748 net.cpp:454] conv3_3_1x1_increase/bn <- conv3_3_1x1_increase
I0622 01:36:30.226464  4748 net.cpp:397] conv3_3_1x1_increase/bn -> conv3_3_1x1_increase (in-place)
I0622 01:36:30.226621  4748 net.cpp:150] Setting up conv3_3_1x1_increase/bn
I0622 01:36:30.226629  4748 net.cpp:157] Top shape: 2 512 60 60 (3686400)
I0622 01:36:30.226634  4748 net.cpp:165] Memory required for data: 1441034800
I0622 01:36:30.226641  4748 layer_factory.hpp:77] Creating layer conv3_3
I0622 01:36:30.226649  4748 net.cpp:106] Creating Layer conv3_3
I0622 01:36:30.226653  4748 net.cpp:454] conv3_3 <- conv3_2_conv3_2/relu_0_split_1
I0622 01:36:30.226658  4748 net.cpp:454] conv3_3 <- conv3_3_1x1_increase
I0622 01:36:30.226665  4748 net.cpp:411] conv3_3 -> conv3_3
I0622 01:36:30.226686  4748 net.cpp:150] Setting up conv3_3
I0622 01:36:30.226691  4748 net.cpp:157] Top shape: 2 512 60 60 (3686400)
I0622 01:36:30.226694  4748 net.cpp:165] Memory required for data: 1455780400
I0622 01:36:30.226698  4748 layer_factory.hpp:77] Creating layer conv3_3/relu
I0622 01:36:30.226704  4748 net.cpp:106] Creating Layer conv3_3/relu
I0622 01:36:30.226708  4748 net.cpp:454] conv3_3/relu <- conv3_3
I0622 01:36:30.226712  4748 net.cpp:397] conv3_3/relu -> conv3_3 (in-place)
I0622 01:36:30.226718  4748 net.cpp:150] Setting up conv3_3/relu
I0622 01:36:30.226724  4748 net.cpp:157] Top shape: 2 512 60 60 (3686400)
I0622 01:36:30.226728  4748 net.cpp:165] Memory required for data: 1470526000
I0622 01:36:30.226732  4748 layer_factory.hpp:77] Creating layer conv3_3_conv3_3/relu_0_split
I0622 01:36:30.226740  4748 net.cpp:106] Creating Layer conv3_3_conv3_3/relu_0_split
I0622 01:36:30.226744  4748 net.cpp:454] conv3_3_conv3_3/relu_0_split <- conv3_3
I0622 01:36:30.226749  4748 net.cpp:411] conv3_3_conv3_3/relu_0_split -> conv3_3_conv3_3/relu_0_split_0
I0622 01:36:30.226755  4748 net.cpp:411] conv3_3_conv3_3/relu_0_split -> conv3_3_conv3_3/relu_0_split_1
I0622 01:36:30.226785  4748 net.cpp:150] Setting up conv3_3_conv3_3/relu_0_split
I0622 01:36:30.226791  4748 net.cpp:157] Top shape: 2 512 60 60 (3686400)
I0622 01:36:30.226796  4748 net.cpp:157] Top shape: 2 512 60 60 (3686400)
I0622 01:36:30.226800  4748 net.cpp:165] Memory required for data: 1500017200
I0622 01:36:30.226804  4748 layer_factory.hpp:77] Creating layer conv3_4_1x1_reduce
I0622 01:36:30.226812  4748 net.cpp:106] Creating Layer conv3_4_1x1_reduce
I0622 01:36:30.226816  4748 net.cpp:454] conv3_4_1x1_reduce <- conv3_3_conv3_3/relu_0_split_0
I0622 01:36:30.226824  4748 net.cpp:411] conv3_4_1x1_reduce -> conv3_4_1x1_reduce
I0622 01:36:30.228853  4748 net.cpp:150] Setting up conv3_4_1x1_reduce
I0622 01:36:30.228862  4748 net.cpp:157] Top shape: 2 128 60 60 (921600)
I0622 01:36:30.228865  4748 net.cpp:165] Memory required for data: 1503703600
I0622 01:36:30.228871  4748 layer_factory.hpp:77] Creating layer conv3_4_1x1_reduce/bn
I0622 01:36:30.228879  4748 net.cpp:106] Creating Layer conv3_4_1x1_reduce/bn
I0622 01:36:30.228884  4748 net.cpp:454] conv3_4_1x1_reduce/bn <- conv3_4_1x1_reduce
I0622 01:36:30.228890  4748 net.cpp:397] conv3_4_1x1_reduce/bn -> conv3_4_1x1_reduce (in-place)
I0622 01:36:30.229061  4748 net.cpp:150] Setting up conv3_4_1x1_reduce/bn
I0622 01:36:30.229068  4748 net.cpp:157] Top shape: 2 128 60 60 (921600)
I0622 01:36:30.229073  4748 net.cpp:165] Memory required for data: 1507390000
I0622 01:36:30.229080  4748 layer_factory.hpp:77] Creating layer conv3_4_1x1_reduce/relu
I0622 01:36:30.229085  4748 net.cpp:106] Creating Layer conv3_4_1x1_reduce/relu
I0622 01:36:30.229089  4748 net.cpp:454] conv3_4_1x1_reduce/relu <- conv3_4_1x1_reduce
I0622 01:36:30.229094  4748 net.cpp:397] conv3_4_1x1_reduce/relu -> conv3_4_1x1_reduce (in-place)
I0622 01:36:30.229100  4748 net.cpp:150] Setting up conv3_4_1x1_reduce/relu
I0622 01:36:30.229106  4748 net.cpp:157] Top shape: 2 128 60 60 (921600)
I0622 01:36:30.229110  4748 net.cpp:165] Memory required for data: 1511076400
I0622 01:36:30.229113  4748 layer_factory.hpp:77] Creating layer conv3_4_3x3
I0622 01:36:30.229121  4748 net.cpp:106] Creating Layer conv3_4_3x3
I0622 01:36:30.229125  4748 net.cpp:454] conv3_4_3x3 <- conv3_4_1x1_reduce
I0622 01:36:30.229131  4748 net.cpp:411] conv3_4_3x3 -> conv3_4_3x3
I0622 01:36:30.233510  4748 net.cpp:150] Setting up conv3_4_3x3
I0622 01:36:30.233553  4748 net.cpp:157] Top shape: 2 128 60 60 (921600)
I0622 01:36:30.233558  4748 net.cpp:165] Memory required for data: 1514762800
I0622 01:36:30.233567  4748 layer_factory.hpp:77] Creating layer conv3_4_3x3/bn
I0622 01:36:30.233580  4748 net.cpp:106] Creating Layer conv3_4_3x3/bn
I0622 01:36:30.233588  4748 net.cpp:454] conv3_4_3x3/bn <- conv3_4_3x3
I0622 01:36:30.233595  4748 net.cpp:397] conv3_4_3x3/bn -> conv3_4_3x3 (in-place)
I0622 01:36:30.233803  4748 net.cpp:150] Setting up conv3_4_3x3/bn
I0622 01:36:30.233810  4748 net.cpp:157] Top shape: 2 128 60 60 (921600)
I0622 01:36:30.233814  4748 net.cpp:165] Memory required for data: 1518449200
I0622 01:36:30.233822  4748 layer_factory.hpp:77] Creating layer conv3_4_3x3/relu
I0622 01:36:30.233830  4748 net.cpp:106] Creating Layer conv3_4_3x3/relu
I0622 01:36:30.233834  4748 net.cpp:454] conv3_4_3x3/relu <- conv3_4_3x3
I0622 01:36:30.233839  4748 net.cpp:397] conv3_4_3x3/relu -> conv3_4_3x3 (in-place)
I0622 01:36:30.233845  4748 net.cpp:150] Setting up conv3_4_3x3/relu
I0622 01:36:30.233851  4748 net.cpp:157] Top shape: 2 128 60 60 (921600)
I0622 01:36:30.233855  4748 net.cpp:165] Memory required for data: 1522135600
I0622 01:36:30.233858  4748 layer_factory.hpp:77] Creating layer conv3_4_1x1_increase
I0622 01:36:30.233867  4748 net.cpp:106] Creating Layer conv3_4_1x1_increase
I0622 01:36:30.233871  4748 net.cpp:454] conv3_4_1x1_increase <- conv3_4_3x3
I0622 01:36:30.233880  4748 net.cpp:411] conv3_4_1x1_increase -> conv3_4_1x1_increase
I0622 01:36:30.235867  4748 net.cpp:150] Setting up conv3_4_1x1_increase
I0622 01:36:30.235874  4748 net.cpp:157] Top shape: 2 512 60 60 (3686400)
I0622 01:36:30.235878  4748 net.cpp:165] Memory required for data: 1536881200
I0622 01:36:30.235883  4748 layer_factory.hpp:77] Creating layer conv3_4_1x1_increase/bn
I0622 01:36:30.235889  4748 net.cpp:106] Creating Layer conv3_4_1x1_increase/bn
I0622 01:36:30.235894  4748 net.cpp:454] conv3_4_1x1_increase/bn <- conv3_4_1x1_increase
I0622 01:36:30.235901  4748 net.cpp:397] conv3_4_1x1_increase/bn -> conv3_4_1x1_increase (in-place)
I0622 01:36:30.236081  4748 net.cpp:150] Setting up conv3_4_1x1_increase/bn
I0622 01:36:30.236088  4748 net.cpp:157] Top shape: 2 512 60 60 (3686400)
I0622 01:36:30.236091  4748 net.cpp:165] Memory required for data: 1551626800
I0622 01:36:30.236136  4748 layer_factory.hpp:77] Creating layer conv3_4
I0622 01:36:30.236145  4748 net.cpp:106] Creating Layer conv3_4
I0622 01:36:30.237017  4748 net.cpp:454] conv3_4 <- conv3_3_conv3_3/relu_0_split_1
I0622 01:36:30.237025  4748 net.cpp:454] conv3_4 <- conv3_4_1x1_increase
I0622 01:36:30.237035  4748 net.cpp:411] conv3_4 -> conv3_4
I0622 01:36:30.237069  4748 net.cpp:150] Setting up conv3_4
I0622 01:36:30.237076  4748 net.cpp:157] Top shape: 2 512 60 60 (3686400)
I0622 01:36:30.237079  4748 net.cpp:165] Memory required for data: 1566372400
I0622 01:36:30.237082  4748 layer_factory.hpp:77] Creating layer conv3_4/relu
I0622 01:36:30.237089  4748 net.cpp:106] Creating Layer conv3_4/relu
I0622 01:36:30.237093  4748 net.cpp:454] conv3_4/relu <- conv3_4
I0622 01:36:30.237098  4748 net.cpp:397] conv3_4/relu -> conv3_4 (in-place)
I0622 01:36:30.237103  4748 net.cpp:150] Setting up conv3_4/relu
I0622 01:36:30.237108  4748 net.cpp:157] Top shape: 2 512 60 60 (3686400)
I0622 01:36:30.237112  4748 net.cpp:165] Memory required for data: 1581118000
I0622 01:36:30.237116  4748 layer_factory.hpp:77] Creating layer conv3_4_conv3_4/relu_0_split
I0622 01:36:30.237126  4748 net.cpp:106] Creating Layer conv3_4_conv3_4/relu_0_split
I0622 01:36:30.237130  4748 net.cpp:454] conv3_4_conv3_4/relu_0_split <- conv3_4
I0622 01:36:30.237138  4748 net.cpp:411] conv3_4_conv3_4/relu_0_split -> conv3_4_conv3_4/relu_0_split_0
I0622 01:36:30.237143  4748 net.cpp:411] conv3_4_conv3_4/relu_0_split -> conv3_4_conv3_4/relu_0_split_1
I0622 01:36:30.237172  4748 net.cpp:150] Setting up conv3_4_conv3_4/relu_0_split
I0622 01:36:30.237179  4748 net.cpp:157] Top shape: 2 512 60 60 (3686400)
I0622 01:36:30.237184  4748 net.cpp:157] Top shape: 2 512 60 60 (3686400)
I0622 01:36:30.237186  4748 net.cpp:165] Memory required for data: 1610609200
I0622 01:36:30.237190  4748 layer_factory.hpp:77] Creating layer conv4_1_1x1_reduce
I0622 01:36:30.237205  4748 net.cpp:106] Creating Layer conv4_1_1x1_reduce
I0622 01:36:30.237210  4748 net.cpp:454] conv4_1_1x1_reduce <- conv3_4_conv3_4/relu_0_split_0
I0622 01:36:30.237216  4748 net.cpp:411] conv4_1_1x1_reduce -> conv4_1_1x1_reduce
I0622 01:36:30.240918  4748 net.cpp:150] Setting up conv4_1_1x1_reduce
I0622 01:36:30.240949  4748 net.cpp:157] Top shape: 2 256 60 60 (1843200)
I0622 01:36:30.240954  4748 net.cpp:165] Memory required for data: 1617982000
I0622 01:36:30.240962  4748 layer_factory.hpp:77] Creating layer conv4_1_1x1_reduce/bn
I0622 01:36:30.240973  4748 net.cpp:106] Creating Layer conv4_1_1x1_reduce/bn
I0622 01:36:30.240979  4748 net.cpp:454] conv4_1_1x1_reduce/bn <- conv4_1_1x1_reduce
I0622 01:36:30.240988  4748 net.cpp:397] conv4_1_1x1_reduce/bn -> conv4_1_1x1_reduce (in-place)
I0622 01:36:30.241168  4748 net.cpp:150] Setting up conv4_1_1x1_reduce/bn
I0622 01:36:30.241174  4748 net.cpp:157] Top shape: 2 256 60 60 (1843200)
I0622 01:36:30.241178  4748 net.cpp:165] Memory required for data: 1625354800
I0622 01:36:30.241185  4748 layer_factory.hpp:77] Creating layer conv4_1_1x1_reduce/relu
I0622 01:36:30.241196  4748 net.cpp:106] Creating Layer conv4_1_1x1_reduce/relu
I0622 01:36:30.241199  4748 net.cpp:454] conv4_1_1x1_reduce/relu <- conv4_1_1x1_reduce
I0622 01:36:30.241204  4748 net.cpp:397] conv4_1_1x1_reduce/relu -> conv4_1_1x1_reduce (in-place)
I0622 01:36:30.241209  4748 net.cpp:150] Setting up conv4_1_1x1_reduce/relu
I0622 01:36:30.241214  4748 net.cpp:157] Top shape: 2 256 60 60 (1843200)
I0622 01:36:30.241225  4748 net.cpp:165] Memory required for data: 1632727600
I0622 01:36:30.241230  4748 layer_factory.hpp:77] Creating layer conv4_1_3x3
I0622 01:36:30.241237  4748 net.cpp:106] Creating Layer conv4_1_3x3
I0622 01:36:30.241241  4748 net.cpp:454] conv4_1_3x3 <- conv4_1_1x1_reduce
I0622 01:36:30.241248  4748 net.cpp:411] conv4_1_3x3 -> conv4_1_3x3
I0622 01:36:30.259151  4748 net.cpp:150] Setting up conv4_1_3x3
I0622 01:36:30.259181  4748 net.cpp:157] Top shape: 2 256 60 60 (1843200)
I0622 01:36:30.259186  4748 net.cpp:165] Memory required for data: 1640100400
I0622 01:36:30.259228  4748 layer_factory.hpp:77] Creating layer conv4_1_3x3/bn
I0622 01:36:30.259241  4748 net.cpp:106] Creating Layer conv4_1_3x3/bn
I0622 01:36:30.259246  4748 net.cpp:454] conv4_1_3x3/bn <- conv4_1_3x3
I0622 01:36:30.259253  4748 net.cpp:397] conv4_1_3x3/bn -> conv4_1_3x3 (in-place)
I0622 01:36:30.259486  4748 net.cpp:150] Setting up conv4_1_3x3/bn
I0622 01:36:30.259493  4748 net.cpp:157] Top shape: 2 256 60 60 (1843200)
I0622 01:36:30.259496  4748 net.cpp:165] Memory required for data: 1647473200
I0622 01:36:30.259505  4748 layer_factory.hpp:77] Creating layer conv4_1_3x3/relu
I0622 01:36:30.259510  4748 net.cpp:106] Creating Layer conv4_1_3x3/relu
I0622 01:36:30.259513  4748 net.cpp:454] conv4_1_3x3/relu <- conv4_1_3x3
I0622 01:36:30.259518  4748 net.cpp:397] conv4_1_3x3/relu -> conv4_1_3x3 (in-place)
I0622 01:36:30.259526  4748 net.cpp:150] Setting up conv4_1_3x3/relu
I0622 01:36:30.259531  4748 net.cpp:157] Top shape: 2 256 60 60 (1843200)
I0622 01:36:30.259533  4748 net.cpp:165] Memory required for data: 1654846000
I0622 01:36:30.259537  4748 layer_factory.hpp:77] Creating layer conv4_1_1x1_increase
I0622 01:36:30.259558  4748 net.cpp:106] Creating Layer conv4_1_1x1_increase
I0622 01:36:30.259562  4748 net.cpp:454] conv4_1_1x1_increase <- conv4_1_3x3
I0622 01:36:30.259567  4748 net.cpp:411] conv4_1_1x1_increase -> conv4_1_1x1_increase
I0622 01:36:30.269937  4748 net.cpp:150] Setting up conv4_1_1x1_increase
I0622 01:36:30.270047  4748 net.cpp:157] Top shape: 2 1024 60 60 (7372800)
I0622 01:36:30.270056  4748 net.cpp:165] Memory required for data: 1684337200
I0622 01:36:30.270076  4748 layer_factory.hpp:77] Creating layer conv4_1_1x1_increase/bn
I0622 01:36:30.270109  4748 net.cpp:106] Creating Layer conv4_1_1x1_increase/bn
I0622 01:36:30.270122  4748 net.cpp:454] conv4_1_1x1_increase/bn <- conv4_1_1x1_increase
I0622 01:36:30.270139  4748 net.cpp:397] conv4_1_1x1_increase/bn -> conv4_1_1x1_increase (in-place)
I0622 01:36:30.270433  4748 net.cpp:150] Setting up conv4_1_1x1_increase/bn
I0622 01:36:30.270442  4748 net.cpp:157] Top shape: 2 1024 60 60 (7372800)
I0622 01:36:30.270445  4748 net.cpp:165] Memory required for data: 1713828400
I0622 01:36:30.270453  4748 layer_factory.hpp:77] Creating layer conv4_1_1x1_proj
I0622 01:36:30.270473  4748 net.cpp:106] Creating Layer conv4_1_1x1_proj
I0622 01:36:30.270476  4748 net.cpp:454] conv4_1_1x1_proj <- conv3_4_conv3_4/relu_0_split_1
I0622 01:36:30.270483  4748 net.cpp:411] conv4_1_1x1_proj -> conv4_1_1x1_proj
I0622 01:36:30.287351  4748 net.cpp:150] Setting up conv4_1_1x1_proj
I0622 01:36:30.287379  4748 net.cpp:157] Top shape: 2 1024 60 60 (7372800)
I0622 01:36:30.287381  4748 net.cpp:165] Memory required for data: 1743319600
I0622 01:36:30.287389  4748 layer_factory.hpp:77] Creating layer conv4_1_1x1_proj/bn
I0622 01:36:30.287403  4748 net.cpp:106] Creating Layer conv4_1_1x1_proj/bn
I0622 01:36:30.287412  4748 net.cpp:454] conv4_1_1x1_proj/bn <- conv4_1_1x1_proj
I0622 01:36:30.287420  4748 net.cpp:397] conv4_1_1x1_proj/bn -> conv4_1_1x1_proj (in-place)
I0622 01:36:30.287642  4748 net.cpp:150] Setting up conv4_1_1x1_proj/bn
I0622 01:36:30.287648  4748 net.cpp:157] Top shape: 2 1024 60 60 (7372800)
I0622 01:36:30.287652  4748 net.cpp:165] Memory required for data: 1772810800
I0622 01:36:30.287659  4748 layer_factory.hpp:77] Creating layer conv4_1
I0622 01:36:30.287667  4748 net.cpp:106] Creating Layer conv4_1
I0622 01:36:30.287669  4748 net.cpp:454] conv4_1 <- conv4_1_1x1_proj
I0622 01:36:30.287673  4748 net.cpp:454] conv4_1 <- conv4_1_1x1_increase
I0622 01:36:30.287679  4748 net.cpp:411] conv4_1 -> conv4_1
I0622 01:36:30.287704  4748 net.cpp:150] Setting up conv4_1
I0622 01:36:30.287709  4748 net.cpp:157] Top shape: 2 1024 60 60 (7372800)
I0622 01:36:30.287713  4748 net.cpp:165] Memory required for data: 1802302000
I0622 01:36:30.287715  4748 layer_factory.hpp:77] Creating layer conv4_1/relu
I0622 01:36:30.287720  4748 net.cpp:106] Creating Layer conv4_1/relu
I0622 01:36:30.287724  4748 net.cpp:454] conv4_1/relu <- conv4_1
I0622 01:36:30.287729  4748 net.cpp:397] conv4_1/relu -> conv4_1 (in-place)
I0622 01:36:30.287755  4748 net.cpp:150] Setting up conv4_1/relu
I0622 01:36:30.287760  4748 net.cpp:157] Top shape: 2 1024 60 60 (7372800)
I0622 01:36:30.287763  4748 net.cpp:165] Memory required for data: 1831793200
I0622 01:36:30.287766  4748 layer_factory.hpp:77] Creating layer conv4_1_conv4_1/relu_0_split
I0622 01:36:30.287775  4748 net.cpp:106] Creating Layer conv4_1_conv4_1/relu_0_split
I0622 01:36:30.287777  4748 net.cpp:454] conv4_1_conv4_1/relu_0_split <- conv4_1
I0622 01:36:30.287783  4748 net.cpp:411] conv4_1_conv4_1/relu_0_split -> conv4_1_conv4_1/relu_0_split_0
I0622 01:36:30.287788  4748 net.cpp:411] conv4_1_conv4_1/relu_0_split -> conv4_1_conv4_1/relu_0_split_1
I0622 01:36:30.287818  4748 net.cpp:150] Setting up conv4_1_conv4_1/relu_0_split
I0622 01:36:30.287824  4748 net.cpp:157] Top shape: 2 1024 60 60 (7372800)
I0622 01:36:30.287828  4748 net.cpp:157] Top shape: 2 1024 60 60 (7372800)
I0622 01:36:30.287832  4748 net.cpp:165] Memory required for data: 1890775600
I0622 01:36:30.287834  4748 layer_factory.hpp:77] Creating layer conv4_2_1x1_reduce
I0622 01:36:30.287842  4748 net.cpp:106] Creating Layer conv4_2_1x1_reduce
I0622 01:36:30.287847  4748 net.cpp:454] conv4_2_1x1_reduce <- conv4_1_conv4_1/relu_0_split_0
I0622 01:36:30.287853  4748 net.cpp:411] conv4_2_1x1_reduce -> conv4_2_1x1_reduce
I0622 01:36:30.293895  4748 net.cpp:150] Setting up conv4_2_1x1_reduce
I0622 01:36:30.293902  4748 net.cpp:157] Top shape: 2 256 60 60 (1843200)
I0622 01:36:30.293905  4748 net.cpp:165] Memory required for data: 1898148400
I0622 01:36:30.293908  4748 layer_factory.hpp:77] Creating layer conv4_2_1x1_reduce/bn
I0622 01:36:30.293912  4748 net.cpp:106] Creating Layer conv4_2_1x1_reduce/bn
I0622 01:36:30.293915  4748 net.cpp:454] conv4_2_1x1_reduce/bn <- conv4_2_1x1_reduce
I0622 01:36:30.293917  4748 net.cpp:397] conv4_2_1x1_reduce/bn -> conv4_2_1x1_reduce (in-place)
I0622 01:36:30.294046  4748 net.cpp:150] Setting up conv4_2_1x1_reduce/bn
I0622 01:36:30.294050  4748 net.cpp:157] Top shape: 2 256 60 60 (1843200)
I0622 01:36:30.294052  4748 net.cpp:165] Memory required for data: 1905521200
I0622 01:36:30.294057  4748 layer_factory.hpp:77] Creating layer conv4_2_1x1_reduce/relu
I0622 01:36:30.294060  4748 net.cpp:106] Creating Layer conv4_2_1x1_reduce/relu
I0622 01:36:30.294062  4748 net.cpp:454] conv4_2_1x1_reduce/relu <- conv4_2_1x1_reduce
I0622 01:36:30.294065  4748 net.cpp:397] conv4_2_1x1_reduce/relu -> conv4_2_1x1_reduce (in-place)
I0622 01:36:30.294068  4748 net.cpp:150] Setting up conv4_2_1x1_reduce/relu
I0622 01:36:30.294071  4748 net.cpp:157] Top shape: 2 256 60 60 (1843200)
I0622 01:36:30.294073  4748 net.cpp:165] Memory required for data: 1912894000
I0622 01:36:30.294075  4748 layer_factory.hpp:77] Creating layer conv4_2_3x3
I0622 01:36:30.294082  4748 net.cpp:106] Creating Layer conv4_2_3x3
I0622 01:36:30.294085  4748 net.cpp:454] conv4_2_3x3 <- conv4_2_1x1_reduce
I0622 01:36:30.294088  4748 net.cpp:411] conv4_2_3x3 -> conv4_2_3x3
I0622 01:36:30.307164  4748 net.cpp:150] Setting up conv4_2_3x3
I0622 01:36:30.307185  4748 net.cpp:157] Top shape: 2 256 60 60 (1843200)
I0622 01:36:30.307189  4748 net.cpp:165] Memory required for data: 1920266800
I0622 01:36:30.307199  4748 layer_factory.hpp:77] Creating layer conv4_2_3x3/bn
I0622 01:36:30.307209  4748 net.cpp:106] Creating Layer conv4_2_3x3/bn
I0622 01:36:30.307214  4748 net.cpp:454] conv4_2_3x3/bn <- conv4_2_3x3
I0622 01:36:30.307220  4748 net.cpp:397] conv4_2_3x3/bn -> conv4_2_3x3 (in-place)
I0622 01:36:30.307381  4748 net.cpp:150] Setting up conv4_2_3x3/bn
I0622 01:36:30.307385  4748 net.cpp:157] Top shape: 2 256 60 60 (1843200)
I0622 01:36:30.307389  4748 net.cpp:165] Memory required for data: 1927639600
I0622 01:36:30.307392  4748 layer_factory.hpp:77] Creating layer conv4_2_3x3/relu
I0622 01:36:30.307396  4748 net.cpp:106] Creating Layer conv4_2_3x3/relu
I0622 01:36:30.307399  4748 net.cpp:454] conv4_2_3x3/relu <- conv4_2_3x3
I0622 01:36:30.307402  4748 net.cpp:397] conv4_2_3x3/relu -> conv4_2_3x3 (in-place)
I0622 01:36:30.307421  4748 net.cpp:150] Setting up conv4_2_3x3/relu
I0622 01:36:30.307425  4748 net.cpp:157] Top shape: 2 256 60 60 (1843200)
I0622 01:36:30.307428  4748 net.cpp:165] Memory required for data: 1935012400
I0622 01:36:30.307430  4748 layer_factory.hpp:77] Creating layer conv4_2_1x1_increase
I0622 01:36:30.307440  4748 net.cpp:106] Creating Layer conv4_2_1x1_increase
I0622 01:36:30.307442  4748 net.cpp:454] conv4_2_1x1_increase <- conv4_2_3x3
I0622 01:36:30.307446  4748 net.cpp:411] conv4_2_1x1_increase -> conv4_2_1x1_increase
I0622 01:36:30.313887  4748 net.cpp:150] Setting up conv4_2_1x1_increase
I0622 01:36:30.313915  4748 net.cpp:157] Top shape: 2 1024 60 60 (7372800)
I0622 01:36:30.313918  4748 net.cpp:165] Memory required for data: 1964503600
I0622 01:36:30.313925  4748 layer_factory.hpp:77] Creating layer conv4_2_1x1_increase/bn
I0622 01:36:30.313935  4748 net.cpp:106] Creating Layer conv4_2_1x1_increase/bn
I0622 01:36:30.313941  4748 net.cpp:454] conv4_2_1x1_increase/bn <- conv4_2_1x1_increase
I0622 01:36:30.313949  4748 net.cpp:397] conv4_2_1x1_increase/bn -> conv4_2_1x1_increase (in-place)
I0622 01:36:30.314116  4748 net.cpp:150] Setting up conv4_2_1x1_increase/bn
I0622 01:36:30.314121  4748 net.cpp:157] Top shape: 2 1024 60 60 (7372800)
I0622 01:36:30.314123  4748 net.cpp:165] Memory required for data: 1993994800
I0622 01:36:30.314128  4748 layer_factory.hpp:77] Creating layer conv4_2
I0622 01:36:30.314134  4748 net.cpp:106] Creating Layer conv4_2
I0622 01:36:30.314136  4748 net.cpp:454] conv4_2 <- conv4_1_conv4_1/relu_0_split_1
I0622 01:36:30.314139  4748 net.cpp:454] conv4_2 <- conv4_2_1x1_increase
I0622 01:36:30.314143  4748 net.cpp:411] conv4_2 -> conv4_2
I0622 01:36:30.314169  4748 net.cpp:150] Setting up conv4_2
I0622 01:36:30.314173  4748 net.cpp:157] Top shape: 2 1024 60 60 (7372800)
I0622 01:36:30.314175  4748 net.cpp:165] Memory required for data: 2023486000
I0622 01:36:30.314177  4748 layer_factory.hpp:77] Creating layer conv4_2/relu
I0622 01:36:30.314187  4748 net.cpp:106] Creating Layer conv4_2/relu
I0622 01:36:30.314189  4748 net.cpp:454] conv4_2/relu <- conv4_2
I0622 01:36:30.314191  4748 net.cpp:397] conv4_2/relu -> conv4_2 (in-place)
I0622 01:36:30.314198  4748 net.cpp:150] Setting up conv4_2/relu
I0622 01:36:30.314199  4748 net.cpp:157] Top shape: 2 1024 60 60 (7372800)
I0622 01:36:30.314203  4748 net.cpp:165] Memory required for data: 2052977200
I0622 01:36:30.314208  4748 layer_factory.hpp:77] Creating layer conv4_2_conv4_2/relu_0_split
I0622 01:36:30.314214  4748 net.cpp:106] Creating Layer conv4_2_conv4_2/relu_0_split
I0622 01:36:30.314218  4748 net.cpp:454] conv4_2_conv4_2/relu_0_split <- conv4_2
I0622 01:36:30.314221  4748 net.cpp:411] conv4_2_conv4_2/relu_0_split -> conv4_2_conv4_2/relu_0_split_0
I0622 01:36:30.314239  4748 net.cpp:411] conv4_2_conv4_2/relu_0_split -> conv4_2_conv4_2/relu_0_split_1
I0622 01:36:30.314262  4748 net.cpp:150] Setting up conv4_2_conv4_2/relu_0_split
I0622 01:36:30.314266  4748 net.cpp:157] Top shape: 2 1024 60 60 (7372800)
I0622 01:36:30.314270  4748 net.cpp:157] Top shape: 2 1024 60 60 (7372800)
I0622 01:36:30.314271  4748 net.cpp:165] Memory required for data: 2111959600
I0622 01:36:30.314273  4748 layer_factory.hpp:77] Creating layer conv4_3_1x1_reduce
I0622 01:36:30.314280  4748 net.cpp:106] Creating Layer conv4_3_1x1_reduce
I0622 01:36:30.314283  4748 net.cpp:454] conv4_3_1x1_reduce <- conv4_2_conv4_2/relu_0_split_0
I0622 01:36:30.314287  4748 net.cpp:411] conv4_3_1x1_reduce -> conv4_3_1x1_reduce
I0622 01:36:30.320052  4748 net.cpp:150] Setting up conv4_3_1x1_reduce
I0622 01:36:30.320066  4748 net.cpp:157] Top shape: 2 256 60 60 (1843200)
I0622 01:36:30.320070  4748 net.cpp:165] Memory required for data: 2119332400
I0622 01:36:30.320073  4748 layer_factory.hpp:77] Creating layer conv4_3_1x1_reduce/bn
I0622 01:36:30.320078  4748 net.cpp:106] Creating Layer conv4_3_1x1_reduce/bn
I0622 01:36:30.320081  4748 net.cpp:454] conv4_3_1x1_reduce/bn <- conv4_3_1x1_reduce
I0622 01:36:30.320087  4748 net.cpp:397] conv4_3_1x1_reduce/bn -> conv4_3_1x1_reduce (in-place)
I0622 01:36:30.320237  4748 net.cpp:150] Setting up conv4_3_1x1_reduce/bn
I0622 01:36:30.320242  4748 net.cpp:157] Top shape: 2 256 60 60 (1843200)
I0622 01:36:30.320245  4748 net.cpp:165] Memory required for data: 2126705200
I0622 01:36:30.320248  4748 layer_factory.hpp:77] Creating layer conv4_3_1x1_reduce/relu
I0622 01:36:30.320253  4748 net.cpp:106] Creating Layer conv4_3_1x1_reduce/relu
I0622 01:36:30.320256  4748 net.cpp:454] conv4_3_1x1_reduce/relu <- conv4_3_1x1_reduce
I0622 01:36:30.320258  4748 net.cpp:397] conv4_3_1x1_reduce/relu -> conv4_3_1x1_reduce (in-place)
I0622 01:36:30.320262  4748 net.cpp:150] Setting up conv4_3_1x1_reduce/relu
I0622 01:36:30.320264  4748 net.cpp:157] Top shape: 2 256 60 60 (1843200)
I0622 01:36:30.320266  4748 net.cpp:165] Memory required for data: 2134078000
I0622 01:36:30.320271  4748 layer_factory.hpp:77] Creating layer conv4_3_3x3
I0622 01:36:30.320276  4748 net.cpp:106] Creating Layer conv4_3_3x3
I0622 01:36:30.320278  4748 net.cpp:454] conv4_3_3x3 <- conv4_3_1x1_reduce
I0622 01:36:30.320288  4748 net.cpp:411] conv4_3_3x3 -> conv4_3_3x3
I0622 01:36:30.333537  4748 net.cpp:150] Setting up conv4_3_3x3
I0622 01:36:30.333603  4748 net.cpp:157] Top shape: 2 256 60 60 (1843200)
I0622 01:36:30.333611  4748 net.cpp:165] Memory required for data: 2141450800
I0622 01:36:30.333626  4748 layer_factory.hpp:77] Creating layer conv4_3_3x3/bn
I0622 01:36:30.333642  4748 net.cpp:106] Creating Layer conv4_3_3x3/bn
I0622 01:36:30.333648  4748 net.cpp:454] conv4_3_3x3/bn <- conv4_3_3x3
I0622 01:36:30.333658  4748 net.cpp:397] conv4_3_3x3/bn -> conv4_3_3x3 (in-place)
I0622 01:36:30.333850  4748 net.cpp:150] Setting up conv4_3_3x3/bn
I0622 01:36:30.333858  4748 net.cpp:157] Top shape: 2 256 60 60 (1843200)
I0622 01:36:30.333860  4748 net.cpp:165] Memory required for data: 2148823600
I0622 01:36:30.333868  4748 layer_factory.hpp:77] Creating layer conv4_3_3x3/relu
I0622 01:36:30.333876  4748 net.cpp:106] Creating Layer conv4_3_3x3/relu
I0622 01:36:30.333879  4748 net.cpp:454] conv4_3_3x3/relu <- conv4_3_3x3
I0622 01:36:30.333885  4748 net.cpp:397] conv4_3_3x3/relu -> conv4_3_3x3 (in-place)
I0622 01:36:30.333890  4748 net.cpp:150] Setting up conv4_3_3x3/relu
I0622 01:36:30.333894  4748 net.cpp:157] Top shape: 2 256 60 60 (1843200)
I0622 01:36:30.333896  4748 net.cpp:165] Memory required for data: 2156196400
I0622 01:36:30.333899  4748 layer_factory.hpp:77] Creating layer conv4_3_1x1_increase
I0622 01:36:30.333907  4748 net.cpp:106] Creating Layer conv4_3_1x1_increase
I0622 01:36:30.333910  4748 net.cpp:454] conv4_3_1x1_increase <- conv4_3_3x3
I0622 01:36:30.333914  4748 net.cpp:411] conv4_3_1x1_increase -> conv4_3_1x1_increase
I0622 01:36:30.342136  4748 net.cpp:150] Setting up conv4_3_1x1_increase
I0622 01:36:30.342221  4748 net.cpp:157] Top shape: 2 1024 60 60 (7372800)
I0622 01:36:30.342228  4748 net.cpp:165] Memory required for data: 2185687600
I0622 01:36:30.342245  4748 layer_factory.hpp:77] Creating layer conv4_3_1x1_increase/bn
I0622 01:36:30.342270  4748 net.cpp:106] Creating Layer conv4_3_1x1_increase/bn
I0622 01:36:30.342280  4748 net.cpp:454] conv4_3_1x1_increase/bn <- conv4_3_1x1_increase
I0622 01:36:30.342294  4748 net.cpp:397] conv4_3_1x1_increase/bn -> conv4_3_1x1_increase (in-place)
I0622 01:36:30.342581  4748 net.cpp:150] Setting up conv4_3_1x1_increase/bn
I0622 01:36:30.342592  4748 net.cpp:157] Top shape: 2 1024 60 60 (7372800)
I0622 01:36:30.342599  4748 net.cpp:165] Memory required for data: 2215178800
I0622 01:36:30.342609  4748 layer_factory.hpp:77] Creating layer conv4_3
I0622 01:36:30.342622  4748 net.cpp:106] Creating Layer conv4_3
I0622 01:36:30.342628  4748 net.cpp:454] conv4_3 <- conv4_2_conv4_2/relu_0_split_1
I0622 01:36:30.342633  4748 net.cpp:454] conv4_3 <- conv4_3_1x1_increase
I0622 01:36:30.342641  4748 net.cpp:411] conv4_3 -> conv4_3
I0622 01:36:30.342679  4748 net.cpp:150] Setting up conv4_3
I0622 01:36:30.342684  4748 net.cpp:157] Top shape: 2 1024 60 60 (7372800)
I0622 01:36:30.342689  4748 net.cpp:165] Memory required for data: 2244670000
I0622 01:36:30.342692  4748 layer_factory.hpp:77] Creating layer conv4_3/relu
I0622 01:36:30.342758  4748 net.cpp:106] Creating Layer conv4_3/relu
I0622 01:36:30.342762  4748 net.cpp:454] conv4_3/relu <- conv4_3
I0622 01:36:30.342767  4748 net.cpp:397] conv4_3/relu -> conv4_3 (in-place)
I0622 01:36:30.342774  4748 net.cpp:150] Setting up conv4_3/relu
I0622 01:36:30.342779  4748 net.cpp:157] Top shape: 2 1024 60 60 (7372800)
I0622 01:36:30.342783  4748 net.cpp:165] Memory required for data: 2274161200
I0622 01:36:30.342788  4748 layer_factory.hpp:77] Creating layer conv4_3_conv4_3/relu_0_split
I0622 01:36:30.342797  4748 net.cpp:106] Creating Layer conv4_3_conv4_3/relu_0_split
I0622 01:36:30.342802  4748 net.cpp:454] conv4_3_conv4_3/relu_0_split <- conv4_3
I0622 01:36:30.342808  4748 net.cpp:411] conv4_3_conv4_3/relu_0_split -> conv4_3_conv4_3/relu_0_split_0
I0622 01:36:30.342813  4748 net.cpp:411] conv4_3_conv4_3/relu_0_split -> conv4_3_conv4_3/relu_0_split_1
I0622 01:36:30.342845  4748 net.cpp:150] Setting up conv4_3_conv4_3/relu_0_split
I0622 01:36:30.342851  4748 net.cpp:157] Top shape: 2 1024 60 60 (7372800)
I0622 01:36:30.342856  4748 net.cpp:157] Top shape: 2 1024 60 60 (7372800)
I0622 01:36:30.342860  4748 net.cpp:165] Memory required for data: 2333143600
I0622 01:36:30.342864  4748 layer_factory.hpp:77] Creating layer conv4_4_1x1_reduce
I0622 01:36:30.342905  4748 net.cpp:106] Creating Layer conv4_4_1x1_reduce
I0622 01:36:30.342910  4748 net.cpp:454] conv4_4_1x1_reduce <- conv4_3_conv4_3/relu_0_split_0
I0622 01:36:30.342916  4748 net.cpp:411] conv4_4_1x1_reduce -> conv4_4_1x1_reduce
I0622 01:36:30.348794  4748 net.cpp:150] Setting up conv4_4_1x1_reduce
I0622 01:36:30.348803  4748 net.cpp:157] Top shape: 2 256 60 60 (1843200)
I0622 01:36:30.348804  4748 net.cpp:165] Memory required for data: 2340516400
I0622 01:36:30.348809  4748 layer_factory.hpp:77] Creating layer conv4_4_1x1_reduce/bn
I0622 01:36:30.348814  4748 net.cpp:106] Creating Layer conv4_4_1x1_reduce/bn
I0622 01:36:30.348815  4748 net.cpp:454] conv4_4_1x1_reduce/bn <- conv4_4_1x1_reduce
I0622 01:36:30.348821  4748 net.cpp:397] conv4_4_1x1_reduce/bn -> conv4_4_1x1_reduce (in-place)
I0622 01:36:30.348961  4748 net.cpp:150] Setting up conv4_4_1x1_reduce/bn
I0622 01:36:30.348966  4748 net.cpp:157] Top shape: 2 256 60 60 (1843200)
I0622 01:36:30.348968  4748 net.cpp:165] Memory required for data: 2347889200
I0622 01:36:30.348973  4748 layer_factory.hpp:77] Creating layer conv4_4_1x1_reduce/relu
I0622 01:36:30.348978  4748 net.cpp:106] Creating Layer conv4_4_1x1_reduce/relu
I0622 01:36:30.348980  4748 net.cpp:454] conv4_4_1x1_reduce/relu <- conv4_4_1x1_reduce
I0622 01:36:30.348984  4748 net.cpp:397] conv4_4_1x1_reduce/relu -> conv4_4_1x1_reduce (in-place)
I0622 01:36:30.348987  4748 net.cpp:150] Setting up conv4_4_1x1_reduce/relu
I0622 01:36:30.348989  4748 net.cpp:157] Top shape: 2 256 60 60 (1843200)
I0622 01:36:30.348991  4748 net.cpp:165] Memory required for data: 2355262000
I0622 01:36:30.348994  4748 layer_factory.hpp:77] Creating layer conv4_4_3x3
I0622 01:36:30.348999  4748 net.cpp:106] Creating Layer conv4_4_3x3
I0622 01:36:30.349006  4748 net.cpp:454] conv4_4_3x3 <- conv4_4_1x1_reduce
I0622 01:36:30.349010  4748 net.cpp:411] conv4_4_3x3 -> conv4_4_3x3
I0622 01:36:30.362445  4748 net.cpp:150] Setting up conv4_4_3x3
I0622 01:36:30.362471  4748 net.cpp:157] Top shape: 2 256 60 60 (1843200)
I0622 01:36:30.362474  4748 net.cpp:165] Memory required for data: 2362634800
I0622 01:36:30.362484  4748 layer_factory.hpp:77] Creating layer conv4_4_3x3/bn
I0622 01:36:30.362502  4748 net.cpp:106] Creating Layer conv4_4_3x3/bn
I0622 01:36:30.362509  4748 net.cpp:454] conv4_4_3x3/bn <- conv4_4_3x3
I0622 01:36:30.362515  4748 net.cpp:397] conv4_4_3x3/bn -> conv4_4_3x3 (in-place)
I0622 01:36:30.362702  4748 net.cpp:150] Setting up conv4_4_3x3/bn
I0622 01:36:30.362709  4748 net.cpp:157] Top shape: 2 256 60 60 (1843200)
I0622 01:36:30.362713  4748 net.cpp:165] Memory required for data: 2370007600
I0622 01:36:30.362720  4748 layer_factory.hpp:77] Creating layer conv4_4_3x3/relu
I0622 01:36:30.362746  4748 net.cpp:106] Creating Layer conv4_4_3x3/relu
I0622 01:36:30.362751  4748 net.cpp:454] conv4_4_3x3/relu <- conv4_4_3x3
I0622 01:36:30.362754  4748 net.cpp:397] conv4_4_3x3/relu -> conv4_4_3x3 (in-place)
I0622 01:36:30.362761  4748 net.cpp:150] Setting up conv4_4_3x3/relu
I0622 01:36:30.362766  4748 net.cpp:157] Top shape: 2 256 60 60 (1843200)
I0622 01:36:30.362767  4748 net.cpp:165] Memory required for data: 2377380400
I0622 01:36:30.362771  4748 layer_factory.hpp:77] Creating layer conv4_4_1x1_increase
I0622 01:36:30.362782  4748 net.cpp:106] Creating Layer conv4_4_1x1_increase
I0622 01:36:30.362784  4748 net.cpp:454] conv4_4_1x1_increase <- conv4_4_3x3
I0622 01:36:30.362792  4748 net.cpp:411] conv4_4_1x1_increase -> conv4_4_1x1_increase
I0622 01:36:30.369516  4748 net.cpp:150] Setting up conv4_4_1x1_increase
I0622 01:36:30.369536  4748 net.cpp:157] Top shape: 2 1024 60 60 (7372800)
I0622 01:36:30.369539  4748 net.cpp:165] Memory required for data: 2406871600
I0622 01:36:30.369545  4748 layer_factory.hpp:77] Creating layer conv4_4_1x1_increase/bn
I0622 01:36:30.369559  4748 net.cpp:106] Creating Layer conv4_4_1x1_increase/bn
I0622 01:36:30.369562  4748 net.cpp:454] conv4_4_1x1_increase/bn <- conv4_4_1x1_increase
I0622 01:36:30.369567  4748 net.cpp:397] conv4_4_1x1_increase/bn -> conv4_4_1x1_increase (in-place)
I0622 01:36:30.369734  4748 net.cpp:150] Setting up conv4_4_1x1_increase/bn
I0622 01:36:30.369740  4748 net.cpp:157] Top shape: 2 1024 60 60 (7372800)
I0622 01:36:30.369741  4748 net.cpp:165] Memory required for data: 2436362800
I0622 01:36:30.369746  4748 layer_factory.hpp:77] Creating layer conv4_4
I0622 01:36:30.369752  4748 net.cpp:106] Creating Layer conv4_4
I0622 01:36:30.369755  4748 net.cpp:454] conv4_4 <- conv4_3_conv4_3/relu_0_split_1
I0622 01:36:30.369757  4748 net.cpp:454] conv4_4 <- conv4_4_1x1_increase
I0622 01:36:30.369760  4748 net.cpp:411] conv4_4 -> conv4_4
I0622 01:36:30.369781  4748 net.cpp:150] Setting up conv4_4
I0622 01:36:30.369784  4748 net.cpp:157] Top shape: 2 1024 60 60 (7372800)
I0622 01:36:30.369786  4748 net.cpp:165] Memory required for data: 2465854000
I0622 01:36:30.369788  4748 layer_factory.hpp:77] Creating layer conv4_4/relu
I0622 01:36:30.369794  4748 net.cpp:106] Creating Layer conv4_4/relu
I0622 01:36:30.369796  4748 net.cpp:454] conv4_4/relu <- conv4_4
I0622 01:36:30.369798  4748 net.cpp:397] conv4_4/relu -> conv4_4 (in-place)
I0622 01:36:30.369803  4748 net.cpp:150] Setting up conv4_4/relu
I0622 01:36:30.369807  4748 net.cpp:157] Top shape: 2 1024 60 60 (7372800)
I0622 01:36:30.369807  4748 net.cpp:165] Memory required for data: 2495345200
I0622 01:36:30.369810  4748 layer_factory.hpp:77] Creating layer conv4_4_conv4_4/relu_0_split
I0622 01:36:30.369817  4748 net.cpp:106] Creating Layer conv4_4_conv4_4/relu_0_split
I0622 01:36:30.369818  4748 net.cpp:454] conv4_4_conv4_4/relu_0_split <- conv4_4
I0622 01:36:30.369822  4748 net.cpp:411] conv4_4_conv4_4/relu_0_split -> conv4_4_conv4_4/relu_0_split_0
I0622 01:36:30.369827  4748 net.cpp:411] conv4_4_conv4_4/relu_0_split -> conv4_4_conv4_4/relu_0_split_1
I0622 01:36:30.369848  4748 net.cpp:150] Setting up conv4_4_conv4_4/relu_0_split
I0622 01:36:30.369853  4748 net.cpp:157] Top shape: 2 1024 60 60 (7372800)
I0622 01:36:30.369856  4748 net.cpp:157] Top shape: 2 1024 60 60 (7372800)
I0622 01:36:30.369858  4748 net.cpp:165] Memory required for data: 2554327600
I0622 01:36:30.369861  4748 layer_factory.hpp:77] Creating layer conv4_5_1x1_reduce
I0622 01:36:30.369869  4748 net.cpp:106] Creating Layer conv4_5_1x1_reduce
I0622 01:36:30.369873  4748 net.cpp:454] conv4_5_1x1_reduce <- conv4_4_conv4_4/relu_0_split_0
I0622 01:36:30.369877  4748 net.cpp:411] conv4_5_1x1_reduce -> conv4_5_1x1_reduce
I0622 01:36:30.375799  4748 net.cpp:150] Setting up conv4_5_1x1_reduce
I0622 01:36:30.375818  4748 net.cpp:157] Top shape: 2 256 60 60 (1843200)
I0622 01:36:30.375820  4748 net.cpp:165] Memory required for data: 2561700400
I0622 01:36:30.375826  4748 layer_factory.hpp:77] Creating layer conv4_5_1x1_reduce/bn
I0622 01:36:30.375833  4748 net.cpp:106] Creating Layer conv4_5_1x1_reduce/bn
I0622 01:36:30.375859  4748 net.cpp:454] conv4_5_1x1_reduce/bn <- conv4_5_1x1_reduce
I0622 01:36:30.375865  4748 net.cpp:397] conv4_5_1x1_reduce/bn -> conv4_5_1x1_reduce (in-place)
I0622 01:36:30.376009  4748 net.cpp:150] Setting up conv4_5_1x1_reduce/bn
I0622 01:36:30.376014  4748 net.cpp:157] Top shape: 2 256 60 60 (1843200)
I0622 01:36:30.376016  4748 net.cpp:165] Memory required for data: 2569073200
I0622 01:36:30.376021  4748 layer_factory.hpp:77] Creating layer conv4_5_1x1_reduce/relu
I0622 01:36:30.376026  4748 net.cpp:106] Creating Layer conv4_5_1x1_reduce/relu
I0622 01:36:30.376029  4748 net.cpp:454] conv4_5_1x1_reduce/relu <- conv4_5_1x1_reduce
I0622 01:36:30.376031  4748 net.cpp:397] conv4_5_1x1_reduce/relu -> conv4_5_1x1_reduce (in-place)
I0622 01:36:30.376035  4748 net.cpp:150] Setting up conv4_5_1x1_reduce/relu
I0622 01:36:30.376037  4748 net.cpp:157] Top shape: 2 256 60 60 (1843200)
I0622 01:36:30.376039  4748 net.cpp:165] Memory required for data: 2576446000
I0622 01:36:30.376044  4748 layer_factory.hpp:77] Creating layer conv4_5_3x3
I0622 01:36:30.376049  4748 net.cpp:106] Creating Layer conv4_5_3x3
I0622 01:36:30.376052  4748 net.cpp:454] conv4_5_3x3 <- conv4_5_1x1_reduce
I0622 01:36:30.376055  4748 net.cpp:411] conv4_5_3x3 -> conv4_5_3x3
I0622 01:36:30.390799  4748 net.cpp:150] Setting up conv4_5_3x3
I0622 01:36:30.390872  4748 net.cpp:157] Top shape: 2 256 60 60 (1843200)
I0622 01:36:30.390878  4748 net.cpp:165] Memory required for data: 2583818800
I0622 01:36:30.390897  4748 layer_factory.hpp:77] Creating layer conv4_5_3x3/bn
I0622 01:36:30.390924  4748 net.cpp:106] Creating Layer conv4_5_3x3/bn
I0622 01:36:30.390933  4748 net.cpp:454] conv4_5_3x3/bn <- conv4_5_3x3
I0622 01:36:30.390945  4748 net.cpp:397] conv4_5_3x3/bn -> conv4_5_3x3 (in-place)
I0622 01:36:30.391181  4748 net.cpp:150] Setting up conv4_5_3x3/bn
I0622 01:36:30.391191  4748 net.cpp:157] Top shape: 2 256 60 60 (1843200)
I0622 01:36:30.391194  4748 net.cpp:165] Memory required for data: 2591191600
I0622 01:36:30.391203  4748 layer_factory.hpp:77] Creating layer conv4_5_3x3/relu
I0622 01:36:30.391213  4748 net.cpp:106] Creating Layer conv4_5_3x3/relu
I0622 01:36:30.391218  4748 net.cpp:454] conv4_5_3x3/relu <- conv4_5_3x3
I0622 01:36:30.391224  4748 net.cpp:397] conv4_5_3x3/relu -> conv4_5_3x3 (in-place)
I0622 01:36:30.391230  4748 net.cpp:150] Setting up conv4_5_3x3/relu
I0622 01:36:30.391237  4748 net.cpp:157] Top shape: 2 256 60 60 (1843200)
I0622 01:36:30.391239  4748 net.cpp:165] Memory required for data: 2598564400
I0622 01:36:30.391244  4748 layer_factory.hpp:77] Creating layer conv4_5_1x1_increase
I0622 01:36:30.391258  4748 net.cpp:106] Creating Layer conv4_5_1x1_increase
I0622 01:36:30.391261  4748 net.cpp:454] conv4_5_1x1_increase <- conv4_5_3x3
I0622 01:36:30.391269  4748 net.cpp:411] conv4_5_1x1_increase -> conv4_5_1x1_increase
I0622 01:36:30.400822  4748 net.cpp:150] Setting up conv4_5_1x1_increase
I0622 01:36:30.400861  4748 net.cpp:157] Top shape: 2 1024 60 60 (7372800)
I0622 01:36:30.400866  4748 net.cpp:165] Memory required for data: 2628055600
I0622 01:36:30.400876  4748 layer_factory.hpp:77] Creating layer conv4_5_1x1_increase/bn
I0622 01:36:30.400890  4748 net.cpp:106] Creating Layer conv4_5_1x1_increase/bn
I0622 01:36:30.400895  4748 net.cpp:454] conv4_5_1x1_increase/bn <- conv4_5_1x1_increase
I0622 01:36:30.400902  4748 net.cpp:397] conv4_5_1x1_increase/bn -> conv4_5_1x1_increase (in-place)
I0622 01:36:30.401068  4748 net.cpp:150] Setting up conv4_5_1x1_increase/bn
I0622 01:36:30.401073  4748 net.cpp:157] Top shape: 2 1024 60 60 (7372800)
I0622 01:36:30.401075  4748 net.cpp:165] Memory required for data: 2657546800
I0622 01:36:30.401082  4748 layer_factory.hpp:77] Creating layer conv4_5
I0622 01:36:30.401087  4748 net.cpp:106] Creating Layer conv4_5
I0622 01:36:30.401090  4748 net.cpp:454] conv4_5 <- conv4_4_conv4_4/relu_0_split_1
I0622 01:36:30.401094  4748 net.cpp:454] conv4_5 <- conv4_5_1x1_increase
I0622 01:36:30.401098  4748 net.cpp:411] conv4_5 -> conv4_5
I0622 01:36:30.401140  4748 net.cpp:150] Setting up conv4_5
I0622 01:36:30.401145  4748 net.cpp:157] Top shape: 2 1024 60 60 (7372800)
I0622 01:36:30.401147  4748 net.cpp:165] Memory required for data: 2687038000
I0622 01:36:30.401150  4748 layer_factory.hpp:77] Creating layer conv4_5/relu
I0622 01:36:30.401157  4748 net.cpp:106] Creating Layer conv4_5/relu
I0622 01:36:30.401160  4748 net.cpp:454] conv4_5/relu <- conv4_5
I0622 01:36:30.401163  4748 net.cpp:397] conv4_5/relu -> conv4_5 (in-place)
I0622 01:36:30.401167  4748 net.cpp:150] Setting up conv4_5/relu
I0622 01:36:30.401171  4748 net.cpp:157] Top shape: 2 1024 60 60 (7372800)
I0622 01:36:30.401173  4748 net.cpp:165] Memory required for data: 2716529200
I0622 01:36:30.401176  4748 layer_factory.hpp:77] Creating layer conv4_5_conv4_5/relu_0_split
I0622 01:36:30.401180  4748 net.cpp:106] Creating Layer conv4_5_conv4_5/relu_0_split
I0622 01:36:30.401183  4748 net.cpp:454] conv4_5_conv4_5/relu_0_split <- conv4_5
I0622 01:36:30.401188  4748 net.cpp:411] conv4_5_conv4_5/relu_0_split -> conv4_5_conv4_5/relu_0_split_0
I0622 01:36:30.401192  4748 net.cpp:411] conv4_5_conv4_5/relu_0_split -> conv4_5_conv4_5/relu_0_split_1
I0622 01:36:30.401214  4748 net.cpp:150] Setting up conv4_5_conv4_5/relu_0_split
I0622 01:36:30.401218  4748 net.cpp:157] Top shape: 2 1024 60 60 (7372800)
I0622 01:36:30.401221  4748 net.cpp:157] Top shape: 2 1024 60 60 (7372800)
I0622 01:36:30.401223  4748 net.cpp:165] Memory required for data: 2775511600
I0622 01:36:30.401226  4748 layer_factory.hpp:77] Creating layer conv4_6_1x1_reduce
I0622 01:36:30.401233  4748 net.cpp:106] Creating Layer conv4_6_1x1_reduce
I0622 01:36:30.401237  4748 net.cpp:454] conv4_6_1x1_reduce <- conv4_5_conv4_5/relu_0_split_0
I0622 01:36:30.401240  4748 net.cpp:411] conv4_6_1x1_reduce -> conv4_6_1x1_reduce
I0622 01:36:30.406877  4748 net.cpp:150] Setting up conv4_6_1x1_reduce
I0622 01:36:30.406884  4748 net.cpp:157] Top shape: 2 256 60 60 (1843200)
I0622 01:36:30.406886  4748 net.cpp:165] Memory required for data: 2782884400
I0622 01:36:30.406889  4748 layer_factory.hpp:77] Creating layer conv4_6_1x1_reduce/bn
I0622 01:36:30.406893  4748 net.cpp:106] Creating Layer conv4_6_1x1_reduce/bn
I0622 01:36:30.406896  4748 net.cpp:454] conv4_6_1x1_reduce/bn <- conv4_6_1x1_reduce
I0622 01:36:30.406901  4748 net.cpp:397] conv4_6_1x1_reduce/bn -> conv4_6_1x1_reduce (in-place)
I0622 01:36:30.407030  4748 net.cpp:150] Setting up conv4_6_1x1_reduce/bn
I0622 01:36:30.407035  4748 net.cpp:157] Top shape: 2 256 60 60 (1843200)
I0622 01:36:30.407037  4748 net.cpp:165] Memory required for data: 2790257200
I0622 01:36:30.407042  4748 layer_factory.hpp:77] Creating layer conv4_6_1x1_reduce/relu
I0622 01:36:30.407047  4748 net.cpp:106] Creating Layer conv4_6_1x1_reduce/relu
I0622 01:36:30.407048  4748 net.cpp:454] conv4_6_1x1_reduce/relu <- conv4_6_1x1_reduce
I0622 01:36:30.407050  4748 net.cpp:397] conv4_6_1x1_reduce/relu -> conv4_6_1x1_reduce (in-place)
I0622 01:36:30.407054  4748 net.cpp:150] Setting up conv4_6_1x1_reduce/relu
I0622 01:36:30.407057  4748 net.cpp:157] Top shape: 2 256 60 60 (1843200)
I0622 01:36:30.407058  4748 net.cpp:165] Memory required for data: 2797630000
I0622 01:36:30.407060  4748 layer_factory.hpp:77] Creating layer conv4_6_3x3
I0622 01:36:30.407068  4748 net.cpp:106] Creating Layer conv4_6_3x3
I0622 01:36:30.407070  4748 net.cpp:454] conv4_6_3x3 <- conv4_6_1x1_reduce
I0622 01:36:30.407074  4748 net.cpp:411] conv4_6_3x3 -> conv4_6_3x3
I0622 01:36:30.420200  4748 net.cpp:150] Setting up conv4_6_3x3
I0622 01:36:30.420218  4748 net.cpp:157] Top shape: 2 256 60 60 (1843200)
I0622 01:36:30.420220  4748 net.cpp:165] Memory required for data: 2805002800
I0622 01:36:30.420225  4748 layer_factory.hpp:77] Creating layer conv4_6_3x3/bn
I0622 01:36:30.420233  4748 net.cpp:106] Creating Layer conv4_6_3x3/bn
I0622 01:36:30.420236  4748 net.cpp:454] conv4_6_3x3/bn <- conv4_6_3x3
I0622 01:36:30.420240  4748 net.cpp:397] conv4_6_3x3/bn -> conv4_6_3x3 (in-place)
I0622 01:36:30.420387  4748 net.cpp:150] Setting up conv4_6_3x3/bn
I0622 01:36:30.420409  4748 net.cpp:157] Top shape: 2 256 60 60 (1843200)
I0622 01:36:30.420413  4748 net.cpp:165] Memory required for data: 2812375600
I0622 01:36:30.420418  4748 layer_factory.hpp:77] Creating layer conv4_6_3x3/relu
I0622 01:36:30.420423  4748 net.cpp:106] Creating Layer conv4_6_3x3/relu
I0622 01:36:30.420426  4748 net.cpp:454] conv4_6_3x3/relu <- conv4_6_3x3
I0622 01:36:30.420431  4748 net.cpp:397] conv4_6_3x3/relu -> conv4_6_3x3 (in-place)
I0622 01:36:30.420435  4748 net.cpp:150] Setting up conv4_6_3x3/relu
I0622 01:36:30.420439  4748 net.cpp:157] Top shape: 2 256 60 60 (1843200)
I0622 01:36:30.420441  4748 net.cpp:165] Memory required for data: 2819748400
I0622 01:36:30.420444  4748 layer_factory.hpp:77] Creating layer conv4_6_1x1_increase
I0622 01:36:30.420454  4748 net.cpp:106] Creating Layer conv4_6_1x1_increase
I0622 01:36:30.420455  4748 net.cpp:454] conv4_6_1x1_increase <- conv4_6_3x3
I0622 01:36:30.420459  4748 net.cpp:411] conv4_6_1x1_increase -> conv4_6_1x1_increase
I0622 01:36:30.426988  4748 net.cpp:150] Setting up conv4_6_1x1_increase
I0622 01:36:30.427014  4748 net.cpp:157] Top shape: 2 1024 60 60 (7372800)
I0622 01:36:30.427021  4748 net.cpp:165] Memory required for data: 2849239600
I0622 01:36:30.427029  4748 layer_factory.hpp:77] Creating layer conv4_6_1x1_increase/bn
I0622 01:36:30.427038  4748 net.cpp:106] Creating Layer conv4_6_1x1_increase/bn
I0622 01:36:30.427043  4748 net.cpp:454] conv4_6_1x1_increase/bn <- conv4_6_1x1_increase
I0622 01:36:30.427050  4748 net.cpp:397] conv4_6_1x1_increase/bn -> conv4_6_1x1_increase (in-place)
I0622 01:36:30.427208  4748 net.cpp:150] Setting up conv4_6_1x1_increase/bn
I0622 01:36:30.427213  4748 net.cpp:157] Top shape: 2 1024 60 60 (7372800)
I0622 01:36:30.427217  4748 net.cpp:165] Memory required for data: 2878730800
I0622 01:36:30.427222  4748 layer_factory.hpp:77] Creating layer conv4_6
I0622 01:36:30.427227  4748 net.cpp:106] Creating Layer conv4_6
I0622 01:36:30.427230  4748 net.cpp:454] conv4_6 <- conv4_5_conv4_5/relu_0_split_1
I0622 01:36:30.427234  4748 net.cpp:454] conv4_6 <- conv4_6_1x1_increase
I0622 01:36:30.427238  4748 net.cpp:411] conv4_6 -> conv4_6
I0622 01:36:30.427259  4748 net.cpp:150] Setting up conv4_6
I0622 01:36:30.427264  4748 net.cpp:157] Top shape: 2 1024 60 60 (7372800)
I0622 01:36:30.427268  4748 net.cpp:165] Memory required for data: 2908222000
I0622 01:36:30.427269  4748 layer_factory.hpp:77] Creating layer conv4_6/relu
I0622 01:36:30.427276  4748 net.cpp:106] Creating Layer conv4_6/relu
I0622 01:36:30.427278  4748 net.cpp:454] conv4_6/relu <- conv4_6
I0622 01:36:30.427283  4748 net.cpp:397] conv4_6/relu -> conv4_6 (in-place)
I0622 01:36:30.427286  4748 net.cpp:150] Setting up conv4_6/relu
I0622 01:36:30.427289  4748 net.cpp:157] Top shape: 2 1024 60 60 (7372800)
I0622 01:36:30.427292  4748 net.cpp:165] Memory required for data: 2937713200
I0622 01:36:30.427294  4748 layer_factory.hpp:77] Creating layer conv4_6_conv4_6/relu_0_split
I0622 01:36:30.427299  4748 net.cpp:106] Creating Layer conv4_6_conv4_6/relu_0_split
I0622 01:36:30.427301  4748 net.cpp:454] conv4_6_conv4_6/relu_0_split <- conv4_6
I0622 01:36:30.427306  4748 net.cpp:411] conv4_6_conv4_6/relu_0_split -> conv4_6_conv4_6/relu_0_split_0
I0622 01:36:30.427310  4748 net.cpp:411] conv4_6_conv4_6/relu_0_split -> conv4_6_conv4_6/relu_0_split_1
I0622 01:36:30.427332  4748 net.cpp:150] Setting up conv4_6_conv4_6/relu_0_split
I0622 01:36:30.427336  4748 net.cpp:157] Top shape: 2 1024 60 60 (7372800)
I0622 01:36:30.427340  4748 net.cpp:157] Top shape: 2 1024 60 60 (7372800)
I0622 01:36:30.427341  4748 net.cpp:165] Memory required for data: 2996695600
I0622 01:36:30.427345  4748 layer_factory.hpp:77] Creating layer conv4_7_1x1_reduce
I0622 01:36:30.427352  4748 net.cpp:106] Creating Layer conv4_7_1x1_reduce
I0622 01:36:30.427356  4748 net.cpp:454] conv4_7_1x1_reduce <- conv4_6_conv4_6/relu_0_split_0
I0622 01:36:30.427362  4748 net.cpp:411] conv4_7_1x1_reduce -> conv4_7_1x1_reduce
I0622 01:36:30.433073  4748 net.cpp:150] Setting up conv4_7_1x1_reduce
I0622 01:36:30.433082  4748 net.cpp:157] Top shape: 2 256 60 60 (1843200)
I0622 01:36:30.433101  4748 net.cpp:165] Memory required for data: 3004068400
I0622 01:36:30.433106  4748 layer_factory.hpp:77] Creating layer conv4_7_1x1_reduce/bn
I0622 01:36:30.433113  4748 net.cpp:106] Creating Layer conv4_7_1x1_reduce/bn
I0622 01:36:30.433116  4748 net.cpp:454] conv4_7_1x1_reduce/bn <- conv4_7_1x1_reduce
I0622 01:36:30.433122  4748 net.cpp:397] conv4_7_1x1_reduce/bn -> conv4_7_1x1_reduce (in-place)
I0622 01:36:30.433259  4748 net.cpp:150] Setting up conv4_7_1x1_reduce/bn
I0622 01:36:30.433264  4748 net.cpp:157] Top shape: 2 256 60 60 (1843200)
I0622 01:36:30.433266  4748 net.cpp:165] Memory required for data: 3011441200
I0622 01:36:30.433272  4748 layer_factory.hpp:77] Creating layer conv4_7_1x1_reduce/relu
I0622 01:36:30.433277  4748 net.cpp:106] Creating Layer conv4_7_1x1_reduce/relu
I0622 01:36:30.433280  4748 net.cpp:454] conv4_7_1x1_reduce/relu <- conv4_7_1x1_reduce
I0622 01:36:30.433284  4748 net.cpp:397] conv4_7_1x1_reduce/relu -> conv4_7_1x1_reduce (in-place)
I0622 01:36:30.433287  4748 net.cpp:150] Setting up conv4_7_1x1_reduce/relu
I0622 01:36:30.433290  4748 net.cpp:157] Top shape: 2 256 60 60 (1843200)
I0622 01:36:30.433293  4748 net.cpp:165] Memory required for data: 3018814000
I0622 01:36:30.433296  4748 layer_factory.hpp:77] Creating layer conv4_7_3x3
I0622 01:36:30.433301  4748 net.cpp:106] Creating Layer conv4_7_3x3
I0622 01:36:30.433305  4748 net.cpp:454] conv4_7_3x3 <- conv4_7_1x1_reduce
I0622 01:36:30.433312  4748 net.cpp:411] conv4_7_3x3 -> conv4_7_3x3
I0622 01:36:30.448490  4748 net.cpp:150] Setting up conv4_7_3x3
I0622 01:36:30.448570  4748 net.cpp:157] Top shape: 2 256 60 60 (1843200)
I0622 01:36:30.448577  4748 net.cpp:165] Memory required for data: 3026186800
I0622 01:36:30.448595  4748 layer_factory.hpp:77] Creating layer conv4_7_3x3/bn
I0622 01:36:30.448624  4748 net.cpp:106] Creating Layer conv4_7_3x3/bn
I0622 01:36:30.448634  4748 net.cpp:454] conv4_7_3x3/bn <- conv4_7_3x3
I0622 01:36:30.448649  4748 net.cpp:397] conv4_7_3x3/bn -> conv4_7_3x3 (in-place)
I0622 01:36:30.448896  4748 net.cpp:150] Setting up conv4_7_3x3/bn
I0622 01:36:30.448904  4748 net.cpp:157] Top shape: 2 256 60 60 (1843200)
I0622 01:36:30.448909  4748 net.cpp:165] Memory required for data: 3033559600
I0622 01:36:30.448917  4748 layer_factory.hpp:77] Creating layer conv4_7_3x3/relu
I0622 01:36:30.448930  4748 net.cpp:106] Creating Layer conv4_7_3x3/relu
I0622 01:36:30.448933  4748 net.cpp:454] conv4_7_3x3/relu <- conv4_7_3x3
I0622 01:36:30.448961  4748 net.cpp:397] conv4_7_3x3/relu -> conv4_7_3x3 (in-place)
I0622 01:36:30.448967  4748 net.cpp:150] Setting up conv4_7_3x3/relu
I0622 01:36:30.448973  4748 net.cpp:157] Top shape: 2 256 60 60 (1843200)
I0622 01:36:30.448977  4748 net.cpp:165] Memory required for data: 3040932400
I0622 01:36:30.448982  4748 layer_factory.hpp:77] Creating layer conv4_7_1x1_increase
I0622 01:36:30.448995  4748 net.cpp:106] Creating Layer conv4_7_1x1_increase
I0622 01:36:30.448999  4748 net.cpp:454] conv4_7_1x1_increase <- conv4_7_3x3
I0622 01:36:30.449005  4748 net.cpp:411] conv4_7_1x1_increase -> conv4_7_1x1_increase
I0622 01:36:30.458076  4748 net.cpp:150] Setting up conv4_7_1x1_increase
I0622 01:36:30.458101  4748 net.cpp:157] Top shape: 2 1024 60 60 (7372800)
I0622 01:36:30.458104  4748 net.cpp:165] Memory required for data: 3070423600
I0622 01:36:30.458117  4748 layer_factory.hpp:77] Creating layer conv4_7_1x1_increase/bn
I0622 01:36:30.458127  4748 net.cpp:106] Creating Layer conv4_7_1x1_increase/bn
I0622 01:36:30.458133  4748 net.cpp:454] conv4_7_1x1_increase/bn <- conv4_7_1x1_increase
I0622 01:36:30.458140  4748 net.cpp:397] conv4_7_1x1_increase/bn -> conv4_7_1x1_increase (in-place)
I0622 01:36:30.458312  4748 net.cpp:150] Setting up conv4_7_1x1_increase/bn
I0622 01:36:30.458317  4748 net.cpp:157] Top shape: 2 1024 60 60 (7372800)
I0622 01:36:30.458319  4748 net.cpp:165] Memory required for data: 3099914800
I0622 01:36:30.458325  4748 layer_factory.hpp:77] Creating layer conv4_7
I0622 01:36:30.458330  4748 net.cpp:106] Creating Layer conv4_7
I0622 01:36:30.458350  4748 net.cpp:454] conv4_7 <- conv4_6_conv4_6/relu_0_split_1
I0622 01:36:30.458354  4748 net.cpp:454] conv4_7 <- conv4_7_1x1_increase
I0622 01:36:30.458359  4748 net.cpp:411] conv4_7 -> conv4_7
I0622 01:36:30.458379  4748 net.cpp:150] Setting up conv4_7
I0622 01:36:30.458384  4748 net.cpp:157] Top shape: 2 1024 60 60 (7372800)
I0622 01:36:30.458386  4748 net.cpp:165] Memory required for data: 3129406000
I0622 01:36:30.458389  4748 layer_factory.hpp:77] Creating layer conv4_7/relu
I0622 01:36:30.458392  4748 net.cpp:106] Creating Layer conv4_7/relu
I0622 01:36:30.458395  4748 net.cpp:454] conv4_7/relu <- conv4_7
I0622 01:36:30.458400  4748 net.cpp:397] conv4_7/relu -> conv4_7 (in-place)
I0622 01:36:30.458403  4748 net.cpp:150] Setting up conv4_7/relu
I0622 01:36:30.458406  4748 net.cpp:157] Top shape: 2 1024 60 60 (7372800)
I0622 01:36:30.458410  4748 net.cpp:165] Memory required for data: 3158897200
I0622 01:36:30.458411  4748 layer_factory.hpp:77] Creating layer conv4_7_conv4_7/relu_0_split
I0622 01:36:30.458416  4748 net.cpp:106] Creating Layer conv4_7_conv4_7/relu_0_split
I0622 01:36:30.458418  4748 net.cpp:454] conv4_7_conv4_7/relu_0_split <- conv4_7
I0622 01:36:30.458423  4748 net.cpp:411] conv4_7_conv4_7/relu_0_split -> conv4_7_conv4_7/relu_0_split_0
I0622 01:36:30.458427  4748 net.cpp:411] conv4_7_conv4_7/relu_0_split -> conv4_7_conv4_7/relu_0_split_1
I0622 01:36:30.458449  4748 net.cpp:150] Setting up conv4_7_conv4_7/relu_0_split
I0622 01:36:30.458454  4748 net.cpp:157] Top shape: 2 1024 60 60 (7372800)
I0622 01:36:30.458457  4748 net.cpp:157] Top shape: 2 1024 60 60 (7372800)
I0622 01:36:30.458461  4748 net.cpp:165] Memory required for data: 3217879600
I0622 01:36:30.458462  4748 layer_factory.hpp:77] Creating layer conv4_8_1x1_reduce
I0622 01:36:30.458469  4748 net.cpp:106] Creating Layer conv4_8_1x1_reduce
I0622 01:36:30.458472  4748 net.cpp:454] conv4_8_1x1_reduce <- conv4_7_conv4_7/relu_0_split_0
I0622 01:36:30.458477  4748 net.cpp:411] conv4_8_1x1_reduce -> conv4_8_1x1_reduce
I0622 01:36:30.464119  4748 net.cpp:150] Setting up conv4_8_1x1_reduce
I0622 01:36:30.464125  4748 net.cpp:157] Top shape: 2 256 60 60 (1843200)
I0622 01:36:30.464128  4748 net.cpp:165] Memory required for data: 3225252400
I0622 01:36:30.464133  4748 layer_factory.hpp:77] Creating layer conv4_8_1x1_reduce/bn
I0622 01:36:30.464138  4748 net.cpp:106] Creating Layer conv4_8_1x1_reduce/bn
I0622 01:36:30.464141  4748 net.cpp:454] conv4_8_1x1_reduce/bn <- conv4_8_1x1_reduce
I0622 01:36:30.464146  4748 net.cpp:397] conv4_8_1x1_reduce/bn -> conv4_8_1x1_reduce (in-place)
I0622 01:36:30.464278  4748 net.cpp:150] Setting up conv4_8_1x1_reduce/bn
I0622 01:36:30.464282  4748 net.cpp:157] Top shape: 2 256 60 60 (1843200)
I0622 01:36:30.464285  4748 net.cpp:165] Memory required for data: 3232625200
I0622 01:36:30.464290  4748 layer_factory.hpp:77] Creating layer conv4_8_1x1_reduce/relu
I0622 01:36:30.464295  4748 net.cpp:106] Creating Layer conv4_8_1x1_reduce/relu
I0622 01:36:30.464298  4748 net.cpp:454] conv4_8_1x1_reduce/relu <- conv4_8_1x1_reduce
I0622 01:36:30.464303  4748 net.cpp:397] conv4_8_1x1_reduce/relu -> conv4_8_1x1_reduce (in-place)
I0622 01:36:30.464306  4748 net.cpp:150] Setting up conv4_8_1x1_reduce/relu
I0622 01:36:30.464309  4748 net.cpp:157] Top shape: 2 256 60 60 (1843200)
I0622 01:36:30.464311  4748 net.cpp:165] Memory required for data: 3239998000
I0622 01:36:30.464314  4748 layer_factory.hpp:77] Creating layer conv4_8_3x3
I0622 01:36:30.464320  4748 net.cpp:106] Creating Layer conv4_8_3x3
I0622 01:36:30.464323  4748 net.cpp:454] conv4_8_3x3 <- conv4_8_1x1_reduce
I0622 01:36:30.464328  4748 net.cpp:411] conv4_8_3x3 -> conv4_8_3x3
I0622 01:36:30.477512  4748 net.cpp:150] Setting up conv4_8_3x3
I0622 01:36:30.477531  4748 net.cpp:157] Top shape: 2 256 60 60 (1843200)
I0622 01:36:30.477535  4748 net.cpp:165] Memory required for data: 3247370800
I0622 01:36:30.477541  4748 layer_factory.hpp:77] Creating layer conv4_8_3x3/bn
I0622 01:36:30.477550  4748 net.cpp:106] Creating Layer conv4_8_3x3/bn
I0622 01:36:30.477571  4748 net.cpp:454] conv4_8_3x3/bn <- conv4_8_3x3
I0622 01:36:30.477576  4748 net.cpp:397] conv4_8_3x3/bn -> conv4_8_3x3 (in-place)
I0622 01:36:30.477730  4748 net.cpp:150] Setting up conv4_8_3x3/bn
I0622 01:36:30.477735  4748 net.cpp:157] Top shape: 2 256 60 60 (1843200)
I0622 01:36:30.477737  4748 net.cpp:165] Memory required for data: 3254743600
I0622 01:36:30.477743  4748 layer_factory.hpp:77] Creating layer conv4_8_3x3/relu
I0622 01:36:30.477751  4748 net.cpp:106] Creating Layer conv4_8_3x3/relu
I0622 01:36:30.477753  4748 net.cpp:454] conv4_8_3x3/relu <- conv4_8_3x3
I0622 01:36:30.477757  4748 net.cpp:397] conv4_8_3x3/relu -> conv4_8_3x3 (in-place)
I0622 01:36:30.477762  4748 net.cpp:150] Setting up conv4_8_3x3/relu
I0622 01:36:30.477766  4748 net.cpp:157] Top shape: 2 256 60 60 (1843200)
I0622 01:36:30.477767  4748 net.cpp:165] Memory required for data: 3262116400
I0622 01:36:30.477771  4748 layer_factory.hpp:77] Creating layer conv4_8_1x1_increase
I0622 01:36:30.477777  4748 net.cpp:106] Creating Layer conv4_8_1x1_increase
I0622 01:36:30.477779  4748 net.cpp:454] conv4_8_1x1_increase <- conv4_8_3x3
I0622 01:36:30.477783  4748 net.cpp:411] conv4_8_1x1_increase -> conv4_8_1x1_increase
I0622 01:36:30.484534  4748 net.cpp:150] Setting up conv4_8_1x1_increase
I0622 01:36:30.484555  4748 net.cpp:157] Top shape: 2 1024 60 60 (7372800)
I0622 01:36:30.484560  4748 net.cpp:165] Memory required for data: 3291607600
I0622 01:36:30.484566  4748 layer_factory.hpp:77] Creating layer conv4_8_1x1_increase/bn
I0622 01:36:30.484578  4748 net.cpp:106] Creating Layer conv4_8_1x1_increase/bn
I0622 01:36:30.484583  4748 net.cpp:454] conv4_8_1x1_increase/bn <- conv4_8_1x1_increase
I0622 01:36:30.484588  4748 net.cpp:397] conv4_8_1x1_increase/bn -> conv4_8_1x1_increase (in-place)
I0622 01:36:30.484748  4748 net.cpp:150] Setting up conv4_8_1x1_increase/bn
I0622 01:36:30.484753  4748 net.cpp:157] Top shape: 2 1024 60 60 (7372800)
I0622 01:36:30.484756  4748 net.cpp:165] Memory required for data: 3321098800
I0622 01:36:30.484761  4748 layer_factory.hpp:77] Creating layer conv4_8
I0622 01:36:30.484767  4748 net.cpp:106] Creating Layer conv4_8
I0622 01:36:30.484771  4748 net.cpp:454] conv4_8 <- conv4_7_conv4_7/relu_0_split_1
I0622 01:36:30.484774  4748 net.cpp:454] conv4_8 <- conv4_8_1x1_increase
I0622 01:36:30.484779  4748 net.cpp:411] conv4_8 -> conv4_8
I0622 01:36:30.484800  4748 net.cpp:150] Setting up conv4_8
I0622 01:36:30.484805  4748 net.cpp:157] Top shape: 2 1024 60 60 (7372800)
I0622 01:36:30.484809  4748 net.cpp:165] Memory required for data: 3350590000
I0622 01:36:30.484812  4748 layer_factory.hpp:77] Creating layer conv4_8/relu
I0622 01:36:30.484817  4748 net.cpp:106] Creating Layer conv4_8/relu
I0622 01:36:30.484819  4748 net.cpp:454] conv4_8/relu <- conv4_8
I0622 01:36:30.484825  4748 net.cpp:397] conv4_8/relu -> conv4_8 (in-place)
I0622 01:36:30.484832  4748 net.cpp:150] Setting up conv4_8/relu
I0622 01:36:30.484838  4748 net.cpp:157] Top shape: 2 1024 60 60 (7372800)
I0622 01:36:30.484841  4748 net.cpp:165] Memory required for data: 3380081200
I0622 01:36:30.484845  4748 layer_factory.hpp:77] Creating layer conv4_8_conv4_8/relu_0_split
I0622 01:36:30.484853  4748 net.cpp:106] Creating Layer conv4_8_conv4_8/relu_0_split
I0622 01:36:30.484856  4748 net.cpp:454] conv4_8_conv4_8/relu_0_split <- conv4_8
I0622 01:36:30.484863  4748 net.cpp:411] conv4_8_conv4_8/relu_0_split -> conv4_8_conv4_8/relu_0_split_0
I0622 01:36:30.484869  4748 net.cpp:411] conv4_8_conv4_8/relu_0_split -> conv4_8_conv4_8/relu_0_split_1
I0622 01:36:30.484900  4748 net.cpp:150] Setting up conv4_8_conv4_8/relu_0_split
I0622 01:36:30.484906  4748 net.cpp:157] Top shape: 2 1024 60 60 (7372800)
I0622 01:36:30.484912  4748 net.cpp:157] Top shape: 2 1024 60 60 (7372800)
I0622 01:36:30.484916  4748 net.cpp:165] Memory required for data: 3439063600
I0622 01:36:30.484920  4748 layer_factory.hpp:77] Creating layer conv4_9_1x1_reduce
I0622 01:36:30.484930  4748 net.cpp:106] Creating Layer conv4_9_1x1_reduce
I0622 01:36:30.484942  4748 net.cpp:454] conv4_9_1x1_reduce <- conv4_8_conv4_8/relu_0_split_0
I0622 01:36:30.484974  4748 net.cpp:411] conv4_9_1x1_reduce -> conv4_9_1x1_reduce
I0622 01:36:30.492969  4748 net.cpp:150] Setting up conv4_9_1x1_reduce
I0622 01:36:30.493048  4748 net.cpp:157] Top shape: 2 256 60 60 (1843200)
I0622 01:36:30.493055  4748 net.cpp:165] Memory required for data: 3446436400
I0622 01:36:30.493075  4748 layer_factory.hpp:77] Creating layer conv4_9_1x1_reduce/bn
I0622 01:36:30.493113  4748 net.cpp:106] Creating Layer conv4_9_1x1_reduce/bn
I0622 01:36:30.493124  4748 net.cpp:454] conv4_9_1x1_reduce/bn <- conv4_9_1x1_reduce
I0622 01:36:30.493139  4748 net.cpp:397] conv4_9_1x1_reduce/bn -> conv4_9_1x1_reduce (in-place)
I0622 01:36:30.493402  4748 net.cpp:150] Setting up conv4_9_1x1_reduce/bn
I0622 01:36:30.493409  4748 net.cpp:157] Top shape: 2 256 60 60 (1843200)
I0622 01:36:30.493414  4748 net.cpp:165] Memory required for data: 3453809200
I0622 01:36:30.493494  4748 layer_factory.hpp:77] Creating layer conv4_9_1x1_reduce/relu
I0622 01:36:30.493507  4748 net.cpp:106] Creating Layer conv4_9_1x1_reduce/relu
I0622 01:36:30.493512  4748 net.cpp:454] conv4_9_1x1_reduce/relu <- conv4_9_1x1_reduce
I0622 01:36:30.493517  4748 net.cpp:397] conv4_9_1x1_reduce/relu -> conv4_9_1x1_reduce (in-place)
I0622 01:36:30.493526  4748 net.cpp:150] Setting up conv4_9_1x1_reduce/relu
I0622 01:36:30.493531  4748 net.cpp:157] Top shape: 2 256 60 60 (1843200)
I0622 01:36:30.493535  4748 net.cpp:165] Memory required for data: 3461182000
I0622 01:36:30.493540  4748 layer_factory.hpp:77] Creating layer conv4_9_3x3
I0622 01:36:30.493554  4748 net.cpp:106] Creating Layer conv4_9_3x3
I0622 01:36:30.493559  4748 net.cpp:454] conv4_9_3x3 <- conv4_9_1x1_reduce
I0622 01:36:30.493566  4748 net.cpp:411] conv4_9_3x3 -> conv4_9_3x3
I0622 01:36:30.509265  4748 net.cpp:150] Setting up conv4_9_3x3
I0622 01:36:30.509294  4748 net.cpp:157] Top shape: 2 256 60 60 (1843200)
I0622 01:36:30.509299  4748 net.cpp:165] Memory required for data: 3468554800
I0622 01:36:30.509305  4748 layer_factory.hpp:77] Creating layer conv4_9_3x3/bn
I0622 01:36:30.509315  4748 net.cpp:106] Creating Layer conv4_9_3x3/bn
I0622 01:36:30.509318  4748 net.cpp:454] conv4_9_3x3/bn <- conv4_9_3x3
I0622 01:36:30.509322  4748 net.cpp:397] conv4_9_3x3/bn -> conv4_9_3x3 (in-place)
I0622 01:36:30.509485  4748 net.cpp:150] Setting up conv4_9_3x3/bn
I0622 01:36:30.509490  4748 net.cpp:157] Top shape: 2 256 60 60 (1843200)
I0622 01:36:30.509493  4748 net.cpp:165] Memory required for data: 3475927600
I0622 01:36:30.509498  4748 layer_factory.hpp:77] Creating layer conv4_9_3x3/relu
I0622 01:36:30.509503  4748 net.cpp:106] Creating Layer conv4_9_3x3/relu
I0622 01:36:30.509506  4748 net.cpp:454] conv4_9_3x3/relu <- conv4_9_3x3
I0622 01:36:30.509510  4748 net.cpp:397] conv4_9_3x3/relu -> conv4_9_3x3 (in-place)
I0622 01:36:30.509513  4748 net.cpp:150] Setting up conv4_9_3x3/relu
I0622 01:36:30.509517  4748 net.cpp:157] Top shape: 2 256 60 60 (1843200)
I0622 01:36:30.509519  4748 net.cpp:165] Memory required for data: 3483300400
I0622 01:36:30.509522  4748 layer_factory.hpp:77] Creating layer conv4_9_1x1_increase
I0622 01:36:30.509529  4748 net.cpp:106] Creating Layer conv4_9_1x1_increase
I0622 01:36:30.509531  4748 net.cpp:454] conv4_9_1x1_increase <- conv4_9_3x3
I0622 01:36:30.509536  4748 net.cpp:411] conv4_9_1x1_increase -> conv4_9_1x1_increase
I0622 01:36:30.515813  4748 net.cpp:150] Setting up conv4_9_1x1_increase
I0622 01:36:30.515825  4748 net.cpp:157] Top shape: 2 1024 60 60 (7372800)
I0622 01:36:30.515828  4748 net.cpp:165] Memory required for data: 3512791600
I0622 01:36:30.515833  4748 layer_factory.hpp:77] Creating layer conv4_9_1x1_increase/bn
I0622 01:36:30.515841  4748 net.cpp:106] Creating Layer conv4_9_1x1_increase/bn
I0622 01:36:30.515844  4748 net.cpp:454] conv4_9_1x1_increase/bn <- conv4_9_1x1_increase
I0622 01:36:30.515848  4748 net.cpp:397] conv4_9_1x1_increase/bn -> conv4_9_1x1_increase (in-place)
I0622 01:36:30.516002  4748 net.cpp:150] Setting up conv4_9_1x1_increase/bn
I0622 01:36:30.516008  4748 net.cpp:157] Top shape: 2 1024 60 60 (7372800)
I0622 01:36:30.516036  4748 net.cpp:165] Memory required for data: 3542282800
I0622 01:36:30.516042  4748 layer_factory.hpp:77] Creating layer conv4_9
I0622 01:36:30.516047  4748 net.cpp:106] Creating Layer conv4_9
I0622 01:36:30.516050  4748 net.cpp:454] conv4_9 <- conv4_8_conv4_8/relu_0_split_1
I0622 01:36:30.516053  4748 net.cpp:454] conv4_9 <- conv4_9_1x1_increase
I0622 01:36:30.516057  4748 net.cpp:411] conv4_9 -> conv4_9
I0622 01:36:30.516077  4748 net.cpp:150] Setting up conv4_9
I0622 01:36:30.516082  4748 net.cpp:157] Top shape: 2 1024 60 60 (7372800)
I0622 01:36:30.516084  4748 net.cpp:165] Memory required for data: 3571774000
I0622 01:36:30.516086  4748 layer_factory.hpp:77] Creating layer conv4_9/relu
I0622 01:36:30.516090  4748 net.cpp:106] Creating Layer conv4_9/relu
I0622 01:36:30.516093  4748 net.cpp:454] conv4_9/relu <- conv4_9
I0622 01:36:30.516098  4748 net.cpp:397] conv4_9/relu -> conv4_9 (in-place)
I0622 01:36:30.516101  4748 net.cpp:150] Setting up conv4_9/relu
I0622 01:36:30.516105  4748 net.cpp:157] Top shape: 2 1024 60 60 (7372800)
I0622 01:36:30.516108  4748 net.cpp:165] Memory required for data: 3601265200
I0622 01:36:30.516110  4748 layer_factory.hpp:77] Creating layer conv4_9_conv4_9/relu_0_split
I0622 01:36:30.516114  4748 net.cpp:106] Creating Layer conv4_9_conv4_9/relu_0_split
I0622 01:36:30.516118  4748 net.cpp:454] conv4_9_conv4_9/relu_0_split <- conv4_9
I0622 01:36:30.516120  4748 net.cpp:411] conv4_9_conv4_9/relu_0_split -> conv4_9_conv4_9/relu_0_split_0
I0622 01:36:30.516124  4748 net.cpp:411] conv4_9_conv4_9/relu_0_split -> conv4_9_conv4_9/relu_0_split_1
I0622 01:36:30.516149  4748 net.cpp:150] Setting up conv4_9_conv4_9/relu_0_split
I0622 01:36:30.516152  4748 net.cpp:157] Top shape: 2 1024 60 60 (7372800)
I0622 01:36:30.516155  4748 net.cpp:157] Top shape: 2 1024 60 60 (7372800)
I0622 01:36:30.516158  4748 net.cpp:165] Memory required for data: 3660247600
I0622 01:36:30.516160  4748 layer_factory.hpp:77] Creating layer conv4_10_1x1_reduce
I0622 01:36:30.516167  4748 net.cpp:106] Creating Layer conv4_10_1x1_reduce
I0622 01:36:30.516170  4748 net.cpp:454] conv4_10_1x1_reduce <- conv4_9_conv4_9/relu_0_split_0
I0622 01:36:30.516175  4748 net.cpp:411] conv4_10_1x1_reduce -> conv4_10_1x1_reduce
I0622 01:36:30.521838  4748 net.cpp:150] Setting up conv4_10_1x1_reduce
I0622 01:36:30.521848  4748 net.cpp:157] Top shape: 2 256 60 60 (1843200)
I0622 01:36:30.521852  4748 net.cpp:165] Memory required for data: 3667620400
I0622 01:36:30.521855  4748 layer_factory.hpp:77] Creating layer conv4_10_1x1_reduce/bn
I0622 01:36:30.521862  4748 net.cpp:106] Creating Layer conv4_10_1x1_reduce/bn
I0622 01:36:30.521864  4748 net.cpp:454] conv4_10_1x1_reduce/bn <- conv4_10_1x1_reduce
I0622 01:36:30.521869  4748 net.cpp:397] conv4_10_1x1_reduce/bn -> conv4_10_1x1_reduce (in-place)
I0622 01:36:30.522007  4748 net.cpp:150] Setting up conv4_10_1x1_reduce/bn
I0622 01:36:30.522011  4748 net.cpp:157] Top shape: 2 256 60 60 (1843200)
I0622 01:36:30.522014  4748 net.cpp:165] Memory required for data: 3674993200
I0622 01:36:30.522019  4748 layer_factory.hpp:77] Creating layer conv4_10_1x1_reduce/relu
I0622 01:36:30.522023  4748 net.cpp:106] Creating Layer conv4_10_1x1_reduce/relu
I0622 01:36:30.522027  4748 net.cpp:454] conv4_10_1x1_reduce/relu <- conv4_10_1x1_reduce
I0622 01:36:30.522030  4748 net.cpp:397] conv4_10_1x1_reduce/relu -> conv4_10_1x1_reduce (in-place)
I0622 01:36:30.522035  4748 net.cpp:150] Setting up conv4_10_1x1_reduce/relu
I0622 01:36:30.522038  4748 net.cpp:157] Top shape: 2 256 60 60 (1843200)
I0622 01:36:30.522042  4748 net.cpp:165] Memory required for data: 3682366000
I0622 01:36:30.522044  4748 layer_factory.hpp:77] Creating layer conv4_10_3x3
I0622 01:36:30.522050  4748 net.cpp:106] Creating Layer conv4_10_3x3
I0622 01:36:30.522053  4748 net.cpp:454] conv4_10_3x3 <- conv4_10_1x1_reduce
I0622 01:36:30.522058  4748 net.cpp:411] conv4_10_3x3 -> conv4_10_3x3
I0622 01:36:30.535281  4748 net.cpp:150] Setting up conv4_10_3x3
I0622 01:36:30.535305  4748 net.cpp:157] Top shape: 2 256 60 60 (1843200)
I0622 01:36:30.535326  4748 net.cpp:165] Memory required for data: 3689738800
I0622 01:36:30.535332  4748 layer_factory.hpp:77] Creating layer conv4_10_3x3/bn
I0622 01:36:30.535342  4748 net.cpp:106] Creating Layer conv4_10_3x3/bn
I0622 01:36:30.535346  4748 net.cpp:454] conv4_10_3x3/bn <- conv4_10_3x3
I0622 01:36:30.535351  4748 net.cpp:397] conv4_10_3x3/bn -> conv4_10_3x3 (in-place)
I0622 01:36:30.535504  4748 net.cpp:150] Setting up conv4_10_3x3/bn
I0622 01:36:30.535509  4748 net.cpp:157] Top shape: 2 256 60 60 (1843200)
I0622 01:36:30.535512  4748 net.cpp:165] Memory required for data: 3697111600
I0622 01:36:30.535517  4748 layer_factory.hpp:77] Creating layer conv4_10_3x3/relu
I0622 01:36:30.535522  4748 net.cpp:106] Creating Layer conv4_10_3x3/relu
I0622 01:36:30.535526  4748 net.cpp:454] conv4_10_3x3/relu <- conv4_10_3x3
I0622 01:36:30.535528  4748 net.cpp:397] conv4_10_3x3/relu -> conv4_10_3x3 (in-place)
I0622 01:36:30.535533  4748 net.cpp:150] Setting up conv4_10_3x3/relu
I0622 01:36:30.535537  4748 net.cpp:157] Top shape: 2 256 60 60 (1843200)
I0622 01:36:30.535538  4748 net.cpp:165] Memory required for data: 3704484400
I0622 01:36:30.535542  4748 layer_factory.hpp:77] Creating layer conv4_10_1x1_increase
I0622 01:36:30.535548  4748 net.cpp:106] Creating Layer conv4_10_1x1_increase
I0622 01:36:30.535550  4748 net.cpp:454] conv4_10_1x1_increase <- conv4_10_3x3
I0622 01:36:30.535555  4748 net.cpp:411] conv4_10_1x1_increase -> conv4_10_1x1_increase
I0622 01:36:30.542135  4748 net.cpp:150] Setting up conv4_10_1x1_increase
I0622 01:36:30.542177  4748 net.cpp:157] Top shape: 2 1024 60 60 (7372800)
I0622 01:36:30.542182  4748 net.cpp:165] Memory required for data: 3733975600
I0622 01:36:30.542196  4748 layer_factory.hpp:77] Creating layer conv4_10_1x1_increase/bn
I0622 01:36:30.542212  4748 net.cpp:106] Creating Layer conv4_10_1x1_increase/bn
I0622 01:36:30.542218  4748 net.cpp:454] conv4_10_1x1_increase/bn <- conv4_10_1x1_increase
I0622 01:36:30.542225  4748 net.cpp:397] conv4_10_1x1_increase/bn -> conv4_10_1x1_increase (in-place)
I0622 01:36:30.542435  4748 net.cpp:150] Setting up conv4_10_1x1_increase/bn
I0622 01:36:30.542443  4748 net.cpp:157] Top shape: 2 1024 60 60 (7372800)
I0622 01:36:30.542448  4748 net.cpp:165] Memory required for data: 3763466800
I0622 01:36:30.542455  4748 layer_factory.hpp:77] Creating layer conv4_10
I0622 01:36:30.542464  4748 net.cpp:106] Creating Layer conv4_10
I0622 01:36:30.542469  4748 net.cpp:454] conv4_10 <- conv4_9_conv4_9/relu_0_split_1
I0622 01:36:30.542474  4748 net.cpp:454] conv4_10 <- conv4_10_1x1_increase
I0622 01:36:30.542479  4748 net.cpp:411] conv4_10 -> conv4_10
I0622 01:36:30.542506  4748 net.cpp:150] Setting up conv4_10
I0622 01:36:30.542512  4748 net.cpp:157] Top shape: 2 1024 60 60 (7372800)
I0622 01:36:30.542515  4748 net.cpp:165] Memory required for data: 3792958000
I0622 01:36:30.542520  4748 layer_factory.hpp:77] Creating layer conv4_10/relu
I0622 01:36:30.542526  4748 net.cpp:106] Creating Layer conv4_10/relu
I0622 01:36:30.542531  4748 net.cpp:454] conv4_10/relu <- conv4_10
I0622 01:36:30.542537  4748 net.cpp:397] conv4_10/relu -> conv4_10 (in-place)
I0622 01:36:30.542543  4748 net.cpp:150] Setting up conv4_10/relu
I0622 01:36:30.542548  4748 net.cpp:157] Top shape: 2 1024 60 60 (7372800)
I0622 01:36:30.542552  4748 net.cpp:165] Memory required for data: 3822449200
I0622 01:36:30.542557  4748 layer_factory.hpp:77] Creating layer conv4_10_conv4_10/relu_0_split
I0622 01:36:30.542562  4748 net.cpp:106] Creating Layer conv4_10_conv4_10/relu_0_split
I0622 01:36:30.542567  4748 net.cpp:454] conv4_10_conv4_10/relu_0_split <- conv4_10
I0622 01:36:30.542572  4748 net.cpp:411] conv4_10_conv4_10/relu_0_split -> conv4_10_conv4_10/relu_0_split_0
I0622 01:36:30.542578  4748 net.cpp:411] conv4_10_conv4_10/relu_0_split -> conv4_10_conv4_10/relu_0_split_1
I0622 01:36:30.542609  4748 net.cpp:150] Setting up conv4_10_conv4_10/relu_0_split
I0622 01:36:30.542615  4748 net.cpp:157] Top shape: 2 1024 60 60 (7372800)
I0622 01:36:30.542620  4748 net.cpp:157] Top shape: 2 1024 60 60 (7372800)
I0622 01:36:30.542645  4748 net.cpp:165] Memory required for data: 3881431600
I0622 01:36:30.542650  4748 layer_factory.hpp:77] Creating layer conv4_11_1x1_reduce
I0622 01:36:30.542659  4748 net.cpp:106] Creating Layer conv4_11_1x1_reduce
I0622 01:36:30.542664  4748 net.cpp:454] conv4_11_1x1_reduce <- conv4_10_conv4_10/relu_0_split_0
I0622 01:36:30.542670  4748 net.cpp:411] conv4_11_1x1_reduce -> conv4_11_1x1_reduce
I0622 01:36:30.550791  4748 net.cpp:150] Setting up conv4_11_1x1_reduce
I0622 01:36:30.550859  4748 net.cpp:157] Top shape: 2 256 60 60 (1843200)
I0622 01:36:30.550865  4748 net.cpp:165] Memory required for data: 3888804400
I0622 01:36:30.550882  4748 layer_factory.hpp:77] Creating layer conv4_11_1x1_reduce/bn
I0622 01:36:30.550905  4748 net.cpp:106] Creating Layer conv4_11_1x1_reduce/bn
I0622 01:36:30.550915  4748 net.cpp:454] conv4_11_1x1_reduce/bn <- conv4_11_1x1_reduce
I0622 01:36:30.550952  4748 net.cpp:397] conv4_11_1x1_reduce/bn -> conv4_11_1x1_reduce (in-place)
I0622 01:36:30.551223  4748 net.cpp:150] Setting up conv4_11_1x1_reduce/bn
I0622 01:36:30.551234  4748 net.cpp:157] Top shape: 2 256 60 60 (1843200)
I0622 01:36:30.551237  4748 net.cpp:165] Memory required for data: 3896177200
I0622 01:36:30.551249  4748 layer_factory.hpp:77] Creating layer conv4_11_1x1_reduce/relu
I0622 01:36:30.551259  4748 net.cpp:106] Creating Layer conv4_11_1x1_reduce/relu
I0622 01:36:30.551265  4748 net.cpp:454] conv4_11_1x1_reduce/relu <- conv4_11_1x1_reduce
I0622 01:36:30.551271  4748 net.cpp:397] conv4_11_1x1_reduce/relu -> conv4_11_1x1_reduce (in-place)
I0622 01:36:30.551280  4748 net.cpp:150] Setting up conv4_11_1x1_reduce/relu
I0622 01:36:30.551285  4748 net.cpp:157] Top shape: 2 256 60 60 (1843200)
I0622 01:36:30.551288  4748 net.cpp:165] Memory required for data: 3903550000
I0622 01:36:30.551293  4748 layer_factory.hpp:77] Creating layer conv4_11_3x3
I0622 01:36:30.551307  4748 net.cpp:106] Creating Layer conv4_11_3x3
I0622 01:36:30.551312  4748 net.cpp:454] conv4_11_3x3 <- conv4_11_1x1_reduce
I0622 01:36:30.551317  4748 net.cpp:411] conv4_11_3x3 -> conv4_11_3x3
I0622 01:36:30.567263  4748 net.cpp:150] Setting up conv4_11_3x3
I0622 01:36:30.567292  4748 net.cpp:157] Top shape: 2 256 60 60 (1843200)
I0622 01:36:30.567296  4748 net.cpp:165] Memory required for data: 3910922800
I0622 01:36:30.567301  4748 layer_factory.hpp:77] Creating layer conv4_11_3x3/bn
I0622 01:36:30.567312  4748 net.cpp:106] Creating Layer conv4_11_3x3/bn
I0622 01:36:30.567317  4748 net.cpp:454] conv4_11_3x3/bn <- conv4_11_3x3
I0622 01:36:30.567322  4748 net.cpp:397] conv4_11_3x3/bn -> conv4_11_3x3 (in-place)
I0622 01:36:30.567473  4748 net.cpp:150] Setting up conv4_11_3x3/bn
I0622 01:36:30.567478  4748 net.cpp:157] Top shape: 2 256 60 60 (1843200)
I0622 01:36:30.567481  4748 net.cpp:165] Memory required for data: 3918295600
I0622 01:36:30.567487  4748 layer_factory.hpp:77] Creating layer conv4_11_3x3/relu
…
I0622 01:36:30.863764  4748 net.cpp:150] Setting up conv4_21/relu
I0622 01:36:30.863766  4748 net.cpp:157] Top shape: 2 1024 60 60 (7372800)
I0622 01:36:30.863768  4748 net.cpp:165] Memory required for data: 6255473200
I0622 01:36:30.863770  4748 layer_factory.hpp:77] Creating layer conv4_21_conv4_21/relu_0_split
I0622 01:36:30.863775  4748 net.cpp:106] Creating Layer conv4_21_conv4_21/relu_0_split
I0622 01:36:30.863778  4748 net.cpp:454] conv4_21_conv4_21/relu_0_split <- conv4_21
I0622 01:36:30.863781  4748 net.cpp:411] conv4_21_conv4_21/relu_0_split -> conv4_21_conv4_21/relu_0_split_0
I0622 01:36:30.863785  4748 net.cpp:411] conv4_21_conv4_21/relu_0_split -> conv4_21_conv4_21/relu_0_split_1
I0622 01:36:30.863826  4748 net.cpp:150] Setting up conv4_21_conv4_21/relu_0_split
I0622 01:36:30.863831  4748 net.cpp:157] Top shape: 2 1024 60 60 (7372800)
I0622 01:36:30.863833  4748 net.cpp:157] Top shape: 2 1024 60 60 (7372800)
I0622 01:36:30.863836  4748 net.cpp:165] Memory required for data: 6314455600
I0622 01:36:30.863838  4748 layer_factory.hpp:77] Creating layer conv4_22_1x1_reduce
I0622 01:36:30.863845  4748 net.cpp:106] Creating Layer conv4_22_1x1_reduce
I0622 01:36:30.863848  4748 net.cpp:454] conv4_22_1x1_reduce <- conv4_21_conv4_21/relu_0_split_0
I0622 01:36:30.863853  4748 net.cpp:411] conv4_22_1x1_reduce -> conv4_22_1x1_reduce
I0622 01:36:30.870004  4748 net.cpp:150] Setting up conv4_22_1x1_reduce
I0622 01:36:30.870036  4748 net.cpp:157] Top shape: 2 256 60 60 (1843200)
I0622 01:36:30.870039  4748 net.cpp:165] Memory required for data: 6321828400
I0622 01:36:30.870046  4748 layer_factory.hpp:77] Creating layer conv4_22_1x1_reduce/bn
I0622 01:36:30.870065  4748 net.cpp:106] Creating Layer conv4_22_1x1_reduce/bn
I0622 01:36:30.870071  4748 net.cpp:454] conv4_22_1x1_reduce/bn <- conv4_22_1x1_reduce
I0622 01:36:30.870077  4748 net.cpp:397] conv4_22_1x1_reduce/bn -> conv4_22_1x1_reduce (in-place)
I0622 01:36:30.870311  4748 net.cpp:150] Setting up conv4_22_1x1_reduce/bn
I0622 01:36:30.870317  4748 net.cpp:157] Top shape: 2 256 60 60 (1843200)
I0622 01:36:30.870321  4748 net.cpp:165] Memory required for data: 6329201200
I0622 01:36:30.870331  4748 layer_factory.hpp:77] Creating layer conv4_22_1x1_reduce/relu
I0622 01:36:30.870337  4748 net.cpp:106] Creating Layer conv4_22_1x1_reduce/relu
I0622 01:36:30.870339  4748 net.cpp:454] conv4_22_1x1_reduce/relu <- conv4_22_1x1_reduce
I0622 01:36:30.870343  4748 net.cpp:397] conv4_22_1x1_reduce/relu -> conv4_22_1x1_reduce (in-place)
I0622 01:36:30.870349  4748 net.cpp:150] Setting up conv4_22_1x1_reduce/relu
I0622 01:36:30.870354  4748 net.cpp:157] Top shape: 2 256 60 60 (1843200)
I0622 01:36:30.870358  4748 net.cpp:165] Memory required for data: 6336574000
I0622 01:36:30.870362  4748 layer_factory.hpp:77] Creating layer conv4_22_3x3
I0622 01:36:30.870371  4748 net.cpp:106] Creating Layer conv4_22_3x3
I0622 01:36:30.870374  4748 net.cpp:454] conv4_22_3x3 <- conv4_22_1x1_reduce
I0622 01:36:30.870378  4748 net.cpp:411] conv4_22_3x3 -> conv4_22_3x3
I0622 01:36:30.887416  4748 net.cpp:150] Setting up conv4_22_3x3
I0622 01:36:30.887451  4748 net.cpp:157] Top shape: 2 256 60 60 (1843200)
I0622 01:36:30.887456  4748 net.cpp:165] Memory required for data: 6343946800
I0622 01:36:30.887478  4748 layer_factory.hpp:77] Creating layer conv4_22_3x3/bn
I0622 01:36:30.887490  4748 net.cpp:106] Creating Layer conv4_22_3x3/bn
I0622 01:36:30.887496  4748 net.cpp:454] conv4_22_3x3/bn <- conv4_22_3x3
I0622 01:36:30.887503  4748 net.cpp:397] conv4_22_3x3/bn -> conv4_22_3x3 (in-place)
I0622 01:36:30.887723  4748 net.cpp:150] Setting up conv4_22_3x3/bn
I0622 01:36:30.887729  4748 net.cpp:157] Top shape: 2 256 60 60 (1843200)
I0622 01:36:30.887748  4748 net.cpp:165] Memory required for data: 6351319600
I0622 01:36:30.887755  4748 layer_factory.hpp:77] Creating layer conv4_22_3x3/relu
I0622 01:36:30.887761  4748 net.cpp:106] Creating Layer conv4_22_3x3/relu
I0622 01:36:30.887764  4748 net.cpp:454] conv4_22_3x3/relu <- conv4_22_3x3
I0622 01:36:30.887769  4748 net.cpp:397] conv4_22_3x3/relu -> conv4_22_3x3 (in-place)
I0622 01:36:30.887774  4748 net.cpp:150] Setting up conv4_22_3x3/relu
I0622 01:36:30.887778  4748 net.cpp:157] Top shape: 2 256 60 60 (1843200)
I0622 01:36:30.887783  4748 net.cpp:165] Memory required for data: 6358692400
I0622 01:36:30.887786  4748 layer_factory.hpp:77] Creating layer conv4_22_1x1_increase
I0622 01:36:30.887795  4748 net.cpp:106] Creating Layer conv4_22_1x1_increase
I0622 01:36:30.887799  4748 net.cpp:454] conv4_22_1x1_increase <- conv4_22_3x3
I0622 01:36:30.887805  4748 net.cpp:411] conv4_22_1x1_increase -> conv4_22_1x1_increase
I0622 01:36:30.895309  4748 net.cpp:150] Setting up conv4_22_1x1_increase
I0622 01:36:30.895383  4748 net.cpp:157] Top shape: 2 1024 60 60 (7372800)
I0622 01:36:30.895433  4748 net.cpp:165] Memory required for data: 6388183600
I0622 01:36:30.895448  4748 layer_factory.hpp:77] Creating layer conv4_22_1x1_increase/bn
I0622 01:36:30.895469  4748 net.cpp:106] Creating Layer conv4_22_1x1_increase/bn
I0622 01:36:30.895479  4748 net.cpp:454] conv4_22_1x1_increase/bn <- conv4_22_1x1_increase
I0622 01:36:30.895488  4748 net.cpp:397] conv4_22_1x1_increase/bn -> conv4_22_1x1_increase (in-place)
I0622 01:36:30.895726  4748 net.cpp:150] Setting up conv4_22_1x1_increase/bn
I0622 01:36:30.895733  4748 net.cpp:157] Top shape: 2 1024 60 60 (7372800)
I0622 01:36:30.895736  4748 net.cpp:165] Memory required for data: 6417674800
I0622 01:36:30.895745  4748 layer_factory.hpp:77] Creating layer conv4_22
I0622 01:36:30.895753  4748 net.cpp:106] Creating Layer conv4_22
I0622 01:36:30.895757  4748 net.cpp:454] conv4_22 <- conv4_21_conv4_21/relu_0_split_1
I0622 01:36:30.895761  4748 net.cpp:454] conv4_22 <- conv4_22_1x1_increase
I0622 01:36:30.895766  4748 net.cpp:411] conv4_22 -> conv4_22
I0622 01:36:30.895799  4748 net.cpp:150] Setting up conv4_22
I0622 01:36:30.895803  4748 net.cpp:157] Top shape: 2 1024 60 60 (7372800)
I0622 01:36:30.895807  4748 net.cpp:165] Memory required for data: 6447166000
I0622 01:36:30.895809  4748 layer_factory.hpp:77] Creating layer conv4_22/relu
I0622 01:36:30.895817  4748 net.cpp:106] Creating Layer conv4_22/relu
I0622 01:36:30.895819  4748 net.cpp:454] conv4_22/relu <- conv4_22
I0622 01:36:30.895823  4748 net.cpp:397] conv4_22/relu -> conv4_22 (in-place)
I0622 01:36:30.895828  4748 net.cpp:150] Setting up conv4_22/relu
I0622 01:36:30.895833  4748 net.cpp:157] Top shape: 2 1024 60 60 (7372800)
I0622 01:36:30.895834  4748 net.cpp:165] Memory required for data: 6476657200
I0622 01:36:30.895838  4748 layer_factory.hpp:77] Creating layer conv4_22_conv4_22/relu_0_split
I0622 01:36:30.895843  4748 net.cpp:106] Creating Layer conv4_22_conv4_22/relu_0_split
I0622 01:36:30.895845  4748 net.cpp:454] conv4_22_conv4_22/relu_0_split <- conv4_22
I0622 01:36:30.895849  4748 net.cpp:411] conv4_22_conv4_22/relu_0_split -> conv4_22_conv4_22/relu_0_split_0
I0622 01:36:30.895853  4748 net.cpp:411] conv4_22_conv4_22/relu_0_split -> conv4_22_conv4_22/relu_0_split_1
I0622 01:36:30.895879  4748 net.cpp:150] Setting up conv4_22_conv4_22/relu_0_split
I0622 01:36:30.895882  4748 net.cpp:157] Top shape: 2 1024 60 60 (7372800)
I0622 01:36:30.895886  4748 net.cpp:157] Top shape: 2 1024 60 60 (7372800)
I0622 01:36:30.895889  4748 net.cpp:165] Memory required for data: 6535639600
I0622 01:36:30.895891  4748 layer_factory.hpp:77] Creating layer conv4_23_1x1_reduce
I0622 01:36:30.895917  4748 net.cpp:106] Creating Layer conv4_23_1x1_reduce
I0622 01:36:30.895920  4748 net.cpp:454] conv4_23_1x1_reduce <- conv4_22_conv4_22/relu_0_split_0
I0622 01:36:30.895926  4748 net.cpp:411] conv4_23_1x1_reduce -> conv4_23_1x1_reduce
I0622 01:36:30.902060  4748 net.cpp:150] Setting up conv4_23_1x1_reduce
I0622 01:36:30.902125  4748 net.cpp:157] Top shape: 2 256 60 60 (1843200)
I0622 01:36:30.902129  4748 net.cpp:165] Memory required for data: 6543012400
I0622 01:36:30.902142  4748 layer_factory.hpp:77] Creating layer conv4_23_1x1_reduce/bn
I0622 01:36:30.902163  4748 net.cpp:106] Creating Layer conv4_23_1x1_reduce/bn
I0622 01:36:30.902171  4748 net.cpp:454] conv4_23_1x1_reduce/bn <- conv4_23_1x1_reduce
I0622 01:36:30.902182  4748 net.cpp:397] conv4_23_1x1_reduce/bn -> conv4_23_1x1_reduce (in-place)
I0622 01:36:30.902406  4748 net.cpp:150] Setting up conv4_23_1x1_reduce/bn
I0622 01:36:30.902413  4748 net.cpp:157] Top shape: 2 256 60 60 (1843200)
I0622 01:36:30.902416  4748 net.cpp:165] Memory required for data: 6550385200
I0622 01:36:30.902422  4748 layer_factory.hpp:77] Creating layer conv4_23_1x1_reduce/relu
I0622 01:36:30.902431  4748 net.cpp:106] Creating Layer conv4_23_1x1_reduce/relu
I0622 01:36:30.902434  4748 net.cpp:454] conv4_23_1x1_reduce/relu <- conv4_23_1x1_reduce
I0622 01:36:30.902439  4748 net.cpp:397] conv4_23_1x1_reduce/relu -> conv4_23_1x1_reduce (in-place)
I0622 01:36:30.902485  4748 net.cpp:150] Setting up conv4_23_1x1_reduce/relu
I0622 01:36:30.902489  4748 net.cpp:157] Top shape: 2 256 60 60 (1843200)
I0622 01:36:30.902492  4748 net.cpp:165] Memory required for data: 6557758000
I0622 01:36:30.902495  4748 layer_factory.hpp:77] Creating layer conv4_23_3x3
I0622 01:36:30.902505  4748 net.cpp:106] Creating Layer conv4_23_3x3
I0622 01:36:30.902508  4748 net.cpp:454] conv4_23_3x3 <- conv4_23_1x1_reduce
I0622 01:36:30.902513  4748 net.cpp:411] conv4_23_3x3 -> conv4_23_3x3
I0622 01:36:30.917634  4748 net.cpp:150] Setting up conv4_23_3x3
I0622 01:36:30.917654  4748 net.cpp:157] Top shape: 2 256 60 60 (1843200)
I0622 01:36:30.917657  4748 net.cpp:165] Memory required for data: 6565130800
I0622 01:36:30.917664  4748 layer_factory.hpp:77] Creating layer conv4_23_3x3/bn
I0622 01:36:30.917675  4748 net.cpp:106] Creating Layer conv4_23_3x3/bn
I0622 01:36:30.917680  4748 net.cpp:454] conv4_23_3x3/bn <- conv4_23_3x3
I0622 01:36:30.917686  4748 net.cpp:397] conv4_23_3x3/bn -> conv4_23_3x3 (in-place)
I0622 01:36:30.917883  4748 net.cpp:150] Setting up conv4_23_3x3/bn
I0622 01:36:30.917888  4748 net.cpp:157] Top shape: 2 256 60 60 (1843200)
I0622 01:36:30.917891  4748 net.cpp:165] Memory required for data: 6572503600
I0622 01:36:30.917896  4748 layer_factory.hpp:77] Creating layer conv4_23_3x3/relu
I0622 01:36:30.917901  4748 net.cpp:106] Creating Layer conv4_23_3x3/relu
I0622 01:36:30.917902  4748 net.cpp:454] conv4_23_3x3/relu <- conv4_23_3x3
I0622 01:36:30.917904  4748 net.cpp:397] conv4_23_3x3/relu -> conv4_23_3x3 (in-place)
I0622 01:36:30.917908  4748 net.cpp:150] Setting up conv4_23_3x3/relu
I0622 01:36:30.917912  4748 net.cpp:157] Top shape: 2 256 60 60 (1843200)
I0622 01:36:30.917913  4748 net.cpp:165] Memory required for data: 6579876400
I0622 01:36:30.917917  4748 layer_factory.hpp:77] Creating layer conv4_23_1x1_increase
I0622 01:36:30.917923  4748 net.cpp:106] Creating Layer conv4_23_1x1_increase
I0622 01:36:30.917927  4748 net.cpp:454] conv4_23_1x1_increase <- conv4_23_3x3
I0622 01:36:30.917930  4748 net.cpp:411] conv4_23_1x1_increase -> conv4_23_1x1_increase
I0622 01:36:30.924803  4748 net.cpp:150] Setting up conv4_23_1x1_increase
I0622 01:36:30.924815  4748 net.cpp:157] Top shape: 2 1024 60 60 (7372800)
I0622 01:36:30.924818  4748 net.cpp:165] Memory required for data: 6609367600
I0622 01:36:30.924823  4748 layer_factory.hpp:77] Creating layer conv4_23_1x1_increase/bn
I0622 01:36:30.924829  4748 net.cpp:106] Creating Layer conv4_23_1x1_increase/bn
I0622 01:36:30.924834  4748 net.cpp:454] conv4_23_1x1_increase/bn <- conv4_23_1x1_increase
I0622 01:36:30.924839  4748 net.cpp:397] conv4_23_1x1_increase/bn -> conv4_23_1x1_increase (in-place)
I0622 01:36:30.925026  4748 net.cpp:150] Setting up conv4_23_1x1_increase/bn
I0622 01:36:30.925031  4748 net.cpp:157] Top shape: 2 1024 60 60 (7372800)
I0622 01:36:30.925034  4748 net.cpp:165] Memory required for data: 6638858800
I0622 01:36:30.925040  4748 layer_factory.hpp:77] Creating layer conv4_23
I0622 01:36:30.925045  4748 net.cpp:106] Creating Layer conv4_23
I0622 01:36:30.925048  4748 net.cpp:454] conv4_23 <- conv4_22_conv4_22/relu_0_split_1
I0622 01:36:30.925052  4748 net.cpp:454] conv4_23 <- conv4_23_1x1_increase
I0622 01:36:30.925056  4748 net.cpp:411] conv4_23 -> conv4_23
I0622 01:36:30.925076  4748 net.cpp:150] Setting up conv4_23
I0622 01:36:30.925079  4748 net.cpp:157] Top shape: 2 1024 60 60 (7372800)
I0622 01:36:30.925081  4748 net.cpp:165] Memory required for data: 6668350000
I0622 01:36:30.925083  4748 layer_factory.hpp:77] Creating layer conv4_23/relu
I0622 01:36:30.925087  4748 net.cpp:106] Creating Layer conv4_23/relu
I0622 01:36:30.925089  4748 net.cpp:454] conv4_23/relu <- conv4_23
I0622 01:36:30.925093  4748 net.cpp:397] conv4_23/relu -> conv4_23 (in-place)
I0622 01:36:30.925096  4748 net.cpp:150] Setting up conv4_23/relu
I0622 01:36:30.925099  4748 net.cpp:157] Top shape: 2 1024 60 60 (7372800)
I0622 01:36:30.925101  4748 net.cpp:165] Memory required for data: 6697841200
I0622 01:36:30.925103  4748 layer_factory.hpp:77] Creating layer conv4_23_conv4_23/relu_0_split
I0622 01:36:30.925123  4748 net.cpp:106] Creating Layer conv4_23_conv4_23/relu_0_split
I0622 01:36:30.925125  4748 net.cpp:454] conv4_23_conv4_23/relu_0_split <- conv4_23
I0622 01:36:30.925128  4748 net.cpp:411] conv4_23_conv4_23/relu_0_split -> conv4_23_conv4_23/relu_0_split_0
I0622 01:36:30.925132  4748 net.cpp:411] conv4_23_conv4_23/relu_0_split -> conv4_23_conv4_23/relu_0_split_1
I0622 01:36:30.925158  4748 net.cpp:150] Setting up conv4_23_conv4_23/relu_0_split
I0622 01:36:30.925160  4748 net.cpp:157] Top shape: 2 1024 60 60 (7372800)
I0622 01:36:30.925163  4748 net.cpp:157] Top shape: 2 1024 60 60 (7372800)
I0622 01:36:30.925165  4748 net.cpp:165] Memory required for data: 6756823600
I0622 01:36:30.925168  4748 layer_factory.hpp:77] Creating layer conv5_1_1x1_reduce
I0622 01:36:30.925173  4748 net.cpp:106] Creating Layer conv5_1_1x1_reduce
I0622 01:36:30.925175  4748 net.cpp:454] conv5_1_1x1_reduce <- conv4_23_conv4_23/relu_0_split_0
I0622 01:36:30.925181  4748 net.cpp:411] conv5_1_1x1_reduce -> conv5_1_1x1_reduce
I0622 01:36:30.937144  4748 net.cpp:150] Setting up conv5_1_1x1_reduce
I0622 01:36:30.937193  4748 net.cpp:157] Top shape: 2 512 60 60 (3686400)
I0622 01:36:30.937199  4748 net.cpp:165] Memory required for data: 6771569200
I0622 01:36:30.937211  4748 layer_factory.hpp:77] Creating layer conv5_1_1x1_reduce/bn
I0622 01:36:30.937228  4748 net.cpp:106] Creating Layer conv5_1_1x1_reduce/bn
I0622 01:36:30.937237  4748 net.cpp:454] conv5_1_1x1_reduce/bn <- conv5_1_1x1_reduce
I0622 01:36:30.937243  4748 net.cpp:397] conv5_1_1x1_reduce/bn -> conv5_1_1x1_reduce (in-place)
I0622 01:36:30.937505  4748 net.cpp:150] Setting up conv5_1_1x1_reduce/bn
I0622 01:36:30.937515  4748 net.cpp:157] Top shape: 2 512 60 60 (3686400)
I0622 01:36:30.937520  4748 net.cpp:165] Memory required for data: 6786314800
I0622 01:36:30.937530  4748 layer_factory.hpp:77] Creating layer conv5_1_1x1_reduce/relu
I0622 01:36:30.937542  4748 net.cpp:106] Creating Layer conv5_1_1x1_reduce/relu
I0622 01:36:30.937548  4748 net.cpp:454] conv5_1_1x1_reduce/relu <- conv5_1_1x1_reduce
I0622 01:36:30.937553  4748 net.cpp:397] conv5_1_1x1_reduce/relu -> conv5_1_1x1_reduce (in-place)
I0622 01:36:30.937563  4748 net.cpp:150] Setting up conv5_1_1x1_reduce/relu
I0622 01:36:30.937568  4748 net.cpp:157] Top shape: 2 512 60 60 (3686400)
I0622 01:36:30.937572  4748 net.cpp:165] Memory required for data: 6801060400
I0622 01:36:30.937577  4748 layer_factory.hpp:77] Creating layer conv5_1_3x3
I0622 01:36:30.937592  4748 net.cpp:106] Creating Layer conv5_1_3x3
I0622 01:36:30.937597  4748 net.cpp:454] conv5_1_3x3 <- conv5_1_1x1_reduce
I0622 01:36:30.937603  4748 net.cpp:411] conv5_1_3x3 -> conv5_1_3x3
I0622 01:36:30.997090  4748 net.cpp:150] Setting up conv5_1_3x3
I0622 01:36:30.997122  4748 net.cpp:157] Top shape: 2 512 60 60 (3686400)
I0622 01:36:30.997126  4748 net.cpp:165] Memory required for data: 6815806000
I0622 01:36:30.997136  4748 layer_factory.hpp:77] Creating layer conv5_1_3x3/bn
I0622 01:36:30.997156  4748 net.cpp:106] Creating Layer conv5_1_3x3/bn
I0622 01:36:30.997164  4748 net.cpp:454] conv5_1_3x3/bn <- conv5_1_3x3
I0622 01:36:30.997169  4748 net.cpp:397] conv5_1_3x3/bn -> conv5_1_3x3 (in-place)
I0622 01:36:30.997370  4748 net.cpp:150] Setting up conv5_1_3x3/bn
I0622 01:36:30.997376  4748 net.cpp:157] Top shape: 2 512 60 60 (3686400)
I0622 01:36:30.997378  4748 net.cpp:165] Memory required for data: 6830551600
I0622 01:36:30.997383  4748 layer_factory.hpp:77] Creating layer conv5_1_3x3/relu
I0622 01:36:30.997390  4748 net.cpp:106] Creating Layer conv5_1_3x3/relu
I0622 01:36:30.997392  4748 net.cpp:454] conv5_1_3x3/relu <- conv5_1_3x3
I0622 01:36:30.997395  4748 net.cpp:397] conv5_1_3x3/relu -> conv5_1_3x3 (in-place)
I0622 01:36:30.997400  4748 net.cpp:150] Setting up conv5_1_3x3/relu
I0622 01:36:30.997402  4748 net.cpp:157] Top shape: 2 512 60 60 (3686400)
I0622 01:36:30.997404  4748 net.cpp:165] Memory required for data: 6845297200
I0622 01:36:30.997407  4748 layer_factory.hpp:77] Creating layer conv5_1_1x1_increase
I0622 01:36:30.997445  4748 net.cpp:106] Creating Layer conv5_1_1x1_increase
I0622 01:36:30.997447  4748 net.cpp:454] conv5_1_1x1_increase <- conv5_1_3x3
I0622 01:36:30.997452  4748 net.cpp:411] conv5_1_1x1_increase -> conv5_1_1x1_increase
I0622 01:36:31.026017  4748 net.cpp:150] Setting up conv5_1_1x1_increase
I0622 01:36:31.026087  4748 net.cpp:157] Top shape: 2 2048 60 60 (14745600)
I0622 01:36:31.026093  4748 net.cpp:165] Memory required for data: 6904279600
I0622 01:36:31.026108  4748 layer_factory.hpp:77] Creating layer conv5_1_1x1_increase/bn
I0622 01:36:31.026135  4748 net.cpp:106] Creating Layer conv5_1_1x1_increase/bn
I0622 01:36:31.026149  4748 net.cpp:454] conv5_1_1x1_increase/bn <- conv5_1_1x1_increase
I0622 01:36:31.026162  4748 net.cpp:397] conv5_1_1x1_increase/bn -> conv5_1_1x1_increase (in-place)
I0622 01:36:31.026415  4748 net.cpp:150] Setting up conv5_1_1x1_increase/bn
I0622 01:36:31.026422  4748 net.cpp:157] Top shape: 2 2048 60 60 (14745600)
I0622 01:36:31.026424  4748 net.cpp:165] Memory required for data: 6963262000
I0622 01:36:31.026430  4748 layer_factory.hpp:77] Creating layer conv5_1_1x1_proj
I0622 01:36:31.026440  4748 net.cpp:106] Creating Layer conv5_1_1x1_proj
I0622 01:36:31.026445  4748 net.cpp:454] conv5_1_1x1_proj <- conv4_23_conv4_23/relu_0_split_1
I0622 01:36:31.026449  4748 net.cpp:411] conv5_1_1x1_proj -> conv5_1_1x1_proj
I0622 01:36:31.076140  4748 net.cpp:150] Setting up conv5_1_1x1_proj
I0622 01:36:31.076223  4748 net.cpp:157] Top shape: 2 2048 60 60 (14745600)
I0622 01:36:31.076230  4748 net.cpp:165] Memory required for data: 7022244400
I0622 01:36:31.076249  4748 layer_factory.hpp:77] Creating layer conv5_1_1x1_proj/bn
I0622 01:36:31.076275  4748 net.cpp:106] Creating Layer conv5_1_1x1_proj/bn
I0622 01:36:31.076287  4748 net.cpp:454] conv5_1_1x1_proj/bn <- conv5_1_1x1_proj
I0622 01:36:31.076297  4748 net.cpp:397] conv5_1_1x1_proj/bn -> conv5_1_1x1_proj (in-place)
I0622 01:36:31.076602  4748 net.cpp:150] Setting up conv5_1_1x1_proj/bn
I0622 01:36:31.076616  4748 net.cpp:157] Top shape: 2 2048 60 60 (14745600)
I0622 01:36:31.076622  4748 net.cpp:165] Memory required for data: 7081226800
I0622 01:36:31.076630  4748 layer_factory.hpp:77] Creating layer conv5_1
I0622 01:36:31.076642  4748 net.cpp:106] Creating Layer conv5_1
I0622 01:36:31.076647  4748 net.cpp:454] conv5_1 <- conv5_1_1x1_proj
I0622 01:36:31.076653  4748 net.cpp:454] conv5_1 <- conv5_1_1x1_increase
I0622 01:36:31.076659  4748 net.cpp:411] conv5_1 -> conv5_1
I0622 01:36:31.076706  4748 net.cpp:150] Setting up conv5_1
I0622 01:36:31.076712  4748 net.cpp:157] Top shape: 2 2048 60 60 (14745600)
I0622 01:36:31.076716  4748 net.cpp:165] Memory required for data: 7140209200
I0622 01:36:31.076720  4748 layer_factory.hpp:77] Creating layer conv5_1/relu
I0622 01:36:31.076730  4748 net.cpp:106] Creating Layer conv5_1/relu
I0622 01:36:31.076738  4748 net.cpp:454] conv5_1/relu <- conv5_1
I0622 01:36:31.076743  4748 net.cpp:397] conv5_1/relu -> conv5_1 (in-place)
I0622 01:36:31.076750  4748 net.cpp:150] Setting up conv5_1/relu
I0622 01:36:31.076756  4748 net.cpp:157] Top shape: 2 2048 60 60 (14745600)
I0622 01:36:31.076761  4748 net.cpp:165] Memory required for data: 7199191600
I0622 01:36:31.076764  4748 layer_factory.hpp:77] Creating layer conv5_1_conv5_1/relu_0_split
I0622 01:36:31.076772  4748 net.cpp:106] Creating Layer conv5_1_conv5_1/relu_0_split
I0622 01:36:31.076776  4748 net.cpp:454] conv5_1_conv5_1/relu_0_split <- conv5_1
I0622 01:36:31.076782  4748 net.cpp:411] conv5_1_conv5_1/relu_0_split -> conv5_1_conv5_1/relu_0_split_0
I0622 01:36:31.076789  4748 net.cpp:411] conv5_1_conv5_1/relu_0_split -> conv5_1_conv5_1/relu_0_split_1
I0622 01:36:31.076825  4748 net.cpp:150] Setting up conv5_1_conv5_1/relu_0_split
I0622 01:36:31.076831  4748 net.cpp:157] Top shape: 2 2048 60 60 (14745600)
I0622 01:36:31.076836  4748 net.cpp:157] Top shape: 2 2048 60 60 (14745600)
I0622 01:36:31.076840  4748 net.cpp:165] Memory required for data: 7317156400
I0622 01:36:31.076844  4748 layer_factory.hpp:77] Creating layer conv5_2_1x1_reduce
I0622 01:36:31.076902  4748 net.cpp:106] Creating Layer conv5_2_1x1_reduce
I0622 01:36:31.076907  4748 net.cpp:454] conv5_2_1x1_reduce <- conv5_1_conv5_1/relu_0_split_0
I0622 01:36:31.076915  4748 net.cpp:411] conv5_2_1x1_reduce -> conv5_2_1x1_reduce
I0622 01:36:31.103047  4748 net.cpp:150] Setting up conv5_2_1x1_reduce
I0622 01:36:31.103075  4748 net.cpp:157] Top shape: 2 512 60 60 (3686400)
I0622 01:36:31.103080  4748 net.cpp:165] Memory required for data: 7331902000
I0622 01:36:31.103087  4748 layer_factory.hpp:77] Creating layer conv5_2_1x1_reduce/bn
I0622 01:36:31.103101  4748 net.cpp:106] Creating Layer conv5_2_1x1_reduce/bn
I0622 01:36:31.103107  4748 net.cpp:454] conv5_2_1x1_reduce/bn <- conv5_2_1x1_reduce
I0622 01:36:31.103113  4748 net.cpp:397] conv5_2_1x1_reduce/bn -> conv5_2_1x1_reduce (in-place)
I0622 01:36:31.103309  4748 net.cpp:150] Setting up conv5_2_1x1_reduce/bn
I0622 01:36:31.103315  4748 net.cpp:157] Top shape: 2 512 60 60 (3686400)
I0622 01:36:31.103318  4748 net.cpp:165] Memory required for data: 7346647600
I0622 01:36:31.103323  4748 layer_factory.hpp:77] Creating layer conv5_2_1x1_reduce/relu
I0622 01:36:31.103328  4748 net.cpp:106] Creating Layer conv5_2_1x1_reduce/relu
I0622 01:36:31.103332  4748 net.cpp:454] conv5_2_1x1_reduce/relu <- conv5_2_1x1_reduce
I0622 01:36:31.103334  4748 net.cpp:397] conv5_2_1x1_reduce/relu -> conv5_2_1x1_reduce (in-place)
I0622 01:36:31.103338  4748 net.cpp:150] Setting up conv5_2_1x1_reduce/relu
I0622 01:36:31.103343  4748 net.cpp:157] Top shape: 2 512 60 60 (3686400)
I0622 01:36:31.103344  4748 net.cpp:165] Memory required for data: 7361393200
I0622 01:36:31.103348  4748 layer_factory.hpp:77] Creating layer conv5_2_3x3
I0622 01:36:31.103354  4748 net.cpp:106] Creating Layer conv5_2_3x3
I0622 01:36:31.103358  4748 net.cpp:454] conv5_2_3x3 <- conv5_2_1x1_reduce
I0622 01:36:31.103363  4748 net.cpp:411] conv5_2_3x3 -> conv5_2_3x3
I0622 01:36:31.159883  4748 net.cpp:150] Setting up conv5_2_3x3
I0622 01:36:31.159909  4748 net.cpp:157] Top shape: 2 512 60 60 (3686400)
I0622 01:36:31.159912  4748 net.cpp:165] Memory required for data: 7376138800
I0622 01:36:31.159919  4748 layer_factory.hpp:77] Creating layer conv5_2_3x3/bn
I0622 01:36:31.159929  4748 net.cpp:106] Creating Layer conv5_2_3x3/bn
I0622 01:36:31.159935  4748 net.cpp:454] conv5_2_3x3/bn <- conv5_2_3x3
I0622 01:36:31.159945  4748 net.cpp:397] conv5_2_3x3/bn -> conv5_2_3x3 (in-place)
I0622 01:36:31.160125  4748 net.cpp:150] Setting up conv5_2_3x3/bn
I0622 01:36:31.160130  4748 net.cpp:157] Top shape: 2 512 60 60 (3686400)
I0622 01:36:31.160133  4748 net.cpp:165] Memory required for data: 7390884400
I0622 01:36:31.160138  4748 layer_factory.hpp:77] Creating layer conv5_2_3x3/relu
I0622 01:36:31.160145  4748 net.cpp:106] Creating Layer conv5_2_3x3/relu
I0622 01:36:31.160147  4748 net.cpp:454] conv5_2_3x3/relu <- conv5_2_3x3
I0622 01:36:31.160150  4748 net.cpp:397] conv5_2_3x3/relu -> conv5_2_3x3 (in-place)
I0622 01:36:31.160154  4748 net.cpp:150] Setting up conv5_2_3x3/relu
I0622 01:36:31.160157  4748 net.cpp:157] Top shape: 2 512 60 60 (3686400)
I0622 01:36:31.160161  4748 net.cpp:165] Memory required for data: 7405630000
I0622 01:36:31.160166  4748 layer_factory.hpp:77] Creating layer conv5_2_1x1_increase
I0622 01:36:31.160173  4748 net.cpp:106] Creating Layer conv5_2_1x1_increase
I0622 01:36:31.160176  4748 net.cpp:454] conv5_2_1x1_increase <- conv5_2_3x3
I0622 01:36:31.160188  4748 net.cpp:411] conv5_2_1x1_increase -> conv5_2_1x1_increase
I0622 01:36:31.185360  4748 net.cpp:150] Setting up conv5_2_1x1_increase
I0622 01:36:31.185451  4748 net.cpp:157] Top shape: 2 2048 60 60 (14745600)
I0622 01:36:31.185462  4748 net.cpp:165] Memory required for data: 7464612400
I0622 01:36:31.185483  4748 layer_factory.hpp:77] Creating layer conv5_2_1x1_increase/bn
I0622 01:36:31.185513  4748 net.cpp:106] Creating Layer conv5_2_1x1_increase/bn
I0622 01:36:31.185521  4748 net.cpp:454] conv5_2_1x1_increase/bn <- conv5_2_1x1_increase
I0622 01:36:31.185539  4748 net.cpp:397] conv5_2_1x1_increase/bn -> conv5_2_1x1_increase (in-place)
I0622 01:36:31.185904  4748 net.cpp:150] Setting up conv5_2_1x1_increase/bn
I0622 01:36:31.185911  4748 net.cpp:157] Top shape: 2 2048 60 60 (14745600)
I0622 01:36:31.185919  4748 net.cpp:165] Memory required for data: 7523594800
I0622 01:36:31.186056  4748 layer_factory.hpp:77] Creating layer conv5_2
I0622 01:36:31.186070  4748 net.cpp:106] Creating Layer conv5_2
I0622 01:36:31.186077  4748 net.cpp:454] conv5_2 <- conv5_1_conv5_1/relu_0_split_1
I0622 01:36:31.186084  4748 net.cpp:454] conv5_2 <- conv5_2_1x1_increase
I0622 01:36:31.186091  4748 net.cpp:411] conv5_2 -> conv5_2
I0622 01:36:31.186143  4748 net.cpp:150] Setting up conv5_2
I0622 01:36:31.186151  4748 net.cpp:157] Top shape: 2 2048 60 60 (14745600)
I0622 01:36:31.186154  4748 net.cpp:165] Memory required for data: 7582577200
I0622 01:36:31.186159  4748 layer_factory.hpp:77] Creating layer conv5_2/relu
I0622 01:36:31.186172  4748 net.cpp:106] Creating Layer conv5_2/relu
I0622 01:36:31.186177  4748 net.cpp:454] conv5_2/relu <- conv5_2
I0622 01:36:31.186182  4748 net.cpp:397] conv5_2/relu -> conv5_2 (in-place)
I0622 01:36:31.186190  4748 net.cpp:150] Setting up conv5_2/relu
I0622 01:36:31.186195  4748 net.cpp:157] Top shape: 2 2048 60 60 (14745600)
I0622 01:36:31.186199  4748 net.cpp:165] Memory required for data: 7641559600
I0622 01:36:31.186203  4748 layer_factory.hpp:77] Creating layer conv5_2_conv5_2/relu_0_split
I0622 01:36:31.186213  4748 net.cpp:106] Creating Layer conv5_2_conv5_2/relu_0_split
I0622 01:36:31.186216  4748 net.cpp:454] conv5_2_conv5_2/relu_0_split <- conv5_2
I0622 01:36:31.186223  4748 net.cpp:411] conv5_2_conv5_2/relu_0_split -> conv5_2_conv5_2/relu_0_split_0
I0622 01:36:31.186229  4748 net.cpp:411] conv5_2_conv5_2/relu_0_split -> conv5_2_conv5_2/relu_0_split_1
I0622 01:36:31.186267  4748 net.cpp:150] Setting up conv5_2_conv5_2/relu_0_split
I0622 01:36:31.186273  4748 net.cpp:157] Top shape: 2 2048 60 60 (14745600)
I0622 01:36:31.186280  4748 net.cpp:157] Top shape: 2 2048 60 60 (14745600)
I0622 01:36:31.186283  4748 net.cpp:165] Memory required for data: 7759524400
I0622 01:36:31.186288  4748 layer_factory.hpp:77] Creating layer conv5_3_1x1_reduce
I0622 01:36:31.186302  4748 net.cpp:106] Creating Layer conv5_3_1x1_reduce
I0622 01:36:31.186307  4748 net.cpp:454] conv5_3_1x1_reduce <- conv5_2_conv5_2/relu_0_split_0
I0622 01:36:31.186314  4748 net.cpp:411] conv5_3_1x1_reduce -> conv5_3_1x1_reduce
I0622 01:36:31.213297  4748 net.cpp:150] Setting up conv5_3_1x1_reduce
I0622 01:36:31.213330  4748 net.cpp:157] Top shape: 2 512 60 60 (3686400)
I0622 01:36:31.213333  4748 net.cpp:165] Memory required for data: 7774270000
I0622 01:36:31.213340  4748 layer_factory.hpp:77] Creating layer conv5_3_1x1_reduce/bn
I0622 01:36:31.213351  4748 net.cpp:106] Creating Layer conv5_3_1x1_reduce/bn
I0622 01:36:31.213356  4748 net.cpp:454] conv5_3_1x1_reduce/bn <- conv5_3_1x1_reduce
I0622 01:36:31.213361  4748 net.cpp:397] conv5_3_1x1_reduce/bn -> conv5_3_1x1_reduce (in-place)
I0622 01:36:31.213552  4748 net.cpp:150] Setting up conv5_3_1x1_reduce/bn
I0622 01:36:31.213558  4748 net.cpp:157] Top shape: 2 512 60 60 (3686400)
I0622 01:36:31.213560  4748 net.cpp:165] Memory required for data: 7789015600
I0622 01:36:31.213567  4748 layer_factory.hpp:77] Creating layer conv5_3_1x1_reduce/relu
I0622 01:36:31.213572  4748 net.cpp:106] Creating Layer conv5_3_1x1_reduce/relu
I0622 01:36:31.213574  4748 net.cpp:454] conv5_3_1x1_reduce/relu <- conv5_3_1x1_reduce
I0622 01:36:31.213577  4748 net.cpp:397] conv5_3_1x1_reduce/relu -> conv5_3_1x1_reduce (in-place)
I0622 01:36:31.213582  4748 net.cpp:150] Setting up conv5_3_1x1_reduce/relu
I0622 01:36:31.213584  4748 net.cpp:157] Top shape: 2 512 60 60 (3686400)
I0622 01:36:31.213588  4748 net.cpp:165] Memory required for data: 7803761200
I0622 01:36:31.213591  4748 layer_factory.hpp:77] Creating layer conv5_3_3x3
I0622 01:36:31.213598  4748 net.cpp:106] Creating Layer conv5_3_3x3
I0622 01:36:31.213600  4748 net.cpp:454] conv5_3_3x3 <- conv5_3_1x1_reduce
I0622 01:36:31.213604  4748 net.cpp:411] conv5_3_3x3 -> conv5_3_3x3
I0622 01:36:31.269042  4748 net.cpp:150] Setting up conv5_3_3x3
I0622 01:36:31.269064  4748 net.cpp:157] Top shape: 2 512 60 60 (3686400)
I0622 01:36:31.269068  4748 net.cpp:165] Memory required for data: 7818506800
I0622 01:36:31.269076  4748 layer_factory.hpp:77] Creating layer conv5_3_3x3/bn
I0622 01:36:31.269089  4748 net.cpp:106] Creating Layer conv5_3_3x3/bn
I0622 01:36:31.269094  4748 net.cpp:454] conv5_3_3x3/bn <- conv5_3_3x3
I0622 01:36:31.269099  4748 net.cpp:397] conv5_3_3x3/bn -> conv5_3_3x3 (in-place)
I0622 01:36:31.269289  4748 net.cpp:150] Setting up conv5_3_3x3/bn
I0622 01:36:31.269294  4748 net.cpp:157] Top shape: 2 512 60 60 (3686400)
I0622 01:36:31.269297  4748 net.cpp:165] Memory required for data: 7833252400
I0622 01:36:31.269304  4748 layer_factory.hpp:77] Creating layer conv5_3_3x3/relu
I0622 01:36:31.269309  4748 net.cpp:106] Creating Layer conv5_3_3x3/relu
I0622 01:36:31.269311  4748 net.cpp:454] conv5_3_3x3/relu <- conv5_3_3x3
I0622 01:36:31.269315  4748 net.cpp:397] conv5_3_3x3/relu -> conv5_3_3x3 (in-place)
I0622 01:36:31.269320  4748 net.cpp:150] Setting up conv5_3_3x3/relu
I0622 01:36:31.269322  4748 net.cpp:157] Top shape: 2 512 60 60 (3686400)
I0622 01:36:31.269325  4748 net.cpp:165] Memory required for data: 7847998000
I0622 01:36:31.269328  4748 layer_factory.hpp:77] Creating layer conv5_3_1x1_increase
I0622 01:36:31.269337  4748 net.cpp:106] Creating Layer conv5_3_1x1_increase
I0622 01:36:31.269340  4748 net.cpp:454] conv5_3_1x1_increase <- conv5_3_3x3
I0622 01:36:31.269345  4748 net.cpp:411] conv5_3_1x1_increase -> conv5_3_1x1_increase
I0622 01:36:31.292989  4748 net.cpp:150] Setting up conv5_3_1x1_increase
I0622 01:36:31.293030  4748 net.cpp:157] Top shape: 2 2048 60 60 (14745600)
I0622 01:36:31.293035  4748 net.cpp:165] Memory required for data: 7906980400
I0622 01:36:31.293050  4748 layer_factory.hpp:77] Creating layer conv5_3_1x1_increase/bn
I0622 01:36:31.293069  4748 net.cpp:106] Creating Layer conv5_3_1x1_increase/bn
I0622 01:36:31.293077  4748 net.cpp:454] conv5_3_1x1_increase/bn <- conv5_3_1x1_increase
I0622 01:36:31.293085  4748 net.cpp:397] conv5_3_1x1_increase/bn -> conv5_3_1x1_increase (in-place)
I0622 01:36:31.293329  4748 net.cpp:150] Setting up conv5_3_1x1_increase/bn
I0622 01:36:31.293336  4748 net.cpp:157] Top shape: 2 2048 60 60 (14745600)
I0622 01:36:31.293340  4748 net.cpp:165] Memory required for data: 7965962800
I0622 01:36:31.293349  4748 layer_factory.hpp:77] Creating layer conv5_3
I0622 01:36:31.293356  4748 net.cpp:106] Creating Layer conv5_3
I0622 01:36:31.293361  4748 net.cpp:454] conv5_3 <- conv5_2_conv5_2/relu_0_split_1
I0622 01:36:31.293366  4748 net.cpp:454] conv5_3 <- conv5_3_1x1_increase
I0622 01:36:31.293372  4748 net.cpp:411] conv5_3 -> conv5_3
I0622 01:36:31.293402  4748 net.cpp:150] Setting up conv5_3
I0622 01:36:31.293408  4748 net.cpp:157] Top shape: 2 2048 60 60 (14745600)
I0622 01:36:31.293412  4748 net.cpp:165] Memory required for data: 8024945200
I0622 01:36:31.293416  4748 layer_factory.hpp:77] Creating layer conv5_3/relu
I0622 01:36:31.293426  4748 net.cpp:106] Creating Layer conv5_3/relu
I0622 01:36:31.293429  4748 net.cpp:454] conv5_3/relu <- conv5_3
I0622 01:36:31.293434  4748 net.cpp:397] conv5_3/relu -> conv5_3 (in-place)
I0622 01:36:31.293442  4748 net.cpp:150] Setting up conv5_3/relu
I0622 01:36:31.293447  4748 net.cpp:157] Top shape: 2 2048 60 60 (14745600)
I0622 01:36:31.293450  4748 net.cpp:165] Memory required for data: 8083927600
I0622 01:36:31.293454  4748 layer_factory.hpp:77] Creating layer conv5_3_conv5_3/relu_0_split
I0622 01:36:31.293460  4748 net.cpp:106] Creating Layer conv5_3_conv5_3/relu_0_split
I0622 01:36:31.293464  4748 net.cpp:454] conv5_3_conv5_3/relu_0_split <- conv5_3
I0622 01:36:31.293470  4748 net.cpp:411] conv5_3_conv5_3/relu_0_split -> conv5_3_conv5_3/relu_0_split_0
I0622 01:36:31.293478  4748 net.cpp:411] conv5_3_conv5_3/relu_0_split -> conv5_3_conv5_3/relu_0_split_1
I0622 01:36:31.293483  4748 net.cpp:411] conv5_3_conv5_3/relu_0_split -> conv5_3_conv5_3/relu_0_split_2
I0622 01:36:31.293490  4748 net.cpp:411] conv5_3_conv5_3/relu_0_split -> conv5_3_conv5_3/relu_0_split_3
I0622 01:36:31.293514  4748 net.cpp:411] conv5_3_conv5_3/relu_0_split -> conv5_3_conv5_3/relu_0_split_4
I0622 01:36:31.293591  4748 net.cpp:150] Setting up conv5_3_conv5_3/relu_0_split
I0622 01:36:31.293597  4748 net.cpp:157] Top shape: 2 2048 60 60 (14745600)
I0622 01:36:31.293602  4748 net.cpp:157] Top shape: 2 2048 60 60 (14745600)
I0622 01:36:31.293607  4748 net.cpp:157] Top shape: 2 2048 60 60 (14745600)
I0622 01:36:31.293612  4748 net.cpp:157] Top shape: 2 2048 60 60 (14745600)
I0622 01:36:31.293617  4748 net.cpp:157] Top shape: 2 2048 60 60 (14745600)
I0622 01:36:31.293620  4748 net.cpp:165] Memory required for data: 8378839600
I0622 01:36:31.293625  4748 layer_factory.hpp:77] Creating layer conv5_3_pool1
I0622 01:36:31.293632  4748 net.cpp:106] Creating Layer conv5_3_pool1
I0622 01:36:31.293637  4748 net.cpp:454] conv5_3_pool1 <- conv5_3_conv5_3/relu_0_split_0
I0622 01:36:31.293642  4748 net.cpp:411] conv5_3_pool1 -> conv5_3_pool1
I0622 01:36:31.293664  4748 net.cpp:150] Setting up conv5_3_pool1
I0622 01:36:31.293670  4748 net.cpp:157] Top shape: 2 2048 1 1 (4096)
I0622 01:36:31.293674  4748 net.cpp:165] Memory required for data: 8378855984
I0622 01:36:31.293678  4748 layer_factory.hpp:77] Creating layer conv5_3_pool1_conv
I0622 01:36:31.293687  4748 net.cpp:106] Creating Layer conv5_3_pool1_conv
I0622 01:36:31.293692  4748 net.cpp:454] conv5_3_pool1_conv <- conv5_3_pool1
I0622 01:36:31.293699  4748 net.cpp:411] conv5_3_pool1_conv -> conv5_3_pool1_conv
I0622 01:36:31.322237  4748 net.cpp:150] Setting up conv5_3_pool1_conv
I0622 01:36:31.322262  4748 net.cpp:157] Top shape: 2 512 1 1 (1024)
I0622 01:36:31.322264  4748 net.cpp:165] Memory required for data: 8378860080
I0622 01:36:31.322271  4748 layer_factory.hpp:77] Creating layer conv5_3_pool1_conv/bn
I0622 01:36:31.322279  4748 net.cpp:106] Creating Layer conv5_3_pool1_conv/bn
I0622 01:36:31.322284  4748 net.cpp:454] conv5_3_pool1_conv/bn <- conv5_3_pool1_conv
I0622 01:36:31.322291  4748 net.cpp:397] conv5_3_pool1_conv/bn -> conv5_3_pool1_conv (in-place)
I0622 01:36:31.322459  4748 net.cpp:150] Setting up conv5_3_pool1_conv/bn
I0622 01:36:31.322464  4748 net.cpp:157] Top shape: 2 512 1 1 (1024)
I0622 01:36:31.322466  4748 net.cpp:165] Memory required for data: 8378864176
I0622 01:36:31.322473  4748 layer_factory.hpp:77] Creating layer conv5_3_pool1_conv/relu
I0622 01:36:31.322477  4748 net.cpp:106] Creating Layer conv5_3_pool1_conv/relu
I0622 01:36:31.322480  4748 net.cpp:454] conv5_3_pool1_conv/relu <- conv5_3_pool1_conv
I0622 01:36:31.322484  4748 net.cpp:397] conv5_3_pool1_conv/relu -> conv5_3_pool1_conv (in-place)
I0622 01:36:31.322489  4748 net.cpp:150] Setting up conv5_3_pool1_conv/relu
I0622 01:36:31.322492  4748 net.cpp:157] Top shape: 2 512 1 1 (1024)
I0622 01:36:31.322494  4748 net.cpp:165] Memory required for data: 8378868272
I0622 01:36:31.322497  4748 layer_factory.hpp:77] Creating layer conv5_3_pool1_interp
I0622 01:36:31.322515  4748 net.cpp:106] Creating Layer conv5_3_pool1_interp
I0622 01:36:31.322518  4748 net.cpp:454] conv5_3_pool1_interp <- conv5_3_pool1_conv
I0622 01:36:31.322521  4748 net.cpp:411] conv5_3_pool1_interp -> conv5_3_pool1_interp
I0622 01:36:31.322546  4748 net.cpp:150] Setting up conv5_3_pool1_interp
I0622 01:36:31.322551  4748 net.cpp:157] Top shape: 2 512 60 60 (3686400)
I0622 01:36:31.322552  4748 net.cpp:165] Memory required for data: 8393613872
I0622 01:36:31.322556  4748 layer_factory.hpp:77] Creating layer conv5_3_pool2
I0622 01:36:31.322561  4748 net.cpp:106] Creating Layer conv5_3_pool2
I0622 01:36:31.322564  4748 net.cpp:454] conv5_3_pool2 <- conv5_3_conv5_3/relu_0_split_1
I0622 01:36:31.322568  4748 net.cpp:411] conv5_3_pool2 -> conv5_3_pool2
I0622 01:36:31.322585  4748 net.cpp:150] Setting up conv5_3_pool2
I0622 01:36:31.322589  4748 net.cpp:157] Top shape: 2 2048 2 2 (16384)
I0622 01:36:31.322592  4748 net.cpp:165] Memory required for data: 8393679408
I0622 01:36:31.322594  4748 layer_factory.hpp:77] Creating layer conv5_3_pool2_conv
I0622 01:36:31.322618  4748 net.cpp:106] Creating Layer conv5_3_pool2_conv
I0622 01:36:31.322621  4748 net.cpp:454] conv5_3_pool2_conv <- conv5_3_pool2
I0622 01:36:31.322625  4748 net.cpp:411] conv5_3_pool2_conv -> conv5_3_pool2_conv
I0622 01:36:31.345873  4748 net.cpp:150] Setting up conv5_3_pool2_conv
I0622 01:36:31.345896  4748 net.cpp:157] Top shape: 2 512 2 2 (4096)
I0622 01:36:31.345898  4748 net.cpp:165] Memory required for data: 8393695792
I0622 01:36:31.345904  4748 layer_factory.hpp:77] Creating layer conv5_3_pool2_conv/bn
I0622 01:36:31.345913  4748 net.cpp:106] Creating Layer conv5_3_pool2_conv/bn
I0622 01:36:31.345918  4748 net.cpp:454] conv5_3_pool2_conv/bn <- conv5_3_pool2_conv
I0622 01:36:31.345926  4748 net.cpp:397] conv5_3_pool2_conv/bn -> conv5_3_pool2_conv (in-place)
I0622 01:36:31.346092  4748 net.cpp:150] Setting up conv5_3_pool2_conv/bn
I0622 01:36:31.346096  4748 net.cpp:157] Top shape: 2 512 2 2 (4096)
I0622 01:36:31.346099  4748 net.cpp:165] Memory required for data: 8393712176
I0622 01:36:31.346104  4748 layer_factory.hpp:77] Creating layer conv5_3_pool2_conv/relu
I0622 01:36:31.346109  4748 net.cpp:106] Creating Layer conv5_3_pool2_conv/relu
I0622 01:36:31.346112  4748 net.cpp:454] conv5_3_pool2_conv/relu <- conv5_3_pool2_conv
I0622 01:36:31.346115  4748 net.cpp:397] conv5_3_pool2_conv/relu -> conv5_3_pool2_conv (in-place)
I0622 01:36:31.346120  4748 net.cpp:150] Setting up conv5_3_pool2_conv/relu
I0622 01:36:31.346123  4748 net.cpp:157] Top shape: 2 512 2 2 (4096)
I0622 01:36:31.346127  4748 net.cpp:165] Memory required for data: 8393728560
I0622 01:36:31.346128  4748 layer_factory.hpp:77] Creating layer conv5_3_pool2_interp
I0622 01:36:31.346133  4748 net.cpp:106] Creating Layer conv5_3_pool2_interp
I0622 01:36:31.346135  4748 net.cpp:454] conv5_3_pool2_interp <- conv5_3_pool2_conv
I0622 01:36:31.346139  4748 net.cpp:411] conv5_3_pool2_interp -> conv5_3_pool2_interp
I0622 01:36:31.346164  4748 net.cpp:150] Setting up conv5_3_pool2_interp
I0622 01:36:31.346168  4748 net.cpp:157] Top shape: 2 512 60 60 (3686400)
I0622 01:36:31.346170  4748 net.cpp:165] Memory required for data: 8408474160
I0622 01:36:31.346173  4748 layer_factory.hpp:77] Creating layer conv5_3_pool3
I0622 01:36:31.346177  4748 net.cpp:106] Creating Layer conv5_3_pool3
I0622 01:36:31.346180  4748 net.cpp:454] conv5_3_pool3 <- conv5_3_conv5_3/relu_0_split_2
I0622 01:36:31.346184  4748 net.cpp:411] conv5_3_pool3 -> conv5_3_pool3
I0622 01:36:31.346199  4748 net.cpp:150] Setting up conv5_3_pool3
I0622 01:36:31.346204  4748 net.cpp:157] Top shape: 2 2048 3 3 (36864)
I0622 01:36:31.346205  4748 net.cpp:165] Memory required for data: 8408621616
I0622 01:36:31.346207  4748 layer_factory.hpp:77] Creating layer conv5_3_pool3_conv
I0622 01:36:31.346213  4748 net.cpp:106] Creating Layer conv5_3_pool3_conv
I0622 01:36:31.346216  4748 net.cpp:454] conv5_3_pool3_conv <- conv5_3_pool3
I0622 01:36:31.346220  4748 net.cpp:411] conv5_3_pool3_conv -> conv5_3_pool3_conv
I0622 01:36:31.373499  4748 net.cpp:150] Setting up conv5_3_pool3_conv
I0622 01:36:31.373522  4748 net.cpp:157] Top shape: 2 512 3 3 (9216)
I0622 01:36:31.373525  4748 net.cpp:165] Memory required for data: 8408658480
I0622 01:36:31.373533  4748 layer_factory.hpp:77] Creating layer conv5_3_pool3_conv/bn
I0622 01:36:31.373544  4748 net.cpp:106] Creating Layer conv5_3_pool3_conv/bn
I0622 01:36:31.373549  4748 net.cpp:454] conv5_3_pool3_conv/bn <- conv5_3_pool3_conv
I0622 01:36:31.373554  4748 net.cpp:397] conv5_3_pool3_conv/bn -> conv5_3_pool3_conv (in-place)
I0622 01:36:31.373746  4748 net.cpp:150] Setting up conv5_3_pool3_conv/bn
I0622 01:36:31.373751  4748 net.cpp:157] Top shape: 2 512 3 3 (9216)
I0622 01:36:31.373754  4748 net.cpp:165] Memory required for data: 8408695344
I0622 01:36:31.373759  4748 layer_factory.hpp:77] Creating layer conv5_3_pool3_conv/relu
I0622 01:36:31.373765  4748 net.cpp:106] Creating Layer conv5_3_pool3_conv/relu
I0622 01:36:31.373769  4748 net.cpp:454] conv5_3_pool3_conv/relu <- conv5_3_pool3_conv
I0622 01:36:31.373772  4748 net.cpp:397] conv5_3_pool3_conv/relu -> conv5_3_pool3_conv (in-place)
I0622 01:36:31.373793  4748 net.cpp:150] Setting up conv5_3_pool3_conv/relu
I0622 01:36:31.373797  4748 net.cpp:157] Top shape: 2 512 3 3 (9216)
I0622 01:36:31.373800  4748 net.cpp:165] Memory required for data: 8408732208
I0622 01:36:31.373802  4748 layer_factory.hpp:77] Creating layer conv5_3_pool3_interp
I0622 01:36:31.373807  4748 net.cpp:106] Creating Layer conv5_3_pool3_interp
I0622 01:36:31.373811  4748 net.cpp:454] conv5_3_pool3_interp <- conv5_3_pool3_conv
I0622 01:36:31.373814  4748 net.cpp:411] conv5_3_pool3_interp -> conv5_3_pool3_interp
I0622 01:36:31.373837  4748 net.cpp:150] Setting up conv5_3_pool3_interp
I0622 01:36:31.373842  4748 net.cpp:157] Top shape: 2 512 60 60 (3686400)
I0622 01:36:31.373843  4748 net.cpp:165] Memory required for data: 8423477808
I0622 01:36:31.373847  4748 layer_factory.hpp:77] Creating layer conv5_3_pool6
I0622 01:36:31.373852  4748 net.cpp:106] Creating Layer conv5_3_pool6
I0622 01:36:31.373855  4748 net.cpp:454] conv5_3_pool6 <- conv5_3_conv5_3/relu_0_split_3
I0622 01:36:31.373860  4748 net.cpp:411] conv5_3_pool6 -> conv5_3_pool6
I0622 01:36:31.373880  4748 net.cpp:150] Setting up conv5_3_pool6
I0622 01:36:31.373884  4748 net.cpp:157] Top shape: 2 2048 6 6 (147456)
I0622 01:36:31.373888  4748 net.cpp:165] Memory required for data: 8424067632
I0622 01:36:31.373889  4748 layer_factory.hpp:77] Creating layer conv5_3_pool6_conv
I0622 01:36:31.373898  4748 net.cpp:106] Creating Layer conv5_3_pool6_conv
I0622 01:36:31.373900  4748 net.cpp:454] conv5_3_pool6_conv <- conv5_3_pool6
I0622 01:36:31.373904  4748 net.cpp:411] conv5_3_pool6_conv -> conv5_3_pool6_conv
I0622 01:36:31.397044  4748 net.cpp:150] Setting up conv5_3_pool6_conv
I0622 01:36:31.397066  4748 net.cpp:157] Top shape: 2 512 6 6 (36864)
I0622 01:36:31.397070  4748 net.cpp:165] Memory required for data: 8424215088
I0622 01:36:31.397078  4748 layer_factory.hpp:77] Creating layer conv5_3_pool6_conv/bn
I0622 01:36:31.397091  4748 net.cpp:106] Creating Layer conv5_3_pool6_conv/bn
I0622 01:36:31.397097  4748 net.cpp:454] conv5_3_pool6_conv/bn <- conv5_3_pool6_conv
I0622 01:36:31.397104  4748 net.cpp:397] conv5_3_pool6_conv/bn -> conv5_3_pool6_conv (in-place)
I0622 01:36:31.397280  4748 net.cpp:150] Setting up conv5_3_pool6_conv/bn
I0622 01:36:31.397285  4748 net.cpp:157] Top shape: 2 512 6 6 (36864)
I0622 01:36:31.397289  4748 net.cpp:165] Memory required for data: 8424362544
I0622 01:36:31.397294  4748 layer_factory.hpp:77] Creating layer conv5_3_pool6_conv/relu
I0622 01:36:31.397300  4748 net.cpp:106] Creating Layer conv5_3_pool6_conv/relu
I0622 01:36:31.397302  4748 net.cpp:454] conv5_3_pool6_conv/relu <- conv5_3_pool6_conv
I0622 01:36:31.397306  4748 net.cpp:397] conv5_3_pool6_conv/relu -> conv5_3_pool6_conv (in-place)
I0622 01:36:31.397310  4748 net.cpp:150] Setting up conv5_3_pool6_conv/relu
I0622 01:36:31.397315  4748 net.cpp:157] Top shape: 2 512 6 6 (36864)
I0622 01:36:31.397316  4748 net.cpp:165] Memory required for data: 8424510000
I0622 01:36:31.397320  4748 layer_factory.hpp:77] Creating layer conv5_3_pool6_interp
I0622 01:36:31.397325  4748 net.cpp:106] Creating Layer conv5_3_pool6_interp
I0622 01:36:31.397326  4748 net.cpp:454] conv5_3_pool6_interp <- conv5_3_pool6_conv
I0622 01:36:31.397330  4748 net.cpp:411] conv5_3_pool6_interp -> conv5_3_pool6_interp
I0622 01:36:31.397361  4748 net.cpp:150] Setting up conv5_3_pool6_interp
I0622 01:36:31.397364  4748 net.cpp:157] Top shape: 2 512 60 60 (3686400)
I0622 01:36:31.397367  4748 net.cpp:165] Memory required for data: 8439255600
I0622 01:36:31.397370  4748 layer_factory.hpp:77] Creating layer conv5_3_concat
I0622 01:36:31.397374  4748 net.cpp:106] Creating Layer conv5_3_concat
I0622 01:36:31.397377  4748 net.cpp:454] conv5_3_concat <- conv5_3_conv5_3/relu_0_split_4
I0622 01:36:31.397382  4748 net.cpp:454] conv5_3_concat <- conv5_3_pool6_interp
I0622 01:36:31.397384  4748 net.cpp:454] conv5_3_concat <- conv5_3_pool3_interp
I0622 01:36:31.397387  4748 net.cpp:454] conv5_3_concat <- conv5_3_pool2_interp
I0622 01:36:31.397390  4748 net.cpp:454] conv5_3_concat <- conv5_3_pool1_interp
I0622 01:36:31.397410  4748 net.cpp:411] conv5_3_concat -> conv5_3_concat
I0622 01:36:31.397428  4748 net.cpp:150] Setting up conv5_3_concat
I0622 01:36:31.397433  4748 net.cpp:157] Top shape: 2 4096 60 60 (29491200)
I0622 01:36:31.397435  4748 net.cpp:165] Memory required for data: 8557220400
I0622 01:36:31.397439  4748 layer_factory.hpp:77] Creating layer conv5_4
I0622 01:36:31.397447  4748 net.cpp:106] Creating Layer conv5_4
I0622 01:36:31.397450  4748 net.cpp:454] conv5_4 <- conv5_3_concat
I0622 01:36:31.397454  4748 net.cpp:411] conv5_4 -> conv5_4
I0622 01:36:31.824719  4748 net.cpp:150] Setting up conv5_4
I0622 01:36:31.824740  4748 net.cpp:157] Top shape: 2 512 60 60 (3686400)
I0622 01:36:31.824759  4748 net.cpp:165] Memory required for data: 8571966000
I0622 01:36:31.824781  4748 layer_factory.hpp:77] Creating layer conv5_4/bn
I0622 01:36:31.824792  4748 net.cpp:106] Creating Layer conv5_4/bn
I0622 01:36:31.824798  4748 net.cpp:454] conv5_4/bn <- conv5_4
I0622 01:36:31.824805  4748 net.cpp:397] conv5_4/bn -> conv5_4 (in-place)
I0622 01:36:31.825018  4748 net.cpp:150] Setting up conv5_4/bn
I0622 01:36:31.825024  4748 net.cpp:157] Top shape: 2 512 60 60 (3686400)
I0622 01:36:31.825028  4748 net.cpp:165] Memory required for data: 8586711600
I0622 01:36:31.825036  4748 layer_factory.hpp:77] Creating layer conv5_4/relu
I0622 01:36:31.825040  4748 net.cpp:106] Creating Layer conv5_4/relu
I0622 01:36:31.825044  4748 net.cpp:454] conv5_4/relu <- conv5_4
I0622 01:36:31.825048  4748 net.cpp:397] conv5_4/relu -> conv5_4 (in-place)
I0622 01:36:31.825054  4748 net.cpp:150] Setting up conv5_4/relu
I0622 01:36:31.825073  4748 net.cpp:157] Top shape: 2 512 60 60 (3686400)
I0622 01:36:31.825075  4748 net.cpp:165] Memory required for data: 8601457200
I0622 01:36:31.825079  4748 layer_factory.hpp:77] Creating layer conv5_4/dropout
I0622 01:36:31.825084  4748 net.cpp:106] Creating Layer conv5_4/dropout
I0622 01:36:31.825088  4748 net.cpp:454] conv5_4/dropout <- conv5_4
I0622 01:36:31.825093  4748 net.cpp:397] conv5_4/dropout -> conv5_4 (in-place)
I0622 01:36:31.825131  4748 net.cpp:150] Setting up conv5_4/dropout
I0622 01:36:31.825137  4748 net.cpp:157] Top shape: 2 512 60 60 (3686400)
I0622 01:36:31.825140  4748 net.cpp:165] Memory required for data: 8616202800
I0622 01:36:31.825145  4748 layer_factory.hpp:77] Creating layer conv6
I0622 01:36:31.825151  4748 net.cpp:106] Creating Layer conv6
I0622 01:36:31.825155  4748 net.cpp:454] conv6 <- conv5_4
I0622 01:36:31.825160  4748 net.cpp:411] conv6 -> conv6
I0622 01:36:31.825574  4748 net.cpp:150] Setting up conv6
I0622 01:36:31.825580  4748 net.cpp:157] Top shape: 2 21 60 60 (151200)
I0622 01:36:31.825598  4748 net.cpp:165] Memory required for data: 8616807600
I0622 01:36:31.825604  4748 layer_factory.hpp:77] Creating layer conv6_conv6_0_split
I0622 01:36:31.825623  4748 net.cpp:106] Creating Layer conv6_conv6_0_split
I0622 01:36:31.825625  4748 net.cpp:454] conv6_conv6_0_split <- conv6
I0622 01:36:31.825631  4748 net.cpp:411] conv6_conv6_0_split -> conv6_conv6_0_split_0
I0622 01:36:31.825637  4748 net.cpp:411] conv6_conv6_0_split -> conv6_conv6_0_split_1
I0622 01:36:31.825665  4748 net.cpp:150] Setting up conv6_conv6_0_split
I0622 01:36:31.825670  4748 net.cpp:157] Top shape: 2 21 60 60 (151200)
I0622 01:36:31.825675  4748 net.cpp:157] Top shape: 2 21 60 60 (151200)
I0622 01:36:31.825678  4748 net.cpp:165] Memory required for data: 8618017200
I0622 01:36:31.825681  4748 layer_factory.hpp:77] Creating layer conv6_interp
I0622 01:36:31.825686  4748 net.cpp:106] Creating Layer conv6_interp
I0622 01:36:31.825690  4748 net.cpp:454] conv6_interp <- conv6_conv6_0_split_0
I0622 01:36:31.825695  4748 net.cpp:411] conv6_interp -> conv6_interp
I0622 01:36:31.825726  4748 net.cpp:150] Setting up conv6_interp
I0622 01:36:31.825731  4748 net.cpp:157] Top shape: 2 21 473 473 (9396618)
I0622 01:36:31.825734  4748 net.cpp:165] Memory required for data: 8655603672
I0622 01:36:31.825737  4748 layer_factory.hpp:77] Creating layer loss
I0622 01:36:31.825744  4748 net.cpp:106] Creating Layer loss
I0622 01:36:31.825763  4748 net.cpp:454] loss <- conv6_interp
I0622 01:36:31.825767  4748 net.cpp:454] loss <- conv6_conv6_0_split_1
I0622 01:36:31.825774  4748 net.cpp:411] loss -> (automatic)
…
