…
I0427 19:55:47.762552 28506 solver.cpp:58] Creating training net from train_net file: exper/voc12/config/DeepLab-LargeFOV/train_train_aug.prototxt
I0427 19:55:47.763124 28506 net.cpp:39] Initializing net from parameters: 
name: "DeepLab-LargeFOV"
layers {
  top: "data"
  top: "label"
  name: "data"
  type: IMAGE_SEG_DATA
  image_data_param {
    source: "exper/voc12/list/train_aug.txt"
    batch_size: 12
    shuffle: true
    root_folder: "exper/voc12/data"
    label_type: PIXEL
  }
  include {
    phase: TRAIN
  }
  transform_param {
    mirror: true
    crop_size: 321
    mean_value: 104.008
    mean_value: 116.669
    mean_value: 122.675
  }
}
layers {
  bottom: "data"
  top: "conv1_1"
  name: "conv1_1"
  type: CONVOLUTION
  blobs_lr: 1
  blobs_lr: 2
  weight_decay: 1
  weight_decay: 0
  convolution_param {
    num_output: 64
    pad: 1
    kernel_size: 3
  }
}
layers {
  bottom: "conv1_1"
  top: "conv1_1"
  name: "relu1_1"
  type: RELU
}
layers {
  bottom: "conv1_1"
  top: "conv1_2"
  name: "conv1_2"
  type: CONVOLUTION
  blobs_lr: 1
  blobs_lr: 2
  weight_decay: 1
  weight_decay: 0
  convolution_param {
    num_output: 64
    pad: 1
    kernel_size: 3
  }
}
layers {
  bottom: "conv1_2"
  top: "conv1_2"
  name: "relu1_2"
  type: RELU
}
layers {
  bottom: "conv1_2"
  top: "pool1"
  name: "pool1"
  type: POOLING
  pooling_param {
    pool: MAX
    kernel_size: 3
    stride: 2
    pad: 1
  }
}
layers {
  bottom: "pool1"
  top: "conv2_1"
  name: "conv2_1"
  type: CONVOLUTION
  blobs_lr: 1
  blobs_lr: 2
  weight_decay: 1
  weight_decay: 0
  convolution_param {
    num_output: 128
    pad: 1
    kernel_size: 3
  }
}
layers {
  bottom: "conv2_1"
  top: "conv2_1"
  name: "relu2_1"
  type: RELU
}
layers {
  bottom: "conv2_1"
  top: "conv2_2"
  name: "conv2_2"
  type: CONVOLUTION
  blobs_lr: 1
  blobs_lr: 2
  weight_decay: 1
  weight_decay: 0
  convolution_param {
    num_output: 128
    pad: 1
    kernel_size: 3
  }
}
layers {
  bottom: "conv2_2"
  top: "conv2_2"
  name: "relu2_2"
  type: RELU
}
layers {
  bottom: "conv2_2"
  top: "pool2"
  name: "pool2"
  type: POOLING
  pooling_param {
    pool: MAX
    kernel_size: 3
    stride: 2
    pad: 1
  }
}
layers {
  bottom: "pool2"
  top: "conv3_1"
  name: "conv3_1"
  type: CONVOLUTION
  blobs_lr: 1
  blobs_lr: 2
  weight_decay: 1
  weight_decay: 0
  convolution_param {
    num_output: 256
    pad: 1
    kernel_size: 3
  }
}
layers {
  bottom: "conv3_1"
  top: "conv3_1"
  name: "relu3_1"
  type: RELU
}
layers {
  bottom: "conv3_1"
  top: "conv3_2"
  name: "conv3_2"
  type: CONVOLUTION
  blobs_lr: 1
  blobs_lr: 2
  weight_decay: 1
  weight_decay: 0
  convolution_param {
    num_output: 256
    pad: 1
    kernel_size: 3
  }
}
layers {
  bottom: "conv3_2"
  top: "conv3_2"
  name: "relu3_2"
  type: RELU
}
layers {
  bottom: "conv3_2"
  top: "conv3_3"
  name: "conv3_3"
  type: CONVOLUTION
  blobs_lr: 1
  blobs_lr: 2
  weight_decay: 1
  weight_decay: 0
  convolution_param {
    num_output: 256
    pad: 1
    kernel_size: 3
  }
}
layers {
  bottom: "conv3_3"
  top: "conv3_3"
  name: "relu3_3"
  type: RELU
}
layers {
  bottom: "conv3_3"
  top: "pool3"
  name: "pool3"
  type: POOLING
  pooling_param {
    pool: MAX
    kernel_size: 3
    stride: 2
    pad: 1
  }
}
layers {
  bottom: "pool3"
  top: "conv4_1"
  name: "conv4_1"
  type: CONVOLUTION
  blobs_lr: 1
  blobs_lr: 2
  weight_decay: 1
  weight_decay: 0
  convolution_param {
    num_output: 512
    pad: 1
    kernel_size: 3
  }
}
layers {
  bottom: "conv4_1"
  top: "conv4_1"
  name: "relu4_1"
  type: RELU
}
layers {
  bottom: "conv4_1"
  top: "conv4_2"
  name: "conv4_2"
  type: CONVOLUTION
  blobs_lr: 1
  blobs_lr: 2
  weight_decay: 1
  weight_decay: 0
  convolution_param {
    num_output: 512
    pad: 1
    kernel_size: 3
  }
}
layers {
  bottom: "conv4_2"
  top: "conv4_2"
  name: "relu4_2"
  type: RELU
}
layers {
  bottom: "conv4_2"
  top: "conv4_3"
  name: "conv4_3"
  type: CONVOLUTION
  blobs_lr: 1
  blobs_lr: 2
  weight_decay: 1
  weight_decay: 0
  convolution_param {
    num_output: 512
    pad: 1
    kernel_size: 3
  }
}
layers {
  bottom: "conv4_3"
  top: "conv4_3"
  name: "relu4_3"
  type: RELU
}
layers {
  bottom: "conv4_3"
  top: "pool4"
  name: "pool4"
  type: POOLING
  pooling_param {
    pool: MAX
    kernel_size: 3
    stride: 1
    pad: 1
  }
}
layers {
  bottom: "pool4"
  top: "conv5_1"
  name: "conv5_1"
  type: CONVOLUTION
  blobs_lr: 1
  blobs_lr: 2
  weight_decay: 1
  weight_decay: 0
  convolution_param {
    num_output: 512
    pad: 2
    kernel_size: 3
    hole: 2
  }
}
layers {
  bottom: "conv5_1"
  top: "conv5_1"
  name: "relu5_1"
  type: RELU
}
layers {
  bottom: "conv5_1"
  top: "conv5_2"
  name: "conv5_2"
  type: CONVOLUTION
  blobs_lr: 1
  blobs_lr: 2
  weight_decay: 1
  weight_decay: 0
  convolution_param {
    num_output: 512
    pad: 2
    kernel_size: 3
    hole: 2
  }
}
layers {
  bottom: "conv5_2"
  top: "conv5_2"
  name: "relu5_2"
  type: RELU
}
layers {
  bottom: "conv5_2"
  top: "conv5_3"
  name: "conv5_3"
  type: CONVOLUTION
  blobs_lr: 1
  blobs_lr: 2
  weight_decay: 1
  weight_decay: 0
  convolution_param {
    num_output: 512
    pad: 2
    kernel_size: 3
    hole: 2
  }
}
layers {
  bottom: "conv5_3"
  top: "conv5_3"
  name: "relu5_3"
  type: RELU
}
layers {
  bottom: "conv5_3"
  top: "pool5"
  name: "pool5"
  type: POOLING
  pooling_param {
    pool: MAX
    kernel_size: 3
    stride: 1
    pad: 1
  }
}
layers {
  bottom: "pool5"
  top: "pool5a"
  name: "pool5a"
  type: POOLING
  pooling_param {
    pool: AVE
    kernel_size: 3
    stride: 1
    pad: 1
  }
}
layers {
  bottom: "pool5a"
  top: "fc6"
  name: "fc6"
  type: CONVOLUTION
  blobs_lr: 1
  blobs_lr: 2
  weight_decay: 1
  weight_decay: 0
  convolution_param {
    num_output: 1024
    pad: 12
    kernel_size: 3
    hole: 12
  }
}
layers {
  bottom: "fc6"
  top: "fc6"
  name: "relu6"
  type: RELU
}
layers {
  bottom: "fc6"
  top: "fc6"
  name: "drop6"
  type: DROPOUT
  dropout_param {
    dropout_ratio: 0.5
  }
}
layers {
  bottom: "fc6"
  top: "fc7"
  name: "fc7"
  type: CONVOLUTION
  blobs_lr: 1
  blobs_lr: 2
  weight_decay: 1
  weight_decay: 0
  convolution_param {
    num_output: 1024
    kernel_size: 1
  }
}
layers {
  bottom: "fc7"
  top: "fc7"
  name: "relu7"
  type: RELU
}
layers {
  bottom: "fc7"
  top: "fc7"
  name: "drop7"
  type: DROPOUT
  dropout_param {
    dropout_ratio: 0.5
  }
}
layers {
  bottom: "fc7"
  top: "fc8_exper/voc12"
  name: "fc8_exper/voc12"
  type: CONVOLUTION
  blobs_lr: 10
  blobs_lr: 20
  weight_decay: 1
  weight_decay: 0
  convolution_param {
    num_output: 21
    kernel_size: 1
    weight_filler {
      type: "gaussian"
      std: 0.01
    }
    bias_filler {
      type: "constant"
      value: 0
    }
  }
}
layers {
  bottom: "label"
  top: "label_shrink"
  name: "label_shrink"
  type: INTERP
  interp_param {
    shrink_factor: 8
    pad_beg: 0
    pad_end: 0
  }
}
layers {
  bottom: "fc8_exper/voc12"
  bottom: "label_shrink"
  name: "loss"
  type: SOFTMAX_LOSS
  include {
    phase: TRAIN
  }
  softmaxloss_param {
    ignore_label: 255
  }
}
layers {
  bottom: "fc8_exper/voc12"
  bottom: "label_shrink"
  top: "accuracy"
  name: "accuracy"
  type: SEG_ACCURACY
  seg_accuracy_param {
    ignore_label: 255
  }
}
state {
  phase: TRAIN
}
I0427 19:55:47.763368 28506 layer_factory.hpp:78] Creating layer data
I0427 19:55:47.763397 28506 net.cpp:67] Creating Layer data
I0427 19:55:47.763401 28506 net.cpp:356] data -> data
I0427 19:55:47.763411 28506 net.cpp:356] data -> label
I0427 19:55:47.763414 28506 net.cpp:356] data -> (automatic)
I0427 19:55:47.763430 28506 net.cpp:96] Setting up data
I0427 19:55:47.763433 28506 image_seg_data_layer.cpp:45] Opening file exper/voc12/list/train_aug.txt
I0427 19:55:47.769728 28506 image_seg_data_layer.cpp:62] Shuffling data
I0427 19:55:47.771024 28506 image_seg_data_layer.cpp:67] A total of 10582 images.
I0427 19:55:47.775102 28506 image_seg_data_layer.cpp:113] output data size: 12,3,321,321
I0427 19:55:47.775116 28506 image_seg_data_layer.cpp:117] output label size: 12,1,321,321
I0427 19:55:47.775120 28506 image_seg_data_layer.cpp:121] output data_dim size: 12,1,1,2
I0427 19:55:47.778473 28506 net.cpp:103] Top shape: 12 3 321 321 (3709476)
I0427 19:55:47.778517 28506 net.cpp:103] Top shape: 12 1 321 321 (1236492)
I0427 19:55:47.778520 28506 net.cpp:103] Top shape: 12 1 1 2 (24)
I0427 19:55:47.778530 28506 layer_factory.hpp:78] Creating layer conv1_1
I0427 19:55:47.778566 28506 net.cpp:67] Creating Layer conv1_1
I0427 19:55:47.778573 28506 net.cpp:394] conv1_1 <- data
I0427 19:55:47.778595 28506 net.cpp:356] conv1_1 -> conv1_1
I0427 19:55:47.778610 28506 net.cpp:96] Setting up conv1_1
I0427 19:55:47.778887 28506 net.cpp:103] Top shape: 12 64 321 321 (79135488)
I0427 19:55:47.778898 28506 layer_factory.hpp:78] Creating layer relu1_1
I0427 19:55:47.778906 28506 net.cpp:67] Creating Layer relu1_1
I0427 19:55:47.778910 28506 net.cpp:394] relu1_1 <- conv1_1
I0427 19:55:47.778919 28506 net.cpp:345] relu1_1 -> conv1_1 (in-place)
I0427 19:55:47.778924 28506 net.cpp:96] Setting up relu1_1
I0427 19:55:47.778928 28506 net.cpp:103] Top shape: 12 64 321 321 (79135488)
I0427 19:55:47.778931 28506 layer_factory.hpp:78] Creating layer conv1_2
I0427 19:55:47.778936 28506 net.cpp:67] Creating Layer conv1_2
I0427 19:55:47.778939 28506 net.cpp:394] conv1_2 <- conv1_1
I0427 19:55:47.778946 28506 net.cpp:356] conv1_2 -> conv1_2
I0427 19:55:47.778951 28506 net.cpp:96] Setting up conv1_2
I0427 19:55:47.779184 28506 net.cpp:103] Top shape: 12 64 321 321 (79135488)
I0427 19:55:47.779193 28506 layer_factory.hpp:78] Creating layer relu1_2
I0427 19:55:47.779198 28506 net.cpp:67] Creating Layer relu1_2
I0427 19:55:47.779201 28506 net.cpp:394] relu1_2 <- conv1_2
I0427 19:55:47.779206 28506 net.cpp:345] relu1_2 -> conv1_2 (in-place)
I0427 19:55:47.779209 28506 net.cpp:96] Setting up relu1_2
I0427 19:55:47.779212 28506 net.cpp:103] Top shape: 12 64 321 321 (79135488)
I0427 19:55:47.779217 28506 layer_factory.hpp:78] Creating layer pool1
I0427 19:55:47.779222 28506 net.cpp:67] Creating Layer pool1
I0427 19:55:47.779225 28506 net.cpp:394] pool1 <- conv1_2
I0427 19:55:47.779230 28506 net.cpp:356] pool1 -> pool1
I0427 19:55:47.779235 28506 net.cpp:96] Setting up pool1
I0427 19:55:47.779245 28506 net.cpp:103] Top shape: 12 64 161 161 (19907328)
I0427 19:55:47.779248 28506 layer_factory.hpp:78] Creating layer conv2_1
I0427 19:55:47.779253 28506 net.cpp:67] Creating Layer conv2_1
I0427 19:55:47.779256 28506 net.cpp:394] conv2_1 <- pool1
I0427 19:55:47.779268 28506 net.cpp:356] conv2_1 -> conv2_1
I0427 19:55:47.779273 28506 net.cpp:96] Setting up conv2_1
I0427 19:55:47.779443 28506 net.cpp:103] Top shape: 12 128 161 161 (39814656)
I0427 19:55:47.779449 28506 layer_factory.hpp:78] Creating layer relu2_1
I0427 19:55:47.779454 28506 net.cpp:67] Creating Layer relu2_1
I0427 19:55:47.779458 28506 net.cpp:394] relu2_1 <- conv2_1
I0427 19:55:47.779464 28506 net.cpp:345] relu2_1 -> conv2_1 (in-place)
I0427 19:55:47.779467 28506 net.cpp:96] Setting up relu2_1
I0427 19:55:47.779470 28506 net.cpp:103] Top shape: 12 128 161 161 (39814656)
I0427 19:55:47.779474 28506 layer_factory.hpp:78] Creating layer conv2_2
I0427 19:55:47.779479 28506 net.cpp:67] Creating Layer conv2_2
I0427 19:55:47.779482 28506 net.cpp:394] conv2_2 <- conv2_1
I0427 19:55:47.779489 28506 net.cpp:356] conv2_2 -> conv2_2
I0427 19:55:47.779494 28506 net.cpp:96] Setting up conv2_2
I0427 19:55:47.779767 28506 net.cpp:103] Top shape: 12 128 161 161 (39814656)
I0427 19:55:47.779772 28506 layer_factory.hpp:78] Creating layer relu2_2
I0427 19:55:47.779777 28506 net.cpp:67] Creating Layer relu2_2
I0427 19:55:47.779779 28506 net.cpp:394] relu2_2 <- conv2_2
I0427 19:55:47.779785 28506 net.cpp:345] relu2_2 -> conv2_2 (in-place)
I0427 19:55:47.779789 28506 net.cpp:96] Setting up relu2_2
I0427 19:55:47.779819 28506 net.cpp:103] Top shape: 12 128 161 161 (39814656)
I0427 19:55:47.779824 28506 layer_factory.hpp:78] Creating layer pool2
I0427 19:55:47.779827 28506 net.cpp:67] Creating Layer pool2
I0427 19:55:47.779831 28506 net.cpp:394] pool2 <- conv2_2
I0427 19:55:47.779839 28506 net.cpp:356] pool2 -> pool2
I0427 19:55:47.779844 28506 net.cpp:96] Setting up pool2
I0427 19:55:47.779847 28506 net.cpp:103] Top shape: 12 128 81 81 (10077696)
I0427 19:55:47.779850 28506 layer_factory.hpp:78] Creating layer conv3_1
I0427 19:55:47.779855 28506 net.cpp:67] Creating Layer conv3_1
I0427 19:55:47.779857 28506 net.cpp:394] conv3_1 <- pool2
I0427 19:55:47.779861 28506 net.cpp:356] conv3_1 -> conv3_1
I0427 19:55:47.779865 28506 net.cpp:96] Setting up conv3_1
I0427 19:55:47.780335 28506 net.cpp:103] Top shape: 12 256 81 81 (20155392)
I0427 19:55:47.780344 28506 layer_factory.hpp:78] Creating layer relu3_1
I0427 19:55:47.780352 28506 net.cpp:67] Creating Layer relu3_1
I0427 19:55:47.780356 28506 net.cpp:394] relu3_1 <- conv3_1
I0427 19:55:47.780361 28506 net.cpp:345] relu3_1 -> conv3_1 (in-place)
I0427 19:55:47.780365 28506 net.cpp:96] Setting up relu3_1
I0427 19:55:47.780371 28506 net.cpp:103] Top shape: 12 256 81 81 (20155392)
I0427 19:55:47.780375 28506 layer_factory.hpp:78] Creating layer conv3_2
I0427 19:55:47.780385 28506 net.cpp:67] Creating Layer conv3_2
I0427 19:55:47.780388 28506 net.cpp:394] conv3_2 <- conv3_1
I0427 19:55:47.780393 28506 net.cpp:356] conv3_2 -> conv3_2
I0427 19:55:47.780398 28506 net.cpp:96] Setting up conv3_2
I0427 19:55:47.781184 28506 net.cpp:103] Top shape: 12 256 81 81 (20155392)
I0427 19:55:47.781198 28506 layer_factory.hpp:78] Creating layer relu3_2
I0427 19:55:47.781203 28506 net.cpp:67] Creating Layer relu3_2
I0427 19:55:47.781205 28506 net.cpp:394] relu3_2 <- conv3_2
I0427 19:55:47.781209 28506 net.cpp:345] relu3_2 -> conv3_2 (in-place)
I0427 19:55:47.781213 28506 net.cpp:96] Setting up relu3_2
I0427 19:55:47.781215 28506 net.cpp:103] Top shape: 12 256 81 81 (20155392)
I0427 19:55:47.781217 28506 layer_factory.hpp:78] Creating layer conv3_3
I0427 19:55:47.781224 28506 net.cpp:67] Creating Layer conv3_3
I0427 19:55:47.781226 28506 net.cpp:394] conv3_3 <- conv3_2
I0427 19:55:47.781229 28506 net.cpp:356] conv3_3 -> conv3_3
I0427 19:55:47.781234 28506 net.cpp:96] Setting up conv3_3
I0427 19:55:47.782119 28506 net.cpp:103] Top shape: 12 256 81 81 (20155392)
I0427 19:55:47.782131 28506 layer_factory.hpp:78] Creating layer relu3_3
I0427 19:55:47.782140 28506 net.cpp:67] Creating Layer relu3_3
I0427 19:55:47.782145 28506 net.cpp:394] relu3_3 <- conv3_3
I0427 19:55:47.782147 28506 net.cpp:345] relu3_3 -> conv3_3 (in-place)
I0427 19:55:47.782151 28506 net.cpp:96] Setting up relu3_3
I0427 19:55:47.782155 28506 net.cpp:103] Top shape: 12 256 81 81 (20155392)
I0427 19:55:47.782157 28506 layer_factory.hpp:78] Creating layer pool3
I0427 19:55:47.782162 28506 net.cpp:67] Creating Layer pool3
I0427 19:55:47.782165 28506 net.cpp:394] pool3 <- conv3_3
I0427 19:55:47.782167 28506 net.cpp:356] pool3 -> pool3
I0427 19:55:47.782173 28506 net.cpp:96] Setting up pool3
I0427 19:55:47.782177 28506 net.cpp:103] Top shape: 12 256 41 41 (5164032)
I0427 19:55:47.782181 28506 layer_factory.hpp:78] Creating layer conv4_1
I0427 19:55:47.782184 28506 net.cpp:67] Creating Layer conv4_1
I0427 19:55:47.782187 28506 net.cpp:394] conv4_1 <- pool3
I0427 19:55:47.782192 28506 net.cpp:356] conv4_1 -> conv4_1
I0427 19:55:47.782196 28506 net.cpp:96] Setting up conv4_1
I0427 19:55:47.784014 28506 net.cpp:103] Top shape: 12 512 41 41 (10328064)
I0427 19:55:47.784065 28506 layer_factory.hpp:78] Creating layer relu4_1
I0427 19:55:47.784078 28506 net.cpp:67] Creating Layer relu4_1
I0427 19:55:47.784085 28506 net.cpp:394] relu4_1 <- conv4_1
I0427 19:55:47.784092 28506 net.cpp:345] relu4_1 -> conv4_1 (in-place)
I0427 19:55:47.784101 28506 net.cpp:96] Setting up relu4_1
I0427 19:55:47.784104 28506 net.cpp:103] Top shape: 12 512 41 41 (10328064)
I0427 19:55:47.784107 28506 layer_factory.hpp:78] Creating layer conv4_2
I0427 19:55:47.784116 28506 net.cpp:67] Creating Layer conv4_2
I0427 19:55:47.784171 28506 net.cpp:394] conv4_2 <- conv4_1
I0427 19:55:47.784180 28506 net.cpp:356] conv4_2 -> conv4_2
I0427 19:55:47.784188 28506 net.cpp:96] Setting up conv4_2
I0427 19:55:47.788976 28506 net.cpp:103] Top shape: 12 512 41 41 (10328064)
I0427 19:55:47.789031 28506 layer_factory.hpp:78] Creating layer relu4_2
I0427 19:55:47.789052 28506 net.cpp:67] Creating Layer relu4_2
I0427 19:55:47.789060 28506 net.cpp:394] relu4_2 <- conv4_2
I0427 19:55:47.789068 28506 net.cpp:345] relu4_2 -> conv4_2 (in-place)
I0427 19:55:47.789079 28506 net.cpp:96] Setting up relu4_2
I0427 19:55:47.789083 28506 net.cpp:103] Top shape: 12 512 41 41 (10328064)
I0427 19:55:47.789088 28506 layer_factory.hpp:78] Creating layer conv4_3
I0427 19:55:47.789093 28506 net.cpp:67] Creating Layer conv4_3
I0427 19:55:47.789095 28506 net.cpp:394] conv4_3 <- conv4_2
I0427 19:55:47.789099 28506 net.cpp:356] conv4_3 -> conv4_3
I0427 19:55:47.789105 28506 net.cpp:96] Setting up conv4_3
I0427 19:55:47.795089 28506 net.cpp:103] Top shape: 12 512 41 41 (10328064)
I0427 19:55:47.795150 28506 layer_factory.hpp:78] Creating layer relu4_3
I0427 19:55:47.795169 28506 net.cpp:67] Creating Layer relu4_3
I0427 19:55:47.795177 28506 net.cpp:394] relu4_3 <- conv4_3
I0427 19:55:47.795191 28506 net.cpp:345] relu4_3 -> conv4_3 (in-place)
I0427 19:55:47.795199 28506 net.cpp:96] Setting up relu4_3
I0427 19:55:47.795207 28506 net.cpp:103] Top shape: 12 512 41 41 (10328064)
I0427 19:55:47.795210 28506 layer_factory.hpp:78] Creating layer pool4
I0427 19:55:47.795222 28506 net.cpp:67] Creating Layer pool4
I0427 19:55:47.795227 28506 net.cpp:394] pool4 <- conv4_3
I0427 19:55:47.795234 28506 net.cpp:356] pool4 -> pool4
I0427 19:55:47.795245 28506 net.cpp:96] Setting up pool4
I0427 19:55:47.795255 28506 net.cpp:103] Top shape: 12 512 41 41 (10328064)
I0427 19:55:47.795260 28506 layer_factory.hpp:78] Creating layer conv5_1
I0427 19:55:47.795270 28506 net.cpp:67] Creating Layer conv5_1
I0427 19:55:47.795274 28506 net.cpp:394] conv5_1 <- pool4
I0427 19:55:47.795280 28506 net.cpp:356] conv5_1 -> conv5_1
I0427 19:55:47.795285 28506 net.cpp:96] Setting up conv5_1
I0427 19:55:47.799573 28506 net.cpp:103] Top shape: 12 512 41 41 (10328064)
I0427 19:55:47.799602 28506 layer_factory.hpp:78] Creating layer relu5_1
I0427 19:55:47.799610 28506 net.cpp:67] Creating Layer relu5_1
I0427 19:55:47.799614 28506 net.cpp:394] relu5_1 <- conv5_1
I0427 19:55:47.799620 28506 net.cpp:345] relu5_1 -> conv5_1 (in-place)
I0427 19:55:47.799628 28506 net.cpp:96] Setting up relu5_1
I0427 19:55:47.799631 28506 net.cpp:103] Top shape: 12 512 41 41 (10328064)
I0427 19:55:47.799633 28506 layer_factory.hpp:78] Creating layer conv5_2
I0427 19:55:47.799638 28506 net.cpp:67] Creating Layer conv5_2
I0427 19:55:47.799640 28506 net.cpp:394] conv5_2 <- conv5_1
I0427 19:55:47.799645 28506 net.cpp:356] conv5_2 -> conv5_2
I0427 19:55:47.799649 28506 net.cpp:96] Setting up conv5_2
I0427 19:55:47.803689 28506 net.cpp:103] Top shape: 12 512 41 41 (10328064)
I0427 19:55:47.803733 28506 layer_factory.hpp:78] Creating layer relu5_2
I0427 19:55:47.803755 28506 net.cpp:67] Creating Layer relu5_2
I0427 19:55:47.803761 28506 net.cpp:394] relu5_2 <- conv5_2
I0427 19:55:47.803766 28506 net.cpp:345] relu5_2 -> conv5_2 (in-place)
I0427 19:55:47.803773 28506 net.cpp:96] Setting up relu5_2
I0427 19:55:47.803777 28506 net.cpp:103] Top shape: 12 512 41 41 (10328064)
I0427 19:55:47.803781 28506 layer_factory.hpp:78] Creating layer conv5_3
I0427 19:55:47.803786 28506 net.cpp:67] Creating Layer conv5_3
I0427 19:55:47.803789 28506 net.cpp:394] conv5_3 <- conv5_2
I0427 19:55:47.803793 28506 net.cpp:356] conv5_3 -> conv5_3
I0427 19:55:47.803798 28506 net.cpp:96] Setting up conv5_3
I0427 19:55:47.807348 28506 net.cpp:103] Top shape: 12 512 41 41 (10328064)
I0427 19:55:47.807373 28506 layer_factory.hpp:78] Creating layer relu5_3
I0427 19:55:47.807386 28506 net.cpp:67] Creating Layer relu5_3
I0427 19:55:47.807392 28506 net.cpp:394] relu5_3 <- conv5_3
I0427 19:55:47.807400 28506 net.cpp:345] relu5_3 -> conv5_3 (in-place)
I0427 19:55:47.807467 28506 net.cpp:96] Setting up relu5_3
I0427 19:55:47.807481 28506 net.cpp:103] Top shape: 12 512 41 41 (10328064)
I0427 19:55:47.807489 28506 layer_factory.hpp:78] Creating layer pool5
I0427 19:55:47.807495 28506 net.cpp:67] Creating Layer pool5
I0427 19:55:47.807499 28506 net.cpp:394] pool5 <- conv5_3
I0427 19:55:47.807505 28506 net.cpp:356] pool5 -> pool5
I0427 19:55:47.807510 28506 net.cpp:96] Setting up pool5
I0427 19:55:47.807514 28506 net.cpp:103] Top shape: 12 512 41 41 (10328064)
I0427 19:55:47.807518 28506 layer_factory.hpp:78] Creating layer pool5a
I0427 19:55:47.807525 28506 net.cpp:67] Creating Layer pool5a
I0427 19:55:47.807528 28506 net.cpp:394] pool5a <- pool5
I0427 19:55:47.807531 28506 net.cpp:356] pool5a -> pool5a
I0427 19:55:47.807534 28506 net.cpp:96] Setting up pool5a
I0427 19:55:47.807538 28506 net.cpp:103] Top shape: 12 512 41 41 (10328064)
I0427 19:55:47.807539 28506 layer_factory.hpp:78] Creating layer fc6
I0427 19:55:47.807543 28506 net.cpp:67] Creating Layer fc6
I0427 19:55:47.807546 28506 net.cpp:394] fc6 <- pool5a
I0427 19:55:47.807549 28506 net.cpp:356] fc6 -> fc6
I0427 19:55:47.807552 28506 net.cpp:96] Setting up fc6
I0427 19:55:47.815780 28506 net.cpp:103] Top shape: 12 1024 41 41 (20656128)
I0427 19:55:47.815804 28506 layer_factory.hpp:78] Creating layer relu6
I0427 19:55:47.815814 28506 net.cpp:67] Creating Layer relu6
I0427 19:55:47.815819 28506 net.cpp:394] relu6 <- fc6
I0427 19:55:47.815825 28506 net.cpp:345] relu6 -> fc6 (in-place)
I0427 19:55:47.815832 28506 net.cpp:96] Setting up relu6
I0427 19:55:47.815837 28506 net.cpp:103] Top shape: 12 1024 41 41 (20656128)
I0427 19:55:47.815840 28506 layer_factory.hpp:78] Creating layer drop6
I0427 19:55:47.815851 28506 net.cpp:67] Creating Layer drop6
I0427 19:55:47.815855 28506 net.cpp:394] drop6 <- fc6
I0427 19:55:47.815860 28506 net.cpp:345] drop6 -> fc6 (in-place)
I0427 19:55:47.815865 28506 net.cpp:96] Setting up drop6
I0427 19:55:47.815871 28506 net.cpp:103] Top shape: 12 1024 41 41 (20656128)
I0427 19:55:47.815874 28506 layer_factory.hpp:78] Creating layer fc7
I0427 19:55:47.815881 28506 net.cpp:67] Creating Layer fc7
I0427 19:55:47.815884 28506 net.cpp:394] fc7 <- fc6
I0427 19:55:47.815889 28506 net.cpp:356] fc7 -> fc7
I0427 19:55:47.815896 28506 net.cpp:96] Setting up fc7
I0427 19:55:47.817024 28506 net.cpp:103] Top shape: 12 1024 41 41 (20656128)
I0427 19:55:47.817045 28506 layer_factory.hpp:78] Creating layer relu7
I0427 19:55:47.817051 28506 net.cpp:67] Creating Layer relu7
I0427 19:55:47.817054 28506 net.cpp:394] relu7 <- fc7
I0427 19:55:47.817059 28506 net.cpp:345] relu7 -> fc7 (in-place)
I0427 19:55:47.817065 28506 net.cpp:96] Setting up relu7
I0427 19:55:47.817067 28506 net.cpp:103] Top shape: 12 1024 41 41 (20656128)
I0427 19:55:47.817070 28506 layer_factory.hpp:78] Creating layer drop7
I0427 19:55:47.817075 28506 net.cpp:67] Creating Layer drop7
I0427 19:55:47.817077 28506 net.cpp:394] drop7 <- fc7
I0427 19:55:47.817080 28506 net.cpp:345] drop7 -> fc7 (in-place)
I0427 19:55:47.817085 28506 net.cpp:96] Setting up drop7
I0427 19:55:47.817087 28506 net.cpp:103] Top shape: 12 1024 41 41 (20656128)
I0427 19:55:47.817090 28506 layer_factory.hpp:78] Creating layer fc8_exper/voc12
I0427 19:55:47.817095 28506 net.cpp:67] Creating Layer fc8_exper/voc12
I0427 19:55:47.817098 28506 net.cpp:394] fc8_exper/voc12 <- fc7
I0427 19:55:47.817102 28506 net.cpp:356] fc8_exper/voc12 -> fc8_exper/voc12
I0427 19:55:47.817106 28506 net.cpp:96] Setting up fc8_exper/voc12
I0427 19:55:47.817639 28506 net.cpp:103] Top shape: 12 21 41 41 (423612)
I0427 19:55:47.817651 28506 layer_factory.hpp:78] Creating layer fc8_exper/voc12_fc8_exper/voc12_0_split
I0427 19:55:47.817670 28506 net.cpp:67] Creating Layer fc8_exper/voc12_fc8_exper/voc12_0_split
I0427 19:55:47.817675 28506 net.cpp:394] fc8_exper/voc12_fc8_exper/voc12_0_split <- fc8_exper/voc12
I0427 19:55:47.817682 28506 net.cpp:356] fc8_exper/voc12_fc8_exper/voc12_0_split -> fc8_exper/voc12_fc8_exper/voc12_0_split_0
I0427 19:55:47.817690 28506 net.cpp:356] fc8_exper/voc12_fc8_exper/voc12_0_split -> fc8_exper/voc12_fc8_exper/voc12_0_split_1
I0427 19:55:47.817739 28506 net.cpp:96] Setting up fc8_exper/voc12_fc8_exper/voc12_0_split
I0427 19:55:47.817750 28506 net.cpp:103] Top shape: 12 21 41 41 (423612)
I0427 19:55:47.817754 28506 net.cpp:103] Top shape: 12 21 41 41 (423612)
I0427 19:55:47.817759 28506 layer_factory.hpp:78] Creating layer label_shrink
I0427 19:55:47.817769 28506 net.cpp:67] Creating Layer label_shrink
I0427 19:55:47.817772 28506 net.cpp:394] label_shrink <- label
I0427 19:55:47.817780 28506 net.cpp:356] label_shrink -> label_shrink
I0427 19:55:47.817785 28506 net.cpp:96] Setting up label_shrink
I0427 19:55:47.817790 28506 net.cpp:103] Top shape: 12 1 41 41 (20172)
I0427 19:55:47.817793 28506 layer_factory.hpp:78] Creating layer label_shrink_label_shrink_0_split
I0427 19:55:47.817798 28506 net.cpp:67] Creating Layer label_shrink_label_shrink_0_split
I0427 19:55:47.817802 28506 net.cpp:394] label_shrink_label_shrink_0_split <- label_shrink
I0427 19:55:47.817806 28506 net.cpp:356] label_shrink_label_shrink_0_split -> label_shrink_label_shrink_0_split_0
I0427 19:55:47.817812 28506 net.cpp:356] label_shrink_label_shrink_0_split -> label_shrink_label_shrink_0_split_1
I0427 19:55:47.817816 28506 net.cpp:96] Setting up label_shrink_label_shrink_0_split
I0427 19:55:47.817821 28506 net.cpp:103] Top shape: 12 1 41 41 (20172)
I0427 19:55:47.817826 28506 net.cpp:103] Top shape: 12 1 41 41 (20172)
I0427 19:55:47.817828 28506 layer_factory.hpp:78] Creating layer loss
I0427 19:55:47.817845 28506 net.cpp:67] Creating Layer loss
I0427 19:55:47.817849 28506 net.cpp:394] loss <- fc8_exper/voc12_fc8_exper/voc12_0_split_0
I0427 19:55:47.817854 28506 net.cpp:394] loss <- label_shrink_label_shrink_0_split_0
I0427 19:55:47.817860 28506 net.cpp:356] loss -> (automatic)
I0427 19:55:47.817867 28506 net.cpp:96] Setting up loss
I0427 19:55:47.817883 28506 softmax_loss_layer.cpp:40] Weight_Loss file is not provided. Assign all one to it.
I0427 19:55:47.817888 28506 net.cpp:103] Top shape: 1 1 1 1 (1)
I0427 19:55:47.817891 28506 net.cpp:109]     with loss weight 1
I0427 19:55:47.817952 28506 layer_factory.hpp:78] Creating layer accuracy
I0427 19:55:47.817963 28506 net.cpp:67] Creating Layer accuracy
I0427 19:55:47.817967 28506 net.cpp:394] accuracy <- fc8_exper/voc12_fc8_exper/voc12_0_split_1
I0427 19:55:47.817972 28506 net.cpp:394] accuracy <- label_shrink_label_shrink_0_split_1
I0427 19:55:47.817980 28506 net.cpp:356] accuracy -> accuracy
I0427 19:55:47.817986 28506 net.cpp:96] Setting up accuracy
I0427 19:55:47.818002 28506 net.cpp:103] Top shape: 1 1 1 3 (3)
I0427 19:55:47.818006 28506 net.cpp:172] accuracy does not need backward computation.
I0427 19:55:47.818011 28506 net.cpp:170] loss needs backward computation.
I0427 19:55:47.818014 28506 net.cpp:172] label_shrink_label_shrink_0_split does not need backward computation.
I0427 19:55:47.818018 28506 net.cpp:172] label_shrink does not need backward computation.
I0427 19:55:47.818022 28506 net.cpp:170] fc8_exper/voc12_fc8_exper/voc12_0_split needs backward computation.
…
