…
I0427 23:07:45.904100  7840 solver.cpp:58] Creating training net from train_net file: exper/voc12/config/DeepLab-LargeFOV/train_trainval_aug.prototxt
I0427 23:07:45.906641  7840 net.cpp:39] Initializing net from parameters: 
name: "DeepLab-LargeFOV"
layers {
  top: "data"
  top: "label"
  name: "data"
  type: IMAGE_SEG_DATA
  image_data_param {
    source: "exper/voc12/list/trainval_aug.txt"
    batch_size: 12
    shuffle: true
    root_folder: "exper/voc12/data"
    label_type: PIXEL
  }
  include {
    phase: TRAIN
  }
  transform_param {
    mirror: true
    crop_size: 321
    mean_value: 104.008
    mean_value: 116.669
    mean_value: 122.675
  }
}
layers {
  bottom: "data"
  top: "conv1_1"
  name: "conv1_1"
  type: CONVOLUTION
  blobs_lr: 1
  blobs_lr: 2
  weight_decay: 1
  weight_decay: 0
  convolution_param {
    num_output: 64
    pad: 1
    kernel_size: 3
  }
}
layers {
  bottom: "conv1_1"
  top: "conv1_1"
  name: "relu1_1"
  type: RELU
}
layers {
  bottom: "conv1_1"
  top: "conv1_2"
  name: "conv1_2"
  type: CONVOLUTION
  blobs_lr: 1
  blobs_lr: 2
  weight_decay: 1
  weight_decay: 0
  convolution_param {
    num_output: 64
    pad: 1
    kernel_size: 3
  }
}
layers {
  bottom: "conv1_2"
  top: "conv1_2"
  name: "relu1_2"
  type: RELU
}
layers {
  bottom: "conv1_2"
  top: "pool1"
  name: "pool1"
  type: POOLING
  pooling_param {
    pool: MAX
    kernel_size: 3
    stride: 2
    pad: 1
  }
}
layers {
  bottom: "pool1"
  top: "conv2_1"
  name: "conv2_1"
  type: CONVOLUTION
  blobs_lr: 1
  blobs_lr: 2
  weight_decay: 1
  weight_decay: 0
  convolution_param {
    num_output: 128
    pad: 1
    kernel_size: 3
  }
}
layers {
  bottom: "conv2_1"
  top: "conv2_1"
  name: "relu2_1"
  type: RELU
}
layers {
  bottom: "conv2_1"
  top: "conv2_2"
  name: "conv2_2"
  type: CONVOLUTION
  blobs_lr: 1
  blobs_lr: 2
  weight_decay: 1
  weight_decay: 0
  convolution_param {
    num_output: 128
    pad: 1
    kernel_size: 3
  }
}
layers {
  bottom: "conv2_2"
  top: "conv2_2"
  name: "relu2_2"
  type: RELU
}
layers {
  bottom: "conv2_2"
  top: "pool2"
  name: "pool2"
  type: POOLING
  pooling_param {
    pool: MAX
    kernel_size: 3
    stride: 2
    pad: 1
  }
}
layers {
  bottom: "pool2"
  top: "conv3_1"
  name: "conv3_1"
  type: CONVOLUTION
  blobs_lr: 1
  blobs_lr: 2
  weight_decay: 1
  weight_decay: 0
  convolution_param {
    num_output: 256
    pad: 1
    kernel_size: 3
  }
}
layers {
  bottom: "conv3_1"
  top: "conv3_1"
  name: "relu3_1"
  type: RELU
}
layers {
  bottom: "conv3_1"
  top: "conv3_2"
  name: "conv3_2"
  type: CONVOLUTION
  blobs_lr: 1
  blobs_lr: 2
  weight_decay: 1
  weight_decay: 0
  convolution_param {
    num_output: 256
    pad: 1
    kernel_size: 3
  }
}
layers {
  bottom: "conv3_2"
  top: "conv3_2"
  name: "relu3_2"
  type: RELU
}
layers {
  bottom: "conv3_2"
  top: "conv3_3"
  name: "conv3_3"
  type: CONVOLUTION
  blobs_lr: 1
  blobs_lr: 2
  weight_decay: 1
  weight_decay: 0
  convolution_param {
    num_output: 256
    pad: 1
    kernel_size: 3
  }
}
layers {
  bottom: "conv3_3"
  top: "conv3_3"
  name: "relu3_3"
  type: RELU
}
layers {
  bottom: "conv3_3"
  top: "pool3"
  name: "pool3"
  type: POOLING
  pooling_param {
    pool: MAX
    kernel_size: 3
    stride: 2
    pad: 1
  }
}
layers {
  bottom: "pool3"
  top: "conv4_1"
  name: "conv4_1"
  type: CONVOLUTION
  blobs_lr: 1
  blobs_lr: 2
  weight_decay: 1
  weight_decay: 0
  convolution_param {
    num_output: 512
    pad: 1
    kernel_size: 3
  }
}
layers {
  bottom: "conv4_1"
  top: "conv4_1"
  name: "relu4_1"
  type: RELU
}
layers {
  bottom: "conv4_1"
  top: "conv4_2"
  name: "conv4_2"
  type: CONVOLUTION
  blobs_lr: 1
  blobs_lr: 2
  weight_decay: 1
  weight_decay: 0
  convolution_param {
    num_output: 512
    pad: 1
    kernel_size: 3
  }
}
layers {
  bottom: "conv4_2"
  top: "conv4_2"
  name: "relu4_2"
  type: RELU
}
layers {
  bottom: "conv4_2"
  top: "conv4_3"
  name: "conv4_3"
  type: CONVOLUTION
  blobs_lr: 1
  blobs_lr: 2
  weight_decay: 1
  weight_decay: 0
  convolution_param {
    num_output: 512
    pad: 1
    kernel_size: 3
  }
}
layers {
  bottom: "conv4_3"
  top: "conv4_3"
  name: "relu4_3"
  type: RELU
}
layers {
  bottom: "conv4_3"
  top: "pool4"
  name: "pool4"
  type: POOLING
  pooling_param {
    pool: MAX
    kernel_size: 3
    stride: 1
    pad: 1
  }
}
layers {
  bottom: "pool4"
  top: "conv5_1"
  name: "conv5_1"
  type: CONVOLUTION
  blobs_lr: 1
  blobs_lr: 2
  weight_decay: 1
  weight_decay: 0
  convolution_param {
    num_output: 512
    pad: 2
    kernel_size: 3
    hole: 2
  }
}
layers {
  bottom: "conv5_1"
  top: "conv5_1"
  name: "relu5_1"
  type: RELU
}
layers {
  bottom: "conv5_1"
  top: "conv5_2"
  name: "conv5_2"
  type: CONVOLUTION
  blobs_lr: 1
  blobs_lr: 2
  weight_decay: 1
  weight_decay: 0
  convolution_param {
    num_output: 512
    pad: 2
    kernel_size: 3
    hole: 2
  }
}
layers {
  bottom: "conv5_2"
  top: "conv5_2"
  name: "relu5_2"
  type: RELU
}
layers {
  bottom: "conv5_2"
  top: "conv5_3"
  name: "conv5_3"
  type: CONVOLUTION
  blobs_lr: 1
  blobs_lr: 2
  weight_decay: 1
  weight_decay: 0
  convolution_param {
    num_output: 512
    pad: 2
    kernel_size: 3
    hole: 2
  }
}
layers {
  bottom: "conv5_3"
  top: "conv5_3"
  name: "relu5_3"
  type: RELU
}
layers {
  bottom: "conv5_3"
  top: "pool5"
  name: "pool5"
  type: POOLING
  pooling_param {
    pool: MAX
    kernel_size: 3
    stride: 1
    pad: 1
  }
}
layers {
  bottom: "pool5"
  top: "pool5a"
  name: "pool5a"
  type: POOLING
  pooling_param {
    pool: AVE
    kernel_size: 3
    stride: 1
    pad: 1
  }
}
layers {
  bottom: "pool5a"
  top: "fc6"
  name: "fc6"
  type: CONVOLUTION
  blobs_lr: 1
  blobs_lr: 2
  weight_decay: 1
  weight_decay: 0
  convolution_param {
    num_output: 1024
    pad: 12
    kernel_size: 3
    hole: 12
  }
}
layers {
  bottom: "fc6"
  top: "fc6"
  name: "relu6"
  type: RELU
}
layers {
  bottom: "fc6"
  top: "fc6"
  name: "drop6"
  type: DROPOUT
  dropout_param {
    dropout_ratio: 0.5
  }
}
layers {
  bottom: "fc6"
  top: "fc7"
  name: "fc7"
  type: CONVOLUTION
  blobs_lr: 1
  blobs_lr: 2
  weight_decay: 1
  weight_decay: 0
  convolution_param {
    num_output: 1024
    kernel_size: 1
  }
}
layers {
  bottom: "fc7"
  top: "fc7"
  name: "relu7"
  type: RELU
}
layers {
  bottom: "fc7"
  top: "fc7"
  name: "drop7"
  type: DROPOUT
  dropout_param {
    dropout_ratio: 0.5
  }
}
layers {
  bottom: "fc7"
  top: "fc8_exper/voc12"
  name: "fc8_exper/voc12"
  type: CONVOLUTION
  blobs_lr: 10
  blobs_lr: 20
  weight_decay: 1
  weight_decay: 0
  convolution_param {
    num_output: 21
    kernel_size: 1
    weight_filler {
      type: "gaussian"
      std: 0.01
    }
    bias_filler {
      type: "constant"
      value: 0
    }
  }
}
layers {
  bottom: "label"
  top: "label_shrink"
  name: "label_shrink"
  type: INTERP
  interp_param {
    shrink_factor: 8
    pad_beg: 0
    pad_end: 0
  }
}
layers {
  bottom: "fc8_exper/voc12"
  bottom: "label_shrink"
  name: "loss"
  type: SOFTMAX_LOSS
  include {
    phase: TRAIN
  }
  softmaxloss_param {
    ignore_label: 255
  }
}
layers {
  bottom: "fc8_exper/voc12"
  bottom: "label_shrink"
  top: "accuracy"
  name: "accuracy"
  type: SEG_ACCURACY
  seg_accuracy_param {
    ignore_label: 255
  }
}
state {
  phase: TRAIN
}
I0427 23:07:45.906986  7840 layer_factory.hpp:78] Creating layer data
I0427 23:07:45.907006  7840 net.cpp:67] Creating Layer data
I0427 23:07:45.907012  7840 net.cpp:356] data -> data
I0427 23:07:45.907024  7840 net.cpp:356] data -> label
I0427 23:07:45.907032  7840 net.cpp:356] data -> (automatic)
I0427 23:07:45.907037  7840 net.cpp:96] Setting up data
I0427 23:07:45.907042  7840 image_seg_data_layer.cpp:45] Opening file exper/voc12/list/trainval_aug.txt
I0427 23:07:45.918085  7840 image_seg_data_layer.cpp:62] Shuffling data
I0427 23:07:45.920003  7840 image_seg_data_layer.cpp:67] A total of 12031 images.
I0427 23:07:45.924201  7840 image_seg_data_layer.cpp:113] output data size: 12,3,321,321
I0427 23:07:45.924239  7840 image_seg_data_layer.cpp:117] output label size: 12,1,321,321
I0427 23:07:45.924247  7840 image_seg_data_layer.cpp:121] output data_dim size: 12,1,1,2
I0427 23:07:45.928174  7840 net.cpp:103] Top shape: 12 3 321 321 (3709476)
I0427 23:07:45.928231  7840 net.cpp:103] Top shape: 12 1 321 321 (1236492)
I0427 23:07:45.928241  7840 net.cpp:103] Top shape: 12 1 1 2 (24)
I0427 23:07:45.928249  7840 layer_factory.hpp:78] Creating layer conv1_1
I0427 23:07:45.928282  7840 net.cpp:67] Creating Layer conv1_1
I0427 23:07:45.928299  7840 net.cpp:394] conv1_1 <- data
I0427 23:07:45.928318  7840 net.cpp:356] conv1_1 -> conv1_1
I0427 23:07:45.928330  7840 net.cpp:96] Setting up conv1_1
I0427 23:07:45.928506  7840 net.cpp:103] Top shape: 12 64 321 321 (79135488)
I0427 23:07:45.928520  7840 layer_factory.hpp:78] Creating layer relu1_1
I0427 23:07:45.928529  7840 net.cpp:67] Creating Layer relu1_1
I0427 23:07:45.928532  7840 net.cpp:394] relu1_1 <- conv1_1
I0427 23:07:45.928539  7840 net.cpp:345] relu1_1 -> conv1_1 (in-place)
I0427 23:07:45.928545  7840 net.cpp:96] Setting up relu1_1
I0427 23:07:45.928563  7840 net.cpp:103] Top shape: 12 64 321 321 (79135488)
I0427 23:07:45.928567  7840 layer_factory.hpp:78] Creating layer conv1_2
I0427 23:07:45.928573  7840 net.cpp:67] Creating Layer conv1_2
I0427 23:07:45.928577  7840 net.cpp:394] conv1_2 <- conv1_1
I0427 23:07:45.928582  7840 net.cpp:356] conv1_2 -> conv1_2
I0427 23:07:45.928588  7840 net.cpp:96] Setting up conv1_2
I0427 23:07:45.928802  7840 net.cpp:103] Top shape: 12 64 321 321 (79135488)
I0427 23:07:45.928810  7840 layer_factory.hpp:78] Creating layer relu1_2
I0427 23:07:45.928817  7840 net.cpp:67] Creating Layer relu1_2
I0427 23:07:45.928820  7840 net.cpp:394] relu1_2 <- conv1_2
I0427 23:07:45.928825  7840 net.cpp:345] relu1_2 -> conv1_2 (in-place)
I0427 23:07:45.928830  7840 net.cpp:96] Setting up relu1_2
I0427 23:07:45.928834  7840 net.cpp:103] Top shape: 12 64 321 321 (79135488)
I0427 23:07:45.928838  7840 layer_factory.hpp:78] Creating layer pool1
I0427 23:07:45.928844  7840 net.cpp:67] Creating Layer pool1
I0427 23:07:45.928848  7840 net.cpp:394] pool1 <- conv1_2
I0427 23:07:45.928854  7840 net.cpp:356] pool1 -> pool1
I0427 23:07:45.928860  7840 net.cpp:96] Setting up pool1
I0427 23:07:45.928871  7840 net.cpp:103] Top shape: 12 64 161 161 (19907328)
I0427 23:07:45.928875  7840 layer_factory.hpp:78] Creating layer conv2_1
I0427 23:07:45.928880  7840 net.cpp:67] Creating Layer conv2_1
I0427 23:07:45.928884  7840 net.cpp:394] conv2_1 <- pool1
I0427 23:07:45.928889  7840 net.cpp:356] conv2_1 -> conv2_1
I0427 23:07:45.928895  7840 net.cpp:96] Setting up conv2_1
I0427 23:07:45.929047  7840 net.cpp:103] Top shape: 12 128 161 161 (39814656)
I0427 23:07:45.929054  7840 layer_factory.hpp:78] Creating layer relu2_1
I0427 23:07:45.929059  7840 net.cpp:67] Creating Layer relu2_1
I0427 23:07:45.929064  7840 net.cpp:394] relu2_1 <- conv2_1
I0427 23:07:45.929069  7840 net.cpp:345] relu2_1 -> conv2_1 (in-place)
I0427 23:07:45.929075  7840 net.cpp:96] Setting up relu2_1
I0427 23:07:45.929078  7840 net.cpp:103] Top shape: 12 128 161 161 (39814656)
I0427 23:07:45.929083  7840 layer_factory.hpp:78] Creating layer conv2_2
I0427 23:07:45.929088  7840 net.cpp:67] Creating Layer conv2_2
I0427 23:07:45.929092  7840 net.cpp:394] conv2_2 <- conv2_1
I0427 23:07:45.929098  7840 net.cpp:356] conv2_2 -> conv2_2
I0427 23:07:45.929103  7840 net.cpp:96] Setting up conv2_2
I0427 23:07:45.929358  7840 net.cpp:103] Top shape: 12 128 161 161 (39814656)
I0427 23:07:45.929365  7840 layer_factory.hpp:78] Creating layer relu2_2
I0427 23:07:45.929369  7840 net.cpp:67] Creating Layer relu2_2
I0427 23:07:45.929373  7840 net.cpp:394] relu2_2 <- conv2_2
I0427 23:07:45.929379  7840 net.cpp:345] relu2_2 -> conv2_2 (in-place)
I0427 23:07:45.929384  7840 net.cpp:96] Setting up relu2_2
I0427 23:07:45.929419  7840 net.cpp:103] Top shape: 12 128 161 161 (39814656)
I0427 23:07:45.929424  7840 layer_factory.hpp:78] Creating layer pool2
I0427 23:07:45.929428  7840 net.cpp:67] Creating Layer pool2
I0427 23:07:45.929432  7840 net.cpp:394] pool2 <- conv2_2
I0427 23:07:45.929437  7840 net.cpp:356] pool2 -> pool2
I0427 23:07:45.929443  7840 net.cpp:96] Setting up pool2
I0427 23:07:45.929448  7840 net.cpp:103] Top shape: 12 128 81 81 (10077696)
I0427 23:07:45.929452  7840 layer_factory.hpp:78] Creating layer conv3_1
I0427 23:07:45.929458  7840 net.cpp:67] Creating Layer conv3_1
I0427 23:07:45.929462  7840 net.cpp:394] conv3_1 <- pool2
I0427 23:07:45.929467  7840 net.cpp:356] conv3_1 -> conv3_1
I0427 23:07:45.929472  7840 net.cpp:96] Setting up conv3_1
I0427 23:07:45.929900  7840 net.cpp:103] Top shape: 12 256 81 81 (20155392)
I0427 23:07:45.929913  7840 layer_factory.hpp:78] Creating layer relu3_1
I0427 23:07:45.929919  7840 net.cpp:67] Creating Layer relu3_1
I0427 23:07:45.929922  7840 net.cpp:394] relu3_1 <- conv3_1
I0427 23:07:45.929926  7840 net.cpp:345] relu3_1 -> conv3_1 (in-place)
I0427 23:07:45.929931  7840 net.cpp:96] Setting up relu3_1
I0427 23:07:45.929936  7840 net.cpp:103] Top shape: 12 256 81 81 (20155392)
I0427 23:07:45.929940  7840 layer_factory.hpp:78] Creating layer conv3_2
I0427 23:07:45.929945  7840 net.cpp:67] Creating Layer conv3_2
I0427 23:07:45.929949  7840 net.cpp:394] conv3_2 <- conv3_1
I0427 23:07:45.929955  7840 net.cpp:356] conv3_2 -> conv3_2
I0427 23:07:45.929960  7840 net.cpp:96] Setting up conv3_2
I0427 23:07:45.930824  7840 net.cpp:103] Top shape: 12 256 81 81 (20155392)
I0427 23:07:45.930838  7840 layer_factory.hpp:78] Creating layer relu3_2
I0427 23:07:45.930845  7840 net.cpp:67] Creating Layer relu3_2
I0427 23:07:45.930850  7840 net.cpp:394] relu3_2 <- conv3_2
I0427 23:07:45.930855  7840 net.cpp:345] relu3_2 -> conv3_2 (in-place)
I0427 23:07:45.930860  7840 net.cpp:96] Setting up relu3_2
I0427 23:07:45.930863  7840 net.cpp:103] Top shape: 12 256 81 81 (20155392)
I0427 23:07:45.930867  7840 layer_factory.hpp:78] Creating layer conv3_3
I0427 23:07:45.930874  7840 net.cpp:67] Creating Layer conv3_3
I0427 23:07:45.930878  7840 net.cpp:394] conv3_3 <- conv3_2
I0427 23:07:45.930883  7840 net.cpp:356] conv3_3 -> conv3_3
I0427 23:07:45.930888  7840 net.cpp:96] Setting up conv3_3
I0427 23:07:45.931831  7840 net.cpp:103] Top shape: 12 256 81 81 (20155392)
I0427 23:07:45.931862  7840 layer_factory.hpp:78] Creating layer relu3_3
I0427 23:07:45.931874  7840 net.cpp:67] Creating Layer relu3_3
I0427 23:07:45.931879  7840 net.cpp:394] relu3_3 <- conv3_3
I0427 23:07:45.931886  7840 net.cpp:345] relu3_3 -> conv3_3 (in-place)
I0427 23:07:45.931892  7840 net.cpp:96] Setting up relu3_3
I0427 23:07:45.931898  7840 net.cpp:103] Top shape: 12 256 81 81 (20155392)
I0427 23:07:45.931902  7840 layer_factory.hpp:78] Creating layer pool3
I0427 23:07:45.931908  7840 net.cpp:67] Creating Layer pool3
I0427 23:07:45.931912  7840 net.cpp:394] pool3 <- conv3_3
I0427 23:07:45.931917  7840 net.cpp:356] pool3 -> pool3
I0427 23:07:45.931923  7840 net.cpp:96] Setting up pool3
I0427 23:07:45.931929  7840 net.cpp:103] Top shape: 12 256 41 41 (5164032)
I0427 23:07:45.931934  7840 layer_factory.hpp:78] Creating layer conv4_1
I0427 23:07:45.931943  7840 net.cpp:67] Creating Layer conv4_1
I0427 23:07:45.931947  7840 net.cpp:394] conv4_1 <- pool3
I0427 23:07:45.931953  7840 net.cpp:356] conv4_1 -> conv4_1
I0427 23:07:45.931959  7840 net.cpp:96] Setting up conv4_1
I0427 23:07:45.933809  7840 net.cpp:103] Top shape: 12 512 41 41 (10328064)
I0427 23:07:45.933843  7840 layer_factory.hpp:78] Creating layer relu4_1
I0427 23:07:45.933856  7840 net.cpp:67] Creating Layer relu4_1
I0427 23:07:45.933861  7840 net.cpp:394] relu4_1 <- conv4_1
I0427 23:07:45.933869  7840 net.cpp:345] relu4_1 -> conv4_1 (in-place)
I0427 23:07:45.933876  7840 net.cpp:96] Setting up relu4_1
I0427 23:07:45.933881  7840 net.cpp:103] Top shape: 12 512 41 41 (10328064)
I0427 23:07:45.933886  7840 layer_factory.hpp:78] Creating layer conv4_2
I0427 23:07:45.933923  7840 net.cpp:67] Creating Layer conv4_2
I0427 23:07:45.933928  7840 net.cpp:394] conv4_2 <- conv4_1
I0427 23:07:45.933934  7840 net.cpp:356] conv4_2 -> conv4_2
I0427 23:07:45.933940  7840 net.cpp:96] Setting up conv4_2
I0427 23:07:45.936826  7840 net.cpp:103] Top shape: 12 512 41 41 (10328064)
I0427 23:07:45.936852  7840 layer_factory.hpp:78] Creating layer relu4_2
I0427 23:07:45.936859  7840 net.cpp:67] Creating Layer relu4_2
I0427 23:07:45.936863  7840 net.cpp:394] relu4_2 <- conv4_2
I0427 23:07:45.936867  7840 net.cpp:345] relu4_2 -> conv4_2 (in-place)
I0427 23:07:45.936874  7840 net.cpp:96] Setting up relu4_2
I0427 23:07:45.936878  7840 net.cpp:103] Top shape: 12 512 41 41 (10328064)
I0427 23:07:45.936882  7840 layer_factory.hpp:78] Creating layer conv4_3
I0427 23:07:45.936887  7840 net.cpp:67] Creating Layer conv4_3
I0427 23:07:45.936889  7840 net.cpp:394] conv4_3 <- conv4_2
I0427 23:07:45.936892  7840 net.cpp:356] conv4_3 -> conv4_3
I0427 23:07:45.936897  7840 net.cpp:96] Setting up conv4_3
I0427 23:07:45.940654  7840 net.cpp:103] Top shape: 12 512 41 41 (10328064)
I0427 23:07:45.940697  7840 layer_factory.hpp:78] Creating layer relu4_3
I0427 23:07:45.940707  7840 net.cpp:67] Creating Layer relu4_3
I0427 23:07:45.940713  7840 net.cpp:394] relu4_3 <- conv4_3
I0427 23:07:45.940719  7840 net.cpp:345] relu4_3 -> conv4_3 (in-place)
I0427 23:07:45.940727  7840 net.cpp:96] Setting up relu4_3
I0427 23:07:45.940732  7840 net.cpp:103] Top shape: 12 512 41 41 (10328064)
I0427 23:07:45.940737  7840 layer_factory.hpp:78] Creating layer pool4
I0427 23:07:45.940743  7840 net.cpp:67] Creating Layer pool4
I0427 23:07:45.940747  7840 net.cpp:394] pool4 <- conv4_3
I0427 23:07:45.940752  7840 net.cpp:356] pool4 -> pool4
I0427 23:07:45.940762  7840 net.cpp:96] Setting up pool4
I0427 23:07:45.940768  7840 net.cpp:103] Top shape: 12 512 41 41 (10328064)
I0427 23:07:45.940771  7840 layer_factory.hpp:78] Creating layer conv5_1
I0427 23:07:45.940778  7840 net.cpp:67] Creating Layer conv5_1
I0427 23:07:45.940781  7840 net.cpp:394] conv5_1 <- pool4
I0427 23:07:45.940788  7840 net.cpp:356] conv5_1 -> conv5_1
I0427 23:07:45.940793  7840 net.cpp:96] Setting up conv5_1
I0427 23:07:45.945399  7840 net.cpp:103] Top shape: 12 512 41 41 (10328064)
I0427 23:07:45.945454  7840 layer_factory.hpp:78] Creating layer relu5_1
I0427 23:07:45.945467  7840 net.cpp:67] Creating Layer relu5_1
I0427 23:07:45.945474  7840 net.cpp:394] relu5_1 <- conv5_1
I0427 23:07:45.945484  7840 net.cpp:345] relu5_1 -> conv5_1 (in-place)
I0427 23:07:45.945494  7840 net.cpp:96] Setting up relu5_1
I0427 23:07:45.945502  7840 net.cpp:103] Top shape: 12 512 41 41 (10328064)
I0427 23:07:45.945508  7840 layer_factory.hpp:78] Creating layer conv5_2
I0427 23:07:45.945516  7840 net.cpp:67] Creating Layer conv5_2
I0427 23:07:45.945523  7840 net.cpp:394] conv5_2 <- conv5_1
I0427 23:07:45.945530  7840 net.cpp:356] conv5_2 -> conv5_2
I0427 23:07:45.945539  7840 net.cpp:96] Setting up conv5_2
I0427 23:07:45.948989  7840 net.cpp:103] Top shape: 12 512 41 41 (10328064)
I0427 23:07:45.949057  7840 layer_factory.hpp:78] Creating layer relu5_2
I0427 23:07:45.949071  7840 net.cpp:67] Creating Layer relu5_2
I0427 23:07:45.949080  7840 net.cpp:394] relu5_2 <- conv5_2
I0427 23:07:45.949091  7840 net.cpp:345] relu5_2 -> conv5_2 (in-place)
I0427 23:07:45.949105  7840 net.cpp:96] Setting up relu5_2
I0427 23:07:45.949111  7840 net.cpp:103] Top shape: 12 512 41 41 (10328064)
I0427 23:07:45.949118  7840 layer_factory.hpp:78] Creating layer conv5_3
I0427 23:07:45.949128  7840 net.cpp:67] Creating Layer conv5_3
I0427 23:07:45.949134  7840 net.cpp:394] conv5_3 <- conv5_2
I0427 23:07:45.949147  7840 net.cpp:356] conv5_3 -> conv5_3
I0427 23:07:45.949157  7840 net.cpp:96] Setting up conv5_3
I0427 23:07:45.954088  7840 net.cpp:103] Top shape: 12 512 41 41 (10328064)
I0427 23:07:45.954179  7840 layer_factory.hpp:78] Creating layer relu5_3
I0427 23:07:45.954202  7840 net.cpp:67] Creating Layer relu5_3
I0427 23:07:45.954213  7840 net.cpp:394] relu5_3 <- conv5_3
I0427 23:07:45.954226  7840 net.cpp:345] relu5_3 -> conv5_3 (in-place)
I0427 23:07:45.954303  7840 net.cpp:96] Setting up relu5_3
I0427 23:07:45.954310  7840 net.cpp:103] Top shape: 12 512 41 41 (10328064)
I0427 23:07:45.954318  7840 layer_factory.hpp:78] Creating layer pool5
I0427 23:07:45.954329  7840 net.cpp:67] Creating Layer pool5
I0427 23:07:45.954334  7840 net.cpp:394] pool5 <- conv5_3
I0427 23:07:45.954346  7840 net.cpp:356] pool5 -> pool5
I0427 23:07:45.954357  7840 net.cpp:96] Setting up pool5
I0427 23:07:45.954365  7840 net.cpp:103] Top shape: 12 512 41 41 (10328064)
I0427 23:07:45.954372  7840 layer_factory.hpp:78] Creating layer pool5a
I0427 23:07:45.954390  7840 net.cpp:67] Creating Layer pool5a
I0427 23:07:45.954396  7840 net.cpp:394] pool5a <- pool5
I0427 23:07:45.954402  7840 net.cpp:356] pool5a -> pool5a
I0427 23:07:45.954409  7840 net.cpp:96] Setting up pool5a
I0427 23:07:45.954416  7840 net.cpp:103] Top shape: 12 512 41 41 (10328064)
I0427 23:07:45.954422  7840 layer_factory.hpp:78] Creating layer fc6
I0427 23:07:45.954432  7840 net.cpp:67] Creating Layer fc6
I0427 23:07:45.954437  7840 net.cpp:394] fc6 <- pool5a
I0427 23:07:45.954452  7840 net.cpp:356] fc6 -> fc6
I0427 23:07:45.954460  7840 net.cpp:96] Setting up fc6
I0427 23:07:45.963240  7840 net.cpp:103] Top shape: 12 1024 41 41 (20656128)
I0427 23:07:45.963274  7840 layer_factory.hpp:78] Creating layer relu6
I0427 23:07:45.963286  7840 net.cpp:67] Creating Layer relu6
I0427 23:07:45.963291  7840 net.cpp:394] relu6 <- fc6
I0427 23:07:45.963296  7840 net.cpp:345] relu6 -> fc6 (in-place)
I0427 23:07:45.963302  7840 net.cpp:96] Setting up relu6
I0427 23:07:45.963306  7840 net.cpp:103] Top shape: 12 1024 41 41 (20656128)
I0427 23:07:45.963309  7840 layer_factory.hpp:78] Creating layer drop6
I0427 23:07:45.963320  7840 net.cpp:67] Creating Layer drop6
I0427 23:07:45.963321  7840 net.cpp:394] drop6 <- fc6
I0427 23:07:45.963325  7840 net.cpp:345] drop6 -> fc6 (in-place)
I0427 23:07:45.963328  7840 net.cpp:96] Setting up drop6
I0427 23:07:45.963331  7840 net.cpp:103] Top shape: 12 1024 41 41 (20656128)
I0427 23:07:45.963333  7840 layer_factory.hpp:78] Creating layer fc7
I0427 23:07:45.963337  7840 net.cpp:67] Creating Layer fc7
I0427 23:07:45.963340  7840 net.cpp:394] fc7 <- fc6
I0427 23:07:45.963345  7840 net.cpp:356] fc7 -> fc7
I0427 23:07:45.963348  7840 net.cpp:96] Setting up fc7
I0427 23:07:45.964540  7840 net.cpp:103] Top shape: 12 1024 41 41 (20656128)
I0427 23:07:45.964593  7840 layer_factory.hpp:78] Creating layer relu7
I0427 23:07:45.964604  7840 net.cpp:67] Creating Layer relu7
I0427 23:07:45.964610  7840 net.cpp:394] relu7 <- fc7
I0427 23:07:45.964617  7840 net.cpp:345] relu7 -> fc7 (in-place)
I0427 23:07:45.964624  7840 net.cpp:96] Setting up relu7
I0427 23:07:45.964629  7840 net.cpp:103] Top shape: 12 1024 41 41 (20656128)
I0427 23:07:45.964633  7840 layer_factory.hpp:78] Creating layer drop7
I0427 23:07:45.964640  7840 net.cpp:67] Creating Layer drop7
I0427 23:07:45.964644  7840 net.cpp:394] drop7 <- fc7
I0427 23:07:45.964648  7840 net.cpp:345] drop7 -> fc7 (in-place)
I0427 23:07:45.964653  7840 net.cpp:96] Setting up drop7
I0427 23:07:45.964655  7840 net.cpp:103] Top shape: 12 1024 41 41 (20656128)
I0427 23:07:45.964658  7840 layer_factory.hpp:78] Creating layer fc8_exper/voc12
I0427 23:07:45.964665  7840 net.cpp:67] Creating Layer fc8_exper/voc12
I0427 23:07:45.964670  7840 net.cpp:394] fc8_exper/voc12 <- fc7
I0427 23:07:45.964679  7840 net.cpp:356] fc8_exper/voc12 -> fc8_exper/voc12
I0427 23:07:45.964687  7840 net.cpp:96] Setting up fc8_exper/voc12
I0427 23:07:45.965389  7840 net.cpp:103] Top shape: 12 21 41 41 (423612)
I0427 23:07:45.965406  7840 layer_factory.hpp:78] Creating layer fc8_exper/voc12_fc8_exper/voc12_0_split
I0427 23:07:45.965432  7840 net.cpp:67] Creating Layer fc8_exper/voc12_fc8_exper/voc12_0_split
I0427 23:07:45.965437  7840 net.cpp:394] fc8_exper/voc12_fc8_exper/voc12_0_split <- fc8_exper/voc12
I0427 23:07:45.965445  7840 net.cpp:356] fc8_exper/voc12_fc8_exper/voc12_0_split -> fc8_exper/voc12_fc8_exper/voc12_0_split_0
I0427 23:07:45.965453  7840 net.cpp:356] fc8_exper/voc12_fc8_exper/voc12_0_split -> fc8_exper/voc12_fc8_exper/voc12_0_split_1
I0427 23:07:45.965515  7840 net.cpp:96] Setting up fc8_exper/voc12_fc8_exper/voc12_0_split
I0427 23:07:45.965533  7840 net.cpp:103] Top shape: 12 21 41 41 (423612)
I0427 23:07:45.965538  7840 net.cpp:103] Top shape: 12 21 41 41 (423612)
I0427 23:07:45.965543  7840 layer_factory.hpp:78] Creating layer label_shrink
I0427 23:07:45.965553  7840 net.cpp:67] Creating Layer label_shrink
I0427 23:07:45.965559  7840 net.cpp:394] label_shrink <- label
I0427 23:07:45.965565  7840 net.cpp:356] label_shrink -> label_shrink
I0427 23:07:45.965571  7840 net.cpp:96] Setting up label_shrink
I0427 23:07:45.965576  7840 net.cpp:103] Top shape: 12 1 41 41 (20172)
I0427 23:07:45.965579  7840 layer_factory.hpp:78] Creating layer label_shrink_label_shrink_0_split
I0427 23:07:45.965586  7840 net.cpp:67] Creating Layer label_shrink_label_shrink_0_split
I0427 23:07:45.965590  7840 net.cpp:394] label_shrink_label_shrink_0_split <- label_shrink
I0427 23:07:45.965595  7840 net.cpp:356] label_shrink_label_shrink_0_split -> label_shrink_label_shrink_0_split_0
I0427 23:07:45.965600  7840 net.cpp:356] label_shrink_label_shrink_0_split -> label_shrink_label_shrink_0_split_1
I0427 23:07:45.965605  7840 net.cpp:96] Setting up label_shrink_label_shrink_0_split
I0427 23:07:45.965610  7840 net.cpp:103] Top shape: 12 1 41 41 (20172)
I0427 23:07:45.965613  7840 net.cpp:103] Top shape: 12 1 41 41 (20172)
I0427 23:07:45.965616  7840 layer_factory.hpp:78] Creating layer loss
I0427 23:07:45.965631  7840 net.cpp:67] Creating Layer loss
I0427 23:07:45.965636  7840 net.cpp:394] loss <- fc8_exper/voc12_fc8_exper/voc12_0_split_0
I0427 23:07:45.965639  7840 net.cpp:394] loss <- label_shrink_label_shrink_0_split_0
I0427 23:07:45.965647  7840 net.cpp:356] loss -> (automatic)
I0427 23:07:45.965651  7840 net.cpp:96] Setting up loss
I0427 23:07:45.965664  7840 softmax_loss_layer.cpp:40] Weight_Loss file is not provided. Assign all one to it.
I0427 23:07:45.965672  7840 net.cpp:103] Top shape: 1 1 1 1 (1)
I0427 23:07:45.965680  7840 net.cpp:109]     with loss weight 1
I0427 23:07:45.965728  7840 layer_factory.hpp:78] Creating layer accuracy
I0427 23:07:45.965735  7840 net.cpp:67] Creating Layer accuracy
I0427 23:07:45.965739  7840 net.cpp:394] accuracy <- fc8_exper/voc12_fc8_exper/voc12_0_split_1
I0427 23:07:45.965744  7840 net.cpp:394] accuracy <- label_shrink_label_shrink_0_split_1
I0427 23:07:45.965749  7840 net.cpp:356] accuracy -> accuracy
I0427 23:07:45.965755  7840 net.cpp:96] Setting up accuracy
I0427 23:07:45.965765  7840 net.cpp:103] Top shape: 1 1 1 3 (3)
I0427 23:07:45.965770  7840 net.cpp:172] accuracy does not need backward computation.
I0427 23:07:45.965773  7840 net.cpp:170] loss needs backward computation.
I0427 23:07:45.965777  7840 net.cpp:172] label_shrink_label_shrink_0_split does not need backward computation.
I0427 23:07:45.965781  7840 net.cpp:172] label_shrink does not need backward computation.
I0427 23:07:45.965785  7840 net.cpp:170] fc8_exper/voc12_fc8_exper/voc12_0_split needs backward computation.
…
